…
stepsize: 350000
snapshot: 0
snapshot_prefix: "./experiments/activitynet/snapshot/activitynet"
average_loss: 100
iter_size: 1
I0418 04:01:48.006981 31181 solver.cpp:81] Creating training net from train_net file: ./experiments/activitynet/train.prototxt
I0418 04:01:48.008045 31181 net.cpp:58] Initializing net from parameters: 
name: "activitynet"
state {
  phase: TRAIN
}
layer {
  name: "data"
  type: "Python"
  top: "data"
  top: "gt_boxes"
  python_param {
    module: "roi_data_layer.layer"
    layer: "RoIDataLayer"
    param_str: "\'num_classes\': 100"
  }
}
layer {
  name: "conv1a"
  type: "Convolution"
  bottom: "data"
  top: "conv1a"
  param {
    lr_mult: 0
    decay_mult: 0
  }
  param {
    lr_mult: 0
    decay_mult: 0
  }
  convolution_param {
    num_output: 64
    pad: 1
    pad: 1
    pad: 1
    kernel_size: 3
    kernel_size: 3
    kernel_size: 3
    weight_filler {
      type: "gaussian"
      std: 0.01
    }
    bias_filler {
      type: "constant"
      value: 0
    }
  }
}
layer {
  name: "relu1a"
  type: "ReLU"
  bottom: "conv1a"
  top: "conv1a"
}
layer {
  name: "pool1"
  type: "Pooling"
  bottom: "conv1a"
  top: "pool1"
  pooling_param {
    pool: MAX
    kernel_size: 1
    kernel_size: 2
    kernel_size: 2
    stride: 1
    stride: 2
    stride: 2
  }
}
layer {
  name: "conv2a"
  type: "Convolution"
  bottom: "pool1"
  top: "conv2a"
  param {
    lr_mult: 0
    decay_mult: 0
  }
  param {
    lr_mult: 0
    decay_mult: 0
  }
  convolution_param {
    num_output: 128
    pad: 1
    pad: 1
    pad: 1
    kernel_size: 3
    kernel_size: 3
    kernel_size: 3
    weight_filler {
      type: "gaussian"
      std: 0.01
    }
    bias_filler {
      type: "constant"
      value: 1
    }
  }
}
layer {
  name: "relu2a"
  type: "ReLU"
  bottom: "conv2a"
  top: "conv2a"
}
layer {
  name: "pool2"
  type: "Pooling"
  bottom: "conv2a"
  top: "pool2"
  pooling_param {
    pool: MAX
    kernel_size: 2
    kernel_size: 2
    kernel_size: 2
    stride: 2
    stride: 2
    stride: 2
  }
}
layer {
  name: "conv3a"
  type: "Convolution"
  bottom: "pool2"
  top: "conv3a"
  param {
    lr_mult: 1
    decay_mult: 1
  }
  param {
    lr_mult: 2
    decay_mult: 0
  }
  convolution_param {
    num_output: 256
    pad: 1
    pad: 1
    pad: 1
    kernel_size: 3
    kernel_size: 3
    kernel_size: 3
    weight_filler {
      type: "gaussian"
      std: 0.01
    }
    bias_filler {
      type: "constant"
      value: 1
    }
  }
}
layer {
  name: "relu3a"
  type: "ReLU"
  bottom: "conv3a"
  top: "conv3a"
}
layer {
  name: "conv3b"
  type: "Convolution"
  bottom: "conv3a"
  top: "conv3b"
  param {
    lr_mult: 1
    decay_mult: 1
  }
  param {
    lr_mult: 2
    decay_mult: 0
  }
  convolution_param {
    num_output: 256
    pad: 1
    pad: 1
    pad: 1
    kernel_size: 3
    kernel_size: 3
    kernel_size: 3
    weight_filler {
      type: "gaussian"
      std: 0.01
    }
    bias_filler {
      type: "constant"
      value: 1
    }
  }
}
layer {
  name: "relu3b"
  type: "ReLU"
  bottom: "conv3b"
  top: "conv3b"
}
layer {
  name: "pool3"
  type: "Pooling"
  bottom: "conv3b"
  top: "pool3"
  pooling_param {
    pool: MAX
    kernel_size: 2
    kernel_size: 2
    kernel_size: 2
    stride: 2
    stride: 2
    stride: 2
  }
}
layer {
  name: "conv4a"
  type: "Convolution"
  bottom: "pool3"
  top: "conv4a"
  param {
    lr_mult: 1
    decay_mult: 1
  }
  param {
    lr_mult: 2
    decay_mult: 0
  }
  convolution_param {
    num_output: 512
    pad: 1
    pad: 1
    pad: 1
    kernel_size: 3
    kernel_size: 3
    kernel_size: 3
    weight_filler {
      type: "gaussian"
      std: 0.01
    }
    bias_filler {
      type: "constant"
      value: 1
    }
  }
}
layer {
  name: "relu4a"
  type: "ReLU"
  bottom: "conv4a"
  top: "conv4a"
}
layer {
  name: "conv4b"
  type: "Convolution"
  bottom: "conv4a"
  top: "conv4b"
  param {
    lr_mult: 1
    decay_mult: 1
  }
  param {
    lr_mult: 2
    decay_mult: 0
  }
  convolution_param {
    num_output: 512
    pad: 1
    pad: 1
    pad: 1
    kernel_size: 3
    kernel_size: 3
    kernel_size: 3
    weight_filler {
      type: "gaussian"
      std: 0.01
    }
    bias_filler {
      type: "constant"
      value: 1
    }
  }
}
layer {
  name: "relu4b"
  type: "ReLU"
  bottom: "conv4b"
  top: "conv4b"
}
layer {
  name: "pool4"
  type: "Pooling"
  bottom: "conv4b"
  top: "pool4"
  pooling_param {
    pool: MAX
    kernel_size: 2
    kernel_size: 2
    kernel_size: 2
    stride: 2
    stride: 2
    stride: 2
  }
}
layer {
  name: "conv5a"
  type: "Convolution"
  bottom: "pool4"
  top: "conv5a"
  param {
    lr_mult: 1
    decay_mult: 1
  }
  param {
    lr_mult: 2
    decay_mult: 0
  }
  convolution_param {
    num_output: 512
    pad: 1
    pad: 1
    pad: 1
    kernel_size: 3
    kernel_size: 3
    kernel_size: 3
    weight_filler {
      type: "gaussian"
      std: 0.01
    }
    bias_filler {
      type: "constant"
      value: 1
    }
  }
}
layer {
  name: "relu5a"
  type: "ReLU"
  bottom: "conv5a"
  top: "conv5a"
}
layer {
  name: "conv5b"
  type: "Convolution"
  bottom: "conv5a"
  top: "conv5b"
  param {
    lr_mult: 1
    decay_mult: 1
  }
  param {
    lr_mult: 2
    decay_mult: 0
  }
  convolution_param {
    num_output: 512
    pad: 1
    pad: 1
    pad: 1
    kernel_size: 3
    kernel_size: 3
    kernel_size: 3
    weight_filler {
      type: "gaussian"
      std: 0.01
    }
    bias_filler {
      type: "constant"
      value: 1
    }
  }
}
layer {
  name: "relu5b"
  type: "ReLU"
  bottom: "conv5b"
  top: "conv5b"
}
layer {
  name: "rpn_conv/3x3"
  type: "Convolution"
  bottom: "conv5b"
  top: "rpn/output"
  param {
    lr_mult: 1
    decay_mult: 1
  }
  param {
    lr_mult: 2
    decay_mult: 0
  }
  convolution_param {
    num_output: 512
    pad: 1
    pad: 1
    pad: 1
    kernel_size: 3
    kernel_size: 3
    kernel_size: 3
    stride: 1
    stride: 2
    stride: 2
    weight_filler {
      type: "gaussian"
      std: 0.01
    }
    bias_filler {
      type: "constant"
      value: 0
    }
  }
}
layer {
  name: "rpn_relu/3x3"
  type: "ReLU"
  bottom: "rpn/output"
  top: "rpn/output"
}
layer {
  name: "rpn_conv/3x3_2"
  type: "Convolution"
  bottom: "rpn/output"
  top: "rpn/output_2"
  param {
    lr_mult: 1
    decay_mult: 1
  }
  param {
    lr_mult: 2
    decay_mult: 0
  }
  convolution_param {
    num_output: 512
    pad: 1
    pad: 1
    pad: 1
    kernel_size: 3
    kernel_size: 3
    kernel_size: 3
    stride: 1
    stride: 2
    stride: 2
    weight_filler {
      type: "gaussian"
      std: 0.01
    }
    bias_filler {
      type: "constant"
      value: 0
    }
  }
}
layer {
  name: "rpn_relu/3x3_2"
  type: "ReLU"
  bottom: "rpn/output_2"
  top: "rpn/output_2"
}
layer {
  name: "rpn/output_pool"
  type: "Pooling"
  bottom: "rpn/output_2"
  top: "rpn/output_pool"
  pooling_param {
    pool: MAX
    kernel_size: 1
    kernel_size: 2
    kernel_size: 2
  }
}
layer {
  name: "rpn_cls_score"
  type: "Convolution"
  bottom: "rpn/output_pool"
  top: "rpn_cls_score"
  param {
    lr_mult: 1
    decay_mult: 1
  }
  param {
    lr_mult: 2
    decay_mult: 0
  }
  convolution_param {
    num_output: 74
    kernel_size: 1
    kernel_size: 1
    kernel_size: 1
    weight_filler {
      type: "gaussian"
      std: 0.01
    }
    bias_filler {
      type: "constant"
      value: 0
    }
  }
}
layer {
  name: "rpn_twin_pred"
  type: "Convolution"
  bottom: "rpn/output_pool"
  top: "rpn_twin_pred"
  param {
    lr_mult: 1
    decay_mult: 1
  }
  param {
    lr_mult: 2
    decay_mult: 0
  }
  convolution_param {
    num_output: 74
    kernel_size: 1
    kernel_size: 1
    kernel_size: 1
    weight_filler {
      type: "gaussian"
      std: 0.01
    }
    bias_filler {
      type: "constant"
      value: 0
    }
  }
}
layer {
  name: "rpn_cls_score_reshape"
  type: "Reshape"
  bottom: "rpn_cls_score"
  top: "rpn_cls_score_reshape"
  reshape_param {
    shape {
      dim: 0
      dim: 2
      dim: -1
      dim: 0
      dim: 0
    }
  }
}
layer {
  name: "rpn-data"
  type: "Python"
  bottom: "rpn_cls_score"
  bottom: "gt_boxes"
  bottom: "data"
  top: "rpn_labels"
  top: "rpn_twin_targets"
  top: "rpn_twin_inside_weights"
  top: "rpn_twin_outside_weights"
  python_param {
    module: "rpn.anchor_target_layer"
    layer: "AnchorTargetLayer"
    param_str: "\'feat_stride\': 8 \n\'scales\': !!python/tuple [1,1.25, 1.5,1.75, 2,2.5, 3,3.5, 4,4.5, 5,5.5, 6,7, 8,9,10,11,12,14,16,18,20,22,24,28,32,36,40,44,52,60,68,76,84,92,100]"
  }
}
layer {
  name: "rpn_loss_cls"
  type: "SoftmaxWithLoss"
  bottom: "rpn_cls_score_reshape"
  bottom: "rpn_labels"
  top: "rpn_cls_loss"
  loss_weight: 1
  propagate_down: true
  propagate_down: false
  loss_param {
    ignore_label: -1
    normalize: true
  }
}
layer {
  name: "rpn_loss_twin"
  type: "SmoothL1Loss"
  bottom: "rpn_twin_pred"
  bottom: "rpn_twin_targets"
  bottom: "rpn_twin_inside_weights"
  bottom: "rpn_twin_outside_weights"
  top: "rpn_loss_twin"
  loss_weight: 1
  smooth_l1_loss_param {
    sigma: 3
  }
}
layer {
  name: "rpn_accuarcy"
  type: "Accuracy"
  bottom: "rpn_cls_score_reshape"
  bottom: "rpn_labels"
  top: "rpn_accuarcy"
  top: "rpn_accuarcy_class"
  propagate_down: false
  propagate_down: false
  accuracy_param {
    ignore_label: -1
  }
}
layer {
  name: "rpn_cls_prob"
  type: "Softmax"
  bottom: "rpn_cls_score_reshape"
  top: "rpn_cls_prob"
}
layer {
  name: "rpn_cls_prob_reshape"
  type: "Reshape"
  bottom: "rpn_cls_prob"
  top: "rpn_cls_prob_reshape"
  reshape_param {
    shape {
      dim: 0
      dim: 74
      dim: -1
      dim: 0
      dim: 0
    }
  }
}
layer {
  name: "proposal"
  type: "Python"
  bottom: "rpn_cls_prob_reshape"
  bottom: "rpn_twin_pred"
  top: "rpn_rois"
  include {
    phase: TRAIN
  }
  python_param {
    module: "rpn.proposal_layer"
    layer: "ProposalLayer"
    param_str: "\'feat_stride\': 8 \n\'scales\': !!python/tuple [1,1.25, 1.5,1.75, 2,2.5, 3,3.5, 4,4.5, 5,5.5, 6,7, 8,9,10,11,12,14,16,18,20,22,24,28,32,36,40,44,52,60,68,76,84,92,100]"
  }
}
layer {
  name: "roi-data"
  type: "Python"
  bottom: "rpn_rois"
  bottom: "gt_boxes"
  top: "rois"
  top: "labels"
  top: "twin_targets"
  top: "twin_inside_weights"
  top: "twin_outside_weights"
  python_param {
    module: "rpn.proposal_target_layer"
    layer: "ProposalTargetLayer"
    param_str: "\'num_classes\': 99"
  }
}
layer {
  name: "roi_pool5"
  type: "ROIPooling"
  bottom: "conv5b"
  bottom: "rois"
  top: "pool5"
  roi_pooling_param {
    pooled_h: 4
    pooled_w: 4
    spatial_scale: 0.0625
    pooled_l: 1
    temporal_scale: 0.125
  }
}
layer {
  name: "fc6"
  type: "InnerProduct"
  bottom: "pool5"
  top: "fc6"
  param {
    lr_mult: 1
    decay_mult: 1
  }
  param {
    lr_mult: 2
    decay_mult: 0
  }
  inner_product_param {
    num_output: 4096
    weight_filler {
      type: "gaussian"
      std: 0.005
    }
    bias_filler {
      type: "constant"
      value: 1
    }
  }
}
layer {
  name: "relu6"
  type: "ReLU"
  bottom: "fc6"
  top: "fc6"
}
layer {
  name: "drop6"
  type: "Dropout"
  bottom: "fc6"
  top: "fc6"
  dropout_param {
    dropout_ratio: 0.5
  }
}
layer {
  name: "cls_score"
  type: "InnerProduct"
  bottom: "fc6"
  top: "cls_score"
  param {
    lr_mult: 1
    decay_mult: 1
  }
  param {
    lr_mult: 2
    decay_mult: 0
  }
  inner_product_param {
    num_output: 9900
    weight_filler {
      type: "gaussian"
      std: 0.01
    }
    bias_filler {
      type: "constant"
      value: 0
    }
  }
}
layer {
  name: "twin_pred"
  type: "InnerProduct"
  bottom: "fc6"
  top: "twin_pred"
  param {
    lr_mult: 1
    decay_mult: 1
  }
  param {
    lr_mult: 2
    decay_mult: 0
  }
  inner_product_param {
    num_output: 198
    weight_filler {
      type: "gaussian"
      std: 0.001
    }
    bias_filler {
      type: "constant"
      value: 0
    }
  }
}
layer {
  name: "loss_cls"
  type: "SoftmaxWithLoss"
  bottom: "cls_score"
  bottom: "labels"
  top: "loss_cls"
  loss_weight: 1
  propagate_down: true
  propagate_down: false
}
layer {
  name: "loss_twin"
  type: "SmoothL1Loss"
  bottom: "twin_pred"
  bottom: "twin_targets"
  bottom: "twin_inside_weights"
  bottom: "twin_outside_weights"
  top: "loss_twin"
  loss_weight: 1
}
layer {
  name: "accuarcy"
  type: "Accuracy"
  bottom: "cls_score"
  bottom: "labels"
  top: "accuarcy"
  propagate_down: false
  propagate_down: false
  accuracy_param {
    ignore_label: -1
  }
}
I0418 04:01:48.008256 31181 layer_factory.hpp:77] Creating layer data
I0418 04:01:48.033561 31181 net.cpp:100] Creating Layer data
I0418 04:01:48.033593 31181 net.cpp:408] data -> data
I0418 04:01:48.033607 31181 net.cpp:408] data -> gt_boxes
setting up
has rpn
RoiDataLayer: name_to_top: {'gt_windows': 1, 'data': 0}
I0418 04:01:48.047108 31181 net.cpp:150] Setting up data
I0418 04:01:48.047130 31181 net.cpp:157] Top shape: 1 3 768 112 112 (28901376)
I0418 04:01:48.047135 31181 net.cpp:157] Top shape: 1 101 (101)
I0418 04:01:48.047138 31181 net.cpp:165] Memory required for data: 115605908
I0418 04:01:48.047145 31181 layer_factory.hpp:77] Creating layer data_data_0_split
I0418 04:01:48.047158 31181 net.cpp:100] Creating Layer data_data_0_split
I0418 04:01:48.047161 31181 net.cpp:434] data_data_0_split <- data
I0418 04:01:48.047168 31181 net.cpp:408] data_data_0_split -> data_data_0_split_0
I0418 04:01:48.047176 31181 net.cpp:408] data_data_0_split -> data_data_0_split_1
I0418 04:01:48.047205 31181 net.cpp:150] Setting up data_data_0_split
I0418 04:01:48.047211 31181 net.cpp:157] Top shape: 1 3 768 112 112 (28901376)
I0418 04:01:48.047215 31181 net.cpp:157] Top shape: 1 3 768 112 112 (28901376)
I0418 04:01:48.047219 31181 net.cpp:165] Memory required for data: 346816916
I0418 04:01:48.047221 31181 layer_factory.hpp:77] Creating layer gt_boxes_data_1_split
I0418 04:01:48.047227 31181 net.cpp:100] Creating Layer gt_boxes_data_1_split
I0418 04:01:48.047230 31181 net.cpp:434] gt_boxes_data_1_split <- gt_boxes
I0418 04:01:48.047235 31181 net.cpp:408] gt_boxes_data_1_split -> gt_boxes_data_1_split_0
I0418 04:01:48.047240 31181 net.cpp:408] gt_boxes_data_1_split -> gt_boxes_data_1_split_1
I0418 04:01:48.047263 31181 net.cpp:150] Setting up gt_boxes_data_1_split
I0418 04:01:48.047268 31181 net.cpp:157] Top shape: 1 101 (101)
I0418 04:01:48.047272 31181 net.cpp:157] Top shape: 1 101 (101)
I0418 04:01:48.047274 31181 net.cpp:165] Memory required for data: 346817724
I0418 04:01:48.047278 31181 layer_factory.hpp:77] Creating layer conv1a
I0418 04:01:48.047291 31181 net.cpp:100] Creating Layer conv1a
I0418 04:01:48.047296 31181 net.cpp:434] conv1a <- data_data_0_split_0
I0418 04:01:48.047302 31181 net.cpp:408] conv1a -> conv1a
I0418 04:01:48.242074 31181 net.cpp:150] Setting up conv1a
I0418 04:01:48.242105 31181 net.cpp:157] Top shape: 1 64 768 112 112 (616562688)
I0418 04:01:48.242110 31181 net.cpp:165] Memory required for data: 2813068476
I0418 04:01:48.242130 31181 layer_factory.hpp:77] Creating layer relu1a
I0418 04:01:48.242143 31181 net.cpp:100] Creating Layer relu1a
I0418 04:01:48.242151 31181 net.cpp:434] relu1a <- conv1a
I0418 04:01:48.242161 31181 net.cpp:395] relu1a -> conv1a (in-place)
I0418 04:01:48.242601 31181 net.cpp:150] Setting up relu1a
I0418 04:01:48.242614 31181 net.cpp:157] Top shape: 1 64 768 112 112 (616562688)
I0418 04:01:48.242619 31181 net.cpp:165] Memory required for data: 5279319228
I0418 04:01:48.242622 31181 layer_factory.hpp:77] Creating layer pool1
I0418 04:01:48.242631 31181 net.cpp:100] Creating Layer pool1
I0418 04:01:48.242635 31181 net.cpp:434] pool1 <- conv1a
I0418 04:01:48.242640 31181 net.cpp:408] pool1 -> pool1
I0418 04:01:48.242835 31181 net.cpp:150] Setting up pool1
I0418 04:01:48.242844 31181 net.cpp:157] Top shape: 1 64 768 56 56 (154140672)
I0418 04:01:48.242848 31181 net.cpp:165] Memory required for data: 5895881916
I0418 04:01:48.242852 31181 layer_factory.hpp:77] Creating layer conv2a
I0418 04:01:48.242863 31181 net.cpp:100] Creating Layer conv2a
I0418 04:01:48.242871 31181 net.cpp:434] conv2a <- pool1
I0418 04:01:48.242877 31181 net.cpp:408] conv2a -> conv2a
I0418 04:01:48.253971 31181 net.cpp:150] Setting up conv2a
I0418 04:01:48.253993 31181 net.cpp:157] Top shape: 1 128 768 56 56 (308281344)
I0418 04:01:48.253996 31181 net.cpp:165] Memory required for data: 7129007292
I0418 04:01:48.254006 31181 layer_factory.hpp:77] Creating layer relu2a
I0418 04:01:48.254014 31181 net.cpp:100] Creating Layer relu2a
I0418 04:01:48.254019 31181 net.cpp:434] relu2a <- conv2a
I0418 04:01:48.254024 31181 net.cpp:395] relu2a -> conv2a (in-place)
I0418 04:01:48.254384 31181 net.cpp:150] Setting up relu2a
I0418 04:01:48.254396 31181 net.cpp:157] Top shape: 1 128 768 56 56 (308281344)
I0418 04:01:48.254400 31181 net.cpp:165] Memory required for data: 8362132668
I0418 04:01:48.254403 31181 layer_factory.hpp:77] Creating layer pool2
I0418 04:01:48.254412 31181 net.cpp:100] Creating Layer pool2
I0418 04:01:48.254416 31181 net.cpp:434] pool2 <- conv2a
I0418 04:01:48.254421 31181 net.cpp:408] pool2 -> pool2
I0418 04:01:48.254622 31181 net.cpp:150] Setting up pool2
I0418 04:01:48.254637 31181 net.cpp:157] Top shape: 1 128 384 28 28 (38535168)
I0418 04:01:48.254639 31181 net.cpp:165] Memory required for data: 8516273340
I0418 04:01:48.254643 31181 layer_factory.hpp:77] Creating layer conv3a
I0418 04:01:48.254654 31181 net.cpp:100] Creating Layer conv3a
I0418 04:01:48.254660 31181 net.cpp:434] conv3a <- pool2
I0418 04:01:48.254667 31181 net.cpp:408] conv3a -> conv3a
I0418 04:01:48.280195 31181 net.cpp:150] Setting up conv3a
I0418 04:01:48.280215 31181 net.cpp:157] Top shape: 1 256 384 28 28 (77070336)
I0418 04:01:48.280220 31181 net.cpp:165] Memory required for data: 8824554684
I0418 04:01:48.280231 31181 layer_factory.hpp:77] Creating layer relu3a
I0418 04:01:48.280239 31181 net.cpp:100] Creating Layer relu3a
I0418 04:01:48.280243 31181 net.cpp:434] relu3a <- conv3a
I0418 04:01:48.280249 31181 net.cpp:395] relu3a -> conv3a (in-place)
I0418 04:01:48.280561 31181 net.cpp:150] Setting up relu3a
I0418 04:01:48.280573 31181 net.cpp:157] Top shape: 1 256 384 28 28 (77070336)
I0418 04:01:48.280577 31181 net.cpp:165] Memory required for data: 9132836028
I0418 04:01:48.280583 31181 layer_factory.hpp:77] Creating layer conv3b
I0418 04:01:48.280597 31181 net.cpp:100] Creating Layer conv3b
I0418 04:01:48.280604 31181 net.cpp:434] conv3b <- conv3a
I0418 04:01:48.280614 31181 net.cpp:408] conv3b -> conv3b
I0418 04:01:48.330862 31181 net.cpp:150] Setting up conv3b
I0418 04:01:48.330893 31181 net.cpp:157] Top shape: 1 256 384 28 28 (77070336)
I0418 04:01:48.330901 31181 net.cpp:165] Memory required for data: 9441117372
I0418 04:01:48.330915 31181 layer_factory.hpp:77] Creating layer relu3b
I0418 04:01:48.330929 31181 net.cpp:100] Creating Layer relu3b
I0418 04:01:48.330935 31181 net.cpp:434] relu3b <- conv3b
I0418 04:01:48.330950 31181 net.cpp:395] relu3b -> conv3b (in-place)
I0418 04:01:48.331274 31181 net.cpp:150] Setting up relu3b
I0418 04:01:48.331286 31181 net.cpp:157] Top shape: 1 256 384 28 28 (77070336)
I0418 04:01:48.331290 31181 net.cpp:165] Memory required for data: 9749398716
I0418 04:01:48.331293 31181 layer_factory.hpp:77] Creating layer pool3
I0418 04:01:48.331302 31181 net.cpp:100] Creating Layer pool3
I0418 04:01:48.331305 31181 net.cpp:434] pool3 <- conv3b
I0418 04:01:48.331312 31181 net.cpp:408] pool3 -> pool3
I0418 04:01:48.331529 31181 net.cpp:150] Setting up pool3
I0418 04:01:48.331542 31181 net.cpp:157] Top shape: 1 256 192 14 14 (9633792)
I0418 04:01:48.331547 31181 net.cpp:165] Memory required for data: 9787933884
I0418 04:01:48.331549 31181 layer_factory.hpp:77] Creating layer conv4a
I0418 04:01:48.331562 31181 net.cpp:100] Creating Layer conv4a
I0418 04:01:48.331570 31181 net.cpp:434] conv4a <- pool3
I0418 04:01:48.331579 31181 net.cpp:408] conv4a -> conv4a
I0418 04:01:48.433184 31181 net.cpp:150] Setting up conv4a
I0418 04:01:48.433207 31181 net.cpp:157] Top shape: 1 512 192 14 14 (19267584)
I0418 04:01:48.433212 31181 net.cpp:165] Memory required for data: 9865004220
I0418 04:01:48.433223 31181 layer_factory.hpp:77] Creating layer relu4a
I0418 04:01:48.433233 31181 net.cpp:100] Creating Layer relu4a
I0418 04:01:48.433238 31181 net.cpp:434] relu4a <- conv4a
I0418 04:01:48.433244 31181 net.cpp:395] relu4a -> conv4a (in-place)
I0418 04:01:48.433544 31181 net.cpp:150] Setting up relu4a
I0418 04:01:48.433557 31181 net.cpp:157] Top shape: 1 512 192 14 14 (19267584)
I0418 04:01:48.433562 31181 net.cpp:165] Memory required for data: 9942074556
I0418 04:01:48.433564 31181 layer_factory.hpp:77] Creating layer conv4b
I0418 04:01:48.433578 31181 net.cpp:100] Creating Layer conv4b
I0418 04:01:48.433583 31181 net.cpp:434] conv4b <- conv4a
I0418 04:01:48.433590 31181 net.cpp:408] conv4b -> conv4b
I0418 04:01:48.625620 31181 net.cpp:150] Setting up conv4b
I0418 04:01:48.625650 31181 net.cpp:157] Top shape: 1 512 192 14 14 (19267584)
I0418 04:01:48.625656 31181 net.cpp:165] Memory required for data: 10019144892
I0418 04:01:48.625669 31181 layer_factory.hpp:77] Creating layer relu4b
I0418 04:01:48.625680 31181 net.cpp:100] Creating Layer relu4b
I0418 04:01:48.625687 31181 net.cpp:434] relu4b <- conv4b
I0418 04:01:48.625700 31181 net.cpp:395] relu4b -> conv4b (in-place)
I0418 04:01:48.625919 31181 net.cpp:150] Setting up relu4b
I0418 04:01:48.625936 31181 net.cpp:157] Top shape: 1 512 192 14 14 (19267584)
I0418 04:01:48.625942 31181 net.cpp:165] Memory required for data: 10096215228
I0418 04:01:48.625948 31181 layer_factory.hpp:77] Creating layer pool4
I0418 04:01:48.625958 31181 net.cpp:100] Creating Layer pool4
I0418 04:01:48.625967 31181 net.cpp:434] pool4 <- conv4b
I0418 04:01:48.625978 31181 net.cpp:408] pool4 -> pool4
I0418 04:01:48.626351 31181 net.cpp:150] Setting up pool4
I0418 04:01:48.626365 31181 net.cpp:157] Top shape: 1 512 96 7 7 (2408448)
I0418 04:01:48.626371 31181 net.cpp:165] Memory required for data: 10105849020
I0418 04:01:48.626376 31181 layer_factory.hpp:77] Creating layer conv5a
I0418 04:01:48.626389 31181 net.cpp:100] Creating Layer conv5a
I0418 04:01:48.626394 31181 net.cpp:434] conv5a <- pool4
I0418 04:01:48.626402 31181 net.cpp:408] conv5a -> conv5a
I0418 04:01:48.815999 31181 net.cpp:150] Setting up conv5a
I0418 04:01:48.816022 31181 net.cpp:157] Top shape: 1 512 96 7 7 (2408448)
I0418 04:01:48.816026 31181 net.cpp:165] Memory required for data: 10115482812
I0418 04:01:48.816035 31181 layer_factory.hpp:77] Creating layer relu5a
I0418 04:01:48.816043 31181 net.cpp:100] Creating Layer relu5a
I0418 04:01:48.816048 31181 net.cpp:434] relu5a <- conv5a
I0418 04:01:48.816056 31181 net.cpp:395] relu5a -> conv5a (in-place)
I0418 04:01:48.818208 31181 net.cpp:150] Setting up relu5a
I0418 04:01:48.818222 31181 net.cpp:157] Top shape: 1 512 96 7 7 (2408448)
I0418 04:01:48.818225 31181 net.cpp:165] Memory required for data: 10125116604
I0418 04:01:48.818228 31181 layer_factory.hpp:77] Creating layer conv5b
I0418 04:01:48.818239 31181 net.cpp:100] Creating Layer conv5b
I0418 04:01:48.818243 31181 net.cpp:434] conv5b <- conv5a
I0418 04:01:48.818253 31181 net.cpp:408] conv5b -> conv5b
I0418 04:01:49.011349 31181 net.cpp:150] Setting up conv5b
I0418 04:01:49.011381 31181 net.cpp:157] Top shape: 1 512 96 7 7 (2408448)
I0418 04:01:49.011385 31181 net.cpp:165] Memory required for data: 10134750396
I0418 04:01:49.011394 31181 layer_factory.hpp:77] Creating layer relu5b
I0418 04:01:49.011402 31181 net.cpp:100] Creating Layer relu5b
I0418 04:01:49.011407 31181 net.cpp:434] relu5b <- conv5b
I0418 04:01:49.011412 31181 net.cpp:395] relu5b -> conv5b (in-place)
I0418 04:01:49.011560 31181 net.cpp:150] Setting up relu5b
I0418 04:01:49.011569 31181 net.cpp:157] Top shape: 1 512 96 7 7 (2408448)
I0418 04:01:49.011574 31181 net.cpp:165] Memory required for data: 10144384188
I0418 04:01:49.011577 31181 layer_factory.hpp:77] Creating layer conv5b_relu5b_0_split
I0418 04:01:49.011582 31181 net.cpp:100] Creating Layer conv5b_relu5b_0_split
I0418 04:01:49.011585 31181 net.cpp:434] conv5b_relu5b_0_split <- conv5b
I0418 04:01:49.011591 31181 net.cpp:408] conv5b_relu5b_0_split -> conv5b_relu5b_0_split_0
I0418 04:01:49.011597 31181 net.cpp:408] conv5b_relu5b_0_split -> conv5b_relu5b_0_split_1
I0418 04:01:49.011632 31181 net.cpp:150] Setting up conv5b_relu5b_0_split
I0418 04:01:49.011639 31181 net.cpp:157] Top shape: 1 512 96 7 7 (2408448)
I0418 04:01:49.011643 31181 net.cpp:157] Top shape: 1 512 96 7 7 (2408448)
I0418 04:01:49.011646 31181 net.cpp:165] Memory required for data: 10163651772
I0418 04:01:49.011649 31181 layer_factory.hpp:77] Creating layer rpn_conv/3x3
I0418 04:01:49.011662 31181 net.cpp:100] Creating Layer rpn_conv/3x3
I0418 04:01:49.011668 31181 net.cpp:434] rpn_conv/3x3 <- conv5b_relu5b_0_split_0
I0418 04:01:49.011674 31181 net.cpp:408] rpn_conv/3x3 -> rpn/output
I0418 04:01:49.206395 31181 net.cpp:150] Setting up rpn_conv/3x3
I0418 04:01:49.206423 31181 net.cpp:157] Top shape: 1 512 96 4 4 (786432)
I0418 04:01:49.206431 31181 net.cpp:165] Memory required for data: 10166797500
I0418 04:01:49.206447 31181 layer_factory.hpp:77] Creating layer rpn_relu/3x3
I0418 04:01:49.206465 31181 net.cpp:100] Creating Layer rpn_relu/3x3
I0418 04:01:49.206473 31181 net.cpp:434] rpn_relu/3x3 <- rpn/output
I0418 04:01:49.206480 31181 net.cpp:395] rpn_relu/3x3 -> rpn/output (in-place)
I0418 04:01:49.206812 31181 net.cpp:150] Setting up rpn_relu/3x3
I0418 04:01:49.206825 31181 net.cpp:157] Top shape: 1 512 96 4 4 (786432)
I0418 04:01:49.206828 31181 net.cpp:165] Memory required for data: 10169943228
I0418 04:01:49.206831 31181 layer_factory.hpp:77] Creating layer rpn_conv/3x3_2
I0418 04:01:49.206843 31181 net.cpp:100] Creating Layer rpn_conv/3x3_2
I0418 04:01:49.206847 31181 net.cpp:434] rpn_conv/3x3_2 <- rpn/output
I0418 04:01:49.206853 31181 net.cpp:408] rpn_conv/3x3_2 -> rpn/output_2
I0418 04:01:49.401460 31181 net.cpp:150] Setting up rpn_conv/3x3_2
I0418 04:01:49.401484 31181 net.cpp:157] Top shape: 1 512 96 2 2 (196608)
I0418 04:01:49.401489 31181 net.cpp:165] Memory required for data: 10170729660
I0418 04:01:49.401502 31181 layer_factory.hpp:77] Creating layer rpn_relu/3x3_2
I0418 04:01:49.401513 31181 net.cpp:100] Creating Layer rpn_relu/3x3_2
I0418 04:01:49.401517 31181 net.cpp:434] rpn_relu/3x3_2 <- rpn/output_2
I0418 04:01:49.401523 31181 net.cpp:395] rpn_relu/3x3_2 -> rpn/output_2 (in-place)
I0418 04:01:49.401943 31181 net.cpp:150] Setting up rpn_relu/3x3_2
I0418 04:01:49.401957 31181 net.cpp:157] Top shape: 1 512 96 2 2 (196608)
I0418 04:01:49.401960 31181 net.cpp:165] Memory required for data: 10171516092
I0418 04:01:49.401964 31181 layer_factory.hpp:77] Creating layer rpn/output_pool
I0418 04:01:49.401973 31181 net.cpp:100] Creating Layer rpn/output_pool
I0418 04:01:49.401978 31181 net.cpp:434] rpn/output_pool <- rpn/output_2
I0418 04:01:49.401983 31181 net.cpp:408] rpn/output_pool -> rpn/output_pool
I0418 04:01:49.402178 31181 net.cpp:150] Setting up rpn/output_pool
I0418 04:01:49.402194 31181 net.cpp:157] Top shape: 1 512 96 1 1 (49152)
I0418 04:01:49.402200 31181 net.cpp:165] Memory required for data: 10171712700
I0418 04:01:49.402206 31181 layer_factory.hpp:77] Creating layer rpn/output_pool_rpn/output_pool_0_split
I0418 04:01:49.402216 31181 net.cpp:100] Creating Layer rpn/output_pool_rpn/output_pool_0_split
I0418 04:01:49.402226 31181 net.cpp:434] rpn/output_pool_rpn/output_pool_0_split <- rpn/output_pool
I0418 04:01:49.402236 31181 net.cpp:408] rpn/output_pool_rpn/output_pool_0_split -> rpn/output_pool_rpn/output_pool_0_split_0
I0418 04:01:49.402245 31181 net.cpp:408] rpn/output_pool_rpn/output_pool_0_split -> rpn/output_pool_rpn/output_pool_0_split_1
I0418 04:01:49.402290 31181 net.cpp:150] Setting up rpn/output_pool_rpn/output_pool_0_split
I0418 04:01:49.402303 31181 net.cpp:157] Top shape: 1 512 96 1 1 (49152)
I0418 04:01:49.402310 31181 net.cpp:157] Top shape: 1 512 96 1 1 (49152)
I0418 04:01:49.402313 31181 net.cpp:165] Memory required for data: 10172105916
I0418 04:01:49.402317 31181 layer_factory.hpp:77] Creating layer rpn_cls_score
I0418 04:01:49.402326 31181 net.cpp:100] Creating Layer rpn_cls_score
I0418 04:01:49.402333 31181 net.cpp:434] rpn_cls_score <- rpn/output_pool_rpn/output_pool_0_split_0
I0418 04:01:49.402339 31181 net.cpp:408] rpn_cls_score -> rpn_cls_score
I0418 04:01:49.405916 31181 net.cpp:150] Setting up rpn_cls_score
I0418 04:01:49.405933 31181 net.cpp:157] Top shape: 1 74 96 1 1 (7104)
I0418 04:01:49.405938 31181 net.cpp:165] Memory required for data: 10172134332
I0418 04:01:49.405949 31181 layer_factory.hpp:77] Creating layer rpn_cls_score_rpn_cls_score_0_split
I0418 04:01:49.405961 31181 net.cpp:100] Creating Layer rpn_cls_score_rpn_cls_score_0_split
I0418 04:01:49.405969 31181 net.cpp:434] rpn_cls_score_rpn_cls_score_0_split <- rpn_cls_score
I0418 04:01:49.405977 31181 net.cpp:408] rpn_cls_score_rpn_cls_score_0_split -> rpn_cls_score_rpn_cls_score_0_split_0
I0418 04:01:49.405987 31181 net.cpp:408] rpn_cls_score_rpn_cls_score_0_split -> rpn_cls_score_rpn_cls_score_0_split_1
I0418 04:01:49.406045 31181 net.cpp:150] Setting up rpn_cls_score_rpn_cls_score_0_split
I0418 04:01:49.406057 31181 net.cpp:157] Top shape: 1 74 96 1 1 (7104)
I0418 04:01:49.406064 31181 net.cpp:157] Top shape: 1 74 96 1 1 (7104)
I0418 04:01:49.406069 31181 net.cpp:165] Memory required for data: 10172191164
I0418 04:01:49.406075 31181 layer_factory.hpp:77] Creating layer rpn_twin_pred
I0418 04:01:49.406096 31181 net.cpp:100] Creating Layer rpn_twin_pred
I0418 04:01:49.406105 31181 net.cpp:434] rpn_twin_pred <- rpn/output_pool_rpn/output_pool_0_split_1
I0418 04:01:49.406114 31181 net.cpp:408] rpn_twin_pred -> rpn_twin_pred
I0418 04:01:49.408944 31181 net.cpp:150] Setting up rpn_twin_pred
I0418 04:01:49.408968 31181 net.cpp:157] Top shape: 1 74 96 1 1 (7104)
I0418 04:01:49.408972 31181 net.cpp:165] Memory required for data: 10172219580
I0418 04:01:49.408978 31181 layer_factory.hpp:77] Creating layer rpn_twin_pred_rpn_twin_pred_0_split
I0418 04:01:49.408984 31181 net.cpp:100] Creating Layer rpn_twin_pred_rpn_twin_pred_0_split
I0418 04:01:49.408989 31181 net.cpp:434] rpn_twin_pred_rpn_twin_pred_0_split <- rpn_twin_pred
I0418 04:01:49.408998 31181 net.cpp:408] rpn_twin_pred_rpn_twin_pred_0_split -> rpn_twin_pred_rpn_twin_pred_0_split_0
I0418 04:01:49.409003 31181 net.cpp:408] rpn_twin_pred_rpn_twin_pred_0_split -> rpn_twin_pred_rpn_twin_pred_0_split_1
I0418 04:01:49.409039 31181 net.cpp:150] Setting up rpn_twin_pred_rpn_twin_pred_0_split
I0418 04:01:49.409046 31181 net.cpp:157] Top shape: 1 74 96 1 1 (7104)
I0418 04:01:49.409050 31181 net.cpp:157] Top shape: 1 74 96 1 1 (7104)
I0418 04:01:49.409054 31181 net.cpp:165] Memory required for data: 10172276412
I0418 04:01:49.409057 31181 layer_factory.hpp:77] Creating layer rpn_cls_score_reshape
I0418 04:01:49.409066 31181 net.cpp:100] Creating Layer rpn_cls_score_reshape
I0418 04:01:49.409073 31181 net.cpp:434] rpn_cls_score_reshape <- rpn_cls_score_rpn_cls_score_0_split_0
I0418 04:01:49.409078 31181 net.cpp:408] rpn_cls_score_reshape -> rpn_cls_score_reshape
I0418 04:01:49.409107 31181 net.cpp:150] Setting up rpn_cls_score_reshape
I0418 04:01:49.409116 31181 net.cpp:157] Top shape: 1 2 3552 1 1 (7104)
I0418 04:01:49.409117 31181 net.cpp:165] Memory required for data: 10172304828
I0418 04:01:49.409121 31181 layer_factory.hpp:77] Creating layer rpn_cls_score_reshape_rpn_cls_score_reshape_0_split
I0418 04:01:49.409127 31181 net.cpp:100] Creating Layer rpn_cls_score_reshape_rpn_cls_score_reshape_0_split
I0418 04:01:49.409132 31181 net.cpp:434] rpn_cls_score_reshape_rpn_cls_score_reshape_0_split <- rpn_cls_score_reshape
I0418 04:01:49.409137 31181 net.cpp:408] rpn_cls_score_reshape_rpn_cls_score_reshape_0_split -> rpn_cls_score_reshape_rpn_cls_score_reshape_0_split_0
I0418 04:01:49.409152 31181 net.cpp:408] rpn_cls_score_reshape_rpn_cls_score_reshape_0_split -> rpn_cls_score_reshape_rpn_cls_score_reshape_0_split_1
I0418 04:01:49.409157 31181 net.cpp:408] rpn_cls_score_reshape_rpn_cls_score_reshape_0_split -> rpn_cls_score_reshape_rpn_cls_score_reshape_0_split_2
I0418 04:01:49.409199 31181 net.cpp:150] Setting up rpn_cls_score_reshape_rpn_cls_score_reshape_0_split
I0418 04:01:49.409207 31181 net.cpp:157] Top shape: 1 2 3552 1 1 (7104)
I0418 04:01:49.409211 31181 net.cpp:157] Top shape: 1 2 3552 1 1 (7104)
I0418 04:01:49.409215 31181 net.cpp:157] Top shape: 1 2 3552 1 1 (7104)
I0418 04:01:49.409219 31181 net.cpp:165] Memory required for data: 10172390076
I0418 04:01:49.409221 31181 layer_factory.hpp:77] Creating layer rpn-data
I0418 04:01:49.409622 31181 net.cpp:100] Creating Layer rpn-data
I0418 04:01:49.409636 31181 net.cpp:434] rpn-data <- rpn_cls_score_rpn_cls_score_0_split_1
I0418 04:01:49.409646 31181 net.cpp:434] rpn-data <- gt_boxes_data_1_split_0
I0418 04:01:49.409652 31181 net.cpp:434] rpn-data <- data_data_0_split_1
I0418 04:01:49.409664 31181 net.cpp:408] rpn-data -> rpn_labels
I0418 04:01:49.409673 31181 net.cpp:408] rpn-data -> rpn_twin_targets
I0418 04:01:49.409682 31181 net.cpp:408] rpn-data -> rpn_twin_inside_weights
I0418 04:01:49.409690 31181 net.cpp:408] rpn-data -> rpn_twin_outside_weights
I0418 04:01:49.411996 31181 net.cpp:150] Setting up rpn-data
I0418 04:01:49.412010 31181 net.cpp:157] Top shape: 1 1 3552 1 1 (3552)
I0418 04:01:49.412015 31181 net.cpp:157] Top shape: 1 74 96 1 1 (7104)
I0418 04:01:49.412019 31181 net.cpp:157] Top shape: 1 74 96 1 1 (7104)
I0418 04:01:49.412022 31181 net.cpp:157] Top shape: 1 74 96 1 1 (7104)
I0418 04:01:49.412026 31181 net.cpp:165] Memory required for data: 10172489532
I0418 04:01:49.412030 31181 layer_factory.hpp:77] Creating layer rpn_labels_rpn-data_0_split
I0418 04:01:49.412035 31181 net.cpp:100] Creating Layer rpn_labels_rpn-data_0_split
I0418 04:01:49.412039 31181 net.cpp:434] rpn_labels_rpn-data_0_split <- rpn_labels
I0418 04:01:49.412045 31181 net.cpp:408] rpn_labels_rpn-data_0_split -> rpn_labels_rpn-data_0_split_0
I0418 04:01:49.412051 31181 net.cpp:408] rpn_labels_rpn-data_0_split -> rpn_labels_rpn-data_0_split_1
I0418 04:01:49.412082 31181 net.cpp:150] Setting up rpn_labels_rpn-data_0_split
I0418 04:01:49.412089 31181 net.cpp:157] Top shape: 1 1 3552 1 1 (3552)
I0418 04:01:49.412092 31181 net.cpp:157] Top shape: 1 1 3552 1 1 (3552)
I0418 04:01:49.412096 31181 net.cpp:165] Memory required for data: 10172517948
I0418 04:01:49.412099 31181 layer_factory.hpp:77] Creating layer rpn_loss_cls
I0418 04:01:49.412107 31181 net.cpp:100] Creating Layer rpn_loss_cls
I0418 04:01:49.412113 31181 net.cpp:434] rpn_loss_cls <- rpn_cls_score_reshape_rpn_cls_score_reshape_0_split_0
I0418 04:01:49.412117 31181 net.cpp:434] rpn_loss_cls <- rpn_labels_rpn-data_0_split_0
…
I0418 04:01:49.412668 31181 layer_factory.hpp:77] Creating layer rpn_accuarcy
I0418 04:01:49.412678 31181 net.cpp:100] Creating Layer rpn_accuarcy
I0418 04:01:49.412683 31181 net.cpp:434] rpn_accuarcy <- rpn_cls_score_reshape_rpn_cls_score_reshape_0_split_1
I0418 04:01:49.412686 31181 net.cpp:434] rpn_accuarcy <- rpn_labels_rpn-data_0_split_1
I0418 04:01:49.412691 31181 net.cpp:408] rpn_accuarcy -> rpn_accuarcy
I0418 04:01:49.412696 31181 net.cpp:408] rpn_accuarcy -> rpn_accuarcy_class
I0418 04:01:49.412739 31181 net.cpp:150] Setting up rpn_accuarcy
I0418 04:01:49.412747 31181 net.cpp:157] Top shape: (1)
I0418 04:01:49.412750 31181 net.cpp:157] Top shape: 2 (2)
I0418 04:01:49.412753 31181 net.cpp:165] Memory required for data: 10172517968
I0418 04:01:49.412757 31181 layer_factory.hpp:77] Creating layer rpn_cls_prob
I0418 04:01:49.412761 31181 net.cpp:100] Creating Layer rpn_cls_prob
I0418 04:01:49.412766 31181 net.cpp:434] rpn_cls_prob <- rpn_cls_score_reshape_rpn_cls_score_reshape_0_split_2
I0418 04:01:49.412770 31181 net.cpp:408] rpn_cls_prob -> rpn_cls_prob
I0418 04:01:49.412964 31181 net.cpp:150] Setting up rpn_cls_prob
I0418 04:01:49.412974 31181 net.cpp:157] Top shape: 1 2 3552 1 1 (7104)
I0418 04:01:49.412978 31181 net.cpp:165] Memory required for data: 10172546384
I0418 04:01:49.412981 31181 layer_factory.hpp:77] Creating layer rpn_cls_prob_reshape
I0418 04:01:49.412987 31181 net.cpp:100] Creating Layer rpn_cls_prob_reshape
I0418 04:01:49.412992 31181 net.cpp:434] rpn_cls_prob_reshape <- rpn_cls_prob
I0418 04:01:49.412997 31181 net.cpp:408] rpn_cls_prob_reshape -> rpn_cls_prob_reshape
I0418 04:01:49.413022 31181 net.cpp:150] Setting up rpn_cls_prob_reshape
I0418 04:01:49.413028 31181 net.cpp:157] Top shape: 1 74 96 1 1 (7104)
I0418 04:01:49.413031 31181 net.cpp:165] Memory required for data: 10172574800
I0418 04:01:49.413034 31181 layer_factory.hpp:77] Creating layer proposal
I0418 04:01:49.413568 31181 net.cpp:100] Creating Layer proposal
I0418 04:01:49.413580 31181 net.cpp:434] proposal <- rpn_cls_prob_reshape
I0418 04:01:49.413595 31181 net.cpp:434] proposal <- rpn_twin_pred_rpn_twin_pred_0_split_1
I0418 04:01:49.413601 31181 net.cpp:408] proposal -> rpn_rois
I0418 04:01:49.416164 31181 net.cpp:150] Setting up proposal
I0418 04:01:49.416182 31181 net.cpp:157] Top shape: 1 3 (3)
I0418 04:01:49.416185 31181 net.cpp:165] Memory required for data: 10172574812
I0418 04:01:49.416190 31181 layer_factory.hpp:77] Creating layer roi-data
I0418 04:01:49.416342 31181 net.cpp:100] Creating Layer roi-data
I0418 04:01:49.416354 31181 net.cpp:434] roi-data <- rpn_rois
I0418 04:01:49.416360 31181 net.cpp:434] roi-data <- gt_boxes_data_1_split_1
I0418 04:01:49.416366 31181 net.cpp:408] roi-data -> rois
I0418 04:01:49.416378 31181 net.cpp:408] roi-data -> labels
I0418 04:01:49.416384 31181 net.cpp:408] roi-data -> twin_targets
I0418 04:01:49.416391 31181 net.cpp:408] roi-data -> twin_inside_weights
I0418 04:01:49.416398 31181 net.cpp:408] roi-data -> twin_outside_weights
I0418 04:01:49.416756 31181 net.cpp:150] Setting up roi-data
I0418 04:01:49.416771 31181 net.cpp:157] Top shape: 1 3 (3)
I0418 04:01:49.416776 31181 net.cpp:157] Top shape: 1 1 (1)
I0418 04:01:49.416781 31181 net.cpp:157] Top shape: 1 198 (198)
I0418 04:01:49.416785 31181 net.cpp:157] Top shape: 1 198 (198)
I0418 04:01:49.416790 31181 net.cpp:157] Top shape: 1 198 (198)
I0418 04:01:49.416792 31181 net.cpp:165] Memory required for data: 10172577204
I0418 04:01:49.416796 31181 layer_factory.hpp:77] Creating layer labels_roi-data_1_split
I0418 04:01:49.416803 31181 net.cpp:100] Creating Layer labels_roi-data_1_split
I0418 04:01:49.416807 31181 net.cpp:434] labels_roi-data_1_split <- labels
I0418 04:01:49.416813 31181 net.cpp:408] labels_roi-data_1_split -> labels_roi-data_1_split_0
I0418 04:01:49.416821 31181 net.cpp:408] labels_roi-data_1_split -> labels_roi-data_1_split_1
I0418 04:01:49.416855 31181 net.cpp:150] Setting up labels_roi-data_1_split
I0418 04:01:49.416864 31181 net.cpp:157] Top shape: 1 1 (1)
I0418 04:01:49.416868 31181 net.cpp:157] Top shape: 1 1 (1)
I0418 04:01:49.416872 31181 net.cpp:165] Memory required for data: 10172577212
I0418 04:01:49.416877 31181 layer_factory.hpp:77] Creating layer roi_pool5
I0418 04:01:49.416887 31181 net.cpp:100] Creating Layer roi_pool5
I0418 04:01:49.416890 31181 net.cpp:434] roi_pool5 <- conv5b_relu5b_0_split_1
I0418 04:01:49.416896 31181 net.cpp:434] roi_pool5 <- rois
I0418 04:01:49.416903 31181 net.cpp:408] roi_pool5 -> pool5
I0418 04:01:49.416909 31181 roi_pooling_layer.cpp:34] Temporal scale: 0.125
I0418 04:01:49.416918 31181 roi_pooling_layer.cpp:35] Spatial scale: 0.0625
I0418 04:01:49.416955 31181 net.cpp:150] Setting up roi_pool5
I0418 04:01:49.416963 31181 net.cpp:157] Top shape: 1 512 1 4 4 (8192)
I0418 04:01:49.416967 31181 net.cpp:165] Memory required for data: 10172609980
I0418 04:01:49.416970 31181 layer_factory.hpp:77] Creating layer fc6
I0418 04:01:49.416981 31181 net.cpp:100] Creating Layer fc6
I0418 04:01:49.416988 31181 net.cpp:434] fc6 <- pool5
I0418 04:01:49.416993 31181 net.cpp:408] fc6 -> fc6
I0418 04:01:50.332494 31181 net.cpp:150] Setting up fc6
I0418 04:01:50.332518 31181 net.cpp:157] Top shape: 1 4096 (4096)
I0418 04:01:50.332522 31181 net.cpp:165] Memory required for data: 10172626364
I0418 04:01:50.332531 31181 layer_factory.hpp:77] Creating layer relu6
I0418 04:01:50.332541 31181 net.cpp:100] Creating Layer relu6
I0418 04:01:50.332545 31181 net.cpp:434] relu6 <- fc6
I0418 04:01:50.332551 31181 net.cpp:395] relu6 -> fc6 (in-place)
I0418 04:01:50.332967 31181 net.cpp:150] Setting up relu6
I0418 04:01:50.332979 31181 net.cpp:157] Top shape: 1 4096 (4096)
I0418 04:01:50.332983 31181 net.cpp:165] Memory required for data: 10172642748
I0418 04:01:50.332988 31181 layer_factory.hpp:77] Creating layer drop6
I0418 04:01:50.332998 31181 net.cpp:100] Creating Layer drop6
I0418 04:01:50.333005 31181 net.cpp:434] drop6 <- fc6
I0418 04:01:50.333011 31181 net.cpp:395] drop6 -> fc6 (in-place)
I0418 04:01:50.333039 31181 net.cpp:150] Setting up drop6
I0418 04:01:50.333046 31181 net.cpp:157] Top shape: 1 4096 (4096)
I0418 04:01:50.333050 31181 net.cpp:165] Memory required for data: 10172659132
I0418 04:01:50.333053 31181 layer_factory.hpp:77] Creating layer fc6_drop6_0_split
I0418 04:01:50.333060 31181 net.cpp:100] Creating Layer fc6_drop6_0_split
I0418 04:01:50.333063 31181 net.cpp:434] fc6_drop6_0_split <- fc6
I0418 04:01:50.333067 31181 net.cpp:408] fc6_drop6_0_split -> fc6_drop6_0_split_0
I0418 04:01:50.333073 31181 net.cpp:408] fc6_drop6_0_split -> fc6_drop6_0_split_1
I0418 04:01:50.333109 31181 net.cpp:150] Setting up fc6_drop6_0_split
I0418 04:01:50.333117 31181 net.cpp:157] Top shape: 1 4096 (4096)
I0418 04:01:50.333122 31181 net.cpp:157] Top shape: 1 4096 (4096)
I0418 04:01:50.333124 31181 net.cpp:165] Memory required for data: 10172691900
I0418 04:01:50.333127 31181 layer_factory.hpp:77] Creating layer cls_score
I0418 04:01:50.333135 31181 net.cpp:100] Creating Layer cls_score
I0418 04:01:50.333139 31181 net.cpp:434] cls_score <- fc6_drop6_0_split_0
I0418 04:01:50.333144 31181 net.cpp:408] cls_score -> cls_score
I0418 04:01:51.428870 31181 net.cpp:150] Setting up cls_score
I0418 04:01:51.428894 31181 net.cpp:157] Top shape: 1 9900 (9900)
I0418 04:01:51.428897 31181 net.cpp:165] Memory required for data: 10172731500
I0418 04:01:51.428906 31181 layer_factory.hpp:77] Creating layer cls_score_cls_score_0_split
I0418 04:01:51.428916 31181 net.cpp:100] Creating Layer cls_score_cls_score_0_split
I0418 04:01:51.428920 31181 net.cpp:434] cls_score_cls_score_0_split <- cls_score
I0418 04:01:51.428926 31181 net.cpp:408] cls_score_cls_score_0_split -> cls_score_cls_score_0_split_0
I0418 04:01:51.428933 31181 net.cpp:408] cls_score_cls_score_0_split -> cls_score_cls_score_0_split_1
I0418 04:01:51.428977 31181 net.cpp:150] Setting up cls_score_cls_score_0_split
I0418 04:01:51.428987 31181 net.cpp:157] Top shape: 1 9900 (9900)
I0418 04:01:51.428989 31181 net.cpp:157] Top shape: 1 9900 (9900)
I0418 04:01:51.428992 31181 net.cpp:165] Memory required for data: 10172810700
I0418 04:01:51.428997 31181 layer_factory.hpp:77] Creating layer twin_pred
I0418 04:01:51.429004 31181 net.cpp:100] Creating Layer twin_pred
I0418 04:01:51.429009 31181 net.cpp:434] twin_pred <- fc6_drop6_0_split_1
I0418 04:01:51.429015 31181 net.cpp:408] twin_pred -> twin_pred
I0418 04:01:51.456007 31181 net.cpp:150] Setting up twin_pred
I0418 04:01:51.456025 31181 net.cpp:157] Top shape: 1 198 (198)
I0418 04:01:51.456028 31181 net.cpp:165] Memory required for data: 10172811492
I0418 04:01:51.456043 31181 layer_factory.hpp:77] Creating layer loss_cls
I0418 04:01:51.456051 31181 net.cpp:100] Creating Layer loss_cls
I0418 04:01:51.456055 31181 net.cpp:434] loss_cls <- cls_score_cls_score_0_split_0
I0418 04:01:51.456060 31181 net.cpp:434] loss_cls <- labels_roi-data_1_split_0
I0418 04:01:51.456065 31181 net.cpp:408] loss_cls -> loss_cls
…
