…
stepsize: 350000
snapshot: 0
snapshot_prefix: "./experiments/activitynet/snapshot/activitynet"
average_loss: 100
iter_size: 1
I0418 04:19:34.323858 32368 solver.cpp:81] Creating training net from train_net file: ./experiments/activitynet/train.prototxt
I0418 04:19:34.324903 32368 net.cpp:58] Initializing net from parameters: 
name: "activitynet"
state {
  phase: TRAIN
}
layer {
  name: "data"
  type: "Python"
  top: "data"
  top: "gt_boxes"
  python_param {
    module: "roi_data_layer.layer"
    layer: "RoIDataLayer"
    param_str: "\'num_classes\': 100"
  }
}
layer {
  name: "conv1a"
  type: "Convolution"
  bottom: "data"
  top: "conv1a"
  param {
    lr_mult: 0
    decay_mult: 0
  }
  param {
    lr_mult: 0
    decay_mult: 0
  }
  convolution_param {
    num_output: 64
    pad: 1
    pad: 1
    pad: 1
    kernel_size: 3
    kernel_size: 3
    kernel_size: 3
    weight_filler {
      type: "gaussian"
      std: 0.01
    }
    bias_filler {
      type: "constant"
      value: 0
    }
  }
}
layer {
  name: "relu1a"
  type: "ReLU"
  bottom: "conv1a"
  top: "conv1a"
}
layer {
  name: "pool1"
  type: "Pooling"
  bottom: "conv1a"
  top: "pool1"
  pooling_param {
    pool: MAX
    kernel_size: 1
    kernel_size: 2
    kernel_size: 2
    stride: 1
    stride: 2
    stride: 2
  }
}
layer {
  name: "conv2a"
  type: "Convolution"
  bottom: "pool1"
  top: "conv2a"
  param {
    lr_mult: 0
    decay_mult: 0
  }
  param {
    lr_mult: 0
    decay_mult: 0
  }
  convolution_param {
    num_output: 128
    pad: 1
    pad: 1
    pad: 1
    kernel_size: 3
    kernel_size: 3
    kernel_size: 3
    weight_filler {
      type: "gaussian"
      std: 0.01
    }
    bias_filler {
      type: "constant"
      value: 1
    }
  }
}
layer {
  name: "relu2a"
  type: "ReLU"
  bottom: "conv2a"
  top: "conv2a"
}
layer {
  name: "pool2"
  type: "Pooling"
  bottom: "conv2a"
  top: "pool2"
  pooling_param {
    pool: MAX
    kernel_size: 2
    kernel_size: 2
    kernel_size: 2
    stride: 2
    stride: 2
    stride: 2
  }
}
layer {
  name: "conv3a"
  type: "Convolution"
  bottom: "pool2"
  top: "conv3a"
  param {
    lr_mult: 1
    decay_mult: 1
  }
  param {
    lr_mult: 2
    decay_mult: 0
  }
  convolution_param {
    num_output: 256
    pad: 1
    pad: 1
    pad: 1
    kernel_size: 3
    kernel_size: 3
    kernel_size: 3
    weight_filler {
      type: "gaussian"
      std: 0.01
    }
    bias_filler {
      type: "constant"
      value: 1
    }
  }
}
layer {
  name: "relu3a"
  type: "ReLU"
  bottom: "conv3a"
  top: "conv3a"
}
layer {
  name: "conv3b"
  type: "Convolution"
  bottom: "conv3a"
  top: "conv3b"
  param {
    lr_mult: 1
    decay_mult: 1
  }
  param {
    lr_mult: 2
    decay_mult: 0
  }
  convolution_param {
    num_output: 256
    pad: 1
    pad: 1
    pad: 1
    kernel_size: 3
    kernel_size: 3
    kernel_size: 3
    weight_filler {
      type: "gaussian"
      std: 0.01
    }
    bias_filler {
      type: "constant"
      value: 1
    }
  }
}
layer {
  name: "relu3b"
  type: "ReLU"
  bottom: "conv3b"
  top: "conv3b"
}
layer {
  name: "pool3"
  type: "Pooling"
  bottom: "conv3b"
  top: "pool3"
  pooling_param {
    pool: MAX
    kernel_size: 2
    kernel_size: 2
    kernel_size: 2
    stride: 2
    stride: 2
    stride: 2
  }
}
layer {
  name: "conv4a"
  type: "Convolution"
  bottom: "pool3"
  top: "conv4a"
  param {
    lr_mult: 1
    decay_mult: 1
  }
  param {
    lr_mult: 2
    decay_mult: 0
  }
  convolution_param {
    num_output: 512
    pad: 1
    pad: 1
    pad: 1
    kernel_size: 3
    kernel_size: 3
    kernel_size: 3
    weight_filler {
      type: "gaussian"
      std: 0.01
    }
    bias_filler {
      type: "constant"
      value: 1
    }
  }
}
layer {
  name: "relu4a"
  type: "ReLU"
  bottom: "conv4a"
  top: "conv4a"
}
layer {
  name: "conv4b"
  type: "Convolution"
  bottom: "conv4a"
  top: "conv4b"
  param {
    lr_mult: 1
    decay_mult: 1
  }
  param {
    lr_mult: 2
    decay_mult: 0
  }
  convolution_param {
    num_output: 512
    pad: 1
    pad: 1
    pad: 1
    kernel_size: 3
    kernel_size: 3
    kernel_size: 3
    weight_filler {
      type: "gaussian"
      std: 0.01
    }
    bias_filler {
      type: "constant"
      value: 1
    }
  }
}
layer {
  name: "relu4b"
  type: "ReLU"
  bottom: "conv4b"
  top: "conv4b"
}
layer {
  name: "pool4"
  type: "Pooling"
  bottom: "conv4b"
  top: "pool4"
  pooling_param {
    pool: MAX
    kernel_size: 2
    kernel_size: 2
    kernel_size: 2
    stride: 2
    stride: 2
    stride: 2
  }
}
layer {
  name: "conv5a"
  type: "Convolution"
  bottom: "pool4"
  top: "conv5a"
  param {
    lr_mult: 1
    decay_mult: 1
  }
  param {
    lr_mult: 2
    decay_mult: 0
  }
  convolution_param {
    num_output: 512
    pad: 1
    pad: 1
    pad: 1
    kernel_size: 3
    kernel_size: 3
    kernel_size: 3
    weight_filler {
      type: "gaussian"
      std: 0.01
    }
    bias_filler {
      type: "constant"
      value: 1
    }
  }
}
layer {
  name: "relu5a"
  type: "ReLU"
  bottom: "conv5a"
  top: "conv5a"
}
layer {
  name: "conv5b"
  type: "Convolution"
  bottom: "conv5a"
  top: "conv5b"
  param {
    lr_mult: 1
    decay_mult: 1
  }
  param {
    lr_mult: 2
    decay_mult: 0
  }
  convolution_param {
    num_output: 512
    pad: 1
    pad: 1
    pad: 1
    kernel_size: 3
    kernel_size: 3
    kernel_size: 3
    weight_filler {
      type: "gaussian"
      std: 0.01
    }
    bias_filler {
      type: "constant"
      value: 1
    }
  }
}
layer {
  name: "relu5b"
  type: "ReLU"
  bottom: "conv5b"
  top: "conv5b"
}
layer {
  name: "rpn_conv/3x3"
  type: "Convolution"
  bottom: "conv5b"
  top: "rpn/output"
  param {
    lr_mult: 1
    decay_mult: 1
  }
  param {
    lr_mult: 2
    decay_mult: 0
  }
  convolution_param {
    num_output: 512
    pad: 1
    pad: 1
    pad: 1
    kernel_size: 3
    kernel_size: 3
    kernel_size: 3
    stride: 1
    stride: 2
    stride: 2
    weight_filler {
      type: "gaussian"
      std: 0.01
    }
    bias_filler {
      type: "constant"
      value: 0
    }
  }
}
layer {
  name: "rpn_relu/3x3"
  type: "ReLU"
  bottom: "rpn/output"
  top: "rpn/output"
}
layer {
  name: "rpn_conv/3x3_2"
  type: "Convolution"
  bottom: "rpn/output"
  top: "rpn/output_2"
  param {
    lr_mult: 1
    decay_mult: 1
  }
  param {
    lr_mult: 2
    decay_mult: 0
  }
  convolution_param {
    num_output: 512
    pad: 1
    pad: 1
    pad: 1
    kernel_size: 3
    kernel_size: 3
    kernel_size: 3
    stride: 1
    stride: 2
    stride: 2
    weight_filler {
      type: "gaussian"
      std: 0.01
    }
    bias_filler {
      type: "constant"
      value: 0
    }
  }
}
layer {
  name: "rpn_relu/3x3_2"
  type: "ReLU"
  bottom: "rpn/output_2"
  top: "rpn/output_2"
}
layer {
  name: "rpn/output_pool"
  type: "Pooling"
  bottom: "rpn/output_2"
  top: "rpn/output_pool"
  pooling_param {
    pool: MAX
    kernel_size: 1
    kernel_size: 2
    kernel_size: 2
  }
}
layer {
  name: "rpn_cls_score"
  type: "Convolution"
  bottom: "rpn/output_pool"
  top: "rpn_cls_score"
  param {
    lr_mult: 1
    decay_mult: 1
  }
  param {
    lr_mult: 2
    decay_mult: 0
  }
  convolution_param {
    num_output: 74
    kernel_size: 1
    kernel_size: 1
    kernel_size: 1
    weight_filler {
      type: "gaussian"
      std: 0.01
    }
    bias_filler {
      type: "constant"
      value: 0
    }
  }
}
layer {
  name: "rpn_twin_pred"
  type: "Convolution"
  bottom: "rpn/output_pool"
  top: "rpn_twin_pred"
  param {
    lr_mult: 1
    decay_mult: 1
  }
  param {
    lr_mult: 2
    decay_mult: 0
  }
  convolution_param {
    num_output: 74
    kernel_size: 1
    kernel_size: 1
    kernel_size: 1
    weight_filler {
      type: "gaussian"
      std: 0.01
    }
    bias_filler {
      type: "constant"
      value: 0
    }
  }
}
layer {
  name: "rpn_cls_score_reshape"
  type: "Reshape"
  bottom: "rpn_cls_score"
  top: "rpn_cls_score_reshape"
  reshape_param {
    shape {
      dim: 0
      dim: 2
      dim: -1
      dim: 0
      dim: 0
    }
  }
}
layer {
  name: "rpn-data"
  type: "Python"
  bottom: "rpn_cls_score"
  bottom: "gt_boxes"
  bottom: "data"
  top: "rpn_labels"
  top: "rpn_twin_targets"
  top: "rpn_twin_inside_weights"
  top: "rpn_twin_outside_weights"
  python_param {
    module: "rpn.anchor_target_layer"
    layer: "AnchorTargetLayer"
    param_str: "\'feat_stride\': 8 \n\'scales\': !!python/tuple [1,1.25, 1.5,1.75, 2,2.5, 3,3.5, 4,4.5, 5,5.5, 6,7, 8,9,10,11,12,14,16,18,20,22,24,28,32,36,40,44,52,60,68,76,84,92,100]"
  }
}
layer {
  name: "rpn_loss_cls"
  type: "SoftmaxWithLoss"
  bottom: "rpn_cls_score_reshape"
  bottom: "rpn_labels"
  top: "rpn_cls_loss"
  loss_weight: 1
  propagate_down: true
  propagate_down: false
  loss_param {
    ignore_label: -1
    normalize: true
  }
}
layer {
  name: "rpn_loss_twin"
  type: "SmoothL1Loss"
  bottom: "rpn_twin_pred"
  bottom: "rpn_twin_targets"
  bottom: "rpn_twin_inside_weights"
  bottom: "rpn_twin_outside_weights"
  top: "rpn_loss_twin"
  loss_weight: 1
  smooth_l1_loss_param {
    sigma: 3
  }
}
layer {
  name: "rpn_accuarcy"
  type: "Accuracy"
  bottom: "rpn_cls_score_reshape"
  bottom: "rpn_labels"
  top: "rpn_accuarcy"
  top: "rpn_accuarcy_class"
  propagate_down: false
  propagate_down: false
  accuracy_param {
    ignore_label: -1
  }
}
layer {
  name: "rpn_cls_prob"
  type: "Softmax"
  bottom: "rpn_cls_score_reshape"
  top: "rpn_cls_prob"
}
layer {
  name: "rpn_cls_prob_reshape"
  type: "Reshape"
  bottom: "rpn_cls_prob"
  top: "rpn_cls_prob_reshape"
  reshape_param {
    shape {
      dim: 0
      dim: 74
      dim: -1
      dim: 0
      dim: 0
    }
  }
}
layer {
  name: "proposal"
  type: "Python"
  bottom: "rpn_cls_prob_reshape"
  bottom: "rpn_twin_pred"
  top: "rpn_rois"
  include {
    phase: TRAIN
  }
  python_param {
    module: "rpn.proposal_layer"
    layer: "ProposalLayer"
    param_str: "\'feat_stride\': 8 \n\'scales\': !!python/tuple [1,1.25, 1.5,1.75, 2,2.5, 3,3.5, 4,4.5, 5,5.5, 6,7, 8,9,10,11,12,14,16,18,20,22,24,28,32,36,40,44,52,60,68,76,84,92,100]"
  }
}
layer {
  name: "roi-data"
  type: "Python"
  bottom: "rpn_rois"
  bottom: "gt_boxes"
  top: "rois"
  top: "labels"
  top: "twin_targets"
  top: "twin_inside_weights"
  top: "twin_outside_weights"
  python_param {
    module: "rpn.proposal_target_layer"
    layer: "ProposalTargetLayer"
    param_str: "\'num_classes\': 99"
  }
}
layer {
  name: "roi_pool5"
  type: "ROIPooling"
  bottom: "conv5b"
  bottom: "rois"
  top: "pool5"
  roi_pooling_param {
    pooled_h: 4
    pooled_w: 4
    spatial_scale: 0.0625
    pooled_l: 1
    temporal_scale: 0.125
  }
}
layer {
  name: "fc6"
  type: "InnerProduct"
  bottom: "pool5"
  top: "fc6"
  param {
    lr_mult: 1
    decay_mult: 1
  }
  param {
    lr_mult: 2
    decay_mult: 0
  }
  inner_product_param {
    num_output: 4096
    weight_filler {
      type: "gaussian"
      std: 0.005
    }
    bias_filler {
      type: "constant"
      value: 1
    }
  }
}
layer {
  name: "relu6"
  type: "ReLU"
  bottom: "fc6"
  top: "fc6"
}
layer {
  name: "drop6"
  type: "Dropout"
  bottom: "fc6"
  top: "fc6"
  dropout_param {
    dropout_ratio: 0.5
  }
}
layer {
  name: "cls_score"
  type: "InnerProduct"
  bottom: "fc6"
  top: "cls_score"
  param {
    lr_mult: 1
    decay_mult: 1
  }
  param {
    lr_mult: 2
    decay_mult: 0
  }
  inner_product_param {
    num_output: 9900
    weight_filler {
      type: "gaussian"
      std: 0.01
    }
    bias_filler {
      type: "constant"
      value: 0
    }
  }
}
layer {
  name: "twin_pred"
  type: "InnerProduct"
  bottom: "fc6"
  top: "twin_pred"
  param {
    lr_mult: 1
    decay_mult: 1
  }
  param {
    lr_mult: 2
    decay_mult: 0
  }
  inner_product_param {
    num_output: 198
    weight_filler {
      type: "gaussian"
      std: 0.001
    }
    bias_filler {
      type: "constant"
      value: 0
    }
  }
}
layer {
  name: "loss_cls"
  type: "SoftmaxWithLoss"
  bottom: "cls_score"
  bottom: "labels"
  top: "loss_cls"
  loss_weight: 1
  propagate_down: true
  propagate_down: false
}
layer {
  name: "loss_twin"
  type: "SmoothL1Loss"
  bottom: "twin_pred"
  bottom: "twin_targets"
  bottom: "twin_inside_weights"
  bottom: "twin_outside_weights"
  top: "loss_twin"
  loss_weight: 1
}
layer {
  name: "accuarcy"
  type: "Accuracy"
  bottom: "cls_score"
  bottom: "labels"
  top: "accuarcy"
  propagate_down: false
  propagate_down: false
  accuracy_param {
    ignore_label: -1
  }
}
I0418 04:19:34.325114 32368 layer_factory.hpp:77] Creating layer data
I0418 04:19:34.348907 32368 net.cpp:100] Creating Layer data
I0418 04:19:34.348929 32368 net.cpp:408] data -> data
I0418 04:19:34.348942 32368 net.cpp:408] data -> gt_boxes
setting up
has rpn
RoiDataLayer: name_to_top: {'gt_windows': 1, 'data': 0}
I0418 04:19:34.364123 32368 net.cpp:150] Setting up data
I0418 04:19:34.364147 32368 net.cpp:157] Top shape: 1 3 768 112 112 (28901376)
I0418 04:19:34.364154 32368 net.cpp:157] Top shape: 1 101 (101)
I0418 04:19:34.364157 32368 net.cpp:165] Memory required for data: 115605908
I0418 04:19:34.364164 32368 layer_factory.hpp:77] Creating layer data_data_0_split
I0418 04:19:34.364181 32368 net.cpp:100] Creating Layer data_data_0_split
I0418 04:19:34.364188 32368 net.cpp:434] data_data_0_split <- data
I0418 04:19:34.364195 32368 net.cpp:408] data_data_0_split -> data_data_0_split_0
I0418 04:19:34.364205 32368 net.cpp:408] data_data_0_split -> data_data_0_split_1
I0418 04:19:34.364248 32368 net.cpp:150] Setting up data_data_0_split
I0418 04:19:34.364255 32368 net.cpp:157] Top shape: 1 3 768 112 112 (28901376)
I0418 04:19:34.364260 32368 net.cpp:157] Top shape: 1 3 768 112 112 (28901376)
I0418 04:19:34.364264 32368 net.cpp:165] Memory required for data: 346816916
I0418 04:19:34.364266 32368 layer_factory.hpp:77] Creating layer gt_boxes_data_1_split
I0418 04:19:34.364274 32368 net.cpp:100] Creating Layer gt_boxes_data_1_split
I0418 04:19:34.364277 32368 net.cpp:434] gt_boxes_data_1_split <- gt_boxes
I0418 04:19:34.364282 32368 net.cpp:408] gt_boxes_data_1_split -> gt_boxes_data_1_split_0
I0418 04:19:34.364289 32368 net.cpp:408] gt_boxes_data_1_split -> gt_boxes_data_1_split_1
I0418 04:19:34.364315 32368 net.cpp:150] Setting up gt_boxes_data_1_split
I0418 04:19:34.364321 32368 net.cpp:157] Top shape: 1 101 (101)
I0418 04:19:34.364326 32368 net.cpp:157] Top shape: 1 101 (101)
I0418 04:19:34.364328 32368 net.cpp:165] Memory required for data: 346817724
I0418 04:19:34.364331 32368 layer_factory.hpp:77] Creating layer conv1a
I0418 04:19:34.364347 32368 net.cpp:100] Creating Layer conv1a
I0418 04:19:34.364351 32368 net.cpp:434] conv1a <- data_data_0_split_0
I0418 04:19:34.364357 32368 net.cpp:408] conv1a -> conv1a
I0418 04:19:34.551417 32368 net.cpp:150] Setting up conv1a
I0418 04:19:34.551445 32368 net.cpp:157] Top shape: 1 64 768 112 112 (616562688)
I0418 04:19:34.551450 32368 net.cpp:165] Memory required for data: 2813068476
I0418 04:19:34.551468 32368 layer_factory.hpp:77] Creating layer relu1a
I0418 04:19:34.551481 32368 net.cpp:100] Creating Layer relu1a
I0418 04:19:34.551486 32368 net.cpp:434] relu1a <- conv1a
I0418 04:19:34.551492 32368 net.cpp:395] relu1a -> conv1a (in-place)
I0418 04:19:34.551895 32368 net.cpp:150] Setting up relu1a
I0418 04:19:34.551908 32368 net.cpp:157] Top shape: 1 64 768 112 112 (616562688)
I0418 04:19:34.551913 32368 net.cpp:165] Memory required for data: 5279319228
I0418 04:19:34.551916 32368 layer_factory.hpp:77] Creating layer pool1
I0418 04:19:34.551925 32368 net.cpp:100] Creating Layer pool1
I0418 04:19:34.551929 32368 net.cpp:434] pool1 <- conv1a
I0418 04:19:34.551935 32368 net.cpp:408] pool1 -> pool1
I0418 04:19:34.552108 32368 net.cpp:150] Setting up pool1
I0418 04:19:34.552119 32368 net.cpp:157] Top shape: 1 64 768 56 56 (154140672)
I0418 04:19:34.552121 32368 net.cpp:165] Memory required for data: 5895881916
I0418 04:19:34.552125 32368 layer_factory.hpp:77] Creating layer conv2a
I0418 04:19:34.552137 32368 net.cpp:100] Creating Layer conv2a
I0418 04:19:34.552145 32368 net.cpp:434] conv2a <- pool1
I0418 04:19:34.552151 32368 net.cpp:408] conv2a -> conv2a
I0418 04:19:34.566139 32368 net.cpp:150] Setting up conv2a
I0418 04:19:34.566162 32368 net.cpp:157] Top shape: 1 128 768 56 56 (308281344)
I0418 04:19:34.566166 32368 net.cpp:165] Memory required for data: 7129007292
I0418 04:19:34.566179 32368 layer_factory.hpp:77] Creating layer relu2a
I0418 04:19:34.566188 32368 net.cpp:100] Creating Layer relu2a
I0418 04:19:34.566192 32368 net.cpp:434] relu2a <- conv2a
I0418 04:19:34.566198 32368 net.cpp:395] relu2a -> conv2a (in-place)
I0418 04:19:34.568413 32368 net.cpp:150] Setting up relu2a
I0418 04:19:34.568426 32368 net.cpp:157] Top shape: 1 128 768 56 56 (308281344)
I0418 04:19:34.568430 32368 net.cpp:165] Memory required for data: 8362132668
I0418 04:19:34.568434 32368 layer_factory.hpp:77] Creating layer pool2
I0418 04:19:34.568444 32368 net.cpp:100] Creating Layer pool2
I0418 04:19:34.568446 32368 net.cpp:434] pool2 <- conv2a
I0418 04:19:34.568452 32368 net.cpp:408] pool2 -> pool2
I0418 04:19:34.568614 32368 net.cpp:150] Setting up pool2
I0418 04:19:34.568624 32368 net.cpp:157] Top shape: 1 128 384 28 28 (38535168)
I0418 04:19:34.568626 32368 net.cpp:165] Memory required for data: 8516273340
I0418 04:19:34.568630 32368 layer_factory.hpp:77] Creating layer conv3a
I0418 04:19:34.568640 32368 net.cpp:100] Creating Layer conv3a
I0418 04:19:34.568647 32368 net.cpp:434] conv3a <- pool2
I0418 04:19:34.568653 32368 net.cpp:408] conv3a -> conv3a
I0418 04:19:34.596130 32368 net.cpp:150] Setting up conv3a
I0418 04:19:34.596149 32368 net.cpp:157] Top shape: 1 256 384 28 28 (77070336)
I0418 04:19:34.596153 32368 net.cpp:165] Memory required for data: 8824554684
I0418 04:19:34.596164 32368 layer_factory.hpp:77] Creating layer relu3a
I0418 04:19:34.596171 32368 net.cpp:100] Creating Layer relu3a
I0418 04:19:34.596175 32368 net.cpp:434] relu3a <- conv3a
I0418 04:19:34.596180 32368 net.cpp:395] relu3a -> conv3a (in-place)
I0418 04:19:34.596459 32368 net.cpp:150] Setting up relu3a
I0418 04:19:34.596472 32368 net.cpp:157] Top shape: 1 256 384 28 28 (77070336)
I0418 04:19:34.596475 32368 net.cpp:165] Memory required for data: 9132836028
I0418 04:19:34.596479 32368 layer_factory.hpp:77] Creating layer conv3b
I0418 04:19:34.596493 32368 net.cpp:100] Creating Layer conv3b
I0418 04:19:34.596495 32368 net.cpp:434] conv3b <- conv3a
I0418 04:19:34.596501 32368 net.cpp:408] conv3b -> conv3b
I0418 04:19:34.644207 32368 net.cpp:150] Setting up conv3b
I0418 04:19:34.644232 32368 net.cpp:157] Top shape: 1 256 384 28 28 (77070336)
I0418 04:19:34.644235 32368 net.cpp:165] Memory required for data: 9441117372
I0418 04:19:34.644243 32368 layer_factory.hpp:77] Creating layer relu3b
I0418 04:19:34.644253 32368 net.cpp:100] Creating Layer relu3b
I0418 04:19:34.644258 32368 net.cpp:434] relu3b <- conv3b
I0418 04:19:34.644263 32368 net.cpp:395] relu3b -> conv3b (in-place)
I0418 04:19:34.644556 32368 net.cpp:150] Setting up relu3b
I0418 04:19:34.644568 32368 net.cpp:157] Top shape: 1 256 384 28 28 (77070336)
I0418 04:19:34.644572 32368 net.cpp:165] Memory required for data: 9749398716
I0418 04:19:34.644575 32368 layer_factory.hpp:77] Creating layer pool3
I0418 04:19:34.644582 32368 net.cpp:100] Creating Layer pool3
I0418 04:19:34.644587 32368 net.cpp:434] pool3 <- conv3b
I0418 04:19:34.644593 32368 net.cpp:408] pool3 -> pool3
I0418 04:19:34.644759 32368 net.cpp:150] Setting up pool3
I0418 04:19:34.644769 32368 net.cpp:157] Top shape: 1 256 192 14 14 (9633792)
I0418 04:19:34.644773 32368 net.cpp:165] Memory required for data: 9787933884
I0418 04:19:34.644776 32368 layer_factory.hpp:77] Creating layer conv4a
I0418 04:19:34.644786 32368 net.cpp:100] Creating Layer conv4a
I0418 04:19:34.644790 32368 net.cpp:434] conv4a <- pool3
I0418 04:19:34.644798 32368 net.cpp:408] conv4a -> conv4a
I0418 04:19:34.739293 32368 net.cpp:150] Setting up conv4a
I0418 04:19:34.739316 32368 net.cpp:157] Top shape: 1 512 192 14 14 (19267584)
I0418 04:19:34.739320 32368 net.cpp:165] Memory required for data: 9865004220
I0418 04:19:34.739338 32368 layer_factory.hpp:77] Creating layer relu4a
I0418 04:19:34.739348 32368 net.cpp:100] Creating Layer relu4a
I0418 04:19:34.739352 32368 net.cpp:434] relu4a <- conv4a
I0418 04:19:34.739359 32368 net.cpp:395] relu4a -> conv4a (in-place)
I0418 04:19:34.741591 32368 net.cpp:150] Setting up relu4a
I0418 04:19:34.741605 32368 net.cpp:157] Top shape: 1 512 192 14 14 (19267584)
I0418 04:19:34.741607 32368 net.cpp:165] Memory required for data: 9942074556
I0418 04:19:34.741611 32368 layer_factory.hpp:77] Creating layer conv4b
I0418 04:19:34.741624 32368 net.cpp:100] Creating Layer conv4b
I0418 04:19:34.741628 32368 net.cpp:434] conv4b <- conv4a
I0418 04:19:34.741636 32368 net.cpp:408] conv4b -> conv4b
I0418 04:19:34.931247 32368 net.cpp:150] Setting up conv4b
I0418 04:19:34.931272 32368 net.cpp:157] Top shape: 1 512 192 14 14 (19267584)
I0418 04:19:34.931277 32368 net.cpp:165] Memory required for data: 10019144892
I0418 04:19:34.931285 32368 layer_factory.hpp:77] Creating layer relu4b
I0418 04:19:34.931295 32368 net.cpp:100] Creating Layer relu4b
I0418 04:19:34.931300 32368 net.cpp:434] relu4b <- conv4b
I0418 04:19:34.931306 32368 net.cpp:395] relu4b -> conv4b (in-place)
I0418 04:19:34.931458 32368 net.cpp:150] Setting up relu4b
I0418 04:19:34.931469 32368 net.cpp:157] Top shape: 1 512 192 14 14 (19267584)
I0418 04:19:34.931473 32368 net.cpp:165] Memory required for data: 10096215228
I0418 04:19:34.931476 32368 layer_factory.hpp:77] Creating layer pool4
I0418 04:19:34.931483 32368 net.cpp:100] Creating Layer pool4
I0418 04:19:34.931486 32368 net.cpp:434] pool4 <- conv4b
I0418 04:19:34.931493 32368 net.cpp:408] pool4 -> pool4
I0418 04:19:34.931912 32368 net.cpp:150] Setting up pool4
I0418 04:19:34.931926 32368 net.cpp:157] Top shape: 1 512 96 7 7 (2408448)
I0418 04:19:34.931929 32368 net.cpp:165] Memory required for data: 10105849020
I0418 04:19:34.931932 32368 layer_factory.hpp:77] Creating layer conv5a
I0418 04:19:34.931944 32368 net.cpp:100] Creating Layer conv5a
I0418 04:19:34.931948 32368 net.cpp:434] conv5a <- pool4
I0418 04:19:34.931954 32368 net.cpp:408] conv5a -> conv5a
I0418 04:19:35.121690 32368 net.cpp:150] Setting up conv5a
I0418 04:19:35.121714 32368 net.cpp:157] Top shape: 1 512 96 7 7 (2408448)
I0418 04:19:35.121717 32368 net.cpp:165] Memory required for data: 10115482812
I0418 04:19:35.121727 32368 layer_factory.hpp:77] Creating layer relu5a
I0418 04:19:35.121737 32368 net.cpp:100] Creating Layer relu5a
I0418 04:19:35.121742 32368 net.cpp:434] relu5a <- conv5a
I0418 04:19:35.121749 32368 net.cpp:395] relu5a -> conv5a (in-place)
I0418 04:19:35.122639 32368 net.cpp:150] Setting up relu5a
I0418 04:19:35.122653 32368 net.cpp:157] Top shape: 1 512 96 7 7 (2408448)
I0418 04:19:35.122658 32368 net.cpp:165] Memory required for data: 10125116604
I0418 04:19:35.122661 32368 layer_factory.hpp:77] Creating layer conv5b
I0418 04:19:35.122673 32368 net.cpp:100] Creating Layer conv5b
I0418 04:19:35.122678 32368 net.cpp:434] conv5b <- conv5a
I0418 04:19:35.122684 32368 net.cpp:408] conv5b -> conv5b
I0418 04:19:35.312003 32368 net.cpp:150] Setting up conv5b
I0418 04:19:35.312031 32368 net.cpp:157] Top shape: 1 512 96 7 7 (2408448)
I0418 04:19:35.312036 32368 net.cpp:165] Memory required for data: 10134750396
I0418 04:19:35.312050 32368 layer_factory.hpp:77] Creating layer relu5b
I0418 04:19:35.312059 32368 net.cpp:100] Creating Layer relu5b
I0418 04:19:35.312064 32368 net.cpp:434] relu5b <- conv5b
I0418 04:19:35.312070 32368 net.cpp:395] relu5b -> conv5b (in-place)
I0418 04:19:35.312220 32368 net.cpp:150] Setting up relu5b
I0418 04:19:35.312230 32368 net.cpp:157] Top shape: 1 512 96 7 7 (2408448)
I0418 04:19:35.312233 32368 net.cpp:165] Memory required for data: 10144384188
I0418 04:19:35.312237 32368 layer_factory.hpp:77] Creating layer conv5b_relu5b_0_split
I0418 04:19:35.312242 32368 net.cpp:100] Creating Layer conv5b_relu5b_0_split
I0418 04:19:35.312245 32368 net.cpp:434] conv5b_relu5b_0_split <- conv5b
I0418 04:19:35.312250 32368 net.cpp:408] conv5b_relu5b_0_split -> conv5b_relu5b_0_split_0
I0418 04:19:35.312259 32368 net.cpp:408] conv5b_relu5b_0_split -> conv5b_relu5b_0_split_1
I0418 04:19:35.312295 32368 net.cpp:150] Setting up conv5b_relu5b_0_split
I0418 04:19:35.312302 32368 net.cpp:157] Top shape: 1 512 96 7 7 (2408448)
I0418 04:19:35.312306 32368 net.cpp:157] Top shape: 1 512 96 7 7 (2408448)
I0418 04:19:35.312309 32368 net.cpp:165] Memory required for data: 10163651772
I0418 04:19:35.312312 32368 layer_factory.hpp:77] Creating layer rpn_conv/3x3
I0418 04:19:35.312325 32368 net.cpp:100] Creating Layer rpn_conv/3x3
I0418 04:19:35.312330 32368 net.cpp:434] rpn_conv/3x3 <- conv5b_relu5b_0_split_0
I0418 04:19:35.312336 32368 net.cpp:408] rpn_conv/3x3 -> rpn/output
I0418 04:19:35.499516 32368 net.cpp:150] Setting up rpn_conv/3x3
I0418 04:19:35.499542 32368 net.cpp:157] Top shape: 1 512 96 4 4 (786432)
I0418 04:19:35.499547 32368 net.cpp:165] Memory required for data: 10166797500
I0418 04:19:35.499562 32368 layer_factory.hpp:77] Creating layer rpn_relu/3x3
I0418 04:19:35.499572 32368 net.cpp:100] Creating Layer rpn_relu/3x3
I0418 04:19:35.499575 32368 net.cpp:434] rpn_relu/3x3 <- rpn/output
I0418 04:19:35.499583 32368 net.cpp:395] rpn_relu/3x3 -> rpn/output (in-place)
I0418 04:19:35.499881 32368 net.cpp:150] Setting up rpn_relu/3x3
I0418 04:19:35.499892 32368 net.cpp:157] Top shape: 1 512 96 4 4 (786432)
I0418 04:19:35.499896 32368 net.cpp:165] Memory required for data: 10169943228
I0418 04:19:35.499899 32368 layer_factory.hpp:77] Creating layer rpn_conv/3x3_2
I0418 04:19:35.499912 32368 net.cpp:100] Creating Layer rpn_conv/3x3_2
I0418 04:19:35.499915 32368 net.cpp:434] rpn_conv/3x3_2 <- rpn/output
I0418 04:19:35.499922 32368 net.cpp:408] rpn_conv/3x3_2 -> rpn/output_2
I0418 04:19:35.685195 32368 net.cpp:150] Setting up rpn_conv/3x3_2
I0418 04:19:35.685221 32368 net.cpp:157] Top shape: 1 512 96 2 2 (196608)
I0418 04:19:35.685225 32368 net.cpp:165] Memory required for data: 10170729660
I0418 04:19:35.685233 32368 layer_factory.hpp:77] Creating layer rpn_relu/3x3_2
I0418 04:19:35.685243 32368 net.cpp:100] Creating Layer rpn_relu/3x3_2
I0418 04:19:35.685247 32368 net.cpp:434] rpn_relu/3x3_2 <- rpn/output_2
I0418 04:19:35.685256 32368 net.cpp:395] rpn_relu/3x3_2 -> rpn/output_2 (in-place)
I0418 04:19:35.685685 32368 net.cpp:150] Setting up rpn_relu/3x3_2
I0418 04:19:35.685698 32368 net.cpp:157] Top shape: 1 512 96 2 2 (196608)
I0418 04:19:35.685703 32368 net.cpp:165] Memory required for data: 10171516092
I0418 04:19:35.685706 32368 layer_factory.hpp:77] Creating layer rpn/output_pool
I0418 04:19:35.685714 32368 net.cpp:100] Creating Layer rpn/output_pool
I0418 04:19:35.685719 32368 net.cpp:434] rpn/output_pool <- rpn/output_2
I0418 04:19:35.685724 32368 net.cpp:408] rpn/output_pool -> rpn/output_pool
I0418 04:19:35.685899 32368 net.cpp:150] Setting up rpn/output_pool
I0418 04:19:35.685909 32368 net.cpp:157] Top shape: 1 512 96 1 1 (49152)
I0418 04:19:35.685914 32368 net.cpp:165] Memory required for data: 10171712700
I0418 04:19:35.685916 32368 layer_factory.hpp:77] Creating layer rpn/output_pool_rpn/output_pool_0_split
I0418 04:19:35.685923 32368 net.cpp:100] Creating Layer rpn/output_pool_rpn/output_pool_0_split
I0418 04:19:35.685926 32368 net.cpp:434] rpn/output_pool_rpn/output_pool_0_split <- rpn/output_pool
I0418 04:19:35.685932 32368 net.cpp:408] rpn/output_pool_rpn/output_pool_0_split -> rpn/output_pool_rpn/output_pool_0_split_0
I0418 04:19:35.685937 32368 net.cpp:408] rpn/output_pool_rpn/output_pool_0_split -> rpn/output_pool_rpn/output_pool_0_split_1
I0418 04:19:35.685974 32368 net.cpp:150] Setting up rpn/output_pool_rpn/output_pool_0_split
I0418 04:19:35.685981 32368 net.cpp:157] Top shape: 1 512 96 1 1 (49152)
I0418 04:19:35.685984 32368 net.cpp:157] Top shape: 1 512 96 1 1 (49152)
I0418 04:19:35.685987 32368 net.cpp:165] Memory required for data: 10172105916
I0418 04:19:35.685991 32368 layer_factory.hpp:77] Creating layer rpn_cls_score
I0418 04:19:35.686000 32368 net.cpp:100] Creating Layer rpn_cls_score
I0418 04:19:35.686004 32368 net.cpp:434] rpn_cls_score <- rpn/output_pool_rpn/output_pool_0_split_0
I0418 04:19:35.686010 32368 net.cpp:408] rpn_cls_score -> rpn_cls_score
I0418 04:19:35.689182 32368 net.cpp:150] Setting up rpn_cls_score
I0418 04:19:35.689195 32368 net.cpp:157] Top shape: 1 74 96 1 1 (7104)
I0418 04:19:35.689199 32368 net.cpp:165] Memory required for data: 10172134332
I0418 04:19:35.689204 32368 layer_factory.hpp:77] Creating layer rpn_cls_score_rpn_cls_score_0_split
I0418 04:19:35.689210 32368 net.cpp:100] Creating Layer rpn_cls_score_rpn_cls_score_0_split
I0418 04:19:35.689213 32368 net.cpp:434] rpn_cls_score_rpn_cls_score_0_split <- rpn_cls_score
I0418 04:19:35.689219 32368 net.cpp:408] rpn_cls_score_rpn_cls_score_0_split -> rpn_cls_score_rpn_cls_score_0_split_0
I0418 04:19:35.689226 32368 net.cpp:408] rpn_cls_score_rpn_cls_score_0_split -> rpn_cls_score_rpn_cls_score_0_split_1
I0418 04:19:35.689265 32368 net.cpp:150] Setting up rpn_cls_score_rpn_cls_score_0_split
I0418 04:19:35.689273 32368 net.cpp:157] Top shape: 1 74 96 1 1 (7104)
I0418 04:19:35.689277 32368 net.cpp:157] Top shape: 1 74 96 1 1 (7104)
I0418 04:19:35.689280 32368 net.cpp:165] Memory required for data: 10172191164
I0418 04:19:35.689283 32368 layer_factory.hpp:77] Creating layer rpn_twin_pred
I0418 04:19:35.689296 32368 net.cpp:100] Creating Layer rpn_twin_pred
I0418 04:19:35.689303 32368 net.cpp:434] rpn_twin_pred <- rpn/output_pool_rpn/output_pool_0_split_1
I0418 04:19:35.689311 32368 net.cpp:408] rpn_twin_pred -> rpn_twin_pred
I0418 04:19:35.692226 32368 net.cpp:150] Setting up rpn_twin_pred
I0418 04:19:35.692239 32368 net.cpp:157] Top shape: 1 74 96 1 1 (7104)
I0418 04:19:35.692255 32368 net.cpp:165] Memory required for data: 10172219580
I0418 04:19:35.692260 32368 layer_factory.hpp:77] Creating layer rpn_twin_pred_rpn_twin_pred_0_split
I0418 04:19:35.692265 32368 net.cpp:100] Creating Layer rpn_twin_pred_rpn_twin_pred_0_split
I0418 04:19:35.692270 32368 net.cpp:434] rpn_twin_pred_rpn_twin_pred_0_split <- rpn_twin_pred
I0418 04:19:35.692276 32368 net.cpp:408] rpn_twin_pred_rpn_twin_pred_0_split -> rpn_twin_pred_rpn_twin_pred_0_split_0
I0418 04:19:35.692282 32368 net.cpp:408] rpn_twin_pred_rpn_twin_pred_0_split -> rpn_twin_pred_rpn_twin_pred_0_split_1
I0418 04:19:35.692317 32368 net.cpp:150] Setting up rpn_twin_pred_rpn_twin_pred_0_split
I0418 04:19:35.692325 32368 net.cpp:157] Top shape: 1 74 96 1 1 (7104)
I0418 04:19:35.692329 32368 net.cpp:157] Top shape: 1 74 96 1 1 (7104)
I0418 04:19:35.692332 32368 net.cpp:165] Memory required for data: 10172276412
I0418 04:19:35.692337 32368 layer_factory.hpp:77] Creating layer rpn_cls_score_reshape
I0418 04:19:35.692348 32368 net.cpp:100] Creating Layer rpn_cls_score_reshape
I0418 04:19:35.692350 32368 net.cpp:434] rpn_cls_score_reshape <- rpn_cls_score_rpn_cls_score_0_split_0
I0418 04:19:35.692355 32368 net.cpp:408] rpn_cls_score_reshape -> rpn_cls_score_reshape
I0418 04:19:35.692384 32368 net.cpp:150] Setting up rpn_cls_score_reshape
I0418 04:19:35.692392 32368 net.cpp:157] Top shape: 1 2 3552 1 1 (7104)
I0418 04:19:35.692395 32368 net.cpp:165] Memory required for data: 10172304828
I0418 04:19:35.692399 32368 layer_factory.hpp:77] Creating layer rpn_cls_score_reshape_rpn_cls_score_reshape_0_split
I0418 04:19:35.692404 32368 net.cpp:100] Creating Layer rpn_cls_score_reshape_rpn_cls_score_reshape_0_split
I0418 04:19:35.692407 32368 net.cpp:434] rpn_cls_score_reshape_rpn_cls_score_reshape_0_split <- rpn_cls_score_reshape
I0418 04:19:35.692412 32368 net.cpp:408] rpn_cls_score_reshape_rpn_cls_score_reshape_0_split -> rpn_cls_score_reshape_rpn_cls_score_reshape_0_split_0
I0418 04:19:35.692420 32368 net.cpp:408] rpn_cls_score_reshape_rpn_cls_score_reshape_0_split -> rpn_cls_score_reshape_rpn_cls_score_reshape_0_split_1
I0418 04:19:35.692428 32368 net.cpp:408] rpn_cls_score_reshape_rpn_cls_score_reshape_0_split -> rpn_cls_score_reshape_rpn_cls_score_reshape_0_split_2
I0418 04:19:35.692469 32368 net.cpp:150] Setting up rpn_cls_score_reshape_rpn_cls_score_reshape_0_split
I0418 04:19:35.692476 32368 net.cpp:157] Top shape: 1 2 3552 1 1 (7104)
I0418 04:19:35.692481 32368 net.cpp:157] Top shape: 1 2 3552 1 1 (7104)
I0418 04:19:35.692483 32368 net.cpp:157] Top shape: 1 2 3552 1 1 (7104)
I0418 04:19:35.692487 32368 net.cpp:165] Memory required for data: 10172390076
I0418 04:19:35.692489 32368 layer_factory.hpp:77] Creating layer rpn-data
I0418 04:19:35.692883 32368 net.cpp:100] Creating Layer rpn-data
I0418 04:19:35.692895 32368 net.cpp:434] rpn-data <- rpn_cls_score_rpn_cls_score_0_split_1
I0418 04:19:35.692900 32368 net.cpp:434] rpn-data <- gt_boxes_data_1_split_0
I0418 04:19:35.692905 32368 net.cpp:434] rpn-data <- data_data_0_split_1
I0418 04:19:35.692910 32368 net.cpp:408] rpn-data -> rpn_labels
I0418 04:19:35.692917 32368 net.cpp:408] rpn-data -> rpn_twin_targets
I0418 04:19:35.692922 32368 net.cpp:408] rpn-data -> rpn_twin_inside_weights
I0418 04:19:35.692929 32368 net.cpp:408] rpn-data -> rpn_twin_outside_weights
I0418 04:19:35.695161 32368 net.cpp:150] Setting up rpn-data
I0418 04:19:35.695176 32368 net.cpp:157] Top shape: 1 1 3552 1 1 (3552)
I0418 04:19:35.695181 32368 net.cpp:157] Top shape: 1 74 96 1 1 (7104)
I0418 04:19:35.695184 32368 net.cpp:157] Top shape: 1 74 96 1 1 (7104)
I0418 04:19:35.695188 32368 net.cpp:157] Top shape: 1 74 96 1 1 (7104)
I0418 04:19:35.695191 32368 net.cpp:165] Memory required for data: 10172489532
I0418 04:19:35.695195 32368 layer_factory.hpp:77] Creating layer rpn_labels_rpn-data_0_split
I0418 04:19:35.695200 32368 net.cpp:100] Creating Layer rpn_labels_rpn-data_0_split
I0418 04:19:35.695204 32368 net.cpp:434] rpn_labels_rpn-data_0_split <- rpn_labels
I0418 04:19:35.695210 32368 net.cpp:408] rpn_labels_rpn-data_0_split -> rpn_labels_rpn-data_0_split_0
I0418 04:19:35.695217 32368 net.cpp:408] rpn_labels_rpn-data_0_split -> rpn_labels_rpn-data_0_split_1
I0418 04:19:35.695251 32368 net.cpp:150] Setting up rpn_labels_rpn-data_0_split
I0418 04:19:35.695258 32368 net.cpp:157] Top shape: 1 1 3552 1 1 (3552)
I0418 04:19:35.695263 32368 net.cpp:157] Top shape: 1 1 3552 1 1 (3552)
I0418 04:19:35.695266 32368 net.cpp:165] Memory required for data: 10172517948
I0418 04:19:35.695269 32368 layer_factory.hpp:77] Creating layer rpn_loss_cls
I0418 04:19:35.695277 32368 net.cpp:100] Creating Layer rpn_loss_cls
I0418 04:19:35.695281 32368 net.cpp:434] rpn_loss_cls <- rpn_cls_score_reshape_rpn_cls_score_reshape_0_split_0
I0418 04:19:35.695286 32368 net.cpp:434] rpn_loss_cls <- rpn_labels_rpn-data_0_split_0
…
I0418 04:19:35.695852 32368 layer_factory.hpp:77] Creating layer rpn_accuarcy
I0418 04:19:35.695859 32368 net.cpp:100] Creating Layer rpn_accuarcy
I0418 04:19:35.695868 32368 net.cpp:434] rpn_accuarcy <- rpn_cls_score_reshape_rpn_cls_score_reshape_0_split_1
I0418 04:19:35.695871 32368 net.cpp:434] rpn_accuarcy <- rpn_labels_rpn-data_0_split_1
I0418 04:19:35.695878 32368 net.cpp:408] rpn_accuarcy -> rpn_accuarcy
I0418 04:19:35.695885 32368 net.cpp:408] rpn_accuarcy -> rpn_accuarcy_class
I0418 04:19:35.695920 32368 net.cpp:150] Setting up rpn_accuarcy
I0418 04:19:35.695930 32368 net.cpp:157] Top shape: (1)
I0418 04:19:35.695933 32368 net.cpp:157] Top shape: 2 (2)
I0418 04:19:35.695935 32368 net.cpp:165] Memory required for data: 10172517968
I0418 04:19:35.695940 32368 layer_factory.hpp:77] Creating layer rpn_cls_prob
I0418 04:19:35.695943 32368 net.cpp:100] Creating Layer rpn_cls_prob
I0418 04:19:35.695947 32368 net.cpp:434] rpn_cls_prob <- rpn_cls_score_reshape_rpn_cls_score_reshape_0_split_2
I0418 04:19:35.695952 32368 net.cpp:408] rpn_cls_prob -> rpn_cls_prob
I0418 04:19:35.696143 32368 net.cpp:150] Setting up rpn_cls_prob
I0418 04:19:35.696153 32368 net.cpp:157] Top shape: 1 2 3552 1 1 (7104)
I0418 04:19:35.696157 32368 net.cpp:165] Memory required for data: 10172546384
I0418 04:19:35.696161 32368 layer_factory.hpp:77] Creating layer rpn_cls_prob_reshape
I0418 04:19:35.696167 32368 net.cpp:100] Creating Layer rpn_cls_prob_reshape
I0418 04:19:35.696171 32368 net.cpp:434] rpn_cls_prob_reshape <- rpn_cls_prob
I0418 04:19:35.696177 32368 net.cpp:408] rpn_cls_prob_reshape -> rpn_cls_prob_reshape
I0418 04:19:35.696202 32368 net.cpp:150] Setting up rpn_cls_prob_reshape
I0418 04:19:35.696208 32368 net.cpp:157] Top shape: 1 74 96 1 1 (7104)
I0418 04:19:35.696211 32368 net.cpp:165] Memory required for data: 10172574800
I0418 04:19:35.696214 32368 layer_factory.hpp:77] Creating layer proposal
I0418 04:19:35.696748 32368 net.cpp:100] Creating Layer proposal
I0418 04:19:35.696759 32368 net.cpp:434] proposal <- rpn_cls_prob_reshape
I0418 04:19:35.696765 32368 net.cpp:434] proposal <- rpn_twin_pred_rpn_twin_pred_0_split_1
I0418 04:19:35.696770 32368 net.cpp:408] proposal -> rpn_rois
I0418 04:19:35.698930 32368 net.cpp:150] Setting up proposal
I0418 04:19:35.698943 32368 net.cpp:157] Top shape: 1 3 (3)
I0418 04:19:35.698947 32368 net.cpp:165] Memory required for data: 10172574812
I0418 04:19:35.698951 32368 layer_factory.hpp:77] Creating layer roi-data
I0418 04:19:35.700670 32368 net.cpp:100] Creating Layer roi-data
I0418 04:19:35.700683 32368 net.cpp:434] roi-data <- rpn_rois
I0418 04:19:35.700690 32368 net.cpp:434] roi-data <- gt_boxes_data_1_split_1
I0418 04:19:35.700696 32368 net.cpp:408] roi-data -> rois
I0418 04:19:35.700706 32368 net.cpp:408] roi-data -> labels
I0418 04:19:35.700711 32368 net.cpp:408] roi-data -> twin_targets
I0418 04:19:35.700718 32368 net.cpp:408] roi-data -> twin_inside_weights
I0418 04:19:35.700724 32368 net.cpp:408] roi-data -> twin_outside_weights
I0418 04:19:35.701083 32368 net.cpp:150] Setting up roi-data
I0418 04:19:35.701097 32368 net.cpp:157] Top shape: 1 3 (3)
I0418 04:19:35.701103 32368 net.cpp:157] Top shape: 1 1 (1)
I0418 04:19:35.701107 32368 net.cpp:157] Top shape: 1 198 (198)
I0418 04:19:35.701112 32368 net.cpp:157] Top shape: 1 198 (198)
I0418 04:19:35.701115 32368 net.cpp:157] Top shape: 1 198 (198)
I0418 04:19:35.701118 32368 net.cpp:165] Memory required for data: 10172577204
I0418 04:19:35.701122 32368 layer_factory.hpp:77] Creating layer labels_roi-data_1_split
I0418 04:19:35.701128 32368 net.cpp:100] Creating Layer labels_roi-data_1_split
I0418 04:19:35.701133 32368 net.cpp:434] labels_roi-data_1_split <- labels
I0418 04:19:35.701139 32368 net.cpp:408] labels_roi-data_1_split -> labels_roi-data_1_split_0
I0418 04:19:35.701146 32368 net.cpp:408] labels_roi-data_1_split -> labels_roi-data_1_split_1
I0418 04:19:35.701182 32368 net.cpp:150] Setting up labels_roi-data_1_split
I0418 04:19:35.701191 32368 net.cpp:157] Top shape: 1 1 (1)
I0418 04:19:35.701195 32368 net.cpp:157] Top shape: 1 1 (1)
I0418 04:19:35.701200 32368 net.cpp:165] Memory required for data: 10172577212
I0418 04:19:35.701203 32368 layer_factory.hpp:77] Creating layer roi_pool5
I0418 04:19:35.701213 32368 net.cpp:100] Creating Layer roi_pool5
I0418 04:19:35.701220 32368 net.cpp:434] roi_pool5 <- conv5b_relu5b_0_split_1
I0418 04:19:35.701226 32368 net.cpp:434] roi_pool5 <- rois
I0418 04:19:35.701231 32368 net.cpp:408] roi_pool5 -> pool5
I0418 04:19:35.701239 32368 roi_pooling_layer.cpp:34] Temporal scale: 0.125
I0418 04:19:35.701246 32368 roi_pooling_layer.cpp:35] Spatial scale: 0.0625
I0418 04:19:35.701283 32368 net.cpp:150] Setting up roi_pool5
I0418 04:19:35.701293 32368 net.cpp:157] Top shape: 1 512 1 4 4 (8192)
I0418 04:19:35.701297 32368 net.cpp:165] Memory required for data: 10172609980
I0418 04:19:35.701300 32368 layer_factory.hpp:77] Creating layer fc6
I0418 04:19:35.701309 32368 net.cpp:100] Creating Layer fc6
I0418 04:19:35.701314 32368 net.cpp:434] fc6 <- pool5
I0418 04:19:35.701319 32368 net.cpp:408] fc6 -> fc6
I0418 04:19:36.580929 32368 net.cpp:150] Setting up fc6
I0418 04:19:36.580955 32368 net.cpp:157] Top shape: 1 4096 (4096)
I0418 04:19:36.580960 32368 net.cpp:165] Memory required for data: 10172626364
I0418 04:19:36.580968 32368 layer_factory.hpp:77] Creating layer relu6
I0418 04:19:36.580978 32368 net.cpp:100] Creating Layer relu6
I0418 04:19:36.580983 32368 net.cpp:434] relu6 <- fc6
I0418 04:19:36.580989 32368 net.cpp:395] relu6 -> fc6 (in-place)
I0418 04:19:36.581383 32368 net.cpp:150] Setting up relu6
I0418 04:19:36.581395 32368 net.cpp:157] Top shape: 1 4096 (4096)
I0418 04:19:36.581399 32368 net.cpp:165] Memory required for data: 10172642748
I0418 04:19:36.581403 32368 layer_factory.hpp:77] Creating layer drop6
I0418 04:19:36.581416 32368 net.cpp:100] Creating Layer drop6
I0418 04:19:36.581423 32368 net.cpp:434] drop6 <- fc6
I0418 04:19:36.581427 32368 net.cpp:395] drop6 -> fc6 (in-place)
I0418 04:19:36.581454 32368 net.cpp:150] Setting up drop6
I0418 04:19:36.581462 32368 net.cpp:157] Top shape: 1 4096 (4096)
I0418 04:19:36.581465 32368 net.cpp:165] Memory required for data: 10172659132
I0418 04:19:36.581470 32368 layer_factory.hpp:77] Creating layer fc6_drop6_0_split
I0418 04:19:36.581475 32368 net.cpp:100] Creating Layer fc6_drop6_0_split
I0418 04:19:36.581477 32368 net.cpp:434] fc6_drop6_0_split <- fc6
I0418 04:19:36.581481 32368 net.cpp:408] fc6_drop6_0_split -> fc6_drop6_0_split_0
I0418 04:19:36.581490 32368 net.cpp:408] fc6_drop6_0_split -> fc6_drop6_0_split_1
I0418 04:19:36.581521 32368 net.cpp:150] Setting up fc6_drop6_0_split
I0418 04:19:36.581527 32368 net.cpp:157] Top shape: 1 4096 (4096)
I0418 04:19:36.581531 32368 net.cpp:157] Top shape: 1 4096 (4096)
I0418 04:19:36.581533 32368 net.cpp:165] Memory required for data: 10172691900
I0418 04:19:36.581537 32368 layer_factory.hpp:77] Creating layer cls_score
I0418 04:19:36.581543 32368 net.cpp:100] Creating Layer cls_score
I0418 04:19:36.581547 32368 net.cpp:434] cls_score <- fc6_drop6_0_split_0
I0418 04:19:36.581552 32368 net.cpp:408] cls_score -> cls_score
I0418 04:19:37.643051 32368 net.cpp:150] Setting up cls_score
I0418 04:19:37.643076 32368 net.cpp:157] Top shape: 1 9900 (9900)
I0418 04:19:37.643080 32368 net.cpp:165] Memory required for data: 10172731500
I0418 04:19:37.643090 32368 layer_factory.hpp:77] Creating layer cls_score_cls_score_0_split
I0418 04:19:37.643098 32368 net.cpp:100] Creating Layer cls_score_cls_score_0_split
I0418 04:19:37.643105 32368 net.cpp:434] cls_score_cls_score_0_split <- cls_score
I0418 04:19:37.643111 32368 net.cpp:408] cls_score_cls_score_0_split -> cls_score_cls_score_0_split_0
I0418 04:19:37.643119 32368 net.cpp:408] cls_score_cls_score_0_split -> cls_score_cls_score_0_split_1
I0418 04:19:37.643152 32368 net.cpp:150] Setting up cls_score_cls_score_0_split
I0418 04:19:37.643160 32368 net.cpp:157] Top shape: 1 9900 (9900)
I0418 04:19:37.643164 32368 net.cpp:157] Top shape: 1 9900 (9900)
I0418 04:19:37.643167 32368 net.cpp:165] Memory required for data: 10172810700
I0418 04:19:37.643172 32368 layer_factory.hpp:77] Creating layer twin_pred
I0418 04:19:37.643178 32368 net.cpp:100] Creating Layer twin_pred
I0418 04:19:37.643182 32368 net.cpp:434] twin_pred <- fc6_drop6_0_split_1
I0418 04:19:37.643187 32368 net.cpp:408] twin_pred -> twin_pred
I0418 04:19:37.665071 32368 net.cpp:150] Setting up twin_pred
I0418 04:19:37.665091 32368 net.cpp:157] Top shape: 1 198 (198)
I0418 04:19:37.665094 32368 net.cpp:165] Memory required for data: 10172811492
I0418 04:19:37.665102 32368 layer_factory.hpp:77] Creating layer loss_cls
I0418 04:19:37.665109 32368 net.cpp:100] Creating Layer loss_cls
I0418 04:19:37.665114 32368 net.cpp:434] loss_cls <- cls_score_cls_score_0_split_0
I0418 04:19:37.665120 32368 net.cpp:434] loss_cls <- labels_roi-data_1_split_0
I0418 04:19:37.665127 32368 net.cpp:408] loss_cls -> loss_cls
…
