…
stepsize: 350000
snapshot: 0
snapshot_prefix: "./experiments/activitynet/snapshot/activitynet"
average_loss: 100
iter_size: 1
I0417 22:30:13.145761 27249 solver.cpp:81] Creating training net from train_net file: ./experiments/activitynet/train.prototxt
I0417 22:30:13.146924 27249 net.cpp:58] Initializing net from parameters: 
name: "activitynet"
state {
  phase: TRAIN
}
layer {
  name: "data"
  type: "Python"
  top: "data"
  top: "gt_boxes"
  python_param {
    module: "roi_data_layer.layer"
    layer: "RoIDataLayer"
    param_str: "\'num_classes\': 100"
  }
}
layer {
  name: "conv1a"
  type: "Convolution"
  bottom: "data"
  top: "conv1a"
  param {
    lr_mult: 0
    decay_mult: 0
  }
  param {
    lr_mult: 0
    decay_mult: 0
  }
  convolution_param {
    num_output: 64
    pad: 1
    pad: 1
    pad: 1
    kernel_size: 3
    kernel_size: 3
    kernel_size: 3
    weight_filler {
      type: "gaussian"
      std: 0.01
    }
    bias_filler {
      type: "constant"
      value: 0
    }
  }
}
layer {
  name: "relu1a"
  type: "ReLU"
  bottom: "conv1a"
  top: "conv1a"
}
layer {
  name: "pool1"
  type: "Pooling"
  bottom: "conv1a"
  top: "pool1"
  pooling_param {
    pool: MAX
    kernel_size: 1
    kernel_size: 2
    kernel_size: 2
    stride: 1
    stride: 2
    stride: 2
  }
}
layer {
  name: "conv2a"
  type: "Convolution"
  bottom: "pool1"
  top: "conv2a"
  param {
    lr_mult: 0
    decay_mult: 0
  }
  param {
    lr_mult: 0
    decay_mult: 0
  }
  convolution_param {
    num_output: 128
    pad: 1
    pad: 1
    pad: 1
    kernel_size: 3
    kernel_size: 3
    kernel_size: 3
    weight_filler {
      type: "gaussian"
      std: 0.01
    }
    bias_filler {
      type: "constant"
      value: 1
    }
  }
}
layer {
  name: "relu2a"
  type: "ReLU"
  bottom: "conv2a"
  top: "conv2a"
}
layer {
  name: "pool2"
  type: "Pooling"
  bottom: "conv2a"
  top: "pool2"
  pooling_param {
    pool: MAX
    kernel_size: 2
    kernel_size: 2
    kernel_size: 2
    stride: 2
    stride: 2
    stride: 2
  }
}
layer {
  name: "conv3a"
  type: "Convolution"
  bottom: "pool2"
  top: "conv3a"
  param {
    lr_mult: 1
    decay_mult: 1
  }
  param {
    lr_mult: 2
    decay_mult: 0
  }
  convolution_param {
    num_output: 256
    pad: 1
    pad: 1
    pad: 1
    kernel_size: 3
    kernel_size: 3
    kernel_size: 3
    weight_filler {
      type: "gaussian"
      std: 0.01
    }
    bias_filler {
      type: "constant"
      value: 1
    }
  }
}
layer {
  name: "relu3a"
  type: "ReLU"
  bottom: "conv3a"
  top: "conv3a"
}
layer {
  name: "conv3b"
  type: "Convolution"
  bottom: "conv3a"
  top: "conv3b"
  param {
    lr_mult: 1
    decay_mult: 1
  }
  param {
    lr_mult: 2
    decay_mult: 0
  }
  convolution_param {
    num_output: 256
    pad: 1
    pad: 1
    pad: 1
    kernel_size: 3
    kernel_size: 3
    kernel_size: 3
    weight_filler {
      type: "gaussian"
      std: 0.01
    }
    bias_filler {
      type: "constant"
      value: 1
    }
  }
}
layer {
  name: "relu3b"
  type: "ReLU"
  bottom: "conv3b"
  top: "conv3b"
}
layer {
  name: "pool3"
  type: "Pooling"
  bottom: "conv3b"
  top: "pool3"
  pooling_param {
    pool: MAX
    kernel_size: 2
    kernel_size: 2
    kernel_size: 2
    stride: 2
    stride: 2
    stride: 2
  }
}
layer {
  name: "conv4a"
  type: "Convolution"
  bottom: "pool3"
  top: "conv4a"
  param {
    lr_mult: 1
    decay_mult: 1
  }
  param {
    lr_mult: 2
    decay_mult: 0
  }
  convolution_param {
    num_output: 512
    pad: 1
    pad: 1
    pad: 1
    kernel_size: 3
    kernel_size: 3
    kernel_size: 3
    weight_filler {
      type: "gaussian"
      std: 0.01
    }
    bias_filler {
      type: "constant"
      value: 1
    }
  }
}
layer {
  name: "relu4a"
  type: "ReLU"
  bottom: "conv4a"
  top: "conv4a"
}
layer {
  name: "conv4b"
  type: "Convolution"
  bottom: "conv4a"
  top: "conv4b"
  param {
    lr_mult: 1
    decay_mult: 1
  }
  param {
    lr_mult: 2
    decay_mult: 0
  }
  convolution_param {
    num_output: 512
    pad: 1
    pad: 1
    pad: 1
    kernel_size: 3
    kernel_size: 3
    kernel_size: 3
    weight_filler {
      type: "gaussian"
      std: 0.01
    }
    bias_filler {
      type: "constant"
      value: 1
    }
  }
}
layer {
  name: "relu4b"
  type: "ReLU"
  bottom: "conv4b"
  top: "conv4b"
}
layer {
  name: "pool4"
  type: "Pooling"
  bottom: "conv4b"
  top: "pool4"
  pooling_param {
    pool: MAX
    kernel_size: 2
    kernel_size: 2
    kernel_size: 2
    stride: 2
    stride: 2
    stride: 2
  }
}
layer {
  name: "conv5a"
  type: "Convolution"
  bottom: "pool4"
  top: "conv5a"
  param {
    lr_mult: 1
    decay_mult: 1
  }
  param {
    lr_mult: 2
    decay_mult: 0
  }
  convolution_param {
    num_output: 512
    pad: 1
    pad: 1
    pad: 1
    kernel_size: 3
    kernel_size: 3
    kernel_size: 3
    weight_filler {
      type: "gaussian"
      std: 0.01
    }
    bias_filler {
      type: "constant"
      value: 1
    }
  }
}
layer {
  name: "relu5a"
  type: "ReLU"
  bottom: "conv5a"
  top: "conv5a"
}
layer {
  name: "conv5b"
  type: "Convolution"
  bottom: "conv5a"
  top: "conv5b"
  param {
    lr_mult: 1
    decay_mult: 1
  }
  param {
    lr_mult: 2
    decay_mult: 0
  }
  convolution_param {
    num_output: 512
    pad: 1
    pad: 1
    pad: 1
    kernel_size: 3
    kernel_size: 3
    kernel_size: 3
    weight_filler {
      type: "gaussian"
      std: 0.01
    }
    bias_filler {
      type: "constant"
      value: 1
    }
  }
}
layer {
  name: "relu5b"
  type: "ReLU"
  bottom: "conv5b"
  top: "conv5b"
}
layer {
  name: "rpn_conv/3x3"
  type: "Convolution"
  bottom: "conv5b"
  top: "rpn/output"
  param {
    lr_mult: 1
    decay_mult: 1
  }
  param {
    lr_mult: 2
    decay_mult: 0
  }
  convolution_param {
    num_output: 512
    pad: 1
    pad: 1
    pad: 1
    kernel_size: 3
    kernel_size: 3
    kernel_size: 3
    stride: 1
    stride: 2
    stride: 2
    weight_filler {
      type: "gaussian"
      std: 0.01
    }
    bias_filler {
      type: "constant"
      value: 0
    }
  }
}
layer {
  name: "rpn_relu/3x3"
  type: "ReLU"
  bottom: "rpn/output"
  top: "rpn/output"
}
layer {
  name: "rpn_conv/3x3_2"
  type: "Convolution"
  bottom: "rpn/output"
  top: "rpn/output_2"
  param {
    lr_mult: 1
    decay_mult: 1
  }
  param {
    lr_mult: 2
    decay_mult: 0
  }
  convolution_param {
    num_output: 512
    pad: 1
    pad: 1
    pad: 1
    kernel_size: 3
    kernel_size: 3
    kernel_size: 3
    stride: 1
    stride: 2
    stride: 2
    weight_filler {
      type: "gaussian"
      std: 0.01
    }
    bias_filler {
      type: "constant"
      value: 0
    }
  }
}
layer {
  name: "rpn_relu/3x3_2"
  type: "ReLU"
  bottom: "rpn/output_2"
  top: "rpn/output_2"
}
layer {
  name: "rpn/output_pool"
  type: "Pooling"
  bottom: "rpn/output_2"
  top: "rpn/output_pool"
  pooling_param {
    pool: MAX
    kernel_size: 1
    kernel_size: 2
    kernel_size: 2
  }
}
layer {
  name: "rpn_cls_score"
  type: "Convolution"
  bottom: "rpn/output_pool"
  top: "rpn_cls_score"
  param {
    lr_mult: 1
    decay_mult: 1
  }
  param {
    lr_mult: 2
    decay_mult: 0
  }
  convolution_param {
    num_output: 74
    kernel_size: 1
    kernel_size: 1
    kernel_size: 1
    weight_filler {
      type: "gaussian"
      std: 0.01
    }
    bias_filler {
      type: "constant"
      value: 0
    }
  }
}
layer {
  name: "rpn_twin_pred"
  type: "Convolution"
  bottom: "rpn/output_pool"
  top: "rpn_twin_pred"
  param {
    lr_mult: 1
    decay_mult: 1
  }
  param {
    lr_mult: 2
    decay_mult: 0
  }
  convolution_param {
    num_output: 74
    kernel_size: 1
    kernel_size: 1
    kernel_size: 1
    weight_filler {
      type: "gaussian"
      std: 0.01
    }
    bias_filler {
      type: "constant"
      value: 0
    }
  }
}
layer {
  name: "rpn_cls_score_reshape"
  type: "Reshape"
  bottom: "rpn_cls_score"
  top: "rpn_cls_score_reshape"
  reshape_param {
    shape {
      dim: 0
      dim: 2
      dim: -1
      dim: 0
      dim: 0
    }
  }
}
layer {
  name: "rpn-data"
  type: "Python"
  bottom: "rpn_cls_score"
  bottom: "gt_boxes"
  bottom: "data"
  top: "rpn_labels"
  top: "rpn_twin_targets"
  top: "rpn_twin_inside_weights"
  top: "rpn_twin_outside_weights"
  python_param {
    module: "rpn.anchor_target_layer"
    layer: "AnchorTargetLayer"
    param_str: "\'feat_stride\': 8 \n\'scales\': !!python/tuple [1,1.25, 1.5,1.75, 2,2.5, 3,3.5, 4,4.5, 5,5.5, 6,7, 8,9,10,11,12,14,16,18,20,22,24,28,32,36,40,44,52,60,68,76,84,92,100]"
  }
}
layer {
  name: "rpn_loss_cls"
  type: "SoftmaxWithLoss"
  bottom: "rpn_cls_score_reshape"
  bottom: "rpn_labels"
  top: "rpn_cls_loss"
  loss_weight: 1
  propagate_down: true
  propagate_down: false
  loss_param {
    ignore_label: -1
    normalize: true
  }
}
layer {
  name: "rpn_loss_twin"
  type: "SmoothL1Loss"
  bottom: "rpn_twin_pred"
  bottom: "rpn_twin_targets"
  bottom: "rpn_twin_inside_weights"
  bottom: "rpn_twin_outside_weights"
  top: "rpn_loss_twin"
  loss_weight: 1
  smooth_l1_loss_param {
    sigma: 3
  }
}
layer {
  name: "rpn_accuarcy"
  type: "Accuracy"
  bottom: "rpn_cls_score_reshape"
  bottom: "rpn_labels"
  top: "rpn_accuarcy"
  top: "rpn_accuarcy_class"
  propagate_down: false
  propagate_down: false
  accuracy_param {
    ignore_label: -1
  }
}
layer {
  name: "rpn_cls_prob"
  type: "Softmax"
  bottom: "rpn_cls_score_reshape"
  top: "rpn_cls_prob"
}
layer {
  name: "rpn_cls_prob_reshape"
  type: "Reshape"
  bottom: "rpn_cls_prob"
  top: "rpn_cls_prob_reshape"
  reshape_param {
    shape {
      dim: 0
      dim: 74
      dim: -1
      dim: 0
      dim: 0
    }
  }
}
layer {
  name: "proposal"
  type: "Python"
  bottom: "rpn_cls_prob_reshape"
  bottom: "rpn_twin_pred"
  top: "rpn_rois"
  include {
    phase: TRAIN
  }
  python_param {
    module: "rpn.proposal_layer"
    layer: "ProposalLayer"
    param_str: "\'feat_stride\': 8 \n\'scales\': !!python/tuple [1,1.25, 1.5,1.75, 2,2.5, 3,3.5, 4,4.5, 5,5.5, 6,7, 8,9,10,11,12,14,16,18,20,22,24,28,32,36,40,44,52,60,68,76,84,92,100]"
  }
}
layer {
  name: "roi-data"
  type: "Python"
  bottom: "rpn_rois"
  bottom: "gt_boxes"
  top: "rois"
  top: "labels"
  top: "twin_targets"
  top: "twin_inside_weights"
  top: "twin_outside_weights"
  python_param {
    module: "rpn.proposal_target_layer"
    layer: "ProposalTargetLayer"
    param_str: "\'num_classes\': 201"
  }
}
layer {
  name: "roi_pool5"
  type: "ROIPooling"
  bottom: "conv5b"
  bottom: "rois"
  top: "pool5"
  roi_pooling_param {
    pooled_h: 4
    pooled_w: 4
    spatial_scale: 0.0625
    pooled_l: 1
    temporal_scale: 0.125
  }
}
layer {
  name: "fc6"
  type: "InnerProduct"
  bottom: "pool5"
  top: "fc6"
  param {
    lr_mult: 1
    decay_mult: 1
  }
  param {
    lr_mult: 2
    decay_mult: 0
  }
  inner_product_param {
    num_output: 4096
    weight_filler {
      type: "gaussian"
      std: 0.005
    }
    bias_filler {
      type: "constant"
      value: 1
    }
  }
}
layer {
  name: "relu6"
  type: "ReLU"
  bottom: "fc6"
  top: "fc6"
}
layer {
  name: "drop6"
  type: "Dropout"
  bottom: "fc6"
  top: "fc6"
  dropout_param {
    dropout_ratio: 0.5
  }
}
layer {
  name: "cls_score"
  type: "InnerProduct"
  bottom: "fc6"
  top: "cls_score"
  param {
    lr_mult: 1
    decay_mult: 1
  }
  param {
    lr_mult: 2
    decay_mult: 0
  }
  inner_product_param {
    num_output: 201
    weight_filler {
      type: "gaussian"
      std: 0.01
    }
    bias_filler {
      type: "constant"
      value: 0
    }
  }
}
layer {
  name: "twin_pred"
  type: "InnerProduct"
  bottom: "fc6"
  top: "twin_pred"
  param {
    lr_mult: 1
    decay_mult: 1
  }
  param {
    lr_mult: 2
    decay_mult: 0
  }
  inner_product_param {
    num_output: 402
    weight_filler {
      type: "gaussian"
      std: 0.001
    }
    bias_filler {
      type: "constant"
      value: 0
    }
  }
}
layer {
  name: "loss_cls"
  type: "SoftmaxWithLoss"
  bottom: "cls_score"
  bottom: "labels"
  top: "loss_cls"
  loss_weight: 1
  propagate_down: true
  propagate_down: false
}
layer {
  name: "loss_twin"
  type: "SmoothL1Loss"
  bottom: "twin_pred"
  bottom: "twin_targets"
  bottom: "twin_inside_weights"
  bottom: "twin_outside_weights"
  top: "loss_twin"
  loss_weight: 1
}
layer {
  name: "accuarcy"
  type: "Accuracy"
  bottom: "cls_score"
  bottom: "labels"
  top: "accuarcy"
  propagate_down: false
  propagate_down: false
  accuracy_param {
    ignore_label: -1
  }
}
I0417 22:30:13.147275 27249 layer_factory.hpp:77] Creating layer data
I0417 22:30:13.175631 27249 net.cpp:100] Creating Layer data
I0417 22:30:13.175658 27249 net.cpp:408] data -> data
I0417 22:30:13.175678 27249 net.cpp:408] data -> gt_boxes
setting up
has rpn
RoiDataLayer: name_to_top: {'gt_windows': 1, 'data': 0}
I0417 22:30:13.191747 27249 net.cpp:150] Setting up data
I0417 22:30:13.191774 27249 net.cpp:157] Top shape: 1 3 768 112 112 (28901376)
I0417 22:30:13.191785 27249 net.cpp:157] Top shape: 1 101 (101)
I0417 22:30:13.191793 27249 net.cpp:165] Memory required for data: 115605908
I0417 22:30:13.191802 27249 layer_factory.hpp:77] Creating layer data_data_0_split
I0417 22:30:13.191821 27249 net.cpp:100] Creating Layer data_data_0_split
I0417 22:30:13.191830 27249 net.cpp:434] data_data_0_split <- data
I0417 22:30:13.191840 27249 net.cpp:408] data_data_0_split -> data_data_0_split_0
I0417 22:30:13.191855 27249 net.cpp:408] data_data_0_split -> data_data_0_split_1
I0417 22:30:13.191900 27249 net.cpp:150] Setting up data_data_0_split
I0417 22:30:13.191910 27249 net.cpp:157] Top shape: 1 3 768 112 112 (28901376)
I0417 22:30:13.191917 27249 net.cpp:157] Top shape: 1 3 768 112 112 (28901376)
I0417 22:30:13.191922 27249 net.cpp:165] Memory required for data: 346816916
I0417 22:30:13.191927 27249 layer_factory.hpp:77] Creating layer gt_boxes_data_1_split
I0417 22:30:13.191938 27249 net.cpp:100] Creating Layer gt_boxes_data_1_split
I0417 22:30:13.191946 27249 net.cpp:434] gt_boxes_data_1_split <- gt_boxes
I0417 22:30:13.191953 27249 net.cpp:408] gt_boxes_data_1_split -> gt_boxes_data_1_split_0
I0417 22:30:13.191965 27249 net.cpp:408] gt_boxes_data_1_split -> gt_boxes_data_1_split_1
I0417 22:30:13.192004 27249 net.cpp:150] Setting up gt_boxes_data_1_split
I0417 22:30:13.192014 27249 net.cpp:157] Top shape: 1 101 (101)
I0417 22:30:13.192021 27249 net.cpp:157] Top shape: 1 101 (101)
I0417 22:30:13.192026 27249 net.cpp:165] Memory required for data: 346817724
I0417 22:30:13.192031 27249 layer_factory.hpp:77] Creating layer conv1a
I0417 22:30:13.192054 27249 net.cpp:100] Creating Layer conv1a
I0417 22:30:13.192061 27249 net.cpp:434] conv1a <- data_data_0_split_0
I0417 22:30:13.192072 27249 net.cpp:408] conv1a -> conv1a
I0417 22:30:14.193956 27249 net.cpp:150] Setting up conv1a
I0417 22:30:14.193984 27249 net.cpp:157] Top shape: 1 64 768 112 112 (616562688)
I0417 22:30:14.193989 27249 net.cpp:165] Memory required for data: 2813068476
I0417 22:30:14.194008 27249 layer_factory.hpp:77] Creating layer relu1a
I0417 22:30:14.194020 27249 net.cpp:100] Creating Layer relu1a
I0417 22:30:14.194025 27249 net.cpp:434] relu1a <- conv1a
I0417 22:30:14.194031 27249 net.cpp:395] relu1a -> conv1a (in-place)
I0417 22:30:14.194453 27249 net.cpp:150] Setting up relu1a
I0417 22:30:14.194466 27249 net.cpp:157] Top shape: 1 64 768 112 112 (616562688)
I0417 22:30:14.194470 27249 net.cpp:165] Memory required for data: 5279319228
I0417 22:30:14.194474 27249 layer_factory.hpp:77] Creating layer pool1
I0417 22:30:14.194483 27249 net.cpp:100] Creating Layer pool1
I0417 22:30:14.194486 27249 net.cpp:434] pool1 <- conv1a
I0417 22:30:14.194492 27249 net.cpp:408] pool1 -> pool1
I0417 22:30:14.195943 27249 net.cpp:150] Setting up pool1
I0417 22:30:14.195955 27249 net.cpp:157] Top shape: 1 64 768 56 56 (154140672)
I0417 22:30:14.195958 27249 net.cpp:165] Memory required for data: 5895881916
I0417 22:30:14.195962 27249 layer_factory.hpp:77] Creating layer conv2a
I0417 22:30:14.195973 27249 net.cpp:100] Creating Layer conv2a
I0417 22:30:14.195976 27249 net.cpp:434] conv2a <- pool1
I0417 22:30:14.195982 27249 net.cpp:408] conv2a -> conv2a
I0417 22:30:14.217417 27249 net.cpp:150] Setting up conv2a
I0417 22:30:14.217443 27249 net.cpp:157] Top shape: 1 128 768 56 56 (308281344)
I0417 22:30:14.217447 27249 net.cpp:165] Memory required for data: 7129007292
I0417 22:30:14.217460 27249 layer_factory.hpp:77] Creating layer relu2a
I0417 22:30:14.217470 27249 net.cpp:100] Creating Layer relu2a
I0417 22:30:14.217475 27249 net.cpp:434] relu2a <- conv2a
I0417 22:30:14.217481 27249 net.cpp:395] relu2a -> conv2a (in-place)
I0417 22:30:14.217793 27249 net.cpp:150] Setting up relu2a
I0417 22:30:14.217806 27249 net.cpp:157] Top shape: 1 128 768 56 56 (308281344)
I0417 22:30:14.217810 27249 net.cpp:165] Memory required for data: 8362132668
I0417 22:30:14.217814 27249 layer_factory.hpp:77] Creating layer pool2
I0417 22:30:14.217824 27249 net.cpp:100] Creating Layer pool2
I0417 22:30:14.217828 27249 net.cpp:434] pool2 <- conv2a
I0417 22:30:14.217833 27249 net.cpp:408] pool2 -> pool2
I0417 22:30:14.218269 27249 net.cpp:150] Setting up pool2
I0417 22:30:14.218281 27249 net.cpp:157] Top shape: 1 128 384 28 28 (38535168)
I0417 22:30:14.218283 27249 net.cpp:165] Memory required for data: 8516273340
I0417 22:30:14.218287 27249 layer_factory.hpp:77] Creating layer conv3a
I0417 22:30:14.218297 27249 net.cpp:100] Creating Layer conv3a
I0417 22:30:14.218302 27249 net.cpp:434] conv3a <- pool2
I0417 22:30:14.218307 27249 net.cpp:408] conv3a -> conv3a
I0417 22:30:14.243867 27249 net.cpp:150] Setting up conv3a
I0417 22:30:14.243885 27249 net.cpp:157] Top shape: 1 256 384 28 28 (77070336)
I0417 22:30:14.243890 27249 net.cpp:165] Memory required for data: 8824554684
I0417 22:30:14.243899 27249 layer_factory.hpp:77] Creating layer relu3a
I0417 22:30:14.243907 27249 net.cpp:100] Creating Layer relu3a
I0417 22:30:14.243911 27249 net.cpp:434] relu3a <- conv3a
I0417 22:30:14.243916 27249 net.cpp:395] relu3a -> conv3a (in-place)
I0417 22:30:14.244199 27249 net.cpp:150] Setting up relu3a
I0417 22:30:14.244212 27249 net.cpp:157] Top shape: 1 256 384 28 28 (77070336)
I0417 22:30:14.244215 27249 net.cpp:165] Memory required for data: 9132836028
I0417 22:30:14.244220 27249 layer_factory.hpp:77] Creating layer conv3b
I0417 22:30:14.244228 27249 net.cpp:100] Creating Layer conv3b
I0417 22:30:14.244232 27249 net.cpp:434] conv3b <- conv3a
I0417 22:30:14.244238 27249 net.cpp:408] conv3b -> conv3b
I0417 22:30:14.294672 27249 net.cpp:150] Setting up conv3b
I0417 22:30:14.294695 27249 net.cpp:157] Top shape: 1 256 384 28 28 (77070336)
I0417 22:30:14.294700 27249 net.cpp:165] Memory required for data: 9441117372
I0417 22:30:14.294709 27249 layer_factory.hpp:77] Creating layer relu3b
I0417 22:30:14.294718 27249 net.cpp:100] Creating Layer relu3b
I0417 22:30:14.294723 27249 net.cpp:434] relu3b <- conv3b
I0417 22:30:14.294728 27249 net.cpp:395] relu3b -> conv3b (in-place)
I0417 22:30:14.295197 27249 net.cpp:150] Setting up relu3b
I0417 22:30:14.295209 27249 net.cpp:157] Top shape: 1 256 384 28 28 (77070336)
I0417 22:30:14.295212 27249 net.cpp:165] Memory required for data: 9749398716
I0417 22:30:14.295217 27249 layer_factory.hpp:77] Creating layer pool3
I0417 22:30:14.295224 27249 net.cpp:100] Creating Layer pool3
I0417 22:30:14.295228 27249 net.cpp:434] pool3 <- conv3b
I0417 22:30:14.295233 27249 net.cpp:408] pool3 -> pool3
I0417 22:30:14.295897 27249 net.cpp:150] Setting up pool3
I0417 22:30:14.295907 27249 net.cpp:157] Top shape: 1 256 192 14 14 (9633792)
I0417 22:30:14.295910 27249 net.cpp:165] Memory required for data: 9787933884
I0417 22:30:14.295914 27249 layer_factory.hpp:77] Creating layer conv4a
I0417 22:30:14.295924 27249 net.cpp:100] Creating Layer conv4a
I0417 22:30:14.295928 27249 net.cpp:434] conv4a <- pool3
I0417 22:30:14.295933 27249 net.cpp:408] conv4a -> conv4a
I0417 22:30:14.394099 27249 net.cpp:150] Setting up conv4a
I0417 22:30:14.394124 27249 net.cpp:157] Top shape: 1 512 192 14 14 (19267584)
I0417 22:30:14.394127 27249 net.cpp:165] Memory required for data: 9865004220
I0417 22:30:14.394140 27249 layer_factory.hpp:77] Creating layer relu4a
I0417 22:30:14.394150 27249 net.cpp:100] Creating Layer relu4a
I0417 22:30:14.394153 27249 net.cpp:434] relu4a <- conv4a
I0417 22:30:14.394160 27249 net.cpp:395] relu4a -> conv4a (in-place)
I0417 22:30:14.394449 27249 net.cpp:150] Setting up relu4a
I0417 22:30:14.394462 27249 net.cpp:157] Top shape: 1 512 192 14 14 (19267584)
I0417 22:30:14.394465 27249 net.cpp:165] Memory required for data: 9942074556
I0417 22:30:14.394469 27249 layer_factory.hpp:77] Creating layer conv4b
I0417 22:30:14.394481 27249 net.cpp:100] Creating Layer conv4b
I0417 22:30:14.394484 27249 net.cpp:434] conv4b <- conv4a
I0417 22:30:14.394490 27249 net.cpp:408] conv4b -> conv4b
I0417 22:30:14.587385 27249 net.cpp:150] Setting up conv4b
I0417 22:30:14.587410 27249 net.cpp:157] Top shape: 1 512 192 14 14 (19267584)
I0417 22:30:14.587414 27249 net.cpp:165] Memory required for data: 10019144892
I0417 22:30:14.587422 27249 layer_factory.hpp:77] Creating layer relu4b
I0417 22:30:14.587433 27249 net.cpp:100] Creating Layer relu4b
I0417 22:30:14.587438 27249 net.cpp:434] relu4b <- conv4b
I0417 22:30:14.587445 27249 net.cpp:395] relu4b -> conv4b (in-place)
I0417 22:30:14.587791 27249 net.cpp:150] Setting up relu4b
I0417 22:30:14.587802 27249 net.cpp:157] Top shape: 1 512 192 14 14 (19267584)
I0417 22:30:14.587806 27249 net.cpp:165] Memory required for data: 10096215228
I0417 22:30:14.587810 27249 layer_factory.hpp:77] Creating layer pool4
I0417 22:30:14.587818 27249 net.cpp:100] Creating Layer pool4
I0417 22:30:14.587821 27249 net.cpp:434] pool4 <- conv4b
I0417 22:30:14.587828 27249 net.cpp:408] pool4 -> pool4
I0417 22:30:14.588162 27249 net.cpp:150] Setting up pool4
I0417 22:30:14.588174 27249 net.cpp:157] Top shape: 1 512 96 7 7 (2408448)
I0417 22:30:14.588178 27249 net.cpp:165] Memory required for data: 10105849020
I0417 22:30:14.588182 27249 layer_factory.hpp:77] Creating layer conv5a
I0417 22:30:14.588193 27249 net.cpp:100] Creating Layer conv5a
I0417 22:30:14.588197 27249 net.cpp:434] conv5a <- pool4
I0417 22:30:14.588204 27249 net.cpp:408] conv5a -> conv5a
I0417 22:30:14.777000 27249 net.cpp:150] Setting up conv5a
I0417 22:30:14.777026 27249 net.cpp:157] Top shape: 1 512 96 7 7 (2408448)
I0417 22:30:14.777030 27249 net.cpp:165] Memory required for data: 10115482812
I0417 22:30:14.777038 27249 layer_factory.hpp:77] Creating layer relu5a
I0417 22:30:14.777050 27249 net.cpp:100] Creating Layer relu5a
I0417 22:30:14.777053 27249 net.cpp:434] relu5a <- conv5a
I0417 22:30:14.777060 27249 net.cpp:395] relu5a -> conv5a (in-place)
I0417 22:30:14.777472 27249 net.cpp:150] Setting up relu5a
I0417 22:30:14.777484 27249 net.cpp:157] Top shape: 1 512 96 7 7 (2408448)
I0417 22:30:14.777487 27249 net.cpp:165] Memory required for data: 10125116604
I0417 22:30:14.777492 27249 layer_factory.hpp:77] Creating layer conv5b
I0417 22:30:14.777504 27249 net.cpp:100] Creating Layer conv5b
I0417 22:30:14.777508 27249 net.cpp:434] conv5b <- conv5a
I0417 22:30:14.777515 27249 net.cpp:408] conv5b -> conv5b
I0417 22:30:14.966465 27249 net.cpp:150] Setting up conv5b
I0417 22:30:14.966490 27249 net.cpp:157] Top shape: 1 512 96 7 7 (2408448)
I0417 22:30:14.966495 27249 net.cpp:165] Memory required for data: 10134750396
I0417 22:30:14.966503 27249 layer_factory.hpp:77] Creating layer relu5b
I0417 22:30:14.966514 27249 net.cpp:100] Creating Layer relu5b
I0417 22:30:14.966519 27249 net.cpp:434] relu5b <- conv5b
I0417 22:30:14.966526 27249 net.cpp:395] relu5b -> conv5b (in-place)
I0417 22:30:14.967725 27249 net.cpp:150] Setting up relu5b
I0417 22:30:14.967734 27249 net.cpp:157] Top shape: 1 512 96 7 7 (2408448)
I0417 22:30:14.967737 27249 net.cpp:165] Memory required for data: 10144384188
I0417 22:30:14.967741 27249 layer_factory.hpp:77] Creating layer conv5b_relu5b_0_split
I0417 22:30:14.967749 27249 net.cpp:100] Creating Layer conv5b_relu5b_0_split
I0417 22:30:14.967756 27249 net.cpp:434] conv5b_relu5b_0_split <- conv5b
I0417 22:30:14.967764 27249 net.cpp:408] conv5b_relu5b_0_split -> conv5b_relu5b_0_split_0
I0417 22:30:14.967775 27249 net.cpp:408] conv5b_relu5b_0_split -> conv5b_relu5b_0_split_1
I0417 22:30:14.967844 27249 net.cpp:150] Setting up conv5b_relu5b_0_split
I0417 22:30:14.967860 27249 net.cpp:157] Top shape: 1 512 96 7 7 (2408448)
I0417 22:30:14.967869 27249 net.cpp:157] Top shape: 1 512 96 7 7 (2408448)
I0417 22:30:14.967875 27249 net.cpp:165] Memory required for data: 10163651772
I0417 22:30:14.967880 27249 layer_factory.hpp:77] Creating layer rpn_conv/3x3
I0417 22:30:14.967902 27249 net.cpp:100] Creating Layer rpn_conv/3x3
I0417 22:30:14.967909 27249 net.cpp:434] rpn_conv/3x3 <- conv5b_relu5b_0_split_0
I0417 22:30:14.967919 27249 net.cpp:408] rpn_conv/3x3 -> rpn/output
I0417 22:30:15.157254 27249 net.cpp:150] Setting up rpn_conv/3x3
I0417 22:30:15.157279 27249 net.cpp:157] Top shape: 1 512 96 4 4 (786432)
I0417 22:30:15.157284 27249 net.cpp:165] Memory required for data: 10166797500
I0417 22:30:15.157296 27249 layer_factory.hpp:77] Creating layer rpn_relu/3x3
I0417 22:30:15.157307 27249 net.cpp:100] Creating Layer rpn_relu/3x3
I0417 22:30:15.157311 27249 net.cpp:434] rpn_relu/3x3 <- rpn/output
I0417 22:30:15.157318 27249 net.cpp:395] rpn_relu/3x3 -> rpn/output (in-place)
I0417 22:30:15.157804 27249 net.cpp:150] Setting up rpn_relu/3x3
I0417 22:30:15.157816 27249 net.cpp:157] Top shape: 1 512 96 4 4 (786432)
I0417 22:30:15.157820 27249 net.cpp:165] Memory required for data: 10169943228
I0417 22:30:15.157824 27249 layer_factory.hpp:77] Creating layer rpn_conv/3x3_2
I0417 22:30:15.157835 27249 net.cpp:100] Creating Layer rpn_conv/3x3_2
I0417 22:30:15.157840 27249 net.cpp:434] rpn_conv/3x3_2 <- rpn/output
I0417 22:30:15.157845 27249 net.cpp:408] rpn_conv/3x3_2 -> rpn/output_2
I0417 22:30:15.347637 27249 net.cpp:150] Setting up rpn_conv/3x3_2
I0417 22:30:15.347662 27249 net.cpp:157] Top shape: 1 512 96 2 2 (196608)
I0417 22:30:15.347667 27249 net.cpp:165] Memory required for data: 10170729660
I0417 22:30:15.347676 27249 layer_factory.hpp:77] Creating layer rpn_relu/3x3_2
I0417 22:30:15.347684 27249 net.cpp:100] Creating Layer rpn_relu/3x3_2
I0417 22:30:15.347689 27249 net.cpp:434] rpn_relu/3x3_2 <- rpn/output_2
I0417 22:30:15.347697 27249 net.cpp:395] rpn_relu/3x3_2 -> rpn/output_2 (in-place)
I0417 22:30:15.348222 27249 net.cpp:150] Setting up rpn_relu/3x3_2
I0417 22:30:15.348233 27249 net.cpp:157] Top shape: 1 512 96 2 2 (196608)
I0417 22:30:15.348238 27249 net.cpp:165] Memory required for data: 10171516092
I0417 22:30:15.348242 27249 layer_factory.hpp:77] Creating layer rpn/output_pool
I0417 22:30:15.348250 27249 net.cpp:100] Creating Layer rpn/output_pool
I0417 22:30:15.348253 27249 net.cpp:434] rpn/output_pool <- rpn/output_2
I0417 22:30:15.348259 27249 net.cpp:408] rpn/output_pool -> rpn/output_pool
I0417 22:30:15.348433 27249 net.cpp:150] Setting up rpn/output_pool
I0417 22:30:15.348443 27249 net.cpp:157] Top shape: 1 512 96 1 1 (49152)
I0417 22:30:15.348446 27249 net.cpp:165] Memory required for data: 10171712700
I0417 22:30:15.348449 27249 layer_factory.hpp:77] Creating layer rpn/output_pool_rpn/output_pool_0_split
I0417 22:30:15.348454 27249 net.cpp:100] Creating Layer rpn/output_pool_rpn/output_pool_0_split
I0417 22:30:15.348459 27249 net.cpp:434] rpn/output_pool_rpn/output_pool_0_split <- rpn/output_pool
I0417 22:30:15.348464 27249 net.cpp:408] rpn/output_pool_rpn/output_pool_0_split -> rpn/output_pool_rpn/output_pool_0_split_0
I0417 22:30:15.348469 27249 net.cpp:408] rpn/output_pool_rpn/output_pool_0_split -> rpn/output_pool_rpn/output_pool_0_split_1
I0417 22:30:15.348502 27249 net.cpp:150] Setting up rpn/output_pool_rpn/output_pool_0_split
I0417 22:30:15.348510 27249 net.cpp:157] Top shape: 1 512 96 1 1 (49152)
I0417 22:30:15.348515 27249 net.cpp:157] Top shape: 1 512 96 1 1 (49152)
I0417 22:30:15.348516 27249 net.cpp:165] Memory required for data: 10172105916
I0417 22:30:15.348520 27249 layer_factory.hpp:77] Creating layer rpn_cls_score
I0417 22:30:15.348531 27249 net.cpp:100] Creating Layer rpn_cls_score
I0417 22:30:15.348534 27249 net.cpp:434] rpn_cls_score <- rpn/output_pool_rpn/output_pool_0_split_0
I0417 22:30:15.348539 27249 net.cpp:408] rpn_cls_score -> rpn_cls_score
I0417 22:30:15.352895 27249 net.cpp:150] Setting up rpn_cls_score
I0417 22:30:15.352910 27249 net.cpp:157] Top shape: 1 74 96 1 1 (7104)
I0417 22:30:15.352913 27249 net.cpp:165] Memory required for data: 10172134332
I0417 22:30:15.352919 27249 layer_factory.hpp:77] Creating layer rpn_cls_score_rpn_cls_score_0_split
I0417 22:30:15.352926 27249 net.cpp:100] Creating Layer rpn_cls_score_rpn_cls_score_0_split
I0417 22:30:15.352929 27249 net.cpp:434] rpn_cls_score_rpn_cls_score_0_split <- rpn_cls_score
I0417 22:30:15.352936 27249 net.cpp:408] rpn_cls_score_rpn_cls_score_0_split -> rpn_cls_score_rpn_cls_score_0_split_0
I0417 22:30:15.352941 27249 net.cpp:408] rpn_cls_score_rpn_cls_score_0_split -> rpn_cls_score_rpn_cls_score_0_split_1
I0417 22:30:15.352982 27249 net.cpp:150] Setting up rpn_cls_score_rpn_cls_score_0_split
I0417 22:30:15.352991 27249 net.cpp:157] Top shape: 1 74 96 1 1 (7104)
I0417 22:30:15.352996 27249 net.cpp:157] Top shape: 1 74 96 1 1 (7104)
I0417 22:30:15.352998 27249 net.cpp:165] Memory required for data: 10172191164
I0417 22:30:15.353003 27249 layer_factory.hpp:77] Creating layer rpn_twin_pred
I0417 22:30:15.353016 27249 net.cpp:100] Creating Layer rpn_twin_pred
I0417 22:30:15.353020 27249 net.cpp:434] rpn_twin_pred <- rpn/output_pool_rpn/output_pool_0_split_1
I0417 22:30:15.353027 27249 net.cpp:408] rpn_twin_pred -> rpn_twin_pred
I0417 22:30:15.355185 27249 net.cpp:150] Setting up rpn_twin_pred
I0417 22:30:15.355199 27249 net.cpp:157] Top shape: 1 74 96 1 1 (7104)
I0417 22:30:15.355203 27249 net.cpp:165] Memory required for data: 10172219580
I0417 22:30:15.355209 27249 layer_factory.hpp:77] Creating layer rpn_twin_pred_rpn_twin_pred_0_split
I0417 22:30:15.355216 27249 net.cpp:100] Creating Layer rpn_twin_pred_rpn_twin_pred_0_split
I0417 22:30:15.355218 27249 net.cpp:434] rpn_twin_pred_rpn_twin_pred_0_split <- rpn_twin_pred
I0417 22:30:15.355226 27249 net.cpp:408] rpn_twin_pred_rpn_twin_pred_0_split -> rpn_twin_pred_rpn_twin_pred_0_split_0
I0417 22:30:15.355232 27249 net.cpp:408] rpn_twin_pred_rpn_twin_pred_0_split -> rpn_twin_pred_rpn_twin_pred_0_split_1
I0417 22:30:15.355265 27249 net.cpp:150] Setting up rpn_twin_pred_rpn_twin_pred_0_split
I0417 22:30:15.355273 27249 net.cpp:157] Top shape: 1 74 96 1 1 (7104)
I0417 22:30:15.355276 27249 net.cpp:157] Top shape: 1 74 96 1 1 (7104)
I0417 22:30:15.355280 27249 net.cpp:165] Memory required for data: 10172276412
I0417 22:30:15.355283 27249 layer_factory.hpp:77] Creating layer rpn_cls_score_reshape
I0417 22:30:15.355294 27249 net.cpp:100] Creating Layer rpn_cls_score_reshape
I0417 22:30:15.355301 27249 net.cpp:434] rpn_cls_score_reshape <- rpn_cls_score_rpn_cls_score_0_split_0
I0417 22:30:15.355306 27249 net.cpp:408] rpn_cls_score_reshape -> rpn_cls_score_reshape
I0417 22:30:15.355332 27249 net.cpp:150] Setting up rpn_cls_score_reshape
I0417 22:30:15.355338 27249 net.cpp:157] Top shape: 1 2 3552 1 1 (7104)
I0417 22:30:15.355341 27249 net.cpp:165] Memory required for data: 10172304828
I0417 22:30:15.355345 27249 layer_factory.hpp:77] Creating layer rpn_cls_score_reshape_rpn_cls_score_reshape_0_split
I0417 22:30:15.355350 27249 net.cpp:100] Creating Layer rpn_cls_score_reshape_rpn_cls_score_reshape_0_split
I0417 22:30:15.355352 27249 net.cpp:434] rpn_cls_score_reshape_rpn_cls_score_reshape_0_split <- rpn_cls_score_reshape
I0417 22:30:15.355360 27249 net.cpp:408] rpn_cls_score_reshape_rpn_cls_score_reshape_0_split -> rpn_cls_score_reshape_rpn_cls_score_reshape_0_split_0
I0417 22:30:15.355368 27249 net.cpp:408] rpn_cls_score_reshape_rpn_cls_score_reshape_0_split -> rpn_cls_score_reshape_rpn_cls_score_reshape_0_split_1
I0417 22:30:15.355373 27249 net.cpp:408] rpn_cls_score_reshape_rpn_cls_score_reshape_0_split -> rpn_cls_score_reshape_rpn_cls_score_reshape_0_split_2
I0417 22:30:15.355412 27249 net.cpp:150] Setting up rpn_cls_score_reshape_rpn_cls_score_reshape_0_split
I0417 22:30:15.355418 27249 net.cpp:157] Top shape: 1 2 3552 1 1 (7104)
I0417 22:30:15.355422 27249 net.cpp:157] Top shape: 1 2 3552 1 1 (7104)
I0417 22:30:15.355427 27249 net.cpp:157] Top shape: 1 2 3552 1 1 (7104)
I0417 22:30:15.355429 27249 net.cpp:165] Memory required for data: 10172390076
I0417 22:30:15.355432 27249 layer_factory.hpp:77] Creating layer rpn-data
I0417 22:30:15.355819 27249 net.cpp:100] Creating Layer rpn-data
I0417 22:30:15.355831 27249 net.cpp:434] rpn-data <- rpn_cls_score_rpn_cls_score_0_split_1
I0417 22:30:15.355836 27249 net.cpp:434] rpn-data <- gt_boxes_data_1_split_0
I0417 22:30:15.355841 27249 net.cpp:434] rpn-data <- data_data_0_split_1
I0417 22:30:15.355846 27249 net.cpp:408] rpn-data -> rpn_labels
I0417 22:30:15.355854 27249 net.cpp:408] rpn-data -> rpn_twin_targets
I0417 22:30:15.355859 27249 net.cpp:408] rpn-data -> rpn_twin_inside_weights
I0417 22:30:15.355865 27249 net.cpp:408] rpn-data -> rpn_twin_outside_weights
I0417 22:30:15.358070 27249 net.cpp:150] Setting up rpn-data
I0417 22:30:15.358093 27249 net.cpp:157] Top shape: 1 1 3552 1 1 (3552)
I0417 22:30:15.358098 27249 net.cpp:157] Top shape: 1 74 96 1 1 (7104)
I0417 22:30:15.358101 27249 net.cpp:157] Top shape: 1 74 96 1 1 (7104)
I0417 22:30:15.358105 27249 net.cpp:157] Top shape: 1 74 96 1 1 (7104)
I0417 22:30:15.358108 27249 net.cpp:165] Memory required for data: 10172489532
I0417 22:30:15.358111 27249 layer_factory.hpp:77] Creating layer rpn_labels_rpn-data_0_split
I0417 22:30:15.358117 27249 net.cpp:100] Creating Layer rpn_labels_rpn-data_0_split
I0417 22:30:15.358120 27249 net.cpp:434] rpn_labels_rpn-data_0_split <- rpn_labels
I0417 22:30:15.358126 27249 net.cpp:408] rpn_labels_rpn-data_0_split -> rpn_labels_rpn-data_0_split_0
I0417 22:30:15.358134 27249 net.cpp:408] rpn_labels_rpn-data_0_split -> rpn_labels_rpn-data_0_split_1
I0417 22:30:15.358163 27249 net.cpp:150] Setting up rpn_labels_rpn-data_0_split
I0417 22:30:15.358170 27249 net.cpp:157] Top shape: 1 1 3552 1 1 (3552)
I0417 22:30:15.358175 27249 net.cpp:157] Top shape: 1 1 3552 1 1 (3552)
I0417 22:30:15.358177 27249 net.cpp:165] Memory required for data: 10172517948
I0417 22:30:15.358181 27249 layer_factory.hpp:77] Creating layer rpn_loss_cls
I0417 22:30:15.358189 27249 net.cpp:100] Creating Layer rpn_loss_cls
I0417 22:30:15.358192 27249 net.cpp:434] rpn_loss_cls <- rpn_cls_score_reshape_rpn_cls_score_reshape_0_split_0
I0417 22:30:15.358197 27249 net.cpp:434] rpn_loss_cls <- rpn_labels_rpn-data_0_split_0
…
I0417 22:30:15.358755 27249 layer_factory.hpp:77] Creating layer rpn_accuarcy
I0417 22:30:15.358788 27249 net.cpp:100] Creating Layer rpn_accuarcy
I0417 22:30:15.358798 27249 net.cpp:434] rpn_accuarcy <- rpn_cls_score_reshape_rpn_cls_score_reshape_0_split_1
I0417 22:30:15.358804 27249 net.cpp:434] rpn_accuarcy <- rpn_labels_rpn-data_0_split_1
I0417 22:30:15.358811 27249 net.cpp:408] rpn_accuarcy -> rpn_accuarcy
I0417 22:30:15.358821 27249 net.cpp:408] rpn_accuarcy -> rpn_accuarcy_class
I0417 22:30:15.358873 27249 net.cpp:150] Setting up rpn_accuarcy
I0417 22:30:15.358883 27249 net.cpp:157] Top shape: (1)
I0417 22:30:15.358889 27249 net.cpp:157] Top shape: 2 (2)
I0417 22:30:15.358894 27249 net.cpp:165] Memory required for data: 10172517968
I0417 22:30:15.358902 27249 layer_factory.hpp:77] Creating layer rpn_cls_prob
I0417 22:30:15.358909 27249 net.cpp:100] Creating Layer rpn_cls_prob
I0417 22:30:15.358913 27249 net.cpp:434] rpn_cls_prob <- rpn_cls_score_reshape_rpn_cls_score_reshape_0_split_2
I0417 22:30:15.358920 27249 net.cpp:408] rpn_cls_prob -> rpn_cls_prob
I0417 22:30:15.359117 27249 net.cpp:150] Setting up rpn_cls_prob
I0417 22:30:15.359127 27249 net.cpp:157] Top shape: 1 2 3552 1 1 (7104)
I0417 22:30:15.359131 27249 net.cpp:165] Memory required for data: 10172546384
I0417 22:30:15.359134 27249 layer_factory.hpp:77] Creating layer rpn_cls_prob_reshape
I0417 22:30:15.359140 27249 net.cpp:100] Creating Layer rpn_cls_prob_reshape
I0417 22:30:15.359144 27249 net.cpp:434] rpn_cls_prob_reshape <- rpn_cls_prob
I0417 22:30:15.359149 27249 net.cpp:408] rpn_cls_prob_reshape -> rpn_cls_prob_reshape
I0417 22:30:15.359177 27249 net.cpp:150] Setting up rpn_cls_prob_reshape
I0417 22:30:15.359186 27249 net.cpp:157] Top shape: 1 74 96 1 1 (7104)
I0417 22:30:15.359190 27249 net.cpp:165] Memory required for data: 10172574800
I0417 22:30:15.359194 27249 layer_factory.hpp:77] Creating layer proposal
I0417 22:30:15.359730 27249 net.cpp:100] Creating Layer proposal
I0417 22:30:15.359742 27249 net.cpp:434] proposal <- rpn_cls_prob_reshape
I0417 22:30:15.359748 27249 net.cpp:434] proposal <- rpn_twin_pred_rpn_twin_pred_0_split_1
I0417 22:30:15.359753 27249 net.cpp:408] proposal -> rpn_rois
I0417 22:30:15.361867 27249 net.cpp:150] Setting up proposal
I0417 22:30:15.361881 27249 net.cpp:157] Top shape: 1 3 (3)
I0417 22:30:15.361884 27249 net.cpp:165] Memory required for data: 10172574812
I0417 22:30:15.361888 27249 layer_factory.hpp:77] Creating layer roi-data
I0417 22:30:15.363368 27249 net.cpp:100] Creating Layer roi-data
I0417 22:30:15.363381 27249 net.cpp:434] roi-data <- rpn_rois
I0417 22:30:15.363386 27249 net.cpp:434] roi-data <- gt_boxes_data_1_split_1
I0417 22:30:15.363392 27249 net.cpp:408] roi-data -> rois
I0417 22:30:15.363399 27249 net.cpp:408] roi-data -> labels
I0417 22:30:15.363404 27249 net.cpp:408] roi-data -> twin_targets
I0417 22:30:15.363409 27249 net.cpp:408] roi-data -> twin_inside_weights
I0417 22:30:15.363415 27249 net.cpp:408] roi-data -> twin_outside_weights
I0417 22:30:15.363719 27249 net.cpp:150] Setting up roi-data
I0417 22:30:15.363734 27249 net.cpp:157] Top shape: 1 3 (3)
I0417 22:30:15.363739 27249 net.cpp:157] Top shape: 1 1 (1)
I0417 22:30:15.363741 27249 net.cpp:157] Top shape: 1 402 (402)
I0417 22:30:15.363744 27249 net.cpp:157] Top shape: 1 402 (402)
I0417 22:30:15.363749 27249 net.cpp:157] Top shape: 1 402 (402)
I0417 22:30:15.363751 27249 net.cpp:165] Memory required for data: 10172579652
I0417 22:30:15.363755 27249 layer_factory.hpp:77] Creating layer labels_roi-data_1_split
I0417 22:30:15.363760 27249 net.cpp:100] Creating Layer labels_roi-data_1_split
I0417 22:30:15.363764 27249 net.cpp:434] labels_roi-data_1_split <- labels
I0417 22:30:15.363770 27249 net.cpp:408] labels_roi-data_1_split -> labels_roi-data_1_split_0
I0417 22:30:15.363775 27249 net.cpp:408] labels_roi-data_1_split -> labels_roi-data_1_split_1
I0417 22:30:15.363806 27249 net.cpp:150] Setting up labels_roi-data_1_split
I0417 22:30:15.363813 27249 net.cpp:157] Top shape: 1 1 (1)
I0417 22:30:15.363817 27249 net.cpp:157] Top shape: 1 1 (1)
I0417 22:30:15.363821 27249 net.cpp:165] Memory required for data: 10172579660
I0417 22:30:15.363823 27249 layer_factory.hpp:77] Creating layer roi_pool5
I0417 22:30:15.363833 27249 net.cpp:100] Creating Layer roi_pool5
I0417 22:30:15.363842 27249 net.cpp:434] roi_pool5 <- conv5b_relu5b_0_split_1
I0417 22:30:15.363847 27249 net.cpp:434] roi_pool5 <- rois
I0417 22:30:15.363850 27249 net.cpp:408] roi_pool5 -> pool5
I0417 22:30:15.363857 27249 roi_pooling_layer.cpp:34] Temporal scale: 0.125
I0417 22:30:15.363864 27249 roi_pooling_layer.cpp:35] Spatial scale: 0.0625
I0417 22:30:15.363895 27249 net.cpp:150] Setting up roi_pool5
I0417 22:30:15.363903 27249 net.cpp:157] Top shape: 1 512 1 4 4 (8192)
I0417 22:30:15.363906 27249 net.cpp:165] Memory required for data: 10172612428
I0417 22:30:15.363909 27249 layer_factory.hpp:77] Creating layer fc6
I0417 22:30:15.363917 27249 net.cpp:100] Creating Layer fc6
I0417 22:30:15.363921 27249 net.cpp:434] fc6 <- pool5
I0417 22:30:15.363926 27249 net.cpp:408] fc6 -> fc6
I0417 22:30:16.243492 27249 net.cpp:150] Setting up fc6
I0417 22:30:16.243516 27249 net.cpp:157] Top shape: 1 4096 (4096)
I0417 22:30:16.243521 27249 net.cpp:165] Memory required for data: 10172628812
I0417 22:30:16.243530 27249 layer_factory.hpp:77] Creating layer relu6
I0417 22:30:16.243541 27249 net.cpp:100] Creating Layer relu6
I0417 22:30:16.243544 27249 net.cpp:434] relu6 <- fc6
I0417 22:30:16.243551 27249 net.cpp:395] relu6 -> fc6 (in-place)
I0417 22:30:16.243948 27249 net.cpp:150] Setting up relu6
I0417 22:30:16.243962 27249 net.cpp:157] Top shape: 1 4096 (4096)
I0417 22:30:16.243964 27249 net.cpp:165] Memory required for data: 10172645196
I0417 22:30:16.243968 27249 layer_factory.hpp:77] Creating layer drop6
I0417 22:30:16.243981 27249 net.cpp:100] Creating Layer drop6
I0417 22:30:16.243985 27249 net.cpp:434] drop6 <- fc6
I0417 22:30:16.243991 27249 net.cpp:395] drop6 -> fc6 (in-place)
I0417 22:30:16.244019 27249 net.cpp:150] Setting up drop6
I0417 22:30:16.244026 27249 net.cpp:157] Top shape: 1 4096 (4096)
I0417 22:30:16.244029 27249 net.cpp:165] Memory required for data: 10172661580
I0417 22:30:16.244033 27249 layer_factory.hpp:77] Creating layer fc6_drop6_0_split
I0417 22:30:16.244038 27249 net.cpp:100] Creating Layer fc6_drop6_0_split
I0417 22:30:16.244042 27249 net.cpp:434] fc6_drop6_0_split <- fc6
I0417 22:30:16.244046 27249 net.cpp:408] fc6_drop6_0_split -> fc6_drop6_0_split_0
I0417 22:30:16.244053 27249 net.cpp:408] fc6_drop6_0_split -> fc6_drop6_0_split_1
I0417 22:30:16.244084 27249 net.cpp:150] Setting up fc6_drop6_0_split
I0417 22:30:16.244091 27249 net.cpp:157] Top shape: 1 4096 (4096)
I0417 22:30:16.244096 27249 net.cpp:157] Top shape: 1 4096 (4096)
I0417 22:30:16.244098 27249 net.cpp:165] Memory required for data: 10172694348
I0417 22:30:16.244102 27249 layer_factory.hpp:77] Creating layer cls_score
I0417 22:30:16.244109 27249 net.cpp:100] Creating Layer cls_score
I0417 22:30:16.244112 27249 net.cpp:434] cls_score <- fc6_drop6_0_split_0
I0417 22:30:16.244117 27249 net.cpp:408] cls_score -> cls_score
I0417 22:30:16.265633 27249 net.cpp:150] Setting up cls_score
I0417 22:30:16.265652 27249 net.cpp:157] Top shape: 1 201 (201)
I0417 22:30:16.265656 27249 net.cpp:165] Memory required for data: 10172695152
I0417 22:30:16.265664 27249 layer_factory.hpp:77] Creating layer cls_score_cls_score_0_split
I0417 22:30:16.265671 27249 net.cpp:100] Creating Layer cls_score_cls_score_0_split
I0417 22:30:16.265676 27249 net.cpp:434] cls_score_cls_score_0_split <- cls_score
I0417 22:30:16.265682 27249 net.cpp:408] cls_score_cls_score_0_split -> cls_score_cls_score_0_split_0
I0417 22:30:16.265688 27249 net.cpp:408] cls_score_cls_score_0_split -> cls_score_cls_score_0_split_1
I0417 22:30:16.265722 27249 net.cpp:150] Setting up cls_score_cls_score_0_split
I0417 22:30:16.265729 27249 net.cpp:157] Top shape: 1 201 (201)
I0417 22:30:16.265733 27249 net.cpp:157] Top shape: 1 201 (201)
I0417 22:30:16.265735 27249 net.cpp:165] Memory required for data: 10172696760
I0417 22:30:16.265739 27249 layer_factory.hpp:77] Creating layer twin_pred
I0417 22:30:16.265751 27249 net.cpp:100] Creating Layer twin_pred
I0417 22:30:16.265756 27249 net.cpp:434] twin_pred <- fc6_drop6_0_split_1
I0417 22:30:16.265763 27249 net.cpp:408] twin_pred -> twin_pred
I0417 22:30:16.308486 27249 net.cpp:150] Setting up twin_pred
I0417 22:30:16.308508 27249 net.cpp:157] Top shape: 1 402 (402)
I0417 22:30:16.308512 27249 net.cpp:165] Memory required for data: 10172698368
I0417 22:30:16.308521 27249 layer_factory.hpp:77] Creating layer loss_cls
I0417 22:30:16.308528 27249 net.cpp:100] Creating Layer loss_cls
I0417 22:30:16.308534 27249 net.cpp:434] loss_cls <- cls_score_cls_score_0_split_0
I0417 22:30:16.308540 27249 net.cpp:434] loss_cls <- labels_roi-data_1_split_0
I0417 22:30:16.308545 27249 net.cpp:408] loss_cls -> loss_cls
…
