…
stepsize: 350000
snapshot: 0
snapshot_prefix: "./experiments/activitynet/snapshot/activitynet"
average_loss: 100
iter_size: 1
I0416 10:45:10.643872  6988 solver.cpp:81] Creating training net from train_net file: ./experiments/activitynet/train.prototxt
I0416 10:45:10.644431  6988 net.cpp:58] Initializing net from parameters: 
name: "activitynet"
state {
  phase: TRAIN
}
layer {
  name: "data"
  type: "Python"
  top: "data"
  top: "gt_boxes"
  python_param {
    module: "roi_data_layer.layer"
    layer: "RoIDataLayer"
    param_str: "\'num_classes\': 100"
  }
}
layer {
  name: "conv1a"
  type: "Convolution"
  bottom: "data"
  top: "conv1a"
  param {
    lr_mult: 0
    decay_mult: 0
  }
  param {
    lr_mult: 0
    decay_mult: 0
  }
  convolution_param {
    num_output: 64
    pad: 1
    pad: 1
    pad: 1
    kernel_size: 3
    kernel_size: 3
    kernel_size: 3
    weight_filler {
      type: "gaussian"
      std: 0.01
    }
    bias_filler {
      type: "constant"
      value: 0
    }
  }
}
layer {
  name: "relu1a"
  type: "ReLU"
  bottom: "conv1a"
  top: "conv1a"
}
layer {
  name: "pool1"
  type: "Pooling"
  bottom: "conv1a"
  top: "pool1"
  pooling_param {
    pool: MAX
    kernel_size: 1
    kernel_size: 2
    kernel_size: 2
    stride: 1
    stride: 2
    stride: 2
  }
}
layer {
  name: "conv2a"
  type: "Convolution"
  bottom: "pool1"
  top: "conv2a"
  param {
    lr_mult: 0
    decay_mult: 0
  }
  param {
    lr_mult: 0
    decay_mult: 0
  }
  convolution_param {
    num_output: 128
    pad: 1
    pad: 1
    pad: 1
    kernel_size: 3
    kernel_size: 3
    kernel_size: 3
    weight_filler {
      type: "gaussian"
      std: 0.01
    }
    bias_filler {
      type: "constant"
      value: 1
    }
  }
}
layer {
  name: "relu2a"
  type: "ReLU"
  bottom: "conv2a"
  top: "conv2a"
}
layer {
  name: "pool2"
  type: "Pooling"
  bottom: "conv2a"
  top: "pool2"
  pooling_param {
    pool: MAX
    kernel_size: 2
    kernel_size: 2
    kernel_size: 2
    stride: 2
    stride: 2
    stride: 2
  }
}
layer {
  name: "conv3a"
  type: "Convolution"
  bottom: "pool2"
  top: "conv3a"
  param {
    lr_mult: 1
    decay_mult: 1
  }
  param {
    lr_mult: 2
    decay_mult: 0
  }
  convolution_param {
    num_output: 256
    pad: 1
    pad: 1
    pad: 1
    kernel_size: 3
    kernel_size: 3
    kernel_size: 3
    weight_filler {
      type: "gaussian"
      std: 0.01
    }
    bias_filler {
      type: "constant"
      value: 1
    }
  }
}
layer {
  name: "relu3a"
  type: "ReLU"
  bottom: "conv3a"
  top: "conv3a"
}
layer {
  name: "conv3b"
  type: "Convolution"
  bottom: "conv3a"
  top: "conv3b"
  param {
    lr_mult: 1
    decay_mult: 1
  }
  param {
    lr_mult: 2
    decay_mult: 0
  }
  convolution_param {
    num_output: 256
    pad: 1
    pad: 1
    pad: 1
    kernel_size: 3
    kernel_size: 3
    kernel_size: 3
    weight_filler {
      type: "gaussian"
      std: 0.01
    }
    bias_filler {
      type: "constant"
      value: 1
    }
  }
}
layer {
  name: "relu3b"
  type: "ReLU"
  bottom: "conv3b"
  top: "conv3b"
}
layer {
  name: "pool3"
  type: "Pooling"
  bottom: "conv3b"
  top: "pool3"
  pooling_param {
    pool: MAX
    kernel_size: 2
    kernel_size: 2
    kernel_size: 2
    stride: 2
    stride: 2
    stride: 2
  }
}
layer {
  name: "conv4a"
  type: "Convolution"
  bottom: "pool3"
  top: "conv4a"
  param {
    lr_mult: 1
    decay_mult: 1
  }
  param {
    lr_mult: 2
    decay_mult: 0
  }
  convolution_param {
    num_output: 512
    pad: 1
    pad: 1
    pad: 1
    kernel_size: 3
    kernel_size: 3
    kernel_size: 3
    weight_filler {
      type: "gaussian"
      std: 0.01
    }
    bias_filler {
      type: "constant"
      value: 1
    }
  }
}
layer {
  name: "relu4a"
  type: "ReLU"
  bottom: "conv4a"
  top: "conv4a"
}
layer {
  name: "conv4b"
  type: "Convolution"
  bottom: "conv4a"
  top: "conv4b"
  param {
    lr_mult: 1
    decay_mult: 1
  }
  param {
    lr_mult: 2
    decay_mult: 0
  }
  convolution_param {
    num_output: 512
    pad: 1
    pad: 1
    pad: 1
    kernel_size: 3
    kernel_size: 3
    kernel_size: 3
    weight_filler {
      type: "gaussian"
      std: 0.01
    }
    bias_filler {
      type: "constant"
      value: 1
    }
  }
}
layer {
  name: "relu4b"
  type: "ReLU"
  bottom: "conv4b"
  top: "conv4b"
}
layer {
  name: "pool4"
  type: "Pooling"
  bottom: "conv4b"
  top: "pool4"
  pooling_param {
    pool: MAX
    kernel_size: 2
    kernel_size: 2
    kernel_size: 2
    stride: 2
    stride: 2
    stride: 2
  }
}
layer {
  name: "conv5a"
  type: "Convolution"
  bottom: "pool4"
  top: "conv5a"
  param {
    lr_mult: 1
    decay_mult: 1
  }
  param {
    lr_mult: 2
    decay_mult: 0
  }
  convolution_param {
    num_output: 512
    pad: 1
    pad: 1
    pad: 1
    kernel_size: 3
    kernel_size: 3
    kernel_size: 3
    weight_filler {
      type: "gaussian"
      std: 0.01
    }
    bias_filler {
      type: "constant"
      value: 1
    }
  }
}
layer {
  name: "relu5a"
  type: "ReLU"
  bottom: "conv5a"
  top: "conv5a"
}
layer {
  name: "conv5b"
  type: "Convolution"
  bottom: "conv5a"
  top: "conv5b"
  param {
    lr_mult: 1
    decay_mult: 1
  }
  param {
    lr_mult: 2
    decay_mult: 0
  }
  convolution_param {
    num_output: 512
    pad: 1
    pad: 1
    pad: 1
    kernel_size: 3
    kernel_size: 3
    kernel_size: 3
    weight_filler {
      type: "gaussian"
      std: 0.01
    }
    bias_filler {
      type: "constant"
      value: 1
    }
  }
}
layer {
  name: "relu5b"
  type: "ReLU"
  bottom: "conv5b"
  top: "conv5b"
}
layer {
  name: "rpn_conv/3x3"
  type: "Convolution"
  bottom: "conv5b"
  top: "rpn/output"
  param {
    lr_mult: 1
    decay_mult: 1
  }
  param {
    lr_mult: 2
    decay_mult: 0
  }
  convolution_param {
    num_output: 512
    pad: 1
    pad: 1
    pad: 1
    kernel_size: 3
    kernel_size: 3
    kernel_size: 3
    stride: 1
    stride: 2
    stride: 2
    weight_filler {
      type: "gaussian"
      std: 0.01
    }
    bias_filler {
      type: "constant"
      value: 0
    }
  }
}
layer {
  name: "rpn_relu/3x3"
  type: "ReLU"
  bottom: "rpn/output"
  top: "rpn/output"
}
layer {
  name: "rpn_conv/3x3_2"
  type: "Convolution"
  bottom: "rpn/output"
  top: "rpn/output_2"
  param {
    lr_mult: 1
    decay_mult: 1
  }
  param {
    lr_mult: 2
    decay_mult: 0
  }
  convolution_param {
    num_output: 512
    pad: 1
    pad: 1
    pad: 1
    kernel_size: 3
    kernel_size: 3
    kernel_size: 3
    stride: 1
    stride: 2
    stride: 2
    weight_filler {
      type: "gaussian"
      std: 0.01
    }
    bias_filler {
      type: "constant"
      value: 0
    }
  }
}
layer {
  name: "rpn_relu/3x3_2"
  type: "ReLU"
  bottom: "rpn/output_2"
  top: "rpn/output_2"
}
layer {
  name: "rpn/output_pool"
  type: "Pooling"
  bottom: "rpn/output_2"
  top: "rpn/output_pool"
  pooling_param {
    pool: MAX
    kernel_size: 1
    kernel_size: 2
    kernel_size: 2
  }
}
layer {
  name: "rpn_cls_score"
  type: "Convolution"
  bottom: "rpn/output_pool"
  top: "rpn_cls_score"
  param {
    lr_mult: 1
    decay_mult: 1
  }
  param {
    lr_mult: 2
    decay_mult: 0
  }
  convolution_param {
    num_output: 74
    kernel_size: 1
    kernel_size: 1
    kernel_size: 1
    weight_filler {
      type: "gaussian"
      std: 0.01
    }
    bias_filler {
      type: "constant"
      value: 0
    }
  }
}
layer {
  name: "rpn_twin_pred"
  type: "Convolution"
  bottom: "rpn/output_pool"
  top: "rpn_twin_pred"
  param {
    lr_mult: 1
    decay_mult: 1
  }
  param {
    lr_mult: 2
    decay_mult: 0
  }
  convolution_param {
    num_output: 74
    kernel_size: 1
    kernel_size: 1
    kernel_size: 1
    weight_filler {
      type: "gaussian"
      std: 0.01
    }
    bias_filler {
      type: "constant"
      value: 0
    }
  }
}
layer {
  name: "rpn_cls_score_reshape"
  type: "Reshape"
  bottom: "rpn_cls_score"
  top: "rpn_cls_score_reshape"
  reshape_param {
    shape {
      dim: 0
      dim: 2
      dim: -1
      dim: 0
      dim: 0
    }
  }
}
layer {
  name: "rpn-data"
  type: "Python"
  bottom: "rpn_cls_score"
  bottom: "gt_boxes"
  bottom: "data"
  top: "rpn_labels"
  top: "rpn_twin_targets"
  top: "rpn_twin_inside_weights"
  top: "rpn_twin_outside_weights"
  python_param {
    module: "rpn.anchor_target_layer"
    layer: "AnchorTargetLayer"
    param_str: "\'feat_stride\': 8 \n\'scales\': !!python/tuple [1,1.25, 1.5,1.75, 2,2.5, 3,3.5, 4,4.5, 5,5.5, 6,7, 8,9,10,11,12,14,16,18,20,22,24,28,32,36,40,44,52,60,68,76,84,92,100]"
  }
}
layer {
  name: "rpn_loss_cls"
  type: "SoftmaxWithLoss"
  bottom: "rpn_cls_score_reshape"
  bottom: "rpn_labels"
  top: "rpn_cls_loss"
  loss_weight: 1
  propagate_down: true
  propagate_down: false
  loss_param {
    ignore_label: -1
    normalize: true
  }
}
layer {
  name: "rpn_loss_twin"
  type: "SmoothL1Loss"
  bottom: "rpn_twin_pred"
  bottom: "rpn_twin_targets"
  bottom: "rpn_twin_inside_weights"
  bottom: "rpn_twin_outside_weights"
  top: "rpn_loss_twin"
  loss_weight: 1
  smooth_l1_loss_param {
    sigma: 3
  }
}
layer {
  name: "rpn_accuarcy"
  type: "Accuracy"
  bottom: "rpn_cls_score_reshape"
  bottom: "rpn_labels"
  top: "rpn_accuarcy"
  top: "rpn_accuarcy_class"
  propagate_down: false
  propagate_down: false
  accuracy_param {
    ignore_label: -1
  }
}
layer {
  name: "rpn_cls_prob"
  type: "Softmax"
  bottom: "rpn_cls_score_reshape"
  top: "rpn_cls_prob"
}
layer {
  name: "rpn_cls_prob_reshape"
  type: "Reshape"
  bottom: "rpn_cls_prob"
  top: "rpn_cls_prob_reshape"
  reshape_param {
    shape {
      dim: 0
      dim: 74
      dim: -1
      dim: 0
      dim: 0
    }
  }
}
layer {
  name: "proposal"
  type: "Python"
  bottom: "rpn_cls_prob_reshape"
  bottom: "rpn_twin_pred"
  top: "rpn_rois"
  include {
    phase: TRAIN
  }
  python_param {
    module: "rpn.proposal_layer"
    layer: "ProposalLayer"
    param_str: "\'feat_stride\': 8 \n\'scales\': !!python/tuple [1,1.25, 1.5,1.75, 2,2.5, 3,3.5, 4,4.5, 5,5.5, 6,7, 8,9,10,11,12,14,16,18,20,22,24,28,32,36,40,44,52,60,68,76,84,92,100]"
  }
}
layer {
  name: "roi-data"
  type: "Python"
  bottom: "rpn_rois"
  bottom: "gt_boxes"
  top: "rois"
  top: "labels"
  top: "twin_targets"
  top: "twin_inside_weights"
  top: "twin_outside_weights"
  python_param {
    module: "rpn.proposal_target_layer"
    layer: "ProposalTargetLayer"
    param_str: "\'num_classes\': 201"
  }
}
layer {
  name: "roi_pool5"
  type: "ROIPooling"
  bottom: "conv5b"
  bottom: "rois"
  top: "pool5"
  roi_pooling_param {
    pooled_h: 4
    pooled_w: 4
    spatial_scale: 0.0625
    pooled_l: 1
    temporal_scale: 0.125
  }
}
layer {
  name: "fc6"
  type: "InnerProduct"
  bottom: "pool5"
  top: "fc6"
  param {
    lr_mult: 1
    decay_mult: 1
  }
  param {
    lr_mult: 2
    decay_mult: 0
  }
  inner_product_param {
    num_output: 4096
    weight_filler {
      type: "gaussian"
      std: 0.005
    }
    bias_filler {
      type: "constant"
      value: 1
    }
  }
}
layer {
  name: "relu6"
  type: "ReLU"
  bottom: "fc6"
  top: "fc6"
}
layer {
  name: "drop6"
  type: "Dropout"
  bottom: "fc6"
  top: "fc6"
  dropout_param {
    dropout_ratio: 0.5
  }
}
layer {
  name: "cls_score"
  type: "InnerProduct"
  bottom: "fc6"
  top: "cls_score"
  param {
    lr_mult: 1
    decay_mult: 1
  }
  param {
    lr_mult: 2
    decay_mult: 0
  }
  inner_product_param {
    num_output: 201
    weight_filler {
      type: "gaussian"
      std: 0.01
    }
    bias_filler {
      type: "constant"
      value: 0
    }
  }
}
layer {
  name: "twin_pred"
  type: "InnerProduct"
  bottom: "fc6"
  top: "twin_pred"
  param {
    lr_mult: 1
    decay_mult: 1
  }
  param {
    lr_mult: 2
    decay_mult: 0
  }
  inner_product_param {
    num_output: 402
    weight_filler {
      type: "gaussian"
      std: 0.001
    }
    bias_filler {
      type: "constant"
      value: 0
    }
  }
}
layer {
  name: "loss_cls"
  type: "SoftmaxWithLoss"
  bottom: "cls_score"
  bottom: "labels"
  top: "loss_cls"
  loss_weight: 1
  propagate_down: true
  propagate_down: false
}
layer {
  name: "loss_twin"
  type: "SmoothL1Loss"
  bottom: "twin_pred"
  bottom: "twin_targets"
  bottom: "twin_inside_weights"
  bottom: "twin_outside_weights"
  top: "loss_twin"
  loss_weight: 1
}
layer {
  name: "accuarcy"
  type: "Accuracy"
  bottom: "cls_score"
  bottom: "labels"
  top: "accuarcy"
  propagate_down: false
  propagate_down: false
  accuracy_param {
    ignore_label: -1
  }
}
I0416 10:45:10.644701  6988 layer_factory.hpp:77] Creating layer data
I0416 10:45:10.655083  6988 net.cpp:100] Creating Layer data
I0416 10:45:10.655103  6988 net.cpp:408] data -> data
I0416 10:45:10.655112  6988 net.cpp:408] data -> gt_boxes
RoiDataLayer: name_to_top: {'gt_windows': 1, 'data': 0}
I0416 10:45:10.663630  6988 net.cpp:150] Setting up data
I0416 10:45:10.663655  6988 net.cpp:157] Top shape: 1 3 768 112 112 (28901376)
I0416 10:45:10.663664  6988 net.cpp:157] Top shape: 1 3 (3)
I0416 10:45:10.663668  6988 net.cpp:165] Memory required for data: 115605516
I0416 10:45:10.663677  6988 layer_factory.hpp:77] Creating layer data_data_0_split
I0416 10:45:10.663694  6988 net.cpp:100] Creating Layer data_data_0_split
I0416 10:45:10.663702  6988 net.cpp:434] data_data_0_split <- data
I0416 10:45:10.663713  6988 net.cpp:408] data_data_0_split -> data_data_0_split_0
I0416 10:45:10.663728  6988 net.cpp:408] data_data_0_split -> data_data_0_split_1
I0416 10:45:10.663782  6988 net.cpp:150] Setting up data_data_0_split
I0416 10:45:10.663790  6988 net.cpp:157] Top shape: 1 3 768 112 112 (28901376)
I0416 10:45:10.663794  6988 net.cpp:157] Top shape: 1 3 768 112 112 (28901376)
I0416 10:45:10.663799  6988 net.cpp:165] Memory required for data: 346816524
I0416 10:45:10.663803  6988 layer_factory.hpp:77] Creating layer gt_boxes_data_1_split
I0416 10:45:10.663815  6988 net.cpp:100] Creating Layer gt_boxes_data_1_split
I0416 10:45:10.663820  6988 net.cpp:434] gt_boxes_data_1_split <- gt_boxes
I0416 10:45:10.663827  6988 net.cpp:408] gt_boxes_data_1_split -> gt_boxes_data_1_split_0
I0416 10:45:10.663837  6988 net.cpp:408] gt_boxes_data_1_split -> gt_boxes_data_1_split_1
I0416 10:45:10.663884  6988 net.cpp:150] Setting up gt_boxes_data_1_split
I0416 10:45:10.663892  6988 net.cpp:157] Top shape: 1 3 (3)
I0416 10:45:10.663895  6988 net.cpp:157] Top shape: 1 3 (3)
I0416 10:45:10.663897  6988 net.cpp:165] Memory required for data: 346816548
I0416 10:45:10.663903  6988 layer_factory.hpp:77] Creating layer conv1a
I0416 10:45:10.663921  6988 net.cpp:100] Creating Layer conv1a
I0416 10:45:10.663928  6988 net.cpp:434] conv1a <- data_data_0_split_0
I0416 10:45:10.663935  6988 net.cpp:408] conv1a -> conv1a
I0416 10:45:10.681435  6988 net.cpp:150] Setting up conv1a
I0416 10:45:10.681468  6988 net.cpp:157] Top shape: 1 64 768 112 112 (616562688)
I0416 10:45:10.681471  6988 net.cpp:165] Memory required for data: 2813067300
I0416 10:45:10.681493  6988 layer_factory.hpp:77] Creating layer relu1a
I0416 10:45:10.681510  6988 net.cpp:100] Creating Layer relu1a
I0416 10:45:10.681516  6988 net.cpp:434] relu1a <- conv1a
I0416 10:45:10.681527  6988 net.cpp:395] relu1a -> conv1a (in-place)
I0416 10:45:10.681542  6988 net.cpp:150] Setting up relu1a
I0416 10:45:10.681550  6988 net.cpp:157] Top shape: 1 64 768 112 112 (616562688)
I0416 10:45:10.681555  6988 net.cpp:165] Memory required for data: 5279318052
I0416 10:45:10.681560  6988 layer_factory.hpp:77] Creating layer pool1
I0416 10:45:10.681569  6988 net.cpp:100] Creating Layer pool1
I0416 10:45:10.681576  6988 net.cpp:434] pool1 <- conv1a
I0416 10:45:10.681584  6988 net.cpp:408] pool1 -> pool1
I0416 10:45:10.681686  6988 net.cpp:150] Setting up pool1
I0416 10:45:10.681696  6988 net.cpp:157] Top shape: 1 64 768 56 56 (154140672)
I0416 10:45:10.681700  6988 net.cpp:165] Memory required for data: 5895880740
I0416 10:45:10.681705  6988 layer_factory.hpp:77] Creating layer conv2a
I0416 10:45:10.681721  6988 net.cpp:100] Creating Layer conv2a
I0416 10:45:10.681728  6988 net.cpp:434] conv2a <- pool1
I0416 10:45:10.681736  6988 net.cpp:408] conv2a -> conv2a
I0416 10:45:10.688745  6988 net.cpp:150] Setting up conv2a
I0416 10:45:10.688776  6988 net.cpp:157] Top shape: 1 128 768 56 56 (308281344)
I0416 10:45:10.688778  6988 net.cpp:165] Memory required for data: 7129006116
I0416 10:45:10.688794  6988 layer_factory.hpp:77] Creating layer relu2a
I0416 10:45:10.688819  6988 net.cpp:100] Creating Layer relu2a
I0416 10:45:10.688827  6988 net.cpp:434] relu2a <- conv2a
I0416 10:45:10.688834  6988 net.cpp:395] relu2a -> conv2a (in-place)
I0416 10:45:10.688848  6988 net.cpp:150] Setting up relu2a
I0416 10:45:10.688855  6988 net.cpp:157] Top shape: 1 128 768 56 56 (308281344)
I0416 10:45:10.688859  6988 net.cpp:165] Memory required for data: 8362131492
I0416 10:45:10.688863  6988 layer_factory.hpp:77] Creating layer pool2
I0416 10:45:10.688880  6988 net.cpp:100] Creating Layer pool2
I0416 10:45:10.688886  6988 net.cpp:434] pool2 <- conv2a
I0416 10:45:10.688894  6988 net.cpp:408] pool2 -> pool2
I0416 10:45:10.688977  6988 net.cpp:150] Setting up pool2
I0416 10:45:10.688984  6988 net.cpp:157] Top shape: 1 128 384 28 28 (38535168)
I0416 10:45:10.688987  6988 net.cpp:165] Memory required for data: 8516272164
I0416 10:45:10.688990  6988 layer_factory.hpp:77] Creating layer conv3a
I0416 10:45:10.689005  6988 net.cpp:100] Creating Layer conv3a
I0416 10:45:10.689013  6988 net.cpp:434] conv3a <- pool2
I0416 10:45:10.689018  6988 net.cpp:408] conv3a -> conv3a
I0416 10:45:10.697149  6988 net.cpp:150] Setting up conv3a
I0416 10:45:10.697170  6988 net.cpp:157] Top shape: 1 256 384 28 28 (77070336)
I0416 10:45:10.697175  6988 net.cpp:165] Memory required for data: 8824553508
I0416 10:45:10.697187  6988 layer_factory.hpp:77] Creating layer relu3a
I0416 10:45:10.697196  6988 net.cpp:100] Creating Layer relu3a
I0416 10:45:10.697201  6988 net.cpp:434] relu3a <- conv3a
I0416 10:45:10.697211  6988 net.cpp:395] relu3a -> conv3a (in-place)
I0416 10:45:10.697221  6988 net.cpp:150] Setting up relu3a
I0416 10:45:10.697227  6988 net.cpp:157] Top shape: 1 256 384 28 28 (77070336)
I0416 10:45:10.697232  6988 net.cpp:165] Memory required for data: 9132834852
I0416 10:45:10.697237  6988 layer_factory.hpp:77] Creating layer conv3b
I0416 10:45:10.697250  6988 net.cpp:100] Creating Layer conv3b
I0416 10:45:10.697270  6988 net.cpp:434] conv3b <- conv3a
I0416 10:45:10.697291  6988 net.cpp:408] conv3b -> conv3b
I0416 10:45:10.713613  6988 net.cpp:150] Setting up conv3b
I0416 10:45:10.713641  6988 net.cpp:157] Top shape: 1 256 384 28 28 (77070336)
I0416 10:45:10.713645  6988 net.cpp:165] Memory required for data: 9441116196
I0416 10:45:10.713656  6988 layer_factory.hpp:77] Creating layer relu3b
I0416 10:45:10.713668  6988 net.cpp:100] Creating Layer relu3b
I0416 10:45:10.713673  6988 net.cpp:434] relu3b <- conv3b
I0416 10:45:10.713685  6988 net.cpp:395] relu3b -> conv3b (in-place)
I0416 10:45:10.713696  6988 net.cpp:150] Setting up relu3b
I0416 10:45:10.713702  6988 net.cpp:157] Top shape: 1 256 384 28 28 (77070336)
I0416 10:45:10.713707  6988 net.cpp:165] Memory required for data: 9749397540
I0416 10:45:10.713711  6988 layer_factory.hpp:77] Creating layer pool3
I0416 10:45:10.713721  6988 net.cpp:100] Creating Layer pool3
I0416 10:45:10.713743  6988 net.cpp:434] pool3 <- conv3b
I0416 10:45:10.713762  6988 net.cpp:408] pool3 -> pool3
I0416 10:45:10.713846  6988 net.cpp:150] Setting up pool3
I0416 10:45:10.713857  6988 net.cpp:157] Top shape: 1 256 192 14 14 (9633792)
I0416 10:45:10.713861  6988 net.cpp:165] Memory required for data: 9787932708
I0416 10:45:10.713866  6988 layer_factory.hpp:77] Creating layer conv4a
I0416 10:45:10.713881  6988 net.cpp:100] Creating Layer conv4a
I0416 10:45:10.713897  6988 net.cpp:434] conv4a <- pool3
I0416 10:45:10.713920  6988 net.cpp:408] conv4a -> conv4a
I0416 10:45:10.745767  6988 net.cpp:150] Setting up conv4a
I0416 10:45:10.745795  6988 net.cpp:157] Top shape: 1 512 192 14 14 (19267584)
I0416 10:45:10.745798  6988 net.cpp:165] Memory required for data: 9865003044
I0416 10:45:10.745817  6988 layer_factory.hpp:77] Creating layer relu4a
I0416 10:45:10.745829  6988 net.cpp:100] Creating Layer relu4a
I0416 10:45:10.745834  6988 net.cpp:434] relu4a <- conv4a
I0416 10:45:10.745843  6988 net.cpp:395] relu4a -> conv4a (in-place)
I0416 10:45:10.745856  6988 net.cpp:150] Setting up relu4a
I0416 10:45:10.745885  6988 net.cpp:157] Top shape: 1 512 192 14 14 (19267584)
I0416 10:45:10.745903  6988 net.cpp:165] Memory required for data: 9942073380
I0416 10:45:10.745918  6988 layer_factory.hpp:77] Creating layer conv4b
I0416 10:45:10.745950  6988 net.cpp:100] Creating Layer conv4b
I0416 10:45:10.745972  6988 net.cpp:434] conv4b <- conv4a
I0416 10:45:10.745991  6988 net.cpp:408] conv4b -> conv4b
I0416 10:45:10.804684  6988 net.cpp:150] Setting up conv4b
I0416 10:45:10.804718  6988 net.cpp:157] Top shape: 1 512 192 14 14 (19267584)
I0416 10:45:10.804723  6988 net.cpp:165] Memory required for data: 10019143716
I0416 10:45:10.804734  6988 layer_factory.hpp:77] Creating layer relu4b
I0416 10:45:10.804745  6988 net.cpp:100] Creating Layer relu4b
I0416 10:45:10.804751  6988 net.cpp:434] relu4b <- conv4b
I0416 10:45:10.804759  6988 net.cpp:395] relu4b -> conv4b (in-place)
I0416 10:45:10.804770  6988 net.cpp:150] Setting up relu4b
I0416 10:45:10.804777  6988 net.cpp:157] Top shape: 1 512 192 14 14 (19267584)
I0416 10:45:10.804782  6988 net.cpp:165] Memory required for data: 10096214052
I0416 10:45:10.804787  6988 layer_factory.hpp:77] Creating layer pool4
I0416 10:45:10.804797  6988 net.cpp:100] Creating Layer pool4
I0416 10:45:10.804805  6988 net.cpp:434] pool4 <- conv4b
I0416 10:45:10.804811  6988 net.cpp:408] pool4 -> pool4
I0416 10:45:10.804872  6988 net.cpp:150] Setting up pool4
I0416 10:45:10.804884  6988 net.cpp:157] Top shape: 1 512 96 7 7 (2408448)
I0416 10:45:10.804889  6988 net.cpp:165] Memory required for data: 10105847844
I0416 10:45:10.804894  6988 layer_factory.hpp:77] Creating layer conv5a
I0416 10:45:10.804908  6988 net.cpp:100] Creating Layer conv5a
I0416 10:45:10.804914  6988 net.cpp:434] conv5a <- pool4
I0416 10:45:10.804924  6988 net.cpp:408] conv5a -> conv5a
I0416 10:45:10.863029  6988 net.cpp:150] Setting up conv5a
I0416 10:45:10.863060  6988 net.cpp:157] Top shape: 1 512 96 7 7 (2408448)
I0416 10:45:10.863065  6988 net.cpp:165] Memory required for data: 10115481636
I0416 10:45:10.863076  6988 layer_factory.hpp:77] Creating layer relu5a
I0416 10:45:10.863090  6988 net.cpp:100] Creating Layer relu5a
I0416 10:45:10.863095  6988 net.cpp:434] relu5a <- conv5a
I0416 10:45:10.863104  6988 net.cpp:395] relu5a -> conv5a (in-place)
I0416 10:45:10.863116  6988 net.cpp:150] Setting up relu5a
I0416 10:45:10.863123  6988 net.cpp:157] Top shape: 1 512 96 7 7 (2408448)
I0416 10:45:10.863127  6988 net.cpp:165] Memory required for data: 10125115428
I0416 10:45:10.863132  6988 layer_factory.hpp:77] Creating layer conv5b
I0416 10:45:10.863147  6988 net.cpp:100] Creating Layer conv5b
I0416 10:45:10.863168  6988 net.cpp:434] conv5b <- conv5a
I0416 10:45:10.863189  6988 net.cpp:408] conv5b -> conv5b
I0416 10:45:10.921416  6988 net.cpp:150] Setting up conv5b
I0416 10:45:10.921445  6988 net.cpp:157] Top shape: 1 512 96 7 7 (2408448)
I0416 10:45:10.921449  6988 net.cpp:165] Memory required for data: 10134749220
I0416 10:45:10.921458  6988 layer_factory.hpp:77] Creating layer relu5b
I0416 10:45:10.921471  6988 net.cpp:100] Creating Layer relu5b
I0416 10:45:10.921478  6988 net.cpp:434] relu5b <- conv5b
I0416 10:45:10.921489  6988 net.cpp:395] relu5b -> conv5b (in-place)
I0416 10:45:10.921499  6988 net.cpp:150] Setting up relu5b
I0416 10:45:10.921507  6988 net.cpp:157] Top shape: 1 512 96 7 7 (2408448)
I0416 10:45:10.921514  6988 net.cpp:165] Memory required for data: 10144383012
I0416 10:45:10.921519  6988 layer_factory.hpp:77] Creating layer conv5b_relu5b_0_split
I0416 10:45:10.921525  6988 net.cpp:100] Creating Layer conv5b_relu5b_0_split
I0416 10:45:10.921530  6988 net.cpp:434] conv5b_relu5b_0_split <- conv5b
I0416 10:45:10.921535  6988 net.cpp:408] conv5b_relu5b_0_split -> conv5b_relu5b_0_split_0
I0416 10:45:10.921541  6988 net.cpp:408] conv5b_relu5b_0_split -> conv5b_relu5b_0_split_1
I0416 10:45:10.921586  6988 net.cpp:150] Setting up conv5b_relu5b_0_split
I0416 10:45:10.921592  6988 net.cpp:157] Top shape: 1 512 96 7 7 (2408448)
I0416 10:45:10.921597  6988 net.cpp:157] Top shape: 1 512 96 7 7 (2408448)
I0416 10:45:10.921602  6988 net.cpp:165] Memory required for data: 10163650596
I0416 10:45:10.921607  6988 layer_factory.hpp:77] Creating layer rpn_conv/3x3
I0416 10:45:10.921622  6988 net.cpp:100] Creating Layer rpn_conv/3x3
I0416 10:45:10.921629  6988 net.cpp:434] rpn_conv/3x3 <- conv5b_relu5b_0_split_0
I0416 10:45:10.921638  6988 net.cpp:408] rpn_conv/3x3 -> rpn/output
I0416 10:45:10.980967  6988 net.cpp:150] Setting up rpn_conv/3x3
I0416 10:45:10.980993  6988 net.cpp:157] Top shape: 1 512 96 4 4 (786432)
I0416 10:45:10.980996  6988 net.cpp:165] Memory required for data: 10166796324
I0416 10:45:10.981015  6988 layer_factory.hpp:77] Creating layer rpn_relu/3x3
I0416 10:45:10.981027  6988 net.cpp:100] Creating Layer rpn_relu/3x3
I0416 10:45:10.981034  6988 net.cpp:434] rpn_relu/3x3 <- rpn/output
I0416 10:45:10.981042  6988 net.cpp:395] rpn_relu/3x3 -> rpn/output (in-place)
I0416 10:45:10.981052  6988 net.cpp:150] Setting up rpn_relu/3x3
I0416 10:45:10.981060  6988 net.cpp:157] Top shape: 1 512 96 4 4 (786432)
I0416 10:45:10.981063  6988 net.cpp:165] Memory required for data: 10169942052
I0416 10:45:10.981067  6988 layer_factory.hpp:77] Creating layer rpn_conv/3x3_2
I0416 10:45:10.981083  6988 net.cpp:100] Creating Layer rpn_conv/3x3_2
I0416 10:45:10.981088  6988 net.cpp:434] rpn_conv/3x3_2 <- rpn/output
I0416 10:45:10.981096  6988 net.cpp:408] rpn_conv/3x3_2 -> rpn/output_2
I0416 10:45:11.039232  6988 net.cpp:150] Setting up rpn_conv/3x3_2
I0416 10:45:11.039261  6988 net.cpp:157] Top shape: 1 512 96 2 2 (196608)
I0416 10:45:11.039266  6988 net.cpp:165] Memory required for data: 10170728484
I0416 10:45:11.039278  6988 layer_factory.hpp:77] Creating layer rpn_relu/3x3_2
I0416 10:45:11.039288  6988 net.cpp:100] Creating Layer rpn_relu/3x3_2
I0416 10:45:11.039294  6988 net.cpp:434] rpn_relu/3x3_2 <- rpn/output_2
I0416 10:45:11.039302  6988 net.cpp:395] rpn_relu/3x3_2 -> rpn/output_2 (in-place)
I0416 10:45:11.039314  6988 net.cpp:150] Setting up rpn_relu/3x3_2
I0416 10:45:11.039319  6988 net.cpp:157] Top shape: 1 512 96 2 2 (196608)
I0416 10:45:11.039324  6988 net.cpp:165] Memory required for data: 10171514916
I0416 10:45:11.039327  6988 layer_factory.hpp:77] Creating layer rpn/output_pool
I0416 10:45:11.039337  6988 net.cpp:100] Creating Layer rpn/output_pool
I0416 10:45:11.039341  6988 net.cpp:434] rpn/output_pool <- rpn/output_2
I0416 10:45:11.039348  6988 net.cpp:408] rpn/output_pool -> rpn/output_pool
I0416 10:45:11.039414  6988 net.cpp:150] Setting up rpn/output_pool
I0416 10:45:11.039423  6988 net.cpp:157] Top shape: 1 512 96 1 1 (49152)
I0416 10:45:11.039445  6988 net.cpp:165] Memory required for data: 10171711524
I0416 10:45:11.039463  6988 layer_factory.hpp:77] Creating layer rpn/output_pool_rpn/output_pool_0_split
I0416 10:45:11.039485  6988 net.cpp:100] Creating Layer rpn/output_pool_rpn/output_pool_0_split
I0416 10:45:11.039515  6988 net.cpp:434] rpn/output_pool_rpn/output_pool_0_split <- rpn/output_pool
I0416 10:45:11.039537  6988 net.cpp:408] rpn/output_pool_rpn/output_pool_0_split -> rpn/output_pool_rpn/output_pool_0_split_0
I0416 10:45:11.039561  6988 net.cpp:408] rpn/output_pool_rpn/output_pool_0_split -> rpn/output_pool_rpn/output_pool_0_split_1
I0416 10:45:11.039624  6988 net.cpp:150] Setting up rpn/output_pool_rpn/output_pool_0_split
I0416 10:45:11.039634  6988 net.cpp:157] Top shape: 1 512 96 1 1 (49152)
I0416 10:45:11.039640  6988 net.cpp:157] Top shape: 1 512 96 1 1 (49152)
I0416 10:45:11.039644  6988 net.cpp:165] Memory required for data: 10172104740
I0416 10:45:11.039649  6988 layer_factory.hpp:77] Creating layer rpn_cls_score
I0416 10:45:11.039664  6988 net.cpp:100] Creating Layer rpn_cls_score
I0416 10:45:11.039680  6988 net.cpp:434] rpn_cls_score <- rpn/output_pool_rpn/output_pool_0_split_0
I0416 10:45:11.039700  6988 net.cpp:408] rpn_cls_score -> rpn_cls_score
I0416 10:45:11.040274  6988 net.cpp:150] Setting up rpn_cls_score
I0416 10:45:11.040285  6988 net.cpp:157] Top shape: 1 74 96 1 1 (7104)
I0416 10:45:11.040289  6988 net.cpp:165] Memory required for data: 10172133156
I0416 10:45:11.040297  6988 layer_factory.hpp:77] Creating layer rpn_cls_score_rpn_cls_score_0_split
I0416 10:45:11.040305  6988 net.cpp:100] Creating Layer rpn_cls_score_rpn_cls_score_0_split
I0416 10:45:11.040310  6988 net.cpp:434] rpn_cls_score_rpn_cls_score_0_split <- rpn_cls_score
I0416 10:45:11.040318  6988 net.cpp:408] rpn_cls_score_rpn_cls_score_0_split -> rpn_cls_score_rpn_cls_score_0_split_0
I0416 10:45:11.040359  6988 net.cpp:408] rpn_cls_score_rpn_cls_score_0_split -> rpn_cls_score_rpn_cls_score_0_split_1
I0416 10:45:11.040426  6988 net.cpp:150] Setting up rpn_cls_score_rpn_cls_score_0_split
I0416 10:45:11.040436  6988 net.cpp:157] Top shape: 1 74 96 1 1 (7104)
I0416 10:45:11.040441  6988 net.cpp:157] Top shape: 1 74 96 1 1 (7104)
I0416 10:45:11.040446  6988 net.cpp:165] Memory required for data: 10172189988
I0416 10:45:11.040449  6988 layer_factory.hpp:77] Creating layer rpn_twin_pred
I0416 10:45:11.040470  6988 net.cpp:100] Creating Layer rpn_twin_pred
I0416 10:45:11.040489  6988 net.cpp:434] rpn_twin_pred <- rpn/output_pool_rpn/output_pool_0_split_1
I0416 10:45:11.040511  6988 net.cpp:408] rpn_twin_pred -> rpn_twin_pred
I0416 10:45:11.041059  6988 net.cpp:150] Setting up rpn_twin_pred
I0416 10:45:11.041069  6988 net.cpp:157] Top shape: 1 74 96 1 1 (7104)
I0416 10:45:11.041074  6988 net.cpp:165] Memory required for data: 10172218404
I0416 10:45:11.041082  6988 layer_factory.hpp:77] Creating layer rpn_twin_pred_rpn_twin_pred_0_split
I0416 10:45:11.041090  6988 net.cpp:100] Creating Layer rpn_twin_pred_rpn_twin_pred_0_split
I0416 10:45:11.041095  6988 net.cpp:434] rpn_twin_pred_rpn_twin_pred_0_split <- rpn_twin_pred
I0416 10:45:11.041103  6988 net.cpp:408] rpn_twin_pred_rpn_twin_pred_0_split -> rpn_twin_pred_rpn_twin_pred_0_split_0
I0416 10:45:11.041113  6988 net.cpp:408] rpn_twin_pred_rpn_twin_pred_0_split -> rpn_twin_pred_rpn_twin_pred_0_split_1
I0416 10:45:11.041182  6988 net.cpp:150] Setting up rpn_twin_pred_rpn_twin_pred_0_split
I0416 10:45:11.041193  6988 net.cpp:157] Top shape: 1 74 96 1 1 (7104)
I0416 10:45:11.041198  6988 net.cpp:157] Top shape: 1 74 96 1 1 (7104)
I0416 10:45:11.041203  6988 net.cpp:165] Memory required for data: 10172275236
I0416 10:45:11.041206  6988 layer_factory.hpp:77] Creating layer rpn_cls_score_reshape
I0416 10:45:11.041219  6988 net.cpp:100] Creating Layer rpn_cls_score_reshape
I0416 10:45:11.041226  6988 net.cpp:434] rpn_cls_score_reshape <- rpn_cls_score_rpn_cls_score_0_split_0
I0416 10:45:11.041234  6988 net.cpp:408] rpn_cls_score_reshape -> rpn_cls_score_reshape
I0416 10:45:11.041277  6988 net.cpp:150] Setting up rpn_cls_score_reshape
I0416 10:45:11.041287  6988 net.cpp:157] Top shape: 1 2 3552 1 1 (7104)
I0416 10:45:11.041291  6988 net.cpp:165] Memory required for data: 10172303652
I0416 10:45:11.041296  6988 layer_factory.hpp:77] Creating layer rpn_cls_score_reshape_rpn_cls_score_reshape_0_split
I0416 10:45:11.041303  6988 net.cpp:100] Creating Layer rpn_cls_score_reshape_rpn_cls_score_reshape_0_split
I0416 10:45:11.041308  6988 net.cpp:434] rpn_cls_score_reshape_rpn_cls_score_reshape_0_split <- rpn_cls_score_reshape
I0416 10:45:11.041318  6988 net.cpp:408] rpn_cls_score_reshape_rpn_cls_score_reshape_0_split -> rpn_cls_score_reshape_rpn_cls_score_reshape_0_split_0
I0416 10:45:11.041334  6988 net.cpp:408] rpn_cls_score_reshape_rpn_cls_score_reshape_0_split -> rpn_cls_score_reshape_rpn_cls_score_reshape_0_split_1
I0416 10:45:11.041344  6988 net.cpp:408] rpn_cls_score_reshape_rpn_cls_score_reshape_0_split -> rpn_cls_score_reshape_rpn_cls_score_reshape_0_split_2
I0416 10:45:11.041410  6988 net.cpp:150] Setting up rpn_cls_score_reshape_rpn_cls_score_reshape_0_split
I0416 10:45:11.041419  6988 net.cpp:157] Top shape: 1 2 3552 1 1 (7104)
I0416 10:45:11.041425  6988 net.cpp:157] Top shape: 1 2 3552 1 1 (7104)
I0416 10:45:11.041430  6988 net.cpp:157] Top shape: 1 2 3552 1 1 (7104)
I0416 10:45:11.041435  6988 net.cpp:165] Memory required for data: 10172388900
I0416 10:45:11.041440  6988 layer_factory.hpp:77] Creating layer rpn-data
I0416 10:45:11.041821  6988 net.cpp:100] Creating Layer rpn-data
I0416 10:45:11.041831  6988 net.cpp:434] rpn-data <- rpn_cls_score_rpn_cls_score_0_split_1
I0416 10:45:11.041839  6988 net.cpp:434] rpn-data <- gt_boxes_data_1_split_0
I0416 10:45:11.041846  6988 net.cpp:434] rpn-data <- data_data_0_split_1
I0416 10:45:11.041854  6988 net.cpp:408] rpn-data -> rpn_labels
I0416 10:45:11.041865  6988 net.cpp:408] rpn-data -> rpn_twin_targets
I0416 10:45:11.041874  6988 net.cpp:408] rpn-data -> rpn_twin_inside_weights
I0416 10:45:11.041884  6988 net.cpp:408] rpn-data -> rpn_twin_outside_weights
I0416 10:45:11.044541  6988 net.cpp:150] Setting up rpn-data
I0416 10:45:11.044560  6988 net.cpp:157] Top shape: 1 1 3552 1 1 (3552)
I0416 10:45:11.044566  6988 net.cpp:157] Top shape: 1 74 96 1 1 (7104)
I0416 10:45:11.044572  6988 net.cpp:157] Top shape: 1 74 96 1 1 (7104)
I0416 10:45:11.044579  6988 net.cpp:157] Top shape: 1 74 96 1 1 (7104)
I0416 10:45:11.044582  6988 net.cpp:165] Memory required for data: 10172488356
I0416 10:45:11.044589  6988 layer_factory.hpp:77] Creating layer rpn_labels_rpn-data_0_split
I0416 10:45:11.044596  6988 net.cpp:100] Creating Layer rpn_labels_rpn-data_0_split
I0416 10:45:11.044602  6988 net.cpp:434] rpn_labels_rpn-data_0_split <- rpn_labels
I0416 10:45:11.044610  6988 net.cpp:408] rpn_labels_rpn-data_0_split -> rpn_labels_rpn-data_0_split_0
I0416 10:45:11.044620  6988 net.cpp:408] rpn_labels_rpn-data_0_split -> rpn_labels_rpn-data_0_split_1
I0416 10:45:11.044694  6988 net.cpp:150] Setting up rpn_labels_rpn-data_0_split
I0416 10:45:11.044705  6988 net.cpp:157] Top shape: 1 1 3552 1 1 (3552)
I0416 10:45:11.044711  6988 net.cpp:157] Top shape: 1 1 3552 1 1 (3552)
I0416 10:45:11.044715  6988 net.cpp:165] Memory required for data: 10172516772
I0416 10:45:11.044720  6988 layer_factory.hpp:77] Creating layer rpn_loss_cls
I0416 10:45:11.044729  6988 net.cpp:100] Creating Layer rpn_loss_cls
I0416 10:45:11.044735  6988 net.cpp:434] rpn_loss_cls <- rpn_cls_score_reshape_rpn_cls_score_reshape_0_split_0
I0416 10:45:11.044742  6988 net.cpp:434] rpn_loss_cls <- rpn_labels_rpn-data_0_split_0
…
I0416 10:45:11.045107  6988 layer_factory.hpp:77] Creating layer rpn_accuarcy
I0416 10:45:11.045119  6988 net.cpp:100] Creating Layer rpn_accuarcy
I0416 10:45:11.045123  6988 net.cpp:434] rpn_accuarcy <- rpn_cls_score_reshape_rpn_cls_score_reshape_0_split_1
I0416 10:45:11.045130  6988 net.cpp:434] rpn_accuarcy <- rpn_labels_rpn-data_0_split_1
I0416 10:45:11.045137  6988 net.cpp:408] rpn_accuarcy -> rpn_accuarcy
I0416 10:45:11.045161  6988 net.cpp:408] rpn_accuarcy -> rpn_accuarcy_class
I0416 10:45:11.045225  6988 net.cpp:150] Setting up rpn_accuarcy
I0416 10:45:11.045235  6988 net.cpp:157] Top shape: (1)
I0416 10:45:11.045240  6988 net.cpp:157] Top shape: 2 (2)
I0416 10:45:11.045244  6988 net.cpp:165] Memory required for data: 10172516792
I0416 10:45:11.045249  6988 layer_factory.hpp:77] Creating layer rpn_cls_prob
I0416 10:45:11.045264  6988 net.cpp:100] Creating Layer rpn_cls_prob
I0416 10:45:11.045270  6988 net.cpp:434] rpn_cls_prob <- rpn_cls_score_reshape_rpn_cls_score_reshape_0_split_2
I0416 10:45:11.045277  6988 net.cpp:408] rpn_cls_prob -> rpn_cls_prob
I0416 10:45:11.045361  6988 net.cpp:150] Setting up rpn_cls_prob
I0416 10:45:11.045372  6988 net.cpp:157] Top shape: 1 2 3552 1 1 (7104)
I0416 10:45:11.045377  6988 net.cpp:165] Memory required for data: 10172545208
I0416 10:45:11.045382  6988 layer_factory.hpp:77] Creating layer rpn_cls_prob_reshape
I0416 10:45:11.045390  6988 net.cpp:100] Creating Layer rpn_cls_prob_reshape
I0416 10:45:11.045395  6988 net.cpp:434] rpn_cls_prob_reshape <- rpn_cls_prob
I0416 10:45:11.045404  6988 net.cpp:408] rpn_cls_prob_reshape -> rpn_cls_prob_reshape
I0416 10:45:11.045442  6988 net.cpp:150] Setting up rpn_cls_prob_reshape
I0416 10:45:11.045451  6988 net.cpp:157] Top shape: 1 74 96 1 1 (7104)
I0416 10:45:11.045455  6988 net.cpp:165] Memory required for data: 10172573624
I0416 10:45:11.045460  6988 layer_factory.hpp:77] Creating layer proposal
I0416 10:45:11.046020  6988 net.cpp:100] Creating Layer proposal
I0416 10:45:11.046032  6988 net.cpp:434] proposal <- rpn_cls_prob_reshape
I0416 10:45:11.046039  6988 net.cpp:434] proposal <- rpn_twin_pred_rpn_twin_pred_0_split_1
I0416 10:45:11.046048  6988 net.cpp:408] proposal -> rpn_rois
I0416 10:45:11.049224  6988 net.cpp:150] Setting up proposal
I0416 10:45:11.049237  6988 net.cpp:157] Top shape: 1 3 (3)
I0416 10:45:11.049242  6988 net.cpp:165] Memory required for data: 10172573636
I0416 10:45:11.049248  6988 layer_factory.hpp:77] Creating layer roi-data
I0416 10:45:11.049393  6988 net.cpp:100] Creating Layer roi-data
I0416 10:45:11.049403  6988 net.cpp:434] roi-data <- rpn_rois
I0416 10:45:11.049410  6988 net.cpp:434] roi-data <- gt_boxes_data_1_split_1
I0416 10:45:11.049419  6988 net.cpp:408] roi-data -> rois
I0416 10:45:11.049429  6988 net.cpp:408] roi-data -> labels
I0416 10:45:11.049438  6988 net.cpp:408] roi-data -> twin_targets
I0416 10:45:11.049463  6988 net.cpp:408] roi-data -> twin_inside_weights
I0416 10:45:11.049489  6988 net.cpp:408] roi-data -> twin_outside_weights
I0416 10:45:11.049824  6988 net.cpp:150] Setting up roi-data
I0416 10:45:11.049839  6988 net.cpp:157] Top shape: 1 3 (3)
I0416 10:45:11.049896  6988 net.cpp:157] Top shape: 1 1 (1)
I0416 10:45:11.049904  6988 net.cpp:157] Top shape: 1 402 (402)
I0416 10:45:11.049927  6988 net.cpp:157] Top shape: 1 402 (402)
I0416 10:45:11.049949  6988 net.cpp:157] Top shape: 1 402 (402)
I0416 10:45:11.049969  6988 net.cpp:165] Memory required for data: 10172578476
I0416 10:45:11.049990  6988 layer_factory.hpp:77] Creating layer labels_roi-data_1_split
I0416 10:45:11.050029  6988 net.cpp:100] Creating Layer labels_roi-data_1_split
I0416 10:45:11.050034  6988 net.cpp:434] labels_roi-data_1_split <- labels
I0416 10:45:11.050072  6988 net.cpp:408] labels_roi-data_1_split -> labels_roi-data_1_split_0
I0416 10:45:11.050098  6988 net.cpp:408] labels_roi-data_1_split -> labels_roi-data_1_split_1
I0416 10:45:11.050168  6988 net.cpp:150] Setting up labels_roi-data_1_split
I0416 10:45:11.050176  6988 net.cpp:157] Top shape: 1 1 (1)
I0416 10:45:11.050206  6988 net.cpp:157] Top shape: 1 1 (1)
I0416 10:45:11.050227  6988 net.cpp:165] Memory required for data: 10172578484
I0416 10:45:11.050248  6988 layer_factory.hpp:77] Creating layer roi_pool5
I0416 10:45:11.050287  6988 net.cpp:100] Creating Layer roi_pool5
I0416 10:45:11.050294  6988 net.cpp:434] roi_pool5 <- conv5b_relu5b_0_split_1
I0416 10:45:11.050331  6988 net.cpp:434] roi_pool5 <- rois
I0416 10:45:11.050357  6988 net.cpp:408] roi_pool5 -> pool5
I0416 10:45:11.050382  6988 roi_pooling_layer.cpp:34] Temporal scale: 0.125
I0416 10:45:11.050393  6988 roi_pooling_layer.cpp:35] Spatial scale: 0.0625
I0416 10:45:11.050472  6988 net.cpp:150] Setting up roi_pool5
I0416 10:45:11.050482  6988 net.cpp:157] Top shape: 1 512 1 4 4 (8192)
I0416 10:45:11.050509  6988 net.cpp:165] Memory required for data: 10172611252
I0416 10:45:11.050532  6988 layer_factory.hpp:77] Creating layer fc6
I0416 10:45:11.050575  6988 net.cpp:100] Creating Layer fc6
I0416 10:45:11.050582  6988 net.cpp:434] fc6 <- pool5
I0416 10:45:11.050621  6988 net.cpp:408] fc6 -> fc6
I0416 10:45:11.322793  6988 net.cpp:150] Setting up fc6
I0416 10:45:11.322826  6988 net.cpp:157] Top shape: 1 4096 (4096)
I0416 10:45:11.322830  6988 net.cpp:165] Memory required for data: 10172627636
I0416 10:45:11.322842  6988 layer_factory.hpp:77] Creating layer relu6
I0416 10:45:11.322854  6988 net.cpp:100] Creating Layer relu6
I0416 10:45:11.322860  6988 net.cpp:434] relu6 <- fc6
I0416 10:45:11.322867  6988 net.cpp:395] relu6 -> fc6 (in-place)
I0416 10:45:11.322877  6988 net.cpp:150] Setting up relu6
I0416 10:45:11.322882  6988 net.cpp:157] Top shape: 1 4096 (4096)
I0416 10:45:11.322885  6988 net.cpp:165] Memory required for data: 10172644020
I0416 10:45:11.322890  6988 layer_factory.hpp:77] Creating layer drop6
I0416 10:45:11.322896  6988 net.cpp:100] Creating Layer drop6
I0416 10:45:11.322901  6988 net.cpp:434] drop6 <- fc6
I0416 10:45:11.322904  6988 net.cpp:395] drop6 -> fc6 (in-place)
I0416 10:45:11.322943  6988 net.cpp:150] Setting up drop6
I0416 10:45:11.322952  6988 net.cpp:157] Top shape: 1 4096 (4096)
I0416 10:45:11.322955  6988 net.cpp:165] Memory required for data: 10172660404
I0416 10:45:11.322959  6988 layer_factory.hpp:77] Creating layer fc6_drop6_0_split
I0416 10:45:11.322968  6988 net.cpp:100] Creating Layer fc6_drop6_0_split
I0416 10:45:11.322973  6988 net.cpp:434] fc6_drop6_0_split <- fc6
I0416 10:45:11.322980  6988 net.cpp:408] fc6_drop6_0_split -> fc6_drop6_0_split_0
I0416 10:45:11.322990  6988 net.cpp:408] fc6_drop6_0_split -> fc6_drop6_0_split_1
I0416 10:45:11.323053  6988 net.cpp:150] Setting up fc6_drop6_0_split
I0416 10:45:11.323078  6988 net.cpp:157] Top shape: 1 4096 (4096)
I0416 10:45:11.323098  6988 net.cpp:157] Top shape: 1 4096 (4096)
I0416 10:45:11.323124  6988 net.cpp:165] Memory required for data: 10172693172
I0416 10:45:11.323141  6988 layer_factory.hpp:77] Creating layer cls_score
I0416 10:45:11.323163  6988 net.cpp:100] Creating Layer cls_score
I0416 10:45:11.323171  6988 net.cpp:434] cls_score <- fc6_drop6_0_split_0
I0416 10:45:11.323182  6988 net.cpp:408] cls_score -> cls_score
I0416 10:45:11.330554  6988 net.cpp:150] Setting up cls_score
I0416 10:45:11.330591  6988 net.cpp:157] Top shape: 1 201 (201)
I0416 10:45:11.330596  6988 net.cpp:165] Memory required for data: 10172693976
I0416 10:45:11.330610  6988 layer_factory.hpp:77] Creating layer cls_score_cls_score_0_split
I0416 10:45:11.330621  6988 net.cpp:100] Creating Layer cls_score_cls_score_0_split
I0416 10:45:11.330626  6988 net.cpp:434] cls_score_cls_score_0_split <- cls_score
I0416 10:45:11.330636  6988 net.cpp:408] cls_score_cls_score_0_split -> cls_score_cls_score_0_split_0
I0416 10:45:11.330646  6988 net.cpp:408] cls_score_cls_score_0_split -> cls_score_cls_score_0_split_1
I0416 10:45:11.330705  6988 net.cpp:150] Setting up cls_score_cls_score_0_split
I0416 10:45:11.330732  6988 net.cpp:157] Top shape: 1 201 (201)
I0416 10:45:11.330754  6988 net.cpp:157] Top shape: 1 201 (201)
I0416 10:45:11.330772  6988 net.cpp:165] Memory required for data: 10172695584
I0416 10:45:11.330788  6988 layer_factory.hpp:77] Creating layer twin_pred
I0416 10:45:11.330816  6988 net.cpp:100] Creating Layer twin_pred
I0416 10:45:11.330826  6988 net.cpp:434] twin_pred <- fc6_drop6_0_split_1
I0416 10:45:11.330835  6988 net.cpp:408] twin_pred -> twin_pred
I0416 10:45:11.344759  6988 net.cpp:150] Setting up twin_pred
I0416 10:45:11.344789  6988 net.cpp:157] Top shape: 1 402 (402)
I0416 10:45:11.344794  6988 net.cpp:165] Memory required for data: 10172697192
I0416 10:45:11.344810  6988 layer_factory.hpp:77] Creating layer loss_cls
I0416 10:45:11.344826  6988 net.cpp:100] Creating Layer loss_cls
I0416 10:45:11.344832  6988 net.cpp:434] loss_cls <- cls_score_cls_score_0_split_0
I0416 10:45:11.344841  6988 net.cpp:434] loss_cls <- labels_roi-data_1_split_0
I0416 10:45:11.344849  6988 net.cpp:408] loss_cls -> loss_cls
…
