…
stepsize: 350000
snapshot: 0
snapshot_prefix: "./experiments/activitynet/snapshot/activitynet"
average_loss: 100
iter_size: 1
I0418 03:41:45.554426 21185 solver.cpp:81] Creating training net from train_net file: ./experiments/activitynet/train.prototxt
I0418 03:41:45.555534 21185 net.cpp:58] Initializing net from parameters: 
name: "activitynet"
state {
  phase: TRAIN
}
layer {
  name: "data"
  type: "Python"
  top: "data"
  top: "gt_boxes"
  python_param {
    module: "roi_data_layer.layer"
    layer: "RoIDataLayer"
    param_str: "\'num_classes\': 100"
  }
}
layer {
  name: "conv1a"
  type: "Convolution"
  bottom: "data"
  top: "conv1a"
  param {
    lr_mult: 0
    decay_mult: 0
  }
  param {
    lr_mult: 0
    decay_mult: 0
  }
  convolution_param {
    num_output: 64
    pad: 1
    pad: 1
    pad: 1
    kernel_size: 3
    kernel_size: 3
    kernel_size: 3
    weight_filler {
      type: "gaussian"
      std: 0.01
    }
    bias_filler {
      type: "constant"
      value: 0
    }
  }
}
layer {
  name: "relu1a"
  type: "ReLU"
  bottom: "conv1a"
  top: "conv1a"
}
layer {
  name: "pool1"
  type: "Pooling"
  bottom: "conv1a"
  top: "pool1"
  pooling_param {
    pool: MAX
    kernel_size: 1
    kernel_size: 2
    kernel_size: 2
    stride: 1
    stride: 2
    stride: 2
  }
}
layer {
  name: "conv2a"
  type: "Convolution"
  bottom: "pool1"
  top: "conv2a"
  param {
    lr_mult: 0
    decay_mult: 0
  }
  param {
    lr_mult: 0
    decay_mult: 0
  }
  convolution_param {
    num_output: 128
    pad: 1
    pad: 1
    pad: 1
    kernel_size: 3
    kernel_size: 3
    kernel_size: 3
    weight_filler {
      type: "gaussian"
      std: 0.01
    }
    bias_filler {
      type: "constant"
      value: 1
    }
  }
}
layer {
  name: "relu2a"
  type: "ReLU"
  bottom: "conv2a"
  top: "conv2a"
}
layer {
  name: "pool2"
  type: "Pooling"
  bottom: "conv2a"
  top: "pool2"
  pooling_param {
    pool: MAX
    kernel_size: 2
    kernel_size: 2
    kernel_size: 2
    stride: 2
    stride: 2
    stride: 2
  }
}
layer {
  name: "conv3a"
  type: "Convolution"
  bottom: "pool2"
  top: "conv3a"
  param {
    lr_mult: 1
    decay_mult: 1
  }
  param {
    lr_mult: 2
    decay_mult: 0
  }
  convolution_param {
    num_output: 256
    pad: 1
    pad: 1
    pad: 1
    kernel_size: 3
    kernel_size: 3
    kernel_size: 3
    weight_filler {
      type: "gaussian"
      std: 0.01
    }
    bias_filler {
      type: "constant"
      value: 1
    }
  }
}
layer {
  name: "relu3a"
  type: "ReLU"
  bottom: "conv3a"
  top: "conv3a"
}
layer {
  name: "conv3b"
  type: "Convolution"
  bottom: "conv3a"
  top: "conv3b"
  param {
    lr_mult: 1
    decay_mult: 1
  }
  param {
    lr_mult: 2
    decay_mult: 0
  }
  convolution_param {
    num_output: 256
    pad: 1
    pad: 1
    pad: 1
    kernel_size: 3
    kernel_size: 3
    kernel_size: 3
    weight_filler {
      type: "gaussian"
      std: 0.01
    }
    bias_filler {
      type: "constant"
      value: 1
    }
  }
}
layer {
  name: "relu3b"
  type: "ReLU"
  bottom: "conv3b"
  top: "conv3b"
}
layer {
  name: "pool3"
  type: "Pooling"
  bottom: "conv3b"
  top: "pool3"
  pooling_param {
    pool: MAX
    kernel_size: 2
    kernel_size: 2
    kernel_size: 2
    stride: 2
    stride: 2
    stride: 2
  }
}
layer {
  name: "conv4a"
  type: "Convolution"
  bottom: "pool3"
  top: "conv4a"
  param {
    lr_mult: 1
    decay_mult: 1
  }
  param {
    lr_mult: 2
    decay_mult: 0
  }
  convolution_param {
    num_output: 512
    pad: 1
    pad: 1
    pad: 1
    kernel_size: 3
    kernel_size: 3
    kernel_size: 3
    weight_filler {
      type: "gaussian"
      std: 0.01
    }
    bias_filler {
      type: "constant"
      value: 1
    }
  }
}
layer {
  name: "relu4a"
  type: "ReLU"
  bottom: "conv4a"
  top: "conv4a"
}
layer {
  name: "conv4b"
  type: "Convolution"
  bottom: "conv4a"
  top: "conv4b"
  param {
    lr_mult: 1
    decay_mult: 1
  }
  param {
    lr_mult: 2
    decay_mult: 0
  }
  convolution_param {
    num_output: 512
    pad: 1
    pad: 1
    pad: 1
    kernel_size: 3
    kernel_size: 3
    kernel_size: 3
    weight_filler {
      type: "gaussian"
      std: 0.01
    }
    bias_filler {
      type: "constant"
      value: 1
    }
  }
}
layer {
  name: "relu4b"
  type: "ReLU"
  bottom: "conv4b"
  top: "conv4b"
}
layer {
  name: "pool4"
  type: "Pooling"
  bottom: "conv4b"
  top: "pool4"
  pooling_param {
    pool: MAX
    kernel_size: 2
    kernel_size: 2
    kernel_size: 2
    stride: 2
    stride: 2
    stride: 2
  }
}
layer {
  name: "conv5a"
  type: "Convolution"
  bottom: "pool4"
  top: "conv5a"
  param {
    lr_mult: 1
    decay_mult: 1
  }
  param {
    lr_mult: 2
    decay_mult: 0
  }
  convolution_param {
    num_output: 512
    pad: 1
    pad: 1
    pad: 1
    kernel_size: 3
    kernel_size: 3
    kernel_size: 3
    weight_filler {
      type: "gaussian"
      std: 0.01
    }
    bias_filler {
      type: "constant"
      value: 1
    }
  }
}
layer {
  name: "relu5a"
  type: "ReLU"
  bottom: "conv5a"
  top: "conv5a"
}
layer {
  name: "conv5b"
  type: "Convolution"
  bottom: "conv5a"
  top: "conv5b"
  param {
    lr_mult: 1
    decay_mult: 1
  }
  param {
    lr_mult: 2
    decay_mult: 0
  }
  convolution_param {
    num_output: 512
    pad: 1
    pad: 1
    pad: 1
    kernel_size: 3
    kernel_size: 3
    kernel_size: 3
    weight_filler {
      type: "gaussian"
      std: 0.01
    }
    bias_filler {
      type: "constant"
      value: 1
    }
  }
}
layer {
  name: "relu5b"
  type: "ReLU"
  bottom: "conv5b"
  top: "conv5b"
}
layer {
  name: "rpn_conv/3x3"
  type: "Convolution"
  bottom: "conv5b"
  top: "rpn/output"
  param {
    lr_mult: 1
    decay_mult: 1
  }
  param {
    lr_mult: 2
    decay_mult: 0
  }
  convolution_param {
    num_output: 512
    pad: 1
    pad: 1
    pad: 1
    kernel_size: 3
    kernel_size: 3
    kernel_size: 3
    stride: 1
    stride: 2
    stride: 2
    weight_filler {
      type: "gaussian"
      std: 0.01
    }
    bias_filler {
      type: "constant"
      value: 0
    }
  }
}
layer {
  name: "rpn_relu/3x3"
  type: "ReLU"
  bottom: "rpn/output"
  top: "rpn/output"
}
layer {
  name: "rpn_conv/3x3_2"
  type: "Convolution"
  bottom: "rpn/output"
  top: "rpn/output_2"
  param {
    lr_mult: 1
    decay_mult: 1
  }
  param {
    lr_mult: 2
    decay_mult: 0
  }
  convolution_param {
    num_output: 512
    pad: 1
    pad: 1
    pad: 1
    kernel_size: 3
    kernel_size: 3
    kernel_size: 3
    stride: 1
    stride: 2
    stride: 2
    weight_filler {
      type: "gaussian"
      std: 0.01
    }
    bias_filler {
      type: "constant"
      value: 0
    }
  }
}
layer {
  name: "rpn_relu/3x3_2"
  type: "ReLU"
  bottom: "rpn/output_2"
  top: "rpn/output_2"
}
layer {
  name: "rpn/output_pool"
  type: "Pooling"
  bottom: "rpn/output_2"
  top: "rpn/output_pool"
  pooling_param {
    pool: MAX
    kernel_size: 1
    kernel_size: 2
    kernel_size: 2
  }
}
layer {
  name: "rpn_cls_score"
  type: "Convolution"
  bottom: "rpn/output_pool"
  top: "rpn_cls_score"
  param {
    lr_mult: 1
    decay_mult: 1
  }
  param {
    lr_mult: 2
    decay_mult: 0
  }
  convolution_param {
    num_output: 74
    kernel_size: 1
    kernel_size: 1
    kernel_size: 1
    weight_filler {
      type: "gaussian"
      std: 0.01
    }
    bias_filler {
      type: "constant"
      value: 0
    }
  }
}
layer {
  name: "rpn_twin_pred"
  type: "Convolution"
  bottom: "rpn/output_pool"
  top: "rpn_twin_pred"
  param {
    lr_mult: 1
    decay_mult: 1
  }
  param {
    lr_mult: 2
    decay_mult: 0
  }
  convolution_param {
    num_output: 74
    kernel_size: 1
    kernel_size: 1
    kernel_size: 1
    weight_filler {
      type: "gaussian"
      std: 0.01
    }
    bias_filler {
      type: "constant"
      value: 0
    }
  }
}
layer {
  name: "rpn_cls_score_reshape"
  type: "Reshape"
  bottom: "rpn_cls_score"
  top: "rpn_cls_score_reshape"
  reshape_param {
    shape {
      dim: 0
      dim: 2
      dim: -1
      dim: 0
      dim: 0
    }
  }
}
layer {
  name: "rpn-data"
  type: "Python"
  bottom: "rpn_cls_score"
  bottom: "gt_boxes"
  bottom: "data"
  top: "rpn_labels"
  top: "rpn_twin_targets"
  top: "rpn_twin_inside_weights"
  top: "rpn_twin_outside_weights"
  python_param {
    module: "rpn.anchor_target_layer"
    layer: "AnchorTargetLayer"
    param_str: "\'feat_stride\': 8 \n\'scales\': !!python/tuple [1,1.25, 1.5,1.75, 2,2.5, 3,3.5, 4,4.5, 5,5.5, 6,7, 8,9,10,11,12,14,16,18,20,22,24,28,32,36,40,44,52,60,68,76,84,92,100]"
  }
}
layer {
  name: "rpn_loss_cls"
  type: "SoftmaxWithLoss"
  bottom: "rpn_cls_score_reshape"
  bottom: "rpn_labels"
  top: "rpn_cls_loss"
  loss_weight: 1
  propagate_down: true
  propagate_down: false
  loss_param {
    ignore_label: -1
    normalize: true
  }
}
layer {
  name: "rpn_loss_twin"
  type: "SmoothL1Loss"
  bottom: "rpn_twin_pred"
  bottom: "rpn_twin_targets"
  bottom: "rpn_twin_inside_weights"
  bottom: "rpn_twin_outside_weights"
  top: "rpn_loss_twin"
  loss_weight: 1
  smooth_l1_loss_param {
    sigma: 3
  }
}
layer {
  name: "rpn_accuarcy"
  type: "Accuracy"
  bottom: "rpn_cls_score_reshape"
  bottom: "rpn_labels"
  top: "rpn_accuarcy"
  top: "rpn_accuarcy_class"
  propagate_down: false
  propagate_down: false
  accuracy_param {
    ignore_label: -1
  }
}
layer {
  name: "rpn_cls_prob"
  type: "Softmax"
  bottom: "rpn_cls_score_reshape"
  top: "rpn_cls_prob"
}
layer {
  name: "rpn_cls_prob_reshape"
  type: "Reshape"
  bottom: "rpn_cls_prob"
  top: "rpn_cls_prob_reshape"
  reshape_param {
    shape {
      dim: 0
      dim: 74
      dim: -1
      dim: 0
      dim: 0
    }
  }
}
layer {
  name: "proposal"
  type: "Python"
  bottom: "rpn_cls_prob_reshape"
  bottom: "rpn_twin_pred"
  top: "rpn_rois"
  include {
    phase: TRAIN
  }
  python_param {
    module: "rpn.proposal_layer"
    layer: "ProposalLayer"
    param_str: "\'feat_stride\': 8 \n\'scales\': !!python/tuple [1,1.25, 1.5,1.75, 2,2.5, 3,3.5, 4,4.5, 5,5.5, 6,7, 8,9,10,11,12,14,16,18,20,22,24,28,32,36,40,44,52,60,68,76,84,92,100]"
  }
}
layer {
  name: "roi-data"
  type: "Python"
  bottom: "rpn_rois"
  bottom: "gt_boxes"
  top: "rois"
  top: "labels"
  top: "twin_targets"
  top: "twin_inside_weights"
  top: "twin_outside_weights"
  python_param {
    module: "rpn.proposal_target_layer"
    layer: "ProposalTargetLayer"
    param_str: "\'num_classes\': 201"
  }
}
layer {
  name: "roi_pool5"
  type: "ROIPooling"
  bottom: "conv5b"
  bottom: "rois"
  top: "pool5"
  roi_pooling_param {
    pooled_h: 4
    pooled_w: 4
    spatial_scale: 0.0625
    pooled_l: 1
    temporal_scale: 0.125
  }
}
layer {
  name: "fc6"
  type: "InnerProduct"
  bottom: "pool5"
  top: "fc6"
  param {
    lr_mult: 1
    decay_mult: 1
  }
  param {
    lr_mult: 2
    decay_mult: 0
  }
  inner_product_param {
    num_output: 4096
    weight_filler {
      type: "gaussian"
      std: 0.005
    }
    bias_filler {
      type: "constant"
      value: 1
    }
  }
}
layer {
  name: "relu6"
  type: "ReLU"
  bottom: "fc6"
  top: "fc6"
}
layer {
  name: "drop6"
  type: "Dropout"
  bottom: "fc6"
  top: "fc6"
  dropout_param {
    dropout_ratio: 0.5
  }
}
layer {
  name: "cls_score"
  type: "InnerProduct"
  bottom: "fc6"
  top: "cls_score"
  param {
    lr_mult: 1
    decay_mult: 1
  }
  param {
    lr_mult: 2
    decay_mult: 0
  }
  inner_product_param {
    num_output: 201
    weight_filler {
      type: "gaussian"
      std: 0.01
    }
    bias_filler {
      type: "constant"
      value: 0
    }
  }
}
layer {
  name: "twin_pred"
  type: "InnerProduct"
  bottom: "fc6"
  top: "twin_pred"
  param {
    lr_mult: 1
    decay_mult: 1
  }
  param {
    lr_mult: 2
    decay_mult: 0
  }
  inner_product_param {
    num_output: 402
    weight_filler {
      type: "gaussian"
      std: 0.001
    }
    bias_filler {
      type: "constant"
      value: 0
    }
  }
}
layer {
  name: "loss_cls"
  type: "SmoothL1Loss"
  bottom: "cls_score"
  bottom: "labels"
  top: "loss_cls"
  loss_weight: 1
  propagate_down: true
  propagate_down: false
}
layer {
  name: "loss_twin"
  type: "SmoothL1Loss"
  bottom: "twin_pred"
  bottom: "twin_targets"
  bottom: "twin_inside_weights"
  bottom: "twin_outside_weights"
  top: "loss_twin"
  loss_weight: 1
}
layer {
  name: "accuarcy"
  type: "Accuracy"
  bottom: "cls_score"
  bottom: "labels"
  top: "accuarcy"
  propagate_down: false
  propagate_down: false
  accuracy_param {
    ignore_label: -1
  }
}
I0418 03:41:45.555757 21185 layer_factory.hpp:77] Creating layer data
I0418 03:41:45.582155 21185 net.cpp:100] Creating Layer data
I0418 03:41:45.582185 21185 net.cpp:408] data -> data
I0418 03:41:45.582199 21185 net.cpp:408] data -> gt_boxes
setting up
has rpn
RoiDataLayer: name_to_top: {'gt_windows': 1, 'data': 0}
I0418 03:41:45.614286 21185 net.cpp:150] Setting up data
I0418 03:41:45.614315 21185 net.cpp:157] Top shape: 1 3 768 112 112 (28901376)
I0418 03:41:45.614320 21185 net.cpp:157] Top shape: 1 101 (101)
I0418 03:41:45.614322 21185 net.cpp:165] Memory required for data: 115605908
I0418 03:41:45.614331 21185 layer_factory.hpp:77] Creating layer data_data_0_split
I0418 03:41:45.614342 21185 net.cpp:100] Creating Layer data_data_0_split
I0418 03:41:45.614349 21185 net.cpp:434] data_data_0_split <- data
I0418 03:41:45.614356 21185 net.cpp:408] data_data_0_split -> data_data_0_split_0
I0418 03:41:45.614365 21185 net.cpp:408] data_data_0_split -> data_data_0_split_1
I0418 03:41:45.614403 21185 net.cpp:150] Setting up data_data_0_split
I0418 03:41:45.614408 21185 net.cpp:157] Top shape: 1 3 768 112 112 (28901376)
I0418 03:41:45.614413 21185 net.cpp:157] Top shape: 1 3 768 112 112 (28901376)
I0418 03:41:45.614416 21185 net.cpp:165] Memory required for data: 346816916
I0418 03:41:45.614419 21185 layer_factory.hpp:77] Creating layer gt_boxes_data_1_split
I0418 03:41:45.614425 21185 net.cpp:100] Creating Layer gt_boxes_data_1_split
I0418 03:41:45.614428 21185 net.cpp:434] gt_boxes_data_1_split <- gt_boxes
I0418 03:41:45.614434 21185 net.cpp:408] gt_boxes_data_1_split -> gt_boxes_data_1_split_0
I0418 03:41:45.614440 21185 net.cpp:408] gt_boxes_data_1_split -> gt_boxes_data_1_split_1
I0418 03:41:45.614464 21185 net.cpp:150] Setting up gt_boxes_data_1_split
I0418 03:41:45.614470 21185 net.cpp:157] Top shape: 1 101 (101)
I0418 03:41:45.614473 21185 net.cpp:157] Top shape: 1 101 (101)
I0418 03:41:45.614476 21185 net.cpp:165] Memory required for data: 346817724
I0418 03:41:45.614480 21185 layer_factory.hpp:77] Creating layer conv1a
I0418 03:41:45.614496 21185 net.cpp:100] Creating Layer conv1a
I0418 03:41:45.614500 21185 net.cpp:434] conv1a <- data_data_0_split_0
I0418 03:41:45.614506 21185 net.cpp:408] conv1a -> conv1a
I0418 03:41:45.905978 21185 net.cpp:150] Setting up conv1a
I0418 03:41:45.906014 21185 net.cpp:157] Top shape: 1 64 768 112 112 (616562688)
I0418 03:41:45.906018 21185 net.cpp:165] Memory required for data: 2813068476
I0418 03:41:45.906039 21185 layer_factory.hpp:77] Creating layer relu1a
I0418 03:41:45.906055 21185 net.cpp:100] Creating Layer relu1a
I0418 03:41:45.906064 21185 net.cpp:434] relu1a <- conv1a
I0418 03:41:45.906069 21185 net.cpp:395] relu1a -> conv1a (in-place)
I0418 03:41:45.906561 21185 net.cpp:150] Setting up relu1a
I0418 03:41:45.906575 21185 net.cpp:157] Top shape: 1 64 768 112 112 (616562688)
I0418 03:41:45.906579 21185 net.cpp:165] Memory required for data: 5279319228
I0418 03:41:45.906584 21185 layer_factory.hpp:77] Creating layer pool1
I0418 03:41:45.906594 21185 net.cpp:100] Creating Layer pool1
I0418 03:41:45.906599 21185 net.cpp:434] pool1 <- conv1a
I0418 03:41:45.906605 21185 net.cpp:408] pool1 -> pool1
I0418 03:41:45.907570 21185 net.cpp:150] Setting up pool1
I0418 03:41:45.907584 21185 net.cpp:157] Top shape: 1 64 768 56 56 (154140672)
I0418 03:41:45.907588 21185 net.cpp:165] Memory required for data: 5895881916
I0418 03:41:45.907593 21185 layer_factory.hpp:77] Creating layer conv2a
I0418 03:41:45.907604 21185 net.cpp:100] Creating Layer conv2a
I0418 03:41:45.907608 21185 net.cpp:434] conv2a <- pool1
I0418 03:41:45.907614 21185 net.cpp:408] conv2a -> conv2a
I0418 03:41:45.920889 21185 net.cpp:150] Setting up conv2a
I0418 03:41:45.920917 21185 net.cpp:157] Top shape: 1 128 768 56 56 (308281344)
I0418 03:41:45.920920 21185 net.cpp:165] Memory required for data: 7129007292
I0418 03:41:45.920933 21185 layer_factory.hpp:77] Creating layer relu2a
I0418 03:41:45.920943 21185 net.cpp:100] Creating Layer relu2a
I0418 03:41:45.920946 21185 net.cpp:434] relu2a <- conv2a
I0418 03:41:45.920953 21185 net.cpp:395] relu2a -> conv2a (in-place)
I0418 03:41:45.921305 21185 net.cpp:150] Setting up relu2a
I0418 03:41:45.921319 21185 net.cpp:157] Top shape: 1 128 768 56 56 (308281344)
I0418 03:41:45.921324 21185 net.cpp:165] Memory required for data: 8362132668
I0418 03:41:45.921329 21185 layer_factory.hpp:77] Creating layer pool2
I0418 03:41:45.921339 21185 net.cpp:100] Creating Layer pool2
I0418 03:41:45.921341 21185 net.cpp:434] pool2 <- conv2a
I0418 03:41:45.921347 21185 net.cpp:408] pool2 -> pool2
I0418 03:41:45.921515 21185 net.cpp:150] Setting up pool2
I0418 03:41:45.921527 21185 net.cpp:157] Top shape: 1 128 384 28 28 (38535168)
I0418 03:41:45.921531 21185 net.cpp:165] Memory required for data: 8516273340
I0418 03:41:45.921535 21185 layer_factory.hpp:77] Creating layer conv3a
I0418 03:41:45.921545 21185 net.cpp:100] Creating Layer conv3a
I0418 03:41:45.921550 21185 net.cpp:434] conv3a <- pool2
I0418 03:41:45.921555 21185 net.cpp:408] conv3a -> conv3a
I0418 03:41:45.951066 21185 net.cpp:150] Setting up conv3a
I0418 03:41:45.951092 21185 net.cpp:157] Top shape: 1 256 384 28 28 (77070336)
I0418 03:41:45.951095 21185 net.cpp:165] Memory required for data: 8824554684
I0418 03:41:45.951109 21185 layer_factory.hpp:77] Creating layer relu3a
I0418 03:41:45.951119 21185 net.cpp:100] Creating Layer relu3a
I0418 03:41:45.951128 21185 net.cpp:434] relu3a <- conv3a
I0418 03:41:45.951138 21185 net.cpp:395] relu3a -> conv3a (in-place)
I0418 03:41:45.951824 21185 net.cpp:150] Setting up relu3a
I0418 03:41:45.951839 21185 net.cpp:157] Top shape: 1 256 384 28 28 (77070336)
I0418 03:41:45.951845 21185 net.cpp:165] Memory required for data: 9132836028
I0418 03:41:45.951853 21185 layer_factory.hpp:77] Creating layer conv3b
I0418 03:41:45.951871 21185 net.cpp:100] Creating Layer conv3b
I0418 03:41:45.951880 21185 net.cpp:434] conv3b <- conv3a
I0418 03:41:45.951889 21185 net.cpp:408] conv3b -> conv3b
I0418 03:41:46.007684 21185 net.cpp:150] Setting up conv3b
I0418 03:41:46.007712 21185 net.cpp:157] Top shape: 1 256 384 28 28 (77070336)
I0418 03:41:46.007719 21185 net.cpp:165] Memory required for data: 9441117372
I0418 03:41:46.007733 21185 layer_factory.hpp:77] Creating layer relu3b
I0418 03:41:46.007746 21185 net.cpp:100] Creating Layer relu3b
I0418 03:41:46.007755 21185 net.cpp:434] relu3b <- conv3b
I0418 03:41:46.007771 21185 net.cpp:395] relu3b -> conv3b (in-place)
I0418 03:41:46.008126 21185 net.cpp:150] Setting up relu3b
I0418 03:41:46.008139 21185 net.cpp:157] Top shape: 1 256 384 28 28 (77070336)
I0418 03:41:46.008143 21185 net.cpp:165] Memory required for data: 9749398716
I0418 03:41:46.008147 21185 layer_factory.hpp:77] Creating layer pool3
I0418 03:41:46.008157 21185 net.cpp:100] Creating Layer pool3
I0418 03:41:46.008162 21185 net.cpp:434] pool3 <- conv3b
I0418 03:41:46.008168 21185 net.cpp:408] pool3 -> pool3
I0418 03:41:46.008827 21185 net.cpp:150] Setting up pool3
I0418 03:41:46.008839 21185 net.cpp:157] Top shape: 1 256 192 14 14 (9633792)
I0418 03:41:46.008843 21185 net.cpp:165] Memory required for data: 9787933884
I0418 03:41:46.008847 21185 layer_factory.hpp:77] Creating layer conv4a
I0418 03:41:46.008859 21185 net.cpp:100] Creating Layer conv4a
I0418 03:41:46.008863 21185 net.cpp:434] conv4a <- pool3
I0418 03:41:46.008870 21185 net.cpp:408] conv4a -> conv4a
I0418 03:41:46.107545 21185 net.cpp:150] Setting up conv4a
I0418 03:41:46.107573 21185 net.cpp:157] Top shape: 1 512 192 14 14 (19267584)
I0418 03:41:46.107576 21185 net.cpp:165] Memory required for data: 9865004220
I0418 03:41:46.107591 21185 layer_factory.hpp:77] Creating layer relu4a
I0418 03:41:46.107602 21185 net.cpp:100] Creating Layer relu4a
I0418 03:41:46.107607 21185 net.cpp:434] relu4a <- conv4a
I0418 03:41:46.107615 21185 net.cpp:395] relu4a -> conv4a (in-place)
I0418 03:41:46.107959 21185 net.cpp:150] Setting up relu4a
I0418 03:41:46.107973 21185 net.cpp:157] Top shape: 1 512 192 14 14 (19267584)
I0418 03:41:46.107977 21185 net.cpp:165] Memory required for data: 9942074556
I0418 03:41:46.107981 21185 layer_factory.hpp:77] Creating layer conv4b
I0418 03:41:46.107995 21185 net.cpp:100] Creating Layer conv4b
I0418 03:41:46.108000 21185 net.cpp:434] conv4b <- conv4a
I0418 03:41:46.108007 21185 net.cpp:408] conv4b -> conv4b
I0418 03:41:46.297516 21185 net.cpp:150] Setting up conv4b
I0418 03:41:46.297541 21185 net.cpp:157] Top shape: 1 512 192 14 14 (19267584)
I0418 03:41:46.297545 21185 net.cpp:165] Memory required for data: 10019144892
I0418 03:41:46.297554 21185 layer_factory.hpp:77] Creating layer relu4b
I0418 03:41:46.297565 21185 net.cpp:100] Creating Layer relu4b
I0418 03:41:46.297569 21185 net.cpp:434] relu4b <- conv4b
I0418 03:41:46.297575 21185 net.cpp:395] relu4b -> conv4b (in-place)
I0418 03:41:46.297727 21185 net.cpp:150] Setting up relu4b
I0418 03:41:46.297737 21185 net.cpp:157] Top shape: 1 512 192 14 14 (19267584)
I0418 03:41:46.297741 21185 net.cpp:165] Memory required for data: 10096215228
I0418 03:41:46.297744 21185 layer_factory.hpp:77] Creating layer pool4
I0418 03:41:46.297752 21185 net.cpp:100] Creating Layer pool4
I0418 03:41:46.297755 21185 net.cpp:434] pool4 <- conv4b
I0418 03:41:46.297762 21185 net.cpp:408] pool4 -> pool4
I0418 03:41:46.298110 21185 net.cpp:150] Setting up pool4
I0418 03:41:46.298121 21185 net.cpp:157] Top shape: 1 512 96 7 7 (2408448)
I0418 03:41:46.298125 21185 net.cpp:165] Memory required for data: 10105849020
I0418 03:41:46.298128 21185 layer_factory.hpp:77] Creating layer conv5a
I0418 03:41:46.298140 21185 net.cpp:100] Creating Layer conv5a
I0418 03:41:46.298146 21185 net.cpp:434] conv5a <- pool4
I0418 03:41:46.298152 21185 net.cpp:408] conv5a -> conv5a
I0418 03:41:46.485751 21185 net.cpp:150] Setting up conv5a
I0418 03:41:46.485776 21185 net.cpp:157] Top shape: 1 512 96 7 7 (2408448)
I0418 03:41:46.485780 21185 net.cpp:165] Memory required for data: 10115482812
I0418 03:41:46.485790 21185 layer_factory.hpp:77] Creating layer relu5a
I0418 03:41:46.485800 21185 net.cpp:100] Creating Layer relu5a
I0418 03:41:46.485803 21185 net.cpp:434] relu5a <- conv5a
I0418 03:41:46.485811 21185 net.cpp:395] relu5a -> conv5a (in-place)
I0418 03:41:46.486284 21185 net.cpp:150] Setting up relu5a
I0418 03:41:46.486296 21185 net.cpp:157] Top shape: 1 512 96 7 7 (2408448)
I0418 03:41:46.486300 21185 net.cpp:165] Memory required for data: 10125116604
I0418 03:41:46.486304 21185 layer_factory.hpp:77] Creating layer conv5b
I0418 03:41:46.486318 21185 net.cpp:100] Creating Layer conv5b
I0418 03:41:46.486321 21185 net.cpp:434] conv5b <- conv5a
I0418 03:41:46.486328 21185 net.cpp:408] conv5b -> conv5b
I0418 03:41:46.675390 21185 net.cpp:150] Setting up conv5b
I0418 03:41:46.675418 21185 net.cpp:157] Top shape: 1 512 96 7 7 (2408448)
I0418 03:41:46.675424 21185 net.cpp:165] Memory required for data: 10134750396
I0418 03:41:46.675434 21185 layer_factory.hpp:77] Creating layer relu5b
I0418 03:41:46.675446 21185 net.cpp:100] Creating Layer relu5b
I0418 03:41:46.675451 21185 net.cpp:434] relu5b <- conv5b
I0418 03:41:46.675457 21185 net.cpp:395] relu5b -> conv5b (in-place)
I0418 03:41:46.676409 21185 net.cpp:150] Setting up relu5b
I0418 03:41:46.676419 21185 net.cpp:157] Top shape: 1 512 96 7 7 (2408448)
I0418 03:41:46.676424 21185 net.cpp:165] Memory required for data: 10144384188
I0418 03:41:46.676426 21185 layer_factory.hpp:77] Creating layer conv5b_relu5b_0_split
I0418 03:41:46.676434 21185 net.cpp:100] Creating Layer conv5b_relu5b_0_split
I0418 03:41:46.676436 21185 net.cpp:434] conv5b_relu5b_0_split <- conv5b
I0418 03:41:46.676442 21185 net.cpp:408] conv5b_relu5b_0_split -> conv5b_relu5b_0_split_0
I0418 03:41:46.676448 21185 net.cpp:408] conv5b_relu5b_0_split -> conv5b_relu5b_0_split_1
I0418 03:41:46.676487 21185 net.cpp:150] Setting up conv5b_relu5b_0_split
I0418 03:41:46.676496 21185 net.cpp:157] Top shape: 1 512 96 7 7 (2408448)
I0418 03:41:46.676501 21185 net.cpp:157] Top shape: 1 512 96 7 7 (2408448)
I0418 03:41:46.676504 21185 net.cpp:165] Memory required for data: 10163651772
I0418 03:41:46.676508 21185 layer_factory.hpp:77] Creating layer rpn_conv/3x3
I0418 03:41:46.676519 21185 net.cpp:100] Creating Layer rpn_conv/3x3
I0418 03:41:46.676525 21185 net.cpp:434] rpn_conv/3x3 <- conv5b_relu5b_0_split_0
I0418 03:41:46.676532 21185 net.cpp:408] rpn_conv/3x3 -> rpn/output
I0418 03:41:46.866140 21185 net.cpp:150] Setting up rpn_conv/3x3
I0418 03:41:46.866166 21185 net.cpp:157] Top shape: 1 512 96 4 4 (786432)
I0418 03:41:46.866170 21185 net.cpp:165] Memory required for data: 10166797500
I0418 03:41:46.866185 21185 layer_factory.hpp:77] Creating layer rpn_relu/3x3
I0418 03:41:46.866195 21185 net.cpp:100] Creating Layer rpn_relu/3x3
I0418 03:41:46.866200 21185 net.cpp:434] rpn_relu/3x3 <- rpn/output
I0418 03:41:46.866207 21185 net.cpp:395] rpn_relu/3x3 -> rpn/output (in-place)
I0418 03:41:46.866801 21185 net.cpp:150] Setting up rpn_relu/3x3
I0418 03:41:46.866814 21185 net.cpp:157] Top shape: 1 512 96 4 4 (786432)
I0418 03:41:46.866818 21185 net.cpp:165] Memory required for data: 10169943228
I0418 03:41:46.866822 21185 layer_factory.hpp:77] Creating layer rpn_conv/3x3_2
I0418 03:41:46.866833 21185 net.cpp:100] Creating Layer rpn_conv/3x3_2
I0418 03:41:46.866837 21185 net.cpp:434] rpn_conv/3x3_2 <- rpn/output
I0418 03:41:46.866843 21185 net.cpp:408] rpn_conv/3x3_2 -> rpn/output_2
I0418 03:41:47.054544 21185 net.cpp:150] Setting up rpn_conv/3x3_2
I0418 03:41:47.054571 21185 net.cpp:157] Top shape: 1 512 96 2 2 (196608)
I0418 03:41:47.054575 21185 net.cpp:165] Memory required for data: 10170729660
I0418 03:41:47.054585 21185 layer_factory.hpp:77] Creating layer rpn_relu/3x3_2
I0418 03:41:47.054594 21185 net.cpp:100] Creating Layer rpn_relu/3x3_2
I0418 03:41:47.054600 21185 net.cpp:434] rpn_relu/3x3_2 <- rpn/output_2
I0418 03:41:47.054607 21185 net.cpp:395] rpn_relu/3x3_2 -> rpn/output_2 (in-place)
I0418 03:41:47.054955 21185 net.cpp:150] Setting up rpn_relu/3x3_2
I0418 03:41:47.054968 21185 net.cpp:157] Top shape: 1 512 96 2 2 (196608)
I0418 03:41:47.054971 21185 net.cpp:165] Memory required for data: 10171516092
I0418 03:41:47.054975 21185 layer_factory.hpp:77] Creating layer rpn/output_pool
I0418 03:41:47.054985 21185 net.cpp:100] Creating Layer rpn/output_pool
I0418 03:41:47.054987 21185 net.cpp:434] rpn/output_pool <- rpn/output_2
I0418 03:41:47.054992 21185 net.cpp:408] rpn/output_pool -> rpn/output_pool
I0418 03:41:47.055513 21185 net.cpp:150] Setting up rpn/output_pool
I0418 03:41:47.055526 21185 net.cpp:157] Top shape: 1 512 96 1 1 (49152)
I0418 03:41:47.055529 21185 net.cpp:165] Memory required for data: 10171712700
I0418 03:41:47.055533 21185 layer_factory.hpp:77] Creating layer rpn/output_pool_rpn/output_pool_0_split
I0418 03:41:47.055539 21185 net.cpp:100] Creating Layer rpn/output_pool_rpn/output_pool_0_split
I0418 03:41:47.055542 21185 net.cpp:434] rpn/output_pool_rpn/output_pool_0_split <- rpn/output_pool
I0418 03:41:47.055547 21185 net.cpp:408] rpn/output_pool_rpn/output_pool_0_split -> rpn/output_pool_rpn/output_pool_0_split_0
I0418 03:41:47.055553 21185 net.cpp:408] rpn/output_pool_rpn/output_pool_0_split -> rpn/output_pool_rpn/output_pool_0_split_1
I0418 03:41:47.055586 21185 net.cpp:150] Setting up rpn/output_pool_rpn/output_pool_0_split
I0418 03:41:47.055593 21185 net.cpp:157] Top shape: 1 512 96 1 1 (49152)
I0418 03:41:47.055598 21185 net.cpp:157] Top shape: 1 512 96 1 1 (49152)
I0418 03:41:47.055600 21185 net.cpp:165] Memory required for data: 10172105916
I0418 03:41:47.055603 21185 layer_factory.hpp:77] Creating layer rpn_cls_score
I0418 03:41:47.055613 21185 net.cpp:100] Creating Layer rpn_cls_score
I0418 03:41:47.055618 21185 net.cpp:434] rpn_cls_score <- rpn/output_pool_rpn/output_pool_0_split_0
I0418 03:41:47.055624 21185 net.cpp:408] rpn_cls_score -> rpn_cls_score
I0418 03:41:47.058980 21185 net.cpp:150] Setting up rpn_cls_score
I0418 03:41:47.058993 21185 net.cpp:157] Top shape: 1 74 96 1 1 (7104)
I0418 03:41:47.058997 21185 net.cpp:165] Memory required for data: 10172134332
I0418 03:41:47.059003 21185 layer_factory.hpp:77] Creating layer rpn_cls_score_rpn_cls_score_0_split
I0418 03:41:47.059010 21185 net.cpp:100] Creating Layer rpn_cls_score_rpn_cls_score_0_split
I0418 03:41:47.059013 21185 net.cpp:434] rpn_cls_score_rpn_cls_score_0_split <- rpn_cls_score
I0418 03:41:47.059020 21185 net.cpp:408] rpn_cls_score_rpn_cls_score_0_split -> rpn_cls_score_rpn_cls_score_0_split_0
I0418 03:41:47.059026 21185 net.cpp:408] rpn_cls_score_rpn_cls_score_0_split -> rpn_cls_score_rpn_cls_score_0_split_1
I0418 03:41:47.059064 21185 net.cpp:150] Setting up rpn_cls_score_rpn_cls_score_0_split
I0418 03:41:47.059072 21185 net.cpp:157] Top shape: 1 74 96 1 1 (7104)
I0418 03:41:47.059077 21185 net.cpp:157] Top shape: 1 74 96 1 1 (7104)
I0418 03:41:47.059079 21185 net.cpp:165] Memory required for data: 10172191164
I0418 03:41:47.059082 21185 layer_factory.hpp:77] Creating layer rpn_twin_pred
I0418 03:41:47.059096 21185 net.cpp:100] Creating Layer rpn_twin_pred
I0418 03:41:47.059104 21185 net.cpp:434] rpn_twin_pred <- rpn/output_pool_rpn/output_pool_0_split_1
I0418 03:41:47.059111 21185 net.cpp:408] rpn_twin_pred -> rpn_twin_pred
I0418 03:41:47.063237 21185 net.cpp:150] Setting up rpn_twin_pred
I0418 03:41:47.063251 21185 net.cpp:157] Top shape: 1 74 96 1 1 (7104)
I0418 03:41:47.063254 21185 net.cpp:165] Memory required for data: 10172219580
I0418 03:41:47.063261 21185 layer_factory.hpp:77] Creating layer rpn_twin_pred_rpn_twin_pred_0_split
I0418 03:41:47.063266 21185 net.cpp:100] Creating Layer rpn_twin_pred_rpn_twin_pred_0_split
I0418 03:41:47.063271 21185 net.cpp:434] rpn_twin_pred_rpn_twin_pred_0_split <- rpn_twin_pred
I0418 03:41:47.063277 21185 net.cpp:408] rpn_twin_pred_rpn_twin_pred_0_split -> rpn_twin_pred_rpn_twin_pred_0_split_0
I0418 03:41:47.063283 21185 net.cpp:408] rpn_twin_pred_rpn_twin_pred_0_split -> rpn_twin_pred_rpn_twin_pred_0_split_1
I0418 03:41:47.063318 21185 net.cpp:150] Setting up rpn_twin_pred_rpn_twin_pred_0_split
I0418 03:41:47.063326 21185 net.cpp:157] Top shape: 1 74 96 1 1 (7104)
I0418 03:41:47.063330 21185 net.cpp:157] Top shape: 1 74 96 1 1 (7104)
I0418 03:41:47.063333 21185 net.cpp:165] Memory required for data: 10172276412
I0418 03:41:47.063338 21185 layer_factory.hpp:77] Creating layer rpn_cls_score_reshape
I0418 03:41:47.063349 21185 net.cpp:100] Creating Layer rpn_cls_score_reshape
I0418 03:41:47.063352 21185 net.cpp:434] rpn_cls_score_reshape <- rpn_cls_score_rpn_cls_score_0_split_0
I0418 03:41:47.063359 21185 net.cpp:408] rpn_cls_score_reshape -> rpn_cls_score_reshape
I0418 03:41:47.063385 21185 net.cpp:150] Setting up rpn_cls_score_reshape
I0418 03:41:47.063390 21185 net.cpp:157] Top shape: 1 2 3552 1 1 (7104)
I0418 03:41:47.063393 21185 net.cpp:165] Memory required for data: 10172304828
I0418 03:41:47.063396 21185 layer_factory.hpp:77] Creating layer rpn_cls_score_reshape_rpn_cls_score_reshape_0_split
I0418 03:41:47.063401 21185 net.cpp:100] Creating Layer rpn_cls_score_reshape_rpn_cls_score_reshape_0_split
I0418 03:41:47.063405 21185 net.cpp:434] rpn_cls_score_reshape_rpn_cls_score_reshape_0_split <- rpn_cls_score_reshape
I0418 03:41:47.063411 21185 net.cpp:408] rpn_cls_score_reshape_rpn_cls_score_reshape_0_split -> rpn_cls_score_reshape_rpn_cls_score_reshape_0_split_0
I0418 03:41:47.063421 21185 net.cpp:408] rpn_cls_score_reshape_rpn_cls_score_reshape_0_split -> rpn_cls_score_reshape_rpn_cls_score_reshape_0_split_1
I0418 03:41:47.063426 21185 net.cpp:408] rpn_cls_score_reshape_rpn_cls_score_reshape_0_split -> rpn_cls_score_reshape_rpn_cls_score_reshape_0_split_2
I0418 03:41:47.063464 21185 net.cpp:150] Setting up rpn_cls_score_reshape_rpn_cls_score_reshape_0_split
I0418 03:41:47.063473 21185 net.cpp:157] Top shape: 1 2 3552 1 1 (7104)
I0418 03:41:47.063477 21185 net.cpp:157] Top shape: 1 2 3552 1 1 (7104)
I0418 03:41:47.063482 21185 net.cpp:157] Top shape: 1 2 3552 1 1 (7104)
I0418 03:41:47.063483 21185 net.cpp:165] Memory required for data: 10172390076
I0418 03:41:47.063486 21185 layer_factory.hpp:77] Creating layer rpn-data
I0418 03:41:47.063881 21185 net.cpp:100] Creating Layer rpn-data
I0418 03:41:47.063894 21185 net.cpp:434] rpn-data <- rpn_cls_score_rpn_cls_score_0_split_1
I0418 03:41:47.063899 21185 net.cpp:434] rpn-data <- gt_boxes_data_1_split_0
I0418 03:41:47.063905 21185 net.cpp:434] rpn-data <- data_data_0_split_1
I0418 03:41:47.063910 21185 net.cpp:408] rpn-data -> rpn_labels
I0418 03:41:47.063917 21185 net.cpp:408] rpn-data -> rpn_twin_targets
I0418 03:41:47.063923 21185 net.cpp:408] rpn-data -> rpn_twin_inside_weights
I0418 03:41:47.063930 21185 net.cpp:408] rpn-data -> rpn_twin_outside_weights
I0418 03:41:47.066154 21185 net.cpp:150] Setting up rpn-data
I0418 03:41:47.066169 21185 net.cpp:157] Top shape: 1 1 3552 1 1 (3552)
I0418 03:41:47.066174 21185 net.cpp:157] Top shape: 1 74 96 1 1 (7104)
I0418 03:41:47.066176 21185 net.cpp:157] Top shape: 1 74 96 1 1 (7104)
I0418 03:41:47.066180 21185 net.cpp:157] Top shape: 1 74 96 1 1 (7104)
I0418 03:41:47.066184 21185 net.cpp:165] Memory required for data: 10172489532
I0418 03:41:47.066186 21185 layer_factory.hpp:77] Creating layer rpn_labels_rpn-data_0_split
I0418 03:41:47.066192 21185 net.cpp:100] Creating Layer rpn_labels_rpn-data_0_split
I0418 03:41:47.066196 21185 net.cpp:434] rpn_labels_rpn-data_0_split <- rpn_labels
I0418 03:41:47.066201 21185 net.cpp:408] rpn_labels_rpn-data_0_split -> rpn_labels_rpn-data_0_split_0
I0418 03:41:47.066208 21185 net.cpp:408] rpn_labels_rpn-data_0_split -> rpn_labels_rpn-data_0_split_1
I0418 03:41:47.066243 21185 net.cpp:150] Setting up rpn_labels_rpn-data_0_split
I0418 03:41:47.066251 21185 net.cpp:157] Top shape: 1 1 3552 1 1 (3552)
I0418 03:41:47.066256 21185 net.cpp:157] Top shape: 1 1 3552 1 1 (3552)
I0418 03:41:47.066258 21185 net.cpp:165] Memory required for data: 10172517948
I0418 03:41:47.066262 21185 layer_factory.hpp:77] Creating layer rpn_loss_cls
I0418 03:41:47.066270 21185 net.cpp:100] Creating Layer rpn_loss_cls
I0418 03:41:47.066274 21185 net.cpp:434] rpn_loss_cls <- rpn_cls_score_reshape_rpn_cls_score_reshape_0_split_0
I0418 03:41:47.066278 21185 net.cpp:434] rpn_loss_cls <- rpn_labels_rpn-data_0_split_0
…
I0418 03:41:47.066872 21185 layer_factory.hpp:77] Creating layer rpn_accuarcy
I0418 03:41:47.066880 21185 net.cpp:100] Creating Layer rpn_accuarcy
I0418 03:41:47.066885 21185 net.cpp:434] rpn_accuarcy <- rpn_cls_score_reshape_rpn_cls_score_reshape_0_split_1
I0418 03:41:47.066890 21185 net.cpp:434] rpn_accuarcy <- rpn_labels_rpn-data_0_split_1
I0418 03:41:47.066895 21185 net.cpp:408] rpn_accuarcy -> rpn_accuarcy
I0418 03:41:47.066901 21185 net.cpp:408] rpn_accuarcy -> rpn_accuarcy_class
I0418 03:41:47.066937 21185 net.cpp:150] Setting up rpn_accuarcy
I0418 03:41:47.066946 21185 net.cpp:157] Top shape: (1)
I0418 03:41:47.066949 21185 net.cpp:157] Top shape: 2 (2)
I0418 03:41:47.066952 21185 net.cpp:165] Memory required for data: 10172517968
I0418 03:41:47.066956 21185 layer_factory.hpp:77] Creating layer rpn_cls_prob
I0418 03:41:47.066962 21185 net.cpp:100] Creating Layer rpn_cls_prob
I0418 03:41:47.066964 21185 net.cpp:434] rpn_cls_prob <- rpn_cls_score_reshape_rpn_cls_score_reshape_0_split_2
I0418 03:41:47.066970 21185 net.cpp:408] rpn_cls_prob -> rpn_cls_prob
I0418 03:41:47.067636 21185 net.cpp:150] Setting up rpn_cls_prob
I0418 03:41:47.067646 21185 net.cpp:157] Top shape: 1 2 3552 1 1 (7104)
I0418 03:41:47.067651 21185 net.cpp:165] Memory required for data: 10172546384
I0418 03:41:47.067654 21185 layer_factory.hpp:77] Creating layer rpn_cls_prob_reshape
I0418 03:41:47.067661 21185 net.cpp:100] Creating Layer rpn_cls_prob_reshape
I0418 03:41:47.067668 21185 net.cpp:434] rpn_cls_prob_reshape <- rpn_cls_prob
I0418 03:41:47.067673 21185 net.cpp:408] rpn_cls_prob_reshape -> rpn_cls_prob_reshape
I0418 03:41:47.067698 21185 net.cpp:150] Setting up rpn_cls_prob_reshape
I0418 03:41:47.067706 21185 net.cpp:157] Top shape: 1 74 96 1 1 (7104)
I0418 03:41:47.067709 21185 net.cpp:165] Memory required for data: 10172574800
I0418 03:41:47.067713 21185 layer_factory.hpp:77] Creating layer proposal
I0418 03:41:47.068249 21185 net.cpp:100] Creating Layer proposal
I0418 03:41:47.068262 21185 net.cpp:434] proposal <- rpn_cls_prob_reshape
I0418 03:41:47.068267 21185 net.cpp:434] proposal <- rpn_twin_pred_rpn_twin_pred_0_split_1
I0418 03:41:47.068274 21185 net.cpp:408] proposal -> rpn_rois
I0418 03:41:47.071049 21185 net.cpp:150] Setting up proposal
I0418 03:41:47.071064 21185 net.cpp:157] Top shape: 1 3 (3)
I0418 03:41:47.071069 21185 net.cpp:165] Memory required for data: 10172574812
I0418 03:41:47.071072 21185 layer_factory.hpp:77] Creating layer roi-data
I0418 03:41:47.071208 21185 net.cpp:100] Creating Layer roi-data
I0418 03:41:47.071220 21185 net.cpp:434] roi-data <- rpn_rois
I0418 03:41:47.071225 21185 net.cpp:434] roi-data <- gt_boxes_data_1_split_1
I0418 03:41:47.071231 21185 net.cpp:408] roi-data -> rois
I0418 03:41:47.071238 21185 net.cpp:408] roi-data -> labels
I0418 03:41:47.071246 21185 net.cpp:408] roi-data -> twin_targets
I0418 03:41:47.071252 21185 net.cpp:408] roi-data -> twin_inside_weights
I0418 03:41:47.071259 21185 net.cpp:408] roi-data -> twin_outside_weights
I0418 03:41:47.071558 21185 net.cpp:150] Setting up roi-data
I0418 03:41:47.071571 21185 net.cpp:157] Top shape: 1 3 (3)
I0418 03:41:47.071576 21185 net.cpp:157] Top shape: 1 1 (1)
I0418 03:41:47.071580 21185 net.cpp:157] Top shape: 1 402 (402)
I0418 03:41:47.071583 21185 net.cpp:157] Top shape: 1 402 (402)
I0418 03:41:47.071588 21185 net.cpp:157] Top shape: 1 402 (402)
I0418 03:41:47.071590 21185 net.cpp:165] Memory required for data: 10172579652
I0418 03:41:47.071594 21185 layer_factory.hpp:77] Creating layer labels_roi-data_1_split
I0418 03:41:47.071599 21185 net.cpp:100] Creating Layer labels_roi-data_1_split
I0418 03:41:47.071604 21185 net.cpp:434] labels_roi-data_1_split <- labels
I0418 03:41:47.071609 21185 net.cpp:408] labels_roi-data_1_split -> labels_roi-data_1_split_0
I0418 03:41:47.071615 21185 net.cpp:408] labels_roi-data_1_split -> labels_roi-data_1_split_1
I0418 03:41:47.071646 21185 net.cpp:150] Setting up labels_roi-data_1_split
I0418 03:41:47.071653 21185 net.cpp:157] Top shape: 1 1 (1)
I0418 03:41:47.071657 21185 net.cpp:157] Top shape: 1 1 (1)
I0418 03:41:47.071661 21185 net.cpp:165] Memory required for data: 10172579660
I0418 03:41:47.071665 21185 layer_factory.hpp:77] Creating layer roi_pool5
I0418 03:41:47.071673 21185 net.cpp:100] Creating Layer roi_pool5
I0418 03:41:47.071677 21185 net.cpp:434] roi_pool5 <- conv5b_relu5b_0_split_1
I0418 03:41:47.071682 21185 net.cpp:434] roi_pool5 <- rois
I0418 03:41:47.071687 21185 net.cpp:408] roi_pool5 -> pool5
I0418 03:41:47.071694 21185 roi_pooling_layer.cpp:34] Temporal scale: 0.125
I0418 03:41:47.071710 21185 roi_pooling_layer.cpp:35] Spatial scale: 0.0625
I0418 03:41:47.071743 21185 net.cpp:150] Setting up roi_pool5
I0418 03:41:47.071751 21185 net.cpp:157] Top shape: 1 512 1 4 4 (8192)
I0418 03:41:47.071754 21185 net.cpp:165] Memory required for data: 10172612428
I0418 03:41:47.071758 21185 layer_factory.hpp:77] Creating layer fc6
I0418 03:41:47.071766 21185 net.cpp:100] Creating Layer fc6
I0418 03:41:47.071770 21185 net.cpp:434] fc6 <- pool5
I0418 03:41:47.071775 21185 net.cpp:408] fc6 -> fc6
I0418 03:41:47.949265 21185 net.cpp:150] Setting up fc6
I0418 03:41:47.949290 21185 net.cpp:157] Top shape: 1 4096 (4096)
I0418 03:41:47.949293 21185 net.cpp:165] Memory required for data: 10172628812
I0418 03:41:47.949303 21185 layer_factory.hpp:77] Creating layer relu6
I0418 03:41:47.949317 21185 net.cpp:100] Creating Layer relu6
I0418 03:41:47.949323 21185 net.cpp:434] relu6 <- fc6
I0418 03:41:47.949329 21185 net.cpp:395] relu6 -> fc6 (in-place)
I0418 03:41:47.949774 21185 net.cpp:150] Setting up relu6
I0418 03:41:47.949785 21185 net.cpp:157] Top shape: 1 4096 (4096)
I0418 03:41:47.949790 21185 net.cpp:165] Memory required for data: 10172645196
I0418 03:41:47.949795 21185 layer_factory.hpp:77] Creating layer drop6
I0418 03:41:47.949805 21185 net.cpp:100] Creating Layer drop6
I0418 03:41:47.949810 21185 net.cpp:434] drop6 <- fc6
I0418 03:41:47.949813 21185 net.cpp:395] drop6 -> fc6 (in-place)
I0418 03:41:47.949841 21185 net.cpp:150] Setting up drop6
I0418 03:41:47.949849 21185 net.cpp:157] Top shape: 1 4096 (4096)
I0418 03:41:47.949853 21185 net.cpp:165] Memory required for data: 10172661580
I0418 03:41:47.949857 21185 layer_factory.hpp:77] Creating layer fc6_drop6_0_split
I0418 03:41:47.949863 21185 net.cpp:100] Creating Layer fc6_drop6_0_split
I0418 03:41:47.949867 21185 net.cpp:434] fc6_drop6_0_split <- fc6
I0418 03:41:47.949872 21185 net.cpp:408] fc6_drop6_0_split -> fc6_drop6_0_split_0
I0418 03:41:47.949877 21185 net.cpp:408] fc6_drop6_0_split -> fc6_drop6_0_split_1
I0418 03:41:47.949909 21185 net.cpp:150] Setting up fc6_drop6_0_split
I0418 03:41:47.949918 21185 net.cpp:157] Top shape: 1 4096 (4096)
I0418 03:41:47.949920 21185 net.cpp:157] Top shape: 1 4096 (4096)
I0418 03:41:47.949923 21185 net.cpp:165] Memory required for data: 10172694348
I0418 03:41:47.949928 21185 layer_factory.hpp:77] Creating layer cls_score
I0418 03:41:47.949935 21185 net.cpp:100] Creating Layer cls_score
I0418 03:41:47.949939 21185 net.cpp:434] cls_score <- fc6_drop6_0_split_0
I0418 03:41:47.949944 21185 net.cpp:408] cls_score -> cls_score
I0418 03:41:47.971482 21185 net.cpp:150] Setting up cls_score
I0418 03:41:47.971508 21185 net.cpp:157] Top shape: 1 201 (201)
I0418 03:41:47.971513 21185 net.cpp:165] Memory required for data: 10172695152
I0418 03:41:47.971519 21185 layer_factory.hpp:77] Creating layer cls_score_cls_score_0_split
I0418 03:41:47.971525 21185 net.cpp:100] Creating Layer cls_score_cls_score_0_split
I0418 03:41:47.971529 21185 net.cpp:434] cls_score_cls_score_0_split <- cls_score
I0418 03:41:47.971534 21185 net.cpp:408] cls_score_cls_score_0_split -> cls_score_cls_score_0_split_0
I0418 03:41:47.971540 21185 net.cpp:408] cls_score_cls_score_0_split -> cls_score_cls_score_0_split_1
I0418 03:41:47.971573 21185 net.cpp:150] Setting up cls_score_cls_score_0_split
I0418 03:41:47.971581 21185 net.cpp:157] Top shape: 1 201 (201)
I0418 03:41:47.971585 21185 net.cpp:157] Top shape: 1 201 (201)
I0418 03:41:47.971587 21185 net.cpp:165] Memory required for data: 10172696760
I0418 03:41:47.971591 21185 layer_factory.hpp:77] Creating layer twin_pred
I0418 03:41:47.971597 21185 net.cpp:100] Creating Layer twin_pred
I0418 03:41:47.971601 21185 net.cpp:434] twin_pred <- fc6_drop6_0_split_1
I0418 03:41:47.971607 21185 net.cpp:408] twin_pred -> twin_pred
I0418 03:41:48.014561 21185 net.cpp:150] Setting up twin_pred
I0418 03:41:48.014586 21185 net.cpp:157] Top shape: 1 402 (402)
I0418 03:41:48.014590 21185 net.cpp:165] Memory required for data: 10172698368
I0418 03:41:48.014600 21185 layer_factory.hpp:77] Creating layer loss_cls
I0418 03:41:48.014609 21185 net.cpp:100] Creating Layer loss_cls
I0418 03:41:48.014616 21185 net.cpp:434] loss_cls <- cls_score_cls_score_0_split_0
I0418 03:41:48.014623 21185 net.cpp:434] loss_cls <- labels_roi-data_1_split_0
I0418 03:41:48.014632 21185 net.cpp:408] loss_cls -> loss_cls
…
