…
stepsize: 350000
snapshot: 0
snapshot_prefix: "./experiments/activitynet/snapshot/activitynet"
average_loss: 100
iter_size: 1
I0417 04:08:25.106822 10696 solver.cpp:81] Creating training net from train_net file: ./experiments/activitynet/train.prototxt
I0417 04:08:25.107906 10696 net.cpp:58] Initializing net from parameters: 
name: "activitynet"
state {
  phase: TRAIN
}
layer {
  name: "data"
  type: "Python"
  top: "data"
  top: "gt_boxes"
  python_param {
    module: "roi_data_layer.layer"
    layer: "RoIDataLayer"
    param_str: "\'num_classes\': 100"
  }
}
layer {
  name: "conv1a"
  type: "Convolution"
  bottom: "data"
  top: "conv1a"
  param {
    lr_mult: 0
    decay_mult: 0
  }
  param {
    lr_mult: 0
    decay_mult: 0
  }
  convolution_param {
    num_output: 64
    pad: 1
    pad: 1
    pad: 1
    kernel_size: 3
    kernel_size: 3
    kernel_size: 3
    weight_filler {
      type: "gaussian"
      std: 0.01
    }
    bias_filler {
      type: "constant"
      value: 0
    }
  }
}
layer {
  name: "relu1a"
  type: "ReLU"
  bottom: "conv1a"
  top: "conv1a"
}
layer {
  name: "pool1"
  type: "Pooling"
  bottom: "conv1a"
  top: "pool1"
  pooling_param {
    pool: MAX
    kernel_size: 1
    kernel_size: 2
    kernel_size: 2
    stride: 1
    stride: 2
    stride: 2
  }
}
layer {
  name: "conv2a"
  type: "Convolution"
  bottom: "pool1"
  top: "conv2a"
  param {
    lr_mult: 0
    decay_mult: 0
  }
  param {
    lr_mult: 0
    decay_mult: 0
  }
  convolution_param {
    num_output: 128
    pad: 1
    pad: 1
    pad: 1
    kernel_size: 3
    kernel_size: 3
    kernel_size: 3
    weight_filler {
      type: "gaussian"
      std: 0.01
    }
    bias_filler {
      type: "constant"
      value: 1
    }
  }
}
layer {
  name: "relu2a"
  type: "ReLU"
  bottom: "conv2a"
  top: "conv2a"
}
layer {
  name: "pool2"
  type: "Pooling"
  bottom: "conv2a"
  top: "pool2"
  pooling_param {
    pool: MAX
    kernel_size: 2
    kernel_size: 2
    kernel_size: 2
    stride: 2
    stride: 2
    stride: 2
  }
}
layer {
  name: "conv3a"
  type: "Convolution"
  bottom: "pool2"
  top: "conv3a"
  param {
    lr_mult: 1
    decay_mult: 1
  }
  param {
    lr_mult: 2
    decay_mult: 0
  }
  convolution_param {
    num_output: 256
    pad: 1
    pad: 1
    pad: 1
    kernel_size: 3
    kernel_size: 3
    kernel_size: 3
    weight_filler {
      type: "gaussian"
      std: 0.01
    }
    bias_filler {
      type: "constant"
      value: 1
    }
  }
}
layer {
  name: "relu3a"
  type: "ReLU"
  bottom: "conv3a"
  top: "conv3a"
}
layer {
  name: "conv3b"
  type: "Convolution"
  bottom: "conv3a"
  top: "conv3b"
  param {
    lr_mult: 1
    decay_mult: 1
  }
  param {
    lr_mult: 2
    decay_mult: 0
  }
  convolution_param {
    num_output: 256
    pad: 1
    pad: 1
    pad: 1
    kernel_size: 3
    kernel_size: 3
    kernel_size: 3
    weight_filler {
      type: "gaussian"
      std: 0.01
    }
    bias_filler {
      type: "constant"
      value: 1
    }
  }
}
layer {
  name: "relu3b"
  type: "ReLU"
  bottom: "conv3b"
  top: "conv3b"
}
layer {
  name: "pool3"
  type: "Pooling"
  bottom: "conv3b"
  top: "pool3"
  pooling_param {
    pool: MAX
    kernel_size: 2
    kernel_size: 2
    kernel_size: 2
    stride: 2
    stride: 2
    stride: 2
  }
}
layer {
  name: "conv4a"
  type: "Convolution"
  bottom: "pool3"
  top: "conv4a"
  param {
    lr_mult: 1
    decay_mult: 1
  }
  param {
    lr_mult: 2
    decay_mult: 0
  }
  convolution_param {
    num_output: 512
    pad: 1
    pad: 1
    pad: 1
    kernel_size: 3
    kernel_size: 3
    kernel_size: 3
    weight_filler {
      type: "gaussian"
      std: 0.01
    }
    bias_filler {
      type: "constant"
      value: 1
    }
  }
}
layer {
  name: "relu4a"
  type: "ReLU"
  bottom: "conv4a"
  top: "conv4a"
}
layer {
  name: "conv4b"
  type: "Convolution"
  bottom: "conv4a"
  top: "conv4b"
  param {
    lr_mult: 1
    decay_mult: 1
  }
  param {
    lr_mult: 2
    decay_mult: 0
  }
  convolution_param {
    num_output: 512
    pad: 1
    pad: 1
    pad: 1
    kernel_size: 3
    kernel_size: 3
    kernel_size: 3
    weight_filler {
      type: "gaussian"
      std: 0.01
    }
    bias_filler {
      type: "constant"
      value: 1
    }
  }
}
layer {
  name: "relu4b"
  type: "ReLU"
  bottom: "conv4b"
  top: "conv4b"
}
layer {
  name: "pool4"
  type: "Pooling"
  bottom: "conv4b"
  top: "pool4"
  pooling_param {
    pool: MAX
    kernel_size: 2
    kernel_size: 2
    kernel_size: 2
    stride: 2
    stride: 2
    stride: 2
  }
}
layer {
  name: "conv5a"
  type: "Convolution"
  bottom: "pool4"
  top: "conv5a"
  param {
    lr_mult: 1
    decay_mult: 1
  }
  param {
    lr_mult: 2
    decay_mult: 0
  }
  convolution_param {
    num_output: 512
    pad: 1
    pad: 1
    pad: 1
    kernel_size: 3
    kernel_size: 3
    kernel_size: 3
    weight_filler {
      type: "gaussian"
      std: 0.01
    }
    bias_filler {
      type: "constant"
      value: 1
    }
  }
}
layer {
  name: "relu5a"
  type: "ReLU"
  bottom: "conv5a"
  top: "conv5a"
}
layer {
  name: "conv5b"
  type: "Convolution"
  bottom: "conv5a"
  top: "conv5b"
  param {
    lr_mult: 1
    decay_mult: 1
  }
  param {
    lr_mult: 2
    decay_mult: 0
  }
  convolution_param {
    num_output: 512
    pad: 1
    pad: 1
    pad: 1
    kernel_size: 3
    kernel_size: 3
    kernel_size: 3
    weight_filler {
      type: "gaussian"
      std: 0.01
    }
    bias_filler {
      type: "constant"
      value: 1
    }
  }
}
layer {
  name: "relu5b"
  type: "ReLU"
  bottom: "conv5b"
  top: "conv5b"
}
layer {
  name: "rpn_conv/3x3"
  type: "Convolution"
  bottom: "conv5b"
  top: "rpn/output"
  param {
    lr_mult: 1
    decay_mult: 1
  }
  param {
    lr_mult: 2
    decay_mult: 0
  }
  convolution_param {
    num_output: 512
    pad: 1
    pad: 1
    pad: 1
    kernel_size: 3
    kernel_size: 3
    kernel_size: 3
    stride: 1
    stride: 2
    stride: 2
    weight_filler {
      type: "gaussian"
      std: 0.01
    }
    bias_filler {
      type: "constant"
      value: 0
    }
  }
}
layer {
  name: "rpn_relu/3x3"
  type: "ReLU"
  bottom: "rpn/output"
  top: "rpn/output"
}
layer {
  name: "rpn_conv/3x3_2"
  type: "Convolution"
  bottom: "rpn/output"
  top: "rpn/output_2"
  param {
    lr_mult: 1
    decay_mult: 1
  }
  param {
    lr_mult: 2
    decay_mult: 0
  }
  convolution_param {
    num_output: 512
    pad: 1
    pad: 1
    pad: 1
    kernel_size: 3
    kernel_size: 3
    kernel_size: 3
    stride: 1
    stride: 2
    stride: 2
    weight_filler {
      type: "gaussian"
      std: 0.01
    }
    bias_filler {
      type: "constant"
      value: 0
    }
  }
}
layer {
  name: "rpn_relu/3x3_2"
  type: "ReLU"
  bottom: "rpn/output_2"
  top: "rpn/output_2"
}
layer {
  name: "rpn/output_pool"
  type: "Pooling"
  bottom: "rpn/output_2"
  top: "rpn/output_pool"
  pooling_param {
    pool: MAX
    kernel_size: 1
    kernel_size: 2
    kernel_size: 2
  }
}
layer {
  name: "rpn_cls_score"
  type: "Convolution"
  bottom: "rpn/output_pool"
  top: "rpn_cls_score"
  param {
    lr_mult: 1
    decay_mult: 1
  }
  param {
    lr_mult: 2
    decay_mult: 0
  }
  convolution_param {
    num_output: 74
    kernel_size: 1
    kernel_size: 1
    kernel_size: 1
    weight_filler {
      type: "gaussian"
      std: 0.01
    }
    bias_filler {
      type: "constant"
      value: 0
    }
  }
}
layer {
  name: "rpn_twin_pred"
  type: "Convolution"
  bottom: "rpn/output_pool"
  top: "rpn_twin_pred"
  param {
    lr_mult: 1
    decay_mult: 1
  }
  param {
    lr_mult: 2
    decay_mult: 0
  }
  convolution_param {
    num_output: 74
    kernel_size: 1
    kernel_size: 1
    kernel_size: 1
    weight_filler {
      type: "gaussian"
      std: 0.01
    }
    bias_filler {
      type: "constant"
      value: 0
    }
  }
}
layer {
  name: "rpn_cls_score_reshape"
  type: "Reshape"
  bottom: "rpn_cls_score"
  top: "rpn_cls_score_reshape"
  reshape_param {
    shape {
      dim: 0
      dim: 2
      dim: -1
      dim: 0
      dim: 0
    }
  }
}
layer {
  name: "rpn-data"
  type: "Python"
  bottom: "rpn_cls_score"
  bottom: "gt_boxes"
  bottom: "data"
  top: "rpn_labels"
  top: "rpn_twin_targets"
  top: "rpn_twin_inside_weights"
  top: "rpn_twin_outside_weights"
  python_param {
    module: "rpn.anchor_target_layer"
    layer: "AnchorTargetLayer"
    param_str: "\'feat_stride\': 8 \n\'scales\': !!python/tuple [1,1.25, 1.5,1.75, 2,2.5, 3,3.5, 4,4.5, 5,5.5, 6,7, 8,9,10,11,12,14,16,18,20,22,24,28,32,36,40,44,52,60,68,76,84,92,100]"
  }
}
layer {
  name: "rpn_loss_cls"
  type: "SoftmaxWithLoss"
  bottom: "rpn_cls_score_reshape"
  bottom: "rpn_labels"
  top: "rpn_cls_loss"
  loss_weight: 1
  propagate_down: true
  propagate_down: false
  loss_param {
    ignore_label: -1
    normalize: true
  }
}
layer {
  name: "rpn_loss_twin"
  type: "SmoothL1Loss"
  bottom: "rpn_twin_pred"
  bottom: "rpn_twin_targets"
  bottom: "rpn_twin_inside_weights"
  bottom: "rpn_twin_outside_weights"
  top: "rpn_loss_twin"
  loss_weight: 1
  smooth_l1_loss_param {
    sigma: 3
  }
}
layer {
  name: "rpn_accuarcy"
  type: "Accuracy"
  bottom: "rpn_cls_score_reshape"
  bottom: "rpn_labels"
  top: "rpn_accuarcy"
  top: "rpn_accuarcy_class"
  propagate_down: false
  propagate_down: false
  accuracy_param {
    ignore_label: -1
  }
}
layer {
  name: "rpn_cls_prob"
  type: "Softmax"
  bottom: "rpn_cls_score_reshape"
  top: "rpn_cls_prob"
}
layer {
  name: "rpn_cls_prob_reshape"
  type: "Reshape"
  bottom: "rpn_cls_prob"
  top: "rpn_cls_prob_reshape"
  reshape_param {
    shape {
      dim: 0
      dim: 74
      dim: -1
      dim: 0
      dim: 0
    }
  }
}
layer {
  name: "proposal"
  type: "Python"
  bottom: "rpn_cls_prob_reshape"
  bottom: "rpn_twin_pred"
  top: "rpn_rois"
  include {
    phase: TRAIN
  }
  python_param {
    module: "rpn.proposal_layer"
    layer: "ProposalLayer"
    param_str: "\'feat_stride\': 8 \n\'scales\': !!python/tuple [1,1.25, 1.5,1.75, 2,2.5, 3,3.5, 4,4.5, 5,5.5, 6,7, 8,9,10,11,12,14,16,18,20,22,24,28,32,36,40,44,52,60,68,76,84,92,100]"
  }
}
layer {
  name: "roi-data"
  type: "Python"
  bottom: "rpn_rois"
  bottom: "gt_boxes"
  top: "rois"
  top: "labels"
  top: "twin_targets"
  top: "twin_inside_weights"
  top: "twin_outside_weights"
  python_param {
    module: "rpn.proposal_target_layer"
    layer: "ProposalTargetLayer"
    param_str: "\'num_classes\': 201"
  }
}
layer {
  name: "roi_pool5"
  type: "ROIPooling"
  bottom: "conv5b"
  bottom: "rois"
  top: "pool5"
  roi_pooling_param {
    pooled_h: 4
    pooled_w: 4
    spatial_scale: 0.0625
    pooled_l: 1
    temporal_scale: 0.125
  }
}
layer {
  name: "fc6"
  type: "InnerProduct"
  bottom: "pool5"
  top: "fc6"
  param {
    lr_mult: 1
    decay_mult: 1
  }
  param {
    lr_mult: 2
    decay_mult: 0
  }
  inner_product_param {
    num_output: 4096
    weight_filler {
      type: "gaussian"
      std: 0.005
    }
    bias_filler {
      type: "constant"
      value: 1
    }
  }
}
layer {
  name: "relu6"
  type: "ReLU"
  bottom: "fc6"
  top: "fc6"
}
layer {
  name: "drop6"
  type: "Dropout"
  bottom: "fc6"
  top: "fc6"
  dropout_param {
    dropout_ratio: 0.5
  }
}
layer {
  name: "cls_score"
  type: "InnerProduct"
  bottom: "fc6"
  top: "cls_score"
  param {
    lr_mult: 1
    decay_mult: 1
  }
  param {
    lr_mult: 2
    decay_mult: 0
  }
  inner_product_param {
    num_output: 201
    weight_filler {
      type: "gaussian"
      std: 0.01
    }
    bias_filler {
      type: "constant"
      value: 0
    }
  }
}
layer {
  name: "twin_pred"
  type: "InnerProduct"
  bottom: "fc6"
  top: "twin_pred"
  param {
    lr_mult: 1
    decay_mult: 1
  }
  param {
    lr_mult: 2
    decay_mult: 0
  }
  inner_product_param {
    num_output: 402
    weight_filler {
      type: "gaussian"
      std: 0.001
    }
    bias_filler {
      type: "constant"
      value: 0
    }
  }
}
layer {
  name: "loss_cls"
  type: "SoftmaxWithLoss"
  bottom: "cls_score"
  bottom: "labels"
  top: "loss_cls"
  loss_weight: 1
  propagate_down: true
  propagate_down: false
}
layer {
  name: "loss_twin"
  type: "SmoothL1Loss"
  bottom: "twin_pred"
  bottom: "twin_targets"
  bottom: "twin_inside_weights"
  bottom: "twin_outside_weights"
  top: "loss_twin"
  loss_weight: 1
}
layer {
  name: "accuarcy"
  type: "Accuracy"
  bottom: "cls_score"
  bottom: "labels"
  top: "accuarcy"
  propagate_down: false
  propagate_down: false
  accuracy_param {
    ignore_label: -1
  }
}
I0417 04:08:25.108119 10696 layer_factory.hpp:77] Creating layer data
I0417 04:08:25.133627 10696 net.cpp:100] Creating Layer data
I0417 04:08:25.133652 10696 net.cpp:408] data -> data
I0417 04:08:25.133666 10696 net.cpp:408] data -> gt_boxes
setting up
RoiDataLayer: name_to_top: {'gt_windows': 1, 'data': 0}
I0417 04:08:25.146919 10696 net.cpp:150] Setting up data
I0417 04:08:25.146942 10696 net.cpp:157] Top shape: 1 3 768 112 112 (28901376)
I0417 04:08:25.146947 10696 net.cpp:157] Top shape: 1 101 (101)
I0417 04:08:25.146951 10696 net.cpp:165] Memory required for data: 115605908
I0417 04:08:25.146957 10696 layer_factory.hpp:77] Creating layer data_data_0_split
I0417 04:08:25.146970 10696 net.cpp:100] Creating Layer data_data_0_split
I0417 04:08:25.146973 10696 net.cpp:434] data_data_0_split <- data
I0417 04:08:25.146980 10696 net.cpp:408] data_data_0_split -> data_data_0_split_0
I0417 04:08:25.146989 10696 net.cpp:408] data_data_0_split -> data_data_0_split_1
I0417 04:08:25.147033 10696 net.cpp:150] Setting up data_data_0_split
I0417 04:08:25.147043 10696 net.cpp:157] Top shape: 1 3 768 112 112 (28901376)
I0417 04:08:25.147048 10696 net.cpp:157] Top shape: 1 3 768 112 112 (28901376)
I0417 04:08:25.147052 10696 net.cpp:165] Memory required for data: 346816916
I0417 04:08:25.147054 10696 layer_factory.hpp:77] Creating layer gt_boxes_data_1_split
I0417 04:08:25.147059 10696 net.cpp:100] Creating Layer gt_boxes_data_1_split
I0417 04:08:25.147063 10696 net.cpp:434] gt_boxes_data_1_split <- gt_boxes
I0417 04:08:25.147068 10696 net.cpp:408] gt_boxes_data_1_split -> gt_boxes_data_1_split_0
I0417 04:08:25.147073 10696 net.cpp:408] gt_boxes_data_1_split -> gt_boxes_data_1_split_1
I0417 04:08:25.147107 10696 net.cpp:150] Setting up gt_boxes_data_1_split
I0417 04:08:25.147112 10696 net.cpp:157] Top shape: 1 101 (101)
I0417 04:08:25.147116 10696 net.cpp:157] Top shape: 1 101 (101)
I0417 04:08:25.147120 10696 net.cpp:165] Memory required for data: 346817724
I0417 04:08:25.147123 10696 layer_factory.hpp:77] Creating layer conv1a
I0417 04:08:25.147136 10696 net.cpp:100] Creating Layer conv1a
I0417 04:08:25.147140 10696 net.cpp:434] conv1a <- data_data_0_split_0
I0417 04:08:25.147145 10696 net.cpp:408] conv1a -> conv1a
I0417 04:08:25.166003 10696 net.cpp:150] Setting up conv1a
I0417 04:08:25.166034 10696 net.cpp:157] Top shape: 1 64 768 112 112 (616562688)
I0417 04:08:25.166038 10696 net.cpp:165] Memory required for data: 2813068476
I0417 04:08:25.166060 10696 layer_factory.hpp:77] Creating layer relu1a
I0417 04:08:25.166074 10696 net.cpp:100] Creating Layer relu1a
I0417 04:08:25.166079 10696 net.cpp:434] relu1a <- conv1a
I0417 04:08:25.166085 10696 net.cpp:395] relu1a -> conv1a (in-place)
I0417 04:08:25.166096 10696 net.cpp:150] Setting up relu1a
I0417 04:08:25.166101 10696 net.cpp:157] Top shape: 1 64 768 112 112 (616562688)
I0417 04:08:25.166105 10696 net.cpp:165] Memory required for data: 5279319228
I0417 04:08:25.166107 10696 layer_factory.hpp:77] Creating layer pool1
I0417 04:08:25.166113 10696 net.cpp:100] Creating Layer pool1
I0417 04:08:25.166117 10696 net.cpp:434] pool1 <- conv1a
I0417 04:08:25.166122 10696 net.cpp:408] pool1 -> pool1
I0417 04:08:25.166223 10696 net.cpp:150] Setting up pool1
I0417 04:08:25.166232 10696 net.cpp:157] Top shape: 1 64 768 56 56 (154140672)
I0417 04:08:25.166235 10696 net.cpp:165] Memory required for data: 5895881916
I0417 04:08:25.166239 10696 layer_factory.hpp:77] Creating layer conv2a
I0417 04:08:25.166249 10696 net.cpp:100] Creating Layer conv2a
I0417 04:08:25.166254 10696 net.cpp:434] conv2a <- pool1
I0417 04:08:25.166258 10696 net.cpp:408] conv2a -> conv2a
I0417 04:08:25.177127 10696 net.cpp:150] Setting up conv2a
I0417 04:08:25.177155 10696 net.cpp:157] Top shape: 1 128 768 56 56 (308281344)
I0417 04:08:25.177160 10696 net.cpp:165] Memory required for data: 7129007292
I0417 04:08:25.177172 10696 layer_factory.hpp:77] Creating layer relu2a
I0417 04:08:25.177182 10696 net.cpp:100] Creating Layer relu2a
I0417 04:08:25.177186 10696 net.cpp:434] relu2a <- conv2a
I0417 04:08:25.177191 10696 net.cpp:395] relu2a -> conv2a (in-place)
I0417 04:08:25.177201 10696 net.cpp:150] Setting up relu2a
I0417 04:08:25.177204 10696 net.cpp:157] Top shape: 1 128 768 56 56 (308281344)
I0417 04:08:25.177207 10696 net.cpp:165] Memory required for data: 8362132668
I0417 04:08:25.177211 10696 layer_factory.hpp:77] Creating layer pool2
I0417 04:08:25.177219 10696 net.cpp:100] Creating Layer pool2
I0417 04:08:25.177222 10696 net.cpp:434] pool2 <- conv2a
I0417 04:08:25.177227 10696 net.cpp:408] pool2 -> pool2
I0417 04:08:25.177309 10696 net.cpp:150] Setting up pool2
I0417 04:08:25.177319 10696 net.cpp:157] Top shape: 1 128 384 28 28 (38535168)
I0417 04:08:25.177321 10696 net.cpp:165] Memory required for data: 8516273340
I0417 04:08:25.177325 10696 layer_factory.hpp:77] Creating layer conv3a
I0417 04:08:25.177336 10696 net.cpp:100] Creating Layer conv3a
I0417 04:08:25.177340 10696 net.cpp:434] conv3a <- pool2
I0417 04:08:25.177345 10696 net.cpp:408] conv3a -> conv3a
I0417 04:08:25.202472 10696 net.cpp:150] Setting up conv3a
I0417 04:08:25.202492 10696 net.cpp:157] Top shape: 1 256 384 28 28 (77070336)
I0417 04:08:25.202497 10696 net.cpp:165] Memory required for data: 8824554684
I0417 04:08:25.202508 10696 layer_factory.hpp:77] Creating layer relu3a
I0417 04:08:25.202517 10696 net.cpp:100] Creating Layer relu3a
I0417 04:08:25.202522 10696 net.cpp:434] relu3a <- conv3a
I0417 04:08:25.202527 10696 net.cpp:395] relu3a -> conv3a (in-place)
I0417 04:08:25.202535 10696 net.cpp:150] Setting up relu3a
I0417 04:08:25.202539 10696 net.cpp:157] Top shape: 1 256 384 28 28 (77070336)
I0417 04:08:25.202543 10696 net.cpp:165] Memory required for data: 9132836028
I0417 04:08:25.202545 10696 layer_factory.hpp:77] Creating layer conv3b
I0417 04:08:25.202555 10696 net.cpp:100] Creating Layer conv3b
I0417 04:08:25.202558 10696 net.cpp:434] conv3b <- conv3a
I0417 04:08:25.202564 10696 net.cpp:408] conv3b -> conv3b
I0417 04:08:25.251617 10696 net.cpp:150] Setting up conv3b
I0417 04:08:25.251641 10696 net.cpp:157] Top shape: 1 256 384 28 28 (77070336)
I0417 04:08:25.251646 10696 net.cpp:165] Memory required for data: 9441117372
I0417 04:08:25.251654 10696 layer_factory.hpp:77] Creating layer relu3b
I0417 04:08:25.251664 10696 net.cpp:100] Creating Layer relu3b
I0417 04:08:25.251669 10696 net.cpp:434] relu3b <- conv3b
I0417 04:08:25.251675 10696 net.cpp:395] relu3b -> conv3b (in-place)
I0417 04:08:25.251685 10696 net.cpp:150] Setting up relu3b
I0417 04:08:25.251691 10696 net.cpp:157] Top shape: 1 256 384 28 28 (77070336)
I0417 04:08:25.251695 10696 net.cpp:165] Memory required for data: 9749398716
I0417 04:08:25.251698 10696 layer_factory.hpp:77] Creating layer pool3
I0417 04:08:25.251705 10696 net.cpp:100] Creating Layer pool3
I0417 04:08:25.251709 10696 net.cpp:434] pool3 <- conv3b
I0417 04:08:25.251714 10696 net.cpp:408] pool3 -> pool3
I0417 04:08:25.251765 10696 net.cpp:150] Setting up pool3
I0417 04:08:25.251775 10696 net.cpp:157] Top shape: 1 256 192 14 14 (9633792)
I0417 04:08:25.251777 10696 net.cpp:165] Memory required for data: 9787933884
I0417 04:08:25.251780 10696 layer_factory.hpp:77] Creating layer conv4a
I0417 04:08:25.251791 10696 net.cpp:100] Creating Layer conv4a
I0417 04:08:25.251796 10696 net.cpp:434] conv4a <- pool3
I0417 04:08:25.251801 10696 net.cpp:408] conv4a -> conv4a
I0417 04:08:25.351647 10696 net.cpp:150] Setting up conv4a
I0417 04:08:25.351670 10696 net.cpp:157] Top shape: 1 512 192 14 14 (19267584)
I0417 04:08:25.351675 10696 net.cpp:165] Memory required for data: 9865004220
I0417 04:08:25.351688 10696 layer_factory.hpp:77] Creating layer relu4a
I0417 04:08:25.351698 10696 net.cpp:100] Creating Layer relu4a
I0417 04:08:25.351702 10696 net.cpp:434] relu4a <- conv4a
I0417 04:08:25.351711 10696 net.cpp:395] relu4a -> conv4a (in-place)
I0417 04:08:25.351718 10696 net.cpp:150] Setting up relu4a
I0417 04:08:25.351723 10696 net.cpp:157] Top shape: 1 512 192 14 14 (19267584)
I0417 04:08:25.351727 10696 net.cpp:165] Memory required for data: 9942074556
I0417 04:08:25.351729 10696 layer_factory.hpp:77] Creating layer conv4b
I0417 04:08:25.351743 10696 net.cpp:100] Creating Layer conv4b
I0417 04:08:25.351747 10696 net.cpp:434] conv4b <- conv4a
I0417 04:08:25.351754 10696 net.cpp:408] conv4b -> conv4b
I0417 04:08:25.547400 10696 net.cpp:150] Setting up conv4b
I0417 04:08:25.547425 10696 net.cpp:157] Top shape: 1 512 192 14 14 (19267584)
I0417 04:08:25.547428 10696 net.cpp:165] Memory required for data: 10019144892
I0417 04:08:25.547436 10696 layer_factory.hpp:77] Creating layer relu4b
I0417 04:08:25.547446 10696 net.cpp:100] Creating Layer relu4b
I0417 04:08:25.547451 10696 net.cpp:434] relu4b <- conv4b
I0417 04:08:25.547461 10696 net.cpp:395] relu4b -> conv4b (in-place)
I0417 04:08:25.547472 10696 net.cpp:150] Setting up relu4b
I0417 04:08:25.547475 10696 net.cpp:157] Top shape: 1 512 192 14 14 (19267584)
I0417 04:08:25.547478 10696 net.cpp:165] Memory required for data: 10096215228
I0417 04:08:25.547482 10696 layer_factory.hpp:77] Creating layer pool4
I0417 04:08:25.547489 10696 net.cpp:100] Creating Layer pool4
I0417 04:08:25.547495 10696 net.cpp:434] pool4 <- conv4b
I0417 04:08:25.547502 10696 net.cpp:408] pool4 -> pool4
I0417 04:08:25.547550 10696 net.cpp:150] Setting up pool4
I0417 04:08:25.547559 10696 net.cpp:157] Top shape: 1 512 96 7 7 (2408448)
I0417 04:08:25.547562 10696 net.cpp:165] Memory required for data: 10105849020
I0417 04:08:25.547566 10696 layer_factory.hpp:77] Creating layer conv5a
I0417 04:08:25.547577 10696 net.cpp:100] Creating Layer conv5a
I0417 04:08:25.547582 10696 net.cpp:434] conv5a <- pool4
I0417 04:08:25.547587 10696 net.cpp:408] conv5a -> conv5a
I0417 04:08:25.738544 10696 net.cpp:150] Setting up conv5a
I0417 04:08:25.738569 10696 net.cpp:157] Top shape: 1 512 96 7 7 (2408448)
I0417 04:08:25.738572 10696 net.cpp:165] Memory required for data: 10115482812
I0417 04:08:25.738580 10696 layer_factory.hpp:77] Creating layer relu5a
I0417 04:08:25.738591 10696 net.cpp:100] Creating Layer relu5a
I0417 04:08:25.738596 10696 net.cpp:434] relu5a <- conv5a
I0417 04:08:25.738602 10696 net.cpp:395] relu5a -> conv5a (in-place)
I0417 04:08:25.738611 10696 net.cpp:150] Setting up relu5a
I0417 04:08:25.738620 10696 net.cpp:157] Top shape: 1 512 96 7 7 (2408448)
I0417 04:08:25.738623 10696 net.cpp:165] Memory required for data: 10125116604
I0417 04:08:25.738626 10696 layer_factory.hpp:77] Creating layer conv5b
I0417 04:08:25.738641 10696 net.cpp:100] Creating Layer conv5b
I0417 04:08:25.738646 10696 net.cpp:434] conv5b <- conv5a
I0417 04:08:25.738653 10696 net.cpp:408] conv5b -> conv5b
I0417 04:08:25.925367 10696 net.cpp:150] Setting up conv5b
I0417 04:08:25.925390 10696 net.cpp:157] Top shape: 1 512 96 7 7 (2408448)
I0417 04:08:25.925395 10696 net.cpp:165] Memory required for data: 10134750396
I0417 04:08:25.925403 10696 layer_factory.hpp:77] Creating layer relu5b
I0417 04:08:25.925412 10696 net.cpp:100] Creating Layer relu5b
I0417 04:08:25.925416 10696 net.cpp:434] relu5b <- conv5b
I0417 04:08:25.925423 10696 net.cpp:395] relu5b -> conv5b (in-place)
I0417 04:08:25.925432 10696 net.cpp:150] Setting up relu5b
I0417 04:08:25.925436 10696 net.cpp:157] Top shape: 1 512 96 7 7 (2408448)
I0417 04:08:25.925439 10696 net.cpp:165] Memory required for data: 10144384188
I0417 04:08:25.925442 10696 layer_factory.hpp:77] Creating layer conv5b_relu5b_0_split
I0417 04:08:25.925447 10696 net.cpp:100] Creating Layer conv5b_relu5b_0_split
I0417 04:08:25.925451 10696 net.cpp:434] conv5b_relu5b_0_split <- conv5b
I0417 04:08:25.925457 10696 net.cpp:408] conv5b_relu5b_0_split -> conv5b_relu5b_0_split_0
I0417 04:08:25.925462 10696 net.cpp:408] conv5b_relu5b_0_split -> conv5b_relu5b_0_split_1
I0417 04:08:25.925505 10696 net.cpp:150] Setting up conv5b_relu5b_0_split
I0417 04:08:25.925513 10696 net.cpp:157] Top shape: 1 512 96 7 7 (2408448)
I0417 04:08:25.925516 10696 net.cpp:157] Top shape: 1 512 96 7 7 (2408448)
I0417 04:08:25.925519 10696 net.cpp:165] Memory required for data: 10163651772
I0417 04:08:25.925523 10696 layer_factory.hpp:77] Creating layer rpn_conv/3x3
I0417 04:08:25.925534 10696 net.cpp:100] Creating Layer rpn_conv/3x3
I0417 04:08:25.925540 10696 net.cpp:434] rpn_conv/3x3 <- conv5b_relu5b_0_split_0
I0417 04:08:25.925547 10696 net.cpp:408] rpn_conv/3x3 -> rpn/output
I0417 04:08:26.113423 10696 net.cpp:150] Setting up rpn_conv/3x3
I0417 04:08:26.113446 10696 net.cpp:157] Top shape: 1 512 96 4 4 (786432)
I0417 04:08:26.113451 10696 net.cpp:165] Memory required for data: 10166797500
I0417 04:08:26.113463 10696 layer_factory.hpp:77] Creating layer rpn_relu/3x3
I0417 04:08:26.113474 10696 net.cpp:100] Creating Layer rpn_relu/3x3
I0417 04:08:26.113481 10696 net.cpp:434] rpn_relu/3x3 <- rpn/output
I0417 04:08:26.113488 10696 net.cpp:395] rpn_relu/3x3 -> rpn/output (in-place)
I0417 04:08:26.113497 10696 net.cpp:150] Setting up rpn_relu/3x3
I0417 04:08:26.113500 10696 net.cpp:157] Top shape: 1 512 96 4 4 (786432)
I0417 04:08:26.113503 10696 net.cpp:165] Memory required for data: 10169943228
I0417 04:08:26.113507 10696 layer_factory.hpp:77] Creating layer rpn_conv/3x3_2
I0417 04:08:26.113517 10696 net.cpp:100] Creating Layer rpn_conv/3x3_2
I0417 04:08:26.113523 10696 net.cpp:434] rpn_conv/3x3_2 <- rpn/output
I0417 04:08:26.113528 10696 net.cpp:408] rpn_conv/3x3_2 -> rpn/output_2
I0417 04:08:26.301609 10696 net.cpp:150] Setting up rpn_conv/3x3_2
I0417 04:08:26.301632 10696 net.cpp:157] Top shape: 1 512 96 2 2 (196608)
I0417 04:08:26.301636 10696 net.cpp:165] Memory required for data: 10170729660
I0417 04:08:26.301645 10696 layer_factory.hpp:77] Creating layer rpn_relu/3x3_2
I0417 04:08:26.301656 10696 net.cpp:100] Creating Layer rpn_relu/3x3_2
I0417 04:08:26.301661 10696 net.cpp:434] rpn_relu/3x3_2 <- rpn/output_2
I0417 04:08:26.301666 10696 net.cpp:395] rpn_relu/3x3_2 -> rpn/output_2 (in-place)
I0417 04:08:26.301674 10696 net.cpp:150] Setting up rpn_relu/3x3_2
I0417 04:08:26.301678 10696 net.cpp:157] Top shape: 1 512 96 2 2 (196608)
I0417 04:08:26.301681 10696 net.cpp:165] Memory required for data: 10171516092
I0417 04:08:26.301684 10696 layer_factory.hpp:77] Creating layer rpn/output_pool
I0417 04:08:26.301690 10696 net.cpp:100] Creating Layer rpn/output_pool
I0417 04:08:26.301694 10696 net.cpp:434] rpn/output_pool <- rpn/output_2
I0417 04:08:26.301699 10696 net.cpp:408] rpn/output_pool -> rpn/output_pool
I0417 04:08:26.301748 10696 net.cpp:150] Setting up rpn/output_pool
I0417 04:08:26.301755 10696 net.cpp:157] Top shape: 1 512 96 1 1 (49152)
I0417 04:08:26.301759 10696 net.cpp:165] Memory required for data: 10171712700
I0417 04:08:26.301761 10696 layer_factory.hpp:77] Creating layer rpn/output_pool_rpn/output_pool_0_split
I0417 04:08:26.301766 10696 net.cpp:100] Creating Layer rpn/output_pool_rpn/output_pool_0_split
I0417 04:08:26.301770 10696 net.cpp:434] rpn/output_pool_rpn/output_pool_0_split <- rpn/output_pool
I0417 04:08:26.301774 10696 net.cpp:408] rpn/output_pool_rpn/output_pool_0_split -> rpn/output_pool_rpn/output_pool_0_split_0
I0417 04:08:26.301786 10696 net.cpp:408] rpn/output_pool_rpn/output_pool_0_split -> rpn/output_pool_rpn/output_pool_0_split_1
I0417 04:08:26.301827 10696 net.cpp:150] Setting up rpn/output_pool_rpn/output_pool_0_split
I0417 04:08:26.301834 10696 net.cpp:157] Top shape: 1 512 96 1 1 (49152)
I0417 04:08:26.301838 10696 net.cpp:157] Top shape: 1 512 96 1 1 (49152)
I0417 04:08:26.301841 10696 net.cpp:165] Memory required for data: 10172105916
I0417 04:08:26.301844 10696 layer_factory.hpp:77] Creating layer rpn_cls_score
I0417 04:08:26.301853 10696 net.cpp:100] Creating Layer rpn_cls_score
I0417 04:08:26.301857 10696 net.cpp:434] rpn_cls_score <- rpn/output_pool_rpn/output_pool_0_split_0
I0417 04:08:26.301862 10696 net.cpp:408] rpn_cls_score -> rpn_cls_score
I0417 04:08:26.303148 10696 net.cpp:150] Setting up rpn_cls_score
I0417 04:08:26.303158 10696 net.cpp:157] Top shape: 1 74 96 1 1 (7104)
I0417 04:08:26.303161 10696 net.cpp:165] Memory required for data: 10172134332
I0417 04:08:26.303166 10696 layer_factory.hpp:77] Creating layer rpn_cls_score_rpn_cls_score_0_split
I0417 04:08:26.303174 10696 net.cpp:100] Creating Layer rpn_cls_score_rpn_cls_score_0_split
I0417 04:08:26.303176 10696 net.cpp:434] rpn_cls_score_rpn_cls_score_0_split <- rpn_cls_score
I0417 04:08:26.303181 10696 net.cpp:408] rpn_cls_score_rpn_cls_score_0_split -> rpn_cls_score_rpn_cls_score_0_split_0
I0417 04:08:26.303186 10696 net.cpp:408] rpn_cls_score_rpn_cls_score_0_split -> rpn_cls_score_rpn_cls_score_0_split_1
I0417 04:08:26.303234 10696 net.cpp:150] Setting up rpn_cls_score_rpn_cls_score_0_split
I0417 04:08:26.303241 10696 net.cpp:157] Top shape: 1 74 96 1 1 (7104)
I0417 04:08:26.303246 10696 net.cpp:157] Top shape: 1 74 96 1 1 (7104)
I0417 04:08:26.303248 10696 net.cpp:165] Memory required for data: 10172191164
I0417 04:08:26.303251 10696 layer_factory.hpp:77] Creating layer rpn_twin_pred
I0417 04:08:26.303262 10696 net.cpp:100] Creating Layer rpn_twin_pred
I0417 04:08:26.303266 10696 net.cpp:434] rpn_twin_pred <- rpn/output_pool_rpn/output_pool_0_split_1
I0417 04:08:26.303274 10696 net.cpp:408] rpn_twin_pred -> rpn_twin_pred
I0417 04:08:26.304507 10696 net.cpp:150] Setting up rpn_twin_pred
I0417 04:08:26.304517 10696 net.cpp:157] Top shape: 1 74 96 1 1 (7104)
I0417 04:08:26.304522 10696 net.cpp:165] Memory required for data: 10172219580
I0417 04:08:26.304527 10696 layer_factory.hpp:77] Creating layer rpn_twin_pred_rpn_twin_pred_0_split
I0417 04:08:26.304531 10696 net.cpp:100] Creating Layer rpn_twin_pred_rpn_twin_pred_0_split
I0417 04:08:26.304535 10696 net.cpp:434] rpn_twin_pred_rpn_twin_pred_0_split <- rpn_twin_pred
I0417 04:08:26.304540 10696 net.cpp:408] rpn_twin_pred_rpn_twin_pred_0_split -> rpn_twin_pred_rpn_twin_pred_0_split_0
I0417 04:08:26.304546 10696 net.cpp:408] rpn_twin_pred_rpn_twin_pred_0_split -> rpn_twin_pred_rpn_twin_pred_0_split_1
I0417 04:08:26.304587 10696 net.cpp:150] Setting up rpn_twin_pred_rpn_twin_pred_0_split
I0417 04:08:26.304594 10696 net.cpp:157] Top shape: 1 74 96 1 1 (7104)
I0417 04:08:26.304599 10696 net.cpp:157] Top shape: 1 74 96 1 1 (7104)
I0417 04:08:26.304601 10696 net.cpp:165] Memory required for data: 10172276412
I0417 04:08:26.304605 10696 layer_factory.hpp:77] Creating layer rpn_cls_score_reshape
I0417 04:08:26.304616 10696 net.cpp:100] Creating Layer rpn_cls_score_reshape
I0417 04:08:26.304622 10696 net.cpp:434] rpn_cls_score_reshape <- rpn_cls_score_rpn_cls_score_0_split_0
I0417 04:08:26.304628 10696 net.cpp:408] rpn_cls_score_reshape -> rpn_cls_score_reshape
I0417 04:08:26.304661 10696 net.cpp:150] Setting up rpn_cls_score_reshape
I0417 04:08:26.304668 10696 net.cpp:157] Top shape: 1 2 3552 1 1 (7104)
I0417 04:08:26.304672 10696 net.cpp:165] Memory required for data: 10172304828
I0417 04:08:26.304674 10696 layer_factory.hpp:77] Creating layer rpn_cls_score_reshape_rpn_cls_score_reshape_0_split
I0417 04:08:26.304679 10696 net.cpp:100] Creating Layer rpn_cls_score_reshape_rpn_cls_score_reshape_0_split
I0417 04:08:26.304683 10696 net.cpp:434] rpn_cls_score_reshape_rpn_cls_score_reshape_0_split <- rpn_cls_score_reshape
I0417 04:08:26.304688 10696 net.cpp:408] rpn_cls_score_reshape_rpn_cls_score_reshape_0_split -> rpn_cls_score_reshape_rpn_cls_score_reshape_0_split_0
I0417 04:08:26.304697 10696 net.cpp:408] rpn_cls_score_reshape_rpn_cls_score_reshape_0_split -> rpn_cls_score_reshape_rpn_cls_score_reshape_0_split_1
I0417 04:08:26.304702 10696 net.cpp:408] rpn_cls_score_reshape_rpn_cls_score_reshape_0_split -> rpn_cls_score_reshape_rpn_cls_score_reshape_0_split_2
I0417 04:08:26.304754 10696 net.cpp:150] Setting up rpn_cls_score_reshape_rpn_cls_score_reshape_0_split
I0417 04:08:26.304761 10696 net.cpp:157] Top shape: 1 2 3552 1 1 (7104)
I0417 04:08:26.304765 10696 net.cpp:157] Top shape: 1 2 3552 1 1 (7104)
I0417 04:08:26.304769 10696 net.cpp:157] Top shape: 1 2 3552 1 1 (7104)
I0417 04:08:26.304771 10696 net.cpp:165] Memory required for data: 10172390076
I0417 04:08:26.304774 10696 layer_factory.hpp:77] Creating layer rpn-data
I0417 04:08:26.305162 10696 net.cpp:100] Creating Layer rpn-data
I0417 04:08:26.305176 10696 net.cpp:434] rpn-data <- rpn_cls_score_rpn_cls_score_0_split_1
I0417 04:08:26.305181 10696 net.cpp:434] rpn-data <- gt_boxes_data_1_split_0
I0417 04:08:26.305186 10696 net.cpp:434] rpn-data <- data_data_0_split_1
I0417 04:08:26.305191 10696 net.cpp:408] rpn-data -> rpn_labels
I0417 04:08:26.305197 10696 net.cpp:408] rpn-data -> rpn_twin_targets
I0417 04:08:26.305202 10696 net.cpp:408] rpn-data -> rpn_twin_inside_weights
I0417 04:08:26.305208 10696 net.cpp:408] rpn-data -> rpn_twin_outside_weights
I0417 04:08:26.307476 10696 net.cpp:150] Setting up rpn-data
I0417 04:08:26.307492 10696 net.cpp:157] Top shape: 1 1 3552 1 1 (3552)
I0417 04:08:26.307495 10696 net.cpp:157] Top shape: 1 74 96 1 1 (7104)
I0417 04:08:26.307499 10696 net.cpp:157] Top shape: 1 74 96 1 1 (7104)
I0417 04:08:26.307502 10696 net.cpp:157] Top shape: 1 74 96 1 1 (7104)
I0417 04:08:26.307505 10696 net.cpp:165] Memory required for data: 10172489532
I0417 04:08:26.307509 10696 layer_factory.hpp:77] Creating layer rpn_labels_rpn-data_0_split
I0417 04:08:26.307515 10696 net.cpp:100] Creating Layer rpn_labels_rpn-data_0_split
I0417 04:08:26.307518 10696 net.cpp:434] rpn_labels_rpn-data_0_split <- rpn_labels
I0417 04:08:26.307524 10696 net.cpp:408] rpn_labels_rpn-data_0_split -> rpn_labels_rpn-data_0_split_0
I0417 04:08:26.307530 10696 net.cpp:408] rpn_labels_rpn-data_0_split -> rpn_labels_rpn-data_0_split_1
I0417 04:08:26.307570 10696 net.cpp:150] Setting up rpn_labels_rpn-data_0_split
I0417 04:08:26.307577 10696 net.cpp:157] Top shape: 1 1 3552 1 1 (3552)
I0417 04:08:26.307581 10696 net.cpp:157] Top shape: 1 1 3552 1 1 (3552)
I0417 04:08:26.307585 10696 net.cpp:165] Memory required for data: 10172517948
I0417 04:08:26.307587 10696 layer_factory.hpp:77] Creating layer rpn_loss_cls
I0417 04:08:26.307595 10696 net.cpp:100] Creating Layer rpn_loss_cls
I0417 04:08:26.307600 10696 net.cpp:434] rpn_loss_cls <- rpn_cls_score_reshape_rpn_cls_score_reshape_0_split_0
I0417 04:08:26.307605 10696 net.cpp:434] rpn_loss_cls <- rpn_labels_rpn-data_0_split_0
…
I0417 04:08:26.307909 10696 layer_factory.hpp:77] Creating layer rpn_accuarcy
I0417 04:08:26.307919 10696 net.cpp:100] Creating Layer rpn_accuarcy
I0417 04:08:26.307924 10696 net.cpp:434] rpn_accuarcy <- rpn_cls_score_reshape_rpn_cls_score_reshape_0_split_1
I0417 04:08:26.307929 10696 net.cpp:434] rpn_accuarcy <- rpn_labels_rpn-data_0_split_1
I0417 04:08:26.307934 10696 net.cpp:408] rpn_accuarcy -> rpn_accuarcy
I0417 04:08:26.307940 10696 net.cpp:408] rpn_accuarcy -> rpn_accuarcy_class
I0417 04:08:26.307983 10696 net.cpp:150] Setting up rpn_accuarcy
I0417 04:08:26.307991 10696 net.cpp:157] Top shape: (1)
I0417 04:08:26.307994 10696 net.cpp:157] Top shape: 2 (2)
I0417 04:08:26.307997 10696 net.cpp:165] Memory required for data: 10172517968
I0417 04:08:26.308001 10696 layer_factory.hpp:77] Creating layer rpn_cls_prob
I0417 04:08:26.308006 10696 net.cpp:100] Creating Layer rpn_cls_prob
I0417 04:08:26.308009 10696 net.cpp:434] rpn_cls_prob <- rpn_cls_score_reshape_rpn_cls_score_reshape_0_split_2
I0417 04:08:26.308013 10696 net.cpp:408] rpn_cls_prob -> rpn_cls_prob
I0417 04:08:26.308080 10696 net.cpp:150] Setting up rpn_cls_prob
I0417 04:08:26.308090 10696 net.cpp:157] Top shape: 1 2 3552 1 1 (7104)
I0417 04:08:26.308094 10696 net.cpp:165] Memory required for data: 10172546384
I0417 04:08:26.308096 10696 layer_factory.hpp:77] Creating layer rpn_cls_prob_reshape
I0417 04:08:26.308101 10696 net.cpp:100] Creating Layer rpn_cls_prob_reshape
I0417 04:08:26.308105 10696 net.cpp:434] rpn_cls_prob_reshape <- rpn_cls_prob
I0417 04:08:26.308109 10696 net.cpp:408] rpn_cls_prob_reshape -> rpn_cls_prob_reshape
I0417 04:08:26.308137 10696 net.cpp:150] Setting up rpn_cls_prob_reshape
I0417 04:08:26.308145 10696 net.cpp:157] Top shape: 1 74 96 1 1 (7104)
I0417 04:08:26.308147 10696 net.cpp:165] Memory required for data: 10172574800
I0417 04:08:26.308151 10696 layer_factory.hpp:77] Creating layer proposal
I0417 04:08:26.308691 10696 net.cpp:100] Creating Layer proposal
I0417 04:08:26.308704 10696 net.cpp:434] proposal <- rpn_cls_prob_reshape
I0417 04:08:26.308709 10696 net.cpp:434] proposal <- rpn_twin_pred_rpn_twin_pred_0_split_1
I0417 04:08:26.308715 10696 net.cpp:408] proposal -> rpn_rois
I0417 04:08:26.310890 10696 net.cpp:150] Setting up proposal
I0417 04:08:26.310904 10696 net.cpp:157] Top shape: 1 3 (3)
I0417 04:08:26.310909 10696 net.cpp:165] Memory required for data: 10172574812
I0417 04:08:26.310912 10696 layer_factory.hpp:77] Creating layer roi-data
I0417 04:08:26.311043 10696 net.cpp:100] Creating Layer roi-data
I0417 04:08:26.311054 10696 net.cpp:434] roi-data <- rpn_rois
I0417 04:08:26.311059 10696 net.cpp:434] roi-data <- gt_boxes_data_1_split_1
I0417 04:08:26.311064 10696 net.cpp:408] roi-data -> rois
I0417 04:08:26.311071 10696 net.cpp:408] roi-data -> labels
I0417 04:08:26.311080 10696 net.cpp:408] roi-data -> twin_targets
I0417 04:08:26.311085 10696 net.cpp:408] roi-data -> twin_inside_weights
I0417 04:08:26.311090 10696 net.cpp:408] roi-data -> twin_outside_weights
I0417 04:08:26.311411 10696 net.cpp:150] Setting up roi-data
I0417 04:08:26.311425 10696 net.cpp:157] Top shape: 1 3 (3)
I0417 04:08:26.311429 10696 net.cpp:157] Top shape: 1 1 (1)
I0417 04:08:26.311434 10696 net.cpp:157] Top shape: 1 402 (402)
I0417 04:08:26.311437 10696 net.cpp:157] Top shape: 1 402 (402)
I0417 04:08:26.311440 10696 net.cpp:157] Top shape: 1 402 (402)
I0417 04:08:26.311444 10696 net.cpp:165] Memory required for data: 10172579652
I0417 04:08:26.311447 10696 layer_factory.hpp:77] Creating layer labels_roi-data_1_split
I0417 04:08:26.311452 10696 net.cpp:100] Creating Layer labels_roi-data_1_split
I0417 04:08:26.311456 10696 net.cpp:434] labels_roi-data_1_split <- labels
I0417 04:08:26.311461 10696 net.cpp:408] labels_roi-data_1_split -> labels_roi-data_1_split_0
I0417 04:08:26.311467 10696 net.cpp:408] labels_roi-data_1_split -> labels_roi-data_1_split_1
I0417 04:08:26.311508 10696 net.cpp:150] Setting up labels_roi-data_1_split
I0417 04:08:26.311517 10696 net.cpp:157] Top shape: 1 1 (1)
I0417 04:08:26.311520 10696 net.cpp:157] Top shape: 1 1 (1)
I0417 04:08:26.311523 10696 net.cpp:165] Memory required for data: 10172579660
I0417 04:08:26.311527 10696 layer_factory.hpp:77] Creating layer roi_pool5
I0417 04:08:26.311535 10696 net.cpp:100] Creating Layer roi_pool5
I0417 04:08:26.311543 10696 net.cpp:434] roi_pool5 <- conv5b_relu5b_0_split_1
I0417 04:08:26.311547 10696 net.cpp:434] roi_pool5 <- rois
I0417 04:08:26.311553 10696 net.cpp:408] roi_pool5 -> pool5
I0417 04:08:26.311559 10696 roi_pooling_layer.cpp:34] Temporal scale: 0.125
I0417 04:08:26.311565 10696 roi_pooling_layer.cpp:35] Spatial scale: 0.0625
I0417 04:08:26.311606 10696 net.cpp:150] Setting up roi_pool5
I0417 04:08:26.311614 10696 net.cpp:157] Top shape: 1 512 1 4 4 (8192)
I0417 04:08:26.311616 10696 net.cpp:165] Memory required for data: 10172612428
I0417 04:08:26.311619 10696 layer_factory.hpp:77] Creating layer fc6
I0417 04:08:26.311630 10696 net.cpp:100] Creating Layer fc6
I0417 04:08:26.311636 10696 net.cpp:434] fc6 <- pool5
I0417 04:08:26.311642 10696 net.cpp:408] fc6 -> fc6
I0417 04:08:27.194469 10696 net.cpp:150] Setting up fc6
I0417 04:08:27.194497 10696 net.cpp:157] Top shape: 1 4096 (4096)
I0417 04:08:27.194501 10696 net.cpp:165] Memory required for data: 10172628812
I0417 04:08:27.194510 10696 layer_factory.hpp:77] Creating layer relu6
I0417 04:08:27.194520 10696 net.cpp:100] Creating Layer relu6
I0417 04:08:27.194525 10696 net.cpp:434] relu6 <- fc6
I0417 04:08:27.194530 10696 net.cpp:395] relu6 -> fc6 (in-place)
I0417 04:08:27.194540 10696 net.cpp:150] Setting up relu6
I0417 04:08:27.194545 10696 net.cpp:157] Top shape: 1 4096 (4096)
I0417 04:08:27.194548 10696 net.cpp:165] Memory required for data: 10172645196
I0417 04:08:27.194551 10696 layer_factory.hpp:77] Creating layer drop6
I0417 04:08:27.194564 10696 net.cpp:100] Creating Layer drop6
I0417 04:08:27.194567 10696 net.cpp:434] drop6 <- fc6
I0417 04:08:27.194571 10696 net.cpp:395] drop6 -> fc6 (in-place)
I0417 04:08:27.194600 10696 net.cpp:150] Setting up drop6
I0417 04:08:27.194605 10696 net.cpp:157] Top shape: 1 4096 (4096)
I0417 04:08:27.194608 10696 net.cpp:165] Memory required for data: 10172661580
I0417 04:08:27.194612 10696 layer_factory.hpp:77] Creating layer fc6_drop6_0_split
I0417 04:08:27.194618 10696 net.cpp:100] Creating Layer fc6_drop6_0_split
I0417 04:08:27.194622 10696 net.cpp:434] fc6_drop6_0_split <- fc6
I0417 04:08:27.194627 10696 net.cpp:408] fc6_drop6_0_split -> fc6_drop6_0_split_0
I0417 04:08:27.194631 10696 net.cpp:408] fc6_drop6_0_split -> fc6_drop6_0_split_1
I0417 04:08:27.194671 10696 net.cpp:150] Setting up fc6_drop6_0_split
I0417 04:08:27.194679 10696 net.cpp:157] Top shape: 1 4096 (4096)
I0417 04:08:27.194682 10696 net.cpp:157] Top shape: 1 4096 (4096)
I0417 04:08:27.194685 10696 net.cpp:165] Memory required for data: 10172694348
I0417 04:08:27.194689 10696 layer_factory.hpp:77] Creating layer cls_score
I0417 04:08:27.194696 10696 net.cpp:100] Creating Layer cls_score
I0417 04:08:27.194700 10696 net.cpp:434] cls_score <- fc6_drop6_0_split_0
I0417 04:08:27.194707 10696 net.cpp:408] cls_score -> cls_score
I0417 04:08:27.216581 10696 net.cpp:150] Setting up cls_score
I0417 04:08:27.216599 10696 net.cpp:157] Top shape: 1 201 (201)
I0417 04:08:27.216603 10696 net.cpp:165] Memory required for data: 10172695152
I0417 04:08:27.216609 10696 layer_factory.hpp:77] Creating layer cls_score_cls_score_0_split
I0417 04:08:27.216616 10696 net.cpp:100] Creating Layer cls_score_cls_score_0_split
I0417 04:08:27.216619 10696 net.cpp:434] cls_score_cls_score_0_split <- cls_score
I0417 04:08:27.216624 10696 net.cpp:408] cls_score_cls_score_0_split -> cls_score_cls_score_0_split_0
I0417 04:08:27.216631 10696 net.cpp:408] cls_score_cls_score_0_split -> cls_score_cls_score_0_split_1
I0417 04:08:27.216673 10696 net.cpp:150] Setting up cls_score_cls_score_0_split
I0417 04:08:27.216681 10696 net.cpp:157] Top shape: 1 201 (201)
I0417 04:08:27.216684 10696 net.cpp:157] Top shape: 1 201 (201)
I0417 04:08:27.216687 10696 net.cpp:165] Memory required for data: 10172696760
I0417 04:08:27.216691 10696 layer_factory.hpp:77] Creating layer twin_pred
I0417 04:08:27.216697 10696 net.cpp:100] Creating Layer twin_pred
I0417 04:08:27.216703 10696 net.cpp:434] twin_pred <- fc6_drop6_0_split_1
I0417 04:08:27.216711 10696 net.cpp:408] twin_pred -> twin_pred
I0417 04:08:27.260586 10696 net.cpp:150] Setting up twin_pred
I0417 04:08:27.260607 10696 net.cpp:157] Top shape: 1 402 (402)
I0417 04:08:27.260612 10696 net.cpp:165] Memory required for data: 10172698368
I0417 04:08:27.260622 10696 layer_factory.hpp:77] Creating layer loss_cls
I0417 04:08:27.260632 10696 net.cpp:100] Creating Layer loss_cls
I0417 04:08:27.260637 10696 net.cpp:434] loss_cls <- cls_score_cls_score_0_split_0
I0417 04:08:27.260643 10696 net.cpp:434] loss_cls <- labels_roi-data_1_split_0
I0417 04:08:27.260648 10696 net.cpp:408] loss_cls -> loss_cls
…
