…
stepsize: 350000
snapshot: 0
snapshot_prefix: "./experiments/activitynet/snapshot/activitynet"
average_loss: 100
iter_size: 1
I0418 03:13:01.686636 11728 solver.cpp:81] Creating training net from train_net file: ./experiments/activitynet/train.prototxt
I0418 03:13:01.687747 11728 net.cpp:58] Initializing net from parameters: 
name: "activitynet"
state {
  phase: TRAIN
}
layer {
  name: "data"
  type: "Python"
  top: "data"
  top: "gt_boxes"
  python_param {
    module: "roi_data_layer.layer"
    layer: "RoIDataLayer"
    param_str: "\'num_classes\': 100"
  }
}
layer {
  name: "conv1a"
  type: "Convolution"
  bottom: "data"
  top: "conv1a"
  param {
    lr_mult: 0
    decay_mult: 0
  }
  param {
    lr_mult: 0
    decay_mult: 0
  }
  convolution_param {
    num_output: 64
    pad: 1
    pad: 1
    pad: 1
    kernel_size: 3
    kernel_size: 3
    kernel_size: 3
    weight_filler {
      type: "gaussian"
      std: 0.01
    }
    bias_filler {
      type: "constant"
      value: 0
    }
  }
}
layer {
  name: "relu1a"
  type: "ReLU"
  bottom: "conv1a"
  top: "conv1a"
}
layer {
  name: "pool1"
  type: "Pooling"
  bottom: "conv1a"
  top: "pool1"
  pooling_param {
    pool: MAX
    kernel_size: 1
    kernel_size: 2
    kernel_size: 2
    stride: 1
    stride: 2
    stride: 2
  }
}
layer {
  name: "conv2a"
  type: "Convolution"
  bottom: "pool1"
  top: "conv2a"
  param {
    lr_mult: 0
    decay_mult: 0
  }
  param {
    lr_mult: 0
    decay_mult: 0
  }
  convolution_param {
    num_output: 128
    pad: 1
    pad: 1
    pad: 1
    kernel_size: 3
    kernel_size: 3
    kernel_size: 3
    weight_filler {
      type: "gaussian"
      std: 0.01
    }
    bias_filler {
      type: "constant"
      value: 1
    }
  }
}
layer {
  name: "relu2a"
  type: "ReLU"
  bottom: "conv2a"
  top: "conv2a"
}
layer {
  name: "pool2"
  type: "Pooling"
  bottom: "conv2a"
  top: "pool2"
  pooling_param {
    pool: MAX
    kernel_size: 2
    kernel_size: 2
    kernel_size: 2
    stride: 2
    stride: 2
    stride: 2
  }
}
layer {
  name: "conv3a"
  type: "Convolution"
  bottom: "pool2"
  top: "conv3a"
  param {
    lr_mult: 1
    decay_mult: 1
  }
  param {
    lr_mult: 2
    decay_mult: 0
  }
  convolution_param {
    num_output: 256
    pad: 1
    pad: 1
    pad: 1
    kernel_size: 3
    kernel_size: 3
    kernel_size: 3
    weight_filler {
      type: "gaussian"
      std: 0.01
    }
    bias_filler {
      type: "constant"
      value: 1
    }
  }
}
layer {
  name: "relu3a"
  type: "ReLU"
  bottom: "conv3a"
  top: "conv3a"
}
layer {
  name: "conv3b"
  type: "Convolution"
  bottom: "conv3a"
  top: "conv3b"
  param {
    lr_mult: 1
    decay_mult: 1
  }
  param {
    lr_mult: 2
    decay_mult: 0
  }
  convolution_param {
    num_output: 256
    pad: 1
    pad: 1
    pad: 1
    kernel_size: 3
    kernel_size: 3
    kernel_size: 3
    weight_filler {
      type: "gaussian"
      std: 0.01
    }
    bias_filler {
      type: "constant"
      value: 1
    }
  }
}
layer {
  name: "relu3b"
  type: "ReLU"
  bottom: "conv3b"
  top: "conv3b"
}
layer {
  name: "pool3"
  type: "Pooling"
  bottom: "conv3b"
  top: "pool3"
  pooling_param {
    pool: MAX
    kernel_size: 2
    kernel_size: 2
    kernel_size: 2
    stride: 2
    stride: 2
    stride: 2
  }
}
layer {
  name: "conv4a"
  type: "Convolution"
  bottom: "pool3"
  top: "conv4a"
  param {
    lr_mult: 1
    decay_mult: 1
  }
  param {
    lr_mult: 2
    decay_mult: 0
  }
  convolution_param {
    num_output: 512
    pad: 1
    pad: 1
    pad: 1
    kernel_size: 3
    kernel_size: 3
    kernel_size: 3
    weight_filler {
      type: "gaussian"
      std: 0.01
    }
    bias_filler {
      type: "constant"
      value: 1
    }
  }
}
layer {
  name: "relu4a"
  type: "ReLU"
  bottom: "conv4a"
  top: "conv4a"
}
layer {
  name: "conv4b"
  type: "Convolution"
  bottom: "conv4a"
  top: "conv4b"
  param {
    lr_mult: 1
    decay_mult: 1
  }
  param {
    lr_mult: 2
    decay_mult: 0
  }
  convolution_param {
    num_output: 512
    pad: 1
    pad: 1
    pad: 1
    kernel_size: 3
    kernel_size: 3
    kernel_size: 3
    weight_filler {
      type: "gaussian"
      std: 0.01
    }
    bias_filler {
      type: "constant"
      value: 1
    }
  }
}
layer {
  name: "relu4b"
  type: "ReLU"
  bottom: "conv4b"
  top: "conv4b"
}
layer {
  name: "pool4"
  type: "Pooling"
  bottom: "conv4b"
  top: "pool4"
  pooling_param {
    pool: MAX
    kernel_size: 2
    kernel_size: 2
    kernel_size: 2
    stride: 2
    stride: 2
    stride: 2
  }
}
layer {
  name: "conv5a"
  type: "Convolution"
  bottom: "pool4"
  top: "conv5a"
  param {
    lr_mult: 1
    decay_mult: 1
  }
  param {
    lr_mult: 2
    decay_mult: 0
  }
  convolution_param {
    num_output: 512
    pad: 1
    pad: 1
    pad: 1
    kernel_size: 3
    kernel_size: 3
    kernel_size: 3
    weight_filler {
      type: "gaussian"
      std: 0.01
    }
    bias_filler {
      type: "constant"
      value: 1
    }
  }
}
layer {
  name: "relu5a"
  type: "ReLU"
  bottom: "conv5a"
  top: "conv5a"
}
layer {
  name: "conv5b"
  type: "Convolution"
  bottom: "conv5a"
  top: "conv5b"
  param {
    lr_mult: 1
    decay_mult: 1
  }
  param {
    lr_mult: 2
    decay_mult: 0
  }
  convolution_param {
    num_output: 512
    pad: 1
    pad: 1
    pad: 1
    kernel_size: 3
    kernel_size: 3
    kernel_size: 3
    weight_filler {
      type: "gaussian"
      std: 0.01
    }
    bias_filler {
      type: "constant"
      value: 1
    }
  }
}
layer {
  name: "relu5b"
  type: "ReLU"
  bottom: "conv5b"
  top: "conv5b"
}
layer {
  name: "rpn_conv/3x3"
  type: "Convolution"
  bottom: "conv5b"
  top: "rpn/output"
  param {
    lr_mult: 1
    decay_mult: 1
  }
  param {
    lr_mult: 2
    decay_mult: 0
  }
  convolution_param {
    num_output: 512
    pad: 1
    pad: 1
    pad: 1
    kernel_size: 3
    kernel_size: 3
    kernel_size: 3
    stride: 1
    stride: 2
    stride: 2
    weight_filler {
      type: "gaussian"
      std: 0.01
    }
    bias_filler {
      type: "constant"
      value: 0
    }
  }
}
layer {
  name: "rpn_relu/3x3"
  type: "ReLU"
  bottom: "rpn/output"
  top: "rpn/output"
}
layer {
  name: "rpn_conv/3x3_2"
  type: "Convolution"
  bottom: "rpn/output"
  top: "rpn/output_2"
  param {
    lr_mult: 1
    decay_mult: 1
  }
  param {
    lr_mult: 2
    decay_mult: 0
  }
  convolution_param {
    num_output: 512
    pad: 1
    pad: 1
    pad: 1
    kernel_size: 3
    kernel_size: 3
    kernel_size: 3
    stride: 1
    stride: 2
    stride: 2
    weight_filler {
      type: "gaussian"
      std: 0.01
    }
    bias_filler {
      type: "constant"
      value: 0
    }
  }
}
layer {
  name: "rpn_relu/3x3_2"
  type: "ReLU"
  bottom: "rpn/output_2"
  top: "rpn/output_2"
}
layer {
  name: "rpn/output_pool"
  type: "Pooling"
  bottom: "rpn/output_2"
  top: "rpn/output_pool"
  pooling_param {
    pool: MAX
    kernel_size: 1
    kernel_size: 2
    kernel_size: 2
  }
}
layer {
  name: "rpn_cls_score"
  type: "Convolution"
  bottom: "rpn/output_pool"
  top: "rpn_cls_score"
  param {
    lr_mult: 1
    decay_mult: 1
  }
  param {
    lr_mult: 2
    decay_mult: 0
  }
  convolution_param {
    num_output: 7400
    kernel_size: 1
    kernel_size: 1
    kernel_size: 1
    weight_filler {
      type: "gaussian"
      std: 0.01
    }
    bias_filler {
      type: "constant"
      value: 0
    }
  }
}
layer {
  name: "rpn_twin_pred"
  type: "Convolution"
  bottom: "rpn/output_pool"
  top: "rpn_twin_pred"
  param {
    lr_mult: 1
    decay_mult: 1
  }
  param {
    lr_mult: 2
    decay_mult: 0
  }
  convolution_param {
    num_output: 74
    kernel_size: 1
    kernel_size: 1
    kernel_size: 1
    weight_filler {
      type: "gaussian"
      std: 0.01
    }
    bias_filler {
      type: "constant"
      value: 0
    }
  }
}
layer {
  name: "rpn_cls_score_reshape"
  type: "Reshape"
  bottom: "rpn_cls_score"
  top: "rpn_cls_score_reshape"
  reshape_param {
    shape {
      dim: 0
      dim: 2
      dim: -1
      dim: 0
      dim: 0
    }
  }
}
layer {
  name: "rpn-data"
  type: "Python"
  bottom: "rpn_cls_score"
  bottom: "gt_boxes"
  bottom: "data"
  top: "rpn_labels"
  top: "rpn_twin_targets"
  top: "rpn_twin_inside_weights"
  top: "rpn_twin_outside_weights"
  python_param {
    module: "rpn.anchor_target_layer"
    layer: "AnchorTargetLayer"
    param_str: "\'feat_stride\': 8 \n\'scales\': !!python/tuple [1,1.25, 1.5,1.75, 2,2.5, 3,3.5, 4,4.5, 5,5.5, 6,7, 8,9,10,11,12,14,16,18,20,22,24,28,32,36,40,44,52,60,68,76,84,92,100]"
  }
}
layer {
  name: "rpn_loss_cls"
  type: "SoftmaxWithLoss"
  bottom: "rpn_cls_score_reshape"
  bottom: "rpn_labels"
  top: "rpn_cls_loss"
  loss_weight: 1
  propagate_down: true
  propagate_down: false
  loss_param {
    ignore_label: -1
    normalize: true
  }
}
layer {
  name: "rpn_loss_twin"
  type: "SmoothL1Loss"
  bottom: "rpn_twin_pred"
  bottom: "rpn_twin_targets"
  bottom: "rpn_twin_inside_weights"
  bottom: "rpn_twin_outside_weights"
  top: "rpn_loss_twin"
  loss_weight: 1
  smooth_l1_loss_param {
    sigma: 3
  }
}
layer {
  name: "rpn_accuarcy"
  type: "Accuracy"
  bottom: "rpn_cls_score_reshape"
  bottom: "rpn_labels"
  top: "rpn_accuarcy"
  top: "rpn_accuarcy_class"
  propagate_down: false
  propagate_down: false
  accuracy_param {
    ignore_label: -1
  }
}
layer {
  name: "rpn_cls_prob"
  type: "Softmax"
  bottom: "rpn_cls_score_reshape"
  top: "rpn_cls_prob"
}
layer {
  name: "rpn_cls_prob_reshape"
  type: "Reshape"
  bottom: "rpn_cls_prob"
  top: "rpn_cls_prob_reshape"
  reshape_param {
    shape {
      dim: 0
      dim: 74
      dim: -1
      dim: 0
      dim: 0
    }
  }
}
layer {
  name: "proposal"
  type: "Python"
  bottom: "rpn_cls_prob_reshape"
  bottom: "rpn_twin_pred"
  top: "rpn_rois"
  include {
    phase: TRAIN
  }
  python_param {
    module: "rpn.proposal_layer"
    layer: "ProposalLayer"
    param_str: "\'feat_stride\': 8 \n\'scales\': !!python/tuple [1,1.25, 1.5,1.75, 2,2.5, 3,3.5, 4,4.5, 5,5.5, 6,7, 8,9,10,11,12,14,16,18,20,22,24,28,32,36,40,44,52,60,68,76,84,92,100]"
  }
}
layer {
  name: "roi-data"
  type: "Python"
  bottom: "rpn_rois"
  bottom: "gt_boxes"
  top: "rois"
  top: "labels"
  top: "twin_targets"
  top: "twin_inside_weights"
  top: "twin_outside_weights"
  python_param {
    module: "rpn.proposal_target_layer"
    layer: "ProposalTargetLayer"
    param_str: "\'num_classes\': 201"
  }
}
layer {
  name: "roi_pool5"
  type: "ROIPooling"
  bottom: "conv5b"
  bottom: "rois"
  top: "pool5"
  roi_pooling_param {
    pooled_h: 4
    pooled_w: 4
    spatial_scale: 0.0625
    pooled_l: 1
    temporal_scale: 0.125
  }
}
layer {
  name: "fc6"
  type: "InnerProduct"
  bottom: "pool5"
  top: "fc6"
  param {
    lr_mult: 1
    decay_mult: 1
  }
  param {
    lr_mult: 2
    decay_mult: 0
  }
  inner_product_param {
    num_output: 4096
    weight_filler {
      type: "gaussian"
      std: 0.005
    }
    bias_filler {
      type: "constant"
      value: 1
    }
  }
}
layer {
  name: "relu6"
  type: "ReLU"
  bottom: "fc6"
  top: "fc6"
}
layer {
  name: "drop6"
  type: "Dropout"
  bottom: "fc6"
  top: "fc6"
  dropout_param {
    dropout_ratio: 0.5
  }
}
layer {
  name: "cls_score"
  type: "InnerProduct"
  bottom: "fc6"
  top: "cls_score"
  param {
    lr_mult: 1
    decay_mult: 1
  }
  param {
    lr_mult: 2
    decay_mult: 0
  }
  inner_product_param {
    num_output: 201
    weight_filler {
      type: "gaussian"
      std: 0.01
    }
    bias_filler {
      type: "constant"
      value: 0
    }
  }
}
layer {
  name: "twin_pred"
  type: "InnerProduct"
  bottom: "fc6"
  top: "twin_pred"
  param {
    lr_mult: 1
    decay_mult: 1
  }
  param {
    lr_mult: 2
    decay_mult: 0
  }
  inner_product_param {
    num_output: 402
    weight_filler {
      type: "gaussian"
      std: 0.001
    }
    bias_filler {
      type: "constant"
      value: 0
    }
  }
}
layer {
  name: "loss_cls"
  type: "SoftmaxWithLoss"
  bottom: "cls_score"
  bottom: "labels"
  top: "loss_cls"
  loss_weight: 1
  propagate_down: true
  propagate_down: false
}
layer {
  name: "loss_twin"
  type: "SmoothL1Loss"
  bottom: "twin_pred"
  bottom: "twin_targets"
  bottom: "twin_inside_weights"
  bottom: "twin_outside_weights"
  top: "loss_twin"
  loss_weight: 1
}
layer {
  name: "accuarcy"
  type: "Accuracy"
  bottom: "cls_score"
  bottom: "labels"
  top: "accuarcy"
  propagate_down: false
  propagate_down: false
  accuracy_param {
    ignore_label: -1
  }
}
I0418 03:13:01.688063 11728 layer_factory.hpp:77] Creating layer data
I0418 03:13:01.713829 11728 net.cpp:100] Creating Layer data
I0418 03:13:01.713855 11728 net.cpp:408] data -> data
I0418 03:13:01.713873 11728 net.cpp:408] data -> gt_boxes
setting up
has rpn
RoiDataLayer: name_to_top: {'gt_windows': 1, 'data': 0}
I0418 03:13:01.764690 11728 net.cpp:150] Setting up data
I0418 03:13:01.764714 11728 net.cpp:157] Top shape: 1 3 768 112 112 (28901376)
I0418 03:13:01.764722 11728 net.cpp:157] Top shape: 1 101 (101)
I0418 03:13:01.764725 11728 net.cpp:165] Memory required for data: 115605908
I0418 03:13:01.764732 11728 layer_factory.hpp:77] Creating layer data_data_0_split
I0418 03:13:01.764744 11728 net.cpp:100] Creating Layer data_data_0_split
I0418 03:13:01.764749 11728 net.cpp:434] data_data_0_split <- data
I0418 03:13:01.764756 11728 net.cpp:408] data_data_0_split -> data_data_0_split_0
I0418 03:13:01.764766 11728 net.cpp:408] data_data_0_split -> data_data_0_split_1
I0418 03:13:01.764801 11728 net.cpp:150] Setting up data_data_0_split
I0418 03:13:01.764808 11728 net.cpp:157] Top shape: 1 3 768 112 112 (28901376)
I0418 03:13:01.764812 11728 net.cpp:157] Top shape: 1 3 768 112 112 (28901376)
I0418 03:13:01.764816 11728 net.cpp:165] Memory required for data: 346816916
I0418 03:13:01.764819 11728 layer_factory.hpp:77] Creating layer gt_boxes_data_1_split
I0418 03:13:01.764824 11728 net.cpp:100] Creating Layer gt_boxes_data_1_split
I0418 03:13:01.764833 11728 net.cpp:434] gt_boxes_data_1_split <- gt_boxes
I0418 03:13:01.764839 11728 net.cpp:408] gt_boxes_data_1_split -> gt_boxes_data_1_split_0
I0418 03:13:01.764844 11728 net.cpp:408] gt_boxes_data_1_split -> gt_boxes_data_1_split_1
I0418 03:13:01.764869 11728 net.cpp:150] Setting up gt_boxes_data_1_split
I0418 03:13:01.764876 11728 net.cpp:157] Top shape: 1 101 (101)
I0418 03:13:01.764880 11728 net.cpp:157] Top shape: 1 101 (101)
I0418 03:13:01.764884 11728 net.cpp:165] Memory required for data: 346817724
I0418 03:13:01.764889 11728 layer_factory.hpp:77] Creating layer conv1a
I0418 03:13:01.764904 11728 net.cpp:100] Creating Layer conv1a
I0418 03:13:01.764910 11728 net.cpp:434] conv1a <- data_data_0_split_0
I0418 03:13:01.764915 11728 net.cpp:408] conv1a -> conv1a
I0418 03:13:02.038158 11728 net.cpp:150] Setting up conv1a
I0418 03:13:02.038194 11728 net.cpp:157] Top shape: 1 64 768 112 112 (616562688)
I0418 03:13:02.038198 11728 net.cpp:165] Memory required for data: 2813068476
I0418 03:13:02.038219 11728 layer_factory.hpp:77] Creating layer relu1a
I0418 03:13:02.038233 11728 net.cpp:100] Creating Layer relu1a
I0418 03:13:02.038239 11728 net.cpp:434] relu1a <- conv1a
I0418 03:13:02.038244 11728 net.cpp:395] relu1a -> conv1a (in-place)
I0418 03:13:02.038738 11728 net.cpp:150] Setting up relu1a
I0418 03:13:02.038751 11728 net.cpp:157] Top shape: 1 64 768 112 112 (616562688)
I0418 03:13:02.038755 11728 net.cpp:165] Memory required for data: 5279319228
I0418 03:13:02.038786 11728 layer_factory.hpp:77] Creating layer pool1
I0418 03:13:02.038800 11728 net.cpp:100] Creating Layer pool1
I0418 03:13:02.038803 11728 net.cpp:434] pool1 <- conv1a
I0418 03:13:02.038810 11728 net.cpp:408] pool1 -> pool1
I0418 03:13:02.039719 11728 net.cpp:150] Setting up pool1
I0418 03:13:02.039732 11728 net.cpp:157] Top shape: 1 64 768 56 56 (154140672)
I0418 03:13:02.039736 11728 net.cpp:165] Memory required for data: 5895881916
I0418 03:13:02.039739 11728 layer_factory.hpp:77] Creating layer conv2a
I0418 03:13:02.039752 11728 net.cpp:100] Creating Layer conv2a
I0418 03:13:02.039755 11728 net.cpp:434] conv2a <- pool1
I0418 03:13:02.039762 11728 net.cpp:408] conv2a -> conv2a
I0418 03:13:02.051527 11728 net.cpp:150] Setting up conv2a
I0418 03:13:02.051553 11728 net.cpp:157] Top shape: 1 128 768 56 56 (308281344)
I0418 03:13:02.051558 11728 net.cpp:165] Memory required for data: 7129007292
I0418 03:13:02.051570 11728 layer_factory.hpp:77] Creating layer relu2a
I0418 03:13:02.051581 11728 net.cpp:100] Creating Layer relu2a
I0418 03:13:02.051585 11728 net.cpp:434] relu2a <- conv2a
I0418 03:13:02.051592 11728 net.cpp:395] relu2a -> conv2a (in-place)
I0418 03:13:02.051956 11728 net.cpp:150] Setting up relu2a
I0418 03:13:02.051971 11728 net.cpp:157] Top shape: 1 128 768 56 56 (308281344)
I0418 03:13:02.051975 11728 net.cpp:165] Memory required for data: 8362132668
I0418 03:13:02.051980 11728 layer_factory.hpp:77] Creating layer pool2
I0418 03:13:02.051988 11728 net.cpp:100] Creating Layer pool2
I0418 03:13:02.051992 11728 net.cpp:434] pool2 <- conv2a
I0418 03:13:02.051998 11728 net.cpp:408] pool2 -> pool2
I0418 03:13:02.052453 11728 net.cpp:150] Setting up pool2
I0418 03:13:02.052464 11728 net.cpp:157] Top shape: 1 128 384 28 28 (38535168)
I0418 03:13:02.052467 11728 net.cpp:165] Memory required for data: 8516273340
I0418 03:13:02.052471 11728 layer_factory.hpp:77] Creating layer conv3a
I0418 03:13:02.052482 11728 net.cpp:100] Creating Layer conv3a
I0418 03:13:02.052487 11728 net.cpp:434] conv3a <- pool2
I0418 03:13:02.052494 11728 net.cpp:408] conv3a -> conv3a
I0418 03:13:02.079380 11728 net.cpp:150] Setting up conv3a
I0418 03:13:02.079406 11728 net.cpp:157] Top shape: 1 256 384 28 28 (77070336)
I0418 03:13:02.079411 11728 net.cpp:165] Memory required for data: 8824554684
I0418 03:13:02.079424 11728 layer_factory.hpp:77] Creating layer relu3a
I0418 03:13:02.079437 11728 net.cpp:100] Creating Layer relu3a
I0418 03:13:02.079442 11728 net.cpp:434] relu3a <- conv3a
I0418 03:13:02.079447 11728 net.cpp:395] relu3a -> conv3a (in-place)
I0418 03:13:02.079789 11728 net.cpp:150] Setting up relu3a
I0418 03:13:02.079803 11728 net.cpp:157] Top shape: 1 256 384 28 28 (77070336)
I0418 03:13:02.079808 11728 net.cpp:165] Memory required for data: 9132836028
I0418 03:13:02.079813 11728 layer_factory.hpp:77] Creating layer conv3b
I0418 03:13:02.079824 11728 net.cpp:100] Creating Layer conv3b
I0418 03:13:02.079830 11728 net.cpp:434] conv3b <- conv3a
I0418 03:13:02.079836 11728 net.cpp:408] conv3b -> conv3b
I0418 03:13:02.132025 11728 net.cpp:150] Setting up conv3b
I0418 03:13:02.132048 11728 net.cpp:157] Top shape: 1 256 384 28 28 (77070336)
I0418 03:13:02.132052 11728 net.cpp:165] Memory required for data: 9441117372
I0418 03:13:02.132062 11728 layer_factory.hpp:77] Creating layer relu3b
I0418 03:13:02.132072 11728 net.cpp:100] Creating Layer relu3b
I0418 03:13:02.132077 11728 net.cpp:434] relu3b <- conv3b
I0418 03:13:02.132083 11728 net.cpp:395] relu3b -> conv3b (in-place)
I0418 03:13:02.132407 11728 net.cpp:150] Setting up relu3b
I0418 03:13:02.132421 11728 net.cpp:157] Top shape: 1 256 384 28 28 (77070336)
I0418 03:13:02.132426 11728 net.cpp:165] Memory required for data: 9749398716
I0418 03:13:02.132429 11728 layer_factory.hpp:77] Creating layer pool3
I0418 03:13:02.132437 11728 net.cpp:100] Creating Layer pool3
I0418 03:13:02.132441 11728 net.cpp:434] pool3 <- conv3b
I0418 03:13:02.132447 11728 net.cpp:408] pool3 -> pool3
I0418 03:13:02.133556 11728 net.cpp:150] Setting up pool3
I0418 03:13:02.133569 11728 net.cpp:157] Top shape: 1 256 192 14 14 (9633792)
I0418 03:13:02.133571 11728 net.cpp:165] Memory required for data: 9787933884
I0418 03:13:02.133575 11728 layer_factory.hpp:77] Creating layer conv4a
I0418 03:13:02.133585 11728 net.cpp:100] Creating Layer conv4a
I0418 03:13:02.133592 11728 net.cpp:434] conv4a <- pool3
I0418 03:13:02.133599 11728 net.cpp:408] conv4a -> conv4a
I0418 03:13:02.230475 11728 net.cpp:150] Setting up conv4a
I0418 03:13:02.230499 11728 net.cpp:157] Top shape: 1 512 192 14 14 (19267584)
I0418 03:13:02.230504 11728 net.cpp:165] Memory required for data: 9865004220
I0418 03:13:02.230516 11728 layer_factory.hpp:77] Creating layer relu4a
I0418 03:13:02.230525 11728 net.cpp:100] Creating Layer relu4a
I0418 03:13:02.230530 11728 net.cpp:434] relu4a <- conv4a
I0418 03:13:02.230536 11728 net.cpp:395] relu4a -> conv4a (in-place)
I0418 03:13:02.231051 11728 net.cpp:150] Setting up relu4a
I0418 03:13:02.231065 11728 net.cpp:157] Top shape: 1 512 192 14 14 (19267584)
I0418 03:13:02.231068 11728 net.cpp:165] Memory required for data: 9942074556
I0418 03:13:02.231071 11728 layer_factory.hpp:77] Creating layer conv4b
I0418 03:13:02.231086 11728 net.cpp:100] Creating Layer conv4b
I0418 03:13:02.231093 11728 net.cpp:434] conv4b <- conv4a
I0418 03:13:02.231101 11728 net.cpp:408] conv4b -> conv4b
I0418 03:13:02.418694 11728 net.cpp:150] Setting up conv4b
I0418 03:13:02.418715 11728 net.cpp:157] Top shape: 1 512 192 14 14 (19267584)
I0418 03:13:02.418720 11728 net.cpp:165] Memory required for data: 10019144892
I0418 03:13:02.418728 11728 layer_factory.hpp:77] Creating layer relu4b
I0418 03:13:02.418740 11728 net.cpp:100] Creating Layer relu4b
I0418 03:13:02.418745 11728 net.cpp:434] relu4b <- conv4b
I0418 03:13:02.418751 11728 net.cpp:395] relu4b -> conv4b (in-place)
I0418 03:13:02.419914 11728 net.cpp:150] Setting up relu4b
I0418 03:13:02.419926 11728 net.cpp:157] Top shape: 1 512 192 14 14 (19267584)
I0418 03:13:02.419930 11728 net.cpp:165] Memory required for data: 10096215228
I0418 03:13:02.419934 11728 layer_factory.hpp:77] Creating layer pool4
I0418 03:13:02.419942 11728 net.cpp:100] Creating Layer pool4
I0418 03:13:02.419946 11728 net.cpp:434] pool4 <- conv4b
I0418 03:13:02.419952 11728 net.cpp:408] pool4 -> pool4
I0418 03:13:02.421169 11728 net.cpp:150] Setting up pool4
I0418 03:13:02.421182 11728 net.cpp:157] Top shape: 1 512 96 7 7 (2408448)
I0418 03:13:02.421185 11728 net.cpp:165] Memory required for data: 10105849020
I0418 03:13:02.421190 11728 layer_factory.hpp:77] Creating layer conv5a
I0418 03:13:02.421202 11728 net.cpp:100] Creating Layer conv5a
I0418 03:13:02.421211 11728 net.cpp:434] conv5a <- pool4
I0418 03:13:02.421217 11728 net.cpp:408] conv5a -> conv5a
I0418 03:13:02.609701 11728 net.cpp:150] Setting up conv5a
I0418 03:13:02.609760 11728 net.cpp:157] Top shape: 1 512 96 7 7 (2408448)
I0418 03:13:02.609773 11728 net.cpp:165] Memory required for data: 10115482812
I0418 03:13:02.609792 11728 layer_factory.hpp:77] Creating layer relu5a
I0418 03:13:02.609814 11728 net.cpp:100] Creating Layer relu5a
I0418 03:13:02.609824 11728 net.cpp:434] relu5a <- conv5a
I0418 03:13:02.609840 11728 net.cpp:395] relu5a -> conv5a (in-place)
I0418 03:13:02.611423 11728 net.cpp:150] Setting up relu5a
I0418 03:13:02.611457 11728 net.cpp:157] Top shape: 1 512 96 7 7 (2408448)
I0418 03:13:02.611467 11728 net.cpp:165] Memory required for data: 10125116604
I0418 03:13:02.611476 11728 layer_factory.hpp:77] Creating layer conv5b
I0418 03:13:02.611508 11728 net.cpp:100] Creating Layer conv5b
I0418 03:13:02.611521 11728 net.cpp:434] conv5b <- conv5a
I0418 03:13:02.611546 11728 net.cpp:408] conv5b -> conv5b
I0418 03:13:02.810561 11728 net.cpp:150] Setting up conv5b
I0418 03:13:02.810588 11728 net.cpp:157] Top shape: 1 512 96 7 7 (2408448)
I0418 03:13:02.810592 11728 net.cpp:165] Memory required for data: 10134750396
I0418 03:13:02.810601 11728 layer_factory.hpp:77] Creating layer relu5b
I0418 03:13:02.810612 11728 net.cpp:100] Creating Layer relu5b
I0418 03:13:02.810617 11728 net.cpp:434] relu5b <- conv5b
I0418 03:13:02.810624 11728 net.cpp:395] relu5b -> conv5b (in-place)
I0418 03:13:02.810803 11728 net.cpp:150] Setting up relu5b
I0418 03:13:02.810814 11728 net.cpp:157] Top shape: 1 512 96 7 7 (2408448)
I0418 03:13:02.810820 11728 net.cpp:165] Memory required for data: 10144384188
I0418 03:13:02.810824 11728 layer_factory.hpp:77] Creating layer conv5b_relu5b_0_split
I0418 03:13:02.810830 11728 net.cpp:100] Creating Layer conv5b_relu5b_0_split
I0418 03:13:02.810833 11728 net.cpp:434] conv5b_relu5b_0_split <- conv5b
I0418 03:13:02.810840 11728 net.cpp:408] conv5b_relu5b_0_split -> conv5b_relu5b_0_split_0
I0418 03:13:02.810847 11728 net.cpp:408] conv5b_relu5b_0_split -> conv5b_relu5b_0_split_1
I0418 03:13:02.810886 11728 net.cpp:150] Setting up conv5b_relu5b_0_split
I0418 03:13:02.810892 11728 net.cpp:157] Top shape: 1 512 96 7 7 (2408448)
I0418 03:13:02.810896 11728 net.cpp:157] Top shape: 1 512 96 7 7 (2408448)
I0418 03:13:02.810899 11728 net.cpp:165] Memory required for data: 10163651772
I0418 03:13:02.810904 11728 layer_factory.hpp:77] Creating layer rpn_conv/3x3
I0418 03:13:02.810914 11728 net.cpp:100] Creating Layer rpn_conv/3x3
I0418 03:13:02.810920 11728 net.cpp:434] rpn_conv/3x3 <- conv5b_relu5b_0_split_0
I0418 03:13:02.810925 11728 net.cpp:408] rpn_conv/3x3 -> rpn/output
I0418 03:13:03.011358 11728 net.cpp:150] Setting up rpn_conv/3x3
I0418 03:13:03.011391 11728 net.cpp:157] Top shape: 1 512 96 4 4 (786432)
I0418 03:13:03.011396 11728 net.cpp:165] Memory required for data: 10166797500
I0418 03:13:03.011410 11728 layer_factory.hpp:77] Creating layer rpn_relu/3x3
I0418 03:13:03.011422 11728 net.cpp:100] Creating Layer rpn_relu/3x3
I0418 03:13:03.011427 11728 net.cpp:434] rpn_relu/3x3 <- rpn/output
I0418 03:13:03.011435 11728 net.cpp:395] rpn_relu/3x3 -> rpn/output (in-place)
I0418 03:13:03.012636 11728 net.cpp:150] Setting up rpn_relu/3x3
I0418 03:13:03.012653 11728 net.cpp:157] Top shape: 1 512 96 4 4 (786432)
I0418 03:13:03.012657 11728 net.cpp:165] Memory required for data: 10169943228
I0418 03:13:03.012661 11728 layer_factory.hpp:77] Creating layer rpn_conv/3x3_2
I0418 03:13:03.012673 11728 net.cpp:100] Creating Layer rpn_conv/3x3_2
I0418 03:13:03.012677 11728 net.cpp:434] rpn_conv/3x3_2 <- rpn/output
I0418 03:13:03.012683 11728 net.cpp:408] rpn_conv/3x3_2 -> rpn/output_2
I0418 03:13:03.209630 11728 net.cpp:150] Setting up rpn_conv/3x3_2
I0418 03:13:03.209666 11728 net.cpp:157] Top shape: 1 512 96 2 2 (196608)
I0418 03:13:03.209671 11728 net.cpp:165] Memory required for data: 10170729660
I0418 03:13:03.209679 11728 layer_factory.hpp:77] Creating layer rpn_relu/3x3_2
I0418 03:13:03.209689 11728 net.cpp:100] Creating Layer rpn_relu/3x3_2
I0418 03:13:03.209695 11728 net.cpp:434] rpn_relu/3x3_2 <- rpn/output_2
I0418 03:13:03.209704 11728 net.cpp:395] rpn_relu/3x3_2 -> rpn/output_2 (in-place)
I0418 03:13:03.210121 11728 net.cpp:150] Setting up rpn_relu/3x3_2
I0418 03:13:03.210135 11728 net.cpp:157] Top shape: 1 512 96 2 2 (196608)
I0418 03:13:03.210139 11728 net.cpp:165] Memory required for data: 10171516092
I0418 03:13:03.210142 11728 layer_factory.hpp:77] Creating layer rpn/output_pool
I0418 03:13:03.210151 11728 net.cpp:100] Creating Layer rpn/output_pool
I0418 03:13:03.210155 11728 net.cpp:434] rpn/output_pool <- rpn/output_2
I0418 03:13:03.210161 11728 net.cpp:408] rpn/output_pool -> rpn/output_pool
I0418 03:13:03.210819 11728 net.cpp:150] Setting up rpn/output_pool
I0418 03:13:03.210830 11728 net.cpp:157] Top shape: 1 512 96 1 1 (49152)
I0418 03:13:03.210834 11728 net.cpp:165] Memory required for data: 10171712700
I0418 03:13:03.210839 11728 layer_factory.hpp:77] Creating layer rpn/output_pool_rpn/output_pool_0_split
I0418 03:13:03.210844 11728 net.cpp:100] Creating Layer rpn/output_pool_rpn/output_pool_0_split
I0418 03:13:03.210847 11728 net.cpp:434] rpn/output_pool_rpn/output_pool_0_split <- rpn/output_pool
I0418 03:13:03.210852 11728 net.cpp:408] rpn/output_pool_rpn/output_pool_0_split -> rpn/output_pool_rpn/output_pool_0_split_0
I0418 03:13:03.210858 11728 net.cpp:408] rpn/output_pool_rpn/output_pool_0_split -> rpn/output_pool_rpn/output_pool_0_split_1
I0418 03:13:03.210894 11728 net.cpp:150] Setting up rpn/output_pool_rpn/output_pool_0_split
I0418 03:13:03.210903 11728 net.cpp:157] Top shape: 1 512 96 1 1 (49152)
I0418 03:13:03.210907 11728 net.cpp:157] Top shape: 1 512 96 1 1 (49152)
I0418 03:13:03.210911 11728 net.cpp:165] Memory required for data: 10172105916
I0418 03:13:03.210916 11728 layer_factory.hpp:77] Creating layer rpn_cls_score
I0418 03:13:03.210927 11728 net.cpp:100] Creating Layer rpn_cls_score
I0418 03:13:03.210929 11728 net.cpp:434] rpn_cls_score <- rpn/output_pool_rpn/output_pool_0_split_0
I0418 03:13:03.210937 11728 net.cpp:408] rpn_cls_score -> rpn_cls_score
I0418 03:13:03.314246 11728 net.cpp:150] Setting up rpn_cls_score
I0418 03:13:03.314270 11728 net.cpp:157] Top shape: 1 7400 96 1 1 (710400)
I0418 03:13:03.314275 11728 net.cpp:165] Memory required for data: 10174947516
I0418 03:13:03.314285 11728 layer_factory.hpp:77] Creating layer rpn_cls_score_rpn_cls_score_0_split
I0418 03:13:03.314292 11728 net.cpp:100] Creating Layer rpn_cls_score_rpn_cls_score_0_split
I0418 03:13:03.314297 11728 net.cpp:434] rpn_cls_score_rpn_cls_score_0_split <- rpn_cls_score
I0418 03:13:03.314304 11728 net.cpp:408] rpn_cls_score_rpn_cls_score_0_split -> rpn_cls_score_rpn_cls_score_0_split_0
I0418 03:13:03.314312 11728 net.cpp:408] rpn_cls_score_rpn_cls_score_0_split -> rpn_cls_score_rpn_cls_score_0_split_1
I0418 03:13:03.314355 11728 net.cpp:150] Setting up rpn_cls_score_rpn_cls_score_0_split
I0418 03:13:03.314364 11728 net.cpp:157] Top shape: 1 7400 96 1 1 (710400)
I0418 03:13:03.314369 11728 net.cpp:157] Top shape: 1 7400 96 1 1 (710400)
I0418 03:13:03.314373 11728 net.cpp:165] Memory required for data: 10180630716
I0418 03:13:03.314376 11728 layer_factory.hpp:77] Creating layer rpn_twin_pred
I0418 03:13:03.314390 11728 net.cpp:100] Creating Layer rpn_twin_pred
I0418 03:13:03.314396 11728 net.cpp:434] rpn_twin_pred <- rpn/output_pool_rpn/output_pool_0_split_1
I0418 03:13:03.314406 11728 net.cpp:408] rpn_twin_pred -> rpn_twin_pred
I0418 03:13:03.322597 11728 net.cpp:150] Setting up rpn_twin_pred
I0418 03:13:03.322612 11728 net.cpp:157] Top shape: 1 74 96 1 1 (7104)
I0418 03:13:03.322615 11728 net.cpp:165] Memory required for data: 10180659132
I0418 03:13:03.322621 11728 layer_factory.hpp:77] Creating layer rpn_twin_pred_rpn_twin_pred_0_split
I0418 03:13:03.322628 11728 net.cpp:100] Creating Layer rpn_twin_pred_rpn_twin_pred_0_split
I0418 03:13:03.322633 11728 net.cpp:434] rpn_twin_pred_rpn_twin_pred_0_split <- rpn_twin_pred
I0418 03:13:03.322638 11728 net.cpp:408] rpn_twin_pred_rpn_twin_pred_0_split -> rpn_twin_pred_rpn_twin_pred_0_split_0
I0418 03:13:03.322645 11728 net.cpp:408] rpn_twin_pred_rpn_twin_pred_0_split -> rpn_twin_pred_rpn_twin_pred_0_split_1
I0418 03:13:03.322680 11728 net.cpp:150] Setting up rpn_twin_pred_rpn_twin_pred_0_split
I0418 03:13:03.322688 11728 net.cpp:157] Top shape: 1 74 96 1 1 (7104)
I0418 03:13:03.322692 11728 net.cpp:157] Top shape: 1 74 96 1 1 (7104)
I0418 03:13:03.322695 11728 net.cpp:165] Memory required for data: 10180715964
I0418 03:13:03.322700 11728 layer_factory.hpp:77] Creating layer rpn_cls_score_reshape
I0418 03:13:03.322712 11728 net.cpp:100] Creating Layer rpn_cls_score_reshape
I0418 03:13:03.322719 11728 net.cpp:434] rpn_cls_score_reshape <- rpn_cls_score_rpn_cls_score_0_split_0
I0418 03:13:03.322724 11728 net.cpp:408] rpn_cls_score_reshape -> rpn_cls_score_reshape
I0418 03:13:03.322752 11728 net.cpp:150] Setting up rpn_cls_score_reshape
I0418 03:13:03.322758 11728 net.cpp:157] Top shape: 1 2 355200 1 1 (710400)
I0418 03:13:03.322778 11728 net.cpp:165] Memory required for data: 10183557564
I0418 03:13:03.322782 11728 layer_factory.hpp:77] Creating layer rpn_cls_score_reshape_rpn_cls_score_reshape_0_split
I0418 03:13:03.322788 11728 net.cpp:100] Creating Layer rpn_cls_score_reshape_rpn_cls_score_reshape_0_split
I0418 03:13:03.322790 11728 net.cpp:434] rpn_cls_score_reshape_rpn_cls_score_reshape_0_split <- rpn_cls_score_reshape
I0418 03:13:03.322798 11728 net.cpp:408] rpn_cls_score_reshape_rpn_cls_score_reshape_0_split -> rpn_cls_score_reshape_rpn_cls_score_reshape_0_split_0
I0418 03:13:03.322805 11728 net.cpp:408] rpn_cls_score_reshape_rpn_cls_score_reshape_0_split -> rpn_cls_score_reshape_rpn_cls_score_reshape_0_split_1
I0418 03:13:03.322816 11728 net.cpp:408] rpn_cls_score_reshape_rpn_cls_score_reshape_0_split -> rpn_cls_score_reshape_rpn_cls_score_reshape_0_split_2
I0418 03:13:03.322862 11728 net.cpp:150] Setting up rpn_cls_score_reshape_rpn_cls_score_reshape_0_split
I0418 03:13:03.322870 11728 net.cpp:157] Top shape: 1 2 355200 1 1 (710400)
I0418 03:13:03.322873 11728 net.cpp:157] Top shape: 1 2 355200 1 1 (710400)
I0418 03:13:03.322877 11728 net.cpp:157] Top shape: 1 2 355200 1 1 (710400)
I0418 03:13:03.322880 11728 net.cpp:165] Memory required for data: 10192082364
I0418 03:13:03.322883 11728 layer_factory.hpp:77] Creating layer rpn-data
I0418 03:13:03.323272 11728 net.cpp:100] Creating Layer rpn-data
I0418 03:13:03.323284 11728 net.cpp:434] rpn-data <- rpn_cls_score_rpn_cls_score_0_split_1
I0418 03:13:03.323289 11728 net.cpp:434] rpn-data <- gt_boxes_data_1_split_0
I0418 03:13:03.323294 11728 net.cpp:434] rpn-data <- data_data_0_split_1
I0418 03:13:03.323299 11728 net.cpp:408] rpn-data -> rpn_labels
I0418 03:13:03.323307 11728 net.cpp:408] rpn-data -> rpn_twin_targets
I0418 03:13:03.323315 11728 net.cpp:408] rpn-data -> rpn_twin_inside_weights
I0418 03:13:03.323323 11728 net.cpp:408] rpn-data -> rpn_twin_outside_weights
I0418 03:13:03.326490 11728 net.cpp:150] Setting up rpn-data
I0418 03:13:03.326512 11728 net.cpp:157] Top shape: 1 1 3552 1 1 (3552)
I0418 03:13:03.326517 11728 net.cpp:157] Top shape: 1 74 96 1 1 (7104)
I0418 03:13:03.326522 11728 net.cpp:157] Top shape: 1 74 96 1 1 (7104)
I0418 03:13:03.326526 11728 net.cpp:157] Top shape: 1 74 96 1 1 (7104)
I0418 03:13:03.326529 11728 net.cpp:165] Memory required for data: 10192181820
I0418 03:13:03.326534 11728 layer_factory.hpp:77] Creating layer rpn_labels_rpn-data_0_split
I0418 03:13:03.326539 11728 net.cpp:100] Creating Layer rpn_labels_rpn-data_0_split
I0418 03:13:03.326542 11728 net.cpp:434] rpn_labels_rpn-data_0_split <- rpn_labels
I0418 03:13:03.326547 11728 net.cpp:408] rpn_labels_rpn-data_0_split -> rpn_labels_rpn-data_0_split_0
I0418 03:13:03.326555 11728 net.cpp:408] rpn_labels_rpn-data_0_split -> rpn_labels_rpn-data_0_split_1
I0418 03:13:03.326587 11728 net.cpp:150] Setting up rpn_labels_rpn-data_0_split
I0418 03:13:03.326596 11728 net.cpp:157] Top shape: 1 1 3552 1 1 (3552)
I0418 03:13:03.326601 11728 net.cpp:157] Top shape: 1 1 3552 1 1 (3552)
I0418 03:13:03.326606 11728 net.cpp:165] Memory required for data: 10192210236
I0418 03:13:03.326609 11728 layer_factory.hpp:77] Creating layer rpn_loss_cls
I0418 03:13:03.326617 11728 net.cpp:100] Creating Layer rpn_loss_cls
I0418 03:13:03.326622 11728 net.cpp:434] rpn_loss_cls <- rpn_cls_score_reshape_rpn_cls_score_reshape_0_split_0
I0418 03:13:03.326628 11728 net.cpp:434] rpn_loss_cls <- rpn_labels_rpn-data_0_split_0
…
