…
stepsize: 350000
snapshot: 0
snapshot_prefix: "./experiments/activitynet/snapshot/activitynet"
average_loss: 100
iter_size: 1
I0417 23:31:14.096329 27186 solver.cpp:81] Creating training net from train_net file: ./experiments/activitynet/train.prototxt
I0417 23:31:14.097477 27186 net.cpp:58] Initializing net from parameters: 
name: "activitynet"
state {
  phase: TRAIN
}
layer {
  name: "data"
  type: "Python"
  top: "data"
  top: "gt_boxes"
  python_param {
    module: "roi_data_layer.layer"
    layer: "RoIDataLayer"
    param_str: "\'num_classes\': 100"
  }
}
layer {
  name: "conv1a"
  type: "Convolution"
  bottom: "data"
  top: "conv1a"
  param {
    lr_mult: 0
    decay_mult: 0
  }
  param {
    lr_mult: 0
    decay_mult: 0
  }
  convolution_param {
    num_output: 64
    pad: 1
    pad: 1
    pad: 1
    kernel_size: 3
    kernel_size: 3
    kernel_size: 3
    weight_filler {
      type: "gaussian"
      std: 0.01
    }
    bias_filler {
      type: "constant"
      value: 0
    }
  }
}
layer {
  name: "relu1a"
  type: "ReLU"
  bottom: "conv1a"
  top: "conv1a"
}
layer {
  name: "pool1"
  type: "Pooling"
  bottom: "conv1a"
  top: "pool1"
  pooling_param {
    pool: MAX
    kernel_size: 1
    kernel_size: 2
    kernel_size: 2
    stride: 1
    stride: 2
    stride: 2
  }
}
layer {
  name: "conv2a"
  type: "Convolution"
  bottom: "pool1"
  top: "conv2a"
  param {
    lr_mult: 0
    decay_mult: 0
  }
  param {
    lr_mult: 0
    decay_mult: 0
  }
  convolution_param {
    num_output: 128
    pad: 1
    pad: 1
    pad: 1
    kernel_size: 3
    kernel_size: 3
    kernel_size: 3
    weight_filler {
      type: "gaussian"
      std: 0.01
    }
    bias_filler {
      type: "constant"
      value: 1
    }
  }
}
layer {
  name: "relu2a"
  type: "ReLU"
  bottom: "conv2a"
  top: "conv2a"
}
layer {
  name: "pool2"
  type: "Pooling"
  bottom: "conv2a"
  top: "pool2"
  pooling_param {
    pool: MAX
    kernel_size: 2
    kernel_size: 2
    kernel_size: 2
    stride: 2
    stride: 2
    stride: 2
  }
}
layer {
  name: "conv3a"
  type: "Convolution"
  bottom: "pool2"
  top: "conv3a"
  param {
    lr_mult: 1
    decay_mult: 1
  }
  param {
    lr_mult: 2
    decay_mult: 0
  }
  convolution_param {
    num_output: 256
    pad: 1
    pad: 1
    pad: 1
    kernel_size: 3
    kernel_size: 3
    kernel_size: 3
    weight_filler {
      type: "gaussian"
      std: 0.01
    }
    bias_filler {
      type: "constant"
      value: 1
    }
  }
}
layer {
  name: "relu3a"
  type: "ReLU"
  bottom: "conv3a"
  top: "conv3a"
}
layer {
  name: "conv3b"
  type: "Convolution"
  bottom: "conv3a"
  top: "conv3b"
  param {
    lr_mult: 1
    decay_mult: 1
  }
  param {
    lr_mult: 2
    decay_mult: 0
  }
  convolution_param {
    num_output: 256
    pad: 1
    pad: 1
    pad: 1
    kernel_size: 3
    kernel_size: 3
    kernel_size: 3
    weight_filler {
      type: "gaussian"
      std: 0.01
    }
    bias_filler {
      type: "constant"
      value: 1
    }
  }
}
layer {
  name: "relu3b"
  type: "ReLU"
  bottom: "conv3b"
  top: "conv3b"
}
layer {
  name: "pool3"
  type: "Pooling"
  bottom: "conv3b"
  top: "pool3"
  pooling_param {
    pool: MAX
    kernel_size: 2
    kernel_size: 2
    kernel_size: 2
    stride: 2
    stride: 2
    stride: 2
  }
}
layer {
  name: "conv4a"
  type: "Convolution"
  bottom: "pool3"
  top: "conv4a"
  param {
    lr_mult: 1
    decay_mult: 1
  }
  param {
    lr_mult: 2
    decay_mult: 0
  }
  convolution_param {
    num_output: 512
    pad: 1
    pad: 1
    pad: 1
    kernel_size: 3
    kernel_size: 3
    kernel_size: 3
    weight_filler {
      type: "gaussian"
      std: 0.01
    }
    bias_filler {
      type: "constant"
      value: 1
    }
  }
}
layer {
  name: "relu4a"
  type: "ReLU"
  bottom: "conv4a"
  top: "conv4a"
}
layer {
  name: "conv4b"
  type: "Convolution"
  bottom: "conv4a"
  top: "conv4b"
  param {
    lr_mult: 1
    decay_mult: 1
  }
  param {
    lr_mult: 2
    decay_mult: 0
  }
  convolution_param {
    num_output: 512
    pad: 1
    pad: 1
    pad: 1
    kernel_size: 3
    kernel_size: 3
    kernel_size: 3
    weight_filler {
      type: "gaussian"
      std: 0.01
    }
    bias_filler {
      type: "constant"
      value: 1
    }
  }
}
layer {
  name: "relu4b"
  type: "ReLU"
  bottom: "conv4b"
  top: "conv4b"
}
layer {
  name: "pool4"
  type: "Pooling"
  bottom: "conv4b"
  top: "pool4"
  pooling_param {
    pool: MAX
    kernel_size: 2
    kernel_size: 2
    kernel_size: 2
    stride: 2
    stride: 2
    stride: 2
  }
}
layer {
  name: "conv5a"
  type: "Convolution"
  bottom: "pool4"
  top: "conv5a"
  param {
    lr_mult: 1
    decay_mult: 1
  }
  param {
    lr_mult: 2
    decay_mult: 0
  }
  convolution_param {
    num_output: 512
    pad: 1
    pad: 1
    pad: 1
    kernel_size: 3
    kernel_size: 3
    kernel_size: 3
    weight_filler {
      type: "gaussian"
      std: 0.01
    }
    bias_filler {
      type: "constant"
      value: 1
    }
  }
}
layer {
  name: "relu5a"
  type: "ReLU"
  bottom: "conv5a"
  top: "conv5a"
}
layer {
  name: "conv5b"
  type: "Convolution"
  bottom: "conv5a"
  top: "conv5b"
  param {
    lr_mult: 1
    decay_mult: 1
  }
  param {
    lr_mult: 2
    decay_mult: 0
  }
  convolution_param {
    num_output: 512
    pad: 1
    pad: 1
    pad: 1
    kernel_size: 3
    kernel_size: 3
    kernel_size: 3
    weight_filler {
      type: "gaussian"
      std: 0.01
    }
    bias_filler {
      type: "constant"
      value: 1
    }
  }
}
layer {
  name: "relu5b"
  type: "ReLU"
  bottom: "conv5b"
  top: "conv5b"
}
layer {
  name: "rpn_conv/3x3"
  type: "Convolution"
  bottom: "conv5b"
  top: "rpn/output"
  param {
    lr_mult: 1
    decay_mult: 1
  }
  param {
    lr_mult: 2
    decay_mult: 0
  }
  convolution_param {
    num_output: 512
    pad: 1
    pad: 1
    pad: 1
    kernel_size: 3
    kernel_size: 3
    kernel_size: 3
    stride: 1
    stride: 2
    stride: 2
    weight_filler {
      type: "gaussian"
      std: 0.01
    }
    bias_filler {
      type: "constant"
      value: 0
    }
  }
}
layer {
  name: "rpn_relu/3x3"
  type: "ReLU"
  bottom: "rpn/output"
  top: "rpn/output"
}
layer {
  name: "rpn_conv/3x3_2"
  type: "Convolution"
  bottom: "rpn/output"
  top: "rpn/output_2"
  param {
    lr_mult: 1
    decay_mult: 1
  }
  param {
    lr_mult: 2
    decay_mult: 0
  }
  convolution_param {
    num_output: 512
    pad: 1
    pad: 1
    pad: 1
    kernel_size: 3
    kernel_size: 3
    kernel_size: 3
    stride: 1
    stride: 2
    stride: 2
    weight_filler {
      type: "gaussian"
      std: 0.01
    }
    bias_filler {
      type: "constant"
      value: 0
    }
  }
}
layer {
  name: "rpn_relu/3x3_2"
  type: "ReLU"
  bottom: "rpn/output_2"
  top: "rpn/output_2"
}
layer {
  name: "rpn/output_pool"
  type: "Pooling"
  bottom: "rpn/output_2"
  top: "rpn/output_pool"
  pooling_param {
    pool: MAX
    kernel_size: 1
    kernel_size: 2
    kernel_size: 2
  }
}
layer {
  name: "rpn_cls_score"
  type: "Convolution"
  bottom: "rpn/output_pool"
  top: "rpn_cls_score"
  param {
    lr_mult: 1
    decay_mult: 1
  }
  param {
    lr_mult: 2
    decay_mult: 0
  }
  convolution_param {
    num_output: 74
    kernel_size: 1
    kernel_size: 1
    kernel_size: 1
    weight_filler {
      type: "gaussian"
      std: 0.01
    }
    bias_filler {
      type: "constant"
      value: 0
    }
  }
}
layer {
  name: "rpn_twin_pred"
  type: "Convolution"
  bottom: "rpn/output_pool"
  top: "rpn_twin_pred"
  param {
    lr_mult: 1
    decay_mult: 1
  }
  param {
    lr_mult: 2
    decay_mult: 0
  }
  convolution_param {
    num_output: 74
    kernel_size: 1
    kernel_size: 1
    kernel_size: 1
    weight_filler {
      type: "gaussian"
      std: 0.01
    }
    bias_filler {
      type: "constant"
      value: 0
    }
  }
}
layer {
  name: "rpn_cls_score_reshape"
  type: "Reshape"
  bottom: "rpn_cls_score"
  top: "rpn_cls_score_reshape"
  reshape_param {
    shape {
      dim: 0
      dim: 2
      dim: -1
      dim: 0
      dim: 0
    }
  }
}
layer {
  name: "rpn-data"
  type: "Python"
  bottom: "rpn_cls_score"
  bottom: "gt_boxes"
  bottom: "data"
  top: "rpn_labels"
  top: "rpn_twin_targets"
  top: "rpn_twin_inside_weights"
  top: "rpn_twin_outside_weights"
  python_param {
    module: "rpn.anchor_target_layer"
    layer: "AnchorTargetLayer"
    param_str: "\'feat_stride\': 8 \n\'scales\': !!python/tuple [1,1.25, 1.5,1.75, 2,2.5, 3,3.5, 4,4.5, 5,5.5, 6,7, 8,9,10,11,12,14,16,18,20,22,24,28,32,36,40,44,52,60,68,76,84,92,100]"
  }
}
layer {
  name: "rpn_loss_cls"
  type: "SoftmaxWithLoss"
  bottom: "rpn_cls_score_reshape"
  bottom: "rpn_labels"
  top: "rpn_cls_loss"
  loss_weight: 1
  propagate_down: true
  propagate_down: false
  loss_param {
    ignore_label: -1
    normalize: true
  }
}
layer {
  name: "rpn_loss_twin"
  type: "SmoothL1Loss"
  bottom: "rpn_twin_pred"
  bottom: "rpn_twin_targets"
  bottom: "rpn_twin_inside_weights"
  bottom: "rpn_twin_outside_weights"
  top: "rpn_loss_twin"
  loss_weight: 1
  smooth_l1_loss_param {
    sigma: 3
  }
}
layer {
  name: "rpn_accuarcy"
  type: "Accuracy"
  bottom: "rpn_cls_score_reshape"
  bottom: "rpn_labels"
  top: "rpn_accuarcy"
  top: "rpn_accuarcy_class"
  propagate_down: false
  propagate_down: false
  accuracy_param {
    ignore_label: -1
  }
}
layer {
  name: "rpn_cls_prob"
  type: "Softmax"
  bottom: "rpn_cls_score_reshape"
  top: "rpn_cls_prob"
}
layer {
  name: "rpn_cls_prob_reshape"
  type: "Reshape"
  bottom: "rpn_cls_prob"
  top: "rpn_cls_prob_reshape"
  reshape_param {
    shape {
      dim: 0
      dim: 74
      dim: -1
      dim: 0
      dim: 0
    }
  }
}
layer {
  name: "proposal"
  type: "Python"
  bottom: "rpn_cls_prob_reshape"
  bottom: "rpn_twin_pred"
  top: "rpn_rois"
  include {
    phase: TRAIN
  }
  python_param {
    module: "rpn.proposal_layer"
    layer: "ProposalLayer"
    param_str: "\'feat_stride\': 8 \n\'scales\': !!python/tuple [1,1.25, 1.5,1.75, 2,2.5, 3,3.5, 4,4.5, 5,5.5, 6,7, 8,9,10,11,12,14,16,18,20,22,24,28,32,36,40,44,52,60,68,76,84,92,100]"
  }
}
layer {
  name: "roi-data"
  type: "Python"
  bottom: "rpn_rois"
  bottom: "gt_boxes"
  top: "rois"
  top: "labels"
  top: "twin_targets"
  top: "twin_inside_weights"
  top: "twin_outside_weights"
  python_param {
    module: "rpn.proposal_target_layer"
    layer: "ProposalTargetLayer"
    param_str: "\'num_classes\': 201"
  }
}
layer {
  name: "roi_pool5"
  type: "ROIPooling"
  bottom: "conv5b"
  bottom: "rois"
  top: "pool5"
  roi_pooling_param {
    pooled_h: 4
    pooled_w: 4
    spatial_scale: 0.0625
    pooled_l: 1
    temporal_scale: 0.125
  }
}
layer {
  name: "fc6"
  type: "InnerProduct"
  bottom: "pool5"
  top: "fc6"
  param {
    lr_mult: 1
    decay_mult: 1
  }
  param {
    lr_mult: 2
    decay_mult: 0
  }
  inner_product_param {
    num_output: 4096
    weight_filler {
      type: "gaussian"
      std: 0.005
    }
    bias_filler {
      type: "constant"
      value: 1
    }
  }
}
layer {
  name: "relu6"
  type: "ReLU"
  bottom: "fc6"
  top: "fc6"
}
layer {
  name: "drop6"
  type: "Dropout"
  bottom: "fc6"
  top: "fc6"
  dropout_param {
    dropout_ratio: 0.5
  }
}
layer {
  name: "cls_score"
  type: "InnerProduct"
  bottom: "fc6"
  top: "cls_score"
  param {
    lr_mult: 1
    decay_mult: 1
  }
  param {
    lr_mult: 2
    decay_mult: 0
  }
  inner_product_param {
    num_output: 201
    weight_filler {
      type: "gaussian"
      std: 0.01
    }
    bias_filler {
      type: "constant"
      value: 0
    }
  }
}
layer {
  name: "twin_pred"
  type: "InnerProduct"
  bottom: "fc6"
  top: "twin_pred"
  param {
    lr_mult: 1
    decay_mult: 1
  }
  param {
    lr_mult: 2
    decay_mult: 0
  }
  inner_product_param {
    num_output: 402
    weight_filler {
      type: "gaussian"
      std: 0.001
    }
    bias_filler {
      type: "constant"
      value: 0
    }
  }
}
layer {
  name: "loss_cls"
  type: "SoftmaxWithLoss"
  bottom: "cls_score"
  bottom: "labels"
  top: "loss_cls"
  loss_weight: 1
  propagate_down: true
  propagate_down: false
}
layer {
  name: "loss_twin"
  type: "SmoothL1Loss"
  bottom: "twin_pred"
  bottom: "twin_targets"
  bottom: "twin_inside_weights"
  bottom: "twin_outside_weights"
  top: "loss_twin"
  loss_weight: 1
}
layer {
  name: "accuarcy"
  type: "Accuracy"
  bottom: "cls_score"
  bottom: "labels"
  top: "accuarcy"
  propagate_down: false
  propagate_down: false
  accuracy_param {
    ignore_label: -1
  }
}
I0417 23:31:14.097698 27186 layer_factory.hpp:77] Creating layer data
I0417 23:31:14.122506 27186 net.cpp:100] Creating Layer data
I0417 23:31:14.122529 27186 net.cpp:408] data -> data
I0417 23:31:14.122541 27186 net.cpp:408] data -> gt_boxes
setting up
has rpn
RoiDataLayer: name_to_top: {'gt_windows': 1, 'data': 0}
I0417 23:31:14.158718 27186 net.cpp:150] Setting up data
I0417 23:31:14.158747 27186 net.cpp:157] Top shape: 1 3 768 112 112 (28901376)
I0417 23:31:14.158795 27186 net.cpp:157] Top shape: 1 101 (101)
I0417 23:31:14.158803 27186 net.cpp:165] Memory required for data: 115605908
I0417 23:31:14.158812 27186 layer_factory.hpp:77] Creating layer data_data_0_split
I0417 23:31:14.158825 27186 net.cpp:100] Creating Layer data_data_0_split
I0417 23:31:14.158833 27186 net.cpp:434] data_data_0_split <- data
I0417 23:31:14.158839 27186 net.cpp:408] data_data_0_split -> data_data_0_split_0
I0417 23:31:14.158849 27186 net.cpp:408] data_data_0_split -> data_data_0_split_1
I0417 23:31:14.158884 27186 net.cpp:150] Setting up data_data_0_split
I0417 23:31:14.158897 27186 net.cpp:157] Top shape: 1 3 768 112 112 (28901376)
I0417 23:31:14.158905 27186 net.cpp:157] Top shape: 1 3 768 112 112 (28901376)
I0417 23:31:14.158910 27186 net.cpp:165] Memory required for data: 346816916
I0417 23:31:14.158915 27186 layer_factory.hpp:77] Creating layer gt_boxes_data_1_split
I0417 23:31:14.158923 27186 net.cpp:100] Creating Layer gt_boxes_data_1_split
I0417 23:31:14.158927 27186 net.cpp:434] gt_boxes_data_1_split <- gt_boxes
I0417 23:31:14.158932 27186 net.cpp:408] gt_boxes_data_1_split -> gt_boxes_data_1_split_0
I0417 23:31:14.158937 27186 net.cpp:408] gt_boxes_data_1_split -> gt_boxes_data_1_split_1
I0417 23:31:14.158970 27186 net.cpp:150] Setting up gt_boxes_data_1_split
I0417 23:31:14.158983 27186 net.cpp:157] Top shape: 1 101 (101)
I0417 23:31:14.158988 27186 net.cpp:157] Top shape: 1 101 (101)
I0417 23:31:14.158993 27186 net.cpp:165] Memory required for data: 346817724
I0417 23:31:14.158996 27186 layer_factory.hpp:77] Creating layer conv1a
I0417 23:31:14.159014 27186 net.cpp:100] Creating Layer conv1a
I0417 23:31:14.159024 27186 net.cpp:434] conv1a <- data_data_0_split_0
I0417 23:31:14.159036 27186 net.cpp:408] conv1a -> conv1a
I0417 23:31:14.444136 27186 net.cpp:150] Setting up conv1a
I0417 23:31:14.444167 27186 net.cpp:157] Top shape: 1 64 768 112 112 (616562688)
I0417 23:31:14.444172 27186 net.cpp:165] Memory required for data: 2813068476
I0417 23:31:14.444192 27186 layer_factory.hpp:77] Creating layer relu1a
I0417 23:31:14.444206 27186 net.cpp:100] Creating Layer relu1a
I0417 23:31:14.444216 27186 net.cpp:434] relu1a <- conv1a
I0417 23:31:14.444226 27186 net.cpp:395] relu1a -> conv1a (in-place)
I0417 23:31:14.444706 27186 net.cpp:150] Setting up relu1a
I0417 23:31:14.444721 27186 net.cpp:157] Top shape: 1 64 768 112 112 (616562688)
I0417 23:31:14.444725 27186 net.cpp:165] Memory required for data: 5279319228
I0417 23:31:14.444730 27186 layer_factory.hpp:77] Creating layer pool1
I0417 23:31:14.444741 27186 net.cpp:100] Creating Layer pool1
I0417 23:31:14.444749 27186 net.cpp:434] pool1 <- conv1a
I0417 23:31:14.444761 27186 net.cpp:408] pool1 -> pool1
I0417 23:31:14.445658 27186 net.cpp:150] Setting up pool1
I0417 23:31:14.445670 27186 net.cpp:157] Top shape: 1 64 768 56 56 (154140672)
I0417 23:31:14.445674 27186 net.cpp:165] Memory required for data: 5895881916
I0417 23:31:14.445679 27186 layer_factory.hpp:77] Creating layer conv2a
I0417 23:31:14.445690 27186 net.cpp:100] Creating Layer conv2a
I0417 23:31:14.445695 27186 net.cpp:434] conv2a <- pool1
I0417 23:31:14.445703 27186 net.cpp:408] conv2a -> conv2a
I0417 23:31:14.458708 27186 net.cpp:150] Setting up conv2a
I0417 23:31:14.458729 27186 net.cpp:157] Top shape: 1 128 768 56 56 (308281344)
I0417 23:31:14.458734 27186 net.cpp:165] Memory required for data: 7129007292
I0417 23:31:14.458745 27186 layer_factory.hpp:77] Creating layer relu2a
I0417 23:31:14.458753 27186 net.cpp:100] Creating Layer relu2a
I0417 23:31:14.458758 27186 net.cpp:434] relu2a <- conv2a
I0417 23:31:14.458778 27186 net.cpp:395] relu2a -> conv2a (in-place)
I0417 23:31:14.459172 27186 net.cpp:150] Setting up relu2a
I0417 23:31:14.459194 27186 net.cpp:157] Top shape: 1 128 768 56 56 (308281344)
I0417 23:31:14.459199 27186 net.cpp:165] Memory required for data: 8362132668
I0417 23:31:14.459204 27186 layer_factory.hpp:77] Creating layer pool2
I0417 23:31:14.459215 27186 net.cpp:100] Creating Layer pool2
I0417 23:31:14.459220 27186 net.cpp:434] pool2 <- conv2a
I0417 23:31:14.459228 27186 net.cpp:408] pool2 -> pool2
I0417 23:31:14.460022 27186 net.cpp:150] Setting up pool2
I0417 23:31:14.460034 27186 net.cpp:157] Top shape: 1 128 384 28 28 (38535168)
I0417 23:31:14.460039 27186 net.cpp:165] Memory required for data: 8516273340
I0417 23:31:14.460043 27186 layer_factory.hpp:77] Creating layer conv3a
I0417 23:31:14.460055 27186 net.cpp:100] Creating Layer conv3a
I0417 23:31:14.460060 27186 net.cpp:434] conv3a <- pool2
I0417 23:31:14.460067 27186 net.cpp:408] conv3a -> conv3a
I0417 23:31:14.486245 27186 net.cpp:150] Setting up conv3a
I0417 23:31:14.486274 27186 net.cpp:157] Top shape: 1 256 384 28 28 (77070336)
I0417 23:31:14.486279 27186 net.cpp:165] Memory required for data: 8824554684
I0417 23:31:14.486290 27186 layer_factory.hpp:77] Creating layer relu3a
I0417 23:31:14.486299 27186 net.cpp:100] Creating Layer relu3a
I0417 23:31:14.486307 27186 net.cpp:434] relu3a <- conv3a
I0417 23:31:14.486316 27186 net.cpp:395] relu3a -> conv3a (in-place)
I0417 23:31:14.486670 27186 net.cpp:150] Setting up relu3a
I0417 23:31:14.486693 27186 net.cpp:157] Top shape: 1 256 384 28 28 (77070336)
I0417 23:31:14.486699 27186 net.cpp:165] Memory required for data: 9132836028
I0417 23:31:14.486704 27186 layer_factory.hpp:77] Creating layer conv3b
I0417 23:31:14.486714 27186 net.cpp:100] Creating Layer conv3b
I0417 23:31:14.486729 27186 net.cpp:434] conv3b <- conv3a
I0417 23:31:14.486738 27186 net.cpp:408] conv3b -> conv3b
I0417 23:31:14.537619 27186 net.cpp:150] Setting up conv3b
I0417 23:31:14.537645 27186 net.cpp:157] Top shape: 1 256 384 28 28 (77070336)
I0417 23:31:14.537649 27186 net.cpp:165] Memory required for data: 9441117372
I0417 23:31:14.537660 27186 layer_factory.hpp:77] Creating layer relu3b
I0417 23:31:14.537672 27186 net.cpp:100] Creating Layer relu3b
I0417 23:31:14.537678 27186 net.cpp:434] relu3b <- conv3b
I0417 23:31:14.537685 27186 net.cpp:395] relu3b -> conv3b (in-place)
I0417 23:31:14.538130 27186 net.cpp:150] Setting up relu3b
I0417 23:31:14.538144 27186 net.cpp:157] Top shape: 1 256 384 28 28 (77070336)
I0417 23:31:14.538148 27186 net.cpp:165] Memory required for data: 9749398716
I0417 23:31:14.538153 27186 layer_factory.hpp:77] Creating layer pool3
I0417 23:31:14.538161 27186 net.cpp:100] Creating Layer pool3
I0417 23:31:14.538166 27186 net.cpp:434] pool3 <- conv3b
I0417 23:31:14.538172 27186 net.cpp:408] pool3 -> pool3
I0417 23:31:14.539453 27186 net.cpp:150] Setting up pool3
I0417 23:31:14.539466 27186 net.cpp:157] Top shape: 1 256 192 14 14 (9633792)
I0417 23:31:14.539470 27186 net.cpp:165] Memory required for data: 9787933884
I0417 23:31:14.539475 27186 layer_factory.hpp:77] Creating layer conv4a
I0417 23:31:14.539485 27186 net.cpp:100] Creating Layer conv4a
I0417 23:31:14.539490 27186 net.cpp:434] conv4a <- pool3
I0417 23:31:14.539496 27186 net.cpp:408] conv4a -> conv4a
I0417 23:31:14.644023 27186 net.cpp:150] Setting up conv4a
I0417 23:31:14.644049 27186 net.cpp:157] Top shape: 1 512 192 14 14 (19267584)
I0417 23:31:14.644055 27186 net.cpp:165] Memory required for data: 9865004220
I0417 23:31:14.644070 27186 layer_factory.hpp:77] Creating layer relu4a
I0417 23:31:14.644081 27186 net.cpp:100] Creating Layer relu4a
I0417 23:31:14.644089 27186 net.cpp:434] relu4a <- conv4a
I0417 23:31:14.644096 27186 net.cpp:395] relu4a -> conv4a (in-place)
I0417 23:31:14.644618 27186 net.cpp:150] Setting up relu4a
I0417 23:31:14.644630 27186 net.cpp:157] Top shape: 1 512 192 14 14 (19267584)
I0417 23:31:14.644635 27186 net.cpp:165] Memory required for data: 9942074556
I0417 23:31:14.644640 27186 layer_factory.hpp:77] Creating layer conv4b
I0417 23:31:14.644654 27186 net.cpp:100] Creating Layer conv4b
I0417 23:31:14.644660 27186 net.cpp:434] conv4b <- conv4a
I0417 23:31:14.644667 27186 net.cpp:408] conv4b -> conv4b
I0417 23:31:14.836848 27186 net.cpp:150] Setting up conv4b
I0417 23:31:14.836875 27186 net.cpp:157] Top shape: 1 512 192 14 14 (19267584)
I0417 23:31:14.836880 27186 net.cpp:165] Memory required for data: 10019144892
I0417 23:31:14.836890 27186 layer_factory.hpp:77] Creating layer relu4b
I0417 23:31:14.836899 27186 net.cpp:100] Creating Layer relu4b
I0417 23:31:14.836905 27186 net.cpp:434] relu4b <- conv4b
I0417 23:31:14.836910 27186 net.cpp:395] relu4b -> conv4b (in-place)
I0417 23:31:14.837069 27186 net.cpp:150] Setting up relu4b
I0417 23:31:14.837080 27186 net.cpp:157] Top shape: 1 512 192 14 14 (19267584)
I0417 23:31:14.837083 27186 net.cpp:165] Memory required for data: 10096215228
I0417 23:31:14.837088 27186 layer_factory.hpp:77] Creating layer pool4
I0417 23:31:14.837096 27186 net.cpp:100] Creating Layer pool4
I0417 23:31:14.837105 27186 net.cpp:434] pool4 <- conv4b
I0417 23:31:14.837110 27186 net.cpp:408] pool4 -> pool4
I0417 23:31:14.837469 27186 net.cpp:150] Setting up pool4
I0417 23:31:14.837482 27186 net.cpp:157] Top shape: 1 512 96 7 7 (2408448)
I0417 23:31:14.837487 27186 net.cpp:165] Memory required for data: 10105849020
I0417 23:31:14.837492 27186 layer_factory.hpp:77] Creating layer conv5a
I0417 23:31:14.837502 27186 net.cpp:100] Creating Layer conv5a
I0417 23:31:14.837509 27186 net.cpp:434] conv5a <- pool4
I0417 23:31:14.837517 27186 net.cpp:408] conv5a -> conv5a
I0417 23:31:15.026509 27186 net.cpp:150] Setting up conv5a
I0417 23:31:15.026537 27186 net.cpp:157] Top shape: 1 512 96 7 7 (2408448)
I0417 23:31:15.026542 27186 net.cpp:165] Memory required for data: 10115482812
I0417 23:31:15.026553 27186 layer_factory.hpp:77] Creating layer relu5a
I0417 23:31:15.026563 27186 net.cpp:100] Creating Layer relu5a
I0417 23:31:15.026568 27186 net.cpp:434] relu5a <- conv5a
I0417 23:31:15.026577 27186 net.cpp:395] relu5a -> conv5a (in-place)
I0417 23:31:15.027961 27186 net.cpp:150] Setting up relu5a
I0417 23:31:15.027976 27186 net.cpp:157] Top shape: 1 512 96 7 7 (2408448)
I0417 23:31:15.027981 27186 net.cpp:165] Memory required for data: 10125116604
I0417 23:31:15.027984 27186 layer_factory.hpp:77] Creating layer conv5b
I0417 23:31:15.027995 27186 net.cpp:100] Creating Layer conv5b
I0417 23:31:15.028000 27186 net.cpp:434] conv5b <- conv5a
I0417 23:31:15.028007 27186 net.cpp:408] conv5b -> conv5b
I0417 23:31:15.218189 27186 net.cpp:150] Setting up conv5b
I0417 23:31:15.218214 27186 net.cpp:157] Top shape: 1 512 96 7 7 (2408448)
I0417 23:31:15.218219 27186 net.cpp:165] Memory required for data: 10134750396
I0417 23:31:15.218230 27186 layer_factory.hpp:77] Creating layer relu5b
I0417 23:31:15.218240 27186 net.cpp:100] Creating Layer relu5b
I0417 23:31:15.218245 27186 net.cpp:434] relu5b <- conv5b
I0417 23:31:15.218258 27186 net.cpp:395] relu5b -> conv5b (in-place)
I0417 23:31:15.219671 27186 net.cpp:150] Setting up relu5b
I0417 23:31:15.219683 27186 net.cpp:157] Top shape: 1 512 96 7 7 (2408448)
I0417 23:31:15.219688 27186 net.cpp:165] Memory required for data: 10144384188
I0417 23:31:15.219692 27186 layer_factory.hpp:77] Creating layer conv5b_relu5b_0_split
I0417 23:31:15.219699 27186 net.cpp:100] Creating Layer conv5b_relu5b_0_split
I0417 23:31:15.219703 27186 net.cpp:434] conv5b_relu5b_0_split <- conv5b
I0417 23:31:15.219709 27186 net.cpp:408] conv5b_relu5b_0_split -> conv5b_relu5b_0_split_0
I0417 23:31:15.219717 27186 net.cpp:408] conv5b_relu5b_0_split -> conv5b_relu5b_0_split_1
I0417 23:31:15.219755 27186 net.cpp:150] Setting up conv5b_relu5b_0_split
I0417 23:31:15.219764 27186 net.cpp:157] Top shape: 1 512 96 7 7 (2408448)
I0417 23:31:15.219771 27186 net.cpp:157] Top shape: 1 512 96 7 7 (2408448)
I0417 23:31:15.219777 27186 net.cpp:165] Memory required for data: 10163651772
I0417 23:31:15.219784 27186 layer_factory.hpp:77] Creating layer rpn_conv/3x3
I0417 23:31:15.219799 27186 net.cpp:100] Creating Layer rpn_conv/3x3
I0417 23:31:15.219807 27186 net.cpp:434] rpn_conv/3x3 <- conv5b_relu5b_0_split_0
I0417 23:31:15.219816 27186 net.cpp:408] rpn_conv/3x3 -> rpn/output
I0417 23:31:15.410451 27186 net.cpp:150] Setting up rpn_conv/3x3
I0417 23:31:15.410476 27186 net.cpp:157] Top shape: 1 512 96 4 4 (786432)
I0417 23:31:15.410481 27186 net.cpp:165] Memory required for data: 10166797500
I0417 23:31:15.410495 27186 layer_factory.hpp:77] Creating layer rpn_relu/3x3
I0417 23:31:15.410506 27186 net.cpp:100] Creating Layer rpn_relu/3x3
I0417 23:31:15.410511 27186 net.cpp:434] rpn_relu/3x3 <- rpn/output
I0417 23:31:15.410517 27186 net.cpp:395] rpn_relu/3x3 -> rpn/output (in-place)
I0417 23:31:15.411280 27186 net.cpp:150] Setting up rpn_relu/3x3
I0417 23:31:15.411293 27186 net.cpp:157] Top shape: 1 512 96 4 4 (786432)
I0417 23:31:15.411298 27186 net.cpp:165] Memory required for data: 10169943228
I0417 23:31:15.411303 27186 layer_factory.hpp:77] Creating layer rpn_conv/3x3_2
I0417 23:31:15.411314 27186 net.cpp:100] Creating Layer rpn_conv/3x3_2
I0417 23:31:15.411319 27186 net.cpp:434] rpn_conv/3x3_2 <- rpn/output
I0417 23:31:15.411325 27186 net.cpp:408] rpn_conv/3x3_2 -> rpn/output_2
I0417 23:31:15.601606 27186 net.cpp:150] Setting up rpn_conv/3x3_2
I0417 23:31:15.601634 27186 net.cpp:157] Top shape: 1 512 96 2 2 (196608)
I0417 23:31:15.601639 27186 net.cpp:165] Memory required for data: 10170729660
I0417 23:31:15.601649 27186 layer_factory.hpp:77] Creating layer rpn_relu/3x3_2
I0417 23:31:15.601660 27186 net.cpp:100] Creating Layer rpn_relu/3x3_2
I0417 23:31:15.601665 27186 net.cpp:434] rpn_relu/3x3_2 <- rpn/output_2
I0417 23:31:15.601671 27186 net.cpp:395] rpn_relu/3x3_2 -> rpn/output_2 (in-place)
I0417 23:31:15.602015 27186 net.cpp:150] Setting up rpn_relu/3x3_2
I0417 23:31:15.602027 27186 net.cpp:157] Top shape: 1 512 96 2 2 (196608)
I0417 23:31:15.602031 27186 net.cpp:165] Memory required for data: 10171516092
I0417 23:31:15.602036 27186 layer_factory.hpp:77] Creating layer rpn/output_pool
I0417 23:31:15.602046 27186 net.cpp:100] Creating Layer rpn/output_pool
I0417 23:31:15.602049 27186 net.cpp:434] rpn/output_pool <- rpn/output_2
I0417 23:31:15.602054 27186 net.cpp:408] rpn/output_pool -> rpn/output_pool
I0417 23:31:15.602241 27186 net.cpp:150] Setting up rpn/output_pool
I0417 23:31:15.602254 27186 net.cpp:157] Top shape: 1 512 96 1 1 (49152)
I0417 23:31:15.602258 27186 net.cpp:165] Memory required for data: 10171712700
I0417 23:31:15.602262 27186 layer_factory.hpp:77] Creating layer rpn/output_pool_rpn/output_pool_0_split
I0417 23:31:15.602269 27186 net.cpp:100] Creating Layer rpn/output_pool_rpn/output_pool_0_split
I0417 23:31:15.602273 27186 net.cpp:434] rpn/output_pool_rpn/output_pool_0_split <- rpn/output_pool
I0417 23:31:15.602279 27186 net.cpp:408] rpn/output_pool_rpn/output_pool_0_split -> rpn/output_pool_rpn/output_pool_0_split_0
I0417 23:31:15.602285 27186 net.cpp:408] rpn/output_pool_rpn/output_pool_0_split -> rpn/output_pool_rpn/output_pool_0_split_1
I0417 23:31:15.602324 27186 net.cpp:150] Setting up rpn/output_pool_rpn/output_pool_0_split
I0417 23:31:15.602336 27186 net.cpp:157] Top shape: 1 512 96 1 1 (49152)
I0417 23:31:15.602344 27186 net.cpp:157] Top shape: 1 512 96 1 1 (49152)
I0417 23:31:15.602349 27186 net.cpp:165] Memory required for data: 10172105916
I0417 23:31:15.602352 27186 layer_factory.hpp:77] Creating layer rpn_cls_score
I0417 23:31:15.602362 27186 net.cpp:100] Creating Layer rpn_cls_score
I0417 23:31:15.602371 27186 net.cpp:434] rpn_cls_score <- rpn/output_pool_rpn/output_pool_0_split_0
I0417 23:31:15.602380 27186 net.cpp:408] rpn_cls_score -> rpn_cls_score
I0417 23:31:15.606576 27186 net.cpp:150] Setting up rpn_cls_score
I0417 23:31:15.606600 27186 net.cpp:157] Top shape: 1 74 96 1 1 (7104)
I0417 23:31:15.606606 27186 net.cpp:165] Memory required for data: 10172134332
I0417 23:31:15.606612 27186 layer_factory.hpp:77] Creating layer rpn_cls_score_rpn_cls_score_0_split
I0417 23:31:15.606619 27186 net.cpp:100] Creating Layer rpn_cls_score_rpn_cls_score_0_split
I0417 23:31:15.606623 27186 net.cpp:434] rpn_cls_score_rpn_cls_score_0_split <- rpn_cls_score
I0417 23:31:15.606629 27186 net.cpp:408] rpn_cls_score_rpn_cls_score_0_split -> rpn_cls_score_rpn_cls_score_0_split_0
I0417 23:31:15.606637 27186 net.cpp:408] rpn_cls_score_rpn_cls_score_0_split -> rpn_cls_score_rpn_cls_score_0_split_1
I0417 23:31:15.606683 27186 net.cpp:150] Setting up rpn_cls_score_rpn_cls_score_0_split
I0417 23:31:15.606698 27186 net.cpp:157] Top shape: 1 74 96 1 1 (7104)
I0417 23:31:15.606706 27186 net.cpp:157] Top shape: 1 74 96 1 1 (7104)
I0417 23:31:15.606714 27186 net.cpp:165] Memory required for data: 10172191164
I0417 23:31:15.606719 27186 layer_factory.hpp:77] Creating layer rpn_twin_pred
I0417 23:31:15.606730 27186 net.cpp:100] Creating Layer rpn_twin_pred
I0417 23:31:15.606739 27186 net.cpp:434] rpn_twin_pred <- rpn/output_pool_rpn/output_pool_0_split_1
I0417 23:31:15.606750 27186 net.cpp:408] rpn_twin_pred -> rpn_twin_pred
I0417 23:31:15.609338 27186 net.cpp:150] Setting up rpn_twin_pred
I0417 23:31:15.609354 27186 net.cpp:157] Top shape: 1 74 96 1 1 (7104)
I0417 23:31:15.609359 27186 net.cpp:165] Memory required for data: 10172219580
I0417 23:31:15.609365 27186 layer_factory.hpp:77] Creating layer rpn_twin_pred_rpn_twin_pred_0_split
I0417 23:31:15.609372 27186 net.cpp:100] Creating Layer rpn_twin_pred_rpn_twin_pred_0_split
I0417 23:31:15.609376 27186 net.cpp:434] rpn_twin_pred_rpn_twin_pred_0_split <- rpn_twin_pred
I0417 23:31:15.609382 27186 net.cpp:408] rpn_twin_pred_rpn_twin_pred_0_split -> rpn_twin_pred_rpn_twin_pred_0_split_0
I0417 23:31:15.609390 27186 net.cpp:408] rpn_twin_pred_rpn_twin_pred_0_split -> rpn_twin_pred_rpn_twin_pred_0_split_1
I0417 23:31:15.609434 27186 net.cpp:150] Setting up rpn_twin_pred_rpn_twin_pred_0_split
I0417 23:31:15.609447 27186 net.cpp:157] Top shape: 1 74 96 1 1 (7104)
I0417 23:31:15.609452 27186 net.cpp:157] Top shape: 1 74 96 1 1 (7104)
I0417 23:31:15.609455 27186 net.cpp:165] Memory required for data: 10172276412
I0417 23:31:15.609460 27186 layer_factory.hpp:77] Creating layer rpn_cls_score_reshape
I0417 23:31:15.609472 27186 net.cpp:100] Creating Layer rpn_cls_score_reshape
I0417 23:31:15.609480 27186 net.cpp:434] rpn_cls_score_reshape <- rpn_cls_score_rpn_cls_score_0_split_0
I0417 23:31:15.609490 27186 net.cpp:408] rpn_cls_score_reshape -> rpn_cls_score_reshape
I0417 23:31:15.609526 27186 net.cpp:150] Setting up rpn_cls_score_reshape
I0417 23:31:15.609536 27186 net.cpp:157] Top shape: 1 2 3552 1 1 (7104)
I0417 23:31:15.609541 27186 net.cpp:165] Memory required for data: 10172304828
I0417 23:31:15.609545 27186 layer_factory.hpp:77] Creating layer rpn_cls_score_reshape_rpn_cls_score_reshape_0_split
I0417 23:31:15.609552 27186 net.cpp:100] Creating Layer rpn_cls_score_reshape_rpn_cls_score_reshape_0_split
I0417 23:31:15.609557 27186 net.cpp:434] rpn_cls_score_reshape_rpn_cls_score_reshape_0_split <- rpn_cls_score_reshape
I0417 23:31:15.609562 27186 net.cpp:408] rpn_cls_score_reshape_rpn_cls_score_reshape_0_split -> rpn_cls_score_reshape_rpn_cls_score_reshape_0_split_0
I0417 23:31:15.609571 27186 net.cpp:408] rpn_cls_score_reshape_rpn_cls_score_reshape_0_split -> rpn_cls_score_reshape_rpn_cls_score_reshape_0_split_1
I0417 23:31:15.609578 27186 net.cpp:408] rpn_cls_score_reshape_rpn_cls_score_reshape_0_split -> rpn_cls_score_reshape_rpn_cls_score_reshape_0_split_2
I0417 23:31:15.609642 27186 net.cpp:150] Setting up rpn_cls_score_reshape_rpn_cls_score_reshape_0_split
I0417 23:31:15.609653 27186 net.cpp:157] Top shape: 1 2 3552 1 1 (7104)
I0417 23:31:15.609661 27186 net.cpp:157] Top shape: 1 2 3552 1 1 (7104)
I0417 23:31:15.609666 27186 net.cpp:157] Top shape: 1 2 3552 1 1 (7104)
I0417 23:31:15.609669 27186 net.cpp:165] Memory required for data: 10172390076
I0417 23:31:15.609673 27186 layer_factory.hpp:77] Creating layer rpn-data
I0417 23:31:15.611636 27186 net.cpp:100] Creating Layer rpn-data
I0417 23:31:15.611650 27186 net.cpp:434] rpn-data <- rpn_cls_score_rpn_cls_score_0_split_1
I0417 23:31:15.611657 27186 net.cpp:434] rpn-data <- gt_boxes_data_1_split_0
I0417 23:31:15.611662 27186 net.cpp:434] rpn-data <- data_data_0_split_1
I0417 23:31:15.611668 27186 net.cpp:408] rpn-data -> rpn_labels
I0417 23:31:15.611675 27186 net.cpp:408] rpn-data -> rpn_twin_targets
I0417 23:31:15.611682 27186 net.cpp:408] rpn-data -> rpn_twin_inside_weights
I0417 23:31:15.611688 27186 net.cpp:408] rpn-data -> rpn_twin_outside_weights
('labels---', <caffe._caffe.Blob object at 0x7fe5b2bb1b40>)
I0417 23:31:15.613922 27186 net.cpp:150] Setting up rpn-data
I0417 23:31:15.613936 27186 net.cpp:157] Top shape: 1 1 3552 1 1 (3552)
I0417 23:31:15.613942 27186 net.cpp:157] Top shape: 1 74 96 1 1 (7104)
I0417 23:31:15.613946 27186 net.cpp:157] Top shape: 1 74 96 1 1 (7104)
I0417 23:31:15.613950 27186 net.cpp:157] Top shape: 1 74 96 1 1 (7104)
I0417 23:31:15.613955 27186 net.cpp:165] Memory required for data: 10172489532
I0417 23:31:15.613958 27186 layer_factory.hpp:77] Creating layer rpn_labels_rpn-data_0_split
I0417 23:31:15.613965 27186 net.cpp:100] Creating Layer rpn_labels_rpn-data_0_split
I0417 23:31:15.613970 27186 net.cpp:434] rpn_labels_rpn-data_0_split <- rpn_labels
I0417 23:31:15.613976 27186 net.cpp:408] rpn_labels_rpn-data_0_split -> rpn_labels_rpn-data_0_split_0
I0417 23:31:15.613982 27186 net.cpp:408] rpn_labels_rpn-data_0_split -> rpn_labels_rpn-data_0_split_1
I0417 23:31:15.614024 27186 net.cpp:150] Setting up rpn_labels_rpn-data_0_split
I0417 23:31:15.614034 27186 net.cpp:157] Top shape: 1 1 3552 1 1 (3552)
I0417 23:31:15.614038 27186 net.cpp:157] Top shape: 1 1 3552 1 1 (3552)
I0417 23:31:15.614042 27186 net.cpp:165] Memory required for data: 10172517948
I0417 23:31:15.614046 27186 layer_factory.hpp:77] Creating layer rpn_loss_cls
I0417 23:31:15.614055 27186 net.cpp:100] Creating Layer rpn_loss_cls
I0417 23:31:15.614059 27186 net.cpp:434] rpn_loss_cls <- rpn_cls_score_reshape_rpn_cls_score_reshape_0_split_0
I0417 23:31:15.614065 27186 net.cpp:434] rpn_loss_cls <- rpn_labels_rpn-data_0_split_0
…
I0417 23:31:15.614744 27186 layer_factory.hpp:77] Creating layer rpn_accuarcy
I0417 23:31:15.614756 27186 net.cpp:100] Creating Layer rpn_accuarcy
I0417 23:31:15.614778 27186 net.cpp:434] rpn_accuarcy <- rpn_cls_score_reshape_rpn_cls_score_reshape_0_split_1
I0417 23:31:15.614786 27186 net.cpp:434] rpn_accuarcy <- rpn_labels_rpn-data_0_split_1
I0417 23:31:15.614792 27186 net.cpp:408] rpn_accuarcy -> rpn_accuarcy
I0417 23:31:15.614800 27186 net.cpp:408] rpn_accuarcy -> rpn_accuarcy_class
I0417 23:31:15.614840 27186 net.cpp:150] Setting up rpn_accuarcy
I0417 23:31:15.614848 27186 net.cpp:157] Top shape: (1)
I0417 23:31:15.614853 27186 net.cpp:157] Top shape: 2 (2)
I0417 23:31:15.614856 27186 net.cpp:165] Memory required for data: 10172517968
I0417 23:31:15.614861 27186 layer_factory.hpp:77] Creating layer rpn_cls_prob
I0417 23:31:15.614867 27186 net.cpp:100] Creating Layer rpn_cls_prob
I0417 23:31:15.614871 27186 net.cpp:434] rpn_cls_prob <- rpn_cls_score_reshape_rpn_cls_score_reshape_0_split_2
I0417 23:31:15.614877 27186 net.cpp:408] rpn_cls_prob -> rpn_cls_prob
I0417 23:31:15.615540 27186 net.cpp:150] Setting up rpn_cls_prob
I0417 23:31:15.615551 27186 net.cpp:157] Top shape: 1 2 3552 1 1 (7104)
I0417 23:31:15.615556 27186 net.cpp:165] Memory required for data: 10172546384
I0417 23:31:15.615559 27186 layer_factory.hpp:77] Creating layer rpn_cls_prob_reshape
I0417 23:31:15.615566 27186 net.cpp:100] Creating Layer rpn_cls_prob_reshape
I0417 23:31:15.615571 27186 net.cpp:434] rpn_cls_prob_reshape <- rpn_cls_prob
I0417 23:31:15.615576 27186 net.cpp:408] rpn_cls_prob_reshape -> rpn_cls_prob_reshape
I0417 23:31:15.615600 27186 net.cpp:150] Setting up rpn_cls_prob_reshape
I0417 23:31:15.615607 27186 net.cpp:157] Top shape: 1 74 96 1 1 (7104)
I0417 23:31:15.615610 27186 net.cpp:165] Memory required for data: 10172574800
I0417 23:31:15.615614 27186 layer_factory.hpp:77] Creating layer proposal
I0417 23:31:15.616138 27186 net.cpp:100] Creating Layer proposal
I0417 23:31:15.616152 27186 net.cpp:434] proposal <- rpn_cls_prob_reshape
I0417 23:31:15.616158 27186 net.cpp:434] proposal <- rpn_twin_pred_rpn_twin_pred_0_split_1
I0417 23:31:15.616163 27186 net.cpp:408] proposal -> rpn_rois
I0417 23:31:15.618625 27186 net.cpp:150] Setting up proposal
I0417 23:31:15.618650 27186 net.cpp:157] Top shape: 1 3 (3)
I0417 23:31:15.618655 27186 net.cpp:165] Memory required for data: 10172574812
I0417 23:31:15.618660 27186 layer_factory.hpp:77] Creating layer roi-data
I0417 23:31:15.618809 27186 net.cpp:100] Creating Layer roi-data
I0417 23:31:15.618821 27186 net.cpp:434] roi-data <- rpn_rois
I0417 23:31:15.618829 27186 net.cpp:434] roi-data <- gt_boxes_data_1_split_1
I0417 23:31:15.618834 27186 net.cpp:408] roi-data -> rois
I0417 23:31:15.618842 27186 net.cpp:408] roi-data -> labels
I0417 23:31:15.618849 27186 net.cpp:408] roi-data -> twin_targets
I0417 23:31:15.618855 27186 net.cpp:408] roi-data -> twin_inside_weights
I0417 23:31:15.618861 27186 net.cpp:408] roi-data -> twin_outside_weights
I0417 23:31:15.619165 27186 net.cpp:150] Setting up roi-data
I0417 23:31:15.619179 27186 net.cpp:157] Top shape: 1 3 (3)
I0417 23:31:15.619184 27186 net.cpp:157] Top shape: 1 1 (1)
I0417 23:31:15.619189 27186 net.cpp:157] Top shape: 1 402 (402)
I0417 23:31:15.619194 27186 net.cpp:157] Top shape: 1 402 (402)
I0417 23:31:15.619197 27186 net.cpp:157] Top shape: 1 402 (402)
I0417 23:31:15.619201 27186 net.cpp:165] Memory required for data: 10172579652
I0417 23:31:15.619205 27186 layer_factory.hpp:77] Creating layer labels_roi-data_1_split
I0417 23:31:15.619211 27186 net.cpp:100] Creating Layer labels_roi-data_1_split
I0417 23:31:15.619216 27186 net.cpp:434] labels_roi-data_1_split <- labels
I0417 23:31:15.619222 27186 net.cpp:408] labels_roi-data_1_split -> labels_roi-data_1_split_0
I0417 23:31:15.619230 27186 net.cpp:408] labels_roi-data_1_split -> labels_roi-data_1_split_1
I0417 23:31:15.619261 27186 net.cpp:150] Setting up labels_roi-data_1_split
I0417 23:31:15.619269 27186 net.cpp:157] Top shape: 1 1 (1)
I0417 23:31:15.619274 27186 net.cpp:157] Top shape: 1 1 (1)
I0417 23:31:15.619278 27186 net.cpp:165] Memory required for data: 10172579660
I0417 23:31:15.619282 27186 layer_factory.hpp:77] Creating layer roi_pool5
I0417 23:31:15.619292 27186 net.cpp:100] Creating Layer roi_pool5
I0417 23:31:15.619299 27186 net.cpp:434] roi_pool5 <- conv5b_relu5b_0_split_1
I0417 23:31:15.619305 27186 net.cpp:434] roi_pool5 <- rois
I0417 23:31:15.619310 27186 net.cpp:408] roi_pool5 -> pool5
I0417 23:31:15.619318 27186 roi_pooling_layer.cpp:34] Temporal scale: 0.125
I0417 23:31:15.619325 27186 roi_pooling_layer.cpp:35] Spatial scale: 0.0625
I0417 23:31:15.619359 27186 net.cpp:150] Setting up roi_pool5
I0417 23:31:15.619369 27186 net.cpp:157] Top shape: 1 512 1 4 4 (8192)
I0417 23:31:15.619374 27186 net.cpp:165] Memory required for data: 10172612428
I0417 23:31:15.619379 27186 layer_factory.hpp:77] Creating layer fc6
I0417 23:31:15.619387 27186 net.cpp:100] Creating Layer fc6
I0417 23:31:15.619395 27186 net.cpp:434] fc6 <- pool5
I0417 23:31:15.619400 27186 net.cpp:408] fc6 -> fc6
I0417 23:31:16.505939 27186 net.cpp:150] Setting up fc6
I0417 23:31:16.505964 27186 net.cpp:157] Top shape: 1 4096 (4096)
I0417 23:31:16.505969 27186 net.cpp:165] Memory required for data: 10172628812
I0417 23:31:16.505980 27186 layer_factory.hpp:77] Creating layer relu6
I0417 23:31:16.505988 27186 net.cpp:100] Creating Layer relu6
I0417 23:31:16.505993 27186 net.cpp:434] relu6 <- fc6
I0417 23:31:16.506000 27186 net.cpp:395] relu6 -> fc6 (in-place)
I0417 23:31:16.506460 27186 net.cpp:150] Setting up relu6
I0417 23:31:16.506474 27186 net.cpp:157] Top shape: 1 4096 (4096)
I0417 23:31:16.506479 27186 net.cpp:165] Memory required for data: 10172645196
I0417 23:31:16.506484 27186 layer_factory.hpp:77] Creating layer drop6
I0417 23:31:16.506496 27186 net.cpp:100] Creating Layer drop6
I0417 23:31:16.506502 27186 net.cpp:434] drop6 <- fc6
I0417 23:31:16.506510 27186 net.cpp:395] drop6 -> fc6 (in-place)
I0417 23:31:16.506551 27186 net.cpp:150] Setting up drop6
I0417 23:31:16.506561 27186 net.cpp:157] Top shape: 1 4096 (4096)
I0417 23:31:16.506564 27186 net.cpp:165] Memory required for data: 10172661580
I0417 23:31:16.506568 27186 layer_factory.hpp:77] Creating layer fc6_drop6_0_split
I0417 23:31:16.506575 27186 net.cpp:100] Creating Layer fc6_drop6_0_split
I0417 23:31:16.506579 27186 net.cpp:434] fc6_drop6_0_split <- fc6
I0417 23:31:16.506585 27186 net.cpp:408] fc6_drop6_0_split -> fc6_drop6_0_split_0
I0417 23:31:16.506592 27186 net.cpp:408] fc6_drop6_0_split -> fc6_drop6_0_split_1
I0417 23:31:16.506633 27186 net.cpp:150] Setting up fc6_drop6_0_split
I0417 23:31:16.506646 27186 net.cpp:157] Top shape: 1 4096 (4096)
I0417 23:31:16.506654 27186 net.cpp:157] Top shape: 1 4096 (4096)
I0417 23:31:16.506661 27186 net.cpp:165] Memory required for data: 10172694348
I0417 23:31:16.506669 27186 layer_factory.hpp:77] Creating layer cls_score
I0417 23:31:16.506680 27186 net.cpp:100] Creating Layer cls_score
I0417 23:31:16.506690 27186 net.cpp:434] cls_score <- fc6_drop6_0_split_0
I0417 23:31:16.506700 27186 net.cpp:408] cls_score -> cls_score
I0417 23:31:16.528429 27186 net.cpp:150] Setting up cls_score
I0417 23:31:16.528447 27186 net.cpp:157] Top shape: 1 201 (201)
I0417 23:31:16.528452 27186 net.cpp:165] Memory required for data: 10172695152
I0417 23:31:16.528461 27186 layer_factory.hpp:77] Creating layer cls_score_cls_score_0_split
I0417 23:31:16.528470 27186 net.cpp:100] Creating Layer cls_score_cls_score_0_split
I0417 23:31:16.528475 27186 net.cpp:434] cls_score_cls_score_0_split <- cls_score
I0417 23:31:16.528481 27186 net.cpp:408] cls_score_cls_score_0_split -> cls_score_cls_score_0_split_0
I0417 23:31:16.528488 27186 net.cpp:408] cls_score_cls_score_0_split -> cls_score_cls_score_0_split_1
I0417 23:31:16.528522 27186 net.cpp:150] Setting up cls_score_cls_score_0_split
I0417 23:31:16.528532 27186 net.cpp:157] Top shape: 1 201 (201)
I0417 23:31:16.528538 27186 net.cpp:157] Top shape: 1 201 (201)
I0417 23:31:16.528542 27186 net.cpp:165] Memory required for data: 10172696760
I0417 23:31:16.528547 27186 layer_factory.hpp:77] Creating layer twin_pred
I0417 23:31:16.528553 27186 net.cpp:100] Creating Layer twin_pred
I0417 23:31:16.528558 27186 net.cpp:434] twin_pred <- fc6_drop6_0_split_1
I0417 23:31:16.528565 27186 net.cpp:408] twin_pred -> twin_pred
I0417 23:31:16.571749 27186 net.cpp:150] Setting up twin_pred
I0417 23:31:16.571774 27186 net.cpp:157] Top shape: 1 402 (402)
I0417 23:31:16.571777 27186 net.cpp:165] Memory required for data: 10172698368
I0417 23:31:16.571789 27186 layer_factory.hpp:77] Creating layer loss_cls
I0417 23:31:16.571799 27186 net.cpp:100] Creating Layer loss_cls
I0417 23:31:16.571805 27186 net.cpp:434] loss_cls <- cls_score_cls_score_0_split_0
I0417 23:31:16.571811 27186 net.cpp:434] loss_cls <- labels_roi-data_1_split_0
I0417 23:31:16.571817 27186 net.cpp:408] loss_cls -> loss_cls
…
