…
stepsize: 350000
snapshot: 0
snapshot_prefix: "./experiments/activitynet/snapshot/activitynet"
average_loss: 100
iter_size: 1
I0418 04:31:05.589828 10563 solver.cpp:81] Creating training net from train_net file: ./experiments/activitynet/train.prototxt
I0418 04:31:05.590911 10563 net.cpp:58] Initializing net from parameters: 
name: "activitynet"
state {
  phase: TRAIN
}
layer {
  name: "data"
  type: "Python"
  top: "data"
  top: "gt_boxes"
  python_param {
    module: "roi_data_layer.layer"
    layer: "RoIDataLayer"
    param_str: "\'num_classes\': 100"
  }
}
layer {
  name: "conv1a"
  type: "Convolution"
  bottom: "data"
  top: "conv1a"
  param {
    lr_mult: 0
    decay_mult: 0
  }
  param {
    lr_mult: 0
    decay_mult: 0
  }
  convolution_param {
    num_output: 64
    pad: 1
    pad: 1
    pad: 1
    kernel_size: 3
    kernel_size: 3
    kernel_size: 3
    weight_filler {
      type: "gaussian"
      std: 0.01
    }
    bias_filler {
      type: "constant"
      value: 0
    }
  }
}
layer {
  name: "relu1a"
  type: "ReLU"
  bottom: "conv1a"
  top: "conv1a"
}
layer {
  name: "pool1"
  type: "Pooling"
  bottom: "conv1a"
  top: "pool1"
  pooling_param {
    pool: MAX
    kernel_size: 1
    kernel_size: 2
    kernel_size: 2
    stride: 1
    stride: 2
    stride: 2
  }
}
layer {
  name: "conv2a"
  type: "Convolution"
  bottom: "pool1"
  top: "conv2a"
  param {
    lr_mult: 0
    decay_mult: 0
  }
  param {
    lr_mult: 0
    decay_mult: 0
  }
  convolution_param {
    num_output: 128
    pad: 1
    pad: 1
    pad: 1
    kernel_size: 3
    kernel_size: 3
    kernel_size: 3
    weight_filler {
      type: "gaussian"
      std: 0.01
    }
    bias_filler {
      type: "constant"
      value: 1
    }
  }
}
layer {
  name: "relu2a"
  type: "ReLU"
  bottom: "conv2a"
  top: "conv2a"
}
layer {
  name: "pool2"
  type: "Pooling"
  bottom: "conv2a"
  top: "pool2"
  pooling_param {
    pool: MAX
    kernel_size: 2
    kernel_size: 2
    kernel_size: 2
    stride: 2
    stride: 2
    stride: 2
  }
}
layer {
  name: "conv3a"
  type: "Convolution"
  bottom: "pool2"
  top: "conv3a"
  param {
    lr_mult: 1
    decay_mult: 1
  }
  param {
    lr_mult: 2
    decay_mult: 0
  }
  convolution_param {
    num_output: 256
    pad: 1
    pad: 1
    pad: 1
    kernel_size: 3
    kernel_size: 3
    kernel_size: 3
    weight_filler {
      type: "gaussian"
      std: 0.01
    }
    bias_filler {
      type: "constant"
      value: 1
    }
  }
}
layer {
  name: "relu3a"
  type: "ReLU"
  bottom: "conv3a"
  top: "conv3a"
}
layer {
  name: "conv3b"
  type: "Convolution"
  bottom: "conv3a"
  top: "conv3b"
  param {
    lr_mult: 1
    decay_mult: 1
  }
  param {
    lr_mult: 2
    decay_mult: 0
  }
  convolution_param {
    num_output: 256
    pad: 1
    pad: 1
    pad: 1
    kernel_size: 3
    kernel_size: 3
    kernel_size: 3
    weight_filler {
      type: "gaussian"
      std: 0.01
    }
    bias_filler {
      type: "constant"
      value: 1
    }
  }
}
layer {
  name: "relu3b"
  type: "ReLU"
  bottom: "conv3b"
  top: "conv3b"
}
layer {
  name: "pool3"
  type: "Pooling"
  bottom: "conv3b"
  top: "pool3"
  pooling_param {
    pool: MAX
    kernel_size: 2
    kernel_size: 2
    kernel_size: 2
    stride: 2
    stride: 2
    stride: 2
  }
}
layer {
  name: "conv4a"
  type: "Convolution"
  bottom: "pool3"
  top: "conv4a"
  param {
    lr_mult: 1
    decay_mult: 1
  }
  param {
    lr_mult: 2
    decay_mult: 0
  }
  convolution_param {
    num_output: 512
    pad: 1
    pad: 1
    pad: 1
    kernel_size: 3
    kernel_size: 3
    kernel_size: 3
    weight_filler {
      type: "gaussian"
      std: 0.01
    }
    bias_filler {
      type: "constant"
      value: 1
    }
  }
}
layer {
  name: "relu4a"
  type: "ReLU"
  bottom: "conv4a"
  top: "conv4a"
}
layer {
  name: "conv4b"
  type: "Convolution"
  bottom: "conv4a"
  top: "conv4b"
  param {
    lr_mult: 1
    decay_mult: 1
  }
  param {
    lr_mult: 2
    decay_mult: 0
  }
  convolution_param {
    num_output: 512
    pad: 1
    pad: 1
    pad: 1
    kernel_size: 3
    kernel_size: 3
    kernel_size: 3
    weight_filler {
      type: "gaussian"
      std: 0.01
    }
    bias_filler {
      type: "constant"
      value: 1
    }
  }
}
layer {
  name: "relu4b"
  type: "ReLU"
  bottom: "conv4b"
  top: "conv4b"
}
layer {
  name: "pool4"
  type: "Pooling"
  bottom: "conv4b"
  top: "pool4"
  pooling_param {
    pool: MAX
    kernel_size: 2
    kernel_size: 2
    kernel_size: 2
    stride: 2
    stride: 2
    stride: 2
  }
}
layer {
  name: "conv5a"
  type: "Convolution"
  bottom: "pool4"
  top: "conv5a"
  param {
    lr_mult: 1
    decay_mult: 1
  }
  param {
    lr_mult: 2
    decay_mult: 0
  }
  convolution_param {
    num_output: 512
    pad: 1
    pad: 1
    pad: 1
    kernel_size: 3
    kernel_size: 3
    kernel_size: 3
    weight_filler {
      type: "gaussian"
      std: 0.01
    }
    bias_filler {
      type: "constant"
      value: 1
    }
  }
}
layer {
  name: "relu5a"
  type: "ReLU"
  bottom: "conv5a"
  top: "conv5a"
}
layer {
  name: "conv5b"
  type: "Convolution"
  bottom: "conv5a"
  top: "conv5b"
  param {
    lr_mult: 1
    decay_mult: 1
  }
  param {
    lr_mult: 2
    decay_mult: 0
  }
  convolution_param {
    num_output: 512
    pad: 1
    pad: 1
    pad: 1
    kernel_size: 3
    kernel_size: 3
    kernel_size: 3
    weight_filler {
      type: "gaussian"
      std: 0.01
    }
    bias_filler {
      type: "constant"
      value: 1
    }
  }
}
layer {
  name: "relu5b"
  type: "ReLU"
  bottom: "conv5b"
  top: "conv5b"
}
layer {
  name: "rpn_conv/3x3"
  type: "Convolution"
  bottom: "conv5b"
  top: "rpn/output"
  param {
    lr_mult: 1
    decay_mult: 1
  }
  param {
    lr_mult: 2
    decay_mult: 0
  }
  convolution_param {
    num_output: 512
    pad: 1
    pad: 1
    pad: 1
    kernel_size: 3
    kernel_size: 3
    kernel_size: 3
    stride: 1
    stride: 2
    stride: 2
    weight_filler {
      type: "gaussian"
      std: 0.01
    }
    bias_filler {
      type: "constant"
      value: 0
    }
  }
}
layer {
  name: "rpn_relu/3x3"
  type: "ReLU"
  bottom: "rpn/output"
  top: "rpn/output"
}
layer {
  name: "rpn_conv/3x3_2"
  type: "Convolution"
  bottom: "rpn/output"
  top: "rpn/output_2"
  param {
    lr_mult: 1
    decay_mult: 1
  }
  param {
    lr_mult: 2
    decay_mult: 0
  }
  convolution_param {
    num_output: 512
    pad: 1
    pad: 1
    pad: 1
    kernel_size: 3
    kernel_size: 3
    kernel_size: 3
    stride: 1
    stride: 2
    stride: 2
    weight_filler {
      type: "gaussian"
      std: 0.01
    }
    bias_filler {
      type: "constant"
      value: 0
    }
  }
}
layer {
  name: "rpn_relu/3x3_2"
  type: "ReLU"
  bottom: "rpn/output_2"
  top: "rpn/output_2"
}
layer {
  name: "rpn/output_pool"
  type: "Pooling"
  bottom: "rpn/output_2"
  top: "rpn/output_pool"
  pooling_param {
    pool: MAX
    kernel_size: 1
    kernel_size: 2
    kernel_size: 2
  }
}
layer {
  name: "rpn_cls_score"
  type: "Convolution"
  bottom: "rpn/output_pool"
  top: "rpn_cls_score"
  param {
    lr_mult: 1
    decay_mult: 1
  }
  param {
    lr_mult: 2
    decay_mult: 0
  }
  convolution_param {
    num_output: 74
    kernel_size: 1
    kernel_size: 1
    kernel_size: 1
    weight_filler {
      type: "gaussian"
      std: 0.01
    }
    bias_filler {
      type: "constant"
      value: 0
    }
  }
}
layer {
  name: "rpn_twin_pred"
  type: "Convolution"
  bottom: "rpn/output_pool"
  top: "rpn_twin_pred"
  param {
    lr_mult: 1
    decay_mult: 1
  }
  param {
    lr_mult: 2
    decay_mult: 0
  }
  convolution_param {
    num_output: 74
    kernel_size: 1
    kernel_size: 1
    kernel_size: 1
    weight_filler {
      type: "gaussian"
      std: 0.01
    }
    bias_filler {
      type: "constant"
      value: 0
    }
  }
}
layer {
  name: "rpn_cls_score_reshape"
  type: "Reshape"
  bottom: "rpn_cls_score"
  top: "rpn_cls_score_reshape"
  reshape_param {
    shape {
      dim: 0
      dim: 2
      dim: -1
      dim: 0
      dim: 0
    }
  }
}
layer {
  name: "rpn-data"
  type: "Python"
  bottom: "rpn_cls_score"
  bottom: "gt_boxes"
  bottom: "data"
  top: "rpn_labels"
  top: "rpn_twin_targets"
  top: "rpn_twin_inside_weights"
  top: "rpn_twin_outside_weights"
  python_param {
    module: "rpn.anchor_target_layer"
    layer: "AnchorTargetLayer"
    param_str: "\'feat_stride\': 8 \n\'scales\': !!python/tuple [1,1.25, 1.5,1.75, 2,2.5, 3,3.5, 4,4.5, 5,5.5, 6,7, 8,9,10,11,12,14,16,18,20,22,24,28,32,36,40,44,52,60,68,76,84,92,100]"
  }
}
layer {
  name: "rpn_loss_cls"
  type: "SoftmaxWithLoss"
  bottom: "rpn_cls_score_reshape"
  bottom: "rpn_labels"
  top: "rpn_cls_loss"
  loss_weight: 1
  propagate_down: true
  propagate_down: false
  loss_param {
    ignore_label: -1
    normalize: true
  }
}
layer {
  name: "rpn_loss_twin"
  type: "SmoothL1Loss"
  bottom: "rpn_twin_pred"
  bottom: "rpn_twin_targets"
  bottom: "rpn_twin_inside_weights"
  bottom: "rpn_twin_outside_weights"
  top: "rpn_loss_twin"
  loss_weight: 1
  smooth_l1_loss_param {
    sigma: 3
  }
}
layer {
  name: "rpn_accuarcy"
  type: "Accuracy"
  bottom: "rpn_cls_score_reshape"
  bottom: "rpn_labels"
  top: "rpn_accuarcy"
  top: "rpn_accuarcy_class"
  propagate_down: false
  propagate_down: false
  accuracy_param {
    ignore_label: -1
  }
}
layer {
  name: "rpn_cls_prob"
  type: "Softmax"
  bottom: "rpn_cls_score_reshape"
  top: "rpn_cls_prob"
}
layer {
  name: "rpn_cls_prob_reshape"
  type: "Reshape"
  bottom: "rpn_cls_prob"
  top: "rpn_cls_prob_reshape"
  reshape_param {
    shape {
      dim: 0
      dim: 74
      dim: -1
      dim: 0
      dim: 0
    }
  }
}
layer {
  name: "proposal"
  type: "Python"
  bottom: "rpn_cls_prob_reshape"
  bottom: "rpn_twin_pred"
  top: "rpn_rois"
  include {
    phase: TRAIN
  }
  python_param {
    module: "rpn.proposal_layer"
    layer: "ProposalLayer"
    param_str: "\'feat_stride\': 8 \n\'scales\': !!python/tuple [1,1.25, 1.5,1.75, 2,2.5, 3,3.5, 4,4.5, 5,5.5, 6,7, 8,9,10,11,12,14,16,18,20,22,24,28,32,36,40,44,52,60,68,76,84,92,100]"
  }
}
layer {
  name: "roi-data"
  type: "Python"
  bottom: "rpn_rois"
  bottom: "gt_boxes"
  top: "rois"
  top: "labels"
  top: "twin_targets"
  top: "twin_inside_weights"
  top: "twin_outside_weights"
  python_param {
    module: "rpn.proposal_target_layer"
    layer: "ProposalTargetLayer"
    param_str: "\'num_classes\': 99"
  }
}
layer {
  name: "roi_pool5"
  type: "ROIPooling"
  bottom: "conv5b"
  bottom: "rois"
  top: "pool5"
  roi_pooling_param {
    pooled_h: 4
    pooled_w: 4
    spatial_scale: 0.0625
    pooled_l: 1
    temporal_scale: 0.125
  }
}
layer {
  name: "fc6"
  type: "InnerProduct"
  bottom: "pool5"
  top: "fc6"
  param {
    lr_mult: 1
    decay_mult: 1
  }
  param {
    lr_mult: 2
    decay_mult: 0
  }
  inner_product_param {
    num_output: 4096
    weight_filler {
      type: "gaussian"
      std: 0.005
    }
    bias_filler {
      type: "constant"
      value: 1
    }
  }
}
layer {
  name: "relu6"
  type: "ReLU"
  bottom: "fc6"
  top: "fc6"
}
layer {
  name: "drop6"
  type: "Dropout"
  bottom: "fc6"
  top: "fc6"
  dropout_param {
    dropout_ratio: 0.5
  }
}
layer {
  name: "cls_score"
  type: "InnerProduct"
  bottom: "fc6"
  top: "cls_score"
  param {
    lr_mult: 1
    decay_mult: 1
  }
  param {
    lr_mult: 2
    decay_mult: 0
  }
  inner_product_param {
    num_output: 99
    weight_filler {
      type: "gaussian"
      std: 0.01
    }
    bias_filler {
      type: "constant"
      value: 0
    }
  }
}
layer {
  name: "twin_pred"
  type: "InnerProduct"
  bottom: "fc6"
  top: "twin_pred"
  param {
    lr_mult: 1
    decay_mult: 1
  }
  param {
    lr_mult: 2
    decay_mult: 0
  }
  inner_product_param {
    num_output: 198
    weight_filler {
      type: "gaussian"
      std: 0.001
    }
    bias_filler {
      type: "constant"
      value: 0
    }
  }
}
layer {
  name: "loss_twin"
  type: "SmoothL1Loss"
  bottom: "twin_pred"
  bottom: "twin_targets"
  bottom: "twin_inside_weights"
  bottom: "twin_outside_weights"
  top: "loss_twin"
  loss_weight: 1
}
layer {
  name: "accuarcy"
  type: "Accuracy"
  bottom: "cls_score"
  bottom: "labels"
  top: "accuarcy"
  propagate_down: false
  propagate_down: false
  accuracy_param {
    ignore_label: -1
  }
}
I0418 04:31:05.591107 10563 layer_factory.hpp:77] Creating layer data
I0418 04:31:05.615548 10563 net.cpp:100] Creating Layer data
I0418 04:31:05.615571 10563 net.cpp:408] data -> data
I0418 04:31:05.615583 10563 net.cpp:408] data -> gt_boxes
setting up
has rpn
RoiDataLayer: name_to_top: {'gt_windows': 1, 'data': 0}
I0418 04:31:05.628958 10563 net.cpp:150] Setting up data
I0418 04:31:05.628988 10563 net.cpp:157] Top shape: 1 3 768 112 112 (28901376)
I0418 04:31:05.629001 10563 net.cpp:157] Top shape: 1 101 (101)
I0418 04:31:05.629005 10563 net.cpp:165] Memory required for data: 115605908
I0418 04:31:05.629011 10563 layer_factory.hpp:77] Creating layer data_data_0_split
I0418 04:31:05.629024 10563 net.cpp:100] Creating Layer data_data_0_split
I0418 04:31:05.629030 10563 net.cpp:434] data_data_0_split <- data
I0418 04:31:05.629036 10563 net.cpp:408] data_data_0_split -> data_data_0_split_0
I0418 04:31:05.629046 10563 net.cpp:408] data_data_0_split -> data_data_0_split_1
I0418 04:31:05.629087 10563 net.cpp:150] Setting up data_data_0_split
I0418 04:31:05.629096 10563 net.cpp:157] Top shape: 1 3 768 112 112 (28901376)
I0418 04:31:05.629101 10563 net.cpp:157] Top shape: 1 3 768 112 112 (28901376)
I0418 04:31:05.629104 10563 net.cpp:165] Memory required for data: 346816916
I0418 04:31:05.629107 10563 layer_factory.hpp:77] Creating layer gt_boxes_data_1_split
I0418 04:31:05.629112 10563 net.cpp:100] Creating Layer gt_boxes_data_1_split
I0418 04:31:05.629117 10563 net.cpp:434] gt_boxes_data_1_split <- gt_boxes
I0418 04:31:05.629124 10563 net.cpp:408] gt_boxes_data_1_split -> gt_boxes_data_1_split_0
I0418 04:31:05.629133 10563 net.cpp:408] gt_boxes_data_1_split -> gt_boxes_data_1_split_1
I0418 04:31:05.629173 10563 net.cpp:150] Setting up gt_boxes_data_1_split
I0418 04:31:05.629181 10563 net.cpp:157] Top shape: 1 101 (101)
I0418 04:31:05.629185 10563 net.cpp:157] Top shape: 1 101 (101)
I0418 04:31:05.629189 10563 net.cpp:165] Memory required for data: 346817724
I0418 04:31:05.629192 10563 layer_factory.hpp:77] Creating layer conv1a
I0418 04:31:05.629209 10563 net.cpp:100] Creating Layer conv1a
I0418 04:31:05.629215 10563 net.cpp:434] conv1a <- data_data_0_split_0
I0418 04:31:05.629225 10563 net.cpp:408] conv1a -> conv1a
I0418 04:31:06.019659 10563 net.cpp:150] Setting up conv1a
I0418 04:31:06.019701 10563 net.cpp:157] Top shape: 1 64 768 112 112 (616562688)
I0418 04:31:06.019706 10563 net.cpp:165] Memory required for data: 2813068476
I0418 04:31:06.019724 10563 layer_factory.hpp:77] Creating layer relu1a
I0418 04:31:06.019738 10563 net.cpp:100] Creating Layer relu1a
I0418 04:31:06.019743 10563 net.cpp:434] relu1a <- conv1a
I0418 04:31:06.019749 10563 net.cpp:395] relu1a -> conv1a (in-place)
I0418 04:31:06.020167 10563 net.cpp:150] Setting up relu1a
I0418 04:31:06.020180 10563 net.cpp:157] Top shape: 1 64 768 112 112 (616562688)
I0418 04:31:06.020184 10563 net.cpp:165] Memory required for data: 5279319228
I0418 04:31:06.020189 10563 layer_factory.hpp:77] Creating layer pool1
I0418 04:31:06.020197 10563 net.cpp:100] Creating Layer pool1
I0418 04:31:06.020201 10563 net.cpp:434] pool1 <- conv1a
I0418 04:31:06.020207 10563 net.cpp:408] pool1 -> pool1
I0418 04:31:06.020386 10563 net.cpp:150] Setting up pool1
I0418 04:31:06.020397 10563 net.cpp:157] Top shape: 1 64 768 56 56 (154140672)
I0418 04:31:06.020401 10563 net.cpp:165] Memory required for data: 5895881916
I0418 04:31:06.020404 10563 layer_factory.hpp:77] Creating layer conv2a
I0418 04:31:06.020416 10563 net.cpp:100] Creating Layer conv2a
I0418 04:31:06.020423 10563 net.cpp:434] conv2a <- pool1
I0418 04:31:06.020431 10563 net.cpp:408] conv2a -> conv2a
I0418 04:31:06.031551 10563 net.cpp:150] Setting up conv2a
I0418 04:31:06.031580 10563 net.cpp:157] Top shape: 1 128 768 56 56 (308281344)
I0418 04:31:06.031589 10563 net.cpp:165] Memory required for data: 7129007292
I0418 04:31:06.031606 10563 layer_factory.hpp:77] Creating layer relu2a
I0418 04:31:06.031623 10563 net.cpp:100] Creating Layer relu2a
I0418 04:31:06.031628 10563 net.cpp:434] relu2a <- conv2a
I0418 04:31:06.031633 10563 net.cpp:395] relu2a -> conv2a (in-place)
I0418 04:31:06.031996 10563 net.cpp:150] Setting up relu2a
I0418 04:31:06.032009 10563 net.cpp:157] Top shape: 1 128 768 56 56 (308281344)
I0418 04:31:06.032013 10563 net.cpp:165] Memory required for data: 8362132668
I0418 04:31:06.032018 10563 layer_factory.hpp:77] Creating layer pool2
I0418 04:31:06.032027 10563 net.cpp:100] Creating Layer pool2
I0418 04:31:06.032030 10563 net.cpp:434] pool2 <- conv2a
I0418 04:31:06.032037 10563 net.cpp:408] pool2 -> pool2
I0418 04:31:06.032217 10563 net.cpp:150] Setting up pool2
I0418 04:31:06.032227 10563 net.cpp:157] Top shape: 1 128 384 28 28 (38535168)
I0418 04:31:06.032230 10563 net.cpp:165] Memory required for data: 8516273340
I0418 04:31:06.032234 10563 layer_factory.hpp:77] Creating layer conv3a
I0418 04:31:06.032245 10563 net.cpp:100] Creating Layer conv3a
I0418 04:31:06.032251 10563 net.cpp:434] conv3a <- pool2
I0418 04:31:06.032258 10563 net.cpp:408] conv3a -> conv3a
I0418 04:31:06.057157 10563 net.cpp:150] Setting up conv3a
I0418 04:31:06.057173 10563 net.cpp:157] Top shape: 1 256 384 28 28 (77070336)
I0418 04:31:06.057179 10563 net.cpp:165] Memory required for data: 8824554684
I0418 04:31:06.057198 10563 layer_factory.hpp:77] Creating layer relu3a
I0418 04:31:06.057205 10563 net.cpp:100] Creating Layer relu3a
I0418 04:31:06.057209 10563 net.cpp:434] relu3a <- conv3a
I0418 04:31:06.057214 10563 net.cpp:395] relu3a -> conv3a (in-place)
I0418 04:31:06.057514 10563 net.cpp:150] Setting up relu3a
I0418 04:31:06.057528 10563 net.cpp:157] Top shape: 1 256 384 28 28 (77070336)
I0418 04:31:06.057530 10563 net.cpp:165] Memory required for data: 9132836028
I0418 04:31:06.057534 10563 layer_factory.hpp:77] Creating layer conv3b
I0418 04:31:06.057545 10563 net.cpp:100] Creating Layer conv3b
I0418 04:31:06.057549 10563 net.cpp:434] conv3b <- conv3a
I0418 04:31:06.057555 10563 net.cpp:408] conv3b -> conv3b
I0418 04:31:06.105623 10563 net.cpp:150] Setting up conv3b
I0418 04:31:06.105645 10563 net.cpp:157] Top shape: 1 256 384 28 28 (77070336)
I0418 04:31:06.105649 10563 net.cpp:165] Memory required for data: 9441117372
I0418 04:31:06.105657 10563 layer_factory.hpp:77] Creating layer relu3b
I0418 04:31:06.105667 10563 net.cpp:100] Creating Layer relu3b
I0418 04:31:06.105674 10563 net.cpp:434] relu3b <- conv3b
I0418 04:31:06.105679 10563 net.cpp:395] relu3b -> conv3b (in-place)
I0418 04:31:06.105973 10563 net.cpp:150] Setting up relu3b
I0418 04:31:06.105988 10563 net.cpp:157] Top shape: 1 256 384 28 28 (77070336)
I0418 04:31:06.105991 10563 net.cpp:165] Memory required for data: 9749398716
I0418 04:31:06.105995 10563 layer_factory.hpp:77] Creating layer pool3
I0418 04:31:06.106003 10563 net.cpp:100] Creating Layer pool3
I0418 04:31:06.106006 10563 net.cpp:434] pool3 <- conv3b
I0418 04:31:06.106012 10563 net.cpp:408] pool3 -> pool3
I0418 04:31:06.106194 10563 net.cpp:150] Setting up pool3
I0418 04:31:06.106205 10563 net.cpp:157] Top shape: 1 256 192 14 14 (9633792)
I0418 04:31:06.106209 10563 net.cpp:165] Memory required for data: 9787933884
I0418 04:31:06.106214 10563 layer_factory.hpp:77] Creating layer conv4a
I0418 04:31:06.106223 10563 net.cpp:100] Creating Layer conv4a
I0418 04:31:06.106230 10563 net.cpp:434] conv4a <- pool3
I0418 04:31:06.106236 10563 net.cpp:408] conv4a -> conv4a
I0418 04:31:06.201376 10563 net.cpp:150] Setting up conv4a
I0418 04:31:06.201401 10563 net.cpp:157] Top shape: 1 512 192 14 14 (19267584)
I0418 04:31:06.201407 10563 net.cpp:165] Memory required for data: 9865004220
I0418 04:31:06.201424 10563 layer_factory.hpp:77] Creating layer relu4a
I0418 04:31:06.201437 10563 net.cpp:100] Creating Layer relu4a
I0418 04:31:06.201444 10563 net.cpp:434] relu4a <- conv4a
I0418 04:31:06.201454 10563 net.cpp:395] relu4a -> conv4a (in-place)
I0418 04:31:06.201772 10563 net.cpp:150] Setting up relu4a
I0418 04:31:06.201786 10563 net.cpp:157] Top shape: 1 512 192 14 14 (19267584)
I0418 04:31:06.201791 10563 net.cpp:165] Memory required for data: 9942074556
I0418 04:31:06.201793 10563 layer_factory.hpp:77] Creating layer conv4b
I0418 04:31:06.201807 10563 net.cpp:100] Creating Layer conv4b
I0418 04:31:06.201812 10563 net.cpp:434] conv4b <- conv4a
I0418 04:31:06.201818 10563 net.cpp:408] conv4b -> conv4b
I0418 04:31:06.396309 10563 net.cpp:150] Setting up conv4b
I0418 04:31:06.396333 10563 net.cpp:157] Top shape: 1 512 192 14 14 (19267584)
I0418 04:31:06.396337 10563 net.cpp:165] Memory required for data: 10019144892
I0418 04:31:06.396347 10563 layer_factory.hpp:77] Creating layer relu4b
I0418 04:31:06.396355 10563 net.cpp:100] Creating Layer relu4b
I0418 04:31:06.396360 10563 net.cpp:434] relu4b <- conv4b
I0418 04:31:06.396370 10563 net.cpp:395] relu4b -> conv4b (in-place)
I0418 04:31:06.396528 10563 net.cpp:150] Setting up relu4b
I0418 04:31:06.396539 10563 net.cpp:157] Top shape: 1 512 192 14 14 (19267584)
I0418 04:31:06.396543 10563 net.cpp:165] Memory required for data: 10096215228
I0418 04:31:06.396548 10563 layer_factory.hpp:77] Creating layer pool4
I0418 04:31:06.396555 10563 net.cpp:100] Creating Layer pool4
I0418 04:31:06.396564 10563 net.cpp:434] pool4 <- conv4b
I0418 04:31:06.396570 10563 net.cpp:408] pool4 -> pool4
I0418 04:31:06.397116 10563 net.cpp:150] Setting up pool4
I0418 04:31:06.397131 10563 net.cpp:157] Top shape: 1 512 96 7 7 (2408448)
I0418 04:31:06.397136 10563 net.cpp:165] Memory required for data: 10105849020
I0418 04:31:06.397140 10563 layer_factory.hpp:77] Creating layer conv5a
I0418 04:31:06.397155 10563 net.cpp:100] Creating Layer conv5a
I0418 04:31:06.397158 10563 net.cpp:434] conv5a <- pool4
I0418 04:31:06.397166 10563 net.cpp:408] conv5a -> conv5a
I0418 04:31:06.585752 10563 net.cpp:150] Setting up conv5a
I0418 04:31:06.585778 10563 net.cpp:157] Top shape: 1 512 96 7 7 (2408448)
I0418 04:31:06.585783 10563 net.cpp:165] Memory required for data: 10115482812
I0418 04:31:06.585791 10563 layer_factory.hpp:77] Creating layer relu5a
I0418 04:31:06.585801 10563 net.cpp:100] Creating Layer relu5a
I0418 04:31:06.585806 10563 net.cpp:434] relu5a <- conv5a
I0418 04:31:06.585813 10563 net.cpp:395] relu5a -> conv5a (in-place)
I0418 04:31:06.586252 10563 net.cpp:150] Setting up relu5a
I0418 04:31:06.586267 10563 net.cpp:157] Top shape: 1 512 96 7 7 (2408448)
I0418 04:31:06.586272 10563 net.cpp:165] Memory required for data: 10125116604
I0418 04:31:06.586275 10563 layer_factory.hpp:77] Creating layer conv5b
I0418 04:31:06.586288 10563 net.cpp:100] Creating Layer conv5b
I0418 04:31:06.586292 10563 net.cpp:434] conv5b <- conv5a
I0418 04:31:06.586299 10563 net.cpp:408] conv5b -> conv5b
I0418 04:31:06.775810 10563 net.cpp:150] Setting up conv5b
I0418 04:31:06.775842 10563 net.cpp:157] Top shape: 1 512 96 7 7 (2408448)
I0418 04:31:06.775846 10563 net.cpp:165] Memory required for data: 10134750396
I0418 04:31:06.775856 10563 layer_factory.hpp:77] Creating layer relu5b
I0418 04:31:06.775864 10563 net.cpp:100] Creating Layer relu5b
I0418 04:31:06.775869 10563 net.cpp:434] relu5b <- conv5b
I0418 04:31:06.775877 10563 net.cpp:395] relu5b -> conv5b (in-place)
I0418 04:31:06.776032 10563 net.cpp:150] Setting up relu5b
I0418 04:31:06.776042 10563 net.cpp:157] Top shape: 1 512 96 7 7 (2408448)
I0418 04:31:06.776046 10563 net.cpp:165] Memory required for data: 10144384188
I0418 04:31:06.776051 10563 layer_factory.hpp:77] Creating layer conv5b_relu5b_0_split
I0418 04:31:06.776057 10563 net.cpp:100] Creating Layer conv5b_relu5b_0_split
I0418 04:31:06.776060 10563 net.cpp:434] conv5b_relu5b_0_split <- conv5b
I0418 04:31:06.776065 10563 net.cpp:408] conv5b_relu5b_0_split -> conv5b_relu5b_0_split_0
I0418 04:31:06.776072 10563 net.cpp:408] conv5b_relu5b_0_split -> conv5b_relu5b_0_split_1
I0418 04:31:06.776116 10563 net.cpp:150] Setting up conv5b_relu5b_0_split
I0418 04:31:06.776125 10563 net.cpp:157] Top shape: 1 512 96 7 7 (2408448)
I0418 04:31:06.776129 10563 net.cpp:157] Top shape: 1 512 96 7 7 (2408448)
I0418 04:31:06.776132 10563 net.cpp:165] Memory required for data: 10163651772
I0418 04:31:06.776136 10563 layer_factory.hpp:77] Creating layer rpn_conv/3x3
I0418 04:31:06.776147 10563 net.cpp:100] Creating Layer rpn_conv/3x3
I0418 04:31:06.776154 10563 net.cpp:434] rpn_conv/3x3 <- conv5b_relu5b_0_split_0
I0418 04:31:06.776160 10563 net.cpp:408] rpn_conv/3x3 -> rpn/output
I0418 04:31:06.965040 10563 net.cpp:150] Setting up rpn_conv/3x3
I0418 04:31:06.965065 10563 net.cpp:157] Top shape: 1 512 96 4 4 (786432)
I0418 04:31:06.965070 10563 net.cpp:165] Memory required for data: 10166797500
I0418 04:31:06.965082 10563 layer_factory.hpp:77] Creating layer rpn_relu/3x3
I0418 04:31:06.965091 10563 net.cpp:100] Creating Layer rpn_relu/3x3
I0418 04:31:06.965096 10563 net.cpp:434] rpn_relu/3x3 <- rpn/output
I0418 04:31:06.965103 10563 net.cpp:395] rpn_relu/3x3 -> rpn/output (in-place)
I0418 04:31:06.965412 10563 net.cpp:150] Setting up rpn_relu/3x3
I0418 04:31:06.965426 10563 net.cpp:157] Top shape: 1 512 96 4 4 (786432)
I0418 04:31:06.965430 10563 net.cpp:165] Memory required for data: 10169943228
I0418 04:31:06.965433 10563 layer_factory.hpp:77] Creating layer rpn_conv/3x3_2
I0418 04:31:06.965445 10563 net.cpp:100] Creating Layer rpn_conv/3x3_2
I0418 04:31:06.965450 10563 net.cpp:434] rpn_conv/3x3_2 <- rpn/output
I0418 04:31:06.965456 10563 net.cpp:408] rpn_conv/3x3_2 -> rpn/output_2
I0418 04:31:07.153890 10563 net.cpp:150] Setting up rpn_conv/3x3_2
I0418 04:31:07.153914 10563 net.cpp:157] Top shape: 1 512 96 2 2 (196608)
I0418 04:31:07.153918 10563 net.cpp:165] Memory required for data: 10170729660
I0418 04:31:07.153928 10563 layer_factory.hpp:77] Creating layer rpn_relu/3x3_2
I0418 04:31:07.153936 10563 net.cpp:100] Creating Layer rpn_relu/3x3_2
I0418 04:31:07.153941 10563 net.cpp:434] rpn_relu/3x3_2 <- rpn/output_2
I0418 04:31:07.153946 10563 net.cpp:395] rpn_relu/3x3_2 -> rpn/output_2 (in-place)
I0418 04:31:07.154251 10563 net.cpp:150] Setting up rpn_relu/3x3_2
I0418 04:31:07.154266 10563 net.cpp:157] Top shape: 1 512 96 2 2 (196608)
I0418 04:31:07.154270 10563 net.cpp:165] Memory required for data: 10171516092
I0418 04:31:07.154274 10563 layer_factory.hpp:77] Creating layer rpn/output_pool
I0418 04:31:07.154281 10563 net.cpp:100] Creating Layer rpn/output_pool
I0418 04:31:07.154285 10563 net.cpp:434] rpn/output_pool <- rpn/output_2
I0418 04:31:07.154292 10563 net.cpp:408] rpn/output_pool -> rpn/output_pool
I0418 04:31:07.154477 10563 net.cpp:150] Setting up rpn/output_pool
I0418 04:31:07.154489 10563 net.cpp:157] Top shape: 1 512 96 1 1 (49152)
I0418 04:31:07.154492 10563 net.cpp:165] Memory required for data: 10171712700
I0418 04:31:07.154496 10563 layer_factory.hpp:77] Creating layer rpn/output_pool_rpn/output_pool_0_split
I0418 04:31:07.154503 10563 net.cpp:100] Creating Layer rpn/output_pool_rpn/output_pool_0_split
I0418 04:31:07.154507 10563 net.cpp:434] rpn/output_pool_rpn/output_pool_0_split <- rpn/output_pool
I0418 04:31:07.154511 10563 net.cpp:408] rpn/output_pool_rpn/output_pool_0_split -> rpn/output_pool_rpn/output_pool_0_split_0
I0418 04:31:07.154517 10563 net.cpp:408] rpn/output_pool_rpn/output_pool_0_split -> rpn/output_pool_rpn/output_pool_0_split_1
I0418 04:31:07.154549 10563 net.cpp:150] Setting up rpn/output_pool_rpn/output_pool_0_split
I0418 04:31:07.154557 10563 net.cpp:157] Top shape: 1 512 96 1 1 (49152)
I0418 04:31:07.154561 10563 net.cpp:157] Top shape: 1 512 96 1 1 (49152)
I0418 04:31:07.154564 10563 net.cpp:165] Memory required for data: 10172105916
I0418 04:31:07.154567 10563 layer_factory.hpp:77] Creating layer rpn_cls_score
I0418 04:31:07.154579 10563 net.cpp:100] Creating Layer rpn_cls_score
I0418 04:31:07.154587 10563 net.cpp:434] rpn_cls_score <- rpn/output_pool_rpn/output_pool_0_split_0
I0418 04:31:07.154593 10563 net.cpp:408] rpn_cls_score -> rpn_cls_score
I0418 04:31:07.156657 10563 net.cpp:150] Setting up rpn_cls_score
I0418 04:31:07.156674 10563 net.cpp:157] Top shape: 1 74 96 1 1 (7104)
I0418 04:31:07.156682 10563 net.cpp:165] Memory required for data: 10172134332
I0418 04:31:07.156692 10563 layer_factory.hpp:77] Creating layer rpn_cls_score_rpn_cls_score_0_split
I0418 04:31:07.156699 10563 net.cpp:100] Creating Layer rpn_cls_score_rpn_cls_score_0_split
I0418 04:31:07.156709 10563 net.cpp:434] rpn_cls_score_rpn_cls_score_0_split <- rpn_cls_score
I0418 04:31:07.156715 10563 net.cpp:408] rpn_cls_score_rpn_cls_score_0_split -> rpn_cls_score_rpn_cls_score_0_split_0
I0418 04:31:07.156723 10563 net.cpp:408] rpn_cls_score_rpn_cls_score_0_split -> rpn_cls_score_rpn_cls_score_0_split_1
I0418 04:31:07.156769 10563 net.cpp:150] Setting up rpn_cls_score_rpn_cls_score_0_split
I0418 04:31:07.156777 10563 net.cpp:157] Top shape: 1 74 96 1 1 (7104)
I0418 04:31:07.156781 10563 net.cpp:157] Top shape: 1 74 96 1 1 (7104)
I0418 04:31:07.156785 10563 net.cpp:165] Memory required for data: 10172191164
I0418 04:31:07.156788 10563 layer_factory.hpp:77] Creating layer rpn_twin_pred
I0418 04:31:07.156802 10563 net.cpp:100] Creating Layer rpn_twin_pred
I0418 04:31:07.156810 10563 net.cpp:434] rpn_twin_pred <- rpn/output_pool_rpn/output_pool_0_split_1
I0418 04:31:07.156816 10563 net.cpp:408] rpn_twin_pred -> rpn_twin_pred
I0418 04:31:07.158720 10563 net.cpp:150] Setting up rpn_twin_pred
I0418 04:31:07.158735 10563 net.cpp:157] Top shape: 1 74 96 1 1 (7104)
I0418 04:31:07.158740 10563 net.cpp:165] Memory required for data: 10172219580
I0418 04:31:07.158746 10563 layer_factory.hpp:77] Creating layer rpn_twin_pred_rpn_twin_pred_0_split
I0418 04:31:07.158751 10563 net.cpp:100] Creating Layer rpn_twin_pred_rpn_twin_pred_0_split
I0418 04:31:07.158756 10563 net.cpp:434] rpn_twin_pred_rpn_twin_pred_0_split <- rpn_twin_pred
I0418 04:31:07.158766 10563 net.cpp:408] rpn_twin_pred_rpn_twin_pred_0_split -> rpn_twin_pred_rpn_twin_pred_0_split_0
I0418 04:31:07.158773 10563 net.cpp:408] rpn_twin_pred_rpn_twin_pred_0_split -> rpn_twin_pred_rpn_twin_pred_0_split_1
I0418 04:31:07.158812 10563 net.cpp:150] Setting up rpn_twin_pred_rpn_twin_pred_0_split
I0418 04:31:07.158820 10563 net.cpp:157] Top shape: 1 74 96 1 1 (7104)
I0418 04:31:07.158825 10563 net.cpp:157] Top shape: 1 74 96 1 1 (7104)
I0418 04:31:07.158828 10563 net.cpp:165] Memory required for data: 10172276412
I0418 04:31:07.158833 10563 layer_factory.hpp:77] Creating layer rpn_cls_score_reshape
I0418 04:31:07.158844 10563 net.cpp:100] Creating Layer rpn_cls_score_reshape
I0418 04:31:07.158849 10563 net.cpp:434] rpn_cls_score_reshape <- rpn_cls_score_rpn_cls_score_0_split_0
I0418 04:31:07.158855 10563 net.cpp:408] rpn_cls_score_reshape -> rpn_cls_score_reshape
I0418 04:31:07.158886 10563 net.cpp:150] Setting up rpn_cls_score_reshape
I0418 04:31:07.158895 10563 net.cpp:157] Top shape: 1 2 3552 1 1 (7104)
I0418 04:31:07.158898 10563 net.cpp:165] Memory required for data: 10172304828
I0418 04:31:07.158902 10563 layer_factory.hpp:77] Creating layer rpn_cls_score_reshape_rpn_cls_score_reshape_0_split
I0418 04:31:07.158907 10563 net.cpp:100] Creating Layer rpn_cls_score_reshape_rpn_cls_score_reshape_0_split
I0418 04:31:07.158910 10563 net.cpp:434] rpn_cls_score_reshape_rpn_cls_score_reshape_0_split <- rpn_cls_score_reshape
I0418 04:31:07.158915 10563 net.cpp:408] rpn_cls_score_reshape_rpn_cls_score_reshape_0_split -> rpn_cls_score_reshape_rpn_cls_score_reshape_0_split_0
I0418 04:31:07.158926 10563 net.cpp:408] rpn_cls_score_reshape_rpn_cls_score_reshape_0_split -> rpn_cls_score_reshape_rpn_cls_score_reshape_0_split_1
I0418 04:31:07.158931 10563 net.cpp:408] rpn_cls_score_reshape_rpn_cls_score_reshape_0_split -> rpn_cls_score_reshape_rpn_cls_score_reshape_0_split_2
I0418 04:31:07.158973 10563 net.cpp:150] Setting up rpn_cls_score_reshape_rpn_cls_score_reshape_0_split
I0418 04:31:07.158982 10563 net.cpp:157] Top shape: 1 2 3552 1 1 (7104)
I0418 04:31:07.158985 10563 net.cpp:157] Top shape: 1 2 3552 1 1 (7104)
I0418 04:31:07.158989 10563 net.cpp:157] Top shape: 1 2 3552 1 1 (7104)
I0418 04:31:07.158993 10563 net.cpp:165] Memory required for data: 10172390076
I0418 04:31:07.158995 10563 layer_factory.hpp:77] Creating layer rpn-data
I0418 04:31:07.159395 10563 net.cpp:100] Creating Layer rpn-data
I0418 04:31:07.159406 10563 net.cpp:434] rpn-data <- rpn_cls_score_rpn_cls_score_0_split_1
I0418 04:31:07.159413 10563 net.cpp:434] rpn-data <- gt_boxes_data_1_split_0
I0418 04:31:07.159417 10563 net.cpp:434] rpn-data <- data_data_0_split_1
I0418 04:31:07.159423 10563 net.cpp:408] rpn-data -> rpn_labels
I0418 04:31:07.159430 10563 net.cpp:408] rpn-data -> rpn_twin_targets
I0418 04:31:07.159435 10563 net.cpp:408] rpn-data -> rpn_twin_inside_weights
I0418 04:31:07.159454 10563 net.cpp:408] rpn-data -> rpn_twin_outside_weights
I0418 04:31:07.161677 10563 net.cpp:150] Setting up rpn-data
I0418 04:31:07.161692 10563 net.cpp:157] Top shape: 1 1 3552 1 1 (3552)
I0418 04:31:07.161696 10563 net.cpp:157] Top shape: 1 74 96 1 1 (7104)
I0418 04:31:07.161700 10563 net.cpp:157] Top shape: 1 74 96 1 1 (7104)
I0418 04:31:07.161705 10563 net.cpp:157] Top shape: 1 74 96 1 1 (7104)
I0418 04:31:07.161707 10563 net.cpp:165] Memory required for data: 10172489532
I0418 04:31:07.161711 10563 layer_factory.hpp:77] Creating layer rpn_labels_rpn-data_0_split
I0418 04:31:07.161717 10563 net.cpp:100] Creating Layer rpn_labels_rpn-data_0_split
I0418 04:31:07.161721 10563 net.cpp:434] rpn_labels_rpn-data_0_split <- rpn_labels
I0418 04:31:07.161727 10563 net.cpp:408] rpn_labels_rpn-data_0_split -> rpn_labels_rpn-data_0_split_0
I0418 04:31:07.161734 10563 net.cpp:408] rpn_labels_rpn-data_0_split -> rpn_labels_rpn-data_0_split_1
I0418 04:31:07.161767 10563 net.cpp:150] Setting up rpn_labels_rpn-data_0_split
I0418 04:31:07.161775 10563 net.cpp:157] Top shape: 1 1 3552 1 1 (3552)
I0418 04:31:07.161780 10563 net.cpp:157] Top shape: 1 1 3552 1 1 (3552)
I0418 04:31:07.161783 10563 net.cpp:165] Memory required for data: 10172517948
I0418 04:31:07.161787 10563 layer_factory.hpp:77] Creating layer rpn_loss_cls
I0418 04:31:07.161795 10563 net.cpp:100] Creating Layer rpn_loss_cls
I0418 04:31:07.161799 10563 net.cpp:434] rpn_loss_cls <- rpn_cls_score_reshape_rpn_cls_score_reshape_0_split_0
I0418 04:31:07.161804 10563 net.cpp:434] rpn_loss_cls <- rpn_labels_rpn-data_0_split_0
…
I0418 04:31:07.162364 10563 layer_factory.hpp:77] Creating layer rpn_accuarcy
I0418 04:31:07.162372 10563 net.cpp:100] Creating Layer rpn_accuarcy
I0418 04:31:07.162376 10563 net.cpp:434] rpn_accuarcy <- rpn_cls_score_reshape_rpn_cls_score_reshape_0_split_1
I0418 04:31:07.162380 10563 net.cpp:434] rpn_accuarcy <- rpn_labels_rpn-data_0_split_1
I0418 04:31:07.162386 10563 net.cpp:408] rpn_accuarcy -> rpn_accuarcy
I0418 04:31:07.162392 10563 net.cpp:408] rpn_accuarcy -> rpn_accuarcy_class
I0418 04:31:07.162428 10563 net.cpp:150] Setting up rpn_accuarcy
I0418 04:31:07.162436 10563 net.cpp:157] Top shape: (1)
I0418 04:31:07.162441 10563 net.cpp:157] Top shape: 2 (2)
I0418 04:31:07.162443 10563 net.cpp:165] Memory required for data: 10172517968
I0418 04:31:07.162447 10563 layer_factory.hpp:77] Creating layer rpn_cls_prob
I0418 04:31:07.162452 10563 net.cpp:100] Creating Layer rpn_cls_prob
I0418 04:31:07.162456 10563 net.cpp:434] rpn_cls_prob <- rpn_cls_score_reshape_rpn_cls_score_reshape_0_split_2
I0418 04:31:07.162461 10563 net.cpp:408] rpn_cls_prob -> rpn_cls_prob
I0418 04:31:07.162654 10563 net.cpp:150] Setting up rpn_cls_prob
I0418 04:31:07.162664 10563 net.cpp:157] Top shape: 1 2 3552 1 1 (7104)
I0418 04:31:07.162668 10563 net.cpp:165] Memory required for data: 10172546384
I0418 04:31:07.162672 10563 layer_factory.hpp:77] Creating layer rpn_cls_prob_reshape
I0418 04:31:07.162679 10563 net.cpp:100] Creating Layer rpn_cls_prob_reshape
I0418 04:31:07.162683 10563 net.cpp:434] rpn_cls_prob_reshape <- rpn_cls_prob
I0418 04:31:07.162688 10563 net.cpp:408] rpn_cls_prob_reshape -> rpn_cls_prob_reshape
I0418 04:31:07.162712 10563 net.cpp:150] Setting up rpn_cls_prob_reshape
I0418 04:31:07.162720 10563 net.cpp:157] Top shape: 1 74 96 1 1 (7104)
I0418 04:31:07.162724 10563 net.cpp:165] Memory required for data: 10172574800
I0418 04:31:07.162726 10563 layer_factory.hpp:77] Creating layer proposal
I0418 04:31:07.163264 10563 net.cpp:100] Creating Layer proposal
I0418 04:31:07.163275 10563 net.cpp:434] proposal <- rpn_cls_prob_reshape
I0418 04:31:07.163281 10563 net.cpp:434] proposal <- rpn_twin_pred_rpn_twin_pred_0_split_1
I0418 04:31:07.163286 10563 net.cpp:408] proposal -> rpn_rois
I0418 04:31:07.165513 10563 net.cpp:150] Setting up proposal
I0418 04:31:07.165526 10563 net.cpp:157] Top shape: 1 3 (3)
I0418 04:31:07.165530 10563 net.cpp:165] Memory required for data: 10172574812
I0418 04:31:07.165534 10563 layer_factory.hpp:77] Creating layer roi-data
I0418 04:31:07.167019 10563 net.cpp:100] Creating Layer roi-data
I0418 04:31:07.167032 10563 net.cpp:434] roi-data <- rpn_rois
I0418 04:31:07.167038 10563 net.cpp:434] roi-data <- gt_boxes_data_1_split_1
I0418 04:31:07.167044 10563 net.cpp:408] roi-data -> rois
I0418 04:31:07.167052 10563 net.cpp:408] roi-data -> labels
I0418 04:31:07.167057 10563 net.cpp:408] roi-data -> twin_targets
I0418 04:31:07.167063 10563 net.cpp:408] roi-data -> twin_inside_weights
I0418 04:31:07.167068 10563 net.cpp:408] roi-data -> twin_outside_weights
I0418 04:31:07.167381 10563 net.cpp:150] Setting up roi-data
I0418 04:31:07.167404 10563 net.cpp:157] Top shape: 1 3 (3)
I0418 04:31:07.167408 10563 net.cpp:157] Top shape: 1 1 (1)
I0418 04:31:07.167421 10563 net.cpp:157] Top shape: 1 198 (198)
I0418 04:31:07.167425 10563 net.cpp:157] Top shape: 1 198 (198)
I0418 04:31:07.167428 10563 net.cpp:157] Top shape: 1 198 (198)
I0418 04:31:07.167431 10563 net.cpp:165] Memory required for data: 10172577204
I0418 04:31:07.167435 10563 layer_factory.hpp:77] Creating layer roi_pool5
I0418 04:31:07.167444 10563 net.cpp:100] Creating Layer roi_pool5
I0418 04:31:07.167448 10563 net.cpp:434] roi_pool5 <- conv5b_relu5b_0_split_1
I0418 04:31:07.167454 10563 net.cpp:434] roi_pool5 <- rois
I0418 04:31:07.167459 10563 net.cpp:408] roi_pool5 -> pool5
I0418 04:31:07.167465 10563 roi_pooling_layer.cpp:34] Temporal scale: 0.125
I0418 04:31:07.167471 10563 roi_pooling_layer.cpp:35] Spatial scale: 0.0625
I0418 04:31:07.167513 10563 net.cpp:150] Setting up roi_pool5
I0418 04:31:07.167521 10563 net.cpp:157] Top shape: 1 512 1 4 4 (8192)
I0418 04:31:07.167526 10563 net.cpp:165] Memory required for data: 10172609972
I0418 04:31:07.167529 10563 layer_factory.hpp:77] Creating layer fc6
I0418 04:31:07.167537 10563 net.cpp:100] Creating Layer fc6
I0418 04:31:07.167543 10563 net.cpp:434] fc6 <- pool5
I0418 04:31:07.167549 10563 net.cpp:408] fc6 -> fc6
I0418 04:31:08.052945 10563 net.cpp:150] Setting up fc6
I0418 04:31:08.052969 10563 net.cpp:157] Top shape: 1 4096 (4096)
I0418 04:31:08.052973 10563 net.cpp:165] Memory required for data: 10172626356
I0418 04:31:08.052984 10563 layer_factory.hpp:77] Creating layer relu6
I0418 04:31:08.052994 10563 net.cpp:100] Creating Layer relu6
I0418 04:31:08.052999 10563 net.cpp:434] relu6 <- fc6
I0418 04:31:08.053005 10563 net.cpp:395] relu6 -> fc6 (in-place)
I0418 04:31:08.053444 10563 net.cpp:150] Setting up relu6
I0418 04:31:08.053457 10563 net.cpp:157] Top shape: 1 4096 (4096)
I0418 04:31:08.053462 10563 net.cpp:165] Memory required for data: 10172642740
I0418 04:31:08.053467 10563 layer_factory.hpp:77] Creating layer drop6
I0418 04:31:08.053479 10563 net.cpp:100] Creating Layer drop6
I0418 04:31:08.053483 10563 net.cpp:434] drop6 <- fc6
I0418 04:31:08.053488 10563 net.cpp:395] drop6 -> fc6 (in-place)
I0418 04:31:08.053515 10563 net.cpp:150] Setting up drop6
I0418 04:31:08.053524 10563 net.cpp:157] Top shape: 1 4096 (4096)
I0418 04:31:08.053527 10563 net.cpp:165] Memory required for data: 10172659124
I0418 04:31:08.053530 10563 layer_factory.hpp:77] Creating layer fc6_drop6_0_split
I0418 04:31:08.053536 10563 net.cpp:100] Creating Layer fc6_drop6_0_split
I0418 04:31:08.053539 10563 net.cpp:434] fc6_drop6_0_split <- fc6
I0418 04:31:08.053548 10563 net.cpp:408] fc6_drop6_0_split -> fc6_drop6_0_split_0
I0418 04:31:08.053555 10563 net.cpp:408] fc6_drop6_0_split -> fc6_drop6_0_split_1
I0418 04:31:08.053586 10563 net.cpp:150] Setting up fc6_drop6_0_split
I0418 04:31:08.053593 10563 net.cpp:157] Top shape: 1 4096 (4096)
I0418 04:31:08.053597 10563 net.cpp:157] Top shape: 1 4096 (4096)
I0418 04:31:08.053601 10563 net.cpp:165] Memory required for data: 10172691892
I0418 04:31:08.053604 10563 layer_factory.hpp:77] Creating layer cls_score
I0418 04:31:08.053611 10563 net.cpp:100] Creating Layer cls_score
I0418 04:31:08.053614 10563 net.cpp:434] cls_score <- fc6_drop6_0_split_0
I0418 04:31:08.053620 10563 net.cpp:408] cls_score -> cls_score
I0418 04:31:08.064326 10563 net.cpp:150] Setting up cls_score
I0418 04:31:08.064338 10563 net.cpp:157] Top shape: 1 99 (99)
I0418 04:31:08.064342 10563 net.cpp:165] Memory required for data: 10172692288
I0418 04:31:08.064349 10563 layer_factory.hpp:77] Creating layer twin_pred
I0418 04:31:08.064355 10563 net.cpp:100] Creating Layer twin_pred
I0418 04:31:08.064360 10563 net.cpp:434] twin_pred <- fc6_drop6_0_split_1
I0418 04:31:08.064366 10563 net.cpp:408] twin_pred -> twin_pred
I0418 04:31:08.085794 10563 net.cpp:150] Setting up twin_pred
I0418 04:31:08.085809 10563 net.cpp:157] Top shape: 1 198 (198)
I0418 04:31:08.085813 10563 net.cpp:165] Memory required for data: 10172693080
I0418 04:31:08.085820 10563 layer_factory.hpp:77] Creating layer loss_twin
I0418 04:31:08.085827 10563 net.cpp:100] Creating Layer loss_twin
I0418 04:31:08.085832 10563 net.cpp:434] loss_twin <- twin_pred
I0418 04:31:08.085836 10563 net.cpp:434] loss_twin <- twin_targets
I0418 04:31:08.085841 10563 net.cpp:434] loss_twin <- twin_inside_weights
…
