…
stepsize: 350000
snapshot: 0
snapshot_prefix: "./experiments/activitynet/snapshot/activitynet"
average_loss: 100
iter_size: 1
I0418 04:51:33.548162 21905 solver.cpp:81] Creating training net from train_net file: ./experiments/activitynet/train.prototxt
I0418 04:51:33.549194 21905 net.cpp:58] Initializing net from parameters: 
name: "activitynet"
state {
  phase: TRAIN
}
layer {
  name: "data"
  type: "Python"
  top: "data"
  top: "gt_boxes"
  python_param {
    module: "roi_data_layer.layer"
    layer: "RoIDataLayer"
    param_str: "\'num_classes\': 100"
  }
}
layer {
  name: "conv1a"
  type: "Convolution"
  bottom: "data"
  top: "conv1a"
  param {
    lr_mult: 0
    decay_mult: 0
  }
  param {
    lr_mult: 0
    decay_mult: 0
  }
  convolution_param {
    num_output: 64
    pad: 1
    pad: 1
    pad: 1
    kernel_size: 3
    kernel_size: 3
    kernel_size: 3
    weight_filler {
      type: "gaussian"
      std: 0.01
    }
    bias_filler {
      type: "constant"
      value: 0
    }
  }
}
layer {
  name: "relu1a"
  type: "ReLU"
  bottom: "conv1a"
  top: "conv1a"
}
layer {
  name: "pool1"
  type: "Pooling"
  bottom: "conv1a"
  top: "pool1"
  pooling_param {
    pool: MAX
    kernel_size: 1
    kernel_size: 2
    kernel_size: 2
    stride: 1
    stride: 2
    stride: 2
  }
}
layer {
  name: "conv2a"
  type: "Convolution"
  bottom: "pool1"
  top: "conv2a"
  param {
    lr_mult: 0
    decay_mult: 0
  }
  param {
    lr_mult: 0
    decay_mult: 0
  }
  convolution_param {
    num_output: 128
    pad: 1
    pad: 1
    pad: 1
    kernel_size: 3
    kernel_size: 3
    kernel_size: 3
    weight_filler {
      type: "gaussian"
      std: 0.01
    }
    bias_filler {
      type: "constant"
      value: 1
    }
  }
}
layer {
  name: "relu2a"
  type: "ReLU"
  bottom: "conv2a"
  top: "conv2a"
}
layer {
  name: "pool2"
  type: "Pooling"
  bottom: "conv2a"
  top: "pool2"
  pooling_param {
    pool: MAX
    kernel_size: 2
    kernel_size: 2
    kernel_size: 2
    stride: 2
    stride: 2
    stride: 2
  }
}
layer {
  name: "conv3a"
  type: "Convolution"
  bottom: "pool2"
  top: "conv3a"
  param {
    lr_mult: 1
    decay_mult: 1
  }
  param {
    lr_mult: 2
    decay_mult: 0
  }
  convolution_param {
    num_output: 256
    pad: 1
    pad: 1
    pad: 1
    kernel_size: 3
    kernel_size: 3
    kernel_size: 3
    weight_filler {
      type: "gaussian"
      std: 0.01
    }
    bias_filler {
      type: "constant"
      value: 1
    }
  }
}
layer {
  name: "relu3a"
  type: "ReLU"
  bottom: "conv3a"
  top: "conv3a"
}
layer {
  name: "conv3b"
  type: "Convolution"
  bottom: "conv3a"
  top: "conv3b"
  param {
    lr_mult: 1
    decay_mult: 1
  }
  param {
    lr_mult: 2
    decay_mult: 0
  }
  convolution_param {
    num_output: 256
    pad: 1
    pad: 1
    pad: 1
    kernel_size: 3
    kernel_size: 3
    kernel_size: 3
    weight_filler {
      type: "gaussian"
      std: 0.01
    }
    bias_filler {
      type: "constant"
      value: 1
    }
  }
}
layer {
  name: "relu3b"
  type: "ReLU"
  bottom: "conv3b"
  top: "conv3b"
}
layer {
  name: "pool3"
  type: "Pooling"
  bottom: "conv3b"
  top: "pool3"
  pooling_param {
    pool: MAX
    kernel_size: 2
    kernel_size: 2
    kernel_size: 2
    stride: 2
    stride: 2
    stride: 2
  }
}
layer {
  name: "conv4a"
  type: "Convolution"
  bottom: "pool3"
  top: "conv4a"
  param {
    lr_mult: 1
    decay_mult: 1
  }
  param {
    lr_mult: 2
    decay_mult: 0
  }
  convolution_param {
    num_output: 512
    pad: 1
    pad: 1
    pad: 1
    kernel_size: 3
    kernel_size: 3
    kernel_size: 3
    weight_filler {
      type: "gaussian"
      std: 0.01
    }
    bias_filler {
      type: "constant"
      value: 1
    }
  }
}
layer {
  name: "relu4a"
  type: "ReLU"
  bottom: "conv4a"
  top: "conv4a"
}
layer {
  name: "conv4b"
  type: "Convolution"
  bottom: "conv4a"
  top: "conv4b"
  param {
    lr_mult: 1
    decay_mult: 1
  }
  param {
    lr_mult: 2
    decay_mult: 0
  }
  convolution_param {
    num_output: 512
    pad: 1
    pad: 1
    pad: 1
    kernel_size: 3
    kernel_size: 3
    kernel_size: 3
    weight_filler {
      type: "gaussian"
      std: 0.01
    }
    bias_filler {
      type: "constant"
      value: 1
    }
  }
}
layer {
  name: "relu4b"
  type: "ReLU"
  bottom: "conv4b"
  top: "conv4b"
}
layer {
  name: "pool4"
  type: "Pooling"
  bottom: "conv4b"
  top: "pool4"
  pooling_param {
    pool: MAX
    kernel_size: 2
    kernel_size: 2
    kernel_size: 2
    stride: 2
    stride: 2
    stride: 2
  }
}
layer {
  name: "conv5a"
  type: "Convolution"
  bottom: "pool4"
  top: "conv5a"
  param {
    lr_mult: 1
    decay_mult: 1
  }
  param {
    lr_mult: 2
    decay_mult: 0
  }
  convolution_param {
    num_output: 512
    pad: 1
    pad: 1
    pad: 1
    kernel_size: 3
    kernel_size: 3
    kernel_size: 3
    weight_filler {
      type: "gaussian"
      std: 0.01
    }
    bias_filler {
      type: "constant"
      value: 1
    }
  }
}
layer {
  name: "relu5a"
  type: "ReLU"
  bottom: "conv5a"
  top: "conv5a"
}
layer {
  name: "conv5b"
  type: "Convolution"
  bottom: "conv5a"
  top: "conv5b"
  param {
    lr_mult: 1
    decay_mult: 1
  }
  param {
    lr_mult: 2
    decay_mult: 0
  }
  convolution_param {
    num_output: 512
    pad: 1
    pad: 1
    pad: 1
    kernel_size: 3
    kernel_size: 3
    kernel_size: 3
    weight_filler {
      type: "gaussian"
      std: 0.01
    }
    bias_filler {
      type: "constant"
      value: 1
    }
  }
}
layer {
  name: "relu5b"
  type: "ReLU"
  bottom: "conv5b"
  top: "conv5b"
}
layer {
  name: "rpn_conv/3x3"
  type: "Convolution"
  bottom: "conv5b"
  top: "rpn/output"
  param {
    lr_mult: 1
    decay_mult: 1
  }
  param {
    lr_mult: 2
    decay_mult: 0
  }
  convolution_param {
    num_output: 512
    pad: 1
    pad: 1
    pad: 1
    kernel_size: 3
    kernel_size: 3
    kernel_size: 3
    stride: 1
    stride: 2
    stride: 2
    weight_filler {
      type: "gaussian"
      std: 0.01
    }
    bias_filler {
      type: "constant"
      value: 0
    }
  }
}
layer {
  name: "rpn_relu/3x3"
  type: "ReLU"
  bottom: "rpn/output"
  top: "rpn/output"
}
layer {
  name: "rpn_conv/3x3_2"
  type: "Convolution"
  bottom: "rpn/output"
  top: "rpn/output_2"
  param {
    lr_mult: 1
    decay_mult: 1
  }
  param {
    lr_mult: 2
    decay_mult: 0
  }
  convolution_param {
    num_output: 512
    pad: 1
    pad: 1
    pad: 1
    kernel_size: 3
    kernel_size: 3
    kernel_size: 3
    stride: 1
    stride: 2
    stride: 2
    weight_filler {
      type: "gaussian"
      std: 0.01
    }
    bias_filler {
      type: "constant"
      value: 0
    }
  }
}
layer {
  name: "rpn_relu/3x3_2"
  type: "ReLU"
  bottom: "rpn/output_2"
  top: "rpn/output_2"
}
layer {
  name: "rpn/output_pool"
  type: "Pooling"
  bottom: "rpn/output_2"
  top: "rpn/output_pool"
  pooling_param {
    pool: MAX
    kernel_size: 1
    kernel_size: 2
    kernel_size: 2
  }
}
layer {
  name: "rpn_cls_score"
  type: "Convolution"
  bottom: "rpn/output_pool"
  top: "rpn_cls_score"
  param {
    lr_mult: 1
    decay_mult: 1
  }
  param {
    lr_mult: 2
    decay_mult: 0
  }
  convolution_param {
    num_output: 74
    kernel_size: 1
    kernel_size: 1
    kernel_size: 1
    weight_filler {
      type: "gaussian"
      std: 0.01
    }
    bias_filler {
      type: "constant"
      value: 0
    }
  }
}
layer {
  name: "rpn_twin_pred"
  type: "Convolution"
  bottom: "rpn/output_pool"
  top: "rpn_twin_pred"
  param {
    lr_mult: 1
    decay_mult: 1
  }
  param {
    lr_mult: 2
    decay_mult: 0
  }
  convolution_param {
    num_output: 74
    kernel_size: 1
    kernel_size: 1
    kernel_size: 1
    weight_filler {
      type: "gaussian"
      std: 0.01
    }
    bias_filler {
      type: "constant"
      value: 0
    }
  }
}
layer {
  name: "rpn_cls_score_reshape"
  type: "Reshape"
  bottom: "rpn_cls_score"
  top: "rpn_cls_score_reshape"
  reshape_param {
    shape {
      dim: 0
      dim: 2
      dim: -1
      dim: 0
      dim: 0
    }
  }
}
layer {
  name: "rpn-data"
  type: "Python"
  bottom: "rpn_cls_score"
  bottom: "gt_boxes"
  bottom: "data"
  top: "rpn_labels"
  top: "rpn_twin_targets"
  top: "rpn_twin_inside_weights"
  top: "rpn_twin_outside_weights"
  python_param {
    module: "rpn.anchor_target_layer"
    layer: "AnchorTargetLayer"
    param_str: "\'feat_stride\': 8 \n\'scales\': !!python/tuple [1,1.25, 1.5,1.75, 2,2.5, 3,3.5, 4,4.5, 5,5.5, 6,7, 8,9,10,11,12,14,16,18,20,22,24,28,32,36,40,44,52,60,68,76,84,92,100]"
  }
}
layer {
  name: "rpn_loss_cls"
  type: "SoftmaxWithLoss"
  bottom: "rpn_cls_score_reshape"
  bottom: "rpn_labels"
  top: "rpn_cls_loss"
  loss_weight: 1
  propagate_down: true
  propagate_down: false
  loss_param {
    ignore_label: -1
    normalize: true
  }
}
layer {
  name: "rpn_loss_twin"
  type: "SmoothL1Loss"
  bottom: "rpn_twin_pred"
  bottom: "rpn_twin_targets"
  bottom: "rpn_twin_inside_weights"
  bottom: "rpn_twin_outside_weights"
  top: "rpn_loss_twin"
  loss_weight: 1
  smooth_l1_loss_param {
    sigma: 3
  }
}
layer {
  name: "rpn_accuarcy"
  type: "Accuracy"
  bottom: "rpn_cls_score_reshape"
  bottom: "rpn_labels"
  top: "rpn_accuarcy"
  top: "rpn_accuarcy_class"
  propagate_down: false
  propagate_down: false
  accuracy_param {
    ignore_label: -1
  }
}
layer {
  name: "rpn_cls_prob"
  type: "Softmax"
  bottom: "rpn_cls_score_reshape"
  top: "rpn_cls_prob"
}
layer {
  name: "rpn_cls_prob_reshape"
  type: "Reshape"
  bottom: "rpn_cls_prob"
  top: "rpn_cls_prob_reshape"
  reshape_param {
    shape {
      dim: 0
      dim: 74
      dim: -1
      dim: 0
      dim: 0
    }
  }
}
layer {
  name: "proposal"
  type: "Python"
  bottom: "rpn_cls_prob_reshape"
  bottom: "rpn_twin_pred"
  top: "rpn_rois"
  include {
    phase: TRAIN
  }
  python_param {
    module: "rpn.proposal_layer"
    layer: "ProposalLayer"
    param_str: "\'feat_stride\': 8 \n\'scales\': !!python/tuple [1,1.25, 1.5,1.75, 2,2.5, 3,3.5, 4,4.5, 5,5.5, 6,7, 8,9,10,11,12,14,16,18,20,22,24,28,32,36,40,44,52,60,68,76,84,92,100]"
  }
}
layer {
  name: "roi-data"
  type: "Python"
  bottom: "rpn_rois"
  bottom: "gt_boxes"
  top: "rois"
  top: "labels"
  top: "twin_targets"
  top: "twin_inside_weights"
  top: "twin_outside_weights"
  python_param {
    module: "rpn.proposal_target_layer"
    layer: "ProposalTargetLayer"
    param_str: "\'num_classes\': 99"
  }
}
layer {
  name: "roi_pool5"
  type: "ROIPooling"
  bottom: "conv5b"
  bottom: "rois"
  top: "pool5"
  roi_pooling_param {
    pooled_h: 4
    pooled_w: 4
    spatial_scale: 0.0625
    pooled_l: 1
    temporal_scale: 0.125
  }
}
layer {
  name: "fc6"
  type: "InnerProduct"
  bottom: "pool5"
  top: "fc6"
  param {
    lr_mult: 1
    decay_mult: 1
  }
  param {
    lr_mult: 2
    decay_mult: 0
  }
  inner_product_param {
    num_output: 4096
    weight_filler {
      type: "gaussian"
      std: 0.005
    }
    bias_filler {
      type: "constant"
      value: 1
    }
  }
}
layer {
  name: "relu6"
  type: "ReLU"
  bottom: "fc6"
  top: "fc6"
}
layer {
  name: "drop6"
  type: "Dropout"
  bottom: "fc6"
  top: "fc6"
  dropout_param {
    dropout_ratio: 0.5
  }
}
layer {
  name: "cls_score"
  type: "InnerProduct"
  bottom: "fc6"
  top: "cls_score"
  param {
    lr_mult: 1
    decay_mult: 1
  }
  param {
    lr_mult: 2
    decay_mult: 0
  }
  inner_product_param {
    num_output: 99
    weight_filler {
      type: "gaussian"
      std: 0.01
    }
    bias_filler {
      type: "constant"
      value: 0
    }
  }
}
layer {
  name: "twin_pred"
  type: "InnerProduct"
  bottom: "fc6"
  top: "twin_pred"
  param {
    lr_mult: 1
    decay_mult: 1
  }
  param {
    lr_mult: 2
    decay_mult: 0
  }
  inner_product_param {
    num_output: 198
    weight_filler {
      type: "gaussian"
      std: 0.001
    }
    bias_filler {
      type: "constant"
      value: 0
    }
  }
}
layer {
  name: "loss_cls"
  type: "SigmoidCrossEntropyLoss"
  bottom: "cls_score"
  bottom: "labels"
  top: "loss_cls"
  loss_weight: 1
  propagate_down: true
  propagate_down: false
}
layer {
  name: "loss_twin"
  type: "SmoothL1Loss"
  bottom: "twin_pred"
  bottom: "twin_targets"
  bottom: "twin_inside_weights"
  bottom: "twin_outside_weights"
  top: "loss_twin"
  loss_weight: 1
}
I0418 04:51:33.549387 21905 layer_factory.hpp:77] Creating layer data
I0418 04:51:33.573225 21905 net.cpp:100] Creating Layer data
I0418 04:51:33.573246 21905 net.cpp:408] data -> data
I0418 04:51:33.573259 21905 net.cpp:408] data -> gt_boxes
setting up
has rpn
RoiDataLayer: name_to_top: {'gt_windows': 1, 'data': 0}
I0418 04:51:33.586022 21905 net.cpp:150] Setting up data
I0418 04:51:33.586045 21905 net.cpp:157] Top shape: 1 3 768 112 112 (28901376)
I0418 04:51:33.586050 21905 net.cpp:157] Top shape: 1 101 (101)
I0418 04:51:33.586053 21905 net.cpp:165] Memory required for data: 115605908
I0418 04:51:33.586058 21905 layer_factory.hpp:77] Creating layer data_data_0_split
I0418 04:51:33.586069 21905 net.cpp:100] Creating Layer data_data_0_split
I0418 04:51:33.586076 21905 net.cpp:434] data_data_0_split <- data
I0418 04:51:33.586082 21905 net.cpp:408] data_data_0_split -> data_data_0_split_0
I0418 04:51:33.586091 21905 net.cpp:408] data_data_0_split -> data_data_0_split_1
I0418 04:51:33.586124 21905 net.cpp:150] Setting up data_data_0_split
I0418 04:51:33.586132 21905 net.cpp:157] Top shape: 1 3 768 112 112 (28901376)
I0418 04:51:33.586135 21905 net.cpp:157] Top shape: 1 3 768 112 112 (28901376)
I0418 04:51:33.586138 21905 net.cpp:165] Memory required for data: 346816916
I0418 04:51:33.586141 21905 layer_factory.hpp:77] Creating layer gt_boxes_data_1_split
I0418 04:51:33.586146 21905 net.cpp:100] Creating Layer gt_boxes_data_1_split
I0418 04:51:33.586149 21905 net.cpp:434] gt_boxes_data_1_split <- gt_boxes
I0418 04:51:33.586154 21905 net.cpp:408] gt_boxes_data_1_split -> gt_boxes_data_1_split_0
I0418 04:51:33.586160 21905 net.cpp:408] gt_boxes_data_1_split -> gt_boxes_data_1_split_1
I0418 04:51:33.586184 21905 net.cpp:150] Setting up gt_boxes_data_1_split
I0418 04:51:33.586189 21905 net.cpp:157] Top shape: 1 101 (101)
I0418 04:51:33.586194 21905 net.cpp:157] Top shape: 1 101 (101)
I0418 04:51:33.586195 21905 net.cpp:165] Memory required for data: 346817724
I0418 04:51:33.586199 21905 layer_factory.hpp:77] Creating layer conv1a
I0418 04:51:33.586215 21905 net.cpp:100] Creating Layer conv1a
I0418 04:51:33.586220 21905 net.cpp:434] conv1a <- data_data_0_split_0
I0418 04:51:33.586225 21905 net.cpp:408] conv1a -> conv1a
I0418 04:51:33.768061 21905 net.cpp:150] Setting up conv1a
I0418 04:51:33.768087 21905 net.cpp:157] Top shape: 1 64 768 112 112 (616562688)
I0418 04:51:33.768091 21905 net.cpp:165] Memory required for data: 2813068476
I0418 04:51:33.768108 21905 layer_factory.hpp:77] Creating layer relu1a
I0418 04:51:33.768122 21905 net.cpp:100] Creating Layer relu1a
I0418 04:51:33.768127 21905 net.cpp:434] relu1a <- conv1a
I0418 04:51:33.768132 21905 net.cpp:395] relu1a -> conv1a (in-place)
I0418 04:51:33.769023 21905 net.cpp:150] Setting up relu1a
I0418 04:51:33.769060 21905 net.cpp:157] Top shape: 1 64 768 112 112 (616562688)
I0418 04:51:33.769070 21905 net.cpp:165] Memory required for data: 5279319228
I0418 04:51:33.769081 21905 layer_factory.hpp:77] Creating layer pool1
I0418 04:51:33.769110 21905 net.cpp:100] Creating Layer pool1
I0418 04:51:33.769129 21905 net.cpp:434] pool1 <- conv1a
I0418 04:51:33.769155 21905 net.cpp:408] pool1 -> pool1
I0418 04:51:33.769620 21905 net.cpp:150] Setting up pool1
I0418 04:51:33.769649 21905 net.cpp:157] Top shape: 1 64 768 56 56 (154140672)
I0418 04:51:33.769666 21905 net.cpp:165] Memory required for data: 5895881916
I0418 04:51:33.769682 21905 layer_factory.hpp:77] Creating layer conv2a
I0418 04:51:33.769714 21905 net.cpp:100] Creating Layer conv2a
I0418 04:51:33.769739 21905 net.cpp:434] conv2a <- pool1
I0418 04:51:33.769765 21905 net.cpp:408] conv2a -> conv2a
I0418 04:51:33.791375 21905 net.cpp:150] Setting up conv2a
I0418 04:51:33.791400 21905 net.cpp:157] Top shape: 1 128 768 56 56 (308281344)
I0418 04:51:33.791404 21905 net.cpp:165] Memory required for data: 7129007292
I0418 04:51:33.791416 21905 layer_factory.hpp:77] Creating layer relu2a
I0418 04:51:33.791426 21905 net.cpp:100] Creating Layer relu2a
I0418 04:51:33.791431 21905 net.cpp:434] relu2a <- conv2a
I0418 04:51:33.791437 21905 net.cpp:395] relu2a -> conv2a (in-place)
I0418 04:51:33.791767 21905 net.cpp:150] Setting up relu2a
I0418 04:51:33.791780 21905 net.cpp:157] Top shape: 1 128 768 56 56 (308281344)
I0418 04:51:33.791785 21905 net.cpp:165] Memory required for data: 8362132668
I0418 04:51:33.791788 21905 layer_factory.hpp:77] Creating layer pool2
I0418 04:51:33.791797 21905 net.cpp:100] Creating Layer pool2
I0418 04:51:33.791803 21905 net.cpp:434] pool2 <- conv2a
I0418 04:51:33.791810 21905 net.cpp:408] pool2 -> pool2
I0418 04:51:33.791986 21905 net.cpp:150] Setting up pool2
I0418 04:51:33.791997 21905 net.cpp:157] Top shape: 1 128 384 28 28 (38535168)
I0418 04:51:33.792001 21905 net.cpp:165] Memory required for data: 8516273340
I0418 04:51:33.792006 21905 layer_factory.hpp:77] Creating layer conv3a
I0418 04:51:33.792016 21905 net.cpp:100] Creating Layer conv3a
I0418 04:51:33.792019 21905 net.cpp:434] conv3a <- pool2
I0418 04:51:33.792026 21905 net.cpp:408] conv3a -> conv3a
I0418 04:51:33.817607 21905 net.cpp:150] Setting up conv3a
I0418 04:51:33.817625 21905 net.cpp:157] Top shape: 1 256 384 28 28 (77070336)
I0418 04:51:33.817628 21905 net.cpp:165] Memory required for data: 8824554684
I0418 04:51:33.817638 21905 layer_factory.hpp:77] Creating layer relu3a
I0418 04:51:33.817646 21905 net.cpp:100] Creating Layer relu3a
I0418 04:51:33.817649 21905 net.cpp:434] relu3a <- conv3a
I0418 04:51:33.817654 21905 net.cpp:395] relu3a -> conv3a (in-place)
I0418 04:51:33.817935 21905 net.cpp:150] Setting up relu3a
I0418 04:51:33.817948 21905 net.cpp:157] Top shape: 1 256 384 28 28 (77070336)
I0418 04:51:33.817952 21905 net.cpp:165] Memory required for data: 9132836028
I0418 04:51:33.817956 21905 layer_factory.hpp:77] Creating layer conv3b
I0418 04:51:33.817966 21905 net.cpp:100] Creating Layer conv3b
I0418 04:51:33.817970 21905 net.cpp:434] conv3b <- conv3a
I0418 04:51:33.817976 21905 net.cpp:408] conv3b -> conv3b
I0418 04:51:33.867151 21905 net.cpp:150] Setting up conv3b
I0418 04:51:33.867175 21905 net.cpp:157] Top shape: 1 256 384 28 28 (77070336)
I0418 04:51:33.867180 21905 net.cpp:165] Memory required for data: 9441117372
I0418 04:51:33.867189 21905 layer_factory.hpp:77] Creating layer relu3b
I0418 04:51:33.867198 21905 net.cpp:100] Creating Layer relu3b
I0418 04:51:33.867203 21905 net.cpp:434] relu3b <- conv3b
I0418 04:51:33.867209 21905 net.cpp:395] relu3b -> conv3b (in-place)
I0418 04:51:33.867503 21905 net.cpp:150] Setting up relu3b
I0418 04:51:33.867517 21905 net.cpp:157] Top shape: 1 256 384 28 28 (77070336)
I0418 04:51:33.867522 21905 net.cpp:165] Memory required for data: 9749398716
I0418 04:51:33.867525 21905 layer_factory.hpp:77] Creating layer pool3
I0418 04:51:33.867532 21905 net.cpp:100] Creating Layer pool3
I0418 04:51:33.867537 21905 net.cpp:434] pool3 <- conv3b
I0418 04:51:33.867542 21905 net.cpp:408] pool3 -> pool3
I0418 04:51:33.867712 21905 net.cpp:150] Setting up pool3
I0418 04:51:33.867722 21905 net.cpp:157] Top shape: 1 256 192 14 14 (9633792)
I0418 04:51:33.867727 21905 net.cpp:165] Memory required for data: 9787933884
I0418 04:51:33.867732 21905 layer_factory.hpp:77] Creating layer conv4a
I0418 04:51:33.867741 21905 net.cpp:100] Creating Layer conv4a
I0418 04:51:33.867745 21905 net.cpp:434] conv4a <- pool3
I0418 04:51:33.867750 21905 net.cpp:408] conv4a -> conv4a
I0418 04:51:33.965198 21905 net.cpp:150] Setting up conv4a
I0418 04:51:33.965227 21905 net.cpp:157] Top shape: 1 512 192 14 14 (19267584)
I0418 04:51:33.965231 21905 net.cpp:165] Memory required for data: 9865004220
I0418 04:51:33.965245 21905 layer_factory.hpp:77] Creating layer relu4a
I0418 04:51:33.965255 21905 net.cpp:100] Creating Layer relu4a
I0418 04:51:33.965258 21905 net.cpp:434] relu4a <- conv4a
I0418 04:51:33.965265 21905 net.cpp:395] relu4a -> conv4a (in-place)
I0418 04:51:33.965590 21905 net.cpp:150] Setting up relu4a
I0418 04:51:33.965602 21905 net.cpp:157] Top shape: 1 512 192 14 14 (19267584)
I0418 04:51:33.965606 21905 net.cpp:165] Memory required for data: 9942074556
I0418 04:51:33.965610 21905 layer_factory.hpp:77] Creating layer conv4b
I0418 04:51:33.965623 21905 net.cpp:100] Creating Layer conv4b
I0418 04:51:33.965627 21905 net.cpp:434] conv4b <- conv4a
I0418 04:51:33.965633 21905 net.cpp:408] conv4b -> conv4b
I0418 04:51:34.159216 21905 net.cpp:150] Setting up conv4b
I0418 04:51:34.159240 21905 net.cpp:157] Top shape: 1 512 192 14 14 (19267584)
I0418 04:51:34.159245 21905 net.cpp:165] Memory required for data: 10019144892
I0418 04:51:34.159255 21905 layer_factory.hpp:77] Creating layer relu4b
I0418 04:51:34.159263 21905 net.cpp:100] Creating Layer relu4b
I0418 04:51:34.159268 21905 net.cpp:434] relu4b <- conv4b
I0418 04:51:34.159274 21905 net.cpp:395] relu4b -> conv4b (in-place)
I0418 04:51:34.159425 21905 net.cpp:150] Setting up relu4b
I0418 04:51:34.159437 21905 net.cpp:157] Top shape: 1 512 192 14 14 (19267584)
I0418 04:51:34.159441 21905 net.cpp:165] Memory required for data: 10096215228
I0418 04:51:34.159445 21905 layer_factory.hpp:77] Creating layer pool4
I0418 04:51:34.159452 21905 net.cpp:100] Creating Layer pool4
I0418 04:51:34.159456 21905 net.cpp:434] pool4 <- conv4b
I0418 04:51:34.159461 21905 net.cpp:408] pool4 -> pool4
I0418 04:51:34.159780 21905 net.cpp:150] Setting up pool4
I0418 04:51:34.159793 21905 net.cpp:157] Top shape: 1 512 96 7 7 (2408448)
I0418 04:51:34.159796 21905 net.cpp:165] Memory required for data: 10105849020
I0418 04:51:34.159801 21905 layer_factory.hpp:77] Creating layer conv5a
I0418 04:51:34.159811 21905 net.cpp:100] Creating Layer conv5a
I0418 04:51:34.159814 21905 net.cpp:434] conv5a <- pool4
I0418 04:51:34.159821 21905 net.cpp:408] conv5a -> conv5a
I0418 04:51:34.351248 21905 net.cpp:150] Setting up conv5a
I0418 04:51:34.351284 21905 net.cpp:157] Top shape: 1 512 96 7 7 (2408448)
I0418 04:51:34.351287 21905 net.cpp:165] Memory required for data: 10115482812
I0418 04:51:34.351296 21905 layer_factory.hpp:77] Creating layer relu5a
I0418 04:51:34.351305 21905 net.cpp:100] Creating Layer relu5a
I0418 04:51:34.351310 21905 net.cpp:434] relu5a <- conv5a
I0418 04:51:34.351316 21905 net.cpp:395] relu5a -> conv5a (in-place)
I0418 04:51:34.351752 21905 net.cpp:150] Setting up relu5a
I0418 04:51:34.351764 21905 net.cpp:157] Top shape: 1 512 96 7 7 (2408448)
I0418 04:51:34.351768 21905 net.cpp:165] Memory required for data: 10125116604
I0418 04:51:34.351773 21905 layer_factory.hpp:77] Creating layer conv5b
I0418 04:51:34.351783 21905 net.cpp:100] Creating Layer conv5b
I0418 04:51:34.351785 21905 net.cpp:434] conv5b <- conv5a
I0418 04:51:34.351792 21905 net.cpp:408] conv5b -> conv5b
I0418 04:51:34.539418 21905 net.cpp:150] Setting up conv5b
I0418 04:51:34.539443 21905 net.cpp:157] Top shape: 1 512 96 7 7 (2408448)
I0418 04:51:34.539448 21905 net.cpp:165] Memory required for data: 10134750396
I0418 04:51:34.539465 21905 layer_factory.hpp:77] Creating layer relu5b
I0418 04:51:34.539475 21905 net.cpp:100] Creating Layer relu5b
I0418 04:51:34.539481 21905 net.cpp:434] relu5b <- conv5b
I0418 04:51:34.539487 21905 net.cpp:395] relu5b -> conv5b (in-place)
I0418 04:51:34.539629 21905 net.cpp:150] Setting up relu5b
I0418 04:51:34.539639 21905 net.cpp:157] Top shape: 1 512 96 7 7 (2408448)
I0418 04:51:34.539643 21905 net.cpp:165] Memory required for data: 10144384188
I0418 04:51:34.539646 21905 layer_factory.hpp:77] Creating layer conv5b_relu5b_0_split
I0418 04:51:34.539651 21905 net.cpp:100] Creating Layer conv5b_relu5b_0_split
I0418 04:51:34.539655 21905 net.cpp:434] conv5b_relu5b_0_split <- conv5b
I0418 04:51:34.539661 21905 net.cpp:408] conv5b_relu5b_0_split -> conv5b_relu5b_0_split_0
I0418 04:51:34.539667 21905 net.cpp:408] conv5b_relu5b_0_split -> conv5b_relu5b_0_split_1
I0418 04:51:34.539750 21905 net.cpp:150] Setting up conv5b_relu5b_0_split
I0418 04:51:34.539759 21905 net.cpp:157] Top shape: 1 512 96 7 7 (2408448)
I0418 04:51:34.539763 21905 net.cpp:157] Top shape: 1 512 96 7 7 (2408448)
I0418 04:51:34.539767 21905 net.cpp:165] Memory required for data: 10163651772
I0418 04:51:34.539770 21905 layer_factory.hpp:77] Creating layer rpn_conv/3x3
I0418 04:51:34.539779 21905 net.cpp:100] Creating Layer rpn_conv/3x3
I0418 04:51:34.539783 21905 net.cpp:434] rpn_conv/3x3 <- conv5b_relu5b_0_split_0
I0418 04:51:34.539788 21905 net.cpp:408] rpn_conv/3x3 -> rpn/output
I0418 04:51:34.727623 21905 net.cpp:150] Setting up rpn_conv/3x3
I0418 04:51:34.727648 21905 net.cpp:157] Top shape: 1 512 96 4 4 (786432)
I0418 04:51:34.727651 21905 net.cpp:165] Memory required for data: 10166797500
I0418 04:51:34.727664 21905 layer_factory.hpp:77] Creating layer rpn_relu/3x3
I0418 04:51:34.727674 21905 net.cpp:100] Creating Layer rpn_relu/3x3
I0418 04:51:34.727679 21905 net.cpp:434] rpn_relu/3x3 <- rpn/output
I0418 04:51:34.727686 21905 net.cpp:395] rpn_relu/3x3 -> rpn/output (in-place)
I0418 04:51:34.728107 21905 net.cpp:150] Setting up rpn_relu/3x3
I0418 04:51:34.728119 21905 net.cpp:157] Top shape: 1 512 96 4 4 (786432)
I0418 04:51:34.728123 21905 net.cpp:165] Memory required for data: 10169943228
I0418 04:51:34.728127 21905 layer_factory.hpp:77] Creating layer rpn_conv/3x3_2
I0418 04:51:34.728137 21905 net.cpp:100] Creating Layer rpn_conv/3x3_2
I0418 04:51:34.728142 21905 net.cpp:434] rpn_conv/3x3_2 <- rpn/output
I0418 04:51:34.728147 21905 net.cpp:408] rpn_conv/3x3_2 -> rpn/output_2
I0418 04:51:34.913830 21905 net.cpp:150] Setting up rpn_conv/3x3_2
I0418 04:51:34.913856 21905 net.cpp:157] Top shape: 1 512 96 2 2 (196608)
I0418 04:51:34.913859 21905 net.cpp:165] Memory required for data: 10170729660
I0418 04:51:34.913868 21905 layer_factory.hpp:77] Creating layer rpn_relu/3x3_2
I0418 04:51:34.913877 21905 net.cpp:100] Creating Layer rpn_relu/3x3_2
I0418 04:51:34.913882 21905 net.cpp:434] rpn_relu/3x3_2 <- rpn/output_2
I0418 04:51:34.913887 21905 net.cpp:395] rpn_relu/3x3_2 -> rpn/output_2 (in-place)
I0418 04:51:34.914193 21905 net.cpp:150] Setting up rpn_relu/3x3_2
I0418 04:51:34.914206 21905 net.cpp:157] Top shape: 1 512 96 2 2 (196608)
I0418 04:51:34.914219 21905 net.cpp:165] Memory required for data: 10171516092
I0418 04:51:34.914222 21905 layer_factory.hpp:77] Creating layer rpn/output_pool
I0418 04:51:34.914230 21905 net.cpp:100] Creating Layer rpn/output_pool
I0418 04:51:34.914233 21905 net.cpp:434] rpn/output_pool <- rpn/output_2
I0418 04:51:34.914238 21905 net.cpp:408] rpn/output_pool -> rpn/output_pool
I0418 04:51:34.914407 21905 net.cpp:150] Setting up rpn/output_pool
I0418 04:51:34.914417 21905 net.cpp:157] Top shape: 1 512 96 1 1 (49152)
I0418 04:51:34.914420 21905 net.cpp:165] Memory required for data: 10171712700
I0418 04:51:34.914424 21905 layer_factory.hpp:77] Creating layer rpn/output_pool_rpn/output_pool_0_split
I0418 04:51:34.914429 21905 net.cpp:100] Creating Layer rpn/output_pool_rpn/output_pool_0_split
I0418 04:51:34.914433 21905 net.cpp:434] rpn/output_pool_rpn/output_pool_0_split <- rpn/output_pool
I0418 04:51:34.914438 21905 net.cpp:408] rpn/output_pool_rpn/output_pool_0_split -> rpn/output_pool_rpn/output_pool_0_split_0
I0418 04:51:34.914444 21905 net.cpp:408] rpn/output_pool_rpn/output_pool_0_split -> rpn/output_pool_rpn/output_pool_0_split_1
I0418 04:51:34.914474 21905 net.cpp:150] Setting up rpn/output_pool_rpn/output_pool_0_split
I0418 04:51:34.914481 21905 net.cpp:157] Top shape: 1 512 96 1 1 (49152)
I0418 04:51:34.914485 21905 net.cpp:157] Top shape: 1 512 96 1 1 (49152)
I0418 04:51:34.914489 21905 net.cpp:165] Memory required for data: 10172105916
I0418 04:51:34.914491 21905 layer_factory.hpp:77] Creating layer rpn_cls_score
I0418 04:51:34.914500 21905 net.cpp:100] Creating Layer rpn_cls_score
I0418 04:51:34.914508 21905 net.cpp:434] rpn_cls_score <- rpn/output_pool_rpn/output_pool_0_split_0
I0418 04:51:34.914513 21905 net.cpp:408] rpn_cls_score -> rpn_cls_score
I0418 04:51:34.916462 21905 net.cpp:150] Setting up rpn_cls_score
I0418 04:51:34.916499 21905 net.cpp:157] Top shape: 1 74 96 1 1 (7104)
I0418 04:51:34.916503 21905 net.cpp:165] Memory required for data: 10172134332
I0418 04:51:34.916509 21905 layer_factory.hpp:77] Creating layer rpn_cls_score_rpn_cls_score_0_split
I0418 04:51:34.916515 21905 net.cpp:100] Creating Layer rpn_cls_score_rpn_cls_score_0_split
I0418 04:51:34.916519 21905 net.cpp:434] rpn_cls_score_rpn_cls_score_0_split <- rpn_cls_score
I0418 04:51:34.916524 21905 net.cpp:408] rpn_cls_score_rpn_cls_score_0_split -> rpn_cls_score_rpn_cls_score_0_split_0
I0418 04:51:34.916530 21905 net.cpp:408] rpn_cls_score_rpn_cls_score_0_split -> rpn_cls_score_rpn_cls_score_0_split_1
I0418 04:51:34.916569 21905 net.cpp:150] Setting up rpn_cls_score_rpn_cls_score_0_split
I0418 04:51:34.916577 21905 net.cpp:157] Top shape: 1 74 96 1 1 (7104)
I0418 04:51:34.916581 21905 net.cpp:157] Top shape: 1 74 96 1 1 (7104)
I0418 04:51:34.916585 21905 net.cpp:165] Memory required for data: 10172191164
I0418 04:51:34.916589 21905 layer_factory.hpp:77] Creating layer rpn_twin_pred
I0418 04:51:34.916600 21905 net.cpp:100] Creating Layer rpn_twin_pred
I0418 04:51:34.916605 21905 net.cpp:434] rpn_twin_pred <- rpn/output_pool_rpn/output_pool_0_split_1
I0418 04:51:34.916610 21905 net.cpp:408] rpn_twin_pred -> rpn_twin_pred
I0418 04:51:34.918550 21905 net.cpp:150] Setting up rpn_twin_pred
I0418 04:51:34.918565 21905 net.cpp:157] Top shape: 1 74 96 1 1 (7104)
I0418 04:51:34.918568 21905 net.cpp:165] Memory required for data: 10172219580
I0418 04:51:34.918575 21905 layer_factory.hpp:77] Creating layer rpn_twin_pred_rpn_twin_pred_0_split
I0418 04:51:34.918579 21905 net.cpp:100] Creating Layer rpn_twin_pred_rpn_twin_pred_0_split
I0418 04:51:34.918583 21905 net.cpp:434] rpn_twin_pred_rpn_twin_pred_0_split <- rpn_twin_pred
I0418 04:51:34.918588 21905 net.cpp:408] rpn_twin_pred_rpn_twin_pred_0_split -> rpn_twin_pred_rpn_twin_pred_0_split_0
I0418 04:51:34.918594 21905 net.cpp:408] rpn_twin_pred_rpn_twin_pred_0_split -> rpn_twin_pred_rpn_twin_pred_0_split_1
I0418 04:51:34.918627 21905 net.cpp:150] Setting up rpn_twin_pred_rpn_twin_pred_0_split
I0418 04:51:34.918634 21905 net.cpp:157] Top shape: 1 74 96 1 1 (7104)
I0418 04:51:34.918638 21905 net.cpp:157] Top shape: 1 74 96 1 1 (7104)
I0418 04:51:34.918642 21905 net.cpp:165] Memory required for data: 10172276412
I0418 04:51:34.918645 21905 layer_factory.hpp:77] Creating layer rpn_cls_score_reshape
I0418 04:51:34.918656 21905 net.cpp:100] Creating Layer rpn_cls_score_reshape
I0418 04:51:34.918663 21905 net.cpp:434] rpn_cls_score_reshape <- rpn_cls_score_rpn_cls_score_0_split_0
I0418 04:51:34.918668 21905 net.cpp:408] rpn_cls_score_reshape -> rpn_cls_score_reshape
I0418 04:51:34.918697 21905 net.cpp:150] Setting up rpn_cls_score_reshape
I0418 04:51:34.918705 21905 net.cpp:157] Top shape: 1 2 3552 1 1 (7104)
I0418 04:51:34.918709 21905 net.cpp:165] Memory required for data: 10172304828
I0418 04:51:34.918711 21905 layer_factory.hpp:77] Creating layer rpn_cls_score_reshape_rpn_cls_score_reshape_0_split
I0418 04:51:34.918716 21905 net.cpp:100] Creating Layer rpn_cls_score_reshape_rpn_cls_score_reshape_0_split
I0418 04:51:34.918721 21905 net.cpp:434] rpn_cls_score_reshape_rpn_cls_score_reshape_0_split <- rpn_cls_score_reshape
I0418 04:51:34.918727 21905 net.cpp:408] rpn_cls_score_reshape_rpn_cls_score_reshape_0_split -> rpn_cls_score_reshape_rpn_cls_score_reshape_0_split_0
I0418 04:51:34.918735 21905 net.cpp:408] rpn_cls_score_reshape_rpn_cls_score_reshape_0_split -> rpn_cls_score_reshape_rpn_cls_score_reshape_0_split_1
I0418 04:51:34.918740 21905 net.cpp:408] rpn_cls_score_reshape_rpn_cls_score_reshape_0_split -> rpn_cls_score_reshape_rpn_cls_score_reshape_0_split_2
I0418 04:51:34.918793 21905 net.cpp:150] Setting up rpn_cls_score_reshape_rpn_cls_score_reshape_0_split
I0418 04:51:34.918802 21905 net.cpp:157] Top shape: 1 2 3552 1 1 (7104)
I0418 04:51:34.918807 21905 net.cpp:157] Top shape: 1 2 3552 1 1 (7104)
I0418 04:51:34.918810 21905 net.cpp:157] Top shape: 1 2 3552 1 1 (7104)
I0418 04:51:34.918813 21905 net.cpp:165] Memory required for data: 10172390076
I0418 04:51:34.918817 21905 layer_factory.hpp:77] Creating layer rpn-data
I0418 04:51:34.919229 21905 net.cpp:100] Creating Layer rpn-data
I0418 04:51:34.919240 21905 net.cpp:434] rpn-data <- rpn_cls_score_rpn_cls_score_0_split_1
I0418 04:51:34.919246 21905 net.cpp:434] rpn-data <- gt_boxes_data_1_split_0
I0418 04:51:34.919250 21905 net.cpp:434] rpn-data <- data_data_0_split_1
I0418 04:51:34.919255 21905 net.cpp:408] rpn-data -> rpn_labels
I0418 04:51:34.919261 21905 net.cpp:408] rpn-data -> rpn_twin_targets
I0418 04:51:34.919267 21905 net.cpp:408] rpn-data -> rpn_twin_inside_weights
I0418 04:51:34.919272 21905 net.cpp:408] rpn-data -> rpn_twin_outside_weights
I0418 04:51:34.921612 21905 net.cpp:150] Setting up rpn-data
I0418 04:51:34.921627 21905 net.cpp:157] Top shape: 1 1 3552 1 1 (3552)
I0418 04:51:34.921630 21905 net.cpp:157] Top shape: 1 74 96 1 1 (7104)
I0418 04:51:34.921633 21905 net.cpp:157] Top shape: 1 74 96 1 1 (7104)
I0418 04:51:34.921638 21905 net.cpp:157] Top shape: 1 74 96 1 1 (7104)
I0418 04:51:34.921639 21905 net.cpp:165] Memory required for data: 10172489532
I0418 04:51:34.921643 21905 layer_factory.hpp:77] Creating layer rpn_labels_rpn-data_0_split
I0418 04:51:34.921648 21905 net.cpp:100] Creating Layer rpn_labels_rpn-data_0_split
I0418 04:51:34.921653 21905 net.cpp:434] rpn_labels_rpn-data_0_split <- rpn_labels
I0418 04:51:34.921666 21905 net.cpp:408] rpn_labels_rpn-data_0_split -> rpn_labels_rpn-data_0_split_0
I0418 04:51:34.921674 21905 net.cpp:408] rpn_labels_rpn-data_0_split -> rpn_labels_rpn-data_0_split_1
I0418 04:51:34.921705 21905 net.cpp:150] Setting up rpn_labels_rpn-data_0_split
I0418 04:51:34.921712 21905 net.cpp:157] Top shape: 1 1 3552 1 1 (3552)
I0418 04:51:34.921716 21905 net.cpp:157] Top shape: 1 1 3552 1 1 (3552)
I0418 04:51:34.921720 21905 net.cpp:165] Memory required for data: 10172517948
I0418 04:51:34.921722 21905 layer_factory.hpp:77] Creating layer rpn_loss_cls
I0418 04:51:34.921730 21905 net.cpp:100] Creating Layer rpn_loss_cls
I0418 04:51:34.921735 21905 net.cpp:434] rpn_loss_cls <- rpn_cls_score_reshape_rpn_cls_score_reshape_0_split_0
I0418 04:51:34.921739 21905 net.cpp:434] rpn_loss_cls <- rpn_labels_rpn-data_0_split_0
…
I0418 04:51:34.922300 21905 layer_factory.hpp:77] Creating layer rpn_accuarcy
I0418 04:51:34.922309 21905 net.cpp:100] Creating Layer rpn_accuarcy
I0418 04:51:34.922317 21905 net.cpp:434] rpn_accuarcy <- rpn_cls_score_reshape_rpn_cls_score_reshape_0_split_1
I0418 04:51:34.922322 21905 net.cpp:434] rpn_accuarcy <- rpn_labels_rpn-data_0_split_1
I0418 04:51:34.922327 21905 net.cpp:408] rpn_accuarcy -> rpn_accuarcy
I0418 04:51:34.922333 21905 net.cpp:408] rpn_accuarcy -> rpn_accuarcy_class
I0418 04:51:34.922368 21905 net.cpp:150] Setting up rpn_accuarcy
I0418 04:51:34.922375 21905 net.cpp:157] Top shape: (1)
I0418 04:51:34.922379 21905 net.cpp:157] Top shape: 2 (2)
I0418 04:51:34.922381 21905 net.cpp:165] Memory required for data: 10172517968
I0418 04:51:34.922385 21905 layer_factory.hpp:77] Creating layer rpn_cls_prob
I0418 04:51:34.922389 21905 net.cpp:100] Creating Layer rpn_cls_prob
I0418 04:51:34.922394 21905 net.cpp:434] rpn_cls_prob <- rpn_cls_score_reshape_rpn_cls_score_reshape_0_split_2
I0418 04:51:34.922399 21905 net.cpp:408] rpn_cls_prob -> rpn_cls_prob
I0418 04:51:34.922585 21905 net.cpp:150] Setting up rpn_cls_prob
I0418 04:51:34.922595 21905 net.cpp:157] Top shape: 1 2 3552 1 1 (7104)
I0418 04:51:34.922600 21905 net.cpp:165] Memory required for data: 10172546384
I0418 04:51:34.922602 21905 layer_factory.hpp:77] Creating layer rpn_cls_prob_reshape
I0418 04:51:34.922608 21905 net.cpp:100] Creating Layer rpn_cls_prob_reshape
I0418 04:51:34.922612 21905 net.cpp:434] rpn_cls_prob_reshape <- rpn_cls_prob
I0418 04:51:34.922617 21905 net.cpp:408] rpn_cls_prob_reshape -> rpn_cls_prob_reshape
I0418 04:51:34.922639 21905 net.cpp:150] Setting up rpn_cls_prob_reshape
I0418 04:51:34.922646 21905 net.cpp:157] Top shape: 1 74 96 1 1 (7104)
I0418 04:51:34.922649 21905 net.cpp:165] Memory required for data: 10172574800
I0418 04:51:34.922652 21905 layer_factory.hpp:77] Creating layer proposal
I0418 04:51:34.923225 21905 net.cpp:100] Creating Layer proposal
I0418 04:51:34.923238 21905 net.cpp:434] proposal <- rpn_cls_prob_reshape
I0418 04:51:34.923243 21905 net.cpp:434] proposal <- rpn_twin_pred_rpn_twin_pred_0_split_1
I0418 04:51:34.923249 21905 net.cpp:408] proposal -> rpn_rois
I0418 04:51:34.925468 21905 net.cpp:150] Setting up proposal
I0418 04:51:34.925482 21905 net.cpp:157] Top shape: 1 3 (3)
I0418 04:51:34.925487 21905 net.cpp:165] Memory required for data: 10172574812
I0418 04:51:34.925490 21905 layer_factory.hpp:77] Creating layer roi-data
I0418 04:51:34.925635 21905 net.cpp:100] Creating Layer roi-data
I0418 04:51:34.925647 21905 net.cpp:434] roi-data <- rpn_rois
I0418 04:51:34.925652 21905 net.cpp:434] roi-data <- gt_boxes_data_1_split_1
I0418 04:51:34.925657 21905 net.cpp:408] roi-data -> rois
I0418 04:51:34.925663 21905 net.cpp:408] roi-data -> labels
I0418 04:51:34.925669 21905 net.cpp:408] roi-data -> twin_targets
I0418 04:51:34.925675 21905 net.cpp:408] roi-data -> twin_inside_weights
I0418 04:51:34.925680 21905 net.cpp:408] roi-data -> twin_outside_weights
I0418 04:51:34.925987 21905 net.cpp:150] Setting up roi-data
I0418 04:51:34.925999 21905 net.cpp:157] Top shape: 1 3 (3)
I0418 04:51:34.926003 21905 net.cpp:157] Top shape: 1 99 (99)
I0418 04:51:34.926007 21905 net.cpp:157] Top shape: 1 198 (198)
I0418 04:51:34.926012 21905 net.cpp:157] Top shape: 1 198 (198)
I0418 04:51:34.926014 21905 net.cpp:157] Top shape: 1 198 (198)
I0418 04:51:34.926017 21905 net.cpp:165] Memory required for data: 10172577596
I0418 04:51:34.926021 21905 layer_factory.hpp:77] Creating layer roi_pool5
I0418 04:51:34.926030 21905 net.cpp:100] Creating Layer roi_pool5
I0418 04:51:34.926034 21905 net.cpp:434] roi_pool5 <- conv5b_relu5b_0_split_1
I0418 04:51:34.926039 21905 net.cpp:434] roi_pool5 <- rois
I0418 04:51:34.926044 21905 net.cpp:408] roi_pool5 -> pool5
I0418 04:51:34.926051 21905 roi_pooling_layer.cpp:34] Temporal scale: 0.125
I0418 04:51:34.926059 21905 roi_pooling_layer.cpp:35] Spatial scale: 0.0625
I0418 04:51:34.926103 21905 net.cpp:150] Setting up roi_pool5
I0418 04:51:34.926112 21905 net.cpp:157] Top shape: 1 512 1 4 4 (8192)
I0418 04:51:34.926116 21905 net.cpp:165] Memory required for data: 10172610364
I0418 04:51:34.926120 21905 layer_factory.hpp:77] Creating layer fc6
I0418 04:51:34.926127 21905 net.cpp:100] Creating Layer fc6
I0418 04:51:34.926133 21905 net.cpp:434] fc6 <- pool5
I0418 04:51:34.926141 21905 net.cpp:408] fc6 -> fc6
I0418 04:51:35.806830 21905 net.cpp:150] Setting up fc6
I0418 04:51:35.806854 21905 net.cpp:157] Top shape: 1 4096 (4096)
I0418 04:51:35.806859 21905 net.cpp:165] Memory required for data: 10172626748
I0418 04:51:35.806867 21905 layer_factory.hpp:77] Creating layer relu6
I0418 04:51:35.806876 21905 net.cpp:100] Creating Layer relu6
I0418 04:51:35.806881 21905 net.cpp:434] relu6 <- fc6
I0418 04:51:35.806887 21905 net.cpp:395] relu6 -> fc6 (in-place)
I0418 04:51:35.808678 21905 net.cpp:150] Setting up relu6
I0418 04:51:35.808692 21905 net.cpp:157] Top shape: 1 4096 (4096)
I0418 04:51:35.808696 21905 net.cpp:165] Memory required for data: 10172643132
I0418 04:51:35.808701 21905 layer_factory.hpp:77] Creating layer drop6
I0418 04:51:35.808713 21905 net.cpp:100] Creating Layer drop6
I0418 04:51:35.808719 21905 net.cpp:434] drop6 <- fc6
I0418 04:51:35.808725 21905 net.cpp:395] drop6 -> fc6 (in-place)
I0418 04:51:35.808758 21905 net.cpp:150] Setting up drop6
I0418 04:51:35.808764 21905 net.cpp:157] Top shape: 1 4096 (4096)
I0418 04:51:35.808768 21905 net.cpp:165] Memory required for data: 10172659516
I0418 04:51:35.808770 21905 layer_factory.hpp:77] Creating layer fc6_drop6_0_split
I0418 04:51:35.808776 21905 net.cpp:100] Creating Layer fc6_drop6_0_split
I0418 04:51:35.808779 21905 net.cpp:434] fc6_drop6_0_split <- fc6
I0418 04:51:35.808785 21905 net.cpp:408] fc6_drop6_0_split -> fc6_drop6_0_split_0
I0418 04:51:35.808792 21905 net.cpp:408] fc6_drop6_0_split -> fc6_drop6_0_split_1
I0418 04:51:35.808826 21905 net.cpp:150] Setting up fc6_drop6_0_split
I0418 04:51:35.808831 21905 net.cpp:157] Top shape: 1 4096 (4096)
I0418 04:51:35.808835 21905 net.cpp:157] Top shape: 1 4096 (4096)
I0418 04:51:35.808838 21905 net.cpp:165] Memory required for data: 10172692284
I0418 04:51:35.808843 21905 layer_factory.hpp:77] Creating layer cls_score
I0418 04:51:35.808851 21905 net.cpp:100] Creating Layer cls_score
I0418 04:51:35.808853 21905 net.cpp:434] cls_score <- fc6_drop6_0_split_0
I0418 04:51:35.808858 21905 net.cpp:408] cls_score -> cls_score
I0418 04:51:35.819983 21905 net.cpp:150] Setting up cls_score
I0418 04:51:35.819999 21905 net.cpp:157] Top shape: 1 99 (99)
I0418 04:51:35.820003 21905 net.cpp:165] Memory required for data: 10172692680
I0418 04:51:35.820011 21905 layer_factory.hpp:77] Creating layer twin_pred
I0418 04:51:35.820019 21905 net.cpp:100] Creating Layer twin_pred
I0418 04:51:35.820024 21905 net.cpp:434] twin_pred <- fc6_drop6_0_split_1
I0418 04:51:35.820031 21905 net.cpp:408] twin_pred -> twin_pred
I0418 04:51:35.842800 21905 net.cpp:150] Setting up twin_pred
I0418 04:51:35.842814 21905 net.cpp:157] Top shape: 1 198 (198)
I0418 04:51:35.842818 21905 net.cpp:165] Memory required for data: 10172693472
I0418 04:51:35.842833 21905 layer_factory.hpp:77] Creating layer loss_cls
I0418 04:51:35.842845 21905 net.cpp:100] Creating Layer loss_cls
I0418 04:51:35.842850 21905 net.cpp:434] loss_cls <- cls_score
I0418 04:51:35.842855 21905 net.cpp:434] loss_cls <- labels
I0418 04:51:35.842860 21905 net.cpp:408] loss_cls -> loss_cls
…
