…
stepsize: 350000
snapshot: 0
snapshot_prefix: "./experiments/activitynet/snapshot/activitynet"
average_loss: 100
iter_size: 1
I0418 03:42:20.106070 23340 solver.cpp:81] Creating training net from train_net file: ./experiments/activitynet/train.prototxt
I0418 03:42:20.107153 23340 net.cpp:58] Initializing net from parameters: 
name: "activitynet"
state {
  phase: TRAIN
}
layer {
  name: "data"
  type: "Python"
  top: "data"
  top: "gt_boxes"
  python_param {
    module: "roi_data_layer.layer"
    layer: "RoIDataLayer"
    param_str: "\'num_classes\': 100"
  }
}
layer {
  name: "conv1a"
  type: "Convolution"
  bottom: "data"
  top: "conv1a"
  param {
    lr_mult: 0
    decay_mult: 0
  }
  param {
    lr_mult: 0
    decay_mult: 0
  }
  convolution_param {
    num_output: 64
    pad: 1
    pad: 1
    pad: 1
    kernel_size: 3
    kernel_size: 3
    kernel_size: 3
    weight_filler {
      type: "gaussian"
      std: 0.01
    }
    bias_filler {
      type: "constant"
      value: 0
    }
  }
}
layer {
  name: "relu1a"
  type: "ReLU"
  bottom: "conv1a"
  top: "conv1a"
}
layer {
  name: "pool1"
  type: "Pooling"
  bottom: "conv1a"
  top: "pool1"
  pooling_param {
    pool: MAX
    kernel_size: 1
    kernel_size: 2
    kernel_size: 2
    stride: 1
    stride: 2
    stride: 2
  }
}
layer {
  name: "conv2a"
  type: "Convolution"
  bottom: "pool1"
  top: "conv2a"
  param {
    lr_mult: 0
    decay_mult: 0
  }
  param {
    lr_mult: 0
    decay_mult: 0
  }
  convolution_param {
    num_output: 128
    pad: 1
    pad: 1
    pad: 1
    kernel_size: 3
    kernel_size: 3
    kernel_size: 3
    weight_filler {
      type: "gaussian"
      std: 0.01
    }
    bias_filler {
      type: "constant"
      value: 1
    }
  }
}
layer {
  name: "relu2a"
  type: "ReLU"
  bottom: "conv2a"
  top: "conv2a"
}
layer {
  name: "pool2"
  type: "Pooling"
  bottom: "conv2a"
  top: "pool2"
  pooling_param {
    pool: MAX
    kernel_size: 2
    kernel_size: 2
    kernel_size: 2
    stride: 2
    stride: 2
    stride: 2
  }
}
layer {
  name: "conv3a"
  type: "Convolution"
  bottom: "pool2"
  top: "conv3a"
  param {
    lr_mult: 1
    decay_mult: 1
  }
  param {
    lr_mult: 2
    decay_mult: 0
  }
  convolution_param {
    num_output: 256
    pad: 1
    pad: 1
    pad: 1
    kernel_size: 3
    kernel_size: 3
    kernel_size: 3
    weight_filler {
      type: "gaussian"
      std: 0.01
    }
    bias_filler {
      type: "constant"
      value: 1
    }
  }
}
layer {
  name: "relu3a"
  type: "ReLU"
  bottom: "conv3a"
  top: "conv3a"
}
layer {
  name: "conv3b"
  type: "Convolution"
  bottom: "conv3a"
  top: "conv3b"
  param {
    lr_mult: 1
    decay_mult: 1
  }
  param {
    lr_mult: 2
    decay_mult: 0
  }
  convolution_param {
    num_output: 256
    pad: 1
    pad: 1
    pad: 1
    kernel_size: 3
    kernel_size: 3
    kernel_size: 3
    weight_filler {
      type: "gaussian"
      std: 0.01
    }
    bias_filler {
      type: "constant"
      value: 1
    }
  }
}
layer {
  name: "relu3b"
  type: "ReLU"
  bottom: "conv3b"
  top: "conv3b"
}
layer {
  name: "pool3"
  type: "Pooling"
  bottom: "conv3b"
  top: "pool3"
  pooling_param {
    pool: MAX
    kernel_size: 2
    kernel_size: 2
    kernel_size: 2
    stride: 2
    stride: 2
    stride: 2
  }
}
layer {
  name: "conv4a"
  type: "Convolution"
  bottom: "pool3"
  top: "conv4a"
  param {
    lr_mult: 1
    decay_mult: 1
  }
  param {
    lr_mult: 2
    decay_mult: 0
  }
  convolution_param {
    num_output: 512
    pad: 1
    pad: 1
    pad: 1
    kernel_size: 3
    kernel_size: 3
    kernel_size: 3
    weight_filler {
      type: "gaussian"
      std: 0.01
    }
    bias_filler {
      type: "constant"
      value: 1
    }
  }
}
layer {
  name: "relu4a"
  type: "ReLU"
  bottom: "conv4a"
  top: "conv4a"
}
layer {
  name: "conv4b"
  type: "Convolution"
  bottom: "conv4a"
  top: "conv4b"
  param {
    lr_mult: 1
    decay_mult: 1
  }
  param {
    lr_mult: 2
    decay_mult: 0
  }
  convolution_param {
    num_output: 512
    pad: 1
    pad: 1
    pad: 1
    kernel_size: 3
    kernel_size: 3
    kernel_size: 3
    weight_filler {
      type: "gaussian"
      std: 0.01
    }
    bias_filler {
      type: "constant"
      value: 1
    }
  }
}
layer {
  name: "relu4b"
  type: "ReLU"
  bottom: "conv4b"
  top: "conv4b"
}
layer {
  name: "pool4"
  type: "Pooling"
  bottom: "conv4b"
  top: "pool4"
  pooling_param {
    pool: MAX
    kernel_size: 2
    kernel_size: 2
    kernel_size: 2
    stride: 2
    stride: 2
    stride: 2
  }
}
layer {
  name: "conv5a"
  type: "Convolution"
  bottom: "pool4"
  top: "conv5a"
  param {
    lr_mult: 1
    decay_mult: 1
  }
  param {
    lr_mult: 2
    decay_mult: 0
  }
  convolution_param {
    num_output: 512
    pad: 1
    pad: 1
    pad: 1
    kernel_size: 3
    kernel_size: 3
    kernel_size: 3
    weight_filler {
      type: "gaussian"
      std: 0.01
    }
    bias_filler {
      type: "constant"
      value: 1
    }
  }
}
layer {
  name: "relu5a"
  type: "ReLU"
  bottom: "conv5a"
  top: "conv5a"
}
layer {
  name: "conv5b"
  type: "Convolution"
  bottom: "conv5a"
  top: "conv5b"
  param {
    lr_mult: 1
    decay_mult: 1
  }
  param {
    lr_mult: 2
    decay_mult: 0
  }
  convolution_param {
    num_output: 512
    pad: 1
    pad: 1
    pad: 1
    kernel_size: 3
    kernel_size: 3
    kernel_size: 3
    weight_filler {
      type: "gaussian"
      std: 0.01
    }
    bias_filler {
      type: "constant"
      value: 1
    }
  }
}
layer {
  name: "relu5b"
  type: "ReLU"
  bottom: "conv5b"
  top: "conv5b"
}
layer {
  name: "rpn_conv/3x3"
  type: "Convolution"
  bottom: "conv5b"
  top: "rpn/output"
  param {
    lr_mult: 1
    decay_mult: 1
  }
  param {
    lr_mult: 2
    decay_mult: 0
  }
  convolution_param {
    num_output: 512
    pad: 1
    pad: 1
    pad: 1
    kernel_size: 3
    kernel_size: 3
    kernel_size: 3
    stride: 1
    stride: 2
    stride: 2
    weight_filler {
      type: "gaussian"
      std: 0.01
    }
    bias_filler {
      type: "constant"
      value: 0
    }
  }
}
layer {
  name: "rpn_relu/3x3"
  type: "ReLU"
  bottom: "rpn/output"
  top: "rpn/output"
}
layer {
  name: "rpn_conv/3x3_2"
  type: "Convolution"
  bottom: "rpn/output"
  top: "rpn/output_2"
  param {
    lr_mult: 1
    decay_mult: 1
  }
  param {
    lr_mult: 2
    decay_mult: 0
  }
  convolution_param {
    num_output: 512
    pad: 1
    pad: 1
    pad: 1
    kernel_size: 3
    kernel_size: 3
    kernel_size: 3
    stride: 1
    stride: 2
    stride: 2
    weight_filler {
      type: "gaussian"
      std: 0.01
    }
    bias_filler {
      type: "constant"
      value: 0
    }
  }
}
layer {
  name: "rpn_relu/3x3_2"
  type: "ReLU"
  bottom: "rpn/output_2"
  top: "rpn/output_2"
}
layer {
  name: "rpn/output_pool"
  type: "Pooling"
  bottom: "rpn/output_2"
  top: "rpn/output_pool"
  pooling_param {
    pool: MAX
    kernel_size: 1
    kernel_size: 2
    kernel_size: 2
  }
}
layer {
  name: "rpn_cls_score"
  type: "Convolution"
  bottom: "rpn/output_pool"
  top: "rpn_cls_score"
  param {
    lr_mult: 1
    decay_mult: 1
  }
  param {
    lr_mult: 2
    decay_mult: 0
  }
  convolution_param {
    num_output: 74
    kernel_size: 1
    kernel_size: 1
    kernel_size: 1
    weight_filler {
      type: "gaussian"
      std: 0.01
    }
    bias_filler {
      type: "constant"
      value: 0
    }
  }
}
layer {
  name: "rpn_twin_pred"
  type: "Convolution"
  bottom: "rpn/output_pool"
  top: "rpn_twin_pred"
  param {
    lr_mult: 1
    decay_mult: 1
  }
  param {
    lr_mult: 2
    decay_mult: 0
  }
  convolution_param {
    num_output: 74
    kernel_size: 1
    kernel_size: 1
    kernel_size: 1
    weight_filler {
      type: "gaussian"
      std: 0.01
    }
    bias_filler {
      type: "constant"
      value: 0
    }
  }
}
layer {
  name: "rpn_cls_score_reshape"
  type: "Reshape"
  bottom: "rpn_cls_score"
  top: "rpn_cls_score_reshape"
  reshape_param {
    shape {
      dim: 0
      dim: 2
      dim: -1
      dim: 0
      dim: 0
    }
  }
}
layer {
  name: "rpn-data"
  type: "Python"
  bottom: "rpn_cls_score"
  bottom: "gt_boxes"
  bottom: "data"
  top: "rpn_labels"
  top: "rpn_twin_targets"
  top: "rpn_twin_inside_weights"
  top: "rpn_twin_outside_weights"
  python_param {
    module: "rpn.anchor_target_layer"
    layer: "AnchorTargetLayer"
    param_str: "\'feat_stride\': 8 \n\'scales\': !!python/tuple [1,1.25, 1.5,1.75, 2,2.5, 3,3.5, 4,4.5, 5,5.5, 6,7, 8,9,10,11,12,14,16,18,20,22,24,28,32,36,40,44,52,60,68,76,84,92,100]"
  }
}
layer {
  name: "rpn_loss_cls"
  type: "SoftmaxWithLoss"
  bottom: "rpn_cls_score_reshape"
  bottom: "rpn_labels"
  top: "rpn_cls_loss"
  loss_weight: 1
  propagate_down: true
  propagate_down: false
  loss_param {
    ignore_label: -1
    normalize: true
  }
}
layer {
  name: "rpn_loss_twin"
  type: "SmoothL1Loss"
  bottom: "rpn_twin_pred"
  bottom: "rpn_twin_targets"
  bottom: "rpn_twin_inside_weights"
  bottom: "rpn_twin_outside_weights"
  top: "rpn_loss_twin"
  loss_weight: 1
  smooth_l1_loss_param {
    sigma: 3
  }
}
layer {
  name: "rpn_accuarcy"
  type: "Accuracy"
  bottom: "rpn_cls_score_reshape"
  bottom: "rpn_labels"
  top: "rpn_accuarcy"
  top: "rpn_accuarcy_class"
  propagate_down: false
  propagate_down: false
  accuracy_param {
    ignore_label: -1
  }
}
layer {
  name: "rpn_cls_prob"
  type: "Softmax"
  bottom: "rpn_cls_score_reshape"
  top: "rpn_cls_prob"
}
layer {
  name: "rpn_cls_prob_reshape"
  type: "Reshape"
  bottom: "rpn_cls_prob"
  top: "rpn_cls_prob_reshape"
  reshape_param {
    shape {
      dim: 0
      dim: 74
      dim: -1
      dim: 0
      dim: 0
    }
  }
}
layer {
  name: "proposal"
  type: "Python"
  bottom: "rpn_cls_prob_reshape"
  bottom: "rpn_twin_pred"
  top: "rpn_rois"
  include {
    phase: TRAIN
  }
  python_param {
    module: "rpn.proposal_layer"
    layer: "ProposalLayer"
    param_str: "\'feat_stride\': 8 \n\'scales\': !!python/tuple [1,1.25, 1.5,1.75, 2,2.5, 3,3.5, 4,4.5, 5,5.5, 6,7, 8,9,10,11,12,14,16,18,20,22,24,28,32,36,40,44,52,60,68,76,84,92,100]"
  }
}
layer {
  name: "roi-data"
  type: "Python"
  bottom: "rpn_rois"
  bottom: "gt_boxes"
  top: "rois"
  top: "labels"
  top: "twin_targets"
  top: "twin_inside_weights"
  top: "twin_outside_weights"
  python_param {
    module: "rpn.proposal_target_layer"
    layer: "ProposalTargetLayer"
    param_str: "\'num_classes\': 201"
  }
}
layer {
  name: "roi_pool5"
  type: "ROIPooling"
  bottom: "conv5b"
  bottom: "rois"
  top: "pool5"
  roi_pooling_param {
    pooled_h: 4
    pooled_w: 4
    spatial_scale: 0.0625
    pooled_l: 1
    temporal_scale: 0.125
  }
}
layer {
  name: "fc6"
  type: "InnerProduct"
  bottom: "pool5"
  top: "fc6"
  param {
    lr_mult: 1
    decay_mult: 1
  }
  param {
    lr_mult: 2
    decay_mult: 0
  }
  inner_product_param {
    num_output: 4096
    weight_filler {
      type: "gaussian"
      std: 0.005
    }
    bias_filler {
      type: "constant"
      value: 1
    }
  }
}
layer {
  name: "relu6"
  type: "ReLU"
  bottom: "fc6"
  top: "fc6"
}
layer {
  name: "drop6"
  type: "Dropout"
  bottom: "fc6"
  top: "fc6"
  dropout_param {
    dropout_ratio: 0.5
  }
}
layer {
  name: "cls_score"
  type: "InnerProduct"
  bottom: "fc6"
  top: "cls_score"
  param {
    lr_mult: 1
    decay_mult: 1
  }
  param {
    lr_mult: 2
    decay_mult: 0
  }
  inner_product_param {
    num_output: 201
    weight_filler {
      type: "gaussian"
      std: 0.01
    }
    bias_filler {
      type: "constant"
      value: 0
    }
  }
}
layer {
  name: "twin_pred"
  type: "InnerProduct"
  bottom: "fc6"
  top: "twin_pred"
  param {
    lr_mult: 1
    decay_mult: 1
  }
  param {
    lr_mult: 2
    decay_mult: 0
  }
  inner_product_param {
    num_output: 402
    weight_filler {
      type: "gaussian"
      std: 0.001
    }
    bias_filler {
      type: "constant"
      value: 0
    }
  }
}
layer {
  name: "loss_cls"
  type: "SoftmaxWithLoss"
  bottom: "cls_score"
  bottom: "labels"
  top: "loss_cls"
  loss_weight: 1
  propagate_down: true
  propagate_down: false
}
layer {
  name: "loss_twin"
  type: "SmoothL1Loss"
  bottom: "twin_pred"
  bottom: "twin_targets"
  bottom: "twin_inside_weights"
  bottom: "twin_outside_weights"
  top: "loss_twin"
  loss_weight: 1
}
layer {
  name: "accuarcy"
  type: "Accuracy"
  bottom: "cls_score"
  bottom: "labels"
  top: "accuarcy"
  propagate_down: false
  propagate_down: false
  accuracy_param {
    ignore_label: -1
  }
}
I0418 03:42:20.107367 23340 layer_factory.hpp:77] Creating layer data
I0418 03:42:20.132668 23340 net.cpp:100] Creating Layer data
I0418 03:42:20.132691 23340 net.cpp:408] data -> data
I0418 03:42:20.132705 23340 net.cpp:408] data -> gt_boxes
setting up
has rpn
RoiDataLayer: name_to_top: {'gt_windows': 1, 'data': 0}
I0418 03:42:20.166339 23340 net.cpp:150] Setting up data
I0418 03:42:20.166365 23340 net.cpp:157] Top shape: 1 3 768 112 112 (28901376)
I0418 03:42:20.166371 23340 net.cpp:157] Top shape: 1 101 (101)
I0418 03:42:20.166375 23340 net.cpp:165] Memory required for data: 115605908
I0418 03:42:20.166383 23340 layer_factory.hpp:77] Creating layer data_data_0_split
I0418 03:42:20.166395 23340 net.cpp:100] Creating Layer data_data_0_split
I0418 03:42:20.166399 23340 net.cpp:434] data_data_0_split <- data
I0418 03:42:20.166407 23340 net.cpp:408] data_data_0_split -> data_data_0_split_0
I0418 03:42:20.166419 23340 net.cpp:408] data_data_0_split -> data_data_0_split_1
I0418 03:42:20.166450 23340 net.cpp:150] Setting up data_data_0_split
I0418 03:42:20.166456 23340 net.cpp:157] Top shape: 1 3 768 112 112 (28901376)
I0418 03:42:20.166460 23340 net.cpp:157] Top shape: 1 3 768 112 112 (28901376)
I0418 03:42:20.166463 23340 net.cpp:165] Memory required for data: 346816916
I0418 03:42:20.166467 23340 layer_factory.hpp:77] Creating layer gt_boxes_data_1_split
I0418 03:42:20.166472 23340 net.cpp:100] Creating Layer gt_boxes_data_1_split
I0418 03:42:20.166476 23340 net.cpp:434] gt_boxes_data_1_split <- gt_boxes
I0418 03:42:20.166481 23340 net.cpp:408] gt_boxes_data_1_split -> gt_boxes_data_1_split_0
I0418 03:42:20.166487 23340 net.cpp:408] gt_boxes_data_1_split -> gt_boxes_data_1_split_1
I0418 03:42:20.166510 23340 net.cpp:150] Setting up gt_boxes_data_1_split
I0418 03:42:20.166517 23340 net.cpp:157] Top shape: 1 101 (101)
I0418 03:42:20.166520 23340 net.cpp:157] Top shape: 1 101 (101)
I0418 03:42:20.166523 23340 net.cpp:165] Memory required for data: 346817724
I0418 03:42:20.166527 23340 layer_factory.hpp:77] Creating layer conv1a
I0418 03:42:20.166543 23340 net.cpp:100] Creating Layer conv1a
I0418 03:42:20.166546 23340 net.cpp:434] conv1a <- data_data_0_split_0
I0418 03:42:20.166553 23340 net.cpp:408] conv1a -> conv1a
I0418 03:42:20.461411 23340 net.cpp:150] Setting up conv1a
I0418 03:42:20.461442 23340 net.cpp:157] Top shape: 1 64 768 112 112 (616562688)
I0418 03:42:20.461447 23340 net.cpp:165] Memory required for data: 2813068476
I0418 03:42:20.461468 23340 layer_factory.hpp:77] Creating layer relu1a
I0418 03:42:20.461482 23340 net.cpp:100] Creating Layer relu1a
I0418 03:42:20.461488 23340 net.cpp:434] relu1a <- conv1a
I0418 03:42:20.461494 23340 net.cpp:395] relu1a -> conv1a (in-place)
I0418 03:42:20.461993 23340 net.cpp:150] Setting up relu1a
I0418 03:42:20.462008 23340 net.cpp:157] Top shape: 1 64 768 112 112 (616562688)
I0418 03:42:20.462013 23340 net.cpp:165] Memory required for data: 5279319228
I0418 03:42:20.462016 23340 layer_factory.hpp:77] Creating layer pool1
I0418 03:42:20.462026 23340 net.cpp:100] Creating Layer pool1
I0418 03:42:20.462034 23340 net.cpp:434] pool1 <- conv1a
I0418 03:42:20.462041 23340 net.cpp:408] pool1 -> pool1
I0418 03:42:20.462800 23340 net.cpp:150] Setting up pool1
I0418 03:42:20.462818 23340 net.cpp:157] Top shape: 1 64 768 56 56 (154140672)
I0418 03:42:20.462826 23340 net.cpp:165] Memory required for data: 5895881916
I0418 03:42:20.462829 23340 layer_factory.hpp:77] Creating layer conv2a
I0418 03:42:20.462842 23340 net.cpp:100] Creating Layer conv2a
I0418 03:42:20.462846 23340 net.cpp:434] conv2a <- pool1
I0418 03:42:20.462853 23340 net.cpp:408] conv2a -> conv2a
I0418 03:42:20.475316 23340 net.cpp:150] Setting up conv2a
I0418 03:42:20.475344 23340 net.cpp:157] Top shape: 1 128 768 56 56 (308281344)
I0418 03:42:20.475349 23340 net.cpp:165] Memory required for data: 7129007292
I0418 03:42:20.475363 23340 layer_factory.hpp:77] Creating layer relu2a
I0418 03:42:20.475371 23340 net.cpp:100] Creating Layer relu2a
I0418 03:42:20.475375 23340 net.cpp:434] relu2a <- conv2a
I0418 03:42:20.475383 23340 net.cpp:395] relu2a -> conv2a (in-place)
I0418 03:42:20.475739 23340 net.cpp:150] Setting up relu2a
I0418 03:42:20.475754 23340 net.cpp:157] Top shape: 1 128 768 56 56 (308281344)
I0418 03:42:20.475757 23340 net.cpp:165] Memory required for data: 8362132668
I0418 03:42:20.475762 23340 layer_factory.hpp:77] Creating layer pool2
I0418 03:42:20.475772 23340 net.cpp:100] Creating Layer pool2
I0418 03:42:20.475776 23340 net.cpp:434] pool2 <- conv2a
I0418 03:42:20.475782 23340 net.cpp:408] pool2 -> pool2
I0418 03:42:20.477282 23340 net.cpp:150] Setting up pool2
I0418 03:42:20.477293 23340 net.cpp:157] Top shape: 1 128 384 28 28 (38535168)
I0418 03:42:20.477298 23340 net.cpp:165] Memory required for data: 8516273340
I0418 03:42:20.477303 23340 layer_factory.hpp:77] Creating layer conv3a
I0418 03:42:20.477314 23340 net.cpp:100] Creating Layer conv3a
I0418 03:42:20.477319 23340 net.cpp:434] conv3a <- pool2
I0418 03:42:20.477324 23340 net.cpp:408] conv3a -> conv3a
I0418 03:42:20.502979 23340 net.cpp:150] Setting up conv3a
I0418 03:42:20.503000 23340 net.cpp:157] Top shape: 1 256 384 28 28 (77070336)
I0418 03:42:20.503005 23340 net.cpp:165] Memory required for data: 8824554684
I0418 03:42:20.503016 23340 layer_factory.hpp:77] Creating layer relu3a
I0418 03:42:20.503024 23340 net.cpp:100] Creating Layer relu3a
I0418 03:42:20.503028 23340 net.cpp:434] relu3a <- conv3a
I0418 03:42:20.503034 23340 net.cpp:395] relu3a -> conv3a (in-place)
I0418 03:42:20.503360 23340 net.cpp:150] Setting up relu3a
I0418 03:42:20.503373 23340 net.cpp:157] Top shape: 1 256 384 28 28 (77070336)
I0418 03:42:20.503377 23340 net.cpp:165] Memory required for data: 9132836028
I0418 03:42:20.503381 23340 layer_factory.hpp:77] Creating layer conv3b
I0418 03:42:20.503392 23340 net.cpp:100] Creating Layer conv3b
I0418 03:42:20.503396 23340 net.cpp:434] conv3b <- conv3a
I0418 03:42:20.503402 23340 net.cpp:408] conv3b -> conv3b
I0418 03:42:20.552731 23340 net.cpp:150] Setting up conv3b
I0418 03:42:20.552758 23340 net.cpp:157] Top shape: 1 256 384 28 28 (77070336)
I0418 03:42:20.552762 23340 net.cpp:165] Memory required for data: 9441117372
I0418 03:42:20.552772 23340 layer_factory.hpp:77] Creating layer relu3b
I0418 03:42:20.552783 23340 net.cpp:100] Creating Layer relu3b
I0418 03:42:20.552788 23340 net.cpp:434] relu3b <- conv3b
I0418 03:42:20.552794 23340 net.cpp:395] relu3b -> conv3b (in-place)
I0418 03:42:20.553138 23340 net.cpp:150] Setting up relu3b
I0418 03:42:20.553153 23340 net.cpp:157] Top shape: 1 256 384 28 28 (77070336)
I0418 03:42:20.553158 23340 net.cpp:165] Memory required for data: 9749398716
I0418 03:42:20.553161 23340 layer_factory.hpp:77] Creating layer pool3
I0418 03:42:20.553171 23340 net.cpp:100] Creating Layer pool3
I0418 03:42:20.553175 23340 net.cpp:434] pool3 <- conv3b
I0418 03:42:20.553182 23340 net.cpp:408] pool3 -> pool3
I0418 03:42:20.555011 23340 net.cpp:150] Setting up pool3
I0418 03:42:20.555023 23340 net.cpp:157] Top shape: 1 256 192 14 14 (9633792)
I0418 03:42:20.555027 23340 net.cpp:165] Memory required for data: 9787933884
I0418 03:42:20.555032 23340 layer_factory.hpp:77] Creating layer conv4a
I0418 03:42:20.555042 23340 net.cpp:100] Creating Layer conv4a
I0418 03:42:20.555047 23340 net.cpp:434] conv4a <- pool3
I0418 03:42:20.555053 23340 net.cpp:408] conv4a -> conv4a
I0418 03:42:20.653399 23340 net.cpp:150] Setting up conv4a
I0418 03:42:20.653429 23340 net.cpp:157] Top shape: 1 512 192 14 14 (19267584)
I0418 03:42:20.653434 23340 net.cpp:165] Memory required for data: 9865004220
I0418 03:42:20.653448 23340 layer_factory.hpp:77] Creating layer relu4a
I0418 03:42:20.653457 23340 net.cpp:100] Creating Layer relu4a
I0418 03:42:20.653462 23340 net.cpp:434] relu4a <- conv4a
I0418 03:42:20.653470 23340 net.cpp:395] relu4a -> conv4a (in-place)
I0418 03:42:20.653805 23340 net.cpp:150] Setting up relu4a
I0418 03:42:20.653820 23340 net.cpp:157] Top shape: 1 512 192 14 14 (19267584)
I0418 03:42:20.653825 23340 net.cpp:165] Memory required for data: 9942074556
I0418 03:42:20.653828 23340 layer_factory.hpp:77] Creating layer conv4b
I0418 03:42:20.653843 23340 net.cpp:100] Creating Layer conv4b
I0418 03:42:20.653849 23340 net.cpp:434] conv4b <- conv4a
I0418 03:42:20.653856 23340 net.cpp:408] conv4b -> conv4b
I0418 03:42:20.848505 23340 net.cpp:150] Setting up conv4b
I0418 03:42:20.848551 23340 net.cpp:157] Top shape: 1 512 192 14 14 (19267584)
I0418 03:42:20.848562 23340 net.cpp:165] Memory required for data: 10019144892
I0418 03:42:20.848582 23340 layer_factory.hpp:77] Creating layer relu4b
I0418 03:42:20.848600 23340 net.cpp:100] Creating Layer relu4b
I0418 03:42:20.848615 23340 net.cpp:434] relu4b <- conv4b
I0418 03:42:20.848630 23340 net.cpp:395] relu4b -> conv4b (in-place)
I0418 03:42:20.849014 23340 net.cpp:150] Setting up relu4b
I0418 03:42:20.849040 23340 net.cpp:157] Top shape: 1 512 192 14 14 (19267584)
I0418 03:42:20.849048 23340 net.cpp:165] Memory required for data: 10096215228
I0418 03:42:20.849061 23340 layer_factory.hpp:77] Creating layer pool4
I0418 03:42:20.849078 23340 net.cpp:100] Creating Layer pool4
I0418 03:42:20.849092 23340 net.cpp:434] pool4 <- conv4b
I0418 03:42:20.849105 23340 net.cpp:408] pool4 -> pool4
I0418 03:42:20.850234 23340 net.cpp:150] Setting up pool4
I0418 03:42:20.850265 23340 net.cpp:157] Top shape: 1 512 96 7 7 (2408448)
I0418 03:42:20.850275 23340 net.cpp:165] Memory required for data: 10105849020
I0418 03:42:20.850284 23340 layer_factory.hpp:77] Creating layer conv5a
I0418 03:42:20.850311 23340 net.cpp:100] Creating Layer conv5a
I0418 03:42:20.850320 23340 net.cpp:434] conv5a <- pool4
I0418 03:42:20.850337 23340 net.cpp:408] conv5a -> conv5a
I0418 03:42:21.050429 23340 net.cpp:150] Setting up conv5a
I0418 03:42:21.050457 23340 net.cpp:157] Top shape: 1 512 96 7 7 (2408448)
I0418 03:42:21.050462 23340 net.cpp:165] Memory required for data: 10115482812
I0418 03:42:21.050472 23340 layer_factory.hpp:77] Creating layer relu5a
I0418 03:42:21.050483 23340 net.cpp:100] Creating Layer relu5a
I0418 03:42:21.050487 23340 net.cpp:434] relu5a <- conv5a
I0418 03:42:21.050494 23340 net.cpp:395] relu5a -> conv5a (in-place)
I0418 03:42:21.051461 23340 net.cpp:150] Setting up relu5a
I0418 03:42:21.051477 23340 net.cpp:157] Top shape: 1 512 96 7 7 (2408448)
I0418 03:42:21.051482 23340 net.cpp:165] Memory required for data: 10125116604
I0418 03:42:21.051486 23340 layer_factory.hpp:77] Creating layer conv5b
I0418 03:42:21.051504 23340 net.cpp:100] Creating Layer conv5b
I0418 03:42:21.051508 23340 net.cpp:434] conv5b <- conv5a
I0418 03:42:21.051515 23340 net.cpp:408] conv5b -> conv5b
I0418 03:42:21.246841 23340 net.cpp:150] Setting up conv5b
I0418 03:42:21.246870 23340 net.cpp:157] Top shape: 1 512 96 7 7 (2408448)
I0418 03:42:21.246875 23340 net.cpp:165] Memory required for data: 10134750396
I0418 03:42:21.246883 23340 layer_factory.hpp:77] Creating layer relu5b
I0418 03:42:21.246893 23340 net.cpp:100] Creating Layer relu5b
I0418 03:42:21.246899 23340 net.cpp:434] relu5b <- conv5b
I0418 03:42:21.246906 23340 net.cpp:395] relu5b -> conv5b (in-place)
I0418 03:42:21.247052 23340 net.cpp:150] Setting up relu5b
I0418 03:42:21.247063 23340 net.cpp:157] Top shape: 1 512 96 7 7 (2408448)
I0418 03:42:21.247066 23340 net.cpp:165] Memory required for data: 10144384188
I0418 03:42:21.247071 23340 layer_factory.hpp:77] Creating layer conv5b_relu5b_0_split
I0418 03:42:21.247077 23340 net.cpp:100] Creating Layer conv5b_relu5b_0_split
I0418 03:42:21.247081 23340 net.cpp:434] conv5b_relu5b_0_split <- conv5b
I0418 03:42:21.247087 23340 net.cpp:408] conv5b_relu5b_0_split -> conv5b_relu5b_0_split_0
I0418 03:42:21.247093 23340 net.cpp:408] conv5b_relu5b_0_split -> conv5b_relu5b_0_split_1
I0418 03:42:21.247131 23340 net.cpp:150] Setting up conv5b_relu5b_0_split
I0418 03:42:21.247139 23340 net.cpp:157] Top shape: 1 512 96 7 7 (2408448)
I0418 03:42:21.247144 23340 net.cpp:157] Top shape: 1 512 96 7 7 (2408448)
I0418 03:42:21.247148 23340 net.cpp:165] Memory required for data: 10163651772
I0418 03:42:21.247151 23340 layer_factory.hpp:77] Creating layer rpn_conv/3x3
I0418 03:42:21.247162 23340 net.cpp:100] Creating Layer rpn_conv/3x3
I0418 03:42:21.247169 23340 net.cpp:434] rpn_conv/3x3 <- conv5b_relu5b_0_split_0
I0418 03:42:21.247175 23340 net.cpp:408] rpn_conv/3x3 -> rpn/output
I0418 03:42:21.436414 23340 net.cpp:150] Setting up rpn_conv/3x3
I0418 03:42:21.436439 23340 net.cpp:157] Top shape: 1 512 96 4 4 (786432)
I0418 03:42:21.436444 23340 net.cpp:165] Memory required for data: 10166797500
I0418 03:42:21.436456 23340 layer_factory.hpp:77] Creating layer rpn_relu/3x3
I0418 03:42:21.436465 23340 net.cpp:100] Creating Layer rpn_relu/3x3
I0418 03:42:21.436470 23340 net.cpp:434] rpn_relu/3x3 <- rpn/output
I0418 03:42:21.436476 23340 net.cpp:395] rpn_relu/3x3 -> rpn/output (in-place)
I0418 03:42:21.436834 23340 net.cpp:150] Setting up rpn_relu/3x3
I0418 03:42:21.436847 23340 net.cpp:157] Top shape: 1 512 96 4 4 (786432)
I0418 03:42:21.436851 23340 net.cpp:165] Memory required for data: 10169943228
I0418 03:42:21.436856 23340 layer_factory.hpp:77] Creating layer rpn_conv/3x3_2
I0418 03:42:21.436866 23340 net.cpp:100] Creating Layer rpn_conv/3x3_2
I0418 03:42:21.436870 23340 net.cpp:434] rpn_conv/3x3_2 <- rpn/output
I0418 03:42:21.436877 23340 net.cpp:408] rpn_conv/3x3_2 -> rpn/output_2
I0418 03:42:21.624055 23340 net.cpp:150] Setting up rpn_conv/3x3_2
I0418 03:42:21.624080 23340 net.cpp:157] Top shape: 1 512 96 2 2 (196608)
I0418 03:42:21.624085 23340 net.cpp:165] Memory required for data: 10170729660
I0418 03:42:21.624094 23340 layer_factory.hpp:77] Creating layer rpn_relu/3x3_2
I0418 03:42:21.624104 23340 net.cpp:100] Creating Layer rpn_relu/3x3_2
I0418 03:42:21.624109 23340 net.cpp:434] rpn_relu/3x3_2 <- rpn/output_2
I0418 03:42:21.624114 23340 net.cpp:395] rpn_relu/3x3_2 -> rpn/output_2 (in-place)
I0418 03:42:21.624433 23340 net.cpp:150] Setting up rpn_relu/3x3_2
I0418 03:42:21.624444 23340 net.cpp:157] Top shape: 1 512 96 2 2 (196608)
I0418 03:42:21.624449 23340 net.cpp:165] Memory required for data: 10171516092
I0418 03:42:21.624452 23340 layer_factory.hpp:77] Creating layer rpn/output_pool
I0418 03:42:21.624460 23340 net.cpp:100] Creating Layer rpn/output_pool
I0418 03:42:21.624464 23340 net.cpp:434] rpn/output_pool <- rpn/output_2
I0418 03:42:21.624469 23340 net.cpp:408] rpn/output_pool -> rpn/output_pool
I0418 03:42:21.624629 23340 net.cpp:150] Setting up rpn/output_pool
I0418 03:42:21.624639 23340 net.cpp:157] Top shape: 1 512 96 1 1 (49152)
I0418 03:42:21.624644 23340 net.cpp:165] Memory required for data: 10171712700
I0418 03:42:21.624646 23340 layer_factory.hpp:77] Creating layer rpn/output_pool_rpn/output_pool_0_split
I0418 03:42:21.624652 23340 net.cpp:100] Creating Layer rpn/output_pool_rpn/output_pool_0_split
I0418 03:42:21.624656 23340 net.cpp:434] rpn/output_pool_rpn/output_pool_0_split <- rpn/output_pool
I0418 03:42:21.624661 23340 net.cpp:408] rpn/output_pool_rpn/output_pool_0_split -> rpn/output_pool_rpn/output_pool_0_split_0
I0418 03:42:21.624667 23340 net.cpp:408] rpn/output_pool_rpn/output_pool_0_split -> rpn/output_pool_rpn/output_pool_0_split_1
I0418 03:42:21.624696 23340 net.cpp:150] Setting up rpn/output_pool_rpn/output_pool_0_split
I0418 03:42:21.624703 23340 net.cpp:157] Top shape: 1 512 96 1 1 (49152)
I0418 03:42:21.624708 23340 net.cpp:157] Top shape: 1 512 96 1 1 (49152)
I0418 03:42:21.624712 23340 net.cpp:165] Memory required for data: 10172105916
I0418 03:42:21.624716 23340 layer_factory.hpp:77] Creating layer rpn_cls_score
I0418 03:42:21.624724 23340 net.cpp:100] Creating Layer rpn_cls_score
I0418 03:42:21.624732 23340 net.cpp:434] rpn_cls_score <- rpn/output_pool_rpn/output_pool_0_split_0
I0418 03:42:21.624737 23340 net.cpp:408] rpn_cls_score -> rpn_cls_score
I0418 03:42:21.627295 23340 net.cpp:150] Setting up rpn_cls_score
I0418 03:42:21.627308 23340 net.cpp:157] Top shape: 1 74 96 1 1 (7104)
I0418 03:42:21.627312 23340 net.cpp:165] Memory required for data: 10172134332
I0418 03:42:21.627319 23340 layer_factory.hpp:77] Creating layer rpn_cls_score_rpn_cls_score_0_split
I0418 03:42:21.627327 23340 net.cpp:100] Creating Layer rpn_cls_score_rpn_cls_score_0_split
I0418 03:42:21.627331 23340 net.cpp:434] rpn_cls_score_rpn_cls_score_0_split <- rpn_cls_score
I0418 03:42:21.627336 23340 net.cpp:408] rpn_cls_score_rpn_cls_score_0_split -> rpn_cls_score_rpn_cls_score_0_split_0
I0418 03:42:21.627343 23340 net.cpp:408] rpn_cls_score_rpn_cls_score_0_split -> rpn_cls_score_rpn_cls_score_0_split_1
I0418 03:42:21.627380 23340 net.cpp:150] Setting up rpn_cls_score_rpn_cls_score_0_split
I0418 03:42:21.627388 23340 net.cpp:157] Top shape: 1 74 96 1 1 (7104)
I0418 03:42:21.627393 23340 net.cpp:157] Top shape: 1 74 96 1 1 (7104)
I0418 03:42:21.627395 23340 net.cpp:165] Memory required for data: 10172191164
I0418 03:42:21.627399 23340 layer_factory.hpp:77] Creating layer rpn_twin_pred
I0418 03:42:21.627410 23340 net.cpp:100] Creating Layer rpn_twin_pred
I0418 03:42:21.627418 23340 net.cpp:434] rpn_twin_pred <- rpn/output_pool_rpn/output_pool_0_split_1
I0418 03:42:21.627424 23340 net.cpp:408] rpn_twin_pred -> rpn_twin_pred
I0418 03:42:21.630730 23340 net.cpp:150] Setting up rpn_twin_pred
I0418 03:42:21.630744 23340 net.cpp:157] Top shape: 1 74 96 1 1 (7104)
I0418 03:42:21.630748 23340 net.cpp:165] Memory required for data: 10172219580
I0418 03:42:21.630755 23340 layer_factory.hpp:77] Creating layer rpn_twin_pred_rpn_twin_pred_0_split
I0418 03:42:21.630771 23340 net.cpp:100] Creating Layer rpn_twin_pred_rpn_twin_pred_0_split
I0418 03:42:21.630775 23340 net.cpp:434] rpn_twin_pred_rpn_twin_pred_0_split <- rpn_twin_pred
I0418 03:42:21.630781 23340 net.cpp:408] rpn_twin_pred_rpn_twin_pred_0_split -> rpn_twin_pred_rpn_twin_pred_0_split_0
I0418 03:42:21.630789 23340 net.cpp:408] rpn_twin_pred_rpn_twin_pred_0_split -> rpn_twin_pred_rpn_twin_pred_0_split_1
I0418 03:42:21.630822 23340 net.cpp:150] Setting up rpn_twin_pred_rpn_twin_pred_0_split
I0418 03:42:21.630831 23340 net.cpp:157] Top shape: 1 74 96 1 1 (7104)
I0418 03:42:21.630836 23340 net.cpp:157] Top shape: 1 74 96 1 1 (7104)
I0418 03:42:21.630838 23340 net.cpp:165] Memory required for data: 10172276412
I0418 03:42:21.630843 23340 layer_factory.hpp:77] Creating layer rpn_cls_score_reshape
I0418 03:42:21.630853 23340 net.cpp:100] Creating Layer rpn_cls_score_reshape
I0418 03:42:21.630857 23340 net.cpp:434] rpn_cls_score_reshape <- rpn_cls_score_rpn_cls_score_0_split_0
I0418 03:42:21.630863 23340 net.cpp:408] rpn_cls_score_reshape -> rpn_cls_score_reshape
I0418 03:42:21.630889 23340 net.cpp:150] Setting up rpn_cls_score_reshape
I0418 03:42:21.630900 23340 net.cpp:157] Top shape: 1 2 3552 1 1 (7104)
I0418 03:42:21.630903 23340 net.cpp:165] Memory required for data: 10172304828
I0418 03:42:21.630908 23340 layer_factory.hpp:77] Creating layer rpn_cls_score_reshape_rpn_cls_score_reshape_0_split
I0418 03:42:21.630913 23340 net.cpp:100] Creating Layer rpn_cls_score_reshape_rpn_cls_score_reshape_0_split
I0418 03:42:21.630916 23340 net.cpp:434] rpn_cls_score_reshape_rpn_cls_score_reshape_0_split <- rpn_cls_score_reshape
I0418 03:42:21.630923 23340 net.cpp:408] rpn_cls_score_reshape_rpn_cls_score_reshape_0_split -> rpn_cls_score_reshape_rpn_cls_score_reshape_0_split_0
I0418 03:42:21.630931 23340 net.cpp:408] rpn_cls_score_reshape_rpn_cls_score_reshape_0_split -> rpn_cls_score_reshape_rpn_cls_score_reshape_0_split_1
I0418 03:42:21.630940 23340 net.cpp:408] rpn_cls_score_reshape_rpn_cls_score_reshape_0_split -> rpn_cls_score_reshape_rpn_cls_score_reshape_0_split_2
I0418 03:42:21.630978 23340 net.cpp:150] Setting up rpn_cls_score_reshape_rpn_cls_score_reshape_0_split
I0418 03:42:21.630986 23340 net.cpp:157] Top shape: 1 2 3552 1 1 (7104)
I0418 03:42:21.630990 23340 net.cpp:157] Top shape: 1 2 3552 1 1 (7104)
I0418 03:42:21.630995 23340 net.cpp:157] Top shape: 1 2 3552 1 1 (7104)
I0418 03:42:21.630997 23340 net.cpp:165] Memory required for data: 10172390076
I0418 03:42:21.631001 23340 layer_factory.hpp:77] Creating layer rpn-data
I0418 03:42:21.631394 23340 net.cpp:100] Creating Layer rpn-data
I0418 03:42:21.631407 23340 net.cpp:434] rpn-data <- rpn_cls_score_rpn_cls_score_0_split_1
I0418 03:42:21.631412 23340 net.cpp:434] rpn-data <- gt_boxes_data_1_split_0
I0418 03:42:21.631417 23340 net.cpp:434] rpn-data <- data_data_0_split_1
I0418 03:42:21.631422 23340 net.cpp:408] rpn-data -> rpn_labels
I0418 03:42:21.631429 23340 net.cpp:408] rpn-data -> rpn_twin_targets
I0418 03:42:21.631436 23340 net.cpp:408] rpn-data -> rpn_twin_inside_weights
I0418 03:42:21.631443 23340 net.cpp:408] rpn-data -> rpn_twin_outside_weights
I0418 03:42:21.633669 23340 net.cpp:150] Setting up rpn-data
I0418 03:42:21.633683 23340 net.cpp:157] Top shape: 1 1 3552 1 1 (3552)
I0418 03:42:21.633688 23340 net.cpp:157] Top shape: 1 74 96 1 1 (7104)
I0418 03:42:21.633693 23340 net.cpp:157] Top shape: 1 74 96 1 1 (7104)
I0418 03:42:21.633697 23340 net.cpp:157] Top shape: 1 74 96 1 1 (7104)
I0418 03:42:21.633702 23340 net.cpp:165] Memory required for data: 10172489532
I0418 03:42:21.633705 23340 layer_factory.hpp:77] Creating layer rpn_labels_rpn-data_0_split
I0418 03:42:21.633710 23340 net.cpp:100] Creating Layer rpn_labels_rpn-data_0_split
I0418 03:42:21.633714 23340 net.cpp:434] rpn_labels_rpn-data_0_split <- rpn_labels
I0418 03:42:21.633720 23340 net.cpp:408] rpn_labels_rpn-data_0_split -> rpn_labels_rpn-data_0_split_0
I0418 03:42:21.633728 23340 net.cpp:408] rpn_labels_rpn-data_0_split -> rpn_labels_rpn-data_0_split_1
I0418 03:42:21.633759 23340 net.cpp:150] Setting up rpn_labels_rpn-data_0_split
I0418 03:42:21.633766 23340 net.cpp:157] Top shape: 1 1 3552 1 1 (3552)
I0418 03:42:21.633770 23340 net.cpp:157] Top shape: 1 1 3552 1 1 (3552)
I0418 03:42:21.633774 23340 net.cpp:165] Memory required for data: 10172517948
I0418 03:42:21.633777 23340 layer_factory.hpp:77] Creating layer rpn_loss_cls
I0418 03:42:21.633785 23340 net.cpp:100] Creating Layer rpn_loss_cls
I0418 03:42:21.633790 23340 net.cpp:434] rpn_loss_cls <- rpn_cls_score_reshape_rpn_cls_score_reshape_0_split_0
I0418 03:42:21.633795 23340 net.cpp:434] rpn_loss_cls <- rpn_labels_rpn-data_0_split_0
…
I0418 03:42:21.634374 23340 layer_factory.hpp:77] Creating layer rpn_accuarcy
I0418 03:42:21.634382 23340 net.cpp:100] Creating Layer rpn_accuarcy
I0418 03:42:21.634385 23340 net.cpp:434] rpn_accuarcy <- rpn_cls_score_reshape_rpn_cls_score_reshape_0_split_1
I0418 03:42:21.634390 23340 net.cpp:434] rpn_accuarcy <- rpn_labels_rpn-data_0_split_1
I0418 03:42:21.634394 23340 net.cpp:408] rpn_accuarcy -> rpn_accuarcy
I0418 03:42:21.634402 23340 net.cpp:408] rpn_accuarcy -> rpn_accuarcy_class
I0418 03:42:21.634435 23340 net.cpp:150] Setting up rpn_accuarcy
I0418 03:42:21.634445 23340 net.cpp:157] Top shape: (1)
I0418 03:42:21.634449 23340 net.cpp:157] Top shape: 2 (2)
I0418 03:42:21.634452 23340 net.cpp:165] Memory required for data: 10172517968
I0418 03:42:21.634456 23340 layer_factory.hpp:77] Creating layer rpn_cls_prob
I0418 03:42:21.634461 23340 net.cpp:100] Creating Layer rpn_cls_prob
I0418 03:42:21.634465 23340 net.cpp:434] rpn_cls_prob <- rpn_cls_score_reshape_rpn_cls_score_reshape_0_split_2
I0418 03:42:21.634475 23340 net.cpp:408] rpn_cls_prob -> rpn_cls_prob
I0418 03:42:21.635049 23340 net.cpp:150] Setting up rpn_cls_prob
I0418 03:42:21.635061 23340 net.cpp:157] Top shape: 1 2 3552 1 1 (7104)
I0418 03:42:21.635064 23340 net.cpp:165] Memory required for data: 10172546384
I0418 03:42:21.635068 23340 layer_factory.hpp:77] Creating layer rpn_cls_prob_reshape
I0418 03:42:21.635076 23340 net.cpp:100] Creating Layer rpn_cls_prob_reshape
I0418 03:42:21.635079 23340 net.cpp:434] rpn_cls_prob_reshape <- rpn_cls_prob
I0418 03:42:21.635085 23340 net.cpp:408] rpn_cls_prob_reshape -> rpn_cls_prob_reshape
I0418 03:42:21.635110 23340 net.cpp:150] Setting up rpn_cls_prob_reshape
I0418 03:42:21.635118 23340 net.cpp:157] Top shape: 1 74 96 1 1 (7104)
I0418 03:42:21.635123 23340 net.cpp:165] Memory required for data: 10172574800
I0418 03:42:21.635126 23340 layer_factory.hpp:77] Creating layer proposal
I0418 03:42:21.635661 23340 net.cpp:100] Creating Layer proposal
I0418 03:42:21.635674 23340 net.cpp:434] proposal <- rpn_cls_prob_reshape
I0418 03:42:21.635680 23340 net.cpp:434] proposal <- rpn_twin_pred_rpn_twin_pred_0_split_1
I0418 03:42:21.635685 23340 net.cpp:408] proposal -> rpn_rois
I0418 03:42:21.643012 23340 net.cpp:150] Setting up proposal
I0418 03:42:21.643026 23340 net.cpp:157] Top shape: 1 3 (3)
I0418 03:42:21.643030 23340 net.cpp:165] Memory required for data: 10172574812
I0418 03:42:21.643035 23340 layer_factory.hpp:77] Creating layer roi-data
I0418 03:42:21.643177 23340 net.cpp:100] Creating Layer roi-data
I0418 03:42:21.643187 23340 net.cpp:434] roi-data <- rpn_rois
I0418 03:42:21.643193 23340 net.cpp:434] roi-data <- gt_boxes_data_1_split_1
I0418 03:42:21.643198 23340 net.cpp:408] roi-data -> rois
I0418 03:42:21.643204 23340 net.cpp:408] roi-data -> labels
I0418 03:42:21.643221 23340 net.cpp:408] roi-data -> twin_targets
I0418 03:42:21.643230 23340 net.cpp:408] roi-data -> twin_inside_weights
I0418 03:42:21.643239 23340 net.cpp:408] roi-data -> twin_outside_weights
I0418 03:42:21.643549 23340 net.cpp:150] Setting up roi-data
I0418 03:42:21.643564 23340 net.cpp:157] Top shape: 1 3 (3)
I0418 03:42:21.643571 23340 net.cpp:157] Top shape: 1 1 (1)
I0418 03:42:21.643579 23340 net.cpp:157] Top shape: 1 402 (402)
I0418 03:42:21.643590 23340 net.cpp:157] Top shape: 1 402 (402)
I0418 03:42:21.643599 23340 net.cpp:157] Top shape: 1 402 (402)
I0418 03:42:21.643604 23340 net.cpp:165] Memory required for data: 10172579652
I0418 03:42:21.643609 23340 layer_factory.hpp:77] Creating layer labels_roi-data_1_split
I0418 03:42:21.643615 23340 net.cpp:100] Creating Layer labels_roi-data_1_split
I0418 03:42:21.643618 23340 net.cpp:434] labels_roi-data_1_split <- labels
I0418 03:42:21.643625 23340 net.cpp:408] labels_roi-data_1_split -> labels_roi-data_1_split_0
I0418 03:42:21.643631 23340 net.cpp:408] labels_roi-data_1_split -> labels_roi-data_1_split_1
I0418 03:42:21.643664 23340 net.cpp:150] Setting up labels_roi-data_1_split
I0418 03:42:21.643671 23340 net.cpp:157] Top shape: 1 1 (1)
I0418 03:42:21.643674 23340 net.cpp:157] Top shape: 1 1 (1)
I0418 03:42:21.643678 23340 net.cpp:165] Memory required for data: 10172579660
I0418 03:42:21.643682 23340 layer_factory.hpp:77] Creating layer roi_pool5
I0418 03:42:21.643690 23340 net.cpp:100] Creating Layer roi_pool5
I0418 03:42:21.643695 23340 net.cpp:434] roi_pool5 <- conv5b_relu5b_0_split_1
I0418 03:42:21.643700 23340 net.cpp:434] roi_pool5 <- rois
I0418 03:42:21.643705 23340 net.cpp:408] roi_pool5 -> pool5
I0418 03:42:21.643712 23340 roi_pooling_layer.cpp:34] Temporal scale: 0.125
I0418 03:42:21.643726 23340 roi_pooling_layer.cpp:35] Spatial scale: 0.0625
I0418 03:42:21.643769 23340 net.cpp:150] Setting up roi_pool5
I0418 03:42:21.643779 23340 net.cpp:157] Top shape: 1 512 1 4 4 (8192)
I0418 03:42:21.643785 23340 net.cpp:165] Memory required for data: 10172612428
I0418 03:42:21.643790 23340 layer_factory.hpp:77] Creating layer fc6
I0418 03:42:21.643808 23340 net.cpp:100] Creating Layer fc6
I0418 03:42:21.643813 23340 net.cpp:434] fc6 <- pool5
I0418 03:42:21.643820 23340 net.cpp:408] fc6 -> fc6
I0418 03:42:22.519258 23340 net.cpp:150] Setting up fc6
I0418 03:42:22.519284 23340 net.cpp:157] Top shape: 1 4096 (4096)
I0418 03:42:22.519289 23340 net.cpp:165] Memory required for data: 10172628812
I0418 03:42:22.519299 23340 layer_factory.hpp:77] Creating layer relu6
I0418 03:42:22.519307 23340 net.cpp:100] Creating Layer relu6
I0418 03:42:22.519312 23340 net.cpp:434] relu6 <- fc6
I0418 03:42:22.519318 23340 net.cpp:395] relu6 -> fc6 (in-place)
I0418 03:42:22.520063 23340 net.cpp:150] Setting up relu6
I0418 03:42:22.520076 23340 net.cpp:157] Top shape: 1 4096 (4096)
I0418 03:42:22.520079 23340 net.cpp:165] Memory required for data: 10172645196
I0418 03:42:22.520083 23340 layer_factory.hpp:77] Creating layer drop6
I0418 03:42:22.520098 23340 net.cpp:100] Creating Layer drop6
I0418 03:42:22.520104 23340 net.cpp:434] drop6 <- fc6
I0418 03:42:22.520110 23340 net.cpp:395] drop6 -> fc6 (in-place)
I0418 03:42:22.520138 23340 net.cpp:150] Setting up drop6
I0418 03:42:22.520146 23340 net.cpp:157] Top shape: 1 4096 (4096)
I0418 03:42:22.520151 23340 net.cpp:165] Memory required for data: 10172661580
I0418 03:42:22.520155 23340 layer_factory.hpp:77] Creating layer fc6_drop6_0_split
I0418 03:42:22.520160 23340 net.cpp:100] Creating Layer fc6_drop6_0_split
I0418 03:42:22.520164 23340 net.cpp:434] fc6_drop6_0_split <- fc6
I0418 03:42:22.520170 23340 net.cpp:408] fc6_drop6_0_split -> fc6_drop6_0_split_0
I0418 03:42:22.520176 23340 net.cpp:408] fc6_drop6_0_split -> fc6_drop6_0_split_1
I0418 03:42:22.520210 23340 net.cpp:150] Setting up fc6_drop6_0_split
I0418 03:42:22.520216 23340 net.cpp:157] Top shape: 1 4096 (4096)
I0418 03:42:22.520220 23340 net.cpp:157] Top shape: 1 4096 (4096)
I0418 03:42:22.520225 23340 net.cpp:165] Memory required for data: 10172694348
I0418 03:42:22.520228 23340 layer_factory.hpp:77] Creating layer cls_score
I0418 03:42:22.520237 23340 net.cpp:100] Creating Layer cls_score
I0418 03:42:22.520241 23340 net.cpp:434] cls_score <- fc6_drop6_0_split_0
I0418 03:42:22.520246 23340 net.cpp:408] cls_score -> cls_score
I0418 03:42:22.543841 23340 net.cpp:150] Setting up cls_score
I0418 03:42:22.543861 23340 net.cpp:157] Top shape: 1 201 (201)
I0418 03:42:22.543865 23340 net.cpp:165] Memory required for data: 10172695152
I0418 03:42:22.543874 23340 layer_factory.hpp:77] Creating layer cls_score_cls_score_0_split
I0418 03:42:22.543882 23340 net.cpp:100] Creating Layer cls_score_cls_score_0_split
I0418 03:42:22.543886 23340 net.cpp:434] cls_score_cls_score_0_split <- cls_score
I0418 03:42:22.543895 23340 net.cpp:408] cls_score_cls_score_0_split -> cls_score_cls_score_0_split_0
I0418 03:42:22.543901 23340 net.cpp:408] cls_score_cls_score_0_split -> cls_score_cls_score_0_split_1
I0418 03:42:22.543934 23340 net.cpp:150] Setting up cls_score_cls_score_0_split
I0418 03:42:22.543943 23340 net.cpp:157] Top shape: 1 201 (201)
I0418 03:42:22.543947 23340 net.cpp:157] Top shape: 1 201 (201)
I0418 03:42:22.543952 23340 net.cpp:165] Memory required for data: 10172696760
I0418 03:42:22.543956 23340 layer_factory.hpp:77] Creating layer twin_pred
I0418 03:42:22.543965 23340 net.cpp:100] Creating Layer twin_pred
I0418 03:42:22.543968 23340 net.cpp:434] twin_pred <- fc6_drop6_0_split_1
I0418 03:42:22.543974 23340 net.cpp:408] twin_pred -> twin_pred
I0418 03:42:22.586980 23340 net.cpp:150] Setting up twin_pred
I0418 03:42:22.587003 23340 net.cpp:157] Top shape: 1 402 (402)
I0418 03:42:22.587007 23340 net.cpp:165] Memory required for data: 10172698368
I0418 03:42:22.587016 23340 layer_factory.hpp:77] Creating layer loss_cls
I0418 03:42:22.587028 23340 net.cpp:100] Creating Layer loss_cls
I0418 03:42:22.587035 23340 net.cpp:434] loss_cls <- cls_score_cls_score_0_split_0
I0418 03:42:22.587041 23340 net.cpp:434] loss_cls <- labels_roi-data_1_split_0
I0418 03:42:22.587047 23340 net.cpp:408] loss_cls -> loss_cls
…
