…
stepsize: 350000
snapshot: 0
snapshot_prefix: "./experiments/activitynet/snapshot/activitynet"
average_loss: 100
iter_size: 1
I0417 04:18:46.497575 17209 solver.cpp:81] Creating training net from train_net file: ./experiments/activitynet/train.prototxt
I0417 04:18:46.498651 17209 net.cpp:58] Initializing net from parameters: 
name: "activitynet"
state {
  phase: TRAIN
}
layer {
  name: "data"
  type: "Python"
  top: "data"
  top: "gt_boxes"
  python_param {
    module: "roi_data_layer.layer"
    layer: "RoIDataLayer"
    param_str: "\'num_classes\': 100"
  }
}
layer {
  name: "conv1a"
  type: "Convolution"
  bottom: "data"
  top: "conv1a"
  param {
    lr_mult: 0
    decay_mult: 0
  }
  param {
    lr_mult: 0
    decay_mult: 0
  }
  convolution_param {
    num_output: 64
    pad: 1
    pad: 1
    pad: 1
    kernel_size: 3
    kernel_size: 3
    kernel_size: 3
    weight_filler {
      type: "gaussian"
      std: 0.01
    }
    bias_filler {
      type: "constant"
      value: 0
    }
  }
}
layer {
  name: "relu1a"
  type: "ReLU"
  bottom: "conv1a"
  top: "conv1a"
}
layer {
  name: "pool1"
  type: "Pooling"
  bottom: "conv1a"
  top: "pool1"
  pooling_param {
    pool: MAX
    kernel_size: 1
    kernel_size: 2
    kernel_size: 2
    stride: 1
    stride: 2
    stride: 2
  }
}
layer {
  name: "conv2a"
  type: "Convolution"
  bottom: "pool1"
  top: "conv2a"
  param {
    lr_mult: 0
    decay_mult: 0
  }
  param {
    lr_mult: 0
    decay_mult: 0
  }
  convolution_param {
    num_output: 128
    pad: 1
    pad: 1
    pad: 1
    kernel_size: 3
    kernel_size: 3
    kernel_size: 3
    weight_filler {
      type: "gaussian"
      std: 0.01
    }
    bias_filler {
      type: "constant"
      value: 1
    }
  }
}
layer {
  name: "relu2a"
  type: "ReLU"
  bottom: "conv2a"
  top: "conv2a"
}
layer {
  name: "pool2"
  type: "Pooling"
  bottom: "conv2a"
  top: "pool2"
  pooling_param {
    pool: MAX
    kernel_size: 2
    kernel_size: 2
    kernel_size: 2
    stride: 2
    stride: 2
    stride: 2
  }
}
layer {
  name: "conv3a"
  type: "Convolution"
  bottom: "pool2"
  top: "conv3a"
  param {
    lr_mult: 1
    decay_mult: 1
  }
  param {
    lr_mult: 2
    decay_mult: 0
  }
  convolution_param {
    num_output: 256
    pad: 1
    pad: 1
    pad: 1
    kernel_size: 3
    kernel_size: 3
    kernel_size: 3
    weight_filler {
      type: "gaussian"
      std: 0.01
    }
    bias_filler {
      type: "constant"
      value: 1
    }
  }
}
layer {
  name: "relu3a"
  type: "ReLU"
  bottom: "conv3a"
  top: "conv3a"
}
layer {
  name: "conv3b"
  type: "Convolution"
  bottom: "conv3a"
  top: "conv3b"
  param {
    lr_mult: 1
    decay_mult: 1
  }
  param {
    lr_mult: 2
    decay_mult: 0
  }
  convolution_param {
    num_output: 256
    pad: 1
    pad: 1
    pad: 1
    kernel_size: 3
    kernel_size: 3
    kernel_size: 3
    weight_filler {
      type: "gaussian"
      std: 0.01
    }
    bias_filler {
      type: "constant"
      value: 1
    }
  }
}
layer {
  name: "relu3b"
  type: "ReLU"
  bottom: "conv3b"
  top: "conv3b"
}
layer {
  name: "pool3"
  type: "Pooling"
  bottom: "conv3b"
  top: "pool3"
  pooling_param {
    pool: MAX
    kernel_size: 2
    kernel_size: 2
    kernel_size: 2
    stride: 2
    stride: 2
    stride: 2
  }
}
layer {
  name: "conv4a"
  type: "Convolution"
  bottom: "pool3"
  top: "conv4a"
  param {
    lr_mult: 1
    decay_mult: 1
  }
  param {
    lr_mult: 2
    decay_mult: 0
  }
  convolution_param {
    num_output: 512
    pad: 1
    pad: 1
    pad: 1
    kernel_size: 3
    kernel_size: 3
    kernel_size: 3
    weight_filler {
      type: "gaussian"
      std: 0.01
    }
    bias_filler {
      type: "constant"
      value: 1
    }
  }
}
layer {
  name: "relu4a"
  type: "ReLU"
  bottom: "conv4a"
  top: "conv4a"
}
layer {
  name: "conv4b"
  type: "Convolution"
  bottom: "conv4a"
  top: "conv4b"
  param {
    lr_mult: 1
    decay_mult: 1
  }
  param {
    lr_mult: 2
    decay_mult: 0
  }
  convolution_param {
    num_output: 512
    pad: 1
    pad: 1
    pad: 1
    kernel_size: 3
    kernel_size: 3
    kernel_size: 3
    weight_filler {
      type: "gaussian"
      std: 0.01
    }
    bias_filler {
      type: "constant"
      value: 1
    }
  }
}
layer {
  name: "relu4b"
  type: "ReLU"
  bottom: "conv4b"
  top: "conv4b"
}
layer {
  name: "pool4"
  type: "Pooling"
  bottom: "conv4b"
  top: "pool4"
  pooling_param {
    pool: MAX
    kernel_size: 2
    kernel_size: 2
    kernel_size: 2
    stride: 2
    stride: 2
    stride: 2
  }
}
layer {
  name: "conv5a"
  type: "Convolution"
  bottom: "pool4"
  top: "conv5a"
  param {
    lr_mult: 1
    decay_mult: 1
  }
  param {
    lr_mult: 2
    decay_mult: 0
  }
  convolution_param {
    num_output: 512
    pad: 1
    pad: 1
    pad: 1
    kernel_size: 3
    kernel_size: 3
    kernel_size: 3
    weight_filler {
      type: "gaussian"
      std: 0.01
    }
    bias_filler {
      type: "constant"
      value: 1
    }
  }
}
layer {
  name: "relu5a"
  type: "ReLU"
  bottom: "conv5a"
  top: "conv5a"
}
layer {
  name: "conv5b"
  type: "Convolution"
  bottom: "conv5a"
  top: "conv5b"
  param {
    lr_mult: 1
    decay_mult: 1
  }
  param {
    lr_mult: 2
    decay_mult: 0
  }
  convolution_param {
    num_output: 512
    pad: 1
    pad: 1
    pad: 1
    kernel_size: 3
    kernel_size: 3
    kernel_size: 3
    weight_filler {
      type: "gaussian"
      std: 0.01
    }
    bias_filler {
      type: "constant"
      value: 1
    }
  }
}
layer {
  name: "relu5b"
  type: "ReLU"
  bottom: "conv5b"
  top: "conv5b"
}
layer {
  name: "rpn_conv/3x3"
  type: "Convolution"
  bottom: "conv5b"
  top: "rpn/output"
  param {
    lr_mult: 1
    decay_mult: 1
  }
  param {
    lr_mult: 2
    decay_mult: 0
  }
  convolution_param {
    num_output: 512
    pad: 1
    pad: 1
    pad: 1
    kernel_size: 3
    kernel_size: 3
    kernel_size: 3
    stride: 1
    stride: 2
    stride: 2
    weight_filler {
      type: "gaussian"
      std: 0.01
    }
    bias_filler {
      type: "constant"
      value: 0
    }
  }
}
layer {
  name: "rpn_relu/3x3"
  type: "ReLU"
  bottom: "rpn/output"
  top: "rpn/output"
}
layer {
  name: "rpn_conv/3x3_2"
  type: "Convolution"
  bottom: "rpn/output"
  top: "rpn/output_2"
  param {
    lr_mult: 1
    decay_mult: 1
  }
  param {
    lr_mult: 2
    decay_mult: 0
  }
  convolution_param {
    num_output: 512
    pad: 1
    pad: 1
    pad: 1
    kernel_size: 3
    kernel_size: 3
    kernel_size: 3
    stride: 1
    stride: 2
    stride: 2
    weight_filler {
      type: "gaussian"
      std: 0.01
    }
    bias_filler {
      type: "constant"
      value: 0
    }
  }
}
layer {
  name: "rpn_relu/3x3_2"
  type: "ReLU"
  bottom: "rpn/output_2"
  top: "rpn/output_2"
}
layer {
  name: "rpn/output_pool"
  type: "Pooling"
  bottom: "rpn/output_2"
  top: "rpn/output_pool"
  pooling_param {
    pool: MAX
    kernel_size: 1
    kernel_size: 2
    kernel_size: 2
  }
}
layer {
  name: "rpn_cls_score"
  type: "Convolution"
  bottom: "rpn/output_pool"
  top: "rpn_cls_score"
  param {
    lr_mult: 1
    decay_mult: 1
  }
  param {
    lr_mult: 2
    decay_mult: 0
  }
  convolution_param {
    num_output: 74
    kernel_size: 1
    kernel_size: 1
    kernel_size: 1
    weight_filler {
      type: "gaussian"
      std: 0.01
    }
    bias_filler {
      type: "constant"
      value: 0
    }
  }
}
layer {
  name: "rpn_twin_pred"
  type: "Convolution"
  bottom: "rpn/output_pool"
  top: "rpn_twin_pred"
  param {
    lr_mult: 1
    decay_mult: 1
  }
  param {
    lr_mult: 2
    decay_mult: 0
  }
  convolution_param {
    num_output: 74
    kernel_size: 1
    kernel_size: 1
    kernel_size: 1
    weight_filler {
      type: "gaussian"
      std: 0.01
    }
    bias_filler {
      type: "constant"
      value: 0
    }
  }
}
layer {
  name: "rpn_cls_score_reshape"
  type: "Reshape"
  bottom: "rpn_cls_score"
  top: "rpn_cls_score_reshape"
  reshape_param {
    shape {
      dim: 0
      dim: 2
      dim: -1
      dim: 0
      dim: 0
    }
  }
}
layer {
  name: "rpn-data"
  type: "Python"
  bottom: "rpn_cls_score"
  bottom: "gt_boxes"
  bottom: "data"
  top: "rpn_labels"
  top: "rpn_twin_targets"
  top: "rpn_twin_inside_weights"
  top: "rpn_twin_outside_weights"
  python_param {
    module: "rpn.anchor_target_layer"
    layer: "AnchorTargetLayer"
    param_str: "\'feat_stride\': 8 \n\'scales\': !!python/tuple [1,1.25, 1.5,1.75, 2,2.5, 3,3.5, 4,4.5, 5,5.5, 6,7, 8,9,10,11,12,14,16,18,20,22,24,28,32,36,40,44,52,60,68,76,84,92,100]"
  }
}
layer {
  name: "rpn_loss_cls"
  type: "SoftmaxWithLoss"
  bottom: "rpn_cls_score_reshape"
  bottom: "rpn_labels"
  top: "rpn_cls_loss"
  loss_weight: 1
  propagate_down: true
  propagate_down: false
  loss_param {
    ignore_label: -1
    normalize: true
  }
}
layer {
  name: "rpn_loss_twin"
  type: "SmoothL1Loss"
  bottom: "rpn_twin_pred"
  bottom: "rpn_twin_targets"
  bottom: "rpn_twin_inside_weights"
  bottom: "rpn_twin_outside_weights"
  top: "rpn_loss_twin"
  loss_weight: 1
  smooth_l1_loss_param {
    sigma: 3
  }
}
layer {
  name: "rpn_accuarcy"
  type: "Accuracy"
  bottom: "rpn_cls_score_reshape"
  bottom: "rpn_labels"
  top: "rpn_accuarcy"
  top: "rpn_accuarcy_class"
  propagate_down: false
  propagate_down: false
  accuracy_param {
    ignore_label: -1
  }
}
layer {
  name: "rpn_cls_prob"
  type: "Softmax"
  bottom: "rpn_cls_score_reshape"
  top: "rpn_cls_prob"
}
layer {
  name: "rpn_cls_prob_reshape"
  type: "Reshape"
  bottom: "rpn_cls_prob"
  top: "rpn_cls_prob_reshape"
  reshape_param {
    shape {
      dim: 0
      dim: 74
      dim: -1
      dim: 0
      dim: 0
    }
  }
}
layer {
  name: "proposal"
  type: "Python"
  bottom: "rpn_cls_prob_reshape"
  bottom: "rpn_twin_pred"
  top: "rpn_rois"
  include {
    phase: TRAIN
  }
  python_param {
    module: "rpn.proposal_layer"
    layer: "ProposalLayer"
    param_str: "\'feat_stride\': 8 \n\'scales\': !!python/tuple [1,1.25, 1.5,1.75, 2,2.5, 3,3.5, 4,4.5, 5,5.5, 6,7, 8,9,10,11,12,14,16,18,20,22,24,28,32,36,40,44,52,60,68,76,84,92,100]"
  }
}
layer {
  name: "roi-data"
  type: "Python"
  bottom: "rpn_rois"
  bottom: "gt_boxes"
  top: "rois"
  top: "labels"
  top: "twin_targets"
  top: "twin_inside_weights"
  top: "twin_outside_weights"
  python_param {
    module: "rpn.proposal_target_layer"
    layer: "ProposalTargetLayer"
    param_str: "\'num_classes\': 201"
  }
}
layer {
  name: "roi_pool5"
  type: "ROIPooling"
  bottom: "conv5b"
  bottom: "rois"
  top: "pool5"
  roi_pooling_param {
    pooled_h: 4
    pooled_w: 4
    spatial_scale: 0.0625
    pooled_l: 1
    temporal_scale: 0.125
  }
}
layer {
  name: "fc6"
  type: "InnerProduct"
  bottom: "pool5"
  top: "fc6"
  param {
    lr_mult: 1
    decay_mult: 1
  }
  param {
    lr_mult: 2
    decay_mult: 0
  }
  inner_product_param {
    num_output: 4096
    weight_filler {
      type: "gaussian"
      std: 0.005
    }
    bias_filler {
      type: "constant"
      value: 1
    }
  }
}
layer {
  name: "relu6"
  type: "ReLU"
  bottom: "fc6"
  top: "fc6"
}
layer {
  name: "drop6"
  type: "Dropout"
  bottom: "fc6"
  top: "fc6"
  dropout_param {
    dropout_ratio: 0.5
  }
}
layer {
  name: "cls_score"
  type: "InnerProduct"
  bottom: "fc6"
  top: "cls_score"
  param {
    lr_mult: 1
    decay_mult: 1
  }
  param {
    lr_mult: 2
    decay_mult: 0
  }
  inner_product_param {
    num_output: 201
    weight_filler {
      type: "gaussian"
      std: 0.01
    }
    bias_filler {
      type: "constant"
      value: 0
    }
  }
}
layer {
  name: "twin_pred"
  type: "InnerProduct"
  bottom: "fc6"
  top: "twin_pred"
  param {
    lr_mult: 1
    decay_mult: 1
  }
  param {
    lr_mult: 2
    decay_mult: 0
  }
  inner_product_param {
    num_output: 402
    weight_filler {
      type: "gaussian"
      std: 0.001
    }
    bias_filler {
      type: "constant"
      value: 0
    }
  }
}
layer {
  name: "loss_cls"
  type: "SoftmaxWithLoss"
  bottom: "cls_score"
  bottom: "labels"
  top: "loss_cls"
  loss_weight: 1
  propagate_down: true
  propagate_down: false
}
layer {
  name: "loss_twin"
  type: "SmoothL1Loss"
  bottom: "twin_pred"
  bottom: "twin_targets"
  bottom: "twin_inside_weights"
  bottom: "twin_outside_weights"
  top: "loss_twin"
  loss_weight: 1
}
layer {
  name: "accuarcy"
  type: "Accuracy"
  bottom: "cls_score"
  bottom: "labels"
  top: "accuarcy"
  propagate_down: false
  propagate_down: false
  accuracy_param {
    ignore_label: -1
  }
}
I0417 04:18:46.498883 17209 layer_factory.hpp:77] Creating layer data
I0417 04:18:46.524551 17209 net.cpp:100] Creating Layer data
I0417 04:18:46.524579 17209 net.cpp:408] data -> data
I0417 04:18:46.524591 17209 net.cpp:408] data -> gt_boxes
setting up
RoiDataLayer: name_to_top: {'gt_windows': 1, 'data': 0}
I0417 04:18:46.537874 17209 net.cpp:150] Setting up data
I0417 04:18:46.537902 17209 net.cpp:157] Top shape: 1 3 768 112 112 (28901376)
I0417 04:18:46.537909 17209 net.cpp:157] Top shape: 1 101 (101)
I0417 04:18:46.537914 17209 net.cpp:165] Memory required for data: 115605908
I0417 04:18:46.537919 17209 layer_factory.hpp:77] Creating layer data_data_0_split
I0417 04:18:46.537931 17209 net.cpp:100] Creating Layer data_data_0_split
I0417 04:18:46.537938 17209 net.cpp:434] data_data_0_split <- data
I0417 04:18:46.537945 17209 net.cpp:408] data_data_0_split -> data_data_0_split_0
I0417 04:18:46.537953 17209 net.cpp:408] data_data_0_split -> data_data_0_split_1
I0417 04:18:46.537999 17209 net.cpp:150] Setting up data_data_0_split
I0417 04:18:46.538007 17209 net.cpp:157] Top shape: 1 3 768 112 112 (28901376)
I0417 04:18:46.538012 17209 net.cpp:157] Top shape: 1 3 768 112 112 (28901376)
I0417 04:18:46.538015 17209 net.cpp:165] Memory required for data: 346816916
I0417 04:18:46.538019 17209 layer_factory.hpp:77] Creating layer gt_boxes_data_1_split
I0417 04:18:46.538024 17209 net.cpp:100] Creating Layer gt_boxes_data_1_split
I0417 04:18:46.538028 17209 net.cpp:434] gt_boxes_data_1_split <- gt_boxes
I0417 04:18:46.538033 17209 net.cpp:408] gt_boxes_data_1_split -> gt_boxes_data_1_split_0
I0417 04:18:46.538039 17209 net.cpp:408] gt_boxes_data_1_split -> gt_boxes_data_1_split_1
I0417 04:18:46.538074 17209 net.cpp:150] Setting up gt_boxes_data_1_split
I0417 04:18:46.538081 17209 net.cpp:157] Top shape: 1 101 (101)
I0417 04:18:46.538085 17209 net.cpp:157] Top shape: 1 101 (101)
I0417 04:18:46.538089 17209 net.cpp:165] Memory required for data: 346817724
I0417 04:18:46.538092 17209 layer_factory.hpp:77] Creating layer conv1a
I0417 04:18:46.538105 17209 net.cpp:100] Creating Layer conv1a
I0417 04:18:46.538110 17209 net.cpp:434] conv1a <- data_data_0_split_0
I0417 04:18:46.538115 17209 net.cpp:408] conv1a -> conv1a
I0417 04:18:46.556733 17209 net.cpp:150] Setting up conv1a
I0417 04:18:46.556762 17209 net.cpp:157] Top shape: 1 64 768 112 112 (616562688)
I0417 04:18:46.556767 17209 net.cpp:165] Memory required for data: 2813068476
I0417 04:18:46.556788 17209 layer_factory.hpp:77] Creating layer relu1a
I0417 04:18:46.556802 17209 net.cpp:100] Creating Layer relu1a
I0417 04:18:46.556807 17209 net.cpp:434] relu1a <- conv1a
I0417 04:18:46.556813 17209 net.cpp:395] relu1a -> conv1a (in-place)
I0417 04:18:46.556824 17209 net.cpp:150] Setting up relu1a
I0417 04:18:46.556829 17209 net.cpp:157] Top shape: 1 64 768 112 112 (616562688)
I0417 04:18:46.556833 17209 net.cpp:165] Memory required for data: 5279319228
I0417 04:18:46.556835 17209 layer_factory.hpp:77] Creating layer pool1
I0417 04:18:46.556843 17209 net.cpp:100] Creating Layer pool1
I0417 04:18:46.556846 17209 net.cpp:434] pool1 <- conv1a
I0417 04:18:46.556851 17209 net.cpp:408] pool1 -> pool1
I0417 04:18:46.556955 17209 net.cpp:150] Setting up pool1
I0417 04:18:46.556963 17209 net.cpp:157] Top shape: 1 64 768 56 56 (154140672)
I0417 04:18:46.556967 17209 net.cpp:165] Memory required for data: 5895881916
I0417 04:18:46.556970 17209 layer_factory.hpp:77] Creating layer conv2a
I0417 04:18:46.556982 17209 net.cpp:100] Creating Layer conv2a
I0417 04:18:46.556985 17209 net.cpp:434] conv2a <- pool1
I0417 04:18:46.556991 17209 net.cpp:408] conv2a -> conv2a
I0417 04:18:46.567850 17209 net.cpp:150] Setting up conv2a
I0417 04:18:46.567875 17209 net.cpp:157] Top shape: 1 128 768 56 56 (308281344)
I0417 04:18:46.567880 17209 net.cpp:165] Memory required for data: 7129007292
I0417 04:18:46.567893 17209 layer_factory.hpp:77] Creating layer relu2a
I0417 04:18:46.567905 17209 net.cpp:100] Creating Layer relu2a
I0417 04:18:46.567910 17209 net.cpp:434] relu2a <- conv2a
I0417 04:18:46.567916 17209 net.cpp:395] relu2a -> conv2a (in-place)
I0417 04:18:46.567924 17209 net.cpp:150] Setting up relu2a
I0417 04:18:46.567929 17209 net.cpp:157] Top shape: 1 128 768 56 56 (308281344)
I0417 04:18:46.567932 17209 net.cpp:165] Memory required for data: 8362132668
I0417 04:18:46.567936 17209 layer_factory.hpp:77] Creating layer pool2
I0417 04:18:46.567945 17209 net.cpp:100] Creating Layer pool2
I0417 04:18:46.567953 17209 net.cpp:434] pool2 <- conv2a
I0417 04:18:46.567961 17209 net.cpp:408] pool2 -> pool2
I0417 04:18:46.568047 17209 net.cpp:150] Setting up pool2
I0417 04:18:46.568054 17209 net.cpp:157] Top shape: 1 128 384 28 28 (38535168)
I0417 04:18:46.568058 17209 net.cpp:165] Memory required for data: 8516273340
I0417 04:18:46.568061 17209 layer_factory.hpp:77] Creating layer conv3a
I0417 04:18:46.568073 17209 net.cpp:100] Creating Layer conv3a
I0417 04:18:46.568078 17209 net.cpp:434] conv3a <- pool2
I0417 04:18:46.568084 17209 net.cpp:408] conv3a -> conv3a
I0417 04:18:46.593084 17209 net.cpp:150] Setting up conv3a
I0417 04:18:46.593106 17209 net.cpp:157] Top shape: 1 256 384 28 28 (77070336)
I0417 04:18:46.593111 17209 net.cpp:165] Memory required for data: 8824554684
I0417 04:18:46.593123 17209 layer_factory.hpp:77] Creating layer relu3a
I0417 04:18:46.593133 17209 net.cpp:100] Creating Layer relu3a
I0417 04:18:46.593138 17209 net.cpp:434] relu3a <- conv3a
I0417 04:18:46.593145 17209 net.cpp:395] relu3a -> conv3a (in-place)
I0417 04:18:46.593153 17209 net.cpp:150] Setting up relu3a
I0417 04:18:46.593158 17209 net.cpp:157] Top shape: 1 256 384 28 28 (77070336)
I0417 04:18:46.593160 17209 net.cpp:165] Memory required for data: 9132836028
I0417 04:18:46.593164 17209 layer_factory.hpp:77] Creating layer conv3b
I0417 04:18:46.593175 17209 net.cpp:100] Creating Layer conv3b
I0417 04:18:46.593184 17209 net.cpp:434] conv3b <- conv3a
I0417 04:18:46.593194 17209 net.cpp:408] conv3b -> conv3b
I0417 04:18:46.642256 17209 net.cpp:150] Setting up conv3b
I0417 04:18:46.642280 17209 net.cpp:157] Top shape: 1 256 384 28 28 (77070336)
I0417 04:18:46.642284 17209 net.cpp:165] Memory required for data: 9441117372
I0417 04:18:46.642294 17209 layer_factory.hpp:77] Creating layer relu3b
I0417 04:18:46.642304 17209 net.cpp:100] Creating Layer relu3b
I0417 04:18:46.642308 17209 net.cpp:434] relu3b <- conv3b
I0417 04:18:46.642315 17209 net.cpp:395] relu3b -> conv3b (in-place)
I0417 04:18:46.642324 17209 net.cpp:150] Setting up relu3b
I0417 04:18:46.642328 17209 net.cpp:157] Top shape: 1 256 384 28 28 (77070336)
I0417 04:18:46.642331 17209 net.cpp:165] Memory required for data: 9749398716
I0417 04:18:46.642334 17209 layer_factory.hpp:77] Creating layer pool3
I0417 04:18:46.642343 17209 net.cpp:100] Creating Layer pool3
I0417 04:18:46.642345 17209 net.cpp:434] pool3 <- conv3b
I0417 04:18:46.642350 17209 net.cpp:408] pool3 -> pool3
I0417 04:18:46.642410 17209 net.cpp:150] Setting up pool3
I0417 04:18:46.642419 17209 net.cpp:157] Top shape: 1 256 192 14 14 (9633792)
I0417 04:18:46.642422 17209 net.cpp:165] Memory required for data: 9787933884
I0417 04:18:46.642426 17209 layer_factory.hpp:77] Creating layer conv4a
I0417 04:18:46.642437 17209 net.cpp:100] Creating Layer conv4a
I0417 04:18:46.642446 17209 net.cpp:434] conv4a <- pool3
I0417 04:18:46.642453 17209 net.cpp:408] conv4a -> conv4a
I0417 04:18:46.739912 17209 net.cpp:150] Setting up conv4a
I0417 04:18:46.739936 17209 net.cpp:157] Top shape: 1 512 192 14 14 (19267584)
I0417 04:18:46.739940 17209 net.cpp:165] Memory required for data: 9865004220
I0417 04:18:46.739953 17209 layer_factory.hpp:77] Creating layer relu4a
I0417 04:18:46.739964 17209 net.cpp:100] Creating Layer relu4a
I0417 04:18:46.739969 17209 net.cpp:434] relu4a <- conv4a
I0417 04:18:46.739977 17209 net.cpp:395] relu4a -> conv4a (in-place)
I0417 04:18:46.739986 17209 net.cpp:150] Setting up relu4a
I0417 04:18:46.739994 17209 net.cpp:157] Top shape: 1 512 192 14 14 (19267584)
I0417 04:18:46.739997 17209 net.cpp:165] Memory required for data: 9942074556
I0417 04:18:46.740000 17209 layer_factory.hpp:77] Creating layer conv4b
I0417 04:18:46.740013 17209 net.cpp:100] Creating Layer conv4b
I0417 04:18:46.740016 17209 net.cpp:434] conv4b <- conv4a
I0417 04:18:46.740022 17209 net.cpp:408] conv4b -> conv4b
I0417 04:18:46.932345 17209 net.cpp:150] Setting up conv4b
I0417 04:18:46.932370 17209 net.cpp:157] Top shape: 1 512 192 14 14 (19267584)
I0417 04:18:46.932374 17209 net.cpp:165] Memory required for data: 10019144892
I0417 04:18:46.932384 17209 layer_factory.hpp:77] Creating layer relu4b
I0417 04:18:46.932394 17209 net.cpp:100] Creating Layer relu4b
I0417 04:18:46.932400 17209 net.cpp:434] relu4b <- conv4b
I0417 04:18:46.932409 17209 net.cpp:395] relu4b -> conv4b (in-place)
I0417 04:18:46.932416 17209 net.cpp:150] Setting up relu4b
I0417 04:18:46.932421 17209 net.cpp:157] Top shape: 1 512 192 14 14 (19267584)
I0417 04:18:46.932425 17209 net.cpp:165] Memory required for data: 10096215228
I0417 04:18:46.932428 17209 layer_factory.hpp:77] Creating layer pool4
I0417 04:18:46.932435 17209 net.cpp:100] Creating Layer pool4
I0417 04:18:46.932437 17209 net.cpp:434] pool4 <- conv4b
I0417 04:18:46.932445 17209 net.cpp:408] pool4 -> pool4
I0417 04:18:46.932495 17209 net.cpp:150] Setting up pool4
I0417 04:18:46.932502 17209 net.cpp:157] Top shape: 1 512 96 7 7 (2408448)
I0417 04:18:46.932505 17209 net.cpp:165] Memory required for data: 10105849020
I0417 04:18:46.932509 17209 layer_factory.hpp:77] Creating layer conv5a
I0417 04:18:46.932518 17209 net.cpp:100] Creating Layer conv5a
I0417 04:18:46.932524 17209 net.cpp:434] conv5a <- pool4
I0417 04:18:46.932533 17209 net.cpp:408] conv5a -> conv5a
I0417 04:18:47.119331 17209 net.cpp:150] Setting up conv5a
I0417 04:18:47.119367 17209 net.cpp:157] Top shape: 1 512 96 7 7 (2408448)
I0417 04:18:47.119371 17209 net.cpp:165] Memory required for data: 10115482812
I0417 04:18:47.119380 17209 layer_factory.hpp:77] Creating layer relu5a
I0417 04:18:47.119390 17209 net.cpp:100] Creating Layer relu5a
I0417 04:18:47.119395 17209 net.cpp:434] relu5a <- conv5a
I0417 04:18:47.119401 17209 net.cpp:395] relu5a -> conv5a (in-place)
I0417 04:18:47.119410 17209 net.cpp:150] Setting up relu5a
I0417 04:18:47.119415 17209 net.cpp:157] Top shape: 1 512 96 7 7 (2408448)
I0417 04:18:47.119418 17209 net.cpp:165] Memory required for data: 10125116604
I0417 04:18:47.119421 17209 layer_factory.hpp:77] Creating layer conv5b
I0417 04:18:47.119432 17209 net.cpp:100] Creating Layer conv5b
I0417 04:18:47.119441 17209 net.cpp:434] conv5b <- conv5a
I0417 04:18:47.119446 17209 net.cpp:408] conv5b -> conv5b
I0417 04:18:47.305999 17209 net.cpp:150] Setting up conv5b
I0417 04:18:47.306025 17209 net.cpp:157] Top shape: 1 512 96 7 7 (2408448)
I0417 04:18:47.306028 17209 net.cpp:165] Memory required for data: 10134750396
I0417 04:18:47.306046 17209 layer_factory.hpp:77] Creating layer relu5b
I0417 04:18:47.306057 17209 net.cpp:100] Creating Layer relu5b
I0417 04:18:47.306062 17209 net.cpp:434] relu5b <- conv5b
I0417 04:18:47.306068 17209 net.cpp:395] relu5b -> conv5b (in-place)
I0417 04:18:47.306077 17209 net.cpp:150] Setting up relu5b
I0417 04:18:47.306082 17209 net.cpp:157] Top shape: 1 512 96 7 7 (2408448)
I0417 04:18:47.306084 17209 net.cpp:165] Memory required for data: 10144384188
I0417 04:18:47.306087 17209 layer_factory.hpp:77] Creating layer conv5b_relu5b_0_split
I0417 04:18:47.306093 17209 net.cpp:100] Creating Layer conv5b_relu5b_0_split
I0417 04:18:47.306097 17209 net.cpp:434] conv5b_relu5b_0_split <- conv5b
I0417 04:18:47.306102 17209 net.cpp:408] conv5b_relu5b_0_split -> conv5b_relu5b_0_split_0
I0417 04:18:47.306108 17209 net.cpp:408] conv5b_relu5b_0_split -> conv5b_relu5b_0_split_1
I0417 04:18:47.306154 17209 net.cpp:150] Setting up conv5b_relu5b_0_split
I0417 04:18:47.306162 17209 net.cpp:157] Top shape: 1 512 96 7 7 (2408448)
I0417 04:18:47.306166 17209 net.cpp:157] Top shape: 1 512 96 7 7 (2408448)
I0417 04:18:47.306169 17209 net.cpp:165] Memory required for data: 10163651772
I0417 04:18:47.306172 17209 layer_factory.hpp:77] Creating layer rpn_conv/3x3
I0417 04:18:47.306185 17209 net.cpp:100] Creating Layer rpn_conv/3x3
I0417 04:18:47.306192 17209 net.cpp:434] rpn_conv/3x3 <- conv5b_relu5b_0_split_0
I0417 04:18:47.306205 17209 net.cpp:408] rpn_conv/3x3 -> rpn/output
I0417 04:18:47.493655 17209 net.cpp:150] Setting up rpn_conv/3x3
I0417 04:18:47.493681 17209 net.cpp:157] Top shape: 1 512 96 4 4 (786432)
I0417 04:18:47.493686 17209 net.cpp:165] Memory required for data: 10166797500
I0417 04:18:47.493717 17209 layer_factory.hpp:77] Creating layer rpn_relu/3x3
I0417 04:18:47.493732 17209 net.cpp:100] Creating Layer rpn_relu/3x3
I0417 04:18:47.493739 17209 net.cpp:434] rpn_relu/3x3 <- rpn/output
I0417 04:18:47.493749 17209 net.cpp:395] rpn_relu/3x3 -> rpn/output (in-place)
I0417 04:18:47.493767 17209 net.cpp:150] Setting up rpn_relu/3x3
I0417 04:18:47.493774 17209 net.cpp:157] Top shape: 1 512 96 4 4 (786432)
I0417 04:18:47.493780 17209 net.cpp:165] Memory required for data: 10169943228
I0417 04:18:47.493785 17209 layer_factory.hpp:77] Creating layer rpn_conv/3x3_2
I0417 04:18:47.493805 17209 net.cpp:100] Creating Layer rpn_conv/3x3_2
I0417 04:18:47.493813 17209 net.cpp:434] rpn_conv/3x3_2 <- rpn/output
I0417 04:18:47.493824 17209 net.cpp:408] rpn_conv/3x3_2 -> rpn/output_2
I0417 04:18:47.680761 17209 net.cpp:150] Setting up rpn_conv/3x3_2
I0417 04:18:47.680788 17209 net.cpp:157] Top shape: 1 512 96 2 2 (196608)
I0417 04:18:47.680794 17209 net.cpp:165] Memory required for data: 10170729660
I0417 04:18:47.680805 17209 layer_factory.hpp:77] Creating layer rpn_relu/3x3_2
I0417 04:18:47.680819 17209 net.cpp:100] Creating Layer rpn_relu/3x3_2
I0417 04:18:47.680826 17209 net.cpp:434] rpn_relu/3x3_2 <- rpn/output_2
I0417 04:18:47.680838 17209 net.cpp:395] rpn_relu/3x3_2 -> rpn/output_2 (in-place)
I0417 04:18:47.680857 17209 net.cpp:150] Setting up rpn_relu/3x3_2
I0417 04:18:47.680867 17209 net.cpp:157] Top shape: 1 512 96 2 2 (196608)
I0417 04:18:47.680873 17209 net.cpp:165] Memory required for data: 10171516092
I0417 04:18:47.680878 17209 layer_factory.hpp:77] Creating layer rpn/output_pool
I0417 04:18:47.680888 17209 net.cpp:100] Creating Layer rpn/output_pool
I0417 04:18:47.680902 17209 net.cpp:434] rpn/output_pool <- rpn/output_2
I0417 04:18:47.680912 17209 net.cpp:408] rpn/output_pool -> rpn/output_pool
I0417 04:18:47.680974 17209 net.cpp:150] Setting up rpn/output_pool
I0417 04:18:47.680984 17209 net.cpp:157] Top shape: 1 512 96 1 1 (49152)
I0417 04:18:47.680989 17209 net.cpp:165] Memory required for data: 10171712700
I0417 04:18:47.680996 17209 layer_factory.hpp:77] Creating layer rpn/output_pool_rpn/output_pool_0_split
I0417 04:18:47.681005 17209 net.cpp:100] Creating Layer rpn/output_pool_rpn/output_pool_0_split
I0417 04:18:47.681012 17209 net.cpp:434] rpn/output_pool_rpn/output_pool_0_split <- rpn/output_pool
I0417 04:18:47.681021 17209 net.cpp:408] rpn/output_pool_rpn/output_pool_0_split -> rpn/output_pool_rpn/output_pool_0_split_0
I0417 04:18:47.681031 17209 net.cpp:408] rpn/output_pool_rpn/output_pool_0_split -> rpn/output_pool_rpn/output_pool_0_split_1
I0417 04:18:47.681083 17209 net.cpp:150] Setting up rpn/output_pool_rpn/output_pool_0_split
I0417 04:18:47.681097 17209 net.cpp:157] Top shape: 1 512 96 1 1 (49152)
I0417 04:18:47.681104 17209 net.cpp:157] Top shape: 1 512 96 1 1 (49152)
I0417 04:18:47.681110 17209 net.cpp:165] Memory required for data: 10172105916
I0417 04:18:47.681115 17209 layer_factory.hpp:77] Creating layer rpn_cls_score
I0417 04:18:47.681133 17209 net.cpp:100] Creating Layer rpn_cls_score
I0417 04:18:47.681138 17209 net.cpp:434] rpn_cls_score <- rpn/output_pool_rpn/output_pool_0_split_0
I0417 04:18:47.681151 17209 net.cpp:408] rpn_cls_score -> rpn_cls_score
I0417 04:18:47.682467 17209 net.cpp:150] Setting up rpn_cls_score
I0417 04:18:47.682484 17209 net.cpp:157] Top shape: 1 74 96 1 1 (7104)
I0417 04:18:47.682492 17209 net.cpp:165] Memory required for data: 10172134332
I0417 04:18:47.682502 17209 layer_factory.hpp:77] Creating layer rpn_cls_score_rpn_cls_score_0_split
I0417 04:18:47.682512 17209 net.cpp:100] Creating Layer rpn_cls_score_rpn_cls_score_0_split
I0417 04:18:47.682523 17209 net.cpp:434] rpn_cls_score_rpn_cls_score_0_split <- rpn_cls_score
I0417 04:18:47.682533 17209 net.cpp:408] rpn_cls_score_rpn_cls_score_0_split -> rpn_cls_score_rpn_cls_score_0_split_0
I0417 04:18:47.682543 17209 net.cpp:408] rpn_cls_score_rpn_cls_score_0_split -> rpn_cls_score_rpn_cls_score_0_split_1
I0417 04:18:47.682623 17209 net.cpp:150] Setting up rpn_cls_score_rpn_cls_score_0_split
I0417 04:18:47.682634 17209 net.cpp:157] Top shape: 1 74 96 1 1 (7104)
I0417 04:18:47.682641 17209 net.cpp:157] Top shape: 1 74 96 1 1 (7104)
I0417 04:18:47.682644 17209 net.cpp:165] Memory required for data: 10172191164
I0417 04:18:47.682647 17209 layer_factory.hpp:77] Creating layer rpn_twin_pred
I0417 04:18:47.682662 17209 net.cpp:100] Creating Layer rpn_twin_pred
I0417 04:18:47.682667 17209 net.cpp:434] rpn_twin_pred <- rpn/output_pool_rpn/output_pool_0_split_1
I0417 04:18:47.682673 17209 net.cpp:408] rpn_twin_pred -> rpn_twin_pred
I0417 04:18:47.683905 17209 net.cpp:150] Setting up rpn_twin_pred
I0417 04:18:47.683915 17209 net.cpp:157] Top shape: 1 74 96 1 1 (7104)
I0417 04:18:47.683931 17209 net.cpp:165] Memory required for data: 10172219580
I0417 04:18:47.683936 17209 layer_factory.hpp:77] Creating layer rpn_twin_pred_rpn_twin_pred_0_split
I0417 04:18:47.683943 17209 net.cpp:100] Creating Layer rpn_twin_pred_rpn_twin_pred_0_split
I0417 04:18:47.683945 17209 net.cpp:434] rpn_twin_pred_rpn_twin_pred_0_split <- rpn_twin_pred
I0417 04:18:47.683956 17209 net.cpp:408] rpn_twin_pred_rpn_twin_pred_0_split -> rpn_twin_pred_rpn_twin_pred_0_split_0
I0417 04:18:47.683962 17209 net.cpp:408] rpn_twin_pred_rpn_twin_pred_0_split -> rpn_twin_pred_rpn_twin_pred_0_split_1
I0417 04:18:47.684005 17209 net.cpp:150] Setting up rpn_twin_pred_rpn_twin_pred_0_split
I0417 04:18:47.684012 17209 net.cpp:157] Top shape: 1 74 96 1 1 (7104)
I0417 04:18:47.684016 17209 net.cpp:157] Top shape: 1 74 96 1 1 (7104)
I0417 04:18:47.684020 17209 net.cpp:165] Memory required for data: 10172276412
I0417 04:18:47.684022 17209 layer_factory.hpp:77] Creating layer rpn_cls_score_reshape
I0417 04:18:47.684036 17209 net.cpp:100] Creating Layer rpn_cls_score_reshape
I0417 04:18:47.684041 17209 net.cpp:434] rpn_cls_score_reshape <- rpn_cls_score_rpn_cls_score_0_split_0
I0417 04:18:47.684046 17209 net.cpp:408] rpn_cls_score_reshape -> rpn_cls_score_reshape
I0417 04:18:47.684078 17209 net.cpp:150] Setting up rpn_cls_score_reshape
I0417 04:18:47.684087 17209 net.cpp:157] Top shape: 1 2 3552 1 1 (7104)
I0417 04:18:47.684089 17209 net.cpp:165] Memory required for data: 10172304828
I0417 04:18:47.684092 17209 layer_factory.hpp:77] Creating layer rpn_cls_score_reshape_rpn_cls_score_reshape_0_split
I0417 04:18:47.684098 17209 net.cpp:100] Creating Layer rpn_cls_score_reshape_rpn_cls_score_reshape_0_split
I0417 04:18:47.684101 17209 net.cpp:434] rpn_cls_score_reshape_rpn_cls_score_reshape_0_split <- rpn_cls_score_reshape
I0417 04:18:47.684109 17209 net.cpp:408] rpn_cls_score_reshape_rpn_cls_score_reshape_0_split -> rpn_cls_score_reshape_rpn_cls_score_reshape_0_split_0
I0417 04:18:47.684118 17209 net.cpp:408] rpn_cls_score_reshape_rpn_cls_score_reshape_0_split -> rpn_cls_score_reshape_rpn_cls_score_reshape_0_split_1
I0417 04:18:47.684123 17209 net.cpp:408] rpn_cls_score_reshape_rpn_cls_score_reshape_0_split -> rpn_cls_score_reshape_rpn_cls_score_reshape_0_split_2
I0417 04:18:47.684175 17209 net.cpp:150] Setting up rpn_cls_score_reshape_rpn_cls_score_reshape_0_split
I0417 04:18:47.684182 17209 net.cpp:157] Top shape: 1 2 3552 1 1 (7104)
I0417 04:18:47.684186 17209 net.cpp:157] Top shape: 1 2 3552 1 1 (7104)
I0417 04:18:47.684190 17209 net.cpp:157] Top shape: 1 2 3552 1 1 (7104)
I0417 04:18:47.684193 17209 net.cpp:165] Memory required for data: 10172390076
I0417 04:18:47.684196 17209 layer_factory.hpp:77] Creating layer rpn-data
I0417 04:18:47.684594 17209 net.cpp:100] Creating Layer rpn-data
I0417 04:18:47.684607 17209 net.cpp:434] rpn-data <- rpn_cls_score_rpn_cls_score_0_split_1
I0417 04:18:47.684612 17209 net.cpp:434] rpn-data <- gt_boxes_data_1_split_0
I0417 04:18:47.684617 17209 net.cpp:434] rpn-data <- data_data_0_split_1
I0417 04:18:47.684623 17209 net.cpp:408] rpn-data -> rpn_labels
I0417 04:18:47.684631 17209 net.cpp:408] rpn-data -> rpn_twin_targets
I0417 04:18:47.684638 17209 net.cpp:408] rpn-data -> rpn_twin_inside_weights
I0417 04:18:47.684644 17209 net.cpp:408] rpn-data -> rpn_twin_outside_weights
I0417 04:18:47.686935 17209 net.cpp:150] Setting up rpn-data
I0417 04:18:47.686950 17209 net.cpp:157] Top shape: 1 1 3552 1 1 (3552)
I0417 04:18:47.686955 17209 net.cpp:157] Top shape: 1 74 96 1 1 (7104)
I0417 04:18:47.686959 17209 net.cpp:157] Top shape: 1 74 96 1 1 (7104)
I0417 04:18:47.686962 17209 net.cpp:157] Top shape: 1 74 96 1 1 (7104)
I0417 04:18:47.686965 17209 net.cpp:165] Memory required for data: 10172489532
I0417 04:18:47.686969 17209 layer_factory.hpp:77] Creating layer rpn_labels_rpn-data_0_split
I0417 04:18:47.686975 17209 net.cpp:100] Creating Layer rpn_labels_rpn-data_0_split
I0417 04:18:47.686978 17209 net.cpp:434] rpn_labels_rpn-data_0_split <- rpn_labels
I0417 04:18:47.686985 17209 net.cpp:408] rpn_labels_rpn-data_0_split -> rpn_labels_rpn-data_0_split_0
I0417 04:18:47.686991 17209 net.cpp:408] rpn_labels_rpn-data_0_split -> rpn_labels_rpn-data_0_split_1
I0417 04:18:47.687031 17209 net.cpp:150] Setting up rpn_labels_rpn-data_0_split
I0417 04:18:47.687038 17209 net.cpp:157] Top shape: 1 1 3552 1 1 (3552)
I0417 04:18:47.687042 17209 net.cpp:157] Top shape: 1 1 3552 1 1 (3552)
I0417 04:18:47.687045 17209 net.cpp:165] Memory required for data: 10172517948
I0417 04:18:47.687049 17209 layer_factory.hpp:77] Creating layer rpn_loss_cls
I0417 04:18:47.687060 17209 net.cpp:100] Creating Layer rpn_loss_cls
I0417 04:18:47.687067 17209 net.cpp:434] rpn_loss_cls <- rpn_cls_score_reshape_rpn_cls_score_reshape_0_split_0
I0417 04:18:47.687072 17209 net.cpp:434] rpn_loss_cls <- rpn_labels_rpn-data_0_split_0
…
I0417 04:18:47.687384 17209 layer_factory.hpp:77] Creating layer rpn_accuarcy
I0417 04:18:47.687391 17209 net.cpp:100] Creating Layer rpn_accuarcy
I0417 04:18:47.687397 17209 net.cpp:434] rpn_accuarcy <- rpn_cls_score_reshape_rpn_cls_score_reshape_0_split_1
I0417 04:18:47.687402 17209 net.cpp:434] rpn_accuarcy <- rpn_labels_rpn-data_0_split_1
I0417 04:18:47.687409 17209 net.cpp:408] rpn_accuarcy -> rpn_accuarcy
I0417 04:18:47.687415 17209 net.cpp:408] rpn_accuarcy -> rpn_accuarcy_class
I0417 04:18:47.687461 17209 net.cpp:150] Setting up rpn_accuarcy
I0417 04:18:47.687469 17209 net.cpp:157] Top shape: (1)
I0417 04:18:47.687474 17209 net.cpp:157] Top shape: 2 (2)
I0417 04:18:47.687477 17209 net.cpp:165] Memory required for data: 10172517968
I0417 04:18:47.687480 17209 layer_factory.hpp:77] Creating layer rpn_cls_prob
I0417 04:18:47.687485 17209 net.cpp:100] Creating Layer rpn_cls_prob
I0417 04:18:47.687489 17209 net.cpp:434] rpn_cls_prob <- rpn_cls_score_reshape_rpn_cls_score_reshape_0_split_2
I0417 04:18:47.687495 17209 net.cpp:408] rpn_cls_prob -> rpn_cls_prob
I0417 04:18:47.687566 17209 net.cpp:150] Setting up rpn_cls_prob
I0417 04:18:47.687574 17209 net.cpp:157] Top shape: 1 2 3552 1 1 (7104)
I0417 04:18:47.687577 17209 net.cpp:165] Memory required for data: 10172546384
I0417 04:18:47.687582 17209 layer_factory.hpp:77] Creating layer rpn_cls_prob_reshape
I0417 04:18:47.687588 17209 net.cpp:100] Creating Layer rpn_cls_prob_reshape
I0417 04:18:47.687592 17209 net.cpp:434] rpn_cls_prob_reshape <- rpn_cls_prob
I0417 04:18:47.687597 17209 net.cpp:408] rpn_cls_prob_reshape -> rpn_cls_prob_reshape
I0417 04:18:47.687625 17209 net.cpp:150] Setting up rpn_cls_prob_reshape
I0417 04:18:47.687634 17209 net.cpp:157] Top shape: 1 74 96 1 1 (7104)
I0417 04:18:47.687638 17209 net.cpp:165] Memory required for data: 10172574800
I0417 04:18:47.687640 17209 layer_factory.hpp:77] Creating layer proposal
I0417 04:18:47.688186 17209 net.cpp:100] Creating Layer proposal
I0417 04:18:47.688199 17209 net.cpp:434] proposal <- rpn_cls_prob_reshape
I0417 04:18:47.688206 17209 net.cpp:434] proposal <- rpn_twin_pred_rpn_twin_pred_0_split_1
I0417 04:18:47.688211 17209 net.cpp:408] proposal -> rpn_rois
I0417 04:18:47.690434 17209 net.cpp:150] Setting up proposal
I0417 04:18:47.690448 17209 net.cpp:157] Top shape: 1 3 (3)
I0417 04:18:47.690452 17209 net.cpp:165] Memory required for data: 10172574812
I0417 04:18:47.690456 17209 layer_factory.hpp:77] Creating layer roi-data
I0417 04:18:47.690598 17209 net.cpp:100] Creating Layer roi-data
I0417 04:18:47.690611 17209 net.cpp:434] roi-data <- rpn_rois
I0417 04:18:47.690616 17209 net.cpp:434] roi-data <- gt_boxes_data_1_split_1
I0417 04:18:47.690623 17209 net.cpp:408] roi-data -> rois
I0417 04:18:47.690629 17209 net.cpp:408] roi-data -> labels
I0417 04:18:47.690639 17209 net.cpp:408] roi-data -> twin_targets
I0417 04:18:47.690645 17209 net.cpp:408] roi-data -> twin_inside_weights
I0417 04:18:47.690650 17209 net.cpp:408] roi-data -> twin_outside_weights
I0417 04:18:47.691015 17209 net.cpp:150] Setting up roi-data
I0417 04:18:47.691030 17209 net.cpp:157] Top shape: 1 3 (3)
I0417 04:18:47.691033 17209 net.cpp:157] Top shape: 1 1 (1)
I0417 04:18:47.691037 17209 net.cpp:157] Top shape: 1 402 (402)
I0417 04:18:47.691041 17209 net.cpp:157] Top shape: 1 402 (402)
I0417 04:18:47.691045 17209 net.cpp:157] Top shape: 1 402 (402)
I0417 04:18:47.691047 17209 net.cpp:165] Memory required for data: 10172579652
I0417 04:18:47.691051 17209 layer_factory.hpp:77] Creating layer labels_roi-data_1_split
I0417 04:18:47.691056 17209 net.cpp:100] Creating Layer labels_roi-data_1_split
I0417 04:18:47.691061 17209 net.cpp:434] labels_roi-data_1_split <- labels
I0417 04:18:47.691066 17209 net.cpp:408] labels_roi-data_1_split -> labels_roi-data_1_split_0
I0417 04:18:47.691072 17209 net.cpp:408] labels_roi-data_1_split -> labels_roi-data_1_split_1
I0417 04:18:47.691114 17209 net.cpp:150] Setting up labels_roi-data_1_split
I0417 04:18:47.691123 17209 net.cpp:157] Top shape: 1 1 (1)
I0417 04:18:47.691126 17209 net.cpp:157] Top shape: 1 1 (1)
I0417 04:18:47.691133 17209 net.cpp:165] Memory required for data: 10172579660
I0417 04:18:47.691135 17209 layer_factory.hpp:77] Creating layer roi_pool5
I0417 04:18:47.691143 17209 net.cpp:100] Creating Layer roi_pool5
I0417 04:18:47.691150 17209 net.cpp:434] roi_pool5 <- conv5b_relu5b_0_split_1
I0417 04:18:47.691155 17209 net.cpp:434] roi_pool5 <- rois
I0417 04:18:47.691160 17209 net.cpp:408] roi_pool5 -> pool5
I0417 04:18:47.691167 17209 roi_pooling_layer.cpp:34] Temporal scale: 0.125
I0417 04:18:47.691174 17209 roi_pooling_layer.cpp:35] Spatial scale: 0.0625
I0417 04:18:47.691217 17209 net.cpp:150] Setting up roi_pool5
I0417 04:18:47.691226 17209 net.cpp:157] Top shape: 1 512 1 4 4 (8192)
I0417 04:18:47.691231 17209 net.cpp:165] Memory required for data: 10172612428
I0417 04:18:47.691234 17209 layer_factory.hpp:77] Creating layer fc6
I0417 04:18:47.691242 17209 net.cpp:100] Creating Layer fc6
I0417 04:18:47.691247 17209 net.cpp:434] fc6 <- pool5
I0417 04:18:47.691252 17209 net.cpp:408] fc6 -> fc6
I0417 04:18:48.574471 17209 net.cpp:150] Setting up fc6
I0417 04:18:48.574502 17209 net.cpp:157] Top shape: 1 4096 (4096)
I0417 04:18:48.574506 17209 net.cpp:165] Memory required for data: 10172628812
I0417 04:18:48.574517 17209 layer_factory.hpp:77] Creating layer relu6
I0417 04:18:48.574525 17209 net.cpp:100] Creating Layer relu6
I0417 04:18:48.574530 17209 net.cpp:434] relu6 <- fc6
I0417 04:18:48.574538 17209 net.cpp:395] relu6 -> fc6 (in-place)
I0417 04:18:48.574548 17209 net.cpp:150] Setting up relu6
I0417 04:18:48.574551 17209 net.cpp:157] Top shape: 1 4096 (4096)
I0417 04:18:48.574554 17209 net.cpp:165] Memory required for data: 10172645196
I0417 04:18:48.574558 17209 layer_factory.hpp:77] Creating layer drop6
I0417 04:18:48.574569 17209 net.cpp:100] Creating Layer drop6
I0417 04:18:48.574573 17209 net.cpp:434] drop6 <- fc6
I0417 04:18:48.574578 17209 net.cpp:395] drop6 -> fc6 (in-place)
I0417 04:18:48.574606 17209 net.cpp:150] Setting up drop6
I0417 04:18:48.574615 17209 net.cpp:157] Top shape: 1 4096 (4096)
I0417 04:18:48.574618 17209 net.cpp:165] Memory required for data: 10172661580
I0417 04:18:48.574621 17209 layer_factory.hpp:77] Creating layer fc6_drop6_0_split
I0417 04:18:48.574627 17209 net.cpp:100] Creating Layer fc6_drop6_0_split
I0417 04:18:48.574630 17209 net.cpp:434] fc6_drop6_0_split <- fc6
I0417 04:18:48.574635 17209 net.cpp:408] fc6_drop6_0_split -> fc6_drop6_0_split_0
I0417 04:18:48.574642 17209 net.cpp:408] fc6_drop6_0_split -> fc6_drop6_0_split_1
I0417 04:18:48.574685 17209 net.cpp:150] Setting up fc6_drop6_0_split
I0417 04:18:48.574697 17209 net.cpp:157] Top shape: 1 4096 (4096)
I0417 04:18:48.574700 17209 net.cpp:157] Top shape: 1 4096 (4096)
I0417 04:18:48.574703 17209 net.cpp:165] Memory required for data: 10172694348
I0417 04:18:48.574707 17209 layer_factory.hpp:77] Creating layer cls_score
I0417 04:18:48.574713 17209 net.cpp:100] Creating Layer cls_score
I0417 04:18:48.574717 17209 net.cpp:434] cls_score <- fc6_drop6_0_split_0
I0417 04:18:48.574723 17209 net.cpp:408] cls_score -> cls_score
I0417 04:18:48.596439 17209 net.cpp:150] Setting up cls_score
I0417 04:18:48.596453 17209 net.cpp:157] Top shape: 1 201 (201)
I0417 04:18:48.596457 17209 net.cpp:165] Memory required for data: 10172695152
I0417 04:18:48.596464 17209 layer_factory.hpp:77] Creating layer cls_score_cls_score_0_split
I0417 04:18:48.596470 17209 net.cpp:100] Creating Layer cls_score_cls_score_0_split
I0417 04:18:48.596473 17209 net.cpp:434] cls_score_cls_score_0_split <- cls_score
I0417 04:18:48.596479 17209 net.cpp:408] cls_score_cls_score_0_split -> cls_score_cls_score_0_split_0
I0417 04:18:48.596487 17209 net.cpp:408] cls_score_cls_score_0_split -> cls_score_cls_score_0_split_1
I0417 04:18:48.596526 17209 net.cpp:150] Setting up cls_score_cls_score_0_split
I0417 04:18:48.596534 17209 net.cpp:157] Top shape: 1 201 (201)
I0417 04:18:48.596539 17209 net.cpp:157] Top shape: 1 201 (201)
I0417 04:18:48.596541 17209 net.cpp:165] Memory required for data: 10172696760
I0417 04:18:48.596544 17209 layer_factory.hpp:77] Creating layer twin_pred
I0417 04:18:48.596550 17209 net.cpp:100] Creating Layer twin_pred
I0417 04:18:48.596554 17209 net.cpp:434] twin_pred <- fc6_drop6_0_split_1
I0417 04:18:48.596561 17209 net.cpp:408] twin_pred -> twin_pred
I0417 04:18:48.640111 17209 net.cpp:150] Setting up twin_pred
I0417 04:18:48.640137 17209 net.cpp:157] Top shape: 1 402 (402)
I0417 04:18:48.640141 17209 net.cpp:165] Memory required for data: 10172698368
I0417 04:18:48.640151 17209 layer_factory.hpp:77] Creating layer loss_cls
I0417 04:18:48.640161 17209 net.cpp:100] Creating Layer loss_cls
I0417 04:18:48.640166 17209 net.cpp:434] loss_cls <- cls_score_cls_score_0_split_0
I0417 04:18:48.640173 17209 net.cpp:434] loss_cls <- labels_roi-data_1_split_0
I0417 04:18:48.640179 17209 net.cpp:408] loss_cls -> loss_cls
…
