…
stepsize: 350000
snapshot: 0
snapshot_prefix: "./experiments/activitynet/snapshot/activitynet"
average_loss: 100
iter_size: 1
I0416 10:49:12.996675 16934 solver.cpp:81] Creating training net from train_net file: ./experiments/activitynet/train.prototxt
I0416 10:49:12.997226 16934 net.cpp:58] Initializing net from parameters: 
name: "activitynet"
state {
  phase: TRAIN
}
layer {
  name: "data"
  type: "Python"
  top: "data"
  top: "gt_boxes"
  python_param {
    module: "roi_data_layer.layer"
    layer: "RoIDataLayer"
    param_str: "\'num_classes\': 100"
  }
}
layer {
  name: "conv1a"
  type: "Convolution"
  bottom: "data"
  top: "conv1a"
  param {
    lr_mult: 0
    decay_mult: 0
  }
  param {
    lr_mult: 0
    decay_mult: 0
  }
  convolution_param {
    num_output: 64
    pad: 1
    pad: 1
    pad: 1
    kernel_size: 3
    kernel_size: 3
    kernel_size: 3
    weight_filler {
      type: "gaussian"
      std: 0.01
    }
    bias_filler {
      type: "constant"
      value: 0
    }
  }
}
layer {
  name: "relu1a"
  type: "ReLU"
  bottom: "conv1a"
  top: "conv1a"
}
layer {
  name: "pool1"
  type: "Pooling"
  bottom: "conv1a"
  top: "pool1"
  pooling_param {
    pool: MAX
    kernel_size: 1
    kernel_size: 2
    kernel_size: 2
    stride: 1
    stride: 2
    stride: 2
  }
}
layer {
  name: "conv2a"
  type: "Convolution"
  bottom: "pool1"
  top: "conv2a"
  param {
    lr_mult: 0
    decay_mult: 0
  }
  param {
    lr_mult: 0
    decay_mult: 0
  }
  convolution_param {
    num_output: 128
    pad: 1
    pad: 1
    pad: 1
    kernel_size: 3
    kernel_size: 3
    kernel_size: 3
    weight_filler {
      type: "gaussian"
      std: 0.01
    }
    bias_filler {
      type: "constant"
      value: 1
    }
  }
}
layer {
  name: "relu2a"
  type: "ReLU"
  bottom: "conv2a"
  top: "conv2a"
}
layer {
  name: "pool2"
  type: "Pooling"
  bottom: "conv2a"
  top: "pool2"
  pooling_param {
    pool: MAX
    kernel_size: 2
    kernel_size: 2
    kernel_size: 2
    stride: 2
    stride: 2
    stride: 2
  }
}
layer {
  name: "conv3a"
  type: "Convolution"
  bottom: "pool2"
  top: "conv3a"
  param {
    lr_mult: 1
    decay_mult: 1
  }
  param {
    lr_mult: 2
    decay_mult: 0
  }
  convolution_param {
    num_output: 256
    pad: 1
    pad: 1
    pad: 1
    kernel_size: 3
    kernel_size: 3
    kernel_size: 3
    weight_filler {
      type: "gaussian"
      std: 0.01
    }
    bias_filler {
      type: "constant"
      value: 1
    }
  }
}
layer {
  name: "relu3a"
  type: "ReLU"
  bottom: "conv3a"
  top: "conv3a"
}
layer {
  name: "conv3b"
  type: "Convolution"
  bottom: "conv3a"
  top: "conv3b"
  param {
    lr_mult: 1
    decay_mult: 1
  }
  param {
    lr_mult: 2
    decay_mult: 0
  }
  convolution_param {
    num_output: 256
    pad: 1
    pad: 1
    pad: 1
    kernel_size: 3
    kernel_size: 3
    kernel_size: 3
    weight_filler {
      type: "gaussian"
      std: 0.01
    }
    bias_filler {
      type: "constant"
      value: 1
    }
  }
}
layer {
  name: "relu3b"
  type: "ReLU"
  bottom: "conv3b"
  top: "conv3b"
}
layer {
  name: "pool3"
  type: "Pooling"
  bottom: "conv3b"
  top: "pool3"
  pooling_param {
    pool: MAX
    kernel_size: 2
    kernel_size: 2
    kernel_size: 2
    stride: 2
    stride: 2
    stride: 2
  }
}
layer {
  name: "conv4a"
  type: "Convolution"
  bottom: "pool3"
  top: "conv4a"
  param {
    lr_mult: 1
    decay_mult: 1
  }
  param {
    lr_mult: 2
    decay_mult: 0
  }
  convolution_param {
    num_output: 512
    pad: 1
    pad: 1
    pad: 1
    kernel_size: 3
    kernel_size: 3
    kernel_size: 3
    weight_filler {
      type: "gaussian"
      std: 0.01
    }
    bias_filler {
      type: "constant"
      value: 1
    }
  }
}
layer {
  name: "relu4a"
  type: "ReLU"
  bottom: "conv4a"
  top: "conv4a"
}
layer {
  name: "conv4b"
  type: "Convolution"
  bottom: "conv4a"
  top: "conv4b"
  param {
    lr_mult: 1
    decay_mult: 1
  }
  param {
    lr_mult: 2
    decay_mult: 0
  }
  convolution_param {
    num_output: 512
    pad: 1
    pad: 1
    pad: 1
    kernel_size: 3
    kernel_size: 3
    kernel_size: 3
    weight_filler {
      type: "gaussian"
      std: 0.01
    }
    bias_filler {
      type: "constant"
      value: 1
    }
  }
}
layer {
  name: "relu4b"
  type: "ReLU"
  bottom: "conv4b"
  top: "conv4b"
}
layer {
  name: "pool4"
  type: "Pooling"
  bottom: "conv4b"
  top: "pool4"
  pooling_param {
    pool: MAX
    kernel_size: 2
    kernel_size: 2
    kernel_size: 2
    stride: 2
    stride: 2
    stride: 2
  }
}
layer {
  name: "conv5a"
  type: "Convolution"
  bottom: "pool4"
  top: "conv5a"
  param {
    lr_mult: 1
    decay_mult: 1
  }
  param {
    lr_mult: 2
    decay_mult: 0
  }
  convolution_param {
    num_output: 512
    pad: 1
    pad: 1
    pad: 1
    kernel_size: 3
    kernel_size: 3
    kernel_size: 3
    weight_filler {
      type: "gaussian"
      std: 0.01
    }
    bias_filler {
      type: "constant"
      value: 1
    }
  }
}
layer {
  name: "relu5a"
  type: "ReLU"
  bottom: "conv5a"
  top: "conv5a"
}
layer {
  name: "conv5b"
  type: "Convolution"
  bottom: "conv5a"
  top: "conv5b"
  param {
    lr_mult: 1
    decay_mult: 1
  }
  param {
    lr_mult: 2
    decay_mult: 0
  }
  convolution_param {
    num_output: 512
    pad: 1
    pad: 1
    pad: 1
    kernel_size: 3
    kernel_size: 3
    kernel_size: 3
    weight_filler {
      type: "gaussian"
      std: 0.01
    }
    bias_filler {
      type: "constant"
      value: 1
    }
  }
}
layer {
  name: "relu5b"
  type: "ReLU"
  bottom: "conv5b"
  top: "conv5b"
}
layer {
  name: "rpn_conv/3x3"
  type: "Convolution"
  bottom: "conv5b"
  top: "rpn/output"
  param {
    lr_mult: 1
    decay_mult: 1
  }
  param {
    lr_mult: 2
    decay_mult: 0
  }
  convolution_param {
    num_output: 512
    pad: 1
    pad: 1
    pad: 1
    kernel_size: 3
    kernel_size: 3
    kernel_size: 3
    stride: 1
    stride: 2
    stride: 2
    weight_filler {
      type: "gaussian"
      std: 0.01
    }
    bias_filler {
      type: "constant"
      value: 0
    }
  }
}
layer {
  name: "rpn_relu/3x3"
  type: "ReLU"
  bottom: "rpn/output"
  top: "rpn/output"
}
layer {
  name: "rpn_conv/3x3_2"
  type: "Convolution"
  bottom: "rpn/output"
  top: "rpn/output_2"
  param {
    lr_mult: 1
    decay_mult: 1
  }
  param {
    lr_mult: 2
    decay_mult: 0
  }
  convolution_param {
    num_output: 512
    pad: 1
    pad: 1
    pad: 1
    kernel_size: 3
    kernel_size: 3
    kernel_size: 3
    stride: 1
    stride: 2
    stride: 2
    weight_filler {
      type: "gaussian"
      std: 0.01
    }
    bias_filler {
      type: "constant"
      value: 0
    }
  }
}
layer {
  name: "rpn_relu/3x3_2"
  type: "ReLU"
  bottom: "rpn/output_2"
  top: "rpn/output_2"
}
layer {
  name: "rpn/output_pool"
  type: "Pooling"
  bottom: "rpn/output_2"
  top: "rpn/output_pool"
  pooling_param {
    pool: MAX
    kernel_size: 1
    kernel_size: 2
    kernel_size: 2
  }
}
layer {
  name: "rpn_cls_score"
  type: "Convolution"
  bottom: "rpn/output_pool"
  top: "rpn_cls_score"
  param {
    lr_mult: 1
    decay_mult: 1
  }
  param {
    lr_mult: 2
    decay_mult: 0
  }
  convolution_param {
    num_output: 74
    kernel_size: 1
    kernel_size: 1
    kernel_size: 1
    weight_filler {
      type: "gaussian"
      std: 0.01
    }
    bias_filler {
      type: "constant"
      value: 0
    }
  }
}
layer {
  name: "rpn_twin_pred"
  type: "Convolution"
  bottom: "rpn/output_pool"
  top: "rpn_twin_pred"
  param {
    lr_mult: 1
    decay_mult: 1
  }
  param {
    lr_mult: 2
    decay_mult: 0
  }
  convolution_param {
    num_output: 74
    kernel_size: 1
    kernel_size: 1
    kernel_size: 1
    weight_filler {
      type: "gaussian"
      std: 0.01
    }
    bias_filler {
      type: "constant"
      value: 0
    }
  }
}
layer {
  name: "rpn_cls_score_reshape"
  type: "Reshape"
  bottom: "rpn_cls_score"
  top: "rpn_cls_score_reshape"
  reshape_param {
    shape {
      dim: 0
      dim: 2
      dim: -1
      dim: 0
      dim: 0
    }
  }
}
layer {
  name: "rpn-data"
  type: "Python"
  bottom: "rpn_cls_score"
  bottom: "gt_boxes"
  bottom: "data"
  top: "rpn_labels"
  top: "rpn_twin_targets"
  top: "rpn_twin_inside_weights"
  top: "rpn_twin_outside_weights"
  python_param {
    module: "rpn.anchor_target_layer"
    layer: "AnchorTargetLayer"
    param_str: "\'feat_stride\': 8 \n\'scales\': !!python/tuple [1,1.25, 1.5,1.75, 2,2.5, 3,3.5, 4,4.5, 5,5.5, 6,7, 8,9,10,11,12,14,16,18,20,22,24,28,32,36,40,44,52,60,68,76,84,92,100]"
  }
}
layer {
  name: "rpn_loss_cls"
  type: "SoftmaxWithLoss"
  bottom: "rpn_cls_score_reshape"
  bottom: "rpn_labels"
  top: "rpn_cls_loss"
  loss_weight: 1
  propagate_down: true
  propagate_down: false
  loss_param {
    ignore_label: -1
    normalize: true
  }
}
layer {
  name: "rpn_loss_twin"
  type: "SmoothL1Loss"
  bottom: "rpn_twin_pred"
  bottom: "rpn_twin_targets"
  bottom: "rpn_twin_inside_weights"
  bottom: "rpn_twin_outside_weights"
  top: "rpn_loss_twin"
  loss_weight: 1
  smooth_l1_loss_param {
    sigma: 3
  }
}
layer {
  name: "rpn_accuarcy"
  type: "Accuracy"
  bottom: "rpn_cls_score_reshape"
  bottom: "rpn_labels"
  top: "rpn_accuarcy"
  top: "rpn_accuarcy_class"
  propagate_down: false
  propagate_down: false
  accuracy_param {
    ignore_label: -1
  }
}
layer {
  name: "rpn_cls_prob"
  type: "Softmax"
  bottom: "rpn_cls_score_reshape"
  top: "rpn_cls_prob"
}
layer {
  name: "rpn_cls_prob_reshape"
  type: "Reshape"
  bottom: "rpn_cls_prob"
  top: "rpn_cls_prob_reshape"
  reshape_param {
    shape {
      dim: 0
      dim: 74
      dim: -1
      dim: 0
      dim: 0
    }
  }
}
layer {
  name: "proposal"
  type: "Python"
  bottom: "rpn_cls_prob_reshape"
  bottom: "rpn_twin_pred"
  top: "rpn_rois"
  include {
    phase: TRAIN
  }
  python_param {
    module: "rpn.proposal_layer"
    layer: "ProposalLayer"
    param_str: "\'feat_stride\': 8 \n\'scales\': !!python/tuple [1,1.25, 1.5,1.75, 2,2.5, 3,3.5, 4,4.5, 5,5.5, 6,7, 8,9,10,11,12,14,16,18,20,22,24,28,32,36,40,44,52,60,68,76,84,92,100]"
  }
}
layer {
  name: "roi-data"
  type: "Python"
  bottom: "rpn_rois"
  bottom: "gt_boxes"
  top: "rois"
  top: "labels"
  top: "twin_targets"
  top: "twin_inside_weights"
  top: "twin_outside_weights"
  python_param {
    module: "rpn.proposal_target_layer"
    layer: "ProposalTargetLayer"
    param_str: "\'num_classes\': 201"
  }
}
layer {
  name: "roi_pool5"
  type: "ROIPooling"
  bottom: "conv5b"
  bottom: "rois"
  top: "pool5"
  roi_pooling_param {
    pooled_h: 4
    pooled_w: 4
    spatial_scale: 0.0625
    pooled_l: 1
    temporal_scale: 0.125
  }
}
layer {
  name: "fc6"
  type: "InnerProduct"
  bottom: "pool5"
  top: "fc6"
  param {
    lr_mult: 1
    decay_mult: 1
  }
  param {
    lr_mult: 2
    decay_mult: 0
  }
  inner_product_param {
    num_output: 4096
    weight_filler {
      type: "gaussian"
      std: 0.005
    }
    bias_filler {
      type: "constant"
      value: 1
    }
  }
}
layer {
  name: "relu6"
  type: "ReLU"
  bottom: "fc6"
  top: "fc6"
}
layer {
  name: "drop6"
  type: "Dropout"
  bottom: "fc6"
  top: "fc6"
  dropout_param {
    dropout_ratio: 0.5
  }
}
layer {
  name: "cls_score"
  type: "InnerProduct"
  bottom: "fc6"
  top: "cls_score"
  param {
    lr_mult: 1
    decay_mult: 1
  }
  param {
    lr_mult: 2
    decay_mult: 0
  }
  inner_product_param {
    num_output: 201
    weight_filler {
      type: "gaussian"
      std: 0.01
    }
    bias_filler {
      type: "constant"
      value: 0
    }
  }
}
layer {
  name: "twin_pred"
  type: "InnerProduct"
  bottom: "fc6"
  top: "twin_pred"
  param {
    lr_mult: 1
    decay_mult: 1
  }
  param {
    lr_mult: 2
    decay_mult: 0
  }
  inner_product_param {
    num_output: 402
    weight_filler {
      type: "gaussian"
      std: 0.001
    }
    bias_filler {
      type: "constant"
      value: 0
    }
  }
}
layer {
  name: "loss_cls"
  type: "SoftmaxWithLoss"
  bottom: "cls_score"
  bottom: "labels"
  top: "loss_cls"
  loss_weight: 1
  propagate_down: true
  propagate_down: false
}
layer {
  name: "loss_twin"
  type: "SmoothL1Loss"
  bottom: "twin_pred"
  bottom: "twin_targets"
  bottom: "twin_inside_weights"
  bottom: "twin_outside_weights"
  top: "loss_twin"
  loss_weight: 1
}
layer {
  name: "accuarcy"
  type: "Accuracy"
  bottom: "cls_score"
  bottom: "labels"
  top: "accuarcy"
  propagate_down: false
  propagate_down: false
  accuracy_param {
    ignore_label: -1
  }
}
I0416 10:49:12.997514 16934 layer_factory.hpp:77] Creating layer data
I0416 10:49:13.008890 16934 net.cpp:100] Creating Layer data
I0416 10:49:13.008914 16934 net.cpp:408] data -> data
I0416 10:49:13.008929 16934 net.cpp:408] data -> gt_boxes
RoiDataLayer: name_to_top: {'gt_windows': 1, 'data': 0}
I0416 10:49:13.017427 16934 net.cpp:150] Setting up data
I0416 10:49:13.017452 16934 net.cpp:157] Top shape: 1 3 768 112 112 (28901376)
I0416 10:49:13.017458 16934 net.cpp:157] Top shape: 1 3 (3)
I0416 10:49:13.017462 16934 net.cpp:165] Memory required for data: 115605516
I0416 10:49:13.017469 16934 layer_factory.hpp:77] Creating layer data_data_0_split
I0416 10:49:13.017485 16934 net.cpp:100] Creating Layer data_data_0_split
I0416 10:49:13.017490 16934 net.cpp:434] data_data_0_split <- data
I0416 10:49:13.017503 16934 net.cpp:408] data_data_0_split -> data_data_0_split_0
I0416 10:49:13.017515 16934 net.cpp:408] data_data_0_split -> data_data_0_split_1
I0416 10:49:13.017562 16934 net.cpp:150] Setting up data_data_0_split
I0416 10:49:13.017570 16934 net.cpp:157] Top shape: 1 3 768 112 112 (28901376)
I0416 10:49:13.017575 16934 net.cpp:157] Top shape: 1 3 768 112 112 (28901376)
I0416 10:49:13.017581 16934 net.cpp:165] Memory required for data: 346816524
I0416 10:49:13.017587 16934 layer_factory.hpp:77] Creating layer gt_boxes_data_1_split
I0416 10:49:13.017597 16934 net.cpp:100] Creating Layer gt_boxes_data_1_split
I0416 10:49:13.017601 16934 net.cpp:434] gt_boxes_data_1_split <- gt_boxes
I0416 10:49:13.017611 16934 net.cpp:408] gt_boxes_data_1_split -> gt_boxes_data_1_split_0
I0416 10:49:13.017621 16934 net.cpp:408] gt_boxes_data_1_split -> gt_boxes_data_1_split_1
I0416 10:49:13.017664 16934 net.cpp:150] Setting up gt_boxes_data_1_split
I0416 10:49:13.017670 16934 net.cpp:157] Top shape: 1 3 (3)
I0416 10:49:13.017675 16934 net.cpp:157] Top shape: 1 3 (3)
I0416 10:49:13.017678 16934 net.cpp:165] Memory required for data: 346816548
I0416 10:49:13.017683 16934 layer_factory.hpp:77] Creating layer conv1a
I0416 10:49:13.017699 16934 net.cpp:100] Creating Layer conv1a
I0416 10:49:13.017704 16934 net.cpp:434] conv1a <- data_data_0_split_0
I0416 10:49:13.017714 16934 net.cpp:408] conv1a -> conv1a
I0416 10:49:13.035218 16934 net.cpp:150] Setting up conv1a
I0416 10:49:13.035255 16934 net.cpp:157] Top shape: 1 64 768 112 112 (616562688)
I0416 10:49:13.035259 16934 net.cpp:165] Memory required for data: 2813067300
I0416 10:49:13.035279 16934 layer_factory.hpp:77] Creating layer relu1a
I0416 10:49:13.035297 16934 net.cpp:100] Creating Layer relu1a
I0416 10:49:13.035305 16934 net.cpp:434] relu1a <- conv1a
I0416 10:49:13.035313 16934 net.cpp:395] relu1a -> conv1a (in-place)
I0416 10:49:13.035326 16934 net.cpp:150] Setting up relu1a
I0416 10:49:13.035332 16934 net.cpp:157] Top shape: 1 64 768 112 112 (616562688)
I0416 10:49:13.035336 16934 net.cpp:165] Memory required for data: 5279318052
I0416 10:49:13.035341 16934 layer_factory.hpp:77] Creating layer pool1
I0416 10:49:13.035352 16934 net.cpp:100] Creating Layer pool1
I0416 10:49:13.035358 16934 net.cpp:434] pool1 <- conv1a
I0416 10:49:13.035365 16934 net.cpp:408] pool1 -> pool1
I0416 10:49:13.035465 16934 net.cpp:150] Setting up pool1
I0416 10:49:13.035471 16934 net.cpp:157] Top shape: 1 64 768 56 56 (154140672)
I0416 10:49:13.035475 16934 net.cpp:165] Memory required for data: 5895880740
I0416 10:49:13.035480 16934 layer_factory.hpp:77] Creating layer conv2a
I0416 10:49:13.035493 16934 net.cpp:100] Creating Layer conv2a
I0416 10:49:13.035498 16934 net.cpp:434] conv2a <- pool1
I0416 10:49:13.035507 16934 net.cpp:408] conv2a -> conv2a
I0416 10:49:13.042683 16934 net.cpp:150] Setting up conv2a
I0416 10:49:13.042721 16934 net.cpp:157] Top shape: 1 128 768 56 56 (308281344)
I0416 10:49:13.042726 16934 net.cpp:165] Memory required for data: 7129006116
I0416 10:49:13.042742 16934 layer_factory.hpp:77] Creating layer relu2a
I0416 10:49:13.042759 16934 net.cpp:100] Creating Layer relu2a
I0416 10:49:13.042765 16934 net.cpp:434] relu2a <- conv2a
I0416 10:49:13.042773 16934 net.cpp:395] relu2a -> conv2a (in-place)
I0416 10:49:13.042786 16934 net.cpp:150] Setting up relu2a
I0416 10:49:13.042793 16934 net.cpp:157] Top shape: 1 128 768 56 56 (308281344)
I0416 10:49:13.042798 16934 net.cpp:165] Memory required for data: 8362131492
I0416 10:49:13.042801 16934 layer_factory.hpp:77] Creating layer pool2
I0416 10:49:13.042814 16934 net.cpp:100] Creating Layer pool2
I0416 10:49:13.042819 16934 net.cpp:434] pool2 <- conv2a
I0416 10:49:13.042826 16934 net.cpp:408] pool2 -> pool2
I0416 10:49:13.042917 16934 net.cpp:150] Setting up pool2
I0416 10:49:13.042925 16934 net.cpp:157] Top shape: 1 128 384 28 28 (38535168)
I0416 10:49:13.042929 16934 net.cpp:165] Memory required for data: 8516272164
I0416 10:49:13.042933 16934 layer_factory.hpp:77] Creating layer conv3a
I0416 10:49:13.042948 16934 net.cpp:100] Creating Layer conv3a
I0416 10:49:13.042953 16934 net.cpp:434] conv3a <- pool2
I0416 10:49:13.042961 16934 net.cpp:408] conv3a -> conv3a
I0416 10:49:13.051165 16934 net.cpp:150] Setting up conv3a
I0416 10:49:13.051203 16934 net.cpp:157] Top shape: 1 256 384 28 28 (77070336)
I0416 10:49:13.051208 16934 net.cpp:165] Memory required for data: 8824553508
I0416 10:49:13.051223 16934 layer_factory.hpp:77] Creating layer relu3a
I0416 10:49:13.051235 16934 net.cpp:100] Creating Layer relu3a
I0416 10:49:13.051242 16934 net.cpp:434] relu3a <- conv3a
I0416 10:49:13.051252 16934 net.cpp:395] relu3a -> conv3a (in-place)
I0416 10:49:13.051265 16934 net.cpp:150] Setting up relu3a
I0416 10:49:13.051270 16934 net.cpp:157] Top shape: 1 256 384 28 28 (77070336)
I0416 10:49:13.051275 16934 net.cpp:165] Memory required for data: 9132834852
I0416 10:49:13.051280 16934 layer_factory.hpp:77] Creating layer conv3b
I0416 10:49:13.051292 16934 net.cpp:100] Creating Layer conv3b
I0416 10:49:13.051297 16934 net.cpp:434] conv3b <- conv3a
I0416 10:49:13.051304 16934 net.cpp:408] conv3b -> conv3b
I0416 10:49:13.067798 16934 net.cpp:150] Setting up conv3b
I0416 10:49:13.067827 16934 net.cpp:157] Top shape: 1 256 384 28 28 (77070336)
I0416 10:49:13.067831 16934 net.cpp:165] Memory required for data: 9441116196
I0416 10:49:13.067842 16934 layer_factory.hpp:77] Creating layer relu3b
I0416 10:49:13.067854 16934 net.cpp:100] Creating Layer relu3b
I0416 10:49:13.067860 16934 net.cpp:434] relu3b <- conv3b
I0416 10:49:13.067870 16934 net.cpp:395] relu3b -> conv3b (in-place)
I0416 10:49:13.067883 16934 net.cpp:150] Setting up relu3b
I0416 10:49:13.067891 16934 net.cpp:157] Top shape: 1 256 384 28 28 (77070336)
I0416 10:49:13.067896 16934 net.cpp:165] Memory required for data: 9749397540
I0416 10:49:13.067900 16934 layer_factory.hpp:77] Creating layer pool3
I0416 10:49:13.067909 16934 net.cpp:100] Creating Layer pool3
I0416 10:49:13.067914 16934 net.cpp:434] pool3 <- conv3b
I0416 10:49:13.067924 16934 net.cpp:408] pool3 -> pool3
I0416 10:49:13.067979 16934 net.cpp:150] Setting up pool3
I0416 10:49:13.067987 16934 net.cpp:157] Top shape: 1 256 192 14 14 (9633792)
I0416 10:49:13.067991 16934 net.cpp:165] Memory required for data: 9787932708
I0416 10:49:13.067996 16934 layer_factory.hpp:77] Creating layer conv4a
I0416 10:49:13.068011 16934 net.cpp:100] Creating Layer conv4a
I0416 10:49:13.068015 16934 net.cpp:434] conv4a <- pool3
I0416 10:49:13.068023 16934 net.cpp:408] conv4a -> conv4a
I0416 10:49:13.099642 16934 net.cpp:150] Setting up conv4a
I0416 10:49:13.099668 16934 net.cpp:157] Top shape: 1 512 192 14 14 (19267584)
I0416 10:49:13.099671 16934 net.cpp:165] Memory required for data: 9865003044
I0416 10:49:13.099689 16934 layer_factory.hpp:77] Creating layer relu4a
I0416 10:49:13.099709 16934 net.cpp:100] Creating Layer relu4a
I0416 10:49:13.099715 16934 net.cpp:434] relu4a <- conv4a
I0416 10:49:13.099725 16934 net.cpp:395] relu4a -> conv4a (in-place)
I0416 10:49:13.099735 16934 net.cpp:150] Setting up relu4a
I0416 10:49:13.099740 16934 net.cpp:157] Top shape: 1 512 192 14 14 (19267584)
I0416 10:49:13.099743 16934 net.cpp:165] Memory required for data: 9942073380
I0416 10:49:13.099747 16934 layer_factory.hpp:77] Creating layer conv4b
I0416 10:49:13.099764 16934 net.cpp:100] Creating Layer conv4b
I0416 10:49:13.099769 16934 net.cpp:434] conv4b <- conv4a
I0416 10:49:13.099778 16934 net.cpp:408] conv4b -> conv4b
I0416 10:49:13.158046 16934 net.cpp:150] Setting up conv4b
I0416 10:49:13.158077 16934 net.cpp:157] Top shape: 1 512 192 14 14 (19267584)
I0416 10:49:13.158080 16934 net.cpp:165] Memory required for data: 10019143716
I0416 10:49:13.158090 16934 layer_factory.hpp:77] Creating layer relu4b
I0416 10:49:13.158102 16934 net.cpp:100] Creating Layer relu4b
I0416 10:49:13.158107 16934 net.cpp:434] relu4b <- conv4b
I0416 10:49:13.158116 16934 net.cpp:395] relu4b -> conv4b (in-place)
I0416 10:49:13.158126 16934 net.cpp:150] Setting up relu4b
I0416 10:49:13.158133 16934 net.cpp:157] Top shape: 1 512 192 14 14 (19267584)
I0416 10:49:13.158136 16934 net.cpp:165] Memory required for data: 10096214052
I0416 10:49:13.158139 16934 layer_factory.hpp:77] Creating layer pool4
I0416 10:49:13.158147 16934 net.cpp:100] Creating Layer pool4
I0416 10:49:13.158150 16934 net.cpp:434] pool4 <- conv4b
I0416 10:49:13.158159 16934 net.cpp:408] pool4 -> pool4
I0416 10:49:13.158222 16934 net.cpp:150] Setting up pool4
I0416 10:49:13.158232 16934 net.cpp:157] Top shape: 1 512 96 7 7 (2408448)
I0416 10:49:13.158236 16934 net.cpp:165] Memory required for data: 10105847844
I0416 10:49:13.158241 16934 layer_factory.hpp:77] Creating layer conv5a
I0416 10:49:13.158253 16934 net.cpp:100] Creating Layer conv5a
I0416 10:49:13.158258 16934 net.cpp:434] conv5a <- pool4
I0416 10:49:13.158268 16934 net.cpp:408] conv5a -> conv5a
I0416 10:49:13.217006 16934 net.cpp:150] Setting up conv5a
I0416 10:49:13.217037 16934 net.cpp:157] Top shape: 1 512 96 7 7 (2408448)
I0416 10:49:13.217041 16934 net.cpp:165] Memory required for data: 10115481636
I0416 10:49:13.217051 16934 layer_factory.hpp:77] Creating layer relu5a
I0416 10:49:13.217063 16934 net.cpp:100] Creating Layer relu5a
I0416 10:49:13.217069 16934 net.cpp:434] relu5a <- conv5a
I0416 10:49:13.217079 16934 net.cpp:395] relu5a -> conv5a (in-place)
I0416 10:49:13.217089 16934 net.cpp:150] Setting up relu5a
I0416 10:49:13.217095 16934 net.cpp:157] Top shape: 1 512 96 7 7 (2408448)
I0416 10:49:13.217098 16934 net.cpp:165] Memory required for data: 10125115428
I0416 10:49:13.217101 16934 layer_factory.hpp:77] Creating layer conv5b
I0416 10:49:13.217114 16934 net.cpp:100] Creating Layer conv5b
I0416 10:49:13.217118 16934 net.cpp:434] conv5b <- conv5a
I0416 10:49:13.217124 16934 net.cpp:408] conv5b -> conv5b
I0416 10:49:13.275552 16934 net.cpp:150] Setting up conv5b
I0416 10:49:13.275585 16934 net.cpp:157] Top shape: 1 512 96 7 7 (2408448)
I0416 10:49:13.275589 16934 net.cpp:165] Memory required for data: 10134749220
I0416 10:49:13.275600 16934 layer_factory.hpp:77] Creating layer relu5b
I0416 10:49:13.275614 16934 net.cpp:100] Creating Layer relu5b
I0416 10:49:13.275619 16934 net.cpp:434] relu5b <- conv5b
I0416 10:49:13.275627 16934 net.cpp:395] relu5b -> conv5b (in-place)
I0416 10:49:13.275637 16934 net.cpp:150] Setting up relu5b
I0416 10:49:13.275642 16934 net.cpp:157] Top shape: 1 512 96 7 7 (2408448)
I0416 10:49:13.275646 16934 net.cpp:165] Memory required for data: 10144383012
I0416 10:49:13.275650 16934 layer_factory.hpp:77] Creating layer conv5b_relu5b_0_split
I0416 10:49:13.275658 16934 net.cpp:100] Creating Layer conv5b_relu5b_0_split
I0416 10:49:13.275662 16934 net.cpp:434] conv5b_relu5b_0_split <- conv5b
I0416 10:49:13.275667 16934 net.cpp:408] conv5b_relu5b_0_split -> conv5b_relu5b_0_split_0
I0416 10:49:13.275676 16934 net.cpp:408] conv5b_relu5b_0_split -> conv5b_relu5b_0_split_1
I0416 10:49:13.275738 16934 net.cpp:150] Setting up conv5b_relu5b_0_split
I0416 10:49:13.275748 16934 net.cpp:157] Top shape: 1 512 96 7 7 (2408448)
I0416 10:49:13.275753 16934 net.cpp:157] Top shape: 1 512 96 7 7 (2408448)
I0416 10:49:13.275758 16934 net.cpp:165] Memory required for data: 10163650596
I0416 10:49:13.275761 16934 layer_factory.hpp:77] Creating layer rpn_conv/3x3
I0416 10:49:13.275775 16934 net.cpp:100] Creating Layer rpn_conv/3x3
I0416 10:49:13.275780 16934 net.cpp:434] rpn_conv/3x3 <- conv5b_relu5b_0_split_0
I0416 10:49:13.275790 16934 net.cpp:408] rpn_conv/3x3 -> rpn/output
I0416 10:49:13.335570 16934 net.cpp:150] Setting up rpn_conv/3x3
I0416 10:49:13.335614 16934 net.cpp:157] Top shape: 1 512 96 4 4 (786432)
I0416 10:49:13.335618 16934 net.cpp:165] Memory required for data: 10166796324
I0416 10:49:13.335638 16934 layer_factory.hpp:77] Creating layer rpn_relu/3x3
I0416 10:49:13.335651 16934 net.cpp:100] Creating Layer rpn_relu/3x3
I0416 10:49:13.335659 16934 net.cpp:434] rpn_relu/3x3 <- rpn/output
I0416 10:49:13.335667 16934 net.cpp:395] rpn_relu/3x3 -> rpn/output (in-place)
I0416 10:49:13.335680 16934 net.cpp:150] Setting up rpn_relu/3x3
I0416 10:49:13.335685 16934 net.cpp:157] Top shape: 1 512 96 4 4 (786432)
I0416 10:49:13.335690 16934 net.cpp:165] Memory required for data: 10169942052
I0416 10:49:13.335693 16934 layer_factory.hpp:77] Creating layer rpn_conv/3x3_2
I0416 10:49:13.335708 16934 net.cpp:100] Creating Layer rpn_conv/3x3_2
I0416 10:49:13.335712 16934 net.cpp:434] rpn_conv/3x3_2 <- rpn/output
I0416 10:49:13.335721 16934 net.cpp:408] rpn_conv/3x3_2 -> rpn/output_2
I0416 10:49:13.393730 16934 net.cpp:150] Setting up rpn_conv/3x3_2
I0416 10:49:13.393765 16934 net.cpp:157] Top shape: 1 512 96 2 2 (196608)
I0416 10:49:13.393769 16934 net.cpp:165] Memory required for data: 10170728484
I0416 10:49:13.393779 16934 layer_factory.hpp:77] Creating layer rpn_relu/3x3_2
I0416 10:49:13.393791 16934 net.cpp:100] Creating Layer rpn_relu/3x3_2
I0416 10:49:13.393797 16934 net.cpp:434] rpn_relu/3x3_2 <- rpn/output_2
I0416 10:49:13.393805 16934 net.cpp:395] rpn_relu/3x3_2 -> rpn/output_2 (in-place)
I0416 10:49:13.393816 16934 net.cpp:150] Setting up rpn_relu/3x3_2
I0416 10:49:13.393822 16934 net.cpp:157] Top shape: 1 512 96 2 2 (196608)
I0416 10:49:13.393826 16934 net.cpp:165] Memory required for data: 10171514916
I0416 10:49:13.393831 16934 layer_factory.hpp:77] Creating layer rpn/output_pool
I0416 10:49:13.393841 16934 net.cpp:100] Creating Layer rpn/output_pool
I0416 10:49:13.393846 16934 net.cpp:434] rpn/output_pool <- rpn/output_2
I0416 10:49:13.393853 16934 net.cpp:408] rpn/output_pool -> rpn/output_pool
I0416 10:49:13.393929 16934 net.cpp:150] Setting up rpn/output_pool
I0416 10:49:13.393935 16934 net.cpp:157] Top shape: 1 512 96 1 1 (49152)
I0416 10:49:13.393939 16934 net.cpp:165] Memory required for data: 10171711524
I0416 10:49:13.393944 16934 layer_factory.hpp:77] Creating layer rpn/output_pool_rpn/output_pool_0_split
I0416 10:49:13.393952 16934 net.cpp:100] Creating Layer rpn/output_pool_rpn/output_pool_0_split
I0416 10:49:13.393956 16934 net.cpp:434] rpn/output_pool_rpn/output_pool_0_split <- rpn/output_pool
I0416 10:49:13.393967 16934 net.cpp:408] rpn/output_pool_rpn/output_pool_0_split -> rpn/output_pool_rpn/output_pool_0_split_0
I0416 10:49:13.393976 16934 net.cpp:408] rpn/output_pool_rpn/output_pool_0_split -> rpn/output_pool_rpn/output_pool_0_split_1
I0416 10:49:13.394028 16934 net.cpp:150] Setting up rpn/output_pool_rpn/output_pool_0_split
I0416 10:49:13.394035 16934 net.cpp:157] Top shape: 1 512 96 1 1 (49152)
I0416 10:49:13.394040 16934 net.cpp:157] Top shape: 1 512 96 1 1 (49152)
I0416 10:49:13.394045 16934 net.cpp:165] Memory required for data: 10172104740
I0416 10:49:13.394049 16934 layer_factory.hpp:77] Creating layer rpn_cls_score
I0416 10:49:13.394064 16934 net.cpp:100] Creating Layer rpn_cls_score
I0416 10:49:13.394071 16934 net.cpp:434] rpn_cls_score <- rpn/output_pool_rpn/output_pool_0_split_0
I0416 10:49:13.394078 16934 net.cpp:408] rpn_cls_score -> rpn_cls_score
I0416 10:49:13.394626 16934 net.cpp:150] Setting up rpn_cls_score
I0416 10:49:13.394635 16934 net.cpp:157] Top shape: 1 74 96 1 1 (7104)
I0416 10:49:13.394639 16934 net.cpp:165] Memory required for data: 10172133156
I0416 10:49:13.394646 16934 layer_factory.hpp:77] Creating layer rpn_cls_score_rpn_cls_score_0_split
I0416 10:49:13.394655 16934 net.cpp:100] Creating Layer rpn_cls_score_rpn_cls_score_0_split
I0416 10:49:13.394660 16934 net.cpp:434] rpn_cls_score_rpn_cls_score_0_split <- rpn_cls_score
I0416 10:49:13.394668 16934 net.cpp:408] rpn_cls_score_rpn_cls_score_0_split -> rpn_cls_score_rpn_cls_score_0_split_0
I0416 10:49:13.394676 16934 net.cpp:408] rpn_cls_score_rpn_cls_score_0_split -> rpn_cls_score_rpn_cls_score_0_split_1
I0416 10:49:13.394744 16934 net.cpp:150] Setting up rpn_cls_score_rpn_cls_score_0_split
I0416 10:49:13.394752 16934 net.cpp:157] Top shape: 1 74 96 1 1 (7104)
I0416 10:49:13.394757 16934 net.cpp:157] Top shape: 1 74 96 1 1 (7104)
I0416 10:49:13.394762 16934 net.cpp:165] Memory required for data: 10172189988
I0416 10:49:13.394765 16934 layer_factory.hpp:77] Creating layer rpn_twin_pred
I0416 10:49:13.394783 16934 net.cpp:100] Creating Layer rpn_twin_pred
I0416 10:49:13.394788 16934 net.cpp:434] rpn_twin_pred <- rpn/output_pool_rpn/output_pool_0_split_1
I0416 10:49:13.394795 16934 net.cpp:408] rpn_twin_pred -> rpn_twin_pred
I0416 10:49:13.395328 16934 net.cpp:150] Setting up rpn_twin_pred
I0416 10:49:13.395336 16934 net.cpp:157] Top shape: 1 74 96 1 1 (7104)
I0416 10:49:13.395339 16934 net.cpp:165] Memory required for data: 10172218404
I0416 10:49:13.395347 16934 layer_factory.hpp:77] Creating layer rpn_twin_pred_rpn_twin_pred_0_split
I0416 10:49:13.395354 16934 net.cpp:100] Creating Layer rpn_twin_pred_rpn_twin_pred_0_split
I0416 10:49:13.395359 16934 net.cpp:434] rpn_twin_pred_rpn_twin_pred_0_split <- rpn_twin_pred
I0416 10:49:13.395370 16934 net.cpp:408] rpn_twin_pred_rpn_twin_pred_0_split -> rpn_twin_pred_rpn_twin_pred_0_split_0
I0416 10:49:13.395378 16934 net.cpp:408] rpn_twin_pred_rpn_twin_pred_0_split -> rpn_twin_pred_rpn_twin_pred_0_split_1
I0416 10:49:13.395426 16934 net.cpp:150] Setting up rpn_twin_pred_rpn_twin_pred_0_split
I0416 10:49:13.395432 16934 net.cpp:157] Top shape: 1 74 96 1 1 (7104)
I0416 10:49:13.395437 16934 net.cpp:157] Top shape: 1 74 96 1 1 (7104)
I0416 10:49:13.395442 16934 net.cpp:165] Memory required for data: 10172275236
I0416 10:49:13.395447 16934 layer_factory.hpp:77] Creating layer rpn_cls_score_reshape
I0416 10:49:13.395455 16934 net.cpp:100] Creating Layer rpn_cls_score_reshape
I0416 10:49:13.395460 16934 net.cpp:434] rpn_cls_score_reshape <- rpn_cls_score_rpn_cls_score_0_split_0
I0416 10:49:13.395469 16934 net.cpp:408] rpn_cls_score_reshape -> rpn_cls_score_reshape
I0416 10:49:13.395501 16934 net.cpp:150] Setting up rpn_cls_score_reshape
I0416 10:49:13.395509 16934 net.cpp:157] Top shape: 1 2 3552 1 1 (7104)
I0416 10:49:13.395511 16934 net.cpp:165] Memory required for data: 10172303652
I0416 10:49:13.395516 16934 layer_factory.hpp:77] Creating layer rpn_cls_score_reshape_rpn_cls_score_reshape_0_split
I0416 10:49:13.395524 16934 net.cpp:100] Creating Layer rpn_cls_score_reshape_rpn_cls_score_reshape_0_split
I0416 10:49:13.395529 16934 net.cpp:434] rpn_cls_score_reshape_rpn_cls_score_reshape_0_split <- rpn_cls_score_reshape
I0416 10:49:13.395537 16934 net.cpp:408] rpn_cls_score_reshape_rpn_cls_score_reshape_0_split -> rpn_cls_score_reshape_rpn_cls_score_reshape_0_split_0
I0416 10:49:13.395552 16934 net.cpp:408] rpn_cls_score_reshape_rpn_cls_score_reshape_0_split -> rpn_cls_score_reshape_rpn_cls_score_reshape_0_split_1
I0416 10:49:13.395560 16934 net.cpp:408] rpn_cls_score_reshape_rpn_cls_score_reshape_0_split -> rpn_cls_score_reshape_rpn_cls_score_reshape_0_split_2
I0416 10:49:13.395617 16934 net.cpp:150] Setting up rpn_cls_score_reshape_rpn_cls_score_reshape_0_split
I0416 10:49:13.395623 16934 net.cpp:157] Top shape: 1 2 3552 1 1 (7104)
I0416 10:49:13.395629 16934 net.cpp:157] Top shape: 1 2 3552 1 1 (7104)
I0416 10:49:13.395635 16934 net.cpp:157] Top shape: 1 2 3552 1 1 (7104)
I0416 10:49:13.395639 16934 net.cpp:165] Memory required for data: 10172388900
I0416 10:49:13.395643 16934 layer_factory.hpp:77] Creating layer rpn-data
I0416 10:49:13.396009 16934 net.cpp:100] Creating Layer rpn-data
I0416 10:49:13.396020 16934 net.cpp:434] rpn-data <- rpn_cls_score_rpn_cls_score_0_split_1
I0416 10:49:13.396026 16934 net.cpp:434] rpn-data <- gt_boxes_data_1_split_0
I0416 10:49:13.396033 16934 net.cpp:434] rpn-data <- data_data_0_split_1
I0416 10:49:13.396041 16934 net.cpp:408] rpn-data -> rpn_labels
I0416 10:49:13.396051 16934 net.cpp:408] rpn-data -> rpn_twin_targets
I0416 10:49:13.396061 16934 net.cpp:408] rpn-data -> rpn_twin_inside_weights
I0416 10:49:13.396070 16934 net.cpp:408] rpn-data -> rpn_twin_outside_weights
I0416 10:49:13.398602 16934 net.cpp:150] Setting up rpn-data
I0416 10:49:13.398617 16934 net.cpp:157] Top shape: 1 1 3552 1 1 (3552)
I0416 10:49:13.398623 16934 net.cpp:157] Top shape: 1 74 96 1 1 (7104)
I0416 10:49:13.398628 16934 net.cpp:157] Top shape: 1 74 96 1 1 (7104)
I0416 10:49:13.398633 16934 net.cpp:157] Top shape: 1 74 96 1 1 (7104)
I0416 10:49:13.398638 16934 net.cpp:165] Memory required for data: 10172488356
I0416 10:49:13.398643 16934 layer_factory.hpp:77] Creating layer rpn_labels_rpn-data_0_split
I0416 10:49:13.398650 16934 net.cpp:100] Creating Layer rpn_labels_rpn-data_0_split
I0416 10:49:13.398655 16934 net.cpp:434] rpn_labels_rpn-data_0_split <- rpn_labels
I0416 10:49:13.398663 16934 net.cpp:408] rpn_labels_rpn-data_0_split -> rpn_labels_rpn-data_0_split_0
I0416 10:49:13.398674 16934 net.cpp:408] rpn_labels_rpn-data_0_split -> rpn_labels_rpn-data_0_split_1
I0416 10:49:13.398727 16934 net.cpp:150] Setting up rpn_labels_rpn-data_0_split
I0416 10:49:13.398735 16934 net.cpp:157] Top shape: 1 1 3552 1 1 (3552)
I0416 10:49:13.398739 16934 net.cpp:157] Top shape: 1 1 3552 1 1 (3552)
I0416 10:49:13.398743 16934 net.cpp:165] Memory required for data: 10172516772
I0416 10:49:13.398748 16934 layer_factory.hpp:77] Creating layer rpn_loss_cls
I0416 10:49:13.398757 16934 net.cpp:100] Creating Layer rpn_loss_cls
I0416 10:49:13.398762 16934 net.cpp:434] rpn_loss_cls <- rpn_cls_score_reshape_rpn_cls_score_reshape_0_split_0
I0416 10:49:13.398768 16934 net.cpp:434] rpn_loss_cls <- rpn_labels_rpn-data_0_split_0
…
I0416 10:49:13.399080 16934 layer_factory.hpp:77] Creating layer rpn_accuarcy
I0416 10:49:13.399088 16934 net.cpp:100] Creating Layer rpn_accuarcy
I0416 10:49:13.399093 16934 net.cpp:434] rpn_accuarcy <- rpn_cls_score_reshape_rpn_cls_score_reshape_0_split_1
I0416 10:49:13.399101 16934 net.cpp:434] rpn_accuarcy <- rpn_labels_rpn-data_0_split_1
I0416 10:49:13.399108 16934 net.cpp:408] rpn_accuarcy -> rpn_accuarcy
I0416 10:49:13.399116 16934 net.cpp:408] rpn_accuarcy -> rpn_accuarcy_class
I0416 10:49:13.399160 16934 net.cpp:150] Setting up rpn_accuarcy
I0416 10:49:13.399168 16934 net.cpp:157] Top shape: (1)
I0416 10:49:13.399171 16934 net.cpp:157] Top shape: 2 (2)
I0416 10:49:13.399175 16934 net.cpp:165] Memory required for data: 10172516792
I0416 10:49:13.399180 16934 layer_factory.hpp:77] Creating layer rpn_cls_prob
I0416 10:49:13.399188 16934 net.cpp:100] Creating Layer rpn_cls_prob
I0416 10:49:13.399194 16934 net.cpp:434] rpn_cls_prob <- rpn_cls_score_reshape_rpn_cls_score_reshape_0_split_2
I0416 10:49:13.399200 16934 net.cpp:408] rpn_cls_prob -> rpn_cls_prob
I0416 10:49:13.399271 16934 net.cpp:150] Setting up rpn_cls_prob
I0416 10:49:13.399279 16934 net.cpp:157] Top shape: 1 2 3552 1 1 (7104)
I0416 10:49:13.399283 16934 net.cpp:165] Memory required for data: 10172545208
I0416 10:49:13.399287 16934 layer_factory.hpp:77] Creating layer rpn_cls_prob_reshape
I0416 10:49:13.399297 16934 net.cpp:100] Creating Layer rpn_cls_prob_reshape
I0416 10:49:13.399304 16934 net.cpp:434] rpn_cls_prob_reshape <- rpn_cls_prob
I0416 10:49:13.399312 16934 net.cpp:408] rpn_cls_prob_reshape -> rpn_cls_prob_reshape
I0416 10:49:13.399343 16934 net.cpp:150] Setting up rpn_cls_prob_reshape
I0416 10:49:13.399350 16934 net.cpp:157] Top shape: 1 74 96 1 1 (7104)
I0416 10:49:13.399353 16934 net.cpp:165] Memory required for data: 10172573624
I0416 10:49:13.399358 16934 layer_factory.hpp:77] Creating layer proposal
I0416 10:49:13.399890 16934 net.cpp:100] Creating Layer proposal
I0416 10:49:13.399902 16934 net.cpp:434] proposal <- rpn_cls_prob_reshape
I0416 10:49:13.399909 16934 net.cpp:434] proposal <- rpn_twin_pred_rpn_twin_pred_0_split_1
I0416 10:49:13.399919 16934 net.cpp:408] proposal -> rpn_rois
I0416 10:49:13.403436 16934 net.cpp:150] Setting up proposal
I0416 10:49:13.403450 16934 net.cpp:157] Top shape: 1 3 (3)
I0416 10:49:13.403455 16934 net.cpp:165] Memory required for data: 10172573636
I0416 10:49:13.403460 16934 layer_factory.hpp:77] Creating layer roi-data
I0416 10:49:13.403596 16934 net.cpp:100] Creating Layer roi-data
I0416 10:49:13.403605 16934 net.cpp:434] roi-data <- rpn_rois
I0416 10:49:13.403612 16934 net.cpp:434] roi-data <- gt_boxes_data_1_split_1
I0416 10:49:13.403620 16934 net.cpp:408] roi-data -> rois
I0416 10:49:13.403630 16934 net.cpp:408] roi-data -> labels
I0416 10:49:13.403640 16934 net.cpp:408] roi-data -> twin_targets
I0416 10:49:13.403647 16934 net.cpp:408] roi-data -> twin_inside_weights
I0416 10:49:13.403656 16934 net.cpp:408] roi-data -> twin_outside_weights
I0416 10:49:13.403959 16934 net.cpp:150] Setting up roi-data
I0416 10:49:13.403971 16934 net.cpp:157] Top shape: 1 3 (3)
I0416 10:49:13.403976 16934 net.cpp:157] Top shape: 1 1 (1)
I0416 10:49:13.403982 16934 net.cpp:157] Top shape: 1 402 (402)
I0416 10:49:13.403988 16934 net.cpp:157] Top shape: 1 402 (402)
I0416 10:49:13.403993 16934 net.cpp:157] Top shape: 1 402 (402)
I0416 10:49:13.403997 16934 net.cpp:165] Memory required for data: 10172578476
I0416 10:49:13.404004 16934 layer_factory.hpp:77] Creating layer labels_roi-data_1_split
I0416 10:49:13.404012 16934 net.cpp:100] Creating Layer labels_roi-data_1_split
I0416 10:49:13.404017 16934 net.cpp:434] labels_roi-data_1_split <- labels
I0416 10:49:13.404024 16934 net.cpp:408] labels_roi-data_1_split -> labels_roi-data_1_split_0
I0416 10:49:13.404034 16934 net.cpp:408] labels_roi-data_1_split -> labels_roi-data_1_split_1
I0416 10:49:13.404078 16934 net.cpp:150] Setting up labels_roi-data_1_split
I0416 10:49:13.404084 16934 net.cpp:157] Top shape: 1 1 (1)
I0416 10:49:13.404089 16934 net.cpp:157] Top shape: 1 1 (1)
I0416 10:49:13.404093 16934 net.cpp:165] Memory required for data: 10172578484
I0416 10:49:13.404098 16934 layer_factory.hpp:77] Creating layer roi_pool5
I0416 10:49:13.404106 16934 net.cpp:100] Creating Layer roi_pool5
I0416 10:49:13.404111 16934 net.cpp:434] roi_pool5 <- conv5b_relu5b_0_split_1
I0416 10:49:13.404117 16934 net.cpp:434] roi_pool5 <- rois
I0416 10:49:13.404124 16934 net.cpp:408] roi_pool5 -> pool5
I0416 10:49:13.404135 16934 roi_pooling_layer.cpp:34] Temporal scale: 0.125
I0416 10:49:13.404145 16934 roi_pooling_layer.cpp:35] Spatial scale: 0.0625
I0416 10:49:13.404191 16934 net.cpp:150] Setting up roi_pool5
I0416 10:49:13.404196 16934 net.cpp:157] Top shape: 1 512 1 4 4 (8192)
I0416 10:49:13.404201 16934 net.cpp:165] Memory required for data: 10172611252
I0416 10:49:13.404204 16934 layer_factory.hpp:77] Creating layer fc6
I0416 10:49:13.404217 16934 net.cpp:100] Creating Layer fc6
I0416 10:49:13.404222 16934 net.cpp:434] fc6 <- pool5
I0416 10:49:13.404228 16934 net.cpp:408] fc6 -> fc6
I0416 10:49:13.675309 16934 net.cpp:150] Setting up fc6
I0416 10:49:13.675340 16934 net.cpp:157] Top shape: 1 4096 (4096)
I0416 10:49:13.675344 16934 net.cpp:165] Memory required for data: 10172627636
I0416 10:49:13.675356 16934 layer_factory.hpp:77] Creating layer relu6
I0416 10:49:13.675369 16934 net.cpp:100] Creating Layer relu6
I0416 10:49:13.675376 16934 net.cpp:434] relu6 <- fc6
I0416 10:49:13.675385 16934 net.cpp:395] relu6 -> fc6 (in-place)
I0416 10:49:13.675396 16934 net.cpp:150] Setting up relu6
I0416 10:49:13.675423 16934 net.cpp:157] Top shape: 1 4096 (4096)
I0416 10:49:13.675427 16934 net.cpp:165] Memory required for data: 10172644020
I0416 10:49:13.675432 16934 layer_factory.hpp:77] Creating layer drop6
I0416 10:49:13.675441 16934 net.cpp:100] Creating Layer drop6
I0416 10:49:13.675446 16934 net.cpp:434] drop6 <- fc6
I0416 10:49:13.675451 16934 net.cpp:395] drop6 -> fc6 (in-place)
I0416 10:49:13.675485 16934 net.cpp:150] Setting up drop6
I0416 10:49:13.675492 16934 net.cpp:157] Top shape: 1 4096 (4096)
I0416 10:49:13.675495 16934 net.cpp:165] Memory required for data: 10172660404
I0416 10:49:13.675500 16934 layer_factory.hpp:77] Creating layer fc6_drop6_0_split
I0416 10:49:13.675508 16934 net.cpp:100] Creating Layer fc6_drop6_0_split
I0416 10:49:13.675513 16934 net.cpp:434] fc6_drop6_0_split <- fc6
I0416 10:49:13.675519 16934 net.cpp:408] fc6_drop6_0_split -> fc6_drop6_0_split_0
I0416 10:49:13.675530 16934 net.cpp:408] fc6_drop6_0_split -> fc6_drop6_0_split_1
I0416 10:49:13.675578 16934 net.cpp:150] Setting up fc6_drop6_0_split
I0416 10:49:13.675586 16934 net.cpp:157] Top shape: 1 4096 (4096)
I0416 10:49:13.675591 16934 net.cpp:157] Top shape: 1 4096 (4096)
I0416 10:49:13.675595 16934 net.cpp:165] Memory required for data: 10172693172
I0416 10:49:13.675601 16934 layer_factory.hpp:77] Creating layer cls_score
I0416 10:49:13.675609 16934 net.cpp:100] Creating Layer cls_score
I0416 10:49:13.675614 16934 net.cpp:434] cls_score <- fc6_drop6_0_split_0
I0416 10:49:13.675623 16934 net.cpp:408] cls_score -> cls_score
I0416 10:49:13.682974 16934 net.cpp:150] Setting up cls_score
I0416 10:49:13.682989 16934 net.cpp:157] Top shape: 1 201 (201)
I0416 10:49:13.682994 16934 net.cpp:165] Memory required for data: 10172693976
I0416 10:49:13.683003 16934 layer_factory.hpp:77] Creating layer cls_score_cls_score_0_split
I0416 10:49:13.683014 16934 net.cpp:100] Creating Layer cls_score_cls_score_0_split
I0416 10:49:13.683019 16934 net.cpp:434] cls_score_cls_score_0_split <- cls_score
I0416 10:49:13.683027 16934 net.cpp:408] cls_score_cls_score_0_split -> cls_score_cls_score_0_split_0
I0416 10:49:13.683039 16934 net.cpp:408] cls_score_cls_score_0_split -> cls_score_cls_score_0_split_1
I0416 10:49:13.683091 16934 net.cpp:150] Setting up cls_score_cls_score_0_split
I0416 10:49:13.683099 16934 net.cpp:157] Top shape: 1 201 (201)
I0416 10:49:13.683104 16934 net.cpp:157] Top shape: 1 201 (201)
I0416 10:49:13.683109 16934 net.cpp:165] Memory required for data: 10172695584
I0416 10:49:13.683112 16934 layer_factory.hpp:77] Creating layer twin_pred
I0416 10:49:13.683123 16934 net.cpp:100] Creating Layer twin_pred
I0416 10:49:13.683128 16934 net.cpp:434] twin_pred <- fc6_drop6_0_split_1
I0416 10:49:13.683138 16934 net.cpp:408] twin_pred -> twin_pred
I0416 10:49:13.697422 16934 net.cpp:150] Setting up twin_pred
I0416 10:49:13.697450 16934 net.cpp:157] Top shape: 1 402 (402)
I0416 10:49:13.697454 16934 net.cpp:165] Memory required for data: 10172697192
I0416 10:49:13.697465 16934 layer_factory.hpp:77] Creating layer loss_cls
I0416 10:49:13.697479 16934 net.cpp:100] Creating Layer loss_cls
I0416 10:49:13.697484 16934 net.cpp:434] loss_cls <- cls_score_cls_score_0_split_0
I0416 10:49:13.697494 16934 net.cpp:434] loss_cls <- labels_roi-data_1_split_0
I0416 10:49:13.697502 16934 net.cpp:408] loss_cls -> loss_cls
…
