…
stepsize: 350000
snapshot: 0
snapshot_prefix: "./experiments/activitynet/snapshot/activitynet"
average_loss: 100
iter_size: 1
I0418 04:24:27.851430 18141 solver.cpp:81] Creating training net from train_net file: ./experiments/activitynet/train.prototxt
I0418 04:24:27.852494 18141 net.cpp:58] Initializing net from parameters: 
name: "activitynet"
state {
  phase: TRAIN
}
layer {
  name: "data"
  type: "Python"
  top: "data"
  top: "gt_boxes"
  python_param {
    module: "roi_data_layer.layer"
    layer: "RoIDataLayer"
    param_str: "\'num_classes\': 100"
  }
}
layer {
  name: "conv1a"
  type: "Convolution"
  bottom: "data"
  top: "conv1a"
  param {
    lr_mult: 0
    decay_mult: 0
  }
  param {
    lr_mult: 0
    decay_mult: 0
  }
  convolution_param {
    num_output: 64
    pad: 1
    pad: 1
    pad: 1
    kernel_size: 3
    kernel_size: 3
    kernel_size: 3
    weight_filler {
      type: "gaussian"
      std: 0.01
    }
    bias_filler {
      type: "constant"
      value: 0
    }
  }
}
layer {
  name: "relu1a"
  type: "ReLU"
  bottom: "conv1a"
  top: "conv1a"
}
layer {
  name: "pool1"
  type: "Pooling"
  bottom: "conv1a"
  top: "pool1"
  pooling_param {
    pool: MAX
    kernel_size: 1
    kernel_size: 2
    kernel_size: 2
    stride: 1
    stride: 2
    stride: 2
  }
}
layer {
  name: "conv2a"
  type: "Convolution"
  bottom: "pool1"
  top: "conv2a"
  param {
    lr_mult: 0
    decay_mult: 0
  }
  param {
    lr_mult: 0
    decay_mult: 0
  }
  convolution_param {
    num_output: 128
    pad: 1
    pad: 1
    pad: 1
    kernel_size: 3
    kernel_size: 3
    kernel_size: 3
    weight_filler {
      type: "gaussian"
      std: 0.01
    }
    bias_filler {
      type: "constant"
      value: 1
    }
  }
}
layer {
  name: "relu2a"
  type: "ReLU"
  bottom: "conv2a"
  top: "conv2a"
}
layer {
  name: "pool2"
  type: "Pooling"
  bottom: "conv2a"
  top: "pool2"
  pooling_param {
    pool: MAX
    kernel_size: 2
    kernel_size: 2
    kernel_size: 2
    stride: 2
    stride: 2
    stride: 2
  }
}
layer {
  name: "conv3a"
  type: "Convolution"
  bottom: "pool2"
  top: "conv3a"
  param {
    lr_mult: 1
    decay_mult: 1
  }
  param {
    lr_mult: 2
    decay_mult: 0
  }
  convolution_param {
    num_output: 256
    pad: 1
    pad: 1
    pad: 1
    kernel_size: 3
    kernel_size: 3
    kernel_size: 3
    weight_filler {
      type: "gaussian"
      std: 0.01
    }
    bias_filler {
      type: "constant"
      value: 1
    }
  }
}
layer {
  name: "relu3a"
  type: "ReLU"
  bottom: "conv3a"
  top: "conv3a"
}
layer {
  name: "conv3b"
  type: "Convolution"
  bottom: "conv3a"
  top: "conv3b"
  param {
    lr_mult: 1
    decay_mult: 1
  }
  param {
    lr_mult: 2
    decay_mult: 0
  }
  convolution_param {
    num_output: 256
    pad: 1
    pad: 1
    pad: 1
    kernel_size: 3
    kernel_size: 3
    kernel_size: 3
    weight_filler {
      type: "gaussian"
      std: 0.01
    }
    bias_filler {
      type: "constant"
      value: 1
    }
  }
}
layer {
  name: "relu3b"
  type: "ReLU"
  bottom: "conv3b"
  top: "conv3b"
}
layer {
  name: "pool3"
  type: "Pooling"
  bottom: "conv3b"
  top: "pool3"
  pooling_param {
    pool: MAX
    kernel_size: 2
    kernel_size: 2
    kernel_size: 2
    stride: 2
    stride: 2
    stride: 2
  }
}
layer {
  name: "conv4a"
  type: "Convolution"
  bottom: "pool3"
  top: "conv4a"
  param {
    lr_mult: 1
    decay_mult: 1
  }
  param {
    lr_mult: 2
    decay_mult: 0
  }
  convolution_param {
    num_output: 512
    pad: 1
    pad: 1
    pad: 1
    kernel_size: 3
    kernel_size: 3
    kernel_size: 3
    weight_filler {
      type: "gaussian"
      std: 0.01
    }
    bias_filler {
      type: "constant"
      value: 1
    }
  }
}
layer {
  name: "relu4a"
  type: "ReLU"
  bottom: "conv4a"
  top: "conv4a"
}
layer {
  name: "conv4b"
  type: "Convolution"
  bottom: "conv4a"
  top: "conv4b"
  param {
    lr_mult: 1
    decay_mult: 1
  }
  param {
    lr_mult: 2
    decay_mult: 0
  }
  convolution_param {
    num_output: 512
    pad: 1
    pad: 1
    pad: 1
    kernel_size: 3
    kernel_size: 3
    kernel_size: 3
    weight_filler {
      type: "gaussian"
      std: 0.01
    }
    bias_filler {
      type: "constant"
      value: 1
    }
  }
}
layer {
  name: "relu4b"
  type: "ReLU"
  bottom: "conv4b"
  top: "conv4b"
}
layer {
  name: "pool4"
  type: "Pooling"
  bottom: "conv4b"
  top: "pool4"
  pooling_param {
    pool: MAX
    kernel_size: 2
    kernel_size: 2
    kernel_size: 2
    stride: 2
    stride: 2
    stride: 2
  }
}
layer {
  name: "conv5a"
  type: "Convolution"
  bottom: "pool4"
  top: "conv5a"
  param {
    lr_mult: 1
    decay_mult: 1
  }
  param {
    lr_mult: 2
    decay_mult: 0
  }
  convolution_param {
    num_output: 512
    pad: 1
    pad: 1
    pad: 1
    kernel_size: 3
    kernel_size: 3
    kernel_size: 3
    weight_filler {
      type: "gaussian"
      std: 0.01
    }
    bias_filler {
      type: "constant"
      value: 1
    }
  }
}
layer {
  name: "relu5a"
  type: "ReLU"
  bottom: "conv5a"
  top: "conv5a"
}
layer {
  name: "conv5b"
  type: "Convolution"
  bottom: "conv5a"
  top: "conv5b"
  param {
    lr_mult: 1
    decay_mult: 1
  }
  param {
    lr_mult: 2
    decay_mult: 0
  }
  convolution_param {
    num_output: 512
    pad: 1
    pad: 1
    pad: 1
    kernel_size: 3
    kernel_size: 3
    kernel_size: 3
    weight_filler {
      type: "gaussian"
      std: 0.01
    }
    bias_filler {
      type: "constant"
      value: 1
    }
  }
}
layer {
  name: "relu5b"
  type: "ReLU"
  bottom: "conv5b"
  top: "conv5b"
}
layer {
  name: "rpn_conv/3x3"
  type: "Convolution"
  bottom: "conv5b"
  top: "rpn/output"
  param {
    lr_mult: 1
    decay_mult: 1
  }
  param {
    lr_mult: 2
    decay_mult: 0
  }
  convolution_param {
    num_output: 512
    pad: 1
    pad: 1
    pad: 1
    kernel_size: 3
    kernel_size: 3
    kernel_size: 3
    stride: 1
    stride: 2
    stride: 2
    weight_filler {
      type: "gaussian"
      std: 0.01
    }
    bias_filler {
      type: "constant"
      value: 0
    }
  }
}
layer {
  name: "rpn_relu/3x3"
  type: "ReLU"
  bottom: "rpn/output"
  top: "rpn/output"
}
layer {
  name: "rpn_conv/3x3_2"
  type: "Convolution"
  bottom: "rpn/output"
  top: "rpn/output_2"
  param {
    lr_mult: 1
    decay_mult: 1
  }
  param {
    lr_mult: 2
    decay_mult: 0
  }
  convolution_param {
    num_output: 512
    pad: 1
    pad: 1
    pad: 1
    kernel_size: 3
    kernel_size: 3
    kernel_size: 3
    stride: 1
    stride: 2
    stride: 2
    weight_filler {
      type: "gaussian"
      std: 0.01
    }
    bias_filler {
      type: "constant"
      value: 0
    }
  }
}
layer {
  name: "rpn_relu/3x3_2"
  type: "ReLU"
  bottom: "rpn/output_2"
  top: "rpn/output_2"
}
layer {
  name: "rpn/output_pool"
  type: "Pooling"
  bottom: "rpn/output_2"
  top: "rpn/output_pool"
  pooling_param {
    pool: MAX
    kernel_size: 1
    kernel_size: 2
    kernel_size: 2
  }
}
layer {
  name: "rpn_cls_score"
  type: "Convolution"
  bottom: "rpn/output_pool"
  top: "rpn_cls_score"
  param {
    lr_mult: 1
    decay_mult: 1
  }
  param {
    lr_mult: 2
    decay_mult: 0
  }
  convolution_param {
    num_output: 74
    kernel_size: 1
    kernel_size: 1
    kernel_size: 1
    weight_filler {
      type: "gaussian"
      std: 0.01
    }
    bias_filler {
      type: "constant"
      value: 0
    }
  }
}
layer {
  name: "rpn_twin_pred"
  type: "Convolution"
  bottom: "rpn/output_pool"
  top: "rpn_twin_pred"
  param {
    lr_mult: 1
    decay_mult: 1
  }
  param {
    lr_mult: 2
    decay_mult: 0
  }
  convolution_param {
    num_output: 74
    kernel_size: 1
    kernel_size: 1
    kernel_size: 1
    weight_filler {
      type: "gaussian"
      std: 0.01
    }
    bias_filler {
      type: "constant"
      value: 0
    }
  }
}
layer {
  name: "rpn_cls_score_reshape"
  type: "Reshape"
  bottom: "rpn_cls_score"
  top: "rpn_cls_score_reshape"
  reshape_param {
    shape {
      dim: 0
      dim: 2
      dim: -1
      dim: 0
      dim: 0
    }
  }
}
layer {
  name: "rpn-data"
  type: "Python"
  bottom: "rpn_cls_score"
  bottom: "gt_boxes"
  bottom: "data"
  top: "rpn_labels"
  top: "rpn_twin_targets"
  top: "rpn_twin_inside_weights"
  top: "rpn_twin_outside_weights"
  python_param {
    module: "rpn.anchor_target_layer"
    layer: "AnchorTargetLayer"
    param_str: "\'feat_stride\': 8 \n\'scales\': !!python/tuple [1,1.25, 1.5,1.75, 2,2.5, 3,3.5, 4,4.5, 5,5.5, 6,7, 8,9,10,11,12,14,16,18,20,22,24,28,32,36,40,44,52,60,68,76,84,92,100]"
  }
}
layer {
  name: "rpn_loss_cls"
  type: "SoftmaxWithLoss"
  bottom: "rpn_cls_score_reshape"
  bottom: "rpn_labels"
  top: "rpn_cls_loss"
  loss_weight: 1
  propagate_down: true
  propagate_down: false
  loss_param {
    ignore_label: -1
    normalize: true
  }
}
layer {
  name: "rpn_loss_twin"
  type: "SmoothL1Loss"
  bottom: "rpn_twin_pred"
  bottom: "rpn_twin_targets"
  bottom: "rpn_twin_inside_weights"
  bottom: "rpn_twin_outside_weights"
  top: "rpn_loss_twin"
  loss_weight: 1
  smooth_l1_loss_param {
    sigma: 3
  }
}
layer {
  name: "rpn_accuarcy"
  type: "Accuracy"
  bottom: "rpn_cls_score_reshape"
  bottom: "rpn_labels"
  top: "rpn_accuarcy"
  top: "rpn_accuarcy_class"
  propagate_down: false
  propagate_down: false
  accuracy_param {
    ignore_label: -1
  }
}
layer {
  name: "rpn_cls_prob"
  type: "Softmax"
  bottom: "rpn_cls_score_reshape"
  top: "rpn_cls_prob"
}
layer {
  name: "rpn_cls_prob_reshape"
  type: "Reshape"
  bottom: "rpn_cls_prob"
  top: "rpn_cls_prob_reshape"
  reshape_param {
    shape {
      dim: 0
      dim: 74
      dim: -1
      dim: 0
      dim: 0
    }
  }
}
layer {
  name: "proposal"
  type: "Python"
  bottom: "rpn_cls_prob_reshape"
  bottom: "rpn_twin_pred"
  top: "rpn_rois"
  include {
    phase: TRAIN
  }
  python_param {
    module: "rpn.proposal_layer"
    layer: "ProposalLayer"
    param_str: "\'feat_stride\': 8 \n\'scales\': !!python/tuple [1,1.25, 1.5,1.75, 2,2.5, 3,3.5, 4,4.5, 5,5.5, 6,7, 8,9,10,11,12,14,16,18,20,22,24,28,32,36,40,44,52,60,68,76,84,92,100]"
  }
}
layer {
  name: "roi-data"
  type: "Python"
  bottom: "rpn_rois"
  bottom: "gt_boxes"
  top: "rois"
  top: "labels"
  top: "twin_targets"
  top: "twin_inside_weights"
  top: "twin_outside_weights"
  python_param {
    module: "rpn.proposal_target_layer"
    layer: "ProposalTargetLayer"
    param_str: "\'num_classes\': 99"
  }
}
layer {
  name: "roi_pool5"
  type: "ROIPooling"
  bottom: "conv5b"
  bottom: "rois"
  top: "pool5"
  roi_pooling_param {
    pooled_h: 4
    pooled_w: 4
    spatial_scale: 0.0625
    pooled_l: 1
    temporal_scale: 0.125
  }
}
layer {
  name: "fc6"
  type: "InnerProduct"
  bottom: "pool5"
  top: "fc6"
  param {
    lr_mult: 1
    decay_mult: 1
  }
  param {
    lr_mult: 2
    decay_mult: 0
  }
  inner_product_param {
    num_output: 4096
    weight_filler {
      type: "gaussian"
      std: 0.005
    }
    bias_filler {
      type: "constant"
      value: 1
    }
  }
}
layer {
  name: "relu6"
  type: "ReLU"
  bottom: "fc6"
  top: "fc6"
}
layer {
  name: "drop6"
  type: "Dropout"
  bottom: "fc6"
  top: "fc6"
  dropout_param {
    dropout_ratio: 0.5
  }
}
layer {
  name: "cls_score"
  type: "InnerProduct"
  bottom: "fc6"
  top: "cls_score"
  param {
    lr_mult: 1
    decay_mult: 1
  }
  param {
    lr_mult: 2
    decay_mult: 0
  }
  inner_product_param {
    num_output: 9900
    weight_filler {
      type: "gaussian"
      std: 0.01
    }
    bias_filler {
      type: "constant"
      value: 0
    }
  }
}
layer {
  name: "twin_pred"
  type: "InnerProduct"
  bottom: "fc6"
  top: "twin_pred"
  param {
    lr_mult: 1
    decay_mult: 1
  }
  param {
    lr_mult: 2
    decay_mult: 0
  }
  inner_product_param {
    num_output: 198
    weight_filler {
      type: "gaussian"
      std: 0.001
    }
    bias_filler {
      type: "constant"
      value: 0
    }
  }
}
layer {
  name: "loss_cls"
  type: "SigmoidCrossEntropyLoss"
  bottom: "cls_score"
  bottom: "labels"
  top: "loss_cls"
  loss_weight: 1
  propagate_down: true
  propagate_down: false
}
layer {
  name: "loss_twin"
  type: "SmoothL1Loss"
  bottom: "twin_pred"
  bottom: "twin_targets"
  bottom: "twin_inside_weights"
  bottom: "twin_outside_weights"
  top: "loss_twin"
  loss_weight: 1
}
layer {
  name: "accuarcy"
  type: "Accuracy"
  bottom: "cls_score"
  bottom: "labels"
  top: "accuarcy"
  propagate_down: false
  propagate_down: false
  accuracy_param {
    ignore_label: -1
  }
}
I0418 04:24:27.852830 18141 layer_factory.hpp:77] Creating layer data
I0418 04:24:27.877646 18141 net.cpp:100] Creating Layer data
I0418 04:24:27.877671 18141 net.cpp:408] data -> data
I0418 04:24:27.877688 18141 net.cpp:408] data -> gt_boxes
setting up
has rpn
RoiDataLayer: name_to_top: {'gt_windows': 1, 'data': 0}
I0418 04:24:27.890688 18141 net.cpp:150] Setting up data
I0418 04:24:27.890712 18141 net.cpp:157] Top shape: 1 3 768 112 112 (28901376)
I0418 04:24:27.890719 18141 net.cpp:157] Top shape: 1 101 (101)
I0418 04:24:27.890724 18141 net.cpp:165] Memory required for data: 115605908
I0418 04:24:27.890733 18141 layer_factory.hpp:77] Creating layer data_data_0_split
I0418 04:24:27.890748 18141 net.cpp:100] Creating Layer data_data_0_split
I0418 04:24:27.890758 18141 net.cpp:434] data_data_0_split <- data
I0418 04:24:27.890786 18141 net.cpp:408] data_data_0_split -> data_data_0_split_0
I0418 04:24:27.890803 18141 net.cpp:408] data_data_0_split -> data_data_0_split_1
I0418 04:24:27.890851 18141 net.cpp:150] Setting up data_data_0_split
I0418 04:24:27.890861 18141 net.cpp:157] Top shape: 1 3 768 112 112 (28901376)
I0418 04:24:27.890867 18141 net.cpp:157] Top shape: 1 3 768 112 112 (28901376)
I0418 04:24:27.890872 18141 net.cpp:165] Memory required for data: 346816916
I0418 04:24:27.890878 18141 layer_factory.hpp:77] Creating layer gt_boxes_data_1_split
I0418 04:24:27.890887 18141 net.cpp:100] Creating Layer gt_boxes_data_1_split
I0418 04:24:27.890892 18141 net.cpp:434] gt_boxes_data_1_split <- gt_boxes
I0418 04:24:27.890902 18141 net.cpp:408] gt_boxes_data_1_split -> gt_boxes_data_1_split_0
I0418 04:24:27.890911 18141 net.cpp:408] gt_boxes_data_1_split -> gt_boxes_data_1_split_1
I0418 04:24:27.890946 18141 net.cpp:150] Setting up gt_boxes_data_1_split
I0418 04:24:27.890955 18141 net.cpp:157] Top shape: 1 101 (101)
I0418 04:24:27.890961 18141 net.cpp:157] Top shape: 1 101 (101)
I0418 04:24:27.890966 18141 net.cpp:165] Memory required for data: 346817724
I0418 04:24:27.890972 18141 layer_factory.hpp:77] Creating layer conv1a
I0418 04:24:27.890992 18141 net.cpp:100] Creating Layer conv1a
I0418 04:24:27.891000 18141 net.cpp:434] conv1a <- data_data_0_split_0
I0418 04:24:27.891010 18141 net.cpp:408] conv1a -> conv1a
I0418 04:24:28.731326 18141 net.cpp:150] Setting up conv1a
I0418 04:24:28.731357 18141 net.cpp:157] Top shape: 1 64 768 112 112 (616562688)
I0418 04:24:28.731364 18141 net.cpp:165] Memory required for data: 2813068476
I0418 04:24:28.731387 18141 layer_factory.hpp:77] Creating layer relu1a
I0418 04:24:28.731405 18141 net.cpp:100] Creating Layer relu1a
I0418 04:24:28.731415 18141 net.cpp:434] relu1a <- conv1a
I0418 04:24:28.731426 18141 net.cpp:395] relu1a -> conv1a (in-place)
I0418 04:24:28.732197 18141 net.cpp:150] Setting up relu1a
I0418 04:24:28.732211 18141 net.cpp:157] Top shape: 1 64 768 112 112 (616562688)
I0418 04:24:28.732216 18141 net.cpp:165] Memory required for data: 5279319228
I0418 04:24:28.732223 18141 layer_factory.hpp:77] Creating layer pool1
I0418 04:24:28.732236 18141 net.cpp:100] Creating Layer pool1
I0418 04:24:28.732242 18141 net.cpp:434] pool1 <- conv1a
I0418 04:24:28.732251 18141 net.cpp:408] pool1 -> pool1
I0418 04:24:28.732434 18141 net.cpp:150] Setting up pool1
I0418 04:24:28.732447 18141 net.cpp:157] Top shape: 1 64 768 56 56 (154140672)
I0418 04:24:28.732453 18141 net.cpp:165] Memory required for data: 5895881916
I0418 04:24:28.732460 18141 layer_factory.hpp:77] Creating layer conv2a
I0418 04:24:28.732475 18141 net.cpp:100] Creating Layer conv2a
I0418 04:24:28.732481 18141 net.cpp:434] conv2a <- pool1
I0418 04:24:28.732491 18141 net.cpp:408] conv2a -> conv2a
I0418 04:24:28.744812 18141 net.cpp:150] Setting up conv2a
I0418 04:24:28.744837 18141 net.cpp:157] Top shape: 1 128 768 56 56 (308281344)
I0418 04:24:28.744843 18141 net.cpp:165] Memory required for data: 7129007292
I0418 04:24:28.744860 18141 layer_factory.hpp:77] Creating layer relu2a
I0418 04:24:28.744874 18141 net.cpp:100] Creating Layer relu2a
I0418 04:24:28.744881 18141 net.cpp:434] relu2a <- conv2a
I0418 04:24:28.744890 18141 net.cpp:395] relu2a -> conv2a (in-place)
I0418 04:24:28.745213 18141 net.cpp:150] Setting up relu2a
I0418 04:24:28.745229 18141 net.cpp:157] Top shape: 1 128 768 56 56 (308281344)
I0418 04:24:28.745236 18141 net.cpp:165] Memory required for data: 8362132668
I0418 04:24:28.745244 18141 layer_factory.hpp:77] Creating layer pool2
I0418 04:24:28.745257 18141 net.cpp:100] Creating Layer pool2
I0418 04:24:28.745265 18141 net.cpp:434] pool2 <- conv2a
I0418 04:24:28.745273 18141 net.cpp:408] pool2 -> pool2
I0418 04:24:28.745463 18141 net.cpp:150] Setting up pool2
I0418 04:24:28.745476 18141 net.cpp:157] Top shape: 1 128 384 28 28 (38535168)
I0418 04:24:28.745482 18141 net.cpp:165] Memory required for data: 8516273340
I0418 04:24:28.745488 18141 layer_factory.hpp:77] Creating layer conv3a
I0418 04:24:28.745504 18141 net.cpp:100] Creating Layer conv3a
I0418 04:24:28.745512 18141 net.cpp:434] conv3a <- pool2
I0418 04:24:28.745522 18141 net.cpp:408] conv3a -> conv3a
I0418 04:24:28.770828 18141 net.cpp:150] Setting up conv3a
I0418 04:24:28.770848 18141 net.cpp:157] Top shape: 1 256 384 28 28 (77070336)
I0418 04:24:28.770853 18141 net.cpp:165] Memory required for data: 8824554684
I0418 04:24:28.770869 18141 layer_factory.hpp:77] Creating layer relu3a
I0418 04:24:28.770879 18141 net.cpp:100] Creating Layer relu3a
I0418 04:24:28.770886 18141 net.cpp:434] relu3a <- conv3a
I0418 04:24:28.770895 18141 net.cpp:395] relu3a -> conv3a (in-place)
I0418 04:24:28.771200 18141 net.cpp:150] Setting up relu3a
I0418 04:24:28.771214 18141 net.cpp:157] Top shape: 1 256 384 28 28 (77070336)
I0418 04:24:28.771219 18141 net.cpp:165] Memory required for data: 9132836028
I0418 04:24:28.771225 18141 layer_factory.hpp:77] Creating layer conv3b
I0418 04:24:28.771242 18141 net.cpp:100] Creating Layer conv3b
I0418 04:24:28.771255 18141 net.cpp:434] conv3b <- conv3a
I0418 04:24:28.771265 18141 net.cpp:408] conv3b -> conv3b
I0418 04:24:28.818888 18141 net.cpp:150] Setting up conv3b
I0418 04:24:28.818914 18141 net.cpp:157] Top shape: 1 256 384 28 28 (77070336)
I0418 04:24:28.818920 18141 net.cpp:165] Memory required for data: 9441117372
I0418 04:24:28.818933 18141 layer_factory.hpp:77] Creating layer relu3b
I0418 04:24:28.818946 18141 net.cpp:100] Creating Layer relu3b
I0418 04:24:28.818954 18141 net.cpp:434] relu3b <- conv3b
I0418 04:24:28.818965 18141 net.cpp:395] relu3b -> conv3b (in-place)
I0418 04:24:28.819278 18141 net.cpp:150] Setting up relu3b
I0418 04:24:28.819293 18141 net.cpp:157] Top shape: 1 256 384 28 28 (77070336)
I0418 04:24:28.819299 18141 net.cpp:165] Memory required for data: 9749398716
I0418 04:24:28.819305 18141 layer_factory.hpp:77] Creating layer pool3
I0418 04:24:28.819316 18141 net.cpp:100] Creating Layer pool3
I0418 04:24:28.819322 18141 net.cpp:434] pool3 <- conv3b
I0418 04:24:28.819331 18141 net.cpp:408] pool3 -> pool3
I0418 04:24:28.819512 18141 net.cpp:150] Setting up pool3
I0418 04:24:28.819525 18141 net.cpp:157] Top shape: 1 256 192 14 14 (9633792)
I0418 04:24:28.819530 18141 net.cpp:165] Memory required for data: 9787933884
I0418 04:24:28.819536 18141 layer_factory.hpp:77] Creating layer conv4a
I0418 04:24:28.819552 18141 net.cpp:100] Creating Layer conv4a
I0418 04:24:28.819563 18141 net.cpp:434] conv4a <- pool3
I0418 04:24:28.819576 18141 net.cpp:408] conv4a -> conv4a
I0418 04:24:28.913249 18141 net.cpp:150] Setting up conv4a
I0418 04:24:28.913275 18141 net.cpp:157] Top shape: 1 512 192 14 14 (19267584)
I0418 04:24:28.913281 18141 net.cpp:165] Memory required for data: 9865004220
I0418 04:24:28.913298 18141 layer_factory.hpp:77] Creating layer relu4a
I0418 04:24:28.913311 18141 net.cpp:100] Creating Layer relu4a
I0418 04:24:28.913318 18141 net.cpp:434] relu4a <- conv4a
I0418 04:24:28.913329 18141 net.cpp:395] relu4a -> conv4a (in-place)
I0418 04:24:28.913640 18141 net.cpp:150] Setting up relu4a
I0418 04:24:28.913653 18141 net.cpp:157] Top shape: 1 512 192 14 14 (19267584)
I0418 04:24:28.913658 18141 net.cpp:165] Memory required for data: 9942074556
I0418 04:24:28.913664 18141 layer_factory.hpp:77] Creating layer conv4b
I0418 04:24:28.913683 18141 net.cpp:100] Creating Layer conv4b
I0418 04:24:28.913691 18141 net.cpp:434] conv4b <- conv4a
I0418 04:24:28.913703 18141 net.cpp:408] conv4b -> conv4b
I0418 04:24:29.099865 18141 net.cpp:150] Setting up conv4b
I0418 04:24:29.099889 18141 net.cpp:157] Top shape: 1 512 192 14 14 (19267584)
I0418 04:24:29.099895 18141 net.cpp:165] Memory required for data: 10019144892
I0418 04:24:29.099907 18141 layer_factory.hpp:77] Creating layer relu4b
I0418 04:24:29.099920 18141 net.cpp:100] Creating Layer relu4b
I0418 04:24:29.099927 18141 net.cpp:434] relu4b <- conv4b
I0418 04:24:29.099936 18141 net.cpp:395] relu4b -> conv4b (in-place)
I0418 04:24:29.100106 18141 net.cpp:150] Setting up relu4b
I0418 04:24:29.100118 18141 net.cpp:157] Top shape: 1 512 192 14 14 (19267584)
I0418 04:24:29.100123 18141 net.cpp:165] Memory required for data: 10096215228
I0418 04:24:29.100128 18141 layer_factory.hpp:77] Creating layer pool4
I0418 04:24:29.100138 18141 net.cpp:100] Creating Layer pool4
I0418 04:24:29.100144 18141 net.cpp:434] pool4 <- conv4b
I0418 04:24:29.100157 18141 net.cpp:408] pool4 -> pool4
I0418 04:24:29.100488 18141 net.cpp:150] Setting up pool4
I0418 04:24:29.100502 18141 net.cpp:157] Top shape: 1 512 96 7 7 (2408448)
I0418 04:24:29.100507 18141 net.cpp:165] Memory required for data: 10105849020
I0418 04:24:29.100512 18141 layer_factory.hpp:77] Creating layer conv5a
I0418 04:24:29.100528 18141 net.cpp:100] Creating Layer conv5a
I0418 04:24:29.100534 18141 net.cpp:434] conv5a <- pool4
I0418 04:24:29.100545 18141 net.cpp:408] conv5a -> conv5a
I0418 04:24:29.285167 18141 net.cpp:150] Setting up conv5a
I0418 04:24:29.285192 18141 net.cpp:157] Top shape: 1 512 96 7 7 (2408448)
I0418 04:24:29.285198 18141 net.cpp:165] Memory required for data: 10115482812
I0418 04:24:29.285209 18141 layer_factory.hpp:77] Creating layer relu5a
I0418 04:24:29.285221 18141 net.cpp:100] Creating Layer relu5a
I0418 04:24:29.285228 18141 net.cpp:434] relu5a <- conv5a
I0418 04:24:29.285239 18141 net.cpp:395] relu5a -> conv5a (in-place)
I0418 04:24:29.285665 18141 net.cpp:150] Setting up relu5a
I0418 04:24:29.285677 18141 net.cpp:157] Top shape: 1 512 96 7 7 (2408448)
I0418 04:24:29.285682 18141 net.cpp:165] Memory required for data: 10125116604
I0418 04:24:29.285688 18141 layer_factory.hpp:77] Creating layer conv5b
I0418 04:24:29.285706 18141 net.cpp:100] Creating Layer conv5b
I0418 04:24:29.285713 18141 net.cpp:434] conv5b <- conv5a
I0418 04:24:29.285725 18141 net.cpp:408] conv5b -> conv5b
I0418 04:24:29.471719 18141 net.cpp:150] Setting up conv5b
I0418 04:24:29.471745 18141 net.cpp:157] Top shape: 1 512 96 7 7 (2408448)
I0418 04:24:29.471750 18141 net.cpp:165] Memory required for data: 10134750396
I0418 04:24:29.471762 18141 layer_factory.hpp:77] Creating layer relu5b
I0418 04:24:29.471774 18141 net.cpp:100] Creating Layer relu5b
I0418 04:24:29.471781 18141 net.cpp:434] relu5b <- conv5b
I0418 04:24:29.471791 18141 net.cpp:395] relu5b -> conv5b (in-place)
I0418 04:24:29.471958 18141 net.cpp:150] Setting up relu5b
I0418 04:24:29.471971 18141 net.cpp:157] Top shape: 1 512 96 7 7 (2408448)
I0418 04:24:29.471976 18141 net.cpp:165] Memory required for data: 10144384188
I0418 04:24:29.471982 18141 layer_factory.hpp:77] Creating layer conv5b_relu5b_0_split
I0418 04:24:29.471989 18141 net.cpp:100] Creating Layer conv5b_relu5b_0_split
I0418 04:24:29.471995 18141 net.cpp:434] conv5b_relu5b_0_split <- conv5b
I0418 04:24:29.472005 18141 net.cpp:408] conv5b_relu5b_0_split -> conv5b_relu5b_0_split_0
I0418 04:24:29.472015 18141 net.cpp:408] conv5b_relu5b_0_split -> conv5b_relu5b_0_split_1
I0418 04:24:29.472060 18141 net.cpp:150] Setting up conv5b_relu5b_0_split
I0418 04:24:29.472070 18141 net.cpp:157] Top shape: 1 512 96 7 7 (2408448)
I0418 04:24:29.472077 18141 net.cpp:157] Top shape: 1 512 96 7 7 (2408448)
I0418 04:24:29.472082 18141 net.cpp:165] Memory required for data: 10163651772
I0418 04:24:29.472087 18141 layer_factory.hpp:77] Creating layer rpn_conv/3x3
I0418 04:24:29.472105 18141 net.cpp:100] Creating Layer rpn_conv/3x3
I0418 04:24:29.472113 18141 net.cpp:434] rpn_conv/3x3 <- conv5b_relu5b_0_split_0
I0418 04:24:29.472122 18141 net.cpp:408] rpn_conv/3x3 -> rpn/output
I0418 04:24:29.658460 18141 net.cpp:150] Setting up rpn_conv/3x3
I0418 04:24:29.658485 18141 net.cpp:157] Top shape: 1 512 96 4 4 (786432)
I0418 04:24:29.658490 18141 net.cpp:165] Memory required for data: 10166797500
I0418 04:24:29.658510 18141 layer_factory.hpp:77] Creating layer rpn_relu/3x3
I0418 04:24:29.658524 18141 net.cpp:100] Creating Layer rpn_relu/3x3
I0418 04:24:29.658530 18141 net.cpp:434] rpn_relu/3x3 <- rpn/output
I0418 04:24:29.658538 18141 net.cpp:395] rpn_relu/3x3 -> rpn/output (in-place)
I0418 04:24:29.658859 18141 net.cpp:150] Setting up rpn_relu/3x3
I0418 04:24:29.658872 18141 net.cpp:157] Top shape: 1 512 96 4 4 (786432)
I0418 04:24:29.658877 18141 net.cpp:165] Memory required for data: 10169943228
I0418 04:24:29.658884 18141 layer_factory.hpp:77] Creating layer rpn_conv/3x3_2
I0418 04:24:29.658901 18141 net.cpp:100] Creating Layer rpn_conv/3x3_2
I0418 04:24:29.658911 18141 net.cpp:434] rpn_conv/3x3_2 <- rpn/output
I0418 04:24:29.658922 18141 net.cpp:408] rpn_conv/3x3_2 -> rpn/output_2
I0418 04:24:29.843993 18141 net.cpp:150] Setting up rpn_conv/3x3_2
I0418 04:24:29.844018 18141 net.cpp:157] Top shape: 1 512 96 2 2 (196608)
I0418 04:24:29.844023 18141 net.cpp:165] Memory required for data: 10170729660
I0418 04:24:29.844035 18141 layer_factory.hpp:77] Creating layer rpn_relu/3x3_2
I0418 04:24:29.844050 18141 net.cpp:100] Creating Layer rpn_relu/3x3_2
I0418 04:24:29.844058 18141 net.cpp:434] rpn_relu/3x3_2 <- rpn/output_2
I0418 04:24:29.844067 18141 net.cpp:395] rpn_relu/3x3_2 -> rpn/output_2 (in-place)
I0418 04:24:29.844378 18141 net.cpp:150] Setting up rpn_relu/3x3_2
I0418 04:24:29.844391 18141 net.cpp:157] Top shape: 1 512 96 2 2 (196608)
I0418 04:24:29.844396 18141 net.cpp:165] Memory required for data: 10171516092
I0418 04:24:29.844403 18141 layer_factory.hpp:77] Creating layer rpn/output_pool
I0418 04:24:29.844415 18141 net.cpp:100] Creating Layer rpn/output_pool
I0418 04:24:29.844421 18141 net.cpp:434] rpn/output_pool <- rpn/output_2
I0418 04:24:29.844430 18141 net.cpp:408] rpn/output_pool -> rpn/output_pool
I0418 04:24:29.844661 18141 net.cpp:150] Setting up rpn/output_pool
I0418 04:24:29.844673 18141 net.cpp:157] Top shape: 1 512 96 1 1 (49152)
I0418 04:24:29.844676 18141 net.cpp:165] Memory required for data: 10171712700
I0418 04:24:29.844681 18141 layer_factory.hpp:77] Creating layer rpn/output_pool_rpn/output_pool_0_split
I0418 04:24:29.844686 18141 net.cpp:100] Creating Layer rpn/output_pool_rpn/output_pool_0_split
I0418 04:24:29.844689 18141 net.cpp:434] rpn/output_pool_rpn/output_pool_0_split <- rpn/output_pool
I0418 04:24:29.844696 18141 net.cpp:408] rpn/output_pool_rpn/output_pool_0_split -> rpn/output_pool_rpn/output_pool_0_split_0
I0418 04:24:29.844702 18141 net.cpp:408] rpn/output_pool_rpn/output_pool_0_split -> rpn/output_pool_rpn/output_pool_0_split_1
I0418 04:24:29.844732 18141 net.cpp:150] Setting up rpn/output_pool_rpn/output_pool_0_split
I0418 04:24:29.844740 18141 net.cpp:157] Top shape: 1 512 96 1 1 (49152)
I0418 04:24:29.844744 18141 net.cpp:157] Top shape: 1 512 96 1 1 (49152)
I0418 04:24:29.844748 18141 net.cpp:165] Memory required for data: 10172105916
I0418 04:24:29.844750 18141 layer_factory.hpp:77] Creating layer rpn_cls_score
I0418 04:24:29.844760 18141 net.cpp:100] Creating Layer rpn_cls_score
I0418 04:24:29.844764 18141 net.cpp:434] rpn_cls_score <- rpn/output_pool_rpn/output_pool_0_split_0
I0418 04:24:29.844770 18141 net.cpp:408] rpn_cls_score -> rpn_cls_score
I0418 04:24:29.846940 18141 net.cpp:150] Setting up rpn_cls_score
I0418 04:24:29.846953 18141 net.cpp:157] Top shape: 1 74 96 1 1 (7104)
I0418 04:24:29.846957 18141 net.cpp:165] Memory required for data: 10172134332
I0418 04:24:29.846963 18141 layer_factory.hpp:77] Creating layer rpn_cls_score_rpn_cls_score_0_split
I0418 04:24:29.846971 18141 net.cpp:100] Creating Layer rpn_cls_score_rpn_cls_score_0_split
I0418 04:24:29.846974 18141 net.cpp:434] rpn_cls_score_rpn_cls_score_0_split <- rpn_cls_score
I0418 04:24:29.846978 18141 net.cpp:408] rpn_cls_score_rpn_cls_score_0_split -> rpn_cls_score_rpn_cls_score_0_split_0
I0418 04:24:29.846984 18141 net.cpp:408] rpn_cls_score_rpn_cls_score_0_split -> rpn_cls_score_rpn_cls_score_0_split_1
I0418 04:24:29.847024 18141 net.cpp:150] Setting up rpn_cls_score_rpn_cls_score_0_split
I0418 04:24:29.847033 18141 net.cpp:157] Top shape: 1 74 96 1 1 (7104)
I0418 04:24:29.847035 18141 net.cpp:157] Top shape: 1 74 96 1 1 (7104)
I0418 04:24:29.847038 18141 net.cpp:165] Memory required for data: 10172191164
I0418 04:24:29.847041 18141 layer_factory.hpp:77] Creating layer rpn_twin_pred
I0418 04:24:29.847054 18141 net.cpp:100] Creating Layer rpn_twin_pred
I0418 04:24:29.847059 18141 net.cpp:434] rpn_twin_pred <- rpn/output_pool_rpn/output_pool_0_split_1
I0418 04:24:29.847064 18141 net.cpp:408] rpn_twin_pred -> rpn_twin_pred
I0418 04:24:29.849023 18141 net.cpp:150] Setting up rpn_twin_pred
I0418 04:24:29.849037 18141 net.cpp:157] Top shape: 1 74 96 1 1 (7104)
I0418 04:24:29.849040 18141 net.cpp:165] Memory required for data: 10172219580
I0418 04:24:29.849047 18141 layer_factory.hpp:77] Creating layer rpn_twin_pred_rpn_twin_pred_0_split
I0418 04:24:29.849052 18141 net.cpp:100] Creating Layer rpn_twin_pred_rpn_twin_pred_0_split
I0418 04:24:29.849056 18141 net.cpp:434] rpn_twin_pred_rpn_twin_pred_0_split <- rpn_twin_pred
I0418 04:24:29.849062 18141 net.cpp:408] rpn_twin_pred_rpn_twin_pred_0_split -> rpn_twin_pred_rpn_twin_pred_0_split_0
I0418 04:24:29.849069 18141 net.cpp:408] rpn_twin_pred_rpn_twin_pred_0_split -> rpn_twin_pred_rpn_twin_pred_0_split_1
I0418 04:24:29.849104 18141 net.cpp:150] Setting up rpn_twin_pred_rpn_twin_pred_0_split
I0418 04:24:29.849112 18141 net.cpp:157] Top shape: 1 74 96 1 1 (7104)
I0418 04:24:29.849115 18141 net.cpp:157] Top shape: 1 74 96 1 1 (7104)
I0418 04:24:29.849118 18141 net.cpp:165] Memory required for data: 10172276412
I0418 04:24:29.849123 18141 layer_factory.hpp:77] Creating layer rpn_cls_score_reshape
I0418 04:24:29.849133 18141 net.cpp:100] Creating Layer rpn_cls_score_reshape
I0418 04:24:29.849136 18141 net.cpp:434] rpn_cls_score_reshape <- rpn_cls_score_rpn_cls_score_0_split_0
I0418 04:24:29.849144 18141 net.cpp:408] rpn_cls_score_reshape -> rpn_cls_score_reshape
I0418 04:24:29.849171 18141 net.cpp:150] Setting up rpn_cls_score_reshape
I0418 04:24:29.849179 18141 net.cpp:157] Top shape: 1 2 3552 1 1 (7104)
I0418 04:24:29.849181 18141 net.cpp:165] Memory required for data: 10172304828
I0418 04:24:29.849185 18141 layer_factory.hpp:77] Creating layer rpn_cls_score_reshape_rpn_cls_score_reshape_0_split
I0418 04:24:29.849191 18141 net.cpp:100] Creating Layer rpn_cls_score_reshape_rpn_cls_score_reshape_0_split
I0418 04:24:29.849195 18141 net.cpp:434] rpn_cls_score_reshape_rpn_cls_score_reshape_0_split <- rpn_cls_score_reshape
I0418 04:24:29.849200 18141 net.cpp:408] rpn_cls_score_reshape_rpn_cls_score_reshape_0_split -> rpn_cls_score_reshape_rpn_cls_score_reshape_0_split_0
I0418 04:24:29.849208 18141 net.cpp:408] rpn_cls_score_reshape_rpn_cls_score_reshape_0_split -> rpn_cls_score_reshape_rpn_cls_score_reshape_0_split_1
I0418 04:24:29.849213 18141 net.cpp:408] rpn_cls_score_reshape_rpn_cls_score_reshape_0_split -> rpn_cls_score_reshape_rpn_cls_score_reshape_0_split_2
I0418 04:24:29.849252 18141 net.cpp:150] Setting up rpn_cls_score_reshape_rpn_cls_score_reshape_0_split
I0418 04:24:29.849263 18141 net.cpp:157] Top shape: 1 2 3552 1 1 (7104)
I0418 04:24:29.849267 18141 net.cpp:157] Top shape: 1 2 3552 1 1 (7104)
I0418 04:24:29.849272 18141 net.cpp:157] Top shape: 1 2 3552 1 1 (7104)
I0418 04:24:29.849273 18141 net.cpp:165] Memory required for data: 10172390076
I0418 04:24:29.849277 18141 layer_factory.hpp:77] Creating layer rpn-data
I0418 04:24:29.849680 18141 net.cpp:100] Creating Layer rpn-data
I0418 04:24:29.849694 18141 net.cpp:434] rpn-data <- rpn_cls_score_rpn_cls_score_0_split_1
I0418 04:24:29.849699 18141 net.cpp:434] rpn-data <- gt_boxes_data_1_split_0
I0418 04:24:29.849704 18141 net.cpp:434] rpn-data <- data_data_0_split_1
I0418 04:24:29.849709 18141 net.cpp:408] rpn-data -> rpn_labels
I0418 04:24:29.849715 18141 net.cpp:408] rpn-data -> rpn_twin_targets
I0418 04:24:29.849721 18141 net.cpp:408] rpn-data -> rpn_twin_inside_weights
I0418 04:24:29.849726 18141 net.cpp:408] rpn-data -> rpn_twin_outside_weights
I0418 04:24:29.852129 18141 net.cpp:150] Setting up rpn-data
I0418 04:24:29.852144 18141 net.cpp:157] Top shape: 1 1 3552 1 1 (3552)
I0418 04:24:29.852149 18141 net.cpp:157] Top shape: 1 74 96 1 1 (7104)
I0418 04:24:29.852154 18141 net.cpp:157] Top shape: 1 74 96 1 1 (7104)
I0418 04:24:29.852156 18141 net.cpp:157] Top shape: 1 74 96 1 1 (7104)
I0418 04:24:29.852159 18141 net.cpp:165] Memory required for data: 10172489532
I0418 04:24:29.852164 18141 layer_factory.hpp:77] Creating layer rpn_labels_rpn-data_0_split
I0418 04:24:29.852169 18141 net.cpp:100] Creating Layer rpn_labels_rpn-data_0_split
I0418 04:24:29.852174 18141 net.cpp:434] rpn_labels_rpn-data_0_split <- rpn_labels
I0418 04:24:29.852178 18141 net.cpp:408] rpn_labels_rpn-data_0_split -> rpn_labels_rpn-data_0_split_0
I0418 04:24:29.852185 18141 net.cpp:408] rpn_labels_rpn-data_0_split -> rpn_labels_rpn-data_0_split_1
I0418 04:24:29.852221 18141 net.cpp:150] Setting up rpn_labels_rpn-data_0_split
I0418 04:24:29.852226 18141 net.cpp:157] Top shape: 1 1 3552 1 1 (3552)
I0418 04:24:29.852229 18141 net.cpp:157] Top shape: 1 1 3552 1 1 (3552)
I0418 04:24:29.852232 18141 net.cpp:165] Memory required for data: 10172517948
I0418 04:24:29.852236 18141 layer_factory.hpp:77] Creating layer rpn_loss_cls
I0418 04:24:29.852244 18141 net.cpp:100] Creating Layer rpn_loss_cls
I0418 04:24:29.852248 18141 net.cpp:434] rpn_loss_cls <- rpn_cls_score_reshape_rpn_cls_score_reshape_0_split_0
I0418 04:24:29.852253 18141 net.cpp:434] rpn_loss_cls <- rpn_labels_rpn-data_0_split_0
…
I0418 04:24:29.852839 18141 layer_factory.hpp:77] Creating layer rpn_accuarcy
I0418 04:24:29.852849 18141 net.cpp:100] Creating Layer rpn_accuarcy
I0418 04:24:29.852852 18141 net.cpp:434] rpn_accuarcy <- rpn_cls_score_reshape_rpn_cls_score_reshape_0_split_1
I0418 04:24:29.852856 18141 net.cpp:434] rpn_accuarcy <- rpn_labels_rpn-data_0_split_1
I0418 04:24:29.852860 18141 net.cpp:408] rpn_accuarcy -> rpn_accuarcy
I0418 04:24:29.852866 18141 net.cpp:408] rpn_accuarcy -> rpn_accuarcy_class
I0418 04:24:29.852903 18141 net.cpp:150] Setting up rpn_accuarcy
I0418 04:24:29.852910 18141 net.cpp:157] Top shape: (1)
I0418 04:24:29.852913 18141 net.cpp:157] Top shape: 2 (2)
I0418 04:24:29.852917 18141 net.cpp:165] Memory required for data: 10172517968
I0418 04:24:29.852921 18141 layer_factory.hpp:77] Creating layer rpn_cls_prob
I0418 04:24:29.852924 18141 net.cpp:100] Creating Layer rpn_cls_prob
I0418 04:24:29.852929 18141 net.cpp:434] rpn_cls_prob <- rpn_cls_score_reshape_rpn_cls_score_reshape_0_split_2
I0418 04:24:29.852933 18141 net.cpp:408] rpn_cls_prob -> rpn_cls_prob
I0418 04:24:29.853129 18141 net.cpp:150] Setting up rpn_cls_prob
I0418 04:24:29.853140 18141 net.cpp:157] Top shape: 1 2 3552 1 1 (7104)
I0418 04:24:29.853143 18141 net.cpp:165] Memory required for data: 10172546384
I0418 04:24:29.853147 18141 layer_factory.hpp:77] Creating layer rpn_cls_prob_reshape
I0418 04:24:29.853153 18141 net.cpp:100] Creating Layer rpn_cls_prob_reshape
I0418 04:24:29.853157 18141 net.cpp:434] rpn_cls_prob_reshape <- rpn_cls_prob
I0418 04:24:29.853163 18141 net.cpp:408] rpn_cls_prob_reshape -> rpn_cls_prob_reshape
I0418 04:24:29.853186 18141 net.cpp:150] Setting up rpn_cls_prob_reshape
I0418 04:24:29.853194 18141 net.cpp:157] Top shape: 1 74 96 1 1 (7104)
I0418 04:24:29.853197 18141 net.cpp:165] Memory required for data: 10172574800
I0418 04:24:29.853200 18141 layer_factory.hpp:77] Creating layer proposal
I0418 04:24:29.853754 18141 net.cpp:100] Creating Layer proposal
I0418 04:24:29.853771 18141 net.cpp:434] proposal <- rpn_cls_prob_reshape
I0418 04:24:29.853780 18141 net.cpp:434] proposal <- rpn_twin_pred_rpn_twin_pred_0_split_1
I0418 04:24:29.853788 18141 net.cpp:408] proposal -> rpn_rois
I0418 04:24:29.856097 18141 net.cpp:150] Setting up proposal
I0418 04:24:29.856115 18141 net.cpp:157] Top shape: 1 3 (3)
I0418 04:24:29.856120 18141 net.cpp:165] Memory required for data: 10172574812
I0418 04:24:29.856124 18141 layer_factory.hpp:77] Creating layer roi-data
I0418 04:24:29.856256 18141 net.cpp:100] Creating Layer roi-data
I0418 04:24:29.856267 18141 net.cpp:434] roi-data <- rpn_rois
I0418 04:24:29.856272 18141 net.cpp:434] roi-data <- gt_boxes_data_1_split_1
I0418 04:24:29.856277 18141 net.cpp:408] roi-data -> rois
I0418 04:24:29.856284 18141 net.cpp:408] roi-data -> labels
I0418 04:24:29.856290 18141 net.cpp:408] roi-data -> twin_targets
I0418 04:24:29.856297 18141 net.cpp:408] roi-data -> twin_inside_weights
I0418 04:24:29.856302 18141 net.cpp:408] roi-data -> twin_outside_weights
I0418 04:24:29.856622 18141 net.cpp:150] Setting up roi-data
I0418 04:24:29.856637 18141 net.cpp:157] Top shape: 1 3 (3)
I0418 04:24:29.856642 18141 net.cpp:157] Top shape: 1 1 (1)
I0418 04:24:29.856645 18141 net.cpp:157] Top shape: 1 198 (198)
I0418 04:24:29.856648 18141 net.cpp:157] Top shape: 1 198 (198)
I0418 04:24:29.856652 18141 net.cpp:157] Top shape: 1 198 (198)
I0418 04:24:29.856655 18141 net.cpp:165] Memory required for data: 10172577204
I0418 04:24:29.856659 18141 layer_factory.hpp:77] Creating layer labels_roi-data_1_split
I0418 04:24:29.856664 18141 net.cpp:100] Creating Layer labels_roi-data_1_split
I0418 04:24:29.856668 18141 net.cpp:434] labels_roi-data_1_split <- labels
I0418 04:24:29.856674 18141 net.cpp:408] labels_roi-data_1_split -> labels_roi-data_1_split_0
I0418 04:24:29.856680 18141 net.cpp:408] labels_roi-data_1_split -> labels_roi-data_1_split_1
I0418 04:24:29.856711 18141 net.cpp:150] Setting up labels_roi-data_1_split
I0418 04:24:29.856719 18141 net.cpp:157] Top shape: 1 1 (1)
I0418 04:24:29.856722 18141 net.cpp:157] Top shape: 1 1 (1)
I0418 04:24:29.856725 18141 net.cpp:165] Memory required for data: 10172577212
I0418 04:24:29.856729 18141 layer_factory.hpp:77] Creating layer roi_pool5
I0418 04:24:29.856737 18141 net.cpp:100] Creating Layer roi_pool5
I0418 04:24:29.856745 18141 net.cpp:434] roi_pool5 <- conv5b_relu5b_0_split_1
I0418 04:24:29.856748 18141 net.cpp:434] roi_pool5 <- rois
I0418 04:24:29.856753 18141 net.cpp:408] roi_pool5 -> pool5
I0418 04:24:29.856760 18141 roi_pooling_layer.cpp:34] Temporal scale: 0.125
I0418 04:24:29.856765 18141 roi_pooling_layer.cpp:35] Spatial scale: 0.0625
I0418 04:24:29.856796 18141 net.cpp:150] Setting up roi_pool5
I0418 04:24:29.856804 18141 net.cpp:157] Top shape: 1 512 1 4 4 (8192)
I0418 04:24:29.856807 18141 net.cpp:165] Memory required for data: 10172609980
I0418 04:24:29.856811 18141 layer_factory.hpp:77] Creating layer fc6
I0418 04:24:29.856820 18141 net.cpp:100] Creating Layer fc6
I0418 04:24:29.856827 18141 net.cpp:434] fc6 <- pool5
I0418 04:24:29.856832 18141 net.cpp:408] fc6 -> fc6
I0418 04:24:30.730906 18141 net.cpp:150] Setting up fc6
I0418 04:24:30.730931 18141 net.cpp:157] Top shape: 1 4096 (4096)
I0418 04:24:30.730934 18141 net.cpp:165] Memory required for data: 10172626364
I0418 04:24:30.730943 18141 layer_factory.hpp:77] Creating layer relu6
I0418 04:24:30.730952 18141 net.cpp:100] Creating Layer relu6
I0418 04:24:30.730957 18141 net.cpp:434] relu6 <- fc6
I0418 04:24:30.730962 18141 net.cpp:395] relu6 -> fc6 (in-place)
I0418 04:24:30.731377 18141 net.cpp:150] Setting up relu6
I0418 04:24:30.731390 18141 net.cpp:157] Top shape: 1 4096 (4096)
I0418 04:24:30.731393 18141 net.cpp:165] Memory required for data: 10172642748
I0418 04:24:30.731397 18141 layer_factory.hpp:77] Creating layer drop6
I0418 04:24:30.731408 18141 net.cpp:100] Creating Layer drop6
I0418 04:24:30.731415 18141 net.cpp:434] drop6 <- fc6
I0418 04:24:30.731421 18141 net.cpp:395] drop6 -> fc6 (in-place)
I0418 04:24:30.731449 18141 net.cpp:150] Setting up drop6
I0418 04:24:30.731454 18141 net.cpp:157] Top shape: 1 4096 (4096)
I0418 04:24:30.731457 18141 net.cpp:165] Memory required for data: 10172659132
I0418 04:24:30.731462 18141 layer_factory.hpp:77] Creating layer fc6_drop6_0_split
I0418 04:24:30.731467 18141 net.cpp:100] Creating Layer fc6_drop6_0_split
I0418 04:24:30.731470 18141 net.cpp:434] fc6_drop6_0_split <- fc6
I0418 04:24:30.731474 18141 net.cpp:408] fc6_drop6_0_split -> fc6_drop6_0_split_0
I0418 04:24:30.731480 18141 net.cpp:408] fc6_drop6_0_split -> fc6_drop6_0_split_1
I0418 04:24:30.731518 18141 net.cpp:150] Setting up fc6_drop6_0_split
I0418 04:24:30.731525 18141 net.cpp:157] Top shape: 1 4096 (4096)
I0418 04:24:30.731529 18141 net.cpp:157] Top shape: 1 4096 (4096)
I0418 04:24:30.731532 18141 net.cpp:165] Memory required for data: 10172691900
I0418 04:24:30.731535 18141 layer_factory.hpp:77] Creating layer cls_score
I0418 04:24:30.731544 18141 net.cpp:100] Creating Layer cls_score
I0418 04:24:30.731547 18141 net.cpp:434] cls_score <- fc6_drop6_0_split_0
I0418 04:24:30.731552 18141 net.cpp:408] cls_score -> cls_score
I0418 04:24:31.789191 18141 net.cpp:150] Setting up cls_score
I0418 04:24:31.789213 18141 net.cpp:157] Top shape: 1 9900 (9900)
I0418 04:24:31.789217 18141 net.cpp:165] Memory required for data: 10172731500
I0418 04:24:31.789227 18141 layer_factory.hpp:77] Creating layer cls_score_cls_score_0_split
I0418 04:24:31.789237 18141 net.cpp:100] Creating Layer cls_score_cls_score_0_split
I0418 04:24:31.789240 18141 net.cpp:434] cls_score_cls_score_0_split <- cls_score
I0418 04:24:31.789247 18141 net.cpp:408] cls_score_cls_score_0_split -> cls_score_cls_score_0_split_0
I0418 04:24:31.789254 18141 net.cpp:408] cls_score_cls_score_0_split -> cls_score_cls_score_0_split_1
I0418 04:24:31.789289 18141 net.cpp:150] Setting up cls_score_cls_score_0_split
I0418 04:24:31.789296 18141 net.cpp:157] Top shape: 1 9900 (9900)
I0418 04:24:31.789300 18141 net.cpp:157] Top shape: 1 9900 (9900)
I0418 04:24:31.789304 18141 net.cpp:165] Memory required for data: 10172810700
I0418 04:24:31.789306 18141 layer_factory.hpp:77] Creating layer twin_pred
I0418 04:24:31.789314 18141 net.cpp:100] Creating Layer twin_pred
I0418 04:24:31.789319 18141 net.cpp:434] twin_pred <- fc6_drop6_0_split_1
I0418 04:24:31.789324 18141 net.cpp:408] twin_pred -> twin_pred
I0418 04:24:31.810523 18141 net.cpp:150] Setting up twin_pred
I0418 04:24:31.810539 18141 net.cpp:157] Top shape: 1 198 (198)
I0418 04:24:31.810542 18141 net.cpp:165] Memory required for data: 10172811492
I0418 04:24:31.810549 18141 layer_factory.hpp:77] Creating layer loss_cls
I0418 04:24:31.810562 18141 net.cpp:100] Creating Layer loss_cls
I0418 04:24:31.810567 18141 net.cpp:434] loss_cls <- cls_score_cls_score_0_split_0
I0418 04:24:31.810572 18141 net.cpp:434] loss_cls <- labels_roi-data_1_split_0
I0418 04:24:31.810578 18141 net.cpp:408] loss_cls -> loss_cls
…
