…
stepsize: 350000
snapshot: 0
snapshot_prefix: "./experiments/activitynet/snapshot/activitynet"
average_loss: 100
iter_size: 1
I0416 11:38:04.388875  8572 solver.cpp:81] Creating training net from train_net file: ./experiments/activitynet/train.prototxt
I0416 11:38:04.389398  8572 net.cpp:58] Initializing net from parameters: 
name: "activitynet"
state {
  phase: TRAIN
}
layer {
  name: "data"
  type: "Python"
  top: "data"
  top: "gt_boxes"
  python_param {
    module: "roi_data_layer.layer"
    layer: "RoIDataLayer"
    param_str: "\'num_classes\': 100"
  }
}
layer {
  name: "conv1a"
  type: "Convolution"
  bottom: "data"
  top: "conv1a"
  param {
    lr_mult: 0
    decay_mult: 0
  }
  param {
    lr_mult: 0
    decay_mult: 0
  }
  convolution_param {
    num_output: 64
    pad: 1
    pad: 1
    pad: 1
    kernel_size: 3
    kernel_size: 3
    kernel_size: 3
    weight_filler {
      type: "gaussian"
      std: 0.01
    }
    bias_filler {
      type: "constant"
      value: 0
    }
  }
}
layer {
  name: "relu1a"
  type: "ReLU"
  bottom: "conv1a"
  top: "conv1a"
}
layer {
  name: "pool1"
  type: "Pooling"
  bottom: "conv1a"
  top: "pool1"
  pooling_param {
    pool: MAX
    kernel_size: 1
    kernel_size: 2
    kernel_size: 2
    stride: 1
    stride: 2
    stride: 2
  }
}
layer {
  name: "conv2a"
  type: "Convolution"
  bottom: "pool1"
  top: "conv2a"
  param {
    lr_mult: 0
    decay_mult: 0
  }
  param {
    lr_mult: 0
    decay_mult: 0
  }
  convolution_param {
    num_output: 128
    pad: 1
    pad: 1
    pad: 1
    kernel_size: 3
    kernel_size: 3
    kernel_size: 3
    weight_filler {
      type: "gaussian"
      std: 0.01
    }
    bias_filler {
      type: "constant"
      value: 1
    }
  }
}
layer {
  name: "relu2a"
  type: "ReLU"
  bottom: "conv2a"
  top: "conv2a"
}
layer {
  name: "pool2"
  type: "Pooling"
  bottom: "conv2a"
  top: "pool2"
  pooling_param {
    pool: MAX
    kernel_size: 2
    kernel_size: 2
    kernel_size: 2
    stride: 2
    stride: 2
    stride: 2
  }
}
layer {
  name: "conv3a"
  type: "Convolution"
  bottom: "pool2"
  top: "conv3a"
  param {
    lr_mult: 1
    decay_mult: 1
  }
  param {
    lr_mult: 2
    decay_mult: 0
  }
  convolution_param {
    num_output: 256
    pad: 1
    pad: 1
    pad: 1
    kernel_size: 3
    kernel_size: 3
    kernel_size: 3
    weight_filler {
      type: "gaussian"
      std: 0.01
    }
    bias_filler {
      type: "constant"
      value: 1
    }
  }
}
layer {
  name: "relu3a"
  type: "ReLU"
  bottom: "conv3a"
  top: "conv3a"
}
layer {
  name: "conv3b"
  type: "Convolution"
  bottom: "conv3a"
  top: "conv3b"
  param {
    lr_mult: 1
    decay_mult: 1
  }
  param {
    lr_mult: 2
    decay_mult: 0
  }
  convolution_param {
    num_output: 256
    pad: 1
    pad: 1
    pad: 1
    kernel_size: 3
    kernel_size: 3
    kernel_size: 3
    weight_filler {
      type: "gaussian"
      std: 0.01
    }
    bias_filler {
      type: "constant"
      value: 1
    }
  }
}
layer {
  name: "relu3b"
  type: "ReLU"
  bottom: "conv3b"
  top: "conv3b"
}
layer {
  name: "pool3"
  type: "Pooling"
  bottom: "conv3b"
  top: "pool3"
  pooling_param {
    pool: MAX
    kernel_size: 2
    kernel_size: 2
    kernel_size: 2
    stride: 2
    stride: 2
    stride: 2
  }
}
layer {
  name: "conv4a"
  type: "Convolution"
  bottom: "pool3"
  top: "conv4a"
  param {
    lr_mult: 1
    decay_mult: 1
  }
  param {
    lr_mult: 2
    decay_mult: 0
  }
  convolution_param {
    num_output: 512
    pad: 1
    pad: 1
    pad: 1
    kernel_size: 3
    kernel_size: 3
    kernel_size: 3
    weight_filler {
      type: "gaussian"
      std: 0.01
    }
    bias_filler {
      type: "constant"
      value: 1
    }
  }
}
layer {
  name: "relu4a"
  type: "ReLU"
  bottom: "conv4a"
  top: "conv4a"
}
layer {
  name: "conv4b"
  type: "Convolution"
  bottom: "conv4a"
  top: "conv4b"
  param {
    lr_mult: 1
    decay_mult: 1
  }
  param {
    lr_mult: 2
    decay_mult: 0
  }
  convolution_param {
    num_output: 512
    pad: 1
    pad: 1
    pad: 1
    kernel_size: 3
    kernel_size: 3
    kernel_size: 3
    weight_filler {
      type: "gaussian"
      std: 0.01
    }
    bias_filler {
      type: "constant"
      value: 1
    }
  }
}
layer {
  name: "relu4b"
  type: "ReLU"
  bottom: "conv4b"
  top: "conv4b"
}
layer {
  name: "pool4"
  type: "Pooling"
  bottom: "conv4b"
  top: "pool4"
  pooling_param {
    pool: MAX
    kernel_size: 2
    kernel_size: 2
    kernel_size: 2
    stride: 2
    stride: 2
    stride: 2
  }
}
layer {
  name: "conv5a"
  type: "Convolution"
  bottom: "pool4"
  top: "conv5a"
  param {
    lr_mult: 1
    decay_mult: 1
  }
  param {
    lr_mult: 2
    decay_mult: 0
  }
  convolution_param {
    num_output: 512
    pad: 1
    pad: 1
    pad: 1
    kernel_size: 3
    kernel_size: 3
    kernel_size: 3
    weight_filler {
      type: "gaussian"
      std: 0.01
    }
    bias_filler {
      type: "constant"
      value: 1
    }
  }
}
layer {
  name: "relu5a"
  type: "ReLU"
  bottom: "conv5a"
  top: "conv5a"
}
layer {
  name: "conv5b"
  type: "Convolution"
  bottom: "conv5a"
  top: "conv5b"
  param {
    lr_mult: 1
    decay_mult: 1
  }
  param {
    lr_mult: 2
    decay_mult: 0
  }
  convolution_param {
    num_output: 512
    pad: 1
    pad: 1
    pad: 1
    kernel_size: 3
    kernel_size: 3
    kernel_size: 3
    weight_filler {
      type: "gaussian"
      std: 0.01
    }
    bias_filler {
      type: "constant"
      value: 1
    }
  }
}
layer {
  name: "relu5b"
  type: "ReLU"
  bottom: "conv5b"
  top: "conv5b"
}
layer {
  name: "rpn_conv/3x3"
  type: "Convolution"
  bottom: "conv5b"
  top: "rpn/output"
  param {
    lr_mult: 1
    decay_mult: 1
  }
  param {
    lr_mult: 2
    decay_mult: 0
  }
  convolution_param {
    num_output: 512
    pad: 1
    pad: 1
    pad: 1
    kernel_size: 3
    kernel_size: 3
    kernel_size: 3
    stride: 1
    stride: 2
    stride: 2
    weight_filler {
      type: "gaussian"
      std: 0.01
    }
    bias_filler {
      type: "constant"
      value: 0
    }
  }
}
layer {
  name: "rpn_relu/3x3"
  type: "ReLU"
  bottom: "rpn/output"
  top: "rpn/output"
}
layer {
  name: "rpn_conv/3x3_2"
  type: "Convolution"
  bottom: "rpn/output"
  top: "rpn/output_2"
  param {
    lr_mult: 1
    decay_mult: 1
  }
  param {
    lr_mult: 2
    decay_mult: 0
  }
  convolution_param {
    num_output: 512
    pad: 1
    pad: 1
    pad: 1
    kernel_size: 3
    kernel_size: 3
    kernel_size: 3
    stride: 1
    stride: 2
    stride: 2
    weight_filler {
      type: "gaussian"
      std: 0.01
    }
    bias_filler {
      type: "constant"
      value: 0
    }
  }
}
layer {
  name: "rpn_relu/3x3_2"
  type: "ReLU"
  bottom: "rpn/output_2"
  top: "rpn/output_2"
}
layer {
  name: "rpn/output_pool"
  type: "Pooling"
  bottom: "rpn/output_2"
  top: "rpn/output_pool"
  pooling_param {
    pool: MAX
    kernel_size: 1
    kernel_size: 2
    kernel_size: 2
  }
}
layer {
  name: "rpn_cls_score"
  type: "Convolution"
  bottom: "rpn/output_pool"
  top: "rpn_cls_score"
  param {
    lr_mult: 1
    decay_mult: 1
  }
  param {
    lr_mult: 2
    decay_mult: 0
  }
  convolution_param {
    num_output: 74
    kernel_size: 1
    kernel_size: 1
    kernel_size: 1
    weight_filler {
      type: "gaussian"
      std: 0.01
    }
    bias_filler {
      type: "constant"
      value: 0
    }
  }
}
layer {
  name: "rpn_twin_pred"
  type: "Convolution"
  bottom: "rpn/output_pool"
  top: "rpn_twin_pred"
  param {
    lr_mult: 1
    decay_mult: 1
  }
  param {
    lr_mult: 2
    decay_mult: 0
  }
  convolution_param {
    num_output: 74
    kernel_size: 1
    kernel_size: 1
    kernel_size: 1
    weight_filler {
      type: "gaussian"
      std: 0.01
    }
    bias_filler {
      type: "constant"
      value: 0
    }
  }
}
layer {
  name: "rpn_cls_score_reshape"
  type: "Reshape"
  bottom: "rpn_cls_score"
  top: "rpn_cls_score_reshape"
  reshape_param {
    shape {
      dim: 0
      dim: 2
      dim: -1
      dim: 0
      dim: 0
    }
  }
}
layer {
  name: "rpn-data"
  type: "Python"
  bottom: "rpn_cls_score"
  bottom: "gt_boxes"
  bottom: "data"
  top: "rpn_labels"
  top: "rpn_twin_targets"
  top: "rpn_twin_inside_weights"
  top: "rpn_twin_outside_weights"
  python_param {
    module: "rpn.anchor_target_layer"
    layer: "AnchorTargetLayer"
    param_str: "\'feat_stride\': 8 \n\'scales\': !!python/tuple [1,1.25, 1.5,1.75, 2,2.5, 3,3.5, 4,4.5, 5,5.5, 6,7, 8,9,10,11,12,14,16,18,20,22,24,28,32,36,40,44,52,60,68,76,84,92,100]"
  }
}
layer {
  name: "rpn_loss_cls"
  type: "SoftmaxWithLoss"
  bottom: "rpn_cls_score_reshape"
  bottom: "rpn_labels"
  top: "rpn_cls_loss"
  loss_weight: 1
  propagate_down: true
  propagate_down: false
  loss_param {
    ignore_label: -1
    normalize: true
  }
}
layer {
  name: "rpn_loss_twin"
  type: "SmoothL1Loss"
  bottom: "rpn_twin_pred"
  bottom: "rpn_twin_targets"
  bottom: "rpn_twin_inside_weights"
  bottom: "rpn_twin_outside_weights"
  top: "rpn_loss_twin"
  loss_weight: 1
  smooth_l1_loss_param {
    sigma: 3
  }
}
layer {
  name: "rpn_accuarcy"
  type: "Accuracy"
  bottom: "rpn_cls_score_reshape"
  bottom: "rpn_labels"
  top: "rpn_accuarcy"
  top: "rpn_accuarcy_class"
  propagate_down: false
  propagate_down: false
  accuracy_param {
    ignore_label: -1
  }
}
layer {
  name: "rpn_cls_prob"
  type: "Softmax"
  bottom: "rpn_cls_score_reshape"
  top: "rpn_cls_prob"
}
layer {
  name: "rpn_cls_prob_reshape"
  type: "Reshape"
  bottom: "rpn_cls_prob"
  top: "rpn_cls_prob_reshape"
  reshape_param {
    shape {
      dim: 0
      dim: 74
      dim: -1
      dim: 0
      dim: 0
    }
  }
}
layer {
  name: "proposal"
  type: "Python"
  bottom: "rpn_cls_prob_reshape"
  bottom: "rpn_twin_pred"
  top: "rpn_rois"
  include {
    phase: TRAIN
  }
  python_param {
    module: "rpn.proposal_layer"
    layer: "ProposalLayer"
    param_str: "\'feat_stride\': 8 \n\'scales\': !!python/tuple [1,1.25, 1.5,1.75, 2,2.5, 3,3.5, 4,4.5, 5,5.5, 6,7, 8,9,10,11,12,14,16,18,20,22,24,28,32,36,40,44,52,60,68,76,84,92,100]"
  }
}
layer {
  name: "roi-data"
  type: "Python"
  bottom: "rpn_rois"
  bottom: "gt_boxes"
  top: "rois"
  top: "labels"
  top: "twin_targets"
  top: "twin_inside_weights"
  top: "twin_outside_weights"
  python_param {
    module: "rpn.proposal_target_layer"
    layer: "ProposalTargetLayer"
    param_str: "\'num_classes\': 201"
  }
}
layer {
  name: "roi_pool5"
  type: "ROIPooling"
  bottom: "conv5b"
  bottom: "rois"
  top: "pool5"
  roi_pooling_param {
    pooled_h: 4
    pooled_w: 4
    spatial_scale: 0.0625
    pooled_l: 1
    temporal_scale: 0.125
  }
}
layer {
  name: "fc6"
  type: "InnerProduct"
  bottom: "pool5"
  top: "fc6"
  param {
    lr_mult: 1
    decay_mult: 1
  }
  param {
    lr_mult: 2
    decay_mult: 0
  }
  inner_product_param {
    num_output: 4096
    weight_filler {
      type: "gaussian"
      std: 0.005
    }
    bias_filler {
      type: "constant"
      value: 1
    }
  }
}
layer {
  name: "relu6"
  type: "ReLU"
  bottom: "fc6"
  top: "fc6"
}
layer {
  name: "drop6"
  type: "Dropout"
  bottom: "fc6"
  top: "fc6"
  dropout_param {
    dropout_ratio: 0.5
  }
}
layer {
  name: "cls_score"
  type: "InnerProduct"
  bottom: "fc6"
  top: "cls_score"
  param {
    lr_mult: 1
    decay_mult: 1
  }
  param {
    lr_mult: 2
    decay_mult: 0
  }
  inner_product_param {
    num_output: 201
    weight_filler {
      type: "gaussian"
      std: 0.01
    }
    bias_filler {
      type: "constant"
      value: 0
    }
  }
}
layer {
  name: "twin_pred"
  type: "InnerProduct"
  bottom: "fc6"
  top: "twin_pred"
  param {
    lr_mult: 1
    decay_mult: 1
  }
  param {
    lr_mult: 2
    decay_mult: 0
  }
  inner_product_param {
    num_output: 402
    weight_filler {
      type: "gaussian"
      std: 0.001
    }
    bias_filler {
      type: "constant"
      value: 0
    }
  }
}
layer {
  name: "loss_cls"
  type: "SoftmaxWithLoss"
  bottom: "cls_score"
  bottom: "labels"
  top: "loss_cls"
  loss_weight: 1
  propagate_down: true
  propagate_down: false
}
layer {
  name: "loss_twin"
  type: "SmoothL1Loss"
  bottom: "twin_pred"
  bottom: "twin_targets"
  bottom: "twin_inside_weights"
  bottom: "twin_outside_weights"
  top: "loss_twin"
  loss_weight: 1
}
layer {
  name: "accuarcy"
  type: "Accuracy"
  bottom: "cls_score"
  bottom: "labels"
  top: "accuarcy"
  propagate_down: false
  propagate_down: false
  accuracy_param {
    ignore_label: -1
  }
}
I0416 11:38:04.389585  8572 layer_factory.hpp:77] Creating layer data
I0416 11:38:04.400897  8572 net.cpp:100] Creating Layer data
I0416 11:38:04.400923  8572 net.cpp:408] data -> data
I0416 11:38:04.400933  8572 net.cpp:408] data -> gt_boxes
RoiDataLayer: name_to_top: {'gt_windows': 1, 'data': 0}
I0416 11:38:04.409502  8572 net.cpp:150] Setting up data
I0416 11:38:04.409523  8572 net.cpp:157] Top shape: 1 3 768 112 112 (28901376)
I0416 11:38:04.409529  8572 net.cpp:157] Top shape: 1 101 (101)
I0416 11:38:04.409533  8572 net.cpp:165] Memory required for data: 115605908
I0416 11:38:04.409538  8572 layer_factory.hpp:77] Creating layer data_data_0_split
I0416 11:38:04.409552  8572 net.cpp:100] Creating Layer data_data_0_split
I0416 11:38:04.409557  8572 net.cpp:434] data_data_0_split <- data
I0416 11:38:04.409564  8572 net.cpp:408] data_data_0_split -> data_data_0_split_0
I0416 11:38:04.409574  8572 net.cpp:408] data_data_0_split -> data_data_0_split_1
I0416 11:38:04.409615  8572 net.cpp:150] Setting up data_data_0_split
I0416 11:38:04.409622  8572 net.cpp:157] Top shape: 1 3 768 112 112 (28901376)
I0416 11:38:04.409627  8572 net.cpp:157] Top shape: 1 3 768 112 112 (28901376)
I0416 11:38:04.409631  8572 net.cpp:165] Memory required for data: 346816916
I0416 11:38:04.409634  8572 layer_factory.hpp:77] Creating layer gt_boxes_data_1_split
I0416 11:38:04.409641  8572 net.cpp:100] Creating Layer gt_boxes_data_1_split
I0416 11:38:04.409644  8572 net.cpp:434] gt_boxes_data_1_split <- gt_boxes
I0416 11:38:04.409651  8572 net.cpp:408] gt_boxes_data_1_split -> gt_boxes_data_1_split_0
I0416 11:38:04.409657  8572 net.cpp:408] gt_boxes_data_1_split -> gt_boxes_data_1_split_1
I0416 11:38:04.409693  8572 net.cpp:150] Setting up gt_boxes_data_1_split
I0416 11:38:04.409698  8572 net.cpp:157] Top shape: 1 101 (101)
I0416 11:38:04.409701  8572 net.cpp:157] Top shape: 1 101 (101)
I0416 11:38:04.409705  8572 net.cpp:165] Memory required for data: 346817724
I0416 11:38:04.409709  8572 layer_factory.hpp:77] Creating layer conv1a
I0416 11:38:04.409720  8572 net.cpp:100] Creating Layer conv1a
I0416 11:38:04.409725  8572 net.cpp:434] conv1a <- data_data_0_split_0
I0416 11:38:04.409730  8572 net.cpp:408] conv1a -> conv1a
I0416 11:38:04.427232  8572 net.cpp:150] Setting up conv1a
I0416 11:38:04.427268  8572 net.cpp:157] Top shape: 1 64 768 112 112 (616562688)
I0416 11:38:04.427271  8572 net.cpp:165] Memory required for data: 2813068476
I0416 11:38:04.427287  8572 layer_factory.hpp:77] Creating layer relu1a
I0416 11:38:04.427302  8572 net.cpp:100] Creating Layer relu1a
I0416 11:38:04.427309  8572 net.cpp:434] relu1a <- conv1a
I0416 11:38:04.427314  8572 net.cpp:395] relu1a -> conv1a (in-place)
I0416 11:38:04.427325  8572 net.cpp:150] Setting up relu1a
I0416 11:38:04.427330  8572 net.cpp:157] Top shape: 1 64 768 112 112 (616562688)
I0416 11:38:04.427332  8572 net.cpp:165] Memory required for data: 5279319228
I0416 11:38:04.427336  8572 layer_factory.hpp:77] Creating layer pool1
I0416 11:38:04.427345  8572 net.cpp:100] Creating Layer pool1
I0416 11:38:04.427348  8572 net.cpp:434] pool1 <- conv1a
I0416 11:38:04.427353  8572 net.cpp:408] pool1 -> pool1
I0416 11:38:04.427448  8572 net.cpp:150] Setting up pool1
I0416 11:38:04.427454  8572 net.cpp:157] Top shape: 1 64 768 56 56 (154140672)
I0416 11:38:04.427458  8572 net.cpp:165] Memory required for data: 5895881916
I0416 11:38:04.427460  8572 layer_factory.hpp:77] Creating layer conv2a
I0416 11:38:04.427470  8572 net.cpp:100] Creating Layer conv2a
I0416 11:38:04.427474  8572 net.cpp:434] conv2a <- pool1
I0416 11:38:04.427481  8572 net.cpp:408] conv2a -> conv2a
I0416 11:38:04.434505  8572 net.cpp:150] Setting up conv2a
I0416 11:38:04.434532  8572 net.cpp:157] Top shape: 1 128 768 56 56 (308281344)
I0416 11:38:04.434535  8572 net.cpp:165] Memory required for data: 7129007292
I0416 11:38:04.434551  8572 layer_factory.hpp:77] Creating layer relu2a
I0416 11:38:04.434564  8572 net.cpp:100] Creating Layer relu2a
I0416 11:38:04.434571  8572 net.cpp:434] relu2a <- conv2a
I0416 11:38:04.434579  8572 net.cpp:395] relu2a -> conv2a (in-place)
I0416 11:38:04.434592  8572 net.cpp:150] Setting up relu2a
I0416 11:38:04.434600  8572 net.cpp:157] Top shape: 1 128 768 56 56 (308281344)
I0416 11:38:04.434604  8572 net.cpp:165] Memory required for data: 8362132668
I0416 11:38:04.434610  8572 layer_factory.hpp:77] Creating layer pool2
I0416 11:38:04.434623  8572 net.cpp:100] Creating Layer pool2
I0416 11:38:04.434628  8572 net.cpp:434] pool2 <- conv2a
I0416 11:38:04.434636  8572 net.cpp:408] pool2 -> pool2
I0416 11:38:04.434720  8572 net.cpp:150] Setting up pool2
I0416 11:38:04.434726  8572 net.cpp:157] Top shape: 1 128 384 28 28 (38535168)
I0416 11:38:04.434729  8572 net.cpp:165] Memory required for data: 8516273340
I0416 11:38:04.434732  8572 layer_factory.hpp:77] Creating layer conv3a
I0416 11:38:04.434742  8572 net.cpp:100] Creating Layer conv3a
I0416 11:38:04.434748  8572 net.cpp:434] conv3a <- pool2
I0416 11:38:04.434761  8572 net.cpp:408] conv3a -> conv3a
I0416 11:38:04.442800  8572 net.cpp:150] Setting up conv3a
I0416 11:38:04.442813  8572 net.cpp:157] Top shape: 1 256 384 28 28 (77070336)
I0416 11:38:04.442816  8572 net.cpp:165] Memory required for data: 8824554684
I0416 11:38:04.442827  8572 layer_factory.hpp:77] Creating layer relu3a
I0416 11:38:04.442839  8572 net.cpp:100] Creating Layer relu3a
I0416 11:38:04.442845  8572 net.cpp:434] relu3a <- conv3a
I0416 11:38:04.442853  8572 net.cpp:395] relu3a -> conv3a (in-place)
I0416 11:38:04.442863  8572 net.cpp:150] Setting up relu3a
I0416 11:38:04.442873  8572 net.cpp:157] Top shape: 1 256 384 28 28 (77070336)
I0416 11:38:04.442878  8572 net.cpp:165] Memory required for data: 9132836028
I0416 11:38:04.442883  8572 layer_factory.hpp:77] Creating layer conv3b
I0416 11:38:04.442896  8572 net.cpp:100] Creating Layer conv3b
I0416 11:38:04.442903  8572 net.cpp:434] conv3b <- conv3a
I0416 11:38:04.442911  8572 net.cpp:408] conv3b -> conv3b
I0416 11:38:04.459009  8572 net.cpp:150] Setting up conv3b
I0416 11:38:04.459035  8572 net.cpp:157] Top shape: 1 256 384 28 28 (77070336)
I0416 11:38:04.459038  8572 net.cpp:165] Memory required for data: 9441117372
I0416 11:38:04.459049  8572 layer_factory.hpp:77] Creating layer relu3b
I0416 11:38:04.459062  8572 net.cpp:100] Creating Layer relu3b
I0416 11:38:04.459070  8572 net.cpp:434] relu3b <- conv3b
I0416 11:38:04.459079  8572 net.cpp:395] relu3b -> conv3b (in-place)
I0416 11:38:04.459091  8572 net.cpp:150] Setting up relu3b
I0416 11:38:04.459098  8572 net.cpp:157] Top shape: 1 256 384 28 28 (77070336)
I0416 11:38:04.459102  8572 net.cpp:165] Memory required for data: 9749398716
I0416 11:38:04.459107  8572 layer_factory.hpp:77] Creating layer pool3
I0416 11:38:04.459118  8572 net.cpp:100] Creating Layer pool3
I0416 11:38:04.459125  8572 net.cpp:434] pool3 <- conv3b
I0416 11:38:04.459132  8572 net.cpp:408] pool3 -> pool3
I0416 11:38:04.459192  8572 net.cpp:150] Setting up pool3
I0416 11:38:04.459200  8572 net.cpp:157] Top shape: 1 256 192 14 14 (9633792)
I0416 11:38:04.459203  8572 net.cpp:165] Memory required for data: 9787933884
I0416 11:38:04.459206  8572 layer_factory.hpp:77] Creating layer conv4a
I0416 11:38:04.459218  8572 net.cpp:100] Creating Layer conv4a
I0416 11:38:04.459223  8572 net.cpp:434] conv4a <- pool3
I0416 11:38:04.459231  8572 net.cpp:408] conv4a -> conv4a
I0416 11:38:04.490839  8572 net.cpp:150] Setting up conv4a
I0416 11:38:04.490864  8572 net.cpp:157] Top shape: 1 512 192 14 14 (19267584)
I0416 11:38:04.490869  8572 net.cpp:165] Memory required for data: 9865004220
I0416 11:38:04.490888  8572 layer_factory.hpp:77] Creating layer relu4a
I0416 11:38:04.490901  8572 net.cpp:100] Creating Layer relu4a
I0416 11:38:04.490908  8572 net.cpp:434] relu4a <- conv4a
I0416 11:38:04.490916  8572 net.cpp:395] relu4a -> conv4a (in-place)
I0416 11:38:04.490928  8572 net.cpp:150] Setting up relu4a
I0416 11:38:04.490936  8572 net.cpp:157] Top shape: 1 512 192 14 14 (19267584)
I0416 11:38:04.490938  8572 net.cpp:165] Memory required for data: 9942074556
I0416 11:38:04.490942  8572 layer_factory.hpp:77] Creating layer conv4b
I0416 11:38:04.490959  8572 net.cpp:100] Creating Layer conv4b
I0416 11:38:04.490967  8572 net.cpp:434] conv4b <- conv4a
I0416 11:38:04.490973  8572 net.cpp:408] conv4b -> conv4b
I0416 11:38:04.548996  8572 net.cpp:150] Setting up conv4b
I0416 11:38:04.549026  8572 net.cpp:157] Top shape: 1 512 192 14 14 (19267584)
I0416 11:38:04.549028  8572 net.cpp:165] Memory required for data: 10019144892
I0416 11:38:04.549036  8572 layer_factory.hpp:77] Creating layer relu4b
I0416 11:38:04.549047  8572 net.cpp:100] Creating Layer relu4b
I0416 11:38:04.549053  8572 net.cpp:434] relu4b <- conv4b
I0416 11:38:04.549062  8572 net.cpp:395] relu4b -> conv4b (in-place)
I0416 11:38:04.549077  8572 net.cpp:150] Setting up relu4b
I0416 11:38:04.549084  8572 net.cpp:157] Top shape: 1 512 192 14 14 (19267584)
I0416 11:38:04.549089  8572 net.cpp:165] Memory required for data: 10096215228
I0416 11:38:04.549093  8572 layer_factory.hpp:77] Creating layer pool4
I0416 11:38:04.549101  8572 net.cpp:100] Creating Layer pool4
I0416 11:38:04.549108  8572 net.cpp:434] pool4 <- conv4b
I0416 11:38:04.549114  8572 net.cpp:408] pool4 -> pool4
I0416 11:38:04.549177  8572 net.cpp:150] Setting up pool4
I0416 11:38:04.549187  8572 net.cpp:157] Top shape: 1 512 96 7 7 (2408448)
I0416 11:38:04.549190  8572 net.cpp:165] Memory required for data: 10105849020
I0416 11:38:04.549194  8572 layer_factory.hpp:77] Creating layer conv5a
I0416 11:38:04.549206  8572 net.cpp:100] Creating Layer conv5a
I0416 11:38:04.549213  8572 net.cpp:434] conv5a <- pool4
I0416 11:38:04.549219  8572 net.cpp:408] conv5a -> conv5a
I0416 11:38:04.607704  8572 net.cpp:150] Setting up conv5a
I0416 11:38:04.607735  8572 net.cpp:157] Top shape: 1 512 96 7 7 (2408448)
I0416 11:38:04.607739  8572 net.cpp:165] Memory required for data: 10115482812
I0416 11:38:04.607749  8572 layer_factory.hpp:77] Creating layer relu5a
I0416 11:38:04.607761  8572 net.cpp:100] Creating Layer relu5a
I0416 11:38:04.607767  8572 net.cpp:434] relu5a <- conv5a
I0416 11:38:04.607774  8572 net.cpp:395] relu5a -> conv5a (in-place)
I0416 11:38:04.607785  8572 net.cpp:150] Setting up relu5a
I0416 11:38:04.607791  8572 net.cpp:157] Top shape: 1 512 96 7 7 (2408448)
I0416 11:38:04.607795  8572 net.cpp:165] Memory required for data: 10125116604
I0416 11:38:04.607800  8572 layer_factory.hpp:77] Creating layer conv5b
I0416 11:38:04.607813  8572 net.cpp:100] Creating Layer conv5b
I0416 11:38:04.607836  8572 net.cpp:434] conv5b <- conv5a
I0416 11:38:04.607857  8572 net.cpp:408] conv5b -> conv5b
I0416 11:38:04.666188  8572 net.cpp:150] Setting up conv5b
I0416 11:38:04.666218  8572 net.cpp:157] Top shape: 1 512 96 7 7 (2408448)
I0416 11:38:04.666223  8572 net.cpp:165] Memory required for data: 10134750396
I0416 11:38:04.666234  8572 layer_factory.hpp:77] Creating layer relu5b
I0416 11:38:04.666245  8572 net.cpp:100] Creating Layer relu5b
I0416 11:38:04.666250  8572 net.cpp:434] relu5b <- conv5b
I0416 11:38:04.666261  8572 net.cpp:395] relu5b -> conv5b (in-place)
I0416 11:38:04.666272  8572 net.cpp:150] Setting up relu5b
I0416 11:38:04.666278  8572 net.cpp:157] Top shape: 1 512 96 7 7 (2408448)
I0416 11:38:04.666282  8572 net.cpp:165] Memory required for data: 10144384188
I0416 11:38:04.666287  8572 layer_factory.hpp:77] Creating layer conv5b_relu5b_0_split
I0416 11:38:04.666294  8572 net.cpp:100] Creating Layer conv5b_relu5b_0_split
I0416 11:38:04.666298  8572 net.cpp:434] conv5b_relu5b_0_split <- conv5b
I0416 11:38:04.666307  8572 net.cpp:408] conv5b_relu5b_0_split -> conv5b_relu5b_0_split_0
I0416 11:38:04.666317  8572 net.cpp:408] conv5b_relu5b_0_split -> conv5b_relu5b_0_split_1
I0416 11:38:04.666393  8572 net.cpp:150] Setting up conv5b_relu5b_0_split
I0416 11:38:04.666417  8572 net.cpp:157] Top shape: 1 512 96 7 7 (2408448)
I0416 11:38:04.666435  8572 net.cpp:157] Top shape: 1 512 96 7 7 (2408448)
I0416 11:38:04.666465  8572 net.cpp:165] Memory required for data: 10163651772
I0416 11:38:04.666472  8572 layer_factory.hpp:77] Creating layer rpn_conv/3x3
I0416 11:38:04.666487  8572 net.cpp:100] Creating Layer rpn_conv/3x3
I0416 11:38:04.666502  8572 net.cpp:434] rpn_conv/3x3 <- conv5b_relu5b_0_split_0
I0416 11:38:04.666524  8572 net.cpp:408] rpn_conv/3x3 -> rpn/output
I0416 11:38:04.726459  8572 net.cpp:150] Setting up rpn_conv/3x3
I0416 11:38:04.726483  8572 net.cpp:157] Top shape: 1 512 96 4 4 (786432)
I0416 11:38:04.726486  8572 net.cpp:165] Memory required for data: 10166797500
I0416 11:38:04.726503  8572 layer_factory.hpp:77] Creating layer rpn_relu/3x3
I0416 11:38:04.726516  8572 net.cpp:100] Creating Layer rpn_relu/3x3
I0416 11:38:04.726536  8572 net.cpp:434] rpn_relu/3x3 <- rpn/output
I0416 11:38:04.726544  8572 net.cpp:395] rpn_relu/3x3 -> rpn/output (in-place)
I0416 11:38:04.726557  8572 net.cpp:150] Setting up rpn_relu/3x3
I0416 11:38:04.726563  8572 net.cpp:157] Top shape: 1 512 96 4 4 (786432)
I0416 11:38:04.726567  8572 net.cpp:165] Memory required for data: 10169943228
I0416 11:38:04.726573  8572 layer_factory.hpp:77] Creating layer rpn_conv/3x3_2
I0416 11:38:04.726588  8572 net.cpp:100] Creating Layer rpn_conv/3x3_2
I0416 11:38:04.726594  8572 net.cpp:434] rpn_conv/3x3_2 <- rpn/output
I0416 11:38:04.726603  8572 net.cpp:408] rpn_conv/3x3_2 -> rpn/output_2
I0416 11:38:04.784706  8572 net.cpp:150] Setting up rpn_conv/3x3_2
I0416 11:38:04.784737  8572 net.cpp:157] Top shape: 1 512 96 2 2 (196608)
I0416 11:38:04.784741  8572 net.cpp:165] Memory required for data: 10170729660
I0416 11:38:04.784752  8572 layer_factory.hpp:77] Creating layer rpn_relu/3x3_2
I0416 11:38:04.784765  8572 net.cpp:100] Creating Layer rpn_relu/3x3_2
I0416 11:38:04.784770  8572 net.cpp:434] rpn_relu/3x3_2 <- rpn/output_2
I0416 11:38:04.784780  8572 net.cpp:395] rpn_relu/3x3_2 -> rpn/output_2 (in-place)
I0416 11:38:04.784791  8572 net.cpp:150] Setting up rpn_relu/3x3_2
I0416 11:38:04.784797  8572 net.cpp:157] Top shape: 1 512 96 2 2 (196608)
I0416 11:38:04.784802  8572 net.cpp:165] Memory required for data: 10171516092
I0416 11:38:04.784806  8572 layer_factory.hpp:77] Creating layer rpn/output_pool
I0416 11:38:04.784814  8572 net.cpp:100] Creating Layer rpn/output_pool
I0416 11:38:04.784818  8572 net.cpp:434] rpn/output_pool <- rpn/output_2
I0416 11:38:04.784826  8572 net.cpp:408] rpn/output_pool -> rpn/output_pool
I0416 11:38:04.784888  8572 net.cpp:150] Setting up rpn/output_pool
I0416 11:38:04.784914  8572 net.cpp:157] Top shape: 1 512 96 1 1 (49152)
I0416 11:38:04.784950  8572 net.cpp:165] Memory required for data: 10171712700
I0416 11:38:04.784967  8572 layer_factory.hpp:77] Creating layer rpn/output_pool_rpn/output_pool_0_split
I0416 11:38:04.784987  8572 net.cpp:100] Creating Layer rpn/output_pool_rpn/output_pool_0_split
I0416 11:38:04.785003  8572 net.cpp:434] rpn/output_pool_rpn/output_pool_0_split <- rpn/output_pool
I0416 11:38:04.785022  8572 net.cpp:408] rpn/output_pool_rpn/output_pool_0_split -> rpn/output_pool_rpn/output_pool_0_split_0
I0416 11:38:04.785043  8572 net.cpp:408] rpn/output_pool_rpn/output_pool_0_split -> rpn/output_pool_rpn/output_pool_0_split_1
I0416 11:38:04.785105  8572 net.cpp:150] Setting up rpn/output_pool_rpn/output_pool_0_split
I0416 11:38:04.785115  8572 net.cpp:157] Top shape: 1 512 96 1 1 (49152)
I0416 11:38:04.785120  8572 net.cpp:157] Top shape: 1 512 96 1 1 (49152)
I0416 11:38:04.785125  8572 net.cpp:165] Memory required for data: 10172105916
I0416 11:38:04.785130  8572 layer_factory.hpp:77] Creating layer rpn_cls_score
I0416 11:38:04.785141  8572 net.cpp:100] Creating Layer rpn_cls_score
I0416 11:38:04.785145  8572 net.cpp:434] rpn_cls_score <- rpn/output_pool_rpn/output_pool_0_split_0
I0416 11:38:04.785153  8572 net.cpp:408] rpn_cls_score -> rpn_cls_score
I0416 11:38:04.785722  8572 net.cpp:150] Setting up rpn_cls_score
I0416 11:38:04.785732  8572 net.cpp:157] Top shape: 1 74 96 1 1 (7104)
I0416 11:38:04.785737  8572 net.cpp:165] Memory required for data: 10172134332
I0416 11:38:04.785743  8572 layer_factory.hpp:77] Creating layer rpn_cls_score_rpn_cls_score_0_split
I0416 11:38:04.785753  8572 net.cpp:100] Creating Layer rpn_cls_score_rpn_cls_score_0_split
I0416 11:38:04.785758  8572 net.cpp:434] rpn_cls_score_rpn_cls_score_0_split <- rpn_cls_score
I0416 11:38:04.785763  8572 net.cpp:408] rpn_cls_score_rpn_cls_score_0_split -> rpn_cls_score_rpn_cls_score_0_split_0
I0416 11:38:04.785771  8572 net.cpp:408] rpn_cls_score_rpn_cls_score_0_split -> rpn_cls_score_rpn_cls_score_0_split_1
I0416 11:38:04.785833  8572 net.cpp:150] Setting up rpn_cls_score_rpn_cls_score_0_split
I0416 11:38:04.785842  8572 net.cpp:157] Top shape: 1 74 96 1 1 (7104)
I0416 11:38:04.785847  8572 net.cpp:157] Top shape: 1 74 96 1 1 (7104)
I0416 11:38:04.785851  8572 net.cpp:165] Memory required for data: 10172191164
I0416 11:38:04.785856  8572 layer_factory.hpp:77] Creating layer rpn_twin_pred
I0416 11:38:04.785874  8572 net.cpp:100] Creating Layer rpn_twin_pred
I0416 11:38:04.785892  8572 net.cpp:434] rpn_twin_pred <- rpn/output_pool_rpn/output_pool_0_split_1
I0416 11:38:04.785913  8572 net.cpp:408] rpn_twin_pred -> rpn_twin_pred
I0416 11:38:04.786483  8572 net.cpp:150] Setting up rpn_twin_pred
I0416 11:38:04.786495  8572 net.cpp:157] Top shape: 1 74 96 1 1 (7104)
I0416 11:38:04.786499  8572 net.cpp:165] Memory required for data: 10172219580
I0416 11:38:04.786507  8572 layer_factory.hpp:77] Creating layer rpn_twin_pred_rpn_twin_pred_0_split
I0416 11:38:04.786517  8572 net.cpp:100] Creating Layer rpn_twin_pred_rpn_twin_pred_0_split
I0416 11:38:04.786522  8572 net.cpp:434] rpn_twin_pred_rpn_twin_pred_0_split <- rpn_twin_pred
I0416 11:38:04.786528  8572 net.cpp:408] rpn_twin_pred_rpn_twin_pred_0_split -> rpn_twin_pred_rpn_twin_pred_0_split_0
I0416 11:38:04.786537  8572 net.cpp:408] rpn_twin_pred_rpn_twin_pred_0_split -> rpn_twin_pred_rpn_twin_pred_0_split_1
I0416 11:38:04.786588  8572 net.cpp:150] Setting up rpn_twin_pred_rpn_twin_pred_0_split
I0416 11:38:04.786597  8572 net.cpp:157] Top shape: 1 74 96 1 1 (7104)
I0416 11:38:04.786603  8572 net.cpp:157] Top shape: 1 74 96 1 1 (7104)
I0416 11:38:04.786607  8572 net.cpp:165] Memory required for data: 10172276412
I0416 11:38:04.786612  8572 layer_factory.hpp:77] Creating layer rpn_cls_score_reshape
I0416 11:38:04.786622  8572 net.cpp:100] Creating Layer rpn_cls_score_reshape
I0416 11:38:04.786625  8572 net.cpp:434] rpn_cls_score_reshape <- rpn_cls_score_rpn_cls_score_0_split_0
I0416 11:38:04.786633  8572 net.cpp:408] rpn_cls_score_reshape -> rpn_cls_score_reshape
I0416 11:38:04.786669  8572 net.cpp:150] Setting up rpn_cls_score_reshape
I0416 11:38:04.786675  8572 net.cpp:157] Top shape: 1 2 3552 1 1 (7104)
I0416 11:38:04.786679  8572 net.cpp:165] Memory required for data: 10172304828
I0416 11:38:04.786684  8572 layer_factory.hpp:77] Creating layer rpn_cls_score_reshape_rpn_cls_score_reshape_0_split
I0416 11:38:04.786690  8572 net.cpp:100] Creating Layer rpn_cls_score_reshape_rpn_cls_score_reshape_0_split
I0416 11:38:04.786695  8572 net.cpp:434] rpn_cls_score_reshape_rpn_cls_score_reshape_0_split <- rpn_cls_score_reshape
I0416 11:38:04.786703  8572 net.cpp:408] rpn_cls_score_reshape_rpn_cls_score_reshape_0_split -> rpn_cls_score_reshape_rpn_cls_score_reshape_0_split_0
I0416 11:38:04.786720  8572 net.cpp:408] rpn_cls_score_reshape_rpn_cls_score_reshape_0_split -> rpn_cls_score_reshape_rpn_cls_score_reshape_0_split_1
I0416 11:38:04.786728  8572 net.cpp:408] rpn_cls_score_reshape_rpn_cls_score_reshape_0_split -> rpn_cls_score_reshape_rpn_cls_score_reshape_0_split_2
I0416 11:38:04.786784  8572 net.cpp:150] Setting up rpn_cls_score_reshape_rpn_cls_score_reshape_0_split
I0416 11:38:04.786792  8572 net.cpp:157] Top shape: 1 2 3552 1 1 (7104)
I0416 11:38:04.786798  8572 net.cpp:157] Top shape: 1 2 3552 1 1 (7104)
I0416 11:38:04.786803  8572 net.cpp:157] Top shape: 1 2 3552 1 1 (7104)
I0416 11:38:04.786808  8572 net.cpp:165] Memory required for data: 10172390076
I0416 11:38:04.786813  8572 layer_factory.hpp:77] Creating layer rpn-data
I0416 11:38:04.787181  8572 net.cpp:100] Creating Layer rpn-data
I0416 11:38:04.787192  8572 net.cpp:434] rpn-data <- rpn_cls_score_rpn_cls_score_0_split_1
I0416 11:38:04.787199  8572 net.cpp:434] rpn-data <- gt_boxes_data_1_split_0
I0416 11:38:04.787205  8572 net.cpp:434] rpn-data <- data_data_0_split_1
I0416 11:38:04.787214  8572 net.cpp:408] rpn-data -> rpn_labels
I0416 11:38:04.787225  8572 net.cpp:408] rpn-data -> rpn_twin_targets
I0416 11:38:04.787233  8572 net.cpp:408] rpn-data -> rpn_twin_inside_weights
I0416 11:38:04.787242  8572 net.cpp:408] rpn-data -> rpn_twin_outside_weights
I0416 11:38:04.789813  8572 net.cpp:150] Setting up rpn-data
I0416 11:38:04.789827  8572 net.cpp:157] Top shape: 1 1 3552 1 1 (3552)
I0416 11:38:04.789834  8572 net.cpp:157] Top shape: 1 74 96 1 1 (7104)
I0416 11:38:04.789839  8572 net.cpp:157] Top shape: 1 74 96 1 1 (7104)
I0416 11:38:04.789844  8572 net.cpp:157] Top shape: 1 74 96 1 1 (7104)
I0416 11:38:04.789847  8572 net.cpp:165] Memory required for data: 10172489532
I0416 11:38:04.789852  8572 layer_factory.hpp:77] Creating layer rpn_labels_rpn-data_0_split
I0416 11:38:04.789860  8572 net.cpp:100] Creating Layer rpn_labels_rpn-data_0_split
I0416 11:38:04.789865  8572 net.cpp:434] rpn_labels_rpn-data_0_split <- rpn_labels
I0416 11:38:04.789872  8572 net.cpp:408] rpn_labels_rpn-data_0_split -> rpn_labels_rpn-data_0_split_0
I0416 11:38:04.789881  8572 net.cpp:408] rpn_labels_rpn-data_0_split -> rpn_labels_rpn-data_0_split_1
I0416 11:38:04.789935  8572 net.cpp:150] Setting up rpn_labels_rpn-data_0_split
I0416 11:38:04.789944  8572 net.cpp:157] Top shape: 1 1 3552 1 1 (3552)
I0416 11:38:04.789949  8572 net.cpp:157] Top shape: 1 1 3552 1 1 (3552)
I0416 11:38:04.789953  8572 net.cpp:165] Memory required for data: 10172517948
I0416 11:38:04.789958  8572 layer_factory.hpp:77] Creating layer rpn_loss_cls
I0416 11:38:04.789968  8572 net.cpp:100] Creating Layer rpn_loss_cls
I0416 11:38:04.789971  8572 net.cpp:434] rpn_loss_cls <- rpn_cls_score_reshape_rpn_cls_score_reshape_0_split_0
I0416 11:38:04.789978  8572 net.cpp:434] rpn_loss_cls <- rpn_labels_rpn-data_0_split_0
…
I0416 11:38:04.790321  8572 layer_factory.hpp:77] Creating layer rpn_accuarcy
I0416 11:38:04.790329  8572 net.cpp:100] Creating Layer rpn_accuarcy
I0416 11:38:04.790334  8572 net.cpp:434] rpn_accuarcy <- rpn_cls_score_reshape_rpn_cls_score_reshape_0_split_1
I0416 11:38:04.790340  8572 net.cpp:434] rpn_accuarcy <- rpn_labels_rpn-data_0_split_1
I0416 11:38:04.790349  8572 net.cpp:408] rpn_accuarcy -> rpn_accuarcy
I0416 11:38:04.790359  8572 net.cpp:408] rpn_accuarcy -> rpn_accuarcy_class
I0416 11:38:04.790424  8572 net.cpp:150] Setting up rpn_accuarcy
I0416 11:38:04.790432  8572 net.cpp:157] Top shape: (1)
I0416 11:38:04.790437  8572 net.cpp:157] Top shape: 2 (2)
I0416 11:38:04.790441  8572 net.cpp:165] Memory required for data: 10172517968
I0416 11:38:04.790446  8572 layer_factory.hpp:77] Creating layer rpn_cls_prob
I0416 11:38:04.790452  8572 net.cpp:100] Creating Layer rpn_cls_prob
I0416 11:38:04.790457  8572 net.cpp:434] rpn_cls_prob <- rpn_cls_score_reshape_rpn_cls_score_reshape_0_split_2
I0416 11:38:04.790467  8572 net.cpp:408] rpn_cls_prob -> rpn_cls_prob
I0416 11:38:04.790551  8572 net.cpp:150] Setting up rpn_cls_prob
I0416 11:38:04.790560  8572 net.cpp:157] Top shape: 1 2 3552 1 1 (7104)
I0416 11:38:04.790565  8572 net.cpp:165] Memory required for data: 10172546384
I0416 11:38:04.790568  8572 layer_factory.hpp:77] Creating layer rpn_cls_prob_reshape
I0416 11:38:04.790575  8572 net.cpp:100] Creating Layer rpn_cls_prob_reshape
I0416 11:38:04.790580  8572 net.cpp:434] rpn_cls_prob_reshape <- rpn_cls_prob
I0416 11:38:04.790591  8572 net.cpp:408] rpn_cls_prob_reshape -> rpn_cls_prob_reshape
I0416 11:38:04.790630  8572 net.cpp:150] Setting up rpn_cls_prob_reshape
I0416 11:38:04.790638  8572 net.cpp:157] Top shape: 1 74 96 1 1 (7104)
I0416 11:38:04.790642  8572 net.cpp:165] Memory required for data: 10172574800
I0416 11:38:04.790647  8572 layer_factory.hpp:77] Creating layer proposal
I0416 11:38:04.791193  8572 net.cpp:100] Creating Layer proposal
I0416 11:38:04.791203  8572 net.cpp:434] proposal <- rpn_cls_prob_reshape
I0416 11:38:04.791210  8572 net.cpp:434] proposal <- rpn_twin_pred_rpn_twin_pred_0_split_1
I0416 11:38:04.791219  8572 net.cpp:408] proposal -> rpn_rois
I0416 11:38:04.795027  8572 net.cpp:150] Setting up proposal
I0416 11:38:04.795042  8572 net.cpp:157] Top shape: 1 3 (3)
I0416 11:38:04.795045  8572 net.cpp:165] Memory required for data: 10172574812
I0416 11:38:04.795050  8572 layer_factory.hpp:77] Creating layer roi-data
I0416 11:38:04.795198  8572 net.cpp:100] Creating Layer roi-data
I0416 11:38:04.795209  8572 net.cpp:434] roi-data <- rpn_rois
I0416 11:38:04.795217  8572 net.cpp:434] roi-data <- gt_boxes_data_1_split_1
I0416 11:38:04.795224  8572 net.cpp:408] roi-data -> rois
I0416 11:38:04.795234  8572 net.cpp:408] roi-data -> labels
I0416 11:38:04.795243  8572 net.cpp:408] roi-data -> twin_targets
I0416 11:38:04.795251  8572 net.cpp:408] roi-data -> twin_inside_weights
I0416 11:38:04.795276  8572 net.cpp:408] roi-data -> twin_outside_weights
I0416 11:38:04.795611  8572 net.cpp:150] Setting up roi-data
I0416 11:38:04.795624  8572 net.cpp:157] Top shape: 1 3 (3)
I0416 11:38:04.795629  8572 net.cpp:157] Top shape: 1 1 (1)
I0416 11:38:04.795634  8572 net.cpp:157] Top shape: 1 402 (402)
I0416 11:38:04.795639  8572 net.cpp:157] Top shape: 1 402 (402)
I0416 11:38:04.795644  8572 net.cpp:157] Top shape: 1 402 (402)
I0416 11:38:04.795647  8572 net.cpp:165] Memory required for data: 10172579652
I0416 11:38:04.795652  8572 layer_factory.hpp:77] Creating layer labels_roi-data_1_split
I0416 11:38:04.795660  8572 net.cpp:100] Creating Layer labels_roi-data_1_split
I0416 11:38:04.795665  8572 net.cpp:434] labels_roi-data_1_split <- labels
I0416 11:38:04.795673  8572 net.cpp:408] labels_roi-data_1_split -> labels_roi-data_1_split_0
I0416 11:38:04.795682  8572 net.cpp:408] labels_roi-data_1_split -> labels_roi-data_1_split_1
I0416 11:38:04.795740  8572 net.cpp:150] Setting up labels_roi-data_1_split
I0416 11:38:04.795749  8572 net.cpp:157] Top shape: 1 1 (1)
I0416 11:38:04.795754  8572 net.cpp:157] Top shape: 1 1 (1)
I0416 11:38:04.795758  8572 net.cpp:165] Memory required for data: 10172579660
I0416 11:38:04.795763  8572 layer_factory.hpp:77] Creating layer roi_pool5
I0416 11:38:04.795771  8572 net.cpp:100] Creating Layer roi_pool5
I0416 11:38:04.795776  8572 net.cpp:434] roi_pool5 <- conv5b_relu5b_0_split_1
I0416 11:38:04.795783  8572 net.cpp:434] roi_pool5 <- rois
I0416 11:38:04.795789  8572 net.cpp:408] roi_pool5 -> pool5
I0416 11:38:04.795797  8572 roi_pooling_layer.cpp:34] Temporal scale: 0.125
I0416 11:38:04.795820  8572 roi_pooling_layer.cpp:35] Spatial scale: 0.0625
I0416 11:38:04.795884  8572 net.cpp:150] Setting up roi_pool5
I0416 11:38:04.795894  8572 net.cpp:157] Top shape: 1 512 1 4 4 (8192)
I0416 11:38:04.795897  8572 net.cpp:165] Memory required for data: 10172612428
I0416 11:38:04.795902  8572 layer_factory.hpp:77] Creating layer fc6
I0416 11:38:04.795912  8572 net.cpp:100] Creating Layer fc6
I0416 11:38:04.795917  8572 net.cpp:434] fc6 <- pool5
I0416 11:38:04.795925  8572 net.cpp:408] fc6 -> fc6
I0416 11:38:05.067721  8572 net.cpp:150] Setting up fc6
I0416 11:38:05.067752  8572 net.cpp:157] Top shape: 1 4096 (4096)
I0416 11:38:05.067756  8572 net.cpp:165] Memory required for data: 10172628812
I0416 11:38:05.067768  8572 layer_factory.hpp:77] Creating layer relu6
I0416 11:38:05.067780  8572 net.cpp:100] Creating Layer relu6
I0416 11:38:05.067786  8572 net.cpp:434] relu6 <- fc6
I0416 11:38:05.067797  8572 net.cpp:395] relu6 -> fc6 (in-place)
I0416 11:38:05.067808  8572 net.cpp:150] Setting up relu6
I0416 11:38:05.067813  8572 net.cpp:157] Top shape: 1 4096 (4096)
I0416 11:38:05.067818  8572 net.cpp:165] Memory required for data: 10172645196
I0416 11:38:05.067822  8572 layer_factory.hpp:77] Creating layer drop6
I0416 11:38:05.067831  8572 net.cpp:100] Creating Layer drop6
I0416 11:38:05.067834  8572 net.cpp:434] drop6 <- fc6
I0416 11:38:05.067842  8572 net.cpp:395] drop6 -> fc6 (in-place)
I0416 11:38:05.067878  8572 net.cpp:150] Setting up drop6
I0416 11:38:05.067903  8572 net.cpp:157] Top shape: 1 4096 (4096)
I0416 11:38:05.067917  8572 net.cpp:165] Memory required for data: 10172661580
I0416 11:38:05.067929  8572 layer_factory.hpp:77] Creating layer fc6_drop6_0_split
I0416 11:38:05.067947  8572 net.cpp:100] Creating Layer fc6_drop6_0_split
I0416 11:38:05.067962  8572 net.cpp:434] fc6_drop6_0_split <- fc6
I0416 11:38:05.067981  8572 net.cpp:408] fc6_drop6_0_split -> fc6_drop6_0_split_0
I0416 11:38:05.068002  8572 net.cpp:408] fc6_drop6_0_split -> fc6_drop6_0_split_1
I0416 11:38:05.068069  8572 net.cpp:150] Setting up fc6_drop6_0_split
I0416 11:38:05.068078  8572 net.cpp:157] Top shape: 1 4096 (4096)
I0416 11:38:05.068084  8572 net.cpp:157] Top shape: 1 4096 (4096)
I0416 11:38:05.068087  8572 net.cpp:165] Memory required for data: 10172694348
I0416 11:38:05.068091  8572 layer_factory.hpp:77] Creating layer cls_score
I0416 11:38:05.068102  8572 net.cpp:100] Creating Layer cls_score
I0416 11:38:05.068107  8572 net.cpp:434] cls_score <- fc6_drop6_0_split_0
I0416 11:38:05.068115  8572 net.cpp:408] cls_score -> cls_score
I0416 11:38:05.075507  8572 net.cpp:150] Setting up cls_score
I0416 11:38:05.075525  8572 net.cpp:157] Top shape: 1 201 (201)
I0416 11:38:05.075529  8572 net.cpp:165] Memory required for data: 10172695152
I0416 11:38:05.075538  8572 layer_factory.hpp:77] Creating layer cls_score_cls_score_0_split
I0416 11:38:05.075546  8572 net.cpp:100] Creating Layer cls_score_cls_score_0_split
I0416 11:38:05.075551  8572 net.cpp:434] cls_score_cls_score_0_split <- cls_score
I0416 11:38:05.075561  8572 net.cpp:408] cls_score_cls_score_0_split -> cls_score_cls_score_0_split_0
I0416 11:38:05.075572  8572 net.cpp:408] cls_score_cls_score_0_split -> cls_score_cls_score_0_split_1
I0416 11:38:05.075629  8572 net.cpp:150] Setting up cls_score_cls_score_0_split
I0416 11:38:05.075654  8572 net.cpp:157] Top shape: 1 201 (201)
I0416 11:38:05.075672  8572 net.cpp:157] Top shape: 1 201 (201)
I0416 11:38:05.075687  8572 net.cpp:165] Memory required for data: 10172696760
I0416 11:38:05.075702  8572 layer_factory.hpp:77] Creating layer twin_pred
I0416 11:38:05.075726  8572 net.cpp:100] Creating Layer twin_pred
I0416 11:38:05.075734  8572 net.cpp:434] twin_pred <- fc6_drop6_0_split_1
I0416 11:38:05.075747  8572 net.cpp:408] twin_pred -> twin_pred
I0416 11:38:05.089645  8572 net.cpp:150] Setting up twin_pred
I0416 11:38:05.089674  8572 net.cpp:157] Top shape: 1 402 (402)
I0416 11:38:05.089679  8572 net.cpp:165] Memory required for data: 10172698368
I0416 11:38:05.089690  8572 layer_factory.hpp:77] Creating layer loss_cls
I0416 11:38:05.089702  8572 net.cpp:100] Creating Layer loss_cls
I0416 11:38:05.089709  8572 net.cpp:434] loss_cls <- cls_score_cls_score_0_split_0
I0416 11:38:05.089716  8572 net.cpp:434] loss_cls <- labels_roi-data_1_split_0
I0416 11:38:05.089725  8572 net.cpp:408] loss_cls -> loss_cls
…
