…
stepsize: 350000
snapshot: 0
snapshot_prefix: "./experiments/activitynet/snapshot/activitynet"
average_loss: 100
iter_size: 1
I0417 12:01:44.890234 21987 solver.cpp:81] Creating training net from train_net file: ./experiments/activitynet/train.prototxt
I0417 12:01:44.891338 21987 net.cpp:58] Initializing net from parameters: 
name: "activitynet"
state {
  phase: TRAIN
}
layer {
  name: "data"
  type: "Python"
  top: "data"
  top: "gt_boxes"
  python_param {
    module: "roi_data_layer.layer"
    layer: "RoIDataLayer"
    param_str: "\'num_classes\': 100"
  }
}
layer {
  name: "conv1a"
  type: "Convolution"
  bottom: "data"
  top: "conv1a"
  param {
    lr_mult: 0
    decay_mult: 0
  }
  param {
    lr_mult: 0
    decay_mult: 0
  }
  convolution_param {
    num_output: 64
    pad: 1
    pad: 1
    pad: 1
    kernel_size: 3
    kernel_size: 3
    kernel_size: 3
    weight_filler {
      type: "gaussian"
      std: 0.01
    }
    bias_filler {
      type: "constant"
      value: 0
    }
  }
}
layer {
  name: "relu1a"
  type: "ReLU"
  bottom: "conv1a"
  top: "conv1a"
}
layer {
  name: "pool1"
  type: "Pooling"
  bottom: "conv1a"
  top: "pool1"
  pooling_param {
    pool: MAX
    kernel_size: 1
    kernel_size: 2
    kernel_size: 2
    stride: 1
    stride: 2
    stride: 2
  }
}
layer {
  name: "conv2a"
  type: "Convolution"
  bottom: "pool1"
  top: "conv2a"
  param {
    lr_mult: 0
    decay_mult: 0
  }
  param {
    lr_mult: 0
    decay_mult: 0
  }
  convolution_param {
    num_output: 128
    pad: 1
    pad: 1
    pad: 1
    kernel_size: 3
    kernel_size: 3
    kernel_size: 3
    weight_filler {
      type: "gaussian"
      std: 0.01
    }
    bias_filler {
      type: "constant"
      value: 1
    }
  }
}
layer {
  name: "relu2a"
  type: "ReLU"
  bottom: "conv2a"
  top: "conv2a"
}
layer {
  name: "pool2"
  type: "Pooling"
  bottom: "conv2a"
  top: "pool2"
  pooling_param {
    pool: MAX
    kernel_size: 2
    kernel_size: 2
    kernel_size: 2
    stride: 2
    stride: 2
    stride: 2
  }
}
layer {
  name: "conv3a"
  type: "Convolution"
  bottom: "pool2"
  top: "conv3a"
  param {
    lr_mult: 1
    decay_mult: 1
  }
  param {
    lr_mult: 2
    decay_mult: 0
  }
  convolution_param {
    num_output: 256
    pad: 1
    pad: 1
    pad: 1
    kernel_size: 3
    kernel_size: 3
    kernel_size: 3
    weight_filler {
      type: "gaussian"
      std: 0.01
    }
    bias_filler {
      type: "constant"
      value: 1
    }
  }
}
layer {
  name: "relu3a"
  type: "ReLU"
  bottom: "conv3a"
  top: "conv3a"
}
layer {
  name: "conv3b"
  type: "Convolution"
  bottom: "conv3a"
  top: "conv3b"
  param {
    lr_mult: 1
    decay_mult: 1
  }
  param {
    lr_mult: 2
    decay_mult: 0
  }
  convolution_param {
    num_output: 256
    pad: 1
    pad: 1
    pad: 1
    kernel_size: 3
    kernel_size: 3
    kernel_size: 3
    weight_filler {
      type: "gaussian"
      std: 0.01
    }
    bias_filler {
      type: "constant"
      value: 1
    }
  }
}
layer {
  name: "relu3b"
  type: "ReLU"
  bottom: "conv3b"
  top: "conv3b"
}
layer {
  name: "pool3"
  type: "Pooling"
  bottom: "conv3b"
  top: "pool3"
  pooling_param {
    pool: MAX
    kernel_size: 2
    kernel_size: 2
    kernel_size: 2
    stride: 2
    stride: 2
    stride: 2
  }
}
layer {
  name: "conv4a"
  type: "Convolution"
  bottom: "pool3"
  top: "conv4a"
  param {
    lr_mult: 1
    decay_mult: 1
  }
  param {
    lr_mult: 2
    decay_mult: 0
  }
  convolution_param {
    num_output: 512
    pad: 1
    pad: 1
    pad: 1
    kernel_size: 3
    kernel_size: 3
    kernel_size: 3
    weight_filler {
      type: "gaussian"
      std: 0.01
    }
    bias_filler {
      type: "constant"
      value: 1
    }
  }
}
layer {
  name: "relu4a"
  type: "ReLU"
  bottom: "conv4a"
  top: "conv4a"
}
layer {
  name: "conv4b"
  type: "Convolution"
  bottom: "conv4a"
  top: "conv4b"
  param {
    lr_mult: 1
    decay_mult: 1
  }
  param {
    lr_mult: 2
    decay_mult: 0
  }
  convolution_param {
    num_output: 512
    pad: 1
    pad: 1
    pad: 1
    kernel_size: 3
    kernel_size: 3
    kernel_size: 3
    weight_filler {
      type: "gaussian"
      std: 0.01
    }
    bias_filler {
      type: "constant"
      value: 1
    }
  }
}
layer {
  name: "relu4b"
  type: "ReLU"
  bottom: "conv4b"
  top: "conv4b"
}
layer {
  name: "pool4"
  type: "Pooling"
  bottom: "conv4b"
  top: "pool4"
  pooling_param {
    pool: MAX
    kernel_size: 2
    kernel_size: 2
    kernel_size: 2
    stride: 2
    stride: 2
    stride: 2
  }
}
layer {
  name: "conv5a"
  type: "Convolution"
  bottom: "pool4"
  top: "conv5a"
  param {
    lr_mult: 1
    decay_mult: 1
  }
  param {
    lr_mult: 2
    decay_mult: 0
  }
  convolution_param {
    num_output: 512
    pad: 1
    pad: 1
    pad: 1
    kernel_size: 3
    kernel_size: 3
    kernel_size: 3
    weight_filler {
      type: "gaussian"
      std: 0.01
    }
    bias_filler {
      type: "constant"
      value: 1
    }
  }
}
layer {
  name: "relu5a"
  type: "ReLU"
  bottom: "conv5a"
  top: "conv5a"
}
layer {
  name: "conv5b"
  type: "Convolution"
  bottom: "conv5a"
  top: "conv5b"
  param {
    lr_mult: 1
    decay_mult: 1
  }
  param {
    lr_mult: 2
    decay_mult: 0
  }
  convolution_param {
    num_output: 512
    pad: 1
    pad: 1
    pad: 1
    kernel_size: 3
    kernel_size: 3
    kernel_size: 3
    weight_filler {
      type: "gaussian"
      std: 0.01
    }
    bias_filler {
      type: "constant"
      value: 1
    }
  }
}
layer {
  name: "relu5b"
  type: "ReLU"
  bottom: "conv5b"
  top: "conv5b"
}
layer {
  name: "rpn_conv/3x3"
  type: "Convolution"
  bottom: "conv5b"
  top: "rpn/output"
  param {
    lr_mult: 1
    decay_mult: 1
  }
  param {
    lr_mult: 2
    decay_mult: 0
  }
  convolution_param {
    num_output: 512
    pad: 1
    pad: 1
    pad: 1
    kernel_size: 3
    kernel_size: 3
    kernel_size: 3
    stride: 1
    stride: 2
    stride: 2
    weight_filler {
      type: "gaussian"
      std: 0.01
    }
    bias_filler {
      type: "constant"
      value: 0
    }
  }
}
layer {
  name: "rpn_relu/3x3"
  type: "ReLU"
  bottom: "rpn/output"
  top: "rpn/output"
}
layer {
  name: "rpn_conv/3x3_2"
  type: "Convolution"
  bottom: "rpn/output"
  top: "rpn/output_2"
  param {
    lr_mult: 1
    decay_mult: 1
  }
  param {
    lr_mult: 2
    decay_mult: 0
  }
  convolution_param {
    num_output: 512
    pad: 1
    pad: 1
    pad: 1
    kernel_size: 3
    kernel_size: 3
    kernel_size: 3
    stride: 1
    stride: 2
    stride: 2
    weight_filler {
      type: "gaussian"
      std: 0.01
    }
    bias_filler {
      type: "constant"
      value: 0
    }
  }
}
layer {
  name: "rpn_relu/3x3_2"
  type: "ReLU"
  bottom: "rpn/output_2"
  top: "rpn/output_2"
}
layer {
  name: "rpn/output_pool"
  type: "Pooling"
  bottom: "rpn/output_2"
  top: "rpn/output_pool"
  pooling_param {
    pool: MAX
    kernel_size: 1
    kernel_size: 2
    kernel_size: 2
  }
}
layer {
  name: "rpn_cls_score"
  type: "Convolution"
  bottom: "rpn/output_pool"
  top: "rpn_cls_score"
  param {
    lr_mult: 1
    decay_mult: 1
  }
  param {
    lr_mult: 2
    decay_mult: 0
  }
  convolution_param {
    num_output: 74
    kernel_size: 1
    kernel_size: 1
    kernel_size: 1
    weight_filler {
      type: "gaussian"
      std: 0.01
    }
    bias_filler {
      type: "constant"
      value: 0
    }
  }
}
layer {
  name: "rpn_twin_pred"
  type: "Convolution"
  bottom: "rpn/output_pool"
  top: "rpn_twin_pred"
  param {
    lr_mult: 1
    decay_mult: 1
  }
  param {
    lr_mult: 2
    decay_mult: 0
  }
  convolution_param {
    num_output: 74
    kernel_size: 1
    kernel_size: 1
    kernel_size: 1
    weight_filler {
      type: "gaussian"
      std: 0.01
    }
    bias_filler {
      type: "constant"
      value: 0
    }
  }
}
layer {
  name: "rpn_cls_score_reshape"
  type: "Reshape"
  bottom: "rpn_cls_score"
  top: "rpn_cls_score_reshape"
  reshape_param {
    shape {
      dim: 0
      dim: 2
      dim: -1
      dim: 0
      dim: 0
    }
  }
}
layer {
  name: "rpn-data"
  type: "Python"
  bottom: "rpn_cls_score"
  bottom: "gt_boxes"
  bottom: "data"
  top: "rpn_labels"
  top: "rpn_twin_targets"
  top: "rpn_twin_inside_weights"
  top: "rpn_twin_outside_weights"
  python_param {
    module: "rpn.anchor_target_layer"
    layer: "AnchorTargetLayer"
    param_str: "\'feat_stride\': 8 \n\'scales\': !!python/tuple [1,1.25, 1.5,1.75, 2,2.5, 3,3.5, 4,4.5, 5,5.5, 6,7, 8,9,10,11,12,14,16,18,20,22,24,28,32,36,40,44,52,60,68,76,84,92,100]"
  }
}
layer {
  name: "rpn_loss_cls"
  type: "SoftmaxWithLoss"
  bottom: "rpn_cls_score_reshape"
  bottom: "rpn_labels"
  top: "rpn_cls_loss"
  loss_weight: 1
  propagate_down: true
  propagate_down: false
  loss_param {
    ignore_label: -1
    normalize: true
  }
}
layer {
  name: "rpn_loss_twin"
  type: "SmoothL1Loss"
  bottom: "rpn_twin_pred"
  bottom: "rpn_twin_targets"
  bottom: "rpn_twin_inside_weights"
  bottom: "rpn_twin_outside_weights"
  top: "rpn_loss_twin"
  loss_weight: 1
  smooth_l1_loss_param {
    sigma: 3
  }
}
layer {
  name: "rpn_accuarcy"
  type: "Accuracy"
  bottom: "rpn_cls_score_reshape"
  bottom: "rpn_labels"
  top: "rpn_accuarcy"
  top: "rpn_accuarcy_class"
  propagate_down: false
  propagate_down: false
  accuracy_param {
    ignore_label: -1
  }
}
layer {
  name: "rpn_cls_prob"
  type: "Softmax"
  bottom: "rpn_cls_score_reshape"
  top: "rpn_cls_prob"
}
layer {
  name: "rpn_cls_prob_reshape"
  type: "Reshape"
  bottom: "rpn_cls_prob"
  top: "rpn_cls_prob_reshape"
  reshape_param {
    shape {
      dim: 0
      dim: 74
      dim: -1
      dim: 0
      dim: 0
    }
  }
}
layer {
  name: "proposal"
  type: "Python"
  bottom: "rpn_cls_prob_reshape"
  bottom: "rpn_twin_pred"
  top: "rpn_rois"
  include {
    phase: TRAIN
  }
  python_param {
    module: "rpn.proposal_layer"
    layer: "ProposalLayer"
    param_str: "\'feat_stride\': 8 \n\'scales\': !!python/tuple [1,1.25, 1.5,1.75, 2,2.5, 3,3.5, 4,4.5, 5,5.5, 6,7, 8,9,10,11,12,14,16,18,20,22,24,28,32,36,40,44,52,60,68,76,84,92,100]"
  }
}
layer {
  name: "roi-data"
  type: "Python"
  bottom: "rpn_rois"
  bottom: "gt_boxes"
  top: "rois"
  top: "labels"
  top: "twin_targets"
  top: "twin_inside_weights"
  top: "twin_outside_weights"
  python_param {
    module: "rpn.proposal_target_layer"
    layer: "ProposalTargetLayer"
    param_str: "\'num_classes\': 201"
  }
}
layer {
  name: "roi_pool5"
  type: "ROIPooling"
  bottom: "conv5b"
  bottom: "rois"
  top: "pool5"
  roi_pooling_param {
    pooled_h: 4
    pooled_w: 4
    spatial_scale: 0.0625
    pooled_l: 1
    temporal_scale: 0.125
  }
}
layer {
  name: "fc6"
  type: "InnerProduct"
  bottom: "pool5"
  top: "fc6"
  param {
    lr_mult: 1
    decay_mult: 1
  }
  param {
    lr_mult: 2
    decay_mult: 0
  }
  inner_product_param {
    num_output: 4096
    weight_filler {
      type: "gaussian"
      std: 0.005
    }
    bias_filler {
      type: "constant"
      value: 1
    }
  }
}
layer {
  name: "relu6"
  type: "ReLU"
  bottom: "fc6"
  top: "fc6"
}
layer {
  name: "drop6"
  type: "Dropout"
  bottom: "fc6"
  top: "fc6"
  dropout_param {
    dropout_ratio: 0.5
  }
}
layer {
  name: "cls_score"
  type: "InnerProduct"
  bottom: "fc6"
  top: "cls_score"
  param {
    lr_mult: 1
    decay_mult: 1
  }
  param {
    lr_mult: 2
    decay_mult: 0
  }
  inner_product_param {
    num_output: 201
    weight_filler {
      type: "gaussian"
      std: 0.01
    }
    bias_filler {
      type: "constant"
      value: 0
    }
  }
}
layer {
  name: "twin_pred"
  type: "InnerProduct"
  bottom: "fc6"
  top: "twin_pred"
  param {
    lr_mult: 1
    decay_mult: 1
  }
  param {
    lr_mult: 2
    decay_mult: 0
  }
  inner_product_param {
    num_output: 402
    weight_filler {
      type: "gaussian"
      std: 0.001
    }
    bias_filler {
      type: "constant"
      value: 0
    }
  }
}
layer {
  name: "loss_cls"
  type: "SoftmaxWithLoss"
  bottom: "cls_score"
  bottom: "labels"
  top: "loss_cls"
  loss_weight: 1
  propagate_down: true
  propagate_down: false
}
layer {
  name: "loss_twin"
  type: "SmoothL1Loss"
  bottom: "twin_pred"
  bottom: "twin_targets"
  bottom: "twin_inside_weights"
  bottom: "twin_outside_weights"
  top: "loss_twin"
  loss_weight: 1
}
layer {
  name: "accuarcy"
  type: "Accuracy"
  bottom: "cls_score"
  bottom: "labels"
  top: "accuarcy"
  propagate_down: false
  propagate_down: false
  accuracy_param {
    ignore_label: -1
  }
}
I0417 12:01:44.891675 21987 layer_factory.hpp:77] Creating layer data
I0417 12:01:44.929219 21987 net.cpp:100] Creating Layer data
I0417 12:01:44.929244 21987 net.cpp:408] data -> data
I0417 12:01:44.929257 21987 net.cpp:408] data -> gt_boxes
setting up
has rpn
RoiDataLayer: name_to_top: {'gt_windows': 1, 'data': 0}
I0417 12:01:44.942909 21987 net.cpp:150] Setting up data
I0417 12:01:44.942934 21987 net.cpp:157] Top shape: 1 3 768 112 112 (28901376)
I0417 12:01:44.942939 21987 net.cpp:157] Top shape: 1 101 (101)
I0417 12:01:44.942942 21987 net.cpp:165] Memory required for data: 115605908
I0417 12:01:44.942950 21987 layer_factory.hpp:77] Creating layer data_data_0_split
I0417 12:01:44.942961 21987 net.cpp:100] Creating Layer data_data_0_split
I0417 12:01:44.942965 21987 net.cpp:434] data_data_0_split <- data
I0417 12:01:44.942972 21987 net.cpp:408] data_data_0_split -> data_data_0_split_0
I0417 12:01:44.942981 21987 net.cpp:408] data_data_0_split -> data_data_0_split_1
I0417 12:01:44.943029 21987 net.cpp:150] Setting up data_data_0_split
I0417 12:01:44.943038 21987 net.cpp:157] Top shape: 1 3 768 112 112 (28901376)
I0417 12:01:44.943043 21987 net.cpp:157] Top shape: 1 3 768 112 112 (28901376)
I0417 12:01:44.943047 21987 net.cpp:165] Memory required for data: 346816916
I0417 12:01:44.943049 21987 layer_factory.hpp:77] Creating layer gt_boxes_data_1_split
I0417 12:01:44.943054 21987 net.cpp:100] Creating Layer gt_boxes_data_1_split
I0417 12:01:44.943058 21987 net.cpp:434] gt_boxes_data_1_split <- gt_boxes
I0417 12:01:44.943064 21987 net.cpp:408] gt_boxes_data_1_split -> gt_boxes_data_1_split_0
I0417 12:01:44.943069 21987 net.cpp:408] gt_boxes_data_1_split -> gt_boxes_data_1_split_1
I0417 12:01:44.943109 21987 net.cpp:150] Setting up gt_boxes_data_1_split
I0417 12:01:44.943114 21987 net.cpp:157] Top shape: 1 101 (101)
I0417 12:01:44.943119 21987 net.cpp:157] Top shape: 1 101 (101)
I0417 12:01:44.943121 21987 net.cpp:165] Memory required for data: 346817724
I0417 12:01:44.943125 21987 layer_factory.hpp:77] Creating layer conv1a
I0417 12:01:44.943140 21987 net.cpp:100] Creating Layer conv1a
I0417 12:01:44.943145 21987 net.cpp:434] conv1a <- data_data_0_split_0
I0417 12:01:44.943150 21987 net.cpp:408] conv1a -> conv1a
I0417 12:01:44.962966 21987 net.cpp:150] Setting up conv1a
I0417 12:01:44.962997 21987 net.cpp:157] Top shape: 1 64 768 112 112 (616562688)
I0417 12:01:44.963002 21987 net.cpp:165] Memory required for data: 2813068476
I0417 12:01:44.963026 21987 layer_factory.hpp:77] Creating layer relu1a
I0417 12:01:44.963039 21987 net.cpp:100] Creating Layer relu1a
I0417 12:01:44.963044 21987 net.cpp:434] relu1a <- conv1a
I0417 12:01:44.963050 21987 net.cpp:395] relu1a -> conv1a (in-place)
I0417 12:01:44.963063 21987 net.cpp:150] Setting up relu1a
I0417 12:01:44.963066 21987 net.cpp:157] Top shape: 1 64 768 112 112 (616562688)
I0417 12:01:44.963069 21987 net.cpp:165] Memory required for data: 5279319228
I0417 12:01:44.963073 21987 layer_factory.hpp:77] Creating layer pool1
I0417 12:01:44.963081 21987 net.cpp:100] Creating Layer pool1
I0417 12:01:44.963085 21987 net.cpp:434] pool1 <- conv1a
I0417 12:01:44.963090 21987 net.cpp:408] pool1 -> pool1
I0417 12:01:44.963201 21987 net.cpp:150] Setting up pool1
I0417 12:01:44.963212 21987 net.cpp:157] Top shape: 1 64 768 56 56 (154140672)
I0417 12:01:44.963215 21987 net.cpp:165] Memory required for data: 5895881916
I0417 12:01:44.963218 21987 layer_factory.hpp:77] Creating layer conv2a
I0417 12:01:44.963232 21987 net.cpp:100] Creating Layer conv2a
I0417 12:01:44.963235 21987 net.cpp:434] conv2a <- pool1
I0417 12:01:44.963240 21987 net.cpp:408] conv2a -> conv2a
I0417 12:01:44.975111 21987 net.cpp:150] Setting up conv2a
I0417 12:01:44.975138 21987 net.cpp:157] Top shape: 1 128 768 56 56 (308281344)
I0417 12:01:44.975142 21987 net.cpp:165] Memory required for data: 7129007292
I0417 12:01:44.975157 21987 layer_factory.hpp:77] Creating layer relu2a
I0417 12:01:44.975169 21987 net.cpp:100] Creating Layer relu2a
I0417 12:01:44.975174 21987 net.cpp:434] relu2a <- conv2a
I0417 12:01:44.975183 21987 net.cpp:395] relu2a -> conv2a (in-place)
I0417 12:01:44.975191 21987 net.cpp:150] Setting up relu2a
I0417 12:01:44.975195 21987 net.cpp:157] Top shape: 1 128 768 56 56 (308281344)
I0417 12:01:44.975198 21987 net.cpp:165] Memory required for data: 8362132668
I0417 12:01:44.975201 21987 layer_factory.hpp:77] Creating layer pool2
I0417 12:01:44.975211 21987 net.cpp:100] Creating Layer pool2
I0417 12:01:44.975214 21987 net.cpp:434] pool2 <- conv2a
I0417 12:01:44.975219 21987 net.cpp:408] pool2 -> pool2
I0417 12:01:44.975316 21987 net.cpp:150] Setting up pool2
I0417 12:01:44.975325 21987 net.cpp:157] Top shape: 1 128 384 28 28 (38535168)
I0417 12:01:44.975329 21987 net.cpp:165] Memory required for data: 8516273340
I0417 12:01:44.975333 21987 layer_factory.hpp:77] Creating layer conv3a
I0417 12:01:44.975347 21987 net.cpp:100] Creating Layer conv3a
I0417 12:01:44.975352 21987 net.cpp:434] conv3a <- pool2
I0417 12:01:44.975358 21987 net.cpp:408] conv3a -> conv3a
I0417 12:01:45.001073 21987 net.cpp:150] Setting up conv3a
I0417 12:01:45.001094 21987 net.cpp:157] Top shape: 1 256 384 28 28 (77070336)
I0417 12:01:45.001098 21987 net.cpp:165] Memory required for data: 8824554684
I0417 12:01:45.001111 21987 layer_factory.hpp:77] Creating layer relu3a
I0417 12:01:45.001118 21987 net.cpp:100] Creating Layer relu3a
I0417 12:01:45.001122 21987 net.cpp:434] relu3a <- conv3a
I0417 12:01:45.001129 21987 net.cpp:395] relu3a -> conv3a (in-place)
I0417 12:01:45.001137 21987 net.cpp:150] Setting up relu3a
I0417 12:01:45.001142 21987 net.cpp:157] Top shape: 1 256 384 28 28 (77070336)
I0417 12:01:45.001144 21987 net.cpp:165] Memory required for data: 9132836028
I0417 12:01:45.001147 21987 layer_factory.hpp:77] Creating layer conv3b
I0417 12:01:45.001157 21987 net.cpp:100] Creating Layer conv3b
I0417 12:01:45.001159 21987 net.cpp:434] conv3b <- conv3a
I0417 12:01:45.001165 21987 net.cpp:408] conv3b -> conv3b
I0417 12:01:45.049859 21987 net.cpp:150] Setting up conv3b
I0417 12:01:45.049882 21987 net.cpp:157] Top shape: 1 256 384 28 28 (77070336)
I0417 12:01:45.049886 21987 net.cpp:165] Memory required for data: 9441117372
I0417 12:01:45.049895 21987 layer_factory.hpp:77] Creating layer relu3b
I0417 12:01:45.049904 21987 net.cpp:100] Creating Layer relu3b
I0417 12:01:45.049909 21987 net.cpp:434] relu3b <- conv3b
I0417 12:01:45.049916 21987 net.cpp:395] relu3b -> conv3b (in-place)
I0417 12:01:45.049924 21987 net.cpp:150] Setting up relu3b
I0417 12:01:45.049928 21987 net.cpp:157] Top shape: 1 256 384 28 28 (77070336)
I0417 12:01:45.049932 21987 net.cpp:165] Memory required for data: 9749398716
I0417 12:01:45.049934 21987 layer_factory.hpp:77] Creating layer pool3
I0417 12:01:45.049942 21987 net.cpp:100] Creating Layer pool3
I0417 12:01:45.049944 21987 net.cpp:434] pool3 <- conv3b
I0417 12:01:45.049950 21987 net.cpp:408] pool3 -> pool3
I0417 12:01:45.050006 21987 net.cpp:150] Setting up pool3
I0417 12:01:45.050014 21987 net.cpp:157] Top shape: 1 256 192 14 14 (9633792)
I0417 12:01:45.050016 21987 net.cpp:165] Memory required for data: 9787933884
I0417 12:01:45.050019 21987 layer_factory.hpp:77] Creating layer conv4a
I0417 12:01:45.050029 21987 net.cpp:100] Creating Layer conv4a
I0417 12:01:45.050034 21987 net.cpp:434] conv4a <- pool3
I0417 12:01:45.050040 21987 net.cpp:408] conv4a -> conv4a
I0417 12:01:45.147094 21987 net.cpp:150] Setting up conv4a
I0417 12:01:45.147121 21987 net.cpp:157] Top shape: 1 512 192 14 14 (19267584)
I0417 12:01:45.147125 21987 net.cpp:165] Memory required for data: 9865004220
I0417 12:01:45.147140 21987 layer_factory.hpp:77] Creating layer relu4a
I0417 12:01:45.147150 21987 net.cpp:100] Creating Layer relu4a
I0417 12:01:45.147155 21987 net.cpp:434] relu4a <- conv4a
I0417 12:01:45.147161 21987 net.cpp:395] relu4a -> conv4a (in-place)
I0417 12:01:45.147169 21987 net.cpp:150] Setting up relu4a
I0417 12:01:45.147173 21987 net.cpp:157] Top shape: 1 512 192 14 14 (19267584)
I0417 12:01:45.147176 21987 net.cpp:165] Memory required for data: 9942074556
I0417 12:01:45.147179 21987 layer_factory.hpp:77] Creating layer conv4b
I0417 12:01:45.147195 21987 net.cpp:100] Creating Layer conv4b
I0417 12:01:45.147199 21987 net.cpp:434] conv4b <- conv4a
I0417 12:01:45.147204 21987 net.cpp:408] conv4b -> conv4b
I0417 12:01:45.339803 21987 net.cpp:150] Setting up conv4b
I0417 12:01:45.339829 21987 net.cpp:157] Top shape: 1 512 192 14 14 (19267584)
I0417 12:01:45.339833 21987 net.cpp:165] Memory required for data: 10019144892
I0417 12:01:45.339843 21987 layer_factory.hpp:77] Creating layer relu4b
I0417 12:01:45.339853 21987 net.cpp:100] Creating Layer relu4b
I0417 12:01:45.339859 21987 net.cpp:434] relu4b <- conv4b
I0417 12:01:45.339866 21987 net.cpp:395] relu4b -> conv4b (in-place)
I0417 12:01:45.339875 21987 net.cpp:150] Setting up relu4b
I0417 12:01:45.339879 21987 net.cpp:157] Top shape: 1 512 192 14 14 (19267584)
I0417 12:01:45.339882 21987 net.cpp:165] Memory required for data: 10096215228
I0417 12:01:45.339885 21987 layer_factory.hpp:77] Creating layer pool4
I0417 12:01:45.339892 21987 net.cpp:100] Creating Layer pool4
I0417 12:01:45.339895 21987 net.cpp:434] pool4 <- conv4b
I0417 12:01:45.339900 21987 net.cpp:408] pool4 -> pool4
I0417 12:01:45.339951 21987 net.cpp:150] Setting up pool4
I0417 12:01:45.339959 21987 net.cpp:157] Top shape: 1 512 96 7 7 (2408448)
I0417 12:01:45.339962 21987 net.cpp:165] Memory required for data: 10105849020
I0417 12:01:45.339965 21987 layer_factory.hpp:77] Creating layer conv5a
I0417 12:01:45.339975 21987 net.cpp:100] Creating Layer conv5a
I0417 12:01:45.339979 21987 net.cpp:434] conv5a <- pool4
I0417 12:01:45.339985 21987 net.cpp:408] conv5a -> conv5a
I0417 12:01:45.532018 21987 net.cpp:150] Setting up conv5a
I0417 12:01:45.532047 21987 net.cpp:157] Top shape: 1 512 96 7 7 (2408448)
I0417 12:01:45.532050 21987 net.cpp:165] Memory required for data: 10115482812
I0417 12:01:45.532059 21987 layer_factory.hpp:77] Creating layer relu5a
I0417 12:01:45.532069 21987 net.cpp:100] Creating Layer relu5a
I0417 12:01:45.532074 21987 net.cpp:434] relu5a <- conv5a
I0417 12:01:45.532081 21987 net.cpp:395] relu5a -> conv5a (in-place)
I0417 12:01:45.532090 21987 net.cpp:150] Setting up relu5a
I0417 12:01:45.532094 21987 net.cpp:157] Top shape: 1 512 96 7 7 (2408448)
I0417 12:01:45.532097 21987 net.cpp:165] Memory required for data: 10125116604
I0417 12:01:45.532101 21987 layer_factory.hpp:77] Creating layer conv5b
I0417 12:01:45.532112 21987 net.cpp:100] Creating Layer conv5b
I0417 12:01:45.532115 21987 net.cpp:434] conv5b <- conv5a
I0417 12:01:45.532120 21987 net.cpp:408] conv5b -> conv5b
I0417 12:01:45.721705 21987 net.cpp:150] Setting up conv5b
I0417 12:01:45.721727 21987 net.cpp:157] Top shape: 1 512 96 7 7 (2408448)
I0417 12:01:45.721731 21987 net.cpp:165] Memory required for data: 10134750396
I0417 12:01:45.721740 21987 layer_factory.hpp:77] Creating layer relu5b
I0417 12:01:45.721748 21987 net.cpp:100] Creating Layer relu5b
I0417 12:01:45.721752 21987 net.cpp:434] relu5b <- conv5b
I0417 12:01:45.721760 21987 net.cpp:395] relu5b -> conv5b (in-place)
I0417 12:01:45.721768 21987 net.cpp:150] Setting up relu5b
I0417 12:01:45.721771 21987 net.cpp:157] Top shape: 1 512 96 7 7 (2408448)
I0417 12:01:45.721774 21987 net.cpp:165] Memory required for data: 10144384188
I0417 12:01:45.721777 21987 layer_factory.hpp:77] Creating layer conv5b_relu5b_0_split
I0417 12:01:45.721782 21987 net.cpp:100] Creating Layer conv5b_relu5b_0_split
I0417 12:01:45.721796 21987 net.cpp:434] conv5b_relu5b_0_split <- conv5b
I0417 12:01:45.721801 21987 net.cpp:408] conv5b_relu5b_0_split -> conv5b_relu5b_0_split_0
I0417 12:01:45.721807 21987 net.cpp:408] conv5b_relu5b_0_split -> conv5b_relu5b_0_split_1
I0417 12:01:45.721853 21987 net.cpp:150] Setting up conv5b_relu5b_0_split
I0417 12:01:45.721861 21987 net.cpp:157] Top shape: 1 512 96 7 7 (2408448)
I0417 12:01:45.721866 21987 net.cpp:157] Top shape: 1 512 96 7 7 (2408448)
I0417 12:01:45.721869 21987 net.cpp:165] Memory required for data: 10163651772
I0417 12:01:45.721873 21987 layer_factory.hpp:77] Creating layer rpn_conv/3x3
I0417 12:01:45.721882 21987 net.cpp:100] Creating Layer rpn_conv/3x3
I0417 12:01:45.721887 21987 net.cpp:434] rpn_conv/3x3 <- conv5b_relu5b_0_split_0
I0417 12:01:45.721894 21987 net.cpp:408] rpn_conv/3x3 -> rpn/output
I0417 12:01:45.907047 21987 net.cpp:150] Setting up rpn_conv/3x3
I0417 12:01:45.907069 21987 net.cpp:157] Top shape: 1 512 96 4 4 (786432)
I0417 12:01:45.907073 21987 net.cpp:165] Memory required for data: 10166797500
I0417 12:01:45.907086 21987 layer_factory.hpp:77] Creating layer rpn_relu/3x3
I0417 12:01:45.907096 21987 net.cpp:100] Creating Layer rpn_relu/3x3
I0417 12:01:45.907101 21987 net.cpp:434] rpn_relu/3x3 <- rpn/output
I0417 12:01:45.907107 21987 net.cpp:395] rpn_relu/3x3 -> rpn/output (in-place)
I0417 12:01:45.907115 21987 net.cpp:150] Setting up rpn_relu/3x3
I0417 12:01:45.907119 21987 net.cpp:157] Top shape: 1 512 96 4 4 (786432)
I0417 12:01:45.907122 21987 net.cpp:165] Memory required for data: 10169943228
I0417 12:01:45.907125 21987 layer_factory.hpp:77] Creating layer rpn_conv/3x3_2
I0417 12:01:45.907135 21987 net.cpp:100] Creating Layer rpn_conv/3x3_2
I0417 12:01:45.907141 21987 net.cpp:434] rpn_conv/3x3_2 <- rpn/output
I0417 12:01:45.907146 21987 net.cpp:408] rpn_conv/3x3_2 -> rpn/output_2
I0417 12:01:46.092787 21987 net.cpp:150] Setting up rpn_conv/3x3_2
I0417 12:01:46.092810 21987 net.cpp:157] Top shape: 1 512 96 2 2 (196608)
I0417 12:01:46.092814 21987 net.cpp:165] Memory required for data: 10170729660
I0417 12:01:46.092823 21987 layer_factory.hpp:77] Creating layer rpn_relu/3x3_2
I0417 12:01:46.092831 21987 net.cpp:100] Creating Layer rpn_relu/3x3_2
I0417 12:01:46.092835 21987 net.cpp:434] rpn_relu/3x3_2 <- rpn/output_2
I0417 12:01:46.092842 21987 net.cpp:395] rpn_relu/3x3_2 -> rpn/output_2 (in-place)
I0417 12:01:46.092851 21987 net.cpp:150] Setting up rpn_relu/3x3_2
I0417 12:01:46.092855 21987 net.cpp:157] Top shape: 1 512 96 2 2 (196608)
I0417 12:01:46.092859 21987 net.cpp:165] Memory required for data: 10171516092
I0417 12:01:46.092861 21987 layer_factory.hpp:77] Creating layer rpn/output_pool
I0417 12:01:46.092869 21987 net.cpp:100] Creating Layer rpn/output_pool
I0417 12:01:46.092871 21987 net.cpp:434] rpn/output_pool <- rpn/output_2
I0417 12:01:46.092877 21987 net.cpp:408] rpn/output_pool -> rpn/output_pool
I0417 12:01:46.092922 21987 net.cpp:150] Setting up rpn/output_pool
I0417 12:01:46.092929 21987 net.cpp:157] Top shape: 1 512 96 1 1 (49152)
I0417 12:01:46.092932 21987 net.cpp:165] Memory required for data: 10171712700
I0417 12:01:46.092936 21987 layer_factory.hpp:77] Creating layer rpn/output_pool_rpn/output_pool_0_split
I0417 12:01:46.092941 21987 net.cpp:100] Creating Layer rpn/output_pool_rpn/output_pool_0_split
I0417 12:01:46.092945 21987 net.cpp:434] rpn/output_pool_rpn/output_pool_0_split <- rpn/output_pool
I0417 12:01:46.092949 21987 net.cpp:408] rpn/output_pool_rpn/output_pool_0_split -> rpn/output_pool_rpn/output_pool_0_split_0
I0417 12:01:46.092955 21987 net.cpp:408] rpn/output_pool_rpn/output_pool_0_split -> rpn/output_pool_rpn/output_pool_0_split_1
I0417 12:01:46.092996 21987 net.cpp:150] Setting up rpn/output_pool_rpn/output_pool_0_split
I0417 12:01:46.093004 21987 net.cpp:157] Top shape: 1 512 96 1 1 (49152)
I0417 12:01:46.093008 21987 net.cpp:157] Top shape: 1 512 96 1 1 (49152)
I0417 12:01:46.093011 21987 net.cpp:165] Memory required for data: 10172105916
I0417 12:01:46.093014 21987 layer_factory.hpp:77] Creating layer rpn_cls_score
I0417 12:01:46.093025 21987 net.cpp:100] Creating Layer rpn_cls_score
I0417 12:01:46.093029 21987 net.cpp:434] rpn_cls_score <- rpn/output_pool_rpn/output_pool_0_split_0
I0417 12:01:46.093034 21987 net.cpp:408] rpn_cls_score -> rpn_cls_score
I0417 12:01:46.094239 21987 net.cpp:150] Setting up rpn_cls_score
I0417 12:01:46.094249 21987 net.cpp:157] Top shape: 1 74 96 1 1 (7104)
I0417 12:01:46.094251 21987 net.cpp:165] Memory required for data: 10172134332
I0417 12:01:46.094256 21987 layer_factory.hpp:77] Creating layer rpn_cls_score_rpn_cls_score_0_split
I0417 12:01:46.094261 21987 net.cpp:100] Creating Layer rpn_cls_score_rpn_cls_score_0_split
I0417 12:01:46.094265 21987 net.cpp:434] rpn_cls_score_rpn_cls_score_0_split <- rpn_cls_score
I0417 12:01:46.094270 21987 net.cpp:408] rpn_cls_score_rpn_cls_score_0_split -> rpn_cls_score_rpn_cls_score_0_split_0
I0417 12:01:46.094275 21987 net.cpp:408] rpn_cls_score_rpn_cls_score_0_split -> rpn_cls_score_rpn_cls_score_0_split_1
I0417 12:01:46.094332 21987 net.cpp:150] Setting up rpn_cls_score_rpn_cls_score_0_split
I0417 12:01:46.094339 21987 net.cpp:157] Top shape: 1 74 96 1 1 (7104)
I0417 12:01:46.094344 21987 net.cpp:157] Top shape: 1 74 96 1 1 (7104)
I0417 12:01:46.094347 21987 net.cpp:165] Memory required for data: 10172191164
I0417 12:01:46.094350 21987 layer_factory.hpp:77] Creating layer rpn_twin_pred
I0417 12:01:46.094362 21987 net.cpp:100] Creating Layer rpn_twin_pred
I0417 12:01:46.094367 21987 net.cpp:434] rpn_twin_pred <- rpn/output_pool_rpn/output_pool_0_split_1
I0417 12:01:46.094372 21987 net.cpp:408] rpn_twin_pred -> rpn_twin_pred
I0417 12:01:46.095630 21987 net.cpp:150] Setting up rpn_twin_pred
I0417 12:01:46.095640 21987 net.cpp:157] Top shape: 1 74 96 1 1 (7104)
I0417 12:01:46.095643 21987 net.cpp:165] Memory required for data: 10172219580
I0417 12:01:46.095649 21987 layer_factory.hpp:77] Creating layer rpn_twin_pred_rpn_twin_pred_0_split
I0417 12:01:46.095654 21987 net.cpp:100] Creating Layer rpn_twin_pred_rpn_twin_pred_0_split
I0417 12:01:46.095657 21987 net.cpp:434] rpn_twin_pred_rpn_twin_pred_0_split <- rpn_twin_pred
I0417 12:01:46.095662 21987 net.cpp:408] rpn_twin_pred_rpn_twin_pred_0_split -> rpn_twin_pred_rpn_twin_pred_0_split_0
I0417 12:01:46.095669 21987 net.cpp:408] rpn_twin_pred_rpn_twin_pred_0_split -> rpn_twin_pred_rpn_twin_pred_0_split_1
I0417 12:01:46.095710 21987 net.cpp:150] Setting up rpn_twin_pred_rpn_twin_pred_0_split
I0417 12:01:46.095718 21987 net.cpp:157] Top shape: 1 74 96 1 1 (7104)
I0417 12:01:46.095722 21987 net.cpp:157] Top shape: 1 74 96 1 1 (7104)
I0417 12:01:46.095726 21987 net.cpp:165] Memory required for data: 10172276412
I0417 12:01:46.095728 21987 layer_factory.hpp:77] Creating layer rpn_cls_score_reshape
I0417 12:01:46.095739 21987 net.cpp:100] Creating Layer rpn_cls_score_reshape
I0417 12:01:46.095746 21987 net.cpp:434] rpn_cls_score_reshape <- rpn_cls_score_rpn_cls_score_0_split_0
I0417 12:01:46.095751 21987 net.cpp:408] rpn_cls_score_reshape -> rpn_cls_score_reshape
I0417 12:01:46.095783 21987 net.cpp:150] Setting up rpn_cls_score_reshape
I0417 12:01:46.095789 21987 net.cpp:157] Top shape: 1 2 3552 1 1 (7104)
I0417 12:01:46.095793 21987 net.cpp:165] Memory required for data: 10172304828
I0417 12:01:46.095795 21987 layer_factory.hpp:77] Creating layer rpn_cls_score_reshape_rpn_cls_score_reshape_0_split
I0417 12:01:46.095800 21987 net.cpp:100] Creating Layer rpn_cls_score_reshape_rpn_cls_score_reshape_0_split
I0417 12:01:46.095804 21987 net.cpp:434] rpn_cls_score_reshape_rpn_cls_score_reshape_0_split <- rpn_cls_score_reshape
I0417 12:01:46.095809 21987 net.cpp:408] rpn_cls_score_reshape_rpn_cls_score_reshape_0_split -> rpn_cls_score_reshape_rpn_cls_score_reshape_0_split_0
I0417 12:01:46.095818 21987 net.cpp:408] rpn_cls_score_reshape_rpn_cls_score_reshape_0_split -> rpn_cls_score_reshape_rpn_cls_score_reshape_0_split_1
I0417 12:01:46.095823 21987 net.cpp:408] rpn_cls_score_reshape_rpn_cls_score_reshape_0_split -> rpn_cls_score_reshape_rpn_cls_score_reshape_0_split_2
I0417 12:01:46.095875 21987 net.cpp:150] Setting up rpn_cls_score_reshape_rpn_cls_score_reshape_0_split
I0417 12:01:46.095885 21987 net.cpp:157] Top shape: 1 2 3552 1 1 (7104)
I0417 12:01:46.095888 21987 net.cpp:157] Top shape: 1 2 3552 1 1 (7104)
I0417 12:01:46.095892 21987 net.cpp:157] Top shape: 1 2 3552 1 1 (7104)
I0417 12:01:46.095896 21987 net.cpp:165] Memory required for data: 10172390076
I0417 12:01:46.095898 21987 layer_factory.hpp:77] Creating layer rpn-data
I0417 12:01:46.096325 21987 net.cpp:100] Creating Layer rpn-data
I0417 12:01:46.096338 21987 net.cpp:434] rpn-data <- rpn_cls_score_rpn_cls_score_0_split_1
I0417 12:01:46.096343 21987 net.cpp:434] rpn-data <- gt_boxes_data_1_split_0
I0417 12:01:46.096349 21987 net.cpp:434] rpn-data <- data_data_0_split_1
I0417 12:01:46.096354 21987 net.cpp:408] rpn-data -> rpn_labels
I0417 12:01:46.096359 21987 net.cpp:408] rpn-data -> rpn_twin_targets
I0417 12:01:46.096365 21987 net.cpp:408] rpn-data -> rpn_twin_inside_weights
I0417 12:01:46.096371 21987 net.cpp:408] rpn-data -> rpn_twin_outside_weights
I0417 12:01:46.098618 21987 net.cpp:150] Setting up rpn-data
I0417 12:01:46.098634 21987 net.cpp:157] Top shape: 1 1 3552 1 1 (3552)
I0417 12:01:46.098639 21987 net.cpp:157] Top shape: 1 74 96 1 1 (7104)
I0417 12:01:46.098641 21987 net.cpp:157] Top shape: 1 74 96 1 1 (7104)
I0417 12:01:46.098655 21987 net.cpp:157] Top shape: 1 74 96 1 1 (7104)
I0417 12:01:46.098657 21987 net.cpp:165] Memory required for data: 10172489532
I0417 12:01:46.098661 21987 layer_factory.hpp:77] Creating layer rpn_labels_rpn-data_0_split
I0417 12:01:46.098666 21987 net.cpp:100] Creating Layer rpn_labels_rpn-data_0_split
I0417 12:01:46.098670 21987 net.cpp:434] rpn_labels_rpn-data_0_split <- rpn_labels
I0417 12:01:46.098675 21987 net.cpp:408] rpn_labels_rpn-data_0_split -> rpn_labels_rpn-data_0_split_0
I0417 12:01:46.098681 21987 net.cpp:408] rpn_labels_rpn-data_0_split -> rpn_labels_rpn-data_0_split_1
I0417 12:01:46.098731 21987 net.cpp:150] Setting up rpn_labels_rpn-data_0_split
I0417 12:01:46.098738 21987 net.cpp:157] Top shape: 1 1 3552 1 1 (3552)
I0417 12:01:46.098742 21987 net.cpp:157] Top shape: 1 1 3552 1 1 (3552)
I0417 12:01:46.098744 21987 net.cpp:165] Memory required for data: 10172517948
I0417 12:01:46.098747 21987 layer_factory.hpp:77] Creating layer rpn_loss_cls
I0417 12:01:46.098757 21987 net.cpp:100] Creating Layer rpn_loss_cls
I0417 12:01:46.098776 21987 net.cpp:434] rpn_loss_cls <- rpn_cls_score_reshape_rpn_cls_score_reshape_0_split_0
I0417 12:01:46.098783 21987 net.cpp:434] rpn_loss_cls <- rpn_labels_rpn-data_0_split_0
…
I0417 12:01:46.099166 21987 layer_factory.hpp:77] Creating layer rpn_accuarcy
I0417 12:01:46.099177 21987 net.cpp:100] Creating Layer rpn_accuarcy
I0417 12:01:46.099184 21987 net.cpp:434] rpn_accuarcy <- rpn_cls_score_reshape_rpn_cls_score_reshape_0_split_1
I0417 12:01:46.099191 21987 net.cpp:434] rpn_accuarcy <- rpn_labels_rpn-data_0_split_1
I0417 12:01:46.099200 21987 net.cpp:408] rpn_accuarcy -> rpn_accuarcy
I0417 12:01:46.099210 21987 net.cpp:408] rpn_accuarcy -> rpn_accuarcy_class
I0417 12:01:46.099265 21987 net.cpp:150] Setting up rpn_accuarcy
I0417 12:01:46.099275 21987 net.cpp:157] Top shape: (1)
I0417 12:01:46.099282 21987 net.cpp:157] Top shape: 2 (2)
I0417 12:01:46.099287 21987 net.cpp:165] Memory required for data: 10172517968
I0417 12:01:46.099292 21987 layer_factory.hpp:77] Creating layer rpn_cls_prob
I0417 12:01:46.099299 21987 net.cpp:100] Creating Layer rpn_cls_prob
I0417 12:01:46.099306 21987 net.cpp:434] rpn_cls_prob <- rpn_cls_score_reshape_rpn_cls_score_reshape_0_split_2
I0417 12:01:46.099313 21987 net.cpp:408] rpn_cls_prob -> rpn_cls_prob
I0417 12:01:46.099395 21987 net.cpp:150] Setting up rpn_cls_prob
I0417 12:01:46.099404 21987 net.cpp:157] Top shape: 1 2 3552 1 1 (7104)
I0417 12:01:46.099409 21987 net.cpp:165] Memory required for data: 10172546384
I0417 12:01:46.099416 21987 layer_factory.hpp:77] Creating layer rpn_cls_prob_reshape
I0417 12:01:46.099426 21987 net.cpp:100] Creating Layer rpn_cls_prob_reshape
I0417 12:01:46.099432 21987 net.cpp:434] rpn_cls_prob_reshape <- rpn_cls_prob
I0417 12:01:46.099442 21987 net.cpp:408] rpn_cls_prob_reshape -> rpn_cls_prob_reshape
I0417 12:01:46.099478 21987 net.cpp:150] Setting up rpn_cls_prob_reshape
I0417 12:01:46.099488 21987 net.cpp:157] Top shape: 1 74 96 1 1 (7104)
I0417 12:01:46.099493 21987 net.cpp:165] Memory required for data: 10172574800
I0417 12:01:46.099498 21987 layer_factory.hpp:77] Creating layer proposal
I0417 12:01:46.125874 21987 net.cpp:100] Creating Layer proposal
I0417 12:01:46.125907 21987 net.cpp:434] proposal <- rpn_cls_prob_reshape
I0417 12:01:46.125922 21987 net.cpp:434] proposal <- rpn_twin_pred_rpn_twin_pred_0_split_1
I0417 12:01:46.125937 21987 net.cpp:408] proposal -> rpn_rois
I0417 12:01:46.131906 21987 net.cpp:150] Setting up proposal
I0417 12:01:46.131942 21987 net.cpp:157] Top shape: 1 3 (3)
I0417 12:01:46.131953 21987 net.cpp:165] Memory required for data: 10172574812
I0417 12:01:46.131963 21987 layer_factory.hpp:77] Creating layer roi-data
I0417 12:01:46.132289 21987 net.cpp:100] Creating Layer roi-data
I0417 12:01:46.132315 21987 net.cpp:434] roi-data <- rpn_rois
I0417 12:01:46.132328 21987 net.cpp:434] roi-data <- gt_boxes_data_1_split_1
I0417 12:01:46.132341 21987 net.cpp:408] roi-data -> rois
I0417 12:01:46.132362 21987 net.cpp:408] roi-data -> labels
I0417 12:01:46.132377 21987 net.cpp:408] roi-data -> twin_targets
I0417 12:01:46.132391 21987 net.cpp:408] roi-data -> twin_inside_weights
I0417 12:01:46.132405 21987 net.cpp:408] roi-data -> twin_outside_weights
I0417 12:01:46.133267 21987 net.cpp:150] Setting up roi-data
I0417 12:01:46.133299 21987 net.cpp:157] Top shape: 1 3 (3)
I0417 12:01:46.133311 21987 net.cpp:157] Top shape: 1 1 (1)
I0417 12:01:46.133319 21987 net.cpp:157] Top shape: 1 402 (402)
I0417 12:01:46.133328 21987 net.cpp:157] Top shape: 1 402 (402)
I0417 12:01:46.133340 21987 net.cpp:157] Top shape: 1 402 (402)
I0417 12:01:46.133347 21987 net.cpp:165] Memory required for data: 10172579652
I0417 12:01:46.133357 21987 layer_factory.hpp:77] Creating layer labels_roi-data_1_split
I0417 12:01:46.133369 21987 net.cpp:100] Creating Layer labels_roi-data_1_split
I0417 12:01:46.133378 21987 net.cpp:434] labels_roi-data_1_split <- labels
I0417 12:01:46.133396 21987 net.cpp:408] labels_roi-data_1_split -> labels_roi-data_1_split_0
I0417 12:01:46.133414 21987 net.cpp:408] labels_roi-data_1_split -> labels_roi-data_1_split_1
I0417 12:01:46.133523 21987 net.cpp:150] Setting up labels_roi-data_1_split
I0417 12:01:46.133539 21987 net.cpp:157] Top shape: 1 1 (1)
I0417 12:01:46.133551 21987 net.cpp:157] Top shape: 1 1 (1)
I0417 12:01:46.133560 21987 net.cpp:165] Memory required for data: 10172579660
I0417 12:01:46.133569 21987 layer_factory.hpp:77] Creating layer roi_pool5
I0417 12:01:46.133586 21987 net.cpp:100] Creating Layer roi_pool5
I0417 12:01:46.133599 21987 net.cpp:434] roi_pool5 <- conv5b_relu5b_0_split_1
I0417 12:01:46.133608 21987 net.cpp:434] roi_pool5 <- rois
I0417 12:01:46.133621 21987 net.cpp:408] roi_pool5 -> pool5
I0417 12:01:46.133639 21987 roi_pooling_layer.cpp:34] Temporal scale: 0.125
I0417 12:01:46.133656 21987 roi_pooling_layer.cpp:35] Spatial scale: 0.0625
I0417 12:01:46.133769 21987 net.cpp:150] Setting up roi_pool5
I0417 12:01:46.133783 21987 net.cpp:157] Top shape: 1 512 1 4 4 (8192)
I0417 12:01:46.133791 21987 net.cpp:165] Memory required for data: 10172612428
I0417 12:01:46.133803 21987 layer_factory.hpp:77] Creating layer fc6
I0417 12:01:46.133821 21987 net.cpp:100] Creating Layer fc6
I0417 12:01:46.133829 21987 net.cpp:434] fc6 <- pool5
I0417 12:01:46.133844 21987 net.cpp:408] fc6 -> fc6
I0417 12:01:47.019124 21987 net.cpp:150] Setting up fc6
I0417 12:01:47.019148 21987 net.cpp:157] Top shape: 1 4096 (4096)
I0417 12:01:47.019151 21987 net.cpp:165] Memory required for data: 10172628812
I0417 12:01:47.019161 21987 layer_factory.hpp:77] Creating layer relu6
I0417 12:01:47.019170 21987 net.cpp:100] Creating Layer relu6
I0417 12:01:47.019176 21987 net.cpp:434] relu6 <- fc6
I0417 12:01:47.019181 21987 net.cpp:395] relu6 -> fc6 (in-place)
I0417 12:01:47.019189 21987 net.cpp:150] Setting up relu6
I0417 12:01:47.019198 21987 net.cpp:157] Top shape: 1 4096 (4096)
I0417 12:01:47.019201 21987 net.cpp:165] Memory required for data: 10172645196
I0417 12:01:47.019206 21987 layer_factory.hpp:77] Creating layer drop6
I0417 12:01:47.019217 21987 net.cpp:100] Creating Layer drop6
I0417 12:01:47.019219 21987 net.cpp:434] drop6 <- fc6
I0417 12:01:47.019223 21987 net.cpp:395] drop6 -> fc6 (in-place)
I0417 12:01:47.019253 21987 net.cpp:150] Setting up drop6
I0417 12:01:47.019260 21987 net.cpp:157] Top shape: 1 4096 (4096)
I0417 12:01:47.019263 21987 net.cpp:165] Memory required for data: 10172661580
I0417 12:01:47.019266 21987 layer_factory.hpp:77] Creating layer fc6_drop6_0_split
I0417 12:01:47.019271 21987 net.cpp:100] Creating Layer fc6_drop6_0_split
I0417 12:01:47.019275 21987 net.cpp:434] fc6_drop6_0_split <- fc6
I0417 12:01:47.019280 21987 net.cpp:408] fc6_drop6_0_split -> fc6_drop6_0_split_0
I0417 12:01:47.019286 21987 net.cpp:408] fc6_drop6_0_split -> fc6_drop6_0_split_1
I0417 12:01:47.019326 21987 net.cpp:150] Setting up fc6_drop6_0_split
I0417 12:01:47.019333 21987 net.cpp:157] Top shape: 1 4096 (4096)
I0417 12:01:47.019337 21987 net.cpp:157] Top shape: 1 4096 (4096)
I0417 12:01:47.019340 21987 net.cpp:165] Memory required for data: 10172694348
I0417 12:01:47.019343 21987 layer_factory.hpp:77] Creating layer cls_score
I0417 12:01:47.019352 21987 net.cpp:100] Creating Layer cls_score
I0417 12:01:47.019356 21987 net.cpp:434] cls_score <- fc6_drop6_0_split_0
I0417 12:01:47.019361 21987 net.cpp:408] cls_score -> cls_score
I0417 12:01:47.041028 21987 net.cpp:150] Setting up cls_score
I0417 12:01:47.041044 21987 net.cpp:157] Top shape: 1 201 (201)
I0417 12:01:47.041049 21987 net.cpp:165] Memory required for data: 10172695152
I0417 12:01:47.041055 21987 layer_factory.hpp:77] Creating layer cls_score_cls_score_0_split
I0417 12:01:47.041062 21987 net.cpp:100] Creating Layer cls_score_cls_score_0_split
I0417 12:01:47.041065 21987 net.cpp:434] cls_score_cls_score_0_split <- cls_score
I0417 12:01:47.041071 21987 net.cpp:408] cls_score_cls_score_0_split -> cls_score_cls_score_0_split_0
I0417 12:01:47.041077 21987 net.cpp:408] cls_score_cls_score_0_split -> cls_score_cls_score_0_split_1
I0417 12:01:47.041119 21987 net.cpp:150] Setting up cls_score_cls_score_0_split
I0417 12:01:47.041128 21987 net.cpp:157] Top shape: 1 201 (201)
I0417 12:01:47.041132 21987 net.cpp:157] Top shape: 1 201 (201)
I0417 12:01:47.041136 21987 net.cpp:165] Memory required for data: 10172696760
I0417 12:01:47.041138 21987 layer_factory.hpp:77] Creating layer twin_pred
I0417 12:01:47.041146 21987 net.cpp:100] Creating Layer twin_pred
I0417 12:01:47.041151 21987 net.cpp:434] twin_pred <- fc6_drop6_0_split_1
I0417 12:01:47.041160 21987 net.cpp:408] twin_pred -> twin_pred
I0417 12:01:47.094346 21987 net.cpp:150] Setting up twin_pred
I0417 12:01:47.094369 21987 net.cpp:157] Top shape: 1 402 (402)
I0417 12:01:47.094373 21987 net.cpp:165] Memory required for data: 10172698368
I0417 12:01:47.094383 21987 layer_factory.hpp:77] Creating layer loss_cls
I0417 12:01:47.094391 21987 net.cpp:100] Creating Layer loss_cls
I0417 12:01:47.094395 21987 net.cpp:434] loss_cls <- cls_score_cls_score_0_split_0
I0417 12:01:47.094403 21987 net.cpp:434] loss_cls <- labels_roi-data_1_split_0
I0417 12:01:47.094408 21987 net.cpp:408] loss_cls -> loss_cls
…
