…
I0418 04:56:04.485028  5947 solver.cpp:81] Creating training net from train_net file: ./experiments/activitynet/train.prototxt
I0418 04:56:04.485905  5947 net.cpp:322] The NetState phase (0) differed from the phase (1) specified by a rule in layer accuarcy
I0418 04:56:04.486142  5947 net.cpp:58] Initializing net from parameters: 
name: "activitynet"
state {
  phase: TRAIN
}
layer {
  name: "data"
  type: "Python"
  top: "data"
  top: "gt_boxes"
  python_param {
    module: "roi_data_layer.layer"
    layer: "RoIDataLayer"
    param_str: "\'num_classes\': 100"
  }
}
layer {
  name: "conv1a"
  type: "Convolution"
  bottom: "data"
  top: "conv1a"
  param {
    lr_mult: 0
    decay_mult: 0
  }
  param {
    lr_mult: 0
    decay_mult: 0
  }
  convolution_param {
    num_output: 64
    pad: 1
    pad: 1
    pad: 1
    kernel_size: 3
    kernel_size: 3
    kernel_size: 3
    weight_filler {
      type: "gaussian"
      std: 0.01
    }
    bias_filler {
      type: "constant"
      value: 0
    }
  }
}
layer {
  name: "relu1a"
  type: "ReLU"
  bottom: "conv1a"
  top: "conv1a"
}
layer {
  name: "pool1"
  type: "Pooling"
  bottom: "conv1a"
  top: "pool1"
  pooling_param {
    pool: MAX
    kernel_size: 1
    kernel_size: 2
    kernel_size: 2
    stride: 1
    stride: 2
    stride: 2
  }
}
layer {
  name: "conv2a"
  type: "Convolution"
  bottom: "pool1"
  top: "conv2a"
  param {
    lr_mult: 0
    decay_mult: 0
  }
  param {
    lr_mult: 0
    decay_mult: 0
  }
  convolution_param {
    num_output: 128
    pad: 1
    pad: 1
    pad: 1
    kernel_size: 3
    kernel_size: 3
    kernel_size: 3
    weight_filler {
      type: "gaussian"
      std: 0.01
    }
    bias_filler {
      type: "constant"
      value: 1
    }
  }
}
layer {
  name: "relu2a"
  type: "ReLU"
  bottom: "conv2a"
  top: "conv2a"
}
layer {
  name: "pool2"
  type: "Pooling"
  bottom: "conv2a"
  top: "pool2"
  pooling_param {
    pool: MAX
    kernel_size: 2
    kernel_size: 2
    kernel_size: 2
    stride: 2
    stride: 2
    stride: 2
  }
}
layer {
  name: "conv3a"
  type: "Convolution"
  bottom: "pool2"
  top: "conv3a"
  param {
    lr_mult: 1
    decay_mult: 1
  }
  param {
    lr_mult: 2
    decay_mult: 0
  }
  convolution_param {
    num_output: 256
    pad: 1
    pad: 1
    pad: 1
    kernel_size: 3
    kernel_size: 3
    kernel_size: 3
    weight_filler {
      type: "gaussian"
      std: 0.01
    }
    bias_filler {
      type: "constant"
      value: 1
    }
  }
}
layer {
  name: "relu3a"
  type: "ReLU"
  bottom: "conv3a"
  top: "conv3a"
}
layer {
  name: "conv3b"
  type: "Convolution"
  bottom: "conv3a"
  top: "conv3b"
  param {
    lr_mult: 1
    decay_mult: 1
  }
  param {
    lr_mult: 2
    decay_mult: 0
  }
  convolution_param {
    num_output: 256
    pad: 1
    pad: 1
    pad: 1
    kernel_size: 3
    kernel_size: 3
    kernel_size: 3
    weight_filler {
      type: "gaussian"
      std: 0.01
    }
    bias_filler {
      type: "constant"
      value: 1
    }
  }
}
layer {
  name: "relu3b"
  type: "ReLU"
  bottom: "conv3b"
  top: "conv3b"
}
layer {
  name: "pool3"
  type: "Pooling"
  bottom: "conv3b"
  top: "pool3"
  pooling_param {
    pool: MAX
    kernel_size: 2
    kernel_size: 2
    kernel_size: 2
    stride: 2
    stride: 2
    stride: 2
  }
}
layer {
  name: "conv4a"
  type: "Convolution"
  bottom: "pool3"
  top: "conv4a"
  param {
    lr_mult: 1
    decay_mult: 1
  }
  param {
    lr_mult: 2
    decay_mult: 0
  }
  convolution_param {
    num_output: 512
    pad: 1
    pad: 1
    pad: 1
    kernel_size: 3
    kernel_size: 3
    kernel_size: 3
    weight_filler {
      type: "gaussian"
      std: 0.01
    }
    bias_filler {
      type: "constant"
      value: 1
    }
  }
}
layer {
  name: "relu4a"
  type: "ReLU"
  bottom: "conv4a"
  top: "conv4a"
}
layer {
  name: "conv4b"
  type: "Convolution"
  bottom: "conv4a"
  top: "conv4b"
  param {
    lr_mult: 1
    decay_mult: 1
  }
  param {
    lr_mult: 2
    decay_mult: 0
  }
  convolution_param {
    num_output: 512
    pad: 1
    pad: 1
    pad: 1
    kernel_size: 3
    kernel_size: 3
    kernel_size: 3
    weight_filler {
      type: "gaussian"
      std: 0.01
    }
    bias_filler {
      type: "constant"
      value: 1
    }
  }
}
layer {
  name: "relu4b"
  type: "ReLU"
  bottom: "conv4b"
  top: "conv4b"
}
layer {
  name: "pool4"
  type: "Pooling"
  bottom: "conv4b"
  top: "pool4"
  pooling_param {
    pool: MAX
    kernel_size: 2
    kernel_size: 2
    kernel_size: 2
    stride: 2
    stride: 2
    stride: 2
  }
}
layer {
  name: "conv5a"
  type: "Convolution"
  bottom: "pool4"
  top: "conv5a"
  param {
    lr_mult: 1
    decay_mult: 1
  }
  param {
    lr_mult: 2
    decay_mult: 0
  }
  convolution_param {
    num_output: 512
    pad: 1
    pad: 1
    pad: 1
    kernel_size: 3
    kernel_size: 3
    kernel_size: 3
    weight_filler {
      type: "gaussian"
      std: 0.01
    }
    bias_filler {
      type: "constant"
      value: 1
    }
  }
}
layer {
  name: "relu5a"
  type: "ReLU"
  bottom: "conv5a"
  top: "conv5a"
}
layer {
  name: "conv5b"
  type: "Convolution"
  bottom: "conv5a"
  top: "conv5b"
  param {
    lr_mult: 1
    decay_mult: 1
  }
  param {
    lr_mult: 2
    decay_mult: 0
  }
  convolution_param {
    num_output: 512
    pad: 1
    pad: 1
    pad: 1
    kernel_size: 3
    kernel_size: 3
    kernel_size: 3
    weight_filler {
      type: "gaussian"
      std: 0.01
    }
    bias_filler {
      type: "constant"
      value: 1
    }
  }
}
layer {
  name: "relu5b"
  type: "ReLU"
  bottom: "conv5b"
  top: "conv5b"
}
layer {
  name: "rpn_conv/3x3"
  type: "Convolution"
  bottom: "conv5b"
  top: "rpn/output"
  param {
    lr_mult: 1
    decay_mult: 1
  }
  param {
    lr_mult: 2
    decay_mult: 0
  }
  convolution_param {
    num_output: 512
    pad: 1
    pad: 1
    pad: 1
    kernel_size: 3
    kernel_size: 3
    kernel_size: 3
    stride: 1
    stride: 2
    stride: 2
    weight_filler {
      type: "gaussian"
      std: 0.01
    }
    bias_filler {
      type: "constant"
      value: 0
    }
  }
}
layer {
  name: "rpn_relu/3x3"
  type: "ReLU"
  bottom: "rpn/output"
  top: "rpn/output"
}
layer {
  name: "rpn_conv/3x3_2"
  type: "Convolution"
  bottom: "rpn/output"
  top: "rpn/output_2"
  param {
    lr_mult: 1
    decay_mult: 1
  }
  param {
    lr_mult: 2
    decay_mult: 0
  }
  convolution_param {
    num_output: 512
    pad: 1
    pad: 1
    pad: 1
    kernel_size: 3
    kernel_size: 3
    kernel_size: 3
    stride: 1
    stride: 2
    stride: 2
    weight_filler {
      type: "gaussian"
      std: 0.01
    }
    bias_filler {
      type: "constant"
      value: 0
    }
  }
}
layer {
  name: "rpn_relu/3x3_2"
  type: "ReLU"
  bottom: "rpn/output_2"
  top: "rpn/output_2"
}
layer {
  name: "rpn/output_pool"
  type: "Pooling"
  bottom: "rpn/output_2"
  top: "rpn/output_pool"
  pooling_param {
    pool: MAX
    kernel_size: 1
    kernel_size: 2
    kernel_size: 2
  }
}
layer {
  name: "rpn_cls_score"
  type: "Convolution"
  bottom: "rpn/output_pool"
  top: "rpn_cls_score"
  param {
    lr_mult: 1
    decay_mult: 1
  }
  param {
    lr_mult: 2
    decay_mult: 0
  }
  convolution_param {
    num_output: 74
    kernel_size: 1
    kernel_size: 1
    kernel_size: 1
    weight_filler {
      type: "gaussian"
      std: 0.01
    }
    bias_filler {
      type: "constant"
      value: 0
    }
  }
}
layer {
  name: "rpn_twin_pred"
  type: "Convolution"
  bottom: "rpn/output_pool"
  top: "rpn_twin_pred"
  param {
    lr_mult: 1
    decay_mult: 1
  }
  param {
    lr_mult: 2
    decay_mult: 0
  }
  convolution_param {
    num_output: 74
    kernel_size: 1
    kernel_size: 1
    kernel_size: 1
    weight_filler {
      type: "gaussian"
      std: 0.01
    }
    bias_filler {
      type: "constant"
      value: 0
    }
  }
}
layer {
  name: "rpn_cls_score_reshape"
  type: "Reshape"
  bottom: "rpn_cls_score"
  top: "rpn_cls_score_reshape"
  reshape_param {
    shape {
      dim: 0
      dim: 2
      dim: -1
      dim: 0
      dim: 0
    }
  }
}
layer {
  name: "rpn-data"
  type: "Python"
  bottom: "rpn_cls_score"
  bottom: "gt_boxes"
  bottom: "data"
  top: "rpn_labels"
  top: "rpn_twin_targets"
  top: "rpn_twin_inside_weights"
  top: "rpn_twin_outside_weights"
  python_param {
    module: "rpn.anchor_target_layer"
    layer: "AnchorTargetLayer"
    param_str: "\'feat_stride\': 8 \n\'scales\': !!python/tuple [1,1.25, 1.5,1.75, 2,2.5, 3,3.5, 4,4.5, 5,5.5, 6,7, 8,9,10,11,12,14,16,18,20,22,24,28,32,36,40,44,52,60,68,76,84,92,100]"
  }
}
layer {
  name: "rpn_loss_cls"
  type: "SoftmaxWithLoss"
  bottom: "rpn_cls_score_reshape"
  bottom: "rpn_labels"
  top: "rpn_cls_loss"
  loss_weight: 1
  propagate_down: true
  propagate_down: false
  loss_param {
    ignore_label: -1
    normalize: true
  }
}
layer {
  name: "rpn_loss_twin"
  type: "SmoothL1Loss"
  bottom: "rpn_twin_pred"
  bottom: "rpn_twin_targets"
  bottom: "rpn_twin_inside_weights"
  bottom: "rpn_twin_outside_weights"
  top: "rpn_loss_twin"
  loss_weight: 1
  smooth_l1_loss_param {
    sigma: 3
  }
}
layer {
  name: "rpn_accuarcy"
  type: "Accuracy"
  bottom: "rpn_cls_score_reshape"
  bottom: "rpn_labels"
  top: "rpn_accuarcy"
  top: "rpn_accuarcy_class"
  propagate_down: false
  propagate_down: false
  accuracy_param {
    ignore_label: -1
  }
}
layer {
  name: "rpn_cls_prob"
  type: "Softmax"
  bottom: "rpn_cls_score_reshape"
  top: "rpn_cls_prob"
}
layer {
  name: "rpn_cls_prob_reshape"
  type: "Reshape"
  bottom: "rpn_cls_prob"
  top: "rpn_cls_prob_reshape"
  reshape_param {
    shape {
      dim: 0
      dim: 74
      dim: -1
      dim: 0
      dim: 0
    }
  }
}
layer {
  name: "proposal"
  type: "Python"
  bottom: "rpn_cls_prob_reshape"
  bottom: "rpn_twin_pred"
  top: "rpn_rois"
  include {
    phase: TRAIN
  }
  python_param {
    module: "rpn.proposal_layer"
    layer: "ProposalLayer"
    param_str: "\'feat_stride\': 8 \n\'scales\': !!python/tuple [1,1.25, 1.5,1.75, 2,2.5, 3,3.5, 4,4.5, 5,5.5, 6,7, 8,9,10,11,12,14,16,18,20,22,24,28,32,36,40,44,52,60,68,76,84,92,100]"
  }
}
layer {
  name: "roi-data"
  type: "Python"
  bottom: "rpn_rois"
  bottom: "gt_boxes"
  top: "rois"
  top: "labels"
  top: "twin_targets"
  top: "twin_inside_weights"
  top: "twin_outside_weights"
  python_param {
    module: "rpn.proposal_target_layer"
    layer: "ProposalTargetLayer"
    param_str: "\'num_classes\': 99"
  }
}
layer {
  name: "roi_pool5"
  type: "ROIPooling"
  bottom: "conv5b"
  bottom: "rois"
  top: "pool5"
  roi_pooling_param {
    pooled_h: 4
    pooled_w: 4
    spatial_scale: 0.0625
    pooled_l: 1
    temporal_scale: 0.125
  }
}
layer {
  name: "fc6"
  type: "InnerProduct"
  bottom: "pool5"
  top: "fc6"
  param {
    lr_mult: 1
    decay_mult: 1
  }
  param {
    lr_mult: 2
    decay_mult: 0
  }
  inner_product_param {
    num_output: 4096
    weight_filler {
      type: "gaussian"
      std: 0.005
    }
    bias_filler {
      type: "constant"
      value: 1
    }
  }
}
layer {
  name: "relu6"
  type: "ReLU"
  bottom: "fc6"
  top: "fc6"
}
layer {
  name: "drop6"
  type: "Dropout"
  bottom: "fc6"
  top: "fc6"
  dropout_param {
    dropout_ratio: 0.5
  }
}
layer {
  name: "cls_score"
  type: "InnerProduct"
  bottom: "fc6"
  top: "cls_score"
  param {
    lr_mult: 1
    decay_mult: 1
  }
  param {
    lr_mult: 2
    decay_mult: 0
  }
  inner_product_param {
    num_output: 99
    weight_filler {
      type: "gaussian"
      std: 0.01
    }
    bias_filler {
      type: "constant"
      value: 0
    }
  }
}
layer {
  name: "twin_pred"
  type: "InnerProduct"
  bottom: "fc6"
  top: "twin_pred"
  param {
    lr_mult: 1
    decay_mult: 1
  }
  param {
    lr_mult: 2
    decay_mult: 0
  }
  inner_product_param {
    num_output: 198
    weight_filler {
      type: "gaussian"
      std: 0.001
    }
    bias_filler {
      type: "constant"
      value: 0
    }
  }
}
layer {
  name: "loss_cls"
  type: "SigmoidCrossEntropyLoss"
  bottom: "cls_score"
  bottom: "labels"
  top: "loss_cls"
  loss_weight: 1
  propagate_down: true
  propagate_down: false
}
layer {
  name: "loss_twin"
  type: "SmoothL1Loss"
  bottom: "twin_pred"
  bottom: "twin_targets"
  bottom: "twin_inside_weights"
  bottom: "twin_outside_weights"
  top: "loss_twin"
  loss_weight: 1
}
I0418 04:56:04.486348  5947 layer_factory.hpp:77] Creating layer data
I0418 04:56:04.511983  5947 net.cpp:100] Creating Layer data
I0418 04:56:04.512006  5947 net.cpp:408] data -> data
I0418 04:56:04.512019  5947 net.cpp:408] data -> gt_boxes
setting up
has rpn
RoiDataLayer: name_to_top: {'gt_windows': 1, 'data': 0}
I0418 04:56:04.526055  5947 net.cpp:150] Setting up data
I0418 04:56:04.526078  5947 net.cpp:157] Top shape: 1 3 768 112 112 (28901376)
I0418 04:56:04.526087  5947 net.cpp:157] Top shape: 1 101 (101)
I0418 04:56:04.526091  5947 net.cpp:165] Memory required for data: 115605908
I0418 04:56:04.526099  5947 layer_factory.hpp:77] Creating layer data_data_0_split
I0418 04:56:04.526111  5947 net.cpp:100] Creating Layer data_data_0_split
I0418 04:56:04.526118  5947 net.cpp:434] data_data_0_split <- data
I0418 04:56:04.526125  5947 net.cpp:408] data_data_0_split -> data_data_0_split_0
I0418 04:56:04.526136  5947 net.cpp:408] data_data_0_split -> data_data_0_split_1
I0418 04:56:04.526170  5947 net.cpp:150] Setting up data_data_0_split
I0418 04:56:04.526180  5947 net.cpp:157] Top shape: 1 3 768 112 112 (28901376)
I0418 04:56:04.526183  5947 net.cpp:157] Top shape: 1 3 768 112 112 (28901376)
I0418 04:56:04.526186  5947 net.cpp:165] Memory required for data: 346816916
I0418 04:56:04.526192  5947 layer_factory.hpp:77] Creating layer gt_boxes_data_1_split
I0418 04:56:04.526197  5947 net.cpp:100] Creating Layer gt_boxes_data_1_split
I0418 04:56:04.526201  5947 net.cpp:434] gt_boxes_data_1_split <- gt_boxes
I0418 04:56:04.526206  5947 net.cpp:408] gt_boxes_data_1_split -> gt_boxes_data_1_split_0
I0418 04:56:04.526211  5947 net.cpp:408] gt_boxes_data_1_split -> gt_boxes_data_1_split_1
I0418 04:56:04.526233  5947 net.cpp:150] Setting up gt_boxes_data_1_split
I0418 04:56:04.526247  5947 net.cpp:157] Top shape: 1 101 (101)
I0418 04:56:04.526252  5947 net.cpp:157] Top shape: 1 101 (101)
I0418 04:56:04.526254  5947 net.cpp:165] Memory required for data: 346817724
I0418 04:56:04.526257  5947 layer_factory.hpp:77] Creating layer conv1a
I0418 04:56:04.526273  5947 net.cpp:100] Creating Layer conv1a
I0418 04:56:04.526276  5947 net.cpp:434] conv1a <- data_data_0_split_0
I0418 04:56:04.526281  5947 net.cpp:408] conv1a -> conv1a
I0418 04:56:04.734346  5947 net.cpp:150] Setting up conv1a
I0418 04:56:04.734375  5947 net.cpp:157] Top shape: 1 64 768 112 112 (616562688)
I0418 04:56:04.734380  5947 net.cpp:165] Memory required for data: 2813068476
I0418 04:56:04.734400  5947 layer_factory.hpp:77] Creating layer relu1a
I0418 04:56:04.734413  5947 net.cpp:100] Creating Layer relu1a
I0418 04:56:04.734418  5947 net.cpp:434] relu1a <- conv1a
I0418 04:56:04.734424  5947 net.cpp:395] relu1a -> conv1a (in-place)
I0418 04:56:04.734917  5947 net.cpp:150] Setting up relu1a
I0418 04:56:04.734931  5947 net.cpp:157] Top shape: 1 64 768 112 112 (616562688)
I0418 04:56:04.734935  5947 net.cpp:165] Memory required for data: 5279319228
I0418 04:56:04.734941  5947 layer_factory.hpp:77] Creating layer pool1
I0418 04:56:04.734951  5947 net.cpp:100] Creating Layer pool1
I0418 04:56:04.734954  5947 net.cpp:434] pool1 <- conv1a
I0418 04:56:04.734961  5947 net.cpp:408] pool1 -> pool1
I0418 04:56:04.735167  5947 net.cpp:150] Setting up pool1
I0418 04:56:04.735178  5947 net.cpp:157] Top shape: 1 64 768 56 56 (154140672)
I0418 04:56:04.735182  5947 net.cpp:165] Memory required for data: 5895881916
I0418 04:56:04.735185  5947 layer_factory.hpp:77] Creating layer conv2a
I0418 04:56:04.735198  5947 net.cpp:100] Creating Layer conv2a
I0418 04:56:04.735205  5947 net.cpp:434] conv2a <- pool1
I0418 04:56:04.735211  5947 net.cpp:408] conv2a -> conv2a
I0418 04:56:04.747391  5947 net.cpp:150] Setting up conv2a
I0418 04:56:04.747418  5947 net.cpp:157] Top shape: 1 128 768 56 56 (308281344)
I0418 04:56:04.747423  5947 net.cpp:165] Memory required for data: 7129007292
I0418 04:56:04.747438  5947 layer_factory.hpp:77] Creating layer relu2a
I0418 04:56:04.747448  5947 net.cpp:100] Creating Layer relu2a
I0418 04:56:04.747453  5947 net.cpp:434] relu2a <- conv2a
I0418 04:56:04.747460  5947 net.cpp:395] relu2a -> conv2a (in-place)
I0418 04:56:04.747822  5947 net.cpp:150] Setting up relu2a
I0418 04:56:04.747836  5947 net.cpp:157] Top shape: 1 128 768 56 56 (308281344)
I0418 04:56:04.747840  5947 net.cpp:165] Memory required for data: 8362132668
I0418 04:56:04.747844  5947 layer_factory.hpp:77] Creating layer pool2
I0418 04:56:04.747853  5947 net.cpp:100] Creating Layer pool2
I0418 04:56:04.747858  5947 net.cpp:434] pool2 <- conv2a
I0418 04:56:04.747865  5947 net.cpp:408] pool2 -> pool2
I0418 04:56:04.748066  5947 net.cpp:150] Setting up pool2
I0418 04:56:04.748077  5947 net.cpp:157] Top shape: 1 128 384 28 28 (38535168)
I0418 04:56:04.748081  5947 net.cpp:165] Memory required for data: 8516273340
I0418 04:56:04.748085  5947 layer_factory.hpp:77] Creating layer conv3a
I0418 04:56:04.748098  5947 net.cpp:100] Creating Layer conv3a
I0418 04:56:04.748105  5947 net.cpp:434] conv3a <- pool2
I0418 04:56:04.748111  5947 net.cpp:408] conv3a -> conv3a
I0418 04:56:04.774157  5947 net.cpp:150] Setting up conv3a
I0418 04:56:04.774180  5947 net.cpp:157] Top shape: 1 256 384 28 28 (77070336)
I0418 04:56:04.774184  5947 net.cpp:165] Memory required for data: 8824554684
I0418 04:56:04.774197  5947 layer_factory.hpp:77] Creating layer relu3a
I0418 04:56:04.774206  5947 net.cpp:100] Creating Layer relu3a
I0418 04:56:04.774210  5947 net.cpp:434] relu3a <- conv3a
I0418 04:56:04.774216  5947 net.cpp:395] relu3a -> conv3a (in-place)
I0418 04:56:04.774551  5947 net.cpp:150] Setting up relu3a
I0418 04:56:04.774575  5947 net.cpp:157] Top shape: 1 256 384 28 28 (77070336)
I0418 04:56:04.774580  5947 net.cpp:165] Memory required for data: 9132836028
I0418 04:56:04.774583  5947 layer_factory.hpp:77] Creating layer conv3b
I0418 04:56:04.774596  5947 net.cpp:100] Creating Layer conv3b
I0418 04:56:04.774602  5947 net.cpp:434] conv3b <- conv3a
I0418 04:56:04.774608  5947 net.cpp:408] conv3b -> conv3b
I0418 04:56:04.824643  5947 net.cpp:150] Setting up conv3b
I0418 04:56:04.824669  5947 net.cpp:157] Top shape: 1 256 384 28 28 (77070336)
I0418 04:56:04.824673  5947 net.cpp:165] Memory required for data: 9441117372
I0418 04:56:04.824687  5947 layer_factory.hpp:77] Creating layer relu3b
I0418 04:56:04.824697  5947 net.cpp:100] Creating Layer relu3b
I0418 04:56:04.824702  5947 net.cpp:434] relu3b <- conv3b
I0418 04:56:04.824710  5947 net.cpp:395] relu3b -> conv3b (in-place)
I0418 04:56:04.825037  5947 net.cpp:150] Setting up relu3b
I0418 04:56:04.825050  5947 net.cpp:157] Top shape: 1 256 384 28 28 (77070336)
I0418 04:56:04.825054  5947 net.cpp:165] Memory required for data: 9749398716
I0418 04:56:04.825058  5947 layer_factory.hpp:77] Creating layer pool3
I0418 04:56:04.825067  5947 net.cpp:100] Creating Layer pool3
I0418 04:56:04.825072  5947 net.cpp:434] pool3 <- conv3b
I0418 04:56:04.825078  5947 net.cpp:408] pool3 -> pool3
I0418 04:56:04.825261  5947 net.cpp:150] Setting up pool3
I0418 04:56:04.825273  5947 net.cpp:157] Top shape: 1 256 192 14 14 (9633792)
I0418 04:56:04.825278  5947 net.cpp:165] Memory required for data: 9787933884
I0418 04:56:04.825280  5947 layer_factory.hpp:77] Creating layer conv4a
I0418 04:56:04.825294  5947 net.cpp:100] Creating Layer conv4a
I0418 04:56:04.825299  5947 net.cpp:434] conv4a <- pool3
I0418 04:56:04.825306  5947 net.cpp:408] conv4a -> conv4a
I0418 04:56:04.925021  5947 net.cpp:150] Setting up conv4a
I0418 04:56:04.925050  5947 net.cpp:157] Top shape: 1 512 192 14 14 (19267584)
I0418 04:56:04.925056  5947 net.cpp:165] Memory required for data: 9865004220
I0418 04:56:04.925072  5947 layer_factory.hpp:77] Creating layer relu4a
I0418 04:56:04.925083  5947 net.cpp:100] Creating Layer relu4a
I0418 04:56:04.925087  5947 net.cpp:434] relu4a <- conv4a
I0418 04:56:04.925096  5947 net.cpp:395] relu4a -> conv4a (in-place)
I0418 04:56:04.925428  5947 net.cpp:150] Setting up relu4a
I0418 04:56:04.925442  5947 net.cpp:157] Top shape: 1 512 192 14 14 (19267584)
I0418 04:56:04.925446  5947 net.cpp:165] Memory required for data: 9942074556
I0418 04:56:04.925451  5947 layer_factory.hpp:77] Creating layer conv4b
I0418 04:56:04.925465  5947 net.cpp:100] Creating Layer conv4b
I0418 04:56:04.925472  5947 net.cpp:434] conv4b <- conv4a
I0418 04:56:04.925479  5947 net.cpp:408] conv4b -> conv4b
I0418 04:56:05.119395  5947 net.cpp:150] Setting up conv4b
I0418 04:56:05.119421  5947 net.cpp:157] Top shape: 1 512 192 14 14 (19267584)
I0418 04:56:05.119426  5947 net.cpp:165] Memory required for data: 10019144892
I0418 04:56:05.119434  5947 layer_factory.hpp:77] Creating layer relu4b
I0418 04:56:05.119447  5947 net.cpp:100] Creating Layer relu4b
I0418 04:56:05.119451  5947 net.cpp:434] relu4b <- conv4b
I0418 04:56:05.119457  5947 net.cpp:395] relu4b -> conv4b (in-place)
I0418 04:56:05.119619  5947 net.cpp:150] Setting up relu4b
I0418 04:56:05.119630  5947 net.cpp:157] Top shape: 1 512 192 14 14 (19267584)
I0418 04:56:05.119634  5947 net.cpp:165] Memory required for data: 10096215228
I0418 04:56:05.119638  5947 layer_factory.hpp:77] Creating layer pool4
I0418 04:56:05.119648  5947 net.cpp:100] Creating Layer pool4
I0418 04:56:05.119652  5947 net.cpp:434] pool4 <- conv4b
I0418 04:56:05.119658  5947 net.cpp:408] pool4 -> pool4
I0418 04:56:05.120007  5947 net.cpp:150] Setting up pool4
I0418 04:56:05.120020  5947 net.cpp:157] Top shape: 1 512 96 7 7 (2408448)
I0418 04:56:05.120023  5947 net.cpp:165] Memory required for data: 10105849020
I0418 04:56:05.120028  5947 layer_factory.hpp:77] Creating layer conv5a
I0418 04:56:05.120039  5947 net.cpp:100] Creating Layer conv5a
I0418 04:56:05.120043  5947 net.cpp:434] conv5a <- pool4
I0418 04:56:05.120051  5947 net.cpp:408] conv5a -> conv5a
I0418 04:56:05.313462  5947 net.cpp:150] Setting up conv5a
I0418 04:56:05.313489  5947 net.cpp:157] Top shape: 1 512 96 7 7 (2408448)
I0418 04:56:05.313494  5947 net.cpp:165] Memory required for data: 10115482812
I0418 04:56:05.313504  5947 layer_factory.hpp:77] Creating layer relu5a
I0418 04:56:05.313514  5947 net.cpp:100] Creating Layer relu5a
I0418 04:56:05.313521  5947 net.cpp:434] relu5a <- conv5a
I0418 04:56:05.313529  5947 net.cpp:395] relu5a -> conv5a (in-place)
I0418 04:56:05.313977  5947 net.cpp:150] Setting up relu5a
I0418 04:56:05.313990  5947 net.cpp:157] Top shape: 1 512 96 7 7 (2408448)
I0418 04:56:05.313994  5947 net.cpp:165] Memory required for data: 10125116604
I0418 04:56:05.313998  5947 layer_factory.hpp:77] Creating layer conv5b
I0418 04:56:05.314011  5947 net.cpp:100] Creating Layer conv5b
I0418 04:56:05.314015  5947 net.cpp:434] conv5b <- conv5a
I0418 04:56:05.314023  5947 net.cpp:408] conv5b -> conv5b
I0418 04:56:05.510265  5947 net.cpp:150] Setting up conv5b
I0418 04:56:05.510291  5947 net.cpp:157] Top shape: 1 512 96 7 7 (2408448)
I0418 04:56:05.510295  5947 net.cpp:165] Memory required for data: 10134750396
I0418 04:56:05.510305  5947 layer_factory.hpp:77] Creating layer relu5b
I0418 04:56:05.510316  5947 net.cpp:100] Creating Layer relu5b
I0418 04:56:05.510321  5947 net.cpp:434] relu5b <- conv5b
I0418 04:56:05.510327  5947 net.cpp:395] relu5b -> conv5b (in-place)
I0418 04:56:05.510473  5947 net.cpp:150] Setting up relu5b
I0418 04:56:05.510483  5947 net.cpp:157] Top shape: 1 512 96 7 7 (2408448)
I0418 04:56:05.510488  5947 net.cpp:165] Memory required for data: 10144384188
I0418 04:56:05.510490  5947 layer_factory.hpp:77] Creating layer conv5b_relu5b_0_split
I0418 04:56:05.510498  5947 net.cpp:100] Creating Layer conv5b_relu5b_0_split
I0418 04:56:05.510501  5947 net.cpp:434] conv5b_relu5b_0_split <- conv5b
I0418 04:56:05.510507  5947 net.cpp:408] conv5b_relu5b_0_split -> conv5b_relu5b_0_split_0
I0418 04:56:05.510514  5947 net.cpp:408] conv5b_relu5b_0_split -> conv5b_relu5b_0_split_1
I0418 04:56:05.510550  5947 net.cpp:150] Setting up conv5b_relu5b_0_split
I0418 04:56:05.510558  5947 net.cpp:157] Top shape: 1 512 96 7 7 (2408448)
I0418 04:56:05.510562  5947 net.cpp:157] Top shape: 1 512 96 7 7 (2408448)
I0418 04:56:05.510565  5947 net.cpp:165] Memory required for data: 10163651772
I0418 04:56:05.510570  5947 layer_factory.hpp:77] Creating layer rpn_conv/3x3
I0418 04:56:05.510581  5947 net.cpp:100] Creating Layer rpn_conv/3x3
I0418 04:56:05.510584  5947 net.cpp:434] rpn_conv/3x3 <- conv5b_relu5b_0_split_0
I0418 04:56:05.510591  5947 net.cpp:408] rpn_conv/3x3 -> rpn/output
I0418 04:56:05.698386  5947 net.cpp:150] Setting up rpn_conv/3x3
I0418 04:56:05.698421  5947 net.cpp:157] Top shape: 1 512 96 4 4 (786432)
I0418 04:56:05.698426  5947 net.cpp:165] Memory required for data: 10166797500
I0418 04:56:05.698437  5947 layer_factory.hpp:77] Creating layer rpn_relu/3x3
I0418 04:56:05.698448  5947 net.cpp:100] Creating Layer rpn_relu/3x3
I0418 04:56:05.698453  5947 net.cpp:434] rpn_relu/3x3 <- rpn/output
I0418 04:56:05.698458  5947 net.cpp:395] rpn_relu/3x3 -> rpn/output (in-place)
I0418 04:56:05.698750  5947 net.cpp:150] Setting up rpn_relu/3x3
I0418 04:56:05.698776  5947 net.cpp:157] Top shape: 1 512 96 4 4 (786432)
I0418 04:56:05.698782  5947 net.cpp:165] Memory required for data: 10169943228
I0418 04:56:05.698786  5947 layer_factory.hpp:77] Creating layer rpn_conv/3x3_2
I0418 04:56:05.698798  5947 net.cpp:100] Creating Layer rpn_conv/3x3_2
I0418 04:56:05.698804  5947 net.cpp:434] rpn_conv/3x3_2 <- rpn/output
I0418 04:56:05.698810  5947 net.cpp:408] rpn_conv/3x3_2 -> rpn/output_2
I0418 04:56:05.885001  5947 net.cpp:150] Setting up rpn_conv/3x3_2
I0418 04:56:05.885025  5947 net.cpp:157] Top shape: 1 512 96 2 2 (196608)
I0418 04:56:05.885028  5947 net.cpp:165] Memory required for data: 10170729660
I0418 04:56:05.885037  5947 layer_factory.hpp:77] Creating layer rpn_relu/3x3_2
I0418 04:56:05.885046  5947 net.cpp:100] Creating Layer rpn_relu/3x3_2
I0418 04:56:05.885051  5947 net.cpp:434] rpn_relu/3x3_2 <- rpn/output_2
I0418 04:56:05.885058  5947 net.cpp:395] rpn_relu/3x3_2 -> rpn/output_2 (in-place)
I0418 04:56:05.885367  5947 net.cpp:150] Setting up rpn_relu/3x3_2
I0418 04:56:05.885380  5947 net.cpp:157] Top shape: 1 512 96 2 2 (196608)
I0418 04:56:05.885383  5947 net.cpp:165] Memory required for data: 10171516092
I0418 04:56:05.885387  5947 layer_factory.hpp:77] Creating layer rpn/output_pool
I0418 04:56:05.885396  5947 net.cpp:100] Creating Layer rpn/output_pool
I0418 04:56:05.885399  5947 net.cpp:434] rpn/output_pool <- rpn/output_2
I0418 04:56:05.885404  5947 net.cpp:408] rpn/output_pool -> rpn/output_pool
I0418 04:56:05.885596  5947 net.cpp:150] Setting up rpn/output_pool
I0418 04:56:05.885607  5947 net.cpp:157] Top shape: 1 512 96 1 1 (49152)
I0418 04:56:05.885610  5947 net.cpp:165] Memory required for data: 10171712700
I0418 04:56:05.885614  5947 layer_factory.hpp:77] Creating layer rpn/output_pool_rpn/output_pool_0_split
I0418 04:56:05.885619  5947 net.cpp:100] Creating Layer rpn/output_pool_rpn/output_pool_0_split
I0418 04:56:05.885622  5947 net.cpp:434] rpn/output_pool_rpn/output_pool_0_split <- rpn/output_pool
I0418 04:56:05.885627  5947 net.cpp:408] rpn/output_pool_rpn/output_pool_0_split -> rpn/output_pool_rpn/output_pool_0_split_0
I0418 04:56:05.885632  5947 net.cpp:408] rpn/output_pool_rpn/output_pool_0_split -> rpn/output_pool_rpn/output_pool_0_split_1
I0418 04:56:05.885664  5947 net.cpp:150] Setting up rpn/output_pool_rpn/output_pool_0_split
I0418 04:56:05.885671  5947 net.cpp:157] Top shape: 1 512 96 1 1 (49152)
I0418 04:56:05.885675  5947 net.cpp:157] Top shape: 1 512 96 1 1 (49152)
I0418 04:56:05.885679  5947 net.cpp:165] Memory required for data: 10172105916
I0418 04:56:05.885681  5947 layer_factory.hpp:77] Creating layer rpn_cls_score
I0418 04:56:05.885691  5947 net.cpp:100] Creating Layer rpn_cls_score
I0418 04:56:05.885699  5947 net.cpp:434] rpn_cls_score <- rpn/output_pool_rpn/output_pool_0_split_0
I0418 04:56:05.885704  5947 net.cpp:408] rpn_cls_score -> rpn_cls_score
I0418 04:56:05.887732  5947 net.cpp:150] Setting up rpn_cls_score
I0418 04:56:05.887747  5947 net.cpp:157] Top shape: 1 74 96 1 1 (7104)
I0418 04:56:05.887750  5947 net.cpp:165] Memory required for data: 10172134332
I0418 04:56:05.887756  5947 layer_factory.hpp:77] Creating layer rpn_cls_score_rpn_cls_score_0_split
I0418 04:56:05.887761  5947 net.cpp:100] Creating Layer rpn_cls_score_rpn_cls_score_0_split
I0418 04:56:05.887765  5947 net.cpp:434] rpn_cls_score_rpn_cls_score_0_split <- rpn_cls_score
I0418 04:56:05.887771  5947 net.cpp:408] rpn_cls_score_rpn_cls_score_0_split -> rpn_cls_score_rpn_cls_score_0_split_0
I0418 04:56:05.887778  5947 net.cpp:408] rpn_cls_score_rpn_cls_score_0_split -> rpn_cls_score_rpn_cls_score_0_split_1
I0418 04:56:05.887817  5947 net.cpp:150] Setting up rpn_cls_score_rpn_cls_score_0_split
I0418 04:56:05.887825  5947 net.cpp:157] Top shape: 1 74 96 1 1 (7104)
I0418 04:56:05.887830  5947 net.cpp:157] Top shape: 1 74 96 1 1 (7104)
I0418 04:56:05.887832  5947 net.cpp:165] Memory required for data: 10172191164
I0418 04:56:05.887835  5947 layer_factory.hpp:77] Creating layer rpn_twin_pred
I0418 04:56:05.887848  5947 net.cpp:100] Creating Layer rpn_twin_pred
I0418 04:56:05.887854  5947 net.cpp:434] rpn_twin_pred <- rpn/output_pool_rpn/output_pool_0_split_1
I0418 04:56:05.887861  5947 net.cpp:408] rpn_twin_pred -> rpn_twin_pred
I0418 04:56:05.889760  5947 net.cpp:150] Setting up rpn_twin_pred
I0418 04:56:05.889772  5947 net.cpp:157] Top shape: 1 74 96 1 1 (7104)
I0418 04:56:05.889776  5947 net.cpp:165] Memory required for data: 10172219580
I0418 04:56:05.889782  5947 layer_factory.hpp:77] Creating layer rpn_twin_pred_rpn_twin_pred_0_split
I0418 04:56:05.889788  5947 net.cpp:100] Creating Layer rpn_twin_pred_rpn_twin_pred_0_split
I0418 04:56:05.889792  5947 net.cpp:434] rpn_twin_pred_rpn_twin_pred_0_split <- rpn_twin_pred
I0418 04:56:05.889798  5947 net.cpp:408] rpn_twin_pred_rpn_twin_pred_0_split -> rpn_twin_pred_rpn_twin_pred_0_split_0
I0418 04:56:05.889804  5947 net.cpp:408] rpn_twin_pred_rpn_twin_pred_0_split -> rpn_twin_pred_rpn_twin_pred_0_split_1
I0418 04:56:05.889839  5947 net.cpp:150] Setting up rpn_twin_pred_rpn_twin_pred_0_split
I0418 04:56:05.889847  5947 net.cpp:157] Top shape: 1 74 96 1 1 (7104)
I0418 04:56:05.889852  5947 net.cpp:157] Top shape: 1 74 96 1 1 (7104)
I0418 04:56:05.889854  5947 net.cpp:165] Memory required for data: 10172276412
I0418 04:56:05.889858  5947 layer_factory.hpp:77] Creating layer rpn_cls_score_reshape
I0418 04:56:05.889870  5947 net.cpp:100] Creating Layer rpn_cls_score_reshape
I0418 04:56:05.889876  5947 net.cpp:434] rpn_cls_score_reshape <- rpn_cls_score_rpn_cls_score_0_split_0
I0418 04:56:05.889883  5947 net.cpp:408] rpn_cls_score_reshape -> rpn_cls_score_reshape
I0418 04:56:05.889912  5947 net.cpp:150] Setting up rpn_cls_score_reshape
I0418 04:56:05.889920  5947 net.cpp:157] Top shape: 1 2 3552 1 1 (7104)
I0418 04:56:05.889924  5947 net.cpp:165] Memory required for data: 10172304828
I0418 04:56:05.889926  5947 layer_factory.hpp:77] Creating layer rpn_cls_score_reshape_rpn_cls_score_reshape_0_split
I0418 04:56:05.889931  5947 net.cpp:100] Creating Layer rpn_cls_score_reshape_rpn_cls_score_reshape_0_split
I0418 04:56:05.889935  5947 net.cpp:434] rpn_cls_score_reshape_rpn_cls_score_reshape_0_split <- rpn_cls_score_reshape
I0418 04:56:05.889941  5947 net.cpp:408] rpn_cls_score_reshape_rpn_cls_score_reshape_0_split -> rpn_cls_score_reshape_rpn_cls_score_reshape_0_split_0
I0418 04:56:05.889950  5947 net.cpp:408] rpn_cls_score_reshape_rpn_cls_score_reshape_0_split -> rpn_cls_score_reshape_rpn_cls_score_reshape_0_split_1
I0418 04:56:05.889957  5947 net.cpp:408] rpn_cls_score_reshape_rpn_cls_score_reshape_0_split -> rpn_cls_score_reshape_rpn_cls_score_reshape_0_split_2
I0418 04:56:05.889997  5947 net.cpp:150] Setting up rpn_cls_score_reshape_rpn_cls_score_reshape_0_split
I0418 04:56:05.890005  5947 net.cpp:157] Top shape: 1 2 3552 1 1 (7104)
I0418 04:56:05.890009  5947 net.cpp:157] Top shape: 1 2 3552 1 1 (7104)
I0418 04:56:05.890012  5947 net.cpp:157] Top shape: 1 2 3552 1 1 (7104)
I0418 04:56:05.890015  5947 net.cpp:165] Memory required for data: 10172390076
I0418 04:56:05.890018  5947 layer_factory.hpp:77] Creating layer rpn-data
I0418 04:56:05.890416  5947 net.cpp:100] Creating Layer rpn-data
I0418 04:56:05.890429  5947 net.cpp:434] rpn-data <- rpn_cls_score_rpn_cls_score_0_split_1
I0418 04:56:05.890434  5947 net.cpp:434] rpn-data <- gt_boxes_data_1_split_0
I0418 04:56:05.890439  5947 net.cpp:434] rpn-data <- data_data_0_split_1
I0418 04:56:05.890444  5947 net.cpp:408] rpn-data -> rpn_labels
I0418 04:56:05.890450  5947 net.cpp:408] rpn-data -> rpn_twin_targets
I0418 04:56:05.890456  5947 net.cpp:408] rpn-data -> rpn_twin_inside_weights
I0418 04:56:05.890461  5947 net.cpp:408] rpn-data -> rpn_twin_outside_weights
I0418 04:56:05.892741  5947 net.cpp:150] Setting up rpn-data
I0418 04:56:05.892755  5947 net.cpp:157] Top shape: 1 1 3552 1 1 (3552)
I0418 04:56:05.892760  5947 net.cpp:157] Top shape: 1 74 96 1 1 (7104)
I0418 04:56:05.892765  5947 net.cpp:157] Top shape: 1 74 96 1 1 (7104)
I0418 04:56:05.892767  5947 net.cpp:157] Top shape: 1 74 96 1 1 (7104)
I0418 04:56:05.892771  5947 net.cpp:165] Memory required for data: 10172489532
I0418 04:56:05.892774  5947 layer_factory.hpp:77] Creating layer rpn_labels_rpn-data_0_split
I0418 04:56:05.892781  5947 net.cpp:100] Creating Layer rpn_labels_rpn-data_0_split
I0418 04:56:05.892783  5947 net.cpp:434] rpn_labels_rpn-data_0_split <- rpn_labels
I0418 04:56:05.892789  5947 net.cpp:408] rpn_labels_rpn-data_0_split -> rpn_labels_rpn-data_0_split_0
I0418 04:56:05.892796  5947 net.cpp:408] rpn_labels_rpn-data_0_split -> rpn_labels_rpn-data_0_split_1
I0418 04:56:05.892829  5947 net.cpp:150] Setting up rpn_labels_rpn-data_0_split
I0418 04:56:05.892838  5947 net.cpp:157] Top shape: 1 1 3552 1 1 (3552)
I0418 04:56:05.892840  5947 net.cpp:157] Top shape: 1 1 3552 1 1 (3552)
I0418 04:56:05.892844  5947 net.cpp:165] Memory required for data: 10172517948
I0418 04:56:05.892848  5947 layer_factory.hpp:77] Creating layer rpn_loss_cls
I0418 04:56:05.892861  5947 net.cpp:100] Creating Layer rpn_loss_cls
I0418 04:56:05.892865  5947 net.cpp:434] rpn_loss_cls <- rpn_cls_score_reshape_rpn_cls_score_reshape_0_split_0
I0418 04:56:05.892869  5947 net.cpp:434] rpn_loss_cls <- rpn_labels_rpn-data_0_split_0
…
I0418 04:56:05.893422  5947 layer_factory.hpp:77] Creating layer rpn_accuarcy
I0418 04:56:05.893429  5947 net.cpp:100] Creating Layer rpn_accuarcy
I0418 04:56:05.893435  5947 net.cpp:434] rpn_accuarcy <- rpn_cls_score_reshape_rpn_cls_score_reshape_0_split_1
I0418 04:56:05.893440  5947 net.cpp:434] rpn_accuarcy <- rpn_labels_rpn-data_0_split_1
I0418 04:56:05.893443  5947 net.cpp:408] rpn_accuarcy -> rpn_accuarcy
I0418 04:56:05.893450  5947 net.cpp:408] rpn_accuarcy -> rpn_accuarcy_class
I0418 04:56:05.893489  5947 net.cpp:150] Setting up rpn_accuarcy
I0418 04:56:05.893496  5947 net.cpp:157] Top shape: (1)
I0418 04:56:05.893506  5947 net.cpp:157] Top shape: 2 (2)
I0418 04:56:05.893508  5947 net.cpp:165] Memory required for data: 10172517968
I0418 04:56:05.893512  5947 layer_factory.hpp:77] Creating layer rpn_cls_prob
I0418 04:56:05.893517  5947 net.cpp:100] Creating Layer rpn_cls_prob
I0418 04:56:05.893520  5947 net.cpp:434] rpn_cls_prob <- rpn_cls_score_reshape_rpn_cls_score_reshape_0_split_2
I0418 04:56:05.893527  5947 net.cpp:408] rpn_cls_prob -> rpn_cls_prob
I0418 04:56:05.893720  5947 net.cpp:150] Setting up rpn_cls_prob
I0418 04:56:05.893731  5947 net.cpp:157] Top shape: 1 2 3552 1 1 (7104)
I0418 04:56:05.893734  5947 net.cpp:165] Memory required for data: 10172546384
I0418 04:56:05.893738  5947 layer_factory.hpp:77] Creating layer rpn_cls_prob_reshape
I0418 04:56:05.893743  5947 net.cpp:100] Creating Layer rpn_cls_prob_reshape
I0418 04:56:05.893748  5947 net.cpp:434] rpn_cls_prob_reshape <- rpn_cls_prob
I0418 04:56:05.893752  5947 net.cpp:408] rpn_cls_prob_reshape -> rpn_cls_prob_reshape
I0418 04:56:05.893777  5947 net.cpp:150] Setting up rpn_cls_prob_reshape
I0418 04:56:05.893785  5947 net.cpp:157] Top shape: 1 74 96 1 1 (7104)
I0418 04:56:05.893787  5947 net.cpp:165] Memory required for data: 10172574800
I0418 04:56:05.893791  5947 layer_factory.hpp:77] Creating layer proposal
I0418 04:56:05.894333  5947 net.cpp:100] Creating Layer proposal
I0418 04:56:05.894346  5947 net.cpp:434] proposal <- rpn_cls_prob_reshape
I0418 04:56:05.894351  5947 net.cpp:434] proposal <- rpn_twin_pred_rpn_twin_pred_0_split_1
I0418 04:56:05.894356  5947 net.cpp:408] proposal -> rpn_rois
I0418 04:56:05.896586  5947 net.cpp:150] Setting up proposal
I0418 04:56:05.896600  5947 net.cpp:157] Top shape: 1 3 (3)
I0418 04:56:05.896605  5947 net.cpp:165] Memory required for data: 10172574812
I0418 04:56:05.896608  5947 layer_factory.hpp:77] Creating layer roi-data
I0418 04:56:05.896744  5947 net.cpp:100] Creating Layer roi-data
I0418 04:56:05.896756  5947 net.cpp:434] roi-data <- rpn_rois
I0418 04:56:05.896761  5947 net.cpp:434] roi-data <- gt_boxes_data_1_split_1
I0418 04:56:05.896767  5947 net.cpp:408] roi-data -> rois
I0418 04:56:05.896773  5947 net.cpp:408] roi-data -> labels
I0418 04:56:05.896780  5947 net.cpp:408] roi-data -> twin_targets
I0418 04:56:05.896788  5947 net.cpp:408] roi-data -> twin_inside_weights
I0418 04:56:05.896793  5947 net.cpp:408] roi-data -> twin_outside_weights
I0418 04:56:05.897094  5947 net.cpp:150] Setting up roi-data
I0418 04:56:05.897107  5947 net.cpp:157] Top shape: 1 3 (3)
I0418 04:56:05.897111  5947 net.cpp:157] Top shape: 1 99 (99)
I0418 04:56:05.897115  5947 net.cpp:157] Top shape: 1 198 (198)
I0418 04:56:05.897119  5947 net.cpp:157] Top shape: 1 198 (198)
I0418 04:56:05.897121  5947 net.cpp:157] Top shape: 1 198 (198)
I0418 04:56:05.897125  5947 net.cpp:165] Memory required for data: 10172577596
I0418 04:56:05.897128  5947 layer_factory.hpp:77] Creating layer roi_pool5
I0418 04:56:05.897137  5947 net.cpp:100] Creating Layer roi_pool5
I0418 04:56:05.897141  5947 net.cpp:434] roi_pool5 <- conv5b_relu5b_0_split_1
I0418 04:56:05.897146  5947 net.cpp:434] roi_pool5 <- rois
I0418 04:56:05.897150  5947 net.cpp:408] roi_pool5 -> pool5
I0418 04:56:05.897158  5947 roi_pooling_layer.cpp:34] Temporal scale: 0.125
I0418 04:56:05.897168  5947 roi_pooling_layer.cpp:35] Spatial scale: 0.0625
I0418 04:56:05.897202  5947 net.cpp:150] Setting up roi_pool5
I0418 04:56:05.897207  5947 net.cpp:157] Top shape: 1 512 1 4 4 (8192)
I0418 04:56:05.897209  5947 net.cpp:165] Memory required for data: 10172610364
I0418 04:56:05.897213  5947 layer_factory.hpp:77] Creating layer fc6
I0418 04:56:05.897222  5947 net.cpp:100] Creating Layer fc6
I0418 04:56:05.897225  5947 net.cpp:434] fc6 <- pool5
I0418 04:56:05.897230  5947 net.cpp:408] fc6 -> fc6
I0418 04:56:06.778363  5947 net.cpp:150] Setting up fc6
I0418 04:56:06.778388  5947 net.cpp:157] Top shape: 1 4096 (4096)
I0418 04:56:06.778403  5947 net.cpp:165] Memory required for data: 10172626748
I0418 04:56:06.778412  5947 layer_factory.hpp:77] Creating layer relu6
I0418 04:56:06.778421  5947 net.cpp:100] Creating Layer relu6
I0418 04:56:06.778426  5947 net.cpp:434] relu6 <- fc6
I0418 04:56:06.778434  5947 net.cpp:395] relu6 -> fc6 (in-place)
I0418 04:56:06.778849  5947 net.cpp:150] Setting up relu6
I0418 04:56:06.778863  5947 net.cpp:157] Top shape: 1 4096 (4096)
I0418 04:56:06.778868  5947 net.cpp:165] Memory required for data: 10172643132
I0418 04:56:06.778872  5947 layer_factory.hpp:77] Creating layer drop6
I0418 04:56:06.778883  5947 net.cpp:100] Creating Layer drop6
I0418 04:56:06.778887  5947 net.cpp:434] drop6 <- fc6
I0418 04:56:06.778893  5947 net.cpp:395] drop6 -> fc6 (in-place)
I0418 04:56:06.778920  5947 net.cpp:150] Setting up drop6
I0418 04:56:06.778928  5947 net.cpp:157] Top shape: 1 4096 (4096)
I0418 04:56:06.778931  5947 net.cpp:165] Memory required for data: 10172659516
I0418 04:56:06.778935  5947 layer_factory.hpp:77] Creating layer fc6_drop6_0_split
I0418 04:56:06.778941  5947 net.cpp:100] Creating Layer fc6_drop6_0_split
I0418 04:56:06.778945  5947 net.cpp:434] fc6_drop6_0_split <- fc6
I0418 04:56:06.778949  5947 net.cpp:408] fc6_drop6_0_split -> fc6_drop6_0_split_0
I0418 04:56:06.778955  5947 net.cpp:408] fc6_drop6_0_split -> fc6_drop6_0_split_1
I0418 04:56:06.778988  5947 net.cpp:150] Setting up fc6_drop6_0_split
I0418 04:56:06.778995  5947 net.cpp:157] Top shape: 1 4096 (4096)
I0418 04:56:06.778998  5947 net.cpp:157] Top shape: 1 4096 (4096)
I0418 04:56:06.779001  5947 net.cpp:165] Memory required for data: 10172692284
I0418 04:56:06.779004  5947 layer_factory.hpp:77] Creating layer cls_score
I0418 04:56:06.779012  5947 net.cpp:100] Creating Layer cls_score
I0418 04:56:06.779016  5947 net.cpp:434] cls_score <- fc6_drop6_0_split_0
I0418 04:56:06.779021  5947 net.cpp:408] cls_score -> cls_score
I0418 04:56:06.789638  5947 net.cpp:150] Setting up cls_score
I0418 04:56:06.789650  5947 net.cpp:157] Top shape: 1 99 (99)
I0418 04:56:06.789654  5947 net.cpp:165] Memory required for data: 10172692680
I0418 04:56:06.789660  5947 layer_factory.hpp:77] Creating layer twin_pred
I0418 04:56:06.789667  5947 net.cpp:100] Creating Layer twin_pred
I0418 04:56:06.789671  5947 net.cpp:434] twin_pred <- fc6_drop6_0_split_1
I0418 04:56:06.789677  5947 net.cpp:408] twin_pred -> twin_pred
I0418 04:56:06.810957  5947 net.cpp:150] Setting up twin_pred
I0418 04:56:06.810971  5947 net.cpp:157] Top shape: 1 198 (198)
I0418 04:56:06.810976  5947 net.cpp:165] Memory required for data: 10172693472
I0418 04:56:06.810981  5947 layer_factory.hpp:77] Creating layer loss_cls
I0418 04:56:06.810993  5947 net.cpp:100] Creating Layer loss_cls
I0418 04:56:06.810997  5947 net.cpp:434] loss_cls <- cls_score
I0418 04:56:06.811002  5947 net.cpp:434] loss_cls <- labels
I0418 04:56:06.811007  5947 net.cpp:408] loss_cls -> loss_cls
…
