…
stepsize: 350000
snapshot: 0
snapshot_prefix: "./experiments/activitynet/snapshot/activitynet"
average_loss: 100
iter_size: 1
I0417 13:56:03.665868 25800 solver.cpp:81] Creating training net from train_net file: ./experiments/activitynet/train.prototxt
I0417 13:56:03.666957 25800 net.cpp:58] Initializing net from parameters: 
name: "activitynet"
state {
  phase: TRAIN
}
layer {
  name: "data"
  type: "Python"
  top: "data"
  top: "gt_boxes"
  python_param {
    module: "roi_data_layer.layer"
    layer: "RoIDataLayer"
    param_str: "\'num_classes\': 100"
  }
}
layer {
  name: "conv1a"
  type: "Convolution"
  bottom: "data"
  top: "conv1a"
  param {
    lr_mult: 0
    decay_mult: 0
  }
  param {
    lr_mult: 0
    decay_mult: 0
  }
  convolution_param {
    num_output: 64
    pad: 1
    pad: 1
    pad: 1
    kernel_size: 3
    kernel_size: 3
    kernel_size: 3
    weight_filler {
      type: "gaussian"
      std: 0.01
    }
    bias_filler {
      type: "constant"
      value: 0
    }
  }
}
layer {
  name: "relu1a"
  type: "ReLU"
  bottom: "conv1a"
  top: "conv1a"
}
layer {
  name: "pool1"
  type: "Pooling"
  bottom: "conv1a"
  top: "pool1"
  pooling_param {
    pool: MAX
    kernel_size: 1
    kernel_size: 2
    kernel_size: 2
    stride: 1
    stride: 2
    stride: 2
  }
}
layer {
  name: "conv2a"
  type: "Convolution"
  bottom: "pool1"
  top: "conv2a"
  param {
    lr_mult: 0
    decay_mult: 0
  }
  param {
    lr_mult: 0
    decay_mult: 0
  }
  convolution_param {
    num_output: 128
    pad: 1
    pad: 1
    pad: 1
    kernel_size: 3
    kernel_size: 3
    kernel_size: 3
    weight_filler {
      type: "gaussian"
      std: 0.01
    }
    bias_filler {
      type: "constant"
      value: 1
    }
  }
}
layer {
  name: "relu2a"
  type: "ReLU"
  bottom: "conv2a"
  top: "conv2a"
}
layer {
  name: "pool2"
  type: "Pooling"
  bottom: "conv2a"
  top: "pool2"
  pooling_param {
    pool: MAX
    kernel_size: 2
    kernel_size: 2
    kernel_size: 2
    stride: 2
    stride: 2
    stride: 2
  }
}
layer {
  name: "conv3a"
  type: "Convolution"
  bottom: "pool2"
  top: "conv3a"
  param {
    lr_mult: 1
    decay_mult: 1
  }
  param {
    lr_mult: 2
    decay_mult: 0
  }
  convolution_param {
    num_output: 256
    pad: 1
    pad: 1
    pad: 1
    kernel_size: 3
    kernel_size: 3
    kernel_size: 3
    weight_filler {
      type: "gaussian"
      std: 0.01
    }
    bias_filler {
      type: "constant"
      value: 1
    }
  }
}
layer {
  name: "relu3a"
  type: "ReLU"
  bottom: "conv3a"
  top: "conv3a"
}
layer {
  name: "conv3b"
  type: "Convolution"
  bottom: "conv3a"
  top: "conv3b"
  param {
    lr_mult: 1
    decay_mult: 1
  }
  param {
    lr_mult: 2
    decay_mult: 0
  }
  convolution_param {
    num_output: 256
    pad: 1
    pad: 1
    pad: 1
    kernel_size: 3
    kernel_size: 3
    kernel_size: 3
    weight_filler {
      type: "gaussian"
      std: 0.01
    }
    bias_filler {
      type: "constant"
      value: 1
    }
  }
}
layer {
  name: "relu3b"
  type: "ReLU"
  bottom: "conv3b"
  top: "conv3b"
}
layer {
  name: "pool3"
  type: "Pooling"
  bottom: "conv3b"
  top: "pool3"
  pooling_param {
    pool: MAX
    kernel_size: 2
    kernel_size: 2
    kernel_size: 2
    stride: 2
    stride: 2
    stride: 2
  }
}
layer {
  name: "conv4a"
  type: "Convolution"
  bottom: "pool3"
  top: "conv4a"
  param {
    lr_mult: 1
    decay_mult: 1
  }
  param {
    lr_mult: 2
    decay_mult: 0
  }
  convolution_param {
    num_output: 512
    pad: 1
    pad: 1
    pad: 1
    kernel_size: 3
    kernel_size: 3
    kernel_size: 3
    weight_filler {
      type: "gaussian"
      std: 0.01
    }
    bias_filler {
      type: "constant"
      value: 1
    }
  }
}
layer {
  name: "relu4a"
  type: "ReLU"
  bottom: "conv4a"
  top: "conv4a"
}
layer {
  name: "conv4b"
  type: "Convolution"
  bottom: "conv4a"
  top: "conv4b"
  param {
    lr_mult: 1
    decay_mult: 1
  }
  param {
    lr_mult: 2
    decay_mult: 0
  }
  convolution_param {
    num_output: 512
    pad: 1
    pad: 1
    pad: 1
    kernel_size: 3
    kernel_size: 3
    kernel_size: 3
    weight_filler {
      type: "gaussian"
      std: 0.01
    }
    bias_filler {
      type: "constant"
      value: 1
    }
  }
}
layer {
  name: "relu4b"
  type: "ReLU"
  bottom: "conv4b"
  top: "conv4b"
}
layer {
  name: "pool4"
  type: "Pooling"
  bottom: "conv4b"
  top: "pool4"
  pooling_param {
    pool: MAX
    kernel_size: 2
    kernel_size: 2
    kernel_size: 2
    stride: 2
    stride: 2
    stride: 2
  }
}
layer {
  name: "conv5a"
  type: "Convolution"
  bottom: "pool4"
  top: "conv5a"
  param {
    lr_mult: 1
    decay_mult: 1
  }
  param {
    lr_mult: 2
    decay_mult: 0
  }
  convolution_param {
    num_output: 512
    pad: 1
    pad: 1
    pad: 1
    kernel_size: 3
    kernel_size: 3
    kernel_size: 3
    weight_filler {
      type: "gaussian"
      std: 0.01
    }
    bias_filler {
      type: "constant"
      value: 1
    }
  }
}
layer {
  name: "relu5a"
  type: "ReLU"
  bottom: "conv5a"
  top: "conv5a"
}
layer {
  name: "conv5b"
  type: "Convolution"
  bottom: "conv5a"
  top: "conv5b"
  param {
    lr_mult: 1
    decay_mult: 1
  }
  param {
    lr_mult: 2
    decay_mult: 0
  }
  convolution_param {
    num_output: 512
    pad: 1
    pad: 1
    pad: 1
    kernel_size: 3
    kernel_size: 3
    kernel_size: 3
    weight_filler {
      type: "gaussian"
      std: 0.01
    }
    bias_filler {
      type: "constant"
      value: 1
    }
  }
}
layer {
  name: "relu5b"
  type: "ReLU"
  bottom: "conv5b"
  top: "conv5b"
}
layer {
  name: "rpn_conv/3x3"
  type: "Convolution"
  bottom: "conv5b"
  top: "rpn/output"
  param {
    lr_mult: 1
    decay_mult: 1
  }
  param {
    lr_mult: 2
    decay_mult: 0
  }
  convolution_param {
    num_output: 512
    pad: 1
    pad: 1
    pad: 1
    kernel_size: 3
    kernel_size: 3
    kernel_size: 3
    stride: 1
    stride: 2
    stride: 2
    weight_filler {
      type: "gaussian"
      std: 0.01
    }
    bias_filler {
      type: "constant"
      value: 0
    }
  }
}
layer {
  name: "rpn_relu/3x3"
  type: "ReLU"
  bottom: "rpn/output"
  top: "rpn/output"
}
layer {
  name: "rpn_conv/3x3_2"
  type: "Convolution"
  bottom: "rpn/output"
  top: "rpn/output_2"
  param {
    lr_mult: 1
    decay_mult: 1
  }
  param {
    lr_mult: 2
    decay_mult: 0
  }
  convolution_param {
    num_output: 512
    pad: 1
    pad: 1
    pad: 1
    kernel_size: 3
    kernel_size: 3
    kernel_size: 3
    stride: 1
    stride: 2
    stride: 2
    weight_filler {
      type: "gaussian"
      std: 0.01
    }
    bias_filler {
      type: "constant"
      value: 0
    }
  }
}
layer {
  name: "rpn_relu/3x3_2"
  type: "ReLU"
  bottom: "rpn/output_2"
  top: "rpn/output_2"
}
layer {
  name: "rpn/output_pool"
  type: "Pooling"
  bottom: "rpn/output_2"
  top: "rpn/output_pool"
  pooling_param {
    pool: MAX
    kernel_size: 1
    kernel_size: 2
    kernel_size: 2
  }
}
layer {
  name: "rpn_cls_score"
  type: "Convolution"
  bottom: "rpn/output_pool"
  top: "rpn_cls_score"
  param {
    lr_mult: 1
    decay_mult: 1
  }
  param {
    lr_mult: 2
    decay_mult: 0
  }
  convolution_param {
    num_output: 74
    kernel_size: 1
    kernel_size: 1
    kernel_size: 1
    weight_filler {
      type: "gaussian"
      std: 0.01
    }
    bias_filler {
      type: "constant"
      value: 0
    }
  }
}
layer {
  name: "rpn_twin_pred"
  type: "Convolution"
  bottom: "rpn/output_pool"
  top: "rpn_twin_pred"
  param {
    lr_mult: 1
    decay_mult: 1
  }
  param {
    lr_mult: 2
    decay_mult: 0
  }
  convolution_param {
    num_output: 74
    kernel_size: 1
    kernel_size: 1
    kernel_size: 1
    weight_filler {
      type: "gaussian"
      std: 0.01
    }
    bias_filler {
      type: "constant"
      value: 0
    }
  }
}
layer {
  name: "rpn_cls_score_reshape"
  type: "Reshape"
  bottom: "rpn_cls_score"
  top: "rpn_cls_score_reshape"
  reshape_param {
    shape {
      dim: 0
      dim: 2
      dim: -1
      dim: 0
      dim: 0
    }
  }
}
layer {
  name: "rpn-data"
  type: "Python"
  bottom: "rpn_cls_score"
  bottom: "gt_boxes"
  bottom: "data"
  top: "rpn_labels"
  top: "rpn_twin_targets"
  top: "rpn_twin_inside_weights"
  top: "rpn_twin_outside_weights"
  python_param {
    module: "rpn.anchor_target_layer"
    layer: "AnchorTargetLayer"
    param_str: "\'feat_stride\': 8 \n\'scales\': !!python/tuple [1,1.25, 1.5,1.75, 2,2.5, 3,3.5, 4,4.5, 5,5.5, 6,7, 8,9,10,11,12,14,16,18,20,22,24,28,32,36,40,44,52,60,68,76,84,92,100]"
  }
}
layer {
  name: "rpn_loss_cls"
  type: "SoftmaxWithLoss"
  bottom: "rpn_cls_score_reshape"
  bottom: "rpn_labels"
  top: "rpn_cls_loss"
  loss_weight: 1
  propagate_down: true
  propagate_down: false
  loss_param {
    ignore_label: -1
    normalize: true
  }
}
layer {
  name: "rpn_loss_twin"
  type: "SmoothL1Loss"
  bottom: "rpn_twin_pred"
  bottom: "rpn_twin_targets"
  bottom: "rpn_twin_inside_weights"
  bottom: "rpn_twin_outside_weights"
  top: "rpn_loss_twin"
  loss_weight: 1
  smooth_l1_loss_param {
    sigma: 3
  }
}
layer {
  name: "rpn_accuarcy"
  type: "Accuracy"
  bottom: "rpn_cls_score_reshape"
  bottom: "rpn_labels"
  top: "rpn_accuarcy"
  top: "rpn_accuarcy_class"
  propagate_down: false
  propagate_down: false
  accuracy_param {
    ignore_label: -1
  }
}
layer {
  name: "rpn_cls_prob"
  type: "Softmax"
  bottom: "rpn_cls_score_reshape"
  top: "rpn_cls_prob"
}
layer {
  name: "rpn_cls_prob_reshape"
  type: "Reshape"
  bottom: "rpn_cls_prob"
  top: "rpn_cls_prob_reshape"
  reshape_param {
    shape {
      dim: 0
      dim: 74
      dim: -1
      dim: 0
      dim: 0
    }
  }
}
layer {
  name: "proposal"
  type: "Python"
  bottom: "rpn_cls_prob_reshape"
  bottom: "rpn_twin_pred"
  top: "rpn_rois"
  include {
    phase: TRAIN
  }
  python_param {
    module: "rpn.proposal_layer"
    layer: "ProposalLayer"
    param_str: "\'feat_stride\': 8 \n\'scales\': !!python/tuple [1,1.25, 1.5,1.75, 2,2.5, 3,3.5, 4,4.5, 5,5.5, 6,7, 8,9,10,11,12,14,16,18,20,22,24,28,32,36,40,44,52,60,68,76,84,92,100]"
  }
}
layer {
  name: "roi-data"
  type: "Python"
  bottom: "rpn_rois"
  bottom: "gt_boxes"
  top: "rois"
  top: "labels"
  top: "twin_targets"
  top: "twin_inside_weights"
  top: "twin_outside_weights"
  python_param {
    module: "rpn.proposal_target_layer"
    layer: "ProposalTargetLayer"
    param_str: "\'num_classes\': 201"
  }
}
layer {
  name: "roi_pool5"
  type: "ROIPooling"
  bottom: "conv5b"
  bottom: "rois"
  top: "pool5"
  roi_pooling_param {
    pooled_h: 4
    pooled_w: 4
    spatial_scale: 0.0625
    pooled_l: 1
    temporal_scale: 0.125
  }
}
layer {
  name: "fc6"
  type: "InnerProduct"
  bottom: "pool5"
  top: "fc6"
  param {
    lr_mult: 1
    decay_mult: 1
  }
  param {
    lr_mult: 2
    decay_mult: 0
  }
  inner_product_param {
    num_output: 4096
    weight_filler {
      type: "gaussian"
      std: 0.005
    }
    bias_filler {
      type: "constant"
      value: 1
    }
  }
}
layer {
  name: "relu6"
  type: "ReLU"
  bottom: "fc6"
  top: "fc6"
}
layer {
  name: "drop6"
  type: "Dropout"
  bottom: "fc6"
  top: "fc6"
  dropout_param {
    dropout_ratio: 0.5
  }
}
layer {
  name: "cls_score"
  type: "InnerProduct"
  bottom: "fc6"
  top: "cls_score"
  param {
    lr_mult: 1
    decay_mult: 1
  }
  param {
    lr_mult: 2
    decay_mult: 0
  }
  inner_product_param {
    num_output: 201
    weight_filler {
      type: "gaussian"
      std: 0.01
    }
    bias_filler {
      type: "constant"
      value: 0
    }
  }
}
layer {
  name: "twin_pred"
  type: "InnerProduct"
  bottom: "fc6"
  top: "twin_pred"
  param {
    lr_mult: 1
    decay_mult: 1
  }
  param {
    lr_mult: 2
    decay_mult: 0
  }
  inner_product_param {
    num_output: 402
    weight_filler {
      type: "gaussian"
      std: 0.001
    }
    bias_filler {
      type: "constant"
      value: 0
    }
  }
}
layer {
  name: "loss_cls"
  type: "SoftmaxWithLoss"
  bottom: "cls_score"
  bottom: "labels"
  top: "loss_cls"
  loss_weight: 1
  propagate_down: true
  propagate_down: false
}
layer {
  name: "loss_twin"
  type: "SmoothL1Loss"
  bottom: "twin_pred"
  bottom: "twin_targets"
  bottom: "twin_inside_weights"
  bottom: "twin_outside_weights"
  top: "loss_twin"
  loss_weight: 1
}
layer {
  name: "accuarcy"
  type: "Accuracy"
  bottom: "cls_score"
  bottom: "labels"
  top: "accuarcy"
  propagate_down: false
  propagate_down: false
  accuracy_param {
    ignore_label: -1
  }
}
I0417 13:56:03.667170 25800 layer_factory.hpp:77] Creating layer data
I0417 13:56:03.691802 25800 net.cpp:100] Creating Layer data
I0417 13:56:03.691826 25800 net.cpp:408] data -> data
I0417 13:56:03.691838 25800 net.cpp:408] data -> gt_boxes
setting up
has rpn
RoiDataLayer: name_to_top: {'gt_windows': 1, 'data': 0}
I0417 13:56:03.705243 25800 net.cpp:150] Setting up data
I0417 13:56:03.705266 25800 net.cpp:157] Top shape: 1 3 768 112 112 (28901376)
I0417 13:56:03.705271 25800 net.cpp:157] Top shape: 1 101 (101)
I0417 13:56:03.705274 25800 net.cpp:165] Memory required for data: 115605908
I0417 13:56:03.705281 25800 layer_factory.hpp:77] Creating layer data_data_0_split
I0417 13:56:03.705292 25800 net.cpp:100] Creating Layer data_data_0_split
I0417 13:56:03.705296 25800 net.cpp:434] data_data_0_split <- data
I0417 13:56:03.705303 25800 net.cpp:408] data_data_0_split -> data_data_0_split_0
I0417 13:56:03.705313 25800 net.cpp:408] data_data_0_split -> data_data_0_split_1
I0417 13:56:03.705344 25800 net.cpp:150] Setting up data_data_0_split
I0417 13:56:03.705351 25800 net.cpp:157] Top shape: 1 3 768 112 112 (28901376)
I0417 13:56:03.705355 25800 net.cpp:157] Top shape: 1 3 768 112 112 (28901376)
I0417 13:56:03.705358 25800 net.cpp:165] Memory required for data: 346816916
I0417 13:56:03.705361 25800 layer_factory.hpp:77] Creating layer gt_boxes_data_1_split
I0417 13:56:03.705368 25800 net.cpp:100] Creating Layer gt_boxes_data_1_split
I0417 13:56:03.705370 25800 net.cpp:434] gt_boxes_data_1_split <- gt_boxes
I0417 13:56:03.705376 25800 net.cpp:408] gt_boxes_data_1_split -> gt_boxes_data_1_split_0
I0417 13:56:03.705382 25800 net.cpp:408] gt_boxes_data_1_split -> gt_boxes_data_1_split_1
I0417 13:56:03.705406 25800 net.cpp:150] Setting up gt_boxes_data_1_split
I0417 13:56:03.705411 25800 net.cpp:157] Top shape: 1 101 (101)
I0417 13:56:03.705415 25800 net.cpp:157] Top shape: 1 101 (101)
I0417 13:56:03.705420 25800 net.cpp:165] Memory required for data: 346817724
I0417 13:56:03.705423 25800 layer_factory.hpp:77] Creating layer conv1a
I0417 13:56:03.705440 25800 net.cpp:100] Creating Layer conv1a
I0417 13:56:03.705443 25800 net.cpp:434] conv1a <- data_data_0_split_0
I0417 13:56:03.705449 25800 net.cpp:408] conv1a -> conv1a
I0417 13:56:03.897766 25800 net.cpp:150] Setting up conv1a
I0417 13:56:03.897791 25800 net.cpp:157] Top shape: 1 64 768 112 112 (616562688)
I0417 13:56:03.897795 25800 net.cpp:165] Memory required for data: 2813068476
I0417 13:56:03.897814 25800 layer_factory.hpp:77] Creating layer relu1a
I0417 13:56:03.897827 25800 net.cpp:100] Creating Layer relu1a
I0417 13:56:03.897832 25800 net.cpp:434] relu1a <- conv1a
I0417 13:56:03.897837 25800 net.cpp:395] relu1a -> conv1a (in-place)
I0417 13:56:03.898310 25800 net.cpp:150] Setting up relu1a
I0417 13:56:03.898322 25800 net.cpp:157] Top shape: 1 64 768 112 112 (616562688)
I0417 13:56:03.898326 25800 net.cpp:165] Memory required for data: 5279319228
I0417 13:56:03.898330 25800 layer_factory.hpp:77] Creating layer pool1
I0417 13:56:03.898339 25800 net.cpp:100] Creating Layer pool1
I0417 13:56:03.898344 25800 net.cpp:434] pool1 <- conv1a
I0417 13:56:03.898350 25800 net.cpp:408] pool1 -> pool1
I0417 13:56:03.898530 25800 net.cpp:150] Setting up pool1
I0417 13:56:03.898541 25800 net.cpp:157] Top shape: 1 64 768 56 56 (154140672)
I0417 13:56:03.898545 25800 net.cpp:165] Memory required for data: 5895881916
I0417 13:56:03.898548 25800 layer_factory.hpp:77] Creating layer conv2a
I0417 13:56:03.898558 25800 net.cpp:100] Creating Layer conv2a
I0417 13:56:03.898562 25800 net.cpp:434] conv2a <- pool1
I0417 13:56:03.898568 25800 net.cpp:408] conv2a -> conv2a
I0417 13:56:03.920403 25800 net.cpp:150] Setting up conv2a
I0417 13:56:03.920449 25800 net.cpp:157] Top shape: 1 128 768 56 56 (308281344)
I0417 13:56:03.920459 25800 net.cpp:165] Memory required for data: 7129007292
I0417 13:56:03.920486 25800 layer_factory.hpp:77] Creating layer relu2a
I0417 13:56:03.920505 25800 net.cpp:100] Creating Layer relu2a
I0417 13:56:03.920514 25800 net.cpp:434] relu2a <- conv2a
I0417 13:56:03.920527 25800 net.cpp:395] relu2a -> conv2a (in-place)
I0417 13:56:03.921298 25800 net.cpp:150] Setting up relu2a
I0417 13:56:03.921329 25800 net.cpp:157] Top shape: 1 128 768 56 56 (308281344)
I0417 13:56:03.921339 25800 net.cpp:165] Memory required for data: 8362132668
I0417 13:56:03.921347 25800 layer_factory.hpp:77] Creating layer pool2
I0417 13:56:03.921368 25800 net.cpp:100] Creating Layer pool2
I0417 13:56:03.921376 25800 net.cpp:434] pool2 <- conv2a
I0417 13:56:03.921391 25800 net.cpp:408] pool2 -> pool2
I0417 13:56:03.921809 25800 net.cpp:150] Setting up pool2
I0417 13:56:03.921833 25800 net.cpp:157] Top shape: 1 128 384 28 28 (38535168)
I0417 13:56:03.921841 25800 net.cpp:165] Memory required for data: 8516273340
I0417 13:56:03.921849 25800 layer_factory.hpp:77] Creating layer conv3a
I0417 13:56:03.921870 25800 net.cpp:100] Creating Layer conv3a
I0417 13:56:03.921880 25800 net.cpp:434] conv3a <- pool2
I0417 13:56:03.921892 25800 net.cpp:408] conv3a -> conv3a
I0417 13:56:03.949610 25800 net.cpp:150] Setting up conv3a
I0417 13:56:03.949631 25800 net.cpp:157] Top shape: 1 256 384 28 28 (77070336)
I0417 13:56:03.949635 25800 net.cpp:165] Memory required for data: 8824554684
I0417 13:56:03.949648 25800 layer_factory.hpp:77] Creating layer relu3a
I0417 13:56:03.949656 25800 net.cpp:100] Creating Layer relu3a
I0417 13:56:03.949661 25800 net.cpp:434] relu3a <- conv3a
I0417 13:56:03.949667 25800 net.cpp:395] relu3a -> conv3a (in-place)
I0417 13:56:03.949949 25800 net.cpp:150] Setting up relu3a
I0417 13:56:03.949961 25800 net.cpp:157] Top shape: 1 256 384 28 28 (77070336)
I0417 13:56:03.949965 25800 net.cpp:165] Memory required for data: 9132836028
I0417 13:56:03.949970 25800 layer_factory.hpp:77] Creating layer conv3b
I0417 13:56:03.949980 25800 net.cpp:100] Creating Layer conv3b
I0417 13:56:03.949983 25800 net.cpp:434] conv3b <- conv3a
I0417 13:56:03.949990 25800 net.cpp:408] conv3b -> conv3b
I0417 13:56:03.998715 25800 net.cpp:150] Setting up conv3b
I0417 13:56:03.998736 25800 net.cpp:157] Top shape: 1 256 384 28 28 (77070336)
I0417 13:56:03.998740 25800 net.cpp:165] Memory required for data: 9441117372
I0417 13:56:03.998749 25800 layer_factory.hpp:77] Creating layer relu3b
I0417 13:56:03.998771 25800 net.cpp:100] Creating Layer relu3b
I0417 13:56:03.998777 25800 net.cpp:434] relu3b <- conv3b
I0417 13:56:03.998783 25800 net.cpp:395] relu3b -> conv3b (in-place)
I0417 13:56:03.999078 25800 net.cpp:150] Setting up relu3b
I0417 13:56:03.999092 25800 net.cpp:157] Top shape: 1 256 384 28 28 (77070336)
I0417 13:56:03.999096 25800 net.cpp:165] Memory required for data: 9749398716
I0417 13:56:03.999100 25800 layer_factory.hpp:77] Creating layer pool3
I0417 13:56:03.999109 25800 net.cpp:100] Creating Layer pool3
I0417 13:56:03.999112 25800 net.cpp:434] pool3 <- conv3b
I0417 13:56:03.999117 25800 net.cpp:408] pool3 -> pool3
I0417 13:56:03.999300 25800 net.cpp:150] Setting up pool3
I0417 13:56:03.999311 25800 net.cpp:157] Top shape: 1 256 192 14 14 (9633792)
I0417 13:56:03.999315 25800 net.cpp:165] Memory required for data: 9787933884
I0417 13:56:03.999318 25800 layer_factory.hpp:77] Creating layer conv4a
I0417 13:56:03.999328 25800 net.cpp:100] Creating Layer conv4a
I0417 13:56:03.999332 25800 net.cpp:434] conv4a <- pool3
I0417 13:56:03.999339 25800 net.cpp:408] conv4a -> conv4a
I0417 13:56:04.096299 25800 net.cpp:150] Setting up conv4a
I0417 13:56:04.096323 25800 net.cpp:157] Top shape: 1 512 192 14 14 (19267584)
I0417 13:56:04.096328 25800 net.cpp:165] Memory required for data: 9865004220
I0417 13:56:04.096339 25800 layer_factory.hpp:77] Creating layer relu4a
I0417 13:56:04.096349 25800 net.cpp:100] Creating Layer relu4a
I0417 13:56:04.096354 25800 net.cpp:434] relu4a <- conv4a
I0417 13:56:04.096360 25800 net.cpp:395] relu4a -> conv4a (in-place)
I0417 13:56:04.096660 25800 net.cpp:150] Setting up relu4a
I0417 13:56:04.096673 25800 net.cpp:157] Top shape: 1 512 192 14 14 (19267584)
I0417 13:56:04.096678 25800 net.cpp:165] Memory required for data: 9942074556
I0417 13:56:04.096680 25800 layer_factory.hpp:77] Creating layer conv4b
I0417 13:56:04.096694 25800 net.cpp:100] Creating Layer conv4b
I0417 13:56:04.096698 25800 net.cpp:434] conv4b <- conv4a
I0417 13:56:04.096704 25800 net.cpp:408] conv4b -> conv4b
I0417 13:56:04.288513 25800 net.cpp:150] Setting up conv4b
I0417 13:56:04.288539 25800 net.cpp:157] Top shape: 1 512 192 14 14 (19267584)
I0417 13:56:04.288543 25800 net.cpp:165] Memory required for data: 10019144892
I0417 13:56:04.288553 25800 layer_factory.hpp:77] Creating layer relu4b
I0417 13:56:04.288563 25800 net.cpp:100] Creating Layer relu4b
I0417 13:56:04.288568 25800 net.cpp:434] relu4b <- conv4b
I0417 13:56:04.288575 25800 net.cpp:395] relu4b -> conv4b (in-place)
I0417 13:56:04.288739 25800 net.cpp:150] Setting up relu4b
I0417 13:56:04.288751 25800 net.cpp:157] Top shape: 1 512 192 14 14 (19267584)
I0417 13:56:04.288754 25800 net.cpp:165] Memory required for data: 10096215228
I0417 13:56:04.288758 25800 layer_factory.hpp:77] Creating layer pool4
I0417 13:56:04.288767 25800 net.cpp:100] Creating Layer pool4
I0417 13:56:04.288774 25800 net.cpp:434] pool4 <- conv4b
I0417 13:56:04.288779 25800 net.cpp:408] pool4 -> pool4
I0417 13:56:04.289119 25800 net.cpp:150] Setting up pool4
I0417 13:56:04.289134 25800 net.cpp:157] Top shape: 1 512 96 7 7 (2408448)
I0417 13:56:04.289136 25800 net.cpp:165] Memory required for data: 10105849020
I0417 13:56:04.289140 25800 layer_factory.hpp:77] Creating layer conv5a
I0417 13:56:04.289152 25800 net.cpp:100] Creating Layer conv5a
I0417 13:56:04.289156 25800 net.cpp:434] conv5a <- pool4
I0417 13:56:04.289163 25800 net.cpp:408] conv5a -> conv5a
I0417 13:56:04.478072 25800 net.cpp:150] Setting up conv5a
I0417 13:56:04.478096 25800 net.cpp:157] Top shape: 1 512 96 7 7 (2408448)
I0417 13:56:04.478101 25800 net.cpp:165] Memory required for data: 10115482812
I0417 13:56:04.478109 25800 layer_factory.hpp:77] Creating layer relu5a
I0417 13:56:04.478119 25800 net.cpp:100] Creating Layer relu5a
I0417 13:56:04.478124 25800 net.cpp:434] relu5a <- conv5a
I0417 13:56:04.478130 25800 net.cpp:395] relu5a -> conv5a (in-place)
I0417 13:56:04.478549 25800 net.cpp:150] Setting up relu5a
I0417 13:56:04.478560 25800 net.cpp:157] Top shape: 1 512 96 7 7 (2408448)
I0417 13:56:04.478564 25800 net.cpp:165] Memory required for data: 10125116604
I0417 13:56:04.478569 25800 layer_factory.hpp:77] Creating layer conv5b
I0417 13:56:04.478580 25800 net.cpp:100] Creating Layer conv5b
I0417 13:56:04.478585 25800 net.cpp:434] conv5b <- conv5a
I0417 13:56:04.478591 25800 net.cpp:408] conv5b -> conv5b
I0417 13:56:04.664117 25800 net.cpp:150] Setting up conv5b
I0417 13:56:04.664141 25800 net.cpp:157] Top shape: 1 512 96 7 7 (2408448)
I0417 13:56:04.664145 25800 net.cpp:165] Memory required for data: 10134750396
I0417 13:56:04.664155 25800 layer_factory.hpp:77] Creating layer relu5b
I0417 13:56:04.664163 25800 net.cpp:100] Creating Layer relu5b
I0417 13:56:04.664167 25800 net.cpp:434] relu5b <- conv5b
I0417 13:56:04.664176 25800 net.cpp:395] relu5b -> conv5b (in-place)
I0417 13:56:04.664324 25800 net.cpp:150] Setting up relu5b
I0417 13:56:04.664335 25800 net.cpp:157] Top shape: 1 512 96 7 7 (2408448)
I0417 13:56:04.664337 25800 net.cpp:165] Memory required for data: 10144384188
I0417 13:56:04.664341 25800 layer_factory.hpp:77] Creating layer conv5b_relu5b_0_split
I0417 13:56:04.664347 25800 net.cpp:100] Creating Layer conv5b_relu5b_0_split
I0417 13:56:04.664350 25800 net.cpp:434] conv5b_relu5b_0_split <- conv5b
I0417 13:56:04.664356 25800 net.cpp:408] conv5b_relu5b_0_split -> conv5b_relu5b_0_split_0
I0417 13:56:04.664362 25800 net.cpp:408] conv5b_relu5b_0_split -> conv5b_relu5b_0_split_1
I0417 13:56:04.664399 25800 net.cpp:150] Setting up conv5b_relu5b_0_split
I0417 13:56:04.664407 25800 net.cpp:157] Top shape: 1 512 96 7 7 (2408448)
I0417 13:56:04.664412 25800 net.cpp:157] Top shape: 1 512 96 7 7 (2408448)
I0417 13:56:04.664414 25800 net.cpp:165] Memory required for data: 10163651772
I0417 13:56:04.664417 25800 layer_factory.hpp:77] Creating layer rpn_conv/3x3
I0417 13:56:04.664427 25800 net.cpp:100] Creating Layer rpn_conv/3x3
I0417 13:56:04.664432 25800 net.cpp:434] rpn_conv/3x3 <- conv5b_relu5b_0_split_0
I0417 13:56:04.664438 25800 net.cpp:408] rpn_conv/3x3 -> rpn/output
I0417 13:56:04.850543 25800 net.cpp:150] Setting up rpn_conv/3x3
I0417 13:56:04.850569 25800 net.cpp:157] Top shape: 1 512 96 4 4 (786432)
I0417 13:56:04.850572 25800 net.cpp:165] Memory required for data: 10166797500
I0417 13:56:04.850585 25800 layer_factory.hpp:77] Creating layer rpn_relu/3x3
I0417 13:56:04.850594 25800 net.cpp:100] Creating Layer rpn_relu/3x3
I0417 13:56:04.850600 25800 net.cpp:434] rpn_relu/3x3 <- rpn/output
I0417 13:56:04.850605 25800 net.cpp:395] rpn_relu/3x3 -> rpn/output (in-place)
I0417 13:56:04.850919 25800 net.cpp:150] Setting up rpn_relu/3x3
I0417 13:56:04.850932 25800 net.cpp:157] Top shape: 1 512 96 4 4 (786432)
I0417 13:56:04.850935 25800 net.cpp:165] Memory required for data: 10169943228
I0417 13:56:04.850939 25800 layer_factory.hpp:77] Creating layer rpn_conv/3x3_2
I0417 13:56:04.850950 25800 net.cpp:100] Creating Layer rpn_conv/3x3_2
I0417 13:56:04.850957 25800 net.cpp:434] rpn_conv/3x3_2 <- rpn/output
I0417 13:56:04.850965 25800 net.cpp:408] rpn_conv/3x3_2 -> rpn/output_2
I0417 13:56:05.036067 25800 net.cpp:150] Setting up rpn_conv/3x3_2
I0417 13:56:05.036093 25800 net.cpp:157] Top shape: 1 512 96 2 2 (196608)
I0417 13:56:05.036098 25800 net.cpp:165] Memory required for data: 10170729660
I0417 13:56:05.036108 25800 layer_factory.hpp:77] Creating layer rpn_relu/3x3_2
I0417 13:56:05.036116 25800 net.cpp:100] Creating Layer rpn_relu/3x3_2
I0417 13:56:05.036120 25800 net.cpp:434] rpn_relu/3x3_2 <- rpn/output_2
I0417 13:56:05.036126 25800 net.cpp:395] rpn_relu/3x3_2 -> rpn/output_2 (in-place)
I0417 13:56:05.036702 25800 net.cpp:150] Setting up rpn_relu/3x3_2
I0417 13:56:05.036715 25800 net.cpp:157] Top shape: 1 512 96 2 2 (196608)
I0417 13:56:05.036718 25800 net.cpp:165] Memory required for data: 10171516092
I0417 13:56:05.036722 25800 layer_factory.hpp:77] Creating layer rpn/output_pool
I0417 13:56:05.036731 25800 net.cpp:100] Creating Layer rpn/output_pool
I0417 13:56:05.036736 25800 net.cpp:434] rpn/output_pool <- rpn/output_2
I0417 13:56:05.036741 25800 net.cpp:408] rpn/output_pool -> rpn/output_pool
I0417 13:56:05.036913 25800 net.cpp:150] Setting up rpn/output_pool
I0417 13:56:05.036924 25800 net.cpp:157] Top shape: 1 512 96 1 1 (49152)
I0417 13:56:05.036927 25800 net.cpp:165] Memory required for data: 10171712700
I0417 13:56:05.036931 25800 layer_factory.hpp:77] Creating layer rpn/output_pool_rpn/output_pool_0_split
I0417 13:56:05.036936 25800 net.cpp:100] Creating Layer rpn/output_pool_rpn/output_pool_0_split
I0417 13:56:05.036942 25800 net.cpp:434] rpn/output_pool_rpn/output_pool_0_split <- rpn/output_pool
I0417 13:56:05.036947 25800 net.cpp:408] rpn/output_pool_rpn/output_pool_0_split -> rpn/output_pool_rpn/output_pool_0_split_0
I0417 13:56:05.036952 25800 net.cpp:408] rpn/output_pool_rpn/output_pool_0_split -> rpn/output_pool_rpn/output_pool_0_split_1
I0417 13:56:05.036983 25800 net.cpp:150] Setting up rpn/output_pool_rpn/output_pool_0_split
I0417 13:56:05.036990 25800 net.cpp:157] Top shape: 1 512 96 1 1 (49152)
I0417 13:56:05.036994 25800 net.cpp:157] Top shape: 1 512 96 1 1 (49152)
I0417 13:56:05.036998 25800 net.cpp:165] Memory required for data: 10172105916
I0417 13:56:05.037000 25800 layer_factory.hpp:77] Creating layer rpn_cls_score
I0417 13:56:05.037010 25800 net.cpp:100] Creating Layer rpn_cls_score
I0417 13:56:05.037014 25800 net.cpp:434] rpn_cls_score <- rpn/output_pool_rpn/output_pool_0_split_0
I0417 13:56:05.037019 25800 net.cpp:408] rpn_cls_score -> rpn_cls_score
I0417 13:56:05.040071 25800 net.cpp:150] Setting up rpn_cls_score
I0417 13:56:05.040086 25800 net.cpp:157] Top shape: 1 74 96 1 1 (7104)
I0417 13:56:05.040089 25800 net.cpp:165] Memory required for data: 10172134332
I0417 13:56:05.040096 25800 layer_factory.hpp:77] Creating layer rpn_cls_score_rpn_cls_score_0_split
I0417 13:56:05.040102 25800 net.cpp:100] Creating Layer rpn_cls_score_rpn_cls_score_0_split
I0417 13:56:05.040107 25800 net.cpp:434] rpn_cls_score_rpn_cls_score_0_split <- rpn_cls_score
I0417 13:56:05.040112 25800 net.cpp:408] rpn_cls_score_rpn_cls_score_0_split -> rpn_cls_score_rpn_cls_score_0_split_0
I0417 13:56:05.040117 25800 net.cpp:408] rpn_cls_score_rpn_cls_score_0_split -> rpn_cls_score_rpn_cls_score_0_split_1
I0417 13:56:05.040163 25800 net.cpp:150] Setting up rpn_cls_score_rpn_cls_score_0_split
I0417 13:56:05.040170 25800 net.cpp:157] Top shape: 1 74 96 1 1 (7104)
I0417 13:56:05.040174 25800 net.cpp:157] Top shape: 1 74 96 1 1 (7104)
I0417 13:56:05.040179 25800 net.cpp:165] Memory required for data: 10172191164
I0417 13:56:05.040181 25800 layer_factory.hpp:77] Creating layer rpn_twin_pred
I0417 13:56:05.040196 25800 net.cpp:100] Creating Layer rpn_twin_pred
I0417 13:56:05.040204 25800 net.cpp:434] rpn_twin_pred <- rpn/output_pool_rpn/output_pool_0_split_1
I0417 13:56:05.040210 25800 net.cpp:408] rpn_twin_pred -> rpn_twin_pred
I0417 13:56:05.042346 25800 net.cpp:150] Setting up rpn_twin_pred
I0417 13:56:05.042361 25800 net.cpp:157] Top shape: 1 74 96 1 1 (7104)
I0417 13:56:05.042364 25800 net.cpp:165] Memory required for data: 10172219580
I0417 13:56:05.042372 25800 layer_factory.hpp:77] Creating layer rpn_twin_pred_rpn_twin_pred_0_split
I0417 13:56:05.042381 25800 net.cpp:100] Creating Layer rpn_twin_pred_rpn_twin_pred_0_split
I0417 13:56:05.042383 25800 net.cpp:434] rpn_twin_pred_rpn_twin_pred_0_split <- rpn_twin_pred
I0417 13:56:05.042389 25800 net.cpp:408] rpn_twin_pred_rpn_twin_pred_0_split -> rpn_twin_pred_rpn_twin_pred_0_split_0
I0417 13:56:05.042395 25800 net.cpp:408] rpn_twin_pred_rpn_twin_pred_0_split -> rpn_twin_pred_rpn_twin_pred_0_split_1
I0417 13:56:05.042435 25800 net.cpp:150] Setting up rpn_twin_pred_rpn_twin_pred_0_split
I0417 13:56:05.042443 25800 net.cpp:157] Top shape: 1 74 96 1 1 (7104)
I0417 13:56:05.042448 25800 net.cpp:157] Top shape: 1 74 96 1 1 (7104)
I0417 13:56:05.042451 25800 net.cpp:165] Memory required for data: 10172276412
I0417 13:56:05.042455 25800 layer_factory.hpp:77] Creating layer rpn_cls_score_reshape
I0417 13:56:05.042465 25800 net.cpp:100] Creating Layer rpn_cls_score_reshape
I0417 13:56:05.042469 25800 net.cpp:434] rpn_cls_score_reshape <- rpn_cls_score_rpn_cls_score_0_split_0
I0417 13:56:05.042477 25800 net.cpp:408] rpn_cls_score_reshape -> rpn_cls_score_reshape
I0417 13:56:05.042510 25800 net.cpp:150] Setting up rpn_cls_score_reshape
I0417 13:56:05.042520 25800 net.cpp:157] Top shape: 1 2 3552 1 1 (7104)
I0417 13:56:05.042523 25800 net.cpp:165] Memory required for data: 10172304828
I0417 13:56:05.042527 25800 layer_factory.hpp:77] Creating layer rpn_cls_score_reshape_rpn_cls_score_reshape_0_split
I0417 13:56:05.042532 25800 net.cpp:100] Creating Layer rpn_cls_score_reshape_rpn_cls_score_reshape_0_split
I0417 13:56:05.042536 25800 net.cpp:434] rpn_cls_score_reshape_rpn_cls_score_reshape_0_split <- rpn_cls_score_reshape
I0417 13:56:05.042542 25800 net.cpp:408] rpn_cls_score_reshape_rpn_cls_score_reshape_0_split -> rpn_cls_score_reshape_rpn_cls_score_reshape_0_split_0
I0417 13:56:05.042552 25800 net.cpp:408] rpn_cls_score_reshape_rpn_cls_score_reshape_0_split -> rpn_cls_score_reshape_rpn_cls_score_reshape_0_split_1
I0417 13:56:05.042558 25800 net.cpp:408] rpn_cls_score_reshape_rpn_cls_score_reshape_0_split -> rpn_cls_score_reshape_rpn_cls_score_reshape_0_split_2
I0417 13:56:05.042603 25800 net.cpp:150] Setting up rpn_cls_score_reshape_rpn_cls_score_reshape_0_split
I0417 13:56:05.042611 25800 net.cpp:157] Top shape: 1 2 3552 1 1 (7104)
I0417 13:56:05.042615 25800 net.cpp:157] Top shape: 1 2 3552 1 1 (7104)
I0417 13:56:05.042619 25800 net.cpp:157] Top shape: 1 2 3552 1 1 (7104)
I0417 13:56:05.042623 25800 net.cpp:165] Memory required for data: 10172390076
I0417 13:56:05.042626 25800 layer_factory.hpp:77] Creating layer rpn-data
I0417 13:56:05.043053 25800 net.cpp:100] Creating Layer rpn-data
I0417 13:56:05.043066 25800 net.cpp:434] rpn-data <- rpn_cls_score_rpn_cls_score_0_split_1
I0417 13:56:05.043072 25800 net.cpp:434] rpn-data <- gt_boxes_data_1_split_0
I0417 13:56:05.043077 25800 net.cpp:434] rpn-data <- data_data_0_split_1
I0417 13:56:05.043084 25800 net.cpp:408] rpn-data -> rpn_labels
I0417 13:56:05.043092 25800 net.cpp:408] rpn-data -> rpn_twin_targets
I0417 13:56:05.043098 25800 net.cpp:408] rpn-data -> rpn_twin_inside_weights
I0417 13:56:05.043104 25800 net.cpp:408] rpn-data -> rpn_twin_outside_weights
I0417 13:56:05.045552 25800 net.cpp:150] Setting up rpn-data
I0417 13:56:05.045567 25800 net.cpp:157] Top shape: 1 1 3552 1 1 (3552)
I0417 13:56:05.045572 25800 net.cpp:157] Top shape: 1 74 96 1 1 (7104)
I0417 13:56:05.045575 25800 net.cpp:157] Top shape: 1 74 96 1 1 (7104)
I0417 13:56:05.045579 25800 net.cpp:157] Top shape: 1 74 96 1 1 (7104)
I0417 13:56:05.045583 25800 net.cpp:165] Memory required for data: 10172489532
I0417 13:56:05.045586 25800 layer_factory.hpp:77] Creating layer rpn_labels_rpn-data_0_split
I0417 13:56:05.045591 25800 net.cpp:100] Creating Layer rpn_labels_rpn-data_0_split
I0417 13:56:05.045596 25800 net.cpp:434] rpn_labels_rpn-data_0_split <- rpn_labels
I0417 13:56:05.045603 25800 net.cpp:408] rpn_labels_rpn-data_0_split -> rpn_labels_rpn-data_0_split_0
I0417 13:56:05.045609 25800 net.cpp:408] rpn_labels_rpn-data_0_split -> rpn_labels_rpn-data_0_split_1
I0417 13:56:05.045642 25800 net.cpp:150] Setting up rpn_labels_rpn-data_0_split
I0417 13:56:05.045652 25800 net.cpp:157] Top shape: 1 1 3552 1 1 (3552)
I0417 13:56:05.045656 25800 net.cpp:157] Top shape: 1 1 3552 1 1 (3552)
I0417 13:56:05.045660 25800 net.cpp:165] Memory required for data: 10172517948
I0417 13:56:05.045665 25800 layer_factory.hpp:77] Creating layer rpn_loss_cls
I0417 13:56:05.045675 25800 net.cpp:100] Creating Layer rpn_loss_cls
I0417 13:56:05.045678 25800 net.cpp:434] rpn_loss_cls <- rpn_cls_score_reshape_rpn_cls_score_reshape_0_split_0
I0417 13:56:05.045683 25800 net.cpp:434] rpn_loss_cls <- rpn_labels_rpn-data_0_split_0
…
I0417 13:56:05.046479 25800 layer_factory.hpp:77] Creating layer rpn_accuarcy
I0417 13:56:05.046489 25800 net.cpp:100] Creating Layer rpn_accuarcy
I0417 13:56:05.046496 25800 net.cpp:434] rpn_accuarcy <- rpn_cls_score_reshape_rpn_cls_score_reshape_0_split_1
I0417 13:56:05.046501 25800 net.cpp:434] rpn_accuarcy <- rpn_labels_rpn-data_0_split_1
I0417 13:56:05.046509 25800 net.cpp:408] rpn_accuarcy -> rpn_accuarcy
I0417 13:56:05.046515 25800 net.cpp:408] rpn_accuarcy -> rpn_accuarcy_class
I0417 13:56:05.046553 25800 net.cpp:150] Setting up rpn_accuarcy
I0417 13:56:05.046560 25800 net.cpp:157] Top shape: (1)
I0417 13:56:05.046564 25800 net.cpp:157] Top shape: 2 (2)
I0417 13:56:05.046567 25800 net.cpp:165] Memory required for data: 10172517968
I0417 13:56:05.046571 25800 layer_factory.hpp:77] Creating layer rpn_cls_prob
I0417 13:56:05.046576 25800 net.cpp:100] Creating Layer rpn_cls_prob
I0417 13:56:05.046581 25800 net.cpp:434] rpn_cls_prob <- rpn_cls_score_reshape_rpn_cls_score_reshape_0_split_2
I0417 13:56:05.046586 25800 net.cpp:408] rpn_cls_prob -> rpn_cls_prob
I0417 13:56:05.046808 25800 net.cpp:150] Setting up rpn_cls_prob
I0417 13:56:05.046820 25800 net.cpp:157] Top shape: 1 2 3552 1 1 (7104)
I0417 13:56:05.046824 25800 net.cpp:165] Memory required for data: 10172546384
I0417 13:56:05.046828 25800 layer_factory.hpp:77] Creating layer rpn_cls_prob_reshape
I0417 13:56:05.046835 25800 net.cpp:100] Creating Layer rpn_cls_prob_reshape
I0417 13:56:05.046839 25800 net.cpp:434] rpn_cls_prob_reshape <- rpn_cls_prob
I0417 13:56:05.046845 25800 net.cpp:408] rpn_cls_prob_reshape -> rpn_cls_prob_reshape
I0417 13:56:05.046872 25800 net.cpp:150] Setting up rpn_cls_prob_reshape
I0417 13:56:05.046880 25800 net.cpp:157] Top shape: 1 74 96 1 1 (7104)
I0417 13:56:05.046883 25800 net.cpp:165] Memory required for data: 10172574800
I0417 13:56:05.046886 25800 layer_factory.hpp:77] Creating layer proposal
I0417 13:56:05.047458 25800 net.cpp:100] Creating Layer proposal
I0417 13:56:05.047472 25800 net.cpp:434] proposal <- rpn_cls_prob_reshape
I0417 13:56:05.047478 25800 net.cpp:434] proposal <- rpn_twin_pred_rpn_twin_pred_0_split_1
I0417 13:56:05.047483 25800 net.cpp:408] proposal -> rpn_rois
I0417 13:56:05.049870 25800 net.cpp:150] Setting up proposal
I0417 13:56:05.049885 25800 net.cpp:157] Top shape: 1 3 (3)
I0417 13:56:05.049890 25800 net.cpp:165] Memory required for data: 10172574812
I0417 13:56:05.049895 25800 layer_factory.hpp:77] Creating layer roi-data
I0417 13:56:05.050032 25800 net.cpp:100] Creating Layer roi-data
I0417 13:56:05.050045 25800 net.cpp:434] roi-data <- rpn_rois
I0417 13:56:05.050050 25800 net.cpp:434] roi-data <- gt_boxes_data_1_split_1
I0417 13:56:05.050055 25800 net.cpp:408] roi-data -> rois
I0417 13:56:05.050063 25800 net.cpp:408] roi-data -> labels
I0417 13:56:05.050073 25800 net.cpp:408] roi-data -> twin_targets
I0417 13:56:05.050081 25800 net.cpp:408] roi-data -> twin_inside_weights
I0417 13:56:05.050086 25800 net.cpp:408] roi-data -> twin_outside_weights
I0417 13:56:05.050421 25800 net.cpp:150] Setting up roi-data
I0417 13:56:05.050436 25800 net.cpp:157] Top shape: 1 3 (3)
I0417 13:56:05.050441 25800 net.cpp:157] Top shape: 1 1 (1)
I0417 13:56:05.050446 25800 net.cpp:157] Top shape: 1 402 (402)
I0417 13:56:05.050449 25800 net.cpp:157] Top shape: 1 402 (402)
I0417 13:56:05.050452 25800 net.cpp:157] Top shape: 1 402 (402)
I0417 13:56:05.050457 25800 net.cpp:165] Memory required for data: 10172579652
I0417 13:56:05.050460 25800 layer_factory.hpp:77] Creating layer labels_roi-data_1_split
I0417 13:56:05.050467 25800 net.cpp:100] Creating Layer labels_roi-data_1_split
I0417 13:56:05.050470 25800 net.cpp:434] labels_roi-data_1_split <- labels
I0417 13:56:05.050477 25800 net.cpp:408] labels_roi-data_1_split -> labels_roi-data_1_split_0
I0417 13:56:05.050483 25800 net.cpp:408] labels_roi-data_1_split -> labels_roi-data_1_split_1
I0417 13:56:05.050521 25800 net.cpp:150] Setting up labels_roi-data_1_split
I0417 13:56:05.050529 25800 net.cpp:157] Top shape: 1 1 (1)
I0417 13:56:05.050534 25800 net.cpp:157] Top shape: 1 1 (1)
I0417 13:56:05.050536 25800 net.cpp:165] Memory required for data: 10172579660
I0417 13:56:05.050540 25800 layer_factory.hpp:77] Creating layer roi_pool5
I0417 13:56:05.050549 25800 net.cpp:100] Creating Layer roi_pool5
I0417 13:56:05.050556 25800 net.cpp:434] roi_pool5 <- conv5b_relu5b_0_split_1
I0417 13:56:05.050560 25800 net.cpp:434] roi_pool5 <- rois
I0417 13:56:05.050565 25800 net.cpp:408] roi_pool5 -> pool5
I0417 13:56:05.050573 25800 roi_pooling_layer.cpp:34] Temporal scale: 0.125
I0417 13:56:05.050580 25800 roi_pooling_layer.cpp:35] Spatial scale: 0.0625
I0417 13:56:05.050613 25800 net.cpp:150] Setting up roi_pool5
I0417 13:56:05.050623 25800 net.cpp:157] Top shape: 1 512 1 4 4 (8192)
I0417 13:56:05.050627 25800 net.cpp:165] Memory required for data: 10172612428
I0417 13:56:05.050631 25800 layer_factory.hpp:77] Creating layer fc6
I0417 13:56:05.050639 25800 net.cpp:100] Creating Layer fc6
I0417 13:56:05.050647 25800 net.cpp:434] fc6 <- pool5
I0417 13:56:05.050652 25800 net.cpp:408] fc6 -> fc6
I0417 13:56:05.926250 25800 net.cpp:150] Setting up fc6
I0417 13:56:05.926275 25800 net.cpp:157] Top shape: 1 4096 (4096)
I0417 13:56:05.926280 25800 net.cpp:165] Memory required for data: 10172628812
I0417 13:56:05.926290 25800 layer_factory.hpp:77] Creating layer relu6
I0417 13:56:05.926298 25800 net.cpp:100] Creating Layer relu6
I0417 13:56:05.926302 25800 net.cpp:434] relu6 <- fc6
I0417 13:56:05.926311 25800 net.cpp:395] relu6 -> fc6 (in-place)
I0417 13:56:05.926714 25800 net.cpp:150] Setting up relu6
I0417 13:56:05.926726 25800 net.cpp:157] Top shape: 1 4096 (4096)
I0417 13:56:05.926730 25800 net.cpp:165] Memory required for data: 10172645196
I0417 13:56:05.926734 25800 layer_factory.hpp:77] Creating layer drop6
I0417 13:56:05.926745 25800 net.cpp:100] Creating Layer drop6
I0417 13:56:05.926750 25800 net.cpp:434] drop6 <- fc6
I0417 13:56:05.926759 25800 net.cpp:395] drop6 -> fc6 (in-place)
I0417 13:56:05.926803 25800 net.cpp:150] Setting up drop6
I0417 13:56:05.926810 25800 net.cpp:157] Top shape: 1 4096 (4096)
I0417 13:56:05.926812 25800 net.cpp:165] Memory required for data: 10172661580
I0417 13:56:05.926815 25800 layer_factory.hpp:77] Creating layer fc6_drop6_0_split
I0417 13:56:05.926822 25800 net.cpp:100] Creating Layer fc6_drop6_0_split
I0417 13:56:05.926826 25800 net.cpp:434] fc6_drop6_0_split <- fc6
I0417 13:56:05.926829 25800 net.cpp:408] fc6_drop6_0_split -> fc6_drop6_0_split_0
I0417 13:56:05.926836 25800 net.cpp:408] fc6_drop6_0_split -> fc6_drop6_0_split_1
I0417 13:56:05.926868 25800 net.cpp:150] Setting up fc6_drop6_0_split
I0417 13:56:05.926877 25800 net.cpp:157] Top shape: 1 4096 (4096)
I0417 13:56:05.926879 25800 net.cpp:157] Top shape: 1 4096 (4096)
I0417 13:56:05.926882 25800 net.cpp:165] Memory required for data: 10172694348
I0417 13:56:05.926887 25800 layer_factory.hpp:77] Creating layer cls_score
I0417 13:56:05.926893 25800 net.cpp:100] Creating Layer cls_score
I0417 13:56:05.926898 25800 net.cpp:434] cls_score <- fc6_drop6_0_split_0
I0417 13:56:05.926903 25800 net.cpp:408] cls_score -> cls_score
I0417 13:56:05.948443 25800 net.cpp:150] Setting up cls_score
I0417 13:56:05.948462 25800 net.cpp:157] Top shape: 1 201 (201)
I0417 13:56:05.948465 25800 net.cpp:165] Memory required for data: 10172695152
I0417 13:56:05.948473 25800 layer_factory.hpp:77] Creating layer cls_score_cls_score_0_split
I0417 13:56:05.948480 25800 net.cpp:100] Creating Layer cls_score_cls_score_0_split
I0417 13:56:05.948483 25800 net.cpp:434] cls_score_cls_score_0_split <- cls_score
I0417 13:56:05.948492 25800 net.cpp:408] cls_score_cls_score_0_split -> cls_score_cls_score_0_split_0
I0417 13:56:05.948498 25800 net.cpp:408] cls_score_cls_score_0_split -> cls_score_cls_score_0_split_1
I0417 13:56:05.948531 25800 net.cpp:150] Setting up cls_score_cls_score_0_split
I0417 13:56:05.948539 25800 net.cpp:157] Top shape: 1 201 (201)
I0417 13:56:05.948544 25800 net.cpp:157] Top shape: 1 201 (201)
I0417 13:56:05.948546 25800 net.cpp:165] Memory required for data: 10172696760
I0417 13:56:05.948550 25800 layer_factory.hpp:77] Creating layer twin_pred
I0417 13:56:05.948557 25800 net.cpp:100] Creating Layer twin_pred
I0417 13:56:05.948560 25800 net.cpp:434] twin_pred <- fc6_drop6_0_split_1
I0417 13:56:05.948567 25800 net.cpp:408] twin_pred -> twin_pred
I0417 13:56:05.994349 25800 net.cpp:150] Setting up twin_pred
I0417 13:56:05.994369 25800 net.cpp:157] Top shape: 1 402 (402)
I0417 13:56:05.994374 25800 net.cpp:165] Memory required for data: 10172698368
I0417 13:56:05.994381 25800 layer_factory.hpp:77] Creating layer loss_cls
I0417 13:56:05.994392 25800 net.cpp:100] Creating Layer loss_cls
I0417 13:56:05.994397 25800 net.cpp:434] loss_cls <- cls_score_cls_score_0_split_0
I0417 13:56:05.994403 25800 net.cpp:434] loss_cls <- labels_roi-data_1_split_0
I0417 13:56:05.994408 25800 net.cpp:408] loss_cls -> loss_cls
…
