…
stepsize: 350000
snapshot: 0
snapshot_prefix: "./experiments/activitynet/snapshot/activitynet"
average_loss: 100
iter_size: 1
I0416 11:36:41.538357  5151 solver.cpp:81] Creating training net from train_net file: ./experiments/activitynet/train.prototxt
I0416 11:36:41.538897  5151 net.cpp:58] Initializing net from parameters: 
name: "activitynet"
state {
  phase: TRAIN
}
layer {
  name: "data"
  type: "Python"
  top: "data"
  top: "gt_boxes"
  python_param {
    module: "roi_data_layer.layer"
    layer: "RoIDataLayer"
    param_str: "\'num_classes\': 100"
  }
}
layer {
  name: "conv1a"
  type: "Convolution"
  bottom: "data"
  top: "conv1a"
  param {
    lr_mult: 0
    decay_mult: 0
  }
  param {
    lr_mult: 0
    decay_mult: 0
  }
  convolution_param {
    num_output: 64
    pad: 1
    pad: 1
    pad: 1
    kernel_size: 3
    kernel_size: 3
    kernel_size: 3
    weight_filler {
      type: "gaussian"
      std: 0.01
    }
    bias_filler {
      type: "constant"
      value: 0
    }
  }
}
layer {
  name: "relu1a"
  type: "ReLU"
  bottom: "conv1a"
  top: "conv1a"
}
layer {
  name: "pool1"
  type: "Pooling"
  bottom: "conv1a"
  top: "pool1"
  pooling_param {
    pool: MAX
    kernel_size: 1
    kernel_size: 2
    kernel_size: 2
    stride: 1
    stride: 2
    stride: 2
  }
}
layer {
  name: "conv2a"
  type: "Convolution"
  bottom: "pool1"
  top: "conv2a"
  param {
    lr_mult: 0
    decay_mult: 0
  }
  param {
    lr_mult: 0
    decay_mult: 0
  }
  convolution_param {
    num_output: 128
    pad: 1
    pad: 1
    pad: 1
    kernel_size: 3
    kernel_size: 3
    kernel_size: 3
    weight_filler {
      type: "gaussian"
      std: 0.01
    }
    bias_filler {
      type: "constant"
      value: 1
    }
  }
}
layer {
  name: "relu2a"
  type: "ReLU"
  bottom: "conv2a"
  top: "conv2a"
}
layer {
  name: "pool2"
  type: "Pooling"
  bottom: "conv2a"
  top: "pool2"
  pooling_param {
    pool: MAX
    kernel_size: 2
    kernel_size: 2
    kernel_size: 2
    stride: 2
    stride: 2
    stride: 2
  }
}
layer {
  name: "conv3a"
  type: "Convolution"
  bottom: "pool2"
  top: "conv3a"
  param {
    lr_mult: 1
    decay_mult: 1
  }
  param {
    lr_mult: 2
    decay_mult: 0
  }
  convolution_param {
    num_output: 256
    pad: 1
    pad: 1
    pad: 1
    kernel_size: 3
    kernel_size: 3
    kernel_size: 3
    weight_filler {
      type: "gaussian"
      std: 0.01
    }
    bias_filler {
      type: "constant"
      value: 1
    }
  }
}
layer {
  name: "relu3a"
  type: "ReLU"
  bottom: "conv3a"
  top: "conv3a"
}
layer {
  name: "conv3b"
  type: "Convolution"
  bottom: "conv3a"
  top: "conv3b"
  param {
    lr_mult: 1
    decay_mult: 1
  }
  param {
    lr_mult: 2
    decay_mult: 0
  }
  convolution_param {
    num_output: 256
    pad: 1
    pad: 1
    pad: 1
    kernel_size: 3
    kernel_size: 3
    kernel_size: 3
    weight_filler {
      type: "gaussian"
      std: 0.01
    }
    bias_filler {
      type: "constant"
      value: 1
    }
  }
}
layer {
  name: "relu3b"
  type: "ReLU"
  bottom: "conv3b"
  top: "conv3b"
}
layer {
  name: "pool3"
  type: "Pooling"
  bottom: "conv3b"
  top: "pool3"
  pooling_param {
    pool: MAX
    kernel_size: 2
    kernel_size: 2
    kernel_size: 2
    stride: 2
    stride: 2
    stride: 2
  }
}
layer {
  name: "conv4a"
  type: "Convolution"
  bottom: "pool3"
  top: "conv4a"
  param {
    lr_mult: 1
    decay_mult: 1
  }
  param {
    lr_mult: 2
    decay_mult: 0
  }
  convolution_param {
    num_output: 512
    pad: 1
    pad: 1
    pad: 1
    kernel_size: 3
    kernel_size: 3
    kernel_size: 3
    weight_filler {
      type: "gaussian"
      std: 0.01
    }
    bias_filler {
      type: "constant"
      value: 1
    }
  }
}
layer {
  name: "relu4a"
  type: "ReLU"
  bottom: "conv4a"
  top: "conv4a"
}
layer {
  name: "conv4b"
  type: "Convolution"
  bottom: "conv4a"
  top: "conv4b"
  param {
    lr_mult: 1
    decay_mult: 1
  }
  param {
    lr_mult: 2
    decay_mult: 0
  }
  convolution_param {
    num_output: 512
    pad: 1
    pad: 1
    pad: 1
    kernel_size: 3
    kernel_size: 3
    kernel_size: 3
    weight_filler {
      type: "gaussian"
      std: 0.01
    }
    bias_filler {
      type: "constant"
      value: 1
    }
  }
}
layer {
  name: "relu4b"
  type: "ReLU"
  bottom: "conv4b"
  top: "conv4b"
}
layer {
  name: "pool4"
  type: "Pooling"
  bottom: "conv4b"
  top: "pool4"
  pooling_param {
    pool: MAX
    kernel_size: 2
    kernel_size: 2
    kernel_size: 2
    stride: 2
    stride: 2
    stride: 2
  }
}
layer {
  name: "conv5a"
  type: "Convolution"
  bottom: "pool4"
  top: "conv5a"
  param {
    lr_mult: 1
    decay_mult: 1
  }
  param {
    lr_mult: 2
    decay_mult: 0
  }
  convolution_param {
    num_output: 512
    pad: 1
    pad: 1
    pad: 1
    kernel_size: 3
    kernel_size: 3
    kernel_size: 3
    weight_filler {
      type: "gaussian"
      std: 0.01
    }
    bias_filler {
      type: "constant"
      value: 1
    }
  }
}
layer {
  name: "relu5a"
  type: "ReLU"
  bottom: "conv5a"
  top: "conv5a"
}
layer {
  name: "conv5b"
  type: "Convolution"
  bottom: "conv5a"
  top: "conv5b"
  param {
    lr_mult: 1
    decay_mult: 1
  }
  param {
    lr_mult: 2
    decay_mult: 0
  }
  convolution_param {
    num_output: 512
    pad: 1
    pad: 1
    pad: 1
    kernel_size: 3
    kernel_size: 3
    kernel_size: 3
    weight_filler {
      type: "gaussian"
      std: 0.01
    }
    bias_filler {
      type: "constant"
      value: 1
    }
  }
}
layer {
  name: "relu5b"
  type: "ReLU"
  bottom: "conv5b"
  top: "conv5b"
}
layer {
  name: "rpn_conv/3x3"
  type: "Convolution"
  bottom: "conv5b"
  top: "rpn/output"
  param {
    lr_mult: 1
    decay_mult: 1
  }
  param {
    lr_mult: 2
    decay_mult: 0
  }
  convolution_param {
    num_output: 512
    pad: 1
    pad: 1
    pad: 1
    kernel_size: 3
    kernel_size: 3
    kernel_size: 3
    stride: 1
    stride: 2
    stride: 2
    weight_filler {
      type: "gaussian"
      std: 0.01
    }
    bias_filler {
      type: "constant"
      value: 0
    }
  }
}
layer {
  name: "rpn_relu/3x3"
  type: "ReLU"
  bottom: "rpn/output"
  top: "rpn/output"
}
layer {
  name: "rpn_conv/3x3_2"
  type: "Convolution"
  bottom: "rpn/output"
  top: "rpn/output_2"
  param {
    lr_mult: 1
    decay_mult: 1
  }
  param {
    lr_mult: 2
    decay_mult: 0
  }
  convolution_param {
    num_output: 512
    pad: 1
    pad: 1
    pad: 1
    kernel_size: 3
    kernel_size: 3
    kernel_size: 3
    stride: 1
    stride: 2
    stride: 2
    weight_filler {
      type: "gaussian"
      std: 0.01
    }
    bias_filler {
      type: "constant"
      value: 0
    }
  }
}
layer {
  name: "rpn_relu/3x3_2"
  type: "ReLU"
  bottom: "rpn/output_2"
  top: "rpn/output_2"
}
layer {
  name: "rpn/output_pool"
  type: "Pooling"
  bottom: "rpn/output_2"
  top: "rpn/output_pool"
  pooling_param {
    pool: MAX
    kernel_size: 1
    kernel_size: 2
    kernel_size: 2
  }
}
layer {
  name: "rpn_cls_score"
  type: "Convolution"
  bottom: "rpn/output_pool"
  top: "rpn_cls_score"
  param {
    lr_mult: 1
    decay_mult: 1
  }
  param {
    lr_mult: 2
    decay_mult: 0
  }
  convolution_param {
    num_output: 74
    kernel_size: 1
    kernel_size: 1
    kernel_size: 1
    weight_filler {
      type: "gaussian"
      std: 0.01
    }
    bias_filler {
      type: "constant"
      value: 0
    }
  }
}
layer {
  name: "rpn_twin_pred"
  type: "Convolution"
  bottom: "rpn/output_pool"
  top: "rpn_twin_pred"
  param {
    lr_mult: 1
    decay_mult: 1
  }
  param {
    lr_mult: 2
    decay_mult: 0
  }
  convolution_param {
    num_output: 74
    kernel_size: 1
    kernel_size: 1
    kernel_size: 1
    weight_filler {
      type: "gaussian"
      std: 0.01
    }
    bias_filler {
      type: "constant"
      value: 0
    }
  }
}
layer {
  name: "rpn_cls_score_reshape"
  type: "Reshape"
  bottom: "rpn_cls_score"
  top: "rpn_cls_score_reshape"
  reshape_param {
    shape {
      dim: 0
      dim: 2
      dim: -1
      dim: 0
      dim: 0
    }
  }
}
layer {
  name: "rpn-data"
  type: "Python"
  bottom: "rpn_cls_score"
  bottom: "gt_boxes"
  bottom: "data"
  top: "rpn_labels"
  top: "rpn_twin_targets"
  top: "rpn_twin_inside_weights"
  top: "rpn_twin_outside_weights"
  python_param {
    module: "rpn.anchor_target_layer"
    layer: "AnchorTargetLayer"
    param_str: "\'feat_stride\': 8 \n\'scales\': !!python/tuple [1,1.25, 1.5,1.75, 2,2.5, 3,3.5, 4,4.5, 5,5.5, 6,7, 8,9,10,11,12,14,16,18,20,22,24,28,32,36,40,44,52,60,68,76,84,92,100]"
  }
}
layer {
  name: "rpn_loss_cls"
  type: "SoftmaxWithLoss"
  bottom: "rpn_cls_score_reshape"
  bottom: "rpn_labels"
  top: "rpn_cls_loss"
  loss_weight: 1
  propagate_down: true
  propagate_down: false
  loss_param {
    ignore_label: -1
    normalize: true
  }
}
layer {
  name: "rpn_loss_twin"
  type: "SmoothL1Loss"
  bottom: "rpn_twin_pred"
  bottom: "rpn_twin_targets"
  bottom: "rpn_twin_inside_weights"
  bottom: "rpn_twin_outside_weights"
  top: "rpn_loss_twin"
  loss_weight: 1
  smooth_l1_loss_param {
    sigma: 3
  }
}
layer {
  name: "rpn_accuarcy"
  type: "Accuracy"
  bottom: "rpn_cls_score_reshape"
  bottom: "rpn_labels"
  top: "rpn_accuarcy"
  top: "rpn_accuarcy_class"
  propagate_down: false
  propagate_down: false
  accuracy_param {
    ignore_label: -1
  }
}
layer {
  name: "rpn_cls_prob"
  type: "Softmax"
  bottom: "rpn_cls_score_reshape"
  top: "rpn_cls_prob"
}
layer {
  name: "rpn_cls_prob_reshape"
  type: "Reshape"
  bottom: "rpn_cls_prob"
  top: "rpn_cls_prob_reshape"
  reshape_param {
    shape {
      dim: 0
      dim: 74
      dim: -1
      dim: 0
      dim: 0
    }
  }
}
layer {
  name: "proposal"
  type: "Python"
  bottom: "rpn_cls_prob_reshape"
  bottom: "rpn_twin_pred"
  top: "rpn_rois"
  include {
    phase: TRAIN
  }
  python_param {
    module: "rpn.proposal_layer"
    layer: "ProposalLayer"
    param_str: "\'feat_stride\': 8 \n\'scales\': !!python/tuple [1,1.25, 1.5,1.75, 2,2.5, 3,3.5, 4,4.5, 5,5.5, 6,7, 8,9,10,11,12,14,16,18,20,22,24,28,32,36,40,44,52,60,68,76,84,92,100]"
  }
}
layer {
  name: "roi-data"
  type: "Python"
  bottom: "rpn_rois"
  bottom: "gt_boxes"
  top: "rois"
  top: "labels"
  top: "twin_targets"
  top: "twin_inside_weights"
  top: "twin_outside_weights"
  python_param {
    module: "rpn.proposal_target_layer"
    layer: "ProposalTargetLayer"
    param_str: "\'num_classes\': 201"
  }
}
layer {
  name: "roi_pool5"
  type: "ROIPooling"
  bottom: "conv5b"
  bottom: "rois"
  top: "pool5"
  roi_pooling_param {
    pooled_h: 4
    pooled_w: 4
    spatial_scale: 0.0625
    pooled_l: 1
    temporal_scale: 0.125
  }
}
layer {
  name: "fc6"
  type: "InnerProduct"
  bottom: "pool5"
  top: "fc6"
  param {
    lr_mult: 1
    decay_mult: 1
  }
  param {
    lr_mult: 2
    decay_mult: 0
  }
  inner_product_param {
    num_output: 4096
    weight_filler {
      type: "gaussian"
      std: 0.005
    }
    bias_filler {
      type: "constant"
      value: 1
    }
  }
}
layer {
  name: "relu6"
  type: "ReLU"
  bottom: "fc6"
  top: "fc6"
}
layer {
  name: "drop6"
  type: "Dropout"
  bottom: "fc6"
  top: "fc6"
  dropout_param {
    dropout_ratio: 0.5
  }
}
layer {
  name: "cls_score"
  type: "InnerProduct"
  bottom: "fc6"
  top: "cls_score"
  param {
    lr_mult: 1
    decay_mult: 1
  }
  param {
    lr_mult: 2
    decay_mult: 0
  }
  inner_product_param {
    num_output: 201
    weight_filler {
      type: "gaussian"
      std: 0.01
    }
    bias_filler {
      type: "constant"
      value: 0
    }
  }
}
layer {
  name: "twin_pred"
  type: "InnerProduct"
  bottom: "fc6"
  top: "twin_pred"
  param {
    lr_mult: 1
    decay_mult: 1
  }
  param {
    lr_mult: 2
    decay_mult: 0
  }
  inner_product_param {
    num_output: 402
    weight_filler {
      type: "gaussian"
      std: 0.001
    }
    bias_filler {
      type: "constant"
      value: 0
    }
  }
}
layer {
  name: "loss_cls"
  type: "SoftmaxWithLoss"
  bottom: "cls_score"
  bottom: "labels"
  top: "loss_cls"
  loss_weight: 1
  propagate_down: true
  propagate_down: false
}
layer {
  name: "loss_twin"
  type: "SmoothL1Loss"
  bottom: "twin_pred"
  bottom: "twin_targets"
  bottom: "twin_inside_weights"
  bottom: "twin_outside_weights"
  top: "loss_twin"
  loss_weight: 1
}
layer {
  name: "accuarcy"
  type: "Accuracy"
  bottom: "cls_score"
  bottom: "labels"
  top: "accuarcy"
  propagate_down: false
  propagate_down: false
  accuracy_param {
    ignore_label: -1
  }
}
I0416 11:36:41.539170  5151 layer_factory.hpp:77] Creating layer data
I0416 11:36:41.550240  5151 net.cpp:100] Creating Layer data
I0416 11:36:41.550262  5151 net.cpp:408] data -> data
I0416 11:36:41.550276  5151 net.cpp:408] data -> gt_boxes
RoiDataLayer: name_to_top: {'gt_windows': 1, 'data': 0}
I0416 11:36:41.558760  5151 net.cpp:150] Setting up data
I0416 11:36:41.558794  5151 net.cpp:157] Top shape: 1 3 768 112 112 (28901376)
I0416 11:36:41.558801  5151 net.cpp:157] Top shape: 1 101 (101)
I0416 11:36:41.558806  5151 net.cpp:165] Memory required for data: 115605908
I0416 11:36:41.558814  5151 layer_factory.hpp:77] Creating layer data_data_0_split
I0416 11:36:41.558827  5151 net.cpp:100] Creating Layer data_data_0_split
I0416 11:36:41.558833  5151 net.cpp:434] data_data_0_split <- data
I0416 11:36:41.558845  5151 net.cpp:408] data_data_0_split -> data_data_0_split_0
I0416 11:36:41.558856  5151 net.cpp:408] data_data_0_split -> data_data_0_split_1
I0416 11:36:41.558907  5151 net.cpp:150] Setting up data_data_0_split
I0416 11:36:41.558915  5151 net.cpp:157] Top shape: 1 3 768 112 112 (28901376)
I0416 11:36:41.558921  5151 net.cpp:157] Top shape: 1 3 768 112 112 (28901376)
I0416 11:36:41.558925  5151 net.cpp:165] Memory required for data: 346816916
I0416 11:36:41.558929  5151 layer_factory.hpp:77] Creating layer gt_boxes_data_1_split
I0416 11:36:41.558940  5151 net.cpp:100] Creating Layer gt_boxes_data_1_split
I0416 11:36:41.558944  5151 net.cpp:434] gt_boxes_data_1_split <- gt_boxes
I0416 11:36:41.558951  5151 net.cpp:408] gt_boxes_data_1_split -> gt_boxes_data_1_split_0
I0416 11:36:41.558967  5151 net.cpp:408] gt_boxes_data_1_split -> gt_boxes_data_1_split_1
I0416 11:36:41.559013  5151 net.cpp:150] Setting up gt_boxes_data_1_split
I0416 11:36:41.559021  5151 net.cpp:157] Top shape: 1 101 (101)
I0416 11:36:41.559026  5151 net.cpp:157] Top shape: 1 101 (101)
I0416 11:36:41.559029  5151 net.cpp:165] Memory required for data: 346817724
I0416 11:36:41.559034  5151 layer_factory.hpp:77] Creating layer conv1a
I0416 11:36:41.559051  5151 net.cpp:100] Creating Layer conv1a
I0416 11:36:41.559056  5151 net.cpp:434] conv1a <- data_data_0_split_0
I0416 11:36:41.559063  5151 net.cpp:408] conv1a -> conv1a
I0416 11:36:41.576695  5151 net.cpp:150] Setting up conv1a
I0416 11:36:41.576726  5151 net.cpp:157] Top shape: 1 64 768 112 112 (616562688)
I0416 11:36:41.576731  5151 net.cpp:165] Memory required for data: 2813068476
I0416 11:36:41.576751  5151 layer_factory.hpp:77] Creating layer relu1a
I0416 11:36:41.576766  5151 net.cpp:100] Creating Layer relu1a
I0416 11:36:41.576773  5151 net.cpp:434] relu1a <- conv1a
I0416 11:36:41.576782  5151 net.cpp:395] relu1a -> conv1a (in-place)
I0416 11:36:41.576793  5151 net.cpp:150] Setting up relu1a
I0416 11:36:41.576799  5151 net.cpp:157] Top shape: 1 64 768 112 112 (616562688)
I0416 11:36:41.576802  5151 net.cpp:165] Memory required for data: 5279319228
I0416 11:36:41.576807  5151 layer_factory.hpp:77] Creating layer pool1
I0416 11:36:41.576813  5151 net.cpp:100] Creating Layer pool1
I0416 11:36:41.576818  5151 net.cpp:434] pool1 <- conv1a
I0416 11:36:41.576828  5151 net.cpp:408] pool1 -> pool1
I0416 11:36:41.576961  5151 net.cpp:150] Setting up pool1
I0416 11:36:41.576970  5151 net.cpp:157] Top shape: 1 64 768 56 56 (154140672)
I0416 11:36:41.576974  5151 net.cpp:165] Memory required for data: 5895881916
I0416 11:36:41.576978  5151 layer_factory.hpp:77] Creating layer conv2a
I0416 11:36:41.576992  5151 net.cpp:100] Creating Layer conv2a
I0416 11:36:41.576998  5151 net.cpp:434] conv2a <- pool1
I0416 11:36:41.577008  5151 net.cpp:408] conv2a -> conv2a
I0416 11:36:41.584200  5151 net.cpp:150] Setting up conv2a
I0416 11:36:41.584239  5151 net.cpp:157] Top shape: 1 128 768 56 56 (308281344)
I0416 11:36:41.584244  5151 net.cpp:165] Memory required for data: 7129007292
I0416 11:36:41.584261  5151 layer_factory.hpp:77] Creating layer relu2a
I0416 11:36:41.584273  5151 net.cpp:100] Creating Layer relu2a
I0416 11:36:41.584278  5151 net.cpp:434] relu2a <- conv2a
I0416 11:36:41.584286  5151 net.cpp:395] relu2a -> conv2a (in-place)
I0416 11:36:41.584298  5151 net.cpp:150] Setting up relu2a
I0416 11:36:41.584305  5151 net.cpp:157] Top shape: 1 128 768 56 56 (308281344)
I0416 11:36:41.584307  5151 net.cpp:165] Memory required for data: 8362132668
I0416 11:36:41.584311  5151 layer_factory.hpp:77] Creating layer pool2
I0416 11:36:41.584362  5151 net.cpp:100] Creating Layer pool2
I0416 11:36:41.584367  5151 net.cpp:434] pool2 <- conv2a
I0416 11:36:41.584375  5151 net.cpp:408] pool2 -> pool2
I0416 11:36:41.584497  5151 net.cpp:150] Setting up pool2
I0416 11:36:41.584508  5151 net.cpp:157] Top shape: 1 128 384 28 28 (38535168)
I0416 11:36:41.584512  5151 net.cpp:165] Memory required for data: 8516273340
I0416 11:36:41.584517  5151 layer_factory.hpp:77] Creating layer conv3a
I0416 11:36:41.584532  5151 net.cpp:100] Creating Layer conv3a
I0416 11:36:41.584537  5151 net.cpp:434] conv3a <- pool2
I0416 11:36:41.584544  5151 net.cpp:408] conv3a -> conv3a
I0416 11:36:41.592900  5151 net.cpp:150] Setting up conv3a
I0416 11:36:41.592923  5151 net.cpp:157] Top shape: 1 256 384 28 28 (77070336)
I0416 11:36:41.592928  5151 net.cpp:165] Memory required for data: 8824554684
I0416 11:36:41.592941  5151 layer_factory.hpp:77] Creating layer relu3a
I0416 11:36:41.592953  5151 net.cpp:100] Creating Layer relu3a
I0416 11:36:41.592958  5151 net.cpp:434] relu3a <- conv3a
I0416 11:36:41.592965  5151 net.cpp:395] relu3a -> conv3a (in-place)
I0416 11:36:41.592974  5151 net.cpp:150] Setting up relu3a
I0416 11:36:41.592979  5151 net.cpp:157] Top shape: 1 256 384 28 28 (77070336)
I0416 11:36:41.592983  5151 net.cpp:165] Memory required for data: 9132836028
I0416 11:36:41.592988  5151 layer_factory.hpp:77] Creating layer conv3b
I0416 11:36:41.593000  5151 net.cpp:100] Creating Layer conv3b
I0416 11:36:41.593005  5151 net.cpp:434] conv3b <- conv3a
I0416 11:36:41.593014  5151 net.cpp:408] conv3b -> conv3b
I0416 11:36:41.609503  5151 net.cpp:150] Setting up conv3b
I0416 11:36:41.609529  5151 net.cpp:157] Top shape: 1 256 384 28 28 (77070336)
I0416 11:36:41.609532  5151 net.cpp:165] Memory required for data: 9441117372
I0416 11:36:41.609544  5151 layer_factory.hpp:77] Creating layer relu3b
I0416 11:36:41.609558  5151 net.cpp:100] Creating Layer relu3b
I0416 11:36:41.609563  5151 net.cpp:434] relu3b <- conv3b
I0416 11:36:41.609571  5151 net.cpp:395] relu3b -> conv3b (in-place)
I0416 11:36:41.609581  5151 net.cpp:150] Setting up relu3b
I0416 11:36:41.609587  5151 net.cpp:157] Top shape: 1 256 384 28 28 (77070336)
I0416 11:36:41.609591  5151 net.cpp:165] Memory required for data: 9749398716
I0416 11:36:41.609594  5151 layer_factory.hpp:77] Creating layer pool3
I0416 11:36:41.609603  5151 net.cpp:100] Creating Layer pool3
I0416 11:36:41.609608  5151 net.cpp:434] pool3 <- conv3b
I0416 11:36:41.609616  5151 net.cpp:408] pool3 -> pool3
I0416 11:36:41.609684  5151 net.cpp:150] Setting up pool3
I0416 11:36:41.609694  5151 net.cpp:157] Top shape: 1 256 192 14 14 (9633792)
I0416 11:36:41.609699  5151 net.cpp:165] Memory required for data: 9787933884
I0416 11:36:41.609702  5151 layer_factory.hpp:77] Creating layer conv4a
I0416 11:36:41.609716  5151 net.cpp:100] Creating Layer conv4a
I0416 11:36:41.609722  5151 net.cpp:434] conv4a <- pool3
I0416 11:36:41.609731  5151 net.cpp:408] conv4a -> conv4a
I0416 11:36:41.641574  5151 net.cpp:150] Setting up conv4a
I0416 11:36:41.641600  5151 net.cpp:157] Top shape: 1 512 192 14 14 (19267584)
I0416 11:36:41.641604  5151 net.cpp:165] Memory required for data: 9865004220
I0416 11:36:41.641623  5151 layer_factory.hpp:77] Creating layer relu4a
I0416 11:36:41.641635  5151 net.cpp:100] Creating Layer relu4a
I0416 11:36:41.641643  5151 net.cpp:434] relu4a <- conv4a
I0416 11:36:41.641652  5151 net.cpp:395] relu4a -> conv4a (in-place)
I0416 11:36:41.641664  5151 net.cpp:150] Setting up relu4a
I0416 11:36:41.641670  5151 net.cpp:157] Top shape: 1 512 192 14 14 (19267584)
I0416 11:36:41.641675  5151 net.cpp:165] Memory required for data: 9942074556
I0416 11:36:41.641680  5151 layer_factory.hpp:77] Creating layer conv4b
I0416 11:36:41.641696  5151 net.cpp:100] Creating Layer conv4b
I0416 11:36:41.641702  5151 net.cpp:434] conv4b <- conv4a
I0416 11:36:41.641710  5151 net.cpp:408] conv4b -> conv4b
I0416 11:36:41.699620  5151 net.cpp:150] Setting up conv4b
I0416 11:36:41.699651  5151 net.cpp:157] Top shape: 1 512 192 14 14 (19267584)
I0416 11:36:41.699654  5151 net.cpp:165] Memory required for data: 10019144892
I0416 11:36:41.699666  5151 layer_factory.hpp:77] Creating layer relu4b
I0416 11:36:41.699676  5151 net.cpp:100] Creating Layer relu4b
I0416 11:36:41.699683  5151 net.cpp:434] relu4b <- conv4b
I0416 11:36:41.699690  5151 net.cpp:395] relu4b -> conv4b (in-place)
I0416 11:36:41.699702  5151 net.cpp:150] Setting up relu4b
I0416 11:36:41.699707  5151 net.cpp:157] Top shape: 1 512 192 14 14 (19267584)
I0416 11:36:41.699710  5151 net.cpp:165] Memory required for data: 10096215228
I0416 11:36:41.699713  5151 layer_factory.hpp:77] Creating layer pool4
I0416 11:36:41.699723  5151 net.cpp:100] Creating Layer pool4
I0416 11:36:41.699728  5151 net.cpp:434] pool4 <- conv4b
I0416 11:36:41.699733  5151 net.cpp:408] pool4 -> pool4
I0416 11:36:41.699798  5151 net.cpp:150] Setting up pool4
I0416 11:36:41.699807  5151 net.cpp:157] Top shape: 1 512 96 7 7 (2408448)
I0416 11:36:41.699812  5151 net.cpp:165] Memory required for data: 10105849020
I0416 11:36:41.699816  5151 layer_factory.hpp:77] Creating layer conv5a
I0416 11:36:41.699831  5151 net.cpp:100] Creating Layer conv5a
I0416 11:36:41.699837  5151 net.cpp:434] conv5a <- pool4
I0416 11:36:41.699844  5151 net.cpp:408] conv5a -> conv5a
I0416 11:36:41.758267  5151 net.cpp:150] Setting up conv5a
I0416 11:36:41.758298  5151 net.cpp:157] Top shape: 1 512 96 7 7 (2408448)
I0416 11:36:41.758302  5151 net.cpp:165] Memory required for data: 10115482812
I0416 11:36:41.758312  5151 layer_factory.hpp:77] Creating layer relu5a
I0416 11:36:41.758325  5151 net.cpp:100] Creating Layer relu5a
I0416 11:36:41.758332  5151 net.cpp:434] relu5a <- conv5a
I0416 11:36:41.758339  5151 net.cpp:395] relu5a -> conv5a (in-place)
I0416 11:36:41.758350  5151 net.cpp:150] Setting up relu5a
I0416 11:36:41.758357  5151 net.cpp:157] Top shape: 1 512 96 7 7 (2408448)
I0416 11:36:41.758359  5151 net.cpp:165] Memory required for data: 10125116604
I0416 11:36:41.758363  5151 layer_factory.hpp:77] Creating layer conv5b
I0416 11:36:41.758375  5151 net.cpp:100] Creating Layer conv5b
I0416 11:36:41.758380  5151 net.cpp:434] conv5b <- conv5a
I0416 11:36:41.758394  5151 net.cpp:408] conv5b -> conv5b
I0416 11:36:41.817117  5151 net.cpp:150] Setting up conv5b
I0416 11:36:41.817148  5151 net.cpp:157] Top shape: 1 512 96 7 7 (2408448)
I0416 11:36:41.817152  5151 net.cpp:165] Memory required for data: 10134750396
I0416 11:36:41.817163  5151 layer_factory.hpp:77] Creating layer relu5b
I0416 11:36:41.817174  5151 net.cpp:100] Creating Layer relu5b
I0416 11:36:41.817180  5151 net.cpp:434] relu5b <- conv5b
I0416 11:36:41.817193  5151 net.cpp:395] relu5b -> conv5b (in-place)
I0416 11:36:41.817204  5151 net.cpp:150] Setting up relu5b
I0416 11:36:41.817224  5151 net.cpp:157] Top shape: 1 512 96 7 7 (2408448)
I0416 11:36:41.817229  5151 net.cpp:165] Memory required for data: 10144384188
I0416 11:36:41.817234  5151 layer_factory.hpp:77] Creating layer conv5b_relu5b_0_split
I0416 11:36:41.817241  5151 net.cpp:100] Creating Layer conv5b_relu5b_0_split
I0416 11:36:41.817245  5151 net.cpp:434] conv5b_relu5b_0_split <- conv5b
I0416 11:36:41.817251  5151 net.cpp:408] conv5b_relu5b_0_split -> conv5b_relu5b_0_split_0
I0416 11:36:41.817262  5151 net.cpp:408] conv5b_relu5b_0_split -> conv5b_relu5b_0_split_1
I0416 11:36:41.817315  5151 net.cpp:150] Setting up conv5b_relu5b_0_split
I0416 11:36:41.817323  5151 net.cpp:157] Top shape: 1 512 96 7 7 (2408448)
I0416 11:36:41.817328  5151 net.cpp:157] Top shape: 1 512 96 7 7 (2408448)
I0416 11:36:41.817332  5151 net.cpp:165] Memory required for data: 10163651772
I0416 11:36:41.817337  5151 layer_factory.hpp:77] Creating layer rpn_conv/3x3
I0416 11:36:41.817350  5151 net.cpp:100] Creating Layer rpn_conv/3x3
I0416 11:36:41.817355  5151 net.cpp:434] rpn_conv/3x3 <- conv5b_relu5b_0_split_0
I0416 11:36:41.817366  5151 net.cpp:408] rpn_conv/3x3 -> rpn/output
I0416 11:36:41.876729  5151 net.cpp:150] Setting up rpn_conv/3x3
I0416 11:36:41.876761  5151 net.cpp:157] Top shape: 1 512 96 4 4 (786432)
I0416 11:36:41.876765  5151 net.cpp:165] Memory required for data: 10166797500
I0416 11:36:41.876785  5151 layer_factory.hpp:77] Creating layer rpn_relu/3x3
I0416 11:36:41.876797  5151 net.cpp:100] Creating Layer rpn_relu/3x3
I0416 11:36:41.876804  5151 net.cpp:434] rpn_relu/3x3 <- rpn/output
I0416 11:36:41.876816  5151 net.cpp:395] rpn_relu/3x3 -> rpn/output (in-place)
I0416 11:36:41.876827  5151 net.cpp:150] Setting up rpn_relu/3x3
I0416 11:36:41.876833  5151 net.cpp:157] Top shape: 1 512 96 4 4 (786432)
I0416 11:36:41.876838  5151 net.cpp:165] Memory required for data: 10169943228
I0416 11:36:41.876845  5151 layer_factory.hpp:77] Creating layer rpn_conv/3x3_2
I0416 11:36:41.876859  5151 net.cpp:100] Creating Layer rpn_conv/3x3_2
I0416 11:36:41.876863  5151 net.cpp:434] rpn_conv/3x3_2 <- rpn/output
I0416 11:36:41.876870  5151 net.cpp:408] rpn_conv/3x3_2 -> rpn/output_2
I0416 11:36:41.934820  5151 net.cpp:150] Setting up rpn_conv/3x3_2
I0416 11:36:41.934852  5151 net.cpp:157] Top shape: 1 512 96 2 2 (196608)
I0416 11:36:41.934857  5151 net.cpp:165] Memory required for data: 10170729660
I0416 11:36:41.934868  5151 layer_factory.hpp:77] Creating layer rpn_relu/3x3_2
I0416 11:36:41.934880  5151 net.cpp:100] Creating Layer rpn_relu/3x3_2
I0416 11:36:41.934885  5151 net.cpp:434] rpn_relu/3x3_2 <- rpn/output_2
I0416 11:36:41.934895  5151 net.cpp:395] rpn_relu/3x3_2 -> rpn/output_2 (in-place)
I0416 11:36:41.934906  5151 net.cpp:150] Setting up rpn_relu/3x3_2
I0416 11:36:41.934911  5151 net.cpp:157] Top shape: 1 512 96 2 2 (196608)
I0416 11:36:41.934914  5151 net.cpp:165] Memory required for data: 10171516092
I0416 11:36:41.934917  5151 layer_factory.hpp:77] Creating layer rpn/output_pool
I0416 11:36:41.934924  5151 net.cpp:100] Creating Layer rpn/output_pool
I0416 11:36:41.934928  5151 net.cpp:434] rpn/output_pool <- rpn/output_2
I0416 11:36:41.934937  5151 net.cpp:408] rpn/output_pool -> rpn/output_pool
I0416 11:36:41.935019  5151 net.cpp:150] Setting up rpn/output_pool
I0416 11:36:41.935029  5151 net.cpp:157] Top shape: 1 512 96 1 1 (49152)
I0416 11:36:41.935034  5151 net.cpp:165] Memory required for data: 10171712700
I0416 11:36:41.935037  5151 layer_factory.hpp:77] Creating layer rpn/output_pool_rpn/output_pool_0_split
I0416 11:36:41.935045  5151 net.cpp:100] Creating Layer rpn/output_pool_rpn/output_pool_0_split
I0416 11:36:41.935050  5151 net.cpp:434] rpn/output_pool_rpn/output_pool_0_split <- rpn/output_pool
I0416 11:36:41.935057  5151 net.cpp:408] rpn/output_pool_rpn/output_pool_0_split -> rpn/output_pool_rpn/output_pool_0_split_0
I0416 11:36:41.935066  5151 net.cpp:408] rpn/output_pool_rpn/output_pool_0_split -> rpn/output_pool_rpn/output_pool_0_split_1
I0416 11:36:41.935123  5151 net.cpp:150] Setting up rpn/output_pool_rpn/output_pool_0_split
I0416 11:36:41.935132  5151 net.cpp:157] Top shape: 1 512 96 1 1 (49152)
I0416 11:36:41.935137  5151 net.cpp:157] Top shape: 1 512 96 1 1 (49152)
I0416 11:36:41.935140  5151 net.cpp:165] Memory required for data: 10172105916
I0416 11:36:41.935144  5151 layer_factory.hpp:77] Creating layer rpn_cls_score
I0416 11:36:41.935158  5151 net.cpp:100] Creating Layer rpn_cls_score
I0416 11:36:41.935163  5151 net.cpp:434] rpn_cls_score <- rpn/output_pool_rpn/output_pool_0_split_0
I0416 11:36:41.935171  5151 net.cpp:408] rpn_cls_score -> rpn_cls_score
I0416 11:36:41.935997  5151 net.cpp:150] Setting up rpn_cls_score
I0416 11:36:41.936007  5151 net.cpp:157] Top shape: 1 74 96 1 1 (7104)
I0416 11:36:41.936012  5151 net.cpp:165] Memory required for data: 10172134332
I0416 11:36:41.936018  5151 layer_factory.hpp:77] Creating layer rpn_cls_score_rpn_cls_score_0_split
I0416 11:36:41.936027  5151 net.cpp:100] Creating Layer rpn_cls_score_rpn_cls_score_0_split
I0416 11:36:41.936033  5151 net.cpp:434] rpn_cls_score_rpn_cls_score_0_split <- rpn_cls_score
I0416 11:36:41.936040  5151 net.cpp:408] rpn_cls_score_rpn_cls_score_0_split -> rpn_cls_score_rpn_cls_score_0_split_0
I0416 11:36:41.936048  5151 net.cpp:408] rpn_cls_score_rpn_cls_score_0_split -> rpn_cls_score_rpn_cls_score_0_split_1
I0416 11:36:41.936113  5151 net.cpp:150] Setting up rpn_cls_score_rpn_cls_score_0_split
I0416 11:36:41.936121  5151 net.cpp:157] Top shape: 1 74 96 1 1 (7104)
I0416 11:36:41.936127  5151 net.cpp:157] Top shape: 1 74 96 1 1 (7104)
I0416 11:36:41.936131  5151 net.cpp:165] Memory required for data: 10172191164
I0416 11:36:41.936136  5151 layer_factory.hpp:77] Creating layer rpn_twin_pred
I0416 11:36:41.936153  5151 net.cpp:100] Creating Layer rpn_twin_pred
I0416 11:36:41.936159  5151 net.cpp:434] rpn_twin_pred <- rpn/output_pool_rpn/output_pool_0_split_1
I0416 11:36:41.936167  5151 net.cpp:408] rpn_twin_pred -> rpn_twin_pred
I0416 11:36:41.936872  5151 net.cpp:150] Setting up rpn_twin_pred
I0416 11:36:41.936883  5151 net.cpp:157] Top shape: 1 74 96 1 1 (7104)
I0416 11:36:41.936887  5151 net.cpp:165] Memory required for data: 10172219580
I0416 11:36:41.936895  5151 layer_factory.hpp:77] Creating layer rpn_twin_pred_rpn_twin_pred_0_split
I0416 11:36:41.936902  5151 net.cpp:100] Creating Layer rpn_twin_pred_rpn_twin_pred_0_split
I0416 11:36:41.936908  5151 net.cpp:434] rpn_twin_pred_rpn_twin_pred_0_split <- rpn_twin_pred
I0416 11:36:41.936916  5151 net.cpp:408] rpn_twin_pred_rpn_twin_pred_0_split -> rpn_twin_pred_rpn_twin_pred_0_split_0
I0416 11:36:41.936924  5151 net.cpp:408] rpn_twin_pred_rpn_twin_pred_0_split -> rpn_twin_pred_rpn_twin_pred_0_split_1
I0416 11:36:41.936987  5151 net.cpp:150] Setting up rpn_twin_pred_rpn_twin_pred_0_split
I0416 11:36:41.936996  5151 net.cpp:157] Top shape: 1 74 96 1 1 (7104)
I0416 11:36:41.937001  5151 net.cpp:157] Top shape: 1 74 96 1 1 (7104)
I0416 11:36:41.937005  5151 net.cpp:165] Memory required for data: 10172276412
I0416 11:36:41.937010  5151 layer_factory.hpp:77] Creating layer rpn_cls_score_reshape
I0416 11:36:41.937021  5151 net.cpp:100] Creating Layer rpn_cls_score_reshape
I0416 11:36:41.937026  5151 net.cpp:434] rpn_cls_score_reshape <- rpn_cls_score_rpn_cls_score_0_split_0
I0416 11:36:41.937034  5151 net.cpp:408] rpn_cls_score_reshape -> rpn_cls_score_reshape
I0416 11:36:41.937074  5151 net.cpp:150] Setting up rpn_cls_score_reshape
I0416 11:36:41.937083  5151 net.cpp:157] Top shape: 1 2 3552 1 1 (7104)
I0416 11:36:41.937086  5151 net.cpp:165] Memory required for data: 10172304828
I0416 11:36:41.937091  5151 layer_factory.hpp:77] Creating layer rpn_cls_score_reshape_rpn_cls_score_reshape_0_split
I0416 11:36:41.937098  5151 net.cpp:100] Creating Layer rpn_cls_score_reshape_rpn_cls_score_reshape_0_split
I0416 11:36:41.937103  5151 net.cpp:434] rpn_cls_score_reshape_rpn_cls_score_reshape_0_split <- rpn_cls_score_reshape
I0416 11:36:41.937111  5151 net.cpp:408] rpn_cls_score_reshape_rpn_cls_score_reshape_0_split -> rpn_cls_score_reshape_rpn_cls_score_reshape_0_split_0
I0416 11:36:41.937127  5151 net.cpp:408] rpn_cls_score_reshape_rpn_cls_score_reshape_0_split -> rpn_cls_score_reshape_rpn_cls_score_reshape_0_split_1
I0416 11:36:41.937136  5151 net.cpp:408] rpn_cls_score_reshape_rpn_cls_score_reshape_0_split -> rpn_cls_score_reshape_rpn_cls_score_reshape_0_split_2
I0416 11:36:41.937213  5151 net.cpp:150] Setting up rpn_cls_score_reshape_rpn_cls_score_reshape_0_split
I0416 11:36:41.937222  5151 net.cpp:157] Top shape: 1 2 3552 1 1 (7104)
I0416 11:36:41.937227  5151 net.cpp:157] Top shape: 1 2 3552 1 1 (7104)
I0416 11:36:41.937232  5151 net.cpp:157] Top shape: 1 2 3552 1 1 (7104)
I0416 11:36:41.937235  5151 net.cpp:165] Memory required for data: 10172390076
I0416 11:36:41.937239  5151 layer_factory.hpp:77] Creating layer rpn-data
I0416 11:36:41.937741  5151 net.cpp:100] Creating Layer rpn-data
I0416 11:36:41.937752  5151 net.cpp:434] rpn-data <- rpn_cls_score_rpn_cls_score_0_split_1
I0416 11:36:41.937758  5151 net.cpp:434] rpn-data <- gt_boxes_data_1_split_0
I0416 11:36:41.937764  5151 net.cpp:434] rpn-data <- data_data_0_split_1
I0416 11:36:41.937772  5151 net.cpp:408] rpn-data -> rpn_labels
I0416 11:36:41.937783  5151 net.cpp:408] rpn-data -> rpn_twin_targets
I0416 11:36:41.937793  5151 net.cpp:408] rpn-data -> rpn_twin_inside_weights
I0416 11:36:41.937801  5151 net.cpp:408] rpn-data -> rpn_twin_outside_weights
I0416 11:36:41.940434  5151 net.cpp:150] Setting up rpn-data
I0416 11:36:41.940449  5151 net.cpp:157] Top shape: 1 1 3552 1 1 (3552)
I0416 11:36:41.940455  5151 net.cpp:157] Top shape: 1 74 96 1 1 (7104)
I0416 11:36:41.940460  5151 net.cpp:157] Top shape: 1 74 96 1 1 (7104)
I0416 11:36:41.940465  5151 net.cpp:157] Top shape: 1 74 96 1 1 (7104)
I0416 11:36:41.940469  5151 net.cpp:165] Memory required for data: 10172489532
I0416 11:36:41.940474  5151 layer_factory.hpp:77] Creating layer rpn_labels_rpn-data_0_split
I0416 11:36:41.940481  5151 net.cpp:100] Creating Layer rpn_labels_rpn-data_0_split
I0416 11:36:41.940486  5151 net.cpp:434] rpn_labels_rpn-data_0_split <- rpn_labels
I0416 11:36:41.940493  5151 net.cpp:408] rpn_labels_rpn-data_0_split -> rpn_labels_rpn-data_0_split_0
I0416 11:36:41.940502  5151 net.cpp:408] rpn_labels_rpn-data_0_split -> rpn_labels_rpn-data_0_split_1
I0416 11:36:41.940560  5151 net.cpp:150] Setting up rpn_labels_rpn-data_0_split
I0416 11:36:41.940569  5151 net.cpp:157] Top shape: 1 1 3552 1 1 (3552)
I0416 11:36:41.940575  5151 net.cpp:157] Top shape: 1 1 3552 1 1 (3552)
I0416 11:36:41.940579  5151 net.cpp:165] Memory required for data: 10172517948
I0416 11:36:41.940583  5151 layer_factory.hpp:77] Creating layer rpn_loss_cls
I0416 11:36:41.940593  5151 net.cpp:100] Creating Layer rpn_loss_cls
I0416 11:36:41.940596  5151 net.cpp:434] rpn_loss_cls <- rpn_cls_score_reshape_rpn_cls_score_reshape_0_split_0
I0416 11:36:41.940610  5151 net.cpp:434] rpn_loss_cls <- rpn_labels_rpn-data_0_split_0
…
I0416 11:36:41.941005  5151 layer_factory.hpp:77] Creating layer rpn_accuarcy
I0416 11:36:41.941015  5151 net.cpp:100] Creating Layer rpn_accuarcy
I0416 11:36:41.941020  5151 net.cpp:434] rpn_accuarcy <- rpn_cls_score_reshape_rpn_cls_score_reshape_0_split_1
I0416 11:36:41.941026  5151 net.cpp:434] rpn_accuarcy <- rpn_labels_rpn-data_0_split_1
I0416 11:36:41.941033  5151 net.cpp:408] rpn_accuarcy -> rpn_accuarcy
I0416 11:36:41.941042  5151 net.cpp:408] rpn_accuarcy -> rpn_accuarcy_class
I0416 11:36:41.941102  5151 net.cpp:150] Setting up rpn_accuarcy
I0416 11:36:41.941108  5151 net.cpp:157] Top shape: (1)
I0416 11:36:41.941113  5151 net.cpp:157] Top shape: 2 (2)
I0416 11:36:41.941118  5151 net.cpp:165] Memory required for data: 10172517968
I0416 11:36:41.941121  5151 layer_factory.hpp:77] Creating layer rpn_cls_prob
I0416 11:36:41.941128  5151 net.cpp:100] Creating Layer rpn_cls_prob
I0416 11:36:41.941133  5151 net.cpp:434] rpn_cls_prob <- rpn_cls_score_reshape_rpn_cls_score_reshape_0_split_2
I0416 11:36:41.941139  5151 net.cpp:408] rpn_cls_prob -> rpn_cls_prob
I0416 11:36:41.941238  5151 net.cpp:150] Setting up rpn_cls_prob
I0416 11:36:41.941246  5151 net.cpp:157] Top shape: 1 2 3552 1 1 (7104)
I0416 11:36:41.941251  5151 net.cpp:165] Memory required for data: 10172546384
I0416 11:36:41.941254  5151 layer_factory.hpp:77] Creating layer rpn_cls_prob_reshape
I0416 11:36:41.941262  5151 net.cpp:100] Creating Layer rpn_cls_prob_reshape
I0416 11:36:41.941267  5151 net.cpp:434] rpn_cls_prob_reshape <- rpn_cls_prob
I0416 11:36:41.941277  5151 net.cpp:408] rpn_cls_prob_reshape -> rpn_cls_prob_reshape
I0416 11:36:41.941313  5151 net.cpp:150] Setting up rpn_cls_prob_reshape
I0416 11:36:41.941321  5151 net.cpp:157] Top shape: 1 74 96 1 1 (7104)
I0416 11:36:41.941325  5151 net.cpp:165] Memory required for data: 10172574800
I0416 11:36:41.941329  5151 layer_factory.hpp:77] Creating layer proposal
I0416 11:36:41.942081  5151 net.cpp:100] Creating Layer proposal
I0416 11:36:41.942093  5151 net.cpp:434] proposal <- rpn_cls_prob_reshape
I0416 11:36:41.942098  5151 net.cpp:434] proposal <- rpn_twin_pred_rpn_twin_pred_0_split_1
I0416 11:36:41.942107  5151 net.cpp:408] proposal -> rpn_rois
I0416 11:36:41.945847  5151 net.cpp:150] Setting up proposal
I0416 11:36:41.945869  5151 net.cpp:157] Top shape: 1 3 (3)
I0416 11:36:41.945873  5151 net.cpp:165] Memory required for data: 10172574812
I0416 11:36:41.945878  5151 layer_factory.hpp:77] Creating layer roi-data
I0416 11:36:41.946054  5151 net.cpp:100] Creating Layer roi-data
I0416 11:36:41.946065  5151 net.cpp:434] roi-data <- rpn_rois
I0416 11:36:41.946071  5151 net.cpp:434] roi-data <- gt_boxes_data_1_split_1
I0416 11:36:41.946079  5151 net.cpp:408] roi-data -> rois
I0416 11:36:41.946089  5151 net.cpp:408] roi-data -> labels
I0416 11:36:41.946101  5151 net.cpp:408] roi-data -> twin_targets
I0416 11:36:41.946112  5151 net.cpp:408] roi-data -> twin_inside_weights
I0416 11:36:41.946121  5151 net.cpp:408] roi-data -> twin_outside_weights
I0416 11:36:41.946471  5151 net.cpp:150] Setting up roi-data
I0416 11:36:41.946483  5151 net.cpp:157] Top shape: 1 3 (3)
I0416 11:36:41.946486  5151 net.cpp:157] Top shape: 1 1 (1)
I0416 11:36:41.946491  5151 net.cpp:157] Top shape: 1 402 (402)
I0416 11:36:41.946496  5151 net.cpp:157] Top shape: 1 402 (402)
I0416 11:36:41.946499  5151 net.cpp:157] Top shape: 1 402 (402)
I0416 11:36:41.946503  5151 net.cpp:165] Memory required for data: 10172579652
I0416 11:36:41.946508  5151 layer_factory.hpp:77] Creating layer labels_roi-data_1_split
I0416 11:36:41.946524  5151 net.cpp:100] Creating Layer labels_roi-data_1_split
I0416 11:36:41.946532  5151 net.cpp:434] labels_roi-data_1_split <- labels
I0416 11:36:41.946538  5151 net.cpp:408] labels_roi-data_1_split -> labels_roi-data_1_split_0
I0416 11:36:41.946548  5151 net.cpp:408] labels_roi-data_1_split -> labels_roi-data_1_split_1
I0416 11:36:41.946604  5151 net.cpp:150] Setting up labels_roi-data_1_split
I0416 11:36:41.946612  5151 net.cpp:157] Top shape: 1 1 (1)
I0416 11:36:41.946615  5151 net.cpp:157] Top shape: 1 1 (1)
I0416 11:36:41.946619  5151 net.cpp:165] Memory required for data: 10172579660
I0416 11:36:41.946622  5151 layer_factory.hpp:77] Creating layer roi_pool5
I0416 11:36:41.946631  5151 net.cpp:100] Creating Layer roi_pool5
I0416 11:36:41.946637  5151 net.cpp:434] roi_pool5 <- conv5b_relu5b_0_split_1
I0416 11:36:41.946645  5151 net.cpp:434] roi_pool5 <- rois
I0416 11:36:41.946655  5151 net.cpp:408] roi_pool5 -> pool5
I0416 11:36:41.946666  5151 roi_pooling_layer.cpp:34] Temporal scale: 0.125
I0416 11:36:41.946678  5151 roi_pooling_layer.cpp:35] Spatial scale: 0.0625
I0416 11:36:41.946729  5151 net.cpp:150] Setting up roi_pool5
I0416 11:36:41.946736  5151 net.cpp:157] Top shape: 1 512 1 4 4 (8192)
I0416 11:36:41.946739  5151 net.cpp:165] Memory required for data: 10172612428
I0416 11:36:41.946743  5151 layer_factory.hpp:77] Creating layer fc6
I0416 11:36:41.946753  5151 net.cpp:100] Creating Layer fc6
I0416 11:36:41.946759  5151 net.cpp:434] fc6 <- pool5
I0416 11:36:41.946766  5151 net.cpp:408] fc6 -> fc6
I0416 11:36:42.217757  5151 net.cpp:150] Setting up fc6
I0416 11:36:42.217789  5151 net.cpp:157] Top shape: 1 4096 (4096)
I0416 11:36:42.217793  5151 net.cpp:165] Memory required for data: 10172628812
I0416 11:36:42.217805  5151 layer_factory.hpp:77] Creating layer relu6
I0416 11:36:42.217816  5151 net.cpp:100] Creating Layer relu6
I0416 11:36:42.217823  5151 net.cpp:434] relu6 <- fc6
I0416 11:36:42.217831  5151 net.cpp:395] relu6 -> fc6 (in-place)
I0416 11:36:42.217842  5151 net.cpp:150] Setting up relu6
I0416 11:36:42.217849  5151 net.cpp:157] Top shape: 1 4096 (4096)
I0416 11:36:42.217852  5151 net.cpp:165] Memory required for data: 10172645196
I0416 11:36:42.217857  5151 layer_factory.hpp:77] Creating layer drop6
I0416 11:36:42.217864  5151 net.cpp:100] Creating Layer drop6
I0416 11:36:42.217869  5151 net.cpp:434] drop6 <- fc6
I0416 11:36:42.217877  5151 net.cpp:395] drop6 -> fc6 (in-place)
I0416 11:36:42.217911  5151 net.cpp:150] Setting up drop6
I0416 11:36:42.217939  5151 net.cpp:157] Top shape: 1 4096 (4096)
I0416 11:36:42.217953  5151 net.cpp:165] Memory required for data: 10172661580
I0416 11:36:42.217967  5151 layer_factory.hpp:77] Creating layer fc6_drop6_0_split
I0416 11:36:42.217985  5151 net.cpp:100] Creating Layer fc6_drop6_0_split
I0416 11:36:42.218000  5151 net.cpp:434] fc6_drop6_0_split <- fc6
I0416 11:36:42.218027  5151 net.cpp:408] fc6_drop6_0_split -> fc6_drop6_0_split_0
I0416 11:36:42.218050  5151 net.cpp:408] fc6_drop6_0_split -> fc6_drop6_0_split_1
I0416 11:36:42.218116  5151 net.cpp:150] Setting up fc6_drop6_0_split
I0416 11:36:42.218125  5151 net.cpp:157] Top shape: 1 4096 (4096)
I0416 11:36:42.218129  5151 net.cpp:157] Top shape: 1 4096 (4096)
I0416 11:36:42.218134  5151 net.cpp:165] Memory required for data: 10172694348
I0416 11:36:42.218138  5151 layer_factory.hpp:77] Creating layer cls_score
I0416 11:36:42.218149  5151 net.cpp:100] Creating Layer cls_score
I0416 11:36:42.218154  5151 net.cpp:434] cls_score <- fc6_drop6_0_split_0
I0416 11:36:42.218161  5151 net.cpp:408] cls_score -> cls_score
I0416 11:36:42.225528  5151 net.cpp:150] Setting up cls_score
I0416 11:36:42.225543  5151 net.cpp:157] Top shape: 1 201 (201)
I0416 11:36:42.225548  5151 net.cpp:165] Memory required for data: 10172695152
I0416 11:36:42.225556  5151 layer_factory.hpp:77] Creating layer cls_score_cls_score_0_split
I0416 11:36:42.225566  5151 net.cpp:100] Creating Layer cls_score_cls_score_0_split
I0416 11:36:42.225572  5151 net.cpp:434] cls_score_cls_score_0_split <- cls_score
I0416 11:36:42.225580  5151 net.cpp:408] cls_score_cls_score_0_split -> cls_score_cls_score_0_split_0
I0416 11:36:42.225590  5151 net.cpp:408] cls_score_cls_score_0_split -> cls_score_cls_score_0_split_1
I0416 11:36:42.225666  5151 net.cpp:150] Setting up cls_score_cls_score_0_split
I0416 11:36:42.225674  5151 net.cpp:157] Top shape: 1 201 (201)
I0416 11:36:42.225679  5151 net.cpp:157] Top shape: 1 201 (201)
I0416 11:36:42.225683  5151 net.cpp:165] Memory required for data: 10172696760
I0416 11:36:42.225687  5151 layer_factory.hpp:77] Creating layer twin_pred
I0416 11:36:42.225698  5151 net.cpp:100] Creating Layer twin_pred
I0416 11:36:42.225703  5151 net.cpp:434] twin_pred <- fc6_drop6_0_split_1
I0416 11:36:42.225713  5151 net.cpp:408] twin_pred -> twin_pred
I0416 11:36:42.239768  5151 net.cpp:150] Setting up twin_pred
I0416 11:36:42.239799  5151 net.cpp:157] Top shape: 1 402 (402)
I0416 11:36:42.239802  5151 net.cpp:165] Memory required for data: 10172698368
I0416 11:36:42.239814  5151 layer_factory.hpp:77] Creating layer loss_cls
I0416 11:36:42.239826  5151 net.cpp:100] Creating Layer loss_cls
I0416 11:36:42.239832  5151 net.cpp:434] loss_cls <- cls_score_cls_score_0_split_0
I0416 11:36:42.239840  5151 net.cpp:434] loss_cls <- labels_roi-data_1_split_0
I0416 11:36:42.239850  5151 net.cpp:408] loss_cls -> loss_cls
…
