…
stepsize: 350000
snapshot: 0
snapshot_prefix: "./experiments/activitynet/snapshot/activitynet"
average_loss: 100
iter_size: 1
I0417 12:09:29.010541 18326 solver.cpp:81] Creating training net from train_net file: ./experiments/activitynet/train.prototxt
I0417 12:09:29.011649 18326 net.cpp:58] Initializing net from parameters: 
name: "activitynet"
state {
  phase: TRAIN
}
layer {
  name: "data"
  type: "Python"
  top: "data"
  top: "gt_boxes"
  python_param {
    module: "roi_data_layer.layer"
    layer: "RoIDataLayer"
    param_str: "\'num_classes\': 100"
  }
}
layer {
  name: "conv1a"
  type: "Convolution"
  bottom: "data"
  top: "conv1a"
  param {
    lr_mult: 0
    decay_mult: 0
  }
  param {
    lr_mult: 0
    decay_mult: 0
  }
  convolution_param {
    num_output: 64
    pad: 1
    pad: 1
    pad: 1
    kernel_size: 3
    kernel_size: 3
    kernel_size: 3
    weight_filler {
      type: "gaussian"
      std: 0.01
    }
    bias_filler {
      type: "constant"
      value: 0
    }
  }
}
layer {
  name: "relu1a"
  type: "ReLU"
  bottom: "conv1a"
  top: "conv1a"
}
layer {
  name: "pool1"
  type: "Pooling"
  bottom: "conv1a"
  top: "pool1"
  pooling_param {
    pool: MAX
    kernel_size: 1
    kernel_size: 2
    kernel_size: 2
    stride: 1
    stride: 2
    stride: 2
  }
}
layer {
  name: "conv2a"
  type: "Convolution"
  bottom: "pool1"
  top: "conv2a"
  param {
    lr_mult: 0
    decay_mult: 0
  }
  param {
    lr_mult: 0
    decay_mult: 0
  }
  convolution_param {
    num_output: 128
    pad: 1
    pad: 1
    pad: 1
    kernel_size: 3
    kernel_size: 3
    kernel_size: 3
    weight_filler {
      type: "gaussian"
      std: 0.01
    }
    bias_filler {
      type: "constant"
      value: 1
    }
  }
}
layer {
  name: "relu2a"
  type: "ReLU"
  bottom: "conv2a"
  top: "conv2a"
}
layer {
  name: "pool2"
  type: "Pooling"
  bottom: "conv2a"
  top: "pool2"
  pooling_param {
    pool: MAX
    kernel_size: 2
    kernel_size: 2
    kernel_size: 2
    stride: 2
    stride: 2
    stride: 2
  }
}
layer {
  name: "conv3a"
  type: "Convolution"
  bottom: "pool2"
  top: "conv3a"
  param {
    lr_mult: 1
    decay_mult: 1
  }
  param {
    lr_mult: 2
    decay_mult: 0
  }
  convolution_param {
    num_output: 256
    pad: 1
    pad: 1
    pad: 1
    kernel_size: 3
    kernel_size: 3
    kernel_size: 3
    weight_filler {
      type: "gaussian"
      std: 0.01
    }
    bias_filler {
      type: "constant"
      value: 1
    }
  }
}
layer {
  name: "relu3a"
  type: "ReLU"
  bottom: "conv3a"
  top: "conv3a"
}
layer {
  name: "conv3b"
  type: "Convolution"
  bottom: "conv3a"
  top: "conv3b"
  param {
    lr_mult: 1
    decay_mult: 1
  }
  param {
    lr_mult: 2
    decay_mult: 0
  }
  convolution_param {
    num_output: 256
    pad: 1
    pad: 1
    pad: 1
    kernel_size: 3
    kernel_size: 3
    kernel_size: 3
    weight_filler {
      type: "gaussian"
      std: 0.01
    }
    bias_filler {
      type: "constant"
      value: 1
    }
  }
}
layer {
  name: "relu3b"
  type: "ReLU"
  bottom: "conv3b"
  top: "conv3b"
}
layer {
  name: "pool3"
  type: "Pooling"
  bottom: "conv3b"
  top: "pool3"
  pooling_param {
    pool: MAX
    kernel_size: 2
    kernel_size: 2
    kernel_size: 2
    stride: 2
    stride: 2
    stride: 2
  }
}
layer {
  name: "conv4a"
  type: "Convolution"
  bottom: "pool3"
  top: "conv4a"
  param {
    lr_mult: 1
    decay_mult: 1
  }
  param {
    lr_mult: 2
    decay_mult: 0
  }
  convolution_param {
    num_output: 512
    pad: 1
    pad: 1
    pad: 1
    kernel_size: 3
    kernel_size: 3
    kernel_size: 3
    weight_filler {
      type: "gaussian"
      std: 0.01
    }
    bias_filler {
      type: "constant"
      value: 1
    }
  }
}
layer {
  name: "relu4a"
  type: "ReLU"
  bottom: "conv4a"
  top: "conv4a"
}
layer {
  name: "conv4b"
  type: "Convolution"
  bottom: "conv4a"
  top: "conv4b"
  param {
    lr_mult: 1
    decay_mult: 1
  }
  param {
    lr_mult: 2
    decay_mult: 0
  }
  convolution_param {
    num_output: 512
    pad: 1
    pad: 1
    pad: 1
    kernel_size: 3
    kernel_size: 3
    kernel_size: 3
    weight_filler {
      type: "gaussian"
      std: 0.01
    }
    bias_filler {
      type: "constant"
      value: 1
    }
  }
}
layer {
  name: "relu4b"
  type: "ReLU"
  bottom: "conv4b"
  top: "conv4b"
}
layer {
  name: "pool4"
  type: "Pooling"
  bottom: "conv4b"
  top: "pool4"
  pooling_param {
    pool: MAX
    kernel_size: 2
    kernel_size: 2
    kernel_size: 2
    stride: 2
    stride: 2
    stride: 2
  }
}
layer {
  name: "conv5a"
  type: "Convolution"
  bottom: "pool4"
  top: "conv5a"
  param {
    lr_mult: 1
    decay_mult: 1
  }
  param {
    lr_mult: 2
    decay_mult: 0
  }
  convolution_param {
    num_output: 512
    pad: 1
    pad: 1
    pad: 1
    kernel_size: 3
    kernel_size: 3
    kernel_size: 3
    weight_filler {
      type: "gaussian"
      std: 0.01
    }
    bias_filler {
      type: "constant"
      value: 1
    }
  }
}
layer {
  name: "relu5a"
  type: "ReLU"
  bottom: "conv5a"
  top: "conv5a"
}
layer {
  name: "conv5b"
  type: "Convolution"
  bottom: "conv5a"
  top: "conv5b"
  param {
    lr_mult: 1
    decay_mult: 1
  }
  param {
    lr_mult: 2
    decay_mult: 0
  }
  convolution_param {
    num_output: 512
    pad: 1
    pad: 1
    pad: 1
    kernel_size: 3
    kernel_size: 3
    kernel_size: 3
    weight_filler {
      type: "gaussian"
      std: 0.01
    }
    bias_filler {
      type: "constant"
      value: 1
    }
  }
}
layer {
  name: "relu5b"
  type: "ReLU"
  bottom: "conv5b"
  top: "conv5b"
}
layer {
  name: "rpn_conv/3x3"
  type: "Convolution"
  bottom: "conv5b"
  top: "rpn/output"
  param {
    lr_mult: 1
    decay_mult: 1
  }
  param {
    lr_mult: 2
    decay_mult: 0
  }
  convolution_param {
    num_output: 512
    pad: 1
    pad: 1
    pad: 1
    kernel_size: 3
    kernel_size: 3
    kernel_size: 3
    stride: 1
    stride: 2
    stride: 2
    weight_filler {
      type: "gaussian"
      std: 0.01
    }
    bias_filler {
      type: "constant"
      value: 0
    }
  }
}
layer {
  name: "rpn_relu/3x3"
  type: "ReLU"
  bottom: "rpn/output"
  top: "rpn/output"
}
layer {
  name: "rpn_conv/3x3_2"
  type: "Convolution"
  bottom: "rpn/output"
  top: "rpn/output_2"
  param {
    lr_mult: 1
    decay_mult: 1
  }
  param {
    lr_mult: 2
    decay_mult: 0
  }
  convolution_param {
    num_output: 512
    pad: 1
    pad: 1
    pad: 1
    kernel_size: 3
    kernel_size: 3
    kernel_size: 3
    stride: 1
    stride: 2
    stride: 2
    weight_filler {
      type: "gaussian"
      std: 0.01
    }
    bias_filler {
      type: "constant"
      value: 0
    }
  }
}
layer {
  name: "rpn_relu/3x3_2"
  type: "ReLU"
  bottom: "rpn/output_2"
  top: "rpn/output_2"
}
layer {
  name: "rpn/output_pool"
  type: "Pooling"
  bottom: "rpn/output_2"
  top: "rpn/output_pool"
  pooling_param {
    pool: MAX
    kernel_size: 1
    kernel_size: 2
    kernel_size: 2
  }
}
layer {
  name: "rpn_cls_score"
  type: "Convolution"
  bottom: "rpn/output_pool"
  top: "rpn_cls_score"
  param {
    lr_mult: 1
    decay_mult: 1
  }
  param {
    lr_mult: 2
    decay_mult: 0
  }
  convolution_param {
    num_output: 74
    kernel_size: 1
    kernel_size: 1
    kernel_size: 1
    weight_filler {
      type: "gaussian"
      std: 0.01
    }
    bias_filler {
      type: "constant"
      value: 0
    }
  }
}
layer {
  name: "rpn_twin_pred"
  type: "Convolution"
  bottom: "rpn/output_pool"
  top: "rpn_twin_pred"
  param {
    lr_mult: 1
    decay_mult: 1
  }
  param {
    lr_mult: 2
    decay_mult: 0
  }
  convolution_param {
    num_output: 74
    kernel_size: 1
    kernel_size: 1
    kernel_size: 1
    weight_filler {
      type: "gaussian"
      std: 0.01
    }
    bias_filler {
      type: "constant"
      value: 0
    }
  }
}
layer {
  name: "rpn_cls_score_reshape"
  type: "Reshape"
  bottom: "rpn_cls_score"
  top: "rpn_cls_score_reshape"
  reshape_param {
    shape {
      dim: 0
      dim: 2
      dim: -1
      dim: 0
      dim: 0
    }
  }
}
layer {
  name: "rpn-data"
  type: "Python"
  bottom: "rpn_cls_score"
  bottom: "gt_boxes"
  bottom: "data"
  top: "rpn_labels"
  top: "rpn_twin_targets"
  top: "rpn_twin_inside_weights"
  top: "rpn_twin_outside_weights"
  python_param {
    module: "rpn.anchor_target_layer"
    layer: "AnchorTargetLayer"
    param_str: "\'feat_stride\': 8 \n\'scales\': !!python/tuple [1,1.25, 1.5,1.75, 2,2.5, 3,3.5, 4,4.5, 5,5.5, 6,7, 8,9,10,11,12,14,16,18,20,22,24,28,32,36,40,44,52,60,68,76,84,92,100]"
  }
}
layer {
  name: "rpn_loss_cls"
  type: "SoftmaxWithLoss"
  bottom: "rpn_cls_score_reshape"
  bottom: "rpn_labels"
  top: "rpn_cls_loss"
  loss_weight: 1
  propagate_down: true
  propagate_down: false
  loss_param {
    ignore_label: -1
    normalize: true
  }
}
layer {
  name: "rpn_loss_twin"
  type: "SmoothL1Loss"
  bottom: "rpn_twin_pred"
  bottom: "rpn_twin_targets"
  bottom: "rpn_twin_inside_weights"
  bottom: "rpn_twin_outside_weights"
  top: "rpn_loss_twin"
  loss_weight: 1
  smooth_l1_loss_param {
    sigma: 3
  }
}
layer {
  name: "rpn_accuarcy"
  type: "Accuracy"
  bottom: "rpn_cls_score_reshape"
  bottom: "rpn_labels"
  top: "rpn_accuarcy"
  top: "rpn_accuarcy_class"
  propagate_down: false
  propagate_down: false
  accuracy_param {
    ignore_label: -1
  }
}
layer {
  name: "rpn_cls_prob"
  type: "Softmax"
  bottom: "rpn_cls_score_reshape"
  top: "rpn_cls_prob"
}
layer {
  name: "rpn_cls_prob_reshape"
  type: "Reshape"
  bottom: "rpn_cls_prob"
  top: "rpn_cls_prob_reshape"
  reshape_param {
    shape {
      dim: 0
      dim: 74
      dim: -1
      dim: 0
      dim: 0
    }
  }
}
layer {
  name: "proposal"
  type: "Python"
  bottom: "rpn_cls_prob_reshape"
  bottom: "rpn_twin_pred"
  top: "rpn_rois"
  include {
    phase: TRAIN
  }
  python_param {
    module: "rpn.proposal_layer"
    layer: "ProposalLayer"
    param_str: "\'feat_stride\': 8 \n\'scales\': !!python/tuple [1,1.25, 1.5,1.75, 2,2.5, 3,3.5, 4,4.5, 5,5.5, 6,7, 8,9,10,11,12,14,16,18,20,22,24,28,32,36,40,44,52,60,68,76,84,92,100]"
  }
}
layer {
  name: "roi-data"
  type: "Python"
  bottom: "rpn_rois"
  bottom: "gt_boxes"
  top: "rois"
  top: "labels"
  top: "twin_targets"
  top: "twin_inside_weights"
  top: "twin_outside_weights"
  python_param {
    module: "rpn.proposal_target_layer"
    layer: "ProposalTargetLayer"
    param_str: "\'num_classes\': 201"
  }
}
layer {
  name: "roi_pool5"
  type: "ROIPooling"
  bottom: "conv5b"
  bottom: "rois"
  top: "pool5"
  roi_pooling_param {
    pooled_h: 4
    pooled_w: 4
    spatial_scale: 0.0625
    pooled_l: 1
    temporal_scale: 0.125
  }
}
layer {
  name: "fc6"
  type: "InnerProduct"
  bottom: "pool5"
  top: "fc6"
  param {
    lr_mult: 1
    decay_mult: 1
  }
  param {
    lr_mult: 2
    decay_mult: 0
  }
  inner_product_param {
    num_output: 4096
    weight_filler {
      type: "gaussian"
      std: 0.005
    }
    bias_filler {
      type: "constant"
      value: 1
    }
  }
}
layer {
  name: "relu6"
  type: "ReLU"
  bottom: "fc6"
  top: "fc6"
}
layer {
  name: "drop6"
  type: "Dropout"
  bottom: "fc6"
  top: "fc6"
  dropout_param {
    dropout_ratio: 0.5
  }
}
layer {
  name: "cls_score"
  type: "InnerProduct"
  bottom: "fc6"
  top: "cls_score"
  param {
    lr_mult: 1
    decay_mult: 1
  }
  param {
    lr_mult: 2
    decay_mult: 0
  }
  inner_product_param {
    num_output: 201
    weight_filler {
      type: "gaussian"
      std: 0.01
    }
    bias_filler {
      type: "constant"
      value: 0
    }
  }
}
layer {
  name: "twin_pred"
  type: "InnerProduct"
  bottom: "fc6"
  top: "twin_pred"
  param {
    lr_mult: 1
    decay_mult: 1
  }
  param {
    lr_mult: 2
    decay_mult: 0
  }
  inner_product_param {
    num_output: 402
    weight_filler {
      type: "gaussian"
      std: 0.001
    }
    bias_filler {
      type: "constant"
      value: 0
    }
  }
}
layer {
  name: "loss_cls"
  type: "SoftmaxWithLoss"
  bottom: "cls_score"
  bottom: "labels"
  top: "loss_cls"
  loss_weight: 1
  propagate_down: true
  propagate_down: false
}
layer {
  name: "loss_twin"
  type: "SmoothL1Loss"
  bottom: "twin_pred"
  bottom: "twin_targets"
  bottom: "twin_inside_weights"
  bottom: "twin_outside_weights"
  top: "loss_twin"
  loss_weight: 1
}
layer {
  name: "accuarcy"
  type: "Accuracy"
  bottom: "cls_score"
  bottom: "labels"
  top: "accuarcy"
  propagate_down: false
  propagate_down: false
  accuracy_param {
    ignore_label: -1
  }
}
I0417 12:09:29.011870 18326 layer_factory.hpp:77] Creating layer data
I0417 12:09:29.039810 18326 net.cpp:100] Creating Layer data
I0417 12:09:29.039837 18326 net.cpp:408] data -> data
I0417 12:09:29.039851 18326 net.cpp:408] data -> gt_boxes
setting up
has rpn
RoiDataLayer: name_to_top: {'gt_windows': 1, 'data': 0}
I0417 12:09:29.053921 18326 net.cpp:150] Setting up data
I0417 12:09:29.053947 18326 net.cpp:157] Top shape: 1 3 768 112 112 (28901376)
I0417 12:09:29.053952 18326 net.cpp:157] Top shape: 1 101 (101)
I0417 12:09:29.053956 18326 net.cpp:165] Memory required for data: 115605908
I0417 12:09:29.053962 18326 layer_factory.hpp:77] Creating layer data_data_0_split
I0417 12:09:29.053974 18326 net.cpp:100] Creating Layer data_data_0_split
I0417 12:09:29.053979 18326 net.cpp:434] data_data_0_split <- data
I0417 12:09:29.053985 18326 net.cpp:408] data_data_0_split -> data_data_0_split_0
I0417 12:09:29.053994 18326 net.cpp:408] data_data_0_split -> data_data_0_split_1
I0417 12:09:29.054047 18326 net.cpp:150] Setting up data_data_0_split
I0417 12:09:29.054057 18326 net.cpp:157] Top shape: 1 3 768 112 112 (28901376)
I0417 12:09:29.054061 18326 net.cpp:157] Top shape: 1 3 768 112 112 (28901376)
I0417 12:09:29.054064 18326 net.cpp:165] Memory required for data: 346816916
I0417 12:09:29.054069 18326 layer_factory.hpp:77] Creating layer gt_boxes_data_1_split
I0417 12:09:29.054075 18326 net.cpp:100] Creating Layer gt_boxes_data_1_split
I0417 12:09:29.054078 18326 net.cpp:434] gt_boxes_data_1_split <- gt_boxes
I0417 12:09:29.054085 18326 net.cpp:408] gt_boxes_data_1_split -> gt_boxes_data_1_split_0
I0417 12:09:29.054091 18326 net.cpp:408] gt_boxes_data_1_split -> gt_boxes_data_1_split_1
I0417 12:09:29.054129 18326 net.cpp:150] Setting up gt_boxes_data_1_split
I0417 12:09:29.054136 18326 net.cpp:157] Top shape: 1 101 (101)
I0417 12:09:29.054141 18326 net.cpp:157] Top shape: 1 101 (101)
I0417 12:09:29.054144 18326 net.cpp:165] Memory required for data: 346817724
I0417 12:09:29.054148 18326 layer_factory.hpp:77] Creating layer conv1a
I0417 12:09:29.054165 18326 net.cpp:100] Creating Layer conv1a
I0417 12:09:29.054169 18326 net.cpp:434] conv1a <- data_data_0_split_0
I0417 12:09:29.054174 18326 net.cpp:408] conv1a -> conv1a
I0417 12:09:29.073604 18326 net.cpp:150] Setting up conv1a
I0417 12:09:29.073640 18326 net.cpp:157] Top shape: 1 64 768 112 112 (616562688)
I0417 12:09:29.073644 18326 net.cpp:165] Memory required for data: 2813068476
I0417 12:09:29.073668 18326 layer_factory.hpp:77] Creating layer relu1a
I0417 12:09:29.073683 18326 net.cpp:100] Creating Layer relu1a
I0417 12:09:29.073688 18326 net.cpp:434] relu1a <- conv1a
I0417 12:09:29.073694 18326 net.cpp:395] relu1a -> conv1a (in-place)
I0417 12:09:29.073706 18326 net.cpp:150] Setting up relu1a
I0417 12:09:29.073710 18326 net.cpp:157] Top shape: 1 64 768 112 112 (616562688)
I0417 12:09:29.073714 18326 net.cpp:165] Memory required for data: 5279319228
I0417 12:09:29.073717 18326 layer_factory.hpp:77] Creating layer pool1
I0417 12:09:29.073725 18326 net.cpp:100] Creating Layer pool1
I0417 12:09:29.073729 18326 net.cpp:434] pool1 <- conv1a
I0417 12:09:29.073734 18326 net.cpp:408] pool1 -> pool1
I0417 12:09:29.073851 18326 net.cpp:150] Setting up pool1
I0417 12:09:29.073860 18326 net.cpp:157] Top shape: 1 64 768 56 56 (154140672)
I0417 12:09:29.073863 18326 net.cpp:165] Memory required for data: 5895881916
I0417 12:09:29.073868 18326 layer_factory.hpp:77] Creating layer conv2a
I0417 12:09:29.073879 18326 net.cpp:100] Creating Layer conv2a
I0417 12:09:29.073884 18326 net.cpp:434] conv2a <- pool1
I0417 12:09:29.073889 18326 net.cpp:408] conv2a -> conv2a
I0417 12:09:29.084620 18326 net.cpp:150] Setting up conv2a
I0417 12:09:29.084642 18326 net.cpp:157] Top shape: 1 128 768 56 56 (308281344)
I0417 12:09:29.084646 18326 net.cpp:165] Memory required for data: 7129007292
I0417 12:09:29.084658 18326 layer_factory.hpp:77] Creating layer relu2a
I0417 12:09:29.084666 18326 net.cpp:100] Creating Layer relu2a
I0417 12:09:29.084671 18326 net.cpp:434] relu2a <- conv2a
I0417 12:09:29.084677 18326 net.cpp:395] relu2a -> conv2a (in-place)
I0417 12:09:29.084687 18326 net.cpp:150] Setting up relu2a
I0417 12:09:29.084692 18326 net.cpp:157] Top shape: 1 128 768 56 56 (308281344)
I0417 12:09:29.084695 18326 net.cpp:165] Memory required for data: 8362132668
I0417 12:09:29.084698 18326 layer_factory.hpp:77] Creating layer pool2
I0417 12:09:29.084707 18326 net.cpp:100] Creating Layer pool2
I0417 12:09:29.084709 18326 net.cpp:434] pool2 <- conv2a
I0417 12:09:29.084715 18326 net.cpp:408] pool2 -> pool2
I0417 12:09:29.084789 18326 net.cpp:150] Setting up pool2
I0417 12:09:29.084797 18326 net.cpp:157] Top shape: 1 128 384 28 28 (38535168)
I0417 12:09:29.084800 18326 net.cpp:165] Memory required for data: 8516273340
I0417 12:09:29.084803 18326 layer_factory.hpp:77] Creating layer conv3a
I0417 12:09:29.084815 18326 net.cpp:100] Creating Layer conv3a
I0417 12:09:29.084818 18326 net.cpp:434] conv3a <- pool2
I0417 12:09:29.084823 18326 net.cpp:408] conv3a -> conv3a
I0417 12:09:29.109947 18326 net.cpp:150] Setting up conv3a
I0417 12:09:29.109968 18326 net.cpp:157] Top shape: 1 256 384 28 28 (77070336)
I0417 12:09:29.109972 18326 net.cpp:165] Memory required for data: 8824554684
I0417 12:09:29.109983 18326 layer_factory.hpp:77] Creating layer relu3a
I0417 12:09:29.109993 18326 net.cpp:100] Creating Layer relu3a
I0417 12:09:29.109998 18326 net.cpp:434] relu3a <- conv3a
I0417 12:09:29.110003 18326 net.cpp:395] relu3a -> conv3a (in-place)
I0417 12:09:29.110011 18326 net.cpp:150] Setting up relu3a
I0417 12:09:29.110016 18326 net.cpp:157] Top shape: 1 256 384 28 28 (77070336)
I0417 12:09:29.110018 18326 net.cpp:165] Memory required for data: 9132836028
I0417 12:09:29.110021 18326 layer_factory.hpp:77] Creating layer conv3b
I0417 12:09:29.110031 18326 net.cpp:100] Creating Layer conv3b
I0417 12:09:29.110034 18326 net.cpp:434] conv3b <- conv3a
I0417 12:09:29.110040 18326 net.cpp:408] conv3b -> conv3b
I0417 12:09:29.159476 18326 net.cpp:150] Setting up conv3b
I0417 12:09:29.159502 18326 net.cpp:157] Top shape: 1 256 384 28 28 (77070336)
I0417 12:09:29.159505 18326 net.cpp:165] Memory required for data: 9441117372
I0417 12:09:29.159515 18326 layer_factory.hpp:77] Creating layer relu3b
I0417 12:09:29.159525 18326 net.cpp:100] Creating Layer relu3b
I0417 12:09:29.159530 18326 net.cpp:434] relu3b <- conv3b
I0417 12:09:29.159538 18326 net.cpp:395] relu3b -> conv3b (in-place)
I0417 12:09:29.159548 18326 net.cpp:150] Setting up relu3b
I0417 12:09:29.159551 18326 net.cpp:157] Top shape: 1 256 384 28 28 (77070336)
I0417 12:09:29.159554 18326 net.cpp:165] Memory required for data: 9749398716
I0417 12:09:29.159557 18326 layer_factory.hpp:77] Creating layer pool3
I0417 12:09:29.159564 18326 net.cpp:100] Creating Layer pool3
I0417 12:09:29.159567 18326 net.cpp:434] pool3 <- conv3b
I0417 12:09:29.159574 18326 net.cpp:408] pool3 -> pool3
I0417 12:09:29.159629 18326 net.cpp:150] Setting up pool3
I0417 12:09:29.159636 18326 net.cpp:157] Top shape: 1 256 192 14 14 (9633792)
I0417 12:09:29.159639 18326 net.cpp:165] Memory required for data: 9787933884
I0417 12:09:29.159642 18326 layer_factory.hpp:77] Creating layer conv4a
I0417 12:09:29.159653 18326 net.cpp:100] Creating Layer conv4a
I0417 12:09:29.159657 18326 net.cpp:434] conv4a <- pool3
I0417 12:09:29.159662 18326 net.cpp:408] conv4a -> conv4a
I0417 12:09:29.259907 18326 net.cpp:150] Setting up conv4a
I0417 12:09:29.259973 18326 net.cpp:157] Top shape: 1 512 192 14 14 (19267584)
I0417 12:09:29.259984 18326 net.cpp:165] Memory required for data: 9865004220
I0417 12:09:29.260010 18326 layer_factory.hpp:77] Creating layer relu4a
I0417 12:09:29.260030 18326 net.cpp:100] Creating Layer relu4a
I0417 12:09:29.260043 18326 net.cpp:434] relu4a <- conv4a
I0417 12:09:29.260056 18326 net.cpp:395] relu4a -> conv4a (in-place)
I0417 12:09:29.260074 18326 net.cpp:150] Setting up relu4a
I0417 12:09:29.260097 18326 net.cpp:157] Top shape: 1 512 192 14 14 (19267584)
I0417 12:09:29.260104 18326 net.cpp:165] Memory required for data: 9942074556
I0417 12:09:29.260112 18326 layer_factory.hpp:77] Creating layer conv4b
I0417 12:09:29.260161 18326 net.cpp:100] Creating Layer conv4b
I0417 12:09:29.260172 18326 net.cpp:434] conv4b <- conv4a
I0417 12:09:29.260186 18326 net.cpp:408] conv4b -> conv4b
I0417 12:09:29.460207 18326 net.cpp:150] Setting up conv4b
I0417 12:09:29.460234 18326 net.cpp:157] Top shape: 1 512 192 14 14 (19267584)
I0417 12:09:29.460238 18326 net.cpp:165] Memory required for data: 10019144892
I0417 12:09:29.460247 18326 layer_factory.hpp:77] Creating layer relu4b
I0417 12:09:29.460258 18326 net.cpp:100] Creating Layer relu4b
I0417 12:09:29.460263 18326 net.cpp:434] relu4b <- conv4b
I0417 12:09:29.460268 18326 net.cpp:395] relu4b -> conv4b (in-place)
I0417 12:09:29.460278 18326 net.cpp:150] Setting up relu4b
I0417 12:09:29.460284 18326 net.cpp:157] Top shape: 1 512 192 14 14 (19267584)
I0417 12:09:29.460288 18326 net.cpp:165] Memory required for data: 10096215228
I0417 12:09:29.460290 18326 layer_factory.hpp:77] Creating layer pool4
I0417 12:09:29.460299 18326 net.cpp:100] Creating Layer pool4
I0417 12:09:29.460302 18326 net.cpp:434] pool4 <- conv4b
I0417 12:09:29.460307 18326 net.cpp:408] pool4 -> pool4
I0417 12:09:29.460358 18326 net.cpp:150] Setting up pool4
I0417 12:09:29.460367 18326 net.cpp:157] Top shape: 1 512 96 7 7 (2408448)
I0417 12:09:29.460374 18326 net.cpp:165] Memory required for data: 10105849020
I0417 12:09:29.460377 18326 layer_factory.hpp:77] Creating layer conv5a
I0417 12:09:29.460392 18326 net.cpp:100] Creating Layer conv5a
I0417 12:09:29.460400 18326 net.cpp:434] conv5a <- pool4
I0417 12:09:29.460407 18326 net.cpp:408] conv5a -> conv5a
I0417 12:09:29.653980 18326 net.cpp:150] Setting up conv5a
I0417 12:09:29.654007 18326 net.cpp:157] Top shape: 1 512 96 7 7 (2408448)
I0417 12:09:29.654012 18326 net.cpp:165] Memory required for data: 10115482812
I0417 12:09:29.654021 18326 layer_factory.hpp:77] Creating layer relu5a
I0417 12:09:29.654032 18326 net.cpp:100] Creating Layer relu5a
I0417 12:09:29.654040 18326 net.cpp:434] relu5a <- conv5a
I0417 12:09:29.654047 18326 net.cpp:395] relu5a -> conv5a (in-place)
I0417 12:09:29.654055 18326 net.cpp:150] Setting up relu5a
I0417 12:09:29.654060 18326 net.cpp:157] Top shape: 1 512 96 7 7 (2408448)
I0417 12:09:29.654063 18326 net.cpp:165] Memory required for data: 10125116604
I0417 12:09:29.654067 18326 layer_factory.hpp:77] Creating layer conv5b
I0417 12:09:29.654079 18326 net.cpp:100] Creating Layer conv5b
I0417 12:09:29.654083 18326 net.cpp:434] conv5b <- conv5a
I0417 12:09:29.654088 18326 net.cpp:408] conv5b -> conv5b
I0417 12:09:29.844913 18326 net.cpp:150] Setting up conv5b
I0417 12:09:29.844947 18326 net.cpp:157] Top shape: 1 512 96 7 7 (2408448)
I0417 12:09:29.844951 18326 net.cpp:165] Memory required for data: 10134750396
I0417 12:09:29.844960 18326 layer_factory.hpp:77] Creating layer relu5b
I0417 12:09:29.844969 18326 net.cpp:100] Creating Layer relu5b
I0417 12:09:29.844974 18326 net.cpp:434] relu5b <- conv5b
I0417 12:09:29.844980 18326 net.cpp:395] relu5b -> conv5b (in-place)
I0417 12:09:29.844990 18326 net.cpp:150] Setting up relu5b
I0417 12:09:29.844995 18326 net.cpp:157] Top shape: 1 512 96 7 7 (2408448)
I0417 12:09:29.844998 18326 net.cpp:165] Memory required for data: 10144384188
I0417 12:09:29.845002 18326 layer_factory.hpp:77] Creating layer conv5b_relu5b_0_split
I0417 12:09:29.845007 18326 net.cpp:100] Creating Layer conv5b_relu5b_0_split
I0417 12:09:29.845010 18326 net.cpp:434] conv5b_relu5b_0_split <- conv5b
I0417 12:09:29.845015 18326 net.cpp:408] conv5b_relu5b_0_split -> conv5b_relu5b_0_split_0
I0417 12:09:29.845021 18326 net.cpp:408] conv5b_relu5b_0_split -> conv5b_relu5b_0_split_1
I0417 12:09:29.845065 18326 net.cpp:150] Setting up conv5b_relu5b_0_split
I0417 12:09:29.845072 18326 net.cpp:157] Top shape: 1 512 96 7 7 (2408448)
I0417 12:09:29.845077 18326 net.cpp:157] Top shape: 1 512 96 7 7 (2408448)
I0417 12:09:29.845079 18326 net.cpp:165] Memory required for data: 10163651772
I0417 12:09:29.845082 18326 layer_factory.hpp:77] Creating layer rpn_conv/3x3
I0417 12:09:29.845093 18326 net.cpp:100] Creating Layer rpn_conv/3x3
I0417 12:09:29.845099 18326 net.cpp:434] rpn_conv/3x3 <- conv5b_relu5b_0_split_0
I0417 12:09:29.845106 18326 net.cpp:408] rpn_conv/3x3 -> rpn/output
I0417 12:09:30.033196 18326 net.cpp:150] Setting up rpn_conv/3x3
I0417 12:09:30.033219 18326 net.cpp:157] Top shape: 1 512 96 4 4 (786432)
I0417 12:09:30.033223 18326 net.cpp:165] Memory required for data: 10166797500
I0417 12:09:30.033238 18326 layer_factory.hpp:77] Creating layer rpn_relu/3x3
I0417 12:09:30.033251 18326 net.cpp:100] Creating Layer rpn_relu/3x3
I0417 12:09:30.033255 18326 net.cpp:434] rpn_relu/3x3 <- rpn/output
I0417 12:09:30.033262 18326 net.cpp:395] rpn_relu/3x3 -> rpn/output (in-place)
I0417 12:09:30.033269 18326 net.cpp:150] Setting up rpn_relu/3x3
I0417 12:09:30.033273 18326 net.cpp:157] Top shape: 1 512 96 4 4 (786432)
I0417 12:09:30.033277 18326 net.cpp:165] Memory required for data: 10169943228
I0417 12:09:30.033280 18326 layer_factory.hpp:77] Creating layer rpn_conv/3x3_2
I0417 12:09:30.033290 18326 net.cpp:100] Creating Layer rpn_conv/3x3_2
I0417 12:09:30.033293 18326 net.cpp:434] rpn_conv/3x3_2 <- rpn/output
I0417 12:09:30.033300 18326 net.cpp:408] rpn_conv/3x3_2 -> rpn/output_2
I0417 12:09:30.220075 18326 net.cpp:150] Setting up rpn_conv/3x3_2
I0417 12:09:30.220109 18326 net.cpp:157] Top shape: 1 512 96 2 2 (196608)
I0417 12:09:30.220113 18326 net.cpp:165] Memory required for data: 10170729660
I0417 12:09:30.220129 18326 layer_factory.hpp:77] Creating layer rpn_relu/3x3_2
I0417 12:09:30.220139 18326 net.cpp:100] Creating Layer rpn_relu/3x3_2
I0417 12:09:30.220142 18326 net.cpp:434] rpn_relu/3x3_2 <- rpn/output_2
I0417 12:09:30.220149 18326 net.cpp:395] rpn_relu/3x3_2 -> rpn/output_2 (in-place)
I0417 12:09:30.220155 18326 net.cpp:150] Setting up rpn_relu/3x3_2
I0417 12:09:30.220160 18326 net.cpp:157] Top shape: 1 512 96 2 2 (196608)
I0417 12:09:30.220162 18326 net.cpp:165] Memory required for data: 10171516092
I0417 12:09:30.220166 18326 layer_factory.hpp:77] Creating layer rpn/output_pool
I0417 12:09:30.220173 18326 net.cpp:100] Creating Layer rpn/output_pool
I0417 12:09:30.220177 18326 net.cpp:434] rpn/output_pool <- rpn/output_2
I0417 12:09:30.220182 18326 net.cpp:408] rpn/output_pool -> rpn/output_pool
I0417 12:09:30.220229 18326 net.cpp:150] Setting up rpn/output_pool
I0417 12:09:30.220237 18326 net.cpp:157] Top shape: 1 512 96 1 1 (49152)
I0417 12:09:30.220240 18326 net.cpp:165] Memory required for data: 10171712700
I0417 12:09:30.220243 18326 layer_factory.hpp:77] Creating layer rpn/output_pool_rpn/output_pool_0_split
I0417 12:09:30.220249 18326 net.cpp:100] Creating Layer rpn/output_pool_rpn/output_pool_0_split
I0417 12:09:30.220253 18326 net.cpp:434] rpn/output_pool_rpn/output_pool_0_split <- rpn/output_pool
I0417 12:09:30.220257 18326 net.cpp:408] rpn/output_pool_rpn/output_pool_0_split -> rpn/output_pool_rpn/output_pool_0_split_0
I0417 12:09:30.220263 18326 net.cpp:408] rpn/output_pool_rpn/output_pool_0_split -> rpn/output_pool_rpn/output_pool_0_split_1
I0417 12:09:30.220304 18326 net.cpp:150] Setting up rpn/output_pool_rpn/output_pool_0_split
I0417 12:09:30.220311 18326 net.cpp:157] Top shape: 1 512 96 1 1 (49152)
I0417 12:09:30.220315 18326 net.cpp:157] Top shape: 1 512 96 1 1 (49152)
I0417 12:09:30.220319 18326 net.cpp:165] Memory required for data: 10172105916
I0417 12:09:30.220321 18326 layer_factory.hpp:77] Creating layer rpn_cls_score
I0417 12:09:30.220331 18326 net.cpp:100] Creating Layer rpn_cls_score
I0417 12:09:30.220335 18326 net.cpp:434] rpn_cls_score <- rpn/output_pool_rpn/output_pool_0_split_0
I0417 12:09:30.220340 18326 net.cpp:408] rpn_cls_score -> rpn_cls_score
I0417 12:09:30.221626 18326 net.cpp:150] Setting up rpn_cls_score
I0417 12:09:30.221635 18326 net.cpp:157] Top shape: 1 74 96 1 1 (7104)
I0417 12:09:30.221638 18326 net.cpp:165] Memory required for data: 10172134332
I0417 12:09:30.221643 18326 layer_factory.hpp:77] Creating layer rpn_cls_score_rpn_cls_score_0_split
I0417 12:09:30.221648 18326 net.cpp:100] Creating Layer rpn_cls_score_rpn_cls_score_0_split
I0417 12:09:30.221652 18326 net.cpp:434] rpn_cls_score_rpn_cls_score_0_split <- rpn_cls_score
I0417 12:09:30.221657 18326 net.cpp:408] rpn_cls_score_rpn_cls_score_0_split -> rpn_cls_score_rpn_cls_score_0_split_0
I0417 12:09:30.221663 18326 net.cpp:408] rpn_cls_score_rpn_cls_score_0_split -> rpn_cls_score_rpn_cls_score_0_split_1
I0417 12:09:30.221729 18326 net.cpp:150] Setting up rpn_cls_score_rpn_cls_score_0_split
I0417 12:09:30.221735 18326 net.cpp:157] Top shape: 1 74 96 1 1 (7104)
I0417 12:09:30.221740 18326 net.cpp:157] Top shape: 1 74 96 1 1 (7104)
I0417 12:09:30.221742 18326 net.cpp:165] Memory required for data: 10172191164
I0417 12:09:30.221745 18326 layer_factory.hpp:77] Creating layer rpn_twin_pred
I0417 12:09:30.221757 18326 net.cpp:100] Creating Layer rpn_twin_pred
I0417 12:09:30.221762 18326 net.cpp:434] rpn_twin_pred <- rpn/output_pool_rpn/output_pool_0_split_1
I0417 12:09:30.221771 18326 net.cpp:408] rpn_twin_pred -> rpn_twin_pred
I0417 12:09:30.222998 18326 net.cpp:150] Setting up rpn_twin_pred
I0417 12:09:30.223008 18326 net.cpp:157] Top shape: 1 74 96 1 1 (7104)
I0417 12:09:30.223011 18326 net.cpp:165] Memory required for data: 10172219580
I0417 12:09:30.223017 18326 layer_factory.hpp:77] Creating layer rpn_twin_pred_rpn_twin_pred_0_split
I0417 12:09:30.223022 18326 net.cpp:100] Creating Layer rpn_twin_pred_rpn_twin_pred_0_split
I0417 12:09:30.223026 18326 net.cpp:434] rpn_twin_pred_rpn_twin_pred_0_split <- rpn_twin_pred
I0417 12:09:30.223031 18326 net.cpp:408] rpn_twin_pred_rpn_twin_pred_0_split -> rpn_twin_pred_rpn_twin_pred_0_split_0
I0417 12:09:30.223035 18326 net.cpp:408] rpn_twin_pred_rpn_twin_pred_0_split -> rpn_twin_pred_rpn_twin_pred_0_split_1
I0417 12:09:30.223076 18326 net.cpp:150] Setting up rpn_twin_pred_rpn_twin_pred_0_split
I0417 12:09:30.223083 18326 net.cpp:157] Top shape: 1 74 96 1 1 (7104)
I0417 12:09:30.223088 18326 net.cpp:157] Top shape: 1 74 96 1 1 (7104)
I0417 12:09:30.223090 18326 net.cpp:165] Memory required for data: 10172276412
I0417 12:09:30.223093 18326 layer_factory.hpp:77] Creating layer rpn_cls_score_reshape
I0417 12:09:30.223105 18326 net.cpp:100] Creating Layer rpn_cls_score_reshape
I0417 12:09:30.223111 18326 net.cpp:434] rpn_cls_score_reshape <- rpn_cls_score_rpn_cls_score_0_split_0
I0417 12:09:30.223116 18326 net.cpp:408] rpn_cls_score_reshape -> rpn_cls_score_reshape
I0417 12:09:30.223150 18326 net.cpp:150] Setting up rpn_cls_score_reshape
I0417 12:09:30.223157 18326 net.cpp:157] Top shape: 1 2 3552 1 1 (7104)
I0417 12:09:30.223161 18326 net.cpp:165] Memory required for data: 10172304828
I0417 12:09:30.223165 18326 layer_factory.hpp:77] Creating layer rpn_cls_score_reshape_rpn_cls_score_reshape_0_split
I0417 12:09:30.223168 18326 net.cpp:100] Creating Layer rpn_cls_score_reshape_rpn_cls_score_reshape_0_split
I0417 12:09:30.223175 18326 net.cpp:434] rpn_cls_score_reshape_rpn_cls_score_reshape_0_split <- rpn_cls_score_reshape
I0417 12:09:30.223178 18326 net.cpp:408] rpn_cls_score_reshape_rpn_cls_score_reshape_0_split -> rpn_cls_score_reshape_rpn_cls_score_reshape_0_split_0
I0417 12:09:30.223188 18326 net.cpp:408] rpn_cls_score_reshape_rpn_cls_score_reshape_0_split -> rpn_cls_score_reshape_rpn_cls_score_reshape_0_split_1
I0417 12:09:30.223196 18326 net.cpp:408] rpn_cls_score_reshape_rpn_cls_score_reshape_0_split -> rpn_cls_score_reshape_rpn_cls_score_reshape_0_split_2
I0417 12:09:30.223253 18326 net.cpp:150] Setting up rpn_cls_score_reshape_rpn_cls_score_reshape_0_split
I0417 12:09:30.223260 18326 net.cpp:157] Top shape: 1 2 3552 1 1 (7104)
I0417 12:09:30.223264 18326 net.cpp:157] Top shape: 1 2 3552 1 1 (7104)
I0417 12:09:30.223268 18326 net.cpp:157] Top shape: 1 2 3552 1 1 (7104)
I0417 12:09:30.223271 18326 net.cpp:165] Memory required for data: 10172390076
I0417 12:09:30.223274 18326 layer_factory.hpp:77] Creating layer rpn-data
I0417 12:09:30.223687 18326 net.cpp:100] Creating Layer rpn-data
I0417 12:09:30.223698 18326 net.cpp:434] rpn-data <- rpn_cls_score_rpn_cls_score_0_split_1
I0417 12:09:30.223704 18326 net.cpp:434] rpn-data <- gt_boxes_data_1_split_0
I0417 12:09:30.223708 18326 net.cpp:434] rpn-data <- data_data_0_split_1
I0417 12:09:30.223713 18326 net.cpp:408] rpn-data -> rpn_labels
I0417 12:09:30.223719 18326 net.cpp:408] rpn-data -> rpn_twin_targets
I0417 12:09:30.223726 18326 net.cpp:408] rpn-data -> rpn_twin_inside_weights
I0417 12:09:30.223731 18326 net.cpp:408] rpn-data -> rpn_twin_outside_weights
I0417 12:09:30.225940 18326 net.cpp:150] Setting up rpn-data
I0417 12:09:30.225965 18326 net.cpp:157] Top shape: 1 1 3552 1 1 (3552)
I0417 12:09:30.225970 18326 net.cpp:157] Top shape: 1 74 96 1 1 (7104)
I0417 12:09:30.225972 18326 net.cpp:157] Top shape: 1 74 96 1 1 (7104)
I0417 12:09:30.225976 18326 net.cpp:157] Top shape: 1 74 96 1 1 (7104)
I0417 12:09:30.225978 18326 net.cpp:165] Memory required for data: 10172489532
I0417 12:09:30.225982 18326 layer_factory.hpp:77] Creating layer rpn_labels_rpn-data_0_split
I0417 12:09:30.225988 18326 net.cpp:100] Creating Layer rpn_labels_rpn-data_0_split
I0417 12:09:30.225992 18326 net.cpp:434] rpn_labels_rpn-data_0_split <- rpn_labels
I0417 12:09:30.225997 18326 net.cpp:408] rpn_labels_rpn-data_0_split -> rpn_labels_rpn-data_0_split_0
I0417 12:09:30.226004 18326 net.cpp:408] rpn_labels_rpn-data_0_split -> rpn_labels_rpn-data_0_split_1
I0417 12:09:30.226042 18326 net.cpp:150] Setting up rpn_labels_rpn-data_0_split
I0417 12:09:30.226049 18326 net.cpp:157] Top shape: 1 1 3552 1 1 (3552)
I0417 12:09:30.226053 18326 net.cpp:157] Top shape: 1 1 3552 1 1 (3552)
I0417 12:09:30.226056 18326 net.cpp:165] Memory required for data: 10172517948
I0417 12:09:30.226059 18326 layer_factory.hpp:77] Creating layer rpn_loss_cls
I0417 12:09:30.226066 18326 net.cpp:100] Creating Layer rpn_loss_cls
I0417 12:09:30.226070 18326 net.cpp:434] rpn_loss_cls <- rpn_cls_score_reshape_rpn_cls_score_reshape_0_split_0
I0417 12:09:30.226075 18326 net.cpp:434] rpn_loss_cls <- rpn_labels_rpn-data_0_split_0
…
I0417 12:09:30.226400 18326 layer_factory.hpp:77] Creating layer rpn_accuarcy
I0417 12:09:30.226408 18326 net.cpp:100] Creating Layer rpn_accuarcy
I0417 12:09:30.226411 18326 net.cpp:434] rpn_accuarcy <- rpn_cls_score_reshape_rpn_cls_score_reshape_0_split_1
I0417 12:09:30.226416 18326 net.cpp:434] rpn_accuarcy <- rpn_labels_rpn-data_0_split_1
I0417 12:09:30.226420 18326 net.cpp:408] rpn_accuarcy -> rpn_accuarcy
I0417 12:09:30.226426 18326 net.cpp:408] rpn_accuarcy -> rpn_accuarcy_class
I0417 12:09:30.226470 18326 net.cpp:150] Setting up rpn_accuarcy
I0417 12:09:30.226477 18326 net.cpp:157] Top shape: (1)
I0417 12:09:30.226483 18326 net.cpp:157] Top shape: 2 (2)
I0417 12:09:30.226486 18326 net.cpp:165] Memory required for data: 10172517968
I0417 12:09:30.226490 18326 layer_factory.hpp:77] Creating layer rpn_cls_prob
I0417 12:09:30.226495 18326 net.cpp:100] Creating Layer rpn_cls_prob
I0417 12:09:30.226498 18326 net.cpp:434] rpn_cls_prob <- rpn_cls_score_reshape_rpn_cls_score_reshape_0_split_2
I0417 12:09:30.226503 18326 net.cpp:408] rpn_cls_prob -> rpn_cls_prob
I0417 12:09:30.226575 18326 net.cpp:150] Setting up rpn_cls_prob
I0417 12:09:30.226583 18326 net.cpp:157] Top shape: 1 2 3552 1 1 (7104)
I0417 12:09:30.226585 18326 net.cpp:165] Memory required for data: 10172546384
I0417 12:09:30.226589 18326 layer_factory.hpp:77] Creating layer rpn_cls_prob_reshape
I0417 12:09:30.226594 18326 net.cpp:100] Creating Layer rpn_cls_prob_reshape
I0417 12:09:30.226598 18326 net.cpp:434] rpn_cls_prob_reshape <- rpn_cls_prob
I0417 12:09:30.226603 18326 net.cpp:408] rpn_cls_prob_reshape -> rpn_cls_prob_reshape
I0417 12:09:30.226642 18326 net.cpp:150] Setting up rpn_cls_prob_reshape
I0417 12:09:30.226651 18326 net.cpp:157] Top shape: 1 74 96 1 1 (7104)
I0417 12:09:30.226655 18326 net.cpp:165] Memory required for data: 10172574800
I0417 12:09:30.226657 18326 layer_factory.hpp:77] Creating layer proposal
I0417 12:09:30.227267 18326 net.cpp:100] Creating Layer proposal
I0417 12:09:30.227277 18326 net.cpp:434] proposal <- rpn_cls_prob_reshape
I0417 12:09:30.227294 18326 net.cpp:434] proposal <- rpn_twin_pred_rpn_twin_pred_0_split_1
I0417 12:09:30.227299 18326 net.cpp:408] proposal -> rpn_rois
I0417 12:09:30.229504 18326 net.cpp:150] Setting up proposal
I0417 12:09:30.229518 18326 net.cpp:157] Top shape: 1 3 (3)
I0417 12:09:30.229522 18326 net.cpp:165] Memory required for data: 10172574812
I0417 12:09:30.229526 18326 layer_factory.hpp:77] Creating layer roi-data
I0417 12:09:30.229660 18326 net.cpp:100] Creating Layer roi-data
I0417 12:09:30.229670 18326 net.cpp:434] roi-data <- rpn_rois
I0417 12:09:30.229674 18326 net.cpp:434] roi-data <- gt_boxes_data_1_split_1
I0417 12:09:30.229681 18326 net.cpp:408] roi-data -> rois
I0417 12:09:30.229687 18326 net.cpp:408] roi-data -> labels
I0417 12:09:30.229692 18326 net.cpp:408] roi-data -> twin_targets
I0417 12:09:30.229698 18326 net.cpp:408] roi-data -> twin_inside_weights
I0417 12:09:30.229703 18326 net.cpp:408] roi-data -> twin_outside_weights
I0417 12:09:30.230029 18326 net.cpp:150] Setting up roi-data
I0417 12:09:30.230042 18326 net.cpp:157] Top shape: 1 3 (3)
I0417 12:09:30.230046 18326 net.cpp:157] Top shape: 1 1 (1)
I0417 12:09:30.230051 18326 net.cpp:157] Top shape: 1 402 (402)
I0417 12:09:30.230053 18326 net.cpp:157] Top shape: 1 402 (402)
I0417 12:09:30.230057 18326 net.cpp:157] Top shape: 1 402 (402)
I0417 12:09:30.230060 18326 net.cpp:165] Memory required for data: 10172579652
I0417 12:09:30.230063 18326 layer_factory.hpp:77] Creating layer labels_roi-data_1_split
I0417 12:09:30.230069 18326 net.cpp:100] Creating Layer labels_roi-data_1_split
I0417 12:09:30.230073 18326 net.cpp:434] labels_roi-data_1_split <- labels
I0417 12:09:30.230079 18326 net.cpp:408] labels_roi-data_1_split -> labels_roi-data_1_split_0
I0417 12:09:30.230085 18326 net.cpp:408] labels_roi-data_1_split -> labels_roi-data_1_split_1
I0417 12:09:30.230140 18326 net.cpp:150] Setting up labels_roi-data_1_split
I0417 12:09:30.230149 18326 net.cpp:157] Top shape: 1 1 (1)
I0417 12:09:30.230152 18326 net.cpp:157] Top shape: 1 1 (1)
I0417 12:09:30.230155 18326 net.cpp:165] Memory required for data: 10172579660
I0417 12:09:30.230159 18326 layer_factory.hpp:77] Creating layer roi_pool5
I0417 12:09:30.230166 18326 net.cpp:100] Creating Layer roi_pool5
I0417 12:09:30.230170 18326 net.cpp:434] roi_pool5 <- conv5b_relu5b_0_split_1
I0417 12:09:30.230175 18326 net.cpp:434] roi_pool5 <- rois
I0417 12:09:30.230180 18326 net.cpp:408] roi_pool5 -> pool5
I0417 12:09:30.230190 18326 roi_pooling_layer.cpp:34] Temporal scale: 0.125
I0417 12:09:30.230198 18326 roi_pooling_layer.cpp:35] Spatial scale: 0.0625
I0417 12:09:30.230242 18326 net.cpp:150] Setting up roi_pool5
I0417 12:09:30.230248 18326 net.cpp:157] Top shape: 1 512 1 4 4 (8192)
I0417 12:09:30.230252 18326 net.cpp:165] Memory required for data: 10172612428
I0417 12:09:30.230255 18326 layer_factory.hpp:77] Creating layer fc6
I0417 12:09:30.230265 18326 net.cpp:100] Creating Layer fc6
I0417 12:09:30.230268 18326 net.cpp:434] fc6 <- pool5
I0417 12:09:30.230275 18326 net.cpp:408] fc6 -> fc6
I0417 12:09:31.116576 18326 net.cpp:150] Setting up fc6
I0417 12:09:31.116600 18326 net.cpp:157] Top shape: 1 4096 (4096)
I0417 12:09:31.116603 18326 net.cpp:165] Memory required for data: 10172628812
I0417 12:09:31.116612 18326 layer_factory.hpp:77] Creating layer relu6
I0417 12:09:31.116622 18326 net.cpp:100] Creating Layer relu6
I0417 12:09:31.116627 18326 net.cpp:434] relu6 <- fc6
I0417 12:09:31.116633 18326 net.cpp:395] relu6 -> fc6 (in-place)
I0417 12:09:31.116641 18326 net.cpp:150] Setting up relu6
I0417 12:09:31.116645 18326 net.cpp:157] Top shape: 1 4096 (4096)
I0417 12:09:31.116648 18326 net.cpp:165] Memory required for data: 10172645196
I0417 12:09:31.116652 18326 layer_factory.hpp:77] Creating layer drop6
I0417 12:09:31.116662 18326 net.cpp:100] Creating Layer drop6
I0417 12:09:31.116669 18326 net.cpp:434] drop6 <- fc6
I0417 12:09:31.116684 18326 net.cpp:395] drop6 -> fc6 (in-place)
I0417 12:09:31.116714 18326 net.cpp:150] Setting up drop6
I0417 12:09:31.116720 18326 net.cpp:157] Top shape: 1 4096 (4096)
I0417 12:09:31.116724 18326 net.cpp:165] Memory required for data: 10172661580
I0417 12:09:31.116727 18326 layer_factory.hpp:77] Creating layer fc6_drop6_0_split
I0417 12:09:31.116732 18326 net.cpp:100] Creating Layer fc6_drop6_0_split
I0417 12:09:31.116737 18326 net.cpp:434] fc6_drop6_0_split <- fc6
I0417 12:09:31.116742 18326 net.cpp:408] fc6_drop6_0_split -> fc6_drop6_0_split_0
I0417 12:09:31.116750 18326 net.cpp:408] fc6_drop6_0_split -> fc6_drop6_0_split_1
I0417 12:09:31.116792 18326 net.cpp:150] Setting up fc6_drop6_0_split
I0417 12:09:31.116801 18326 net.cpp:157] Top shape: 1 4096 (4096)
I0417 12:09:31.116803 18326 net.cpp:157] Top shape: 1 4096 (4096)
I0417 12:09:31.116806 18326 net.cpp:165] Memory required for data: 10172694348
I0417 12:09:31.116809 18326 layer_factory.hpp:77] Creating layer cls_score
I0417 12:09:31.116817 18326 net.cpp:100] Creating Layer cls_score
I0417 12:09:31.116832 18326 net.cpp:434] cls_score <- fc6_drop6_0_split_0
I0417 12:09:31.116839 18326 net.cpp:408] cls_score -> cls_score
I0417 12:09:31.138567 18326 net.cpp:150] Setting up cls_score
I0417 12:09:31.138582 18326 net.cpp:157] Top shape: 1 201 (201)
I0417 12:09:31.138586 18326 net.cpp:165] Memory required for data: 10172695152
I0417 12:09:31.138593 18326 layer_factory.hpp:77] Creating layer cls_score_cls_score_0_split
I0417 12:09:31.138598 18326 net.cpp:100] Creating Layer cls_score_cls_score_0_split
I0417 12:09:31.138602 18326 net.cpp:434] cls_score_cls_score_0_split <- cls_score
I0417 12:09:31.138607 18326 net.cpp:408] cls_score_cls_score_0_split -> cls_score_cls_score_0_split_0
I0417 12:09:31.138613 18326 net.cpp:408] cls_score_cls_score_0_split -> cls_score_cls_score_0_split_1
I0417 12:09:31.138653 18326 net.cpp:150] Setting up cls_score_cls_score_0_split
I0417 12:09:31.138661 18326 net.cpp:157] Top shape: 1 201 (201)
I0417 12:09:31.138664 18326 net.cpp:157] Top shape: 1 201 (201)
I0417 12:09:31.138667 18326 net.cpp:165] Memory required for data: 10172696760
I0417 12:09:31.138670 18326 layer_factory.hpp:77] Creating layer twin_pred
I0417 12:09:31.138679 18326 net.cpp:100] Creating Layer twin_pred
I0417 12:09:31.138681 18326 net.cpp:434] twin_pred <- fc6_drop6_0_split_1
I0417 12:09:31.138687 18326 net.cpp:408] twin_pred -> twin_pred
I0417 12:09:31.181859 18326 net.cpp:150] Setting up twin_pred
I0417 12:09:31.181879 18326 net.cpp:157] Top shape: 1 402 (402)
I0417 12:09:31.181882 18326 net.cpp:165] Memory required for data: 10172698368
I0417 12:09:31.181891 18326 layer_factory.hpp:77] Creating layer loss_cls
I0417 12:09:31.181900 18326 net.cpp:100] Creating Layer loss_cls
I0417 12:09:31.181905 18326 net.cpp:434] loss_cls <- cls_score_cls_score_0_split_0
I0417 12:09:31.181912 18326 net.cpp:434] loss_cls <- labels_roi-data_1_split_0
I0417 12:09:31.181918 18326 net.cpp:408] loss_cls -> loss_cls
…
