…
stepsize: 350000
snapshot: 0
snapshot_prefix: "./experiments/activitynet/snapshot/activitynet"
average_loss: 100
iter_size: 1
I0416 13:09:13.948058 10061 solver.cpp:81] Creating training net from train_net file: ./experiments/activitynet/train.prototxt
I0416 13:09:13.949175 10061 net.cpp:58] Initializing net from parameters: 
name: "activitynet"
state {
  phase: TRAIN
}
layer {
  name: "data"
  type: "Python"
  top: "data"
  top: "gt_boxes"
  python_param {
    module: "roi_data_layer.layer"
    layer: "RoIDataLayer"
    param_str: "\'num_classes\': 100"
  }
}
layer {
  name: "conv1a"
  type: "Convolution"
  bottom: "data"
  top: "conv1a"
  param {
    lr_mult: 0
    decay_mult: 0
  }
  param {
    lr_mult: 0
    decay_mult: 0
  }
  convolution_param {
    num_output: 64
    pad: 1
    pad: 1
    pad: 1
    kernel_size: 3
    kernel_size: 3
    kernel_size: 3
    weight_filler {
      type: "gaussian"
      std: 0.01
    }
    bias_filler {
      type: "constant"
      value: 0
    }
  }
}
layer {
  name: "relu1a"
  type: "ReLU"
  bottom: "conv1a"
  top: "conv1a"
}
layer {
  name: "pool1"
  type: "Pooling"
  bottom: "conv1a"
  top: "pool1"
  pooling_param {
    pool: MAX
    kernel_size: 1
    kernel_size: 2
    kernel_size: 2
    stride: 1
    stride: 2
    stride: 2
  }
}
layer {
  name: "conv2a"
  type: "Convolution"
  bottom: "pool1"
  top: "conv2a"
  param {
    lr_mult: 0
    decay_mult: 0
  }
  param {
    lr_mult: 0
    decay_mult: 0
  }
  convolution_param {
    num_output: 128
    pad: 1
    pad: 1
    pad: 1
    kernel_size: 3
    kernel_size: 3
    kernel_size: 3
    weight_filler {
      type: "gaussian"
      std: 0.01
    }
    bias_filler {
      type: "constant"
      value: 1
    }
  }
}
layer {
  name: "relu2a"
  type: "ReLU"
  bottom: "conv2a"
  top: "conv2a"
}
layer {
  name: "pool2"
  type: "Pooling"
  bottom: "conv2a"
  top: "pool2"
  pooling_param {
    pool: MAX
    kernel_size: 2
    kernel_size: 2
    kernel_size: 2
    stride: 2
    stride: 2
    stride: 2
  }
}
layer {
  name: "conv3a"
  type: "Convolution"
  bottom: "pool2"
  top: "conv3a"
  param {
    lr_mult: 1
    decay_mult: 1
  }
  param {
    lr_mult: 2
    decay_mult: 0
  }
  convolution_param {
    num_output: 256
    pad: 1
    pad: 1
    pad: 1
    kernel_size: 3
    kernel_size: 3
    kernel_size: 3
    weight_filler {
      type: "gaussian"
      std: 0.01
    }
    bias_filler {
      type: "constant"
      value: 1
    }
  }
}
layer {
  name: "relu3a"
  type: "ReLU"
  bottom: "conv3a"
  top: "conv3a"
}
layer {
  name: "conv3b"
  type: "Convolution"
  bottom: "conv3a"
  top: "conv3b"
  param {
    lr_mult: 1
    decay_mult: 1
  }
  param {
    lr_mult: 2
    decay_mult: 0
  }
  convolution_param {
    num_output: 256
    pad: 1
    pad: 1
    pad: 1
    kernel_size: 3
    kernel_size: 3
    kernel_size: 3
    weight_filler {
      type: "gaussian"
      std: 0.01
    }
    bias_filler {
      type: "constant"
      value: 1
    }
  }
}
layer {
  name: "relu3b"
  type: "ReLU"
  bottom: "conv3b"
  top: "conv3b"
}
layer {
  name: "pool3"
  type: "Pooling"
  bottom: "conv3b"
  top: "pool3"
  pooling_param {
    pool: MAX
    kernel_size: 2
    kernel_size: 2
    kernel_size: 2
    stride: 2
    stride: 2
    stride: 2
  }
}
layer {
  name: "conv4a"
  type: "Convolution"
  bottom: "pool3"
  top: "conv4a"
  param {
    lr_mult: 1
    decay_mult: 1
  }
  param {
    lr_mult: 2
    decay_mult: 0
  }
  convolution_param {
    num_output: 512
    pad: 1
    pad: 1
    pad: 1
    kernel_size: 3
    kernel_size: 3
    kernel_size: 3
    weight_filler {
      type: "gaussian"
      std: 0.01
    }
    bias_filler {
      type: "constant"
      value: 1
    }
  }
}
layer {
  name: "relu4a"
  type: "ReLU"
  bottom: "conv4a"
  top: "conv4a"
}
layer {
  name: "conv4b"
  type: "Convolution"
  bottom: "conv4a"
  top: "conv4b"
  param {
    lr_mult: 1
    decay_mult: 1
  }
  param {
    lr_mult: 2
    decay_mult: 0
  }
  convolution_param {
    num_output: 512
    pad: 1
    pad: 1
    pad: 1
    kernel_size: 3
    kernel_size: 3
    kernel_size: 3
    weight_filler {
      type: "gaussian"
      std: 0.01
    }
    bias_filler {
      type: "constant"
      value: 1
    }
  }
}
layer {
  name: "relu4b"
  type: "ReLU"
  bottom: "conv4b"
  top: "conv4b"
}
layer {
  name: "pool4"
  type: "Pooling"
  bottom: "conv4b"
  top: "pool4"
  pooling_param {
    pool: MAX
    kernel_size: 2
    kernel_size: 2
    kernel_size: 2
    stride: 2
    stride: 2
    stride: 2
  }
}
layer {
  name: "conv5a"
  type: "Convolution"
  bottom: "pool4"
  top: "conv5a"
  param {
    lr_mult: 1
    decay_mult: 1
  }
  param {
    lr_mult: 2
    decay_mult: 0
  }
  convolution_param {
    num_output: 512
    pad: 1
    pad: 1
    pad: 1
    kernel_size: 3
    kernel_size: 3
    kernel_size: 3
    weight_filler {
      type: "gaussian"
      std: 0.01
    }
    bias_filler {
      type: "constant"
      value: 1
    }
  }
}
layer {
  name: "relu5a"
  type: "ReLU"
  bottom: "conv5a"
  top: "conv5a"
}
layer {
  name: "conv5b"
  type: "Convolution"
  bottom: "conv5a"
  top: "conv5b"
  param {
    lr_mult: 1
    decay_mult: 1
  }
  param {
    lr_mult: 2
    decay_mult: 0
  }
  convolution_param {
    num_output: 512
    pad: 1
    pad: 1
    pad: 1
    kernel_size: 3
    kernel_size: 3
    kernel_size: 3
    weight_filler {
      type: "gaussian"
      std: 0.01
    }
    bias_filler {
      type: "constant"
      value: 1
    }
  }
}
layer {
  name: "relu5b"
  type: "ReLU"
  bottom: "conv5b"
  top: "conv5b"
}
layer {
  name: "rpn_conv/3x3"
  type: "Convolution"
  bottom: "conv5b"
  top: "rpn/output"
  param {
    lr_mult: 1
    decay_mult: 1
  }
  param {
    lr_mult: 2
    decay_mult: 0
  }
  convolution_param {
    num_output: 512
    pad: 1
    pad: 1
    pad: 1
    kernel_size: 3
    kernel_size: 3
    kernel_size: 3
    stride: 1
    stride: 2
    stride: 2
    weight_filler {
      type: "gaussian"
      std: 0.01
    }
    bias_filler {
      type: "constant"
      value: 0
    }
  }
}
layer {
  name: "rpn_relu/3x3"
  type: "ReLU"
  bottom: "rpn/output"
  top: "rpn/output"
}
layer {
  name: "rpn_conv/3x3_2"
  type: "Convolution"
  bottom: "rpn/output"
  top: "rpn/output_2"
  param {
    lr_mult: 1
    decay_mult: 1
  }
  param {
    lr_mult: 2
    decay_mult: 0
  }
  convolution_param {
    num_output: 512
    pad: 1
    pad: 1
    pad: 1
    kernel_size: 3
    kernel_size: 3
    kernel_size: 3
    stride: 1
    stride: 2
    stride: 2
    weight_filler {
      type: "gaussian"
      std: 0.01
    }
    bias_filler {
      type: "constant"
      value: 0
    }
  }
}
layer {
  name: "rpn_relu/3x3_2"
  type: "ReLU"
  bottom: "rpn/output_2"
  top: "rpn/output_2"
}
layer {
  name: "rpn/output_pool"
  type: "Pooling"
  bottom: "rpn/output_2"
  top: "rpn/output_pool"
  pooling_param {
    pool: MAX
    kernel_size: 1
    kernel_size: 2
    kernel_size: 2
  }
}
layer {
  name: "rpn_cls_score"
  type: "Convolution"
  bottom: "rpn/output_pool"
  top: "rpn_cls_score"
  param {
    lr_mult: 1
    decay_mult: 1
  }
  param {
    lr_mult: 2
    decay_mult: 0
  }
  convolution_param {
    num_output: 74
    kernel_size: 1
    kernel_size: 1
    kernel_size: 1
    weight_filler {
      type: "gaussian"
      std: 0.01
    }
    bias_filler {
      type: "constant"
      value: 0
    }
  }
}
layer {
  name: "rpn_twin_pred"
  type: "Convolution"
  bottom: "rpn/output_pool"
  top: "rpn_twin_pred"
  param {
    lr_mult: 1
    decay_mult: 1
  }
  param {
    lr_mult: 2
    decay_mult: 0
  }
  convolution_param {
    num_output: 74
    kernel_size: 1
    kernel_size: 1
    kernel_size: 1
    weight_filler {
      type: "gaussian"
      std: 0.01
    }
    bias_filler {
      type: "constant"
      value: 0
    }
  }
}
layer {
  name: "rpn_cls_score_reshape"
  type: "Reshape"
  bottom: "rpn_cls_score"
  top: "rpn_cls_score_reshape"
  reshape_param {
    shape {
      dim: 0
      dim: 2
      dim: -1
      dim: 0
      dim: 0
    }
  }
}
layer {
  name: "rpn-data"
  type: "Python"
  bottom: "rpn_cls_score"
  bottom: "gt_boxes"
  bottom: "data"
  top: "rpn_labels"
  top: "rpn_twin_targets"
  top: "rpn_twin_inside_weights"
  top: "rpn_twin_outside_weights"
  python_param {
    module: "rpn.anchor_target_layer"
    layer: "AnchorTargetLayer"
    param_str: "\'feat_stride\': 8 \n\'scales\': !!python/tuple [1,1.25, 1.5,1.75, 2,2.5, 3,3.5, 4,4.5, 5,5.5, 6,7, 8,9,10,11,12,14,16,18,20,22,24,28,32,36,40,44,52,60,68,76,84,92,100]"
  }
}
layer {
  name: "rpn_loss_cls"
  type: "SoftmaxWithLoss"
  bottom: "rpn_cls_score_reshape"
  bottom: "rpn_labels"
  top: "rpn_cls_loss"
  loss_weight: 1
  propagate_down: true
  propagate_down: false
  loss_param {
    ignore_label: -1
    normalize: true
  }
}
layer {
  name: "rpn_loss_twin"
  type: "SmoothL1Loss"
  bottom: "rpn_twin_pred"
  bottom: "rpn_twin_targets"
  bottom: "rpn_twin_inside_weights"
  bottom: "rpn_twin_outside_weights"
  top: "rpn_loss_twin"
  loss_weight: 1
  smooth_l1_loss_param {
    sigma: 3
  }
}
layer {
  name: "rpn_accuarcy"
  type: "Accuracy"
  bottom: "rpn_cls_score_reshape"
  bottom: "rpn_labels"
  top: "rpn_accuarcy"
  top: "rpn_accuarcy_class"
  propagate_down: false
  propagate_down: false
  accuracy_param {
    ignore_label: -1
  }
}
layer {
  name: "rpn_cls_prob"
  type: "Softmax"
  bottom: "rpn_cls_score_reshape"
  top: "rpn_cls_prob"
}
layer {
  name: "rpn_cls_prob_reshape"
  type: "Reshape"
  bottom: "rpn_cls_prob"
  top: "rpn_cls_prob_reshape"
  reshape_param {
    shape {
      dim: 0
      dim: 74
      dim: -1
      dim: 0
      dim: 0
    }
  }
}
layer {
  name: "proposal"
  type: "Python"
  bottom: "rpn_cls_prob_reshape"
  bottom: "rpn_twin_pred"
  top: "rpn_rois"
  include {
    phase: TRAIN
  }
  python_param {
    module: "rpn.proposal_layer"
    layer: "ProposalLayer"
    param_str: "\'feat_stride\': 8 \n\'scales\': !!python/tuple [1,1.25, 1.5,1.75, 2,2.5, 3,3.5, 4,4.5, 5,5.5, 6,7, 8,9,10,11,12,14,16,18,20,22,24,28,32,36,40,44,52,60,68,76,84,92,100]"
  }
}
layer {
  name: "roi-data"
  type: "Python"
  bottom: "rpn_rois"
  bottom: "gt_boxes"
  top: "rois"
  top: "labels"
  top: "twin_targets"
  top: "twin_inside_weights"
  top: "twin_outside_weights"
  python_param {
    module: "rpn.proposal_target_layer"
    layer: "ProposalTargetLayer"
    param_str: "\'num_classes\': 201"
  }
}
layer {
  name: "roi_pool5"
  type: "ROIPooling"
  bottom: "conv5b"
  bottom: "rois"
  top: "pool5"
  roi_pooling_param {
    pooled_h: 4
    pooled_w: 4
    spatial_scale: 0.0625
    pooled_l: 1
    temporal_scale: 0.125
  }
}
layer {
  name: "fc6"
  type: "InnerProduct"
  bottom: "pool5"
  top: "fc6"
  param {
    lr_mult: 1
    decay_mult: 1
  }
  param {
    lr_mult: 2
    decay_mult: 0
  }
  inner_product_param {
    num_output: 4096
    weight_filler {
      type: "gaussian"
      std: 0.005
    }
    bias_filler {
      type: "constant"
      value: 1
    }
  }
}
layer {
  name: "relu6"
  type: "ReLU"
  bottom: "fc6"
  top: "fc6"
}
layer {
  name: "drop6"
  type: "Dropout"
  bottom: "fc6"
  top: "fc6"
  dropout_param {
    dropout_ratio: 0.5
  }
}
layer {
  name: "cls_score"
  type: "InnerProduct"
  bottom: "fc6"
  top: "cls_score"
  param {
    lr_mult: 1
    decay_mult: 1
  }
  param {
    lr_mult: 2
    decay_mult: 0
  }
  inner_product_param {
    num_output: 201
    weight_filler {
      type: "gaussian"
      std: 0.01
    }
    bias_filler {
      type: "constant"
      value: 0
    }
  }
}
layer {
  name: "twin_pred"
  type: "InnerProduct"
  bottom: "fc6"
  top: "twin_pred"
  param {
    lr_mult: 1
    decay_mult: 1
  }
  param {
    lr_mult: 2
    decay_mult: 0
  }
  inner_product_param {
    num_output: 402
    weight_filler {
      type: "gaussian"
      std: 0.001
    }
    bias_filler {
      type: "constant"
      value: 0
    }
  }
}
layer {
  name: "loss_cls"
  type: "SoftmaxWithLoss"
  bottom: "cls_score"
  bottom: "labels"
  top: "loss_cls"
  loss_weight: 1
  propagate_down: true
  propagate_down: false
}
layer {
  name: "loss_twin"
  type: "SmoothL1Loss"
  bottom: "twin_pred"
  bottom: "twin_targets"
  bottom: "twin_inside_weights"
  bottom: "twin_outside_weights"
  top: "loss_twin"
  loss_weight: 1
}
layer {
  name: "accuarcy"
  type: "Accuracy"
  bottom: "cls_score"
  bottom: "labels"
  top: "accuarcy"
  propagate_down: false
  propagate_down: false
  accuracy_param {
    ignore_label: -1
  }
}
I0416 13:09:13.949527 10061 layer_factory.hpp:77] Creating layer data
I0416 13:09:13.976481 10061 net.cpp:100] Creating Layer data
I0416 13:09:13.976510 10061 net.cpp:408] data -> data
I0416 13:09:13.976529 10061 net.cpp:408] data -> gt_boxes
RoiDataLayer: name_to_top: {'gt_windows': 1, 'data': 0}
I0416 13:09:13.990831 10061 net.cpp:150] Setting up data
I0416 13:09:13.990860 10061 net.cpp:157] Top shape: 1 3 768 112 112 (28901376)
I0416 13:09:13.990871 10061 net.cpp:157] Top shape: 1 101 (101)
I0416 13:09:13.990876 10061 net.cpp:165] Memory required for data: 115605908
I0416 13:09:13.990885 10061 layer_factory.hpp:77] Creating layer data_data_0_split
I0416 13:09:13.990906 10061 net.cpp:100] Creating Layer data_data_0_split
I0416 13:09:13.990914 10061 net.cpp:434] data_data_0_split <- data
I0416 13:09:13.990924 10061 net.cpp:408] data_data_0_split -> data_data_0_split_0
I0416 13:09:13.990938 10061 net.cpp:408] data_data_0_split -> data_data_0_split_1
I0416 13:09:13.991000 10061 net.cpp:150] Setting up data_data_0_split
I0416 13:09:13.991013 10061 net.cpp:157] Top shape: 1 3 768 112 112 (28901376)
I0416 13:09:13.991019 10061 net.cpp:157] Top shape: 1 3 768 112 112 (28901376)
I0416 13:09:13.991024 10061 net.cpp:165] Memory required for data: 346816916
I0416 13:09:13.991030 10061 layer_factory.hpp:77] Creating layer gt_boxes_data_1_split
I0416 13:09:13.991039 10061 net.cpp:100] Creating Layer gt_boxes_data_1_split
I0416 13:09:13.991045 10061 net.cpp:434] gt_boxes_data_1_split <- gt_boxes
I0416 13:09:13.991055 10061 net.cpp:408] gt_boxes_data_1_split -> gt_boxes_data_1_split_0
I0416 13:09:13.991065 10061 net.cpp:408] gt_boxes_data_1_split -> gt_boxes_data_1_split_1
I0416 13:09:13.991120 10061 net.cpp:150] Setting up gt_boxes_data_1_split
I0416 13:09:13.991130 10061 net.cpp:157] Top shape: 1 101 (101)
I0416 13:09:13.991137 10061 net.cpp:157] Top shape: 1 101 (101)
I0416 13:09:13.991142 10061 net.cpp:165] Memory required for data: 346817724
I0416 13:09:13.991147 10061 layer_factory.hpp:77] Creating layer conv1a
I0416 13:09:13.991170 10061 net.cpp:100] Creating Layer conv1a
I0416 13:09:13.991178 10061 net.cpp:434] conv1a <- data_data_0_split_0
I0416 13:09:13.991186 10061 net.cpp:408] conv1a -> conv1a
I0416 13:09:14.011903 10061 net.cpp:150] Setting up conv1a
I0416 13:09:14.011943 10061 net.cpp:157] Top shape: 1 64 768 112 112 (616562688)
I0416 13:09:14.011950 10061 net.cpp:165] Memory required for data: 2813068476
I0416 13:09:14.011982 10061 layer_factory.hpp:77] Creating layer relu1a
I0416 13:09:14.012003 10061 net.cpp:100] Creating Layer relu1a
I0416 13:09:14.012012 10061 net.cpp:434] relu1a <- conv1a
I0416 13:09:14.012022 10061 net.cpp:395] relu1a -> conv1a (in-place)
I0416 13:09:14.012040 10061 net.cpp:150] Setting up relu1a
I0416 13:09:14.012049 10061 net.cpp:157] Top shape: 1 64 768 112 112 (616562688)
I0416 13:09:14.012054 10061 net.cpp:165] Memory required for data: 5279319228
I0416 13:09:14.012059 10061 layer_factory.hpp:77] Creating layer pool1
I0416 13:09:14.012073 10061 net.cpp:100] Creating Layer pool1
I0416 13:09:14.012084 10061 net.cpp:434] pool1 <- conv1a
I0416 13:09:14.012094 10061 net.cpp:408] pool1 -> pool1
I0416 13:09:14.012212 10061 net.cpp:150] Setting up pool1
I0416 13:09:14.012223 10061 net.cpp:157] Top shape: 1 64 768 56 56 (154140672)
I0416 13:09:14.012228 10061 net.cpp:165] Memory required for data: 5895881916
I0416 13:09:14.012234 10061 layer_factory.hpp:77] Creating layer conv2a
I0416 13:09:14.012253 10061 net.cpp:100] Creating Layer conv2a
I0416 13:09:14.012259 10061 net.cpp:434] conv2a <- pool1
I0416 13:09:14.012269 10061 net.cpp:408] conv2a -> conv2a
I0416 13:09:14.023660 10061 net.cpp:150] Setting up conv2a
I0416 13:09:14.023689 10061 net.cpp:157] Top shape: 1 128 768 56 56 (308281344)
I0416 13:09:14.023695 10061 net.cpp:165] Memory required for data: 7129007292
I0416 13:09:14.023715 10061 layer_factory.hpp:77] Creating layer relu2a
I0416 13:09:14.023727 10061 net.cpp:100] Creating Layer relu2a
I0416 13:09:14.023736 10061 net.cpp:434] relu2a <- conv2a
I0416 13:09:14.023747 10061 net.cpp:395] relu2a -> conv2a (in-place)
I0416 13:09:14.023762 10061 net.cpp:150] Setting up relu2a
I0416 13:09:14.023774 10061 net.cpp:157] Top shape: 1 128 768 56 56 (308281344)
I0416 13:09:14.023780 10061 net.cpp:165] Memory required for data: 8362132668
I0416 13:09:14.023787 10061 layer_factory.hpp:77] Creating layer pool2
I0416 13:09:14.023802 10061 net.cpp:100] Creating Layer pool2
I0416 13:09:14.023809 10061 net.cpp:434] pool2 <- conv2a
I0416 13:09:14.023818 10061 net.cpp:408] pool2 -> pool2
I0416 13:09:14.023903 10061 net.cpp:150] Setting up pool2
I0416 13:09:14.023914 10061 net.cpp:157] Top shape: 1 128 384 28 28 (38535168)
I0416 13:09:14.023919 10061 net.cpp:165] Memory required for data: 8516273340
I0416 13:09:14.023926 10061 layer_factory.hpp:77] Creating layer conv3a
I0416 13:09:14.023942 10061 net.cpp:100] Creating Layer conv3a
I0416 13:09:14.023952 10061 net.cpp:434] conv3a <- pool2
I0416 13:09:14.023968 10061 net.cpp:408] conv3a -> conv3a
I0416 13:09:14.049104 10061 net.cpp:150] Setting up conv3a
I0416 13:09:14.049125 10061 net.cpp:157] Top shape: 1 256 384 28 28 (77070336)
I0416 13:09:14.049131 10061 net.cpp:165] Memory required for data: 8824554684
I0416 13:09:14.049149 10061 layer_factory.hpp:77] Creating layer relu3a
I0416 13:09:14.049161 10061 net.cpp:100] Creating Layer relu3a
I0416 13:09:14.049168 10061 net.cpp:434] relu3a <- conv3a
I0416 13:09:14.049180 10061 net.cpp:395] relu3a -> conv3a (in-place)
I0416 13:09:14.049193 10061 net.cpp:150] Setting up relu3a
I0416 13:09:14.049202 10061 net.cpp:157] Top shape: 1 256 384 28 28 (77070336)
I0416 13:09:14.049208 10061 net.cpp:165] Memory required for data: 9132836028
I0416 13:09:14.049213 10061 layer_factory.hpp:77] Creating layer conv3b
I0416 13:09:14.049226 10061 net.cpp:100] Creating Layer conv3b
I0416 13:09:14.049232 10061 net.cpp:434] conv3b <- conv3a
I0416 13:09:14.049244 10061 net.cpp:408] conv3b -> conv3b
I0416 13:09:14.098898 10061 net.cpp:150] Setting up conv3b
I0416 13:09:14.098925 10061 net.cpp:157] Top shape: 1 256 384 28 28 (77070336)
I0416 13:09:14.098932 10061 net.cpp:165] Memory required for data: 9441117372
I0416 13:09:14.098943 10061 layer_factory.hpp:77] Creating layer relu3b
I0416 13:09:14.098956 10061 net.cpp:100] Creating Layer relu3b
I0416 13:09:14.098966 10061 net.cpp:434] relu3b <- conv3b
I0416 13:09:14.098978 10061 net.cpp:395] relu3b -> conv3b (in-place)
I0416 13:09:14.098989 10061 net.cpp:150] Setting up relu3b
I0416 13:09:14.099000 10061 net.cpp:157] Top shape: 1 256 384 28 28 (77070336)
I0416 13:09:14.099005 10061 net.cpp:165] Memory required for data: 9749398716
I0416 13:09:14.099011 10061 layer_factory.hpp:77] Creating layer pool3
I0416 13:09:14.099021 10061 net.cpp:100] Creating Layer pool3
I0416 13:09:14.099027 10061 net.cpp:434] pool3 <- conv3b
I0416 13:09:14.099038 10061 net.cpp:408] pool3 -> pool3
I0416 13:09:14.099109 10061 net.cpp:150] Setting up pool3
I0416 13:09:14.099120 10061 net.cpp:157] Top shape: 1 256 192 14 14 (9633792)
I0416 13:09:14.099125 10061 net.cpp:165] Memory required for data: 9787933884
I0416 13:09:14.099131 10061 layer_factory.hpp:77] Creating layer conv4a
I0416 13:09:14.099148 10061 net.cpp:100] Creating Layer conv4a
I0416 13:09:14.099155 10061 net.cpp:434] conv4a <- pool3
I0416 13:09:14.099164 10061 net.cpp:408] conv4a -> conv4a
I0416 13:09:14.196897 10061 net.cpp:150] Setting up conv4a
I0416 13:09:14.196928 10061 net.cpp:157] Top shape: 1 512 192 14 14 (19267584)
I0416 13:09:14.196933 10061 net.cpp:165] Memory required for data: 9865004220
I0416 13:09:14.196952 10061 layer_factory.hpp:77] Creating layer relu4a
I0416 13:09:14.196967 10061 net.cpp:100] Creating Layer relu4a
I0416 13:09:14.196975 10061 net.cpp:434] relu4a <- conv4a
I0416 13:09:14.196985 10061 net.cpp:395] relu4a -> conv4a (in-place)
I0416 13:09:14.197000 10061 net.cpp:150] Setting up relu4a
I0416 13:09:14.197010 10061 net.cpp:157] Top shape: 1 512 192 14 14 (19267584)
I0416 13:09:14.197016 10061 net.cpp:165] Memory required for data: 9942074556
I0416 13:09:14.197021 10061 layer_factory.hpp:77] Creating layer conv4b
I0416 13:09:14.197043 10061 net.cpp:100] Creating Layer conv4b
I0416 13:09:14.197051 10061 net.cpp:434] conv4b <- conv4a
I0416 13:09:14.197060 10061 net.cpp:408] conv4b -> conv4b
I0416 13:09:14.388156 10061 net.cpp:150] Setting up conv4b
I0416 13:09:14.388182 10061 net.cpp:157] Top shape: 1 512 192 14 14 (19267584)
I0416 13:09:14.388187 10061 net.cpp:165] Memory required for data: 10019144892
I0416 13:09:14.388198 10061 layer_factory.hpp:77] Creating layer relu4b
I0416 13:09:14.388211 10061 net.cpp:100] Creating Layer relu4b
I0416 13:09:14.388217 10061 net.cpp:434] relu4b <- conv4b
I0416 13:09:14.388229 10061 net.cpp:395] relu4b -> conv4b (in-place)
I0416 13:09:14.388242 10061 net.cpp:150] Setting up relu4b
I0416 13:09:14.388252 10061 net.cpp:157] Top shape: 1 512 192 14 14 (19267584)
I0416 13:09:14.388257 10061 net.cpp:165] Memory required for data: 10096215228
I0416 13:09:14.388262 10061 layer_factory.hpp:77] Creating layer pool4
I0416 13:09:14.388273 10061 net.cpp:100] Creating Layer pool4
I0416 13:09:14.388278 10061 net.cpp:434] pool4 <- conv4b
I0416 13:09:14.388285 10061 net.cpp:408] pool4 -> pool4
I0416 13:09:14.388345 10061 net.cpp:150] Setting up pool4
I0416 13:09:14.388355 10061 net.cpp:157] Top shape: 1 512 96 7 7 (2408448)
I0416 13:09:14.388362 10061 net.cpp:165] Memory required for data: 10105849020
I0416 13:09:14.388367 10061 layer_factory.hpp:77] Creating layer conv5a
I0416 13:09:14.388381 10061 net.cpp:100] Creating Layer conv5a
I0416 13:09:14.388387 10061 net.cpp:434] conv5a <- pool4
I0416 13:09:14.388398 10061 net.cpp:408] conv5a -> conv5a
I0416 13:09:14.573878 10061 net.cpp:150] Setting up conv5a
I0416 13:09:14.573902 10061 net.cpp:157] Top shape: 1 512 96 7 7 (2408448)
I0416 13:09:14.573907 10061 net.cpp:165] Memory required for data: 10115482812
I0416 13:09:14.573920 10061 layer_factory.hpp:77] Creating layer relu5a
I0416 13:09:14.573930 10061 net.cpp:100] Creating Layer relu5a
I0416 13:09:14.573937 10061 net.cpp:434] relu5a <- conv5a
I0416 13:09:14.573949 10061 net.cpp:395] relu5a -> conv5a (in-place)
I0416 13:09:14.573961 10061 net.cpp:150] Setting up relu5a
I0416 13:09:14.573972 10061 net.cpp:157] Top shape: 1 512 96 7 7 (2408448)
I0416 13:09:14.573978 10061 net.cpp:165] Memory required for data: 10125116604
I0416 13:09:14.573983 10061 layer_factory.hpp:77] Creating layer conv5b
I0416 13:09:14.573999 10061 net.cpp:100] Creating Layer conv5b
I0416 13:09:14.574007 10061 net.cpp:434] conv5b <- conv5a
I0416 13:09:14.574015 10061 net.cpp:408] conv5b -> conv5b
I0416 13:09:14.759845 10061 net.cpp:150] Setting up conv5b
I0416 13:09:14.759871 10061 net.cpp:157] Top shape: 1 512 96 7 7 (2408448)
I0416 13:09:14.759877 10061 net.cpp:165] Memory required for data: 10134750396
I0416 13:09:14.759889 10061 layer_factory.hpp:77] Creating layer relu5b
I0416 13:09:14.759902 10061 net.cpp:100] Creating Layer relu5b
I0416 13:09:14.759908 10061 net.cpp:434] relu5b <- conv5b
I0416 13:09:14.759920 10061 net.cpp:395] relu5b -> conv5b (in-place)
I0416 13:09:14.759938 10061 net.cpp:150] Setting up relu5b
I0416 13:09:14.759948 10061 net.cpp:157] Top shape: 1 512 96 7 7 (2408448)
I0416 13:09:14.759953 10061 net.cpp:165] Memory required for data: 10144384188
I0416 13:09:14.759958 10061 layer_factory.hpp:77] Creating layer conv5b_relu5b_0_split
I0416 13:09:14.759965 10061 net.cpp:100] Creating Layer conv5b_relu5b_0_split
I0416 13:09:14.759971 10061 net.cpp:434] conv5b_relu5b_0_split <- conv5b
I0416 13:09:14.759980 10061 net.cpp:408] conv5b_relu5b_0_split -> conv5b_relu5b_0_split_0
I0416 13:09:14.759989 10061 net.cpp:408] conv5b_relu5b_0_split -> conv5b_relu5b_0_split_1
I0416 13:09:14.760047 10061 net.cpp:150] Setting up conv5b_relu5b_0_split
I0416 13:09:14.760057 10061 net.cpp:157] Top shape: 1 512 96 7 7 (2408448)
I0416 13:09:14.760063 10061 net.cpp:157] Top shape: 1 512 96 7 7 (2408448)
I0416 13:09:14.760068 10061 net.cpp:165] Memory required for data: 10163651772
I0416 13:09:14.760073 10061 layer_factory.hpp:77] Creating layer rpn_conv/3x3
I0416 13:09:14.760090 10061 net.cpp:100] Creating Layer rpn_conv/3x3
I0416 13:09:14.760097 10061 net.cpp:434] rpn_conv/3x3 <- conv5b_relu5b_0_split_0
I0416 13:09:14.760109 10061 net.cpp:408] rpn_conv/3x3 -> rpn/output
I0416 13:09:14.947144 10061 net.cpp:150] Setting up rpn_conv/3x3
I0416 13:09:14.947170 10061 net.cpp:157] Top shape: 1 512 96 4 4 (786432)
I0416 13:09:14.947176 10061 net.cpp:165] Memory required for data: 10166797500
I0416 13:09:14.947196 10061 layer_factory.hpp:77] Creating layer rpn_relu/3x3
I0416 13:09:14.947212 10061 net.cpp:100] Creating Layer rpn_relu/3x3
I0416 13:09:14.947223 10061 net.cpp:434] rpn_relu/3x3 <- rpn/output
I0416 13:09:14.947233 10061 net.cpp:395] rpn_relu/3x3 -> rpn/output (in-place)
I0416 13:09:14.947245 10061 net.cpp:150] Setting up rpn_relu/3x3
I0416 13:09:14.947254 10061 net.cpp:157] Top shape: 1 512 96 4 4 (786432)
I0416 13:09:14.947258 10061 net.cpp:165] Memory required for data: 10169943228
I0416 13:09:14.947264 10061 layer_factory.hpp:77] Creating layer rpn_conv/3x3_2
I0416 13:09:14.947280 10061 net.cpp:100] Creating Layer rpn_conv/3x3_2
I0416 13:09:14.947288 10061 net.cpp:434] rpn_conv/3x3_2 <- rpn/output
I0416 13:09:14.947298 10061 net.cpp:408] rpn_conv/3x3_2 -> rpn/output_2
I0416 13:09:15.135054 10061 net.cpp:150] Setting up rpn_conv/3x3_2
I0416 13:09:15.135082 10061 net.cpp:157] Top shape: 1 512 96 2 2 (196608)
I0416 13:09:15.135087 10061 net.cpp:165] Memory required for data: 10170729660
I0416 13:09:15.135098 10061 layer_factory.hpp:77] Creating layer rpn_relu/3x3_2
I0416 13:09:15.135110 10061 net.cpp:100] Creating Layer rpn_relu/3x3_2
I0416 13:09:15.135118 10061 net.cpp:434] rpn_relu/3x3_2 <- rpn/output_2
I0416 13:09:15.135131 10061 net.cpp:395] rpn_relu/3x3_2 -> rpn/output_2 (in-place)
I0416 13:09:15.135149 10061 net.cpp:150] Setting up rpn_relu/3x3_2
I0416 13:09:15.135159 10061 net.cpp:157] Top shape: 1 512 96 2 2 (196608)
I0416 13:09:15.135164 10061 net.cpp:165] Memory required for data: 10171516092
I0416 13:09:15.135169 10061 layer_factory.hpp:77] Creating layer rpn/output_pool
I0416 13:09:15.135179 10061 net.cpp:100] Creating Layer rpn/output_pool
I0416 13:09:15.135185 10061 net.cpp:434] rpn/output_pool <- rpn/output_2
I0416 13:09:15.135195 10061 net.cpp:408] rpn/output_pool -> rpn/output_pool
I0416 13:09:15.135252 10061 net.cpp:150] Setting up rpn/output_pool
I0416 13:09:15.135262 10061 net.cpp:157] Top shape: 1 512 96 1 1 (49152)
I0416 13:09:15.135267 10061 net.cpp:165] Memory required for data: 10171712700
I0416 13:09:15.135272 10061 layer_factory.hpp:77] Creating layer rpn/output_pool_rpn/output_pool_0_split
I0416 13:09:15.135282 10061 net.cpp:100] Creating Layer rpn/output_pool_rpn/output_pool_0_split
I0416 13:09:15.135288 10061 net.cpp:434] rpn/output_pool_rpn/output_pool_0_split <- rpn/output_pool
I0416 13:09:15.135294 10061 net.cpp:408] rpn/output_pool_rpn/output_pool_0_split -> rpn/output_pool_rpn/output_pool_0_split_0
I0416 13:09:15.135305 10061 net.cpp:408] rpn/output_pool_rpn/output_pool_0_split -> rpn/output_pool_rpn/output_pool_0_split_1
I0416 13:09:15.135356 10061 net.cpp:150] Setting up rpn/output_pool_rpn/output_pool_0_split
I0416 13:09:15.135366 10061 net.cpp:157] Top shape: 1 512 96 1 1 (49152)
I0416 13:09:15.135372 10061 net.cpp:157] Top shape: 1 512 96 1 1 (49152)
I0416 13:09:15.135377 10061 net.cpp:165] Memory required for data: 10172105916
I0416 13:09:15.135382 10061 layer_factory.hpp:77] Creating layer rpn_cls_score
I0416 13:09:15.135399 10061 net.cpp:100] Creating Layer rpn_cls_score
I0416 13:09:15.135406 10061 net.cpp:434] rpn_cls_score <- rpn/output_pool_rpn/output_pool_0_split_0
I0416 13:09:15.135413 10061 net.cpp:408] rpn_cls_score -> rpn_cls_score
I0416 13:09:15.136672 10061 net.cpp:150] Setting up rpn_cls_score
I0416 13:09:15.136682 10061 net.cpp:157] Top shape: 1 74 96 1 1 (7104)
I0416 13:09:15.136687 10061 net.cpp:165] Memory required for data: 10172134332
I0416 13:09:15.136696 10061 layer_factory.hpp:77] Creating layer rpn_cls_score_rpn_cls_score_0_split
I0416 13:09:15.136704 10061 net.cpp:100] Creating Layer rpn_cls_score_rpn_cls_score_0_split
I0416 13:09:15.136710 10061 net.cpp:434] rpn_cls_score_rpn_cls_score_0_split <- rpn_cls_score
I0416 13:09:15.136719 10061 net.cpp:408] rpn_cls_score_rpn_cls_score_0_split -> rpn_cls_score_rpn_cls_score_0_split_0
I0416 13:09:15.136729 10061 net.cpp:408] rpn_cls_score_rpn_cls_score_0_split -> rpn_cls_score_rpn_cls_score_0_split_1
I0416 13:09:15.136785 10061 net.cpp:150] Setting up rpn_cls_score_rpn_cls_score_0_split
I0416 13:09:15.136795 10061 net.cpp:157] Top shape: 1 74 96 1 1 (7104)
I0416 13:09:15.136801 10061 net.cpp:157] Top shape: 1 74 96 1 1 (7104)
I0416 13:09:15.136806 10061 net.cpp:165] Memory required for data: 10172191164
I0416 13:09:15.136811 10061 layer_factory.hpp:77] Creating layer rpn_twin_pred
I0416 13:09:15.136828 10061 net.cpp:100] Creating Layer rpn_twin_pred
I0416 13:09:15.136837 10061 net.cpp:434] rpn_twin_pred <- rpn/output_pool_rpn/output_pool_0_split_1
I0416 13:09:15.136847 10061 net.cpp:408] rpn_twin_pred -> rpn_twin_pred
I0416 13:09:15.138085 10061 net.cpp:150] Setting up rpn_twin_pred
I0416 13:09:15.138097 10061 net.cpp:157] Top shape: 1 74 96 1 1 (7104)
I0416 13:09:15.138101 10061 net.cpp:165] Memory required for data: 10172219580
I0416 13:09:15.138109 10061 layer_factory.hpp:77] Creating layer rpn_twin_pred_rpn_twin_pred_0_split
I0416 13:09:15.138118 10061 net.cpp:100] Creating Layer rpn_twin_pred_rpn_twin_pred_0_split
I0416 13:09:15.138123 10061 net.cpp:434] rpn_twin_pred_rpn_twin_pred_0_split <- rpn_twin_pred
I0416 13:09:15.138130 10061 net.cpp:408] rpn_twin_pred_rpn_twin_pred_0_split -> rpn_twin_pred_rpn_twin_pred_0_split_0
I0416 13:09:15.138139 10061 net.cpp:408] rpn_twin_pred_rpn_twin_pred_0_split -> rpn_twin_pred_rpn_twin_pred_0_split_1
I0416 13:09:15.138190 10061 net.cpp:150] Setting up rpn_twin_pred_rpn_twin_pred_0_split
I0416 13:09:15.138201 10061 net.cpp:157] Top shape: 1 74 96 1 1 (7104)
I0416 13:09:15.138208 10061 net.cpp:157] Top shape: 1 74 96 1 1 (7104)
I0416 13:09:15.138213 10061 net.cpp:165] Memory required for data: 10172276412
I0416 13:09:15.138218 10061 layer_factory.hpp:77] Creating layer rpn_cls_score_reshape
I0416 13:09:15.138232 10061 net.cpp:100] Creating Layer rpn_cls_score_reshape
I0416 13:09:15.138240 10061 net.cpp:434] rpn_cls_score_reshape <- rpn_cls_score_rpn_cls_score_0_split_0
I0416 13:09:15.138248 10061 net.cpp:408] rpn_cls_score_reshape -> rpn_cls_score_reshape
I0416 13:09:15.138291 10061 net.cpp:150] Setting up rpn_cls_score_reshape
I0416 13:09:15.138300 10061 net.cpp:157] Top shape: 1 2 3552 1 1 (7104)
I0416 13:09:15.138305 10061 net.cpp:165] Memory required for data: 10172304828
I0416 13:09:15.138310 10061 layer_factory.hpp:77] Creating layer rpn_cls_score_reshape_rpn_cls_score_reshape_0_split
I0416 13:09:15.138319 10061 net.cpp:100] Creating Layer rpn_cls_score_reshape_rpn_cls_score_reshape_0_split
I0416 13:09:15.138324 10061 net.cpp:434] rpn_cls_score_reshape_rpn_cls_score_reshape_0_split <- rpn_cls_score_reshape
I0416 13:09:15.138331 10061 net.cpp:408] rpn_cls_score_reshape_rpn_cls_score_reshape_0_split -> rpn_cls_score_reshape_rpn_cls_score_reshape_0_split_0
I0416 13:09:15.138347 10061 net.cpp:408] rpn_cls_score_reshape_rpn_cls_score_reshape_0_split -> rpn_cls_score_reshape_rpn_cls_score_reshape_0_split_1
I0416 13:09:15.138358 10061 net.cpp:408] rpn_cls_score_reshape_rpn_cls_score_reshape_0_split -> rpn_cls_score_reshape_rpn_cls_score_reshape_0_split_2
I0416 13:09:15.138418 10061 net.cpp:150] Setting up rpn_cls_score_reshape_rpn_cls_score_reshape_0_split
I0416 13:09:15.138427 10061 net.cpp:157] Top shape: 1 2 3552 1 1 (7104)
I0416 13:09:15.138434 10061 net.cpp:157] Top shape: 1 2 3552 1 1 (7104)
I0416 13:09:15.138440 10061 net.cpp:157] Top shape: 1 2 3552 1 1 (7104)
I0416 13:09:15.138444 10061 net.cpp:165] Memory required for data: 10172390076
I0416 13:09:15.138449 10061 layer_factory.hpp:77] Creating layer rpn-data
I0416 13:09:15.138870 10061 net.cpp:100] Creating Layer rpn-data
I0416 13:09:15.138882 10061 net.cpp:434] rpn-data <- rpn_cls_score_rpn_cls_score_0_split_1
I0416 13:09:15.138890 10061 net.cpp:434] rpn-data <- gt_boxes_data_1_split_0
I0416 13:09:15.138898 10061 net.cpp:434] rpn-data <- data_data_0_split_1
I0416 13:09:15.138907 10061 net.cpp:408] rpn-data -> rpn_labels
I0416 13:09:15.138918 10061 net.cpp:408] rpn-data -> rpn_twin_targets
I0416 13:09:15.138928 10061 net.cpp:408] rpn-data -> rpn_twin_inside_weights
I0416 13:09:15.138941 10061 net.cpp:408] rpn-data -> rpn_twin_outside_weights
I0416 13:09:15.141458 10061 net.cpp:150] Setting up rpn-data
I0416 13:09:15.141474 10061 net.cpp:157] Top shape: 1 1 3552 1 1 (3552)
I0416 13:09:15.141480 10061 net.cpp:157] Top shape: 1 74 96 1 1 (7104)
I0416 13:09:15.141487 10061 net.cpp:157] Top shape: 1 74 96 1 1 (7104)
I0416 13:09:15.141494 10061 net.cpp:157] Top shape: 1 74 96 1 1 (7104)
I0416 13:09:15.141499 10061 net.cpp:165] Memory required for data: 10172489532
I0416 13:09:15.141505 10061 layer_factory.hpp:77] Creating layer rpn_labels_rpn-data_0_split
I0416 13:09:15.141512 10061 net.cpp:100] Creating Layer rpn_labels_rpn-data_0_split
I0416 13:09:15.141518 10061 net.cpp:434] rpn_labels_rpn-data_0_split <- rpn_labels
I0416 13:09:15.141527 10061 net.cpp:408] rpn_labels_rpn-data_0_split -> rpn_labels_rpn-data_0_split_0
I0416 13:09:15.141537 10061 net.cpp:408] rpn_labels_rpn-data_0_split -> rpn_labels_rpn-data_0_split_1
I0416 13:09:15.141587 10061 net.cpp:150] Setting up rpn_labels_rpn-data_0_split
I0416 13:09:15.141595 10061 net.cpp:157] Top shape: 1 1 3552 1 1 (3552)
I0416 13:09:15.141602 10061 net.cpp:157] Top shape: 1 1 3552 1 1 (3552)
I0416 13:09:15.141607 10061 net.cpp:165] Memory required for data: 10172517948
I0416 13:09:15.141613 10061 layer_factory.hpp:77] Creating layer rpn_loss_cls
I0416 13:09:15.141624 10061 net.cpp:100] Creating Layer rpn_loss_cls
I0416 13:09:15.141630 10061 net.cpp:434] rpn_loss_cls <- rpn_cls_score_reshape_rpn_cls_score_reshape_0_split_0
I0416 13:09:15.141638 10061 net.cpp:434] rpn_loss_cls <- rpn_labels_rpn-data_0_split_0
…
I0416 13:09:15.141999 10061 layer_factory.hpp:77] Creating layer rpn_accuarcy
I0416 13:09:15.142010 10061 net.cpp:100] Creating Layer rpn_accuarcy
I0416 13:09:15.142017 10061 net.cpp:434] rpn_accuarcy <- rpn_cls_score_reshape_rpn_cls_score_reshape_0_split_1
I0416 13:09:15.142024 10061 net.cpp:434] rpn_accuarcy <- rpn_labels_rpn-data_0_split_1
I0416 13:09:15.142031 10061 net.cpp:408] rpn_accuarcy -> rpn_accuarcy
I0416 13:09:15.142041 10061 net.cpp:408] rpn_accuarcy -> rpn_accuarcy_class
I0416 13:09:15.142096 10061 net.cpp:150] Setting up rpn_accuarcy
I0416 13:09:15.142105 10061 net.cpp:157] Top shape: (1)
I0416 13:09:15.142112 10061 net.cpp:157] Top shape: 2 (2)
I0416 13:09:15.142117 10061 net.cpp:165] Memory required for data: 10172517968
I0416 13:09:15.142122 10061 layer_factory.hpp:77] Creating layer rpn_cls_prob
I0416 13:09:15.142129 10061 net.cpp:100] Creating Layer rpn_cls_prob
I0416 13:09:15.142135 10061 net.cpp:434] rpn_cls_prob <- rpn_cls_score_reshape_rpn_cls_score_reshape_0_split_2
I0416 13:09:15.142143 10061 net.cpp:408] rpn_cls_prob -> rpn_cls_prob
I0416 13:09:15.142222 10061 net.cpp:150] Setting up rpn_cls_prob
I0416 13:09:15.142231 10061 net.cpp:157] Top shape: 1 2 3552 1 1 (7104)
I0416 13:09:15.142236 10061 net.cpp:165] Memory required for data: 10172546384
I0416 13:09:15.142241 10061 layer_factory.hpp:77] Creating layer rpn_cls_prob_reshape
I0416 13:09:15.142252 10061 net.cpp:100] Creating Layer rpn_cls_prob_reshape
I0416 13:09:15.142258 10061 net.cpp:434] rpn_cls_prob_reshape <- rpn_cls_prob
I0416 13:09:15.142266 10061 net.cpp:408] rpn_cls_prob_reshape -> rpn_cls_prob_reshape
I0416 13:09:15.142302 10061 net.cpp:150] Setting up rpn_cls_prob_reshape
I0416 13:09:15.142312 10061 net.cpp:157] Top shape: 1 74 96 1 1 (7104)
I0416 13:09:15.142315 10061 net.cpp:165] Memory required for data: 10172574800
I0416 13:09:15.142321 10061 layer_factory.hpp:77] Creating layer proposal
I0416 13:09:15.142889 10061 net.cpp:100] Creating Layer proposal
I0416 13:09:15.142904 10061 net.cpp:434] proposal <- rpn_cls_prob_reshape
I0416 13:09:15.142910 10061 net.cpp:434] proposal <- rpn_twin_pred_rpn_twin_pred_0_split_1
I0416 13:09:15.142920 10061 net.cpp:408] proposal -> rpn_rois
I0416 13:09:15.145129 10061 net.cpp:150] Setting up proposal
I0416 13:09:15.145144 10061 net.cpp:157] Top shape: 1 3 (3)
I0416 13:09:15.145149 10061 net.cpp:165] Memory required for data: 10172574812
I0416 13:09:15.145155 10061 layer_factory.hpp:77] Creating layer roi-data
I0416 13:09:15.145293 10061 net.cpp:100] Creating Layer roi-data
I0416 13:09:15.145304 10061 net.cpp:434] roi-data <- rpn_rois
I0416 13:09:15.145313 10061 net.cpp:434] roi-data <- gt_boxes_data_1_split_1
I0416 13:09:15.145321 10061 net.cpp:408] roi-data -> rois
I0416 13:09:15.145334 10061 net.cpp:408] roi-data -> labels
I0416 13:09:15.145344 10061 net.cpp:408] roi-data -> twin_targets
I0416 13:09:15.145354 10061 net.cpp:408] roi-data -> twin_inside_weights
I0416 13:09:15.145364 10061 net.cpp:408] roi-data -> twin_outside_weights
I0416 13:09:15.145701 10061 net.cpp:150] Setting up roi-data
I0416 13:09:15.145715 10061 net.cpp:157] Top shape: 1 3 (3)
I0416 13:09:15.145722 10061 net.cpp:157] Top shape: 1 1 (1)
I0416 13:09:15.145730 10061 net.cpp:157] Top shape: 1 402 (402)
I0416 13:09:15.145735 10061 net.cpp:157] Top shape: 1 402 (402)
I0416 13:09:15.145741 10061 net.cpp:157] Top shape: 1 402 (402)
I0416 13:09:15.145746 10061 net.cpp:165] Memory required for data: 10172579652
I0416 13:09:15.145752 10061 layer_factory.hpp:77] Creating layer labels_roi-data_1_split
I0416 13:09:15.145761 10061 net.cpp:100] Creating Layer labels_roi-data_1_split
I0416 13:09:15.145766 10061 net.cpp:434] labels_roi-data_1_split <- labels
I0416 13:09:15.145776 10061 net.cpp:408] labels_roi-data_1_split -> labels_roi-data_1_split_0
I0416 13:09:15.145784 10061 net.cpp:408] labels_roi-data_1_split -> labels_roi-data_1_split_1
I0416 13:09:15.145838 10061 net.cpp:150] Setting up labels_roi-data_1_split
I0416 13:09:15.145848 10061 net.cpp:157] Top shape: 1 1 (1)
I0416 13:09:15.145853 10061 net.cpp:157] Top shape: 1 1 (1)
I0416 13:09:15.145859 10061 net.cpp:165] Memory required for data: 10172579660
I0416 13:09:15.145864 10061 layer_factory.hpp:77] Creating layer roi_pool5
I0416 13:09:15.145874 10061 net.cpp:100] Creating Layer roi_pool5
I0416 13:09:15.145881 10061 net.cpp:434] roi_pool5 <- conv5b_relu5b_0_split_1
I0416 13:09:15.145889 10061 net.cpp:434] roi_pool5 <- rois
I0416 13:09:15.145896 10061 net.cpp:408] roi_pool5 -> pool5
I0416 13:09:15.145907 10061 roi_pooling_layer.cpp:34] Temporal scale: 0.125
I0416 13:09:15.145918 10061 roi_pooling_layer.cpp:35] Spatial scale: 0.0625
I0416 13:09:15.145972 10061 net.cpp:150] Setting up roi_pool5
I0416 13:09:15.145982 10061 net.cpp:157] Top shape: 1 512 1 4 4 (8192)
I0416 13:09:15.145985 10061 net.cpp:165] Memory required for data: 10172612428
I0416 13:09:15.145992 10061 layer_factory.hpp:77] Creating layer fc6
I0416 13:09:15.146003 10061 net.cpp:100] Creating Layer fc6
I0416 13:09:15.146009 10061 net.cpp:434] fc6 <- pool5
I0416 13:09:15.146018 10061 net.cpp:408] fc6 -> fc6
I0416 13:09:16.027854 10061 net.cpp:150] Setting up fc6
I0416 13:09:16.027879 10061 net.cpp:157] Top shape: 1 4096 (4096)
I0416 13:09:16.027884 10061 net.cpp:165] Memory required for data: 10172628812
I0416 13:09:16.027906 10061 layer_factory.hpp:77] Creating layer relu6
I0416 13:09:16.027921 10061 net.cpp:100] Creating Layer relu6
I0416 13:09:16.027930 10061 net.cpp:434] relu6 <- fc6
I0416 13:09:16.027940 10061 net.cpp:395] relu6 -> fc6 (in-place)
I0416 13:09:16.027957 10061 net.cpp:150] Setting up relu6
I0416 13:09:16.027967 10061 net.cpp:157] Top shape: 1 4096 (4096)
I0416 13:09:16.027972 10061 net.cpp:165] Memory required for data: 10172645196
I0416 13:09:16.027978 10061 layer_factory.hpp:77] Creating layer drop6
I0416 13:09:16.027992 10061 net.cpp:100] Creating Layer drop6
I0416 13:09:16.027999 10061 net.cpp:434] drop6 <- fc6
I0416 13:09:16.028007 10061 net.cpp:395] drop6 -> fc6 (in-place)
I0416 13:09:16.028045 10061 net.cpp:150] Setting up drop6
I0416 13:09:16.028055 10061 net.cpp:157] Top shape: 1 4096 (4096)
I0416 13:09:16.028060 10061 net.cpp:165] Memory required for data: 10172661580
I0416 13:09:16.028065 10061 layer_factory.hpp:77] Creating layer fc6_drop6_0_split
I0416 13:09:16.028079 10061 net.cpp:100] Creating Layer fc6_drop6_0_split
I0416 13:09:16.028084 10061 net.cpp:434] fc6_drop6_0_split <- fc6
I0416 13:09:16.028091 10061 net.cpp:408] fc6_drop6_0_split -> fc6_drop6_0_split_0
I0416 13:09:16.028101 10061 net.cpp:408] fc6_drop6_0_split -> fc6_drop6_0_split_1
I0416 13:09:16.028153 10061 net.cpp:150] Setting up fc6_drop6_0_split
I0416 13:09:16.028162 10061 net.cpp:157] Top shape: 1 4096 (4096)
I0416 13:09:16.028168 10061 net.cpp:157] Top shape: 1 4096 (4096)
I0416 13:09:16.028173 10061 net.cpp:165] Memory required for data: 10172694348
I0416 13:09:16.028178 10061 layer_factory.hpp:77] Creating layer cls_score
I0416 13:09:16.028190 10061 net.cpp:100] Creating Layer cls_score
I0416 13:09:16.028198 10061 net.cpp:434] cls_score <- fc6_drop6_0_split_0
I0416 13:09:16.028205 10061 net.cpp:408] cls_score -> cls_score
I0416 13:09:16.049664 10061 net.cpp:150] Setting up cls_score
I0416 13:09:16.049677 10061 net.cpp:157] Top shape: 1 201 (201)
I0416 13:09:16.049682 10061 net.cpp:165] Memory required for data: 10172695152
I0416 13:09:16.049691 10061 layer_factory.hpp:77] Creating layer cls_score_cls_score_0_split
I0416 13:09:16.049700 10061 net.cpp:100] Creating Layer cls_score_cls_score_0_split
I0416 13:09:16.049706 10061 net.cpp:434] cls_score_cls_score_0_split <- cls_score
I0416 13:09:16.049713 10061 net.cpp:408] cls_score_cls_score_0_split -> cls_score_cls_score_0_split_0
I0416 13:09:16.049722 10061 net.cpp:408] cls_score_cls_score_0_split -> cls_score_cls_score_0_split_1
I0416 13:09:16.049778 10061 net.cpp:150] Setting up cls_score_cls_score_0_split
I0416 13:09:16.049787 10061 net.cpp:157] Top shape: 1 201 (201)
I0416 13:09:16.049794 10061 net.cpp:157] Top shape: 1 201 (201)
I0416 13:09:16.049799 10061 net.cpp:165] Memory required for data: 10172696760
I0416 13:09:16.049804 10061 layer_factory.hpp:77] Creating layer twin_pred
I0416 13:09:16.049813 10061 net.cpp:100] Creating Layer twin_pred
I0416 13:09:16.049819 10061 net.cpp:434] twin_pred <- fc6_drop6_0_split_1
I0416 13:09:16.049832 10061 net.cpp:408] twin_pred -> twin_pred
I0416 13:09:16.093014 10061 net.cpp:150] Setting up twin_pred
I0416 13:09:16.093036 10061 net.cpp:157] Top shape: 1 402 (402)
I0416 13:09:16.093041 10061 net.cpp:165] Memory required for data: 10172698368
I0416 13:09:16.093053 10061 layer_factory.hpp:77] Creating layer loss_cls
I0416 13:09:16.093063 10061 net.cpp:100] Creating Layer loss_cls
I0416 13:09:16.093070 10061 net.cpp:434] loss_cls <- cls_score_cls_score_0_split_0
I0416 13:09:16.093080 10061 net.cpp:434] loss_cls <- labels_roi-data_1_split_0
I0416 13:09:16.093088 10061 net.cpp:408] loss_cls -> loss_cls
…
