…
stepsize: 350000
snapshot: 0
snapshot_prefix: "./experiments/activitynet/snapshot/activitynet"
average_loss: 100
iter_size: 1
I0417 12:10:40.913000 22830 solver.cpp:81] Creating training net from train_net file: ./experiments/activitynet/train.prototxt
I0417 12:10:40.914103 22830 net.cpp:58] Initializing net from parameters: 
name: "activitynet"
state {
  phase: TRAIN
}
layer {
  name: "data"
  type: "Python"
  top: "data"
  top: "gt_boxes"
  python_param {
    module: "roi_data_layer.layer"
    layer: "RoIDataLayer"
    param_str: "\'num_classes\': 100"
  }
}
layer {
  name: "conv1a"
  type: "Convolution"
  bottom: "data"
  top: "conv1a"
  param {
    lr_mult: 0
    decay_mult: 0
  }
  param {
    lr_mult: 0
    decay_mult: 0
  }
  convolution_param {
    num_output: 64
    pad: 1
    pad: 1
    pad: 1
    kernel_size: 3
    kernel_size: 3
    kernel_size: 3
    weight_filler {
      type: "gaussian"
      std: 0.01
    }
    bias_filler {
      type: "constant"
      value: 0
    }
  }
}
layer {
  name: "relu1a"
  type: "ReLU"
  bottom: "conv1a"
  top: "conv1a"
}
layer {
  name: "pool1"
  type: "Pooling"
  bottom: "conv1a"
  top: "pool1"
  pooling_param {
    pool: MAX
    kernel_size: 1
    kernel_size: 2
    kernel_size: 2
    stride: 1
    stride: 2
    stride: 2
  }
}
layer {
  name: "conv2a"
  type: "Convolution"
  bottom: "pool1"
  top: "conv2a"
  param {
    lr_mult: 0
    decay_mult: 0
  }
  param {
    lr_mult: 0
    decay_mult: 0
  }
  convolution_param {
    num_output: 128
    pad: 1
    pad: 1
    pad: 1
    kernel_size: 3
    kernel_size: 3
    kernel_size: 3
    weight_filler {
      type: "gaussian"
      std: 0.01
    }
    bias_filler {
      type: "constant"
      value: 1
    }
  }
}
layer {
  name: "relu2a"
  type: "ReLU"
  bottom: "conv2a"
  top: "conv2a"
}
layer {
  name: "pool2"
  type: "Pooling"
  bottom: "conv2a"
  top: "pool2"
  pooling_param {
    pool: MAX
    kernel_size: 2
    kernel_size: 2
    kernel_size: 2
    stride: 2
    stride: 2
    stride: 2
  }
}
layer {
  name: "conv3a"
  type: "Convolution"
  bottom: "pool2"
  top: "conv3a"
  param {
    lr_mult: 1
    decay_mult: 1
  }
  param {
    lr_mult: 2
    decay_mult: 0
  }
  convolution_param {
    num_output: 256
    pad: 1
    pad: 1
    pad: 1
    kernel_size: 3
    kernel_size: 3
    kernel_size: 3
    weight_filler {
      type: "gaussian"
      std: 0.01
    }
    bias_filler {
      type: "constant"
      value: 1
    }
  }
}
layer {
  name: "relu3a"
  type: "ReLU"
  bottom: "conv3a"
  top: "conv3a"
}
layer {
  name: "conv3b"
  type: "Convolution"
  bottom: "conv3a"
  top: "conv3b"
  param {
    lr_mult: 1
    decay_mult: 1
  }
  param {
    lr_mult: 2
    decay_mult: 0
  }
  convolution_param {
    num_output: 256
    pad: 1
    pad: 1
    pad: 1
    kernel_size: 3
    kernel_size: 3
    kernel_size: 3
    weight_filler {
      type: "gaussian"
      std: 0.01
    }
    bias_filler {
      type: "constant"
      value: 1
    }
  }
}
layer {
  name: "relu3b"
  type: "ReLU"
  bottom: "conv3b"
  top: "conv3b"
}
layer {
  name: "pool3"
  type: "Pooling"
  bottom: "conv3b"
  top: "pool3"
  pooling_param {
    pool: MAX
    kernel_size: 2
    kernel_size: 2
    kernel_size: 2
    stride: 2
    stride: 2
    stride: 2
  }
}
layer {
  name: "conv4a"
  type: "Convolution"
  bottom: "pool3"
  top: "conv4a"
  param {
    lr_mult: 1
    decay_mult: 1
  }
  param {
    lr_mult: 2
    decay_mult: 0
  }
  convolution_param {
    num_output: 512
    pad: 1
    pad: 1
    pad: 1
    kernel_size: 3
    kernel_size: 3
    kernel_size: 3
    weight_filler {
      type: "gaussian"
      std: 0.01
    }
    bias_filler {
      type: "constant"
      value: 1
    }
  }
}
layer {
  name: "relu4a"
  type: "ReLU"
  bottom: "conv4a"
  top: "conv4a"
}
layer {
  name: "conv4b"
  type: "Convolution"
  bottom: "conv4a"
  top: "conv4b"
  param {
    lr_mult: 1
    decay_mult: 1
  }
  param {
    lr_mult: 2
    decay_mult: 0
  }
  convolution_param {
    num_output: 512
    pad: 1
    pad: 1
    pad: 1
    kernel_size: 3
    kernel_size: 3
    kernel_size: 3
    weight_filler {
      type: "gaussian"
      std: 0.01
    }
    bias_filler {
      type: "constant"
      value: 1
    }
  }
}
layer {
  name: "relu4b"
  type: "ReLU"
  bottom: "conv4b"
  top: "conv4b"
}
layer {
  name: "pool4"
  type: "Pooling"
  bottom: "conv4b"
  top: "pool4"
  pooling_param {
    pool: MAX
    kernel_size: 2
    kernel_size: 2
    kernel_size: 2
    stride: 2
    stride: 2
    stride: 2
  }
}
layer {
  name: "conv5a"
  type: "Convolution"
  bottom: "pool4"
  top: "conv5a"
  param {
    lr_mult: 1
    decay_mult: 1
  }
  param {
    lr_mult: 2
    decay_mult: 0
  }
  convolution_param {
    num_output: 512
    pad: 1
    pad: 1
    pad: 1
    kernel_size: 3
    kernel_size: 3
    kernel_size: 3
    weight_filler {
      type: "gaussian"
      std: 0.01
    }
    bias_filler {
      type: "constant"
      value: 1
    }
  }
}
layer {
  name: "relu5a"
  type: "ReLU"
  bottom: "conv5a"
  top: "conv5a"
}
layer {
  name: "conv5b"
  type: "Convolution"
  bottom: "conv5a"
  top: "conv5b"
  param {
    lr_mult: 1
    decay_mult: 1
  }
  param {
    lr_mult: 2
    decay_mult: 0
  }
  convolution_param {
    num_output: 512
    pad: 1
    pad: 1
    pad: 1
    kernel_size: 3
    kernel_size: 3
    kernel_size: 3
    weight_filler {
      type: "gaussian"
      std: 0.01
    }
    bias_filler {
      type: "constant"
      value: 1
    }
  }
}
layer {
  name: "relu5b"
  type: "ReLU"
  bottom: "conv5b"
  top: "conv5b"
}
layer {
  name: "rpn_conv/3x3"
  type: "Convolution"
  bottom: "conv5b"
  top: "rpn/output"
  param {
    lr_mult: 1
    decay_mult: 1
  }
  param {
    lr_mult: 2
    decay_mult: 0
  }
  convolution_param {
    num_output: 512
    pad: 1
    pad: 1
    pad: 1
    kernel_size: 3
    kernel_size: 3
    kernel_size: 3
    stride: 1
    stride: 2
    stride: 2
    weight_filler {
      type: "gaussian"
      std: 0.01
    }
    bias_filler {
      type: "constant"
      value: 0
    }
  }
}
layer {
  name: "rpn_relu/3x3"
  type: "ReLU"
  bottom: "rpn/output"
  top: "rpn/output"
}
layer {
  name: "rpn_conv/3x3_2"
  type: "Convolution"
  bottom: "rpn/output"
  top: "rpn/output_2"
  param {
    lr_mult: 1
    decay_mult: 1
  }
  param {
    lr_mult: 2
    decay_mult: 0
  }
  convolution_param {
    num_output: 512
    pad: 1
    pad: 1
    pad: 1
    kernel_size: 3
    kernel_size: 3
    kernel_size: 3
    stride: 1
    stride: 2
    stride: 2
    weight_filler {
      type: "gaussian"
      std: 0.01
    }
    bias_filler {
      type: "constant"
      value: 0
    }
  }
}
layer {
  name: "rpn_relu/3x3_2"
  type: "ReLU"
  bottom: "rpn/output_2"
  top: "rpn/output_2"
}
layer {
  name: "rpn/output_pool"
  type: "Pooling"
  bottom: "rpn/output_2"
  top: "rpn/output_pool"
  pooling_param {
    pool: MAX
    kernel_size: 1
    kernel_size: 2
    kernel_size: 2
  }
}
layer {
  name: "rpn_cls_score"
  type: "Convolution"
  bottom: "rpn/output_pool"
  top: "rpn_cls_score"
  param {
    lr_mult: 1
    decay_mult: 1
  }
  param {
    lr_mult: 2
    decay_mult: 0
  }
  convolution_param {
    num_output: 74
    kernel_size: 1
    kernel_size: 1
    kernel_size: 1
    weight_filler {
      type: "gaussian"
      std: 0.01
    }
    bias_filler {
      type: "constant"
      value: 0
    }
  }
}
layer {
  name: "rpn_twin_pred"
  type: "Convolution"
  bottom: "rpn/output_pool"
  top: "rpn_twin_pred"
  param {
    lr_mult: 1
    decay_mult: 1
  }
  param {
    lr_mult: 2
    decay_mult: 0
  }
  convolution_param {
    num_output: 74
    kernel_size: 1
    kernel_size: 1
    kernel_size: 1
    weight_filler {
      type: "gaussian"
      std: 0.01
    }
    bias_filler {
      type: "constant"
      value: 0
    }
  }
}
layer {
  name: "rpn_cls_score_reshape"
  type: "Reshape"
  bottom: "rpn_cls_score"
  top: "rpn_cls_score_reshape"
  reshape_param {
    shape {
      dim: 0
      dim: 2
      dim: -1
      dim: 0
      dim: 0
    }
  }
}
layer {
  name: "rpn-data"
  type: "Python"
  bottom: "rpn_cls_score"
  bottom: "gt_boxes"
  bottom: "data"
  top: "rpn_labels"
  top: "rpn_twin_targets"
  top: "rpn_twin_inside_weights"
  top: "rpn_twin_outside_weights"
  python_param {
    module: "rpn.anchor_target_layer"
    layer: "AnchorTargetLayer"
    param_str: "\'feat_stride\': 8 \n\'scales\': !!python/tuple [1,1.25, 1.5,1.75, 2,2.5, 3,3.5, 4,4.5, 5,5.5, 6,7, 8,9,10,11,12,14,16,18,20,22,24,28,32,36,40,44,52,60,68,76,84,92,100]"
  }
}
layer {
  name: "rpn_loss_cls"
  type: "SoftmaxWithLoss"
  bottom: "rpn_cls_score_reshape"
  bottom: "rpn_labels"
  top: "rpn_cls_loss"
  loss_weight: 1
  propagate_down: true
  propagate_down: false
  loss_param {
    ignore_label: -1
    normalize: true
  }
}
layer {
  name: "rpn_loss_twin"
  type: "SmoothL1Loss"
  bottom: "rpn_twin_pred"
  bottom: "rpn_twin_targets"
  bottom: "rpn_twin_inside_weights"
  bottom: "rpn_twin_outside_weights"
  top: "rpn_loss_twin"
  loss_weight: 1
  smooth_l1_loss_param {
    sigma: 3
  }
}
layer {
  name: "rpn_accuarcy"
  type: "Accuracy"
  bottom: "rpn_cls_score_reshape"
  bottom: "rpn_labels"
  top: "rpn_accuarcy"
  top: "rpn_accuarcy_class"
  propagate_down: false
  propagate_down: false
  accuracy_param {
    ignore_label: -1
  }
}
layer {
  name: "rpn_cls_prob"
  type: "Softmax"
  bottom: "rpn_cls_score_reshape"
  top: "rpn_cls_prob"
}
layer {
  name: "rpn_cls_prob_reshape"
  type: "Reshape"
  bottom: "rpn_cls_prob"
  top: "rpn_cls_prob_reshape"
  reshape_param {
    shape {
      dim: 0
      dim: 74
      dim: -1
      dim: 0
      dim: 0
    }
  }
}
layer {
  name: "proposal"
  type: "Python"
  bottom: "rpn_cls_prob_reshape"
  bottom: "rpn_twin_pred"
  top: "rpn_rois"
  include {
    phase: TRAIN
  }
  python_param {
    module: "rpn.proposal_layer"
    layer: "ProposalLayer"
    param_str: "\'feat_stride\': 8 \n\'scales\': !!python/tuple [1,1.25, 1.5,1.75, 2,2.5, 3,3.5, 4,4.5, 5,5.5, 6,7, 8,9,10,11,12,14,16,18,20,22,24,28,32,36,40,44,52,60,68,76,84,92,100]"
  }
}
layer {
  name: "roi-data"
  type: "Python"
  bottom: "rpn_rois"
  bottom: "gt_boxes"
  top: "rois"
  top: "labels"
  top: "twin_targets"
  top: "twin_inside_weights"
  top: "twin_outside_weights"
  python_param {
    module: "rpn.proposal_target_layer"
    layer: "ProposalTargetLayer"
    param_str: "\'num_classes\': 201"
  }
}
layer {
  name: "roi_pool5"
  type: "ROIPooling"
  bottom: "conv5b"
  bottom: "rois"
  top: "pool5"
  roi_pooling_param {
    pooled_h: 4
    pooled_w: 4
    spatial_scale: 0.0625
    pooled_l: 1
    temporal_scale: 0.125
  }
}
layer {
  name: "fc6"
  type: "InnerProduct"
  bottom: "pool5"
  top: "fc6"
  param {
    lr_mult: 1
    decay_mult: 1
  }
  param {
    lr_mult: 2
    decay_mult: 0
  }
  inner_product_param {
    num_output: 4096
    weight_filler {
      type: "gaussian"
      std: 0.005
    }
    bias_filler {
      type: "constant"
      value: 1
    }
  }
}
layer {
  name: "relu6"
  type: "ReLU"
  bottom: "fc6"
  top: "fc6"
}
layer {
  name: "drop6"
  type: "Dropout"
  bottom: "fc6"
  top: "fc6"
  dropout_param {
    dropout_ratio: 0.5
  }
}
layer {
  name: "cls_score"
  type: "InnerProduct"
  bottom: "fc6"
  top: "cls_score"
  param {
    lr_mult: 1
    decay_mult: 1
  }
  param {
    lr_mult: 2
    decay_mult: 0
  }
  inner_product_param {
    num_output: 201
    weight_filler {
      type: "gaussian"
      std: 0.01
    }
    bias_filler {
      type: "constant"
      value: 0
    }
  }
}
layer {
  name: "twin_pred"
  type: "InnerProduct"
  bottom: "fc6"
  top: "twin_pred"
  param {
    lr_mult: 1
    decay_mult: 1
  }
  param {
    lr_mult: 2
    decay_mult: 0
  }
  inner_product_param {
    num_output: 402
    weight_filler {
      type: "gaussian"
      std: 0.001
    }
    bias_filler {
      type: "constant"
      value: 0
    }
  }
}
layer {
  name: "loss_cls"
  type: "SoftmaxWithLoss"
  bottom: "cls_score"
  bottom: "labels"
  top: "loss_cls"
  loss_weight: 1
  propagate_down: true
  propagate_down: false
}
layer {
  name: "loss_twin"
  type: "SmoothL1Loss"
  bottom: "twin_pred"
  bottom: "twin_targets"
  bottom: "twin_inside_weights"
  bottom: "twin_outside_weights"
  top: "loss_twin"
  loss_weight: 1
}
layer {
  name: "accuarcy"
  type: "Accuracy"
  bottom: "cls_score"
  bottom: "labels"
  top: "accuarcy"
  propagate_down: false
  propagate_down: false
  accuracy_param {
    ignore_label: -1
  }
}
I0417 12:10:40.914320 22830 layer_factory.hpp:77] Creating layer data
I0417 12:10:40.941416 22830 net.cpp:100] Creating Layer data
I0417 12:10:40.941439 22830 net.cpp:408] data -> data
I0417 12:10:40.941453 22830 net.cpp:408] data -> gt_boxes
setting up
has rpn
RoiDataLayer: name_to_top: {'gt_windows': 1, 'data': 0}
I0417 12:10:40.955359 22830 net.cpp:150] Setting up data
I0417 12:10:40.955390 22830 net.cpp:157] Top shape: 1 3 768 112 112 (28901376)
I0417 12:10:40.955395 22830 net.cpp:157] Top shape: 1 101 (101)
I0417 12:10:40.955399 22830 net.cpp:165] Memory required for data: 115605908
I0417 12:10:40.955405 22830 layer_factory.hpp:77] Creating layer data_data_0_split
I0417 12:10:40.955417 22830 net.cpp:100] Creating Layer data_data_0_split
I0417 12:10:40.955421 22830 net.cpp:434] data_data_0_split <- data
I0417 12:10:40.955430 22830 net.cpp:408] data_data_0_split -> data_data_0_split_0
I0417 12:10:40.955440 22830 net.cpp:408] data_data_0_split -> data_data_0_split_1
I0417 12:10:40.955488 22830 net.cpp:150] Setting up data_data_0_split
I0417 12:10:40.955505 22830 net.cpp:157] Top shape: 1 3 768 112 112 (28901376)
I0417 12:10:40.955509 22830 net.cpp:157] Top shape: 1 3 768 112 112 (28901376)
I0417 12:10:40.955513 22830 net.cpp:165] Memory required for data: 346816916
I0417 12:10:40.955515 22830 layer_factory.hpp:77] Creating layer gt_boxes_data_1_split
I0417 12:10:40.955521 22830 net.cpp:100] Creating Layer gt_boxes_data_1_split
I0417 12:10:40.955524 22830 net.cpp:434] gt_boxes_data_1_split <- gt_boxes
I0417 12:10:40.955529 22830 net.cpp:408] gt_boxes_data_1_split -> gt_boxes_data_1_split_0
I0417 12:10:40.955534 22830 net.cpp:408] gt_boxes_data_1_split -> gt_boxes_data_1_split_1
I0417 12:10:40.955574 22830 net.cpp:150] Setting up gt_boxes_data_1_split
I0417 12:10:40.955579 22830 net.cpp:157] Top shape: 1 101 (101)
I0417 12:10:40.955584 22830 net.cpp:157] Top shape: 1 101 (101)
I0417 12:10:40.955587 22830 net.cpp:165] Memory required for data: 346817724
I0417 12:10:40.955590 22830 layer_factory.hpp:77] Creating layer conv1a
I0417 12:10:40.955605 22830 net.cpp:100] Creating Layer conv1a
I0417 12:10:40.955607 22830 net.cpp:434] conv1a <- data_data_0_split_0
I0417 12:10:40.955615 22830 net.cpp:408] conv1a -> conv1a
I0417 12:10:40.974910 22830 net.cpp:150] Setting up conv1a
I0417 12:10:40.974939 22830 net.cpp:157] Top shape: 1 64 768 112 112 (616562688)
I0417 12:10:40.974943 22830 net.cpp:165] Memory required for data: 2813068476
I0417 12:10:40.974968 22830 layer_factory.hpp:77] Creating layer relu1a
I0417 12:10:40.974988 22830 net.cpp:100] Creating Layer relu1a
I0417 12:10:40.974997 22830 net.cpp:434] relu1a <- conv1a
I0417 12:10:40.975005 22830 net.cpp:395] relu1a -> conv1a (in-place)
I0417 12:10:40.975023 22830 net.cpp:150] Setting up relu1a
I0417 12:10:40.975030 22830 net.cpp:157] Top shape: 1 64 768 112 112 (616562688)
I0417 12:10:40.975035 22830 net.cpp:165] Memory required for data: 5279319228
I0417 12:10:40.975040 22830 layer_factory.hpp:77] Creating layer pool1
I0417 12:10:40.975054 22830 net.cpp:100] Creating Layer pool1
I0417 12:10:40.975060 22830 net.cpp:434] pool1 <- conv1a
I0417 12:10:40.975070 22830 net.cpp:408] pool1 -> pool1
I0417 12:10:40.975224 22830 net.cpp:150] Setting up pool1
I0417 12:10:40.975240 22830 net.cpp:157] Top shape: 1 64 768 56 56 (154140672)
I0417 12:10:40.975244 22830 net.cpp:165] Memory required for data: 5895881916
I0417 12:10:40.975248 22830 layer_factory.hpp:77] Creating layer conv2a
I0417 12:10:40.975261 22830 net.cpp:100] Creating Layer conv2a
I0417 12:10:40.975265 22830 net.cpp:434] conv2a <- pool1
I0417 12:10:40.975271 22830 net.cpp:408] conv2a -> conv2a
I0417 12:10:40.985873 22830 net.cpp:150] Setting up conv2a
I0417 12:10:40.985898 22830 net.cpp:157] Top shape: 1 128 768 56 56 (308281344)
I0417 12:10:40.985903 22830 net.cpp:165] Memory required for data: 7129007292
I0417 12:10:40.985913 22830 layer_factory.hpp:77] Creating layer relu2a
I0417 12:10:40.985921 22830 net.cpp:100] Creating Layer relu2a
I0417 12:10:40.985925 22830 net.cpp:434] relu2a <- conv2a
I0417 12:10:40.985932 22830 net.cpp:395] relu2a -> conv2a (in-place)
I0417 12:10:40.985939 22830 net.cpp:150] Setting up relu2a
I0417 12:10:40.985944 22830 net.cpp:157] Top shape: 1 128 768 56 56 (308281344)
I0417 12:10:40.985946 22830 net.cpp:165] Memory required for data: 8362132668
I0417 12:10:40.985950 22830 layer_factory.hpp:77] Creating layer pool2
I0417 12:10:40.985958 22830 net.cpp:100] Creating Layer pool2
I0417 12:10:40.985961 22830 net.cpp:434] pool2 <- conv2a
I0417 12:10:40.985967 22830 net.cpp:408] pool2 -> pool2
I0417 12:10:40.986032 22830 net.cpp:150] Setting up pool2
I0417 12:10:40.986039 22830 net.cpp:157] Top shape: 1 128 384 28 28 (38535168)
I0417 12:10:40.986042 22830 net.cpp:165] Memory required for data: 8516273340
I0417 12:10:40.986045 22830 layer_factory.hpp:77] Creating layer conv3a
I0417 12:10:40.986057 22830 net.cpp:100] Creating Layer conv3a
I0417 12:10:40.986059 22830 net.cpp:434] conv3a <- pool2
I0417 12:10:40.986064 22830 net.cpp:408] conv3a -> conv3a
I0417 12:10:41.011046 22830 net.cpp:150] Setting up conv3a
I0417 12:10:41.011067 22830 net.cpp:157] Top shape: 1 256 384 28 28 (77070336)
I0417 12:10:41.011071 22830 net.cpp:165] Memory required for data: 8824554684
I0417 12:10:41.011082 22830 layer_factory.hpp:77] Creating layer relu3a
I0417 12:10:41.011090 22830 net.cpp:100] Creating Layer relu3a
I0417 12:10:41.011096 22830 net.cpp:434] relu3a <- conv3a
I0417 12:10:41.011101 22830 net.cpp:395] relu3a -> conv3a (in-place)
I0417 12:10:41.011107 22830 net.cpp:150] Setting up relu3a
I0417 12:10:41.011111 22830 net.cpp:157] Top shape: 1 256 384 28 28 (77070336)
I0417 12:10:41.011114 22830 net.cpp:165] Memory required for data: 9132836028
I0417 12:10:41.011117 22830 layer_factory.hpp:77] Creating layer conv3b
I0417 12:10:41.011128 22830 net.cpp:100] Creating Layer conv3b
I0417 12:10:41.011132 22830 net.cpp:434] conv3b <- conv3a
I0417 12:10:41.011137 22830 net.cpp:408] conv3b -> conv3b
I0417 12:10:41.060091 22830 net.cpp:150] Setting up conv3b
I0417 12:10:41.060117 22830 net.cpp:157] Top shape: 1 256 384 28 28 (77070336)
I0417 12:10:41.060120 22830 net.cpp:165] Memory required for data: 9441117372
I0417 12:10:41.060130 22830 layer_factory.hpp:77] Creating layer relu3b
I0417 12:10:41.060140 22830 net.cpp:100] Creating Layer relu3b
I0417 12:10:41.060145 22830 net.cpp:434] relu3b <- conv3b
I0417 12:10:41.060153 22830 net.cpp:395] relu3b -> conv3b (in-place)
I0417 12:10:41.060160 22830 net.cpp:150] Setting up relu3b
I0417 12:10:41.060165 22830 net.cpp:157] Top shape: 1 256 384 28 28 (77070336)
I0417 12:10:41.060168 22830 net.cpp:165] Memory required for data: 9749398716
I0417 12:10:41.060171 22830 layer_factory.hpp:77] Creating layer pool3
I0417 12:10:41.060184 22830 net.cpp:100] Creating Layer pool3
I0417 12:10:41.060187 22830 net.cpp:434] pool3 <- conv3b
I0417 12:10:41.060194 22830 net.cpp:408] pool3 -> pool3
I0417 12:10:41.060246 22830 net.cpp:150] Setting up pool3
I0417 12:10:41.060253 22830 net.cpp:157] Top shape: 1 256 192 14 14 (9633792)
I0417 12:10:41.060256 22830 net.cpp:165] Memory required for data: 9787933884
I0417 12:10:41.060259 22830 layer_factory.hpp:77] Creating layer conv4a
I0417 12:10:41.060272 22830 net.cpp:100] Creating Layer conv4a
I0417 12:10:41.060276 22830 net.cpp:434] conv4a <- pool3
I0417 12:10:41.060281 22830 net.cpp:408] conv4a -> conv4a
I0417 12:10:41.158900 22830 net.cpp:150] Setting up conv4a
I0417 12:10:41.158927 22830 net.cpp:157] Top shape: 1 512 192 14 14 (19267584)
I0417 12:10:41.158931 22830 net.cpp:165] Memory required for data: 9865004220
I0417 12:10:41.158944 22830 layer_factory.hpp:77] Creating layer relu4a
I0417 12:10:41.158957 22830 net.cpp:100] Creating Layer relu4a
I0417 12:10:41.158962 22830 net.cpp:434] relu4a <- conv4a
I0417 12:10:41.158967 22830 net.cpp:395] relu4a -> conv4a (in-place)
I0417 12:10:41.158975 22830 net.cpp:150] Setting up relu4a
I0417 12:10:41.158979 22830 net.cpp:157] Top shape: 1 512 192 14 14 (19267584)
I0417 12:10:41.158983 22830 net.cpp:165] Memory required for data: 9942074556
I0417 12:10:41.158987 22830 layer_factory.hpp:77] Creating layer conv4b
I0417 12:10:41.158998 22830 net.cpp:100] Creating Layer conv4b
I0417 12:10:41.159005 22830 net.cpp:434] conv4b <- conv4a
I0417 12:10:41.159013 22830 net.cpp:408] conv4b -> conv4b
I0417 12:10:41.350584 22830 net.cpp:150] Setting up conv4b
I0417 12:10:41.350610 22830 net.cpp:157] Top shape: 1 512 192 14 14 (19267584)
I0417 12:10:41.350613 22830 net.cpp:165] Memory required for data: 10019144892
I0417 12:10:41.350622 22830 layer_factory.hpp:77] Creating layer relu4b
I0417 12:10:41.350632 22830 net.cpp:100] Creating Layer relu4b
I0417 12:10:41.350641 22830 net.cpp:434] relu4b <- conv4b
I0417 12:10:41.350647 22830 net.cpp:395] relu4b -> conv4b (in-place)
I0417 12:10:41.350656 22830 net.cpp:150] Setting up relu4b
I0417 12:10:41.350661 22830 net.cpp:157] Top shape: 1 512 192 14 14 (19267584)
I0417 12:10:41.350666 22830 net.cpp:165] Memory required for data: 10096215228
I0417 12:10:41.350669 22830 layer_factory.hpp:77] Creating layer pool4
I0417 12:10:41.350677 22830 net.cpp:100] Creating Layer pool4
I0417 12:10:41.350683 22830 net.cpp:434] pool4 <- conv4b
I0417 12:10:41.350688 22830 net.cpp:408] pool4 -> pool4
I0417 12:10:41.350742 22830 net.cpp:150] Setting up pool4
I0417 12:10:41.350750 22830 net.cpp:157] Top shape: 1 512 96 7 7 (2408448)
I0417 12:10:41.350754 22830 net.cpp:165] Memory required for data: 10105849020
I0417 12:10:41.350757 22830 layer_factory.hpp:77] Creating layer conv5a
I0417 12:10:41.350778 22830 net.cpp:100] Creating Layer conv5a
I0417 12:10:41.350783 22830 net.cpp:434] conv5a <- pool4
I0417 12:10:41.350790 22830 net.cpp:408] conv5a -> conv5a
I0417 12:10:41.544953 22830 net.cpp:150] Setting up conv5a
I0417 12:10:41.544981 22830 net.cpp:157] Top shape: 1 512 96 7 7 (2408448)
I0417 12:10:41.544984 22830 net.cpp:165] Memory required for data: 10115482812
I0417 12:10:41.544993 22830 layer_factory.hpp:77] Creating layer relu5a
I0417 12:10:41.545006 22830 net.cpp:100] Creating Layer relu5a
I0417 12:10:41.545011 22830 net.cpp:434] relu5a <- conv5a
I0417 12:10:41.545017 22830 net.cpp:395] relu5a -> conv5a (in-place)
I0417 12:10:41.545025 22830 net.cpp:150] Setting up relu5a
I0417 12:10:41.545034 22830 net.cpp:157] Top shape: 1 512 96 7 7 (2408448)
I0417 12:10:41.545037 22830 net.cpp:165] Memory required for data: 10125116604
I0417 12:10:41.545042 22830 layer_factory.hpp:77] Creating layer conv5b
I0417 12:10:41.545053 22830 net.cpp:100] Creating Layer conv5b
I0417 12:10:41.545058 22830 net.cpp:434] conv5b <- conv5a
I0417 12:10:41.545063 22830 net.cpp:408] conv5b -> conv5b
I0417 12:10:41.731199 22830 net.cpp:150] Setting up conv5b
I0417 12:10:41.731222 22830 net.cpp:157] Top shape: 1 512 96 7 7 (2408448)
I0417 12:10:41.731225 22830 net.cpp:165] Memory required for data: 10134750396
I0417 12:10:41.731235 22830 layer_factory.hpp:77] Creating layer relu5b
I0417 12:10:41.731243 22830 net.cpp:100] Creating Layer relu5b
I0417 12:10:41.731247 22830 net.cpp:434] relu5b <- conv5b
I0417 12:10:41.731254 22830 net.cpp:395] relu5b -> conv5b (in-place)
I0417 12:10:41.731262 22830 net.cpp:150] Setting up relu5b
I0417 12:10:41.731266 22830 net.cpp:157] Top shape: 1 512 96 7 7 (2408448)
I0417 12:10:41.731269 22830 net.cpp:165] Memory required for data: 10144384188
I0417 12:10:41.731272 22830 layer_factory.hpp:77] Creating layer conv5b_relu5b_0_split
I0417 12:10:41.731278 22830 net.cpp:100] Creating Layer conv5b_relu5b_0_split
I0417 12:10:41.731282 22830 net.cpp:434] conv5b_relu5b_0_split <- conv5b
I0417 12:10:41.731287 22830 net.cpp:408] conv5b_relu5b_0_split -> conv5b_relu5b_0_split_0
I0417 12:10:41.731292 22830 net.cpp:408] conv5b_relu5b_0_split -> conv5b_relu5b_0_split_1
I0417 12:10:41.731336 22830 net.cpp:150] Setting up conv5b_relu5b_0_split
I0417 12:10:41.731343 22830 net.cpp:157] Top shape: 1 512 96 7 7 (2408448)
I0417 12:10:41.731348 22830 net.cpp:157] Top shape: 1 512 96 7 7 (2408448)
I0417 12:10:41.731351 22830 net.cpp:165] Memory required for data: 10163651772
I0417 12:10:41.731354 22830 layer_factory.hpp:77] Creating layer rpn_conv/3x3
I0417 12:10:41.731364 22830 net.cpp:100] Creating Layer rpn_conv/3x3
I0417 12:10:41.731369 22830 net.cpp:434] rpn_conv/3x3 <- conv5b_relu5b_0_split_0
I0417 12:10:41.731374 22830 net.cpp:408] rpn_conv/3x3 -> rpn/output
I0417 12:10:41.917292 22830 net.cpp:150] Setting up rpn_conv/3x3
I0417 12:10:41.917315 22830 net.cpp:157] Top shape: 1 512 96 4 4 (786432)
I0417 12:10:41.917320 22830 net.cpp:165] Memory required for data: 10166797500
I0417 12:10:41.917333 22830 layer_factory.hpp:77] Creating layer rpn_relu/3x3
I0417 12:10:41.917345 22830 net.cpp:100] Creating Layer rpn_relu/3x3
I0417 12:10:41.917348 22830 net.cpp:434] rpn_relu/3x3 <- rpn/output
I0417 12:10:41.917353 22830 net.cpp:395] rpn_relu/3x3 -> rpn/output (in-place)
I0417 12:10:41.917362 22830 net.cpp:150] Setting up rpn_relu/3x3
I0417 12:10:41.917368 22830 net.cpp:157] Top shape: 1 512 96 4 4 (786432)
I0417 12:10:41.917371 22830 net.cpp:165] Memory required for data: 10169943228
I0417 12:10:41.917374 22830 layer_factory.hpp:77] Creating layer rpn_conv/3x3_2
I0417 12:10:41.917385 22830 net.cpp:100] Creating Layer rpn_conv/3x3_2
I0417 12:10:41.917389 22830 net.cpp:434] rpn_conv/3x3_2 <- rpn/output
I0417 12:10:41.917394 22830 net.cpp:408] rpn_conv/3x3_2 -> rpn/output_2
I0417 12:10:42.102439 22830 net.cpp:150] Setting up rpn_conv/3x3_2
I0417 12:10:42.102473 22830 net.cpp:157] Top shape: 1 512 96 2 2 (196608)
I0417 12:10:42.102476 22830 net.cpp:165] Memory required for data: 10170729660
I0417 12:10:42.102485 22830 layer_factory.hpp:77] Creating layer rpn_relu/3x3_2
I0417 12:10:42.102494 22830 net.cpp:100] Creating Layer rpn_relu/3x3_2
I0417 12:10:42.102499 22830 net.cpp:434] rpn_relu/3x3_2 <- rpn/output_2
I0417 12:10:42.102504 22830 net.cpp:395] rpn_relu/3x3_2 -> rpn/output_2 (in-place)
I0417 12:10:42.102511 22830 net.cpp:150] Setting up rpn_relu/3x3_2
I0417 12:10:42.102516 22830 net.cpp:157] Top shape: 1 512 96 2 2 (196608)
I0417 12:10:42.102519 22830 net.cpp:165] Memory required for data: 10171516092
I0417 12:10:42.102522 22830 layer_factory.hpp:77] Creating layer rpn/output_pool
I0417 12:10:42.102531 22830 net.cpp:100] Creating Layer rpn/output_pool
I0417 12:10:42.102535 22830 net.cpp:434] rpn/output_pool <- rpn/output_2
I0417 12:10:42.102540 22830 net.cpp:408] rpn/output_pool -> rpn/output_pool
I0417 12:10:42.102586 22830 net.cpp:150] Setting up rpn/output_pool
I0417 12:10:42.102592 22830 net.cpp:157] Top shape: 1 512 96 1 1 (49152)
I0417 12:10:42.102596 22830 net.cpp:165] Memory required for data: 10171712700
I0417 12:10:42.102599 22830 layer_factory.hpp:77] Creating layer rpn/output_pool_rpn/output_pool_0_split
I0417 12:10:42.102605 22830 net.cpp:100] Creating Layer rpn/output_pool_rpn/output_pool_0_split
I0417 12:10:42.102609 22830 net.cpp:434] rpn/output_pool_rpn/output_pool_0_split <- rpn/output_pool
I0417 12:10:42.102613 22830 net.cpp:408] rpn/output_pool_rpn/output_pool_0_split -> rpn/output_pool_rpn/output_pool_0_split_0
I0417 12:10:42.102618 22830 net.cpp:408] rpn/output_pool_rpn/output_pool_0_split -> rpn/output_pool_rpn/output_pool_0_split_1
I0417 12:10:42.102654 22830 net.cpp:150] Setting up rpn/output_pool_rpn/output_pool_0_split
I0417 12:10:42.102661 22830 net.cpp:157] Top shape: 1 512 96 1 1 (49152)
I0417 12:10:42.102665 22830 net.cpp:157] Top shape: 1 512 96 1 1 (49152)
I0417 12:10:42.102669 22830 net.cpp:165] Memory required for data: 10172105916
I0417 12:10:42.102671 22830 layer_factory.hpp:77] Creating layer rpn_cls_score
I0417 12:10:42.102682 22830 net.cpp:100] Creating Layer rpn_cls_score
I0417 12:10:42.102685 22830 net.cpp:434] rpn_cls_score <- rpn/output_pool_rpn/output_pool_0_split_0
I0417 12:10:42.102691 22830 net.cpp:408] rpn_cls_score -> rpn_cls_score
I0417 12:10:42.103924 22830 net.cpp:150] Setting up rpn_cls_score
I0417 12:10:42.103945 22830 net.cpp:157] Top shape: 1 74 96 1 1 (7104)
I0417 12:10:42.103950 22830 net.cpp:165] Memory required for data: 10172134332
I0417 12:10:42.103955 22830 layer_factory.hpp:77] Creating layer rpn_cls_score_rpn_cls_score_0_split
I0417 12:10:42.103960 22830 net.cpp:100] Creating Layer rpn_cls_score_rpn_cls_score_0_split
I0417 12:10:42.103965 22830 net.cpp:434] rpn_cls_score_rpn_cls_score_0_split <- rpn_cls_score
I0417 12:10:42.103969 22830 net.cpp:408] rpn_cls_score_rpn_cls_score_0_split -> rpn_cls_score_rpn_cls_score_0_split_0
I0417 12:10:42.103976 22830 net.cpp:408] rpn_cls_score_rpn_cls_score_0_split -> rpn_cls_score_rpn_cls_score_0_split_1
I0417 12:10:42.104023 22830 net.cpp:150] Setting up rpn_cls_score_rpn_cls_score_0_split
I0417 12:10:42.104038 22830 net.cpp:157] Top shape: 1 74 96 1 1 (7104)
I0417 12:10:42.104040 22830 net.cpp:157] Top shape: 1 74 96 1 1 (7104)
I0417 12:10:42.104043 22830 net.cpp:165] Memory required for data: 10172191164
I0417 12:10:42.104046 22830 layer_factory.hpp:77] Creating layer rpn_twin_pred
I0417 12:10:42.104058 22830 net.cpp:100] Creating Layer rpn_twin_pred
I0417 12:10:42.104064 22830 net.cpp:434] rpn_twin_pred <- rpn/output_pool_rpn/output_pool_0_split_1
I0417 12:10:42.104069 22830 net.cpp:408] rpn_twin_pred -> rpn_twin_pred
I0417 12:10:42.105294 22830 net.cpp:150] Setting up rpn_twin_pred
I0417 12:10:42.105303 22830 net.cpp:157] Top shape: 1 74 96 1 1 (7104)
I0417 12:10:42.105305 22830 net.cpp:165] Memory required for data: 10172219580
I0417 12:10:42.105310 22830 layer_factory.hpp:77] Creating layer rpn_twin_pred_rpn_twin_pred_0_split
I0417 12:10:42.105316 22830 net.cpp:100] Creating Layer rpn_twin_pred_rpn_twin_pred_0_split
I0417 12:10:42.105319 22830 net.cpp:434] rpn_twin_pred_rpn_twin_pred_0_split <- rpn_twin_pred
I0417 12:10:42.105324 22830 net.cpp:408] rpn_twin_pred_rpn_twin_pred_0_split -> rpn_twin_pred_rpn_twin_pred_0_split_0
I0417 12:10:42.105329 22830 net.cpp:408] rpn_twin_pred_rpn_twin_pred_0_split -> rpn_twin_pred_rpn_twin_pred_0_split_1
I0417 12:10:42.105370 22830 net.cpp:150] Setting up rpn_twin_pred_rpn_twin_pred_0_split
I0417 12:10:42.105376 22830 net.cpp:157] Top shape: 1 74 96 1 1 (7104)
I0417 12:10:42.105381 22830 net.cpp:157] Top shape: 1 74 96 1 1 (7104)
I0417 12:10:42.105383 22830 net.cpp:165] Memory required for data: 10172276412
I0417 12:10:42.105386 22830 layer_factory.hpp:77] Creating layer rpn_cls_score_reshape
I0417 12:10:42.105398 22830 net.cpp:100] Creating Layer rpn_cls_score_reshape
I0417 12:10:42.105402 22830 net.cpp:434] rpn_cls_score_reshape <- rpn_cls_score_rpn_cls_score_0_split_0
I0417 12:10:42.105408 22830 net.cpp:408] rpn_cls_score_reshape -> rpn_cls_score_reshape
I0417 12:10:42.105438 22830 net.cpp:150] Setting up rpn_cls_score_reshape
I0417 12:10:42.105446 22830 net.cpp:157] Top shape: 1 2 3552 1 1 (7104)
I0417 12:10:42.105449 22830 net.cpp:165] Memory required for data: 10172304828
I0417 12:10:42.105453 22830 layer_factory.hpp:77] Creating layer rpn_cls_score_reshape_rpn_cls_score_reshape_0_split
I0417 12:10:42.105458 22830 net.cpp:100] Creating Layer rpn_cls_score_reshape_rpn_cls_score_reshape_0_split
I0417 12:10:42.105461 22830 net.cpp:434] rpn_cls_score_reshape_rpn_cls_score_reshape_0_split <- rpn_cls_score_reshape
I0417 12:10:42.105465 22830 net.cpp:408] rpn_cls_score_reshape_rpn_cls_score_reshape_0_split -> rpn_cls_score_reshape_rpn_cls_score_reshape_0_split_0
I0417 12:10:42.105474 22830 net.cpp:408] rpn_cls_score_reshape_rpn_cls_score_reshape_0_split -> rpn_cls_score_reshape_rpn_cls_score_reshape_0_split_1
I0417 12:10:42.105481 22830 net.cpp:408] rpn_cls_score_reshape_rpn_cls_score_reshape_0_split -> rpn_cls_score_reshape_rpn_cls_score_reshape_0_split_2
I0417 12:10:42.105531 22830 net.cpp:150] Setting up rpn_cls_score_reshape_rpn_cls_score_reshape_0_split
I0417 12:10:42.105538 22830 net.cpp:157] Top shape: 1 2 3552 1 1 (7104)
I0417 12:10:42.105542 22830 net.cpp:157] Top shape: 1 2 3552 1 1 (7104)
I0417 12:10:42.105545 22830 net.cpp:157] Top shape: 1 2 3552 1 1 (7104)
I0417 12:10:42.105548 22830 net.cpp:165] Memory required for data: 10172390076
I0417 12:10:42.105551 22830 layer_factory.hpp:77] Creating layer rpn-data
I0417 12:10:42.105940 22830 net.cpp:100] Creating Layer rpn-data
I0417 12:10:42.105952 22830 net.cpp:434] rpn-data <- rpn_cls_score_rpn_cls_score_0_split_1
I0417 12:10:42.105957 22830 net.cpp:434] rpn-data <- gt_boxes_data_1_split_0
I0417 12:10:42.105962 22830 net.cpp:434] rpn-data <- data_data_0_split_1
I0417 12:10:42.105967 22830 net.cpp:408] rpn-data -> rpn_labels
I0417 12:10:42.105974 22830 net.cpp:408] rpn-data -> rpn_twin_targets
I0417 12:10:42.105980 22830 net.cpp:408] rpn-data -> rpn_twin_inside_weights
I0417 12:10:42.105985 22830 net.cpp:408] rpn-data -> rpn_twin_outside_weights
I0417 12:10:42.108184 22830 net.cpp:150] Setting up rpn-data
I0417 12:10:42.108199 22830 net.cpp:157] Top shape: 1 1 3552 1 1 (3552)
I0417 12:10:42.108203 22830 net.cpp:157] Top shape: 1 74 96 1 1 (7104)
I0417 12:10:42.108207 22830 net.cpp:157] Top shape: 1 74 96 1 1 (7104)
I0417 12:10:42.108211 22830 net.cpp:157] Top shape: 1 74 96 1 1 (7104)
I0417 12:10:42.108213 22830 net.cpp:165] Memory required for data: 10172489532
I0417 12:10:42.108217 22830 layer_factory.hpp:77] Creating layer rpn_labels_rpn-data_0_split
I0417 12:10:42.108223 22830 net.cpp:100] Creating Layer rpn_labels_rpn-data_0_split
I0417 12:10:42.108227 22830 net.cpp:434] rpn_labels_rpn-data_0_split <- rpn_labels
I0417 12:10:42.108232 22830 net.cpp:408] rpn_labels_rpn-data_0_split -> rpn_labels_rpn-data_0_split_0
I0417 12:10:42.108238 22830 net.cpp:408] rpn_labels_rpn-data_0_split -> rpn_labels_rpn-data_0_split_1
I0417 12:10:42.108278 22830 net.cpp:150] Setting up rpn_labels_rpn-data_0_split
I0417 12:10:42.108284 22830 net.cpp:157] Top shape: 1 1 3552 1 1 (3552)
I0417 12:10:42.108289 22830 net.cpp:157] Top shape: 1 1 3552 1 1 (3552)
I0417 12:10:42.108291 22830 net.cpp:165] Memory required for data: 10172517948
I0417 12:10:42.108294 22830 layer_factory.hpp:77] Creating layer rpn_loss_cls
I0417 12:10:42.108302 22830 net.cpp:100] Creating Layer rpn_loss_cls
I0417 12:10:42.108309 22830 net.cpp:434] rpn_loss_cls <- rpn_cls_score_reshape_rpn_cls_score_reshape_0_split_0
I0417 12:10:42.108314 22830 net.cpp:434] rpn_loss_cls <- rpn_labels_rpn-data_0_split_0
…
I0417 12:10:42.108610 22830 layer_factory.hpp:77] Creating layer rpn_accuarcy
I0417 12:10:42.108619 22830 net.cpp:100] Creating Layer rpn_accuarcy
I0417 12:10:42.108623 22830 net.cpp:434] rpn_accuarcy <- rpn_cls_score_reshape_rpn_cls_score_reshape_0_split_1
I0417 12:10:42.108628 22830 net.cpp:434] rpn_accuarcy <- rpn_labels_rpn-data_0_split_1
I0417 12:10:42.108633 22830 net.cpp:408] rpn_accuarcy -> rpn_accuarcy
I0417 12:10:42.108638 22830 net.cpp:408] rpn_accuarcy -> rpn_accuarcy_class
I0417 12:10:42.108680 22830 net.cpp:150] Setting up rpn_accuarcy
I0417 12:10:42.108686 22830 net.cpp:157] Top shape: (1)
I0417 12:10:42.108690 22830 net.cpp:157] Top shape: 2 (2)
I0417 12:10:42.108693 22830 net.cpp:165] Memory required for data: 10172517968
I0417 12:10:42.108696 22830 layer_factory.hpp:77] Creating layer rpn_cls_prob
I0417 12:10:42.108702 22830 net.cpp:100] Creating Layer rpn_cls_prob
I0417 12:10:42.108706 22830 net.cpp:434] rpn_cls_prob <- rpn_cls_score_reshape_rpn_cls_score_reshape_0_split_2
I0417 12:10:42.108711 22830 net.cpp:408] rpn_cls_prob -> rpn_cls_prob
I0417 12:10:42.108777 22830 net.cpp:150] Setting up rpn_cls_prob
I0417 12:10:42.108784 22830 net.cpp:157] Top shape: 1 2 3552 1 1 (7104)
I0417 12:10:42.108788 22830 net.cpp:165] Memory required for data: 10172546384
I0417 12:10:42.108790 22830 layer_factory.hpp:77] Creating layer rpn_cls_prob_reshape
I0417 12:10:42.108798 22830 net.cpp:100] Creating Layer rpn_cls_prob_reshape
I0417 12:10:42.108800 22830 net.cpp:434] rpn_cls_prob_reshape <- rpn_cls_prob
I0417 12:10:42.108805 22830 net.cpp:408] rpn_cls_prob_reshape -> rpn_cls_prob_reshape
I0417 12:10:42.108831 22830 net.cpp:150] Setting up rpn_cls_prob_reshape
I0417 12:10:42.108837 22830 net.cpp:157] Top shape: 1 74 96 1 1 (7104)
I0417 12:10:42.108840 22830 net.cpp:165] Memory required for data: 10172574800
I0417 12:10:42.108844 22830 layer_factory.hpp:77] Creating layer proposal
I0417 12:10:42.109371 22830 net.cpp:100] Creating Layer proposal
I0417 12:10:42.109383 22830 net.cpp:434] proposal <- rpn_cls_prob_reshape
I0417 12:10:42.109398 22830 net.cpp:434] proposal <- rpn_twin_pred_rpn_twin_pred_0_split_1
I0417 12:10:42.109403 22830 net.cpp:408] proposal -> rpn_rois
I0417 12:10:42.111613 22830 net.cpp:150] Setting up proposal
I0417 12:10:42.111625 22830 net.cpp:157] Top shape: 1 3 (3)
I0417 12:10:42.111639 22830 net.cpp:165] Memory required for data: 10172574812
I0417 12:10:42.111642 22830 layer_factory.hpp:77] Creating layer roi-data
I0417 12:10:42.111778 22830 net.cpp:100] Creating Layer roi-data
I0417 12:10:42.111788 22830 net.cpp:434] roi-data <- rpn_rois
I0417 12:10:42.111793 22830 net.cpp:434] roi-data <- gt_boxes_data_1_split_1
I0417 12:10:42.111799 22830 net.cpp:408] roi-data -> rois
I0417 12:10:42.111805 22830 net.cpp:408] roi-data -> labels
I0417 12:10:42.111811 22830 net.cpp:408] roi-data -> twin_targets
I0417 12:10:42.111816 22830 net.cpp:408] roi-data -> twin_inside_weights
I0417 12:10:42.111822 22830 net.cpp:408] roi-data -> twin_outside_weights
I0417 12:10:42.112149 22830 net.cpp:150] Setting up roi-data
I0417 12:10:42.112161 22830 net.cpp:157] Top shape: 1 3 (3)
I0417 12:10:42.112165 22830 net.cpp:157] Top shape: 1 1 (1)
I0417 12:10:42.112169 22830 net.cpp:157] Top shape: 1 402 (402)
I0417 12:10:42.112172 22830 net.cpp:157] Top shape: 1 402 (402)
I0417 12:10:42.112177 22830 net.cpp:157] Top shape: 1 402 (402)
I0417 12:10:42.112179 22830 net.cpp:165] Memory required for data: 10172579652
I0417 12:10:42.112184 22830 layer_factory.hpp:77] Creating layer labels_roi-data_1_split
I0417 12:10:42.112188 22830 net.cpp:100] Creating Layer labels_roi-data_1_split
I0417 12:10:42.112192 22830 net.cpp:434] labels_roi-data_1_split <- labels
I0417 12:10:42.112200 22830 net.cpp:408] labels_roi-data_1_split -> labels_roi-data_1_split_0
I0417 12:10:42.112206 22830 net.cpp:408] labels_roi-data_1_split -> labels_roi-data_1_split_1
I0417 12:10:42.112252 22830 net.cpp:150] Setting up labels_roi-data_1_split
I0417 12:10:42.112260 22830 net.cpp:157] Top shape: 1 1 (1)
I0417 12:10:42.112264 22830 net.cpp:157] Top shape: 1 1 (1)
I0417 12:10:42.112267 22830 net.cpp:165] Memory required for data: 10172579660
I0417 12:10:42.112270 22830 layer_factory.hpp:77] Creating layer roi_pool5
I0417 12:10:42.112278 22830 net.cpp:100] Creating Layer roi_pool5
I0417 12:10:42.112282 22830 net.cpp:434] roi_pool5 <- conv5b_relu5b_0_split_1
I0417 12:10:42.112287 22830 net.cpp:434] roi_pool5 <- rois
I0417 12:10:42.112290 22830 net.cpp:408] roi_pool5 -> pool5
I0417 12:10:42.112298 22830 roi_pooling_layer.cpp:34] Temporal scale: 0.125
I0417 12:10:42.112303 22830 roi_pooling_layer.cpp:35] Spatial scale: 0.0625
I0417 12:10:42.112344 22830 net.cpp:150] Setting up roi_pool5
I0417 12:10:42.112350 22830 net.cpp:157] Top shape: 1 512 1 4 4 (8192)
I0417 12:10:42.112354 22830 net.cpp:165] Memory required for data: 10172612428
I0417 12:10:42.112357 22830 layer_factory.hpp:77] Creating layer fc6
I0417 12:10:42.112365 22830 net.cpp:100] Creating Layer fc6
I0417 12:10:42.112368 22830 net.cpp:434] fc6 <- pool5
I0417 12:10:42.112375 22830 net.cpp:408] fc6 -> fc6
I0417 12:10:42.989203 22830 net.cpp:150] Setting up fc6
I0417 12:10:42.989228 22830 net.cpp:157] Top shape: 1 4096 (4096)
I0417 12:10:42.989233 22830 net.cpp:165] Memory required for data: 10172628812
I0417 12:10:42.989240 22830 layer_factory.hpp:77] Creating layer relu6
I0417 12:10:42.989249 22830 net.cpp:100] Creating Layer relu6
I0417 12:10:42.989255 22830 net.cpp:434] relu6 <- fc6
I0417 12:10:42.989261 22830 net.cpp:395] relu6 -> fc6 (in-place)
I0417 12:10:42.989269 22830 net.cpp:150] Setting up relu6
I0417 12:10:42.989272 22830 net.cpp:157] Top shape: 1 4096 (4096)
I0417 12:10:42.989275 22830 net.cpp:165] Memory required for data: 10172645196
I0417 12:10:42.989279 22830 layer_factory.hpp:77] Creating layer drop6
I0417 12:10:42.989289 22830 net.cpp:100] Creating Layer drop6
I0417 12:10:42.989292 22830 net.cpp:434] drop6 <- fc6
I0417 12:10:42.989297 22830 net.cpp:395] drop6 -> fc6 (in-place)
I0417 12:10:42.989323 22830 net.cpp:150] Setting up drop6
I0417 12:10:42.989331 22830 net.cpp:157] Top shape: 1 4096 (4096)
I0417 12:10:42.989334 22830 net.cpp:165] Memory required for data: 10172661580
I0417 12:10:42.989337 22830 layer_factory.hpp:77] Creating layer fc6_drop6_0_split
I0417 12:10:42.989342 22830 net.cpp:100] Creating Layer fc6_drop6_0_split
I0417 12:10:42.989346 22830 net.cpp:434] fc6_drop6_0_split <- fc6
I0417 12:10:42.989351 22830 net.cpp:408] fc6_drop6_0_split -> fc6_drop6_0_split_0
I0417 12:10:42.989357 22830 net.cpp:408] fc6_drop6_0_split -> fc6_drop6_0_split_1
I0417 12:10:42.989398 22830 net.cpp:150] Setting up fc6_drop6_0_split
I0417 12:10:42.989403 22830 net.cpp:157] Top shape: 1 4096 (4096)
I0417 12:10:42.989408 22830 net.cpp:157] Top shape: 1 4096 (4096)
I0417 12:10:42.989413 22830 net.cpp:165] Memory required for data: 10172694348
I0417 12:10:42.989415 22830 layer_factory.hpp:77] Creating layer cls_score
I0417 12:10:42.989424 22830 net.cpp:100] Creating Layer cls_score
I0417 12:10:42.989428 22830 net.cpp:434] cls_score <- fc6_drop6_0_split_0
I0417 12:10:42.989434 22830 net.cpp:408] cls_score -> cls_score
I0417 12:10:43.011533 22830 net.cpp:150] Setting up cls_score
I0417 12:10:43.011553 22830 net.cpp:157] Top shape: 1 201 (201)
I0417 12:10:43.011555 22830 net.cpp:165] Memory required for data: 10172695152
I0417 12:10:43.011564 22830 layer_factory.hpp:77] Creating layer cls_score_cls_score_0_split
I0417 12:10:43.011570 22830 net.cpp:100] Creating Layer cls_score_cls_score_0_split
I0417 12:10:43.011574 22830 net.cpp:434] cls_score_cls_score_0_split <- cls_score
I0417 12:10:43.011579 22830 net.cpp:408] cls_score_cls_score_0_split -> cls_score_cls_score_0_split_0
I0417 12:10:43.011586 22830 net.cpp:408] cls_score_cls_score_0_split -> cls_score_cls_score_0_split_1
I0417 12:10:43.011628 22830 net.cpp:150] Setting up cls_score_cls_score_0_split
I0417 12:10:43.011636 22830 net.cpp:157] Top shape: 1 201 (201)
I0417 12:10:43.011639 22830 net.cpp:157] Top shape: 1 201 (201)
I0417 12:10:43.011643 22830 net.cpp:165] Memory required for data: 10172696760
I0417 12:10:43.011646 22830 layer_factory.hpp:77] Creating layer twin_pred
I0417 12:10:43.011656 22830 net.cpp:100] Creating Layer twin_pred
I0417 12:10:43.011659 22830 net.cpp:434] twin_pred <- fc6_drop6_0_split_1
I0417 12:10:43.011667 22830 net.cpp:408] twin_pred -> twin_pred
I0417 12:10:43.054786 22830 net.cpp:150] Setting up twin_pred
I0417 12:10:43.054806 22830 net.cpp:157] Top shape: 1 402 (402)
I0417 12:10:43.054810 22830 net.cpp:165] Memory required for data: 10172698368
I0417 12:10:43.054818 22830 layer_factory.hpp:77] Creating layer loss_cls
I0417 12:10:43.054828 22830 net.cpp:100] Creating Layer loss_cls
I0417 12:10:43.054833 22830 net.cpp:434] loss_cls <- cls_score_cls_score_0_split_0
I0417 12:10:43.054841 22830 net.cpp:434] loss_cls <- labels_roi-data_1_split_0
I0417 12:10:43.054846 22830 net.cpp:408] loss_cls -> loss_cls
…
