…
stepsize: 350000
snapshot: 0
snapshot_prefix: "./experiments/activitynet/snapshot/activitynet"
average_loss: 100
iter_size: 1
I0412 04:28:31.057523 29002 solver.cpp:81] Creating training net from train_net file: ./experiments/activitynet/train.prototxt
I0412 04:28:31.058387 29002 net.cpp:58] Initializing net from parameters: 
name: "activitynet"
state {
  phase: TRAIN
}
layer {
  name: "data"
  type: "Python"
  top: "data"
  top: "gt_boxes"
  python_param {
    module: "roi_data_layer.layer"
    layer: "RoIDataLayer"
    param_str: "\'num_classes\': 201"
  }
}
layer {
  name: "conv1a"
  type: "Convolution"
  bottom: "data"
  top: "conv1a"
  param {
    lr_mult: 0
    decay_mult: 0
  }
  param {
    lr_mult: 0
    decay_mult: 0
  }
  convolution_param {
    num_output: 64
    pad: 1
    pad: 1
    pad: 1
    kernel_size: 3
    kernel_size: 3
    kernel_size: 3
    weight_filler {
      type: "gaussian"
      std: 0.01
    }
    bias_filler {
      type: "constant"
      value: 0
    }
  }
}
layer {
  name: "relu1a"
  type: "ReLU"
  bottom: "conv1a"
  top: "conv1a"
}
layer {
  name: "pool1"
  type: "Pooling"
  bottom: "conv1a"
  top: "pool1"
  pooling_param {
    pool: MAX
    kernel_size: 1
    kernel_size: 2
    kernel_size: 2
    stride: 1
    stride: 2
    stride: 2
  }
}
layer {
  name: "conv2a"
  type: "Convolution"
  bottom: "pool1"
  top: "conv2a"
  param {
    lr_mult: 0
    decay_mult: 0
  }
  param {
    lr_mult: 0
    decay_mult: 0
  }
  convolution_param {
    num_output: 128
    pad: 1
    pad: 1
    pad: 1
    kernel_size: 3
    kernel_size: 3
    kernel_size: 3
    weight_filler {
      type: "gaussian"
      std: 0.01
    }
    bias_filler {
      type: "constant"
      value: 1
    }
  }
}
layer {
  name: "relu2a"
  type: "ReLU"
  bottom: "conv2a"
  top: "conv2a"
}
layer {
  name: "pool2"
  type: "Pooling"
  bottom: "conv2a"
  top: "pool2"
  pooling_param {
    pool: MAX
    kernel_size: 2
    kernel_size: 2
    kernel_size: 2
    stride: 2
    stride: 2
    stride: 2
  }
}
layer {
  name: "conv3a"
  type: "Convolution"
  bottom: "pool2"
  top: "conv3a"
  param {
    lr_mult: 1
    decay_mult: 1
  }
  param {
    lr_mult: 2
    decay_mult: 0
  }
  convolution_param {
    num_output: 256
    pad: 1
    pad: 1
    pad: 1
    kernel_size: 3
    kernel_size: 3
    kernel_size: 3
    weight_filler {
      type: "gaussian"
      std: 0.01
    }
    bias_filler {
      type: "constant"
      value: 1
    }
  }
}
layer {
  name: "relu3a"
  type: "ReLU"
  bottom: "conv3a"
  top: "conv3a"
}
layer {
  name: "conv3b"
  type: "Convolution"
  bottom: "conv3a"
  top: "conv3b"
  param {
    lr_mult: 1
    decay_mult: 1
  }
  param {
    lr_mult: 2
    decay_mult: 0
  }
  convolution_param {
    num_output: 256
    pad: 1
    pad: 1
    pad: 1
    kernel_size: 3
    kernel_size: 3
    kernel_size: 3
    weight_filler {
      type: "gaussian"
      std: 0.01
    }
    bias_filler {
      type: "constant"
      value: 1
    }
  }
}
layer {
  name: "relu3b"
  type: "ReLU"
  bottom: "conv3b"
  top: "conv3b"
}
layer {
  name: "pool3"
  type: "Pooling"
  bottom: "conv3b"
  top: "pool3"
  pooling_param {
    pool: MAX
    kernel_size: 2
    kernel_size: 2
    kernel_size: 2
    stride: 2
    stride: 2
    stride: 2
  }
}
layer {
  name: "conv4a"
  type: "Convolution"
  bottom: "pool3"
  top: "conv4a"
  param {
    lr_mult: 1
    decay_mult: 1
  }
  param {
    lr_mult: 2
    decay_mult: 0
  }
  convolution_param {
    num_output: 512
    pad: 1
    pad: 1
    pad: 1
    kernel_size: 3
    kernel_size: 3
    kernel_size: 3
    weight_filler {
      type: "gaussian"
      std: 0.01
    }
    bias_filler {
      type: "constant"
      value: 1
    }
  }
}
layer {
  name: "relu4a"
  type: "ReLU"
  bottom: "conv4a"
  top: "conv4a"
}
layer {
  name: "conv4b"
  type: "Convolution"
  bottom: "conv4a"
  top: "conv4b"
  param {
    lr_mult: 1
    decay_mult: 1
  }
  param {
    lr_mult: 2
    decay_mult: 0
  }
  convolution_param {
    num_output: 512
    pad: 1
    pad: 1
    pad: 1
    kernel_size: 3
    kernel_size: 3
    kernel_size: 3
    weight_filler {
      type: "gaussian"
      std: 0.01
    }
    bias_filler {
      type: "constant"
      value: 1
    }
  }
}
layer {
  name: "relu4b"
  type: "ReLU"
  bottom: "conv4b"
  top: "conv4b"
}
layer {
  name: "pool4"
  type: "Pooling"
  bottom: "conv4b"
  top: "pool4"
  pooling_param {
    pool: MAX
    kernel_size: 2
    kernel_size: 2
    kernel_size: 2
    stride: 2
    stride: 2
    stride: 2
  }
}
layer {
  name: "conv5a"
  type: "Convolution"
  bottom: "pool4"
  top: "conv5a"
  param {
    lr_mult: 1
    decay_mult: 1
  }
  param {
    lr_mult: 2
    decay_mult: 0
  }
  convolution_param {
    num_output: 512
    pad: 1
    pad: 1
    pad: 1
    kernel_size: 3
    kernel_size: 3
    kernel_size: 3
    weight_filler {
      type: "gaussian"
      std: 0.01
    }
    bias_filler {
      type: "constant"
      value: 1
    }
  }
}
layer {
  name: "relu5a"
  type: "ReLU"
  bottom: "conv5a"
  top: "conv5a"
}
layer {
  name: "conv5b"
  type: "Convolution"
  bottom: "conv5a"
  top: "conv5b"
  param {
    lr_mult: 1
    decay_mult: 1
  }
  param {
    lr_mult: 2
    decay_mult: 0
  }
  convolution_param {
    num_output: 512
    pad: 1
    pad: 1
    pad: 1
    kernel_size: 3
    kernel_size: 3
    kernel_size: 3
    weight_filler {
      type: "gaussian"
      std: 0.01
    }
    bias_filler {
      type: "constant"
      value: 1
    }
  }
}
layer {
  name: "relu5b"
  type: "ReLU"
  bottom: "conv5b"
  top: "conv5b"
}
layer {
  name: "rpn_conv/3x3"
  type: "Convolution"
  bottom: "conv5b"
  top: "rpn/output"
  param {
    lr_mult: 1
    decay_mult: 1
  }
  param {
    lr_mult: 2
    decay_mult: 0
  }
  convolution_param {
    num_output: 512
    pad: 1
    pad: 1
    pad: 1
    kernel_size: 3
    kernel_size: 3
    kernel_size: 3
    stride: 1
    stride: 2
    stride: 2
    weight_filler {
      type: "gaussian"
      std: 0.01
    }
    bias_filler {
      type: "constant"
      value: 0
    }
  }
}
layer {
  name: "rpn_relu/3x3"
  type: "ReLU"
  bottom: "rpn/output"
  top: "rpn/output"
}
layer {
  name: "rpn_conv/3x3_2"
  type: "Convolution"
  bottom: "rpn/output"
  top: "rpn/output_2"
  param {
    lr_mult: 1
    decay_mult: 1
  }
  param {
    lr_mult: 2
    decay_mult: 0
  }
  convolution_param {
    num_output: 512
    pad: 1
    pad: 1
    pad: 1
    kernel_size: 3
    kernel_size: 3
    kernel_size: 3
    stride: 1
    stride: 2
    stride: 2
    weight_filler {
      type: "gaussian"
      std: 0.01
    }
    bias_filler {
      type: "constant"
      value: 0
    }
  }
}
layer {
  name: "rpn_relu/3x3_2"
  type: "ReLU"
  bottom: "rpn/output_2"
  top: "rpn/output_2"
}
layer {
  name: "rpn/output_pool"
  type: "Pooling"
  bottom: "rpn/output_2"
  top: "rpn/output_pool"
  pooling_param {
    pool: MAX
    kernel_size: 1
    kernel_size: 2
    kernel_size: 2
  }
}
layer {
  name: "rpn_cls_score"
  type: "Convolution"
  bottom: "rpn/output_pool"
  top: "rpn_cls_score"
  param {
    lr_mult: 1
    decay_mult: 1
  }
  param {
    lr_mult: 2
    decay_mult: 0
  }
  convolution_param {
    num_output: 74
    kernel_size: 1
    kernel_size: 1
    kernel_size: 1
    weight_filler {
      type: "gaussian"
      std: 0.01
    }
    bias_filler {
      type: "constant"
      value: 0
    }
  }
}
layer {
  name: "rpn_twin_pred"
  type: "Convolution"
  bottom: "rpn/output_pool"
  top: "rpn_twin_pred"
  param {
    lr_mult: 1
    decay_mult: 1
  }
  param {
    lr_mult: 2
    decay_mult: 0
  }
  convolution_param {
    num_output: 74
    kernel_size: 1
    kernel_size: 1
    kernel_size: 1
    weight_filler {
      type: "gaussian"
      std: 0.01
    }
    bias_filler {
      type: "constant"
      value: 0
    }
  }
}
layer {
  name: "rpn_cls_score_reshape"
  type: "Reshape"
  bottom: "rpn_cls_score"
  top: "rpn_cls_score_reshape"
  reshape_param {
    shape {
      dim: 0
      dim: 2
      dim: -1
      dim: 0
      dim: 0
    }
  }
}
layer {
  name: "rpn-data"
  type: "Python"
  bottom: "rpn_cls_score"
  bottom: "gt_boxes"
  bottom: "data"
  top: "rpn_labels"
  top: "rpn_twin_targets"
  top: "rpn_twin_inside_weights"
  top: "rpn_twin_outside_weights"
  python_param {
    module: "rpn.anchor_target_layer"
    layer: "AnchorTargetLayer"
    param_str: "\'feat_stride\': 8 \n\'scales\': !!python/tuple [1,1.25, 1.5,1.75, 2,2.5, 3,3.5, 4,4.5, 5,5.5, 6,7, 8,9,10,11,12,14,16,18,20,22,24,28,32,36,40,44,52,60,68,76,84,92,100]"
  }
}
layer {
  name: "rpn_loss_cls"
  type: "SoftmaxWithLoss"
  bottom: "rpn_cls_score_reshape"
  bottom: "rpn_labels"
  top: "rpn_cls_loss"
  loss_weight: 1
  propagate_down: true
  propagate_down: false
  loss_param {
    ignore_label: -1
    normalize: true
  }
}
layer {
  name: "rpn_loss_twin"
  type: "SmoothL1Loss"
  bottom: "rpn_twin_pred"
  bottom: "rpn_twin_targets"
  bottom: "rpn_twin_inside_weights"
  bottom: "rpn_twin_outside_weights"
  top: "rpn_loss_twin"
  loss_weight: 1
  smooth_l1_loss_param {
    sigma: 3
  }
}
layer {
  name: "rpn_accuarcy"
  type: "Accuracy"
  bottom: "rpn_cls_score_reshape"
  bottom: "rpn_labels"
  top: "rpn_accuarcy"
  top: "rpn_accuarcy_class"
  propagate_down: false
  propagate_down: false
  accuracy_param {
    ignore_label: -1
  }
}
layer {
  name: "rpn_cls_prob"
  type: "Softmax"
  bottom: "rpn_cls_score_reshape"
  top: "rpn_cls_prob"
}
layer {
  name: "rpn_cls_prob_reshape"
  type: "Reshape"
  bottom: "rpn_cls_prob"
  top: "rpn_cls_prob_reshape"
  reshape_param {
    shape {
      dim: 0
      dim: 74
      dim: -1
      dim: 0
      dim: 0
    }
  }
}
layer {
  name: "proposal"
  type: "Python"
  bottom: "rpn_cls_prob_reshape"
  bottom: "rpn_twin_pred"
  top: "rpn_rois"
  include {
    phase: TRAIN
  }
  python_param {
    module: "rpn.proposal_layer"
    layer: "ProposalLayer"
    param_str: "\'feat_stride\': 8 \n\'scales\': !!python/tuple [1,1.25, 1.5,1.75, 2,2.5, 3,3.5, 4,4.5, 5,5.5, 6,7, 8,9,10,11,12,14,16,18,20,22,24,28,32,36,40,44,52,60,68,76,84,92,100]"
  }
}
layer {
  name: "roi-data"
  type: "Python"
  bottom: "rpn_rois"
  bottom: "gt_boxes"
  top: "rois"
  top: "labels"
  top: "twin_targets"
  top: "twin_inside_weights"
  top: "twin_outside_weights"
  python_param {
    module: "rpn.proposal_target_layer"
    layer: "ProposalTargetLayer"
    param_str: "\'num_classes\': 201"
  }
}
layer {
  name: "roi_pool5"
  type: "ROIPooling"
  bottom: "conv5b"
  bottom: "rois"
  top: "pool5"
  roi_pooling_param {
    pooled_h: 4
    pooled_w: 4
    spatial_scale: 0.0625
    pooled_l: 1
    temporal_scale: 0.125
  }
}
layer {
  name: "fc6"
  type: "InnerProduct"
  bottom: "pool5"
  top: "fc6"
  param {
    lr_mult: 1
    decay_mult: 1
  }
  param {
    lr_mult: 2
    decay_mult: 0
  }
  inner_product_param {
    num_output: 4096
    weight_filler {
      type: "gaussian"
      std: 0.005
    }
    bias_filler {
      type: "constant"
      value: 1
    }
  }
}
layer {
  name: "relu6"
  type: "ReLU"
  bottom: "fc6"
  top: "fc6"
}
layer {
  name: "drop6"
  type: "Dropout"
  bottom: "fc6"
  top: "fc6"
  dropout_param {
    dropout_ratio: 0.5
  }
}
layer {
  name: "cls_score"
  type: "InnerProduct"
  bottom: "fc6"
  top: "cls_score"
  param {
    lr_mult: 1
    decay_mult: 1
  }
  param {
    lr_mult: 2
    decay_mult: 0
  }
  inner_product_param {
    num_output: 201
    weight_filler {
      type: "gaussian"
      std: 0.01
    }
    bias_filler {
      type: "constant"
      value: 0
    }
  }
}
layer {
  name: "twin_pred"
  type: "InnerProduct"
  bottom: "fc6"
  top: "twin_pred"
  param {
    lr_mult: 1
    decay_mult: 1
  }
  param {
    lr_mult: 2
    decay_mult: 0
  }
  inner_product_param {
    num_output: 402
    weight_filler {
      type: "gaussian"
      std: 0.001
    }
    bias_filler {
      type: "constant"
      value: 0
    }
  }
}
layer {
  name: "loss_cls"
  type: "SoftmaxWithLoss"
  bottom: "cls_score"
  bottom: "labels"
  top: "loss_cls"
  loss_weight: 1
  propagate_down: true
  propagate_down: false
}
layer {
  name: "loss_twin"
  type: "SmoothL1Loss"
  bottom: "twin_pred"
  bottom: "twin_targets"
  bottom: "twin_inside_weights"
  bottom: "twin_outside_weights"
  top: "loss_twin"
  loss_weight: 1
}
layer {
  name: "accuarcy"
  type: "Accuracy"
  bottom: "cls_score"
  bottom: "labels"
  top: "accuarcy"
  propagate_down: false
  propagate_down: false
  accuracy_param {
    ignore_label: -1
  }
}
I0412 04:28:31.061122 29002 layer_factory.hpp:77] Creating layer data
I0412 04:28:31.077992 29002 net.cpp:100] Creating Layer data
I0412 04:28:31.078151 29002 net.cpp:408] data -> data
I0412 04:28:31.078217 29002 net.cpp:408] data -> gt_boxes
RoiDataLayer: name_to_top: {'gt_windows': 1, 'data': 0}
I0412 04:28:31.091025 29002 net.cpp:150] Setting up data
I0412 04:28:31.091048 29002 net.cpp:157] Top shape: 1 3 768 112 112 (28901376)
I0412 04:28:31.091053 29002 net.cpp:157] Top shape: 1 3 (3)
I0412 04:28:31.091056 29002 net.cpp:165] Memory required for data: 115605516
I0412 04:28:31.091063 29002 layer_factory.hpp:77] Creating layer data_data_0_split
I0412 04:28:31.091074 29002 net.cpp:100] Creating Layer data_data_0_split
I0412 04:28:31.091079 29002 net.cpp:434] data_data_0_split <- data
I0412 04:28:31.091087 29002 net.cpp:408] data_data_0_split -> data_data_0_split_0
I0412 04:28:31.091099 29002 net.cpp:408] data_data_0_split -> data_data_0_split_1
I0412 04:28:31.091148 29002 net.cpp:150] Setting up data_data_0_split
I0412 04:28:31.091157 29002 net.cpp:157] Top shape: 1 3 768 112 112 (28901376)
I0412 04:28:31.091163 29002 net.cpp:157] Top shape: 1 3 768 112 112 (28901376)
I0412 04:28:31.091168 29002 net.cpp:165] Memory required for data: 346816524
I0412 04:28:31.091173 29002 layer_factory.hpp:77] Creating layer gt_boxes_data_1_split
I0412 04:28:31.091182 29002 net.cpp:100] Creating Layer gt_boxes_data_1_split
I0412 04:28:31.091187 29002 net.cpp:434] gt_boxes_data_1_split <- gt_boxes
I0412 04:28:31.091199 29002 net.cpp:408] gt_boxes_data_1_split -> gt_boxes_data_1_split_0
I0412 04:28:31.091212 29002 net.cpp:408] gt_boxes_data_1_split -> gt_boxes_data_1_split_1
I0412 04:28:31.091253 29002 net.cpp:150] Setting up gt_boxes_data_1_split
I0412 04:28:31.091261 29002 net.cpp:157] Top shape: 1 3 (3)
I0412 04:28:31.091267 29002 net.cpp:157] Top shape: 1 3 (3)
I0412 04:28:31.091272 29002 net.cpp:165] Memory required for data: 346816548
I0412 04:28:31.091276 29002 layer_factory.hpp:77] Creating layer conv1a
I0412 04:28:31.091291 29002 net.cpp:100] Creating Layer conv1a
I0412 04:28:31.091297 29002 net.cpp:434] conv1a <- data_data_0_split_0
I0412 04:28:31.091305 29002 net.cpp:408] conv1a -> conv1a
I0412 04:28:31.111608 29002 net.cpp:150] Setting up conv1a
I0412 04:28:31.111688 29002 net.cpp:157] Top shape: 1 64 768 112 112 (616562688)
I0412 04:28:31.111696 29002 net.cpp:165] Memory required for data: 2813067300
I0412 04:28:31.111717 29002 layer_factory.hpp:77] Creating layer relu1a
I0412 04:28:31.111739 29002 net.cpp:100] Creating Layer relu1a
I0412 04:28:31.111747 29002 net.cpp:434] relu1a <- conv1a
I0412 04:28:31.111754 29002 net.cpp:395] relu1a -> conv1a (in-place)
I0412 04:28:31.111769 29002 net.cpp:150] Setting up relu1a
I0412 04:28:31.111776 29002 net.cpp:157] Top shape: 1 64 768 112 112 (616562688)
I0412 04:28:31.111783 29002 net.cpp:165] Memory required for data: 5279318052
I0412 04:28:31.111788 29002 layer_factory.hpp:77] Creating layer pool1
I0412 04:28:31.111795 29002 net.cpp:100] Creating Layer pool1
I0412 04:28:31.111814 29002 net.cpp:434] pool1 <- conv1a
I0412 04:28:31.111830 29002 net.cpp:408] pool1 -> pool1
I0412 04:28:31.111958 29002 net.cpp:150] Setting up pool1
I0412 04:28:31.111970 29002 net.cpp:157] Top shape: 1 64 768 56 56 (154140672)
I0412 04:28:31.111974 29002 net.cpp:165] Memory required for data: 5895880740
I0412 04:28:31.111979 29002 layer_factory.hpp:77] Creating layer conv2a
I0412 04:28:31.111990 29002 net.cpp:100] Creating Layer conv2a
I0412 04:28:31.111994 29002 net.cpp:434] conv2a <- pool1
I0412 04:28:31.112002 29002 net.cpp:408] conv2a -> conv2a
I0412 04:28:31.121819 29002 net.cpp:150] Setting up conv2a
I0412 04:28:31.121888 29002 net.cpp:157] Top shape: 1 128 768 56 56 (308281344)
I0412 04:28:31.121912 29002 net.cpp:165] Memory required for data: 7129006116
I0412 04:28:31.121944 29002 layer_factory.hpp:77] Creating layer relu2a
I0412 04:28:31.121973 29002 net.cpp:100] Creating Layer relu2a
I0412 04:28:31.121994 29002 net.cpp:434] relu2a <- conv2a
I0412 04:28:31.122016 29002 net.cpp:395] relu2a -> conv2a (in-place)
I0412 04:28:31.122045 29002 net.cpp:150] Setting up relu2a
I0412 04:28:31.122068 29002 net.cpp:157] Top shape: 1 128 768 56 56 (308281344)
I0412 04:28:31.122086 29002 net.cpp:165] Memory required for data: 8362131492
I0412 04:28:31.122102 29002 layer_factory.hpp:77] Creating layer pool2
I0412 04:28:31.122130 29002 net.cpp:100] Creating Layer pool2
I0412 04:28:31.122148 29002 net.cpp:434] pool2 <- conv2a
I0412 04:28:31.122167 29002 net.cpp:408] pool2 -> pool2
I0412 04:28:31.122287 29002 net.cpp:150] Setting up pool2
I0412 04:28:31.122313 29002 net.cpp:157] Top shape: 1 128 384 28 28 (38535168)
I0412 04:28:31.122331 29002 net.cpp:165] Memory required for data: 8516272164
I0412 04:28:31.122347 29002 layer_factory.hpp:77] Creating layer conv3a
I0412 04:28:31.122376 29002 net.cpp:100] Creating Layer conv3a
I0412 04:28:31.122397 29002 net.cpp:434] conv3a <- pool2
I0412 04:28:31.122421 29002 net.cpp:408] conv3a -> conv3a
I0412 04:28:31.134414 29002 net.cpp:150] Setting up conv3a
I0412 04:28:31.134451 29002 net.cpp:157] Top shape: 1 256 384 28 28 (77070336)
I0412 04:28:31.134456 29002 net.cpp:165] Memory required for data: 8824553508
I0412 04:28:31.134470 29002 layer_factory.hpp:77] Creating layer relu3a
I0412 04:28:31.134497 29002 net.cpp:100] Creating Layer relu3a
I0412 04:28:31.134519 29002 net.cpp:434] relu3a <- conv3a
I0412 04:28:31.134531 29002 net.cpp:395] relu3a -> conv3a (in-place)
I0412 04:28:31.134541 29002 net.cpp:150] Setting up relu3a
I0412 04:28:31.134560 29002 net.cpp:157] Top shape: 1 256 384 28 28 (77070336)
I0412 04:28:31.134578 29002 net.cpp:165] Memory required for data: 9132834852
I0412 04:28:31.134595 29002 layer_factory.hpp:77] Creating layer conv3b
I0412 04:28:31.134624 29002 net.cpp:100] Creating Layer conv3b
I0412 04:28:31.134645 29002 net.cpp:434] conv3b <- conv3a
I0412 04:28:31.134671 29002 net.cpp:408] conv3b -> conv3b
I0412 04:28:31.156419 29002 net.cpp:150] Setting up conv3b
I0412 04:28:31.156455 29002 net.cpp:157] Top shape: 1 256 384 28 28 (77070336)
I0412 04:28:31.156461 29002 net.cpp:165] Memory required for data: 9441116196
I0412 04:28:31.156476 29002 layer_factory.hpp:77] Creating layer relu3b
I0412 04:28:31.156491 29002 net.cpp:100] Creating Layer relu3b
I0412 04:28:31.156497 29002 net.cpp:434] relu3b <- conv3b
I0412 04:28:31.156508 29002 net.cpp:395] relu3b -> conv3b (in-place)
I0412 04:28:31.156520 29002 net.cpp:150] Setting up relu3b
I0412 04:28:31.156535 29002 net.cpp:157] Top shape: 1 256 384 28 28 (77070336)
I0412 04:28:31.156539 29002 net.cpp:165] Memory required for data: 9749397540
I0412 04:28:31.156543 29002 layer_factory.hpp:77] Creating layer pool3
I0412 04:28:31.156550 29002 net.cpp:100] Creating Layer pool3
I0412 04:28:31.156555 29002 net.cpp:434] pool3 <- conv3b
I0412 04:28:31.156563 29002 net.cpp:408] pool3 -> pool3
I0412 04:28:31.156623 29002 net.cpp:150] Setting up pool3
I0412 04:28:31.156630 29002 net.cpp:157] Top shape: 1 256 192 14 14 (9633792)
I0412 04:28:31.156635 29002 net.cpp:165] Memory required for data: 9787932708
I0412 04:28:31.156637 29002 layer_factory.hpp:77] Creating layer conv4a
I0412 04:28:31.156648 29002 net.cpp:100] Creating Layer conv4a
I0412 04:28:31.156653 29002 net.cpp:434] conv4a <- pool3
I0412 04:28:31.156661 29002 net.cpp:408] conv4a -> conv4a
I0412 04:28:31.198415 29002 net.cpp:150] Setting up conv4a
I0412 04:28:31.198480 29002 net.cpp:157] Top shape: 1 512 192 14 14 (19267584)
I0412 04:28:31.198495 29002 net.cpp:165] Memory required for data: 9865003044
I0412 04:28:31.198524 29002 layer_factory.hpp:77] Creating layer relu4a
I0412 04:28:31.198546 29002 net.cpp:100] Creating Layer relu4a
I0412 04:28:31.198561 29002 net.cpp:434] relu4a <- conv4a
I0412 04:28:31.198581 29002 net.cpp:395] relu4a -> conv4a (in-place)
I0412 04:28:31.198604 29002 net.cpp:150] Setting up relu4a
I0412 04:28:31.198621 29002 net.cpp:157] Top shape: 1 512 192 14 14 (19267584)
I0412 04:28:31.198634 29002 net.cpp:165] Memory required for data: 9942073380
I0412 04:28:31.198647 29002 layer_factory.hpp:77] Creating layer conv4b
I0412 04:28:31.198673 29002 net.cpp:100] Creating Layer conv4b
I0412 04:28:31.198690 29002 net.cpp:434] conv4b <- conv4a
I0412 04:28:31.198707 29002 net.cpp:408] conv4b -> conv4b
I0412 04:28:31.279510 29002 net.cpp:150] Setting up conv4b
I0412 04:28:31.279582 29002 net.cpp:157] Top shape: 1 512 192 14 14 (19267584)
I0412 04:28:31.279598 29002 net.cpp:165] Memory required for data: 10019143716
I0412 04:28:31.279619 29002 layer_factory.hpp:77] Creating layer relu4b
I0412 04:28:31.279639 29002 net.cpp:100] Creating Layer relu4b
I0412 04:28:31.279659 29002 net.cpp:434] relu4b <- conv4b
I0412 04:28:31.279677 29002 net.cpp:395] relu4b -> conv4b (in-place)
I0412 04:28:31.279700 29002 net.cpp:150] Setting up relu4b
I0412 04:28:31.279719 29002 net.cpp:157] Top shape: 1 512 192 14 14 (19267584)
I0412 04:28:31.279733 29002 net.cpp:165] Memory required for data: 10096214052
I0412 04:28:31.279748 29002 layer_factory.hpp:77] Creating layer pool4
I0412 04:28:31.279768 29002 net.cpp:100] Creating Layer pool4
I0412 04:28:31.279783 29002 net.cpp:434] pool4 <- conv4b
I0412 04:28:31.279803 29002 net.cpp:408] pool4 -> pool4
I0412 04:28:31.279881 29002 net.cpp:150] Setting up pool4
I0412 04:28:31.279903 29002 net.cpp:157] Top shape: 1 512 96 7 7 (2408448)
I0412 04:28:31.279918 29002 net.cpp:165] Memory required for data: 10105847844
I0412 04:28:31.279932 29002 layer_factory.hpp:77] Creating layer conv5a
I0412 04:28:31.279958 29002 net.cpp:100] Creating Layer conv5a
I0412 04:28:31.279975 29002 net.cpp:434] conv5a <- pool4
I0412 04:28:31.279997 29002 net.cpp:408] conv5a -> conv5a
I0412 04:28:31.346884 29002 net.cpp:150] Setting up conv5a
I0412 04:28:31.346915 29002 net.cpp:157] Top shape: 1 512 96 7 7 (2408448)
I0412 04:28:31.346920 29002 net.cpp:165] Memory required for data: 10115481636
I0412 04:28:31.346930 29002 layer_factory.hpp:77] Creating layer relu5a
I0412 04:28:31.346941 29002 net.cpp:100] Creating Layer relu5a
I0412 04:28:31.346946 29002 net.cpp:434] relu5a <- conv5a
I0412 04:28:31.346956 29002 net.cpp:395] relu5a -> conv5a (in-place)
I0412 04:28:31.346966 29002 net.cpp:150] Setting up relu5a
I0412 04:28:31.346971 29002 net.cpp:157] Top shape: 1 512 96 7 7 (2408448)
I0412 04:28:31.346976 29002 net.cpp:165] Memory required for data: 10125115428
I0412 04:28:31.346978 29002 layer_factory.hpp:77] Creating layer conv5b
I0412 04:28:31.346992 29002 net.cpp:100] Creating Layer conv5b
I0412 04:28:31.346995 29002 net.cpp:434] conv5b <- conv5a
I0412 04:28:31.347002 29002 net.cpp:408] conv5b -> conv5b
I0412 04:28:31.410856 29002 net.cpp:150] Setting up conv5b
I0412 04:28:31.410946 29002 net.cpp:157] Top shape: 1 512 96 7 7 (2408448)
I0412 04:28:31.410965 29002 net.cpp:165] Memory required for data: 10134749220
I0412 04:28:31.410987 29002 layer_factory.hpp:77] Creating layer relu5b
I0412 04:28:31.411017 29002 net.cpp:100] Creating Layer relu5b
I0412 04:28:31.411038 29002 net.cpp:434] relu5b <- conv5b
I0412 04:28:31.411061 29002 net.cpp:395] relu5b -> conv5b (in-place)
I0412 04:28:31.411087 29002 net.cpp:150] Setting up relu5b
I0412 04:28:31.411110 29002 net.cpp:157] Top shape: 1 512 96 7 7 (2408448)
I0412 04:28:31.411128 29002 net.cpp:165] Memory required for data: 10144383012
I0412 04:28:31.411144 29002 layer_factory.hpp:77] Creating layer conv5b_relu5b_0_split
I0412 04:28:31.411176 29002 net.cpp:100] Creating Layer conv5b_relu5b_0_split
I0412 04:28:31.411197 29002 net.cpp:434] conv5b_relu5b_0_split <- conv5b
I0412 04:28:31.411216 29002 net.cpp:408] conv5b_relu5b_0_split -> conv5b_relu5b_0_split_0
I0412 04:28:31.411239 29002 net.cpp:408] conv5b_relu5b_0_split -> conv5b_relu5b_0_split_1
I0412 04:28:31.411324 29002 net.cpp:150] Setting up conv5b_relu5b_0_split
I0412 04:28:31.411350 29002 net.cpp:157] Top shape: 1 512 96 7 7 (2408448)
I0412 04:28:31.411370 29002 net.cpp:157] Top shape: 1 512 96 7 7 (2408448)
I0412 04:28:31.411386 29002 net.cpp:165] Memory required for data: 10163650596
I0412 04:28:31.411403 29002 layer_factory.hpp:77] Creating layer rpn_conv/3x3
I0412 04:28:31.411432 29002 net.cpp:100] Creating Layer rpn_conv/3x3
I0412 04:28:31.411454 29002 net.cpp:434] rpn_conv/3x3 <- conv5b_relu5b_0_split_0
I0412 04:28:31.411479 29002 net.cpp:408] rpn_conv/3x3 -> rpn/output
I0412 04:28:31.506165 29002 net.cpp:150] Setting up rpn_conv/3x3
I0412 04:28:31.506232 29002 net.cpp:157] Top shape: 1 512 96 4 4 (786432)
I0412 04:28:31.506251 29002 net.cpp:165] Memory required for data: 10166796324
I0412 04:28:31.506286 29002 layer_factory.hpp:77] Creating layer rpn_relu/3x3
I0412 04:28:31.506314 29002 net.cpp:100] Creating Layer rpn_relu/3x3
I0412 04:28:31.506335 29002 net.cpp:434] rpn_relu/3x3 <- rpn/output
I0412 04:28:31.506357 29002 net.cpp:395] rpn_relu/3x3 -> rpn/output (in-place)
I0412 04:28:31.506387 29002 net.cpp:150] Setting up rpn_relu/3x3
I0412 04:28:31.506412 29002 net.cpp:157] Top shape: 1 512 96 4 4 (786432)
I0412 04:28:31.506429 29002 net.cpp:165] Memory required for data: 10169942052
I0412 04:28:31.506445 29002 layer_factory.hpp:77] Creating layer rpn_conv/3x3_2
I0412 04:28:31.506476 29002 net.cpp:100] Creating Layer rpn_conv/3x3_2
I0412 04:28:31.506496 29002 net.cpp:434] rpn_conv/3x3_2 <- rpn/output
I0412 04:28:31.506520 29002 net.cpp:408] rpn_conv/3x3_2 -> rpn/output_2
I0412 04:28:31.569564 29002 net.cpp:150] Setting up rpn_conv/3x3_2
I0412 04:28:31.569597 29002 net.cpp:157] Top shape: 1 512 96 2 2 (196608)
I0412 04:28:31.569600 29002 net.cpp:165] Memory required for data: 10170728484
I0412 04:28:31.569612 29002 layer_factory.hpp:77] Creating layer rpn_relu/3x3_2
I0412 04:28:31.569622 29002 net.cpp:100] Creating Layer rpn_relu/3x3_2
I0412 04:28:31.569630 29002 net.cpp:434] rpn_relu/3x3_2 <- rpn/output_2
I0412 04:28:31.569638 29002 net.cpp:395] rpn_relu/3x3_2 -> rpn/output_2 (in-place)
I0412 04:28:31.569648 29002 net.cpp:150] Setting up rpn_relu/3x3_2
I0412 04:28:31.569654 29002 net.cpp:157] Top shape: 1 512 96 2 2 (196608)
I0412 04:28:31.569659 29002 net.cpp:165] Memory required for data: 10171514916
I0412 04:28:31.569664 29002 layer_factory.hpp:77] Creating layer rpn/output_pool
I0412 04:28:31.569672 29002 net.cpp:100] Creating Layer rpn/output_pool
I0412 04:28:31.569677 29002 net.cpp:434] rpn/output_pool <- rpn/output_2
I0412 04:28:31.569684 29002 net.cpp:408] rpn/output_pool -> rpn/output_pool
I0412 04:28:31.569739 29002 net.cpp:150] Setting up rpn/output_pool
I0412 04:28:31.569749 29002 net.cpp:157] Top shape: 1 512 96 1 1 (49152)
I0412 04:28:31.569754 29002 net.cpp:165] Memory required for data: 10171711524
I0412 04:28:31.569758 29002 layer_factory.hpp:77] Creating layer rpn/output_pool_rpn/output_pool_0_split
I0412 04:28:31.569769 29002 net.cpp:100] Creating Layer rpn/output_pool_rpn/output_pool_0_split
I0412 04:28:31.569777 29002 net.cpp:434] rpn/output_pool_rpn/output_pool_0_split <- rpn/output_pool
I0412 04:28:31.569785 29002 net.cpp:408] rpn/output_pool_rpn/output_pool_0_split -> rpn/output_pool_rpn/output_pool_0_split_0
I0412 04:28:31.569798 29002 net.cpp:408] rpn/output_pool_rpn/output_pool_0_split -> rpn/output_pool_rpn/output_pool_0_split_1
I0412 04:28:31.569849 29002 net.cpp:150] Setting up rpn/output_pool_rpn/output_pool_0_split
I0412 04:28:31.569854 29002 net.cpp:157] Top shape: 1 512 96 1 1 (49152)
I0412 04:28:31.569859 29002 net.cpp:157] Top shape: 1 512 96 1 1 (49152)
I0412 04:28:31.569865 29002 net.cpp:165] Memory required for data: 10172104740
I0412 04:28:31.569869 29002 layer_factory.hpp:77] Creating layer rpn_cls_score
I0412 04:28:31.569881 29002 net.cpp:100] Creating Layer rpn_cls_score
I0412 04:28:31.569887 29002 net.cpp:434] rpn_cls_score <- rpn/output_pool_rpn/output_pool_0_split_0
I0412 04:28:31.569895 29002 net.cpp:408] rpn_cls_score -> rpn_cls_score
I0412 04:28:31.570473 29002 net.cpp:150] Setting up rpn_cls_score
I0412 04:28:31.570482 29002 net.cpp:157] Top shape: 1 74 96 1 1 (7104)
I0412 04:28:31.570485 29002 net.cpp:165] Memory required for data: 10172133156
I0412 04:28:31.570492 29002 layer_factory.hpp:77] Creating layer rpn_cls_score_rpn_cls_score_0_split
I0412 04:28:31.570499 29002 net.cpp:100] Creating Layer rpn_cls_score_rpn_cls_score_0_split
I0412 04:28:31.570504 29002 net.cpp:434] rpn_cls_score_rpn_cls_score_0_split <- rpn_cls_score
I0412 04:28:31.570513 29002 net.cpp:408] rpn_cls_score_rpn_cls_score_0_split -> rpn_cls_score_rpn_cls_score_0_split_0
I0412 04:28:31.570521 29002 net.cpp:408] rpn_cls_score_rpn_cls_score_0_split -> rpn_cls_score_rpn_cls_score_0_split_1
I0412 04:28:31.570574 29002 net.cpp:150] Setting up rpn_cls_score_rpn_cls_score_0_split
I0412 04:28:31.570582 29002 net.cpp:157] Top shape: 1 74 96 1 1 (7104)
I0412 04:28:31.570588 29002 net.cpp:157] Top shape: 1 74 96 1 1 (7104)
I0412 04:28:31.570595 29002 net.cpp:165] Memory required for data: 10172189988
I0412 04:28:31.570600 29002 layer_factory.hpp:77] Creating layer rpn_twin_pred
I0412 04:28:31.570618 29002 net.cpp:100] Creating Layer rpn_twin_pred
I0412 04:28:31.570626 29002 net.cpp:434] rpn_twin_pred <- rpn/output_pool_rpn/output_pool_0_split_1
I0412 04:28:31.570632 29002 net.cpp:408] rpn_twin_pred -> rpn_twin_pred
I0412 04:28:31.571185 29002 net.cpp:150] Setting up rpn_twin_pred
I0412 04:28:31.571193 29002 net.cpp:157] Top shape: 1 74 96 1 1 (7104)
I0412 04:28:31.571195 29002 net.cpp:165] Memory required for data: 10172218404
I0412 04:28:31.571203 29002 layer_factory.hpp:77] Creating layer rpn_twin_pred_rpn_twin_pred_0_split
I0412 04:28:31.571213 29002 net.cpp:100] Creating Layer rpn_twin_pred_rpn_twin_pred_0_split
I0412 04:28:31.571218 29002 net.cpp:434] rpn_twin_pred_rpn_twin_pred_0_split <- rpn_twin_pred
I0412 04:28:31.571226 29002 net.cpp:408] rpn_twin_pred_rpn_twin_pred_0_split -> rpn_twin_pred_rpn_twin_pred_0_split_0
I0412 04:28:31.571235 29002 net.cpp:408] rpn_twin_pred_rpn_twin_pred_0_split -> rpn_twin_pred_rpn_twin_pred_0_split_1
I0412 04:28:31.571316 29002 net.cpp:150] Setting up rpn_twin_pred_rpn_twin_pred_0_split
I0412 04:28:31.571331 29002 net.cpp:157] Top shape: 1 74 96 1 1 (7104)
I0412 04:28:31.571336 29002 net.cpp:157] Top shape: 1 74 96 1 1 (7104)
I0412 04:28:31.571341 29002 net.cpp:165] Memory required for data: 10172275236
I0412 04:28:31.571344 29002 layer_factory.hpp:77] Creating layer rpn_cls_score_reshape
I0412 04:28:31.571358 29002 net.cpp:100] Creating Layer rpn_cls_score_reshape
I0412 04:28:31.571363 29002 net.cpp:434] rpn_cls_score_reshape <- rpn_cls_score_rpn_cls_score_0_split_0
I0412 04:28:31.571373 29002 net.cpp:408] rpn_cls_score_reshape -> rpn_cls_score_reshape
I0412 04:28:31.571429 29002 net.cpp:150] Setting up rpn_cls_score_reshape
I0412 04:28:31.571441 29002 net.cpp:157] Top shape: 1 2 3552 1 1 (7104)
I0412 04:28:31.571446 29002 net.cpp:165] Memory required for data: 10172303652
I0412 04:28:31.571450 29002 layer_factory.hpp:77] Creating layer rpn_cls_score_reshape_rpn_cls_score_reshape_0_split
I0412 04:28:31.571460 29002 net.cpp:100] Creating Layer rpn_cls_score_reshape_rpn_cls_score_reshape_0_split
I0412 04:28:31.571465 29002 net.cpp:434] rpn_cls_score_reshape_rpn_cls_score_reshape_0_split <- rpn_cls_score_reshape
I0412 04:28:31.571473 29002 net.cpp:408] rpn_cls_score_reshape_rpn_cls_score_reshape_0_split -> rpn_cls_score_reshape_rpn_cls_score_reshape_0_split_0
I0412 04:28:31.571488 29002 net.cpp:408] rpn_cls_score_reshape_rpn_cls_score_reshape_0_split -> rpn_cls_score_reshape_rpn_cls_score_reshape_0_split_1
I0412 04:28:31.571497 29002 net.cpp:408] rpn_cls_score_reshape_rpn_cls_score_reshape_0_split -> rpn_cls_score_reshape_rpn_cls_score_reshape_0_split_2
I0412 04:28:31.571595 29002 net.cpp:150] Setting up rpn_cls_score_reshape_rpn_cls_score_reshape_0_split
I0412 04:28:31.571609 29002 net.cpp:157] Top shape: 1 2 3552 1 1 (7104)
I0412 04:28:31.571614 29002 net.cpp:157] Top shape: 1 2 3552 1 1 (7104)
I0412 04:28:31.571619 29002 net.cpp:157] Top shape: 1 2 3552 1 1 (7104)
I0412 04:28:31.571624 29002 net.cpp:165] Memory required for data: 10172388900
I0412 04:28:31.571629 29002 layer_factory.hpp:77] Creating layer rpn-data
I0412 04:28:31.572111 29002 net.cpp:100] Creating Layer rpn-data
I0412 04:28:31.572125 29002 net.cpp:434] rpn-data <- rpn_cls_score_rpn_cls_score_0_split_1
I0412 04:28:31.572132 29002 net.cpp:434] rpn-data <- gt_boxes_data_1_split_0
I0412 04:28:31.572139 29002 net.cpp:434] rpn-data <- data_data_0_split_1
I0412 04:28:31.572147 29002 net.cpp:408] rpn-data -> rpn_labels
I0412 04:28:31.572157 29002 net.cpp:408] rpn-data -> rpn_twin_targets
I0412 04:28:31.572166 29002 net.cpp:408] rpn-data -> rpn_twin_inside_weights
I0412 04:28:31.572176 29002 net.cpp:408] rpn-data -> rpn_twin_outside_weights
I0412 04:28:31.575325 29002 net.cpp:150] Setting up rpn-data
I0412 04:28:31.575352 29002 net.cpp:157] Top shape: 1 1 3552 1 1 (3552)
I0412 04:28:31.575358 29002 net.cpp:157] Top shape: 1 74 96 1 1 (7104)
I0412 04:28:31.575363 29002 net.cpp:157] Top shape: 1 74 96 1 1 (7104)
I0412 04:28:31.575368 29002 net.cpp:157] Top shape: 1 74 96 1 1 (7104)
I0412 04:28:31.575371 29002 net.cpp:165] Memory required for data: 10172488356
I0412 04:28:31.575377 29002 layer_factory.hpp:77] Creating layer rpn_labels_rpn-data_0_split
I0412 04:28:31.575392 29002 net.cpp:100] Creating Layer rpn_labels_rpn-data_0_split
I0412 04:28:31.575399 29002 net.cpp:434] rpn_labels_rpn-data_0_split <- rpn_labels
I0412 04:28:31.575408 29002 net.cpp:408] rpn_labels_rpn-data_0_split -> rpn_labels_rpn-data_0_split_0
I0412 04:28:31.575419 29002 net.cpp:408] rpn_labels_rpn-data_0_split -> rpn_labels_rpn-data_0_split_1
I0412 04:28:31.575474 29002 net.cpp:150] Setting up rpn_labels_rpn-data_0_split
I0412 04:28:31.575481 29002 net.cpp:157] Top shape: 1 1 3552 1 1 (3552)
I0412 04:28:31.575486 29002 net.cpp:157] Top shape: 1 1 3552 1 1 (3552)
I0412 04:28:31.575490 29002 net.cpp:165] Memory required for data: 10172516772
I0412 04:28:31.575495 29002 layer_factory.hpp:77] Creating layer rpn_loss_cls
I0412 04:28:31.575506 29002 net.cpp:100] Creating Layer rpn_loss_cls
I0412 04:28:31.575515 29002 net.cpp:434] rpn_loss_cls <- rpn_cls_score_reshape_rpn_cls_score_reshape_0_split_0
I0412 04:28:31.575522 29002 net.cpp:434] rpn_loss_cls <- rpn_labels_rpn-data_0_split_0
…
I0412 04:28:31.575881 29002 layer_factory.hpp:77] Creating layer rpn_accuarcy
I0412 04:28:31.575894 29002 net.cpp:100] Creating Layer rpn_accuarcy
I0412 04:28:31.575904 29002 net.cpp:434] rpn_accuarcy <- rpn_cls_score_reshape_rpn_cls_score_reshape_0_split_1
I0412 04:28:31.575911 29002 net.cpp:434] rpn_accuarcy <- rpn_labels_rpn-data_0_split_1
I0412 04:28:31.575917 29002 net.cpp:408] rpn_accuarcy -> rpn_accuarcy
I0412 04:28:31.575925 29002 net.cpp:408] rpn_accuarcy -> rpn_accuarcy_class
I0412 04:28:31.575973 29002 net.cpp:150] Setting up rpn_accuarcy
I0412 04:28:31.575979 29002 net.cpp:157] Top shape: (1)
I0412 04:28:31.575985 29002 net.cpp:157] Top shape: 2 (2)
I0412 04:28:31.575989 29002 net.cpp:165] Memory required for data: 10172516792
I0412 04:28:31.575997 29002 layer_factory.hpp:77] Creating layer rpn_cls_prob
I0412 04:28:31.576006 29002 net.cpp:100] Creating Layer rpn_cls_prob
I0412 04:28:31.576012 29002 net.cpp:434] rpn_cls_prob <- rpn_cls_score_reshape_rpn_cls_score_reshape_0_split_2
I0412 04:28:31.576020 29002 net.cpp:408] rpn_cls_prob -> rpn_cls_prob
I0412 04:28:31.576133 29002 net.cpp:150] Setting up rpn_cls_prob
I0412 04:28:31.576144 29002 net.cpp:157] Top shape: 1 2 3552 1 1 (7104)
I0412 04:28:31.576149 29002 net.cpp:165] Memory required for data: 10172545208
I0412 04:28:31.576153 29002 layer_factory.hpp:77] Creating layer rpn_cls_prob_reshape
I0412 04:28:31.576164 29002 net.cpp:100] Creating Layer rpn_cls_prob_reshape
I0412 04:28:31.576170 29002 net.cpp:434] rpn_cls_prob_reshape <- rpn_cls_prob
I0412 04:28:31.576177 29002 net.cpp:408] rpn_cls_prob_reshape -> rpn_cls_prob_reshape
I0412 04:28:31.576217 29002 net.cpp:150] Setting up rpn_cls_prob_reshape
I0412 04:28:31.576227 29002 net.cpp:157] Top shape: 1 74 96 1 1 (7104)
I0412 04:28:31.576231 29002 net.cpp:165] Memory required for data: 10172573624
I0412 04:28:31.576236 29002 layer_factory.hpp:77] Creating layer proposal
I0412 04:28:31.577030 29002 net.cpp:100] Creating Layer proposal
I0412 04:28:31.577045 29002 net.cpp:434] proposal <- rpn_cls_prob_reshape
I0412 04:28:31.577052 29002 net.cpp:434] proposal <- rpn_twin_pred_rpn_twin_pred_0_split_1
I0412 04:28:31.577061 29002 net.cpp:408] proposal -> rpn_rois
I0412 04:28:31.580987 29002 net.cpp:150] Setting up proposal
I0412 04:28:31.581009 29002 net.cpp:157] Top shape: 1 3 (3)
I0412 04:28:31.581014 29002 net.cpp:165] Memory required for data: 10172573636
I0412 04:28:31.581020 29002 layer_factory.hpp:77] Creating layer roi-data
I0412 04:28:31.581214 29002 net.cpp:100] Creating Layer roi-data
I0412 04:28:31.581228 29002 net.cpp:434] roi-data <- rpn_rois
I0412 04:28:31.581235 29002 net.cpp:434] roi-data <- gt_boxes_data_1_split_1
I0412 04:28:31.581244 29002 net.cpp:408] roi-data -> rois
I0412 04:28:31.581256 29002 net.cpp:408] roi-data -> labels
I0412 04:28:31.581266 29002 net.cpp:408] roi-data -> twin_targets
I0412 04:28:31.581276 29002 net.cpp:408] roi-data -> twin_inside_weights
I0412 04:28:31.581285 29002 net.cpp:408] roi-data -> twin_outside_weights
I0412 04:28:31.581758 29002 net.cpp:150] Setting up roi-data
I0412 04:28:31.581773 29002 net.cpp:157] Top shape: 1 3 (3)
I0412 04:28:31.581779 29002 net.cpp:157] Top shape: 1 1 (1)
I0412 04:28:31.581784 29002 net.cpp:157] Top shape: 1 402 (402)
I0412 04:28:31.581789 29002 net.cpp:157] Top shape: 1 402 (402)
I0412 04:28:31.581794 29002 net.cpp:157] Top shape: 1 402 (402)
I0412 04:28:31.581799 29002 net.cpp:165] Memory required for data: 10172578476
I0412 04:28:31.581804 29002 layer_factory.hpp:77] Creating layer labels_roi-data_1_split
I0412 04:28:31.581811 29002 net.cpp:100] Creating Layer labels_roi-data_1_split
I0412 04:28:31.581817 29002 net.cpp:434] labels_roi-data_1_split <- labels
I0412 04:28:31.581825 29002 net.cpp:408] labels_roi-data_1_split -> labels_roi-data_1_split_0
I0412 04:28:31.581835 29002 net.cpp:408] labels_roi-data_1_split -> labels_roi-data_1_split_1
I0412 04:28:31.581894 29002 net.cpp:150] Setting up labels_roi-data_1_split
I0412 04:28:31.581907 29002 net.cpp:157] Top shape: 1 1 (1)
I0412 04:28:31.581913 29002 net.cpp:157] Top shape: 1 1 (1)
I0412 04:28:31.581918 29002 net.cpp:165] Memory required for data: 10172578484
I0412 04:28:31.581923 29002 layer_factory.hpp:77] Creating layer roi_pool5
I0412 04:28:31.581930 29002 net.cpp:100] Creating Layer roi_pool5
I0412 04:28:31.581936 29002 net.cpp:434] roi_pool5 <- conv5b_relu5b_0_split_1
I0412 04:28:31.581943 29002 net.cpp:434] roi_pool5 <- rois
I0412 04:28:31.581951 29002 net.cpp:408] roi_pool5 -> pool5
I0412 04:28:31.581960 29002 roi_pooling_layer.cpp:34] Temporal scale: 0.125
I0412 04:28:31.581974 29002 roi_pooling_layer.cpp:35] Spatial scale: 0.0625
I0412 04:28:31.582036 29002 net.cpp:150] Setting up roi_pool5
I0412 04:28:31.582048 29002 net.cpp:157] Top shape: 1 512 1 4 4 (8192)
I0412 04:28:31.582053 29002 net.cpp:165] Memory required for data: 10172611252
I0412 04:28:31.582058 29002 layer_factory.hpp:77] Creating layer fc6
I0412 04:28:31.582070 29002 net.cpp:100] Creating Layer fc6
I0412 04:28:31.582077 29002 net.cpp:434] fc6 <- pool5
I0412 04:28:31.582085 29002 net.cpp:408] fc6 -> fc6
I0412 04:28:31.946705 29002 net.cpp:150] Setting up fc6
I0412 04:28:31.946739 29002 net.cpp:157] Top shape: 1 4096 (4096)
I0412 04:28:31.946743 29002 net.cpp:165] Memory required for data: 10172627636
I0412 04:28:31.946756 29002 layer_factory.hpp:77] Creating layer relu6
I0412 04:28:31.946769 29002 net.cpp:100] Creating Layer relu6
I0412 04:28:31.946775 29002 net.cpp:434] relu6 <- fc6
I0412 04:28:31.946784 29002 net.cpp:395] relu6 -> fc6 (in-place)
I0412 04:28:31.946792 29002 net.cpp:150] Setting up relu6
I0412 04:28:31.946797 29002 net.cpp:157] Top shape: 1 4096 (4096)
I0412 04:28:31.946801 29002 net.cpp:165] Memory required for data: 10172644020
I0412 04:28:31.946805 29002 layer_factory.hpp:77] Creating layer drop6
I0412 04:28:31.946812 29002 net.cpp:100] Creating Layer drop6
I0412 04:28:31.946816 29002 net.cpp:434] drop6 <- fc6
I0412 04:28:31.946821 29002 net.cpp:395] drop6 -> fc6 (in-place)
I0412 04:28:31.946866 29002 net.cpp:150] Setting up drop6
I0412 04:28:31.946874 29002 net.cpp:157] Top shape: 1 4096 (4096)
I0412 04:28:31.946877 29002 net.cpp:165] Memory required for data: 10172660404
I0412 04:28:31.946882 29002 layer_factory.hpp:77] Creating layer fc6_drop6_0_split
I0412 04:28:31.946889 29002 net.cpp:100] Creating Layer fc6_drop6_0_split
I0412 04:28:31.946893 29002 net.cpp:434] fc6_drop6_0_split <- fc6
I0412 04:28:31.946902 29002 net.cpp:408] fc6_drop6_0_split -> fc6_drop6_0_split_0
I0412 04:28:31.946908 29002 net.cpp:408] fc6_drop6_0_split -> fc6_drop6_0_split_1
I0412 04:28:31.946962 29002 net.cpp:150] Setting up fc6_drop6_0_split
I0412 04:28:31.946969 29002 net.cpp:157] Top shape: 1 4096 (4096)
I0412 04:28:31.946972 29002 net.cpp:157] Top shape: 1 4096 (4096)
I0412 04:28:31.946976 29002 net.cpp:165] Memory required for data: 10172693172
I0412 04:28:31.946980 29002 layer_factory.hpp:77] Creating layer cls_score
I0412 04:28:31.946988 29002 net.cpp:100] Creating Layer cls_score
I0412 04:28:31.946992 29002 net.cpp:434] cls_score <- fc6_drop6_0_split_0
I0412 04:28:31.947001 29002 net.cpp:408] cls_score -> cls_score
I0412 04:28:31.955252 29002 net.cpp:150] Setting up cls_score
I0412 04:28:31.955283 29002 net.cpp:157] Top shape: 1 201 (201)
I0412 04:28:31.955288 29002 net.cpp:165] Memory required for data: 10172693976
I0412 04:28:31.955301 29002 layer_factory.hpp:77] Creating layer cls_score_cls_score_0_split
I0412 04:28:31.955313 29002 net.cpp:100] Creating Layer cls_score_cls_score_0_split
I0412 04:28:31.955319 29002 net.cpp:434] cls_score_cls_score_0_split <- cls_score
I0412 04:28:31.955328 29002 net.cpp:408] cls_score_cls_score_0_split -> cls_score_cls_score_0_split_0
I0412 04:28:31.955338 29002 net.cpp:408] cls_score_cls_score_0_split -> cls_score_cls_score_0_split_1
I0412 04:28:31.955399 29002 net.cpp:150] Setting up cls_score_cls_score_0_split
I0412 04:28:31.955407 29002 net.cpp:157] Top shape: 1 201 (201)
I0412 04:28:31.955412 29002 net.cpp:157] Top shape: 1 201 (201)
I0412 04:28:31.955416 29002 net.cpp:165] Memory required for data: 10172695584
I0412 04:28:31.955421 29002 layer_factory.hpp:77] Creating layer twin_pred
I0412 04:28:31.955432 29002 net.cpp:100] Creating Layer twin_pred
I0412 04:28:31.955438 29002 net.cpp:434] twin_pred <- fc6_drop6_0_split_1
I0412 04:28:31.955448 29002 net.cpp:408] twin_pred -> twin_pred
I0412 04:28:31.977499 29002 net.cpp:150] Setting up twin_pred
I0412 04:28:31.977579 29002 net.cpp:157] Top shape: 1 402 (402)
I0412 04:28:31.977598 29002 net.cpp:165] Memory required for data: 10172697192
I0412 04:28:31.977627 29002 layer_factory.hpp:77] Creating layer loss_cls
I0412 04:28:31.977655 29002 net.cpp:100] Creating Layer loss_cls
I0412 04:28:31.977684 29002 net.cpp:434] loss_cls <- cls_score_cls_score_0_split_0
I0412 04:28:31.977706 29002 net.cpp:434] loss_cls <- labels_roi-data_1_split_0
I0412 04:28:31.977735 29002 net.cpp:408] loss_cls -> loss_cls
…
