…
stepsize: 350000
snapshot: 0
snapshot_prefix: "./experiments/activitynet/snapshot/activitynet"
average_loss: 100
iter_size: 1
I0418 00:38:05.556783 17449 solver.cpp:81] Creating training net from train_net file: ./experiments/activitynet/train.prototxt
I0418 00:38:05.557870 17449 net.cpp:58] Initializing net from parameters: 
name: "activitynet"
state {
  phase: TRAIN
}
layer {
  name: "data"
  type: "Python"
  top: "data"
  top: "gt_boxes"
  python_param {
    module: "roi_data_layer.layer"
    layer: "RoIDataLayer"
    param_str: "\'num_classes\': 100"
  }
}
layer {
  name: "conv1a"
  type: "Convolution"
  bottom: "data"
  top: "conv1a"
  param {
    lr_mult: 0
    decay_mult: 0
  }
  param {
    lr_mult: 0
    decay_mult: 0
  }
  convolution_param {
    num_output: 64
    pad: 1
    pad: 1
    pad: 1
    kernel_size: 3
    kernel_size: 3
    kernel_size: 3
    weight_filler {
      type: "gaussian"
      std: 0.01
    }
    bias_filler {
      type: "constant"
      value: 0
    }
  }
}
layer {
  name: "relu1a"
  type: "ReLU"
  bottom: "conv1a"
  top: "conv1a"
}
layer {
  name: "pool1"
  type: "Pooling"
  bottom: "conv1a"
  top: "pool1"
  pooling_param {
    pool: MAX
    kernel_size: 1
    kernel_size: 2
    kernel_size: 2
    stride: 1
    stride: 2
    stride: 2
  }
}
layer {
  name: "conv2a"
  type: "Convolution"
  bottom: "pool1"
  top: "conv2a"
  param {
    lr_mult: 0
    decay_mult: 0
  }
  param {
    lr_mult: 0
    decay_mult: 0
  }
  convolution_param {
    num_output: 128
    pad: 1
    pad: 1
    pad: 1
    kernel_size: 3
    kernel_size: 3
    kernel_size: 3
    weight_filler {
      type: "gaussian"
      std: 0.01
    }
    bias_filler {
      type: "constant"
      value: 1
    }
  }
}
layer {
  name: "relu2a"
  type: "ReLU"
  bottom: "conv2a"
  top: "conv2a"
}
layer {
  name: "pool2"
  type: "Pooling"
  bottom: "conv2a"
  top: "pool2"
  pooling_param {
    pool: MAX
    kernel_size: 2
    kernel_size: 2
    kernel_size: 2
    stride: 2
    stride: 2
    stride: 2
  }
}
layer {
  name: "conv3a"
  type: "Convolution"
  bottom: "pool2"
  top: "conv3a"
  param {
    lr_mult: 1
    decay_mult: 1
  }
  param {
    lr_mult: 2
    decay_mult: 0
  }
  convolution_param {
    num_output: 256
    pad: 1
    pad: 1
    pad: 1
    kernel_size: 3
    kernel_size: 3
    kernel_size: 3
    weight_filler {
      type: "gaussian"
      std: 0.01
    }
    bias_filler {
      type: "constant"
      value: 1
    }
  }
}
layer {
  name: "relu3a"
  type: "ReLU"
  bottom: "conv3a"
  top: "conv3a"
}
layer {
  name: "conv3b"
  type: "Convolution"
  bottom: "conv3a"
  top: "conv3b"
  param {
    lr_mult: 1
    decay_mult: 1
  }
  param {
    lr_mult: 2
    decay_mult: 0
  }
  convolution_param {
    num_output: 256
    pad: 1
    pad: 1
    pad: 1
    kernel_size: 3
    kernel_size: 3
    kernel_size: 3
    weight_filler {
      type: "gaussian"
      std: 0.01
    }
    bias_filler {
      type: "constant"
      value: 1
    }
  }
}
layer {
  name: "relu3b"
  type: "ReLU"
  bottom: "conv3b"
  top: "conv3b"
}
layer {
  name: "pool3"
  type: "Pooling"
  bottom: "conv3b"
  top: "pool3"
  pooling_param {
    pool: MAX
    kernel_size: 2
    kernel_size: 2
    kernel_size: 2
    stride: 2
    stride: 2
    stride: 2
  }
}
layer {
  name: "conv4a"
  type: "Convolution"
  bottom: "pool3"
  top: "conv4a"
  param {
    lr_mult: 1
    decay_mult: 1
  }
  param {
    lr_mult: 2
    decay_mult: 0
  }
  convolution_param {
    num_output: 512
    pad: 1
    pad: 1
    pad: 1
    kernel_size: 3
    kernel_size: 3
    kernel_size: 3
    weight_filler {
      type: "gaussian"
      std: 0.01
    }
    bias_filler {
      type: "constant"
      value: 1
    }
  }
}
layer {
  name: "relu4a"
  type: "ReLU"
  bottom: "conv4a"
  top: "conv4a"
}
layer {
  name: "conv4b"
  type: "Convolution"
  bottom: "conv4a"
  top: "conv4b"
  param {
    lr_mult: 1
    decay_mult: 1
  }
  param {
    lr_mult: 2
    decay_mult: 0
  }
  convolution_param {
    num_output: 512
    pad: 1
    pad: 1
    pad: 1
    kernel_size: 3
    kernel_size: 3
    kernel_size: 3
    weight_filler {
      type: "gaussian"
      std: 0.01
    }
    bias_filler {
      type: "constant"
      value: 1
    }
  }
}
layer {
  name: "relu4b"
  type: "ReLU"
  bottom: "conv4b"
  top: "conv4b"
}
layer {
  name: "pool4"
  type: "Pooling"
  bottom: "conv4b"
  top: "pool4"
  pooling_param {
    pool: MAX
    kernel_size: 2
    kernel_size: 2
    kernel_size: 2
    stride: 2
    stride: 2
    stride: 2
  }
}
layer {
  name: "conv5a"
  type: "Convolution"
  bottom: "pool4"
  top: "conv5a"
  param {
    lr_mult: 1
    decay_mult: 1
  }
  param {
    lr_mult: 2
    decay_mult: 0
  }
  convolution_param {
    num_output: 512
    pad: 1
    pad: 1
    pad: 1
    kernel_size: 3
    kernel_size: 3
    kernel_size: 3
    weight_filler {
      type: "gaussian"
      std: 0.01
    }
    bias_filler {
      type: "constant"
      value: 1
    }
  }
}
layer {
  name: "relu5a"
  type: "ReLU"
  bottom: "conv5a"
  top: "conv5a"
}
layer {
  name: "conv5b"
  type: "Convolution"
  bottom: "conv5a"
  top: "conv5b"
  param {
    lr_mult: 1
    decay_mult: 1
  }
  param {
    lr_mult: 2
    decay_mult: 0
  }
  convolution_param {
    num_output: 512
    pad: 1
    pad: 1
    pad: 1
    kernel_size: 3
    kernel_size: 3
    kernel_size: 3
    weight_filler {
      type: "gaussian"
      std: 0.01
    }
    bias_filler {
      type: "constant"
      value: 1
    }
  }
}
layer {
  name: "relu5b"
  type: "ReLU"
  bottom: "conv5b"
  top: "conv5b"
}
layer {
  name: "rpn_conv/3x3"
  type: "Convolution"
  bottom: "conv5b"
  top: "rpn/output"
  param {
    lr_mult: 1
    decay_mult: 1
  }
  param {
    lr_mult: 2
    decay_mult: 0
  }
  convolution_param {
    num_output: 512
    pad: 1
    pad: 1
    pad: 1
    kernel_size: 3
    kernel_size: 3
    kernel_size: 3
    stride: 1
    stride: 2
    stride: 2
    weight_filler {
      type: "gaussian"
      std: 0.01
    }
    bias_filler {
      type: "constant"
      value: 0
    }
  }
}
layer {
  name: "rpn_relu/3x3"
  type: "ReLU"
  bottom: "rpn/output"
  top: "rpn/output"
}
layer {
  name: "rpn_conv/3x3_2"
  type: "Convolution"
  bottom: "rpn/output"
  top: "rpn/output_2"
  param {
    lr_mult: 1
    decay_mult: 1
  }
  param {
    lr_mult: 2
    decay_mult: 0
  }
  convolution_param {
    num_output: 512
    pad: 1
    pad: 1
    pad: 1
    kernel_size: 3
    kernel_size: 3
    kernel_size: 3
    stride: 1
    stride: 2
    stride: 2
    weight_filler {
      type: "gaussian"
      std: 0.01
    }
    bias_filler {
      type: "constant"
      value: 0
    }
  }
}
layer {
  name: "rpn_relu/3x3_2"
  type: "ReLU"
  bottom: "rpn/output_2"
  top: "rpn/output_2"
}
layer {
  name: "rpn/output_pool"
  type: "Pooling"
  bottom: "rpn/output_2"
  top: "rpn/output_pool"
  pooling_param {
    pool: MAX
    kernel_size: 1
    kernel_size: 2
    kernel_size: 2
  }
}
layer {
  name: "rpn_cls_score"
  type: "Convolution"
  bottom: "rpn/output_pool"
  top: "rpn_cls_score"
  param {
    lr_mult: 1
    decay_mult: 1
  }
  param {
    lr_mult: 2
    decay_mult: 0
  }
  convolution_param {
    num_output: 74
    kernel_size: 1
    kernel_size: 1
    kernel_size: 1
    weight_filler {
      type: "gaussian"
      std: 0.01
    }
    bias_filler {
      type: "constant"
      value: 0
    }
  }
}
layer {
  name: "rpn_twin_pred"
  type: "Convolution"
  bottom: "rpn/output_pool"
  top: "rpn_twin_pred"
  param {
    lr_mult: 1
    decay_mult: 1
  }
  param {
    lr_mult: 2
    decay_mult: 0
  }
  convolution_param {
    num_output: 74
    kernel_size: 1
    kernel_size: 1
    kernel_size: 1
    weight_filler {
      type: "gaussian"
      std: 0.01
    }
    bias_filler {
      type: "constant"
      value: 0
    }
  }
}
layer {
  name: "rpn_cls_score_reshape"
  type: "Reshape"
  bottom: "rpn_cls_score"
  top: "rpn_cls_score_reshape"
  reshape_param {
    shape {
      dim: 0
      dim: 2
      dim: -1
      dim: 0
      dim: 0
    }
  }
}
layer {
  name: "rpn-data"
  type: "Python"
  bottom: "rpn_cls_score"
  bottom: "gt_boxes"
  bottom: "data"
  top: "rpn_labels"
  top: "rpn_twin_targets"
  top: "rpn_twin_inside_weights"
  top: "rpn_twin_outside_weights"
  python_param {
    module: "rpn.anchor_target_layer"
    layer: "AnchorTargetLayer"
    param_str: "\'feat_stride\': 8 \n\'scales\': !!python/tuple [1,1.25, 1.5,1.75, 2,2.5, 3,3.5, 4,4.5, 5,5.5, 6,7, 8,9,10,11,12,14,16,18,20,22,24,28,32,36,40,44,52,60,68,76,84,92,100]"
  }
}
layer {
  name: "rpn_loss_cls"
  type: "SoftmaxWithLoss"
  bottom: "rpn_cls_score_reshape"
  bottom: "rpn_labels"
  top: "rpn_cls_loss"
  loss_weight: 1
  propagate_down: true
  propagate_down: false
  loss_param {
    ignore_label: -1
    normalize: true
  }
}
layer {
  name: "rpn_loss_twin"
  type: "SmoothL1Loss"
  bottom: "rpn_twin_pred"
  bottom: "rpn_twin_targets"
  bottom: "rpn_twin_inside_weights"
  bottom: "rpn_twin_outside_weights"
  top: "rpn_loss_twin"
  loss_weight: 1
  smooth_l1_loss_param {
    sigma: 3
  }
}
layer {
  name: "rpn_accuarcy"
  type: "Accuracy"
  bottom: "rpn_cls_score_reshape"
  bottom: "rpn_labels"
  top: "rpn_accuarcy"
  top: "rpn_accuarcy_class"
  propagate_down: false
  propagate_down: false
  accuracy_param {
    ignore_label: -1
  }
}
layer {
  name: "rpn_cls_prob"
  type: "Softmax"
  bottom: "rpn_cls_score_reshape"
  top: "rpn_cls_prob"
}
layer {
  name: "rpn_cls_prob_reshape"
  type: "Reshape"
  bottom: "rpn_cls_prob"
  top: "rpn_cls_prob_reshape"
  reshape_param {
    shape {
      dim: 0
      dim: 74
      dim: -1
      dim: 0
      dim: 0
    }
  }
}
layer {
  name: "proposal"
  type: "Python"
  bottom: "rpn_cls_prob_reshape"
  bottom: "rpn_twin_pred"
  top: "rpn_rois"
  include {
    phase: TRAIN
  }
  python_param {
    module: "rpn.proposal_layer"
    layer: "ProposalLayer"
    param_str: "\'feat_stride\': 8 \n\'scales\': !!python/tuple [1,1.25, 1.5,1.75, 2,2.5, 3,3.5, 4,4.5, 5,5.5, 6,7, 8,9,10,11,12,14,16,18,20,22,24,28,32,36,40,44,52,60,68,76,84,92,100]"
  }
}
layer {
  name: "roi-data"
  type: "Python"
  bottom: "rpn_rois"
  bottom: "gt_boxes"
  top: "rois"
  top: "labels"
  top: "twin_targets"
  top: "twin_inside_weights"
  top: "twin_outside_weights"
  python_param {
    module: "rpn.proposal_target_layer"
    layer: "ProposalTargetLayer"
    param_str: "\'num_classes\': 201"
  }
}
layer {
  name: "roi_pool5"
  type: "ROIPooling"
  bottom: "conv5b"
  bottom: "rois"
  top: "pool5"
  roi_pooling_param {
    pooled_h: 4
    pooled_w: 4
    spatial_scale: 0.0625
    pooled_l: 1
    temporal_scale: 0.125
  }
}
layer {
  name: "fc6"
  type: "InnerProduct"
  bottom: "pool5"
  top: "fc6"
  param {
    lr_mult: 1
    decay_mult: 1
  }
  param {
    lr_mult: 2
    decay_mult: 0
  }
  inner_product_param {
    num_output: 4096
    weight_filler {
      type: "gaussian"
      std: 0.005
    }
    bias_filler {
      type: "constant"
      value: 1
    }
  }
}
layer {
  name: "relu6"
  type: "ReLU"
  bottom: "fc6"
  top: "fc6"
}
layer {
  name: "drop6"
  type: "Dropout"
  bottom: "fc6"
  top: "fc6"
  dropout_param {
    dropout_ratio: 0.5
  }
}
layer {
  name: "cls_score"
  type: "InnerProduct"
  bottom: "fc6"
  top: "cls_score"
  param {
    lr_mult: 1
    decay_mult: 1
  }
  param {
    lr_mult: 2
    decay_mult: 0
  }
  inner_product_param {
    num_output: 201
    weight_filler {
      type: "gaussian"
      std: 0.01
    }
    bias_filler {
      type: "constant"
      value: 0
    }
  }
}
layer {
  name: "twin_pred"
  type: "InnerProduct"
  bottom: "fc6"
  top: "twin_pred"
  param {
    lr_mult: 1
    decay_mult: 1
  }
  param {
    lr_mult: 2
    decay_mult: 0
  }
  inner_product_param {
    num_output: 402
    weight_filler {
      type: "gaussian"
      std: 0.001
    }
    bias_filler {
      type: "constant"
      value: 0
    }
  }
}
layer {
  name: "loss_cls"
  type: "SoftmaxWithLoss"
  bottom: "cls_score"
  bottom: "labels"
  top: "loss_cls"
  loss_weight: 1
  propagate_down: true
  propagate_down: false
}
layer {
  name: "loss_twin"
  type: "SmoothL1Loss"
  bottom: "twin_pred"
  bottom: "twin_targets"
  bottom: "twin_inside_weights"
  bottom: "twin_outside_weights"
  top: "loss_twin"
  loss_weight: 1
}
layer {
  name: "accuarcy"
  type: "Accuracy"
  bottom: "cls_score"
  bottom: "labels"
  top: "accuarcy"
  propagate_down: false
  propagate_down: false
  accuracy_param {
    ignore_label: -1
  }
}
I0418 00:38:05.558097 17449 layer_factory.hpp:77] Creating layer data
I0418 00:38:05.586709 17449 net.cpp:100] Creating Layer data
I0418 00:38:05.586736 17449 net.cpp:408] data -> data
I0418 00:38:05.586751 17449 net.cpp:408] data -> gt_boxes
setting up
has rpn
RoiDataLayer: name_to_top: {'gt_windows': 1, 'data': 0}
I0418 00:38:05.626780 17449 net.cpp:150] Setting up data
I0418 00:38:05.626811 17449 net.cpp:157] Top shape: 1 3 768 112 112 (28901376)
I0418 00:38:05.626817 17449 net.cpp:157] Top shape: 1 101 (101)
I0418 00:38:05.626821 17449 net.cpp:165] Memory required for data: 115605908
I0418 00:38:05.626827 17449 layer_factory.hpp:77] Creating layer data_data_0_split
I0418 00:38:05.626840 17449 net.cpp:100] Creating Layer data_data_0_split
I0418 00:38:05.626844 17449 net.cpp:434] data_data_0_split <- data
I0418 00:38:05.626852 17449 net.cpp:408] data_data_0_split -> data_data_0_split_0
I0418 00:38:05.626863 17449 net.cpp:408] data_data_0_split -> data_data_0_split_1
I0418 00:38:05.626897 17449 net.cpp:150] Setting up data_data_0_split
I0418 00:38:05.626906 17449 net.cpp:157] Top shape: 1 3 768 112 112 (28901376)
I0418 00:38:05.626911 17449 net.cpp:157] Top shape: 1 3 768 112 112 (28901376)
I0418 00:38:05.626914 17449 net.cpp:165] Memory required for data: 346816916
I0418 00:38:05.626919 17449 layer_factory.hpp:77] Creating layer gt_boxes_data_1_split
I0418 00:38:05.626924 17449 net.cpp:100] Creating Layer gt_boxes_data_1_split
I0418 00:38:05.626926 17449 net.cpp:434] gt_boxes_data_1_split <- gt_boxes
I0418 00:38:05.626933 17449 net.cpp:408] gt_boxes_data_1_split -> gt_boxes_data_1_split_0
I0418 00:38:05.626938 17449 net.cpp:408] gt_boxes_data_1_split -> gt_boxes_data_1_split_1
I0418 00:38:05.626963 17449 net.cpp:150] Setting up gt_boxes_data_1_split
I0418 00:38:05.626969 17449 net.cpp:157] Top shape: 1 101 (101)
I0418 00:38:05.626973 17449 net.cpp:157] Top shape: 1 101 (101)
I0418 00:38:05.626977 17449 net.cpp:165] Memory required for data: 346817724
I0418 00:38:05.626982 17449 layer_factory.hpp:77] Creating layer conv1a
I0418 00:38:05.627005 17449 net.cpp:100] Creating Layer conv1a
I0418 00:38:05.627014 17449 net.cpp:434] conv1a <- data_data_0_split_0
I0418 00:38:05.627027 17449 net.cpp:408] conv1a -> conv1a
I0418 00:38:05.924055 17449 net.cpp:150] Setting up conv1a
I0418 00:38:05.924091 17449 net.cpp:157] Top shape: 1 64 768 112 112 (616562688)
I0418 00:38:05.924098 17449 net.cpp:165] Memory required for data: 2813068476
I0418 00:38:05.924116 17449 layer_factory.hpp:77] Creating layer relu1a
I0418 00:38:05.924132 17449 net.cpp:100] Creating Layer relu1a
I0418 00:38:05.924139 17449 net.cpp:434] relu1a <- conv1a
I0418 00:38:05.924146 17449 net.cpp:395] relu1a -> conv1a (in-place)
I0418 00:38:05.925778 17449 net.cpp:150] Setting up relu1a
I0418 00:38:05.925793 17449 net.cpp:157] Top shape: 1 64 768 112 112 (616562688)
I0418 00:38:05.925797 17449 net.cpp:165] Memory required for data: 5279319228
I0418 00:38:05.925802 17449 layer_factory.hpp:77] Creating layer pool1
I0418 00:38:05.925813 17449 net.cpp:100] Creating Layer pool1
I0418 00:38:05.925817 17449 net.cpp:434] pool1 <- conv1a
I0418 00:38:05.925823 17449 net.cpp:408] pool1 -> pool1
I0418 00:38:05.926501 17449 net.cpp:150] Setting up pool1
I0418 00:38:05.926515 17449 net.cpp:157] Top shape: 1 64 768 56 56 (154140672)
I0418 00:38:05.926519 17449 net.cpp:165] Memory required for data: 5895881916
I0418 00:38:05.926523 17449 layer_factory.hpp:77] Creating layer conv2a
I0418 00:38:05.926537 17449 net.cpp:100] Creating Layer conv2a
I0418 00:38:05.926542 17449 net.cpp:434] conv2a <- pool1
I0418 00:38:05.926551 17449 net.cpp:408] conv2a -> conv2a
I0418 00:38:05.943003 17449 net.cpp:150] Setting up conv2a
I0418 00:38:05.943034 17449 net.cpp:157] Top shape: 1 128 768 56 56 (308281344)
I0418 00:38:05.943038 17449 net.cpp:165] Memory required for data: 7129007292
I0418 00:38:05.943055 17449 layer_factory.hpp:77] Creating layer relu2a
I0418 00:38:05.943066 17449 net.cpp:100] Creating Layer relu2a
I0418 00:38:05.943073 17449 net.cpp:434] relu2a <- conv2a
I0418 00:38:05.943086 17449 net.cpp:395] relu2a -> conv2a (in-place)
I0418 00:38:05.943522 17449 net.cpp:150] Setting up relu2a
I0418 00:38:05.943538 17449 net.cpp:157] Top shape: 1 128 768 56 56 (308281344)
I0418 00:38:05.943542 17449 net.cpp:165] Memory required for data: 8362132668
I0418 00:38:05.943547 17449 layer_factory.hpp:77] Creating layer pool2
I0418 00:38:05.943562 17449 net.cpp:100] Creating Layer pool2
I0418 00:38:05.943569 17449 net.cpp:434] pool2 <- conv2a
I0418 00:38:05.943579 17449 net.cpp:408] pool2 -> pool2
I0418 00:38:05.943975 17449 net.cpp:150] Setting up pool2
I0418 00:38:05.943990 17449 net.cpp:157] Top shape: 1 128 384 28 28 (38535168)
I0418 00:38:05.943994 17449 net.cpp:165] Memory required for data: 8516273340
I0418 00:38:05.943998 17449 layer_factory.hpp:77] Creating layer conv3a
I0418 00:38:05.944015 17449 net.cpp:100] Creating Layer conv3a
I0418 00:38:05.944022 17449 net.cpp:434] conv3a <- pool2
I0418 00:38:05.944033 17449 net.cpp:408] conv3a -> conv3a
I0418 00:38:05.971570 17449 net.cpp:150] Setting up conv3a
I0418 00:38:05.971595 17449 net.cpp:157] Top shape: 1 256 384 28 28 (77070336)
I0418 00:38:05.971598 17449 net.cpp:165] Memory required for data: 8824554684
I0418 00:38:05.971613 17449 layer_factory.hpp:77] Creating layer relu3a
I0418 00:38:05.971626 17449 net.cpp:100] Creating Layer relu3a
I0418 00:38:05.971633 17449 net.cpp:434] relu3a <- conv3a
I0418 00:38:05.971645 17449 net.cpp:395] relu3a -> conv3a (in-place)
I0418 00:38:05.972014 17449 net.cpp:150] Setting up relu3a
I0418 00:38:05.972029 17449 net.cpp:157] Top shape: 1 256 384 28 28 (77070336)
I0418 00:38:05.972035 17449 net.cpp:165] Memory required for data: 9132836028
I0418 00:38:05.972039 17449 layer_factory.hpp:77] Creating layer conv3b
I0418 00:38:05.972054 17449 net.cpp:100] Creating Layer conv3b
I0418 00:38:05.972062 17449 net.cpp:434] conv3b <- conv3a
I0418 00:38:05.972074 17449 net.cpp:408] conv3b -> conv3b
I0418 00:38:06.024019 17449 net.cpp:150] Setting up conv3b
I0418 00:38:06.024044 17449 net.cpp:157] Top shape: 1 256 384 28 28 (77070336)
I0418 00:38:06.024049 17449 net.cpp:165] Memory required for data: 9441117372
I0418 00:38:06.024058 17449 layer_factory.hpp:77] Creating layer relu3b
I0418 00:38:06.024068 17449 net.cpp:100] Creating Layer relu3b
I0418 00:38:06.024073 17449 net.cpp:434] relu3b <- conv3b
I0418 00:38:06.024085 17449 net.cpp:395] relu3b -> conv3b (in-place)
I0418 00:38:06.024479 17449 net.cpp:150] Setting up relu3b
I0418 00:38:06.024494 17449 net.cpp:157] Top shape: 1 256 384 28 28 (77070336)
I0418 00:38:06.024499 17449 net.cpp:165] Memory required for data: 9749398716
I0418 00:38:06.024504 17449 layer_factory.hpp:77] Creating layer pool3
I0418 00:38:06.024513 17449 net.cpp:100] Creating Layer pool3
I0418 00:38:06.024518 17449 net.cpp:434] pool3 <- conv3b
I0418 00:38:06.024525 17449 net.cpp:408] pool3 -> pool3
I0418 00:38:06.025424 17449 net.cpp:150] Setting up pool3
I0418 00:38:06.025439 17449 net.cpp:157] Top shape: 1 256 192 14 14 (9633792)
I0418 00:38:06.025444 17449 net.cpp:165] Memory required for data: 9787933884
I0418 00:38:06.025447 17449 layer_factory.hpp:77] Creating layer conv4a
I0418 00:38:06.025458 17449 net.cpp:100] Creating Layer conv4a
I0418 00:38:06.025462 17449 net.cpp:434] conv4a <- pool3
I0418 00:38:06.025470 17449 net.cpp:408] conv4a -> conv4a
I0418 00:38:06.127480 17449 net.cpp:150] Setting up conv4a
I0418 00:38:06.127514 17449 net.cpp:157] Top shape: 1 512 192 14 14 (19267584)
I0418 00:38:06.127521 17449 net.cpp:165] Memory required for data: 9865004220
I0418 00:38:06.127542 17449 layer_factory.hpp:77] Creating layer relu4a
I0418 00:38:06.127553 17449 net.cpp:100] Creating Layer relu4a
I0418 00:38:06.127557 17449 net.cpp:434] relu4a <- conv4a
I0418 00:38:06.127566 17449 net.cpp:395] relu4a -> conv4a (in-place)
I0418 00:38:06.127939 17449 net.cpp:150] Setting up relu4a
I0418 00:38:06.127954 17449 net.cpp:157] Top shape: 1 512 192 14 14 (19267584)
I0418 00:38:06.127959 17449 net.cpp:165] Memory required for data: 9942074556
I0418 00:38:06.127962 17449 layer_factory.hpp:77] Creating layer conv4b
I0418 00:38:06.127976 17449 net.cpp:100] Creating Layer conv4b
I0418 00:38:06.127981 17449 net.cpp:434] conv4b <- conv4a
I0418 00:38:06.127990 17449 net.cpp:408] conv4b -> conv4b
I0418 00:38:06.327559 17449 net.cpp:150] Setting up conv4b
I0418 00:38:06.327584 17449 net.cpp:157] Top shape: 1 512 192 14 14 (19267584)
I0418 00:38:06.327587 17449 net.cpp:165] Memory required for data: 10019144892
I0418 00:38:06.327596 17449 layer_factory.hpp:77] Creating layer relu4b
I0418 00:38:06.327605 17449 net.cpp:100] Creating Layer relu4b
I0418 00:38:06.327610 17449 net.cpp:434] relu4b <- conv4b
I0418 00:38:06.327616 17449 net.cpp:395] relu4b -> conv4b (in-place)
I0418 00:38:06.328501 17449 net.cpp:150] Setting up relu4b
I0418 00:38:06.328511 17449 net.cpp:157] Top shape: 1 512 192 14 14 (19267584)
I0418 00:38:06.328526 17449 net.cpp:165] Memory required for data: 10096215228
I0418 00:38:06.328529 17449 layer_factory.hpp:77] Creating layer pool4
I0418 00:38:06.328536 17449 net.cpp:100] Creating Layer pool4
I0418 00:38:06.328541 17449 net.cpp:434] pool4 <- conv4b
I0418 00:38:06.328558 17449 net.cpp:408] pool4 -> pool4
I0418 00:38:06.329720 17449 net.cpp:150] Setting up pool4
I0418 00:38:06.329733 17449 net.cpp:157] Top shape: 1 512 96 7 7 (2408448)
I0418 00:38:06.329738 17449 net.cpp:165] Memory required for data: 10105849020
I0418 00:38:06.329742 17449 layer_factory.hpp:77] Creating layer conv5a
I0418 00:38:06.329753 17449 net.cpp:100] Creating Layer conv5a
I0418 00:38:06.329756 17449 net.cpp:434] conv5a <- pool4
I0418 00:38:06.329764 17449 net.cpp:408] conv5a -> conv5a
I0418 00:38:06.518381 17449 net.cpp:150] Setting up conv5a
I0418 00:38:06.518416 17449 net.cpp:157] Top shape: 1 512 96 7 7 (2408448)
I0418 00:38:06.518421 17449 net.cpp:165] Memory required for data: 10115482812
I0418 00:38:06.518431 17449 layer_factory.hpp:77] Creating layer relu5a
I0418 00:38:06.518440 17449 net.cpp:100] Creating Layer relu5a
I0418 00:38:06.518447 17449 net.cpp:434] relu5a <- conv5a
I0418 00:38:06.518461 17449 net.cpp:395] relu5a -> conv5a (in-place)
I0418 00:38:06.519752 17449 net.cpp:150] Setting up relu5a
I0418 00:38:06.519764 17449 net.cpp:157] Top shape: 1 512 96 7 7 (2408448)
I0418 00:38:06.519767 17449 net.cpp:165] Memory required for data: 10125116604
I0418 00:38:06.519771 17449 layer_factory.hpp:77] Creating layer conv5b
I0418 00:38:06.519783 17449 net.cpp:100] Creating Layer conv5b
I0418 00:38:06.519788 17449 net.cpp:434] conv5b <- conv5a
I0418 00:38:06.519794 17449 net.cpp:408] conv5b -> conv5b
I0418 00:38:06.712874 17449 net.cpp:150] Setting up conv5b
I0418 00:38:06.712908 17449 net.cpp:157] Top shape: 1 512 96 7 7 (2408448)
I0418 00:38:06.712913 17449 net.cpp:165] Memory required for data: 10134750396
I0418 00:38:06.712921 17449 layer_factory.hpp:77] Creating layer relu5b
I0418 00:38:06.712930 17449 net.cpp:100] Creating Layer relu5b
I0418 00:38:06.712935 17449 net.cpp:434] relu5b <- conv5b
I0418 00:38:06.712941 17449 net.cpp:395] relu5b -> conv5b (in-place)
I0418 00:38:06.713093 17449 net.cpp:150] Setting up relu5b
I0418 00:38:06.713104 17449 net.cpp:157] Top shape: 1 512 96 7 7 (2408448)
I0418 00:38:06.713107 17449 net.cpp:165] Memory required for data: 10144384188
I0418 00:38:06.713110 17449 layer_factory.hpp:77] Creating layer conv5b_relu5b_0_split
I0418 00:38:06.713116 17449 net.cpp:100] Creating Layer conv5b_relu5b_0_split
I0418 00:38:06.713119 17449 net.cpp:434] conv5b_relu5b_0_split <- conv5b
I0418 00:38:06.713126 17449 net.cpp:408] conv5b_relu5b_0_split -> conv5b_relu5b_0_split_0
I0418 00:38:06.713132 17449 net.cpp:408] conv5b_relu5b_0_split -> conv5b_relu5b_0_split_1
I0418 00:38:06.713169 17449 net.cpp:150] Setting up conv5b_relu5b_0_split
I0418 00:38:06.713177 17449 net.cpp:157] Top shape: 1 512 96 7 7 (2408448)
I0418 00:38:06.713181 17449 net.cpp:157] Top shape: 1 512 96 7 7 (2408448)
I0418 00:38:06.713184 17449 net.cpp:165] Memory required for data: 10163651772
I0418 00:38:06.713187 17449 layer_factory.hpp:77] Creating layer rpn_conv/3x3
I0418 00:38:06.713201 17449 net.cpp:100] Creating Layer rpn_conv/3x3
I0418 00:38:06.713207 17449 net.cpp:434] rpn_conv/3x3 <- conv5b_relu5b_0_split_0
I0418 00:38:06.713213 17449 net.cpp:408] rpn_conv/3x3 -> rpn/output
I0418 00:38:06.908627 17449 net.cpp:150] Setting up rpn_conv/3x3
I0418 00:38:06.908653 17449 net.cpp:157] Top shape: 1 512 96 4 4 (786432)
I0418 00:38:06.908656 17449 net.cpp:165] Memory required for data: 10166797500
I0418 00:38:06.908673 17449 layer_factory.hpp:77] Creating layer rpn_relu/3x3
I0418 00:38:06.908684 17449 net.cpp:100] Creating Layer rpn_relu/3x3
I0418 00:38:06.908690 17449 net.cpp:434] rpn_relu/3x3 <- rpn/output
I0418 00:38:06.908700 17449 net.cpp:395] rpn_relu/3x3 -> rpn/output (in-place)
I0418 00:38:06.909677 17449 net.cpp:150] Setting up rpn_relu/3x3
I0418 00:38:06.909693 17449 net.cpp:157] Top shape: 1 512 96 4 4 (786432)
I0418 00:38:06.909698 17449 net.cpp:165] Memory required for data: 10169943228
I0418 00:38:06.909704 17449 layer_factory.hpp:77] Creating layer rpn_conv/3x3_2
I0418 00:38:06.909723 17449 net.cpp:100] Creating Layer rpn_conv/3x3_2
I0418 00:38:06.909732 17449 net.cpp:434] rpn_conv/3x3_2 <- rpn/output
I0418 00:38:06.909746 17449 net.cpp:408] rpn_conv/3x3_2 -> rpn/output_2
I0418 00:38:07.104125 17449 net.cpp:150] Setting up rpn_conv/3x3_2
I0418 00:38:07.104151 17449 net.cpp:157] Top shape: 1 512 96 2 2 (196608)
I0418 00:38:07.104156 17449 net.cpp:165] Memory required for data: 10170729660
I0418 00:38:07.104166 17449 layer_factory.hpp:77] Creating layer rpn_relu/3x3_2
I0418 00:38:07.104176 17449 net.cpp:100] Creating Layer rpn_relu/3x3_2
I0418 00:38:07.104183 17449 net.cpp:434] rpn_relu/3x3_2 <- rpn/output_2
I0418 00:38:07.104189 17449 net.cpp:395] rpn_relu/3x3_2 -> rpn/output_2 (in-place)
I0418 00:38:07.105218 17449 net.cpp:150] Setting up rpn_relu/3x3_2
I0418 00:38:07.105233 17449 net.cpp:157] Top shape: 1 512 96 2 2 (196608)
I0418 00:38:07.105237 17449 net.cpp:165] Memory required for data: 10171516092
I0418 00:38:07.105240 17449 layer_factory.hpp:77] Creating layer rpn/output_pool
I0418 00:38:07.105249 17449 net.cpp:100] Creating Layer rpn/output_pool
I0418 00:38:07.105257 17449 net.cpp:434] rpn/output_pool <- rpn/output_2
I0418 00:38:07.105263 17449 net.cpp:408] rpn/output_pool -> rpn/output_pool
I0418 00:38:07.106386 17449 net.cpp:150] Setting up rpn/output_pool
I0418 00:38:07.106400 17449 net.cpp:157] Top shape: 1 512 96 1 1 (49152)
I0418 00:38:07.106403 17449 net.cpp:165] Memory required for data: 10171712700
I0418 00:38:07.106407 17449 layer_factory.hpp:77] Creating layer rpn/output_pool_rpn/output_pool_0_split
I0418 00:38:07.106416 17449 net.cpp:100] Creating Layer rpn/output_pool_rpn/output_pool_0_split
I0418 00:38:07.106420 17449 net.cpp:434] rpn/output_pool_rpn/output_pool_0_split <- rpn/output_pool
I0418 00:38:07.106428 17449 net.cpp:408] rpn/output_pool_rpn/output_pool_0_split -> rpn/output_pool_rpn/output_pool_0_split_0
I0418 00:38:07.106434 17449 net.cpp:408] rpn/output_pool_rpn/output_pool_0_split -> rpn/output_pool_rpn/output_pool_0_split_1
I0418 00:38:07.106467 17449 net.cpp:150] Setting up rpn/output_pool_rpn/output_pool_0_split
I0418 00:38:07.106472 17449 net.cpp:157] Top shape: 1 512 96 1 1 (49152)
I0418 00:38:07.106479 17449 net.cpp:157] Top shape: 1 512 96 1 1 (49152)
I0418 00:38:07.106483 17449 net.cpp:165] Memory required for data: 10172105916
I0418 00:38:07.106487 17449 layer_factory.hpp:77] Creating layer rpn_cls_score
I0418 00:38:07.106498 17449 net.cpp:100] Creating Layer rpn_cls_score
I0418 00:38:07.106506 17449 net.cpp:434] rpn_cls_score <- rpn/output_pool_rpn/output_pool_0_split_0
I0418 00:38:07.106513 17449 net.cpp:408] rpn_cls_score -> rpn_cls_score
I0418 00:38:07.109359 17449 net.cpp:150] Setting up rpn_cls_score
I0418 00:38:07.109378 17449 net.cpp:157] Top shape: 1 74 96 1 1 (7104)
I0418 00:38:07.109383 17449 net.cpp:165] Memory required for data: 10172134332
I0418 00:38:07.109391 17449 layer_factory.hpp:77] Creating layer rpn_cls_score_rpn_cls_score_0_split
I0418 00:38:07.109400 17449 net.cpp:100] Creating Layer rpn_cls_score_rpn_cls_score_0_split
I0418 00:38:07.109405 17449 net.cpp:434] rpn_cls_score_rpn_cls_score_0_split <- rpn_cls_score
I0418 00:38:07.109410 17449 net.cpp:408] rpn_cls_score_rpn_cls_score_0_split -> rpn_cls_score_rpn_cls_score_0_split_0
I0418 00:38:07.109416 17449 net.cpp:408] rpn_cls_score_rpn_cls_score_0_split -> rpn_cls_score_rpn_cls_score_0_split_1
I0418 00:38:07.109460 17449 net.cpp:150] Setting up rpn_cls_score_rpn_cls_score_0_split
I0418 00:38:07.109468 17449 net.cpp:157] Top shape: 1 74 96 1 1 (7104)
I0418 00:38:07.109472 17449 net.cpp:157] Top shape: 1 74 96 1 1 (7104)
I0418 00:38:07.109475 17449 net.cpp:165] Memory required for data: 10172191164
I0418 00:38:07.109479 17449 layer_factory.hpp:77] Creating layer rpn_twin_pred
I0418 00:38:07.109493 17449 net.cpp:100] Creating Layer rpn_twin_pred
I0418 00:38:07.109503 17449 net.cpp:434] rpn_twin_pred <- rpn/output_pool_rpn/output_pool_0_split_1
I0418 00:38:07.109510 17449 net.cpp:408] rpn_twin_pred -> rpn_twin_pred
I0418 00:38:07.111822 17449 net.cpp:150] Setting up rpn_twin_pred
I0418 00:38:07.111855 17449 net.cpp:157] Top shape: 1 74 96 1 1 (7104)
I0418 00:38:07.111860 17449 net.cpp:165] Memory required for data: 10172219580
I0418 00:38:07.111869 17449 layer_factory.hpp:77] Creating layer rpn_twin_pred_rpn_twin_pred_0_split
I0418 00:38:07.111879 17449 net.cpp:100] Creating Layer rpn_twin_pred_rpn_twin_pred_0_split
I0418 00:38:07.111886 17449 net.cpp:434] rpn_twin_pred_rpn_twin_pred_0_split <- rpn_twin_pred
I0418 00:38:07.111896 17449 net.cpp:408] rpn_twin_pred_rpn_twin_pred_0_split -> rpn_twin_pred_rpn_twin_pred_0_split_0
I0418 00:38:07.111907 17449 net.cpp:408] rpn_twin_pred_rpn_twin_pred_0_split -> rpn_twin_pred_rpn_twin_pred_0_split_1
I0418 00:38:07.111963 17449 net.cpp:150] Setting up rpn_twin_pred_rpn_twin_pred_0_split
I0418 00:38:07.111975 17449 net.cpp:157] Top shape: 1 74 96 1 1 (7104)
I0418 00:38:07.111985 17449 net.cpp:157] Top shape: 1 74 96 1 1 (7104)
I0418 00:38:07.111990 17449 net.cpp:165] Memory required for data: 10172276412
I0418 00:38:07.111995 17449 layer_factory.hpp:77] Creating layer rpn_cls_score_reshape
I0418 00:38:07.112020 17449 net.cpp:100] Creating Layer rpn_cls_score_reshape
I0418 00:38:07.112027 17449 net.cpp:434] rpn_cls_score_reshape <- rpn_cls_score_rpn_cls_score_0_split_0
I0418 00:38:07.112035 17449 net.cpp:408] rpn_cls_score_reshape -> rpn_cls_score_reshape
I0418 00:38:07.112085 17449 net.cpp:150] Setting up rpn_cls_score_reshape
I0418 00:38:07.112097 17449 net.cpp:157] Top shape: 1 2 3552 1 1 (7104)
I0418 00:38:07.112102 17449 net.cpp:165] Memory required for data: 10172304828
I0418 00:38:07.112107 17449 layer_factory.hpp:77] Creating layer rpn_cls_score_reshape_rpn_cls_score_reshape_0_split
I0418 00:38:07.112118 17449 net.cpp:100] Creating Layer rpn_cls_score_reshape_rpn_cls_score_reshape_0_split
I0418 00:38:07.112123 17449 net.cpp:434] rpn_cls_score_reshape_rpn_cls_score_reshape_0_split <- rpn_cls_score_reshape
I0418 00:38:07.112131 17449 net.cpp:408] rpn_cls_score_reshape_rpn_cls_score_reshape_0_split -> rpn_cls_score_reshape_rpn_cls_score_reshape_0_split_0
I0418 00:38:07.112148 17449 net.cpp:408] rpn_cls_score_reshape_rpn_cls_score_reshape_0_split -> rpn_cls_score_reshape_rpn_cls_score_reshape_0_split_1
I0418 00:38:07.112157 17449 net.cpp:408] rpn_cls_score_reshape_rpn_cls_score_reshape_0_split -> rpn_cls_score_reshape_rpn_cls_score_reshape_0_split_2
I0418 00:38:07.112211 17449 net.cpp:150] Setting up rpn_cls_score_reshape_rpn_cls_score_reshape_0_split
I0418 00:38:07.112221 17449 net.cpp:157] Top shape: 1 2 3552 1 1 (7104)
I0418 00:38:07.112228 17449 net.cpp:157] Top shape: 1 2 3552 1 1 (7104)
I0418 00:38:07.112236 17449 net.cpp:157] Top shape: 1 2 3552 1 1 (7104)
I0418 00:38:07.112241 17449 net.cpp:165] Memory required for data: 10172390076
I0418 00:38:07.112246 17449 layer_factory.hpp:77] Creating layer rpn-data
I0418 00:38:07.112668 17449 net.cpp:100] Creating Layer rpn-data
I0418 00:38:07.112680 17449 net.cpp:434] rpn-data <- rpn_cls_score_rpn_cls_score_0_split_1
I0418 00:38:07.112690 17449 net.cpp:434] rpn-data <- gt_boxes_data_1_split_0
I0418 00:38:07.112699 17449 net.cpp:434] rpn-data <- data_data_0_split_1
I0418 00:38:07.112707 17449 net.cpp:408] rpn-data -> rpn_labels
I0418 00:38:07.112720 17449 net.cpp:408] rpn-data -> rpn_twin_targets
I0418 00:38:07.112730 17449 net.cpp:408] rpn-data -> rpn_twin_inside_weights
I0418 00:38:07.112741 17449 net.cpp:408] rpn-data -> rpn_twin_outside_weights
I0418 00:38:07.115010 17449 net.cpp:150] Setting up rpn-data
I0418 00:38:07.115027 17449 net.cpp:157] Top shape: 1 1 3552 1 1 (3552)
I0418 00:38:07.115034 17449 net.cpp:157] Top shape: 1 74 96 1 1 (7104)
I0418 00:38:07.115041 17449 net.cpp:157] Top shape: 1 74 96 1 1 (7104)
I0418 00:38:07.115048 17449 net.cpp:157] Top shape: 1 74 96 1 1 (7104)
I0418 00:38:07.115053 17449 net.cpp:165] Memory required for data: 10172489532
I0418 00:38:07.115059 17449 layer_factory.hpp:77] Creating layer rpn_labels_rpn-data_0_split
I0418 00:38:07.115068 17449 net.cpp:100] Creating Layer rpn_labels_rpn-data_0_split
I0418 00:38:07.115075 17449 net.cpp:434] rpn_labels_rpn-data_0_split <- rpn_labels
I0418 00:38:07.115084 17449 net.cpp:408] rpn_labels_rpn-data_0_split -> rpn_labels_rpn-data_0_split_0
I0418 00:38:07.115097 17449 net.cpp:408] rpn_labels_rpn-data_0_split -> rpn_labels_rpn-data_0_split_1
I0418 00:38:07.115141 17449 net.cpp:150] Setting up rpn_labels_rpn-data_0_split
I0418 00:38:07.115152 17449 net.cpp:157] Top shape: 1 1 3552 1 1 (3552)
I0418 00:38:07.115159 17449 net.cpp:157] Top shape: 1 1 3552 1 1 (3552)
I0418 00:38:07.115164 17449 net.cpp:165] Memory required for data: 10172517948
I0418 00:38:07.115170 17449 layer_factory.hpp:77] Creating layer rpn_loss_cls
I0418 00:38:07.115190 17449 net.cpp:100] Creating Layer rpn_loss_cls
I0418 00:38:07.115195 17449 net.cpp:434] rpn_loss_cls <- rpn_cls_score_reshape_rpn_cls_score_reshape_0_split_0
I0418 00:38:07.115203 17449 net.cpp:434] rpn_loss_cls <- rpn_labels_rpn-data_0_split_0
…
I0418 00:38:07.116009 17449 layer_factory.hpp:77] Creating layer rpn_accuarcy
I0418 00:38:07.116021 17449 net.cpp:100] Creating Layer rpn_accuarcy
I0418 00:38:07.116029 17449 net.cpp:434] rpn_accuarcy <- rpn_cls_score_reshape_rpn_cls_score_reshape_0_split_1
I0418 00:38:07.116039 17449 net.cpp:434] rpn_accuarcy <- rpn_labels_rpn-data_0_split_1
I0418 00:38:07.116051 17449 net.cpp:408] rpn_accuarcy -> rpn_accuarcy
I0418 00:38:07.116062 17449 net.cpp:408] rpn_accuarcy -> rpn_accuarcy_class
I0418 00:38:07.116111 17449 net.cpp:150] Setting up rpn_accuarcy
I0418 00:38:07.116120 17449 net.cpp:157] Top shape: (1)
I0418 00:38:07.116127 17449 net.cpp:157] Top shape: 2 (2)
I0418 00:38:07.116132 17449 net.cpp:165] Memory required for data: 10172517968
I0418 00:38:07.116138 17449 layer_factory.hpp:77] Creating layer rpn_cls_prob
I0418 00:38:07.116145 17449 net.cpp:100] Creating Layer rpn_cls_prob
I0418 00:38:07.116152 17449 net.cpp:434] rpn_cls_prob <- rpn_cls_score_reshape_rpn_cls_score_reshape_0_split_2
I0418 00:38:07.116161 17449 net.cpp:408] rpn_cls_prob -> rpn_cls_prob
I0418 00:38:07.116842 17449 net.cpp:150] Setting up rpn_cls_prob
I0418 00:38:07.116858 17449 net.cpp:157] Top shape: 1 2 3552 1 1 (7104)
I0418 00:38:07.116864 17449 net.cpp:165] Memory required for data: 10172546384
I0418 00:38:07.116870 17449 layer_factory.hpp:77] Creating layer rpn_cls_prob_reshape
I0418 00:38:07.116881 17449 net.cpp:100] Creating Layer rpn_cls_prob_reshape
I0418 00:38:07.116888 17449 net.cpp:434] rpn_cls_prob_reshape <- rpn_cls_prob
I0418 00:38:07.116900 17449 net.cpp:408] rpn_cls_prob_reshape -> rpn_cls_prob_reshape
I0418 00:38:07.116935 17449 net.cpp:150] Setting up rpn_cls_prob_reshape
I0418 00:38:07.116945 17449 net.cpp:157] Top shape: 1 74 96 1 1 (7104)
I0418 00:38:07.116950 17449 net.cpp:165] Memory required for data: 10172574800
I0418 00:38:07.116956 17449 layer_factory.hpp:77] Creating layer proposal
I0418 00:38:07.117527 17449 net.cpp:100] Creating Layer proposal
I0418 00:38:07.117542 17449 net.cpp:434] proposal <- rpn_cls_prob_reshape
I0418 00:38:07.117549 17449 net.cpp:434] proposal <- rpn_twin_pred_rpn_twin_pred_0_split_1
I0418 00:38:07.117559 17449 net.cpp:408] proposal -> rpn_rois
I0418 00:38:07.120514 17449 net.cpp:150] Setting up proposal
I0418 00:38:07.120532 17449 net.cpp:157] Top shape: 1 3 (3)
I0418 00:38:07.120537 17449 net.cpp:165] Memory required for data: 10172574812
I0418 00:38:07.120544 17449 layer_factory.hpp:77] Creating layer roi-data
I0418 00:38:07.122143 17449 net.cpp:100] Creating Layer roi-data
I0418 00:38:07.122155 17449 net.cpp:434] roi-data <- rpn_rois
I0418 00:38:07.122164 17449 net.cpp:434] roi-data <- gt_boxes_data_1_split_1
I0418 00:38:07.122174 17449 net.cpp:408] roi-data -> rois
I0418 00:38:07.122186 17449 net.cpp:408] roi-data -> labels
I0418 00:38:07.122198 17449 net.cpp:408] roi-data -> twin_targets
I0418 00:38:07.122208 17449 net.cpp:408] roi-data -> twin_inside_weights
I0418 00:38:07.122221 17449 net.cpp:408] roi-data -> twin_outside_weights
I0418 00:38:07.122553 17449 net.cpp:150] Setting up roi-data
I0418 00:38:07.122567 17449 net.cpp:157] Top shape: 1 3 (3)
I0418 00:38:07.122575 17449 net.cpp:157] Top shape: 1 1 (1)
I0418 00:38:07.122581 17449 net.cpp:157] Top shape: 1 402 (402)
I0418 00:38:07.122588 17449 net.cpp:157] Top shape: 1 402 (402)
I0418 00:38:07.122594 17449 net.cpp:157] Top shape: 1 402 (402)
I0418 00:38:07.122601 17449 net.cpp:165] Memory required for data: 10172579652
I0418 00:38:07.122606 17449 layer_factory.hpp:77] Creating layer labels_roi-data_1_split
I0418 00:38:07.122614 17449 net.cpp:100] Creating Layer labels_roi-data_1_split
I0418 00:38:07.122622 17449 net.cpp:434] labels_roi-data_1_split <- labels
I0418 00:38:07.122629 17449 net.cpp:408] labels_roi-data_1_split -> labels_roi-data_1_split_0
I0418 00:38:07.122642 17449 net.cpp:408] labels_roi-data_1_split -> labels_roi-data_1_split_1
I0418 00:38:07.122684 17449 net.cpp:150] Setting up labels_roi-data_1_split
I0418 00:38:07.122694 17449 net.cpp:157] Top shape: 1 1 (1)
I0418 00:38:07.122701 17449 net.cpp:157] Top shape: 1 1 (1)
I0418 00:38:07.122707 17449 net.cpp:165] Memory required for data: 10172579660
I0418 00:38:07.122714 17449 layer_factory.hpp:77] Creating layer roi_pool5
I0418 00:38:07.122726 17449 net.cpp:100] Creating Layer roi_pool5
I0418 00:38:07.122736 17449 net.cpp:434] roi_pool5 <- conv5b_relu5b_0_split_1
I0418 00:38:07.122745 17449 net.cpp:434] roi_pool5 <- rois
I0418 00:38:07.122752 17449 net.cpp:408] roi_pool5 -> pool5
I0418 00:38:07.122788 17449 roi_pooling_layer.cpp:34] Temporal scale: 0.125
I0418 00:38:07.122802 17449 roi_pooling_layer.cpp:35] Spatial scale: 0.0625
I0418 00:38:07.122848 17449 net.cpp:150] Setting up roi_pool5
I0418 00:38:07.122858 17449 net.cpp:157] Top shape: 1 512 1 4 4 (8192)
I0418 00:38:07.122864 17449 net.cpp:165] Memory required for data: 10172612428
I0418 00:38:07.122870 17449 layer_factory.hpp:77] Creating layer fc6
I0418 00:38:07.122882 17449 net.cpp:100] Creating Layer fc6
I0418 00:38:07.122889 17449 net.cpp:434] fc6 <- pool5
I0418 00:38:07.122898 17449 net.cpp:408] fc6 -> fc6
I0418 00:38:08.021680 17449 net.cpp:150] Setting up fc6
I0418 00:38:08.021704 17449 net.cpp:157] Top shape: 1 4096 (4096)
I0418 00:38:08.021708 17449 net.cpp:165] Memory required for data: 10172628812
I0418 00:38:08.021718 17449 layer_factory.hpp:77] Creating layer relu6
I0418 00:38:08.021728 17449 net.cpp:100] Creating Layer relu6
I0418 00:38:08.021733 17449 net.cpp:434] relu6 <- fc6
I0418 00:38:08.021739 17449 net.cpp:395] relu6 -> fc6 (in-place)
I0418 00:38:08.022162 17449 net.cpp:150] Setting up relu6
I0418 00:38:08.022176 17449 net.cpp:157] Top shape: 1 4096 (4096)
I0418 00:38:08.022179 17449 net.cpp:165] Memory required for data: 10172645196
I0418 00:38:08.022183 17449 layer_factory.hpp:77] Creating layer drop6
I0418 00:38:08.022197 17449 net.cpp:100] Creating Layer drop6
I0418 00:38:08.022203 17449 net.cpp:434] drop6 <- fc6
I0418 00:38:08.022208 17449 net.cpp:395] drop6 -> fc6 (in-place)
I0418 00:38:08.022236 17449 net.cpp:150] Setting up drop6
I0418 00:38:08.022241 17449 net.cpp:157] Top shape: 1 4096 (4096)
I0418 00:38:08.022244 17449 net.cpp:165] Memory required for data: 10172661580
I0418 00:38:08.022248 17449 layer_factory.hpp:77] Creating layer fc6_drop6_0_split
I0418 00:38:08.022253 17449 net.cpp:100] Creating Layer fc6_drop6_0_split
I0418 00:38:08.022258 17449 net.cpp:434] fc6_drop6_0_split <- fc6
I0418 00:38:08.022263 17449 net.cpp:408] fc6_drop6_0_split -> fc6_drop6_0_split_0
I0418 00:38:08.022269 17449 net.cpp:408] fc6_drop6_0_split -> fc6_drop6_0_split_1
I0418 00:38:08.022305 17449 net.cpp:150] Setting up fc6_drop6_0_split
I0418 00:38:08.022311 17449 net.cpp:157] Top shape: 1 4096 (4096)
I0418 00:38:08.022315 17449 net.cpp:157] Top shape: 1 4096 (4096)
I0418 00:38:08.022318 17449 net.cpp:165] Memory required for data: 10172694348
I0418 00:38:08.022321 17449 layer_factory.hpp:77] Creating layer cls_score
I0418 00:38:08.022330 17449 net.cpp:100] Creating Layer cls_score
I0418 00:38:08.022336 17449 net.cpp:434] cls_score <- fc6_drop6_0_split_0
I0418 00:38:08.022342 17449 net.cpp:408] cls_score -> cls_score
I0418 00:38:08.044036 17449 net.cpp:150] Setting up cls_score
I0418 00:38:08.044052 17449 net.cpp:157] Top shape: 1 201 (201)
I0418 00:38:08.044056 17449 net.cpp:165] Memory required for data: 10172695152
I0418 00:38:08.044064 17449 layer_factory.hpp:77] Creating layer cls_score_cls_score_0_split
I0418 00:38:08.044070 17449 net.cpp:100] Creating Layer cls_score_cls_score_0_split
I0418 00:38:08.044075 17449 net.cpp:434] cls_score_cls_score_0_split <- cls_score
I0418 00:38:08.044080 17449 net.cpp:408] cls_score_cls_score_0_split -> cls_score_cls_score_0_split_0
I0418 00:38:08.044087 17449 net.cpp:408] cls_score_cls_score_0_split -> cls_score_cls_score_0_split_1
I0418 00:38:08.044119 17449 net.cpp:150] Setting up cls_score_cls_score_0_split
I0418 00:38:08.044127 17449 net.cpp:157] Top shape: 1 201 (201)
I0418 00:38:08.044131 17449 net.cpp:157] Top shape: 1 201 (201)
I0418 00:38:08.044134 17449 net.cpp:165] Memory required for data: 10172696760
I0418 00:38:08.044137 17449 layer_factory.hpp:77] Creating layer twin_pred
I0418 00:38:08.044152 17449 net.cpp:100] Creating Layer twin_pred
I0418 00:38:08.044157 17449 net.cpp:434] twin_pred <- fc6_drop6_0_split_1
I0418 00:38:08.044163 17449 net.cpp:408] twin_pred -> twin_pred
I0418 00:38:08.087375 17449 net.cpp:150] Setting up twin_pred
I0418 00:38:08.087406 17449 net.cpp:157] Top shape: 1 402 (402)
I0418 00:38:08.087410 17449 net.cpp:165] Memory required for data: 10172698368
I0418 00:38:08.087419 17449 layer_factory.hpp:77] Creating layer loss_cls
I0418 00:38:08.087430 17449 net.cpp:100] Creating Layer loss_cls
I0418 00:38:08.087435 17449 net.cpp:434] loss_cls <- cls_score_cls_score_0_split_0
I0418 00:38:08.087441 17449 net.cpp:434] loss_cls <- labels_roi-data_1_split_0
I0418 00:38:08.087446 17449 net.cpp:408] loss_cls -> loss_cls
…
