…
stepsize: 350000
snapshot: 0
snapshot_prefix: "./experiments/activitynet/snapshot/activitynet"
average_loss: 100
iter_size: 1
I0417 15:07:21.002060 32000 solver.cpp:81] Creating training net from train_net file: ./experiments/activitynet/train.prototxt
I0417 15:07:21.003170 32000 net.cpp:58] Initializing net from parameters: 
name: "activitynet"
state {
  phase: TRAIN
}
layer {
  name: "data"
  type: "Python"
  top: "data"
  top: "gt_boxes"
  python_param {
    module: "roi_data_layer.layer"
    layer: "RoIDataLayer"
    param_str: "\'num_classes\': 100"
  }
}
layer {
  name: "conv1a"
  type: "Convolution"
  bottom: "data"
  top: "conv1a"
  param {
    lr_mult: 0
    decay_mult: 0
  }
  param {
    lr_mult: 0
    decay_mult: 0
  }
  convolution_param {
    num_output: 64
    pad: 1
    pad: 1
    pad: 1
    kernel_size: 3
    kernel_size: 3
    kernel_size: 3
    weight_filler {
      type: "gaussian"
      std: 0.01
    }
    bias_filler {
      type: "constant"
      value: 0
    }
  }
}
layer {
  name: "relu1a"
  type: "ReLU"
  bottom: "conv1a"
  top: "conv1a"
}
layer {
  name: "pool1"
  type: "Pooling"
  bottom: "conv1a"
  top: "pool1"
  pooling_param {
    pool: MAX
    kernel_size: 1
    kernel_size: 2
    kernel_size: 2
    stride: 1
    stride: 2
    stride: 2
  }
}
layer {
  name: "conv2a"
  type: "Convolution"
  bottom: "pool1"
  top: "conv2a"
  param {
    lr_mult: 0
    decay_mult: 0
  }
  param {
    lr_mult: 0
    decay_mult: 0
  }
  convolution_param {
    num_output: 128
    pad: 1
    pad: 1
    pad: 1
    kernel_size: 3
    kernel_size: 3
    kernel_size: 3
    weight_filler {
      type: "gaussian"
      std: 0.01
    }
    bias_filler {
      type: "constant"
      value: 1
    }
  }
}
layer {
  name: "relu2a"
  type: "ReLU"
  bottom: "conv2a"
  top: "conv2a"
}
layer {
  name: "pool2"
  type: "Pooling"
  bottom: "conv2a"
  top: "pool2"
  pooling_param {
    pool: MAX
    kernel_size: 2
    kernel_size: 2
    kernel_size: 2
    stride: 2
    stride: 2
    stride: 2
  }
}
layer {
  name: "conv3a"
  type: "Convolution"
  bottom: "pool2"
  top: "conv3a"
  param {
    lr_mult: 1
    decay_mult: 1
  }
  param {
    lr_mult: 2
    decay_mult: 0
  }
  convolution_param {
    num_output: 256
    pad: 1
    pad: 1
    pad: 1
    kernel_size: 3
    kernel_size: 3
    kernel_size: 3
    weight_filler {
      type: "gaussian"
      std: 0.01
    }
    bias_filler {
      type: "constant"
      value: 1
    }
  }
}
layer {
  name: "relu3a"
  type: "ReLU"
  bottom: "conv3a"
  top: "conv3a"
}
layer {
  name: "conv3b"
  type: "Convolution"
  bottom: "conv3a"
  top: "conv3b"
  param {
    lr_mult: 1
    decay_mult: 1
  }
  param {
    lr_mult: 2
    decay_mult: 0
  }
  convolution_param {
    num_output: 256
    pad: 1
    pad: 1
    pad: 1
    kernel_size: 3
    kernel_size: 3
    kernel_size: 3
    weight_filler {
      type: "gaussian"
      std: 0.01
    }
    bias_filler {
      type: "constant"
      value: 1
    }
  }
}
layer {
  name: "relu3b"
  type: "ReLU"
  bottom: "conv3b"
  top: "conv3b"
}
layer {
  name: "pool3"
  type: "Pooling"
  bottom: "conv3b"
  top: "pool3"
  pooling_param {
    pool: MAX
    kernel_size: 2
    kernel_size: 2
    kernel_size: 2
    stride: 2
    stride: 2
    stride: 2
  }
}
layer {
  name: "conv4a"
  type: "Convolution"
  bottom: "pool3"
  top: "conv4a"
  param {
    lr_mult: 1
    decay_mult: 1
  }
  param {
    lr_mult: 2
    decay_mult: 0
  }
  convolution_param {
    num_output: 512
    pad: 1
    pad: 1
    pad: 1
    kernel_size: 3
    kernel_size: 3
    kernel_size: 3
    weight_filler {
      type: "gaussian"
      std: 0.01
    }
    bias_filler {
      type: "constant"
      value: 1
    }
  }
}
layer {
  name: "relu4a"
  type: "ReLU"
  bottom: "conv4a"
  top: "conv4a"
}
layer {
  name: "conv4b"
  type: "Convolution"
  bottom: "conv4a"
  top: "conv4b"
  param {
    lr_mult: 1
    decay_mult: 1
  }
  param {
    lr_mult: 2
    decay_mult: 0
  }
  convolution_param {
    num_output: 512
    pad: 1
    pad: 1
    pad: 1
    kernel_size: 3
    kernel_size: 3
    kernel_size: 3
    weight_filler {
      type: "gaussian"
      std: 0.01
    }
    bias_filler {
      type: "constant"
      value: 1
    }
  }
}
layer {
  name: "relu4b"
  type: "ReLU"
  bottom: "conv4b"
  top: "conv4b"
}
layer {
  name: "pool4"
  type: "Pooling"
  bottom: "conv4b"
  top: "pool4"
  pooling_param {
    pool: MAX
    kernel_size: 2
    kernel_size: 2
    kernel_size: 2
    stride: 2
    stride: 2
    stride: 2
  }
}
layer {
  name: "conv5a"
  type: "Convolution"
  bottom: "pool4"
  top: "conv5a"
  param {
    lr_mult: 1
    decay_mult: 1
  }
  param {
    lr_mult: 2
    decay_mult: 0
  }
  convolution_param {
    num_output: 512
    pad: 1
    pad: 1
    pad: 1
    kernel_size: 3
    kernel_size: 3
    kernel_size: 3
    weight_filler {
      type: "gaussian"
      std: 0.01
    }
    bias_filler {
      type: "constant"
      value: 1
    }
  }
}
layer {
  name: "relu5a"
  type: "ReLU"
  bottom: "conv5a"
  top: "conv5a"
}
layer {
  name: "conv5b"
  type: "Convolution"
  bottom: "conv5a"
  top: "conv5b"
  param {
    lr_mult: 1
    decay_mult: 1
  }
  param {
    lr_mult: 2
    decay_mult: 0
  }
  convolution_param {
    num_output: 512
    pad: 1
    pad: 1
    pad: 1
    kernel_size: 3
    kernel_size: 3
    kernel_size: 3
    weight_filler {
      type: "gaussian"
      std: 0.01
    }
    bias_filler {
      type: "constant"
      value: 1
    }
  }
}
layer {
  name: "relu5b"
  type: "ReLU"
  bottom: "conv5b"
  top: "conv5b"
}
layer {
  name: "rpn_conv/3x3"
  type: "Convolution"
  bottom: "conv5b"
  top: "rpn/output"
  param {
    lr_mult: 1
    decay_mult: 1
  }
  param {
    lr_mult: 2
    decay_mult: 0
  }
  convolution_param {
    num_output: 512
    pad: 1
    pad: 1
    pad: 1
    kernel_size: 3
    kernel_size: 3
    kernel_size: 3
    stride: 1
    stride: 2
    stride: 2
    weight_filler {
      type: "gaussian"
      std: 0.01
    }
    bias_filler {
      type: "constant"
      value: 0
    }
  }
}
layer {
  name: "rpn_relu/3x3"
  type: "ReLU"
  bottom: "rpn/output"
  top: "rpn/output"
}
layer {
  name: "rpn_conv/3x3_2"
  type: "Convolution"
  bottom: "rpn/output"
  top: "rpn/output_2"
  param {
    lr_mult: 1
    decay_mult: 1
  }
  param {
    lr_mult: 2
    decay_mult: 0
  }
  convolution_param {
    num_output: 512
    pad: 1
    pad: 1
    pad: 1
    kernel_size: 3
    kernel_size: 3
    kernel_size: 3
    stride: 1
    stride: 2
    stride: 2
    weight_filler {
      type: "gaussian"
      std: 0.01
    }
    bias_filler {
      type: "constant"
      value: 0
    }
  }
}
layer {
  name: "rpn_relu/3x3_2"
  type: "ReLU"
  bottom: "rpn/output_2"
  top: "rpn/output_2"
}
layer {
  name: "rpn/output_pool"
  type: "Pooling"
  bottom: "rpn/output_2"
  top: "rpn/output_pool"
  pooling_param {
    pool: MAX
    kernel_size: 1
    kernel_size: 2
    kernel_size: 2
  }
}
layer {
  name: "rpn_cls_score"
  type: "Convolution"
  bottom: "rpn/output_pool"
  top: "rpn_cls_score"
  param {
    lr_mult: 1
    decay_mult: 1
  }
  param {
    lr_mult: 2
    decay_mult: 0
  }
  convolution_param {
    num_output: 74
    kernel_size: 1
    kernel_size: 1
    kernel_size: 1
    weight_filler {
      type: "gaussian"
      std: 0.01
    }
    bias_filler {
      type: "constant"
      value: 0
    }
  }
}
layer {
  name: "rpn_twin_pred"
  type: "Convolution"
  bottom: "rpn/output_pool"
  top: "rpn_twin_pred"
  param {
    lr_mult: 1
    decay_mult: 1
  }
  param {
    lr_mult: 2
    decay_mult: 0
  }
  convolution_param {
    num_output: 74
    kernel_size: 1
    kernel_size: 1
    kernel_size: 1
    weight_filler {
      type: "gaussian"
      std: 0.01
    }
    bias_filler {
      type: "constant"
      value: 0
    }
  }
}
layer {
  name: "rpn_cls_score_reshape"
  type: "Reshape"
  bottom: "rpn_cls_score"
  top: "rpn_cls_score_reshape"
  reshape_param {
    shape {
      dim: 0
      dim: 2
      dim: -1
      dim: 0
      dim: 0
    }
  }
}
layer {
  name: "rpn-data"
  type: "Python"
  bottom: "rpn_cls_score"
  bottom: "gt_boxes"
  bottom: "data"
  top: "rpn_labels"
  top: "rpn_twin_targets"
  top: "rpn_twin_inside_weights"
  top: "rpn_twin_outside_weights"
  python_param {
    module: "rpn.anchor_target_layer"
    layer: "AnchorTargetLayer"
    param_str: "\'feat_stride\': 8 \n\'scales\': !!python/tuple [1,1.25, 1.5,1.75, 2,2.5, 3,3.5, 4,4.5, 5,5.5, 6,7, 8,9,10,11,12,14,16,18,20,22,24,28,32,36,40,44,52,60,68,76,84,92,100]"
  }
}
layer {
  name: "rpn_loss_cls"
  type: "SoftmaxWithLoss"
  bottom: "rpn_cls_score_reshape"
  bottom: "rpn_labels"
  top: "rpn_cls_loss"
  loss_weight: 1
  propagate_down: true
  propagate_down: false
  loss_param {
    ignore_label: -1
    normalize: true
  }
}
layer {
  name: "rpn_loss_twin"
  type: "SmoothL1Loss"
  bottom: "rpn_twin_pred"
  bottom: "rpn_twin_targets"
  bottom: "rpn_twin_inside_weights"
  bottom: "rpn_twin_outside_weights"
  top: "rpn_loss_twin"
  loss_weight: 1
  smooth_l1_loss_param {
    sigma: 3
  }
}
layer {
  name: "rpn_accuarcy"
  type: "Accuracy"
  bottom: "rpn_cls_score_reshape"
  bottom: "rpn_labels"
  top: "rpn_accuarcy"
  top: "rpn_accuarcy_class"
  propagate_down: false
  propagate_down: false
  accuracy_param {
    ignore_label: -1
  }
}
layer {
  name: "rpn_cls_prob"
  type: "Softmax"
  bottom: "rpn_cls_score_reshape"
  top: "rpn_cls_prob"
}
layer {
  name: "rpn_cls_prob_reshape"
  type: "Reshape"
  bottom: "rpn_cls_prob"
  top: "rpn_cls_prob_reshape"
  reshape_param {
    shape {
      dim: 0
      dim: 74
      dim: -1
      dim: 0
      dim: 0
    }
  }
}
layer {
  name: "proposal"
  type: "Python"
  bottom: "rpn_cls_prob_reshape"
  bottom: "rpn_twin_pred"
  top: "rpn_rois"
  include {
    phase: TRAIN
  }
  python_param {
    module: "rpn.proposal_layer"
    layer: "ProposalLayer"
    param_str: "\'feat_stride\': 8 \n\'scales\': !!python/tuple [1,1.25, 1.5,1.75, 2,2.5, 3,3.5, 4,4.5, 5,5.5, 6,7, 8,9,10,11,12,14,16,18,20,22,24,28,32,36,40,44,52,60,68,76,84,92,100]"
  }
}
layer {
  name: "roi-data"
  type: "Python"
  bottom: "rpn_rois"
  bottom: "gt_boxes"
  top: "rois"
  top: "labels"
  top: "twin_targets"
  top: "twin_inside_weights"
  top: "twin_outside_weights"
  python_param {
    module: "rpn.proposal_target_layer"
    layer: "ProposalTargetLayer"
    param_str: "\'num_classes\': 201"
  }
}
layer {
  name: "roi_pool5"
  type: "ROIPooling"
  bottom: "conv5b"
  bottom: "rois"
  top: "pool5"
  roi_pooling_param {
    pooled_h: 4
    pooled_w: 4
    spatial_scale: 0.0625
    pooled_l: 1
    temporal_scale: 0.125
  }
}
layer {
  name: "fc6"
  type: "InnerProduct"
  bottom: "pool5"
  top: "fc6"
  param {
    lr_mult: 1
    decay_mult: 1
  }
  param {
    lr_mult: 2
    decay_mult: 0
  }
  inner_product_param {
    num_output: 4096
    weight_filler {
      type: "gaussian"
      std: 0.005
    }
    bias_filler {
      type: "constant"
      value: 1
    }
  }
}
layer {
  name: "relu6"
  type: "ReLU"
  bottom: "fc6"
  top: "fc6"
}
layer {
  name: "drop6"
  type: "Dropout"
  bottom: "fc6"
  top: "fc6"
  dropout_param {
    dropout_ratio: 0.5
  }
}
layer {
  name: "cls_score"
  type: "InnerProduct"
  bottom: "fc6"
  top: "cls_score"
  param {
    lr_mult: 1
    decay_mult: 1
  }
  param {
    lr_mult: 2
    decay_mult: 0
  }
  inner_product_param {
    num_output: 201
    weight_filler {
      type: "gaussian"
      std: 0.01
    }
    bias_filler {
      type: "constant"
      value: 0
    }
  }
}
layer {
  name: "twin_pred"
  type: "InnerProduct"
  bottom: "fc6"
  top: "twin_pred"
  param {
    lr_mult: 1
    decay_mult: 1
  }
  param {
    lr_mult: 2
    decay_mult: 0
  }
  inner_product_param {
    num_output: 402
    weight_filler {
      type: "gaussian"
      std: 0.001
    }
    bias_filler {
      type: "constant"
      value: 0
    }
  }
}
layer {
  name: "loss_cls"
  type: "SoftmaxWithLoss"
  bottom: "cls_score"
  bottom: "labels"
  top: "loss_cls"
  loss_weight: 1
  propagate_down: true
  propagate_down: false
}
layer {
  name: "loss_twin"
  type: "SmoothL1Loss"
  bottom: "twin_pred"
  bottom: "twin_targets"
  bottom: "twin_inside_weights"
  bottom: "twin_outside_weights"
  top: "loss_twin"
  loss_weight: 1
}
layer {
  name: "accuarcy"
  type: "Accuracy"
  bottom: "cls_score"
  bottom: "labels"
  top: "accuarcy"
  propagate_down: false
  propagate_down: false
  accuracy_param {
    ignore_label: -1
  }
}
I0417 15:07:21.003382 32000 layer_factory.hpp:77] Creating layer data
I0417 15:07:21.044813 32000 net.cpp:100] Creating Layer data
I0417 15:07:21.044838 32000 net.cpp:408] data -> data
I0417 15:07:21.044852 32000 net.cpp:408] data -> gt_boxes
setting up
has rpn
RoiDataLayer: name_to_top: {'gt_windows': 1, 'data': 0}
I0417 15:07:21.058990 32000 net.cpp:150] Setting up data
I0417 15:07:21.059017 32000 net.cpp:157] Top shape: 1 3 768 112 112 (28901376)
I0417 15:07:21.059022 32000 net.cpp:157] Top shape: 1 101 (101)
I0417 15:07:21.059026 32000 net.cpp:165] Memory required for data: 115605908
I0417 15:07:21.059032 32000 layer_factory.hpp:77] Creating layer data_data_0_split
I0417 15:07:21.059046 32000 net.cpp:100] Creating Layer data_data_0_split
I0417 15:07:21.059049 32000 net.cpp:434] data_data_0_split <- data
I0417 15:07:21.059057 32000 net.cpp:408] data_data_0_split -> data_data_0_split_0
I0417 15:07:21.059067 32000 net.cpp:408] data_data_0_split -> data_data_0_split_1
I0417 15:07:21.059101 32000 net.cpp:150] Setting up data_data_0_split
I0417 15:07:21.059113 32000 net.cpp:157] Top shape: 1 3 768 112 112 (28901376)
I0417 15:07:21.059116 32000 net.cpp:157] Top shape: 1 3 768 112 112 (28901376)
I0417 15:07:21.059120 32000 net.cpp:165] Memory required for data: 346816916
I0417 15:07:21.059123 32000 layer_factory.hpp:77] Creating layer gt_boxes_data_1_split
I0417 15:07:21.059128 32000 net.cpp:100] Creating Layer gt_boxes_data_1_split
I0417 15:07:21.059131 32000 net.cpp:434] gt_boxes_data_1_split <- gt_boxes
I0417 15:07:21.059137 32000 net.cpp:408] gt_boxes_data_1_split -> gt_boxes_data_1_split_0
I0417 15:07:21.059144 32000 net.cpp:408] gt_boxes_data_1_split -> gt_boxes_data_1_split_1
I0417 15:07:21.059167 32000 net.cpp:150] Setting up gt_boxes_data_1_split
I0417 15:07:21.059175 32000 net.cpp:157] Top shape: 1 101 (101)
I0417 15:07:21.059178 32000 net.cpp:157] Top shape: 1 101 (101)
I0417 15:07:21.059181 32000 net.cpp:165] Memory required for data: 346817724
I0417 15:07:21.059185 32000 layer_factory.hpp:77] Creating layer conv1a
I0417 15:07:21.059201 32000 net.cpp:100] Creating Layer conv1a
I0417 15:07:21.059204 32000 net.cpp:434] conv1a <- data_data_0_split_0
I0417 15:07:21.059209 32000 net.cpp:408] conv1a -> conv1a
I0417 15:07:21.353847 32000 net.cpp:150] Setting up conv1a
I0417 15:07:21.353881 32000 net.cpp:157] Top shape: 1 64 768 112 112 (616562688)
I0417 15:07:21.353885 32000 net.cpp:165] Memory required for data: 2813068476
I0417 15:07:21.353907 32000 layer_factory.hpp:77] Creating layer relu1a
I0417 15:07:21.353922 32000 net.cpp:100] Creating Layer relu1a
I0417 15:07:21.353930 32000 net.cpp:434] relu1a <- conv1a
I0417 15:07:21.353937 32000 net.cpp:395] relu1a -> conv1a (in-place)
I0417 15:07:21.354532 32000 net.cpp:150] Setting up relu1a
I0417 15:07:21.354544 32000 net.cpp:157] Top shape: 1 64 768 112 112 (616562688)
I0417 15:07:21.354548 32000 net.cpp:165] Memory required for data: 5279319228
I0417 15:07:21.354553 32000 layer_factory.hpp:77] Creating layer pool1
I0417 15:07:21.354563 32000 net.cpp:100] Creating Layer pool1
I0417 15:07:21.354569 32000 net.cpp:434] pool1 <- conv1a
I0417 15:07:21.354575 32000 net.cpp:408] pool1 -> pool1
I0417 15:07:21.354777 32000 net.cpp:150] Setting up pool1
I0417 15:07:21.354790 32000 net.cpp:157] Top shape: 1 64 768 56 56 (154140672)
I0417 15:07:21.354794 32000 net.cpp:165] Memory required for data: 5895881916
I0417 15:07:21.354797 32000 layer_factory.hpp:77] Creating layer conv2a
I0417 15:07:21.354809 32000 net.cpp:100] Creating Layer conv2a
I0417 15:07:21.354813 32000 net.cpp:434] conv2a <- pool1
I0417 15:07:21.354818 32000 net.cpp:408] conv2a -> conv2a
I0417 15:07:21.366008 32000 net.cpp:150] Setting up conv2a
I0417 15:07:21.366034 32000 net.cpp:157] Top shape: 1 128 768 56 56 (308281344)
I0417 15:07:21.366037 32000 net.cpp:165] Memory required for data: 7129007292
I0417 15:07:21.366050 32000 layer_factory.hpp:77] Creating layer relu2a
I0417 15:07:21.366060 32000 net.cpp:100] Creating Layer relu2a
I0417 15:07:21.366063 32000 net.cpp:434] relu2a <- conv2a
I0417 15:07:21.366068 32000 net.cpp:395] relu2a -> conv2a (in-place)
I0417 15:07:21.366379 32000 net.cpp:150] Setting up relu2a
I0417 15:07:21.366394 32000 net.cpp:157] Top shape: 1 128 768 56 56 (308281344)
I0417 15:07:21.366397 32000 net.cpp:165] Memory required for data: 8362132668
I0417 15:07:21.366401 32000 layer_factory.hpp:77] Creating layer pool2
I0417 15:07:21.366411 32000 net.cpp:100] Creating Layer pool2
I0417 15:07:21.366415 32000 net.cpp:434] pool2 <- conv2a
I0417 15:07:21.366421 32000 net.cpp:408] pool2 -> pool2
I0417 15:07:21.366590 32000 net.cpp:150] Setting up pool2
I0417 15:07:21.366600 32000 net.cpp:157] Top shape: 1 128 384 28 28 (38535168)
I0417 15:07:21.366605 32000 net.cpp:165] Memory required for data: 8516273340
I0417 15:07:21.366608 32000 layer_factory.hpp:77] Creating layer conv3a
I0417 15:07:21.366619 32000 net.cpp:100] Creating Layer conv3a
I0417 15:07:21.366623 32000 net.cpp:434] conv3a <- pool2
I0417 15:07:21.366629 32000 net.cpp:408] conv3a -> conv3a
I0417 15:07:21.392200 32000 net.cpp:150] Setting up conv3a
I0417 15:07:21.392218 32000 net.cpp:157] Top shape: 1 256 384 28 28 (77070336)
I0417 15:07:21.392222 32000 net.cpp:165] Memory required for data: 8824554684
I0417 15:07:21.392232 32000 layer_factory.hpp:77] Creating layer relu3a
I0417 15:07:21.392241 32000 net.cpp:100] Creating Layer relu3a
I0417 15:07:21.392246 32000 net.cpp:434] relu3a <- conv3a
I0417 15:07:21.392251 32000 net.cpp:395] relu3a -> conv3a (in-place)
I0417 15:07:21.392549 32000 net.cpp:150] Setting up relu3a
I0417 15:07:21.392561 32000 net.cpp:157] Top shape: 1 256 384 28 28 (77070336)
I0417 15:07:21.392565 32000 net.cpp:165] Memory required for data: 9132836028
I0417 15:07:21.392570 32000 layer_factory.hpp:77] Creating layer conv3b
I0417 15:07:21.392580 32000 net.cpp:100] Creating Layer conv3b
I0417 15:07:21.392583 32000 net.cpp:434] conv3b <- conv3a
I0417 15:07:21.392590 32000 net.cpp:408] conv3b -> conv3b
I0417 15:07:21.441406 32000 net.cpp:150] Setting up conv3b
I0417 15:07:21.441428 32000 net.cpp:157] Top shape: 1 256 384 28 28 (77070336)
I0417 15:07:21.441432 32000 net.cpp:165] Memory required for data: 9441117372
I0417 15:07:21.441440 32000 layer_factory.hpp:77] Creating layer relu3b
I0417 15:07:21.441449 32000 net.cpp:100] Creating Layer relu3b
I0417 15:07:21.441454 32000 net.cpp:434] relu3b <- conv3b
I0417 15:07:21.441460 32000 net.cpp:395] relu3b -> conv3b (in-place)
I0417 15:07:21.441776 32000 net.cpp:150] Setting up relu3b
I0417 15:07:21.441790 32000 net.cpp:157] Top shape: 1 256 384 28 28 (77070336)
I0417 15:07:21.441793 32000 net.cpp:165] Memory required for data: 9749398716
I0417 15:07:21.441797 32000 layer_factory.hpp:77] Creating layer pool3
I0417 15:07:21.441807 32000 net.cpp:100] Creating Layer pool3
I0417 15:07:21.441810 32000 net.cpp:434] pool3 <- conv3b
I0417 15:07:21.441817 32000 net.cpp:408] pool3 -> pool3
I0417 15:07:21.441998 32000 net.cpp:150] Setting up pool3
I0417 15:07:21.442010 32000 net.cpp:157] Top shape: 1 256 192 14 14 (9633792)
I0417 15:07:21.442014 32000 net.cpp:165] Memory required for data: 9787933884
I0417 15:07:21.442018 32000 layer_factory.hpp:77] Creating layer conv4a
I0417 15:07:21.442029 32000 net.cpp:100] Creating Layer conv4a
I0417 15:07:21.442034 32000 net.cpp:434] conv4a <- pool3
I0417 15:07:21.442040 32000 net.cpp:408] conv4a -> conv4a
I0417 15:07:21.539222 32000 net.cpp:150] Setting up conv4a
I0417 15:07:21.539252 32000 net.cpp:157] Top shape: 1 512 192 14 14 (19267584)
I0417 15:07:21.539255 32000 net.cpp:165] Memory required for data: 9865004220
I0417 15:07:21.539269 32000 layer_factory.hpp:77] Creating layer relu4a
I0417 15:07:21.539279 32000 net.cpp:100] Creating Layer relu4a
I0417 15:07:21.539284 32000 net.cpp:434] relu4a <- conv4a
I0417 15:07:21.539290 32000 net.cpp:395] relu4a -> conv4a (in-place)
I0417 15:07:21.539609 32000 net.cpp:150] Setting up relu4a
I0417 15:07:21.539623 32000 net.cpp:157] Top shape: 1 512 192 14 14 (19267584)
I0417 15:07:21.539626 32000 net.cpp:165] Memory required for data: 9942074556
I0417 15:07:21.539630 32000 layer_factory.hpp:77] Creating layer conv4b
I0417 15:07:21.539645 32000 net.cpp:100] Creating Layer conv4b
I0417 15:07:21.539650 32000 net.cpp:434] conv4b <- conv4a
I0417 15:07:21.539657 32000 net.cpp:408] conv4b -> conv4b
I0417 15:07:21.727212 32000 net.cpp:150] Setting up conv4b
I0417 15:07:21.727236 32000 net.cpp:157] Top shape: 1 512 192 14 14 (19267584)
I0417 15:07:21.727239 32000 net.cpp:165] Memory required for data: 10019144892
I0417 15:07:21.727248 32000 layer_factory.hpp:77] Creating layer relu4b
I0417 15:07:21.727258 32000 net.cpp:100] Creating Layer relu4b
I0417 15:07:21.727263 32000 net.cpp:434] relu4b <- conv4b
I0417 15:07:21.727269 32000 net.cpp:395] relu4b -> conv4b (in-place)
I0417 15:07:21.727422 32000 net.cpp:150] Setting up relu4b
I0417 15:07:21.727432 32000 net.cpp:157] Top shape: 1 512 192 14 14 (19267584)
I0417 15:07:21.727437 32000 net.cpp:165] Memory required for data: 10096215228
I0417 15:07:21.727439 32000 layer_factory.hpp:77] Creating layer pool4
I0417 15:07:21.727447 32000 net.cpp:100] Creating Layer pool4
I0417 15:07:21.727450 32000 net.cpp:434] pool4 <- conv4b
I0417 15:07:21.727457 32000 net.cpp:408] pool4 -> pool4
I0417 15:07:21.727783 32000 net.cpp:150] Setting up pool4
I0417 15:07:21.727795 32000 net.cpp:157] Top shape: 1 512 96 7 7 (2408448)
I0417 15:07:21.727798 32000 net.cpp:165] Memory required for data: 10105849020
I0417 15:07:21.727802 32000 layer_factory.hpp:77] Creating layer conv5a
I0417 15:07:21.727813 32000 net.cpp:100] Creating Layer conv5a
I0417 15:07:21.727816 32000 net.cpp:434] conv5a <- pool4
I0417 15:07:21.727821 32000 net.cpp:408] conv5a -> conv5a
I0417 15:07:21.913264 32000 net.cpp:150] Setting up conv5a
I0417 15:07:21.913300 32000 net.cpp:157] Top shape: 1 512 96 7 7 (2408448)
I0417 15:07:21.913305 32000 net.cpp:165] Memory required for data: 10115482812
I0417 15:07:21.913312 32000 layer_factory.hpp:77] Creating layer relu5a
I0417 15:07:21.913322 32000 net.cpp:100] Creating Layer relu5a
I0417 15:07:21.913326 32000 net.cpp:434] relu5a <- conv5a
I0417 15:07:21.913332 32000 net.cpp:395] relu5a -> conv5a (in-place)
I0417 15:07:21.913748 32000 net.cpp:150] Setting up relu5a
I0417 15:07:21.913769 32000 net.cpp:157] Top shape: 1 512 96 7 7 (2408448)
I0417 15:07:21.913784 32000 net.cpp:165] Memory required for data: 10125116604
I0417 15:07:21.913787 32000 layer_factory.hpp:77] Creating layer conv5b
I0417 15:07:21.913799 32000 net.cpp:100] Creating Layer conv5b
I0417 15:07:21.913802 32000 net.cpp:434] conv5b <- conv5a
I0417 15:07:21.913810 32000 net.cpp:408] conv5b -> conv5b
I0417 15:07:22.101945 32000 net.cpp:150] Setting up conv5b
I0417 15:07:22.101969 32000 net.cpp:157] Top shape: 1 512 96 7 7 (2408448)
I0417 15:07:22.101974 32000 net.cpp:165] Memory required for data: 10134750396
I0417 15:07:22.101982 32000 layer_factory.hpp:77] Creating layer relu5b
I0417 15:07:22.101994 32000 net.cpp:100] Creating Layer relu5b
I0417 15:07:22.102000 32000 net.cpp:434] relu5b <- conv5b
I0417 15:07:22.102006 32000 net.cpp:395] relu5b -> conv5b (in-place)
I0417 15:07:22.102157 32000 net.cpp:150] Setting up relu5b
I0417 15:07:22.102169 32000 net.cpp:157] Top shape: 1 512 96 7 7 (2408448)
I0417 15:07:22.102171 32000 net.cpp:165] Memory required for data: 10144384188
I0417 15:07:22.102175 32000 layer_factory.hpp:77] Creating layer conv5b_relu5b_0_split
I0417 15:07:22.102180 32000 net.cpp:100] Creating Layer conv5b_relu5b_0_split
I0417 15:07:22.102183 32000 net.cpp:434] conv5b_relu5b_0_split <- conv5b
I0417 15:07:22.102188 32000 net.cpp:408] conv5b_relu5b_0_split -> conv5b_relu5b_0_split_0
I0417 15:07:22.102195 32000 net.cpp:408] conv5b_relu5b_0_split -> conv5b_relu5b_0_split_1
I0417 15:07:22.102231 32000 net.cpp:150] Setting up conv5b_relu5b_0_split
I0417 15:07:22.102241 32000 net.cpp:157] Top shape: 1 512 96 7 7 (2408448)
I0417 15:07:22.102243 32000 net.cpp:157] Top shape: 1 512 96 7 7 (2408448)
I0417 15:07:22.102246 32000 net.cpp:165] Memory required for data: 10163651772
I0417 15:07:22.102249 32000 layer_factory.hpp:77] Creating layer rpn_conv/3x3
I0417 15:07:22.102260 32000 net.cpp:100] Creating Layer rpn_conv/3x3
I0417 15:07:22.102264 32000 net.cpp:434] rpn_conv/3x3 <- conv5b_relu5b_0_split_0
I0417 15:07:22.102270 32000 net.cpp:408] rpn_conv/3x3 -> rpn/output
I0417 15:07:22.290261 32000 net.cpp:150] Setting up rpn_conv/3x3
I0417 15:07:22.290284 32000 net.cpp:157] Top shape: 1 512 96 4 4 (786432)
I0417 15:07:22.290288 32000 net.cpp:165] Memory required for data: 10166797500
I0417 15:07:22.290302 32000 layer_factory.hpp:77] Creating layer rpn_relu/3x3
I0417 15:07:22.290313 32000 net.cpp:100] Creating Layer rpn_relu/3x3
I0417 15:07:22.290318 32000 net.cpp:434] rpn_relu/3x3 <- rpn/output
I0417 15:07:22.290324 32000 net.cpp:395] rpn_relu/3x3 -> rpn/output (in-place)
I0417 15:07:22.290663 32000 net.cpp:150] Setting up rpn_relu/3x3
I0417 15:07:22.290675 32000 net.cpp:157] Top shape: 1 512 96 4 4 (786432)
I0417 15:07:22.290679 32000 net.cpp:165] Memory required for data: 10169943228
I0417 15:07:22.290683 32000 layer_factory.hpp:77] Creating layer rpn_conv/3x3_2
I0417 15:07:22.290694 32000 net.cpp:100] Creating Layer rpn_conv/3x3_2
I0417 15:07:22.290699 32000 net.cpp:434] rpn_conv/3x3_2 <- rpn/output
I0417 15:07:22.290709 32000 net.cpp:408] rpn_conv/3x3_2 -> rpn/output_2
I0417 15:07:22.477061 32000 net.cpp:150] Setting up rpn_conv/3x3_2
I0417 15:07:22.477084 32000 net.cpp:157] Top shape: 1 512 96 2 2 (196608)
I0417 15:07:22.477089 32000 net.cpp:165] Memory required for data: 10170729660
I0417 15:07:22.477098 32000 layer_factory.hpp:77] Creating layer rpn_relu/3x3_2
I0417 15:07:22.477108 32000 net.cpp:100] Creating Layer rpn_relu/3x3_2
I0417 15:07:22.477113 32000 net.cpp:434] rpn_relu/3x3_2 <- rpn/output_2
I0417 15:07:22.477121 32000 net.cpp:395] rpn_relu/3x3_2 -> rpn/output_2 (in-place)
I0417 15:07:22.477740 32000 net.cpp:150] Setting up rpn_relu/3x3_2
I0417 15:07:22.477752 32000 net.cpp:157] Top shape: 1 512 96 2 2 (196608)
I0417 15:07:22.477756 32000 net.cpp:165] Memory required for data: 10171516092
I0417 15:07:22.477761 32000 layer_factory.hpp:77] Creating layer rpn/output_pool
I0417 15:07:22.477767 32000 net.cpp:100] Creating Layer rpn/output_pool
I0417 15:07:22.477771 32000 net.cpp:434] rpn/output_pool <- rpn/output_2
I0417 15:07:22.477777 32000 net.cpp:408] rpn/output_pool -> rpn/output_pool
I0417 15:07:22.477951 32000 net.cpp:150] Setting up rpn/output_pool
I0417 15:07:22.477960 32000 net.cpp:157] Top shape: 1 512 96 1 1 (49152)
I0417 15:07:22.477963 32000 net.cpp:165] Memory required for data: 10171712700
I0417 15:07:22.477967 32000 layer_factory.hpp:77] Creating layer rpn/output_pool_rpn/output_pool_0_split
I0417 15:07:22.477973 32000 net.cpp:100] Creating Layer rpn/output_pool_rpn/output_pool_0_split
I0417 15:07:22.477977 32000 net.cpp:434] rpn/output_pool_rpn/output_pool_0_split <- rpn/output_pool
I0417 15:07:22.477982 32000 net.cpp:408] rpn/output_pool_rpn/output_pool_0_split -> rpn/output_pool_rpn/output_pool_0_split_0
I0417 15:07:22.477988 32000 net.cpp:408] rpn/output_pool_rpn/output_pool_0_split -> rpn/output_pool_rpn/output_pool_0_split_1
I0417 15:07:22.478019 32000 net.cpp:150] Setting up rpn/output_pool_rpn/output_pool_0_split
I0417 15:07:22.478026 32000 net.cpp:157] Top shape: 1 512 96 1 1 (49152)
I0417 15:07:22.478030 32000 net.cpp:157] Top shape: 1 512 96 1 1 (49152)
I0417 15:07:22.478034 32000 net.cpp:165] Memory required for data: 10172105916
I0417 15:07:22.478036 32000 layer_factory.hpp:77] Creating layer rpn_cls_score
I0417 15:07:22.478046 32000 net.cpp:100] Creating Layer rpn_cls_score
I0417 15:07:22.478050 32000 net.cpp:434] rpn_cls_score <- rpn/output_pool_rpn/output_pool_0_split_0
I0417 15:07:22.478056 32000 net.cpp:408] rpn_cls_score -> rpn_cls_score
I0417 15:07:22.482664 32000 net.cpp:150] Setting up rpn_cls_score
I0417 15:07:22.482702 32000 net.cpp:157] Top shape: 1 74 96 1 1 (7104)
I0417 15:07:22.482712 32000 net.cpp:165] Memory required for data: 10172134332
I0417 15:07:22.482728 32000 layer_factory.hpp:77] Creating layer rpn_cls_score_rpn_cls_score_0_split
I0417 15:07:22.482745 32000 net.cpp:100] Creating Layer rpn_cls_score_rpn_cls_score_0_split
I0417 15:07:22.482754 32000 net.cpp:434] rpn_cls_score_rpn_cls_score_0_split <- rpn_cls_score
I0417 15:07:22.482810 32000 net.cpp:408] rpn_cls_score_rpn_cls_score_0_split -> rpn_cls_score_rpn_cls_score_0_split_0
I0417 15:07:22.482838 32000 net.cpp:408] rpn_cls_score_rpn_cls_score_0_split -> rpn_cls_score_rpn_cls_score_0_split_1
I0417 15:07:22.482957 32000 net.cpp:150] Setting up rpn_cls_score_rpn_cls_score_0_split
I0417 15:07:22.482977 32000 net.cpp:157] Top shape: 1 74 96 1 1 (7104)
I0417 15:07:22.483012 32000 net.cpp:157] Top shape: 1 74 96 1 1 (7104)
I0417 15:07:22.483023 32000 net.cpp:165] Memory required for data: 10172191164
I0417 15:07:22.483033 32000 layer_factory.hpp:77] Creating layer rpn_twin_pred
I0417 15:07:22.483063 32000 net.cpp:100] Creating Layer rpn_twin_pred
I0417 15:07:22.483073 32000 net.cpp:434] rpn_twin_pred <- rpn/output_pool_rpn/output_pool_0_split_1
I0417 15:07:22.483090 32000 net.cpp:408] rpn_twin_pred -> rpn_twin_pred
I0417 15:07:22.488698 32000 net.cpp:150] Setting up rpn_twin_pred
I0417 15:07:22.488731 32000 net.cpp:157] Top shape: 1 74 96 1 1 (7104)
I0417 15:07:22.488741 32000 net.cpp:165] Memory required for data: 10172219580
I0417 15:07:22.488756 32000 layer_factory.hpp:77] Creating layer rpn_twin_pred_rpn_twin_pred_0_split
I0417 15:07:22.488777 32000 net.cpp:100] Creating Layer rpn_twin_pred_rpn_twin_pred_0_split
I0417 15:07:22.488786 32000 net.cpp:434] rpn_twin_pred_rpn_twin_pred_0_split <- rpn_twin_pred
I0417 15:07:22.488800 32000 net.cpp:408] rpn_twin_pred_rpn_twin_pred_0_split -> rpn_twin_pred_rpn_twin_pred_0_split_0
I0417 15:07:22.488822 32000 net.cpp:408] rpn_twin_pred_rpn_twin_pred_0_split -> rpn_twin_pred_rpn_twin_pred_0_split_1
I0417 15:07:22.488909 32000 net.cpp:150] Setting up rpn_twin_pred_rpn_twin_pred_0_split
I0417 15:07:22.488927 32000 net.cpp:157] Top shape: 1 74 96 1 1 (7104)
I0417 15:07:22.488937 32000 net.cpp:157] Top shape: 1 74 96 1 1 (7104)
I0417 15:07:22.488945 32000 net.cpp:165] Memory required for data: 10172276412
I0417 15:07:22.488952 32000 layer_factory.hpp:77] Creating layer rpn_cls_score_reshape
I0417 15:07:22.488976 32000 net.cpp:100] Creating Layer rpn_cls_score_reshape
I0417 15:07:22.488986 32000 net.cpp:434] rpn_cls_score_reshape <- rpn_cls_score_rpn_cls_score_0_split_0
I0417 15:07:22.488998 32000 net.cpp:408] rpn_cls_score_reshape -> rpn_cls_score_reshape
I0417 15:07:22.489068 32000 net.cpp:150] Setting up rpn_cls_score_reshape
I0417 15:07:22.489084 32000 net.cpp:157] Top shape: 1 2 3552 1 1 (7104)
I0417 15:07:22.489091 32000 net.cpp:165] Memory required for data: 10172304828
I0417 15:07:22.489099 32000 layer_factory.hpp:77] Creating layer rpn_cls_score_reshape_rpn_cls_score_reshape_0_split
I0417 15:07:22.489109 32000 net.cpp:100] Creating Layer rpn_cls_score_reshape_rpn_cls_score_reshape_0_split
I0417 15:07:22.489118 32000 net.cpp:434] rpn_cls_score_reshape_rpn_cls_score_reshape_0_split <- rpn_cls_score_reshape
I0417 15:07:22.489131 32000 net.cpp:408] rpn_cls_score_reshape_rpn_cls_score_reshape_0_split -> rpn_cls_score_reshape_rpn_cls_score_reshape_0_split_0
I0417 15:07:22.489151 32000 net.cpp:408] rpn_cls_score_reshape_rpn_cls_score_reshape_0_split -> rpn_cls_score_reshape_rpn_cls_score_reshape_0_split_1
I0417 15:07:22.489167 32000 net.cpp:408] rpn_cls_score_reshape_rpn_cls_score_reshape_0_split -> rpn_cls_score_reshape_rpn_cls_score_reshape_0_split_2
I0417 15:07:22.489274 32000 net.cpp:150] Setting up rpn_cls_score_reshape_rpn_cls_score_reshape_0_split
I0417 15:07:22.489289 32000 net.cpp:157] Top shape: 1 2 3552 1 1 (7104)
I0417 15:07:22.489298 32000 net.cpp:157] Top shape: 1 2 3552 1 1 (7104)
I0417 15:07:22.489307 32000 net.cpp:157] Top shape: 1 2 3552 1 1 (7104)
I0417 15:07:22.489315 32000 net.cpp:165] Memory required for data: 10172390076
I0417 15:07:22.489321 32000 layer_factory.hpp:77] Creating layer rpn-data
I0417 15:07:22.490131 32000 net.cpp:100] Creating Layer rpn-data
I0417 15:07:22.490159 32000 net.cpp:434] rpn-data <- rpn_cls_score_rpn_cls_score_0_split_1
I0417 15:07:22.490171 32000 net.cpp:434] rpn-data <- gt_boxes_data_1_split_0
I0417 15:07:22.490182 32000 net.cpp:434] rpn-data <- data_data_0_split_1
I0417 15:07:22.490196 32000 net.cpp:408] rpn-data -> rpn_labels
I0417 15:07:22.490213 32000 net.cpp:408] rpn-data -> rpn_twin_targets
I0417 15:07:22.490229 32000 net.cpp:408] rpn-data -> rpn_twin_inside_weights
I0417 15:07:22.490243 32000 net.cpp:408] rpn-data -> rpn_twin_outside_weights
I0417 15:07:22.496341 32000 net.cpp:150] Setting up rpn-data
I0417 15:07:22.496376 32000 net.cpp:157] Top shape: 1 1 3552 1 1 (3552)
I0417 15:07:22.496387 32000 net.cpp:157] Top shape: 1 74 96 1 1 (7104)
I0417 15:07:22.496397 32000 net.cpp:157] Top shape: 1 74 96 1 1 (7104)
I0417 15:07:22.496407 32000 net.cpp:157] Top shape: 1 74 96 1 1 (7104)
I0417 15:07:22.496413 32000 net.cpp:165] Memory required for data: 10172489532
I0417 15:07:22.496421 32000 layer_factory.hpp:77] Creating layer rpn_labels_rpn-data_0_split
I0417 15:07:22.496434 32000 net.cpp:100] Creating Layer rpn_labels_rpn-data_0_split
I0417 15:07:22.496444 32000 net.cpp:434] rpn_labels_rpn-data_0_split <- rpn_labels
I0417 15:07:22.496459 32000 net.cpp:408] rpn_labels_rpn-data_0_split -> rpn_labels_rpn-data_0_split_0
I0417 15:07:22.496475 32000 net.cpp:408] rpn_labels_rpn-data_0_split -> rpn_labels_rpn-data_0_split_1
I0417 15:07:22.496585 32000 net.cpp:150] Setting up rpn_labels_rpn-data_0_split
I0417 15:07:22.496603 32000 net.cpp:157] Top shape: 1 1 3552 1 1 (3552)
I0417 15:07:22.496618 32000 net.cpp:157] Top shape: 1 1 3552 1 1 (3552)
I0417 15:07:22.496647 32000 net.cpp:165] Memory required for data: 10172517948
I0417 15:07:22.496666 32000 layer_factory.hpp:77] Creating layer rpn_loss_cls
I0417 15:07:22.496697 32000 net.cpp:100] Creating Layer rpn_loss_cls
I0417 15:07:22.496718 32000 net.cpp:434] rpn_loss_cls <- rpn_cls_score_reshape_rpn_cls_score_reshape_0_split_0
I0417 15:07:22.496737 32000 net.cpp:434] rpn_loss_cls <- rpn_labels_rpn-data_0_split_0
…
I0417 15:07:22.498109 32000 layer_factory.hpp:77] Creating layer rpn_accuarcy
I0417 15:07:22.498124 32000 net.cpp:100] Creating Layer rpn_accuarcy
I0417 15:07:22.498134 32000 net.cpp:434] rpn_accuarcy <- rpn_cls_score_reshape_rpn_cls_score_reshape_0_split_1
I0417 15:07:22.498145 32000 net.cpp:434] rpn_accuarcy <- rpn_labels_rpn-data_0_split_1
I0417 15:07:22.498159 32000 net.cpp:408] rpn_accuarcy -> rpn_accuarcy
I0417 15:07:22.498173 32000 net.cpp:408] rpn_accuarcy -> rpn_accuarcy_class
I0417 15:07:22.498265 32000 net.cpp:150] Setting up rpn_accuarcy
I0417 15:07:22.498281 32000 net.cpp:157] Top shape: (1)
I0417 15:07:22.498291 32000 net.cpp:157] Top shape: 2 (2)
I0417 15:07:22.498297 32000 net.cpp:165] Memory required for data: 10172517968
I0417 15:07:22.498306 32000 layer_factory.hpp:77] Creating layer rpn_cls_prob
I0417 15:07:22.498318 32000 net.cpp:100] Creating Layer rpn_cls_prob
I0417 15:07:22.498328 32000 net.cpp:434] rpn_cls_prob <- rpn_cls_score_reshape_rpn_cls_score_reshape_0_split_2
I0417 15:07:22.498340 32000 net.cpp:408] rpn_cls_prob -> rpn_cls_prob
I0417 15:07:22.498906 32000 net.cpp:150] Setting up rpn_cls_prob
I0417 15:07:22.498932 32000 net.cpp:157] Top shape: 1 2 3552 1 1 (7104)
I0417 15:07:22.498941 32000 net.cpp:165] Memory required for data: 10172546384
I0417 15:07:22.498950 32000 layer_factory.hpp:77] Creating layer rpn_cls_prob_reshape
I0417 15:07:22.498966 32000 net.cpp:100] Creating Layer rpn_cls_prob_reshape
I0417 15:07:22.498978 32000 net.cpp:434] rpn_cls_prob_reshape <- rpn_cls_prob
I0417 15:07:22.498991 32000 net.cpp:408] rpn_cls_prob_reshape -> rpn_cls_prob_reshape
I0417 15:07:22.499053 32000 net.cpp:150] Setting up rpn_cls_prob_reshape
I0417 15:07:22.499068 32000 net.cpp:157] Top shape: 1 74 96 1 1 (7104)
I0417 15:07:22.499075 32000 net.cpp:165] Memory required for data: 10172574800
I0417 15:07:22.499083 32000 layer_factory.hpp:77] Creating layer proposal
I0417 15:07:22.499727 32000 net.cpp:100] Creating Layer proposal
I0417 15:07:22.499739 32000 net.cpp:434] proposal <- rpn_cls_prob_reshape
I0417 15:07:22.499744 32000 net.cpp:434] proposal <- rpn_twin_pred_rpn_twin_pred_0_split_1
I0417 15:07:22.499749 32000 net.cpp:408] proposal -> rpn_rois
I0417 15:07:22.501960 32000 net.cpp:150] Setting up proposal
I0417 15:07:22.501974 32000 net.cpp:157] Top shape: 1 3 (3)
I0417 15:07:22.501978 32000 net.cpp:165] Memory required for data: 10172574812
I0417 15:07:22.501982 32000 layer_factory.hpp:77] Creating layer roi-data
I0417 15:07:22.502115 32000 net.cpp:100] Creating Layer roi-data
I0417 15:07:22.502126 32000 net.cpp:434] roi-data <- rpn_rois
I0417 15:07:22.502131 32000 net.cpp:434] roi-data <- gt_boxes_data_1_split_1
I0417 15:07:22.502137 32000 net.cpp:408] roi-data -> rois
I0417 15:07:22.502144 32000 net.cpp:408] roi-data -> labels
I0417 15:07:22.502151 32000 net.cpp:408] roi-data -> twin_targets
I0417 15:07:22.502156 32000 net.cpp:408] roi-data -> twin_inside_weights
I0417 15:07:22.502161 32000 net.cpp:408] roi-data -> twin_outside_weights
I0417 15:07:22.502486 32000 net.cpp:150] Setting up roi-data
I0417 15:07:22.502499 32000 net.cpp:157] Top shape: 1 3 (3)
I0417 15:07:22.502503 32000 net.cpp:157] Top shape: 1 1 (1)
I0417 15:07:22.502507 32000 net.cpp:157] Top shape: 1 402 (402)
I0417 15:07:22.502511 32000 net.cpp:157] Top shape: 1 402 (402)
I0417 15:07:22.502514 32000 net.cpp:157] Top shape: 1 402 (402)
I0417 15:07:22.502517 32000 net.cpp:165] Memory required for data: 10172579652
I0417 15:07:22.502521 32000 layer_factory.hpp:77] Creating layer labels_roi-data_1_split
I0417 15:07:22.502526 32000 net.cpp:100] Creating Layer labels_roi-data_1_split
I0417 15:07:22.502530 32000 net.cpp:434] labels_roi-data_1_split <- labels
I0417 15:07:22.502535 32000 net.cpp:408] labels_roi-data_1_split -> labels_roi-data_1_split_0
I0417 15:07:22.502542 32000 net.cpp:408] labels_roi-data_1_split -> labels_roi-data_1_split_1
I0417 15:07:22.502574 32000 net.cpp:150] Setting up labels_roi-data_1_split
I0417 15:07:22.502579 32000 net.cpp:157] Top shape: 1 1 (1)
I0417 15:07:22.502583 32000 net.cpp:157] Top shape: 1 1 (1)
I0417 15:07:22.502585 32000 net.cpp:165] Memory required for data: 10172579660
I0417 15:07:22.502589 32000 layer_factory.hpp:77] Creating layer roi_pool5
I0417 15:07:22.502598 32000 net.cpp:100] Creating Layer roi_pool5
I0417 15:07:22.502601 32000 net.cpp:434] roi_pool5 <- conv5b_relu5b_0_split_1
I0417 15:07:22.502605 32000 net.cpp:434] roi_pool5 <- rois
I0417 15:07:22.502610 32000 net.cpp:408] roi_pool5 -> pool5
I0417 15:07:22.502617 32000 roi_pooling_layer.cpp:34] Temporal scale: 0.125
I0417 15:07:22.502624 32000 roi_pooling_layer.cpp:35] Spatial scale: 0.0625
I0417 15:07:22.502657 32000 net.cpp:150] Setting up roi_pool5
I0417 15:07:22.502662 32000 net.cpp:157] Top shape: 1 512 1 4 4 (8192)
I0417 15:07:22.502665 32000 net.cpp:165] Memory required for data: 10172612428
I0417 15:07:22.502670 32000 layer_factory.hpp:77] Creating layer fc6
I0417 15:07:22.502678 32000 net.cpp:100] Creating Layer fc6
I0417 15:07:22.502682 32000 net.cpp:434] fc6 <- pool5
I0417 15:07:22.502687 32000 net.cpp:408] fc6 -> fc6
I0417 15:07:23.398783 32000 net.cpp:150] Setting up fc6
I0417 15:07:23.398808 32000 net.cpp:157] Top shape: 1 4096 (4096)
I0417 15:07:23.398813 32000 net.cpp:165] Memory required for data: 10172628812
I0417 15:07:23.398823 32000 layer_factory.hpp:77] Creating layer relu6
I0417 15:07:23.398833 32000 net.cpp:100] Creating Layer relu6
I0417 15:07:23.398838 32000 net.cpp:434] relu6 <- fc6
I0417 15:07:23.398844 32000 net.cpp:395] relu6 -> fc6 (in-place)
I0417 15:07:23.399247 32000 net.cpp:150] Setting up relu6
I0417 15:07:23.399260 32000 net.cpp:157] Top shape: 1 4096 (4096)
I0417 15:07:23.399263 32000 net.cpp:165] Memory required for data: 10172645196
I0417 15:07:23.399267 32000 layer_factory.hpp:77] Creating layer drop6
I0417 15:07:23.399289 32000 net.cpp:100] Creating Layer drop6
I0417 15:07:23.399296 32000 net.cpp:434] drop6 <- fc6
I0417 15:07:23.399300 32000 net.cpp:395] drop6 -> fc6 (in-place)
I0417 15:07:23.399329 32000 net.cpp:150] Setting up drop6
I0417 15:07:23.399335 32000 net.cpp:157] Top shape: 1 4096 (4096)
I0417 15:07:23.399338 32000 net.cpp:165] Memory required for data: 10172661580
I0417 15:07:23.399341 32000 layer_factory.hpp:77] Creating layer fc6_drop6_0_split
I0417 15:07:23.399346 32000 net.cpp:100] Creating Layer fc6_drop6_0_split
I0417 15:07:23.399349 32000 net.cpp:434] fc6_drop6_0_split <- fc6
I0417 15:07:23.399354 32000 net.cpp:408] fc6_drop6_0_split -> fc6_drop6_0_split_0
I0417 15:07:23.399360 32000 net.cpp:408] fc6_drop6_0_split -> fc6_drop6_0_split_1
I0417 15:07:23.399391 32000 net.cpp:150] Setting up fc6_drop6_0_split
I0417 15:07:23.399399 32000 net.cpp:157] Top shape: 1 4096 (4096)
I0417 15:07:23.399402 32000 net.cpp:157] Top shape: 1 4096 (4096)
I0417 15:07:23.399405 32000 net.cpp:165] Memory required for data: 10172694348
I0417 15:07:23.399408 32000 layer_factory.hpp:77] Creating layer cls_score
I0417 15:07:23.399420 32000 net.cpp:100] Creating Layer cls_score
I0417 15:07:23.399425 32000 net.cpp:434] cls_score <- fc6_drop6_0_split_0
I0417 15:07:23.399431 32000 net.cpp:408] cls_score -> cls_score
I0417 15:07:23.420809 32000 net.cpp:150] Setting up cls_score
I0417 15:07:23.420821 32000 net.cpp:157] Top shape: 1 201 (201)
I0417 15:07:23.420825 32000 net.cpp:165] Memory required for data: 10172695152
I0417 15:07:23.420843 32000 layer_factory.hpp:77] Creating layer cls_score_cls_score_0_split
I0417 15:07:23.420850 32000 net.cpp:100] Creating Layer cls_score_cls_score_0_split
I0417 15:07:23.420852 32000 net.cpp:434] cls_score_cls_score_0_split <- cls_score
I0417 15:07:23.420859 32000 net.cpp:408] cls_score_cls_score_0_split -> cls_score_cls_score_0_split_0
I0417 15:07:23.420866 32000 net.cpp:408] cls_score_cls_score_0_split -> cls_score_cls_score_0_split_1
I0417 15:07:23.420898 32000 net.cpp:150] Setting up cls_score_cls_score_0_split
I0417 15:07:23.420904 32000 net.cpp:157] Top shape: 1 201 (201)
I0417 15:07:23.420908 32000 net.cpp:157] Top shape: 1 201 (201)
I0417 15:07:23.420912 32000 net.cpp:165] Memory required for data: 10172696760
I0417 15:07:23.420914 32000 layer_factory.hpp:77] Creating layer twin_pred
I0417 15:07:23.420922 32000 net.cpp:100] Creating Layer twin_pred
I0417 15:07:23.420927 32000 net.cpp:434] twin_pred <- fc6_drop6_0_split_1
I0417 15:07:23.420933 32000 net.cpp:408] twin_pred -> twin_pred
I0417 15:07:23.463205 32000 net.cpp:150] Setting up twin_pred
I0417 15:07:23.463232 32000 net.cpp:157] Top shape: 1 402 (402)
I0417 15:07:23.463237 32000 net.cpp:165] Memory required for data: 10172698368
I0417 15:07:23.463243 32000 layer_factory.hpp:77] Creating layer loss_cls
I0417 15:07:23.463253 32000 net.cpp:100] Creating Layer loss_cls
I0417 15:07:23.463258 32000 net.cpp:434] loss_cls <- cls_score_cls_score_0_split_0
I0417 15:07:23.463263 32000 net.cpp:434] loss_cls <- labels_roi-data_1_split_0
I0417 15:07:23.463268 32000 net.cpp:408] loss_cls -> loss_cls
…
