…
stepsize: 350000
snapshot: 0
snapshot_prefix: "./experiments/activitynet/snapshot/activitynet"
average_loss: 100
iter_size: 1
I0416 01:53:36.738517  3137 solver.cpp:81] Creating training net from train_net file: ./experiments/activitynet/train.prototxt
I0416 01:53:36.739310  3137 net.cpp:58] Initializing net from parameters: 
name: "activitynet"
state {
  phase: TRAIN
}
layer {
  name: "data"
  type: "Python"
  top: "data"
  top: "gt_boxes"
  python_param {
    module: "roi_data_layer.layer"
    layer: "RoIDataLayer"
    param_str: "\'num_classes\': 100"
  }
}
layer {
  name: "conv1a"
  type: "Convolution"
  bottom: "data"
  top: "conv1a"
  param {
    lr_mult: 0
    decay_mult: 0
  }
  param {
    lr_mult: 0
    decay_mult: 0
  }
  convolution_param {
    num_output: 64
    pad: 1
    pad: 1
    pad: 1
    kernel_size: 3
    kernel_size: 3
    kernel_size: 3
    weight_filler {
      type: "gaussian"
      std: 0.01
    }
    bias_filler {
      type: "constant"
      value: 0
    }
  }
}
layer {
  name: "relu1a"
  type: "ReLU"
  bottom: "conv1a"
  top: "conv1a"
}
layer {
  name: "pool1"
  type: "Pooling"
  bottom: "conv1a"
  top: "pool1"
  pooling_param {
    pool: MAX
    kernel_size: 1
    kernel_size: 2
    kernel_size: 2
    stride: 1
    stride: 2
    stride: 2
  }
}
layer {
  name: "conv2a"
  type: "Convolution"
  bottom: "pool1"
  top: "conv2a"
  param {
    lr_mult: 0
    decay_mult: 0
  }
  param {
    lr_mult: 0
    decay_mult: 0
  }
  convolution_param {
    num_output: 128
    pad: 1
    pad: 1
    pad: 1
    kernel_size: 3
    kernel_size: 3
    kernel_size: 3
    weight_filler {
      type: "gaussian"
      std: 0.01
    }
    bias_filler {
      type: "constant"
      value: 1
    }
  }
}
layer {
  name: "relu2a"
  type: "ReLU"
  bottom: "conv2a"
  top: "conv2a"
}
layer {
  name: "pool2"
  type: "Pooling"
  bottom: "conv2a"
  top: "pool2"
  pooling_param {
    pool: MAX
    kernel_size: 2
    kernel_size: 2
    kernel_size: 2
    stride: 2
    stride: 2
    stride: 2
  }
}
layer {
  name: "conv3a"
  type: "Convolution"
  bottom: "pool2"
  top: "conv3a"
  param {
    lr_mult: 1
    decay_mult: 1
  }
  param {
    lr_mult: 2
    decay_mult: 0
  }
  convolution_param {
    num_output: 256
    pad: 1
    pad: 1
    pad: 1
    kernel_size: 3
    kernel_size: 3
    kernel_size: 3
    weight_filler {
      type: "gaussian"
      std: 0.01
    }
    bias_filler {
      type: "constant"
      value: 1
    }
  }
}
layer {
  name: "relu3a"
  type: "ReLU"
  bottom: "conv3a"
  top: "conv3a"
}
layer {
  name: "conv3b"
  type: "Convolution"
  bottom: "conv3a"
  top: "conv3b"
  param {
    lr_mult: 1
    decay_mult: 1
  }
  param {
    lr_mult: 2
    decay_mult: 0
  }
  convolution_param {
    num_output: 256
    pad: 1
    pad: 1
    pad: 1
    kernel_size: 3
    kernel_size: 3
    kernel_size: 3
    weight_filler {
      type: "gaussian"
      std: 0.01
    }
    bias_filler {
      type: "constant"
      value: 1
    }
  }
}
layer {
  name: "relu3b"
  type: "ReLU"
  bottom: "conv3b"
  top: "conv3b"
}
layer {
  name: "pool3"
  type: "Pooling"
  bottom: "conv3b"
  top: "pool3"
  pooling_param {
    pool: MAX
    kernel_size: 2
    kernel_size: 2
    kernel_size: 2
    stride: 2
    stride: 2
    stride: 2
  }
}
layer {
  name: "conv4a"
  type: "Convolution"
  bottom: "pool3"
  top: "conv4a"
  param {
    lr_mult: 1
    decay_mult: 1
  }
  param {
    lr_mult: 2
    decay_mult: 0
  }
  convolution_param {
    num_output: 512
    pad: 1
    pad: 1
    pad: 1
    kernel_size: 3
    kernel_size: 3
    kernel_size: 3
    weight_filler {
      type: "gaussian"
      std: 0.01
    }
    bias_filler {
      type: "constant"
      value: 1
    }
  }
}
layer {
  name: "relu4a"
  type: "ReLU"
  bottom: "conv4a"
  top: "conv4a"
}
layer {
  name: "conv4b"
  type: "Convolution"
  bottom: "conv4a"
  top: "conv4b"
  param {
    lr_mult: 1
    decay_mult: 1
  }
  param {
    lr_mult: 2
    decay_mult: 0
  }
  convolution_param {
    num_output: 512
    pad: 1
    pad: 1
    pad: 1
    kernel_size: 3
    kernel_size: 3
    kernel_size: 3
    weight_filler {
      type: "gaussian"
      std: 0.01
    }
    bias_filler {
      type: "constant"
      value: 1
    }
  }
}
layer {
  name: "relu4b"
  type: "ReLU"
  bottom: "conv4b"
  top: "conv4b"
}
layer {
  name: "pool4"
  type: "Pooling"
  bottom: "conv4b"
  top: "pool4"
  pooling_param {
    pool: MAX
    kernel_size: 2
    kernel_size: 2
    kernel_size: 2
    stride: 2
    stride: 2
    stride: 2
  }
}
layer {
  name: "conv5a"
  type: "Convolution"
  bottom: "pool4"
  top: "conv5a"
  param {
    lr_mult: 1
    decay_mult: 1
  }
  param {
    lr_mult: 2
    decay_mult: 0
  }
  convolution_param {
    num_output: 512
    pad: 1
    pad: 1
    pad: 1
    kernel_size: 3
    kernel_size: 3
    kernel_size: 3
    weight_filler {
      type: "gaussian"
      std: 0.01
    }
    bias_filler {
      type: "constant"
      value: 1
    }
  }
}
layer {
  name: "relu5a"
  type: "ReLU"
  bottom: "conv5a"
  top: "conv5a"
}
layer {
  name: "conv5b"
  type: "Convolution"
  bottom: "conv5a"
  top: "conv5b"
  param {
    lr_mult: 1
    decay_mult: 1
  }
  param {
    lr_mult: 2
    decay_mult: 0
  }
  convolution_param {
    num_output: 512
    pad: 1
    pad: 1
    pad: 1
    kernel_size: 3
    kernel_size: 3
    kernel_size: 3
    weight_filler {
      type: "gaussian"
      std: 0.01
    }
    bias_filler {
      type: "constant"
      value: 1
    }
  }
}
layer {
  name: "relu5b"
  type: "ReLU"
  bottom: "conv5b"
  top: "conv5b"
}
layer {
  name: "rpn_conv/3x3"
  type: "Convolution"
  bottom: "conv5b"
  top: "rpn/output"
  param {
    lr_mult: 1
    decay_mult: 1
  }
  param {
    lr_mult: 2
    decay_mult: 0
  }
  convolution_param {
    num_output: 512
    pad: 1
    pad: 1
    pad: 1
    kernel_size: 3
    kernel_size: 3
    kernel_size: 3
    stride: 1
    stride: 2
    stride: 2
    weight_filler {
      type: "gaussian"
      std: 0.01
    }
    bias_filler {
      type: "constant"
      value: 0
    }
  }
}
layer {
  name: "rpn_relu/3x3"
  type: "ReLU"
  bottom: "rpn/output"
  top: "rpn/output"
}
layer {
  name: "rpn_conv/3x3_2"
  type: "Convolution"
  bottom: "rpn/output"
  top: "rpn/output_2"
  param {
    lr_mult: 1
    decay_mult: 1
  }
  param {
    lr_mult: 2
    decay_mult: 0
  }
  convolution_param {
    num_output: 512
    pad: 1
    pad: 1
    pad: 1
    kernel_size: 3
    kernel_size: 3
    kernel_size: 3
    stride: 1
    stride: 2
    stride: 2
    weight_filler {
      type: "gaussian"
      std: 0.01
    }
    bias_filler {
      type: "constant"
      value: 0
    }
  }
}
layer {
  name: "rpn_relu/3x3_2"
  type: "ReLU"
  bottom: "rpn/output_2"
  top: "rpn/output_2"
}
layer {
  name: "rpn/output_pool"
  type: "Pooling"
  bottom: "rpn/output_2"
  top: "rpn/output_pool"
  pooling_param {
    pool: MAX
    kernel_size: 1
    kernel_size: 2
    kernel_size: 2
  }
}
layer {
  name: "rpn_cls_score"
  type: "Convolution"
  bottom: "rpn/output_pool"
  top: "rpn_cls_score"
  param {
    lr_mult: 1
    decay_mult: 1
  }
  param {
    lr_mult: 2
    decay_mult: 0
  }
  convolution_param {
    num_output: 74
    kernel_size: 1
    kernel_size: 1
    kernel_size: 1
    weight_filler {
      type: "gaussian"
      std: 0.01
    }
    bias_filler {
      type: "constant"
      value: 0
    }
  }
}
layer {
  name: "rpn_twin_pred"
  type: "Convolution"
  bottom: "rpn/output_pool"
  top: "rpn_twin_pred"
  param {
    lr_mult: 1
    decay_mult: 1
  }
  param {
    lr_mult: 2
    decay_mult: 0
  }
  convolution_param {
    num_output: 74
    kernel_size: 1
    kernel_size: 1
    kernel_size: 1
    weight_filler {
      type: "gaussian"
      std: 0.01
    }
    bias_filler {
      type: "constant"
      value: 0
    }
  }
}
layer {
  name: "rpn_cls_score_reshape"
  type: "Reshape"
  bottom: "rpn_cls_score"
  top: "rpn_cls_score_reshape"
  reshape_param {
    shape {
      dim: 0
      dim: 2
      dim: -1
      dim: 0
      dim: 0
    }
  }
}
layer {
  name: "rpn-data"
  type: "Python"
  bottom: "rpn_cls_score"
  bottom: "gt_boxes"
  bottom: "data"
  top: "rpn_labels"
  top: "rpn_twin_targets"
  top: "rpn_twin_inside_weights"
  top: "rpn_twin_outside_weights"
  python_param {
    module: "rpn.anchor_target_layer"
    layer: "AnchorTargetLayer"
    param_str: "\'feat_stride\': 8 \n\'scales\': !!python/tuple [1,1.25, 1.5,1.75, 2,2.5, 3,3.5, 4,4.5, 5,5.5, 6,7, 8,9,10,11,12,14,16,18,20,22,24,28,32,36,40,44,52,60,68,76,84,92,100]"
  }
}
layer {
  name: "rpn_loss_cls"
  type: "SoftmaxWithLoss"
  bottom: "rpn_cls_score_reshape"
  bottom: "rpn_labels"
  top: "rpn_cls_loss"
  loss_weight: 1
  propagate_down: true
  propagate_down: false
  loss_param {
    ignore_label: -1
    normalize: true
  }
}
layer {
  name: "rpn_loss_twin"
  type: "SmoothL1Loss"
  bottom: "rpn_twin_pred"
  bottom: "rpn_twin_targets"
  bottom: "rpn_twin_inside_weights"
  bottom: "rpn_twin_outside_weights"
  top: "rpn_loss_twin"
  loss_weight: 1
  smooth_l1_loss_param {
    sigma: 3
  }
}
layer {
  name: "rpn_accuarcy"
  type: "Accuracy"
  bottom: "rpn_cls_score_reshape"
  bottom: "rpn_labels"
  top: "rpn_accuarcy"
  top: "rpn_accuarcy_class"
  propagate_down: false
  propagate_down: false
  accuracy_param {
    ignore_label: -1
  }
}
layer {
  name: "rpn_cls_prob"
  type: "Softmax"
  bottom: "rpn_cls_score_reshape"
  top: "rpn_cls_prob"
}
layer {
  name: "rpn_cls_prob_reshape"
  type: "Reshape"
  bottom: "rpn_cls_prob"
  top: "rpn_cls_prob_reshape"
  reshape_param {
    shape {
      dim: 0
      dim: 74
      dim: -1
      dim: 0
      dim: 0
    }
  }
}
layer {
  name: "proposal"
  type: "Python"
  bottom: "rpn_cls_prob_reshape"
  bottom: "rpn_twin_pred"
  top: "rpn_rois"
  include {
    phase: TRAIN
  }
  python_param {
    module: "rpn.proposal_layer"
    layer: "ProposalLayer"
    param_str: "\'feat_stride\': 8 \n\'scales\': !!python/tuple [1,1.25, 1.5,1.75, 2,2.5, 3,3.5, 4,4.5, 5,5.5, 6,7, 8,9,10,11,12,14,16,18,20,22,24,28,32,36,40,44,52,60,68,76,84,92,100]"
  }
}
layer {
  name: "roi-data"
  type: "Python"
  bottom: "rpn_rois"
  bottom: "gt_boxes"
  top: "rois"
  top: "labels"
  top: "twin_targets"
  top: "twin_inside_weights"
  top: "twin_outside_weights"
  python_param {
    module: "rpn.proposal_target_layer"
    layer: "ProposalTargetLayer"
    param_str: "\'num_classes\': 201"
  }
}
layer {
  name: "roi_pool5"
  type: "ROIPooling"
  bottom: "conv5b"
  bottom: "rois"
  top: "pool5"
  roi_pooling_param {
    pooled_h: 4
    pooled_w: 4
    spatial_scale: 0.0625
    pooled_l: 1
    temporal_scale: 0.125
  }
}
layer {
  name: "fc6"
  type: "InnerProduct"
  bottom: "pool5"
  top: "fc6"
  param {
    lr_mult: 1
    decay_mult: 1
  }
  param {
    lr_mult: 2
    decay_mult: 0
  }
  inner_product_param {
    num_output: 4096
    weight_filler {
      type: "gaussian"
      std: 0.005
    }
    bias_filler {
      type: "constant"
      value: 1
    }
  }
}
layer {
  name: "relu6"
  type: "ReLU"
  bottom: "fc6"
  top: "fc6"
}
layer {
  name: "drop6"
  type: "Dropout"
  bottom: "fc6"
  top: "fc6"
  dropout_param {
    dropout_ratio: 0.5
  }
}
layer {
  name: "cls_score"
  type: "InnerProduct"
  bottom: "fc6"
  top: "cls_score"
  param {
    lr_mult: 1
    decay_mult: 1
  }
  param {
    lr_mult: 2
    decay_mult: 0
  }
  inner_product_param {
    num_output: 201
    weight_filler {
      type: "gaussian"
      std: 0.01
    }
    bias_filler {
      type: "constant"
      value: 0
    }
  }
}
layer {
  name: "twin_pred"
  type: "InnerProduct"
  bottom: "fc6"
  top: "twin_pred"
  param {
    lr_mult: 1
    decay_mult: 1
  }
  param {
    lr_mult: 2
    decay_mult: 0
  }
  inner_product_param {
    num_output: 402
    weight_filler {
      type: "gaussian"
      std: 0.001
    }
    bias_filler {
      type: "constant"
      value: 0
    }
  }
}
layer {
  name: "loss_cls"
  type: "SoftmaxWithLoss"
  bottom: "cls_score"
  bottom: "labels"
  top: "loss_cls"
  loss_weight: 1
  propagate_down: true
  propagate_down: false
}
layer {
  name: "loss_twin"
  type: "SmoothL1Loss"
  bottom: "twin_pred"
  bottom: "twin_targets"
  bottom: "twin_inside_weights"
  bottom: "twin_outside_weights"
  top: "loss_twin"
  loss_weight: 1
}
layer {
  name: "accuarcy"
  type: "Accuracy"
  bottom: "cls_score"
  bottom: "labels"
  top: "accuarcy"
  propagate_down: false
  propagate_down: false
  accuracy_param {
    ignore_label: -1
  }
}
I0416 01:53:36.739678  3137 layer_factory.hpp:77] Creating layer data
I0416 01:53:36.752355  3137 net.cpp:100] Creating Layer data
I0416 01:53:36.752385  3137 net.cpp:408] data -> data
I0416 01:53:36.752399  3137 net.cpp:408] data -> gt_boxes
RoiDataLayer: name_to_top: {'gt_windows': 1, 'data': 0}
I0416 01:53:36.833302  3137 net.cpp:150] Setting up data
I0416 01:53:36.833331  3137 net.cpp:157] Top shape: 1 3 768 112 112 (28901376)
I0416 01:53:36.833340  3137 net.cpp:157] Top shape: 1 3 (3)
I0416 01:53:36.833344  3137 net.cpp:165] Memory required for data: 115605516
I0416 01:53:36.833353  3137 layer_factory.hpp:77] Creating layer data_data_0_split
I0416 01:53:36.833369  3137 net.cpp:100] Creating Layer data_data_0_split
I0416 01:53:36.833379  3137 net.cpp:434] data_data_0_split <- data
I0416 01:53:36.833389  3137 net.cpp:408] data_data_0_split -> data_data_0_split_0
I0416 01:53:36.833403  3137 net.cpp:408] data_data_0_split -> data_data_0_split_1
I0416 01:53:36.833480  3137 net.cpp:150] Setting up data_data_0_split
I0416 01:53:36.833494  3137 net.cpp:157] Top shape: 1 3 768 112 112 (28901376)
I0416 01:53:36.833500  3137 net.cpp:157] Top shape: 1 3 768 112 112 (28901376)
I0416 01:53:36.833504  3137 net.cpp:165] Memory required for data: 346816524
I0416 01:53:36.833509  3137 layer_factory.hpp:77] Creating layer gt_boxes_data_1_split
I0416 01:53:36.833521  3137 net.cpp:100] Creating Layer gt_boxes_data_1_split
I0416 01:53:36.833539  3137 net.cpp:434] gt_boxes_data_1_split <- gt_boxes
I0416 01:53:36.833560  3137 net.cpp:408] gt_boxes_data_1_split -> gt_boxes_data_1_split_0
I0416 01:53:36.833586  3137 net.cpp:408] gt_boxes_data_1_split -> gt_boxes_data_1_split_1
I0416 01:53:36.833653  3137 net.cpp:150] Setting up gt_boxes_data_1_split
I0416 01:53:36.833662  3137 net.cpp:157] Top shape: 1 3 (3)
I0416 01:53:36.833667  3137 net.cpp:157] Top shape: 1 3 (3)
I0416 01:53:36.833672  3137 net.cpp:165] Memory required for data: 346816548
I0416 01:53:36.833676  3137 layer_factory.hpp:77] Creating layer conv1a
I0416 01:53:36.833693  3137 net.cpp:100] Creating Layer conv1a
I0416 01:53:36.833709  3137 net.cpp:434] conv1a <- data_data_0_split_0
I0416 01:53:36.833730  3137 net.cpp:408] conv1a -> conv1a
I0416 01:53:36.851254  3137 net.cpp:150] Setting up conv1a
I0416 01:53:36.851294  3137 net.cpp:157] Top shape: 1 64 768 112 112 (616562688)
I0416 01:53:36.851299  3137 net.cpp:165] Memory required for data: 2813067300
I0416 01:53:36.851320  3137 layer_factory.hpp:77] Creating layer relu1a
I0416 01:53:36.851336  3137 net.cpp:100] Creating Layer relu1a
I0416 01:53:36.851342  3137 net.cpp:434] relu1a <- conv1a
I0416 01:53:36.851353  3137 net.cpp:395] relu1a -> conv1a (in-place)
I0416 01:53:36.851366  3137 net.cpp:150] Setting up relu1a
I0416 01:53:36.851389  3137 net.cpp:157] Top shape: 1 64 768 112 112 (616562688)
I0416 01:53:36.851403  3137 net.cpp:165] Memory required for data: 5279318052
I0416 01:53:36.851418  3137 layer_factory.hpp:77] Creating layer pool1
I0416 01:53:36.851436  3137 net.cpp:100] Creating Layer pool1
I0416 01:53:36.851450  3137 net.cpp:434] pool1 <- conv1a
I0416 01:53:36.851469  3137 net.cpp:408] pool1 -> pool1
I0416 01:53:36.851588  3137 net.cpp:150] Setting up pool1
I0416 01:53:36.851600  3137 net.cpp:157] Top shape: 1 64 768 56 56 (154140672)
I0416 01:53:36.851605  3137 net.cpp:165] Memory required for data: 5895880740
I0416 01:53:36.851610  3137 layer_factory.hpp:77] Creating layer conv2a
I0416 01:53:36.851625  3137 net.cpp:100] Creating Layer conv2a
I0416 01:53:36.851641  3137 net.cpp:434] conv2a <- pool1
I0416 01:53:36.851662  3137 net.cpp:408] conv2a -> conv2a
I0416 01:53:36.858844  3137 net.cpp:150] Setting up conv2a
I0416 01:53:36.858873  3137 net.cpp:157] Top shape: 1 128 768 56 56 (308281344)
I0416 01:53:36.858877  3137 net.cpp:165] Memory required for data: 7129006116
I0416 01:53:36.858894  3137 layer_factory.hpp:77] Creating layer relu2a
I0416 01:53:36.858908  3137 net.cpp:100] Creating Layer relu2a
I0416 01:53:36.858916  3137 net.cpp:434] relu2a <- conv2a
I0416 01:53:36.858924  3137 net.cpp:395] relu2a -> conv2a (in-place)
I0416 01:53:36.858938  3137 net.cpp:150] Setting up relu2a
I0416 01:53:36.858945  3137 net.cpp:157] Top shape: 1 128 768 56 56 (308281344)
I0416 01:53:36.858949  3137 net.cpp:165] Memory required for data: 8362131492
I0416 01:53:36.858954  3137 layer_factory.hpp:77] Creating layer pool2
I0416 01:53:36.858968  3137 net.cpp:100] Creating Layer pool2
I0416 01:53:36.858974  3137 net.cpp:434] pool2 <- conv2a
I0416 01:53:36.858981  3137 net.cpp:408] pool2 -> pool2
I0416 01:53:36.859081  3137 net.cpp:150] Setting up pool2
I0416 01:53:36.859091  3137 net.cpp:157] Top shape: 1 128 384 28 28 (38535168)
I0416 01:53:36.859093  3137 net.cpp:165] Memory required for data: 8516272164
I0416 01:53:36.859097  3137 layer_factory.hpp:77] Creating layer conv3a
I0416 01:53:36.859110  3137 net.cpp:100] Creating Layer conv3a
I0416 01:53:36.859118  3137 net.cpp:434] conv3a <- pool2
I0416 01:53:36.859128  3137 net.cpp:408] conv3a -> conv3a
I0416 01:53:36.867331  3137 net.cpp:150] Setting up conv3a
I0416 01:53:36.867352  3137 net.cpp:157] Top shape: 1 256 384 28 28 (77070336)
I0416 01:53:36.867357  3137 net.cpp:165] Memory required for data: 8824553508
I0416 01:53:36.867370  3137 layer_factory.hpp:77] Creating layer relu3a
I0416 01:53:36.867380  3137 net.cpp:100] Creating Layer relu3a
I0416 01:53:36.867385  3137 net.cpp:434] relu3a <- conv3a
I0416 01:53:36.867395  3137 net.cpp:395] relu3a -> conv3a (in-place)
I0416 01:53:36.867404  3137 net.cpp:150] Setting up relu3a
I0416 01:53:36.867411  3137 net.cpp:157] Top shape: 1 256 384 28 28 (77070336)
I0416 01:53:36.867415  3137 net.cpp:165] Memory required for data: 9132834852
I0416 01:53:36.867420  3137 layer_factory.hpp:77] Creating layer conv3b
I0416 01:53:36.867432  3137 net.cpp:100] Creating Layer conv3b
I0416 01:53:36.867453  3137 net.cpp:434] conv3b <- conv3a
I0416 01:53:36.867472  3137 net.cpp:408] conv3b -> conv3b
I0416 01:53:36.893651  3137 net.cpp:150] Setting up conv3b
I0416 01:53:36.893677  3137 net.cpp:157] Top shape: 1 256 384 28 28 (77070336)
I0416 01:53:36.893682  3137 net.cpp:165] Memory required for data: 9441116196
I0416 01:53:36.893827  3137 layer_factory.hpp:77] Creating layer relu3b
I0416 01:53:36.893846  3137 net.cpp:100] Creating Layer relu3b
I0416 01:53:36.893852  3137 net.cpp:434] relu3b <- conv3b
I0416 01:53:36.893865  3137 net.cpp:395] relu3b -> conv3b (in-place)
I0416 01:53:36.893923  3137 net.cpp:150] Setting up relu3b
I0416 01:53:36.893985  3137 net.cpp:157] Top shape: 1 256 384 28 28 (77070336)
I0416 01:53:36.894032  3137 net.cpp:165] Memory required for data: 9749397540
I0416 01:53:36.894040  3137 layer_factory.hpp:77] Creating layer pool3
I0416 01:53:36.894073  3137 net.cpp:100] Creating Layer pool3
I0416 01:53:36.894079  3137 net.cpp:434] pool3 <- conv3b
I0416 01:53:36.894114  3137 net.cpp:408] pool3 -> pool3
I0416 01:53:36.894264  3137 net.cpp:150] Setting up pool3
I0416 01:53:36.894289  3137 net.cpp:157] Top shape: 1 256 192 14 14 (9633792)
I0416 01:53:36.894306  3137 net.cpp:165] Memory required for data: 9787932708
I0416 01:53:36.894327  3137 layer_factory.hpp:77] Creating layer conv4a
I0416 01:53:36.894358  3137 net.cpp:100] Creating Layer conv4a
I0416 01:53:36.894366  3137 net.cpp:434] conv4a <- pool3
I0416 01:53:36.894402  3137 net.cpp:408] conv4a -> conv4a
I0416 01:53:36.953701  3137 net.cpp:150] Setting up conv4a
I0416 01:53:36.953737  3137 net.cpp:157] Top shape: 1 512 192 14 14 (19267584)
I0416 01:53:36.953742  3137 net.cpp:165] Memory required for data: 9865003044
I0416 01:53:36.953763  3137 layer_factory.hpp:77] Creating layer relu4a
I0416 01:53:36.953778  3137 net.cpp:100] Creating Layer relu4a
I0416 01:53:36.953812  3137 net.cpp:434] relu4a <- conv4a
I0416 01:53:36.953833  3137 net.cpp:395] relu4a -> conv4a (in-place)
I0416 01:53:36.953857  3137 net.cpp:150] Setting up relu4a
I0416 01:53:36.953877  3137 net.cpp:157] Top shape: 1 512 192 14 14 (19267584)
I0416 01:53:36.953893  3137 net.cpp:165] Memory required for data: 9942073380
I0416 01:53:36.953907  3137 layer_factory.hpp:77] Creating layer conv4b
I0416 01:53:36.953940  3137 net.cpp:100] Creating Layer conv4b
I0416 01:53:36.953958  3137 net.cpp:434] conv4b <- conv4a
I0416 01:53:36.953979  3137 net.cpp:408] conv4b -> conv4b
I0416 01:53:37.038445  3137 net.cpp:150] Setting up conv4b
I0416 01:53:37.038485  3137 net.cpp:157] Top shape: 1 512 192 14 14 (19267584)
I0416 01:53:37.038501  3137 net.cpp:165] Memory required for data: 10019143716
I0416 01:53:37.038518  3137 layer_factory.hpp:77] Creating layer relu4b
I0416 01:53:37.038549  3137 net.cpp:100] Creating Layer relu4b
I0416 01:53:37.038558  3137 net.cpp:434] relu4b <- conv4b
I0416 01:53:37.038568  3137 net.cpp:395] relu4b -> conv4b (in-place)
I0416 01:53:37.038579  3137 net.cpp:150] Setting up relu4b
I0416 01:53:37.038588  3137 net.cpp:157] Top shape: 1 512 192 14 14 (19267584)
I0416 01:53:37.038594  3137 net.cpp:165] Memory required for data: 10096214052
I0416 01:53:37.038599  3137 layer_factory.hpp:77] Creating layer pool4
I0416 01:53:37.038609  3137 net.cpp:100] Creating Layer pool4
I0416 01:53:37.038614  3137 net.cpp:434] pool4 <- conv4b
I0416 01:53:37.038620  3137 net.cpp:408] pool4 -> pool4
I0416 01:53:37.038681  3137 net.cpp:150] Setting up pool4
I0416 01:53:37.038691  3137 net.cpp:157] Top shape: 1 512 96 7 7 (2408448)
I0416 01:53:37.038697  3137 net.cpp:165] Memory required for data: 10105847844
I0416 01:53:37.038702  3137 layer_factory.hpp:77] Creating layer conv5a
I0416 01:53:37.038712  3137 net.cpp:100] Creating Layer conv5a
I0416 01:53:37.038718  3137 net.cpp:434] conv5a <- pool4
I0416 01:53:37.038727  3137 net.cpp:408] conv5a -> conv5a
I0416 01:53:37.129534  3137 net.cpp:150] Setting up conv5a
I0416 01:53:37.129614  3137 net.cpp:157] Top shape: 1 512 96 7 7 (2408448)
I0416 01:53:37.129637  3137 net.cpp:165] Memory required for data: 10115481636
I0416 01:53:37.129665  3137 layer_factory.hpp:77] Creating layer relu5a
I0416 01:53:37.129704  3137 net.cpp:100] Creating Layer relu5a
I0416 01:53:37.129727  3137 net.cpp:434] relu5a <- conv5a
I0416 01:53:37.129750  3137 net.cpp:395] relu5a -> conv5a (in-place)
I0416 01:53:37.129778  3137 net.cpp:150] Setting up relu5a
I0416 01:53:37.129801  3137 net.cpp:157] Top shape: 1 512 96 7 7 (2408448)
I0416 01:53:37.129818  3137 net.cpp:165] Memory required for data: 10125115428
I0416 01:53:37.129838  3137 layer_factory.hpp:77] Creating layer conv5b
I0416 01:53:37.129868  3137 net.cpp:100] Creating Layer conv5b
I0416 01:53:37.129889  3137 net.cpp:434] conv5b <- conv5a
I0416 01:53:37.129916  3137 net.cpp:408] conv5b -> conv5b
I0416 01:53:37.215514  3137 net.cpp:150] Setting up conv5b
I0416 01:53:37.215592  3137 net.cpp:157] Top shape: 1 512 96 7 7 (2408448)
I0416 01:53:37.215607  3137 net.cpp:165] Memory required for data: 10134749220
I0416 01:53:37.215626  3137 layer_factory.hpp:77] Creating layer relu5b
I0416 01:53:37.215647  3137 net.cpp:100] Creating Layer relu5b
I0416 01:53:37.215662  3137 net.cpp:434] relu5b <- conv5b
I0416 01:53:37.215680  3137 net.cpp:395] relu5b -> conv5b (in-place)
I0416 01:53:37.215701  3137 net.cpp:150] Setting up relu5b
I0416 01:53:37.215713  3137 net.cpp:157] Top shape: 1 512 96 7 7 (2408448)
I0416 01:53:37.215716  3137 net.cpp:165] Memory required for data: 10144383012
I0416 01:53:37.215721  3137 layer_factory.hpp:77] Creating layer conv5b_relu5b_0_split
I0416 01:53:37.215729  3137 net.cpp:100] Creating Layer conv5b_relu5b_0_split
I0416 01:53:37.215734  3137 net.cpp:434] conv5b_relu5b_0_split <- conv5b
I0416 01:53:37.215739  3137 net.cpp:408] conv5b_relu5b_0_split -> conv5b_relu5b_0_split_0
I0416 01:53:37.215749  3137 net.cpp:408] conv5b_relu5b_0_split -> conv5b_relu5b_0_split_1
I0416 01:53:37.215809  3137 net.cpp:150] Setting up conv5b_relu5b_0_split
I0416 01:53:37.215821  3137 net.cpp:157] Top shape: 1 512 96 7 7 (2408448)
I0416 01:53:37.215826  3137 net.cpp:157] Top shape: 1 512 96 7 7 (2408448)
I0416 01:53:37.215831  3137 net.cpp:165] Memory required for data: 10163650596
I0416 01:53:37.215836  3137 layer_factory.hpp:77] Creating layer rpn_conv/3x3
I0416 01:53:37.215848  3137 net.cpp:100] Creating Layer rpn_conv/3x3
I0416 01:53:37.215854  3137 net.cpp:434] rpn_conv/3x3 <- conv5b_relu5b_0_split_0
I0416 01:53:37.215862  3137 net.cpp:408] rpn_conv/3x3 -> rpn/output
I0416 01:53:37.308159  3137 net.cpp:150] Setting up rpn_conv/3x3
I0416 01:53:37.308189  3137 net.cpp:157] Top shape: 1 512 96 4 4 (786432)
I0416 01:53:37.308192  3137 net.cpp:165] Memory required for data: 10166796324
I0416 01:53:37.308208  3137 layer_factory.hpp:77] Creating layer rpn_relu/3x3
I0416 01:53:37.308218  3137 net.cpp:100] Creating Layer rpn_relu/3x3
I0416 01:53:37.308223  3137 net.cpp:434] rpn_relu/3x3 <- rpn/output
I0416 01:53:37.308228  3137 net.cpp:395] rpn_relu/3x3 -> rpn/output (in-place)
I0416 01:53:37.308239  3137 net.cpp:150] Setting up rpn_relu/3x3
I0416 01:53:37.308259  3137 net.cpp:157] Top shape: 1 512 96 4 4 (786432)
I0416 01:53:37.308262  3137 net.cpp:165] Memory required for data: 10169942052
I0416 01:53:37.308265  3137 layer_factory.hpp:77] Creating layer rpn_conv/3x3_2
I0416 01:53:37.308276  3137 net.cpp:100] Creating Layer rpn_conv/3x3_2
I0416 01:53:37.308280  3137 net.cpp:434] rpn_conv/3x3_2 <- rpn/output
I0416 01:53:37.308285  3137 net.cpp:408] rpn_conv/3x3_2 -> rpn/output_2
I0416 01:53:37.378875  3137 net.cpp:150] Setting up rpn_conv/3x3_2
I0416 01:53:37.379196  3137 net.cpp:157] Top shape: 1 512 96 2 2 (196608)
I0416 01:53:37.379243  3137 net.cpp:165] Memory required for data: 10170728484
I0416 01:53:37.379290  3137 layer_factory.hpp:77] Creating layer rpn_relu/3x3_2
I0416 01:53:37.379336  3137 net.cpp:100] Creating Layer rpn_relu/3x3_2
I0416 01:53:37.379426  3137 net.cpp:434] rpn_relu/3x3_2 <- rpn/output_2
I0416 01:53:37.379487  3137 net.cpp:395] rpn_relu/3x3_2 -> rpn/output_2 (in-place)
I0416 01:53:37.379550  3137 net.cpp:150] Setting up rpn_relu/3x3_2
I0416 01:53:37.379597  3137 net.cpp:157] Top shape: 1 512 96 2 2 (196608)
I0416 01:53:37.379647  3137 net.cpp:165] Memory required for data: 10171514916
I0416 01:53:37.379705  3137 layer_factory.hpp:77] Creating layer rpn/output_pool
I0416 01:53:37.379776  3137 net.cpp:100] Creating Layer rpn/output_pool
I0416 01:53:37.379830  3137 net.cpp:434] rpn/output_pool <- rpn/output_2
I0416 01:53:37.379896  3137 net.cpp:408] rpn/output_pool -> rpn/output_pool
I0416 01:53:37.380291  3137 net.cpp:150] Setting up rpn/output_pool
I0416 01:53:37.380458  3137 net.cpp:157] Top shape: 1 512 96 1 1 (49152)
I0416 01:53:37.380514  3137 net.cpp:165] Memory required for data: 10171711524
I0416 01:53:37.380568  3137 layer_factory.hpp:77] Creating layer rpn/output_pool_rpn/output_pool_0_split
I0416 01:53:37.380646  3137 net.cpp:100] Creating Layer rpn/output_pool_rpn/output_pool_0_split
I0416 01:53:37.380738  3137 net.cpp:434] rpn/output_pool_rpn/output_pool_0_split <- rpn/output_pool
I0416 01:53:37.380797  3137 net.cpp:408] rpn/output_pool_rpn/output_pool_0_split -> rpn/output_pool_rpn/output_pool_0_split_0
I0416 01:53:37.380892  3137 net.cpp:408] rpn/output_pool_rpn/output_pool_0_split -> rpn/output_pool_rpn/output_pool_0_split_1
I0416 01:53:37.381219  3137 net.cpp:150] Setting up rpn/output_pool_rpn/output_pool_0_split
I0416 01:53:37.381325  3137 net.cpp:157] Top shape: 1 512 96 1 1 (49152)
I0416 01:53:37.381383  3137 net.cpp:157] Top shape: 1 512 96 1 1 (49152)
I0416 01:53:37.381443  3137 net.cpp:165] Memory required for data: 10172104740
I0416 01:53:37.381520  3137 layer_factory.hpp:77] Creating layer rpn_cls_score
I0416 01:53:37.381641  3137 net.cpp:100] Creating Layer rpn_cls_score
I0416 01:53:37.381729  3137 net.cpp:434] rpn_cls_score <- rpn/output_pool_rpn/output_pool_0_split_0
I0416 01:53:37.381829  3137 net.cpp:408] rpn_cls_score -> rpn_cls_score
I0416 01:53:37.383950  3137 net.cpp:150] Setting up rpn_cls_score
I0416 01:53:37.384721  3137 net.cpp:157] Top shape: 1 74 96 1 1 (7104)
I0416 01:53:37.384856  3137 net.cpp:165] Memory required for data: 10172133156
I0416 01:53:37.384949  3137 layer_factory.hpp:77] Creating layer rpn_cls_score_rpn_cls_score_0_split
I0416 01:53:37.385043  3137 net.cpp:100] Creating Layer rpn_cls_score_rpn_cls_score_0_split
I0416 01:53:37.385112  3137 net.cpp:434] rpn_cls_score_rpn_cls_score_0_split <- rpn_cls_score
I0416 01:53:37.385234  3137 net.cpp:408] rpn_cls_score_rpn_cls_score_0_split -> rpn_cls_score_rpn_cls_score_0_split_0
I0416 01:53:37.385331  3137 net.cpp:408] rpn_cls_score_rpn_cls_score_0_split -> rpn_cls_score_rpn_cls_score_0_split_1
I0416 01:53:37.385963  3137 net.cpp:150] Setting up rpn_cls_score_rpn_cls_score_0_split
I0416 01:53:37.386147  3137 net.cpp:157] Top shape: 1 74 96 1 1 (7104)
I0416 01:53:37.386229  3137 net.cpp:157] Top shape: 1 74 96 1 1 (7104)
I0416 01:53:37.386278  3137 net.cpp:165] Memory required for data: 10172189988
I0416 01:53:37.386334  3137 layer_factory.hpp:77] Creating layer rpn_twin_pred
I0416 01:53:37.386474  3137 net.cpp:100] Creating Layer rpn_twin_pred
I0416 01:53:37.386575  3137 net.cpp:434] rpn_twin_pred <- rpn/output_pool_rpn/output_pool_0_split_1
I0416 01:53:37.386643  3137 net.cpp:408] rpn_twin_pred -> rpn_twin_pred
I0416 01:53:37.388388  3137 net.cpp:150] Setting up rpn_twin_pred
I0416 01:53:37.388917  3137 net.cpp:157] Top shape: 1 74 96 1 1 (7104)
I0416 01:53:37.389029  3137 net.cpp:165] Memory required for data: 10172218404
I0416 01:53:37.389124  3137 layer_factory.hpp:77] Creating layer rpn_twin_pred_rpn_twin_pred_0_split
I0416 01:53:37.389231  3137 net.cpp:100] Creating Layer rpn_twin_pred_rpn_twin_pred_0_split
I0416 01:53:37.389302  3137 net.cpp:434] rpn_twin_pred_rpn_twin_pred_0_split <- rpn_twin_pred
I0416 01:53:37.389395  3137 net.cpp:408] rpn_twin_pred_rpn_twin_pred_0_split -> rpn_twin_pred_rpn_twin_pred_0_split_0
I0416 01:53:37.389487  3137 net.cpp:408] rpn_twin_pred_rpn_twin_pred_0_split -> rpn_twin_pred_rpn_twin_pred_0_split_1
I0416 01:53:37.390132  3137 net.cpp:150] Setting up rpn_twin_pred_rpn_twin_pred_0_split
I0416 01:53:37.390332  3137 net.cpp:157] Top shape: 1 74 96 1 1 (7104)
I0416 01:53:37.390437  3137 net.cpp:157] Top shape: 1 74 96 1 1 (7104)
I0416 01:53:37.390586  3137 net.cpp:165] Memory required for data: 10172275236
I0416 01:53:37.390734  3137 layer_factory.hpp:77] Creating layer rpn_cls_score_reshape
I0416 01:53:37.390974  3137 net.cpp:100] Creating Layer rpn_cls_score_reshape
I0416 01:53:37.391038  3137 net.cpp:434] rpn_cls_score_reshape <- rpn_cls_score_rpn_cls_score_0_split_0
I0416 01:53:37.391124  3137 net.cpp:408] rpn_cls_score_reshape -> rpn_cls_score_reshape
I0416 01:53:37.391469  3137 net.cpp:150] Setting up rpn_cls_score_reshape
I0416 01:53:37.391538  3137 net.cpp:157] Top shape: 1 2 3552 1 1 (7104)
I0416 01:53:37.391571  3137 net.cpp:165] Memory required for data: 10172303652
I0416 01:53:37.391595  3137 layer_factory.hpp:77] Creating layer rpn_cls_score_reshape_rpn_cls_score_reshape_0_split
I0416 01:53:37.391685  3137 net.cpp:100] Creating Layer rpn_cls_score_reshape_rpn_cls_score_reshape_0_split
I0416 01:53:37.391718  3137 net.cpp:434] rpn_cls_score_reshape_rpn_cls_score_reshape_0_split <- rpn_cls_score_reshape
I0416 01:53:37.391763  3137 net.cpp:408] rpn_cls_score_reshape_rpn_cls_score_reshape_0_split -> rpn_cls_score_reshape_rpn_cls_score_reshape_0_split_0
I0416 01:53:37.391839  3137 net.cpp:408] rpn_cls_score_reshape_rpn_cls_score_reshape_0_split -> rpn_cls_score_reshape_rpn_cls_score_reshape_0_split_1
I0416 01:53:37.391882  3137 net.cpp:408] rpn_cls_score_reshape_rpn_cls_score_reshape_0_split -> rpn_cls_score_reshape_rpn_cls_score_reshape_0_split_2
I0416 01:53:37.392254  3137 net.cpp:150] Setting up rpn_cls_score_reshape_rpn_cls_score_reshape_0_split
I0416 01:53:37.392359  3137 net.cpp:157] Top shape: 1 2 3552 1 1 (7104)
I0416 01:53:37.392405  3137 net.cpp:157] Top shape: 1 2 3552 1 1 (7104)
I0416 01:53:37.392452  3137 net.cpp:157] Top shape: 1 2 3552 1 1 (7104)
I0416 01:53:37.392493  3137 net.cpp:165] Memory required for data: 10172388900
I0416 01:53:37.392536  3137 layer_factory.hpp:77] Creating layer rpn-data
I0416 01:53:37.394417  3137 net.cpp:100] Creating Layer rpn-data
I0416 01:53:37.394809  3137 net.cpp:434] rpn-data <- rpn_cls_score_rpn_cls_score_0_split_1
I0416 01:53:37.394965  3137 net.cpp:434] rpn-data <- gt_boxes_data_1_split_0
I0416 01:53:37.395031  3137 net.cpp:434] rpn-data <- data_data_0_split_1
I0416 01:53:37.395120  3137 net.cpp:408] rpn-data -> rpn_labels
I0416 01:53:37.395216  3137 net.cpp:408] rpn-data -> rpn_twin_targets
I0416 01:53:37.395332  3137 net.cpp:408] rpn-data -> rpn_twin_inside_weights
I0416 01:53:37.395467  3137 net.cpp:408] rpn-data -> rpn_twin_outside_weights
I0416 01:53:37.403596  3137 net.cpp:150] Setting up rpn-data
I0416 01:53:37.403847  3137 net.cpp:157] Top shape: 1 1 3552 1 1 (3552)
I0416 01:53:37.403887  3137 net.cpp:157] Top shape: 1 74 96 1 1 (7104)
I0416 01:53:37.403910  3137 net.cpp:157] Top shape: 1 74 96 1 1 (7104)
I0416 01:53:37.403929  3137 net.cpp:157] Top shape: 1 74 96 1 1 (7104)
I0416 01:53:37.403941  3137 net.cpp:165] Memory required for data: 10172488356
I0416 01:53:37.403967  3137 layer_factory.hpp:77] Creating layer rpn_labels_rpn-data_0_split
I0416 01:53:37.404014  3137 net.cpp:100] Creating Layer rpn_labels_rpn-data_0_split
I0416 01:53:37.404045  3137 net.cpp:434] rpn_labels_rpn-data_0_split <- rpn_labels
I0416 01:53:37.404083  3137 net.cpp:408] rpn_labels_rpn-data_0_split -> rpn_labels_rpn-data_0_split_0
I0416 01:53:37.404134  3137 net.cpp:408] rpn_labels_rpn-data_0_split -> rpn_labels_rpn-data_0_split_1
I0416 01:53:37.404403  3137 net.cpp:150] Setting up rpn_labels_rpn-data_0_split
I0416 01:53:37.404449  3137 net.cpp:157] Top shape: 1 1 3552 1 1 (3552)
I0416 01:53:37.404474  3137 net.cpp:157] Top shape: 1 1 3552 1 1 (3552)
I0416 01:53:37.404495  3137 net.cpp:165] Memory required for data: 10172516772
I0416 01:53:37.404512  3137 layer_factory.hpp:77] Creating layer rpn_loss_cls
I0416 01:53:37.404547  3137 net.cpp:100] Creating Layer rpn_loss_cls
I0416 01:53:37.404577  3137 net.cpp:434] rpn_loss_cls <- rpn_cls_score_reshape_rpn_cls_score_reshape_0_split_0
I0416 01:53:37.404611  3137 net.cpp:434] rpn_loss_cls <- rpn_labels_rpn-data_0_split_0
…
I0416 01:53:37.405961  3137 layer_factory.hpp:77] Creating layer rpn_accuarcy
I0416 01:53:37.406002  3137 net.cpp:100] Creating Layer rpn_accuarcy
I0416 01:53:37.406028  3137 net.cpp:434] rpn_accuarcy <- rpn_cls_score_reshape_rpn_cls_score_reshape_0_split_1
I0416 01:53:37.406051  3137 net.cpp:434] rpn_accuarcy <- rpn_labels_rpn-data_0_split_1
I0416 01:53:37.406085  3137 net.cpp:408] rpn_accuarcy -> rpn_accuarcy
I0416 01:53:37.406117  3137 net.cpp:408] rpn_accuarcy -> rpn_accuarcy_class
I0416 01:53:37.406255  3137 net.cpp:150] Setting up rpn_accuarcy
I0416 01:53:37.406285  3137 net.cpp:157] Top shape: (1)
I0416 01:53:37.406303  3137 net.cpp:157] Top shape: 2 (2)
I0416 01:53:37.406328  3137 net.cpp:165] Memory required for data: 10172516792
I0416 01:53:37.406355  3137 layer_factory.hpp:77] Creating layer rpn_cls_prob
I0416 01:53:37.406404  3137 net.cpp:100] Creating Layer rpn_cls_prob
I0416 01:53:37.406435  3137 net.cpp:434] rpn_cls_prob <- rpn_cls_score_reshape_rpn_cls_score_reshape_0_split_2
I0416 01:53:37.406463  3137 net.cpp:408] rpn_cls_prob -> rpn_cls_prob
I0416 01:53:37.406673  3137 net.cpp:150] Setting up rpn_cls_prob
I0416 01:53:37.406718  3137 net.cpp:157] Top shape: 1 2 3552 1 1 (7104)
I0416 01:53:37.406749  3137 net.cpp:165] Memory required for data: 10172545208
I0416 01:53:37.406777  3137 layer_factory.hpp:77] Creating layer rpn_cls_prob_reshape
I0416 01:53:37.406821  3137 net.cpp:100] Creating Layer rpn_cls_prob_reshape
I0416 01:53:37.406852  3137 net.cpp:434] rpn_cls_prob_reshape <- rpn_cls_prob
I0416 01:53:37.406883  3137 net.cpp:408] rpn_cls_prob_reshape -> rpn_cls_prob_reshape
I0416 01:53:37.406989  3137 net.cpp:150] Setting up rpn_cls_prob_reshape
I0416 01:53:37.407030  3137 net.cpp:157] Top shape: 1 74 96 1 1 (7104)
I0416 01:53:37.407058  3137 net.cpp:165] Memory required for data: 10172573624
I0416 01:53:37.407085  3137 layer_factory.hpp:77] Creating layer proposal
I0416 01:53:37.410169  3137 net.cpp:100] Creating Layer proposal
I0416 01:53:37.410305  3137 net.cpp:434] proposal <- rpn_cls_prob_reshape
I0416 01:53:37.410336  3137 net.cpp:434] proposal <- rpn_twin_pred_rpn_twin_pred_0_split_1
I0416 01:53:37.410357  3137 net.cpp:408] proposal -> rpn_rois
I0416 01:53:37.419936  3137 net.cpp:150] Setting up proposal
I0416 01:53:37.419965  3137 net.cpp:157] Top shape: 1 3 (3)
I0416 01:53:37.419970  3137 net.cpp:165] Memory required for data: 10172573636
I0416 01:53:37.419977  3137 layer_factory.hpp:77] Creating layer roi-data
I0416 01:53:37.420181  3137 net.cpp:100] Creating Layer roi-data
I0416 01:53:37.420194  3137 net.cpp:434] roi-data <- rpn_rois
I0416 01:53:37.420203  3137 net.cpp:434] roi-data <- gt_boxes_data_1_split_1
I0416 01:53:37.420212  3137 net.cpp:408] roi-data -> rois
I0416 01:53:37.420224  3137 net.cpp:408] roi-data -> labels
I0416 01:53:37.420233  3137 net.cpp:408] roi-data -> twin_targets
I0416 01:53:37.420265  3137 net.cpp:408] roi-data -> twin_inside_weights
I0416 01:53:37.420286  3137 net.cpp:408] roi-data -> twin_outside_weights
I0416 01:53:37.420814  3137 net.cpp:150] Setting up roi-data
I0416 01:53:37.420830  3137 net.cpp:157] Top shape: 1 3 (3)
I0416 01:53:37.420835  3137 net.cpp:157] Top shape: 1 1 (1)
I0416 01:53:37.420840  3137 net.cpp:157] Top shape: 1 402 (402)
I0416 01:53:37.420862  3137 net.cpp:157] Top shape: 1 402 (402)
I0416 01:53:37.420877  3137 net.cpp:157] Top shape: 1 402 (402)
I0416 01:53:37.420889  3137 net.cpp:165] Memory required for data: 10172578476
I0416 01:53:37.420902  3137 layer_factory.hpp:77] Creating layer labels_roi-data_1_split
I0416 01:53:37.420919  3137 net.cpp:100] Creating Layer labels_roi-data_1_split
I0416 01:53:37.420941  3137 net.cpp:434] labels_roi-data_1_split <- labels
I0416 01:53:37.420951  3137 net.cpp:408] labels_roi-data_1_split -> labels_roi-data_1_split_0
I0416 01:53:37.420960  3137 net.cpp:408] labels_roi-data_1_split -> labels_roi-data_1_split_1
I0416 01:53:37.421018  3137 net.cpp:150] Setting up labels_roi-data_1_split
I0416 01:53:37.421027  3137 net.cpp:157] Top shape: 1 1 (1)
I0416 01:53:37.421033  3137 net.cpp:157] Top shape: 1 1 (1)
I0416 01:53:37.421037  3137 net.cpp:165] Memory required for data: 10172578484
I0416 01:53:37.421042  3137 layer_factory.hpp:77] Creating layer roi_pool5
I0416 01:53:37.421064  3137 net.cpp:100] Creating Layer roi_pool5
I0416 01:53:37.421079  3137 net.cpp:434] roi_pool5 <- conv5b_relu5b_0_split_1
I0416 01:53:37.421094  3137 net.cpp:434] roi_pool5 <- rois
I0416 01:53:37.421111  3137 net.cpp:408] roi_pool5 -> pool5
I0416 01:53:37.421129  3137 roi_pooling_layer.cpp:34] Temporal scale: 0.125
I0416 01:53:37.421144  3137 roi_pooling_layer.cpp:35] Spatial scale: 0.0625
I0416 01:53:37.421201  3137 net.cpp:150] Setting up roi_pool5
I0416 01:53:37.421211  3137 net.cpp:157] Top shape: 1 512 1 4 4 (8192)
I0416 01:53:37.421216  3137 net.cpp:165] Memory required for data: 10172611252
I0416 01:53:37.421219  3137 layer_factory.hpp:77] Creating layer fc6
I0416 01:53:37.421231  3137 net.cpp:100] Creating Layer fc6
I0416 01:53:37.421237  3137 net.cpp:434] fc6 <- pool5
I0416 01:53:37.421244  3137 net.cpp:408] fc6 -> fc6
I0416 01:53:37.784020  3137 net.cpp:150] Setting up fc6
I0416 01:53:37.784050  3137 net.cpp:157] Top shape: 1 4096 (4096)
I0416 01:53:37.784054  3137 net.cpp:165] Memory required for data: 10172627636
I0416 01:53:37.784075  3137 layer_factory.hpp:77] Creating layer relu6
I0416 01:53:37.784088  3137 net.cpp:100] Creating Layer relu6
I0416 01:53:37.784096  3137 net.cpp:434] relu6 <- fc6
I0416 01:53:37.784104  3137 net.cpp:395] relu6 -> fc6 (in-place)
I0416 01:53:37.784116  3137 net.cpp:150] Setting up relu6
I0416 01:53:37.784128  3137 net.cpp:157] Top shape: 1 4096 (4096)
I0416 01:53:37.784132  3137 net.cpp:165] Memory required for data: 10172644020
I0416 01:53:37.784137  3137 layer_factory.hpp:77] Creating layer drop6
I0416 01:53:37.784147  3137 net.cpp:100] Creating Layer drop6
I0416 01:53:37.784157  3137 net.cpp:434] drop6 <- fc6
I0416 01:53:37.784164  3137 net.cpp:395] drop6 -> fc6 (in-place)
I0416 01:53:37.784202  3137 net.cpp:150] Setting up drop6
I0416 01:53:37.784210  3137 net.cpp:157] Top shape: 1 4096 (4096)
I0416 01:53:37.784214  3137 net.cpp:165] Memory required for data: 10172660404
I0416 01:53:37.784219  3137 layer_factory.hpp:77] Creating layer fc6_drop6_0_split
I0416 01:53:37.784227  3137 net.cpp:100] Creating Layer fc6_drop6_0_split
I0416 01:53:37.784232  3137 net.cpp:434] fc6_drop6_0_split <- fc6
I0416 01:53:37.784242  3137 net.cpp:408] fc6_drop6_0_split -> fc6_drop6_0_split_0
I0416 01:53:37.784252  3137 net.cpp:408] fc6_drop6_0_split -> fc6_drop6_0_split_1
I0416 01:53:37.784308  3137 net.cpp:150] Setting up fc6_drop6_0_split
I0416 01:53:37.784315  3137 net.cpp:157] Top shape: 1 4096 (4096)
I0416 01:53:37.784320  3137 net.cpp:157] Top shape: 1 4096 (4096)
I0416 01:53:37.784355  3137 net.cpp:165] Memory required for data: 10172693172
I0416 01:53:37.784361  3137 layer_factory.hpp:77] Creating layer cls_score
I0416 01:53:37.784371  3137 net.cpp:100] Creating Layer cls_score
I0416 01:53:37.784376  3137 net.cpp:434] cls_score <- fc6_drop6_0_split_0
I0416 01:53:37.784385  3137 net.cpp:408] cls_score -> cls_score
I0416 01:53:37.796702  3137 net.cpp:150] Setting up cls_score
I0416 01:53:37.796850  3137 net.cpp:157] Top shape: 1 201 (201)
I0416 01:53:37.796872  3137 net.cpp:165] Memory required for data: 10172693976
I0416 01:53:37.796911  3137 layer_factory.hpp:77] Creating layer cls_score_cls_score_0_split
I0416 01:53:37.796960  3137 net.cpp:100] Creating Layer cls_score_cls_score_0_split
I0416 01:53:37.796980  3137 net.cpp:434] cls_score_cls_score_0_split <- cls_score
I0416 01:53:37.796993  3137 net.cpp:408] cls_score_cls_score_0_split -> cls_score_cls_score_0_split_0
I0416 01:53:37.797006  3137 net.cpp:408] cls_score_cls_score_0_split -> cls_score_cls_score_0_split_1
I0416 01:53:37.797106  3137 net.cpp:150] Setting up cls_score_cls_score_0_split
I0416 01:53:37.797116  3137 net.cpp:157] Top shape: 1 201 (201)
I0416 01:53:37.797122  3137 net.cpp:157] Top shape: 1 201 (201)
I0416 01:53:37.797125  3137 net.cpp:165] Memory required for data: 10172695584
I0416 01:53:37.797130  3137 layer_factory.hpp:77] Creating layer twin_pred
I0416 01:53:37.797142  3137 net.cpp:100] Creating Layer twin_pred
I0416 01:53:37.797163  3137 net.cpp:434] twin_pred <- fc6_drop6_0_split_1
I0416 01:53:37.797185  3137 net.cpp:408] twin_pred -> twin_pred
I0416 01:53:37.818586  3137 net.cpp:150] Setting up twin_pred
I0416 01:53:37.818614  3137 net.cpp:157] Top shape: 1 402 (402)
I0416 01:53:37.818616  3137 net.cpp:165] Memory required for data: 10172697192
I0416 01:53:37.818627  3137 layer_factory.hpp:77] Creating layer loss_cls
I0416 01:53:37.818641  3137 net.cpp:100] Creating Layer loss_cls
I0416 01:53:37.818650  3137 net.cpp:434] loss_cls <- cls_score_cls_score_0_split_0
I0416 01:53:37.818662  3137 net.cpp:434] loss_cls <- labels_roi-data_1_split_0
I0416 01:53:37.818672  3137 net.cpp:408] loss_cls -> loss_cls
…
