…
stepsize: 350000
snapshot: 0
snapshot_prefix: "./experiments/activitynet/snapshot/activitynet"
average_loss: 100
iter_size: 1
I0417 04:03:49.059146 25611 solver.cpp:81] Creating training net from train_net file: ./experiments/activitynet/train.prototxt
I0417 04:03:49.060248 25611 net.cpp:58] Initializing net from parameters: 
name: "activitynet"
state {
  phase: TRAIN
}
layer {
  name: "data"
  type: "Python"
  top: "data"
  top: "gt_boxes"
  python_param {
    module: "roi_data_layer.layer"
    layer: "RoIDataLayer"
    param_str: "\'num_classes\': 100"
  }
}
layer {
  name: "conv1a"
  type: "Convolution"
  bottom: "data"
  top: "conv1a"
  param {
    lr_mult: 0
    decay_mult: 0
  }
  param {
    lr_mult: 0
    decay_mult: 0
  }
  convolution_param {
    num_output: 64
    pad: 1
    pad: 1
    pad: 1
    kernel_size: 3
    kernel_size: 3
    kernel_size: 3
    weight_filler {
      type: "gaussian"
      std: 0.01
    }
    bias_filler {
      type: "constant"
      value: 0
    }
  }
}
layer {
  name: "relu1a"
  type: "ReLU"
  bottom: "conv1a"
  top: "conv1a"
}
layer {
  name: "pool1"
  type: "Pooling"
  bottom: "conv1a"
  top: "pool1"
  pooling_param {
    pool: MAX
    kernel_size: 1
    kernel_size: 2
    kernel_size: 2
    stride: 1
    stride: 2
    stride: 2
  }
}
layer {
  name: "conv2a"
  type: "Convolution"
  bottom: "pool1"
  top: "conv2a"
  param {
    lr_mult: 0
    decay_mult: 0
  }
  param {
    lr_mult: 0
    decay_mult: 0
  }
  convolution_param {
    num_output: 128
    pad: 1
    pad: 1
    pad: 1
    kernel_size: 3
    kernel_size: 3
    kernel_size: 3
    weight_filler {
      type: "gaussian"
      std: 0.01
    }
    bias_filler {
      type: "constant"
      value: 1
    }
  }
}
layer {
  name: "relu2a"
  type: "ReLU"
  bottom: "conv2a"
  top: "conv2a"
}
layer {
  name: "pool2"
  type: "Pooling"
  bottom: "conv2a"
  top: "pool2"
  pooling_param {
    pool: MAX
    kernel_size: 2
    kernel_size: 2
    kernel_size: 2
    stride: 2
    stride: 2
    stride: 2
  }
}
layer {
  name: "conv3a"
  type: "Convolution"
  bottom: "pool2"
  top: "conv3a"
  param {
    lr_mult: 1
    decay_mult: 1
  }
  param {
    lr_mult: 2
    decay_mult: 0
  }
  convolution_param {
    num_output: 256
    pad: 1
    pad: 1
    pad: 1
    kernel_size: 3
    kernel_size: 3
    kernel_size: 3
    weight_filler {
      type: "gaussian"
      std: 0.01
    }
    bias_filler {
      type: "constant"
      value: 1
    }
  }
}
layer {
  name: "relu3a"
  type: "ReLU"
  bottom: "conv3a"
  top: "conv3a"
}
layer {
  name: "conv3b"
  type: "Convolution"
  bottom: "conv3a"
  top: "conv3b"
  param {
    lr_mult: 1
    decay_mult: 1
  }
  param {
    lr_mult: 2
    decay_mult: 0
  }
  convolution_param {
    num_output: 256
    pad: 1
    pad: 1
    pad: 1
    kernel_size: 3
    kernel_size: 3
    kernel_size: 3
    weight_filler {
      type: "gaussian"
      std: 0.01
    }
    bias_filler {
      type: "constant"
      value: 1
    }
  }
}
layer {
  name: "relu3b"
  type: "ReLU"
  bottom: "conv3b"
  top: "conv3b"
}
layer {
  name: "pool3"
  type: "Pooling"
  bottom: "conv3b"
  top: "pool3"
  pooling_param {
    pool: MAX
    kernel_size: 2
    kernel_size: 2
    kernel_size: 2
    stride: 2
    stride: 2
    stride: 2
  }
}
layer {
  name: "conv4a"
  type: "Convolution"
  bottom: "pool3"
  top: "conv4a"
  param {
    lr_mult: 1
    decay_mult: 1
  }
  param {
    lr_mult: 2
    decay_mult: 0
  }
  convolution_param {
    num_output: 512
    pad: 1
    pad: 1
    pad: 1
    kernel_size: 3
    kernel_size: 3
    kernel_size: 3
    weight_filler {
      type: "gaussian"
      std: 0.01
    }
    bias_filler {
      type: "constant"
      value: 1
    }
  }
}
layer {
  name: "relu4a"
  type: "ReLU"
  bottom: "conv4a"
  top: "conv4a"
}
layer {
  name: "conv4b"
  type: "Convolution"
  bottom: "conv4a"
  top: "conv4b"
  param {
    lr_mult: 1
    decay_mult: 1
  }
  param {
    lr_mult: 2
    decay_mult: 0
  }
  convolution_param {
    num_output: 512
    pad: 1
    pad: 1
    pad: 1
    kernel_size: 3
    kernel_size: 3
    kernel_size: 3
    weight_filler {
      type: "gaussian"
      std: 0.01
    }
    bias_filler {
      type: "constant"
      value: 1
    }
  }
}
layer {
  name: "relu4b"
  type: "ReLU"
  bottom: "conv4b"
  top: "conv4b"
}
layer {
  name: "pool4"
  type: "Pooling"
  bottom: "conv4b"
  top: "pool4"
  pooling_param {
    pool: MAX
    kernel_size: 2
    kernel_size: 2
    kernel_size: 2
    stride: 2
    stride: 2
    stride: 2
  }
}
layer {
  name: "conv5a"
  type: "Convolution"
  bottom: "pool4"
  top: "conv5a"
  param {
    lr_mult: 1
    decay_mult: 1
  }
  param {
    lr_mult: 2
    decay_mult: 0
  }
  convolution_param {
    num_output: 512
    pad: 1
    pad: 1
    pad: 1
    kernel_size: 3
    kernel_size: 3
    kernel_size: 3
    weight_filler {
      type: "gaussian"
      std: 0.01
    }
    bias_filler {
      type: "constant"
      value: 1
    }
  }
}
layer {
  name: "relu5a"
  type: "ReLU"
  bottom: "conv5a"
  top: "conv5a"
}
layer {
  name: "conv5b"
  type: "Convolution"
  bottom: "conv5a"
  top: "conv5b"
  param {
    lr_mult: 1
    decay_mult: 1
  }
  param {
    lr_mult: 2
    decay_mult: 0
  }
  convolution_param {
    num_output: 512
    pad: 1
    pad: 1
    pad: 1
    kernel_size: 3
    kernel_size: 3
    kernel_size: 3
    weight_filler {
      type: "gaussian"
      std: 0.01
    }
    bias_filler {
      type: "constant"
      value: 1
    }
  }
}
layer {
  name: "relu5b"
  type: "ReLU"
  bottom: "conv5b"
  top: "conv5b"
}
layer {
  name: "rpn_conv/3x3"
  type: "Convolution"
  bottom: "conv5b"
  top: "rpn/output"
  param {
    lr_mult: 1
    decay_mult: 1
  }
  param {
    lr_mult: 2
    decay_mult: 0
  }
  convolution_param {
    num_output: 512
    pad: 1
    pad: 1
    pad: 1
    kernel_size: 3
    kernel_size: 3
    kernel_size: 3
    stride: 1
    stride: 2
    stride: 2
    weight_filler {
      type: "gaussian"
      std: 0.01
    }
    bias_filler {
      type: "constant"
      value: 0
    }
  }
}
layer {
  name: "rpn_relu/3x3"
  type: "ReLU"
  bottom: "rpn/output"
  top: "rpn/output"
}
layer {
  name: "rpn_conv/3x3_2"
  type: "Convolution"
  bottom: "rpn/output"
  top: "rpn/output_2"
  param {
    lr_mult: 1
    decay_mult: 1
  }
  param {
    lr_mult: 2
    decay_mult: 0
  }
  convolution_param {
    num_output: 512
    pad: 1
    pad: 1
    pad: 1
    kernel_size: 3
    kernel_size: 3
    kernel_size: 3
    stride: 1
    stride: 2
    stride: 2
    weight_filler {
      type: "gaussian"
      std: 0.01
    }
    bias_filler {
      type: "constant"
      value: 0
    }
  }
}
layer {
  name: "rpn_relu/3x3_2"
  type: "ReLU"
  bottom: "rpn/output_2"
  top: "rpn/output_2"
}
layer {
  name: "rpn/output_pool"
  type: "Pooling"
  bottom: "rpn/output_2"
  top: "rpn/output_pool"
  pooling_param {
    pool: MAX
    kernel_size: 1
    kernel_size: 2
    kernel_size: 2
  }
}
layer {
  name: "rpn_cls_score"
  type: "Convolution"
  bottom: "rpn/output_pool"
  top: "rpn_cls_score"
  param {
    lr_mult: 1
    decay_mult: 1
  }
  param {
    lr_mult: 2
    decay_mult: 0
  }
  convolution_param {
    num_output: 74
    kernel_size: 1
    kernel_size: 1
    kernel_size: 1
    weight_filler {
      type: "gaussian"
      std: 0.01
    }
    bias_filler {
      type: "constant"
      value: 0
    }
  }
}
layer {
  name: "rpn_twin_pred"
  type: "Convolution"
  bottom: "rpn/output_pool"
  top: "rpn_twin_pred"
  param {
    lr_mult: 1
    decay_mult: 1
  }
  param {
    lr_mult: 2
    decay_mult: 0
  }
  convolution_param {
    num_output: 74
    kernel_size: 1
    kernel_size: 1
    kernel_size: 1
    weight_filler {
      type: "gaussian"
      std: 0.01
    }
    bias_filler {
      type: "constant"
      value: 0
    }
  }
}
layer {
  name: "rpn_cls_score_reshape"
  type: "Reshape"
  bottom: "rpn_cls_score"
  top: "rpn_cls_score_reshape"
  reshape_param {
    shape {
      dim: 0
      dim: 2
      dim: -1
      dim: 0
      dim: 0
    }
  }
}
layer {
  name: "rpn-data"
  type: "Python"
  bottom: "rpn_cls_score"
  bottom: "gt_boxes"
  bottom: "data"
  top: "rpn_labels"
  top: "rpn_twin_targets"
  top: "rpn_twin_inside_weights"
  top: "rpn_twin_outside_weights"
  python_param {
    module: "rpn.anchor_target_layer"
    layer: "AnchorTargetLayer"
    param_str: "\'feat_stride\': 8 \n\'scales\': !!python/tuple [1,1.25, 1.5,1.75, 2,2.5, 3,3.5, 4,4.5, 5,5.5, 6,7, 8,9,10,11,12,14,16,18,20,22,24,28,32,36,40,44,52,60,68,76,84,92,100]"
  }
}
layer {
  name: "rpn_loss_cls"
  type: "SoftmaxWithLoss"
  bottom: "rpn_cls_score_reshape"
  bottom: "rpn_labels"
  top: "rpn_cls_loss"
  loss_weight: 1
  propagate_down: true
  propagate_down: false
  loss_param {
    ignore_label: -1
    normalize: true
  }
}
layer {
  name: "rpn_loss_twin"
  type: "SmoothL1Loss"
  bottom: "rpn_twin_pred"
  bottom: "rpn_twin_targets"
  bottom: "rpn_twin_inside_weights"
  bottom: "rpn_twin_outside_weights"
  top: "rpn_loss_twin"
  loss_weight: 1
  smooth_l1_loss_param {
    sigma: 3
  }
}
layer {
  name: "rpn_accuarcy"
  type: "Accuracy"
  bottom: "rpn_cls_score_reshape"
  bottom: "rpn_labels"
  top: "rpn_accuarcy"
  top: "rpn_accuarcy_class"
  propagate_down: false
  propagate_down: false
  accuracy_param {
    ignore_label: -1
  }
}
layer {
  name: "rpn_cls_prob"
  type: "Softmax"
  bottom: "rpn_cls_score_reshape"
  top: "rpn_cls_prob"
}
layer {
  name: "rpn_cls_prob_reshape"
  type: "Reshape"
  bottom: "rpn_cls_prob"
  top: "rpn_cls_prob_reshape"
  reshape_param {
    shape {
      dim: 0
      dim: 74
      dim: -1
      dim: 0
      dim: 0
    }
  }
}
layer {
  name: "proposal"
  type: "Python"
  bottom: "rpn_cls_prob_reshape"
  bottom: "rpn_twin_pred"
  top: "rpn_rois"
  include {
    phase: TRAIN
  }
  python_param {
    module: "rpn.proposal_layer"
    layer: "ProposalLayer"
    param_str: "\'feat_stride\': 8 \n\'scales\': !!python/tuple [1,1.25, 1.5,1.75, 2,2.5, 3,3.5, 4,4.5, 5,5.5, 6,7, 8,9,10,11,12,14,16,18,20,22,24,28,32,36,40,44,52,60,68,76,84,92,100]"
  }
}
layer {
  name: "roi-data"
  type: "Python"
  bottom: "rpn_rois"
  bottom: "gt_boxes"
  top: "rois"
  top: "labels"
  top: "twin_targets"
  top: "twin_inside_weights"
  top: "twin_outside_weights"
  python_param {
    module: "rpn.proposal_target_layer"
    layer: "ProposalTargetLayer"
    param_str: "\'num_classes\': 201"
  }
}
layer {
  name: "roi_pool5"
  type: "ROIPooling"
  bottom: "conv5b"
  bottom: "rois"
  top: "pool5"
  roi_pooling_param {
    pooled_h: 4
    pooled_w: 4
    spatial_scale: 0.0625
    pooled_l: 1
    temporal_scale: 0.125
  }
}
layer {
  name: "fc6"
  type: "InnerProduct"
  bottom: "pool5"
  top: "fc6"
  param {
    lr_mult: 1
    decay_mult: 1
  }
  param {
    lr_mult: 2
    decay_mult: 0
  }
  inner_product_param {
    num_output: 4096
    weight_filler {
      type: "gaussian"
      std: 0.005
    }
    bias_filler {
      type: "constant"
      value: 1
    }
  }
}
layer {
  name: "relu6"
  type: "ReLU"
  bottom: "fc6"
  top: "fc6"
}
layer {
  name: "drop6"
  type: "Dropout"
  bottom: "fc6"
  top: "fc6"
  dropout_param {
    dropout_ratio: 0.5
  }
}
layer {
  name: "cls_score"
  type: "InnerProduct"
  bottom: "fc6"
  top: "cls_score"
  param {
    lr_mult: 1
    decay_mult: 1
  }
  param {
    lr_mult: 2
    decay_mult: 0
  }
  inner_product_param {
    num_output: 201
    weight_filler {
      type: "gaussian"
      std: 0.01
    }
    bias_filler {
      type: "constant"
      value: 0
    }
  }
}
layer {
  name: "twin_pred"
  type: "InnerProduct"
  bottom: "fc6"
  top: "twin_pred"
  param {
    lr_mult: 1
    decay_mult: 1
  }
  param {
    lr_mult: 2
    decay_mult: 0
  }
  inner_product_param {
    num_output: 402
    weight_filler {
      type: "gaussian"
      std: 0.001
    }
    bias_filler {
      type: "constant"
      value: 0
    }
  }
}
layer {
  name: "loss_cls"
  type: "SoftmaxWithLoss"
  bottom: "cls_score"
  bottom: "labels"
  top: "loss_cls"
  loss_weight: 1
  propagate_down: true
  propagate_down: false
}
layer {
  name: "loss_twin"
  type: "SmoothL1Loss"
  bottom: "twin_pred"
  bottom: "twin_targets"
  bottom: "twin_inside_weights"
  bottom: "twin_outside_weights"
  top: "loss_twin"
  loss_weight: 1
}
layer {
  name: "accuarcy"
  type: "Accuracy"
  bottom: "cls_score"
  bottom: "labels"
  top: "accuarcy"
  propagate_down: false
  propagate_down: false
  accuracy_param {
    ignore_label: -1
  }
}
I0417 04:03:49.060581 25611 layer_factory.hpp:77] Creating layer data
I0417 04:03:49.087157 25611 net.cpp:100] Creating Layer data
I0417 04:03:49.087182 25611 net.cpp:408] data -> data
I0417 04:03:49.087206 25611 net.cpp:408] data -> gt_boxes
setting up
RoiDataLayer: name_to_top: {'gt_boxes': 1, 'data': 0}
I0417 04:03:49.101698 25611 net.cpp:150] Setting up data
I0417 04:03:49.101728 25611 net.cpp:157] Top shape: 1 3 768 112 112 (28901376)
I0417 04:03:49.101738 25611 net.cpp:157] Top shape: 1 101 (101)
I0417 04:03:49.101744 25611 net.cpp:165] Memory required for data: 115605908
I0417 04:03:49.101754 25611 layer_factory.hpp:77] Creating layer data_data_0_split
I0417 04:03:49.101771 25611 net.cpp:100] Creating Layer data_data_0_split
I0417 04:03:49.101778 25611 net.cpp:434] data_data_0_split <- data
I0417 04:03:49.101788 25611 net.cpp:408] data_data_0_split -> data_data_0_split_0
I0417 04:03:49.101804 25611 net.cpp:408] data_data_0_split -> data_data_0_split_1
I0417 04:03:49.101857 25611 net.cpp:150] Setting up data_data_0_split
I0417 04:03:49.101869 25611 net.cpp:157] Top shape: 1 3 768 112 112 (28901376)
I0417 04:03:49.101876 25611 net.cpp:157] Top shape: 1 3 768 112 112 (28901376)
I0417 04:03:49.101881 25611 net.cpp:165] Memory required for data: 346816916
I0417 04:03:49.101888 25611 layer_factory.hpp:77] Creating layer gt_boxes_data_1_split
I0417 04:03:49.101897 25611 net.cpp:100] Creating Layer gt_boxes_data_1_split
I0417 04:03:49.101903 25611 net.cpp:434] gt_boxes_data_1_split <- gt_boxes
I0417 04:03:49.101912 25611 net.cpp:408] gt_boxes_data_1_split -> gt_boxes_data_1_split_0
I0417 04:03:49.101922 25611 net.cpp:408] gt_boxes_data_1_split -> gt_boxes_data_1_split_1
I0417 04:03:49.101966 25611 net.cpp:150] Setting up gt_boxes_data_1_split
I0417 04:03:49.101976 25611 net.cpp:157] Top shape: 1 101 (101)
I0417 04:03:49.101984 25611 net.cpp:157] Top shape: 1 101 (101)
I0417 04:03:49.101989 25611 net.cpp:165] Memory required for data: 346817724
I0417 04:03:49.101994 25611 layer_factory.hpp:77] Creating layer conv1a
I0417 04:03:49.102013 25611 net.cpp:100] Creating Layer conv1a
I0417 04:03:49.102020 25611 net.cpp:434] conv1a <- data_data_0_split_0
I0417 04:03:49.102030 25611 net.cpp:408] conv1a -> conv1a
I0417 04:03:49.121551 25611 net.cpp:150] Setting up conv1a
I0417 04:03:49.121590 25611 net.cpp:157] Top shape: 1 64 768 112 112 (616562688)
I0417 04:03:49.121596 25611 net.cpp:165] Memory required for data: 2813068476
I0417 04:03:49.121623 25611 layer_factory.hpp:77] Creating layer relu1a
I0417 04:03:49.121644 25611 net.cpp:100] Creating Layer relu1a
I0417 04:03:49.121657 25611 net.cpp:434] relu1a <- conv1a
I0417 04:03:49.121667 25611 net.cpp:395] relu1a -> conv1a (in-place)
I0417 04:03:49.121685 25611 net.cpp:150] Setting up relu1a
I0417 04:03:49.121693 25611 net.cpp:157] Top shape: 1 64 768 112 112 (616562688)
I0417 04:03:49.121698 25611 net.cpp:165] Memory required for data: 5279319228
I0417 04:03:49.121704 25611 layer_factory.hpp:77] Creating layer pool1
I0417 04:03:49.121717 25611 net.cpp:100] Creating Layer pool1
I0417 04:03:49.121723 25611 net.cpp:434] pool1 <- conv1a
I0417 04:03:49.121732 25611 net.cpp:408] pool1 -> pool1
I0417 04:03:49.121839 25611 net.cpp:150] Setting up pool1
I0417 04:03:49.121850 25611 net.cpp:157] Top shape: 1 64 768 56 56 (154140672)
I0417 04:03:49.121855 25611 net.cpp:165] Memory required for data: 5895881916
I0417 04:03:49.121860 25611 layer_factory.hpp:77] Creating layer conv2a
I0417 04:03:49.121877 25611 net.cpp:100] Creating Layer conv2a
I0417 04:03:49.121883 25611 net.cpp:434] conv2a <- pool1
I0417 04:03:49.121894 25611 net.cpp:408] conv2a -> conv2a
I0417 04:03:49.132560 25611 net.cpp:150] Setting up conv2a
I0417 04:03:49.132585 25611 net.cpp:157] Top shape: 1 128 768 56 56 (308281344)
I0417 04:03:49.132589 25611 net.cpp:165] Memory required for data: 7129007292
I0417 04:03:49.132608 25611 layer_factory.hpp:77] Creating layer relu2a
I0417 04:03:49.132619 25611 net.cpp:100] Creating Layer relu2a
I0417 04:03:49.132627 25611 net.cpp:434] relu2a <- conv2a
I0417 04:03:49.132637 25611 net.cpp:395] relu2a -> conv2a (in-place)
I0417 04:03:49.132647 25611 net.cpp:150] Setting up relu2a
I0417 04:03:49.132658 25611 net.cpp:157] Top shape: 1 128 768 56 56 (308281344)
I0417 04:03:49.132663 25611 net.cpp:165] Memory required for data: 8362132668
I0417 04:03:49.132668 25611 layer_factory.hpp:77] Creating layer pool2
I0417 04:03:49.132679 25611 net.cpp:100] Creating Layer pool2
I0417 04:03:49.132689 25611 net.cpp:434] pool2 <- conv2a
I0417 04:03:49.132700 25611 net.cpp:408] pool2 -> pool2
I0417 04:03:49.132776 25611 net.cpp:150] Setting up pool2
I0417 04:03:49.132787 25611 net.cpp:157] Top shape: 1 128 384 28 28 (38535168)
I0417 04:03:49.132792 25611 net.cpp:165] Memory required for data: 8516273340
I0417 04:03:49.132798 25611 layer_factory.hpp:77] Creating layer conv3a
I0417 04:03:49.132813 25611 net.cpp:100] Creating Layer conv3a
I0417 04:03:49.132820 25611 net.cpp:434] conv3a <- pool2
I0417 04:03:49.132829 25611 net.cpp:408] conv3a -> conv3a
I0417 04:03:49.157982 25611 net.cpp:150] Setting up conv3a
I0417 04:03:49.157999 25611 net.cpp:157] Top shape: 1 256 384 28 28 (77070336)
I0417 04:03:49.158005 25611 net.cpp:165] Memory required for data: 8824554684
I0417 04:03:49.158021 25611 layer_factory.hpp:77] Creating layer relu3a
I0417 04:03:49.158031 25611 net.cpp:100] Creating Layer relu3a
I0417 04:03:49.158038 25611 net.cpp:434] relu3a <- conv3a
I0417 04:03:49.158046 25611 net.cpp:395] relu3a -> conv3a (in-place)
I0417 04:03:49.158061 25611 net.cpp:150] Setting up relu3a
I0417 04:03:49.158069 25611 net.cpp:157] Top shape: 1 256 384 28 28 (77070336)
I0417 04:03:49.158078 25611 net.cpp:165] Memory required for data: 9132836028
I0417 04:03:49.158084 25611 layer_factory.hpp:77] Creating layer conv3b
I0417 04:03:49.158099 25611 net.cpp:100] Creating Layer conv3b
I0417 04:03:49.158107 25611 net.cpp:434] conv3b <- conv3a
I0417 04:03:49.158118 25611 net.cpp:408] conv3b -> conv3b
I0417 04:03:49.207537 25611 net.cpp:150] Setting up conv3b
I0417 04:03:49.207564 25611 net.cpp:157] Top shape: 1 256 384 28 28 (77070336)
I0417 04:03:49.207571 25611 net.cpp:165] Memory required for data: 9441117372
I0417 04:03:49.207583 25611 layer_factory.hpp:77] Creating layer relu3b
I0417 04:03:49.207597 25611 net.cpp:100] Creating Layer relu3b
I0417 04:03:49.207603 25611 net.cpp:434] relu3b <- conv3b
I0417 04:03:49.207613 25611 net.cpp:395] relu3b -> conv3b (in-place)
I0417 04:03:49.207625 25611 net.cpp:150] Setting up relu3b
I0417 04:03:49.207635 25611 net.cpp:157] Top shape: 1 256 384 28 28 (77070336)
I0417 04:03:49.207640 25611 net.cpp:165] Memory required for data: 9749398716
I0417 04:03:49.207646 25611 layer_factory.hpp:77] Creating layer pool3
I0417 04:03:49.207659 25611 net.cpp:100] Creating Layer pool3
I0417 04:03:49.207669 25611 net.cpp:434] pool3 <- conv3b
I0417 04:03:49.207679 25611 net.cpp:408] pool3 -> pool3
I0417 04:03:49.207741 25611 net.cpp:150] Setting up pool3
I0417 04:03:49.207751 25611 net.cpp:157] Top shape: 1 256 192 14 14 (9633792)
I0417 04:03:49.207756 25611 net.cpp:165] Memory required for data: 9787933884
I0417 04:03:49.207762 25611 layer_factory.hpp:77] Creating layer conv4a
I0417 04:03:49.207780 25611 net.cpp:100] Creating Layer conv4a
I0417 04:03:49.207787 25611 net.cpp:434] conv4a <- pool3
I0417 04:03:49.207798 25611 net.cpp:408] conv4a -> conv4a
I0417 04:03:49.308097 25611 net.cpp:150] Setting up conv4a
I0417 04:03:49.308126 25611 net.cpp:157] Top shape: 1 512 192 14 14 (19267584)
I0417 04:03:49.308131 25611 net.cpp:165] Memory required for data: 9865004220
I0417 04:03:49.308149 25611 layer_factory.hpp:77] Creating layer relu4a
I0417 04:03:49.308166 25611 net.cpp:100] Creating Layer relu4a
I0417 04:03:49.308181 25611 net.cpp:434] relu4a <- conv4a
I0417 04:03:49.308192 25611 net.cpp:395] relu4a -> conv4a (in-place)
I0417 04:03:49.308205 25611 net.cpp:150] Setting up relu4a
I0417 04:03:49.308217 25611 net.cpp:157] Top shape: 1 512 192 14 14 (19267584)
I0417 04:03:49.308221 25611 net.cpp:165] Memory required for data: 9942074556
I0417 04:03:49.308226 25611 layer_factory.hpp:77] Creating layer conv4b
I0417 04:03:49.308246 25611 net.cpp:100] Creating Layer conv4b
I0417 04:03:49.308254 25611 net.cpp:434] conv4b <- conv4a
I0417 04:03:49.308265 25611 net.cpp:408] conv4b -> conv4b
I0417 04:03:49.503180 25611 net.cpp:150] Setting up conv4b
I0417 04:03:49.503204 25611 net.cpp:157] Top shape: 1 512 192 14 14 (19267584)
I0417 04:03:49.503211 25611 net.cpp:165] Memory required for data: 10019144892
I0417 04:03:49.503222 25611 layer_factory.hpp:77] Creating layer relu4b
I0417 04:03:49.503235 25611 net.cpp:100] Creating Layer relu4b
I0417 04:03:49.503242 25611 net.cpp:434] relu4b <- conv4b
I0417 04:03:49.503253 25611 net.cpp:395] relu4b -> conv4b (in-place)
I0417 04:03:49.503265 25611 net.cpp:150] Setting up relu4b
I0417 04:03:49.503275 25611 net.cpp:157] Top shape: 1 512 192 14 14 (19267584)
I0417 04:03:49.503280 25611 net.cpp:165] Memory required for data: 10096215228
I0417 04:03:49.503286 25611 layer_factory.hpp:77] Creating layer pool4
I0417 04:03:49.503299 25611 net.cpp:100] Creating Layer pool4
I0417 04:03:49.503305 25611 net.cpp:434] pool4 <- conv4b
I0417 04:03:49.503314 25611 net.cpp:408] pool4 -> pool4
I0417 04:03:49.503377 25611 net.cpp:150] Setting up pool4
I0417 04:03:49.503387 25611 net.cpp:157] Top shape: 1 512 96 7 7 (2408448)
I0417 04:03:49.503392 25611 net.cpp:165] Memory required for data: 10105849020
I0417 04:03:49.503398 25611 layer_factory.hpp:77] Creating layer conv5a
I0417 04:03:49.503414 25611 net.cpp:100] Creating Layer conv5a
I0417 04:03:49.503424 25611 net.cpp:434] conv5a <- pool4
I0417 04:03:49.503437 25611 net.cpp:408] conv5a -> conv5a
I0417 04:03:49.694353 25611 net.cpp:150] Setting up conv5a
I0417 04:03:49.694378 25611 net.cpp:157] Top shape: 1 512 96 7 7 (2408448)
I0417 04:03:49.694384 25611 net.cpp:165] Memory required for data: 10115482812
I0417 04:03:49.694406 25611 layer_factory.hpp:77] Creating layer relu5a
I0417 04:03:49.694420 25611 net.cpp:100] Creating Layer relu5a
I0417 04:03:49.694427 25611 net.cpp:434] relu5a <- conv5a
I0417 04:03:49.694437 25611 net.cpp:395] relu5a -> conv5a (in-place)
I0417 04:03:49.694453 25611 net.cpp:150] Setting up relu5a
I0417 04:03:49.694463 25611 net.cpp:157] Top shape: 1 512 96 7 7 (2408448)
I0417 04:03:49.694468 25611 net.cpp:165] Memory required for data: 10125116604
I0417 04:03:49.694474 25611 layer_factory.hpp:77] Creating layer conv5b
I0417 04:03:49.694491 25611 net.cpp:100] Creating Layer conv5b
I0417 04:03:49.694499 25611 net.cpp:434] conv5b <- conv5a
I0417 04:03:49.694509 25611 net.cpp:408] conv5b -> conv5b
I0417 04:03:49.883080 25611 net.cpp:150] Setting up conv5b
I0417 04:03:49.883106 25611 net.cpp:157] Top shape: 1 512 96 7 7 (2408448)
I0417 04:03:49.883112 25611 net.cpp:165] Memory required for data: 10134750396
I0417 04:03:49.883124 25611 layer_factory.hpp:77] Creating layer relu5b
I0417 04:03:49.883136 25611 net.cpp:100] Creating Layer relu5b
I0417 04:03:49.883143 25611 net.cpp:434] relu5b <- conv5b
I0417 04:03:49.883153 25611 net.cpp:395] relu5b -> conv5b (in-place)
I0417 04:03:49.883165 25611 net.cpp:150] Setting up relu5b
I0417 04:03:49.883174 25611 net.cpp:157] Top shape: 1 512 96 7 7 (2408448)
I0417 04:03:49.883179 25611 net.cpp:165] Memory required for data: 10144384188
I0417 04:03:49.883185 25611 layer_factory.hpp:77] Creating layer conv5b_relu5b_0_split
I0417 04:03:49.883193 25611 net.cpp:100] Creating Layer conv5b_relu5b_0_split
I0417 04:03:49.883199 25611 net.cpp:434] conv5b_relu5b_0_split <- conv5b
I0417 04:03:49.883208 25611 net.cpp:408] conv5b_relu5b_0_split -> conv5b_relu5b_0_split_0
I0417 04:03:49.883219 25611 net.cpp:408] conv5b_relu5b_0_split -> conv5b_relu5b_0_split_1
I0417 04:03:49.883277 25611 net.cpp:150] Setting up conv5b_relu5b_0_split
I0417 04:03:49.883288 25611 net.cpp:157] Top shape: 1 512 96 7 7 (2408448)
I0417 04:03:49.883296 25611 net.cpp:157] Top shape: 1 512 96 7 7 (2408448)
I0417 04:03:49.883301 25611 net.cpp:165] Memory required for data: 10163651772
I0417 04:03:49.883306 25611 layer_factory.hpp:77] Creating layer rpn_conv/3x3
I0417 04:03:49.883322 25611 net.cpp:100] Creating Layer rpn_conv/3x3
I0417 04:03:49.883330 25611 net.cpp:434] rpn_conv/3x3 <- conv5b_relu5b_0_split_0
I0417 04:03:49.883344 25611 net.cpp:408] rpn_conv/3x3 -> rpn/output
I0417 04:03:50.071499 25611 net.cpp:150] Setting up rpn_conv/3x3
I0417 04:03:50.071527 25611 net.cpp:157] Top shape: 1 512 96 4 4 (786432)
I0417 04:03:50.071532 25611 net.cpp:165] Memory required for data: 10166797500
I0417 04:03:50.071552 25611 layer_factory.hpp:77] Creating layer rpn_relu/3x3
I0417 04:03:50.071565 25611 net.cpp:100] Creating Layer rpn_relu/3x3
I0417 04:03:50.071573 25611 net.cpp:434] rpn_relu/3x3 <- rpn/output
I0417 04:03:50.071583 25611 net.cpp:395] rpn_relu/3x3 -> rpn/output (in-place)
I0417 04:03:50.071597 25611 net.cpp:150] Setting up rpn_relu/3x3
I0417 04:03:50.071607 25611 net.cpp:157] Top shape: 1 512 96 4 4 (786432)
I0417 04:03:50.071614 25611 net.cpp:165] Memory required for data: 10169943228
I0417 04:03:50.071619 25611 layer_factory.hpp:77] Creating layer rpn_conv/3x3_2
I0417 04:03:50.071636 25611 net.cpp:100] Creating Layer rpn_conv/3x3_2
I0417 04:03:50.071643 25611 net.cpp:434] rpn_conv/3x3_2 <- rpn/output
I0417 04:03:50.071655 25611 net.cpp:408] rpn_conv/3x3_2 -> rpn/output_2
I0417 04:03:50.259634 25611 net.cpp:150] Setting up rpn_conv/3x3_2
I0417 04:03:50.259661 25611 net.cpp:157] Top shape: 1 512 96 2 2 (196608)
I0417 04:03:50.259666 25611 net.cpp:165] Memory required for data: 10170729660
I0417 04:03:50.259678 25611 layer_factory.hpp:77] Creating layer rpn_relu/3x3_2
I0417 04:03:50.259693 25611 net.cpp:100] Creating Layer rpn_relu/3x3_2
I0417 04:03:50.259701 25611 net.cpp:434] rpn_relu/3x3_2 <- rpn/output_2
I0417 04:03:50.259709 25611 net.cpp:395] rpn_relu/3x3_2 -> rpn/output_2 (in-place)
I0417 04:03:50.259722 25611 net.cpp:150] Setting up rpn_relu/3x3_2
I0417 04:03:50.259732 25611 net.cpp:157] Top shape: 1 512 96 2 2 (196608)
I0417 04:03:50.259737 25611 net.cpp:165] Memory required for data: 10171516092
I0417 04:03:50.259742 25611 layer_factory.hpp:77] Creating layer rpn/output_pool
I0417 04:03:50.259755 25611 net.cpp:100] Creating Layer rpn/output_pool
I0417 04:03:50.259763 25611 net.cpp:434] rpn/output_pool <- rpn/output_2
I0417 04:03:50.259773 25611 net.cpp:408] rpn/output_pool -> rpn/output_pool
I0417 04:03:50.259829 25611 net.cpp:150] Setting up rpn/output_pool
I0417 04:03:50.259840 25611 net.cpp:157] Top shape: 1 512 96 1 1 (49152)
I0417 04:03:50.259845 25611 net.cpp:165] Memory required for data: 10171712700
I0417 04:03:50.259851 25611 layer_factory.hpp:77] Creating layer rpn/output_pool_rpn/output_pool_0_split
I0417 04:03:50.259861 25611 net.cpp:100] Creating Layer rpn/output_pool_rpn/output_pool_0_split
I0417 04:03:50.259867 25611 net.cpp:434] rpn/output_pool_rpn/output_pool_0_split <- rpn/output_pool
I0417 04:03:50.259876 25611 net.cpp:408] rpn/output_pool_rpn/output_pool_0_split -> rpn/output_pool_rpn/output_pool_0_split_0
I0417 04:03:50.259884 25611 net.cpp:408] rpn/output_pool_rpn/output_pool_0_split -> rpn/output_pool_rpn/output_pool_0_split_1
I0417 04:03:50.259933 25611 net.cpp:150] Setting up rpn/output_pool_rpn/output_pool_0_split
I0417 04:03:50.259943 25611 net.cpp:157] Top shape: 1 512 96 1 1 (49152)
I0417 04:03:50.259949 25611 net.cpp:157] Top shape: 1 512 96 1 1 (49152)
I0417 04:03:50.259955 25611 net.cpp:165] Memory required for data: 10172105916
I0417 04:03:50.259960 25611 layer_factory.hpp:77] Creating layer rpn_cls_score
I0417 04:03:50.259976 25611 net.cpp:100] Creating Layer rpn_cls_score
I0417 04:03:50.259982 25611 net.cpp:434] rpn_cls_score <- rpn/output_pool_rpn/output_pool_0_split_0
I0417 04:03:50.259992 25611 net.cpp:408] rpn_cls_score -> rpn_cls_score
I0417 04:03:50.261274 25611 net.cpp:150] Setting up rpn_cls_score
I0417 04:03:50.261286 25611 net.cpp:157] Top shape: 1 74 96 1 1 (7104)
I0417 04:03:50.261291 25611 net.cpp:165] Memory required for data: 10172134332
I0417 04:03:50.261301 25611 layer_factory.hpp:77] Creating layer rpn_cls_score_rpn_cls_score_0_split
I0417 04:03:50.261310 25611 net.cpp:100] Creating Layer rpn_cls_score_rpn_cls_score_0_split
I0417 04:03:50.261317 25611 net.cpp:434] rpn_cls_score_rpn_cls_score_0_split <- rpn_cls_score
I0417 04:03:50.261325 25611 net.cpp:408] rpn_cls_score_rpn_cls_score_0_split -> rpn_cls_score_rpn_cls_score_0_split_0
I0417 04:03:50.261337 25611 net.cpp:408] rpn_cls_score_rpn_cls_score_0_split -> rpn_cls_score_rpn_cls_score_0_split_1
I0417 04:03:50.261397 25611 net.cpp:150] Setting up rpn_cls_score_rpn_cls_score_0_split
I0417 04:03:50.261407 25611 net.cpp:157] Top shape: 1 74 96 1 1 (7104)
I0417 04:03:50.261413 25611 net.cpp:157] Top shape: 1 74 96 1 1 (7104)
I0417 04:03:50.261420 25611 net.cpp:165] Memory required for data: 10172191164
I0417 04:03:50.261425 25611 layer_factory.hpp:77] Creating layer rpn_twin_pred
I0417 04:03:50.261443 25611 net.cpp:100] Creating Layer rpn_twin_pred
I0417 04:03:50.261451 25611 net.cpp:434] rpn_twin_pred <- rpn/output_pool_rpn/output_pool_0_split_1
I0417 04:03:50.261461 25611 net.cpp:408] rpn_twin_pred -> rpn_twin_pred
I0417 04:03:50.262711 25611 net.cpp:150] Setting up rpn_twin_pred
I0417 04:03:50.262722 25611 net.cpp:157] Top shape: 1 74 96 1 1 (7104)
I0417 04:03:50.262727 25611 net.cpp:165] Memory required for data: 10172219580
I0417 04:03:50.262735 25611 layer_factory.hpp:77] Creating layer rpn_twin_pred_rpn_twin_pred_0_split
I0417 04:03:50.262747 25611 net.cpp:100] Creating Layer rpn_twin_pred_rpn_twin_pred_0_split
I0417 04:03:50.262753 25611 net.cpp:434] rpn_twin_pred_rpn_twin_pred_0_split <- rpn_twin_pred
I0417 04:03:50.262789 25611 net.cpp:408] rpn_twin_pred_rpn_twin_pred_0_split -> rpn_twin_pred_rpn_twin_pred_0_split_0
I0417 04:03:50.262804 25611 net.cpp:408] rpn_twin_pred_rpn_twin_pred_0_split -> rpn_twin_pred_rpn_twin_pred_0_split_1
I0417 04:03:50.262861 25611 net.cpp:150] Setting up rpn_twin_pred_rpn_twin_pred_0_split
I0417 04:03:50.262871 25611 net.cpp:157] Top shape: 1 74 96 1 1 (7104)
I0417 04:03:50.262877 25611 net.cpp:157] Top shape: 1 74 96 1 1 (7104)
I0417 04:03:50.262882 25611 net.cpp:165] Memory required for data: 10172276412
I0417 04:03:50.262888 25611 layer_factory.hpp:77] Creating layer rpn_cls_score_reshape
I0417 04:03:50.262902 25611 net.cpp:100] Creating Layer rpn_cls_score_reshape
I0417 04:03:50.262910 25611 net.cpp:434] rpn_cls_score_reshape <- rpn_cls_score_rpn_cls_score_0_split_0
I0417 04:03:50.262923 25611 net.cpp:408] rpn_cls_score_reshape -> rpn_cls_score_reshape
I0417 04:03:50.262965 25611 net.cpp:150] Setting up rpn_cls_score_reshape
I0417 04:03:50.262976 25611 net.cpp:157] Top shape: 1 2 3552 1 1 (7104)
I0417 04:03:50.262981 25611 net.cpp:165] Memory required for data: 10172304828
I0417 04:03:50.262987 25611 layer_factory.hpp:77] Creating layer rpn_cls_score_reshape_rpn_cls_score_reshape_0_split
I0417 04:03:50.262997 25611 net.cpp:100] Creating Layer rpn_cls_score_reshape_rpn_cls_score_reshape_0_split
I0417 04:03:50.263005 25611 net.cpp:434] rpn_cls_score_reshape_rpn_cls_score_reshape_0_split <- rpn_cls_score_reshape
I0417 04:03:50.263012 25611 net.cpp:408] rpn_cls_score_reshape_rpn_cls_score_reshape_0_split -> rpn_cls_score_reshape_rpn_cls_score_reshape_0_split_0
I0417 04:03:50.263026 25611 net.cpp:408] rpn_cls_score_reshape_rpn_cls_score_reshape_0_split -> rpn_cls_score_reshape_rpn_cls_score_reshape_0_split_1
I0417 04:03:50.263037 25611 net.cpp:408] rpn_cls_score_reshape_rpn_cls_score_reshape_0_split -> rpn_cls_score_reshape_rpn_cls_score_reshape_0_split_2
I0417 04:03:50.263101 25611 net.cpp:150] Setting up rpn_cls_score_reshape_rpn_cls_score_reshape_0_split
I0417 04:03:50.263113 25611 net.cpp:157] Top shape: 1 2 3552 1 1 (7104)
I0417 04:03:50.263118 25611 net.cpp:157] Top shape: 1 2 3552 1 1 (7104)
I0417 04:03:50.263124 25611 net.cpp:157] Top shape: 1 2 3552 1 1 (7104)
I0417 04:03:50.263129 25611 net.cpp:165] Memory required for data: 10172390076
I0417 04:03:50.263135 25611 layer_factory.hpp:77] Creating layer rpn-data
I0417 04:03:50.263537 25611 net.cpp:100] Creating Layer rpn-data
I0417 04:03:50.263551 25611 net.cpp:434] rpn-data <- rpn_cls_score_rpn_cls_score_0_split_1
I0417 04:03:50.263559 25611 net.cpp:434] rpn-data <- gt_boxes_data_1_split_0
I0417 04:03:50.263567 25611 net.cpp:434] rpn-data <- data_data_0_split_1
I0417 04:03:50.263577 25611 net.cpp:408] rpn-data -> rpn_labels
I0417 04:03:50.263588 25611 net.cpp:408] rpn-data -> rpn_twin_targets
I0417 04:03:50.263599 25611 net.cpp:408] rpn-data -> rpn_twin_inside_weights
I0417 04:03:50.263612 25611 net.cpp:408] rpn-data -> rpn_twin_outside_weights
I0417 04:03:50.265908 25611 net.cpp:150] Setting up rpn-data
I0417 04:03:50.265925 25611 net.cpp:157] Top shape: 1 1 3552 1 1 (3552)
I0417 04:03:50.265933 25611 net.cpp:157] Top shape: 1 74 96 1 1 (7104)
I0417 04:03:50.265939 25611 net.cpp:157] Top shape: 1 74 96 1 1 (7104)
I0417 04:03:50.265946 25611 net.cpp:157] Top shape: 1 74 96 1 1 (7104)
I0417 04:03:50.265951 25611 net.cpp:165] Memory required for data: 10172489532
I0417 04:03:50.265959 25611 layer_factory.hpp:77] Creating layer rpn_labels_rpn-data_0_split
I0417 04:03:50.265967 25611 net.cpp:100] Creating Layer rpn_labels_rpn-data_0_split
I0417 04:03:50.265974 25611 net.cpp:434] rpn_labels_rpn-data_0_split <- rpn_labels
I0417 04:03:50.265983 25611 net.cpp:408] rpn_labels_rpn-data_0_split -> rpn_labels_rpn-data_0_split_0
I0417 04:03:50.265995 25611 net.cpp:408] rpn_labels_rpn-data_0_split -> rpn_labels_rpn-data_0_split_1
I0417 04:03:50.266043 25611 net.cpp:150] Setting up rpn_labels_rpn-data_0_split
I0417 04:03:50.266053 25611 net.cpp:157] Top shape: 1 1 3552 1 1 (3552)
I0417 04:03:50.266060 25611 net.cpp:157] Top shape: 1 1 3552 1 1 (3552)
I0417 04:03:50.266065 25611 net.cpp:165] Memory required for data: 10172517948
I0417 04:03:50.266072 25611 layer_factory.hpp:77] Creating layer rpn_loss_cls
I0417 04:03:50.266083 25611 net.cpp:100] Creating Layer rpn_loss_cls
I0417 04:03:50.266093 25611 net.cpp:434] rpn_loss_cls <- rpn_cls_score_reshape_rpn_cls_score_reshape_0_split_0
I0417 04:03:50.266100 25611 net.cpp:434] rpn_loss_cls <- rpn_labels_rpn-data_0_split_0
…
I0417 04:03:50.266480 25611 layer_factory.hpp:77] Creating layer rpn_accuarcy
I0417 04:03:50.266495 25611 net.cpp:100] Creating Layer rpn_accuarcy
I0417 04:03:50.266504 25611 net.cpp:434] rpn_accuarcy <- rpn_cls_score_reshape_rpn_cls_score_reshape_0_split_1
I0417 04:03:50.266510 25611 net.cpp:434] rpn_accuarcy <- rpn_labels_rpn-data_0_split_1
I0417 04:03:50.266520 25611 net.cpp:408] rpn_accuarcy -> rpn_accuarcy
I0417 04:03:50.266528 25611 net.cpp:408] rpn_accuarcy -> rpn_accuarcy_class
I0417 04:03:50.266584 25611 net.cpp:150] Setting up rpn_accuarcy
I0417 04:03:50.266594 25611 net.cpp:157] Top shape: (1)
I0417 04:03:50.266600 25611 net.cpp:157] Top shape: 2 (2)
I0417 04:03:50.266605 25611 net.cpp:165] Memory required for data: 10172517968
I0417 04:03:50.266610 25611 layer_factory.hpp:77] Creating layer rpn_cls_prob
I0417 04:03:50.266620 25611 net.cpp:100] Creating Layer rpn_cls_prob
I0417 04:03:50.266626 25611 net.cpp:434] rpn_cls_prob <- rpn_cls_score_reshape_rpn_cls_score_reshape_0_split_2
I0417 04:03:50.266634 25611 net.cpp:408] rpn_cls_prob -> rpn_cls_prob
I0417 04:03:50.266711 25611 net.cpp:150] Setting up rpn_cls_prob
I0417 04:03:50.266721 25611 net.cpp:157] Top shape: 1 2 3552 1 1 (7104)
I0417 04:03:50.266726 25611 net.cpp:165] Memory required for data: 10172546384
I0417 04:03:50.266732 25611 layer_factory.hpp:77] Creating layer rpn_cls_prob_reshape
I0417 04:03:50.266741 25611 net.cpp:100] Creating Layer rpn_cls_prob_reshape
I0417 04:03:50.266749 25611 net.cpp:434] rpn_cls_prob_reshape <- rpn_cls_prob
I0417 04:03:50.266758 25611 net.cpp:408] rpn_cls_prob_reshape -> rpn_cls_prob_reshape
I0417 04:03:50.266821 25611 net.cpp:150] Setting up rpn_cls_prob_reshape
I0417 04:03:50.266831 25611 net.cpp:157] Top shape: 1 74 96 1 1 (7104)
I0417 04:03:50.266836 25611 net.cpp:165] Memory required for data: 10172574800
I0417 04:03:50.266842 25611 layer_factory.hpp:77] Creating layer proposal
I0417 04:03:50.267386 25611 net.cpp:100] Creating Layer proposal
I0417 04:03:50.267400 25611 net.cpp:434] proposal <- rpn_cls_prob_reshape
I0417 04:03:50.267407 25611 net.cpp:434] proposal <- rpn_twin_pred_rpn_twin_pred_0_split_1
I0417 04:03:50.267417 25611 net.cpp:408] proposal -> rpn_rois
I0417 04:03:50.269644 25611 net.cpp:150] Setting up proposal
I0417 04:03:50.269659 25611 net.cpp:157] Top shape: 1 3 (3)
I0417 04:03:50.269664 25611 net.cpp:165] Memory required for data: 10172574812
I0417 04:03:50.269670 25611 layer_factory.hpp:77] Creating layer roi-data
I0417 04:03:50.269805 25611 net.cpp:100] Creating Layer roi-data
I0417 04:03:50.269817 25611 net.cpp:434] roi-data <- rpn_rois
I0417 04:03:50.269825 25611 net.cpp:434] roi-data <- gt_boxes_data_1_split_1
I0417 04:03:50.269835 25611 net.cpp:408] roi-data -> rois
I0417 04:03:50.269847 25611 net.cpp:408] roi-data -> labels
I0417 04:03:50.269857 25611 net.cpp:408] roi-data -> twin_targets
I0417 04:03:50.269868 25611 net.cpp:408] roi-data -> twin_inside_weights
I0417 04:03:50.269879 25611 net.cpp:408] roi-data -> twin_outside_weights
I0417 04:03:50.270211 25611 net.cpp:150] Setting up roi-data
I0417 04:03:50.270226 25611 net.cpp:157] Top shape: 1 3 (3)
I0417 04:03:50.270232 25611 net.cpp:157] Top shape: 1 1 (1)
I0417 04:03:50.270239 25611 net.cpp:157] Top shape: 1 402 (402)
I0417 04:03:50.270246 25611 net.cpp:157] Top shape: 1 402 (402)
I0417 04:03:50.270251 25611 net.cpp:157] Top shape: 1 402 (402)
I0417 04:03:50.270256 25611 net.cpp:165] Memory required for data: 10172579652
I0417 04:03:50.270262 25611 layer_factory.hpp:77] Creating layer labels_roi-data_1_split
I0417 04:03:50.270272 25611 net.cpp:100] Creating Layer labels_roi-data_1_split
I0417 04:03:50.270277 25611 net.cpp:434] labels_roi-data_1_split <- labels
I0417 04:03:50.270289 25611 net.cpp:408] labels_roi-data_1_split -> labels_roi-data_1_split_0
I0417 04:03:50.270303 25611 net.cpp:408] labels_roi-data_1_split -> labels_roi-data_1_split_1
I0417 04:03:50.270354 25611 net.cpp:150] Setting up labels_roi-data_1_split
I0417 04:03:50.270364 25611 net.cpp:157] Top shape: 1 1 (1)
I0417 04:03:50.270370 25611 net.cpp:157] Top shape: 1 1 (1)
I0417 04:03:50.270375 25611 net.cpp:165] Memory required for data: 10172579660
I0417 04:03:50.270380 25611 layer_factory.hpp:77] Creating layer roi_pool5
I0417 04:03:50.270392 25611 net.cpp:100] Creating Layer roi_pool5
I0417 04:03:50.270400 25611 net.cpp:434] roi_pool5 <- conv5b_relu5b_0_split_1
I0417 04:03:50.270406 25611 net.cpp:434] roi_pool5 <- rois
I0417 04:03:50.270414 25611 net.cpp:408] roi_pool5 -> pool5
I0417 04:03:50.270426 25611 roi_pooling_layer.cpp:34] Temporal scale: 0.125
I0417 04:03:50.270437 25611 roi_pooling_layer.cpp:35] Spatial scale: 0.0625
I0417 04:03:50.270489 25611 net.cpp:150] Setting up roi_pool5
I0417 04:03:50.270499 25611 net.cpp:157] Top shape: 1 512 1 4 4 (8192)
I0417 04:03:50.270504 25611 net.cpp:165] Memory required for data: 10172612428
I0417 04:03:50.270510 25611 layer_factory.hpp:77] Creating layer fc6
I0417 04:03:50.270524 25611 net.cpp:100] Creating Layer fc6
I0417 04:03:50.270529 25611 net.cpp:434] fc6 <- pool5
I0417 04:03:50.270540 25611 net.cpp:408] fc6 -> fc6
I0417 04:03:51.197482 25611 net.cpp:150] Setting up fc6
I0417 04:03:51.197508 25611 net.cpp:157] Top shape: 1 4096 (4096)
I0417 04:03:51.197515 25611 net.cpp:165] Memory required for data: 10172628812
I0417 04:03:51.197527 25611 layer_factory.hpp:77] Creating layer relu6
I0417 04:03:51.197541 25611 net.cpp:100] Creating Layer relu6
I0417 04:03:51.197549 25611 net.cpp:434] relu6 <- fc6
I0417 04:03:51.197559 25611 net.cpp:395] relu6 -> fc6 (in-place)
I0417 04:03:51.197576 25611 net.cpp:150] Setting up relu6
I0417 04:03:51.197585 25611 net.cpp:157] Top shape: 1 4096 (4096)
I0417 04:03:51.197590 25611 net.cpp:165] Memory required for data: 10172645196
I0417 04:03:51.197597 25611 layer_factory.hpp:77] Creating layer drop6
I0417 04:03:51.197610 25611 net.cpp:100] Creating Layer drop6
I0417 04:03:51.197618 25611 net.cpp:434] drop6 <- fc6
I0417 04:03:51.197628 25611 net.cpp:395] drop6 -> fc6 (in-place)
I0417 04:03:51.197664 25611 net.cpp:150] Setting up drop6
I0417 04:03:51.197674 25611 net.cpp:157] Top shape: 1 4096 (4096)
I0417 04:03:51.197679 25611 net.cpp:165] Memory required for data: 10172661580
I0417 04:03:51.197685 25611 layer_factory.hpp:77] Creating layer fc6_drop6_0_split
I0417 04:03:51.197692 25611 net.cpp:100] Creating Layer fc6_drop6_0_split
I0417 04:03:51.197698 25611 net.cpp:434] fc6_drop6_0_split <- fc6
I0417 04:03:51.197710 25611 net.cpp:408] fc6_drop6_0_split -> fc6_drop6_0_split_0
I0417 04:03:51.197719 25611 net.cpp:408] fc6_drop6_0_split -> fc6_drop6_0_split_1
I0417 04:03:51.197774 25611 net.cpp:150] Setting up fc6_drop6_0_split
I0417 04:03:51.197784 25611 net.cpp:157] Top shape: 1 4096 (4096)
I0417 04:03:51.197790 25611 net.cpp:157] Top shape: 1 4096 (4096)
I0417 04:03:51.197795 25611 net.cpp:165] Memory required for data: 10172694348
I0417 04:03:51.197801 25611 layer_factory.hpp:77] Creating layer cls_score
I0417 04:03:51.197813 25611 net.cpp:100] Creating Layer cls_score
I0417 04:03:51.197819 25611 net.cpp:434] cls_score <- fc6_drop6_0_split_0
I0417 04:03:51.197832 25611 net.cpp:408] cls_score -> cls_score
I0417 04:03:51.220968 25611 net.cpp:150] Setting up cls_score
I0417 04:03:51.220993 25611 net.cpp:157] Top shape: 1 201 (201)
I0417 04:03:51.220999 25611 net.cpp:165] Memory required for data: 10172695152
I0417 04:03:51.221011 25611 layer_factory.hpp:77] Creating layer cls_score_cls_score_0_split
I0417 04:03:51.221022 25611 net.cpp:100] Creating Layer cls_score_cls_score_0_split
I0417 04:03:51.221030 25611 net.cpp:434] cls_score_cls_score_0_split <- cls_score
I0417 04:03:51.221043 25611 net.cpp:408] cls_score_cls_score_0_split -> cls_score_cls_score_0_split_0
I0417 04:03:51.221058 25611 net.cpp:408] cls_score_cls_score_0_split -> cls_score_cls_score_0_split_1
I0417 04:03:51.221114 25611 net.cpp:150] Setting up cls_score_cls_score_0_split
I0417 04:03:51.221124 25611 net.cpp:157] Top shape: 1 201 (201)
I0417 04:03:51.221132 25611 net.cpp:157] Top shape: 1 201 (201)
I0417 04:03:51.221137 25611 net.cpp:165] Memory required for data: 10172696760
I0417 04:03:51.221143 25611 layer_factory.hpp:77] Creating layer twin_pred
I0417 04:03:51.221155 25611 net.cpp:100] Creating Layer twin_pred
I0417 04:03:51.221165 25611 net.cpp:434] twin_pred <- fc6_drop6_0_split_1
I0417 04:03:51.221175 25611 net.cpp:408] twin_pred -> twin_pred
I0417 04:03:51.266743 25611 net.cpp:150] Setting up twin_pred
I0417 04:03:51.266800 25611 net.cpp:157] Top shape: 1 402 (402)
I0417 04:03:51.266808 25611 net.cpp:165] Memory required for data: 10172698368
I0417 04:03:51.266820 25611 layer_factory.hpp:77] Creating layer loss_cls
I0417 04:03:51.266836 25611 net.cpp:100] Creating Layer loss_cls
I0417 04:03:51.266844 25611 net.cpp:434] loss_cls <- cls_score_cls_score_0_split_0
I0417 04:03:51.266855 25611 net.cpp:434] loss_cls <- labels_roi-data_1_split_0
I0417 04:03:51.266863 25611 net.cpp:408] loss_cls -> loss_cls
…
