…
stepsize: 350000
snapshot: 0
snapshot_prefix: "./experiments/activitynet/snapshot/activitynet"
average_loss: 100
iter_size: 1
I0416 01:51:24.509994 32523 solver.cpp:81] Creating training net from train_net file: ./experiments/activitynet/train.prototxt
I0416 01:51:24.510537 32523 net.cpp:58] Initializing net from parameters: 
name: "activitynet"
state {
  phase: TRAIN
}
layer {
  name: "data"
  type: "Python"
  top: "data"
  top: "gt_boxes"
  python_param {
    module: "roi_data_layer.layer"
    layer: "RoIDataLayer"
    param_str: "\'num_classes\': 100"
  }
}
layer {
  name: "conv1a"
  type: "Convolution"
  bottom: "data"
  top: "conv1a"
  param {
    lr_mult: 0
    decay_mult: 0
  }
  param {
    lr_mult: 0
    decay_mult: 0
  }
  convolution_param {
    num_output: 64
    pad: 1
    pad: 1
    pad: 1
    kernel_size: 3
    kernel_size: 3
    kernel_size: 3
    weight_filler {
      type: "gaussian"
      std: 0.01
    }
    bias_filler {
      type: "constant"
      value: 0
    }
  }
}
layer {
  name: "relu1a"
  type: "ReLU"
  bottom: "conv1a"
  top: "conv1a"
}
layer {
  name: "pool1"
  type: "Pooling"
  bottom: "conv1a"
  top: "pool1"
  pooling_param {
    pool: MAX
    kernel_size: 1
    kernel_size: 2
    kernel_size: 2
    stride: 1
    stride: 2
    stride: 2
  }
}
layer {
  name: "conv2a"
  type: "Convolution"
  bottom: "pool1"
  top: "conv2a"
  param {
    lr_mult: 0
    decay_mult: 0
  }
  param {
    lr_mult: 0
    decay_mult: 0
  }
  convolution_param {
    num_output: 128
    pad: 1
    pad: 1
    pad: 1
    kernel_size: 3
    kernel_size: 3
    kernel_size: 3
    weight_filler {
      type: "gaussian"
      std: 0.01
    }
    bias_filler {
      type: "constant"
      value: 1
    }
  }
}
layer {
  name: "relu2a"
  type: "ReLU"
  bottom: "conv2a"
  top: "conv2a"
}
layer {
  name: "pool2"
  type: "Pooling"
  bottom: "conv2a"
  top: "pool2"
  pooling_param {
    pool: MAX
    kernel_size: 2
    kernel_size: 2
    kernel_size: 2
    stride: 2
    stride: 2
    stride: 2
  }
}
layer {
  name: "conv3a"
  type: "Convolution"
  bottom: "pool2"
  top: "conv3a"
  param {
    lr_mult: 1
    decay_mult: 1
  }
  param {
    lr_mult: 2
    decay_mult: 0
  }
  convolution_param {
    num_output: 256
    pad: 1
    pad: 1
    pad: 1
    kernel_size: 3
    kernel_size: 3
    kernel_size: 3
    weight_filler {
      type: "gaussian"
      std: 0.01
    }
    bias_filler {
      type: "constant"
      value: 1
    }
  }
}
layer {
  name: "relu3a"
  type: "ReLU"
  bottom: "conv3a"
  top: "conv3a"
}
layer {
  name: "conv3b"
  type: "Convolution"
  bottom: "conv3a"
  top: "conv3b"
  param {
    lr_mult: 1
    decay_mult: 1
  }
  param {
    lr_mult: 2
    decay_mult: 0
  }
  convolution_param {
    num_output: 256
    pad: 1
    pad: 1
    pad: 1
    kernel_size: 3
    kernel_size: 3
    kernel_size: 3
    weight_filler {
      type: "gaussian"
      std: 0.01
    }
    bias_filler {
      type: "constant"
      value: 1
    }
  }
}
layer {
  name: "relu3b"
  type: "ReLU"
  bottom: "conv3b"
  top: "conv3b"
}
layer {
  name: "pool3"
  type: "Pooling"
  bottom: "conv3b"
  top: "pool3"
  pooling_param {
    pool: MAX
    kernel_size: 2
    kernel_size: 2
    kernel_size: 2
    stride: 2
    stride: 2
    stride: 2
  }
}
layer {
  name: "conv4a"
  type: "Convolution"
  bottom: "pool3"
  top: "conv4a"
  param {
    lr_mult: 1
    decay_mult: 1
  }
  param {
    lr_mult: 2
    decay_mult: 0
  }
  convolution_param {
    num_output: 512
    pad: 1
    pad: 1
    pad: 1
    kernel_size: 3
    kernel_size: 3
    kernel_size: 3
    weight_filler {
      type: "gaussian"
      std: 0.01
    }
    bias_filler {
      type: "constant"
      value: 1
    }
  }
}
layer {
  name: "relu4a"
  type: "ReLU"
  bottom: "conv4a"
  top: "conv4a"
}
layer {
  name: "conv4b"
  type: "Convolution"
  bottom: "conv4a"
  top: "conv4b"
  param {
    lr_mult: 1
    decay_mult: 1
  }
  param {
    lr_mult: 2
    decay_mult: 0
  }
  convolution_param {
    num_output: 512
    pad: 1
    pad: 1
    pad: 1
    kernel_size: 3
    kernel_size: 3
    kernel_size: 3
    weight_filler {
      type: "gaussian"
      std: 0.01
    }
    bias_filler {
      type: "constant"
      value: 1
    }
  }
}
layer {
  name: "relu4b"
  type: "ReLU"
  bottom: "conv4b"
  top: "conv4b"
}
layer {
  name: "pool4"
  type: "Pooling"
  bottom: "conv4b"
  top: "pool4"
  pooling_param {
    pool: MAX
    kernel_size: 2
    kernel_size: 2
    kernel_size: 2
    stride: 2
    stride: 2
    stride: 2
  }
}
layer {
  name: "conv5a"
  type: "Convolution"
  bottom: "pool4"
  top: "conv5a"
  param {
    lr_mult: 1
    decay_mult: 1
  }
  param {
    lr_mult: 2
    decay_mult: 0
  }
  convolution_param {
    num_output: 512
    pad: 1
    pad: 1
    pad: 1
    kernel_size: 3
    kernel_size: 3
    kernel_size: 3
    weight_filler {
      type: "gaussian"
      std: 0.01
    }
    bias_filler {
      type: "constant"
      value: 1
    }
  }
}
layer {
  name: "relu5a"
  type: "ReLU"
  bottom: "conv5a"
  top: "conv5a"
}
layer {
  name: "conv5b"
  type: "Convolution"
  bottom: "conv5a"
  top: "conv5b"
  param {
    lr_mult: 1
    decay_mult: 1
  }
  param {
    lr_mult: 2
    decay_mult: 0
  }
  convolution_param {
    num_output: 512
    pad: 1
    pad: 1
    pad: 1
    kernel_size: 3
    kernel_size: 3
    kernel_size: 3
    weight_filler {
      type: "gaussian"
      std: 0.01
    }
    bias_filler {
      type: "constant"
      value: 1
    }
  }
}
layer {
  name: "relu5b"
  type: "ReLU"
  bottom: "conv5b"
  top: "conv5b"
}
layer {
  name: "rpn_conv/3x3"
  type: "Convolution"
  bottom: "conv5b"
  top: "rpn/output"
  param {
    lr_mult: 1
    decay_mult: 1
  }
  param {
    lr_mult: 2
    decay_mult: 0
  }
  convolution_param {
    num_output: 512
    pad: 1
    pad: 1
    pad: 1
    kernel_size: 3
    kernel_size: 3
    kernel_size: 3
    stride: 1
    stride: 2
    stride: 2
    weight_filler {
      type: "gaussian"
      std: 0.01
    }
    bias_filler {
      type: "constant"
      value: 0
    }
  }
}
layer {
  name: "rpn_relu/3x3"
  type: "ReLU"
  bottom: "rpn/output"
  top: "rpn/output"
}
layer {
  name: "rpn_conv/3x3_2"
  type: "Convolution"
  bottom: "rpn/output"
  top: "rpn/output_2"
  param {
    lr_mult: 1
    decay_mult: 1
  }
  param {
    lr_mult: 2
    decay_mult: 0
  }
  convolution_param {
    num_output: 512
    pad: 1
    pad: 1
    pad: 1
    kernel_size: 3
    kernel_size: 3
    kernel_size: 3
    stride: 1
    stride: 2
    stride: 2
    weight_filler {
      type: "gaussian"
      std: 0.01
    }
    bias_filler {
      type: "constant"
      value: 0
    }
  }
}
layer {
  name: "rpn_relu/3x3_2"
  type: "ReLU"
  bottom: "rpn/output_2"
  top: "rpn/output_2"
}
layer {
  name: "rpn/output_pool"
  type: "Pooling"
  bottom: "rpn/output_2"
  top: "rpn/output_pool"
  pooling_param {
    pool: MAX
    kernel_size: 1
    kernel_size: 2
    kernel_size: 2
  }
}
layer {
  name: "rpn_cls_score"
  type: "Convolution"
  bottom: "rpn/output_pool"
  top: "rpn_cls_score"
  param {
    lr_mult: 1
    decay_mult: 1
  }
  param {
    lr_mult: 2
    decay_mult: 0
  }
  convolution_param {
    num_output: 74
    kernel_size: 1
    kernel_size: 1
    kernel_size: 1
    weight_filler {
      type: "gaussian"
      std: 0.01
    }
    bias_filler {
      type: "constant"
      value: 0
    }
  }
}
layer {
  name: "rpn_twin_pred"
  type: "Convolution"
  bottom: "rpn/output_pool"
  top: "rpn_twin_pred"
  param {
    lr_mult: 1
    decay_mult: 1
  }
  param {
    lr_mult: 2
    decay_mult: 0
  }
  convolution_param {
    num_output: 74
    kernel_size: 1
    kernel_size: 1
    kernel_size: 1
    weight_filler {
      type: "gaussian"
      std: 0.01
    }
    bias_filler {
      type: "constant"
      value: 0
    }
  }
}
layer {
  name: "rpn_cls_score_reshape"
  type: "Reshape"
  bottom: "rpn_cls_score"
  top: "rpn_cls_score_reshape"
  reshape_param {
    shape {
      dim: 0
      dim: 2
      dim: -1
      dim: 0
      dim: 0
    }
  }
}
layer {
  name: "rpn-data"
  type: "Python"
  bottom: "rpn_cls_score"
  bottom: "gt_boxes"
  bottom: "data"
  top: "rpn_labels"
  top: "rpn_twin_targets"
  top: "rpn_twin_inside_weights"
  top: "rpn_twin_outside_weights"
  python_param {
    module: "rpn.anchor_target_layer"
    layer: "AnchorTargetLayer"
    param_str: "\'feat_stride\': 8 \n\'scales\': !!python/tuple [1,1.25, 1.5,1.75, 2,2.5, 3,3.5, 4,4.5, 5,5.5, 6,7, 8,9,10,11,12,14,16,18,20,22,24,28,32,36,40,44,52,60,68,76,84,92,100]"
  }
}
layer {
  name: "rpn_loss_cls"
  type: "SoftmaxWithLoss"
  bottom: "rpn_cls_score_reshape"
  bottom: "rpn_labels"
  top: "rpn_cls_loss"
  loss_weight: 1
  propagate_down: true
  propagate_down: false
  loss_param {
    ignore_label: -1
    normalize: true
  }
}
layer {
  name: "rpn_loss_twin"
  type: "SmoothL1Loss"
  bottom: "rpn_twin_pred"
  bottom: "rpn_twin_targets"
  bottom: "rpn_twin_inside_weights"
  bottom: "rpn_twin_outside_weights"
  top: "rpn_loss_twin"
  loss_weight: 1
  smooth_l1_loss_param {
    sigma: 3
  }
}
layer {
  name: "rpn_accuarcy"
  type: "Accuracy"
  bottom: "rpn_cls_score_reshape"
  bottom: "rpn_labels"
  top: "rpn_accuarcy"
  top: "rpn_accuarcy_class"
  propagate_down: false
  propagate_down: false
  accuracy_param {
    ignore_label: -1
  }
}
layer {
  name: "rpn_cls_prob"
  type: "Softmax"
  bottom: "rpn_cls_score_reshape"
  top: "rpn_cls_prob"
}
layer {
  name: "rpn_cls_prob_reshape"
  type: "Reshape"
  bottom: "rpn_cls_prob"
  top: "rpn_cls_prob_reshape"
  reshape_param {
    shape {
      dim: 0
      dim: 74
      dim: -1
      dim: 0
      dim: 0
    }
  }
}
layer {
  name: "proposal"
  type: "Python"
  bottom: "rpn_cls_prob_reshape"
  bottom: "rpn_twin_pred"
  top: "rpn_rois"
  include {
    phase: TRAIN
  }
  python_param {
    module: "rpn.proposal_layer"
    layer: "ProposalLayer"
    param_str: "\'feat_stride\': 8 \n\'scales\': !!python/tuple [1,1.25, 1.5,1.75, 2,2.5, 3,3.5, 4,4.5, 5,5.5, 6,7, 8,9,10,11,12,14,16,18,20,22,24,28,32,36,40,44,52,60,68,76,84,92,100]"
  }
}
layer {
  name: "roi-data"
  type: "Python"
  bottom: "rpn_rois"
  bottom: "gt_boxes"
  top: "rois"
  top: "labels"
  top: "twin_targets"
  top: "twin_inside_weights"
  top: "twin_outside_weights"
  python_param {
    module: "rpn.proposal_target_layer"
    layer: "ProposalTargetLayer"
    param_str: "\'num_classes\': 201"
  }
}
layer {
  name: "roi_pool5"
  type: "ROIPooling"
  bottom: "conv5b"
  bottom: "rois"
  top: "pool5"
  roi_pooling_param {
    pooled_h: 4
    pooled_w: 4
    spatial_scale: 0.0625
    pooled_l: 1
    temporal_scale: 0.125
  }
}
layer {
  name: "fc6"
  type: "InnerProduct"
  bottom: "pool5"
  top: "fc6"
  param {
    lr_mult: 1
    decay_mult: 1
  }
  param {
    lr_mult: 2
    decay_mult: 0
  }
  inner_product_param {
    num_output: 4096
    weight_filler {
      type: "gaussian"
      std: 0.005
    }
    bias_filler {
      type: "constant"
      value: 1
    }
  }
}
layer {
  name: "relu6"
  type: "ReLU"
  bottom: "fc6"
  top: "fc6"
}
layer {
  name: "drop6"
  type: "Dropout"
  bottom: "fc6"
  top: "fc6"
  dropout_param {
    dropout_ratio: 0.5
  }
}
layer {
  name: "cls_score"
  type: "InnerProduct"
  bottom: "fc6"
  top: "cls_score"
  param {
    lr_mult: 1
    decay_mult: 1
  }
  param {
    lr_mult: 2
    decay_mult: 0
  }
  inner_product_param {
    num_output: 201
    weight_filler {
      type: "gaussian"
      std: 0.01
    }
    bias_filler {
      type: "constant"
      value: 0
    }
  }
}
layer {
  name: "twin_pred"
  type: "InnerProduct"
  bottom: "fc6"
  top: "twin_pred"
  param {
    lr_mult: 1
    decay_mult: 1
  }
  param {
    lr_mult: 2
    decay_mult: 0
  }
  inner_product_param {
    num_output: 402
    weight_filler {
      type: "gaussian"
      std: 0.001
    }
    bias_filler {
      type: "constant"
      value: 0
    }
  }
}
layer {
  name: "loss_cls"
  type: "SoftmaxWithLoss"
  bottom: "cls_score"
  bottom: "labels"
  top: "loss_cls"
  loss_weight: 1
  propagate_down: true
  propagate_down: false
}
layer {
  name: "loss_twin"
  type: "SmoothL1Loss"
  bottom: "twin_pred"
  bottom: "twin_targets"
  bottom: "twin_inside_weights"
  bottom: "twin_outside_weights"
  top: "loss_twin"
  loss_weight: 1
}
layer {
  name: "accuarcy"
  type: "Accuracy"
  bottom: "cls_score"
  bottom: "labels"
  top: "accuarcy"
  propagate_down: false
  propagate_down: false
  accuracy_param {
    ignore_label: -1
  }
}
I0416 01:51:24.510814 32523 layer_factory.hpp:77] Creating layer data
I0416 01:51:24.522895 32523 net.cpp:100] Creating Layer data
I0416 01:51:24.522953 32523 net.cpp:408] data -> data
I0416 01:51:24.522980 32523 net.cpp:408] data -> gt_boxes
RoiDataLayer: name_to_top: {'gt_windows': 1, 'data': 0}
I0416 01:51:24.604281 32523 net.cpp:150] Setting up data
I0416 01:51:24.604313 32523 net.cpp:157] Top shape: 1 3 768 112 112 (28901376)
I0416 01:51:24.604369 32523 net.cpp:157] Top shape: 1 3 (3)
I0416 01:51:24.604387 32523 net.cpp:165] Memory required for data: 115605516
I0416 01:51:24.604408 32523 layer_factory.hpp:77] Creating layer data_data_0_split
I0416 01:51:24.604430 32523 net.cpp:100] Creating Layer data_data_0_split
I0416 01:51:24.604450 32523 net.cpp:434] data_data_0_split <- data
I0416 01:51:24.604491 32523 net.cpp:408] data_data_0_split -> data_data_0_split_0
I0416 01:51:24.604517 32523 net.cpp:408] data_data_0_split -> data_data_0_split_1
I0416 01:51:24.604585 32523 net.cpp:150] Setting up data_data_0_split
I0416 01:51:24.604598 32523 net.cpp:157] Top shape: 1 3 768 112 112 (28901376)
I0416 01:51:24.604616 32523 net.cpp:157] Top shape: 1 3 768 112 112 (28901376)
I0416 01:51:24.604635 32523 net.cpp:165] Memory required for data: 346816524
I0416 01:51:24.604650 32523 layer_factory.hpp:77] Creating layer gt_boxes_data_1_split
I0416 01:51:24.604668 32523 net.cpp:100] Creating Layer gt_boxes_data_1_split
I0416 01:51:24.604683 32523 net.cpp:434] gt_boxes_data_1_split <- gt_boxes
I0416 01:51:24.604712 32523 net.cpp:408] gt_boxes_data_1_split -> gt_boxes_data_1_split_0
I0416 01:51:24.604732 32523 net.cpp:408] gt_boxes_data_1_split -> gt_boxes_data_1_split_1
I0416 01:51:24.604797 32523 net.cpp:150] Setting up gt_boxes_data_1_split
I0416 01:51:24.604807 32523 net.cpp:157] Top shape: 1 3 (3)
I0416 01:51:24.604812 32523 net.cpp:157] Top shape: 1 3 (3)
I0416 01:51:24.604816 32523 net.cpp:165] Memory required for data: 346816548
I0416 01:51:24.604821 32523 layer_factory.hpp:77] Creating layer conv1a
I0416 01:51:24.604840 32523 net.cpp:100] Creating Layer conv1a
I0416 01:51:24.604846 32523 net.cpp:434] conv1a <- data_data_0_split_0
I0416 01:51:24.604856 32523 net.cpp:408] conv1a -> conv1a
I0416 01:51:24.653630 32523 net.cpp:150] Setting up conv1a
I0416 01:51:24.653671 32523 net.cpp:157] Top shape: 1 64 768 112 112 (616562688)
I0416 01:51:24.653676 32523 net.cpp:165] Memory required for data: 2813067300
I0416 01:51:24.653695 32523 layer_factory.hpp:77] Creating layer relu1a
I0416 01:51:24.653714 32523 net.cpp:100] Creating Layer relu1a
I0416 01:51:24.653720 32523 net.cpp:434] relu1a <- conv1a
I0416 01:51:24.653729 32523 net.cpp:395] relu1a -> conv1a (in-place)
I0416 01:51:24.653743 32523 net.cpp:150] Setting up relu1a
I0416 01:51:24.653765 32523 net.cpp:157] Top shape: 1 64 768 112 112 (616562688)
I0416 01:51:24.653769 32523 net.cpp:165] Memory required for data: 5279318052
I0416 01:51:24.653774 32523 layer_factory.hpp:77] Creating layer pool1
I0416 01:51:24.653784 32523 net.cpp:100] Creating Layer pool1
I0416 01:51:24.653787 32523 net.cpp:434] pool1 <- conv1a
I0416 01:51:24.653796 32523 net.cpp:408] pool1 -> pool1
I0416 01:51:24.653928 32523 net.cpp:150] Setting up pool1
I0416 01:51:24.653937 32523 net.cpp:157] Top shape: 1 64 768 56 56 (154140672)
I0416 01:51:24.653941 32523 net.cpp:165] Memory required for data: 5895880740
I0416 01:51:24.653945 32523 layer_factory.hpp:77] Creating layer conv2a
I0416 01:51:24.653967 32523 net.cpp:100] Creating Layer conv2a
I0416 01:51:24.653973 32523 net.cpp:434] conv2a <- pool1
I0416 01:51:24.653982 32523 net.cpp:408] conv2a -> conv2a
I0416 01:51:24.663013 32523 net.cpp:150] Setting up conv2a
I0416 01:51:24.663156 32523 net.cpp:157] Top shape: 1 128 768 56 56 (308281344)
I0416 01:51:24.663163 32523 net.cpp:165] Memory required for data: 7129006116
I0416 01:51:24.663187 32523 layer_factory.hpp:77] Creating layer relu2a
I0416 01:51:24.663203 32523 net.cpp:100] Creating Layer relu2a
I0416 01:51:24.663224 32523 net.cpp:434] relu2a <- conv2a
I0416 01:51:24.663251 32523 net.cpp:395] relu2a -> conv2a (in-place)
I0416 01:51:24.663282 32523 net.cpp:150] Setting up relu2a
I0416 01:51:24.663290 32523 net.cpp:157] Top shape: 1 128 768 56 56 (308281344)
I0416 01:51:24.663295 32523 net.cpp:165] Memory required for data: 8362131492
I0416 01:51:24.663300 32523 layer_factory.hpp:77] Creating layer pool2
I0416 01:51:24.663316 32523 net.cpp:100] Creating Layer pool2
I0416 01:51:24.663322 32523 net.cpp:434] pool2 <- conv2a
I0416 01:51:24.663329 32523 net.cpp:408] pool2 -> pool2
I0416 01:51:24.663537 32523 net.cpp:150] Setting up pool2
I0416 01:51:24.663568 32523 net.cpp:157] Top shape: 1 128 384 28 28 (38535168)
I0416 01:51:24.663581 32523 net.cpp:165] Memory required for data: 8516272164
I0416 01:51:24.663594 32523 layer_factory.hpp:77] Creating layer conv3a
I0416 01:51:24.663622 32523 net.cpp:100] Creating Layer conv3a
I0416 01:51:24.663636 32523 net.cpp:434] conv3a <- pool2
I0416 01:51:24.663655 32523 net.cpp:408] conv3a -> conv3a
I0416 01:51:24.673478 32523 net.cpp:150] Setting up conv3a
I0416 01:51:24.673511 32523 net.cpp:157] Top shape: 1 256 384 28 28 (77070336)
I0416 01:51:24.673516 32523 net.cpp:165] Memory required for data: 8824553508
I0416 01:51:24.673532 32523 layer_factory.hpp:77] Creating layer relu3a
I0416 01:51:24.673547 32523 net.cpp:100] Creating Layer relu3a
I0416 01:51:24.673553 32523 net.cpp:434] relu3a <- conv3a
I0416 01:51:24.673563 32523 net.cpp:395] relu3a -> conv3a (in-place)
I0416 01:51:24.673574 32523 net.cpp:150] Setting up relu3a
I0416 01:51:24.673581 32523 net.cpp:157] Top shape: 1 256 384 28 28 (77070336)
I0416 01:51:24.673585 32523 net.cpp:165] Memory required for data: 9132834852
I0416 01:51:24.673590 32523 layer_factory.hpp:77] Creating layer conv3b
I0416 01:51:24.673605 32523 net.cpp:100] Creating Layer conv3b
I0416 01:51:24.673609 32523 net.cpp:434] conv3b <- conv3a
I0416 01:51:24.673619 32523 net.cpp:408] conv3b -> conv3b
I0416 01:51:24.690943 32523 net.cpp:150] Setting up conv3b
I0416 01:51:24.690978 32523 net.cpp:157] Top shape: 1 256 384 28 28 (77070336)
I0416 01:51:24.690981 32523 net.cpp:165] Memory required for data: 9441116196
I0416 01:51:24.691001 32523 layer_factory.hpp:77] Creating layer relu3b
I0416 01:51:24.691015 32523 net.cpp:100] Creating Layer relu3b
I0416 01:51:24.691021 32523 net.cpp:434] relu3b <- conv3b
I0416 01:51:24.691031 32523 net.cpp:395] relu3b -> conv3b (in-place)
I0416 01:51:24.691042 32523 net.cpp:150] Setting up relu3b
I0416 01:51:24.691061 32523 net.cpp:157] Top shape: 1 256 384 28 28 (77070336)
I0416 01:51:24.691066 32523 net.cpp:165] Memory required for data: 9749397540
I0416 01:51:24.691071 32523 layer_factory.hpp:77] Creating layer pool3
I0416 01:51:24.691081 32523 net.cpp:100] Creating Layer pool3
I0416 01:51:24.691087 32523 net.cpp:434] pool3 <- conv3b
I0416 01:51:24.691093 32523 net.cpp:408] pool3 -> pool3
I0416 01:51:24.691153 32523 net.cpp:150] Setting up pool3
I0416 01:51:24.691160 32523 net.cpp:157] Top shape: 1 256 192 14 14 (9633792)
I0416 01:51:24.691165 32523 net.cpp:165] Memory required for data: 9787932708
I0416 01:51:24.691170 32523 layer_factory.hpp:77] Creating layer conv4a
I0416 01:51:24.691185 32523 net.cpp:100] Creating Layer conv4a
I0416 01:51:24.691193 32523 net.cpp:434] conv4a <- pool3
I0416 01:51:24.691203 32523 net.cpp:408] conv4a -> conv4a
I0416 01:51:24.734110 32523 net.cpp:150] Setting up conv4a
I0416 01:51:24.734141 32523 net.cpp:157] Top shape: 1 512 192 14 14 (19267584)
I0416 01:51:24.734146 32523 net.cpp:165] Memory required for data: 9865003044
I0416 01:51:24.734169 32523 layer_factory.hpp:77] Creating layer relu4a
I0416 01:51:24.734184 32523 net.cpp:100] Creating Layer relu4a
I0416 01:51:24.734192 32523 net.cpp:434] relu4a <- conv4a
I0416 01:51:24.734201 32523 net.cpp:395] relu4a -> conv4a (in-place)
I0416 01:51:24.734215 32523 net.cpp:150] Setting up relu4a
I0416 01:51:24.734222 32523 net.cpp:157] Top shape: 1 512 192 14 14 (19267584)
I0416 01:51:24.734228 32523 net.cpp:165] Memory required for data: 9942073380
I0416 01:51:24.734232 32523 layer_factory.hpp:77] Creating layer conv4b
I0416 01:51:24.734251 32523 net.cpp:100] Creating Layer conv4b
I0416 01:51:24.734257 32523 net.cpp:434] conv4b <- conv4a
I0416 01:51:24.734266 32523 net.cpp:408] conv4b -> conv4b
I0416 01:51:24.818578 32523 net.cpp:150] Setting up conv4b
I0416 01:51:24.818606 32523 net.cpp:157] Top shape: 1 512 192 14 14 (19267584)
I0416 01:51:24.818610 32523 net.cpp:165] Memory required for data: 10019143716
I0416 01:51:24.818619 32523 layer_factory.hpp:77] Creating layer relu4b
I0416 01:51:24.818629 32523 net.cpp:100] Creating Layer relu4b
I0416 01:51:24.818634 32523 net.cpp:434] relu4b <- conv4b
I0416 01:51:24.818639 32523 net.cpp:395] relu4b -> conv4b (in-place)
I0416 01:51:24.818647 32523 net.cpp:150] Setting up relu4b
I0416 01:51:24.818653 32523 net.cpp:157] Top shape: 1 512 192 14 14 (19267584)
I0416 01:51:24.818656 32523 net.cpp:165] Memory required for data: 10096214052
I0416 01:51:24.818660 32523 layer_factory.hpp:77] Creating layer pool4
I0416 01:51:24.818666 32523 net.cpp:100] Creating Layer pool4
I0416 01:51:24.818671 32523 net.cpp:434] pool4 <- conv4b
I0416 01:51:24.818677 32523 net.cpp:408] pool4 -> pool4
I0416 01:51:24.818720 32523 net.cpp:150] Setting up pool4
I0416 01:51:24.818727 32523 net.cpp:157] Top shape: 1 512 96 7 7 (2408448)
I0416 01:51:24.818730 32523 net.cpp:165] Memory required for data: 10105847844
I0416 01:51:24.818733 32523 layer_factory.hpp:77] Creating layer conv5a
I0416 01:51:24.818747 32523 net.cpp:100] Creating Layer conv5a
I0416 01:51:24.818753 32523 net.cpp:434] conv5a <- pool4
I0416 01:51:24.818759 32523 net.cpp:408] conv5a -> conv5a
I0416 01:51:24.890689 32523 net.cpp:150] Setting up conv5a
I0416 01:51:24.890725 32523 net.cpp:157] Top shape: 1 512 96 7 7 (2408448)
I0416 01:51:24.890730 32523 net.cpp:165] Memory required for data: 10115481636
I0416 01:51:24.890741 32523 layer_factory.hpp:77] Creating layer relu5a
I0416 01:51:24.890755 32523 net.cpp:100] Creating Layer relu5a
I0416 01:51:24.890763 32523 net.cpp:434] relu5a <- conv5a
I0416 01:51:24.890771 32523 net.cpp:395] relu5a -> conv5a (in-place)
I0416 01:51:24.890786 32523 net.cpp:150] Setting up relu5a
I0416 01:51:24.890795 32523 net.cpp:157] Top shape: 1 512 96 7 7 (2408448)
I0416 01:51:24.890799 32523 net.cpp:165] Memory required for data: 10125115428
I0416 01:51:24.890805 32523 layer_factory.hpp:77] Creating layer conv5b
I0416 01:51:24.890816 32523 net.cpp:100] Creating Layer conv5b
I0416 01:51:24.890822 32523 net.cpp:434] conv5b <- conv5a
I0416 01:51:24.890832 32523 net.cpp:408] conv5b -> conv5b
I0416 01:51:24.983745 32523 net.cpp:150] Setting up conv5b
I0416 01:51:24.983927 32523 net.cpp:157] Top shape: 1 512 96 7 7 (2408448)
I0416 01:51:24.983971 32523 net.cpp:165] Memory required for data: 10134749220
I0416 01:51:24.984014 32523 layer_factory.hpp:77] Creating layer relu5b
I0416 01:51:24.984055 32523 net.cpp:100] Creating Layer relu5b
I0416 01:51:24.984112 32523 net.cpp:434] relu5b <- conv5b
I0416 01:51:24.984161 32523 net.cpp:395] relu5b -> conv5b (in-place)
I0416 01:51:24.984216 32523 net.cpp:150] Setting up relu5b
I0416 01:51:24.984264 32523 net.cpp:157] Top shape: 1 512 96 7 7 (2408448)
I0416 01:51:24.984298 32523 net.cpp:165] Memory required for data: 10144383012
I0416 01:51:24.984367 32523 layer_factory.hpp:77] Creating layer conv5b_relu5b_0_split
I0416 01:51:24.984411 32523 net.cpp:100] Creating Layer conv5b_relu5b_0_split
I0416 01:51:24.984457 32523 net.cpp:434] conv5b_relu5b_0_split <- conv5b
I0416 01:51:24.984504 32523 net.cpp:408] conv5b_relu5b_0_split -> conv5b_relu5b_0_split_0
I0416 01:51:24.984545 32523 net.cpp:408] conv5b_relu5b_0_split -> conv5b_relu5b_0_split_1
I0416 01:51:24.984669 32523 net.cpp:150] Setting up conv5b_relu5b_0_split
I0416 01:51:24.984724 32523 net.cpp:157] Top shape: 1 512 96 7 7 (2408448)
I0416 01:51:24.984776 32523 net.cpp:157] Top shape: 1 512 96 7 7 (2408448)
I0416 01:51:24.984810 32523 net.cpp:165] Memory required for data: 10163650596
I0416 01:51:24.984841 32523 layer_factory.hpp:77] Creating layer rpn_conv/3x3
I0416 01:51:24.984894 32523 net.cpp:100] Creating Layer rpn_conv/3x3
I0416 01:51:24.984938 32523 net.cpp:434] rpn_conv/3x3 <- conv5b_relu5b_0_split_0
I0416 01:51:24.984988 32523 net.cpp:408] rpn_conv/3x3 -> rpn/output
I0416 01:51:25.073972 32523 net.cpp:150] Setting up rpn_conv/3x3
I0416 01:51:25.074827 32523 net.cpp:157] Top shape: 1 512 96 4 4 (786432)
I0416 01:51:25.075075 32523 net.cpp:165] Memory required for data: 10166796324
I0416 01:51:25.075227 32523 layer_factory.hpp:77] Creating layer rpn_relu/3x3
I0416 01:51:25.075363 32523 net.cpp:100] Creating Layer rpn_relu/3x3
I0416 01:51:25.075453 32523 net.cpp:434] rpn_relu/3x3 <- rpn/output
I0416 01:51:25.075551 32523 net.cpp:395] rpn_relu/3x3 -> rpn/output (in-place)
I0416 01:51:25.075696 32523 net.cpp:150] Setting up rpn_relu/3x3
I0416 01:51:25.075845 32523 net.cpp:157] Top shape: 1 512 96 4 4 (786432)
I0416 01:51:25.075919 32523 net.cpp:165] Memory required for data: 10169942052
I0416 01:51:25.076014 32523 layer_factory.hpp:77] Creating layer rpn_conv/3x3_2
I0416 01:51:25.076128 32523 net.cpp:100] Creating Layer rpn_conv/3x3_2
I0416 01:51:25.076225 32523 net.cpp:434] rpn_conv/3x3_2 <- rpn/output
I0416 01:51:25.076355 32523 net.cpp:408] rpn_conv/3x3_2 -> rpn/output_2
I0416 01:51:25.170338 32523 net.cpp:150] Setting up rpn_conv/3x3_2
I0416 01:51:25.170639 32523 net.cpp:157] Top shape: 1 512 96 2 2 (196608)
I0416 01:51:25.170713 32523 net.cpp:165] Memory required for data: 10170728484
I0416 01:51:25.170796 32523 layer_factory.hpp:77] Creating layer rpn_relu/3x3_2
I0416 01:51:25.170881 32523 net.cpp:100] Creating Layer rpn_relu/3x3_2
I0416 01:51:25.170969 32523 net.cpp:434] rpn_relu/3x3_2 <- rpn/output_2
I0416 01:51:25.171054 32523 net.cpp:395] rpn_relu/3x3_2 -> rpn/output_2 (in-place)
I0416 01:51:25.171120 32523 net.cpp:150] Setting up rpn_relu/3x3_2
I0416 01:51:25.171172 32523 net.cpp:157] Top shape: 1 512 96 2 2 (196608)
I0416 01:51:25.171211 32523 net.cpp:165] Memory required for data: 10171514916
I0416 01:51:25.171258 32523 layer_factory.hpp:77] Creating layer rpn/output_pool
I0416 01:51:25.171320 32523 net.cpp:100] Creating Layer rpn/output_pool
I0416 01:51:25.171370 32523 net.cpp:434] rpn/output_pool <- rpn/output_2
I0416 01:51:25.171429 32523 net.cpp:408] rpn/output_pool -> rpn/output_pool
I0416 01:51:25.171715 32523 net.cpp:150] Setting up rpn/output_pool
I0416 01:51:25.171787 32523 net.cpp:157] Top shape: 1 512 96 1 1 (49152)
I0416 01:51:25.171825 32523 net.cpp:165] Memory required for data: 10171711524
I0416 01:51:25.171860 32523 layer_factory.hpp:77] Creating layer rpn/output_pool_rpn/output_pool_0_split
I0416 01:51:25.171895 32523 net.cpp:100] Creating Layer rpn/output_pool_rpn/output_pool_0_split
I0416 01:51:25.171953 32523 net.cpp:434] rpn/output_pool_rpn/output_pool_0_split <- rpn/output_pool
I0416 01:51:25.172001 32523 net.cpp:408] rpn/output_pool_rpn/output_pool_0_split -> rpn/output_pool_rpn/output_pool_0_split_0
I0416 01:51:25.172055 32523 net.cpp:408] rpn/output_pool_rpn/output_pool_0_split -> rpn/output_pool_rpn/output_pool_0_split_1
I0416 01:51:25.172184 32523 net.cpp:150] Setting up rpn/output_pool_rpn/output_pool_0_split
I0416 01:51:25.172199 32523 net.cpp:157] Top shape: 1 512 96 1 1 (49152)
I0416 01:51:25.172204 32523 net.cpp:157] Top shape: 1 512 96 1 1 (49152)
I0416 01:51:25.172216 32523 net.cpp:165] Memory required for data: 10172104740
I0416 01:51:25.172222 32523 layer_factory.hpp:77] Creating layer rpn_cls_score
I0416 01:51:25.172240 32523 net.cpp:100] Creating Layer rpn_cls_score
I0416 01:51:25.172247 32523 net.cpp:434] rpn_cls_score <- rpn/output_pool_rpn/output_pool_0_split_0
I0416 01:51:25.172257 32523 net.cpp:408] rpn_cls_score -> rpn_cls_score
I0416 01:51:25.172941 32523 net.cpp:150] Setting up rpn_cls_score
I0416 01:51:25.172955 32523 net.cpp:157] Top shape: 1 74 96 1 1 (7104)
I0416 01:51:25.172960 32523 net.cpp:165] Memory required for data: 10172133156
I0416 01:51:25.172969 32523 layer_factory.hpp:77] Creating layer rpn_cls_score_rpn_cls_score_0_split
I0416 01:51:25.172978 32523 net.cpp:100] Creating Layer rpn_cls_score_rpn_cls_score_0_split
I0416 01:51:25.172983 32523 net.cpp:434] rpn_cls_score_rpn_cls_score_0_split <- rpn_cls_score
I0416 01:51:25.172991 32523 net.cpp:408] rpn_cls_score_rpn_cls_score_0_split -> rpn_cls_score_rpn_cls_score_0_split_0
I0416 01:51:25.173002 32523 net.cpp:408] rpn_cls_score_rpn_cls_score_0_split -> rpn_cls_score_rpn_cls_score_0_split_1
I0416 01:51:25.173070 32523 net.cpp:150] Setting up rpn_cls_score_rpn_cls_score_0_split
I0416 01:51:25.173081 32523 net.cpp:157] Top shape: 1 74 96 1 1 (7104)
I0416 01:51:25.173087 32523 net.cpp:157] Top shape: 1 74 96 1 1 (7104)
I0416 01:51:25.173092 32523 net.cpp:165] Memory required for data: 10172189988
I0416 01:51:25.173097 32523 layer_factory.hpp:77] Creating layer rpn_twin_pred
I0416 01:51:25.173116 32523 net.cpp:100] Creating Layer rpn_twin_pred
I0416 01:51:25.173123 32523 net.cpp:434] rpn_twin_pred <- rpn/output_pool_rpn/output_pool_0_split_1
I0416 01:51:25.173132 32523 net.cpp:408] rpn_twin_pred -> rpn_twin_pred
I0416 01:51:25.173723 32523 net.cpp:150] Setting up rpn_twin_pred
I0416 01:51:25.173739 32523 net.cpp:157] Top shape: 1 74 96 1 1 (7104)
I0416 01:51:25.173743 32523 net.cpp:165] Memory required for data: 10172218404
I0416 01:51:25.173754 32523 layer_factory.hpp:77] Creating layer rpn_twin_pred_rpn_twin_pred_0_split
I0416 01:51:25.173774 32523 net.cpp:100] Creating Layer rpn_twin_pred_rpn_twin_pred_0_split
I0416 01:51:25.173780 32523 net.cpp:434] rpn_twin_pred_rpn_twin_pred_0_split <- rpn_twin_pred
I0416 01:51:25.173790 32523 net.cpp:408] rpn_twin_pred_rpn_twin_pred_0_split -> rpn_twin_pred_rpn_twin_pred_0_split_0
I0416 01:51:25.173805 32523 net.cpp:408] rpn_twin_pred_rpn_twin_pred_0_split -> rpn_twin_pred_rpn_twin_pred_0_split_1
I0416 01:51:25.173884 32523 net.cpp:150] Setting up rpn_twin_pred_rpn_twin_pred_0_split
I0416 01:51:25.173897 32523 net.cpp:157] Top shape: 1 74 96 1 1 (7104)
I0416 01:51:25.173902 32523 net.cpp:157] Top shape: 1 74 96 1 1 (7104)
I0416 01:51:25.173907 32523 net.cpp:165] Memory required for data: 10172275236
I0416 01:51:25.173912 32523 layer_factory.hpp:77] Creating layer rpn_cls_score_reshape
I0416 01:51:25.173931 32523 net.cpp:100] Creating Layer rpn_cls_score_reshape
I0416 01:51:25.173939 32523 net.cpp:434] rpn_cls_score_reshape <- rpn_cls_score_rpn_cls_score_0_split_0
I0416 01:51:25.173949 32523 net.cpp:408] rpn_cls_score_reshape -> rpn_cls_score_reshape
I0416 01:51:25.174013 32523 net.cpp:150] Setting up rpn_cls_score_reshape
I0416 01:51:25.174027 32523 net.cpp:157] Top shape: 1 2 3552 1 1 (7104)
I0416 01:51:25.174031 32523 net.cpp:165] Memory required for data: 10172303652
I0416 01:51:25.174036 32523 layer_factory.hpp:77] Creating layer rpn_cls_score_reshape_rpn_cls_score_reshape_0_split
I0416 01:51:25.174053 32523 net.cpp:100] Creating Layer rpn_cls_score_reshape_rpn_cls_score_reshape_0_split
I0416 01:51:25.174059 32523 net.cpp:434] rpn_cls_score_reshape_rpn_cls_score_reshape_0_split <- rpn_cls_score_reshape
I0416 01:51:25.174067 32523 net.cpp:408] rpn_cls_score_reshape_rpn_cls_score_reshape_0_split -> rpn_cls_score_reshape_rpn_cls_score_reshape_0_split_0
I0416 01:51:25.174099 32523 net.cpp:408] rpn_cls_score_reshape_rpn_cls_score_reshape_0_split -> rpn_cls_score_reshape_rpn_cls_score_reshape_0_split_1
I0416 01:51:25.174114 32523 net.cpp:408] rpn_cls_score_reshape_rpn_cls_score_reshape_0_split -> rpn_cls_score_reshape_rpn_cls_score_reshape_0_split_2
I0416 01:51:25.174228 32523 net.cpp:150] Setting up rpn_cls_score_reshape_rpn_cls_score_reshape_0_split
I0416 01:51:25.174247 32523 net.cpp:157] Top shape: 1 2 3552 1 1 (7104)
I0416 01:51:25.174253 32523 net.cpp:157] Top shape: 1 2 3552 1 1 (7104)
I0416 01:51:25.174259 32523 net.cpp:157] Top shape: 1 2 3552 1 1 (7104)
I0416 01:51:25.174263 32523 net.cpp:165] Memory required for data: 10172388900
I0416 01:51:25.174268 32523 layer_factory.hpp:77] Creating layer rpn-data
I0416 01:51:25.175099 32523 net.cpp:100] Creating Layer rpn-data
I0416 01:51:25.175143 32523 net.cpp:434] rpn-data <- rpn_cls_score_rpn_cls_score_0_split_1
I0416 01:51:25.175158 32523 net.cpp:434] rpn-data <- gt_boxes_data_1_split_0
I0416 01:51:25.175165 32523 net.cpp:434] rpn-data <- data_data_0_split_1
I0416 01:51:25.175175 32523 net.cpp:408] rpn-data -> rpn_labels
I0416 01:51:25.175189 32523 net.cpp:408] rpn-data -> rpn_twin_targets
I0416 01:51:25.175197 32523 net.cpp:408] rpn-data -> rpn_twin_inside_weights
I0416 01:51:25.175207 32523 net.cpp:408] rpn-data -> rpn_twin_outside_weights
I0416 01:51:25.180554 32523 net.cpp:150] Setting up rpn-data
I0416 01:51:25.180765 32523 net.cpp:157] Top shape: 1 1 3552 1 1 (3552)
I0416 01:51:25.180797 32523 net.cpp:157] Top shape: 1 74 96 1 1 (7104)
I0416 01:51:25.180819 32523 net.cpp:157] Top shape: 1 74 96 1 1 (7104)
I0416 01:51:25.180840 32523 net.cpp:157] Top shape: 1 74 96 1 1 (7104)
I0416 01:51:25.180857 32523 net.cpp:165] Memory required for data: 10172488356
I0416 01:51:25.180882 32523 layer_factory.hpp:77] Creating layer rpn_labels_rpn-data_0_split
I0416 01:51:25.180919 32523 net.cpp:100] Creating Layer rpn_labels_rpn-data_0_split
I0416 01:51:25.180945 32523 net.cpp:434] rpn_labels_rpn-data_0_split <- rpn_labels
I0416 01:51:25.180981 32523 net.cpp:408] rpn_labels_rpn-data_0_split -> rpn_labels_rpn-data_0_split_0
I0416 01:51:25.181010 32523 net.cpp:408] rpn_labels_rpn-data_0_split -> rpn_labels_rpn-data_0_split_1
I0416 01:51:25.181246 32523 net.cpp:150] Setting up rpn_labels_rpn-data_0_split
I0416 01:51:25.181301 32523 net.cpp:157] Top shape: 1 1 3552 1 1 (3552)
I0416 01:51:25.181326 32523 net.cpp:157] Top shape: 1 1 3552 1 1 (3552)
I0416 01:51:25.181406 32523 net.cpp:165] Memory required for data: 10172516772
I0416 01:51:25.181471 32523 layer_factory.hpp:77] Creating layer rpn_loss_cls
I0416 01:51:25.181555 32523 net.cpp:100] Creating Layer rpn_loss_cls
I0416 01:51:25.181617 32523 net.cpp:434] rpn_loss_cls <- rpn_cls_score_reshape_rpn_cls_score_reshape_0_split_0
I0416 01:51:25.181694 32523 net.cpp:434] rpn_loss_cls <- rpn_labels_rpn-data_0_split_0
…
I0416 01:51:25.183632 32523 layer_factory.hpp:77] Creating layer rpn_accuarcy
I0416 01:51:25.183717 32523 net.cpp:100] Creating Layer rpn_accuarcy
I0416 01:51:25.183784 32523 net.cpp:434] rpn_accuarcy <- rpn_cls_score_reshape_rpn_cls_score_reshape_0_split_1
I0416 01:51:25.183859 32523 net.cpp:434] rpn_accuarcy <- rpn_labels_rpn-data_0_split_1
I0416 01:51:25.183950 32523 net.cpp:408] rpn_accuarcy -> rpn_accuarcy
I0416 01:51:25.184026 32523 net.cpp:408] rpn_accuarcy -> rpn_accuarcy_class
I0416 01:51:25.184294 32523 net.cpp:150] Setting up rpn_accuarcy
I0416 01:51:25.184420 32523 net.cpp:157] Top shape: (1)
I0416 01:51:25.184480 32523 net.cpp:157] Top shape: 2 (2)
I0416 01:51:25.184551 32523 net.cpp:165] Memory required for data: 10172516792
I0416 01:51:25.184617 32523 layer_factory.hpp:77] Creating layer rpn_cls_prob
I0416 01:51:25.184696 32523 net.cpp:100] Creating Layer rpn_cls_prob
I0416 01:51:25.184767 32523 net.cpp:434] rpn_cls_prob <- rpn_cls_score_reshape_rpn_cls_score_reshape_0_split_2
I0416 01:51:25.184837 32523 net.cpp:408] rpn_cls_prob -> rpn_cls_prob
I0416 01:51:25.185199 32523 net.cpp:150] Setting up rpn_cls_prob
I0416 01:51:25.185366 32523 net.cpp:157] Top shape: 1 2 3552 1 1 (7104)
I0416 01:51:25.185423 32523 net.cpp:165] Memory required for data: 10172545208
I0416 01:51:25.185487 32523 layer_factory.hpp:77] Creating layer rpn_cls_prob_reshape
I0416 01:51:25.185640 32523 net.cpp:100] Creating Layer rpn_cls_prob_reshape
I0416 01:51:25.185706 32523 net.cpp:434] rpn_cls_prob_reshape <- rpn_cls_prob
I0416 01:51:25.185756 32523 net.cpp:408] rpn_cls_prob_reshape -> rpn_cls_prob_reshape
I0416 01:51:25.185923 32523 net.cpp:150] Setting up rpn_cls_prob_reshape
I0416 01:51:25.185942 32523 net.cpp:157] Top shape: 1 74 96 1 1 (7104)
I0416 01:51:25.185947 32523 net.cpp:165] Memory required for data: 10172573624
I0416 01:51:25.185956 32523 layer_factory.hpp:77] Creating layer proposal
I0416 01:51:25.186810 32523 net.cpp:100] Creating Layer proposal
I0416 01:51:25.186825 32523 net.cpp:434] proposal <- rpn_cls_prob_reshape
I0416 01:51:25.186831 32523 net.cpp:434] proposal <- rpn_twin_pred_rpn_twin_pred_0_split_1
I0416 01:51:25.186841 32523 net.cpp:408] proposal -> rpn_rois
I0416 01:51:25.195843 32523 net.cpp:150] Setting up proposal
I0416 01:51:25.195868 32523 net.cpp:157] Top shape: 1 3 (3)
I0416 01:51:25.195870 32523 net.cpp:165] Memory required for data: 10172573636
I0416 01:51:25.195878 32523 layer_factory.hpp:77] Creating layer roi-data
I0416 01:51:25.196044 32523 net.cpp:100] Creating Layer roi-data
I0416 01:51:25.196054 32523 net.cpp:434] roi-data <- rpn_rois
I0416 01:51:25.196061 32523 net.cpp:434] roi-data <- gt_boxes_data_1_split_1
I0416 01:51:25.196069 32523 net.cpp:408] roi-data -> rois
I0416 01:51:25.196076 32523 net.cpp:408] roi-data -> labels
I0416 01:51:25.196084 32523 net.cpp:408] roi-data -> twin_targets
I0416 01:51:25.196089 32523 net.cpp:408] roi-data -> twin_inside_weights
I0416 01:51:25.196099 32523 net.cpp:408] roi-data -> twin_outside_weights
I0416 01:51:25.196550 32523 net.cpp:150] Setting up roi-data
I0416 01:51:25.196563 32523 net.cpp:157] Top shape: 1 3 (3)
I0416 01:51:25.196566 32523 net.cpp:157] Top shape: 1 1 (1)
I0416 01:51:25.196570 32523 net.cpp:157] Top shape: 1 402 (402)
I0416 01:51:25.196574 32523 net.cpp:157] Top shape: 1 402 (402)
I0416 01:51:25.196579 32523 net.cpp:157] Top shape: 1 402 (402)
I0416 01:51:25.196584 32523 net.cpp:165] Memory required for data: 10172578476
I0416 01:51:25.196588 32523 layer_factory.hpp:77] Creating layer labels_roi-data_1_split
I0416 01:51:25.196595 32523 net.cpp:100] Creating Layer labels_roi-data_1_split
I0416 01:51:25.196601 32523 net.cpp:434] labels_roi-data_1_split <- labels
I0416 01:51:25.196606 32523 net.cpp:408] labels_roi-data_1_split -> labels_roi-data_1_split_0
I0416 01:51:25.196614 32523 net.cpp:408] labels_roi-data_1_split -> labels_roi-data_1_split_1
I0416 01:51:25.196655 32523 net.cpp:150] Setting up labels_roi-data_1_split
I0416 01:51:25.196660 32523 net.cpp:157] Top shape: 1 1 (1)
I0416 01:51:25.196665 32523 net.cpp:157] Top shape: 1 1 (1)
I0416 01:51:25.196667 32523 net.cpp:165] Memory required for data: 10172578484
I0416 01:51:25.196672 32523 layer_factory.hpp:77] Creating layer roi_pool5
I0416 01:51:25.196681 32523 net.cpp:100] Creating Layer roi_pool5
I0416 01:51:25.196686 32523 net.cpp:434] roi_pool5 <- conv5b_relu5b_0_split_1
I0416 01:51:25.196691 32523 net.cpp:434] roi_pool5 <- rois
I0416 01:51:25.196697 32523 net.cpp:408] roi_pool5 -> pool5
I0416 01:51:25.196703 32523 roi_pooling_layer.cpp:34] Temporal scale: 0.125
I0416 01:51:25.196713 32523 roi_pooling_layer.cpp:35] Spatial scale: 0.0625
I0416 01:51:25.196753 32523 net.cpp:150] Setting up roi_pool5
I0416 01:51:25.196760 32523 net.cpp:157] Top shape: 1 512 1 4 4 (8192)
I0416 01:51:25.196764 32523 net.cpp:165] Memory required for data: 10172611252
I0416 01:51:25.196768 32523 layer_factory.hpp:77] Creating layer fc6
I0416 01:51:25.196776 32523 net.cpp:100] Creating Layer fc6
I0416 01:51:25.196794 32523 net.cpp:434] fc6 <- pool5
I0416 01:51:25.196799 32523 net.cpp:408] fc6 -> fc6
I0416 01:51:25.596712 32523 net.cpp:150] Setting up fc6
I0416 01:51:25.596743 32523 net.cpp:157] Top shape: 1 4096 (4096)
I0416 01:51:25.596747 32523 net.cpp:165] Memory required for data: 10172627636
I0416 01:51:25.596757 32523 layer_factory.hpp:77] Creating layer relu6
I0416 01:51:25.596766 32523 net.cpp:100] Creating Layer relu6
I0416 01:51:25.596771 32523 net.cpp:434] relu6 <- fc6
I0416 01:51:25.596777 32523 net.cpp:395] relu6 -> fc6 (in-place)
I0416 01:51:25.596786 32523 net.cpp:150] Setting up relu6
I0416 01:51:25.596788 32523 net.cpp:157] Top shape: 1 4096 (4096)
I0416 01:51:25.596791 32523 net.cpp:165] Memory required for data: 10172644020
I0416 01:51:25.596794 32523 layer_factory.hpp:77] Creating layer drop6
I0416 01:51:25.596802 32523 net.cpp:100] Creating Layer drop6
I0416 01:51:25.596807 32523 net.cpp:434] drop6 <- fc6
I0416 01:51:25.596813 32523 net.cpp:395] drop6 -> fc6 (in-place)
I0416 01:51:25.596839 32523 net.cpp:150] Setting up drop6
I0416 01:51:25.596844 32523 net.cpp:157] Top shape: 1 4096 (4096)
I0416 01:51:25.596846 32523 net.cpp:165] Memory required for data: 10172660404
I0416 01:51:25.596849 32523 layer_factory.hpp:77] Creating layer fc6_drop6_0_split
I0416 01:51:25.596858 32523 net.cpp:100] Creating Layer fc6_drop6_0_split
I0416 01:51:25.596861 32523 net.cpp:434] fc6_drop6_0_split <- fc6
I0416 01:51:25.596865 32523 net.cpp:408] fc6_drop6_0_split -> fc6_drop6_0_split_0
I0416 01:51:25.596871 32523 net.cpp:408] fc6_drop6_0_split -> fc6_drop6_0_split_1
I0416 01:51:25.596915 32523 net.cpp:150] Setting up fc6_drop6_0_split
I0416 01:51:25.596920 32523 net.cpp:157] Top shape: 1 4096 (4096)
I0416 01:51:25.596923 32523 net.cpp:157] Top shape: 1 4096 (4096)
I0416 01:51:25.596926 32523 net.cpp:165] Memory required for data: 10172693172
I0416 01:51:25.596928 32523 layer_factory.hpp:77] Creating layer cls_score
I0416 01:51:25.596936 32523 net.cpp:100] Creating Layer cls_score
I0416 01:51:25.596940 32523 net.cpp:434] cls_score <- fc6_drop6_0_split_0
I0416 01:51:25.596946 32523 net.cpp:408] cls_score -> cls_score
I0416 01:51:25.604415 32523 net.cpp:150] Setting up cls_score
I0416 01:51:25.604436 32523 net.cpp:157] Top shape: 1 201 (201)
I0416 01:51:25.604441 32523 net.cpp:165] Memory required for data: 10172693976
I0416 01:51:25.604452 32523 layer_factory.hpp:77] Creating layer cls_score_cls_score_0_split
I0416 01:51:25.604462 32523 net.cpp:100] Creating Layer cls_score_cls_score_0_split
I0416 01:51:25.604467 32523 net.cpp:434] cls_score_cls_score_0_split <- cls_score
I0416 01:51:25.604475 32523 net.cpp:408] cls_score_cls_score_0_split -> cls_score_cls_score_0_split_0
I0416 01:51:25.604485 32523 net.cpp:408] cls_score_cls_score_0_split -> cls_score_cls_score_0_split_1
I0416 01:51:25.604542 32523 net.cpp:150] Setting up cls_score_cls_score_0_split
I0416 01:51:25.604550 32523 net.cpp:157] Top shape: 1 201 (201)
I0416 01:51:25.604555 32523 net.cpp:157] Top shape: 1 201 (201)
I0416 01:51:25.604559 32523 net.cpp:165] Memory required for data: 10172695584
I0416 01:51:25.604563 32523 layer_factory.hpp:77] Creating layer twin_pred
I0416 01:51:25.604575 32523 net.cpp:100] Creating Layer twin_pred
I0416 01:51:25.604581 32523 net.cpp:434] twin_pred <- fc6_drop6_0_split_1
I0416 01:51:25.604591 32523 net.cpp:408] twin_pred -> twin_pred
I0416 01:51:25.618584 32523 net.cpp:150] Setting up twin_pred
I0416 01:51:25.618613 32523 net.cpp:157] Top shape: 1 402 (402)
I0416 01:51:25.618618 32523 net.cpp:165] Memory required for data: 10172697192
I0416 01:51:25.618630 32523 layer_factory.hpp:77] Creating layer loss_cls
I0416 01:51:25.618644 32523 net.cpp:100] Creating Layer loss_cls
I0416 01:51:25.618652 32523 net.cpp:434] loss_cls <- cls_score_cls_score_0_split_0
I0416 01:51:25.618660 32523 net.cpp:434] loss_cls <- labels_roi-data_1_split_0
I0416 01:51:25.618667 32523 net.cpp:408] loss_cls -> loss_cls
…
