…
stepsize: 350000
snapshot: 0
snapshot_prefix: "./experiments/activitynet/snapshot/activitynet"
average_loss: 100
iter_size: 1
I0418 04:40:23.635113 12909 solver.cpp:81] Creating training net from train_net file: ./experiments/activitynet/train.prototxt
I0418 04:40:23.636183 12909 net.cpp:58] Initializing net from parameters: 
name: "activitynet"
state {
  phase: TRAIN
}
layer {
  name: "data"
  type: "Python"
  top: "data"
  top: "gt_boxes"
  python_param {
    module: "roi_data_layer.layer"
    layer: "RoIDataLayer"
    param_str: "\'num_classes\': 100"
  }
}
layer {
  name: "conv1a"
  type: "Convolution"
  bottom: "data"
  top: "conv1a"
  param {
    lr_mult: 0
    decay_mult: 0
  }
  param {
    lr_mult: 0
    decay_mult: 0
  }
  convolution_param {
    num_output: 64
    pad: 1
    pad: 1
    pad: 1
    kernel_size: 3
    kernel_size: 3
    kernel_size: 3
    weight_filler {
      type: "gaussian"
      std: 0.01
    }
    bias_filler {
      type: "constant"
      value: 0
    }
  }
}
layer {
  name: "relu1a"
  type: "ReLU"
  bottom: "conv1a"
  top: "conv1a"
}
layer {
  name: "pool1"
  type: "Pooling"
  bottom: "conv1a"
  top: "pool1"
  pooling_param {
    pool: MAX
    kernel_size: 1
    kernel_size: 2
    kernel_size: 2
    stride: 1
    stride: 2
    stride: 2
  }
}
layer {
  name: "conv2a"
  type: "Convolution"
  bottom: "pool1"
  top: "conv2a"
  param {
    lr_mult: 0
    decay_mult: 0
  }
  param {
    lr_mult: 0
    decay_mult: 0
  }
  convolution_param {
    num_output: 128
    pad: 1
    pad: 1
    pad: 1
    kernel_size: 3
    kernel_size: 3
    kernel_size: 3
    weight_filler {
      type: "gaussian"
      std: 0.01
    }
    bias_filler {
      type: "constant"
      value: 1
    }
  }
}
layer {
  name: "relu2a"
  type: "ReLU"
  bottom: "conv2a"
  top: "conv2a"
}
layer {
  name: "pool2"
  type: "Pooling"
  bottom: "conv2a"
  top: "pool2"
  pooling_param {
    pool: MAX
    kernel_size: 2
    kernel_size: 2
    kernel_size: 2
    stride: 2
    stride: 2
    stride: 2
  }
}
layer {
  name: "conv3a"
  type: "Convolution"
  bottom: "pool2"
  top: "conv3a"
  param {
    lr_mult: 1
    decay_mult: 1
  }
  param {
    lr_mult: 2
    decay_mult: 0
  }
  convolution_param {
    num_output: 256
    pad: 1
    pad: 1
    pad: 1
    kernel_size: 3
    kernel_size: 3
    kernel_size: 3
    weight_filler {
      type: "gaussian"
      std: 0.01
    }
    bias_filler {
      type: "constant"
      value: 1
    }
  }
}
layer {
  name: "relu3a"
  type: "ReLU"
  bottom: "conv3a"
  top: "conv3a"
}
layer {
  name: "conv3b"
  type: "Convolution"
  bottom: "conv3a"
  top: "conv3b"
  param {
    lr_mult: 1
    decay_mult: 1
  }
  param {
    lr_mult: 2
    decay_mult: 0
  }
  convolution_param {
    num_output: 256
    pad: 1
    pad: 1
    pad: 1
    kernel_size: 3
    kernel_size: 3
    kernel_size: 3
    weight_filler {
      type: "gaussian"
      std: 0.01
    }
    bias_filler {
      type: "constant"
      value: 1
    }
  }
}
layer {
  name: "relu3b"
  type: "ReLU"
  bottom: "conv3b"
  top: "conv3b"
}
layer {
  name: "pool3"
  type: "Pooling"
  bottom: "conv3b"
  top: "pool3"
  pooling_param {
    pool: MAX
    kernel_size: 2
    kernel_size: 2
    kernel_size: 2
    stride: 2
    stride: 2
    stride: 2
  }
}
layer {
  name: "conv4a"
  type: "Convolution"
  bottom: "pool3"
  top: "conv4a"
  param {
    lr_mult: 1
    decay_mult: 1
  }
  param {
    lr_mult: 2
    decay_mult: 0
  }
  convolution_param {
    num_output: 512
    pad: 1
    pad: 1
    pad: 1
    kernel_size: 3
    kernel_size: 3
    kernel_size: 3
    weight_filler {
      type: "gaussian"
      std: 0.01
    }
    bias_filler {
      type: "constant"
      value: 1
    }
  }
}
layer {
  name: "relu4a"
  type: "ReLU"
  bottom: "conv4a"
  top: "conv4a"
}
layer {
  name: "conv4b"
  type: "Convolution"
  bottom: "conv4a"
  top: "conv4b"
  param {
    lr_mult: 1
    decay_mult: 1
  }
  param {
    lr_mult: 2
    decay_mult: 0
  }
  convolution_param {
    num_output: 512
    pad: 1
    pad: 1
    pad: 1
    kernel_size: 3
    kernel_size: 3
    kernel_size: 3
    weight_filler {
      type: "gaussian"
      std: 0.01
    }
    bias_filler {
      type: "constant"
      value: 1
    }
  }
}
layer {
  name: "relu4b"
  type: "ReLU"
  bottom: "conv4b"
  top: "conv4b"
}
layer {
  name: "pool4"
  type: "Pooling"
  bottom: "conv4b"
  top: "pool4"
  pooling_param {
    pool: MAX
    kernel_size: 2
    kernel_size: 2
    kernel_size: 2
    stride: 2
    stride: 2
    stride: 2
  }
}
layer {
  name: "conv5a"
  type: "Convolution"
  bottom: "pool4"
  top: "conv5a"
  param {
    lr_mult: 1
    decay_mult: 1
  }
  param {
    lr_mult: 2
    decay_mult: 0
  }
  convolution_param {
    num_output: 512
    pad: 1
    pad: 1
    pad: 1
    kernel_size: 3
    kernel_size: 3
    kernel_size: 3
    weight_filler {
      type: "gaussian"
      std: 0.01
    }
    bias_filler {
      type: "constant"
      value: 1
    }
  }
}
layer {
  name: "relu5a"
  type: "ReLU"
  bottom: "conv5a"
  top: "conv5a"
}
layer {
  name: "conv5b"
  type: "Convolution"
  bottom: "conv5a"
  top: "conv5b"
  param {
    lr_mult: 1
    decay_mult: 1
  }
  param {
    lr_mult: 2
    decay_mult: 0
  }
  convolution_param {
    num_output: 512
    pad: 1
    pad: 1
    pad: 1
    kernel_size: 3
    kernel_size: 3
    kernel_size: 3
    weight_filler {
      type: "gaussian"
      std: 0.01
    }
    bias_filler {
      type: "constant"
      value: 1
    }
  }
}
layer {
  name: "relu5b"
  type: "ReLU"
  bottom: "conv5b"
  top: "conv5b"
}
layer {
  name: "rpn_conv/3x3"
  type: "Convolution"
  bottom: "conv5b"
  top: "rpn/output"
  param {
    lr_mult: 1
    decay_mult: 1
  }
  param {
    lr_mult: 2
    decay_mult: 0
  }
  convolution_param {
    num_output: 512
    pad: 1
    pad: 1
    pad: 1
    kernel_size: 3
    kernel_size: 3
    kernel_size: 3
    stride: 1
    stride: 2
    stride: 2
    weight_filler {
      type: "gaussian"
      std: 0.01
    }
    bias_filler {
      type: "constant"
      value: 0
    }
  }
}
layer {
  name: "rpn_relu/3x3"
  type: "ReLU"
  bottom: "rpn/output"
  top: "rpn/output"
}
layer {
  name: "rpn_conv/3x3_2"
  type: "Convolution"
  bottom: "rpn/output"
  top: "rpn/output_2"
  param {
    lr_mult: 1
    decay_mult: 1
  }
  param {
    lr_mult: 2
    decay_mult: 0
  }
  convolution_param {
    num_output: 512
    pad: 1
    pad: 1
    pad: 1
    kernel_size: 3
    kernel_size: 3
    kernel_size: 3
    stride: 1
    stride: 2
    stride: 2
    weight_filler {
      type: "gaussian"
      std: 0.01
    }
    bias_filler {
      type: "constant"
      value: 0
    }
  }
}
layer {
  name: "rpn_relu/3x3_2"
  type: "ReLU"
  bottom: "rpn/output_2"
  top: "rpn/output_2"
}
layer {
  name: "rpn/output_pool"
  type: "Pooling"
  bottom: "rpn/output_2"
  top: "rpn/output_pool"
  pooling_param {
    pool: MAX
    kernel_size: 1
    kernel_size: 2
    kernel_size: 2
  }
}
layer {
  name: "rpn_cls_score"
  type: "Convolution"
  bottom: "rpn/output_pool"
  top: "rpn_cls_score"
  param {
    lr_mult: 1
    decay_mult: 1
  }
  param {
    lr_mult: 2
    decay_mult: 0
  }
  convolution_param {
    num_output: 74
    kernel_size: 1
    kernel_size: 1
    kernel_size: 1
    weight_filler {
      type: "gaussian"
      std: 0.01
    }
    bias_filler {
      type: "constant"
      value: 0
    }
  }
}
layer {
  name: "rpn_twin_pred"
  type: "Convolution"
  bottom: "rpn/output_pool"
  top: "rpn_twin_pred"
  param {
    lr_mult: 1
    decay_mult: 1
  }
  param {
    lr_mult: 2
    decay_mult: 0
  }
  convolution_param {
    num_output: 74
    kernel_size: 1
    kernel_size: 1
    kernel_size: 1
    weight_filler {
      type: "gaussian"
      std: 0.01
    }
    bias_filler {
      type: "constant"
      value: 0
    }
  }
}
layer {
  name: "rpn_cls_score_reshape"
  type: "Reshape"
  bottom: "rpn_cls_score"
  top: "rpn_cls_score_reshape"
  reshape_param {
    shape {
      dim: 0
      dim: 2
      dim: -1
      dim: 0
      dim: 0
    }
  }
}
layer {
  name: "rpn-data"
  type: "Python"
  bottom: "rpn_cls_score"
  bottom: "gt_boxes"
  bottom: "data"
  top: "rpn_labels"
  top: "rpn_twin_targets"
  top: "rpn_twin_inside_weights"
  top: "rpn_twin_outside_weights"
  python_param {
    module: "rpn.anchor_target_layer"
    layer: "AnchorTargetLayer"
    param_str: "\'feat_stride\': 8 \n\'scales\': !!python/tuple [1,1.25, 1.5,1.75, 2,2.5, 3,3.5, 4,4.5, 5,5.5, 6,7, 8,9,10,11,12,14,16,18,20,22,24,28,32,36,40,44,52,60,68,76,84,92,100]"
  }
}
layer {
  name: "rpn_loss_cls"
  type: "SoftmaxWithLoss"
  bottom: "rpn_cls_score_reshape"
  bottom: "rpn_labels"
  top: "rpn_cls_loss"
  loss_weight: 1
  propagate_down: true
  propagate_down: false
  loss_param {
    ignore_label: -1
    normalize: true
  }
}
layer {
  name: "rpn_loss_twin"
  type: "SmoothL1Loss"
  bottom: "rpn_twin_pred"
  bottom: "rpn_twin_targets"
  bottom: "rpn_twin_inside_weights"
  bottom: "rpn_twin_outside_weights"
  top: "rpn_loss_twin"
  loss_weight: 1
  smooth_l1_loss_param {
    sigma: 3
  }
}
layer {
  name: "rpn_accuarcy"
  type: "Accuracy"
  bottom: "rpn_cls_score_reshape"
  bottom: "rpn_labels"
  top: "rpn_accuarcy"
  top: "rpn_accuarcy_class"
  propagate_down: false
  propagate_down: false
  accuracy_param {
    ignore_label: -1
  }
}
layer {
  name: "rpn_cls_prob"
  type: "Softmax"
  bottom: "rpn_cls_score_reshape"
  top: "rpn_cls_prob"
}
layer {
  name: "rpn_cls_prob_reshape"
  type: "Reshape"
  bottom: "rpn_cls_prob"
  top: "rpn_cls_prob_reshape"
  reshape_param {
    shape {
      dim: 0
      dim: 74
      dim: -1
      dim: 0
      dim: 0
    }
  }
}
layer {
  name: "proposal"
  type: "Python"
  bottom: "rpn_cls_prob_reshape"
  bottom: "rpn_twin_pred"
  top: "rpn_rois"
  include {
    phase: TRAIN
  }
  python_param {
    module: "rpn.proposal_layer"
    layer: "ProposalLayer"
    param_str: "\'feat_stride\': 8 \n\'scales\': !!python/tuple [1,1.25, 1.5,1.75, 2,2.5, 3,3.5, 4,4.5, 5,5.5, 6,7, 8,9,10,11,12,14,16,18,20,22,24,28,32,36,40,44,52,60,68,76,84,92,100]"
  }
}
layer {
  name: "roi-data"
  type: "Python"
  bottom: "rpn_rois"
  bottom: "gt_boxes"
  top: "rois"
  top: "labels"
  top: "twin_targets"
  top: "twin_inside_weights"
  top: "twin_outside_weights"
  python_param {
    module: "rpn.proposal_target_layer"
    layer: "ProposalTargetLayer"
    param_str: "\'num_classes\': 99"
  }
}
layer {
  name: "roi_pool5"
  type: "ROIPooling"
  bottom: "conv5b"
  bottom: "rois"
  top: "pool5"
  roi_pooling_param {
    pooled_h: 4
    pooled_w: 4
    spatial_scale: 0.0625
    pooled_l: 1
    temporal_scale: 0.125
  }
}
layer {
  name: "fc6"
  type: "InnerProduct"
  bottom: "pool5"
  top: "fc6"
  param {
    lr_mult: 1
    decay_mult: 1
  }
  param {
    lr_mult: 2
    decay_mult: 0
  }
  inner_product_param {
    num_output: 4096
    weight_filler {
      type: "gaussian"
      std: 0.005
    }
    bias_filler {
      type: "constant"
      value: 1
    }
  }
}
layer {
  name: "relu6"
  type: "ReLU"
  bottom: "fc6"
  top: "fc6"
}
layer {
  name: "drop6"
  type: "Dropout"
  bottom: "fc6"
  top: "fc6"
  dropout_param {
    dropout_ratio: 0.5
  }
}
layer {
  name: "cls_score"
  type: "InnerProduct"
  bottom: "fc6"
  top: "cls_score"
  param {
    lr_mult: 1
    decay_mult: 1
  }
  param {
    lr_mult: 2
    decay_mult: 0
  }
  inner_product_param {
    num_output: 1
    weight_filler {
      type: "gaussian"
      std: 0.01
    }
    bias_filler {
      type: "constant"
      value: 0
    }
  }
}
layer {
  name: "twin_pred"
  type: "InnerProduct"
  bottom: "fc6"
  top: "twin_pred"
  param {
    lr_mult: 1
    decay_mult: 1
  }
  param {
    lr_mult: 2
    decay_mult: 0
  }
  inner_product_param {
    num_output: 198
    weight_filler {
      type: "gaussian"
      std: 0.001
    }
    bias_filler {
      type: "constant"
      value: 0
    }
  }
}
layer {
  name: "loss_cls"
  type: "SigmoidCrossEntropyLoss"
  bottom: "cls_score"
  bottom: "labels"
  top: "loss_cls"
  loss_weight: 1
  propagate_down: true
  propagate_down: false
}
layer {
  name: "loss_twin"
  type: "SmoothL1Loss"
  bottom: "twin_pred"
  bottom: "twin_targets"
  bottom: "twin_inside_weights"
  bottom: "twin_outside_weights"
  top: "loss_twin"
  loss_weight: 1
}
layer {
  name: "accuarcy"
  type: "Accuracy"
  bottom: "cls_score"
  bottom: "labels"
  top: "accuarcy"
  propagate_down: false
  propagate_down: false
  accuracy_param {
    ignore_label: -1
  }
}
I0418 04:40:23.636392 12909 layer_factory.hpp:77] Creating layer data
I0418 04:40:23.661774 12909 net.cpp:100] Creating Layer data
I0418 04:40:23.661804 12909 net.cpp:408] data -> data
I0418 04:40:23.661819 12909 net.cpp:408] data -> gt_boxes
setting up
has rpn
RoiDataLayer: name_to_top: {'gt_windows': 1, 'data': 0}
I0418 04:40:23.675462 12909 net.cpp:150] Setting up data
I0418 04:40:23.675482 12909 net.cpp:157] Top shape: 1 3 768 112 112 (28901376)
I0418 04:40:23.675487 12909 net.cpp:157] Top shape: 1 101 (101)
I0418 04:40:23.675490 12909 net.cpp:165] Memory required for data: 115605908
I0418 04:40:23.675498 12909 layer_factory.hpp:77] Creating layer data_data_0_split
I0418 04:40:23.675508 12909 net.cpp:100] Creating Layer data_data_0_split
I0418 04:40:23.675513 12909 net.cpp:434] data_data_0_split <- data
I0418 04:40:23.675520 12909 net.cpp:408] data_data_0_split -> data_data_0_split_0
I0418 04:40:23.675530 12909 net.cpp:408] data_data_0_split -> data_data_0_split_1
I0418 04:40:23.675560 12909 net.cpp:150] Setting up data_data_0_split
I0418 04:40:23.675567 12909 net.cpp:157] Top shape: 1 3 768 112 112 (28901376)
I0418 04:40:23.675571 12909 net.cpp:157] Top shape: 1 3 768 112 112 (28901376)
I0418 04:40:23.675575 12909 net.cpp:165] Memory required for data: 346816916
I0418 04:40:23.675580 12909 layer_factory.hpp:77] Creating layer gt_boxes_data_1_split
I0418 04:40:23.675585 12909 net.cpp:100] Creating Layer gt_boxes_data_1_split
I0418 04:40:23.675588 12909 net.cpp:434] gt_boxes_data_1_split <- gt_boxes
I0418 04:40:23.675593 12909 net.cpp:408] gt_boxes_data_1_split -> gt_boxes_data_1_split_0
I0418 04:40:23.675599 12909 net.cpp:408] gt_boxes_data_1_split -> gt_boxes_data_1_split_1
I0418 04:40:23.675622 12909 net.cpp:150] Setting up gt_boxes_data_1_split
I0418 04:40:23.675629 12909 net.cpp:157] Top shape: 1 101 (101)
I0418 04:40:23.675634 12909 net.cpp:157] Top shape: 1 101 (101)
I0418 04:40:23.675637 12909 net.cpp:165] Memory required for data: 346817724
I0418 04:40:23.675642 12909 layer_factory.hpp:77] Creating layer conv1a
I0418 04:40:23.675659 12909 net.cpp:100] Creating Layer conv1a
I0418 04:40:23.675663 12909 net.cpp:434] conv1a <- data_data_0_split_0
I0418 04:40:23.675668 12909 net.cpp:408] conv1a -> conv1a
I0418 04:40:24.192986 12909 net.cpp:150] Setting up conv1a
I0418 04:40:24.193015 12909 net.cpp:157] Top shape: 1 64 768 112 112 (616562688)
I0418 04:40:24.193020 12909 net.cpp:165] Memory required for data: 2813068476
I0418 04:40:24.193042 12909 layer_factory.hpp:77] Creating layer relu1a
I0418 04:40:24.193058 12909 net.cpp:100] Creating Layer relu1a
I0418 04:40:24.193063 12909 net.cpp:434] relu1a <- conv1a
I0418 04:40:24.193069 12909 net.cpp:395] relu1a -> conv1a (in-place)
I0418 04:40:24.193843 12909 net.cpp:150] Setting up relu1a
I0418 04:40:24.193859 12909 net.cpp:157] Top shape: 1 64 768 112 112 (616562688)
I0418 04:40:24.193864 12909 net.cpp:165] Memory required for data: 5279319228
I0418 04:40:24.193869 12909 layer_factory.hpp:77] Creating layer pool1
I0418 04:40:24.193879 12909 net.cpp:100] Creating Layer pool1
I0418 04:40:24.193886 12909 net.cpp:434] pool1 <- conv1a
I0418 04:40:24.193892 12909 net.cpp:408] pool1 -> pool1
I0418 04:40:24.194067 12909 net.cpp:150] Setting up pool1
I0418 04:40:24.194080 12909 net.cpp:157] Top shape: 1 64 768 56 56 (154140672)
I0418 04:40:24.194087 12909 net.cpp:165] Memory required for data: 5895881916
I0418 04:40:24.194092 12909 layer_factory.hpp:77] Creating layer conv2a
I0418 04:40:24.194104 12909 net.cpp:100] Creating Layer conv2a
I0418 04:40:24.194111 12909 net.cpp:434] conv2a <- pool1
I0418 04:40:24.194118 12909 net.cpp:408] conv2a -> conv2a
I0418 04:40:24.206164 12909 net.cpp:150] Setting up conv2a
I0418 04:40:24.206185 12909 net.cpp:157] Top shape: 1 128 768 56 56 (308281344)
I0418 04:40:24.206190 12909 net.cpp:165] Memory required for data: 7129007292
I0418 04:40:24.206203 12909 layer_factory.hpp:77] Creating layer relu2a
I0418 04:40:24.206218 12909 net.cpp:100] Creating Layer relu2a
I0418 04:40:24.206224 12909 net.cpp:434] relu2a <- conv2a
I0418 04:40:24.206230 12909 net.cpp:395] relu2a -> conv2a (in-place)
I0418 04:40:24.206539 12909 net.cpp:150] Setting up relu2a
I0418 04:40:24.206553 12909 net.cpp:157] Top shape: 1 128 768 56 56 (308281344)
I0418 04:40:24.206557 12909 net.cpp:165] Memory required for data: 8362132668
I0418 04:40:24.206562 12909 layer_factory.hpp:77] Creating layer pool2
I0418 04:40:24.206571 12909 net.cpp:100] Creating Layer pool2
I0418 04:40:24.206578 12909 net.cpp:434] pool2 <- conv2a
I0418 04:40:24.206585 12909 net.cpp:408] pool2 -> pool2
I0418 04:40:24.206799 12909 net.cpp:150] Setting up pool2
I0418 04:40:24.206811 12909 net.cpp:157] Top shape: 1 128 384 28 28 (38535168)
I0418 04:40:24.206815 12909 net.cpp:165] Memory required for data: 8516273340
I0418 04:40:24.206818 12909 layer_factory.hpp:77] Creating layer conv3a
I0418 04:40:24.206830 12909 net.cpp:100] Creating Layer conv3a
I0418 04:40:24.206838 12909 net.cpp:434] conv3a <- pool2
I0418 04:40:24.206845 12909 net.cpp:408] conv3a -> conv3a
I0418 04:40:24.232177 12909 net.cpp:150] Setting up conv3a
I0418 04:40:24.232192 12909 net.cpp:157] Top shape: 1 256 384 28 28 (77070336)
I0418 04:40:24.232197 12909 net.cpp:165] Memory required for data: 8824554684
I0418 04:40:24.232208 12909 layer_factory.hpp:77] Creating layer relu3a
I0418 04:40:24.232218 12909 net.cpp:100] Creating Layer relu3a
I0418 04:40:24.232223 12909 net.cpp:434] relu3a <- conv3a
I0418 04:40:24.232231 12909 net.cpp:395] relu3a -> conv3a (in-place)
I0418 04:40:24.232525 12909 net.cpp:150] Setting up relu3a
I0418 04:40:24.232538 12909 net.cpp:157] Top shape: 1 256 384 28 28 (77070336)
I0418 04:40:24.232542 12909 net.cpp:165] Memory required for data: 9132836028
I0418 04:40:24.232547 12909 layer_factory.hpp:77] Creating layer conv3b
I0418 04:40:24.232558 12909 net.cpp:100] Creating Layer conv3b
I0418 04:40:24.232564 12909 net.cpp:434] conv3b <- conv3a
I0418 04:40:24.232570 12909 net.cpp:408] conv3b -> conv3b
I0418 04:40:24.281347 12909 net.cpp:150] Setting up conv3b
I0418 04:40:24.281369 12909 net.cpp:157] Top shape: 1 256 384 28 28 (77070336)
I0418 04:40:24.281373 12909 net.cpp:165] Memory required for data: 9441117372
I0418 04:40:24.281383 12909 layer_factory.hpp:77] Creating layer relu3b
I0418 04:40:24.281394 12909 net.cpp:100] Creating Layer relu3b
I0418 04:40:24.281399 12909 net.cpp:434] relu3b <- conv3b
I0418 04:40:24.281405 12909 net.cpp:395] relu3b -> conv3b (in-place)
I0418 04:40:24.281705 12909 net.cpp:150] Setting up relu3b
I0418 04:40:24.281720 12909 net.cpp:157] Top shape: 1 256 384 28 28 (77070336)
I0418 04:40:24.281724 12909 net.cpp:165] Memory required for data: 9749398716
I0418 04:40:24.281729 12909 layer_factory.hpp:77] Creating layer pool3
I0418 04:40:24.281741 12909 net.cpp:100] Creating Layer pool3
I0418 04:40:24.281749 12909 net.cpp:434] pool3 <- conv3b
I0418 04:40:24.281759 12909 net.cpp:408] pool3 -> pool3
I0418 04:40:24.281939 12909 net.cpp:150] Setting up pool3
I0418 04:40:24.281950 12909 net.cpp:157] Top shape: 1 256 192 14 14 (9633792)
I0418 04:40:24.281954 12909 net.cpp:165] Memory required for data: 9787933884
I0418 04:40:24.281957 12909 layer_factory.hpp:77] Creating layer conv4a
I0418 04:40:24.281970 12909 net.cpp:100] Creating Layer conv4a
I0418 04:40:24.281976 12909 net.cpp:434] conv4a <- pool3
I0418 04:40:24.281983 12909 net.cpp:408] conv4a -> conv4a
I0418 04:40:24.377629 12909 net.cpp:150] Setting up conv4a
I0418 04:40:24.377653 12909 net.cpp:157] Top shape: 1 512 192 14 14 (19267584)
I0418 04:40:24.377657 12909 net.cpp:165] Memory required for data: 9865004220
I0418 04:40:24.377671 12909 layer_factory.hpp:77] Creating layer relu4a
I0418 04:40:24.377682 12909 net.cpp:100] Creating Layer relu4a
I0418 04:40:24.377689 12909 net.cpp:434] relu4a <- conv4a
I0418 04:40:24.377696 12909 net.cpp:395] relu4a -> conv4a (in-place)
I0418 04:40:24.378017 12909 net.cpp:150] Setting up relu4a
I0418 04:40:24.378034 12909 net.cpp:157] Top shape: 1 512 192 14 14 (19267584)
I0418 04:40:24.378041 12909 net.cpp:165] Memory required for data: 9942074556
I0418 04:40:24.378047 12909 layer_factory.hpp:77] Creating layer conv4b
I0418 04:40:24.378067 12909 net.cpp:100] Creating Layer conv4b
I0418 04:40:24.378072 12909 net.cpp:434] conv4b <- conv4a
I0418 04:40:24.378085 12909 net.cpp:408] conv4b -> conv4b
I0418 04:40:24.572891 12909 net.cpp:150] Setting up conv4b
I0418 04:40:24.572914 12909 net.cpp:157] Top shape: 1 512 192 14 14 (19267584)
I0418 04:40:24.572918 12909 net.cpp:165] Memory required for data: 10019144892
I0418 04:40:24.572928 12909 layer_factory.hpp:77] Creating layer relu4b
I0418 04:40:24.572937 12909 net.cpp:100] Creating Layer relu4b
I0418 04:40:24.572945 12909 net.cpp:434] relu4b <- conv4b
I0418 04:40:24.572952 12909 net.cpp:395] relu4b -> conv4b (in-place)
I0418 04:40:24.573103 12909 net.cpp:150] Setting up relu4b
I0418 04:40:24.573113 12909 net.cpp:157] Top shape: 1 512 192 14 14 (19267584)
I0418 04:40:24.573117 12909 net.cpp:165] Memory required for data: 10096215228
I0418 04:40:24.573122 12909 layer_factory.hpp:77] Creating layer pool4
I0418 04:40:24.573129 12909 net.cpp:100] Creating Layer pool4
I0418 04:40:24.573133 12909 net.cpp:434] pool4 <- conv4b
I0418 04:40:24.573139 12909 net.cpp:408] pool4 -> pool4
I0418 04:40:24.573456 12909 net.cpp:150] Setting up pool4
I0418 04:40:24.573469 12909 net.cpp:157] Top shape: 1 512 96 7 7 (2408448)
I0418 04:40:24.573473 12909 net.cpp:165] Memory required for data: 10105849020
I0418 04:40:24.573477 12909 layer_factory.hpp:77] Creating layer conv5a
I0418 04:40:24.573488 12909 net.cpp:100] Creating Layer conv5a
I0418 04:40:24.573494 12909 net.cpp:434] conv5a <- pool4
I0418 04:40:24.573501 12909 net.cpp:408] conv5a -> conv5a
I0418 04:40:24.767814 12909 net.cpp:150] Setting up conv5a
I0418 04:40:24.767838 12909 net.cpp:157] Top shape: 1 512 96 7 7 (2408448)
I0418 04:40:24.767843 12909 net.cpp:165] Memory required for data: 10115482812
I0418 04:40:24.767853 12909 layer_factory.hpp:77] Creating layer relu5a
I0418 04:40:24.767863 12909 net.cpp:100] Creating Layer relu5a
I0418 04:40:24.767868 12909 net.cpp:434] relu5a <- conv5a
I0418 04:40:24.767875 12909 net.cpp:395] relu5a -> conv5a (in-place)
I0418 04:40:24.768282 12909 net.cpp:150] Setting up relu5a
I0418 04:40:24.768296 12909 net.cpp:157] Top shape: 1 512 96 7 7 (2408448)
I0418 04:40:24.768299 12909 net.cpp:165] Memory required for data: 10125116604
I0418 04:40:24.768303 12909 layer_factory.hpp:77] Creating layer conv5b
I0418 04:40:24.768316 12909 net.cpp:100] Creating Layer conv5b
I0418 04:40:24.768321 12909 net.cpp:434] conv5b <- conv5a
I0418 04:40:24.768326 12909 net.cpp:408] conv5b -> conv5b
I0418 04:40:24.961007 12909 net.cpp:150] Setting up conv5b
I0418 04:40:24.961041 12909 net.cpp:157] Top shape: 1 512 96 7 7 (2408448)
I0418 04:40:24.961046 12909 net.cpp:165] Memory required for data: 10134750396
I0418 04:40:24.961055 12909 layer_factory.hpp:77] Creating layer relu5b
I0418 04:40:24.961066 12909 net.cpp:100] Creating Layer relu5b
I0418 04:40:24.961071 12909 net.cpp:434] relu5b <- conv5b
I0418 04:40:24.961078 12909 net.cpp:395] relu5b -> conv5b (in-place)
I0418 04:40:24.961225 12909 net.cpp:150] Setting up relu5b
I0418 04:40:24.961236 12909 net.cpp:157] Top shape: 1 512 96 7 7 (2408448)
I0418 04:40:24.961239 12909 net.cpp:165] Memory required for data: 10144384188
I0418 04:40:24.961243 12909 layer_factory.hpp:77] Creating layer conv5b_relu5b_0_split
I0418 04:40:24.961251 12909 net.cpp:100] Creating Layer conv5b_relu5b_0_split
I0418 04:40:24.961254 12909 net.cpp:434] conv5b_relu5b_0_split <- conv5b
I0418 04:40:24.961259 12909 net.cpp:408] conv5b_relu5b_0_split -> conv5b_relu5b_0_split_0
I0418 04:40:24.961266 12909 net.cpp:408] conv5b_relu5b_0_split -> conv5b_relu5b_0_split_1
I0418 04:40:24.961309 12909 net.cpp:150] Setting up conv5b_relu5b_0_split
I0418 04:40:24.961318 12909 net.cpp:157] Top shape: 1 512 96 7 7 (2408448)
I0418 04:40:24.961323 12909 net.cpp:157] Top shape: 1 512 96 7 7 (2408448)
I0418 04:40:24.961325 12909 net.cpp:165] Memory required for data: 10163651772
I0418 04:40:24.961329 12909 layer_factory.hpp:77] Creating layer rpn_conv/3x3
I0418 04:40:24.961340 12909 net.cpp:100] Creating Layer rpn_conv/3x3
I0418 04:40:24.961347 12909 net.cpp:434] rpn_conv/3x3 <- conv5b_relu5b_0_split_0
I0418 04:40:24.961355 12909 net.cpp:408] rpn_conv/3x3 -> rpn/output
I0418 04:40:25.154585 12909 net.cpp:150] Setting up rpn_conv/3x3
I0418 04:40:25.154608 12909 net.cpp:157] Top shape: 1 512 96 4 4 (786432)
I0418 04:40:25.154613 12909 net.cpp:165] Memory required for data: 10166797500
I0418 04:40:25.154628 12909 layer_factory.hpp:77] Creating layer rpn_relu/3x3
I0418 04:40:25.154639 12909 net.cpp:100] Creating Layer rpn_relu/3x3
I0418 04:40:25.154646 12909 net.cpp:434] rpn_relu/3x3 <- rpn/output
I0418 04:40:25.154656 12909 net.cpp:395] rpn_relu/3x3 -> rpn/output (in-place)
I0418 04:40:25.155156 12909 net.cpp:150] Setting up rpn_relu/3x3
I0418 04:40:25.155170 12909 net.cpp:157] Top shape: 1 512 96 4 4 (786432)
I0418 04:40:25.155174 12909 net.cpp:165] Memory required for data: 10169943228
I0418 04:40:25.155179 12909 layer_factory.hpp:77] Creating layer rpn_conv/3x3_2
I0418 04:40:25.155190 12909 net.cpp:100] Creating Layer rpn_conv/3x3_2
I0418 04:40:25.155194 12909 net.cpp:434] rpn_conv/3x3_2 <- rpn/output
I0418 04:40:25.155201 12909 net.cpp:408] rpn_conv/3x3_2 -> rpn/output_2
I0418 04:40:25.345382 12909 net.cpp:150] Setting up rpn_conv/3x3_2
I0418 04:40:25.345413 12909 net.cpp:157] Top shape: 1 512 96 2 2 (196608)
I0418 04:40:25.345420 12909 net.cpp:165] Memory required for data: 10170729660
I0418 04:40:25.345430 12909 layer_factory.hpp:77] Creating layer rpn_relu/3x3_2
I0418 04:40:25.345440 12909 net.cpp:100] Creating Layer rpn_relu/3x3_2
I0418 04:40:25.345445 12909 net.cpp:434] rpn_relu/3x3_2 <- rpn/output_2
I0418 04:40:25.345451 12909 net.cpp:395] rpn_relu/3x3_2 -> rpn/output_2 (in-place)
I0418 04:40:25.345785 12909 net.cpp:150] Setting up rpn_relu/3x3_2
I0418 04:40:25.345798 12909 net.cpp:157] Top shape: 1 512 96 2 2 (196608)
I0418 04:40:25.345803 12909 net.cpp:165] Memory required for data: 10171516092
I0418 04:40:25.345808 12909 layer_factory.hpp:77] Creating layer rpn/output_pool
I0418 04:40:25.345814 12909 net.cpp:100] Creating Layer rpn/output_pool
I0418 04:40:25.345818 12909 net.cpp:434] rpn/output_pool <- rpn/output_2
I0418 04:40:25.345825 12909 net.cpp:408] rpn/output_pool -> rpn/output_pool
I0418 04:40:25.346045 12909 net.cpp:150] Setting up rpn/output_pool
I0418 04:40:25.346058 12909 net.cpp:157] Top shape: 1 512 96 1 1 (49152)
I0418 04:40:25.346063 12909 net.cpp:165] Memory required for data: 10171712700
I0418 04:40:25.346071 12909 layer_factory.hpp:77] Creating layer rpn/output_pool_rpn/output_pool_0_split
I0418 04:40:25.346081 12909 net.cpp:100] Creating Layer rpn/output_pool_rpn/output_pool_0_split
I0418 04:40:25.346092 12909 net.cpp:434] rpn/output_pool_rpn/output_pool_0_split <- rpn/output_pool
I0418 04:40:25.346099 12909 net.cpp:408] rpn/output_pool_rpn/output_pool_0_split -> rpn/output_pool_rpn/output_pool_0_split_0
I0418 04:40:25.346105 12909 net.cpp:408] rpn/output_pool_rpn/output_pool_0_split -> rpn/output_pool_rpn/output_pool_0_split_1
I0418 04:40:25.346143 12909 net.cpp:150] Setting up rpn/output_pool_rpn/output_pool_0_split
I0418 04:40:25.346151 12909 net.cpp:157] Top shape: 1 512 96 1 1 (49152)
I0418 04:40:25.346155 12909 net.cpp:157] Top shape: 1 512 96 1 1 (49152)
I0418 04:40:25.346159 12909 net.cpp:165] Memory required for data: 10172105916
I0418 04:40:25.346163 12909 layer_factory.hpp:77] Creating layer rpn_cls_score
I0418 04:40:25.346174 12909 net.cpp:100] Creating Layer rpn_cls_score
I0418 04:40:25.346177 12909 net.cpp:434] rpn_cls_score <- rpn/output_pool_rpn/output_pool_0_split_0
I0418 04:40:25.346184 12909 net.cpp:408] rpn_cls_score -> rpn_cls_score
I0418 04:40:25.348505 12909 net.cpp:150] Setting up rpn_cls_score
I0418 04:40:25.348520 12909 net.cpp:157] Top shape: 1 74 96 1 1 (7104)
I0418 04:40:25.348525 12909 net.cpp:165] Memory required for data: 10172134332
I0418 04:40:25.348534 12909 layer_factory.hpp:77] Creating layer rpn_cls_score_rpn_cls_score_0_split
I0418 04:40:25.348543 12909 net.cpp:100] Creating Layer rpn_cls_score_rpn_cls_score_0_split
I0418 04:40:25.348547 12909 net.cpp:434] rpn_cls_score_rpn_cls_score_0_split <- rpn_cls_score
I0418 04:40:25.348552 12909 net.cpp:408] rpn_cls_score_rpn_cls_score_0_split -> rpn_cls_score_rpn_cls_score_0_split_0
I0418 04:40:25.348562 12909 net.cpp:408] rpn_cls_score_rpn_cls_score_0_split -> rpn_cls_score_rpn_cls_score_0_split_1
I0418 04:40:25.348609 12909 net.cpp:150] Setting up rpn_cls_score_rpn_cls_score_0_split
I0418 04:40:25.348619 12909 net.cpp:157] Top shape: 1 74 96 1 1 (7104)
I0418 04:40:25.348623 12909 net.cpp:157] Top shape: 1 74 96 1 1 (7104)
I0418 04:40:25.348628 12909 net.cpp:165] Memory required for data: 10172191164
I0418 04:40:25.348631 12909 layer_factory.hpp:77] Creating layer rpn_twin_pred
I0418 04:40:25.348644 12909 net.cpp:100] Creating Layer rpn_twin_pred
I0418 04:40:25.348650 12909 net.cpp:434] rpn_twin_pred <- rpn/output_pool_rpn/output_pool_0_split_1
I0418 04:40:25.348656 12909 net.cpp:408] rpn_twin_pred -> rpn_twin_pred
I0418 04:40:25.350670 12909 net.cpp:150] Setting up rpn_twin_pred
I0418 04:40:25.350687 12909 net.cpp:157] Top shape: 1 74 96 1 1 (7104)
I0418 04:40:25.350690 12909 net.cpp:165] Memory required for data: 10172219580
I0418 04:40:25.350699 12909 layer_factory.hpp:77] Creating layer rpn_twin_pred_rpn_twin_pred_0_split
I0418 04:40:25.350708 12909 net.cpp:100] Creating Layer rpn_twin_pred_rpn_twin_pred_0_split
I0418 04:40:25.350718 12909 net.cpp:434] rpn_twin_pred_rpn_twin_pred_0_split <- rpn_twin_pred
I0418 04:40:25.350725 12909 net.cpp:408] rpn_twin_pred_rpn_twin_pred_0_split -> rpn_twin_pred_rpn_twin_pred_0_split_0
I0418 04:40:25.350734 12909 net.cpp:408] rpn_twin_pred_rpn_twin_pred_0_split -> rpn_twin_pred_rpn_twin_pred_0_split_1
I0418 04:40:25.350790 12909 net.cpp:150] Setting up rpn_twin_pred_rpn_twin_pred_0_split
I0418 04:40:25.350802 12909 net.cpp:157] Top shape: 1 74 96 1 1 (7104)
I0418 04:40:25.350809 12909 net.cpp:157] Top shape: 1 74 96 1 1 (7104)
I0418 04:40:25.350814 12909 net.cpp:165] Memory required for data: 10172276412
I0418 04:40:25.350818 12909 layer_factory.hpp:77] Creating layer rpn_cls_score_reshape
I0418 04:40:25.350829 12909 net.cpp:100] Creating Layer rpn_cls_score_reshape
I0418 04:40:25.350833 12909 net.cpp:434] rpn_cls_score_reshape <- rpn_cls_score_rpn_cls_score_0_split_0
I0418 04:40:25.350841 12909 net.cpp:408] rpn_cls_score_reshape -> rpn_cls_score_reshape
I0418 04:40:25.350870 12909 net.cpp:150] Setting up rpn_cls_score_reshape
I0418 04:40:25.350879 12909 net.cpp:157] Top shape: 1 2 3552 1 1 (7104)
I0418 04:40:25.350883 12909 net.cpp:165] Memory required for data: 10172304828
I0418 04:40:25.350885 12909 layer_factory.hpp:77] Creating layer rpn_cls_score_reshape_rpn_cls_score_reshape_0_split
I0418 04:40:25.350891 12909 net.cpp:100] Creating Layer rpn_cls_score_reshape_rpn_cls_score_reshape_0_split
I0418 04:40:25.350895 12909 net.cpp:434] rpn_cls_score_reshape_rpn_cls_score_reshape_0_split <- rpn_cls_score_reshape
I0418 04:40:25.350901 12909 net.cpp:408] rpn_cls_score_reshape_rpn_cls_score_reshape_0_split -> rpn_cls_score_reshape_rpn_cls_score_reshape_0_split_0
I0418 04:40:25.350909 12909 net.cpp:408] rpn_cls_score_reshape_rpn_cls_score_reshape_0_split -> rpn_cls_score_reshape_rpn_cls_score_reshape_0_split_1
I0418 04:40:25.350917 12909 net.cpp:408] rpn_cls_score_reshape_rpn_cls_score_reshape_0_split -> rpn_cls_score_reshape_rpn_cls_score_reshape_0_split_2
I0418 04:40:25.350958 12909 net.cpp:150] Setting up rpn_cls_score_reshape_rpn_cls_score_reshape_0_split
I0418 04:40:25.350966 12909 net.cpp:157] Top shape: 1 2 3552 1 1 (7104)
I0418 04:40:25.350970 12909 net.cpp:157] Top shape: 1 2 3552 1 1 (7104)
I0418 04:40:25.350975 12909 net.cpp:157] Top shape: 1 2 3552 1 1 (7104)
I0418 04:40:25.350977 12909 net.cpp:165] Memory required for data: 10172390076
I0418 04:40:25.350981 12909 layer_factory.hpp:77] Creating layer rpn-data
I0418 04:40:25.351382 12909 net.cpp:100] Creating Layer rpn-data
I0418 04:40:25.351393 12909 net.cpp:434] rpn-data <- rpn_cls_score_rpn_cls_score_0_split_1
I0418 04:40:25.351399 12909 net.cpp:434] rpn-data <- gt_boxes_data_1_split_0
I0418 04:40:25.351404 12909 net.cpp:434] rpn-data <- data_data_0_split_1
I0418 04:40:25.351413 12909 net.cpp:408] rpn-data -> rpn_labels
I0418 04:40:25.351420 12909 net.cpp:408] rpn-data -> rpn_twin_targets
I0418 04:40:25.351426 12909 net.cpp:408] rpn-data -> rpn_twin_inside_weights
I0418 04:40:25.351433 12909 net.cpp:408] rpn-data -> rpn_twin_outside_weights
I0418 04:40:25.353634 12909 net.cpp:150] Setting up rpn-data
I0418 04:40:25.353659 12909 net.cpp:157] Top shape: 1 1 3552 1 1 (3552)
I0418 04:40:25.353665 12909 net.cpp:157] Top shape: 1 74 96 1 1 (7104)
I0418 04:40:25.353669 12909 net.cpp:157] Top shape: 1 74 96 1 1 (7104)
I0418 04:40:25.353673 12909 net.cpp:157] Top shape: 1 74 96 1 1 (7104)
I0418 04:40:25.353677 12909 net.cpp:165] Memory required for data: 10172489532
I0418 04:40:25.353682 12909 layer_factory.hpp:77] Creating layer rpn_labels_rpn-data_0_split
I0418 04:40:25.353688 12909 net.cpp:100] Creating Layer rpn_labels_rpn-data_0_split
I0418 04:40:25.353691 12909 net.cpp:434] rpn_labels_rpn-data_0_split <- rpn_labels
I0418 04:40:25.353698 12909 net.cpp:408] rpn_labels_rpn-data_0_split -> rpn_labels_rpn-data_0_split_0
I0418 04:40:25.353704 12909 net.cpp:408] rpn_labels_rpn-data_0_split -> rpn_labels_rpn-data_0_split_1
I0418 04:40:25.353735 12909 net.cpp:150] Setting up rpn_labels_rpn-data_0_split
I0418 04:40:25.353744 12909 net.cpp:157] Top shape: 1 1 3552 1 1 (3552)
I0418 04:40:25.353749 12909 net.cpp:157] Top shape: 1 1 3552 1 1 (3552)
I0418 04:40:25.353752 12909 net.cpp:165] Memory required for data: 10172517948
I0418 04:40:25.353756 12909 layer_factory.hpp:77] Creating layer rpn_loss_cls
I0418 04:40:25.353765 12909 net.cpp:100] Creating Layer rpn_loss_cls
I0418 04:40:25.353770 12909 net.cpp:434] rpn_loss_cls <- rpn_cls_score_reshape_rpn_cls_score_reshape_0_split_0
I0418 04:40:25.353775 12909 net.cpp:434] rpn_loss_cls <- rpn_labels_rpn-data_0_split_0
…
I0418 04:40:25.354372 12909 layer_factory.hpp:77] Creating layer rpn_accuarcy
I0418 04:40:25.354380 12909 net.cpp:100] Creating Layer rpn_accuarcy
I0418 04:40:25.354387 12909 net.cpp:434] rpn_accuarcy <- rpn_cls_score_reshape_rpn_cls_score_reshape_0_split_1
I0418 04:40:25.354393 12909 net.cpp:434] rpn_accuarcy <- rpn_labels_rpn-data_0_split_1
I0418 04:40:25.354399 12909 net.cpp:408] rpn_accuarcy -> rpn_accuarcy
I0418 04:40:25.354408 12909 net.cpp:408] rpn_accuarcy -> rpn_accuarcy_class
I0418 04:40:25.354444 12909 net.cpp:150] Setting up rpn_accuarcy
I0418 04:40:25.354451 12909 net.cpp:157] Top shape: (1)
I0418 04:40:25.354456 12909 net.cpp:157] Top shape: 2 (2)
I0418 04:40:25.354460 12909 net.cpp:165] Memory required for data: 10172517968
I0418 04:40:25.354463 12909 layer_factory.hpp:77] Creating layer rpn_cls_prob
I0418 04:40:25.354468 12909 net.cpp:100] Creating Layer rpn_cls_prob
I0418 04:40:25.354472 12909 net.cpp:434] rpn_cls_prob <- rpn_cls_score_reshape_rpn_cls_score_reshape_0_split_2
I0418 04:40:25.354477 12909 net.cpp:408] rpn_cls_prob -> rpn_cls_prob
I0418 04:40:25.354670 12909 net.cpp:150] Setting up rpn_cls_prob
I0418 04:40:25.354681 12909 net.cpp:157] Top shape: 1 2 3552 1 1 (7104)
I0418 04:40:25.354684 12909 net.cpp:165] Memory required for data: 10172546384
I0418 04:40:25.354688 12909 layer_factory.hpp:77] Creating layer rpn_cls_prob_reshape
I0418 04:40:25.354696 12909 net.cpp:100] Creating Layer rpn_cls_prob_reshape
I0418 04:40:25.354701 12909 net.cpp:434] rpn_cls_prob_reshape <- rpn_cls_prob
I0418 04:40:25.354706 12909 net.cpp:408] rpn_cls_prob_reshape -> rpn_cls_prob_reshape
I0418 04:40:25.354730 12909 net.cpp:150] Setting up rpn_cls_prob_reshape
I0418 04:40:25.354738 12909 net.cpp:157] Top shape: 1 74 96 1 1 (7104)
I0418 04:40:25.354743 12909 net.cpp:165] Memory required for data: 10172574800
I0418 04:40:25.354745 12909 layer_factory.hpp:77] Creating layer proposal
I0418 04:40:25.355304 12909 net.cpp:100] Creating Layer proposal
I0418 04:40:25.355317 12909 net.cpp:434] proposal <- rpn_cls_prob_reshape
I0418 04:40:25.355324 12909 net.cpp:434] proposal <- rpn_twin_pred_rpn_twin_pred_0_split_1
I0418 04:40:25.355329 12909 net.cpp:408] proposal -> rpn_rois
I0418 04:40:25.357416 12909 net.cpp:150] Setting up proposal
I0418 04:40:25.357429 12909 net.cpp:157] Top shape: 1 3 (3)
I0418 04:40:25.357434 12909 net.cpp:165] Memory required for data: 10172574812
I0418 04:40:25.357439 12909 layer_factory.hpp:77] Creating layer roi-data
I0418 04:40:25.357579 12909 net.cpp:100] Creating Layer roi-data
I0418 04:40:25.357590 12909 net.cpp:434] roi-data <- rpn_rois
I0418 04:40:25.357595 12909 net.cpp:434] roi-data <- gt_boxes_data_1_split_1
I0418 04:40:25.357601 12909 net.cpp:408] roi-data -> rois
I0418 04:40:25.357610 12909 net.cpp:408] roi-data -> labels
I0418 04:40:25.357616 12909 net.cpp:408] roi-data -> twin_targets
I0418 04:40:25.357622 12909 net.cpp:408] roi-data -> twin_inside_weights
I0418 04:40:25.357628 12909 net.cpp:408] roi-data -> twin_outside_weights
I0418 04:40:25.357928 12909 net.cpp:150] Setting up roi-data
I0418 04:40:25.357941 12909 net.cpp:157] Top shape: 1 3 (3)
I0418 04:40:25.357946 12909 net.cpp:157] Top shape: 1 1 (1)
I0418 04:40:25.357950 12909 net.cpp:157] Top shape: 1 198 (198)
I0418 04:40:25.357954 12909 net.cpp:157] Top shape: 1 198 (198)
I0418 04:40:25.357957 12909 net.cpp:157] Top shape: 1 198 (198)
I0418 04:40:25.357971 12909 net.cpp:165] Memory required for data: 10172577204
I0418 04:40:25.357975 12909 layer_factory.hpp:77] Creating layer labels_roi-data_1_split
I0418 04:40:25.357981 12909 net.cpp:100] Creating Layer labels_roi-data_1_split
I0418 04:40:25.357985 12909 net.cpp:434] labels_roi-data_1_split <- labels
I0418 04:40:25.357990 12909 net.cpp:408] labels_roi-data_1_split -> labels_roi-data_1_split_0
I0418 04:40:25.357996 12909 net.cpp:408] labels_roi-data_1_split -> labels_roi-data_1_split_1
I0418 04:40:25.358038 12909 net.cpp:150] Setting up labels_roi-data_1_split
I0418 04:40:25.358047 12909 net.cpp:157] Top shape: 1 1 (1)
I0418 04:40:25.358050 12909 net.cpp:157] Top shape: 1 1 (1)
I0418 04:40:25.358054 12909 net.cpp:165] Memory required for data: 10172577212
I0418 04:40:25.358058 12909 layer_factory.hpp:77] Creating layer roi_pool5
I0418 04:40:25.358067 12909 net.cpp:100] Creating Layer roi_pool5
I0418 04:40:25.358074 12909 net.cpp:434] roi_pool5 <- conv5b_relu5b_0_split_1
I0418 04:40:25.358079 12909 net.cpp:434] roi_pool5 <- rois
I0418 04:40:25.358084 12909 net.cpp:408] roi_pool5 -> pool5
I0418 04:40:25.358093 12909 roi_pooling_layer.cpp:34] Temporal scale: 0.125
I0418 04:40:25.358098 12909 roi_pooling_layer.cpp:35] Spatial scale: 0.0625
I0418 04:40:25.358134 12909 net.cpp:150] Setting up roi_pool5
I0418 04:40:25.358141 12909 net.cpp:157] Top shape: 1 512 1 4 4 (8192)
I0418 04:40:25.358144 12909 net.cpp:165] Memory required for data: 10172609980
I0418 04:40:25.358148 12909 layer_factory.hpp:77] Creating layer fc6
I0418 04:40:25.358156 12909 net.cpp:100] Creating Layer fc6
I0418 04:40:25.358162 12909 net.cpp:434] fc6 <- pool5
I0418 04:40:25.358168 12909 net.cpp:408] fc6 -> fc6
I0418 04:40:26.263713 12909 net.cpp:150] Setting up fc6
I0418 04:40:26.263737 12909 net.cpp:157] Top shape: 1 4096 (4096)
I0418 04:40:26.263741 12909 net.cpp:165] Memory required for data: 10172626364
I0418 04:40:26.263751 12909 layer_factory.hpp:77] Creating layer relu6
I0418 04:40:26.263761 12909 net.cpp:100] Creating Layer relu6
I0418 04:40:26.263767 12909 net.cpp:434] relu6 <- fc6
I0418 04:40:26.263775 12909 net.cpp:395] relu6 -> fc6 (in-place)
I0418 04:40:26.264338 12909 net.cpp:150] Setting up relu6
I0418 04:40:26.264355 12909 net.cpp:157] Top shape: 1 4096 (4096)
I0418 04:40:26.264361 12909 net.cpp:165] Memory required for data: 10172642748
I0418 04:40:26.264367 12909 layer_factory.hpp:77] Creating layer drop6
I0418 04:40:26.264386 12909 net.cpp:100] Creating Layer drop6
I0418 04:40:26.264396 12909 net.cpp:434] drop6 <- fc6
I0418 04:40:26.264405 12909 net.cpp:395] drop6 -> fc6 (in-place)
I0418 04:40:26.264442 12909 net.cpp:150] Setting up drop6
I0418 04:40:26.264456 12909 net.cpp:157] Top shape: 1 4096 (4096)
I0418 04:40:26.264462 12909 net.cpp:165] Memory required for data: 10172659132
I0418 04:40:26.264467 12909 layer_factory.hpp:77] Creating layer fc6_drop6_0_split
I0418 04:40:26.264480 12909 net.cpp:100] Creating Layer fc6_drop6_0_split
I0418 04:40:26.264487 12909 net.cpp:434] fc6_drop6_0_split <- fc6
I0418 04:40:26.264495 12909 net.cpp:408] fc6_drop6_0_split -> fc6_drop6_0_split_0
I0418 04:40:26.264505 12909 net.cpp:408] fc6_drop6_0_split -> fc6_drop6_0_split_1
I0418 04:40:26.264562 12909 net.cpp:150] Setting up fc6_drop6_0_split
I0418 04:40:26.264575 12909 net.cpp:157] Top shape: 1 4096 (4096)
I0418 04:40:26.264583 12909 net.cpp:157] Top shape: 1 4096 (4096)
I0418 04:40:26.264592 12909 net.cpp:165] Memory required for data: 10172691900
I0418 04:40:26.264598 12909 layer_factory.hpp:77] Creating layer cls_score
I0418 04:40:26.264609 12909 net.cpp:100] Creating Layer cls_score
I0418 04:40:26.264616 12909 net.cpp:434] cls_score <- fc6_drop6_0_split_0
I0418 04:40:26.264629 12909 net.cpp:408] cls_score -> cls_score
I0418 04:40:26.264861 12909 net.cpp:150] Setting up cls_score
I0418 04:40:26.264873 12909 net.cpp:157] Top shape: 1 1 (1)
I0418 04:40:26.264878 12909 net.cpp:165] Memory required for data: 10172691904
I0418 04:40:26.264889 12909 layer_factory.hpp:77] Creating layer cls_score_cls_score_0_split
I0418 04:40:26.264897 12909 net.cpp:100] Creating Layer cls_score_cls_score_0_split
I0418 04:40:26.264904 12909 net.cpp:434] cls_score_cls_score_0_split <- cls_score
I0418 04:40:26.264911 12909 net.cpp:408] cls_score_cls_score_0_split -> cls_score_cls_score_0_split_0
I0418 04:40:26.264917 12909 net.cpp:408] cls_score_cls_score_0_split -> cls_score_cls_score_0_split_1
I0418 04:40:26.264955 12909 net.cpp:150] Setting up cls_score_cls_score_0_split
I0418 04:40:26.264964 12909 net.cpp:157] Top shape: 1 1 (1)
I0418 04:40:26.264968 12909 net.cpp:157] Top shape: 1 1 (1)
I0418 04:40:26.264971 12909 net.cpp:165] Memory required for data: 10172691912
I0418 04:40:26.264976 12909 layer_factory.hpp:77] Creating layer twin_pred
I0418 04:40:26.264981 12909 net.cpp:100] Creating Layer twin_pred
I0418 04:40:26.264986 12909 net.cpp:434] twin_pred <- fc6_drop6_0_split_1
I0418 04:40:26.264991 12909 net.cpp:408] twin_pred -> twin_pred
I0418 04:40:26.286496 12909 net.cpp:150] Setting up twin_pred
I0418 04:40:26.286512 12909 net.cpp:157] Top shape: 1 198 (198)
I0418 04:40:26.286516 12909 net.cpp:165] Memory required for data: 10172692704
I0418 04:40:26.286523 12909 layer_factory.hpp:77] Creating layer loss_cls
I0418 04:40:26.286536 12909 net.cpp:100] Creating Layer loss_cls
I0418 04:40:26.286545 12909 net.cpp:434] loss_cls <- cls_score_cls_score_0_split_0
I0418 04:40:26.286552 12909 net.cpp:434] loss_cls <- labels_roi-data_1_split_0
I0418 04:40:26.286557 12909 net.cpp:408] loss_cls -> loss_cls
…
