…
stepsize: 350000
snapshot: 0
snapshot_prefix: "./experiments/activitynet/snapshot/activitynet"
average_loss: 100
iter_size: 1
I0418 03:47:11.738117  9143 solver.cpp:81] Creating training net from train_net file: ./experiments/activitynet/train.prototxt
I0418 03:47:11.739169  9143 net.cpp:58] Initializing net from parameters: 
name: "activitynet"
state {
  phase: TRAIN
}
layer {
  name: "data"
  type: "Python"
  top: "data"
  top: "gt_boxes"
  python_param {
    module: "roi_data_layer.layer"
    layer: "RoIDataLayer"
    param_str: "\'num_classes\': 100"
  }
}
layer {
  name: "conv1a"
  type: "Convolution"
  bottom: "data"
  top: "conv1a"
  param {
    lr_mult: 0
    decay_mult: 0
  }
  param {
    lr_mult: 0
    decay_mult: 0
  }
  convolution_param {
    num_output: 64
    pad: 1
    pad: 1
    pad: 1
    kernel_size: 3
    kernel_size: 3
    kernel_size: 3
    weight_filler {
      type: "gaussian"
      std: 0.01
    }
    bias_filler {
      type: "constant"
      value: 0
    }
  }
}
layer {
  name: "relu1a"
  type: "ReLU"
  bottom: "conv1a"
  top: "conv1a"
}
layer {
  name: "pool1"
  type: "Pooling"
  bottom: "conv1a"
  top: "pool1"
  pooling_param {
    pool: MAX
    kernel_size: 1
    kernel_size: 2
    kernel_size: 2
    stride: 1
    stride: 2
    stride: 2
  }
}
layer {
  name: "conv2a"
  type: "Convolution"
  bottom: "pool1"
  top: "conv2a"
  param {
    lr_mult: 0
    decay_mult: 0
  }
  param {
    lr_mult: 0
    decay_mult: 0
  }
  convolution_param {
    num_output: 128
    pad: 1
    pad: 1
    pad: 1
    kernel_size: 3
    kernel_size: 3
    kernel_size: 3
    weight_filler {
      type: "gaussian"
      std: 0.01
    }
    bias_filler {
      type: "constant"
      value: 1
    }
  }
}
layer {
  name: "relu2a"
  type: "ReLU"
  bottom: "conv2a"
  top: "conv2a"
}
layer {
  name: "pool2"
  type: "Pooling"
  bottom: "conv2a"
  top: "pool2"
  pooling_param {
    pool: MAX
    kernel_size: 2
    kernel_size: 2
    kernel_size: 2
    stride: 2
    stride: 2
    stride: 2
  }
}
layer {
  name: "conv3a"
  type: "Convolution"
  bottom: "pool2"
  top: "conv3a"
  param {
    lr_mult: 1
    decay_mult: 1
  }
  param {
    lr_mult: 2
    decay_mult: 0
  }
  convolution_param {
    num_output: 256
    pad: 1
    pad: 1
    pad: 1
    kernel_size: 3
    kernel_size: 3
    kernel_size: 3
    weight_filler {
      type: "gaussian"
      std: 0.01
    }
    bias_filler {
      type: "constant"
      value: 1
    }
  }
}
layer {
  name: "relu3a"
  type: "ReLU"
  bottom: "conv3a"
  top: "conv3a"
}
layer {
  name: "conv3b"
  type: "Convolution"
  bottom: "conv3a"
  top: "conv3b"
  param {
    lr_mult: 1
    decay_mult: 1
  }
  param {
    lr_mult: 2
    decay_mult: 0
  }
  convolution_param {
    num_output: 256
    pad: 1
    pad: 1
    pad: 1
    kernel_size: 3
    kernel_size: 3
    kernel_size: 3
    weight_filler {
      type: "gaussian"
      std: 0.01
    }
    bias_filler {
      type: "constant"
      value: 1
    }
  }
}
layer {
  name: "relu3b"
  type: "ReLU"
  bottom: "conv3b"
  top: "conv3b"
}
layer {
  name: "pool3"
  type: "Pooling"
  bottom: "conv3b"
  top: "pool3"
  pooling_param {
    pool: MAX
    kernel_size: 2
    kernel_size: 2
    kernel_size: 2
    stride: 2
    stride: 2
    stride: 2
  }
}
layer {
  name: "conv4a"
  type: "Convolution"
  bottom: "pool3"
  top: "conv4a"
  param {
    lr_mult: 1
    decay_mult: 1
  }
  param {
    lr_mult: 2
    decay_mult: 0
  }
  convolution_param {
    num_output: 512
    pad: 1
    pad: 1
    pad: 1
    kernel_size: 3
    kernel_size: 3
    kernel_size: 3
    weight_filler {
      type: "gaussian"
      std: 0.01
    }
    bias_filler {
      type: "constant"
      value: 1
    }
  }
}
layer {
  name: "relu4a"
  type: "ReLU"
  bottom: "conv4a"
  top: "conv4a"
}
layer {
  name: "conv4b"
  type: "Convolution"
  bottom: "conv4a"
  top: "conv4b"
  param {
    lr_mult: 1
    decay_mult: 1
  }
  param {
    lr_mult: 2
    decay_mult: 0
  }
  convolution_param {
    num_output: 512
    pad: 1
    pad: 1
    pad: 1
    kernel_size: 3
    kernel_size: 3
    kernel_size: 3
    weight_filler {
      type: "gaussian"
      std: 0.01
    }
    bias_filler {
      type: "constant"
      value: 1
    }
  }
}
layer {
  name: "relu4b"
  type: "ReLU"
  bottom: "conv4b"
  top: "conv4b"
}
layer {
  name: "pool4"
  type: "Pooling"
  bottom: "conv4b"
  top: "pool4"
  pooling_param {
    pool: MAX
    kernel_size: 2
    kernel_size: 2
    kernel_size: 2
    stride: 2
    stride: 2
    stride: 2
  }
}
layer {
  name: "conv5a"
  type: "Convolution"
  bottom: "pool4"
  top: "conv5a"
  param {
    lr_mult: 1
    decay_mult: 1
  }
  param {
    lr_mult: 2
    decay_mult: 0
  }
  convolution_param {
    num_output: 512
    pad: 1
    pad: 1
    pad: 1
    kernel_size: 3
    kernel_size: 3
    kernel_size: 3
    weight_filler {
      type: "gaussian"
      std: 0.01
    }
    bias_filler {
      type: "constant"
      value: 1
    }
  }
}
layer {
  name: "relu5a"
  type: "ReLU"
  bottom: "conv5a"
  top: "conv5a"
}
layer {
  name: "conv5b"
  type: "Convolution"
  bottom: "conv5a"
  top: "conv5b"
  param {
    lr_mult: 1
    decay_mult: 1
  }
  param {
    lr_mult: 2
    decay_mult: 0
  }
  convolution_param {
    num_output: 512
    pad: 1
    pad: 1
    pad: 1
    kernel_size: 3
    kernel_size: 3
    kernel_size: 3
    weight_filler {
      type: "gaussian"
      std: 0.01
    }
    bias_filler {
      type: "constant"
      value: 1
    }
  }
}
layer {
  name: "relu5b"
  type: "ReLU"
  bottom: "conv5b"
  top: "conv5b"
}
layer {
  name: "rpn_conv/3x3"
  type: "Convolution"
  bottom: "conv5b"
  top: "rpn/output"
  param {
    lr_mult: 1
    decay_mult: 1
  }
  param {
    lr_mult: 2
    decay_mult: 0
  }
  convolution_param {
    num_output: 512
    pad: 1
    pad: 1
    pad: 1
    kernel_size: 3
    kernel_size: 3
    kernel_size: 3
    stride: 1
    stride: 2
    stride: 2
    weight_filler {
      type: "gaussian"
      std: 0.01
    }
    bias_filler {
      type: "constant"
      value: 0
    }
  }
}
layer {
  name: "rpn_relu/3x3"
  type: "ReLU"
  bottom: "rpn/output"
  top: "rpn/output"
}
layer {
  name: "rpn_conv/3x3_2"
  type: "Convolution"
  bottom: "rpn/output"
  top: "rpn/output_2"
  param {
    lr_mult: 1
    decay_mult: 1
  }
  param {
    lr_mult: 2
    decay_mult: 0
  }
  convolution_param {
    num_output: 512
    pad: 1
    pad: 1
    pad: 1
    kernel_size: 3
    kernel_size: 3
    kernel_size: 3
    stride: 1
    stride: 2
    stride: 2
    weight_filler {
      type: "gaussian"
      std: 0.01
    }
    bias_filler {
      type: "constant"
      value: 0
    }
  }
}
layer {
  name: "rpn_relu/3x3_2"
  type: "ReLU"
  bottom: "rpn/output_2"
  top: "rpn/output_2"
}
layer {
  name: "rpn/output_pool"
  type: "Pooling"
  bottom: "rpn/output_2"
  top: "rpn/output_pool"
  pooling_param {
    pool: MAX
    kernel_size: 1
    kernel_size: 2
    kernel_size: 2
  }
}
layer {
  name: "rpn_cls_score"
  type: "Convolution"
  bottom: "rpn/output_pool"
  top: "rpn_cls_score"
  param {
    lr_mult: 1
    decay_mult: 1
  }
  param {
    lr_mult: 2
    decay_mult: 0
  }
  convolution_param {
    num_output: 74
    kernel_size: 1
    kernel_size: 1
    kernel_size: 1
    weight_filler {
      type: "gaussian"
      std: 0.01
    }
    bias_filler {
      type: "constant"
      value: 0
    }
  }
}
layer {
  name: "rpn_twin_pred"
  type: "Convolution"
  bottom: "rpn/output_pool"
  top: "rpn_twin_pred"
  param {
    lr_mult: 1
    decay_mult: 1
  }
  param {
    lr_mult: 2
    decay_mult: 0
  }
  convolution_param {
    num_output: 74
    kernel_size: 1
    kernel_size: 1
    kernel_size: 1
    weight_filler {
      type: "gaussian"
      std: 0.01
    }
    bias_filler {
      type: "constant"
      value: 0
    }
  }
}
layer {
  name: "rpn_cls_score_reshape"
  type: "Reshape"
  bottom: "rpn_cls_score"
  top: "rpn_cls_score_reshape"
  reshape_param {
    shape {
      dim: 0
      dim: 2
      dim: -1
      dim: 0
      dim: 0
    }
  }
}
layer {
  name: "rpn-data"
  type: "Python"
  bottom: "rpn_cls_score"
  bottom: "gt_boxes"
  bottom: "data"
  top: "rpn_labels"
  top: "rpn_twin_targets"
  top: "rpn_twin_inside_weights"
  top: "rpn_twin_outside_weights"
  python_param {
    module: "rpn.anchor_target_layer"
    layer: "AnchorTargetLayer"
    param_str: "\'feat_stride\': 8 \n\'scales\': !!python/tuple [1,1.25, 1.5,1.75, 2,2.5, 3,3.5, 4,4.5, 5,5.5, 6,7, 8,9,10,11,12,14,16,18,20,22,24,28,32,36,40,44,52,60,68,76,84,92,100]"
  }
}
layer {
  name: "rpn_loss_cls"
  type: "SoftmaxWithLoss"
  bottom: "rpn_cls_score_reshape"
  bottom: "rpn_labels"
  top: "rpn_cls_loss"
  loss_weight: 1
  propagate_down: true
  propagate_down: false
  loss_param {
    ignore_label: -1
    normalize: true
  }
}
layer {
  name: "rpn_loss_twin"
  type: "SmoothL1Loss"
  bottom: "rpn_twin_pred"
  bottom: "rpn_twin_targets"
  bottom: "rpn_twin_inside_weights"
  bottom: "rpn_twin_outside_weights"
  top: "rpn_loss_twin"
  loss_weight: 1
  smooth_l1_loss_param {
    sigma: 3
  }
}
layer {
  name: "rpn_accuarcy"
  type: "Accuracy"
  bottom: "rpn_cls_score_reshape"
  bottom: "rpn_labels"
  top: "rpn_accuarcy"
  top: "rpn_accuarcy_class"
  propagate_down: false
  propagate_down: false
  accuracy_param {
    ignore_label: -1
  }
}
layer {
  name: "rpn_cls_prob"
  type: "Softmax"
  bottom: "rpn_cls_score_reshape"
  top: "rpn_cls_prob"
}
layer {
  name: "rpn_cls_prob_reshape"
  type: "Reshape"
  bottom: "rpn_cls_prob"
  top: "rpn_cls_prob_reshape"
  reshape_param {
    shape {
      dim: 0
      dim: 74
      dim: -1
      dim: 0
      dim: 0
    }
  }
}
layer {
  name: "proposal"
  type: "Python"
  bottom: "rpn_cls_prob_reshape"
  bottom: "rpn_twin_pred"
  top: "rpn_rois"
  include {
    phase: TRAIN
  }
  python_param {
    module: "rpn.proposal_layer"
    layer: "ProposalLayer"
    param_str: "\'feat_stride\': 8 \n\'scales\': !!python/tuple [1,1.25, 1.5,1.75, 2,2.5, 3,3.5, 4,4.5, 5,5.5, 6,7, 8,9,10,11,12,14,16,18,20,22,24,28,32,36,40,44,52,60,68,76,84,92,100]"
  }
}
layer {
  name: "roi-data"
  type: "Python"
  bottom: "rpn_rois"
  bottom: "gt_boxes"
  top: "rois"
  top: "labels"
  top: "twin_targets"
  top: "twin_inside_weights"
  top: "twin_outside_weights"
  python_param {
    module: "rpn.proposal_target_layer"
    layer: "ProposalTargetLayer"
    param_str: "\'num_classes\': 201"
  }
}
layer {
  name: "roi_pool5"
  type: "ROIPooling"
  bottom: "conv5b"
  bottom: "rois"
  top: "pool5"
  roi_pooling_param {
    pooled_h: 4
    pooled_w: 4
    spatial_scale: 0.0625
    pooled_l: 1
    temporal_scale: 0.125
  }
}
layer {
  name: "fc6"
  type: "InnerProduct"
  bottom: "pool5"
  top: "fc6"
  param {
    lr_mult: 1
    decay_mult: 1
  }
  param {
    lr_mult: 2
    decay_mult: 0
  }
  inner_product_param {
    num_output: 4096
    weight_filler {
      type: "gaussian"
      std: 0.005
    }
    bias_filler {
      type: "constant"
      value: 1
    }
  }
}
layer {
  name: "relu6"
  type: "ReLU"
  bottom: "fc6"
  top: "fc6"
}
layer {
  name: "drop6"
  type: "Dropout"
  bottom: "fc6"
  top: "fc6"
  dropout_param {
    dropout_ratio: 0.5
  }
}
layer {
  name: "cls_score"
  type: "InnerProduct"
  bottom: "fc6"
  top: "cls_score"
  param {
    lr_mult: 1
    decay_mult: 1
  }
  param {
    lr_mult: 2
    decay_mult: 0
  }
  inner_product_param {
    num_output: 19899
    weight_filler {
      type: "gaussian"
      std: 0.01
    }
    bias_filler {
      type: "constant"
      value: 0
    }
  }
}
layer {
  name: "twin_pred"
  type: "InnerProduct"
  bottom: "fc6"
  top: "twin_pred"
  param {
    lr_mult: 1
    decay_mult: 1
  }
  param {
    lr_mult: 2
    decay_mult: 0
  }
  inner_product_param {
    num_output: 402
    weight_filler {
      type: "gaussian"
      std: 0.001
    }
    bias_filler {
      type: "constant"
      value: 0
    }
  }
}
layer {
  name: "loss_cls"
  type: "SoftmaxWithLoss"
  bottom: "cls_score"
  bottom: "labels"
  top: "loss_cls"
  loss_weight: 1
  propagate_down: true
  propagate_down: false
}
layer {
  name: "loss_twin"
  type: "SmoothL1Loss"
  bottom: "twin_pred"
  bottom: "twin_targets"
  bottom: "twin_inside_weights"
  bottom: "twin_outside_weights"
  top: "loss_twin"
  loss_weight: 1
}
layer {
  name: "accuarcy"
  type: "Accuracy"
  bottom: "cls_score"
  bottom: "labels"
  top: "accuarcy"
  propagate_down: false
  propagate_down: false
  accuracy_param {
    ignore_label: -1
  }
}
I0418 03:47:11.739384  9143 layer_factory.hpp:77] Creating layer data
I0418 03:47:11.764400  9143 net.cpp:100] Creating Layer data
I0418 03:47:11.764430  9143 net.cpp:408] data -> data
I0418 03:47:11.764442  9143 net.cpp:408] data -> gt_boxes
setting up
has rpn
RoiDataLayer: name_to_top: {'gt_windows': 1, 'data': 0}
I0418 03:47:11.780009  9143 net.cpp:150] Setting up data
I0418 03:47:11.780032  9143 net.cpp:157] Top shape: 1 3 768 112 112 (28901376)
I0418 03:47:11.780037  9143 net.cpp:157] Top shape: 1 101 (101)
I0418 03:47:11.780041  9143 net.cpp:165] Memory required for data: 115605908
I0418 03:47:11.780048  9143 layer_factory.hpp:77] Creating layer data_data_0_split
I0418 03:47:11.780061  9143 net.cpp:100] Creating Layer data_data_0_split
I0418 03:47:11.780066  9143 net.cpp:434] data_data_0_split <- data
I0418 03:47:11.780072  9143 net.cpp:408] data_data_0_split -> data_data_0_split_0
I0418 03:47:11.780082  9143 net.cpp:408] data_data_0_split -> data_data_0_split_1
I0418 03:47:11.780117  9143 net.cpp:150] Setting up data_data_0_split
I0418 03:47:11.780124  9143 net.cpp:157] Top shape: 1 3 768 112 112 (28901376)
I0418 03:47:11.780129  9143 net.cpp:157] Top shape: 1 3 768 112 112 (28901376)
I0418 03:47:11.780133  9143 net.cpp:165] Memory required for data: 346816916
I0418 03:47:11.780138  9143 layer_factory.hpp:77] Creating layer gt_boxes_data_1_split
I0418 03:47:11.780143  9143 net.cpp:100] Creating Layer gt_boxes_data_1_split
I0418 03:47:11.780148  9143 net.cpp:434] gt_boxes_data_1_split <- gt_boxes
I0418 03:47:11.780153  9143 net.cpp:408] gt_boxes_data_1_split -> gt_boxes_data_1_split_0
I0418 03:47:11.780158  9143 net.cpp:408] gt_boxes_data_1_split -> gt_boxes_data_1_split_1
I0418 03:47:11.780190  9143 net.cpp:150] Setting up gt_boxes_data_1_split
I0418 03:47:11.780196  9143 net.cpp:157] Top shape: 1 101 (101)
I0418 03:47:11.780200  9143 net.cpp:157] Top shape: 1 101 (101)
I0418 03:47:11.780203  9143 net.cpp:165] Memory required for data: 346817724
I0418 03:47:11.780207  9143 layer_factory.hpp:77] Creating layer conv1a
I0418 03:47:11.780223  9143 net.cpp:100] Creating Layer conv1a
I0418 03:47:11.780227  9143 net.cpp:434] conv1a <- data_data_0_split_0
I0418 03:47:11.780234  9143 net.cpp:408] conv1a -> conv1a
I0418 03:47:12.042245  9143 net.cpp:150] Setting up conv1a
I0418 03:47:12.042274  9143 net.cpp:157] Top shape: 1 64 768 112 112 (616562688)
I0418 03:47:12.042279  9143 net.cpp:165] Memory required for data: 2813068476
I0418 03:47:12.042295  9143 layer_factory.hpp:77] Creating layer relu1a
I0418 03:47:12.042309  9143 net.cpp:100] Creating Layer relu1a
I0418 03:47:12.042313  9143 net.cpp:434] relu1a <- conv1a
I0418 03:47:12.042320  9143 net.cpp:395] relu1a -> conv1a (in-place)
I0418 03:47:12.043020  9143 net.cpp:150] Setting up relu1a
I0418 03:47:12.043033  9143 net.cpp:157] Top shape: 1 64 768 112 112 (616562688)
I0418 03:47:12.043037  9143 net.cpp:165] Memory required for data: 5279319228
I0418 03:47:12.043041  9143 layer_factory.hpp:77] Creating layer pool1
I0418 03:47:12.043051  9143 net.cpp:100] Creating Layer pool1
I0418 03:47:12.043054  9143 net.cpp:434] pool1 <- conv1a
I0418 03:47:12.043061  9143 net.cpp:408] pool1 -> pool1
I0418 03:47:12.043248  9143 net.cpp:150] Setting up pool1
I0418 03:47:12.043265  9143 net.cpp:157] Top shape: 1 64 768 56 56 (154140672)
I0418 03:47:12.043272  9143 net.cpp:165] Memory required for data: 5895881916
I0418 03:47:12.043277  9143 layer_factory.hpp:77] Creating layer conv2a
I0418 03:47:12.043293  9143 net.cpp:100] Creating Layer conv2a
I0418 03:47:12.043303  9143 net.cpp:434] conv2a <- pool1
I0418 03:47:12.043313  9143 net.cpp:408] conv2a -> conv2a
I0418 03:47:12.055109  9143 net.cpp:150] Setting up conv2a
I0418 03:47:12.055131  9143 net.cpp:157] Top shape: 1 128 768 56 56 (308281344)
I0418 03:47:12.055135  9143 net.cpp:165] Memory required for data: 7129007292
I0418 03:47:12.055147  9143 layer_factory.hpp:77] Creating layer relu2a
I0418 03:47:12.055155  9143 net.cpp:100] Creating Layer relu2a
I0418 03:47:12.055160  9143 net.cpp:434] relu2a <- conv2a
I0418 03:47:12.055166  9143 net.cpp:395] relu2a -> conv2a (in-place)
I0418 03:47:12.055460  9143 net.cpp:150] Setting up relu2a
I0418 03:47:12.055472  9143 net.cpp:157] Top shape: 1 128 768 56 56 (308281344)
I0418 03:47:12.055476  9143 net.cpp:165] Memory required for data: 8362132668
I0418 03:47:12.055480  9143 layer_factory.hpp:77] Creating layer pool2
I0418 03:47:12.055490  9143 net.cpp:100] Creating Layer pool2
I0418 03:47:12.055497  9143 net.cpp:434] pool2 <- conv2a
I0418 03:47:12.055503  9143 net.cpp:408] pool2 -> pool2
I0418 03:47:12.055665  9143 net.cpp:150] Setting up pool2
I0418 03:47:12.055675  9143 net.cpp:157] Top shape: 1 128 384 28 28 (38535168)
I0418 03:47:12.055677  9143 net.cpp:165] Memory required for data: 8516273340
I0418 03:47:12.055681  9143 layer_factory.hpp:77] Creating layer conv3a
I0418 03:47:12.055693  9143 net.cpp:100] Creating Layer conv3a
I0418 03:47:12.055697  9143 net.cpp:434] conv3a <- pool2
I0418 03:47:12.055702  9143 net.cpp:408] conv3a -> conv3a
I0418 03:47:12.080797  9143 net.cpp:150] Setting up conv3a
I0418 03:47:12.080816  9143 net.cpp:157] Top shape: 1 256 384 28 28 (77070336)
I0418 03:47:12.080821  9143 net.cpp:165] Memory required for data: 8824554684
I0418 03:47:12.080830  9143 layer_factory.hpp:77] Creating layer relu3a
I0418 03:47:12.080838  9143 net.cpp:100] Creating Layer relu3a
I0418 03:47:12.080842  9143 net.cpp:434] relu3a <- conv3a
I0418 03:47:12.080847  9143 net.cpp:395] relu3a -> conv3a (in-place)
I0418 03:47:12.081146  9143 net.cpp:150] Setting up relu3a
I0418 03:47:12.081157  9143 net.cpp:157] Top shape: 1 256 384 28 28 (77070336)
I0418 03:47:12.081161  9143 net.cpp:165] Memory required for data: 9132836028
I0418 03:47:12.081166  9143 layer_factory.hpp:77] Creating layer conv3b
I0418 03:47:12.081176  9143 net.cpp:100] Creating Layer conv3b
I0418 03:47:12.081182  9143 net.cpp:434] conv3b <- conv3a
I0418 03:47:12.081188  9143 net.cpp:408] conv3b -> conv3b
I0418 03:47:12.129173  9143 net.cpp:150] Setting up conv3b
I0418 03:47:12.129195  9143 net.cpp:157] Top shape: 1 256 384 28 28 (77070336)
I0418 03:47:12.129199  9143 net.cpp:165] Memory required for data: 9441117372
I0418 03:47:12.129209  9143 layer_factory.hpp:77] Creating layer relu3b
I0418 03:47:12.129217  9143 net.cpp:100] Creating Layer relu3b
I0418 03:47:12.129221  9143 net.cpp:434] relu3b <- conv3b
I0418 03:47:12.129230  9143 net.cpp:395] relu3b -> conv3b (in-place)
I0418 03:47:12.129513  9143 net.cpp:150] Setting up relu3b
I0418 03:47:12.129526  9143 net.cpp:157] Top shape: 1 256 384 28 28 (77070336)
I0418 03:47:12.129529  9143 net.cpp:165] Memory required for data: 9749398716
I0418 03:47:12.129534  9143 layer_factory.hpp:77] Creating layer pool3
I0418 03:47:12.129540  9143 net.cpp:100] Creating Layer pool3
I0418 03:47:12.129544  9143 net.cpp:434] pool3 <- conv3b
I0418 03:47:12.129551  9143 net.cpp:408] pool3 -> pool3
I0418 03:47:12.129714  9143 net.cpp:150] Setting up pool3
I0418 03:47:12.129724  9143 net.cpp:157] Top shape: 1 256 192 14 14 (9633792)
I0418 03:47:12.129726  9143 net.cpp:165] Memory required for data: 9787933884
I0418 03:47:12.129730  9143 layer_factory.hpp:77] Creating layer conv4a
I0418 03:47:12.129742  9143 net.cpp:100] Creating Layer conv4a
I0418 03:47:12.129746  9143 net.cpp:434] conv4a <- pool3
I0418 03:47:12.129752  9143 net.cpp:408] conv4a -> conv4a
I0418 03:47:12.223758  9143 net.cpp:150] Setting up conv4a
I0418 03:47:12.223784  9143 net.cpp:157] Top shape: 1 512 192 14 14 (19267584)
I0418 03:47:12.223788  9143 net.cpp:165] Memory required for data: 9865004220
I0418 03:47:12.223800  9143 layer_factory.hpp:77] Creating layer relu4a
I0418 03:47:12.223809  9143 net.cpp:100] Creating Layer relu4a
I0418 03:47:12.223814  9143 net.cpp:434] relu4a <- conv4a
I0418 03:47:12.223820  9143 net.cpp:395] relu4a -> conv4a (in-place)
I0418 03:47:12.224117  9143 net.cpp:150] Setting up relu4a
I0418 03:47:12.224128  9143 net.cpp:157] Top shape: 1 512 192 14 14 (19267584)
I0418 03:47:12.224133  9143 net.cpp:165] Memory required for data: 9942074556
I0418 03:47:12.224135  9143 layer_factory.hpp:77] Creating layer conv4b
I0418 03:47:12.224149  9143 net.cpp:100] Creating Layer conv4b
I0418 03:47:12.224154  9143 net.cpp:434] conv4b <- conv4a
I0418 03:47:12.224164  9143 net.cpp:408] conv4b -> conv4b
I0418 03:47:12.412145  9143 net.cpp:150] Setting up conv4b
I0418 03:47:12.412170  9143 net.cpp:157] Top shape: 1 512 192 14 14 (19267584)
I0418 03:47:12.412174  9143 net.cpp:165] Memory required for data: 10019144892
I0418 03:47:12.412184  9143 layer_factory.hpp:77] Creating layer relu4b
I0418 03:47:12.412192  9143 net.cpp:100] Creating Layer relu4b
I0418 03:47:12.412196  9143 net.cpp:434] relu4b <- conv4b
I0418 03:47:12.412202  9143 net.cpp:395] relu4b -> conv4b (in-place)
I0418 03:47:12.412355  9143 net.cpp:150] Setting up relu4b
I0418 03:47:12.412365  9143 net.cpp:157] Top shape: 1 512 192 14 14 (19267584)
I0418 03:47:12.412369  9143 net.cpp:165] Memory required for data: 10096215228
I0418 03:47:12.412372  9143 layer_factory.hpp:77] Creating layer pool4
I0418 03:47:12.412379  9143 net.cpp:100] Creating Layer pool4
I0418 03:47:12.412382  9143 net.cpp:434] pool4 <- conv4b
I0418 03:47:12.412387  9143 net.cpp:408] pool4 -> pool4
I0418 03:47:12.412744  9143 net.cpp:150] Setting up pool4
I0418 03:47:12.412762  9143 net.cpp:157] Top shape: 1 512 96 7 7 (2408448)
I0418 03:47:12.412768  9143 net.cpp:165] Memory required for data: 10105849020
I0418 03:47:12.412775  9143 layer_factory.hpp:77] Creating layer conv5a
I0418 03:47:12.412791  9143 net.cpp:100] Creating Layer conv5a
I0418 03:47:12.412801  9143 net.cpp:434] conv5a <- pool4
I0418 03:47:12.412811  9143 net.cpp:408] conv5a -> conv5a
I0418 03:47:12.602149  9143 net.cpp:150] Setting up conv5a
I0418 03:47:12.602171  9143 net.cpp:157] Top shape: 1 512 96 7 7 (2408448)
I0418 03:47:12.602175  9143 net.cpp:165] Memory required for data: 10115482812
I0418 03:47:12.602185  9143 layer_factory.hpp:77] Creating layer relu5a
I0418 03:47:12.602193  9143 net.cpp:100] Creating Layer relu5a
I0418 03:47:12.602198  9143 net.cpp:434] relu5a <- conv5a
I0418 03:47:12.602205  9143 net.cpp:395] relu5a -> conv5a (in-place)
I0418 03:47:12.603379  9143 net.cpp:150] Setting up relu5a
I0418 03:47:12.603397  9143 net.cpp:157] Top shape: 1 512 96 7 7 (2408448)
I0418 03:47:12.603404  9143 net.cpp:165] Memory required for data: 10125116604
I0418 03:47:12.603410  9143 layer_factory.hpp:77] Creating layer conv5b
I0418 03:47:12.603426  9143 net.cpp:100] Creating Layer conv5b
I0418 03:47:12.603433  9143 net.cpp:434] conv5b <- conv5a
I0418 03:47:12.603446  9143 net.cpp:408] conv5b -> conv5b
I0418 03:47:12.796777  9143 net.cpp:150] Setting up conv5b
I0418 03:47:12.796802  9143 net.cpp:157] Top shape: 1 512 96 7 7 (2408448)
I0418 03:47:12.796806  9143 net.cpp:165] Memory required for data: 10134750396
I0418 03:47:12.796814  9143 layer_factory.hpp:77] Creating layer relu5b
I0418 03:47:12.796823  9143 net.cpp:100] Creating Layer relu5b
I0418 03:47:12.796828  9143 net.cpp:434] relu5b <- conv5b
I0418 03:47:12.796834  9143 net.cpp:395] relu5b -> conv5b (in-place)
I0418 03:47:12.796983  9143 net.cpp:150] Setting up relu5b
I0418 03:47:12.796993  9143 net.cpp:157] Top shape: 1 512 96 7 7 (2408448)
I0418 03:47:12.796996  9143 net.cpp:165] Memory required for data: 10144384188
I0418 03:47:12.796999  9143 layer_factory.hpp:77] Creating layer conv5b_relu5b_0_split
I0418 03:47:12.797004  9143 net.cpp:100] Creating Layer conv5b_relu5b_0_split
I0418 03:47:12.797008  9143 net.cpp:434] conv5b_relu5b_0_split <- conv5b
I0418 03:47:12.797013  9143 net.cpp:408] conv5b_relu5b_0_split -> conv5b_relu5b_0_split_0
I0418 03:47:12.797022  9143 net.cpp:408] conv5b_relu5b_0_split -> conv5b_relu5b_0_split_1
I0418 03:47:12.797058  9143 net.cpp:150] Setting up conv5b_relu5b_0_split
I0418 03:47:12.797065  9143 net.cpp:157] Top shape: 1 512 96 7 7 (2408448)
I0418 03:47:12.797070  9143 net.cpp:157] Top shape: 1 512 96 7 7 (2408448)
I0418 03:47:12.797072  9143 net.cpp:165] Memory required for data: 10163651772
I0418 03:47:12.797075  9143 layer_factory.hpp:77] Creating layer rpn_conv/3x3
I0418 03:47:12.797087  9143 net.cpp:100] Creating Layer rpn_conv/3x3
I0418 03:47:12.797093  9143 net.cpp:434] rpn_conv/3x3 <- conv5b_relu5b_0_split_0
I0418 03:47:12.797099  9143 net.cpp:408] rpn_conv/3x3 -> rpn/output
I0418 03:47:12.984431  9143 net.cpp:150] Setting up rpn_conv/3x3
I0418 03:47:12.984453  9143 net.cpp:157] Top shape: 1 512 96 4 4 (786432)
I0418 03:47:12.984457  9143 net.cpp:165] Memory required for data: 10166797500
I0418 03:47:12.984472  9143 layer_factory.hpp:77] Creating layer rpn_relu/3x3
I0418 03:47:12.984480  9143 net.cpp:100] Creating Layer rpn_relu/3x3
I0418 03:47:12.984485  9143 net.cpp:434] rpn_relu/3x3 <- rpn/output
I0418 03:47:12.984490  9143 net.cpp:395] rpn_relu/3x3 -> rpn/output (in-place)
I0418 03:47:12.984799  9143 net.cpp:150] Setting up rpn_relu/3x3
I0418 03:47:12.984812  9143 net.cpp:157] Top shape: 1 512 96 4 4 (786432)
I0418 03:47:12.984815  9143 net.cpp:165] Memory required for data: 10169943228
I0418 03:47:12.984819  9143 layer_factory.hpp:77] Creating layer rpn_conv/3x3_2
I0418 03:47:12.984832  9143 net.cpp:100] Creating Layer rpn_conv/3x3_2
I0418 03:47:12.984838  9143 net.cpp:434] rpn_conv/3x3_2 <- rpn/output
I0418 03:47:12.984843  9143 net.cpp:408] rpn_conv/3x3_2 -> rpn/output_2
I0418 03:47:13.171279  9143 net.cpp:150] Setting up rpn_conv/3x3_2
I0418 03:47:13.171305  9143 net.cpp:157] Top shape: 1 512 96 2 2 (196608)
I0418 03:47:13.171309  9143 net.cpp:165] Memory required for data: 10170729660
I0418 03:47:13.171317  9143 layer_factory.hpp:77] Creating layer rpn_relu/3x3_2
I0418 03:47:13.171326  9143 net.cpp:100] Creating Layer rpn_relu/3x3_2
I0418 03:47:13.171331  9143 net.cpp:434] rpn_relu/3x3_2 <- rpn/output_2
I0418 03:47:13.171339  9143 net.cpp:395] rpn_relu/3x3_2 -> rpn/output_2 (in-place)
I0418 03:47:13.171708  9143 net.cpp:150] Setting up rpn_relu/3x3_2
I0418 03:47:13.171720  9143 net.cpp:157] Top shape: 1 512 96 2 2 (196608)
I0418 03:47:13.171725  9143 net.cpp:165] Memory required for data: 10171516092
I0418 03:47:13.171727  9143 layer_factory.hpp:77] Creating layer rpn/output_pool
I0418 03:47:13.171736  9143 net.cpp:100] Creating Layer rpn/output_pool
I0418 03:47:13.171741  9143 net.cpp:434] rpn/output_pool <- rpn/output_2
I0418 03:47:13.171746  9143 net.cpp:408] rpn/output_pool -> rpn/output_pool
I0418 03:47:13.171922  9143 net.cpp:150] Setting up rpn/output_pool
I0418 03:47:13.171932  9143 net.cpp:157] Top shape: 1 512 96 1 1 (49152)
I0418 03:47:13.171936  9143 net.cpp:165] Memory required for data: 10171712700
I0418 03:47:13.171938  9143 layer_factory.hpp:77] Creating layer rpn/output_pool_rpn/output_pool_0_split
I0418 03:47:13.171946  9143 net.cpp:100] Creating Layer rpn/output_pool_rpn/output_pool_0_split
I0418 03:47:13.171949  9143 net.cpp:434] rpn/output_pool_rpn/output_pool_0_split <- rpn/output_pool
I0418 03:47:13.171953  9143 net.cpp:408] rpn/output_pool_rpn/output_pool_0_split -> rpn/output_pool_rpn/output_pool_0_split_0
I0418 03:47:13.171960  9143 net.cpp:408] rpn/output_pool_rpn/output_pool_0_split -> rpn/output_pool_rpn/output_pool_0_split_1
I0418 03:47:13.171991  9143 net.cpp:150] Setting up rpn/output_pool_rpn/output_pool_0_split
I0418 03:47:13.171998  9143 net.cpp:157] Top shape: 1 512 96 1 1 (49152)
I0418 03:47:13.172003  9143 net.cpp:157] Top shape: 1 512 96 1 1 (49152)
I0418 03:47:13.172005  9143 net.cpp:165] Memory required for data: 10172105916
I0418 03:47:13.172008  9143 layer_factory.hpp:77] Creating layer rpn_cls_score
I0418 03:47:13.172019  9143 net.cpp:100] Creating Layer rpn_cls_score
I0418 03:47:13.172022  9143 net.cpp:434] rpn_cls_score <- rpn/output_pool_rpn/output_pool_0_split_0
I0418 03:47:13.172029  9143 net.cpp:408] rpn_cls_score -> rpn_cls_score
I0418 03:47:13.174026  9143 net.cpp:150] Setting up rpn_cls_score
I0418 03:47:13.174041  9143 net.cpp:157] Top shape: 1 74 96 1 1 (7104)
I0418 03:47:13.174044  9143 net.cpp:165] Memory required for data: 10172134332
I0418 03:47:13.174051  9143 layer_factory.hpp:77] Creating layer rpn_cls_score_rpn_cls_score_0_split
I0418 03:47:13.174055  9143 net.cpp:100] Creating Layer rpn_cls_score_rpn_cls_score_0_split
I0418 03:47:13.174060  9143 net.cpp:434] rpn_cls_score_rpn_cls_score_0_split <- rpn_cls_score
I0418 03:47:13.174065  9143 net.cpp:408] rpn_cls_score_rpn_cls_score_0_split -> rpn_cls_score_rpn_cls_score_0_split_0
I0418 03:47:13.174072  9143 net.cpp:408] rpn_cls_score_rpn_cls_score_0_split -> rpn_cls_score_rpn_cls_score_0_split_1
I0418 03:47:13.174110  9143 net.cpp:150] Setting up rpn_cls_score_rpn_cls_score_0_split
I0418 03:47:13.174118  9143 net.cpp:157] Top shape: 1 74 96 1 1 (7104)
I0418 03:47:13.174123  9143 net.cpp:157] Top shape: 1 74 96 1 1 (7104)
I0418 03:47:13.174125  9143 net.cpp:165] Memory required for data: 10172191164
I0418 03:47:13.174129  9143 layer_factory.hpp:77] Creating layer rpn_twin_pred
I0418 03:47:13.174141  9143 net.cpp:100] Creating Layer rpn_twin_pred
I0418 03:47:13.174149  9143 net.cpp:434] rpn_twin_pred <- rpn/output_pool_rpn/output_pool_0_split_1
I0418 03:47:13.174155  9143 net.cpp:408] rpn_twin_pred -> rpn_twin_pred
I0418 03:47:13.176151  9143 net.cpp:150] Setting up rpn_twin_pred
I0418 03:47:13.176164  9143 net.cpp:157] Top shape: 1 74 96 1 1 (7104)
I0418 03:47:13.176168  9143 net.cpp:165] Memory required for data: 10172219580
I0418 03:47:13.176175  9143 layer_factory.hpp:77] Creating layer rpn_twin_pred_rpn_twin_pred_0_split
I0418 03:47:13.176180  9143 net.cpp:100] Creating Layer rpn_twin_pred_rpn_twin_pred_0_split
I0418 03:47:13.176184  9143 net.cpp:434] rpn_twin_pred_rpn_twin_pred_0_split <- rpn_twin_pred
I0418 03:47:13.176192  9143 net.cpp:408] rpn_twin_pred_rpn_twin_pred_0_split -> rpn_twin_pred_rpn_twin_pred_0_split_0
I0418 03:47:13.176198  9143 net.cpp:408] rpn_twin_pred_rpn_twin_pred_0_split -> rpn_twin_pred_rpn_twin_pred_0_split_1
I0418 03:47:13.176234  9143 net.cpp:150] Setting up rpn_twin_pred_rpn_twin_pred_0_split
I0418 03:47:13.176244  9143 net.cpp:157] Top shape: 1 74 96 1 1 (7104)
I0418 03:47:13.176247  9143 net.cpp:157] Top shape: 1 74 96 1 1 (7104)
I0418 03:47:13.176251  9143 net.cpp:165] Memory required for data: 10172276412
I0418 03:47:13.176254  9143 layer_factory.hpp:77] Creating layer rpn_cls_score_reshape
I0418 03:47:13.176265  9143 net.cpp:100] Creating Layer rpn_cls_score_reshape
I0418 03:47:13.176268  9143 net.cpp:434] rpn_cls_score_reshape <- rpn_cls_score_rpn_cls_score_0_split_0
I0418 03:47:13.176275  9143 net.cpp:408] rpn_cls_score_reshape -> rpn_cls_score_reshape
I0418 03:47:13.176303  9143 net.cpp:150] Setting up rpn_cls_score_reshape
I0418 03:47:13.176313  9143 net.cpp:157] Top shape: 1 2 3552 1 1 (7104)
I0418 03:47:13.176317  9143 net.cpp:165] Memory required for data: 10172304828
I0418 03:47:13.176323  9143 layer_factory.hpp:77] Creating layer rpn_cls_score_reshape_rpn_cls_score_reshape_0_split
I0418 03:47:13.176333  9143 net.cpp:100] Creating Layer rpn_cls_score_reshape_rpn_cls_score_reshape_0_split
I0418 03:47:13.176343  9143 net.cpp:434] rpn_cls_score_reshape_rpn_cls_score_reshape_0_split <- rpn_cls_score_reshape
I0418 03:47:13.176352  9143 net.cpp:408] rpn_cls_score_reshape_rpn_cls_score_reshape_0_split -> rpn_cls_score_reshape_rpn_cls_score_reshape_0_split_0
I0418 03:47:13.176367  9143 net.cpp:408] rpn_cls_score_reshape_rpn_cls_score_reshape_0_split -> rpn_cls_score_reshape_rpn_cls_score_reshape_0_split_1
I0418 03:47:13.176376  9143 net.cpp:408] rpn_cls_score_reshape_rpn_cls_score_reshape_0_split -> rpn_cls_score_reshape_rpn_cls_score_reshape_0_split_2
I0418 03:47:13.176456  9143 net.cpp:150] Setting up rpn_cls_score_reshape_rpn_cls_score_reshape_0_split
I0418 03:47:13.176471  9143 net.cpp:157] Top shape: 1 2 3552 1 1 (7104)
I0418 03:47:13.176479  9143 net.cpp:157] Top shape: 1 2 3552 1 1 (7104)
I0418 03:47:13.176486  9143 net.cpp:157] Top shape: 1 2 3552 1 1 (7104)
I0418 03:47:13.176494  9143 net.cpp:165] Memory required for data: 10172390076
I0418 03:47:13.176501  9143 layer_factory.hpp:77] Creating layer rpn-data
I0418 03:47:13.176951  9143 net.cpp:100] Creating Layer rpn-data
I0418 03:47:13.176970  9143 net.cpp:434] rpn-data <- rpn_cls_score_rpn_cls_score_0_split_1
I0418 03:47:13.176980  9143 net.cpp:434] rpn-data <- gt_boxes_data_1_split_0
I0418 03:47:13.176986  9143 net.cpp:434] rpn-data <- data_data_0_split_1
I0418 03:47:13.176996  9143 net.cpp:408] rpn-data -> rpn_labels
I0418 03:47:13.177008  9143 net.cpp:408] rpn-data -> rpn_twin_targets
I0418 03:47:13.177018  9143 net.cpp:408] rpn-data -> rpn_twin_inside_weights
I0418 03:47:13.177028  9143 net.cpp:408] rpn-data -> rpn_twin_outside_weights
I0418 03:47:13.179755  9143 net.cpp:150] Setting up rpn-data
I0418 03:47:13.179771  9143 net.cpp:157] Top shape: 1 1 3552 1 1 (3552)
I0418 03:47:13.179776  9143 net.cpp:157] Top shape: 1 74 96 1 1 (7104)
I0418 03:47:13.179780  9143 net.cpp:157] Top shape: 1 74 96 1 1 (7104)
I0418 03:47:13.179785  9143 net.cpp:157] Top shape: 1 74 96 1 1 (7104)
I0418 03:47:13.179787  9143 net.cpp:165] Memory required for data: 10172489532
I0418 03:47:13.179791  9143 layer_factory.hpp:77] Creating layer rpn_labels_rpn-data_0_split
I0418 03:47:13.179796  9143 net.cpp:100] Creating Layer rpn_labels_rpn-data_0_split
I0418 03:47:13.179800  9143 net.cpp:434] rpn_labels_rpn-data_0_split <- rpn_labels
I0418 03:47:13.179806  9143 net.cpp:408] rpn_labels_rpn-data_0_split -> rpn_labels_rpn-data_0_split_0
I0418 03:47:13.179814  9143 net.cpp:408] rpn_labels_rpn-data_0_split -> rpn_labels_rpn-data_0_split_1
I0418 03:47:13.179847  9143 net.cpp:150] Setting up rpn_labels_rpn-data_0_split
I0418 03:47:13.179857  9143 net.cpp:157] Top shape: 1 1 3552 1 1 (3552)
I0418 03:47:13.179860  9143 net.cpp:157] Top shape: 1 1 3552 1 1 (3552)
I0418 03:47:13.179863  9143 net.cpp:165] Memory required for data: 10172517948
I0418 03:47:13.179867  9143 layer_factory.hpp:77] Creating layer rpn_loss_cls
I0418 03:47:13.179875  9143 net.cpp:100] Creating Layer rpn_loss_cls
I0418 03:47:13.179883  9143 net.cpp:434] rpn_loss_cls <- rpn_cls_score_reshape_rpn_cls_score_reshape_0_split_0
I0418 03:47:13.179888  9143 net.cpp:434] rpn_loss_cls <- rpn_labels_rpn-data_0_split_0
…
I0418 03:47:13.180471  9143 layer_factory.hpp:77] Creating layer rpn_accuarcy
I0418 03:47:13.180479  9143 net.cpp:100] Creating Layer rpn_accuarcy
I0418 03:47:13.180482  9143 net.cpp:434] rpn_accuarcy <- rpn_cls_score_reshape_rpn_cls_score_reshape_0_split_1
I0418 03:47:13.180487  9143 net.cpp:434] rpn_accuarcy <- rpn_labels_rpn-data_0_split_1
I0418 03:47:13.180493  9143 net.cpp:408] rpn_accuarcy -> rpn_accuarcy
I0418 03:47:13.180500  9143 net.cpp:408] rpn_accuarcy -> rpn_accuarcy_class
I0418 03:47:13.180537  9143 net.cpp:150] Setting up rpn_accuarcy
I0418 03:47:13.180546  9143 net.cpp:157] Top shape: (1)
I0418 03:47:13.180549  9143 net.cpp:157] Top shape: 2 (2)
I0418 03:47:13.180552  9143 net.cpp:165] Memory required for data: 10172517968
I0418 03:47:13.180555  9143 layer_factory.hpp:77] Creating layer rpn_cls_prob
I0418 03:47:13.180560  9143 net.cpp:100] Creating Layer rpn_cls_prob
I0418 03:47:13.180564  9143 net.cpp:434] rpn_cls_prob <- rpn_cls_score_reshape_rpn_cls_score_reshape_0_split_2
I0418 03:47:13.180572  9143 net.cpp:408] rpn_cls_prob -> rpn_cls_prob
I0418 03:47:13.180778  9143 net.cpp:150] Setting up rpn_cls_prob
I0418 03:47:13.180788  9143 net.cpp:157] Top shape: 1 2 3552 1 1 (7104)
I0418 03:47:13.180791  9143 net.cpp:165] Memory required for data: 10172546384
I0418 03:47:13.180794  9143 layer_factory.hpp:77] Creating layer rpn_cls_prob_reshape
I0418 03:47:13.180801  9143 net.cpp:100] Creating Layer rpn_cls_prob_reshape
I0418 03:47:13.180805  9143 net.cpp:434] rpn_cls_prob_reshape <- rpn_cls_prob
I0418 03:47:13.180811  9143 net.cpp:408] rpn_cls_prob_reshape -> rpn_cls_prob_reshape
I0418 03:47:13.180836  9143 net.cpp:150] Setting up rpn_cls_prob_reshape
I0418 03:47:13.180843  9143 net.cpp:157] Top shape: 1 74 96 1 1 (7104)
I0418 03:47:13.180846  9143 net.cpp:165] Memory required for data: 10172574800
I0418 03:47:13.180850  9143 layer_factory.hpp:77] Creating layer proposal
I0418 03:47:13.181411  9143 net.cpp:100] Creating Layer proposal
I0418 03:47:13.181423  9143 net.cpp:434] proposal <- rpn_cls_prob_reshape
I0418 03:47:13.181429  9143 net.cpp:434] proposal <- rpn_twin_pred_rpn_twin_pred_0_split_1
I0418 03:47:13.181435  9143 net.cpp:408] proposal -> rpn_rois
I0418 03:47:13.184103  9143 net.cpp:150] Setting up proposal
I0418 03:47:13.184118  9143 net.cpp:157] Top shape: 1 3 (3)
I0418 03:47:13.184123  9143 net.cpp:165] Memory required for data: 10172574812
I0418 03:47:13.184128  9143 layer_factory.hpp:77] Creating layer roi-data
I0418 03:47:13.184271  9143 net.cpp:100] Creating Layer roi-data
I0418 03:47:13.184283  9143 net.cpp:434] roi-data <- rpn_rois
I0418 03:47:13.184288  9143 net.cpp:434] roi-data <- gt_boxes_data_1_split_1
I0418 03:47:13.184294  9143 net.cpp:408] roi-data -> rois
I0418 03:47:13.184301  9143 net.cpp:408] roi-data -> labels
I0418 03:47:13.184307  9143 net.cpp:408] roi-data -> twin_targets
I0418 03:47:13.184316  9143 net.cpp:408] roi-data -> twin_inside_weights
I0418 03:47:13.184322  9143 net.cpp:408] roi-data -> twin_outside_weights
I0418 03:47:13.184653  9143 net.cpp:150] Setting up roi-data
I0418 03:47:13.184666  9143 net.cpp:157] Top shape: 1 3 (3)
I0418 03:47:13.184671  9143 net.cpp:157] Top shape: 1 1 (1)
I0418 03:47:13.184675  9143 net.cpp:157] Top shape: 1 402 (402)
I0418 03:47:13.184679  9143 net.cpp:157] Top shape: 1 402 (402)
I0418 03:47:13.184684  9143 net.cpp:157] Top shape: 1 402 (402)
I0418 03:47:13.184687  9143 net.cpp:165] Memory required for data: 10172579652
I0418 03:47:13.184691  9143 layer_factory.hpp:77] Creating layer labels_roi-data_1_split
I0418 03:47:13.184697  9143 net.cpp:100] Creating Layer labels_roi-data_1_split
I0418 03:47:13.184701  9143 net.cpp:434] labels_roi-data_1_split <- labels
I0418 03:47:13.184707  9143 net.cpp:408] labels_roi-data_1_split -> labels_roi-data_1_split_0
I0418 03:47:13.184713  9143 net.cpp:408] labels_roi-data_1_split -> labels_roi-data_1_split_1
I0418 03:47:13.184747  9143 net.cpp:150] Setting up labels_roi-data_1_split
I0418 03:47:13.184756  9143 net.cpp:157] Top shape: 1 1 (1)
I0418 03:47:13.184761  9143 net.cpp:157] Top shape: 1 1 (1)
I0418 03:47:13.184764  9143 net.cpp:165] Memory required for data: 10172579660
I0418 03:47:13.184768  9143 layer_factory.hpp:77] Creating layer roi_pool5
I0418 03:47:13.184777  9143 net.cpp:100] Creating Layer roi_pool5
I0418 03:47:13.184783  9143 net.cpp:434] roi_pool5 <- conv5b_relu5b_0_split_1
I0418 03:47:13.184788  9143 net.cpp:434] roi_pool5 <- rois
I0418 03:47:13.184794  9143 net.cpp:408] roi_pool5 -> pool5
I0418 03:47:13.184803  9143 roi_pooling_layer.cpp:34] Temporal scale: 0.125
I0418 03:47:13.184810  9143 roi_pooling_layer.cpp:35] Spatial scale: 0.0625
I0418 03:47:13.184844  9143 net.cpp:150] Setting up roi_pool5
I0418 03:47:13.184850  9143 net.cpp:157] Top shape: 1 512 1 4 4 (8192)
I0418 03:47:13.184854  9143 net.cpp:165] Memory required for data: 10172612428
I0418 03:47:13.184857  9143 layer_factory.hpp:77] Creating layer fc6
I0418 03:47:13.184870  9143 net.cpp:100] Creating Layer fc6
I0418 03:47:13.184875  9143 net.cpp:434] fc6 <- pool5
I0418 03:47:13.184880  9143 net.cpp:408] fc6 -> fc6
I0418 03:47:14.065461  9143 net.cpp:150] Setting up fc6
I0418 03:47:14.065485  9143 net.cpp:157] Top shape: 1 4096 (4096)
I0418 03:47:14.065490  9143 net.cpp:165] Memory required for data: 10172628812
I0418 03:47:14.065500  9143 layer_factory.hpp:77] Creating layer relu6
I0418 03:47:14.065508  9143 net.cpp:100] Creating Layer relu6
I0418 03:47:14.065512  9143 net.cpp:434] relu6 <- fc6
I0418 03:47:14.065518  9143 net.cpp:395] relu6 -> fc6 (in-place)
I0418 03:47:14.066006  9143 net.cpp:150] Setting up relu6
I0418 03:47:14.066025  9143 net.cpp:157] Top shape: 1 4096 (4096)
I0418 03:47:14.066031  9143 net.cpp:165] Memory required for data: 10172645196
I0418 03:47:14.066037  9143 layer_factory.hpp:77] Creating layer drop6
I0418 03:47:14.066056  9143 net.cpp:100] Creating Layer drop6
I0418 03:47:14.066063  9143 net.cpp:434] drop6 <- fc6
I0418 03:47:14.066071  9143 net.cpp:395] drop6 -> fc6 (in-place)
I0418 03:47:14.066112  9143 net.cpp:150] Setting up drop6
I0418 03:47:14.066124  9143 net.cpp:157] Top shape: 1 4096 (4096)
I0418 03:47:14.066130  9143 net.cpp:165] Memory required for data: 10172661580
I0418 03:47:14.066136  9143 layer_factory.hpp:77] Creating layer fc6_drop6_0_split
I0418 03:47:14.066143  9143 net.cpp:100] Creating Layer fc6_drop6_0_split
I0418 03:47:14.066146  9143 net.cpp:434] fc6_drop6_0_split <- fc6
I0418 03:47:14.066153  9143 net.cpp:408] fc6_drop6_0_split -> fc6_drop6_0_split_0
I0418 03:47:14.066165  9143 net.cpp:408] fc6_drop6_0_split -> fc6_drop6_0_split_1
I0418 03:47:14.066205  9143 net.cpp:150] Setting up fc6_drop6_0_split
I0418 03:47:14.066212  9143 net.cpp:157] Top shape: 1 4096 (4096)
I0418 03:47:14.066216  9143 net.cpp:157] Top shape: 1 4096 (4096)
I0418 03:47:14.066220  9143 net.cpp:165] Memory required for data: 10172694348
I0418 03:47:14.066222  9143 layer_factory.hpp:77] Creating layer cls_score
I0418 03:47:14.066234  9143 net.cpp:100] Creating Layer cls_score
I0418 03:47:14.066241  9143 net.cpp:434] cls_score <- fc6_drop6_0_split_0
I0418 03:47:14.066246  9143 net.cpp:408] cls_score -> cls_score
I0418 03:47:16.210229  9143 net.cpp:150] Setting up cls_score
I0418 03:47:16.210253  9143 net.cpp:157] Top shape: 1 19899 (19899)
I0418 03:47:16.210258  9143 net.cpp:165] Memory required for data: 10172773944
I0418 03:47:16.210268  9143 layer_factory.hpp:77] Creating layer cls_score_cls_score_0_split
I0418 03:47:16.210276  9143 net.cpp:100] Creating Layer cls_score_cls_score_0_split
I0418 03:47:16.210280  9143 net.cpp:434] cls_score_cls_score_0_split <- cls_score
I0418 03:47:16.210288  9143 net.cpp:408] cls_score_cls_score_0_split -> cls_score_cls_score_0_split_0
I0418 03:47:16.210296  9143 net.cpp:408] cls_score_cls_score_0_split -> cls_score_cls_score_0_split_1
I0418 03:47:16.210330  9143 net.cpp:150] Setting up cls_score_cls_score_0_split
I0418 03:47:16.210336  9143 net.cpp:157] Top shape: 1 19899 (19899)
I0418 03:47:16.210340  9143 net.cpp:157] Top shape: 1 19899 (19899)
I0418 03:47:16.210343  9143 net.cpp:165] Memory required for data: 10172933136
I0418 03:47:16.210346  9143 layer_factory.hpp:77] Creating layer twin_pred
I0418 03:47:16.210355  9143 net.cpp:100] Creating Layer twin_pred
I0418 03:47:16.210360  9143 net.cpp:434] twin_pred <- fc6_drop6_0_split_1
I0418 03:47:16.210366  9143 net.cpp:408] twin_pred -> twin_pred
I0418 03:47:16.253615  9143 net.cpp:150] Setting up twin_pred
I0418 03:47:16.253638  9143 net.cpp:157] Top shape: 1 402 (402)
I0418 03:47:16.253644  9143 net.cpp:165] Memory required for data: 10172934744
I0418 03:47:16.253654  9143 layer_factory.hpp:77] Creating layer loss_cls
I0418 03:47:16.253665  9143 net.cpp:100] Creating Layer loss_cls
I0418 03:47:16.253670  9143 net.cpp:434] loss_cls <- cls_score_cls_score_0_split_0
I0418 03:47:16.253677  9143 net.cpp:434] loss_cls <- labels_roi-data_1_split_0
I0418 03:47:16.253684  9143 net.cpp:408] loss_cls -> loss_cls
…
