…
stepsize: 350000
snapshot: 0
snapshot_prefix: "./experiments/activitynet/snapshot/activitynet"
average_loss: 100
iter_size: 1
I0416 11:30:24.445049 21584 solver.cpp:81] Creating training net from train_net file: ./experiments/activitynet/train.prototxt
I0416 11:30:24.445601 21584 net.cpp:58] Initializing net from parameters: 
name: "activitynet"
state {
  phase: TRAIN
}
layer {
  name: "data"
  type: "Python"
  top: "data"
  top: "gt_boxes"
  python_param {
    module: "roi_data_layer.layer"
    layer: "RoIDataLayer"
    param_str: "\'num_classes\': 100"
  }
}
layer {
  name: "conv1a"
  type: "Convolution"
  bottom: "data"
  top: "conv1a"
  param {
    lr_mult: 0
    decay_mult: 0
  }
  param {
    lr_mult: 0
    decay_mult: 0
  }
  convolution_param {
    num_output: 64
    pad: 1
    pad: 1
    pad: 1
    kernel_size: 3
    kernel_size: 3
    kernel_size: 3
    weight_filler {
      type: "gaussian"
      std: 0.01
    }
    bias_filler {
      type: "constant"
      value: 0
    }
  }
}
layer {
  name: "relu1a"
  type: "ReLU"
  bottom: "conv1a"
  top: "conv1a"
}
layer {
  name: "pool1"
  type: "Pooling"
  bottom: "conv1a"
  top: "pool1"
  pooling_param {
    pool: MAX
    kernel_size: 1
    kernel_size: 2
    kernel_size: 2
    stride: 1
    stride: 2
    stride: 2
  }
}
layer {
  name: "conv2a"
  type: "Convolution"
  bottom: "pool1"
  top: "conv2a"
  param {
    lr_mult: 0
    decay_mult: 0
  }
  param {
    lr_mult: 0
    decay_mult: 0
  }
  convolution_param {
    num_output: 128
    pad: 1
    pad: 1
    pad: 1
    kernel_size: 3
    kernel_size: 3
    kernel_size: 3
    weight_filler {
      type: "gaussian"
      std: 0.01
    }
    bias_filler {
      type: "constant"
      value: 1
    }
  }
}
layer {
  name: "relu2a"
  type: "ReLU"
  bottom: "conv2a"
  top: "conv2a"
}
layer {
  name: "pool2"
  type: "Pooling"
  bottom: "conv2a"
  top: "pool2"
  pooling_param {
    pool: MAX
    kernel_size: 2
    kernel_size: 2
    kernel_size: 2
    stride: 2
    stride: 2
    stride: 2
  }
}
layer {
  name: "conv3a"
  type: "Convolution"
  bottom: "pool2"
  top: "conv3a"
  param {
    lr_mult: 1
    decay_mult: 1
  }
  param {
    lr_mult: 2
    decay_mult: 0
  }
  convolution_param {
    num_output: 256
    pad: 1
    pad: 1
    pad: 1
    kernel_size: 3
    kernel_size: 3
    kernel_size: 3
    weight_filler {
      type: "gaussian"
      std: 0.01
    }
    bias_filler {
      type: "constant"
      value: 1
    }
  }
}
layer {
  name: "relu3a"
  type: "ReLU"
  bottom: "conv3a"
  top: "conv3a"
}
layer {
  name: "conv3b"
  type: "Convolution"
  bottom: "conv3a"
  top: "conv3b"
  param {
    lr_mult: 1
    decay_mult: 1
  }
  param {
    lr_mult: 2
    decay_mult: 0
  }
  convolution_param {
    num_output: 256
    pad: 1
    pad: 1
    pad: 1
    kernel_size: 3
    kernel_size: 3
    kernel_size: 3
    weight_filler {
      type: "gaussian"
      std: 0.01
    }
    bias_filler {
      type: "constant"
      value: 1
    }
  }
}
layer {
  name: "relu3b"
  type: "ReLU"
  bottom: "conv3b"
  top: "conv3b"
}
layer {
  name: "pool3"
  type: "Pooling"
  bottom: "conv3b"
  top: "pool3"
  pooling_param {
    pool: MAX
    kernel_size: 2
    kernel_size: 2
    kernel_size: 2
    stride: 2
    stride: 2
    stride: 2
  }
}
layer {
  name: "conv4a"
  type: "Convolution"
  bottom: "pool3"
  top: "conv4a"
  param {
    lr_mult: 1
    decay_mult: 1
  }
  param {
    lr_mult: 2
    decay_mult: 0
  }
  convolution_param {
    num_output: 512
    pad: 1
    pad: 1
    pad: 1
    kernel_size: 3
    kernel_size: 3
    kernel_size: 3
    weight_filler {
      type: "gaussian"
      std: 0.01
    }
    bias_filler {
      type: "constant"
      value: 1
    }
  }
}
layer {
  name: "relu4a"
  type: "ReLU"
  bottom: "conv4a"
  top: "conv4a"
}
layer {
  name: "conv4b"
  type: "Convolution"
  bottom: "conv4a"
  top: "conv4b"
  param {
    lr_mult: 1
    decay_mult: 1
  }
  param {
    lr_mult: 2
    decay_mult: 0
  }
  convolution_param {
    num_output: 512
    pad: 1
    pad: 1
    pad: 1
    kernel_size: 3
    kernel_size: 3
    kernel_size: 3
    weight_filler {
      type: "gaussian"
      std: 0.01
    }
    bias_filler {
      type: "constant"
      value: 1
    }
  }
}
layer {
  name: "relu4b"
  type: "ReLU"
  bottom: "conv4b"
  top: "conv4b"
}
layer {
  name: "pool4"
  type: "Pooling"
  bottom: "conv4b"
  top: "pool4"
  pooling_param {
    pool: MAX
    kernel_size: 2
    kernel_size: 2
    kernel_size: 2
    stride: 2
    stride: 2
    stride: 2
  }
}
layer {
  name: "conv5a"
  type: "Convolution"
  bottom: "pool4"
  top: "conv5a"
  param {
    lr_mult: 1
    decay_mult: 1
  }
  param {
    lr_mult: 2
    decay_mult: 0
  }
  convolution_param {
    num_output: 512
    pad: 1
    pad: 1
    pad: 1
    kernel_size: 3
    kernel_size: 3
    kernel_size: 3
    weight_filler {
      type: "gaussian"
      std: 0.01
    }
    bias_filler {
      type: "constant"
      value: 1
    }
  }
}
layer {
  name: "relu5a"
  type: "ReLU"
  bottom: "conv5a"
  top: "conv5a"
}
layer {
  name: "conv5b"
  type: "Convolution"
  bottom: "conv5a"
  top: "conv5b"
  param {
    lr_mult: 1
    decay_mult: 1
  }
  param {
    lr_mult: 2
    decay_mult: 0
  }
  convolution_param {
    num_output: 512
    pad: 1
    pad: 1
    pad: 1
    kernel_size: 3
    kernel_size: 3
    kernel_size: 3
    weight_filler {
      type: "gaussian"
      std: 0.01
    }
    bias_filler {
      type: "constant"
      value: 1
    }
  }
}
layer {
  name: "relu5b"
  type: "ReLU"
  bottom: "conv5b"
  top: "conv5b"
}
layer {
  name: "rpn_conv/3x3"
  type: "Convolution"
  bottom: "conv5b"
  top: "rpn/output"
  param {
    lr_mult: 1
    decay_mult: 1
  }
  param {
    lr_mult: 2
    decay_mult: 0
  }
  convolution_param {
    num_output: 512
    pad: 1
    pad: 1
    pad: 1
    kernel_size: 3
    kernel_size: 3
    kernel_size: 3
    stride: 1
    stride: 2
    stride: 2
    weight_filler {
      type: "gaussian"
      std: 0.01
    }
    bias_filler {
      type: "constant"
      value: 0
    }
  }
}
layer {
  name: "rpn_relu/3x3"
  type: "ReLU"
  bottom: "rpn/output"
  top: "rpn/output"
}
layer {
  name: "rpn_conv/3x3_2"
  type: "Convolution"
  bottom: "rpn/output"
  top: "rpn/output_2"
  param {
    lr_mult: 1
    decay_mult: 1
  }
  param {
    lr_mult: 2
    decay_mult: 0
  }
  convolution_param {
    num_output: 512
    pad: 1
    pad: 1
    pad: 1
    kernel_size: 3
    kernel_size: 3
    kernel_size: 3
    stride: 1
    stride: 2
    stride: 2
    weight_filler {
      type: "gaussian"
      std: 0.01
    }
    bias_filler {
      type: "constant"
      value: 0
    }
  }
}
layer {
  name: "rpn_relu/3x3_2"
  type: "ReLU"
  bottom: "rpn/output_2"
  top: "rpn/output_2"
}
layer {
  name: "rpn/output_pool"
  type: "Pooling"
  bottom: "rpn/output_2"
  top: "rpn/output_pool"
  pooling_param {
    pool: MAX
    kernel_size: 1
    kernel_size: 2
    kernel_size: 2
  }
}
layer {
  name: "rpn_cls_score"
  type: "Convolution"
  bottom: "rpn/output_pool"
  top: "rpn_cls_score"
  param {
    lr_mult: 1
    decay_mult: 1
  }
  param {
    lr_mult: 2
    decay_mult: 0
  }
  convolution_param {
    num_output: 74
    kernel_size: 1
    kernel_size: 1
    kernel_size: 1
    weight_filler {
      type: "gaussian"
      std: 0.01
    }
    bias_filler {
      type: "constant"
      value: 0
    }
  }
}
layer {
  name: "rpn_twin_pred"
  type: "Convolution"
  bottom: "rpn/output_pool"
  top: "rpn_twin_pred"
  param {
    lr_mult: 1
    decay_mult: 1
  }
  param {
    lr_mult: 2
    decay_mult: 0
  }
  convolution_param {
    num_output: 74
    kernel_size: 1
    kernel_size: 1
    kernel_size: 1
    weight_filler {
      type: "gaussian"
      std: 0.01
    }
    bias_filler {
      type: "constant"
      value: 0
    }
  }
}
layer {
  name: "rpn_cls_score_reshape"
  type: "Reshape"
  bottom: "rpn_cls_score"
  top: "rpn_cls_score_reshape"
  reshape_param {
    shape {
      dim: 0
      dim: 2
      dim: -1
      dim: 0
      dim: 0
    }
  }
}
layer {
  name: "rpn-data"
  type: "Python"
  bottom: "rpn_cls_score"
  bottom: "gt_boxes"
  bottom: "data"
  top: "rpn_labels"
  top: "rpn_twin_targets"
  top: "rpn_twin_inside_weights"
  top: "rpn_twin_outside_weights"
  python_param {
    module: "rpn.anchor_target_layer"
    layer: "AnchorTargetLayer"
    param_str: "\'feat_stride\': 8 \n\'scales\': !!python/tuple [1,1.25, 1.5,1.75, 2,2.5, 3,3.5, 4,4.5, 5,5.5, 6,7, 8,9,10,11,12,14,16,18,20,22,24,28,32,36,40,44,52,60,68,76,84,92,100]"
  }
}
layer {
  name: "rpn_loss_cls"
  type: "SoftmaxWithLoss"
  bottom: "rpn_cls_score_reshape"
  bottom: "rpn_labels"
  top: "rpn_cls_loss"
  loss_weight: 1
  propagate_down: true
  propagate_down: false
  loss_param {
    ignore_label: -1
    normalize: true
  }
}
layer {
  name: "rpn_loss_twin"
  type: "SmoothL1Loss"
  bottom: "rpn_twin_pred"
  bottom: "rpn_twin_targets"
  bottom: "rpn_twin_inside_weights"
  bottom: "rpn_twin_outside_weights"
  top: "rpn_loss_twin"
  loss_weight: 1
  smooth_l1_loss_param {
    sigma: 3
  }
}
layer {
  name: "rpn_accuarcy"
  type: "Accuracy"
  bottom: "rpn_cls_score_reshape"
  bottom: "rpn_labels"
  top: "rpn_accuarcy"
  top: "rpn_accuarcy_class"
  propagate_down: false
  propagate_down: false
  accuracy_param {
    ignore_label: -1
  }
}
layer {
  name: "rpn_cls_prob"
  type: "Softmax"
  bottom: "rpn_cls_score_reshape"
  top: "rpn_cls_prob"
}
layer {
  name: "rpn_cls_prob_reshape"
  type: "Reshape"
  bottom: "rpn_cls_prob"
  top: "rpn_cls_prob_reshape"
  reshape_param {
    shape {
      dim: 0
      dim: 74
      dim: -1
      dim: 0
      dim: 0
    }
  }
}
layer {
  name: "proposal"
  type: "Python"
  bottom: "rpn_cls_prob_reshape"
  bottom: "rpn_twin_pred"
  top: "rpn_rois"
  include {
    phase: TRAIN
  }
  python_param {
    module: "rpn.proposal_layer"
    layer: "ProposalLayer"
    param_str: "\'feat_stride\': 8 \n\'scales\': !!python/tuple [1,1.25, 1.5,1.75, 2,2.5, 3,3.5, 4,4.5, 5,5.5, 6,7, 8,9,10,11,12,14,16,18,20,22,24,28,32,36,40,44,52,60,68,76,84,92,100]"
  }
}
layer {
  name: "roi-data"
  type: "Python"
  bottom: "rpn_rois"
  bottom: "gt_boxes"
  top: "rois"
  top: "labels"
  top: "twin_targets"
  top: "twin_inside_weights"
  top: "twin_outside_weights"
  python_param {
    module: "rpn.proposal_target_layer"
    layer: "ProposalTargetLayer"
    param_str: "\'num_classes\': 201"
  }
}
layer {
  name: "roi_pool5"
  type: "ROIPooling"
  bottom: "conv5b"
  bottom: "rois"
  top: "pool5"
  roi_pooling_param {
    pooled_h: 4
    pooled_w: 4
    spatial_scale: 0.0625
    pooled_l: 1
    temporal_scale: 0.125
  }
}
layer {
  name: "fc6"
  type: "InnerProduct"
  bottom: "pool5"
  top: "fc6"
  param {
    lr_mult: 1
    decay_mult: 1
  }
  param {
    lr_mult: 2
    decay_mult: 0
  }
  inner_product_param {
    num_output: 4096
    weight_filler {
      type: "gaussian"
      std: 0.005
    }
    bias_filler {
      type: "constant"
      value: 1
    }
  }
}
layer {
  name: "relu6"
  type: "ReLU"
  bottom: "fc6"
  top: "fc6"
}
layer {
  name: "drop6"
  type: "Dropout"
  bottom: "fc6"
  top: "fc6"
  dropout_param {
    dropout_ratio: 0.5
  }
}
layer {
  name: "cls_score"
  type: "InnerProduct"
  bottom: "fc6"
  top: "cls_score"
  param {
    lr_mult: 1
    decay_mult: 1
  }
  param {
    lr_mult: 2
    decay_mult: 0
  }
  inner_product_param {
    num_output: 201
    weight_filler {
      type: "gaussian"
      std: 0.01
    }
    bias_filler {
      type: "constant"
      value: 0
    }
  }
}
layer {
  name: "twin_pred"
  type: "InnerProduct"
  bottom: "fc6"
  top: "twin_pred"
  param {
    lr_mult: 1
    decay_mult: 1
  }
  param {
    lr_mult: 2
    decay_mult: 0
  }
  inner_product_param {
    num_output: 402
    weight_filler {
      type: "gaussian"
      std: 0.001
    }
    bias_filler {
      type: "constant"
      value: 0
    }
  }
}
layer {
  name: "loss_cls"
  type: "SoftmaxWithLoss"
  bottom: "cls_score"
  bottom: "labels"
  top: "loss_cls"
  loss_weight: 1
  propagate_down: true
  propagate_down: false
}
layer {
  name: "loss_twin"
  type: "SmoothL1Loss"
  bottom: "twin_pred"
  bottom: "twin_targets"
  bottom: "twin_inside_weights"
  bottom: "twin_outside_weights"
  top: "loss_twin"
  loss_weight: 1
}
layer {
  name: "accuarcy"
  type: "Accuracy"
  bottom: "cls_score"
  bottom: "labels"
  top: "accuarcy"
  propagate_down: false
  propagate_down: false
  accuracy_param {
    ignore_label: -1
  }
}
I0416 11:30:24.445860 21584 layer_factory.hpp:77] Creating layer data
I0416 11:30:24.456670 21584 net.cpp:100] Creating Layer data
I0416 11:30:24.456693 21584 net.cpp:408] data -> data
I0416 11:30:24.456707 21584 net.cpp:408] data -> gt_boxes
RoiDataLayer: name_to_top: {'gt_windows': 1, 'data': 0}
I0416 11:30:24.465222 21584 net.cpp:150] Setting up data
I0416 11:30:24.465246 21584 net.cpp:157] Top shape: 1 3 768 112 112 (28901376)
I0416 11:30:24.465256 21584 net.cpp:157] Top shape: 1 101 (101)
I0416 11:30:24.465260 21584 net.cpp:165] Memory required for data: 115605908
I0416 11:30:24.465268 21584 layer_factory.hpp:77] Creating layer data_data_0_split
I0416 11:30:24.465281 21584 net.cpp:100] Creating Layer data_data_0_split
I0416 11:30:24.465287 21584 net.cpp:434] data_data_0_split <- data
I0416 11:30:24.465299 21584 net.cpp:408] data_data_0_split -> data_data_0_split_0
I0416 11:30:24.465312 21584 net.cpp:408] data_data_0_split -> data_data_0_split_1
I0416 11:30:24.465373 21584 net.cpp:150] Setting up data_data_0_split
I0416 11:30:24.465382 21584 net.cpp:157] Top shape: 1 3 768 112 112 (28901376)
I0416 11:30:24.465389 21584 net.cpp:157] Top shape: 1 3 768 112 112 (28901376)
I0416 11:30:24.465394 21584 net.cpp:165] Memory required for data: 346816916
I0416 11:30:24.465399 21584 layer_factory.hpp:77] Creating layer gt_boxes_data_1_split
I0416 11:30:24.465425 21584 net.cpp:100] Creating Layer gt_boxes_data_1_split
I0416 11:30:24.465432 21584 net.cpp:434] gt_boxes_data_1_split <- gt_boxes
I0416 11:30:24.465440 21584 net.cpp:408] gt_boxes_data_1_split -> gt_boxes_data_1_split_0
I0416 11:30:24.465448 21584 net.cpp:408] gt_boxes_data_1_split -> gt_boxes_data_1_split_1
I0416 11:30:24.465492 21584 net.cpp:150] Setting up gt_boxes_data_1_split
I0416 11:30:24.465502 21584 net.cpp:157] Top shape: 1 101 (101)
I0416 11:30:24.465507 21584 net.cpp:157] Top shape: 1 101 (101)
I0416 11:30:24.465510 21584 net.cpp:165] Memory required for data: 346817724
I0416 11:30:24.465515 21584 layer_factory.hpp:77] Creating layer conv1a
I0416 11:30:24.465531 21584 net.cpp:100] Creating Layer conv1a
I0416 11:30:24.465536 21584 net.cpp:434] conv1a <- data_data_0_split_0
I0416 11:30:24.465544 21584 net.cpp:408] conv1a -> conv1a
I0416 11:30:24.483294 21584 net.cpp:150] Setting up conv1a
I0416 11:30:24.483335 21584 net.cpp:157] Top shape: 1 64 768 112 112 (616562688)
I0416 11:30:24.483340 21584 net.cpp:165] Memory required for data: 2813068476
I0416 11:30:24.483361 21584 layer_factory.hpp:77] Creating layer relu1a
I0416 11:30:24.483376 21584 net.cpp:100] Creating Layer relu1a
I0416 11:30:24.483381 21584 net.cpp:434] relu1a <- conv1a
I0416 11:30:24.483392 21584 net.cpp:395] relu1a -> conv1a (in-place)
I0416 11:30:24.483405 21584 net.cpp:150] Setting up relu1a
I0416 11:30:24.483434 21584 net.cpp:157] Top shape: 1 64 768 112 112 (616562688)
I0416 11:30:24.483438 21584 net.cpp:165] Memory required for data: 5279319228
I0416 11:30:24.483455 21584 layer_factory.hpp:77] Creating layer pool1
I0416 11:30:24.483464 21584 net.cpp:100] Creating Layer pool1
I0416 11:30:24.483472 21584 net.cpp:434] pool1 <- conv1a
I0416 11:30:24.483482 21584 net.cpp:408] pool1 -> pool1
I0416 11:30:24.483582 21584 net.cpp:150] Setting up pool1
I0416 11:30:24.483589 21584 net.cpp:157] Top shape: 1 64 768 56 56 (154140672)
I0416 11:30:24.483593 21584 net.cpp:165] Memory required for data: 5895881916
I0416 11:30:24.483598 21584 layer_factory.hpp:77] Creating layer conv2a
I0416 11:30:24.483613 21584 net.cpp:100] Creating Layer conv2a
I0416 11:30:24.483620 21584 net.cpp:434] conv2a <- pool1
I0416 11:30:24.483628 21584 net.cpp:408] conv2a -> conv2a
I0416 11:30:24.490531 21584 net.cpp:150] Setting up conv2a
I0416 11:30:24.490561 21584 net.cpp:157] Top shape: 1 128 768 56 56 (308281344)
I0416 11:30:24.490566 21584 net.cpp:165] Memory required for data: 7129007292
I0416 11:30:24.490582 21584 layer_factory.hpp:77] Creating layer relu2a
I0416 11:30:24.490598 21584 net.cpp:100] Creating Layer relu2a
I0416 11:30:24.490604 21584 net.cpp:434] relu2a <- conv2a
I0416 11:30:24.490613 21584 net.cpp:395] relu2a -> conv2a (in-place)
I0416 11:30:24.490624 21584 net.cpp:150] Setting up relu2a
I0416 11:30:24.490631 21584 net.cpp:157] Top shape: 1 128 768 56 56 (308281344)
I0416 11:30:24.490635 21584 net.cpp:165] Memory required for data: 8362132668
I0416 11:30:24.490640 21584 layer_factory.hpp:77] Creating layer pool2
I0416 11:30:24.490667 21584 net.cpp:100] Creating Layer pool2
I0416 11:30:24.490679 21584 net.cpp:434] pool2 <- conv2a
I0416 11:30:24.490686 21584 net.cpp:408] pool2 -> pool2
I0416 11:30:24.490779 21584 net.cpp:150] Setting up pool2
I0416 11:30:24.490790 21584 net.cpp:157] Top shape: 1 128 384 28 28 (38535168)
I0416 11:30:24.490795 21584 net.cpp:165] Memory required for data: 8516273340
I0416 11:30:24.490803 21584 layer_factory.hpp:77] Creating layer conv3a
I0416 11:30:24.490814 21584 net.cpp:100] Creating Layer conv3a
I0416 11:30:24.490823 21584 net.cpp:434] conv3a <- pool2
I0416 11:30:24.490833 21584 net.cpp:408] conv3a -> conv3a
I0416 11:30:24.499125 21584 net.cpp:150] Setting up conv3a
I0416 11:30:24.499155 21584 net.cpp:157] Top shape: 1 256 384 28 28 (77070336)
I0416 11:30:24.499159 21584 net.cpp:165] Memory required for data: 8824554684
I0416 11:30:24.499173 21584 layer_factory.hpp:77] Creating layer relu3a
I0416 11:30:24.499183 21584 net.cpp:100] Creating Layer relu3a
I0416 11:30:24.499189 21584 net.cpp:434] relu3a <- conv3a
I0416 11:30:24.499199 21584 net.cpp:395] relu3a -> conv3a (in-place)
I0416 11:30:24.499210 21584 net.cpp:150] Setting up relu3a
I0416 11:30:24.499217 21584 net.cpp:157] Top shape: 1 256 384 28 28 (77070336)
I0416 11:30:24.499222 21584 net.cpp:165] Memory required for data: 9132836028
I0416 11:30:24.499227 21584 layer_factory.hpp:77] Creating layer conv3b
I0416 11:30:24.499239 21584 net.cpp:100] Creating Layer conv3b
I0416 11:30:24.499276 21584 net.cpp:434] conv3b <- conv3a
I0416 11:30:24.499286 21584 net.cpp:408] conv3b -> conv3b
I0416 11:30:24.516047 21584 net.cpp:150] Setting up conv3b
I0416 11:30:24.516077 21584 net.cpp:157] Top shape: 1 256 384 28 28 (77070336)
I0416 11:30:24.516082 21584 net.cpp:165] Memory required for data: 9441117372
I0416 11:30:24.516094 21584 layer_factory.hpp:77] Creating layer relu3b
I0416 11:30:24.516108 21584 net.cpp:100] Creating Layer relu3b
I0416 11:30:24.516113 21584 net.cpp:434] relu3b <- conv3b
I0416 11:30:24.516124 21584 net.cpp:395] relu3b -> conv3b (in-place)
I0416 11:30:24.516135 21584 net.cpp:150] Setting up relu3b
I0416 11:30:24.516142 21584 net.cpp:157] Top shape: 1 256 384 28 28 (77070336)
I0416 11:30:24.516147 21584 net.cpp:165] Memory required for data: 9749398716
I0416 11:30:24.516151 21584 layer_factory.hpp:77] Creating layer pool3
I0416 11:30:24.516160 21584 net.cpp:100] Creating Layer pool3
I0416 11:30:24.516207 21584 net.cpp:434] pool3 <- conv3b
I0416 11:30:24.516219 21584 net.cpp:408] pool3 -> pool3
I0416 11:30:24.516309 21584 net.cpp:150] Setting up pool3
I0416 11:30:24.516317 21584 net.cpp:157] Top shape: 1 256 192 14 14 (9633792)
I0416 11:30:24.516353 21584 net.cpp:165] Memory required for data: 9787933884
I0416 11:30:24.516360 21584 layer_factory.hpp:77] Creating layer conv4a
I0416 11:30:24.516374 21584 net.cpp:100] Creating Layer conv4a
I0416 11:30:24.516379 21584 net.cpp:434] conv4a <- pool3
I0416 11:30:24.516397 21584 net.cpp:408] conv4a -> conv4a
I0416 11:30:24.547946 21584 net.cpp:150] Setting up conv4a
I0416 11:30:24.547974 21584 net.cpp:157] Top shape: 1 512 192 14 14 (19267584)
I0416 11:30:24.547979 21584 net.cpp:165] Memory required for data: 9865004220
I0416 11:30:24.547996 21584 layer_factory.hpp:77] Creating layer relu4a
I0416 11:30:24.548007 21584 net.cpp:100] Creating Layer relu4a
I0416 11:30:24.548014 21584 net.cpp:434] relu4a <- conv4a
I0416 11:30:24.548024 21584 net.cpp:395] relu4a -> conv4a (in-place)
I0416 11:30:24.548036 21584 net.cpp:150] Setting up relu4a
I0416 11:30:24.548043 21584 net.cpp:157] Top shape: 1 512 192 14 14 (19267584)
I0416 11:30:24.548048 21584 net.cpp:165] Memory required for data: 9942074556
I0416 11:30:24.548053 21584 layer_factory.hpp:77] Creating layer conv4b
I0416 11:30:24.548069 21584 net.cpp:100] Creating Layer conv4b
I0416 11:30:24.548081 21584 net.cpp:434] conv4b <- conv4a
I0416 11:30:24.548089 21584 net.cpp:408] conv4b -> conv4b
I0416 11:30:24.606168 21584 net.cpp:150] Setting up conv4b
I0416 11:30:24.606201 21584 net.cpp:157] Top shape: 1 512 192 14 14 (19267584)
I0416 11:30:24.606205 21584 net.cpp:165] Memory required for data: 10019144892
I0416 11:30:24.606216 21584 layer_factory.hpp:77] Creating layer relu4b
I0416 11:30:24.606230 21584 net.cpp:100] Creating Layer relu4b
I0416 11:30:24.606238 21584 net.cpp:434] relu4b <- conv4b
I0416 11:30:24.606247 21584 net.cpp:395] relu4b -> conv4b (in-place)
I0416 11:30:24.606259 21584 net.cpp:150] Setting up relu4b
I0416 11:30:24.606266 21584 net.cpp:157] Top shape: 1 512 192 14 14 (19267584)
I0416 11:30:24.606271 21584 net.cpp:165] Memory required for data: 10096215228
I0416 11:30:24.606274 21584 layer_factory.hpp:77] Creating layer pool4
I0416 11:30:24.606299 21584 net.cpp:100] Creating Layer pool4
I0416 11:30:24.606305 21584 net.cpp:434] pool4 <- conv4b
I0416 11:30:24.606313 21584 net.cpp:408] pool4 -> pool4
I0416 11:30:24.606369 21584 net.cpp:150] Setting up pool4
I0416 11:30:24.606377 21584 net.cpp:157] Top shape: 1 512 96 7 7 (2408448)
I0416 11:30:24.606389 21584 net.cpp:165] Memory required for data: 10105849020
I0416 11:30:24.606395 21584 layer_factory.hpp:77] Creating layer conv5a
I0416 11:30:24.606408 21584 net.cpp:100] Creating Layer conv5a
I0416 11:30:24.606415 21584 net.cpp:434] conv5a <- pool4
I0416 11:30:24.606423 21584 net.cpp:408] conv5a -> conv5a
I0416 11:30:24.664589 21584 net.cpp:150] Setting up conv5a
I0416 11:30:24.664623 21584 net.cpp:157] Top shape: 1 512 96 7 7 (2408448)
I0416 11:30:24.664626 21584 net.cpp:165] Memory required for data: 10115482812
I0416 11:30:24.664638 21584 layer_factory.hpp:77] Creating layer relu5a
I0416 11:30:24.664649 21584 net.cpp:100] Creating Layer relu5a
I0416 11:30:24.664654 21584 net.cpp:434] relu5a <- conv5a
I0416 11:30:24.664662 21584 net.cpp:395] relu5a -> conv5a (in-place)
I0416 11:30:24.664674 21584 net.cpp:150] Setting up relu5a
I0416 11:30:24.664680 21584 net.cpp:157] Top shape: 1 512 96 7 7 (2408448)
I0416 11:30:24.664685 21584 net.cpp:165] Memory required for data: 10125116604
I0416 11:30:24.664690 21584 layer_factory.hpp:77] Creating layer conv5b
I0416 11:30:24.664703 21584 net.cpp:100] Creating Layer conv5b
I0416 11:30:24.664727 21584 net.cpp:434] conv5b <- conv5a
I0416 11:30:24.664738 21584 net.cpp:408] conv5b -> conv5b
I0416 11:30:24.723330 21584 net.cpp:150] Setting up conv5b
I0416 11:30:24.723362 21584 net.cpp:157] Top shape: 1 512 96 7 7 (2408448)
I0416 11:30:24.723367 21584 net.cpp:165] Memory required for data: 10134750396
I0416 11:30:24.723377 21584 layer_factory.hpp:77] Creating layer relu5b
I0416 11:30:24.723389 21584 net.cpp:100] Creating Layer relu5b
I0416 11:30:24.723395 21584 net.cpp:434] relu5b <- conv5b
I0416 11:30:24.723404 21584 net.cpp:395] relu5b -> conv5b (in-place)
I0416 11:30:24.723415 21584 net.cpp:150] Setting up relu5b
I0416 11:30:24.723423 21584 net.cpp:157] Top shape: 1 512 96 7 7 (2408448)
I0416 11:30:24.723426 21584 net.cpp:165] Memory required for data: 10144384188
I0416 11:30:24.723431 21584 layer_factory.hpp:77] Creating layer conv5b_relu5b_0_split
I0416 11:30:24.723441 21584 net.cpp:100] Creating Layer conv5b_relu5b_0_split
I0416 11:30:24.723446 21584 net.cpp:434] conv5b_relu5b_0_split <- conv5b
I0416 11:30:24.723469 21584 net.cpp:408] conv5b_relu5b_0_split -> conv5b_relu5b_0_split_0
I0416 11:30:24.723481 21584 net.cpp:408] conv5b_relu5b_0_split -> conv5b_relu5b_0_split_1
I0416 11:30:24.723536 21584 net.cpp:150] Setting up conv5b_relu5b_0_split
I0416 11:30:24.723549 21584 net.cpp:157] Top shape: 1 512 96 7 7 (2408448)
I0416 11:30:24.723557 21584 net.cpp:157] Top shape: 1 512 96 7 7 (2408448)
I0416 11:30:24.723562 21584 net.cpp:165] Memory required for data: 10163651772
I0416 11:30:24.723565 21584 layer_factory.hpp:77] Creating layer rpn_conv/3x3
I0416 11:30:24.723580 21584 net.cpp:100] Creating Layer rpn_conv/3x3
I0416 11:30:24.723587 21584 net.cpp:434] rpn_conv/3x3 <- conv5b_relu5b_0_split_0
I0416 11:30:24.723600 21584 net.cpp:408] rpn_conv/3x3 -> rpn/output
I0416 11:30:24.782825 21584 net.cpp:150] Setting up rpn_conv/3x3
I0416 11:30:24.782851 21584 net.cpp:157] Top shape: 1 512 96 4 4 (786432)
I0416 11:30:24.782855 21584 net.cpp:165] Memory required for data: 10166797500
I0416 11:30:24.782874 21584 layer_factory.hpp:77] Creating layer rpn_relu/3x3
I0416 11:30:24.782886 21584 net.cpp:100] Creating Layer rpn_relu/3x3
I0416 11:30:24.782891 21584 net.cpp:434] rpn_relu/3x3 <- rpn/output
I0416 11:30:24.782901 21584 net.cpp:395] rpn_relu/3x3 -> rpn/output (in-place)
I0416 11:30:24.782912 21584 net.cpp:150] Setting up rpn_relu/3x3
I0416 11:30:24.782917 21584 net.cpp:157] Top shape: 1 512 96 4 4 (786432)
I0416 11:30:24.782920 21584 net.cpp:165] Memory required for data: 10169943228
I0416 11:30:24.782923 21584 layer_factory.hpp:77] Creating layer rpn_conv/3x3_2
I0416 11:30:24.782935 21584 net.cpp:100] Creating Layer rpn_conv/3x3_2
I0416 11:30:24.782946 21584 net.cpp:434] rpn_conv/3x3_2 <- rpn/output
I0416 11:30:24.782958 21584 net.cpp:408] rpn_conv/3x3_2 -> rpn/output_2
I0416 11:30:24.841146 21584 net.cpp:150] Setting up rpn_conv/3x3_2
I0416 11:30:24.841176 21584 net.cpp:157] Top shape: 1 512 96 2 2 (196608)
I0416 11:30:24.841181 21584 net.cpp:165] Memory required for data: 10170729660
I0416 11:30:24.841192 21584 layer_factory.hpp:77] Creating layer rpn_relu/3x3_2
I0416 11:30:24.841204 21584 net.cpp:100] Creating Layer rpn_relu/3x3_2
I0416 11:30:24.841212 21584 net.cpp:434] rpn_relu/3x3_2 <- rpn/output_2
I0416 11:30:24.841222 21584 net.cpp:395] rpn_relu/3x3_2 -> rpn/output_2 (in-place)
I0416 11:30:24.841233 21584 net.cpp:150] Setting up rpn_relu/3x3_2
I0416 11:30:24.841238 21584 net.cpp:157] Top shape: 1 512 96 2 2 (196608)
I0416 11:30:24.841243 21584 net.cpp:165] Memory required for data: 10171516092
I0416 11:30:24.841251 21584 layer_factory.hpp:77] Creating layer rpn/output_pool
I0416 11:30:24.841260 21584 net.cpp:100] Creating Layer rpn/output_pool
I0416 11:30:24.841279 21584 net.cpp:434] rpn/output_pool <- rpn/output_2
I0416 11:30:24.841287 21584 net.cpp:408] rpn/output_pool -> rpn/output_pool
I0416 11:30:24.841344 21584 net.cpp:150] Setting up rpn/output_pool
I0416 11:30:24.841356 21584 net.cpp:157] Top shape: 1 512 96 1 1 (49152)
I0416 11:30:24.841359 21584 net.cpp:165] Memory required for data: 10171712700
I0416 11:30:24.841367 21584 layer_factory.hpp:77] Creating layer rpn/output_pool_rpn/output_pool_0_split
I0416 11:30:24.841377 21584 net.cpp:100] Creating Layer rpn/output_pool_rpn/output_pool_0_split
I0416 11:30:24.841382 21584 net.cpp:434] rpn/output_pool_rpn/output_pool_0_split <- rpn/output_pool
I0416 11:30:24.841390 21584 net.cpp:408] rpn/output_pool_rpn/output_pool_0_split -> rpn/output_pool_rpn/output_pool_0_split_0
I0416 11:30:24.841403 21584 net.cpp:408] rpn/output_pool_rpn/output_pool_0_split -> rpn/output_pool_rpn/output_pool_0_split_1
I0416 11:30:24.841451 21584 net.cpp:150] Setting up rpn/output_pool_rpn/output_pool_0_split
I0416 11:30:24.841459 21584 net.cpp:157] Top shape: 1 512 96 1 1 (49152)
I0416 11:30:24.841465 21584 net.cpp:157] Top shape: 1 512 96 1 1 (49152)
I0416 11:30:24.841470 21584 net.cpp:165] Memory required for data: 10172105916
I0416 11:30:24.841477 21584 layer_factory.hpp:77] Creating layer rpn_cls_score
I0416 11:30:24.841491 21584 net.cpp:100] Creating Layer rpn_cls_score
I0416 11:30:24.841497 21584 net.cpp:434] rpn_cls_score <- rpn/output_pool_rpn/output_pool_0_split_0
I0416 11:30:24.841507 21584 net.cpp:408] rpn_cls_score -> rpn_cls_score
I0416 11:30:24.842073 21584 net.cpp:150] Setting up rpn_cls_score
I0416 11:30:24.842082 21584 net.cpp:157] Top shape: 1 74 96 1 1 (7104)
I0416 11:30:24.842087 21584 net.cpp:165] Memory required for data: 10172134332
I0416 11:30:24.842097 21584 layer_factory.hpp:77] Creating layer rpn_cls_score_rpn_cls_score_0_split
I0416 11:30:24.842103 21584 net.cpp:100] Creating Layer rpn_cls_score_rpn_cls_score_0_split
I0416 11:30:24.842108 21584 net.cpp:434] rpn_cls_score_rpn_cls_score_0_split <- rpn_cls_score
I0416 11:30:24.842120 21584 net.cpp:408] rpn_cls_score_rpn_cls_score_0_split -> rpn_cls_score_rpn_cls_score_0_split_0
I0416 11:30:24.842129 21584 net.cpp:408] rpn_cls_score_rpn_cls_score_0_split -> rpn_cls_score_rpn_cls_score_0_split_1
I0416 11:30:24.842190 21584 net.cpp:150] Setting up rpn_cls_score_rpn_cls_score_0_split
I0416 11:30:24.842198 21584 net.cpp:157] Top shape: 1 74 96 1 1 (7104)
I0416 11:30:24.842203 21584 net.cpp:157] Top shape: 1 74 96 1 1 (7104)
I0416 11:30:24.842209 21584 net.cpp:165] Memory required for data: 10172191164
I0416 11:30:24.842217 21584 layer_factory.hpp:77] Creating layer rpn_twin_pred
I0416 11:30:24.842237 21584 net.cpp:100] Creating Layer rpn_twin_pred
I0416 11:30:24.842242 21584 net.cpp:434] rpn_twin_pred <- rpn/output_pool_rpn/output_pool_0_split_1
I0416 11:30:24.842250 21584 net.cpp:408] rpn_twin_pred -> rpn_twin_pred
I0416 11:30:24.842787 21584 net.cpp:150] Setting up rpn_twin_pred
I0416 11:30:24.842797 21584 net.cpp:157] Top shape: 1 74 96 1 1 (7104)
I0416 11:30:24.842800 21584 net.cpp:165] Memory required for data: 10172219580
I0416 11:30:24.842809 21584 layer_factory.hpp:77] Creating layer rpn_twin_pred_rpn_twin_pred_0_split
I0416 11:30:24.842818 21584 net.cpp:100] Creating Layer rpn_twin_pred_rpn_twin_pred_0_split
I0416 11:30:24.842826 21584 net.cpp:434] rpn_twin_pred_rpn_twin_pred_0_split <- rpn_twin_pred
I0416 11:30:24.842836 21584 net.cpp:408] rpn_twin_pred_rpn_twin_pred_0_split -> rpn_twin_pred_rpn_twin_pred_0_split_0
I0416 11:30:24.842844 21584 net.cpp:408] rpn_twin_pred_rpn_twin_pred_0_split -> rpn_twin_pred_rpn_twin_pred_0_split_1
I0416 11:30:24.842892 21584 net.cpp:150] Setting up rpn_twin_pred_rpn_twin_pred_0_split
I0416 11:30:24.842900 21584 net.cpp:157] Top shape: 1 74 96 1 1 (7104)
I0416 11:30:24.842905 21584 net.cpp:157] Top shape: 1 74 96 1 1 (7104)
I0416 11:30:24.842911 21584 net.cpp:165] Memory required for data: 10172276412
I0416 11:30:24.842921 21584 layer_factory.hpp:77] Creating layer rpn_cls_score_reshape
I0416 11:30:24.842931 21584 net.cpp:100] Creating Layer rpn_cls_score_reshape
I0416 11:30:24.842936 21584 net.cpp:434] rpn_cls_score_reshape <- rpn_cls_score_rpn_cls_score_0_split_0
I0416 11:30:24.842943 21584 net.cpp:408] rpn_cls_score_reshape -> rpn_cls_score_reshape
I0416 11:30:24.842980 21584 net.cpp:150] Setting up rpn_cls_score_reshape
I0416 11:30:24.842988 21584 net.cpp:157] Top shape: 1 2 3552 1 1 (7104)
I0416 11:30:24.842991 21584 net.cpp:165] Memory required for data: 10172304828
I0416 11:30:24.842995 21584 layer_factory.hpp:77] Creating layer rpn_cls_score_reshape_rpn_cls_score_reshape_0_split
I0416 11:30:24.843003 21584 net.cpp:100] Creating Layer rpn_cls_score_reshape_rpn_cls_score_reshape_0_split
I0416 11:30:24.843009 21584 net.cpp:434] rpn_cls_score_reshape_rpn_cls_score_reshape_0_split <- rpn_cls_score_reshape
I0416 11:30:24.843017 21584 net.cpp:408] rpn_cls_score_reshape_rpn_cls_score_reshape_0_split -> rpn_cls_score_reshape_rpn_cls_score_reshape_0_split_0
I0416 11:30:24.843034 21584 net.cpp:408] rpn_cls_score_reshape_rpn_cls_score_reshape_0_split -> rpn_cls_score_reshape_rpn_cls_score_reshape_0_split_1
I0416 11:30:24.843040 21584 net.cpp:408] rpn_cls_score_reshape_rpn_cls_score_reshape_0_split -> rpn_cls_score_reshape_rpn_cls_score_reshape_0_split_2
I0416 11:30:24.843104 21584 net.cpp:150] Setting up rpn_cls_score_reshape_rpn_cls_score_reshape_0_split
I0416 11:30:24.843113 21584 net.cpp:157] Top shape: 1 2 3552 1 1 (7104)
I0416 11:30:24.843119 21584 net.cpp:157] Top shape: 1 2 3552 1 1 (7104)
I0416 11:30:24.843130 21584 net.cpp:157] Top shape: 1 2 3552 1 1 (7104)
I0416 11:30:24.843134 21584 net.cpp:165] Memory required for data: 10172390076
I0416 11:30:24.843138 21584 layer_factory.hpp:77] Creating layer rpn-data
I0416 11:30:24.843514 21584 net.cpp:100] Creating Layer rpn-data
I0416 11:30:24.843525 21584 net.cpp:434] rpn-data <- rpn_cls_score_rpn_cls_score_0_split_1
I0416 11:30:24.843533 21584 net.cpp:434] rpn-data <- gt_boxes_data_1_split_0
I0416 11:30:24.843539 21584 net.cpp:434] rpn-data <- data_data_0_split_1
I0416 11:30:24.843549 21584 net.cpp:408] rpn-data -> rpn_labels
I0416 11:30:24.843559 21584 net.cpp:408] rpn-data -> rpn_twin_targets
I0416 11:30:24.843569 21584 net.cpp:408] rpn-data -> rpn_twin_inside_weights
I0416 11:30:24.843587 21584 net.cpp:408] rpn-data -> rpn_twin_outside_weights
I0416 11:30:24.846127 21584 net.cpp:150] Setting up rpn-data
I0416 11:30:24.846140 21584 net.cpp:157] Top shape: 1 1 3552 1 1 (3552)
I0416 11:30:24.846146 21584 net.cpp:157] Top shape: 1 74 96 1 1 (7104)
I0416 11:30:24.846153 21584 net.cpp:157] Top shape: 1 74 96 1 1 (7104)
I0416 11:30:24.846161 21584 net.cpp:157] Top shape: 1 74 96 1 1 (7104)
I0416 11:30:24.846166 21584 net.cpp:165] Memory required for data: 10172489532
I0416 11:30:24.846173 21584 layer_factory.hpp:77] Creating layer rpn_labels_rpn-data_0_split
I0416 11:30:24.846191 21584 net.cpp:100] Creating Layer rpn_labels_rpn-data_0_split
I0416 11:30:24.846199 21584 net.cpp:434] rpn_labels_rpn-data_0_split <- rpn_labels
I0416 11:30:24.846207 21584 net.cpp:408] rpn_labels_rpn-data_0_split -> rpn_labels_rpn-data_0_split_0
I0416 11:30:24.846218 21584 net.cpp:408] rpn_labels_rpn-data_0_split -> rpn_labels_rpn-data_0_split_1
I0416 11:30:24.846266 21584 net.cpp:150] Setting up rpn_labels_rpn-data_0_split
I0416 11:30:24.846280 21584 net.cpp:157] Top shape: 1 1 3552 1 1 (3552)
I0416 11:30:24.846288 21584 net.cpp:157] Top shape: 1 1 3552 1 1 (3552)
I0416 11:30:24.846292 21584 net.cpp:165] Memory required for data: 10172517948
I0416 11:30:24.846297 21584 layer_factory.hpp:77] Creating layer rpn_loss_cls
I0416 11:30:24.846307 21584 net.cpp:100] Creating Layer rpn_loss_cls
I0416 11:30:24.846313 21584 net.cpp:434] rpn_loss_cls <- rpn_cls_score_reshape_rpn_cls_score_reshape_0_split_0
I0416 11:30:24.846319 21584 net.cpp:434] rpn_loss_cls <- rpn_labels_rpn-data_0_split_0
…
I0416 11:30:24.846670 21584 layer_factory.hpp:77] Creating layer rpn_accuarcy
I0416 11:30:24.846680 21584 net.cpp:100] Creating Layer rpn_accuarcy
I0416 11:30:24.846688 21584 net.cpp:434] rpn_accuarcy <- rpn_cls_score_reshape_rpn_cls_score_reshape_0_split_1
I0416 11:30:24.846694 21584 net.cpp:434] rpn_accuarcy <- rpn_labels_rpn-data_0_split_1
I0416 11:30:24.846701 21584 net.cpp:408] rpn_accuarcy -> rpn_accuarcy
I0416 11:30:24.846714 21584 net.cpp:408] rpn_accuarcy -> rpn_accuarcy_class
I0416 11:30:24.846765 21584 net.cpp:150] Setting up rpn_accuarcy
I0416 11:30:24.846773 21584 net.cpp:157] Top shape: (1)
I0416 11:30:24.846778 21584 net.cpp:157] Top shape: 2 (2)
I0416 11:30:24.846783 21584 net.cpp:165] Memory required for data: 10172517968
I0416 11:30:24.846788 21584 layer_factory.hpp:77] Creating layer rpn_cls_prob
I0416 11:30:24.846796 21584 net.cpp:100] Creating Layer rpn_cls_prob
I0416 11:30:24.846807 21584 net.cpp:434] rpn_cls_prob <- rpn_cls_score_reshape_rpn_cls_score_reshape_0_split_2
I0416 11:30:24.846814 21584 net.cpp:408] rpn_cls_prob -> rpn_cls_prob
I0416 11:30:24.846886 21584 net.cpp:150] Setting up rpn_cls_prob
I0416 11:30:24.846894 21584 net.cpp:157] Top shape: 1 2 3552 1 1 (7104)
I0416 11:30:24.846899 21584 net.cpp:165] Memory required for data: 10172546384
I0416 11:30:24.846904 21584 layer_factory.hpp:77] Creating layer rpn_cls_prob_reshape
I0416 11:30:24.846920 21584 net.cpp:100] Creating Layer rpn_cls_prob_reshape
I0416 11:30:24.846925 21584 net.cpp:434] rpn_cls_prob_reshape <- rpn_cls_prob
I0416 11:30:24.846933 21584 net.cpp:408] rpn_cls_prob_reshape -> rpn_cls_prob_reshape
I0416 11:30:24.846966 21584 net.cpp:150] Setting up rpn_cls_prob_reshape
I0416 11:30:24.846974 21584 net.cpp:157] Top shape: 1 74 96 1 1 (7104)
I0416 11:30:24.846977 21584 net.cpp:165] Memory required for data: 10172574800
I0416 11:30:24.846983 21584 layer_factory.hpp:77] Creating layer proposal
I0416 11:30:24.847507 21584 net.cpp:100] Creating Layer proposal
I0416 11:30:24.847519 21584 net.cpp:434] proposal <- rpn_cls_prob_reshape
I0416 11:30:24.847525 21584 net.cpp:434] proposal <- rpn_twin_pred_rpn_twin_pred_0_split_1
I0416 11:30:24.847535 21584 net.cpp:408] proposal -> rpn_rois
I0416 11:30:24.851259 21584 net.cpp:150] Setting up proposal
I0416 11:30:24.851272 21584 net.cpp:157] Top shape: 1 3 (3)
I0416 11:30:24.851276 21584 net.cpp:165] Memory required for data: 10172574812
I0416 11:30:24.851281 21584 layer_factory.hpp:77] Creating layer roi-data
I0416 11:30:24.851416 21584 net.cpp:100] Creating Layer roi-data
I0416 11:30:24.851428 21584 net.cpp:434] roi-data <- rpn_rois
I0416 11:30:24.851434 21584 net.cpp:434] roi-data <- gt_boxes_data_1_split_1
I0416 11:30:24.851444 21584 net.cpp:408] roi-data -> rois
I0416 11:30:24.851455 21584 net.cpp:408] roi-data -> labels
I0416 11:30:24.851464 21584 net.cpp:408] roi-data -> twin_targets
I0416 11:30:24.851475 21584 net.cpp:408] roi-data -> twin_inside_weights
I0416 11:30:24.851483 21584 net.cpp:408] roi-data -> twin_outside_weights
I0416 11:30:24.851819 21584 net.cpp:150] Setting up roi-data
I0416 11:30:24.851831 21584 net.cpp:157] Top shape: 1 3 (3)
I0416 11:30:24.851836 21584 net.cpp:157] Top shape: 1 1 (1)
I0416 11:30:24.851842 21584 net.cpp:157] Top shape: 1 402 (402)
I0416 11:30:24.851847 21584 net.cpp:157] Top shape: 1 402 (402)
I0416 11:30:24.851853 21584 net.cpp:157] Top shape: 1 402 (402)
I0416 11:30:24.851856 21584 net.cpp:165] Memory required for data: 10172579652
I0416 11:30:24.851862 21584 layer_factory.hpp:77] Creating layer labels_roi-data_1_split
I0416 11:30:24.851873 21584 net.cpp:100] Creating Layer labels_roi-data_1_split
I0416 11:30:24.851878 21584 net.cpp:434] labels_roi-data_1_split <- labels
I0416 11:30:24.851886 21584 net.cpp:408] labels_roi-data_1_split -> labels_roi-data_1_split_0
I0416 11:30:24.851897 21584 net.cpp:408] labels_roi-data_1_split -> labels_roi-data_1_split_1
I0416 11:30:24.851949 21584 net.cpp:150] Setting up labels_roi-data_1_split
I0416 11:30:24.851956 21584 net.cpp:157] Top shape: 1 1 (1)
I0416 11:30:24.851969 21584 net.cpp:157] Top shape: 1 1 (1)
I0416 11:30:24.851974 21584 net.cpp:165] Memory required for data: 10172579660
I0416 11:30:24.851979 21584 layer_factory.hpp:77] Creating layer roi_pool5
I0416 11:30:24.851987 21584 net.cpp:100] Creating Layer roi_pool5
I0416 11:30:24.851992 21584 net.cpp:434] roi_pool5 <- conv5b_relu5b_0_split_1
I0416 11:30:24.851999 21584 net.cpp:434] roi_pool5 <- rois
I0416 11:30:24.852005 21584 net.cpp:408] roi_pool5 -> pool5
I0416 11:30:24.852015 21584 roi_pooling_layer.cpp:34] Temporal scale: 0.125
I0416 11:30:24.852025 21584 roi_pooling_layer.cpp:35] Spatial scale: 0.0625
I0416 11:30:24.852078 21584 net.cpp:150] Setting up roi_pool5
I0416 11:30:24.852087 21584 net.cpp:157] Top shape: 1 512 1 4 4 (8192)
I0416 11:30:24.852092 21584 net.cpp:165] Memory required for data: 10172612428
I0416 11:30:24.852095 21584 layer_factory.hpp:77] Creating layer fc6
I0416 11:30:24.852105 21584 net.cpp:100] Creating Layer fc6
I0416 11:30:24.852113 21584 net.cpp:434] fc6 <- pool5
I0416 11:30:24.852128 21584 net.cpp:408] fc6 -> fc6
I0416 11:30:25.123978 21584 net.cpp:150] Setting up fc6
I0416 11:30:25.124011 21584 net.cpp:157] Top shape: 1 4096 (4096)
I0416 11:30:25.124014 21584 net.cpp:165] Memory required for data: 10172628812
I0416 11:30:25.124027 21584 layer_factory.hpp:77] Creating layer relu6
I0416 11:30:25.124038 21584 net.cpp:100] Creating Layer relu6
I0416 11:30:25.124044 21584 net.cpp:434] relu6 <- fc6
I0416 11:30:25.124055 21584 net.cpp:395] relu6 -> fc6 (in-place)
I0416 11:30:25.124066 21584 net.cpp:150] Setting up relu6
I0416 11:30:25.124073 21584 net.cpp:157] Top shape: 1 4096 (4096)
I0416 11:30:25.124076 21584 net.cpp:165] Memory required for data: 10172645196
I0416 11:30:25.124081 21584 layer_factory.hpp:77] Creating layer drop6
I0416 11:30:25.124089 21584 net.cpp:100] Creating Layer drop6
I0416 11:30:25.124094 21584 net.cpp:434] drop6 <- fc6
I0416 11:30:25.124100 21584 net.cpp:395] drop6 -> fc6 (in-place)
I0416 11:30:25.124171 21584 net.cpp:150] Setting up drop6
I0416 11:30:25.124178 21584 net.cpp:157] Top shape: 1 4096 (4096)
I0416 11:30:25.124182 21584 net.cpp:165] Memory required for data: 10172661580
I0416 11:30:25.124187 21584 layer_factory.hpp:77] Creating layer fc6_drop6_0_split
I0416 11:30:25.124197 21584 net.cpp:100] Creating Layer fc6_drop6_0_split
I0416 11:30:25.124212 21584 net.cpp:434] fc6_drop6_0_split <- fc6
I0416 11:30:25.124222 21584 net.cpp:408] fc6_drop6_0_split -> fc6_drop6_0_split_0
I0416 11:30:25.124233 21584 net.cpp:408] fc6_drop6_0_split -> fc6_drop6_0_split_1
I0416 11:30:25.124289 21584 net.cpp:150] Setting up fc6_drop6_0_split
I0416 11:30:25.124296 21584 net.cpp:157] Top shape: 1 4096 (4096)
I0416 11:30:25.124303 21584 net.cpp:157] Top shape: 1 4096 (4096)
I0416 11:30:25.124307 21584 net.cpp:165] Memory required for data: 10172694348
I0416 11:30:25.124312 21584 layer_factory.hpp:77] Creating layer cls_score
I0416 11:30:25.124323 21584 net.cpp:100] Creating Layer cls_score
I0416 11:30:25.124361 21584 net.cpp:434] cls_score <- fc6_drop6_0_split_0
I0416 11:30:25.124369 21584 net.cpp:408] cls_score -> cls_score
I0416 11:30:25.131748 21584 net.cpp:150] Setting up cls_score
I0416 11:30:25.131767 21584 net.cpp:157] Top shape: 1 201 (201)
I0416 11:30:25.131770 21584 net.cpp:165] Memory required for data: 10172695152
I0416 11:30:25.131780 21584 layer_factory.hpp:77] Creating layer cls_score_cls_score_0_split
I0416 11:30:25.131789 21584 net.cpp:100] Creating Layer cls_score_cls_score_0_split
I0416 11:30:25.131795 21584 net.cpp:434] cls_score_cls_score_0_split <- cls_score
I0416 11:30:25.131804 21584 net.cpp:408] cls_score_cls_score_0_split -> cls_score_cls_score_0_split_0
I0416 11:30:25.131816 21584 net.cpp:408] cls_score_cls_score_0_split -> cls_score_cls_score_0_split_1
I0416 11:30:25.131881 21584 net.cpp:150] Setting up cls_score_cls_score_0_split
I0416 11:30:25.131889 21584 net.cpp:157] Top shape: 1 201 (201)
I0416 11:30:25.131894 21584 net.cpp:157] Top shape: 1 201 (201)
I0416 11:30:25.131899 21584 net.cpp:165] Memory required for data: 10172696760
I0416 11:30:25.131904 21584 layer_factory.hpp:77] Creating layer twin_pred
I0416 11:30:25.131913 21584 net.cpp:100] Creating Layer twin_pred
I0416 11:30:25.131918 21584 net.cpp:434] twin_pred <- fc6_drop6_0_split_1
I0416 11:30:25.131928 21584 net.cpp:408] twin_pred -> twin_pred
I0416 11:30:25.146148 21584 net.cpp:150] Setting up twin_pred
I0416 11:30:25.146178 21584 net.cpp:157] Top shape: 1 402 (402)
I0416 11:30:25.146183 21584 net.cpp:165] Memory required for data: 10172698368
I0416 11:30:25.146195 21584 layer_factory.hpp:77] Creating layer loss_cls
I0416 11:30:25.146210 21584 net.cpp:100] Creating Layer loss_cls
I0416 11:30:25.146217 21584 net.cpp:434] loss_cls <- cls_score_cls_score_0_split_0
I0416 11:30:25.146226 21584 net.cpp:434] loss_cls <- labels_roi-data_1_split_0
I0416 11:30:25.146234 21584 net.cpp:408] loss_cls -> loss_cls
…
