…
stepsize: 350000
snapshot: 0
snapshot_prefix: "./experiments/activitynet/snapshot/activitynet"
average_loss: 100
iter_size: 1
I0418 01:40:11.592577 22330 solver.cpp:81] Creating training net from train_net file: ./experiments/activitynet/train.prototxt
I0418 01:40:11.593662 22330 net.cpp:58] Initializing net from parameters: 
name: "activitynet"
state {
  phase: TRAIN
}
layer {
  name: "data"
  type: "Python"
  top: "data"
  top: "gt_boxes"
  python_param {
    module: "roi_data_layer.layer"
    layer: "RoIDataLayer"
    param_str: "\'num_classes\': 100"
  }
}
layer {
  name: "conv1a"
  type: "Convolution"
  bottom: "data"
  top: "conv1a"
  param {
    lr_mult: 0
    decay_mult: 0
  }
  param {
    lr_mult: 0
    decay_mult: 0
  }
  convolution_param {
    num_output: 64
    pad: 1
    pad: 1
    pad: 1
    kernel_size: 3
    kernel_size: 3
    kernel_size: 3
    weight_filler {
      type: "gaussian"
      std: 0.01
    }
    bias_filler {
      type: "constant"
      value: 0
    }
  }
}
layer {
  name: "relu1a"
  type: "ReLU"
  bottom: "conv1a"
  top: "conv1a"
}
layer {
  name: "pool1"
  type: "Pooling"
  bottom: "conv1a"
  top: "pool1"
  pooling_param {
    pool: MAX
    kernel_size: 1
    kernel_size: 2
    kernel_size: 2
    stride: 1
    stride: 2
    stride: 2
  }
}
layer {
  name: "conv2a"
  type: "Convolution"
  bottom: "pool1"
  top: "conv2a"
  param {
    lr_mult: 0
    decay_mult: 0
  }
  param {
    lr_mult: 0
    decay_mult: 0
  }
  convolution_param {
    num_output: 128
    pad: 1
    pad: 1
    pad: 1
    kernel_size: 3
    kernel_size: 3
    kernel_size: 3
    weight_filler {
      type: "gaussian"
      std: 0.01
    }
    bias_filler {
      type: "constant"
      value: 1
    }
  }
}
layer {
  name: "relu2a"
  type: "ReLU"
  bottom: "conv2a"
  top: "conv2a"
}
layer {
  name: "pool2"
  type: "Pooling"
  bottom: "conv2a"
  top: "pool2"
  pooling_param {
    pool: MAX
    kernel_size: 2
    kernel_size: 2
    kernel_size: 2
    stride: 2
    stride: 2
    stride: 2
  }
}
layer {
  name: "conv3a"
  type: "Convolution"
  bottom: "pool2"
  top: "conv3a"
  param {
    lr_mult: 1
    decay_mult: 1
  }
  param {
    lr_mult: 2
    decay_mult: 0
  }
  convolution_param {
    num_output: 256
    pad: 1
    pad: 1
    pad: 1
    kernel_size: 3
    kernel_size: 3
    kernel_size: 3
    weight_filler {
      type: "gaussian"
      std: 0.01
    }
    bias_filler {
      type: "constant"
      value: 1
    }
  }
}
layer {
  name: "relu3a"
  type: "ReLU"
  bottom: "conv3a"
  top: "conv3a"
}
layer {
  name: "conv3b"
  type: "Convolution"
  bottom: "conv3a"
  top: "conv3b"
  param {
    lr_mult: 1
    decay_mult: 1
  }
  param {
    lr_mult: 2
    decay_mult: 0
  }
  convolution_param {
    num_output: 256
    pad: 1
    pad: 1
    pad: 1
    kernel_size: 3
    kernel_size: 3
    kernel_size: 3
    weight_filler {
      type: "gaussian"
      std: 0.01
    }
    bias_filler {
      type: "constant"
      value: 1
    }
  }
}
layer {
  name: "relu3b"
  type: "ReLU"
  bottom: "conv3b"
  top: "conv3b"
}
layer {
  name: "pool3"
  type: "Pooling"
  bottom: "conv3b"
  top: "pool3"
  pooling_param {
    pool: MAX
    kernel_size: 2
    kernel_size: 2
    kernel_size: 2
    stride: 2
    stride: 2
    stride: 2
  }
}
layer {
  name: "conv4a"
  type: "Convolution"
  bottom: "pool3"
  top: "conv4a"
  param {
    lr_mult: 1
    decay_mult: 1
  }
  param {
    lr_mult: 2
    decay_mult: 0
  }
  convolution_param {
    num_output: 512
    pad: 1
    pad: 1
    pad: 1
    kernel_size: 3
    kernel_size: 3
    kernel_size: 3
    weight_filler {
      type: "gaussian"
      std: 0.01
    }
    bias_filler {
      type: "constant"
      value: 1
    }
  }
}
layer {
  name: "relu4a"
  type: "ReLU"
  bottom: "conv4a"
  top: "conv4a"
}
layer {
  name: "conv4b"
  type: "Convolution"
  bottom: "conv4a"
  top: "conv4b"
  param {
    lr_mult: 1
    decay_mult: 1
  }
  param {
    lr_mult: 2
    decay_mult: 0
  }
  convolution_param {
    num_output: 512
    pad: 1
    pad: 1
    pad: 1
    kernel_size: 3
    kernel_size: 3
    kernel_size: 3
    weight_filler {
      type: "gaussian"
      std: 0.01
    }
    bias_filler {
      type: "constant"
      value: 1
    }
  }
}
layer {
  name: "relu4b"
  type: "ReLU"
  bottom: "conv4b"
  top: "conv4b"
}
layer {
  name: "pool4"
  type: "Pooling"
  bottom: "conv4b"
  top: "pool4"
  pooling_param {
    pool: MAX
    kernel_size: 2
    kernel_size: 2
    kernel_size: 2
    stride: 2
    stride: 2
    stride: 2
  }
}
layer {
  name: "conv5a"
  type: "Convolution"
  bottom: "pool4"
  top: "conv5a"
  param {
    lr_mult: 1
    decay_mult: 1
  }
  param {
    lr_mult: 2
    decay_mult: 0
  }
  convolution_param {
    num_output: 512
    pad: 1
    pad: 1
    pad: 1
    kernel_size: 3
    kernel_size: 3
    kernel_size: 3
    weight_filler {
      type: "gaussian"
      std: 0.01
    }
    bias_filler {
      type: "constant"
      value: 1
    }
  }
}
layer {
  name: "relu5a"
  type: "ReLU"
  bottom: "conv5a"
  top: "conv5a"
}
layer {
  name: "conv5b"
  type: "Convolution"
  bottom: "conv5a"
  top: "conv5b"
  param {
    lr_mult: 1
    decay_mult: 1
  }
  param {
    lr_mult: 2
    decay_mult: 0
  }
  convolution_param {
    num_output: 512
    pad: 1
    pad: 1
    pad: 1
    kernel_size: 3
    kernel_size: 3
    kernel_size: 3
    weight_filler {
      type: "gaussian"
      std: 0.01
    }
    bias_filler {
      type: "constant"
      value: 1
    }
  }
}
layer {
  name: "relu5b"
  type: "ReLU"
  bottom: "conv5b"
  top: "conv5b"
}
layer {
  name: "rpn_conv/3x3"
  type: "Convolution"
  bottom: "conv5b"
  top: "rpn/output"
  param {
    lr_mult: 1
    decay_mult: 1
  }
  param {
    lr_mult: 2
    decay_mult: 0
  }
  convolution_param {
    num_output: 512
    pad: 1
    pad: 1
    pad: 1
    kernel_size: 3
    kernel_size: 3
    kernel_size: 3
    stride: 1
    stride: 2
    stride: 2
    weight_filler {
      type: "gaussian"
      std: 0.01
    }
    bias_filler {
      type: "constant"
      value: 0
    }
  }
}
layer {
  name: "rpn_relu/3x3"
  type: "ReLU"
  bottom: "rpn/output"
  top: "rpn/output"
}
layer {
  name: "rpn_conv/3x3_2"
  type: "Convolution"
  bottom: "rpn/output"
  top: "rpn/output_2"
  param {
    lr_mult: 1
    decay_mult: 1
  }
  param {
    lr_mult: 2
    decay_mult: 0
  }
  convolution_param {
    num_output: 512
    pad: 1
    pad: 1
    pad: 1
    kernel_size: 3
    kernel_size: 3
    kernel_size: 3
    stride: 1
    stride: 2
    stride: 2
    weight_filler {
      type: "gaussian"
      std: 0.01
    }
    bias_filler {
      type: "constant"
      value: 0
    }
  }
}
layer {
  name: "rpn_relu/3x3_2"
  type: "ReLU"
  bottom: "rpn/output_2"
  top: "rpn/output_2"
}
layer {
  name: "rpn/output_pool"
  type: "Pooling"
  bottom: "rpn/output_2"
  top: "rpn/output_pool"
  pooling_param {
    pool: MAX
    kernel_size: 1
    kernel_size: 2
    kernel_size: 2
  }
}
layer {
  name: "rpn_cls_score"
  type: "Convolution"
  bottom: "rpn/output_pool"
  top: "rpn_cls_score"
  param {
    lr_mult: 1
    decay_mult: 1
  }
  param {
    lr_mult: 2
    decay_mult: 0
  }
  convolution_param {
    num_output: 74
    kernel_size: 1
    kernel_size: 1
    kernel_size: 1
    weight_filler {
      type: "gaussian"
      std: 0.01
    }
    bias_filler {
      type: "constant"
      value: 0
    }
  }
}
layer {
  name: "rpn_twin_pred"
  type: "Convolution"
  bottom: "rpn/output_pool"
  top: "rpn_twin_pred"
  param {
    lr_mult: 1
    decay_mult: 1
  }
  param {
    lr_mult: 2
    decay_mult: 0
  }
  convolution_param {
    num_output: 74
    kernel_size: 1
    kernel_size: 1
    kernel_size: 1
    weight_filler {
      type: "gaussian"
      std: 0.01
    }
    bias_filler {
      type: "constant"
      value: 0
    }
  }
}
layer {
  name: "rpn_cls_score_reshape"
  type: "Reshape"
  bottom: "rpn_cls_score"
  top: "rpn_cls_score_reshape"
  reshape_param {
    shape {
      dim: 0
      dim: 2
      dim: -1
      dim: 0
      dim: 0
    }
  }
}
layer {
  name: "rpn-data"
  type: "Python"
  bottom: "rpn_cls_score"
  bottom: "gt_boxes"
  bottom: "data"
  top: "rpn_labels"
  top: "rpn_twin_targets"
  top: "rpn_twin_inside_weights"
  top: "rpn_twin_outside_weights"
  python_param {
    module: "rpn.anchor_target_layer"
    layer: "AnchorTargetLayer"
    param_str: "\'feat_stride\': 8 \n\'scales\': !!python/tuple [1,1.25, 1.5,1.75, 2,2.5, 3,3.5, 4,4.5, 5,5.5, 6,7, 8,9,10,11,12,14,16,18,20,22,24,28,32,36,40,44,52,60,68,76,84,92,100]"
  }
}
layer {
  name: "rpn_loss_cls"
  type: "SoftmaxWithLoss"
  bottom: "rpn_cls_score_reshape"
  bottom: "rpn_labels"
  top: "rpn_cls_loss"
  loss_weight: 1
  propagate_down: true
  propagate_down: false
  loss_param {
    ignore_label: -1
    normalize: true
  }
}
layer {
  name: "rpn_loss_twin"
  type: "SmoothL1Loss"
  bottom: "rpn_twin_pred"
  bottom: "rpn_twin_targets"
  bottom: "rpn_twin_inside_weights"
  bottom: "rpn_twin_outside_weights"
  top: "rpn_loss_twin"
  loss_weight: 1
  smooth_l1_loss_param {
    sigma: 3
  }
}
layer {
  name: "rpn_accuarcy"
  type: "Accuracy"
  bottom: "rpn_cls_score_reshape"
  bottom: "rpn_labels"
  top: "rpn_accuarcy"
  top: "rpn_accuarcy_class"
  propagate_down: false
  propagate_down: false
  accuracy_param {
    ignore_label: -1
  }
}
layer {
  name: "rpn_cls_prob"
  type: "Softmax"
  bottom: "rpn_cls_score_reshape"
  top: "rpn_cls_prob"
}
layer {
  name: "rpn_cls_prob_reshape"
  type: "Reshape"
  bottom: "rpn_cls_prob"
  top: "rpn_cls_prob_reshape"
  reshape_param {
    shape {
      dim: 0
      dim: 74
      dim: -1
      dim: 0
      dim: 0
    }
  }
}
layer {
  name: "proposal"
  type: "Python"
  bottom: "rpn_cls_prob_reshape"
  bottom: "rpn_twin_pred"
  top: "rpn_rois"
  include {
    phase: TRAIN
  }
  python_param {
    module: "rpn.proposal_layer"
    layer: "ProposalLayer"
    param_str: "\'feat_stride\': 8 \n\'scales\': !!python/tuple [1,1.25, 1.5,1.75, 2,2.5, 3,3.5, 4,4.5, 5,5.5, 6,7, 8,9,10,11,12,14,16,18,20,22,24,28,32,36,40,44,52,60,68,76,84,92,100]"
  }
}
layer {
  name: "roi-data"
  type: "Python"
  bottom: "rpn_rois"
  bottom: "gt_boxes"
  top: "rois"
  top: "labels"
  top: "twin_targets"
  top: "twin_inside_weights"
  top: "twin_outside_weights"
  python_param {
    module: "rpn.proposal_target_layer"
    layer: "ProposalTargetLayer"
    param_str: "\'num_classes\': 201"
  }
}
layer {
  name: "roi_pool5"
  type: "ROIPooling"
  bottom: "conv5b"
  bottom: "rois"
  top: "pool5"
  roi_pooling_param {
    pooled_h: 4
    pooled_w: 4
    spatial_scale: 0.0625
    pooled_l: 1
    temporal_scale: 0.125
  }
}
layer {
  name: "fc6"
  type: "InnerProduct"
  bottom: "pool5"
  top: "fc6"
  param {
    lr_mult: 1
    decay_mult: 1
  }
  param {
    lr_mult: 2
    decay_mult: 0
  }
  inner_product_param {
    num_output: 4096
    weight_filler {
      type: "gaussian"
      std: 0.005
    }
    bias_filler {
      type: "constant"
      value: 1
    }
  }
}
layer {
  name: "relu6"
  type: "ReLU"
  bottom: "fc6"
  top: "fc6"
}
layer {
  name: "drop6"
  type: "Dropout"
  bottom: "fc6"
  top: "fc6"
  dropout_param {
    dropout_ratio: 0.5
  }
}
layer {
  name: "cls_score"
  type: "InnerProduct"
  bottom: "fc6"
  top: "cls_score"
  param {
    lr_mult: 1
    decay_mult: 1
  }
  param {
    lr_mult: 2
    decay_mult: 0
  }
  inner_product_param {
    num_output: 201
    weight_filler {
      type: "gaussian"
      std: 0.01
    }
    bias_filler {
      type: "constant"
      value: 0
    }
  }
}
layer {
  name: "twin_pred"
  type: "InnerProduct"
  bottom: "fc6"
  top: "twin_pred"
  param {
    lr_mult: 1
    decay_mult: 1
  }
  param {
    lr_mult: 2
    decay_mult: 0
  }
  inner_product_param {
    num_output: 402
    weight_filler {
      type: "gaussian"
      std: 0.001
    }
    bias_filler {
      type: "constant"
      value: 0
    }
  }
}
layer {
  name: "loss_cls"
  type: "SoftmaxWithLoss"
  bottom: "cls_score"
  bottom: "labels"
  top: "loss_cls"
  loss_weight: 1
  propagate_down: true
  propagate_down: false
}
layer {
  name: "loss_twin"
  type: "SmoothL1Loss"
  bottom: "twin_pred"
  bottom: "twin_targets"
  bottom: "twin_inside_weights"
  bottom: "twin_outside_weights"
  top: "loss_twin"
  loss_weight: 1
}
layer {
  name: "accuarcy"
  type: "Accuracy"
  bottom: "cls_score"
  bottom: "labels"
  top: "accuarcy"
  propagate_down: false
  propagate_down: false
  accuracy_param {
    ignore_label: -1
  }
}
I0418 01:40:11.593977 22330 layer_factory.hpp:77] Creating layer data
I0418 01:40:11.619309 22330 net.cpp:100] Creating Layer data
I0418 01:40:11.619330 22330 net.cpp:408] data -> data
I0418 01:40:11.619344 22330 net.cpp:408] data -> gt_boxes
setting up
has rpn
RoiDataLayer: name_to_top: {'gt_windows': 1, 'data': 0}
I0418 01:40:11.664345 22330 net.cpp:150] Setting up data
I0418 01:40:11.664366 22330 net.cpp:157] Top shape: 1 3 768 112 112 (28901376)
I0418 01:40:11.664371 22330 net.cpp:157] Top shape: 1 101 (101)
I0418 01:40:11.664374 22330 net.cpp:165] Memory required for data: 115605908
I0418 01:40:11.664381 22330 layer_factory.hpp:77] Creating layer data_data_0_split
I0418 01:40:11.664392 22330 net.cpp:100] Creating Layer data_data_0_split
I0418 01:40:11.664399 22330 net.cpp:434] data_data_0_split <- data
I0418 01:40:11.664405 22330 net.cpp:408] data_data_0_split -> data_data_0_split_0
I0418 01:40:11.664414 22330 net.cpp:408] data_data_0_split -> data_data_0_split_1
I0418 01:40:11.664445 22330 net.cpp:150] Setting up data_data_0_split
I0418 01:40:11.664453 22330 net.cpp:157] Top shape: 1 3 768 112 112 (28901376)
I0418 01:40:11.664458 22330 net.cpp:157] Top shape: 1 3 768 112 112 (28901376)
I0418 01:40:11.664460 22330 net.cpp:165] Memory required for data: 346816916
I0418 01:40:11.664463 22330 layer_factory.hpp:77] Creating layer gt_boxes_data_1_split
I0418 01:40:11.664469 22330 net.cpp:100] Creating Layer gt_boxes_data_1_split
I0418 01:40:11.664474 22330 net.cpp:434] gt_boxes_data_1_split <- gt_boxes
I0418 01:40:11.664479 22330 net.cpp:408] gt_boxes_data_1_split -> gt_boxes_data_1_split_0
I0418 01:40:11.664489 22330 net.cpp:408] gt_boxes_data_1_split -> gt_boxes_data_1_split_1
I0418 01:40:11.664531 22330 net.cpp:150] Setting up gt_boxes_data_1_split
I0418 01:40:11.664547 22330 net.cpp:157] Top shape: 1 101 (101)
I0418 01:40:11.664556 22330 net.cpp:157] Top shape: 1 101 (101)
I0418 01:40:11.664564 22330 net.cpp:165] Memory required for data: 346817724
I0418 01:40:11.664571 22330 layer_factory.hpp:77] Creating layer conv1a
I0418 01:40:11.664594 22330 net.cpp:100] Creating Layer conv1a
I0418 01:40:11.664605 22330 net.cpp:434] conv1a <- data_data_0_split_0
I0418 01:40:11.664614 22330 net.cpp:408] conv1a -> conv1a
I0418 01:40:11.929481 22330 net.cpp:150] Setting up conv1a
I0418 01:40:11.929508 22330 net.cpp:157] Top shape: 1 64 768 112 112 (616562688)
I0418 01:40:11.929513 22330 net.cpp:165] Memory required for data: 2813068476
I0418 01:40:11.929530 22330 layer_factory.hpp:77] Creating layer relu1a
I0418 01:40:11.929544 22330 net.cpp:100] Creating Layer relu1a
I0418 01:40:11.929549 22330 net.cpp:434] relu1a <- conv1a
I0418 01:40:11.929554 22330 net.cpp:395] relu1a -> conv1a (in-place)
I0418 01:40:11.930037 22330 net.cpp:150] Setting up relu1a
I0418 01:40:11.930050 22330 net.cpp:157] Top shape: 1 64 768 112 112 (616562688)
I0418 01:40:11.930055 22330 net.cpp:165] Memory required for data: 5279319228
I0418 01:40:11.930058 22330 layer_factory.hpp:77] Creating layer pool1
I0418 01:40:11.930068 22330 net.cpp:100] Creating Layer pool1
I0418 01:40:11.930071 22330 net.cpp:434] pool1 <- conv1a
I0418 01:40:11.930078 22330 net.cpp:408] pool1 -> pool1
I0418 01:40:11.930284 22330 net.cpp:150] Setting up pool1
I0418 01:40:11.930295 22330 net.cpp:157] Top shape: 1 64 768 56 56 (154140672)
I0418 01:40:11.930299 22330 net.cpp:165] Memory required for data: 5895881916
I0418 01:40:11.930302 22330 layer_factory.hpp:77] Creating layer conv2a
I0418 01:40:11.930315 22330 net.cpp:100] Creating Layer conv2a
I0418 01:40:11.930320 22330 net.cpp:434] conv2a <- pool1
I0418 01:40:11.930326 22330 net.cpp:408] conv2a -> conv2a
I0418 01:40:11.942809 22330 net.cpp:150] Setting up conv2a
I0418 01:40:11.942836 22330 net.cpp:157] Top shape: 1 128 768 56 56 (308281344)
I0418 01:40:11.942840 22330 net.cpp:165] Memory required for data: 7129007292
I0418 01:40:11.942853 22330 layer_factory.hpp:77] Creating layer relu2a
I0418 01:40:11.942862 22330 net.cpp:100] Creating Layer relu2a
I0418 01:40:11.942870 22330 net.cpp:434] relu2a <- conv2a
I0418 01:40:11.942878 22330 net.cpp:395] relu2a -> conv2a (in-place)
I0418 01:40:11.943228 22330 net.cpp:150] Setting up relu2a
I0418 01:40:11.943240 22330 net.cpp:157] Top shape: 1 128 768 56 56 (308281344)
I0418 01:40:11.943244 22330 net.cpp:165] Memory required for data: 8362132668
I0418 01:40:11.943248 22330 layer_factory.hpp:77] Creating layer pool2
I0418 01:40:11.943256 22330 net.cpp:100] Creating Layer pool2
I0418 01:40:11.943260 22330 net.cpp:434] pool2 <- conv2a
I0418 01:40:11.943267 22330 net.cpp:408] pool2 -> pool2
I0418 01:40:11.943461 22330 net.cpp:150] Setting up pool2
I0418 01:40:11.943472 22330 net.cpp:157] Top shape: 1 128 384 28 28 (38535168)
I0418 01:40:11.943475 22330 net.cpp:165] Memory required for data: 8516273340
I0418 01:40:11.943480 22330 layer_factory.hpp:77] Creating layer conv3a
I0418 01:40:11.943491 22330 net.cpp:100] Creating Layer conv3a
I0418 01:40:11.943498 22330 net.cpp:434] conv3a <- pool2
I0418 01:40:11.943505 22330 net.cpp:408] conv3a -> conv3a
I0418 01:40:11.969063 22330 net.cpp:150] Setting up conv3a
I0418 01:40:11.969094 22330 net.cpp:157] Top shape: 1 256 384 28 28 (77070336)
I0418 01:40:11.969097 22330 net.cpp:165] Memory required for data: 8824554684
I0418 01:40:11.969108 22330 layer_factory.hpp:77] Creating layer relu3a
I0418 01:40:11.969116 22330 net.cpp:100] Creating Layer relu3a
I0418 01:40:11.969120 22330 net.cpp:434] relu3a <- conv3a
I0418 01:40:11.969125 22330 net.cpp:395] relu3a -> conv3a (in-place)
I0418 01:40:11.969449 22330 net.cpp:150] Setting up relu3a
I0418 01:40:11.969460 22330 net.cpp:157] Top shape: 1 256 384 28 28 (77070336)
I0418 01:40:11.969463 22330 net.cpp:165] Memory required for data: 9132836028
I0418 01:40:11.969467 22330 layer_factory.hpp:77] Creating layer conv3b
I0418 01:40:11.969478 22330 net.cpp:100] Creating Layer conv3b
I0418 01:40:11.969482 22330 net.cpp:434] conv3b <- conv3a
I0418 01:40:11.969489 22330 net.cpp:408] conv3b -> conv3b
I0418 01:40:12.024559 22330 net.cpp:150] Setting up conv3b
I0418 01:40:12.024580 22330 net.cpp:157] Top shape: 1 256 384 28 28 (77070336)
I0418 01:40:12.024585 22330 net.cpp:165] Memory required for data: 9441117372
I0418 01:40:12.024593 22330 layer_factory.hpp:77] Creating layer relu3b
I0418 01:40:12.024602 22330 net.cpp:100] Creating Layer relu3b
I0418 01:40:12.024607 22330 net.cpp:434] relu3b <- conv3b
I0418 01:40:12.024615 22330 net.cpp:395] relu3b -> conv3b (in-place)
I0418 01:40:12.025354 22330 net.cpp:150] Setting up relu3b
I0418 01:40:12.025367 22330 net.cpp:157] Top shape: 1 256 384 28 28 (77070336)
I0418 01:40:12.025369 22330 net.cpp:165] Memory required for data: 9749398716
I0418 01:40:12.025373 22330 layer_factory.hpp:77] Creating layer pool3
I0418 01:40:12.025382 22330 net.cpp:100] Creating Layer pool3
I0418 01:40:12.025385 22330 net.cpp:434] pool3 <- conv3b
I0418 01:40:12.025393 22330 net.cpp:408] pool3 -> pool3
I0418 01:40:12.025591 22330 net.cpp:150] Setting up pool3
I0418 01:40:12.025601 22330 net.cpp:157] Top shape: 1 256 192 14 14 (9633792)
I0418 01:40:12.025605 22330 net.cpp:165] Memory required for data: 9787933884
I0418 01:40:12.025609 22330 layer_factory.hpp:77] Creating layer conv4a
I0418 01:40:12.025620 22330 net.cpp:100] Creating Layer conv4a
I0418 01:40:12.025625 22330 net.cpp:434] conv4a <- pool3
I0418 01:40:12.025632 22330 net.cpp:408] conv4a -> conv4a
I0418 01:40:12.122267 22330 net.cpp:150] Setting up conv4a
I0418 01:40:12.122300 22330 net.cpp:157] Top shape: 1 512 192 14 14 (19267584)
I0418 01:40:12.122304 22330 net.cpp:165] Memory required for data: 9865004220
I0418 01:40:12.122318 22330 layer_factory.hpp:77] Creating layer relu4a
I0418 01:40:12.122328 22330 net.cpp:100] Creating Layer relu4a
I0418 01:40:12.122333 22330 net.cpp:434] relu4a <- conv4a
I0418 01:40:12.122339 22330 net.cpp:395] relu4a -> conv4a (in-place)
I0418 01:40:12.122783 22330 net.cpp:150] Setting up relu4a
I0418 01:40:12.122807 22330 net.cpp:157] Top shape: 1 512 192 14 14 (19267584)
I0418 01:40:12.122810 22330 net.cpp:165] Memory required for data: 9942074556
I0418 01:40:12.122813 22330 layer_factory.hpp:77] Creating layer conv4b
I0418 01:40:12.122826 22330 net.cpp:100] Creating Layer conv4b
I0418 01:40:12.122831 22330 net.cpp:434] conv4b <- conv4a
I0418 01:40:12.122838 22330 net.cpp:408] conv4b -> conv4b
I0418 01:40:12.312186 22330 net.cpp:150] Setting up conv4b
I0418 01:40:12.312208 22330 net.cpp:157] Top shape: 1 512 192 14 14 (19267584)
I0418 01:40:12.312212 22330 net.cpp:165] Memory required for data: 10019144892
I0418 01:40:12.312220 22330 layer_factory.hpp:77] Creating layer relu4b
I0418 01:40:12.312232 22330 net.cpp:100] Creating Layer relu4b
I0418 01:40:12.312237 22330 net.cpp:434] relu4b <- conv4b
I0418 01:40:12.312242 22330 net.cpp:395] relu4b -> conv4b (in-place)
I0418 01:40:12.312396 22330 net.cpp:150] Setting up relu4b
I0418 01:40:12.312405 22330 net.cpp:157] Top shape: 1 512 192 14 14 (19267584)
I0418 01:40:12.312408 22330 net.cpp:165] Memory required for data: 10096215228
I0418 01:40:12.312412 22330 layer_factory.hpp:77] Creating layer pool4
I0418 01:40:12.312420 22330 net.cpp:100] Creating Layer pool4
I0418 01:40:12.312423 22330 net.cpp:434] pool4 <- conv4b
I0418 01:40:12.312430 22330 net.cpp:408] pool4 -> pool4
I0418 01:40:12.312777 22330 net.cpp:150] Setting up pool4
I0418 01:40:12.312788 22330 net.cpp:157] Top shape: 1 512 96 7 7 (2408448)
I0418 01:40:12.312791 22330 net.cpp:165] Memory required for data: 10105849020
I0418 01:40:12.312795 22330 layer_factory.hpp:77] Creating layer conv5a
I0418 01:40:12.312806 22330 net.cpp:100] Creating Layer conv5a
I0418 01:40:12.312809 22330 net.cpp:434] conv5a <- pool4
I0418 01:40:12.312816 22330 net.cpp:408] conv5a -> conv5a
I0418 01:40:12.501056 22330 net.cpp:150] Setting up conv5a
I0418 01:40:12.501081 22330 net.cpp:157] Top shape: 1 512 96 7 7 (2408448)
I0418 01:40:12.501085 22330 net.cpp:165] Memory required for data: 10115482812
I0418 01:40:12.501094 22330 layer_factory.hpp:77] Creating layer relu5a
I0418 01:40:12.501103 22330 net.cpp:100] Creating Layer relu5a
I0418 01:40:12.501107 22330 net.cpp:434] relu5a <- conv5a
I0418 01:40:12.501116 22330 net.cpp:395] relu5a -> conv5a (in-place)
I0418 01:40:12.502300 22330 net.cpp:150] Setting up relu5a
I0418 01:40:12.502312 22330 net.cpp:157] Top shape: 1 512 96 7 7 (2408448)
I0418 01:40:12.502317 22330 net.cpp:165] Memory required for data: 10125116604
I0418 01:40:12.502321 22330 layer_factory.hpp:77] Creating layer conv5b
I0418 01:40:12.502333 22330 net.cpp:100] Creating Layer conv5b
I0418 01:40:12.502337 22330 net.cpp:434] conv5b <- conv5a
I0418 01:40:12.502346 22330 net.cpp:408] conv5b -> conv5b
I0418 01:40:12.691819 22330 net.cpp:150] Setting up conv5b
I0418 01:40:12.691843 22330 net.cpp:157] Top shape: 1 512 96 7 7 (2408448)
I0418 01:40:12.691846 22330 net.cpp:165] Memory required for data: 10134750396
I0418 01:40:12.691854 22330 layer_factory.hpp:77] Creating layer relu5b
I0418 01:40:12.691865 22330 net.cpp:100] Creating Layer relu5b
I0418 01:40:12.691870 22330 net.cpp:434] relu5b <- conv5b
I0418 01:40:12.691876 22330 net.cpp:395] relu5b -> conv5b (in-place)
I0418 01:40:12.693038 22330 net.cpp:150] Setting up relu5b
I0418 01:40:12.693049 22330 net.cpp:157] Top shape: 1 512 96 7 7 (2408448)
I0418 01:40:12.693053 22330 net.cpp:165] Memory required for data: 10144384188
I0418 01:40:12.693058 22330 layer_factory.hpp:77] Creating layer conv5b_relu5b_0_split
I0418 01:40:12.693064 22330 net.cpp:100] Creating Layer conv5b_relu5b_0_split
I0418 01:40:12.693068 22330 net.cpp:434] conv5b_relu5b_0_split <- conv5b
I0418 01:40:12.693074 22330 net.cpp:408] conv5b_relu5b_0_split -> conv5b_relu5b_0_split_0
I0418 01:40:12.693080 22330 net.cpp:408] conv5b_relu5b_0_split -> conv5b_relu5b_0_split_1
I0418 01:40:12.693119 22330 net.cpp:150] Setting up conv5b_relu5b_0_split
I0418 01:40:12.693126 22330 net.cpp:157] Top shape: 1 512 96 7 7 (2408448)
I0418 01:40:12.693130 22330 net.cpp:157] Top shape: 1 512 96 7 7 (2408448)
I0418 01:40:12.693133 22330 net.cpp:165] Memory required for data: 10163651772
I0418 01:40:12.693136 22330 layer_factory.hpp:77] Creating layer rpn_conv/3x3
I0418 01:40:12.693148 22330 net.cpp:100] Creating Layer rpn_conv/3x3
I0418 01:40:12.693153 22330 net.cpp:434] rpn_conv/3x3 <- conv5b_relu5b_0_split_0
I0418 01:40:12.693161 22330 net.cpp:408] rpn_conv/3x3 -> rpn/output
I0418 01:40:12.883009 22330 net.cpp:150] Setting up rpn_conv/3x3
I0418 01:40:12.883033 22330 net.cpp:157] Top shape: 1 512 96 4 4 (786432)
I0418 01:40:12.883036 22330 net.cpp:165] Memory required for data: 10166797500
I0418 01:40:12.883049 22330 layer_factory.hpp:77] Creating layer rpn_relu/3x3
I0418 01:40:12.883061 22330 net.cpp:100] Creating Layer rpn_relu/3x3
I0418 01:40:12.883066 22330 net.cpp:434] rpn_relu/3x3 <- rpn/output
I0418 01:40:12.883072 22330 net.cpp:395] rpn_relu/3x3 -> rpn/output (in-place)
I0418 01:40:12.883530 22330 net.cpp:150] Setting up rpn_relu/3x3
I0418 01:40:12.883543 22330 net.cpp:157] Top shape: 1 512 96 4 4 (786432)
I0418 01:40:12.883548 22330 net.cpp:165] Memory required for data: 10169943228
I0418 01:40:12.883553 22330 layer_factory.hpp:77] Creating layer rpn_conv/3x3_2
I0418 01:40:12.883569 22330 net.cpp:100] Creating Layer rpn_conv/3x3_2
I0418 01:40:12.883576 22330 net.cpp:434] rpn_conv/3x3_2 <- rpn/output
I0418 01:40:12.883589 22330 net.cpp:408] rpn_conv/3x3_2 -> rpn/output_2
I0418 01:40:13.071703 22330 net.cpp:150] Setting up rpn_conv/3x3_2
I0418 01:40:13.071729 22330 net.cpp:157] Top shape: 1 512 96 2 2 (196608)
I0418 01:40:13.071733 22330 net.cpp:165] Memory required for data: 10170729660
I0418 01:40:13.071744 22330 layer_factory.hpp:77] Creating layer rpn_relu/3x3_2
I0418 01:40:13.071754 22330 net.cpp:100] Creating Layer rpn_relu/3x3_2
I0418 01:40:13.071759 22330 net.cpp:434] rpn_relu/3x3_2 <- rpn/output_2
I0418 01:40:13.071768 22330 net.cpp:395] rpn_relu/3x3_2 -> rpn/output_2 (in-place)
I0418 01:40:13.074311 22330 net.cpp:150] Setting up rpn_relu/3x3_2
I0418 01:40:13.074322 22330 net.cpp:157] Top shape: 1 512 96 2 2 (196608)
I0418 01:40:13.074326 22330 net.cpp:165] Memory required for data: 10171516092
I0418 01:40:13.074331 22330 layer_factory.hpp:77] Creating layer rpn/output_pool
I0418 01:40:13.074339 22330 net.cpp:100] Creating Layer rpn/output_pool
I0418 01:40:13.074343 22330 net.cpp:434] rpn/output_pool <- rpn/output_2
I0418 01:40:13.074348 22330 net.cpp:408] rpn/output_pool -> rpn/output_pool
I0418 01:40:13.075389 22330 net.cpp:150] Setting up rpn/output_pool
I0418 01:40:13.075402 22330 net.cpp:157] Top shape: 1 512 96 1 1 (49152)
I0418 01:40:13.075404 22330 net.cpp:165] Memory required for data: 10171712700
I0418 01:40:13.075410 22330 layer_factory.hpp:77] Creating layer rpn/output_pool_rpn/output_pool_0_split
I0418 01:40:13.075415 22330 net.cpp:100] Creating Layer rpn/output_pool_rpn/output_pool_0_split
I0418 01:40:13.075419 22330 net.cpp:434] rpn/output_pool_rpn/output_pool_0_split <- rpn/output_pool
I0418 01:40:13.075424 22330 net.cpp:408] rpn/output_pool_rpn/output_pool_0_split -> rpn/output_pool_rpn/output_pool_0_split_0
I0418 01:40:13.075429 22330 net.cpp:408] rpn/output_pool_rpn/output_pool_0_split -> rpn/output_pool_rpn/output_pool_0_split_1
I0418 01:40:13.075462 22330 net.cpp:150] Setting up rpn/output_pool_rpn/output_pool_0_split
I0418 01:40:13.075469 22330 net.cpp:157] Top shape: 1 512 96 1 1 (49152)
I0418 01:40:13.075474 22330 net.cpp:157] Top shape: 1 512 96 1 1 (49152)
I0418 01:40:13.075476 22330 net.cpp:165] Memory required for data: 10172105916
I0418 01:40:13.075479 22330 layer_factory.hpp:77] Creating layer rpn_cls_score
I0418 01:40:13.075492 22330 net.cpp:100] Creating Layer rpn_cls_score
I0418 01:40:13.075500 22330 net.cpp:434] rpn_cls_score <- rpn/output_pool_rpn/output_pool_0_split_0
I0418 01:40:13.075507 22330 net.cpp:408] rpn_cls_score -> rpn_cls_score
I0418 01:40:13.079792 22330 net.cpp:150] Setting up rpn_cls_score
I0418 01:40:13.079810 22330 net.cpp:157] Top shape: 1 74 96 1 1 (7104)
I0418 01:40:13.079815 22330 net.cpp:165] Memory required for data: 10172134332
I0418 01:40:13.079824 22330 layer_factory.hpp:77] Creating layer rpn_cls_score_rpn_cls_score_0_split
I0418 01:40:13.079833 22330 net.cpp:100] Creating Layer rpn_cls_score_rpn_cls_score_0_split
I0418 01:40:13.079840 22330 net.cpp:434] rpn_cls_score_rpn_cls_score_0_split <- rpn_cls_score
I0418 01:40:13.079850 22330 net.cpp:408] rpn_cls_score_rpn_cls_score_0_split -> rpn_cls_score_rpn_cls_score_0_split_0
I0418 01:40:13.079860 22330 net.cpp:408] rpn_cls_score_rpn_cls_score_0_split -> rpn_cls_score_rpn_cls_score_0_split_1
I0418 01:40:13.079919 22330 net.cpp:150] Setting up rpn_cls_score_rpn_cls_score_0_split
I0418 01:40:13.079928 22330 net.cpp:157] Top shape: 1 74 96 1 1 (7104)
I0418 01:40:13.079934 22330 net.cpp:157] Top shape: 1 74 96 1 1 (7104)
I0418 01:40:13.079941 22330 net.cpp:165] Memory required for data: 10172191164
I0418 01:40:13.079946 22330 layer_factory.hpp:77] Creating layer rpn_twin_pred
I0418 01:40:13.079964 22330 net.cpp:100] Creating Layer rpn_twin_pred
I0418 01:40:13.079972 22330 net.cpp:434] rpn_twin_pred <- rpn/output_pool_rpn/output_pool_0_split_1
I0418 01:40:13.079982 22330 net.cpp:408] rpn_twin_pred -> rpn_twin_pred
I0418 01:40:13.085723 22330 net.cpp:150] Setting up rpn_twin_pred
I0418 01:40:13.085746 22330 net.cpp:157] Top shape: 1 74 96 1 1 (7104)
I0418 01:40:13.085750 22330 net.cpp:165] Memory required for data: 10172219580
I0418 01:40:13.085759 22330 layer_factory.hpp:77] Creating layer rpn_twin_pred_rpn_twin_pred_0_split
I0418 01:40:13.085768 22330 net.cpp:100] Creating Layer rpn_twin_pred_rpn_twin_pred_0_split
I0418 01:40:13.085775 22330 net.cpp:434] rpn_twin_pred_rpn_twin_pred_0_split <- rpn_twin_pred
I0418 01:40:13.085783 22330 net.cpp:408] rpn_twin_pred_rpn_twin_pred_0_split -> rpn_twin_pred_rpn_twin_pred_0_split_0
I0418 01:40:13.085799 22330 net.cpp:408] rpn_twin_pred_rpn_twin_pred_0_split -> rpn_twin_pred_rpn_twin_pred_0_split_1
I0418 01:40:13.085853 22330 net.cpp:150] Setting up rpn_twin_pred_rpn_twin_pred_0_split
I0418 01:40:13.085863 22330 net.cpp:157] Top shape: 1 74 96 1 1 (7104)
I0418 01:40:13.085868 22330 net.cpp:157] Top shape: 1 74 96 1 1 (7104)
I0418 01:40:13.085876 22330 net.cpp:165] Memory required for data: 10172276412
I0418 01:40:13.085883 22330 layer_factory.hpp:77] Creating layer rpn_cls_score_reshape
I0418 01:40:13.085901 22330 net.cpp:100] Creating Layer rpn_cls_score_reshape
I0418 01:40:13.085907 22330 net.cpp:434] rpn_cls_score_reshape <- rpn_cls_score_rpn_cls_score_0_split_0
I0418 01:40:13.085914 22330 net.cpp:408] rpn_cls_score_reshape -> rpn_cls_score_reshape
I0418 01:40:13.085956 22330 net.cpp:150] Setting up rpn_cls_score_reshape
I0418 01:40:13.085968 22330 net.cpp:157] Top shape: 1 2 3552 1 1 (7104)
I0418 01:40:13.085974 22330 net.cpp:165] Memory required for data: 10172304828
I0418 01:40:13.085981 22330 layer_factory.hpp:77] Creating layer rpn_cls_score_reshape_rpn_cls_score_reshape_0_split
I0418 01:40:13.085990 22330 net.cpp:100] Creating Layer rpn_cls_score_reshape_rpn_cls_score_reshape_0_split
I0418 01:40:13.085996 22330 net.cpp:434] rpn_cls_score_reshape_rpn_cls_score_reshape_0_split <- rpn_cls_score_reshape
I0418 01:40:13.086004 22330 net.cpp:408] rpn_cls_score_reshape_rpn_cls_score_reshape_0_split -> rpn_cls_score_reshape_rpn_cls_score_reshape_0_split_0
I0418 01:40:13.086017 22330 net.cpp:408] rpn_cls_score_reshape_rpn_cls_score_reshape_0_split -> rpn_cls_score_reshape_rpn_cls_score_reshape_0_split_1
I0418 01:40:13.086027 22330 net.cpp:408] rpn_cls_score_reshape_rpn_cls_score_reshape_0_split -> rpn_cls_score_reshape_rpn_cls_score_reshape_0_split_2
I0418 01:40:13.086087 22330 net.cpp:150] Setting up rpn_cls_score_reshape_rpn_cls_score_reshape_0_split
I0418 01:40:13.086097 22330 net.cpp:157] Top shape: 1 2 3552 1 1 (7104)
I0418 01:40:13.086102 22330 net.cpp:157] Top shape: 1 2 3552 1 1 (7104)
I0418 01:40:13.086107 22330 net.cpp:157] Top shape: 1 2 3552 1 1 (7104)
I0418 01:40:13.086114 22330 net.cpp:165] Memory required for data: 10172390076
I0418 01:40:13.086120 22330 layer_factory.hpp:77] Creating layer rpn-data
I0418 01:40:13.086668 22330 net.cpp:100] Creating Layer rpn-data
I0418 01:40:13.086685 22330 net.cpp:434] rpn-data <- rpn_cls_score_rpn_cls_score_0_split_1
I0418 01:40:13.086694 22330 net.cpp:434] rpn-data <- gt_boxes_data_1_split_0
I0418 01:40:13.086701 22330 net.cpp:434] rpn-data <- data_data_0_split_1
I0418 01:40:13.086711 22330 net.cpp:408] rpn-data -> rpn_labels
I0418 01:40:13.086721 22330 net.cpp:408] rpn-data -> rpn_twin_targets
I0418 01:40:13.086732 22330 net.cpp:408] rpn-data -> rpn_twin_inside_weights
I0418 01:40:13.086741 22330 net.cpp:408] rpn-data -> rpn_twin_outside_weights
I0418 01:40:13.090291 22330 net.cpp:150] Setting up rpn-data
I0418 01:40:13.090319 22330 net.cpp:157] Top shape: 1 1 3552 1 1 (3552)
I0418 01:40:13.090325 22330 net.cpp:157] Top shape: 1 74 96 1 1 (7104)
I0418 01:40:13.090332 22330 net.cpp:157] Top shape: 1 74 96 1 1 (7104)
I0418 01:40:13.090344 22330 net.cpp:157] Top shape: 1 74 96 1 1 (7104)
I0418 01:40:13.090349 22330 net.cpp:165] Memory required for data: 10172489532
I0418 01:40:13.090354 22330 layer_factory.hpp:77] Creating layer rpn_labels_rpn-data_0_split
I0418 01:40:13.090363 22330 net.cpp:100] Creating Layer rpn_labels_rpn-data_0_split
I0418 01:40:13.090369 22330 net.cpp:434] rpn_labels_rpn-data_0_split <- rpn_labels
I0418 01:40:13.090379 22330 net.cpp:408] rpn_labels_rpn-data_0_split -> rpn_labels_rpn-data_0_split_0
I0418 01:40:13.090395 22330 net.cpp:408] rpn_labels_rpn-data_0_split -> rpn_labels_rpn-data_0_split_1
I0418 01:40:13.090442 22330 net.cpp:150] Setting up rpn_labels_rpn-data_0_split
I0418 01:40:13.090451 22330 net.cpp:157] Top shape: 1 1 3552 1 1 (3552)
I0418 01:40:13.090459 22330 net.cpp:157] Top shape: 1 1 3552 1 1 (3552)
I0418 01:40:13.090463 22330 net.cpp:165] Memory required for data: 10172517948
I0418 01:40:13.090468 22330 layer_factory.hpp:77] Creating layer rpn_loss_cls
I0418 01:40:13.090481 22330 net.cpp:100] Creating Layer rpn_loss_cls
I0418 01:40:13.090487 22330 net.cpp:434] rpn_loss_cls <- rpn_cls_score_reshape_rpn_cls_score_reshape_0_split_0
I0418 01:40:13.090494 22330 net.cpp:434] rpn_loss_cls <- rpn_labels_rpn-data_0_split_0
…
I0418 01:40:13.091305 22330 layer_factory.hpp:77] Creating layer rpn_accuarcy
I0418 01:40:13.091317 22330 net.cpp:100] Creating Layer rpn_accuarcy
I0418 01:40:13.091325 22330 net.cpp:434] rpn_accuarcy <- rpn_cls_score_reshape_rpn_cls_score_reshape_0_split_1
I0418 01:40:13.091333 22330 net.cpp:434] rpn_accuarcy <- rpn_labels_rpn-data_0_split_1
I0418 01:40:13.091349 22330 net.cpp:408] rpn_accuarcy -> rpn_accuarcy
I0418 01:40:13.091362 22330 net.cpp:408] rpn_accuarcy -> rpn_accuarcy_class
I0418 01:40:13.091423 22330 net.cpp:150] Setting up rpn_accuarcy
I0418 01:40:13.091430 22330 net.cpp:157] Top shape: (1)
I0418 01:40:13.091435 22330 net.cpp:157] Top shape: 2 (2)
I0418 01:40:13.091439 22330 net.cpp:165] Memory required for data: 10172517968
I0418 01:40:13.091444 22330 layer_factory.hpp:77] Creating layer rpn_cls_prob
I0418 01:40:13.091449 22330 net.cpp:100] Creating Layer rpn_cls_prob
I0418 01:40:13.091452 22330 net.cpp:434] rpn_cls_prob <- rpn_cls_score_reshape_rpn_cls_score_reshape_0_split_2
I0418 01:40:13.091459 22330 net.cpp:408] rpn_cls_prob -> rpn_cls_prob
I0418 01:40:13.091693 22330 net.cpp:150] Setting up rpn_cls_prob
I0418 01:40:13.091704 22330 net.cpp:157] Top shape: 1 2 3552 1 1 (7104)
I0418 01:40:13.091708 22330 net.cpp:165] Memory required for data: 10172546384
I0418 01:40:13.091712 22330 layer_factory.hpp:77] Creating layer rpn_cls_prob_reshape
I0418 01:40:13.091719 22330 net.cpp:100] Creating Layer rpn_cls_prob_reshape
I0418 01:40:13.091723 22330 net.cpp:434] rpn_cls_prob_reshape <- rpn_cls_prob
I0418 01:40:13.091729 22330 net.cpp:408] rpn_cls_prob_reshape -> rpn_cls_prob_reshape
I0418 01:40:13.091756 22330 net.cpp:150] Setting up rpn_cls_prob_reshape
I0418 01:40:13.091763 22330 net.cpp:157] Top shape: 1 74 96 1 1 (7104)
I0418 01:40:13.091766 22330 net.cpp:165] Memory required for data: 10172574800
I0418 01:40:13.091769 22330 layer_factory.hpp:77] Creating layer proposal
I0418 01:40:13.092393 22330 net.cpp:100] Creating Layer proposal
I0418 01:40:13.092406 22330 net.cpp:434] proposal <- rpn_cls_prob_reshape
I0418 01:40:13.092411 22330 net.cpp:434] proposal <- rpn_twin_pred_rpn_twin_pred_0_split_1
I0418 01:40:13.092417 22330 net.cpp:408] proposal -> rpn_rois
I0418 01:40:13.096341 22330 net.cpp:150] Setting up proposal
I0418 01:40:13.096359 22330 net.cpp:157] Top shape: 1 3 (3)
I0418 01:40:13.096366 22330 net.cpp:165] Memory required for data: 10172574812
I0418 01:40:13.096374 22330 layer_factory.hpp:77] Creating layer roi-data
I0418 01:40:13.098188 22330 net.cpp:100] Creating Layer roi-data
I0418 01:40:13.098203 22330 net.cpp:434] roi-data <- rpn_rois
I0418 01:40:13.098212 22330 net.cpp:434] roi-data <- gt_boxes_data_1_split_1
I0418 01:40:13.098224 22330 net.cpp:408] roi-data -> rois
I0418 01:40:13.098238 22330 net.cpp:408] roi-data -> labels
I0418 01:40:13.098258 22330 net.cpp:408] roi-data -> twin_targets
I0418 01:40:13.098270 22330 net.cpp:408] roi-data -> twin_inside_weights
I0418 01:40:13.098282 22330 net.cpp:408] roi-data -> twin_outside_weights
I0418 01:40:13.098654 22330 net.cpp:150] Setting up roi-data
I0418 01:40:13.098670 22330 net.cpp:157] Top shape: 1 3 (3)
I0418 01:40:13.098678 22330 net.cpp:157] Top shape: 1 1 (1)
I0418 01:40:13.098686 22330 net.cpp:157] Top shape: 1 402 (402)
I0418 01:40:13.098695 22330 net.cpp:157] Top shape: 1 402 (402)
I0418 01:40:13.098702 22330 net.cpp:157] Top shape: 1 402 (402)
I0418 01:40:13.098708 22330 net.cpp:165] Memory required for data: 10172579652
I0418 01:40:13.098716 22330 layer_factory.hpp:77] Creating layer labels_roi-data_1_split
I0418 01:40:13.098726 22330 net.cpp:100] Creating Layer labels_roi-data_1_split
I0418 01:40:13.098732 22330 net.cpp:434] labels_roi-data_1_split <- labels
I0418 01:40:13.098742 22330 net.cpp:408] labels_roi-data_1_split -> labels_roi-data_1_split_0
I0418 01:40:13.098754 22330 net.cpp:408] labels_roi-data_1_split -> labels_roi-data_1_split_1
I0418 01:40:13.098817 22330 net.cpp:150] Setting up labels_roi-data_1_split
I0418 01:40:13.098829 22330 net.cpp:157] Top shape: 1 1 (1)
I0418 01:40:13.098836 22330 net.cpp:157] Top shape: 1 1 (1)
I0418 01:40:13.098843 22330 net.cpp:165] Memory required for data: 10172579660
I0418 01:40:13.098850 22330 layer_factory.hpp:77] Creating layer roi_pool5
I0418 01:40:13.098865 22330 net.cpp:100] Creating Layer roi_pool5
I0418 01:40:13.098873 22330 net.cpp:434] roi_pool5 <- conv5b_relu5b_0_split_1
I0418 01:40:13.098882 22330 net.cpp:434] roi_pool5 <- rois
I0418 01:40:13.098896 22330 net.cpp:408] roi_pool5 -> pool5
I0418 01:40:13.098911 22330 roi_pooling_layer.cpp:34] Temporal scale: 0.125
I0418 01:40:13.098922 22330 roi_pooling_layer.cpp:35] Spatial scale: 0.0625
I0418 01:40:13.098973 22330 net.cpp:150] Setting up roi_pool5
I0418 01:40:13.098984 22330 net.cpp:157] Top shape: 1 512 1 4 4 (8192)
I0418 01:40:13.098990 22330 net.cpp:165] Memory required for data: 10172612428
I0418 01:40:13.098997 22330 layer_factory.hpp:77] Creating layer fc6
I0418 01:40:13.099011 22330 net.cpp:100] Creating Layer fc6
I0418 01:40:13.099020 22330 net.cpp:434] fc6 <- pool5
I0418 01:40:13.099031 22330 net.cpp:408] fc6 -> fc6
I0418 01:40:13.984093 22330 net.cpp:150] Setting up fc6
I0418 01:40:13.984120 22330 net.cpp:157] Top shape: 1 4096 (4096)
I0418 01:40:13.984127 22330 net.cpp:165] Memory required for data: 10172628812
I0418 01:40:13.984139 22330 layer_factory.hpp:77] Creating layer relu6
I0418 01:40:13.984153 22330 net.cpp:100] Creating Layer relu6
I0418 01:40:13.984160 22330 net.cpp:434] relu6 <- fc6
I0418 01:40:13.984180 22330 net.cpp:395] relu6 -> fc6 (in-place)
I0418 01:40:13.984750 22330 net.cpp:150] Setting up relu6
I0418 01:40:13.984763 22330 net.cpp:157] Top shape: 1 4096 (4096)
I0418 01:40:13.984767 22330 net.cpp:165] Memory required for data: 10172645196
I0418 01:40:13.984771 22330 layer_factory.hpp:77] Creating layer drop6
I0418 01:40:13.984784 22330 net.cpp:100] Creating Layer drop6
I0418 01:40:13.984788 22330 net.cpp:434] drop6 <- fc6
I0418 01:40:13.984793 22330 net.cpp:395] drop6 -> fc6 (in-place)
I0418 01:40:13.984825 22330 net.cpp:150] Setting up drop6
I0418 01:40:13.984838 22330 net.cpp:157] Top shape: 1 4096 (4096)
I0418 01:40:13.984845 22330 net.cpp:165] Memory required for data: 10172661580
I0418 01:40:13.984849 22330 layer_factory.hpp:77] Creating layer fc6_drop6_0_split
I0418 01:40:13.984855 22330 net.cpp:100] Creating Layer fc6_drop6_0_split
I0418 01:40:13.984859 22330 net.cpp:434] fc6_drop6_0_split <- fc6
I0418 01:40:13.984866 22330 net.cpp:408] fc6_drop6_0_split -> fc6_drop6_0_split_0
I0418 01:40:13.984875 22330 net.cpp:408] fc6_drop6_0_split -> fc6_drop6_0_split_1
I0418 01:40:13.984930 22330 net.cpp:150] Setting up fc6_drop6_0_split
I0418 01:40:13.984942 22330 net.cpp:157] Top shape: 1 4096 (4096)
I0418 01:40:13.984947 22330 net.cpp:157] Top shape: 1 4096 (4096)
I0418 01:40:13.984951 22330 net.cpp:165] Memory required for data: 10172694348
I0418 01:40:13.984953 22330 layer_factory.hpp:77] Creating layer cls_score
I0418 01:40:13.984961 22330 net.cpp:100] Creating Layer cls_score
I0418 01:40:13.984964 22330 net.cpp:434] cls_score <- fc6_drop6_0_split_0
I0418 01:40:13.984971 22330 net.cpp:408] cls_score -> cls_score
I0418 01:40:14.006923 22330 net.cpp:150] Setting up cls_score
I0418 01:40:14.006942 22330 net.cpp:157] Top shape: 1 201 (201)
I0418 01:40:14.006947 22330 net.cpp:165] Memory required for data: 10172695152
I0418 01:40:14.006954 22330 layer_factory.hpp:77] Creating layer cls_score_cls_score_0_split
I0418 01:40:14.006961 22330 net.cpp:100] Creating Layer cls_score_cls_score_0_split
I0418 01:40:14.006965 22330 net.cpp:434] cls_score_cls_score_0_split <- cls_score
I0418 01:40:14.006971 22330 net.cpp:408] cls_score_cls_score_0_split -> cls_score_cls_score_0_split_0
I0418 01:40:14.006978 22330 net.cpp:408] cls_score_cls_score_0_split -> cls_score_cls_score_0_split_1
I0418 01:40:14.007035 22330 net.cpp:150] Setting up cls_score_cls_score_0_split
I0418 01:40:14.007042 22330 net.cpp:157] Top shape: 1 201 (201)
I0418 01:40:14.007046 22330 net.cpp:157] Top shape: 1 201 (201)
I0418 01:40:14.007050 22330 net.cpp:165] Memory required for data: 10172696760
I0418 01:40:14.007052 22330 layer_factory.hpp:77] Creating layer twin_pred
I0418 01:40:14.007061 22330 net.cpp:100] Creating Layer twin_pred
I0418 01:40:14.007064 22330 net.cpp:434] twin_pred <- fc6_drop6_0_split_1
I0418 01:40:14.007071 22330 net.cpp:408] twin_pred -> twin_pred
I0418 01:40:14.049805 22330 net.cpp:150] Setting up twin_pred
I0418 01:40:14.049834 22330 net.cpp:157] Top shape: 1 402 (402)
I0418 01:40:14.049839 22330 net.cpp:165] Memory required for data: 10172698368
I0418 01:40:14.049846 22330 layer_factory.hpp:77] Creating layer loss_cls
I0418 01:40:14.049856 22330 net.cpp:100] Creating Layer loss_cls
I0418 01:40:14.049860 22330 net.cpp:434] loss_cls <- cls_score_cls_score_0_split_0
I0418 01:40:14.049866 22330 net.cpp:434] loss_cls <- labels_roi-data_1_split_0
I0418 01:40:14.049871 22330 net.cpp:408] loss_cls -> loss_cls
…
