…
stepsize: 350000
snapshot: 0
snapshot_prefix: "./experiments/activitynet/snapshot/activitynet"
average_loss: 100
iter_size: 1
I0417 15:21:37.602789 20250 solver.cpp:81] Creating training net from train_net file: ./experiments/activitynet/train.prototxt
I0417 15:21:37.603874 20250 net.cpp:58] Initializing net from parameters: 
name: "activitynet"
state {
  phase: TRAIN
}
layer {
  name: "data"
  type: "Python"
  top: "data"
  top: "gt_boxes"
  python_param {
    module: "roi_data_layer.layer"
    layer: "RoIDataLayer"
    param_str: "\'num_classes\': 100"
  }
}
layer {
  name: "conv1a"
  type: "Convolution"
  bottom: "data"
  top: "conv1a"
  param {
    lr_mult: 0
    decay_mult: 0
  }
  param {
    lr_mult: 0
    decay_mult: 0
  }
  convolution_param {
    num_output: 64
    pad: 1
    pad: 1
    pad: 1
    kernel_size: 3
    kernel_size: 3
    kernel_size: 3
    weight_filler {
      type: "gaussian"
      std: 0.01
    }
    bias_filler {
      type: "constant"
      value: 0
    }
  }
}
layer {
  name: "relu1a"
  type: "ReLU"
  bottom: "conv1a"
  top: "conv1a"
}
layer {
  name: "pool1"
  type: "Pooling"
  bottom: "conv1a"
  top: "pool1"
  pooling_param {
    pool: MAX
    kernel_size: 1
    kernel_size: 2
    kernel_size: 2
    stride: 1
    stride: 2
    stride: 2
  }
}
layer {
  name: "conv2a"
  type: "Convolution"
  bottom: "pool1"
  top: "conv2a"
  param {
    lr_mult: 0
    decay_mult: 0
  }
  param {
    lr_mult: 0
    decay_mult: 0
  }
  convolution_param {
    num_output: 128
    pad: 1
    pad: 1
    pad: 1
    kernel_size: 3
    kernel_size: 3
    kernel_size: 3
    weight_filler {
      type: "gaussian"
      std: 0.01
    }
    bias_filler {
      type: "constant"
      value: 1
    }
  }
}
layer {
  name: "relu2a"
  type: "ReLU"
  bottom: "conv2a"
  top: "conv2a"
}
layer {
  name: "pool2"
  type: "Pooling"
  bottom: "conv2a"
  top: "pool2"
  pooling_param {
    pool: MAX
    kernel_size: 2
    kernel_size: 2
    kernel_size: 2
    stride: 2
    stride: 2
    stride: 2
  }
}
layer {
  name: "conv3a"
  type: "Convolution"
  bottom: "pool2"
  top: "conv3a"
  param {
    lr_mult: 1
    decay_mult: 1
  }
  param {
    lr_mult: 2
    decay_mult: 0
  }
  convolution_param {
    num_output: 256
    pad: 1
    pad: 1
    pad: 1
    kernel_size: 3
    kernel_size: 3
    kernel_size: 3
    weight_filler {
      type: "gaussian"
      std: 0.01
    }
    bias_filler {
      type: "constant"
      value: 1
    }
  }
}
layer {
  name: "relu3a"
  type: "ReLU"
  bottom: "conv3a"
  top: "conv3a"
}
layer {
  name: "conv3b"
  type: "Convolution"
  bottom: "conv3a"
  top: "conv3b"
  param {
    lr_mult: 1
    decay_mult: 1
  }
  param {
    lr_mult: 2
    decay_mult: 0
  }
  convolution_param {
    num_output: 256
    pad: 1
    pad: 1
    pad: 1
    kernel_size: 3
    kernel_size: 3
    kernel_size: 3
    weight_filler {
      type: "gaussian"
      std: 0.01
    }
    bias_filler {
      type: "constant"
      value: 1
    }
  }
}
layer {
  name: "relu3b"
  type: "ReLU"
  bottom: "conv3b"
  top: "conv3b"
}
layer {
  name: "pool3"
  type: "Pooling"
  bottom: "conv3b"
  top: "pool3"
  pooling_param {
    pool: MAX
    kernel_size: 2
    kernel_size: 2
    kernel_size: 2
    stride: 2
    stride: 2
    stride: 2
  }
}
layer {
  name: "conv4a"
  type: "Convolution"
  bottom: "pool3"
  top: "conv4a"
  param {
    lr_mult: 1
    decay_mult: 1
  }
  param {
    lr_mult: 2
    decay_mult: 0
  }
  convolution_param {
    num_output: 512
    pad: 1
    pad: 1
    pad: 1
    kernel_size: 3
    kernel_size: 3
    kernel_size: 3
    weight_filler {
      type: "gaussian"
      std: 0.01
    }
    bias_filler {
      type: "constant"
      value: 1
    }
  }
}
layer {
  name: "relu4a"
  type: "ReLU"
  bottom: "conv4a"
  top: "conv4a"
}
layer {
  name: "conv4b"
  type: "Convolution"
  bottom: "conv4a"
  top: "conv4b"
  param {
    lr_mult: 1
    decay_mult: 1
  }
  param {
    lr_mult: 2
    decay_mult: 0
  }
  convolution_param {
    num_output: 512
    pad: 1
    pad: 1
    pad: 1
    kernel_size: 3
    kernel_size: 3
    kernel_size: 3
    weight_filler {
      type: "gaussian"
      std: 0.01
    }
    bias_filler {
      type: "constant"
      value: 1
    }
  }
}
layer {
  name: "relu4b"
  type: "ReLU"
  bottom: "conv4b"
  top: "conv4b"
}
layer {
  name: "pool4"
  type: "Pooling"
  bottom: "conv4b"
  top: "pool4"
  pooling_param {
    pool: MAX
    kernel_size: 2
    kernel_size: 2
    kernel_size: 2
    stride: 2
    stride: 2
    stride: 2
  }
}
layer {
  name: "conv5a"
  type: "Convolution"
  bottom: "pool4"
  top: "conv5a"
  param {
    lr_mult: 1
    decay_mult: 1
  }
  param {
    lr_mult: 2
    decay_mult: 0
  }
  convolution_param {
    num_output: 512
    pad: 1
    pad: 1
    pad: 1
    kernel_size: 3
    kernel_size: 3
    kernel_size: 3
    weight_filler {
      type: "gaussian"
      std: 0.01
    }
    bias_filler {
      type: "constant"
      value: 1
    }
  }
}
layer {
  name: "relu5a"
  type: "ReLU"
  bottom: "conv5a"
  top: "conv5a"
}
layer {
  name: "conv5b"
  type: "Convolution"
  bottom: "conv5a"
  top: "conv5b"
  param {
    lr_mult: 1
    decay_mult: 1
  }
  param {
    lr_mult: 2
    decay_mult: 0
  }
  convolution_param {
    num_output: 512
    pad: 1
    pad: 1
    pad: 1
    kernel_size: 3
    kernel_size: 3
    kernel_size: 3
    weight_filler {
      type: "gaussian"
      std: 0.01
    }
    bias_filler {
      type: "constant"
      value: 1
    }
  }
}
layer {
  name: "relu5b"
  type: "ReLU"
  bottom: "conv5b"
  top: "conv5b"
}
layer {
  name: "rpn_conv/3x3"
  type: "Convolution"
  bottom: "conv5b"
  top: "rpn/output"
  param {
    lr_mult: 1
    decay_mult: 1
  }
  param {
    lr_mult: 2
    decay_mult: 0
  }
  convolution_param {
    num_output: 512
    pad: 1
    pad: 1
    pad: 1
    kernel_size: 3
    kernel_size: 3
    kernel_size: 3
    stride: 1
    stride: 2
    stride: 2
    weight_filler {
      type: "gaussian"
      std: 0.01
    }
    bias_filler {
      type: "constant"
      value: 0
    }
  }
}
layer {
  name: "rpn_relu/3x3"
  type: "ReLU"
  bottom: "rpn/output"
  top: "rpn/output"
}
layer {
  name: "rpn_conv/3x3_2"
  type: "Convolution"
  bottom: "rpn/output"
  top: "rpn/output_2"
  param {
    lr_mult: 1
    decay_mult: 1
  }
  param {
    lr_mult: 2
    decay_mult: 0
  }
  convolution_param {
    num_output: 512
    pad: 1
    pad: 1
    pad: 1
    kernel_size: 3
    kernel_size: 3
    kernel_size: 3
    stride: 1
    stride: 2
    stride: 2
    weight_filler {
      type: "gaussian"
      std: 0.01
    }
    bias_filler {
      type: "constant"
      value: 0
    }
  }
}
layer {
  name: "rpn_relu/3x3_2"
  type: "ReLU"
  bottom: "rpn/output_2"
  top: "rpn/output_2"
}
layer {
  name: "rpn/output_pool"
  type: "Pooling"
  bottom: "rpn/output_2"
  top: "rpn/output_pool"
  pooling_param {
    pool: MAX
    kernel_size: 1
    kernel_size: 2
    kernel_size: 2
  }
}
layer {
  name: "rpn_cls_score"
  type: "Convolution"
  bottom: "rpn/output_pool"
  top: "rpn_cls_score"
  param {
    lr_mult: 1
    decay_mult: 1
  }
  param {
    lr_mult: 2
    decay_mult: 0
  }
  convolution_param {
    num_output: 74
    kernel_size: 1
    kernel_size: 1
    kernel_size: 1
    weight_filler {
      type: "gaussian"
      std: 0.01
    }
    bias_filler {
      type: "constant"
      value: 0
    }
  }
}
layer {
  name: "rpn_twin_pred"
  type: "Convolution"
  bottom: "rpn/output_pool"
  top: "rpn_twin_pred"
  param {
    lr_mult: 1
    decay_mult: 1
  }
  param {
    lr_mult: 2
    decay_mult: 0
  }
  convolution_param {
    num_output: 74
    kernel_size: 1
    kernel_size: 1
    kernel_size: 1
    weight_filler {
      type: "gaussian"
      std: 0.01
    }
    bias_filler {
      type: "constant"
      value: 0
    }
  }
}
layer {
  name: "rpn_cls_score_reshape"
  type: "Reshape"
  bottom: "rpn_cls_score"
  top: "rpn_cls_score_reshape"
  reshape_param {
    shape {
      dim: 0
      dim: 2
      dim: -1
      dim: 0
      dim: 0
    }
  }
}
layer {
  name: "rpn-data"
  type: "Python"
  bottom: "rpn_cls_score"
  bottom: "gt_boxes"
  bottom: "data"
  top: "rpn_labels"
  top: "rpn_twin_targets"
  top: "rpn_twin_inside_weights"
  top: "rpn_twin_outside_weights"
  python_param {
    module: "rpn.anchor_target_layer"
    layer: "AnchorTargetLayer"
    param_str: "\'feat_stride\': 8 \n\'scales\': !!python/tuple [1,1.25, 1.5,1.75, 2,2.5, 3,3.5, 4,4.5, 5,5.5, 6,7, 8,9,10,11,12,14,16,18,20,22,24,28,32,36,40,44,52,60,68,76,84,92,100]"
  }
}
layer {
  name: "rpn_loss_cls"
  type: "SoftmaxWithLoss"
  bottom: "rpn_cls_score_reshape"
  bottom: "rpn_labels"
  top: "rpn_cls_loss"
  loss_weight: 1
  propagate_down: true
  propagate_down: false
  loss_param {
    ignore_label: -1
    normalize: true
  }
}
layer {
  name: "rpn_loss_twin"
  type: "SmoothL1Loss"
  bottom: "rpn_twin_pred"
  bottom: "rpn_twin_targets"
  bottom: "rpn_twin_inside_weights"
  bottom: "rpn_twin_outside_weights"
  top: "rpn_loss_twin"
  loss_weight: 1
  smooth_l1_loss_param {
    sigma: 3
  }
}
layer {
  name: "rpn_accuarcy"
  type: "Accuracy"
  bottom: "rpn_cls_score_reshape"
  bottom: "rpn_labels"
  top: "rpn_accuarcy"
  top: "rpn_accuarcy_class"
  propagate_down: false
  propagate_down: false
  accuracy_param {
    ignore_label: -1
  }
}
layer {
  name: "rpn_cls_prob"
  type: "Softmax"
  bottom: "rpn_cls_score_reshape"
  top: "rpn_cls_prob"
}
layer {
  name: "rpn_cls_prob_reshape"
  type: "Reshape"
  bottom: "rpn_cls_prob"
  top: "rpn_cls_prob_reshape"
  reshape_param {
    shape {
      dim: 0
      dim: 74
      dim: -1
      dim: 0
      dim: 0
    }
  }
}
layer {
  name: "proposal"
  type: "Python"
  bottom: "rpn_cls_prob_reshape"
  bottom: "rpn_twin_pred"
  top: "rpn_rois"
  include {
    phase: TRAIN
  }
  python_param {
    module: "rpn.proposal_layer"
    layer: "ProposalLayer"
    param_str: "\'feat_stride\': 8 \n\'scales\': !!python/tuple [1,1.25, 1.5,1.75, 2,2.5, 3,3.5, 4,4.5, 5,5.5, 6,7, 8,9,10,11,12,14,16,18,20,22,24,28,32,36,40,44,52,60,68,76,84,92,100]"
  }
}
layer {
  name: "roi-data"
  type: "Python"
  bottom: "rpn_rois"
  bottom: "gt_boxes"
  top: "rois"
  top: "labels"
  top: "twin_targets"
  top: "twin_inside_weights"
  top: "twin_outside_weights"
  python_param {
    module: "rpn.proposal_target_layer"
    layer: "ProposalTargetLayer"
    param_str: "\'num_classes\': 201"
  }
}
layer {
  name: "roi_pool5"
  type: "ROIPooling"
  bottom: "conv5b"
  bottom: "rois"
  top: "pool5"
  roi_pooling_param {
    pooled_h: 4
    pooled_w: 4
    spatial_scale: 0.0625
    pooled_l: 1
    temporal_scale: 0.125
  }
}
layer {
  name: "fc6"
  type: "InnerProduct"
  bottom: "pool5"
  top: "fc6"
  param {
    lr_mult: 1
    decay_mult: 1
  }
  param {
    lr_mult: 2
    decay_mult: 0
  }
  inner_product_param {
    num_output: 4096
    weight_filler {
      type: "gaussian"
      std: 0.005
    }
    bias_filler {
      type: "constant"
      value: 1
    }
  }
}
layer {
  name: "relu6"
  type: "ReLU"
  bottom: "fc6"
  top: "fc6"
}
layer {
  name: "drop6"
  type: "Dropout"
  bottom: "fc6"
  top: "fc6"
  dropout_param {
    dropout_ratio: 0.5
  }
}
layer {
  name: "cls_score"
  type: "InnerProduct"
  bottom: "fc6"
  top: "cls_score"
  param {
    lr_mult: 1
    decay_mult: 1
  }
  param {
    lr_mult: 2
    decay_mult: 0
  }
  inner_product_param {
    num_output: 201
    weight_filler {
      type: "gaussian"
      std: 0.01
    }
    bias_filler {
      type: "constant"
      value: 0
    }
  }
}
layer {
  name: "twin_pred"
  type: "InnerProduct"
  bottom: "fc6"
  top: "twin_pred"
  param {
    lr_mult: 1
    decay_mult: 1
  }
  param {
    lr_mult: 2
    decay_mult: 0
  }
  inner_product_param {
    num_output: 402
    weight_filler {
      type: "gaussian"
      std: 0.001
    }
    bias_filler {
      type: "constant"
      value: 0
    }
  }
}
layer {
  name: "loss_cls"
  type: "SoftmaxWithLoss"
  bottom: "cls_score"
  bottom: "labels"
  top: "loss_cls"
  loss_weight: 1
  propagate_down: true
  propagate_down: false
}
layer {
  name: "loss_twin"
  type: "SmoothL1Loss"
  bottom: "twin_pred"
  bottom: "twin_targets"
  bottom: "twin_inside_weights"
  bottom: "twin_outside_weights"
  top: "loss_twin"
  loss_weight: 1
}
layer {
  name: "accuarcy"
  type: "Accuracy"
  bottom: "cls_score"
  bottom: "labels"
  top: "accuarcy"
  propagate_down: false
  propagate_down: false
  accuracy_param {
    ignore_label: -1
  }
}
I0417 15:21:37.604090 20250 layer_factory.hpp:77] Creating layer data
I0417 15:21:37.628875 20250 net.cpp:100] Creating Layer data
I0417 15:21:37.628897 20250 net.cpp:408] data -> data
I0417 15:21:37.628911 20250 net.cpp:408] data -> gt_boxes
setting up
has rpn
RoiDataLayer: name_to_top: {'gt_windows': 1, 'data': 0}
I0417 15:21:37.642012 20250 net.cpp:150] Setting up data
I0417 15:21:37.642035 20250 net.cpp:157] Top shape: 1 3 768 112 112 (28901376)
I0417 15:21:37.642040 20250 net.cpp:157] Top shape: 1 101 (101)
I0417 15:21:37.642043 20250 net.cpp:165] Memory required for data: 115605908
I0417 15:21:37.642050 20250 layer_factory.hpp:77] Creating layer data_data_0_split
I0417 15:21:37.642063 20250 net.cpp:100] Creating Layer data_data_0_split
I0417 15:21:37.642067 20250 net.cpp:434] data_data_0_split <- data
I0417 15:21:37.642076 20250 net.cpp:408] data_data_0_split -> data_data_0_split_0
I0417 15:21:37.642084 20250 net.cpp:408] data_data_0_split -> data_data_0_split_1
I0417 15:21:37.642115 20250 net.cpp:150] Setting up data_data_0_split
I0417 15:21:37.642123 20250 net.cpp:157] Top shape: 1 3 768 112 112 (28901376)
I0417 15:21:37.642127 20250 net.cpp:157] Top shape: 1 3 768 112 112 (28901376)
I0417 15:21:37.642130 20250 net.cpp:165] Memory required for data: 346816916
I0417 15:21:37.642134 20250 layer_factory.hpp:77] Creating layer gt_boxes_data_1_split
I0417 15:21:37.642139 20250 net.cpp:100] Creating Layer gt_boxes_data_1_split
I0417 15:21:37.642143 20250 net.cpp:434] gt_boxes_data_1_split <- gt_boxes
I0417 15:21:37.642148 20250 net.cpp:408] gt_boxes_data_1_split -> gt_boxes_data_1_split_0
I0417 15:21:37.642153 20250 net.cpp:408] gt_boxes_data_1_split -> gt_boxes_data_1_split_1
I0417 15:21:37.642176 20250 net.cpp:150] Setting up gt_boxes_data_1_split
I0417 15:21:37.642184 20250 net.cpp:157] Top shape: 1 101 (101)
I0417 15:21:37.642187 20250 net.cpp:157] Top shape: 1 101 (101)
I0417 15:21:37.642190 20250 net.cpp:165] Memory required for data: 346817724
I0417 15:21:37.642194 20250 layer_factory.hpp:77] Creating layer conv1a
I0417 15:21:37.642210 20250 net.cpp:100] Creating Layer conv1a
I0417 15:21:37.642216 20250 net.cpp:434] conv1a <- data_data_0_split_0
I0417 15:21:37.642222 20250 net.cpp:408] conv1a -> conv1a
I0417 15:21:37.833328 20250 net.cpp:150] Setting up conv1a
I0417 15:21:37.833358 20250 net.cpp:157] Top shape: 1 64 768 112 112 (616562688)
I0417 15:21:37.833362 20250 net.cpp:165] Memory required for data: 2813068476
I0417 15:21:37.833382 20250 layer_factory.hpp:77] Creating layer relu1a
I0417 15:21:37.833397 20250 net.cpp:100] Creating Layer relu1a
I0417 15:21:37.833402 20250 net.cpp:434] relu1a <- conv1a
I0417 15:21:37.833408 20250 net.cpp:395] relu1a -> conv1a (in-place)
I0417 15:21:37.834182 20250 net.cpp:150] Setting up relu1a
I0417 15:21:37.834199 20250 net.cpp:157] Top shape: 1 64 768 112 112 (616562688)
I0417 15:21:37.834203 20250 net.cpp:165] Memory required for data: 5279319228
I0417 15:21:37.834208 20250 layer_factory.hpp:77] Creating layer pool1
I0417 15:21:37.834218 20250 net.cpp:100] Creating Layer pool1
I0417 15:21:37.834220 20250 net.cpp:434] pool1 <- conv1a
I0417 15:21:37.834228 20250 net.cpp:408] pool1 -> pool1
I0417 15:21:37.834430 20250 net.cpp:150] Setting up pool1
I0417 15:21:37.834444 20250 net.cpp:157] Top shape: 1 64 768 56 56 (154140672)
I0417 15:21:37.834447 20250 net.cpp:165] Memory required for data: 5895881916
I0417 15:21:37.834451 20250 layer_factory.hpp:77] Creating layer conv2a
I0417 15:21:37.834463 20250 net.cpp:100] Creating Layer conv2a
I0417 15:21:37.834470 20250 net.cpp:434] conv2a <- pool1
I0417 15:21:37.834477 20250 net.cpp:408] conv2a -> conv2a
I0417 15:21:37.854166 20250 net.cpp:150] Setting up conv2a
I0417 15:21:37.854194 20250 net.cpp:157] Top shape: 1 128 768 56 56 (308281344)
I0417 15:21:37.854198 20250 net.cpp:165] Memory required for data: 7129007292
I0417 15:21:37.854212 20250 layer_factory.hpp:77] Creating layer relu2a
I0417 15:21:37.854225 20250 net.cpp:100] Creating Layer relu2a
I0417 15:21:37.854230 20250 net.cpp:434] relu2a <- conv2a
I0417 15:21:37.854238 20250 net.cpp:395] relu2a -> conv2a (in-place)
I0417 15:21:37.854804 20250 net.cpp:150] Setting up relu2a
I0417 15:21:37.854820 20250 net.cpp:157] Top shape: 1 128 768 56 56 (308281344)
I0417 15:21:37.854823 20250 net.cpp:165] Memory required for data: 8362132668
I0417 15:21:37.854827 20250 layer_factory.hpp:77] Creating layer pool2
I0417 15:21:37.854840 20250 net.cpp:100] Creating Layer pool2
I0417 15:21:37.854846 20250 net.cpp:434] pool2 <- conv2a
I0417 15:21:37.854851 20250 net.cpp:408] pool2 -> pool2
I0417 15:21:37.855058 20250 net.cpp:150] Setting up pool2
I0417 15:21:37.855072 20250 net.cpp:157] Top shape: 1 128 384 28 28 (38535168)
I0417 15:21:37.855074 20250 net.cpp:165] Memory required for data: 8516273340
I0417 15:21:37.855078 20250 layer_factory.hpp:77] Creating layer conv3a
I0417 15:21:37.855092 20250 net.cpp:100] Creating Layer conv3a
I0417 15:21:37.855095 20250 net.cpp:434] conv3a <- pool2
I0417 15:21:37.855103 20250 net.cpp:408] conv3a -> conv3a
I0417 15:21:37.885128 20250 net.cpp:150] Setting up conv3a
I0417 15:21:37.885151 20250 net.cpp:157] Top shape: 1 256 384 28 28 (77070336)
I0417 15:21:37.885155 20250 net.cpp:165] Memory required for data: 8824554684
I0417 15:21:37.885167 20250 layer_factory.hpp:77] Creating layer relu3a
I0417 15:21:37.885180 20250 net.cpp:100] Creating Layer relu3a
I0417 15:21:37.885185 20250 net.cpp:434] relu3a <- conv3a
I0417 15:21:37.885191 20250 net.cpp:395] relu3a -> conv3a (in-place)
I0417 15:21:37.885504 20250 net.cpp:150] Setting up relu3a
I0417 15:21:37.885519 20250 net.cpp:157] Top shape: 1 256 384 28 28 (77070336)
I0417 15:21:37.885524 20250 net.cpp:165] Memory required for data: 9132836028
I0417 15:21:37.885529 20250 layer_factory.hpp:77] Creating layer conv3b
I0417 15:21:37.885542 20250 net.cpp:100] Creating Layer conv3b
I0417 15:21:37.885548 20250 net.cpp:434] conv3b <- conv3a
I0417 15:21:37.885556 20250 net.cpp:408] conv3b -> conv3b
I0417 15:21:37.935508 20250 net.cpp:150] Setting up conv3b
I0417 15:21:37.935530 20250 net.cpp:157] Top shape: 1 256 384 28 28 (77070336)
I0417 15:21:37.935534 20250 net.cpp:165] Memory required for data: 9441117372
I0417 15:21:37.935544 20250 layer_factory.hpp:77] Creating layer relu3b
I0417 15:21:37.935554 20250 net.cpp:100] Creating Layer relu3b
I0417 15:21:37.935559 20250 net.cpp:434] relu3b <- conv3b
I0417 15:21:37.935566 20250 net.cpp:395] relu3b -> conv3b (in-place)
I0417 15:21:37.935875 20250 net.cpp:150] Setting up relu3b
I0417 15:21:37.935889 20250 net.cpp:157] Top shape: 1 256 384 28 28 (77070336)
I0417 15:21:37.935894 20250 net.cpp:165] Memory required for data: 9749398716
I0417 15:21:37.935897 20250 layer_factory.hpp:77] Creating layer pool3
I0417 15:21:37.935906 20250 net.cpp:100] Creating Layer pool3
I0417 15:21:37.935914 20250 net.cpp:434] pool3 <- conv3b
I0417 15:21:37.935920 20250 net.cpp:408] pool3 -> pool3
I0417 15:21:37.936101 20250 net.cpp:150] Setting up pool3
I0417 15:21:37.936113 20250 net.cpp:157] Top shape: 1 256 192 14 14 (9633792)
I0417 15:21:37.936116 20250 net.cpp:165] Memory required for data: 9787933884
I0417 15:21:37.936120 20250 layer_factory.hpp:77] Creating layer conv4a
I0417 15:21:37.936131 20250 net.cpp:100] Creating Layer conv4a
I0417 15:21:37.936139 20250 net.cpp:434] conv4a <- pool3
I0417 15:21:37.936147 20250 net.cpp:408] conv4a -> conv4a
I0417 15:21:38.034003 20250 net.cpp:150] Setting up conv4a
I0417 15:21:38.034029 20250 net.cpp:157] Top shape: 1 512 192 14 14 (19267584)
I0417 15:21:38.034034 20250 net.cpp:165] Memory required for data: 9865004220
I0417 15:21:38.034049 20250 layer_factory.hpp:77] Creating layer relu4a
I0417 15:21:38.034060 20250 net.cpp:100] Creating Layer relu4a
I0417 15:21:38.034065 20250 net.cpp:434] relu4a <- conv4a
I0417 15:21:38.034071 20250 net.cpp:395] relu4a -> conv4a (in-place)
I0417 15:21:38.034389 20250 net.cpp:150] Setting up relu4a
I0417 15:21:38.034404 20250 net.cpp:157] Top shape: 1 512 192 14 14 (19267584)
I0417 15:21:38.034407 20250 net.cpp:165] Memory required for data: 9942074556
I0417 15:21:38.034411 20250 layer_factory.hpp:77] Creating layer conv4b
I0417 15:21:38.034426 20250 net.cpp:100] Creating Layer conv4b
I0417 15:21:38.034432 20250 net.cpp:434] conv4b <- conv4a
I0417 15:21:38.034440 20250 net.cpp:408] conv4b -> conv4b
I0417 15:21:38.227721 20250 net.cpp:150] Setting up conv4b
I0417 15:21:38.227748 20250 net.cpp:157] Top shape: 1 512 192 14 14 (19267584)
I0417 15:21:38.227753 20250 net.cpp:165] Memory required for data: 10019144892
I0417 15:21:38.227762 20250 layer_factory.hpp:77] Creating layer relu4b
I0417 15:21:38.227772 20250 net.cpp:100] Creating Layer relu4b
I0417 15:21:38.227777 20250 net.cpp:434] relu4b <- conv4b
I0417 15:21:38.227784 20250 net.cpp:395] relu4b -> conv4b (in-place)
I0417 15:21:38.227948 20250 net.cpp:150] Setting up relu4b
I0417 15:21:38.227960 20250 net.cpp:157] Top shape: 1 512 192 14 14 (19267584)
I0417 15:21:38.227963 20250 net.cpp:165] Memory required for data: 10096215228
I0417 15:21:38.227967 20250 layer_factory.hpp:77] Creating layer pool4
I0417 15:21:38.227975 20250 net.cpp:100] Creating Layer pool4
I0417 15:21:38.227978 20250 net.cpp:434] pool4 <- conv4b
I0417 15:21:38.227985 20250 net.cpp:408] pool4 -> pool4
I0417 15:21:38.228325 20250 net.cpp:150] Setting up pool4
I0417 15:21:38.228339 20250 net.cpp:157] Top shape: 1 512 96 7 7 (2408448)
I0417 15:21:38.228343 20250 net.cpp:165] Memory required for data: 10105849020
I0417 15:21:38.228348 20250 layer_factory.hpp:77] Creating layer conv5a
I0417 15:21:38.228363 20250 net.cpp:100] Creating Layer conv5a
I0417 15:21:38.228369 20250 net.cpp:434] conv5a <- pool4
I0417 15:21:38.228379 20250 net.cpp:408] conv5a -> conv5a
I0417 15:21:38.422637 20250 net.cpp:150] Setting up conv5a
I0417 15:21:38.422664 20250 net.cpp:157] Top shape: 1 512 96 7 7 (2408448)
I0417 15:21:38.422668 20250 net.cpp:165] Memory required for data: 10115482812
I0417 15:21:38.422678 20250 layer_factory.hpp:77] Creating layer relu5a
I0417 15:21:38.422690 20250 net.cpp:100] Creating Layer relu5a
I0417 15:21:38.422699 20250 net.cpp:434] relu5a <- conv5a
I0417 15:21:38.422708 20250 net.cpp:395] relu5a -> conv5a (in-place)
I0417 15:21:38.424656 20250 net.cpp:150] Setting up relu5a
I0417 15:21:38.424696 20250 net.cpp:157] Top shape: 1 512 96 7 7 (2408448)
I0417 15:21:38.424706 20250 net.cpp:165] Memory required for data: 10125116604
I0417 15:21:38.424718 20250 layer_factory.hpp:77] Creating layer conv5b
I0417 15:21:38.424752 20250 net.cpp:100] Creating Layer conv5b
I0417 15:21:38.424762 20250 net.cpp:434] conv5b <- conv5a
I0417 15:21:38.424778 20250 net.cpp:408] conv5b -> conv5b
I0417 15:21:38.626130 20250 net.cpp:150] Setting up conv5b
I0417 15:21:38.626157 20250 net.cpp:157] Top shape: 1 512 96 7 7 (2408448)
I0417 15:21:38.626161 20250 net.cpp:165] Memory required for data: 10134750396
I0417 15:21:38.626173 20250 layer_factory.hpp:77] Creating layer relu5b
I0417 15:21:38.626181 20250 net.cpp:100] Creating Layer relu5b
I0417 15:21:38.626188 20250 net.cpp:434] relu5b <- conv5b
I0417 15:21:38.626199 20250 net.cpp:395] relu5b -> conv5b (in-place)
I0417 15:21:38.626358 20250 net.cpp:150] Setting up relu5b
I0417 15:21:38.626368 20250 net.cpp:157] Top shape: 1 512 96 7 7 (2408448)
I0417 15:21:38.626372 20250 net.cpp:165] Memory required for data: 10144384188
I0417 15:21:38.626376 20250 layer_factory.hpp:77] Creating layer conv5b_relu5b_0_split
I0417 15:21:38.626381 20250 net.cpp:100] Creating Layer conv5b_relu5b_0_split
I0417 15:21:38.626385 20250 net.cpp:434] conv5b_relu5b_0_split <- conv5b
I0417 15:21:38.626391 20250 net.cpp:408] conv5b_relu5b_0_split -> conv5b_relu5b_0_split_0
I0417 15:21:38.626399 20250 net.cpp:408] conv5b_relu5b_0_split -> conv5b_relu5b_0_split_1
I0417 15:21:38.626438 20250 net.cpp:150] Setting up conv5b_relu5b_0_split
I0417 15:21:38.626447 20250 net.cpp:157] Top shape: 1 512 96 7 7 (2408448)
I0417 15:21:38.626451 20250 net.cpp:157] Top shape: 1 512 96 7 7 (2408448)
I0417 15:21:38.626456 20250 net.cpp:165] Memory required for data: 10163651772
I0417 15:21:38.626458 20250 layer_factory.hpp:77] Creating layer rpn_conv/3x3
I0417 15:21:38.626472 20250 net.cpp:100] Creating Layer rpn_conv/3x3
I0417 15:21:38.626479 20250 net.cpp:434] rpn_conv/3x3 <- conv5b_relu5b_0_split_0
I0417 15:21:38.626485 20250 net.cpp:408] rpn_conv/3x3 -> rpn/output
I0417 15:21:38.819671 20250 net.cpp:150] Setting up rpn_conv/3x3
I0417 15:21:38.819697 20250 net.cpp:157] Top shape: 1 512 96 4 4 (786432)
I0417 15:21:38.819701 20250 net.cpp:165] Memory required for data: 10166797500
I0417 15:21:38.819718 20250 layer_factory.hpp:77] Creating layer rpn_relu/3x3
I0417 15:21:38.819730 20250 net.cpp:100] Creating Layer rpn_relu/3x3
I0417 15:21:38.819735 20250 net.cpp:434] rpn_relu/3x3 <- rpn/output
I0417 15:21:38.819742 20250 net.cpp:395] rpn_relu/3x3 -> rpn/output (in-place)
I0417 15:21:38.820142 20250 net.cpp:150] Setting up rpn_relu/3x3
I0417 15:21:38.820154 20250 net.cpp:157] Top shape: 1 512 96 4 4 (786432)
I0417 15:21:38.820158 20250 net.cpp:165] Memory required for data: 10169943228
I0417 15:21:38.820163 20250 layer_factory.hpp:77] Creating layer rpn_conv/3x3_2
I0417 15:21:38.820175 20250 net.cpp:100] Creating Layer rpn_conv/3x3_2
I0417 15:21:38.820179 20250 net.cpp:434] rpn_conv/3x3_2 <- rpn/output
I0417 15:21:38.820188 20250 net.cpp:408] rpn_conv/3x3_2 -> rpn/output_2
I0417 15:21:39.007262 20250 net.cpp:150] Setting up rpn_conv/3x3_2
I0417 15:21:39.007288 20250 net.cpp:157] Top shape: 1 512 96 2 2 (196608)
I0417 15:21:39.007292 20250 net.cpp:165] Memory required for data: 10170729660
I0417 15:21:39.007302 20250 layer_factory.hpp:77] Creating layer rpn_relu/3x3_2
I0417 15:21:39.007310 20250 net.cpp:100] Creating Layer rpn_relu/3x3_2
I0417 15:21:39.007314 20250 net.cpp:434] rpn_relu/3x3_2 <- rpn/output_2
I0417 15:21:39.007319 20250 net.cpp:395] rpn_relu/3x3_2 -> rpn/output_2 (in-place)
I0417 15:21:39.007643 20250 net.cpp:150] Setting up rpn_relu/3x3_2
I0417 15:21:39.007655 20250 net.cpp:157] Top shape: 1 512 96 2 2 (196608)
I0417 15:21:39.007659 20250 net.cpp:165] Memory required for data: 10171516092
I0417 15:21:39.007663 20250 layer_factory.hpp:77] Creating layer rpn/output_pool
I0417 15:21:39.007673 20250 net.cpp:100] Creating Layer rpn/output_pool
I0417 15:21:39.007675 20250 net.cpp:434] rpn/output_pool <- rpn/output_2
I0417 15:21:39.007681 20250 net.cpp:408] rpn/output_pool -> rpn/output_pool
I0417 15:21:39.007853 20250 net.cpp:150] Setting up rpn/output_pool
I0417 15:21:39.007864 20250 net.cpp:157] Top shape: 1 512 96 1 1 (49152)
I0417 15:21:39.007869 20250 net.cpp:165] Memory required for data: 10171712700
I0417 15:21:39.007872 20250 layer_factory.hpp:77] Creating layer rpn/output_pool_rpn/output_pool_0_split
I0417 15:21:39.007877 20250 net.cpp:100] Creating Layer rpn/output_pool_rpn/output_pool_0_split
I0417 15:21:39.007880 20250 net.cpp:434] rpn/output_pool_rpn/output_pool_0_split <- rpn/output_pool
I0417 15:21:39.007886 20250 net.cpp:408] rpn/output_pool_rpn/output_pool_0_split -> rpn/output_pool_rpn/output_pool_0_split_0
I0417 15:21:39.007892 20250 net.cpp:408] rpn/output_pool_rpn/output_pool_0_split -> rpn/output_pool_rpn/output_pool_0_split_1
I0417 15:21:39.007922 20250 net.cpp:150] Setting up rpn/output_pool_rpn/output_pool_0_split
I0417 15:21:39.007930 20250 net.cpp:157] Top shape: 1 512 96 1 1 (49152)
I0417 15:21:39.007935 20250 net.cpp:157] Top shape: 1 512 96 1 1 (49152)
I0417 15:21:39.007937 20250 net.cpp:165] Memory required for data: 10172105916
I0417 15:21:39.007941 20250 layer_factory.hpp:77] Creating layer rpn_cls_score
I0417 15:21:39.007951 20250 net.cpp:100] Creating Layer rpn_cls_score
I0417 15:21:39.007953 20250 net.cpp:434] rpn_cls_score <- rpn/output_pool_rpn/output_pool_0_split_0
I0417 15:21:39.007959 20250 net.cpp:408] rpn_cls_score -> rpn_cls_score
I0417 15:21:39.009907 20250 net.cpp:150] Setting up rpn_cls_score
I0417 15:21:39.009920 20250 net.cpp:157] Top shape: 1 74 96 1 1 (7104)
I0417 15:21:39.009923 20250 net.cpp:165] Memory required for data: 10172134332
I0417 15:21:39.009929 20250 layer_factory.hpp:77] Creating layer rpn_cls_score_rpn_cls_score_0_split
I0417 15:21:39.009934 20250 net.cpp:100] Creating Layer rpn_cls_score_rpn_cls_score_0_split
I0417 15:21:39.009938 20250 net.cpp:434] rpn_cls_score_rpn_cls_score_0_split <- rpn_cls_score
I0417 15:21:39.009943 20250 net.cpp:408] rpn_cls_score_rpn_cls_score_0_split -> rpn_cls_score_rpn_cls_score_0_split_0
I0417 15:21:39.009948 20250 net.cpp:408] rpn_cls_score_rpn_cls_score_0_split -> rpn_cls_score_rpn_cls_score_0_split_1
I0417 15:21:39.009999 20250 net.cpp:150] Setting up rpn_cls_score_rpn_cls_score_0_split
I0417 15:21:39.010006 20250 net.cpp:157] Top shape: 1 74 96 1 1 (7104)
I0417 15:21:39.010010 20250 net.cpp:157] Top shape: 1 74 96 1 1 (7104)
I0417 15:21:39.010013 20250 net.cpp:165] Memory required for data: 10172191164
I0417 15:21:39.010016 20250 layer_factory.hpp:77] Creating layer rpn_twin_pred
I0417 15:21:39.010030 20250 net.cpp:100] Creating Layer rpn_twin_pred
I0417 15:21:39.010035 20250 net.cpp:434] rpn_twin_pred <- rpn/output_pool_rpn/output_pool_0_split_1
I0417 15:21:39.010040 20250 net.cpp:408] rpn_twin_pred -> rpn_twin_pred
I0417 15:21:39.011932 20250 net.cpp:150] Setting up rpn_twin_pred
I0417 15:21:39.011945 20250 net.cpp:157] Top shape: 1 74 96 1 1 (7104)
I0417 15:21:39.011948 20250 net.cpp:165] Memory required for data: 10172219580
I0417 15:21:39.011955 20250 layer_factory.hpp:77] Creating layer rpn_twin_pred_rpn_twin_pred_0_split
I0417 15:21:39.011960 20250 net.cpp:100] Creating Layer rpn_twin_pred_rpn_twin_pred_0_split
I0417 15:21:39.011965 20250 net.cpp:434] rpn_twin_pred_rpn_twin_pred_0_split <- rpn_twin_pred
I0417 15:21:39.011968 20250 net.cpp:408] rpn_twin_pred_rpn_twin_pred_0_split -> rpn_twin_pred_rpn_twin_pred_0_split_0
I0417 15:21:39.011975 20250 net.cpp:408] rpn_twin_pred_rpn_twin_pred_0_split -> rpn_twin_pred_rpn_twin_pred_0_split_1
I0417 15:21:39.012020 20250 net.cpp:150] Setting up rpn_twin_pred_rpn_twin_pred_0_split
I0417 15:21:39.012027 20250 net.cpp:157] Top shape: 1 74 96 1 1 (7104)
I0417 15:21:39.012032 20250 net.cpp:157] Top shape: 1 74 96 1 1 (7104)
I0417 15:21:39.012034 20250 net.cpp:165] Memory required for data: 10172276412
I0417 15:21:39.012037 20250 layer_factory.hpp:77] Creating layer rpn_cls_score_reshape
I0417 15:21:39.012048 20250 net.cpp:100] Creating Layer rpn_cls_score_reshape
I0417 15:21:39.012051 20250 net.cpp:434] rpn_cls_score_reshape <- rpn_cls_score_rpn_cls_score_0_split_0
I0417 15:21:39.012059 20250 net.cpp:408] rpn_cls_score_reshape -> rpn_cls_score_reshape
I0417 15:21:39.012090 20250 net.cpp:150] Setting up rpn_cls_score_reshape
I0417 15:21:39.012097 20250 net.cpp:157] Top shape: 1 2 3552 1 1 (7104)
I0417 15:21:39.012100 20250 net.cpp:165] Memory required for data: 10172304828
I0417 15:21:39.012104 20250 layer_factory.hpp:77] Creating layer rpn_cls_score_reshape_rpn_cls_score_reshape_0_split
I0417 15:21:39.012109 20250 net.cpp:100] Creating Layer rpn_cls_score_reshape_rpn_cls_score_reshape_0_split
I0417 15:21:39.012111 20250 net.cpp:434] rpn_cls_score_reshape_rpn_cls_score_reshape_0_split <- rpn_cls_score_reshape
I0417 15:21:39.012115 20250 net.cpp:408] rpn_cls_score_reshape_rpn_cls_score_reshape_0_split -> rpn_cls_score_reshape_rpn_cls_score_reshape_0_split_0
I0417 15:21:39.012125 20250 net.cpp:408] rpn_cls_score_reshape_rpn_cls_score_reshape_0_split -> rpn_cls_score_reshape_rpn_cls_score_reshape_0_split_1
I0417 15:21:39.012130 20250 net.cpp:408] rpn_cls_score_reshape_rpn_cls_score_reshape_0_split -> rpn_cls_score_reshape_rpn_cls_score_reshape_0_split_2
I0417 15:21:39.012168 20250 net.cpp:150] Setting up rpn_cls_score_reshape_rpn_cls_score_reshape_0_split
I0417 15:21:39.012177 20250 net.cpp:157] Top shape: 1 2 3552 1 1 (7104)
I0417 15:21:39.012181 20250 net.cpp:157] Top shape: 1 2 3552 1 1 (7104)
I0417 15:21:39.012185 20250 net.cpp:157] Top shape: 1 2 3552 1 1 (7104)
I0417 15:21:39.012188 20250 net.cpp:165] Memory required for data: 10172390076
I0417 15:21:39.012192 20250 layer_factory.hpp:77] Creating layer rpn-data
I0417 15:21:39.014032 20250 net.cpp:100] Creating Layer rpn-data
I0417 15:21:39.014045 20250 net.cpp:434] rpn-data <- rpn_cls_score_rpn_cls_score_0_split_1
I0417 15:21:39.014053 20250 net.cpp:434] rpn-data <- gt_boxes_data_1_split_0
I0417 15:21:39.014058 20250 net.cpp:434] rpn-data <- data_data_0_split_1
I0417 15:21:39.014063 20250 net.cpp:408] rpn-data -> rpn_labels
I0417 15:21:39.014070 20250 net.cpp:408] rpn-data -> rpn_twin_targets
I0417 15:21:39.014075 20250 net.cpp:408] rpn-data -> rpn_twin_inside_weights
I0417 15:21:39.014081 20250 net.cpp:408] rpn-data -> rpn_twin_outside_weights
I0417 15:21:39.016281 20250 net.cpp:150] Setting up rpn-data
I0417 15:21:39.016295 20250 net.cpp:157] Top shape: 1 1 3552 1 1 (3552)
I0417 15:21:39.016299 20250 net.cpp:157] Top shape: 1 74 96 1 1 (7104)
I0417 15:21:39.016304 20250 net.cpp:157] Top shape: 1 74 96 1 1 (7104)
I0417 15:21:39.016306 20250 net.cpp:157] Top shape: 1 74 96 1 1 (7104)
I0417 15:21:39.016309 20250 net.cpp:165] Memory required for data: 10172489532
I0417 15:21:39.016312 20250 layer_factory.hpp:77] Creating layer rpn_labels_rpn-data_0_split
I0417 15:21:39.016319 20250 net.cpp:100] Creating Layer rpn_labels_rpn-data_0_split
I0417 15:21:39.016321 20250 net.cpp:434] rpn_labels_rpn-data_0_split <- rpn_labels
I0417 15:21:39.016326 20250 net.cpp:408] rpn_labels_rpn-data_0_split -> rpn_labels_rpn-data_0_split_0
I0417 15:21:39.016333 20250 net.cpp:408] rpn_labels_rpn-data_0_split -> rpn_labels_rpn-data_0_split_1
I0417 15:21:39.016373 20250 net.cpp:150] Setting up rpn_labels_rpn-data_0_split
I0417 15:21:39.016381 20250 net.cpp:157] Top shape: 1 1 3552 1 1 (3552)
I0417 15:21:39.016384 20250 net.cpp:157] Top shape: 1 1 3552 1 1 (3552)
I0417 15:21:39.016387 20250 net.cpp:165] Memory required for data: 10172517948
I0417 15:21:39.016391 20250 layer_factory.hpp:77] Creating layer rpn_loss_cls
I0417 15:21:39.016400 20250 net.cpp:100] Creating Layer rpn_loss_cls
I0417 15:21:39.016407 20250 net.cpp:434] rpn_loss_cls <- rpn_cls_score_reshape_rpn_cls_score_reshape_0_split_0
I0417 15:21:39.016412 20250 net.cpp:434] rpn_loss_cls <- rpn_labels_rpn-data_0_split_0
…
I0417 15:21:39.016973 20250 layer_factory.hpp:77] Creating layer rpn_accuarcy
I0417 15:21:39.016980 20250 net.cpp:100] Creating Layer rpn_accuarcy
I0417 15:21:39.016984 20250 net.cpp:434] rpn_accuarcy <- rpn_cls_score_reshape_rpn_cls_score_reshape_0_split_1
I0417 15:21:39.016989 20250 net.cpp:434] rpn_accuarcy <- rpn_labels_rpn-data_0_split_1
I0417 15:21:39.016994 20250 net.cpp:408] rpn_accuarcy -> rpn_accuarcy
I0417 15:21:39.017000 20250 net.cpp:408] rpn_accuarcy -> rpn_accuarcy_class
I0417 15:21:39.017032 20250 net.cpp:150] Setting up rpn_accuarcy
I0417 15:21:39.017040 20250 net.cpp:157] Top shape: (1)
I0417 15:21:39.017042 20250 net.cpp:157] Top shape: 2 (2)
I0417 15:21:39.017045 20250 net.cpp:165] Memory required for data: 10172517968
I0417 15:21:39.017050 20250 layer_factory.hpp:77] Creating layer rpn_cls_prob
I0417 15:21:39.017053 20250 net.cpp:100] Creating Layer rpn_cls_prob
I0417 15:21:39.017056 20250 net.cpp:434] rpn_cls_prob <- rpn_cls_score_reshape_rpn_cls_score_reshape_0_split_2
I0417 15:21:39.017061 20250 net.cpp:408] rpn_cls_prob -> rpn_cls_prob
I0417 15:21:39.017244 20250 net.cpp:150] Setting up rpn_cls_prob
I0417 15:21:39.017254 20250 net.cpp:157] Top shape: 1 2 3552 1 1 (7104)
I0417 15:21:39.017258 20250 net.cpp:165] Memory required for data: 10172546384
I0417 15:21:39.017261 20250 layer_factory.hpp:77] Creating layer rpn_cls_prob_reshape
I0417 15:21:39.017267 20250 net.cpp:100] Creating Layer rpn_cls_prob_reshape
I0417 15:21:39.017271 20250 net.cpp:434] rpn_cls_prob_reshape <- rpn_cls_prob
I0417 15:21:39.017277 20250 net.cpp:408] rpn_cls_prob_reshape -> rpn_cls_prob_reshape
I0417 15:21:39.017299 20250 net.cpp:150] Setting up rpn_cls_prob_reshape
I0417 15:21:39.017307 20250 net.cpp:157] Top shape: 1 74 96 1 1 (7104)
I0417 15:21:39.017309 20250 net.cpp:165] Memory required for data: 10172574800
I0417 15:21:39.017313 20250 layer_factory.hpp:77] Creating layer proposal
I0417 15:21:39.017840 20250 net.cpp:100] Creating Layer proposal
I0417 15:21:39.017863 20250 net.cpp:434] proposal <- rpn_cls_prob_reshape
I0417 15:21:39.017869 20250 net.cpp:434] proposal <- rpn_twin_pred_rpn_twin_pred_0_split_1
I0417 15:21:39.017875 20250 net.cpp:408] proposal -> rpn_rois
I0417 15:21:39.019995 20250 net.cpp:150] Setting up proposal
I0417 15:21:39.020021 20250 net.cpp:157] Top shape: 1 3 (3)
I0417 15:21:39.020026 20250 net.cpp:165] Memory required for data: 10172574812
I0417 15:21:39.020030 20250 layer_factory.hpp:77] Creating layer roi-data
I0417 15:21:39.020159 20250 net.cpp:100] Creating Layer roi-data
I0417 15:21:39.020170 20250 net.cpp:434] roi-data <- rpn_rois
I0417 15:21:39.020175 20250 net.cpp:434] roi-data <- gt_boxes_data_1_split_1
I0417 15:21:39.020181 20250 net.cpp:408] roi-data -> rois
I0417 15:21:39.020187 20250 net.cpp:408] roi-data -> labels
I0417 15:21:39.020193 20250 net.cpp:408] roi-data -> twin_targets
I0417 15:21:39.020198 20250 net.cpp:408] roi-data -> twin_inside_weights
I0417 15:21:39.020203 20250 net.cpp:408] roi-data -> twin_outside_weights
I0417 15:21:39.020505 20250 net.cpp:150] Setting up roi-data
I0417 15:21:39.020517 20250 net.cpp:157] Top shape: 1 3 (3)
I0417 15:21:39.020521 20250 net.cpp:157] Top shape: 1 1 (1)
I0417 15:21:39.020524 20250 net.cpp:157] Top shape: 1 402 (402)
I0417 15:21:39.020529 20250 net.cpp:157] Top shape: 1 402 (402)
I0417 15:21:39.020532 20250 net.cpp:157] Top shape: 1 402 (402)
I0417 15:21:39.020534 20250 net.cpp:165] Memory required for data: 10172579652
I0417 15:21:39.020539 20250 layer_factory.hpp:77] Creating layer labels_roi-data_1_split
I0417 15:21:39.020543 20250 net.cpp:100] Creating Layer labels_roi-data_1_split
I0417 15:21:39.020547 20250 net.cpp:434] labels_roi-data_1_split <- labels
I0417 15:21:39.020552 20250 net.cpp:408] labels_roi-data_1_split -> labels_roi-data_1_split_0
I0417 15:21:39.020558 20250 net.cpp:408] labels_roi-data_1_split -> labels_roi-data_1_split_1
I0417 15:21:39.020588 20250 net.cpp:150] Setting up labels_roi-data_1_split
I0417 15:21:39.020596 20250 net.cpp:157] Top shape: 1 1 (1)
I0417 15:21:39.020599 20250 net.cpp:157] Top shape: 1 1 (1)
I0417 15:21:39.020602 20250 net.cpp:165] Memory required for data: 10172579660
I0417 15:21:39.020606 20250 layer_factory.hpp:77] Creating layer roi_pool5
I0417 15:21:39.020617 20250 net.cpp:100] Creating Layer roi_pool5
I0417 15:21:39.020622 20250 net.cpp:434] roi_pool5 <- conv5b_relu5b_0_split_1
I0417 15:21:39.020625 20250 net.cpp:434] roi_pool5 <- rois
I0417 15:21:39.020630 20250 net.cpp:408] roi_pool5 -> pool5
I0417 15:21:39.020637 20250 roi_pooling_layer.cpp:34] Temporal scale: 0.125
I0417 15:21:39.020643 20250 roi_pooling_layer.cpp:35] Spatial scale: 0.0625
I0417 15:21:39.020674 20250 net.cpp:150] Setting up roi_pool5
I0417 15:21:39.020681 20250 net.cpp:157] Top shape: 1 512 1 4 4 (8192)
I0417 15:21:39.020684 20250 net.cpp:165] Memory required for data: 10172612428
I0417 15:21:39.020687 20250 layer_factory.hpp:77] Creating layer fc6
I0417 15:21:39.020697 20250 net.cpp:100] Creating Layer fc6
I0417 15:21:39.020704 20250 net.cpp:434] fc6 <- pool5
I0417 15:21:39.020709 20250 net.cpp:408] fc6 -> fc6
I0417 15:21:39.884160 20250 net.cpp:150] Setting up fc6
I0417 15:21:39.884183 20250 net.cpp:157] Top shape: 1 4096 (4096)
I0417 15:21:39.884187 20250 net.cpp:165] Memory required for data: 10172628812
I0417 15:21:39.884196 20250 layer_factory.hpp:77] Creating layer relu6
I0417 15:21:39.884205 20250 net.cpp:100] Creating Layer relu6
I0417 15:21:39.884209 20250 net.cpp:434] relu6 <- fc6
I0417 15:21:39.884217 20250 net.cpp:395] relu6 -> fc6 (in-place)
I0417 15:21:39.884649 20250 net.cpp:150] Setting up relu6
I0417 15:21:39.884660 20250 net.cpp:157] Top shape: 1 4096 (4096)
I0417 15:21:39.884665 20250 net.cpp:165] Memory required for data: 10172645196
I0417 15:21:39.884670 20250 layer_factory.hpp:77] Creating layer drop6
I0417 15:21:39.884680 20250 net.cpp:100] Creating Layer drop6
I0417 15:21:39.884683 20250 net.cpp:434] drop6 <- fc6
I0417 15:21:39.884690 20250 net.cpp:395] drop6 -> fc6 (in-place)
I0417 15:21:39.884716 20250 net.cpp:150] Setting up drop6
I0417 15:21:39.884726 20250 net.cpp:157] Top shape: 1 4096 (4096)
I0417 15:21:39.884728 20250 net.cpp:165] Memory required for data: 10172661580
I0417 15:21:39.884743 20250 layer_factory.hpp:77] Creating layer fc6_drop6_0_split
I0417 15:21:39.884749 20250 net.cpp:100] Creating Layer fc6_drop6_0_split
I0417 15:21:39.884752 20250 net.cpp:434] fc6_drop6_0_split <- fc6
I0417 15:21:39.884757 20250 net.cpp:408] fc6_drop6_0_split -> fc6_drop6_0_split_0
I0417 15:21:39.884763 20250 net.cpp:408] fc6_drop6_0_split -> fc6_drop6_0_split_1
I0417 15:21:39.884794 20250 net.cpp:150] Setting up fc6_drop6_0_split
I0417 15:21:39.884801 20250 net.cpp:157] Top shape: 1 4096 (4096)
I0417 15:21:39.884805 20250 net.cpp:157] Top shape: 1 4096 (4096)
I0417 15:21:39.884809 20250 net.cpp:165] Memory required for data: 10172694348
I0417 15:21:39.884814 20250 layer_factory.hpp:77] Creating layer cls_score
I0417 15:21:39.884822 20250 net.cpp:100] Creating Layer cls_score
I0417 15:21:39.884825 20250 net.cpp:434] cls_score <- fc6_drop6_0_split_0
I0417 15:21:39.884830 20250 net.cpp:408] cls_score -> cls_score
I0417 15:21:39.906203 20250 net.cpp:150] Setting up cls_score
I0417 15:21:39.906215 20250 net.cpp:157] Top shape: 1 201 (201)
I0417 15:21:39.906219 20250 net.cpp:165] Memory required for data: 10172695152
I0417 15:21:39.906240 20250 layer_factory.hpp:77] Creating layer cls_score_cls_score_0_split
I0417 15:21:39.906250 20250 net.cpp:100] Creating Layer cls_score_cls_score_0_split
I0417 15:21:39.906253 20250 net.cpp:434] cls_score_cls_score_0_split <- cls_score
I0417 15:21:39.906260 20250 net.cpp:408] cls_score_cls_score_0_split -> cls_score_cls_score_0_split_0
I0417 15:21:39.906267 20250 net.cpp:408] cls_score_cls_score_0_split -> cls_score_cls_score_0_split_1
I0417 15:21:39.906304 20250 net.cpp:150] Setting up cls_score_cls_score_0_split
I0417 15:21:39.906312 20250 net.cpp:157] Top shape: 1 201 (201)
I0417 15:21:39.906316 20250 net.cpp:157] Top shape: 1 201 (201)
I0417 15:21:39.906321 20250 net.cpp:165] Memory required for data: 10172696760
I0417 15:21:39.906324 20250 layer_factory.hpp:77] Creating layer twin_pred
I0417 15:21:39.906330 20250 net.cpp:100] Creating Layer twin_pred
I0417 15:21:39.906334 20250 net.cpp:434] twin_pred <- fc6_drop6_0_split_1
I0417 15:21:39.906342 20250 net.cpp:408] twin_pred -> twin_pred
I0417 15:21:39.949012 20250 net.cpp:150] Setting up twin_pred
I0417 15:21:39.949033 20250 net.cpp:157] Top shape: 1 402 (402)
I0417 15:21:39.949038 20250 net.cpp:165] Memory required for data: 10172698368
I0417 15:21:39.949046 20250 layer_factory.hpp:77] Creating layer loss_cls
I0417 15:21:39.949059 20250 net.cpp:100] Creating Layer loss_cls
I0417 15:21:39.949064 20250 net.cpp:434] loss_cls <- cls_score_cls_score_0_split_0
I0417 15:21:39.949070 20250 net.cpp:434] loss_cls <- labels_roi-data_1_split_0
I0417 15:21:39.949077 20250 net.cpp:408] loss_cls -> loss_cls
…
