…
stepsize: 350000
snapshot: 0
snapshot_prefix: "./experiments/activitynet/snapshot/activitynet"
average_loss: 100
iter_size: 1
I0418 04:54:12.498713 31194 solver.cpp:81] Creating training net from train_net file: ./experiments/activitynet/train.prototxt
I0418 04:54:12.499786 31194 net.cpp:58] Initializing net from parameters: 
name: "activitynet"
state {
  phase: TRAIN
}
layer {
  name: "data"
  type: "Python"
  top: "data"
  top: "gt_boxes"
  python_param {
    module: "roi_data_layer.layer"
    layer: "RoIDataLayer"
    param_str: "\'num_classes\': 100"
  }
}
layer {
  name: "conv1a"
  type: "Convolution"
  bottom: "data"
  top: "conv1a"
  param {
    lr_mult: 0
    decay_mult: 0
  }
  param {
    lr_mult: 0
    decay_mult: 0
  }
  convolution_param {
    num_output: 64
    pad: 1
    pad: 1
    pad: 1
    kernel_size: 3
    kernel_size: 3
    kernel_size: 3
    weight_filler {
      type: "gaussian"
      std: 0.01
    }
    bias_filler {
      type: "constant"
      value: 0
    }
  }
}
layer {
  name: "relu1a"
  type: "ReLU"
  bottom: "conv1a"
  top: "conv1a"
}
layer {
  name: "pool1"
  type: "Pooling"
  bottom: "conv1a"
  top: "pool1"
  pooling_param {
    pool: MAX
    kernel_size: 1
    kernel_size: 2
    kernel_size: 2
    stride: 1
    stride: 2
    stride: 2
  }
}
layer {
  name: "conv2a"
  type: "Convolution"
  bottom: "pool1"
  top: "conv2a"
  param {
    lr_mult: 0
    decay_mult: 0
  }
  param {
    lr_mult: 0
    decay_mult: 0
  }
  convolution_param {
    num_output: 128
    pad: 1
    pad: 1
    pad: 1
    kernel_size: 3
    kernel_size: 3
    kernel_size: 3
    weight_filler {
      type: "gaussian"
      std: 0.01
    }
    bias_filler {
      type: "constant"
      value: 1
    }
  }
}
layer {
  name: "relu2a"
  type: "ReLU"
  bottom: "conv2a"
  top: "conv2a"
}
layer {
  name: "pool2"
  type: "Pooling"
  bottom: "conv2a"
  top: "pool2"
  pooling_param {
    pool: MAX
    kernel_size: 2
    kernel_size: 2
    kernel_size: 2
    stride: 2
    stride: 2
    stride: 2
  }
}
layer {
  name: "conv3a"
  type: "Convolution"
  bottom: "pool2"
  top: "conv3a"
  param {
    lr_mult: 1
    decay_mult: 1
  }
  param {
    lr_mult: 2
    decay_mult: 0
  }
  convolution_param {
    num_output: 256
    pad: 1
    pad: 1
    pad: 1
    kernel_size: 3
    kernel_size: 3
    kernel_size: 3
    weight_filler {
      type: "gaussian"
      std: 0.01
    }
    bias_filler {
      type: "constant"
      value: 1
    }
  }
}
layer {
  name: "relu3a"
  type: "ReLU"
  bottom: "conv3a"
  top: "conv3a"
}
layer {
  name: "conv3b"
  type: "Convolution"
  bottom: "conv3a"
  top: "conv3b"
  param {
    lr_mult: 1
    decay_mult: 1
  }
  param {
    lr_mult: 2
    decay_mult: 0
  }
  convolution_param {
    num_output: 256
    pad: 1
    pad: 1
    pad: 1
    kernel_size: 3
    kernel_size: 3
    kernel_size: 3
    weight_filler {
      type: "gaussian"
      std: 0.01
    }
    bias_filler {
      type: "constant"
      value: 1
    }
  }
}
layer {
  name: "relu3b"
  type: "ReLU"
  bottom: "conv3b"
  top: "conv3b"
}
layer {
  name: "pool3"
  type: "Pooling"
  bottom: "conv3b"
  top: "pool3"
  pooling_param {
    pool: MAX
    kernel_size: 2
    kernel_size: 2
    kernel_size: 2
    stride: 2
    stride: 2
    stride: 2
  }
}
layer {
  name: "conv4a"
  type: "Convolution"
  bottom: "pool3"
  top: "conv4a"
  param {
    lr_mult: 1
    decay_mult: 1
  }
  param {
    lr_mult: 2
    decay_mult: 0
  }
  convolution_param {
    num_output: 512
    pad: 1
    pad: 1
    pad: 1
    kernel_size: 3
    kernel_size: 3
    kernel_size: 3
    weight_filler {
      type: "gaussian"
      std: 0.01
    }
    bias_filler {
      type: "constant"
      value: 1
    }
  }
}
layer {
  name: "relu4a"
  type: "ReLU"
  bottom: "conv4a"
  top: "conv4a"
}
layer {
  name: "conv4b"
  type: "Convolution"
  bottom: "conv4a"
  top: "conv4b"
  param {
    lr_mult: 1
    decay_mult: 1
  }
  param {
    lr_mult: 2
    decay_mult: 0
  }
  convolution_param {
    num_output: 512
    pad: 1
    pad: 1
    pad: 1
    kernel_size: 3
    kernel_size: 3
    kernel_size: 3
    weight_filler {
      type: "gaussian"
      std: 0.01
    }
    bias_filler {
      type: "constant"
      value: 1
    }
  }
}
layer {
  name: "relu4b"
  type: "ReLU"
  bottom: "conv4b"
  top: "conv4b"
}
layer {
  name: "pool4"
  type: "Pooling"
  bottom: "conv4b"
  top: "pool4"
  pooling_param {
    pool: MAX
    kernel_size: 2
    kernel_size: 2
    kernel_size: 2
    stride: 2
    stride: 2
    stride: 2
  }
}
layer {
  name: "conv5a"
  type: "Convolution"
  bottom: "pool4"
  top: "conv5a"
  param {
    lr_mult: 1
    decay_mult: 1
  }
  param {
    lr_mult: 2
    decay_mult: 0
  }
  convolution_param {
    num_output: 512
    pad: 1
    pad: 1
    pad: 1
    kernel_size: 3
    kernel_size: 3
    kernel_size: 3
    weight_filler {
      type: "gaussian"
      std: 0.01
    }
    bias_filler {
      type: "constant"
      value: 1
    }
  }
}
layer {
  name: "relu5a"
  type: "ReLU"
  bottom: "conv5a"
  top: "conv5a"
}
layer {
  name: "conv5b"
  type: "Convolution"
  bottom: "conv5a"
  top: "conv5b"
  param {
    lr_mult: 1
    decay_mult: 1
  }
  param {
    lr_mult: 2
    decay_mult: 0
  }
  convolution_param {
    num_output: 512
    pad: 1
    pad: 1
    pad: 1
    kernel_size: 3
    kernel_size: 3
    kernel_size: 3
    weight_filler {
      type: "gaussian"
      std: 0.01
    }
    bias_filler {
      type: "constant"
      value: 1
    }
  }
}
layer {
  name: "relu5b"
  type: "ReLU"
  bottom: "conv5b"
  top: "conv5b"
}
layer {
  name: "rpn_conv/3x3"
  type: "Convolution"
  bottom: "conv5b"
  top: "rpn/output"
  param {
    lr_mult: 1
    decay_mult: 1
  }
  param {
    lr_mult: 2
    decay_mult: 0
  }
  convolution_param {
    num_output: 512
    pad: 1
    pad: 1
    pad: 1
    kernel_size: 3
    kernel_size: 3
    kernel_size: 3
    stride: 1
    stride: 2
    stride: 2
    weight_filler {
      type: "gaussian"
      std: 0.01
    }
    bias_filler {
      type: "constant"
      value: 0
    }
  }
}
layer {
  name: "rpn_relu/3x3"
  type: "ReLU"
  bottom: "rpn/output"
  top: "rpn/output"
}
layer {
  name: "rpn_conv/3x3_2"
  type: "Convolution"
  bottom: "rpn/output"
  top: "rpn/output_2"
  param {
    lr_mult: 1
    decay_mult: 1
  }
  param {
    lr_mult: 2
    decay_mult: 0
  }
  convolution_param {
    num_output: 512
    pad: 1
    pad: 1
    pad: 1
    kernel_size: 3
    kernel_size: 3
    kernel_size: 3
    stride: 1
    stride: 2
    stride: 2
    weight_filler {
      type: "gaussian"
      std: 0.01
    }
    bias_filler {
      type: "constant"
      value: 0
    }
  }
}
layer {
  name: "rpn_relu/3x3_2"
  type: "ReLU"
  bottom: "rpn/output_2"
  top: "rpn/output_2"
}
layer {
  name: "rpn/output_pool"
  type: "Pooling"
  bottom: "rpn/output_2"
  top: "rpn/output_pool"
  pooling_param {
    pool: MAX
    kernel_size: 1
    kernel_size: 2
    kernel_size: 2
  }
}
layer {
  name: "rpn_cls_score"
  type: "Convolution"
  bottom: "rpn/output_pool"
  top: "rpn_cls_score"
  param {
    lr_mult: 1
    decay_mult: 1
  }
  param {
    lr_mult: 2
    decay_mult: 0
  }
  convolution_param {
    num_output: 74
    kernel_size: 1
    kernel_size: 1
    kernel_size: 1
    weight_filler {
      type: "gaussian"
      std: 0.01
    }
    bias_filler {
      type: "constant"
      value: 0
    }
  }
}
layer {
  name: "rpn_twin_pred"
  type: "Convolution"
  bottom: "rpn/output_pool"
  top: "rpn_twin_pred"
  param {
    lr_mult: 1
    decay_mult: 1
  }
  param {
    lr_mult: 2
    decay_mult: 0
  }
  convolution_param {
    num_output: 74
    kernel_size: 1
    kernel_size: 1
    kernel_size: 1
    weight_filler {
      type: "gaussian"
      std: 0.01
    }
    bias_filler {
      type: "constant"
      value: 0
    }
  }
}
layer {
  name: "rpn_cls_score_reshape"
  type: "Reshape"
  bottom: "rpn_cls_score"
  top: "rpn_cls_score_reshape"
  reshape_param {
    shape {
      dim: 0
      dim: 2
      dim: -1
      dim: 0
      dim: 0
    }
  }
}
layer {
  name: "rpn-data"
  type: "Python"
  bottom: "rpn_cls_score"
  bottom: "gt_boxes"
  bottom: "data"
  top: "rpn_labels"
  top: "rpn_twin_targets"
  top: "rpn_twin_inside_weights"
  top: "rpn_twin_outside_weights"
  python_param {
    module: "rpn.anchor_target_layer"
    layer: "AnchorTargetLayer"
    param_str: "\'feat_stride\': 8 \n\'scales\': !!python/tuple [1,1.25, 1.5,1.75, 2,2.5, 3,3.5, 4,4.5, 5,5.5, 6,7, 8,9,10,11,12,14,16,18,20,22,24,28,32,36,40,44,52,60,68,76,84,92,100]"
  }
}
layer {
  name: "rpn_loss_cls"
  type: "SoftmaxWithLoss"
  bottom: "rpn_cls_score_reshape"
  bottom: "rpn_labels"
  top: "rpn_cls_loss"
  loss_weight: 1
  propagate_down: true
  propagate_down: false
  loss_param {
    ignore_label: -1
    normalize: true
  }
}
layer {
  name: "rpn_loss_twin"
  type: "SmoothL1Loss"
  bottom: "rpn_twin_pred"
  bottom: "rpn_twin_targets"
  bottom: "rpn_twin_inside_weights"
  bottom: "rpn_twin_outside_weights"
  top: "rpn_loss_twin"
  loss_weight: 1
  smooth_l1_loss_param {
    sigma: 3
  }
}
layer {
  name: "rpn_accuarcy"
  type: "Accuracy"
  bottom: "rpn_cls_score_reshape"
  bottom: "rpn_labels"
  top: "rpn_accuarcy"
  top: "rpn_accuarcy_class"
  propagate_down: false
  propagate_down: false
  accuracy_param {
    ignore_label: -1
  }
}
layer {
  name: "rpn_cls_prob"
  type: "Softmax"
  bottom: "rpn_cls_score_reshape"
  top: "rpn_cls_prob"
}
layer {
  name: "rpn_cls_prob_reshape"
  type: "Reshape"
  bottom: "rpn_cls_prob"
  top: "rpn_cls_prob_reshape"
  reshape_param {
    shape {
      dim: 0
      dim: 74
      dim: -1
      dim: 0
      dim: 0
    }
  }
}
layer {
  name: "proposal"
  type: "Python"
  bottom: "rpn_cls_prob_reshape"
  bottom: "rpn_twin_pred"
  top: "rpn_rois"
  include {
    phase: TRAIN
  }
  python_param {
    module: "rpn.proposal_layer"
    layer: "ProposalLayer"
    param_str: "\'feat_stride\': 8 \n\'scales\': !!python/tuple [1,1.25, 1.5,1.75, 2,2.5, 3,3.5, 4,4.5, 5,5.5, 6,7, 8,9,10,11,12,14,16,18,20,22,24,28,32,36,40,44,52,60,68,76,84,92,100]"
  }
}
layer {
  name: "roi-data"
  type: "Python"
  bottom: "rpn_rois"
  bottom: "gt_boxes"
  top: "rois"
  top: "labels"
  top: "twin_targets"
  top: "twin_inside_weights"
  top: "twin_outside_weights"
  python_param {
    module: "rpn.proposal_target_layer"
    layer: "ProposalTargetLayer"
    param_str: "\'num_classes\': 99"
  }
}
layer {
  name: "roi_pool5"
  type: "ROIPooling"
  bottom: "conv5b"
  bottom: "rois"
  top: "pool5"
  roi_pooling_param {
    pooled_h: 4
    pooled_w: 4
    spatial_scale: 0.0625
    pooled_l: 1
    temporal_scale: 0.125
  }
}
layer {
  name: "fc6"
  type: "InnerProduct"
  bottom: "pool5"
  top: "fc6"
  param {
    lr_mult: 1
    decay_mult: 1
  }
  param {
    lr_mult: 2
    decay_mult: 0
  }
  inner_product_param {
    num_output: 4096
    weight_filler {
      type: "gaussian"
      std: 0.005
    }
    bias_filler {
      type: "constant"
      value: 1
    }
  }
}
layer {
  name: "relu6"
  type: "ReLU"
  bottom: "fc6"
  top: "fc6"
}
layer {
  name: "drop6"
  type: "Dropout"
  bottom: "fc6"
  top: "fc6"
  dropout_param {
    dropout_ratio: 0.5
  }
}
layer {
  name: "cls_score"
  type: "InnerProduct"
  bottom: "fc6"
  top: "cls_score"
  param {
    lr_mult: 1
    decay_mult: 1
  }
  param {
    lr_mult: 2
    decay_mult: 0
  }
  inner_product_param {
    num_output: 99
    weight_filler {
      type: "gaussian"
      std: 0.01
    }
    bias_filler {
      type: "constant"
      value: 0
    }
  }
}
layer {
  name: "twin_pred"
  type: "InnerProduct"
  bottom: "fc6"
  top: "twin_pred"
  param {
    lr_mult: 1
    decay_mult: 1
  }
  param {
    lr_mult: 2
    decay_mult: 0
  }
  inner_product_param {
    num_output: 198
    weight_filler {
      type: "gaussian"
      std: 0.001
    }
    bias_filler {
      type: "constant"
      value: 0
    }
  }
}
layer {
  name: "loss_cls"
  type: "SigmoidCrossEntropyLoss"
  bottom: "cls_score"
  bottom: "labels"
  top: "loss_cls"
  loss_weight: 1
  propagate_down: true
  propagate_down: false
}
layer {
  name: "loss_twin"
  type: "SmoothL1Loss"
  bottom: "twin_pred"
  bottom: "twin_targets"
  bottom: "twin_inside_weights"
  bottom: "twin_outside_weights"
  top: "loss_twin"
  loss_weight: 1
}
layer {
  name: "accuarcy"
  type: "Accuracy"
  bottom: "cls_score"
  bottom: "labels"
  top: "accuarcy"
  propagate_down: false
  propagate_down: false
  accuracy_param {
    ignore_label: -1
  }
}
I0418 04:54:12.499999 31194 layer_factory.hpp:77] Creating layer data
I0418 04:54:12.524322 31194 net.cpp:100] Creating Layer data
I0418 04:54:12.524346 31194 net.cpp:408] data -> data
I0418 04:54:12.524358 31194 net.cpp:408] data -> gt_boxes
setting up
has rpn
RoiDataLayer: name_to_top: {'gt_windows': 1, 'data': 0}
I0418 04:54:12.537199 31194 net.cpp:150] Setting up data
I0418 04:54:12.537220 31194 net.cpp:157] Top shape: 1 3 768 112 112 (28901376)
I0418 04:54:12.537228 31194 net.cpp:157] Top shape: 1 101 (101)
I0418 04:54:12.537232 31194 net.cpp:165] Memory required for data: 115605908
I0418 04:54:12.537238 31194 layer_factory.hpp:77] Creating layer data_data_0_split
I0418 04:54:12.537250 31194 net.cpp:100] Creating Layer data_data_0_split
I0418 04:54:12.537253 31194 net.cpp:434] data_data_0_split <- data
I0418 04:54:12.537259 31194 net.cpp:408] data_data_0_split -> data_data_0_split_0
I0418 04:54:12.537268 31194 net.cpp:408] data_data_0_split -> data_data_0_split_1
I0418 04:54:12.537299 31194 net.cpp:150] Setting up data_data_0_split
I0418 04:54:12.537307 31194 net.cpp:157] Top shape: 1 3 768 112 112 (28901376)
I0418 04:54:12.537310 31194 net.cpp:157] Top shape: 1 3 768 112 112 (28901376)
I0418 04:54:12.537313 31194 net.cpp:165] Memory required for data: 346816916
I0418 04:54:12.537317 31194 layer_factory.hpp:77] Creating layer gt_boxes_data_1_split
I0418 04:54:12.537323 31194 net.cpp:100] Creating Layer gt_boxes_data_1_split
I0418 04:54:12.537326 31194 net.cpp:434] gt_boxes_data_1_split <- gt_boxes
I0418 04:54:12.537330 31194 net.cpp:408] gt_boxes_data_1_split -> gt_boxes_data_1_split_0
I0418 04:54:12.537336 31194 net.cpp:408] gt_boxes_data_1_split -> gt_boxes_data_1_split_1
I0418 04:54:12.537358 31194 net.cpp:150] Setting up gt_boxes_data_1_split
I0418 04:54:12.537365 31194 net.cpp:157] Top shape: 1 101 (101)
I0418 04:54:12.537369 31194 net.cpp:157] Top shape: 1 101 (101)
I0418 04:54:12.537372 31194 net.cpp:165] Memory required for data: 346817724
I0418 04:54:12.537375 31194 layer_factory.hpp:77] Creating layer conv1a
I0418 04:54:12.537389 31194 net.cpp:100] Creating Layer conv1a
I0418 04:54:12.537395 31194 net.cpp:434] conv1a <- data_data_0_split_0
I0418 04:54:12.537405 31194 net.cpp:408] conv1a -> conv1a
I0418 04:54:13.463101 31194 net.cpp:150] Setting up conv1a
I0418 04:54:13.463132 31194 net.cpp:157] Top shape: 1 64 768 112 112 (616562688)
I0418 04:54:13.463137 31194 net.cpp:165] Memory required for data: 2813068476
I0418 04:54:13.463155 31194 layer_factory.hpp:77] Creating layer relu1a
I0418 04:54:13.463176 31194 net.cpp:100] Creating Layer relu1a
I0418 04:54:13.463183 31194 net.cpp:434] relu1a <- conv1a
I0418 04:54:13.463189 31194 net.cpp:395] relu1a -> conv1a (in-place)
I0418 04:54:13.463903 31194 net.cpp:150] Setting up relu1a
I0418 04:54:13.463917 31194 net.cpp:157] Top shape: 1 64 768 112 112 (616562688)
I0418 04:54:13.463922 31194 net.cpp:165] Memory required for data: 5279319228
I0418 04:54:13.463925 31194 layer_factory.hpp:77] Creating layer pool1
I0418 04:54:13.463934 31194 net.cpp:100] Creating Layer pool1
I0418 04:54:13.463938 31194 net.cpp:434] pool1 <- conv1a
I0418 04:54:13.463944 31194 net.cpp:408] pool1 -> pool1
I0418 04:54:13.464117 31194 net.cpp:150] Setting up pool1
I0418 04:54:13.464128 31194 net.cpp:157] Top shape: 1 64 768 56 56 (154140672)
I0418 04:54:13.464130 31194 net.cpp:165] Memory required for data: 5895881916
I0418 04:54:13.464134 31194 layer_factory.hpp:77] Creating layer conv2a
I0418 04:54:13.464144 31194 net.cpp:100] Creating Layer conv2a
I0418 04:54:13.464151 31194 net.cpp:434] conv2a <- pool1
I0418 04:54:13.464156 31194 net.cpp:408] conv2a -> conv2a
I0418 04:54:13.478194 31194 net.cpp:150] Setting up conv2a
I0418 04:54:13.478222 31194 net.cpp:157] Top shape: 1 128 768 56 56 (308281344)
I0418 04:54:13.478226 31194 net.cpp:165] Memory required for data: 7129007292
I0418 04:54:13.478238 31194 layer_factory.hpp:77] Creating layer relu2a
I0418 04:54:13.478250 31194 net.cpp:100] Creating Layer relu2a
I0418 04:54:13.478253 31194 net.cpp:434] relu2a <- conv2a
I0418 04:54:13.478258 31194 net.cpp:395] relu2a -> conv2a (in-place)
I0418 04:54:13.478559 31194 net.cpp:150] Setting up relu2a
I0418 04:54:13.478572 31194 net.cpp:157] Top shape: 1 128 768 56 56 (308281344)
I0418 04:54:13.478576 31194 net.cpp:165] Memory required for data: 8362132668
I0418 04:54:13.478580 31194 layer_factory.hpp:77] Creating layer pool2
I0418 04:54:13.478590 31194 net.cpp:100] Creating Layer pool2
I0418 04:54:13.478597 31194 net.cpp:434] pool2 <- conv2a
I0418 04:54:13.478603 31194 net.cpp:408] pool2 -> pool2
I0418 04:54:13.478785 31194 net.cpp:150] Setting up pool2
I0418 04:54:13.478796 31194 net.cpp:157] Top shape: 1 128 384 28 28 (38535168)
I0418 04:54:13.478798 31194 net.cpp:165] Memory required for data: 8516273340
I0418 04:54:13.478802 31194 layer_factory.hpp:77] Creating layer conv3a
I0418 04:54:13.478812 31194 net.cpp:100] Creating Layer conv3a
I0418 04:54:13.478819 31194 net.cpp:434] conv3a <- pool2
I0418 04:54:13.478826 31194 net.cpp:408] conv3a -> conv3a
I0418 04:54:13.505915 31194 net.cpp:150] Setting up conv3a
I0418 04:54:13.505942 31194 net.cpp:157] Top shape: 1 256 384 28 28 (77070336)
I0418 04:54:13.505946 31194 net.cpp:165] Memory required for data: 8824554684
I0418 04:54:13.505955 31194 layer_factory.hpp:77] Creating layer relu3a
I0418 04:54:13.505961 31194 net.cpp:100] Creating Layer relu3a
I0418 04:54:13.505965 31194 net.cpp:434] relu3a <- conv3a
I0418 04:54:13.505970 31194 net.cpp:395] relu3a -> conv3a (in-place)
I0418 04:54:13.506245 31194 net.cpp:150] Setting up relu3a
I0418 04:54:13.506258 31194 net.cpp:157] Top shape: 1 256 384 28 28 (77070336)
I0418 04:54:13.506263 31194 net.cpp:165] Memory required for data: 9132836028
I0418 04:54:13.506265 31194 layer_factory.hpp:77] Creating layer conv3b
I0418 04:54:13.506275 31194 net.cpp:100] Creating Layer conv3b
I0418 04:54:13.506281 31194 net.cpp:434] conv3b <- conv3a
I0418 04:54:13.506287 31194 net.cpp:408] conv3b -> conv3b
I0418 04:54:13.553902 31194 net.cpp:150] Setting up conv3b
I0418 04:54:13.553936 31194 net.cpp:157] Top shape: 1 256 384 28 28 (77070336)
I0418 04:54:13.553939 31194 net.cpp:165] Memory required for data: 9441117372
I0418 04:54:13.553947 31194 layer_factory.hpp:77] Creating layer relu3b
I0418 04:54:13.553956 31194 net.cpp:100] Creating Layer relu3b
I0418 04:54:13.553961 31194 net.cpp:434] relu3b <- conv3b
I0418 04:54:13.553978 31194 net.cpp:395] relu3b -> conv3b (in-place)
I0418 04:54:13.554275 31194 net.cpp:150] Setting up relu3b
I0418 04:54:13.554286 31194 net.cpp:157] Top shape: 1 256 384 28 28 (77070336)
I0418 04:54:13.554292 31194 net.cpp:165] Memory required for data: 9749398716
I0418 04:54:13.554296 31194 layer_factory.hpp:77] Creating layer pool3
I0418 04:54:13.554303 31194 net.cpp:100] Creating Layer pool3
I0418 04:54:13.554307 31194 net.cpp:434] pool3 <- conv3b
I0418 04:54:13.554312 31194 net.cpp:408] pool3 -> pool3
I0418 04:54:13.554476 31194 net.cpp:150] Setting up pool3
I0418 04:54:13.554487 31194 net.cpp:157] Top shape: 1 256 192 14 14 (9633792)
I0418 04:54:13.554491 31194 net.cpp:165] Memory required for data: 9787933884
I0418 04:54:13.554494 31194 layer_factory.hpp:77] Creating layer conv4a
I0418 04:54:13.554504 31194 net.cpp:100] Creating Layer conv4a
I0418 04:54:13.554510 31194 net.cpp:434] conv4a <- pool3
I0418 04:54:13.554517 31194 net.cpp:408] conv4a -> conv4a
I0418 04:54:13.649304 31194 net.cpp:150] Setting up conv4a
I0418 04:54:13.649327 31194 net.cpp:157] Top shape: 1 512 192 14 14 (19267584)
I0418 04:54:13.649332 31194 net.cpp:165] Memory required for data: 9865004220
I0418 04:54:13.649344 31194 layer_factory.hpp:77] Creating layer relu4a
I0418 04:54:13.649353 31194 net.cpp:100] Creating Layer relu4a
I0418 04:54:13.649358 31194 net.cpp:434] relu4a <- conv4a
I0418 04:54:13.649363 31194 net.cpp:395] relu4a -> conv4a (in-place)
I0418 04:54:13.649663 31194 net.cpp:150] Setting up relu4a
I0418 04:54:13.649677 31194 net.cpp:157] Top shape: 1 512 192 14 14 (19267584)
I0418 04:54:13.649679 31194 net.cpp:165] Memory required for data: 9942074556
I0418 04:54:13.649683 31194 layer_factory.hpp:77] Creating layer conv4b
I0418 04:54:13.649696 31194 net.cpp:100] Creating Layer conv4b
I0418 04:54:13.649703 31194 net.cpp:434] conv4b <- conv4a
I0418 04:54:13.649711 31194 net.cpp:408] conv4b -> conv4b
I0418 04:54:13.837054 31194 net.cpp:150] Setting up conv4b
I0418 04:54:13.837076 31194 net.cpp:157] Top shape: 1 512 192 14 14 (19267584)
I0418 04:54:13.837080 31194 net.cpp:165] Memory required for data: 10019144892
I0418 04:54:13.837090 31194 layer_factory.hpp:77] Creating layer relu4b
I0418 04:54:13.837100 31194 net.cpp:100] Creating Layer relu4b
I0418 04:54:13.837105 31194 net.cpp:434] relu4b <- conv4b
I0418 04:54:13.837110 31194 net.cpp:395] relu4b -> conv4b (in-place)
I0418 04:54:13.837265 31194 net.cpp:150] Setting up relu4b
I0418 04:54:13.837276 31194 net.cpp:157] Top shape: 1 512 192 14 14 (19267584)
I0418 04:54:13.837280 31194 net.cpp:165] Memory required for data: 10096215228
I0418 04:54:13.837283 31194 layer_factory.hpp:77] Creating layer pool4
I0418 04:54:13.837291 31194 net.cpp:100] Creating Layer pool4
I0418 04:54:13.837293 31194 net.cpp:434] pool4 <- conv4b
I0418 04:54:13.837299 31194 net.cpp:408] pool4 -> pool4
I0418 04:54:13.837622 31194 net.cpp:150] Setting up pool4
I0418 04:54:13.837635 31194 net.cpp:157] Top shape: 1 512 96 7 7 (2408448)
I0418 04:54:13.837640 31194 net.cpp:165] Memory required for data: 10105849020
I0418 04:54:13.837642 31194 layer_factory.hpp:77] Creating layer conv5a
I0418 04:54:13.837654 31194 net.cpp:100] Creating Layer conv5a
I0418 04:54:13.837661 31194 net.cpp:434] conv5a <- pool4
I0418 04:54:13.837666 31194 net.cpp:408] conv5a -> conv5a
I0418 04:54:14.027526 31194 net.cpp:150] Setting up conv5a
I0418 04:54:14.027550 31194 net.cpp:157] Top shape: 1 512 96 7 7 (2408448)
I0418 04:54:14.027554 31194 net.cpp:165] Memory required for data: 10115482812
I0418 04:54:14.027564 31194 layer_factory.hpp:77] Creating layer relu5a
I0418 04:54:14.027572 31194 net.cpp:100] Creating Layer relu5a
I0418 04:54:14.027576 31194 net.cpp:434] relu5a <- conv5a
I0418 04:54:14.027583 31194 net.cpp:395] relu5a -> conv5a (in-place)
I0418 04:54:14.028100 31194 net.cpp:150] Setting up relu5a
I0418 04:54:14.028112 31194 net.cpp:157] Top shape: 1 512 96 7 7 (2408448)
I0418 04:54:14.028116 31194 net.cpp:165] Memory required for data: 10125116604
I0418 04:54:14.028120 31194 layer_factory.hpp:77] Creating layer conv5b
I0418 04:54:14.028131 31194 net.cpp:100] Creating Layer conv5b
I0418 04:54:14.028136 31194 net.cpp:434] conv5b <- conv5a
I0418 04:54:14.028142 31194 net.cpp:408] conv5b -> conv5b
I0418 04:54:14.215816 31194 net.cpp:150] Setting up conv5b
I0418 04:54:14.215840 31194 net.cpp:157] Top shape: 1 512 96 7 7 (2408448)
I0418 04:54:14.215844 31194 net.cpp:165] Memory required for data: 10134750396
I0418 04:54:14.215854 31194 layer_factory.hpp:77] Creating layer relu5b
I0418 04:54:14.215864 31194 net.cpp:100] Creating Layer relu5b
I0418 04:54:14.215868 31194 net.cpp:434] relu5b <- conv5b
I0418 04:54:14.215874 31194 net.cpp:395] relu5b -> conv5b (in-place)
I0418 04:54:14.216034 31194 net.cpp:150] Setting up relu5b
I0418 04:54:14.216047 31194 net.cpp:157] Top shape: 1 512 96 7 7 (2408448)
I0418 04:54:14.216049 31194 net.cpp:165] Memory required for data: 10144384188
I0418 04:54:14.216054 31194 layer_factory.hpp:77] Creating layer conv5b_relu5b_0_split
I0418 04:54:14.216059 31194 net.cpp:100] Creating Layer conv5b_relu5b_0_split
I0418 04:54:14.216063 31194 net.cpp:434] conv5b_relu5b_0_split <- conv5b
I0418 04:54:14.216068 31194 net.cpp:408] conv5b_relu5b_0_split -> conv5b_relu5b_0_split_0
I0418 04:54:14.216073 31194 net.cpp:408] conv5b_relu5b_0_split -> conv5b_relu5b_0_split_1
I0418 04:54:14.216137 31194 net.cpp:150] Setting up conv5b_relu5b_0_split
I0418 04:54:14.216148 31194 net.cpp:157] Top shape: 1 512 96 7 7 (2408448)
I0418 04:54:14.216153 31194 net.cpp:157] Top shape: 1 512 96 7 7 (2408448)
I0418 04:54:14.216156 31194 net.cpp:165] Memory required for data: 10163651772
I0418 04:54:14.216159 31194 layer_factory.hpp:77] Creating layer rpn_conv/3x3
I0418 04:54:14.216172 31194 net.cpp:100] Creating Layer rpn_conv/3x3
I0418 04:54:14.216178 31194 net.cpp:434] rpn_conv/3x3 <- conv5b_relu5b_0_split_0
I0418 04:54:14.216184 31194 net.cpp:408] rpn_conv/3x3 -> rpn/output
I0418 04:54:14.404160 31194 net.cpp:150] Setting up rpn_conv/3x3
I0418 04:54:14.404194 31194 net.cpp:157] Top shape: 1 512 96 4 4 (786432)
I0418 04:54:14.404201 31194 net.cpp:165] Memory required for data: 10166797500
I0418 04:54:14.404214 31194 layer_factory.hpp:77] Creating layer rpn_relu/3x3
I0418 04:54:14.404223 31194 net.cpp:100] Creating Layer rpn_relu/3x3
I0418 04:54:14.404228 31194 net.cpp:434] rpn_relu/3x3 <- rpn/output
I0418 04:54:14.404233 31194 net.cpp:395] rpn_relu/3x3 -> rpn/output (in-place)
I0418 04:54:14.404531 31194 net.cpp:150] Setting up rpn_relu/3x3
I0418 04:54:14.404543 31194 net.cpp:157] Top shape: 1 512 96 4 4 (786432)
I0418 04:54:14.404547 31194 net.cpp:165] Memory required for data: 10169943228
I0418 04:54:14.404551 31194 layer_factory.hpp:77] Creating layer rpn_conv/3x3_2
I0418 04:54:14.404566 31194 net.cpp:100] Creating Layer rpn_conv/3x3_2
I0418 04:54:14.404569 31194 net.cpp:434] rpn_conv/3x3_2 <- rpn/output
I0418 04:54:14.404575 31194 net.cpp:408] rpn_conv/3x3_2 -> rpn/output_2
I0418 04:54:14.590458 31194 net.cpp:150] Setting up rpn_conv/3x3_2
I0418 04:54:14.590487 31194 net.cpp:157] Top shape: 1 512 96 2 2 (196608)
I0418 04:54:14.590490 31194 net.cpp:165] Memory required for data: 10170729660
I0418 04:54:14.590499 31194 layer_factory.hpp:77] Creating layer rpn_relu/3x3_2
I0418 04:54:14.590508 31194 net.cpp:100] Creating Layer rpn_relu/3x3_2
I0418 04:54:14.590512 31194 net.cpp:434] rpn_relu/3x3_2 <- rpn/output_2
I0418 04:54:14.590521 31194 net.cpp:395] rpn_relu/3x3_2 -> rpn/output_2 (in-place)
I0418 04:54:14.590854 31194 net.cpp:150] Setting up rpn_relu/3x3_2
I0418 04:54:14.590867 31194 net.cpp:157] Top shape: 1 512 96 2 2 (196608)
I0418 04:54:14.590872 31194 net.cpp:165] Memory required for data: 10171516092
I0418 04:54:14.590875 31194 layer_factory.hpp:77] Creating layer rpn/output_pool
I0418 04:54:14.590883 31194 net.cpp:100] Creating Layer rpn/output_pool
I0418 04:54:14.590886 31194 net.cpp:434] rpn/output_pool <- rpn/output_2
I0418 04:54:14.590893 31194 net.cpp:408] rpn/output_pool -> rpn/output_pool
I0418 04:54:14.591075 31194 net.cpp:150] Setting up rpn/output_pool
I0418 04:54:14.591086 31194 net.cpp:157] Top shape: 1 512 96 1 1 (49152)
I0418 04:54:14.591089 31194 net.cpp:165] Memory required for data: 10171712700
I0418 04:54:14.591094 31194 layer_factory.hpp:77] Creating layer rpn/output_pool_rpn/output_pool_0_split
I0418 04:54:14.591099 31194 net.cpp:100] Creating Layer rpn/output_pool_rpn/output_pool_0_split
I0418 04:54:14.591104 31194 net.cpp:434] rpn/output_pool_rpn/output_pool_0_split <- rpn/output_pool
I0418 04:54:14.591109 31194 net.cpp:408] rpn/output_pool_rpn/output_pool_0_split -> rpn/output_pool_rpn/output_pool_0_split_0
I0418 04:54:14.591114 31194 net.cpp:408] rpn/output_pool_rpn/output_pool_0_split -> rpn/output_pool_rpn/output_pool_0_split_1
I0418 04:54:14.591147 31194 net.cpp:150] Setting up rpn/output_pool_rpn/output_pool_0_split
I0418 04:54:14.591156 31194 net.cpp:157] Top shape: 1 512 96 1 1 (49152)
I0418 04:54:14.591159 31194 net.cpp:157] Top shape: 1 512 96 1 1 (49152)
I0418 04:54:14.591163 31194 net.cpp:165] Memory required for data: 10172105916
I0418 04:54:14.591166 31194 layer_factory.hpp:77] Creating layer rpn_cls_score
I0418 04:54:14.591176 31194 net.cpp:100] Creating Layer rpn_cls_score
I0418 04:54:14.591183 31194 net.cpp:434] rpn_cls_score <- rpn/output_pool_rpn/output_pool_0_split_0
I0418 04:54:14.591189 31194 net.cpp:408] rpn_cls_score -> rpn_cls_score
I0418 04:54:14.593216 31194 net.cpp:150] Setting up rpn_cls_score
I0418 04:54:14.593241 31194 net.cpp:157] Top shape: 1 74 96 1 1 (7104)
I0418 04:54:14.593245 31194 net.cpp:165] Memory required for data: 10172134332
I0418 04:54:14.593252 31194 layer_factory.hpp:77] Creating layer rpn_cls_score_rpn_cls_score_0_split
I0418 04:54:14.593257 31194 net.cpp:100] Creating Layer rpn_cls_score_rpn_cls_score_0_split
I0418 04:54:14.593261 31194 net.cpp:434] rpn_cls_score_rpn_cls_score_0_split <- rpn_cls_score
I0418 04:54:14.593268 31194 net.cpp:408] rpn_cls_score_rpn_cls_score_0_split -> rpn_cls_score_rpn_cls_score_0_split_0
I0418 04:54:14.593274 31194 net.cpp:408] rpn_cls_score_rpn_cls_score_0_split -> rpn_cls_score_rpn_cls_score_0_split_1
I0418 04:54:14.593314 31194 net.cpp:150] Setting up rpn_cls_score_rpn_cls_score_0_split
I0418 04:54:14.593323 31194 net.cpp:157] Top shape: 1 74 96 1 1 (7104)
I0418 04:54:14.593327 31194 net.cpp:157] Top shape: 1 74 96 1 1 (7104)
I0418 04:54:14.593331 31194 net.cpp:165] Memory required for data: 10172191164
I0418 04:54:14.593334 31194 layer_factory.hpp:77] Creating layer rpn_twin_pred
I0418 04:54:14.593346 31194 net.cpp:100] Creating Layer rpn_twin_pred
I0418 04:54:14.593353 31194 net.cpp:434] rpn_twin_pred <- rpn/output_pool_rpn/output_pool_0_split_1
I0418 04:54:14.593360 31194 net.cpp:408] rpn_twin_pred -> rpn_twin_pred
I0418 04:54:14.595243 31194 net.cpp:150] Setting up rpn_twin_pred
I0418 04:54:14.595257 31194 net.cpp:157] Top shape: 1 74 96 1 1 (7104)
I0418 04:54:14.595260 31194 net.cpp:165] Memory required for data: 10172219580
I0418 04:54:14.595266 31194 layer_factory.hpp:77] Creating layer rpn_twin_pred_rpn_twin_pred_0_split
I0418 04:54:14.595271 31194 net.cpp:100] Creating Layer rpn_twin_pred_rpn_twin_pred_0_split
I0418 04:54:14.595276 31194 net.cpp:434] rpn_twin_pred_rpn_twin_pred_0_split <- rpn_twin_pred
I0418 04:54:14.595283 31194 net.cpp:408] rpn_twin_pred_rpn_twin_pred_0_split -> rpn_twin_pred_rpn_twin_pred_0_split_0
I0418 04:54:14.595288 31194 net.cpp:408] rpn_twin_pred_rpn_twin_pred_0_split -> rpn_twin_pred_rpn_twin_pred_0_split_1
I0418 04:54:14.595333 31194 net.cpp:150] Setting up rpn_twin_pred_rpn_twin_pred_0_split
I0418 04:54:14.595341 31194 net.cpp:157] Top shape: 1 74 96 1 1 (7104)
I0418 04:54:14.595346 31194 net.cpp:157] Top shape: 1 74 96 1 1 (7104)
I0418 04:54:14.595350 31194 net.cpp:165] Memory required for data: 10172276412
I0418 04:54:14.595353 31194 layer_factory.hpp:77] Creating layer rpn_cls_score_reshape
I0418 04:54:14.595362 31194 net.cpp:100] Creating Layer rpn_cls_score_reshape
I0418 04:54:14.595368 31194 net.cpp:434] rpn_cls_score_reshape <- rpn_cls_score_rpn_cls_score_0_split_0
I0418 04:54:14.595373 31194 net.cpp:408] rpn_cls_score_reshape -> rpn_cls_score_reshape
I0418 04:54:14.595402 31194 net.cpp:150] Setting up rpn_cls_score_reshape
I0418 04:54:14.595407 31194 net.cpp:157] Top shape: 1 2 3552 1 1 (7104)
I0418 04:54:14.595409 31194 net.cpp:165] Memory required for data: 10172304828
I0418 04:54:14.595412 31194 layer_factory.hpp:77] Creating layer rpn_cls_score_reshape_rpn_cls_score_reshape_0_split
I0418 04:54:14.595417 31194 net.cpp:100] Creating Layer rpn_cls_score_reshape_rpn_cls_score_reshape_0_split
I0418 04:54:14.595422 31194 net.cpp:434] rpn_cls_score_reshape_rpn_cls_score_reshape_0_split <- rpn_cls_score_reshape
I0418 04:54:14.595427 31194 net.cpp:408] rpn_cls_score_reshape_rpn_cls_score_reshape_0_split -> rpn_cls_score_reshape_rpn_cls_score_reshape_0_split_0
I0418 04:54:14.595434 31194 net.cpp:408] rpn_cls_score_reshape_rpn_cls_score_reshape_0_split -> rpn_cls_score_reshape_rpn_cls_score_reshape_0_split_1
I0418 04:54:14.595439 31194 net.cpp:408] rpn_cls_score_reshape_rpn_cls_score_reshape_0_split -> rpn_cls_score_reshape_rpn_cls_score_reshape_0_split_2
I0418 04:54:14.595479 31194 net.cpp:150] Setting up rpn_cls_score_reshape_rpn_cls_score_reshape_0_split
I0418 04:54:14.595485 31194 net.cpp:157] Top shape: 1 2 3552 1 1 (7104)
I0418 04:54:14.595489 31194 net.cpp:157] Top shape: 1 2 3552 1 1 (7104)
I0418 04:54:14.595494 31194 net.cpp:157] Top shape: 1 2 3552 1 1 (7104)
I0418 04:54:14.595496 31194 net.cpp:165] Memory required for data: 10172390076
I0418 04:54:14.595499 31194 layer_factory.hpp:77] Creating layer rpn-data
I0418 04:54:14.595896 31194 net.cpp:100] Creating Layer rpn-data
I0418 04:54:14.595906 31194 net.cpp:434] rpn-data <- rpn_cls_score_rpn_cls_score_0_split_1
I0418 04:54:14.595922 31194 net.cpp:434] rpn-data <- gt_boxes_data_1_split_0
I0418 04:54:14.595927 31194 net.cpp:434] rpn-data <- data_data_0_split_1
I0418 04:54:14.595932 31194 net.cpp:408] rpn-data -> rpn_labels
I0418 04:54:14.595938 31194 net.cpp:408] rpn-data -> rpn_twin_targets
I0418 04:54:14.595944 31194 net.cpp:408] rpn-data -> rpn_twin_inside_weights
I0418 04:54:14.595949 31194 net.cpp:408] rpn-data -> rpn_twin_outside_weights
I0418 04:54:14.598238 31194 net.cpp:150] Setting up rpn-data
I0418 04:54:14.598263 31194 net.cpp:157] Top shape: 1 1 3552 1 1 (3552)
I0418 04:54:14.598266 31194 net.cpp:157] Top shape: 1 74 96 1 1 (7104)
I0418 04:54:14.598270 31194 net.cpp:157] Top shape: 1 74 96 1 1 (7104)
I0418 04:54:14.598274 31194 net.cpp:157] Top shape: 1 74 96 1 1 (7104)
I0418 04:54:14.598278 31194 net.cpp:165] Memory required for data: 10172489532
I0418 04:54:14.598281 31194 layer_factory.hpp:77] Creating layer rpn_labels_rpn-data_0_split
I0418 04:54:14.598286 31194 net.cpp:100] Creating Layer rpn_labels_rpn-data_0_split
I0418 04:54:14.598290 31194 net.cpp:434] rpn_labels_rpn-data_0_split <- rpn_labels
I0418 04:54:14.598295 31194 net.cpp:408] rpn_labels_rpn-data_0_split -> rpn_labels_rpn-data_0_split_0
I0418 04:54:14.598302 31194 net.cpp:408] rpn_labels_rpn-data_0_split -> rpn_labels_rpn-data_0_split_1
I0418 04:54:14.598333 31194 net.cpp:150] Setting up rpn_labels_rpn-data_0_split
I0418 04:54:14.598340 31194 net.cpp:157] Top shape: 1 1 3552 1 1 (3552)
I0418 04:54:14.598345 31194 net.cpp:157] Top shape: 1 1 3552 1 1 (3552)
I0418 04:54:14.598347 31194 net.cpp:165] Memory required for data: 10172517948
I0418 04:54:14.598351 31194 layer_factory.hpp:77] Creating layer rpn_loss_cls
I0418 04:54:14.598359 31194 net.cpp:100] Creating Layer rpn_loss_cls
I0418 04:54:14.598366 31194 net.cpp:434] rpn_loss_cls <- rpn_cls_score_reshape_rpn_cls_score_reshape_0_split_0
I0418 04:54:14.598369 31194 net.cpp:434] rpn_loss_cls <- rpn_labels_rpn-data_0_split_0
…
I0418 04:54:14.598958 31194 layer_factory.hpp:77] Creating layer rpn_accuarcy
I0418 04:54:14.598964 31194 net.cpp:100] Creating Layer rpn_accuarcy
I0418 04:54:14.598968 31194 net.cpp:434] rpn_accuarcy <- rpn_cls_score_reshape_rpn_cls_score_reshape_0_split_1
I0418 04:54:14.598973 31194 net.cpp:434] rpn_accuarcy <- rpn_labels_rpn-data_0_split_1
I0418 04:54:14.598979 31194 net.cpp:408] rpn_accuarcy -> rpn_accuarcy
I0418 04:54:14.598985 31194 net.cpp:408] rpn_accuarcy -> rpn_accuarcy_class
I0418 04:54:14.599025 31194 net.cpp:150] Setting up rpn_accuarcy
I0418 04:54:14.599032 31194 net.cpp:157] Top shape: (1)
I0418 04:54:14.599036 31194 net.cpp:157] Top shape: 2 (2)
I0418 04:54:14.599040 31194 net.cpp:165] Memory required for data: 10172517968
I0418 04:54:14.599042 31194 layer_factory.hpp:77] Creating layer rpn_cls_prob
I0418 04:54:14.599048 31194 net.cpp:100] Creating Layer rpn_cls_prob
I0418 04:54:14.599052 31194 net.cpp:434] rpn_cls_prob <- rpn_cls_score_reshape_rpn_cls_score_reshape_0_split_2
I0418 04:54:14.599058 31194 net.cpp:408] rpn_cls_prob -> rpn_cls_prob
I0418 04:54:14.599256 31194 net.cpp:150] Setting up rpn_cls_prob
I0418 04:54:14.599265 31194 net.cpp:157] Top shape: 1 2 3552 1 1 (7104)
I0418 04:54:14.599269 31194 net.cpp:165] Memory required for data: 10172546384
I0418 04:54:14.599272 31194 layer_factory.hpp:77] Creating layer rpn_cls_prob_reshape
I0418 04:54:14.599279 31194 net.cpp:100] Creating Layer rpn_cls_prob_reshape
I0418 04:54:14.599283 31194 net.cpp:434] rpn_cls_prob_reshape <- rpn_cls_prob
I0418 04:54:14.599289 31194 net.cpp:408] rpn_cls_prob_reshape -> rpn_cls_prob_reshape
I0418 04:54:14.599313 31194 net.cpp:150] Setting up rpn_cls_prob_reshape
I0418 04:54:14.599319 31194 net.cpp:157] Top shape: 1 74 96 1 1 (7104)
I0418 04:54:14.599323 31194 net.cpp:165] Memory required for data: 10172574800
I0418 04:54:14.599325 31194 layer_factory.hpp:77] Creating layer proposal
I0418 04:54:14.599866 31194 net.cpp:100] Creating Layer proposal
I0418 04:54:14.599879 31194 net.cpp:434] proposal <- rpn_cls_prob_reshape
I0418 04:54:14.599884 31194 net.cpp:434] proposal <- rpn_twin_pred_rpn_twin_pred_0_split_1
I0418 04:54:14.599889 31194 net.cpp:408] proposal -> rpn_rois
I0418 04:54:14.602026 31194 net.cpp:150] Setting up proposal
I0418 04:54:14.602041 31194 net.cpp:157] Top shape: 1 3 (3)
I0418 04:54:14.602044 31194 net.cpp:165] Memory required for data: 10172574812
I0418 04:54:14.602048 31194 layer_factory.hpp:77] Creating layer roi-data
I0418 04:54:14.602180 31194 net.cpp:100] Creating Layer roi-data
I0418 04:54:14.602190 31194 net.cpp:434] roi-data <- rpn_rois
I0418 04:54:14.602195 31194 net.cpp:434] roi-data <- gt_boxes_data_1_split_1
I0418 04:54:14.602201 31194 net.cpp:408] roi-data -> rois
I0418 04:54:14.602207 31194 net.cpp:408] roi-data -> labels
I0418 04:54:14.602213 31194 net.cpp:408] roi-data -> twin_targets
I0418 04:54:14.602218 31194 net.cpp:408] roi-data -> twin_inside_weights
I0418 04:54:14.602224 31194 net.cpp:408] roi-data -> twin_outside_weights
I0418 04:54:14.602527 31194 net.cpp:150] Setting up roi-data
I0418 04:54:14.602550 31194 net.cpp:157] Top shape: 1 3 (3)
I0418 04:54:14.602566 31194 net.cpp:157] Top shape: 1 99 (99)
I0418 04:54:14.602569 31194 net.cpp:157] Top shape: 1 198 (198)
I0418 04:54:14.602572 31194 net.cpp:157] Top shape: 1 198 (198)
I0418 04:54:14.602576 31194 net.cpp:157] Top shape: 1 198 (198)
I0418 04:54:14.602579 31194 net.cpp:165] Memory required for data: 10172577596
I0418 04:54:14.602583 31194 layer_factory.hpp:77] Creating layer labels_roi-data_1_split
I0418 04:54:14.602588 31194 net.cpp:100] Creating Layer labels_roi-data_1_split
I0418 04:54:14.602592 31194 net.cpp:434] labels_roi-data_1_split <- labels
I0418 04:54:14.602597 31194 net.cpp:408] labels_roi-data_1_split -> labels_roi-data_1_split_0
I0418 04:54:14.602603 31194 net.cpp:408] labels_roi-data_1_split -> labels_roi-data_1_split_1
I0418 04:54:14.602632 31194 net.cpp:150] Setting up labels_roi-data_1_split
I0418 04:54:14.602640 31194 net.cpp:157] Top shape: 1 99 (99)
I0418 04:54:14.602644 31194 net.cpp:157] Top shape: 1 99 (99)
I0418 04:54:14.602648 31194 net.cpp:165] Memory required for data: 10172578388
I0418 04:54:14.602651 31194 layer_factory.hpp:77] Creating layer roi_pool5
I0418 04:54:14.602659 31194 net.cpp:100] Creating Layer roi_pool5
I0418 04:54:14.602664 31194 net.cpp:434] roi_pool5 <- conv5b_relu5b_0_split_1
I0418 04:54:14.602669 31194 net.cpp:434] roi_pool5 <- rois
I0418 04:54:14.602674 31194 net.cpp:408] roi_pool5 -> pool5
I0418 04:54:14.602680 31194 roi_pooling_layer.cpp:34] Temporal scale: 0.125
I0418 04:54:14.602686 31194 roi_pooling_layer.cpp:35] Spatial scale: 0.0625
I0418 04:54:14.602716 31194 net.cpp:150] Setting up roi_pool5
I0418 04:54:14.602725 31194 net.cpp:157] Top shape: 1 512 1 4 4 (8192)
I0418 04:54:14.602727 31194 net.cpp:165] Memory required for data: 10172611156
I0418 04:54:14.602731 31194 layer_factory.hpp:77] Creating layer fc6
I0418 04:54:14.602741 31194 net.cpp:100] Creating Layer fc6
I0418 04:54:14.602748 31194 net.cpp:434] fc6 <- pool5
I0418 04:54:14.602753 31194 net.cpp:408] fc6 -> fc6
I0418 04:54:15.484550 31194 net.cpp:150] Setting up fc6
I0418 04:54:15.484575 31194 net.cpp:157] Top shape: 1 4096 (4096)
I0418 04:54:15.484577 31194 net.cpp:165] Memory required for data: 10172627540
I0418 04:54:15.484587 31194 layer_factory.hpp:77] Creating layer relu6
I0418 04:54:15.484597 31194 net.cpp:100] Creating Layer relu6
I0418 04:54:15.484602 31194 net.cpp:434] relu6 <- fc6
I0418 04:54:15.484608 31194 net.cpp:395] relu6 -> fc6 (in-place)
I0418 04:54:15.485033 31194 net.cpp:150] Setting up relu6
I0418 04:54:15.485046 31194 net.cpp:157] Top shape: 1 4096 (4096)
I0418 04:54:15.485049 31194 net.cpp:165] Memory required for data: 10172643924
I0418 04:54:15.485054 31194 layer_factory.hpp:77] Creating layer drop6
I0418 04:54:15.485067 31194 net.cpp:100] Creating Layer drop6
I0418 04:54:15.485074 31194 net.cpp:434] drop6 <- fc6
I0418 04:54:15.485079 31194 net.cpp:395] drop6 -> fc6 (in-place)
I0418 04:54:15.485107 31194 net.cpp:150] Setting up drop6
I0418 04:54:15.485114 31194 net.cpp:157] Top shape: 1 4096 (4096)
I0418 04:54:15.485118 31194 net.cpp:165] Memory required for data: 10172660308
I0418 04:54:15.485122 31194 layer_factory.hpp:77] Creating layer fc6_drop6_0_split
I0418 04:54:15.485129 31194 net.cpp:100] Creating Layer fc6_drop6_0_split
I0418 04:54:15.485133 31194 net.cpp:434] fc6_drop6_0_split <- fc6
I0418 04:54:15.485138 31194 net.cpp:408] fc6_drop6_0_split -> fc6_drop6_0_split_0
I0418 04:54:15.485144 31194 net.cpp:408] fc6_drop6_0_split -> fc6_drop6_0_split_1
I0418 04:54:15.485177 31194 net.cpp:150] Setting up fc6_drop6_0_split
I0418 04:54:15.485184 31194 net.cpp:157] Top shape: 1 4096 (4096)
I0418 04:54:15.485188 31194 net.cpp:157] Top shape: 1 4096 (4096)
I0418 04:54:15.485191 31194 net.cpp:165] Memory required for data: 10172693076
I0418 04:54:15.485194 31194 layer_factory.hpp:77] Creating layer cls_score
I0418 04:54:15.485206 31194 net.cpp:100] Creating Layer cls_score
I0418 04:54:15.485213 31194 net.cpp:434] cls_score <- fc6_drop6_0_split_0
I0418 04:54:15.485219 31194 net.cpp:408] cls_score -> cls_score
I0418 04:54:15.495831 31194 net.cpp:150] Setting up cls_score
I0418 04:54:15.495843 31194 net.cpp:157] Top shape: 1 99 (99)
I0418 04:54:15.495846 31194 net.cpp:165] Memory required for data: 10172693472
I0418 04:54:15.495853 31194 layer_factory.hpp:77] Creating layer cls_score_cls_score_0_split
I0418 04:54:15.495859 31194 net.cpp:100] Creating Layer cls_score_cls_score_0_split
I0418 04:54:15.495863 31194 net.cpp:434] cls_score_cls_score_0_split <- cls_score
I0418 04:54:15.495868 31194 net.cpp:408] cls_score_cls_score_0_split -> cls_score_cls_score_0_split_0
I0418 04:54:15.495874 31194 net.cpp:408] cls_score_cls_score_0_split -> cls_score_cls_score_0_split_1
I0418 04:54:15.495906 31194 net.cpp:150] Setting up cls_score_cls_score_0_split
I0418 04:54:15.495911 31194 net.cpp:157] Top shape: 1 99 (99)
I0418 04:54:15.495915 31194 net.cpp:157] Top shape: 1 99 (99)
I0418 04:54:15.495918 31194 net.cpp:165] Memory required for data: 10172694264
I0418 04:54:15.495923 31194 layer_factory.hpp:77] Creating layer twin_pred
I0418 04:54:15.495929 31194 net.cpp:100] Creating Layer twin_pred
I0418 04:54:15.495931 31194 net.cpp:434] twin_pred <- fc6_drop6_0_split_1
I0418 04:54:15.495937 31194 net.cpp:408] twin_pred -> twin_pred
I0418 04:54:15.517351 31194 net.cpp:150] Setting up twin_pred
I0418 04:54:15.517369 31194 net.cpp:157] Top shape: 1 198 (198)
I0418 04:54:15.517372 31194 net.cpp:165] Memory required for data: 10172695056
I0418 04:54:15.517381 31194 layer_factory.hpp:77] Creating layer loss_cls
I0418 04:54:15.517395 31194 net.cpp:100] Creating Layer loss_cls
I0418 04:54:15.517400 31194 net.cpp:434] loss_cls <- cls_score_cls_score_0_split_0
I0418 04:54:15.517405 31194 net.cpp:434] loss_cls <- labels_roi-data_1_split_0
I0418 04:54:15.517410 31194 net.cpp:408] loss_cls -> loss_cls
…
