…
stepsize: 350000
snapshot: 0
snapshot_prefix: "./experiments/activitynet/snapshot/activitynet"
average_loss: 100
iter_size: 1
I0417 15:08:22.378401  3547 solver.cpp:81] Creating training net from train_net file: ./experiments/activitynet/train.prototxt
I0417 15:08:22.379897  3547 net.cpp:58] Initializing net from parameters: 
name: "activitynet"
state {
  phase: TRAIN
}
layer {
  name: "data"
  type: "Python"
  top: "data"
  top: "gt_boxes"
  python_param {
    module: "roi_data_layer.layer"
    layer: "RoIDataLayer"
    param_str: "\'num_classes\': 100"
  }
}
layer {
  name: "conv1a"
  type: "Convolution"
  bottom: "data"
  top: "conv1a"
  param {
    lr_mult: 0
    decay_mult: 0
  }
  param {
    lr_mult: 0
    decay_mult: 0
  }
  convolution_param {
    num_output: 64
    pad: 1
    pad: 1
    pad: 1
    kernel_size: 3
    kernel_size: 3
    kernel_size: 3
    weight_filler {
      type: "gaussian"
      std: 0.01
    }
    bias_filler {
      type: "constant"
      value: 0
    }
  }
}
layer {
  name: "relu1a"
  type: "ReLU"
  bottom: "conv1a"
  top: "conv1a"
}
layer {
  name: "pool1"
  type: "Pooling"
  bottom: "conv1a"
  top: "pool1"
  pooling_param {
    pool: MAX
    kernel_size: 1
    kernel_size: 2
    kernel_size: 2
    stride: 1
    stride: 2
    stride: 2
  }
}
layer {
  name: "conv2a"
  type: "Convolution"
  bottom: "pool1"
  top: "conv2a"
  param {
    lr_mult: 0
    decay_mult: 0
  }
  param {
    lr_mult: 0
    decay_mult: 0
  }
  convolution_param {
    num_output: 128
    pad: 1
    pad: 1
    pad: 1
    kernel_size: 3
    kernel_size: 3
    kernel_size: 3
    weight_filler {
      type: "gaussian"
      std: 0.01
    }
    bias_filler {
      type: "constant"
      value: 1
    }
  }
}
layer {
  name: "relu2a"
  type: "ReLU"
  bottom: "conv2a"
  top: "conv2a"
}
layer {
  name: "pool2"
  type: "Pooling"
  bottom: "conv2a"
  top: "pool2"
  pooling_param {
    pool: MAX
    kernel_size: 2
    kernel_size: 2
    kernel_size: 2
    stride: 2
    stride: 2
    stride: 2
  }
}
layer {
  name: "conv3a"
  type: "Convolution"
  bottom: "pool2"
  top: "conv3a"
  param {
    lr_mult: 1
    decay_mult: 1
  }
  param {
    lr_mult: 2
    decay_mult: 0
  }
  convolution_param {
    num_output: 256
    pad: 1
    pad: 1
    pad: 1
    kernel_size: 3
    kernel_size: 3
    kernel_size: 3
    weight_filler {
      type: "gaussian"
      std: 0.01
    }
    bias_filler {
      type: "constant"
      value: 1
    }
  }
}
layer {
  name: "relu3a"
  type: "ReLU"
  bottom: "conv3a"
  top: "conv3a"
}
layer {
  name: "conv3b"
  type: "Convolution"
  bottom: "conv3a"
  top: "conv3b"
  param {
    lr_mult: 1
    decay_mult: 1
  }
  param {
    lr_mult: 2
    decay_mult: 0
  }
  convolution_param {
    num_output: 256
    pad: 1
    pad: 1
    pad: 1
    kernel_size: 3
    kernel_size: 3
    kernel_size: 3
    weight_filler {
      type: "gaussian"
      std: 0.01
    }
    bias_filler {
      type: "constant"
      value: 1
    }
  }
}
layer {
  name: "relu3b"
  type: "ReLU"
  bottom: "conv3b"
  top: "conv3b"
}
layer {
  name: "pool3"
  type: "Pooling"
  bottom: "conv3b"
  top: "pool3"
  pooling_param {
    pool: MAX
    kernel_size: 2
    kernel_size: 2
    kernel_size: 2
    stride: 2
    stride: 2
    stride: 2
  }
}
layer {
  name: "conv4a"
  type: "Convolution"
  bottom: "pool3"
  top: "conv4a"
  param {
    lr_mult: 1
    decay_mult: 1
  }
  param {
    lr_mult: 2
    decay_mult: 0
  }
  convolution_param {
    num_output: 512
    pad: 1
    pad: 1
    pad: 1
    kernel_size: 3
    kernel_size: 3
    kernel_size: 3
    weight_filler {
      type: "gaussian"
      std: 0.01
    }
    bias_filler {
      type: "constant"
      value: 1
    }
  }
}
layer {
  name: "relu4a"
  type: "ReLU"
  bottom: "conv4a"
  top: "conv4a"
}
layer {
  name: "conv4b"
  type: "Convolution"
  bottom: "conv4a"
  top: "conv4b"
  param {
    lr_mult: 1
    decay_mult: 1
  }
  param {
    lr_mult: 2
    decay_mult: 0
  }
  convolution_param {
    num_output: 512
    pad: 1
    pad: 1
    pad: 1
    kernel_size: 3
    kernel_size: 3
    kernel_size: 3
    weight_filler {
      type: "gaussian"
      std: 0.01
    }
    bias_filler {
      type: "constant"
      value: 1
    }
  }
}
layer {
  name: "relu4b"
  type: "ReLU"
  bottom: "conv4b"
  top: "conv4b"
}
layer {
  name: "pool4"
  type: "Pooling"
  bottom: "conv4b"
  top: "pool4"
  pooling_param {
    pool: MAX
    kernel_size: 2
    kernel_size: 2
    kernel_size: 2
    stride: 2
    stride: 2
    stride: 2
  }
}
layer {
  name: "conv5a"
  type: "Convolution"
  bottom: "pool4"
  top: "conv5a"
  param {
    lr_mult: 1
    decay_mult: 1
  }
  param {
    lr_mult: 2
    decay_mult: 0
  }
  convolution_param {
    num_output: 512
    pad: 1
    pad: 1
    pad: 1
    kernel_size: 3
    kernel_size: 3
    kernel_size: 3
    weight_filler {
      type: "gaussian"
      std: 0.01
    }
    bias_filler {
      type: "constant"
      value: 1
    }
  }
}
layer {
  name: "relu5a"
  type: "ReLU"
  bottom: "conv5a"
  top: "conv5a"
}
layer {
  name: "conv5b"
  type: "Convolution"
  bottom: "conv5a"
  top: "conv5b"
  param {
    lr_mult: 1
    decay_mult: 1
  }
  param {
    lr_mult: 2
    decay_mult: 0
  }
  convolution_param {
    num_output: 512
    pad: 1
    pad: 1
    pad: 1
    kernel_size: 3
    kernel_size: 3
    kernel_size: 3
    weight_filler {
      type: "gaussian"
      std: 0.01
    }
    bias_filler {
      type: "constant"
      value: 1
    }
  }
}
layer {
  name: "relu5b"
  type: "ReLU"
  bottom: "conv5b"
  top: "conv5b"
}
layer {
  name: "rpn_conv/3x3"
  type: "Convolution"
  bottom: "conv5b"
  top: "rpn/output"
  param {
    lr_mult: 1
    decay_mult: 1
  }
  param {
    lr_mult: 2
    decay_mult: 0
  }
  convolution_param {
    num_output: 512
    pad: 1
    pad: 1
    pad: 1
    kernel_size: 3
    kernel_size: 3
    kernel_size: 3
    stride: 1
    stride: 2
    stride: 2
    weight_filler {
      type: "gaussian"
      std: 0.01
    }
    bias_filler {
      type: "constant"
      value: 0
    }
  }
}
layer {
  name: "rpn_relu/3x3"
  type: "ReLU"
  bottom: "rpn/output"
  top: "rpn/output"
}
layer {
  name: "rpn_conv/3x3_2"
  type: "Convolution"
  bottom: "rpn/output"
  top: "rpn/output_2"
  param {
    lr_mult: 1
    decay_mult: 1
  }
  param {
    lr_mult: 2
    decay_mult: 0
  }
  convolution_param {
    num_output: 512
    pad: 1
    pad: 1
    pad: 1
    kernel_size: 3
    kernel_size: 3
    kernel_size: 3
    stride: 1
    stride: 2
    stride: 2
    weight_filler {
      type: "gaussian"
      std: 0.01
    }
    bias_filler {
      type: "constant"
      value: 0
    }
  }
}
layer {
  name: "rpn_relu/3x3_2"
  type: "ReLU"
  bottom: "rpn/output_2"
  top: "rpn/output_2"
}
layer {
  name: "rpn/output_pool"
  type: "Pooling"
  bottom: "rpn/output_2"
  top: "rpn/output_pool"
  pooling_param {
    pool: MAX
    kernel_size: 1
    kernel_size: 2
    kernel_size: 2
  }
}
layer {
  name: "rpn_cls_score"
  type: "Convolution"
  bottom: "rpn/output_pool"
  top: "rpn_cls_score"
  param {
    lr_mult: 1
    decay_mult: 1
  }
  param {
    lr_mult: 2
    decay_mult: 0
  }
  convolution_param {
    num_output: 74
    kernel_size: 1
    kernel_size: 1
    kernel_size: 1
    weight_filler {
      type: "gaussian"
      std: 0.01
    }
    bias_filler {
      type: "constant"
      value: 0
    }
  }
}
layer {
  name: "rpn_twin_pred"
  type: "Convolution"
  bottom: "rpn/output_pool"
  top: "rpn_twin_pred"
  param {
    lr_mult: 1
    decay_mult: 1
  }
  param {
    lr_mult: 2
    decay_mult: 0
  }
  convolution_param {
    num_output: 74
    kernel_size: 1
    kernel_size: 1
    kernel_size: 1
    weight_filler {
      type: "gaussian"
      std: 0.01
    }
    bias_filler {
      type: "constant"
      value: 0
    }
  }
}
layer {
  name: "rpn_cls_score_reshape"
  type: "Reshape"
  bottom: "rpn_cls_score"
  top: "rpn_cls_score_reshape"
  reshape_param {
    shape {
      dim: 0
      dim: 2
      dim: -1
      dim: 0
      dim: 0
    }
  }
}
layer {
  name: "rpn-data"
  type: "Python"
  bottom: "rpn_cls_score"
  bottom: "gt_boxes"
  bottom: "data"
  top: "rpn_labels"
  top: "rpn_twin_targets"
  top: "rpn_twin_inside_weights"
  top: "rpn_twin_outside_weights"
  python_param {
    module: "rpn.anchor_target_layer"
    layer: "AnchorTargetLayer"
    param_str: "\'feat_stride\': 8 \n\'scales\': !!python/tuple [1,1.25, 1.5,1.75, 2,2.5, 3,3.5, 4,4.5, 5,5.5, 6,7, 8,9,10,11,12,14,16,18,20,22,24,28,32,36,40,44,52,60,68,76,84,92,100]"
  }
}
layer {
  name: "rpn_loss_cls"
  type: "SoftmaxWithLoss"
  bottom: "rpn_cls_score_reshape"
  bottom: "rpn_labels"
  top: "rpn_cls_loss"
  loss_weight: 1
  propagate_down: true
  propagate_down: false
  loss_param {
    ignore_label: -1
    normalize: true
  }
}
layer {
  name: "rpn_loss_twin"
  type: "SmoothL1Loss"
  bottom: "rpn_twin_pred"
  bottom: "rpn_twin_targets"
  bottom: "rpn_twin_inside_weights"
  bottom: "rpn_twin_outside_weights"
  top: "rpn_loss_twin"
  loss_weight: 1
  smooth_l1_loss_param {
    sigma: 3
  }
}
layer {
  name: "rpn_accuarcy"
  type: "Accuracy"
  bottom: "rpn_cls_score_reshape"
  bottom: "rpn_labels"
  top: "rpn_accuarcy"
  top: "rpn_accuarcy_class"
  propagate_down: false
  propagate_down: false
  accuracy_param {
    ignore_label: -1
  }
}
layer {
  name: "rpn_cls_prob"
  type: "Softmax"
  bottom: "rpn_cls_score_reshape"
  top: "rpn_cls_prob"
}
layer {
  name: "rpn_cls_prob_reshape"
  type: "Reshape"
  bottom: "rpn_cls_prob"
  top: "rpn_cls_prob_reshape"
  reshape_param {
    shape {
      dim: 0
      dim: 74
      dim: -1
      dim: 0
      dim: 0
    }
  }
}
layer {
  name: "proposal"
  type: "Python"
  bottom: "rpn_cls_prob_reshape"
  bottom: "rpn_twin_pred"
  top: "rpn_rois"
  include {
    phase: TRAIN
  }
  python_param {
    module: "rpn.proposal_layer"
    layer: "ProposalLayer"
    param_str: "\'feat_stride\': 8 \n\'scales\': !!python/tuple [1,1.25, 1.5,1.75, 2,2.5, 3,3.5, 4,4.5, 5,5.5, 6,7, 8,9,10,11,12,14,16,18,20,22,24,28,32,36,40,44,52,60,68,76,84,92,100]"
  }
}
layer {
  name: "roi-data"
  type: "Python"
  bottom: "rpn_rois"
  bottom: "gt_boxes"
  top: "rois"
  top: "labels"
  top: "twin_targets"
  top: "twin_inside_weights"
  top: "twin_outside_weights"
  python_param {
    module: "rpn.proposal_target_layer"
    layer: "ProposalTargetLayer"
    param_str: "\'num_classes\': 201"
  }
}
layer {
  name: "roi_pool5"
  type: "ROIPooling"
  bottom: "conv5b"
  bottom: "rois"
  top: "pool5"
  roi_pooling_param {
    pooled_h: 4
    pooled_w: 4
    spatial_scale: 0.0625
    pooled_l: 1
    temporal_scale: 0.125
  }
}
layer {
  name: "fc6"
  type: "InnerProduct"
  bottom: "pool5"
  top: "fc6"
  param {
    lr_mult: 1
    decay_mult: 1
  }
  param {
    lr_mult: 2
    decay_mult: 0
  }
  inner_product_param {
    num_output: 4096
    weight_filler {
      type: "gaussian"
      std: 0.005
    }
    bias_filler {
      type: "constant"
      value: 1
    }
  }
}
layer {
  name: "relu6"
  type: "ReLU"
  bottom: "fc6"
  top: "fc6"
}
layer {
  name: "drop6"
  type: "Dropout"
  bottom: "fc6"
  top: "fc6"
  dropout_param {
    dropout_ratio: 0.5
  }
}
layer {
  name: "cls_score"
  type: "InnerProduct"
  bottom: "fc6"
  top: "cls_score"
  param {
    lr_mult: 1
    decay_mult: 1
  }
  param {
    lr_mult: 2
    decay_mult: 0
  }
  inner_product_param {
    num_output: 201
    weight_filler {
      type: "gaussian"
      std: 0.01
    }
    bias_filler {
      type: "constant"
      value: 0
    }
  }
}
layer {
  name: "twin_pred"
  type: "InnerProduct"
  bottom: "fc6"
  top: "twin_pred"
  param {
    lr_mult: 1
    decay_mult: 1
  }
  param {
    lr_mult: 2
    decay_mult: 0
  }
  inner_product_param {
    num_output: 402
    weight_filler {
      type: "gaussian"
      std: 0.001
    }
    bias_filler {
      type: "constant"
      value: 0
    }
  }
}
layer {
  name: "loss_cls"
  type: "SoftmaxWithLoss"
  bottom: "cls_score"
  bottom: "labels"
  top: "loss_cls"
  loss_weight: 1
  propagate_down: true
  propagate_down: false
}
layer {
  name: "loss_twin"
  type: "SmoothL1Loss"
  bottom: "twin_pred"
  bottom: "twin_targets"
  bottom: "twin_inside_weights"
  bottom: "twin_outside_weights"
  top: "loss_twin"
  loss_weight: 1
}
layer {
  name: "accuarcy"
  type: "Accuracy"
  bottom: "cls_score"
  bottom: "labels"
  top: "accuarcy"
  propagate_down: false
  propagate_down: false
  accuracy_param {
    ignore_label: -1
  }
}
I0417 15:08:22.380110  3547 layer_factory.hpp:77] Creating layer data
I0417 15:08:22.403977  3547 net.cpp:100] Creating Layer data
I0417 15:08:22.403998  3547 net.cpp:408] data -> data
I0417 15:08:22.404011  3547 net.cpp:408] data -> gt_boxes
setting up
has rpn
RoiDataLayer: name_to_top: {'gt_windows': 1, 'data': 0}
I0417 15:08:22.416491  3547 net.cpp:150] Setting up data
I0417 15:08:22.416512  3547 net.cpp:157] Top shape: 1 3 768 112 112 (28901376)
I0417 15:08:22.416517  3547 net.cpp:157] Top shape: 1 101 (101)
I0417 15:08:22.416522  3547 net.cpp:165] Memory required for data: 115605908
I0417 15:08:22.416527  3547 layer_factory.hpp:77] Creating layer data_data_0_split
I0417 15:08:22.416538  3547 net.cpp:100] Creating Layer data_data_0_split
I0417 15:08:22.416541  3547 net.cpp:434] data_data_0_split <- data
I0417 15:08:22.416548  3547 net.cpp:408] data_data_0_split -> data_data_0_split_0
I0417 15:08:22.416558  3547 net.cpp:408] data_data_0_split -> data_data_0_split_1
I0417 15:08:22.416586  3547 net.cpp:150] Setting up data_data_0_split
I0417 15:08:22.416594  3547 net.cpp:157] Top shape: 1 3 768 112 112 (28901376)
I0417 15:08:22.416597  3547 net.cpp:157] Top shape: 1 3 768 112 112 (28901376)
I0417 15:08:22.416601  3547 net.cpp:165] Memory required for data: 346816916
I0417 15:08:22.416604  3547 layer_factory.hpp:77] Creating layer gt_boxes_data_1_split
I0417 15:08:22.416610  3547 net.cpp:100] Creating Layer gt_boxes_data_1_split
I0417 15:08:22.416612  3547 net.cpp:434] gt_boxes_data_1_split <- gt_boxes
I0417 15:08:22.416617  3547 net.cpp:408] gt_boxes_data_1_split -> gt_boxes_data_1_split_0
I0417 15:08:22.416622  3547 net.cpp:408] gt_boxes_data_1_split -> gt_boxes_data_1_split_1
I0417 15:08:22.416646  3547 net.cpp:150] Setting up gt_boxes_data_1_split
I0417 15:08:22.416651  3547 net.cpp:157] Top shape: 1 101 (101)
I0417 15:08:22.416654  3547 net.cpp:157] Top shape: 1 101 (101)
I0417 15:08:22.416657  3547 net.cpp:165] Memory required for data: 346817724
I0417 15:08:22.416661  3547 layer_factory.hpp:77] Creating layer conv1a
I0417 15:08:22.416674  3547 net.cpp:100] Creating Layer conv1a
I0417 15:08:22.416678  3547 net.cpp:434] conv1a <- data_data_0_split_0
I0417 15:08:22.416684  3547 net.cpp:408] conv1a -> conv1a
I0417 15:08:22.602301  3547 net.cpp:150] Setting up conv1a
I0417 15:08:22.602337  3547 net.cpp:157] Top shape: 1 64 768 112 112 (616562688)
I0417 15:08:22.602342  3547 net.cpp:165] Memory required for data: 2813068476
I0417 15:08:22.602360  3547 layer_factory.hpp:77] Creating layer relu1a
I0417 15:08:22.602373  3547 net.cpp:100] Creating Layer relu1a
I0417 15:08:22.602377  3547 net.cpp:434] relu1a <- conv1a
I0417 15:08:22.602382  3547 net.cpp:395] relu1a -> conv1a (in-place)
I0417 15:08:22.602813  3547 net.cpp:150] Setting up relu1a
I0417 15:08:22.602825  3547 net.cpp:157] Top shape: 1 64 768 112 112 (616562688)
I0417 15:08:22.602828  3547 net.cpp:165] Memory required for data: 5279319228
I0417 15:08:22.602833  3547 layer_factory.hpp:77] Creating layer pool1
I0417 15:08:22.602843  3547 net.cpp:100] Creating Layer pool1
I0417 15:08:22.602846  3547 net.cpp:434] pool1 <- conv1a
I0417 15:08:22.602851  3547 net.cpp:408] pool1 -> pool1
I0417 15:08:22.603024  3547 net.cpp:150] Setting up pool1
I0417 15:08:22.603035  3547 net.cpp:157] Top shape: 1 64 768 56 56 (154140672)
I0417 15:08:22.603039  3547 net.cpp:165] Memory required for data: 5895881916
I0417 15:08:22.603042  3547 layer_factory.hpp:77] Creating layer conv2a
I0417 15:08:22.603052  3547 net.cpp:100] Creating Layer conv2a
I0417 15:08:22.603056  3547 net.cpp:434] conv2a <- pool1
I0417 15:08:22.603061  3547 net.cpp:408] conv2a -> conv2a
I0417 15:08:22.614020  3547 net.cpp:150] Setting up conv2a
I0417 15:08:22.614042  3547 net.cpp:157] Top shape: 1 128 768 56 56 (308281344)
I0417 15:08:22.614045  3547 net.cpp:165] Memory required for data: 7129007292
I0417 15:08:22.614056  3547 layer_factory.hpp:77] Creating layer relu2a
I0417 15:08:22.614076  3547 net.cpp:100] Creating Layer relu2a
I0417 15:08:22.614080  3547 net.cpp:434] relu2a <- conv2a
I0417 15:08:22.614086  3547 net.cpp:395] relu2a -> conv2a (in-place)
I0417 15:08:22.614439  3547 net.cpp:150] Setting up relu2a
I0417 15:08:22.614457  3547 net.cpp:157] Top shape: 1 128 768 56 56 (308281344)
I0417 15:08:22.614464  3547 net.cpp:165] Memory required for data: 8362132668
I0417 15:08:22.614470  3547 layer_factory.hpp:77] Creating layer pool2
I0417 15:08:22.614483  3547 net.cpp:100] Creating Layer pool2
I0417 15:08:22.614490  3547 net.cpp:434] pool2 <- conv2a
I0417 15:08:22.614498  3547 net.cpp:408] pool2 -> pool2
I0417 15:08:22.614665  3547 net.cpp:150] Setting up pool2
I0417 15:08:22.614675  3547 net.cpp:157] Top shape: 1 128 384 28 28 (38535168)
I0417 15:08:22.614679  3547 net.cpp:165] Memory required for data: 8516273340
I0417 15:08:22.614683  3547 layer_factory.hpp:77] Creating layer conv3a
I0417 15:08:22.614693  3547 net.cpp:100] Creating Layer conv3a
I0417 15:08:22.614697  3547 net.cpp:434] conv3a <- pool2
I0417 15:08:22.614702  3547 net.cpp:408] conv3a -> conv3a
I0417 15:08:22.639431  3547 net.cpp:150] Setting up conv3a
I0417 15:08:22.639452  3547 net.cpp:157] Top shape: 1 256 384 28 28 (77070336)
I0417 15:08:22.639468  3547 net.cpp:165] Memory required for data: 8824554684
I0417 15:08:22.639479  3547 layer_factory.hpp:77] Creating layer relu3a
I0417 15:08:22.639488  3547 net.cpp:100] Creating Layer relu3a
I0417 15:08:22.639492  3547 net.cpp:434] relu3a <- conv3a
I0417 15:08:22.639498  3547 net.cpp:395] relu3a -> conv3a (in-place)
I0417 15:08:22.639823  3547 net.cpp:150] Setting up relu3a
I0417 15:08:22.639837  3547 net.cpp:157] Top shape: 1 256 384 28 28 (77070336)
I0417 15:08:22.639839  3547 net.cpp:165] Memory required for data: 9132836028
I0417 15:08:22.639843  3547 layer_factory.hpp:77] Creating layer conv3b
I0417 15:08:22.639853  3547 net.cpp:100] Creating Layer conv3b
I0417 15:08:22.639856  3547 net.cpp:434] conv3b <- conv3a
I0417 15:08:22.639863  3547 net.cpp:408] conv3b -> conv3b
I0417 15:08:22.687317  3547 net.cpp:150] Setting up conv3b
I0417 15:08:22.687347  3547 net.cpp:157] Top shape: 1 256 384 28 28 (77070336)
I0417 15:08:22.687355  3547 net.cpp:165] Memory required for data: 9441117372
I0417 15:08:22.687366  3547 layer_factory.hpp:77] Creating layer relu3b
I0417 15:08:22.687374  3547 net.cpp:100] Creating Layer relu3b
I0417 15:08:22.687378  3547 net.cpp:434] relu3b <- conv3b
I0417 15:08:22.687384  3547 net.cpp:395] relu3b -> conv3b (in-place)
I0417 15:08:22.687671  3547 net.cpp:150] Setting up relu3b
I0417 15:08:22.687685  3547 net.cpp:157] Top shape: 1 256 384 28 28 (77070336)
I0417 15:08:22.687690  3547 net.cpp:165] Memory required for data: 9749398716
I0417 15:08:22.687693  3547 layer_factory.hpp:77] Creating layer pool3
I0417 15:08:22.687700  3547 net.cpp:100] Creating Layer pool3
I0417 15:08:22.687705  3547 net.cpp:434] pool3 <- conv3b
I0417 15:08:22.687710  3547 net.cpp:408] pool3 -> pool3
I0417 15:08:22.687865  3547 net.cpp:150] Setting up pool3
I0417 15:08:22.687875  3547 net.cpp:157] Top shape: 1 256 192 14 14 (9633792)
I0417 15:08:22.687880  3547 net.cpp:165] Memory required for data: 9787933884
I0417 15:08:22.687882  3547 layer_factory.hpp:77] Creating layer conv4a
I0417 15:08:22.687892  3547 net.cpp:100] Creating Layer conv4a
I0417 15:08:22.687896  3547 net.cpp:434] conv4a <- pool3
I0417 15:08:22.687902  3547 net.cpp:408] conv4a -> conv4a
I0417 15:08:22.781150  3547 net.cpp:150] Setting up conv4a
I0417 15:08:22.781174  3547 net.cpp:157] Top shape: 1 512 192 14 14 (19267584)
I0417 15:08:22.781178  3547 net.cpp:165] Memory required for data: 9865004220
I0417 15:08:22.781191  3547 layer_factory.hpp:77] Creating layer relu4a
I0417 15:08:22.781200  3547 net.cpp:100] Creating Layer relu4a
I0417 15:08:22.781204  3547 net.cpp:434] relu4a <- conv4a
I0417 15:08:22.781222  3547 net.cpp:395] relu4a -> conv4a (in-place)
I0417 15:08:22.781522  3547 net.cpp:150] Setting up relu4a
I0417 15:08:22.781534  3547 net.cpp:157] Top shape: 1 512 192 14 14 (19267584)
I0417 15:08:22.781538  3547 net.cpp:165] Memory required for data: 9942074556
I0417 15:08:22.781543  3547 layer_factory.hpp:77] Creating layer conv4b
I0417 15:08:22.781555  3547 net.cpp:100] Creating Layer conv4b
I0417 15:08:22.781558  3547 net.cpp:434] conv4b <- conv4a
I0417 15:08:22.781565  3547 net.cpp:408] conv4b -> conv4b
I0417 15:08:22.967512  3547 net.cpp:150] Setting up conv4b
I0417 15:08:22.967536  3547 net.cpp:157] Top shape: 1 512 192 14 14 (19267584)
I0417 15:08:22.967540  3547 net.cpp:165] Memory required for data: 10019144892
I0417 15:08:22.967550  3547 layer_factory.hpp:77] Creating layer relu4b
I0417 15:08:22.967561  3547 net.cpp:100] Creating Layer relu4b
I0417 15:08:22.967566  3547 net.cpp:434] relu4b <- conv4b
I0417 15:08:22.967571  3547 net.cpp:395] relu4b -> conv4b (in-place)
I0417 15:08:22.967723  3547 net.cpp:150] Setting up relu4b
I0417 15:08:22.967733  3547 net.cpp:157] Top shape: 1 512 192 14 14 (19267584)
I0417 15:08:22.967737  3547 net.cpp:165] Memory required for data: 10096215228
I0417 15:08:22.967741  3547 layer_factory.hpp:77] Creating layer pool4
I0417 15:08:22.967749  3547 net.cpp:100] Creating Layer pool4
I0417 15:08:22.967752  3547 net.cpp:434] pool4 <- conv4b
I0417 15:08:22.967759  3547 net.cpp:408] pool4 -> pool4
I0417 15:08:22.968075  3547 net.cpp:150] Setting up pool4
I0417 15:08:22.968087  3547 net.cpp:157] Top shape: 1 512 96 7 7 (2408448)
I0417 15:08:22.968091  3547 net.cpp:165] Memory required for data: 10105849020
I0417 15:08:22.968096  3547 layer_factory.hpp:77] Creating layer conv5a
I0417 15:08:22.968106  3547 net.cpp:100] Creating Layer conv5a
I0417 15:08:22.968111  3547 net.cpp:434] conv5a <- pool4
I0417 15:08:22.968116  3547 net.cpp:408] conv5a -> conv5a
I0417 15:08:23.153134  3547 net.cpp:150] Setting up conv5a
I0417 15:08:23.153167  3547 net.cpp:157] Top shape: 1 512 96 7 7 (2408448)
I0417 15:08:23.153172  3547 net.cpp:165] Memory required for data: 10115482812
I0417 15:08:23.153185  3547 layer_factory.hpp:77] Creating layer relu5a
I0417 15:08:23.153198  3547 net.cpp:100] Creating Layer relu5a
I0417 15:08:23.153219  3547 net.cpp:434] relu5a <- conv5a
I0417 15:08:23.153229  3547 net.cpp:395] relu5a -> conv5a (in-place)
I0417 15:08:23.153671  3547 net.cpp:150] Setting up relu5a
I0417 15:08:23.153684  3547 net.cpp:157] Top shape: 1 512 96 7 7 (2408448)
I0417 15:08:23.153688  3547 net.cpp:165] Memory required for data: 10125116604
I0417 15:08:23.153692  3547 layer_factory.hpp:77] Creating layer conv5b
I0417 15:08:23.153702  3547 net.cpp:100] Creating Layer conv5b
I0417 15:08:23.153707  3547 net.cpp:434] conv5b <- conv5a
I0417 15:08:23.153712  3547 net.cpp:408] conv5b -> conv5b
I0417 15:08:23.339864  3547 net.cpp:150] Setting up conv5b
I0417 15:08:23.339889  3547 net.cpp:157] Top shape: 1 512 96 7 7 (2408448)
I0417 15:08:23.339892  3547 net.cpp:165] Memory required for data: 10134750396
I0417 15:08:23.339901  3547 layer_factory.hpp:77] Creating layer relu5b
I0417 15:08:23.339913  3547 net.cpp:100] Creating Layer relu5b
I0417 15:08:23.339918  3547 net.cpp:434] relu5b <- conv5b
I0417 15:08:23.339924  3547 net.cpp:395] relu5b -> conv5b (in-place)
I0417 15:08:23.340070  3547 net.cpp:150] Setting up relu5b
I0417 15:08:23.340080  3547 net.cpp:157] Top shape: 1 512 96 7 7 (2408448)
I0417 15:08:23.340085  3547 net.cpp:165] Memory required for data: 10144384188
I0417 15:08:23.340087  3547 layer_factory.hpp:77] Creating layer conv5b_relu5b_0_split
I0417 15:08:23.340093  3547 net.cpp:100] Creating Layer conv5b_relu5b_0_split
I0417 15:08:23.340096  3547 net.cpp:434] conv5b_relu5b_0_split <- conv5b
I0417 15:08:23.340102  3547 net.cpp:408] conv5b_relu5b_0_split -> conv5b_relu5b_0_split_0
I0417 15:08:23.340108  3547 net.cpp:408] conv5b_relu5b_0_split -> conv5b_relu5b_0_split_1
I0417 15:08:23.340145  3547 net.cpp:150] Setting up conv5b_relu5b_0_split
I0417 15:08:23.340153  3547 net.cpp:157] Top shape: 1 512 96 7 7 (2408448)
I0417 15:08:23.340157  3547 net.cpp:157] Top shape: 1 512 96 7 7 (2408448)
I0417 15:08:23.340160  3547 net.cpp:165] Memory required for data: 10163651772
I0417 15:08:23.340163  3547 layer_factory.hpp:77] Creating layer rpn_conv/3x3
I0417 15:08:23.340173  3547 net.cpp:100] Creating Layer rpn_conv/3x3
I0417 15:08:23.340179  3547 net.cpp:434] rpn_conv/3x3 <- conv5b_relu5b_0_split_0
I0417 15:08:23.340186  3547 net.cpp:408] rpn_conv/3x3 -> rpn/output
I0417 15:08:23.525213  3547 net.cpp:150] Setting up rpn_conv/3x3
I0417 15:08:23.525247  3547 net.cpp:157] Top shape: 1 512 96 4 4 (786432)
I0417 15:08:23.525252  3547 net.cpp:165] Memory required for data: 10166797500
I0417 15:08:23.525265  3547 layer_factory.hpp:77] Creating layer rpn_relu/3x3
I0417 15:08:23.525276  3547 net.cpp:100] Creating Layer rpn_relu/3x3
I0417 15:08:23.525280  3547 net.cpp:434] rpn_relu/3x3 <- rpn/output
I0417 15:08:23.525286  3547 net.cpp:395] rpn_relu/3x3 -> rpn/output (in-place)
I0417 15:08:23.525583  3547 net.cpp:150] Setting up rpn_relu/3x3
I0417 15:08:23.525598  3547 net.cpp:157] Top shape: 1 512 96 4 4 (786432)
I0417 15:08:23.525600  3547 net.cpp:165] Memory required for data: 10169943228
I0417 15:08:23.525604  3547 layer_factory.hpp:77] Creating layer rpn_conv/3x3_2
I0417 15:08:23.525615  3547 net.cpp:100] Creating Layer rpn_conv/3x3_2
I0417 15:08:23.525619  3547 net.cpp:434] rpn_conv/3x3_2 <- rpn/output
I0417 15:08:23.525625  3547 net.cpp:408] rpn_conv/3x3_2 -> rpn/output_2
I0417 15:08:23.709592  3547 net.cpp:150] Setting up rpn_conv/3x3_2
I0417 15:08:23.709616  3547 net.cpp:157] Top shape: 1 512 96 2 2 (196608)
I0417 15:08:23.709620  3547 net.cpp:165] Memory required for data: 10170729660
I0417 15:08:23.709630  3547 layer_factory.hpp:77] Creating layer rpn_relu/3x3_2
I0417 15:08:23.709637  3547 net.cpp:100] Creating Layer rpn_relu/3x3_2
I0417 15:08:23.709642  3547 net.cpp:434] rpn_relu/3x3_2 <- rpn/output_2
I0417 15:08:23.709650  3547 net.cpp:395] rpn_relu/3x3_2 -> rpn/output_2 (in-place)
I0417 15:08:23.709957  3547 net.cpp:150] Setting up rpn_relu/3x3_2
I0417 15:08:23.709970  3547 net.cpp:157] Top shape: 1 512 96 2 2 (196608)
I0417 15:08:23.709973  3547 net.cpp:165] Memory required for data: 10171516092
I0417 15:08:23.709977  3547 layer_factory.hpp:77] Creating layer rpn/output_pool
I0417 15:08:23.709986  3547 net.cpp:100] Creating Layer rpn/output_pool
I0417 15:08:23.709990  3547 net.cpp:434] rpn/output_pool <- rpn/output_2
I0417 15:08:23.709995  3547 net.cpp:408] rpn/output_pool -> rpn/output_pool
I0417 15:08:23.710167  3547 net.cpp:150] Setting up rpn/output_pool
I0417 15:08:23.710177  3547 net.cpp:157] Top shape: 1 512 96 1 1 (49152)
I0417 15:08:23.710180  3547 net.cpp:165] Memory required for data: 10171712700
I0417 15:08:23.710184  3547 layer_factory.hpp:77] Creating layer rpn/output_pool_rpn/output_pool_0_split
I0417 15:08:23.710191  3547 net.cpp:100] Creating Layer rpn/output_pool_rpn/output_pool_0_split
I0417 15:08:23.710193  3547 net.cpp:434] rpn/output_pool_rpn/output_pool_0_split <- rpn/output_pool
I0417 15:08:23.710198  3547 net.cpp:408] rpn/output_pool_rpn/output_pool_0_split -> rpn/output_pool_rpn/output_pool_0_split_0
I0417 15:08:23.710204  3547 net.cpp:408] rpn/output_pool_rpn/output_pool_0_split -> rpn/output_pool_rpn/output_pool_0_split_1
I0417 15:08:23.710235  3547 net.cpp:150] Setting up rpn/output_pool_rpn/output_pool_0_split
I0417 15:08:23.710242  3547 net.cpp:157] Top shape: 1 512 96 1 1 (49152)
I0417 15:08:23.710247  3547 net.cpp:157] Top shape: 1 512 96 1 1 (49152)
I0417 15:08:23.710249  3547 net.cpp:165] Memory required for data: 10172105916
I0417 15:08:23.710253  3547 layer_factory.hpp:77] Creating layer rpn_cls_score
I0417 15:08:23.710263  3547 net.cpp:100] Creating Layer rpn_cls_score
I0417 15:08:23.710266  3547 net.cpp:434] rpn_cls_score <- rpn/output_pool_rpn/output_pool_0_split_0
I0417 15:08:23.710271  3547 net.cpp:408] rpn_cls_score -> rpn_cls_score
I0417 15:08:23.712261  3547 net.cpp:150] Setting up rpn_cls_score
I0417 15:08:23.712275  3547 net.cpp:157] Top shape: 1 74 96 1 1 (7104)
I0417 15:08:23.712278  3547 net.cpp:165] Memory required for data: 10172134332
I0417 15:08:23.712285  3547 layer_factory.hpp:77] Creating layer rpn_cls_score_rpn_cls_score_0_split
I0417 15:08:23.712290  3547 net.cpp:100] Creating Layer rpn_cls_score_rpn_cls_score_0_split
I0417 15:08:23.712293  3547 net.cpp:434] rpn_cls_score_rpn_cls_score_0_split <- rpn_cls_score
I0417 15:08:23.712299  3547 net.cpp:408] rpn_cls_score_rpn_cls_score_0_split -> rpn_cls_score_rpn_cls_score_0_split_0
I0417 15:08:23.712306  3547 net.cpp:408] rpn_cls_score_rpn_cls_score_0_split -> rpn_cls_score_rpn_cls_score_0_split_1
I0417 15:08:23.712357  3547 net.cpp:150] Setting up rpn_cls_score_rpn_cls_score_0_split
I0417 15:08:23.712364  3547 net.cpp:157] Top shape: 1 74 96 1 1 (7104)
I0417 15:08:23.712369  3547 net.cpp:157] Top shape: 1 74 96 1 1 (7104)
I0417 15:08:23.712373  3547 net.cpp:165] Memory required for data: 10172191164
I0417 15:08:23.712375  3547 layer_factory.hpp:77] Creating layer rpn_twin_pred
I0417 15:08:23.712388  3547 net.cpp:100] Creating Layer rpn_twin_pred
I0417 15:08:23.712393  3547 net.cpp:434] rpn_twin_pred <- rpn/output_pool_rpn/output_pool_0_split_1
I0417 15:08:23.712400  3547 net.cpp:408] rpn_twin_pred -> rpn_twin_pred
I0417 15:08:23.714252  3547 net.cpp:150] Setting up rpn_twin_pred
I0417 15:08:23.714265  3547 net.cpp:157] Top shape: 1 74 96 1 1 (7104)
I0417 15:08:23.714268  3547 net.cpp:165] Memory required for data: 10172219580
I0417 15:08:23.714274  3547 layer_factory.hpp:77] Creating layer rpn_twin_pred_rpn_twin_pred_0_split
I0417 15:08:23.714279  3547 net.cpp:100] Creating Layer rpn_twin_pred_rpn_twin_pred_0_split
I0417 15:08:23.714282  3547 net.cpp:434] rpn_twin_pred_rpn_twin_pred_0_split <- rpn_twin_pred
I0417 15:08:23.714288  3547 net.cpp:408] rpn_twin_pred_rpn_twin_pred_0_split -> rpn_twin_pred_rpn_twin_pred_0_split_0
I0417 15:08:23.714294  3547 net.cpp:408] rpn_twin_pred_rpn_twin_pred_0_split -> rpn_twin_pred_rpn_twin_pred_0_split_1
I0417 15:08:23.714339  3547 net.cpp:150] Setting up rpn_twin_pred_rpn_twin_pred_0_split
I0417 15:08:23.714346  3547 net.cpp:157] Top shape: 1 74 96 1 1 (7104)
I0417 15:08:23.714350  3547 net.cpp:157] Top shape: 1 74 96 1 1 (7104)
I0417 15:08:23.714354  3547 net.cpp:165] Memory required for data: 10172276412
I0417 15:08:23.714356  3547 layer_factory.hpp:77] Creating layer rpn_cls_score_reshape
I0417 15:08:23.714370  3547 net.cpp:100] Creating Layer rpn_cls_score_reshape
I0417 15:08:23.714376  3547 net.cpp:434] rpn_cls_score_reshape <- rpn_cls_score_rpn_cls_score_0_split_0
I0417 15:08:23.714382  3547 net.cpp:408] rpn_cls_score_reshape -> rpn_cls_score_reshape
I0417 15:08:23.714409  3547 net.cpp:150] Setting up rpn_cls_score_reshape
I0417 15:08:23.714416  3547 net.cpp:157] Top shape: 1 2 3552 1 1 (7104)
I0417 15:08:23.714419  3547 net.cpp:165] Memory required for data: 10172304828
I0417 15:08:23.714422  3547 layer_factory.hpp:77] Creating layer rpn_cls_score_reshape_rpn_cls_score_reshape_0_split
I0417 15:08:23.714427  3547 net.cpp:100] Creating Layer rpn_cls_score_reshape_rpn_cls_score_reshape_0_split
I0417 15:08:23.714432  3547 net.cpp:434] rpn_cls_score_reshape_rpn_cls_score_reshape_0_split <- rpn_cls_score_reshape
I0417 15:08:23.714437  3547 net.cpp:408] rpn_cls_score_reshape_rpn_cls_score_reshape_0_split -> rpn_cls_score_reshape_rpn_cls_score_reshape_0_split_0
I0417 15:08:23.714447  3547 net.cpp:408] rpn_cls_score_reshape_rpn_cls_score_reshape_0_split -> rpn_cls_score_reshape_rpn_cls_score_reshape_0_split_1
I0417 15:08:23.714452  3547 net.cpp:408] rpn_cls_score_reshape_rpn_cls_score_reshape_0_split -> rpn_cls_score_reshape_rpn_cls_score_reshape_0_split_2
I0417 15:08:23.714490  3547 net.cpp:150] Setting up rpn_cls_score_reshape_rpn_cls_score_reshape_0_split
I0417 15:08:23.714498  3547 net.cpp:157] Top shape: 1 2 3552 1 1 (7104)
I0417 15:08:23.714501  3547 net.cpp:157] Top shape: 1 2 3552 1 1 (7104)
I0417 15:08:23.714505  3547 net.cpp:157] Top shape: 1 2 3552 1 1 (7104)
I0417 15:08:23.714509  3547 net.cpp:165] Memory required for data: 10172390076
I0417 15:08:23.714511  3547 layer_factory.hpp:77] Creating layer rpn-data
I0417 15:08:23.714915  3547 net.cpp:100] Creating Layer rpn-data
I0417 15:08:23.714927  3547 net.cpp:434] rpn-data <- rpn_cls_score_rpn_cls_score_0_split_1
I0417 15:08:23.714933  3547 net.cpp:434] rpn-data <- gt_boxes_data_1_split_0
I0417 15:08:23.714937  3547 net.cpp:434] rpn-data <- data_data_0_split_1
I0417 15:08:23.714943  3547 net.cpp:408] rpn-data -> rpn_labels
I0417 15:08:23.714949  3547 net.cpp:408] rpn-data -> rpn_twin_targets
I0417 15:08:23.714956  3547 net.cpp:408] rpn-data -> rpn_twin_inside_weights
I0417 15:08:23.714962  3547 net.cpp:408] rpn-data -> rpn_twin_outside_weights
I0417 15:08:23.717197  3547 net.cpp:150] Setting up rpn-data
I0417 15:08:23.717212  3547 net.cpp:157] Top shape: 1 1 3552 1 1 (3552)
I0417 15:08:23.717216  3547 net.cpp:157] Top shape: 1 74 96 1 1 (7104)
I0417 15:08:23.717221  3547 net.cpp:157] Top shape: 1 74 96 1 1 (7104)
I0417 15:08:23.717224  3547 net.cpp:157] Top shape: 1 74 96 1 1 (7104)
I0417 15:08:23.717227  3547 net.cpp:165] Memory required for data: 10172489532
I0417 15:08:23.717231  3547 layer_factory.hpp:77] Creating layer rpn_labels_rpn-data_0_split
I0417 15:08:23.717236  3547 net.cpp:100] Creating Layer rpn_labels_rpn-data_0_split
I0417 15:08:23.717241  3547 net.cpp:434] rpn_labels_rpn-data_0_split <- rpn_labels
I0417 15:08:23.717247  3547 net.cpp:408] rpn_labels_rpn-data_0_split -> rpn_labels_rpn-data_0_split_0
I0417 15:08:23.717253  3547 net.cpp:408] rpn_labels_rpn-data_0_split -> rpn_labels_rpn-data_0_split_1
I0417 15:08:23.717284  3547 net.cpp:150] Setting up rpn_labels_rpn-data_0_split
I0417 15:08:23.717291  3547 net.cpp:157] Top shape: 1 1 3552 1 1 (3552)
I0417 15:08:23.717295  3547 net.cpp:157] Top shape: 1 1 3552 1 1 (3552)
I0417 15:08:23.717298  3547 net.cpp:165] Memory required for data: 10172517948
I0417 15:08:23.717301  3547 layer_factory.hpp:77] Creating layer rpn_loss_cls
I0417 15:08:23.717309  3547 net.cpp:100] Creating Layer rpn_loss_cls
I0417 15:08:23.717314  3547 net.cpp:434] rpn_loss_cls <- rpn_cls_score_reshape_rpn_cls_score_reshape_0_split_0
I0417 15:08:23.717319  3547 net.cpp:434] rpn_loss_cls <- rpn_labels_rpn-data_0_split_0
…
I0417 15:08:23.717897  3547 layer_factory.hpp:77] Creating layer rpn_accuarcy
I0417 15:08:23.717905  3547 net.cpp:100] Creating Layer rpn_accuarcy
I0417 15:08:23.717912  3547 net.cpp:434] rpn_accuarcy <- rpn_cls_score_reshape_rpn_cls_score_reshape_0_split_1
I0417 15:08:23.717916  3547 net.cpp:434] rpn_accuarcy <- rpn_labels_rpn-data_0_split_1
I0417 15:08:23.717921  3547 net.cpp:408] rpn_accuarcy -> rpn_accuarcy
I0417 15:08:23.717927  3547 net.cpp:408] rpn_accuarcy -> rpn_accuarcy_class
I0417 15:08:23.717963  3547 net.cpp:150] Setting up rpn_accuarcy
I0417 15:08:23.717969  3547 net.cpp:157] Top shape: (1)
I0417 15:08:23.717973  3547 net.cpp:157] Top shape: 2 (2)
I0417 15:08:23.717975  3547 net.cpp:165] Memory required for data: 10172517968
I0417 15:08:23.717979  3547 layer_factory.hpp:77] Creating layer rpn_cls_prob
I0417 15:08:23.717983  3547 net.cpp:100] Creating Layer rpn_cls_prob
I0417 15:08:23.717988  3547 net.cpp:434] rpn_cls_prob <- rpn_cls_score_reshape_rpn_cls_score_reshape_0_split_2
I0417 15:08:23.717993  3547 net.cpp:408] rpn_cls_prob -> rpn_cls_prob
I0417 15:08:23.718186  3547 net.cpp:150] Setting up rpn_cls_prob
I0417 15:08:23.718196  3547 net.cpp:157] Top shape: 1 2 3552 1 1 (7104)
I0417 15:08:23.718200  3547 net.cpp:165] Memory required for data: 10172546384
I0417 15:08:23.718204  3547 layer_factory.hpp:77] Creating layer rpn_cls_prob_reshape
I0417 15:08:23.718210  3547 net.cpp:100] Creating Layer rpn_cls_prob_reshape
I0417 15:08:23.718214  3547 net.cpp:434] rpn_cls_prob_reshape <- rpn_cls_prob
I0417 15:08:23.718220  3547 net.cpp:408] rpn_cls_prob_reshape -> rpn_cls_prob_reshape
I0417 15:08:23.718248  3547 net.cpp:150] Setting up rpn_cls_prob_reshape
I0417 15:08:23.718256  3547 net.cpp:157] Top shape: 1 74 96 1 1 (7104)
I0417 15:08:23.718261  3547 net.cpp:165] Memory required for data: 10172574800
I0417 15:08:23.718264  3547 layer_factory.hpp:77] Creating layer proposal
I0417 15:08:23.718827  3547 net.cpp:100] Creating Layer proposal
I0417 15:08:23.718839  3547 net.cpp:434] proposal <- rpn_cls_prob_reshape
I0417 15:08:23.718844  3547 net.cpp:434] proposal <- rpn_twin_pred_rpn_twin_pred_0_split_1
I0417 15:08:23.718850  3547 net.cpp:408] proposal -> rpn_rois
I0417 15:08:23.721022  3547 net.cpp:150] Setting up proposal
I0417 15:08:23.721036  3547 net.cpp:157] Top shape: 1 3 (3)
I0417 15:08:23.721040  3547 net.cpp:165] Memory required for data: 10172574812
I0417 15:08:23.721043  3547 layer_factory.hpp:77] Creating layer roi-data
I0417 15:08:23.721177  3547 net.cpp:100] Creating Layer roi-data
I0417 15:08:23.721189  3547 net.cpp:434] roi-data <- rpn_rois
I0417 15:08:23.721194  3547 net.cpp:434] roi-data <- gt_boxes_data_1_split_1
I0417 15:08:23.721199  3547 net.cpp:408] roi-data -> rois
I0417 15:08:23.721206  3547 net.cpp:408] roi-data -> labels
I0417 15:08:23.721212  3547 net.cpp:408] roi-data -> twin_targets
I0417 15:08:23.721217  3547 net.cpp:408] roi-data -> twin_inside_weights
I0417 15:08:23.721223  3547 net.cpp:408] roi-data -> twin_outside_weights
I0417 15:08:23.721532  3547 net.cpp:150] Setting up roi-data
I0417 15:08:23.721545  3547 net.cpp:157] Top shape: 1 3 (3)
I0417 15:08:23.721549  3547 net.cpp:157] Top shape: 1 1 (1)
I0417 15:08:23.721554  3547 net.cpp:157] Top shape: 1 402 (402)
I0417 15:08:23.721557  3547 net.cpp:157] Top shape: 1 402 (402)
I0417 15:08:23.721560  3547 net.cpp:157] Top shape: 1 402 (402)
I0417 15:08:23.721563  3547 net.cpp:165] Memory required for data: 10172579652
I0417 15:08:23.721567  3547 layer_factory.hpp:77] Creating layer labels_roi-data_1_split
I0417 15:08:23.721573  3547 net.cpp:100] Creating Layer labels_roi-data_1_split
I0417 15:08:23.721577  3547 net.cpp:434] labels_roi-data_1_split <- labels
I0417 15:08:23.721583  3547 net.cpp:408] labels_roi-data_1_split -> labels_roi-data_1_split_0
I0417 15:08:23.721590  3547 net.cpp:408] labels_roi-data_1_split -> labels_roi-data_1_split_1
I0417 15:08:23.721621  3547 net.cpp:150] Setting up labels_roi-data_1_split
I0417 15:08:23.721627  3547 net.cpp:157] Top shape: 1 1 (1)
I0417 15:08:23.721632  3547 net.cpp:157] Top shape: 1 1 (1)
I0417 15:08:23.721635  3547 net.cpp:165] Memory required for data: 10172579660
I0417 15:08:23.721638  3547 layer_factory.hpp:77] Creating layer roi_pool5
I0417 15:08:23.721648  3547 net.cpp:100] Creating Layer roi_pool5
I0417 15:08:23.721654  3547 net.cpp:434] roi_pool5 <- conv5b_relu5b_0_split_1
I0417 15:08:23.721658  3547 net.cpp:434] roi_pool5 <- rois
I0417 15:08:23.721663  3547 net.cpp:408] roi_pool5 -> pool5
I0417 15:08:23.721670  3547 roi_pooling_layer.cpp:34] Temporal scale: 0.125
I0417 15:08:23.721676  3547 roi_pooling_layer.cpp:35] Spatial scale: 0.0625
I0417 15:08:23.721710  3547 net.cpp:150] Setting up roi_pool5
I0417 15:08:23.721719  3547 net.cpp:157] Top shape: 1 512 1 4 4 (8192)
I0417 15:08:23.721721  3547 net.cpp:165] Memory required for data: 10172612428
I0417 15:08:23.721724  3547 layer_factory.hpp:77] Creating layer fc6
I0417 15:08:23.721732  3547 net.cpp:100] Creating Layer fc6
I0417 15:08:23.721740  3547 net.cpp:434] fc6 <- pool5
I0417 15:08:23.721746  3547 net.cpp:408] fc6 -> fc6
I0417 15:08:24.592571  3547 net.cpp:150] Setting up fc6
I0417 15:08:24.592595  3547 net.cpp:157] Top shape: 1 4096 (4096)
I0417 15:08:24.592599  3547 net.cpp:165] Memory required for data: 10172628812
I0417 15:08:24.592609  3547 layer_factory.hpp:77] Creating layer relu6
I0417 15:08:24.592618  3547 net.cpp:100] Creating Layer relu6
I0417 15:08:24.592622  3547 net.cpp:434] relu6 <- fc6
I0417 15:08:24.592629  3547 net.cpp:395] relu6 -> fc6 (in-place)
I0417 15:08:24.593295  3547 net.cpp:150] Setting up relu6
I0417 15:08:24.593308  3547 net.cpp:157] Top shape: 1 4096 (4096)
I0417 15:08:24.593312  3547 net.cpp:165] Memory required for data: 10172645196
I0417 15:08:24.593317  3547 layer_factory.hpp:77] Creating layer drop6
I0417 15:08:24.593329  3547 net.cpp:100] Creating Layer drop6
I0417 15:08:24.593333  3547 net.cpp:434] drop6 <- fc6
I0417 15:08:24.593338  3547 net.cpp:395] drop6 -> fc6 (in-place)
I0417 15:08:24.593365  3547 net.cpp:150] Setting up drop6
I0417 15:08:24.593374  3547 net.cpp:157] Top shape: 1 4096 (4096)
I0417 15:08:24.593376  3547 net.cpp:165] Memory required for data: 10172661580
I0417 15:08:24.593379  3547 layer_factory.hpp:77] Creating layer fc6_drop6_0_split
I0417 15:08:24.593385  3547 net.cpp:100] Creating Layer fc6_drop6_0_split
I0417 15:08:24.593389  3547 net.cpp:434] fc6_drop6_0_split <- fc6
I0417 15:08:24.593394  3547 net.cpp:408] fc6_drop6_0_split -> fc6_drop6_0_split_0
I0417 15:08:24.593400  3547 net.cpp:408] fc6_drop6_0_split -> fc6_drop6_0_split_1
I0417 15:08:24.593432  3547 net.cpp:150] Setting up fc6_drop6_0_split
I0417 15:08:24.593439  3547 net.cpp:157] Top shape: 1 4096 (4096)
I0417 15:08:24.593443  3547 net.cpp:157] Top shape: 1 4096 (4096)
I0417 15:08:24.593446  3547 net.cpp:165] Memory required for data: 10172694348
I0417 15:08:24.593449  3547 layer_factory.hpp:77] Creating layer cls_score
I0417 15:08:24.593456  3547 net.cpp:100] Creating Layer cls_score
I0417 15:08:24.593461  3547 net.cpp:434] cls_score <- fc6_drop6_0_split_0
I0417 15:08:24.593468  3547 net.cpp:408] cls_score -> cls_score
I0417 15:08:24.618036  3547 net.cpp:150] Setting up cls_score
I0417 15:08:24.618062  3547 net.cpp:157] Top shape: 1 201 (201)
I0417 15:08:24.618067  3547 net.cpp:165] Memory required for data: 10172695152
I0417 15:08:24.618077  3547 layer_factory.hpp:77] Creating layer cls_score_cls_score_0_split
I0417 15:08:24.618085  3547 net.cpp:100] Creating Layer cls_score_cls_score_0_split
I0417 15:08:24.618091  3547 net.cpp:434] cls_score_cls_score_0_split <- cls_score
I0417 15:08:24.618098  3547 net.cpp:408] cls_score_cls_score_0_split -> cls_score_cls_score_0_split_0
I0417 15:08:24.618108  3547 net.cpp:408] cls_score_cls_score_0_split -> cls_score_cls_score_0_split_1
I0417 15:08:24.618156  3547 net.cpp:150] Setting up cls_score_cls_score_0_split
I0417 15:08:24.618166  3547 net.cpp:157] Top shape: 1 201 (201)
I0417 15:08:24.618172  3547 net.cpp:157] Top shape: 1 201 (201)
I0417 15:08:24.618176  3547 net.cpp:165] Memory required for data: 10172696760
I0417 15:08:24.618180  3547 layer_factory.hpp:77] Creating layer twin_pred
I0417 15:08:24.618191  3547 net.cpp:100] Creating Layer twin_pred
I0417 15:08:24.618199  3547 net.cpp:434] twin_pred <- fc6_drop6_0_split_1
I0417 15:08:24.618208  3547 net.cpp:408] twin_pred -> twin_pred
I0417 15:08:24.662250  3547 net.cpp:150] Setting up twin_pred
I0417 15:08:24.662271  3547 net.cpp:157] Top shape: 1 402 (402)
I0417 15:08:24.662274  3547 net.cpp:165] Memory required for data: 10172698368
I0417 15:08:24.662283  3547 layer_factory.hpp:77] Creating layer loss_cls
I0417 15:08:24.662292  3547 net.cpp:100] Creating Layer loss_cls
I0417 15:08:24.662297  3547 net.cpp:434] loss_cls <- cls_score_cls_score_0_split_0
I0417 15:08:24.662304  3547 net.cpp:434] loss_cls <- labels_roi-data_1_split_0
I0417 15:08:24.662312  3547 net.cpp:408] loss_cls -> loss_cls
…
