…
stepsize: 350000
snapshot: 0
snapshot_prefix: "./experiments/activitynet/snapshot/activitynet"
average_loss: 100
iter_size: 1
I0418 04:37:24.320924  1654 solver.cpp:81] Creating training net from train_net file: ./experiments/activitynet/train.prototxt
I0418 04:37:24.321996  1654 net.cpp:58] Initializing net from parameters: 
name: "activitynet"
state {
  phase: TRAIN
}
layer {
  name: "data"
  type: "Python"
  top: "data"
  top: "gt_boxes"
  python_param {
    module: "roi_data_layer.layer"
    layer: "RoIDataLayer"
    param_str: "\'num_classes\': 100"
  }
}
layer {
  name: "conv1a"
  type: "Convolution"
  bottom: "data"
  top: "conv1a"
  param {
    lr_mult: 0
    decay_mult: 0
  }
  param {
    lr_mult: 0
    decay_mult: 0
  }
  convolution_param {
    num_output: 64
    pad: 1
    pad: 1
    pad: 1
    kernel_size: 3
    kernel_size: 3
    kernel_size: 3
    weight_filler {
      type: "gaussian"
      std: 0.01
    }
    bias_filler {
      type: "constant"
      value: 0
    }
  }
}
layer {
  name: "relu1a"
  type: "ReLU"
  bottom: "conv1a"
  top: "conv1a"
}
layer {
  name: "pool1"
  type: "Pooling"
  bottom: "conv1a"
  top: "pool1"
  pooling_param {
    pool: MAX
    kernel_size: 1
    kernel_size: 2
    kernel_size: 2
    stride: 1
    stride: 2
    stride: 2
  }
}
layer {
  name: "conv2a"
  type: "Convolution"
  bottom: "pool1"
  top: "conv2a"
  param {
    lr_mult: 0
    decay_mult: 0
  }
  param {
    lr_mult: 0
    decay_mult: 0
  }
  convolution_param {
    num_output: 128
    pad: 1
    pad: 1
    pad: 1
    kernel_size: 3
    kernel_size: 3
    kernel_size: 3
    weight_filler {
      type: "gaussian"
      std: 0.01
    }
    bias_filler {
      type: "constant"
      value: 1
    }
  }
}
layer {
  name: "relu2a"
  type: "ReLU"
  bottom: "conv2a"
  top: "conv2a"
}
layer {
  name: "pool2"
  type: "Pooling"
  bottom: "conv2a"
  top: "pool2"
  pooling_param {
    pool: MAX
    kernel_size: 2
    kernel_size: 2
    kernel_size: 2
    stride: 2
    stride: 2
    stride: 2
  }
}
layer {
  name: "conv3a"
  type: "Convolution"
  bottom: "pool2"
  top: "conv3a"
  param {
    lr_mult: 1
    decay_mult: 1
  }
  param {
    lr_mult: 2
    decay_mult: 0
  }
  convolution_param {
    num_output: 256
    pad: 1
    pad: 1
    pad: 1
    kernel_size: 3
    kernel_size: 3
    kernel_size: 3
    weight_filler {
      type: "gaussian"
      std: 0.01
    }
    bias_filler {
      type: "constant"
      value: 1
    }
  }
}
layer {
  name: "relu3a"
  type: "ReLU"
  bottom: "conv3a"
  top: "conv3a"
}
layer {
  name: "conv3b"
  type: "Convolution"
  bottom: "conv3a"
  top: "conv3b"
  param {
    lr_mult: 1
    decay_mult: 1
  }
  param {
    lr_mult: 2
    decay_mult: 0
  }
  convolution_param {
    num_output: 256
    pad: 1
    pad: 1
    pad: 1
    kernel_size: 3
    kernel_size: 3
    kernel_size: 3
    weight_filler {
      type: "gaussian"
      std: 0.01
    }
    bias_filler {
      type: "constant"
      value: 1
    }
  }
}
layer {
  name: "relu3b"
  type: "ReLU"
  bottom: "conv3b"
  top: "conv3b"
}
layer {
  name: "pool3"
  type: "Pooling"
  bottom: "conv3b"
  top: "pool3"
  pooling_param {
    pool: MAX
    kernel_size: 2
    kernel_size: 2
    kernel_size: 2
    stride: 2
    stride: 2
    stride: 2
  }
}
layer {
  name: "conv4a"
  type: "Convolution"
  bottom: "pool3"
  top: "conv4a"
  param {
    lr_mult: 1
    decay_mult: 1
  }
  param {
    lr_mult: 2
    decay_mult: 0
  }
  convolution_param {
    num_output: 512
    pad: 1
    pad: 1
    pad: 1
    kernel_size: 3
    kernel_size: 3
    kernel_size: 3
    weight_filler {
      type: "gaussian"
      std: 0.01
    }
    bias_filler {
      type: "constant"
      value: 1
    }
  }
}
layer {
  name: "relu4a"
  type: "ReLU"
  bottom: "conv4a"
  top: "conv4a"
}
layer {
  name: "conv4b"
  type: "Convolution"
  bottom: "conv4a"
  top: "conv4b"
  param {
    lr_mult: 1
    decay_mult: 1
  }
  param {
    lr_mult: 2
    decay_mult: 0
  }
  convolution_param {
    num_output: 512
    pad: 1
    pad: 1
    pad: 1
    kernel_size: 3
    kernel_size: 3
    kernel_size: 3
    weight_filler {
      type: "gaussian"
      std: 0.01
    }
    bias_filler {
      type: "constant"
      value: 1
    }
  }
}
layer {
  name: "relu4b"
  type: "ReLU"
  bottom: "conv4b"
  top: "conv4b"
}
layer {
  name: "pool4"
  type: "Pooling"
  bottom: "conv4b"
  top: "pool4"
  pooling_param {
    pool: MAX
    kernel_size: 2
    kernel_size: 2
    kernel_size: 2
    stride: 2
    stride: 2
    stride: 2
  }
}
layer {
  name: "conv5a"
  type: "Convolution"
  bottom: "pool4"
  top: "conv5a"
  param {
    lr_mult: 1
    decay_mult: 1
  }
  param {
    lr_mult: 2
    decay_mult: 0
  }
  convolution_param {
    num_output: 512
    pad: 1
    pad: 1
    pad: 1
    kernel_size: 3
    kernel_size: 3
    kernel_size: 3
    weight_filler {
      type: "gaussian"
      std: 0.01
    }
    bias_filler {
      type: "constant"
      value: 1
    }
  }
}
layer {
  name: "relu5a"
  type: "ReLU"
  bottom: "conv5a"
  top: "conv5a"
}
layer {
  name: "conv5b"
  type: "Convolution"
  bottom: "conv5a"
  top: "conv5b"
  param {
    lr_mult: 1
    decay_mult: 1
  }
  param {
    lr_mult: 2
    decay_mult: 0
  }
  convolution_param {
    num_output: 512
    pad: 1
    pad: 1
    pad: 1
    kernel_size: 3
    kernel_size: 3
    kernel_size: 3
    weight_filler {
      type: "gaussian"
      std: 0.01
    }
    bias_filler {
      type: "constant"
      value: 1
    }
  }
}
layer {
  name: "relu5b"
  type: "ReLU"
  bottom: "conv5b"
  top: "conv5b"
}
layer {
  name: "rpn_conv/3x3"
  type: "Convolution"
  bottom: "conv5b"
  top: "rpn/output"
  param {
    lr_mult: 1
    decay_mult: 1
  }
  param {
    lr_mult: 2
    decay_mult: 0
  }
  convolution_param {
    num_output: 512
    pad: 1
    pad: 1
    pad: 1
    kernel_size: 3
    kernel_size: 3
    kernel_size: 3
    stride: 1
    stride: 2
    stride: 2
    weight_filler {
      type: "gaussian"
      std: 0.01
    }
    bias_filler {
      type: "constant"
      value: 0
    }
  }
}
layer {
  name: "rpn_relu/3x3"
  type: "ReLU"
  bottom: "rpn/output"
  top: "rpn/output"
}
layer {
  name: "rpn_conv/3x3_2"
  type: "Convolution"
  bottom: "rpn/output"
  top: "rpn/output_2"
  param {
    lr_mult: 1
    decay_mult: 1
  }
  param {
    lr_mult: 2
    decay_mult: 0
  }
  convolution_param {
    num_output: 512
    pad: 1
    pad: 1
    pad: 1
    kernel_size: 3
    kernel_size: 3
    kernel_size: 3
    stride: 1
    stride: 2
    stride: 2
    weight_filler {
      type: "gaussian"
      std: 0.01
    }
    bias_filler {
      type: "constant"
      value: 0
    }
  }
}
layer {
  name: "rpn_relu/3x3_2"
  type: "ReLU"
  bottom: "rpn/output_2"
  top: "rpn/output_2"
}
layer {
  name: "rpn/output_pool"
  type: "Pooling"
  bottom: "rpn/output_2"
  top: "rpn/output_pool"
  pooling_param {
    pool: MAX
    kernel_size: 1
    kernel_size: 2
    kernel_size: 2
  }
}
layer {
  name: "rpn_cls_score"
  type: "Convolution"
  bottom: "rpn/output_pool"
  top: "rpn_cls_score"
  param {
    lr_mult: 1
    decay_mult: 1
  }
  param {
    lr_mult: 2
    decay_mult: 0
  }
  convolution_param {
    num_output: 74
    kernel_size: 1
    kernel_size: 1
    kernel_size: 1
    weight_filler {
      type: "gaussian"
      std: 0.01
    }
    bias_filler {
      type: "constant"
      value: 0
    }
  }
}
layer {
  name: "rpn_twin_pred"
  type: "Convolution"
  bottom: "rpn/output_pool"
  top: "rpn_twin_pred"
  param {
    lr_mult: 1
    decay_mult: 1
  }
  param {
    lr_mult: 2
    decay_mult: 0
  }
  convolution_param {
    num_output: 74
    kernel_size: 1
    kernel_size: 1
    kernel_size: 1
    weight_filler {
      type: "gaussian"
      std: 0.01
    }
    bias_filler {
      type: "constant"
      value: 0
    }
  }
}
layer {
  name: "rpn_cls_score_reshape"
  type: "Reshape"
  bottom: "rpn_cls_score"
  top: "rpn_cls_score_reshape"
  reshape_param {
    shape {
      dim: 0
      dim: 2
      dim: -1
      dim: 0
      dim: 0
    }
  }
}
layer {
  name: "rpn-data"
  type: "Python"
  bottom: "rpn_cls_score"
  bottom: "gt_boxes"
  bottom: "data"
  top: "rpn_labels"
  top: "rpn_twin_targets"
  top: "rpn_twin_inside_weights"
  top: "rpn_twin_outside_weights"
  python_param {
    module: "rpn.anchor_target_layer"
    layer: "AnchorTargetLayer"
    param_str: "\'feat_stride\': 8 \n\'scales\': !!python/tuple [1,1.25, 1.5,1.75, 2,2.5, 3,3.5, 4,4.5, 5,5.5, 6,7, 8,9,10,11,12,14,16,18,20,22,24,28,32,36,40,44,52,60,68,76,84,92,100]"
  }
}
layer {
  name: "rpn_loss_cls"
  type: "SoftmaxWithLoss"
  bottom: "rpn_cls_score_reshape"
  bottom: "rpn_labels"
  top: "rpn_cls_loss"
  loss_weight: 1
  propagate_down: true
  propagate_down: false
  loss_param {
    ignore_label: -1
    normalize: true
  }
}
layer {
  name: "rpn_loss_twin"
  type: "SmoothL1Loss"
  bottom: "rpn_twin_pred"
  bottom: "rpn_twin_targets"
  bottom: "rpn_twin_inside_weights"
  bottom: "rpn_twin_outside_weights"
  top: "rpn_loss_twin"
  loss_weight: 1
  smooth_l1_loss_param {
    sigma: 3
  }
}
layer {
  name: "rpn_accuarcy"
  type: "Accuracy"
  bottom: "rpn_cls_score_reshape"
  bottom: "rpn_labels"
  top: "rpn_accuarcy"
  top: "rpn_accuarcy_class"
  propagate_down: false
  propagate_down: false
  accuracy_param {
    ignore_label: -1
  }
}
layer {
  name: "rpn_cls_prob"
  type: "Softmax"
  bottom: "rpn_cls_score_reshape"
  top: "rpn_cls_prob"
}
layer {
  name: "rpn_cls_prob_reshape"
  type: "Reshape"
  bottom: "rpn_cls_prob"
  top: "rpn_cls_prob_reshape"
  reshape_param {
    shape {
      dim: 0
      dim: 74
      dim: -1
      dim: 0
      dim: 0
    }
  }
}
layer {
  name: "proposal"
  type: "Python"
  bottom: "rpn_cls_prob_reshape"
  bottom: "rpn_twin_pred"
  top: "rpn_rois"
  include {
    phase: TRAIN
  }
  python_param {
    module: "rpn.proposal_layer"
    layer: "ProposalLayer"
    param_str: "\'feat_stride\': 8 \n\'scales\': !!python/tuple [1,1.25, 1.5,1.75, 2,2.5, 3,3.5, 4,4.5, 5,5.5, 6,7, 8,9,10,11,12,14,16,18,20,22,24,28,32,36,40,44,52,60,68,76,84,92,100]"
  }
}
layer {
  name: "roi-data"
  type: "Python"
  bottom: "rpn_rois"
  bottom: "gt_boxes"
  top: "rois"
  top: "labels"
  top: "twin_targets"
  top: "twin_inside_weights"
  top: "twin_outside_weights"
  python_param {
    module: "rpn.proposal_target_layer"
    layer: "ProposalTargetLayer"
    param_str: "\'num_classes\': 99"
  }
}
layer {
  name: "roi_pool5"
  type: "ROIPooling"
  bottom: "conv5b"
  bottom: "rois"
  top: "pool5"
  roi_pooling_param {
    pooled_h: 4
    pooled_w: 4
    spatial_scale: 0.0625
    pooled_l: 1
    temporal_scale: 0.125
  }
}
layer {
  name: "fc6"
  type: "InnerProduct"
  bottom: "pool5"
  top: "fc6"
  param {
    lr_mult: 1
    decay_mult: 1
  }
  param {
    lr_mult: 2
    decay_mult: 0
  }
  inner_product_param {
    num_output: 4096
    weight_filler {
      type: "gaussian"
      std: 0.005
    }
    bias_filler {
      type: "constant"
      value: 1
    }
  }
}
layer {
  name: "relu6"
  type: "ReLU"
  bottom: "fc6"
  top: "fc6"
}
layer {
  name: "drop6"
  type: "Dropout"
  bottom: "fc6"
  top: "fc6"
  dropout_param {
    dropout_ratio: 0.5
  }
}
layer {
  name: "cls_score"
  type: "InnerProduct"
  bottom: "fc6"
  top: "cls_score"
  param {
    lr_mult: 1
    decay_mult: 1
  }
  param {
    lr_mult: 2
    decay_mult: 0
  }
  inner_product_param {
    num_output: 99
    weight_filler {
      type: "gaussian"
      std: 0.01
    }
    bias_filler {
      type: "constant"
      value: 0
    }
  }
}
layer {
  name: "twin_pred"
  type: "InnerProduct"
  bottom: "fc6"
  top: "twin_pred"
  param {
    lr_mult: 1
    decay_mult: 1
  }
  param {
    lr_mult: 2
    decay_mult: 0
  }
  inner_product_param {
    num_output: 198
    weight_filler {
      type: "gaussian"
      std: 0.001
    }
    bias_filler {
      type: "constant"
      value: 0
    }
  }
}
layer {
  name: "loss_cls"
  type: "SigmoidCrossEntropyLoss"
  bottom: "labels"
  bottom: "cls_score"
  top: "loss_cls"
  loss_weight: 1
  propagate_down: true
  propagate_down: false
}
layer {
  name: "loss_twin"
  type: "SmoothL1Loss"
  bottom: "twin_pred"
  bottom: "twin_targets"
  bottom: "twin_inside_weights"
  bottom: "twin_outside_weights"
  top: "loss_twin"
  loss_weight: 1
}
layer {
  name: "accuarcy"
  type: "Accuracy"
  bottom: "cls_score"
  bottom: "labels"
  top: "accuarcy"
  propagate_down: false
  propagate_down: false
  accuracy_param {
    ignore_label: -1
  }
}
I0418 04:37:24.322324  1654 layer_factory.hpp:77] Creating layer data
I0418 04:37:24.346913  1654 net.cpp:100] Creating Layer data
I0418 04:37:24.346938  1654 net.cpp:408] data -> data
I0418 04:37:24.346957  1654 net.cpp:408] data -> gt_boxes
setting up
has rpn
RoiDataLayer: name_to_top: {'gt_windows': 1, 'data': 0}
I0418 04:37:24.359850  1654 net.cpp:150] Setting up data
I0418 04:37:24.359875  1654 net.cpp:157] Top shape: 1 3 768 112 112 (28901376)
I0418 04:37:24.359887  1654 net.cpp:157] Top shape: 1 101 (101)
I0418 04:37:24.359894  1654 net.cpp:165] Memory required for data: 115605908
I0418 04:37:24.359905  1654 layer_factory.hpp:77] Creating layer data_data_0_split
I0418 04:37:24.359921  1654 net.cpp:100] Creating Layer data_data_0_split
I0418 04:37:24.359930  1654 net.cpp:434] data_data_0_split <- data
I0418 04:37:24.359939  1654 net.cpp:408] data_data_0_split -> data_data_0_split_0
I0418 04:37:24.359954  1654 net.cpp:408] data_data_0_split -> data_data_0_split_1
I0418 04:37:24.359992  1654 net.cpp:150] Setting up data_data_0_split
I0418 04:37:24.360002  1654 net.cpp:157] Top shape: 1 3 768 112 112 (28901376)
I0418 04:37:24.360009  1654 net.cpp:157] Top shape: 1 3 768 112 112 (28901376)
I0418 04:37:24.360015  1654 net.cpp:165] Memory required for data: 346816916
I0418 04:37:24.360021  1654 layer_factory.hpp:77] Creating layer gt_boxes_data_1_split
I0418 04:37:24.360030  1654 net.cpp:100] Creating Layer gt_boxes_data_1_split
I0418 04:37:24.360036  1654 net.cpp:434] gt_boxes_data_1_split <- gt_boxes
I0418 04:37:24.360044  1654 net.cpp:408] gt_boxes_data_1_split -> gt_boxes_data_1_split_0
I0418 04:37:24.360054  1654 net.cpp:408] gt_boxes_data_1_split -> gt_boxes_data_1_split_1
I0418 04:37:24.360083  1654 net.cpp:150] Setting up gt_boxes_data_1_split
I0418 04:37:24.360092  1654 net.cpp:157] Top shape: 1 101 (101)
I0418 04:37:24.360100  1654 net.cpp:157] Top shape: 1 101 (101)
I0418 04:37:24.360106  1654 net.cpp:165] Memory required for data: 346817724
I0418 04:37:24.360111  1654 layer_factory.hpp:77] Creating layer conv1a
I0418 04:37:24.360131  1654 net.cpp:100] Creating Layer conv1a
I0418 04:37:24.360138  1654 net.cpp:434] conv1a <- data_data_0_split_0
I0418 04:37:24.360147  1654 net.cpp:408] conv1a -> conv1a
I0418 04:37:24.867342  1654 net.cpp:150] Setting up conv1a
I0418 04:37:24.867373  1654 net.cpp:157] Top shape: 1 64 768 112 112 (616562688)
I0418 04:37:24.867379  1654 net.cpp:165] Memory required for data: 2813068476
I0418 04:37:24.867403  1654 layer_factory.hpp:77] Creating layer relu1a
I0418 04:37:24.867422  1654 net.cpp:100] Creating Layer relu1a
I0418 04:37:24.867430  1654 net.cpp:434] relu1a <- conv1a
I0418 04:37:24.867439  1654 net.cpp:395] relu1a -> conv1a (in-place)
I0418 04:37:24.867861  1654 net.cpp:150] Setting up relu1a
I0418 04:37:24.867875  1654 net.cpp:157] Top shape: 1 64 768 112 112 (616562688)
I0418 04:37:24.867882  1654 net.cpp:165] Memory required for data: 5279319228
I0418 04:37:24.867887  1654 layer_factory.hpp:77] Creating layer pool1
I0418 04:37:24.867902  1654 net.cpp:100] Creating Layer pool1
I0418 04:37:24.867908  1654 net.cpp:434] pool1 <- conv1a
I0418 04:37:24.867918  1654 net.cpp:408] pool1 -> pool1
I0418 04:37:24.868100  1654 net.cpp:150] Setting up pool1
I0418 04:37:24.868113  1654 net.cpp:157] Top shape: 1 64 768 56 56 (154140672)
I0418 04:37:24.868119  1654 net.cpp:165] Memory required for data: 5895881916
I0418 04:37:24.868124  1654 layer_factory.hpp:77] Creating layer conv2a
I0418 04:37:24.868140  1654 net.cpp:100] Creating Layer conv2a
I0418 04:37:24.868151  1654 net.cpp:434] conv2a <- pool1
I0418 04:37:24.868161  1654 net.cpp:408] conv2a -> conv2a
I0418 04:37:24.879361  1654 net.cpp:150] Setting up conv2a
I0418 04:37:24.879387  1654 net.cpp:157] Top shape: 1 128 768 56 56 (308281344)
I0418 04:37:24.879393  1654 net.cpp:165] Memory required for data: 7129007292
I0418 04:37:24.879411  1654 layer_factory.hpp:77] Creating layer relu2a
I0418 04:37:24.879426  1654 net.cpp:100] Creating Layer relu2a
I0418 04:37:24.879433  1654 net.cpp:434] relu2a <- conv2a
I0418 04:37:24.879443  1654 net.cpp:395] relu2a -> conv2a (in-place)
I0418 04:37:24.879828  1654 net.cpp:150] Setting up relu2a
I0418 04:37:24.879842  1654 net.cpp:157] Top shape: 1 128 768 56 56 (308281344)
I0418 04:37:24.879848  1654 net.cpp:165] Memory required for data: 8362132668
I0418 04:37:24.879854  1654 layer_factory.hpp:77] Creating layer pool2
I0418 04:37:24.879868  1654 net.cpp:100] Creating Layer pool2
I0418 04:37:24.879875  1654 net.cpp:434] pool2 <- conv2a
I0418 04:37:24.879884  1654 net.cpp:408] pool2 -> pool2
I0418 04:37:24.880064  1654 net.cpp:150] Setting up pool2
I0418 04:37:24.880076  1654 net.cpp:157] Top shape: 1 128 384 28 28 (38535168)
I0418 04:37:24.880082  1654 net.cpp:165] Memory required for data: 8516273340
I0418 04:37:24.880089  1654 layer_factory.hpp:77] Creating layer conv3a
I0418 04:37:24.880103  1654 net.cpp:100] Creating Layer conv3a
I0418 04:37:24.880115  1654 net.cpp:434] conv3a <- pool2
I0418 04:37:24.880125  1654 net.cpp:408] conv3a -> conv3a
I0418 04:37:24.907248  1654 net.cpp:150] Setting up conv3a
I0418 04:37:24.907272  1654 net.cpp:157] Top shape: 1 256 384 28 28 (77070336)
I0418 04:37:24.907279  1654 net.cpp:165] Memory required for data: 8824554684
I0418 04:37:24.907295  1654 layer_factory.hpp:77] Creating layer relu3a
I0418 04:37:24.907308  1654 net.cpp:100] Creating Layer relu3a
I0418 04:37:24.907316  1654 net.cpp:434] relu3a <- conv3a
I0418 04:37:24.907326  1654 net.cpp:395] relu3a -> conv3a (in-place)
I0418 04:37:24.907622  1654 net.cpp:150] Setting up relu3a
I0418 04:37:24.907636  1654 net.cpp:157] Top shape: 1 256 384 28 28 (77070336)
I0418 04:37:24.907642  1654 net.cpp:165] Memory required for data: 9132836028
I0418 04:37:24.907649  1654 layer_factory.hpp:77] Creating layer conv3b
I0418 04:37:24.907665  1654 net.cpp:100] Creating Layer conv3b
I0418 04:37:24.907670  1654 net.cpp:434] conv3b <- conv3a
I0418 04:37:24.907680  1654 net.cpp:408] conv3b -> conv3b
I0418 04:37:24.957819  1654 net.cpp:150] Setting up conv3b
I0418 04:37:24.957844  1654 net.cpp:157] Top shape: 1 256 384 28 28 (77070336)
I0418 04:37:24.957850  1654 net.cpp:165] Memory required for data: 9441117372
I0418 04:37:24.957864  1654 layer_factory.hpp:77] Creating layer relu3b
I0418 04:37:24.957875  1654 net.cpp:100] Creating Layer relu3b
I0418 04:37:24.957883  1654 net.cpp:434] relu3b <- conv3b
I0418 04:37:24.957893  1654 net.cpp:395] relu3b -> conv3b (in-place)
I0418 04:37:24.958184  1654 net.cpp:150] Setting up relu3b
I0418 04:37:24.958197  1654 net.cpp:157] Top shape: 1 256 384 28 28 (77070336)
I0418 04:37:24.958204  1654 net.cpp:165] Memory required for data: 9749398716
I0418 04:37:24.958210  1654 layer_factory.hpp:77] Creating layer pool3
I0418 04:37:24.958221  1654 net.cpp:100] Creating Layer pool3
I0418 04:37:24.958227  1654 net.cpp:434] pool3 <- conv3b
I0418 04:37:24.958236  1654 net.cpp:408] pool3 -> pool3
I0418 04:37:24.958405  1654 net.cpp:150] Setting up pool3
I0418 04:37:24.958417  1654 net.cpp:157] Top shape: 1 256 192 14 14 (9633792)
I0418 04:37:24.958422  1654 net.cpp:165] Memory required for data: 9787933884
I0418 04:37:24.958428  1654 layer_factory.hpp:77] Creating layer conv4a
I0418 04:37:24.958443  1654 net.cpp:100] Creating Layer conv4a
I0418 04:37:24.958449  1654 net.cpp:434] conv4a <- pool3
I0418 04:37:24.958459  1654 net.cpp:408] conv4a -> conv4a
I0418 04:37:25.052820  1654 net.cpp:150] Setting up conv4a
I0418 04:37:25.052846  1654 net.cpp:157] Top shape: 1 512 192 14 14 (19267584)
I0418 04:37:25.052852  1654 net.cpp:165] Memory required for data: 9865004220
I0418 04:37:25.052871  1654 layer_factory.hpp:77] Creating layer relu4a
I0418 04:37:25.052884  1654 net.cpp:100] Creating Layer relu4a
I0418 04:37:25.052892  1654 net.cpp:434] relu4a <- conv4a
I0418 04:37:25.052908  1654 net.cpp:395] relu4a -> conv4a (in-place)
I0418 04:37:25.053201  1654 net.cpp:150] Setting up relu4a
I0418 04:37:25.053215  1654 net.cpp:157] Top shape: 1 512 192 14 14 (19267584)
I0418 04:37:25.053221  1654 net.cpp:165] Memory required for data: 9942074556
I0418 04:37:25.053228  1654 layer_factory.hpp:77] Creating layer conv4b
I0418 04:37:25.053246  1654 net.cpp:100] Creating Layer conv4b
I0418 04:37:25.053258  1654 net.cpp:434] conv4b <- conv4a
I0418 04:37:25.053268  1654 net.cpp:408] conv4b -> conv4b
I0418 04:37:25.240252  1654 net.cpp:150] Setting up conv4b
I0418 04:37:25.240278  1654 net.cpp:157] Top shape: 1 512 192 14 14 (19267584)
I0418 04:37:25.240284  1654 net.cpp:165] Memory required for data: 10019144892
I0418 04:37:25.240298  1654 layer_factory.hpp:77] Creating layer relu4b
I0418 04:37:25.240309  1654 net.cpp:100] Creating Layer relu4b
I0418 04:37:25.240317  1654 net.cpp:434] relu4b <- conv4b
I0418 04:37:25.240327  1654 net.cpp:395] relu4b -> conv4b (in-place)
I0418 04:37:25.240479  1654 net.cpp:150] Setting up relu4b
I0418 04:37:25.240492  1654 net.cpp:157] Top shape: 1 512 192 14 14 (19267584)
I0418 04:37:25.240499  1654 net.cpp:165] Memory required for data: 10096215228
I0418 04:37:25.240504  1654 layer_factory.hpp:77] Creating layer pool4
I0418 04:37:25.240515  1654 net.cpp:100] Creating Layer pool4
I0418 04:37:25.240522  1654 net.cpp:434] pool4 <- conv4b
I0418 04:37:25.240531  1654 net.cpp:408] pool4 -> pool4
I0418 04:37:25.240852  1654 net.cpp:150] Setting up pool4
I0418 04:37:25.240866  1654 net.cpp:157] Top shape: 1 512 96 7 7 (2408448)
I0418 04:37:25.240872  1654 net.cpp:165] Memory required for data: 10105849020
I0418 04:37:25.240880  1654 layer_factory.hpp:77] Creating layer conv5a
I0418 04:37:25.240893  1654 net.cpp:100] Creating Layer conv5a
I0418 04:37:25.240900  1654 net.cpp:434] conv5a <- pool4
I0418 04:37:25.240911  1654 net.cpp:408] conv5a -> conv5a
I0418 04:37:25.427117  1654 net.cpp:150] Setting up conv5a
I0418 04:37:25.427143  1654 net.cpp:157] Top shape: 1 512 96 7 7 (2408448)
I0418 04:37:25.427150  1654 net.cpp:165] Memory required for data: 10115482812
I0418 04:37:25.427161  1654 layer_factory.hpp:77] Creating layer relu5a
I0418 04:37:25.427175  1654 net.cpp:100] Creating Layer relu5a
I0418 04:37:25.427182  1654 net.cpp:434] relu5a <- conv5a
I0418 04:37:25.427192  1654 net.cpp:395] relu5a -> conv5a (in-place)
I0418 04:37:25.427608  1654 net.cpp:150] Setting up relu5a
I0418 04:37:25.427623  1654 net.cpp:157] Top shape: 1 512 96 7 7 (2408448)
I0418 04:37:25.427628  1654 net.cpp:165] Memory required for data: 10125116604
I0418 04:37:25.427635  1654 layer_factory.hpp:77] Creating layer conv5b
I0418 04:37:25.427650  1654 net.cpp:100] Creating Layer conv5b
I0418 04:37:25.427657  1654 net.cpp:434] conv5b <- conv5a
I0418 04:37:25.427667  1654 net.cpp:408] conv5b -> conv5b
I0418 04:37:25.614806  1654 net.cpp:150] Setting up conv5b
I0418 04:37:25.614832  1654 net.cpp:157] Top shape: 1 512 96 7 7 (2408448)
I0418 04:37:25.614838  1654 net.cpp:165] Memory required for data: 10134750396
I0418 04:37:25.614851  1654 layer_factory.hpp:77] Creating layer relu5b
I0418 04:37:25.614866  1654 net.cpp:100] Creating Layer relu5b
I0418 04:37:25.614873  1654 net.cpp:434] relu5b <- conv5b
I0418 04:37:25.614883  1654 net.cpp:395] relu5b -> conv5b (in-place)
I0418 04:37:25.615033  1654 net.cpp:150] Setting up relu5b
I0418 04:37:25.615046  1654 net.cpp:157] Top shape: 1 512 96 7 7 (2408448)
I0418 04:37:25.615051  1654 net.cpp:165] Memory required for data: 10144384188
I0418 04:37:25.615058  1654 layer_factory.hpp:77] Creating layer conv5b_relu5b_0_split
I0418 04:37:25.615067  1654 net.cpp:100] Creating Layer conv5b_relu5b_0_split
I0418 04:37:25.615073  1654 net.cpp:434] conv5b_relu5b_0_split <- conv5b
I0418 04:37:25.615082  1654 net.cpp:408] conv5b_relu5b_0_split -> conv5b_relu5b_0_split_0
I0418 04:37:25.615092  1654 net.cpp:408] conv5b_relu5b_0_split -> conv5b_relu5b_0_split_1
I0418 04:37:25.615139  1654 net.cpp:150] Setting up conv5b_relu5b_0_split
I0418 04:37:25.615149  1654 net.cpp:157] Top shape: 1 512 96 7 7 (2408448)
I0418 04:37:25.615156  1654 net.cpp:157] Top shape: 1 512 96 7 7 (2408448)
I0418 04:37:25.615162  1654 net.cpp:165] Memory required for data: 10163651772
I0418 04:37:25.615169  1654 layer_factory.hpp:77] Creating layer rpn_conv/3x3
I0418 04:37:25.615182  1654 net.cpp:100] Creating Layer rpn_conv/3x3
I0418 04:37:25.615190  1654 net.cpp:434] rpn_conv/3x3 <- conv5b_relu5b_0_split_0
I0418 04:37:25.615200  1654 net.cpp:408] rpn_conv/3x3 -> rpn/output
I0418 04:37:25.804213  1654 net.cpp:150] Setting up rpn_conv/3x3
I0418 04:37:25.804237  1654 net.cpp:157] Top shape: 1 512 96 4 4 (786432)
I0418 04:37:25.804244  1654 net.cpp:165] Memory required for data: 10166797500
I0418 04:37:25.804261  1654 layer_factory.hpp:77] Creating layer rpn_relu/3x3
I0418 04:37:25.804275  1654 net.cpp:100] Creating Layer rpn_relu/3x3
I0418 04:37:25.804281  1654 net.cpp:434] rpn_relu/3x3 <- rpn/output
I0418 04:37:25.804294  1654 net.cpp:395] rpn_relu/3x3 -> rpn/output (in-place)
I0418 04:37:25.805382  1654 net.cpp:150] Setting up rpn_relu/3x3
I0418 04:37:25.805397  1654 net.cpp:157] Top shape: 1 512 96 4 4 (786432)
I0418 04:37:25.805402  1654 net.cpp:165] Memory required for data: 10169943228
I0418 04:37:25.805408  1654 layer_factory.hpp:77] Creating layer rpn_conv/3x3_2
I0418 04:37:25.805424  1654 net.cpp:100] Creating Layer rpn_conv/3x3_2
I0418 04:37:25.805434  1654 net.cpp:434] rpn_conv/3x3_2 <- rpn/output
I0418 04:37:25.805447  1654 net.cpp:408] rpn_conv/3x3_2 -> rpn/output_2
I0418 04:37:25.993746  1654 net.cpp:150] Setting up rpn_conv/3x3_2
I0418 04:37:25.993772  1654 net.cpp:157] Top shape: 1 512 96 2 2 (196608)
I0418 04:37:25.993778  1654 net.cpp:165] Memory required for data: 10170729660
I0418 04:37:25.993790  1654 layer_factory.hpp:77] Creating layer rpn_relu/3x3_2
I0418 04:37:25.993803  1654 net.cpp:100] Creating Layer rpn_relu/3x3_2
I0418 04:37:25.993811  1654 net.cpp:434] rpn_relu/3x3_2 <- rpn/output_2
I0418 04:37:25.993820  1654 net.cpp:395] rpn_relu/3x3_2 -> rpn/output_2 (in-place)
I0418 04:37:25.994169  1654 net.cpp:150] Setting up rpn_relu/3x3_2
I0418 04:37:25.994184  1654 net.cpp:157] Top shape: 1 512 96 2 2 (196608)
I0418 04:37:25.994190  1654 net.cpp:165] Memory required for data: 10171516092
I0418 04:37:25.994197  1654 layer_factory.hpp:77] Creating layer rpn/output_pool
I0418 04:37:25.994207  1654 net.cpp:100] Creating Layer rpn/output_pool
I0418 04:37:25.994213  1654 net.cpp:434] rpn/output_pool <- rpn/output_2
I0418 04:37:25.994225  1654 net.cpp:408] rpn/output_pool -> rpn/output_pool
I0418 04:37:25.994415  1654 net.cpp:150] Setting up rpn/output_pool
I0418 04:37:25.994429  1654 net.cpp:157] Top shape: 1 512 96 1 1 (49152)
I0418 04:37:25.994434  1654 net.cpp:165] Memory required for data: 10171712700
I0418 04:37:25.994441  1654 layer_factory.hpp:77] Creating layer rpn/output_pool_rpn/output_pool_0_split
I0418 04:37:25.994451  1654 net.cpp:100] Creating Layer rpn/output_pool_rpn/output_pool_0_split
I0418 04:37:25.994457  1654 net.cpp:434] rpn/output_pool_rpn/output_pool_0_split <- rpn/output_pool
I0418 04:37:25.994465  1654 net.cpp:408] rpn/output_pool_rpn/output_pool_0_split -> rpn/output_pool_rpn/output_pool_0_split_0
I0418 04:37:25.994475  1654 net.cpp:408] rpn/output_pool_rpn/output_pool_0_split -> rpn/output_pool_rpn/output_pool_0_split_1
I0418 04:37:25.994518  1654 net.cpp:150] Setting up rpn/output_pool_rpn/output_pool_0_split
I0418 04:37:25.994527  1654 net.cpp:157] Top shape: 1 512 96 1 1 (49152)
I0418 04:37:25.994534  1654 net.cpp:157] Top shape: 1 512 96 1 1 (49152)
I0418 04:37:25.994539  1654 net.cpp:165] Memory required for data: 10172105916
I0418 04:37:25.994545  1654 layer_factory.hpp:77] Creating layer rpn_cls_score
I0418 04:37:25.994560  1654 net.cpp:100] Creating Layer rpn_cls_score
I0418 04:37:25.994568  1654 net.cpp:434] rpn_cls_score <- rpn/output_pool_rpn/output_pool_0_split_0
I0418 04:37:25.994580  1654 net.cpp:408] rpn_cls_score -> rpn_cls_score
I0418 04:37:25.996687  1654 net.cpp:150] Setting up rpn_cls_score
I0418 04:37:25.996701  1654 net.cpp:157] Top shape: 1 74 96 1 1 (7104)
I0418 04:37:25.996707  1654 net.cpp:165] Memory required for data: 10172134332
I0418 04:37:25.996717  1654 layer_factory.hpp:77] Creating layer rpn_cls_score_rpn_cls_score_0_split
I0418 04:37:25.996728  1654 net.cpp:100] Creating Layer rpn_cls_score_rpn_cls_score_0_split
I0418 04:37:25.996734  1654 net.cpp:434] rpn_cls_score_rpn_cls_score_0_split <- rpn_cls_score
I0418 04:37:25.996742  1654 net.cpp:408] rpn_cls_score_rpn_cls_score_0_split -> rpn_cls_score_rpn_cls_score_0_split_0
I0418 04:37:25.996760  1654 net.cpp:408] rpn_cls_score_rpn_cls_score_0_split -> rpn_cls_score_rpn_cls_score_0_split_1
I0418 04:37:25.996812  1654 net.cpp:150] Setting up rpn_cls_score_rpn_cls_score_0_split
I0418 04:37:25.996822  1654 net.cpp:157] Top shape: 1 74 96 1 1 (7104)
I0418 04:37:25.996829  1654 net.cpp:157] Top shape: 1 74 96 1 1 (7104)
I0418 04:37:25.996834  1654 net.cpp:165] Memory required for data: 10172191164
I0418 04:37:25.996842  1654 layer_factory.hpp:77] Creating layer rpn_twin_pred
I0418 04:37:25.996862  1654 net.cpp:100] Creating Layer rpn_twin_pred
I0418 04:37:25.996870  1654 net.cpp:434] rpn_twin_pred <- rpn/output_pool_rpn/output_pool_0_split_1
I0418 04:37:25.996881  1654 net.cpp:408] rpn_twin_pred -> rpn_twin_pred
I0418 04:37:25.998811  1654 net.cpp:150] Setting up rpn_twin_pred
I0418 04:37:25.998827  1654 net.cpp:157] Top shape: 1 74 96 1 1 (7104)
I0418 04:37:25.998832  1654 net.cpp:165] Memory required for data: 10172219580
I0418 04:37:25.998843  1654 layer_factory.hpp:77] Creating layer rpn_twin_pred_rpn_twin_pred_0_split
I0418 04:37:25.998852  1654 net.cpp:100] Creating Layer rpn_twin_pred_rpn_twin_pred_0_split
I0418 04:37:25.998859  1654 net.cpp:434] rpn_twin_pred_rpn_twin_pred_0_split <- rpn_twin_pred
I0418 04:37:25.998867  1654 net.cpp:408] rpn_twin_pred_rpn_twin_pred_0_split -> rpn_twin_pred_rpn_twin_pred_0_split_0
I0418 04:37:25.998878  1654 net.cpp:408] rpn_twin_pred_rpn_twin_pred_0_split -> rpn_twin_pred_rpn_twin_pred_0_split_1
I0418 04:37:25.998929  1654 net.cpp:150] Setting up rpn_twin_pred_rpn_twin_pred_0_split
I0418 04:37:25.998940  1654 net.cpp:157] Top shape: 1 74 96 1 1 (7104)
I0418 04:37:25.998946  1654 net.cpp:157] Top shape: 1 74 96 1 1 (7104)
I0418 04:37:25.998952  1654 net.cpp:165] Memory required for data: 10172276412
I0418 04:37:25.998958  1654 layer_factory.hpp:77] Creating layer rpn_cls_score_reshape
I0418 04:37:25.998972  1654 net.cpp:100] Creating Layer rpn_cls_score_reshape
I0418 04:37:25.998982  1654 net.cpp:434] rpn_cls_score_reshape <- rpn_cls_score_rpn_cls_score_0_split_0
I0418 04:37:25.998993  1654 net.cpp:408] rpn_cls_score_reshape -> rpn_cls_score_reshape
I0418 04:37:25.999042  1654 net.cpp:150] Setting up rpn_cls_score_reshape
I0418 04:37:25.999053  1654 net.cpp:157] Top shape: 1 2 3552 1 1 (7104)
I0418 04:37:25.999058  1654 net.cpp:165] Memory required for data: 10172304828
I0418 04:37:25.999063  1654 layer_factory.hpp:77] Creating layer rpn_cls_score_reshape_rpn_cls_score_reshape_0_split
I0418 04:37:25.999071  1654 net.cpp:100] Creating Layer rpn_cls_score_reshape_rpn_cls_score_reshape_0_split
I0418 04:37:25.999078  1654 net.cpp:434] rpn_cls_score_reshape_rpn_cls_score_reshape_0_split <- rpn_cls_score_reshape
I0418 04:37:25.999085  1654 net.cpp:408] rpn_cls_score_reshape_rpn_cls_score_reshape_0_split -> rpn_cls_score_reshape_rpn_cls_score_reshape_0_split_0
I0418 04:37:25.999101  1654 net.cpp:408] rpn_cls_score_reshape_rpn_cls_score_reshape_0_split -> rpn_cls_score_reshape_rpn_cls_score_reshape_0_split_1
I0418 04:37:25.999112  1654 net.cpp:408] rpn_cls_score_reshape_rpn_cls_score_reshape_0_split -> rpn_cls_score_reshape_rpn_cls_score_reshape_0_split_2
I0418 04:37:25.999166  1654 net.cpp:150] Setting up rpn_cls_score_reshape_rpn_cls_score_reshape_0_split
I0418 04:37:25.999176  1654 net.cpp:157] Top shape: 1 2 3552 1 1 (7104)
I0418 04:37:25.999182  1654 net.cpp:157] Top shape: 1 2 3552 1 1 (7104)
I0418 04:37:25.999189  1654 net.cpp:157] Top shape: 1 2 3552 1 1 (7104)
I0418 04:37:25.999194  1654 net.cpp:165] Memory required for data: 10172390076
I0418 04:37:25.999199  1654 layer_factory.hpp:77] Creating layer rpn-data
I0418 04:37:25.999594  1654 net.cpp:100] Creating Layer rpn-data
I0418 04:37:25.999608  1654 net.cpp:434] rpn-data <- rpn_cls_score_rpn_cls_score_0_split_1
I0418 04:37:25.999616  1654 net.cpp:434] rpn-data <- gt_boxes_data_1_split_0
I0418 04:37:25.999624  1654 net.cpp:434] rpn-data <- data_data_0_split_1
I0418 04:37:25.999634  1654 net.cpp:408] rpn-data -> rpn_labels
I0418 04:37:25.999645  1654 net.cpp:408] rpn-data -> rpn_twin_targets
I0418 04:37:25.999657  1654 net.cpp:408] rpn-data -> rpn_twin_inside_weights
I0418 04:37:25.999668  1654 net.cpp:408] rpn-data -> rpn_twin_outside_weights
I0418 04:37:26.001904  1654 net.cpp:150] Setting up rpn-data
I0418 04:37:26.001920  1654 net.cpp:157] Top shape: 1 1 3552 1 1 (3552)
I0418 04:37:26.001927  1654 net.cpp:157] Top shape: 1 74 96 1 1 (7104)
I0418 04:37:26.001935  1654 net.cpp:157] Top shape: 1 74 96 1 1 (7104)
I0418 04:37:26.001941  1654 net.cpp:157] Top shape: 1 74 96 1 1 (7104)
I0418 04:37:26.001947  1654 net.cpp:165] Memory required for data: 10172489532
I0418 04:37:26.001955  1654 layer_factory.hpp:77] Creating layer rpn_labels_rpn-data_0_split
I0418 04:37:26.001963  1654 net.cpp:100] Creating Layer rpn_labels_rpn-data_0_split
I0418 04:37:26.001971  1654 net.cpp:434] rpn_labels_rpn-data_0_split <- rpn_labels
I0418 04:37:26.001979  1654 net.cpp:408] rpn_labels_rpn-data_0_split -> rpn_labels_rpn-data_0_split_0
I0418 04:37:26.001991  1654 net.cpp:408] rpn_labels_rpn-data_0_split -> rpn_labels_rpn-data_0_split_1
I0418 04:37:26.002038  1654 net.cpp:150] Setting up rpn_labels_rpn-data_0_split
I0418 04:37:26.002050  1654 net.cpp:157] Top shape: 1 1 3552 1 1 (3552)
I0418 04:37:26.002058  1654 net.cpp:157] Top shape: 1 1 3552 1 1 (3552)
I0418 04:37:26.002063  1654 net.cpp:165] Memory required for data: 10172517948
I0418 04:37:26.002070  1654 layer_factory.hpp:77] Creating layer rpn_loss_cls
I0418 04:37:26.002082  1654 net.cpp:100] Creating Layer rpn_loss_cls
I0418 04:37:26.002091  1654 net.cpp:434] rpn_loss_cls <- rpn_cls_score_reshape_rpn_cls_score_reshape_0_split_0
I0418 04:37:26.002099  1654 net.cpp:434] rpn_loss_cls <- rpn_labels_rpn-data_0_split_0
…
I0418 04:37:26.003012  1654 layer_factory.hpp:77] Creating layer rpn_accuarcy
I0418 04:37:26.003024  1654 net.cpp:100] Creating Layer rpn_accuarcy
I0418 04:37:26.003033  1654 net.cpp:434] rpn_accuarcy <- rpn_cls_score_reshape_rpn_cls_score_reshape_0_split_1
I0418 04:37:26.003041  1654 net.cpp:434] rpn_accuarcy <- rpn_labels_rpn-data_0_split_1
I0418 04:37:26.003051  1654 net.cpp:408] rpn_accuarcy -> rpn_accuarcy
I0418 04:37:26.003062  1654 net.cpp:408] rpn_accuarcy -> rpn_accuarcy_class
I0418 04:37:26.003106  1654 net.cpp:150] Setting up rpn_accuarcy
I0418 04:37:26.003118  1654 net.cpp:157] Top shape: (1)
I0418 04:37:26.003125  1654 net.cpp:157] Top shape: 2 (2)
I0418 04:37:26.003130  1654 net.cpp:165] Memory required for data: 10172517968
I0418 04:37:26.003136  1654 layer_factory.hpp:77] Creating layer rpn_cls_prob
I0418 04:37:26.003144  1654 net.cpp:100] Creating Layer rpn_cls_prob
I0418 04:37:26.003150  1654 net.cpp:434] rpn_cls_prob <- rpn_cls_score_reshape_rpn_cls_score_reshape_0_split_2
I0418 04:37:26.003159  1654 net.cpp:408] rpn_cls_prob -> rpn_cls_prob
I0418 04:37:26.003365  1654 net.cpp:150] Setting up rpn_cls_prob
I0418 04:37:26.003376  1654 net.cpp:157] Top shape: 1 2 3552 1 1 (7104)
I0418 04:37:26.003382  1654 net.cpp:165] Memory required for data: 10172546384
I0418 04:37:26.003388  1654 layer_factory.hpp:77] Creating layer rpn_cls_prob_reshape
I0418 04:37:26.003401  1654 net.cpp:100] Creating Layer rpn_cls_prob_reshape
I0418 04:37:26.003407  1654 net.cpp:434] rpn_cls_prob_reshape <- rpn_cls_prob
I0418 04:37:26.003417  1654 net.cpp:408] rpn_cls_prob_reshape -> rpn_cls_prob_reshape
I0418 04:37:26.003449  1654 net.cpp:150] Setting up rpn_cls_prob_reshape
I0418 04:37:26.003459  1654 net.cpp:157] Top shape: 1 74 96 1 1 (7104)
I0418 04:37:26.003464  1654 net.cpp:165] Memory required for data: 10172574800
I0418 04:37:26.003470  1654 layer_factory.hpp:77] Creating layer proposal
I0418 04:37:26.004007  1654 net.cpp:100] Creating Layer proposal
I0418 04:37:26.004020  1654 net.cpp:434] proposal <- rpn_cls_prob_reshape
I0418 04:37:26.004029  1654 net.cpp:434] proposal <- rpn_twin_pred_rpn_twin_pred_0_split_1
I0418 04:37:26.004039  1654 net.cpp:408] proposal -> rpn_rois
I0418 04:37:26.006196  1654 net.cpp:150] Setting up proposal
I0418 04:37:26.006212  1654 net.cpp:157] Top shape: 1 3 (3)
I0418 04:37:26.006218  1654 net.cpp:165] Memory required for data: 10172574812
I0418 04:37:26.006225  1654 layer_factory.hpp:77] Creating layer roi-data
I0418 04:37:26.006363  1654 net.cpp:100] Creating Layer roi-data
I0418 04:37:26.006374  1654 net.cpp:434] roi-data <- rpn_rois
I0418 04:37:26.006382  1654 net.cpp:434] roi-data <- gt_boxes_data_1_split_1
I0418 04:37:26.006392  1654 net.cpp:408] roi-data -> rois
I0418 04:37:26.006404  1654 net.cpp:408] roi-data -> labels
I0418 04:37:26.006414  1654 net.cpp:408] roi-data -> twin_targets
I0418 04:37:26.006425  1654 net.cpp:408] roi-data -> twin_inside_weights
I0418 04:37:26.006436  1654 net.cpp:408] roi-data -> twin_outside_weights
I0418 04:37:26.006747  1654 net.cpp:150] Setting up roi-data
I0418 04:37:26.006777  1654 net.cpp:157] Top shape: 1 3 (3)
I0418 04:37:26.006785  1654 net.cpp:157] Top shape: 1 1 (1)
I0418 04:37:26.006793  1654 net.cpp:157] Top shape: 1 198 (198)
I0418 04:37:26.006800  1654 net.cpp:157] Top shape: 1 198 (198)
I0418 04:37:26.006806  1654 net.cpp:157] Top shape: 1 198 (198)
I0418 04:37:26.006813  1654 net.cpp:165] Memory required for data: 10172577204
I0418 04:37:26.006819  1654 layer_factory.hpp:77] Creating layer labels_roi-data_1_split
I0418 04:37:26.006829  1654 net.cpp:100] Creating Layer labels_roi-data_1_split
I0418 04:37:26.006834  1654 net.cpp:434] labels_roi-data_1_split <- labels
I0418 04:37:26.006844  1654 net.cpp:408] labels_roi-data_1_split -> labels_roi-data_1_split_0
I0418 04:37:26.006856  1654 net.cpp:408] labels_roi-data_1_split -> labels_roi-data_1_split_1
I0418 04:37:26.006899  1654 net.cpp:150] Setting up labels_roi-data_1_split
I0418 04:37:26.006909  1654 net.cpp:157] Top shape: 1 1 (1)
I0418 04:37:26.006916  1654 net.cpp:157] Top shape: 1 1 (1)
I0418 04:37:26.006922  1654 net.cpp:165] Memory required for data: 10172577212
I0418 04:37:26.006927  1654 layer_factory.hpp:77] Creating layer roi_pool5
I0418 04:37:26.006940  1654 net.cpp:100] Creating Layer roi_pool5
I0418 04:37:26.006949  1654 net.cpp:434] roi_pool5 <- conv5b_relu5b_0_split_1
I0418 04:37:26.006958  1654 net.cpp:434] roi_pool5 <- rois
I0418 04:37:26.006966  1654 net.cpp:408] roi_pool5 -> pool5
I0418 04:37:26.006979  1654 roi_pooling_layer.cpp:34] Temporal scale: 0.125
I0418 04:37:26.006990  1654 roi_pooling_layer.cpp:35] Spatial scale: 0.0625
I0418 04:37:26.007035  1654 net.cpp:150] Setting up roi_pool5
I0418 04:37:26.007045  1654 net.cpp:157] Top shape: 1 512 1 4 4 (8192)
I0418 04:37:26.007050  1654 net.cpp:165] Memory required for data: 10172609980
I0418 04:37:26.007055  1654 layer_factory.hpp:77] Creating layer fc6
I0418 04:37:26.007068  1654 net.cpp:100] Creating Layer fc6
I0418 04:37:26.007077  1654 net.cpp:434] fc6 <- pool5
I0418 04:37:26.007087  1654 net.cpp:408] fc6 -> fc6
I0418 04:37:26.892823  1654 net.cpp:150] Setting up fc6
I0418 04:37:26.892850  1654 net.cpp:157] Top shape: 1 4096 (4096)
I0418 04:37:26.892856  1654 net.cpp:165] Memory required for data: 10172626364
I0418 04:37:26.892869  1654 layer_factory.hpp:77] Creating layer relu6
I0418 04:37:26.892886  1654 net.cpp:100] Creating Layer relu6
I0418 04:37:26.892894  1654 net.cpp:434] relu6 <- fc6
I0418 04:37:26.892902  1654 net.cpp:395] relu6 -> fc6 (in-place)
I0418 04:37:26.893299  1654 net.cpp:150] Setting up relu6
I0418 04:37:26.893312  1654 net.cpp:157] Top shape: 1 4096 (4096)
I0418 04:37:26.893316  1654 net.cpp:165] Memory required for data: 10172642748
I0418 04:37:26.893321  1654 layer_factory.hpp:77] Creating layer drop6
I0418 04:37:26.893335  1654 net.cpp:100] Creating Layer drop6
I0418 04:37:26.893342  1654 net.cpp:434] drop6 <- fc6
I0418 04:37:26.893347  1654 net.cpp:395] drop6 -> fc6 (in-place)
I0418 04:37:26.893374  1654 net.cpp:150] Setting up drop6
I0418 04:37:26.893384  1654 net.cpp:157] Top shape: 1 4096 (4096)
I0418 04:37:26.893388  1654 net.cpp:165] Memory required for data: 10172659132
I0418 04:37:26.893393  1654 layer_factory.hpp:77] Creating layer fc6_drop6_0_split
I0418 04:37:26.893399  1654 net.cpp:100] Creating Layer fc6_drop6_0_split
I0418 04:37:26.893402  1654 net.cpp:434] fc6_drop6_0_split <- fc6
I0418 04:37:26.893409  1654 net.cpp:408] fc6_drop6_0_split -> fc6_drop6_0_split_0
I0418 04:37:26.893414  1654 net.cpp:408] fc6_drop6_0_split -> fc6_drop6_0_split_1
I0418 04:37:26.893447  1654 net.cpp:150] Setting up fc6_drop6_0_split
I0418 04:37:26.893455  1654 net.cpp:157] Top shape: 1 4096 (4096)
I0418 04:37:26.893458  1654 net.cpp:157] Top shape: 1 4096 (4096)
I0418 04:37:26.893462  1654 net.cpp:165] Memory required for data: 10172691900
I0418 04:37:26.893465  1654 layer_factory.hpp:77] Creating layer cls_score
I0418 04:37:26.893473  1654 net.cpp:100] Creating Layer cls_score
I0418 04:37:26.893477  1654 net.cpp:434] cls_score <- fc6_drop6_0_split_0
I0418 04:37:26.893483  1654 net.cpp:408] cls_score -> cls_score
I0418 04:37:26.904232  1654 net.cpp:150] Setting up cls_score
I0418 04:37:26.904245  1654 net.cpp:157] Top shape: 1 99 (99)
I0418 04:37:26.904248  1654 net.cpp:165] Memory required for data: 10172692296
I0418 04:37:26.904255  1654 layer_factory.hpp:77] Creating layer cls_score_cls_score_0_split
I0418 04:37:26.904261  1654 net.cpp:100] Creating Layer cls_score_cls_score_0_split
I0418 04:37:26.904265  1654 net.cpp:434] cls_score_cls_score_0_split <- cls_score
I0418 04:37:26.904271  1654 net.cpp:408] cls_score_cls_score_0_split -> cls_score_cls_score_0_split_0
I0418 04:37:26.904279  1654 net.cpp:408] cls_score_cls_score_0_split -> cls_score_cls_score_0_split_1
I0418 04:37:26.904314  1654 net.cpp:150] Setting up cls_score_cls_score_0_split
I0418 04:37:26.904319  1654 net.cpp:157] Top shape: 1 99 (99)
I0418 04:37:26.904322  1654 net.cpp:157] Top shape: 1 99 (99)
I0418 04:37:26.904325  1654 net.cpp:165] Memory required for data: 10172693088
I0418 04:37:26.904330  1654 layer_factory.hpp:77] Creating layer twin_pred
I0418 04:37:26.904335  1654 net.cpp:100] Creating Layer twin_pred
I0418 04:37:26.904340  1654 net.cpp:434] twin_pred <- fc6_drop6_0_split_1
I0418 04:37:26.904346  1654 net.cpp:408] twin_pred -> twin_pred
I0418 04:37:26.925650  1654 net.cpp:150] Setting up twin_pred
I0418 04:37:26.925665  1654 net.cpp:157] Top shape: 1 198 (198)
I0418 04:37:26.925669  1654 net.cpp:165] Memory required for data: 10172693880
I0418 04:37:26.925676  1654 layer_factory.hpp:77] Creating layer loss_cls
I0418 04:37:26.925688  1654 net.cpp:100] Creating Layer loss_cls
I0418 04:37:26.925693  1654 net.cpp:434] loss_cls <- labels_roi-data_1_split_0
I0418 04:37:26.925699  1654 net.cpp:434] loss_cls <- cls_score_cls_score_0_split_0
I0418 04:37:26.925704  1654 net.cpp:408] loss_cls -> loss_cls
…
