…
I0418 16:10:23.001621 15298 solver.cpp:81] Creating training net from train_net file: ./experiments/activitynet/train.prototxt
I0418 16:10:23.002528 15298 net.cpp:322] The NetState phase (0) differed from the phase (1) specified by a rule in layer accuarcy
I0418 16:10:23.002777 15298 net.cpp:58] Initializing net from parameters: 
name: "activitynet"
state {
  phase: TRAIN
}
layer {
  name: "data"
  type: "Python"
  top: "data"
  top: "gt_boxes"
  python_param {
    module: "roi_data_layer.layer"
    layer: "RoIDataLayer"
    param_str: "\'num_classes\': 100"
  }
}
layer {
  name: "conv1a"
  type: "Convolution"
  bottom: "data"
  top: "conv1a"
  param {
    lr_mult: 0
    decay_mult: 0
  }
  param {
    lr_mult: 0
    decay_mult: 0
  }
  convolution_param {
    num_output: 64
    pad: 1
    pad: 1
    pad: 1
    kernel_size: 3
    kernel_size: 3
    kernel_size: 3
    weight_filler {
      type: "gaussian"
      std: 0.01
    }
    bias_filler {
      type: "constant"
      value: 0
    }
  }
}
layer {
  name: "relu1a"
  type: "ReLU"
  bottom: "conv1a"
  top: "conv1a"
}
layer {
  name: "pool1"
  type: "Pooling"
  bottom: "conv1a"
  top: "pool1"
  pooling_param {
    pool: MAX
    kernel_size: 1
    kernel_size: 2
    kernel_size: 2
    stride: 1
    stride: 2
    stride: 2
  }
}
layer {
  name: "conv2a"
  type: "Convolution"
  bottom: "pool1"
  top: "conv2a"
  param {
    lr_mult: 0
    decay_mult: 0
  }
  param {
    lr_mult: 0
    decay_mult: 0
  }
  convolution_param {
    num_output: 128
    pad: 1
    pad: 1
    pad: 1
    kernel_size: 3
    kernel_size: 3
    kernel_size: 3
    weight_filler {
      type: "gaussian"
      std: 0.01
    }
    bias_filler {
      type: "constant"
      value: 1
    }
  }
}
layer {
  name: "relu2a"
  type: "ReLU"
  bottom: "conv2a"
  top: "conv2a"
}
layer {
  name: "pool2"
  type: "Pooling"
  bottom: "conv2a"
  top: "pool2"
  pooling_param {
    pool: MAX
    kernel_size: 2
    kernel_size: 2
    kernel_size: 2
    stride: 2
    stride: 2
    stride: 2
  }
}
layer {
  name: "conv3a"
  type: "Convolution"
  bottom: "pool2"
  top: "conv3a"
  param {
    lr_mult: 1
    decay_mult: 1
  }
  param {
    lr_mult: 2
    decay_mult: 0
  }
  convolution_param {
    num_output: 256
    pad: 1
    pad: 1
    pad: 1
    kernel_size: 3
    kernel_size: 3
    kernel_size: 3
    weight_filler {
      type: "gaussian"
      std: 0.01
    }
    bias_filler {
      type: "constant"
      value: 1
    }
  }
}
layer {
  name: "relu3a"
  type: "ReLU"
  bottom: "conv3a"
  top: "conv3a"
}
layer {
  name: "conv3b"
  type: "Convolution"
  bottom: "conv3a"
  top: "conv3b"
  param {
    lr_mult: 1
    decay_mult: 1
  }
  param {
    lr_mult: 2
    decay_mult: 0
  }
  convolution_param {
    num_output: 256
    pad: 1
    pad: 1
    pad: 1
    kernel_size: 3
    kernel_size: 3
    kernel_size: 3
    weight_filler {
      type: "gaussian"
      std: 0.01
    }
    bias_filler {
      type: "constant"
      value: 1
    }
  }
}
layer {
  name: "relu3b"
  type: "ReLU"
  bottom: "conv3b"
  top: "conv3b"
}
layer {
  name: "pool3"
  type: "Pooling"
  bottom: "conv3b"
  top: "pool3"
  pooling_param {
    pool: MAX
    kernel_size: 2
    kernel_size: 2
    kernel_size: 2
    stride: 2
    stride: 2
    stride: 2
  }
}
layer {
  name: "conv4a"
  type: "Convolution"
  bottom: "pool3"
  top: "conv4a"
  param {
    lr_mult: 1
    decay_mult: 1
  }
  param {
    lr_mult: 2
    decay_mult: 0
  }
  convolution_param {
    num_output: 512
    pad: 1
    pad: 1
    pad: 1
    kernel_size: 3
    kernel_size: 3
    kernel_size: 3
    weight_filler {
      type: "gaussian"
      std: 0.01
    }
    bias_filler {
      type: "constant"
      value: 1
    }
  }
}
layer {
  name: "relu4a"
  type: "ReLU"
  bottom: "conv4a"
  top: "conv4a"
}
layer {
  name: "conv4b"
  type: "Convolution"
  bottom: "conv4a"
  top: "conv4b"
  param {
    lr_mult: 1
    decay_mult: 1
  }
  param {
    lr_mult: 2
    decay_mult: 0
  }
  convolution_param {
    num_output: 512
    pad: 1
    pad: 1
    pad: 1
    kernel_size: 3
    kernel_size: 3
    kernel_size: 3
    weight_filler {
      type: "gaussian"
      std: 0.01
    }
    bias_filler {
      type: "constant"
      value: 1
    }
  }
}
layer {
  name: "relu4b"
  type: "ReLU"
  bottom: "conv4b"
  top: "conv4b"
}
layer {
  name: "pool4"
  type: "Pooling"
  bottom: "conv4b"
  top: "pool4"
  pooling_param {
    pool: MAX
    kernel_size: 2
    kernel_size: 2
    kernel_size: 2
    stride: 2
    stride: 2
    stride: 2
  }
}
layer {
  name: "conv5a"
  type: "Convolution"
  bottom: "pool4"
  top: "conv5a"
  param {
    lr_mult: 1
    decay_mult: 1
  }
  param {
    lr_mult: 2
    decay_mult: 0
  }
  convolution_param {
    num_output: 512
    pad: 1
    pad: 1
    pad: 1
    kernel_size: 3
    kernel_size: 3
    kernel_size: 3
    weight_filler {
      type: "gaussian"
      std: 0.01
    }
    bias_filler {
      type: "constant"
      value: 1
    }
  }
}
layer {
  name: "relu5a"
  type: "ReLU"
  bottom: "conv5a"
  top: "conv5a"
}
layer {
  name: "conv5b"
  type: "Convolution"
  bottom: "conv5a"
  top: "conv5b"
  param {
    lr_mult: 1
    decay_mult: 1
  }
  param {
    lr_mult: 2
    decay_mult: 0
  }
  convolution_param {
    num_output: 512
    pad: 1
    pad: 1
    pad: 1
    kernel_size: 3
    kernel_size: 3
    kernel_size: 3
    weight_filler {
      type: "gaussian"
      std: 0.01
    }
    bias_filler {
      type: "constant"
      value: 1
    }
  }
}
layer {
  name: "relu5b"
  type: "ReLU"
  bottom: "conv5b"
  top: "conv5b"
}
layer {
  name: "rpn_conv/3x3"
  type: "Convolution"
  bottom: "conv5b"
  top: "rpn/output"
  param {
    lr_mult: 1
    decay_mult: 1
  }
  param {
    lr_mult: 2
    decay_mult: 0
  }
  convolution_param {
    num_output: 512
    pad: 1
    pad: 1
    pad: 1
    kernel_size: 3
    kernel_size: 3
    kernel_size: 3
    stride: 1
    stride: 2
    stride: 2
    weight_filler {
      type: "gaussian"
      std: 0.01
    }
    bias_filler {
      type: "constant"
      value: 0
    }
  }
}
layer {
  name: "rpn_relu/3x3"
  type: "ReLU"
  bottom: "rpn/output"
  top: "rpn/output"
}
layer {
  name: "rpn_conv/3x3_2"
  type: "Convolution"
  bottom: "rpn/output"
  top: "rpn/output_2"
  param {
    lr_mult: 1
    decay_mult: 1
  }
  param {
    lr_mult: 2
    decay_mult: 0
  }
  convolution_param {
    num_output: 512
    pad: 1
    pad: 1
    pad: 1
    kernel_size: 3
    kernel_size: 3
    kernel_size: 3
    stride: 1
    stride: 2
    stride: 2
    weight_filler {
      type: "gaussian"
      std: 0.01
    }
    bias_filler {
      type: "constant"
      value: 0
    }
  }
}
layer {
  name: "rpn_relu/3x3_2"
  type: "ReLU"
  bottom: "rpn/output_2"
  top: "rpn/output_2"
}
layer {
  name: "rpn/output_pool"
  type: "Pooling"
  bottom: "rpn/output_2"
  top: "rpn/output_pool"
  pooling_param {
    pool: MAX
    kernel_size: 1
    kernel_size: 2
    kernel_size: 2
  }
}
layer {
  name: "rpn_cls_score"
  type: "Convolution"
  bottom: "rpn/output_pool"
  top: "rpn_cls_score"
  param {
    lr_mult: 1
    decay_mult: 1
  }
  param {
    lr_mult: 2
    decay_mult: 0
  }
  convolution_param {
    num_output: 74
    kernel_size: 1
    kernel_size: 1
    kernel_size: 1
    weight_filler {
      type: "gaussian"
      std: 0.01
    }
    bias_filler {
      type: "constant"
      value: 0
    }
  }
}
layer {
  name: "rpn_twin_pred"
  type: "Convolution"
  bottom: "rpn/output_pool"
  top: "rpn_twin_pred"
  param {
    lr_mult: 1
    decay_mult: 1
  }
  param {
    lr_mult: 2
    decay_mult: 0
  }
  convolution_param {
    num_output: 74
    kernel_size: 1
    kernel_size: 1
    kernel_size: 1
    weight_filler {
      type: "gaussian"
      std: 0.01
    }
    bias_filler {
      type: "constant"
      value: 0
    }
  }
}
layer {
  name: "rpn_cls_score_reshape"
  type: "Reshape"
  bottom: "rpn_cls_score"
  top: "rpn_cls_score_reshape"
  reshape_param {
    shape {
      dim: 0
      dim: 2
      dim: -1
      dim: 0
      dim: 0
    }
  }
}
layer {
  name: "rpn-data"
  type: "Python"
  bottom: "rpn_cls_score"
  bottom: "gt_boxes"
  bottom: "data"
  top: "rpn_labels"
  top: "rpn_twin_targets"
  top: "rpn_twin_inside_weights"
  top: "rpn_twin_outside_weights"
  python_param {
    module: "rpn.anchor_target_layer"
    layer: "AnchorTargetLayer"
    param_str: "\'feat_stride\': 8 \n\'scales\': !!python/tuple [1,1.25, 1.5,1.75, 2,2.5, 3,3.5, 4,4.5, 5,5.5, 6,7, 8,9,10,11,12,14,16,18,20,22,24,28,32,36,40,44,52,60,68,76,84,92,100]"
  }
}
layer {
  name: "rpn_loss_cls"
  type: "SoftmaxWithLoss"
  bottom: "rpn_cls_score_reshape"
  bottom: "rpn_labels"
  top: "rpn_cls_loss"
  loss_weight: 1
  propagate_down: true
  propagate_down: false
  loss_param {
    ignore_label: -1
    normalize: true
  }
}
layer {
  name: "rpn_loss_twin"
  type: "SmoothL1Loss"
  bottom: "rpn_twin_pred"
  bottom: "rpn_twin_targets"
  bottom: "rpn_twin_inside_weights"
  bottom: "rpn_twin_outside_weights"
  top: "rpn_loss_twin"
  loss_weight: 1
  smooth_l1_loss_param {
    sigma: 3
  }
}
layer {
  name: "rpn_accuarcy"
  type: "Accuracy"
  bottom: "rpn_cls_score_reshape"
  bottom: "rpn_labels"
  top: "rpn_accuarcy"
  top: "rpn_accuarcy_class"
  propagate_down: false
  propagate_down: false
  accuracy_param {
    ignore_label: -1
  }
}
layer {
  name: "rpn_cls_prob"
  type: "Softmax"
  bottom: "rpn_cls_score_reshape"
  top: "rpn_cls_prob"
}
layer {
  name: "rpn_cls_prob_reshape"
  type: "Reshape"
  bottom: "rpn_cls_prob"
  top: "rpn_cls_prob_reshape"
  reshape_param {
    shape {
      dim: 0
      dim: 74
      dim: -1
      dim: 0
      dim: 0
    }
  }
}
layer {
  name: "proposal"
  type: "Python"
  bottom: "rpn_cls_prob_reshape"
  bottom: "rpn_twin_pred"
  top: "rpn_rois"
  include {
    phase: TRAIN
  }
  python_param {
    module: "rpn.proposal_layer"
    layer: "ProposalLayer"
    param_str: "\'feat_stride\': 8 \n\'scales\': !!python/tuple [1,1.25, 1.5,1.75, 2,2.5, 3,3.5, 4,4.5, 5,5.5, 6,7, 8,9,10,11,12,14,16,18,20,22,24,28,32,36,40,44,52,60,68,76,84,92,100]"
  }
}
layer {
  name: "roi-data"
  type: "Python"
  bottom: "rpn_rois"
  bottom: "gt_boxes"
  top: "rois"
  top: "labels"
  top: "twin_targets"
  top: "twin_inside_weights"
  top: "twin_outside_weights"
  python_param {
    module: "rpn.proposal_target_layer"
    layer: "ProposalTargetLayer"
    param_str: "\'num_classes\': 99"
  }
}
layer {
  name: "roi_pool5"
  type: "ROIPooling"
  bottom: "conv5b"
  bottom: "rois"
  top: "pool5"
  roi_pooling_param {
    pooled_h: 4
    pooled_w: 4
    spatial_scale: 0.0625
    pooled_l: 1
    temporal_scale: 0.125
  }
}
layer {
  name: "fc6"
  type: "InnerProduct"
  bottom: "pool5"
  top: "fc6"
  param {
    lr_mult: 1
    decay_mult: 1
  }
  param {
    lr_mult: 2
    decay_mult: 0
  }
  inner_product_param {
    num_output: 4096
    weight_filler {
      type: "gaussian"
      std: 0.005
    }
    bias_filler {
      type: "constant"
      value: 1
    }
  }
}
layer {
  name: "relu6"
  type: "ReLU"
  bottom: "fc6"
  top: "fc6"
}
layer {
  name: "drop6"
  type: "Dropout"
  bottom: "fc6"
  top: "fc6"
  dropout_param {
    dropout_ratio: 0.5
  }
}
layer {
  name: "cls_score"
  type: "InnerProduct"
  bottom: "fc6"
  top: "cls_score"
  param {
    lr_mult: 1
    decay_mult: 1
  }
  param {
    lr_mult: 2
    decay_mult: 0
  }
  inner_product_param {
    num_output: 99
    weight_filler {
      type: "gaussian"
      std: 0.01
    }
    bias_filler {
      type: "constant"
      value: 0
    }
  }
}
layer {
  name: "twin_pred"
  type: "InnerProduct"
  bottom: "fc6"
  top: "twin_pred"
  param {
    lr_mult: 1
    decay_mult: 1
  }
  param {
    lr_mult: 2
    decay_mult: 0
  }
  inner_product_param {
    num_output: 198
    weight_filler {
      type: "gaussian"
      std: 0.001
    }
    bias_filler {
      type: "constant"
      value: 0
    }
  }
}
layer {
  name: "loss_cls"
  type: "SigmoidCrossEntropyLoss"
  bottom: "cls_score"
  bottom: "labels"
  top: "loss_cls"
  loss_weight: 1
  propagate_down: true
  propagate_down: false
}
layer {
  name: "loss_twin"
  type: "SmoothL1Loss"
  bottom: "twin_pred"
  bottom: "twin_targets"
  bottom: "twin_inside_weights"
  bottom: "twin_outside_weights"
  top: "loss_twin"
  loss_weight: 1
}
I0418 16:10:23.003104 15298 layer_factory.hpp:77] Creating layer data
I0418 16:10:23.031044 15298 net.cpp:100] Creating Layer data
I0418 16:10:23.031071 15298 net.cpp:408] data -> data
I0418 16:10:23.031091 15298 net.cpp:408] data -> gt_boxes
setting up
has rpn
RoiDataLayer: name_to_top: {'gt_windows': 1, 'data': 0}
I0418 16:10:23.050911 15298 net.cpp:150] Setting up data
I0418 16:10:23.050940 15298 net.cpp:157] Top shape: 1 3 768 112 112 (28901376)
I0418 16:10:23.050952 15298 net.cpp:157] Top shape: 1 101 (101)
I0418 16:10:23.050958 15298 net.cpp:165] Memory required for data: 115605908
I0418 16:10:23.050968 15298 layer_factory.hpp:77] Creating layer data_data_0_split
I0418 16:10:23.050987 15298 net.cpp:100] Creating Layer data_data_0_split
I0418 16:10:23.050995 15298 net.cpp:434] data_data_0_split <- data
I0418 16:10:23.051007 15298 net.cpp:408] data_data_0_split -> data_data_0_split_0
I0418 16:10:23.051021 15298 net.cpp:408] data_data_0_split -> data_data_0_split_1
I0418 16:10:23.051067 15298 net.cpp:150] Setting up data_data_0_split
I0418 16:10:23.051079 15298 net.cpp:157] Top shape: 1 3 768 112 112 (28901376)
I0418 16:10:23.051087 15298 net.cpp:157] Top shape: 1 3 768 112 112 (28901376)
I0418 16:10:23.051093 15298 net.cpp:165] Memory required for data: 346816916
I0418 16:10:23.051100 15298 layer_factory.hpp:77] Creating layer gt_boxes_data_1_split
I0418 16:10:23.051110 15298 net.cpp:100] Creating Layer gt_boxes_data_1_split
I0418 16:10:23.051115 15298 net.cpp:434] gt_boxes_data_1_split <- gt_boxes
I0418 16:10:23.051126 15298 net.cpp:408] gt_boxes_data_1_split -> gt_boxes_data_1_split_0
I0418 16:10:23.051136 15298 net.cpp:408] gt_boxes_data_1_split -> gt_boxes_data_1_split_1
I0418 16:10:23.051172 15298 net.cpp:150] Setting up gt_boxes_data_1_split
I0418 16:10:23.051182 15298 net.cpp:157] Top shape: 1 101 (101)
I0418 16:10:23.051189 15298 net.cpp:157] Top shape: 1 101 (101)
I0418 16:10:23.051195 15298 net.cpp:165] Memory required for data: 346817724
I0418 16:10:23.051201 15298 layer_factory.hpp:77] Creating layer conv1a
I0418 16:10:23.051224 15298 net.cpp:100] Creating Layer conv1a
I0418 16:10:23.051234 15298 net.cpp:434] conv1a <- data_data_0_split_0
I0418 16:10:23.051245 15298 net.cpp:408] conv1a -> conv1a
I0418 16:10:23.460472 15298 net.cpp:150] Setting up conv1a
I0418 16:10:23.460505 15298 net.cpp:157] Top shape: 1 64 768 112 112 (616562688)
I0418 16:10:23.460508 15298 net.cpp:165] Memory required for data: 2813068476
I0418 16:10:23.460527 15298 layer_factory.hpp:77] Creating layer relu1a
I0418 16:10:23.460541 15298 net.cpp:100] Creating Layer relu1a
I0418 16:10:23.460546 15298 net.cpp:434] relu1a <- conv1a
I0418 16:10:23.460552 15298 net.cpp:395] relu1a -> conv1a (in-place)
I0418 16:10:23.461017 15298 net.cpp:150] Setting up relu1a
I0418 16:10:23.461031 15298 net.cpp:157] Top shape: 1 64 768 112 112 (616562688)
I0418 16:10:23.461035 15298 net.cpp:165] Memory required for data: 5279319228
I0418 16:10:23.461040 15298 layer_factory.hpp:77] Creating layer pool1
I0418 16:10:23.461050 15298 net.cpp:100] Creating Layer pool1
I0418 16:10:23.461055 15298 net.cpp:434] pool1 <- conv1a
I0418 16:10:23.461061 15298 net.cpp:408] pool1 -> pool1
I0418 16:10:23.461819 15298 net.cpp:150] Setting up pool1
I0418 16:10:23.461830 15298 net.cpp:157] Top shape: 1 64 768 56 56 (154140672)
I0418 16:10:23.461834 15298 net.cpp:165] Memory required for data: 5895881916
I0418 16:10:23.461838 15298 layer_factory.hpp:77] Creating layer conv2a
I0418 16:10:23.461849 15298 net.cpp:100] Creating Layer conv2a
I0418 16:10:23.461853 15298 net.cpp:434] conv2a <- pool1
I0418 16:10:23.461858 15298 net.cpp:408] conv2a -> conv2a
I0418 16:10:23.474378 15298 net.cpp:150] Setting up conv2a
I0418 16:10:23.474403 15298 net.cpp:157] Top shape: 1 128 768 56 56 (308281344)
I0418 16:10:23.474408 15298 net.cpp:165] Memory required for data: 7129007292
I0418 16:10:23.474421 15298 layer_factory.hpp:77] Creating layer relu2a
I0418 16:10:23.474429 15298 net.cpp:100] Creating Layer relu2a
I0418 16:10:23.474433 15298 net.cpp:434] relu2a <- conv2a
I0418 16:10:23.474438 15298 net.cpp:395] relu2a -> conv2a (in-place)
I0418 16:10:23.474793 15298 net.cpp:150] Setting up relu2a
I0418 16:10:23.474807 15298 net.cpp:157] Top shape: 1 128 768 56 56 (308281344)
I0418 16:10:23.474810 15298 net.cpp:165] Memory required for data: 8362132668
I0418 16:10:23.474815 15298 layer_factory.hpp:77] Creating layer pool2
I0418 16:10:23.474824 15298 net.cpp:100] Creating Layer pool2
I0418 16:10:23.474828 15298 net.cpp:434] pool2 <- conv2a
I0418 16:10:23.474833 15298 net.cpp:408] pool2 -> pool2
I0418 16:10:23.474998 15298 net.cpp:150] Setting up pool2
I0418 16:10:23.475009 15298 net.cpp:157] Top shape: 1 128 384 28 28 (38535168)
I0418 16:10:23.475013 15298 net.cpp:165] Memory required for data: 8516273340
I0418 16:10:23.475018 15298 layer_factory.hpp:77] Creating layer conv3a
I0418 16:10:23.475028 15298 net.cpp:100] Creating Layer conv3a
I0418 16:10:23.475031 15298 net.cpp:434] conv3a <- pool2
I0418 16:10:23.475037 15298 net.cpp:408] conv3a -> conv3a
I0418 16:10:23.500231 15298 net.cpp:150] Setting up conv3a
I0418 16:10:23.500253 15298 net.cpp:157] Top shape: 1 256 384 28 28 (77070336)
I0418 16:10:23.500257 15298 net.cpp:165] Memory required for data: 8824554684
I0418 16:10:23.500270 15298 layer_factory.hpp:77] Creating layer relu3a
I0418 16:10:23.500278 15298 net.cpp:100] Creating Layer relu3a
I0418 16:10:23.500283 15298 net.cpp:434] relu3a <- conv3a
I0418 16:10:23.500291 15298 net.cpp:395] relu3a -> conv3a (in-place)
I0418 16:10:23.500609 15298 net.cpp:150] Setting up relu3a
I0418 16:10:23.500622 15298 net.cpp:157] Top shape: 1 256 384 28 28 (77070336)
I0418 16:10:23.500627 15298 net.cpp:165] Memory required for data: 9132836028
I0418 16:10:23.500630 15298 layer_factory.hpp:77] Creating layer conv3b
I0418 16:10:23.500641 15298 net.cpp:100] Creating Layer conv3b
I0418 16:10:23.500648 15298 net.cpp:434] conv3b <- conv3a
I0418 16:10:23.500654 15298 net.cpp:408] conv3b -> conv3b
I0418 16:10:23.549695 15298 net.cpp:150] Setting up conv3b
I0418 16:10:23.549720 15298 net.cpp:157] Top shape: 1 256 384 28 28 (77070336)
I0418 16:10:23.549724 15298 net.cpp:165] Memory required for data: 9441117372
I0418 16:10:23.549733 15298 layer_factory.hpp:77] Creating layer relu3b
I0418 16:10:23.549743 15298 net.cpp:100] Creating Layer relu3b
I0418 16:10:23.549748 15298 net.cpp:434] relu3b <- conv3b
I0418 16:10:23.549753 15298 net.cpp:395] relu3b -> conv3b (in-place)
I0418 16:10:23.550081 15298 net.cpp:150] Setting up relu3b
I0418 16:10:23.550093 15298 net.cpp:157] Top shape: 1 256 384 28 28 (77070336)
I0418 16:10:23.550098 15298 net.cpp:165] Memory required for data: 9749398716
I0418 16:10:23.550102 15298 layer_factory.hpp:77] Creating layer pool3
I0418 16:10:23.550110 15298 net.cpp:100] Creating Layer pool3
I0418 16:10:23.550114 15298 net.cpp:434] pool3 <- conv3b
I0418 16:10:23.550119 15298 net.cpp:408] pool3 -> pool3
I0418 16:10:23.550288 15298 net.cpp:150] Setting up pool3
I0418 16:10:23.550298 15298 net.cpp:157] Top shape: 1 256 192 14 14 (9633792)
I0418 16:10:23.550302 15298 net.cpp:165] Memory required for data: 9787933884
I0418 16:10:23.550305 15298 layer_factory.hpp:77] Creating layer conv4a
I0418 16:10:23.550319 15298 net.cpp:100] Creating Layer conv4a
I0418 16:10:23.550323 15298 net.cpp:434] conv4a <- pool3
I0418 16:10:23.550329 15298 net.cpp:408] conv4a -> conv4a
I0418 16:10:23.648221 15298 net.cpp:150] Setting up conv4a
I0418 16:10:23.648247 15298 net.cpp:157] Top shape: 1 512 192 14 14 (19267584)
I0418 16:10:23.648250 15298 net.cpp:165] Memory required for data: 9865004220
I0418 16:10:23.648264 15298 layer_factory.hpp:77] Creating layer relu4a
I0418 16:10:23.648274 15298 net.cpp:100] Creating Layer relu4a
I0418 16:10:23.648278 15298 net.cpp:434] relu4a <- conv4a
I0418 16:10:23.648284 15298 net.cpp:395] relu4a -> conv4a (in-place)
I0418 16:10:23.650542 15298 net.cpp:150] Setting up relu4a
I0418 16:10:23.650555 15298 net.cpp:157] Top shape: 1 512 192 14 14 (19267584)
I0418 16:10:23.650559 15298 net.cpp:165] Memory required for data: 9942074556
I0418 16:10:23.650563 15298 layer_factory.hpp:77] Creating layer conv4b
I0418 16:10:23.650578 15298 net.cpp:100] Creating Layer conv4b
I0418 16:10:23.650585 15298 net.cpp:434] conv4b <- conv4a
I0418 16:10:23.650595 15298 net.cpp:408] conv4b -> conv4b
I0418 16:10:23.841550 15298 net.cpp:150] Setting up conv4b
I0418 16:10:23.841580 15298 net.cpp:157] Top shape: 1 512 192 14 14 (19267584)
I0418 16:10:23.841588 15298 net.cpp:165] Memory required for data: 10019144892
I0418 16:10:23.841600 15298 layer_factory.hpp:77] Creating layer relu4b
I0418 16:10:23.841612 15298 net.cpp:100] Creating Layer relu4b
I0418 16:10:23.841620 15298 net.cpp:434] relu4b <- conv4b
I0418 16:10:23.841631 15298 net.cpp:395] relu4b -> conv4b (in-place)
I0418 16:10:23.843214 15298 net.cpp:150] Setting up relu4b
I0418 16:10:23.843227 15298 net.cpp:157] Top shape: 1 512 192 14 14 (19267584)
I0418 16:10:23.843232 15298 net.cpp:165] Memory required for data: 10096215228
I0418 16:10:23.843240 15298 layer_factory.hpp:77] Creating layer pool4
I0418 16:10:23.843251 15298 net.cpp:100] Creating Layer pool4
I0418 16:10:23.843257 15298 net.cpp:434] pool4 <- conv4b
I0418 16:10:23.843266 15298 net.cpp:408] pool4 -> pool4
I0418 16:10:23.844429 15298 net.cpp:150] Setting up pool4
I0418 16:10:23.844442 15298 net.cpp:157] Top shape: 1 512 96 7 7 (2408448)
I0418 16:10:23.844449 15298 net.cpp:165] Memory required for data: 10105849020
I0418 16:10:23.844455 15298 layer_factory.hpp:77] Creating layer conv5a
I0418 16:10:23.844472 15298 net.cpp:100] Creating Layer conv5a
I0418 16:10:23.844483 15298 net.cpp:434] conv5a <- pool4
I0418 16:10:23.844494 15298 net.cpp:408] conv5a -> conv5a
I0418 16:10:24.039271 15298 net.cpp:150] Setting up conv5a
I0418 16:10:24.039301 15298 net.cpp:157] Top shape: 1 512 96 7 7 (2408448)
I0418 16:10:24.039309 15298 net.cpp:165] Memory required for data: 10115482812
I0418 16:10:24.039322 15298 layer_factory.hpp:77] Creating layer relu5a
I0418 16:10:24.039335 15298 net.cpp:100] Creating Layer relu5a
I0418 16:10:24.039343 15298 net.cpp:434] relu5a <- conv5a
I0418 16:10:24.039352 15298 net.cpp:395] relu5a -> conv5a (in-place)
I0418 16:10:24.040345 15298 net.cpp:150] Setting up relu5a
I0418 16:10:24.040361 15298 net.cpp:157] Top shape: 1 512 96 7 7 (2408448)
I0418 16:10:24.040367 15298 net.cpp:165] Memory required for data: 10125116604
I0418 16:10:24.040374 15298 layer_factory.hpp:77] Creating layer conv5b
I0418 16:10:24.040393 15298 net.cpp:100] Creating Layer conv5b
I0418 16:10:24.040400 15298 net.cpp:434] conv5b <- conv5a
I0418 16:10:24.040411 15298 net.cpp:408] conv5b -> conv5b
I0418 16:10:24.229535 15298 net.cpp:150] Setting up conv5b
I0418 16:10:24.229562 15298 net.cpp:157] Top shape: 1 512 96 7 7 (2408448)
I0418 16:10:24.229568 15298 net.cpp:165] Memory required for data: 10134750396
I0418 16:10:24.229580 15298 layer_factory.hpp:77] Creating layer relu5b
I0418 16:10:24.229593 15298 net.cpp:100] Creating Layer relu5b
I0418 16:10:24.229600 15298 net.cpp:434] relu5b <- conv5b
I0418 16:10:24.229615 15298 net.cpp:395] relu5b -> conv5b (in-place)
I0418 16:10:24.229777 15298 net.cpp:150] Setting up relu5b
I0418 16:10:24.229789 15298 net.cpp:157] Top shape: 1 512 96 7 7 (2408448)
I0418 16:10:24.229794 15298 net.cpp:165] Memory required for data: 10144384188
I0418 16:10:24.229800 15298 layer_factory.hpp:77] Creating layer conv5b_relu5b_0_split
I0418 16:10:24.229811 15298 net.cpp:100] Creating Layer conv5b_relu5b_0_split
I0418 16:10:24.229817 15298 net.cpp:434] conv5b_relu5b_0_split <- conv5b
I0418 16:10:24.229826 15298 net.cpp:408] conv5b_relu5b_0_split -> conv5b_relu5b_0_split_0
I0418 16:10:24.229836 15298 net.cpp:408] conv5b_relu5b_0_split -> conv5b_relu5b_0_split_1
I0418 16:10:24.229887 15298 net.cpp:150] Setting up conv5b_relu5b_0_split
I0418 16:10:24.229897 15298 net.cpp:157] Top shape: 1 512 96 7 7 (2408448)
I0418 16:10:24.229903 15298 net.cpp:157] Top shape: 1 512 96 7 7 (2408448)
I0418 16:10:24.229908 15298 net.cpp:165] Memory required for data: 10163651772
I0418 16:10:24.229914 15298 layer_factory.hpp:77] Creating layer rpn_conv/3x3
I0418 16:10:24.229930 15298 net.cpp:100] Creating Layer rpn_conv/3x3
I0418 16:10:24.229938 15298 net.cpp:434] rpn_conv/3x3 <- conv5b_relu5b_0_split_0
I0418 16:10:24.229950 15298 net.cpp:408] rpn_conv/3x3 -> rpn/output
I0418 16:10:24.420883 15298 net.cpp:150] Setting up rpn_conv/3x3
I0418 16:10:24.420910 15298 net.cpp:157] Top shape: 1 512 96 4 4 (786432)
I0418 16:10:24.420915 15298 net.cpp:165] Memory required for data: 10166797500
I0418 16:10:24.420936 15298 layer_factory.hpp:77] Creating layer rpn_relu/3x3
I0418 16:10:24.420949 15298 net.cpp:100] Creating Layer rpn_relu/3x3
I0418 16:10:24.420956 15298 net.cpp:434] rpn_relu/3x3 <- rpn/output
I0418 16:10:24.420969 15298 net.cpp:395] rpn_relu/3x3 -> rpn/output (in-place)
I0418 16:10:24.423313 15298 net.cpp:150] Setting up rpn_relu/3x3
I0418 16:10:24.423329 15298 net.cpp:157] Top shape: 1 512 96 4 4 (786432)
I0418 16:10:24.423336 15298 net.cpp:165] Memory required for data: 10169943228
I0418 16:10:24.423342 15298 layer_factory.hpp:77] Creating layer rpn_conv/3x3_2
I0418 16:10:24.423359 15298 net.cpp:100] Creating Layer rpn_conv/3x3_2
I0418 16:10:24.423367 15298 net.cpp:434] rpn_conv/3x3_2 <- rpn/output
I0418 16:10:24.423378 15298 net.cpp:408] rpn_conv/3x3_2 -> rpn/output_2
I0418 16:10:24.620196 15298 net.cpp:150] Setting up rpn_conv/3x3_2
I0418 16:10:24.620223 15298 net.cpp:157] Top shape: 1 512 96 2 2 (196608)
I0418 16:10:24.620229 15298 net.cpp:165] Memory required for data: 10170729660
I0418 16:10:24.620242 15298 layer_factory.hpp:77] Creating layer rpn_relu/3x3_2
I0418 16:10:24.620257 15298 net.cpp:100] Creating Layer rpn_relu/3x3_2
I0418 16:10:24.620268 15298 net.cpp:434] rpn_relu/3x3_2 <- rpn/output_2
I0418 16:10:24.620275 15298 net.cpp:395] rpn_relu/3x3_2 -> rpn/output_2 (in-place)
I0418 16:10:24.620607 15298 net.cpp:150] Setting up rpn_relu/3x3_2
I0418 16:10:24.620621 15298 net.cpp:157] Top shape: 1 512 96 2 2 (196608)
I0418 16:10:24.620625 15298 net.cpp:165] Memory required for data: 10171516092
I0418 16:10:24.620630 15298 layer_factory.hpp:77] Creating layer rpn/output_pool
I0418 16:10:24.620636 15298 net.cpp:100] Creating Layer rpn/output_pool
I0418 16:10:24.620640 15298 net.cpp:434] rpn/output_pool <- rpn/output_2
I0418 16:10:24.620646 15298 net.cpp:408] rpn/output_pool -> rpn/output_pool
I0418 16:10:24.620826 15298 net.cpp:150] Setting up rpn/output_pool
I0418 16:10:24.620838 15298 net.cpp:157] Top shape: 1 512 96 1 1 (49152)
I0418 16:10:24.620841 15298 net.cpp:165] Memory required for data: 10171712700
I0418 16:10:24.620846 15298 layer_factory.hpp:77] Creating layer rpn/output_pool_rpn/output_pool_0_split
I0418 16:10:24.620851 15298 net.cpp:100] Creating Layer rpn/output_pool_rpn/output_pool_0_split
I0418 16:10:24.620854 15298 net.cpp:434] rpn/output_pool_rpn/output_pool_0_split <- rpn/output_pool
I0418 16:10:24.620859 15298 net.cpp:408] rpn/output_pool_rpn/output_pool_0_split -> rpn/output_pool_rpn/output_pool_0_split_0
I0418 16:10:24.620867 15298 net.cpp:408] rpn/output_pool_rpn/output_pool_0_split -> rpn/output_pool_rpn/output_pool_0_split_1
I0418 16:10:24.620898 15298 net.cpp:150] Setting up rpn/output_pool_rpn/output_pool_0_split
I0418 16:10:24.620905 15298 net.cpp:157] Top shape: 1 512 96 1 1 (49152)
I0418 16:10:24.620909 15298 net.cpp:157] Top shape: 1 512 96 1 1 (49152)
I0418 16:10:24.620913 15298 net.cpp:165] Memory required for data: 10172105916
I0418 16:10:24.620915 15298 layer_factory.hpp:77] Creating layer rpn_cls_score
I0418 16:10:24.620926 15298 net.cpp:100] Creating Layer rpn_cls_score
I0418 16:10:24.620930 15298 net.cpp:434] rpn_cls_score <- rpn/output_pool_rpn/output_pool_0_split_0
I0418 16:10:24.620935 15298 net.cpp:408] rpn_cls_score -> rpn_cls_score
I0418 16:10:24.623075 15298 net.cpp:150] Setting up rpn_cls_score
I0418 16:10:24.623088 15298 net.cpp:157] Top shape: 1 74 96 1 1 (7104)
I0418 16:10:24.623092 15298 net.cpp:165] Memory required for data: 10172134332
I0418 16:10:24.623098 15298 layer_factory.hpp:77] Creating layer rpn_cls_score_rpn_cls_score_0_split
I0418 16:10:24.623106 15298 net.cpp:100] Creating Layer rpn_cls_score_rpn_cls_score_0_split
I0418 16:10:24.623109 15298 net.cpp:434] rpn_cls_score_rpn_cls_score_0_split <- rpn_cls_score
I0418 16:10:24.623114 15298 net.cpp:408] rpn_cls_score_rpn_cls_score_0_split -> rpn_cls_score_rpn_cls_score_0_split_0
I0418 16:10:24.623121 15298 net.cpp:408] rpn_cls_score_rpn_cls_score_0_split -> rpn_cls_score_rpn_cls_score_0_split_1
I0418 16:10:24.623160 15298 net.cpp:150] Setting up rpn_cls_score_rpn_cls_score_0_split
I0418 16:10:24.623168 15298 net.cpp:157] Top shape: 1 74 96 1 1 (7104)
I0418 16:10:24.623172 15298 net.cpp:157] Top shape: 1 74 96 1 1 (7104)
I0418 16:10:24.623175 15298 net.cpp:165] Memory required for data: 10172191164
I0418 16:10:24.623179 15298 layer_factory.hpp:77] Creating layer rpn_twin_pred
I0418 16:10:24.623191 15298 net.cpp:100] Creating Layer rpn_twin_pred
I0418 16:10:24.623198 15298 net.cpp:434] rpn_twin_pred <- rpn/output_pool_rpn/output_pool_0_split_1
I0418 16:10:24.623204 15298 net.cpp:408] rpn_twin_pred -> rpn_twin_pred
I0418 16:10:24.626113 15298 net.cpp:150] Setting up rpn_twin_pred
I0418 16:10:24.626127 15298 net.cpp:157] Top shape: 1 74 96 1 1 (7104)
I0418 16:10:24.626132 15298 net.cpp:165] Memory required for data: 10172219580
I0418 16:10:24.626138 15298 layer_factory.hpp:77] Creating layer rpn_twin_pred_rpn_twin_pred_0_split
I0418 16:10:24.626145 15298 net.cpp:100] Creating Layer rpn_twin_pred_rpn_twin_pred_0_split
I0418 16:10:24.626149 15298 net.cpp:434] rpn_twin_pred_rpn_twin_pred_0_split <- rpn_twin_pred
I0418 16:10:24.626155 15298 net.cpp:408] rpn_twin_pred_rpn_twin_pred_0_split -> rpn_twin_pred_rpn_twin_pred_0_split_0
I0418 16:10:24.626161 15298 net.cpp:408] rpn_twin_pred_rpn_twin_pred_0_split -> rpn_twin_pred_rpn_twin_pred_0_split_1
I0418 16:10:24.626199 15298 net.cpp:150] Setting up rpn_twin_pred_rpn_twin_pred_0_split
I0418 16:10:24.626207 15298 net.cpp:157] Top shape: 1 74 96 1 1 (7104)
I0418 16:10:24.626211 15298 net.cpp:157] Top shape: 1 74 96 1 1 (7104)
I0418 16:10:24.626214 15298 net.cpp:165] Memory required for data: 10172276412
I0418 16:10:24.626219 15298 layer_factory.hpp:77] Creating layer rpn_cls_score_reshape
I0418 16:10:24.626235 15298 net.cpp:100] Creating Layer rpn_cls_score_reshape
I0418 16:10:24.626241 15298 net.cpp:434] rpn_cls_score_reshape <- rpn_cls_score_rpn_cls_score_0_split_0
I0418 16:10:24.626248 15298 net.cpp:408] rpn_cls_score_reshape -> rpn_cls_score_reshape
I0418 16:10:24.626274 15298 net.cpp:150] Setting up rpn_cls_score_reshape
I0418 16:10:24.626284 15298 net.cpp:157] Top shape: 1 2 3552 1 1 (7104)
I0418 16:10:24.626287 15298 net.cpp:165] Memory required for data: 10172304828
I0418 16:10:24.626291 15298 layer_factory.hpp:77] Creating layer rpn_cls_score_reshape_rpn_cls_score_reshape_0_split
I0418 16:10:24.626297 15298 net.cpp:100] Creating Layer rpn_cls_score_reshape_rpn_cls_score_reshape_0_split
I0418 16:10:24.626302 15298 net.cpp:434] rpn_cls_score_reshape_rpn_cls_score_reshape_0_split <- rpn_cls_score_reshape
I0418 16:10:24.626307 15298 net.cpp:408] rpn_cls_score_reshape_rpn_cls_score_reshape_0_split -> rpn_cls_score_reshape_rpn_cls_score_reshape_0_split_0
I0418 16:10:24.626317 15298 net.cpp:408] rpn_cls_score_reshape_rpn_cls_score_reshape_0_split -> rpn_cls_score_reshape_rpn_cls_score_reshape_0_split_1
I0418 16:10:24.626324 15298 net.cpp:408] rpn_cls_score_reshape_rpn_cls_score_reshape_0_split -> rpn_cls_score_reshape_rpn_cls_score_reshape_0_split_2
I0418 16:10:24.626366 15298 net.cpp:150] Setting up rpn_cls_score_reshape_rpn_cls_score_reshape_0_split
I0418 16:10:24.626375 15298 net.cpp:157] Top shape: 1 2 3552 1 1 (7104)
I0418 16:10:24.626379 15298 net.cpp:157] Top shape: 1 2 3552 1 1 (7104)
I0418 16:10:24.626384 15298 net.cpp:157] Top shape: 1 2 3552 1 1 (7104)
I0418 16:10:24.626386 15298 net.cpp:165] Memory required for data: 10172390076
I0418 16:10:24.626390 15298 layer_factory.hpp:77] Creating layer rpn-data
I0418 16:10:24.626822 15298 net.cpp:100] Creating Layer rpn-data
I0418 16:10:24.626837 15298 net.cpp:434] rpn-data <- rpn_cls_score_rpn_cls_score_0_split_1
I0418 16:10:24.626842 15298 net.cpp:434] rpn-data <- gt_boxes_data_1_split_0
I0418 16:10:24.626847 15298 net.cpp:434] rpn-data <- data_data_0_split_1
I0418 16:10:24.626852 15298 net.cpp:408] rpn-data -> rpn_labels
I0418 16:10:24.626858 15298 net.cpp:408] rpn-data -> rpn_twin_targets
I0418 16:10:24.626865 15298 net.cpp:408] rpn-data -> rpn_twin_inside_weights
I0418 16:10:24.626870 15298 net.cpp:408] rpn-data -> rpn_twin_outside_weights
I0418 16:10:24.629117 15298 net.cpp:150] Setting up rpn-data
I0418 16:10:24.629132 15298 net.cpp:157] Top shape: 1 1 3552 1 1 (3552)
I0418 16:10:24.629135 15298 net.cpp:157] Top shape: 1 74 96 1 1 (7104)
I0418 16:10:24.629139 15298 net.cpp:157] Top shape: 1 74 96 1 1 (7104)
I0418 16:10:24.629143 15298 net.cpp:157] Top shape: 1 74 96 1 1 (7104)
I0418 16:10:24.629146 15298 net.cpp:165] Memory required for data: 10172489532
I0418 16:10:24.629150 15298 layer_factory.hpp:77] Creating layer rpn_labels_rpn-data_0_split
I0418 16:10:24.629156 15298 net.cpp:100] Creating Layer rpn_labels_rpn-data_0_split
I0418 16:10:24.629160 15298 net.cpp:434] rpn_labels_rpn-data_0_split <- rpn_labels
I0418 16:10:24.629166 15298 net.cpp:408] rpn_labels_rpn-data_0_split -> rpn_labels_rpn-data_0_split_0
I0418 16:10:24.629173 15298 net.cpp:408] rpn_labels_rpn-data_0_split -> rpn_labels_rpn-data_0_split_1
I0418 16:10:24.629204 15298 net.cpp:150] Setting up rpn_labels_rpn-data_0_split
I0418 16:10:24.629211 15298 net.cpp:157] Top shape: 1 1 3552 1 1 (3552)
I0418 16:10:24.629215 15298 net.cpp:157] Top shape: 1 1 3552 1 1 (3552)
I0418 16:10:24.629218 15298 net.cpp:165] Memory required for data: 10172517948
I0418 16:10:24.629222 15298 layer_factory.hpp:77] Creating layer rpn_loss_cls
I0418 16:10:24.629231 15298 net.cpp:100] Creating Layer rpn_loss_cls
I0418 16:10:24.629235 15298 net.cpp:434] rpn_loss_cls <- rpn_cls_score_reshape_rpn_cls_score_reshape_0_split_0
I0418 16:10:24.629240 15298 net.cpp:434] rpn_loss_cls <- rpn_labels_rpn-data_0_split_0
…
I0418 16:10:24.629828 15298 layer_factory.hpp:77] Creating layer rpn_accuarcy
I0418 16:10:24.629835 15298 net.cpp:100] Creating Layer rpn_accuarcy
I0418 16:10:24.629839 15298 net.cpp:434] rpn_accuarcy <- rpn_cls_score_reshape_rpn_cls_score_reshape_0_split_1
I0418 16:10:24.629843 15298 net.cpp:434] rpn_accuarcy <- rpn_labels_rpn-data_0_split_1
I0418 16:10:24.629848 15298 net.cpp:408] rpn_accuarcy -> rpn_accuarcy
I0418 16:10:24.629853 15298 net.cpp:408] rpn_accuarcy -> rpn_accuarcy_class
I0418 16:10:24.629890 15298 net.cpp:150] Setting up rpn_accuarcy
I0418 16:10:24.629899 15298 net.cpp:157] Top shape: (1)
I0418 16:10:24.629902 15298 net.cpp:157] Top shape: 2 (2)
I0418 16:10:24.629905 15298 net.cpp:165] Memory required for data: 10172517968
I0418 16:10:24.629909 15298 layer_factory.hpp:77] Creating layer rpn_cls_prob
I0418 16:10:24.629914 15298 net.cpp:100] Creating Layer rpn_cls_prob
I0418 16:10:24.629917 15298 net.cpp:434] rpn_cls_prob <- rpn_cls_score_reshape_rpn_cls_score_reshape_0_split_2
I0418 16:10:24.629922 15298 net.cpp:408] rpn_cls_prob -> rpn_cls_prob
I0418 16:10:24.630911 15298 net.cpp:150] Setting up rpn_cls_prob
I0418 16:10:24.630923 15298 net.cpp:157] Top shape: 1 2 3552 1 1 (7104)
I0418 16:10:24.630928 15298 net.cpp:165] Memory required for data: 10172546384
I0418 16:10:24.630930 15298 layer_factory.hpp:77] Creating layer rpn_cls_prob_reshape
I0418 16:10:24.630937 15298 net.cpp:100] Creating Layer rpn_cls_prob_reshape
I0418 16:10:24.630941 15298 net.cpp:434] rpn_cls_prob_reshape <- rpn_cls_prob
I0418 16:10:24.630947 15298 net.cpp:408] rpn_cls_prob_reshape -> rpn_cls_prob_reshape
I0418 16:10:24.630973 15298 net.cpp:150] Setting up rpn_cls_prob_reshape
I0418 16:10:24.630981 15298 net.cpp:157] Top shape: 1 74 96 1 1 (7104)
I0418 16:10:24.630986 15298 net.cpp:165] Memory required for data: 10172574800
I0418 16:10:24.630991 15298 layer_factory.hpp:77] Creating layer proposal
I0418 16:10:24.631582 15298 net.cpp:100] Creating Layer proposal
I0418 16:10:24.631594 15298 net.cpp:434] proposal <- rpn_cls_prob_reshape
I0418 16:10:24.631603 15298 net.cpp:434] proposal <- rpn_twin_pred_rpn_twin_pred_0_split_1
I0418 16:10:24.631611 15298 net.cpp:408] proposal -> rpn_rois
I0418 16:10:24.634233 15298 net.cpp:150] Setting up proposal
I0418 16:10:24.634248 15298 net.cpp:157] Top shape: 1 3 (3)
I0418 16:10:24.634253 15298 net.cpp:165] Memory required for data: 10172574812
I0418 16:10:24.634256 15298 layer_factory.hpp:77] Creating layer roi-data
I0418 16:10:24.634393 15298 net.cpp:100] Creating Layer roi-data
I0418 16:10:24.634404 15298 net.cpp:434] roi-data <- rpn_rois
I0418 16:10:24.634410 15298 net.cpp:434] roi-data <- gt_boxes_data_1_split_1
I0418 16:10:24.634416 15298 net.cpp:408] roi-data -> rois
I0418 16:10:24.634424 15298 net.cpp:408] roi-data -> labels
I0418 16:10:24.634429 15298 net.cpp:408] roi-data -> twin_targets
I0418 16:10:24.634435 15298 net.cpp:408] roi-data -> twin_inside_weights
I0418 16:10:24.634440 15298 net.cpp:408] roi-data -> twin_outside_weights
I0418 16:10:24.634739 15298 net.cpp:150] Setting up roi-data
I0418 16:10:24.634753 15298 net.cpp:157] Top shape: 1 3 (3)
I0418 16:10:24.634757 15298 net.cpp:157] Top shape: 1 99 (99)
I0418 16:10:24.634780 15298 net.cpp:157] Top shape: 1 198 (198)
I0418 16:10:24.634784 15298 net.cpp:157] Top shape: 1 198 (198)
I0418 16:10:24.634788 15298 net.cpp:157] Top shape: 1 198 (198)
I0418 16:10:24.634791 15298 net.cpp:165] Memory required for data: 10172577596
I0418 16:10:24.634795 15298 layer_factory.hpp:77] Creating layer roi_pool5
I0418 16:10:24.634804 15298 net.cpp:100] Creating Layer roi_pool5
I0418 16:10:24.634809 15298 net.cpp:434] roi_pool5 <- conv5b_relu5b_0_split_1
I0418 16:10:24.634814 15298 net.cpp:434] roi_pool5 <- rois
I0418 16:10:24.634819 15298 net.cpp:408] roi_pool5 -> pool5
I0418 16:10:24.634827 15298 roi_pooling_layer.cpp:34] Temporal scale: 0.125
I0418 16:10:24.634836 15298 roi_pooling_layer.cpp:35] Spatial scale: 0.0625
I0418 16:10:24.634871 15298 net.cpp:150] Setting up roi_pool5
I0418 16:10:24.634881 15298 net.cpp:157] Top shape: 1 512 1 4 4 (8192)
I0418 16:10:24.634886 15298 net.cpp:165] Memory required for data: 10172610364
I0418 16:10:24.634889 15298 layer_factory.hpp:77] Creating layer fc6
I0418 16:10:24.634898 15298 net.cpp:100] Creating Layer fc6
I0418 16:10:24.634902 15298 net.cpp:434] fc6 <- pool5
I0418 16:10:24.634907 15298 net.cpp:408] fc6 -> fc6
I0418 16:10:25.515842 15298 net.cpp:150] Setting up fc6
I0418 16:10:25.515869 15298 net.cpp:157] Top shape: 1 4096 (4096)
I0418 16:10:25.515873 15298 net.cpp:165] Memory required for data: 10172626748
I0418 16:10:25.515883 15298 layer_factory.hpp:77] Creating layer relu6
I0418 16:10:25.515894 15298 net.cpp:100] Creating Layer relu6
I0418 16:10:25.515899 15298 net.cpp:434] relu6 <- fc6
I0418 16:10:25.515907 15298 net.cpp:395] relu6 -> fc6 (in-place)
I0418 16:10:25.516384 15298 net.cpp:150] Setting up relu6
I0418 16:10:25.516398 15298 net.cpp:157] Top shape: 1 4096 (4096)
I0418 16:10:25.516402 15298 net.cpp:165] Memory required for data: 10172643132
I0418 16:10:25.516407 15298 layer_factory.hpp:77] Creating layer drop6
I0418 16:10:25.516420 15298 net.cpp:100] Creating Layer drop6
I0418 16:10:25.516427 15298 net.cpp:434] drop6 <- fc6
I0418 16:10:25.516438 15298 net.cpp:395] drop6 -> fc6 (in-place)
I0418 16:10:25.516480 15298 net.cpp:150] Setting up drop6
I0418 16:10:25.516494 15298 net.cpp:157] Top shape: 1 4096 (4096)
I0418 16:10:25.516499 15298 net.cpp:165] Memory required for data: 10172659516
I0418 16:10:25.516504 15298 layer_factory.hpp:77] Creating layer fc6_drop6_0_split
I0418 16:10:25.516515 15298 net.cpp:100] Creating Layer fc6_drop6_0_split
I0418 16:10:25.516522 15298 net.cpp:434] fc6_drop6_0_split <- fc6
I0418 16:10:25.516530 15298 net.cpp:408] fc6_drop6_0_split -> fc6_drop6_0_split_0
I0418 16:10:25.516541 15298 net.cpp:408] fc6_drop6_0_split -> fc6_drop6_0_split_1
I0418 16:10:25.516584 15298 net.cpp:150] Setting up fc6_drop6_0_split
I0418 16:10:25.516597 15298 net.cpp:157] Top shape: 1 4096 (4096)
I0418 16:10:25.516603 15298 net.cpp:157] Top shape: 1 4096 (4096)
I0418 16:10:25.516611 15298 net.cpp:165] Memory required for data: 10172692284
I0418 16:10:25.516618 15298 layer_factory.hpp:77] Creating layer cls_score
I0418 16:10:25.516628 15298 net.cpp:100] Creating Layer cls_score
I0418 16:10:25.516635 15298 net.cpp:434] cls_score <- fc6_drop6_0_split_0
I0418 16:10:25.516643 15298 net.cpp:408] cls_score -> cls_score
I0418 16:10:25.527652 15298 net.cpp:150] Setting up cls_score
I0418 16:10:25.527679 15298 net.cpp:157] Top shape: 1 99 (99)
I0418 16:10:25.527683 15298 net.cpp:165] Memory required for data: 10172692680
I0418 16:10:25.527693 15298 layer_factory.hpp:77] Creating layer twin_pred
I0418 16:10:25.527705 15298 net.cpp:100] Creating Layer twin_pred
I0418 16:10:25.527710 15298 net.cpp:434] twin_pred <- fc6_drop6_0_split_1
I0418 16:10:25.527719 15298 net.cpp:408] twin_pred -> twin_pred
I0418 16:10:25.549674 15298 net.cpp:150] Setting up twin_pred
I0418 16:10:25.549698 15298 net.cpp:157] Top shape: 1 198 (198)
I0418 16:10:25.549702 15298 net.cpp:165] Memory required for data: 10172693472
I0418 16:10:25.549713 15298 layer_factory.hpp:77] Creating layer loss_cls
I0418 16:10:25.549727 15298 net.cpp:100] Creating Layer loss_cls
I0418 16:10:25.549732 15298 net.cpp:434] loss_cls <- cls_score
I0418 16:10:25.549738 15298 net.cpp:434] loss_cls <- labels
I0418 16:10:25.549744 15298 net.cpp:408] loss_cls -> loss_cls
…
