…
stepsize: 350000
snapshot: 0
snapshot_prefix: "./experiments/activitynet/snapshot/activitynet"
average_loss: 100
iter_size: 1
I0417 04:09:38.099812 15282 solver.cpp:81] Creating training net from train_net file: ./experiments/activitynet/train.prototxt
I0417 04:09:38.100914 15282 net.cpp:58] Initializing net from parameters: 
name: "activitynet"
state {
  phase: TRAIN
}
layer {
  name: "data"
  type: "Python"
  top: "data"
  top: "gt_boxes"
  python_param {
    module: "roi_data_layer.layer"
    layer: "RoIDataLayer"
    param_str: "\'num_classes\': 100"
  }
}
layer {
  name: "conv1a"
  type: "Convolution"
  bottom: "data"
  top: "conv1a"
  param {
    lr_mult: 0
    decay_mult: 0
  }
  param {
    lr_mult: 0
    decay_mult: 0
  }
  convolution_param {
    num_output: 64
    pad: 1
    pad: 1
    pad: 1
    kernel_size: 3
    kernel_size: 3
    kernel_size: 3
    weight_filler {
      type: "gaussian"
      std: 0.01
    }
    bias_filler {
      type: "constant"
      value: 0
    }
  }
}
layer {
  name: "relu1a"
  type: "ReLU"
  bottom: "conv1a"
  top: "conv1a"
}
layer {
  name: "pool1"
  type: "Pooling"
  bottom: "conv1a"
  top: "pool1"
  pooling_param {
    pool: MAX
    kernel_size: 1
    kernel_size: 2
    kernel_size: 2
    stride: 1
    stride: 2
    stride: 2
  }
}
layer {
  name: "conv2a"
  type: "Convolution"
  bottom: "pool1"
  top: "conv2a"
  param {
    lr_mult: 0
    decay_mult: 0
  }
  param {
    lr_mult: 0
    decay_mult: 0
  }
  convolution_param {
    num_output: 128
    pad: 1
    pad: 1
    pad: 1
    kernel_size: 3
    kernel_size: 3
    kernel_size: 3
    weight_filler {
      type: "gaussian"
      std: 0.01
    }
    bias_filler {
      type: "constant"
      value: 1
    }
  }
}
layer {
  name: "relu2a"
  type: "ReLU"
  bottom: "conv2a"
  top: "conv2a"
}
layer {
  name: "pool2"
  type: "Pooling"
  bottom: "conv2a"
  top: "pool2"
  pooling_param {
    pool: MAX
    kernel_size: 2
    kernel_size: 2
    kernel_size: 2
    stride: 2
    stride: 2
    stride: 2
  }
}
layer {
  name: "conv3a"
  type: "Convolution"
  bottom: "pool2"
  top: "conv3a"
  param {
    lr_mult: 1
    decay_mult: 1
  }
  param {
    lr_mult: 2
    decay_mult: 0
  }
  convolution_param {
    num_output: 256
    pad: 1
    pad: 1
    pad: 1
    kernel_size: 3
    kernel_size: 3
    kernel_size: 3
    weight_filler {
      type: "gaussian"
      std: 0.01
    }
    bias_filler {
      type: "constant"
      value: 1
    }
  }
}
layer {
  name: "relu3a"
  type: "ReLU"
  bottom: "conv3a"
  top: "conv3a"
}
layer {
  name: "conv3b"
  type: "Convolution"
  bottom: "conv3a"
  top: "conv3b"
  param {
    lr_mult: 1
    decay_mult: 1
  }
  param {
    lr_mult: 2
    decay_mult: 0
  }
  convolution_param {
    num_output: 256
    pad: 1
    pad: 1
    pad: 1
    kernel_size: 3
    kernel_size: 3
    kernel_size: 3
    weight_filler {
      type: "gaussian"
      std: 0.01
    }
    bias_filler {
      type: "constant"
      value: 1
    }
  }
}
layer {
  name: "relu3b"
  type: "ReLU"
  bottom: "conv3b"
  top: "conv3b"
}
layer {
  name: "pool3"
  type: "Pooling"
  bottom: "conv3b"
  top: "pool3"
  pooling_param {
    pool: MAX
    kernel_size: 2
    kernel_size: 2
    kernel_size: 2
    stride: 2
    stride: 2
    stride: 2
  }
}
layer {
  name: "conv4a"
  type: "Convolution"
  bottom: "pool3"
  top: "conv4a"
  param {
    lr_mult: 1
    decay_mult: 1
  }
  param {
    lr_mult: 2
    decay_mult: 0
  }
  convolution_param {
    num_output: 512
    pad: 1
    pad: 1
    pad: 1
    kernel_size: 3
    kernel_size: 3
    kernel_size: 3
    weight_filler {
      type: "gaussian"
      std: 0.01
    }
    bias_filler {
      type: "constant"
      value: 1
    }
  }
}
layer {
  name: "relu4a"
  type: "ReLU"
  bottom: "conv4a"
  top: "conv4a"
}
layer {
  name: "conv4b"
  type: "Convolution"
  bottom: "conv4a"
  top: "conv4b"
  param {
    lr_mult: 1
    decay_mult: 1
  }
  param {
    lr_mult: 2
    decay_mult: 0
  }
  convolution_param {
    num_output: 512
    pad: 1
    pad: 1
    pad: 1
    kernel_size: 3
    kernel_size: 3
    kernel_size: 3
    weight_filler {
      type: "gaussian"
      std: 0.01
    }
    bias_filler {
      type: "constant"
      value: 1
    }
  }
}
layer {
  name: "relu4b"
  type: "ReLU"
  bottom: "conv4b"
  top: "conv4b"
}
layer {
  name: "pool4"
  type: "Pooling"
  bottom: "conv4b"
  top: "pool4"
  pooling_param {
    pool: MAX
    kernel_size: 2
    kernel_size: 2
    kernel_size: 2
    stride: 2
    stride: 2
    stride: 2
  }
}
layer {
  name: "conv5a"
  type: "Convolution"
  bottom: "pool4"
  top: "conv5a"
  param {
    lr_mult: 1
    decay_mult: 1
  }
  param {
    lr_mult: 2
    decay_mult: 0
  }
  convolution_param {
    num_output: 512
    pad: 1
    pad: 1
    pad: 1
    kernel_size: 3
    kernel_size: 3
    kernel_size: 3
    weight_filler {
      type: "gaussian"
      std: 0.01
    }
    bias_filler {
      type: "constant"
      value: 1
    }
  }
}
layer {
  name: "relu5a"
  type: "ReLU"
  bottom: "conv5a"
  top: "conv5a"
}
layer {
  name: "conv5b"
  type: "Convolution"
  bottom: "conv5a"
  top: "conv5b"
  param {
    lr_mult: 1
    decay_mult: 1
  }
  param {
    lr_mult: 2
    decay_mult: 0
  }
  convolution_param {
    num_output: 512
    pad: 1
    pad: 1
    pad: 1
    kernel_size: 3
    kernel_size: 3
    kernel_size: 3
    weight_filler {
      type: "gaussian"
      std: 0.01
    }
    bias_filler {
      type: "constant"
      value: 1
    }
  }
}
layer {
  name: "relu5b"
  type: "ReLU"
  bottom: "conv5b"
  top: "conv5b"
}
layer {
  name: "rpn_conv/3x3"
  type: "Convolution"
  bottom: "conv5b"
  top: "rpn/output"
  param {
    lr_mult: 1
    decay_mult: 1
  }
  param {
    lr_mult: 2
    decay_mult: 0
  }
  convolution_param {
    num_output: 512
    pad: 1
    pad: 1
    pad: 1
    kernel_size: 3
    kernel_size: 3
    kernel_size: 3
    stride: 1
    stride: 2
    stride: 2
    weight_filler {
      type: "gaussian"
      std: 0.01
    }
    bias_filler {
      type: "constant"
      value: 0
    }
  }
}
layer {
  name: "rpn_relu/3x3"
  type: "ReLU"
  bottom: "rpn/output"
  top: "rpn/output"
}
layer {
  name: "rpn_conv/3x3_2"
  type: "Convolution"
  bottom: "rpn/output"
  top: "rpn/output_2"
  param {
    lr_mult: 1
    decay_mult: 1
  }
  param {
    lr_mult: 2
    decay_mult: 0
  }
  convolution_param {
    num_output: 512
    pad: 1
    pad: 1
    pad: 1
    kernel_size: 3
    kernel_size: 3
    kernel_size: 3
    stride: 1
    stride: 2
    stride: 2
    weight_filler {
      type: "gaussian"
      std: 0.01
    }
    bias_filler {
      type: "constant"
      value: 0
    }
  }
}
layer {
  name: "rpn_relu/3x3_2"
  type: "ReLU"
  bottom: "rpn/output_2"
  top: "rpn/output_2"
}
layer {
  name: "rpn/output_pool"
  type: "Pooling"
  bottom: "rpn/output_2"
  top: "rpn/output_pool"
  pooling_param {
    pool: MAX
    kernel_size: 1
    kernel_size: 2
    kernel_size: 2
  }
}
layer {
  name: "rpn_cls_score"
  type: "Convolution"
  bottom: "rpn/output_pool"
  top: "rpn_cls_score"
  param {
    lr_mult: 1
    decay_mult: 1
  }
  param {
    lr_mult: 2
    decay_mult: 0
  }
  convolution_param {
    num_output: 74
    kernel_size: 1
    kernel_size: 1
    kernel_size: 1
    weight_filler {
      type: "gaussian"
      std: 0.01
    }
    bias_filler {
      type: "constant"
      value: 0
    }
  }
}
layer {
  name: "rpn_twin_pred"
  type: "Convolution"
  bottom: "rpn/output_pool"
  top: "rpn_twin_pred"
  param {
    lr_mult: 1
    decay_mult: 1
  }
  param {
    lr_mult: 2
    decay_mult: 0
  }
  convolution_param {
    num_output: 74
    kernel_size: 1
    kernel_size: 1
    kernel_size: 1
    weight_filler {
      type: "gaussian"
      std: 0.01
    }
    bias_filler {
      type: "constant"
      value: 0
    }
  }
}
layer {
  name: "rpn_cls_score_reshape"
  type: "Reshape"
  bottom: "rpn_cls_score"
  top: "rpn_cls_score_reshape"
  reshape_param {
    shape {
      dim: 0
      dim: 2
      dim: -1
      dim: 0
      dim: 0
    }
  }
}
layer {
  name: "rpn-data"
  type: "Python"
  bottom: "rpn_cls_score"
  bottom: "gt_boxes"
  bottom: "data"
  top: "rpn_labels"
  top: "rpn_twin_targets"
  top: "rpn_twin_inside_weights"
  top: "rpn_twin_outside_weights"
  python_param {
    module: "rpn.anchor_target_layer"
    layer: "AnchorTargetLayer"
    param_str: "\'feat_stride\': 8 \n\'scales\': !!python/tuple [1,1.25, 1.5,1.75, 2,2.5, 3,3.5, 4,4.5, 5,5.5, 6,7, 8,9,10,11,12,14,16,18,20,22,24,28,32,36,40,44,52,60,68,76,84,92,100]"
  }
}
layer {
  name: "rpn_loss_cls"
  type: "SoftmaxWithLoss"
  bottom: "rpn_cls_score_reshape"
  bottom: "rpn_labels"
  top: "rpn_cls_loss"
  loss_weight: 1
  propagate_down: true
  propagate_down: false
  loss_param {
    ignore_label: -1
    normalize: true
  }
}
layer {
  name: "rpn_loss_twin"
  type: "SmoothL1Loss"
  bottom: "rpn_twin_pred"
  bottom: "rpn_twin_targets"
  bottom: "rpn_twin_inside_weights"
  bottom: "rpn_twin_outside_weights"
  top: "rpn_loss_twin"
  loss_weight: 1
  smooth_l1_loss_param {
    sigma: 3
  }
}
layer {
  name: "rpn_accuarcy"
  type: "Accuracy"
  bottom: "rpn_cls_score_reshape"
  bottom: "rpn_labels"
  top: "rpn_accuarcy"
  top: "rpn_accuarcy_class"
  propagate_down: false
  propagate_down: false
  accuracy_param {
    ignore_label: -1
  }
}
layer {
  name: "rpn_cls_prob"
  type: "Softmax"
  bottom: "rpn_cls_score_reshape"
  top: "rpn_cls_prob"
}
layer {
  name: "rpn_cls_prob_reshape"
  type: "Reshape"
  bottom: "rpn_cls_prob"
  top: "rpn_cls_prob_reshape"
  reshape_param {
    shape {
      dim: 0
      dim: 74
      dim: -1
      dim: 0
      dim: 0
    }
  }
}
layer {
  name: "proposal"
  type: "Python"
  bottom: "rpn_cls_prob_reshape"
  bottom: "rpn_twin_pred"
  top: "rpn_rois"
  include {
    phase: TRAIN
  }
  python_param {
    module: "rpn.proposal_layer"
    layer: "ProposalLayer"
    param_str: "\'feat_stride\': 8 \n\'scales\': !!python/tuple [1,1.25, 1.5,1.75, 2,2.5, 3,3.5, 4,4.5, 5,5.5, 6,7, 8,9,10,11,12,14,16,18,20,22,24,28,32,36,40,44,52,60,68,76,84,92,100]"
  }
}
layer {
  name: "roi-data"
  type: "Python"
  bottom: "rpn_rois"
  bottom: "gt_boxes"
  top: "rois"
  top: "labels"
  top: "twin_targets"
  top: "twin_inside_weights"
  top: "twin_outside_weights"
  python_param {
    module: "rpn.proposal_target_layer"
    layer: "ProposalTargetLayer"
    param_str: "\'num_classes\': 201"
  }
}
layer {
  name: "roi_pool5"
  type: "ROIPooling"
  bottom: "conv5b"
  bottom: "rois"
  top: "pool5"
  roi_pooling_param {
    pooled_h: 4
    pooled_w: 4
    spatial_scale: 0.0625
    pooled_l: 1
    temporal_scale: 0.125
  }
}
layer {
  name: "fc6"
  type: "InnerProduct"
  bottom: "pool5"
  top: "fc6"
  param {
    lr_mult: 1
    decay_mult: 1
  }
  param {
    lr_mult: 2
    decay_mult: 0
  }
  inner_product_param {
    num_output: 4096
    weight_filler {
      type: "gaussian"
      std: 0.005
    }
    bias_filler {
      type: "constant"
      value: 1
    }
  }
}
layer {
  name: "relu6"
  type: "ReLU"
  bottom: "fc6"
  top: "fc6"
}
layer {
  name: "drop6"
  type: "Dropout"
  bottom: "fc6"
  top: "fc6"
  dropout_param {
    dropout_ratio: 0.5
  }
}
layer {
  name: "cls_score"
  type: "InnerProduct"
  bottom: "fc6"
  top: "cls_score"
  param {
    lr_mult: 1
    decay_mult: 1
  }
  param {
    lr_mult: 2
    decay_mult: 0
  }
  inner_product_param {
    num_output: 201
    weight_filler {
      type: "gaussian"
      std: 0.01
    }
    bias_filler {
      type: "constant"
      value: 0
    }
  }
}
layer {
  name: "twin_pred"
  type: "InnerProduct"
  bottom: "fc6"
  top: "twin_pred"
  param {
    lr_mult: 1
    decay_mult: 1
  }
  param {
    lr_mult: 2
    decay_mult: 0
  }
  inner_product_param {
    num_output: 402
    weight_filler {
      type: "gaussian"
      std: 0.001
    }
    bias_filler {
      type: "constant"
      value: 0
    }
  }
}
layer {
  name: "loss_cls"
  type: "SoftmaxWithLoss"
  bottom: "cls_score"
  bottom: "labels"
  top: "loss_cls"
  loss_weight: 1
  propagate_down: true
  propagate_down: false
}
layer {
  name: "loss_twin"
  type: "SmoothL1Loss"
  bottom: "twin_pred"
  bottom: "twin_targets"
  bottom: "twin_inside_weights"
  bottom: "twin_outside_weights"
  top: "loss_twin"
  loss_weight: 1
}
layer {
  name: "accuarcy"
  type: "Accuracy"
  bottom: "cls_score"
  bottom: "labels"
  top: "accuarcy"
  propagate_down: false
  propagate_down: false
  accuracy_param {
    ignore_label: -1
  }
}
I0417 04:09:38.101135 15282 layer_factory.hpp:77] Creating layer data
I0417 04:09:38.127048 15282 net.cpp:100] Creating Layer data
I0417 04:09:38.127073 15282 net.cpp:408] data -> data
I0417 04:09:38.127085 15282 net.cpp:408] data -> gt_boxes
setting up
RoiDataLayer: name_to_top: {'gt_windows': 1, 'data': 0}
I0417 04:09:38.142206 15282 net.cpp:150] Setting up data
I0417 04:09:38.142251 15282 net.cpp:157] Top shape: 1 3 768 112 112 (28901376)
I0417 04:09:38.142264 15282 net.cpp:157] Top shape: 1 101 (101)
I0417 04:09:38.142279 15282 net.cpp:165] Memory required for data: 115605908
I0417 04:09:38.142292 15282 layer_factory.hpp:77] Creating layer data_data_0_split
I0417 04:09:38.142315 15282 net.cpp:100] Creating Layer data_data_0_split
I0417 04:09:38.142331 15282 net.cpp:434] data_data_0_split <- data
I0417 04:09:38.142345 15282 net.cpp:408] data_data_0_split -> data_data_0_split_0
I0417 04:09:38.142370 15282 net.cpp:408] data_data_0_split -> data_data_0_split_1
I0417 04:09:38.142508 15282 net.cpp:150] Setting up data_data_0_split
I0417 04:09:38.142529 15282 net.cpp:157] Top shape: 1 3 768 112 112 (28901376)
I0417 04:09:38.142539 15282 net.cpp:157] Top shape: 1 3 768 112 112 (28901376)
I0417 04:09:38.142546 15282 net.cpp:165] Memory required for data: 346816916
I0417 04:09:38.142554 15282 layer_factory.hpp:77] Creating layer gt_boxes_data_1_split
I0417 04:09:38.142566 15282 net.cpp:100] Creating Layer gt_boxes_data_1_split
I0417 04:09:38.142580 15282 net.cpp:434] gt_boxes_data_1_split <- gt_boxes
I0417 04:09:38.142594 15282 net.cpp:408] gt_boxes_data_1_split -> gt_boxes_data_1_split_0
I0417 04:09:38.142611 15282 net.cpp:408] gt_boxes_data_1_split -> gt_boxes_data_1_split_1
I0417 04:09:38.142724 15282 net.cpp:150] Setting up gt_boxes_data_1_split
I0417 04:09:38.142740 15282 net.cpp:157] Top shape: 1 101 (101)
I0417 04:09:38.142748 15282 net.cpp:157] Top shape: 1 101 (101)
I0417 04:09:38.142756 15282 net.cpp:165] Memory required for data: 346817724
I0417 04:09:38.142782 15282 layer_factory.hpp:77] Creating layer conv1a
I0417 04:09:38.142812 15282 net.cpp:100] Creating Layer conv1a
I0417 04:09:38.142827 15282 net.cpp:434] conv1a <- data_data_0_split_0
I0417 04:09:38.142843 15282 net.cpp:408] conv1a -> conv1a
I0417 04:09:38.169973 15282 net.cpp:150] Setting up conv1a
I0417 04:09:38.170006 15282 net.cpp:157] Top shape: 1 64 768 112 112 (616562688)
I0417 04:09:38.170011 15282 net.cpp:165] Memory required for data: 2813068476
I0417 04:09:38.170032 15282 layer_factory.hpp:77] Creating layer relu1a
I0417 04:09:38.170047 15282 net.cpp:100] Creating Layer relu1a
I0417 04:09:38.170051 15282 net.cpp:434] relu1a <- conv1a
I0417 04:09:38.170058 15282 net.cpp:395] relu1a -> conv1a (in-place)
I0417 04:09:38.170070 15282 net.cpp:150] Setting up relu1a
I0417 04:09:38.170074 15282 net.cpp:157] Top shape: 1 64 768 112 112 (616562688)
I0417 04:09:38.170078 15282 net.cpp:165] Memory required for data: 5279319228
I0417 04:09:38.170081 15282 layer_factory.hpp:77] Creating layer pool1
I0417 04:09:38.170089 15282 net.cpp:100] Creating Layer pool1
I0417 04:09:38.170094 15282 net.cpp:434] pool1 <- conv1a
I0417 04:09:38.170099 15282 net.cpp:408] pool1 -> pool1
I0417 04:09:38.170205 15282 net.cpp:150] Setting up pool1
I0417 04:09:38.170217 15282 net.cpp:157] Top shape: 1 64 768 56 56 (154140672)
I0417 04:09:38.170219 15282 net.cpp:165] Memory required for data: 5895881916
I0417 04:09:38.170223 15282 layer_factory.hpp:77] Creating layer conv2a
I0417 04:09:38.170239 15282 net.cpp:100] Creating Layer conv2a
I0417 04:09:38.170243 15282 net.cpp:434] conv2a <- pool1
I0417 04:09:38.170248 15282 net.cpp:408] conv2a -> conv2a
I0417 04:09:38.180976 15282 net.cpp:150] Setting up conv2a
I0417 04:09:38.181002 15282 net.cpp:157] Top shape: 1 128 768 56 56 (308281344)
I0417 04:09:38.181007 15282 net.cpp:165] Memory required for data: 7129007292
I0417 04:09:38.181018 15282 layer_factory.hpp:77] Creating layer relu2a
I0417 04:09:38.181027 15282 net.cpp:100] Creating Layer relu2a
I0417 04:09:38.181031 15282 net.cpp:434] relu2a <- conv2a
I0417 04:09:38.181036 15282 net.cpp:395] relu2a -> conv2a (in-place)
I0417 04:09:38.181044 15282 net.cpp:150] Setting up relu2a
I0417 04:09:38.181049 15282 net.cpp:157] Top shape: 1 128 768 56 56 (308281344)
I0417 04:09:38.181052 15282 net.cpp:165] Memory required for data: 8362132668
I0417 04:09:38.181056 15282 layer_factory.hpp:77] Creating layer pool2
I0417 04:09:38.181064 15282 net.cpp:100] Creating Layer pool2
I0417 04:09:38.181067 15282 net.cpp:434] pool2 <- conv2a
I0417 04:09:38.181072 15282 net.cpp:408] pool2 -> pool2
I0417 04:09:38.181149 15282 net.cpp:150] Setting up pool2
I0417 04:09:38.181160 15282 net.cpp:157] Top shape: 1 128 384 28 28 (38535168)
I0417 04:09:38.181164 15282 net.cpp:165] Memory required for data: 8516273340
I0417 04:09:38.181166 15282 layer_factory.hpp:77] Creating layer conv3a
I0417 04:09:38.181177 15282 net.cpp:100] Creating Layer conv3a
I0417 04:09:38.181181 15282 net.cpp:434] conv3a <- pool2
I0417 04:09:38.181187 15282 net.cpp:408] conv3a -> conv3a
I0417 04:09:38.206126 15282 net.cpp:150] Setting up conv3a
I0417 04:09:38.206147 15282 net.cpp:157] Top shape: 1 256 384 28 28 (77070336)
I0417 04:09:38.206151 15282 net.cpp:165] Memory required for data: 8824554684
I0417 04:09:38.206161 15282 layer_factory.hpp:77] Creating layer relu3a
I0417 04:09:38.206176 15282 net.cpp:100] Creating Layer relu3a
I0417 04:09:38.206179 15282 net.cpp:434] relu3a <- conv3a
I0417 04:09:38.206187 15282 net.cpp:395] relu3a -> conv3a (in-place)
I0417 04:09:38.206193 15282 net.cpp:150] Setting up relu3a
I0417 04:09:38.206197 15282 net.cpp:157] Top shape: 1 256 384 28 28 (77070336)
I0417 04:09:38.206202 15282 net.cpp:165] Memory required for data: 9132836028
I0417 04:09:38.206204 15282 layer_factory.hpp:77] Creating layer conv3b
I0417 04:09:38.206213 15282 net.cpp:100] Creating Layer conv3b
I0417 04:09:38.206216 15282 net.cpp:434] conv3b <- conv3a
I0417 04:09:38.206221 15282 net.cpp:408] conv3b -> conv3b
I0417 04:09:38.254897 15282 net.cpp:150] Setting up conv3b
I0417 04:09:38.254923 15282 net.cpp:157] Top shape: 1 256 384 28 28 (77070336)
I0417 04:09:38.254927 15282 net.cpp:165] Memory required for data: 9441117372
I0417 04:09:38.254936 15282 layer_factory.hpp:77] Creating layer relu3b
I0417 04:09:38.254945 15282 net.cpp:100] Creating Layer relu3b
I0417 04:09:38.254951 15282 net.cpp:434] relu3b <- conv3b
I0417 04:09:38.254957 15282 net.cpp:395] relu3b -> conv3b (in-place)
I0417 04:09:38.254966 15282 net.cpp:150] Setting up relu3b
I0417 04:09:38.254969 15282 net.cpp:157] Top shape: 1 256 384 28 28 (77070336)
I0417 04:09:38.254973 15282 net.cpp:165] Memory required for data: 9749398716
I0417 04:09:38.254976 15282 layer_factory.hpp:77] Creating layer pool3
I0417 04:09:38.254983 15282 net.cpp:100] Creating Layer pool3
I0417 04:09:38.254987 15282 net.cpp:434] pool3 <- conv3b
I0417 04:09:38.254992 15282 net.cpp:408] pool3 -> pool3
I0417 04:09:38.255045 15282 net.cpp:150] Setting up pool3
I0417 04:09:38.255053 15282 net.cpp:157] Top shape: 1 256 192 14 14 (9633792)
I0417 04:09:38.255058 15282 net.cpp:165] Memory required for data: 9787933884
I0417 04:09:38.255060 15282 layer_factory.hpp:77] Creating layer conv4a
I0417 04:09:38.255070 15282 net.cpp:100] Creating Layer conv4a
I0417 04:09:38.255076 15282 net.cpp:434] conv4a <- pool3
I0417 04:09:38.255082 15282 net.cpp:408] conv4a -> conv4a
I0417 04:09:38.352650 15282 net.cpp:150] Setting up conv4a
I0417 04:09:38.352674 15282 net.cpp:157] Top shape: 1 512 192 14 14 (19267584)
I0417 04:09:38.352679 15282 net.cpp:165] Memory required for data: 9865004220
I0417 04:09:38.352692 15282 layer_factory.hpp:77] Creating layer relu4a
I0417 04:09:38.352702 15282 net.cpp:100] Creating Layer relu4a
I0417 04:09:38.352706 15282 net.cpp:434] relu4a <- conv4a
I0417 04:09:38.352713 15282 net.cpp:395] relu4a -> conv4a (in-place)
I0417 04:09:38.352722 15282 net.cpp:150] Setting up relu4a
I0417 04:09:38.352731 15282 net.cpp:157] Top shape: 1 512 192 14 14 (19267584)
I0417 04:09:38.352735 15282 net.cpp:165] Memory required for data: 9942074556
I0417 04:09:38.352738 15282 layer_factory.hpp:77] Creating layer conv4b
I0417 04:09:38.352753 15282 net.cpp:100] Creating Layer conv4b
I0417 04:09:38.352757 15282 net.cpp:434] conv4b <- conv4a
I0417 04:09:38.352763 15282 net.cpp:408] conv4b -> conv4b
I0417 04:09:38.545992 15282 net.cpp:150] Setting up conv4b
I0417 04:09:38.546018 15282 net.cpp:157] Top shape: 1 512 192 14 14 (19267584)
I0417 04:09:38.546022 15282 net.cpp:165] Memory required for data: 10019144892
I0417 04:09:38.546031 15282 layer_factory.hpp:77] Creating layer relu4b
I0417 04:09:38.546041 15282 net.cpp:100] Creating Layer relu4b
I0417 04:09:38.546046 15282 net.cpp:434] relu4b <- conv4b
I0417 04:09:38.546053 15282 net.cpp:395] relu4b -> conv4b (in-place)
I0417 04:09:38.546062 15282 net.cpp:150] Setting up relu4b
I0417 04:09:38.546069 15282 net.cpp:157] Top shape: 1 512 192 14 14 (19267584)
I0417 04:09:38.546072 15282 net.cpp:165] Memory required for data: 10096215228
I0417 04:09:38.546077 15282 layer_factory.hpp:77] Creating layer pool4
I0417 04:09:38.546083 15282 net.cpp:100] Creating Layer pool4
I0417 04:09:38.546087 15282 net.cpp:434] pool4 <- conv4b
I0417 04:09:38.546092 15282 net.cpp:408] pool4 -> pool4
I0417 04:09:38.546141 15282 net.cpp:150] Setting up pool4
I0417 04:09:38.546149 15282 net.cpp:157] Top shape: 1 512 96 7 7 (2408448)
I0417 04:09:38.546152 15282 net.cpp:165] Memory required for data: 10105849020
I0417 04:09:38.546155 15282 layer_factory.hpp:77] Creating layer conv5a
I0417 04:09:38.546172 15282 net.cpp:100] Creating Layer conv5a
I0417 04:09:38.546176 15282 net.cpp:434] conv5a <- pool4
I0417 04:09:38.546182 15282 net.cpp:408] conv5a -> conv5a
I0417 04:09:38.737983 15282 net.cpp:150] Setting up conv5a
I0417 04:09:38.738008 15282 net.cpp:157] Top shape: 1 512 96 7 7 (2408448)
I0417 04:09:38.738011 15282 net.cpp:165] Memory required for data: 10115482812
I0417 04:09:38.738021 15282 layer_factory.hpp:77] Creating layer relu5a
I0417 04:09:38.738031 15282 net.cpp:100] Creating Layer relu5a
I0417 04:09:38.738036 15282 net.cpp:434] relu5a <- conv5a
I0417 04:09:38.738042 15282 net.cpp:395] relu5a -> conv5a (in-place)
I0417 04:09:38.738051 15282 net.cpp:150] Setting up relu5a
I0417 04:09:38.738055 15282 net.cpp:157] Top shape: 1 512 96 7 7 (2408448)
I0417 04:09:38.738059 15282 net.cpp:165] Memory required for data: 10125116604
I0417 04:09:38.738061 15282 layer_factory.hpp:77] Creating layer conv5b
I0417 04:09:38.738071 15282 net.cpp:100] Creating Layer conv5b
I0417 04:09:38.738077 15282 net.cpp:434] conv5b <- conv5a
I0417 04:09:38.738083 15282 net.cpp:408] conv5b -> conv5b
I0417 04:09:38.926069 15282 net.cpp:150] Setting up conv5b
I0417 04:09:38.926098 15282 net.cpp:157] Top shape: 1 512 96 7 7 (2408448)
I0417 04:09:38.926102 15282 net.cpp:165] Memory required for data: 10134750396
I0417 04:09:38.926111 15282 layer_factory.hpp:77] Creating layer relu5b
I0417 04:09:38.926121 15282 net.cpp:100] Creating Layer relu5b
I0417 04:09:38.926126 15282 net.cpp:434] relu5b <- conv5b
I0417 04:09:38.926136 15282 net.cpp:395] relu5b -> conv5b (in-place)
I0417 04:09:38.926146 15282 net.cpp:150] Setting up relu5b
I0417 04:09:38.926149 15282 net.cpp:157] Top shape: 1 512 96 7 7 (2408448)
I0417 04:09:38.926152 15282 net.cpp:165] Memory required for data: 10144384188
I0417 04:09:38.926156 15282 layer_factory.hpp:77] Creating layer conv5b_relu5b_0_split
I0417 04:09:38.926162 15282 net.cpp:100] Creating Layer conv5b_relu5b_0_split
I0417 04:09:38.926164 15282 net.cpp:434] conv5b_relu5b_0_split <- conv5b
I0417 04:09:38.926168 15282 net.cpp:408] conv5b_relu5b_0_split -> conv5b_relu5b_0_split_0
I0417 04:09:38.926177 15282 net.cpp:408] conv5b_relu5b_0_split -> conv5b_relu5b_0_split_1
I0417 04:09:38.926221 15282 net.cpp:150] Setting up conv5b_relu5b_0_split
I0417 04:09:38.926229 15282 net.cpp:157] Top shape: 1 512 96 7 7 (2408448)
I0417 04:09:38.926234 15282 net.cpp:157] Top shape: 1 512 96 7 7 (2408448)
I0417 04:09:38.926236 15282 net.cpp:165] Memory required for data: 10163651772
I0417 04:09:38.926239 15282 layer_factory.hpp:77] Creating layer rpn_conv/3x3
I0417 04:09:38.926251 15282 net.cpp:100] Creating Layer rpn_conv/3x3
I0417 04:09:38.926257 15282 net.cpp:434] rpn_conv/3x3 <- conv5b_relu5b_0_split_0
I0417 04:09:38.926265 15282 net.cpp:408] rpn_conv/3x3 -> rpn/output
I0417 04:09:39.113793 15282 net.cpp:150] Setting up rpn_conv/3x3
I0417 04:09:39.113817 15282 net.cpp:157] Top shape: 1 512 96 4 4 (786432)
I0417 04:09:39.113821 15282 net.cpp:165] Memory required for data: 10166797500
I0417 04:09:39.113834 15282 layer_factory.hpp:77] Creating layer rpn_relu/3x3
I0417 04:09:39.113845 15282 net.cpp:100] Creating Layer rpn_relu/3x3
I0417 04:09:39.113850 15282 net.cpp:434] rpn_relu/3x3 <- rpn/output
I0417 04:09:39.113857 15282 net.cpp:395] rpn_relu/3x3 -> rpn/output (in-place)
I0417 04:09:39.113868 15282 net.cpp:150] Setting up rpn_relu/3x3
I0417 04:09:39.113873 15282 net.cpp:157] Top shape: 1 512 96 4 4 (786432)
I0417 04:09:39.113876 15282 net.cpp:165] Memory required for data: 10169943228
I0417 04:09:39.113879 15282 layer_factory.hpp:77] Creating layer rpn_conv/3x3_2
I0417 04:09:39.113889 15282 net.cpp:100] Creating Layer rpn_conv/3x3_2
I0417 04:09:39.113893 15282 net.cpp:434] rpn_conv/3x3_2 <- rpn/output
I0417 04:09:39.113898 15282 net.cpp:408] rpn_conv/3x3_2 -> rpn/output_2
I0417 04:09:39.301187 15282 net.cpp:150] Setting up rpn_conv/3x3_2
I0417 04:09:39.301224 15282 net.cpp:157] Top shape: 1 512 96 2 2 (196608)
I0417 04:09:39.301229 15282 net.cpp:165] Memory required for data: 10170729660
I0417 04:09:39.301237 15282 layer_factory.hpp:77] Creating layer rpn_relu/3x3_2
I0417 04:09:39.301246 15282 net.cpp:100] Creating Layer rpn_relu/3x3_2
I0417 04:09:39.301254 15282 net.cpp:434] rpn_relu/3x3_2 <- rpn/output_2
I0417 04:09:39.301260 15282 net.cpp:395] rpn_relu/3x3_2 -> rpn/output_2 (in-place)
I0417 04:09:39.301270 15282 net.cpp:150] Setting up rpn_relu/3x3_2
I0417 04:09:39.301273 15282 net.cpp:157] Top shape: 1 512 96 2 2 (196608)
I0417 04:09:39.301276 15282 net.cpp:165] Memory required for data: 10171516092
I0417 04:09:39.301280 15282 layer_factory.hpp:77] Creating layer rpn/output_pool
I0417 04:09:39.301285 15282 net.cpp:100] Creating Layer rpn/output_pool
I0417 04:09:39.301290 15282 net.cpp:434] rpn/output_pool <- rpn/output_2
I0417 04:09:39.301295 15282 net.cpp:408] rpn/output_pool -> rpn/output_pool
I0417 04:09:39.301345 15282 net.cpp:150] Setting up rpn/output_pool
I0417 04:09:39.301355 15282 net.cpp:157] Top shape: 1 512 96 1 1 (49152)
I0417 04:09:39.301358 15282 net.cpp:165] Memory required for data: 10171712700
I0417 04:09:39.301362 15282 layer_factory.hpp:77] Creating layer rpn/output_pool_rpn/output_pool_0_split
I0417 04:09:39.301367 15282 net.cpp:100] Creating Layer rpn/output_pool_rpn/output_pool_0_split
I0417 04:09:39.301370 15282 net.cpp:434] rpn/output_pool_rpn/output_pool_0_split <- rpn/output_pool
I0417 04:09:39.301375 15282 net.cpp:408] rpn/output_pool_rpn/output_pool_0_split -> rpn/output_pool_rpn/output_pool_0_split_0
I0417 04:09:39.301384 15282 net.cpp:408] rpn/output_pool_rpn/output_pool_0_split -> rpn/output_pool_rpn/output_pool_0_split_1
I0417 04:09:39.301427 15282 net.cpp:150] Setting up rpn/output_pool_rpn/output_pool_0_split
I0417 04:09:39.301434 15282 net.cpp:157] Top shape: 1 512 96 1 1 (49152)
I0417 04:09:39.301439 15282 net.cpp:157] Top shape: 1 512 96 1 1 (49152)
I0417 04:09:39.301441 15282 net.cpp:165] Memory required for data: 10172105916
I0417 04:09:39.301445 15282 layer_factory.hpp:77] Creating layer rpn_cls_score
I0417 04:09:39.301455 15282 net.cpp:100] Creating Layer rpn_cls_score
I0417 04:09:39.301458 15282 net.cpp:434] rpn_cls_score <- rpn/output_pool_rpn/output_pool_0_split_0
I0417 04:09:39.301463 15282 net.cpp:408] rpn_cls_score -> rpn_cls_score
I0417 04:09:39.302718 15282 net.cpp:150] Setting up rpn_cls_score
I0417 04:09:39.302727 15282 net.cpp:157] Top shape: 1 74 96 1 1 (7104)
I0417 04:09:39.302731 15282 net.cpp:165] Memory required for data: 10172134332
I0417 04:09:39.302736 15282 layer_factory.hpp:77] Creating layer rpn_cls_score_rpn_cls_score_0_split
I0417 04:09:39.302742 15282 net.cpp:100] Creating Layer rpn_cls_score_rpn_cls_score_0_split
I0417 04:09:39.302747 15282 net.cpp:434] rpn_cls_score_rpn_cls_score_0_split <- rpn_cls_score
I0417 04:09:39.302752 15282 net.cpp:408] rpn_cls_score_rpn_cls_score_0_split -> rpn_cls_score_rpn_cls_score_0_split_0
I0417 04:09:39.302757 15282 net.cpp:408] rpn_cls_score_rpn_cls_score_0_split -> rpn_cls_score_rpn_cls_score_0_split_1
I0417 04:09:39.302824 15282 net.cpp:150] Setting up rpn_cls_score_rpn_cls_score_0_split
I0417 04:09:39.302834 15282 net.cpp:157] Top shape: 1 74 96 1 1 (7104)
I0417 04:09:39.302837 15282 net.cpp:157] Top shape: 1 74 96 1 1 (7104)
I0417 04:09:39.302840 15282 net.cpp:165] Memory required for data: 10172191164
I0417 04:09:39.302845 15282 layer_factory.hpp:77] Creating layer rpn_twin_pred
I0417 04:09:39.302855 15282 net.cpp:100] Creating Layer rpn_twin_pred
I0417 04:09:39.302860 15282 net.cpp:434] rpn_twin_pred <- rpn/output_pool_rpn/output_pool_0_split_1
I0417 04:09:39.302867 15282 net.cpp:408] rpn_twin_pred -> rpn_twin_pred
I0417 04:09:39.304116 15282 net.cpp:150] Setting up rpn_twin_pred
I0417 04:09:39.304126 15282 net.cpp:157] Top shape: 1 74 96 1 1 (7104)
I0417 04:09:39.304129 15282 net.cpp:165] Memory required for data: 10172219580
I0417 04:09:39.304134 15282 layer_factory.hpp:77] Creating layer rpn_twin_pred_rpn_twin_pred_0_split
I0417 04:09:39.304139 15282 net.cpp:100] Creating Layer rpn_twin_pred_rpn_twin_pred_0_split
I0417 04:09:39.304143 15282 net.cpp:434] rpn_twin_pred_rpn_twin_pred_0_split <- rpn_twin_pred
I0417 04:09:39.304149 15282 net.cpp:408] rpn_twin_pred_rpn_twin_pred_0_split -> rpn_twin_pred_rpn_twin_pred_0_split_0
I0417 04:09:39.304154 15282 net.cpp:408] rpn_twin_pred_rpn_twin_pred_0_split -> rpn_twin_pred_rpn_twin_pred_0_split_1
I0417 04:09:39.304198 15282 net.cpp:150] Setting up rpn_twin_pred_rpn_twin_pred_0_split
I0417 04:09:39.304204 15282 net.cpp:157] Top shape: 1 74 96 1 1 (7104)
I0417 04:09:39.304209 15282 net.cpp:157] Top shape: 1 74 96 1 1 (7104)
I0417 04:09:39.304211 15282 net.cpp:165] Memory required for data: 10172276412
I0417 04:09:39.304215 15282 layer_factory.hpp:77] Creating layer rpn_cls_score_reshape
I0417 04:09:39.304229 15282 net.cpp:100] Creating Layer rpn_cls_score_reshape
I0417 04:09:39.304234 15282 net.cpp:434] rpn_cls_score_reshape <- rpn_cls_score_rpn_cls_score_0_split_0
I0417 04:09:39.304241 15282 net.cpp:408] rpn_cls_score_reshape -> rpn_cls_score_reshape
I0417 04:09:39.304273 15282 net.cpp:150] Setting up rpn_cls_score_reshape
I0417 04:09:39.304280 15282 net.cpp:157] Top shape: 1 2 3552 1 1 (7104)
I0417 04:09:39.304283 15282 net.cpp:165] Memory required for data: 10172304828
I0417 04:09:39.304286 15282 layer_factory.hpp:77] Creating layer rpn_cls_score_reshape_rpn_cls_score_reshape_0_split
I0417 04:09:39.304293 15282 net.cpp:100] Creating Layer rpn_cls_score_reshape_rpn_cls_score_reshape_0_split
I0417 04:09:39.304297 15282 net.cpp:434] rpn_cls_score_reshape_rpn_cls_score_reshape_0_split <- rpn_cls_score_reshape
I0417 04:09:39.304303 15282 net.cpp:408] rpn_cls_score_reshape_rpn_cls_score_reshape_0_split -> rpn_cls_score_reshape_rpn_cls_score_reshape_0_split_0
I0417 04:09:39.304311 15282 net.cpp:408] rpn_cls_score_reshape_rpn_cls_score_reshape_0_split -> rpn_cls_score_reshape_rpn_cls_score_reshape_0_split_1
I0417 04:09:39.304319 15282 net.cpp:408] rpn_cls_score_reshape_rpn_cls_score_reshape_0_split -> rpn_cls_score_reshape_rpn_cls_score_reshape_0_split_2
I0417 04:09:39.304373 15282 net.cpp:150] Setting up rpn_cls_score_reshape_rpn_cls_score_reshape_0_split
I0417 04:09:39.304380 15282 net.cpp:157] Top shape: 1 2 3552 1 1 (7104)
I0417 04:09:39.304384 15282 net.cpp:157] Top shape: 1 2 3552 1 1 (7104)
I0417 04:09:39.304390 15282 net.cpp:157] Top shape: 1 2 3552 1 1 (7104)
I0417 04:09:39.304394 15282 net.cpp:165] Memory required for data: 10172390076
I0417 04:09:39.304396 15282 layer_factory.hpp:77] Creating layer rpn-data
I0417 04:09:39.304782 15282 net.cpp:100] Creating Layer rpn-data
I0417 04:09:39.304795 15282 net.cpp:434] rpn-data <- rpn_cls_score_rpn_cls_score_0_split_1
I0417 04:09:39.304800 15282 net.cpp:434] rpn-data <- gt_boxes_data_1_split_0
I0417 04:09:39.304805 15282 net.cpp:434] rpn-data <- data_data_0_split_1
I0417 04:09:39.304810 15282 net.cpp:408] rpn-data -> rpn_labels
I0417 04:09:39.304816 15282 net.cpp:408] rpn-data -> rpn_twin_targets
I0417 04:09:39.304822 15282 net.cpp:408] rpn-data -> rpn_twin_inside_weights
I0417 04:09:39.304828 15282 net.cpp:408] rpn-data -> rpn_twin_outside_weights
I0417 04:09:39.307081 15282 net.cpp:150] Setting up rpn-data
I0417 04:09:39.307107 15282 net.cpp:157] Top shape: 1 1 3552 1 1 (3552)
I0417 04:09:39.307112 15282 net.cpp:157] Top shape: 1 74 96 1 1 (7104)
I0417 04:09:39.307116 15282 net.cpp:157] Top shape: 1 74 96 1 1 (7104)
I0417 04:09:39.307119 15282 net.cpp:157] Top shape: 1 74 96 1 1 (7104)
I0417 04:09:39.307122 15282 net.cpp:165] Memory required for data: 10172489532
I0417 04:09:39.307126 15282 layer_factory.hpp:77] Creating layer rpn_labels_rpn-data_0_split
I0417 04:09:39.307132 15282 net.cpp:100] Creating Layer rpn_labels_rpn-data_0_split
I0417 04:09:39.307134 15282 net.cpp:434] rpn_labels_rpn-data_0_split <- rpn_labels
I0417 04:09:39.307140 15282 net.cpp:408] rpn_labels_rpn-data_0_split -> rpn_labels_rpn-data_0_split_0
I0417 04:09:39.307147 15282 net.cpp:408] rpn_labels_rpn-data_0_split -> rpn_labels_rpn-data_0_split_1
I0417 04:09:39.307186 15282 net.cpp:150] Setting up rpn_labels_rpn-data_0_split
I0417 04:09:39.307194 15282 net.cpp:157] Top shape: 1 1 3552 1 1 (3552)
I0417 04:09:39.307199 15282 net.cpp:157] Top shape: 1 1 3552 1 1 (3552)
I0417 04:09:39.307201 15282 net.cpp:165] Memory required for data: 10172517948
I0417 04:09:39.307204 15282 layer_factory.hpp:77] Creating layer rpn_loss_cls
I0417 04:09:39.307214 15282 net.cpp:100] Creating Layer rpn_loss_cls
I0417 04:09:39.307219 15282 net.cpp:434] rpn_loss_cls <- rpn_cls_score_reshape_rpn_cls_score_reshape_0_split_0
I0417 04:09:39.307224 15282 net.cpp:434] rpn_loss_cls <- rpn_labels_rpn-data_0_split_0
…
I0417 04:09:39.307544 15282 layer_factory.hpp:77] Creating layer rpn_accuarcy
I0417 04:09:39.307554 15282 net.cpp:100] Creating Layer rpn_accuarcy
I0417 04:09:39.307560 15282 net.cpp:434] rpn_accuarcy <- rpn_cls_score_reshape_rpn_cls_score_reshape_0_split_1
I0417 04:09:39.307565 15282 net.cpp:434] rpn_accuarcy <- rpn_labels_rpn-data_0_split_1
I0417 04:09:39.307570 15282 net.cpp:408] rpn_accuarcy -> rpn_accuarcy
I0417 04:09:39.307576 15282 net.cpp:408] rpn_accuarcy -> rpn_accuarcy_class
I0417 04:09:39.307623 15282 net.cpp:150] Setting up rpn_accuarcy
I0417 04:09:39.307631 15282 net.cpp:157] Top shape: (1)
I0417 04:09:39.307636 15282 net.cpp:157] Top shape: 2 (2)
I0417 04:09:39.307638 15282 net.cpp:165] Memory required for data: 10172517968
I0417 04:09:39.307641 15282 layer_factory.hpp:77] Creating layer rpn_cls_prob
I0417 04:09:39.307646 15282 net.cpp:100] Creating Layer rpn_cls_prob
I0417 04:09:39.307651 15282 net.cpp:434] rpn_cls_prob <- rpn_cls_score_reshape_rpn_cls_score_reshape_0_split_2
I0417 04:09:39.307654 15282 net.cpp:408] rpn_cls_prob -> rpn_cls_prob
I0417 04:09:39.307725 15282 net.cpp:150] Setting up rpn_cls_prob
I0417 04:09:39.307734 15282 net.cpp:157] Top shape: 1 2 3552 1 1 (7104)
I0417 04:09:39.307737 15282 net.cpp:165] Memory required for data: 10172546384
I0417 04:09:39.307740 15282 layer_factory.hpp:77] Creating layer rpn_cls_prob_reshape
I0417 04:09:39.307746 15282 net.cpp:100] Creating Layer rpn_cls_prob_reshape
I0417 04:09:39.307749 15282 net.cpp:434] rpn_cls_prob_reshape <- rpn_cls_prob
I0417 04:09:39.307754 15282 net.cpp:408] rpn_cls_prob_reshape -> rpn_cls_prob_reshape
I0417 04:09:39.307783 15282 net.cpp:150] Setting up rpn_cls_prob_reshape
I0417 04:09:39.307791 15282 net.cpp:157] Top shape: 1 74 96 1 1 (7104)
I0417 04:09:39.307795 15282 net.cpp:165] Memory required for data: 10172574800
I0417 04:09:39.307797 15282 layer_factory.hpp:77] Creating layer proposal
I0417 04:09:39.308344 15282 net.cpp:100] Creating Layer proposal
I0417 04:09:39.308357 15282 net.cpp:434] proposal <- rpn_cls_prob_reshape
I0417 04:09:39.308362 15282 net.cpp:434] proposal <- rpn_twin_pred_rpn_twin_pred_0_split_1
I0417 04:09:39.308368 15282 net.cpp:408] proposal -> rpn_rois
I0417 04:09:39.310559 15282 net.cpp:150] Setting up proposal
I0417 04:09:39.310572 15282 net.cpp:157] Top shape: 1 3 (3)
I0417 04:09:39.310576 15282 net.cpp:165] Memory required for data: 10172574812
I0417 04:09:39.310580 15282 layer_factory.hpp:77] Creating layer roi-data
I0417 04:09:39.310715 15282 net.cpp:100] Creating Layer roi-data
I0417 04:09:39.310726 15282 net.cpp:434] roi-data <- rpn_rois
I0417 04:09:39.310731 15282 net.cpp:434] roi-data <- gt_boxes_data_1_split_1
I0417 04:09:39.310737 15282 net.cpp:408] roi-data -> rois
I0417 04:09:39.310745 15282 net.cpp:408] roi-data -> labels
I0417 04:09:39.310750 15282 net.cpp:408] roi-data -> twin_targets
I0417 04:09:39.310760 15282 net.cpp:408] roi-data -> twin_inside_weights
I0417 04:09:39.310786 15282 net.cpp:408] roi-data -> twin_outside_weights
I0417 04:09:39.311118 15282 net.cpp:150] Setting up roi-data
I0417 04:09:39.311131 15282 net.cpp:157] Top shape: 1 3 (3)
I0417 04:09:39.311136 15282 net.cpp:157] Top shape: 1 1 (1)
I0417 04:09:39.311139 15282 net.cpp:157] Top shape: 1 402 (402)
I0417 04:09:39.311142 15282 net.cpp:157] Top shape: 1 402 (402)
I0417 04:09:39.311146 15282 net.cpp:157] Top shape: 1 402 (402)
I0417 04:09:39.311148 15282 net.cpp:165] Memory required for data: 10172579652
I0417 04:09:39.311152 15282 layer_factory.hpp:77] Creating layer labels_roi-data_1_split
I0417 04:09:39.311157 15282 net.cpp:100] Creating Layer labels_roi-data_1_split
I0417 04:09:39.311161 15282 net.cpp:434] labels_roi-data_1_split <- labels
I0417 04:09:39.311167 15282 net.cpp:408] labels_roi-data_1_split -> labels_roi-data_1_split_0
I0417 04:09:39.311172 15282 net.cpp:408] labels_roi-data_1_split -> labels_roi-data_1_split_1
I0417 04:09:39.311214 15282 net.cpp:150] Setting up labels_roi-data_1_split
I0417 04:09:39.311223 15282 net.cpp:157] Top shape: 1 1 (1)
I0417 04:09:39.311226 15282 net.cpp:157] Top shape: 1 1 (1)
I0417 04:09:39.311233 15282 net.cpp:165] Memory required for data: 10172579660
I0417 04:09:39.311235 15282 layer_factory.hpp:77] Creating layer roi_pool5
I0417 04:09:39.311244 15282 net.cpp:100] Creating Layer roi_pool5
I0417 04:09:39.311251 15282 net.cpp:434] roi_pool5 <- conv5b_relu5b_0_split_1
I0417 04:09:39.311256 15282 net.cpp:434] roi_pool5 <- rois
I0417 04:09:39.311261 15282 net.cpp:408] roi_pool5 -> pool5
I0417 04:09:39.311269 15282 roi_pooling_layer.cpp:34] Temporal scale: 0.125
I0417 04:09:39.311275 15282 roi_pooling_layer.cpp:35] Spatial scale: 0.0625
I0417 04:09:39.311319 15282 net.cpp:150] Setting up roi_pool5
I0417 04:09:39.311326 15282 net.cpp:157] Top shape: 1 512 1 4 4 (8192)
I0417 04:09:39.311331 15282 net.cpp:165] Memory required for data: 10172612428
I0417 04:09:39.311334 15282 layer_factory.hpp:77] Creating layer fc6
I0417 04:09:39.311343 15282 net.cpp:100] Creating Layer fc6
I0417 04:09:39.311347 15282 net.cpp:434] fc6 <- pool5
I0417 04:09:39.311352 15282 net.cpp:408] fc6 -> fc6
I0417 04:09:40.196985 15282 net.cpp:150] Setting up fc6
I0417 04:09:40.197011 15282 net.cpp:157] Top shape: 1 4096 (4096)
I0417 04:09:40.197016 15282 net.cpp:165] Memory required for data: 10172628812
I0417 04:09:40.197026 15282 layer_factory.hpp:77] Creating layer relu6
I0417 04:09:40.197036 15282 net.cpp:100] Creating Layer relu6
I0417 04:09:40.197039 15282 net.cpp:434] relu6 <- fc6
I0417 04:09:40.197046 15282 net.cpp:395] relu6 -> fc6 (in-place)
I0417 04:09:40.197055 15282 net.cpp:150] Setting up relu6
I0417 04:09:40.197063 15282 net.cpp:157] Top shape: 1 4096 (4096)
I0417 04:09:40.197067 15282 net.cpp:165] Memory required for data: 10172645196
I0417 04:09:40.197069 15282 layer_factory.hpp:77] Creating layer drop6
I0417 04:09:40.197085 15282 net.cpp:100] Creating Layer drop6
I0417 04:09:40.197089 15282 net.cpp:434] drop6 <- fc6
I0417 04:09:40.197093 15282 net.cpp:395] drop6 -> fc6 (in-place)
I0417 04:09:40.197126 15282 net.cpp:150] Setting up drop6
I0417 04:09:40.197131 15282 net.cpp:157] Top shape: 1 4096 (4096)
I0417 04:09:40.197134 15282 net.cpp:165] Memory required for data: 10172661580
I0417 04:09:40.197137 15282 layer_factory.hpp:77] Creating layer fc6_drop6_0_split
I0417 04:09:40.197144 15282 net.cpp:100] Creating Layer fc6_drop6_0_split
I0417 04:09:40.197156 15282 net.cpp:434] fc6_drop6_0_split <- fc6
I0417 04:09:40.197162 15282 net.cpp:408] fc6_drop6_0_split -> fc6_drop6_0_split_0
I0417 04:09:40.197167 15282 net.cpp:408] fc6_drop6_0_split -> fc6_drop6_0_split_1
I0417 04:09:40.197212 15282 net.cpp:150] Setting up fc6_drop6_0_split
I0417 04:09:40.197221 15282 net.cpp:157] Top shape: 1 4096 (4096)
I0417 04:09:40.197223 15282 net.cpp:157] Top shape: 1 4096 (4096)
I0417 04:09:40.197227 15282 net.cpp:165] Memory required for data: 10172694348
I0417 04:09:40.197229 15282 layer_factory.hpp:77] Creating layer cls_score
I0417 04:09:40.197237 15282 net.cpp:100] Creating Layer cls_score
I0417 04:09:40.197242 15282 net.cpp:434] cls_score <- fc6_drop6_0_split_0
I0417 04:09:40.197250 15282 net.cpp:408] cls_score -> cls_score
I0417 04:09:40.220396 15282 net.cpp:150] Setting up cls_score
I0417 04:09:40.220418 15282 net.cpp:157] Top shape: 1 201 (201)
I0417 04:09:40.220422 15282 net.cpp:165] Memory required for data: 10172695152
I0417 04:09:40.220432 15282 layer_factory.hpp:77] Creating layer cls_score_cls_score_0_split
I0417 04:09:40.220440 15282 net.cpp:100] Creating Layer cls_score_cls_score_0_split
I0417 04:09:40.220444 15282 net.cpp:434] cls_score_cls_score_0_split <- cls_score
I0417 04:09:40.220450 15282 net.cpp:408] cls_score_cls_score_0_split -> cls_score_cls_score_0_split_0
I0417 04:09:40.220458 15282 net.cpp:408] cls_score_cls_score_0_split -> cls_score_cls_score_0_split_1
I0417 04:09:40.220500 15282 net.cpp:150] Setting up cls_score_cls_score_0_split
I0417 04:09:40.220508 15282 net.cpp:157] Top shape: 1 201 (201)
I0417 04:09:40.220512 15282 net.cpp:157] Top shape: 1 201 (201)
I0417 04:09:40.220515 15282 net.cpp:165] Memory required for data: 10172696760
I0417 04:09:40.220518 15282 layer_factory.hpp:77] Creating layer twin_pred
I0417 04:09:40.220530 15282 net.cpp:100] Creating Layer twin_pred
I0417 04:09:40.220535 15282 net.cpp:434] twin_pred <- fc6_drop6_0_split_1
I0417 04:09:40.220542 15282 net.cpp:408] twin_pred -> twin_pred
I0417 04:09:40.264282 15282 net.cpp:150] Setting up twin_pred
I0417 04:09:40.264305 15282 net.cpp:157] Top shape: 1 402 (402)
I0417 04:09:40.264309 15282 net.cpp:165] Memory required for data: 10172698368
I0417 04:09:40.264318 15282 layer_factory.hpp:77] Creating layer loss_cls
I0417 04:09:40.264335 15282 net.cpp:100] Creating Layer loss_cls
I0417 04:09:40.264341 15282 net.cpp:434] loss_cls <- cls_score_cls_score_0_split_0
I0417 04:09:40.264348 15282 net.cpp:434] loss_cls <- labels_roi-data_1_split_0
I0417 04:09:40.264354 15282 net.cpp:408] loss_cls -> loss_cls
…
