…
stepsize: 350000
snapshot: 0
snapshot_prefix: "./experiments/activitynet/snapshot/activitynet"
average_loss: 100
iter_size: 1
I0418 04:18:44.714563 29228 solver.cpp:81] Creating training net from train_net file: ./experiments/activitynet/train.prototxt
I0418 04:18:44.715649 29228 net.cpp:58] Initializing net from parameters: 
name: "activitynet"
state {
  phase: TRAIN
}
layer {
  name: "data"
  type: "Python"
  top: "data"
  top: "gt_boxes"
  python_param {
    module: "roi_data_layer.layer"
    layer: "RoIDataLayer"
    param_str: "\'num_classes\': 100"
  }
}
layer {
  name: "conv1a"
  type: "Convolution"
  bottom: "data"
  top: "conv1a"
  param {
    lr_mult: 0
    decay_mult: 0
  }
  param {
    lr_mult: 0
    decay_mult: 0
  }
  convolution_param {
    num_output: 64
    pad: 1
    pad: 1
    pad: 1
    kernel_size: 3
    kernel_size: 3
    kernel_size: 3
    weight_filler {
      type: "gaussian"
      std: 0.01
    }
    bias_filler {
      type: "constant"
      value: 0
    }
  }
}
layer {
  name: "relu1a"
  type: "ReLU"
  bottom: "conv1a"
  top: "conv1a"
}
layer {
  name: "pool1"
  type: "Pooling"
  bottom: "conv1a"
  top: "pool1"
  pooling_param {
    pool: MAX
    kernel_size: 1
    kernel_size: 2
    kernel_size: 2
    stride: 1
    stride: 2
    stride: 2
  }
}
layer {
  name: "conv2a"
  type: "Convolution"
  bottom: "pool1"
  top: "conv2a"
  param {
    lr_mult: 0
    decay_mult: 0
  }
  param {
    lr_mult: 0
    decay_mult: 0
  }
  convolution_param {
    num_output: 128
    pad: 1
    pad: 1
    pad: 1
    kernel_size: 3
    kernel_size: 3
    kernel_size: 3
    weight_filler {
      type: "gaussian"
      std: 0.01
    }
    bias_filler {
      type: "constant"
      value: 1
    }
  }
}
layer {
  name: "relu2a"
  type: "ReLU"
  bottom: "conv2a"
  top: "conv2a"
}
layer {
  name: "pool2"
  type: "Pooling"
  bottom: "conv2a"
  top: "pool2"
  pooling_param {
    pool: MAX
    kernel_size: 2
    kernel_size: 2
    kernel_size: 2
    stride: 2
    stride: 2
    stride: 2
  }
}
layer {
  name: "conv3a"
  type: "Convolution"
  bottom: "pool2"
  top: "conv3a"
  param {
    lr_mult: 1
    decay_mult: 1
  }
  param {
    lr_mult: 2
    decay_mult: 0
  }
  convolution_param {
    num_output: 256
    pad: 1
    pad: 1
    pad: 1
    kernel_size: 3
    kernel_size: 3
    kernel_size: 3
    weight_filler {
      type: "gaussian"
      std: 0.01
    }
    bias_filler {
      type: "constant"
      value: 1
    }
  }
}
layer {
  name: "relu3a"
  type: "ReLU"
  bottom: "conv3a"
  top: "conv3a"
}
layer {
  name: "conv3b"
  type: "Convolution"
  bottom: "conv3a"
  top: "conv3b"
  param {
    lr_mult: 1
    decay_mult: 1
  }
  param {
    lr_mult: 2
    decay_mult: 0
  }
  convolution_param {
    num_output: 256
    pad: 1
    pad: 1
    pad: 1
    kernel_size: 3
    kernel_size: 3
    kernel_size: 3
    weight_filler {
      type: "gaussian"
      std: 0.01
    }
    bias_filler {
      type: "constant"
      value: 1
    }
  }
}
layer {
  name: "relu3b"
  type: "ReLU"
  bottom: "conv3b"
  top: "conv3b"
}
layer {
  name: "pool3"
  type: "Pooling"
  bottom: "conv3b"
  top: "pool3"
  pooling_param {
    pool: MAX
    kernel_size: 2
    kernel_size: 2
    kernel_size: 2
    stride: 2
    stride: 2
    stride: 2
  }
}
layer {
  name: "conv4a"
  type: "Convolution"
  bottom: "pool3"
  top: "conv4a"
  param {
    lr_mult: 1
    decay_mult: 1
  }
  param {
    lr_mult: 2
    decay_mult: 0
  }
  convolution_param {
    num_output: 512
    pad: 1
    pad: 1
    pad: 1
    kernel_size: 3
    kernel_size: 3
    kernel_size: 3
    weight_filler {
      type: "gaussian"
      std: 0.01
    }
    bias_filler {
      type: "constant"
      value: 1
    }
  }
}
layer {
  name: "relu4a"
  type: "ReLU"
  bottom: "conv4a"
  top: "conv4a"
}
layer {
  name: "conv4b"
  type: "Convolution"
  bottom: "conv4a"
  top: "conv4b"
  param {
    lr_mult: 1
    decay_mult: 1
  }
  param {
    lr_mult: 2
    decay_mult: 0
  }
  convolution_param {
    num_output: 512
    pad: 1
    pad: 1
    pad: 1
    kernel_size: 3
    kernel_size: 3
    kernel_size: 3
    weight_filler {
      type: "gaussian"
      std: 0.01
    }
    bias_filler {
      type: "constant"
      value: 1
    }
  }
}
layer {
  name: "relu4b"
  type: "ReLU"
  bottom: "conv4b"
  top: "conv4b"
}
layer {
  name: "pool4"
  type: "Pooling"
  bottom: "conv4b"
  top: "pool4"
  pooling_param {
    pool: MAX
    kernel_size: 2
    kernel_size: 2
    kernel_size: 2
    stride: 2
    stride: 2
    stride: 2
  }
}
layer {
  name: "conv5a"
  type: "Convolution"
  bottom: "pool4"
  top: "conv5a"
  param {
    lr_mult: 1
    decay_mult: 1
  }
  param {
    lr_mult: 2
    decay_mult: 0
  }
  convolution_param {
    num_output: 512
    pad: 1
    pad: 1
    pad: 1
    kernel_size: 3
    kernel_size: 3
    kernel_size: 3
    weight_filler {
      type: "gaussian"
      std: 0.01
    }
    bias_filler {
      type: "constant"
      value: 1
    }
  }
}
layer {
  name: "relu5a"
  type: "ReLU"
  bottom: "conv5a"
  top: "conv5a"
}
layer {
  name: "conv5b"
  type: "Convolution"
  bottom: "conv5a"
  top: "conv5b"
  param {
    lr_mult: 1
    decay_mult: 1
  }
  param {
    lr_mult: 2
    decay_mult: 0
  }
  convolution_param {
    num_output: 512
    pad: 1
    pad: 1
    pad: 1
    kernel_size: 3
    kernel_size: 3
    kernel_size: 3
    weight_filler {
      type: "gaussian"
      std: 0.01
    }
    bias_filler {
      type: "constant"
      value: 1
    }
  }
}
layer {
  name: "relu5b"
  type: "ReLU"
  bottom: "conv5b"
  top: "conv5b"
}
layer {
  name: "rpn_conv/3x3"
  type: "Convolution"
  bottom: "conv5b"
  top: "rpn/output"
  param {
    lr_mult: 1
    decay_mult: 1
  }
  param {
    lr_mult: 2
    decay_mult: 0
  }
  convolution_param {
    num_output: 512
    pad: 1
    pad: 1
    pad: 1
    kernel_size: 3
    kernel_size: 3
    kernel_size: 3
    stride: 1
    stride: 2
    stride: 2
    weight_filler {
      type: "gaussian"
      std: 0.01
    }
    bias_filler {
      type: "constant"
      value: 0
    }
  }
}
layer {
  name: "rpn_relu/3x3"
  type: "ReLU"
  bottom: "rpn/output"
  top: "rpn/output"
}
layer {
  name: "rpn_conv/3x3_2"
  type: "Convolution"
  bottom: "rpn/output"
  top: "rpn/output_2"
  param {
    lr_mult: 1
    decay_mult: 1
  }
  param {
    lr_mult: 2
    decay_mult: 0
  }
  convolution_param {
    num_output: 512
    pad: 1
    pad: 1
    pad: 1
    kernel_size: 3
    kernel_size: 3
    kernel_size: 3
    stride: 1
    stride: 2
    stride: 2
    weight_filler {
      type: "gaussian"
      std: 0.01
    }
    bias_filler {
      type: "constant"
      value: 0
    }
  }
}
layer {
  name: "rpn_relu/3x3_2"
  type: "ReLU"
  bottom: "rpn/output_2"
  top: "rpn/output_2"
}
layer {
  name: "rpn/output_pool"
  type: "Pooling"
  bottom: "rpn/output_2"
  top: "rpn/output_pool"
  pooling_param {
    pool: MAX
    kernel_size: 1
    kernel_size: 2
    kernel_size: 2
  }
}
layer {
  name: "rpn_cls_score"
  type: "Convolution"
  bottom: "rpn/output_pool"
  top: "rpn_cls_score"
  param {
    lr_mult: 1
    decay_mult: 1
  }
  param {
    lr_mult: 2
    decay_mult: 0
  }
  convolution_param {
    num_output: 74
    kernel_size: 1
    kernel_size: 1
    kernel_size: 1
    weight_filler {
      type: "gaussian"
      std: 0.01
    }
    bias_filler {
      type: "constant"
      value: 0
    }
  }
}
layer {
  name: "rpn_twin_pred"
  type: "Convolution"
  bottom: "rpn/output_pool"
  top: "rpn_twin_pred"
  param {
    lr_mult: 1
    decay_mult: 1
  }
  param {
    lr_mult: 2
    decay_mult: 0
  }
  convolution_param {
    num_output: 74
    kernel_size: 1
    kernel_size: 1
    kernel_size: 1
    weight_filler {
      type: "gaussian"
      std: 0.01
    }
    bias_filler {
      type: "constant"
      value: 0
    }
  }
}
layer {
  name: "rpn_cls_score_reshape"
  type: "Reshape"
  bottom: "rpn_cls_score"
  top: "rpn_cls_score_reshape"
  reshape_param {
    shape {
      dim: 0
      dim: 2
      dim: -1
      dim: 0
      dim: 0
    }
  }
}
layer {
  name: "rpn-data"
  type: "Python"
  bottom: "rpn_cls_score"
  bottom: "gt_boxes"
  bottom: "data"
  top: "rpn_labels"
  top: "rpn_twin_targets"
  top: "rpn_twin_inside_weights"
  top: "rpn_twin_outside_weights"
  python_param {
    module: "rpn.anchor_target_layer"
    layer: "AnchorTargetLayer"
    param_str: "\'feat_stride\': 8 \n\'scales\': !!python/tuple [1,1.25, 1.5,1.75, 2,2.5, 3,3.5, 4,4.5, 5,5.5, 6,7, 8,9,10,11,12,14,16,18,20,22,24,28,32,36,40,44,52,60,68,76,84,92,100]"
  }
}
layer {
  name: "rpn_loss_cls"
  type: "SoftmaxWithLoss"
  bottom: "rpn_cls_score_reshape"
  bottom: "rpn_labels"
  top: "rpn_cls_loss"
  loss_weight: 1
  propagate_down: true
  propagate_down: false
  loss_param {
    ignore_label: -1
    normalize: true
  }
}
layer {
  name: "rpn_loss_twin"
  type: "SmoothL1Loss"
  bottom: "rpn_twin_pred"
  bottom: "rpn_twin_targets"
  bottom: "rpn_twin_inside_weights"
  bottom: "rpn_twin_outside_weights"
  top: "rpn_loss_twin"
  loss_weight: 1
  smooth_l1_loss_param {
    sigma: 3
  }
}
layer {
  name: "rpn_accuarcy"
  type: "Accuracy"
  bottom: "rpn_cls_score_reshape"
  bottom: "rpn_labels"
  top: "rpn_accuarcy"
  top: "rpn_accuarcy_class"
  propagate_down: false
  propagate_down: false
  accuracy_param {
    ignore_label: -1
  }
}
layer {
  name: "rpn_cls_prob"
  type: "Softmax"
  bottom: "rpn_cls_score_reshape"
  top: "rpn_cls_prob"
}
layer {
  name: "rpn_cls_prob_reshape"
  type: "Reshape"
  bottom: "rpn_cls_prob"
  top: "rpn_cls_prob_reshape"
  reshape_param {
    shape {
      dim: 0
      dim: 74
      dim: -1
      dim: 0
      dim: 0
    }
  }
}
layer {
  name: "proposal"
  type: "Python"
  bottom: "rpn_cls_prob_reshape"
  bottom: "rpn_twin_pred"
  top: "rpn_rois"
  include {
    phase: TRAIN
  }
  python_param {
    module: "rpn.proposal_layer"
    layer: "ProposalLayer"
    param_str: "\'feat_stride\': 8 \n\'scales\': !!python/tuple [1,1.25, 1.5,1.75, 2,2.5, 3,3.5, 4,4.5, 5,5.5, 6,7, 8,9,10,11,12,14,16,18,20,22,24,28,32,36,40,44,52,60,68,76,84,92,100]"
  }
}
layer {
  name: "roi-data"
  type: "Python"
  bottom: "rpn_rois"
  bottom: "gt_boxes"
  top: "rois"
  top: "labels"
  top: "twin_targets"
  top: "twin_inside_weights"
  top: "twin_outside_weights"
  python_param {
    module: "rpn.proposal_target_layer"
    layer: "ProposalTargetLayer"
    param_str: "\'num_classes\': 99"
  }
}
layer {
  name: "roi_pool5"
  type: "ROIPooling"
  bottom: "conv5b"
  bottom: "rois"
  top: "pool5"
  roi_pooling_param {
    pooled_h: 4
    pooled_w: 4
    spatial_scale: 0.0625
    pooled_l: 1
    temporal_scale: 0.125
  }
}
layer {
  name: "fc6"
  type: "InnerProduct"
  bottom: "pool5"
  top: "fc6"
  param {
    lr_mult: 1
    decay_mult: 1
  }
  param {
    lr_mult: 2
    decay_mult: 0
  }
  inner_product_param {
    num_output: 4096
    weight_filler {
      type: "gaussian"
      std: 0.005
    }
    bias_filler {
      type: "constant"
      value: 1
    }
  }
}
layer {
  name: "relu6"
  type: "ReLU"
  bottom: "fc6"
  top: "fc6"
}
layer {
  name: "drop6"
  type: "Dropout"
  bottom: "fc6"
  top: "fc6"
  dropout_param {
    dropout_ratio: 0.5
  }
}
layer {
  name: "cls_score"
  type: "InnerProduct"
  bottom: "fc6"
  top: "cls_score"
  param {
    lr_mult: 1
    decay_mult: 1
  }
  param {
    lr_mult: 2
    decay_mult: 0
  }
  inner_product_param {
    num_output: 9900
    weight_filler {
      type: "gaussian"
      std: 0.01
    }
    bias_filler {
      type: "constant"
      value: 0
    }
  }
}
layer {
  name: "twin_pred"
  type: "InnerProduct"
  bottom: "fc6"
  top: "twin_pred"
  param {
    lr_mult: 1
    decay_mult: 1
  }
  param {
    lr_mult: 2
    decay_mult: 0
  }
  inner_product_param {
    num_output: 198
    weight_filler {
      type: "gaussian"
      std: 0.001
    }
    bias_filler {
      type: "constant"
      value: 0
    }
  }
}
layer {
  name: "loss_cls"
  type: "SoftmaxWithLoss"
  bottom: "cls_score"
  bottom: "labels"
  top: "loss_cls"
  loss_weight: 1
  propagate_down: true
  propagate_down: false
}
layer {
  name: "loss_twin"
  type: "SmoothL1Loss"
  bottom: "twin_pred"
  bottom: "twin_targets"
  bottom: "twin_inside_weights"
  bottom: "twin_outside_weights"
  top: "loss_twin"
  loss_weight: 1
}
layer {
  name: "accuarcy"
  type: "Accuracy"
  bottom: "cls_score"
  bottom: "labels"
  top: "accuarcy"
  propagate_down: false
  propagate_down: false
  accuracy_param {
    ignore_label: -1
  }
}
I0418 04:18:44.715979 29228 layer_factory.hpp:77] Creating layer data
I0418 04:18:44.740711 29228 net.cpp:100] Creating Layer data
I0418 04:18:44.740736 29228 net.cpp:408] data -> data
I0418 04:18:44.740763 29228 net.cpp:408] data -> gt_boxes
setting up
has rpn
RoiDataLayer: name_to_top: {'gt_windows': 1, 'data': 0}
I0418 04:18:44.753649 29228 net.cpp:150] Setting up data
I0418 04:18:44.753674 29228 net.cpp:157] Top shape: 1 3 768 112 112 (28901376)
I0418 04:18:44.753681 29228 net.cpp:157] Top shape: 1 101 (101)
I0418 04:18:44.753686 29228 net.cpp:165] Memory required for data: 115605908
I0418 04:18:44.753696 29228 layer_factory.hpp:77] Creating layer data_data_0_split
I0418 04:18:44.753711 29228 net.cpp:100] Creating Layer data_data_0_split
I0418 04:18:44.753720 29228 net.cpp:434] data_data_0_split <- data
I0418 04:18:44.753731 29228 net.cpp:408] data_data_0_split -> data_data_0_split_0
I0418 04:18:44.753743 29228 net.cpp:408] data_data_0_split -> data_data_0_split_1
I0418 04:18:44.753782 29228 net.cpp:150] Setting up data_data_0_split
I0418 04:18:44.753792 29228 net.cpp:157] Top shape: 1 3 768 112 112 (28901376)
I0418 04:18:44.753798 29228 net.cpp:157] Top shape: 1 3 768 112 112 (28901376)
I0418 04:18:44.753803 29228 net.cpp:165] Memory required for data: 346816916
I0418 04:18:44.753808 29228 layer_factory.hpp:77] Creating layer gt_boxes_data_1_split
I0418 04:18:44.753818 29228 net.cpp:100] Creating Layer gt_boxes_data_1_split
I0418 04:18:44.753823 29228 net.cpp:434] gt_boxes_data_1_split <- gt_boxes
I0418 04:18:44.753830 29228 net.cpp:408] gt_boxes_data_1_split -> gt_boxes_data_1_split_0
I0418 04:18:44.753839 29228 net.cpp:408] gt_boxes_data_1_split -> gt_boxes_data_1_split_1
I0418 04:18:44.753868 29228 net.cpp:150] Setting up gt_boxes_data_1_split
I0418 04:18:44.753877 29228 net.cpp:157] Top shape: 1 101 (101)
I0418 04:18:44.753885 29228 net.cpp:157] Top shape: 1 101 (101)
I0418 04:18:44.753890 29228 net.cpp:165] Memory required for data: 346817724
I0418 04:18:44.753895 29228 layer_factory.hpp:77] Creating layer conv1a
I0418 04:18:44.753914 29228 net.cpp:100] Creating Layer conv1a
I0418 04:18:44.753921 29228 net.cpp:434] conv1a <- data_data_0_split_0
I0418 04:18:44.753929 29228 net.cpp:408] conv1a -> conv1a
I0418 04:18:44.944977 29228 net.cpp:150] Setting up conv1a
I0418 04:18:44.945014 29228 net.cpp:157] Top shape: 1 64 768 112 112 (616562688)
I0418 04:18:44.945019 29228 net.cpp:165] Memory required for data: 2813068476
I0418 04:18:44.945037 29228 layer_factory.hpp:77] Creating layer relu1a
I0418 04:18:44.945052 29228 net.cpp:100] Creating Layer relu1a
I0418 04:18:44.945057 29228 net.cpp:434] relu1a <- conv1a
I0418 04:18:44.945062 29228 net.cpp:395] relu1a -> conv1a (in-place)
I0418 04:18:44.945505 29228 net.cpp:150] Setting up relu1a
I0418 04:18:44.945518 29228 net.cpp:157] Top shape: 1 64 768 112 112 (616562688)
I0418 04:18:44.945521 29228 net.cpp:165] Memory required for data: 5279319228
I0418 04:18:44.945525 29228 layer_factory.hpp:77] Creating layer pool1
I0418 04:18:44.945535 29228 net.cpp:100] Creating Layer pool1
I0418 04:18:44.945539 29228 net.cpp:434] pool1 <- conv1a
I0418 04:18:44.945544 29228 net.cpp:408] pool1 -> pool1
I0418 04:18:44.945735 29228 net.cpp:150] Setting up pool1
I0418 04:18:44.945746 29228 net.cpp:157] Top shape: 1 64 768 56 56 (154140672)
I0418 04:18:44.945750 29228 net.cpp:165] Memory required for data: 5895881916
I0418 04:18:44.945753 29228 layer_factory.hpp:77] Creating layer conv2a
I0418 04:18:44.945765 29228 net.cpp:100] Creating Layer conv2a
I0418 04:18:44.945770 29228 net.cpp:434] conv2a <- pool1
I0418 04:18:44.945775 29228 net.cpp:408] conv2a -> conv2a
I0418 04:18:44.957742 29228 net.cpp:150] Setting up conv2a
I0418 04:18:44.957783 29228 net.cpp:157] Top shape: 1 128 768 56 56 (308281344)
I0418 04:18:44.957793 29228 net.cpp:165] Memory required for data: 7129007292
I0418 04:18:44.957823 29228 layer_factory.hpp:77] Creating layer relu2a
I0418 04:18:44.957841 29228 net.cpp:100] Creating Layer relu2a
I0418 04:18:44.957852 29228 net.cpp:434] relu2a <- conv2a
I0418 04:18:44.957868 29228 net.cpp:395] relu2a -> conv2a (in-place)
I0418 04:18:44.958750 29228 net.cpp:150] Setting up relu2a
I0418 04:18:44.958796 29228 net.cpp:157] Top shape: 1 128 768 56 56 (308281344)
I0418 04:18:44.958807 29228 net.cpp:165] Memory required for data: 8362132668
I0418 04:18:44.958817 29228 layer_factory.hpp:77] Creating layer pool2
I0418 04:18:44.958838 29228 net.cpp:100] Creating Layer pool2
I0418 04:18:44.958849 29228 net.cpp:434] pool2 <- conv2a
I0418 04:18:44.958863 29228 net.cpp:408] pool2 -> pool2
I0418 04:18:44.959337 29228 net.cpp:150] Setting up pool2
I0418 04:18:44.959362 29228 net.cpp:157] Top shape: 1 128 384 28 28 (38535168)
I0418 04:18:44.959370 29228 net.cpp:165] Memory required for data: 8516273340
I0418 04:18:44.959379 29228 layer_factory.hpp:77] Creating layer conv3a
I0418 04:18:44.959408 29228 net.cpp:100] Creating Layer conv3a
I0418 04:18:44.959419 29228 net.cpp:434] conv3a <- pool2
I0418 04:18:44.959432 29228 net.cpp:408] conv3a -> conv3a
I0418 04:18:44.994580 29228 net.cpp:150] Setting up conv3a
I0418 04:18:44.994598 29228 net.cpp:157] Top shape: 1 256 384 28 28 (77070336)
I0418 04:18:44.994602 29228 net.cpp:165] Memory required for data: 8824554684
I0418 04:18:44.994614 29228 layer_factory.hpp:77] Creating layer relu3a
I0418 04:18:44.994622 29228 net.cpp:100] Creating Layer relu3a
I0418 04:18:44.994626 29228 net.cpp:434] relu3a <- conv3a
I0418 04:18:44.994633 29228 net.cpp:395] relu3a -> conv3a (in-place)
I0418 04:18:44.994930 29228 net.cpp:150] Setting up relu3a
I0418 04:18:44.994942 29228 net.cpp:157] Top shape: 1 256 384 28 28 (77070336)
I0418 04:18:44.994946 29228 net.cpp:165] Memory required for data: 9132836028
I0418 04:18:44.994951 29228 layer_factory.hpp:77] Creating layer conv3b
I0418 04:18:44.994961 29228 net.cpp:100] Creating Layer conv3b
I0418 04:18:44.994966 29228 net.cpp:434] conv3b <- conv3a
I0418 04:18:44.994971 29228 net.cpp:408] conv3b -> conv3b
I0418 04:18:45.042726 29228 net.cpp:150] Setting up conv3b
I0418 04:18:45.042748 29228 net.cpp:157] Top shape: 1 256 384 28 28 (77070336)
I0418 04:18:45.042752 29228 net.cpp:165] Memory required for data: 9441117372
I0418 04:18:45.042769 29228 layer_factory.hpp:77] Creating layer relu3b
I0418 04:18:45.042779 29228 net.cpp:100] Creating Layer relu3b
I0418 04:18:45.042784 29228 net.cpp:434] relu3b <- conv3b
I0418 04:18:45.042791 29228 net.cpp:395] relu3b -> conv3b (in-place)
I0418 04:18:45.043087 29228 net.cpp:150] Setting up relu3b
I0418 04:18:45.043099 29228 net.cpp:157] Top shape: 1 256 384 28 28 (77070336)
I0418 04:18:45.043102 29228 net.cpp:165] Memory required for data: 9749398716
I0418 04:18:45.043107 29228 layer_factory.hpp:77] Creating layer pool3
I0418 04:18:45.043115 29228 net.cpp:100] Creating Layer pool3
I0418 04:18:45.043118 29228 net.cpp:434] pool3 <- conv3b
I0418 04:18:45.043123 29228 net.cpp:408] pool3 -> pool3
I0418 04:18:45.043299 29228 net.cpp:150] Setting up pool3
I0418 04:18:45.043311 29228 net.cpp:157] Top shape: 1 256 192 14 14 (9633792)
I0418 04:18:45.043314 29228 net.cpp:165] Memory required for data: 9787933884
I0418 04:18:45.043318 29228 layer_factory.hpp:77] Creating layer conv4a
I0418 04:18:45.043329 29228 net.cpp:100] Creating Layer conv4a
I0418 04:18:45.043332 29228 net.cpp:434] conv4a <- pool3
I0418 04:18:45.043339 29228 net.cpp:408] conv4a -> conv4a
I0418 04:18:45.137715 29228 net.cpp:150] Setting up conv4a
I0418 04:18:45.137748 29228 net.cpp:157] Top shape: 1 512 192 14 14 (19267584)
I0418 04:18:45.137753 29228 net.cpp:165] Memory required for data: 9865004220
I0418 04:18:45.137766 29228 layer_factory.hpp:77] Creating layer relu4a
I0418 04:18:45.137775 29228 net.cpp:100] Creating Layer relu4a
I0418 04:18:45.137780 29228 net.cpp:434] relu4a <- conv4a
I0418 04:18:45.137787 29228 net.cpp:395] relu4a -> conv4a (in-place)
I0418 04:18:45.138098 29228 net.cpp:150] Setting up relu4a
I0418 04:18:45.138109 29228 net.cpp:157] Top shape: 1 512 192 14 14 (19267584)
I0418 04:18:45.138113 29228 net.cpp:165] Memory required for data: 9942074556
I0418 04:18:45.138118 29228 layer_factory.hpp:77] Creating layer conv4b
I0418 04:18:45.138130 29228 net.cpp:100] Creating Layer conv4b
I0418 04:18:45.138134 29228 net.cpp:434] conv4b <- conv4a
I0418 04:18:45.138140 29228 net.cpp:408] conv4b -> conv4b
I0418 04:18:45.325608 29228 net.cpp:150] Setting up conv4b
I0418 04:18:45.325630 29228 net.cpp:157] Top shape: 1 512 192 14 14 (19267584)
I0418 04:18:45.325634 29228 net.cpp:165] Memory required for data: 10019144892
I0418 04:18:45.325642 29228 layer_factory.hpp:77] Creating layer relu4b
I0418 04:18:45.325651 29228 net.cpp:100] Creating Layer relu4b
I0418 04:18:45.325656 29228 net.cpp:434] relu4b <- conv4b
I0418 04:18:45.325661 29228 net.cpp:395] relu4b -> conv4b (in-place)
I0418 04:18:45.325824 29228 net.cpp:150] Setting up relu4b
I0418 04:18:45.325834 29228 net.cpp:157] Top shape: 1 512 192 14 14 (19267584)
I0418 04:18:45.325837 29228 net.cpp:165] Memory required for data: 10096215228
I0418 04:18:45.325840 29228 layer_factory.hpp:77] Creating layer pool4
I0418 04:18:45.325847 29228 net.cpp:100] Creating Layer pool4
I0418 04:18:45.325850 29228 net.cpp:434] pool4 <- conv4b
I0418 04:18:45.325857 29228 net.cpp:408] pool4 -> pool4
I0418 04:18:45.326187 29228 net.cpp:150] Setting up pool4
I0418 04:18:45.326210 29228 net.cpp:157] Top shape: 1 512 96 7 7 (2408448)
I0418 04:18:45.326215 29228 net.cpp:165] Memory required for data: 10105849020
I0418 04:18:45.326220 29228 layer_factory.hpp:77] Creating layer conv5a
I0418 04:18:45.326231 29228 net.cpp:100] Creating Layer conv5a
I0418 04:18:45.326234 29228 net.cpp:434] conv5a <- pool4
I0418 04:18:45.326241 29228 net.cpp:408] conv5a -> conv5a
I0418 04:18:45.512476 29228 net.cpp:150] Setting up conv5a
I0418 04:18:45.512521 29228 net.cpp:157] Top shape: 1 512 96 7 7 (2408448)
I0418 04:18:45.512526 29228 net.cpp:165] Memory required for data: 10115482812
I0418 04:18:45.512536 29228 layer_factory.hpp:77] Creating layer relu5a
I0418 04:18:45.512544 29228 net.cpp:100] Creating Layer relu5a
I0418 04:18:45.512549 29228 net.cpp:434] relu5a <- conv5a
I0418 04:18:45.512557 29228 net.cpp:395] relu5a -> conv5a (in-place)
I0418 04:18:45.512981 29228 net.cpp:150] Setting up relu5a
I0418 04:18:45.512995 29228 net.cpp:157] Top shape: 1 512 96 7 7 (2408448)
I0418 04:18:45.512997 29228 net.cpp:165] Memory required for data: 10125116604
I0418 04:18:45.513001 29228 layer_factory.hpp:77] Creating layer conv5b
I0418 04:18:45.513012 29228 net.cpp:100] Creating Layer conv5b
I0418 04:18:45.513018 29228 net.cpp:434] conv5b <- conv5a
I0418 04:18:45.513025 29228 net.cpp:408] conv5b -> conv5b
I0418 04:18:45.698909 29228 net.cpp:150] Setting up conv5b
I0418 04:18:45.698933 29228 net.cpp:157] Top shape: 1 512 96 7 7 (2408448)
I0418 04:18:45.698937 29228 net.cpp:165] Memory required for data: 10134750396
I0418 04:18:45.698946 29228 layer_factory.hpp:77] Creating layer relu5b
I0418 04:18:45.698956 29228 net.cpp:100] Creating Layer relu5b
I0418 04:18:45.698962 29228 net.cpp:434] relu5b <- conv5b
I0418 04:18:45.698968 29228 net.cpp:395] relu5b -> conv5b (in-place)
I0418 04:18:45.699115 29228 net.cpp:150] Setting up relu5b
I0418 04:18:45.699126 29228 net.cpp:157] Top shape: 1 512 96 7 7 (2408448)
I0418 04:18:45.699129 29228 net.cpp:165] Memory required for data: 10144384188
I0418 04:18:45.699132 29228 layer_factory.hpp:77] Creating layer conv5b_relu5b_0_split
I0418 04:18:45.699138 29228 net.cpp:100] Creating Layer conv5b_relu5b_0_split
I0418 04:18:45.699141 29228 net.cpp:434] conv5b_relu5b_0_split <- conv5b
I0418 04:18:45.699147 29228 net.cpp:408] conv5b_relu5b_0_split -> conv5b_relu5b_0_split_0
I0418 04:18:45.699153 29228 net.cpp:408] conv5b_relu5b_0_split -> conv5b_relu5b_0_split_1
I0418 04:18:45.699189 29228 net.cpp:150] Setting up conv5b_relu5b_0_split
I0418 04:18:45.699195 29228 net.cpp:157] Top shape: 1 512 96 7 7 (2408448)
I0418 04:18:45.699199 29228 net.cpp:157] Top shape: 1 512 96 7 7 (2408448)
I0418 04:18:45.699203 29228 net.cpp:165] Memory required for data: 10163651772
I0418 04:18:45.699206 29228 layer_factory.hpp:77] Creating layer rpn_conv/3x3
I0418 04:18:45.699219 29228 net.cpp:100] Creating Layer rpn_conv/3x3
I0418 04:18:45.699226 29228 net.cpp:434] rpn_conv/3x3 <- conv5b_relu5b_0_split_0
I0418 04:18:45.699232 29228 net.cpp:408] rpn_conv/3x3 -> rpn/output
I0418 04:18:45.886586 29228 net.cpp:150] Setting up rpn_conv/3x3
I0418 04:18:45.886610 29228 net.cpp:157] Top shape: 1 512 96 4 4 (786432)
I0418 04:18:45.886615 29228 net.cpp:165] Memory required for data: 10166797500
I0418 04:18:45.886628 29228 layer_factory.hpp:77] Creating layer rpn_relu/3x3
I0418 04:18:45.886637 29228 net.cpp:100] Creating Layer rpn_relu/3x3
I0418 04:18:45.886642 29228 net.cpp:434] rpn_relu/3x3 <- rpn/output
I0418 04:18:45.886648 29228 net.cpp:395] rpn_relu/3x3 -> rpn/output (in-place)
I0418 04:18:45.886958 29228 net.cpp:150] Setting up rpn_relu/3x3
I0418 04:18:45.886970 29228 net.cpp:157] Top shape: 1 512 96 4 4 (786432)
I0418 04:18:45.886976 29228 net.cpp:165] Memory required for data: 10169943228
I0418 04:18:45.886983 29228 layer_factory.hpp:77] Creating layer rpn_conv/3x3_2
I0418 04:18:45.886996 29228 net.cpp:100] Creating Layer rpn_conv/3x3_2
I0418 04:18:45.887001 29228 net.cpp:434] rpn_conv/3x3_2 <- rpn/output
I0418 04:18:45.887006 29228 net.cpp:408] rpn_conv/3x3_2 -> rpn/output_2
I0418 04:18:46.072723 29228 net.cpp:150] Setting up rpn_conv/3x3_2
I0418 04:18:46.072758 29228 net.cpp:157] Top shape: 1 512 96 2 2 (196608)
I0418 04:18:46.072762 29228 net.cpp:165] Memory required for data: 10170729660
I0418 04:18:46.072772 29228 layer_factory.hpp:77] Creating layer rpn_relu/3x3_2
I0418 04:18:46.072782 29228 net.cpp:100] Creating Layer rpn_relu/3x3_2
I0418 04:18:46.072785 29228 net.cpp:434] rpn_relu/3x3_2 <- rpn/output_2
I0418 04:18:46.072791 29228 net.cpp:395] rpn_relu/3x3_2 -> rpn/output_2 (in-place)
I0418 04:18:46.073093 29228 net.cpp:150] Setting up rpn_relu/3x3_2
I0418 04:18:46.073105 29228 net.cpp:157] Top shape: 1 512 96 2 2 (196608)
I0418 04:18:46.073109 29228 net.cpp:165] Memory required for data: 10171516092
I0418 04:18:46.073113 29228 layer_factory.hpp:77] Creating layer rpn/output_pool
I0418 04:18:46.073122 29228 net.cpp:100] Creating Layer rpn/output_pool
I0418 04:18:46.073125 29228 net.cpp:434] rpn/output_pool <- rpn/output_2
I0418 04:18:46.073130 29228 net.cpp:408] rpn/output_pool -> rpn/output_pool
I0418 04:18:46.073305 29228 net.cpp:150] Setting up rpn/output_pool
I0418 04:18:46.073320 29228 net.cpp:157] Top shape: 1 512 96 1 1 (49152)
I0418 04:18:46.073323 29228 net.cpp:165] Memory required for data: 10171712700
I0418 04:18:46.073328 29228 layer_factory.hpp:77] Creating layer rpn/output_pool_rpn/output_pool_0_split
I0418 04:18:46.073333 29228 net.cpp:100] Creating Layer rpn/output_pool_rpn/output_pool_0_split
I0418 04:18:46.073336 29228 net.cpp:434] rpn/output_pool_rpn/output_pool_0_split <- rpn/output_pool
I0418 04:18:46.073343 29228 net.cpp:408] rpn/output_pool_rpn/output_pool_0_split -> rpn/output_pool_rpn/output_pool_0_split_0
I0418 04:18:46.073348 29228 net.cpp:408] rpn/output_pool_rpn/output_pool_0_split -> rpn/output_pool_rpn/output_pool_0_split_1
I0418 04:18:46.073381 29228 net.cpp:150] Setting up rpn/output_pool_rpn/output_pool_0_split
I0418 04:18:46.073390 29228 net.cpp:157] Top shape: 1 512 96 1 1 (49152)
I0418 04:18:46.073395 29228 net.cpp:157] Top shape: 1 512 96 1 1 (49152)
I0418 04:18:46.073397 29228 net.cpp:165] Memory required for data: 10172105916
I0418 04:18:46.073400 29228 layer_factory.hpp:77] Creating layer rpn_cls_score
I0418 04:18:46.073410 29228 net.cpp:100] Creating Layer rpn_cls_score
I0418 04:18:46.073417 29228 net.cpp:434] rpn_cls_score <- rpn/output_pool_rpn/output_pool_0_split_0
I0418 04:18:46.073424 29228 net.cpp:408] rpn_cls_score -> rpn_cls_score
I0418 04:18:46.075462 29228 net.cpp:150] Setting up rpn_cls_score
I0418 04:18:46.075475 29228 net.cpp:157] Top shape: 1 74 96 1 1 (7104)
I0418 04:18:46.075479 29228 net.cpp:165] Memory required for data: 10172134332
I0418 04:18:46.075485 29228 layer_factory.hpp:77] Creating layer rpn_cls_score_rpn_cls_score_0_split
I0418 04:18:46.075492 29228 net.cpp:100] Creating Layer rpn_cls_score_rpn_cls_score_0_split
I0418 04:18:46.075495 29228 net.cpp:434] rpn_cls_score_rpn_cls_score_0_split <- rpn_cls_score
I0418 04:18:46.075500 29228 net.cpp:408] rpn_cls_score_rpn_cls_score_0_split -> rpn_cls_score_rpn_cls_score_0_split_0
I0418 04:18:46.075508 29228 net.cpp:408] rpn_cls_score_rpn_cls_score_0_split -> rpn_cls_score_rpn_cls_score_0_split_1
I0418 04:18:46.075548 29228 net.cpp:150] Setting up rpn_cls_score_rpn_cls_score_0_split
I0418 04:18:46.075556 29228 net.cpp:157] Top shape: 1 74 96 1 1 (7104)
I0418 04:18:46.075559 29228 net.cpp:157] Top shape: 1 74 96 1 1 (7104)
I0418 04:18:46.075562 29228 net.cpp:165] Memory required for data: 10172191164
I0418 04:18:46.075567 29228 layer_factory.hpp:77] Creating layer rpn_twin_pred
I0418 04:18:46.075578 29228 net.cpp:100] Creating Layer rpn_twin_pred
I0418 04:18:46.075584 29228 net.cpp:434] rpn_twin_pred <- rpn/output_pool_rpn/output_pool_0_split_1
I0418 04:18:46.075590 29228 net.cpp:408] rpn_twin_pred -> rpn_twin_pred
I0418 04:18:46.077457 29228 net.cpp:150] Setting up rpn_twin_pred
I0418 04:18:46.077469 29228 net.cpp:157] Top shape: 1 74 96 1 1 (7104)
I0418 04:18:46.077473 29228 net.cpp:165] Memory required for data: 10172219580
I0418 04:18:46.077479 29228 layer_factory.hpp:77] Creating layer rpn_twin_pred_rpn_twin_pred_0_split
I0418 04:18:46.077484 29228 net.cpp:100] Creating Layer rpn_twin_pred_rpn_twin_pred_0_split
I0418 04:18:46.077488 29228 net.cpp:434] rpn_twin_pred_rpn_twin_pred_0_split <- rpn_twin_pred
I0418 04:18:46.077494 29228 net.cpp:408] rpn_twin_pred_rpn_twin_pred_0_split -> rpn_twin_pred_rpn_twin_pred_0_split_0
I0418 04:18:46.077502 29228 net.cpp:408] rpn_twin_pred_rpn_twin_pred_0_split -> rpn_twin_pred_rpn_twin_pred_0_split_1
I0418 04:18:46.077551 29228 net.cpp:150] Setting up rpn_twin_pred_rpn_twin_pred_0_split
I0418 04:18:46.077558 29228 net.cpp:157] Top shape: 1 74 96 1 1 (7104)
I0418 04:18:46.077563 29228 net.cpp:157] Top shape: 1 74 96 1 1 (7104)
I0418 04:18:46.077565 29228 net.cpp:165] Memory required for data: 10172276412
I0418 04:18:46.077569 29228 layer_factory.hpp:77] Creating layer rpn_cls_score_reshape
I0418 04:18:46.077579 29228 net.cpp:100] Creating Layer rpn_cls_score_reshape
I0418 04:18:46.077585 29228 net.cpp:434] rpn_cls_score_reshape <- rpn_cls_score_rpn_cls_score_0_split_0
I0418 04:18:46.077591 29228 net.cpp:408] rpn_cls_score_reshape -> rpn_cls_score_reshape
I0418 04:18:46.077617 29228 net.cpp:150] Setting up rpn_cls_score_reshape
I0418 04:18:46.077625 29228 net.cpp:157] Top shape: 1 2 3552 1 1 (7104)
I0418 04:18:46.077627 29228 net.cpp:165] Memory required for data: 10172304828
I0418 04:18:46.077630 29228 layer_factory.hpp:77] Creating layer rpn_cls_score_reshape_rpn_cls_score_reshape_0_split
I0418 04:18:46.077638 29228 net.cpp:100] Creating Layer rpn_cls_score_reshape_rpn_cls_score_reshape_0_split
I0418 04:18:46.077641 29228 net.cpp:434] rpn_cls_score_reshape_rpn_cls_score_reshape_0_split <- rpn_cls_score_reshape
I0418 04:18:46.077646 29228 net.cpp:408] rpn_cls_score_reshape_rpn_cls_score_reshape_0_split -> rpn_cls_score_reshape_rpn_cls_score_reshape_0_split_0
I0418 04:18:46.077654 29228 net.cpp:408] rpn_cls_score_reshape_rpn_cls_score_reshape_0_split -> rpn_cls_score_reshape_rpn_cls_score_reshape_0_split_1
I0418 04:18:46.077662 29228 net.cpp:408] rpn_cls_score_reshape_rpn_cls_score_reshape_0_split -> rpn_cls_score_reshape_rpn_cls_score_reshape_0_split_2
I0418 04:18:46.077702 29228 net.cpp:150] Setting up rpn_cls_score_reshape_rpn_cls_score_reshape_0_split
I0418 04:18:46.077708 29228 net.cpp:157] Top shape: 1 2 3552 1 1 (7104)
I0418 04:18:46.077713 29228 net.cpp:157] Top shape: 1 2 3552 1 1 (7104)
I0418 04:18:46.077718 29228 net.cpp:157] Top shape: 1 2 3552 1 1 (7104)
I0418 04:18:46.077721 29228 net.cpp:165] Memory required for data: 10172390076
I0418 04:18:46.077724 29228 layer_factory.hpp:77] Creating layer rpn-data
I0418 04:18:46.078119 29228 net.cpp:100] Creating Layer rpn-data
I0418 04:18:46.078131 29228 net.cpp:434] rpn-data <- rpn_cls_score_rpn_cls_score_0_split_1
I0418 04:18:46.078137 29228 net.cpp:434] rpn-data <- gt_boxes_data_1_split_0
I0418 04:18:46.078141 29228 net.cpp:434] rpn-data <- data_data_0_split_1
I0418 04:18:46.078147 29228 net.cpp:408] rpn-data -> rpn_labels
I0418 04:18:46.078155 29228 net.cpp:408] rpn-data -> rpn_twin_targets
I0418 04:18:46.078161 29228 net.cpp:408] rpn-data -> rpn_twin_inside_weights
I0418 04:18:46.078166 29228 net.cpp:408] rpn-data -> rpn_twin_outside_weights
I0418 04:18:46.080413 29228 net.cpp:150] Setting up rpn-data
I0418 04:18:46.080428 29228 net.cpp:157] Top shape: 1 1 3552 1 1 (3552)
I0418 04:18:46.080433 29228 net.cpp:157] Top shape: 1 74 96 1 1 (7104)
I0418 04:18:46.080436 29228 net.cpp:157] Top shape: 1 74 96 1 1 (7104)
I0418 04:18:46.080440 29228 net.cpp:157] Top shape: 1 74 96 1 1 (7104)
I0418 04:18:46.080443 29228 net.cpp:165] Memory required for data: 10172489532
I0418 04:18:46.080447 29228 layer_factory.hpp:77] Creating layer rpn_labels_rpn-data_0_split
I0418 04:18:46.080452 29228 net.cpp:100] Creating Layer rpn_labels_rpn-data_0_split
I0418 04:18:46.080456 29228 net.cpp:434] rpn_labels_rpn-data_0_split <- rpn_labels
I0418 04:18:46.080461 29228 net.cpp:408] rpn_labels_rpn-data_0_split -> rpn_labels_rpn-data_0_split_0
I0418 04:18:46.080468 29228 net.cpp:408] rpn_labels_rpn-data_0_split -> rpn_labels_rpn-data_0_split_1
I0418 04:18:46.080498 29228 net.cpp:150] Setting up rpn_labels_rpn-data_0_split
I0418 04:18:46.080507 29228 net.cpp:157] Top shape: 1 1 3552 1 1 (3552)
I0418 04:18:46.080510 29228 net.cpp:157] Top shape: 1 1 3552 1 1 (3552)
I0418 04:18:46.080513 29228 net.cpp:165] Memory required for data: 10172517948
I0418 04:18:46.080516 29228 layer_factory.hpp:77] Creating layer rpn_loss_cls
I0418 04:18:46.080525 29228 net.cpp:100] Creating Layer rpn_loss_cls
I0418 04:18:46.080529 29228 net.cpp:434] rpn_loss_cls <- rpn_cls_score_reshape_rpn_cls_score_reshape_0_split_0
I0418 04:18:46.080533 29228 net.cpp:434] rpn_loss_cls <- rpn_labels_rpn-data_0_split_0
…
