…
stepsize: 350000
snapshot: 0
snapshot_prefix: "./experiments/activitynet/snapshot/activitynet"
average_loss: 100
iter_size: 1
I0413 02:46:30.384970 18839 solver.cpp:81] Creating training net from train_net file: ./experiments/activitynet/train.prototxt
I0413 02:46:30.386013 18839 net.cpp:58] Initializing net from parameters: 
name: "activitynet"
state {
  phase: TRAIN
}
layer {
  name: "data"
  type: "Python"
  top: "data"
  top: "gt_boxes"
  python_param {
    module: "roi_data_layer.layer"
    layer: "RoIDataLayer"
    param_str: "\'num_classes\': 100"
  }
}
layer {
  name: "conv1a"
  type: "Convolution"
  bottom: "data"
  top: "conv1a"
  param {
    lr_mult: 0
    decay_mult: 0
  }
  param {
    lr_mult: 0
    decay_mult: 0
  }
  convolution_param {
    num_output: 64
    pad: 1
    pad: 1
    pad: 1
    kernel_size: 3
    kernel_size: 3
    kernel_size: 3
    weight_filler {
      type: "gaussian"
      std: 0.01
    }
    bias_filler {
      type: "constant"
      value: 0
    }
  }
}
layer {
  name: "relu1a"
  type: "ReLU"
  bottom: "conv1a"
  top: "conv1a"
}
layer {
  name: "pool1"
  type: "Pooling"
  bottom: "conv1a"
  top: "pool1"
  pooling_param {
    pool: MAX
    kernel_size: 1
    kernel_size: 2
    kernel_size: 2
    stride: 1
    stride: 2
    stride: 2
  }
}
layer {
  name: "conv2a"
  type: "Convolution"
  bottom: "pool1"
  top: "conv2a"
  param {
    lr_mult: 0
    decay_mult: 0
  }
  param {
    lr_mult: 0
    decay_mult: 0
  }
  convolution_param {
    num_output: 128
    pad: 1
    pad: 1
    pad: 1
    kernel_size: 3
    kernel_size: 3
    kernel_size: 3
    weight_filler {
      type: "gaussian"
      std: 0.01
    }
    bias_filler {
      type: "constant"
      value: 1
    }
  }
}
layer {
  name: "relu2a"
  type: "ReLU"
  bottom: "conv2a"
  top: "conv2a"
}
layer {
  name: "pool2"
  type: "Pooling"
  bottom: "conv2a"
  top: "pool2"
  pooling_param {
    pool: MAX
    kernel_size: 2
    kernel_size: 2
    kernel_size: 2
    stride: 2
    stride: 2
    stride: 2
  }
}
layer {
  name: "conv3a"
  type: "Convolution"
  bottom: "pool2"
  top: "conv3a"
  param {
    lr_mult: 1
    decay_mult: 1
  }
  param {
    lr_mult: 2
    decay_mult: 0
  }
  convolution_param {
    num_output: 256
    pad: 1
    pad: 1
    pad: 1
    kernel_size: 3
    kernel_size: 3
    kernel_size: 3
    weight_filler {
      type: "gaussian"
      std: 0.01
    }
    bias_filler {
      type: "constant"
      value: 1
    }
  }
}
layer {
  name: "relu3a"
  type: "ReLU"
  bottom: "conv3a"
  top: "conv3a"
}
layer {
  name: "conv3b"
  type: "Convolution"
  bottom: "conv3a"
  top: "conv3b"
  param {
    lr_mult: 1
    decay_mult: 1
  }
  param {
    lr_mult: 2
    decay_mult: 0
  }
  convolution_param {
    num_output: 256
    pad: 1
    pad: 1
    pad: 1
    kernel_size: 3
    kernel_size: 3
    kernel_size: 3
    weight_filler {
      type: "gaussian"
      std: 0.01
    }
    bias_filler {
      type: "constant"
      value: 1
    }
  }
}
layer {
  name: "relu3b"
  type: "ReLU"
  bottom: "conv3b"
  top: "conv3b"
}
layer {
  name: "pool3"
  type: "Pooling"
  bottom: "conv3b"
  top: "pool3"
  pooling_param {
    pool: MAX
    kernel_size: 2
    kernel_size: 2
    kernel_size: 2
    stride: 2
    stride: 2
    stride: 2
  }
}
layer {
  name: "conv4a"
  type: "Convolution"
  bottom: "pool3"
  top: "conv4a"
  param {
    lr_mult: 1
    decay_mult: 1
  }
  param {
    lr_mult: 2
    decay_mult: 0
  }
  convolution_param {
    num_output: 512
    pad: 1
    pad: 1
    pad: 1
    kernel_size: 3
    kernel_size: 3
    kernel_size: 3
    weight_filler {
      type: "gaussian"
      std: 0.01
    }
    bias_filler {
      type: "constant"
      value: 1
    }
  }
}
layer {
  name: "relu4a"
  type: "ReLU"
  bottom: "conv4a"
  top: "conv4a"
}
layer {
  name: "conv4b"
  type: "Convolution"
  bottom: "conv4a"
  top: "conv4b"
  param {
    lr_mult: 1
    decay_mult: 1
  }
  param {
    lr_mult: 2
    decay_mult: 0
  }
  convolution_param {
    num_output: 512
    pad: 1
    pad: 1
    pad: 1
    kernel_size: 3
    kernel_size: 3
    kernel_size: 3
    weight_filler {
      type: "gaussian"
      std: 0.01
    }
    bias_filler {
      type: "constant"
      value: 1
    }
  }
}
layer {
  name: "relu4b"
  type: "ReLU"
  bottom: "conv4b"
  top: "conv4b"
}
layer {
  name: "pool4"
  type: "Pooling"
  bottom: "conv4b"
  top: "pool4"
  pooling_param {
    pool: MAX
    kernel_size: 2
    kernel_size: 2
    kernel_size: 2
    stride: 2
    stride: 2
    stride: 2
  }
}
layer {
  name: "conv5a"
  type: "Convolution"
  bottom: "pool4"
  top: "conv5a"
  param {
    lr_mult: 1
    decay_mult: 1
  }
  param {
    lr_mult: 2
    decay_mult: 0
  }
  convolution_param {
    num_output: 512
    pad: 1
    pad: 1
    pad: 1
    kernel_size: 3
    kernel_size: 3
    kernel_size: 3
    weight_filler {
      type: "gaussian"
      std: 0.01
    }
    bias_filler {
      type: "constant"
      value: 1
    }
  }
}
layer {
  name: "relu5a"
  type: "ReLU"
  bottom: "conv5a"
  top: "conv5a"
}
layer {
  name: "conv5b"
  type: "Convolution"
  bottom: "conv5a"
  top: "conv5b"
  param {
    lr_mult: 1
    decay_mult: 1
  }
  param {
    lr_mult: 2
    decay_mult: 0
  }
  convolution_param {
    num_output: 512
    pad: 1
    pad: 1
    pad: 1
    kernel_size: 3
    kernel_size: 3
    kernel_size: 3
    weight_filler {
      type: "gaussian"
      std: 0.01
    }
    bias_filler {
      type: "constant"
      value: 1
    }
  }
}
layer {
  name: "relu5b"
  type: "ReLU"
  bottom: "conv5b"
  top: "conv5b"
}
layer {
  name: "rpn_conv/3x3"
  type: "Convolution"
  bottom: "conv5b"
  top: "rpn/output"
  param {
    lr_mult: 1
    decay_mult: 1
  }
  param {
    lr_mult: 2
    decay_mult: 0
  }
  convolution_param {
    num_output: 512
    pad: 1
    pad: 1
    pad: 1
    kernel_size: 3
    kernel_size: 3
    kernel_size: 3
    stride: 1
    stride: 2
    stride: 2
    weight_filler {
      type: "gaussian"
      std: 0.01
    }
    bias_filler {
      type: "constant"
      value: 0
    }
  }
}
layer {
  name: "rpn_relu/3x3"
  type: "ReLU"
  bottom: "rpn/output"
  top: "rpn/output"
}
layer {
  name: "rpn_conv/3x3_2"
  type: "Convolution"
  bottom: "rpn/output"
  top: "rpn/output_2"
  param {
    lr_mult: 1
    decay_mult: 1
  }
  param {
    lr_mult: 2
    decay_mult: 0
  }
  convolution_param {
    num_output: 512
    pad: 1
    pad: 1
    pad: 1
    kernel_size: 3
    kernel_size: 3
    kernel_size: 3
    stride: 1
    stride: 2
    stride: 2
    weight_filler {
      type: "gaussian"
      std: 0.01
    }
    bias_filler {
      type: "constant"
      value: 0
    }
  }
}
layer {
  name: "rpn_relu/3x3_2"
  type: "ReLU"
  bottom: "rpn/output_2"
  top: "rpn/output_2"
}
layer {
  name: "rpn/output_pool"
  type: "Pooling"
  bottom: "rpn/output_2"
  top: "rpn/output_pool"
  pooling_param {
    pool: MAX
    kernel_size: 1
    kernel_size: 2
    kernel_size: 2
  }
}
layer {
  name: "rpn_cls_score"
  type: "Convolution"
  bottom: "rpn/output_pool"
  top: "rpn_cls_score"
  param {
    lr_mult: 1
    decay_mult: 1
  }
  param {
    lr_mult: 2
    decay_mult: 0
  }
  convolution_param {
    num_output: 74
    kernel_size: 1
    kernel_size: 1
    kernel_size: 1
    weight_filler {
      type: "gaussian"
      std: 0.01
    }
    bias_filler {
      type: "constant"
      value: 0
    }
  }
}
layer {
  name: "rpn_twin_pred"
  type: "Convolution"
  bottom: "rpn/output_pool"
  top: "rpn_twin_pred"
  param {
    lr_mult: 1
    decay_mult: 1
  }
  param {
    lr_mult: 2
    decay_mult: 0
  }
  convolution_param {
    num_output: 74
    kernel_size: 1
    kernel_size: 1
    kernel_size: 1
    weight_filler {
      type: "gaussian"
      std: 0.01
    }
    bias_filler {
      type: "constant"
      value: 0
    }
  }
}
layer {
  name: "rpn_cls_score_reshape"
  type: "Reshape"
  bottom: "rpn_cls_score"
  top: "rpn_cls_score_reshape"
  reshape_param {
    shape {
      dim: 0
      dim: 2
      dim: -1
      dim: 0
      dim: 0
    }
  }
}
layer {
  name: "rpn-data"
  type: "Python"
  bottom: "rpn_cls_score"
  bottom: "gt_boxes"
  bottom: "data"
  top: "rpn_labels"
  top: "rpn_twin_targets"
  top: "rpn_twin_inside_weights"
  top: "rpn_twin_outside_weights"
  python_param {
    module: "rpn.anchor_target_layer"
    layer: "AnchorTargetLayer"
    param_str: "\'feat_stride\': 8 \n\'scales\': !!python/tuple [1,1.25, 1.5,1.75, 2,2.5, 3,3.5, 4,4.5, 5,5.5, 6,7, 8,9,10,11,12,14,16,18,20,22,24,28,32,36,40,44,52,60,68,76,84,92,100]"
  }
}
layer {
  name: "rpn_loss_cls"
  type: "SoftmaxWithLoss"
  bottom: "rpn_cls_score_reshape"
  bottom: "rpn_labels"
  top: "rpn_cls_loss"
  loss_weight: 1
  propagate_down: true
  propagate_down: false
  loss_param {
    ignore_label: -1
    normalize: true
  }
}
layer {
  name: "rpn_loss_twin"
  type: "SmoothL1Loss"
  bottom: "rpn_twin_pred"
  bottom: "rpn_twin_targets"
  bottom: "rpn_twin_inside_weights"
  bottom: "rpn_twin_outside_weights"
  top: "rpn_loss_twin"
  loss_weight: 1
  smooth_l1_loss_param {
    sigma: 3
  }
}
layer {
  name: "rpn_accuarcy"
  type: "Accuracy"
  bottom: "rpn_cls_score_reshape"
  bottom: "rpn_labels"
  top: "rpn_accuarcy"
  top: "rpn_accuarcy_class"
  propagate_down: false
  propagate_down: false
  accuracy_param {
    ignore_label: -1
  }
}
layer {
  name: "rpn_cls_prob"
  type: "Softmax"
  bottom: "rpn_cls_score_reshape"
  top: "rpn_cls_prob"
}
layer {
  name: "rpn_cls_prob_reshape"
  type: "Reshape"
  bottom: "rpn_cls_prob"
  top: "rpn_cls_prob_reshape"
  reshape_param {
    shape {
      dim: 0
      dim: 74
      dim: -1
      dim: 0
      dim: 0
    }
  }
}
layer {
  name: "proposal"
  type: "Python"
  bottom: "rpn_cls_prob_reshape"
  bottom: "rpn_twin_pred"
  top: "rpn_rois"
  include {
    phase: TRAIN
  }
  python_param {
    module: "rpn.proposal_layer"
    layer: "ProposalLayer"
    param_str: "\'feat_stride\': 8 \n\'scales\': !!python/tuple [1,1.25, 1.5,1.75, 2,2.5, 3,3.5, 4,4.5, 5,5.5, 6,7, 8,9,10,11,12,14,16,18,20,22,24,28,32,36,40,44,52,60,68,76,84,92,100]"
  }
}
layer {
  name: "roi-data"
  type: "Python"
  bottom: "rpn_rois"
  bottom: "gt_boxes"
  top: "rois"
  top: "labels"
  top: "twin_targets"
  top: "twin_inside_weights"
  top: "twin_outside_weights"
  python_param {
    module: "rpn.proposal_target_layer"
    layer: "ProposalTargetLayer"
    param_str: "\'num_classes\': 201"
  }
}
layer {
  name: "roi_pool5"
  type: "ROIPooling"
  bottom: "conv5b"
  bottom: "rois"
  top: "pool5"
  roi_pooling_param {
    pooled_h: 4
    pooled_w: 4
    spatial_scale: 0.0625
    pooled_l: 1
    temporal_scale: 0.125
  }
}
layer {
  name: "fc6"
  type: "InnerProduct"
  bottom: "pool5"
  top: "fc6"
  param {
    lr_mult: 1
    decay_mult: 1
  }
  param {
    lr_mult: 2
    decay_mult: 0
  }
  inner_product_param {
    num_output: 4096
    weight_filler {
      type: "gaussian"
      std: 0.005
    }
    bias_filler {
      type: "constant"
      value: 1
    }
  }
}
layer {
  name: "relu6"
  type: "ReLU"
  bottom: "fc6"
  top: "fc6"
}
layer {
  name: "drop6"
  type: "Dropout"
  bottom: "fc6"
  top: "fc6"
  dropout_param {
    dropout_ratio: 0.5
  }
}
layer {
  name: "cls_score"
  type: "InnerProduct"
  bottom: "fc6"
  top: "cls_score"
  param {
    lr_mult: 1
    decay_mult: 1
  }
  param {
    lr_mult: 2
    decay_mult: 0
  }
  inner_product_param {
    num_output: 201
    weight_filler {
      type: "gaussian"
      std: 0.01
    }
    bias_filler {
      type: "constant"
      value: 0
    }
  }
}
layer {
  name: "twin_pred"
  type: "InnerProduct"
  bottom: "fc6"
  top: "twin_pred"
  param {
    lr_mult: 1
    decay_mult: 1
  }
  param {
    lr_mult: 2
    decay_mult: 0
  }
  inner_product_param {
    num_output: 402
    weight_filler {
      type: "gaussian"
      std: 0.001
    }
    bias_filler {
      type: "constant"
      value: 0
    }
  }
}
layer {
  name: "loss_cls"
  type: "SoftmaxWithLoss"
  bottom: "cls_score"
  bottom: "labels"
  top: "loss_cls"
  loss_weight: 1
  propagate_down: true
  propagate_down: false
}
layer {
  name: "loss_twin"
  type: "SmoothL1Loss"
  bottom: "twin_pred"
  bottom: "twin_targets"
  bottom: "twin_inside_weights"
  bottom: "twin_outside_weights"
  top: "loss_twin"
  loss_weight: 1
}
layer {
  name: "accuarcy"
  type: "Accuracy"
  bottom: "cls_score"
  bottom: "labels"
  top: "accuarcy"
  propagate_down: false
  propagate_down: false
  accuracy_param {
    ignore_label: -1
  }
}
I0413 02:46:30.390018 18839 layer_factory.hpp:77] Creating layer data
I0413 02:46:30.556224 18839 net.cpp:100] Creating Layer data
I0413 02:46:30.556258 18839 net.cpp:408] data -> data
I0413 02:46:30.556272 18839 net.cpp:408] data -> gt_boxes
RoiDataLayer: name_to_top: {'gt_windows': 1, 'data': 0}
I0413 02:46:30.643625 18839 net.cpp:150] Setting up data
I0413 02:46:30.643795 18839 net.cpp:157] Top shape: 1 3 768 112 112 (28901376)
I0413 02:46:30.643877 18839 net.cpp:157] Top shape: 1 3 (3)
I0413 02:46:30.643937 18839 net.cpp:165] Memory required for data: 115605516
I0413 02:46:30.643997 18839 layer_factory.hpp:77] Creating layer data_data_0_split
I0413 02:46:30.644073 18839 net.cpp:100] Creating Layer data_data_0_split
I0413 02:46:30.644160 18839 net.cpp:434] data_data_0_split <- data
I0413 02:46:30.644230 18839 net.cpp:408] data_data_0_split -> data_data_0_split_0
I0413 02:46:30.644318 18839 net.cpp:408] data_data_0_split -> data_data_0_split_1
I0413 02:46:30.647250 18839 net.cpp:150] Setting up data_data_0_split
I0413 02:46:30.647552 18839 net.cpp:157] Top shape: 1 3 768 112 112 (28901376)
I0413 02:46:30.647625 18839 net.cpp:157] Top shape: 1 3 768 112 112 (28901376)
I0413 02:46:30.647689 18839 net.cpp:165] Memory required for data: 346816524
I0413 02:46:30.647747 18839 layer_factory.hpp:77] Creating layer gt_boxes_data_1_split
I0413 02:46:30.647817 18839 net.cpp:100] Creating Layer gt_boxes_data_1_split
I0413 02:46:30.647887 18839 net.cpp:434] gt_boxes_data_1_split <- gt_boxes
I0413 02:46:30.647953 18839 net.cpp:408] gt_boxes_data_1_split -> gt_boxes_data_1_split_0
I0413 02:46:30.648033 18839 net.cpp:408] gt_boxes_data_1_split -> gt_boxes_data_1_split_1
I0413 02:46:30.648211 18839 net.cpp:150] Setting up gt_boxes_data_1_split
I0413 02:46:30.649047 18839 net.cpp:157] Top shape: 1 3 (3)
I0413 02:46:30.649166 18839 net.cpp:157] Top shape: 1 3 (3)
I0413 02:46:30.649215 18839 net.cpp:165] Memory required for data: 346816548
I0413 02:46:30.649258 18839 layer_factory.hpp:77] Creating layer conv1a
I0413 02:46:30.649314 18839 net.cpp:100] Creating Layer conv1a
I0413 02:46:30.649384 18839 net.cpp:434] conv1a <- data_data_0_split_0
I0413 02:46:30.649616 18839 net.cpp:408] conv1a -> conv1a
I0413 02:46:30.835360 18839 net.cpp:150] Setting up conv1a
I0413 02:46:30.837188 18839 net.cpp:157] Top shape: 1 64 768 112 112 (616562688)
I0413 02:46:30.837349 18839 net.cpp:165] Memory required for data: 2813067300
I0413 02:46:30.837441 18839 layer_factory.hpp:77] Creating layer relu1a
I0413 02:46:30.837543 18839 net.cpp:100] Creating Layer relu1a
I0413 02:46:30.837623 18839 net.cpp:434] relu1a <- conv1a
I0413 02:46:30.837687 18839 net.cpp:395] relu1a -> conv1a (in-place)
I0413 02:46:30.837826 18839 net.cpp:150] Setting up relu1a
I0413 02:46:30.837888 18839 net.cpp:157] Top shape: 1 64 768 112 112 (616562688)
I0413 02:46:30.837940 18839 net.cpp:165] Memory required for data: 5279318052
I0413 02:46:30.837986 18839 layer_factory.hpp:77] Creating layer pool1
I0413 02:46:30.838039 18839 net.cpp:100] Creating Layer pool1
I0413 02:46:30.838217 18839 net.cpp:434] pool1 <- conv1a
I0413 02:46:30.838232 18839 net.cpp:408] pool1 -> pool1
I0413 02:46:30.838409 18839 net.cpp:150] Setting up pool1
I0413 02:46:30.838788 18839 net.cpp:157] Top shape: 1 64 768 56 56 (154140672)
I0413 02:46:30.838874 18839 net.cpp:165] Memory required for data: 5895880740
I0413 02:46:30.838927 18839 layer_factory.hpp:77] Creating layer conv2a
I0413 02:46:30.838989 18839 net.cpp:100] Creating Layer conv2a
I0413 02:46:30.839049 18839 net.cpp:434] conv2a <- pool1
I0413 02:46:30.839114 18839 net.cpp:408] conv2a -> conv2a
I0413 02:46:30.858810 18839 net.cpp:150] Setting up conv2a
I0413 02:46:30.858850 18839 net.cpp:157] Top shape: 1 128 768 56 56 (308281344)
I0413 02:46:30.858855 18839 net.cpp:165] Memory required for data: 7129006116
I0413 02:46:30.858870 18839 layer_factory.hpp:77] Creating layer relu2a
I0413 02:46:30.858881 18839 net.cpp:100] Creating Layer relu2a
I0413 02:46:30.858886 18839 net.cpp:434] relu2a <- conv2a
I0413 02:46:30.858891 18839 net.cpp:395] relu2a -> conv2a (in-place)
I0413 02:46:30.858901 18839 net.cpp:150] Setting up relu2a
I0413 02:46:30.858906 18839 net.cpp:157] Top shape: 1 128 768 56 56 (308281344)
I0413 02:46:30.858908 18839 net.cpp:165] Memory required for data: 8362131492
I0413 02:46:30.858911 18839 layer_factory.hpp:77] Creating layer pool2
I0413 02:46:30.858929 18839 net.cpp:100] Creating Layer pool2
I0413 02:46:30.858937 18839 net.cpp:434] pool2 <- conv2a
I0413 02:46:30.858945 18839 net.cpp:408] pool2 -> pool2
I0413 02:46:30.859068 18839 net.cpp:150] Setting up pool2
I0413 02:46:30.859077 18839 net.cpp:157] Top shape: 1 128 384 28 28 (38535168)
I0413 02:46:30.859082 18839 net.cpp:165] Memory required for data: 8516272164
I0413 02:46:30.859086 18839 layer_factory.hpp:77] Creating layer conv3a
I0413 02:46:30.859100 18839 net.cpp:100] Creating Layer conv3a
I0413 02:46:30.859105 18839 net.cpp:434] conv3a <- pool2
I0413 02:46:30.859114 18839 net.cpp:408] conv3a -> conv3a
I0413 02:46:30.872063 18839 net.cpp:150] Setting up conv3a
I0413 02:46:30.872107 18839 net.cpp:157] Top shape: 1 256 384 28 28 (77070336)
I0413 02:46:30.872113 18839 net.cpp:165] Memory required for data: 8824553508
I0413 02:46:30.872133 18839 layer_factory.hpp:77] Creating layer relu3a
I0413 02:46:30.872148 18839 net.cpp:100] Creating Layer relu3a
I0413 02:46:30.872154 18839 net.cpp:434] relu3a <- conv3a
I0413 02:46:30.872164 18839 net.cpp:395] relu3a -> conv3a (in-place)
I0413 02:46:30.872177 18839 net.cpp:150] Setting up relu3a
I0413 02:46:30.872184 18839 net.cpp:157] Top shape: 1 256 384 28 28 (77070336)
I0413 02:46:30.872186 18839 net.cpp:165] Memory required for data: 9132834852
I0413 02:46:30.872190 18839 layer_factory.hpp:77] Creating layer conv3b
I0413 02:46:30.872206 18839 net.cpp:100] Creating Layer conv3b
I0413 02:46:30.872211 18839 net.cpp:434] conv3b <- conv3a
I0413 02:46:30.872220 18839 net.cpp:408] conv3b -> conv3b
I0413 02:46:30.899123 18839 net.cpp:150] Setting up conv3b
I0413 02:46:30.899554 18839 net.cpp:157] Top shape: 1 256 384 28 28 (77070336)
I0413 02:46:30.899643 18839 net.cpp:165] Memory required for data: 9441116196
I0413 02:46:30.899703 18839 layer_factory.hpp:77] Creating layer relu3b
I0413 02:46:30.899763 18839 net.cpp:100] Creating Layer relu3b
I0413 02:46:30.899816 18839 net.cpp:434] relu3b <- conv3b
I0413 02:46:30.899868 18839 net.cpp:395] relu3b -> conv3b (in-place)
I0413 02:46:30.899921 18839 net.cpp:150] Setting up relu3b
I0413 02:46:30.899968 18839 net.cpp:157] Top shape: 1 256 384 28 28 (77070336)
I0413 02:46:30.900024 18839 net.cpp:165] Memory required for data: 9749397540
I0413 02:46:30.900065 18839 layer_factory.hpp:77] Creating layer pool3
I0413 02:46:30.900113 18839 net.cpp:100] Creating Layer pool3
I0413 02:46:30.900156 18839 net.cpp:434] pool3 <- conv3b
I0413 02:46:30.900204 18839 net.cpp:408] pool3 -> pool3
I0413 02:46:30.900437 18839 net.cpp:150] Setting up pool3
I0413 02:46:30.900521 18839 net.cpp:157] Top shape: 1 256 192 14 14 (9633792)
I0413 02:46:30.900568 18839 net.cpp:165] Memory required for data: 9787932708
I0413 02:46:30.900614 18839 layer_factory.hpp:77] Creating layer conv4a
I0413 02:46:30.900676 18839 net.cpp:100] Creating Layer conv4a
I0413 02:46:30.900719 18839 net.cpp:434] conv4a <- pool3
I0413 02:46:30.900765 18839 net.cpp:408] conv4a -> conv4a
I0413 02:46:30.961395 18839 net.cpp:150] Setting up conv4a
I0413 02:46:30.961611 18839 net.cpp:157] Top shape: 1 512 192 14 14 (19267584)
I0413 02:46:30.961663 18839 net.cpp:165] Memory required for data: 9865003044
I0413 02:46:30.961735 18839 layer_factory.hpp:77] Creating layer relu4a
I0413 02:46:30.961794 18839 net.cpp:100] Creating Layer relu4a
I0413 02:46:30.961839 18839 net.cpp:434] relu4a <- conv4a
I0413 02:46:30.961892 18839 net.cpp:395] relu4a -> conv4a (in-place)
I0413 02:46:30.961948 18839 net.cpp:150] Setting up relu4a
I0413 02:46:30.961994 18839 net.cpp:157] Top shape: 1 512 192 14 14 (19267584)
I0413 02:46:30.962036 18839 net.cpp:165] Memory required for data: 9942073380
I0413 02:46:30.962077 18839 layer_factory.hpp:77] Creating layer conv4b
I0413 02:46:30.962138 18839 net.cpp:100] Creating Layer conv4b
I0413 02:46:30.962184 18839 net.cpp:434] conv4b <- conv4a
I0413 02:46:30.962230 18839 net.cpp:408] conv4b -> conv4b
I0413 02:46:31.464613 18839 net.cpp:150] Setting up conv4b
I0413 02:46:31.478142 18839 net.cpp:157] Top shape: 1 512 192 14 14 (19267584)
I0413 02:46:31.478309 18839 net.cpp:165] Memory required for data: 10019143716
I0413 02:46:31.478364 18839 layer_factory.hpp:77] Creating layer relu4b
I0413 02:46:31.478423 18839 net.cpp:100] Creating Layer relu4b
I0413 02:46:31.478463 18839 net.cpp:434] relu4b <- conv4b
I0413 02:46:31.478507 18839 net.cpp:395] relu4b -> conv4b (in-place)
I0413 02:46:31.478552 18839 net.cpp:150] Setting up relu4b
I0413 02:46:31.478593 18839 net.cpp:157] Top shape: 1 512 192 14 14 (19267584)
I0413 02:46:31.478629 18839 net.cpp:165] Memory required for data: 10096214052
I0413 02:46:31.478662 18839 layer_factory.hpp:77] Creating layer pool4
I0413 02:46:31.478701 18839 net.cpp:100] Creating Layer pool4
I0413 02:46:31.478739 18839 net.cpp:434] pool4 <- conv4b
I0413 02:46:31.478782 18839 net.cpp:408] pool4 -> pool4
I0413 02:46:31.478958 18839 net.cpp:150] Setting up pool4
I0413 02:46:31.479029 18839 net.cpp:157] Top shape: 1 512 96 7 7 (2408448)
I0413 02:46:31.479071 18839 net.cpp:165] Memory required for data: 10105847844
I0413 02:46:31.479111 18839 layer_factory.hpp:77] Creating layer conv5a
I0413 02:46:31.479159 18839 net.cpp:100] Creating Layer conv5a
I0413 02:46:31.479197 18839 net.cpp:434] conv5a <- pool4
I0413 02:46:31.479241 18839 net.cpp:408] conv5a -> conv5a
I0413 02:46:31.955559 18839 net.cpp:150] Setting up conv5a
I0413 02:46:31.955720 18839 net.cpp:157] Top shape: 1 512 96 7 7 (2408448)
I0413 02:46:31.955763 18839 net.cpp:165] Memory required for data: 10115481636
I0413 02:46:31.955811 18839 layer_factory.hpp:77] Creating layer relu5a
I0413 02:46:31.955854 18839 net.cpp:100] Creating Layer relu5a
I0413 02:46:31.955891 18839 net.cpp:434] relu5a <- conv5a
I0413 02:46:31.955937 18839 net.cpp:395] relu5a -> conv5a (in-place)
I0413 02:46:31.955983 18839 net.cpp:150] Setting up relu5a
I0413 02:46:31.956024 18839 net.cpp:157] Top shape: 1 512 96 7 7 (2408448)
I0413 02:46:31.956059 18839 net.cpp:165] Memory required for data: 10125115428
I0413 02:46:31.956094 18839 layer_factory.hpp:77] Creating layer conv5b
I0413 02:46:31.956140 18839 net.cpp:100] Creating Layer conv5b
I0413 02:46:31.956187 18839 net.cpp:434] conv5b <- conv5a
I0413 02:46:31.956228 18839 net.cpp:408] conv5b -> conv5b
I0413 02:46:32.080132 18839 net.cpp:150] Setting up conv5b
I0413 02:46:32.080173 18839 net.cpp:157] Top shape: 1 512 96 7 7 (2408448)
I0413 02:46:32.080178 18839 net.cpp:165] Memory required for data: 10134749220
I0413 02:46:32.080284 18839 layer_factory.hpp:77] Creating layer relu5b
I0413 02:46:32.080353 18839 net.cpp:100] Creating Layer relu5b
I0413 02:46:32.080361 18839 net.cpp:434] relu5b <- conv5b
I0413 02:46:32.080474 18839 net.cpp:395] relu5b -> conv5b (in-place)
I0413 02:46:32.080545 18839 net.cpp:150] Setting up relu5b
I0413 02:46:32.080610 18839 net.cpp:157] Top shape: 1 512 96 7 7 (2408448)
I0413 02:46:32.080651 18839 net.cpp:165] Memory required for data: 10144383012
I0413 02:46:32.080693 18839 layer_factory.hpp:77] Creating layer conv5b_relu5b_0_split
I0413 02:46:32.080744 18839 net.cpp:100] Creating Layer conv5b_relu5b_0_split
I0413 02:46:32.080785 18839 net.cpp:434] conv5b_relu5b_0_split <- conv5b
I0413 02:46:32.080828 18839 net.cpp:408] conv5b_relu5b_0_split -> conv5b_relu5b_0_split_0
I0413 02:46:32.080878 18839 net.cpp:408] conv5b_relu5b_0_split -> conv5b_relu5b_0_split_1
I0413 02:46:32.081038 18839 net.cpp:150] Setting up conv5b_relu5b_0_split
I0413 02:46:32.081120 18839 net.cpp:157] Top shape: 1 512 96 7 7 (2408448)
I0413 02:46:32.081168 18839 net.cpp:157] Top shape: 1 512 96 7 7 (2408448)
I0413 02:46:32.081215 18839 net.cpp:165] Memory required for data: 10163650596
I0413 02:46:32.081265 18839 layer_factory.hpp:77] Creating layer rpn_conv/3x3
I0413 02:46:32.081331 18839 net.cpp:100] Creating Layer rpn_conv/3x3
I0413 02:46:32.081379 18839 net.cpp:434] rpn_conv/3x3 <- conv5b_relu5b_0_split_0
I0413 02:46:32.081429 18839 net.cpp:408] rpn_conv/3x3 -> rpn/output
I0413 02:46:32.545397 18839 net.cpp:150] Setting up rpn_conv/3x3
I0413 02:46:32.545430 18839 net.cpp:157] Top shape: 1 512 96 4 4 (786432)
I0413 02:46:32.545434 18839 net.cpp:165] Memory required for data: 10166796324
I0413 02:46:32.545454 18839 layer_factory.hpp:77] Creating layer rpn_relu/3x3
I0413 02:46:32.545471 18839 net.cpp:100] Creating Layer rpn_relu/3x3
I0413 02:46:32.545480 18839 net.cpp:434] rpn_relu/3x3 <- rpn/output
I0413 02:46:32.545487 18839 net.cpp:395] rpn_relu/3x3 -> rpn/output (in-place)
I0413 02:46:32.545501 18839 net.cpp:150] Setting up rpn_relu/3x3
I0413 02:46:32.545508 18839 net.cpp:157] Top shape: 1 512 96 4 4 (786432)
I0413 02:46:32.545513 18839 net.cpp:165] Memory required for data: 10169942052
I0413 02:46:32.545517 18839 layer_factory.hpp:77] Creating layer rpn_conv/3x3_2
I0413 02:46:32.545532 18839 net.cpp:100] Creating Layer rpn_conv/3x3_2
I0413 02:46:32.545538 18839 net.cpp:434] rpn_conv/3x3_2 <- rpn/output
I0413 02:46:32.545547 18839 net.cpp:408] rpn_conv/3x3_2 -> rpn/output_2
I0413 02:46:32.642026 18839 net.cpp:150] Setting up rpn_conv/3x3_2
I0413 02:46:32.642222 18839 net.cpp:157] Top shape: 1 512 96 2 2 (196608)
I0413 02:46:32.642264 18839 net.cpp:165] Memory required for data: 10170728484
I0413 02:46:32.642315 18839 layer_factory.hpp:77] Creating layer rpn_relu/3x3_2
I0413 02:46:32.642403 18839 net.cpp:100] Creating Layer rpn_relu/3x3_2
I0413 02:46:32.642452 18839 net.cpp:434] rpn_relu/3x3_2 <- rpn/output_2
I0413 02:46:32.642503 18839 net.cpp:395] rpn_relu/3x3_2 -> rpn/output_2 (in-place)
I0413 02:46:32.642556 18839 net.cpp:150] Setting up rpn_relu/3x3_2
I0413 02:46:32.642601 18839 net.cpp:157] Top shape: 1 512 96 2 2 (196608)
I0413 02:46:32.642640 18839 net.cpp:165] Memory required for data: 10171514916
I0413 02:46:32.642684 18839 layer_factory.hpp:77] Creating layer rpn/output_pool
I0413 02:46:32.642748 18839 net.cpp:100] Creating Layer rpn/output_pool
I0413 02:46:32.642796 18839 net.cpp:434] rpn/output_pool <- rpn/output_2
I0413 02:46:32.642843 18839 net.cpp:408] rpn/output_pool -> rpn/output_pool
I0413 02:46:32.642992 18839 net.cpp:150] Setting up rpn/output_pool
I0413 02:46:32.643061 18839 net.cpp:157] Top shape: 1 512 96 1 1 (49152)
I0413 02:46:32.643102 18839 net.cpp:165] Memory required for data: 10171711524
I0413 02:46:32.643139 18839 layer_factory.hpp:77] Creating layer rpn/output_pool_rpn/output_pool_0_split
I0413 02:46:32.643177 18839 net.cpp:100] Creating Layer rpn/output_pool_rpn/output_pool_0_split
I0413 02:46:32.643225 18839 net.cpp:434] rpn/output_pool_rpn/output_pool_0_split <- rpn/output_pool
I0413 02:46:32.643261 18839 net.cpp:408] rpn/output_pool_rpn/output_pool_0_split -> rpn/output_pool_rpn/output_pool_0_split_0
I0413 02:46:32.643299 18839 net.cpp:408] rpn/output_pool_rpn/output_pool_0_split -> rpn/output_pool_rpn/output_pool_0_split_1
I0413 02:46:32.643406 18839 net.cpp:150] Setting up rpn/output_pool_rpn/output_pool_0_split
I0413 02:46:32.643461 18839 net.cpp:157] Top shape: 1 512 96 1 1 (49152)
I0413 02:46:32.643509 18839 net.cpp:157] Top shape: 1 512 96 1 1 (49152)
I0413 02:46:32.643543 18839 net.cpp:165] Memory required for data: 10172104740
I0413 02:46:32.643584 18839 layer_factory.hpp:77] Creating layer rpn_cls_score
I0413 02:46:32.643643 18839 net.cpp:100] Creating Layer rpn_cls_score
I0413 02:46:32.643709 18839 net.cpp:434] rpn_cls_score <- rpn/output_pool_rpn/output_pool_0_split_0
I0413 02:46:32.643761 18839 net.cpp:408] rpn_cls_score -> rpn_cls_score
I0413 02:46:32.644723 18839 net.cpp:150] Setting up rpn_cls_score
I0413 02:46:32.644743 18839 net.cpp:157] Top shape: 1 74 96 1 1 (7104)
I0413 02:46:32.644747 18839 net.cpp:165] Memory required for data: 10172133156
I0413 02:46:32.644757 18839 layer_factory.hpp:77] Creating layer rpn_cls_score_rpn_cls_score_0_split
I0413 02:46:32.644767 18839 net.cpp:100] Creating Layer rpn_cls_score_rpn_cls_score_0_split
I0413 02:46:32.644771 18839 net.cpp:434] rpn_cls_score_rpn_cls_score_0_split <- rpn_cls_score
I0413 02:46:32.644780 18839 net.cpp:408] rpn_cls_score_rpn_cls_score_0_split -> rpn_cls_score_rpn_cls_score_0_split_0
I0413 02:46:32.644788 18839 net.cpp:408] rpn_cls_score_rpn_cls_score_0_split -> rpn_cls_score_rpn_cls_score_0_split_1
I0413 02:46:32.644875 18839 net.cpp:150] Setting up rpn_cls_score_rpn_cls_score_0_split
I0413 02:46:32.644901 18839 net.cpp:157] Top shape: 1 74 96 1 1 (7104)
I0413 02:46:32.644915 18839 net.cpp:157] Top shape: 1 74 96 1 1 (7104)
I0413 02:46:32.644932 18839 net.cpp:165] Memory required for data: 10172189988
I0413 02:46:32.644949 18839 layer_factory.hpp:77] Creating layer rpn_twin_pred
I0413 02:46:32.644985 18839 net.cpp:100] Creating Layer rpn_twin_pred
I0413 02:46:32.645005 18839 net.cpp:434] rpn_twin_pred <- rpn/output_pool_rpn/output_pool_0_split_1
I0413 02:46:32.645072 18839 net.cpp:408] rpn_twin_pred -> rpn_twin_pred
I0413 02:46:32.645936 18839 net.cpp:150] Setting up rpn_twin_pred
I0413 02:46:32.646044 18839 net.cpp:157] Top shape: 1 74 96 1 1 (7104)
I0413 02:46:32.646082 18839 net.cpp:165] Memory required for data: 10172218404
I0413 02:46:32.646127 18839 layer_factory.hpp:77] Creating layer rpn_twin_pred_rpn_twin_pred_0_split
I0413 02:46:32.646183 18839 net.cpp:100] Creating Layer rpn_twin_pred_rpn_twin_pred_0_split
I0413 02:46:32.646220 18839 net.cpp:434] rpn_twin_pred_rpn_twin_pred_0_split <- rpn_twin_pred
I0413 02:46:32.646258 18839 net.cpp:408] rpn_twin_pred_rpn_twin_pred_0_split -> rpn_twin_pred_rpn_twin_pred_0_split_0
I0413 02:46:32.646307 18839 net.cpp:408] rpn_twin_pred_rpn_twin_pred_0_split -> rpn_twin_pred_rpn_twin_pred_0_split_1
I0413 02:46:32.646443 18839 net.cpp:150] Setting up rpn_twin_pred_rpn_twin_pred_0_split
I0413 02:46:32.646515 18839 net.cpp:157] Top shape: 1 74 96 1 1 (7104)
I0413 02:46:32.646556 18839 net.cpp:157] Top shape: 1 74 96 1 1 (7104)
I0413 02:46:32.646597 18839 net.cpp:165] Memory required for data: 10172275236
I0413 02:46:32.646630 18839 layer_factory.hpp:77] Creating layer rpn_cls_score_reshape
I0413 02:46:32.646667 18839 net.cpp:100] Creating Layer rpn_cls_score_reshape
I0413 02:46:32.646701 18839 net.cpp:434] rpn_cls_score_reshape <- rpn_cls_score_rpn_cls_score_0_split_0
I0413 02:46:32.646739 18839 net.cpp:408] rpn_cls_score_reshape -> rpn_cls_score_reshape
I0413 02:46:32.646836 18839 net.cpp:150] Setting up rpn_cls_score_reshape
I0413 02:46:32.646889 18839 net.cpp:157] Top shape: 1 2 3552 1 1 (7104)
I0413 02:46:32.646930 18839 net.cpp:165] Memory required for data: 10172303652
I0413 02:46:32.646962 18839 layer_factory.hpp:77] Creating layer rpn_cls_score_reshape_rpn_cls_score_reshape_0_split
I0413 02:46:32.647023 18839 net.cpp:100] Creating Layer rpn_cls_score_reshape_rpn_cls_score_reshape_0_split
I0413 02:46:32.647059 18839 net.cpp:434] rpn_cls_score_reshape_rpn_cls_score_reshape_0_split <- rpn_cls_score_reshape
I0413 02:46:32.647097 18839 net.cpp:408] rpn_cls_score_reshape_rpn_cls_score_reshape_0_split -> rpn_cls_score_reshape_rpn_cls_score_reshape_0_split_0
I0413 02:46:32.647156 18839 net.cpp:408] rpn_cls_score_reshape_rpn_cls_score_reshape_0_split -> rpn_cls_score_reshape_rpn_cls_score_reshape_0_split_1
I0413 02:46:32.647209 18839 net.cpp:408] rpn_cls_score_reshape_rpn_cls_score_reshape_0_split -> rpn_cls_score_reshape_rpn_cls_score_reshape_0_split_2
I0413 02:46:32.647330 18839 net.cpp:150] Setting up rpn_cls_score_reshape_rpn_cls_score_reshape_0_split
I0413 02:46:32.647393 18839 net.cpp:157] Top shape: 1 2 3552 1 1 (7104)
I0413 02:46:32.647446 18839 net.cpp:157] Top shape: 1 2 3552 1 1 (7104)
I0413 02:46:32.647483 18839 net.cpp:157] Top shape: 1 2 3552 1 1 (7104)
I0413 02:46:32.647536 18839 net.cpp:165] Memory required for data: 10172388900
I0413 02:46:32.647580 18839 layer_factory.hpp:77] Creating layer rpn-data
I0413 02:46:32.648305 18839 net.cpp:100] Creating Layer rpn-data
I0413 02:46:32.648442 18839 net.cpp:434] rpn-data <- rpn_cls_score_rpn_cls_score_0_split_1
I0413 02:46:32.648512 18839 net.cpp:434] rpn-data <- gt_boxes_data_1_split_0
I0413 02:46:32.648548 18839 net.cpp:434] rpn-data <- data_data_0_split_1
I0413 02:46:32.648587 18839 net.cpp:408] rpn-data -> rpn_labels
I0413 02:46:32.648648 18839 net.cpp:408] rpn-data -> rpn_twin_targets
I0413 02:46:32.648690 18839 net.cpp:408] rpn-data -> rpn_twin_inside_weights
I0413 02:46:32.648751 18839 net.cpp:408] rpn-data -> rpn_twin_outside_weights
I0413 02:46:32.652678 18839 net.cpp:150] Setting up rpn-data
I0413 02:46:32.652899 18839 net.cpp:157] Top shape: 1 1 3552 1 1 (3552)
I0413 02:46:32.652946 18839 net.cpp:157] Top shape: 1 74 96 1 1 (7104)
I0413 02:46:32.652987 18839 net.cpp:157] Top shape: 1 74 96 1 1 (7104)
I0413 02:46:32.653053 18839 net.cpp:157] Top shape: 1 74 96 1 1 (7104)
I0413 02:46:32.653093 18839 net.cpp:165] Memory required for data: 10172488356
I0413 02:46:32.653148 18839 layer_factory.hpp:77] Creating layer rpn_labels_rpn-data_0_split
I0413 02:46:32.653205 18839 net.cpp:100] Creating Layer rpn_labels_rpn-data_0_split
I0413 02:46:32.653256 18839 net.cpp:434] rpn_labels_rpn-data_0_split <- rpn_labels
I0413 02:46:32.653306 18839 net.cpp:408] rpn_labels_rpn-data_0_split -> rpn_labels_rpn-data_0_split_0
I0413 02:46:32.653358 18839 net.cpp:408] rpn_labels_rpn-data_0_split -> rpn_labels_rpn-data_0_split_1
I0413 02:46:32.653457 18839 net.cpp:150] Setting up rpn_labels_rpn-data_0_split
I0413 02:46:32.653473 18839 net.cpp:157] Top shape: 1 1 3552 1 1 (3552)
I0413 02:46:32.653511 18839 net.cpp:157] Top shape: 1 1 3552 1 1 (3552)
I0413 02:46:32.653547 18839 net.cpp:165] Memory required for data: 10172516772
I0413 02:46:32.653594 18839 layer_factory.hpp:77] Creating layer rpn_loss_cls
I0413 02:46:32.653661 18839 net.cpp:100] Creating Layer rpn_loss_cls
I0413 02:46:32.653700 18839 net.cpp:434] rpn_loss_cls <- rpn_cls_score_reshape_rpn_cls_score_reshape_0_split_0
I0413 02:46:32.653749 18839 net.cpp:434] rpn_loss_cls <- rpn_labels_rpn-data_0_split_0
…
I0413 02:46:32.654923 18839 layer_factory.hpp:77] Creating layer rpn_accuarcy
I0413 02:46:32.654958 18839 net.cpp:100] Creating Layer rpn_accuarcy
I0413 02:46:32.654980 18839 net.cpp:434] rpn_accuarcy <- rpn_cls_score_reshape_rpn_cls_score_reshape_0_split_1
I0413 02:46:32.654995 18839 net.cpp:434] rpn_accuarcy <- rpn_labels_rpn-data_0_split_1
I0413 02:46:32.655022 18839 net.cpp:408] rpn_accuarcy -> rpn_accuarcy
I0413 02:46:32.655051 18839 net.cpp:408] rpn_accuarcy -> rpn_accuarcy_class
I0413 02:46:32.655176 18839 net.cpp:150] Setting up rpn_accuarcy
I0413 02:46:32.655220 18839 net.cpp:157] Top shape: (1)
I0413 02:46:32.655247 18839 net.cpp:157] Top shape: 2 (2)
I0413 02:46:32.655292 18839 net.cpp:165] Memory required for data: 10172516792
I0413 02:46:32.655347 18839 layer_factory.hpp:77] Creating layer rpn_cls_prob
I0413 02:46:32.655390 18839 net.cpp:100] Creating Layer rpn_cls_prob
I0413 02:46:32.655402 18839 net.cpp:434] rpn_cls_prob <- rpn_cls_score_reshape_rpn_cls_score_reshape_0_split_2
I0413 02:46:32.655444 18839 net.cpp:408] rpn_cls_prob -> rpn_cls_prob
I0413 02:46:32.655604 18839 net.cpp:150] Setting up rpn_cls_prob
I0413 02:46:32.655635 18839 net.cpp:157] Top shape: 1 2 3552 1 1 (7104)
I0413 02:46:32.655653 18839 net.cpp:165] Memory required for data: 10172545208
I0413 02:46:32.655675 18839 layer_factory.hpp:77] Creating layer rpn_cls_prob_reshape
I0413 02:46:32.655707 18839 net.cpp:100] Creating Layer rpn_cls_prob_reshape
I0413 02:46:32.655725 18839 net.cpp:434] rpn_cls_prob_reshape <- rpn_cls_prob
I0413 02:46:32.655740 18839 net.cpp:408] rpn_cls_prob_reshape -> rpn_cls_prob_reshape
I0413 02:46:32.655793 18839 net.cpp:150] Setting up rpn_cls_prob_reshape
I0413 02:46:32.655813 18839 net.cpp:157] Top shape: 1 74 96 1 1 (7104)
I0413 02:46:32.655827 18839 net.cpp:165] Memory required for data: 10172573624
I0413 02:46:32.655840 18839 layer_factory.hpp:77] Creating layer proposal
I0413 02:46:32.657578 18839 net.cpp:100] Creating Layer proposal
I0413 02:46:32.657647 18839 net.cpp:434] proposal <- rpn_cls_prob_reshape
I0413 02:46:32.657667 18839 net.cpp:434] proposal <- rpn_twin_pred_rpn_twin_pred_0_split_1
I0413 02:46:32.657691 18839 net.cpp:408] proposal -> rpn_rois
I0413 02:46:32.668781 18839 net.cpp:150] Setting up proposal
I0413 02:46:32.669067 18839 net.cpp:157] Top shape: 1 3 (3)
I0413 02:46:32.669123 18839 net.cpp:165] Memory required for data: 10172573636
I0413 02:46:32.669191 18839 layer_factory.hpp:77] Creating layer roi-data
I0413 02:46:32.670897 18839 net.cpp:100] Creating Layer roi-data
I0413 02:46:32.671097 18839 net.cpp:434] roi-data <- rpn_rois
I0413 02:46:32.671164 18839 net.cpp:434] roi-data <- gt_boxes_data_1_split_1
I0413 02:46:32.671272 18839 net.cpp:408] roi-data -> rois
I0413 02:46:32.671363 18839 net.cpp:408] roi-data -> labels
I0413 02:46:32.671453 18839 net.cpp:408] roi-data -> twin_targets
I0413 02:46:32.671536 18839 net.cpp:408] roi-data -> twin_inside_weights
I0413 02:46:32.672097 18839 net.cpp:408] roi-data -> twin_outside_weights
I0413 02:46:32.673466 18839 net.cpp:150] Setting up roi-data
I0413 02:46:32.673506 18839 net.cpp:157] Top shape: 1 3 (3)
I0413 02:46:32.673518 18839 net.cpp:157] Top shape: 1 1 (1)
I0413 02:46:32.673532 18839 net.cpp:157] Top shape: 1 402 (402)
I0413 02:46:32.673542 18839 net.cpp:157] Top shape: 1 402 (402)
I0413 02:46:32.673552 18839 net.cpp:157] Top shape: 1 402 (402)
I0413 02:46:32.673555 18839 net.cpp:165] Memory required for data: 10172578476
I0413 02:46:32.673568 18839 layer_factory.hpp:77] Creating layer labels_roi-data_1_split
I0413 02:46:32.673584 18839 net.cpp:100] Creating Layer labels_roi-data_1_split
I0413 02:46:32.673593 18839 net.cpp:434] labels_roi-data_1_split <- labels
I0413 02:46:32.673609 18839 net.cpp:408] labels_roi-data_1_split -> labels_roi-data_1_split_0
I0413 02:46:32.673626 18839 net.cpp:408] labels_roi-data_1_split -> labels_roi-data_1_split_1
I0413 02:46:32.677152 18839 net.cpp:150] Setting up labels_roi-data_1_split
I0413 02:46:32.677258 18839 net.cpp:157] Top shape: 1 1 (1)
I0413 02:46:32.677281 18839 net.cpp:157] Top shape: 1 1 (1)
I0413 02:46:32.677583 18839 net.cpp:165] Memory required for data: 10172578484
I0413 02:46:32.677613 18839 layer_factory.hpp:77] Creating layer roi_pool5
I0413 02:46:32.678083 18839 net.cpp:100] Creating Layer roi_pool5
I0413 02:46:32.678395 18839 net.cpp:434] roi_pool5 <- conv5b_relu5b_0_split_1
I0413 02:46:32.678448 18839 net.cpp:434] roi_pool5 <- rois
I0413 02:46:32.678761 18839 net.cpp:408] roi_pool5 -> pool5
I0413 02:46:32.678820 18839 roi_pooling_layer.cpp:34] Temporal scale: 0.125
I0413 02:46:32.678874 18839 roi_pooling_layer.cpp:35] Spatial scale: 0.0625
I0413 02:46:32.679067 18839 net.cpp:150] Setting up roi_pool5
I0413 02:46:32.680763 18839 net.cpp:157] Top shape: 1 512 1 4 4 (8192)
I0413 02:46:32.681026 18839 net.cpp:165] Memory required for data: 10172611252
I0413 02:46:32.681090 18839 layer_factory.hpp:77] Creating layer fc6
I0413 02:46:32.681206 18839 net.cpp:100] Creating Layer fc6
I0413 02:46:32.681257 18839 net.cpp:434] fc6 <- pool5
I0413 02:46:32.681318 18839 net.cpp:408] fc6 -> fc6
I0413 02:46:33.835634 18839 net.cpp:150] Setting up fc6
I0413 02:46:33.835814 18839 net.cpp:157] Top shape: 1 4096 (4096)
I0413 02:46:33.835861 18839 net.cpp:165] Memory required for data: 10172627636
I0413 02:46:33.835913 18839 layer_factory.hpp:77] Creating layer relu6
I0413 02:46:33.835988 18839 net.cpp:100] Creating Layer relu6
I0413 02:46:33.836041 18839 net.cpp:434] relu6 <- fc6
I0413 02:46:33.836102 18839 net.cpp:395] relu6 -> fc6 (in-place)
I0413 02:46:33.836158 18839 net.cpp:150] Setting up relu6
I0413 02:46:33.836210 18839 net.cpp:157] Top shape: 1 4096 (4096)
I0413 02:46:33.836248 18839 net.cpp:165] Memory required for data: 10172644020
I0413 02:46:33.836293 18839 layer_factory.hpp:77] Creating layer drop6
I0413 02:46:33.836386 18839 net.cpp:100] Creating Layer drop6
I0413 02:46:33.836432 18839 net.cpp:434] drop6 <- fc6
I0413 02:46:33.836482 18839 net.cpp:395] drop6 -> fc6 (in-place)
I0413 02:46:33.836582 18839 net.cpp:150] Setting up drop6
I0413 02:46:33.836637 18839 net.cpp:157] Top shape: 1 4096 (4096)
I0413 02:46:33.836691 18839 net.cpp:165] Memory required for data: 10172660404
I0413 02:46:33.836735 18839 layer_factory.hpp:77] Creating layer fc6_drop6_0_split
I0413 02:46:33.836776 18839 net.cpp:100] Creating Layer fc6_drop6_0_split
I0413 02:46:33.836817 18839 net.cpp:434] fc6_drop6_0_split <- fc6
I0413 02:46:33.836860 18839 net.cpp:408] fc6_drop6_0_split -> fc6_drop6_0_split_0
I0413 02:46:33.836915 18839 net.cpp:408] fc6_drop6_0_split -> fc6_drop6_0_split_1
I0413 02:46:33.837038 18839 net.cpp:150] Setting up fc6_drop6_0_split
I0413 02:46:33.837093 18839 net.cpp:157] Top shape: 1 4096 (4096)
I0413 02:46:33.837132 18839 net.cpp:157] Top shape: 1 4096 (4096)
I0413 02:46:33.837167 18839 net.cpp:165] Memory required for data: 10172693172
I0413 02:46:33.837208 18839 layer_factory.hpp:77] Creating layer cls_score
I0413 02:46:33.837250 18839 net.cpp:100] Creating Layer cls_score
I0413 02:46:33.837298 18839 net.cpp:434] cls_score <- fc6_drop6_0_split_0
I0413 02:46:33.837353 18839 net.cpp:408] cls_score -> cls_score
I0413 02:46:33.926180 18839 net.cpp:150] Setting up cls_score
I0413 02:46:33.926261 18839 net.cpp:157] Top shape: 1 201 (201)
I0413 02:46:33.926283 18839 net.cpp:165] Memory required for data: 10172693976
I0413 02:46:33.926309 18839 layer_factory.hpp:77] Creating layer cls_score_cls_score_0_split
I0413 02:46:33.926337 18839 net.cpp:100] Creating Layer cls_score_cls_score_0_split
I0413 02:46:33.926385 18839 net.cpp:434] cls_score_cls_score_0_split <- cls_score
I0413 02:46:33.926458 18839 net.cpp:408] cls_score_cls_score_0_split -> cls_score_cls_score_0_split_0
I0413 02:46:33.926565 18839 net.cpp:408] cls_score_cls_score_0_split -> cls_score_cls_score_0_split_1
I0413 02:46:33.926753 18839 net.cpp:150] Setting up cls_score_cls_score_0_split
I0413 02:46:33.927136 18839 net.cpp:157] Top shape: 1 201 (201)
I0413 02:46:33.927222 18839 net.cpp:157] Top shape: 1 201 (201)
I0413 02:46:33.927306 18839 net.cpp:165] Memory required for data: 10172695584
I0413 02:46:33.927367 18839 layer_factory.hpp:77] Creating layer twin_pred
I0413 02:46:33.927443 18839 net.cpp:100] Creating Layer twin_pred
I0413 02:46:33.927590 18839 net.cpp:434] twin_pred <- fc6_drop6_0_split_1
I0413 02:46:33.927678 18839 net.cpp:408] twin_pred -> twin_pred
I0413 02:46:33.971777 18839 net.cpp:150] Setting up twin_pred
I0413 02:46:33.971822 18839 net.cpp:157] Top shape: 1 402 (402)
I0413 02:46:33.971827 18839 net.cpp:165] Memory required for data: 10172697192
I0413 02:46:33.971841 18839 layer_factory.hpp:77] Creating layer loss_cls
I0413 02:46:33.971854 18839 net.cpp:100] Creating Layer loss_cls
I0413 02:46:33.971860 18839 net.cpp:434] loss_cls <- cls_score_cls_score_0_split_0
I0413 02:46:33.971869 18839 net.cpp:434] loss_cls <- labels_roi-data_1_split_0
I0413 02:46:33.971876 18839 net.cpp:408] loss_cls -> loss_cls
…
