…
stepsize: 350000
snapshot: 0
snapshot_prefix: "./experiments/activitynet/snapshot/activitynet"
average_loss: 100
iter_size: 1
I0417 04:01:37.708884 17323 solver.cpp:81] Creating training net from train_net file: ./experiments/activitynet/train.prototxt
I0417 04:01:37.709988 17323 net.cpp:58] Initializing net from parameters: 
name: "activitynet"
state {
  phase: TRAIN
}
layer {
  name: "data"
  type: "Python"
  top: "data"
  top: "gt_boxes"
  python_param {
    module: "roi_data_layer.layer"
    layer: "RoIDataLayer"
    param_str: "\'num_classes\': 100"
  }
}
layer {
  name: "conv1a"
  type: "Convolution"
  bottom: "data"
  top: "conv1a"
  param {
    lr_mult: 0
    decay_mult: 0
  }
  param {
    lr_mult: 0
    decay_mult: 0
  }
  convolution_param {
    num_output: 64
    pad: 1
    pad: 1
    pad: 1
    kernel_size: 3
    kernel_size: 3
    kernel_size: 3
    weight_filler {
      type: "gaussian"
      std: 0.01
    }
    bias_filler {
      type: "constant"
      value: 0
    }
  }
}
layer {
  name: "relu1a"
  type: "ReLU"
  bottom: "conv1a"
  top: "conv1a"
}
layer {
  name: "pool1"
  type: "Pooling"
  bottom: "conv1a"
  top: "pool1"
  pooling_param {
    pool: MAX
    kernel_size: 1
    kernel_size: 2
    kernel_size: 2
    stride: 1
    stride: 2
    stride: 2
  }
}
layer {
  name: "conv2a"
  type: "Convolution"
  bottom: "pool1"
  top: "conv2a"
  param {
    lr_mult: 0
    decay_mult: 0
  }
  param {
    lr_mult: 0
    decay_mult: 0
  }
  convolution_param {
    num_output: 128
    pad: 1
    pad: 1
    pad: 1
    kernel_size: 3
    kernel_size: 3
    kernel_size: 3
    weight_filler {
      type: "gaussian"
      std: 0.01
    }
    bias_filler {
      type: "constant"
      value: 1
    }
  }
}
layer {
  name: "relu2a"
  type: "ReLU"
  bottom: "conv2a"
  top: "conv2a"
}
layer {
  name: "pool2"
  type: "Pooling"
  bottom: "conv2a"
  top: "pool2"
  pooling_param {
    pool: MAX
    kernel_size: 2
    kernel_size: 2
    kernel_size: 2
    stride: 2
    stride: 2
    stride: 2
  }
}
layer {
  name: "conv3a"
  type: "Convolution"
  bottom: "pool2"
  top: "conv3a"
  param {
    lr_mult: 1
    decay_mult: 1
  }
  param {
    lr_mult: 2
    decay_mult: 0
  }
  convolution_param {
    num_output: 256
    pad: 1
    pad: 1
    pad: 1
    kernel_size: 3
    kernel_size: 3
    kernel_size: 3
    weight_filler {
      type: "gaussian"
      std: 0.01
    }
    bias_filler {
      type: "constant"
      value: 1
    }
  }
}
layer {
  name: "relu3a"
  type: "ReLU"
  bottom: "conv3a"
  top: "conv3a"
}
layer {
  name: "conv3b"
  type: "Convolution"
  bottom: "conv3a"
  top: "conv3b"
  param {
    lr_mult: 1
    decay_mult: 1
  }
  param {
    lr_mult: 2
    decay_mult: 0
  }
  convolution_param {
    num_output: 256
    pad: 1
    pad: 1
    pad: 1
    kernel_size: 3
    kernel_size: 3
    kernel_size: 3
    weight_filler {
      type: "gaussian"
      std: 0.01
    }
    bias_filler {
      type: "constant"
      value: 1
    }
  }
}
layer {
  name: "relu3b"
  type: "ReLU"
  bottom: "conv3b"
  top: "conv3b"
}
layer {
  name: "pool3"
  type: "Pooling"
  bottom: "conv3b"
  top: "pool3"
  pooling_param {
    pool: MAX
    kernel_size: 2
    kernel_size: 2
    kernel_size: 2
    stride: 2
    stride: 2
    stride: 2
  }
}
layer {
  name: "conv4a"
  type: "Convolution"
  bottom: "pool3"
  top: "conv4a"
  param {
    lr_mult: 1
    decay_mult: 1
  }
  param {
    lr_mult: 2
    decay_mult: 0
  }
  convolution_param {
    num_output: 512
    pad: 1
    pad: 1
    pad: 1
    kernel_size: 3
    kernel_size: 3
    kernel_size: 3
    weight_filler {
      type: "gaussian"
      std: 0.01
    }
    bias_filler {
      type: "constant"
      value: 1
    }
  }
}
layer {
  name: "relu4a"
  type: "ReLU"
  bottom: "conv4a"
  top: "conv4a"
}
layer {
  name: "conv4b"
  type: "Convolution"
  bottom: "conv4a"
  top: "conv4b"
  param {
    lr_mult: 1
    decay_mult: 1
  }
  param {
    lr_mult: 2
    decay_mult: 0
  }
  convolution_param {
    num_output: 512
    pad: 1
    pad: 1
    pad: 1
    kernel_size: 3
    kernel_size: 3
    kernel_size: 3
    weight_filler {
      type: "gaussian"
      std: 0.01
    }
    bias_filler {
      type: "constant"
      value: 1
    }
  }
}
layer {
  name: "relu4b"
  type: "ReLU"
  bottom: "conv4b"
  top: "conv4b"
}
layer {
  name: "pool4"
  type: "Pooling"
  bottom: "conv4b"
  top: "pool4"
  pooling_param {
    pool: MAX
    kernel_size: 2
    kernel_size: 2
    kernel_size: 2
    stride: 2
    stride: 2
    stride: 2
  }
}
layer {
  name: "conv5a"
  type: "Convolution"
  bottom: "pool4"
  top: "conv5a"
  param {
    lr_mult: 1
    decay_mult: 1
  }
  param {
    lr_mult: 2
    decay_mult: 0
  }
  convolution_param {
    num_output: 512
    pad: 1
    pad: 1
    pad: 1
    kernel_size: 3
    kernel_size: 3
    kernel_size: 3
    weight_filler {
      type: "gaussian"
      std: 0.01
    }
    bias_filler {
      type: "constant"
      value: 1
    }
  }
}
layer {
  name: "relu5a"
  type: "ReLU"
  bottom: "conv5a"
  top: "conv5a"
}
layer {
  name: "conv5b"
  type: "Convolution"
  bottom: "conv5a"
  top: "conv5b"
  param {
    lr_mult: 1
    decay_mult: 1
  }
  param {
    lr_mult: 2
    decay_mult: 0
  }
  convolution_param {
    num_output: 512
    pad: 1
    pad: 1
    pad: 1
    kernel_size: 3
    kernel_size: 3
    kernel_size: 3
    weight_filler {
      type: "gaussian"
      std: 0.01
    }
    bias_filler {
      type: "constant"
      value: 1
    }
  }
}
layer {
  name: "relu5b"
  type: "ReLU"
  bottom: "conv5b"
  top: "conv5b"
}
layer {
  name: "rpn_conv/3x3"
  type: "Convolution"
  bottom: "conv5b"
  top: "rpn/output"
  param {
    lr_mult: 1
    decay_mult: 1
  }
  param {
    lr_mult: 2
    decay_mult: 0
  }
  convolution_param {
    num_output: 512
    pad: 1
    pad: 1
    pad: 1
    kernel_size: 3
    kernel_size: 3
    kernel_size: 3
    stride: 1
    stride: 2
    stride: 2
    weight_filler {
      type: "gaussian"
      std: 0.01
    }
    bias_filler {
      type: "constant"
      value: 0
    }
  }
}
layer {
  name: "rpn_relu/3x3"
  type: "ReLU"
  bottom: "rpn/output"
  top: "rpn/output"
}
layer {
  name: "rpn_conv/3x3_2"
  type: "Convolution"
  bottom: "rpn/output"
  top: "rpn/output_2"
  param {
    lr_mult: 1
    decay_mult: 1
  }
  param {
    lr_mult: 2
    decay_mult: 0
  }
  convolution_param {
    num_output: 512
    pad: 1
    pad: 1
    pad: 1
    kernel_size: 3
    kernel_size: 3
    kernel_size: 3
    stride: 1
    stride: 2
    stride: 2
    weight_filler {
      type: "gaussian"
      std: 0.01
    }
    bias_filler {
      type: "constant"
      value: 0
    }
  }
}
layer {
  name: "rpn_relu/3x3_2"
  type: "ReLU"
  bottom: "rpn/output_2"
  top: "rpn/output_2"
}
layer {
  name: "rpn/output_pool"
  type: "Pooling"
  bottom: "rpn/output_2"
  top: "rpn/output_pool"
  pooling_param {
    pool: MAX
    kernel_size: 1
    kernel_size: 2
    kernel_size: 2
  }
}
layer {
  name: "rpn_cls_score"
  type: "Convolution"
  bottom: "rpn/output_pool"
  top: "rpn_cls_score"
  param {
    lr_mult: 1
    decay_mult: 1
  }
  param {
    lr_mult: 2
    decay_mult: 0
  }
  convolution_param {
    num_output: 74
    kernel_size: 1
    kernel_size: 1
    kernel_size: 1
    weight_filler {
      type: "gaussian"
      std: 0.01
    }
    bias_filler {
      type: "constant"
      value: 0
    }
  }
}
layer {
  name: "rpn_twin_pred"
  type: "Convolution"
  bottom: "rpn/output_pool"
  top: "rpn_twin_pred"
  param {
    lr_mult: 1
    decay_mult: 1
  }
  param {
    lr_mult: 2
    decay_mult: 0
  }
  convolution_param {
    num_output: 74
    kernel_size: 1
    kernel_size: 1
    kernel_size: 1
    weight_filler {
      type: "gaussian"
      std: 0.01
    }
    bias_filler {
      type: "constant"
      value: 0
    }
  }
}
layer {
  name: "rpn_cls_score_reshape"
  type: "Reshape"
  bottom: "rpn_cls_score"
  top: "rpn_cls_score_reshape"
  reshape_param {
    shape {
      dim: 0
      dim: 2
      dim: -1
      dim: 0
      dim: 0
    }
  }
}
layer {
  name: "rpn-data"
  type: "Python"
  bottom: "rpn_cls_score"
  bottom: "gt_boxes"
  bottom: "data"
  top: "rpn_labels"
  top: "rpn_twin_targets"
  top: "rpn_twin_inside_weights"
  top: "rpn_twin_outside_weights"
  python_param {
    module: "rpn.anchor_target_layer"
    layer: "AnchorTargetLayer"
    param_str: "\'feat_stride\': 8 \n\'scales\': !!python/tuple [1,1.25, 1.5,1.75, 2,2.5, 3,3.5, 4,4.5, 5,5.5, 6,7, 8,9,10,11,12,14,16,18,20,22,24,28,32,36,40,44,52,60,68,76,84,92,100]"
  }
}
layer {
  name: "rpn_loss_cls"
  type: "SoftmaxWithLoss"
  bottom: "rpn_cls_score_reshape"
  bottom: "rpn_labels"
  top: "rpn_cls_loss"
  loss_weight: 1
  propagate_down: true
  propagate_down: false
  loss_param {
    ignore_label: -1
    normalize: true
  }
}
layer {
  name: "rpn_loss_twin"
  type: "SmoothL1Loss"
  bottom: "rpn_twin_pred"
  bottom: "rpn_twin_targets"
  bottom: "rpn_twin_inside_weights"
  bottom: "rpn_twin_outside_weights"
  top: "rpn_loss_twin"
  loss_weight: 1
  smooth_l1_loss_param {
    sigma: 3
  }
}
layer {
  name: "rpn_accuarcy"
  type: "Accuracy"
  bottom: "rpn_cls_score_reshape"
  bottom: "rpn_labels"
  top: "rpn_accuarcy"
  top: "rpn_accuarcy_class"
  propagate_down: false
  propagate_down: false
  accuracy_param {
    ignore_label: -1
  }
}
layer {
  name: "rpn_cls_prob"
  type: "Softmax"
  bottom: "rpn_cls_score_reshape"
  top: "rpn_cls_prob"
}
layer {
  name: "rpn_cls_prob_reshape"
  type: "Reshape"
  bottom: "rpn_cls_prob"
  top: "rpn_cls_prob_reshape"
  reshape_param {
    shape {
      dim: 0
      dim: 74
      dim: -1
      dim: 0
      dim: 0
    }
  }
}
layer {
  name: "proposal"
  type: "Python"
  bottom: "rpn_cls_prob_reshape"
  bottom: "rpn_twin_pred"
  top: "rpn_rois"
  include {
    phase: TRAIN
  }
  python_param {
    module: "rpn.proposal_layer"
    layer: "ProposalLayer"
    param_str: "\'feat_stride\': 8 \n\'scales\': !!python/tuple [1,1.25, 1.5,1.75, 2,2.5, 3,3.5, 4,4.5, 5,5.5, 6,7, 8,9,10,11,12,14,16,18,20,22,24,28,32,36,40,44,52,60,68,76,84,92,100]"
  }
}
layer {
  name: "roi-data"
  type: "Python"
  bottom: "rpn_rois"
  bottom: "gt_boxes"
  top: "rois"
  top: "labels"
  top: "twin_targets"
  top: "twin_inside_weights"
  top: "twin_outside_weights"
  python_param {
    module: "rpn.proposal_target_layer"
    layer: "ProposalTargetLayer"
    param_str: "\'num_classes\': 201"
  }
}
layer {
  name: "roi_pool5"
  type: "ROIPooling"
  bottom: "conv5b"
  bottom: "rois"
  top: "pool5"
  roi_pooling_param {
    pooled_h: 4
    pooled_w: 4
    spatial_scale: 0.0625
    pooled_l: 1
    temporal_scale: 0.125
  }
}
layer {
  name: "fc6"
  type: "InnerProduct"
  bottom: "pool5"
  top: "fc6"
  param {
    lr_mult: 1
    decay_mult: 1
  }
  param {
    lr_mult: 2
    decay_mult: 0
  }
  inner_product_param {
    num_output: 4096
    weight_filler {
      type: "gaussian"
      std: 0.005
    }
    bias_filler {
      type: "constant"
      value: 1
    }
  }
}
layer {
  name: "relu6"
  type: "ReLU"
  bottom: "fc6"
  top: "fc6"
}
layer {
  name: "drop6"
  type: "Dropout"
  bottom: "fc6"
  top: "fc6"
  dropout_param {
    dropout_ratio: 0.5
  }
}
layer {
  name: "cls_score"
  type: "InnerProduct"
  bottom: "fc6"
  top: "cls_score"
  param {
    lr_mult: 1
    decay_mult: 1
  }
  param {
    lr_mult: 2
    decay_mult: 0
  }
  inner_product_param {
    num_output: 201
    weight_filler {
      type: "gaussian"
      std: 0.01
    }
    bias_filler {
      type: "constant"
      value: 0
    }
  }
}
layer {
  name: "twin_pred"
  type: "InnerProduct"
  bottom: "fc6"
  top: "twin_pred"
  param {
    lr_mult: 1
    decay_mult: 1
  }
  param {
    lr_mult: 2
    decay_mult: 0
  }
  inner_product_param {
    num_output: 402
    weight_filler {
      type: "gaussian"
      std: 0.001
    }
    bias_filler {
      type: "constant"
      value: 0
    }
  }
}
layer {
  name: "loss_cls"
  type: "SoftmaxWithLoss"
  bottom: "cls_score"
  bottom: "labels"
  top: "loss_cls"
  loss_weight: 1
  propagate_down: true
  propagate_down: false
}
layer {
  name: "loss_twin"
  type: "SmoothL1Loss"
  bottom: "twin_pred"
  bottom: "twin_targets"
  bottom: "twin_inside_weights"
  bottom: "twin_outside_weights"
  top: "loss_twin"
  loss_weight: 1
}
layer {
  name: "accuarcy"
  type: "Accuracy"
  bottom: "cls_score"
  bottom: "labels"
  top: "accuarcy"
  propagate_down: false
  propagate_down: false
  accuracy_param {
    ignore_label: -1
  }
}
I0417 04:01:37.710330 17323 layer_factory.hpp:77] Creating layer data
I0417 04:01:37.736258 17323 net.cpp:100] Creating Layer data
I0417 04:01:37.736284 17323 net.cpp:408] data -> data
I0417 04:01:37.736304 17323 net.cpp:408] data -> gt_boxes
setting up
RoiDataLayer: name_to_top: {'gt_windows': 1, 'data': 0}
I0417 04:01:37.749766 17323 net.cpp:150] Setting up data
I0417 04:01:37.749796 17323 net.cpp:157] Top shape: 1 3 768 112 112 (28901376)
I0417 04:01:37.749806 17323 net.cpp:157] Top shape: 1 101 (101)
I0417 04:01:37.749812 17323 net.cpp:165] Memory required for data: 115605908
I0417 04:01:37.749821 17323 layer_factory.hpp:77] Creating layer data_data_0_split
I0417 04:01:37.749838 17323 net.cpp:100] Creating Layer data_data_0_split
I0417 04:01:37.749845 17323 net.cpp:434] data_data_0_split <- data
I0417 04:01:37.749857 17323 net.cpp:408] data_data_0_split -> data_data_0_split_0
I0417 04:01:37.749874 17323 net.cpp:408] data_data_0_split -> data_data_0_split_1
I0417 04:01:37.749931 17323 net.cpp:150] Setting up data_data_0_split
I0417 04:01:37.749943 17323 net.cpp:157] Top shape: 1 3 768 112 112 (28901376)
I0417 04:01:37.749948 17323 net.cpp:157] Top shape: 1 3 768 112 112 (28901376)
I0417 04:01:37.749954 17323 net.cpp:165] Memory required for data: 346816916
I0417 04:01:37.749959 17323 layer_factory.hpp:77] Creating layer gt_boxes_data_1_split
I0417 04:01:37.749969 17323 net.cpp:100] Creating Layer gt_boxes_data_1_split
I0417 04:01:37.749974 17323 net.cpp:434] gt_boxes_data_1_split <- gt_boxes
I0417 04:01:37.749984 17323 net.cpp:408] gt_boxes_data_1_split -> gt_boxes_data_1_split_0
I0417 04:01:37.749996 17323 net.cpp:408] gt_boxes_data_1_split -> gt_boxes_data_1_split_1
I0417 04:01:37.750046 17323 net.cpp:150] Setting up gt_boxes_data_1_split
I0417 04:01:37.750054 17323 net.cpp:157] Top shape: 1 101 (101)
I0417 04:01:37.750061 17323 net.cpp:157] Top shape: 1 101 (101)
I0417 04:01:37.750067 17323 net.cpp:165] Memory required for data: 346817724
I0417 04:01:37.750072 17323 layer_factory.hpp:77] Creating layer conv1a
I0417 04:01:37.750097 17323 net.cpp:100] Creating Layer conv1a
I0417 04:01:37.750105 17323 net.cpp:434] conv1a <- data_data_0_split_0
I0417 04:01:37.750115 17323 net.cpp:408] conv1a -> conv1a
I0417 04:01:37.769934 17323 net.cpp:150] Setting up conv1a
I0417 04:01:37.769969 17323 net.cpp:157] Top shape: 1 64 768 112 112 (616562688)
I0417 04:01:37.769974 17323 net.cpp:165] Memory required for data: 2813068476
I0417 04:01:37.770004 17323 layer_factory.hpp:77] Creating layer relu1a
I0417 04:01:37.770022 17323 net.cpp:100] Creating Layer relu1a
I0417 04:01:37.770031 17323 net.cpp:434] relu1a <- conv1a
I0417 04:01:37.770045 17323 net.cpp:395] relu1a -> conv1a (in-place)
I0417 04:01:37.770063 17323 net.cpp:150] Setting up relu1a
I0417 04:01:37.770073 17323 net.cpp:157] Top shape: 1 64 768 112 112 (616562688)
I0417 04:01:37.770079 17323 net.cpp:165] Memory required for data: 5279319228
I0417 04:01:37.770086 17323 layer_factory.hpp:77] Creating layer pool1
I0417 04:01:37.770097 17323 net.cpp:100] Creating Layer pool1
I0417 04:01:37.770102 17323 net.cpp:434] pool1 <- conv1a
I0417 04:01:37.770112 17323 net.cpp:408] pool1 -> pool1
I0417 04:01:37.770226 17323 net.cpp:150] Setting up pool1
I0417 04:01:37.770238 17323 net.cpp:157] Top shape: 1 64 768 56 56 (154140672)
I0417 04:01:37.770244 17323 net.cpp:165] Memory required for data: 5895881916
I0417 04:01:37.770249 17323 layer_factory.hpp:77] Creating layer conv2a
I0417 04:01:37.770264 17323 net.cpp:100] Creating Layer conv2a
I0417 04:01:37.770270 17323 net.cpp:434] conv2a <- pool1
I0417 04:01:37.770282 17323 net.cpp:408] conv2a -> conv2a
I0417 04:01:37.781736 17323 net.cpp:150] Setting up conv2a
I0417 04:01:37.781776 17323 net.cpp:157] Top shape: 1 128 768 56 56 (308281344)
I0417 04:01:37.781782 17323 net.cpp:165] Memory required for data: 7129007292
I0417 04:01:37.781800 17323 layer_factory.hpp:77] Creating layer relu2a
I0417 04:01:37.781816 17323 net.cpp:100] Creating Layer relu2a
I0417 04:01:37.781823 17323 net.cpp:434] relu2a <- conv2a
I0417 04:01:37.781833 17323 net.cpp:395] relu2a -> conv2a (in-place)
I0417 04:01:37.781853 17323 net.cpp:150] Setting up relu2a
I0417 04:01:37.781862 17323 net.cpp:157] Top shape: 1 128 768 56 56 (308281344)
I0417 04:01:37.781868 17323 net.cpp:165] Memory required for data: 8362132668
I0417 04:01:37.781874 17323 layer_factory.hpp:77] Creating layer pool2
I0417 04:01:37.781895 17323 net.cpp:100] Creating Layer pool2
I0417 04:01:37.781901 17323 net.cpp:434] pool2 <- conv2a
I0417 04:01:37.781909 17323 net.cpp:408] pool2 -> pool2
I0417 04:01:37.782021 17323 net.cpp:150] Setting up pool2
I0417 04:01:37.782030 17323 net.cpp:157] Top shape: 1 128 384 28 28 (38535168)
I0417 04:01:37.782035 17323 net.cpp:165] Memory required for data: 8516273340
I0417 04:01:37.782042 17323 layer_factory.hpp:77] Creating layer conv3a
I0417 04:01:37.782058 17323 net.cpp:100] Creating Layer conv3a
I0417 04:01:37.782068 17323 net.cpp:434] conv3a <- pool2
I0417 04:01:37.782080 17323 net.cpp:408] conv3a -> conv3a
I0417 04:01:37.808073 17323 net.cpp:150] Setting up conv3a
I0417 04:01:37.808099 17323 net.cpp:157] Top shape: 1 256 384 28 28 (77070336)
I0417 04:01:37.808104 17323 net.cpp:165] Memory required for data: 8824554684
I0417 04:01:37.808122 17323 layer_factory.hpp:77] Creating layer relu3a
I0417 04:01:37.808136 17323 net.cpp:100] Creating Layer relu3a
I0417 04:01:37.808145 17323 net.cpp:434] relu3a <- conv3a
I0417 04:01:37.808156 17323 net.cpp:395] relu3a -> conv3a (in-place)
I0417 04:01:37.808171 17323 net.cpp:150] Setting up relu3a
I0417 04:01:37.808181 17323 net.cpp:157] Top shape: 1 256 384 28 28 (77070336)
I0417 04:01:37.808187 17323 net.cpp:165] Memory required for data: 9132836028
I0417 04:01:37.808192 17323 layer_factory.hpp:77] Creating layer conv3b
I0417 04:01:37.808210 17323 net.cpp:100] Creating Layer conv3b
I0417 04:01:37.808218 17323 net.cpp:434] conv3b <- conv3a
I0417 04:01:37.808228 17323 net.cpp:408] conv3b -> conv3b
I0417 04:01:37.859745 17323 net.cpp:150] Setting up conv3b
I0417 04:01:37.859771 17323 net.cpp:157] Top shape: 1 256 384 28 28 (77070336)
I0417 04:01:37.859776 17323 net.cpp:165] Memory required for data: 9441117372
I0417 04:01:37.859789 17323 layer_factory.hpp:77] Creating layer relu3b
I0417 04:01:37.859804 17323 net.cpp:100] Creating Layer relu3b
I0417 04:01:37.859812 17323 net.cpp:434] relu3b <- conv3b
I0417 04:01:37.859823 17323 net.cpp:395] relu3b -> conv3b (in-place)
I0417 04:01:37.859835 17323 net.cpp:150] Setting up relu3b
I0417 04:01:37.859846 17323 net.cpp:157] Top shape: 1 256 384 28 28 (77070336)
I0417 04:01:37.859851 17323 net.cpp:165] Memory required for data: 9749398716
I0417 04:01:37.859856 17323 layer_factory.hpp:77] Creating layer pool3
I0417 04:01:37.859869 17323 net.cpp:100] Creating Layer pool3
I0417 04:01:37.859875 17323 net.cpp:434] pool3 <- conv3b
I0417 04:01:37.859884 17323 net.cpp:408] pool3 -> pool3
I0417 04:01:37.859951 17323 net.cpp:150] Setting up pool3
I0417 04:01:37.859961 17323 net.cpp:157] Top shape: 1 256 192 14 14 (9633792)
I0417 04:01:37.859966 17323 net.cpp:165] Memory required for data: 9787933884
I0417 04:01:37.859972 17323 layer_factory.hpp:77] Creating layer conv4a
I0417 04:01:37.859989 17323 net.cpp:100] Creating Layer conv4a
I0417 04:01:37.859995 17323 net.cpp:434] conv4a <- pool3
I0417 04:01:37.860008 17323 net.cpp:408] conv4a -> conv4a
I0417 04:01:37.957615 17323 net.cpp:150] Setting up conv4a
I0417 04:01:37.957646 17323 net.cpp:157] Top shape: 1 512 192 14 14 (19267584)
I0417 04:01:37.957653 17323 net.cpp:165] Memory required for data: 9865004220
I0417 04:01:37.957669 17323 layer_factory.hpp:77] Creating layer relu4a
I0417 04:01:37.957682 17323 net.cpp:100] Creating Layer relu4a
I0417 04:01:37.957690 17323 net.cpp:434] relu4a <- conv4a
I0417 04:01:37.957702 17323 net.cpp:395] relu4a -> conv4a (in-place)
I0417 04:01:37.957721 17323 net.cpp:150] Setting up relu4a
I0417 04:01:37.957731 17323 net.cpp:157] Top shape: 1 512 192 14 14 (19267584)
I0417 04:01:37.957736 17323 net.cpp:165] Memory required for data: 9942074556
I0417 04:01:37.957741 17323 layer_factory.hpp:77] Creating layer conv4b
I0417 04:01:37.957762 17323 net.cpp:100] Creating Layer conv4b
I0417 04:01:37.957768 17323 net.cpp:434] conv4b <- conv4a
I0417 04:01:37.957777 17323 net.cpp:408] conv4b -> conv4b
I0417 04:01:38.151121 17323 net.cpp:150] Setting up conv4b
I0417 04:01:38.151159 17323 net.cpp:157] Top shape: 1 512 192 14 14 (19267584)
I0417 04:01:38.151166 17323 net.cpp:165] Memory required for data: 10019144892
I0417 04:01:38.151180 17323 layer_factory.hpp:77] Creating layer relu4b
I0417 04:01:38.151198 17323 net.cpp:100] Creating Layer relu4b
I0417 04:01:38.151208 17323 net.cpp:434] relu4b <- conv4b
I0417 04:01:38.151223 17323 net.cpp:395] relu4b -> conv4b (in-place)
I0417 04:01:38.151234 17323 net.cpp:150] Setting up relu4b
I0417 04:01:38.151242 17323 net.cpp:157] Top shape: 1 512 192 14 14 (19267584)
I0417 04:01:38.151247 17323 net.cpp:165] Memory required for data: 10096215228
I0417 04:01:38.151253 17323 layer_factory.hpp:77] Creating layer pool4
I0417 04:01:38.151264 17323 net.cpp:100] Creating Layer pool4
I0417 04:01:38.151274 17323 net.cpp:434] pool4 <- conv4b
I0417 04:01:38.151286 17323 net.cpp:408] pool4 -> pool4
I0417 04:01:38.151365 17323 net.cpp:150] Setting up pool4
I0417 04:01:38.151378 17323 net.cpp:157] Top shape: 1 512 96 7 7 (2408448)
I0417 04:01:38.151384 17323 net.cpp:165] Memory required for data: 10105849020
I0417 04:01:38.151389 17323 layer_factory.hpp:77] Creating layer conv5a
I0417 04:01:38.151412 17323 net.cpp:100] Creating Layer conv5a
I0417 04:01:38.151418 17323 net.cpp:434] conv5a <- pool4
I0417 04:01:38.151427 17323 net.cpp:408] conv5a -> conv5a
I0417 04:01:38.339968 17323 net.cpp:150] Setting up conv5a
I0417 04:01:38.339998 17323 net.cpp:157] Top shape: 1 512 96 7 7 (2408448)
I0417 04:01:38.340003 17323 net.cpp:165] Memory required for data: 10115482812
I0417 04:01:38.340013 17323 layer_factory.hpp:77] Creating layer relu5a
I0417 04:01:38.340029 17323 net.cpp:100] Creating Layer relu5a
I0417 04:01:38.340039 17323 net.cpp:434] relu5a <- conv5a
I0417 04:01:38.340045 17323 net.cpp:395] relu5a -> conv5a (in-place)
I0417 04:01:38.340054 17323 net.cpp:150] Setting up relu5a
I0417 04:01:38.340059 17323 net.cpp:157] Top shape: 1 512 96 7 7 (2408448)
I0417 04:01:38.340062 17323 net.cpp:165] Memory required for data: 10125116604
I0417 04:01:38.340067 17323 layer_factory.hpp:77] Creating layer conv5b
I0417 04:01:38.340078 17323 net.cpp:100] Creating Layer conv5b
I0417 04:01:38.340082 17323 net.cpp:434] conv5b <- conv5a
I0417 04:01:38.340087 17323 net.cpp:408] conv5b -> conv5b
I0417 04:01:38.526666 17323 net.cpp:150] Setting up conv5b
I0417 04:01:38.526693 17323 net.cpp:157] Top shape: 1 512 96 7 7 (2408448)
I0417 04:01:38.526697 17323 net.cpp:165] Memory required for data: 10134750396
I0417 04:01:38.526706 17323 layer_factory.hpp:77] Creating layer relu5b
I0417 04:01:38.526715 17323 net.cpp:100] Creating Layer relu5b
I0417 04:01:38.526721 17323 net.cpp:434] relu5b <- conv5b
I0417 04:01:38.526727 17323 net.cpp:395] relu5b -> conv5b (in-place)
I0417 04:01:38.526736 17323 net.cpp:150] Setting up relu5b
I0417 04:01:38.526739 17323 net.cpp:157] Top shape: 1 512 96 7 7 (2408448)
I0417 04:01:38.526742 17323 net.cpp:165] Memory required for data: 10144384188
I0417 04:01:38.526746 17323 layer_factory.hpp:77] Creating layer conv5b_relu5b_0_split
I0417 04:01:38.526751 17323 net.cpp:100] Creating Layer conv5b_relu5b_0_split
I0417 04:01:38.526753 17323 net.cpp:434] conv5b_relu5b_0_split <- conv5b
I0417 04:01:38.526758 17323 net.cpp:408] conv5b_relu5b_0_split -> conv5b_relu5b_0_split_0
I0417 04:01:38.526780 17323 net.cpp:408] conv5b_relu5b_0_split -> conv5b_relu5b_0_split_1
I0417 04:01:38.526832 17323 net.cpp:150] Setting up conv5b_relu5b_0_split
I0417 04:01:38.526842 17323 net.cpp:157] Top shape: 1 512 96 7 7 (2408448)
I0417 04:01:38.526849 17323 net.cpp:157] Top shape: 1 512 96 7 7 (2408448)
I0417 04:01:38.526854 17323 net.cpp:165] Memory required for data: 10163651772
I0417 04:01:38.526859 17323 layer_factory.hpp:77] Creating layer rpn_conv/3x3
I0417 04:01:38.526875 17323 net.cpp:100] Creating Layer rpn_conv/3x3
I0417 04:01:38.526882 17323 net.cpp:434] rpn_conv/3x3 <- conv5b_relu5b_0_split_0
I0417 04:01:38.526892 17323 net.cpp:408] rpn_conv/3x3 -> rpn/output
I0417 04:01:38.714103 17323 net.cpp:150] Setting up rpn_conv/3x3
I0417 04:01:38.714126 17323 net.cpp:157] Top shape: 1 512 96 4 4 (786432)
I0417 04:01:38.714130 17323 net.cpp:165] Memory required for data: 10166797500
I0417 04:01:38.714143 17323 layer_factory.hpp:77] Creating layer rpn_relu/3x3
I0417 04:01:38.714154 17323 net.cpp:100] Creating Layer rpn_relu/3x3
I0417 04:01:38.714157 17323 net.cpp:434] rpn_relu/3x3 <- rpn/output
I0417 04:01:38.714164 17323 net.cpp:395] rpn_relu/3x3 -> rpn/output (in-place)
I0417 04:01:38.714171 17323 net.cpp:150] Setting up rpn_relu/3x3
I0417 04:01:38.714176 17323 net.cpp:157] Top shape: 1 512 96 4 4 (786432)
I0417 04:01:38.714179 17323 net.cpp:165] Memory required for data: 10169943228
I0417 04:01:38.714182 17323 layer_factory.hpp:77] Creating layer rpn_conv/3x3_2
I0417 04:01:38.714193 17323 net.cpp:100] Creating Layer rpn_conv/3x3_2
I0417 04:01:38.714201 17323 net.cpp:434] rpn_conv/3x3_2 <- rpn/output
I0417 04:01:38.714210 17323 net.cpp:408] rpn_conv/3x3_2 -> rpn/output_2
I0417 04:01:38.900764 17323 net.cpp:150] Setting up rpn_conv/3x3_2
I0417 04:01:38.900794 17323 net.cpp:157] Top shape: 1 512 96 2 2 (196608)
I0417 04:01:38.900799 17323 net.cpp:165] Memory required for data: 10170729660
I0417 04:01:38.900811 17323 layer_factory.hpp:77] Creating layer rpn_relu/3x3_2
I0417 04:01:38.900825 17323 net.cpp:100] Creating Layer rpn_relu/3x3_2
I0417 04:01:38.900835 17323 net.cpp:434] rpn_relu/3x3_2 <- rpn/output_2
I0417 04:01:38.900844 17323 net.cpp:395] rpn_relu/3x3_2 -> rpn/output_2 (in-place)
I0417 04:01:38.900853 17323 net.cpp:150] Setting up rpn_relu/3x3_2
I0417 04:01:38.900859 17323 net.cpp:157] Top shape: 1 512 96 2 2 (196608)
I0417 04:01:38.900863 17323 net.cpp:165] Memory required for data: 10171516092
I0417 04:01:38.900866 17323 layer_factory.hpp:77] Creating layer rpn/output_pool
I0417 04:01:38.900873 17323 net.cpp:100] Creating Layer rpn/output_pool
I0417 04:01:38.900877 17323 net.cpp:434] rpn/output_pool <- rpn/output_2
I0417 04:01:38.900883 17323 net.cpp:408] rpn/output_pool -> rpn/output_pool
I0417 04:01:38.900933 17323 net.cpp:150] Setting up rpn/output_pool
I0417 04:01:38.900941 17323 net.cpp:157] Top shape: 1 512 96 1 1 (49152)
I0417 04:01:38.900944 17323 net.cpp:165] Memory required for data: 10171712700
I0417 04:01:38.900948 17323 layer_factory.hpp:77] Creating layer rpn/output_pool_rpn/output_pool_0_split
I0417 04:01:38.900952 17323 net.cpp:100] Creating Layer rpn/output_pool_rpn/output_pool_0_split
I0417 04:01:38.900959 17323 net.cpp:434] rpn/output_pool_rpn/output_pool_0_split <- rpn/output_pool
I0417 04:01:38.900962 17323 net.cpp:408] rpn/output_pool_rpn/output_pool_0_split -> rpn/output_pool_rpn/output_pool_0_split_0
I0417 04:01:38.900969 17323 net.cpp:408] rpn/output_pool_rpn/output_pool_0_split -> rpn/output_pool_rpn/output_pool_0_split_1
I0417 04:01:38.901005 17323 net.cpp:150] Setting up rpn/output_pool_rpn/output_pool_0_split
I0417 04:01:38.901013 17323 net.cpp:157] Top shape: 1 512 96 1 1 (49152)
I0417 04:01:38.901017 17323 net.cpp:157] Top shape: 1 512 96 1 1 (49152)
I0417 04:01:38.901021 17323 net.cpp:165] Memory required for data: 10172105916
I0417 04:01:38.901023 17323 layer_factory.hpp:77] Creating layer rpn_cls_score
I0417 04:01:38.901034 17323 net.cpp:100] Creating Layer rpn_cls_score
I0417 04:01:38.901038 17323 net.cpp:434] rpn_cls_score <- rpn/output_pool_rpn/output_pool_0_split_0
I0417 04:01:38.901043 17323 net.cpp:408] rpn_cls_score -> rpn_cls_score
I0417 04:01:38.902302 17323 net.cpp:150] Setting up rpn_cls_score
I0417 04:01:38.902312 17323 net.cpp:157] Top shape: 1 74 96 1 1 (7104)
I0417 04:01:38.902314 17323 net.cpp:165] Memory required for data: 10172134332
I0417 04:01:38.902321 17323 layer_factory.hpp:77] Creating layer rpn_cls_score_rpn_cls_score_0_split
I0417 04:01:38.902326 17323 net.cpp:100] Creating Layer rpn_cls_score_rpn_cls_score_0_split
I0417 04:01:38.902331 17323 net.cpp:434] rpn_cls_score_rpn_cls_score_0_split <- rpn_cls_score
I0417 04:01:38.902335 17323 net.cpp:408] rpn_cls_score_rpn_cls_score_0_split -> rpn_cls_score_rpn_cls_score_0_split_0
I0417 04:01:38.902341 17323 net.cpp:408] rpn_cls_score_rpn_cls_score_0_split -> rpn_cls_score_rpn_cls_score_0_split_1
I0417 04:01:38.902391 17323 net.cpp:150] Setting up rpn_cls_score_rpn_cls_score_0_split
I0417 04:01:38.902397 17323 net.cpp:157] Top shape: 1 74 96 1 1 (7104)
I0417 04:01:38.902401 17323 net.cpp:157] Top shape: 1 74 96 1 1 (7104)
I0417 04:01:38.902405 17323 net.cpp:165] Memory required for data: 10172191164
I0417 04:01:38.902408 17323 layer_factory.hpp:77] Creating layer rpn_twin_pred
I0417 04:01:38.902420 17323 net.cpp:100] Creating Layer rpn_twin_pred
I0417 04:01:38.902426 17323 net.cpp:434] rpn_twin_pred <- rpn/output_pool_rpn/output_pool_0_split_1
I0417 04:01:38.902432 17323 net.cpp:408] rpn_twin_pred -> rpn_twin_pred
I0417 04:01:38.903671 17323 net.cpp:150] Setting up rpn_twin_pred
I0417 04:01:38.903681 17323 net.cpp:157] Top shape: 1 74 96 1 1 (7104)
I0417 04:01:38.903684 17323 net.cpp:165] Memory required for data: 10172219580
I0417 04:01:38.903689 17323 layer_factory.hpp:77] Creating layer rpn_twin_pred_rpn_twin_pred_0_split
I0417 04:01:38.903695 17323 net.cpp:100] Creating Layer rpn_twin_pred_rpn_twin_pred_0_split
I0417 04:01:38.903702 17323 net.cpp:434] rpn_twin_pred_rpn_twin_pred_0_split <- rpn_twin_pred
I0417 04:01:38.903707 17323 net.cpp:408] rpn_twin_pred_rpn_twin_pred_0_split -> rpn_twin_pred_rpn_twin_pred_0_split_0
I0417 04:01:38.903712 17323 net.cpp:408] rpn_twin_pred_rpn_twin_pred_0_split -> rpn_twin_pred_rpn_twin_pred_0_split_1
I0417 04:01:38.903753 17323 net.cpp:150] Setting up rpn_twin_pred_rpn_twin_pred_0_split
I0417 04:01:38.903759 17323 net.cpp:157] Top shape: 1 74 96 1 1 (7104)
I0417 04:01:38.903762 17323 net.cpp:157] Top shape: 1 74 96 1 1 (7104)
I0417 04:01:38.903765 17323 net.cpp:165] Memory required for data: 10172276412
I0417 04:01:38.903769 17323 layer_factory.hpp:77] Creating layer rpn_cls_score_reshape
I0417 04:01:38.903780 17323 net.cpp:100] Creating Layer rpn_cls_score_reshape
I0417 04:01:38.903787 17323 net.cpp:434] rpn_cls_score_reshape <- rpn_cls_score_rpn_cls_score_0_split_0
I0417 04:01:38.903794 17323 net.cpp:408] rpn_cls_score_reshape -> rpn_cls_score_reshape
I0417 04:01:38.903825 17323 net.cpp:150] Setting up rpn_cls_score_reshape
I0417 04:01:38.903832 17323 net.cpp:157] Top shape: 1 2 3552 1 1 (7104)
I0417 04:01:38.903836 17323 net.cpp:165] Memory required for data: 10172304828
I0417 04:01:38.903838 17323 layer_factory.hpp:77] Creating layer rpn_cls_score_reshape_rpn_cls_score_reshape_0_split
I0417 04:01:38.903843 17323 net.cpp:100] Creating Layer rpn_cls_score_reshape_rpn_cls_score_reshape_0_split
I0417 04:01:38.903849 17323 net.cpp:434] rpn_cls_score_reshape_rpn_cls_score_reshape_0_split <- rpn_cls_score_reshape
I0417 04:01:38.903854 17323 net.cpp:408] rpn_cls_score_reshape_rpn_cls_score_reshape_0_split -> rpn_cls_score_reshape_rpn_cls_score_reshape_0_split_0
I0417 04:01:38.903863 17323 net.cpp:408] rpn_cls_score_reshape_rpn_cls_score_reshape_0_split -> rpn_cls_score_reshape_rpn_cls_score_reshape_0_split_1
I0417 04:01:38.903870 17323 net.cpp:408] rpn_cls_score_reshape_rpn_cls_score_reshape_0_split -> rpn_cls_score_reshape_rpn_cls_score_reshape_0_split_2
I0417 04:01:38.903923 17323 net.cpp:150] Setting up rpn_cls_score_reshape_rpn_cls_score_reshape_0_split
I0417 04:01:38.903930 17323 net.cpp:157] Top shape: 1 2 3552 1 1 (7104)
I0417 04:01:38.903934 17323 net.cpp:157] Top shape: 1 2 3552 1 1 (7104)
I0417 04:01:38.903939 17323 net.cpp:157] Top shape: 1 2 3552 1 1 (7104)
I0417 04:01:38.903942 17323 net.cpp:165] Memory required for data: 10172390076
I0417 04:01:38.903946 17323 layer_factory.hpp:77] Creating layer rpn-data
I0417 04:01:38.904342 17323 net.cpp:100] Creating Layer rpn-data
I0417 04:01:38.904355 17323 net.cpp:434] rpn-data <- rpn_cls_score_rpn_cls_score_0_split_1
I0417 04:01:38.904359 17323 net.cpp:434] rpn-data <- gt_boxes_data_1_split_0
I0417 04:01:38.904364 17323 net.cpp:434] rpn-data <- data_data_0_split_1
I0417 04:01:38.904371 17323 net.cpp:408] rpn-data -> rpn_labels
I0417 04:01:38.904377 17323 net.cpp:408] rpn-data -> rpn_twin_targets
I0417 04:01:38.904382 17323 net.cpp:408] rpn-data -> rpn_twin_inside_weights
I0417 04:01:38.904388 17323 net.cpp:408] rpn-data -> rpn_twin_outside_weights
I0417 04:01:38.906661 17323 net.cpp:150] Setting up rpn-data
I0417 04:01:38.906677 17323 net.cpp:157] Top shape: 1 1 3552 1 1 (3552)
I0417 04:01:38.906682 17323 net.cpp:157] Top shape: 1 74 96 1 1 (7104)
I0417 04:01:38.906685 17323 net.cpp:157] Top shape: 1 74 96 1 1 (7104)
I0417 04:01:38.906689 17323 net.cpp:157] Top shape: 1 74 96 1 1 (7104)
I0417 04:01:38.906692 17323 net.cpp:165] Memory required for data: 10172489532
I0417 04:01:38.906697 17323 layer_factory.hpp:77] Creating layer rpn_labels_rpn-data_0_split
I0417 04:01:38.906702 17323 net.cpp:100] Creating Layer rpn_labels_rpn-data_0_split
I0417 04:01:38.906705 17323 net.cpp:434] rpn_labels_rpn-data_0_split <- rpn_labels
I0417 04:01:38.906711 17323 net.cpp:408] rpn_labels_rpn-data_0_split -> rpn_labels_rpn-data_0_split_0
I0417 04:01:38.906718 17323 net.cpp:408] rpn_labels_rpn-data_0_split -> rpn_labels_rpn-data_0_split_1
I0417 04:01:38.906756 17323 net.cpp:150] Setting up rpn_labels_rpn-data_0_split
I0417 04:01:38.906780 17323 net.cpp:157] Top shape: 1 1 3552 1 1 (3552)
I0417 04:01:38.906785 17323 net.cpp:157] Top shape: 1 1 3552 1 1 (3552)
I0417 04:01:38.906787 17323 net.cpp:165] Memory required for data: 10172517948
I0417 04:01:38.906790 17323 layer_factory.hpp:77] Creating layer rpn_loss_cls
I0417 04:01:38.906800 17323 net.cpp:100] Creating Layer rpn_loss_cls
I0417 04:01:38.906805 17323 net.cpp:434] rpn_loss_cls <- rpn_cls_score_reshape_rpn_cls_score_reshape_0_split_0
I0417 04:01:38.906810 17323 net.cpp:434] rpn_loss_cls <- rpn_labels_rpn-data_0_split_0
…
I0417 04:01:38.907152 17323 layer_factory.hpp:77] Creating layer rpn_accuarcy
I0417 04:01:38.907169 17323 net.cpp:100] Creating Layer rpn_accuarcy
I0417 04:01:38.907174 17323 net.cpp:434] rpn_accuarcy <- rpn_cls_score_reshape_rpn_cls_score_reshape_0_split_1
I0417 04:01:38.907178 17323 net.cpp:434] rpn_accuarcy <- rpn_labels_rpn-data_0_split_1
I0417 04:01:38.907183 17323 net.cpp:408] rpn_accuarcy -> rpn_accuarcy
I0417 04:01:38.907189 17323 net.cpp:408] rpn_accuarcy -> rpn_accuarcy_class
I0417 04:01:38.907236 17323 net.cpp:150] Setting up rpn_accuarcy
I0417 04:01:38.907244 17323 net.cpp:157] Top shape: (1)
I0417 04:01:38.907248 17323 net.cpp:157] Top shape: 2 (2)
I0417 04:01:38.907251 17323 net.cpp:165] Memory required for data: 10172517968
I0417 04:01:38.907255 17323 layer_factory.hpp:77] Creating layer rpn_cls_prob
I0417 04:01:38.907260 17323 net.cpp:100] Creating Layer rpn_cls_prob
I0417 04:01:38.907263 17323 net.cpp:434] rpn_cls_prob <- rpn_cls_score_reshape_rpn_cls_score_reshape_0_split_2
I0417 04:01:38.907269 17323 net.cpp:408] rpn_cls_prob -> rpn_cls_prob
I0417 04:01:38.907335 17323 net.cpp:150] Setting up rpn_cls_prob
I0417 04:01:38.907346 17323 net.cpp:157] Top shape: 1 2 3552 1 1 (7104)
I0417 04:01:38.907348 17323 net.cpp:165] Memory required for data: 10172546384
I0417 04:01:38.907352 17323 layer_factory.hpp:77] Creating layer rpn_cls_prob_reshape
I0417 04:01:38.907359 17323 net.cpp:100] Creating Layer rpn_cls_prob_reshape
I0417 04:01:38.907362 17323 net.cpp:434] rpn_cls_prob_reshape <- rpn_cls_prob
I0417 04:01:38.907368 17323 net.cpp:408] rpn_cls_prob_reshape -> rpn_cls_prob_reshape
I0417 04:01:38.907397 17323 net.cpp:150] Setting up rpn_cls_prob_reshape
I0417 04:01:38.907403 17323 net.cpp:157] Top shape: 1 74 96 1 1 (7104)
I0417 04:01:38.907407 17323 net.cpp:165] Memory required for data: 10172574800
I0417 04:01:38.907409 17323 layer_factory.hpp:77] Creating layer proposal
I0417 04:01:38.907985 17323 net.cpp:100] Creating Layer proposal
I0417 04:01:38.907999 17323 net.cpp:434] proposal <- rpn_cls_prob_reshape
I0417 04:01:38.908004 17323 net.cpp:434] proposal <- rpn_twin_pred_rpn_twin_pred_0_split_1
I0417 04:01:38.908010 17323 net.cpp:408] proposal -> rpn_rois
I0417 04:01:38.910218 17323 net.cpp:150] Setting up proposal
I0417 04:01:38.910233 17323 net.cpp:157] Top shape: 1 3 (3)
I0417 04:01:38.910236 17323 net.cpp:165] Memory required for data: 10172574812
I0417 04:01:38.910240 17323 layer_factory.hpp:77] Creating layer roi-data
I0417 04:01:38.910385 17323 net.cpp:100] Creating Layer roi-data
I0417 04:01:38.910396 17323 net.cpp:434] roi-data <- rpn_rois
I0417 04:01:38.910401 17323 net.cpp:434] roi-data <- gt_boxes_data_1_split_1
I0417 04:01:38.910408 17323 net.cpp:408] roi-data -> rois
I0417 04:01:38.910414 17323 net.cpp:408] roi-data -> labels
I0417 04:01:38.910420 17323 net.cpp:408] roi-data -> twin_targets
I0417 04:01:38.910425 17323 net.cpp:408] roi-data -> twin_inside_weights
I0417 04:01:38.910431 17323 net.cpp:408] roi-data -> twin_outside_weights
I0417 04:01:38.910755 17323 net.cpp:150] Setting up roi-data
I0417 04:01:38.910782 17323 net.cpp:157] Top shape: 1 3 (3)
I0417 04:01:38.910787 17323 net.cpp:157] Top shape: 1 1 (1)
I0417 04:01:38.910790 17323 net.cpp:157] Top shape: 1 402 (402)
I0417 04:01:38.910794 17323 net.cpp:157] Top shape: 1 402 (402)
I0417 04:01:38.910799 17323 net.cpp:157] Top shape: 1 402 (402)
I0417 04:01:38.910801 17323 net.cpp:165] Memory required for data: 10172579652
I0417 04:01:38.910805 17323 layer_factory.hpp:77] Creating layer labels_roi-data_1_split
I0417 04:01:38.910811 17323 net.cpp:100] Creating Layer labels_roi-data_1_split
I0417 04:01:38.910815 17323 net.cpp:434] labels_roi-data_1_split <- labels
I0417 04:01:38.910820 17323 net.cpp:408] labels_roi-data_1_split -> labels_roi-data_1_split_0
I0417 04:01:38.910828 17323 net.cpp:408] labels_roi-data_1_split -> labels_roi-data_1_split_1
I0417 04:01:38.910868 17323 net.cpp:150] Setting up labels_roi-data_1_split
I0417 04:01:38.910876 17323 net.cpp:157] Top shape: 1 1 (1)
I0417 04:01:38.910881 17323 net.cpp:157] Top shape: 1 1 (1)
I0417 04:01:38.910883 17323 net.cpp:165] Memory required for data: 10172579660
I0417 04:01:38.910887 17323 layer_factory.hpp:77] Creating layer roi_pool5
I0417 04:01:38.910895 17323 net.cpp:100] Creating Layer roi_pool5
I0417 04:01:38.910900 17323 net.cpp:434] roi_pool5 <- conv5b_relu5b_0_split_1
I0417 04:01:38.910907 17323 net.cpp:434] roi_pool5 <- rois
I0417 04:01:38.910912 17323 net.cpp:408] roi_pool5 -> pool5
I0417 04:01:38.910918 17323 roi_pooling_layer.cpp:34] Temporal scale: 0.125
I0417 04:01:38.910924 17323 roi_pooling_layer.cpp:35] Spatial scale: 0.0625
I0417 04:01:38.910965 17323 net.cpp:150] Setting up roi_pool5
I0417 04:01:38.910972 17323 net.cpp:157] Top shape: 1 512 1 4 4 (8192)
I0417 04:01:38.910976 17323 net.cpp:165] Memory required for data: 10172612428
I0417 04:01:38.910979 17323 layer_factory.hpp:77] Creating layer fc6
I0417 04:01:38.910989 17323 net.cpp:100] Creating Layer fc6
I0417 04:01:38.910992 17323 net.cpp:434] fc6 <- pool5
I0417 04:01:38.910998 17323 net.cpp:408] fc6 -> fc6
I0417 04:01:39.798573 17323 net.cpp:150] Setting up fc6
I0417 04:01:39.798599 17323 net.cpp:157] Top shape: 1 4096 (4096)
I0417 04:01:39.798604 17323 net.cpp:165] Memory required for data: 10172628812
I0417 04:01:39.798614 17323 layer_factory.hpp:77] Creating layer relu6
I0417 04:01:39.798622 17323 net.cpp:100] Creating Layer relu6
I0417 04:01:39.798627 17323 net.cpp:434] relu6 <- fc6
I0417 04:01:39.798633 17323 net.cpp:395] relu6 -> fc6 (in-place)
I0417 04:01:39.798641 17323 net.cpp:150] Setting up relu6
I0417 04:01:39.798645 17323 net.cpp:157] Top shape: 1 4096 (4096)
I0417 04:01:39.798648 17323 net.cpp:165] Memory required for data: 10172645196
I0417 04:01:39.798651 17323 layer_factory.hpp:77] Creating layer drop6
I0417 04:01:39.798665 17323 net.cpp:100] Creating Layer drop6
I0417 04:01:39.798669 17323 net.cpp:434] drop6 <- fc6
I0417 04:01:39.798674 17323 net.cpp:395] drop6 -> fc6 (in-place)
I0417 04:01:39.798707 17323 net.cpp:150] Setting up drop6
I0417 04:01:39.798712 17323 net.cpp:157] Top shape: 1 4096 (4096)
I0417 04:01:39.798717 17323 net.cpp:165] Memory required for data: 10172661580
I0417 04:01:39.798719 17323 layer_factory.hpp:77] Creating layer fc6_drop6_0_split
I0417 04:01:39.798725 17323 net.cpp:100] Creating Layer fc6_drop6_0_split
I0417 04:01:39.798729 17323 net.cpp:434] fc6_drop6_0_split <- fc6
I0417 04:01:39.798734 17323 net.cpp:408] fc6_drop6_0_split -> fc6_drop6_0_split_0
I0417 04:01:39.798740 17323 net.cpp:408] fc6_drop6_0_split -> fc6_drop6_0_split_1
I0417 04:01:39.798807 17323 net.cpp:150] Setting up fc6_drop6_0_split
I0417 04:01:39.798817 17323 net.cpp:157] Top shape: 1 4096 (4096)
I0417 04:01:39.798823 17323 net.cpp:157] Top shape: 1 4096 (4096)
I0417 04:01:39.798828 17323 net.cpp:165] Memory required for data: 10172694348
I0417 04:01:39.798835 17323 layer_factory.hpp:77] Creating layer cls_score
I0417 04:01:39.798847 17323 net.cpp:100] Creating Layer cls_score
I0417 04:01:39.798856 17323 net.cpp:434] cls_score <- fc6_drop6_0_split_0
I0417 04:01:39.798866 17323 net.cpp:408] cls_score -> cls_score
I0417 04:01:39.820938 17323 net.cpp:150] Setting up cls_score
I0417 04:01:39.820961 17323 net.cpp:157] Top shape: 1 201 (201)
I0417 04:01:39.820966 17323 net.cpp:165] Memory required for data: 10172695152
I0417 04:01:39.820976 17323 layer_factory.hpp:77] Creating layer cls_score_cls_score_0_split
I0417 04:01:39.820983 17323 net.cpp:100] Creating Layer cls_score_cls_score_0_split
I0417 04:01:39.820988 17323 net.cpp:434] cls_score_cls_score_0_split <- cls_score
I0417 04:01:39.820996 17323 net.cpp:408] cls_score_cls_score_0_split -> cls_score_cls_score_0_split_0
I0417 04:01:39.821002 17323 net.cpp:408] cls_score_cls_score_0_split -> cls_score_cls_score_0_split_1
I0417 04:01:39.821053 17323 net.cpp:150] Setting up cls_score_cls_score_0_split
I0417 04:01:39.821060 17323 net.cpp:157] Top shape: 1 201 (201)
I0417 04:01:39.821064 17323 net.cpp:157] Top shape: 1 201 (201)
I0417 04:01:39.821068 17323 net.cpp:165] Memory required for data: 10172696760
I0417 04:01:39.821071 17323 layer_factory.hpp:77] Creating layer twin_pred
I0417 04:01:39.821079 17323 net.cpp:100] Creating Layer twin_pred
I0417 04:01:39.821084 17323 net.cpp:434] twin_pred <- fc6_drop6_0_split_1
I0417 04:01:39.821091 17323 net.cpp:408] twin_pred -> twin_pred
I0417 04:01:39.867743 17323 net.cpp:150] Setting up twin_pred
I0417 04:01:39.867768 17323 net.cpp:157] Top shape: 1 402 (402)
I0417 04:01:39.867771 17323 net.cpp:165] Memory required for data: 10172698368
I0417 04:01:39.867780 17323 layer_factory.hpp:77] Creating layer loss_cls
I0417 04:01:39.867790 17323 net.cpp:100] Creating Layer loss_cls
I0417 04:01:39.867796 17323 net.cpp:434] loss_cls <- cls_score_cls_score_0_split_0
I0417 04:01:39.867802 17323 net.cpp:434] loss_cls <- labels_roi-data_1_split_0
I0417 04:01:39.867807 17323 net.cpp:408] loss_cls -> loss_cls
…
