…
stepsize: 350000
snapshot: 0
snapshot_prefix: "./experiments/activitynet/snapshot/activitynet"
average_loss: 100
iter_size: 1
I0418 04:41:43.350073 17853 solver.cpp:81] Creating training net from train_net file: ./experiments/activitynet/train.prototxt
I0418 04:41:43.351169 17853 net.cpp:58] Initializing net from parameters: 
name: "activitynet"
state {
  phase: TRAIN
}
layer {
  name: "data"
  type: "Python"
  top: "data"
  top: "gt_boxes"
  python_param {
    module: "roi_data_layer.layer"
    layer: "RoIDataLayer"
    param_str: "\'num_classes\': 100"
  }
}
layer {
  name: "conv1a"
  type: "Convolution"
  bottom: "data"
  top: "conv1a"
  param {
    lr_mult: 0
    decay_mult: 0
  }
  param {
    lr_mult: 0
    decay_mult: 0
  }
  convolution_param {
    num_output: 64
    pad: 1
    pad: 1
    pad: 1
    kernel_size: 3
    kernel_size: 3
    kernel_size: 3
    weight_filler {
      type: "gaussian"
      std: 0.01
    }
    bias_filler {
      type: "constant"
      value: 0
    }
  }
}
layer {
  name: "relu1a"
  type: "ReLU"
  bottom: "conv1a"
  top: "conv1a"
}
layer {
  name: "pool1"
  type: "Pooling"
  bottom: "conv1a"
  top: "pool1"
  pooling_param {
    pool: MAX
    kernel_size: 1
    kernel_size: 2
    kernel_size: 2
    stride: 1
    stride: 2
    stride: 2
  }
}
layer {
  name: "conv2a"
  type: "Convolution"
  bottom: "pool1"
  top: "conv2a"
  param {
    lr_mult: 0
    decay_mult: 0
  }
  param {
    lr_mult: 0
    decay_mult: 0
  }
  convolution_param {
    num_output: 128
    pad: 1
    pad: 1
    pad: 1
    kernel_size: 3
    kernel_size: 3
    kernel_size: 3
    weight_filler {
      type: "gaussian"
      std: 0.01
    }
    bias_filler {
      type: "constant"
      value: 1
    }
  }
}
layer {
  name: "relu2a"
  type: "ReLU"
  bottom: "conv2a"
  top: "conv2a"
}
layer {
  name: "pool2"
  type: "Pooling"
  bottom: "conv2a"
  top: "pool2"
  pooling_param {
    pool: MAX
    kernel_size: 2
    kernel_size: 2
    kernel_size: 2
    stride: 2
    stride: 2
    stride: 2
  }
}
layer {
  name: "conv3a"
  type: "Convolution"
  bottom: "pool2"
  top: "conv3a"
  param {
    lr_mult: 1
    decay_mult: 1
  }
  param {
    lr_mult: 2
    decay_mult: 0
  }
  convolution_param {
    num_output: 256
    pad: 1
    pad: 1
    pad: 1
    kernel_size: 3
    kernel_size: 3
    kernel_size: 3
    weight_filler {
      type: "gaussian"
      std: 0.01
    }
    bias_filler {
      type: "constant"
      value: 1
    }
  }
}
layer {
  name: "relu3a"
  type: "ReLU"
  bottom: "conv3a"
  top: "conv3a"
}
layer {
  name: "conv3b"
  type: "Convolution"
  bottom: "conv3a"
  top: "conv3b"
  param {
    lr_mult: 1
    decay_mult: 1
  }
  param {
    lr_mult: 2
    decay_mult: 0
  }
  convolution_param {
    num_output: 256
    pad: 1
    pad: 1
    pad: 1
    kernel_size: 3
    kernel_size: 3
    kernel_size: 3
    weight_filler {
      type: "gaussian"
      std: 0.01
    }
    bias_filler {
      type: "constant"
      value: 1
    }
  }
}
layer {
  name: "relu3b"
  type: "ReLU"
  bottom: "conv3b"
  top: "conv3b"
}
layer {
  name: "pool3"
  type: "Pooling"
  bottom: "conv3b"
  top: "pool3"
  pooling_param {
    pool: MAX
    kernel_size: 2
    kernel_size: 2
    kernel_size: 2
    stride: 2
    stride: 2
    stride: 2
  }
}
layer {
  name: "conv4a"
  type: "Convolution"
  bottom: "pool3"
  top: "conv4a"
  param {
    lr_mult: 1
    decay_mult: 1
  }
  param {
    lr_mult: 2
    decay_mult: 0
  }
  convolution_param {
    num_output: 512
    pad: 1
    pad: 1
    pad: 1
    kernel_size: 3
    kernel_size: 3
    kernel_size: 3
    weight_filler {
      type: "gaussian"
      std: 0.01
    }
    bias_filler {
      type: "constant"
      value: 1
    }
  }
}
layer {
  name: "relu4a"
  type: "ReLU"
  bottom: "conv4a"
  top: "conv4a"
}
layer {
  name: "conv4b"
  type: "Convolution"
  bottom: "conv4a"
  top: "conv4b"
  param {
    lr_mult: 1
    decay_mult: 1
  }
  param {
    lr_mult: 2
    decay_mult: 0
  }
  convolution_param {
    num_output: 512
    pad: 1
    pad: 1
    pad: 1
    kernel_size: 3
    kernel_size: 3
    kernel_size: 3
    weight_filler {
      type: "gaussian"
      std: 0.01
    }
    bias_filler {
      type: "constant"
      value: 1
    }
  }
}
layer {
  name: "relu4b"
  type: "ReLU"
  bottom: "conv4b"
  top: "conv4b"
}
layer {
  name: "pool4"
  type: "Pooling"
  bottom: "conv4b"
  top: "pool4"
  pooling_param {
    pool: MAX
    kernel_size: 2
    kernel_size: 2
    kernel_size: 2
    stride: 2
    stride: 2
    stride: 2
  }
}
layer {
  name: "conv5a"
  type: "Convolution"
  bottom: "pool4"
  top: "conv5a"
  param {
    lr_mult: 1
    decay_mult: 1
  }
  param {
    lr_mult: 2
    decay_mult: 0
  }
  convolution_param {
    num_output: 512
    pad: 1
    pad: 1
    pad: 1
    kernel_size: 3
    kernel_size: 3
    kernel_size: 3
    weight_filler {
      type: "gaussian"
      std: 0.01
    }
    bias_filler {
      type: "constant"
      value: 1
    }
  }
}
layer {
  name: "relu5a"
  type: "ReLU"
  bottom: "conv5a"
  top: "conv5a"
}
layer {
  name: "conv5b"
  type: "Convolution"
  bottom: "conv5a"
  top: "conv5b"
  param {
    lr_mult: 1
    decay_mult: 1
  }
  param {
    lr_mult: 2
    decay_mult: 0
  }
  convolution_param {
    num_output: 512
    pad: 1
    pad: 1
    pad: 1
    kernel_size: 3
    kernel_size: 3
    kernel_size: 3
    weight_filler {
      type: "gaussian"
      std: 0.01
    }
    bias_filler {
      type: "constant"
      value: 1
    }
  }
}
layer {
  name: "relu5b"
  type: "ReLU"
  bottom: "conv5b"
  top: "conv5b"
}
layer {
  name: "rpn_conv/3x3"
  type: "Convolution"
  bottom: "conv5b"
  top: "rpn/output"
  param {
    lr_mult: 1
    decay_mult: 1
  }
  param {
    lr_mult: 2
    decay_mult: 0
  }
  convolution_param {
    num_output: 512
    pad: 1
    pad: 1
    pad: 1
    kernel_size: 3
    kernel_size: 3
    kernel_size: 3
    stride: 1
    stride: 2
    stride: 2
    weight_filler {
      type: "gaussian"
      std: 0.01
    }
    bias_filler {
      type: "constant"
      value: 0
    }
  }
}
layer {
  name: "rpn_relu/3x3"
  type: "ReLU"
  bottom: "rpn/output"
  top: "rpn/output"
}
layer {
  name: "rpn_conv/3x3_2"
  type: "Convolution"
  bottom: "rpn/output"
  top: "rpn/output_2"
  param {
    lr_mult: 1
    decay_mult: 1
  }
  param {
    lr_mult: 2
    decay_mult: 0
  }
  convolution_param {
    num_output: 512
    pad: 1
    pad: 1
    pad: 1
    kernel_size: 3
    kernel_size: 3
    kernel_size: 3
    stride: 1
    stride: 2
    stride: 2
    weight_filler {
      type: "gaussian"
      std: 0.01
    }
    bias_filler {
      type: "constant"
      value: 0
    }
  }
}
layer {
  name: "rpn_relu/3x3_2"
  type: "ReLU"
  bottom: "rpn/output_2"
  top: "rpn/output_2"
}
layer {
  name: "rpn/output_pool"
  type: "Pooling"
  bottom: "rpn/output_2"
  top: "rpn/output_pool"
  pooling_param {
    pool: MAX
    kernel_size: 1
    kernel_size: 2
    kernel_size: 2
  }
}
layer {
  name: "rpn_cls_score"
  type: "Convolution"
  bottom: "rpn/output_pool"
  top: "rpn_cls_score"
  param {
    lr_mult: 1
    decay_mult: 1
  }
  param {
    lr_mult: 2
    decay_mult: 0
  }
  convolution_param {
    num_output: 74
    kernel_size: 1
    kernel_size: 1
    kernel_size: 1
    weight_filler {
      type: "gaussian"
      std: 0.01
    }
    bias_filler {
      type: "constant"
      value: 0
    }
  }
}
layer {
  name: "rpn_twin_pred"
  type: "Convolution"
  bottom: "rpn/output_pool"
  top: "rpn_twin_pred"
  param {
    lr_mult: 1
    decay_mult: 1
  }
  param {
    lr_mult: 2
    decay_mult: 0
  }
  convolution_param {
    num_output: 74
    kernel_size: 1
    kernel_size: 1
    kernel_size: 1
    weight_filler {
      type: "gaussian"
      std: 0.01
    }
    bias_filler {
      type: "constant"
      value: 0
    }
  }
}
layer {
  name: "rpn_cls_score_reshape"
  type: "Reshape"
  bottom: "rpn_cls_score"
  top: "rpn_cls_score_reshape"
  reshape_param {
    shape {
      dim: 0
      dim: 2
      dim: -1
      dim: 0
      dim: 0
    }
  }
}
layer {
  name: "rpn-data"
  type: "Python"
  bottom: "rpn_cls_score"
  bottom: "gt_boxes"
  bottom: "data"
  top: "rpn_labels"
  top: "rpn_twin_targets"
  top: "rpn_twin_inside_weights"
  top: "rpn_twin_outside_weights"
  python_param {
    module: "rpn.anchor_target_layer"
    layer: "AnchorTargetLayer"
    param_str: "\'feat_stride\': 8 \n\'scales\': !!python/tuple [1,1.25, 1.5,1.75, 2,2.5, 3,3.5, 4,4.5, 5,5.5, 6,7, 8,9,10,11,12,14,16,18,20,22,24,28,32,36,40,44,52,60,68,76,84,92,100]"
  }
}
layer {
  name: "rpn_loss_cls"
  type: "SoftmaxWithLoss"
  bottom: "rpn_cls_score_reshape"
  bottom: "rpn_labels"
  top: "rpn_cls_loss"
  loss_weight: 1
  propagate_down: true
  propagate_down: false
  loss_param {
    ignore_label: -1
    normalize: true
  }
}
layer {
  name: "rpn_loss_twin"
  type: "SmoothL1Loss"
  bottom: "rpn_twin_pred"
  bottom: "rpn_twin_targets"
  bottom: "rpn_twin_inside_weights"
  bottom: "rpn_twin_outside_weights"
  top: "rpn_loss_twin"
  loss_weight: 1
  smooth_l1_loss_param {
    sigma: 3
  }
}
layer {
  name: "rpn_accuarcy"
  type: "Accuracy"
  bottom: "rpn_cls_score_reshape"
  bottom: "rpn_labels"
  top: "rpn_accuarcy"
  top: "rpn_accuarcy_class"
  propagate_down: false
  propagate_down: false
  accuracy_param {
    ignore_label: -1
  }
}
layer {
  name: "rpn_cls_prob"
  type: "Softmax"
  bottom: "rpn_cls_score_reshape"
  top: "rpn_cls_prob"
}
layer {
  name: "rpn_cls_prob_reshape"
  type: "Reshape"
  bottom: "rpn_cls_prob"
  top: "rpn_cls_prob_reshape"
  reshape_param {
    shape {
      dim: 0
      dim: 74
      dim: -1
      dim: 0
      dim: 0
    }
  }
}
layer {
  name: "proposal"
  type: "Python"
  bottom: "rpn_cls_prob_reshape"
  bottom: "rpn_twin_pred"
  top: "rpn_rois"
  include {
    phase: TRAIN
  }
  python_param {
    module: "rpn.proposal_layer"
    layer: "ProposalLayer"
    param_str: "\'feat_stride\': 8 \n\'scales\': !!python/tuple [1,1.25, 1.5,1.75, 2,2.5, 3,3.5, 4,4.5, 5,5.5, 6,7, 8,9,10,11,12,14,16,18,20,22,24,28,32,36,40,44,52,60,68,76,84,92,100]"
  }
}
layer {
  name: "roi-data"
  type: "Python"
  bottom: "rpn_rois"
  bottom: "gt_boxes"
  top: "rois"
  top: "labels"
  top: "twin_targets"
  top: "twin_inside_weights"
  top: "twin_outside_weights"
  python_param {
    module: "rpn.proposal_target_layer"
    layer: "ProposalTargetLayer"
    param_str: "\'num_classes\': 99"
  }
}
layer {
  name: "roi_pool5"
  type: "ROIPooling"
  bottom: "conv5b"
  bottom: "rois"
  top: "pool5"
  roi_pooling_param {
    pooled_h: 4
    pooled_w: 4
    spatial_scale: 0.0625
    pooled_l: 1
    temporal_scale: 0.125
  }
}
layer {
  name: "fc6"
  type: "InnerProduct"
  bottom: "pool5"
  top: "fc6"
  param {
    lr_mult: 1
    decay_mult: 1
  }
  param {
    lr_mult: 2
    decay_mult: 0
  }
  inner_product_param {
    num_output: 4096
    weight_filler {
      type: "gaussian"
      std: 0.005
    }
    bias_filler {
      type: "constant"
      value: 1
    }
  }
}
layer {
  name: "relu6"
  type: "ReLU"
  bottom: "fc6"
  top: "fc6"
}
layer {
  name: "drop6"
  type: "Dropout"
  bottom: "fc6"
  top: "fc6"
  dropout_param {
    dropout_ratio: 0.5
  }
}
layer {
  name: "cls_score"
  type: "InnerProduct"
  bottom: "fc6"
  top: "cls_score"
  param {
    lr_mult: 1
    decay_mult: 1
  }
  param {
    lr_mult: 2
    decay_mult: 0
  }
  inner_product_param {
    num_output: 99
    weight_filler {
      type: "gaussian"
      std: 0.01
    }
    bias_filler {
      type: "constant"
      value: 0
    }
  }
}
layer {
  name: "twin_pred"
  type: "InnerProduct"
  bottom: "fc6"
  top: "twin_pred"
  param {
    lr_mult: 1
    decay_mult: 1
  }
  param {
    lr_mult: 2
    decay_mult: 0
  }
  inner_product_param {
    num_output: 198
    weight_filler {
      type: "gaussian"
      std: 0.001
    }
    bias_filler {
      type: "constant"
      value: 0
    }
  }
}
layer {
  name: "loss_cls"
  type: "SigmoidCrossEntropyLoss"
  bottom: "cls_score"
  bottom: "labels"
  top: "loss_cls"
  loss_weight: 1
  propagate_down: true
  propagate_down: false
}
layer {
  name: "loss_twin"
  type: "SmoothL1Loss"
  bottom: "twin_pred"
  bottom: "twin_targets"
  bottom: "twin_inside_weights"
  bottom: "twin_outside_weights"
  top: "loss_twin"
  loss_weight: 1
}
layer {
  name: "accuarcy"
  type: "Accuracy"
  bottom: "cls_score"
  bottom: "labels"
  top: "accuarcy"
  propagate_down: false
  propagate_down: false
  accuracy_param {
    ignore_label: -1
  }
}
I0418 04:41:43.351389 17853 layer_factory.hpp:77] Creating layer data
I0418 04:41:43.376276 17853 net.cpp:100] Creating Layer data
I0418 04:41:43.376297 17853 net.cpp:408] data -> data
I0418 04:41:43.376312 17853 net.cpp:408] data -> gt_boxes
setting up
has rpn
RoiDataLayer: name_to_top: {'gt_windows': 1, 'data': 0}
I0418 04:41:43.389375 17853 net.cpp:150] Setting up data
I0418 04:41:43.389396 17853 net.cpp:157] Top shape: 1 3 768 112 112 (28901376)
I0418 04:41:43.389402 17853 net.cpp:157] Top shape: 1 101 (101)
I0418 04:41:43.389406 17853 net.cpp:165] Memory required for data: 115605908
I0418 04:41:43.389412 17853 layer_factory.hpp:77] Creating layer data_data_0_split
I0418 04:41:43.389425 17853 net.cpp:100] Creating Layer data_data_0_split
I0418 04:41:43.389430 17853 net.cpp:434] data_data_0_split <- data
I0418 04:41:43.389437 17853 net.cpp:408] data_data_0_split -> data_data_0_split_0
I0418 04:41:43.389446 17853 net.cpp:408] data_data_0_split -> data_data_0_split_1
I0418 04:41:43.389477 17853 net.cpp:150] Setting up data_data_0_split
I0418 04:41:43.389484 17853 net.cpp:157] Top shape: 1 3 768 112 112 (28901376)
I0418 04:41:43.389488 17853 net.cpp:157] Top shape: 1 3 768 112 112 (28901376)
I0418 04:41:43.389492 17853 net.cpp:165] Memory required for data: 346816916
I0418 04:41:43.389495 17853 layer_factory.hpp:77] Creating layer gt_boxes_data_1_split
I0418 04:41:43.389503 17853 net.cpp:100] Creating Layer gt_boxes_data_1_split
I0418 04:41:43.389506 17853 net.cpp:434] gt_boxes_data_1_split <- gt_boxes
I0418 04:41:43.389510 17853 net.cpp:408] gt_boxes_data_1_split -> gt_boxes_data_1_split_0
I0418 04:41:43.389515 17853 net.cpp:408] gt_boxes_data_1_split -> gt_boxes_data_1_split_1
I0418 04:41:43.389540 17853 net.cpp:150] Setting up gt_boxes_data_1_split
I0418 04:41:43.389547 17853 net.cpp:157] Top shape: 1 101 (101)
I0418 04:41:43.389551 17853 net.cpp:157] Top shape: 1 101 (101)
I0418 04:41:43.389554 17853 net.cpp:165] Memory required for data: 346817724
I0418 04:41:43.389557 17853 layer_factory.hpp:77] Creating layer conv1a
I0418 04:41:43.389572 17853 net.cpp:100] Creating Layer conv1a
I0418 04:41:43.389575 17853 net.cpp:434] conv1a <- data_data_0_split_0
I0418 04:41:43.389582 17853 net.cpp:408] conv1a -> conv1a
I0418 04:41:43.572798 17853 net.cpp:150] Setting up conv1a
I0418 04:41:43.572825 17853 net.cpp:157] Top shape: 1 64 768 112 112 (616562688)
I0418 04:41:43.572829 17853 net.cpp:165] Memory required for data: 2813068476
I0418 04:41:43.572847 17853 layer_factory.hpp:77] Creating layer relu1a
I0418 04:41:43.572860 17853 net.cpp:100] Creating Layer relu1a
I0418 04:41:43.572866 17853 net.cpp:434] relu1a <- conv1a
I0418 04:41:43.572872 17853 net.cpp:395] relu1a -> conv1a (in-place)
I0418 04:41:43.573575 17853 net.cpp:150] Setting up relu1a
I0418 04:41:43.573588 17853 net.cpp:157] Top shape: 1 64 768 112 112 (616562688)
I0418 04:41:43.573592 17853 net.cpp:165] Memory required for data: 5279319228
I0418 04:41:43.573596 17853 layer_factory.hpp:77] Creating layer pool1
I0418 04:41:43.573606 17853 net.cpp:100] Creating Layer pool1
I0418 04:41:43.573609 17853 net.cpp:434] pool1 <- conv1a
I0418 04:41:43.573616 17853 net.cpp:408] pool1 -> pool1
I0418 04:41:43.573791 17853 net.cpp:150] Setting up pool1
I0418 04:41:43.573801 17853 net.cpp:157] Top shape: 1 64 768 56 56 (154140672)
I0418 04:41:43.573804 17853 net.cpp:165] Memory required for data: 5895881916
I0418 04:41:43.573808 17853 layer_factory.hpp:77] Creating layer conv2a
I0418 04:41:43.573818 17853 net.cpp:100] Creating Layer conv2a
I0418 04:41:43.573822 17853 net.cpp:434] conv2a <- pool1
I0418 04:41:43.573828 17853 net.cpp:408] conv2a -> conv2a
I0418 04:41:43.591365 17853 net.cpp:150] Setting up conv2a
I0418 04:41:43.591390 17853 net.cpp:157] Top shape: 1 128 768 56 56 (308281344)
I0418 04:41:43.591394 17853 net.cpp:165] Memory required for data: 7129007292
I0418 04:41:43.591408 17853 layer_factory.hpp:77] Creating layer relu2a
I0418 04:41:43.591418 17853 net.cpp:100] Creating Layer relu2a
I0418 04:41:43.591421 17853 net.cpp:434] relu2a <- conv2a
I0418 04:41:43.591428 17853 net.cpp:395] relu2a -> conv2a (in-place)
I0418 04:41:43.591866 17853 net.cpp:150] Setting up relu2a
I0418 04:41:43.591878 17853 net.cpp:157] Top shape: 1 128 768 56 56 (308281344)
I0418 04:41:43.591882 17853 net.cpp:165] Memory required for data: 8362132668
I0418 04:41:43.591886 17853 layer_factory.hpp:77] Creating layer pool2
I0418 04:41:43.591897 17853 net.cpp:100] Creating Layer pool2
I0418 04:41:43.591899 17853 net.cpp:434] pool2 <- conv2a
I0418 04:41:43.591905 17853 net.cpp:408] pool2 -> pool2
I0418 04:41:43.592066 17853 net.cpp:150] Setting up pool2
I0418 04:41:43.592077 17853 net.cpp:157] Top shape: 1 128 384 28 28 (38535168)
I0418 04:41:43.592080 17853 net.cpp:165] Memory required for data: 8516273340
I0418 04:41:43.592084 17853 layer_factory.hpp:77] Creating layer conv3a
I0418 04:41:43.592094 17853 net.cpp:100] Creating Layer conv3a
I0418 04:41:43.592098 17853 net.cpp:434] conv3a <- pool2
I0418 04:41:43.592104 17853 net.cpp:408] conv3a -> conv3a
I0418 04:41:43.617862 17853 net.cpp:150] Setting up conv3a
I0418 04:41:43.617882 17853 net.cpp:157] Top shape: 1 256 384 28 28 (77070336)
I0418 04:41:43.617887 17853 net.cpp:165] Memory required for data: 8824554684
I0418 04:41:43.617897 17853 layer_factory.hpp:77] Creating layer relu3a
I0418 04:41:43.617905 17853 net.cpp:100] Creating Layer relu3a
I0418 04:41:43.617909 17853 net.cpp:434] relu3a <- conv3a
I0418 04:41:43.617915 17853 net.cpp:395] relu3a -> conv3a (in-place)
I0418 04:41:43.618213 17853 net.cpp:150] Setting up relu3a
I0418 04:41:43.618227 17853 net.cpp:157] Top shape: 1 256 384 28 28 (77070336)
I0418 04:41:43.618230 17853 net.cpp:165] Memory required for data: 9132836028
I0418 04:41:43.618234 17853 layer_factory.hpp:77] Creating layer conv3b
I0418 04:41:43.618245 17853 net.cpp:100] Creating Layer conv3b
I0418 04:41:43.618252 17853 net.cpp:434] conv3b <- conv3a
I0418 04:41:43.618258 17853 net.cpp:408] conv3b -> conv3b
I0418 04:41:43.667567 17853 net.cpp:150] Setting up conv3b
I0418 04:41:43.667593 17853 net.cpp:157] Top shape: 1 256 384 28 28 (77070336)
I0418 04:41:43.667596 17853 net.cpp:165] Memory required for data: 9441117372
I0418 04:41:43.667606 17853 layer_factory.hpp:77] Creating layer relu3b
I0418 04:41:43.667615 17853 net.cpp:100] Creating Layer relu3b
I0418 04:41:43.667620 17853 net.cpp:434] relu3b <- conv3b
I0418 04:41:43.667628 17853 net.cpp:395] relu3b -> conv3b (in-place)
I0418 04:41:43.667950 17853 net.cpp:150] Setting up relu3b
I0418 04:41:43.667964 17853 net.cpp:157] Top shape: 1 256 384 28 28 (77070336)
I0418 04:41:43.667968 17853 net.cpp:165] Memory required for data: 9749398716
I0418 04:41:43.667973 17853 layer_factory.hpp:77] Creating layer pool3
I0418 04:41:43.667980 17853 net.cpp:100] Creating Layer pool3
I0418 04:41:43.667984 17853 net.cpp:434] pool3 <- conv3b
I0418 04:41:43.667991 17853 net.cpp:408] pool3 -> pool3
I0418 04:41:43.668171 17853 net.cpp:150] Setting up pool3
I0418 04:41:43.668184 17853 net.cpp:157] Top shape: 1 256 192 14 14 (9633792)
I0418 04:41:43.668186 17853 net.cpp:165] Memory required for data: 9787933884
I0418 04:41:43.668190 17853 layer_factory.hpp:77] Creating layer conv4a
I0418 04:41:43.668202 17853 net.cpp:100] Creating Layer conv4a
I0418 04:41:43.668210 17853 net.cpp:434] conv4a <- pool3
I0418 04:41:43.668215 17853 net.cpp:408] conv4a -> conv4a
I0418 04:41:43.765774 17853 net.cpp:150] Setting up conv4a
I0418 04:41:43.765802 17853 net.cpp:157] Top shape: 1 512 192 14 14 (19267584)
I0418 04:41:43.765806 17853 net.cpp:165] Memory required for data: 9865004220
I0418 04:41:43.765820 17853 layer_factory.hpp:77] Creating layer relu4a
I0418 04:41:43.765830 17853 net.cpp:100] Creating Layer relu4a
I0418 04:41:43.765833 17853 net.cpp:434] relu4a <- conv4a
I0418 04:41:43.765841 17853 net.cpp:395] relu4a -> conv4a (in-place)
I0418 04:41:43.766160 17853 net.cpp:150] Setting up relu4a
I0418 04:41:43.766175 17853 net.cpp:157] Top shape: 1 512 192 14 14 (19267584)
I0418 04:41:43.766178 17853 net.cpp:165] Memory required for data: 9942074556
I0418 04:41:43.766182 17853 layer_factory.hpp:77] Creating layer conv4b
I0418 04:41:43.766196 17853 net.cpp:100] Creating Layer conv4b
I0418 04:41:43.766202 17853 net.cpp:434] conv4b <- conv4a
I0418 04:41:43.766211 17853 net.cpp:408] conv4b -> conv4b
I0418 04:41:43.958972 17853 net.cpp:150] Setting up conv4b
I0418 04:41:43.958999 17853 net.cpp:157] Top shape: 1 512 192 14 14 (19267584)
I0418 04:41:43.959003 17853 net.cpp:165] Memory required for data: 10019144892
I0418 04:41:43.959012 17853 layer_factory.hpp:77] Creating layer relu4b
I0418 04:41:43.959025 17853 net.cpp:100] Creating Layer relu4b
I0418 04:41:43.959029 17853 net.cpp:434] relu4b <- conv4b
I0418 04:41:43.959035 17853 net.cpp:395] relu4b -> conv4b (in-place)
I0418 04:41:43.959204 17853 net.cpp:150] Setting up relu4b
I0418 04:41:43.959216 17853 net.cpp:157] Top shape: 1 512 192 14 14 (19267584)
I0418 04:41:43.959220 17853 net.cpp:165] Memory required for data: 10096215228
I0418 04:41:43.959223 17853 layer_factory.hpp:77] Creating layer pool4
I0418 04:41:43.959233 17853 net.cpp:100] Creating Layer pool4
I0418 04:41:43.959239 17853 net.cpp:434] pool4 <- conv4b
I0418 04:41:43.959246 17853 net.cpp:408] pool4 -> pool4
I0418 04:41:43.959587 17853 net.cpp:150] Setting up pool4
I0418 04:41:43.959601 17853 net.cpp:157] Top shape: 1 512 96 7 7 (2408448)
I0418 04:41:43.959605 17853 net.cpp:165] Memory required for data: 10105849020
I0418 04:41:43.959609 17853 layer_factory.hpp:77] Creating layer conv5a
I0418 04:41:43.959620 17853 net.cpp:100] Creating Layer conv5a
I0418 04:41:43.959625 17853 net.cpp:434] conv5a <- pool4
I0418 04:41:43.959631 17853 net.cpp:408] conv5a -> conv5a
I0418 04:41:44.146479 17853 net.cpp:150] Setting up conv5a
I0418 04:41:44.146502 17853 net.cpp:157] Top shape: 1 512 96 7 7 (2408448)
I0418 04:41:44.146507 17853 net.cpp:165] Memory required for data: 10115482812
I0418 04:41:44.146515 17853 layer_factory.hpp:77] Creating layer relu5a
I0418 04:41:44.146524 17853 net.cpp:100] Creating Layer relu5a
I0418 04:41:44.146528 17853 net.cpp:434] relu5a <- conv5a
I0418 04:41:44.146535 17853 net.cpp:395] relu5a -> conv5a (in-place)
I0418 04:41:44.147323 17853 net.cpp:150] Setting up relu5a
I0418 04:41:44.147336 17853 net.cpp:157] Top shape: 1 512 96 7 7 (2408448)
I0418 04:41:44.147341 17853 net.cpp:165] Memory required for data: 10125116604
I0418 04:41:44.147344 17853 layer_factory.hpp:77] Creating layer conv5b
I0418 04:41:44.147356 17853 net.cpp:100] Creating Layer conv5b
I0418 04:41:44.147361 17853 net.cpp:434] conv5b <- conv5a
I0418 04:41:44.147367 17853 net.cpp:408] conv5b -> conv5b
I0418 04:41:44.333248 17853 net.cpp:150] Setting up conv5b
I0418 04:41:44.333273 17853 net.cpp:157] Top shape: 1 512 96 7 7 (2408448)
I0418 04:41:44.333276 17853 net.cpp:165] Memory required for data: 10134750396
I0418 04:41:44.333286 17853 layer_factory.hpp:77] Creating layer relu5b
I0418 04:41:44.333297 17853 net.cpp:100] Creating Layer relu5b
I0418 04:41:44.333305 17853 net.cpp:434] relu5b <- conv5b
I0418 04:41:44.333312 17853 net.cpp:395] relu5b -> conv5b (in-place)
I0418 04:41:44.333459 17853 net.cpp:150] Setting up relu5b
I0418 04:41:44.333469 17853 net.cpp:157] Top shape: 1 512 96 7 7 (2408448)
I0418 04:41:44.333473 17853 net.cpp:165] Memory required for data: 10144384188
I0418 04:41:44.333477 17853 layer_factory.hpp:77] Creating layer conv5b_relu5b_0_split
I0418 04:41:44.333483 17853 net.cpp:100] Creating Layer conv5b_relu5b_0_split
I0418 04:41:44.333487 17853 net.cpp:434] conv5b_relu5b_0_split <- conv5b
I0418 04:41:44.333493 17853 net.cpp:408] conv5b_relu5b_0_split -> conv5b_relu5b_0_split_0
I0418 04:41:44.333499 17853 net.cpp:408] conv5b_relu5b_0_split -> conv5b_relu5b_0_split_1
I0418 04:41:44.333534 17853 net.cpp:150] Setting up conv5b_relu5b_0_split
I0418 04:41:44.333542 17853 net.cpp:157] Top shape: 1 512 96 7 7 (2408448)
I0418 04:41:44.333547 17853 net.cpp:157] Top shape: 1 512 96 7 7 (2408448)
I0418 04:41:44.333550 17853 net.cpp:165] Memory required for data: 10163651772
I0418 04:41:44.333554 17853 layer_factory.hpp:77] Creating layer rpn_conv/3x3
I0418 04:41:44.333565 17853 net.cpp:100] Creating Layer rpn_conv/3x3
I0418 04:41:44.333571 17853 net.cpp:434] rpn_conv/3x3 <- conv5b_relu5b_0_split_0
I0418 04:41:44.333576 17853 net.cpp:408] rpn_conv/3x3 -> rpn/output
I0418 04:41:44.520311 17853 net.cpp:150] Setting up rpn_conv/3x3
I0418 04:41:44.520334 17853 net.cpp:157] Top shape: 1 512 96 4 4 (786432)
I0418 04:41:44.520339 17853 net.cpp:165] Memory required for data: 10166797500
I0418 04:41:44.520352 17853 layer_factory.hpp:77] Creating layer rpn_relu/3x3
I0418 04:41:44.520362 17853 net.cpp:100] Creating Layer rpn_relu/3x3
I0418 04:41:44.520366 17853 net.cpp:434] rpn_relu/3x3 <- rpn/output
I0418 04:41:44.520372 17853 net.cpp:395] rpn_relu/3x3 -> rpn/output (in-place)
I0418 04:41:44.520669 17853 net.cpp:150] Setting up rpn_relu/3x3
I0418 04:41:44.520684 17853 net.cpp:157] Top shape: 1 512 96 4 4 (786432)
I0418 04:41:44.520687 17853 net.cpp:165] Memory required for data: 10169943228
I0418 04:41:44.520690 17853 layer_factory.hpp:77] Creating layer rpn_conv/3x3_2
I0418 04:41:44.520702 17853 net.cpp:100] Creating Layer rpn_conv/3x3_2
I0418 04:41:44.520709 17853 net.cpp:434] rpn_conv/3x3_2 <- rpn/output
I0418 04:41:44.520716 17853 net.cpp:408] rpn_conv/3x3_2 -> rpn/output_2
I0418 04:41:44.706465 17853 net.cpp:150] Setting up rpn_conv/3x3_2
I0418 04:41:44.706488 17853 net.cpp:157] Top shape: 1 512 96 2 2 (196608)
I0418 04:41:44.706492 17853 net.cpp:165] Memory required for data: 10170729660
I0418 04:41:44.706501 17853 layer_factory.hpp:77] Creating layer rpn_relu/3x3_2
I0418 04:41:44.706511 17853 net.cpp:100] Creating Layer rpn_relu/3x3_2
I0418 04:41:44.706514 17853 net.cpp:434] rpn_relu/3x3_2 <- rpn/output_2
I0418 04:41:44.706522 17853 net.cpp:395] rpn_relu/3x3_2 -> rpn/output_2 (in-place)
I0418 04:41:44.706837 17853 net.cpp:150] Setting up rpn_relu/3x3_2
I0418 04:41:44.706851 17853 net.cpp:157] Top shape: 1 512 96 2 2 (196608)
I0418 04:41:44.706853 17853 net.cpp:165] Memory required for data: 10171516092
I0418 04:41:44.706857 17853 layer_factory.hpp:77] Creating layer rpn/output_pool
I0418 04:41:44.706866 17853 net.cpp:100] Creating Layer rpn/output_pool
I0418 04:41:44.706871 17853 net.cpp:434] rpn/output_pool <- rpn/output_2
I0418 04:41:44.706876 17853 net.cpp:408] rpn/output_pool -> rpn/output_pool
I0418 04:41:44.707048 17853 net.cpp:150] Setting up rpn/output_pool
I0418 04:41:44.707058 17853 net.cpp:157] Top shape: 1 512 96 1 1 (49152)
I0418 04:41:44.707062 17853 net.cpp:165] Memory required for data: 10171712700
I0418 04:41:44.707065 17853 layer_factory.hpp:77] Creating layer rpn/output_pool_rpn/output_pool_0_split
I0418 04:41:44.707070 17853 net.cpp:100] Creating Layer rpn/output_pool_rpn/output_pool_0_split
I0418 04:41:44.707074 17853 net.cpp:434] rpn/output_pool_rpn/output_pool_0_split <- rpn/output_pool
I0418 04:41:44.707078 17853 net.cpp:408] rpn/output_pool_rpn/output_pool_0_split -> rpn/output_pool_rpn/output_pool_0_split_0
I0418 04:41:44.707083 17853 net.cpp:408] rpn/output_pool_rpn/output_pool_0_split -> rpn/output_pool_rpn/output_pool_0_split_1
I0418 04:41:44.707116 17853 net.cpp:150] Setting up rpn/output_pool_rpn/output_pool_0_split
I0418 04:41:44.707123 17853 net.cpp:157] Top shape: 1 512 96 1 1 (49152)
I0418 04:41:44.707128 17853 net.cpp:157] Top shape: 1 512 96 1 1 (49152)
I0418 04:41:44.707130 17853 net.cpp:165] Memory required for data: 10172105916
I0418 04:41:44.707134 17853 layer_factory.hpp:77] Creating layer rpn_cls_score
I0418 04:41:44.707144 17853 net.cpp:100] Creating Layer rpn_cls_score
I0418 04:41:44.707151 17853 net.cpp:434] rpn_cls_score <- rpn/output_pool_rpn/output_pool_0_split_0
I0418 04:41:44.707159 17853 net.cpp:408] rpn_cls_score -> rpn_cls_score
I0418 04:41:44.709174 17853 net.cpp:150] Setting up rpn_cls_score
I0418 04:41:44.709188 17853 net.cpp:157] Top shape: 1 74 96 1 1 (7104)
I0418 04:41:44.709193 17853 net.cpp:165] Memory required for data: 10172134332
I0418 04:41:44.709198 17853 layer_factory.hpp:77] Creating layer rpn_cls_score_rpn_cls_score_0_split
I0418 04:41:44.709204 17853 net.cpp:100] Creating Layer rpn_cls_score_rpn_cls_score_0_split
I0418 04:41:44.709208 17853 net.cpp:434] rpn_cls_score_rpn_cls_score_0_split <- rpn_cls_score
I0418 04:41:44.709214 17853 net.cpp:408] rpn_cls_score_rpn_cls_score_0_split -> rpn_cls_score_rpn_cls_score_0_split_0
I0418 04:41:44.709220 17853 net.cpp:408] rpn_cls_score_rpn_cls_score_0_split -> rpn_cls_score_rpn_cls_score_0_split_1
I0418 04:41:44.709259 17853 net.cpp:150] Setting up rpn_cls_score_rpn_cls_score_0_split
I0418 04:41:44.709269 17853 net.cpp:157] Top shape: 1 74 96 1 1 (7104)
I0418 04:41:44.709272 17853 net.cpp:157] Top shape: 1 74 96 1 1 (7104)
I0418 04:41:44.709275 17853 net.cpp:165] Memory required for data: 10172191164
I0418 04:41:44.709278 17853 layer_factory.hpp:77] Creating layer rpn_twin_pred
I0418 04:41:44.709290 17853 net.cpp:100] Creating Layer rpn_twin_pred
I0418 04:41:44.709296 17853 net.cpp:434] rpn_twin_pred <- rpn/output_pool_rpn/output_pool_0_split_1
I0418 04:41:44.709303 17853 net.cpp:408] rpn_twin_pred -> rpn_twin_pred
I0418 04:41:44.711215 17853 net.cpp:150] Setting up rpn_twin_pred
I0418 04:41:44.711228 17853 net.cpp:157] Top shape: 1 74 96 1 1 (7104)
I0418 04:41:44.711232 17853 net.cpp:165] Memory required for data: 10172219580
I0418 04:41:44.711238 17853 layer_factory.hpp:77] Creating layer rpn_twin_pred_rpn_twin_pred_0_split
I0418 04:41:44.711246 17853 net.cpp:100] Creating Layer rpn_twin_pred_rpn_twin_pred_0_split
I0418 04:41:44.711249 17853 net.cpp:434] rpn_twin_pred_rpn_twin_pred_0_split <- rpn_twin_pred
I0418 04:41:44.711256 17853 net.cpp:408] rpn_twin_pred_rpn_twin_pred_0_split -> rpn_twin_pred_rpn_twin_pred_0_split_0
I0418 04:41:44.711262 17853 net.cpp:408] rpn_twin_pred_rpn_twin_pred_0_split -> rpn_twin_pred_rpn_twin_pred_0_split_1
I0418 04:41:44.711297 17853 net.cpp:150] Setting up rpn_twin_pred_rpn_twin_pred_0_split
I0418 04:41:44.711305 17853 net.cpp:157] Top shape: 1 74 96 1 1 (7104)
I0418 04:41:44.711309 17853 net.cpp:157] Top shape: 1 74 96 1 1 (7104)
I0418 04:41:44.711313 17853 net.cpp:165] Memory required for data: 10172276412
I0418 04:41:44.711315 17853 layer_factory.hpp:77] Creating layer rpn_cls_score_reshape
I0418 04:41:44.711328 17853 net.cpp:100] Creating Layer rpn_cls_score_reshape
I0418 04:41:44.711333 17853 net.cpp:434] rpn_cls_score_reshape <- rpn_cls_score_rpn_cls_score_0_split_0
I0418 04:41:44.711339 17853 net.cpp:408] rpn_cls_score_reshape -> rpn_cls_score_reshape
I0418 04:41:44.711366 17853 net.cpp:150] Setting up rpn_cls_score_reshape
I0418 04:41:44.711374 17853 net.cpp:157] Top shape: 1 2 3552 1 1 (7104)
I0418 04:41:44.711377 17853 net.cpp:165] Memory required for data: 10172304828
I0418 04:41:44.711380 17853 layer_factory.hpp:77] Creating layer rpn_cls_score_reshape_rpn_cls_score_reshape_0_split
I0418 04:41:44.711385 17853 net.cpp:100] Creating Layer rpn_cls_score_reshape_rpn_cls_score_reshape_0_split
I0418 04:41:44.711388 17853 net.cpp:434] rpn_cls_score_reshape_rpn_cls_score_reshape_0_split <- rpn_cls_score_reshape
I0418 04:41:44.711395 17853 net.cpp:408] rpn_cls_score_reshape_rpn_cls_score_reshape_0_split -> rpn_cls_score_reshape_rpn_cls_score_reshape_0_split_0
I0418 04:41:44.711403 17853 net.cpp:408] rpn_cls_score_reshape_rpn_cls_score_reshape_0_split -> rpn_cls_score_reshape_rpn_cls_score_reshape_0_split_1
I0418 04:41:44.711411 17853 net.cpp:408] rpn_cls_score_reshape_rpn_cls_score_reshape_0_split -> rpn_cls_score_reshape_rpn_cls_score_reshape_0_split_2
I0418 04:41:44.711450 17853 net.cpp:150] Setting up rpn_cls_score_reshape_rpn_cls_score_reshape_0_split
I0418 04:41:44.711457 17853 net.cpp:157] Top shape: 1 2 3552 1 1 (7104)
I0418 04:41:44.711462 17853 net.cpp:157] Top shape: 1 2 3552 1 1 (7104)
I0418 04:41:44.711465 17853 net.cpp:157] Top shape: 1 2 3552 1 1 (7104)
I0418 04:41:44.711467 17853 net.cpp:165] Memory required for data: 10172390076
I0418 04:41:44.711472 17853 layer_factory.hpp:77] Creating layer rpn-data
I0418 04:41:44.711863 17853 net.cpp:100] Creating Layer rpn-data
I0418 04:41:44.711874 17853 net.cpp:434] rpn-data <- rpn_cls_score_rpn_cls_score_0_split_1
I0418 04:41:44.711879 17853 net.cpp:434] rpn-data <- gt_boxes_data_1_split_0
I0418 04:41:44.711884 17853 net.cpp:434] rpn-data <- data_data_0_split_1
I0418 04:41:44.711889 17853 net.cpp:408] rpn-data -> rpn_labels
I0418 04:41:44.711896 17853 net.cpp:408] rpn-data -> rpn_twin_targets
I0418 04:41:44.711902 17853 net.cpp:408] rpn-data -> rpn_twin_inside_weights
I0418 04:41:44.711907 17853 net.cpp:408] rpn-data -> rpn_twin_outside_weights
I0418 04:41:44.714109 17853 net.cpp:150] Setting up rpn-data
I0418 04:41:44.714123 17853 net.cpp:157] Top shape: 1 1 3552 1 1 (3552)
I0418 04:41:44.714128 17853 net.cpp:157] Top shape: 1 74 96 1 1 (7104)
I0418 04:41:44.714133 17853 net.cpp:157] Top shape: 1 74 96 1 1 (7104)
I0418 04:41:44.714135 17853 net.cpp:157] Top shape: 1 74 96 1 1 (7104)
I0418 04:41:44.714138 17853 net.cpp:165] Memory required for data: 10172489532
I0418 04:41:44.714141 17853 layer_factory.hpp:77] Creating layer rpn_labels_rpn-data_0_split
I0418 04:41:44.714148 17853 net.cpp:100] Creating Layer rpn_labels_rpn-data_0_split
I0418 04:41:44.714150 17853 net.cpp:434] rpn_labels_rpn-data_0_split <- rpn_labels
I0418 04:41:44.714156 17853 net.cpp:408] rpn_labels_rpn-data_0_split -> rpn_labels_rpn-data_0_split_0
I0418 04:41:44.714164 17853 net.cpp:408] rpn_labels_rpn-data_0_split -> rpn_labels_rpn-data_0_split_1
I0418 04:41:44.714196 17853 net.cpp:150] Setting up rpn_labels_rpn-data_0_split
I0418 04:41:44.714203 17853 net.cpp:157] Top shape: 1 1 3552 1 1 (3552)
I0418 04:41:44.714207 17853 net.cpp:157] Top shape: 1 1 3552 1 1 (3552)
I0418 04:41:44.714210 17853 net.cpp:165] Memory required for data: 10172517948
I0418 04:41:44.714213 17853 layer_factory.hpp:77] Creating layer rpn_loss_cls
I0418 04:41:44.714222 17853 net.cpp:100] Creating Layer rpn_loss_cls
I0418 04:41:44.714226 17853 net.cpp:434] rpn_loss_cls <- rpn_cls_score_reshape_rpn_cls_score_reshape_0_split_0
I0418 04:41:44.714231 17853 net.cpp:434] rpn_loss_cls <- rpn_labels_rpn-data_0_split_0
…
I0418 04:41:44.714797 17853 layer_factory.hpp:77] Creating layer rpn_accuarcy
I0418 04:41:44.714805 17853 net.cpp:100] Creating Layer rpn_accuarcy
I0418 04:41:44.714809 17853 net.cpp:434] rpn_accuarcy <- rpn_cls_score_reshape_rpn_cls_score_reshape_0_split_1
I0418 04:41:44.714813 17853 net.cpp:434] rpn_accuarcy <- rpn_labels_rpn-data_0_split_1
I0418 04:41:44.714818 17853 net.cpp:408] rpn_accuarcy -> rpn_accuarcy
I0418 04:41:44.714824 17853 net.cpp:408] rpn_accuarcy -> rpn_accuarcy_class
I0418 04:41:44.714864 17853 net.cpp:150] Setting up rpn_accuarcy
I0418 04:41:44.714870 17853 net.cpp:157] Top shape: (1)
I0418 04:41:44.714874 17853 net.cpp:157] Top shape: 2 (2)
I0418 04:41:44.714877 17853 net.cpp:165] Memory required for data: 10172517968
I0418 04:41:44.714880 17853 layer_factory.hpp:77] Creating layer rpn_cls_prob
I0418 04:41:44.714885 17853 net.cpp:100] Creating Layer rpn_cls_prob
I0418 04:41:44.714889 17853 net.cpp:434] rpn_cls_prob <- rpn_cls_score_reshape_rpn_cls_score_reshape_0_split_2
I0418 04:41:44.714895 17853 net.cpp:408] rpn_cls_prob -> rpn_cls_prob
I0418 04:41:44.715086 17853 net.cpp:150] Setting up rpn_cls_prob
I0418 04:41:44.715096 17853 net.cpp:157] Top shape: 1 2 3552 1 1 (7104)
I0418 04:41:44.715101 17853 net.cpp:165] Memory required for data: 10172546384
I0418 04:41:44.715103 17853 layer_factory.hpp:77] Creating layer rpn_cls_prob_reshape
I0418 04:41:44.715109 17853 net.cpp:100] Creating Layer rpn_cls_prob_reshape
I0418 04:41:44.715112 17853 net.cpp:434] rpn_cls_prob_reshape <- rpn_cls_prob
I0418 04:41:44.715117 17853 net.cpp:408] rpn_cls_prob_reshape -> rpn_cls_prob_reshape
I0418 04:41:44.715143 17853 net.cpp:150] Setting up rpn_cls_prob_reshape
I0418 04:41:44.715155 17853 net.cpp:157] Top shape: 1 74 96 1 1 (7104)
I0418 04:41:44.715158 17853 net.cpp:165] Memory required for data: 10172574800
I0418 04:41:44.715162 17853 layer_factory.hpp:77] Creating layer proposal
I0418 04:41:44.715703 17853 net.cpp:100] Creating Layer proposal
I0418 04:41:44.715714 17853 net.cpp:434] proposal <- rpn_cls_prob_reshape
I0418 04:41:44.715719 17853 net.cpp:434] proposal <- rpn_twin_pred_rpn_twin_pred_0_split_1
I0418 04:41:44.715725 17853 net.cpp:408] proposal -> rpn_rois
I0418 04:41:44.717851 17853 net.cpp:150] Setting up proposal
I0418 04:41:44.717865 17853 net.cpp:157] Top shape: 1 3 (3)
I0418 04:41:44.717869 17853 net.cpp:165] Memory required for data: 10172574812
I0418 04:41:44.717874 17853 layer_factory.hpp:77] Creating layer roi-data
I0418 04:41:44.718003 17853 net.cpp:100] Creating Layer roi-data
I0418 04:41:44.718014 17853 net.cpp:434] roi-data <- rpn_rois
I0418 04:41:44.718019 17853 net.cpp:434] roi-data <- gt_boxes_data_1_split_1
I0418 04:41:44.718024 17853 net.cpp:408] roi-data -> rois
I0418 04:41:44.718030 17853 net.cpp:408] roi-data -> labels
I0418 04:41:44.718036 17853 net.cpp:408] roi-data -> twin_targets
I0418 04:41:44.718041 17853 net.cpp:408] roi-data -> twin_inside_weights
I0418 04:41:44.718047 17853 net.cpp:408] roi-data -> twin_outside_weights
I0418 04:41:44.718345 17853 net.cpp:150] Setting up roi-data
I0418 04:41:44.718358 17853 net.cpp:157] Top shape: 1 3 (3)
I0418 04:41:44.718364 17853 net.cpp:157] Top shape: 1 1 (1)
I0418 04:41:44.718367 17853 net.cpp:157] Top shape: 1 198 (198)
I0418 04:41:44.718370 17853 net.cpp:157] Top shape: 1 198 (198)
I0418 04:41:44.718374 17853 net.cpp:157] Top shape: 1 198 (198)
I0418 04:41:44.718376 17853 net.cpp:165] Memory required for data: 10172577204
I0418 04:41:44.718380 17853 layer_factory.hpp:77] Creating layer labels_roi-data_1_split
I0418 04:41:44.718385 17853 net.cpp:100] Creating Layer labels_roi-data_1_split
I0418 04:41:44.718389 17853 net.cpp:434] labels_roi-data_1_split <- labels
I0418 04:41:44.718394 17853 net.cpp:408] labels_roi-data_1_split -> labels_roi-data_1_split_0
I0418 04:41:44.718400 17853 net.cpp:408] labels_roi-data_1_split -> labels_roi-data_1_split_1
I0418 04:41:44.718430 17853 net.cpp:150] Setting up labels_roi-data_1_split
I0418 04:41:44.718437 17853 net.cpp:157] Top shape: 1 1 (1)
I0418 04:41:44.718441 17853 net.cpp:157] Top shape: 1 1 (1)
I0418 04:41:44.718444 17853 net.cpp:165] Memory required for data: 10172577212
I0418 04:41:44.718447 17853 layer_factory.hpp:77] Creating layer roi_pool5
I0418 04:41:44.718456 17853 net.cpp:100] Creating Layer roi_pool5
I0418 04:41:44.718461 17853 net.cpp:434] roi_pool5 <- conv5b_relu5b_0_split_1
I0418 04:41:44.718466 17853 net.cpp:434] roi_pool5 <- rois
I0418 04:41:44.718469 17853 net.cpp:408] roi_pool5 -> pool5
I0418 04:41:44.718477 17853 roi_pooling_layer.cpp:34] Temporal scale: 0.125
I0418 04:41:44.718485 17853 roi_pooling_layer.cpp:35] Spatial scale: 0.0625
I0418 04:41:44.718519 17853 net.cpp:150] Setting up roi_pool5
I0418 04:41:44.718526 17853 net.cpp:157] Top shape: 1 512 1 4 4 (8192)
I0418 04:41:44.718529 17853 net.cpp:165] Memory required for data: 10172609980
I0418 04:41:44.718533 17853 layer_factory.hpp:77] Creating layer fc6
I0418 04:41:44.718540 17853 net.cpp:100] Creating Layer fc6
I0418 04:41:44.718545 17853 net.cpp:434] fc6 <- pool5
I0418 04:41:44.718550 17853 net.cpp:408] fc6 -> fc6
I0418 04:41:45.596051 17853 net.cpp:150] Setting up fc6
I0418 04:41:45.596088 17853 net.cpp:157] Top shape: 1 4096 (4096)
I0418 04:41:45.596092 17853 net.cpp:165] Memory required for data: 10172626364
I0418 04:41:45.596101 17853 layer_factory.hpp:77] Creating layer relu6
I0418 04:41:45.596112 17853 net.cpp:100] Creating Layer relu6
I0418 04:41:45.596117 17853 net.cpp:434] relu6 <- fc6
I0418 04:41:45.596122 17853 net.cpp:395] relu6 -> fc6 (in-place)
I0418 04:41:45.596537 17853 net.cpp:150] Setting up relu6
I0418 04:41:45.596560 17853 net.cpp:157] Top shape: 1 4096 (4096)
I0418 04:41:45.596562 17853 net.cpp:165] Memory required for data: 10172642748
I0418 04:41:45.596566 17853 layer_factory.hpp:77] Creating layer drop6
I0418 04:41:45.596577 17853 net.cpp:100] Creating Layer drop6
I0418 04:41:45.596581 17853 net.cpp:434] drop6 <- fc6
I0418 04:41:45.596585 17853 net.cpp:395] drop6 -> fc6 (in-place)
I0418 04:41:45.596614 17853 net.cpp:150] Setting up drop6
I0418 04:41:45.596622 17853 net.cpp:157] Top shape: 1 4096 (4096)
I0418 04:41:45.596626 17853 net.cpp:165] Memory required for data: 10172659132
I0418 04:41:45.596628 17853 layer_factory.hpp:77] Creating layer fc6_drop6_0_split
I0418 04:41:45.596634 17853 net.cpp:100] Creating Layer fc6_drop6_0_split
I0418 04:41:45.596637 17853 net.cpp:434] fc6_drop6_0_split <- fc6
I0418 04:41:45.596642 17853 net.cpp:408] fc6_drop6_0_split -> fc6_drop6_0_split_0
I0418 04:41:45.596647 17853 net.cpp:408] fc6_drop6_0_split -> fc6_drop6_0_split_1
I0418 04:41:45.596680 17853 net.cpp:150] Setting up fc6_drop6_0_split
I0418 04:41:45.596688 17853 net.cpp:157] Top shape: 1 4096 (4096)
I0418 04:41:45.596691 17853 net.cpp:157] Top shape: 1 4096 (4096)
I0418 04:41:45.596693 17853 net.cpp:165] Memory required for data: 10172691900
I0418 04:41:45.596696 17853 layer_factory.hpp:77] Creating layer cls_score
I0418 04:41:45.596704 17853 net.cpp:100] Creating Layer cls_score
I0418 04:41:45.596706 17853 net.cpp:434] cls_score <- fc6_drop6_0_split_0
I0418 04:41:45.596716 17853 net.cpp:408] cls_score -> cls_score
I0418 04:41:45.607347 17853 net.cpp:150] Setting up cls_score
I0418 04:41:45.607359 17853 net.cpp:157] Top shape: 1 99 (99)
I0418 04:41:45.607363 17853 net.cpp:165] Memory required for data: 10172692296
I0418 04:41:45.607368 17853 layer_factory.hpp:77] Creating layer cls_score_cls_score_0_split
I0418 04:41:45.607374 17853 net.cpp:100] Creating Layer cls_score_cls_score_0_split
I0418 04:41:45.607378 17853 net.cpp:434] cls_score_cls_score_0_split <- cls_score
I0418 04:41:45.607383 17853 net.cpp:408] cls_score_cls_score_0_split -> cls_score_cls_score_0_split_0
I0418 04:41:45.607388 17853 net.cpp:408] cls_score_cls_score_0_split -> cls_score_cls_score_0_split_1
I0418 04:41:45.607419 17853 net.cpp:150] Setting up cls_score_cls_score_0_split
I0418 04:41:45.607427 17853 net.cpp:157] Top shape: 1 99 (99)
I0418 04:41:45.607431 17853 net.cpp:157] Top shape: 1 99 (99)
I0418 04:41:45.607434 17853 net.cpp:165] Memory required for data: 10172693088
I0418 04:41:45.607437 17853 layer_factory.hpp:77] Creating layer twin_pred
I0418 04:41:45.607444 17853 net.cpp:100] Creating Layer twin_pred
I0418 04:41:45.607446 17853 net.cpp:434] twin_pred <- fc6_drop6_0_split_1
I0418 04:41:45.607453 17853 net.cpp:408] twin_pred -> twin_pred
I0418 04:41:45.628613 17853 net.cpp:150] Setting up twin_pred
I0418 04:41:45.628626 17853 net.cpp:157] Top shape: 1 198 (198)
I0418 04:41:45.628629 17853 net.cpp:165] Memory required for data: 10172693880
I0418 04:41:45.628635 17853 layer_factory.hpp:77] Creating layer loss_cls
I0418 04:41:45.628646 17853 net.cpp:100] Creating Layer loss_cls
I0418 04:41:45.628650 17853 net.cpp:434] loss_cls <- cls_score_cls_score_0_split_0
I0418 04:41:45.628655 17853 net.cpp:434] loss_cls <- labels_roi-data_1_split_0
I0418 04:41:45.628661 17853 net.cpp:408] loss_cls -> loss_cls
…
