…
stepsize: 350000
snapshot: 0
snapshot_prefix: "./experiments/activitynet/snapshot/activitynet"
average_loss: 100
iter_size: 1
I0418 03:57:09.389907 14114 solver.cpp:81] Creating training net from train_net file: ./experiments/activitynet/train.prototxt
I0418 03:57:09.391053 14114 net.cpp:58] Initializing net from parameters: 
name: "activitynet"
state {
  phase: TRAIN
}
layer {
  name: "data"
  type: "Python"
  top: "data"
  top: "gt_boxes"
  python_param {
    module: "roi_data_layer.layer"
    layer: "RoIDataLayer"
    param_str: "\'num_classes\': 100"
  }
}
layer {
  name: "conv1a"
  type: "Convolution"
  bottom: "data"
  top: "conv1a"
  param {
    lr_mult: 0
    decay_mult: 0
  }
  param {
    lr_mult: 0
    decay_mult: 0
  }
  convolution_param {
    num_output: 64
    pad: 1
    pad: 1
    pad: 1
    kernel_size: 3
    kernel_size: 3
    kernel_size: 3
    weight_filler {
      type: "gaussian"
      std: 0.01
    }
    bias_filler {
      type: "constant"
      value: 0
    }
  }
}
layer {
  name: "relu1a"
  type: "ReLU"
  bottom: "conv1a"
  top: "conv1a"
}
layer {
  name: "pool1"
  type: "Pooling"
  bottom: "conv1a"
  top: "pool1"
  pooling_param {
    pool: MAX
    kernel_size: 1
    kernel_size: 2
    kernel_size: 2
    stride: 1
    stride: 2
    stride: 2
  }
}
layer {
  name: "conv2a"
  type: "Convolution"
  bottom: "pool1"
  top: "conv2a"
  param {
    lr_mult: 0
    decay_mult: 0
  }
  param {
    lr_mult: 0
    decay_mult: 0
  }
  convolution_param {
    num_output: 128
    pad: 1
    pad: 1
    pad: 1
    kernel_size: 3
    kernel_size: 3
    kernel_size: 3
    weight_filler {
      type: "gaussian"
      std: 0.01
    }
    bias_filler {
      type: "constant"
      value: 1
    }
  }
}
layer {
  name: "relu2a"
  type: "ReLU"
  bottom: "conv2a"
  top: "conv2a"
}
layer {
  name: "pool2"
  type: "Pooling"
  bottom: "conv2a"
  top: "pool2"
  pooling_param {
    pool: MAX
    kernel_size: 2
    kernel_size: 2
    kernel_size: 2
    stride: 2
    stride: 2
    stride: 2
  }
}
layer {
  name: "conv3a"
  type: "Convolution"
  bottom: "pool2"
  top: "conv3a"
  param {
    lr_mult: 1
    decay_mult: 1
  }
  param {
    lr_mult: 2
    decay_mult: 0
  }
  convolution_param {
    num_output: 256
    pad: 1
    pad: 1
    pad: 1
    kernel_size: 3
    kernel_size: 3
    kernel_size: 3
    weight_filler {
      type: "gaussian"
      std: 0.01
    }
    bias_filler {
      type: "constant"
      value: 1
    }
  }
}
layer {
  name: "relu3a"
  type: "ReLU"
  bottom: "conv3a"
  top: "conv3a"
}
layer {
  name: "conv3b"
  type: "Convolution"
  bottom: "conv3a"
  top: "conv3b"
  param {
    lr_mult: 1
    decay_mult: 1
  }
  param {
    lr_mult: 2
    decay_mult: 0
  }
  convolution_param {
    num_output: 256
    pad: 1
    pad: 1
    pad: 1
    kernel_size: 3
    kernel_size: 3
    kernel_size: 3
    weight_filler {
      type: "gaussian"
      std: 0.01
    }
    bias_filler {
      type: "constant"
      value: 1
    }
  }
}
layer {
  name: "relu3b"
  type: "ReLU"
  bottom: "conv3b"
  top: "conv3b"
}
layer {
  name: "pool3"
  type: "Pooling"
  bottom: "conv3b"
  top: "pool3"
  pooling_param {
    pool: MAX
    kernel_size: 2
    kernel_size: 2
    kernel_size: 2
    stride: 2
    stride: 2
    stride: 2
  }
}
layer {
  name: "conv4a"
  type: "Convolution"
  bottom: "pool3"
  top: "conv4a"
  param {
    lr_mult: 1
    decay_mult: 1
  }
  param {
    lr_mult: 2
    decay_mult: 0
  }
  convolution_param {
    num_output: 512
    pad: 1
    pad: 1
    pad: 1
    kernel_size: 3
    kernel_size: 3
    kernel_size: 3
    weight_filler {
      type: "gaussian"
      std: 0.01
    }
    bias_filler {
      type: "constant"
      value: 1
    }
  }
}
layer {
  name: "relu4a"
  type: "ReLU"
  bottom: "conv4a"
  top: "conv4a"
}
layer {
  name: "conv4b"
  type: "Convolution"
  bottom: "conv4a"
  top: "conv4b"
  param {
    lr_mult: 1
    decay_mult: 1
  }
  param {
    lr_mult: 2
    decay_mult: 0
  }
  convolution_param {
    num_output: 512
    pad: 1
    pad: 1
    pad: 1
    kernel_size: 3
    kernel_size: 3
    kernel_size: 3
    weight_filler {
      type: "gaussian"
      std: 0.01
    }
    bias_filler {
      type: "constant"
      value: 1
    }
  }
}
layer {
  name: "relu4b"
  type: "ReLU"
  bottom: "conv4b"
  top: "conv4b"
}
layer {
  name: "pool4"
  type: "Pooling"
  bottom: "conv4b"
  top: "pool4"
  pooling_param {
    pool: MAX
    kernel_size: 2
    kernel_size: 2
    kernel_size: 2
    stride: 2
    stride: 2
    stride: 2
  }
}
layer {
  name: "conv5a"
  type: "Convolution"
  bottom: "pool4"
  top: "conv5a"
  param {
    lr_mult: 1
    decay_mult: 1
  }
  param {
    lr_mult: 2
    decay_mult: 0
  }
  convolution_param {
    num_output: 512
    pad: 1
    pad: 1
    pad: 1
    kernel_size: 3
    kernel_size: 3
    kernel_size: 3
    weight_filler {
      type: "gaussian"
      std: 0.01
    }
    bias_filler {
      type: "constant"
      value: 1
    }
  }
}
layer {
  name: "relu5a"
  type: "ReLU"
  bottom: "conv5a"
  top: "conv5a"
}
layer {
  name: "conv5b"
  type: "Convolution"
  bottom: "conv5a"
  top: "conv5b"
  param {
    lr_mult: 1
    decay_mult: 1
  }
  param {
    lr_mult: 2
    decay_mult: 0
  }
  convolution_param {
    num_output: 512
    pad: 1
    pad: 1
    pad: 1
    kernel_size: 3
    kernel_size: 3
    kernel_size: 3
    weight_filler {
      type: "gaussian"
      std: 0.01
    }
    bias_filler {
      type: "constant"
      value: 1
    }
  }
}
layer {
  name: "relu5b"
  type: "ReLU"
  bottom: "conv5b"
  top: "conv5b"
}
layer {
  name: "rpn_conv/3x3"
  type: "Convolution"
  bottom: "conv5b"
  top: "rpn/output"
  param {
    lr_mult: 1
    decay_mult: 1
  }
  param {
    lr_mult: 2
    decay_mult: 0
  }
  convolution_param {
    num_output: 512
    pad: 1
    pad: 1
    pad: 1
    kernel_size: 3
    kernel_size: 3
    kernel_size: 3
    stride: 1
    stride: 2
    stride: 2
    weight_filler {
      type: "gaussian"
      std: 0.01
    }
    bias_filler {
      type: "constant"
      value: 0
    }
  }
}
layer {
  name: "rpn_relu/3x3"
  type: "ReLU"
  bottom: "rpn/output"
  top: "rpn/output"
}
layer {
  name: "rpn_conv/3x3_2"
  type: "Convolution"
  bottom: "rpn/output"
  top: "rpn/output_2"
  param {
    lr_mult: 1
    decay_mult: 1
  }
  param {
    lr_mult: 2
    decay_mult: 0
  }
  convolution_param {
    num_output: 512
    pad: 1
    pad: 1
    pad: 1
    kernel_size: 3
    kernel_size: 3
    kernel_size: 3
    stride: 1
    stride: 2
    stride: 2
    weight_filler {
      type: "gaussian"
      std: 0.01
    }
    bias_filler {
      type: "constant"
      value: 0
    }
  }
}
layer {
  name: "rpn_relu/3x3_2"
  type: "ReLU"
  bottom: "rpn/output_2"
  top: "rpn/output_2"
}
layer {
  name: "rpn/output_pool"
  type: "Pooling"
  bottom: "rpn/output_2"
  top: "rpn/output_pool"
  pooling_param {
    pool: MAX
    kernel_size: 1
    kernel_size: 2
    kernel_size: 2
  }
}
layer {
  name: "rpn_cls_score"
  type: "Convolution"
  bottom: "rpn/output_pool"
  top: "rpn_cls_score"
  param {
    lr_mult: 1
    decay_mult: 1
  }
  param {
    lr_mult: 2
    decay_mult: 0
  }
  convolution_param {
    num_output: 74
    kernel_size: 1
    kernel_size: 1
    kernel_size: 1
    weight_filler {
      type: "gaussian"
      std: 0.01
    }
    bias_filler {
      type: "constant"
      value: 0
    }
  }
}
layer {
  name: "rpn_twin_pred"
  type: "Convolution"
  bottom: "rpn/output_pool"
  top: "rpn_twin_pred"
  param {
    lr_mult: 1
    decay_mult: 1
  }
  param {
    lr_mult: 2
    decay_mult: 0
  }
  convolution_param {
    num_output: 74
    kernel_size: 1
    kernel_size: 1
    kernel_size: 1
    weight_filler {
      type: "gaussian"
      std: 0.01
    }
    bias_filler {
      type: "constant"
      value: 0
    }
  }
}
layer {
  name: "rpn_cls_score_reshape"
  type: "Reshape"
  bottom: "rpn_cls_score"
  top: "rpn_cls_score_reshape"
  reshape_param {
    shape {
      dim: 0
      dim: 2
      dim: -1
      dim: 0
      dim: 0
    }
  }
}
layer {
  name: "rpn-data"
  type: "Python"
  bottom: "rpn_cls_score"
  bottom: "gt_boxes"
  bottom: "data"
  top: "rpn_labels"
  top: "rpn_twin_targets"
  top: "rpn_twin_inside_weights"
  top: "rpn_twin_outside_weights"
  python_param {
    module: "rpn.anchor_target_layer"
    layer: "AnchorTargetLayer"
    param_str: "\'feat_stride\': 8 \n\'scales\': !!python/tuple [1,1.25, 1.5,1.75, 2,2.5, 3,3.5, 4,4.5, 5,5.5, 6,7, 8,9,10,11,12,14,16,18,20,22,24,28,32,36,40,44,52,60,68,76,84,92,100]"
  }
}
layer {
  name: "rpn_loss_cls"
  type: "SoftmaxWithLoss"
  bottom: "rpn_cls_score_reshape"
  bottom: "rpn_labels"
  top: "rpn_cls_loss"
  loss_weight: 1
  propagate_down: true
  propagate_down: false
  loss_param {
    ignore_label: -1
    normalize: true
  }
}
layer {
  name: "rpn_loss_twin"
  type: "SmoothL1Loss"
  bottom: "rpn_twin_pred"
  bottom: "rpn_twin_targets"
  bottom: "rpn_twin_inside_weights"
  bottom: "rpn_twin_outside_weights"
  top: "rpn_loss_twin"
  loss_weight: 1
  smooth_l1_loss_param {
    sigma: 3
  }
}
layer {
  name: "rpn_accuarcy"
  type: "Accuracy"
  bottom: "rpn_cls_score_reshape"
  bottom: "rpn_labels"
  top: "rpn_accuarcy"
  top: "rpn_accuarcy_class"
  propagate_down: false
  propagate_down: false
  accuracy_param {
    ignore_label: -1
  }
}
layer {
  name: "rpn_cls_prob"
  type: "Softmax"
  bottom: "rpn_cls_score_reshape"
  top: "rpn_cls_prob"
}
layer {
  name: "rpn_cls_prob_reshape"
  type: "Reshape"
  bottom: "rpn_cls_prob"
  top: "rpn_cls_prob_reshape"
  reshape_param {
    shape {
      dim: 0
      dim: 74
      dim: -1
      dim: 0
      dim: 0
    }
  }
}
layer {
  name: "proposal"
  type: "Python"
  bottom: "rpn_cls_prob_reshape"
  bottom: "rpn_twin_pred"
  top: "rpn_rois"
  include {
    phase: TRAIN
  }
  python_param {
    module: "rpn.proposal_layer"
    layer: "ProposalLayer"
    param_str: "\'feat_stride\': 8 \n\'scales\': !!python/tuple [1,1.25, 1.5,1.75, 2,2.5, 3,3.5, 4,4.5, 5,5.5, 6,7, 8,9,10,11,12,14,16,18,20,22,24,28,32,36,40,44,52,60,68,76,84,92,100]"
  }
}
layer {
  name: "roi-data"
  type: "Python"
  bottom: "rpn_rois"
  bottom: "gt_boxes"
  top: "rois"
  top: "labels"
  top: "twin_targets"
  top: "twin_inside_weights"
  top: "twin_outside_weights"
  python_param {
    module: "rpn.proposal_target_layer"
    layer: "ProposalTargetLayer"
    param_str: "\'num_classes\': 99"
  }
}
layer {
  name: "roi_pool5"
  type: "ROIPooling"
  bottom: "conv5b"
  bottom: "rois"
  top: "pool5"
  roi_pooling_param {
    pooled_h: 4
    pooled_w: 4
    spatial_scale: 0.0625
    pooled_l: 1
    temporal_scale: 0.125
  }
}
layer {
  name: "fc6"
  type: "InnerProduct"
  bottom: "pool5"
  top: "fc6"
  param {
    lr_mult: 1
    decay_mult: 1
  }
  param {
    lr_mult: 2
    decay_mult: 0
  }
  inner_product_param {
    num_output: 4096
    weight_filler {
      type: "gaussian"
      std: 0.005
    }
    bias_filler {
      type: "constant"
      value: 1
    }
  }
}
layer {
  name: "relu6"
  type: "ReLU"
  bottom: "fc6"
  top: "fc6"
}
layer {
  name: "drop6"
  type: "Dropout"
  bottom: "fc6"
  top: "fc6"
  dropout_param {
    dropout_ratio: 0.5
  }
}
layer {
  name: "cls_score"
  type: "InnerProduct"
  bottom: "fc6"
  top: "cls_score"
  param {
    lr_mult: 1
    decay_mult: 1
  }
  param {
    lr_mult: 2
    decay_mult: 0
  }
  inner_product_param {
    num_output: 99
    weight_filler {
      type: "gaussian"
      std: 0.01
    }
    bias_filler {
      type: "constant"
      value: 0
    }
  }
}
layer {
  name: "twin_pred"
  type: "InnerProduct"
  bottom: "fc6"
  top: "twin_pred"
  param {
    lr_mult: 1
    decay_mult: 1
  }
  param {
    lr_mult: 2
    decay_mult: 0
  }
  inner_product_param {
    num_output: 198
    weight_filler {
      type: "gaussian"
      std: 0.001
    }
    bias_filler {
      type: "constant"
      value: 0
    }
  }
}
layer {
  name: "loss_cls"
  type: "SoftmaxWithLoss"
  bottom: "cls_score"
  bottom: "labels"
  top: "loss_cls"
  loss_weight: 1
  propagate_down: true
  propagate_down: false
}
layer {
  name: "loss_twin"
  type: "SmoothL1Loss"
  bottom: "twin_pred"
  bottom: "twin_targets"
  bottom: "twin_inside_weights"
  bottom: "twin_outside_weights"
  top: "loss_twin"
  loss_weight: 1
}
layer {
  name: "accuarcy"
  type: "Accuracy"
  bottom: "cls_score"
  bottom: "labels"
  top: "accuarcy"
  propagate_down: false
  propagate_down: false
  accuracy_param {
    ignore_label: -1
  }
}
I0418 03:57:09.391261 14114 layer_factory.hpp:77] Creating layer data
I0418 03:57:09.415062 14114 net.cpp:100] Creating Layer data
I0418 03:57:09.415104 14114 net.cpp:408] data -> data
I0418 03:57:09.415119 14114 net.cpp:408] data -> gt_boxes
setting up
has rpn
RoiDataLayer: name_to_top: {'gt_windows': 1, 'data': 0}
I0418 03:57:09.427969 14114 net.cpp:150] Setting up data
I0418 03:57:09.427990 14114 net.cpp:157] Top shape: 1 3 768 112 112 (28901376)
I0418 03:57:09.427995 14114 net.cpp:157] Top shape: 1 101 (101)
I0418 03:57:09.427999 14114 net.cpp:165] Memory required for data: 115605908
I0418 03:57:09.428005 14114 layer_factory.hpp:77] Creating layer data_data_0_split
I0418 03:57:09.428017 14114 net.cpp:100] Creating Layer data_data_0_split
I0418 03:57:09.428021 14114 net.cpp:434] data_data_0_split <- data
I0418 03:57:09.428030 14114 net.cpp:408] data_data_0_split -> data_data_0_split_0
I0418 03:57:09.428038 14114 net.cpp:408] data_data_0_split -> data_data_0_split_1
I0418 03:57:09.428067 14114 net.cpp:150] Setting up data_data_0_split
I0418 03:57:09.428076 14114 net.cpp:157] Top shape: 1 3 768 112 112 (28901376)
I0418 03:57:09.428079 14114 net.cpp:157] Top shape: 1 3 768 112 112 (28901376)
I0418 03:57:09.428082 14114 net.cpp:165] Memory required for data: 346816916
I0418 03:57:09.428086 14114 layer_factory.hpp:77] Creating layer gt_boxes_data_1_split
I0418 03:57:09.428092 14114 net.cpp:100] Creating Layer gt_boxes_data_1_split
I0418 03:57:09.428094 14114 net.cpp:434] gt_boxes_data_1_split <- gt_boxes
I0418 03:57:09.428099 14114 net.cpp:408] gt_boxes_data_1_split -> gt_boxes_data_1_split_0
I0418 03:57:09.428105 14114 net.cpp:408] gt_boxes_data_1_split -> gt_boxes_data_1_split_1
I0418 03:57:09.428128 14114 net.cpp:150] Setting up gt_boxes_data_1_split
I0418 03:57:09.428134 14114 net.cpp:157] Top shape: 1 101 (101)
I0418 03:57:09.428139 14114 net.cpp:157] Top shape: 1 101 (101)
I0418 03:57:09.428143 14114 net.cpp:165] Memory required for data: 346817724
I0418 03:57:09.428145 14114 layer_factory.hpp:77] Creating layer conv1a
I0418 03:57:09.428158 14114 net.cpp:100] Creating Layer conv1a
I0418 03:57:09.428162 14114 net.cpp:434] conv1a <- data_data_0_split_0
I0418 03:57:09.428169 14114 net.cpp:408] conv1a -> conv1a
I0418 03:57:09.623993 14114 net.cpp:150] Setting up conv1a
I0418 03:57:09.624029 14114 net.cpp:157] Top shape: 1 64 768 112 112 (616562688)
I0418 03:57:09.624033 14114 net.cpp:165] Memory required for data: 2813068476
I0418 03:57:09.624053 14114 layer_factory.hpp:77] Creating layer relu1a
I0418 03:57:09.624066 14114 net.cpp:100] Creating Layer relu1a
I0418 03:57:09.624071 14114 net.cpp:434] relu1a <- conv1a
I0418 03:57:09.624078 14114 net.cpp:395] relu1a -> conv1a (in-place)
I0418 03:57:09.624536 14114 net.cpp:150] Setting up relu1a
I0418 03:57:09.624548 14114 net.cpp:157] Top shape: 1 64 768 112 112 (616562688)
I0418 03:57:09.624552 14114 net.cpp:165] Memory required for data: 5279319228
I0418 03:57:09.624557 14114 layer_factory.hpp:77] Creating layer pool1
I0418 03:57:09.624572 14114 net.cpp:100] Creating Layer pool1
I0418 03:57:09.624579 14114 net.cpp:434] pool1 <- conv1a
I0418 03:57:09.624585 14114 net.cpp:408] pool1 -> pool1
I0418 03:57:09.624773 14114 net.cpp:150] Setting up pool1
I0418 03:57:09.624783 14114 net.cpp:157] Top shape: 1 64 768 56 56 (154140672)
I0418 03:57:09.624797 14114 net.cpp:165] Memory required for data: 5895881916
I0418 03:57:09.624802 14114 layer_factory.hpp:77] Creating layer conv2a
I0418 03:57:09.624814 14114 net.cpp:100] Creating Layer conv2a
I0418 03:57:09.624820 14114 net.cpp:434] conv2a <- pool1
I0418 03:57:09.624826 14114 net.cpp:408] conv2a -> conv2a
I0418 03:57:09.636042 14114 net.cpp:150] Setting up conv2a
I0418 03:57:09.636065 14114 net.cpp:157] Top shape: 1 128 768 56 56 (308281344)
I0418 03:57:09.636070 14114 net.cpp:165] Memory required for data: 7129007292
I0418 03:57:09.636080 14114 layer_factory.hpp:77] Creating layer relu2a
I0418 03:57:09.636088 14114 net.cpp:100] Creating Layer relu2a
I0418 03:57:09.636092 14114 net.cpp:434] relu2a <- conv2a
I0418 03:57:09.636098 14114 net.cpp:395] relu2a -> conv2a (in-place)
I0418 03:57:09.636404 14114 net.cpp:150] Setting up relu2a
I0418 03:57:09.636416 14114 net.cpp:157] Top shape: 1 128 768 56 56 (308281344)
I0418 03:57:09.636420 14114 net.cpp:165] Memory required for data: 8362132668
I0418 03:57:09.636425 14114 layer_factory.hpp:77] Creating layer pool2
I0418 03:57:09.636433 14114 net.cpp:100] Creating Layer pool2
I0418 03:57:09.636440 14114 net.cpp:434] pool2 <- conv2a
I0418 03:57:09.636445 14114 net.cpp:408] pool2 -> pool2
I0418 03:57:09.636622 14114 net.cpp:150] Setting up pool2
I0418 03:57:09.636633 14114 net.cpp:157] Top shape: 1 128 384 28 28 (38535168)
I0418 03:57:09.636636 14114 net.cpp:165] Memory required for data: 8516273340
I0418 03:57:09.636641 14114 layer_factory.hpp:77] Creating layer conv3a
I0418 03:57:09.636651 14114 net.cpp:100] Creating Layer conv3a
I0418 03:57:09.636654 14114 net.cpp:434] conv3a <- pool2
I0418 03:57:09.636660 14114 net.cpp:408] conv3a -> conv3a
I0418 03:57:09.662505 14114 net.cpp:150] Setting up conv3a
I0418 03:57:09.662521 14114 net.cpp:157] Top shape: 1 256 384 28 28 (77070336)
I0418 03:57:09.662525 14114 net.cpp:165] Memory required for data: 8824554684
I0418 03:57:09.662535 14114 layer_factory.hpp:77] Creating layer relu3a
I0418 03:57:09.662542 14114 net.cpp:100] Creating Layer relu3a
I0418 03:57:09.662547 14114 net.cpp:434] relu3a <- conv3a
I0418 03:57:09.662552 14114 net.cpp:395] relu3a -> conv3a (in-place)
I0418 03:57:09.662855 14114 net.cpp:150] Setting up relu3a
I0418 03:57:09.662868 14114 net.cpp:157] Top shape: 1 256 384 28 28 (77070336)
I0418 03:57:09.662871 14114 net.cpp:165] Memory required for data: 9132836028
I0418 03:57:09.662883 14114 layer_factory.hpp:77] Creating layer conv3b
I0418 03:57:09.662892 14114 net.cpp:100] Creating Layer conv3b
I0418 03:57:09.662897 14114 net.cpp:434] conv3b <- conv3a
I0418 03:57:09.662904 14114 net.cpp:408] conv3b -> conv3b
I0418 03:57:09.713554 14114 net.cpp:150] Setting up conv3b
I0418 03:57:09.713577 14114 net.cpp:157] Top shape: 1 256 384 28 28 (77070336)
I0418 03:57:09.713582 14114 net.cpp:165] Memory required for data: 9441117372
I0418 03:57:09.713591 14114 layer_factory.hpp:77] Creating layer relu3b
I0418 03:57:09.713600 14114 net.cpp:100] Creating Layer relu3b
I0418 03:57:09.713605 14114 net.cpp:434] relu3b <- conv3b
I0418 03:57:09.713613 14114 net.cpp:395] relu3b -> conv3b (in-place)
I0418 03:57:09.714085 14114 net.cpp:150] Setting up relu3b
I0418 03:57:09.714098 14114 net.cpp:157] Top shape: 1 256 384 28 28 (77070336)
I0418 03:57:09.714102 14114 net.cpp:165] Memory required for data: 9749398716
I0418 03:57:09.714107 14114 layer_factory.hpp:77] Creating layer pool3
I0418 03:57:09.714113 14114 net.cpp:100] Creating Layer pool3
I0418 03:57:09.714118 14114 net.cpp:434] pool3 <- conv3b
I0418 03:57:09.714123 14114 net.cpp:408] pool3 -> pool3
I0418 03:57:09.714293 14114 net.cpp:150] Setting up pool3
I0418 03:57:09.714304 14114 net.cpp:157] Top shape: 1 256 192 14 14 (9633792)
I0418 03:57:09.714308 14114 net.cpp:165] Memory required for data: 9787933884
I0418 03:57:09.714311 14114 layer_factory.hpp:77] Creating layer conv4a
I0418 03:57:09.714323 14114 net.cpp:100] Creating Layer conv4a
I0418 03:57:09.714329 14114 net.cpp:434] conv4a <- pool3
I0418 03:57:09.714335 14114 net.cpp:408] conv4a -> conv4a
I0418 03:57:09.819754 14114 net.cpp:150] Setting up conv4a
I0418 03:57:09.819798 14114 net.cpp:157] Top shape: 1 512 192 14 14 (19267584)
I0418 03:57:09.819808 14114 net.cpp:165] Memory required for data: 9865004220
I0418 03:57:09.819836 14114 layer_factory.hpp:77] Creating layer relu4a
I0418 03:57:09.819856 14114 net.cpp:100] Creating Layer relu4a
I0418 03:57:09.819869 14114 net.cpp:434] relu4a <- conv4a
I0418 03:57:09.819882 14114 net.cpp:395] relu4a -> conv4a (in-place)
I0418 03:57:09.820606 14114 net.cpp:150] Setting up relu4a
I0418 03:57:09.820641 14114 net.cpp:157] Top shape: 1 512 192 14 14 (19267584)
I0418 03:57:09.820649 14114 net.cpp:165] Memory required for data: 9942074556
I0418 03:57:09.820660 14114 layer_factory.hpp:77] Creating layer conv4b
I0418 03:57:09.820688 14114 net.cpp:100] Creating Layer conv4b
I0418 03:57:09.820698 14114 net.cpp:434] conv4b <- conv4a
I0418 03:57:09.820713 14114 net.cpp:408] conv4b -> conv4b
I0418 03:57:10.017565 14114 net.cpp:150] Setting up conv4b
I0418 03:57:10.017592 14114 net.cpp:157] Top shape: 1 512 192 14 14 (19267584)
I0418 03:57:10.017597 14114 net.cpp:165] Memory required for data: 10019144892
I0418 03:57:10.017607 14114 layer_factory.hpp:77] Creating layer relu4b
I0418 03:57:10.017619 14114 net.cpp:100] Creating Layer relu4b
I0418 03:57:10.017624 14114 net.cpp:434] relu4b <- conv4b
I0418 03:57:10.017632 14114 net.cpp:395] relu4b -> conv4b (in-place)
I0418 03:57:10.017782 14114 net.cpp:150] Setting up relu4b
I0418 03:57:10.017793 14114 net.cpp:157] Top shape: 1 512 192 14 14 (19267584)
I0418 03:57:10.017796 14114 net.cpp:165] Memory required for data: 10096215228
I0418 03:57:10.017802 14114 layer_factory.hpp:77] Creating layer pool4
I0418 03:57:10.017809 14114 net.cpp:100] Creating Layer pool4
I0418 03:57:10.017815 14114 net.cpp:434] pool4 <- conv4b
I0418 03:57:10.017822 14114 net.cpp:408] pool4 -> pool4
I0418 03:57:10.018146 14114 net.cpp:150] Setting up pool4
I0418 03:57:10.018158 14114 net.cpp:157] Top shape: 1 512 96 7 7 (2408448)
I0418 03:57:10.018162 14114 net.cpp:165] Memory required for data: 10105849020
I0418 03:57:10.018167 14114 layer_factory.hpp:77] Creating layer conv5a
I0418 03:57:10.018177 14114 net.cpp:100] Creating Layer conv5a
I0418 03:57:10.018180 14114 net.cpp:434] conv5a <- pool4
I0418 03:57:10.018187 14114 net.cpp:408] conv5a -> conv5a
I0418 03:57:10.210948 14114 net.cpp:150] Setting up conv5a
I0418 03:57:10.210975 14114 net.cpp:157] Top shape: 1 512 96 7 7 (2408448)
I0418 03:57:10.210979 14114 net.cpp:165] Memory required for data: 10115482812
I0418 03:57:10.210989 14114 layer_factory.hpp:77] Creating layer relu5a
I0418 03:57:10.210999 14114 net.cpp:100] Creating Layer relu5a
I0418 03:57:10.211005 14114 net.cpp:434] relu5a <- conv5a
I0418 03:57:10.211011 14114 net.cpp:395] relu5a -> conv5a (in-place)
I0418 03:57:10.211436 14114 net.cpp:150] Setting up relu5a
I0418 03:57:10.211447 14114 net.cpp:157] Top shape: 1 512 96 7 7 (2408448)
I0418 03:57:10.211452 14114 net.cpp:165] Memory required for data: 10125116604
I0418 03:57:10.211457 14114 layer_factory.hpp:77] Creating layer conv5b
I0418 03:57:10.211467 14114 net.cpp:100] Creating Layer conv5b
I0418 03:57:10.211472 14114 net.cpp:434] conv5b <- conv5a
I0418 03:57:10.211479 14114 net.cpp:408] conv5b -> conv5b
I0418 03:57:10.400614 14114 net.cpp:150] Setting up conv5b
I0418 03:57:10.400651 14114 net.cpp:157] Top shape: 1 512 96 7 7 (2408448)
I0418 03:57:10.400655 14114 net.cpp:165] Memory required for data: 10134750396
I0418 03:57:10.400665 14114 layer_factory.hpp:77] Creating layer relu5b
I0418 03:57:10.400674 14114 net.cpp:100] Creating Layer relu5b
I0418 03:57:10.400678 14114 net.cpp:434] relu5b <- conv5b
I0418 03:57:10.400687 14114 net.cpp:395] relu5b -> conv5b (in-place)
I0418 03:57:10.400821 14114 net.cpp:150] Setting up relu5b
I0418 03:57:10.400831 14114 net.cpp:157] Top shape: 1 512 96 7 7 (2408448)
I0418 03:57:10.400835 14114 net.cpp:165] Memory required for data: 10144384188
I0418 03:57:10.400838 14114 layer_factory.hpp:77] Creating layer conv5b_relu5b_0_split
I0418 03:57:10.400844 14114 net.cpp:100] Creating Layer conv5b_relu5b_0_split
I0418 03:57:10.400848 14114 net.cpp:434] conv5b_relu5b_0_split <- conv5b
I0418 03:57:10.400854 14114 net.cpp:408] conv5b_relu5b_0_split -> conv5b_relu5b_0_split_0
I0418 03:57:10.400861 14114 net.cpp:408] conv5b_relu5b_0_split -> conv5b_relu5b_0_split_1
I0418 03:57:10.400900 14114 net.cpp:150] Setting up conv5b_relu5b_0_split
I0418 03:57:10.400907 14114 net.cpp:157] Top shape: 1 512 96 7 7 (2408448)
I0418 03:57:10.400912 14114 net.cpp:157] Top shape: 1 512 96 7 7 (2408448)
I0418 03:57:10.400914 14114 net.cpp:165] Memory required for data: 10163651772
I0418 03:57:10.400918 14114 layer_factory.hpp:77] Creating layer rpn_conv/3x3
I0418 03:57:10.400928 14114 net.cpp:100] Creating Layer rpn_conv/3x3
I0418 03:57:10.400933 14114 net.cpp:434] rpn_conv/3x3 <- conv5b_relu5b_0_split_0
I0418 03:57:10.400939 14114 net.cpp:408] rpn_conv/3x3 -> rpn/output
I0418 03:57:10.587911 14114 net.cpp:150] Setting up rpn_conv/3x3
I0418 03:57:10.587937 14114 net.cpp:157] Top shape: 1 512 96 4 4 (786432)
I0418 03:57:10.587941 14114 net.cpp:165] Memory required for data: 10166797500
I0418 03:57:10.587955 14114 layer_factory.hpp:77] Creating layer rpn_relu/3x3
I0418 03:57:10.587965 14114 net.cpp:100] Creating Layer rpn_relu/3x3
I0418 03:57:10.587970 14114 net.cpp:434] rpn_relu/3x3 <- rpn/output
I0418 03:57:10.587975 14114 net.cpp:395] rpn_relu/3x3 -> rpn/output (in-place)
I0418 03:57:10.588259 14114 net.cpp:150] Setting up rpn_relu/3x3
I0418 03:57:10.588271 14114 net.cpp:157] Top shape: 1 512 96 4 4 (786432)
I0418 03:57:10.588275 14114 net.cpp:165] Memory required for data: 10169943228
I0418 03:57:10.588279 14114 layer_factory.hpp:77] Creating layer rpn_conv/3x3_2
I0418 03:57:10.588290 14114 net.cpp:100] Creating Layer rpn_conv/3x3_2
I0418 03:57:10.588294 14114 net.cpp:434] rpn_conv/3x3_2 <- rpn/output
I0418 03:57:10.588300 14114 net.cpp:408] rpn_conv/3x3_2 -> rpn/output_2
I0418 03:57:10.774247 14114 net.cpp:150] Setting up rpn_conv/3x3_2
I0418 03:57:10.774282 14114 net.cpp:157] Top shape: 1 512 96 2 2 (196608)
I0418 03:57:10.774287 14114 net.cpp:165] Memory required for data: 10170729660
I0418 03:57:10.774296 14114 layer_factory.hpp:77] Creating layer rpn_relu/3x3_2
I0418 03:57:10.774305 14114 net.cpp:100] Creating Layer rpn_relu/3x3_2
I0418 03:57:10.774312 14114 net.cpp:434] rpn_relu/3x3_2 <- rpn/output_2
I0418 03:57:10.774319 14114 net.cpp:395] rpn_relu/3x3_2 -> rpn/output_2 (in-place)
I0418 03:57:10.774610 14114 net.cpp:150] Setting up rpn_relu/3x3_2
I0418 03:57:10.774621 14114 net.cpp:157] Top shape: 1 512 96 2 2 (196608)
I0418 03:57:10.774626 14114 net.cpp:165] Memory required for data: 10171516092
I0418 03:57:10.774629 14114 layer_factory.hpp:77] Creating layer rpn/output_pool
I0418 03:57:10.774637 14114 net.cpp:100] Creating Layer rpn/output_pool
I0418 03:57:10.774641 14114 net.cpp:434] rpn/output_pool <- rpn/output_2
I0418 03:57:10.774652 14114 net.cpp:408] rpn/output_pool -> rpn/output_pool
I0418 03:57:10.774839 14114 net.cpp:150] Setting up rpn/output_pool
I0418 03:57:10.774849 14114 net.cpp:157] Top shape: 1 512 96 1 1 (49152)
I0418 03:57:10.774853 14114 net.cpp:165] Memory required for data: 10171712700
I0418 03:57:10.774857 14114 layer_factory.hpp:77] Creating layer rpn/output_pool_rpn/output_pool_0_split
I0418 03:57:10.774866 14114 net.cpp:100] Creating Layer rpn/output_pool_rpn/output_pool_0_split
I0418 03:57:10.774873 14114 net.cpp:434] rpn/output_pool_rpn/output_pool_0_split <- rpn/output_pool
I0418 03:57:10.774878 14114 net.cpp:408] rpn/output_pool_rpn/output_pool_0_split -> rpn/output_pool_rpn/output_pool_0_split_0
I0418 03:57:10.774883 14114 net.cpp:408] rpn/output_pool_rpn/output_pool_0_split -> rpn/output_pool_rpn/output_pool_0_split_1
I0418 03:57:10.774916 14114 net.cpp:150] Setting up rpn/output_pool_rpn/output_pool_0_split
I0418 03:57:10.774922 14114 net.cpp:157] Top shape: 1 512 96 1 1 (49152)
I0418 03:57:10.774927 14114 net.cpp:157] Top shape: 1 512 96 1 1 (49152)
I0418 03:57:10.774930 14114 net.cpp:165] Memory required for data: 10172105916
I0418 03:57:10.774933 14114 layer_factory.hpp:77] Creating layer rpn_cls_score
I0418 03:57:10.774943 14114 net.cpp:100] Creating Layer rpn_cls_score
I0418 03:57:10.774950 14114 net.cpp:434] rpn_cls_score <- rpn/output_pool_rpn/output_pool_0_split_0
I0418 03:57:10.774957 14114 net.cpp:408] rpn_cls_score -> rpn_cls_score
I0418 03:57:10.776973 14114 net.cpp:150] Setting up rpn_cls_score
I0418 03:57:10.776986 14114 net.cpp:157] Top shape: 1 74 96 1 1 (7104)
I0418 03:57:10.776990 14114 net.cpp:165] Memory required for data: 10172134332
I0418 03:57:10.776996 14114 layer_factory.hpp:77] Creating layer rpn_cls_score_rpn_cls_score_0_split
I0418 03:57:10.777003 14114 net.cpp:100] Creating Layer rpn_cls_score_rpn_cls_score_0_split
I0418 03:57:10.777006 14114 net.cpp:434] rpn_cls_score_rpn_cls_score_0_split <- rpn_cls_score
I0418 03:57:10.777012 14114 net.cpp:408] rpn_cls_score_rpn_cls_score_0_split -> rpn_cls_score_rpn_cls_score_0_split_0
I0418 03:57:10.777019 14114 net.cpp:408] rpn_cls_score_rpn_cls_score_0_split -> rpn_cls_score_rpn_cls_score_0_split_1
I0418 03:57:10.777061 14114 net.cpp:150] Setting up rpn_cls_score_rpn_cls_score_0_split
I0418 03:57:10.777070 14114 net.cpp:157] Top shape: 1 74 96 1 1 (7104)
I0418 03:57:10.777073 14114 net.cpp:157] Top shape: 1 74 96 1 1 (7104)
I0418 03:57:10.777081 14114 net.cpp:165] Memory required for data: 10172191164
I0418 03:57:10.777083 14114 layer_factory.hpp:77] Creating layer rpn_twin_pred
I0418 03:57:10.777097 14114 net.cpp:100] Creating Layer rpn_twin_pred
I0418 03:57:10.777101 14114 net.cpp:434] rpn_twin_pred <- rpn/output_pool_rpn/output_pool_0_split_1
I0418 03:57:10.777108 14114 net.cpp:408] rpn_twin_pred -> rpn_twin_pred
I0418 03:57:10.779006 14114 net.cpp:150] Setting up rpn_twin_pred
I0418 03:57:10.779019 14114 net.cpp:157] Top shape: 1 74 96 1 1 (7104)
I0418 03:57:10.779022 14114 net.cpp:165] Memory required for data: 10172219580
I0418 03:57:10.779029 14114 layer_factory.hpp:77] Creating layer rpn_twin_pred_rpn_twin_pred_0_split
I0418 03:57:10.779034 14114 net.cpp:100] Creating Layer rpn_twin_pred_rpn_twin_pred_0_split
I0418 03:57:10.779038 14114 net.cpp:434] rpn_twin_pred_rpn_twin_pred_0_split <- rpn_twin_pred
I0418 03:57:10.779043 14114 net.cpp:408] rpn_twin_pred_rpn_twin_pred_0_split -> rpn_twin_pred_rpn_twin_pred_0_split_0
I0418 03:57:10.779049 14114 net.cpp:408] rpn_twin_pred_rpn_twin_pred_0_split -> rpn_twin_pred_rpn_twin_pred_0_split_1
I0418 03:57:10.779088 14114 net.cpp:150] Setting up rpn_twin_pred_rpn_twin_pred_0_split
I0418 03:57:10.779095 14114 net.cpp:157] Top shape: 1 74 96 1 1 (7104)
I0418 03:57:10.779100 14114 net.cpp:157] Top shape: 1 74 96 1 1 (7104)
I0418 03:57:10.779103 14114 net.cpp:165] Memory required for data: 10172276412
I0418 03:57:10.779106 14114 layer_factory.hpp:77] Creating layer rpn_cls_score_reshape
I0418 03:57:10.779119 14114 net.cpp:100] Creating Layer rpn_cls_score_reshape
I0418 03:57:10.779124 14114 net.cpp:434] rpn_cls_score_reshape <- rpn_cls_score_rpn_cls_score_0_split_0
I0418 03:57:10.779129 14114 net.cpp:408] rpn_cls_score_reshape -> rpn_cls_score_reshape
I0418 03:57:10.779157 14114 net.cpp:150] Setting up rpn_cls_score_reshape
I0418 03:57:10.779165 14114 net.cpp:157] Top shape: 1 2 3552 1 1 (7104)
I0418 03:57:10.779168 14114 net.cpp:165] Memory required for data: 10172304828
I0418 03:57:10.779172 14114 layer_factory.hpp:77] Creating layer rpn_cls_score_reshape_rpn_cls_score_reshape_0_split
I0418 03:57:10.779176 14114 net.cpp:100] Creating Layer rpn_cls_score_reshape_rpn_cls_score_reshape_0_split
I0418 03:57:10.779181 14114 net.cpp:434] rpn_cls_score_reshape_rpn_cls_score_reshape_0_split <- rpn_cls_score_reshape
I0418 03:57:10.779186 14114 net.cpp:408] rpn_cls_score_reshape_rpn_cls_score_reshape_0_split -> rpn_cls_score_reshape_rpn_cls_score_reshape_0_split_0
I0418 03:57:10.779194 14114 net.cpp:408] rpn_cls_score_reshape_rpn_cls_score_reshape_0_split -> rpn_cls_score_reshape_rpn_cls_score_reshape_0_split_1
I0418 03:57:10.779199 14114 net.cpp:408] rpn_cls_score_reshape_rpn_cls_score_reshape_0_split -> rpn_cls_score_reshape_rpn_cls_score_reshape_0_split_2
I0418 03:57:10.779240 14114 net.cpp:150] Setting up rpn_cls_score_reshape_rpn_cls_score_reshape_0_split
I0418 03:57:10.779248 14114 net.cpp:157] Top shape: 1 2 3552 1 1 (7104)
I0418 03:57:10.779253 14114 net.cpp:157] Top shape: 1 2 3552 1 1 (7104)
I0418 03:57:10.779255 14114 net.cpp:157] Top shape: 1 2 3552 1 1 (7104)
I0418 03:57:10.779259 14114 net.cpp:165] Memory required for data: 10172390076
I0418 03:57:10.779263 14114 layer_factory.hpp:77] Creating layer rpn-data
I0418 03:57:10.779677 14114 net.cpp:100] Creating Layer rpn-data
I0418 03:57:10.779690 14114 net.cpp:434] rpn-data <- rpn_cls_score_rpn_cls_score_0_split_1
I0418 03:57:10.779695 14114 net.cpp:434] rpn-data <- gt_boxes_data_1_split_0
I0418 03:57:10.779700 14114 net.cpp:434] rpn-data <- data_data_0_split_1
I0418 03:57:10.779706 14114 net.cpp:408] rpn-data -> rpn_labels
I0418 03:57:10.779712 14114 net.cpp:408] rpn-data -> rpn_twin_targets
I0418 03:57:10.779721 14114 net.cpp:408] rpn-data -> rpn_twin_inside_weights
I0418 03:57:10.779727 14114 net.cpp:408] rpn-data -> rpn_twin_outside_weights
I0418 03:57:10.781980 14114 net.cpp:150] Setting up rpn-data
I0418 03:57:10.781994 14114 net.cpp:157] Top shape: 1 1 3552 1 1 (3552)
I0418 03:57:10.781999 14114 net.cpp:157] Top shape: 1 74 96 1 1 (7104)
I0418 03:57:10.782002 14114 net.cpp:157] Top shape: 1 74 96 1 1 (7104)
I0418 03:57:10.782006 14114 net.cpp:157] Top shape: 1 74 96 1 1 (7104)
I0418 03:57:10.782009 14114 net.cpp:165] Memory required for data: 10172489532
I0418 03:57:10.782014 14114 layer_factory.hpp:77] Creating layer rpn_labels_rpn-data_0_split
I0418 03:57:10.782019 14114 net.cpp:100] Creating Layer rpn_labels_rpn-data_0_split
I0418 03:57:10.782023 14114 net.cpp:434] rpn_labels_rpn-data_0_split <- rpn_labels
I0418 03:57:10.782032 14114 net.cpp:408] rpn_labels_rpn-data_0_split -> rpn_labels_rpn-data_0_split_0
I0418 03:57:10.782040 14114 net.cpp:408] rpn_labels_rpn-data_0_split -> rpn_labels_rpn-data_0_split_1
I0418 03:57:10.782078 14114 net.cpp:150] Setting up rpn_labels_rpn-data_0_split
I0418 03:57:10.782085 14114 net.cpp:157] Top shape: 1 1 3552 1 1 (3552)
I0418 03:57:10.782089 14114 net.cpp:157] Top shape: 1 1 3552 1 1 (3552)
I0418 03:57:10.782093 14114 net.cpp:165] Memory required for data: 10172517948
I0418 03:57:10.782096 14114 layer_factory.hpp:77] Creating layer rpn_loss_cls
I0418 03:57:10.782104 14114 net.cpp:100] Creating Layer rpn_loss_cls
I0418 03:57:10.782109 14114 net.cpp:434] rpn_loss_cls <- rpn_cls_score_reshape_rpn_cls_score_reshape_0_split_0
I0418 03:57:10.782114 14114 net.cpp:434] rpn_loss_cls <- rpn_labels_rpn-data_0_split_0
…
I0418 03:57:10.782687 14114 layer_factory.hpp:77] Creating layer rpn_accuarcy
I0418 03:57:10.782696 14114 net.cpp:100] Creating Layer rpn_accuarcy
I0418 03:57:10.782699 14114 net.cpp:434] rpn_accuarcy <- rpn_cls_score_reshape_rpn_cls_score_reshape_0_split_1
I0418 03:57:10.782704 14114 net.cpp:434] rpn_accuarcy <- rpn_labels_rpn-data_0_split_1
I0418 03:57:10.782711 14114 net.cpp:408] rpn_accuarcy -> rpn_accuarcy
I0418 03:57:10.782716 14114 net.cpp:408] rpn_accuarcy -> rpn_accuarcy_class
I0418 03:57:10.782752 14114 net.cpp:150] Setting up rpn_accuarcy
I0418 03:57:10.782778 14114 net.cpp:157] Top shape: (1)
I0418 03:57:10.782783 14114 net.cpp:157] Top shape: 2 (2)
I0418 03:57:10.782786 14114 net.cpp:165] Memory required for data: 10172517968
I0418 03:57:10.782789 14114 layer_factory.hpp:77] Creating layer rpn_cls_prob
I0418 03:57:10.782795 14114 net.cpp:100] Creating Layer rpn_cls_prob
I0418 03:57:10.782799 14114 net.cpp:434] rpn_cls_prob <- rpn_cls_score_reshape_rpn_cls_score_reshape_0_split_2
I0418 03:57:10.782804 14114 net.cpp:408] rpn_cls_prob -> rpn_cls_prob
I0418 03:57:10.783007 14114 net.cpp:150] Setting up rpn_cls_prob
I0418 03:57:10.783020 14114 net.cpp:157] Top shape: 1 2 3552 1 1 (7104)
I0418 03:57:10.783022 14114 net.cpp:165] Memory required for data: 10172546384
I0418 03:57:10.783026 14114 layer_factory.hpp:77] Creating layer rpn_cls_prob_reshape
I0418 03:57:10.783032 14114 net.cpp:100] Creating Layer rpn_cls_prob_reshape
I0418 03:57:10.783036 14114 net.cpp:434] rpn_cls_prob_reshape <- rpn_cls_prob
I0418 03:57:10.783041 14114 net.cpp:408] rpn_cls_prob_reshape -> rpn_cls_prob_reshape
I0418 03:57:10.783066 14114 net.cpp:150] Setting up rpn_cls_prob_reshape
I0418 03:57:10.783073 14114 net.cpp:157] Top shape: 1 74 96 1 1 (7104)
I0418 03:57:10.783077 14114 net.cpp:165] Memory required for data: 10172574800
I0418 03:57:10.783079 14114 layer_factory.hpp:77] Creating layer proposal
I0418 03:57:10.783624 14114 net.cpp:100] Creating Layer proposal
I0418 03:57:10.783637 14114 net.cpp:434] proposal <- rpn_cls_prob_reshape
I0418 03:57:10.783643 14114 net.cpp:434] proposal <- rpn_twin_pred_rpn_twin_pred_0_split_1
I0418 03:57:10.783648 14114 net.cpp:408] proposal -> rpn_rois
I0418 03:57:10.785785 14114 net.cpp:150] Setting up proposal
I0418 03:57:10.785799 14114 net.cpp:157] Top shape: 1 3 (3)
I0418 03:57:10.785804 14114 net.cpp:165] Memory required for data: 10172574812
I0418 03:57:10.785807 14114 layer_factory.hpp:77] Creating layer roi-data
I0418 03:57:10.785938 14114 net.cpp:100] Creating Layer roi-data
I0418 03:57:10.785950 14114 net.cpp:434] roi-data <- rpn_rois
I0418 03:57:10.785955 14114 net.cpp:434] roi-data <- gt_boxes_data_1_split_1
I0418 03:57:10.785961 14114 net.cpp:408] roi-data -> rois
I0418 03:57:10.785969 14114 net.cpp:408] roi-data -> labels
I0418 03:57:10.785974 14114 net.cpp:408] roi-data -> twin_targets
I0418 03:57:10.785979 14114 net.cpp:408] roi-data -> twin_inside_weights
I0418 03:57:10.785984 14114 net.cpp:408] roi-data -> twin_outside_weights
I0418 03:57:10.786283 14114 net.cpp:150] Setting up roi-data
I0418 03:57:10.786296 14114 net.cpp:157] Top shape: 1 3 (3)
I0418 03:57:10.786300 14114 net.cpp:157] Top shape: 1 1 (1)
I0418 03:57:10.786304 14114 net.cpp:157] Top shape: 1 198 (198)
I0418 03:57:10.786308 14114 net.cpp:157] Top shape: 1 198 (198)
I0418 03:57:10.786311 14114 net.cpp:157] Top shape: 1 198 (198)
I0418 03:57:10.786314 14114 net.cpp:165] Memory required for data: 10172577204
I0418 03:57:10.786319 14114 layer_factory.hpp:77] Creating layer labels_roi-data_1_split
I0418 03:57:10.786324 14114 net.cpp:100] Creating Layer labels_roi-data_1_split
I0418 03:57:10.786327 14114 net.cpp:434] labels_roi-data_1_split <- labels
I0418 03:57:10.786332 14114 net.cpp:408] labels_roi-data_1_split -> labels_roi-data_1_split_0
I0418 03:57:10.786339 14114 net.cpp:408] labels_roi-data_1_split -> labels_roi-data_1_split_1
I0418 03:57:10.786370 14114 net.cpp:150] Setting up labels_roi-data_1_split
I0418 03:57:10.786377 14114 net.cpp:157] Top shape: 1 1 (1)
I0418 03:57:10.786381 14114 net.cpp:157] Top shape: 1 1 (1)
I0418 03:57:10.786384 14114 net.cpp:165] Memory required for data: 10172577212
I0418 03:57:10.786387 14114 layer_factory.hpp:77] Creating layer roi_pool5
I0418 03:57:10.786396 14114 net.cpp:100] Creating Layer roi_pool5
I0418 03:57:10.786403 14114 net.cpp:434] roi_pool5 <- conv5b_relu5b_0_split_1
I0418 03:57:10.786408 14114 net.cpp:434] roi_pool5 <- rois
I0418 03:57:10.786413 14114 net.cpp:408] roi_pool5 -> pool5
I0418 03:57:10.786420 14114 roi_pooling_layer.cpp:34] Temporal scale: 0.125
I0418 03:57:10.786428 14114 roi_pooling_layer.cpp:35] Spatial scale: 0.0625
I0418 03:57:10.786461 14114 net.cpp:150] Setting up roi_pool5
I0418 03:57:10.786468 14114 net.cpp:157] Top shape: 1 512 1 4 4 (8192)
I0418 03:57:10.786471 14114 net.cpp:165] Memory required for data: 10172609980
I0418 03:57:10.786479 14114 layer_factory.hpp:77] Creating layer fc6
I0418 03:57:10.786487 14114 net.cpp:100] Creating Layer fc6
I0418 03:57:10.786491 14114 net.cpp:434] fc6 <- pool5
I0418 03:57:10.786496 14114 net.cpp:408] fc6 -> fc6
I0418 03:57:11.670908 14114 net.cpp:150] Setting up fc6
I0418 03:57:11.670933 14114 net.cpp:157] Top shape: 1 4096 (4096)
I0418 03:57:11.670935 14114 net.cpp:165] Memory required for data: 10172626364
I0418 03:57:11.670946 14114 layer_factory.hpp:77] Creating layer relu6
I0418 03:57:11.670956 14114 net.cpp:100] Creating Layer relu6
I0418 03:57:11.670963 14114 net.cpp:434] relu6 <- fc6
I0418 03:57:11.670969 14114 net.cpp:395] relu6 -> fc6 (in-place)
I0418 03:57:11.671371 14114 net.cpp:150] Setting up relu6
I0418 03:57:11.671383 14114 net.cpp:157] Top shape: 1 4096 (4096)
I0418 03:57:11.671391 14114 net.cpp:165] Memory required for data: 10172642748
I0418 03:57:11.671393 14114 layer_factory.hpp:77] Creating layer drop6
I0418 03:57:11.671406 14114 net.cpp:100] Creating Layer drop6
I0418 03:57:11.671409 14114 net.cpp:434] drop6 <- fc6
I0418 03:57:11.671413 14114 net.cpp:395] drop6 -> fc6 (in-place)
I0418 03:57:11.671442 14114 net.cpp:150] Setting up drop6
I0418 03:57:11.671449 14114 net.cpp:157] Top shape: 1 4096 (4096)
I0418 03:57:11.671452 14114 net.cpp:165] Memory required for data: 10172659132
I0418 03:57:11.671455 14114 layer_factory.hpp:77] Creating layer fc6_drop6_0_split
I0418 03:57:11.671460 14114 net.cpp:100] Creating Layer fc6_drop6_0_split
I0418 03:57:11.671464 14114 net.cpp:434] fc6_drop6_0_split <- fc6
I0418 03:57:11.671470 14114 net.cpp:408] fc6_drop6_0_split -> fc6_drop6_0_split_0
I0418 03:57:11.671476 14114 net.cpp:408] fc6_drop6_0_split -> fc6_drop6_0_split_1
I0418 03:57:11.671509 14114 net.cpp:150] Setting up fc6_drop6_0_split
I0418 03:57:11.671517 14114 net.cpp:157] Top shape: 1 4096 (4096)
I0418 03:57:11.671521 14114 net.cpp:157] Top shape: 1 4096 (4096)
I0418 03:57:11.671525 14114 net.cpp:165] Memory required for data: 10172691900
I0418 03:57:11.671528 14114 layer_factory.hpp:77] Creating layer cls_score
I0418 03:57:11.671535 14114 net.cpp:100] Creating Layer cls_score
I0418 03:57:11.671538 14114 net.cpp:434] cls_score <- fc6_drop6_0_split_0
I0418 03:57:11.671550 14114 net.cpp:408] cls_score -> cls_score
I0418 03:57:11.682420 14114 net.cpp:150] Setting up cls_score
I0418 03:57:11.682433 14114 net.cpp:157] Top shape: 1 99 (99)
I0418 03:57:11.682437 14114 net.cpp:165] Memory required for data: 10172692296
I0418 03:57:11.682443 14114 layer_factory.hpp:77] Creating layer cls_score_cls_score_0_split
I0418 03:57:11.682451 14114 net.cpp:100] Creating Layer cls_score_cls_score_0_split
I0418 03:57:11.682454 14114 net.cpp:434] cls_score_cls_score_0_split <- cls_score
I0418 03:57:11.682459 14114 net.cpp:408] cls_score_cls_score_0_split -> cls_score_cls_score_0_split_0
I0418 03:57:11.682466 14114 net.cpp:408] cls_score_cls_score_0_split -> cls_score_cls_score_0_split_1
I0418 03:57:11.682498 14114 net.cpp:150] Setting up cls_score_cls_score_0_split
I0418 03:57:11.682505 14114 net.cpp:157] Top shape: 1 99 (99)
I0418 03:57:11.682509 14114 net.cpp:157] Top shape: 1 99 (99)
I0418 03:57:11.682513 14114 net.cpp:165] Memory required for data: 10172693088
I0418 03:57:11.682516 14114 layer_factory.hpp:77] Creating layer twin_pred
I0418 03:57:11.682523 14114 net.cpp:100] Creating Layer twin_pred
I0418 03:57:11.682526 14114 net.cpp:434] twin_pred <- fc6_drop6_0_split_1
I0418 03:57:11.682534 14114 net.cpp:408] twin_pred -> twin_pred
I0418 03:57:11.703881 14114 net.cpp:150] Setting up twin_pred
I0418 03:57:11.703893 14114 net.cpp:157] Top shape: 1 198 (198)
I0418 03:57:11.703896 14114 net.cpp:165] Memory required for data: 10172693880
I0418 03:57:11.703903 14114 layer_factory.hpp:77] Creating layer loss_cls
I0418 03:57:11.703909 14114 net.cpp:100] Creating Layer loss_cls
I0418 03:57:11.703913 14114 net.cpp:434] loss_cls <- cls_score_cls_score_0_split_0
I0418 03:57:11.703918 14114 net.cpp:434] loss_cls <- labels_roi-data_1_split_0
I0418 03:57:11.703925 14114 net.cpp:408] loss_cls -> loss_cls
…
