…
stepsize: 350000
snapshot: 0
snapshot_prefix: "./experiments/activitynet/snapshot/activitynet"
average_loss: 100
iter_size: 1
I0418 04:23:41.331605 15317 solver.cpp:81] Creating training net from train_net file: ./experiments/activitynet/train.prototxt
I0418 04:23:41.332706 15317 net.cpp:58] Initializing net from parameters: 
name: "activitynet"
state {
  phase: TRAIN
}
layer {
  name: "data"
  type: "Python"
  top: "data"
  top: "gt_boxes"
  python_param {
    module: "roi_data_layer.layer"
    layer: "RoIDataLayer"
    param_str: "\'num_classes\': 100"
  }
}
layer {
  name: "conv1a"
  type: "Convolution"
  bottom: "data"
  top: "conv1a"
  param {
    lr_mult: 0
    decay_mult: 0
  }
  param {
    lr_mult: 0
    decay_mult: 0
  }
  convolution_param {
    num_output: 64
    pad: 1
    pad: 1
    pad: 1
    kernel_size: 3
    kernel_size: 3
    kernel_size: 3
    weight_filler {
      type: "gaussian"
      std: 0.01
    }
    bias_filler {
      type: "constant"
      value: 0
    }
  }
}
layer {
  name: "relu1a"
  type: "ReLU"
  bottom: "conv1a"
  top: "conv1a"
}
layer {
  name: "pool1"
  type: "Pooling"
  bottom: "conv1a"
  top: "pool1"
  pooling_param {
    pool: MAX
    kernel_size: 1
    kernel_size: 2
    kernel_size: 2
    stride: 1
    stride: 2
    stride: 2
  }
}
layer {
  name: "conv2a"
  type: "Convolution"
  bottom: "pool1"
  top: "conv2a"
  param {
    lr_mult: 0
    decay_mult: 0
  }
  param {
    lr_mult: 0
    decay_mult: 0
  }
  convolution_param {
    num_output: 128
    pad: 1
    pad: 1
    pad: 1
    kernel_size: 3
    kernel_size: 3
    kernel_size: 3
    weight_filler {
      type: "gaussian"
      std: 0.01
    }
    bias_filler {
      type: "constant"
      value: 1
    }
  }
}
layer {
  name: "relu2a"
  type: "ReLU"
  bottom: "conv2a"
  top: "conv2a"
}
layer {
  name: "pool2"
  type: "Pooling"
  bottom: "conv2a"
  top: "pool2"
  pooling_param {
    pool: MAX
    kernel_size: 2
    kernel_size: 2
    kernel_size: 2
    stride: 2
    stride: 2
    stride: 2
  }
}
layer {
  name: "conv3a"
  type: "Convolution"
  bottom: "pool2"
  top: "conv3a"
  param {
    lr_mult: 1
    decay_mult: 1
  }
  param {
    lr_mult: 2
    decay_mult: 0
  }
  convolution_param {
    num_output: 256
    pad: 1
    pad: 1
    pad: 1
    kernel_size: 3
    kernel_size: 3
    kernel_size: 3
    weight_filler {
      type: "gaussian"
      std: 0.01
    }
    bias_filler {
      type: "constant"
      value: 1
    }
  }
}
layer {
  name: "relu3a"
  type: "ReLU"
  bottom: "conv3a"
  top: "conv3a"
}
layer {
  name: "conv3b"
  type: "Convolution"
  bottom: "conv3a"
  top: "conv3b"
  param {
    lr_mult: 1
    decay_mult: 1
  }
  param {
    lr_mult: 2
    decay_mult: 0
  }
  convolution_param {
    num_output: 256
    pad: 1
    pad: 1
    pad: 1
    kernel_size: 3
    kernel_size: 3
    kernel_size: 3
    weight_filler {
      type: "gaussian"
      std: 0.01
    }
    bias_filler {
      type: "constant"
      value: 1
    }
  }
}
layer {
  name: "relu3b"
  type: "ReLU"
  bottom: "conv3b"
  top: "conv3b"
}
layer {
  name: "pool3"
  type: "Pooling"
  bottom: "conv3b"
  top: "pool3"
  pooling_param {
    pool: MAX
    kernel_size: 2
    kernel_size: 2
    kernel_size: 2
    stride: 2
    stride: 2
    stride: 2
  }
}
layer {
  name: "conv4a"
  type: "Convolution"
  bottom: "pool3"
  top: "conv4a"
  param {
    lr_mult: 1
    decay_mult: 1
  }
  param {
    lr_mult: 2
    decay_mult: 0
  }
  convolution_param {
    num_output: 512
    pad: 1
    pad: 1
    pad: 1
    kernel_size: 3
    kernel_size: 3
    kernel_size: 3
    weight_filler {
      type: "gaussian"
      std: 0.01
    }
    bias_filler {
      type: "constant"
      value: 1
    }
  }
}
layer {
  name: "relu4a"
  type: "ReLU"
  bottom: "conv4a"
  top: "conv4a"
}
layer {
  name: "conv4b"
  type: "Convolution"
  bottom: "conv4a"
  top: "conv4b"
  param {
    lr_mult: 1
    decay_mult: 1
  }
  param {
    lr_mult: 2
    decay_mult: 0
  }
  convolution_param {
    num_output: 512
    pad: 1
    pad: 1
    pad: 1
    kernel_size: 3
    kernel_size: 3
    kernel_size: 3
    weight_filler {
      type: "gaussian"
      std: 0.01
    }
    bias_filler {
      type: "constant"
      value: 1
    }
  }
}
layer {
  name: "relu4b"
  type: "ReLU"
  bottom: "conv4b"
  top: "conv4b"
}
layer {
  name: "pool4"
  type: "Pooling"
  bottom: "conv4b"
  top: "pool4"
  pooling_param {
    pool: MAX
    kernel_size: 2
    kernel_size: 2
    kernel_size: 2
    stride: 2
    stride: 2
    stride: 2
  }
}
layer {
  name: "conv5a"
  type: "Convolution"
  bottom: "pool4"
  top: "conv5a"
  param {
    lr_mult: 1
    decay_mult: 1
  }
  param {
    lr_mult: 2
    decay_mult: 0
  }
  convolution_param {
    num_output: 512
    pad: 1
    pad: 1
    pad: 1
    kernel_size: 3
    kernel_size: 3
    kernel_size: 3
    weight_filler {
      type: "gaussian"
      std: 0.01
    }
    bias_filler {
      type: "constant"
      value: 1
    }
  }
}
layer {
  name: "relu5a"
  type: "ReLU"
  bottom: "conv5a"
  top: "conv5a"
}
layer {
  name: "conv5b"
  type: "Convolution"
  bottom: "conv5a"
  top: "conv5b"
  param {
    lr_mult: 1
    decay_mult: 1
  }
  param {
    lr_mult: 2
    decay_mult: 0
  }
  convolution_param {
    num_output: 512
    pad: 1
    pad: 1
    pad: 1
    kernel_size: 3
    kernel_size: 3
    kernel_size: 3
    weight_filler {
      type: "gaussian"
      std: 0.01
    }
    bias_filler {
      type: "constant"
      value: 1
    }
  }
}
layer {
  name: "relu5b"
  type: "ReLU"
  bottom: "conv5b"
  top: "conv5b"
}
layer {
  name: "rpn_conv/3x3"
  type: "Convolution"
  bottom: "conv5b"
  top: "rpn/output"
  param {
    lr_mult: 1
    decay_mult: 1
  }
  param {
    lr_mult: 2
    decay_mult: 0
  }
  convolution_param {
    num_output: 512
    pad: 1
    pad: 1
    pad: 1
    kernel_size: 3
    kernel_size: 3
    kernel_size: 3
    stride: 1
    stride: 2
    stride: 2
    weight_filler {
      type: "gaussian"
      std: 0.01
    }
    bias_filler {
      type: "constant"
      value: 0
    }
  }
}
layer {
  name: "rpn_relu/3x3"
  type: "ReLU"
  bottom: "rpn/output"
  top: "rpn/output"
}
layer {
  name: "rpn_conv/3x3_2"
  type: "Convolution"
  bottom: "rpn/output"
  top: "rpn/output_2"
  param {
    lr_mult: 1
    decay_mult: 1
  }
  param {
    lr_mult: 2
    decay_mult: 0
  }
  convolution_param {
    num_output: 512
    pad: 1
    pad: 1
    pad: 1
    kernel_size: 3
    kernel_size: 3
    kernel_size: 3
    stride: 1
    stride: 2
    stride: 2
    weight_filler {
      type: "gaussian"
      std: 0.01
    }
    bias_filler {
      type: "constant"
      value: 0
    }
  }
}
layer {
  name: "rpn_relu/3x3_2"
  type: "ReLU"
  bottom: "rpn/output_2"
  top: "rpn/output_2"
}
layer {
  name: "rpn/output_pool"
  type: "Pooling"
  bottom: "rpn/output_2"
  top: "rpn/output_pool"
  pooling_param {
    pool: MAX
    kernel_size: 1
    kernel_size: 2
    kernel_size: 2
  }
}
layer {
  name: "rpn_cls_score"
  type: "Convolution"
  bottom: "rpn/output_pool"
  top: "rpn_cls_score"
  param {
    lr_mult: 1
    decay_mult: 1
  }
  param {
    lr_mult: 2
    decay_mult: 0
  }
  convolution_param {
    num_output: 74
    kernel_size: 1
    kernel_size: 1
    kernel_size: 1
    weight_filler {
      type: "gaussian"
      std: 0.01
    }
    bias_filler {
      type: "constant"
      value: 0
    }
  }
}
layer {
  name: "rpn_twin_pred"
  type: "Convolution"
  bottom: "rpn/output_pool"
  top: "rpn_twin_pred"
  param {
    lr_mult: 1
    decay_mult: 1
  }
  param {
    lr_mult: 2
    decay_mult: 0
  }
  convolution_param {
    num_output: 74
    kernel_size: 1
    kernel_size: 1
    kernel_size: 1
    weight_filler {
      type: "gaussian"
      std: 0.01
    }
    bias_filler {
      type: "constant"
      value: 0
    }
  }
}
layer {
  name: "rpn_cls_score_reshape"
  type: "Reshape"
  bottom: "rpn_cls_score"
  top: "rpn_cls_score_reshape"
  reshape_param {
    shape {
      dim: 0
      dim: 2
      dim: -1
      dim: 0
      dim: 0
    }
  }
}
layer {
  name: "rpn-data"
  type: "Python"
  bottom: "rpn_cls_score"
  bottom: "gt_boxes"
  bottom: "data"
  top: "rpn_labels"
  top: "rpn_twin_targets"
  top: "rpn_twin_inside_weights"
  top: "rpn_twin_outside_weights"
  python_param {
    module: "rpn.anchor_target_layer"
    layer: "AnchorTargetLayer"
    param_str: "\'feat_stride\': 8 \n\'scales\': !!python/tuple [1,1.25, 1.5,1.75, 2,2.5, 3,3.5, 4,4.5, 5,5.5, 6,7, 8,9,10,11,12,14,16,18,20,22,24,28,32,36,40,44,52,60,68,76,84,92,100]"
  }
}
layer {
  name: "rpn_loss_cls"
  type: "SoftmaxWithLoss"
  bottom: "rpn_cls_score_reshape"
  bottom: "rpn_labels"
  top: "rpn_cls_loss"
  loss_weight: 1
  propagate_down: true
  propagate_down: false
  loss_param {
    ignore_label: -1
    normalize: true
  }
}
layer {
  name: "rpn_loss_twin"
  type: "SmoothL1Loss"
  bottom: "rpn_twin_pred"
  bottom: "rpn_twin_targets"
  bottom: "rpn_twin_inside_weights"
  bottom: "rpn_twin_outside_weights"
  top: "rpn_loss_twin"
  loss_weight: 1
  smooth_l1_loss_param {
    sigma: 3
  }
}
layer {
  name: "rpn_accuarcy"
  type: "Accuracy"
  bottom: "rpn_cls_score_reshape"
  bottom: "rpn_labels"
  top: "rpn_accuarcy"
  top: "rpn_accuarcy_class"
  propagate_down: false
  propagate_down: false
  accuracy_param {
    ignore_label: -1
  }
}
layer {
  name: "rpn_cls_prob"
  type: "Softmax"
  bottom: "rpn_cls_score_reshape"
  top: "rpn_cls_prob"
}
layer {
  name: "rpn_cls_prob_reshape"
  type: "Reshape"
  bottom: "rpn_cls_prob"
  top: "rpn_cls_prob_reshape"
  reshape_param {
    shape {
      dim: 0
      dim: 74
      dim: -1
      dim: 0
      dim: 0
    }
  }
}
layer {
  name: "proposal"
  type: "Python"
  bottom: "rpn_cls_prob_reshape"
  bottom: "rpn_twin_pred"
  top: "rpn_rois"
  include {
    phase: TRAIN
  }
  python_param {
    module: "rpn.proposal_layer"
    layer: "ProposalLayer"
    param_str: "\'feat_stride\': 8 \n\'scales\': !!python/tuple [1,1.25, 1.5,1.75, 2,2.5, 3,3.5, 4,4.5, 5,5.5, 6,7, 8,9,10,11,12,14,16,18,20,22,24,28,32,36,40,44,52,60,68,76,84,92,100]"
  }
}
layer {
  name: "roi-data"
  type: "Python"
  bottom: "rpn_rois"
  bottom: "gt_boxes"
  top: "rois"
  top: "labels"
  top: "twin_targets"
  top: "twin_inside_weights"
  top: "twin_outside_weights"
  python_param {
    module: "rpn.proposal_target_layer"
    layer: "ProposalTargetLayer"
    param_str: "\'num_classes\': 99"
  }
}
layer {
  name: "roi_pool5"
  type: "ROIPooling"
  bottom: "conv5b"
  bottom: "rois"
  top: "pool5"
  roi_pooling_param {
    pooled_h: 4
    pooled_w: 4
    spatial_scale: 0.0625
    pooled_l: 1
    temporal_scale: 0.125
  }
}
layer {
  name: "fc6"
  type: "InnerProduct"
  bottom: "pool5"
  top: "fc6"
  param {
    lr_mult: 1
    decay_mult: 1
  }
  param {
    lr_mult: 2
    decay_mult: 0
  }
  inner_product_param {
    num_output: 4096
    weight_filler {
      type: "gaussian"
      std: 0.005
    }
    bias_filler {
      type: "constant"
      value: 1
    }
  }
}
layer {
  name: "relu6"
  type: "ReLU"
  bottom: "fc6"
  top: "fc6"
}
layer {
  name: "drop6"
  type: "Dropout"
  bottom: "fc6"
  top: "fc6"
  dropout_param {
    dropout_ratio: 0.5
  }
}
layer {
  name: "cls_score"
  type: "InnerProduct"
  bottom: "fc6"
  top: "cls_score"
  param {
    lr_mult: 1
    decay_mult: 1
  }
  param {
    lr_mult: 2
    decay_mult: 0
  }
  inner_product_param {
    num_output: 9900
    weight_filler {
      type: "gaussian"
      std: 0.01
    }
    bias_filler {
      type: "constant"
      value: 0
    }
  }
}
layer {
  name: "twin_pred"
  type: "InnerProduct"
  bottom: "fc6"
  top: "twin_pred"
  param {
    lr_mult: 1
    decay_mult: 1
  }
  param {
    lr_mult: 2
    decay_mult: 0
  }
  inner_product_param {
    num_output: 198
    weight_filler {
      type: "gaussian"
      std: 0.001
    }
    bias_filler {
      type: "constant"
      value: 0
    }
  }
}
layer {
  name: "loss_cls"
  type: "SigmoidCrossEntropyLossLayer"
  bottom: "cls_score"
  bottom: "labels"
  top: "loss_cls"
  loss_weight: 1
  propagate_down: true
  propagate_down: false
}
layer {
  name: "loss_twin"
  type: "SmoothL1Loss"
  bottom: "twin_pred"
  bottom: "twin_targets"
  bottom: "twin_inside_weights"
  bottom: "twin_outside_weights"
  top: "loss_twin"
  loss_weight: 1
}
layer {
  name: "accuarcy"
  type: "Accuracy"
  bottom: "cls_score"
  bottom: "labels"
  top: "accuarcy"
  propagate_down: false
  propagate_down: false
  accuracy_param {
    ignore_label: -1
  }
}
I0418 04:23:41.333042 15317 layer_factory.hpp:77] Creating layer data
I0418 04:23:41.358557 15317 net.cpp:100] Creating Layer data
I0418 04:23:41.358582 15317 net.cpp:408] data -> data
I0418 04:23:41.358600 15317 net.cpp:408] data -> gt_boxes
setting up
has rpn
RoiDataLayer: name_to_top: {'gt_windows': 1, 'data': 0}
I0418 04:23:41.372076 15317 net.cpp:150] Setting up data
I0418 04:23:41.372102 15317 net.cpp:157] Top shape: 1 3 768 112 112 (28901376)
I0418 04:23:41.372114 15317 net.cpp:157] Top shape: 1 101 (101)
I0418 04:23:41.372122 15317 net.cpp:165] Memory required for data: 115605908
I0418 04:23:41.372130 15317 layer_factory.hpp:77] Creating layer data_data_0_split
I0418 04:23:41.372148 15317 net.cpp:100] Creating Layer data_data_0_split
I0418 04:23:41.372155 15317 net.cpp:434] data_data_0_split <- data
I0418 04:23:41.372166 15317 net.cpp:408] data_data_0_split -> data_data_0_split_0
I0418 04:23:41.372184 15317 net.cpp:408] data_data_0_split -> data_data_0_split_1
I0418 04:23:41.372225 15317 net.cpp:150] Setting up data_data_0_split
I0418 04:23:41.372236 15317 net.cpp:157] Top shape: 1 3 768 112 112 (28901376)
I0418 04:23:41.372243 15317 net.cpp:157] Top shape: 1 3 768 112 112 (28901376)
I0418 04:23:41.372249 15317 net.cpp:165] Memory required for data: 346816916
I0418 04:23:41.372254 15317 layer_factory.hpp:77] Creating layer gt_boxes_data_1_split
I0418 04:23:41.372265 15317 net.cpp:100] Creating Layer gt_boxes_data_1_split
I0418 04:23:41.372272 15317 net.cpp:434] gt_boxes_data_1_split <- gt_boxes
I0418 04:23:41.372279 15317 net.cpp:408] gt_boxes_data_1_split -> gt_boxes_data_1_split_0
I0418 04:23:41.372293 15317 net.cpp:408] gt_boxes_data_1_split -> gt_boxes_data_1_split_1
I0418 04:23:41.372328 15317 net.cpp:150] Setting up gt_boxes_data_1_split
I0418 04:23:41.372339 15317 net.cpp:157] Top shape: 1 101 (101)
I0418 04:23:41.372344 15317 net.cpp:157] Top shape: 1 101 (101)
I0418 04:23:41.372350 15317 net.cpp:165] Memory required for data: 346817724
I0418 04:23:41.372355 15317 layer_factory.hpp:77] Creating layer conv1a
I0418 04:23:41.372377 15317 net.cpp:100] Creating Layer conv1a
I0418 04:23:41.372385 15317 net.cpp:434] conv1a <- data_data_0_split_0
I0418 04:23:41.372395 15317 net.cpp:408] conv1a -> conv1a
I0418 04:23:41.570446 15317 net.cpp:150] Setting up conv1a
I0418 04:23:41.570482 15317 net.cpp:157] Top shape: 1 64 768 112 112 (616562688)
I0418 04:23:41.570487 15317 net.cpp:165] Memory required for data: 2813068476
I0418 04:23:41.570514 15317 layer_factory.hpp:77] Creating layer relu1a
I0418 04:23:41.570534 15317 net.cpp:100] Creating Layer relu1a
I0418 04:23:41.570547 15317 net.cpp:434] relu1a <- conv1a
I0418 04:23:41.570560 15317 net.cpp:395] relu1a -> conv1a (in-place)
I0418 04:23:41.571045 15317 net.cpp:150] Setting up relu1a
I0418 04:23:41.571061 15317 net.cpp:157] Top shape: 1 64 768 112 112 (616562688)
I0418 04:23:41.571068 15317 net.cpp:165] Memory required for data: 5279319228
I0418 04:23:41.571074 15317 layer_factory.hpp:77] Creating layer pool1
I0418 04:23:41.571089 15317 net.cpp:100] Creating Layer pool1
I0418 04:23:41.571099 15317 net.cpp:434] pool1 <- conv1a
I0418 04:23:41.571110 15317 net.cpp:408] pool1 -> pool1
I0418 04:23:41.571307 15317 net.cpp:150] Setting up pool1
I0418 04:23:41.571321 15317 net.cpp:157] Top shape: 1 64 768 56 56 (154140672)
I0418 04:23:41.571326 15317 net.cpp:165] Memory required for data: 5895881916
I0418 04:23:41.571333 15317 layer_factory.hpp:77] Creating layer conv2a
I0418 04:23:41.571349 15317 net.cpp:100] Creating Layer conv2a
I0418 04:23:41.571357 15317 net.cpp:434] conv2a <- pool1
I0418 04:23:41.571367 15317 net.cpp:408] conv2a -> conv2a
I0418 04:23:41.582985 15317 net.cpp:150] Setting up conv2a
I0418 04:23:41.583010 15317 net.cpp:157] Top shape: 1 128 768 56 56 (308281344)
I0418 04:23:41.583016 15317 net.cpp:165] Memory required for data: 7129007292
I0418 04:23:41.583034 15317 layer_factory.hpp:77] Creating layer relu2a
I0418 04:23:41.583045 15317 net.cpp:100] Creating Layer relu2a
I0418 04:23:41.583053 15317 net.cpp:434] relu2a <- conv2a
I0418 04:23:41.583065 15317 net.cpp:395] relu2a -> conv2a (in-place)
I0418 04:23:41.583411 15317 net.cpp:150] Setting up relu2a
I0418 04:23:41.583426 15317 net.cpp:157] Top shape: 1 128 768 56 56 (308281344)
I0418 04:23:41.583432 15317 net.cpp:165] Memory required for data: 8362132668
I0418 04:23:41.583439 15317 layer_factory.hpp:77] Creating layer pool2
I0418 04:23:41.583452 15317 net.cpp:100] Creating Layer pool2
I0418 04:23:41.583458 15317 net.cpp:434] pool2 <- conv2a
I0418 04:23:41.583470 15317 net.cpp:408] pool2 -> pool2
I0418 04:23:41.583665 15317 net.cpp:150] Setting up pool2
I0418 04:23:41.583680 15317 net.cpp:157] Top shape: 1 128 384 28 28 (38535168)
I0418 04:23:41.583686 15317 net.cpp:165] Memory required for data: 8516273340
I0418 04:23:41.583693 15317 layer_factory.hpp:77] Creating layer conv3a
I0418 04:23:41.583711 15317 net.cpp:100] Creating Layer conv3a
I0418 04:23:41.583720 15317 net.cpp:434] conv3a <- pool2
I0418 04:23:41.583731 15317 net.cpp:408] conv3a -> conv3a
I0418 04:23:41.609570 15317 net.cpp:150] Setting up conv3a
I0418 04:23:41.609591 15317 net.cpp:157] Top shape: 1 256 384 28 28 (77070336)
I0418 04:23:41.609596 15317 net.cpp:165] Memory required for data: 8824554684
I0418 04:23:41.609611 15317 layer_factory.hpp:77] Creating layer relu3a
I0418 04:23:41.609622 15317 net.cpp:100] Creating Layer relu3a
I0418 04:23:41.609628 15317 net.cpp:434] relu3a <- conv3a
I0418 04:23:41.609637 15317 net.cpp:395] relu3a -> conv3a (in-place)
I0418 04:23:41.609964 15317 net.cpp:150] Setting up relu3a
I0418 04:23:41.609980 15317 net.cpp:157] Top shape: 1 256 384 28 28 (77070336)
I0418 04:23:41.609987 15317 net.cpp:165] Memory required for data: 9132836028
I0418 04:23:41.609992 15317 layer_factory.hpp:77] Creating layer conv3b
I0418 04:23:41.610010 15317 net.cpp:100] Creating Layer conv3b
I0418 04:23:41.610019 15317 net.cpp:434] conv3b <- conv3a
I0418 04:23:41.610029 15317 net.cpp:408] conv3b -> conv3b
I0418 04:23:41.662099 15317 net.cpp:150] Setting up conv3b
I0418 04:23:41.662139 15317 net.cpp:157] Top shape: 1 256 384 28 28 (77070336)
I0418 04:23:41.662149 15317 net.cpp:165] Memory required for data: 9441117372
I0418 04:23:41.662165 15317 layer_factory.hpp:77] Creating layer relu3b
I0418 04:23:41.662180 15317 net.cpp:100] Creating Layer relu3b
I0418 04:23:41.662189 15317 net.cpp:434] relu3b <- conv3b
I0418 04:23:41.662200 15317 net.cpp:395] relu3b -> conv3b (in-place)
I0418 04:23:41.662648 15317 net.cpp:150] Setting up relu3b
I0418 04:23:41.662668 15317 net.cpp:157] Top shape: 1 256 384 28 28 (77070336)
I0418 04:23:41.662675 15317 net.cpp:165] Memory required for data: 9749398716
I0418 04:23:41.662681 15317 layer_factory.hpp:77] Creating layer pool3
I0418 04:23:41.662693 15317 net.cpp:100] Creating Layer pool3
I0418 04:23:41.662701 15317 net.cpp:434] pool3 <- conv3b
I0418 04:23:41.662711 15317 net.cpp:408] pool3 -> pool3
I0418 04:23:41.662997 15317 net.cpp:150] Setting up pool3
I0418 04:23:41.663015 15317 net.cpp:157] Top shape: 1 256 192 14 14 (9633792)
I0418 04:23:41.663022 15317 net.cpp:165] Memory required for data: 9787933884
I0418 04:23:41.663028 15317 layer_factory.hpp:77] Creating layer conv4a
I0418 04:23:41.663049 15317 net.cpp:100] Creating Layer conv4a
I0418 04:23:41.663059 15317 net.cpp:434] conv4a <- pool3
I0418 04:23:41.663074 15317 net.cpp:408] conv4a -> conv4a
I0418 04:23:41.765403 15317 net.cpp:150] Setting up conv4a
I0418 04:23:41.765429 15317 net.cpp:157] Top shape: 1 512 192 14 14 (19267584)
I0418 04:23:41.765434 15317 net.cpp:165] Memory required for data: 9865004220
I0418 04:23:41.765450 15317 layer_factory.hpp:77] Creating layer relu4a
I0418 04:23:41.765460 15317 net.cpp:100] Creating Layer relu4a
I0418 04:23:41.765465 15317 net.cpp:434] relu4a <- conv4a
I0418 04:23:41.765472 15317 net.cpp:395] relu4a -> conv4a (in-place)
I0418 04:23:41.765805 15317 net.cpp:150] Setting up relu4a
I0418 04:23:41.765818 15317 net.cpp:157] Top shape: 1 512 192 14 14 (19267584)
I0418 04:23:41.765822 15317 net.cpp:165] Memory required for data: 9942074556
I0418 04:23:41.765826 15317 layer_factory.hpp:77] Creating layer conv4b
I0418 04:23:41.765841 15317 net.cpp:100] Creating Layer conv4b
I0418 04:23:41.765846 15317 net.cpp:434] conv4b <- conv4a
I0418 04:23:41.765854 15317 net.cpp:408] conv4b -> conv4b
I0418 04:23:41.960558 15317 net.cpp:150] Setting up conv4b
I0418 04:23:41.960587 15317 net.cpp:157] Top shape: 1 512 192 14 14 (19267584)
I0418 04:23:41.960592 15317 net.cpp:165] Memory required for data: 10019144892
I0418 04:23:41.960600 15317 layer_factory.hpp:77] Creating layer relu4b
I0418 04:23:41.960613 15317 net.cpp:100] Creating Layer relu4b
I0418 04:23:41.960618 15317 net.cpp:434] relu4b <- conv4b
I0418 04:23:41.960625 15317 net.cpp:395] relu4b -> conv4b (in-place)
I0418 04:23:41.960789 15317 net.cpp:150] Setting up relu4b
I0418 04:23:41.960803 15317 net.cpp:157] Top shape: 1 512 192 14 14 (19267584)
I0418 04:23:41.960806 15317 net.cpp:165] Memory required for data: 10096215228
I0418 04:23:41.960810 15317 layer_factory.hpp:77] Creating layer pool4
I0418 04:23:41.960825 15317 net.cpp:100] Creating Layer pool4
I0418 04:23:41.960829 15317 net.cpp:434] pool4 <- conv4b
I0418 04:23:41.960836 15317 net.cpp:408] pool4 -> pool4
I0418 04:23:41.961182 15317 net.cpp:150] Setting up pool4
I0418 04:23:41.961197 15317 net.cpp:157] Top shape: 1 512 96 7 7 (2408448)
I0418 04:23:41.961201 15317 net.cpp:165] Memory required for data: 10105849020
I0418 04:23:41.961205 15317 layer_factory.hpp:77] Creating layer conv5a
I0418 04:23:41.961217 15317 net.cpp:100] Creating Layer conv5a
I0418 04:23:41.961222 15317 net.cpp:434] conv5a <- pool4
I0418 04:23:41.961230 15317 net.cpp:408] conv5a -> conv5a
I0418 04:23:42.151727 15317 net.cpp:150] Setting up conv5a
I0418 04:23:42.151751 15317 net.cpp:157] Top shape: 1 512 96 7 7 (2408448)
I0418 04:23:42.151756 15317 net.cpp:165] Memory required for data: 10115482812
I0418 04:23:42.151763 15317 layer_factory.hpp:77] Creating layer relu5a
I0418 04:23:42.151772 15317 net.cpp:100] Creating Layer relu5a
I0418 04:23:42.151777 15317 net.cpp:434] relu5a <- conv5a
I0418 04:23:42.151784 15317 net.cpp:395] relu5a -> conv5a (in-place)
I0418 04:23:42.152215 15317 net.cpp:150] Setting up relu5a
I0418 04:23:42.152226 15317 net.cpp:157] Top shape: 1 512 96 7 7 (2408448)
I0418 04:23:42.152230 15317 net.cpp:165] Memory required for data: 10125116604
I0418 04:23:42.152235 15317 layer_factory.hpp:77] Creating layer conv5b
I0418 04:23:42.152245 15317 net.cpp:100] Creating Layer conv5b
I0418 04:23:42.152248 15317 net.cpp:434] conv5b <- conv5a
I0418 04:23:42.152256 15317 net.cpp:408] conv5b -> conv5b
I0418 04:23:42.339033 15317 net.cpp:150] Setting up conv5b
I0418 04:23:42.339057 15317 net.cpp:157] Top shape: 1 512 96 7 7 (2408448)
I0418 04:23:42.339061 15317 net.cpp:165] Memory required for data: 10134750396
I0418 04:23:42.339071 15317 layer_factory.hpp:77] Creating layer relu5b
I0418 04:23:42.339082 15317 net.cpp:100] Creating Layer relu5b
I0418 04:23:42.339085 15317 net.cpp:434] relu5b <- conv5b
I0418 04:23:42.339092 15317 net.cpp:395] relu5b -> conv5b (in-place)
I0418 04:23:42.339243 15317 net.cpp:150] Setting up relu5b
I0418 04:23:42.339253 15317 net.cpp:157] Top shape: 1 512 96 7 7 (2408448)
I0418 04:23:42.339257 15317 net.cpp:165] Memory required for data: 10144384188
I0418 04:23:42.339262 15317 layer_factory.hpp:77] Creating layer conv5b_relu5b_0_split
I0418 04:23:42.339267 15317 net.cpp:100] Creating Layer conv5b_relu5b_0_split
I0418 04:23:42.339272 15317 net.cpp:434] conv5b_relu5b_0_split <- conv5b
I0418 04:23:42.339277 15317 net.cpp:408] conv5b_relu5b_0_split -> conv5b_relu5b_0_split_0
I0418 04:23:42.339283 15317 net.cpp:408] conv5b_relu5b_0_split -> conv5b_relu5b_0_split_1
I0418 04:23:42.339339 15317 net.cpp:150] Setting up conv5b_relu5b_0_split
I0418 04:23:42.339351 15317 net.cpp:157] Top shape: 1 512 96 7 7 (2408448)
I0418 04:23:42.339359 15317 net.cpp:157] Top shape: 1 512 96 7 7 (2408448)
I0418 04:23:42.339363 15317 net.cpp:165] Memory required for data: 10163651772
I0418 04:23:42.339370 15317 layer_factory.hpp:77] Creating layer rpn_conv/3x3
I0418 04:23:42.339385 15317 net.cpp:100] Creating Layer rpn_conv/3x3
I0418 04:23:42.339395 15317 net.cpp:434] rpn_conv/3x3 <- conv5b_relu5b_0_split_0
I0418 04:23:42.339406 15317 net.cpp:408] rpn_conv/3x3 -> rpn/output
I0418 04:23:42.526618 15317 net.cpp:150] Setting up rpn_conv/3x3
I0418 04:23:42.526654 15317 net.cpp:157] Top shape: 1 512 96 4 4 (786432)
I0418 04:23:42.526659 15317 net.cpp:165] Memory required for data: 10166797500
I0418 04:23:42.526679 15317 layer_factory.hpp:77] Creating layer rpn_relu/3x3
I0418 04:23:42.526697 15317 net.cpp:100] Creating Layer rpn_relu/3x3
I0418 04:23:42.526710 15317 net.cpp:434] rpn_relu/3x3 <- rpn/output
I0418 04:23:42.526721 15317 net.cpp:395] rpn_relu/3x3 -> rpn/output (in-place)
I0418 04:23:42.527048 15317 net.cpp:150] Setting up rpn_relu/3x3
I0418 04:23:42.527062 15317 net.cpp:157] Top shape: 1 512 96 4 4 (786432)
I0418 04:23:42.527068 15317 net.cpp:165] Memory required for data: 10169943228
I0418 04:23:42.527074 15317 layer_factory.hpp:77] Creating layer rpn_conv/3x3_2
I0418 04:23:42.527092 15317 net.cpp:100] Creating Layer rpn_conv/3x3_2
I0418 04:23:42.527101 15317 net.cpp:434] rpn_conv/3x3_2 <- rpn/output
I0418 04:23:42.527113 15317 net.cpp:408] rpn_conv/3x3_2 -> rpn/output_2
I0418 04:23:42.714015 15317 net.cpp:150] Setting up rpn_conv/3x3_2
I0418 04:23:42.714041 15317 net.cpp:157] Top shape: 1 512 96 2 2 (196608)
I0418 04:23:42.714046 15317 net.cpp:165] Memory required for data: 10170729660
I0418 04:23:42.714058 15317 layer_factory.hpp:77] Creating layer rpn_relu/3x3_2
I0418 04:23:42.714071 15317 net.cpp:100] Creating Layer rpn_relu/3x3_2
I0418 04:23:42.714078 15317 net.cpp:434] rpn_relu/3x3_2 <- rpn/output_2
I0418 04:23:42.714090 15317 net.cpp:395] rpn_relu/3x3_2 -> rpn/output_2 (in-place)
I0418 04:23:42.714390 15317 net.cpp:150] Setting up rpn_relu/3x3_2
I0418 04:23:42.714403 15317 net.cpp:157] Top shape: 1 512 96 2 2 (196608)
I0418 04:23:42.714408 15317 net.cpp:165] Memory required for data: 10171516092
I0418 04:23:42.714414 15317 layer_factory.hpp:77] Creating layer rpn/output_pool
I0418 04:23:42.714427 15317 net.cpp:100] Creating Layer rpn/output_pool
I0418 04:23:42.714433 15317 net.cpp:434] rpn/output_pool <- rpn/output_2
I0418 04:23:42.714450 15317 net.cpp:408] rpn/output_pool -> rpn/output_pool
I0418 04:23:42.714640 15317 net.cpp:150] Setting up rpn/output_pool
I0418 04:23:42.714654 15317 net.cpp:157] Top shape: 1 512 96 1 1 (49152)
I0418 04:23:42.714660 15317 net.cpp:165] Memory required for data: 10171712700
I0418 04:23:42.714666 15317 layer_factory.hpp:77] Creating layer rpn/output_pool_rpn/output_pool_0_split
I0418 04:23:42.714675 15317 net.cpp:100] Creating Layer rpn/output_pool_rpn/output_pool_0_split
I0418 04:23:42.714681 15317 net.cpp:434] rpn/output_pool_rpn/output_pool_0_split <- rpn/output_pool
I0418 04:23:42.714689 15317 net.cpp:408] rpn/output_pool_rpn/output_pool_0_split -> rpn/output_pool_rpn/output_pool_0_split_0
I0418 04:23:42.714699 15317 net.cpp:408] rpn/output_pool_rpn/output_pool_0_split -> rpn/output_pool_rpn/output_pool_0_split_1
I0418 04:23:42.714756 15317 net.cpp:150] Setting up rpn/output_pool_rpn/output_pool_0_split
I0418 04:23:42.714776 15317 net.cpp:157] Top shape: 1 512 96 1 1 (49152)
I0418 04:23:42.714783 15317 net.cpp:157] Top shape: 1 512 96 1 1 (49152)
I0418 04:23:42.714788 15317 net.cpp:165] Memory required for data: 10172105916
I0418 04:23:42.714794 15317 layer_factory.hpp:77] Creating layer rpn_cls_score
I0418 04:23:42.714814 15317 net.cpp:100] Creating Layer rpn_cls_score
I0418 04:23:42.714823 15317 net.cpp:434] rpn_cls_score <- rpn/output_pool_rpn/output_pool_0_split_0
I0418 04:23:42.714834 15317 net.cpp:408] rpn_cls_score -> rpn_cls_score
I0418 04:23:42.716941 15317 net.cpp:150] Setting up rpn_cls_score
I0418 04:23:42.716955 15317 net.cpp:157] Top shape: 1 74 96 1 1 (7104)
I0418 04:23:42.716961 15317 net.cpp:165] Memory required for data: 10172134332
I0418 04:23:42.716971 15317 layer_factory.hpp:77] Creating layer rpn_cls_score_rpn_cls_score_0_split
I0418 04:23:42.716980 15317 net.cpp:100] Creating Layer rpn_cls_score_rpn_cls_score_0_split
I0418 04:23:42.716986 15317 net.cpp:434] rpn_cls_score_rpn_cls_score_0_split <- rpn_cls_score
I0418 04:23:42.716997 15317 net.cpp:408] rpn_cls_score_rpn_cls_score_0_split -> rpn_cls_score_rpn_cls_score_0_split_0
I0418 04:23:42.717007 15317 net.cpp:408] rpn_cls_score_rpn_cls_score_0_split -> rpn_cls_score_rpn_cls_score_0_split_1
I0418 04:23:42.717059 15317 net.cpp:150] Setting up rpn_cls_score_rpn_cls_score_0_split
I0418 04:23:42.717070 15317 net.cpp:157] Top shape: 1 74 96 1 1 (7104)
I0418 04:23:42.717077 15317 net.cpp:157] Top shape: 1 74 96 1 1 (7104)
I0418 04:23:42.717082 15317 net.cpp:165] Memory required for data: 10172191164
I0418 04:23:42.717088 15317 layer_factory.hpp:77] Creating layer rpn_twin_pred
I0418 04:23:42.717108 15317 net.cpp:100] Creating Layer rpn_twin_pred
I0418 04:23:42.717115 15317 net.cpp:434] rpn_twin_pred <- rpn/output_pool_rpn/output_pool_0_split_1
I0418 04:23:42.717126 15317 net.cpp:408] rpn_twin_pred -> rpn_twin_pred
I0418 04:23:42.719086 15317 net.cpp:150] Setting up rpn_twin_pred
I0418 04:23:42.719102 15317 net.cpp:157] Top shape: 1 74 96 1 1 (7104)
I0418 04:23:42.719108 15317 net.cpp:165] Memory required for data: 10172219580
I0418 04:23:42.719118 15317 layer_factory.hpp:77] Creating layer rpn_twin_pred_rpn_twin_pred_0_split
I0418 04:23:42.719127 15317 net.cpp:100] Creating Layer rpn_twin_pred_rpn_twin_pred_0_split
I0418 04:23:42.719133 15317 net.cpp:434] rpn_twin_pred_rpn_twin_pred_0_split <- rpn_twin_pred
I0418 04:23:42.719141 15317 net.cpp:408] rpn_twin_pred_rpn_twin_pred_0_split -> rpn_twin_pred_rpn_twin_pred_0_split_0
I0418 04:23:42.719153 15317 net.cpp:408] rpn_twin_pred_rpn_twin_pred_0_split -> rpn_twin_pred_rpn_twin_pred_0_split_1
I0418 04:23:42.719202 15317 net.cpp:150] Setting up rpn_twin_pred_rpn_twin_pred_0_split
I0418 04:23:42.719213 15317 net.cpp:157] Top shape: 1 74 96 1 1 (7104)
I0418 04:23:42.719219 15317 net.cpp:157] Top shape: 1 74 96 1 1 (7104)
I0418 04:23:42.719224 15317 net.cpp:165] Memory required for data: 10172276412
I0418 04:23:42.719230 15317 layer_factory.hpp:77] Creating layer rpn_cls_score_reshape
I0418 04:23:42.719249 15317 net.cpp:100] Creating Layer rpn_cls_score_reshape
I0418 04:23:42.719260 15317 net.cpp:434] rpn_cls_score_reshape <- rpn_cls_score_rpn_cls_score_0_split_0
I0418 04:23:42.719269 15317 net.cpp:408] rpn_cls_score_reshape -> rpn_cls_score_reshape
I0418 04:23:42.719310 15317 net.cpp:150] Setting up rpn_cls_score_reshape
I0418 04:23:42.719321 15317 net.cpp:157] Top shape: 1 2 3552 1 1 (7104)
I0418 04:23:42.719326 15317 net.cpp:165] Memory required for data: 10172304828
I0418 04:23:42.719331 15317 layer_factory.hpp:77] Creating layer rpn_cls_score_reshape_rpn_cls_score_reshape_0_split
I0418 04:23:42.719339 15317 net.cpp:100] Creating Layer rpn_cls_score_reshape_rpn_cls_score_reshape_0_split
I0418 04:23:42.719346 15317 net.cpp:434] rpn_cls_score_reshape_rpn_cls_score_reshape_0_split <- rpn_cls_score_reshape
I0418 04:23:42.719355 15317 net.cpp:408] rpn_cls_score_reshape_rpn_cls_score_reshape_0_split -> rpn_cls_score_reshape_rpn_cls_score_reshape_0_split_0
I0418 04:23:42.719369 15317 net.cpp:408] rpn_cls_score_reshape_rpn_cls_score_reshape_0_split -> rpn_cls_score_reshape_rpn_cls_score_reshape_0_split_1
I0418 04:23:42.719380 15317 net.cpp:408] rpn_cls_score_reshape_rpn_cls_score_reshape_0_split -> rpn_cls_score_reshape_rpn_cls_score_reshape_0_split_2
I0418 04:23:42.719430 15317 net.cpp:150] Setting up rpn_cls_score_reshape_rpn_cls_score_reshape_0_split
I0418 04:23:42.719440 15317 net.cpp:157] Top shape: 1 2 3552 1 1 (7104)
I0418 04:23:42.719447 15317 net.cpp:157] Top shape: 1 2 3552 1 1 (7104)
I0418 04:23:42.719454 15317 net.cpp:157] Top shape: 1 2 3552 1 1 (7104)
I0418 04:23:42.719458 15317 net.cpp:165] Memory required for data: 10172390076
I0418 04:23:42.719465 15317 layer_factory.hpp:77] Creating layer rpn-data
I0418 04:23:42.719871 15317 net.cpp:100] Creating Layer rpn-data
I0418 04:23:42.719883 15317 net.cpp:434] rpn-data <- rpn_cls_score_rpn_cls_score_0_split_1
I0418 04:23:42.719892 15317 net.cpp:434] rpn-data <- gt_boxes_data_1_split_0
I0418 04:23:42.719899 15317 net.cpp:434] rpn-data <- data_data_0_split_1
I0418 04:23:42.719908 15317 net.cpp:408] rpn-data -> rpn_labels
I0418 04:23:42.719919 15317 net.cpp:408] rpn-data -> rpn_twin_targets
I0418 04:23:42.719930 15317 net.cpp:408] rpn-data -> rpn_twin_inside_weights
I0418 04:23:42.719943 15317 net.cpp:408] rpn-data -> rpn_twin_outside_weights
I0418 04:23:42.722231 15317 net.cpp:150] Setting up rpn-data
I0418 04:23:42.722247 15317 net.cpp:157] Top shape: 1 1 3552 1 1 (3552)
I0418 04:23:42.722255 15317 net.cpp:157] Top shape: 1 74 96 1 1 (7104)
I0418 04:23:42.722261 15317 net.cpp:157] Top shape: 1 74 96 1 1 (7104)
I0418 04:23:42.722268 15317 net.cpp:157] Top shape: 1 74 96 1 1 (7104)
I0418 04:23:42.722273 15317 net.cpp:165] Memory required for data: 10172489532
I0418 04:23:42.722280 15317 layer_factory.hpp:77] Creating layer rpn_labels_rpn-data_0_split
I0418 04:23:42.722288 15317 net.cpp:100] Creating Layer rpn_labels_rpn-data_0_split
I0418 04:23:42.722295 15317 net.cpp:434] rpn_labels_rpn-data_0_split <- rpn_labels
I0418 04:23:42.722304 15317 net.cpp:408] rpn_labels_rpn-data_0_split -> rpn_labels_rpn-data_0_split_0
I0418 04:23:42.722316 15317 net.cpp:408] rpn_labels_rpn-data_0_split -> rpn_labels_rpn-data_0_split_1
I0418 04:23:42.722358 15317 net.cpp:150] Setting up rpn_labels_rpn-data_0_split
I0418 04:23:42.722368 15317 net.cpp:157] Top shape: 1 1 3552 1 1 (3552)
I0418 04:23:42.722375 15317 net.cpp:157] Top shape: 1 1 3552 1 1 (3552)
I0418 04:23:42.722380 15317 net.cpp:165] Memory required for data: 10172517948
I0418 04:23:42.722386 15317 layer_factory.hpp:77] Creating layer rpn_loss_cls
I0418 04:23:42.722398 15317 net.cpp:100] Creating Layer rpn_loss_cls
I0418 04:23:42.722406 15317 net.cpp:434] rpn_loss_cls <- rpn_cls_score_reshape_rpn_cls_score_reshape_0_split_0
I0418 04:23:42.722414 15317 net.cpp:434] rpn_loss_cls <- rpn_labels_rpn-data_0_split_0
…
I0418 04:23:42.723062 15317 layer_factory.hpp:77] Creating layer rpn_accuarcy
I0418 04:23:42.723073 15317 net.cpp:100] Creating Layer rpn_accuarcy
I0418 04:23:42.723081 15317 net.cpp:434] rpn_accuarcy <- rpn_cls_score_reshape_rpn_cls_score_reshape_0_split_1
I0418 04:23:42.723088 15317 net.cpp:434] rpn_accuarcy <- rpn_labels_rpn-data_0_split_1
I0418 04:23:42.723100 15317 net.cpp:408] rpn_accuarcy -> rpn_accuarcy
I0418 04:23:42.723114 15317 net.cpp:408] rpn_accuarcy -> rpn_accuarcy_class
I0418 04:23:42.723160 15317 net.cpp:150] Setting up rpn_accuarcy
I0418 04:23:42.723168 15317 net.cpp:157] Top shape: (1)
I0418 04:23:42.723175 15317 net.cpp:157] Top shape: 2 (2)
I0418 04:23:42.723179 15317 net.cpp:165] Memory required for data: 10172517968
I0418 04:23:42.723186 15317 layer_factory.hpp:77] Creating layer rpn_cls_prob
I0418 04:23:42.723193 15317 net.cpp:100] Creating Layer rpn_cls_prob
I0418 04:23:42.723198 15317 net.cpp:434] rpn_cls_prob <- rpn_cls_score_reshape_rpn_cls_score_reshape_0_split_2
I0418 04:23:42.723208 15317 net.cpp:408] rpn_cls_prob -> rpn_cls_prob
I0418 04:23:42.723412 15317 net.cpp:150] Setting up rpn_cls_prob
I0418 04:23:42.723425 15317 net.cpp:157] Top shape: 1 2 3552 1 1 (7104)
I0418 04:23:42.723431 15317 net.cpp:165] Memory required for data: 10172546384
I0418 04:23:42.723438 15317 layer_factory.hpp:77] Creating layer rpn_cls_prob_reshape
I0418 04:23:42.723446 15317 net.cpp:100] Creating Layer rpn_cls_prob_reshape
I0418 04:23:42.723453 15317 net.cpp:434] rpn_cls_prob_reshape <- rpn_cls_prob
I0418 04:23:42.723461 15317 net.cpp:408] rpn_cls_prob_reshape -> rpn_cls_prob_reshape
I0418 04:23:42.723495 15317 net.cpp:150] Setting up rpn_cls_prob_reshape
I0418 04:23:42.723505 15317 net.cpp:157] Top shape: 1 74 96 1 1 (7104)
I0418 04:23:42.723510 15317 net.cpp:165] Memory required for data: 10172574800
I0418 04:23:42.723515 15317 layer_factory.hpp:77] Creating layer proposal
I0418 04:23:42.724058 15317 net.cpp:100] Creating Layer proposal
I0418 04:23:42.724071 15317 net.cpp:434] proposal <- rpn_cls_prob_reshape
I0418 04:23:42.724078 15317 net.cpp:434] proposal <- rpn_twin_pred_rpn_twin_pred_0_split_1
I0418 04:23:42.724097 15317 net.cpp:408] proposal -> rpn_rois
I0418 04:23:42.726227 15317 net.cpp:150] Setting up proposal
I0418 04:23:42.726241 15317 net.cpp:157] Top shape: 1 3 (3)
I0418 04:23:42.726246 15317 net.cpp:165] Memory required for data: 10172574812
I0418 04:23:42.726263 15317 layer_factory.hpp:77] Creating layer roi-data
I0418 04:23:42.726413 15317 net.cpp:100] Creating Layer roi-data
I0418 04:23:42.726424 15317 net.cpp:434] roi-data <- rpn_rois
I0418 04:23:42.726431 15317 net.cpp:434] roi-data <- gt_boxes_data_1_split_1
I0418 04:23:42.726440 15317 net.cpp:408] roi-data -> rois
I0418 04:23:42.726451 15317 net.cpp:408] roi-data -> labels
I0418 04:23:42.726460 15317 net.cpp:408] roi-data -> twin_targets
I0418 04:23:42.726470 15317 net.cpp:408] roi-data -> twin_inside_weights
I0418 04:23:42.726480 15317 net.cpp:408] roi-data -> twin_outside_weights
I0418 04:23:42.726794 15317 net.cpp:150] Setting up roi-data
I0418 04:23:42.726807 15317 net.cpp:157] Top shape: 1 3 (3)
I0418 04:23:42.726814 15317 net.cpp:157] Top shape: 1 1 (1)
I0418 04:23:42.726821 15317 net.cpp:157] Top shape: 1 198 (198)
I0418 04:23:42.726827 15317 net.cpp:157] Top shape: 1 198 (198)
I0418 04:23:42.726833 15317 net.cpp:157] Top shape: 1 198 (198)
I0418 04:23:42.726838 15317 net.cpp:165] Memory required for data: 10172577204
I0418 04:23:42.726845 15317 layer_factory.hpp:77] Creating layer labels_roi-data_1_split
I0418 04:23:42.726852 15317 net.cpp:100] Creating Layer labels_roi-data_1_split
I0418 04:23:42.726860 15317 net.cpp:434] labels_roi-data_1_split <- labels
I0418 04:23:42.726867 15317 net.cpp:408] labels_roi-data_1_split -> labels_roi-data_1_split_0
I0418 04:23:42.726878 15317 net.cpp:408] labels_roi-data_1_split -> labels_roi-data_1_split_1
I0418 04:23:42.726919 15317 net.cpp:150] Setting up labels_roi-data_1_split
I0418 04:23:42.726928 15317 net.cpp:157] Top shape: 1 1 (1)
I0418 04:23:42.726935 15317 net.cpp:157] Top shape: 1 1 (1)
I0418 04:23:42.726940 15317 net.cpp:165] Memory required for data: 10172577212
I0418 04:23:42.726946 15317 layer_factory.hpp:77] Creating layer roi_pool5
I0418 04:23:42.726958 15317 net.cpp:100] Creating Layer roi_pool5
I0418 04:23:42.726968 15317 net.cpp:434] roi_pool5 <- conv5b_relu5b_0_split_1
I0418 04:23:42.726975 15317 net.cpp:434] roi_pool5 <- rois
I0418 04:23:42.726984 15317 net.cpp:408] roi_pool5 -> pool5
I0418 04:23:42.726995 15317 roi_pooling_layer.cpp:34] Temporal scale: 0.125
I0418 04:23:42.727005 15317 roi_pooling_layer.cpp:35] Spatial scale: 0.0625
I0418 04:23:42.727051 15317 net.cpp:150] Setting up roi_pool5
I0418 04:23:42.727061 15317 net.cpp:157] Top shape: 1 512 1 4 4 (8192)
I0418 04:23:42.727066 15317 net.cpp:165] Memory required for data: 10172609980
I0418 04:23:42.727072 15317 layer_factory.hpp:77] Creating layer fc6
I0418 04:23:42.727083 15317 net.cpp:100] Creating Layer fc6
I0418 04:23:42.727090 15317 net.cpp:434] fc6 <- pool5
I0418 04:23:42.727108 15317 net.cpp:408] fc6 -> fc6
I0418 04:23:43.606154 15317 net.cpp:150] Setting up fc6
I0418 04:23:43.606180 15317 net.cpp:157] Top shape: 1 4096 (4096)
I0418 04:23:43.606185 15317 net.cpp:165] Memory required for data: 10172626364
I0418 04:23:43.606197 15317 layer_factory.hpp:77] Creating layer relu6
I0418 04:23:43.606212 15317 net.cpp:100] Creating Layer relu6
I0418 04:23:43.606220 15317 net.cpp:434] relu6 <- fc6
I0418 04:23:43.606230 15317 net.cpp:395] relu6 -> fc6 (in-place)
I0418 04:23:43.606659 15317 net.cpp:150] Setting up relu6
I0418 04:23:43.606676 15317 net.cpp:157] Top shape: 1 4096 (4096)
I0418 04:23:43.606683 15317 net.cpp:165] Memory required for data: 10172642748
I0418 04:23:43.606689 15317 layer_factory.hpp:77] Creating layer drop6
I0418 04:23:43.606705 15317 net.cpp:100] Creating Layer drop6
I0418 04:23:43.606715 15317 net.cpp:434] drop6 <- fc6
I0418 04:23:43.606724 15317 net.cpp:395] drop6 -> fc6 (in-place)
I0418 04:23:43.606767 15317 net.cpp:150] Setting up drop6
I0418 04:23:43.606778 15317 net.cpp:157] Top shape: 1 4096 (4096)
I0418 04:23:43.606784 15317 net.cpp:165] Memory required for data: 10172659132
I0418 04:23:43.606789 15317 layer_factory.hpp:77] Creating layer fc6_drop6_0_split
I0418 04:23:43.606797 15317 net.cpp:100] Creating Layer fc6_drop6_0_split
I0418 04:23:43.606803 15317 net.cpp:434] fc6_drop6_0_split <- fc6
I0418 04:23:43.606814 15317 net.cpp:408] fc6_drop6_0_split -> fc6_drop6_0_split_0
I0418 04:23:43.606824 15317 net.cpp:408] fc6_drop6_0_split -> fc6_drop6_0_split_1
I0418 04:23:43.606873 15317 net.cpp:150] Setting up fc6_drop6_0_split
I0418 04:23:43.606883 15317 net.cpp:157] Top shape: 1 4096 (4096)
I0418 04:23:43.606889 15317 net.cpp:157] Top shape: 1 4096 (4096)
I0418 04:23:43.606894 15317 net.cpp:165] Memory required for data: 10172691900
I0418 04:23:43.606899 15317 layer_factory.hpp:77] Creating layer cls_score
I0418 04:23:43.606909 15317 net.cpp:100] Creating Layer cls_score
I0418 04:23:43.606915 15317 net.cpp:434] cls_score <- fc6_drop6_0_split_0
I0418 04:23:43.606932 15317 net.cpp:408] cls_score -> cls_score
I0418 04:23:44.666369 15317 net.cpp:150] Setting up cls_score
I0418 04:23:44.666396 15317 net.cpp:157] Top shape: 1 9900 (9900)
I0418 04:23:44.666401 15317 net.cpp:165] Memory required for data: 10172731500
I0418 04:23:44.666414 15317 layer_factory.hpp:77] Creating layer cls_score_cls_score_0_split
I0418 04:23:44.666427 15317 net.cpp:100] Creating Layer cls_score_cls_score_0_split
I0418 04:23:44.666435 15317 net.cpp:434] cls_score_cls_score_0_split <- cls_score
I0418 04:23:44.666445 15317 net.cpp:408] cls_score_cls_score_0_split -> cls_score_cls_score_0_split_0
I0418 04:23:44.666455 15317 net.cpp:408] cls_score_cls_score_0_split -> cls_score_cls_score_0_split_1
I0418 04:23:44.666509 15317 net.cpp:150] Setting up cls_score_cls_score_0_split
I0418 04:23:44.666520 15317 net.cpp:157] Top shape: 1 9900 (9900)
I0418 04:23:44.666527 15317 net.cpp:157] Top shape: 1 9900 (9900)
I0418 04:23:44.666532 15317 net.cpp:165] Memory required for data: 10172810700
I0418 04:23:44.666538 15317 layer_factory.hpp:77] Creating layer twin_pred
I0418 04:23:44.666548 15317 net.cpp:100] Creating Layer twin_pred
I0418 04:23:44.666554 15317 net.cpp:434] twin_pred <- fc6_drop6_0_split_1
I0418 04:23:44.666566 15317 net.cpp:408] twin_pred -> twin_pred
I0418 04:23:44.687549 15317 net.cpp:150] Setting up twin_pred
I0418 04:23:44.687566 15317 net.cpp:157] Top shape: 1 198 (198)
I0418 04:23:44.687571 15317 net.cpp:165] Memory required for data: 10172811492
I0418 04:23:44.687592 15317 layer_factory.hpp:77] Creating layer loss_cls
F0418 04:23:44.687628 15317 layer_factory.hpp:81] Check failed: registry.count(type) == 1 (0 vs. 1) Unknown layer type: SigmoidCrossEntropyLossLayer (known types: AbsVal, Accuracy, ArgMax, BNLL, BatchNorm, BatchReindex, Bias, Concat, Co
…
