…
stepsize: 350000
snapshot: 0
snapshot_prefix: "./experiments/activitynet/snapshot/activitynet"
average_loss: 100
iter_size: 1
I0412 04:23:55.930342 25480 solver.cpp:81] Creating training net from train_net file: ./experiments/activitynet/train.prototxt
I0412 04:23:55.931300 25480 net.cpp:58] Initializing net from parameters: 
name: "activitynet"
state {
  phase: TRAIN
}
layer {
  name: "data"
  type: "Python"
  top: "data"
  top: "gt_boxes"
  python_param {
    module: "roi_data_layer.layer"
    layer: "RoIDataLayer"
    param_str: "\'num_classes\': 201"
  }
}
layer {
  name: "conv1a"
  type: "Convolution"
  bottom: "data"
  top: "conv1a"
  param {
    lr_mult: 0
    decay_mult: 0
  }
  param {
    lr_mult: 0
    decay_mult: 0
  }
  convolution_param {
    num_output: 64
    pad: 1
    pad: 1
    pad: 1
    kernel_size: 3
    kernel_size: 3
    kernel_size: 3
    weight_filler {
      type: "gaussian"
      std: 0.01
    }
    bias_filler {
      type: "constant"
      value: 0
    }
  }
}
layer {
  name: "relu1a"
  type: "ReLU"
  bottom: "conv1a"
  top: "conv1a"
}
layer {
  name: "pool1"
  type: "Pooling"
  bottom: "conv1a"
  top: "pool1"
  pooling_param {
    pool: MAX
    kernel_size: 1
    kernel_size: 2
    kernel_size: 2
    stride: 1
    stride: 2
    stride: 2
  }
}
layer {
  name: "conv2a"
  type: "Convolution"
  bottom: "pool1"
  top: "conv2a"
  param {
    lr_mult: 0
    decay_mult: 0
  }
  param {
    lr_mult: 0
    decay_mult: 0
  }
  convolution_param {
    num_output: 128
    pad: 1
    pad: 1
    pad: 1
    kernel_size: 3
    kernel_size: 3
    kernel_size: 3
    weight_filler {
      type: "gaussian"
      std: 0.01
    }
    bias_filler {
      type: "constant"
      value: 1
    }
  }
}
layer {
  name: "relu2a"
  type: "ReLU"
  bottom: "conv2a"
  top: "conv2a"
}
layer {
  name: "pool2"
  type: "Pooling"
  bottom: "conv2a"
  top: "pool2"
  pooling_param {
    pool: MAX
    kernel_size: 2
    kernel_size: 2
    kernel_size: 2
    stride: 2
    stride: 2
    stride: 2
  }
}
layer {
  name: "conv3a"
  type: "Convolution"
  bottom: "pool2"
  top: "conv3a"
  param {
    lr_mult: 1
    decay_mult: 1
  }
  param {
    lr_mult: 2
    decay_mult: 0
  }
  convolution_param {
    num_output: 256
    pad: 1
    pad: 1
    pad: 1
    kernel_size: 3
    kernel_size: 3
    kernel_size: 3
    weight_filler {
      type: "gaussian"
      std: 0.01
    }
    bias_filler {
      type: "constant"
      value: 1
    }
  }
}
layer {
  name: "relu3a"
  type: "ReLU"
  bottom: "conv3a"
  top: "conv3a"
}
layer {
  name: "conv3b"
  type: "Convolution"
  bottom: "conv3a"
  top: "conv3b"
  param {
    lr_mult: 1
    decay_mult: 1
  }
  param {
    lr_mult: 2
    decay_mult: 0
  }
  convolution_param {
    num_output: 256
    pad: 1
    pad: 1
    pad: 1
    kernel_size: 3
    kernel_size: 3
    kernel_size: 3
    weight_filler {
      type: "gaussian"
      std: 0.01
    }
    bias_filler {
      type: "constant"
      value: 1
    }
  }
}
layer {
  name: "relu3b"
  type: "ReLU"
  bottom: "conv3b"
  top: "conv3b"
}
layer {
  name: "pool3"
  type: "Pooling"
  bottom: "conv3b"
  top: "pool3"
  pooling_param {
    pool: MAX
    kernel_size: 2
    kernel_size: 2
    kernel_size: 2
    stride: 2
    stride: 2
    stride: 2
  }
}
layer {
  name: "conv4a"
  type: "Convolution"
  bottom: "pool3"
  top: "conv4a"
  param {
    lr_mult: 1
    decay_mult: 1
  }
  param {
    lr_mult: 2
    decay_mult: 0
  }
  convolution_param {
    num_output: 512
    pad: 1
    pad: 1
    pad: 1
    kernel_size: 3
    kernel_size: 3
    kernel_size: 3
    weight_filler {
      type: "gaussian"
      std: 0.01
    }
    bias_filler {
      type: "constant"
      value: 1
    }
  }
}
layer {
  name: "relu4a"
  type: "ReLU"
  bottom: "conv4a"
  top: "conv4a"
}
layer {
  name: "conv4b"
  type: "Convolution"
  bottom: "conv4a"
  top: "conv4b"
  param {
    lr_mult: 1
    decay_mult: 1
  }
  param {
    lr_mult: 2
    decay_mult: 0
  }
  convolution_param {
    num_output: 512
    pad: 1
    pad: 1
    pad: 1
    kernel_size: 3
    kernel_size: 3
    kernel_size: 3
    weight_filler {
      type: "gaussian"
      std: 0.01
    }
    bias_filler {
      type: "constant"
      value: 1
    }
  }
}
layer {
  name: "relu4b"
  type: "ReLU"
  bottom: "conv4b"
  top: "conv4b"
}
layer {
  name: "pool4"
  type: "Pooling"
  bottom: "conv4b"
  top: "pool4"
  pooling_param {
    pool: MAX
    kernel_size: 2
    kernel_size: 2
    kernel_size: 2
    stride: 2
    stride: 2
    stride: 2
  }
}
layer {
  name: "conv5a"
  type: "Convolution"
  bottom: "pool4"
  top: "conv5a"
  param {
    lr_mult: 1
    decay_mult: 1
  }
  param {
    lr_mult: 2
    decay_mult: 0
  }
  convolution_param {
    num_output: 512
    pad: 1
    pad: 1
    pad: 1
    kernel_size: 3
    kernel_size: 3
    kernel_size: 3
    weight_filler {
      type: "gaussian"
      std: 0.01
    }
    bias_filler {
      type: "constant"
      value: 1
    }
  }
}
layer {
  name: "relu5a"
  type: "ReLU"
  bottom: "conv5a"
  top: "conv5a"
}
layer {
  name: "conv5b"
  type: "Convolution"
  bottom: "conv5a"
  top: "conv5b"
  param {
    lr_mult: 1
    decay_mult: 1
  }
  param {
    lr_mult: 2
    decay_mult: 0
  }
  convolution_param {
    num_output: 512
    pad: 1
    pad: 1
    pad: 1
    kernel_size: 3
    kernel_size: 3
    kernel_size: 3
    weight_filler {
      type: "gaussian"
      std: 0.01
    }
    bias_filler {
      type: "constant"
      value: 1
    }
  }
}
layer {
  name: "relu5b"
  type: "ReLU"
  bottom: "conv5b"
  top: "conv5b"
}
layer {
  name: "rpn_conv/3x3"
  type: "Convolution"
  bottom: "conv5b"
  top: "rpn/output"
  param {
    lr_mult: 1
    decay_mult: 1
  }
  param {
    lr_mult: 2
    decay_mult: 0
  }
  convolution_param {
    num_output: 512
    pad: 1
    pad: 1
    pad: 1
    kernel_size: 3
    kernel_size: 3
    kernel_size: 3
    stride: 1
    stride: 2
    stride: 2
    weight_filler {
      type: "gaussian"
      std: 0.01
    }
    bias_filler {
      type: "constant"
      value: 0
    }
  }
}
layer {
  name: "rpn_relu/3x3"
  type: "ReLU"
  bottom: "rpn/output"
  top: "rpn/output"
}
layer {
  name: "rpn_conv/3x3_2"
  type: "Convolution"
  bottom: "rpn/output"
  top: "rpn/output_2"
  param {
    lr_mult: 1
    decay_mult: 1
  }
  param {
    lr_mult: 2
    decay_mult: 0
  }
  convolution_param {
    num_output: 512
    pad: 1
    pad: 1
    pad: 1
    kernel_size: 3
    kernel_size: 3
    kernel_size: 3
    stride: 1
    stride: 2
    stride: 2
    weight_filler {
      type: "gaussian"
      std: 0.01
    }
    bias_filler {
      type: "constant"
      value: 0
    }
  }
}
layer {
  name: "rpn_relu/3x3_2"
  type: "ReLU"
  bottom: "rpn/output_2"
  top: "rpn/output_2"
}
layer {
  name: "rpn/output_pool"
  type: "Pooling"
  bottom: "rpn/output_2"
  top: "rpn/output_pool"
  pooling_param {
    pool: MAX
    kernel_size: 1
    kernel_size: 2
    kernel_size: 2
  }
}
layer {
  name: "rpn_cls_score"
  type: "Convolution"
  bottom: "rpn/output_pool"
  top: "rpn_cls_score"
  param {
    lr_mult: 1
    decay_mult: 1
  }
  param {
    lr_mult: 2
    decay_mult: 0
  }
  convolution_param {
    num_output: 74
    kernel_size: 1
    kernel_size: 1
    kernel_size: 1
    weight_filler {
      type: "gaussian"
      std: 0.01
    }
    bias_filler {
      type: "constant"
      value: 0
    }
  }
}
layer {
  name: "rpn_twin_pred"
  type: "Convolution"
  bottom: "rpn/output_pool"
  top: "rpn_twin_pred"
  param {
    lr_mult: 1
    decay_mult: 1
  }
  param {
    lr_mult: 2
    decay_mult: 0
  }
  convolution_param {
    num_output: 74
    kernel_size: 1
    kernel_size: 1
    kernel_size: 1
    weight_filler {
      type: "gaussian"
      std: 0.01
    }
    bias_filler {
      type: "constant"
      value: 0
    }
  }
}
layer {
  name: "rpn_cls_score_reshape"
  type: "Reshape"
  bottom: "rpn_cls_score"
  top: "rpn_cls_score_reshape"
  reshape_param {
    shape {
      dim: 0
      dim: 2
      dim: -1
      dim: 0
      dim: 0
    }
  }
}
layer {
  name: "rpn-data"
  type: "Python"
  bottom: "rpn_cls_score"
  bottom: "gt_boxes"
  bottom: "data"
  top: "rpn_labels"
  top: "rpn_twin_targets"
  top: "rpn_twin_inside_weights"
  top: "rpn_twin_outside_weights"
  python_param {
    module: "rpn.anchor_target_layer"
    layer: "AnchorTargetLayer"
    param_str: "\'feat_stride\': 8 \n\'scales\': !!python/tuple [1,1.25, 1.5,1.75, 2,2.5, 3,3.5, 4,4.5, 5,5.5, 6,7, 8,9,10,11,12,14,16,18,20,22,24,28,32,36,40,44,52,60,68,76,84,92,100]"
  }
}
layer {
  name: "rpn_loss_cls"
  type: "SoftmaxWithLoss"
  bottom: "rpn_cls_score_reshape"
  bottom: "rpn_labels"
  top: "rpn_cls_loss"
  loss_weight: 1
  propagate_down: true
  propagate_down: false
  loss_param {
    ignore_label: -1
    normalize: true
  }
}
layer {
  name: "rpn_loss_twin"
  type: "SmoothL1Loss"
  bottom: "rpn_twin_pred"
  bottom: "rpn_twin_targets"
  bottom: "rpn_twin_inside_weights"
  bottom: "rpn_twin_outside_weights"
  top: "rpn_loss_twin"
  loss_weight: 1
  smooth_l1_loss_param {
    sigma: 3
  }
}
layer {
  name: "rpn_accuarcy"
  type: "Accuracy"
  bottom: "rpn_cls_score_reshape"
  bottom: "rpn_labels"
  top: "rpn_accuarcy"
  top: "rpn_accuarcy_class"
  propagate_down: false
  propagate_down: false
  accuracy_param {
    ignore_label: -1
  }
}
layer {
  name: "rpn_cls_prob"
  type: "Softmax"
  bottom: "rpn_cls_score_reshape"
  top: "rpn_cls_prob"
}
layer {
  name: "rpn_cls_prob_reshape"
  type: "Reshape"
  bottom: "rpn_cls_prob"
  top: "rpn_cls_prob_reshape"
  reshape_param {
    shape {
      dim: 0
      dim: 74
      dim: -1
      dim: 0
      dim: 0
    }
  }
}
layer {
  name: "proposal"
  type: "Python"
  bottom: "rpn_cls_prob_reshape"
  bottom: "rpn_twin_pred"
  top: "rpn_rois"
  include {
    phase: TRAIN
  }
  python_param {
    module: "rpn.proposal_layer"
    layer: "ProposalLayer"
    param_str: "\'feat_stride\': 8 \n\'scales\': !!python/tuple [1,1.25, 1.5,1.75, 2,2.5, 3,3.5, 4,4.5, 5,5.5, 6,7, 8,9,10,11,12,14,16,18,20,22,24,28,32,36,40,44,52,60,68,76,84,92,100]"
  }
}
layer {
  name: "roi-data"
  type: "Python"
  bottom: "rpn_rois"
  bottom: "gt_boxes"
  top: "rois"
  top: "labels"
  top: "twin_targets"
  top: "twin_inside_weights"
  top: "twin_outside_weights"
  python_param {
    module: "rpn.proposal_target_layer"
    layer: "ProposalTargetLayer"
    param_str: "\'num_classes\': 201"
  }
}
layer {
  name: "roi_pool5"
  type: "ROIPooling"
  bottom: "conv5b"
  bottom: "rois"
  top: "pool5"
  roi_pooling_param {
    pooled_h: 4
    pooled_w: 4
    spatial_scale: 0.0625
    pooled_l: 1
    temporal_scale: 0.125
  }
}
layer {
  name: "fc6"
  type: "InnerProduct"
  bottom: "pool5"
  top: "fc6"
  param {
    lr_mult: 1
    decay_mult: 1
  }
  param {
    lr_mult: 2
    decay_mult: 0
  }
  inner_product_param {
    num_output: 4096
    weight_filler {
      type: "gaussian"
      std: 0.005
    }
    bias_filler {
      type: "constant"
      value: 1
    }
  }
}
layer {
  name: "relu6"
  type: "ReLU"
  bottom: "fc6"
  top: "fc6"
}
layer {
  name: "drop6"
  type: "Dropout"
  bottom: "fc6"
  top: "fc6"
  dropout_param {
    dropout_ratio: 0.5
  }
}
layer {
  name: "cls_score"
  type: "InnerProduct"
  bottom: "fc6"
  top: "cls_score"
  param {
    lr_mult: 1
    decay_mult: 1
  }
  param {
    lr_mult: 2
    decay_mult: 0
  }
  inner_product_param {
    num_output: 201
    weight_filler {
      type: "gaussian"
      std: 0.01
    }
    bias_filler {
      type: "constant"
      value: 0
    }
  }
}
layer {
  name: "twin_pred"
  type: "InnerProduct"
  bottom: "fc6"
  top: "twin_pred"
  param {
    lr_mult: 1
    decay_mult: 1
  }
  param {
    lr_mult: 2
    decay_mult: 0
  }
  inner_product_param {
    num_output: 402
    weight_filler {
      type: "gaussian"
      std: 0.001
    }
    bias_filler {
      type: "constant"
      value: 0
    }
  }
}
layer {
  name: "loss_cls"
  type: "SoftmaxWithLoss"
  bottom: "cls_score"
  bottom: "labels"
  top: "loss_cls"
  loss_weight: 1
  propagate_down: true
  propagate_down: false
}
layer {
  name: "loss_twin"
  type: "SmoothL1Loss"
  bottom: "twin_pred"
  bottom: "twin_targets"
  bottom: "twin_inside_weights"
  bottom: "twin_outside_weights"
  top: "loss_twin"
  loss_weight: 1
}
layer {
  name: "accuarcy"
  type: "Accuracy"
  bottom: "cls_score"
  bottom: "labels"
  top: "accuarcy"
  propagate_down: false
  propagate_down: false
  accuracy_param {
    ignore_label: -1
  }
}
I0412 04:23:55.935287 25480 layer_factory.hpp:77] Creating layer data
I0412 04:23:55.950027 25480 net.cpp:100] Creating Layer data
I0412 04:23:55.950187 25480 net.cpp:408] data -> data
I0412 04:23:55.950232 25480 net.cpp:408] data -> gt_boxes
RoiDataLayer: name_to_top: {'gt_windows': 1, 'data': 0}
I0412 04:23:55.959092 25480 net.cpp:150] Setting up data
I0412 04:23:55.959115 25480 net.cpp:157] Top shape: 1 3 768 112 112 (28901376)
I0412 04:23:55.959121 25480 net.cpp:157] Top shape: 1 3 (3)
I0412 04:23:55.959125 25480 net.cpp:165] Memory required for data: 115605516
I0412 04:23:55.959133 25480 layer_factory.hpp:77] Creating layer data_data_0_split
I0412 04:23:55.959148 25480 net.cpp:100] Creating Layer data_data_0_split
I0412 04:23:55.959167 25480 net.cpp:434] data_data_0_split <- data
I0412 04:23:55.959179 25480 net.cpp:408] data_data_0_split -> data_data_0_split_0
I0412 04:23:55.959195 25480 net.cpp:408] data_data_0_split -> data_data_0_split_1
I0412 04:23:55.959254 25480 net.cpp:150] Setting up data_data_0_split
I0412 04:23:55.959264 25480 net.cpp:157] Top shape: 1 3 768 112 112 (28901376)
I0412 04:23:55.959270 25480 net.cpp:157] Top shape: 1 3 768 112 112 (28901376)
I0412 04:23:55.959276 25480 net.cpp:165] Memory required for data: 346816524
I0412 04:23:55.959281 25480 layer_factory.hpp:77] Creating layer gt_boxes_data_1_split
I0412 04:23:55.959291 25480 net.cpp:100] Creating Layer gt_boxes_data_1_split
I0412 04:23:55.959297 25480 net.cpp:434] gt_boxes_data_1_split <- gt_boxes
I0412 04:23:55.959306 25480 net.cpp:408] gt_boxes_data_1_split -> gt_boxes_data_1_split_0
I0412 04:23:55.959317 25480 net.cpp:408] gt_boxes_data_1_split -> gt_boxes_data_1_split_1
I0412 04:23:55.959367 25480 net.cpp:150] Setting up gt_boxes_data_1_split
I0412 04:23:55.959374 25480 net.cpp:157] Top shape: 1 3 (3)
I0412 04:23:55.959381 25480 net.cpp:157] Top shape: 1 3 (3)
I0412 04:23:55.959385 25480 net.cpp:165] Memory required for data: 346816548
I0412 04:23:55.959391 25480 layer_factory.hpp:77] Creating layer conv1a
I0412 04:23:55.959408 25480 net.cpp:100] Creating Layer conv1a
I0412 04:23:55.959414 25480 net.cpp:434] conv1a <- data_data_0_split_0
I0412 04:23:55.959421 25480 net.cpp:408] conv1a -> conv1a
I0412 04:23:55.977005 25480 net.cpp:150] Setting up conv1a
I0412 04:23:55.977035 25480 net.cpp:157] Top shape: 1 64 768 112 112 (616562688)
I0412 04:23:55.977039 25480 net.cpp:165] Memory required for data: 2813067300
I0412 04:23:55.977056 25480 layer_factory.hpp:77] Creating layer relu1a
I0412 04:23:55.977074 25480 net.cpp:100] Creating Layer relu1a
I0412 04:23:55.977082 25480 net.cpp:434] relu1a <- conv1a
I0412 04:23:55.977090 25480 net.cpp:395] relu1a -> conv1a (in-place)
I0412 04:23:55.977103 25480 net.cpp:150] Setting up relu1a
I0412 04:23:55.977110 25480 net.cpp:157] Top shape: 1 64 768 112 112 (616562688)
I0412 04:23:55.977114 25480 net.cpp:165] Memory required for data: 5279318052
I0412 04:23:55.977119 25480 layer_factory.hpp:77] Creating layer pool1
I0412 04:23:55.977128 25480 net.cpp:100] Creating Layer pool1
I0412 04:23:55.977134 25480 net.cpp:434] pool1 <- conv1a
I0412 04:23:55.977144 25480 net.cpp:408] pool1 -> pool1
I0412 04:23:55.977257 25480 net.cpp:150] Setting up pool1
I0412 04:23:55.977267 25480 net.cpp:157] Top shape: 1 64 768 56 56 (154140672)
I0412 04:23:55.977269 25480 net.cpp:165] Memory required for data: 5895880740
I0412 04:23:55.977275 25480 layer_factory.hpp:77] Creating layer conv2a
I0412 04:23:55.977289 25480 net.cpp:100] Creating Layer conv2a
I0412 04:23:55.977295 25480 net.cpp:434] conv2a <- pool1
I0412 04:23:55.977308 25480 net.cpp:408] conv2a -> conv2a
I0412 04:23:55.986130 25480 net.cpp:150] Setting up conv2a
I0412 04:23:55.986171 25480 net.cpp:157] Top shape: 1 128 768 56 56 (308281344)
I0412 04:23:55.986176 25480 net.cpp:165] Memory required for data: 7129006116
I0412 04:23:55.986197 25480 layer_factory.hpp:77] Creating layer relu2a
I0412 04:23:55.986212 25480 net.cpp:100] Creating Layer relu2a
I0412 04:23:55.986217 25480 net.cpp:434] relu2a <- conv2a
I0412 04:23:55.986225 25480 net.cpp:395] relu2a -> conv2a (in-place)
I0412 04:23:55.986240 25480 net.cpp:150] Setting up relu2a
I0412 04:23:55.986248 25480 net.cpp:157] Top shape: 1 128 768 56 56 (308281344)
I0412 04:23:55.986251 25480 net.cpp:165] Memory required for data: 8362131492
I0412 04:23:55.986258 25480 layer_factory.hpp:77] Creating layer pool2
I0412 04:23:55.986269 25480 net.cpp:100] Creating Layer pool2
I0412 04:23:55.986274 25480 net.cpp:434] pool2 <- conv2a
I0412 04:23:55.986284 25480 net.cpp:408] pool2 -> pool2
I0412 04:23:55.986402 25480 net.cpp:150] Setting up pool2
I0412 04:23:55.986433 25480 net.cpp:157] Top shape: 1 128 384 28 28 (38535168)
I0412 04:23:55.986448 25480 net.cpp:165] Memory required for data: 8516272164
I0412 04:23:55.986461 25480 layer_factory.hpp:77] Creating layer conv3a
I0412 04:23:55.986479 25480 net.cpp:100] Creating Layer conv3a
I0412 04:23:55.986485 25480 net.cpp:434] conv3a <- pool2
I0412 04:23:55.986492 25480 net.cpp:408] conv3a -> conv3a
I0412 04:23:55.998551 25480 net.cpp:150] Setting up conv3a
I0412 04:23:55.998620 25480 net.cpp:157] Top shape: 1 256 384 28 28 (77070336)
I0412 04:23:55.998636 25480 net.cpp:165] Memory required for data: 8824553508
I0412 04:23:55.998661 25480 layer_factory.hpp:77] Creating layer relu3a
I0412 04:23:55.998684 25480 net.cpp:100] Creating Layer relu3a
I0412 04:23:55.998700 25480 net.cpp:434] relu3a <- conv3a
I0412 04:23:55.998718 25480 net.cpp:395] relu3a -> conv3a (in-place)
I0412 04:23:55.998741 25480 net.cpp:150] Setting up relu3a
I0412 04:23:55.998759 25480 net.cpp:157] Top shape: 1 256 384 28 28 (77070336)
I0412 04:23:55.998772 25480 net.cpp:165] Memory required for data: 9132834852
I0412 04:23:55.998788 25480 layer_factory.hpp:77] Creating layer conv3b
I0412 04:23:55.998812 25480 net.cpp:100] Creating Layer conv3b
I0412 04:23:55.998829 25480 net.cpp:434] conv3b <- conv3a
I0412 04:23:55.998849 25480 net.cpp:408] conv3b -> conv3b
I0412 04:23:56.023654 25480 net.cpp:150] Setting up conv3b
I0412 04:23:56.023720 25480 net.cpp:157] Top shape: 1 256 384 28 28 (77070336)
I0412 04:23:56.023735 25480 net.cpp:165] Memory required for data: 9441116196
I0412 04:23:56.023754 25480 layer_factory.hpp:77] Creating layer relu3b
I0412 04:23:56.023777 25480 net.cpp:100] Creating Layer relu3b
I0412 04:23:56.023795 25480 net.cpp:434] relu3b <- conv3b
I0412 04:23:56.023814 25480 net.cpp:395] relu3b -> conv3b (in-place)
I0412 04:23:56.023838 25480 net.cpp:150] Setting up relu3b
I0412 04:23:56.023855 25480 net.cpp:157] Top shape: 1 256 384 28 28 (77070336)
I0412 04:23:56.023867 25480 net.cpp:165] Memory required for data: 9749397540
I0412 04:23:56.023883 25480 layer_factory.hpp:77] Creating layer pool3
I0412 04:23:56.023903 25480 net.cpp:100] Creating Layer pool3
I0412 04:23:56.023918 25480 net.cpp:434] pool3 <- conv3b
I0412 04:23:56.023936 25480 net.cpp:408] pool3 -> pool3
I0412 04:23:56.024018 25480 net.cpp:150] Setting up pool3
I0412 04:23:56.024039 25480 net.cpp:157] Top shape: 1 256 192 14 14 (9633792)
I0412 04:23:56.024055 25480 net.cpp:165] Memory required for data: 9787932708
I0412 04:23:56.024072 25480 layer_factory.hpp:77] Creating layer conv4a
I0412 04:23:56.024099 25480 net.cpp:100] Creating Layer conv4a
I0412 04:23:56.024118 25480 net.cpp:434] conv4a <- pool3
I0412 04:23:56.024152 25480 net.cpp:408] conv4a -> conv4a
I0412 04:23:56.071318 25480 net.cpp:150] Setting up conv4a
I0412 04:23:56.071394 25480 net.cpp:157] Top shape: 1 512 192 14 14 (19267584)
I0412 04:23:56.071409 25480 net.cpp:165] Memory required for data: 9865003044
I0412 04:23:56.071437 25480 layer_factory.hpp:77] Creating layer relu4a
I0412 04:23:56.071460 25480 net.cpp:100] Creating Layer relu4a
I0412 04:23:56.071477 25480 net.cpp:434] relu4a <- conv4a
I0412 04:23:56.071494 25480 net.cpp:395] relu4a -> conv4a (in-place)
I0412 04:23:56.071517 25480 net.cpp:150] Setting up relu4a
I0412 04:23:56.071534 25480 net.cpp:157] Top shape: 1 512 192 14 14 (19267584)
I0412 04:23:56.071547 25480 net.cpp:165] Memory required for data: 9942073380
I0412 04:23:56.071563 25480 layer_factory.hpp:77] Creating layer conv4b
I0412 04:23:56.071593 25480 net.cpp:100] Creating Layer conv4b
I0412 04:23:56.071600 25480 net.cpp:434] conv4b <- conv4a
I0412 04:23:56.071607 25480 net.cpp:408] conv4b -> conv4b
I0412 04:23:56.156008 25480 net.cpp:150] Setting up conv4b
I0412 04:23:56.156044 25480 net.cpp:157] Top shape: 1 512 192 14 14 (19267584)
I0412 04:23:56.156049 25480 net.cpp:165] Memory required for data: 10019143716
I0412 04:23:56.156060 25480 layer_factory.hpp:77] Creating layer relu4b
I0412 04:23:56.156071 25480 net.cpp:100] Creating Layer relu4b
I0412 04:23:56.156076 25480 net.cpp:434] relu4b <- conv4b
I0412 04:23:56.156085 25480 net.cpp:395] relu4b -> conv4b (in-place)
I0412 04:23:56.156095 25480 net.cpp:150] Setting up relu4b
I0412 04:23:56.156103 25480 net.cpp:157] Top shape: 1 512 192 14 14 (19267584)
I0412 04:23:56.156108 25480 net.cpp:165] Memory required for data: 10096214052
I0412 04:23:56.156113 25480 layer_factory.hpp:77] Creating layer pool4
I0412 04:23:56.156124 25480 net.cpp:100] Creating Layer pool4
I0412 04:23:56.156131 25480 net.cpp:434] pool4 <- conv4b
I0412 04:23:56.156138 25480 net.cpp:408] pool4 -> pool4
I0412 04:23:56.156224 25480 net.cpp:150] Setting up pool4
I0412 04:23:56.156239 25480 net.cpp:157] Top shape: 1 512 96 7 7 (2408448)
I0412 04:23:56.156244 25480 net.cpp:165] Memory required for data: 10105847844
I0412 04:23:56.156249 25480 layer_factory.hpp:77] Creating layer conv5a
I0412 04:23:56.156265 25480 net.cpp:100] Creating Layer conv5a
I0412 04:23:56.156272 25480 net.cpp:434] conv5a <- pool4
I0412 04:23:56.156281 25480 net.cpp:408] conv5a -> conv5a
I0412 04:23:56.254287 25480 net.cpp:150] Setting up conv5a
I0412 04:23:56.254369 25480 net.cpp:157] Top shape: 1 512 96 7 7 (2408448)
I0412 04:23:56.254386 25480 net.cpp:165] Memory required for data: 10115481636
I0412 04:23:56.254410 25480 layer_factory.hpp:77] Creating layer relu5a
I0412 04:23:56.254437 25480 net.cpp:100] Creating Layer relu5a
I0412 04:23:56.254456 25480 net.cpp:434] relu5a <- conv5a
I0412 04:23:56.254477 25480 net.cpp:395] relu5a -> conv5a (in-place)
I0412 04:23:56.254501 25480 net.cpp:150] Setting up relu5a
I0412 04:23:56.254514 25480 net.cpp:157] Top shape: 1 512 96 7 7 (2408448)
I0412 04:23:56.254518 25480 net.cpp:165] Memory required for data: 10125115428
I0412 04:23:56.254523 25480 layer_factory.hpp:77] Creating layer conv5b
I0412 04:23:56.254535 25480 net.cpp:100] Creating Layer conv5b
I0412 04:23:56.254541 25480 net.cpp:434] conv5b <- conv5a
I0412 04:23:56.254552 25480 net.cpp:408] conv5b -> conv5b
I0412 04:23:56.338717 25480 net.cpp:150] Setting up conv5b
I0412 04:23:56.338747 25480 net.cpp:157] Top shape: 1 512 96 7 7 (2408448)
I0412 04:23:56.338750 25480 net.cpp:165] Memory required for data: 10134749220
I0412 04:23:56.338758 25480 layer_factory.hpp:77] Creating layer relu5b
I0412 04:23:56.338768 25480 net.cpp:100] Creating Layer relu5b
I0412 04:23:56.338771 25480 net.cpp:434] relu5b <- conv5b
I0412 04:23:56.338780 25480 net.cpp:395] relu5b -> conv5b (in-place)
I0412 04:23:56.338789 25480 net.cpp:150] Setting up relu5b
I0412 04:23:56.338794 25480 net.cpp:157] Top shape: 1 512 96 7 7 (2408448)
I0412 04:23:56.338798 25480 net.cpp:165] Memory required for data: 10144383012
I0412 04:23:56.338800 25480 layer_factory.hpp:77] Creating layer conv5b_relu5b_0_split
I0412 04:23:56.338805 25480 net.cpp:100] Creating Layer conv5b_relu5b_0_split
I0412 04:23:56.338807 25480 net.cpp:434] conv5b_relu5b_0_split <- conv5b
I0412 04:23:56.338812 25480 net.cpp:408] conv5b_relu5b_0_split -> conv5b_relu5b_0_split_0
I0412 04:23:56.338819 25480 net.cpp:408] conv5b_relu5b_0_split -> conv5b_relu5b_0_split_1
I0412 04:23:56.338862 25480 net.cpp:150] Setting up conv5b_relu5b_0_split
I0412 04:23:56.338870 25480 net.cpp:157] Top shape: 1 512 96 7 7 (2408448)
I0412 04:23:56.338872 25480 net.cpp:157] Top shape: 1 512 96 7 7 (2408448)
I0412 04:23:56.338876 25480 net.cpp:165] Memory required for data: 10163650596
I0412 04:23:56.338879 25480 layer_factory.hpp:77] Creating layer rpn_conv/3x3
I0412 04:23:56.338889 25480 net.cpp:100] Creating Layer rpn_conv/3x3
I0412 04:23:56.338893 25480 net.cpp:434] rpn_conv/3x3 <- conv5b_relu5b_0_split_0
I0412 04:23:56.338899 25480 net.cpp:408] rpn_conv/3x3 -> rpn/output
I0412 04:23:56.398231 25480 net.cpp:150] Setting up rpn_conv/3x3
I0412 04:23:56.398260 25480 net.cpp:157] Top shape: 1 512 96 4 4 (786432)
I0412 04:23:56.398264 25480 net.cpp:165] Memory required for data: 10166796324
I0412 04:23:56.398283 25480 layer_factory.hpp:77] Creating layer rpn_relu/3x3
I0412 04:23:56.398295 25480 net.cpp:100] Creating Layer rpn_relu/3x3
I0412 04:23:56.398300 25480 net.cpp:434] rpn_relu/3x3 <- rpn/output
I0412 04:23:56.398310 25480 net.cpp:395] rpn_relu/3x3 -> rpn/output (in-place)
I0412 04:23:56.398320 25480 net.cpp:150] Setting up rpn_relu/3x3
I0412 04:23:56.398325 25480 net.cpp:157] Top shape: 1 512 96 4 4 (786432)
I0412 04:23:56.398329 25480 net.cpp:165] Memory required for data: 10169942052
I0412 04:23:56.398332 25480 layer_factory.hpp:77] Creating layer rpn_conv/3x3_2
I0412 04:23:56.398345 25480 net.cpp:100] Creating Layer rpn_conv/3x3_2
I0412 04:23:56.398350 25480 net.cpp:434] rpn_conv/3x3_2 <- rpn/output
I0412 04:23:56.398357 25480 net.cpp:408] rpn_conv/3x3_2 -> rpn/output_2
I0412 04:23:56.473371 25480 net.cpp:150] Setting up rpn_conv/3x3_2
I0412 04:23:56.473443 25480 net.cpp:157] Top shape: 1 512 96 2 2 (196608)
I0412 04:23:56.473460 25480 net.cpp:165] Memory required for data: 10170728484
I0412 04:23:56.473481 25480 layer_factory.hpp:77] Creating layer rpn_relu/3x3_2
I0412 04:23:56.473502 25480 net.cpp:100] Creating Layer rpn_relu/3x3_2
I0412 04:23:56.473520 25480 net.cpp:434] rpn_relu/3x3_2 <- rpn/output_2
I0412 04:23:56.473541 25480 net.cpp:395] rpn_relu/3x3_2 -> rpn/output_2 (in-place)
I0412 04:23:56.473567 25480 net.cpp:150] Setting up rpn_relu/3x3_2
I0412 04:23:56.473587 25480 net.cpp:157] Top shape: 1 512 96 2 2 (196608)
I0412 04:23:56.473603 25480 net.cpp:165] Memory required for data: 10171514916
I0412 04:23:56.473618 25480 layer_factory.hpp:77] Creating layer rpn/output_pool
I0412 04:23:56.473637 25480 net.cpp:100] Creating Layer rpn/output_pool
I0412 04:23:56.473654 25480 net.cpp:434] rpn/output_pool <- rpn/output_2
I0412 04:23:56.473675 25480 net.cpp:408] rpn/output_pool -> rpn/output_pool
I0412 04:23:56.473763 25480 net.cpp:150] Setting up rpn/output_pool
I0412 04:23:56.473788 25480 net.cpp:157] Top shape: 1 512 96 1 1 (49152)
I0412 04:23:56.473808 25480 net.cpp:165] Memory required for data: 10171711524
I0412 04:23:56.473824 25480 layer_factory.hpp:77] Creating layer rpn/output_pool_rpn/output_pool_0_split
I0412 04:23:56.473842 25480 net.cpp:100] Creating Layer rpn/output_pool_rpn/output_pool_0_split
I0412 04:23:56.473861 25480 net.cpp:434] rpn/output_pool_rpn/output_pool_0_split <- rpn/output_pool
I0412 04:23:56.473883 25480 net.cpp:408] rpn/output_pool_rpn/output_pool_0_split -> rpn/output_pool_rpn/output_pool_0_split_0
I0412 04:23:56.473906 25480 net.cpp:408] rpn/output_pool_rpn/output_pool_0_split -> rpn/output_pool_rpn/output_pool_0_split_1
I0412 04:23:56.473973 25480 net.cpp:150] Setting up rpn/output_pool_rpn/output_pool_0_split
I0412 04:23:56.473984 25480 net.cpp:157] Top shape: 1 512 96 1 1 (49152)
I0412 04:23:56.473989 25480 net.cpp:157] Top shape: 1 512 96 1 1 (49152)
I0412 04:23:56.473994 25480 net.cpp:165] Memory required for data: 10172104740
I0412 04:23:56.473997 25480 layer_factory.hpp:77] Creating layer rpn_cls_score
I0412 04:23:56.474010 25480 net.cpp:100] Creating Layer rpn_cls_score
I0412 04:23:56.474014 25480 net.cpp:434] rpn_cls_score <- rpn/output_pool_rpn/output_pool_0_split_0
I0412 04:23:56.474023 25480 net.cpp:408] rpn_cls_score -> rpn_cls_score
I0412 04:23:56.474786 25480 net.cpp:150] Setting up rpn_cls_score
I0412 04:23:56.474797 25480 net.cpp:157] Top shape: 1 74 96 1 1 (7104)
I0412 04:23:56.474800 25480 net.cpp:165] Memory required for data: 10172133156
I0412 04:23:56.474807 25480 layer_factory.hpp:77] Creating layer rpn_cls_score_rpn_cls_score_0_split
I0412 04:23:56.474815 25480 net.cpp:100] Creating Layer rpn_cls_score_rpn_cls_score_0_split
I0412 04:23:56.474820 25480 net.cpp:434] rpn_cls_score_rpn_cls_score_0_split <- rpn_cls_score
I0412 04:23:56.474826 25480 net.cpp:408] rpn_cls_score_rpn_cls_score_0_split -> rpn_cls_score_rpn_cls_score_0_split_0
I0412 04:23:56.474835 25480 net.cpp:408] rpn_cls_score_rpn_cls_score_0_split -> rpn_cls_score_rpn_cls_score_0_split_1
I0412 04:23:56.474896 25480 net.cpp:150] Setting up rpn_cls_score_rpn_cls_score_0_split
I0412 04:23:56.474906 25480 net.cpp:157] Top shape: 1 74 96 1 1 (7104)
I0412 04:23:56.474911 25480 net.cpp:157] Top shape: 1 74 96 1 1 (7104)
I0412 04:23:56.474917 25480 net.cpp:165] Memory required for data: 10172189988
I0412 04:23:56.474921 25480 layer_factory.hpp:77] Creating layer rpn_twin_pred
I0412 04:23:56.474938 25480 net.cpp:100] Creating Layer rpn_twin_pred
I0412 04:23:56.474944 25480 net.cpp:434] rpn_twin_pred <- rpn/output_pool_rpn/output_pool_0_split_1
I0412 04:23:56.474952 25480 net.cpp:408] rpn_twin_pred -> rpn_twin_pred
I0412 04:23:56.475782 25480 net.cpp:150] Setting up rpn_twin_pred
I0412 04:23:56.475816 25480 net.cpp:157] Top shape: 1 74 96 1 1 (7104)
I0412 04:23:56.475836 25480 net.cpp:165] Memory required for data: 10172218404
I0412 04:23:56.475857 25480 layer_factory.hpp:77] Creating layer rpn_twin_pred_rpn_twin_pred_0_split
I0412 04:23:56.475879 25480 net.cpp:100] Creating Layer rpn_twin_pred_rpn_twin_pred_0_split
I0412 04:23:56.475899 25480 net.cpp:434] rpn_twin_pred_rpn_twin_pred_0_split <- rpn_twin_pred
I0412 04:23:56.475911 25480 net.cpp:408] rpn_twin_pred_rpn_twin_pred_0_split -> rpn_twin_pred_rpn_twin_pred_0_split_0
I0412 04:23:56.475919 25480 net.cpp:408] rpn_twin_pred_rpn_twin_pred_0_split -> rpn_twin_pred_rpn_twin_pred_0_split_1
I0412 04:23:56.475985 25480 net.cpp:150] Setting up rpn_twin_pred_rpn_twin_pred_0_split
I0412 04:23:56.475996 25480 net.cpp:157] Top shape: 1 74 96 1 1 (7104)
I0412 04:23:56.476006 25480 net.cpp:157] Top shape: 1 74 96 1 1 (7104)
I0412 04:23:56.476011 25480 net.cpp:165] Memory required for data: 10172275236
I0412 04:23:56.476016 25480 layer_factory.hpp:77] Creating layer rpn_cls_score_reshape
I0412 04:23:56.476027 25480 net.cpp:100] Creating Layer rpn_cls_score_reshape
I0412 04:23:56.476035 25480 net.cpp:434] rpn_cls_score_reshape <- rpn_cls_score_rpn_cls_score_0_split_0
I0412 04:23:56.476045 25480 net.cpp:408] rpn_cls_score_reshape -> rpn_cls_score_reshape
I0412 04:23:56.476090 25480 net.cpp:150] Setting up rpn_cls_score_reshape
I0412 04:23:56.476102 25480 net.cpp:157] Top shape: 1 2 3552 1 1 (7104)
I0412 04:23:56.476106 25480 net.cpp:165] Memory required for data: 10172303652
I0412 04:23:56.476112 25480 layer_factory.hpp:77] Creating layer rpn_cls_score_reshape_rpn_cls_score_reshape_0_split
I0412 04:23:56.476121 25480 net.cpp:100] Creating Layer rpn_cls_score_reshape_rpn_cls_score_reshape_0_split
I0412 04:23:56.476128 25480 net.cpp:434] rpn_cls_score_reshape_rpn_cls_score_reshape_0_split <- rpn_cls_score_reshape
I0412 04:23:56.476138 25480 net.cpp:408] rpn_cls_score_reshape_rpn_cls_score_reshape_0_split -> rpn_cls_score_reshape_rpn_cls_score_reshape_0_split_0
I0412 04:23:56.476158 25480 net.cpp:408] rpn_cls_score_reshape_rpn_cls_score_reshape_0_split -> rpn_cls_score_reshape_rpn_cls_score_reshape_0_split_1
I0412 04:23:56.476171 25480 net.cpp:408] rpn_cls_score_reshape_rpn_cls_score_reshape_0_split -> rpn_cls_score_reshape_rpn_cls_score_reshape_0_split_2
I0412 04:23:56.476255 25480 net.cpp:150] Setting up rpn_cls_score_reshape_rpn_cls_score_reshape_0_split
I0412 04:23:56.476269 25480 net.cpp:157] Top shape: 1 2 3552 1 1 (7104)
I0412 04:23:56.476274 25480 net.cpp:157] Top shape: 1 2 3552 1 1 (7104)
I0412 04:23:56.476282 25480 net.cpp:157] Top shape: 1 2 3552 1 1 (7104)
I0412 04:23:56.476286 25480 net.cpp:165] Memory required for data: 10172388900
I0412 04:23:56.476294 25480 layer_factory.hpp:77] Creating layer rpn-data
I0412 04:23:56.476773 25480 net.cpp:100] Creating Layer rpn-data
I0412 04:23:56.476788 25480 net.cpp:434] rpn-data <- rpn_cls_score_rpn_cls_score_0_split_1
I0412 04:23:56.476796 25480 net.cpp:434] rpn-data <- gt_boxes_data_1_split_0
I0412 04:23:56.476805 25480 net.cpp:434] rpn-data <- data_data_0_split_1
I0412 04:23:56.476816 25480 net.cpp:408] rpn-data -> rpn_labels
I0412 04:23:56.476826 25480 net.cpp:408] rpn-data -> rpn_twin_targets
I0412 04:23:56.476836 25480 net.cpp:408] rpn-data -> rpn_twin_inside_weights
I0412 04:23:56.476848 25480 net.cpp:408] rpn-data -> rpn_twin_outside_weights
I0412 04:23:56.479787 25480 net.cpp:150] Setting up rpn-data
I0412 04:23:56.479804 25480 net.cpp:157] Top shape: 1 1 3552 1 1 (3552)
I0412 04:23:56.479811 25480 net.cpp:157] Top shape: 1 74 96 1 1 (7104)
I0412 04:23:56.479815 25480 net.cpp:157] Top shape: 1 74 96 1 1 (7104)
I0412 04:23:56.479817 25480 net.cpp:157] Top shape: 1 74 96 1 1 (7104)
I0412 04:23:56.479820 25480 net.cpp:165] Memory required for data: 10172488356
I0412 04:23:56.479823 25480 layer_factory.hpp:77] Creating layer rpn_labels_rpn-data_0_split
I0412 04:23:56.479828 25480 net.cpp:100] Creating Layer rpn_labels_rpn-data_0_split
I0412 04:23:56.479831 25480 net.cpp:434] rpn_labels_rpn-data_0_split <- rpn_labels
I0412 04:23:56.479836 25480 net.cpp:408] rpn_labels_rpn-data_0_split -> rpn_labels_rpn-data_0_split_0
I0412 04:23:56.479842 25480 net.cpp:408] rpn_labels_rpn-data_0_split -> rpn_labels_rpn-data_0_split_1
I0412 04:23:56.479879 25480 net.cpp:150] Setting up rpn_labels_rpn-data_0_split
I0412 04:23:56.479887 25480 net.cpp:157] Top shape: 1 1 3552 1 1 (3552)
I0412 04:23:56.479890 25480 net.cpp:157] Top shape: 1 1 3552 1 1 (3552)
I0412 04:23:56.479892 25480 net.cpp:165] Memory required for data: 10172516772
I0412 04:23:56.479895 25480 layer_factory.hpp:77] Creating layer rpn_loss_cls
I0412 04:23:56.479902 25480 net.cpp:100] Creating Layer rpn_loss_cls
I0412 04:23:56.479904 25480 net.cpp:434] rpn_loss_cls <- rpn_cls_score_reshape_rpn_cls_score_reshape_0_split_0
I0412 04:23:56.479908 25480 net.cpp:434] rpn_loss_cls <- rpn_labels_rpn-data_0_split_0
…
I0412 04:23:56.480213 25480 layer_factory.hpp:77] Creating layer rpn_accuarcy
I0412 04:23:56.480221 25480 net.cpp:100] Creating Layer rpn_accuarcy
I0412 04:23:56.480223 25480 net.cpp:434] rpn_accuarcy <- rpn_cls_score_reshape_rpn_cls_score_reshape_0_split_1
I0412 04:23:56.480227 25480 net.cpp:434] rpn_accuarcy <- rpn_labels_rpn-data_0_split_1
I0412 04:23:56.480232 25480 net.cpp:408] rpn_accuarcy -> rpn_accuarcy
I0412 04:23:56.480237 25480 net.cpp:408] rpn_accuarcy -> rpn_accuarcy_class
I0412 04:23:56.480275 25480 net.cpp:150] Setting up rpn_accuarcy
I0412 04:23:56.480283 25480 net.cpp:157] Top shape: (1)
I0412 04:23:56.480288 25480 net.cpp:157] Top shape: 2 (2)
I0412 04:23:56.480291 25480 net.cpp:165] Memory required for data: 10172516792
I0412 04:23:56.480295 25480 layer_factory.hpp:77] Creating layer rpn_cls_prob
I0412 04:23:56.480301 25480 net.cpp:100] Creating Layer rpn_cls_prob
I0412 04:23:56.480307 25480 net.cpp:434] rpn_cls_prob <- rpn_cls_score_reshape_rpn_cls_score_reshape_0_split_2
I0412 04:23:56.480319 25480 net.cpp:408] rpn_cls_prob -> rpn_cls_prob
I0412 04:23:56.480464 25480 net.cpp:150] Setting up rpn_cls_prob
I0412 04:23:56.480489 25480 net.cpp:157] Top shape: 1 2 3552 1 1 (7104)
I0412 04:23:56.480504 25480 net.cpp:165] Memory required for data: 10172545208
I0412 04:23:56.480518 25480 layer_factory.hpp:77] Creating layer rpn_cls_prob_reshape
I0412 04:23:56.480535 25480 net.cpp:100] Creating Layer rpn_cls_prob_reshape
I0412 04:23:56.480551 25480 net.cpp:434] rpn_cls_prob_reshape <- rpn_cls_prob
I0412 04:23:56.480568 25480 net.cpp:408] rpn_cls_prob_reshape -> rpn_cls_prob_reshape
I0412 04:23:56.480618 25480 net.cpp:150] Setting up rpn_cls_prob_reshape
I0412 04:23:56.480639 25480 net.cpp:157] Top shape: 1 74 96 1 1 (7104)
I0412 04:23:56.480653 25480 net.cpp:165] Memory required for data: 10172573624
I0412 04:23:56.480666 25480 layer_factory.hpp:77] Creating layer proposal
I0412 04:23:56.481359 25480 net.cpp:100] Creating Layer proposal
I0412 04:23:56.481387 25480 net.cpp:434] proposal <- rpn_cls_prob_reshape
I0412 04:23:56.481397 25480 net.cpp:434] proposal <- rpn_twin_pred_rpn_twin_pred_0_split_1
I0412 04:23:56.481406 25480 net.cpp:408] proposal -> rpn_rois
I0412 04:23:56.487581 25480 net.cpp:150] Setting up proposal
I0412 04:23:56.487618 25480 net.cpp:157] Top shape: 1 3 (3)
I0412 04:23:56.487633 25480 net.cpp:165] Memory required for data: 10172573636
I0412 04:23:56.487648 25480 layer_factory.hpp:77] Creating layer roi-data
I0412 04:23:56.487830 25480 net.cpp:100] Creating Layer roi-data
I0412 04:23:56.487854 25480 net.cpp:434] roi-data <- rpn_rois
I0412 04:23:56.487871 25480 net.cpp:434] roi-data <- gt_boxes_data_1_split_1
I0412 04:23:56.487890 25480 net.cpp:408] roi-data -> rois
I0412 04:23:56.487910 25480 net.cpp:408] roi-data -> labels
I0412 04:23:56.487927 25480 net.cpp:408] roi-data -> twin_targets
I0412 04:23:56.487946 25480 net.cpp:408] roi-data -> twin_inside_weights
I0412 04:23:56.487965 25480 net.cpp:408] roi-data -> twin_outside_weights
I0412 04:23:56.488469 25480 net.cpp:150] Setting up roi-data
I0412 04:23:56.488498 25480 net.cpp:157] Top shape: 1 3 (3)
I0412 04:23:56.488514 25480 net.cpp:157] Top shape: 1 1 (1)
I0412 04:23:56.488528 25480 net.cpp:157] Top shape: 1 402 (402)
I0412 04:23:56.488543 25480 net.cpp:157] Top shape: 1 402 (402)
I0412 04:23:56.488557 25480 net.cpp:157] Top shape: 1 402 (402)
I0412 04:23:56.488569 25480 net.cpp:165] Memory required for data: 10172578476
I0412 04:23:56.488584 25480 layer_factory.hpp:77] Creating layer labels_roi-data_1_split
I0412 04:23:56.488600 25480 net.cpp:100] Creating Layer labels_roi-data_1_split
I0412 04:23:56.488613 25480 net.cpp:434] labels_roi-data_1_split <- labels
I0412 04:23:56.488631 25480 net.cpp:408] labels_roi-data_1_split -> labels_roi-data_1_split_0
I0412 04:23:56.488651 25480 net.cpp:408] labels_roi-data_1_split -> labels_roi-data_1_split_1
I0412 04:23:56.488718 25480 net.cpp:150] Setting up labels_roi-data_1_split
I0412 04:23:56.488737 25480 net.cpp:157] Top shape: 1 1 (1)
I0412 04:23:56.488751 25480 net.cpp:157] Top shape: 1 1 (1)
I0412 04:23:56.488765 25480 net.cpp:165] Memory required for data: 10172578484
I0412 04:23:56.488777 25480 layer_factory.hpp:77] Creating layer roi_pool5
I0412 04:23:56.488798 25480 net.cpp:100] Creating Layer roi_pool5
I0412 04:23:56.488821 25480 net.cpp:434] roi_pool5 <- conv5b_relu5b_0_split_1
I0412 04:23:56.488837 25480 net.cpp:434] roi_pool5 <- rois
I0412 04:23:56.488852 25480 net.cpp:408] roi_pool5 -> pool5
I0412 04:23:56.488871 25480 roi_pooling_layer.cpp:34] Temporal scale: 0.125
I0412 04:23:56.488890 25480 roi_pooling_layer.cpp:35] Spatial scale: 0.0625
I0412 04:23:56.488957 25480 net.cpp:150] Setting up roi_pool5
I0412 04:23:56.488979 25480 net.cpp:157] Top shape: 1 512 1 4 4 (8192)
I0412 04:23:56.488994 25480 net.cpp:165] Memory required for data: 10172611252
I0412 04:23:56.489007 25480 layer_factory.hpp:77] Creating layer fc6
I0412 04:23:56.489025 25480 net.cpp:100] Creating Layer fc6
I0412 04:23:56.489039 25480 net.cpp:434] fc6 <- pool5
I0412 04:23:56.489055 25480 net.cpp:408] fc6 -> fc6
I0412 04:23:56.904739 25480 net.cpp:150] Setting up fc6
I0412 04:23:56.904770 25480 net.cpp:157] Top shape: 1 4096 (4096)
I0412 04:23:56.904773 25480 net.cpp:165] Memory required for data: 10172627636
I0412 04:23:56.904784 25480 layer_factory.hpp:77] Creating layer relu6
I0412 04:23:56.904794 25480 net.cpp:100] Creating Layer relu6
I0412 04:23:56.904799 25480 net.cpp:434] relu6 <- fc6
I0412 04:23:56.904804 25480 net.cpp:395] relu6 -> fc6 (in-place)
I0412 04:23:56.904814 25480 net.cpp:150] Setting up relu6
I0412 04:23:56.904819 25480 net.cpp:157] Top shape: 1 4096 (4096)
I0412 04:23:56.904821 25480 net.cpp:165] Memory required for data: 10172644020
I0412 04:23:56.904824 25480 layer_factory.hpp:77] Creating layer drop6
I0412 04:23:56.904832 25480 net.cpp:100] Creating Layer drop6
I0412 04:23:56.904836 25480 net.cpp:434] drop6 <- fc6
I0412 04:23:56.904840 25480 net.cpp:395] drop6 -> fc6 (in-place)
I0412 04:23:56.904865 25480 net.cpp:150] Setting up drop6
I0412 04:23:56.904872 25480 net.cpp:157] Top shape: 1 4096 (4096)
I0412 04:23:56.904875 25480 net.cpp:165] Memory required for data: 10172660404
I0412 04:23:56.904878 25480 layer_factory.hpp:77] Creating layer fc6_drop6_0_split
I0412 04:23:56.904884 25480 net.cpp:100] Creating Layer fc6_drop6_0_split
I0412 04:23:56.904888 25480 net.cpp:434] fc6_drop6_0_split <- fc6
I0412 04:23:56.904894 25480 net.cpp:408] fc6_drop6_0_split -> fc6_drop6_0_split_0
I0412 04:23:56.904902 25480 net.cpp:408] fc6_drop6_0_split -> fc6_drop6_0_split_1
I0412 04:23:56.904942 25480 net.cpp:150] Setting up fc6_drop6_0_split
I0412 04:23:56.904948 25480 net.cpp:157] Top shape: 1 4096 (4096)
I0412 04:23:56.904952 25480 net.cpp:157] Top shape: 1 4096 (4096)
I0412 04:23:56.904954 25480 net.cpp:165] Memory required for data: 10172693172
I0412 04:23:56.904956 25480 layer_factory.hpp:77] Creating layer cls_score
I0412 04:23:56.904966 25480 net.cpp:100] Creating Layer cls_score
I0412 04:23:56.904973 25480 net.cpp:434] cls_score <- fc6_drop6_0_split_0
I0412 04:23:56.904981 25480 net.cpp:408] cls_score -> cls_score
I0412 04:23:56.913977 25480 net.cpp:150] Setting up cls_score
I0412 04:23:56.914007 25480 net.cpp:157] Top shape: 1 201 (201)
I0412 04:23:56.914019 25480 net.cpp:165] Memory required for data: 10172693976
I0412 04:23:56.914032 25480 layer_factory.hpp:77] Creating layer cls_score_cls_score_0_split
I0412 04:23:56.914044 25480 net.cpp:100] Creating Layer cls_score_cls_score_0_split
I0412 04:23:56.914050 25480 net.cpp:434] cls_score_cls_score_0_split <- cls_score
I0412 04:23:56.914058 25480 net.cpp:408] cls_score_cls_score_0_split -> cls_score_cls_score_0_split_0
I0412 04:23:56.914086 25480 net.cpp:408] cls_score_cls_score_0_split -> cls_score_cls_score_0_split_1
I0412 04:23:56.914139 25480 net.cpp:150] Setting up cls_score_cls_score_0_split
I0412 04:23:56.914145 25480 net.cpp:157] Top shape: 1 201 (201)
I0412 04:23:56.914150 25480 net.cpp:157] Top shape: 1 201 (201)
I0412 04:23:56.914155 25480 net.cpp:165] Memory required for data: 10172695584
I0412 04:23:56.914160 25480 layer_factory.hpp:77] Creating layer twin_pred
I0412 04:23:56.914171 25480 net.cpp:100] Creating Layer twin_pred
I0412 04:23:56.914177 25480 net.cpp:434] twin_pred <- fc6_drop6_0_split_1
I0412 04:23:56.914186 25480 net.cpp:408] twin_pred -> twin_pred
I0412 04:23:56.931056 25480 net.cpp:150] Setting up twin_pred
I0412 04:23:56.931087 25480 net.cpp:157] Top shape: 1 402 (402)
I0412 04:23:56.931092 25480 net.cpp:165] Memory required for data: 10172697192
I0412 04:23:56.931103 25480 layer_factory.hpp:77] Creating layer loss_cls
I0412 04:23:56.931115 25480 net.cpp:100] Creating Layer loss_cls
I0412 04:23:56.931120 25480 net.cpp:434] loss_cls <- cls_score_cls_score_0_split_0
I0412 04:23:56.931128 25480 net.cpp:434] loss_cls <- labels_roi-data_1_split_0
I0412 04:23:56.931141 25480 net.cpp:408] loss_cls -> loss_cls
…
