…
stepsize: 350000
snapshot: 0
snapshot_prefix: "./experiments/activitynet/snapshot/activitynet"
average_loss: 100
iter_size: 1
I0418 00:34:11.598204  2979 solver.cpp:81] Creating training net from train_net file: ./experiments/activitynet/train.prototxt
I0418 00:34:11.599676  2979 net.cpp:58] Initializing net from parameters: 
name: "activitynet"
state {
  phase: TRAIN
}
layer {
  name: "data"
  type: "Python"
  top: "data"
  top: "gt_boxes"
  python_param {
    module: "roi_data_layer.layer"
    layer: "RoIDataLayer"
    param_str: "\'num_classes\': 100"
  }
}
layer {
  name: "conv1a"
  type: "Convolution"
  bottom: "data"
  top: "conv1a"
  param {
    lr_mult: 0
    decay_mult: 0
  }
  param {
    lr_mult: 0
    decay_mult: 0
  }
  convolution_param {
    num_output: 64
    pad: 1
    pad: 1
    pad: 1
    kernel_size: 3
    kernel_size: 3
    kernel_size: 3
    weight_filler {
      type: "gaussian"
      std: 0.01
    }
    bias_filler {
      type: "constant"
      value: 0
    }
  }
}
layer {
  name: "relu1a"
  type: "ReLU"
  bottom: "conv1a"
  top: "conv1a"
}
layer {
  name: "pool1"
  type: "Pooling"
  bottom: "conv1a"
  top: "pool1"
  pooling_param {
    pool: MAX
    kernel_size: 1
    kernel_size: 2
    kernel_size: 2
    stride: 1
    stride: 2
    stride: 2
  }
}
layer {
  name: "conv2a"
  type: "Convolution"
  bottom: "pool1"
  top: "conv2a"
  param {
    lr_mult: 0
    decay_mult: 0
  }
  param {
    lr_mult: 0
    decay_mult: 0
  }
  convolution_param {
    num_output: 128
    pad: 1
    pad: 1
    pad: 1
    kernel_size: 3
    kernel_size: 3
    kernel_size: 3
    weight_filler {
      type: "gaussian"
      std: 0.01
    }
    bias_filler {
      type: "constant"
      value: 1
    }
  }
}
layer {
  name: "relu2a"
  type: "ReLU"
  bottom: "conv2a"
  top: "conv2a"
}
layer {
  name: "pool2"
  type: "Pooling"
  bottom: "conv2a"
  top: "pool2"
  pooling_param {
    pool: MAX
    kernel_size: 2
    kernel_size: 2
    kernel_size: 2
    stride: 2
    stride: 2
    stride: 2
  }
}
layer {
  name: "conv3a"
  type: "Convolution"
  bottom: "pool2"
  top: "conv3a"
  param {
    lr_mult: 1
    decay_mult: 1
  }
  param {
    lr_mult: 2
    decay_mult: 0
  }
  convolution_param {
    num_output: 256
    pad: 1
    pad: 1
    pad: 1
    kernel_size: 3
    kernel_size: 3
    kernel_size: 3
    weight_filler {
      type: "gaussian"
      std: 0.01
    }
    bias_filler {
      type: "constant"
      value: 1
    }
  }
}
layer {
  name: "relu3a"
  type: "ReLU"
  bottom: "conv3a"
  top: "conv3a"
}
layer {
  name: "conv3b"
  type: "Convolution"
  bottom: "conv3a"
  top: "conv3b"
  param {
    lr_mult: 1
    decay_mult: 1
  }
  param {
    lr_mult: 2
    decay_mult: 0
  }
  convolution_param {
    num_output: 256
    pad: 1
    pad: 1
    pad: 1
    kernel_size: 3
    kernel_size: 3
    kernel_size: 3
    weight_filler {
      type: "gaussian"
      std: 0.01
    }
    bias_filler {
      type: "constant"
      value: 1
    }
  }
}
layer {
  name: "relu3b"
  type: "ReLU"
  bottom: "conv3b"
  top: "conv3b"
}
layer {
  name: "pool3"
  type: "Pooling"
  bottom: "conv3b"
  top: "pool3"
  pooling_param {
    pool: MAX
    kernel_size: 2
    kernel_size: 2
    kernel_size: 2
    stride: 2
    stride: 2
    stride: 2
  }
}
layer {
  name: "conv4a"
  type: "Convolution"
  bottom: "pool3"
  top: "conv4a"
  param {
    lr_mult: 1
    decay_mult: 1
  }
  param {
    lr_mult: 2
    decay_mult: 0
  }
  convolution_param {
    num_output: 512
    pad: 1
    pad: 1
    pad: 1
    kernel_size: 3
    kernel_size: 3
    kernel_size: 3
    weight_filler {
      type: "gaussian"
      std: 0.01
    }
    bias_filler {
      type: "constant"
      value: 1
    }
  }
}
layer {
  name: "relu4a"
  type: "ReLU"
  bottom: "conv4a"
  top: "conv4a"
}
layer {
  name: "conv4b"
  type: "Convolution"
  bottom: "conv4a"
  top: "conv4b"
  param {
    lr_mult: 1
    decay_mult: 1
  }
  param {
    lr_mult: 2
    decay_mult: 0
  }
  convolution_param {
    num_output: 512
    pad: 1
    pad: 1
    pad: 1
    kernel_size: 3
    kernel_size: 3
    kernel_size: 3
    weight_filler {
      type: "gaussian"
      std: 0.01
    }
    bias_filler {
      type: "constant"
      value: 1
    }
  }
}
layer {
  name: "relu4b"
  type: "ReLU"
  bottom: "conv4b"
  top: "conv4b"
}
layer {
  name: "pool4"
  type: "Pooling"
  bottom: "conv4b"
  top: "pool4"
  pooling_param {
    pool: MAX
    kernel_size: 2
    kernel_size: 2
    kernel_size: 2
    stride: 2
    stride: 2
    stride: 2
  }
}
layer {
  name: "conv5a"
  type: "Convolution"
  bottom: "pool4"
  top: "conv5a"
  param {
    lr_mult: 1
    decay_mult: 1
  }
  param {
    lr_mult: 2
    decay_mult: 0
  }
  convolution_param {
    num_output: 512
    pad: 1
    pad: 1
    pad: 1
    kernel_size: 3
    kernel_size: 3
    kernel_size: 3
    weight_filler {
      type: "gaussian"
      std: 0.01
    }
    bias_filler {
      type: "constant"
      value: 1
    }
  }
}
layer {
  name: "relu5a"
  type: "ReLU"
  bottom: "conv5a"
  top: "conv5a"
}
layer {
  name: "conv5b"
  type: "Convolution"
  bottom: "conv5a"
  top: "conv5b"
  param {
    lr_mult: 1
    decay_mult: 1
  }
  param {
    lr_mult: 2
    decay_mult: 0
  }
  convolution_param {
    num_output: 512
    pad: 1
    pad: 1
    pad: 1
    kernel_size: 3
    kernel_size: 3
    kernel_size: 3
    weight_filler {
      type: "gaussian"
      std: 0.01
    }
    bias_filler {
      type: "constant"
      value: 1
    }
  }
}
layer {
  name: "relu5b"
  type: "ReLU"
  bottom: "conv5b"
  top: "conv5b"
}
layer {
  name: "rpn_conv/3x3"
  type: "Convolution"
  bottom: "conv5b"
  top: "rpn/output"
  param {
    lr_mult: 1
    decay_mult: 1
  }
  param {
    lr_mult: 2
    decay_mult: 0
  }
  convolution_param {
    num_output: 512
    pad: 1
    pad: 1
    pad: 1
    kernel_size: 3
    kernel_size: 3
    kernel_size: 3
    stride: 1
    stride: 2
    stride: 2
    weight_filler {
      type: "gaussian"
      std: 0.01
    }
    bias_filler {
      type: "constant"
      value: 0
    }
  }
}
layer {
  name: "rpn_relu/3x3"
  type: "ReLU"
  bottom: "rpn/output"
  top: "rpn/output"
}
layer {
  name: "rpn_conv/3x3_2"
  type: "Convolution"
  bottom: "rpn/output"
  top: "rpn/output_2"
  param {
    lr_mult: 1
    decay_mult: 1
  }
  param {
    lr_mult: 2
    decay_mult: 0
  }
  convolution_param {
    num_output: 512
    pad: 1
    pad: 1
    pad: 1
    kernel_size: 3
    kernel_size: 3
    kernel_size: 3
    stride: 1
    stride: 2
    stride: 2
    weight_filler {
      type: "gaussian"
      std: 0.01
    }
    bias_filler {
      type: "constant"
      value: 0
    }
  }
}
layer {
  name: "rpn_relu/3x3_2"
  type: "ReLU"
  bottom: "rpn/output_2"
  top: "rpn/output_2"
}
layer {
  name: "rpn/output_pool"
  type: "Pooling"
  bottom: "rpn/output_2"
  top: "rpn/output_pool"
  pooling_param {
    pool: MAX
    kernel_size: 1
    kernel_size: 2
    kernel_size: 2
  }
}
layer {
  name: "rpn_cls_score"
  type: "Convolution"
  bottom: "rpn/output_pool"
  top: "rpn_cls_score"
  param {
    lr_mult: 1
    decay_mult: 1
  }
  param {
    lr_mult: 2
    decay_mult: 0
  }
  convolution_param {
    num_output: 74
    kernel_size: 1
    kernel_size: 1
    kernel_size: 1
    weight_filler {
      type: "gaussian"
      std: 0.01
    }
    bias_filler {
      type: "constant"
      value: 0
    }
  }
}
layer {
  name: "rpn_twin_pred"
  type: "Convolution"
  bottom: "rpn/output_pool"
  top: "rpn_twin_pred"
  param {
    lr_mult: 1
    decay_mult: 1
  }
  param {
    lr_mult: 2
    decay_mult: 0
  }
  convolution_param {
    num_output: 74
    kernel_size: 1
    kernel_size: 1
    kernel_size: 1
    weight_filler {
      type: "gaussian"
      std: 0.01
    }
    bias_filler {
      type: "constant"
      value: 0
    }
  }
}
layer {
  name: "rpn_cls_score_reshape"
  type: "Reshape"
  bottom: "rpn_cls_score"
  top: "rpn_cls_score_reshape"
  reshape_param {
    shape {
      dim: 0
      dim: 2
      dim: -1
      dim: 0
      dim: 0
    }
  }
}
layer {
  name: "rpn-data"
  type: "Python"
  bottom: "rpn_cls_score"
  bottom: "gt_boxes"
  bottom: "data"
  top: "rpn_labels"
  top: "rpn_twin_targets"
  top: "rpn_twin_inside_weights"
  top: "rpn_twin_outside_weights"
  python_param {
    module: "rpn.anchor_target_layer"
    layer: "AnchorTargetLayer"
    param_str: "\'feat_stride\': 8 \n\'scales\': !!python/tuple [1,1.25, 1.5,1.75, 2,2.5, 3,3.5, 4,4.5, 5,5.5, 6,7, 8,9,10,11,12,14,16,18,20,22,24,28,32,36,40,44,52,60,68,76,84,92,100]"
  }
}
layer {
  name: "rpn_loss_cls"
  type: "SoftmaxWithLoss"
  bottom: "rpn_cls_score_reshape"
  bottom: "rpn_labels"
  top: "rpn_cls_loss"
  loss_weight: 1
  propagate_down: true
  propagate_down: false
  loss_param {
    ignore_label: -1
    normalize: true
  }
}
layer {
  name: "rpn_loss_twin"
  type: "SmoothL1Loss"
  bottom: "rpn_twin_pred"
  bottom: "rpn_twin_targets"
  bottom: "rpn_twin_inside_weights"
  bottom: "rpn_twin_outside_weights"
  top: "rpn_loss_twin"
  loss_weight: 1
  smooth_l1_loss_param {
    sigma: 3
  }
}
layer {
  name: "rpn_accuarcy"
  type: "Accuracy"
  bottom: "rpn_cls_score_reshape"
  bottom: "rpn_labels"
  top: "rpn_accuarcy"
  top: "rpn_accuarcy_class"
  propagate_down: false
  propagate_down: false
  accuracy_param {
    ignore_label: -1
  }
}
layer {
  name: "rpn_cls_prob"
  type: "Softmax"
  bottom: "rpn_cls_score_reshape"
  top: "rpn_cls_prob"
}
layer {
  name: "rpn_cls_prob_reshape"
  type: "Reshape"
  bottom: "rpn_cls_prob"
  top: "rpn_cls_prob_reshape"
  reshape_param {
    shape {
      dim: 0
      dim: 74
      dim: -1
      dim: 0
      dim: 0
    }
  }
}
layer {
  name: "proposal"
  type: "Python"
  bottom: "rpn_cls_prob_reshape"
  bottom: "rpn_twin_pred"
  top: "rpn_rois"
  include {
    phase: TRAIN
  }
  python_param {
    module: "rpn.proposal_layer"
    layer: "ProposalLayer"
    param_str: "\'feat_stride\': 8 \n\'scales\': !!python/tuple [1,1.25, 1.5,1.75, 2,2.5, 3,3.5, 4,4.5, 5,5.5, 6,7, 8,9,10,11,12,14,16,18,20,22,24,28,32,36,40,44,52,60,68,76,84,92,100]"
  }
}
layer {
  name: "roi-data"
  type: "Python"
  bottom: "rpn_rois"
  bottom: "gt_boxes"
  top: "rois"
  top: "labels"
  top: "twin_targets"
  top: "twin_inside_weights"
  top: "twin_outside_weights"
  python_param {
    module: "rpn.proposal_target_layer"
    layer: "ProposalTargetLayer"
    param_str: "\'num_classes\': 201"
  }
}
layer {
  name: "roi_pool5"
  type: "ROIPooling"
  bottom: "conv5b"
  bottom: "rois"
  top: "pool5"
  roi_pooling_param {
    pooled_h: 4
    pooled_w: 4
    spatial_scale: 0.0625
    pooled_l: 1
    temporal_scale: 0.125
  }
}
layer {
  name: "fc6"
  type: "InnerProduct"
  bottom: "pool5"
  top: "fc6"
  param {
    lr_mult: 1
    decay_mult: 1
  }
  param {
    lr_mult: 2
    decay_mult: 0
  }
  inner_product_param {
    num_output: 4096
    weight_filler {
      type: "gaussian"
      std: 0.005
    }
    bias_filler {
      type: "constant"
      value: 1
    }
  }
}
layer {
  name: "relu6"
  type: "ReLU"
  bottom: "fc6"
  top: "fc6"
}
layer {
  name: "drop6"
  type: "Dropout"
  bottom: "fc6"
  top: "fc6"
  dropout_param {
    dropout_ratio: 0.5
  }
}
layer {
  name: "cls_score"
  type: "InnerProduct"
  bottom: "fc6"
  top: "cls_score"
  param {
    lr_mult: 1
    decay_mult: 1
  }
  param {
    lr_mult: 2
    decay_mult: 0
  }
  inner_product_param {
    num_output: 201
    weight_filler {
      type: "gaussian"
      std: 0.01
    }
    bias_filler {
      type: "constant"
      value: 0
    }
  }
}
layer {
  name: "twin_pred"
  type: "InnerProduct"
  bottom: "fc6"
  top: "twin_pred"
  param {
    lr_mult: 1
    decay_mult: 1
  }
  param {
    lr_mult: 2
    decay_mult: 0
  }
  inner_product_param {
    num_output: 402
    weight_filler {
      type: "gaussian"
      std: 0.001
    }
    bias_filler {
      type: "constant"
      value: 0
    }
  }
}
layer {
  name: "loss_cls"
  type: "SoftmaxWithLoss"
  bottom: "cls_score"
  bottom: "labels"
  top: "loss_cls"
  loss_weight: 1
  propagate_down: true
  propagate_down: false
}
layer {
  name: "loss_twin"
  type: "SmoothL1Loss"
  bottom: "twin_pred"
  bottom: "twin_targets"
  bottom: "twin_inside_weights"
  bottom: "twin_outside_weights"
  top: "loss_twin"
  loss_weight: 1
}
layer {
  name: "accuarcy"
  type: "Accuracy"
  bottom: "cls_score"
  bottom: "labels"
  top: "accuarcy"
  propagate_down: false
  propagate_down: false
  accuracy_param {
    ignore_label: -1
  }
}
I0418 00:34:11.600003  2979 layer_factory.hpp:77] Creating layer data
I0418 00:34:11.624845  2979 net.cpp:100] Creating Layer data
I0418 00:34:11.624868  2979 net.cpp:408] data -> data
I0418 00:34:11.624886  2979 net.cpp:408] data -> gt_boxes
setting up
has rpn
RoiDataLayer: name_to_top: {'gt_windows': 1, 'data': 0}
I0418 00:34:11.647136  2979 net.cpp:150] Setting up data
I0418 00:34:11.647161  2979 net.cpp:157] Top shape: 1 3 768 112 112 (28901376)
I0418 00:34:11.647174  2979 net.cpp:157] Top shape: 1 101 (101)
I0418 00:34:11.647181  2979 net.cpp:165] Memory required for data: 115605908
I0418 00:34:11.647191  2979 layer_factory.hpp:77] Creating layer data_data_0_split
I0418 00:34:11.647207  2979 net.cpp:100] Creating Layer data_data_0_split
I0418 00:34:11.647215  2979 net.cpp:434] data_data_0_split <- data
I0418 00:34:11.647224  2979 net.cpp:408] data_data_0_split -> data_data_0_split_0
I0418 00:34:11.647239  2979 net.cpp:408] data_data_0_split -> data_data_0_split_1
I0418 00:34:11.647279  2979 net.cpp:150] Setting up data_data_0_split
I0418 00:34:11.647291  2979 net.cpp:157] Top shape: 1 3 768 112 112 (28901376)
I0418 00:34:11.647298  2979 net.cpp:157] Top shape: 1 3 768 112 112 (28901376)
I0418 00:34:11.647303  2979 net.cpp:165] Memory required for data: 346816916
I0418 00:34:11.647310  2979 layer_factory.hpp:77] Creating layer gt_boxes_data_1_split
I0418 00:34:11.647318  2979 net.cpp:100] Creating Layer gt_boxes_data_1_split
I0418 00:34:11.647325  2979 net.cpp:434] gt_boxes_data_1_split <- gt_boxes
I0418 00:34:11.647332  2979 net.cpp:408] gt_boxes_data_1_split -> gt_boxes_data_1_split_0
I0418 00:34:11.647341  2979 net.cpp:408] gt_boxes_data_1_split -> gt_boxes_data_1_split_1
I0418 00:34:11.647377  2979 net.cpp:150] Setting up gt_boxes_data_1_split
I0418 00:34:11.647387  2979 net.cpp:157] Top shape: 1 101 (101)
I0418 00:34:11.647393  2979 net.cpp:157] Top shape: 1 101 (101)
I0418 00:34:11.647398  2979 net.cpp:165] Memory required for data: 346817724
I0418 00:34:11.647404  2979 layer_factory.hpp:77] Creating layer conv1a
I0418 00:34:11.647425  2979 net.cpp:100] Creating Layer conv1a
I0418 00:34:11.647433  2979 net.cpp:434] conv1a <- data_data_0_split_0
I0418 00:34:11.647440  2979 net.cpp:408] conv1a -> conv1a
I0418 00:34:11.917925  2979 net.cpp:150] Setting up conv1a
I0418 00:34:11.917953  2979 net.cpp:157] Top shape: 1 64 768 112 112 (616562688)
I0418 00:34:11.917958  2979 net.cpp:165] Memory required for data: 2813068476
I0418 00:34:11.917976  2979 layer_factory.hpp:77] Creating layer relu1a
I0418 00:34:11.917989  2979 net.cpp:100] Creating Layer relu1a
I0418 00:34:11.917994  2979 net.cpp:434] relu1a <- conv1a
I0418 00:34:11.918000  2979 net.cpp:395] relu1a -> conv1a (in-place)
I0418 00:34:11.919386  2979 net.cpp:150] Setting up relu1a
I0418 00:34:11.919426  2979 net.cpp:157] Top shape: 1 64 768 112 112 (616562688)
I0418 00:34:11.919442  2979 net.cpp:165] Memory required for data: 5279319228
I0418 00:34:11.919459  2979 layer_factory.hpp:77] Creating layer pool1
I0418 00:34:11.919489  2979 net.cpp:100] Creating Layer pool1
I0418 00:34:11.919507  2979 net.cpp:434] pool1 <- conv1a
I0418 00:34:11.919531  2979 net.cpp:408] pool1 -> pool1
I0418 00:34:11.919991  2979 net.cpp:150] Setting up pool1
I0418 00:34:11.920022  2979 net.cpp:157] Top shape: 1 64 768 56 56 (154140672)
I0418 00:34:11.920037  2979 net.cpp:165] Memory required for data: 5895881916
I0418 00:34:11.920053  2979 layer_factory.hpp:77] Creating layer conv2a
I0418 00:34:11.920085  2979 net.cpp:100] Creating Layer conv2a
I0418 00:34:11.920104  2979 net.cpp:434] conv2a <- pool1
I0418 00:34:11.920127  2979 net.cpp:408] conv2a -> conv2a
I0418 00:34:11.942744  2979 net.cpp:150] Setting up conv2a
I0418 00:34:11.942797  2979 net.cpp:157] Top shape: 1 128 768 56 56 (308281344)
I0418 00:34:11.942806  2979 net.cpp:165] Memory required for data: 7129007292
I0418 00:34:11.942843  2979 layer_factory.hpp:77] Creating layer relu2a
I0418 00:34:11.942857  2979 net.cpp:100] Creating Layer relu2a
I0418 00:34:11.942865  2979 net.cpp:434] relu2a <- conv2a
I0418 00:34:11.942883  2979 net.cpp:395] relu2a -> conv2a (in-place)
I0418 00:34:11.943536  2979 net.cpp:150] Setting up relu2a
I0418 00:34:11.943550  2979 net.cpp:157] Top shape: 1 128 768 56 56 (308281344)
I0418 00:34:11.943555  2979 net.cpp:165] Memory required for data: 8362132668
I0418 00:34:11.943562  2979 layer_factory.hpp:77] Creating layer pool2
I0418 00:34:11.943578  2979 net.cpp:100] Creating Layer pool2
I0418 00:34:11.943584  2979 net.cpp:434] pool2 <- conv2a
I0418 00:34:11.943593  2979 net.cpp:408] pool2 -> pool2
I0418 00:34:11.943790  2979 net.cpp:150] Setting up pool2
I0418 00:34:11.943802  2979 net.cpp:157] Top shape: 1 128 384 28 28 (38535168)
I0418 00:34:11.943809  2979 net.cpp:165] Memory required for data: 8516273340
I0418 00:34:11.943814  2979 layer_factory.hpp:77] Creating layer conv3a
I0418 00:34:11.943830  2979 net.cpp:100] Creating Layer conv3a
I0418 00:34:11.943843  2979 net.cpp:434] conv3a <- pool2
I0418 00:34:11.943855  2979 net.cpp:408] conv3a -> conv3a
I0418 00:34:11.969812  2979 net.cpp:150] Setting up conv3a
I0418 00:34:11.969832  2979 net.cpp:157] Top shape: 1 256 384 28 28 (77070336)
I0418 00:34:11.969838  2979 net.cpp:165] Memory required for data: 8824554684
I0418 00:34:11.969853  2979 layer_factory.hpp:77] Creating layer relu3a
I0418 00:34:11.969864  2979 net.cpp:100] Creating Layer relu3a
I0418 00:34:11.969872  2979 net.cpp:434] relu3a <- conv3a
I0418 00:34:11.969880  2979 net.cpp:395] relu3a -> conv3a (in-place)
I0418 00:34:11.970202  2979 net.cpp:150] Setting up relu3a
I0418 00:34:11.970216  2979 net.cpp:157] Top shape: 1 256 384 28 28 (77070336)
I0418 00:34:11.970221  2979 net.cpp:165] Memory required for data: 9132836028
I0418 00:34:11.970227  2979 layer_factory.hpp:77] Creating layer conv3b
I0418 00:34:11.970242  2979 net.cpp:100] Creating Layer conv3b
I0418 00:34:11.970248  2979 net.cpp:434] conv3b <- conv3a
I0418 00:34:11.970257  2979 net.cpp:408] conv3b -> conv3b
I0418 00:34:12.018568  2979 net.cpp:150] Setting up conv3b
I0418 00:34:12.018591  2979 net.cpp:157] Top shape: 1 256 384 28 28 (77070336)
I0418 00:34:12.018597  2979 net.cpp:165] Memory required for data: 9441117372
I0418 00:34:12.018610  2979 layer_factory.hpp:77] Creating layer relu3b
I0418 00:34:12.018622  2979 net.cpp:100] Creating Layer relu3b
I0418 00:34:12.018630  2979 net.cpp:434] relu3b <- conv3b
I0418 00:34:12.018640  2979 net.cpp:395] relu3b -> conv3b (in-place)
I0418 00:34:12.018997  2979 net.cpp:150] Setting up relu3b
I0418 00:34:12.019014  2979 net.cpp:157] Top shape: 1 256 384 28 28 (77070336)
I0418 00:34:12.019019  2979 net.cpp:165] Memory required for data: 9749398716
I0418 00:34:12.019026  2979 layer_factory.hpp:77] Creating layer pool3
I0418 00:34:12.019034  2979 net.cpp:100] Creating Layer pool3
I0418 00:34:12.019043  2979 net.cpp:434] pool3 <- conv3b
I0418 00:34:12.019054  2979 net.cpp:408] pool3 -> pool3
I0418 00:34:12.020040  2979 net.cpp:150] Setting up pool3
I0418 00:34:12.020053  2979 net.cpp:157] Top shape: 1 256 192 14 14 (9633792)
I0418 00:34:12.020057  2979 net.cpp:165] Memory required for data: 9787933884
I0418 00:34:12.020061  2979 layer_factory.hpp:77] Creating layer conv4a
I0418 00:34:12.020072  2979 net.cpp:100] Creating Layer conv4a
I0418 00:34:12.020076  2979 net.cpp:434] conv4a <- pool3
I0418 00:34:12.020083  2979 net.cpp:408] conv4a -> conv4a
I0418 00:34:12.118095  2979 net.cpp:150] Setting up conv4a
I0418 00:34:12.118125  2979 net.cpp:157] Top shape: 1 512 192 14 14 (19267584)
I0418 00:34:12.118130  2979 net.cpp:165] Memory required for data: 9865004220
I0418 00:34:12.118142  2979 layer_factory.hpp:77] Creating layer relu4a
I0418 00:34:12.118152  2979 net.cpp:100] Creating Layer relu4a
I0418 00:34:12.118156  2979 net.cpp:434] relu4a <- conv4a
I0418 00:34:12.118163  2979 net.cpp:395] relu4a -> conv4a (in-place)
I0418 00:34:12.120393  2979 net.cpp:150] Setting up relu4a
I0418 00:34:12.120406  2979 net.cpp:157] Top shape: 1 512 192 14 14 (19267584)
I0418 00:34:12.120410  2979 net.cpp:165] Memory required for data: 9942074556
I0418 00:34:12.120414  2979 layer_factory.hpp:77] Creating layer conv4b
I0418 00:34:12.120429  2979 net.cpp:100] Creating Layer conv4b
I0418 00:34:12.120432  2979 net.cpp:434] conv4b <- conv4a
I0418 00:34:12.120440  2979 net.cpp:408] conv4b -> conv4b
I0418 00:34:12.315412  2979 net.cpp:150] Setting up conv4b
I0418 00:34:12.315434  2979 net.cpp:157] Top shape: 1 512 192 14 14 (19267584)
I0418 00:34:12.315438  2979 net.cpp:165] Memory required for data: 10019144892
I0418 00:34:12.315448  2979 layer_factory.hpp:77] Creating layer relu4b
I0418 00:34:12.315459  2979 net.cpp:100] Creating Layer relu4b
I0418 00:34:12.315464  2979 net.cpp:434] relu4b <- conv4b
I0418 00:34:12.315469  2979 net.cpp:395] relu4b -> conv4b (in-place)
I0418 00:34:12.316306  2979 net.cpp:150] Setting up relu4b
I0418 00:34:12.316318  2979 net.cpp:157] Top shape: 1 512 192 14 14 (19267584)
I0418 00:34:12.316323  2979 net.cpp:165] Memory required for data: 10096215228
I0418 00:34:12.316326  2979 layer_factory.hpp:77] Creating layer pool4
I0418 00:34:12.316334  2979 net.cpp:100] Creating Layer pool4
I0418 00:34:12.316337  2979 net.cpp:434] pool4 <- conv4b
I0418 00:34:12.316342  2979 net.cpp:408] pool4 -> pool4
I0418 00:34:12.317479  2979 net.cpp:150] Setting up pool4
I0418 00:34:12.317492  2979 net.cpp:157] Top shape: 1 512 96 7 7 (2408448)
I0418 00:34:12.317497  2979 net.cpp:165] Memory required for data: 10105849020
I0418 00:34:12.317500  2979 layer_factory.hpp:77] Creating layer conv5a
I0418 00:34:12.317512  2979 net.cpp:100] Creating Layer conv5a
I0418 00:34:12.317515  2979 net.cpp:434] conv5a <- pool4
I0418 00:34:12.317522  2979 net.cpp:408] conv5a -> conv5a
I0418 00:34:12.507011  2979 net.cpp:150] Setting up conv5a
I0418 00:34:12.507037  2979 net.cpp:157] Top shape: 1 512 96 7 7 (2408448)
I0418 00:34:12.507041  2979 net.cpp:165] Memory required for data: 10115482812
I0418 00:34:12.507052  2979 layer_factory.hpp:77] Creating layer relu5a
I0418 00:34:12.507062  2979 net.cpp:100] Creating Layer relu5a
I0418 00:34:12.507068  2979 net.cpp:434] relu5a <- conv5a
I0418 00:34:12.507077  2979 net.cpp:395] relu5a -> conv5a (in-place)
I0418 00:34:12.508555  2979 net.cpp:150] Setting up relu5a
I0418 00:34:12.508570  2979 net.cpp:157] Top shape: 1 512 96 7 7 (2408448)
I0418 00:34:12.508576  2979 net.cpp:165] Memory required for data: 10125116604
I0418 00:34:12.508580  2979 layer_factory.hpp:77] Creating layer conv5b
I0418 00:34:12.508594  2979 net.cpp:100] Creating Layer conv5b
I0418 00:34:12.508599  2979 net.cpp:434] conv5b <- conv5a
I0418 00:34:12.508608  2979 net.cpp:408] conv5b -> conv5b
I0418 00:34:12.697744  2979 net.cpp:150] Setting up conv5b
I0418 00:34:12.697769  2979 net.cpp:157] Top shape: 1 512 96 7 7 (2408448)
I0418 00:34:12.697773  2979 net.cpp:165] Memory required for data: 10134750396
I0418 00:34:12.697789  2979 layer_factory.hpp:77] Creating layer relu5b
I0418 00:34:12.697798  2979 net.cpp:100] Creating Layer relu5b
I0418 00:34:12.697803  2979 net.cpp:434] relu5b <- conv5b
I0418 00:34:12.697809  2979 net.cpp:395] relu5b -> conv5b (in-place)
I0418 00:34:12.699126  2979 net.cpp:150] Setting up relu5b
I0418 00:34:12.699137  2979 net.cpp:157] Top shape: 1 512 96 7 7 (2408448)
I0418 00:34:12.699141  2979 net.cpp:165] Memory required for data: 10144384188
I0418 00:34:12.699146  2979 layer_factory.hpp:77] Creating layer conv5b_relu5b_0_split
I0418 00:34:12.699151  2979 net.cpp:100] Creating Layer conv5b_relu5b_0_split
I0418 00:34:12.699154  2979 net.cpp:434] conv5b_relu5b_0_split <- conv5b
I0418 00:34:12.699159  2979 net.cpp:408] conv5b_relu5b_0_split -> conv5b_relu5b_0_split_0
I0418 00:34:12.699165  2979 net.cpp:408] conv5b_relu5b_0_split -> conv5b_relu5b_0_split_1
I0418 00:34:12.699201  2979 net.cpp:150] Setting up conv5b_relu5b_0_split
I0418 00:34:12.699210  2979 net.cpp:157] Top shape: 1 512 96 7 7 (2408448)
I0418 00:34:12.699214  2979 net.cpp:157] Top shape: 1 512 96 7 7 (2408448)
I0418 00:34:12.699218  2979 net.cpp:165] Memory required for data: 10163651772
I0418 00:34:12.699221  2979 layer_factory.hpp:77] Creating layer rpn_conv/3x3
I0418 00:34:12.699232  2979 net.cpp:100] Creating Layer rpn_conv/3x3
I0418 00:34:12.699236  2979 net.cpp:434] rpn_conv/3x3 <- conv5b_relu5b_0_split_0
I0418 00:34:12.699241  2979 net.cpp:408] rpn_conv/3x3 -> rpn/output
I0418 00:34:12.890494  2979 net.cpp:150] Setting up rpn_conv/3x3
I0418 00:34:12.890517  2979 net.cpp:157] Top shape: 1 512 96 4 4 (786432)
I0418 00:34:12.890522  2979 net.cpp:165] Memory required for data: 10166797500
I0418 00:34:12.890537  2979 layer_factory.hpp:77] Creating layer rpn_relu/3x3
I0418 00:34:12.890547  2979 net.cpp:100] Creating Layer rpn_relu/3x3
I0418 00:34:12.890552  2979 net.cpp:434] rpn_relu/3x3 <- rpn/output
I0418 00:34:12.890558  2979 net.cpp:395] rpn_relu/3x3 -> rpn/output (in-place)
I0418 00:34:12.892765  2979 net.cpp:150] Setting up rpn_relu/3x3
I0418 00:34:12.892778  2979 net.cpp:157] Top shape: 1 512 96 4 4 (786432)
I0418 00:34:12.892782  2979 net.cpp:165] Memory required for data: 10169943228
I0418 00:34:12.892786  2979 layer_factory.hpp:77] Creating layer rpn_conv/3x3_2
I0418 00:34:12.892799  2979 net.cpp:100] Creating Layer rpn_conv/3x3_2
I0418 00:34:12.892803  2979 net.cpp:434] rpn_conv/3x3_2 <- rpn/output
I0418 00:34:12.892810  2979 net.cpp:408] rpn_conv/3x3_2 -> rpn/output_2
I0418 00:34:13.081935  2979 net.cpp:150] Setting up rpn_conv/3x3_2
I0418 00:34:13.081961  2979 net.cpp:157] Top shape: 1 512 96 2 2 (196608)
I0418 00:34:13.081965  2979 net.cpp:165] Memory required for data: 10170729660
I0418 00:34:13.081975  2979 layer_factory.hpp:77] Creating layer rpn_relu/3x3_2
I0418 00:34:13.081985  2979 net.cpp:100] Creating Layer rpn_relu/3x3_2
I0418 00:34:13.081993  2979 net.cpp:434] rpn_relu/3x3_2 <- rpn/output_2
I0418 00:34:13.082001  2979 net.cpp:395] rpn_relu/3x3_2 -> rpn/output_2 (in-place)
I0418 00:34:13.083142  2979 net.cpp:150] Setting up rpn_relu/3x3_2
I0418 00:34:13.083155  2979 net.cpp:157] Top shape: 1 512 96 2 2 (196608)
I0418 00:34:13.083158  2979 net.cpp:165] Memory required for data: 10171516092
I0418 00:34:13.083163  2979 layer_factory.hpp:77] Creating layer rpn/output_pool
I0418 00:34:13.083171  2979 net.cpp:100] Creating Layer rpn/output_pool
I0418 00:34:13.083178  2979 net.cpp:434] rpn/output_pool <- rpn/output_2
I0418 00:34:13.083184  2979 net.cpp:408] rpn/output_pool -> rpn/output_pool
I0418 00:34:13.084753  2979 net.cpp:150] Setting up rpn/output_pool
I0418 00:34:13.084764  2979 net.cpp:157] Top shape: 1 512 96 1 1 (49152)
I0418 00:34:13.084767  2979 net.cpp:165] Memory required for data: 10171712700
I0418 00:34:13.084771  2979 layer_factory.hpp:77] Creating layer rpn/output_pool_rpn/output_pool_0_split
I0418 00:34:13.084779  2979 net.cpp:100] Creating Layer rpn/output_pool_rpn/output_pool_0_split
I0418 00:34:13.084782  2979 net.cpp:434] rpn/output_pool_rpn/output_pool_0_split <- rpn/output_pool
I0418 00:34:13.084787  2979 net.cpp:408] rpn/output_pool_rpn/output_pool_0_split -> rpn/output_pool_rpn/output_pool_0_split_0
I0418 00:34:13.084792  2979 net.cpp:408] rpn/output_pool_rpn/output_pool_0_split -> rpn/output_pool_rpn/output_pool_0_split_1
I0418 00:34:13.084825  2979 net.cpp:150] Setting up rpn/output_pool_rpn/output_pool_0_split
I0418 00:34:13.084834  2979 net.cpp:157] Top shape: 1 512 96 1 1 (49152)
I0418 00:34:13.084838  2979 net.cpp:157] Top shape: 1 512 96 1 1 (49152)
I0418 00:34:13.084841  2979 net.cpp:165] Memory required for data: 10172105916
I0418 00:34:13.084844  2979 layer_factory.hpp:77] Creating layer rpn_cls_score
I0418 00:34:13.084854  2979 net.cpp:100] Creating Layer rpn_cls_score
I0418 00:34:13.084858  2979 net.cpp:434] rpn_cls_score <- rpn/output_pool_rpn/output_pool_0_split_0
I0418 00:34:13.084866  2979 net.cpp:408] rpn_cls_score -> rpn_cls_score
I0418 00:34:13.089167  2979 net.cpp:150] Setting up rpn_cls_score
I0418 00:34:13.089181  2979 net.cpp:157] Top shape: 1 74 96 1 1 (7104)
I0418 00:34:13.089184  2979 net.cpp:165] Memory required for data: 10172134332
I0418 00:34:13.089191  2979 layer_factory.hpp:77] Creating layer rpn_cls_score_rpn_cls_score_0_split
I0418 00:34:13.089197  2979 net.cpp:100] Creating Layer rpn_cls_score_rpn_cls_score_0_split
I0418 00:34:13.089201  2979 net.cpp:434] rpn_cls_score_rpn_cls_score_0_split <- rpn_cls_score
I0418 00:34:13.089207  2979 net.cpp:408] rpn_cls_score_rpn_cls_score_0_split -> rpn_cls_score_rpn_cls_score_0_split_0
I0418 00:34:13.089213  2979 net.cpp:408] rpn_cls_score_rpn_cls_score_0_split -> rpn_cls_score_rpn_cls_score_0_split_1
I0418 00:34:13.089252  2979 net.cpp:150] Setting up rpn_cls_score_rpn_cls_score_0_split
I0418 00:34:13.089262  2979 net.cpp:157] Top shape: 1 74 96 1 1 (7104)
I0418 00:34:13.089267  2979 net.cpp:157] Top shape: 1 74 96 1 1 (7104)
I0418 00:34:13.089270  2979 net.cpp:165] Memory required for data: 10172191164
I0418 00:34:13.089273  2979 layer_factory.hpp:77] Creating layer rpn_twin_pred
I0418 00:34:13.089285  2979 net.cpp:100] Creating Layer rpn_twin_pred
I0418 00:34:13.089290  2979 net.cpp:434] rpn_twin_pred <- rpn/output_pool_rpn/output_pool_0_split_1
I0418 00:34:13.089296  2979 net.cpp:408] rpn_twin_pred -> rpn_twin_pred
I0418 00:34:13.092573  2979 net.cpp:150] Setting up rpn_twin_pred
I0418 00:34:13.092586  2979 net.cpp:157] Top shape: 1 74 96 1 1 (7104)
I0418 00:34:13.092591  2979 net.cpp:165] Memory required for data: 10172219580
I0418 00:34:13.092597  2979 layer_factory.hpp:77] Creating layer rpn_twin_pred_rpn_twin_pred_0_split
I0418 00:34:13.092602  2979 net.cpp:100] Creating Layer rpn_twin_pred_rpn_twin_pred_0_split
I0418 00:34:13.092607  2979 net.cpp:434] rpn_twin_pred_rpn_twin_pred_0_split <- rpn_twin_pred
I0418 00:34:13.092612  2979 net.cpp:408] rpn_twin_pred_rpn_twin_pred_0_split -> rpn_twin_pred_rpn_twin_pred_0_split_0
I0418 00:34:13.092620  2979 net.cpp:408] rpn_twin_pred_rpn_twin_pred_0_split -> rpn_twin_pred_rpn_twin_pred_0_split_1
I0418 00:34:13.092655  2979 net.cpp:150] Setting up rpn_twin_pred_rpn_twin_pred_0_split
I0418 00:34:13.092665  2979 net.cpp:157] Top shape: 1 74 96 1 1 (7104)
I0418 00:34:13.092671  2979 net.cpp:157] Top shape: 1 74 96 1 1 (7104)
I0418 00:34:13.092675  2979 net.cpp:165] Memory required for data: 10172276412
I0418 00:34:13.092680  2979 layer_factory.hpp:77] Creating layer rpn_cls_score_reshape
I0418 00:34:13.092691  2979 net.cpp:100] Creating Layer rpn_cls_score_reshape
I0418 00:34:13.092695  2979 net.cpp:434] rpn_cls_score_reshape <- rpn_cls_score_rpn_cls_score_0_split_0
I0418 00:34:13.092700  2979 net.cpp:408] rpn_cls_score_reshape -> rpn_cls_score_reshape
I0418 00:34:13.092731  2979 net.cpp:150] Setting up rpn_cls_score_reshape
I0418 00:34:13.092739  2979 net.cpp:157] Top shape: 1 2 3552 1 1 (7104)
I0418 00:34:13.092742  2979 net.cpp:165] Memory required for data: 10172304828
I0418 00:34:13.092746  2979 layer_factory.hpp:77] Creating layer rpn_cls_score_reshape_rpn_cls_score_reshape_0_split
I0418 00:34:13.092751  2979 net.cpp:100] Creating Layer rpn_cls_score_reshape_rpn_cls_score_reshape_0_split
I0418 00:34:13.092754  2979 net.cpp:434] rpn_cls_score_reshape_rpn_cls_score_reshape_0_split <- rpn_cls_score_reshape
I0418 00:34:13.092761  2979 net.cpp:408] rpn_cls_score_reshape_rpn_cls_score_reshape_0_split -> rpn_cls_score_reshape_rpn_cls_score_reshape_0_split_0
I0418 00:34:13.092769  2979 net.cpp:408] rpn_cls_score_reshape_rpn_cls_score_reshape_0_split -> rpn_cls_score_reshape_rpn_cls_score_reshape_0_split_1
I0418 00:34:13.092774  2979 net.cpp:408] rpn_cls_score_reshape_rpn_cls_score_reshape_0_split -> rpn_cls_score_reshape_rpn_cls_score_reshape_0_split_2
I0418 00:34:13.092814  2979 net.cpp:150] Setting up rpn_cls_score_reshape_rpn_cls_score_reshape_0_split
I0418 00:34:13.092821  2979 net.cpp:157] Top shape: 1 2 3552 1 1 (7104)
I0418 00:34:13.092825  2979 net.cpp:157] Top shape: 1 2 3552 1 1 (7104)
I0418 00:34:13.092829  2979 net.cpp:157] Top shape: 1 2 3552 1 1 (7104)
I0418 00:34:13.092833  2979 net.cpp:165] Memory required for data: 10172390076
I0418 00:34:13.092835  2979 layer_factory.hpp:77] Creating layer rpn-data
I0418 00:34:13.093228  2979 net.cpp:100] Creating Layer rpn-data
I0418 00:34:13.093240  2979 net.cpp:434] rpn-data <- rpn_cls_score_rpn_cls_score_0_split_1
I0418 00:34:13.093246  2979 net.cpp:434] rpn-data <- gt_boxes_data_1_split_0
I0418 00:34:13.093251  2979 net.cpp:434] rpn-data <- data_data_0_split_1
I0418 00:34:13.093257  2979 net.cpp:408] rpn-data -> rpn_labels
I0418 00:34:13.093264  2979 net.cpp:408] rpn-data -> rpn_twin_targets
I0418 00:34:13.093274  2979 net.cpp:408] rpn-data -> rpn_twin_inside_weights
I0418 00:34:13.093281  2979 net.cpp:408] rpn-data -> rpn_twin_outside_weights
I0418 00:34:13.095548  2979 net.cpp:150] Setting up rpn-data
I0418 00:34:13.095566  2979 net.cpp:157] Top shape: 1 1 3552 1 1 (3552)
I0418 00:34:13.095571  2979 net.cpp:157] Top shape: 1 74 96 1 1 (7104)
I0418 00:34:13.095576  2979 net.cpp:157] Top shape: 1 74 96 1 1 (7104)
I0418 00:34:13.095578  2979 net.cpp:157] Top shape: 1 74 96 1 1 (7104)
I0418 00:34:13.095582  2979 net.cpp:165] Memory required for data: 10172489532
I0418 00:34:13.095585  2979 layer_factory.hpp:77] Creating layer rpn_labels_rpn-data_0_split
I0418 00:34:13.095592  2979 net.cpp:100] Creating Layer rpn_labels_rpn-data_0_split
I0418 00:34:13.095595  2979 net.cpp:434] rpn_labels_rpn-data_0_split <- rpn_labels
I0418 00:34:13.095602  2979 net.cpp:408] rpn_labels_rpn-data_0_split -> rpn_labels_rpn-data_0_split_0
I0418 00:34:13.095608  2979 net.cpp:408] rpn_labels_rpn-data_0_split -> rpn_labels_rpn-data_0_split_1
I0418 00:34:13.095640  2979 net.cpp:150] Setting up rpn_labels_rpn-data_0_split
I0418 00:34:13.095649  2979 net.cpp:157] Top shape: 1 1 3552 1 1 (3552)
I0418 00:34:13.095652  2979 net.cpp:157] Top shape: 1 1 3552 1 1 (3552)
I0418 00:34:13.095656  2979 net.cpp:165] Memory required for data: 10172517948
I0418 00:34:13.095659  2979 layer_factory.hpp:77] Creating layer rpn_loss_cls
I0418 00:34:13.095667  2979 net.cpp:100] Creating Layer rpn_loss_cls
I0418 00:34:13.095671  2979 net.cpp:434] rpn_loss_cls <- rpn_cls_score_reshape_rpn_cls_score_reshape_0_split_0
I0418 00:34:13.095676  2979 net.cpp:434] rpn_loss_cls <- rpn_labels_rpn-data_0_split_0
…
I0418 00:34:13.096285  2979 layer_factory.hpp:77] Creating layer rpn_accuarcy
I0418 00:34:13.096293  2979 net.cpp:100] Creating Layer rpn_accuarcy
I0418 00:34:13.096302  2979 net.cpp:434] rpn_accuarcy <- rpn_cls_score_reshape_rpn_cls_score_reshape_0_split_1
I0418 00:34:13.096307  2979 net.cpp:434] rpn_accuarcy <- rpn_labels_rpn-data_0_split_1
I0418 00:34:13.096313  2979 net.cpp:408] rpn_accuarcy -> rpn_accuarcy
I0418 00:34:13.096320  2979 net.cpp:408] rpn_accuarcy -> rpn_accuarcy_class
I0418 00:34:13.096357  2979 net.cpp:150] Setting up rpn_accuarcy
I0418 00:34:13.096366  2979 net.cpp:157] Top shape: (1)
I0418 00:34:13.096370  2979 net.cpp:157] Top shape: 2 (2)
I0418 00:34:13.096375  2979 net.cpp:165] Memory required for data: 10172517968
I0418 00:34:13.096379  2979 layer_factory.hpp:77] Creating layer rpn_cls_prob
I0418 00:34:13.096385  2979 net.cpp:100] Creating Layer rpn_cls_prob
I0418 00:34:13.096390  2979 net.cpp:434] rpn_cls_prob <- rpn_cls_score_reshape_rpn_cls_score_reshape_0_split_2
I0418 00:34:13.096395  2979 net.cpp:408] rpn_cls_prob -> rpn_cls_prob
I0418 00:34:13.096699  2979 net.cpp:150] Setting up rpn_cls_prob
I0418 00:34:13.096711  2979 net.cpp:157] Top shape: 1 2 3552 1 1 (7104)
I0418 00:34:13.096714  2979 net.cpp:165] Memory required for data: 10172546384
I0418 00:34:13.096719  2979 layer_factory.hpp:77] Creating layer rpn_cls_prob_reshape
I0418 00:34:13.096726  2979 net.cpp:100] Creating Layer rpn_cls_prob_reshape
I0418 00:34:13.096729  2979 net.cpp:434] rpn_cls_prob_reshape <- rpn_cls_prob
I0418 00:34:13.096736  2979 net.cpp:408] rpn_cls_prob_reshape -> rpn_cls_prob_reshape
I0418 00:34:13.096760  2979 net.cpp:150] Setting up rpn_cls_prob_reshape
I0418 00:34:13.096771  2979 net.cpp:157] Top shape: 1 74 96 1 1 (7104)
I0418 00:34:13.096776  2979 net.cpp:165] Memory required for data: 10172574800
I0418 00:34:13.096778  2979 layer_factory.hpp:77] Creating layer proposal
I0418 00:34:13.097327  2979 net.cpp:100] Creating Layer proposal
I0418 00:34:13.097339  2979 net.cpp:434] proposal <- rpn_cls_prob_reshape
I0418 00:34:13.097345  2979 net.cpp:434] proposal <- rpn_twin_pred_rpn_twin_pred_0_split_1
I0418 00:34:13.097350  2979 net.cpp:408] proposal -> rpn_rois
I0418 00:34:13.099747  2979 net.cpp:150] Setting up proposal
I0418 00:34:13.099761  2979 net.cpp:157] Top shape: 1 3 (3)
I0418 00:34:13.099767  2979 net.cpp:165] Memory required for data: 10172574812
I0418 00:34:13.099771  2979 layer_factory.hpp:77] Creating layer roi-data
I0418 00:34:13.101299  2979 net.cpp:100] Creating Layer roi-data
I0418 00:34:13.101311  2979 net.cpp:434] roi-data <- rpn_rois
I0418 00:34:13.101316  2979 net.cpp:434] roi-data <- gt_boxes_data_1_split_1
I0418 00:34:13.101325  2979 net.cpp:408] roi-data -> rois
I0418 00:34:13.101332  2979 net.cpp:408] roi-data -> labels
I0418 00:34:13.101338  2979 net.cpp:408] roi-data -> twin_targets
I0418 00:34:13.101344  2979 net.cpp:408] roi-data -> twin_inside_weights
I0418 00:34:13.101349  2979 net.cpp:408] roi-data -> twin_outside_weights
I0418 00:34:13.101660  2979 net.cpp:150] Setting up roi-data
I0418 00:34:13.101675  2979 net.cpp:157] Top shape: 1 3 (3)
I0418 00:34:13.101680  2979 net.cpp:157] Top shape: 1 1 (1)
I0418 00:34:13.101683  2979 net.cpp:157] Top shape: 1 402 (402)
I0418 00:34:13.101687  2979 net.cpp:157] Top shape: 1 402 (402)
I0418 00:34:13.101691  2979 net.cpp:157] Top shape: 1 402 (402)
I0418 00:34:13.101693  2979 net.cpp:165] Memory required for data: 10172579652
I0418 00:34:13.101698  2979 layer_factory.hpp:77] Creating layer labels_roi-data_1_split
I0418 00:34:13.101703  2979 net.cpp:100] Creating Layer labels_roi-data_1_split
I0418 00:34:13.101707  2979 net.cpp:434] labels_roi-data_1_split <- labels
I0418 00:34:13.101712  2979 net.cpp:408] labels_roi-data_1_split -> labels_roi-data_1_split_0
I0418 00:34:13.101719  2979 net.cpp:408] labels_roi-data_1_split -> labels_roi-data_1_split_1
I0418 00:34:13.101749  2979 net.cpp:150] Setting up labels_roi-data_1_split
I0418 00:34:13.101758  2979 net.cpp:157] Top shape: 1 1 (1)
I0418 00:34:13.101763  2979 net.cpp:157] Top shape: 1 1 (1)
I0418 00:34:13.101766  2979 net.cpp:165] Memory required for data: 10172579660
I0418 00:34:13.101769  2979 layer_factory.hpp:77] Creating layer roi_pool5
I0418 00:34:13.101778  2979 net.cpp:100] Creating Layer roi_pool5
I0418 00:34:13.101783  2979 net.cpp:434] roi_pool5 <- conv5b_relu5b_0_split_1
I0418 00:34:13.101786  2979 net.cpp:434] roi_pool5 <- rois
I0418 00:34:13.101791  2979 net.cpp:408] roi_pool5 -> pool5
I0418 00:34:13.101799  2979 roi_pooling_layer.cpp:34] Temporal scale: 0.125
I0418 00:34:13.101804  2979 roi_pooling_layer.cpp:35] Spatial scale: 0.0625
I0418 00:34:13.101835  2979 net.cpp:150] Setting up roi_pool5
I0418 00:34:13.101843  2979 net.cpp:157] Top shape: 1 512 1 4 4 (8192)
I0418 00:34:13.101850  2979 net.cpp:165] Memory required for data: 10172612428
I0418 00:34:13.101855  2979 layer_factory.hpp:77] Creating layer fc6
I0418 00:34:13.101862  2979 net.cpp:100] Creating Layer fc6
I0418 00:34:13.101869  2979 net.cpp:434] fc6 <- pool5
I0418 00:34:13.101876  2979 net.cpp:408] fc6 -> fc6
I0418 00:34:13.992053  2979 net.cpp:150] Setting up fc6
I0418 00:34:13.992079  2979 net.cpp:157] Top shape: 1 4096 (4096)
I0418 00:34:13.992082  2979 net.cpp:165] Memory required for data: 10172628812
I0418 00:34:13.992092  2979 layer_factory.hpp:77] Creating layer relu6
I0418 00:34:13.992100  2979 net.cpp:100] Creating Layer relu6
I0418 00:34:13.992105  2979 net.cpp:434] relu6 <- fc6
I0418 00:34:13.992111  2979 net.cpp:395] relu6 -> fc6 (in-place)
I0418 00:34:13.992548  2979 net.cpp:150] Setting up relu6
I0418 00:34:13.992560  2979 net.cpp:157] Top shape: 1 4096 (4096)
I0418 00:34:13.992564  2979 net.cpp:165] Memory required for data: 10172645196
I0418 00:34:13.992569  2979 layer_factory.hpp:77] Creating layer drop6
I0418 00:34:13.992581  2979 net.cpp:100] Creating Layer drop6
I0418 00:34:13.992586  2979 net.cpp:434] drop6 <- fc6
I0418 00:34:13.992591  2979 net.cpp:395] drop6 -> fc6 (in-place)
I0418 00:34:13.992619  2979 net.cpp:150] Setting up drop6
I0418 00:34:13.992626  2979 net.cpp:157] Top shape: 1 4096 (4096)
I0418 00:34:13.992630  2979 net.cpp:165] Memory required for data: 10172661580
I0418 00:34:13.992632  2979 layer_factory.hpp:77] Creating layer fc6_drop6_0_split
I0418 00:34:13.992638  2979 net.cpp:100] Creating Layer fc6_drop6_0_split
I0418 00:34:13.992641  2979 net.cpp:434] fc6_drop6_0_split <- fc6
I0418 00:34:13.992647  2979 net.cpp:408] fc6_drop6_0_split -> fc6_drop6_0_split_0
I0418 00:34:13.992653  2979 net.cpp:408] fc6_drop6_0_split -> fc6_drop6_0_split_1
I0418 00:34:13.992686  2979 net.cpp:150] Setting up fc6_drop6_0_split
I0418 00:34:13.992692  2979 net.cpp:157] Top shape: 1 4096 (4096)
I0418 00:34:13.992697  2979 net.cpp:157] Top shape: 1 4096 (4096)
I0418 00:34:13.992702  2979 net.cpp:165] Memory required for data: 10172694348
I0418 00:34:13.992707  2979 layer_factory.hpp:77] Creating layer cls_score
I0418 00:34:13.992715  2979 net.cpp:100] Creating Layer cls_score
I0418 00:34:13.992718  2979 net.cpp:434] cls_score <- fc6_drop6_0_split_0
I0418 00:34:13.992723  2979 net.cpp:408] cls_score -> cls_score
I0418 00:34:14.014165  2979 net.cpp:150] Setting up cls_score
I0418 00:34:14.014180  2979 net.cpp:157] Top shape: 1 201 (201)
I0418 00:34:14.014183  2979 net.cpp:165] Memory required for data: 10172695152
I0418 00:34:14.014190  2979 layer_factory.hpp:77] Creating layer cls_score_cls_score_0_split
I0418 00:34:14.014197  2979 net.cpp:100] Creating Layer cls_score_cls_score_0_split
I0418 00:34:14.014200  2979 net.cpp:434] cls_score_cls_score_0_split <- cls_score
I0418 00:34:14.014206  2979 net.cpp:408] cls_score_cls_score_0_split -> cls_score_cls_score_0_split_0
I0418 00:34:14.014212  2979 net.cpp:408] cls_score_cls_score_0_split -> cls_score_cls_score_0_split_1
I0418 00:34:14.014245  2979 net.cpp:150] Setting up cls_score_cls_score_0_split
I0418 00:34:14.014256  2979 net.cpp:157] Top shape: 1 201 (201)
I0418 00:34:14.014259  2979 net.cpp:157] Top shape: 1 201 (201)
I0418 00:34:14.014262  2979 net.cpp:165] Memory required for data: 10172696760
I0418 00:34:14.014266  2979 layer_factory.hpp:77] Creating layer twin_pred
I0418 00:34:14.014278  2979 net.cpp:100] Creating Layer twin_pred
I0418 00:34:14.014283  2979 net.cpp:434] twin_pred <- fc6_drop6_0_split_1
I0418 00:34:14.014289  2979 net.cpp:408] twin_pred -> twin_pred
I0418 00:34:14.057266  2979 net.cpp:150] Setting up twin_pred
I0418 00:34:14.057289  2979 net.cpp:157] Top shape: 1 402 (402)
I0418 00:34:14.057294  2979 net.cpp:165] Memory required for data: 10172698368
I0418 00:34:14.057303  2979 layer_factory.hpp:77] Creating layer loss_cls
I0418 00:34:14.057312  2979 net.cpp:100] Creating Layer loss_cls
I0418 00:34:14.057317  2979 net.cpp:434] loss_cls <- cls_score_cls_score_0_split_0
I0418 00:34:14.057324  2979 net.cpp:434] loss_cls <- labels_roi-data_1_split_0
I0418 00:34:14.057330  2979 net.cpp:408] loss_cls -> loss_cls
…
