…
stepsize: 350000
snapshot: 0
snapshot_prefix: "./experiments/activitynet/snapshot/activitynet"
average_loss: 100
iter_size: 1
I0417 22:34:04.221045  8984 solver.cpp:81] Creating training net from train_net file: ./experiments/activitynet/train.prototxt
I0417 22:34:04.222091  8984 net.cpp:58] Initializing net from parameters: 
name: "activitynet"
state {
  phase: TRAIN
}
layer {
  name: "data"
  type: "Python"
  top: "data"
  top: "gt_boxes"
  python_param {
    module: "roi_data_layer.layer"
    layer: "RoIDataLayer"
    param_str: "\'num_classes\': 100"
  }
}
layer {
  name: "conv1a"
  type: "Convolution"
  bottom: "data"
  top: "conv1a"
  param {
    lr_mult: 0
    decay_mult: 0
  }
  param {
    lr_mult: 0
    decay_mult: 0
  }
  convolution_param {
    num_output: 64
    pad: 1
    pad: 1
    pad: 1
    kernel_size: 3
    kernel_size: 3
    kernel_size: 3
    weight_filler {
      type: "gaussian"
      std: 0.01
    }
    bias_filler {
      type: "constant"
      value: 0
    }
  }
}
layer {
  name: "relu1a"
  type: "ReLU"
  bottom: "conv1a"
  top: "conv1a"
}
layer {
  name: "pool1"
  type: "Pooling"
  bottom: "conv1a"
  top: "pool1"
  pooling_param {
    pool: MAX
    kernel_size: 1
    kernel_size: 2
    kernel_size: 2
    stride: 1
    stride: 2
    stride: 2
  }
}
layer {
  name: "conv2a"
  type: "Convolution"
  bottom: "pool1"
  top: "conv2a"
  param {
    lr_mult: 0
    decay_mult: 0
  }
  param {
    lr_mult: 0
    decay_mult: 0
  }
  convolution_param {
    num_output: 128
    pad: 1
    pad: 1
    pad: 1
    kernel_size: 3
    kernel_size: 3
    kernel_size: 3
    weight_filler {
      type: "gaussian"
      std: 0.01
    }
    bias_filler {
      type: "constant"
      value: 1
    }
  }
}
layer {
  name: "relu2a"
  type: "ReLU"
  bottom: "conv2a"
  top: "conv2a"
}
layer {
  name: "pool2"
  type: "Pooling"
  bottom: "conv2a"
  top: "pool2"
  pooling_param {
    pool: MAX
    kernel_size: 2
    kernel_size: 2
    kernel_size: 2
    stride: 2
    stride: 2
    stride: 2
  }
}
layer {
  name: "conv3a"
  type: "Convolution"
  bottom: "pool2"
  top: "conv3a"
  param {
    lr_mult: 1
    decay_mult: 1
  }
  param {
    lr_mult: 2
    decay_mult: 0
  }
  convolution_param {
    num_output: 256
    pad: 1
    pad: 1
    pad: 1
    kernel_size: 3
    kernel_size: 3
    kernel_size: 3
    weight_filler {
      type: "gaussian"
      std: 0.01
    }
    bias_filler {
      type: "constant"
      value: 1
    }
  }
}
layer {
  name: "relu3a"
  type: "ReLU"
  bottom: "conv3a"
  top: "conv3a"
}
layer {
  name: "conv3b"
  type: "Convolution"
  bottom: "conv3a"
  top: "conv3b"
  param {
    lr_mult: 1
    decay_mult: 1
  }
  param {
    lr_mult: 2
    decay_mult: 0
  }
  convolution_param {
    num_output: 256
    pad: 1
    pad: 1
    pad: 1
    kernel_size: 3
    kernel_size: 3
    kernel_size: 3
    weight_filler {
      type: "gaussian"
      std: 0.01
    }
    bias_filler {
      type: "constant"
      value: 1
    }
  }
}
layer {
  name: "relu3b"
  type: "ReLU"
  bottom: "conv3b"
  top: "conv3b"
}
layer {
  name: "pool3"
  type: "Pooling"
  bottom: "conv3b"
  top: "pool3"
  pooling_param {
    pool: MAX
    kernel_size: 2
    kernel_size: 2
    kernel_size: 2
    stride: 2
    stride: 2
    stride: 2
  }
}
layer {
  name: "conv4a"
  type: "Convolution"
  bottom: "pool3"
  top: "conv4a"
  param {
    lr_mult: 1
    decay_mult: 1
  }
  param {
    lr_mult: 2
    decay_mult: 0
  }
  convolution_param {
    num_output: 512
    pad: 1
    pad: 1
    pad: 1
    kernel_size: 3
    kernel_size: 3
    kernel_size: 3
    weight_filler {
      type: "gaussian"
      std: 0.01
    }
    bias_filler {
      type: "constant"
      value: 1
    }
  }
}
layer {
  name: "relu4a"
  type: "ReLU"
  bottom: "conv4a"
  top: "conv4a"
}
layer {
  name: "conv4b"
  type: "Convolution"
  bottom: "conv4a"
  top: "conv4b"
  param {
    lr_mult: 1
    decay_mult: 1
  }
  param {
    lr_mult: 2
    decay_mult: 0
  }
  convolution_param {
    num_output: 512
    pad: 1
    pad: 1
    pad: 1
    kernel_size: 3
    kernel_size: 3
    kernel_size: 3
    weight_filler {
      type: "gaussian"
      std: 0.01
    }
    bias_filler {
      type: "constant"
      value: 1
    }
  }
}
layer {
  name: "relu4b"
  type: "ReLU"
  bottom: "conv4b"
  top: "conv4b"
}
layer {
  name: "pool4"
  type: "Pooling"
  bottom: "conv4b"
  top: "pool4"
  pooling_param {
    pool: MAX
    kernel_size: 2
    kernel_size: 2
    kernel_size: 2
    stride: 2
    stride: 2
    stride: 2
  }
}
layer {
  name: "conv5a"
  type: "Convolution"
  bottom: "pool4"
  top: "conv5a"
  param {
    lr_mult: 1
    decay_mult: 1
  }
  param {
    lr_mult: 2
    decay_mult: 0
  }
  convolution_param {
    num_output: 512
    pad: 1
    pad: 1
    pad: 1
    kernel_size: 3
    kernel_size: 3
    kernel_size: 3
    weight_filler {
      type: "gaussian"
      std: 0.01
    }
    bias_filler {
      type: "constant"
      value: 1
    }
  }
}
layer {
  name: "relu5a"
  type: "ReLU"
  bottom: "conv5a"
  top: "conv5a"
}
layer {
  name: "conv5b"
  type: "Convolution"
  bottom: "conv5a"
  top: "conv5b"
  param {
    lr_mult: 1
    decay_mult: 1
  }
  param {
    lr_mult: 2
    decay_mult: 0
  }
  convolution_param {
    num_output: 512
    pad: 1
    pad: 1
    pad: 1
    kernel_size: 3
    kernel_size: 3
    kernel_size: 3
    weight_filler {
      type: "gaussian"
      std: 0.01
    }
    bias_filler {
      type: "constant"
      value: 1
    }
  }
}
layer {
  name: "relu5b"
  type: "ReLU"
  bottom: "conv5b"
  top: "conv5b"
}
layer {
  name: "rpn_conv/3x3"
  type: "Convolution"
  bottom: "conv5b"
  top: "rpn/output"
  param {
    lr_mult: 1
    decay_mult: 1
  }
  param {
    lr_mult: 2
    decay_mult: 0
  }
  convolution_param {
    num_output: 512
    pad: 1
    pad: 1
    pad: 1
    kernel_size: 3
    kernel_size: 3
    kernel_size: 3
    stride: 1
    stride: 2
    stride: 2
    weight_filler {
      type: "gaussian"
      std: 0.01
    }
    bias_filler {
      type: "constant"
      value: 0
    }
  }
}
layer {
  name: "rpn_relu/3x3"
  type: "ReLU"
  bottom: "rpn/output"
  top: "rpn/output"
}
layer {
  name: "rpn_conv/3x3_2"
  type: "Convolution"
  bottom: "rpn/output"
  top: "rpn/output_2"
  param {
    lr_mult: 1
    decay_mult: 1
  }
  param {
    lr_mult: 2
    decay_mult: 0
  }
  convolution_param {
    num_output: 512
    pad: 1
    pad: 1
    pad: 1
    kernel_size: 3
    kernel_size: 3
    kernel_size: 3
    stride: 1
    stride: 2
    stride: 2
    weight_filler {
      type: "gaussian"
      std: 0.01
    }
    bias_filler {
      type: "constant"
      value: 0
    }
  }
}
layer {
  name: "rpn_relu/3x3_2"
  type: "ReLU"
  bottom: "rpn/output_2"
  top: "rpn/output_2"
}
layer {
  name: "rpn/output_pool"
  type: "Pooling"
  bottom: "rpn/output_2"
  top: "rpn/output_pool"
  pooling_param {
    pool: MAX
    kernel_size: 1
    kernel_size: 2
    kernel_size: 2
  }
}
layer {
  name: "rpn_cls_score"
  type: "Convolution"
  bottom: "rpn/output_pool"
  top: "rpn_cls_score"
  param {
    lr_mult: 1
    decay_mult: 1
  }
  param {
    lr_mult: 2
    decay_mult: 0
  }
  convolution_param {
    num_output: 74
    kernel_size: 1
    kernel_size: 1
    kernel_size: 1
    weight_filler {
      type: "gaussian"
      std: 0.01
    }
    bias_filler {
      type: "constant"
      value: 0
    }
  }
}
layer {
  name: "rpn_twin_pred"
  type: "Convolution"
  bottom: "rpn/output_pool"
  top: "rpn_twin_pred"
  param {
    lr_mult: 1
    decay_mult: 1
  }
  param {
    lr_mult: 2
    decay_mult: 0
  }
  convolution_param {
    num_output: 74
    kernel_size: 1
    kernel_size: 1
    kernel_size: 1
    weight_filler {
      type: "gaussian"
      std: 0.01
    }
    bias_filler {
      type: "constant"
      value: 0
    }
  }
}
layer {
  name: "rpn_cls_score_reshape"
  type: "Reshape"
  bottom: "rpn_cls_score"
  top: "rpn_cls_score_reshape"
  reshape_param {
    shape {
      dim: 0
      dim: 2
      dim: -1
      dim: 0
      dim: 0
    }
  }
}
layer {
  name: "rpn-data"
  type: "Python"
  bottom: "rpn_cls_score"
  bottom: "gt_boxes"
  bottom: "data"
  top: "rpn_labels"
  top: "rpn_twin_targets"
  top: "rpn_twin_inside_weights"
  top: "rpn_twin_outside_weights"
  python_param {
    module: "rpn.anchor_target_layer"
    layer: "AnchorTargetLayer"
    param_str: "\'feat_stride\': 8 \n\'scales\': !!python/tuple [1,1.25, 1.5,1.75, 2,2.5, 3,3.5, 4,4.5, 5,5.5, 6,7, 8,9,10,11,12,14,16,18,20,22,24,28,32,36,40,44,52,60,68,76,84,92,100]"
  }
}
layer {
  name: "rpn_loss_cls"
  type: "SoftmaxWithLoss"
  bottom: "rpn_cls_score_reshape"
  bottom: "rpn_labels"
  top: "rpn_cls_loss"
  loss_weight: 1
  propagate_down: true
  propagate_down: false
  loss_param {
    ignore_label: -1
    normalize: true
  }
}
layer {
  name: "rpn_loss_twin"
  type: "SmoothL1Loss"
  bottom: "rpn_twin_pred"
  bottom: "rpn_twin_targets"
  bottom: "rpn_twin_inside_weights"
  bottom: "rpn_twin_outside_weights"
  top: "rpn_loss_twin"
  loss_weight: 1
  smooth_l1_loss_param {
    sigma: 3
  }
}
layer {
  name: "rpn_accuarcy"
  type: "Accuracy"
  bottom: "rpn_cls_score_reshape"
  bottom: "rpn_labels"
  top: "rpn_accuarcy"
  top: "rpn_accuarcy_class"
  propagate_down: false
  propagate_down: false
  accuracy_param {
    ignore_label: -1
  }
}
layer {
  name: "rpn_cls_prob"
  type: "Softmax"
  bottom: "rpn_cls_score_reshape"
  top: "rpn_cls_prob"
}
layer {
  name: "rpn_cls_prob_reshape"
  type: "Reshape"
  bottom: "rpn_cls_prob"
  top: "rpn_cls_prob_reshape"
  reshape_param {
    shape {
      dim: 0
      dim: 74
      dim: -1
      dim: 0
      dim: 0
    }
  }
}
layer {
  name: "proposal"
  type: "Python"
  bottom: "rpn_cls_prob_reshape"
  bottom: "rpn_twin_pred"
  top: "rpn_rois"
  include {
    phase: TRAIN
  }
  python_param {
    module: "rpn.proposal_layer"
    layer: "ProposalLayer"
    param_str: "\'feat_stride\': 8 \n\'scales\': !!python/tuple [1,1.25, 1.5,1.75, 2,2.5, 3,3.5, 4,4.5, 5,5.5, 6,7, 8,9,10,11,12,14,16,18,20,22,24,28,32,36,40,44,52,60,68,76,84,92,100]"
  }
}
layer {
  name: "roi-data"
  type: "Python"
  bottom: "rpn_rois"
  bottom: "gt_boxes"
  top: "rois"
  top: "labels"
  top: "twin_targets"
  top: "twin_inside_weights"
  top: "twin_outside_weights"
  python_param {
    module: "rpn.proposal_target_layer"
    layer: "ProposalTargetLayer"
    param_str: "\'num_classes\': 201"
  }
}
layer {
  name: "roi_pool5"
  type: "ROIPooling"
  bottom: "conv5b"
  bottom: "rois"
  top: "pool5"
  roi_pooling_param {
    pooled_h: 4
    pooled_w: 4
    spatial_scale: 0.0625
    pooled_l: 1
    temporal_scale: 0.125
  }
}
layer {
  name: "fc6"
  type: "InnerProduct"
  bottom: "pool5"
  top: "fc6"
  param {
    lr_mult: 1
    decay_mult: 1
  }
  param {
    lr_mult: 2
    decay_mult: 0
  }
  inner_product_param {
    num_output: 4096
    weight_filler {
      type: "gaussian"
      std: 0.005
    }
    bias_filler {
      type: "constant"
      value: 1
    }
  }
}
layer {
  name: "relu6"
  type: "ReLU"
  bottom: "fc6"
  top: "fc6"
}
layer {
  name: "drop6"
  type: "Dropout"
  bottom: "fc6"
  top: "fc6"
  dropout_param {
    dropout_ratio: 0.5
  }
}
layer {
  name: "cls_score"
  type: "InnerProduct"
  bottom: "fc6"
  top: "cls_score"
  param {
    lr_mult: 1
    decay_mult: 1
  }
  param {
    lr_mult: 2
    decay_mult: 0
  }
  inner_product_param {
    num_output: 201
    weight_filler {
      type: "gaussian"
      std: 0.01
    }
    bias_filler {
      type: "constant"
      value: 0
    }
  }
}
layer {
  name: "twin_pred"
  type: "InnerProduct"
  bottom: "fc6"
  top: "twin_pred"
  param {
    lr_mult: 1
    decay_mult: 1
  }
  param {
    lr_mult: 2
    decay_mult: 0
  }
  inner_product_param {
    num_output: 402
    weight_filler {
      type: "gaussian"
      std: 0.001
    }
    bias_filler {
      type: "constant"
      value: 0
    }
  }
}
layer {
  name: "loss_cls"
  type: "SoftmaxWithLoss"
  bottom: "cls_score"
  bottom: "labels"
  top: "loss_cls"
  loss_weight: 1
  propagate_down: true
  propagate_down: false
}
layer {
  name: "loss_twin"
  type: "SmoothL1Loss"
  bottom: "twin_pred"
  bottom: "twin_targets"
  bottom: "twin_inside_weights"
  bottom: "twin_outside_weights"
  top: "loss_twin"
  loss_weight: 1
}
layer {
  name: "accuarcy"
  type: "Accuracy"
  bottom: "cls_score"
  bottom: "labels"
  top: "accuarcy"
  propagate_down: false
  propagate_down: false
  accuracy_param {
    ignore_label: -1
  }
}
I0417 22:34:04.222306  8984 layer_factory.hpp:77] Creating layer data
I0417 22:34:04.246215  8984 net.cpp:100] Creating Layer data
I0417 22:34:04.246237  8984 net.cpp:408] data -> data
I0417 22:34:04.246250  8984 net.cpp:408] data -> gt_boxes
setting up
has rpn
RoiDataLayer: name_to_top: {'gt_windows': 1, 'data': 0}
I0417 22:34:04.273133  8984 net.cpp:150] Setting up data
I0417 22:34:04.273152  8984 net.cpp:157] Top shape: 1 3 768 112 112 (28901376)
I0417 22:34:04.273157  8984 net.cpp:157] Top shape: 1 101 (101)
I0417 22:34:04.273160  8984 net.cpp:165] Memory required for data: 115605908
I0417 22:34:04.273165  8984 layer_factory.hpp:77] Creating layer data_data_0_split
I0417 22:34:04.273177  8984 net.cpp:100] Creating Layer data_data_0_split
I0417 22:34:04.273181  8984 net.cpp:434] data_data_0_split <- data
I0417 22:34:04.273188  8984 net.cpp:408] data_data_0_split -> data_data_0_split_0
I0417 22:34:04.273197  8984 net.cpp:408] data_data_0_split -> data_data_0_split_1
I0417 22:34:04.273226  8984 net.cpp:150] Setting up data_data_0_split
I0417 22:34:04.273231  8984 net.cpp:157] Top shape: 1 3 768 112 112 (28901376)
I0417 22:34:04.273236  8984 net.cpp:157] Top shape: 1 3 768 112 112 (28901376)
I0417 22:34:04.273237  8984 net.cpp:165] Memory required for data: 346816916
I0417 22:34:04.273241  8984 layer_factory.hpp:77] Creating layer gt_boxes_data_1_split
I0417 22:34:04.273247  8984 net.cpp:100] Creating Layer gt_boxes_data_1_split
I0417 22:34:04.273250  8984 net.cpp:434] gt_boxes_data_1_split <- gt_boxes
I0417 22:34:04.273254  8984 net.cpp:408] gt_boxes_data_1_split -> gt_boxes_data_1_split_0
I0417 22:34:04.273259  8984 net.cpp:408] gt_boxes_data_1_split -> gt_boxes_data_1_split_1
I0417 22:34:04.273283  8984 net.cpp:150] Setting up gt_boxes_data_1_split
I0417 22:34:04.273288  8984 net.cpp:157] Top shape: 1 101 (101)
I0417 22:34:04.273291  8984 net.cpp:157] Top shape: 1 101 (101)
I0417 22:34:04.273294  8984 net.cpp:165] Memory required for data: 346817724
I0417 22:34:04.273296  8984 layer_factory.hpp:77] Creating layer conv1a
I0417 22:34:04.273313  8984 net.cpp:100] Creating Layer conv1a
I0417 22:34:04.273316  8984 net.cpp:434] conv1a <- data_data_0_split_0
I0417 22:34:04.273322  8984 net.cpp:408] conv1a -> conv1a
I0417 22:34:05.215013  8984 net.cpp:150] Setting up conv1a
I0417 22:34:05.215045  8984 net.cpp:157] Top shape: 1 64 768 112 112 (616562688)
I0417 22:34:05.215049  8984 net.cpp:165] Memory required for data: 2813068476
I0417 22:34:05.215068  8984 layer_factory.hpp:77] Creating layer relu1a
I0417 22:34:05.215081  8984 net.cpp:100] Creating Layer relu1a
I0417 22:34:05.215090  8984 net.cpp:434] relu1a <- conv1a
I0417 22:34:05.215096  8984 net.cpp:395] relu1a -> conv1a (in-place)
I0417 22:34:05.215545  8984 net.cpp:150] Setting up relu1a
I0417 22:34:05.215559  8984 net.cpp:157] Top shape: 1 64 768 112 112 (616562688)
I0417 22:34:05.215562  8984 net.cpp:165] Memory required for data: 5279319228
I0417 22:34:05.215566  8984 layer_factory.hpp:77] Creating layer pool1
I0417 22:34:05.215577  8984 net.cpp:100] Creating Layer pool1
I0417 22:34:05.215582  8984 net.cpp:434] pool1 <- conv1a
I0417 22:34:05.215589  8984 net.cpp:408] pool1 -> pool1
I0417 22:34:05.215780  8984 net.cpp:150] Setting up pool1
I0417 22:34:05.215790  8984 net.cpp:157] Top shape: 1 64 768 56 56 (154140672)
I0417 22:34:05.215795  8984 net.cpp:165] Memory required for data: 5895881916
I0417 22:34:05.215798  8984 layer_factory.hpp:77] Creating layer conv2a
I0417 22:34:05.215811  8984 net.cpp:100] Creating Layer conv2a
I0417 22:34:05.215816  8984 net.cpp:434] conv2a <- pool1
I0417 22:34:05.215823  8984 net.cpp:408] conv2a -> conv2a
I0417 22:34:05.228828  8984 net.cpp:150] Setting up conv2a
I0417 22:34:05.228853  8984 net.cpp:157] Top shape: 1 128 768 56 56 (308281344)
I0417 22:34:05.228858  8984 net.cpp:165] Memory required for data: 7129007292
I0417 22:34:05.228869  8984 layer_factory.hpp:77] Creating layer relu2a
I0417 22:34:05.228878  8984 net.cpp:100] Creating Layer relu2a
I0417 22:34:05.228883  8984 net.cpp:434] relu2a <- conv2a
I0417 22:34:05.228888  8984 net.cpp:395] relu2a -> conv2a (in-place)
I0417 22:34:05.229207  8984 net.cpp:150] Setting up relu2a
I0417 22:34:05.229220  8984 net.cpp:157] Top shape: 1 128 768 56 56 (308281344)
I0417 22:34:05.229224  8984 net.cpp:165] Memory required for data: 8362132668
I0417 22:34:05.229228  8984 layer_factory.hpp:77] Creating layer pool2
I0417 22:34:05.229238  8984 net.cpp:100] Creating Layer pool2
I0417 22:34:05.229243  8984 net.cpp:434] pool2 <- conv2a
I0417 22:34:05.229249  8984 net.cpp:408] pool2 -> pool2
I0417 22:34:05.229921  8984 net.cpp:150] Setting up pool2
I0417 22:34:05.229933  8984 net.cpp:157] Top shape: 1 128 384 28 28 (38535168)
I0417 22:34:05.229936  8984 net.cpp:165] Memory required for data: 8516273340
I0417 22:34:05.229939  8984 layer_factory.hpp:77] Creating layer conv3a
I0417 22:34:05.229955  8984 net.cpp:100] Creating Layer conv3a
I0417 22:34:05.229959  8984 net.cpp:434] conv3a <- pool2
I0417 22:34:05.229965  8984 net.cpp:408] conv3a -> conv3a
I0417 22:34:05.257081  8984 net.cpp:150] Setting up conv3a
I0417 22:34:05.257099  8984 net.cpp:157] Top shape: 1 256 384 28 28 (77070336)
I0417 22:34:05.257103  8984 net.cpp:165] Memory required for data: 8824554684
I0417 22:34:05.257115  8984 layer_factory.hpp:77] Creating layer relu3a
I0417 22:34:05.257124  8984 net.cpp:100] Creating Layer relu3a
I0417 22:34:05.257128  8984 net.cpp:434] relu3a <- conv3a
I0417 22:34:05.257134  8984 net.cpp:395] relu3a -> conv3a (in-place)
I0417 22:34:05.257441  8984 net.cpp:150] Setting up relu3a
I0417 22:34:05.257453  8984 net.cpp:157] Top shape: 1 256 384 28 28 (77070336)
I0417 22:34:05.257457  8984 net.cpp:165] Memory required for data: 9132836028
I0417 22:34:05.257462  8984 layer_factory.hpp:77] Creating layer conv3b
I0417 22:34:05.257472  8984 net.cpp:100] Creating Layer conv3b
I0417 22:34:05.257477  8984 net.cpp:434] conv3b <- conv3a
I0417 22:34:05.257483  8984 net.cpp:408] conv3b -> conv3b
I0417 22:34:05.307090  8984 net.cpp:150] Setting up conv3b
I0417 22:34:05.307116  8984 net.cpp:157] Top shape: 1 256 384 28 28 (77070336)
I0417 22:34:05.307121  8984 net.cpp:165] Memory required for data: 9441117372
I0417 22:34:05.307128  8984 layer_factory.hpp:77] Creating layer relu3b
I0417 22:34:05.307138  8984 net.cpp:100] Creating Layer relu3b
I0417 22:34:05.307142  8984 net.cpp:434] relu3b <- conv3b
I0417 22:34:05.307148  8984 net.cpp:395] relu3b -> conv3b (in-place)
I0417 22:34:05.307452  8984 net.cpp:150] Setting up relu3b
I0417 22:34:05.307466  8984 net.cpp:157] Top shape: 1 256 384 28 28 (77070336)
I0417 22:34:05.307468  8984 net.cpp:165] Memory required for data: 9749398716
I0417 22:34:05.307472  8984 layer_factory.hpp:77] Creating layer pool3
I0417 22:34:05.307482  8984 net.cpp:100] Creating Layer pool3
I0417 22:34:05.307485  8984 net.cpp:434] pool3 <- conv3b
I0417 22:34:05.307492  8984 net.cpp:408] pool3 -> pool3
I0417 22:34:05.308878  8984 net.cpp:150] Setting up pool3
I0417 22:34:05.308889  8984 net.cpp:157] Top shape: 1 256 192 14 14 (9633792)
I0417 22:34:05.308893  8984 net.cpp:165] Memory required for data: 9787933884
I0417 22:34:05.308897  8984 layer_factory.hpp:77] Creating layer conv4a
I0417 22:34:05.308909  8984 net.cpp:100] Creating Layer conv4a
I0417 22:34:05.308913  8984 net.cpp:434] conv4a <- pool3
I0417 22:34:05.308920  8984 net.cpp:408] conv4a -> conv4a
I0417 22:34:05.407912  8984 net.cpp:150] Setting up conv4a
I0417 22:34:05.407948  8984 net.cpp:157] Top shape: 1 512 192 14 14 (19267584)
I0417 22:34:05.407951  8984 net.cpp:165] Memory required for data: 9865004220
I0417 22:34:05.407965  8984 layer_factory.hpp:77] Creating layer relu4a
I0417 22:34:05.407976  8984 net.cpp:100] Creating Layer relu4a
I0417 22:34:05.407980  8984 net.cpp:434] relu4a <- conv4a
I0417 22:34:05.407986  8984 net.cpp:395] relu4a -> conv4a (in-place)
I0417 22:34:05.408296  8984 net.cpp:150] Setting up relu4a
I0417 22:34:05.408309  8984 net.cpp:157] Top shape: 1 512 192 14 14 (19267584)
I0417 22:34:05.408313  8984 net.cpp:165] Memory required for data: 9942074556
I0417 22:34:05.408316  8984 layer_factory.hpp:77] Creating layer conv4b
I0417 22:34:05.408331  8984 net.cpp:100] Creating Layer conv4b
I0417 22:34:05.408335  8984 net.cpp:434] conv4b <- conv4a
I0417 22:34:05.408341  8984 net.cpp:408] conv4b -> conv4b
I0417 22:34:05.595659  8984 net.cpp:150] Setting up conv4b
I0417 22:34:05.595683  8984 net.cpp:157] Top shape: 1 512 192 14 14 (19267584)
I0417 22:34:05.595687  8984 net.cpp:165] Memory required for data: 10019144892
I0417 22:34:05.595696  8984 layer_factory.hpp:77] Creating layer relu4b
I0417 22:34:05.595705  8984 net.cpp:100] Creating Layer relu4b
I0417 22:34:05.595710  8984 net.cpp:434] relu4b <- conv4b
I0417 22:34:05.595717  8984 net.cpp:395] relu4b -> conv4b (in-place)
I0417 22:34:05.595867  8984 net.cpp:150] Setting up relu4b
I0417 22:34:05.595877  8984 net.cpp:157] Top shape: 1 512 192 14 14 (19267584)
I0417 22:34:05.595880  8984 net.cpp:165] Memory required for data: 10096215228
I0417 22:34:05.595885  8984 layer_factory.hpp:77] Creating layer pool4
I0417 22:34:05.595891  8984 net.cpp:100] Creating Layer pool4
I0417 22:34:05.595896  8984 net.cpp:434] pool4 <- conv4b
I0417 22:34:05.595901  8984 net.cpp:408] pool4 -> pool4
I0417 22:34:05.596659  8984 net.cpp:150] Setting up pool4
I0417 22:34:05.596680  8984 net.cpp:157] Top shape: 1 512 96 7 7 (2408448)
I0417 22:34:05.596684  8984 net.cpp:165] Memory required for data: 10105849020
I0417 22:34:05.596688  8984 layer_factory.hpp:77] Creating layer conv5a
I0417 22:34:05.596699  8984 net.cpp:100] Creating Layer conv5a
I0417 22:34:05.596704  8984 net.cpp:434] conv5a <- pool4
I0417 22:34:05.596709  8984 net.cpp:408] conv5a -> conv5a
I0417 22:34:05.782548  8984 net.cpp:150] Setting up conv5a
I0417 22:34:05.782572  8984 net.cpp:157] Top shape: 1 512 96 7 7 (2408448)
I0417 22:34:05.782575  8984 net.cpp:165] Memory required for data: 10115482812
I0417 22:34:05.782584  8984 layer_factory.hpp:77] Creating layer relu5a
I0417 22:34:05.782593  8984 net.cpp:100] Creating Layer relu5a
I0417 22:34:05.782598  8984 net.cpp:434] relu5a <- conv5a
I0417 22:34:05.782603  8984 net.cpp:395] relu5a -> conv5a (in-place)
I0417 22:34:05.783090  8984 net.cpp:150] Setting up relu5a
I0417 22:34:05.783103  8984 net.cpp:157] Top shape: 1 512 96 7 7 (2408448)
I0417 22:34:05.783107  8984 net.cpp:165] Memory required for data: 10125116604
I0417 22:34:05.783110  8984 layer_factory.hpp:77] Creating layer conv5b
I0417 22:34:05.783121  8984 net.cpp:100] Creating Layer conv5b
I0417 22:34:05.783125  8984 net.cpp:434] conv5b <- conv5a
I0417 22:34:05.783131  8984 net.cpp:408] conv5b -> conv5b
I0417 22:34:05.972497  8984 net.cpp:150] Setting up conv5b
I0417 22:34:05.972522  8984 net.cpp:157] Top shape: 1 512 96 7 7 (2408448)
I0417 22:34:05.972525  8984 net.cpp:165] Memory required for data: 10134750396
I0417 22:34:05.972534  8984 layer_factory.hpp:77] Creating layer relu5b
I0417 22:34:05.972545  8984 net.cpp:100] Creating Layer relu5b
I0417 22:34:05.972553  8984 net.cpp:434] relu5b <- conv5b
I0417 22:34:05.972559  8984 net.cpp:395] relu5b -> conv5b (in-place)
I0417 22:34:05.973599  8984 net.cpp:150] Setting up relu5b
I0417 22:34:05.973608  8984 net.cpp:157] Top shape: 1 512 96 7 7 (2408448)
I0417 22:34:05.973613  8984 net.cpp:165] Memory required for data: 10144384188
I0417 22:34:05.973615  8984 layer_factory.hpp:77] Creating layer conv5b_relu5b_0_split
I0417 22:34:05.973623  8984 net.cpp:100] Creating Layer conv5b_relu5b_0_split
I0417 22:34:05.973625  8984 net.cpp:434] conv5b_relu5b_0_split <- conv5b
I0417 22:34:05.973631  8984 net.cpp:408] conv5b_relu5b_0_split -> conv5b_relu5b_0_split_0
I0417 22:34:05.973637  8984 net.cpp:408] conv5b_relu5b_0_split -> conv5b_relu5b_0_split_1
I0417 22:34:05.973676  8984 net.cpp:150] Setting up conv5b_relu5b_0_split
I0417 22:34:05.973681  8984 net.cpp:157] Top shape: 1 512 96 7 7 (2408448)
I0417 22:34:05.973685  8984 net.cpp:157] Top shape: 1 512 96 7 7 (2408448)
I0417 22:34:05.973688  8984 net.cpp:165] Memory required for data: 10163651772
I0417 22:34:05.973691  8984 layer_factory.hpp:77] Creating layer rpn_conv/3x3
I0417 22:34:05.973701  8984 net.cpp:100] Creating Layer rpn_conv/3x3
I0417 22:34:05.973706  8984 net.cpp:434] rpn_conv/3x3 <- conv5b_relu5b_0_split_0
I0417 22:34:05.973711  8984 net.cpp:408] rpn_conv/3x3 -> rpn/output
I0417 22:34:06.163841  8984 net.cpp:150] Setting up rpn_conv/3x3
I0417 22:34:06.163866  8984 net.cpp:157] Top shape: 1 512 96 4 4 (786432)
I0417 22:34:06.163871  8984 net.cpp:165] Memory required for data: 10166797500
I0417 22:34:06.163884  8984 layer_factory.hpp:77] Creating layer rpn_relu/3x3
I0417 22:34:06.163895  8984 net.cpp:100] Creating Layer rpn_relu/3x3
I0417 22:34:06.163899  8984 net.cpp:434] rpn_relu/3x3 <- rpn/output
I0417 22:34:06.163906  8984 net.cpp:395] rpn_relu/3x3 -> rpn/output (in-place)
I0417 22:34:06.164333  8984 net.cpp:150] Setting up rpn_relu/3x3
I0417 22:34:06.164345  8984 net.cpp:157] Top shape: 1 512 96 4 4 (786432)
I0417 22:34:06.164350  8984 net.cpp:165] Memory required for data: 10169943228
I0417 22:34:06.164352  8984 layer_factory.hpp:77] Creating layer rpn_conv/3x3_2
I0417 22:34:06.164364  8984 net.cpp:100] Creating Layer rpn_conv/3x3_2
I0417 22:34:06.164367  8984 net.cpp:434] rpn_conv/3x3_2 <- rpn/output
I0417 22:34:06.164376  8984 net.cpp:408] rpn_conv/3x3_2 -> rpn/output_2
I0417 22:34:06.353652  8984 net.cpp:150] Setting up rpn_conv/3x3_2
I0417 22:34:06.353677  8984 net.cpp:157] Top shape: 1 512 96 2 2 (196608)
I0417 22:34:06.353682  8984 net.cpp:165] Memory required for data: 10170729660
I0417 22:34:06.353690  8984 layer_factory.hpp:77] Creating layer rpn_relu/3x3_2
I0417 22:34:06.353700  8984 net.cpp:100] Creating Layer rpn_relu/3x3_2
I0417 22:34:06.353705  8984 net.cpp:434] rpn_relu/3x3_2 <- rpn/output_2
I0417 22:34:06.353711  8984 net.cpp:395] rpn_relu/3x3_2 -> rpn/output_2 (in-place)
I0417 22:34:06.354717  8984 net.cpp:150] Setting up rpn_relu/3x3_2
I0417 22:34:06.354729  8984 net.cpp:157] Top shape: 1 512 96 2 2 (196608)
I0417 22:34:06.354733  8984 net.cpp:165] Memory required for data: 10171516092
I0417 22:34:06.354737  8984 layer_factory.hpp:77] Creating layer rpn/output_pool
I0417 22:34:06.354744  8984 net.cpp:100] Creating Layer rpn/output_pool
I0417 22:34:06.354748  8984 net.cpp:434] rpn/output_pool <- rpn/output_2
I0417 22:34:06.354754  8984 net.cpp:408] rpn/output_pool -> rpn/output_pool
I0417 22:34:06.354936  8984 net.cpp:150] Setting up rpn/output_pool
I0417 22:34:06.354946  8984 net.cpp:157] Top shape: 1 512 96 1 1 (49152)
I0417 22:34:06.354950  8984 net.cpp:165] Memory required for data: 10171712700
I0417 22:34:06.354954  8984 layer_factory.hpp:77] Creating layer rpn/output_pool_rpn/output_pool_0_split
I0417 22:34:06.354959  8984 net.cpp:100] Creating Layer rpn/output_pool_rpn/output_pool_0_split
I0417 22:34:06.354962  8984 net.cpp:434] rpn/output_pool_rpn/output_pool_0_split <- rpn/output_pool
I0417 22:34:06.354969  8984 net.cpp:408] rpn/output_pool_rpn/output_pool_0_split -> rpn/output_pool_rpn/output_pool_0_split_0
I0417 22:34:06.354974  8984 net.cpp:408] rpn/output_pool_rpn/output_pool_0_split -> rpn/output_pool_rpn/output_pool_0_split_1
I0417 22:34:06.355006  8984 net.cpp:150] Setting up rpn/output_pool_rpn/output_pool_0_split
I0417 22:34:06.355013  8984 net.cpp:157] Top shape: 1 512 96 1 1 (49152)
I0417 22:34:06.355017  8984 net.cpp:157] Top shape: 1 512 96 1 1 (49152)
I0417 22:34:06.355021  8984 net.cpp:165] Memory required for data: 10172105916
I0417 22:34:06.355024  8984 layer_factory.hpp:77] Creating layer rpn_cls_score
I0417 22:34:06.355034  8984 net.cpp:100] Creating Layer rpn_cls_score
I0417 22:34:06.355042  8984 net.cpp:434] rpn_cls_score <- rpn/output_pool_rpn/output_pool_0_split_0
I0417 22:34:06.355048  8984 net.cpp:408] rpn_cls_score -> rpn_cls_score
I0417 22:34:06.357475  8984 net.cpp:150] Setting up rpn_cls_score
I0417 22:34:06.357487  8984 net.cpp:157] Top shape: 1 74 96 1 1 (7104)
I0417 22:34:06.357491  8984 net.cpp:165] Memory required for data: 10172134332
I0417 22:34:06.357497  8984 layer_factory.hpp:77] Creating layer rpn_cls_score_rpn_cls_score_0_split
I0417 22:34:06.357502  8984 net.cpp:100] Creating Layer rpn_cls_score_rpn_cls_score_0_split
I0417 22:34:06.357506  8984 net.cpp:434] rpn_cls_score_rpn_cls_score_0_split <- rpn_cls_score
I0417 22:34:06.357512  8984 net.cpp:408] rpn_cls_score_rpn_cls_score_0_split -> rpn_cls_score_rpn_cls_score_0_split_0
I0417 22:34:06.357518  8984 net.cpp:408] rpn_cls_score_rpn_cls_score_0_split -> rpn_cls_score_rpn_cls_score_0_split_1
I0417 22:34:06.357558  8984 net.cpp:150] Setting up rpn_cls_score_rpn_cls_score_0_split
I0417 22:34:06.357564  8984 net.cpp:157] Top shape: 1 74 96 1 1 (7104)
I0417 22:34:06.357568  8984 net.cpp:157] Top shape: 1 74 96 1 1 (7104)
I0417 22:34:06.357571  8984 net.cpp:165] Memory required for data: 10172191164
I0417 22:34:06.357574  8984 layer_factory.hpp:77] Creating layer rpn_twin_pred
I0417 22:34:06.357587  8984 net.cpp:100] Creating Layer rpn_twin_pred
I0417 22:34:06.357594  8984 net.cpp:434] rpn_twin_pred <- rpn/output_pool_rpn/output_pool_0_split_1
I0417 22:34:06.357599  8984 net.cpp:408] rpn_twin_pred -> rpn_twin_pred
I0417 22:34:06.360527  8984 net.cpp:150] Setting up rpn_twin_pred
I0417 22:34:06.360540  8984 net.cpp:157] Top shape: 1 74 96 1 1 (7104)
I0417 22:34:06.360544  8984 net.cpp:165] Memory required for data: 10172219580
I0417 22:34:06.360550  8984 layer_factory.hpp:77] Creating layer rpn_twin_pred_rpn_twin_pred_0_split
I0417 22:34:06.360558  8984 net.cpp:100] Creating Layer rpn_twin_pred_rpn_twin_pred_0_split
I0417 22:34:06.360561  8984 net.cpp:434] rpn_twin_pred_rpn_twin_pred_0_split <- rpn_twin_pred
I0417 22:34:06.360568  8984 net.cpp:408] rpn_twin_pred_rpn_twin_pred_0_split -> rpn_twin_pred_rpn_twin_pred_0_split_0
I0417 22:34:06.360574  8984 net.cpp:408] rpn_twin_pred_rpn_twin_pred_0_split -> rpn_twin_pred_rpn_twin_pred_0_split_1
I0417 22:34:06.360608  8984 net.cpp:150] Setting up rpn_twin_pred_rpn_twin_pred_0_split
I0417 22:34:06.360615  8984 net.cpp:157] Top shape: 1 74 96 1 1 (7104)
I0417 22:34:06.360620  8984 net.cpp:157] Top shape: 1 74 96 1 1 (7104)
I0417 22:34:06.360622  8984 net.cpp:165] Memory required for data: 10172276412
I0417 22:34:06.360626  8984 layer_factory.hpp:77] Creating layer rpn_cls_score_reshape
I0417 22:34:06.360638  8984 net.cpp:100] Creating Layer rpn_cls_score_reshape
I0417 22:34:06.360643  8984 net.cpp:434] rpn_cls_score_reshape <- rpn_cls_score_rpn_cls_score_0_split_0
I0417 22:34:06.360648  8984 net.cpp:408] rpn_cls_score_reshape -> rpn_cls_score_reshape
I0417 22:34:06.360677  8984 net.cpp:150] Setting up rpn_cls_score_reshape
I0417 22:34:06.360684  8984 net.cpp:157] Top shape: 1 2 3552 1 1 (7104)
I0417 22:34:06.360687  8984 net.cpp:165] Memory required for data: 10172304828
I0417 22:34:06.360690  8984 layer_factory.hpp:77] Creating layer rpn_cls_score_reshape_rpn_cls_score_reshape_0_split
I0417 22:34:06.360697  8984 net.cpp:100] Creating Layer rpn_cls_score_reshape_rpn_cls_score_reshape_0_split
I0417 22:34:06.360699  8984 net.cpp:434] rpn_cls_score_reshape_rpn_cls_score_reshape_0_split <- rpn_cls_score_reshape
I0417 22:34:06.360704  8984 net.cpp:408] rpn_cls_score_reshape_rpn_cls_score_reshape_0_split -> rpn_cls_score_reshape_rpn_cls_score_reshape_0_split_0
I0417 22:34:06.360713  8984 net.cpp:408] rpn_cls_score_reshape_rpn_cls_score_reshape_0_split -> rpn_cls_score_reshape_rpn_cls_score_reshape_0_split_1
I0417 22:34:06.360721  8984 net.cpp:408] rpn_cls_score_reshape_rpn_cls_score_reshape_0_split -> rpn_cls_score_reshape_rpn_cls_score_reshape_0_split_2
I0417 22:34:06.360761  8984 net.cpp:150] Setting up rpn_cls_score_reshape_rpn_cls_score_reshape_0_split
I0417 22:34:06.360769  8984 net.cpp:157] Top shape: 1 2 3552 1 1 (7104)
I0417 22:34:06.360774  8984 net.cpp:157] Top shape: 1 2 3552 1 1 (7104)
I0417 22:34:06.360776  8984 net.cpp:157] Top shape: 1 2 3552 1 1 (7104)
I0417 22:34:06.360781  8984 net.cpp:165] Memory required for data: 10172390076
I0417 22:34:06.360785  8984 layer_factory.hpp:77] Creating layer rpn-data
I0417 22:34:06.361179  8984 net.cpp:100] Creating Layer rpn-data
I0417 22:34:06.361191  8984 net.cpp:434] rpn-data <- rpn_cls_score_rpn_cls_score_0_split_1
I0417 22:34:06.361197  8984 net.cpp:434] rpn-data <- gt_boxes_data_1_split_0
I0417 22:34:06.361202  8984 net.cpp:434] rpn-data <- data_data_0_split_1
I0417 22:34:06.361207  8984 net.cpp:408] rpn-data -> rpn_labels
I0417 22:34:06.361213  8984 net.cpp:408] rpn-data -> rpn_twin_targets
I0417 22:34:06.361219  8984 net.cpp:408] rpn-data -> rpn_twin_inside_weights
I0417 22:34:06.361224  8984 net.cpp:408] rpn-data -> rpn_twin_outside_weights
I0417 22:34:06.363462  8984 net.cpp:150] Setting up rpn-data
I0417 22:34:06.363477  8984 net.cpp:157] Top shape: 1 1 3552 1 1 (3552)
I0417 22:34:06.363482  8984 net.cpp:157] Top shape: 1 74 96 1 1 (7104)
I0417 22:34:06.363487  8984 net.cpp:157] Top shape: 1 74 96 1 1 (7104)
I0417 22:34:06.363489  8984 net.cpp:157] Top shape: 1 74 96 1 1 (7104)
I0417 22:34:06.363492  8984 net.cpp:165] Memory required for data: 10172489532
I0417 22:34:06.363495  8984 layer_factory.hpp:77] Creating layer rpn_labels_rpn-data_0_split
I0417 22:34:06.363502  8984 net.cpp:100] Creating Layer rpn_labels_rpn-data_0_split
I0417 22:34:06.363505  8984 net.cpp:434] rpn_labels_rpn-data_0_split <- rpn_labels
I0417 22:34:06.363510  8984 net.cpp:408] rpn_labels_rpn-data_0_split -> rpn_labels_rpn-data_0_split_0
I0417 22:34:06.363517  8984 net.cpp:408] rpn_labels_rpn-data_0_split -> rpn_labels_rpn-data_0_split_1
I0417 22:34:06.363548  8984 net.cpp:150] Setting up rpn_labels_rpn-data_0_split
I0417 22:34:06.363555  8984 net.cpp:157] Top shape: 1 1 3552 1 1 (3552)
I0417 22:34:06.363559  8984 net.cpp:157] Top shape: 1 1 3552 1 1 (3552)
I0417 22:34:06.363562  8984 net.cpp:165] Memory required for data: 10172517948
I0417 22:34:06.363566  8984 layer_factory.hpp:77] Creating layer rpn_loss_cls
I0417 22:34:06.363574  8984 net.cpp:100] Creating Layer rpn_loss_cls
I0417 22:34:06.363579  8984 net.cpp:434] rpn_loss_cls <- rpn_cls_score_reshape_rpn_cls_score_reshape_0_split_0
I0417 22:34:06.363584  8984 net.cpp:434] rpn_loss_cls <- rpn_labels_rpn-data_0_split_0
…
I0417 22:34:06.364130  8984 layer_factory.hpp:77] Creating layer rpn_accuarcy
I0417 22:34:06.364137  8984 net.cpp:100] Creating Layer rpn_accuarcy
I0417 22:34:06.364141  8984 net.cpp:434] rpn_accuarcy <- rpn_cls_score_reshape_rpn_cls_score_reshape_0_split_1
I0417 22:34:06.364145  8984 net.cpp:434] rpn_accuarcy <- rpn_labels_rpn-data_0_split_1
I0417 22:34:06.364151  8984 net.cpp:408] rpn_accuarcy -> rpn_accuarcy
I0417 22:34:06.364157  8984 net.cpp:408] rpn_accuarcy -> rpn_accuarcy_class
I0417 22:34:06.364192  8984 net.cpp:150] Setting up rpn_accuarcy
I0417 22:34:06.364199  8984 net.cpp:157] Top shape: (1)
I0417 22:34:06.364203  8984 net.cpp:157] Top shape: 2 (2)
I0417 22:34:06.364207  8984 net.cpp:165] Memory required for data: 10172517968
I0417 22:34:06.364209  8984 layer_factory.hpp:77] Creating layer rpn_cls_prob
I0417 22:34:06.364215  8984 net.cpp:100] Creating Layer rpn_cls_prob
I0417 22:34:06.364219  8984 net.cpp:434] rpn_cls_prob <- rpn_cls_score_reshape_rpn_cls_score_reshape_0_split_2
I0417 22:34:06.364223  8984 net.cpp:408] rpn_cls_prob -> rpn_cls_prob
I0417 22:34:06.364622  8984 net.cpp:150] Setting up rpn_cls_prob
I0417 22:34:06.364641  8984 net.cpp:157] Top shape: 1 2 3552 1 1 (7104)
I0417 22:34:06.364645  8984 net.cpp:165] Memory required for data: 10172546384
I0417 22:34:06.364648  8984 layer_factory.hpp:77] Creating layer rpn_cls_prob_reshape
I0417 22:34:06.364655  8984 net.cpp:100] Creating Layer rpn_cls_prob_reshape
I0417 22:34:06.364658  8984 net.cpp:434] rpn_cls_prob_reshape <- rpn_cls_prob
I0417 22:34:06.364663  8984 net.cpp:408] rpn_cls_prob_reshape -> rpn_cls_prob_reshape
I0417 22:34:06.364688  8984 net.cpp:150] Setting up rpn_cls_prob_reshape
I0417 22:34:06.364696  8984 net.cpp:157] Top shape: 1 74 96 1 1 (7104)
I0417 22:34:06.364699  8984 net.cpp:165] Memory required for data: 10172574800
I0417 22:34:06.364702  8984 layer_factory.hpp:77] Creating layer proposal
I0417 22:34:06.365249  8984 net.cpp:100] Creating Layer proposal
I0417 22:34:06.365262  8984 net.cpp:434] proposal <- rpn_cls_prob_reshape
I0417 22:34:06.365268  8984 net.cpp:434] proposal <- rpn_twin_pred_rpn_twin_pred_0_split_1
I0417 22:34:06.365273  8984 net.cpp:408] proposal -> rpn_rois
I0417 22:34:06.367933  8984 net.cpp:150] Setting up proposal
I0417 22:34:06.367957  8984 net.cpp:157] Top shape: 1 3 (3)
I0417 22:34:06.367961  8984 net.cpp:165] Memory required for data: 10172574812
I0417 22:34:06.367965  8984 layer_factory.hpp:77] Creating layer roi-data
I0417 22:34:06.368099  8984 net.cpp:100] Creating Layer roi-data
I0417 22:34:06.368111  8984 net.cpp:434] roi-data <- rpn_rois
I0417 22:34:06.368116  8984 net.cpp:434] roi-data <- gt_boxes_data_1_split_1
I0417 22:34:06.368122  8984 net.cpp:408] roi-data -> rois
I0417 22:34:06.368129  8984 net.cpp:408] roi-data -> labels
I0417 22:34:06.368134  8984 net.cpp:408] roi-data -> twin_targets
I0417 22:34:06.368140  8984 net.cpp:408] roi-data -> twin_inside_weights
I0417 22:34:06.368145  8984 net.cpp:408] roi-data -> twin_outside_weights
I0417 22:34:06.368450  8984 net.cpp:150] Setting up roi-data
I0417 22:34:06.368463  8984 net.cpp:157] Top shape: 1 3 (3)
I0417 22:34:06.368468  8984 net.cpp:157] Top shape: 1 1 (1)
I0417 22:34:06.368471  8984 net.cpp:157] Top shape: 1 402 (402)
I0417 22:34:06.368474  8984 net.cpp:157] Top shape: 1 402 (402)
I0417 22:34:06.368479  8984 net.cpp:157] Top shape: 1 402 (402)
I0417 22:34:06.368482  8984 net.cpp:165] Memory required for data: 10172579652
I0417 22:34:06.368485  8984 layer_factory.hpp:77] Creating layer labels_roi-data_1_split
I0417 22:34:06.368491  8984 net.cpp:100] Creating Layer labels_roi-data_1_split
I0417 22:34:06.368494  8984 net.cpp:434] labels_roi-data_1_split <- labels
I0417 22:34:06.368499  8984 net.cpp:408] labels_roi-data_1_split -> labels_roi-data_1_split_0
I0417 22:34:06.368505  8984 net.cpp:408] labels_roi-data_1_split -> labels_roi-data_1_split_1
I0417 22:34:06.368536  8984 net.cpp:150] Setting up labels_roi-data_1_split
I0417 22:34:06.368543  8984 net.cpp:157] Top shape: 1 1 (1)
I0417 22:34:06.368547  8984 net.cpp:157] Top shape: 1 1 (1)
I0417 22:34:06.368551  8984 net.cpp:165] Memory required for data: 10172579660
I0417 22:34:06.368553  8984 layer_factory.hpp:77] Creating layer roi_pool5
I0417 22:34:06.368562  8984 net.cpp:100] Creating Layer roi_pool5
I0417 22:34:06.368568  8984 net.cpp:434] roi_pool5 <- conv5b_relu5b_0_split_1
I0417 22:34:06.368573  8984 net.cpp:434] roi_pool5 <- rois
I0417 22:34:06.368577  8984 net.cpp:408] roi_pool5 -> pool5
I0417 22:34:06.368584  8984 roi_pooling_layer.cpp:34] Temporal scale: 0.125
I0417 22:34:06.368590  8984 roi_pooling_layer.cpp:35] Spatial scale: 0.0625
I0417 22:34:06.368623  8984 net.cpp:150] Setting up roi_pool5
I0417 22:34:06.368629  8984 net.cpp:157] Top shape: 1 512 1 4 4 (8192)
I0417 22:34:06.368633  8984 net.cpp:165] Memory required for data: 10172612428
I0417 22:34:06.368636  8984 layer_factory.hpp:77] Creating layer fc6
I0417 22:34:06.368644  8984 net.cpp:100] Creating Layer fc6
I0417 22:34:06.368647  8984 net.cpp:434] fc6 <- pool5
I0417 22:34:06.368654  8984 net.cpp:408] fc6 -> fc6
I0417 22:34:07.244766  8984 net.cpp:150] Setting up fc6
I0417 22:34:07.244791  8984 net.cpp:157] Top shape: 1 4096 (4096)
I0417 22:34:07.244794  8984 net.cpp:165] Memory required for data: 10172628812
I0417 22:34:07.244804  8984 layer_factory.hpp:77] Creating layer relu6
I0417 22:34:07.244813  8984 net.cpp:100] Creating Layer relu6
I0417 22:34:07.244818  8984 net.cpp:434] relu6 <- fc6
I0417 22:34:07.244824  8984 net.cpp:395] relu6 -> fc6 (in-place)
I0417 22:34:07.245230  8984 net.cpp:150] Setting up relu6
I0417 22:34:07.245244  8984 net.cpp:157] Top shape: 1 4096 (4096)
I0417 22:34:07.245247  8984 net.cpp:165] Memory required for data: 10172645196
I0417 22:34:07.245250  8984 layer_factory.hpp:77] Creating layer drop6
I0417 22:34:07.245262  8984 net.cpp:100] Creating Layer drop6
I0417 22:34:07.245267  8984 net.cpp:434] drop6 <- fc6
I0417 22:34:07.245275  8984 net.cpp:395] drop6 -> fc6 (in-place)
I0417 22:34:07.245304  8984 net.cpp:150] Setting up drop6
I0417 22:34:07.245312  8984 net.cpp:157] Top shape: 1 4096 (4096)
I0417 22:34:07.245316  8984 net.cpp:165] Memory required for data: 10172661580
I0417 22:34:07.245318  8984 layer_factory.hpp:77] Creating layer fc6_drop6_0_split
I0417 22:34:07.245324  8984 net.cpp:100] Creating Layer fc6_drop6_0_split
I0417 22:34:07.245328  8984 net.cpp:434] fc6_drop6_0_split <- fc6
I0417 22:34:07.245333  8984 net.cpp:408] fc6_drop6_0_split -> fc6_drop6_0_split_0
I0417 22:34:07.245342  8984 net.cpp:408] fc6_drop6_0_split -> fc6_drop6_0_split_1
I0417 22:34:07.245376  8984 net.cpp:150] Setting up fc6_drop6_0_split
I0417 22:34:07.245383  8984 net.cpp:157] Top shape: 1 4096 (4096)
I0417 22:34:07.245388  8984 net.cpp:157] Top shape: 1 4096 (4096)
I0417 22:34:07.245390  8984 net.cpp:165] Memory required for data: 10172694348
I0417 22:34:07.245393  8984 layer_factory.hpp:77] Creating layer cls_score
I0417 22:34:07.245405  8984 net.cpp:100] Creating Layer cls_score
I0417 22:34:07.245410  8984 net.cpp:434] cls_score <- fc6_drop6_0_split_0
I0417 22:34:07.245417  8984 net.cpp:408] cls_score -> cls_score
I0417 22:34:07.267940  8984 net.cpp:150] Setting up cls_score
I0417 22:34:07.267961  8984 net.cpp:157] Top shape: 1 201 (201)
I0417 22:34:07.267963  8984 net.cpp:165] Memory required for data: 10172695152
I0417 22:34:07.267971  8984 layer_factory.hpp:77] Creating layer cls_score_cls_score_0_split
I0417 22:34:07.267979  8984 net.cpp:100] Creating Layer cls_score_cls_score_0_split
I0417 22:34:07.267983  8984 net.cpp:434] cls_score_cls_score_0_split <- cls_score
I0417 22:34:07.267990  8984 net.cpp:408] cls_score_cls_score_0_split -> cls_score_cls_score_0_split_0
I0417 22:34:07.267997  8984 net.cpp:408] cls_score_cls_score_0_split -> cls_score_cls_score_0_split_1
I0417 22:34:07.268029  8984 net.cpp:150] Setting up cls_score_cls_score_0_split
I0417 22:34:07.268038  8984 net.cpp:157] Top shape: 1 201 (201)
I0417 22:34:07.268043  8984 net.cpp:157] Top shape: 1 201 (201)
I0417 22:34:07.268045  8984 net.cpp:165] Memory required for data: 10172696760
I0417 22:34:07.268049  8984 layer_factory.hpp:77] Creating layer twin_pred
I0417 22:34:07.268055  8984 net.cpp:100] Creating Layer twin_pred
I0417 22:34:07.268061  8984 net.cpp:434] twin_pred <- fc6_drop6_0_split_1
I0417 22:34:07.268067  8984 net.cpp:408] twin_pred -> twin_pred
I0417 22:34:07.311014  8984 net.cpp:150] Setting up twin_pred
I0417 22:34:07.311043  8984 net.cpp:157] Top shape: 1 402 (402)
I0417 22:34:07.311048  8984 net.cpp:165] Memory required for data: 10172698368
I0417 22:34:07.311056  8984 layer_factory.hpp:77] Creating layer loss_cls
I0417 22:34:07.311069  8984 net.cpp:100] Creating Layer loss_cls
I0417 22:34:07.311074  8984 net.cpp:434] loss_cls <- cls_score_cls_score_0_split_0
I0417 22:34:07.311081  8984 net.cpp:434] loss_cls <- labels_roi-data_1_split_0
I0417 22:34:07.311089  8984 net.cpp:408] loss_cls -> loss_cls
…
