…
stepsize: 350000
snapshot: 0
snapshot_prefix: "./experiments/activitynet/snapshot/activitynet"
average_loss: 100
iter_size: 1
I0417 13:55:22.587105 23174 solver.cpp:81] Creating training net from train_net file: ./experiments/activitynet/train.prototxt
I0417 13:55:22.588220 23174 net.cpp:58] Initializing net from parameters: 
name: "activitynet"
state {
  phase: TRAIN
}
layer {
  name: "data"
  type: "Python"
  top: "data"
  top: "gt_boxes"
  python_param {
    module: "roi_data_layer.layer"
    layer: "RoIDataLayer"
    param_str: "\'num_classes\': 100"
  }
}
layer {
  name: "conv1a"
  type: "Convolution"
  bottom: "data"
  top: "conv1a"
  param {
    lr_mult: 0
    decay_mult: 0
  }
  param {
    lr_mult: 0
    decay_mult: 0
  }
  convolution_param {
    num_output: 64
    pad: 1
    pad: 1
    pad: 1
    kernel_size: 3
    kernel_size: 3
    kernel_size: 3
    weight_filler {
      type: "gaussian"
      std: 0.01
    }
    bias_filler {
      type: "constant"
      value: 0
    }
  }
}
layer {
  name: "relu1a"
  type: "ReLU"
  bottom: "conv1a"
  top: "conv1a"
}
layer {
  name: "pool1"
  type: "Pooling"
  bottom: "conv1a"
  top: "pool1"
  pooling_param {
    pool: MAX
    kernel_size: 1
    kernel_size: 2
    kernel_size: 2
    stride: 1
    stride: 2
    stride: 2
  }
}
layer {
  name: "conv2a"
  type: "Convolution"
  bottom: "pool1"
  top: "conv2a"
  param {
    lr_mult: 0
    decay_mult: 0
  }
  param {
    lr_mult: 0
    decay_mult: 0
  }
  convolution_param {
    num_output: 128
    pad: 1
    pad: 1
    pad: 1
    kernel_size: 3
    kernel_size: 3
    kernel_size: 3
    weight_filler {
      type: "gaussian"
      std: 0.01
    }
    bias_filler {
      type: "constant"
      value: 1
    }
  }
}
layer {
  name: "relu2a"
  type: "ReLU"
  bottom: "conv2a"
  top: "conv2a"
}
layer {
  name: "pool2"
  type: "Pooling"
  bottom: "conv2a"
  top: "pool2"
  pooling_param {
    pool: MAX
    kernel_size: 2
    kernel_size: 2
    kernel_size: 2
    stride: 2
    stride: 2
    stride: 2
  }
}
layer {
  name: "conv3a"
  type: "Convolution"
  bottom: "pool2"
  top: "conv3a"
  param {
    lr_mult: 1
    decay_mult: 1
  }
  param {
    lr_mult: 2
    decay_mult: 0
  }
  convolution_param {
    num_output: 256
    pad: 1
    pad: 1
    pad: 1
    kernel_size: 3
    kernel_size: 3
    kernel_size: 3
    weight_filler {
      type: "gaussian"
      std: 0.01
    }
    bias_filler {
      type: "constant"
      value: 1
    }
  }
}
layer {
  name: "relu3a"
  type: "ReLU"
  bottom: "conv3a"
  top: "conv3a"
}
layer {
  name: "conv3b"
  type: "Convolution"
  bottom: "conv3a"
  top: "conv3b"
  param {
    lr_mult: 1
    decay_mult: 1
  }
  param {
    lr_mult: 2
    decay_mult: 0
  }
  convolution_param {
    num_output: 256
    pad: 1
    pad: 1
    pad: 1
    kernel_size: 3
    kernel_size: 3
    kernel_size: 3
    weight_filler {
      type: "gaussian"
      std: 0.01
    }
    bias_filler {
      type: "constant"
      value: 1
    }
  }
}
layer {
  name: "relu3b"
  type: "ReLU"
  bottom: "conv3b"
  top: "conv3b"
}
layer {
  name: "pool3"
  type: "Pooling"
  bottom: "conv3b"
  top: "pool3"
  pooling_param {
    pool: MAX
    kernel_size: 2
    kernel_size: 2
    kernel_size: 2
    stride: 2
    stride: 2
    stride: 2
  }
}
layer {
  name: "conv4a"
  type: "Convolution"
  bottom: "pool3"
  top: "conv4a"
  param {
    lr_mult: 1
    decay_mult: 1
  }
  param {
    lr_mult: 2
    decay_mult: 0
  }
  convolution_param {
    num_output: 512
    pad: 1
    pad: 1
    pad: 1
    kernel_size: 3
    kernel_size: 3
    kernel_size: 3
    weight_filler {
      type: "gaussian"
      std: 0.01
    }
    bias_filler {
      type: "constant"
      value: 1
    }
  }
}
layer {
  name: "relu4a"
  type: "ReLU"
  bottom: "conv4a"
  top: "conv4a"
}
layer {
  name: "conv4b"
  type: "Convolution"
  bottom: "conv4a"
  top: "conv4b"
  param {
    lr_mult: 1
    decay_mult: 1
  }
  param {
    lr_mult: 2
    decay_mult: 0
  }
  convolution_param {
    num_output: 512
    pad: 1
    pad: 1
    pad: 1
    kernel_size: 3
    kernel_size: 3
    kernel_size: 3
    weight_filler {
      type: "gaussian"
      std: 0.01
    }
    bias_filler {
      type: "constant"
      value: 1
    }
  }
}
layer {
  name: "relu4b"
  type: "ReLU"
  bottom: "conv4b"
  top: "conv4b"
}
layer {
  name: "pool4"
  type: "Pooling"
  bottom: "conv4b"
  top: "pool4"
  pooling_param {
    pool: MAX
    kernel_size: 2
    kernel_size: 2
    kernel_size: 2
    stride: 2
    stride: 2
    stride: 2
  }
}
layer {
  name: "conv5a"
  type: "Convolution"
  bottom: "pool4"
  top: "conv5a"
  param {
    lr_mult: 1
    decay_mult: 1
  }
  param {
    lr_mult: 2
    decay_mult: 0
  }
  convolution_param {
    num_output: 512
    pad: 1
    pad: 1
    pad: 1
    kernel_size: 3
    kernel_size: 3
    kernel_size: 3
    weight_filler {
      type: "gaussian"
      std: 0.01
    }
    bias_filler {
      type: "constant"
      value: 1
    }
  }
}
layer {
  name: "relu5a"
  type: "ReLU"
  bottom: "conv5a"
  top: "conv5a"
}
layer {
  name: "conv5b"
  type: "Convolution"
  bottom: "conv5a"
  top: "conv5b"
  param {
    lr_mult: 1
    decay_mult: 1
  }
  param {
    lr_mult: 2
    decay_mult: 0
  }
  convolution_param {
    num_output: 512
    pad: 1
    pad: 1
    pad: 1
    kernel_size: 3
    kernel_size: 3
    kernel_size: 3
    weight_filler {
      type: "gaussian"
      std: 0.01
    }
    bias_filler {
      type: "constant"
      value: 1
    }
  }
}
layer {
  name: "relu5b"
  type: "ReLU"
  bottom: "conv5b"
  top: "conv5b"
}
layer {
  name: "rpn_conv/3x3"
  type: "Convolution"
  bottom: "conv5b"
  top: "rpn/output"
  param {
    lr_mult: 1
    decay_mult: 1
  }
  param {
    lr_mult: 2
    decay_mult: 0
  }
  convolution_param {
    num_output: 512
    pad: 1
    pad: 1
    pad: 1
    kernel_size: 3
    kernel_size: 3
    kernel_size: 3
    stride: 1
    stride: 2
    stride: 2
    weight_filler {
      type: "gaussian"
      std: 0.01
    }
    bias_filler {
      type: "constant"
      value: 0
    }
  }
}
layer {
  name: "rpn_relu/3x3"
  type: "ReLU"
  bottom: "rpn/output"
  top: "rpn/output"
}
layer {
  name: "rpn_conv/3x3_2"
  type: "Convolution"
  bottom: "rpn/output"
  top: "rpn/output_2"
  param {
    lr_mult: 1
    decay_mult: 1
  }
  param {
    lr_mult: 2
    decay_mult: 0
  }
  convolution_param {
    num_output: 512
    pad: 1
    pad: 1
    pad: 1
    kernel_size: 3
    kernel_size: 3
    kernel_size: 3
    stride: 1
    stride: 2
    stride: 2
    weight_filler {
      type: "gaussian"
      std: 0.01
    }
    bias_filler {
      type: "constant"
      value: 0
    }
  }
}
layer {
  name: "rpn_relu/3x3_2"
  type: "ReLU"
  bottom: "rpn/output_2"
  top: "rpn/output_2"
}
layer {
  name: "rpn/output_pool"
  type: "Pooling"
  bottom: "rpn/output_2"
  top: "rpn/output_pool"
  pooling_param {
    pool: MAX
    kernel_size: 1
    kernel_size: 2
    kernel_size: 2
  }
}
layer {
  name: "rpn_cls_score"
  type: "Convolution"
  bottom: "rpn/output_pool"
  top: "rpn_cls_score"
  param {
    lr_mult: 1
    decay_mult: 1
  }
  param {
    lr_mult: 2
    decay_mult: 0
  }
  convolution_param {
    num_output: 74
    kernel_size: 1
    kernel_size: 1
    kernel_size: 1
    weight_filler {
      type: "gaussian"
      std: 0.01
    }
    bias_filler {
      type: "constant"
      value: 0
    }
  }
}
layer {
  name: "rpn_twin_pred"
  type: "Convolution"
  bottom: "rpn/output_pool"
  top: "rpn_twin_pred"
  param {
    lr_mult: 1
    decay_mult: 1
  }
  param {
    lr_mult: 2
    decay_mult: 0
  }
  convolution_param {
    num_output: 74
    kernel_size: 1
    kernel_size: 1
    kernel_size: 1
    weight_filler {
      type: "gaussian"
      std: 0.01
    }
    bias_filler {
      type: "constant"
      value: 0
    }
  }
}
layer {
  name: "rpn_cls_score_reshape"
  type: "Reshape"
  bottom: "rpn_cls_score"
  top: "rpn_cls_score_reshape"
  reshape_param {
    shape {
      dim: 0
      dim: 2
      dim: -1
      dim: 0
      dim: 0
    }
  }
}
layer {
  name: "rpn-data"
  type: "Python"
  bottom: "rpn_cls_score"
  bottom: "gt_boxes"
  bottom: "data"
  top: "rpn_labels"
  top: "rpn_twin_targets"
  top: "rpn_twin_inside_weights"
  top: "rpn_twin_outside_weights"
  python_param {
    module: "rpn.anchor_target_layer"
    layer: "AnchorTargetLayer"
    param_str: "\'feat_stride\': 8 \n\'scales\': !!python/tuple [1,1.25, 1.5,1.75, 2,2.5, 3,3.5, 4,4.5, 5,5.5, 6,7, 8,9,10,11,12,14,16,18,20,22,24,28,32,36,40,44,52,60,68,76,84,92,100]"
  }
}
layer {
  name: "rpn_loss_cls"
  type: "SoftmaxWithLoss"
  bottom: "rpn_cls_score_reshape"
  bottom: "rpn_labels"
  top: "rpn_cls_loss"
  loss_weight: 1
  propagate_down: true
  propagate_down: false
  loss_param {
    ignore_label: -1
    normalize: true
  }
}
layer {
  name: "rpn_loss_twin"
  type: "SmoothL1Loss"
  bottom: "rpn_twin_pred"
  bottom: "rpn_twin_targets"
  bottom: "rpn_twin_inside_weights"
  bottom: "rpn_twin_outside_weights"
  top: "rpn_loss_twin"
  loss_weight: 1
  smooth_l1_loss_param {
    sigma: 3
  }
}
layer {
  name: "rpn_accuarcy"
  type: "Accuracy"
  bottom: "rpn_cls_score_reshape"
  bottom: "rpn_labels"
  top: "rpn_accuarcy"
  top: "rpn_accuarcy_class"
  propagate_down: false
  propagate_down: false
  accuracy_param {
    ignore_label: -1
  }
}
layer {
  name: "rpn_cls_prob"
  type: "Softmax"
  bottom: "rpn_cls_score_reshape"
  top: "rpn_cls_prob"
}
layer {
  name: "rpn_cls_prob_reshape"
  type: "Reshape"
  bottom: "rpn_cls_prob"
  top: "rpn_cls_prob_reshape"
  reshape_param {
    shape {
      dim: 0
      dim: 74
      dim: -1
      dim: 0
      dim: 0
    }
  }
}
layer {
  name: "proposal"
  type: "Python"
  bottom: "rpn_cls_prob_reshape"
  bottom: "rpn_twin_pred"
  top: "rpn_rois"
  include {
    phase: TRAIN
  }
  python_param {
    module: "rpn.proposal_layer"
    layer: "ProposalLayer"
    param_str: "\'feat_stride\': 8 \n\'scales\': !!python/tuple [1,1.25, 1.5,1.75, 2,2.5, 3,3.5, 4,4.5, 5,5.5, 6,7, 8,9,10,11,12,14,16,18,20,22,24,28,32,36,40,44,52,60,68,76,84,92,100]"
  }
}
layer {
  name: "roi-data"
  type: "Python"
  bottom: "rpn_rois"
  bottom: "gt_boxes"
  top: "rois"
  top: "labels"
  top: "twin_targets"
  top: "twin_inside_weights"
  top: "twin_outside_weights"
  python_param {
    module: "rpn.proposal_target_layer"
    layer: "ProposalTargetLayer"
    param_str: "\'num_classes\': 201"
  }
}
layer {
  name: "roi_pool5"
  type: "ROIPooling"
  bottom: "conv5b"
  bottom: "rois"
  top: "pool5"
  roi_pooling_param {
    pooled_h: 4
    pooled_w: 4
    spatial_scale: 0.0625
    pooled_l: 1
    temporal_scale: 0.125
  }
}
layer {
  name: "fc6"
  type: "InnerProduct"
  bottom: "pool5"
  top: "fc6"
  param {
    lr_mult: 1
    decay_mult: 1
  }
  param {
    lr_mult: 2
    decay_mult: 0
  }
  inner_product_param {
    num_output: 4096
    weight_filler {
      type: "gaussian"
      std: 0.005
    }
    bias_filler {
      type: "constant"
      value: 1
    }
  }
}
layer {
  name: "relu6"
  type: "ReLU"
  bottom: "fc6"
  top: "fc6"
}
layer {
  name: "drop6"
  type: "Dropout"
  bottom: "fc6"
  top: "fc6"
  dropout_param {
    dropout_ratio: 0.5
  }
}
layer {
  name: "cls_score"
  type: "InnerProduct"
  bottom: "fc6"
  top: "cls_score"
  param {
    lr_mult: 1
    decay_mult: 1
  }
  param {
    lr_mult: 2
    decay_mult: 0
  }
  inner_product_param {
    num_output: 201
    weight_filler {
      type: "gaussian"
      std: 0.01
    }
    bias_filler {
      type: "constant"
      value: 0
    }
  }
}
layer {
  name: "twin_pred"
  type: "InnerProduct"
  bottom: "fc6"
  top: "twin_pred"
  param {
    lr_mult: 1
    decay_mult: 1
  }
  param {
    lr_mult: 2
    decay_mult: 0
  }
  inner_product_param {
    num_output: 402
    weight_filler {
      type: "gaussian"
      std: 0.001
    }
    bias_filler {
      type: "constant"
      value: 0
    }
  }
}
layer {
  name: "loss_cls"
  type: "SoftmaxWithLoss"
  bottom: "cls_score"
  bottom: "labels"
  top: "loss_cls"
  loss_weight: 1
  propagate_down: true
  propagate_down: false
}
layer {
  name: "loss_twin"
  type: "SmoothL1Loss"
  bottom: "twin_pred"
  bottom: "twin_targets"
  bottom: "twin_inside_weights"
  bottom: "twin_outside_weights"
  top: "loss_twin"
  loss_weight: 1
}
layer {
  name: "accuarcy"
  type: "Accuracy"
  bottom: "cls_score"
  bottom: "labels"
  top: "accuarcy"
  propagate_down: false
  propagate_down: false
  accuracy_param {
    ignore_label: -1
  }
}
I0417 13:55:22.588438 23174 layer_factory.hpp:77] Creating layer data
I0417 13:55:22.636193 23174 net.cpp:100] Creating Layer data
I0417 13:55:22.636217 23174 net.cpp:408] data -> data
I0417 13:55:22.636234 23174 net.cpp:408] data -> gt_boxes
setting up
has rpn
RoiDataLayer: name_to_top: {'gt_windows': 1, 'data': 0}
I0417 13:55:22.650933 23174 net.cpp:150] Setting up data
I0417 13:55:22.650957 23174 net.cpp:157] Top shape: 1 3 768 112 112 (28901376)
I0417 13:55:22.650962 23174 net.cpp:157] Top shape: 1 101 (101)
I0417 13:55:22.650966 23174 net.cpp:165] Memory required for data: 115605908
I0417 13:55:22.650972 23174 layer_factory.hpp:77] Creating layer data_data_0_split
I0417 13:55:22.650985 23174 net.cpp:100] Creating Layer data_data_0_split
I0417 13:55:22.650990 23174 net.cpp:434] data_data_0_split <- data
I0417 13:55:22.650996 23174 net.cpp:408] data_data_0_split -> data_data_0_split_0
I0417 13:55:22.651005 23174 net.cpp:408] data_data_0_split -> data_data_0_split_1
I0417 13:55:22.651055 23174 net.cpp:150] Setting up data_data_0_split
I0417 13:55:22.651067 23174 net.cpp:157] Top shape: 1 3 768 112 112 (28901376)
I0417 13:55:22.651070 23174 net.cpp:157] Top shape: 1 3 768 112 112 (28901376)
I0417 13:55:22.651073 23174 net.cpp:165] Memory required for data: 346816916
I0417 13:55:22.651077 23174 layer_factory.hpp:77] Creating layer gt_boxes_data_1_split
I0417 13:55:22.651084 23174 net.cpp:100] Creating Layer gt_boxes_data_1_split
I0417 13:55:22.651088 23174 net.cpp:434] gt_boxes_data_1_split <- gt_boxes
I0417 13:55:22.651093 23174 net.cpp:408] gt_boxes_data_1_split -> gt_boxes_data_1_split_0
I0417 13:55:22.651098 23174 net.cpp:408] gt_boxes_data_1_split -> gt_boxes_data_1_split_1
I0417 13:55:22.651139 23174 net.cpp:150] Setting up gt_boxes_data_1_split
I0417 13:55:22.651146 23174 net.cpp:157] Top shape: 1 101 (101)
I0417 13:55:22.651150 23174 net.cpp:157] Top shape: 1 101 (101)
I0417 13:55:22.651154 23174 net.cpp:165] Memory required for data: 346817724
I0417 13:55:22.651156 23174 layer_factory.hpp:77] Creating layer conv1a
I0417 13:55:22.651175 23174 net.cpp:100] Creating Layer conv1a
I0417 13:55:22.651180 23174 net.cpp:434] conv1a <- data_data_0_split_0
I0417 13:55:22.651185 23174 net.cpp:408] conv1a -> conv1a
I0417 13:55:22.879866 23174 net.cpp:150] Setting up conv1a
I0417 13:55:22.879902 23174 net.cpp:157] Top shape: 1 64 768 112 112 (616562688)
I0417 13:55:22.879909 23174 net.cpp:165] Memory required for data: 2813068476
I0417 13:55:22.879935 23174 layer_factory.hpp:77] Creating layer relu1a
I0417 13:55:22.879963 23174 net.cpp:100] Creating Layer relu1a
I0417 13:55:22.879971 23174 net.cpp:434] relu1a <- conv1a
I0417 13:55:22.879977 23174 net.cpp:395] relu1a -> conv1a (in-place)
I0417 13:55:22.880676 23174 net.cpp:150] Setting up relu1a
I0417 13:55:22.880689 23174 net.cpp:157] Top shape: 1 64 768 112 112 (616562688)
I0417 13:55:22.880694 23174 net.cpp:165] Memory required for data: 5279319228
I0417 13:55:22.880698 23174 layer_factory.hpp:77] Creating layer pool1
I0417 13:55:22.880708 23174 net.cpp:100] Creating Layer pool1
I0417 13:55:22.880712 23174 net.cpp:434] pool1 <- conv1a
I0417 13:55:22.880718 23174 net.cpp:408] pool1 -> pool1
I0417 13:55:22.880941 23174 net.cpp:150] Setting up pool1
I0417 13:55:22.880955 23174 net.cpp:157] Top shape: 1 64 768 56 56 (154140672)
I0417 13:55:22.880959 23174 net.cpp:165] Memory required for data: 5895881916
I0417 13:55:22.880964 23174 layer_factory.hpp:77] Creating layer conv2a
I0417 13:55:22.880975 23174 net.cpp:100] Creating Layer conv2a
I0417 13:55:22.880980 23174 net.cpp:434] conv2a <- pool1
I0417 13:55:22.880985 23174 net.cpp:408] conv2a -> conv2a
I0417 13:55:22.893548 23174 net.cpp:150] Setting up conv2a
I0417 13:55:22.893573 23174 net.cpp:157] Top shape: 1 128 768 56 56 (308281344)
I0417 13:55:22.893576 23174 net.cpp:165] Memory required for data: 7129007292
I0417 13:55:22.893589 23174 layer_factory.hpp:77] Creating layer relu2a
I0417 13:55:22.893597 23174 net.cpp:100] Creating Layer relu2a
I0417 13:55:22.893601 23174 net.cpp:434] relu2a <- conv2a
I0417 13:55:22.893607 23174 net.cpp:395] relu2a -> conv2a (in-place)
I0417 13:55:22.894141 23174 net.cpp:150] Setting up relu2a
I0417 13:55:22.894155 23174 net.cpp:157] Top shape: 1 128 768 56 56 (308281344)
I0417 13:55:22.894160 23174 net.cpp:165] Memory required for data: 8362132668
I0417 13:55:22.894163 23174 layer_factory.hpp:77] Creating layer pool2
I0417 13:55:22.894174 23174 net.cpp:100] Creating Layer pool2
I0417 13:55:22.894178 23174 net.cpp:434] pool2 <- conv2a
I0417 13:55:22.894184 23174 net.cpp:408] pool2 -> pool2
I0417 13:55:22.894404 23174 net.cpp:150] Setting up pool2
I0417 13:55:22.894415 23174 net.cpp:157] Top shape: 1 128 384 28 28 (38535168)
I0417 13:55:22.894419 23174 net.cpp:165] Memory required for data: 8516273340
I0417 13:55:22.894423 23174 layer_factory.hpp:77] Creating layer conv3a
I0417 13:55:22.894436 23174 net.cpp:100] Creating Layer conv3a
I0417 13:55:22.894440 23174 net.cpp:434] conv3a <- pool2
I0417 13:55:22.894446 23174 net.cpp:408] conv3a -> conv3a
I0417 13:55:22.921016 23174 net.cpp:150] Setting up conv3a
I0417 13:55:22.921031 23174 net.cpp:157] Top shape: 1 256 384 28 28 (77070336)
I0417 13:55:22.921036 23174 net.cpp:165] Memory required for data: 8824554684
I0417 13:55:22.921046 23174 layer_factory.hpp:77] Creating layer relu3a
I0417 13:55:22.921053 23174 net.cpp:100] Creating Layer relu3a
I0417 13:55:22.921057 23174 net.cpp:434] relu3a <- conv3a
I0417 13:55:22.921062 23174 net.cpp:395] relu3a -> conv3a (in-place)
I0417 13:55:22.921566 23174 net.cpp:150] Setting up relu3a
I0417 13:55:22.921578 23174 net.cpp:157] Top shape: 1 256 384 28 28 (77070336)
I0417 13:55:22.921581 23174 net.cpp:165] Memory required for data: 9132836028
I0417 13:55:22.921586 23174 layer_factory.hpp:77] Creating layer conv3b
I0417 13:55:22.921598 23174 net.cpp:100] Creating Layer conv3b
I0417 13:55:22.921602 23174 net.cpp:434] conv3b <- conv3a
I0417 13:55:22.921608 23174 net.cpp:408] conv3b -> conv3b
I0417 13:55:22.971937 23174 net.cpp:150] Setting up conv3b
I0417 13:55:22.971961 23174 net.cpp:157] Top shape: 1 256 384 28 28 (77070336)
I0417 13:55:22.971964 23174 net.cpp:165] Memory required for data: 9441117372
I0417 13:55:22.971974 23174 layer_factory.hpp:77] Creating layer relu3b
I0417 13:55:22.971987 23174 net.cpp:100] Creating Layer relu3b
I0417 13:55:22.971990 23174 net.cpp:434] relu3b <- conv3b
I0417 13:55:22.971997 23174 net.cpp:395] relu3b -> conv3b (in-place)
I0417 13:55:22.972501 23174 net.cpp:150] Setting up relu3b
I0417 13:55:22.972513 23174 net.cpp:157] Top shape: 1 256 384 28 28 (77070336)
I0417 13:55:22.972517 23174 net.cpp:165] Memory required for data: 9749398716
I0417 13:55:22.972522 23174 layer_factory.hpp:77] Creating layer pool3
I0417 13:55:22.972528 23174 net.cpp:100] Creating Layer pool3
I0417 13:55:22.972532 23174 net.cpp:434] pool3 <- conv3b
I0417 13:55:22.972539 23174 net.cpp:408] pool3 -> pool3
I0417 13:55:22.972738 23174 net.cpp:150] Setting up pool3
I0417 13:55:22.972748 23174 net.cpp:157] Top shape: 1 256 192 14 14 (9633792)
I0417 13:55:22.972753 23174 net.cpp:165] Memory required for data: 9787933884
I0417 13:55:22.972755 23174 layer_factory.hpp:77] Creating layer conv4a
I0417 13:55:22.972767 23174 net.cpp:100] Creating Layer conv4a
I0417 13:55:22.972771 23174 net.cpp:434] conv4a <- pool3
I0417 13:55:22.972779 23174 net.cpp:408] conv4a -> conv4a
I0417 13:55:23.075354 23174 net.cpp:150] Setting up conv4a
I0417 13:55:23.075381 23174 net.cpp:157] Top shape: 1 512 192 14 14 (19267584)
I0417 13:55:23.075386 23174 net.cpp:165] Memory required for data: 9865004220
I0417 13:55:23.075402 23174 layer_factory.hpp:77] Creating layer relu4a
I0417 13:55:23.075413 23174 net.cpp:100] Creating Layer relu4a
I0417 13:55:23.075419 23174 net.cpp:434] relu4a <- conv4a
I0417 13:55:23.075426 23174 net.cpp:395] relu4a -> conv4a (in-place)
I0417 13:55:23.076359 23174 net.cpp:150] Setting up relu4a
I0417 13:55:23.076375 23174 net.cpp:157] Top shape: 1 512 192 14 14 (19267584)
I0417 13:55:23.076380 23174 net.cpp:165] Memory required for data: 9942074556
I0417 13:55:23.076383 23174 layer_factory.hpp:77] Creating layer conv4b
I0417 13:55:23.076400 23174 net.cpp:100] Creating Layer conv4b
I0417 13:55:23.076403 23174 net.cpp:434] conv4b <- conv4a
I0417 13:55:23.076412 23174 net.cpp:408] conv4b -> conv4b
I0417 13:55:23.273128 23174 net.cpp:150] Setting up conv4b
I0417 13:55:23.273155 23174 net.cpp:157] Top shape: 1 512 192 14 14 (19267584)
I0417 13:55:23.273159 23174 net.cpp:165] Memory required for data: 10019144892
I0417 13:55:23.273169 23174 layer_factory.hpp:77] Creating layer relu4b
I0417 13:55:23.273180 23174 net.cpp:100] Creating Layer relu4b
I0417 13:55:23.273183 23174 net.cpp:434] relu4b <- conv4b
I0417 13:55:23.273190 23174 net.cpp:395] relu4b -> conv4b (in-place)
I0417 13:55:23.273360 23174 net.cpp:150] Setting up relu4b
I0417 13:55:23.273371 23174 net.cpp:157] Top shape: 1 512 192 14 14 (19267584)
I0417 13:55:23.273375 23174 net.cpp:165] Memory required for data: 10096215228
I0417 13:55:23.273380 23174 layer_factory.hpp:77] Creating layer pool4
I0417 13:55:23.273386 23174 net.cpp:100] Creating Layer pool4
I0417 13:55:23.273391 23174 net.cpp:434] pool4 <- conv4b
I0417 13:55:23.273398 23174 net.cpp:408] pool4 -> pool4
I0417 13:55:23.273965 23174 net.cpp:150] Setting up pool4
I0417 13:55:23.273979 23174 net.cpp:157] Top shape: 1 512 96 7 7 (2408448)
I0417 13:55:23.273983 23174 net.cpp:165] Memory required for data: 10105849020
I0417 13:55:23.273988 23174 layer_factory.hpp:77] Creating layer conv5a
I0417 13:55:23.273999 23174 net.cpp:100] Creating Layer conv5a
I0417 13:55:23.274003 23174 net.cpp:434] conv5a <- pool4
I0417 13:55:23.274011 23174 net.cpp:408] conv5a -> conv5a
I0417 13:55:23.469122 23174 net.cpp:150] Setting up conv5a
I0417 13:55:23.469147 23174 net.cpp:157] Top shape: 1 512 96 7 7 (2408448)
I0417 13:55:23.469152 23174 net.cpp:165] Memory required for data: 10115482812
I0417 13:55:23.469161 23174 layer_factory.hpp:77] Creating layer relu5a
I0417 13:55:23.469172 23174 net.cpp:100] Creating Layer relu5a
I0417 13:55:23.469175 23174 net.cpp:434] relu5a <- conv5a
I0417 13:55:23.469183 23174 net.cpp:395] relu5a -> conv5a (in-place)
I0417 13:55:23.470012 23174 net.cpp:150] Setting up relu5a
I0417 13:55:23.470036 23174 net.cpp:157] Top shape: 1 512 96 7 7 (2408448)
I0417 13:55:23.470041 23174 net.cpp:165] Memory required for data: 10125116604
I0417 13:55:23.470044 23174 layer_factory.hpp:77] Creating layer conv5b
I0417 13:55:23.470057 23174 net.cpp:100] Creating Layer conv5b
I0417 13:55:23.470060 23174 net.cpp:434] conv5b <- conv5a
I0417 13:55:23.470067 23174 net.cpp:408] conv5b -> conv5b
I0417 13:55:23.658180 23174 net.cpp:150] Setting up conv5b
I0417 13:55:23.658203 23174 net.cpp:157] Top shape: 1 512 96 7 7 (2408448)
I0417 13:55:23.658207 23174 net.cpp:165] Memory required for data: 10134750396
I0417 13:55:23.658216 23174 layer_factory.hpp:77] Creating layer relu5b
I0417 13:55:23.658226 23174 net.cpp:100] Creating Layer relu5b
I0417 13:55:23.658231 23174 net.cpp:434] relu5b <- conv5b
I0417 13:55:23.658236 23174 net.cpp:395] relu5b -> conv5b (in-place)
I0417 13:55:23.658391 23174 net.cpp:150] Setting up relu5b
I0417 13:55:23.658401 23174 net.cpp:157] Top shape: 1 512 96 7 7 (2408448)
I0417 13:55:23.658406 23174 net.cpp:165] Memory required for data: 10144384188
I0417 13:55:23.658408 23174 layer_factory.hpp:77] Creating layer conv5b_relu5b_0_split
I0417 13:55:23.658414 23174 net.cpp:100] Creating Layer conv5b_relu5b_0_split
I0417 13:55:23.658418 23174 net.cpp:434] conv5b_relu5b_0_split <- conv5b
I0417 13:55:23.658424 23174 net.cpp:408] conv5b_relu5b_0_split -> conv5b_relu5b_0_split_0
I0417 13:55:23.658432 23174 net.cpp:408] conv5b_relu5b_0_split -> conv5b_relu5b_0_split_1
I0417 13:55:23.658485 23174 net.cpp:150] Setting up conv5b_relu5b_0_split
I0417 13:55:23.658493 23174 net.cpp:157] Top shape: 1 512 96 7 7 (2408448)
I0417 13:55:23.658498 23174 net.cpp:157] Top shape: 1 512 96 7 7 (2408448)
I0417 13:55:23.658500 23174 net.cpp:165] Memory required for data: 10163651772
I0417 13:55:23.658504 23174 layer_factory.hpp:77] Creating layer rpn_conv/3x3
I0417 13:55:23.658514 23174 net.cpp:100] Creating Layer rpn_conv/3x3
I0417 13:55:23.658517 23174 net.cpp:434] rpn_conv/3x3 <- conv5b_relu5b_0_split_0
I0417 13:55:23.658525 23174 net.cpp:408] rpn_conv/3x3 -> rpn/output
I0417 13:55:23.848882 23174 net.cpp:150] Setting up rpn_conv/3x3
I0417 13:55:23.848904 23174 net.cpp:157] Top shape: 1 512 96 4 4 (786432)
I0417 13:55:23.848908 23174 net.cpp:165] Memory required for data: 10166797500
I0417 13:55:23.848922 23174 layer_factory.hpp:77] Creating layer rpn_relu/3x3
I0417 13:55:23.848932 23174 net.cpp:100] Creating Layer rpn_relu/3x3
I0417 13:55:23.848935 23174 net.cpp:434] rpn_relu/3x3 <- rpn/output
I0417 13:55:23.848942 23174 net.cpp:395] rpn_relu/3x3 -> rpn/output (in-place)
I0417 13:55:23.850394 23174 net.cpp:150] Setting up rpn_relu/3x3
I0417 13:55:23.850409 23174 net.cpp:157] Top shape: 1 512 96 4 4 (786432)
I0417 13:55:23.850411 23174 net.cpp:165] Memory required for data: 10169943228
I0417 13:55:23.850415 23174 layer_factory.hpp:77] Creating layer rpn_conv/3x3_2
I0417 13:55:23.850426 23174 net.cpp:100] Creating Layer rpn_conv/3x3_2
I0417 13:55:23.850430 23174 net.cpp:434] rpn_conv/3x3_2 <- rpn/output
I0417 13:55:23.850436 23174 net.cpp:408] rpn_conv/3x3_2 -> rpn/output_2
I0417 13:55:24.038944 23174 net.cpp:150] Setting up rpn_conv/3x3_2
I0417 13:55:24.038972 23174 net.cpp:157] Top shape: 1 512 96 2 2 (196608)
I0417 13:55:24.038976 23174 net.cpp:165] Memory required for data: 10170729660
I0417 13:55:24.038985 23174 layer_factory.hpp:77] Creating layer rpn_relu/3x3_2
I0417 13:55:24.038995 23174 net.cpp:100] Creating Layer rpn_relu/3x3_2
I0417 13:55:24.039000 23174 net.cpp:434] rpn_relu/3x3_2 <- rpn/output_2
I0417 13:55:24.039005 23174 net.cpp:395] rpn_relu/3x3_2 -> rpn/output_2 (in-place)
I0417 13:55:24.039496 23174 net.cpp:150] Setting up rpn_relu/3x3_2
I0417 13:55:24.039508 23174 net.cpp:157] Top shape: 1 512 96 2 2 (196608)
I0417 13:55:24.039512 23174 net.cpp:165] Memory required for data: 10171516092
I0417 13:55:24.039515 23174 layer_factory.hpp:77] Creating layer rpn/output_pool
I0417 13:55:24.039525 23174 net.cpp:100] Creating Layer rpn/output_pool
I0417 13:55:24.039528 23174 net.cpp:434] rpn/output_pool <- rpn/output_2
I0417 13:55:24.039535 23174 net.cpp:408] rpn/output_pool -> rpn/output_pool
I0417 13:55:24.039737 23174 net.cpp:150] Setting up rpn/output_pool
I0417 13:55:24.039748 23174 net.cpp:157] Top shape: 1 512 96 1 1 (49152)
I0417 13:55:24.039752 23174 net.cpp:165] Memory required for data: 10171712700
I0417 13:55:24.039755 23174 layer_factory.hpp:77] Creating layer rpn/output_pool_rpn/output_pool_0_split
I0417 13:55:24.039762 23174 net.cpp:100] Creating Layer rpn/output_pool_rpn/output_pool_0_split
I0417 13:55:24.039767 23174 net.cpp:434] rpn/output_pool_rpn/output_pool_0_split <- rpn/output_pool
I0417 13:55:24.039770 23174 net.cpp:408] rpn/output_pool_rpn/output_pool_0_split -> rpn/output_pool_rpn/output_pool_0_split_0
I0417 13:55:24.039777 23174 net.cpp:408] rpn/output_pool_rpn/output_pool_0_split -> rpn/output_pool_rpn/output_pool_0_split_1
I0417 13:55:24.039825 23174 net.cpp:150] Setting up rpn/output_pool_rpn/output_pool_0_split
I0417 13:55:24.039834 23174 net.cpp:157] Top shape: 1 512 96 1 1 (49152)
I0417 13:55:24.039837 23174 net.cpp:157] Top shape: 1 512 96 1 1 (49152)
I0417 13:55:24.039840 23174 net.cpp:165] Memory required for data: 10172105916
I0417 13:55:24.039844 23174 layer_factory.hpp:77] Creating layer rpn_cls_score
I0417 13:55:24.039855 23174 net.cpp:100] Creating Layer rpn_cls_score
I0417 13:55:24.039857 23174 net.cpp:434] rpn_cls_score <- rpn/output_pool_rpn/output_pool_0_split_0
I0417 13:55:24.039865 23174 net.cpp:408] rpn_cls_score -> rpn_cls_score
I0417 13:55:24.042486 23174 net.cpp:150] Setting up rpn_cls_score
I0417 13:55:24.042500 23174 net.cpp:157] Top shape: 1 74 96 1 1 (7104)
I0417 13:55:24.042503 23174 net.cpp:165] Memory required for data: 10172134332
I0417 13:55:24.042510 23174 layer_factory.hpp:77] Creating layer rpn_cls_score_rpn_cls_score_0_split
I0417 13:55:24.042516 23174 net.cpp:100] Creating Layer rpn_cls_score_rpn_cls_score_0_split
I0417 13:55:24.042524 23174 net.cpp:434] rpn_cls_score_rpn_cls_score_0_split <- rpn_cls_score
I0417 13:55:24.042529 23174 net.cpp:408] rpn_cls_score_rpn_cls_score_0_split -> rpn_cls_score_rpn_cls_score_0_split_0
I0417 13:55:24.042536 23174 net.cpp:408] rpn_cls_score_rpn_cls_score_0_split -> rpn_cls_score_rpn_cls_score_0_split_1
I0417 13:55:24.042598 23174 net.cpp:150] Setting up rpn_cls_score_rpn_cls_score_0_split
I0417 13:55:24.042605 23174 net.cpp:157] Top shape: 1 74 96 1 1 (7104)
I0417 13:55:24.042609 23174 net.cpp:157] Top shape: 1 74 96 1 1 (7104)
I0417 13:55:24.042613 23174 net.cpp:165] Memory required for data: 10172191164
I0417 13:55:24.042615 23174 layer_factory.hpp:77] Creating layer rpn_twin_pred
I0417 13:55:24.042628 23174 net.cpp:100] Creating Layer rpn_twin_pred
I0417 13:55:24.042632 23174 net.cpp:434] rpn_twin_pred <- rpn/output_pool_rpn/output_pool_0_split_1
I0417 13:55:24.042639 23174 net.cpp:408] rpn_twin_pred -> rpn_twin_pred
I0417 13:55:24.045120 23174 net.cpp:150] Setting up rpn_twin_pred
I0417 13:55:24.045145 23174 net.cpp:157] Top shape: 1 74 96 1 1 (7104)
I0417 13:55:24.045147 23174 net.cpp:165] Memory required for data: 10172219580
I0417 13:55:24.045155 23174 layer_factory.hpp:77] Creating layer rpn_twin_pred_rpn_twin_pred_0_split
I0417 13:55:24.045161 23174 net.cpp:100] Creating Layer rpn_twin_pred_rpn_twin_pred_0_split
I0417 13:55:24.045171 23174 net.cpp:434] rpn_twin_pred_rpn_twin_pred_0_split <- rpn_twin_pred
I0417 13:55:24.045179 23174 net.cpp:408] rpn_twin_pred_rpn_twin_pred_0_split -> rpn_twin_pred_rpn_twin_pred_0_split_0
I0417 13:55:24.045186 23174 net.cpp:408] rpn_twin_pred_rpn_twin_pred_0_split -> rpn_twin_pred_rpn_twin_pred_0_split_1
I0417 13:55:24.045239 23174 net.cpp:150] Setting up rpn_twin_pred_rpn_twin_pred_0_split
I0417 13:55:24.045248 23174 net.cpp:157] Top shape: 1 74 96 1 1 (7104)
I0417 13:55:24.045253 23174 net.cpp:157] Top shape: 1 74 96 1 1 (7104)
I0417 13:55:24.045255 23174 net.cpp:165] Memory required for data: 10172276412
I0417 13:55:24.045258 23174 layer_factory.hpp:77] Creating layer rpn_cls_score_reshape
I0417 13:55:24.045275 23174 net.cpp:100] Creating Layer rpn_cls_score_reshape
I0417 13:55:24.045279 23174 net.cpp:434] rpn_cls_score_reshape <- rpn_cls_score_rpn_cls_score_0_split_0
I0417 13:55:24.045284 23174 net.cpp:408] rpn_cls_score_reshape -> rpn_cls_score_reshape
I0417 13:55:24.045321 23174 net.cpp:150] Setting up rpn_cls_score_reshape
I0417 13:55:24.045330 23174 net.cpp:157] Top shape: 1 2 3552 1 1 (7104)
I0417 13:55:24.045332 23174 net.cpp:165] Memory required for data: 10172304828
I0417 13:55:24.045336 23174 layer_factory.hpp:77] Creating layer rpn_cls_score_reshape_rpn_cls_score_reshape_0_split
I0417 13:55:24.045341 23174 net.cpp:100] Creating Layer rpn_cls_score_reshape_rpn_cls_score_reshape_0_split
I0417 13:55:24.045346 23174 net.cpp:434] rpn_cls_score_reshape_rpn_cls_score_reshape_0_split <- rpn_cls_score_reshape
I0417 13:55:24.045351 23174 net.cpp:408] rpn_cls_score_reshape_rpn_cls_score_reshape_0_split -> rpn_cls_score_reshape_rpn_cls_score_reshape_0_split_0
I0417 13:55:24.045361 23174 net.cpp:408] rpn_cls_score_reshape_rpn_cls_score_reshape_0_split -> rpn_cls_score_reshape_rpn_cls_score_reshape_0_split_1
I0417 13:55:24.045368 23174 net.cpp:408] rpn_cls_score_reshape_rpn_cls_score_reshape_0_split -> rpn_cls_score_reshape_rpn_cls_score_reshape_0_split_2
I0417 13:55:24.045430 23174 net.cpp:150] Setting up rpn_cls_score_reshape_rpn_cls_score_reshape_0_split
I0417 13:55:24.045439 23174 net.cpp:157] Top shape: 1 2 3552 1 1 (7104)
I0417 13:55:24.045442 23174 net.cpp:157] Top shape: 1 2 3552 1 1 (7104)
I0417 13:55:24.045446 23174 net.cpp:157] Top shape: 1 2 3552 1 1 (7104)
I0417 13:55:24.045449 23174 net.cpp:165] Memory required for data: 10172390076
I0417 13:55:24.045452 23174 layer_factory.hpp:77] Creating layer rpn-data
I0417 13:55:24.045871 23174 net.cpp:100] Creating Layer rpn-data
I0417 13:55:24.045883 23174 net.cpp:434] rpn-data <- rpn_cls_score_rpn_cls_score_0_split_1
I0417 13:55:24.045888 23174 net.cpp:434] rpn-data <- gt_boxes_data_1_split_0
I0417 13:55:24.045893 23174 net.cpp:434] rpn-data <- data_data_0_split_1
I0417 13:55:24.045899 23174 net.cpp:408] rpn-data -> rpn_labels
I0417 13:55:24.045905 23174 net.cpp:408] rpn-data -> rpn_twin_targets
I0417 13:55:24.045912 23174 net.cpp:408] rpn-data -> rpn_twin_inside_weights
I0417 13:55:24.045917 23174 net.cpp:408] rpn-data -> rpn_twin_outside_weights
I0417 13:55:24.048236 23174 net.cpp:150] Setting up rpn-data
I0417 13:55:24.048250 23174 net.cpp:157] Top shape: 1 1 3552 1 1 (3552)
I0417 13:55:24.048255 23174 net.cpp:157] Top shape: 1 74 96 1 1 (7104)
I0417 13:55:24.048259 23174 net.cpp:157] Top shape: 1 74 96 1 1 (7104)
I0417 13:55:24.048262 23174 net.cpp:157] Top shape: 1 74 96 1 1 (7104)
I0417 13:55:24.048265 23174 net.cpp:165] Memory required for data: 10172489532
I0417 13:55:24.048269 23174 layer_factory.hpp:77] Creating layer rpn_labels_rpn-data_0_split
I0417 13:55:24.048274 23174 net.cpp:100] Creating Layer rpn_labels_rpn-data_0_split
I0417 13:55:24.048277 23174 net.cpp:434] rpn_labels_rpn-data_0_split <- rpn_labels
I0417 13:55:24.048282 23174 net.cpp:408] rpn_labels_rpn-data_0_split -> rpn_labels_rpn-data_0_split_0
I0417 13:55:24.048290 23174 net.cpp:408] rpn_labels_rpn-data_0_split -> rpn_labels_rpn-data_0_split_1
I0417 13:55:24.048344 23174 net.cpp:150] Setting up rpn_labels_rpn-data_0_split
I0417 13:55:24.048352 23174 net.cpp:157] Top shape: 1 1 3552 1 1 (3552)
I0417 13:55:24.048357 23174 net.cpp:157] Top shape: 1 1 3552 1 1 (3552)
I0417 13:55:24.048359 23174 net.cpp:165] Memory required for data: 10172517948
I0417 13:55:24.048362 23174 layer_factory.hpp:77] Creating layer rpn_loss_cls
I0417 13:55:24.048372 23174 net.cpp:100] Creating Layer rpn_loss_cls
I0417 13:55:24.048374 23174 net.cpp:434] rpn_loss_cls <- rpn_cls_score_reshape_rpn_cls_score_reshape_0_split_0
I0417 13:55:24.048379 23174 net.cpp:434] rpn_loss_cls <- rpn_labels_rpn-data_0_split_0
…
I0417 13:55:24.049280 23174 layer_factory.hpp:77] Creating layer rpn_accuarcy
I0417 13:55:24.049288 23174 net.cpp:100] Creating Layer rpn_accuarcy
I0417 13:55:24.049293 23174 net.cpp:434] rpn_accuarcy <- rpn_cls_score_reshape_rpn_cls_score_reshape_0_split_1
I0417 13:55:24.049296 23174 net.cpp:434] rpn_accuarcy <- rpn_labels_rpn-data_0_split_1
I0417 13:55:24.049301 23174 net.cpp:408] rpn_accuarcy -> rpn_accuarcy
I0417 13:55:24.049307 23174 net.cpp:408] rpn_accuarcy -> rpn_accuarcy_class
I0417 13:55:24.049369 23174 net.cpp:150] Setting up rpn_accuarcy
I0417 13:55:24.049378 23174 net.cpp:157] Top shape: (1)
I0417 13:55:24.049382 23174 net.cpp:157] Top shape: 2 (2)
I0417 13:55:24.049386 23174 net.cpp:165] Memory required for data: 10172517968
I0417 13:55:24.049388 23174 layer_factory.hpp:77] Creating layer rpn_cls_prob
I0417 13:55:24.049393 23174 net.cpp:100] Creating Layer rpn_cls_prob
I0417 13:55:24.049396 23174 net.cpp:434] rpn_cls_prob <- rpn_cls_score_reshape_rpn_cls_score_reshape_0_split_2
I0417 13:55:24.049401 23174 net.cpp:408] rpn_cls_prob -> rpn_cls_prob
I0417 13:55:24.049636 23174 net.cpp:150] Setting up rpn_cls_prob
I0417 13:55:24.049648 23174 net.cpp:157] Top shape: 1 2 3552 1 1 (7104)
I0417 13:55:24.049650 23174 net.cpp:165] Memory required for data: 10172546384
I0417 13:55:24.049654 23174 layer_factory.hpp:77] Creating layer rpn_cls_prob_reshape
I0417 13:55:24.049660 23174 net.cpp:100] Creating Layer rpn_cls_prob_reshape
I0417 13:55:24.049664 23174 net.cpp:434] rpn_cls_prob_reshape <- rpn_cls_prob
I0417 13:55:24.049670 23174 net.cpp:408] rpn_cls_prob_reshape -> rpn_cls_prob_reshape
I0417 13:55:24.049705 23174 net.cpp:150] Setting up rpn_cls_prob_reshape
I0417 13:55:24.049713 23174 net.cpp:157] Top shape: 1 74 96 1 1 (7104)
I0417 13:55:24.049716 23174 net.cpp:165] Memory required for data: 10172574800
I0417 13:55:24.049721 23174 layer_factory.hpp:77] Creating layer proposal
I0417 13:55:24.092564 23174 net.cpp:100] Creating Layer proposal
I0417 13:55:24.092602 23174 net.cpp:434] proposal <- rpn_cls_prob_reshape
I0417 13:55:24.092617 23174 net.cpp:434] proposal <- rpn_twin_pred_rpn_twin_pred_0_split_1
I0417 13:55:24.092633 23174 net.cpp:408] proposal -> rpn_rois
I0417 13:55:24.098649 23174 net.cpp:150] Setting up proposal
I0417 13:55:24.098685 23174 net.cpp:157] Top shape: 1 3 (3)
I0417 13:55:24.098695 23174 net.cpp:165] Memory required for data: 10172574812
I0417 13:55:24.098706 23174 layer_factory.hpp:77] Creating layer roi-data
I0417 13:55:24.099071 23174 net.cpp:100] Creating Layer roi-data
I0417 13:55:24.099097 23174 net.cpp:434] roi-data <- rpn_rois
I0417 13:55:24.099109 23174 net.cpp:434] roi-data <- gt_boxes_data_1_split_1
I0417 13:55:24.099123 23174 net.cpp:408] roi-data -> rois
I0417 13:55:24.099141 23174 net.cpp:408] roi-data -> labels
I0417 13:55:24.099155 23174 net.cpp:408] roi-data -> twin_targets
I0417 13:55:24.099175 23174 net.cpp:408] roi-data -> twin_inside_weights
I0417 13:55:24.099189 23174 net.cpp:408] roi-data -> twin_outside_weights
I0417 13:55:24.100095 23174 net.cpp:150] Setting up roi-data
I0417 13:55:24.100124 23174 net.cpp:157] Top shape: 1 3 (3)
I0417 13:55:24.100136 23174 net.cpp:157] Top shape: 1 1 (1)
I0417 13:55:24.100145 23174 net.cpp:157] Top shape: 1 402 (402)
I0417 13:55:24.100154 23174 net.cpp:157] Top shape: 1 402 (402)
I0417 13:55:24.100162 23174 net.cpp:157] Top shape: 1 402 (402)
I0417 13:55:24.100169 23174 net.cpp:165] Memory required for data: 10172579652
I0417 13:55:24.100178 23174 layer_factory.hpp:77] Creating layer labels_roi-data_1_split
I0417 13:55:24.100196 23174 net.cpp:100] Creating Layer labels_roi-data_1_split
I0417 13:55:24.100206 23174 net.cpp:434] labels_roi-data_1_split <- labels
I0417 13:55:24.100219 23174 net.cpp:408] labels_roi-data_1_split -> labels_roi-data_1_split_0
I0417 13:55:24.100235 23174 net.cpp:408] labels_roi-data_1_split -> labels_roi-data_1_split_1
I0417 13:55:24.100360 23174 net.cpp:150] Setting up labels_roi-data_1_split
I0417 13:55:24.100378 23174 net.cpp:157] Top shape: 1 1 (1)
I0417 13:55:24.100388 23174 net.cpp:157] Top shape: 1 1 (1)
I0417 13:55:24.100395 23174 net.cpp:165] Memory required for data: 10172579660
I0417 13:55:24.100404 23174 layer_factory.hpp:77] Creating layer roi_pool5
I0417 13:55:24.100431 23174 net.cpp:100] Creating Layer roi_pool5
I0417 13:55:24.100447 23174 net.cpp:434] roi_pool5 <- conv5b_relu5b_0_split_1
I0417 13:55:24.100458 23174 net.cpp:434] roi_pool5 <- rois
I0417 13:55:24.100471 23174 net.cpp:408] roi_pool5 -> pool5
I0417 13:55:24.100486 23174 roi_pooling_layer.cpp:34] Temporal scale: 0.125
I0417 13:55:24.100502 23174 roi_pooling_layer.cpp:35] Spatial scale: 0.0625
I0417 13:55:24.100630 23174 net.cpp:150] Setting up roi_pool5
I0417 13:55:24.100647 23174 net.cpp:157] Top shape: 1 512 1 4 4 (8192)
I0417 13:55:24.100656 23174 net.cpp:165] Memory required for data: 10172612428
I0417 13:55:24.100664 23174 layer_factory.hpp:77] Creating layer fc6
I0417 13:55:24.100684 23174 net.cpp:100] Creating Layer fc6
I0417 13:55:24.100693 23174 net.cpp:434] fc6 <- pool5
I0417 13:55:24.100706 23174 net.cpp:408] fc6 -> fc6
I0417 13:55:24.990283 23174 net.cpp:150] Setting up fc6
I0417 13:55:24.990309 23174 net.cpp:157] Top shape: 1 4096 (4096)
I0417 13:55:24.990312 23174 net.cpp:165] Memory required for data: 10172628812
I0417 13:55:24.990321 23174 layer_factory.hpp:77] Creating layer relu6
I0417 13:55:24.990331 23174 net.cpp:100] Creating Layer relu6
I0417 13:55:24.990335 23174 net.cpp:434] relu6 <- fc6
I0417 13:55:24.990344 23174 net.cpp:395] relu6 -> fc6 (in-place)
I0417 13:55:24.990965 23174 net.cpp:150] Setting up relu6
I0417 13:55:24.990978 23174 net.cpp:157] Top shape: 1 4096 (4096)
I0417 13:55:24.990981 23174 net.cpp:165] Memory required for data: 10172645196
I0417 13:55:24.990985 23174 layer_factory.hpp:77] Creating layer drop6
I0417 13:55:24.990996 23174 net.cpp:100] Creating Layer drop6
I0417 13:55:24.991000 23174 net.cpp:434] drop6 <- fc6
I0417 13:55:24.991006 23174 net.cpp:395] drop6 -> fc6 (in-place)
I0417 13:55:24.991045 23174 net.cpp:150] Setting up drop6
I0417 13:55:24.991053 23174 net.cpp:157] Top shape: 1 4096 (4096)
I0417 13:55:24.991056 23174 net.cpp:165] Memory required for data: 10172661580
I0417 13:55:24.991060 23174 layer_factory.hpp:77] Creating layer fc6_drop6_0_split
I0417 13:55:24.991067 23174 net.cpp:100] Creating Layer fc6_drop6_0_split
I0417 13:55:24.991070 23174 net.cpp:434] fc6_drop6_0_split <- fc6
I0417 13:55:24.991075 23174 net.cpp:408] fc6_drop6_0_split -> fc6_drop6_0_split_0
I0417 13:55:24.991080 23174 net.cpp:408] fc6_drop6_0_split -> fc6_drop6_0_split_1
I0417 13:55:24.991129 23174 net.cpp:150] Setting up fc6_drop6_0_split
I0417 13:55:24.991137 23174 net.cpp:157] Top shape: 1 4096 (4096)
I0417 13:55:24.991142 23174 net.cpp:157] Top shape: 1 4096 (4096)
I0417 13:55:24.991144 23174 net.cpp:165] Memory required for data: 10172694348
I0417 13:55:24.991148 23174 layer_factory.hpp:77] Creating layer cls_score
I0417 13:55:24.991155 23174 net.cpp:100] Creating Layer cls_score
I0417 13:55:24.991159 23174 net.cpp:434] cls_score <- fc6_drop6_0_split_0
I0417 13:55:24.991164 23174 net.cpp:408] cls_score -> cls_score
I0417 13:55:25.012974 23174 net.cpp:150] Setting up cls_score
I0417 13:55:25.012993 23174 net.cpp:157] Top shape: 1 201 (201)
I0417 13:55:25.012997 23174 net.cpp:165] Memory required for data: 10172695152
I0417 13:55:25.013006 23174 layer_factory.hpp:77] Creating layer cls_score_cls_score_0_split
I0417 13:55:25.013013 23174 net.cpp:100] Creating Layer cls_score_cls_score_0_split
I0417 13:55:25.013017 23174 net.cpp:434] cls_score_cls_score_0_split <- cls_score
I0417 13:55:25.013023 23174 net.cpp:408] cls_score_cls_score_0_split -> cls_score_cls_score_0_split_0
I0417 13:55:25.013031 23174 net.cpp:408] cls_score_cls_score_0_split -> cls_score_cls_score_0_split_1
I0417 13:55:25.013079 23174 net.cpp:150] Setting up cls_score_cls_score_0_split
I0417 13:55:25.013087 23174 net.cpp:157] Top shape: 1 201 (201)
I0417 13:55:25.013092 23174 net.cpp:157] Top shape: 1 201 (201)
I0417 13:55:25.013094 23174 net.cpp:165] Memory required for data: 10172696760
I0417 13:55:25.013098 23174 layer_factory.hpp:77] Creating layer twin_pred
I0417 13:55:25.013106 23174 net.cpp:100] Creating Layer twin_pred
I0417 13:55:25.013113 23174 net.cpp:434] twin_pred <- fc6_drop6_0_split_1
I0417 13:55:25.013119 23174 net.cpp:408] twin_pred -> twin_pred
I0417 13:55:25.056008 23174 net.cpp:150] Setting up twin_pred
I0417 13:55:25.056025 23174 net.cpp:157] Top shape: 1 402 (402)
I0417 13:55:25.056028 23174 net.cpp:165] Memory required for data: 10172698368
I0417 13:55:25.056036 23174 layer_factory.hpp:77] Creating layer loss_cls
I0417 13:55:25.056046 23174 net.cpp:100] Creating Layer loss_cls
I0417 13:55:25.056051 23174 net.cpp:434] loss_cls <- cls_score_cls_score_0_split_0
I0417 13:55:25.056056 23174 net.cpp:434] loss_cls <- labels_roi-data_1_split_0
I0417 13:55:25.056061 23174 net.cpp:408] loss_cls -> loss_cls
…
