…
stepsize: 350000
snapshot: 0
snapshot_prefix: "./experiments/activitynet/snapshot/activitynet"
average_loss: 100
iter_size: 1
I0417 04:06:28.274448  3298 solver.cpp:81] Creating training net from train_net file: ./experiments/activitynet/train.prototxt
I0417 04:06:28.275554  3298 net.cpp:58] Initializing net from parameters: 
name: "activitynet"
state {
  phase: TRAIN
}
layer {
  name: "data"
  type: "Python"
  top: "data"
  top: "gt_boxes"
  python_param {
    module: "roi_data_layer.layer"
    layer: "RoIDataLayer"
    param_str: "\'num_classes\': 100"
  }
}
layer {
  name: "conv1a"
  type: "Convolution"
  bottom: "data"
  top: "conv1a"
  param {
    lr_mult: 0
    decay_mult: 0
  }
  param {
    lr_mult: 0
    decay_mult: 0
  }
  convolution_param {
    num_output: 64
    pad: 1
    pad: 1
    pad: 1
    kernel_size: 3
    kernel_size: 3
    kernel_size: 3
    weight_filler {
      type: "gaussian"
      std: 0.01
    }
    bias_filler {
      type: "constant"
      value: 0
    }
  }
}
layer {
  name: "relu1a"
  type: "ReLU"
  bottom: "conv1a"
  top: "conv1a"
}
layer {
  name: "pool1"
  type: "Pooling"
  bottom: "conv1a"
  top: "pool1"
  pooling_param {
    pool: MAX
    kernel_size: 1
    kernel_size: 2
    kernel_size: 2
    stride: 1
    stride: 2
    stride: 2
  }
}
layer {
  name: "conv2a"
  type: "Convolution"
  bottom: "pool1"
  top: "conv2a"
  param {
    lr_mult: 0
    decay_mult: 0
  }
  param {
    lr_mult: 0
    decay_mult: 0
  }
  convolution_param {
    num_output: 128
    pad: 1
    pad: 1
    pad: 1
    kernel_size: 3
    kernel_size: 3
    kernel_size: 3
    weight_filler {
      type: "gaussian"
      std: 0.01
    }
    bias_filler {
      type: "constant"
      value: 1
    }
  }
}
layer {
  name: "relu2a"
  type: "ReLU"
  bottom: "conv2a"
  top: "conv2a"
}
layer {
  name: "pool2"
  type: "Pooling"
  bottom: "conv2a"
  top: "pool2"
  pooling_param {
    pool: MAX
    kernel_size: 2
    kernel_size: 2
    kernel_size: 2
    stride: 2
    stride: 2
    stride: 2
  }
}
layer {
  name: "conv3a"
  type: "Convolution"
  bottom: "pool2"
  top: "conv3a"
  param {
    lr_mult: 1
    decay_mult: 1
  }
  param {
    lr_mult: 2
    decay_mult: 0
  }
  convolution_param {
    num_output: 256
    pad: 1
    pad: 1
    pad: 1
    kernel_size: 3
    kernel_size: 3
    kernel_size: 3
    weight_filler {
      type: "gaussian"
      std: 0.01
    }
    bias_filler {
      type: "constant"
      value: 1
    }
  }
}
layer {
  name: "relu3a"
  type: "ReLU"
  bottom: "conv3a"
  top: "conv3a"
}
layer {
  name: "conv3b"
  type: "Convolution"
  bottom: "conv3a"
  top: "conv3b"
  param {
    lr_mult: 1
    decay_mult: 1
  }
  param {
    lr_mult: 2
    decay_mult: 0
  }
  convolution_param {
    num_output: 256
    pad: 1
    pad: 1
    pad: 1
    kernel_size: 3
    kernel_size: 3
    kernel_size: 3
    weight_filler {
      type: "gaussian"
      std: 0.01
    }
    bias_filler {
      type: "constant"
      value: 1
    }
  }
}
layer {
  name: "relu3b"
  type: "ReLU"
  bottom: "conv3b"
  top: "conv3b"
}
layer {
  name: "pool3"
  type: "Pooling"
  bottom: "conv3b"
  top: "pool3"
  pooling_param {
    pool: MAX
    kernel_size: 2
    kernel_size: 2
    kernel_size: 2
    stride: 2
    stride: 2
    stride: 2
  }
}
layer {
  name: "conv4a"
  type: "Convolution"
  bottom: "pool3"
  top: "conv4a"
  param {
    lr_mult: 1
    decay_mult: 1
  }
  param {
    lr_mult: 2
    decay_mult: 0
  }
  convolution_param {
    num_output: 512
    pad: 1
    pad: 1
    pad: 1
    kernel_size: 3
    kernel_size: 3
    kernel_size: 3
    weight_filler {
      type: "gaussian"
      std: 0.01
    }
    bias_filler {
      type: "constant"
      value: 1
    }
  }
}
layer {
  name: "relu4a"
  type: "ReLU"
  bottom: "conv4a"
  top: "conv4a"
}
layer {
  name: "conv4b"
  type: "Convolution"
  bottom: "conv4a"
  top: "conv4b"
  param {
    lr_mult: 1
    decay_mult: 1
  }
  param {
    lr_mult: 2
    decay_mult: 0
  }
  convolution_param {
    num_output: 512
    pad: 1
    pad: 1
    pad: 1
    kernel_size: 3
    kernel_size: 3
    kernel_size: 3
    weight_filler {
      type: "gaussian"
      std: 0.01
    }
    bias_filler {
      type: "constant"
      value: 1
    }
  }
}
layer {
  name: "relu4b"
  type: "ReLU"
  bottom: "conv4b"
  top: "conv4b"
}
layer {
  name: "pool4"
  type: "Pooling"
  bottom: "conv4b"
  top: "pool4"
  pooling_param {
    pool: MAX
    kernel_size: 2
    kernel_size: 2
    kernel_size: 2
    stride: 2
    stride: 2
    stride: 2
  }
}
layer {
  name: "conv5a"
  type: "Convolution"
  bottom: "pool4"
  top: "conv5a"
  param {
    lr_mult: 1
    decay_mult: 1
  }
  param {
    lr_mult: 2
    decay_mult: 0
  }
  convolution_param {
    num_output: 512
    pad: 1
    pad: 1
    pad: 1
    kernel_size: 3
    kernel_size: 3
    kernel_size: 3
    weight_filler {
      type: "gaussian"
      std: 0.01
    }
    bias_filler {
      type: "constant"
      value: 1
    }
  }
}
layer {
  name: "relu5a"
  type: "ReLU"
  bottom: "conv5a"
  top: "conv5a"
}
layer {
  name: "conv5b"
  type: "Convolution"
  bottom: "conv5a"
  top: "conv5b"
  param {
    lr_mult: 1
    decay_mult: 1
  }
  param {
    lr_mult: 2
    decay_mult: 0
  }
  convolution_param {
    num_output: 512
    pad: 1
    pad: 1
    pad: 1
    kernel_size: 3
    kernel_size: 3
    kernel_size: 3
    weight_filler {
      type: "gaussian"
      std: 0.01
    }
    bias_filler {
      type: "constant"
      value: 1
    }
  }
}
layer {
  name: "relu5b"
  type: "ReLU"
  bottom: "conv5b"
  top: "conv5b"
}
layer {
  name: "rpn_conv/3x3"
  type: "Convolution"
  bottom: "conv5b"
  top: "rpn/output"
  param {
    lr_mult: 1
    decay_mult: 1
  }
  param {
    lr_mult: 2
    decay_mult: 0
  }
  convolution_param {
    num_output: 512
    pad: 1
    pad: 1
    pad: 1
    kernel_size: 3
    kernel_size: 3
    kernel_size: 3
    stride: 1
    stride: 2
    stride: 2
    weight_filler {
      type: "gaussian"
      std: 0.01
    }
    bias_filler {
      type: "constant"
      value: 0
    }
  }
}
layer {
  name: "rpn_relu/3x3"
  type: "ReLU"
  bottom: "rpn/output"
  top: "rpn/output"
}
layer {
  name: "rpn_conv/3x3_2"
  type: "Convolution"
  bottom: "rpn/output"
  top: "rpn/output_2"
  param {
    lr_mult: 1
    decay_mult: 1
  }
  param {
    lr_mult: 2
    decay_mult: 0
  }
  convolution_param {
    num_output: 512
    pad: 1
    pad: 1
    pad: 1
    kernel_size: 3
    kernel_size: 3
    kernel_size: 3
    stride: 1
    stride: 2
    stride: 2
    weight_filler {
      type: "gaussian"
      std: 0.01
    }
    bias_filler {
      type: "constant"
      value: 0
    }
  }
}
layer {
  name: "rpn_relu/3x3_2"
  type: "ReLU"
  bottom: "rpn/output_2"
  top: "rpn/output_2"
}
layer {
  name: "rpn/output_pool"
  type: "Pooling"
  bottom: "rpn/output_2"
  top: "rpn/output_pool"
  pooling_param {
    pool: MAX
    kernel_size: 1
    kernel_size: 2
    kernel_size: 2
  }
}
layer {
  name: "rpn_cls_score"
  type: "Convolution"
  bottom: "rpn/output_pool"
  top: "rpn_cls_score"
  param {
    lr_mult: 1
    decay_mult: 1
  }
  param {
    lr_mult: 2
    decay_mult: 0
  }
  convolution_param {
    num_output: 74
    kernel_size: 1
    kernel_size: 1
    kernel_size: 1
    weight_filler {
      type: "gaussian"
      std: 0.01
    }
    bias_filler {
      type: "constant"
      value: 0
    }
  }
}
layer {
  name: "rpn_twin_pred"
  type: "Convolution"
  bottom: "rpn/output_pool"
  top: "rpn_twin_pred"
  param {
    lr_mult: 1
    decay_mult: 1
  }
  param {
    lr_mult: 2
    decay_mult: 0
  }
  convolution_param {
    num_output: 74
    kernel_size: 1
    kernel_size: 1
    kernel_size: 1
    weight_filler {
      type: "gaussian"
      std: 0.01
    }
    bias_filler {
      type: "constant"
      value: 0
    }
  }
}
layer {
  name: "rpn_cls_score_reshape"
  type: "Reshape"
  bottom: "rpn_cls_score"
  top: "rpn_cls_score_reshape"
  reshape_param {
    shape {
      dim: 0
      dim: 2
      dim: -1
      dim: 0
      dim: 0
    }
  }
}
layer {
  name: "rpn-data"
  type: "Python"
  bottom: "rpn_cls_score"
  bottom: "gt_boxes"
  bottom: "data"
  top: "rpn_labels"
  top: "rpn_twin_targets"
  top: "rpn_twin_inside_weights"
  top: "rpn_twin_outside_weights"
  python_param {
    module: "rpn.anchor_target_layer"
    layer: "AnchorTargetLayer"
    param_str: "\'feat_stride\': 8 \n\'scales\': !!python/tuple [1,1.25, 1.5,1.75, 2,2.5, 3,3.5, 4,4.5, 5,5.5, 6,7, 8,9,10,11,12,14,16,18,20,22,24,28,32,36,40,44,52,60,68,76,84,92,100]"
  }
}
layer {
  name: "rpn_loss_cls"
  type: "SoftmaxWithLoss"
  bottom: "rpn_cls_score_reshape"
  bottom: "rpn_labels"
  top: "rpn_cls_loss"
  loss_weight: 1
  propagate_down: true
  propagate_down: false
  loss_param {
    ignore_label: -1
    normalize: true
  }
}
layer {
  name: "rpn_loss_twin"
  type: "SmoothL1Loss"
  bottom: "rpn_twin_pred"
  bottom: "rpn_twin_targets"
  bottom: "rpn_twin_inside_weights"
  bottom: "rpn_twin_outside_weights"
  top: "rpn_loss_twin"
  loss_weight: 1
  smooth_l1_loss_param {
    sigma: 3
  }
}
layer {
  name: "rpn_accuarcy"
  type: "Accuracy"
  bottom: "rpn_cls_score_reshape"
  bottom: "rpn_labels"
  top: "rpn_accuarcy"
  top: "rpn_accuarcy_class"
  propagate_down: false
  propagate_down: false
  accuracy_param {
    ignore_label: -1
  }
}
layer {
  name: "rpn_cls_prob"
  type: "Softmax"
  bottom: "rpn_cls_score_reshape"
  top: "rpn_cls_prob"
}
layer {
  name: "rpn_cls_prob_reshape"
  type: "Reshape"
  bottom: "rpn_cls_prob"
  top: "rpn_cls_prob_reshape"
  reshape_param {
    shape {
      dim: 0
      dim: 74
      dim: -1
      dim: 0
      dim: 0
    }
  }
}
layer {
  name: "proposal"
  type: "Python"
  bottom: "rpn_cls_prob_reshape"
  bottom: "rpn_twin_pred"
  top: "rpn_rois"
  include {
    phase: TRAIN
  }
  python_param {
    module: "rpn.proposal_layer"
    layer: "ProposalLayer"
    param_str: "\'feat_stride\': 8 \n\'scales\': !!python/tuple [1,1.25, 1.5,1.75, 2,2.5, 3,3.5, 4,4.5, 5,5.5, 6,7, 8,9,10,11,12,14,16,18,20,22,24,28,32,36,40,44,52,60,68,76,84,92,100]"
  }
}
layer {
  name: "roi-data"
  type: "Python"
  bottom: "rpn_rois"
  bottom: "gt_boxes"
  top: "rois"
  top: "labels"
  top: "twin_targets"
  top: "twin_inside_weights"
  top: "twin_outside_weights"
  python_param {
    module: "rpn.proposal_target_layer"
    layer: "ProposalTargetLayer"
    param_str: "\'num_classes\': 201"
  }
}
layer {
  name: "roi_pool5"
  type: "ROIPooling"
  bottom: "conv5b"
  bottom: "rois"
  top: "pool5"
  roi_pooling_param {
    pooled_h: 4
    pooled_w: 4
    spatial_scale: 0.0625
    pooled_l: 1
    temporal_scale: 0.125
  }
}
layer {
  name: "fc6"
  type: "InnerProduct"
  bottom: "pool5"
  top: "fc6"
  param {
    lr_mult: 1
    decay_mult: 1
  }
  param {
    lr_mult: 2
    decay_mult: 0
  }
  inner_product_param {
    num_output: 4096
    weight_filler {
      type: "gaussian"
      std: 0.005
    }
    bias_filler {
      type: "constant"
      value: 1
    }
  }
}
layer {
  name: "relu6"
  type: "ReLU"
  bottom: "fc6"
  top: "fc6"
}
layer {
  name: "drop6"
  type: "Dropout"
  bottom: "fc6"
  top: "fc6"
  dropout_param {
    dropout_ratio: 0.5
  }
}
layer {
  name: "cls_score"
  type: "InnerProduct"
  bottom: "fc6"
  top: "cls_score"
  param {
    lr_mult: 1
    decay_mult: 1
  }
  param {
    lr_mult: 2
    decay_mult: 0
  }
  inner_product_param {
    num_output: 201
    weight_filler {
      type: "gaussian"
      std: 0.01
    }
    bias_filler {
      type: "constant"
      value: 0
    }
  }
}
layer {
  name: "twin_pred"
  type: "InnerProduct"
  bottom: "fc6"
  top: "twin_pred"
  param {
    lr_mult: 1
    decay_mult: 1
  }
  param {
    lr_mult: 2
    decay_mult: 0
  }
  inner_product_param {
    num_output: 402
    weight_filler {
      type: "gaussian"
      std: 0.001
    }
    bias_filler {
      type: "constant"
      value: 0
    }
  }
}
layer {
  name: "loss_cls"
  type: "SoftmaxWithLoss"
  bottom: "cls_score"
  bottom: "labels"
  top: "loss_cls"
  loss_weight: 1
  propagate_down: true
  propagate_down: false
}
layer {
  name: "loss_twin"
  type: "SmoothL1Loss"
  bottom: "twin_pred"
  bottom: "twin_targets"
  bottom: "twin_inside_weights"
  bottom: "twin_outside_weights"
  top: "loss_twin"
  loss_weight: 1
}
layer {
  name: "accuarcy"
  type: "Accuracy"
  bottom: "cls_score"
  bottom: "labels"
  top: "accuarcy"
  propagate_down: false
  propagate_down: false
  accuracy_param {
    ignore_label: -1
  }
}
I0417 04:06:28.275887  3298 layer_factory.hpp:77] Creating layer data
I0417 04:06:28.301276  3298 net.cpp:100] Creating Layer data
I0417 04:06:28.301301  3298 net.cpp:408] data -> data
I0417 04:06:28.301319  3298 net.cpp:408] data -> gt_boxes
setting up
RoiDataLayer: name_to_top: {'gt_windows': 1, 'data': 0}
I0417 04:06:28.314707  3298 net.cpp:150] Setting up data
I0417 04:06:28.314734  3298 net.cpp:157] Top shape: 1 3 768 112 112 (28901376)
I0417 04:06:28.314744  3298 net.cpp:157] Top shape: 1 101 (101)
I0417 04:06:28.314749  3298 net.cpp:165] Memory required for data: 115605908
I0417 04:06:28.314759  3298 layer_factory.hpp:77] Creating layer data_data_0_split
I0417 04:06:28.314800  3298 net.cpp:100] Creating Layer data_data_0_split
I0417 04:06:28.314808  3298 net.cpp:434] data_data_0_split <- data
I0417 04:06:28.314818  3298 net.cpp:408] data_data_0_split -> data_data_0_split_0
I0417 04:06:28.314832  3298 net.cpp:408] data_data_0_split -> data_data_0_split_1
I0417 04:06:28.314893  3298 net.cpp:150] Setting up data_data_0_split
I0417 04:06:28.314904  3298 net.cpp:157] Top shape: 1 3 768 112 112 (28901376)
I0417 04:06:28.314911  3298 net.cpp:157] Top shape: 1 3 768 112 112 (28901376)
I0417 04:06:28.314916  3298 net.cpp:165] Memory required for data: 346816916
I0417 04:06:28.314923  3298 layer_factory.hpp:77] Creating layer gt_boxes_data_1_split
I0417 04:06:28.314931  3298 net.cpp:100] Creating Layer gt_boxes_data_1_split
I0417 04:06:28.314937  3298 net.cpp:434] gt_boxes_data_1_split <- gt_boxes
I0417 04:06:28.314945  3298 net.cpp:408] gt_boxes_data_1_split -> gt_boxes_data_1_split_0
I0417 04:06:28.314957  3298 net.cpp:408] gt_boxes_data_1_split -> gt_boxes_data_1_split_1
I0417 04:06:28.315011  3298 net.cpp:150] Setting up gt_boxes_data_1_split
I0417 04:06:28.315021  3298 net.cpp:157] Top shape: 1 101 (101)
I0417 04:06:28.315028  3298 net.cpp:157] Top shape: 1 101 (101)
I0417 04:06:28.315033  3298 net.cpp:165] Memory required for data: 346817724
I0417 04:06:28.315039  3298 layer_factory.hpp:77] Creating layer conv1a
I0417 04:06:28.315062  3298 net.cpp:100] Creating Layer conv1a
I0417 04:06:28.315071  3298 net.cpp:434] conv1a <- data_data_0_split_0
I0417 04:06:28.315079  3298 net.cpp:408] conv1a -> conv1a
I0417 04:06:28.334002  3298 net.cpp:150] Setting up conv1a
I0417 04:06:28.334034  3298 net.cpp:157] Top shape: 1 64 768 112 112 (616562688)
I0417 04:06:28.334039  3298 net.cpp:165] Memory required for data: 2813068476
I0417 04:06:28.334067  3298 layer_factory.hpp:77] Creating layer relu1a
I0417 04:06:28.334091  3298 net.cpp:100] Creating Layer relu1a
I0417 04:06:28.334100  3298 net.cpp:434] relu1a <- conv1a
I0417 04:06:28.334110  3298 net.cpp:395] relu1a -> conv1a (in-place)
I0417 04:06:28.334127  3298 net.cpp:150] Setting up relu1a
I0417 04:06:28.334138  3298 net.cpp:157] Top shape: 1 64 768 112 112 (616562688)
I0417 04:06:28.334143  3298 net.cpp:165] Memory required for data: 5279319228
I0417 04:06:28.334149  3298 layer_factory.hpp:77] Creating layer pool1
I0417 04:06:28.334161  3298 net.cpp:100] Creating Layer pool1
I0417 04:06:28.334168  3298 net.cpp:434] pool1 <- conv1a
I0417 04:06:28.334177  3298 net.cpp:408] pool1 -> pool1
I0417 04:06:28.334285  3298 net.cpp:150] Setting up pool1
I0417 04:06:28.334295  3298 net.cpp:157] Top shape: 1 64 768 56 56 (154140672)
I0417 04:06:28.334300  3298 net.cpp:165] Memory required for data: 5895881916
I0417 04:06:28.334306  3298 layer_factory.hpp:77] Creating layer conv2a
I0417 04:06:28.334322  3298 net.cpp:100] Creating Layer conv2a
I0417 04:06:28.334328  3298 net.cpp:434] conv2a <- pool1
I0417 04:06:28.334338  3298 net.cpp:408] conv2a -> conv2a
I0417 04:06:28.345273  3298 net.cpp:150] Setting up conv2a
I0417 04:06:28.345304  3298 net.cpp:157] Top shape: 1 128 768 56 56 (308281344)
I0417 04:06:28.345310  3298 net.cpp:165] Memory required for data: 7129007292
I0417 04:06:28.345329  3298 layer_factory.hpp:77] Creating layer relu2a
I0417 04:06:28.345343  3298 net.cpp:100] Creating Layer relu2a
I0417 04:06:28.345350  3298 net.cpp:434] relu2a <- conv2a
I0417 04:06:28.345362  3298 net.cpp:395] relu2a -> conv2a (in-place)
I0417 04:06:28.345377  3298 net.cpp:150] Setting up relu2a
I0417 04:06:28.345386  3298 net.cpp:157] Top shape: 1 128 768 56 56 (308281344)
I0417 04:06:28.345396  3298 net.cpp:165] Memory required for data: 8362132668
I0417 04:06:28.345402  3298 layer_factory.hpp:77] Creating layer pool2
I0417 04:06:28.345415  3298 net.cpp:100] Creating Layer pool2
I0417 04:06:28.345422  3298 net.cpp:434] pool2 <- conv2a
I0417 04:06:28.345433  3298 net.cpp:408] pool2 -> pool2
I0417 04:06:28.345530  3298 net.cpp:150] Setting up pool2
I0417 04:06:28.345540  3298 net.cpp:157] Top shape: 1 128 384 28 28 (38535168)
I0417 04:06:28.345544  3298 net.cpp:165] Memory required for data: 8516273340
I0417 04:06:28.345551  3298 layer_factory.hpp:77] Creating layer conv3a
I0417 04:06:28.345567  3298 net.cpp:100] Creating Layer conv3a
I0417 04:06:28.345577  3298 net.cpp:434] conv3a <- pool2
I0417 04:06:28.345588  3298 net.cpp:408] conv3a -> conv3a
I0417 04:06:28.370535  3298 net.cpp:150] Setting up conv3a
I0417 04:06:28.370558  3298 net.cpp:157] Top shape: 1 256 384 28 28 (77070336)
I0417 04:06:28.370563  3298 net.cpp:165] Memory required for data: 8824554684
I0417 04:06:28.370580  3298 layer_factory.hpp:77] Creating layer relu3a
I0417 04:06:28.370592  3298 net.cpp:100] Creating Layer relu3a
I0417 04:06:28.370600  3298 net.cpp:434] relu3a <- conv3a
I0417 04:06:28.370609  3298 net.cpp:395] relu3a -> conv3a (in-place)
I0417 04:06:28.370625  3298 net.cpp:150] Setting up relu3a
I0417 04:06:28.370633  3298 net.cpp:157] Top shape: 1 256 384 28 28 (77070336)
I0417 04:06:28.370643  3298 net.cpp:165] Memory required for data: 9132836028
I0417 04:06:28.370648  3298 layer_factory.hpp:77] Creating layer conv3b
I0417 04:06:28.370664  3298 net.cpp:100] Creating Layer conv3b
I0417 04:06:28.370672  3298 net.cpp:434] conv3b <- conv3a
I0417 04:06:28.370683  3298 net.cpp:408] conv3b -> conv3b
I0417 04:06:28.419505  3298 net.cpp:150] Setting up conv3b
I0417 04:06:28.419533  3298 net.cpp:157] Top shape: 1 256 384 28 28 (77070336)
I0417 04:06:28.419538  3298 net.cpp:165] Memory required for data: 9441117372
I0417 04:06:28.419550  3298 layer_factory.hpp:77] Creating layer relu3b
I0417 04:06:28.419564  3298 net.cpp:100] Creating Layer relu3b
I0417 04:06:28.419571  3298 net.cpp:434] relu3b <- conv3b
I0417 04:06:28.419589  3298 net.cpp:395] relu3b -> conv3b (in-place)
I0417 04:06:28.419603  3298 net.cpp:150] Setting up relu3b
I0417 04:06:28.419615  3298 net.cpp:157] Top shape: 1 256 384 28 28 (77070336)
I0417 04:06:28.419620  3298 net.cpp:165] Memory required for data: 9749398716
I0417 04:06:28.419626  3298 layer_factory.hpp:77] Creating layer pool3
I0417 04:06:28.419638  3298 net.cpp:100] Creating Layer pool3
I0417 04:06:28.419648  3298 net.cpp:434] pool3 <- conv3b
I0417 04:06:28.419659  3298 net.cpp:408] pool3 -> pool3
I0417 04:06:28.419723  3298 net.cpp:150] Setting up pool3
I0417 04:06:28.419734  3298 net.cpp:157] Top shape: 1 256 192 14 14 (9633792)
I0417 04:06:28.419739  3298 net.cpp:165] Memory required for data: 9787933884
I0417 04:06:28.419744  3298 layer_factory.hpp:77] Creating layer conv4a
I0417 04:06:28.419761  3298 net.cpp:100] Creating Layer conv4a
I0417 04:06:28.419773  3298 net.cpp:434] conv4a <- pool3
I0417 04:06:28.419785  3298 net.cpp:408] conv4a -> conv4a
I0417 04:06:28.516937  3298 net.cpp:150] Setting up conv4a
I0417 04:06:28.516963  3298 net.cpp:157] Top shape: 1 512 192 14 14 (19267584)
I0417 04:06:28.516969  3298 net.cpp:165] Memory required for data: 9865004220
I0417 04:06:28.516988  3298 layer_factory.hpp:77] Creating layer relu4a
I0417 04:06:28.517004  3298 net.cpp:100] Creating Layer relu4a
I0417 04:06:28.517011  3298 net.cpp:434] relu4a <- conv4a
I0417 04:06:28.517020  3298 net.cpp:395] relu4a -> conv4a (in-place)
I0417 04:06:28.517035  3298 net.cpp:150] Setting up relu4a
I0417 04:06:28.517045  3298 net.cpp:157] Top shape: 1 512 192 14 14 (19267584)
I0417 04:06:28.517051  3298 net.cpp:165] Memory required for data: 9942074556
I0417 04:06:28.517056  3298 layer_factory.hpp:77] Creating layer conv4b
I0417 04:06:28.517076  3298 net.cpp:100] Creating Layer conv4b
I0417 04:06:28.517084  3298 net.cpp:434] conv4b <- conv4a
I0417 04:06:28.517096  3298 net.cpp:408] conv4b -> conv4b
I0417 04:06:28.708089  3298 net.cpp:150] Setting up conv4b
I0417 04:06:28.708115  3298 net.cpp:157] Top shape: 1 512 192 14 14 (19267584)
I0417 04:06:28.708120  3298 net.cpp:165] Memory required for data: 10019144892
I0417 04:06:28.708132  3298 layer_factory.hpp:77] Creating layer relu4b
I0417 04:06:28.708144  3298 net.cpp:100] Creating Layer relu4b
I0417 04:06:28.708151  3298 net.cpp:434] relu4b <- conv4b
I0417 04:06:28.708161  3298 net.cpp:395] relu4b -> conv4b (in-place)
I0417 04:06:28.708173  3298 net.cpp:150] Setting up relu4b
I0417 04:06:28.708185  3298 net.cpp:157] Top shape: 1 512 192 14 14 (19267584)
I0417 04:06:28.708190  3298 net.cpp:165] Memory required for data: 10096215228
I0417 04:06:28.708196  3298 layer_factory.hpp:77] Creating layer pool4
I0417 04:06:28.708214  3298 net.cpp:100] Creating Layer pool4
I0417 04:06:28.708222  3298 net.cpp:434] pool4 <- conv4b
I0417 04:06:28.708231  3298 net.cpp:408] pool4 -> pool4
I0417 04:06:28.708293  3298 net.cpp:150] Setting up pool4
I0417 04:06:28.708303  3298 net.cpp:157] Top shape: 1 512 96 7 7 (2408448)
I0417 04:06:28.708308  3298 net.cpp:165] Memory required for data: 10105849020
I0417 04:06:28.708314  3298 layer_factory.hpp:77] Creating layer conv5a
I0417 04:06:28.708329  3298 net.cpp:100] Creating Layer conv5a
I0417 04:06:28.708341  3298 net.cpp:434] conv5a <- pool4
I0417 04:06:28.708351  3298 net.cpp:408] conv5a -> conv5a
I0417 04:06:28.894155  3298 net.cpp:150] Setting up conv5a
I0417 04:06:28.894181  3298 net.cpp:157] Top shape: 1 512 96 7 7 (2408448)
I0417 04:06:28.894187  3298 net.cpp:165] Memory required for data: 10115482812
I0417 04:06:28.894198  3298 layer_factory.hpp:77] Creating layer relu5a
I0417 04:06:28.894212  3298 net.cpp:100] Creating Layer relu5a
I0417 04:06:28.894220  3298 net.cpp:434] relu5a <- conv5a
I0417 04:06:28.894232  3298 net.cpp:395] relu5a -> conv5a (in-place)
I0417 04:06:28.894248  3298 net.cpp:150] Setting up relu5a
I0417 04:06:28.894259  3298 net.cpp:157] Top shape: 1 512 96 7 7 (2408448)
I0417 04:06:28.894265  3298 net.cpp:165] Memory required for data: 10125116604
I0417 04:06:28.894271  3298 layer_factory.hpp:77] Creating layer conv5b
I0417 04:06:28.894284  3298 net.cpp:100] Creating Layer conv5b
I0417 04:06:28.894292  3298 net.cpp:434] conv5b <- conv5a
I0417 04:06:28.894304  3298 net.cpp:408] conv5b -> conv5b
I0417 04:06:29.080394  3298 net.cpp:150] Setting up conv5b
I0417 04:06:29.080420  3298 net.cpp:157] Top shape: 1 512 96 7 7 (2408448)
I0417 04:06:29.080425  3298 net.cpp:165] Memory required for data: 10134750396
I0417 04:06:29.080446  3298 layer_factory.hpp:77] Creating layer relu5b
I0417 04:06:29.080459  3298 net.cpp:100] Creating Layer relu5b
I0417 04:06:29.080467  3298 net.cpp:434] relu5b <- conv5b
I0417 04:06:29.080477  3298 net.cpp:395] relu5b -> conv5b (in-place)
I0417 04:06:29.080494  3298 net.cpp:150] Setting up relu5b
I0417 04:06:29.080504  3298 net.cpp:157] Top shape: 1 512 96 7 7 (2408448)
I0417 04:06:29.080510  3298 net.cpp:165] Memory required for data: 10144384188
I0417 04:06:29.080515  3298 layer_factory.hpp:77] Creating layer conv5b_relu5b_0_split
I0417 04:06:29.080526  3298 net.cpp:100] Creating Layer conv5b_relu5b_0_split
I0417 04:06:29.080531  3298 net.cpp:434] conv5b_relu5b_0_split <- conv5b
I0417 04:06:29.080539  3298 net.cpp:408] conv5b_relu5b_0_split -> conv5b_relu5b_0_split_0
I0417 04:06:29.080549  3298 net.cpp:408] conv5b_relu5b_0_split -> conv5b_relu5b_0_split_1
I0417 04:06:29.080605  3298 net.cpp:150] Setting up conv5b_relu5b_0_split
I0417 04:06:29.080616  3298 net.cpp:157] Top shape: 1 512 96 7 7 (2408448)
I0417 04:06:29.080623  3298 net.cpp:157] Top shape: 1 512 96 7 7 (2408448)
I0417 04:06:29.080628  3298 net.cpp:165] Memory required for data: 10163651772
I0417 04:06:29.080634  3298 layer_factory.hpp:77] Creating layer rpn_conv/3x3
I0417 04:06:29.080653  3298 net.cpp:100] Creating Layer rpn_conv/3x3
I0417 04:06:29.080662  3298 net.cpp:434] rpn_conv/3x3 <- conv5b_relu5b_0_split_0
I0417 04:06:29.080673  3298 net.cpp:408] rpn_conv/3x3 -> rpn/output
I0417 04:06:29.267433  3298 net.cpp:150] Setting up rpn_conv/3x3
I0417 04:06:29.267467  3298 net.cpp:157] Top shape: 1 512 96 4 4 (786432)
I0417 04:06:29.267473  3298 net.cpp:165] Memory required for data: 10166797500
I0417 04:06:29.267490  3298 layer_factory.hpp:77] Creating layer rpn_relu/3x3
I0417 04:06:29.267504  3298 net.cpp:100] Creating Layer rpn_relu/3x3
I0417 04:06:29.267511  3298 net.cpp:434] rpn_relu/3x3 <- rpn/output
I0417 04:06:29.267524  3298 net.cpp:395] rpn_relu/3x3 -> rpn/output (in-place)
I0417 04:06:29.267539  3298 net.cpp:150] Setting up rpn_relu/3x3
I0417 04:06:29.267545  3298 net.cpp:157] Top shape: 1 512 96 4 4 (786432)
I0417 04:06:29.267550  3298 net.cpp:165] Memory required for data: 10169943228
I0417 04:06:29.267556  3298 layer_factory.hpp:77] Creating layer rpn_conv/3x3_2
I0417 04:06:29.267572  3298 net.cpp:100] Creating Layer rpn_conv/3x3_2
I0417 04:06:29.267580  3298 net.cpp:434] rpn_conv/3x3_2 <- rpn/output
I0417 04:06:29.267590  3298 net.cpp:408] rpn_conv/3x3_2 -> rpn/output_2
I0417 04:06:29.453677  3298 net.cpp:150] Setting up rpn_conv/3x3_2
I0417 04:06:29.453703  3298 net.cpp:157] Top shape: 1 512 96 2 2 (196608)
I0417 04:06:29.453708  3298 net.cpp:165] Memory required for data: 10170729660
I0417 04:06:29.453721  3298 layer_factory.hpp:77] Creating layer rpn_relu/3x3_2
I0417 04:06:29.453733  3298 net.cpp:100] Creating Layer rpn_relu/3x3_2
I0417 04:06:29.453740  3298 net.cpp:434] rpn_relu/3x3_2 <- rpn/output_2
I0417 04:06:29.453753  3298 net.cpp:395] rpn_relu/3x3_2 -> rpn/output_2 (in-place)
I0417 04:06:29.453768  3298 net.cpp:150] Setting up rpn_relu/3x3_2
I0417 04:06:29.453778  3298 net.cpp:157] Top shape: 1 512 96 2 2 (196608)
I0417 04:06:29.453783  3298 net.cpp:165] Memory required for data: 10171516092
I0417 04:06:29.453789  3298 layer_factory.hpp:77] Creating layer rpn/output_pool
I0417 04:06:29.453799  3298 net.cpp:100] Creating Layer rpn/output_pool
I0417 04:06:29.453806  3298 net.cpp:434] rpn/output_pool <- rpn/output_2
I0417 04:06:29.453814  3298 net.cpp:408] rpn/output_pool -> rpn/output_pool
I0417 04:06:29.453869  3298 net.cpp:150] Setting up rpn/output_pool
I0417 04:06:29.453881  3298 net.cpp:157] Top shape: 1 512 96 1 1 (49152)
I0417 04:06:29.453886  3298 net.cpp:165] Memory required for data: 10171712700
I0417 04:06:29.453892  3298 layer_factory.hpp:77] Creating layer rpn/output_pool_rpn/output_pool_0_split
I0417 04:06:29.453900  3298 net.cpp:100] Creating Layer rpn/output_pool_rpn/output_pool_0_split
I0417 04:06:29.453907  3298 net.cpp:434] rpn/output_pool_rpn/output_pool_0_split <- rpn/output_pool
I0417 04:06:29.453913  3298 net.cpp:408] rpn/output_pool_rpn/output_pool_0_split -> rpn/output_pool_rpn/output_pool_0_split_0
I0417 04:06:29.453922  3298 net.cpp:408] rpn/output_pool_rpn/output_pool_0_split -> rpn/output_pool_rpn/output_pool_0_split_1
I0417 04:06:29.453975  3298 net.cpp:150] Setting up rpn/output_pool_rpn/output_pool_0_split
I0417 04:06:29.453985  3298 net.cpp:157] Top shape: 1 512 96 1 1 (49152)
I0417 04:06:29.453991  3298 net.cpp:157] Top shape: 1 512 96 1 1 (49152)
I0417 04:06:29.453997  3298 net.cpp:165] Memory required for data: 10172105916
I0417 04:06:29.454002  3298 layer_factory.hpp:77] Creating layer rpn_cls_score
I0417 04:06:29.454018  3298 net.cpp:100] Creating Layer rpn_cls_score
I0417 04:06:29.454025  3298 net.cpp:434] rpn_cls_score <- rpn/output_pool_rpn/output_pool_0_split_0
I0417 04:06:29.454035  3298 net.cpp:408] rpn_cls_score -> rpn_cls_score
I0417 04:06:29.455312  3298 net.cpp:150] Setting up rpn_cls_score
I0417 04:06:29.455323  3298 net.cpp:157] Top shape: 1 74 96 1 1 (7104)
I0417 04:06:29.455329  3298 net.cpp:165] Memory required for data: 10172134332
I0417 04:06:29.455338  3298 layer_factory.hpp:77] Creating layer rpn_cls_score_rpn_cls_score_0_split
I0417 04:06:29.455348  3298 net.cpp:100] Creating Layer rpn_cls_score_rpn_cls_score_0_split
I0417 04:06:29.455353  3298 net.cpp:434] rpn_cls_score_rpn_cls_score_0_split <- rpn_cls_score
I0417 04:06:29.455363  3298 net.cpp:408] rpn_cls_score_rpn_cls_score_0_split -> rpn_cls_score_rpn_cls_score_0_split_0
I0417 04:06:29.455373  3298 net.cpp:408] rpn_cls_score_rpn_cls_score_0_split -> rpn_cls_score_rpn_cls_score_0_split_1
I0417 04:06:29.455428  3298 net.cpp:150] Setting up rpn_cls_score_rpn_cls_score_0_split
I0417 04:06:29.455438  3298 net.cpp:157] Top shape: 1 74 96 1 1 (7104)
I0417 04:06:29.455444  3298 net.cpp:157] Top shape: 1 74 96 1 1 (7104)
I0417 04:06:29.455449  3298 net.cpp:165] Memory required for data: 10172191164
I0417 04:06:29.455456  3298 layer_factory.hpp:77] Creating layer rpn_twin_pred
I0417 04:06:29.455476  3298 net.cpp:100] Creating Layer rpn_twin_pred
I0417 04:06:29.455482  3298 net.cpp:434] rpn_twin_pred <- rpn/output_pool_rpn/output_pool_0_split_1
I0417 04:06:29.455497  3298 net.cpp:408] rpn_twin_pred -> rpn_twin_pred
I0417 04:06:29.456735  3298 net.cpp:150] Setting up rpn_twin_pred
I0417 04:06:29.456746  3298 net.cpp:157] Top shape: 1 74 96 1 1 (7104)
I0417 04:06:29.456753  3298 net.cpp:165] Memory required for data: 10172219580
I0417 04:06:29.456760  3298 layer_factory.hpp:77] Creating layer rpn_twin_pred_rpn_twin_pred_0_split
I0417 04:06:29.456770  3298 net.cpp:100] Creating Layer rpn_twin_pred_rpn_twin_pred_0_split
I0417 04:06:29.456776  3298 net.cpp:434] rpn_twin_pred_rpn_twin_pred_0_split <- rpn_twin_pred
I0417 04:06:29.456784  3298 net.cpp:408] rpn_twin_pred_rpn_twin_pred_0_split -> rpn_twin_pred_rpn_twin_pred_0_split_0
I0417 04:06:29.456795  3298 net.cpp:408] rpn_twin_pred_rpn_twin_pred_0_split -> rpn_twin_pred_rpn_twin_pred_0_split_1
I0417 04:06:29.456848  3298 net.cpp:150] Setting up rpn_twin_pred_rpn_twin_pred_0_split
I0417 04:06:29.456858  3298 net.cpp:157] Top shape: 1 74 96 1 1 (7104)
I0417 04:06:29.456864  3298 net.cpp:157] Top shape: 1 74 96 1 1 (7104)
I0417 04:06:29.456869  3298 net.cpp:165] Memory required for data: 10172276412
I0417 04:06:29.456876  3298 layer_factory.hpp:77] Creating layer rpn_cls_score_reshape
I0417 04:06:29.456892  3298 net.cpp:100] Creating Layer rpn_cls_score_reshape
I0417 04:06:29.456898  3298 net.cpp:434] rpn_cls_score_reshape <- rpn_cls_score_rpn_cls_score_0_split_0
I0417 04:06:29.456907  3298 net.cpp:408] rpn_cls_score_reshape -> rpn_cls_score_reshape
I0417 04:06:29.456948  3298 net.cpp:150] Setting up rpn_cls_score_reshape
I0417 04:06:29.456957  3298 net.cpp:157] Top shape: 1 2 3552 1 1 (7104)
I0417 04:06:29.456962  3298 net.cpp:165] Memory required for data: 10172304828
I0417 04:06:29.456969  3298 layer_factory.hpp:77] Creating layer rpn_cls_score_reshape_rpn_cls_score_reshape_0_split
I0417 04:06:29.456980  3298 net.cpp:100] Creating Layer rpn_cls_score_reshape_rpn_cls_score_reshape_0_split
I0417 04:06:29.456987  3298 net.cpp:434] rpn_cls_score_reshape_rpn_cls_score_reshape_0_split <- rpn_cls_score_reshape
I0417 04:06:29.456996  3298 net.cpp:408] rpn_cls_score_reshape_rpn_cls_score_reshape_0_split -> rpn_cls_score_reshape_rpn_cls_score_reshape_0_split_0
I0417 04:06:29.457010  3298 net.cpp:408] rpn_cls_score_reshape_rpn_cls_score_reshape_0_split -> rpn_cls_score_reshape_rpn_cls_score_reshape_0_split_1
I0417 04:06:29.457020  3298 net.cpp:408] rpn_cls_score_reshape_rpn_cls_score_reshape_0_split -> rpn_cls_score_reshape_rpn_cls_score_reshape_0_split_2
I0417 04:06:29.457084  3298 net.cpp:150] Setting up rpn_cls_score_reshape_rpn_cls_score_reshape_0_split
I0417 04:06:29.457094  3298 net.cpp:157] Top shape: 1 2 3552 1 1 (7104)
I0417 04:06:29.457101  3298 net.cpp:157] Top shape: 1 2 3552 1 1 (7104)
I0417 04:06:29.457108  3298 net.cpp:157] Top shape: 1 2 3552 1 1 (7104)
I0417 04:06:29.457113  3298 net.cpp:165] Memory required for data: 10172390076
I0417 04:06:29.457118  3298 layer_factory.hpp:77] Creating layer rpn-data
I0417 04:06:29.457515  3298 net.cpp:100] Creating Layer rpn-data
I0417 04:06:29.457528  3298 net.cpp:434] rpn-data <- rpn_cls_score_rpn_cls_score_0_split_1
I0417 04:06:29.457536  3298 net.cpp:434] rpn-data <- gt_boxes_data_1_split_0
I0417 04:06:29.457545  3298 net.cpp:434] rpn-data <- data_data_0_split_1
I0417 04:06:29.457553  3298 net.cpp:408] rpn-data -> rpn_labels
I0417 04:06:29.457564  3298 net.cpp:408] rpn-data -> rpn_twin_targets
I0417 04:06:29.457574  3298 net.cpp:408] rpn-data -> rpn_twin_inside_weights
I0417 04:06:29.457587  3298 net.cpp:408] rpn-data -> rpn_twin_outside_weights
I0417 04:06:29.459890  3298 net.cpp:150] Setting up rpn-data
I0417 04:06:29.459908  3298 net.cpp:157] Top shape: 1 1 3552 1 1 (3552)
I0417 04:06:29.459914  3298 net.cpp:157] Top shape: 1 74 96 1 1 (7104)
I0417 04:06:29.459921  3298 net.cpp:157] Top shape: 1 74 96 1 1 (7104)
I0417 04:06:29.459928  3298 net.cpp:157] Top shape: 1 74 96 1 1 (7104)
I0417 04:06:29.459933  3298 net.cpp:165] Memory required for data: 10172489532
I0417 04:06:29.459939  3298 layer_factory.hpp:77] Creating layer rpn_labels_rpn-data_0_split
I0417 04:06:29.459947  3298 net.cpp:100] Creating Layer rpn_labels_rpn-data_0_split
I0417 04:06:29.459954  3298 net.cpp:434] rpn_labels_rpn-data_0_split <- rpn_labels
I0417 04:06:29.459962  3298 net.cpp:408] rpn_labels_rpn-data_0_split -> rpn_labels_rpn-data_0_split_0
I0417 04:06:29.459973  3298 net.cpp:408] rpn_labels_rpn-data_0_split -> rpn_labels_rpn-data_0_split_1
I0417 04:06:29.460022  3298 net.cpp:150] Setting up rpn_labels_rpn-data_0_split
I0417 04:06:29.460032  3298 net.cpp:157] Top shape: 1 1 3552 1 1 (3552)
I0417 04:06:29.460038  3298 net.cpp:157] Top shape: 1 1 3552 1 1 (3552)
I0417 04:06:29.460043  3298 net.cpp:165] Memory required for data: 10172517948
I0417 04:06:29.460049  3298 layer_factory.hpp:77] Creating layer rpn_loss_cls
I0417 04:06:29.460062  3298 net.cpp:100] Creating Layer rpn_loss_cls
I0417 04:06:29.460069  3298 net.cpp:434] rpn_loss_cls <- rpn_cls_score_reshape_rpn_cls_score_reshape_0_split_0
I0417 04:06:29.460078  3298 net.cpp:434] rpn_loss_cls <- rpn_labels_rpn-data_0_split_0
…
I0417 04:06:29.460443  3298 layer_factory.hpp:77] Creating layer rpn_accuarcy
I0417 04:06:29.460456  3298 net.cpp:100] Creating Layer rpn_accuarcy
I0417 04:06:29.460465  3298 net.cpp:434] rpn_accuarcy <- rpn_cls_score_reshape_rpn_cls_score_reshape_0_split_1
I0417 04:06:29.460472  3298 net.cpp:434] rpn_accuarcy <- rpn_labels_rpn-data_0_split_1
I0417 04:06:29.460480  3298 net.cpp:408] rpn_accuarcy -> rpn_accuarcy
I0417 04:06:29.460491  3298 net.cpp:408] rpn_accuarcy -> rpn_accuarcy_class
I0417 04:06:29.460543  3298 net.cpp:150] Setting up rpn_accuarcy
I0417 04:06:29.460553  3298 net.cpp:157] Top shape: (1)
I0417 04:06:29.460559  3298 net.cpp:157] Top shape: 2 (2)
I0417 04:06:29.460564  3298 net.cpp:165] Memory required for data: 10172517968
I0417 04:06:29.460569  3298 layer_factory.hpp:77] Creating layer rpn_cls_prob
I0417 04:06:29.460579  3298 net.cpp:100] Creating Layer rpn_cls_prob
I0417 04:06:29.460585  3298 net.cpp:434] rpn_cls_prob <- rpn_cls_score_reshape_rpn_cls_score_reshape_0_split_2
I0417 04:06:29.460593  3298 net.cpp:408] rpn_cls_prob -> rpn_cls_prob
I0417 04:06:29.460671  3298 net.cpp:150] Setting up rpn_cls_prob
I0417 04:06:29.460681  3298 net.cpp:157] Top shape: 1 2 3552 1 1 (7104)
I0417 04:06:29.460686  3298 net.cpp:165] Memory required for data: 10172546384
I0417 04:06:29.460691  3298 layer_factory.hpp:77] Creating layer rpn_cls_prob_reshape
I0417 04:06:29.460702  3298 net.cpp:100] Creating Layer rpn_cls_prob_reshape
I0417 04:06:29.460708  3298 net.cpp:434] rpn_cls_prob_reshape <- rpn_cls_prob
I0417 04:06:29.460716  3298 net.cpp:408] rpn_cls_prob_reshape -> rpn_cls_prob_reshape
I0417 04:06:29.460753  3298 net.cpp:150] Setting up rpn_cls_prob_reshape
I0417 04:06:29.460763  3298 net.cpp:157] Top shape: 1 74 96 1 1 (7104)
I0417 04:06:29.460768  3298 net.cpp:165] Memory required for data: 10172574800
I0417 04:06:29.460773  3298 layer_factory.hpp:77] Creating layer proposal
I0417 04:06:29.461320  3298 net.cpp:100] Creating Layer proposal
I0417 04:06:29.461333  3298 net.cpp:434] proposal <- rpn_cls_prob_reshape
I0417 04:06:29.461341  3298 net.cpp:434] proposal <- rpn_twin_pred_rpn_twin_pred_0_split_1
I0417 04:06:29.461350  3298 net.cpp:408] proposal -> rpn_rois
I0417 04:06:29.463549  3298 net.cpp:150] Setting up proposal
I0417 04:06:29.463565  3298 net.cpp:157] Top shape: 1 3 (3)
I0417 04:06:29.463572  3298 net.cpp:165] Memory required for data: 10172574812
I0417 04:06:29.463577  3298 layer_factory.hpp:77] Creating layer roi-data
I0417 04:06:29.463714  3298 net.cpp:100] Creating Layer roi-data
I0417 04:06:29.463726  3298 net.cpp:434] roi-data <- rpn_rois
I0417 04:06:29.463733  3298 net.cpp:434] roi-data <- gt_boxes_data_1_split_1
I0417 04:06:29.463743  3298 net.cpp:408] roi-data -> rois
I0417 04:06:29.463754  3298 net.cpp:408] roi-data -> labels
I0417 04:06:29.463764  3298 net.cpp:408] roi-data -> twin_targets
I0417 04:06:29.463775  3298 net.cpp:408] roi-data -> twin_inside_weights
I0417 04:06:29.463785  3298 net.cpp:408] roi-data -> twin_outside_weights
I0417 04:06:29.464114  3298 net.cpp:150] Setting up roi-data
I0417 04:06:29.464129  3298 net.cpp:157] Top shape: 1 3 (3)
I0417 04:06:29.464135  3298 net.cpp:157] Top shape: 1 1 (1)
I0417 04:06:29.464143  3298 net.cpp:157] Top shape: 1 402 (402)
I0417 04:06:29.464148  3298 net.cpp:157] Top shape: 1 402 (402)
I0417 04:06:29.464154  3298 net.cpp:157] Top shape: 1 402 (402)
I0417 04:06:29.464160  3298 net.cpp:165] Memory required for data: 10172579652
I0417 04:06:29.464165  3298 layer_factory.hpp:77] Creating layer labels_roi-data_1_split
I0417 04:06:29.464174  3298 net.cpp:100] Creating Layer labels_roi-data_1_split
I0417 04:06:29.464180  3298 net.cpp:434] labels_roi-data_1_split <- labels
I0417 04:06:29.464188  3298 net.cpp:408] labels_roi-data_1_split -> labels_roi-data_1_split_0
I0417 04:06:29.464198  3298 net.cpp:408] labels_roi-data_1_split -> labels_roi-data_1_split_1
I0417 04:06:29.464251  3298 net.cpp:150] Setting up labels_roi-data_1_split
I0417 04:06:29.464259  3298 net.cpp:157] Top shape: 1 1 (1)
I0417 04:06:29.464265  3298 net.cpp:157] Top shape: 1 1 (1)
I0417 04:06:29.464272  3298 net.cpp:165] Memory required for data: 10172579660
I0417 04:06:29.464279  3298 layer_factory.hpp:77] Creating layer roi_pool5
I0417 04:06:29.464292  3298 net.cpp:100] Creating Layer roi_pool5
I0417 04:06:29.464298  3298 net.cpp:434] roi_pool5 <- conv5b_relu5b_0_split_1
I0417 04:06:29.464305  3298 net.cpp:434] roi_pool5 <- rois
I0417 04:06:29.464316  3298 net.cpp:408] roi_pool5 -> pool5
I0417 04:06:29.464329  3298 roi_pooling_layer.cpp:34] Temporal scale: 0.125
I0417 04:06:29.464339  3298 roi_pooling_layer.cpp:35] Spatial scale: 0.0625
I0417 04:06:29.464390  3298 net.cpp:150] Setting up roi_pool5
I0417 04:06:29.464401  3298 net.cpp:157] Top shape: 1 512 1 4 4 (8192)
I0417 04:06:29.464406  3298 net.cpp:165] Memory required for data: 10172612428
I0417 04:06:29.464411  3298 layer_factory.hpp:77] Creating layer fc6
I0417 04:06:29.464422  3298 net.cpp:100] Creating Layer fc6
I0417 04:06:29.464429  3298 net.cpp:434] fc6 <- pool5
I0417 04:06:29.464442  3298 net.cpp:408] fc6 -> fc6
I0417 04:06:30.344336  3298 net.cpp:150] Setting up fc6
I0417 04:06:30.344362  3298 net.cpp:157] Top shape: 1 4096 (4096)
I0417 04:06:30.344368  3298 net.cpp:165] Memory required for data: 10172628812
I0417 04:06:30.344382  3298 layer_factory.hpp:77] Creating layer relu6
I0417 04:06:30.344394  3298 net.cpp:100] Creating Layer relu6
I0417 04:06:30.344403  3298 net.cpp:434] relu6 <- fc6
I0417 04:06:30.344413  3298 net.cpp:395] relu6 -> fc6 (in-place)
I0417 04:06:30.344424  3298 net.cpp:150] Setting up relu6
I0417 04:06:30.344434  3298 net.cpp:157] Top shape: 1 4096 (4096)
I0417 04:06:30.344439  3298 net.cpp:165] Memory required for data: 10172645196
I0417 04:06:30.344444  3298 layer_factory.hpp:77] Creating layer drop6
I0417 04:06:30.344461  3298 net.cpp:100] Creating Layer drop6
I0417 04:06:30.344471  3298 net.cpp:434] drop6 <- fc6
I0417 04:06:30.344478  3298 net.cpp:395] drop6 -> fc6 (in-place)
I0417 04:06:30.344521  3298 net.cpp:150] Setting up drop6
I0417 04:06:30.344530  3298 net.cpp:157] Top shape: 1 4096 (4096)
I0417 04:06:30.344537  3298 net.cpp:165] Memory required for data: 10172661580
I0417 04:06:30.344542  3298 layer_factory.hpp:77] Creating layer fc6_drop6_0_split
I0417 04:06:30.344550  3298 net.cpp:100] Creating Layer fc6_drop6_0_split
I0417 04:06:30.344555  3298 net.cpp:434] fc6_drop6_0_split <- fc6
I0417 04:06:30.344566  3298 net.cpp:408] fc6_drop6_0_split -> fc6_drop6_0_split_0
I0417 04:06:30.344576  3298 net.cpp:408] fc6_drop6_0_split -> fc6_drop6_0_split_1
I0417 04:06:30.344630  3298 net.cpp:150] Setting up fc6_drop6_0_split
I0417 04:06:30.344640  3298 net.cpp:157] Top shape: 1 4096 (4096)
I0417 04:06:30.344646  3298 net.cpp:157] Top shape: 1 4096 (4096)
I0417 04:06:30.344651  3298 net.cpp:165] Memory required for data: 10172694348
I0417 04:06:30.344656  3298 layer_factory.hpp:77] Creating layer cls_score
I0417 04:06:30.344668  3298 net.cpp:100] Creating Layer cls_score
I0417 04:06:30.344679  3298 net.cpp:434] cls_score <- fc6_drop6_0_split_0
I0417 04:06:30.344689  3298 net.cpp:408] cls_score -> cls_score
I0417 04:06:30.366492  3298 net.cpp:150] Setting up cls_score
I0417 04:06:30.366510  3298 net.cpp:157] Top shape: 1 201 (201)
I0417 04:06:30.366515  3298 net.cpp:165] Memory required for data: 10172695152
I0417 04:06:30.366526  3298 layer_factory.hpp:77] Creating layer cls_score_cls_score_0_split
I0417 04:06:30.366539  3298 net.cpp:100] Creating Layer cls_score_cls_score_0_split
I0417 04:06:30.366544  3298 net.cpp:434] cls_score_cls_score_0_split <- cls_score
I0417 04:06:30.366554  3298 net.cpp:408] cls_score_cls_score_0_split -> cls_score_cls_score_0_split_0
I0417 04:06:30.366565  3298 net.cpp:408] cls_score_cls_score_0_split -> cls_score_cls_score_0_split_1
I0417 04:06:30.366621  3298 net.cpp:150] Setting up cls_score_cls_score_0_split
I0417 04:06:30.366631  3298 net.cpp:157] Top shape: 1 201 (201)
I0417 04:06:30.366637  3298 net.cpp:157] Top shape: 1 201 (201)
I0417 04:06:30.366642  3298 net.cpp:165] Memory required for data: 10172696760
I0417 04:06:30.366648  3298 layer_factory.hpp:77] Creating layer twin_pred
I0417 04:06:30.366659  3298 net.cpp:100] Creating Layer twin_pred
I0417 04:06:30.366669  3298 net.cpp:434] twin_pred <- fc6_drop6_0_split_1
I0417 04:06:30.366681  3298 net.cpp:408] twin_pred -> twin_pred
I0417 04:06:30.409955  3298 net.cpp:150] Setting up twin_pred
I0417 04:06:30.409981  3298 net.cpp:157] Top shape: 1 402 (402)
I0417 04:06:30.409986  3298 net.cpp:165] Memory required for data: 10172698368
I0417 04:06:30.409998  3298 layer_factory.hpp:77] Creating layer loss_cls
I0417 04:06:30.410012  3298 net.cpp:100] Creating Layer loss_cls
I0417 04:06:30.410020  3298 net.cpp:434] loss_cls <- cls_score_cls_score_0_split_0
I0417 04:06:30.410030  3298 net.cpp:434] loss_cls <- labels_roi-data_1_split_0
I0417 04:06:30.410043  3298 net.cpp:408] loss_cls -> loss_cls
…
