…
stepsize: 350000
snapshot: 0
snapshot_prefix: "./experiments/activitynet/snapshot/activitynet"
average_loss: 100
iter_size: 1
I0418 00:42:59.252926  3309 solver.cpp:81] Creating training net from train_net file: ./experiments/activitynet/train.prototxt
I0418 00:42:59.254031  3309 net.cpp:58] Initializing net from parameters: 
name: "activitynet"
state {
  phase: TRAIN
}
layer {
  name: "data"
  type: "Python"
  top: "data"
  top: "gt_boxes"
  python_param {
    module: "roi_data_layer.layer"
    layer: "RoIDataLayer"
    param_str: "\'num_classes\': 100"
  }
}
layer {
  name: "conv1a"
  type: "Convolution"
  bottom: "data"
  top: "conv1a"
  param {
    lr_mult: 0
    decay_mult: 0
  }
  param {
    lr_mult: 0
    decay_mult: 0
  }
  convolution_param {
    num_output: 64
    pad: 1
    pad: 1
    pad: 1
    kernel_size: 3
    kernel_size: 3
    kernel_size: 3
    weight_filler {
      type: "gaussian"
      std: 0.01
    }
    bias_filler {
      type: "constant"
      value: 0
    }
  }
}
layer {
  name: "relu1a"
  type: "ReLU"
  bottom: "conv1a"
  top: "conv1a"
}
layer {
  name: "pool1"
  type: "Pooling"
  bottom: "conv1a"
  top: "pool1"
  pooling_param {
    pool: MAX
    kernel_size: 1
    kernel_size: 2
    kernel_size: 2
    stride: 1
    stride: 2
    stride: 2
  }
}
layer {
  name: "conv2a"
  type: "Convolution"
  bottom: "pool1"
  top: "conv2a"
  param {
    lr_mult: 0
    decay_mult: 0
  }
  param {
    lr_mult: 0
    decay_mult: 0
  }
  convolution_param {
    num_output: 128
    pad: 1
    pad: 1
    pad: 1
    kernel_size: 3
    kernel_size: 3
    kernel_size: 3
    weight_filler {
      type: "gaussian"
      std: 0.01
    }
    bias_filler {
      type: "constant"
      value: 1
    }
  }
}
layer {
  name: "relu2a"
  type: "ReLU"
  bottom: "conv2a"
  top: "conv2a"
}
layer {
  name: "pool2"
  type: "Pooling"
  bottom: "conv2a"
  top: "pool2"
  pooling_param {
    pool: MAX
    kernel_size: 2
    kernel_size: 2
    kernel_size: 2
    stride: 2
    stride: 2
    stride: 2
  }
}
layer {
  name: "conv3a"
  type: "Convolution"
  bottom: "pool2"
  top: "conv3a"
  param {
    lr_mult: 1
    decay_mult: 1
  }
  param {
    lr_mult: 2
    decay_mult: 0
  }
  convolution_param {
    num_output: 256
    pad: 1
    pad: 1
    pad: 1
    kernel_size: 3
    kernel_size: 3
    kernel_size: 3
    weight_filler {
      type: "gaussian"
      std: 0.01
    }
    bias_filler {
      type: "constant"
      value: 1
    }
  }
}
layer {
  name: "relu3a"
  type: "ReLU"
  bottom: "conv3a"
  top: "conv3a"
}
layer {
  name: "conv3b"
  type: "Convolution"
  bottom: "conv3a"
  top: "conv3b"
  param {
    lr_mult: 1
    decay_mult: 1
  }
  param {
    lr_mult: 2
    decay_mult: 0
  }
  convolution_param {
    num_output: 256
    pad: 1
    pad: 1
    pad: 1
    kernel_size: 3
    kernel_size: 3
    kernel_size: 3
    weight_filler {
      type: "gaussian"
      std: 0.01
    }
    bias_filler {
      type: "constant"
      value: 1
    }
  }
}
layer {
  name: "relu3b"
  type: "ReLU"
  bottom: "conv3b"
  top: "conv3b"
}
layer {
  name: "pool3"
  type: "Pooling"
  bottom: "conv3b"
  top: "pool3"
  pooling_param {
    pool: MAX
    kernel_size: 2
    kernel_size: 2
    kernel_size: 2
    stride: 2
    stride: 2
    stride: 2
  }
}
layer {
  name: "conv4a"
  type: "Convolution"
  bottom: "pool3"
  top: "conv4a"
  param {
    lr_mult: 1
    decay_mult: 1
  }
  param {
    lr_mult: 2
    decay_mult: 0
  }
  convolution_param {
    num_output: 512
    pad: 1
    pad: 1
    pad: 1
    kernel_size: 3
    kernel_size: 3
    kernel_size: 3
    weight_filler {
      type: "gaussian"
      std: 0.01
    }
    bias_filler {
      type: "constant"
      value: 1
    }
  }
}
layer {
  name: "relu4a"
  type: "ReLU"
  bottom: "conv4a"
  top: "conv4a"
}
layer {
  name: "conv4b"
  type: "Convolution"
  bottom: "conv4a"
  top: "conv4b"
  param {
    lr_mult: 1
    decay_mult: 1
  }
  param {
    lr_mult: 2
    decay_mult: 0
  }
  convolution_param {
    num_output: 512
    pad: 1
    pad: 1
    pad: 1
    kernel_size: 3
    kernel_size: 3
    kernel_size: 3
    weight_filler {
      type: "gaussian"
      std: 0.01
    }
    bias_filler {
      type: "constant"
      value: 1
    }
  }
}
layer {
  name: "relu4b"
  type: "ReLU"
  bottom: "conv4b"
  top: "conv4b"
}
layer {
  name: "pool4"
  type: "Pooling"
  bottom: "conv4b"
  top: "pool4"
  pooling_param {
    pool: MAX
    kernel_size: 2
    kernel_size: 2
    kernel_size: 2
    stride: 2
    stride: 2
    stride: 2
  }
}
layer {
  name: "conv5a"
  type: "Convolution"
  bottom: "pool4"
  top: "conv5a"
  param {
    lr_mult: 1
    decay_mult: 1
  }
  param {
    lr_mult: 2
    decay_mult: 0
  }
  convolution_param {
    num_output: 512
    pad: 1
    pad: 1
    pad: 1
    kernel_size: 3
    kernel_size: 3
    kernel_size: 3
    weight_filler {
      type: "gaussian"
      std: 0.01
    }
    bias_filler {
      type: "constant"
      value: 1
    }
  }
}
layer {
  name: "relu5a"
  type: "ReLU"
  bottom: "conv5a"
  top: "conv5a"
}
layer {
  name: "conv5b"
  type: "Convolution"
  bottom: "conv5a"
  top: "conv5b"
  param {
    lr_mult: 1
    decay_mult: 1
  }
  param {
    lr_mult: 2
    decay_mult: 0
  }
  convolution_param {
    num_output: 512
    pad: 1
    pad: 1
    pad: 1
    kernel_size: 3
    kernel_size: 3
    kernel_size: 3
    weight_filler {
      type: "gaussian"
      std: 0.01
    }
    bias_filler {
      type: "constant"
      value: 1
    }
  }
}
layer {
  name: "relu5b"
  type: "ReLU"
  bottom: "conv5b"
  top: "conv5b"
}
layer {
  name: "rpn_conv/3x3"
  type: "Convolution"
  bottom: "conv5b"
  top: "rpn/output"
  param {
    lr_mult: 1
    decay_mult: 1
  }
  param {
    lr_mult: 2
    decay_mult: 0
  }
  convolution_param {
    num_output: 512
    pad: 1
    pad: 1
    pad: 1
    kernel_size: 3
    kernel_size: 3
    kernel_size: 3
    stride: 1
    stride: 2
    stride: 2
    weight_filler {
      type: "gaussian"
      std: 0.01
    }
    bias_filler {
      type: "constant"
      value: 0
    }
  }
}
layer {
  name: "rpn_relu/3x3"
  type: "ReLU"
  bottom: "rpn/output"
  top: "rpn/output"
}
layer {
  name: "rpn_conv/3x3_2"
  type: "Convolution"
  bottom: "rpn/output"
  top: "rpn/output_2"
  param {
    lr_mult: 1
    decay_mult: 1
  }
  param {
    lr_mult: 2
    decay_mult: 0
  }
  convolution_param {
    num_output: 512
    pad: 1
    pad: 1
    pad: 1
    kernel_size: 3
    kernel_size: 3
    kernel_size: 3
    stride: 1
    stride: 2
    stride: 2
    weight_filler {
      type: "gaussian"
      std: 0.01
    }
    bias_filler {
      type: "constant"
      value: 0
    }
  }
}
layer {
  name: "rpn_relu/3x3_2"
  type: "ReLU"
  bottom: "rpn/output_2"
  top: "rpn/output_2"
}
layer {
  name: "rpn/output_pool"
  type: "Pooling"
  bottom: "rpn/output_2"
  top: "rpn/output_pool"
  pooling_param {
    pool: MAX
    kernel_size: 1
    kernel_size: 2
    kernel_size: 2
  }
}
layer {
  name: "rpn_cls_score"
  type: "Convolution"
  bottom: "rpn/output_pool"
  top: "rpn_cls_score"
  param {
    lr_mult: 1
    decay_mult: 1
  }
  param {
    lr_mult: 2
    decay_mult: 0
  }
  convolution_param {
    num_output: 74
    kernel_size: 1
    kernel_size: 1
    kernel_size: 1
    weight_filler {
      type: "gaussian"
      std: 0.01
    }
    bias_filler {
      type: "constant"
      value: 0
    }
  }
}
layer {
  name: "rpn_twin_pred"
  type: "Convolution"
  bottom: "rpn/output_pool"
  top: "rpn_twin_pred"
  param {
    lr_mult: 1
    decay_mult: 1
  }
  param {
    lr_mult: 2
    decay_mult: 0
  }
  convolution_param {
    num_output: 74
    kernel_size: 1
    kernel_size: 1
    kernel_size: 1
    weight_filler {
      type: "gaussian"
      std: 0.01
    }
    bias_filler {
      type: "constant"
      value: 0
    }
  }
}
layer {
  name: "rpn_cls_score_reshape"
  type: "Reshape"
  bottom: "rpn_cls_score"
  top: "rpn_cls_score_reshape"
  reshape_param {
    shape {
      dim: 0
      dim: 2
      dim: -1
      dim: 0
      dim: 0
    }
  }
}
layer {
  name: "rpn-data"
  type: "Python"
  bottom: "rpn_cls_score"
  bottom: "gt_boxes"
  bottom: "data"
  top: "rpn_labels"
  top: "rpn_twin_targets"
  top: "rpn_twin_inside_weights"
  top: "rpn_twin_outside_weights"
  python_param {
    module: "rpn.anchor_target_layer"
    layer: "AnchorTargetLayer"
    param_str: "\'feat_stride\': 8 \n\'scales\': !!python/tuple [1,1.25, 1.5,1.75, 2,2.5, 3,3.5, 4,4.5, 5,5.5, 6,7, 8,9,10,11,12,14,16,18,20,22,24,28,32,36,40,44,52,60,68,76,84,92,100]"
  }
}
layer {
  name: "rpn_loss_cls"
  type: "SoftmaxWithLoss"
  bottom: "rpn_cls_score_reshape"
  bottom: "rpn_labels"
  top: "rpn_cls_loss"
  loss_weight: 1
  propagate_down: true
  propagate_down: false
  loss_param {
    ignore_label: -1
    normalize: true
  }
}
layer {
  name: "rpn_loss_twin"
  type: "SmoothL1Loss"
  bottom: "rpn_twin_pred"
  bottom: "rpn_twin_targets"
  bottom: "rpn_twin_inside_weights"
  bottom: "rpn_twin_outside_weights"
  top: "rpn_loss_twin"
  loss_weight: 1
  smooth_l1_loss_param {
    sigma: 3
  }
}
layer {
  name: "rpn_accuarcy"
  type: "Accuracy"
  bottom: "rpn_cls_score_reshape"
  bottom: "rpn_labels"
  top: "rpn_accuarcy"
  top: "rpn_accuarcy_class"
  propagate_down: false
  propagate_down: false
  accuracy_param {
    ignore_label: -1
  }
}
layer {
  name: "rpn_cls_prob"
  type: "Softmax"
  bottom: "rpn_cls_score_reshape"
  top: "rpn_cls_prob"
}
layer {
  name: "rpn_cls_prob_reshape"
  type: "Reshape"
  bottom: "rpn_cls_prob"
  top: "rpn_cls_prob_reshape"
  reshape_param {
    shape {
      dim: 0
      dim: 74
      dim: -1
      dim: 0
      dim: 0
    }
  }
}
layer {
  name: "proposal"
  type: "Python"
  bottom: "rpn_cls_prob_reshape"
  bottom: "rpn_twin_pred"
  top: "rpn_rois"
  include {
    phase: TRAIN
  }
  python_param {
    module: "rpn.proposal_layer"
    layer: "ProposalLayer"
    param_str: "\'feat_stride\': 8 \n\'scales\': !!python/tuple [1,1.25, 1.5,1.75, 2,2.5, 3,3.5, 4,4.5, 5,5.5, 6,7, 8,9,10,11,12,14,16,18,20,22,24,28,32,36,40,44,52,60,68,76,84,92,100]"
  }
}
layer {
  name: "roi-data"
  type: "Python"
  bottom: "rpn_rois"
  bottom: "gt_boxes"
  top: "rois"
  top: "labels"
  top: "twin_targets"
  top: "twin_inside_weights"
  top: "twin_outside_weights"
  python_param {
    module: "rpn.proposal_target_layer"
    layer: "ProposalTargetLayer"
    param_str: "\'num_classes\': 201"
  }
}
layer {
  name: "roi_pool5"
  type: "ROIPooling"
  bottom: "conv5b"
  bottom: "rois"
  top: "pool5"
  roi_pooling_param {
    pooled_h: 4
    pooled_w: 4
    spatial_scale: 0.0625
    pooled_l: 1
    temporal_scale: 0.125
  }
}
layer {
  name: "fc6"
  type: "InnerProduct"
  bottom: "pool5"
  top: "fc6"
  param {
    lr_mult: 1
    decay_mult: 1
  }
  param {
    lr_mult: 2
    decay_mult: 0
  }
  inner_product_param {
    num_output: 4096
    weight_filler {
      type: "gaussian"
      std: 0.005
    }
    bias_filler {
      type: "constant"
      value: 1
    }
  }
}
layer {
  name: "relu6"
  type: "ReLU"
  bottom: "fc6"
  top: "fc6"
}
layer {
  name: "drop6"
  type: "Dropout"
  bottom: "fc6"
  top: "fc6"
  dropout_param {
    dropout_ratio: 0.5
  }
}
layer {
  name: "cls_score"
  type: "InnerProduct"
  bottom: "fc6"
  top: "cls_score"
  param {
    lr_mult: 1
    decay_mult: 1
  }
  param {
    lr_mult: 2
    decay_mult: 0
  }
  inner_product_param {
    num_output: 201
    weight_filler {
      type: "gaussian"
      std: 0.01
    }
    bias_filler {
      type: "constant"
      value: 0
    }
  }
}
layer {
  name: "twin_pred"
  type: "InnerProduct"
  bottom: "fc6"
  top: "twin_pred"
  param {
    lr_mult: 1
    decay_mult: 1
  }
  param {
    lr_mult: 2
    decay_mult: 0
  }
  inner_product_param {
    num_output: 402
    weight_filler {
      type: "gaussian"
      std: 0.001
    }
    bias_filler {
      type: "constant"
      value: 0
    }
  }
}
layer {
  name: "loss_cls"
  type: "SoftmaxWithLoss"
  bottom: "cls_score"
  bottom: "labels"
  top: "loss_cls"
  loss_weight: 1
  propagate_down: true
  propagate_down: false
}
layer {
  name: "loss_twin"
  type: "SmoothL1Loss"
  bottom: "twin_pred"
  bottom: "twin_targets"
  bottom: "twin_inside_weights"
  bottom: "twin_outside_weights"
  top: "loss_twin"
  loss_weight: 1
}
layer {
  name: "accuarcy"
  type: "Accuracy"
  bottom: "cls_score"
  bottom: "labels"
  top: "accuarcy"
  propagate_down: false
  propagate_down: false
  accuracy_param {
    ignore_label: -1
  }
}
I0418 00:42:59.254250  3309 layer_factory.hpp:77] Creating layer data
I0418 00:42:59.280845  3309 net.cpp:100] Creating Layer data
I0418 00:42:59.280869  3309 net.cpp:408] data -> data
I0418 00:42:59.280882  3309 net.cpp:408] data -> gt_boxes
setting up
has rpn
RoiDataLayer: name_to_top: {'gt_windows': 1, 'data': 0}
I0418 00:42:59.304842  3309 net.cpp:150] Setting up data
I0418 00:42:59.304867  3309 net.cpp:157] Top shape: 1 3 768 112 112 (28901376)
I0418 00:42:59.304872  3309 net.cpp:157] Top shape: 1 101 (101)
I0418 00:42:59.304877  3309 net.cpp:165] Memory required for data: 115605908
I0418 00:42:59.304883  3309 layer_factory.hpp:77] Creating layer data_data_0_split
I0418 00:42:59.304896  3309 net.cpp:100] Creating Layer data_data_0_split
I0418 00:42:59.304900  3309 net.cpp:434] data_data_0_split <- data
I0418 00:42:59.304908  3309 net.cpp:408] data_data_0_split -> data_data_0_split_0
I0418 00:42:59.304916  3309 net.cpp:408] data_data_0_split -> data_data_0_split_1
I0418 00:42:59.304949  3309 net.cpp:150] Setting up data_data_0_split
I0418 00:42:59.304955  3309 net.cpp:157] Top shape: 1 3 768 112 112 (28901376)
I0418 00:42:59.304960  3309 net.cpp:157] Top shape: 1 3 768 112 112 (28901376)
I0418 00:42:59.304962  3309 net.cpp:165] Memory required for data: 346816916
I0418 00:42:59.304965  3309 layer_factory.hpp:77] Creating layer gt_boxes_data_1_split
I0418 00:42:59.304972  3309 net.cpp:100] Creating Layer gt_boxes_data_1_split
I0418 00:42:59.304975  3309 net.cpp:434] gt_boxes_data_1_split <- gt_boxes
I0418 00:42:59.304980  3309 net.cpp:408] gt_boxes_data_1_split -> gt_boxes_data_1_split_0
I0418 00:42:59.304986  3309 net.cpp:408] gt_boxes_data_1_split -> gt_boxes_data_1_split_1
I0418 00:42:59.305009  3309 net.cpp:150] Setting up gt_boxes_data_1_split
I0418 00:42:59.305014  3309 net.cpp:157] Top shape: 1 101 (101)
I0418 00:42:59.305018  3309 net.cpp:157] Top shape: 1 101 (101)
I0418 00:42:59.305022  3309 net.cpp:165] Memory required for data: 346817724
I0418 00:42:59.305024  3309 layer_factory.hpp:77] Creating layer conv1a
I0418 00:42:59.305039  3309 net.cpp:100] Creating Layer conv1a
I0418 00:42:59.305043  3309 net.cpp:434] conv1a <- data_data_0_split_0
I0418 00:42:59.305049  3309 net.cpp:408] conv1a -> conv1a
I0418 00:42:59.584281  3309 net.cpp:150] Setting up conv1a
I0418 00:42:59.584311  3309 net.cpp:157] Top shape: 1 64 768 112 112 (616562688)
I0418 00:42:59.584314  3309 net.cpp:165] Memory required for data: 2813068476
I0418 00:42:59.584333  3309 layer_factory.hpp:77] Creating layer relu1a
I0418 00:42:59.584349  3309 net.cpp:100] Creating Layer relu1a
I0418 00:42:59.584354  3309 net.cpp:434] relu1a <- conv1a
I0418 00:42:59.584363  3309 net.cpp:395] relu1a -> conv1a (in-place)
I0418 00:42:59.585072  3309 net.cpp:150] Setting up relu1a
I0418 00:42:59.585085  3309 net.cpp:157] Top shape: 1 64 768 112 112 (616562688)
I0418 00:42:59.585089  3309 net.cpp:165] Memory required for data: 5279319228
I0418 00:42:59.585094  3309 layer_factory.hpp:77] Creating layer pool1
I0418 00:42:59.585105  3309 net.cpp:100] Creating Layer pool1
I0418 00:42:59.585109  3309 net.cpp:434] pool1 <- conv1a
I0418 00:42:59.585114  3309 net.cpp:408] pool1 -> pool1
I0418 00:42:59.589459  3309 net.cpp:150] Setting up pool1
I0418 00:42:59.589473  3309 net.cpp:157] Top shape: 1 64 768 56 56 (154140672)
I0418 00:42:59.589479  3309 net.cpp:165] Memory required for data: 5895881916
I0418 00:42:59.589483  3309 layer_factory.hpp:77] Creating layer conv2a
I0418 00:42:59.589498  3309 net.cpp:100] Creating Layer conv2a
I0418 00:42:59.589501  3309 net.cpp:434] conv2a <- pool1
I0418 00:42:59.589509  3309 net.cpp:408] conv2a -> conv2a
I0418 00:42:59.602401  3309 net.cpp:150] Setting up conv2a
I0418 00:42:59.602427  3309 net.cpp:157] Top shape: 1 128 768 56 56 (308281344)
I0418 00:42:59.602430  3309 net.cpp:165] Memory required for data: 7129007292
I0418 00:42:59.602442  3309 layer_factory.hpp:77] Creating layer relu2a
I0418 00:42:59.602453  3309 net.cpp:100] Creating Layer relu2a
I0418 00:42:59.602458  3309 net.cpp:434] relu2a <- conv2a
I0418 00:42:59.602465  3309 net.cpp:395] relu2a -> conv2a (in-place)
I0418 00:42:59.602866  3309 net.cpp:150] Setting up relu2a
I0418 00:42:59.602880  3309 net.cpp:157] Top shape: 1 128 768 56 56 (308281344)
I0418 00:42:59.602885  3309 net.cpp:165] Memory required for data: 8362132668
I0418 00:42:59.602888  3309 layer_factory.hpp:77] Creating layer pool2
I0418 00:42:59.602900  3309 net.cpp:100] Creating Layer pool2
I0418 00:42:59.602908  3309 net.cpp:434] pool2 <- conv2a
I0418 00:42:59.602916  3309 net.cpp:408] pool2 -> pool2
I0418 00:42:59.603629  3309 net.cpp:150] Setting up pool2
I0418 00:42:59.603641  3309 net.cpp:157] Top shape: 1 128 384 28 28 (38535168)
I0418 00:42:59.603649  3309 net.cpp:165] Memory required for data: 8516273340
I0418 00:42:59.603652  3309 layer_factory.hpp:77] Creating layer conv3a
I0418 00:42:59.603667  3309 net.cpp:100] Creating Layer conv3a
I0418 00:42:59.603669  3309 net.cpp:434] conv3a <- pool2
I0418 00:42:59.603677  3309 net.cpp:408] conv3a -> conv3a
I0418 00:42:59.629987  3309 net.cpp:150] Setting up conv3a
I0418 00:42:59.630007  3309 net.cpp:157] Top shape: 1 256 384 28 28 (77070336)
I0418 00:42:59.630012  3309 net.cpp:165] Memory required for data: 8824554684
I0418 00:42:59.630023  3309 layer_factory.hpp:77] Creating layer relu3a
I0418 00:42:59.630031  3309 net.cpp:100] Creating Layer relu3a
I0418 00:42:59.630035  3309 net.cpp:434] relu3a <- conv3a
I0418 00:42:59.630043  3309 net.cpp:395] relu3a -> conv3a (in-place)
I0418 00:42:59.630375  3309 net.cpp:150] Setting up relu3a
I0418 00:42:59.630389  3309 net.cpp:157] Top shape: 1 256 384 28 28 (77070336)
I0418 00:42:59.630393  3309 net.cpp:165] Memory required for data: 9132836028
I0418 00:42:59.630398  3309 layer_factory.hpp:77] Creating layer conv3b
I0418 00:42:59.630409  3309 net.cpp:100] Creating Layer conv3b
I0418 00:42:59.630411  3309 net.cpp:434] conv3b <- conv3a
I0418 00:42:59.630419  3309 net.cpp:408] conv3b -> conv3b
I0418 00:42:59.682024  3309 net.cpp:150] Setting up conv3b
I0418 00:42:59.682051  3309 net.cpp:157] Top shape: 1 256 384 28 28 (77070336)
I0418 00:42:59.682055  3309 net.cpp:165] Memory required for data: 9441117372
I0418 00:42:59.682065  3309 layer_factory.hpp:77] Creating layer relu3b
I0418 00:42:59.682075  3309 net.cpp:100] Creating Layer relu3b
I0418 00:42:59.682080  3309 net.cpp:434] relu3b <- conv3b
I0418 00:42:59.682088  3309 net.cpp:395] relu3b -> conv3b (in-place)
I0418 00:42:59.682477  3309 net.cpp:150] Setting up relu3b
I0418 00:42:59.682492  3309 net.cpp:157] Top shape: 1 256 384 28 28 (77070336)
I0418 00:42:59.682495  3309 net.cpp:165] Memory required for data: 9749398716
I0418 00:42:59.682499  3309 layer_factory.hpp:77] Creating layer pool3
I0418 00:42:59.682507  3309 net.cpp:100] Creating Layer pool3
I0418 00:42:59.682513  3309 net.cpp:434] pool3 <- conv3b
I0418 00:42:59.682518  3309 net.cpp:408] pool3 -> pool3
I0418 00:42:59.683696  3309 net.cpp:150] Setting up pool3
I0418 00:42:59.683708  3309 net.cpp:157] Top shape: 1 256 192 14 14 (9633792)
I0418 00:42:59.683712  3309 net.cpp:165] Memory required for data: 9787933884
I0418 00:42:59.683715  3309 layer_factory.hpp:77] Creating layer conv4a
I0418 00:42:59.683727  3309 net.cpp:100] Creating Layer conv4a
I0418 00:42:59.683732  3309 net.cpp:434] conv4a <- pool3
I0418 00:42:59.683738  3309 net.cpp:408] conv4a -> conv4a
I0418 00:42:59.785233  3309 net.cpp:150] Setting up conv4a
I0418 00:42:59.785260  3309 net.cpp:157] Top shape: 1 512 192 14 14 (19267584)
I0418 00:42:59.785264  3309 net.cpp:165] Memory required for data: 9865004220
I0418 00:42:59.785279  3309 layer_factory.hpp:77] Creating layer relu4a
I0418 00:42:59.785290  3309 net.cpp:100] Creating Layer relu4a
I0418 00:42:59.785295  3309 net.cpp:434] relu4a <- conv4a
I0418 00:42:59.785301  3309 net.cpp:395] relu4a -> conv4a (in-place)
I0418 00:42:59.786167  3309 net.cpp:150] Setting up relu4a
I0418 00:42:59.786181  3309 net.cpp:157] Top shape: 1 512 192 14 14 (19267584)
I0418 00:42:59.786185  3309 net.cpp:165] Memory required for data: 9942074556
I0418 00:42:59.786190  3309 layer_factory.hpp:77] Creating layer conv4b
I0418 00:42:59.786203  3309 net.cpp:100] Creating Layer conv4b
I0418 00:42:59.786207  3309 net.cpp:434] conv4b <- conv4a
I0418 00:42:59.786216  3309 net.cpp:408] conv4b -> conv4b
I0418 00:42:59.981078  3309 net.cpp:150] Setting up conv4b
I0418 00:42:59.981124  3309 net.cpp:157] Top shape: 1 512 192 14 14 (19267584)
I0418 00:42:59.981134  3309 net.cpp:165] Memory required for data: 10019144892
I0418 00:42:59.981153  3309 layer_factory.hpp:77] Creating layer relu4b
I0418 00:42:59.981173  3309 net.cpp:100] Creating Layer relu4b
I0418 00:42:59.981184  3309 net.cpp:434] relu4b <- conv4b
I0418 00:42:59.981199  3309 net.cpp:395] relu4b -> conv4b (in-place)
I0418 00:42:59.981600  3309 net.cpp:150] Setting up relu4b
I0418 00:42:59.981623  3309 net.cpp:157] Top shape: 1 512 192 14 14 (19267584)
I0418 00:42:59.981633  3309 net.cpp:165] Memory required for data: 10096215228
I0418 00:42:59.981644  3309 layer_factory.hpp:77] Creating layer pool4
I0418 00:42:59.981662  3309 net.cpp:100] Creating Layer pool4
I0418 00:42:59.981673  3309 net.cpp:434] pool4 <- conv4b
I0418 00:42:59.981688  3309 net.cpp:408] pool4 -> pool4
I0418 00:42:59.982985  3309 net.cpp:150] Setting up pool4
I0418 00:42:59.983016  3309 net.cpp:157] Top shape: 1 512 96 7 7 (2408448)
I0418 00:42:59.983027  3309 net.cpp:165] Memory required for data: 10105849020
I0418 00:42:59.983038  3309 layer_factory.hpp:77] Creating layer conv5a
I0418 00:42:59.983064  3309 net.cpp:100] Creating Layer conv5a
I0418 00:42:59.983078  3309 net.cpp:434] conv5a <- pool4
I0418 00:42:59.983100  3309 net.cpp:408] conv5a -> conv5a
I0418 00:43:00.181078  3309 net.cpp:150] Setting up conv5a
I0418 00:43:00.181105  3309 net.cpp:157] Top shape: 1 512 96 7 7 (2408448)
I0418 00:43:00.181109  3309 net.cpp:165] Memory required for data: 10115482812
I0418 00:43:00.181118  3309 layer_factory.hpp:77] Creating layer relu5a
I0418 00:43:00.181128  3309 net.cpp:100] Creating Layer relu5a
I0418 00:43:00.181133  3309 net.cpp:434] relu5a <- conv5a
I0418 00:43:00.181143  3309 net.cpp:395] relu5a -> conv5a (in-place)
I0418 00:43:00.182937  3309 net.cpp:150] Setting up relu5a
I0418 00:43:00.182953  3309 net.cpp:157] Top shape: 1 512 96 7 7 (2408448)
I0418 00:43:00.182957  3309 net.cpp:165] Memory required for data: 10125116604
I0418 00:43:00.182961  3309 layer_factory.hpp:77] Creating layer conv5b
I0418 00:43:00.182973  3309 net.cpp:100] Creating Layer conv5b
I0418 00:43:00.182978  3309 net.cpp:434] conv5b <- conv5a
I0418 00:43:00.182986  3309 net.cpp:408] conv5b -> conv5b
I0418 00:43:00.375469  3309 net.cpp:150] Setting up conv5b
I0418 00:43:00.375495  3309 net.cpp:157] Top shape: 1 512 96 7 7 (2408448)
I0418 00:43:00.375500  3309 net.cpp:165] Memory required for data: 10134750396
I0418 00:43:00.375509  3309 layer_factory.hpp:77] Creating layer relu5b
I0418 00:43:00.375519  3309 net.cpp:100] Creating Layer relu5b
I0418 00:43:00.375524  3309 net.cpp:434] relu5b <- conv5b
I0418 00:43:00.375530  3309 net.cpp:395] relu5b -> conv5b (in-place)
I0418 00:43:00.376869  3309 net.cpp:150] Setting up relu5b
I0418 00:43:00.376881  3309 net.cpp:157] Top shape: 1 512 96 7 7 (2408448)
I0418 00:43:00.376885  3309 net.cpp:165] Memory required for data: 10144384188
I0418 00:43:00.376889  3309 layer_factory.hpp:77] Creating layer conv5b_relu5b_0_split
I0418 00:43:00.376896  3309 net.cpp:100] Creating Layer conv5b_relu5b_0_split
I0418 00:43:00.376900  3309 net.cpp:434] conv5b_relu5b_0_split <- conv5b
I0418 00:43:00.376905  3309 net.cpp:408] conv5b_relu5b_0_split -> conv5b_relu5b_0_split_0
I0418 00:43:00.376914  3309 net.cpp:408] conv5b_relu5b_0_split -> conv5b_relu5b_0_split_1
I0418 00:43:00.376951  3309 net.cpp:150] Setting up conv5b_relu5b_0_split
I0418 00:43:00.376961  3309 net.cpp:157] Top shape: 1 512 96 7 7 (2408448)
I0418 00:43:00.376965  3309 net.cpp:157] Top shape: 1 512 96 7 7 (2408448)
I0418 00:43:00.376968  3309 net.cpp:165] Memory required for data: 10163651772
I0418 00:43:00.376973  3309 layer_factory.hpp:77] Creating layer rpn_conv/3x3
I0418 00:43:00.376986  3309 net.cpp:100] Creating Layer rpn_conv/3x3
I0418 00:43:00.376989  3309 net.cpp:434] rpn_conv/3x3 <- conv5b_relu5b_0_split_0
I0418 00:43:00.376996  3309 net.cpp:408] rpn_conv/3x3 -> rpn/output
I0418 00:43:00.569649  3309 net.cpp:150] Setting up rpn_conv/3x3
I0418 00:43:00.569684  3309 net.cpp:157] Top shape: 1 512 96 4 4 (786432)
I0418 00:43:00.569686  3309 net.cpp:165] Memory required for data: 10166797500
I0418 00:43:00.569701  3309 layer_factory.hpp:77] Creating layer rpn_relu/3x3
I0418 00:43:00.569710  3309 net.cpp:100] Creating Layer rpn_relu/3x3
I0418 00:43:00.569715  3309 net.cpp:434] rpn_relu/3x3 <- rpn/output
I0418 00:43:00.569720  3309 net.cpp:395] rpn_relu/3x3 -> rpn/output (in-place)
I0418 00:43:00.570183  3309 net.cpp:150] Setting up rpn_relu/3x3
I0418 00:43:00.570199  3309 net.cpp:157] Top shape: 1 512 96 4 4 (786432)
I0418 00:43:00.570204  3309 net.cpp:165] Memory required for data: 10169943228
I0418 00:43:00.570209  3309 layer_factory.hpp:77] Creating layer rpn_conv/3x3_2
I0418 00:43:00.570220  3309 net.cpp:100] Creating Layer rpn_conv/3x3_2
I0418 00:43:00.570225  3309 net.cpp:434] rpn_conv/3x3_2 <- rpn/output
I0418 00:43:00.570230  3309 net.cpp:408] rpn_conv/3x3_2 -> rpn/output_2
I0418 00:43:00.756783  3309 net.cpp:150] Setting up rpn_conv/3x3_2
I0418 00:43:00.756806  3309 net.cpp:157] Top shape: 1 512 96 2 2 (196608)
I0418 00:43:00.756810  3309 net.cpp:165] Memory required for data: 10170729660
I0418 00:43:00.756820  3309 layer_factory.hpp:77] Creating layer rpn_relu/3x3_2
I0418 00:43:00.756829  3309 net.cpp:100] Creating Layer rpn_relu/3x3_2
I0418 00:43:00.756836  3309 net.cpp:434] rpn_relu/3x3_2 <- rpn/output_2
I0418 00:43:00.756844  3309 net.cpp:395] rpn_relu/3x3_2 -> rpn/output_2 (in-place)
I0418 00:43:00.758555  3309 net.cpp:150] Setting up rpn_relu/3x3_2
I0418 00:43:00.758570  3309 net.cpp:157] Top shape: 1 512 96 2 2 (196608)
I0418 00:43:00.758574  3309 net.cpp:165] Memory required for data: 10171516092
I0418 00:43:00.758579  3309 layer_factory.hpp:77] Creating layer rpn/output_pool
I0418 00:43:00.758586  3309 net.cpp:100] Creating Layer rpn/output_pool
I0418 00:43:00.758590  3309 net.cpp:434] rpn/output_pool <- rpn/output_2
I0418 00:43:00.758595  3309 net.cpp:408] rpn/output_pool -> rpn/output_pool
I0418 00:43:00.759721  3309 net.cpp:150] Setting up rpn/output_pool
I0418 00:43:00.759733  3309 net.cpp:157] Top shape: 1 512 96 1 1 (49152)
I0418 00:43:00.759737  3309 net.cpp:165] Memory required for data: 10171712700
I0418 00:43:00.759742  3309 layer_factory.hpp:77] Creating layer rpn/output_pool_rpn/output_pool_0_split
I0418 00:43:00.759747  3309 net.cpp:100] Creating Layer rpn/output_pool_rpn/output_pool_0_split
I0418 00:43:00.759752  3309 net.cpp:434] rpn/output_pool_rpn/output_pool_0_split <- rpn/output_pool
I0418 00:43:00.759757  3309 net.cpp:408] rpn/output_pool_rpn/output_pool_0_split -> rpn/output_pool_rpn/output_pool_0_split_0
I0418 00:43:00.759763  3309 net.cpp:408] rpn/output_pool_rpn/output_pool_0_split -> rpn/output_pool_rpn/output_pool_0_split_1
I0418 00:43:00.759793  3309 net.cpp:150] Setting up rpn/output_pool_rpn/output_pool_0_split
I0418 00:43:00.759799  3309 net.cpp:157] Top shape: 1 512 96 1 1 (49152)
I0418 00:43:00.759804  3309 net.cpp:157] Top shape: 1 512 96 1 1 (49152)
I0418 00:43:00.759806  3309 net.cpp:165] Memory required for data: 10172105916
I0418 00:43:00.759810  3309 layer_factory.hpp:77] Creating layer rpn_cls_score
I0418 00:43:00.759820  3309 net.cpp:100] Creating Layer rpn_cls_score
I0418 00:43:00.759826  3309 net.cpp:434] rpn_cls_score <- rpn/output_pool_rpn/output_pool_0_split_0
I0418 00:43:00.759833  3309 net.cpp:408] rpn_cls_score -> rpn_cls_score
I0418 00:43:00.763978  3309 net.cpp:150] Setting up rpn_cls_score
I0418 00:43:00.763999  3309 net.cpp:157] Top shape: 1 74 96 1 1 (7104)
I0418 00:43:00.764003  3309 net.cpp:165] Memory required for data: 10172134332
I0418 00:43:00.764009  3309 layer_factory.hpp:77] Creating layer rpn_cls_score_rpn_cls_score_0_split
I0418 00:43:00.764015  3309 net.cpp:100] Creating Layer rpn_cls_score_rpn_cls_score_0_split
I0418 00:43:00.764019  3309 net.cpp:434] rpn_cls_score_rpn_cls_score_0_split <- rpn_cls_score
I0418 00:43:00.764025  3309 net.cpp:408] rpn_cls_score_rpn_cls_score_0_split -> rpn_cls_score_rpn_cls_score_0_split_0
I0418 00:43:00.764031  3309 net.cpp:408] rpn_cls_score_rpn_cls_score_0_split -> rpn_cls_score_rpn_cls_score_0_split_1
I0418 00:43:00.764070  3309 net.cpp:150] Setting up rpn_cls_score_rpn_cls_score_0_split
I0418 00:43:00.764078  3309 net.cpp:157] Top shape: 1 74 96 1 1 (7104)
I0418 00:43:00.764082  3309 net.cpp:157] Top shape: 1 74 96 1 1 (7104)
I0418 00:43:00.764086  3309 net.cpp:165] Memory required for data: 10172191164
I0418 00:43:00.764089  3309 layer_factory.hpp:77] Creating layer rpn_twin_pred
I0418 00:43:00.764101  3309 net.cpp:100] Creating Layer rpn_twin_pred
I0418 00:43:00.764104  3309 net.cpp:434] rpn_twin_pred <- rpn/output_pool_rpn/output_pool_0_split_1
I0418 00:43:00.764111  3309 net.cpp:408] rpn_twin_pred -> rpn_twin_pred
I0418 00:43:00.767343  3309 net.cpp:150] Setting up rpn_twin_pred
I0418 00:43:00.767357  3309 net.cpp:157] Top shape: 1 74 96 1 1 (7104)
I0418 00:43:00.767361  3309 net.cpp:165] Memory required for data: 10172219580
I0418 00:43:00.767367  3309 layer_factory.hpp:77] Creating layer rpn_twin_pred_rpn_twin_pred_0_split
I0418 00:43:00.767377  3309 net.cpp:100] Creating Layer rpn_twin_pred_rpn_twin_pred_0_split
I0418 00:43:00.767382  3309 net.cpp:434] rpn_twin_pred_rpn_twin_pred_0_split <- rpn_twin_pred
I0418 00:43:00.767388  3309 net.cpp:408] rpn_twin_pred_rpn_twin_pred_0_split -> rpn_twin_pred_rpn_twin_pred_0_split_0
I0418 00:43:00.767395  3309 net.cpp:408] rpn_twin_pred_rpn_twin_pred_0_split -> rpn_twin_pred_rpn_twin_pred_0_split_1
I0418 00:43:00.767429  3309 net.cpp:150] Setting up rpn_twin_pred_rpn_twin_pred_0_split
I0418 00:43:00.767438  3309 net.cpp:157] Top shape: 1 74 96 1 1 (7104)
I0418 00:43:00.767442  3309 net.cpp:157] Top shape: 1 74 96 1 1 (7104)
I0418 00:43:00.767448  3309 net.cpp:165] Memory required for data: 10172276412
I0418 00:43:00.767453  3309 layer_factory.hpp:77] Creating layer rpn_cls_score_reshape
I0418 00:43:00.767463  3309 net.cpp:100] Creating Layer rpn_cls_score_reshape
I0418 00:43:00.767467  3309 net.cpp:434] rpn_cls_score_reshape <- rpn_cls_score_rpn_cls_score_0_split_0
I0418 00:43:00.767472  3309 net.cpp:408] rpn_cls_score_reshape -> rpn_cls_score_reshape
I0418 00:43:00.767501  3309 net.cpp:150] Setting up rpn_cls_score_reshape
I0418 00:43:00.767509  3309 net.cpp:157] Top shape: 1 2 3552 1 1 (7104)
I0418 00:43:00.767513  3309 net.cpp:165] Memory required for data: 10172304828
I0418 00:43:00.767516  3309 layer_factory.hpp:77] Creating layer rpn_cls_score_reshape_rpn_cls_score_reshape_0_split
I0418 00:43:00.767522  3309 net.cpp:100] Creating Layer rpn_cls_score_reshape_rpn_cls_score_reshape_0_split
I0418 00:43:00.767526  3309 net.cpp:434] rpn_cls_score_reshape_rpn_cls_score_reshape_0_split <- rpn_cls_score_reshape
I0418 00:43:00.767531  3309 net.cpp:408] rpn_cls_score_reshape_rpn_cls_score_reshape_0_split -> rpn_cls_score_reshape_rpn_cls_score_reshape_0_split_0
I0418 00:43:00.767539  3309 net.cpp:408] rpn_cls_score_reshape_rpn_cls_score_reshape_0_split -> rpn_cls_score_reshape_rpn_cls_score_reshape_0_split_1
I0418 00:43:00.767545  3309 net.cpp:408] rpn_cls_score_reshape_rpn_cls_score_reshape_0_split -> rpn_cls_score_reshape_rpn_cls_score_reshape_0_split_2
I0418 00:43:00.767586  3309 net.cpp:150] Setting up rpn_cls_score_reshape_rpn_cls_score_reshape_0_split
I0418 00:43:00.767594  3309 net.cpp:157] Top shape: 1 2 3552 1 1 (7104)
I0418 00:43:00.767601  3309 net.cpp:157] Top shape: 1 2 3552 1 1 (7104)
I0418 00:43:00.767603  3309 net.cpp:157] Top shape: 1 2 3552 1 1 (7104)
I0418 00:43:00.767606  3309 net.cpp:165] Memory required for data: 10172390076
I0418 00:43:00.767611  3309 layer_factory.hpp:77] Creating layer rpn-data
I0418 00:43:00.768004  3309 net.cpp:100] Creating Layer rpn-data
I0418 00:43:00.768016  3309 net.cpp:434] rpn-data <- rpn_cls_score_rpn_cls_score_0_split_1
I0418 00:43:00.768023  3309 net.cpp:434] rpn-data <- gt_boxes_data_1_split_0
I0418 00:43:00.768028  3309 net.cpp:434] rpn-data <- data_data_0_split_1
I0418 00:43:00.768033  3309 net.cpp:408] rpn-data -> rpn_labels
I0418 00:43:00.768038  3309 net.cpp:408] rpn-data -> rpn_twin_targets
I0418 00:43:00.768048  3309 net.cpp:408] rpn-data -> rpn_twin_inside_weights
I0418 00:43:00.768052  3309 net.cpp:408] rpn-data -> rpn_twin_outside_weights
I0418 00:43:00.770290  3309 net.cpp:150] Setting up rpn-data
I0418 00:43:00.770304  3309 net.cpp:157] Top shape: 1 1 3552 1 1 (3552)
I0418 00:43:00.770309  3309 net.cpp:157] Top shape: 1 74 96 1 1 (7104)
I0418 00:43:00.770313  3309 net.cpp:157] Top shape: 1 74 96 1 1 (7104)
I0418 00:43:00.770318  3309 net.cpp:157] Top shape: 1 74 96 1 1 (7104)
I0418 00:43:00.770321  3309 net.cpp:165] Memory required for data: 10172489532
I0418 00:43:00.770325  3309 layer_factory.hpp:77] Creating layer rpn_labels_rpn-data_0_split
I0418 00:43:00.770331  3309 net.cpp:100] Creating Layer rpn_labels_rpn-data_0_split
I0418 00:43:00.770334  3309 net.cpp:434] rpn_labels_rpn-data_0_split <- rpn_labels
I0418 00:43:00.770340  3309 net.cpp:408] rpn_labels_rpn-data_0_split -> rpn_labels_rpn-data_0_split_0
I0418 00:43:00.770346  3309 net.cpp:408] rpn_labels_rpn-data_0_split -> rpn_labels_rpn-data_0_split_1
I0418 00:43:00.770376  3309 net.cpp:150] Setting up rpn_labels_rpn-data_0_split
I0418 00:43:00.770383  3309 net.cpp:157] Top shape: 1 1 3552 1 1 (3552)
I0418 00:43:00.770387  3309 net.cpp:157] Top shape: 1 1 3552 1 1 (3552)
I0418 00:43:00.770390  3309 net.cpp:165] Memory required for data: 10172517948
I0418 00:43:00.770393  3309 layer_factory.hpp:77] Creating layer rpn_loss_cls
I0418 00:43:00.770401  3309 net.cpp:100] Creating Layer rpn_loss_cls
I0418 00:43:00.770406  3309 net.cpp:434] rpn_loss_cls <- rpn_cls_score_reshape_rpn_cls_score_reshape_0_split_0
I0418 00:43:00.770411  3309 net.cpp:434] rpn_loss_cls <- rpn_labels_rpn-data_0_split_0
…
I0418 00:43:00.771021  3309 layer_factory.hpp:77] Creating layer rpn_accuarcy
I0418 00:43:00.771028  3309 net.cpp:100] Creating Layer rpn_accuarcy
I0418 00:43:00.771033  3309 net.cpp:434] rpn_accuarcy <- rpn_cls_score_reshape_rpn_cls_score_reshape_0_split_1
I0418 00:43:00.771036  3309 net.cpp:434] rpn_accuarcy <- rpn_labels_rpn-data_0_split_1
I0418 00:43:00.771044  3309 net.cpp:408] rpn_accuarcy -> rpn_accuarcy
I0418 00:43:00.771049  3309 net.cpp:408] rpn_accuarcy -> rpn_accuarcy_class
I0418 00:43:00.771085  3309 net.cpp:150] Setting up rpn_accuarcy
I0418 00:43:00.771091  3309 net.cpp:157] Top shape: (1)
I0418 00:43:00.771095  3309 net.cpp:157] Top shape: 2 (2)
I0418 00:43:00.771098  3309 net.cpp:165] Memory required for data: 10172517968
I0418 00:43:00.771101  3309 layer_factory.hpp:77] Creating layer rpn_cls_prob
I0418 00:43:00.771106  3309 net.cpp:100] Creating Layer rpn_cls_prob
I0418 00:43:00.771109  3309 net.cpp:434] rpn_cls_prob <- rpn_cls_score_reshape_rpn_cls_score_reshape_0_split_2
I0418 00:43:00.771116  3309 net.cpp:408] rpn_cls_prob -> rpn_cls_prob
I0418 00:43:00.771308  3309 net.cpp:150] Setting up rpn_cls_prob
I0418 00:43:00.771319  3309 net.cpp:157] Top shape: 1 2 3552 1 1 (7104)
I0418 00:43:00.771323  3309 net.cpp:165] Memory required for data: 10172546384
I0418 00:43:00.771327  3309 layer_factory.hpp:77] Creating layer rpn_cls_prob_reshape
I0418 00:43:00.771335  3309 net.cpp:100] Creating Layer rpn_cls_prob_reshape
I0418 00:43:00.771342  3309 net.cpp:434] rpn_cls_prob_reshape <- rpn_cls_prob
I0418 00:43:00.771349  3309 net.cpp:408] rpn_cls_prob_reshape -> rpn_cls_prob_reshape
I0418 00:43:00.771373  3309 net.cpp:150] Setting up rpn_cls_prob_reshape
I0418 00:43:00.771380  3309 net.cpp:157] Top shape: 1 74 96 1 1 (7104)
I0418 00:43:00.771384  3309 net.cpp:165] Memory required for data: 10172574800
I0418 00:43:00.771387  3309 layer_factory.hpp:77] Creating layer proposal
I0418 00:43:00.771931  3309 net.cpp:100] Creating Layer proposal
I0418 00:43:00.771944  3309 net.cpp:434] proposal <- rpn_cls_prob_reshape
I0418 00:43:00.771950  3309 net.cpp:434] proposal <- rpn_twin_pred_rpn_twin_pred_0_split_1
I0418 00:43:00.771955  3309 net.cpp:408] proposal -> rpn_rois
I0418 00:43:00.775198  3309 net.cpp:150] Setting up proposal
I0418 00:43:00.775213  3309 net.cpp:157] Top shape: 1 3 (3)
I0418 00:43:00.775216  3309 net.cpp:165] Memory required for data: 10172574812
I0418 00:43:00.775220  3309 layer_factory.hpp:77] Creating layer roi-data
I0418 00:43:00.776695  3309 net.cpp:100] Creating Layer roi-data
I0418 00:43:00.776708  3309 net.cpp:434] roi-data <- rpn_rois
I0418 00:43:00.776715  3309 net.cpp:434] roi-data <- gt_boxes_data_1_split_1
I0418 00:43:00.776721  3309 net.cpp:408] roi-data -> rois
I0418 00:43:00.776729  3309 net.cpp:408] roi-data -> labels
I0418 00:43:00.776734  3309 net.cpp:408] roi-data -> twin_targets
I0418 00:43:00.776739  3309 net.cpp:408] roi-data -> twin_inside_weights
I0418 00:43:00.776746  3309 net.cpp:408] roi-data -> twin_outside_weights
I0418 00:43:00.777051  3309 net.cpp:150] Setting up roi-data
I0418 00:43:00.777065  3309 net.cpp:157] Top shape: 1 3 (3)
I0418 00:43:00.777068  3309 net.cpp:157] Top shape: 1 1 (1)
I0418 00:43:00.777072  3309 net.cpp:157] Top shape: 1 402 (402)
I0418 00:43:00.777076  3309 net.cpp:157] Top shape: 1 402 (402)
I0418 00:43:00.777079  3309 net.cpp:157] Top shape: 1 402 (402)
I0418 00:43:00.777082  3309 net.cpp:165] Memory required for data: 10172579652
I0418 00:43:00.777086  3309 layer_factory.hpp:77] Creating layer labels_roi-data_1_split
I0418 00:43:00.777091  3309 net.cpp:100] Creating Layer labels_roi-data_1_split
I0418 00:43:00.777096  3309 net.cpp:434] labels_roi-data_1_split <- labels
I0418 00:43:00.777101  3309 net.cpp:408] labels_roi-data_1_split -> labels_roi-data_1_split_0
I0418 00:43:00.777107  3309 net.cpp:408] labels_roi-data_1_split -> labels_roi-data_1_split_1
I0418 00:43:00.777137  3309 net.cpp:150] Setting up labels_roi-data_1_split
I0418 00:43:00.777145  3309 net.cpp:157] Top shape: 1 1 (1)
I0418 00:43:00.777149  3309 net.cpp:157] Top shape: 1 1 (1)
I0418 00:43:00.777153  3309 net.cpp:165] Memory required for data: 10172579660
I0418 00:43:00.777155  3309 layer_factory.hpp:77] Creating layer roi_pool5
I0418 00:43:00.777164  3309 net.cpp:100] Creating Layer roi_pool5
I0418 00:43:00.777170  3309 net.cpp:434] roi_pool5 <- conv5b_relu5b_0_split_1
I0418 00:43:00.777175  3309 net.cpp:434] roi_pool5 <- rois
I0418 00:43:00.777179  3309 net.cpp:408] roi_pool5 -> pool5
I0418 00:43:00.777187  3309 roi_pooling_layer.cpp:34] Temporal scale: 0.125
I0418 00:43:00.777196  3309 roi_pooling_layer.cpp:35] Spatial scale: 0.0625
I0418 00:43:00.777227  3309 net.cpp:150] Setting up roi_pool5
I0418 00:43:00.777235  3309 net.cpp:157] Top shape: 1 512 1 4 4 (8192)
I0418 00:43:00.777237  3309 net.cpp:165] Memory required for data: 10172612428
I0418 00:43:00.777240  3309 layer_factory.hpp:77] Creating layer fc6
I0418 00:43:00.777251  3309 net.cpp:100] Creating Layer fc6
I0418 00:43:00.777254  3309 net.cpp:434] fc6 <- pool5
I0418 00:43:00.777259  3309 net.cpp:408] fc6 -> fc6
I0418 00:43:01.653501  3309 net.cpp:150] Setting up fc6
I0418 00:43:01.653528  3309 net.cpp:157] Top shape: 1 4096 (4096)
I0418 00:43:01.653534  3309 net.cpp:165] Memory required for data: 10172628812
I0418 00:43:01.653545  3309 layer_factory.hpp:77] Creating layer relu6
I0418 00:43:01.653554  3309 net.cpp:100] Creating Layer relu6
I0418 00:43:01.653559  3309 net.cpp:434] relu6 <- fc6
I0418 00:43:01.653566  3309 net.cpp:395] relu6 -> fc6 (in-place)
I0418 00:43:01.655520  3309 net.cpp:150] Setting up relu6
I0418 00:43:01.655535  3309 net.cpp:157] Top shape: 1 4096 (4096)
I0418 00:43:01.655540  3309 net.cpp:165] Memory required for data: 10172645196
I0418 00:43:01.655544  3309 layer_factory.hpp:77] Creating layer drop6
I0418 00:43:01.655558  3309 net.cpp:100] Creating Layer drop6
I0418 00:43:01.655562  3309 net.cpp:434] drop6 <- fc6
I0418 00:43:01.655568  3309 net.cpp:395] drop6 -> fc6 (in-place)
I0418 00:43:01.655609  3309 net.cpp:150] Setting up drop6
I0418 00:43:01.655624  3309 net.cpp:157] Top shape: 1 4096 (4096)
I0418 00:43:01.655632  3309 net.cpp:165] Memory required for data: 10172661580
I0418 00:43:01.655637  3309 layer_factory.hpp:77] Creating layer fc6_drop6_0_split
I0418 00:43:01.655649  3309 net.cpp:100] Creating Layer fc6_drop6_0_split
I0418 00:43:01.655656  3309 net.cpp:434] fc6_drop6_0_split <- fc6
I0418 00:43:01.655663  3309 net.cpp:408] fc6_drop6_0_split -> fc6_drop6_0_split_0
I0418 00:43:01.655671  3309 net.cpp:408] fc6_drop6_0_split -> fc6_drop6_0_split_1
I0418 00:43:01.655709  3309 net.cpp:150] Setting up fc6_drop6_0_split
I0418 00:43:01.655717  3309 net.cpp:157] Top shape: 1 4096 (4096)
I0418 00:43:01.655722  3309 net.cpp:157] Top shape: 1 4096 (4096)
I0418 00:43:01.655725  3309 net.cpp:165] Memory required for data: 10172694348
I0418 00:43:01.655735  3309 layer_factory.hpp:77] Creating layer cls_score
I0418 00:43:01.655748  3309 net.cpp:100] Creating Layer cls_score
I0418 00:43:01.655757  3309 net.cpp:434] cls_score <- fc6_drop6_0_split_0
I0418 00:43:01.655766  3309 net.cpp:408] cls_score -> cls_score
I0418 00:43:01.682097  3309 net.cpp:150] Setting up cls_score
I0418 00:43:01.682119  3309 net.cpp:157] Top shape: 1 201 (201)
I0418 00:43:01.682123  3309 net.cpp:165] Memory required for data: 10172695152
I0418 00:43:01.682132  3309 layer_factory.hpp:77] Creating layer cls_score_cls_score_0_split
I0418 00:43:01.682139  3309 net.cpp:100] Creating Layer cls_score_cls_score_0_split
I0418 00:43:01.682143  3309 net.cpp:434] cls_score_cls_score_0_split <- cls_score
I0418 00:43:01.682149  3309 net.cpp:408] cls_score_cls_score_0_split -> cls_score_cls_score_0_split_0
I0418 00:43:01.682157  3309 net.cpp:408] cls_score_cls_score_0_split -> cls_score_cls_score_0_split_1
I0418 00:43:01.682188  3309 net.cpp:150] Setting up cls_score_cls_score_0_split
I0418 00:43:01.682195  3309 net.cpp:157] Top shape: 1 201 (201)
I0418 00:43:01.682199  3309 net.cpp:157] Top shape: 1 201 (201)
I0418 00:43:01.682202  3309 net.cpp:165] Memory required for data: 10172696760
I0418 00:43:01.682209  3309 layer_factory.hpp:77] Creating layer twin_pred
I0418 00:43:01.682220  3309 net.cpp:100] Creating Layer twin_pred
I0418 00:43:01.682232  3309 net.cpp:434] twin_pred <- fc6_drop6_0_split_1
I0418 00:43:01.682238  3309 net.cpp:408] twin_pred -> twin_pred
I0418 00:43:01.725015  3309 net.cpp:150] Setting up twin_pred
I0418 00:43:01.725035  3309 net.cpp:157] Top shape: 1 402 (402)
I0418 00:43:01.725039  3309 net.cpp:165] Memory required for data: 10172698368
I0418 00:43:01.725049  3309 layer_factory.hpp:77] Creating layer loss_cls
I0418 00:43:01.725056  3309 net.cpp:100] Creating Layer loss_cls
I0418 00:43:01.725060  3309 net.cpp:434] loss_cls <- cls_score_cls_score_0_split_0
I0418 00:43:01.725067  3309 net.cpp:434] loss_cls <- labels_roi-data_1_split_0
I0418 00:43:01.725072  3309 net.cpp:408] loss_cls -> loss_cls
…
