…
stepsize: 350000
snapshot: 0
snapshot_prefix: "./experiments/activitynet/snapshot/activitynet"
average_loss: 100
iter_size: 1
I0418 00:01:14.189471  9780 solver.cpp:81] Creating training net from train_net file: ./experiments/activitynet/train.prototxt
I0418 00:01:14.190553  9780 net.cpp:58] Initializing net from parameters: 
name: "activitynet"
state {
  phase: TRAIN
}
layer {
  name: "data"
  type: "Python"
  top: "data"
  top: "gt_boxes"
  python_param {
    module: "roi_data_layer.layer"
    layer: "RoIDataLayer"
    param_str: "\'num_classes\': 100"
  }
}
layer {
  name: "conv1a"
  type: "Convolution"
  bottom: "data"
  top: "conv1a"
  param {
    lr_mult: 0
    decay_mult: 0
  }
  param {
    lr_mult: 0
    decay_mult: 0
  }
  convolution_param {
    num_output: 64
    pad: 1
    pad: 1
    pad: 1
    kernel_size: 3
    kernel_size: 3
    kernel_size: 3
    weight_filler {
      type: "gaussian"
      std: 0.01
    }
    bias_filler {
      type: "constant"
      value: 0
    }
  }
}
layer {
  name: "relu1a"
  type: "ReLU"
  bottom: "conv1a"
  top: "conv1a"
}
layer {
  name: "pool1"
  type: "Pooling"
  bottom: "conv1a"
  top: "pool1"
  pooling_param {
    pool: MAX
    kernel_size: 1
    kernel_size: 2
    kernel_size: 2
    stride: 1
    stride: 2
    stride: 2
  }
}
layer {
  name: "conv2a"
  type: "Convolution"
  bottom: "pool1"
  top: "conv2a"
  param {
    lr_mult: 0
    decay_mult: 0
  }
  param {
    lr_mult: 0
    decay_mult: 0
  }
  convolution_param {
    num_output: 128
    pad: 1
    pad: 1
    pad: 1
    kernel_size: 3
    kernel_size: 3
    kernel_size: 3
    weight_filler {
      type: "gaussian"
      std: 0.01
    }
    bias_filler {
      type: "constant"
      value: 1
    }
  }
}
layer {
  name: "relu2a"
  type: "ReLU"
  bottom: "conv2a"
  top: "conv2a"
}
layer {
  name: "pool2"
  type: "Pooling"
  bottom: "conv2a"
  top: "pool2"
  pooling_param {
    pool: MAX
    kernel_size: 2
    kernel_size: 2
    kernel_size: 2
    stride: 2
    stride: 2
    stride: 2
  }
}
layer {
  name: "conv3a"
  type: "Convolution"
  bottom: "pool2"
  top: "conv3a"
  param {
    lr_mult: 1
    decay_mult: 1
  }
  param {
    lr_mult: 2
    decay_mult: 0
  }
  convolution_param {
    num_output: 256
    pad: 1
    pad: 1
    pad: 1
    kernel_size: 3
    kernel_size: 3
    kernel_size: 3
    weight_filler {
      type: "gaussian"
      std: 0.01
    }
    bias_filler {
      type: "constant"
      value: 1
    }
  }
}
layer {
  name: "relu3a"
  type: "ReLU"
  bottom: "conv3a"
  top: "conv3a"
}
layer {
  name: "conv3b"
  type: "Convolution"
  bottom: "conv3a"
  top: "conv3b"
  param {
    lr_mult: 1
    decay_mult: 1
  }
  param {
    lr_mult: 2
    decay_mult: 0
  }
  convolution_param {
    num_output: 256
    pad: 1
    pad: 1
    pad: 1
    kernel_size: 3
    kernel_size: 3
    kernel_size: 3
    weight_filler {
      type: "gaussian"
      std: 0.01
    }
    bias_filler {
      type: "constant"
      value: 1
    }
  }
}
layer {
  name: "relu3b"
  type: "ReLU"
  bottom: "conv3b"
  top: "conv3b"
}
layer {
  name: "pool3"
  type: "Pooling"
  bottom: "conv3b"
  top: "pool3"
  pooling_param {
    pool: MAX
    kernel_size: 2
    kernel_size: 2
    kernel_size: 2
    stride: 2
    stride: 2
    stride: 2
  }
}
layer {
  name: "conv4a"
  type: "Convolution"
  bottom: "pool3"
  top: "conv4a"
  param {
    lr_mult: 1
    decay_mult: 1
  }
  param {
    lr_mult: 2
    decay_mult: 0
  }
  convolution_param {
    num_output: 512
    pad: 1
    pad: 1
    pad: 1
    kernel_size: 3
    kernel_size: 3
    kernel_size: 3
    weight_filler {
      type: "gaussian"
      std: 0.01
    }
    bias_filler {
      type: "constant"
      value: 1
    }
  }
}
layer {
  name: "relu4a"
  type: "ReLU"
  bottom: "conv4a"
  top: "conv4a"
}
layer {
  name: "conv4b"
  type: "Convolution"
  bottom: "conv4a"
  top: "conv4b"
  param {
    lr_mult: 1
    decay_mult: 1
  }
  param {
    lr_mult: 2
    decay_mult: 0
  }
  convolution_param {
    num_output: 512
    pad: 1
    pad: 1
    pad: 1
    kernel_size: 3
    kernel_size: 3
    kernel_size: 3
    weight_filler {
      type: "gaussian"
      std: 0.01
    }
    bias_filler {
      type: "constant"
      value: 1
    }
  }
}
layer {
  name: "relu4b"
  type: "ReLU"
  bottom: "conv4b"
  top: "conv4b"
}
layer {
  name: "pool4"
  type: "Pooling"
  bottom: "conv4b"
  top: "pool4"
  pooling_param {
    pool: MAX
    kernel_size: 2
    kernel_size: 2
    kernel_size: 2
    stride: 2
    stride: 2
    stride: 2
  }
}
layer {
  name: "conv5a"
  type: "Convolution"
  bottom: "pool4"
  top: "conv5a"
  param {
    lr_mult: 1
    decay_mult: 1
  }
  param {
    lr_mult: 2
    decay_mult: 0
  }
  convolution_param {
    num_output: 512
    pad: 1
    pad: 1
    pad: 1
    kernel_size: 3
    kernel_size: 3
    kernel_size: 3
    weight_filler {
      type: "gaussian"
      std: 0.01
    }
    bias_filler {
      type: "constant"
      value: 1
    }
  }
}
layer {
  name: "relu5a"
  type: "ReLU"
  bottom: "conv5a"
  top: "conv5a"
}
layer {
  name: "conv5b"
  type: "Convolution"
  bottom: "conv5a"
  top: "conv5b"
  param {
    lr_mult: 1
    decay_mult: 1
  }
  param {
    lr_mult: 2
    decay_mult: 0
  }
  convolution_param {
    num_output: 512
    pad: 1
    pad: 1
    pad: 1
    kernel_size: 3
    kernel_size: 3
    kernel_size: 3
    weight_filler {
      type: "gaussian"
      std: 0.01
    }
    bias_filler {
      type: "constant"
      value: 1
    }
  }
}
layer {
  name: "relu5b"
  type: "ReLU"
  bottom: "conv5b"
  top: "conv5b"
}
layer {
  name: "rpn_conv/3x3"
  type: "Convolution"
  bottom: "conv5b"
  top: "rpn/output"
  param {
    lr_mult: 1
    decay_mult: 1
  }
  param {
    lr_mult: 2
    decay_mult: 0
  }
  convolution_param {
    num_output: 512
    pad: 1
    pad: 1
    pad: 1
    kernel_size: 3
    kernel_size: 3
    kernel_size: 3
    stride: 1
    stride: 2
    stride: 2
    weight_filler {
      type: "gaussian"
      std: 0.01
    }
    bias_filler {
      type: "constant"
      value: 0
    }
  }
}
layer {
  name: "rpn_relu/3x3"
  type: "ReLU"
  bottom: "rpn/output"
  top: "rpn/output"
}
layer {
  name: "rpn_conv/3x3_2"
  type: "Convolution"
  bottom: "rpn/output"
  top: "rpn/output_2"
  param {
    lr_mult: 1
    decay_mult: 1
  }
  param {
    lr_mult: 2
    decay_mult: 0
  }
  convolution_param {
    num_output: 512
    pad: 1
    pad: 1
    pad: 1
    kernel_size: 3
    kernel_size: 3
    kernel_size: 3
    stride: 1
    stride: 2
    stride: 2
    weight_filler {
      type: "gaussian"
      std: 0.01
    }
    bias_filler {
      type: "constant"
      value: 0
    }
  }
}
layer {
  name: "rpn_relu/3x3_2"
  type: "ReLU"
  bottom: "rpn/output_2"
  top: "rpn/output_2"
}
layer {
  name: "rpn/output_pool"
  type: "Pooling"
  bottom: "rpn/output_2"
  top: "rpn/output_pool"
  pooling_param {
    pool: MAX
    kernel_size: 1
    kernel_size: 2
    kernel_size: 2
  }
}
layer {
  name: "rpn_cls_score"
  type: "Convolution"
  bottom: "rpn/output_pool"
  top: "rpn_cls_score"
  param {
    lr_mult: 1
    decay_mult: 1
  }
  param {
    lr_mult: 2
    decay_mult: 0
  }
  convolution_param {
    num_output: 74
    kernel_size: 1
    kernel_size: 1
    kernel_size: 1
    weight_filler {
      type: "gaussian"
      std: 0.01
    }
    bias_filler {
      type: "constant"
      value: 0
    }
  }
}
layer {
  name: "rpn_twin_pred"
  type: "Convolution"
  bottom: "rpn/output_pool"
  top: "rpn_twin_pred"
  param {
    lr_mult: 1
    decay_mult: 1
  }
  param {
    lr_mult: 2
    decay_mult: 0
  }
  convolution_param {
    num_output: 74
    kernel_size: 1
    kernel_size: 1
    kernel_size: 1
    weight_filler {
      type: "gaussian"
      std: 0.01
    }
    bias_filler {
      type: "constant"
      value: 0
    }
  }
}
layer {
  name: "rpn_cls_score_reshape"
  type: "Reshape"
  bottom: "rpn_cls_score"
  top: "rpn_cls_score_reshape"
  reshape_param {
    shape {
      dim: 0
      dim: 2
      dim: -1
      dim: 0
      dim: 0
    }
  }
}
layer {
  name: "rpn-data"
  type: "Python"
  bottom: "rpn_cls_score"
  bottom: "gt_boxes"
  bottom: "data"
  top: "rpn_labels"
  top: "rpn_twin_targets"
  top: "rpn_twin_inside_weights"
  top: "rpn_twin_outside_weights"
  python_param {
    module: "rpn.anchor_target_layer"
    layer: "AnchorTargetLayer"
    param_str: "\'feat_stride\': 8 \n\'scales\': !!python/tuple [1,1.25, 1.5,1.75, 2,2.5, 3,3.5, 4,4.5, 5,5.5, 6,7, 8,9,10,11,12,14,16,18,20,22,24,28,32,36,40,44,52,60,68,76,84,92,100]"
  }
}
layer {
  name: "rpn_loss_cls"
  type: "SoftmaxWithLoss"
  bottom: "rpn_cls_score_reshape"
  bottom: "rpn_labels"
  top: "rpn_cls_loss"
  loss_weight: 1
  propagate_down: true
  propagate_down: false
  loss_param {
    ignore_label: -1
    normalize: true
  }
}
layer {
  name: "rpn_loss_twin"
  type: "SmoothL1Loss"
  bottom: "rpn_twin_pred"
  bottom: "rpn_twin_targets"
  bottom: "rpn_twin_inside_weights"
  bottom: "rpn_twin_outside_weights"
  top: "rpn_loss_twin"
  loss_weight: 1
  smooth_l1_loss_param {
    sigma: 3
  }
}
layer {
  name: "rpn_accuarcy"
  type: "Accuracy"
  bottom: "rpn_cls_score_reshape"
  bottom: "rpn_labels"
  top: "rpn_accuarcy"
  top: "rpn_accuarcy_class"
  propagate_down: false
  propagate_down: false
  accuracy_param {
    ignore_label: -1
  }
}
layer {
  name: "rpn_cls_prob"
  type: "Softmax"
  bottom: "rpn_cls_score_reshape"
  top: "rpn_cls_prob"
}
layer {
  name: "rpn_cls_prob_reshape"
  type: "Reshape"
  bottom: "rpn_cls_prob"
  top: "rpn_cls_prob_reshape"
  reshape_param {
    shape {
      dim: 0
      dim: 74
      dim: -1
      dim: 0
      dim: 0
    }
  }
}
layer {
  name: "proposal"
  type: "Python"
  bottom: "rpn_cls_prob_reshape"
  bottom: "rpn_twin_pred"
  top: "rpn_rois"
  include {
    phase: TRAIN
  }
  python_param {
    module: "rpn.proposal_layer"
    layer: "ProposalLayer"
    param_str: "\'feat_stride\': 8 \n\'scales\': !!python/tuple [1,1.25, 1.5,1.75, 2,2.5, 3,3.5, 4,4.5, 5,5.5, 6,7, 8,9,10,11,12,14,16,18,20,22,24,28,32,36,40,44,52,60,68,76,84,92,100]"
  }
}
layer {
  name: "roi-data"
  type: "Python"
  bottom: "rpn_rois"
  bottom: "gt_boxes"
  top: "rois"
  top: "labels"
  top: "twin_targets"
  top: "twin_inside_weights"
  top: "twin_outside_weights"
  python_param {
    module: "rpn.proposal_target_layer"
    layer: "ProposalTargetLayer"
    param_str: "\'num_classes\': 201"
  }
}
layer {
  name: "roi_pool5"
  type: "ROIPooling"
  bottom: "conv5b"
  bottom: "rois"
  top: "pool5"
  roi_pooling_param {
    pooled_h: 4
    pooled_w: 4
    spatial_scale: 0.0625
    pooled_l: 1
    temporal_scale: 0.125
  }
}
layer {
  name: "fc6"
  type: "InnerProduct"
  bottom: "pool5"
  top: "fc6"
  param {
    lr_mult: 1
    decay_mult: 1
  }
  param {
    lr_mult: 2
    decay_mult: 0
  }
  inner_product_param {
    num_output: 4096
    weight_filler {
      type: "gaussian"
      std: 0.005
    }
    bias_filler {
      type: "constant"
      value: 1
    }
  }
}
layer {
  name: "relu6"
  type: "ReLU"
  bottom: "fc6"
  top: "fc6"
}
layer {
  name: "drop6"
  type: "Dropout"
  bottom: "fc6"
  top: "fc6"
  dropout_param {
    dropout_ratio: 0.5
  }
}
layer {
  name: "cls_score"
  type: "InnerProduct"
  bottom: "fc6"
  top: "cls_score"
  param {
    lr_mult: 1
    decay_mult: 1
  }
  param {
    lr_mult: 2
    decay_mult: 0
  }
  inner_product_param {
    num_output: 201
    weight_filler {
      type: "gaussian"
      std: 0.01
    }
    bias_filler {
      type: "constant"
      value: 0
    }
  }
}
layer {
  name: "twin_pred"
  type: "InnerProduct"
  bottom: "fc6"
  top: "twin_pred"
  param {
    lr_mult: 1
    decay_mult: 1
  }
  param {
    lr_mult: 2
    decay_mult: 0
  }
  inner_product_param {
    num_output: 402
    weight_filler {
      type: "gaussian"
      std: 0.001
    }
    bias_filler {
      type: "constant"
      value: 0
    }
  }
}
layer {
  name: "loss_cls"
  type: "SoftmaxWithLoss"
  bottom: "cls_score"
  bottom: "labels"
  top: "loss_cls"
  loss_weight: 1
  propagate_down: true
  propagate_down: false
}
layer {
  name: "loss_twin"
  type: "SmoothL1Loss"
  bottom: "twin_pred"
  bottom: "twin_targets"
  bottom: "twin_inside_weights"
  bottom: "twin_outside_weights"
  top: "loss_twin"
  loss_weight: 1
}
layer {
  name: "accuarcy"
  type: "Accuracy"
  bottom: "cls_score"
  bottom: "labels"
  top: "accuarcy"
  propagate_down: false
  propagate_down: false
  accuracy_param {
    ignore_label: -1
  }
}
I0418 00:01:14.190779  9780 layer_factory.hpp:77] Creating layer data
I0418 00:01:14.215616  9780 net.cpp:100] Creating Layer data
I0418 00:01:14.215639  9780 net.cpp:408] data -> data
I0418 00:01:14.215652  9780 net.cpp:408] data -> gt_boxes
setting up
has rpn
RoiDataLayer: name_to_top: {'gt_windows': 1, 'data': 0}
I0418 00:01:14.263062  9780 net.cpp:150] Setting up data
I0418 00:01:14.263085  9780 net.cpp:157] Top shape: 1 3 768 112 112 (28901376)
I0418 00:01:14.263090  9780 net.cpp:157] Top shape: 1 101 (101)
I0418 00:01:14.263094  9780 net.cpp:165] Memory required for data: 115605908
I0418 00:01:14.263101  9780 layer_factory.hpp:77] Creating layer data_data_0_split
I0418 00:01:14.263113  9780 net.cpp:100] Creating Layer data_data_0_split
I0418 00:01:14.263118  9780 net.cpp:434] data_data_0_split <- data
I0418 00:01:14.263123  9780 net.cpp:408] data_data_0_split -> data_data_0_split_0
I0418 00:01:14.263134  9780 net.cpp:408] data_data_0_split -> data_data_0_split_1
I0418 00:01:14.263162  9780 net.cpp:150] Setting up data_data_0_split
I0418 00:01:14.263169  9780 net.cpp:157] Top shape: 1 3 768 112 112 (28901376)
I0418 00:01:14.263172  9780 net.cpp:157] Top shape: 1 3 768 112 112 (28901376)
I0418 00:01:14.263175  9780 net.cpp:165] Memory required for data: 346816916
I0418 00:01:14.263180  9780 layer_factory.hpp:77] Creating layer gt_boxes_data_1_split
I0418 00:01:14.263185  9780 net.cpp:100] Creating Layer gt_boxes_data_1_split
I0418 00:01:14.263188  9780 net.cpp:434] gt_boxes_data_1_split <- gt_boxes
I0418 00:01:14.263195  9780 net.cpp:408] gt_boxes_data_1_split -> gt_boxes_data_1_split_0
I0418 00:01:14.263200  9780 net.cpp:408] gt_boxes_data_1_split -> gt_boxes_data_1_split_1
I0418 00:01:14.263227  9780 net.cpp:150] Setting up gt_boxes_data_1_split
I0418 00:01:14.263232  9780 net.cpp:157] Top shape: 1 101 (101)
I0418 00:01:14.263236  9780 net.cpp:157] Top shape: 1 101 (101)
I0418 00:01:14.263240  9780 net.cpp:165] Memory required for data: 346817724
I0418 00:01:14.263244  9780 layer_factory.hpp:77] Creating layer conv1a
I0418 00:01:14.263259  9780 net.cpp:100] Creating Layer conv1a
I0418 00:01:14.263263  9780 net.cpp:434] conv1a <- data_data_0_split_0
I0418 00:01:14.263269  9780 net.cpp:408] conv1a -> conv1a
I0418 00:01:14.575147  9780 net.cpp:150] Setting up conv1a
I0418 00:01:14.575196  9780 net.cpp:157] Top shape: 1 64 768 112 112 (616562688)
I0418 00:01:14.575202  9780 net.cpp:165] Memory required for data: 2813068476
I0418 00:01:14.575232  9780 layer_factory.hpp:77] Creating layer relu1a
I0418 00:01:14.575249  9780 net.cpp:100] Creating Layer relu1a
I0418 00:01:14.575258  9780 net.cpp:434] relu1a <- conv1a
I0418 00:01:14.575266  9780 net.cpp:395] relu1a -> conv1a (in-place)
I0418 00:01:14.575935  9780 net.cpp:150] Setting up relu1a
I0418 00:01:14.575956  9780 net.cpp:157] Top shape: 1 64 768 112 112 (616562688)
I0418 00:01:14.575964  9780 net.cpp:165] Memory required for data: 5279319228
I0418 00:01:14.575971  9780 layer_factory.hpp:77] Creating layer pool1
I0418 00:01:14.575986  9780 net.cpp:100] Creating Layer pool1
I0418 00:01:14.575994  9780 net.cpp:434] pool1 <- conv1a
I0418 00:01:14.576004  9780 net.cpp:408] pool1 -> pool1
I0418 00:01:14.576292  9780 net.cpp:150] Setting up pool1
I0418 00:01:14.576313  9780 net.cpp:157] Top shape: 1 64 768 56 56 (154140672)
I0418 00:01:14.576318  9780 net.cpp:165] Memory required for data: 5895881916
I0418 00:01:14.576324  9780 layer_factory.hpp:77] Creating layer conv2a
I0418 00:01:14.576341  9780 net.cpp:100] Creating Layer conv2a
I0418 00:01:14.576349  9780 net.cpp:434] conv2a <- pool1
I0418 00:01:14.576357  9780 net.cpp:408] conv2a -> conv2a
I0418 00:01:14.592947  9780 net.cpp:150] Setting up conv2a
I0418 00:01:14.592983  9780 net.cpp:157] Top shape: 1 128 768 56 56 (308281344)
I0418 00:01:14.592989  9780 net.cpp:165] Memory required for data: 7129007292
I0418 00:01:14.593008  9780 layer_factory.hpp:77] Creating layer relu2a
I0418 00:01:14.593022  9780 net.cpp:100] Creating Layer relu2a
I0418 00:01:14.593029  9780 net.cpp:434] relu2a <- conv2a
I0418 00:01:14.593037  9780 net.cpp:395] relu2a -> conv2a (in-place)
I0418 00:01:14.593504  9780 net.cpp:150] Setting up relu2a
I0418 00:01:14.593521  9780 net.cpp:157] Top shape: 1 128 768 56 56 (308281344)
I0418 00:01:14.593528  9780 net.cpp:165] Memory required for data: 8362132668
I0418 00:01:14.593533  9780 layer_factory.hpp:77] Creating layer pool2
I0418 00:01:14.593546  9780 net.cpp:100] Creating Layer pool2
I0418 00:01:14.593551  9780 net.cpp:434] pool2 <- conv2a
I0418 00:01:14.593559  9780 net.cpp:408] pool2 -> pool2
I0418 00:01:14.594269  9780 net.cpp:150] Setting up pool2
I0418 00:01:14.594285  9780 net.cpp:157] Top shape: 1 128 384 28 28 (38535168)
I0418 00:01:14.594290  9780 net.cpp:165] Memory required for data: 8516273340
I0418 00:01:14.594295  9780 layer_factory.hpp:77] Creating layer conv3a
I0418 00:01:14.594310  9780 net.cpp:100] Creating Layer conv3a
I0418 00:01:14.594316  9780 net.cpp:434] conv3a <- pool2
I0418 00:01:14.594323  9780 net.cpp:408] conv3a -> conv3a
I0418 00:01:14.629696  9780 net.cpp:150] Setting up conv3a
I0418 00:01:14.629727  9780 net.cpp:157] Top shape: 1 256 384 28 28 (77070336)
I0418 00:01:14.629734  9780 net.cpp:165] Memory required for data: 8824554684
I0418 00:01:14.629750  9780 layer_factory.hpp:77] Creating layer relu3a
I0418 00:01:14.629763  9780 net.cpp:100] Creating Layer relu3a
I0418 00:01:14.629770  9780 net.cpp:434] relu3a <- conv3a
I0418 00:01:14.629778  9780 net.cpp:395] relu3a -> conv3a (in-place)
I0418 00:01:14.630203  9780 net.cpp:150] Setting up relu3a
I0418 00:01:14.630221  9780 net.cpp:157] Top shape: 1 256 384 28 28 (77070336)
I0418 00:01:14.630226  9780 net.cpp:165] Memory required for data: 9132836028
I0418 00:01:14.630231  9780 layer_factory.hpp:77] Creating layer conv3b
I0418 00:01:14.630246  9780 net.cpp:100] Creating Layer conv3b
I0418 00:01:14.630252  9780 net.cpp:434] conv3b <- conv3a
I0418 00:01:14.630261  9780 net.cpp:408] conv3b -> conv3b
I0418 00:01:14.695957  9780 net.cpp:150] Setting up conv3b
I0418 00:01:14.695996  9780 net.cpp:157] Top shape: 1 256 384 28 28 (77070336)
I0418 00:01:14.696007  9780 net.cpp:165] Memory required for data: 9441117372
I0418 00:01:14.696022  9780 layer_factory.hpp:77] Creating layer relu3b
I0418 00:01:14.696038  9780 net.cpp:100] Creating Layer relu3b
I0418 00:01:14.696053  9780 net.cpp:434] relu3b <- conv3b
I0418 00:01:14.696064  9780 net.cpp:395] relu3b -> conv3b (in-place)
I0418 00:01:14.696537  9780 net.cpp:150] Setting up relu3b
I0418 00:01:14.696554  9780 net.cpp:157] Top shape: 1 256 384 28 28 (77070336)
I0418 00:01:14.696560  9780 net.cpp:165] Memory required for data: 9749398716
I0418 00:01:14.696568  9780 layer_factory.hpp:77] Creating layer pool3
I0418 00:01:14.696579  9780 net.cpp:100] Creating Layer pool3
I0418 00:01:14.696584  9780 net.cpp:434] pool3 <- conv3b
I0418 00:01:14.696593  9780 net.cpp:408] pool3 -> pool3
I0418 00:01:14.697641  9780 net.cpp:150] Setting up pool3
I0418 00:01:14.697659  9780 net.cpp:157] Top shape: 1 256 192 14 14 (9633792)
I0418 00:01:14.697670  9780 net.cpp:165] Memory required for data: 9787933884
I0418 00:01:14.697676  9780 layer_factory.hpp:77] Creating layer conv4a
I0418 00:01:14.697690  9780 net.cpp:100] Creating Layer conv4a
I0418 00:01:14.697695  9780 net.cpp:434] conv4a <- pool3
I0418 00:01:14.697705  9780 net.cpp:408] conv4a -> conv4a
I0418 00:01:14.826843  9780 net.cpp:150] Setting up conv4a
I0418 00:01:14.826874  9780 net.cpp:157] Top shape: 1 512 192 14 14 (19267584)
I0418 00:01:14.826879  9780 net.cpp:165] Memory required for data: 9865004220
I0418 00:01:14.826907  9780 layer_factory.hpp:77] Creating layer relu4a
I0418 00:01:14.826921  9780 net.cpp:100] Creating Layer relu4a
I0418 00:01:14.826930  9780 net.cpp:434] relu4a <- conv4a
I0418 00:01:14.826938  9780 net.cpp:395] relu4a -> conv4a (in-place)
I0418 00:01:14.827386  9780 net.cpp:150] Setting up relu4a
I0418 00:01:14.827404  9780 net.cpp:157] Top shape: 1 512 192 14 14 (19267584)
I0418 00:01:14.827409  9780 net.cpp:165] Memory required for data: 9942074556
I0418 00:01:14.827415  9780 layer_factory.hpp:77] Creating layer conv4b
I0418 00:01:14.827433  9780 net.cpp:100] Creating Layer conv4b
I0418 00:01:14.827440  9780 net.cpp:434] conv4b <- conv4a
I0418 00:01:14.827450  9780 net.cpp:408] conv4b -> conv4b
I0418 00:01:15.076731  9780 net.cpp:150] Setting up conv4b
I0418 00:01:15.076761  9780 net.cpp:157] Top shape: 1 512 192 14 14 (19267584)
I0418 00:01:15.076766  9780 net.cpp:165] Memory required for data: 10019144892
I0418 00:01:15.076777  9780 layer_factory.hpp:77] Creating layer relu4b
I0418 00:01:15.076789  9780 net.cpp:100] Creating Layer relu4b
I0418 00:01:15.076795  9780 net.cpp:434] relu4b <- conv4b
I0418 00:01:15.076805  9780 net.cpp:395] relu4b -> conv4b (in-place)
I0418 00:01:15.077575  9780 net.cpp:150] Setting up relu4b
I0418 00:01:15.077589  9780 net.cpp:157] Top shape: 1 512 192 14 14 (19267584)
I0418 00:01:15.077594  9780 net.cpp:165] Memory required for data: 10096215228
I0418 00:01:15.077600  9780 layer_factory.hpp:77] Creating layer pool4
I0418 00:01:15.077613  9780 net.cpp:100] Creating Layer pool4
I0418 00:01:15.077622  9780 net.cpp:434] pool4 <- conv4b
I0418 00:01:15.077630  9780 net.cpp:408] pool4 -> pool4
I0418 00:01:15.078797  9780 net.cpp:150] Setting up pool4
I0418 00:01:15.078815  9780 net.cpp:157] Top shape: 1 512 96 7 7 (2408448)
I0418 00:01:15.078821  9780 net.cpp:165] Memory required for data: 10105849020
I0418 00:01:15.078826  9780 layer_factory.hpp:77] Creating layer conv5a
I0418 00:01:15.078841  9780 net.cpp:100] Creating Layer conv5a
I0418 00:01:15.078850  9780 net.cpp:434] conv5a <- pool4
I0418 00:01:15.078857  9780 net.cpp:408] conv5a -> conv5a
I0418 00:01:15.323444  9780 net.cpp:150] Setting up conv5a
I0418 00:01:15.323480  9780 net.cpp:157] Top shape: 1 512 96 7 7 (2408448)
I0418 00:01:15.323485  9780 net.cpp:165] Memory required for data: 10115482812
I0418 00:01:15.323494  9780 layer_factory.hpp:77] Creating layer relu5a
I0418 00:01:15.323504  9780 net.cpp:100] Creating Layer relu5a
I0418 00:01:15.323509  9780 net.cpp:434] relu5a <- conv5a
I0418 00:01:15.323516  9780 net.cpp:395] relu5a -> conv5a (in-place)
I0418 00:01:15.324566  9780 net.cpp:150] Setting up relu5a
I0418 00:01:15.324579  9780 net.cpp:157] Top shape: 1 512 96 7 7 (2408448)
I0418 00:01:15.324582  9780 net.cpp:165] Memory required for data: 10125116604
I0418 00:01:15.324586  9780 layer_factory.hpp:77] Creating layer conv5b
I0418 00:01:15.324599  9780 net.cpp:100] Creating Layer conv5b
I0418 00:01:15.324604  9780 net.cpp:434] conv5b <- conv5a
I0418 00:01:15.324609  9780 net.cpp:408] conv5b -> conv5b
I0418 00:01:15.569245  9780 net.cpp:150] Setting up conv5b
I0418 00:01:15.569273  9780 net.cpp:157] Top shape: 1 512 96 7 7 (2408448)
I0418 00:01:15.569279  9780 net.cpp:165] Memory required for data: 10134750396
I0418 00:01:15.569290  9780 layer_factory.hpp:77] Creating layer relu5b
I0418 00:01:15.569303  9780 net.cpp:100] Creating Layer relu5b
I0418 00:01:15.569314  9780 net.cpp:434] relu5b <- conv5b
I0418 00:01:15.569325  9780 net.cpp:395] relu5b -> conv5b (in-place)
I0418 00:01:15.569535  9780 net.cpp:150] Setting up relu5b
I0418 00:01:15.569553  9780 net.cpp:157] Top shape: 1 512 96 7 7 (2408448)
I0418 00:01:15.569559  9780 net.cpp:165] Memory required for data: 10144384188
I0418 00:01:15.569566  9780 layer_factory.hpp:77] Creating layer conv5b_relu5b_0_split
I0418 00:01:15.569578  9780 net.cpp:100] Creating Layer conv5b_relu5b_0_split
I0418 00:01:15.569586  9780 net.cpp:434] conv5b_relu5b_0_split <- conv5b
I0418 00:01:15.569593  9780 net.cpp:408] conv5b_relu5b_0_split -> conv5b_relu5b_0_split_0
I0418 00:01:15.569607  9780 net.cpp:408] conv5b_relu5b_0_split -> conv5b_relu5b_0_split_1
I0418 00:01:15.569661  9780 net.cpp:150] Setting up conv5b_relu5b_0_split
I0418 00:01:15.569670  9780 net.cpp:157] Top shape: 1 512 96 7 7 (2408448)
I0418 00:01:15.569674  9780 net.cpp:157] Top shape: 1 512 96 7 7 (2408448)
I0418 00:01:15.569677  9780 net.cpp:165] Memory required for data: 10163651772
I0418 00:01:15.569681  9780 layer_factory.hpp:77] Creating layer rpn_conv/3x3
I0418 00:01:15.569691  9780 net.cpp:100] Creating Layer rpn_conv/3x3
I0418 00:01:15.569697  9780 net.cpp:434] rpn_conv/3x3 <- conv5b_relu5b_0_split_0
I0418 00:01:15.569705  9780 net.cpp:408] rpn_conv/3x3 -> rpn/output
I0418 00:01:15.816010  9780 net.cpp:150] Setting up rpn_conv/3x3
I0418 00:01:15.816043  9780 net.cpp:157] Top shape: 1 512 96 4 4 (786432)
I0418 00:01:15.816048  9780 net.cpp:165] Memory required for data: 10166797500
I0418 00:01:15.816066  9780 layer_factory.hpp:77] Creating layer rpn_relu/3x3
I0418 00:01:15.816077  9780 net.cpp:100] Creating Layer rpn_relu/3x3
I0418 00:01:15.816083  9780 net.cpp:434] rpn_relu/3x3 <- rpn/output
I0418 00:01:15.816093  9780 net.cpp:395] rpn_relu/3x3 -> rpn/output (in-place)
I0418 00:01:15.816601  9780 net.cpp:150] Setting up rpn_relu/3x3
I0418 00:01:15.816624  9780 net.cpp:157] Top shape: 1 512 96 4 4 (786432)
I0418 00:01:15.816629  9780 net.cpp:165] Memory required for data: 10169943228
I0418 00:01:15.816637  9780 layer_factory.hpp:77] Creating layer rpn_conv/3x3_2
I0418 00:01:15.816651  9780 net.cpp:100] Creating Layer rpn_conv/3x3_2
I0418 00:01:15.816658  9780 net.cpp:434] rpn_conv/3x3_2 <- rpn/output
I0418 00:01:15.816673  9780 net.cpp:408] rpn_conv/3x3_2 -> rpn/output_2
I0418 00:01:16.064568  9780 net.cpp:150] Setting up rpn_conv/3x3_2
I0418 00:01:16.064595  9780 net.cpp:157] Top shape: 1 512 96 2 2 (196608)
I0418 00:01:16.064601  9780 net.cpp:165] Memory required for data: 10170729660
I0418 00:01:16.064612  9780 layer_factory.hpp:77] Creating layer rpn_relu/3x3_2
I0418 00:01:16.064625  9780 net.cpp:100] Creating Layer rpn_relu/3x3_2
I0418 00:01:16.064630  9780 net.cpp:434] rpn_relu/3x3_2 <- rpn/output_2
I0418 00:01:16.064638  9780 net.cpp:395] rpn_relu/3x3_2 -> rpn/output_2 (in-place)
I0418 00:01:16.065731  9780 net.cpp:150] Setting up rpn_relu/3x3_2
I0418 00:01:16.065744  9780 net.cpp:157] Top shape: 1 512 96 2 2 (196608)
I0418 00:01:16.065750  9780 net.cpp:165] Memory required for data: 10171516092
I0418 00:01:16.065755  9780 layer_factory.hpp:77] Creating layer rpn/output_pool
I0418 00:01:16.065764  9780 net.cpp:100] Creating Layer rpn/output_pool
I0418 00:01:16.065769  9780 net.cpp:434] rpn/output_pool <- rpn/output_2
I0418 00:01:16.065778  9780 net.cpp:408] rpn/output_pool -> rpn/output_pool
I0418 00:01:16.067327  9780 net.cpp:150] Setting up rpn/output_pool
I0418 00:01:16.067340  9780 net.cpp:157] Top shape: 1 512 96 1 1 (49152)
I0418 00:01:16.067345  9780 net.cpp:165] Memory required for data: 10171712700
I0418 00:01:16.067350  9780 layer_factory.hpp:77] Creating layer rpn/output_pool_rpn/output_pool_0_split
I0418 00:01:16.067359  9780 net.cpp:100] Creating Layer rpn/output_pool_rpn/output_pool_0_split
I0418 00:01:16.067365  9780 net.cpp:434] rpn/output_pool_rpn/output_pool_0_split <- rpn/output_pool
I0418 00:01:16.067371  9780 net.cpp:408] rpn/output_pool_rpn/output_pool_0_split -> rpn/output_pool_rpn/output_pool_0_split_0
I0418 00:01:16.067379  9780 net.cpp:408] rpn/output_pool_rpn/output_pool_0_split -> rpn/output_pool_rpn/output_pool_0_split_1
I0418 00:01:16.067431  9780 net.cpp:150] Setting up rpn/output_pool_rpn/output_pool_0_split
I0418 00:01:16.067443  9780 net.cpp:157] Top shape: 1 512 96 1 1 (49152)
I0418 00:01:16.067450  9780 net.cpp:157] Top shape: 1 512 96 1 1 (49152)
I0418 00:01:16.067453  9780 net.cpp:165] Memory required for data: 10172105916
I0418 00:01:16.067458  9780 layer_factory.hpp:77] Creating layer rpn_cls_score
I0418 00:01:16.067472  9780 net.cpp:100] Creating Layer rpn_cls_score
I0418 00:01:16.067481  9780 net.cpp:434] rpn_cls_score <- rpn/output_pool_rpn/output_pool_0_split_0
I0418 00:01:16.067494  9780 net.cpp:408] rpn_cls_score -> rpn_cls_score
I0418 00:01:16.071570  9780 net.cpp:150] Setting up rpn_cls_score
I0418 00:01:16.071586  9780 net.cpp:157] Top shape: 1 74 96 1 1 (7104)
I0418 00:01:16.071591  9780 net.cpp:165] Memory required for data: 10172134332
I0418 00:01:16.071600  9780 layer_factory.hpp:77] Creating layer rpn_cls_score_rpn_cls_score_0_split
I0418 00:01:16.071609  9780 net.cpp:100] Creating Layer rpn_cls_score_rpn_cls_score_0_split
I0418 00:01:16.071614  9780 net.cpp:434] rpn_cls_score_rpn_cls_score_0_split <- rpn_cls_score
I0418 00:01:16.071619  9780 net.cpp:408] rpn_cls_score_rpn_cls_score_0_split -> rpn_cls_score_rpn_cls_score_0_split_0
I0418 00:01:16.071629  9780 net.cpp:408] rpn_cls_score_rpn_cls_score_0_split -> rpn_cls_score_rpn_cls_score_0_split_1
I0418 00:01:16.071698  9780 net.cpp:150] Setting up rpn_cls_score_rpn_cls_score_0_split
I0418 00:01:16.071709  9780 net.cpp:157] Top shape: 1 74 96 1 1 (7104)
I0418 00:01:16.071717  9780 net.cpp:157] Top shape: 1 74 96 1 1 (7104)
I0418 00:01:16.071720  9780 net.cpp:165] Memory required for data: 10172191164
I0418 00:01:16.071727  9780 layer_factory.hpp:77] Creating layer rpn_twin_pred
I0418 00:01:16.071744  9780 net.cpp:100] Creating Layer rpn_twin_pred
I0418 00:01:16.071753  9780 net.cpp:434] rpn_twin_pred <- rpn/output_pool_rpn/output_pool_0_split_1
I0418 00:01:16.071763  9780 net.cpp:408] rpn_twin_pred -> rpn_twin_pred
I0418 00:01:16.076401  9780 net.cpp:150] Setting up rpn_twin_pred
I0418 00:01:16.076422  9780 net.cpp:157] Top shape: 1 74 96 1 1 (7104)
I0418 00:01:16.076443  9780 net.cpp:165] Memory required for data: 10172219580
I0418 00:01:16.076454  9780 layer_factory.hpp:77] Creating layer rpn_twin_pred_rpn_twin_pred_0_split
I0418 00:01:16.076463  9780 net.cpp:100] Creating Layer rpn_twin_pred_rpn_twin_pred_0_split
I0418 00:01:16.076470  9780 net.cpp:434] rpn_twin_pred_rpn_twin_pred_0_split <- rpn_twin_pred
I0418 00:01:16.076496  9780 net.cpp:408] rpn_twin_pred_rpn_twin_pred_0_split -> rpn_twin_pred_rpn_twin_pred_0_split_0
I0418 00:01:16.076508  9780 net.cpp:408] rpn_twin_pred_rpn_twin_pred_0_split -> rpn_twin_pred_rpn_twin_pred_0_split_1
I0418 00:01:16.076575  9780 net.cpp:150] Setting up rpn_twin_pred_rpn_twin_pred_0_split
I0418 00:01:16.076592  9780 net.cpp:157] Top shape: 1 74 96 1 1 (7104)
I0418 00:01:16.076599  9780 net.cpp:157] Top shape: 1 74 96 1 1 (7104)
I0418 00:01:16.076608  9780 net.cpp:165] Memory required for data: 10172276412
I0418 00:01:16.076614  9780 layer_factory.hpp:77] Creating layer rpn_cls_score_reshape
I0418 00:01:16.076630  9780 net.cpp:100] Creating Layer rpn_cls_score_reshape
I0418 00:01:16.076638  9780 net.cpp:434] rpn_cls_score_reshape <- rpn_cls_score_rpn_cls_score_0_split_0
I0418 00:01:16.076653  9780 net.cpp:408] rpn_cls_score_reshape -> rpn_cls_score_reshape
I0418 00:01:16.076704  9780 net.cpp:150] Setting up rpn_cls_score_reshape
I0418 00:01:16.076727  9780 net.cpp:157] Top shape: 1 2 3552 1 1 (7104)
I0418 00:01:16.076733  9780 net.cpp:165] Memory required for data: 10172304828
I0418 00:01:16.076740  9780 layer_factory.hpp:77] Creating layer rpn_cls_score_reshape_rpn_cls_score_reshape_0_split
I0418 00:01:16.076747  9780 net.cpp:100] Creating Layer rpn_cls_score_reshape_rpn_cls_score_reshape_0_split
I0418 00:01:16.076756  9780 net.cpp:434] rpn_cls_score_reshape_rpn_cls_score_reshape_0_split <- rpn_cls_score_reshape
I0418 00:01:16.076766  9780 net.cpp:408] rpn_cls_score_reshape_rpn_cls_score_reshape_0_split -> rpn_cls_score_reshape_rpn_cls_score_reshape_0_split_0
I0418 00:01:16.076778  9780 net.cpp:408] rpn_cls_score_reshape_rpn_cls_score_reshape_0_split -> rpn_cls_score_reshape_rpn_cls_score_reshape_0_split_1
I0418 00:01:16.076786  9780 net.cpp:408] rpn_cls_score_reshape_rpn_cls_score_reshape_0_split -> rpn_cls_score_reshape_rpn_cls_score_reshape_0_split_2
I0418 00:01:16.076860  9780 net.cpp:150] Setting up rpn_cls_score_reshape_rpn_cls_score_reshape_0_split
I0418 00:01:16.076874  9780 net.cpp:157] Top shape: 1 2 3552 1 1 (7104)
I0418 00:01:16.076889  9780 net.cpp:157] Top shape: 1 2 3552 1 1 (7104)
I0418 00:01:16.076894  9780 net.cpp:157] Top shape: 1 2 3552 1 1 (7104)
I0418 00:01:16.076900  9780 net.cpp:165] Memory required for data: 10172390076
I0418 00:01:16.076905  9780 layer_factory.hpp:77] Creating layer rpn-data
I0418 00:01:16.077451  9780 net.cpp:100] Creating Layer rpn-data
I0418 00:01:16.077466  9780 net.cpp:434] rpn-data <- rpn_cls_score_rpn_cls_score_0_split_1
I0418 00:01:16.077473  9780 net.cpp:434] rpn-data <- gt_boxes_data_1_split_0
I0418 00:01:16.077479  9780 net.cpp:434] rpn-data <- data_data_0_split_1
I0418 00:01:16.077487  9780 net.cpp:408] rpn-data -> rpn_labels
I0418 00:01:16.077497  9780 net.cpp:408] rpn-data -> rpn_twin_targets
I0418 00:01:16.077515  9780 net.cpp:408] rpn-data -> rpn_twin_inside_weights
I0418 00:01:16.077528  9780 net.cpp:408] rpn-data -> rpn_twin_outside_weights
I0418 00:01:16.080998  9780 net.cpp:150] Setting up rpn-data
I0418 00:01:16.081014  9780 net.cpp:157] Top shape: 1 1 3552 1 1 (3552)
I0418 00:01:16.081022  9780 net.cpp:157] Top shape: 1 74 96 1 1 (7104)
I0418 00:01:16.081027  9780 net.cpp:157] Top shape: 1 74 96 1 1 (7104)
I0418 00:01:16.081032  9780 net.cpp:157] Top shape: 1 74 96 1 1 (7104)
I0418 00:01:16.081037  9780 net.cpp:165] Memory required for data: 10172489532
I0418 00:01:16.081041  9780 layer_factory.hpp:77] Creating layer rpn_labels_rpn-data_0_split
I0418 00:01:16.081048  9780 net.cpp:100] Creating Layer rpn_labels_rpn-data_0_split
I0418 00:01:16.081053  9780 net.cpp:434] rpn_labels_rpn-data_0_split <- rpn_labels
I0418 00:01:16.081060  9780 net.cpp:408] rpn_labels_rpn-data_0_split -> rpn_labels_rpn-data_0_split_0
I0418 00:01:16.081069  9780 net.cpp:408] rpn_labels_rpn-data_0_split -> rpn_labels_rpn-data_0_split_1
I0418 00:01:16.081121  9780 net.cpp:150] Setting up rpn_labels_rpn-data_0_split
I0418 00:01:16.081132  9780 net.cpp:157] Top shape: 1 1 3552 1 1 (3552)
I0418 00:01:16.081138  9780 net.cpp:157] Top shape: 1 1 3552 1 1 (3552)
I0418 00:01:16.081143  9780 net.cpp:165] Memory required for data: 10172517948
I0418 00:01:16.081148  9780 layer_factory.hpp:77] Creating layer rpn_loss_cls
I0418 00:01:16.081159  9780 net.cpp:100] Creating Layer rpn_loss_cls
I0418 00:01:16.081169  9780 net.cpp:434] rpn_loss_cls <- rpn_cls_score_reshape_rpn_cls_score_reshape_0_split_0
I0418 00:01:16.081176  9780 net.cpp:434] rpn_loss_cls <- rpn_labels_rpn-data_0_split_0
…
I0418 00:01:16.081943  9780 layer_factory.hpp:77] Creating layer rpn_accuarcy
I0418 00:01:16.081954  9780 net.cpp:100] Creating Layer rpn_accuarcy
I0418 00:01:16.081960  9780 net.cpp:434] rpn_accuarcy <- rpn_cls_score_reshape_rpn_cls_score_reshape_0_split_1
I0418 00:01:16.081966  9780 net.cpp:434] rpn_accuarcy <- rpn_labels_rpn-data_0_split_1
I0418 00:01:16.081974  9780 net.cpp:408] rpn_accuarcy -> rpn_accuarcy
I0418 00:01:16.081984  9780 net.cpp:408] rpn_accuarcy -> rpn_accuarcy_class
I0418 00:01:16.082031  9780 net.cpp:150] Setting up rpn_accuarcy
I0418 00:01:16.082042  9780 net.cpp:157] Top shape: (1)
I0418 00:01:16.082049  9780 net.cpp:157] Top shape: 2 (2)
I0418 00:01:16.082053  9780 net.cpp:165] Memory required for data: 10172517968
I0418 00:01:16.082059  9780 layer_factory.hpp:77] Creating layer rpn_cls_prob
I0418 00:01:16.082078  9780 net.cpp:100] Creating Layer rpn_cls_prob
I0418 00:01:16.082089  9780 net.cpp:434] rpn_cls_prob <- rpn_cls_score_reshape_rpn_cls_score_reshape_0_split_2
I0418 00:01:16.082095  9780 net.cpp:408] rpn_cls_prob -> rpn_cls_prob
I0418 00:01:16.082387  9780 net.cpp:150] Setting up rpn_cls_prob
I0418 00:01:16.082401  9780 net.cpp:157] Top shape: 1 2 3552 1 1 (7104)
I0418 00:01:16.082406  9780 net.cpp:165] Memory required for data: 10172546384
I0418 00:01:16.082412  9780 layer_factory.hpp:77] Creating layer rpn_cls_prob_reshape
I0418 00:01:16.082420  9780 net.cpp:100] Creating Layer rpn_cls_prob_reshape
I0418 00:01:16.082425  9780 net.cpp:434] rpn_cls_prob_reshape <- rpn_cls_prob
I0418 00:01:16.082432  9780 net.cpp:408] rpn_cls_prob_reshape -> rpn_cls_prob_reshape
I0418 00:01:16.082465  9780 net.cpp:150] Setting up rpn_cls_prob_reshape
I0418 00:01:16.082475  9780 net.cpp:157] Top shape: 1 74 96 1 1 (7104)
I0418 00:01:16.082479  9780 net.cpp:165] Memory required for data: 10172574800
I0418 00:01:16.082484  9780 layer_factory.hpp:77] Creating layer proposal
I0418 00:01:16.083187  9780 net.cpp:100] Creating Layer proposal
I0418 00:01:16.083202  9780 net.cpp:434] proposal <- rpn_cls_prob_reshape
I0418 00:01:16.083209  9780 net.cpp:434] proposal <- rpn_twin_pred_rpn_twin_pred_0_split_1
I0418 00:01:16.083216  9780 net.cpp:408] proposal -> rpn_rois
I0418 00:01:16.086885  9780 net.cpp:150] Setting up proposal
I0418 00:01:16.086899  9780 net.cpp:157] Top shape: 1 3 (3)
I0418 00:01:16.086904  9780 net.cpp:165] Memory required for data: 10172574812
I0418 00:01:16.086907  9780 layer_factory.hpp:77] Creating layer roi-data
I0418 00:01:16.088922  9780 net.cpp:100] Creating Layer roi-data
I0418 00:01:16.088938  9780 net.cpp:434] roi-data <- rpn_rois
I0418 00:01:16.088954  9780 net.cpp:434] roi-data <- gt_boxes_data_1_split_1
I0418 00:01:16.088963  9780 net.cpp:408] roi-data -> rois
I0418 00:01:16.088973  9780 net.cpp:408] roi-data -> labels
I0418 00:01:16.088981  9780 net.cpp:408] roi-data -> twin_targets
I0418 00:01:16.088991  9780 net.cpp:408] roi-data -> twin_inside_weights
I0418 00:01:16.088999  9780 net.cpp:408] roi-data -> twin_outside_weights
I0418 00:01:16.089462  9780 net.cpp:150] Setting up roi-data
I0418 00:01:16.089480  9780 net.cpp:157] Top shape: 1 3 (3)
I0418 00:01:16.089493  9780 net.cpp:157] Top shape: 1 1 (1)
I0418 00:01:16.089498  9780 net.cpp:157] Top shape: 1 402 (402)
I0418 00:01:16.089505  9780 net.cpp:157] Top shape: 1 402 (402)
I0418 00:01:16.089510  9780 net.cpp:157] Top shape: 1 402 (402)
I0418 00:01:16.089515  9780 net.cpp:165] Memory required for data: 10172579652
I0418 00:01:16.089521  9780 layer_factory.hpp:77] Creating layer labels_roi-data_1_split
I0418 00:01:16.089529  9780 net.cpp:100] Creating Layer labels_roi-data_1_split
I0418 00:01:16.089541  9780 net.cpp:434] labels_roi-data_1_split <- labels
I0418 00:01:16.089550  9780 net.cpp:408] labels_roi-data_1_split -> labels_roi-data_1_split_0
I0418 00:01:16.089558  9780 net.cpp:408] labels_roi-data_1_split -> labels_roi-data_1_split_1
I0418 00:01:16.089601  9780 net.cpp:150] Setting up labels_roi-data_1_split
I0418 00:01:16.089612  9780 net.cpp:157] Top shape: 1 1 (1)
I0418 00:01:16.089617  9780 net.cpp:157] Top shape: 1 1 (1)
I0418 00:01:16.089623  9780 net.cpp:165] Memory required for data: 10172579660
I0418 00:01:16.089628  9780 layer_factory.hpp:77] Creating layer roi_pool5
I0418 00:01:16.089640  9780 net.cpp:100] Creating Layer roi_pool5
I0418 00:01:16.089650  9780 net.cpp:434] roi_pool5 <- conv5b_relu5b_0_split_1
I0418 00:01:16.089659  9780 net.cpp:434] roi_pool5 <- rois
I0418 00:01:16.089666  9780 net.cpp:408] roi_pool5 -> pool5
I0418 00:01:16.089685  9780 roi_pooling_layer.cpp:34] Temporal scale: 0.125
I0418 00:01:16.089697  9780 roi_pooling_layer.cpp:35] Spatial scale: 0.0625
I0418 00:01:16.089753  9780 net.cpp:150] Setting up roi_pool5
I0418 00:01:16.089767  9780 net.cpp:157] Top shape: 1 512 1 4 4 (8192)
I0418 00:01:16.089773  9780 net.cpp:165] Memory required for data: 10172612428
I0418 00:01:16.089779  9780 layer_factory.hpp:77] Creating layer fc6
I0418 00:01:16.089792  9780 net.cpp:100] Creating Layer fc6
I0418 00:01:16.089802  9780 net.cpp:434] fc6 <- pool5
I0418 00:01:16.089812  9780 net.cpp:408] fc6 -> fc6
I0418 00:01:17.237207  9780 net.cpp:150] Setting up fc6
I0418 00:01:17.237239  9780 net.cpp:157] Top shape: 1 4096 (4096)
I0418 00:01:17.237248  9780 net.cpp:165] Memory required for data: 10172628812
I0418 00:01:17.237262  9780 layer_factory.hpp:77] Creating layer relu6
I0418 00:01:17.237277  9780 net.cpp:100] Creating Layer relu6
I0418 00:01:17.237298  9780 net.cpp:434] relu6 <- fc6
I0418 00:01:17.237311  9780 net.cpp:395] relu6 -> fc6 (in-place)
I0418 00:01:17.237937  9780 net.cpp:150] Setting up relu6
I0418 00:01:17.237956  9780 net.cpp:157] Top shape: 1 4096 (4096)
I0418 00:01:17.237962  9780 net.cpp:165] Memory required for data: 10172645196
I0418 00:01:17.237982  9780 layer_factory.hpp:77] Creating layer drop6
I0418 00:01:17.238005  9780 net.cpp:100] Creating Layer drop6
I0418 00:01:17.238013  9780 net.cpp:434] drop6 <- fc6
I0418 00:01:17.238023  9780 net.cpp:395] drop6 -> fc6 (in-place)
I0418 00:01:17.238065  9780 net.cpp:150] Setting up drop6
I0418 00:01:17.238080  9780 net.cpp:157] Top shape: 1 4096 (4096)
I0418 00:01:17.238085  9780 net.cpp:165] Memory required for data: 10172661580
I0418 00:01:17.238091  9780 layer_factory.hpp:77] Creating layer fc6_drop6_0_split
I0418 00:01:17.238101  9780 net.cpp:100] Creating Layer fc6_drop6_0_split
I0418 00:01:17.238109  9780 net.cpp:434] fc6_drop6_0_split <- fc6
I0418 00:01:17.238118  9780 net.cpp:408] fc6_drop6_0_split -> fc6_drop6_0_split_0
I0418 00:01:17.238129  9780 net.cpp:408] fc6_drop6_0_split -> fc6_drop6_0_split_1
I0418 00:01:17.238193  9780 net.cpp:150] Setting up fc6_drop6_0_split
I0418 00:01:17.238209  9780 net.cpp:157] Top shape: 1 4096 (4096)
I0418 00:01:17.238216  9780 net.cpp:157] Top shape: 1 4096 (4096)
I0418 00:01:17.238227  9780 net.cpp:165] Memory required for data: 10172694348
I0418 00:01:17.238234  9780 layer_factory.hpp:77] Creating layer cls_score
I0418 00:01:17.238245  9780 net.cpp:100] Creating Layer cls_score
I0418 00:01:17.238255  9780 net.cpp:434] cls_score <- fc6_drop6_0_split_0
I0418 00:01:17.238263  9780 net.cpp:408] cls_score -> cls_score
I0418 00:01:17.265796  9780 net.cpp:150] Setting up cls_score
I0418 00:01:17.265815  9780 net.cpp:157] Top shape: 1 201 (201)
I0418 00:01:17.265820  9780 net.cpp:165] Memory required for data: 10172695152
I0418 00:01:17.265830  9780 layer_factory.hpp:77] Creating layer cls_score_cls_score_0_split
I0418 00:01:17.265839  9780 net.cpp:100] Creating Layer cls_score_cls_score_0_split
I0418 00:01:17.265844  9780 net.cpp:434] cls_score_cls_score_0_split <- cls_score
I0418 00:01:17.265851  9780 net.cpp:408] cls_score_cls_score_0_split -> cls_score_cls_score_0_split_0
I0418 00:01:17.265859  9780 net.cpp:408] cls_score_cls_score_0_split -> cls_score_cls_score_0_split_1
I0418 00:01:17.265913  9780 net.cpp:150] Setting up cls_score_cls_score_0_split
I0418 00:01:17.265923  9780 net.cpp:157] Top shape: 1 201 (201)
I0418 00:01:17.265929  9780 net.cpp:157] Top shape: 1 201 (201)
I0418 00:01:17.265934  9780 net.cpp:165] Memory required for data: 10172696760
I0418 00:01:17.265939  9780 layer_factory.hpp:77] Creating layer twin_pred
I0418 00:01:17.265954  9780 net.cpp:100] Creating Layer twin_pred
I0418 00:01:17.265961  9780 net.cpp:434] twin_pred <- fc6_drop6_0_split_1
I0418 00:01:17.265970  9780 net.cpp:408] twin_pred -> twin_pred
I0418 00:01:17.322326  9780 net.cpp:150] Setting up twin_pred
I0418 00:01:17.322356  9780 net.cpp:157] Top shape: 1 402 (402)
I0418 00:01:17.322362  9780 net.cpp:165] Memory required for data: 10172698368
I0418 00:01:17.322374  9780 layer_factory.hpp:77] Creating layer loss_cls
I0418 00:01:17.322391  9780 net.cpp:100] Creating Layer loss_cls
I0418 00:01:17.322398  9780 net.cpp:434] loss_cls <- cls_score_cls_score_0_split_0
I0418 00:01:17.322407  9780 net.cpp:434] loss_cls <- labels_roi-data_1_split_0
I0418 00:01:17.322417  9780 net.cpp:408] loss_cls -> loss_cls
…
