…
stepsize: 350000
snapshot: 0
snapshot_prefix: "./experiments/activitynet/snapshot/activitynet"
average_loss: 100
iter_size: 1
I0416 01:46:22.080137 25516 solver.cpp:81] Creating training net from train_net file: ./experiments/activitynet/train.prototxt
I0416 01:46:22.085317 25516 net.cpp:58] Initializing net from parameters: 
name: "activitynet"
state {
  phase: TRAIN
}
layer {
  name: "data"
  type: "Python"
  top: "data"
  top: "gt_boxes"
  python_param {
    module: "roi_data_layer.layer"
    layer: "RoIDataLayer"
    param_str: "\'num_classes\': 100"
  }
}
layer {
  name: "conv1a"
  type: "Convolution"
  bottom: "data"
  top: "conv1a"
  param {
    lr_mult: 0
    decay_mult: 0
  }
  param {
    lr_mult: 0
    decay_mult: 0
  }
  convolution_param {
    num_output: 64
    pad: 1
    pad: 1
    pad: 1
    kernel_size: 3
    kernel_size: 3
    kernel_size: 3
    weight_filler {
      type: "gaussian"
      std: 0.01
    }
    bias_filler {
      type: "constant"
      value: 0
    }
  }
}
layer {
  name: "relu1a"
  type: "ReLU"
  bottom: "conv1a"
  top: "conv1a"
}
layer {
  name: "pool1"
  type: "Pooling"
  bottom: "conv1a"
  top: "pool1"
  pooling_param {
    pool: MAX
    kernel_size: 1
    kernel_size: 2
    kernel_size: 2
    stride: 1
    stride: 2
    stride: 2
  }
}
layer {
  name: "conv2a"
  type: "Convolution"
  bottom: "pool1"
  top: "conv2a"
  param {
    lr_mult: 0
    decay_mult: 0
  }
  param {
    lr_mult: 0
    decay_mult: 0
  }
  convolution_param {
    num_output: 128
    pad: 1
    pad: 1
    pad: 1
    kernel_size: 3
    kernel_size: 3
    kernel_size: 3
    weight_filler {
      type: "gaussian"
      std: 0.01
    }
    bias_filler {
      type: "constant"
      value: 1
    }
  }
}
layer {
  name: "relu2a"
  type: "ReLU"
  bottom: "conv2a"
  top: "conv2a"
}
layer {
  name: "pool2"
  type: "Pooling"
  bottom: "conv2a"
  top: "pool2"
  pooling_param {
    pool: MAX
    kernel_size: 2
    kernel_size: 2
    kernel_size: 2
    stride: 2
    stride: 2
    stride: 2
  }
}
layer {
  name: "conv3a"
  type: "Convolution"
  bottom: "pool2"
  top: "conv3a"
  param {
    lr_mult: 1
    decay_mult: 1
  }
  param {
    lr_mult: 2
    decay_mult: 0
  }
  convolution_param {
    num_output: 256
    pad: 1
    pad: 1
    pad: 1
    kernel_size: 3
    kernel_size: 3
    kernel_size: 3
    weight_filler {
      type: "gaussian"
      std: 0.01
    }
    bias_filler {
      type: "constant"
      value: 1
    }
  }
}
layer {
  name: "relu3a"
  type: "ReLU"
  bottom: "conv3a"
  top: "conv3a"
}
layer {
  name: "conv3b"
  type: "Convolution"
  bottom: "conv3a"
  top: "conv3b"
  param {
    lr_mult: 1
    decay_mult: 1
  }
  param {
    lr_mult: 2
    decay_mult: 0
  }
  convolution_param {
    num_output: 256
    pad: 1
    pad: 1
    pad: 1
    kernel_size: 3
    kernel_size: 3
    kernel_size: 3
    weight_filler {
      type: "gaussian"
      std: 0.01
    }
    bias_filler {
      type: "constant"
      value: 1
    }
  }
}
layer {
  name: "relu3b"
  type: "ReLU"
  bottom: "conv3b"
  top: "conv3b"
}
layer {
  name: "pool3"
  type: "Pooling"
  bottom: "conv3b"
  top: "pool3"
  pooling_param {
    pool: MAX
    kernel_size: 2
    kernel_size: 2
    kernel_size: 2
    stride: 2
    stride: 2
    stride: 2
  }
}
layer {
  name: "conv4a"
  type: "Convolution"
  bottom: "pool3"
  top: "conv4a"
  param {
    lr_mult: 1
    decay_mult: 1
  }
  param {
    lr_mult: 2
    decay_mult: 0
  }
  convolution_param {
    num_output: 512
    pad: 1
    pad: 1
    pad: 1
    kernel_size: 3
    kernel_size: 3
    kernel_size: 3
    weight_filler {
      type: "gaussian"
      std: 0.01
    }
    bias_filler {
      type: "constant"
      value: 1
    }
  }
}
layer {
  name: "relu4a"
  type: "ReLU"
  bottom: "conv4a"
  top: "conv4a"
}
layer {
  name: "conv4b"
  type: "Convolution"
  bottom: "conv4a"
  top: "conv4b"
  param {
    lr_mult: 1
    decay_mult: 1
  }
  param {
    lr_mult: 2
    decay_mult: 0
  }
  convolution_param {
    num_output: 512
    pad: 1
    pad: 1
    pad: 1
    kernel_size: 3
    kernel_size: 3
    kernel_size: 3
    weight_filler {
      type: "gaussian"
      std: 0.01
    }
    bias_filler {
      type: "constant"
      value: 1
    }
  }
}
layer {
  name: "relu4b"
  type: "ReLU"
  bottom: "conv4b"
  top: "conv4b"
}
layer {
  name: "pool4"
  type: "Pooling"
  bottom: "conv4b"
  top: "pool4"
  pooling_param {
    pool: MAX
    kernel_size: 2
    kernel_size: 2
    kernel_size: 2
    stride: 2
    stride: 2
    stride: 2
  }
}
layer {
  name: "conv5a"
  type: "Convolution"
  bottom: "pool4"
  top: "conv5a"
  param {
    lr_mult: 1
    decay_mult: 1
  }
  param {
    lr_mult: 2
    decay_mult: 0
  }
  convolution_param {
    num_output: 512
    pad: 1
    pad: 1
    pad: 1
    kernel_size: 3
    kernel_size: 3
    kernel_size: 3
    weight_filler {
      type: "gaussian"
      std: 0.01
    }
    bias_filler {
      type: "constant"
      value: 1
    }
  }
}
layer {
  name: "relu5a"
  type: "ReLU"
  bottom: "conv5a"
  top: "conv5a"
}
layer {
  name: "conv5b"
  type: "Convolution"
  bottom: "conv5a"
  top: "conv5b"
  param {
    lr_mult: 1
    decay_mult: 1
  }
  param {
    lr_mult: 2
    decay_mult: 0
  }
  convolution_param {
    num_output: 512
    pad: 1
    pad: 1
    pad: 1
    kernel_size: 3
    kernel_size: 3
    kernel_size: 3
    weight_filler {
      type: "gaussian"
      std: 0.01
    }
    bias_filler {
      type: "constant"
      value: 1
    }
  }
}
layer {
  name: "relu5b"
  type: "ReLU"
  bottom: "conv5b"
  top: "conv5b"
}
layer {
  name: "rpn_conv/3x3"
  type: "Convolution"
  bottom: "conv5b"
  top: "rpn/output"
  param {
    lr_mult: 1
    decay_mult: 1
  }
  param {
    lr_mult: 2
    decay_mult: 0
  }
  convolution_param {
    num_output: 512
    pad: 1
    pad: 1
    pad: 1
    kernel_size: 3
    kernel_size: 3
    kernel_size: 3
    stride: 1
    stride: 2
    stride: 2
    weight_filler {
      type: "gaussian"
      std: 0.01
    }
    bias_filler {
      type: "constant"
      value: 0
    }
  }
}
layer {
  name: "rpn_relu/3x3"
  type: "ReLU"
  bottom: "rpn/output"
  top: "rpn/output"
}
layer {
  name: "rpn_conv/3x3_2"
  type: "Convolution"
  bottom: "rpn/output"
  top: "rpn/output_2"
  param {
    lr_mult: 1
    decay_mult: 1
  }
  param {
    lr_mult: 2
    decay_mult: 0
  }
  convolution_param {
    num_output: 512
    pad: 1
    pad: 1
    pad: 1
    kernel_size: 3
    kernel_size: 3
    kernel_size: 3
    stride: 1
    stride: 2
    stride: 2
    weight_filler {
      type: "gaussian"
      std: 0.01
    }
    bias_filler {
      type: "constant"
      value: 0
    }
  }
}
layer {
  name: "rpn_relu/3x3_2"
  type: "ReLU"
  bottom: "rpn/output_2"
  top: "rpn/output_2"
}
layer {
  name: "rpn/output_pool"
  type: "Pooling"
  bottom: "rpn/output_2"
  top: "rpn/output_pool"
  pooling_param {
    pool: MAX
    kernel_size: 1
    kernel_size: 2
    kernel_size: 2
  }
}
layer {
  name: "rpn_cls_score"
  type: "Convolution"
  bottom: "rpn/output_pool"
  top: "rpn_cls_score"
  param {
    lr_mult: 1
    decay_mult: 1
  }
  param {
    lr_mult: 2
    decay_mult: 0
  }
  convolution_param {
    num_output: 74
    kernel_size: 1
    kernel_size: 1
    kernel_size: 1
    weight_filler {
      type: "gaussian"
      std: 0.01
    }
    bias_filler {
      type: "constant"
      value: 0
    }
  }
}
layer {
  name: "rpn_twin_pred"
  type: "Convolution"
  bottom: "rpn/output_pool"
  top: "rpn_twin_pred"
  param {
    lr_mult: 1
    decay_mult: 1
  }
  param {
    lr_mult: 2
    decay_mult: 0
  }
  convolution_param {
    num_output: 74
    kernel_size: 1
    kernel_size: 1
    kernel_size: 1
    weight_filler {
      type: "gaussian"
      std: 0.01
    }
    bias_filler {
      type: "constant"
      value: 0
    }
  }
}
layer {
  name: "rpn_cls_score_reshape"
  type: "Reshape"
  bottom: "rpn_cls_score"
  top: "rpn_cls_score_reshape"
  reshape_param {
    shape {
      dim: 0
      dim: 2
      dim: -1
      dim: 0
      dim: 0
    }
  }
}
layer {
  name: "rpn-data"
  type: "Python"
  bottom: "rpn_cls_score"
  bottom: "gt_boxes"
  bottom: "data"
  top: "rpn_labels"
  top: "rpn_twin_targets"
  top: "rpn_twin_inside_weights"
  top: "rpn_twin_outside_weights"
  python_param {
    module: "rpn.anchor_target_layer"
    layer: "AnchorTargetLayer"
    param_str: "\'feat_stride\': 8 \n\'scales\': !!python/tuple [1,1.25, 1.5,1.75, 2,2.5, 3,3.5, 4,4.5, 5,5.5, 6,7, 8,9,10,11,12,14,16,18,20,22,24,28,32,36,40,44,52,60,68,76,84,92,100]"
  }
}
layer {
  name: "rpn_loss_cls"
  type: "SoftmaxWithLoss"
  bottom: "rpn_cls_score_reshape"
  bottom: "rpn_labels"
  top: "rpn_cls_loss"
  loss_weight: 1
  propagate_down: true
  propagate_down: false
  loss_param {
    ignore_label: -1
    normalize: true
  }
}
layer {
  name: "rpn_loss_twin"
  type: "SmoothL1Loss"
  bottom: "rpn_twin_pred"
  bottom: "rpn_twin_targets"
  bottom: "rpn_twin_inside_weights"
  bottom: "rpn_twin_outside_weights"
  top: "rpn_loss_twin"
  loss_weight: 1
  smooth_l1_loss_param {
    sigma: 3
  }
}
layer {
  name: "rpn_accuarcy"
  type: "Accuracy"
  bottom: "rpn_cls_score_reshape"
  bottom: "rpn_labels"
  top: "rpn_accuarcy"
  top: "rpn_accuarcy_class"
  propagate_down: false
  propagate_down: false
  accuracy_param {
    ignore_label: -1
  }
}
layer {
  name: "rpn_cls_prob"
  type: "Softmax"
  bottom: "rpn_cls_score_reshape"
  top: "rpn_cls_prob"
}
layer {
  name: "rpn_cls_prob_reshape"
  type: "Reshape"
  bottom: "rpn_cls_prob"
  top: "rpn_cls_prob_reshape"
  reshape_param {
    shape {
      dim: 0
      dim: 74
      dim: -1
      dim: 0
      dim: 0
    }
  }
}
layer {
  name: "proposal"
  type: "Python"
  bottom: "rpn_cls_prob_reshape"
  bottom: "rpn_twin_pred"
  top: "rpn_rois"
  include {
    phase: TRAIN
  }
  python_param {
    module: "rpn.proposal_layer"
    layer: "ProposalLayer"
    param_str: "\'feat_stride\': 8 \n\'scales\': !!python/tuple [1,1.25, 1.5,1.75, 2,2.5, 3,3.5, 4,4.5, 5,5.5, 6,7, 8,9,10,11,12,14,16,18,20,22,24,28,32,36,40,44,52,60,68,76,84,92,100]"
  }
}
layer {
  name: "roi-data"
  type: "Python"
  bottom: "rpn_rois"
  bottom: "gt_boxes"
  top: "rois"
  top: "labels"
  top: "twin_targets"
  top: "twin_inside_weights"
  top: "twin_outside_weights"
  python_param {
    module: "rpn.proposal_target_layer"
    layer: "ProposalTargetLayer"
    param_str: "\'num_classes\': 201"
  }
}
layer {
  name: "roi_pool5"
  type: "ROIPooling"
  bottom: "conv5b"
  bottom: "rois"
  top: "pool5"
  roi_pooling_param {
    pooled_h: 4
    pooled_w: 4
    spatial_scale: 0.0625
    pooled_l: 1
    temporal_scale: 0.125
  }
}
layer {
  name: "fc6"
  type: "InnerProduct"
  bottom: "pool5"
  top: "fc6"
  param {
    lr_mult: 1
    decay_mult: 1
  }
  param {
    lr_mult: 2
    decay_mult: 0
  }
  inner_product_param {
    num_output: 4096
    weight_filler {
      type: "gaussian"
      std: 0.005
    }
    bias_filler {
      type: "constant"
      value: 1
    }
  }
}
layer {
  name: "relu6"
  type: "ReLU"
  bottom: "fc6"
  top: "fc6"
}
layer {
  name: "drop6"
  type: "Dropout"
  bottom: "fc6"
  top: "fc6"
  dropout_param {
    dropout_ratio: 0.5
  }
}
layer {
  name: "cls_score"
  type: "InnerProduct"
  bottom: "fc6"
  top: "cls_score"
  param {
    lr_mult: 1
    decay_mult: 1
  }
  param {
    lr_mult: 2
    decay_mult: 0
  }
  inner_product_param {
    num_output: 201
    weight_filler {
      type: "gaussian"
      std: 0.01
    }
    bias_filler {
      type: "constant"
      value: 0
    }
  }
}
layer {
  name: "twin_pred"
  type: "InnerProduct"
  bottom: "fc6"
  top: "twin_pred"
  param {
    lr_mult: 1
    decay_mult: 1
  }
  param {
    lr_mult: 2
    decay_mult: 0
  }
  inner_product_param {
    num_output: 402
    weight_filler {
      type: "gaussian"
      std: 0.001
    }
    bias_filler {
      type: "constant"
      value: 0
    }
  }
}
layer {
  name: "loss_cls"
  type: "SoftmaxWithLoss"
  bottom: "cls_score"
  bottom: "labels"
  top: "loss_cls"
  loss_weight: 1
  propagate_down: true
  propagate_down: false
}
layer {
  name: "loss_twin"
  type: "SmoothL1Loss"
  bottom: "twin_pred"
  bottom: "twin_targets"
  bottom: "twin_inside_weights"
  bottom: "twin_outside_weights"
  top: "loss_twin"
  loss_weight: 1
}
layer {
  name: "accuarcy"
  type: "Accuracy"
  bottom: "cls_score"
  bottom: "labels"
  top: "accuarcy"
  propagate_down: false
  propagate_down: false
  accuracy_param {
    ignore_label: -1
  }
}
I0416 01:46:22.085597 25516 layer_factory.hpp:77] Creating layer data
I0416 01:46:22.170714 25516 net.cpp:100] Creating Layer data
I0416 01:46:22.170960 25516 net.cpp:408] data -> data
I0416 01:46:22.171018 25516 net.cpp:408] data -> gt_boxes
RoiDataLayer: name_to_top: {'gt_windows': 1, 'data': 0}
I0416 01:46:22.190862 25516 net.cpp:150] Setting up data
I0416 01:46:22.190889 25516 net.cpp:157] Top shape: 1 3 768 112 112 (28901376)
I0416 01:46:22.190896 25516 net.cpp:157] Top shape: 1 3 (3)
I0416 01:46:22.190899 25516 net.cpp:165] Memory required for data: 115605516
I0416 01:46:22.190907 25516 layer_factory.hpp:77] Creating layer data_data_0_split
I0416 01:46:22.190923 25516 net.cpp:100] Creating Layer data_data_0_split
I0416 01:46:22.190929 25516 net.cpp:434] data_data_0_split <- data
I0416 01:46:22.190938 25516 net.cpp:408] data_data_0_split -> data_data_0_split_0
I0416 01:46:22.190969 25516 net.cpp:408] data_data_0_split -> data_data_0_split_1
I0416 01:46:22.191036 25516 net.cpp:150] Setting up data_data_0_split
I0416 01:46:22.191047 25516 net.cpp:157] Top shape: 1 3 768 112 112 (28901376)
I0416 01:46:22.191053 25516 net.cpp:157] Top shape: 1 3 768 112 112 (28901376)
I0416 01:46:22.191057 25516 net.cpp:165] Memory required for data: 346816524
I0416 01:46:22.191061 25516 layer_factory.hpp:77] Creating layer gt_boxes_data_1_split
I0416 01:46:22.191071 25516 net.cpp:100] Creating Layer gt_boxes_data_1_split
I0416 01:46:22.191076 25516 net.cpp:434] gt_boxes_data_1_split <- gt_boxes
I0416 01:46:22.191087 25516 net.cpp:408] gt_boxes_data_1_split -> gt_boxes_data_1_split_0
I0416 01:46:22.191097 25516 net.cpp:408] gt_boxes_data_1_split -> gt_boxes_data_1_split_1
I0416 01:46:22.191164 25516 net.cpp:150] Setting up gt_boxes_data_1_split
I0416 01:46:22.191174 25516 net.cpp:157] Top shape: 1 3 (3)
I0416 01:46:22.191179 25516 net.cpp:157] Top shape: 1 3 (3)
I0416 01:46:22.191182 25516 net.cpp:165] Memory required for data: 346816548
I0416 01:46:22.191187 25516 layer_factory.hpp:77] Creating layer conv1a
I0416 01:46:22.191205 25516 net.cpp:100] Creating Layer conv1a
I0416 01:46:22.191220 25516 net.cpp:434] conv1a <- data_data_0_split_0
I0416 01:46:22.191242 25516 net.cpp:408] conv1a -> conv1a
I0416 01:46:22.212857 25516 net.cpp:150] Setting up conv1a
I0416 01:46:22.212942 25516 net.cpp:157] Top shape: 1 64 768 112 112 (616562688)
I0416 01:46:22.212960 25516 net.cpp:165] Memory required for data: 2813067300
I0416 01:46:22.212991 25516 layer_factory.hpp:77] Creating layer relu1a
I0416 01:46:22.213032 25516 net.cpp:100] Creating Layer relu1a
I0416 01:46:22.213057 25516 net.cpp:434] relu1a <- conv1a
I0416 01:46:22.213078 25516 net.cpp:395] relu1a -> conv1a (in-place)
I0416 01:46:22.213104 25516 net.cpp:150] Setting up relu1a
I0416 01:46:22.213125 25516 net.cpp:157] Top shape: 1 64 768 112 112 (616562688)
I0416 01:46:22.213140 25516 net.cpp:165] Memory required for data: 5279318052
I0416 01:46:22.213156 25516 layer_factory.hpp:77] Creating layer pool1
I0416 01:46:22.213178 25516 net.cpp:100] Creating Layer pool1
I0416 01:46:22.213196 25516 net.cpp:434] pool1 <- conv1a
I0416 01:46:22.213214 25516 net.cpp:408] pool1 -> pool1
I0416 01:46:22.213351 25516 net.cpp:150] Setting up pool1
I0416 01:46:22.213378 25516 net.cpp:157] Top shape: 1 64 768 56 56 (154140672)
I0416 01:46:22.213397 25516 net.cpp:165] Memory required for data: 5895880740
I0416 01:46:22.213413 25516 layer_factory.hpp:77] Creating layer conv2a
I0416 01:46:22.213439 25516 net.cpp:100] Creating Layer conv2a
I0416 01:46:22.213459 25516 net.cpp:434] conv2a <- pool1
I0416 01:46:22.213482 25516 net.cpp:408] conv2a -> conv2a
I0416 01:46:22.221192 25516 net.cpp:150] Setting up conv2a
I0416 01:46:22.221225 25516 net.cpp:157] Top shape: 1 128 768 56 56 (308281344)
I0416 01:46:22.221228 25516 net.cpp:165] Memory required for data: 7129006116
I0416 01:46:22.221246 25516 layer_factory.hpp:77] Creating layer relu2a
I0416 01:46:22.221258 25516 net.cpp:100] Creating Layer relu2a
I0416 01:46:22.221264 25516 net.cpp:434] relu2a <- conv2a
I0416 01:46:22.221273 25516 net.cpp:395] relu2a -> conv2a (in-place)
I0416 01:46:22.221287 25516 net.cpp:150] Setting up relu2a
I0416 01:46:22.221309 25516 net.cpp:157] Top shape: 1 128 768 56 56 (308281344)
I0416 01:46:22.221324 25516 net.cpp:165] Memory required for data: 8362131492
I0416 01:46:22.221338 25516 layer_factory.hpp:77] Creating layer pool2
I0416 01:46:22.221362 25516 net.cpp:100] Creating Layer pool2
I0416 01:46:22.221379 25516 net.cpp:434] pool2 <- conv2a
I0416 01:46:22.221398 25516 net.cpp:408] pool2 -> pool2
I0416 01:46:22.221515 25516 net.cpp:150] Setting up pool2
I0416 01:46:22.221525 25516 net.cpp:157] Top shape: 1 128 384 28 28 (38535168)
I0416 01:46:22.221529 25516 net.cpp:165] Memory required for data: 8516272164
I0416 01:46:22.221534 25516 layer_factory.hpp:77] Creating layer conv3a
I0416 01:46:22.221549 25516 net.cpp:100] Creating Layer conv3a
I0416 01:46:22.221565 25516 net.cpp:434] conv3a <- pool2
I0416 01:46:22.221587 25516 net.cpp:408] conv3a -> conv3a
I0416 01:46:22.229780 25516 net.cpp:150] Setting up conv3a
I0416 01:46:22.229807 25516 net.cpp:157] Top shape: 1 256 384 28 28 (77070336)
I0416 01:46:22.229812 25516 net.cpp:165] Memory required for data: 8824553508
I0416 01:46:22.229826 25516 layer_factory.hpp:77] Creating layer relu3a
I0416 01:46:22.229835 25516 net.cpp:100] Creating Layer relu3a
I0416 01:46:22.229841 25516 net.cpp:434] relu3a <- conv3a
I0416 01:46:22.229849 25516 net.cpp:395] relu3a -> conv3a (in-place)
I0416 01:46:22.229859 25516 net.cpp:150] Setting up relu3a
I0416 01:46:22.229879 25516 net.cpp:157] Top shape: 1 256 384 28 28 (77070336)
I0416 01:46:22.229887 25516 net.cpp:165] Memory required for data: 9132834852
I0416 01:46:22.229892 25516 layer_factory.hpp:77] Creating layer conv3b
I0416 01:46:22.229904 25516 net.cpp:100] Creating Layer conv3b
I0416 01:46:22.229909 25516 net.cpp:434] conv3b <- conv3a
I0416 01:46:22.229921 25516 net.cpp:408] conv3b -> conv3b
I0416 01:46:22.250849 25516 net.cpp:150] Setting up conv3b
I0416 01:46:22.250876 25516 net.cpp:157] Top shape: 1 256 384 28 28 (77070336)
I0416 01:46:22.250880 25516 net.cpp:165] Memory required for data: 9441116196
I0416 01:46:22.250892 25516 layer_factory.hpp:77] Creating layer relu3b
I0416 01:46:22.250905 25516 net.cpp:100] Creating Layer relu3b
I0416 01:46:22.250910 25516 net.cpp:434] relu3b <- conv3b
I0416 01:46:22.250919 25516 net.cpp:395] relu3b -> conv3b (in-place)
I0416 01:46:22.250943 25516 net.cpp:150] Setting up relu3b
I0416 01:46:22.250952 25516 net.cpp:157] Top shape: 1 256 384 28 28 (77070336)
I0416 01:46:22.250954 25516 net.cpp:165] Memory required for data: 9749397540
I0416 01:46:22.250959 25516 layer_factory.hpp:77] Creating layer pool3
I0416 01:46:22.250967 25516 net.cpp:100] Creating Layer pool3
I0416 01:46:22.250972 25516 net.cpp:434] pool3 <- conv3b
I0416 01:46:22.250980 25516 net.cpp:408] pool3 -> pool3
I0416 01:46:22.251040 25516 net.cpp:150] Setting up pool3
I0416 01:46:22.251049 25516 net.cpp:157] Top shape: 1 256 192 14 14 (9633792)
I0416 01:46:22.251052 25516 net.cpp:165] Memory required for data: 9787932708
I0416 01:46:22.251056 25516 layer_factory.hpp:77] Creating layer conv4a
I0416 01:46:22.251072 25516 net.cpp:100] Creating Layer conv4a
I0416 01:46:22.251077 25516 net.cpp:434] conv4a <- pool3
I0416 01:46:22.251085 25516 net.cpp:408] conv4a -> conv4a
I0416 01:46:22.285605 25516 net.cpp:150] Setting up conv4a
I0416 01:46:22.285688 25516 net.cpp:157] Top shape: 1 512 192 14 14 (19267584)
I0416 01:46:22.285696 25516 net.cpp:165] Memory required for data: 9865003044
I0416 01:46:22.285758 25516 layer_factory.hpp:77] Creating layer relu4a
I0416 01:46:22.285789 25516 net.cpp:100] Creating Layer relu4a
I0416 01:46:22.285800 25516 net.cpp:434] relu4a <- conv4a
I0416 01:46:22.285818 25516 net.cpp:395] relu4a -> conv4a (in-place)
I0416 01:46:22.285842 25516 net.cpp:150] Setting up relu4a
I0416 01:46:22.285850 25516 net.cpp:157] Top shape: 1 512 192 14 14 (19267584)
I0416 01:46:22.285856 25516 net.cpp:165] Memory required for data: 9942073380
I0416 01:46:22.285867 25516 layer_factory.hpp:77] Creating layer conv4b
I0416 01:46:22.285902 25516 net.cpp:100] Creating Layer conv4b
I0416 01:46:22.285907 25516 net.cpp:434] conv4b <- conv4a
I0416 01:46:22.285919 25516 net.cpp:408] conv4b -> conv4b
I0416 01:46:22.394475 25516 net.cpp:150] Setting up conv4b
I0416 01:46:22.394551 25516 net.cpp:157] Top shape: 1 512 192 14 14 (19267584)
I0416 01:46:22.394567 25516 net.cpp:165] Memory required for data: 10019143716
I0416 01:46:22.394588 25516 layer_factory.hpp:77] Creating layer relu4b
I0416 01:46:22.394610 25516 net.cpp:100] Creating Layer relu4b
I0416 01:46:22.394625 25516 net.cpp:434] relu4b <- conv4b
I0416 01:46:22.394645 25516 net.cpp:395] relu4b -> conv4b (in-place)
I0416 01:46:22.394678 25516 net.cpp:150] Setting up relu4b
I0416 01:46:22.394719 25516 net.cpp:157] Top shape: 1 512 192 14 14 (19267584)
I0416 01:46:22.394732 25516 net.cpp:165] Memory required for data: 10096214052
I0416 01:46:22.394765 25516 layer_factory.hpp:77] Creating layer pool4
I0416 01:46:22.394781 25516 net.cpp:100] Creating Layer pool4
I0416 01:46:22.394788 25516 net.cpp:434] pool4 <- conv4b
I0416 01:46:22.394799 25516 net.cpp:408] pool4 -> pool4
I0416 01:46:22.394886 25516 net.cpp:150] Setting up pool4
I0416 01:46:22.394898 25516 net.cpp:157] Top shape: 1 512 96 7 7 (2408448)
I0416 01:46:22.394903 25516 net.cpp:165] Memory required for data: 10105847844
I0416 01:46:22.394908 25516 layer_factory.hpp:77] Creating layer conv5a
I0416 01:46:22.394922 25516 net.cpp:100] Creating Layer conv5a
I0416 01:46:22.394927 25516 net.cpp:434] conv5a <- pool4
I0416 01:46:22.394937 25516 net.cpp:408] conv5a -> conv5a
I0416 01:46:22.484917 25516 net.cpp:150] Setting up conv5a
I0416 01:46:22.485554 25516 net.cpp:157] Top shape: 1 512 96 7 7 (2408448)
I0416 01:46:22.485693 25516 net.cpp:165] Memory required for data: 10115481636
I0416 01:46:22.485796 25516 layer_factory.hpp:77] Creating layer relu5a
I0416 01:46:22.485896 25516 net.cpp:100] Creating Layer relu5a
I0416 01:46:22.485972 25516 net.cpp:434] relu5a <- conv5a
I0416 01:46:22.486070 25516 net.cpp:395] relu5a -> conv5a (in-place)
I0416 01:46:22.486167 25516 net.cpp:150] Setting up relu5a
I0416 01:46:22.486266 25516 net.cpp:157] Top shape: 1 512 96 7 7 (2408448)
I0416 01:46:22.486336 25516 net.cpp:165] Memory required for data: 10125115428
I0416 01:46:22.486402 25516 layer_factory.hpp:77] Creating layer conv5b
I0416 01:46:22.486524 25516 net.cpp:100] Creating Layer conv5b
I0416 01:46:22.486593 25516 net.cpp:434] conv5b <- conv5a
I0416 01:46:22.486665 25516 net.cpp:408] conv5b -> conv5b
I0416 01:46:22.563756 25516 net.cpp:150] Setting up conv5b
I0416 01:46:22.563788 25516 net.cpp:157] Top shape: 1 512 96 7 7 (2408448)
I0416 01:46:22.563793 25516 net.cpp:165] Memory required for data: 10134749220
I0416 01:46:22.563804 25516 layer_factory.hpp:77] Creating layer relu5b
I0416 01:46:22.563819 25516 net.cpp:100] Creating Layer relu5b
I0416 01:46:22.563827 25516 net.cpp:434] relu5b <- conv5b
I0416 01:46:22.563840 25516 net.cpp:395] relu5b -> conv5b (in-place)
I0416 01:46:22.563858 25516 net.cpp:150] Setting up relu5b
I0416 01:46:22.563865 25516 net.cpp:157] Top shape: 1 512 96 7 7 (2408448)
I0416 01:46:22.563869 25516 net.cpp:165] Memory required for data: 10144383012
I0416 01:46:22.563874 25516 layer_factory.hpp:77] Creating layer conv5b_relu5b_0_split
I0416 01:46:22.563882 25516 net.cpp:100] Creating Layer conv5b_relu5b_0_split
I0416 01:46:22.563887 25516 net.cpp:434] conv5b_relu5b_0_split <- conv5b
I0416 01:46:22.563894 25516 net.cpp:408] conv5b_relu5b_0_split -> conv5b_relu5b_0_split_0
I0416 01:46:22.563904 25516 net.cpp:408] conv5b_relu5b_0_split -> conv5b_relu5b_0_split_1
I0416 01:46:22.563951 25516 net.cpp:150] Setting up conv5b_relu5b_0_split
I0416 01:46:22.563959 25516 net.cpp:157] Top shape: 1 512 96 7 7 (2408448)
I0416 01:46:22.563964 25516 net.cpp:157] Top shape: 1 512 96 7 7 (2408448)
I0416 01:46:22.563968 25516 net.cpp:165] Memory required for data: 10163650596
I0416 01:46:22.563973 25516 layer_factory.hpp:77] Creating layer rpn_conv/3x3
I0416 01:46:22.563987 25516 net.cpp:100] Creating Layer rpn_conv/3x3
I0416 01:46:22.563993 25516 net.cpp:434] rpn_conv/3x3 <- conv5b_relu5b_0_split_0
I0416 01:46:22.564003 25516 net.cpp:408] rpn_conv/3x3 -> rpn/output
I0416 01:46:22.644732 25516 net.cpp:150] Setting up rpn_conv/3x3
I0416 01:46:22.645443 25516 net.cpp:157] Top shape: 1 512 96 4 4 (786432)
I0416 01:46:22.645507 25516 net.cpp:165] Memory required for data: 10166796324
I0416 01:46:22.645645 25516 layer_factory.hpp:77] Creating layer rpn_relu/3x3
I0416 01:46:22.645725 25516 net.cpp:100] Creating Layer rpn_relu/3x3
I0416 01:46:22.645799 25516 net.cpp:434] rpn_relu/3x3 <- rpn/output
I0416 01:46:22.645859 25516 net.cpp:395] rpn_relu/3x3 -> rpn/output (in-place)
I0416 01:46:22.645948 25516 net.cpp:150] Setting up rpn_relu/3x3
I0416 01:46:22.646005 25516 net.cpp:157] Top shape: 1 512 96 4 4 (786432)
I0416 01:46:22.646076 25516 net.cpp:165] Memory required for data: 10169942052
I0416 01:46:22.646126 25516 layer_factory.hpp:77] Creating layer rpn_conv/3x3_2
I0416 01:46:22.646214 25516 net.cpp:100] Creating Layer rpn_conv/3x3_2
I0416 01:46:22.646275 25516 net.cpp:434] rpn_conv/3x3_2 <- rpn/output
I0416 01:46:22.646342 25516 net.cpp:408] rpn_conv/3x3_2 -> rpn/output_2
I0416 01:46:22.737814 25516 net.cpp:150] Setting up rpn_conv/3x3_2
I0416 01:46:22.737854 25516 net.cpp:157] Top shape: 1 512 96 2 2 (196608)
I0416 01:46:22.737857 25516 net.cpp:165] Memory required for data: 10170728484
I0416 01:46:22.737869 25516 layer_factory.hpp:77] Creating layer rpn_relu/3x3_2
I0416 01:46:22.737881 25516 net.cpp:100] Creating Layer rpn_relu/3x3_2
I0416 01:46:22.737887 25516 net.cpp:434] rpn_relu/3x3_2 <- rpn/output_2
I0416 01:46:22.737895 25516 net.cpp:395] rpn_relu/3x3_2 -> rpn/output_2 (in-place)
I0416 01:46:22.737906 25516 net.cpp:150] Setting up rpn_relu/3x3_2
I0416 01:46:22.737912 25516 net.cpp:157] Top shape: 1 512 96 2 2 (196608)
I0416 01:46:22.737916 25516 net.cpp:165] Memory required for data: 10171514916
I0416 01:46:22.737920 25516 layer_factory.hpp:77] Creating layer rpn/output_pool
I0416 01:46:22.737929 25516 net.cpp:100] Creating Layer rpn/output_pool
I0416 01:46:22.737934 25516 net.cpp:434] rpn/output_pool <- rpn/output_2
I0416 01:46:22.737941 25516 net.cpp:408] rpn/output_pool -> rpn/output_pool
I0416 01:46:22.738006 25516 net.cpp:150] Setting up rpn/output_pool
I0416 01:46:22.738041 25516 net.cpp:157] Top shape: 1 512 96 1 1 (49152)
I0416 01:46:22.738067 25516 net.cpp:165] Memory required for data: 10171711524
I0416 01:46:22.738087 25516 layer_factory.hpp:77] Creating layer rpn/output_pool_rpn/output_pool_0_split
I0416 01:46:22.738111 25516 net.cpp:100] Creating Layer rpn/output_pool_rpn/output_pool_0_split
I0416 01:46:22.738142 25516 net.cpp:434] rpn/output_pool_rpn/output_pool_0_split <- rpn/output_pool
I0416 01:46:22.738168 25516 net.cpp:408] rpn/output_pool_rpn/output_pool_0_split -> rpn/output_pool_rpn/output_pool_0_split_0
I0416 01:46:22.738191 25516 net.cpp:408] rpn/output_pool_rpn/output_pool_0_split -> rpn/output_pool_rpn/output_pool_0_split_1
I0416 01:46:22.738266 25516 net.cpp:150] Setting up rpn/output_pool_rpn/output_pool_0_split
I0416 01:46:22.738293 25516 net.cpp:157] Top shape: 1 512 96 1 1 (49152)
I0416 01:46:22.738343 25516 net.cpp:157] Top shape: 1 512 96 1 1 (49152)
I0416 01:46:22.738379 25516 net.cpp:165] Memory required for data: 10172104740
I0416 01:46:22.738414 25516 layer_factory.hpp:77] Creating layer rpn_cls_score
I0416 01:46:22.738457 25516 net.cpp:100] Creating Layer rpn_cls_score
I0416 01:46:22.738500 25516 net.cpp:434] rpn_cls_score <- rpn/output_pool_rpn/output_pool_0_split_0
I0416 01:46:22.738540 25516 net.cpp:408] rpn_cls_score -> rpn_cls_score
I0416 01:46:22.739388 25516 net.cpp:150] Setting up rpn_cls_score
I0416 01:46:22.739464 25516 net.cpp:157] Top shape: 1 74 96 1 1 (7104)
I0416 01:46:22.739502 25516 net.cpp:165] Memory required for data: 10172133156
I0416 01:46:22.739540 25516 layer_factory.hpp:77] Creating layer rpn_cls_score_rpn_cls_score_0_split
I0416 01:46:22.739580 25516 net.cpp:100] Creating Layer rpn_cls_score_rpn_cls_score_0_split
I0416 01:46:22.739619 25516 net.cpp:434] rpn_cls_score_rpn_cls_score_0_split <- rpn_cls_score
I0416 01:46:22.739662 25516 net.cpp:408] rpn_cls_score_rpn_cls_score_0_split -> rpn_cls_score_rpn_cls_score_0_split_0
I0416 01:46:22.739707 25516 net.cpp:408] rpn_cls_score_rpn_cls_score_0_split -> rpn_cls_score_rpn_cls_score_0_split_1
I0416 01:46:22.739810 25516 net.cpp:150] Setting up rpn_cls_score_rpn_cls_score_0_split
I0416 01:46:22.739869 25516 net.cpp:157] Top shape: 1 74 96 1 1 (7104)
I0416 01:46:22.739907 25516 net.cpp:157] Top shape: 1 74 96 1 1 (7104)
I0416 01:46:22.739940 25516 net.cpp:165] Memory required for data: 10172189988
I0416 01:46:22.739976 25516 layer_factory.hpp:77] Creating layer rpn_twin_pred
I0416 01:46:22.740022 25516 net.cpp:100] Creating Layer rpn_twin_pred
I0416 01:46:22.740061 25516 net.cpp:434] rpn_twin_pred <- rpn/output_pool_rpn/output_pool_0_split_1
I0416 01:46:22.740098 25516 net.cpp:408] rpn_twin_pred -> rpn_twin_pred
I0416 01:46:22.740959 25516 net.cpp:150] Setting up rpn_twin_pred
I0416 01:46:22.741037 25516 net.cpp:157] Top shape: 1 74 96 1 1 (7104)
I0416 01:46:22.741076 25516 net.cpp:165] Memory required for data: 10172218404
I0416 01:46:22.741117 25516 layer_factory.hpp:77] Creating layer rpn_twin_pred_rpn_twin_pred_0_split
I0416 01:46:22.741155 25516 net.cpp:100] Creating Layer rpn_twin_pred_rpn_twin_pred_0_split
I0416 01:46:22.741190 25516 net.cpp:434] rpn_twin_pred_rpn_twin_pred_0_split <- rpn_twin_pred
I0416 01:46:22.741241 25516 net.cpp:408] rpn_twin_pred_rpn_twin_pred_0_split -> rpn_twin_pred_rpn_twin_pred_0_split_0
I0416 01:46:22.741284 25516 net.cpp:408] rpn_twin_pred_rpn_twin_pred_0_split -> rpn_twin_pred_rpn_twin_pred_0_split_1
I0416 01:46:22.741379 25516 net.cpp:150] Setting up rpn_twin_pred_rpn_twin_pred_0_split
I0416 01:46:22.741439 25516 net.cpp:157] Top shape: 1 74 96 1 1 (7104)
I0416 01:46:22.741472 25516 net.cpp:157] Top shape: 1 74 96 1 1 (7104)
I0416 01:46:22.741502 25516 net.cpp:165] Memory required for data: 10172275236
I0416 01:46:22.741533 25516 layer_factory.hpp:77] Creating layer rpn_cls_score_reshape
I0416 01:46:22.741569 25516 net.cpp:100] Creating Layer rpn_cls_score_reshape
I0416 01:46:22.741600 25516 net.cpp:434] rpn_cls_score_reshape <- rpn_cls_score_rpn_cls_score_0_split_0
I0416 01:46:22.741636 25516 net.cpp:408] rpn_cls_score_reshape -> rpn_cls_score_reshape
I0416 01:46:22.741724 25516 net.cpp:150] Setting up rpn_cls_score_reshape
I0416 01:46:22.741786 25516 net.cpp:157] Top shape: 1 2 3552 1 1 (7104)
I0416 01:46:22.741822 25516 net.cpp:165] Memory required for data: 10172303652
I0416 01:46:22.741853 25516 layer_factory.hpp:77] Creating layer rpn_cls_score_reshape_rpn_cls_score_reshape_0_split
I0416 01:46:22.741901 25516 net.cpp:100] Creating Layer rpn_cls_score_reshape_rpn_cls_score_reshape_0_split
I0416 01:46:22.741942 25516 net.cpp:434] rpn_cls_score_reshape_rpn_cls_score_reshape_0_split <- rpn_cls_score_reshape
I0416 01:46:22.741986 25516 net.cpp:408] rpn_cls_score_reshape_rpn_cls_score_reshape_0_split -> rpn_cls_score_reshape_rpn_cls_score_reshape_0_split_0
I0416 01:46:22.742035 25516 net.cpp:408] rpn_cls_score_reshape_rpn_cls_score_reshape_0_split -> rpn_cls_score_reshape_rpn_cls_score_reshape_0_split_1
I0416 01:46:22.742075 25516 net.cpp:408] rpn_cls_score_reshape_rpn_cls_score_reshape_0_split -> rpn_cls_score_reshape_rpn_cls_score_reshape_0_split_2
I0416 01:46:22.742184 25516 net.cpp:150] Setting up rpn_cls_score_reshape_rpn_cls_score_reshape_0_split
I0416 01:46:22.742249 25516 net.cpp:157] Top shape: 1 2 3552 1 1 (7104)
I0416 01:46:22.742285 25516 net.cpp:157] Top shape: 1 2 3552 1 1 (7104)
I0416 01:46:22.742319 25516 net.cpp:157] Top shape: 1 2 3552 1 1 (7104)
I0416 01:46:22.742359 25516 net.cpp:165] Memory required for data: 10172388900
I0416 01:46:22.742395 25516 layer_factory.hpp:77] Creating layer rpn-data
I0416 01:46:22.756302 25516 net.cpp:100] Creating Layer rpn-data
I0416 01:46:22.756352 25516 net.cpp:434] rpn-data <- rpn_cls_score_rpn_cls_score_0_split_1
I0416 01:46:22.756364 25516 net.cpp:434] rpn-data <- gt_boxes_data_1_split_0
I0416 01:46:22.756371 25516 net.cpp:434] rpn-data <- data_data_0_split_1
I0416 01:46:22.756381 25516 net.cpp:408] rpn-data -> rpn_labels
I0416 01:46:22.756391 25516 net.cpp:408] rpn-data -> rpn_twin_targets
I0416 01:46:22.756395 25516 net.cpp:408] rpn-data -> rpn_twin_inside_weights
I0416 01:46:22.756402 25516 net.cpp:408] rpn-data -> rpn_twin_outside_weights
I0416 01:46:22.759078 25516 net.cpp:150] Setting up rpn-data
I0416 01:46:22.759094 25516 net.cpp:157] Top shape: 1 1 3552 1 1 (3552)
I0416 01:46:22.759099 25516 net.cpp:157] Top shape: 1 74 96 1 1 (7104)
I0416 01:46:22.759102 25516 net.cpp:157] Top shape: 1 74 96 1 1 (7104)
I0416 01:46:22.759105 25516 net.cpp:157] Top shape: 1 74 96 1 1 (7104)
I0416 01:46:22.759109 25516 net.cpp:165] Memory required for data: 10172488356
I0416 01:46:22.759112 25516 layer_factory.hpp:77] Creating layer rpn_labels_rpn-data_0_split
I0416 01:46:22.759119 25516 net.cpp:100] Creating Layer rpn_labels_rpn-data_0_split
I0416 01:46:22.759122 25516 net.cpp:434] rpn_labels_rpn-data_0_split <- rpn_labels
I0416 01:46:22.759129 25516 net.cpp:408] rpn_labels_rpn-data_0_split -> rpn_labels_rpn-data_0_split_0
I0416 01:46:22.759135 25516 net.cpp:408] rpn_labels_rpn-data_0_split -> rpn_labels_rpn-data_0_split_1
I0416 01:46:22.759171 25516 net.cpp:150] Setting up rpn_labels_rpn-data_0_split
I0416 01:46:22.759177 25516 net.cpp:157] Top shape: 1 1 3552 1 1 (3552)
I0416 01:46:22.759181 25516 net.cpp:157] Top shape: 1 1 3552 1 1 (3552)
I0416 01:46:22.759184 25516 net.cpp:165] Memory required for data: 10172516772
I0416 01:46:22.759186 25516 layer_factory.hpp:77] Creating layer rpn_loss_cls
I0416 01:46:22.759193 25516 net.cpp:100] Creating Layer rpn_loss_cls
I0416 01:46:22.759196 25516 net.cpp:434] rpn_loss_cls <- rpn_cls_score_reshape_rpn_cls_score_reshape_0_split_0
I0416 01:46:22.759201 25516 net.cpp:434] rpn_loss_cls <- rpn_labels_rpn-data_0_split_0
…
I0416 01:46:22.759472 25516 layer_factory.hpp:77] Creating layer rpn_accuarcy
I0416 01:46:22.759480 25516 net.cpp:100] Creating Layer rpn_accuarcy
I0416 01:46:22.759483 25516 net.cpp:434] rpn_accuarcy <- rpn_cls_score_reshape_rpn_cls_score_reshape_0_split_1
I0416 01:46:22.759487 25516 net.cpp:434] rpn_accuarcy <- rpn_labels_rpn-data_0_split_1
I0416 01:46:22.759491 25516 net.cpp:408] rpn_accuarcy -> rpn_accuarcy
I0416 01:46:22.759496 25516 net.cpp:408] rpn_accuarcy -> rpn_accuarcy_class
I0416 01:46:22.759534 25516 net.cpp:150] Setting up rpn_accuarcy
I0416 01:46:22.759541 25516 net.cpp:157] Top shape: (1)
I0416 01:46:22.759544 25516 net.cpp:157] Top shape: 2 (2)
I0416 01:46:22.759547 25516 net.cpp:165] Memory required for data: 10172516792
I0416 01:46:22.759549 25516 layer_factory.hpp:77] Creating layer rpn_cls_prob
I0416 01:46:22.759555 25516 net.cpp:100] Creating Layer rpn_cls_prob
I0416 01:46:22.759558 25516 net.cpp:434] rpn_cls_prob <- rpn_cls_score_reshape_rpn_cls_score_reshape_0_split_2
I0416 01:46:22.759562 25516 net.cpp:408] rpn_cls_prob -> rpn_cls_prob
I0416 01:46:22.759624 25516 net.cpp:150] Setting up rpn_cls_prob
I0416 01:46:22.759630 25516 net.cpp:157] Top shape: 1 2 3552 1 1 (7104)
I0416 01:46:22.759634 25516 net.cpp:165] Memory required for data: 10172545208
I0416 01:46:22.759636 25516 layer_factory.hpp:77] Creating layer rpn_cls_prob_reshape
I0416 01:46:22.759644 25516 net.cpp:100] Creating Layer rpn_cls_prob_reshape
I0416 01:46:22.759646 25516 net.cpp:434] rpn_cls_prob_reshape <- rpn_cls_prob
I0416 01:46:22.759651 25516 net.cpp:408] rpn_cls_prob_reshape -> rpn_cls_prob_reshape
I0416 01:46:22.759680 25516 net.cpp:150] Setting up rpn_cls_prob_reshape
I0416 01:46:22.759685 25516 net.cpp:157] Top shape: 1 74 96 1 1 (7104)
I0416 01:46:22.759687 25516 net.cpp:165] Memory required for data: 10172573624
I0416 01:46:22.759690 25516 layer_factory.hpp:77] Creating layer proposal
I0416 01:46:22.794751 25516 net.cpp:100] Creating Layer proposal
I0416 01:46:22.794777 25516 net.cpp:434] proposal <- rpn_cls_prob_reshape
I0416 01:46:22.794785 25516 net.cpp:434] proposal <- rpn_twin_pred_rpn_twin_pred_0_split_1
I0416 01:46:22.794793 25516 net.cpp:408] proposal -> rpn_rois
I0416 01:46:22.822131 25516 net.cpp:150] Setting up proposal
I0416 01:46:22.822157 25516 net.cpp:157] Top shape: 1 3 (3)
I0416 01:46:22.822160 25516 net.cpp:165] Memory required for data: 10172573636
I0416 01:46:22.822166 25516 layer_factory.hpp:77] Creating layer roi-data
I0416 01:46:22.831120 25516 net.cpp:100] Creating Layer roi-data
I0416 01:46:22.831141 25516 net.cpp:434] roi-data <- rpn_rois
I0416 01:46:22.831151 25516 net.cpp:434] roi-data <- gt_boxes_data_1_split_1
I0416 01:46:22.831159 25516 net.cpp:408] roi-data -> rois
I0416 01:46:22.831171 25516 net.cpp:408] roi-data -> labels
I0416 01:46:22.831179 25516 net.cpp:408] roi-data -> twin_targets
I0416 01:46:22.831187 25516 net.cpp:408] roi-data -> twin_inside_weights
I0416 01:46:22.831195 25516 net.cpp:408] roi-data -> twin_outside_weights
I0416 01:46:22.831760 25516 net.cpp:150] Setting up roi-data
I0416 01:46:22.831775 25516 net.cpp:157] Top shape: 1 3 (3)
I0416 01:46:22.831781 25516 net.cpp:157] Top shape: 1 1 (1)
I0416 01:46:22.831787 25516 net.cpp:157] Top shape: 1 402 (402)
I0416 01:46:22.831792 25516 net.cpp:157] Top shape: 1 402 (402)
I0416 01:46:22.831796 25516 net.cpp:157] Top shape: 1 402 (402)
I0416 01:46:22.831801 25516 net.cpp:165] Memory required for data: 10172578476
I0416 01:46:22.831806 25516 layer_factory.hpp:77] Creating layer labels_roi-data_1_split
I0416 01:46:22.831815 25516 net.cpp:100] Creating Layer labels_roi-data_1_split
I0416 01:46:22.831821 25516 net.cpp:434] labels_roi-data_1_split <- labels
I0416 01:46:22.831828 25516 net.cpp:408] labels_roi-data_1_split -> labels_roi-data_1_split_0
I0416 01:46:22.831837 25516 net.cpp:408] labels_roi-data_1_split -> labels_roi-data_1_split_1
I0416 01:46:22.831917 25516 net.cpp:150] Setting up labels_roi-data_1_split
I0416 01:46:22.831926 25516 net.cpp:157] Top shape: 1 1 (1)
I0416 01:46:22.831931 25516 net.cpp:157] Top shape: 1 1 (1)
I0416 01:46:22.831936 25516 net.cpp:165] Memory required for data: 10172578484
I0416 01:46:22.831941 25516 layer_factory.hpp:77] Creating layer roi_pool5
I0416 01:46:22.831950 25516 net.cpp:100] Creating Layer roi_pool5
I0416 01:46:22.831956 25516 net.cpp:434] roi_pool5 <- conv5b_relu5b_0_split_1
I0416 01:46:22.831962 25516 net.cpp:434] roi_pool5 <- rois
I0416 01:46:22.831971 25516 net.cpp:408] roi_pool5 -> pool5
I0416 01:46:22.831980 25516 roi_pooling_layer.cpp:34] Temporal scale: 0.125
I0416 01:46:22.831995 25516 roi_pooling_layer.cpp:35] Spatial scale: 0.0625
I0416 01:46:22.832051 25516 net.cpp:150] Setting up roi_pool5
I0416 01:46:22.832060 25516 net.cpp:157] Top shape: 1 512 1 4 4 (8192)
I0416 01:46:22.832064 25516 net.cpp:165] Memory required for data: 10172611252
I0416 01:46:22.832068 25516 layer_factory.hpp:77] Creating layer fc6
I0416 01:46:22.832080 25516 net.cpp:100] Creating Layer fc6
I0416 01:46:22.832085 25516 net.cpp:434] fc6 <- pool5
I0416 01:46:22.832094 25516 net.cpp:408] fc6 -> fc6
I0416 01:46:23.226577 25516 net.cpp:150] Setting up fc6
I0416 01:46:23.226812 25516 net.cpp:157] Top shape: 1 4096 (4096)
I0416 01:46:23.226838 25516 net.cpp:165] Memory required for data: 10172627636
I0416 01:46:23.226877 25516 layer_factory.hpp:77] Creating layer relu6
I0416 01:46:23.226955 25516 net.cpp:100] Creating Layer relu6
I0416 01:46:23.226985 25516 net.cpp:434] relu6 <- fc6
I0416 01:46:23.227010 25516 net.cpp:395] relu6 -> fc6 (in-place)
I0416 01:46:23.227027 25516 net.cpp:150] Setting up relu6
I0416 01:46:23.227058 25516 net.cpp:157] Top shape: 1 4096 (4096)
I0416 01:46:23.227087 25516 net.cpp:165] Memory required for data: 10172644020
I0416 01:46:23.227107 25516 layer_factory.hpp:77] Creating layer drop6
I0416 01:46:23.227138 25516 net.cpp:100] Creating Layer drop6
I0416 01:46:23.227159 25516 net.cpp:434] drop6 <- fc6
I0416 01:46:23.227183 25516 net.cpp:395] drop6 -> fc6 (in-place)
I0416 01:46:23.227376 25516 net.cpp:150] Setting up drop6
I0416 01:46:23.227402 25516 net.cpp:157] Top shape: 1 4096 (4096)
I0416 01:46:23.227424 25516 net.cpp:165] Memory required for data: 10172660404
I0416 01:46:23.227442 25516 layer_factory.hpp:77] Creating layer fc6_drop6_0_split
I0416 01:46:23.227468 25516 net.cpp:100] Creating Layer fc6_drop6_0_split
I0416 01:46:23.227489 25516 net.cpp:434] fc6_drop6_0_split <- fc6
I0416 01:46:23.227511 25516 net.cpp:408] fc6_drop6_0_split -> fc6_drop6_0_split_0
I0416 01:46:23.227555 25516 net.cpp:408] fc6_drop6_0_split -> fc6_drop6_0_split_1
I0416 01:46:23.227732 25516 net.cpp:150] Setting up fc6_drop6_0_split
I0416 01:46:23.227766 25516 net.cpp:157] Top shape: 1 4096 (4096)
I0416 01:46:23.227789 25516 net.cpp:157] Top shape: 1 4096 (4096)
I0416 01:46:23.227804 25516 net.cpp:165] Memory required for data: 10172693172
I0416 01:46:23.227821 25516 layer_factory.hpp:77] Creating layer cls_score
I0416 01:46:23.227864 25516 net.cpp:100] Creating Layer cls_score
I0416 01:46:23.227895 25516 net.cpp:434] cls_score <- fc6_drop6_0_split_0
I0416 01:46:23.227923 25516 net.cpp:408] cls_score -> cls_score
I0416 01:46:23.241506 25516 net.cpp:150] Setting up cls_score
I0416 01:46:23.241533 25516 net.cpp:157] Top shape: 1 201 (201)
I0416 01:46:23.241535 25516 net.cpp:165] Memory required for data: 10172693976
I0416 01:46:23.241546 25516 layer_factory.hpp:77] Creating layer cls_score_cls_score_0_split
I0416 01:46:23.241557 25516 net.cpp:100] Creating Layer cls_score_cls_score_0_split
I0416 01:46:23.241561 25516 net.cpp:434] cls_score_cls_score_0_split <- cls_score
I0416 01:46:23.241566 25516 net.cpp:408] cls_score_cls_score_0_split -> cls_score_cls_score_0_split_0
I0416 01:46:23.241581 25516 net.cpp:408] cls_score_cls_score_0_split -> cls_score_cls_score_0_split_1
I0416 01:46:23.241621 25516 net.cpp:150] Setting up cls_score_cls_score_0_split
I0416 01:46:23.241627 25516 net.cpp:157] Top shape: 1 201 (201)
I0416 01:46:23.241631 25516 net.cpp:157] Top shape: 1 201 (201)
I0416 01:46:23.241634 25516 net.cpp:165] Memory required for data: 10172695584
I0416 01:46:23.241637 25516 layer_factory.hpp:77] Creating layer twin_pred
I0416 01:46:23.241675 25516 net.cpp:100] Creating Layer twin_pred
I0416 01:46:23.241681 25516 net.cpp:434] twin_pred <- fc6_drop6_0_split_1
I0416 01:46:23.241688 25516 net.cpp:408] twin_pred -> twin_pred
I0416 01:46:23.255645 25516 net.cpp:150] Setting up twin_pred
I0416 01:46:23.255671 25516 net.cpp:157] Top shape: 1 402 (402)
I0416 01:46:23.255674 25516 net.cpp:165] Memory required for data: 10172697192
I0416 01:46:23.255684 25516 layer_factory.hpp:77] Creating layer loss_cls
I0416 01:46:23.255694 25516 net.cpp:100] Creating Layer loss_cls
I0416 01:46:23.255698 25516 net.cpp:434] loss_cls <- cls_score_cls_score_0_split_0
I0416 01:46:23.255704 25516 net.cpp:434] loss_cls <- labels_roi-data_1_split_0
I0416 01:46:23.255709 25516 net.cpp:408] loss_cls -> loss_cls
…
