…
stepsize: 350000
snapshot: 0
snapshot_prefix: "./experiments/activitynet/snapshot/activitynet"
average_loss: 100
iter_size: 1
I0417 22:36:09.504746 16792 solver.cpp:81] Creating training net from train_net file: ./experiments/activitynet/train.prototxt
I0417 22:36:09.505905 16792 net.cpp:58] Initializing net from parameters: 
name: "activitynet"
state {
  phase: TRAIN
}
layer {
  name: "data"
  type: "Python"
  top: "data"
  top: "gt_boxes"
  python_param {
    module: "roi_data_layer.layer"
    layer: "RoIDataLayer"
    param_str: "\'num_classes\': 100"
  }
}
layer {
  name: "conv1a"
  type: "Convolution"
  bottom: "data"
  top: "conv1a"
  param {
    lr_mult: 0
    decay_mult: 0
  }
  param {
    lr_mult: 0
    decay_mult: 0
  }
  convolution_param {
    num_output: 64
    pad: 1
    pad: 1
    pad: 1
    kernel_size: 3
    kernel_size: 3
    kernel_size: 3
    weight_filler {
      type: "gaussian"
      std: 0.01
    }
    bias_filler {
      type: "constant"
      value: 0
    }
  }
}
layer {
  name: "relu1a"
  type: "ReLU"
  bottom: "conv1a"
  top: "conv1a"
}
layer {
  name: "pool1"
  type: "Pooling"
  bottom: "conv1a"
  top: "pool1"
  pooling_param {
    pool: MAX
    kernel_size: 1
    kernel_size: 2
    kernel_size: 2
    stride: 1
    stride: 2
    stride: 2
  }
}
layer {
  name: "conv2a"
  type: "Convolution"
  bottom: "pool1"
  top: "conv2a"
  param {
    lr_mult: 0
    decay_mult: 0
  }
  param {
    lr_mult: 0
    decay_mult: 0
  }
  convolution_param {
    num_output: 128
    pad: 1
    pad: 1
    pad: 1
    kernel_size: 3
    kernel_size: 3
    kernel_size: 3
    weight_filler {
      type: "gaussian"
      std: 0.01
    }
    bias_filler {
      type: "constant"
      value: 1
    }
  }
}
layer {
  name: "relu2a"
  type: "ReLU"
  bottom: "conv2a"
  top: "conv2a"
}
layer {
  name: "pool2"
  type: "Pooling"
  bottom: "conv2a"
  top: "pool2"
  pooling_param {
    pool: MAX
    kernel_size: 2
    kernel_size: 2
    kernel_size: 2
    stride: 2
    stride: 2
    stride: 2
  }
}
layer {
  name: "conv3a"
  type: "Convolution"
  bottom: "pool2"
  top: "conv3a"
  param {
    lr_mult: 1
    decay_mult: 1
  }
  param {
    lr_mult: 2
    decay_mult: 0
  }
  convolution_param {
    num_output: 256
    pad: 1
    pad: 1
    pad: 1
    kernel_size: 3
    kernel_size: 3
    kernel_size: 3
    weight_filler {
      type: "gaussian"
      std: 0.01
    }
    bias_filler {
      type: "constant"
      value: 1
    }
  }
}
layer {
  name: "relu3a"
  type: "ReLU"
  bottom: "conv3a"
  top: "conv3a"
}
layer {
  name: "conv3b"
  type: "Convolution"
  bottom: "conv3a"
  top: "conv3b"
  param {
    lr_mult: 1
    decay_mult: 1
  }
  param {
    lr_mult: 2
    decay_mult: 0
  }
  convolution_param {
    num_output: 256
    pad: 1
    pad: 1
    pad: 1
    kernel_size: 3
    kernel_size: 3
    kernel_size: 3
    weight_filler {
      type: "gaussian"
      std: 0.01
    }
    bias_filler {
      type: "constant"
      value: 1
    }
  }
}
layer {
  name: "relu3b"
  type: "ReLU"
  bottom: "conv3b"
  top: "conv3b"
}
layer {
  name: "pool3"
  type: "Pooling"
  bottom: "conv3b"
  top: "pool3"
  pooling_param {
    pool: MAX
    kernel_size: 2
    kernel_size: 2
    kernel_size: 2
    stride: 2
    stride: 2
    stride: 2
  }
}
layer {
  name: "conv4a"
  type: "Convolution"
  bottom: "pool3"
  top: "conv4a"
  param {
    lr_mult: 1
    decay_mult: 1
  }
  param {
    lr_mult: 2
    decay_mult: 0
  }
  convolution_param {
    num_output: 512
    pad: 1
    pad: 1
    pad: 1
    kernel_size: 3
    kernel_size: 3
    kernel_size: 3
    weight_filler {
      type: "gaussian"
      std: 0.01
    }
    bias_filler {
      type: "constant"
      value: 1
    }
  }
}
layer {
  name: "relu4a"
  type: "ReLU"
  bottom: "conv4a"
  top: "conv4a"
}
layer {
  name: "conv4b"
  type: "Convolution"
  bottom: "conv4a"
  top: "conv4b"
  param {
    lr_mult: 1
    decay_mult: 1
  }
  param {
    lr_mult: 2
    decay_mult: 0
  }
  convolution_param {
    num_output: 512
    pad: 1
    pad: 1
    pad: 1
    kernel_size: 3
    kernel_size: 3
    kernel_size: 3
    weight_filler {
      type: "gaussian"
      std: 0.01
    }
    bias_filler {
      type: "constant"
      value: 1
    }
  }
}
layer {
  name: "relu4b"
  type: "ReLU"
  bottom: "conv4b"
  top: "conv4b"
}
layer {
  name: "pool4"
  type: "Pooling"
  bottom: "conv4b"
  top: "pool4"
  pooling_param {
    pool: MAX
    kernel_size: 2
    kernel_size: 2
    kernel_size: 2
    stride: 2
    stride: 2
    stride: 2
  }
}
layer {
  name: "conv5a"
  type: "Convolution"
  bottom: "pool4"
  top: "conv5a"
  param {
    lr_mult: 1
    decay_mult: 1
  }
  param {
    lr_mult: 2
    decay_mult: 0
  }
  convolution_param {
    num_output: 512
    pad: 1
    pad: 1
    pad: 1
    kernel_size: 3
    kernel_size: 3
    kernel_size: 3
    weight_filler {
      type: "gaussian"
      std: 0.01
    }
    bias_filler {
      type: "constant"
      value: 1
    }
  }
}
layer {
  name: "relu5a"
  type: "ReLU"
  bottom: "conv5a"
  top: "conv5a"
}
layer {
  name: "conv5b"
  type: "Convolution"
  bottom: "conv5a"
  top: "conv5b"
  param {
    lr_mult: 1
    decay_mult: 1
  }
  param {
    lr_mult: 2
    decay_mult: 0
  }
  convolution_param {
    num_output: 512
    pad: 1
    pad: 1
    pad: 1
    kernel_size: 3
    kernel_size: 3
    kernel_size: 3
    weight_filler {
      type: "gaussian"
      std: 0.01
    }
    bias_filler {
      type: "constant"
      value: 1
    }
  }
}
layer {
  name: "relu5b"
  type: "ReLU"
  bottom: "conv5b"
  top: "conv5b"
}
layer {
  name: "rpn_conv/3x3"
  type: "Convolution"
  bottom: "conv5b"
  top: "rpn/output"
  param {
    lr_mult: 1
    decay_mult: 1
  }
  param {
    lr_mult: 2
    decay_mult: 0
  }
  convolution_param {
    num_output: 512
    pad: 1
    pad: 1
    pad: 1
    kernel_size: 3
    kernel_size: 3
    kernel_size: 3
    stride: 1
    stride: 2
    stride: 2
    weight_filler {
      type: "gaussian"
      std: 0.01
    }
    bias_filler {
      type: "constant"
      value: 0
    }
  }
}
layer {
  name: "rpn_relu/3x3"
  type: "ReLU"
  bottom: "rpn/output"
  top: "rpn/output"
}
layer {
  name: "rpn_conv/3x3_2"
  type: "Convolution"
  bottom: "rpn/output"
  top: "rpn/output_2"
  param {
    lr_mult: 1
    decay_mult: 1
  }
  param {
    lr_mult: 2
    decay_mult: 0
  }
  convolution_param {
    num_output: 512
    pad: 1
    pad: 1
    pad: 1
    kernel_size: 3
    kernel_size: 3
    kernel_size: 3
    stride: 1
    stride: 2
    stride: 2
    weight_filler {
      type: "gaussian"
      std: 0.01
    }
    bias_filler {
      type: "constant"
      value: 0
    }
  }
}
layer {
  name: "rpn_relu/3x3_2"
  type: "ReLU"
  bottom: "rpn/output_2"
  top: "rpn/output_2"
}
layer {
  name: "rpn/output_pool"
  type: "Pooling"
  bottom: "rpn/output_2"
  top: "rpn/output_pool"
  pooling_param {
    pool: MAX
    kernel_size: 1
    kernel_size: 2
    kernel_size: 2
  }
}
layer {
  name: "rpn_cls_score"
  type: "Convolution"
  bottom: "rpn/output_pool"
  top: "rpn_cls_score"
  param {
    lr_mult: 1
    decay_mult: 1
  }
  param {
    lr_mult: 2
    decay_mult: 0
  }
  convolution_param {
    num_output: 74
    kernel_size: 1
    kernel_size: 1
    kernel_size: 1
    weight_filler {
      type: "gaussian"
      std: 0.01
    }
    bias_filler {
      type: "constant"
      value: 0
    }
  }
}
layer {
  name: "rpn_twin_pred"
  type: "Convolution"
  bottom: "rpn/output_pool"
  top: "rpn_twin_pred"
  param {
    lr_mult: 1
    decay_mult: 1
  }
  param {
    lr_mult: 2
    decay_mult: 0
  }
  convolution_param {
    num_output: 74
    kernel_size: 1
    kernel_size: 1
    kernel_size: 1
    weight_filler {
      type: "gaussian"
      std: 0.01
    }
    bias_filler {
      type: "constant"
      value: 0
    }
  }
}
layer {
  name: "rpn_cls_score_reshape"
  type: "Reshape"
  bottom: "rpn_cls_score"
  top: "rpn_cls_score_reshape"
  reshape_param {
    shape {
      dim: 0
      dim: 2
      dim: -1
      dim: 0
      dim: 0
    }
  }
}
layer {
  name: "rpn-data"
  type: "Python"
  bottom: "rpn_cls_score"
  bottom: "gt_boxes"
  bottom: "data"
  top: "rpn_labels"
  top: "rpn_twin_targets"
  top: "rpn_twin_inside_weights"
  top: "rpn_twin_outside_weights"
  python_param {
    module: "rpn.anchor_target_layer"
    layer: "AnchorTargetLayer"
    param_str: "\'feat_stride\': 8 \n\'scales\': !!python/tuple [1,1.25, 1.5,1.75, 2,2.5, 3,3.5, 4,4.5, 5,5.5, 6,7, 8,9,10,11,12,14,16,18,20,22,24,28,32,36,40,44,52,60,68,76,84,92,100]"
  }
}
layer {
  name: "rpn_loss_cls"
  type: "SoftmaxWithLoss"
  bottom: "rpn_cls_score_reshape"
  bottom: "rpn_labels"
  top: "rpn_cls_loss"
  loss_weight: 1
  propagate_down: true
  propagate_down: false
  loss_param {
    ignore_label: -1
    normalize: true
  }
}
layer {
  name: "rpn_loss_twin"
  type: "SmoothL1Loss"
  bottom: "rpn_twin_pred"
  bottom: "rpn_twin_targets"
  bottom: "rpn_twin_inside_weights"
  bottom: "rpn_twin_outside_weights"
  top: "rpn_loss_twin"
  loss_weight: 1
  smooth_l1_loss_param {
    sigma: 3
  }
}
layer {
  name: "rpn_accuarcy"
  type: "Accuracy"
  bottom: "rpn_cls_score_reshape"
  bottom: "rpn_labels"
  top: "rpn_accuarcy"
  top: "rpn_accuarcy_class"
  propagate_down: false
  propagate_down: false
  accuracy_param {
    ignore_label: -1
  }
}
layer {
  name: "rpn_cls_prob"
  type: "Softmax"
  bottom: "rpn_cls_score_reshape"
  top: "rpn_cls_prob"
}
layer {
  name: "rpn_cls_prob_reshape"
  type: "Reshape"
  bottom: "rpn_cls_prob"
  top: "rpn_cls_prob_reshape"
  reshape_param {
    shape {
      dim: 0
      dim: 74
      dim: -1
      dim: 0
      dim: 0
    }
  }
}
layer {
  name: "proposal"
  type: "Python"
  bottom: "rpn_cls_prob_reshape"
  bottom: "rpn_twin_pred"
  top: "rpn_rois"
  include {
    phase: TRAIN
  }
  python_param {
    module: "rpn.proposal_layer"
    layer: "ProposalLayer"
    param_str: "\'feat_stride\': 8 \n\'scales\': !!python/tuple [1,1.25, 1.5,1.75, 2,2.5, 3,3.5, 4,4.5, 5,5.5, 6,7, 8,9,10,11,12,14,16,18,20,22,24,28,32,36,40,44,52,60,68,76,84,92,100]"
  }
}
layer {
  name: "roi-data"
  type: "Python"
  bottom: "rpn_rois"
  bottom: "gt_boxes"
  top: "rois"
  top: "labels"
  top: "twin_targets"
  top: "twin_inside_weights"
  top: "twin_outside_weights"
  python_param {
    module: "rpn.proposal_target_layer"
    layer: "ProposalTargetLayer"
    param_str: "\'num_classes\': 201"
  }
}
layer {
  name: "roi_pool5"
  type: "ROIPooling"
  bottom: "conv5b"
  bottom: "rois"
  top: "pool5"
  roi_pooling_param {
    pooled_h: 4
    pooled_w: 4
    spatial_scale: 0.0625
    pooled_l: 1
    temporal_scale: 0.125
  }
}
layer {
  name: "fc6"
  type: "InnerProduct"
  bottom: "pool5"
  top: "fc6"
  param {
    lr_mult: 1
    decay_mult: 1
  }
  param {
    lr_mult: 2
    decay_mult: 0
  }
  inner_product_param {
    num_output: 4096
    weight_filler {
      type: "gaussian"
      std: 0.005
    }
    bias_filler {
      type: "constant"
      value: 1
    }
  }
}
layer {
  name: "relu6"
  type: "ReLU"
  bottom: "fc6"
  top: "fc6"
}
layer {
  name: "drop6"
  type: "Dropout"
  bottom: "fc6"
  top: "fc6"
  dropout_param {
    dropout_ratio: 0.5
  }
}
layer {
  name: "cls_score"
  type: "InnerProduct"
  bottom: "fc6"
  top: "cls_score"
  param {
    lr_mult: 1
    decay_mult: 1
  }
  param {
    lr_mult: 2
    decay_mult: 0
  }
  inner_product_param {
    num_output: 201
    weight_filler {
      type: "gaussian"
      std: 0.01
    }
    bias_filler {
      type: "constant"
      value: 0
    }
  }
}
layer {
  name: "twin_pred"
  type: "InnerProduct"
  bottom: "fc6"
  top: "twin_pred"
  param {
    lr_mult: 1
    decay_mult: 1
  }
  param {
    lr_mult: 2
    decay_mult: 0
  }
  inner_product_param {
    num_output: 402
    weight_filler {
      type: "gaussian"
      std: 0.001
    }
    bias_filler {
      type: "constant"
      value: 0
    }
  }
}
layer {
  name: "loss_cls"
  type: "SoftmaxWithLoss"
  bottom: "cls_score"
  bottom: "labels"
  top: "loss_cls"
  loss_weight: 1
  propagate_down: true
  propagate_down: false
}
layer {
  name: "loss_twin"
  type: "SmoothL1Loss"
  bottom: "twin_pred"
  bottom: "twin_targets"
  bottom: "twin_inside_weights"
  bottom: "twin_outside_weights"
  top: "loss_twin"
  loss_weight: 1
}
layer {
  name: "accuarcy"
  type: "Accuracy"
  bottom: "cls_score"
  bottom: "labels"
  top: "accuarcy"
  propagate_down: false
  propagate_down: false
  accuracy_param {
    ignore_label: -1
  }
}
I0417 22:36:09.506140 16792 layer_factory.hpp:77] Creating layer data
I0417 22:36:09.536782 16792 net.cpp:100] Creating Layer data
I0417 22:36:09.536816 16792 net.cpp:408] data -> data
I0417 22:36:09.536842 16792 net.cpp:408] data -> gt_boxes
setting up
has rpn
RoiDataLayer: name_to_top: {'gt_windows': 1, 'data': 0}
I0417 22:36:09.565490 16792 net.cpp:150] Setting up data
I0417 22:36:09.565515 16792 net.cpp:157] Top shape: 1 3 768 112 112 (28901376)
I0417 22:36:09.565520 16792 net.cpp:157] Top shape: 1 101 (101)
I0417 22:36:09.565522 16792 net.cpp:165] Memory required for data: 115605908
I0417 22:36:09.565529 16792 layer_factory.hpp:77] Creating layer data_data_0_split
I0417 22:36:09.565541 16792 net.cpp:100] Creating Layer data_data_0_split
I0417 22:36:09.565548 16792 net.cpp:434] data_data_0_split <- data
I0417 22:36:09.565557 16792 net.cpp:408] data_data_0_split -> data_data_0_split_0
I0417 22:36:09.565575 16792 net.cpp:408] data_data_0_split -> data_data_0_split_1
I0417 22:36:09.565608 16792 net.cpp:150] Setting up data_data_0_split
I0417 22:36:09.565619 16792 net.cpp:157] Top shape: 1 3 768 112 112 (28901376)
I0417 22:36:09.565624 16792 net.cpp:157] Top shape: 1 3 768 112 112 (28901376)
I0417 22:36:09.565627 16792 net.cpp:165] Memory required for data: 346816916
I0417 22:36:09.565631 16792 layer_factory.hpp:77] Creating layer gt_boxes_data_1_split
I0417 22:36:09.565636 16792 net.cpp:100] Creating Layer gt_boxes_data_1_split
I0417 22:36:09.565640 16792 net.cpp:434] gt_boxes_data_1_split <- gt_boxes
I0417 22:36:09.565646 16792 net.cpp:408] gt_boxes_data_1_split -> gt_boxes_data_1_split_0
I0417 22:36:09.565651 16792 net.cpp:408] gt_boxes_data_1_split -> gt_boxes_data_1_split_1
I0417 22:36:09.565677 16792 net.cpp:150] Setting up gt_boxes_data_1_split
I0417 22:36:09.565685 16792 net.cpp:157] Top shape: 1 101 (101)
I0417 22:36:09.565688 16792 net.cpp:157] Top shape: 1 101 (101)
I0417 22:36:09.565691 16792 net.cpp:165] Memory required for data: 346817724
I0417 22:36:09.565695 16792 layer_factory.hpp:77] Creating layer conv1a
I0417 22:36:09.565712 16792 net.cpp:100] Creating Layer conv1a
I0417 22:36:09.565721 16792 net.cpp:434] conv1a <- data_data_0_split_0
I0417 22:36:09.565731 16792 net.cpp:408] conv1a -> conv1a
I0417 22:36:09.843053 16792 net.cpp:150] Setting up conv1a
I0417 22:36:09.843082 16792 net.cpp:157] Top shape: 1 64 768 112 112 (616562688)
I0417 22:36:09.843087 16792 net.cpp:165] Memory required for data: 2813068476
I0417 22:36:09.843107 16792 layer_factory.hpp:77] Creating layer relu1a
I0417 22:36:09.843127 16792 net.cpp:100] Creating Layer relu1a
I0417 22:36:09.843130 16792 net.cpp:434] relu1a <- conv1a
I0417 22:36:09.843137 16792 net.cpp:395] relu1a -> conv1a (in-place)
I0417 22:36:09.843562 16792 net.cpp:150] Setting up relu1a
I0417 22:36:09.843575 16792 net.cpp:157] Top shape: 1 64 768 112 112 (616562688)
I0417 22:36:09.843580 16792 net.cpp:165] Memory required for data: 5279319228
I0417 22:36:09.843583 16792 layer_factory.hpp:77] Creating layer pool1
I0417 22:36:09.843593 16792 net.cpp:100] Creating Layer pool1
I0417 22:36:09.843596 16792 net.cpp:434] pool1 <- conv1a
I0417 22:36:09.843602 16792 net.cpp:408] pool1 -> pool1
I0417 22:36:09.843775 16792 net.cpp:150] Setting up pool1
I0417 22:36:09.843786 16792 net.cpp:157] Top shape: 1 64 768 56 56 (154140672)
I0417 22:36:09.843791 16792 net.cpp:165] Memory required for data: 5895881916
I0417 22:36:09.843796 16792 layer_factory.hpp:77] Creating layer conv2a
I0417 22:36:09.843806 16792 net.cpp:100] Creating Layer conv2a
I0417 22:36:09.843811 16792 net.cpp:434] conv2a <- pool1
I0417 22:36:09.843816 16792 net.cpp:408] conv2a -> conv2a
I0417 22:36:09.855201 16792 net.cpp:150] Setting up conv2a
I0417 22:36:09.855226 16792 net.cpp:157] Top shape: 1 128 768 56 56 (308281344)
I0417 22:36:09.855231 16792 net.cpp:165] Memory required for data: 7129007292
I0417 22:36:09.855243 16792 layer_factory.hpp:77] Creating layer relu2a
I0417 22:36:09.855253 16792 net.cpp:100] Creating Layer relu2a
I0417 22:36:09.855257 16792 net.cpp:434] relu2a <- conv2a
I0417 22:36:09.855264 16792 net.cpp:395] relu2a -> conv2a (in-place)
I0417 22:36:09.855572 16792 net.cpp:150] Setting up relu2a
I0417 22:36:09.855587 16792 net.cpp:157] Top shape: 1 128 768 56 56 (308281344)
I0417 22:36:09.855590 16792 net.cpp:165] Memory required for data: 8362132668
I0417 22:36:09.855593 16792 layer_factory.hpp:77] Creating layer pool2
I0417 22:36:09.855603 16792 net.cpp:100] Creating Layer pool2
I0417 22:36:09.855607 16792 net.cpp:434] pool2 <- conv2a
I0417 22:36:09.855613 16792 net.cpp:408] pool2 -> pool2
I0417 22:36:09.855775 16792 net.cpp:150] Setting up pool2
I0417 22:36:09.855787 16792 net.cpp:157] Top shape: 1 128 384 28 28 (38535168)
I0417 22:36:09.855789 16792 net.cpp:165] Memory required for data: 8516273340
I0417 22:36:09.855793 16792 layer_factory.hpp:77] Creating layer conv3a
I0417 22:36:09.855803 16792 net.cpp:100] Creating Layer conv3a
I0417 22:36:09.855810 16792 net.cpp:434] conv3a <- pool2
I0417 22:36:09.855816 16792 net.cpp:408] conv3a -> conv3a
I0417 22:36:09.884241 16792 net.cpp:150] Setting up conv3a
I0417 22:36:09.884281 16792 net.cpp:157] Top shape: 1 256 384 28 28 (77070336)
I0417 22:36:09.884290 16792 net.cpp:165] Memory required for data: 8824554684
I0417 22:36:09.884308 16792 layer_factory.hpp:77] Creating layer relu3a
I0417 22:36:09.884325 16792 net.cpp:100] Creating Layer relu3a
I0417 22:36:09.884335 16792 net.cpp:434] relu3a <- conv3a
I0417 22:36:09.884347 16792 net.cpp:395] relu3a -> conv3a (in-place)
I0417 22:36:09.884770 16792 net.cpp:150] Setting up relu3a
I0417 22:36:09.884789 16792 net.cpp:157] Top shape: 1 256 384 28 28 (77070336)
I0417 22:36:09.884800 16792 net.cpp:165] Memory required for data: 9132836028
I0417 22:36:09.884809 16792 layer_factory.hpp:77] Creating layer conv3b
I0417 22:36:09.884829 16792 net.cpp:100] Creating Layer conv3b
I0417 22:36:09.884841 16792 net.cpp:434] conv3b <- conv3a
I0417 22:36:09.884853 16792 net.cpp:408] conv3b -> conv3b
I0417 22:36:09.937147 16792 net.cpp:150] Setting up conv3b
I0417 22:36:09.937181 16792 net.cpp:157] Top shape: 1 256 384 28 28 (77070336)
I0417 22:36:09.937186 16792 net.cpp:165] Memory required for data: 9441117372
I0417 22:36:09.937194 16792 layer_factory.hpp:77] Creating layer relu3b
I0417 22:36:09.937203 16792 net.cpp:100] Creating Layer relu3b
I0417 22:36:09.937208 16792 net.cpp:434] relu3b <- conv3b
I0417 22:36:09.937216 16792 net.cpp:395] relu3b -> conv3b (in-place)
I0417 22:36:09.937511 16792 net.cpp:150] Setting up relu3b
I0417 22:36:09.937525 16792 net.cpp:157] Top shape: 1 256 384 28 28 (77070336)
I0417 22:36:09.937527 16792 net.cpp:165] Memory required for data: 9749398716
I0417 22:36:09.937531 16792 layer_factory.hpp:77] Creating layer pool3
I0417 22:36:09.937538 16792 net.cpp:100] Creating Layer pool3
I0417 22:36:09.937541 16792 net.cpp:434] pool3 <- conv3b
I0417 22:36:09.937548 16792 net.cpp:408] pool3 -> pool3
I0417 22:36:09.937788 16792 net.cpp:150] Setting up pool3
I0417 22:36:09.937800 16792 net.cpp:157] Top shape: 1 256 192 14 14 (9633792)
I0417 22:36:09.937803 16792 net.cpp:165] Memory required for data: 9787933884
I0417 22:36:09.937808 16792 layer_factory.hpp:77] Creating layer conv4a
I0417 22:36:09.937816 16792 net.cpp:100] Creating Layer conv4a
I0417 22:36:09.937820 16792 net.cpp:434] conv4a <- pool3
I0417 22:36:09.937826 16792 net.cpp:408] conv4a -> conv4a
I0417 22:36:10.039011 16792 net.cpp:150] Setting up conv4a
I0417 22:36:10.039047 16792 net.cpp:157] Top shape: 1 512 192 14 14 (19267584)
I0417 22:36:10.039055 16792 net.cpp:165] Memory required for data: 9865004220
I0417 22:36:10.039077 16792 layer_factory.hpp:77] Creating layer relu4a
I0417 22:36:10.039096 16792 net.cpp:100] Creating Layer relu4a
I0417 22:36:10.039105 16792 net.cpp:434] relu4a <- conv4a
I0417 22:36:10.039117 16792 net.cpp:395] relu4a -> conv4a (in-place)
I0417 22:36:10.039571 16792 net.cpp:150] Setting up relu4a
I0417 22:36:10.039599 16792 net.cpp:157] Top shape: 1 512 192 14 14 (19267584)
I0417 22:36:10.039608 16792 net.cpp:165] Memory required for data: 9942074556
I0417 22:36:10.039613 16792 layer_factory.hpp:77] Creating layer conv4b
I0417 22:36:10.039634 16792 net.cpp:100] Creating Layer conv4b
I0417 22:36:10.039644 16792 net.cpp:434] conv4b <- conv4a
I0417 22:36:10.039656 16792 net.cpp:408] conv4b -> conv4b
I0417 22:36:10.236888 16792 net.cpp:150] Setting up conv4b
I0417 22:36:10.236912 16792 net.cpp:157] Top shape: 1 512 192 14 14 (19267584)
I0417 22:36:10.236917 16792 net.cpp:165] Memory required for data: 10019144892
I0417 22:36:10.236925 16792 layer_factory.hpp:77] Creating layer relu4b
I0417 22:36:10.236937 16792 net.cpp:100] Creating Layer relu4b
I0417 22:36:10.236941 16792 net.cpp:434] relu4b <- conv4b
I0417 22:36:10.236948 16792 net.cpp:395] relu4b -> conv4b (in-place)
I0417 22:36:10.237099 16792 net.cpp:150] Setting up relu4b
I0417 22:36:10.237109 16792 net.cpp:157] Top shape: 1 512 192 14 14 (19267584)
I0417 22:36:10.237112 16792 net.cpp:165] Memory required for data: 10096215228
I0417 22:36:10.237116 16792 layer_factory.hpp:77] Creating layer pool4
I0417 22:36:10.237124 16792 net.cpp:100] Creating Layer pool4
I0417 22:36:10.237131 16792 net.cpp:434] pool4 <- conv4b
I0417 22:36:10.237138 16792 net.cpp:408] pool4 -> pool4
I0417 22:36:10.237468 16792 net.cpp:150] Setting up pool4
I0417 22:36:10.237480 16792 net.cpp:157] Top shape: 1 512 96 7 7 (2408448)
I0417 22:36:10.237484 16792 net.cpp:165] Memory required for data: 10105849020
I0417 22:36:10.237488 16792 layer_factory.hpp:77] Creating layer conv5a
I0417 22:36:10.237498 16792 net.cpp:100] Creating Layer conv5a
I0417 22:36:10.237504 16792 net.cpp:434] conv5a <- pool4
I0417 22:36:10.237511 16792 net.cpp:408] conv5a -> conv5a
I0417 22:36:10.434904 16792 net.cpp:150] Setting up conv5a
I0417 22:36:10.434929 16792 net.cpp:157] Top shape: 1 512 96 7 7 (2408448)
I0417 22:36:10.434933 16792 net.cpp:165] Memory required for data: 10115482812
I0417 22:36:10.434944 16792 layer_factory.hpp:77] Creating layer relu5a
I0417 22:36:10.434954 16792 net.cpp:100] Creating Layer relu5a
I0417 22:36:10.434960 16792 net.cpp:434] relu5a <- conv5a
I0417 22:36:10.434968 16792 net.cpp:395] relu5a -> conv5a (in-place)
I0417 22:36:10.435904 16792 net.cpp:150] Setting up relu5a
I0417 22:36:10.435917 16792 net.cpp:157] Top shape: 1 512 96 7 7 (2408448)
I0417 22:36:10.435922 16792 net.cpp:165] Memory required for data: 10125116604
I0417 22:36:10.435926 16792 layer_factory.hpp:77] Creating layer conv5b
I0417 22:36:10.435938 16792 net.cpp:100] Creating Layer conv5b
I0417 22:36:10.435942 16792 net.cpp:434] conv5b <- conv5a
I0417 22:36:10.435950 16792 net.cpp:408] conv5b -> conv5b
I0417 22:36:10.635401 16792 net.cpp:150] Setting up conv5b
I0417 22:36:10.635437 16792 net.cpp:157] Top shape: 1 512 96 7 7 (2408448)
I0417 22:36:10.635440 16792 net.cpp:165] Memory required for data: 10134750396
I0417 22:36:10.635450 16792 layer_factory.hpp:77] Creating layer relu5b
I0417 22:36:10.635460 16792 net.cpp:100] Creating Layer relu5b
I0417 22:36:10.635465 16792 net.cpp:434] relu5b <- conv5b
I0417 22:36:10.635470 16792 net.cpp:395] relu5b -> conv5b (in-place)
I0417 22:36:10.636762 16792 net.cpp:150] Setting up relu5b
I0417 22:36:10.636773 16792 net.cpp:157] Top shape: 1 512 96 7 7 (2408448)
I0417 22:36:10.636777 16792 net.cpp:165] Memory required for data: 10144384188
I0417 22:36:10.636781 16792 layer_factory.hpp:77] Creating layer conv5b_relu5b_0_split
I0417 22:36:10.636787 16792 net.cpp:100] Creating Layer conv5b_relu5b_0_split
I0417 22:36:10.636790 16792 net.cpp:434] conv5b_relu5b_0_split <- conv5b
I0417 22:36:10.636795 16792 net.cpp:408] conv5b_relu5b_0_split -> conv5b_relu5b_0_split_0
I0417 22:36:10.636803 16792 net.cpp:408] conv5b_relu5b_0_split -> conv5b_relu5b_0_split_1
I0417 22:36:10.636845 16792 net.cpp:150] Setting up conv5b_relu5b_0_split
I0417 22:36:10.636855 16792 net.cpp:157] Top shape: 1 512 96 7 7 (2408448)
I0417 22:36:10.636862 16792 net.cpp:157] Top shape: 1 512 96 7 7 (2408448)
I0417 22:36:10.636864 16792 net.cpp:165] Memory required for data: 10163651772
I0417 22:36:10.636868 16792 layer_factory.hpp:77] Creating layer rpn_conv/3x3
I0417 22:36:10.636878 16792 net.cpp:100] Creating Layer rpn_conv/3x3
I0417 22:36:10.636883 16792 net.cpp:434] rpn_conv/3x3 <- conv5b_relu5b_0_split_0
I0417 22:36:10.636888 16792 net.cpp:408] rpn_conv/3x3 -> rpn/output
I0417 22:36:10.837687 16792 net.cpp:150] Setting up rpn_conv/3x3
I0417 22:36:10.837713 16792 net.cpp:157] Top shape: 1 512 96 4 4 (786432)
I0417 22:36:10.837716 16792 net.cpp:165] Memory required for data: 10166797500
I0417 22:36:10.837729 16792 layer_factory.hpp:77] Creating layer rpn_relu/3x3
I0417 22:36:10.837739 16792 net.cpp:100] Creating Layer rpn_relu/3x3
I0417 22:36:10.837744 16792 net.cpp:434] rpn_relu/3x3 <- rpn/output
I0417 22:36:10.837750 16792 net.cpp:395] rpn_relu/3x3 -> rpn/output (in-place)
I0417 22:36:10.838052 16792 net.cpp:150] Setting up rpn_relu/3x3
I0417 22:36:10.838065 16792 net.cpp:157] Top shape: 1 512 96 4 4 (786432)
I0417 22:36:10.838069 16792 net.cpp:165] Memory required for data: 10169943228
I0417 22:36:10.838073 16792 layer_factory.hpp:77] Creating layer rpn_conv/3x3_2
I0417 22:36:10.838083 16792 net.cpp:100] Creating Layer rpn_conv/3x3_2
I0417 22:36:10.838090 16792 net.cpp:434] rpn_conv/3x3_2 <- rpn/output
I0417 22:36:10.838098 16792 net.cpp:408] rpn_conv/3x3_2 -> rpn/output_2
I0417 22:36:11.037009 16792 net.cpp:150] Setting up rpn_conv/3x3_2
I0417 22:36:11.037034 16792 net.cpp:157] Top shape: 1 512 96 2 2 (196608)
I0417 22:36:11.037039 16792 net.cpp:165] Memory required for data: 10170729660
I0417 22:36:11.037048 16792 layer_factory.hpp:77] Creating layer rpn_relu/3x3_2
I0417 22:36:11.037058 16792 net.cpp:100] Creating Layer rpn_relu/3x3_2
I0417 22:36:11.037063 16792 net.cpp:434] rpn_relu/3x3_2 <- rpn/output_2
I0417 22:36:11.037071 16792 net.cpp:395] rpn_relu/3x3_2 -> rpn/output_2 (in-place)
I0417 22:36:11.038362 16792 net.cpp:150] Setting up rpn_relu/3x3_2
I0417 22:36:11.038374 16792 net.cpp:157] Top shape: 1 512 96 2 2 (196608)
I0417 22:36:11.038378 16792 net.cpp:165] Memory required for data: 10171516092
I0417 22:36:11.038384 16792 layer_factory.hpp:77] Creating layer rpn/output_pool
I0417 22:36:11.038398 16792 net.cpp:100] Creating Layer rpn/output_pool
I0417 22:36:11.038404 16792 net.cpp:434] rpn/output_pool <- rpn/output_2
I0417 22:36:11.038414 16792 net.cpp:408] rpn/output_pool -> rpn/output_pool
I0417 22:36:11.039594 16792 net.cpp:150] Setting up rpn/output_pool
I0417 22:36:11.039608 16792 net.cpp:157] Top shape: 1 512 96 1 1 (49152)
I0417 22:36:11.039613 16792 net.cpp:165] Memory required for data: 10171712700
I0417 22:36:11.039616 16792 layer_factory.hpp:77] Creating layer rpn/output_pool_rpn/output_pool_0_split
I0417 22:36:11.039623 16792 net.cpp:100] Creating Layer rpn/output_pool_rpn/output_pool_0_split
I0417 22:36:11.039625 16792 net.cpp:434] rpn/output_pool_rpn/output_pool_0_split <- rpn/output_pool
I0417 22:36:11.039630 16792 net.cpp:408] rpn/output_pool_rpn/output_pool_0_split -> rpn/output_pool_rpn/output_pool_0_split_0
I0417 22:36:11.039636 16792 net.cpp:408] rpn/output_pool_rpn/output_pool_0_split -> rpn/output_pool_rpn/output_pool_0_split_1
I0417 22:36:11.039674 16792 net.cpp:150] Setting up rpn/output_pool_rpn/output_pool_0_split
I0417 22:36:11.039681 16792 net.cpp:157] Top shape: 1 512 96 1 1 (49152)
I0417 22:36:11.039686 16792 net.cpp:157] Top shape: 1 512 96 1 1 (49152)
I0417 22:36:11.039690 16792 net.cpp:165] Memory required for data: 10172105916
I0417 22:36:11.039693 16792 layer_factory.hpp:77] Creating layer rpn_cls_score
I0417 22:36:11.039705 16792 net.cpp:100] Creating Layer rpn_cls_score
I0417 22:36:11.039714 16792 net.cpp:434] rpn_cls_score <- rpn/output_pool_rpn/output_pool_0_split_0
I0417 22:36:11.039721 16792 net.cpp:408] rpn_cls_score -> rpn_cls_score
I0417 22:36:11.043673 16792 net.cpp:150] Setting up rpn_cls_score
I0417 22:36:11.043689 16792 net.cpp:157] Top shape: 1 74 96 1 1 (7104)
I0417 22:36:11.043696 16792 net.cpp:165] Memory required for data: 10172134332
I0417 22:36:11.043707 16792 layer_factory.hpp:77] Creating layer rpn_cls_score_rpn_cls_score_0_split
I0417 22:36:11.043737 16792 net.cpp:100] Creating Layer rpn_cls_score_rpn_cls_score_0_split
I0417 22:36:11.043747 16792 net.cpp:434] rpn_cls_score_rpn_cls_score_0_split <- rpn_cls_score
I0417 22:36:11.043761 16792 net.cpp:408] rpn_cls_score_rpn_cls_score_0_split -> rpn_cls_score_rpn_cls_score_0_split_0
I0417 22:36:11.043774 16792 net.cpp:408] rpn_cls_score_rpn_cls_score_0_split -> rpn_cls_score_rpn_cls_score_0_split_1
I0417 22:36:11.043831 16792 net.cpp:150] Setting up rpn_cls_score_rpn_cls_score_0_split
I0417 22:36:11.043843 16792 net.cpp:157] Top shape: 1 74 96 1 1 (7104)
I0417 22:36:11.043850 16792 net.cpp:157] Top shape: 1 74 96 1 1 (7104)
I0417 22:36:11.043859 16792 net.cpp:165] Memory required for data: 10172191164
I0417 22:36:11.043867 16792 layer_factory.hpp:77] Creating layer rpn_twin_pred
I0417 22:36:11.043884 16792 net.cpp:100] Creating Layer rpn_twin_pred
I0417 22:36:11.043889 16792 net.cpp:434] rpn_twin_pred <- rpn/output_pool_rpn/output_pool_0_split_1
I0417 22:36:11.043896 16792 net.cpp:408] rpn_twin_pred -> rpn_twin_pred
I0417 22:36:11.049028 16792 net.cpp:150] Setting up rpn_twin_pred
I0417 22:36:11.049046 16792 net.cpp:157] Top shape: 1 74 96 1 1 (7104)
I0417 22:36:11.049053 16792 net.cpp:165] Memory required for data: 10172219580
I0417 22:36:11.049064 16792 layer_factory.hpp:77] Creating layer rpn_twin_pred_rpn_twin_pred_0_split
I0417 22:36:11.049077 16792 net.cpp:100] Creating Layer rpn_twin_pred_rpn_twin_pred_0_split
I0417 22:36:11.049082 16792 net.cpp:434] rpn_twin_pred_rpn_twin_pred_0_split <- rpn_twin_pred
I0417 22:36:11.049088 16792 net.cpp:408] rpn_twin_pred_rpn_twin_pred_0_split -> rpn_twin_pred_rpn_twin_pred_0_split_0
I0417 22:36:11.049096 16792 net.cpp:408] rpn_twin_pred_rpn_twin_pred_0_split -> rpn_twin_pred_rpn_twin_pred_0_split_1
I0417 22:36:11.049155 16792 net.cpp:150] Setting up rpn_twin_pred_rpn_twin_pred_0_split
I0417 22:36:11.049167 16792 net.cpp:157] Top shape: 1 74 96 1 1 (7104)
I0417 22:36:11.049172 16792 net.cpp:157] Top shape: 1 74 96 1 1 (7104)
I0417 22:36:11.049176 16792 net.cpp:165] Memory required for data: 10172276412
I0417 22:36:11.049180 16792 layer_factory.hpp:77] Creating layer rpn_cls_score_reshape
I0417 22:36:11.049193 16792 net.cpp:100] Creating Layer rpn_cls_score_reshape
I0417 22:36:11.049201 16792 net.cpp:434] rpn_cls_score_reshape <- rpn_cls_score_rpn_cls_score_0_split_0
I0417 22:36:11.049207 16792 net.cpp:408] rpn_cls_score_reshape -> rpn_cls_score_reshape
I0417 22:36:11.049240 16792 net.cpp:150] Setting up rpn_cls_score_reshape
I0417 22:36:11.049247 16792 net.cpp:157] Top shape: 1 2 3552 1 1 (7104)
I0417 22:36:11.049249 16792 net.cpp:165] Memory required for data: 10172304828
I0417 22:36:11.049253 16792 layer_factory.hpp:77] Creating layer rpn_cls_score_reshape_rpn_cls_score_reshape_0_split
I0417 22:36:11.049258 16792 net.cpp:100] Creating Layer rpn_cls_score_reshape_rpn_cls_score_reshape_0_split
I0417 22:36:11.049263 16792 net.cpp:434] rpn_cls_score_reshape_rpn_cls_score_reshape_0_split <- rpn_cls_score_reshape
I0417 22:36:11.049269 16792 net.cpp:408] rpn_cls_score_reshape_rpn_cls_score_reshape_0_split -> rpn_cls_score_reshape_rpn_cls_score_reshape_0_split_0
I0417 22:36:11.049278 16792 net.cpp:408] rpn_cls_score_reshape_rpn_cls_score_reshape_0_split -> rpn_cls_score_reshape_rpn_cls_score_reshape_0_split_1
I0417 22:36:11.049291 16792 net.cpp:408] rpn_cls_score_reshape_rpn_cls_score_reshape_0_split -> rpn_cls_score_reshape_rpn_cls_score_reshape_0_split_2
I0417 22:36:11.049362 16792 net.cpp:150] Setting up rpn_cls_score_reshape_rpn_cls_score_reshape_0_split
I0417 22:36:11.049374 16792 net.cpp:157] Top shape: 1 2 3552 1 1 (7104)
I0417 22:36:11.049379 16792 net.cpp:157] Top shape: 1 2 3552 1 1 (7104)
I0417 22:36:11.049383 16792 net.cpp:157] Top shape: 1 2 3552 1 1 (7104)
I0417 22:36:11.049386 16792 net.cpp:165] Memory required for data: 10172390076
I0417 22:36:11.049391 16792 layer_factory.hpp:77] Creating layer rpn-data
I0417 22:36:11.049842 16792 net.cpp:100] Creating Layer rpn-data
I0417 22:36:11.049857 16792 net.cpp:434] rpn-data <- rpn_cls_score_rpn_cls_score_0_split_1
I0417 22:36:11.049865 16792 net.cpp:434] rpn-data <- gt_boxes_data_1_split_0
I0417 22:36:11.049872 16792 net.cpp:434] rpn-data <- data_data_0_split_1
I0417 22:36:11.049878 16792 net.cpp:408] rpn-data -> rpn_labels
I0417 22:36:11.049885 16792 net.cpp:408] rpn-data -> rpn_twin_targets
I0417 22:36:11.049892 16792 net.cpp:408] rpn-data -> rpn_twin_inside_weights
I0417 22:36:11.049898 16792 net.cpp:408] rpn-data -> rpn_twin_outside_weights
I0417 22:36:11.053272 16792 net.cpp:150] Setting up rpn-data
I0417 22:36:11.053297 16792 net.cpp:157] Top shape: 1 1 3552 1 1 (3552)
I0417 22:36:11.053308 16792 net.cpp:157] Top shape: 1 74 96 1 1 (7104)
I0417 22:36:11.053315 16792 net.cpp:157] Top shape: 1 74 96 1 1 (7104)
I0417 22:36:11.053323 16792 net.cpp:157] Top shape: 1 74 96 1 1 (7104)
I0417 22:36:11.053329 16792 net.cpp:165] Memory required for data: 10172489532
I0417 22:36:11.053336 16792 layer_factory.hpp:77] Creating layer rpn_labels_rpn-data_0_split
I0417 22:36:11.053350 16792 net.cpp:100] Creating Layer rpn_labels_rpn-data_0_split
I0417 22:36:11.053359 16792 net.cpp:434] rpn_labels_rpn-data_0_split <- rpn_labels
I0417 22:36:11.053370 16792 net.cpp:408] rpn_labels_rpn-data_0_split -> rpn_labels_rpn-data_0_split_0
I0417 22:36:11.053385 16792 net.cpp:408] rpn_labels_rpn-data_0_split -> rpn_labels_rpn-data_0_split_1
I0417 22:36:11.053455 16792 net.cpp:150] Setting up rpn_labels_rpn-data_0_split
I0417 22:36:11.053474 16792 net.cpp:157] Top shape: 1 1 3552 1 1 (3552)
I0417 22:36:11.053484 16792 net.cpp:157] Top shape: 1 1 3552 1 1 (3552)
I0417 22:36:11.053490 16792 net.cpp:165] Memory required for data: 10172517948
I0417 22:36:11.053498 16792 layer_factory.hpp:77] Creating layer rpn_loss_cls
I0417 22:36:11.053514 16792 net.cpp:100] Creating Layer rpn_loss_cls
I0417 22:36:11.053525 16792 net.cpp:434] rpn_loss_cls <- rpn_cls_score_reshape_rpn_cls_score_reshape_0_split_0
I0417 22:36:11.053536 16792 net.cpp:434] rpn_loss_cls <- rpn_labels_rpn-data_0_split_0
…
I0417 22:36:11.054409 16792 layer_factory.hpp:77] Creating layer rpn_accuarcy
I0417 22:36:11.054417 16792 net.cpp:100] Creating Layer rpn_accuarcy
I0417 22:36:11.054422 16792 net.cpp:434] rpn_accuarcy <- rpn_cls_score_reshape_rpn_cls_score_reshape_0_split_1
I0417 22:36:11.054427 16792 net.cpp:434] rpn_accuarcy <- rpn_labels_rpn-data_0_split_1
I0417 22:36:11.054435 16792 net.cpp:408] rpn_accuarcy -> rpn_accuarcy
I0417 22:36:11.054443 16792 net.cpp:408] rpn_accuarcy -> rpn_accuarcy_class
I0417 22:36:11.054486 16792 net.cpp:150] Setting up rpn_accuarcy
I0417 22:36:11.054492 16792 net.cpp:157] Top shape: (1)
I0417 22:36:11.054497 16792 net.cpp:157] Top shape: 2 (2)
I0417 22:36:11.054500 16792 net.cpp:165] Memory required for data: 10172517968
I0417 22:36:11.054504 16792 layer_factory.hpp:77] Creating layer rpn_cls_prob
I0417 22:36:11.054509 16792 net.cpp:100] Creating Layer rpn_cls_prob
I0417 22:36:11.054514 16792 net.cpp:434] rpn_cls_prob <- rpn_cls_score_reshape_rpn_cls_score_reshape_0_split_2
I0417 22:36:11.054519 16792 net.cpp:408] rpn_cls_prob -> rpn_cls_prob
I0417 22:36:11.054759 16792 net.cpp:150] Setting up rpn_cls_prob
I0417 22:36:11.054797 16792 net.cpp:157] Top shape: 1 2 3552 1 1 (7104)
I0417 22:36:11.054805 16792 net.cpp:165] Memory required for data: 10172546384
I0417 22:36:11.054808 16792 layer_factory.hpp:77] Creating layer rpn_cls_prob_reshape
I0417 22:36:11.054816 16792 net.cpp:100] Creating Layer rpn_cls_prob_reshape
I0417 22:36:11.054821 16792 net.cpp:434] rpn_cls_prob_reshape <- rpn_cls_prob
I0417 22:36:11.054826 16792 net.cpp:408] rpn_cls_prob_reshape -> rpn_cls_prob_reshape
I0417 22:36:11.054862 16792 net.cpp:150] Setting up rpn_cls_prob_reshape
I0417 22:36:11.054872 16792 net.cpp:157] Top shape: 1 74 96 1 1 (7104)
I0417 22:36:11.054874 16792 net.cpp:165] Memory required for data: 10172574800
I0417 22:36:11.054878 16792 layer_factory.hpp:77] Creating layer proposal
I0417 22:36:11.055534 16792 net.cpp:100] Creating Layer proposal
I0417 22:36:11.055549 16792 net.cpp:434] proposal <- rpn_cls_prob_reshape
I0417 22:36:11.055555 16792 net.cpp:434] proposal <- rpn_twin_pred_rpn_twin_pred_0_split_1
I0417 22:36:11.055562 16792 net.cpp:408] proposal -> rpn_rois
I0417 22:36:11.058156 16792 net.cpp:150] Setting up proposal
I0417 22:36:11.058171 16792 net.cpp:157] Top shape: 1 3 (3)
I0417 22:36:11.058176 16792 net.cpp:165] Memory required for data: 10172574812
I0417 22:36:11.058181 16792 layer_factory.hpp:77] Creating layer roi-data
I0417 22:36:11.058331 16792 net.cpp:100] Creating Layer roi-data
I0417 22:36:11.058344 16792 net.cpp:434] roi-data <- rpn_rois
I0417 22:36:11.058351 16792 net.cpp:434] roi-data <- gt_boxes_data_1_split_1
I0417 22:36:11.058357 16792 net.cpp:408] roi-data -> rois
I0417 22:36:11.058364 16792 net.cpp:408] roi-data -> labels
I0417 22:36:11.058373 16792 net.cpp:408] roi-data -> twin_targets
I0417 22:36:11.058380 16792 net.cpp:408] roi-data -> twin_inside_weights
I0417 22:36:11.058387 16792 net.cpp:408] roi-data -> twin_outside_weights
I0417 22:36:11.058753 16792 net.cpp:150] Setting up roi-data
I0417 22:36:11.058785 16792 net.cpp:157] Top shape: 1 3 (3)
I0417 22:36:11.058794 16792 net.cpp:157] Top shape: 1 1 (1)
I0417 22:36:11.058797 16792 net.cpp:157] Top shape: 1 402 (402)
I0417 22:36:11.058802 16792 net.cpp:157] Top shape: 1 402 (402)
I0417 22:36:11.058806 16792 net.cpp:157] Top shape: 1 402 (402)
I0417 22:36:11.058810 16792 net.cpp:165] Memory required for data: 10172579652
I0417 22:36:11.058815 16792 layer_factory.hpp:77] Creating layer labels_roi-data_1_split
I0417 22:36:11.058820 16792 net.cpp:100] Creating Layer labels_roi-data_1_split
I0417 22:36:11.058825 16792 net.cpp:434] labels_roi-data_1_split <- labels
I0417 22:36:11.058831 16792 net.cpp:408] labels_roi-data_1_split -> labels_roi-data_1_split_0
I0417 22:36:11.058838 16792 net.cpp:408] labels_roi-data_1_split -> labels_roi-data_1_split_1
I0417 22:36:11.058876 16792 net.cpp:150] Setting up labels_roi-data_1_split
I0417 22:36:11.058885 16792 net.cpp:157] Top shape: 1 1 (1)
I0417 22:36:11.058890 16792 net.cpp:157] Top shape: 1 1 (1)
I0417 22:36:11.058893 16792 net.cpp:165] Memory required for data: 10172579660
I0417 22:36:11.058897 16792 layer_factory.hpp:77] Creating layer roi_pool5
I0417 22:36:11.058907 16792 net.cpp:100] Creating Layer roi_pool5
I0417 22:36:11.058912 16792 net.cpp:434] roi_pool5 <- conv5b_relu5b_0_split_1
I0417 22:36:11.058917 16792 net.cpp:434] roi_pool5 <- rois
I0417 22:36:11.058923 16792 net.cpp:408] roi_pool5 -> pool5
I0417 22:36:11.058929 16792 roi_pooling_layer.cpp:34] Temporal scale: 0.125
I0417 22:36:11.058938 16792 roi_pooling_layer.cpp:35] Spatial scale: 0.0625
I0417 22:36:11.058979 16792 net.cpp:150] Setting up roi_pool5
I0417 22:36:11.058985 16792 net.cpp:157] Top shape: 1 512 1 4 4 (8192)
I0417 22:36:11.058990 16792 net.cpp:165] Memory required for data: 10172612428
I0417 22:36:11.058993 16792 layer_factory.hpp:77] Creating layer fc6
I0417 22:36:11.059002 16792 net.cpp:100] Creating Layer fc6
I0417 22:36:11.059008 16792 net.cpp:434] fc6 <- pool5
I0417 22:36:11.059015 16792 net.cpp:408] fc6 -> fc6
I0417 22:36:11.985538 16792 net.cpp:150] Setting up fc6
I0417 22:36:11.985571 16792 net.cpp:157] Top shape: 1 4096 (4096)
I0417 22:36:11.985579 16792 net.cpp:165] Memory required for data: 10172628812
I0417 22:36:11.985594 16792 layer_factory.hpp:77] Creating layer relu6
I0417 22:36:11.985612 16792 net.cpp:100] Creating Layer relu6
I0417 22:36:11.985625 16792 net.cpp:434] relu6 <- fc6
I0417 22:36:11.985638 16792 net.cpp:395] relu6 -> fc6 (in-place)
I0417 22:36:11.986207 16792 net.cpp:150] Setting up relu6
I0417 22:36:11.986227 16792 net.cpp:157] Top shape: 1 4096 (4096)
I0417 22:36:11.986238 16792 net.cpp:165] Memory required for data: 10172645196
I0417 22:36:11.986244 16792 layer_factory.hpp:77] Creating layer drop6
I0417 22:36:11.986260 16792 net.cpp:100] Creating Layer drop6
I0417 22:36:11.986272 16792 net.cpp:434] drop6 <- fc6
I0417 22:36:11.986281 16792 net.cpp:395] drop6 -> fc6 (in-place)
I0417 22:36:11.986325 16792 net.cpp:150] Setting up drop6
I0417 22:36:11.986342 16792 net.cpp:157] Top shape: 1 4096 (4096)
I0417 22:36:11.986348 16792 net.cpp:165] Memory required for data: 10172661580
I0417 22:36:11.986354 16792 layer_factory.hpp:77] Creating layer fc6_drop6_0_split
I0417 22:36:11.986362 16792 net.cpp:100] Creating Layer fc6_drop6_0_split
I0417 22:36:11.986372 16792 net.cpp:434] fc6_drop6_0_split <- fc6
I0417 22:36:11.986384 16792 net.cpp:408] fc6_drop6_0_split -> fc6_drop6_0_split_0
I0417 22:36:11.986395 16792 net.cpp:408] fc6_drop6_0_split -> fc6_drop6_0_split_1
I0417 22:36:11.986456 16792 net.cpp:150] Setting up fc6_drop6_0_split
I0417 22:36:11.986474 16792 net.cpp:157] Top shape: 1 4096 (4096)
I0417 22:36:11.986483 16792 net.cpp:157] Top shape: 1 4096 (4096)
I0417 22:36:11.986488 16792 net.cpp:165] Memory required for data: 10172694348
I0417 22:36:11.986495 16792 layer_factory.hpp:77] Creating layer cls_score
I0417 22:36:11.986508 16792 net.cpp:100] Creating Layer cls_score
I0417 22:36:11.986516 16792 net.cpp:434] cls_score <- fc6_drop6_0_split_0
I0417 22:36:11.986528 16792 net.cpp:408] cls_score -> cls_score
I0417 22:36:12.009297 16792 net.cpp:150] Setting up cls_score
I0417 22:36:12.009313 16792 net.cpp:157] Top shape: 1 201 (201)
I0417 22:36:12.009317 16792 net.cpp:165] Memory required for data: 10172695152
I0417 22:36:12.009325 16792 layer_factory.hpp:77] Creating layer cls_score_cls_score_0_split
I0417 22:36:12.009332 16792 net.cpp:100] Creating Layer cls_score_cls_score_0_split
I0417 22:36:12.009336 16792 net.cpp:434] cls_score_cls_score_0_split <- cls_score
I0417 22:36:12.009341 16792 net.cpp:408] cls_score_cls_score_0_split -> cls_score_cls_score_0_split_0
I0417 22:36:12.009348 16792 net.cpp:408] cls_score_cls_score_0_split -> cls_score_cls_score_0_split_1
I0417 22:36:12.009382 16792 net.cpp:150] Setting up cls_score_cls_score_0_split
I0417 22:36:12.009387 16792 net.cpp:157] Top shape: 1 201 (201)
I0417 22:36:12.009390 16792 net.cpp:157] Top shape: 1 201 (201)
I0417 22:36:12.009393 16792 net.cpp:165] Memory required for data: 10172696760
I0417 22:36:12.009397 16792 layer_factory.hpp:77] Creating layer twin_pred
I0417 22:36:12.009403 16792 net.cpp:100] Creating Layer twin_pred
I0417 22:36:12.009407 16792 net.cpp:434] twin_pred <- fc6_drop6_0_split_1
I0417 22:36:12.009413 16792 net.cpp:408] twin_pred -> twin_pred
I0417 22:36:12.055294 16792 net.cpp:150] Setting up twin_pred
I0417 22:36:12.055325 16792 net.cpp:157] Top shape: 1 402 (402)
I0417 22:36:12.055330 16792 net.cpp:165] Memory required for data: 10172698368
I0417 22:36:12.055344 16792 layer_factory.hpp:77] Creating layer loss_cls
I0417 22:36:12.055357 16792 net.cpp:100] Creating Layer loss_cls
I0417 22:36:12.055364 16792 net.cpp:434] loss_cls <- cls_score_cls_score_0_split_0
I0417 22:36:12.055373 16792 net.cpp:434] loss_cls <- labels_roi-data_1_split_0
I0417 22:36:12.055387 16792 net.cpp:408] loss_cls -> loss_cls
…
