…
stepsize: 350000
snapshot: 0
snapshot_prefix: "./experiments/activitynet/snapshot/activitynet"
average_loss: 100
iter_size: 1
I0417 23:34:30.271899  7100 solver.cpp:81] Creating training net from train_net file: ./experiments/activitynet/train.prototxt
I0417 23:34:30.272997  7100 net.cpp:58] Initializing net from parameters: 
name: "activitynet"
state {
  phase: TRAIN
}
layer {
  name: "data"
  type: "Python"
  top: "data"
  top: "gt_boxes"
  python_param {
    module: "roi_data_layer.layer"
    layer: "RoIDataLayer"
    param_str: "\'num_classes\': 100"
  }
}
layer {
  name: "conv1a"
  type: "Convolution"
  bottom: "data"
  top: "conv1a"
  param {
    lr_mult: 0
    decay_mult: 0
  }
  param {
    lr_mult: 0
    decay_mult: 0
  }
  convolution_param {
    num_output: 64
    pad: 1
    pad: 1
    pad: 1
    kernel_size: 3
    kernel_size: 3
    kernel_size: 3
    weight_filler {
      type: "gaussian"
      std: 0.01
    }
    bias_filler {
      type: "constant"
      value: 0
    }
  }
}
layer {
  name: "relu1a"
  type: "ReLU"
  bottom: "conv1a"
  top: "conv1a"
}
layer {
  name: "pool1"
  type: "Pooling"
  bottom: "conv1a"
  top: "pool1"
  pooling_param {
    pool: MAX
    kernel_size: 1
    kernel_size: 2
    kernel_size: 2
    stride: 1
    stride: 2
    stride: 2
  }
}
layer {
  name: "conv2a"
  type: "Convolution"
  bottom: "pool1"
  top: "conv2a"
  param {
    lr_mult: 0
    decay_mult: 0
  }
  param {
    lr_mult: 0
    decay_mult: 0
  }
  convolution_param {
    num_output: 128
    pad: 1
    pad: 1
    pad: 1
    kernel_size: 3
    kernel_size: 3
    kernel_size: 3
    weight_filler {
      type: "gaussian"
      std: 0.01
    }
    bias_filler {
      type: "constant"
      value: 1
    }
  }
}
layer {
  name: "relu2a"
  type: "ReLU"
  bottom: "conv2a"
  top: "conv2a"
}
layer {
  name: "pool2"
  type: "Pooling"
  bottom: "conv2a"
  top: "pool2"
  pooling_param {
    pool: MAX
    kernel_size: 2
    kernel_size: 2
    kernel_size: 2
    stride: 2
    stride: 2
    stride: 2
  }
}
layer {
  name: "conv3a"
  type: "Convolution"
  bottom: "pool2"
  top: "conv3a"
  param {
    lr_mult: 1
    decay_mult: 1
  }
  param {
    lr_mult: 2
    decay_mult: 0
  }
  convolution_param {
    num_output: 256
    pad: 1
    pad: 1
    pad: 1
    kernel_size: 3
    kernel_size: 3
    kernel_size: 3
    weight_filler {
      type: "gaussian"
      std: 0.01
    }
    bias_filler {
      type: "constant"
      value: 1
    }
  }
}
layer {
  name: "relu3a"
  type: "ReLU"
  bottom: "conv3a"
  top: "conv3a"
}
layer {
  name: "conv3b"
  type: "Convolution"
  bottom: "conv3a"
  top: "conv3b"
  param {
    lr_mult: 1
    decay_mult: 1
  }
  param {
    lr_mult: 2
    decay_mult: 0
  }
  convolution_param {
    num_output: 256
    pad: 1
    pad: 1
    pad: 1
    kernel_size: 3
    kernel_size: 3
    kernel_size: 3
    weight_filler {
      type: "gaussian"
      std: 0.01
    }
    bias_filler {
      type: "constant"
      value: 1
    }
  }
}
layer {
  name: "relu3b"
  type: "ReLU"
  bottom: "conv3b"
  top: "conv3b"
}
layer {
  name: "pool3"
  type: "Pooling"
  bottom: "conv3b"
  top: "pool3"
  pooling_param {
    pool: MAX
    kernel_size: 2
    kernel_size: 2
    kernel_size: 2
    stride: 2
    stride: 2
    stride: 2
  }
}
layer {
  name: "conv4a"
  type: "Convolution"
  bottom: "pool3"
  top: "conv4a"
  param {
    lr_mult: 1
    decay_mult: 1
  }
  param {
    lr_mult: 2
    decay_mult: 0
  }
  convolution_param {
    num_output: 512
    pad: 1
    pad: 1
    pad: 1
    kernel_size: 3
    kernel_size: 3
    kernel_size: 3
    weight_filler {
      type: "gaussian"
      std: 0.01
    }
    bias_filler {
      type: "constant"
      value: 1
    }
  }
}
layer {
  name: "relu4a"
  type: "ReLU"
  bottom: "conv4a"
  top: "conv4a"
}
layer {
  name: "conv4b"
  type: "Convolution"
  bottom: "conv4a"
  top: "conv4b"
  param {
    lr_mult: 1
    decay_mult: 1
  }
  param {
    lr_mult: 2
    decay_mult: 0
  }
  convolution_param {
    num_output: 512
    pad: 1
    pad: 1
    pad: 1
    kernel_size: 3
    kernel_size: 3
    kernel_size: 3
    weight_filler {
      type: "gaussian"
      std: 0.01
    }
    bias_filler {
      type: "constant"
      value: 1
    }
  }
}
layer {
  name: "relu4b"
  type: "ReLU"
  bottom: "conv4b"
  top: "conv4b"
}
layer {
  name: "pool4"
  type: "Pooling"
  bottom: "conv4b"
  top: "pool4"
  pooling_param {
    pool: MAX
    kernel_size: 2
    kernel_size: 2
    kernel_size: 2
    stride: 2
    stride: 2
    stride: 2
  }
}
layer {
  name: "conv5a"
  type: "Convolution"
  bottom: "pool4"
  top: "conv5a"
  param {
    lr_mult: 1
    decay_mult: 1
  }
  param {
    lr_mult: 2
    decay_mult: 0
  }
  convolution_param {
    num_output: 512
    pad: 1
    pad: 1
    pad: 1
    kernel_size: 3
    kernel_size: 3
    kernel_size: 3
    weight_filler {
      type: "gaussian"
      std: 0.01
    }
    bias_filler {
      type: "constant"
      value: 1
    }
  }
}
layer {
  name: "relu5a"
  type: "ReLU"
  bottom: "conv5a"
  top: "conv5a"
}
layer {
  name: "conv5b"
  type: "Convolution"
  bottom: "conv5a"
  top: "conv5b"
  param {
    lr_mult: 1
    decay_mult: 1
  }
  param {
    lr_mult: 2
    decay_mult: 0
  }
  convolution_param {
    num_output: 512
    pad: 1
    pad: 1
    pad: 1
    kernel_size: 3
    kernel_size: 3
    kernel_size: 3
    weight_filler {
      type: "gaussian"
      std: 0.01
    }
    bias_filler {
      type: "constant"
      value: 1
    }
  }
}
layer {
  name: "relu5b"
  type: "ReLU"
  bottom: "conv5b"
  top: "conv5b"
}
layer {
  name: "rpn_conv/3x3"
  type: "Convolution"
  bottom: "conv5b"
  top: "rpn/output"
  param {
    lr_mult: 1
    decay_mult: 1
  }
  param {
    lr_mult: 2
    decay_mult: 0
  }
  convolution_param {
    num_output: 512
    pad: 1
    pad: 1
    pad: 1
    kernel_size: 3
    kernel_size: 3
    kernel_size: 3
    stride: 1
    stride: 2
    stride: 2
    weight_filler {
      type: "gaussian"
      std: 0.01
    }
    bias_filler {
      type: "constant"
      value: 0
    }
  }
}
layer {
  name: "rpn_relu/3x3"
  type: "ReLU"
  bottom: "rpn/output"
  top: "rpn/output"
}
layer {
  name: "rpn_conv/3x3_2"
  type: "Convolution"
  bottom: "rpn/output"
  top: "rpn/output_2"
  param {
    lr_mult: 1
    decay_mult: 1
  }
  param {
    lr_mult: 2
    decay_mult: 0
  }
  convolution_param {
    num_output: 512
    pad: 1
    pad: 1
    pad: 1
    kernel_size: 3
    kernel_size: 3
    kernel_size: 3
    stride: 1
    stride: 2
    stride: 2
    weight_filler {
      type: "gaussian"
      std: 0.01
    }
    bias_filler {
      type: "constant"
      value: 0
    }
  }
}
layer {
  name: "rpn_relu/3x3_2"
  type: "ReLU"
  bottom: "rpn/output_2"
  top: "rpn/output_2"
}
layer {
  name: "rpn/output_pool"
  type: "Pooling"
  bottom: "rpn/output_2"
  top: "rpn/output_pool"
  pooling_param {
    pool: MAX
    kernel_size: 1
    kernel_size: 2
    kernel_size: 2
  }
}
layer {
  name: "rpn_cls_score"
  type: "Convolution"
  bottom: "rpn/output_pool"
  top: "rpn_cls_score"
  param {
    lr_mult: 1
    decay_mult: 1
  }
  param {
    lr_mult: 2
    decay_mult: 0
  }
  convolution_param {
    num_output: 74
    kernel_size: 1
    kernel_size: 1
    kernel_size: 1
    weight_filler {
      type: "gaussian"
      std: 0.01
    }
    bias_filler {
      type: "constant"
      value: 0
    }
  }
}
layer {
  name: "rpn_twin_pred"
  type: "Convolution"
  bottom: "rpn/output_pool"
  top: "rpn_twin_pred"
  param {
    lr_mult: 1
    decay_mult: 1
  }
  param {
    lr_mult: 2
    decay_mult: 0
  }
  convolution_param {
    num_output: 74
    kernel_size: 1
    kernel_size: 1
    kernel_size: 1
    weight_filler {
      type: "gaussian"
      std: 0.01
    }
    bias_filler {
      type: "constant"
      value: 0
    }
  }
}
layer {
  name: "rpn_cls_score_reshape"
  type: "Reshape"
  bottom: "rpn_cls_score"
  top: "rpn_cls_score_reshape"
  reshape_param {
    shape {
      dim: 0
      dim: 2
      dim: -1
      dim: 0
      dim: 0
    }
  }
}
layer {
  name: "rpn-data"
  type: "Python"
  bottom: "rpn_cls_score"
  bottom: "gt_boxes"
  bottom: "data"
  top: "rpn_labels"
  top: "rpn_twin_targets"
  top: "rpn_twin_inside_weights"
  top: "rpn_twin_outside_weights"
  python_param {
    module: "rpn.anchor_target_layer"
    layer: "AnchorTargetLayer"
    param_str: "\'feat_stride\': 8 \n\'scales\': !!python/tuple [1,1.25, 1.5,1.75, 2,2.5, 3,3.5, 4,4.5, 5,5.5, 6,7, 8,9,10,11,12,14,16,18,20,22,24,28,32,36,40,44,52,60,68,76,84,92,100]"
  }
}
layer {
  name: "rpn_loss_cls"
  type: "SoftmaxWithLoss"
  bottom: "rpn_cls_score_reshape"
  bottom: "rpn_labels"
  top: "rpn_cls_loss"
  loss_weight: 1
  propagate_down: true
  propagate_down: false
  loss_param {
    ignore_label: -1
    normalize: true
  }
}
layer {
  name: "rpn_loss_twin"
  type: "SmoothL1Loss"
  bottom: "rpn_twin_pred"
  bottom: "rpn_twin_targets"
  bottom: "rpn_twin_inside_weights"
  bottom: "rpn_twin_outside_weights"
  top: "rpn_loss_twin"
  loss_weight: 1
  smooth_l1_loss_param {
    sigma: 3
  }
}
layer {
  name: "rpn_accuarcy"
  type: "Accuracy"
  bottom: "rpn_cls_score_reshape"
  bottom: "rpn_labels"
  top: "rpn_accuarcy"
  top: "rpn_accuarcy_class"
  propagate_down: false
  propagate_down: false
  accuracy_param {
    ignore_label: -1
  }
}
layer {
  name: "rpn_cls_prob"
  type: "Softmax"
  bottom: "rpn_cls_score_reshape"
  top: "rpn_cls_prob"
}
layer {
  name: "rpn_cls_prob_reshape"
  type: "Reshape"
  bottom: "rpn_cls_prob"
  top: "rpn_cls_prob_reshape"
  reshape_param {
    shape {
      dim: 0
      dim: 74
      dim: -1
      dim: 0
      dim: 0
    }
  }
}
layer {
  name: "proposal"
  type: "Python"
  bottom: "rpn_cls_prob_reshape"
  bottom: "rpn_twin_pred"
  top: "rpn_rois"
  include {
    phase: TRAIN
  }
  python_param {
    module: "rpn.proposal_layer"
    layer: "ProposalLayer"
    param_str: "\'feat_stride\': 8 \n\'scales\': !!python/tuple [1,1.25, 1.5,1.75, 2,2.5, 3,3.5, 4,4.5, 5,5.5, 6,7, 8,9,10,11,12,14,16,18,20,22,24,28,32,36,40,44,52,60,68,76,84,92,100]"
  }
}
layer {
  name: "roi-data"
  type: "Python"
  bottom: "rpn_rois"
  bottom: "gt_boxes"
  top: "rois"
  top: "labels"
  top: "twin_targets"
  top: "twin_inside_weights"
  top: "twin_outside_weights"
  python_param {
    module: "rpn.proposal_target_layer"
    layer: "ProposalTargetLayer"
    param_str: "\'num_classes\': 201"
  }
}
layer {
  name: "roi_pool5"
  type: "ROIPooling"
  bottom: "conv5b"
  bottom: "rois"
  top: "pool5"
  roi_pooling_param {
    pooled_h: 4
    pooled_w: 4
    spatial_scale: 0.0625
    pooled_l: 1
    temporal_scale: 0.125
  }
}
layer {
  name: "fc6"
  type: "InnerProduct"
  bottom: "pool5"
  top: "fc6"
  param {
    lr_mult: 1
    decay_mult: 1
  }
  param {
    lr_mult: 2
    decay_mult: 0
  }
  inner_product_param {
    num_output: 4096
    weight_filler {
      type: "gaussian"
      std: 0.005
    }
    bias_filler {
      type: "constant"
      value: 1
    }
  }
}
layer {
  name: "relu6"
  type: "ReLU"
  bottom: "fc6"
  top: "fc6"
}
layer {
  name: "drop6"
  type: "Dropout"
  bottom: "fc6"
  top: "fc6"
  dropout_param {
    dropout_ratio: 0.5
  }
}
layer {
  name: "cls_score"
  type: "InnerProduct"
  bottom: "fc6"
  top: "cls_score"
  param {
    lr_mult: 1
    decay_mult: 1
  }
  param {
    lr_mult: 2
    decay_mult: 0
  }
  inner_product_param {
    num_output: 201
    weight_filler {
      type: "gaussian"
      std: 0.01
    }
    bias_filler {
      type: "constant"
      value: 0
    }
  }
}
layer {
  name: "twin_pred"
  type: "InnerProduct"
  bottom: "fc6"
  top: "twin_pred"
  param {
    lr_mult: 1
    decay_mult: 1
  }
  param {
    lr_mult: 2
    decay_mult: 0
  }
  inner_product_param {
    num_output: 402
    weight_filler {
      type: "gaussian"
      std: 0.001
    }
    bias_filler {
      type: "constant"
      value: 0
    }
  }
}
layer {
  name: "loss_cls"
  type: "SoftmaxWithLoss"
  bottom: "cls_score"
  bottom: "labels"
  top: "loss_cls"
  loss_weight: 1
  propagate_down: true
  propagate_down: false
}
layer {
  name: "loss_twin"
  type: "SmoothL1Loss"
  bottom: "twin_pred"
  bottom: "twin_targets"
  bottom: "twin_inside_weights"
  bottom: "twin_outside_weights"
  top: "loss_twin"
  loss_weight: 1
}
layer {
  name: "accuarcy"
  type: "Accuracy"
  bottom: "cls_score"
  bottom: "labels"
  top: "accuarcy"
  propagate_down: false
  propagate_down: false
  accuracy_param {
    ignore_label: -1
  }
}
I0417 23:34:30.273217  7100 layer_factory.hpp:77] Creating layer data
I0417 23:34:30.299587  7100 net.cpp:100] Creating Layer data
I0417 23:34:30.299615  7100 net.cpp:408] data -> data
I0417 23:34:30.299628  7100 net.cpp:408] data -> gt_boxes
setting up
has rpn
RoiDataLayer: name_to_top: {'gt_windows': 1, 'data': 0}
I0417 23:34:30.339058  7100 net.cpp:150] Setting up data
I0417 23:34:30.339084  7100 net.cpp:157] Top shape: 1 3 768 112 112 (28901376)
I0417 23:34:30.339089  7100 net.cpp:157] Top shape: 1 101 (101)
I0417 23:34:30.339092  7100 net.cpp:165] Memory required for data: 115605908
I0417 23:34:30.339099  7100 layer_factory.hpp:77] Creating layer data_data_0_split
I0417 23:34:30.339114  7100 net.cpp:100] Creating Layer data_data_0_split
I0417 23:34:30.339120  7100 net.cpp:434] data_data_0_split <- data
I0417 23:34:30.339128  7100 net.cpp:408] data_data_0_split -> data_data_0_split_0
I0417 23:34:30.339141  7100 net.cpp:408] data_data_0_split -> data_data_0_split_1
I0417 23:34:30.339179  7100 net.cpp:150] Setting up data_data_0_split
I0417 23:34:30.339186  7100 net.cpp:157] Top shape: 1 3 768 112 112 (28901376)
I0417 23:34:30.339191  7100 net.cpp:157] Top shape: 1 3 768 112 112 (28901376)
I0417 23:34:30.339195  7100 net.cpp:165] Memory required for data: 346816916
I0417 23:34:30.339198  7100 layer_factory.hpp:77] Creating layer gt_boxes_data_1_split
I0417 23:34:30.339203  7100 net.cpp:100] Creating Layer gt_boxes_data_1_split
I0417 23:34:30.339206  7100 net.cpp:434] gt_boxes_data_1_split <- gt_boxes
I0417 23:34:30.339212  7100 net.cpp:408] gt_boxes_data_1_split -> gt_boxes_data_1_split_0
I0417 23:34:30.339218  7100 net.cpp:408] gt_boxes_data_1_split -> gt_boxes_data_1_split_1
I0417 23:34:30.339242  7100 net.cpp:150] Setting up gt_boxes_data_1_split
I0417 23:34:30.339251  7100 net.cpp:157] Top shape: 1 101 (101)
I0417 23:34:30.339256  7100 net.cpp:157] Top shape: 1 101 (101)
I0417 23:34:30.339258  7100 net.cpp:165] Memory required for data: 346817724
I0417 23:34:30.339262  7100 layer_factory.hpp:77] Creating layer conv1a
I0417 23:34:30.339277  7100 net.cpp:100] Creating Layer conv1a
I0417 23:34:30.339282  7100 net.cpp:434] conv1a <- data_data_0_split_0
I0417 23:34:30.339287  7100 net.cpp:408] conv1a -> conv1a
I0417 23:34:30.627022  7100 net.cpp:150] Setting up conv1a
I0417 23:34:30.627058  7100 net.cpp:157] Top shape: 1 64 768 112 112 (616562688)
I0417 23:34:30.627061  7100 net.cpp:165] Memory required for data: 2813068476
I0417 23:34:30.627081  7100 layer_factory.hpp:77] Creating layer relu1a
I0417 23:34:30.627096  7100 net.cpp:100] Creating Layer relu1a
I0417 23:34:30.627101  7100 net.cpp:434] relu1a <- conv1a
I0417 23:34:30.627110  7100 net.cpp:395] relu1a -> conv1a (in-place)
I0417 23:34:30.628285  7100 net.cpp:150] Setting up relu1a
I0417 23:34:30.628300  7100 net.cpp:157] Top shape: 1 64 768 112 112 (616562688)
I0417 23:34:30.628304  7100 net.cpp:165] Memory required for data: 5279319228
I0417 23:34:30.628309  7100 layer_factory.hpp:77] Creating layer pool1
I0417 23:34:30.628319  7100 net.cpp:100] Creating Layer pool1
I0417 23:34:30.628324  7100 net.cpp:434] pool1 <- conv1a
I0417 23:34:30.628329  7100 net.cpp:408] pool1 -> pool1
I0417 23:34:30.628935  7100 net.cpp:150] Setting up pool1
I0417 23:34:30.628947  7100 net.cpp:157] Top shape: 1 64 768 56 56 (154140672)
I0417 23:34:30.628950  7100 net.cpp:165] Memory required for data: 5895881916
I0417 23:34:30.628954  7100 layer_factory.hpp:77] Creating layer conv2a
I0417 23:34:30.628967  7100 net.cpp:100] Creating Layer conv2a
I0417 23:34:30.628970  7100 net.cpp:434] conv2a <- pool1
I0417 23:34:30.628976  7100 net.cpp:408] conv2a -> conv2a
I0417 23:34:30.641796  7100 net.cpp:150] Setting up conv2a
I0417 23:34:30.641826  7100 net.cpp:157] Top shape: 1 128 768 56 56 (308281344)
I0417 23:34:30.641831  7100 net.cpp:165] Memory required for data: 7129007292
I0417 23:34:30.641846  7100 layer_factory.hpp:77] Creating layer relu2a
I0417 23:34:30.641856  7100 net.cpp:100] Creating Layer relu2a
I0417 23:34:30.641862  7100 net.cpp:434] relu2a <- conv2a
I0417 23:34:30.641868  7100 net.cpp:395] relu2a -> conv2a (in-place)
I0417 23:34:30.642242  7100 net.cpp:150] Setting up relu2a
I0417 23:34:30.642257  7100 net.cpp:157] Top shape: 1 128 768 56 56 (308281344)
I0417 23:34:30.642261  7100 net.cpp:165] Memory required for data: 8362132668
I0417 23:34:30.642266  7100 layer_factory.hpp:77] Creating layer pool2
I0417 23:34:30.642277  7100 net.cpp:100] Creating Layer pool2
I0417 23:34:30.642282  7100 net.cpp:434] pool2 <- conv2a
I0417 23:34:30.642288  7100 net.cpp:408] pool2 -> pool2
I0417 23:34:30.642479  7100 net.cpp:150] Setting up pool2
I0417 23:34:30.642491  7100 net.cpp:157] Top shape: 1 128 384 28 28 (38535168)
I0417 23:34:30.642495  7100 net.cpp:165] Memory required for data: 8516273340
I0417 23:34:30.642499  7100 layer_factory.hpp:77] Creating layer conv3a
I0417 23:34:30.642511  7100 net.cpp:100] Creating Layer conv3a
I0417 23:34:30.642515  7100 net.cpp:434] conv3a <- pool2
I0417 23:34:30.642522  7100 net.cpp:408] conv3a -> conv3a
I0417 23:34:30.668815  7100 net.cpp:150] Setting up conv3a
I0417 23:34:30.668840  7100 net.cpp:157] Top shape: 1 256 384 28 28 (77070336)
I0417 23:34:30.668844  7100 net.cpp:165] Memory required for data: 8824554684
I0417 23:34:30.668857  7100 layer_factory.hpp:77] Creating layer relu3a
I0417 23:34:30.668867  7100 net.cpp:100] Creating Layer relu3a
I0417 23:34:30.668872  7100 net.cpp:434] relu3a <- conv3a
I0417 23:34:30.668879  7100 net.cpp:395] relu3a -> conv3a (in-place)
I0417 23:34:30.669224  7100 net.cpp:150] Setting up relu3a
I0417 23:34:30.669237  7100 net.cpp:157] Top shape: 1 256 384 28 28 (77070336)
I0417 23:34:30.669240  7100 net.cpp:165] Memory required for data: 9132836028
I0417 23:34:30.669245  7100 layer_factory.hpp:77] Creating layer conv3b
I0417 23:34:30.669257  7100 net.cpp:100] Creating Layer conv3b
I0417 23:34:30.669265  7100 net.cpp:434] conv3b <- conv3a
I0417 23:34:30.669270  7100 net.cpp:408] conv3b -> conv3b
I0417 23:34:30.725241  7100 net.cpp:150] Setting up conv3b
I0417 23:34:30.725270  7100 net.cpp:157] Top shape: 1 256 384 28 28 (77070336)
I0417 23:34:30.725275  7100 net.cpp:165] Memory required for data: 9441117372
I0417 23:34:30.725283  7100 layer_factory.hpp:77] Creating layer relu3b
I0417 23:34:30.725294  7100 net.cpp:100] Creating Layer relu3b
I0417 23:34:30.725301  7100 net.cpp:434] relu3b <- conv3b
I0417 23:34:30.725308  7100 net.cpp:395] relu3b -> conv3b (in-place)
I0417 23:34:30.725654  7100 net.cpp:150] Setting up relu3b
I0417 23:34:30.725668  7100 net.cpp:157] Top shape: 1 256 384 28 28 (77070336)
I0417 23:34:30.725672  7100 net.cpp:165] Memory required for data: 9749398716
I0417 23:34:30.725675  7100 layer_factory.hpp:77] Creating layer pool3
I0417 23:34:30.725684  7100 net.cpp:100] Creating Layer pool3
I0417 23:34:30.725687  7100 net.cpp:434] pool3 <- conv3b
I0417 23:34:30.725695  7100 net.cpp:408] pool3 -> pool3
I0417 23:34:30.727182  7100 net.cpp:150] Setting up pool3
I0417 23:34:30.727195  7100 net.cpp:157] Top shape: 1 256 192 14 14 (9633792)
I0417 23:34:30.727200  7100 net.cpp:165] Memory required for data: 9787933884
I0417 23:34:30.727203  7100 layer_factory.hpp:77] Creating layer conv4a
I0417 23:34:30.727218  7100 net.cpp:100] Creating Layer conv4a
I0417 23:34:30.727226  7100 net.cpp:434] conv4a <- pool3
I0417 23:34:30.727231  7100 net.cpp:408] conv4a -> conv4a
I0417 23:34:30.827832  7100 net.cpp:150] Setting up conv4a
I0417 23:34:30.827862  7100 net.cpp:157] Top shape: 1 512 192 14 14 (19267584)
I0417 23:34:30.827865  7100 net.cpp:165] Memory required for data: 9865004220
I0417 23:34:30.827879  7100 layer_factory.hpp:77] Creating layer relu4a
I0417 23:34:30.827888  7100 net.cpp:100] Creating Layer relu4a
I0417 23:34:30.827893  7100 net.cpp:434] relu4a <- conv4a
I0417 23:34:30.827901  7100 net.cpp:395] relu4a -> conv4a (in-place)
I0417 23:34:30.828254  7100 net.cpp:150] Setting up relu4a
I0417 23:34:30.828269  7100 net.cpp:157] Top shape: 1 512 192 14 14 (19267584)
I0417 23:34:30.828272  7100 net.cpp:165] Memory required for data: 9942074556
I0417 23:34:30.828276  7100 layer_factory.hpp:77] Creating layer conv4b
I0417 23:34:30.828290  7100 net.cpp:100] Creating Layer conv4b
I0417 23:34:30.828295  7100 net.cpp:434] conv4b <- conv4a
I0417 23:34:30.828302  7100 net.cpp:408] conv4b -> conv4b
I0417 23:34:31.024865  7100 net.cpp:150] Setting up conv4b
I0417 23:34:31.024910  7100 net.cpp:157] Top shape: 1 512 192 14 14 (19267584)
I0417 23:34:31.024921  7100 net.cpp:165] Memory required for data: 10019144892
I0417 23:34:31.024948  7100 layer_factory.hpp:77] Creating layer relu4b
I0417 23:34:31.024971  7100 net.cpp:100] Creating Layer relu4b
I0417 23:34:31.024991  7100 net.cpp:434] relu4b <- conv4b
I0417 23:34:31.025004  7100 net.cpp:395] relu4b -> conv4b (in-place)
I0417 23:34:31.025195  7100 net.cpp:150] Setting up relu4b
I0417 23:34:31.025207  7100 net.cpp:157] Top shape: 1 512 192 14 14 (19267584)
I0417 23:34:31.025213  7100 net.cpp:165] Memory required for data: 10096215228
I0417 23:34:31.025216  7100 layer_factory.hpp:77] Creating layer pool4
I0417 23:34:31.025225  7100 net.cpp:100] Creating Layer pool4
I0417 23:34:31.025228  7100 net.cpp:434] pool4 <- conv4b
I0417 23:34:31.025235  7100 net.cpp:408] pool4 -> pool4
I0417 23:34:31.026739  7100 net.cpp:150] Setting up pool4
I0417 23:34:31.026757  7100 net.cpp:157] Top shape: 1 512 96 7 7 (2408448)
I0417 23:34:31.026772  7100 net.cpp:165] Memory required for data: 10105849020
I0417 23:34:31.026778  7100 layer_factory.hpp:77] Creating layer conv5a
I0417 23:34:31.026790  7100 net.cpp:100] Creating Layer conv5a
I0417 23:34:31.026795  7100 net.cpp:434] conv5a <- pool4
I0417 23:34:31.026803  7100 net.cpp:408] conv5a -> conv5a
I0417 23:34:31.222837  7100 net.cpp:150] Setting up conv5a
I0417 23:34:31.222864  7100 net.cpp:157] Top shape: 1 512 96 7 7 (2408448)
I0417 23:34:31.222868  7100 net.cpp:165] Memory required for data: 10115482812
I0417 23:34:31.222878  7100 layer_factory.hpp:77] Creating layer relu5a
I0417 23:34:31.222888  7100 net.cpp:100] Creating Layer relu5a
I0417 23:34:31.222893  7100 net.cpp:434] relu5a <- conv5a
I0417 23:34:31.222900  7100 net.cpp:395] relu5a -> conv5a (in-place)
I0417 23:34:31.223471  7100 net.cpp:150] Setting up relu5a
I0417 23:34:31.223485  7100 net.cpp:157] Top shape: 1 512 96 7 7 (2408448)
I0417 23:34:31.223490  7100 net.cpp:165] Memory required for data: 10125116604
I0417 23:34:31.223495  7100 layer_factory.hpp:77] Creating layer conv5b
I0417 23:34:31.223506  7100 net.cpp:100] Creating Layer conv5b
I0417 23:34:31.223510  7100 net.cpp:434] conv5b <- conv5a
I0417 23:34:31.223517  7100 net.cpp:408] conv5b -> conv5b
I0417 23:34:31.419422  7100 net.cpp:150] Setting up conv5b
I0417 23:34:31.419450  7100 net.cpp:157] Top shape: 1 512 96 7 7 (2408448)
I0417 23:34:31.419454  7100 net.cpp:165] Memory required for data: 10134750396
I0417 23:34:31.419464  7100 layer_factory.hpp:77] Creating layer relu5b
I0417 23:34:31.419476  7100 net.cpp:100] Creating Layer relu5b
I0417 23:34:31.419482  7100 net.cpp:434] relu5b <- conv5b
I0417 23:34:31.419488  7100 net.cpp:395] relu5b -> conv5b (in-place)
I0417 23:34:31.419646  7100 net.cpp:150] Setting up relu5b
I0417 23:34:31.419656  7100 net.cpp:157] Top shape: 1 512 96 7 7 (2408448)
I0417 23:34:31.419661  7100 net.cpp:165] Memory required for data: 10144384188
I0417 23:34:31.419664  7100 layer_factory.hpp:77] Creating layer conv5b_relu5b_0_split
I0417 23:34:31.419670  7100 net.cpp:100] Creating Layer conv5b_relu5b_0_split
I0417 23:34:31.419674  7100 net.cpp:434] conv5b_relu5b_0_split <- conv5b
I0417 23:34:31.419680  7100 net.cpp:408] conv5b_relu5b_0_split -> conv5b_relu5b_0_split_0
I0417 23:34:31.419687  7100 net.cpp:408] conv5b_relu5b_0_split -> conv5b_relu5b_0_split_1
I0417 23:34:31.419730  7100 net.cpp:150] Setting up conv5b_relu5b_0_split
I0417 23:34:31.419739  7100 net.cpp:157] Top shape: 1 512 96 7 7 (2408448)
I0417 23:34:31.419744  7100 net.cpp:157] Top shape: 1 512 96 7 7 (2408448)
I0417 23:34:31.419747  7100 net.cpp:165] Memory required for data: 10163651772
I0417 23:34:31.419752  7100 layer_factory.hpp:77] Creating layer rpn_conv/3x3
I0417 23:34:31.419764  7100 net.cpp:100] Creating Layer rpn_conv/3x3
I0417 23:34:31.419771  7100 net.cpp:434] rpn_conv/3x3 <- conv5b_relu5b_0_split_0
I0417 23:34:31.419777  7100 net.cpp:408] rpn_conv/3x3 -> rpn/output
I0417 23:34:31.610903  7100 net.cpp:150] Setting up rpn_conv/3x3
I0417 23:34:31.610926  7100 net.cpp:157] Top shape: 1 512 96 4 4 (786432)
I0417 23:34:31.610931  7100 net.cpp:165] Memory required for data: 10166797500
I0417 23:34:31.610944  7100 layer_factory.hpp:77] Creating layer rpn_relu/3x3
I0417 23:34:31.610955  7100 net.cpp:100] Creating Layer rpn_relu/3x3
I0417 23:34:31.610960  7100 net.cpp:434] rpn_relu/3x3 <- rpn/output
I0417 23:34:31.610966  7100 net.cpp:395] rpn_relu/3x3 -> rpn/output (in-place)
I0417 23:34:31.611436  7100 net.cpp:150] Setting up rpn_relu/3x3
I0417 23:34:31.611449  7100 net.cpp:157] Top shape: 1 512 96 4 4 (786432)
I0417 23:34:31.611454  7100 net.cpp:165] Memory required for data: 10169943228
I0417 23:34:31.611457  7100 layer_factory.hpp:77] Creating layer rpn_conv/3x3_2
I0417 23:34:31.611469  7100 net.cpp:100] Creating Layer rpn_conv/3x3_2
I0417 23:34:31.611472  7100 net.cpp:434] rpn_conv/3x3_2 <- rpn/output
I0417 23:34:31.611479  7100 net.cpp:408] rpn_conv/3x3_2 -> rpn/output_2
I0417 23:34:31.799697  7100 net.cpp:150] Setting up rpn_conv/3x3_2
I0417 23:34:31.799721  7100 net.cpp:157] Top shape: 1 512 96 2 2 (196608)
I0417 23:34:31.799726  7100 net.cpp:165] Memory required for data: 10170729660
I0417 23:34:31.799734  7100 layer_factory.hpp:77] Creating layer rpn_relu/3x3_2
I0417 23:34:31.799743  7100 net.cpp:100] Creating Layer rpn_relu/3x3_2
I0417 23:34:31.799748  7100 net.cpp:434] rpn_relu/3x3_2 <- rpn/output_2
I0417 23:34:31.799756  7100 net.cpp:395] rpn_relu/3x3_2 -> rpn/output_2 (in-place)
I0417 23:34:31.800086  7100 net.cpp:150] Setting up rpn_relu/3x3_2
I0417 23:34:31.800098  7100 net.cpp:157] Top shape: 1 512 96 2 2 (196608)
I0417 23:34:31.800103  7100 net.cpp:165] Memory required for data: 10171516092
I0417 23:34:31.800107  7100 layer_factory.hpp:77] Creating layer rpn/output_pool
I0417 23:34:31.800115  7100 net.cpp:100] Creating Layer rpn/output_pool
I0417 23:34:31.800118  7100 net.cpp:434] rpn/output_pool <- rpn/output_2
I0417 23:34:31.800123  7100 net.cpp:408] rpn/output_pool -> rpn/output_pool
I0417 23:34:31.800298  7100 net.cpp:150] Setting up rpn/output_pool
I0417 23:34:31.800308  7100 net.cpp:157] Top shape: 1 512 96 1 1 (49152)
I0417 23:34:31.800312  7100 net.cpp:165] Memory required for data: 10171712700
I0417 23:34:31.800317  7100 layer_factory.hpp:77] Creating layer rpn/output_pool_rpn/output_pool_0_split
I0417 23:34:31.800321  7100 net.cpp:100] Creating Layer rpn/output_pool_rpn/output_pool_0_split
I0417 23:34:31.800324  7100 net.cpp:434] rpn/output_pool_rpn/output_pool_0_split <- rpn/output_pool
I0417 23:34:31.800329  7100 net.cpp:408] rpn/output_pool_rpn/output_pool_0_split -> rpn/output_pool_rpn/output_pool_0_split_0
I0417 23:34:31.800334  7100 net.cpp:408] rpn/output_pool_rpn/output_pool_0_split -> rpn/output_pool_rpn/output_pool_0_split_1
I0417 23:34:31.800366  7100 net.cpp:150] Setting up rpn/output_pool_rpn/output_pool_0_split
I0417 23:34:31.800374  7100 net.cpp:157] Top shape: 1 512 96 1 1 (49152)
I0417 23:34:31.800377  7100 net.cpp:157] Top shape: 1 512 96 1 1 (49152)
I0417 23:34:31.800380  7100 net.cpp:165] Memory required for data: 10172105916
I0417 23:34:31.800384  7100 layer_factory.hpp:77] Creating layer rpn_cls_score
I0417 23:34:31.800393  7100 net.cpp:100] Creating Layer rpn_cls_score
I0417 23:34:31.800400  7100 net.cpp:434] rpn_cls_score <- rpn/output_pool_rpn/output_pool_0_split_0
I0417 23:34:31.800406  7100 net.cpp:408] rpn_cls_score -> rpn_cls_score
I0417 23:34:31.802505  7100 net.cpp:150] Setting up rpn_cls_score
I0417 23:34:31.802517  7100 net.cpp:157] Top shape: 1 74 96 1 1 (7104)
I0417 23:34:31.802520  7100 net.cpp:165] Memory required for data: 10172134332
I0417 23:34:31.802526  7100 layer_factory.hpp:77] Creating layer rpn_cls_score_rpn_cls_score_0_split
I0417 23:34:31.802533  7100 net.cpp:100] Creating Layer rpn_cls_score_rpn_cls_score_0_split
I0417 23:34:31.802537  7100 net.cpp:434] rpn_cls_score_rpn_cls_score_0_split <- rpn_cls_score
I0417 23:34:31.802543  7100 net.cpp:408] rpn_cls_score_rpn_cls_score_0_split -> rpn_cls_score_rpn_cls_score_0_split_0
I0417 23:34:31.802549  7100 net.cpp:408] rpn_cls_score_rpn_cls_score_0_split -> rpn_cls_score_rpn_cls_score_0_split_1
I0417 23:34:31.802587  7100 net.cpp:150] Setting up rpn_cls_score_rpn_cls_score_0_split
I0417 23:34:31.802595  7100 net.cpp:157] Top shape: 1 74 96 1 1 (7104)
I0417 23:34:31.802599  7100 net.cpp:157] Top shape: 1 74 96 1 1 (7104)
I0417 23:34:31.802601  7100 net.cpp:165] Memory required for data: 10172191164
I0417 23:34:31.802605  7100 layer_factory.hpp:77] Creating layer rpn_twin_pred
I0417 23:34:31.802619  7100 net.cpp:100] Creating Layer rpn_twin_pred
I0417 23:34:31.802625  7100 net.cpp:434] rpn_twin_pred <- rpn/output_pool_rpn/output_pool_0_split_1
I0417 23:34:31.802631  7100 net.cpp:408] rpn_twin_pred -> rpn_twin_pred
I0417 23:34:31.804597  7100 net.cpp:150] Setting up rpn_twin_pred
I0417 23:34:31.804611  7100 net.cpp:157] Top shape: 1 74 96 1 1 (7104)
I0417 23:34:31.804615  7100 net.cpp:165] Memory required for data: 10172219580
I0417 23:34:31.804621  7100 layer_factory.hpp:77] Creating layer rpn_twin_pred_rpn_twin_pred_0_split
I0417 23:34:31.804626  7100 net.cpp:100] Creating Layer rpn_twin_pred_rpn_twin_pred_0_split
I0417 23:34:31.804630  7100 net.cpp:434] rpn_twin_pred_rpn_twin_pred_0_split <- rpn_twin_pred
I0417 23:34:31.804636  7100 net.cpp:408] rpn_twin_pred_rpn_twin_pred_0_split -> rpn_twin_pred_rpn_twin_pred_0_split_0
I0417 23:34:31.804642  7100 net.cpp:408] rpn_twin_pred_rpn_twin_pred_0_split -> rpn_twin_pred_rpn_twin_pred_0_split_1
I0417 23:34:31.804677  7100 net.cpp:150] Setting up rpn_twin_pred_rpn_twin_pred_0_split
I0417 23:34:31.804683  7100 net.cpp:157] Top shape: 1 74 96 1 1 (7104)
I0417 23:34:31.804687  7100 net.cpp:157] Top shape: 1 74 96 1 1 (7104)
I0417 23:34:31.804692  7100 net.cpp:165] Memory required for data: 10172276412
I0417 23:34:31.804694  7100 layer_factory.hpp:77] Creating layer rpn_cls_score_reshape
I0417 23:34:31.804708  7100 net.cpp:100] Creating Layer rpn_cls_score_reshape
I0417 23:34:31.804714  7100 net.cpp:434] rpn_cls_score_reshape <- rpn_cls_score_rpn_cls_score_0_split_0
I0417 23:34:31.804723  7100 net.cpp:408] rpn_cls_score_reshape -> rpn_cls_score_reshape
I0417 23:34:31.804764  7100 net.cpp:150] Setting up rpn_cls_score_reshape
I0417 23:34:31.804775  7100 net.cpp:157] Top shape: 1 2 3552 1 1 (7104)
I0417 23:34:31.804780  7100 net.cpp:165] Memory required for data: 10172304828
I0417 23:34:31.804785  7100 layer_factory.hpp:77] Creating layer rpn_cls_score_reshape_rpn_cls_score_reshape_0_split
I0417 23:34:31.804796  7100 net.cpp:100] Creating Layer rpn_cls_score_reshape_rpn_cls_score_reshape_0_split
I0417 23:34:31.804802  7100 net.cpp:434] rpn_cls_score_reshape_rpn_cls_score_reshape_0_split <- rpn_cls_score_reshape
I0417 23:34:31.804810  7100 net.cpp:408] rpn_cls_score_reshape_rpn_cls_score_reshape_0_split -> rpn_cls_score_reshape_rpn_cls_score_reshape_0_split_0
I0417 23:34:31.804819  7100 net.cpp:408] rpn_cls_score_reshape_rpn_cls_score_reshape_0_split -> rpn_cls_score_reshape_rpn_cls_score_reshape_0_split_1
I0417 23:34:31.804824  7100 net.cpp:408] rpn_cls_score_reshape_rpn_cls_score_reshape_0_split -> rpn_cls_score_reshape_rpn_cls_score_reshape_0_split_2
I0417 23:34:31.804867  7100 net.cpp:150] Setting up rpn_cls_score_reshape_rpn_cls_score_reshape_0_split
I0417 23:34:31.804875  7100 net.cpp:157] Top shape: 1 2 3552 1 1 (7104)
I0417 23:34:31.804879  7100 net.cpp:157] Top shape: 1 2 3552 1 1 (7104)
I0417 23:34:31.804883  7100 net.cpp:157] Top shape: 1 2 3552 1 1 (7104)
I0417 23:34:31.804885  7100 net.cpp:165] Memory required for data: 10172390076
I0417 23:34:31.804889  7100 layer_factory.hpp:77] Creating layer rpn-data
I0417 23:34:31.805286  7100 net.cpp:100] Creating Layer rpn-data
I0417 23:34:31.805299  7100 net.cpp:434] rpn-data <- rpn_cls_score_rpn_cls_score_0_split_1
I0417 23:34:31.805305  7100 net.cpp:434] rpn-data <- gt_boxes_data_1_split_0
…
