…
stepsize: 350000
snapshot: 0
snapshot_prefix: "./experiments/activitynet/snapshot/activitynet"
average_loss: 100
iter_size: 1
I0416 10:50:49.291230 20841 solver.cpp:81] Creating training net from train_net file: ./experiments/activitynet/train.prototxt
I0416 10:50:49.291762 20841 net.cpp:58] Initializing net from parameters: 
name: "activitynet"
state {
  phase: TRAIN
}
layer {
  name: "data"
  type: "Python"
  top: "data"
  top: "gt_boxes"
  python_param {
    module: "roi_data_layer.layer"
    layer: "RoIDataLayer"
    param_str: "\'num_classes\': 100"
  }
}
layer {
  name: "conv1a"
  type: "Convolution"
  bottom: "data"
  top: "conv1a"
  param {
    lr_mult: 0
    decay_mult: 0
  }
  param {
    lr_mult: 0
    decay_mult: 0
  }
  convolution_param {
    num_output: 64
    pad: 1
    pad: 1
    pad: 1
    kernel_size: 3
    kernel_size: 3
    kernel_size: 3
    weight_filler {
      type: "gaussian"
      std: 0.01
    }
    bias_filler {
      type: "constant"
      value: 0
    }
  }
}
layer {
  name: "relu1a"
  type: "ReLU"
  bottom: "conv1a"
  top: "conv1a"
}
layer {
  name: "pool1"
  type: "Pooling"
  bottom: "conv1a"
  top: "pool1"
  pooling_param {
    pool: MAX
    kernel_size: 1
    kernel_size: 2
    kernel_size: 2
    stride: 1
    stride: 2
    stride: 2
  }
}
layer {
  name: "conv2a"
  type: "Convolution"
  bottom: "pool1"
  top: "conv2a"
  param {
    lr_mult: 0
    decay_mult: 0
  }
  param {
    lr_mult: 0
    decay_mult: 0
  }
  convolution_param {
    num_output: 128
    pad: 1
    pad: 1
    pad: 1
    kernel_size: 3
    kernel_size: 3
    kernel_size: 3
    weight_filler {
      type: "gaussian"
      std: 0.01
    }
    bias_filler {
      type: "constant"
      value: 1
    }
  }
}
layer {
  name: "relu2a"
  type: "ReLU"
  bottom: "conv2a"
  top: "conv2a"
}
layer {
  name: "pool2"
  type: "Pooling"
  bottom: "conv2a"
  top: "pool2"
  pooling_param {
    pool: MAX
    kernel_size: 2
    kernel_size: 2
    kernel_size: 2
    stride: 2
    stride: 2
    stride: 2
  }
}
layer {
  name: "conv3a"
  type: "Convolution"
  bottom: "pool2"
  top: "conv3a"
  param {
    lr_mult: 1
    decay_mult: 1
  }
  param {
    lr_mult: 2
    decay_mult: 0
  }
  convolution_param {
    num_output: 256
    pad: 1
    pad: 1
    pad: 1
    kernel_size: 3
    kernel_size: 3
    kernel_size: 3
    weight_filler {
      type: "gaussian"
      std: 0.01
    }
    bias_filler {
      type: "constant"
      value: 1
    }
  }
}
layer {
  name: "relu3a"
  type: "ReLU"
  bottom: "conv3a"
  top: "conv3a"
}
layer {
  name: "conv3b"
  type: "Convolution"
  bottom: "conv3a"
  top: "conv3b"
  param {
    lr_mult: 1
    decay_mult: 1
  }
  param {
    lr_mult: 2
    decay_mult: 0
  }
  convolution_param {
    num_output: 256
    pad: 1
    pad: 1
    pad: 1
    kernel_size: 3
    kernel_size: 3
    kernel_size: 3
    weight_filler {
      type: "gaussian"
      std: 0.01
    }
    bias_filler {
      type: "constant"
      value: 1
    }
  }
}
layer {
  name: "relu3b"
  type: "ReLU"
  bottom: "conv3b"
  top: "conv3b"
}
layer {
  name: "pool3"
  type: "Pooling"
  bottom: "conv3b"
  top: "pool3"
  pooling_param {
    pool: MAX
    kernel_size: 2
    kernel_size: 2
    kernel_size: 2
    stride: 2
    stride: 2
    stride: 2
  }
}
layer {
  name: "conv4a"
  type: "Convolution"
  bottom: "pool3"
  top: "conv4a"
  param {
    lr_mult: 1
    decay_mult: 1
  }
  param {
    lr_mult: 2
    decay_mult: 0
  }
  convolution_param {
    num_output: 512
    pad: 1
    pad: 1
    pad: 1
    kernel_size: 3
    kernel_size: 3
    kernel_size: 3
    weight_filler {
      type: "gaussian"
      std: 0.01
    }
    bias_filler {
      type: "constant"
      value: 1
    }
  }
}
layer {
  name: "relu4a"
  type: "ReLU"
  bottom: "conv4a"
  top: "conv4a"
}
layer {
  name: "conv4b"
  type: "Convolution"
  bottom: "conv4a"
  top: "conv4b"
  param {
    lr_mult: 1
    decay_mult: 1
  }
  param {
    lr_mult: 2
    decay_mult: 0
  }
  convolution_param {
    num_output: 512
    pad: 1
    pad: 1
    pad: 1
    kernel_size: 3
    kernel_size: 3
    kernel_size: 3
    weight_filler {
      type: "gaussian"
      std: 0.01
    }
    bias_filler {
      type: "constant"
      value: 1
    }
  }
}
layer {
  name: "relu4b"
  type: "ReLU"
  bottom: "conv4b"
  top: "conv4b"
}
layer {
  name: "pool4"
  type: "Pooling"
  bottom: "conv4b"
  top: "pool4"
  pooling_param {
    pool: MAX
    kernel_size: 2
    kernel_size: 2
    kernel_size: 2
    stride: 2
    stride: 2
    stride: 2
  }
}
layer {
  name: "conv5a"
  type: "Convolution"
  bottom: "pool4"
  top: "conv5a"
  param {
    lr_mult: 1
    decay_mult: 1
  }
  param {
    lr_mult: 2
    decay_mult: 0
  }
  convolution_param {
    num_output: 512
    pad: 1
    pad: 1
    pad: 1
    kernel_size: 3
    kernel_size: 3
    kernel_size: 3
    weight_filler {
      type: "gaussian"
      std: 0.01
    }
    bias_filler {
      type: "constant"
      value: 1
    }
  }
}
layer {
  name: "relu5a"
  type: "ReLU"
  bottom: "conv5a"
  top: "conv5a"
}
layer {
  name: "conv5b"
  type: "Convolution"
  bottom: "conv5a"
  top: "conv5b"
  param {
    lr_mult: 1
    decay_mult: 1
  }
  param {
    lr_mult: 2
    decay_mult: 0
  }
  convolution_param {
    num_output: 512
    pad: 1
    pad: 1
    pad: 1
    kernel_size: 3
    kernel_size: 3
    kernel_size: 3
    weight_filler {
      type: "gaussian"
      std: 0.01
    }
    bias_filler {
      type: "constant"
      value: 1
    }
  }
}
layer {
  name: "relu5b"
  type: "ReLU"
  bottom: "conv5b"
  top: "conv5b"
}
layer {
  name: "rpn_conv/3x3"
  type: "Convolution"
  bottom: "conv5b"
  top: "rpn/output"
  param {
    lr_mult: 1
    decay_mult: 1
  }
  param {
    lr_mult: 2
    decay_mult: 0
  }
  convolution_param {
    num_output: 512
    pad: 1
    pad: 1
    pad: 1
    kernel_size: 3
    kernel_size: 3
    kernel_size: 3
    stride: 1
    stride: 2
    stride: 2
    weight_filler {
      type: "gaussian"
      std: 0.01
    }
    bias_filler {
      type: "constant"
      value: 0
    }
  }
}
layer {
  name: "rpn_relu/3x3"
  type: "ReLU"
  bottom: "rpn/output"
  top: "rpn/output"
}
layer {
  name: "rpn_conv/3x3_2"
  type: "Convolution"
  bottom: "rpn/output"
  top: "rpn/output_2"
  param {
    lr_mult: 1
    decay_mult: 1
  }
  param {
    lr_mult: 2
    decay_mult: 0
  }
  convolution_param {
    num_output: 512
    pad: 1
    pad: 1
    pad: 1
    kernel_size: 3
    kernel_size: 3
    kernel_size: 3
    stride: 1
    stride: 2
    stride: 2
    weight_filler {
      type: "gaussian"
      std: 0.01
    }
    bias_filler {
      type: "constant"
      value: 0
    }
  }
}
layer {
  name: "rpn_relu/3x3_2"
  type: "ReLU"
  bottom: "rpn/output_2"
  top: "rpn/output_2"
}
layer {
  name: "rpn/output_pool"
  type: "Pooling"
  bottom: "rpn/output_2"
  top: "rpn/output_pool"
  pooling_param {
    pool: MAX
    kernel_size: 1
    kernel_size: 2
    kernel_size: 2
  }
}
layer {
  name: "rpn_cls_score"
  type: "Convolution"
  bottom: "rpn/output_pool"
  top: "rpn_cls_score"
  param {
    lr_mult: 1
    decay_mult: 1
  }
  param {
    lr_mult: 2
    decay_mult: 0
  }
  convolution_param {
    num_output: 74
    kernel_size: 1
    kernel_size: 1
    kernel_size: 1
    weight_filler {
      type: "gaussian"
      std: 0.01
    }
    bias_filler {
      type: "constant"
      value: 0
    }
  }
}
layer {
  name: "rpn_twin_pred"
  type: "Convolution"
  bottom: "rpn/output_pool"
  top: "rpn_twin_pred"
  param {
    lr_mult: 1
    decay_mult: 1
  }
  param {
    lr_mult: 2
    decay_mult: 0
  }
  convolution_param {
    num_output: 74
    kernel_size: 1
    kernel_size: 1
    kernel_size: 1
    weight_filler {
      type: "gaussian"
      std: 0.01
    }
    bias_filler {
      type: "constant"
      value: 0
    }
  }
}
layer {
  name: "rpn_cls_score_reshape"
  type: "Reshape"
  bottom: "rpn_cls_score"
  top: "rpn_cls_score_reshape"
  reshape_param {
    shape {
      dim: 0
      dim: 2
      dim: -1
      dim: 0
      dim: 0
    }
  }
}
layer {
  name: "rpn-data"
  type: "Python"
  bottom: "rpn_cls_score"
  bottom: "gt_boxes"
  bottom: "data"
  top: "rpn_labels"
  top: "rpn_twin_targets"
  top: "rpn_twin_inside_weights"
  top: "rpn_twin_outside_weights"
  python_param {
    module: "rpn.anchor_target_layer"
    layer: "AnchorTargetLayer"
    param_str: "\'feat_stride\': 8 \n\'scales\': !!python/tuple [1,1.25, 1.5,1.75, 2,2.5, 3,3.5, 4,4.5, 5,5.5, 6,7, 8,9,10,11,12,14,16,18,20,22,24,28,32,36,40,44,52,60,68,76,84,92,100]"
  }
}
layer {
  name: "rpn_loss_cls"
  type: "SoftmaxWithLoss"
  bottom: "rpn_cls_score_reshape"
  bottom: "rpn_labels"
  top: "rpn_cls_loss"
  loss_weight: 1
  propagate_down: true
  propagate_down: false
  loss_param {
    ignore_label: -1
    normalize: true
  }
}
layer {
  name: "rpn_loss_twin"
  type: "SmoothL1Loss"
  bottom: "rpn_twin_pred"
  bottom: "rpn_twin_targets"
  bottom: "rpn_twin_inside_weights"
  bottom: "rpn_twin_outside_weights"
  top: "rpn_loss_twin"
  loss_weight: 1
  smooth_l1_loss_param {
    sigma: 3
  }
}
layer {
  name: "rpn_accuarcy"
  type: "Accuracy"
  bottom: "rpn_cls_score_reshape"
  bottom: "rpn_labels"
  top: "rpn_accuarcy"
  top: "rpn_accuarcy_class"
  propagate_down: false
  propagate_down: false
  accuracy_param {
    ignore_label: -1
  }
}
layer {
  name: "rpn_cls_prob"
  type: "Softmax"
  bottom: "rpn_cls_score_reshape"
  top: "rpn_cls_prob"
}
layer {
  name: "rpn_cls_prob_reshape"
  type: "Reshape"
  bottom: "rpn_cls_prob"
  top: "rpn_cls_prob_reshape"
  reshape_param {
    shape {
      dim: 0
      dim: 74
      dim: -1
      dim: 0
      dim: 0
    }
  }
}
layer {
  name: "proposal"
  type: "Python"
  bottom: "rpn_cls_prob_reshape"
  bottom: "rpn_twin_pred"
  top: "rpn_rois"
  include {
    phase: TRAIN
  }
  python_param {
    module: "rpn.proposal_layer"
    layer: "ProposalLayer"
    param_str: "\'feat_stride\': 8 \n\'scales\': !!python/tuple [1,1.25, 1.5,1.75, 2,2.5, 3,3.5, 4,4.5, 5,5.5, 6,7, 8,9,10,11,12,14,16,18,20,22,24,28,32,36,40,44,52,60,68,76,84,92,100]"
  }
}
layer {
  name: "roi-data"
  type: "Python"
  bottom: "rpn_rois"
  bottom: "gt_boxes"
  top: "rois"
  top: "labels"
  top: "twin_targets"
  top: "twin_inside_weights"
  top: "twin_outside_weights"
  python_param {
    module: "rpn.proposal_target_layer"
    layer: "ProposalTargetLayer"
    param_str: "\'num_classes\': 201"
  }
}
layer {
  name: "roi_pool5"
  type: "ROIPooling"
  bottom: "conv5b"
  bottom: "rois"
  top: "pool5"
  roi_pooling_param {
    pooled_h: 4
    pooled_w: 4
    spatial_scale: 0.0625
    pooled_l: 1
    temporal_scale: 0.125
  }
}
layer {
  name: "fc6"
  type: "InnerProduct"
  bottom: "pool5"
  top: "fc6"
  param {
    lr_mult: 1
    decay_mult: 1
  }
  param {
    lr_mult: 2
    decay_mult: 0
  }
  inner_product_param {
    num_output: 4096
    weight_filler {
      type: "gaussian"
      std: 0.005
    }
    bias_filler {
      type: "constant"
      value: 1
    }
  }
}
layer {
  name: "relu6"
  type: "ReLU"
  bottom: "fc6"
  top: "fc6"
}
layer {
  name: "drop6"
  type: "Dropout"
  bottom: "fc6"
  top: "fc6"
  dropout_param {
    dropout_ratio: 0.5
  }
}
layer {
  name: "cls_score"
  type: "InnerProduct"
  bottom: "fc6"
  top: "cls_score"
  param {
    lr_mult: 1
    decay_mult: 1
  }
  param {
    lr_mult: 2
    decay_mult: 0
  }
  inner_product_param {
    num_output: 201
    weight_filler {
      type: "gaussian"
      std: 0.01
    }
    bias_filler {
      type: "constant"
      value: 0
    }
  }
}
layer {
  name: "twin_pred"
  type: "InnerProduct"
  bottom: "fc6"
  top: "twin_pred"
  param {
    lr_mult: 1
    decay_mult: 1
  }
  param {
    lr_mult: 2
    decay_mult: 0
  }
  inner_product_param {
    num_output: 402
    weight_filler {
      type: "gaussian"
      std: 0.001
    }
    bias_filler {
      type: "constant"
      value: 0
    }
  }
}
layer {
  name: "loss_cls"
  type: "SoftmaxWithLoss"
  bottom: "cls_score"
  bottom: "labels"
  top: "loss_cls"
  loss_weight: 1
  propagate_down: true
  propagate_down: false
}
layer {
  name: "loss_twin"
  type: "SmoothL1Loss"
  bottom: "twin_pred"
  bottom: "twin_targets"
  bottom: "twin_inside_weights"
  bottom: "twin_outside_weights"
  top: "loss_twin"
  loss_weight: 1
}
layer {
  name: "accuarcy"
  type: "Accuracy"
  bottom: "cls_score"
  bottom: "labels"
  top: "accuarcy"
  propagate_down: false
  propagate_down: false
  accuracy_param {
    ignore_label: -1
  }
}
I0416 10:50:49.292022 20841 layer_factory.hpp:77] Creating layer data
I0416 10:50:49.303303 20841 net.cpp:100] Creating Layer data
I0416 10:50:49.303328 20841 net.cpp:408] data -> data
I0416 10:50:49.303342 20841 net.cpp:408] data -> gt_boxes
RoiDataLayer: name_to_top: {'gt_windows': 1, 'data': 0}
I0416 10:50:49.311846 20841 net.cpp:150] Setting up data
I0416 10:50:49.311869 20841 net.cpp:157] Top shape: 1 3 768 112 112 (28901376)
I0416 10:50:49.311877 20841 net.cpp:157] Top shape: 1 3 (3)
I0416 10:50:49.311882 20841 net.cpp:165] Memory required for data: 115605516
I0416 10:50:49.311888 20841 layer_factory.hpp:77] Creating layer data_data_0_split
I0416 10:50:49.311902 20841 net.cpp:100] Creating Layer data_data_0_split
I0416 10:50:49.311908 20841 net.cpp:434] data_data_0_split <- data
I0416 10:50:49.311920 20841 net.cpp:408] data_data_0_split -> data_data_0_split_0
I0416 10:50:49.311938 20841 net.cpp:408] data_data_0_split -> data_data_0_split_1
I0416 10:50:49.311995 20841 net.cpp:150] Setting up data_data_0_split
I0416 10:50:49.312002 20841 net.cpp:157] Top shape: 1 3 768 112 112 (28901376)
I0416 10:50:49.312008 20841 net.cpp:157] Top shape: 1 3 768 112 112 (28901376)
I0416 10:50:49.312012 20841 net.cpp:165] Memory required for data: 346816524
I0416 10:50:49.312017 20841 layer_factory.hpp:77] Creating layer gt_boxes_data_1_split
I0416 10:50:49.312026 20841 net.cpp:100] Creating Layer gt_boxes_data_1_split
I0416 10:50:49.312032 20841 net.cpp:434] gt_boxes_data_1_split <- gt_boxes
I0416 10:50:49.312039 20841 net.cpp:408] gt_boxes_data_1_split -> gt_boxes_data_1_split_0
I0416 10:50:49.312050 20841 net.cpp:408] gt_boxes_data_1_split -> gt_boxes_data_1_split_1
I0416 10:50:49.312095 20841 net.cpp:150] Setting up gt_boxes_data_1_split
I0416 10:50:49.312103 20841 net.cpp:157] Top shape: 1 3 (3)
I0416 10:50:49.312108 20841 net.cpp:157] Top shape: 1 3 (3)
I0416 10:50:49.312110 20841 net.cpp:165] Memory required for data: 346816548
I0416 10:50:49.312115 20841 layer_factory.hpp:77] Creating layer conv1a
I0416 10:50:49.312134 20841 net.cpp:100] Creating Layer conv1a
I0416 10:50:49.312139 20841 net.cpp:434] conv1a <- data_data_0_split_0
I0416 10:50:49.312146 20841 net.cpp:408] conv1a -> conv1a
I0416 10:50:49.329905 20841 net.cpp:150] Setting up conv1a
I0416 10:50:49.329938 20841 net.cpp:157] Top shape: 1 64 768 112 112 (616562688)
I0416 10:50:49.329943 20841 net.cpp:165] Memory required for data: 2813067300
I0416 10:50:49.329964 20841 layer_factory.hpp:77] Creating layer relu1a
I0416 10:50:49.329980 20841 net.cpp:100] Creating Layer relu1a
I0416 10:50:49.329985 20841 net.cpp:434] relu1a <- conv1a
I0416 10:50:49.329996 20841 net.cpp:395] relu1a -> conv1a (in-place)
I0416 10:50:49.330008 20841 net.cpp:150] Setting up relu1a
I0416 10:50:49.330040 20841 net.cpp:157] Top shape: 1 64 768 112 112 (616562688)
I0416 10:50:49.330044 20841 net.cpp:165] Memory required for data: 5279318052
I0416 10:50:49.330049 20841 layer_factory.hpp:77] Creating layer pool1
I0416 10:50:49.330057 20841 net.cpp:100] Creating Layer pool1
I0416 10:50:49.330062 20841 net.cpp:434] pool1 <- conv1a
I0416 10:50:49.330070 20841 net.cpp:408] pool1 -> pool1
I0416 10:50:49.330168 20841 net.cpp:150] Setting up pool1
I0416 10:50:49.330178 20841 net.cpp:157] Top shape: 1 64 768 56 56 (154140672)
I0416 10:50:49.330183 20841 net.cpp:165] Memory required for data: 5895880740
I0416 10:50:49.330188 20841 layer_factory.hpp:77] Creating layer conv2a
I0416 10:50:49.330204 20841 net.cpp:100] Creating Layer conv2a
I0416 10:50:49.330209 20841 net.cpp:434] conv2a <- pool1
I0416 10:50:49.330219 20841 net.cpp:408] conv2a -> conv2a
I0416 10:50:49.337254 20841 net.cpp:150] Setting up conv2a
I0416 10:50:49.337283 20841 net.cpp:157] Top shape: 1 128 768 56 56 (308281344)
I0416 10:50:49.337287 20841 net.cpp:165] Memory required for data: 7129006116
I0416 10:50:49.337306 20841 layer_factory.hpp:77] Creating layer relu2a
I0416 10:50:49.337318 20841 net.cpp:100] Creating Layer relu2a
I0416 10:50:49.337323 20841 net.cpp:434] relu2a <- conv2a
I0416 10:50:49.337333 20841 net.cpp:395] relu2a -> conv2a (in-place)
I0416 10:50:49.337344 20841 net.cpp:150] Setting up relu2a
I0416 10:50:49.337352 20841 net.cpp:157] Top shape: 1 128 768 56 56 (308281344)
I0416 10:50:49.337355 20841 net.cpp:165] Memory required for data: 8362131492
I0416 10:50:49.337360 20841 layer_factory.hpp:77] Creating layer pool2
I0416 10:50:49.337373 20841 net.cpp:100] Creating Layer pool2
I0416 10:50:49.337396 20841 net.cpp:434] pool2 <- conv2a
I0416 10:50:49.337404 20841 net.cpp:408] pool2 -> pool2
I0416 10:50:49.337491 20841 net.cpp:150] Setting up pool2
I0416 10:50:49.337498 20841 net.cpp:157] Top shape: 1 128 384 28 28 (38535168)
I0416 10:50:49.337502 20841 net.cpp:165] Memory required for data: 8516272164
I0416 10:50:49.337507 20841 layer_factory.hpp:77] Creating layer conv3a
I0416 10:50:49.337522 20841 net.cpp:100] Creating Layer conv3a
I0416 10:50:49.337532 20841 net.cpp:434] conv3a <- pool2
I0416 10:50:49.337539 20841 net.cpp:408] conv3a -> conv3a
I0416 10:50:49.345638 20841 net.cpp:150] Setting up conv3a
I0416 10:50:49.345659 20841 net.cpp:157] Top shape: 1 256 384 28 28 (77070336)
I0416 10:50:49.345664 20841 net.cpp:165] Memory required for data: 8824553508
I0416 10:50:49.345677 20841 layer_factory.hpp:77] Creating layer relu3a
I0416 10:50:49.345687 20841 net.cpp:100] Creating Layer relu3a
I0416 10:50:49.345692 20841 net.cpp:434] relu3a <- conv3a
I0416 10:50:49.345701 20841 net.cpp:395] relu3a -> conv3a (in-place)
I0416 10:50:49.345711 20841 net.cpp:150] Setting up relu3a
I0416 10:50:49.345717 20841 net.cpp:157] Top shape: 1 256 384 28 28 (77070336)
I0416 10:50:49.345721 20841 net.cpp:165] Memory required for data: 9132834852
I0416 10:50:49.345726 20841 layer_factory.hpp:77] Creating layer conv3b
I0416 10:50:49.345741 20841 net.cpp:100] Creating Layer conv3b
I0416 10:50:49.345757 20841 net.cpp:434] conv3b <- conv3a
I0416 10:50:49.345764 20841 net.cpp:408] conv3b -> conv3b
I0416 10:50:49.362100 20841 net.cpp:150] Setting up conv3b
I0416 10:50:49.362128 20841 net.cpp:157] Top shape: 1 256 384 28 28 (77070336)
I0416 10:50:49.362131 20841 net.cpp:165] Memory required for data: 9441116196
I0416 10:50:49.362143 20841 layer_factory.hpp:77] Creating layer relu3b
I0416 10:50:49.362156 20841 net.cpp:100] Creating Layer relu3b
I0416 10:50:49.362165 20841 net.cpp:434] relu3b <- conv3b
I0416 10:50:49.362176 20841 net.cpp:395] relu3b -> conv3b (in-place)
I0416 10:50:49.362188 20841 net.cpp:150] Setting up relu3b
I0416 10:50:49.362195 20841 net.cpp:157] Top shape: 1 256 384 28 28 (77070336)
I0416 10:50:49.362198 20841 net.cpp:165] Memory required for data: 9749397540
I0416 10:50:49.362202 20841 layer_factory.hpp:77] Creating layer pool3
I0416 10:50:49.362211 20841 net.cpp:100] Creating Layer pool3
I0416 10:50:49.362217 20841 net.cpp:434] pool3 <- conv3b
I0416 10:50:49.362227 20841 net.cpp:408] pool3 -> pool3
I0416 10:50:49.362284 20841 net.cpp:150] Setting up pool3
I0416 10:50:49.362293 20841 net.cpp:157] Top shape: 1 256 192 14 14 (9633792)
I0416 10:50:49.362296 20841 net.cpp:165] Memory required for data: 9787932708
I0416 10:50:49.362301 20841 layer_factory.hpp:77] Creating layer conv4a
I0416 10:50:49.362315 20841 net.cpp:100] Creating Layer conv4a
I0416 10:50:49.362319 20841 net.cpp:434] conv4a <- pool3
I0416 10:50:49.362329 20841 net.cpp:408] conv4a -> conv4a
I0416 10:50:49.394121 20841 net.cpp:150] Setting up conv4a
I0416 10:50:49.394165 20841 net.cpp:157] Top shape: 1 512 192 14 14 (19267584)
I0416 10:50:49.394168 20841 net.cpp:165] Memory required for data: 9865003044
I0416 10:50:49.394186 20841 layer_factory.hpp:77] Creating layer relu4a
I0416 10:50:49.394199 20841 net.cpp:100] Creating Layer relu4a
I0416 10:50:49.394206 20841 net.cpp:434] relu4a <- conv4a
I0416 10:50:49.394214 20841 net.cpp:395] relu4a -> conv4a (in-place)
I0416 10:50:49.394224 20841 net.cpp:150] Setting up relu4a
I0416 10:50:49.394230 20841 net.cpp:157] Top shape: 1 512 192 14 14 (19267584)
I0416 10:50:49.394233 20841 net.cpp:165] Memory required for data: 9942073380
I0416 10:50:49.394237 20841 layer_factory.hpp:77] Creating layer conv4b
I0416 10:50:49.394258 20841 net.cpp:100] Creating Layer conv4b
I0416 10:50:49.394263 20841 net.cpp:434] conv4b <- conv4a
I0416 10:50:49.394271 20841 net.cpp:408] conv4b -> conv4b
I0416 10:50:49.452724 20841 net.cpp:150] Setting up conv4b
I0416 10:50:49.452755 20841 net.cpp:157] Top shape: 1 512 192 14 14 (19267584)
I0416 10:50:49.452759 20841 net.cpp:165] Memory required for data: 10019143716
I0416 10:50:49.452770 20841 layer_factory.hpp:77] Creating layer relu4b
I0416 10:50:49.452781 20841 net.cpp:100] Creating Layer relu4b
I0416 10:50:49.452788 20841 net.cpp:434] relu4b <- conv4b
I0416 10:50:49.452797 20841 net.cpp:395] relu4b -> conv4b (in-place)
I0416 10:50:49.452810 20841 net.cpp:150] Setting up relu4b
I0416 10:50:49.452816 20841 net.cpp:157] Top shape: 1 512 192 14 14 (19267584)
I0416 10:50:49.452821 20841 net.cpp:165] Memory required for data: 10096214052
I0416 10:50:49.452824 20841 layer_factory.hpp:77] Creating layer pool4
I0416 10:50:49.452837 20841 net.cpp:100] Creating Layer pool4
I0416 10:50:49.452841 20841 net.cpp:434] pool4 <- conv4b
I0416 10:50:49.452849 20841 net.cpp:408] pool4 -> pool4
I0416 10:50:49.452903 20841 net.cpp:150] Setting up pool4
I0416 10:50:49.452909 20841 net.cpp:157] Top shape: 1 512 96 7 7 (2408448)
I0416 10:50:49.452913 20841 net.cpp:165] Memory required for data: 10105847844
I0416 10:50:49.452919 20841 layer_factory.hpp:77] Creating layer conv5a
I0416 10:50:49.452931 20841 net.cpp:100] Creating Layer conv5a
I0416 10:50:49.452936 20841 net.cpp:434] conv5a <- pool4
I0416 10:50:49.452946 20841 net.cpp:408] conv5a -> conv5a
I0416 10:50:49.511236 20841 net.cpp:150] Setting up conv5a
I0416 10:50:49.511268 20841 net.cpp:157] Top shape: 1 512 96 7 7 (2408448)
I0416 10:50:49.511272 20841 net.cpp:165] Memory required for data: 10115481636
I0416 10:50:49.511283 20841 layer_factory.hpp:77] Creating layer relu5a
I0416 10:50:49.511297 20841 net.cpp:100] Creating Layer relu5a
I0416 10:50:49.511302 20841 net.cpp:434] relu5a <- conv5a
I0416 10:50:49.511309 20841 net.cpp:395] relu5a -> conv5a (in-place)
I0416 10:50:49.511319 20841 net.cpp:150] Setting up relu5a
I0416 10:50:49.511325 20841 net.cpp:157] Top shape: 1 512 96 7 7 (2408448)
I0416 10:50:49.511328 20841 net.cpp:165] Memory required for data: 10125115428
I0416 10:50:49.511332 20841 layer_factory.hpp:77] Creating layer conv5b
I0416 10:50:49.511344 20841 net.cpp:100] Creating Layer conv5b
I0416 10:50:49.511348 20841 net.cpp:434] conv5b <- conv5a
I0416 10:50:49.511356 20841 net.cpp:408] conv5b -> conv5b
I0416 10:50:49.569707 20841 net.cpp:150] Setting up conv5b
I0416 10:50:49.569739 20841 net.cpp:157] Top shape: 1 512 96 7 7 (2408448)
I0416 10:50:49.569744 20841 net.cpp:165] Memory required for data: 10134749220
I0416 10:50:49.569754 20841 layer_factory.hpp:77] Creating layer relu5b
I0416 10:50:49.569769 20841 net.cpp:100] Creating Layer relu5b
I0416 10:50:49.569774 20841 net.cpp:434] relu5b <- conv5b
I0416 10:50:49.569782 20841 net.cpp:395] relu5b -> conv5b (in-place)
I0416 10:50:49.569792 20841 net.cpp:150] Setting up relu5b
I0416 10:50:49.569797 20841 net.cpp:157] Top shape: 1 512 96 7 7 (2408448)
I0416 10:50:49.569800 20841 net.cpp:165] Memory required for data: 10144383012
I0416 10:50:49.569804 20841 layer_factory.hpp:77] Creating layer conv5b_relu5b_0_split
I0416 10:50:49.569813 20841 net.cpp:100] Creating Layer conv5b_relu5b_0_split
I0416 10:50:49.569816 20841 net.cpp:434] conv5b_relu5b_0_split <- conv5b
I0416 10:50:49.569823 20841 net.cpp:408] conv5b_relu5b_0_split -> conv5b_relu5b_0_split_0
I0416 10:50:49.569830 20841 net.cpp:408] conv5b_relu5b_0_split -> conv5b_relu5b_0_split_1
I0416 10:50:49.569893 20841 net.cpp:150] Setting up conv5b_relu5b_0_split
I0416 10:50:49.569905 20841 net.cpp:157] Top shape: 1 512 96 7 7 (2408448)
I0416 10:50:49.569911 20841 net.cpp:157] Top shape: 1 512 96 7 7 (2408448)
I0416 10:50:49.569913 20841 net.cpp:165] Memory required for data: 10163650596
I0416 10:50:49.569918 20841 layer_factory.hpp:77] Creating layer rpn_conv/3x3
I0416 10:50:49.569932 20841 net.cpp:100] Creating Layer rpn_conv/3x3
I0416 10:50:49.569937 20841 net.cpp:434] rpn_conv/3x3 <- conv5b_relu5b_0_split_0
I0416 10:50:49.569945 20841 net.cpp:408] rpn_conv/3x3 -> rpn/output
I0416 10:50:49.629590 20841 net.cpp:150] Setting up rpn_conv/3x3
I0416 10:50:49.629616 20841 net.cpp:157] Top shape: 1 512 96 4 4 (786432)
I0416 10:50:49.629619 20841 net.cpp:165] Memory required for data: 10166796324
I0416 10:50:49.629639 20841 layer_factory.hpp:77] Creating layer rpn_relu/3x3
I0416 10:50:49.629652 20841 net.cpp:100] Creating Layer rpn_relu/3x3
I0416 10:50:49.629657 20841 net.cpp:434] rpn_relu/3x3 <- rpn/output
I0416 10:50:49.629664 20841 net.cpp:395] rpn_relu/3x3 -> rpn/output (in-place)
I0416 10:50:49.629674 20841 net.cpp:150] Setting up rpn_relu/3x3
I0416 10:50:49.629679 20841 net.cpp:157] Top shape: 1 512 96 4 4 (786432)
I0416 10:50:49.629683 20841 net.cpp:165] Memory required for data: 10169942052
I0416 10:50:49.629686 20841 layer_factory.hpp:77] Creating layer rpn_conv/3x3_2
I0416 10:50:49.629701 20841 net.cpp:100] Creating Layer rpn_conv/3x3_2
I0416 10:50:49.629706 20841 net.cpp:434] rpn_conv/3x3_2 <- rpn/output
I0416 10:50:49.629714 20841 net.cpp:408] rpn_conv/3x3_2 -> rpn/output_2
I0416 10:50:49.688040 20841 net.cpp:150] Setting up rpn_conv/3x3_2
I0416 10:50:49.688071 20841 net.cpp:157] Top shape: 1 512 96 2 2 (196608)
I0416 10:50:49.688074 20841 net.cpp:165] Memory required for data: 10170728484
I0416 10:50:49.688086 20841 layer_factory.hpp:77] Creating layer rpn_relu/3x3_2
I0416 10:50:49.688097 20841 net.cpp:100] Creating Layer rpn_relu/3x3_2
I0416 10:50:49.688102 20841 net.cpp:434] rpn_relu/3x3_2 <- rpn/output_2
I0416 10:50:49.688109 20841 net.cpp:395] rpn_relu/3x3_2 -> rpn/output_2 (in-place)
I0416 10:50:49.688119 20841 net.cpp:150] Setting up rpn_relu/3x3_2
I0416 10:50:49.688124 20841 net.cpp:157] Top shape: 1 512 96 2 2 (196608)
I0416 10:50:49.688127 20841 net.cpp:165] Memory required for data: 10171514916
I0416 10:50:49.688132 20841 layer_factory.hpp:77] Creating layer rpn/output_pool
I0416 10:50:49.688139 20841 net.cpp:100] Creating Layer rpn/output_pool
I0416 10:50:49.688143 20841 net.cpp:434] rpn/output_pool <- rpn/output_2
I0416 10:50:49.688150 20841 net.cpp:408] rpn/output_pool -> rpn/output_pool
I0416 10:50:49.688217 20841 net.cpp:150] Setting up rpn/output_pool
I0416 10:50:49.688226 20841 net.cpp:157] Top shape: 1 512 96 1 1 (49152)
I0416 10:50:49.688230 20841 net.cpp:165] Memory required for data: 10171711524
I0416 10:50:49.688235 20841 layer_factory.hpp:77] Creating layer rpn/output_pool_rpn/output_pool_0_split
I0416 10:50:49.688242 20841 net.cpp:100] Creating Layer rpn/output_pool_rpn/output_pool_0_split
I0416 10:50:49.688246 20841 net.cpp:434] rpn/output_pool_rpn/output_pool_0_split <- rpn/output_pool
I0416 10:50:49.688253 20841 net.cpp:408] rpn/output_pool_rpn/output_pool_0_split -> rpn/output_pool_rpn/output_pool_0_split_0
I0416 10:50:49.688263 20841 net.cpp:408] rpn/output_pool_rpn/output_pool_0_split -> rpn/output_pool_rpn/output_pool_0_split_1
I0416 10:50:49.688316 20841 net.cpp:150] Setting up rpn/output_pool_rpn/output_pool_0_split
I0416 10:50:49.688324 20841 net.cpp:157] Top shape: 1 512 96 1 1 (49152)
I0416 10:50:49.688355 20841 net.cpp:157] Top shape: 1 512 96 1 1 (49152)
I0416 10:50:49.688359 20841 net.cpp:165] Memory required for data: 10172104740
I0416 10:50:49.688364 20841 layer_factory.hpp:77] Creating layer rpn_cls_score
I0416 10:50:49.688375 20841 net.cpp:100] Creating Layer rpn_cls_score
I0416 10:50:49.688380 20841 net.cpp:434] rpn_cls_score <- rpn/output_pool_rpn/output_pool_0_split_0
I0416 10:50:49.688388 20841 net.cpp:408] rpn_cls_score -> rpn_cls_score
I0416 10:50:49.689224 20841 net.cpp:150] Setting up rpn_cls_score
I0416 10:50:49.689234 20841 net.cpp:157] Top shape: 1 74 96 1 1 (7104)
I0416 10:50:49.689239 20841 net.cpp:165] Memory required for data: 10172133156
I0416 10:50:49.689246 20841 layer_factory.hpp:77] Creating layer rpn_cls_score_rpn_cls_score_0_split
I0416 10:50:49.689254 20841 net.cpp:100] Creating Layer rpn_cls_score_rpn_cls_score_0_split
I0416 10:50:49.689258 20841 net.cpp:434] rpn_cls_score_rpn_cls_score_0_split <- rpn_cls_score
I0416 10:50:49.689266 20841 net.cpp:408] rpn_cls_score_rpn_cls_score_0_split -> rpn_cls_score_rpn_cls_score_0_split_0
I0416 10:50:49.689275 20841 net.cpp:408] rpn_cls_score_rpn_cls_score_0_split -> rpn_cls_score_rpn_cls_score_0_split_1
I0416 10:50:49.689340 20841 net.cpp:150] Setting up rpn_cls_score_rpn_cls_score_0_split
I0416 10:50:49.689348 20841 net.cpp:157] Top shape: 1 74 96 1 1 (7104)
I0416 10:50:49.689353 20841 net.cpp:157] Top shape: 1 74 96 1 1 (7104)
I0416 10:50:49.689357 20841 net.cpp:165] Memory required for data: 10172189988
I0416 10:50:49.689362 20841 layer_factory.hpp:77] Creating layer rpn_twin_pred
I0416 10:50:49.689383 20841 net.cpp:100] Creating Layer rpn_twin_pred
I0416 10:50:49.689388 20841 net.cpp:434] rpn_twin_pred <- rpn/output_pool_rpn/output_pool_0_split_1
I0416 10:50:49.689395 20841 net.cpp:408] rpn_twin_pred -> rpn_twin_pred
I0416 10:50:49.690063 20841 net.cpp:150] Setting up rpn_twin_pred
I0416 10:50:49.690073 20841 net.cpp:157] Top shape: 1 74 96 1 1 (7104)
I0416 10:50:49.690078 20841 net.cpp:165] Memory required for data: 10172218404
I0416 10:50:49.690084 20841 layer_factory.hpp:77] Creating layer rpn_twin_pred_rpn_twin_pred_0_split
I0416 10:50:49.690091 20841 net.cpp:100] Creating Layer rpn_twin_pred_rpn_twin_pred_0_split
I0416 10:50:49.690096 20841 net.cpp:434] rpn_twin_pred_rpn_twin_pred_0_split <- rpn_twin_pred
I0416 10:50:49.690105 20841 net.cpp:408] rpn_twin_pred_rpn_twin_pred_0_split -> rpn_twin_pred_rpn_twin_pred_0_split_0
I0416 10:50:49.690114 20841 net.cpp:408] rpn_twin_pred_rpn_twin_pred_0_split -> rpn_twin_pred_rpn_twin_pred_0_split_1
I0416 10:50:49.690177 20841 net.cpp:150] Setting up rpn_twin_pred_rpn_twin_pred_0_split
I0416 10:50:49.690186 20841 net.cpp:157] Top shape: 1 74 96 1 1 (7104)
I0416 10:50:49.690191 20841 net.cpp:157] Top shape: 1 74 96 1 1 (7104)
I0416 10:50:49.690196 20841 net.cpp:165] Memory required for data: 10172275236
I0416 10:50:49.690199 20841 layer_factory.hpp:77] Creating layer rpn_cls_score_reshape
I0416 10:50:49.690208 20841 net.cpp:100] Creating Layer rpn_cls_score_reshape
I0416 10:50:49.690213 20841 net.cpp:434] rpn_cls_score_reshape <- rpn_cls_score_rpn_cls_score_0_split_0
I0416 10:50:49.690222 20841 net.cpp:408] rpn_cls_score_reshape -> rpn_cls_score_reshape
I0416 10:50:49.690261 20841 net.cpp:150] Setting up rpn_cls_score_reshape
I0416 10:50:49.690269 20841 net.cpp:157] Top shape: 1 2 3552 1 1 (7104)
I0416 10:50:49.690274 20841 net.cpp:165] Memory required for data: 10172303652
I0416 10:50:49.690277 20841 layer_factory.hpp:77] Creating layer rpn_cls_score_reshape_rpn_cls_score_reshape_0_split
I0416 10:50:49.690285 20841 net.cpp:100] Creating Layer rpn_cls_score_reshape_rpn_cls_score_reshape_0_split
I0416 10:50:49.690290 20841 net.cpp:434] rpn_cls_score_reshape_rpn_cls_score_reshape_0_split <- rpn_cls_score_reshape
I0416 10:50:49.690299 20841 net.cpp:408] rpn_cls_score_reshape_rpn_cls_score_reshape_0_split -> rpn_cls_score_reshape_rpn_cls_score_reshape_0_split_0
I0416 10:50:49.690313 20841 net.cpp:408] rpn_cls_score_reshape_rpn_cls_score_reshape_0_split -> rpn_cls_score_reshape_rpn_cls_score_reshape_0_split_1
I0416 10:50:49.690321 20841 net.cpp:408] rpn_cls_score_reshape_rpn_cls_score_reshape_0_split -> rpn_cls_score_reshape_rpn_cls_score_reshape_0_split_2
I0416 10:50:49.690402 20841 net.cpp:150] Setting up rpn_cls_score_reshape_rpn_cls_score_reshape_0_split
I0416 10:50:49.690409 20841 net.cpp:157] Top shape: 1 2 3552 1 1 (7104)
I0416 10:50:49.690415 20841 net.cpp:157] Top shape: 1 2 3552 1 1 (7104)
I0416 10:50:49.690421 20841 net.cpp:157] Top shape: 1 2 3552 1 1 (7104)
I0416 10:50:49.690425 20841 net.cpp:165] Memory required for data: 10172388900
I0416 10:50:49.690429 20841 layer_factory.hpp:77] Creating layer rpn-data
I0416 10:50:49.690960 20841 net.cpp:100] Creating Layer rpn-data
I0416 10:50:49.690970 20841 net.cpp:434] rpn-data <- rpn_cls_score_rpn_cls_score_0_split_1
I0416 10:50:49.690978 20841 net.cpp:434] rpn-data <- gt_boxes_data_1_split_0
I0416 10:50:49.690982 20841 net.cpp:434] rpn-data <- data_data_0_split_1
I0416 10:50:49.690991 20841 net.cpp:408] rpn-data -> rpn_labels
I0416 10:50:49.691001 20841 net.cpp:408] rpn-data -> rpn_twin_targets
I0416 10:50:49.691010 20841 net.cpp:408] rpn-data -> rpn_twin_inside_weights
I0416 10:50:49.691020 20841 net.cpp:408] rpn-data -> rpn_twin_outside_weights
I0416 10:50:49.693663 20841 net.cpp:150] Setting up rpn-data
I0416 10:50:49.693681 20841 net.cpp:157] Top shape: 1 1 3552 1 1 (3552)
I0416 10:50:49.693686 20841 net.cpp:157] Top shape: 1 74 96 1 1 (7104)
I0416 10:50:49.693691 20841 net.cpp:157] Top shape: 1 74 96 1 1 (7104)
I0416 10:50:49.693696 20841 net.cpp:157] Top shape: 1 74 96 1 1 (7104)
I0416 10:50:49.693699 20841 net.cpp:165] Memory required for data: 10172488356
I0416 10:50:49.693704 20841 layer_factory.hpp:77] Creating layer rpn_labels_rpn-data_0_split
I0416 10:50:49.693712 20841 net.cpp:100] Creating Layer rpn_labels_rpn-data_0_split
I0416 10:50:49.693718 20841 net.cpp:434] rpn_labels_rpn-data_0_split <- rpn_labels
I0416 10:50:49.693727 20841 net.cpp:408] rpn_labels_rpn-data_0_split -> rpn_labels_rpn-data_0_split_0
I0416 10:50:49.693737 20841 net.cpp:408] rpn_labels_rpn-data_0_split -> rpn_labels_rpn-data_0_split_1
I0416 10:50:49.693792 20841 net.cpp:150] Setting up rpn_labels_rpn-data_0_split
I0416 10:50:49.693801 20841 net.cpp:157] Top shape: 1 1 3552 1 1 (3552)
I0416 10:50:49.693806 20841 net.cpp:157] Top shape: 1 1 3552 1 1 (3552)
I0416 10:50:49.693809 20841 net.cpp:165] Memory required for data: 10172516772
I0416 10:50:49.693814 20841 layer_factory.hpp:77] Creating layer rpn_loss_cls
I0416 10:50:49.693822 20841 net.cpp:100] Creating Layer rpn_loss_cls
I0416 10:50:49.693828 20841 net.cpp:434] rpn_loss_cls <- rpn_cls_score_reshape_rpn_cls_score_reshape_0_split_0
I0416 10:50:49.693835 20841 net.cpp:434] rpn_loss_cls <- rpn_labels_rpn-data_0_split_0
…
I0416 10:50:49.694244 20841 layer_factory.hpp:77] Creating layer rpn_accuarcy
I0416 10:50:49.694254 20841 net.cpp:100] Creating Layer rpn_accuarcy
I0416 10:50:49.694259 20841 net.cpp:434] rpn_accuarcy <- rpn_cls_score_reshape_rpn_cls_score_reshape_0_split_1
I0416 10:50:49.694265 20841 net.cpp:434] rpn_accuarcy <- rpn_labels_rpn-data_0_split_1
I0416 10:50:49.694272 20841 net.cpp:408] rpn_accuarcy -> rpn_accuarcy
I0416 10:50:49.694280 20841 net.cpp:408] rpn_accuarcy -> rpn_accuarcy_class
I0416 10:50:49.694339 20841 net.cpp:150] Setting up rpn_accuarcy
I0416 10:50:49.694347 20841 net.cpp:157] Top shape: (1)
I0416 10:50:49.694352 20841 net.cpp:157] Top shape: 2 (2)
I0416 10:50:49.694356 20841 net.cpp:165] Memory required for data: 10172516792
I0416 10:50:49.694360 20841 layer_factory.hpp:77] Creating layer rpn_cls_prob
I0416 10:50:49.694368 20841 net.cpp:100] Creating Layer rpn_cls_prob
I0416 10:50:49.694373 20841 net.cpp:434] rpn_cls_prob <- rpn_cls_score_reshape_rpn_cls_score_reshape_0_split_2
I0416 10:50:49.694380 20841 net.cpp:408] rpn_cls_prob -> rpn_cls_prob
I0416 10:50:49.694480 20841 net.cpp:150] Setting up rpn_cls_prob
I0416 10:50:49.694490 20841 net.cpp:157] Top shape: 1 2 3552 1 1 (7104)
I0416 10:50:49.694494 20841 net.cpp:165] Memory required for data: 10172545208
I0416 10:50:49.694499 20841 layer_factory.hpp:77] Creating layer rpn_cls_prob_reshape
I0416 10:50:49.694507 20841 net.cpp:100] Creating Layer rpn_cls_prob_reshape
I0416 10:50:49.694511 20841 net.cpp:434] rpn_cls_prob_reshape <- rpn_cls_prob
I0416 10:50:49.694519 20841 net.cpp:408] rpn_cls_prob_reshape -> rpn_cls_prob_reshape
I0416 10:50:49.694556 20841 net.cpp:150] Setting up rpn_cls_prob_reshape
I0416 10:50:49.694566 20841 net.cpp:157] Top shape: 1 74 96 1 1 (7104)
I0416 10:50:49.694568 20841 net.cpp:165] Memory required for data: 10172573624
I0416 10:50:49.694572 20841 layer_factory.hpp:77] Creating layer proposal
I0416 10:50:49.695327 20841 net.cpp:100] Creating Layer proposal
I0416 10:50:49.695338 20841 net.cpp:434] proposal <- rpn_cls_prob_reshape
I0416 10:50:49.695344 20841 net.cpp:434] proposal <- rpn_twin_pred_rpn_twin_pred_0_split_1
I0416 10:50:49.695353 20841 net.cpp:408] proposal -> rpn_rois
I0416 10:50:49.699061 20841 net.cpp:150] Setting up proposal
I0416 10:50:49.699075 20841 net.cpp:157] Top shape: 1 3 (3)
I0416 10:50:49.699079 20841 net.cpp:165] Memory required for data: 10172573636
I0416 10:50:49.699084 20841 layer_factory.hpp:77] Creating layer roi-data
I0416 10:50:49.699256 20841 net.cpp:100] Creating Layer roi-data
I0416 10:50:49.699267 20841 net.cpp:434] roi-data <- rpn_rois
I0416 10:50:49.699273 20841 net.cpp:434] roi-data <- gt_boxes_data_1_split_1
I0416 10:50:49.699282 20841 net.cpp:408] roi-data -> rois
I0416 10:50:49.699291 20841 net.cpp:408] roi-data -> labels
I0416 10:50:49.699301 20841 net.cpp:408] roi-data -> twin_targets
I0416 10:50:49.699308 20841 net.cpp:408] roi-data -> twin_inside_weights
I0416 10:50:49.699316 20841 net.cpp:408] roi-data -> twin_outside_weights
I0416 10:50:49.699714 20841 net.cpp:150] Setting up roi-data
I0416 10:50:49.699728 20841 net.cpp:157] Top shape: 1 3 (3)
I0416 10:50:49.699733 20841 net.cpp:157] Top shape: 1 1 (1)
I0416 10:50:49.699738 20841 net.cpp:157] Top shape: 1 402 (402)
I0416 10:50:49.699741 20841 net.cpp:157] Top shape: 1 402 (402)
I0416 10:50:49.699745 20841 net.cpp:157] Top shape: 1 402 (402)
I0416 10:50:49.699748 20841 net.cpp:165] Memory required for data: 10172578476
I0416 10:50:49.699753 20841 layer_factory.hpp:77] Creating layer labels_roi-data_1_split
I0416 10:50:49.699761 20841 net.cpp:100] Creating Layer labels_roi-data_1_split
I0416 10:50:49.699766 20841 net.cpp:434] labels_roi-data_1_split <- labels
I0416 10:50:49.699774 20841 net.cpp:408] labels_roi-data_1_split -> labels_roi-data_1_split_0
I0416 10:50:49.699782 20841 net.cpp:408] labels_roi-data_1_split -> labels_roi-data_1_split_1
I0416 10:50:49.699841 20841 net.cpp:150] Setting up labels_roi-data_1_split
I0416 10:50:49.699849 20841 net.cpp:157] Top shape: 1 1 (1)
I0416 10:50:49.699854 20841 net.cpp:157] Top shape: 1 1 (1)
I0416 10:50:49.699858 20841 net.cpp:165] Memory required for data: 10172578484
I0416 10:50:49.699862 20841 layer_factory.hpp:77] Creating layer roi_pool5
I0416 10:50:49.699870 20841 net.cpp:100] Creating Layer roi_pool5
I0416 10:50:49.699877 20841 net.cpp:434] roi_pool5 <- conv5b_relu5b_0_split_1
I0416 10:50:49.699882 20841 net.cpp:434] roi_pool5 <- rois
I0416 10:50:49.699890 20841 net.cpp:408] roi_pool5 -> pool5
I0416 10:50:49.699899 20841 roi_pooling_layer.cpp:34] Temporal scale: 0.125
I0416 10:50:49.699908 20841 roi_pooling_layer.cpp:35] Spatial scale: 0.0625
I0416 10:50:49.699965 20841 net.cpp:150] Setting up roi_pool5
I0416 10:50:49.699973 20841 net.cpp:157] Top shape: 1 512 1 4 4 (8192)
I0416 10:50:49.699977 20841 net.cpp:165] Memory required for data: 10172611252
I0416 10:50:49.699981 20841 layer_factory.hpp:77] Creating layer fc6
I0416 10:50:49.699992 20841 net.cpp:100] Creating Layer fc6
I0416 10:50:49.699997 20841 net.cpp:434] fc6 <- pool5
I0416 10:50:49.700004 20841 net.cpp:408] fc6 -> fc6
I0416 10:50:49.972043 20841 net.cpp:150] Setting up fc6
I0416 10:50:49.972075 20841 net.cpp:157] Top shape: 1 4096 (4096)
I0416 10:50:49.972079 20841 net.cpp:165] Memory required for data: 10172627636
I0416 10:50:49.972092 20841 layer_factory.hpp:77] Creating layer relu6
I0416 10:50:49.972105 20841 net.cpp:100] Creating Layer relu6
I0416 10:50:49.972111 20841 net.cpp:434] relu6 <- fc6
I0416 10:50:49.972121 20841 net.cpp:395] relu6 -> fc6 (in-place)
I0416 10:50:49.972131 20841 net.cpp:150] Setting up relu6
I0416 10:50:49.972134 20841 net.cpp:157] Top shape: 1 4096 (4096)
I0416 10:50:49.972138 20841 net.cpp:165] Memory required for data: 10172644020
I0416 10:50:49.972141 20841 layer_factory.hpp:77] Creating layer drop6
I0416 10:50:49.972148 20841 net.cpp:100] Creating Layer drop6
I0416 10:50:49.972152 20841 net.cpp:434] drop6 <- fc6
I0416 10:50:49.972157 20841 net.cpp:395] drop6 -> fc6 (in-place)
I0416 10:50:49.972195 20841 net.cpp:150] Setting up drop6
I0416 10:50:49.972203 20841 net.cpp:157] Top shape: 1 4096 (4096)
I0416 10:50:49.972206 20841 net.cpp:165] Memory required for data: 10172660404
I0416 10:50:49.972211 20841 layer_factory.hpp:77] Creating layer fc6_drop6_0_split
I0416 10:50:49.972218 20841 net.cpp:100] Creating Layer fc6_drop6_0_split
I0416 10:50:49.972223 20841 net.cpp:434] fc6_drop6_0_split <- fc6
I0416 10:50:49.972231 20841 net.cpp:408] fc6_drop6_0_split -> fc6_drop6_0_split_0
I0416 10:50:49.972241 20841 net.cpp:408] fc6_drop6_0_split -> fc6_drop6_0_split_1
I0416 10:50:49.972311 20841 net.cpp:150] Setting up fc6_drop6_0_split
I0416 10:50:49.972319 20841 net.cpp:157] Top shape: 1 4096 (4096)
I0416 10:50:49.972323 20841 net.cpp:157] Top shape: 1 4096 (4096)
I0416 10:50:49.972352 20841 net.cpp:165] Memory required for data: 10172693172
I0416 10:50:49.972357 20841 layer_factory.hpp:77] Creating layer cls_score
I0416 10:50:49.972364 20841 net.cpp:100] Creating Layer cls_score
I0416 10:50:49.972369 20841 net.cpp:434] cls_score <- fc6_drop6_0_split_0
I0416 10:50:49.972378 20841 net.cpp:408] cls_score -> cls_score
I0416 10:50:49.979882 20841 net.cpp:150] Setting up cls_score
I0416 10:50:49.979899 20841 net.cpp:157] Top shape: 1 201 (201)
I0416 10:50:49.979903 20841 net.cpp:165] Memory required for data: 10172693976
I0416 10:50:49.979914 20841 layer_factory.hpp:77] Creating layer cls_score_cls_score_0_split
I0416 10:50:49.979925 20841 net.cpp:100] Creating Layer cls_score_cls_score_0_split
I0416 10:50:49.979930 20841 net.cpp:434] cls_score_cls_score_0_split <- cls_score
I0416 10:50:49.979938 20841 net.cpp:408] cls_score_cls_score_0_split -> cls_score_cls_score_0_split_0
I0416 10:50:49.979946 20841 net.cpp:408] cls_score_cls_score_0_split -> cls_score_cls_score_0_split_1
I0416 10:50:49.980008 20841 net.cpp:150] Setting up cls_score_cls_score_0_split
I0416 10:50:49.980017 20841 net.cpp:157] Top shape: 1 201 (201)
I0416 10:50:49.980022 20841 net.cpp:157] Top shape: 1 201 (201)
I0416 10:50:49.980026 20841 net.cpp:165] Memory required for data: 10172695584
I0416 10:50:49.980031 20841 layer_factory.hpp:77] Creating layer twin_pred
I0416 10:50:49.980039 20841 net.cpp:100] Creating Layer twin_pred
I0416 10:50:49.980046 20841 net.cpp:434] twin_pred <- fc6_drop6_0_split_1
I0416 10:50:49.980056 20841 net.cpp:408] twin_pred -> twin_pred
I0416 10:50:49.994134 20841 net.cpp:150] Setting up twin_pred
I0416 10:50:49.994163 20841 net.cpp:157] Top shape: 1 402 (402)
I0416 10:50:49.994168 20841 net.cpp:165] Memory required for data: 10172697192
I0416 10:50:49.994179 20841 layer_factory.hpp:77] Creating layer loss_cls
I0416 10:50:49.994190 20841 net.cpp:100] Creating Layer loss_cls
I0416 10:50:49.994197 20841 net.cpp:434] loss_cls <- cls_score_cls_score_0_split_0
I0416 10:50:49.994205 20841 net.cpp:434] loss_cls <- labels_roi-data_1_split_0
I0416 10:50:49.994215 20841 net.cpp:408] loss_cls -> loss_cls
…
