…
stepsize: 350000
snapshot: 0
snapshot_prefix: "./experiments/activitynet/snapshot/activitynet"
average_loss: 100
iter_size: 1
I0417 23:34:16.626432  6169 solver.cpp:81] Creating training net from train_net file: ./experiments/activitynet/train.prototxt
I0417 23:34:16.627557  6169 net.cpp:58] Initializing net from parameters: 
name: "activitynet"
state {
  phase: TRAIN
}
layer {
  name: "data"
  type: "Python"
  top: "data"
  top: "gt_boxes"
  python_param {
    module: "roi_data_layer.layer"
    layer: "RoIDataLayer"
    param_str: "\'num_classes\': 100"
  }
}
layer {
  name: "conv1a"
  type: "Convolution"
  bottom: "data"
  top: "conv1a"
  param {
    lr_mult: 0
    decay_mult: 0
  }
  param {
    lr_mult: 0
    decay_mult: 0
  }
  convolution_param {
    num_output: 64
    pad: 1
    pad: 1
    pad: 1
    kernel_size: 3
    kernel_size: 3
    kernel_size: 3
    weight_filler {
      type: "gaussian"
      std: 0.01
    }
    bias_filler {
      type: "constant"
      value: 0
    }
  }
}
layer {
  name: "relu1a"
  type: "ReLU"
  bottom: "conv1a"
  top: "conv1a"
}
layer {
  name: "pool1"
  type: "Pooling"
  bottom: "conv1a"
  top: "pool1"
  pooling_param {
    pool: MAX
    kernel_size: 1
    kernel_size: 2
    kernel_size: 2
    stride: 1
    stride: 2
    stride: 2
  }
}
layer {
  name: "conv2a"
  type: "Convolution"
  bottom: "pool1"
  top: "conv2a"
  param {
    lr_mult: 0
    decay_mult: 0
  }
  param {
    lr_mult: 0
    decay_mult: 0
  }
  convolution_param {
    num_output: 128
    pad: 1
    pad: 1
    pad: 1
    kernel_size: 3
    kernel_size: 3
    kernel_size: 3
    weight_filler {
      type: "gaussian"
      std: 0.01
    }
    bias_filler {
      type: "constant"
      value: 1
    }
  }
}
layer {
  name: "relu2a"
  type: "ReLU"
  bottom: "conv2a"
  top: "conv2a"
}
layer {
  name: "pool2"
  type: "Pooling"
  bottom: "conv2a"
  top: "pool2"
  pooling_param {
    pool: MAX
    kernel_size: 2
    kernel_size: 2
    kernel_size: 2
    stride: 2
    stride: 2
    stride: 2
  }
}
layer {
  name: "conv3a"
  type: "Convolution"
  bottom: "pool2"
  top: "conv3a"
  param {
    lr_mult: 1
    decay_mult: 1
  }
  param {
    lr_mult: 2
    decay_mult: 0
  }
  convolution_param {
    num_output: 256
    pad: 1
    pad: 1
    pad: 1
    kernel_size: 3
    kernel_size: 3
    kernel_size: 3
    weight_filler {
      type: "gaussian"
      std: 0.01
    }
    bias_filler {
      type: "constant"
      value: 1
    }
  }
}
layer {
  name: "relu3a"
  type: "ReLU"
  bottom: "conv3a"
  top: "conv3a"
}
layer {
  name: "conv3b"
  type: "Convolution"
  bottom: "conv3a"
  top: "conv3b"
  param {
    lr_mult: 1
    decay_mult: 1
  }
  param {
    lr_mult: 2
    decay_mult: 0
  }
  convolution_param {
    num_output: 256
    pad: 1
    pad: 1
    pad: 1
    kernel_size: 3
    kernel_size: 3
    kernel_size: 3
    weight_filler {
      type: "gaussian"
      std: 0.01
    }
    bias_filler {
      type: "constant"
      value: 1
    }
  }
}
layer {
  name: "relu3b"
  type: "ReLU"
  bottom: "conv3b"
  top: "conv3b"
}
layer {
  name: "pool3"
  type: "Pooling"
  bottom: "conv3b"
  top: "pool3"
  pooling_param {
    pool: MAX
    kernel_size: 2
    kernel_size: 2
    kernel_size: 2
    stride: 2
    stride: 2
    stride: 2
  }
}
layer {
  name: "conv4a"
  type: "Convolution"
  bottom: "pool3"
  top: "conv4a"
  param {
    lr_mult: 1
    decay_mult: 1
  }
  param {
    lr_mult: 2
    decay_mult: 0
  }
  convolution_param {
    num_output: 512
    pad: 1
    pad: 1
    pad: 1
    kernel_size: 3
    kernel_size: 3
    kernel_size: 3
    weight_filler {
      type: "gaussian"
      std: 0.01
    }
    bias_filler {
      type: "constant"
      value: 1
    }
  }
}
layer {
  name: "relu4a"
  type: "ReLU"
  bottom: "conv4a"
  top: "conv4a"
}
layer {
  name: "conv4b"
  type: "Convolution"
  bottom: "conv4a"
  top: "conv4b"
  param {
    lr_mult: 1
    decay_mult: 1
  }
  param {
    lr_mult: 2
    decay_mult: 0
  }
  convolution_param {
    num_output: 512
    pad: 1
    pad: 1
    pad: 1
    kernel_size: 3
    kernel_size: 3
    kernel_size: 3
    weight_filler {
      type: "gaussian"
      std: 0.01
    }
    bias_filler {
      type: "constant"
      value: 1
    }
  }
}
layer {
  name: "relu4b"
  type: "ReLU"
  bottom: "conv4b"
  top: "conv4b"
}
layer {
  name: "pool4"
  type: "Pooling"
  bottom: "conv4b"
  top: "pool4"
  pooling_param {
    pool: MAX
    kernel_size: 2
    kernel_size: 2
    kernel_size: 2
    stride: 2
    stride: 2
    stride: 2
  }
}
layer {
  name: "conv5a"
  type: "Convolution"
  bottom: "pool4"
  top: "conv5a"
  param {
    lr_mult: 1
    decay_mult: 1
  }
  param {
    lr_mult: 2
    decay_mult: 0
  }
  convolution_param {
    num_output: 512
    pad: 1
    pad: 1
    pad: 1
    kernel_size: 3
    kernel_size: 3
    kernel_size: 3
    weight_filler {
      type: "gaussian"
      std: 0.01
    }
    bias_filler {
      type: "constant"
      value: 1
    }
  }
}
layer {
  name: "relu5a"
  type: "ReLU"
  bottom: "conv5a"
  top: "conv5a"
}
layer {
  name: "conv5b"
  type: "Convolution"
  bottom: "conv5a"
  top: "conv5b"
  param {
    lr_mult: 1
    decay_mult: 1
  }
  param {
    lr_mult: 2
    decay_mult: 0
  }
  convolution_param {
    num_output: 512
    pad: 1
    pad: 1
    pad: 1
    kernel_size: 3
    kernel_size: 3
    kernel_size: 3
    weight_filler {
      type: "gaussian"
      std: 0.01
    }
    bias_filler {
      type: "constant"
      value: 1
    }
  }
}
layer {
  name: "relu5b"
  type: "ReLU"
  bottom: "conv5b"
  top: "conv5b"
}
layer {
  name: "rpn_conv/3x3"
  type: "Convolution"
  bottom: "conv5b"
  top: "rpn/output"
  param {
    lr_mult: 1
    decay_mult: 1
  }
  param {
    lr_mult: 2
    decay_mult: 0
  }
  convolution_param {
    num_output: 512
    pad: 1
    pad: 1
    pad: 1
    kernel_size: 3
    kernel_size: 3
    kernel_size: 3
    stride: 1
    stride: 2
    stride: 2
    weight_filler {
      type: "gaussian"
      std: 0.01
    }
    bias_filler {
      type: "constant"
      value: 0
    }
  }
}
layer {
  name: "rpn_relu/3x3"
  type: "ReLU"
  bottom: "rpn/output"
  top: "rpn/output"
}
layer {
  name: "rpn_conv/3x3_2"
  type: "Convolution"
  bottom: "rpn/output"
  top: "rpn/output_2"
  param {
    lr_mult: 1
    decay_mult: 1
  }
  param {
    lr_mult: 2
    decay_mult: 0
  }
  convolution_param {
    num_output: 512
    pad: 1
    pad: 1
    pad: 1
    kernel_size: 3
    kernel_size: 3
    kernel_size: 3
    stride: 1
    stride: 2
    stride: 2
    weight_filler {
      type: "gaussian"
      std: 0.01
    }
    bias_filler {
      type: "constant"
      value: 0
    }
  }
}
layer {
  name: "rpn_relu/3x3_2"
  type: "ReLU"
  bottom: "rpn/output_2"
  top: "rpn/output_2"
}
layer {
  name: "rpn/output_pool"
  type: "Pooling"
  bottom: "rpn/output_2"
  top: "rpn/output_pool"
  pooling_param {
    pool: MAX
    kernel_size: 1
    kernel_size: 2
    kernel_size: 2
  }
}
layer {
  name: "rpn_cls_score"
  type: "Convolution"
  bottom: "rpn/output_pool"
  top: "rpn_cls_score"
  param {
    lr_mult: 1
    decay_mult: 1
  }
  param {
    lr_mult: 2
    decay_mult: 0
  }
  convolution_param {
    num_output: 74
    kernel_size: 1
    kernel_size: 1
    kernel_size: 1
    weight_filler {
      type: "gaussian"
      std: 0.01
    }
    bias_filler {
      type: "constant"
      value: 0
    }
  }
}
layer {
  name: "rpn_twin_pred"
  type: "Convolution"
  bottom: "rpn/output_pool"
  top: "rpn_twin_pred"
  param {
    lr_mult: 1
    decay_mult: 1
  }
  param {
    lr_mult: 2
    decay_mult: 0
  }
  convolution_param {
    num_output: 74
    kernel_size: 1
    kernel_size: 1
    kernel_size: 1
    weight_filler {
      type: "gaussian"
      std: 0.01
    }
    bias_filler {
      type: "constant"
      value: 0
    }
  }
}
layer {
  name: "rpn_cls_score_reshape"
  type: "Reshape"
  bottom: "rpn_cls_score"
  top: "rpn_cls_score_reshape"
  reshape_param {
    shape {
      dim: 0
      dim: 2
      dim: -1
      dim: 0
      dim: 0
    }
  }
}
layer {
  name: "rpn-data"
  type: "Python"
  bottom: "rpn_cls_score"
  bottom: "gt_boxes"
  bottom: "data"
  top: "rpn_labels"
  top: "rpn_twin_targets"
  top: "rpn_twin_inside_weights"
  top: "rpn_twin_outside_weights"
  python_param {
    module: "rpn.anchor_target_layer"
    layer: "AnchorTargetLayer"
    param_str: "\'feat_stride\': 8 \n\'scales\': !!python/tuple [1,1.25, 1.5,1.75, 2,2.5, 3,3.5, 4,4.5, 5,5.5, 6,7, 8,9,10,11,12,14,16,18,20,22,24,28,32,36,40,44,52,60,68,76,84,92,100]"
  }
}
layer {
  name: "rpn_loss_cls"
  type: "SoftmaxWithLoss"
  bottom: "rpn_cls_score_reshape"
  bottom: "rpn_labels"
  top: "rpn_cls_loss"
  loss_weight: 1
  propagate_down: true
  propagate_down: false
  loss_param {
    ignore_label: -1
    normalize: true
  }
}
layer {
  name: "rpn_loss_twin"
  type: "SmoothL1Loss"
  bottom: "rpn_twin_pred"
  bottom: "rpn_twin_targets"
  bottom: "rpn_twin_inside_weights"
  bottom: "rpn_twin_outside_weights"
  top: "rpn_loss_twin"
  loss_weight: 1
  smooth_l1_loss_param {
    sigma: 3
  }
}
layer {
  name: "rpn_accuarcy"
  type: "Accuracy"
  bottom: "rpn_cls_score_reshape"
  bottom: "rpn_labels"
  top: "rpn_accuarcy"
  top: "rpn_accuarcy_class"
  propagate_down: false
  propagate_down: false
  accuracy_param {
    ignore_label: -1
  }
}
layer {
  name: "rpn_cls_prob"
  type: "Softmax"
  bottom: "rpn_cls_score_reshape"
  top: "rpn_cls_prob"
}
layer {
  name: "rpn_cls_prob_reshape"
  type: "Reshape"
  bottom: "rpn_cls_prob"
  top: "rpn_cls_prob_reshape"
  reshape_param {
    shape {
      dim: 0
      dim: 74
      dim: -1
      dim: 0
      dim: 0
    }
  }
}
layer {
  name: "proposal"
  type: "Python"
  bottom: "rpn_cls_prob_reshape"
  bottom: "rpn_twin_pred"
  top: "rpn_rois"
  include {
    phase: TRAIN
  }
  python_param {
    module: "rpn.proposal_layer"
    layer: "ProposalLayer"
    param_str: "\'feat_stride\': 8 \n\'scales\': !!python/tuple [1,1.25, 1.5,1.75, 2,2.5, 3,3.5, 4,4.5, 5,5.5, 6,7, 8,9,10,11,12,14,16,18,20,22,24,28,32,36,40,44,52,60,68,76,84,92,100]"
  }
}
layer {
  name: "roi-data"
  type: "Python"
  bottom: "rpn_rois"
  bottom: "gt_boxes"
  top: "rois"
  top: "labels"
  top: "twin_targets"
  top: "twin_inside_weights"
  top: "twin_outside_weights"
  python_param {
    module: "rpn.proposal_target_layer"
    layer: "ProposalTargetLayer"
    param_str: "\'num_classes\': 201"
  }
}
layer {
  name: "roi_pool5"
  type: "ROIPooling"
  bottom: "conv5b"
  bottom: "rois"
  top: "pool5"
  roi_pooling_param {
    pooled_h: 4
    pooled_w: 4
    spatial_scale: 0.0625
    pooled_l: 1
    temporal_scale: 0.125
  }
}
layer {
  name: "fc6"
  type: "InnerProduct"
  bottom: "pool5"
  top: "fc6"
  param {
    lr_mult: 1
    decay_mult: 1
  }
  param {
    lr_mult: 2
    decay_mult: 0
  }
  inner_product_param {
    num_output: 4096
    weight_filler {
      type: "gaussian"
      std: 0.005
    }
    bias_filler {
      type: "constant"
      value: 1
    }
  }
}
layer {
  name: "relu6"
  type: "ReLU"
  bottom: "fc6"
  top: "fc6"
}
layer {
  name: "drop6"
  type: "Dropout"
  bottom: "fc6"
  top: "fc6"
  dropout_param {
    dropout_ratio: 0.5
  }
}
layer {
  name: "cls_score"
  type: "InnerProduct"
  bottom: "fc6"
  top: "cls_score"
  param {
    lr_mult: 1
    decay_mult: 1
  }
  param {
    lr_mult: 2
    decay_mult: 0
  }
  inner_product_param {
    num_output: 201
    weight_filler {
      type: "gaussian"
      std: 0.01
    }
    bias_filler {
      type: "constant"
      value: 0
    }
  }
}
layer {
  name: "twin_pred"
  type: "InnerProduct"
  bottom: "fc6"
  top: "twin_pred"
  param {
    lr_mult: 1
    decay_mult: 1
  }
  param {
    lr_mult: 2
    decay_mult: 0
  }
  inner_product_param {
    num_output: 402
    weight_filler {
      type: "gaussian"
      std: 0.001
    }
    bias_filler {
      type: "constant"
      value: 0
    }
  }
}
layer {
  name: "loss_cls"
  type: "SoftmaxWithLoss"
  bottom: "cls_score"
  bottom: "labels"
  top: "loss_cls"
  loss_weight: 1
  propagate_down: true
  propagate_down: false
}
layer {
  name: "loss_twin"
  type: "SmoothL1Loss"
  bottom: "twin_pred"
  bottom: "twin_targets"
  bottom: "twin_inside_weights"
  bottom: "twin_outside_weights"
  top: "loss_twin"
  loss_weight: 1
}
layer {
  name: "accuarcy"
  type: "Accuracy"
  bottom: "cls_score"
  bottom: "labels"
  top: "accuarcy"
  propagate_down: false
  propagate_down: false
  accuracy_param {
    ignore_label: -1
  }
}
I0417 23:34:16.627774  6169 layer_factory.hpp:77] Creating layer data
I0417 23:34:16.653219  6169 net.cpp:100] Creating Layer data
I0417 23:34:16.653242  6169 net.cpp:408] data -> data
I0417 23:34:16.653255  6169 net.cpp:408] data -> gt_boxes
setting up
has rpn
RoiDataLayer: name_to_top: {'gt_windows': 1, 'data': 0}
I0417 23:34:16.699172  6169 net.cpp:150] Setting up data
I0417 23:34:16.699196  6169 net.cpp:157] Top shape: 1 3 768 112 112 (28901376)
I0417 23:34:16.699201  6169 net.cpp:157] Top shape: 1 101 (101)
I0417 23:34:16.699205  6169 net.cpp:165] Memory required for data: 115605908
I0417 23:34:16.699211  6169 layer_factory.hpp:77] Creating layer data_data_0_split
I0417 23:34:16.699223  6169 net.cpp:100] Creating Layer data_data_0_split
I0417 23:34:16.699229  6169 net.cpp:434] data_data_0_split <- data
I0417 23:34:16.699237  6169 net.cpp:408] data_data_0_split -> data_data_0_split_0
I0417 23:34:16.699247  6169 net.cpp:408] data_data_0_split -> data_data_0_split_1
I0417 23:34:16.699281  6169 net.cpp:150] Setting up data_data_0_split
I0417 23:34:16.699290  6169 net.cpp:157] Top shape: 1 3 768 112 112 (28901376)
I0417 23:34:16.699295  6169 net.cpp:157] Top shape: 1 3 768 112 112 (28901376)
I0417 23:34:16.699298  6169 net.cpp:165] Memory required for data: 346816916
I0417 23:34:16.699302  6169 layer_factory.hpp:77] Creating layer gt_boxes_data_1_split
I0417 23:34:16.699307  6169 net.cpp:100] Creating Layer gt_boxes_data_1_split
I0417 23:34:16.699311  6169 net.cpp:434] gt_boxes_data_1_split <- gt_boxes
I0417 23:34:16.699317  6169 net.cpp:408] gt_boxes_data_1_split -> gt_boxes_data_1_split_0
I0417 23:34:16.699323  6169 net.cpp:408] gt_boxes_data_1_split -> gt_boxes_data_1_split_1
I0417 23:34:16.699347  6169 net.cpp:150] Setting up gt_boxes_data_1_split
I0417 23:34:16.699355  6169 net.cpp:157] Top shape: 1 101 (101)
I0417 23:34:16.699359  6169 net.cpp:157] Top shape: 1 101 (101)
I0417 23:34:16.699362  6169 net.cpp:165] Memory required for data: 346817724
I0417 23:34:16.699367  6169 layer_factory.hpp:77] Creating layer conv1a
I0417 23:34:16.699383  6169 net.cpp:100] Creating Layer conv1a
I0417 23:34:16.699388  6169 net.cpp:434] conv1a <- data_data_0_split_0
I0417 23:34:16.699395  6169 net.cpp:408] conv1a -> conv1a
I0417 23:34:16.974303  6169 net.cpp:150] Setting up conv1a
I0417 23:34:16.974336  6169 net.cpp:157] Top shape: 1 64 768 112 112 (616562688)
I0417 23:34:16.974340  6169 net.cpp:165] Memory required for data: 2813068476
I0417 23:34:16.974359  6169 layer_factory.hpp:77] Creating layer relu1a
I0417 23:34:16.974373  6169 net.cpp:100] Creating Layer relu1a
I0417 23:34:16.974378  6169 net.cpp:434] relu1a <- conv1a
I0417 23:34:16.974387  6169 net.cpp:395] relu1a -> conv1a (in-place)
I0417 23:34:16.974877  6169 net.cpp:150] Setting up relu1a
I0417 23:34:16.974891  6169 net.cpp:157] Top shape: 1 64 768 112 112 (616562688)
I0417 23:34:16.974895  6169 net.cpp:165] Memory required for data: 5279319228
I0417 23:34:16.974900  6169 layer_factory.hpp:77] Creating layer pool1
I0417 23:34:16.974910  6169 net.cpp:100] Creating Layer pool1
I0417 23:34:16.974912  6169 net.cpp:434] pool1 <- conv1a
I0417 23:34:16.974918  6169 net.cpp:408] pool1 -> pool1
I0417 23:34:16.975101  6169 net.cpp:150] Setting up pool1
I0417 23:34:16.975112  6169 net.cpp:157] Top shape: 1 64 768 56 56 (154140672)
I0417 23:34:16.975116  6169 net.cpp:165] Memory required for data: 5895881916
I0417 23:34:16.975121  6169 layer_factory.hpp:77] Creating layer conv2a
I0417 23:34:16.975131  6169 net.cpp:100] Creating Layer conv2a
I0417 23:34:16.975137  6169 net.cpp:434] conv2a <- pool1
I0417 23:34:16.975143  6169 net.cpp:408] conv2a -> conv2a
I0417 23:34:16.986501  6169 net.cpp:150] Setting up conv2a
I0417 23:34:16.986524  6169 net.cpp:157] Top shape: 1 128 768 56 56 (308281344)
I0417 23:34:16.986528  6169 net.cpp:165] Memory required for data: 7129007292
I0417 23:34:16.986541  6169 layer_factory.hpp:77] Creating layer relu2a
I0417 23:34:16.986549  6169 net.cpp:100] Creating Layer relu2a
I0417 23:34:16.986553  6169 net.cpp:434] relu2a <- conv2a
I0417 23:34:16.986559  6169 net.cpp:395] relu2a -> conv2a (in-place)
I0417 23:34:16.986915  6169 net.cpp:150] Setting up relu2a
I0417 23:34:16.986928  6169 net.cpp:157] Top shape: 1 128 768 56 56 (308281344)
I0417 23:34:16.986932  6169 net.cpp:165] Memory required for data: 8362132668
I0417 23:34:16.986935  6169 layer_factory.hpp:77] Creating layer pool2
I0417 23:34:16.986945  6169 net.cpp:100] Creating Layer pool2
I0417 23:34:16.986949  6169 net.cpp:434] pool2 <- conv2a
I0417 23:34:16.986954  6169 net.cpp:408] pool2 -> pool2
I0417 23:34:16.987128  6169 net.cpp:150] Setting up pool2
I0417 23:34:16.987138  6169 net.cpp:157] Top shape: 1 128 384 28 28 (38535168)
I0417 23:34:16.987143  6169 net.cpp:165] Memory required for data: 8516273340
I0417 23:34:16.987146  6169 layer_factory.hpp:77] Creating layer conv3a
I0417 23:34:16.987156  6169 net.cpp:100] Creating Layer conv3a
I0417 23:34:16.987159  6169 net.cpp:434] conv3a <- pool2
I0417 23:34:16.987165  6169 net.cpp:408] conv3a -> conv3a
I0417 23:34:17.014111  6169 net.cpp:150] Setting up conv3a
I0417 23:34:17.014127  6169 net.cpp:157] Top shape: 1 256 384 28 28 (77070336)
I0417 23:34:17.014132  6169 net.cpp:165] Memory required for data: 8824554684
I0417 23:34:17.014142  6169 layer_factory.hpp:77] Creating layer relu3a
I0417 23:34:17.014148  6169 net.cpp:100] Creating Layer relu3a
I0417 23:34:17.014153  6169 net.cpp:434] relu3a <- conv3a
I0417 23:34:17.014158  6169 net.cpp:395] relu3a -> conv3a (in-place)
I0417 23:34:17.014472  6169 net.cpp:150] Setting up relu3a
I0417 23:34:17.014484  6169 net.cpp:157] Top shape: 1 256 384 28 28 (77070336)
I0417 23:34:17.014488  6169 net.cpp:165] Memory required for data: 9132836028
I0417 23:34:17.014492  6169 layer_factory.hpp:77] Creating layer conv3b
I0417 23:34:17.014502  6169 net.cpp:100] Creating Layer conv3b
I0417 23:34:17.014505  6169 net.cpp:434] conv3b <- conv3a
I0417 23:34:17.014511  6169 net.cpp:408] conv3b -> conv3b
I0417 23:34:17.070539  6169 net.cpp:150] Setting up conv3b
I0417 23:34:17.070564  6169 net.cpp:157] Top shape: 1 256 384 28 28 (77070336)
I0417 23:34:17.070567  6169 net.cpp:165] Memory required for data: 9441117372
I0417 23:34:17.070577  6169 layer_factory.hpp:77] Creating layer relu3b
I0417 23:34:17.070586  6169 net.cpp:100] Creating Layer relu3b
I0417 23:34:17.070591  6169 net.cpp:434] relu3b <- conv3b
I0417 23:34:17.070597  6169 net.cpp:395] relu3b -> conv3b (in-place)
I0417 23:34:17.070952  6169 net.cpp:150] Setting up relu3b
I0417 23:34:17.070966  6169 net.cpp:157] Top shape: 1 256 384 28 28 (77070336)
I0417 23:34:17.070971  6169 net.cpp:165] Memory required for data: 9749398716
I0417 23:34:17.070974  6169 layer_factory.hpp:77] Creating layer pool3
I0417 23:34:17.070983  6169 net.cpp:100] Creating Layer pool3
I0417 23:34:17.070986  6169 net.cpp:434] pool3 <- conv3b
I0417 23:34:17.070992  6169 net.cpp:408] pool3 -> pool3
I0417 23:34:17.072027  6169 net.cpp:150] Setting up pool3
I0417 23:34:17.072037  6169 net.cpp:157] Top shape: 1 256 192 14 14 (9633792)
I0417 23:34:17.072042  6169 net.cpp:165] Memory required for data: 9787933884
I0417 23:34:17.072046  6169 layer_factory.hpp:77] Creating layer conv4a
I0417 23:34:17.072057  6169 net.cpp:100] Creating Layer conv4a
I0417 23:34:17.072060  6169 net.cpp:434] conv4a <- pool3
I0417 23:34:17.072067  6169 net.cpp:408] conv4a -> conv4a
I0417 23:34:17.174062  6169 net.cpp:150] Setting up conv4a
I0417 23:34:17.174085  6169 net.cpp:157] Top shape: 1 512 192 14 14 (19267584)
I0417 23:34:17.174089  6169 net.cpp:165] Memory required for data: 9865004220
I0417 23:34:17.174103  6169 layer_factory.hpp:77] Creating layer relu4a
I0417 23:34:17.174114  6169 net.cpp:100] Creating Layer relu4a
I0417 23:34:17.174118  6169 net.cpp:434] relu4a <- conv4a
I0417 23:34:17.174125  6169 net.cpp:395] relu4a -> conv4a (in-place)
I0417 23:34:17.174552  6169 net.cpp:150] Setting up relu4a
I0417 23:34:17.174564  6169 net.cpp:157] Top shape: 1 512 192 14 14 (19267584)
I0417 23:34:17.174569  6169 net.cpp:165] Memory required for data: 9942074556
I0417 23:34:17.174573  6169 layer_factory.hpp:77] Creating layer conv4b
I0417 23:34:17.174585  6169 net.cpp:100] Creating Layer conv4b
I0417 23:34:17.174589  6169 net.cpp:434] conv4b <- conv4a
I0417 23:34:17.174595  6169 net.cpp:408] conv4b -> conv4b
I0417 23:34:17.370790  6169 net.cpp:150] Setting up conv4b
I0417 23:34:17.370841  6169 net.cpp:157] Top shape: 1 512 192 14 14 (19267584)
I0417 23:34:17.370852  6169 net.cpp:165] Memory required for data: 10019144892
I0417 23:34:17.370872  6169 layer_factory.hpp:77] Creating layer relu4b
I0417 23:34:17.370894  6169 net.cpp:100] Creating Layer relu4b
I0417 23:34:17.370906  6169 net.cpp:434] relu4b <- conv4b
I0417 23:34:17.370919  6169 net.cpp:395] relu4b -> conv4b (in-place)
I0417 23:34:17.371322  6169 net.cpp:150] Setting up relu4b
I0417 23:34:17.371343  6169 net.cpp:157] Top shape: 1 512 192 14 14 (19267584)
I0417 23:34:17.371353  6169 net.cpp:165] Memory required for data: 10096215228
I0417 23:34:17.371364  6169 layer_factory.hpp:77] Creating layer pool4
I0417 23:34:17.371381  6169 net.cpp:100] Creating Layer pool4
I0417 23:34:17.371392  6169 net.cpp:434] pool4 <- conv4b
I0417 23:34:17.371407  6169 net.cpp:408] pool4 -> pool4
I0417 23:34:17.373559  6169 net.cpp:150] Setting up pool4
I0417 23:34:17.373606  6169 net.cpp:157] Top shape: 1 512 96 7 7 (2408448)
I0417 23:34:17.373618  6169 net.cpp:165] Memory required for data: 10105849020
I0417 23:34:17.373631  6169 layer_factory.hpp:77] Creating layer conv5a
I0417 23:34:17.373656  6169 net.cpp:100] Creating Layer conv5a
I0417 23:34:17.373667  6169 net.cpp:434] conv5a <- pool4
I0417 23:34:17.373682  6169 net.cpp:408] conv5a -> conv5a
I0417 23:34:17.578770  6169 net.cpp:150] Setting up conv5a
I0417 23:34:17.578800  6169 net.cpp:157] Top shape: 1 512 96 7 7 (2408448)
I0417 23:34:17.578805  6169 net.cpp:165] Memory required for data: 10115482812
I0417 23:34:17.578815  6169 layer_factory.hpp:77] Creating layer relu5a
I0417 23:34:17.578825  6169 net.cpp:100] Creating Layer relu5a
I0417 23:34:17.578830  6169 net.cpp:434] relu5a <- conv5a
I0417 23:34:17.578837  6169 net.cpp:395] relu5a -> conv5a (in-place)
I0417 23:34:17.579634  6169 net.cpp:150] Setting up relu5a
I0417 23:34:17.579649  6169 net.cpp:157] Top shape: 1 512 96 7 7 (2408448)
I0417 23:34:17.579653  6169 net.cpp:165] Memory required for data: 10125116604
I0417 23:34:17.579658  6169 layer_factory.hpp:77] Creating layer conv5b
I0417 23:34:17.579669  6169 net.cpp:100] Creating Layer conv5b
I0417 23:34:17.579674  6169 net.cpp:434] conv5b <- conv5a
I0417 23:34:17.579679  6169 net.cpp:408] conv5b -> conv5b
I0417 23:34:17.776633  6169 net.cpp:150] Setting up conv5b
I0417 23:34:17.776662  6169 net.cpp:157] Top shape: 1 512 96 7 7 (2408448)
I0417 23:34:17.776666  6169 net.cpp:165] Memory required for data: 10134750396
I0417 23:34:17.776676  6169 layer_factory.hpp:77] Creating layer relu5b
I0417 23:34:17.776686  6169 net.cpp:100] Creating Layer relu5b
I0417 23:34:17.776692  6169 net.cpp:434] relu5b <- conv5b
I0417 23:34:17.776700  6169 net.cpp:395] relu5b -> conv5b (in-place)
I0417 23:34:17.777645  6169 net.cpp:150] Setting up relu5b
I0417 23:34:17.777655  6169 net.cpp:157] Top shape: 1 512 96 7 7 (2408448)
I0417 23:34:17.777660  6169 net.cpp:165] Memory required for data: 10144384188
I0417 23:34:17.777663  6169 layer_factory.hpp:77] Creating layer conv5b_relu5b_0_split
I0417 23:34:17.777669  6169 net.cpp:100] Creating Layer conv5b_relu5b_0_split
I0417 23:34:17.777673  6169 net.cpp:434] conv5b_relu5b_0_split <- conv5b
I0417 23:34:17.777679  6169 net.cpp:408] conv5b_relu5b_0_split -> conv5b_relu5b_0_split_0
I0417 23:34:17.777686  6169 net.cpp:408] conv5b_relu5b_0_split -> conv5b_relu5b_0_split_1
I0417 23:34:17.777724  6169 net.cpp:150] Setting up conv5b_relu5b_0_split
I0417 23:34:17.777734  6169 net.cpp:157] Top shape: 1 512 96 7 7 (2408448)
I0417 23:34:17.777739  6169 net.cpp:157] Top shape: 1 512 96 7 7 (2408448)
I0417 23:34:17.777741  6169 net.cpp:165] Memory required for data: 10163651772
I0417 23:34:17.777745  6169 layer_factory.hpp:77] Creating layer rpn_conv/3x3
I0417 23:34:17.777756  6169 net.cpp:100] Creating Layer rpn_conv/3x3
I0417 23:34:17.777763  6169 net.cpp:434] rpn_conv/3x3 <- conv5b_relu5b_0_split_0
I0417 23:34:17.777770  6169 net.cpp:408] rpn_conv/3x3 -> rpn/output
I0417 23:34:17.973234  6169 net.cpp:150] Setting up rpn_conv/3x3
I0417 23:34:17.973260  6169 net.cpp:157] Top shape: 1 512 96 4 4 (786432)
I0417 23:34:17.973264  6169 net.cpp:165] Memory required for data: 10166797500
I0417 23:34:17.973278  6169 layer_factory.hpp:77] Creating layer rpn_relu/3x3
I0417 23:34:17.973289  6169 net.cpp:100] Creating Layer rpn_relu/3x3
I0417 23:34:17.973294  6169 net.cpp:434] rpn_relu/3x3 <- rpn/output
I0417 23:34:17.973299  6169 net.cpp:395] rpn_relu/3x3 -> rpn/output (in-place)
I0417 23:34:17.974221  6169 net.cpp:150] Setting up rpn_relu/3x3
I0417 23:34:17.974234  6169 net.cpp:157] Top shape: 1 512 96 4 4 (786432)
I0417 23:34:17.974237  6169 net.cpp:165] Memory required for data: 10169943228
I0417 23:34:17.974241  6169 layer_factory.hpp:77] Creating layer rpn_conv/3x3_2
I0417 23:34:17.974253  6169 net.cpp:100] Creating Layer rpn_conv/3x3_2
I0417 23:34:17.974257  6169 net.cpp:434] rpn_conv/3x3_2 <- rpn/output
I0417 23:34:17.974263  6169 net.cpp:408] rpn_conv/3x3_2 -> rpn/output_2
I0417 23:34:18.162293  6169 net.cpp:150] Setting up rpn_conv/3x3_2
I0417 23:34:18.162329  6169 net.cpp:157] Top shape: 1 512 96 2 2 (196608)
I0417 23:34:18.162335  6169 net.cpp:165] Memory required for data: 10170729660
I0417 23:34:18.162344  6169 layer_factory.hpp:77] Creating layer rpn_relu/3x3_2
I0417 23:34:18.162353  6169 net.cpp:100] Creating Layer rpn_relu/3x3_2
I0417 23:34:18.162358  6169 net.cpp:434] rpn_relu/3x3_2 <- rpn/output_2
I0417 23:34:18.162364  6169 net.cpp:395] rpn_relu/3x3_2 -> rpn/output_2 (in-place)
I0417 23:34:18.163355  6169 net.cpp:150] Setting up rpn_relu/3x3_2
I0417 23:34:18.163368  6169 net.cpp:157] Top shape: 1 512 96 2 2 (196608)
I0417 23:34:18.163372  6169 net.cpp:165] Memory required for data: 10171516092
I0417 23:34:18.163377  6169 layer_factory.hpp:77] Creating layer rpn/output_pool
I0417 23:34:18.163384  6169 net.cpp:100] Creating Layer rpn/output_pool
I0417 23:34:18.163388  6169 net.cpp:434] rpn/output_pool <- rpn/output_2
I0417 23:34:18.163393  6169 net.cpp:408] rpn/output_pool -> rpn/output_pool
I0417 23:34:18.164901  6169 net.cpp:150] Setting up rpn/output_pool
I0417 23:34:18.164912  6169 net.cpp:157] Top shape: 1 512 96 1 1 (49152)
I0417 23:34:18.164916  6169 net.cpp:165] Memory required for data: 10171712700
I0417 23:34:18.164919  6169 layer_factory.hpp:77] Creating layer rpn/output_pool_rpn/output_pool_0_split
I0417 23:34:18.164925  6169 net.cpp:100] Creating Layer rpn/output_pool_rpn/output_pool_0_split
I0417 23:34:18.164929  6169 net.cpp:434] rpn/output_pool_rpn/output_pool_0_split <- rpn/output_pool
I0417 23:34:18.164934  6169 net.cpp:408] rpn/output_pool_rpn/output_pool_0_split -> rpn/output_pool_rpn/output_pool_0_split_0
I0417 23:34:18.164940  6169 net.cpp:408] rpn/output_pool_rpn/output_pool_0_split -> rpn/output_pool_rpn/output_pool_0_split_1
I0417 23:34:18.164970  6169 net.cpp:150] Setting up rpn/output_pool_rpn/output_pool_0_split
I0417 23:34:18.164978  6169 net.cpp:157] Top shape: 1 512 96 1 1 (49152)
I0417 23:34:18.164981  6169 net.cpp:157] Top shape: 1 512 96 1 1 (49152)
I0417 23:34:18.164985  6169 net.cpp:165] Memory required for data: 10172105916
I0417 23:34:18.164988  6169 layer_factory.hpp:77] Creating layer rpn_cls_score
I0417 23:34:18.164997  6169 net.cpp:100] Creating Layer rpn_cls_score
I0417 23:34:18.165004  6169 net.cpp:434] rpn_cls_score <- rpn/output_pool_rpn/output_pool_0_split_0
I0417 23:34:18.165009  6169 net.cpp:408] rpn_cls_score -> rpn_cls_score
I0417 23:34:18.168072  6169 net.cpp:150] Setting up rpn_cls_score
I0417 23:34:18.168095  6169 net.cpp:157] Top shape: 1 74 96 1 1 (7104)
I0417 23:34:18.168098  6169 net.cpp:165] Memory required for data: 10172134332
I0417 23:34:18.168105  6169 layer_factory.hpp:77] Creating layer rpn_cls_score_rpn_cls_score_0_split
I0417 23:34:18.168110  6169 net.cpp:100] Creating Layer rpn_cls_score_rpn_cls_score_0_split
I0417 23:34:18.168114  6169 net.cpp:434] rpn_cls_score_rpn_cls_score_0_split <- rpn_cls_score
I0417 23:34:18.168119  6169 net.cpp:408] rpn_cls_score_rpn_cls_score_0_split -> rpn_cls_score_rpn_cls_score_0_split_0
I0417 23:34:18.168126  6169 net.cpp:408] rpn_cls_score_rpn_cls_score_0_split -> rpn_cls_score_rpn_cls_score_0_split_1
I0417 23:34:18.168164  6169 net.cpp:150] Setting up rpn_cls_score_rpn_cls_score_0_split
I0417 23:34:18.168170  6169 net.cpp:157] Top shape: 1 74 96 1 1 (7104)
I0417 23:34:18.168175  6169 net.cpp:157] Top shape: 1 74 96 1 1 (7104)
I0417 23:34:18.168179  6169 net.cpp:165] Memory required for data: 10172191164
I0417 23:34:18.168181  6169 layer_factory.hpp:77] Creating layer rpn_twin_pred
I0417 23:34:18.168193  6169 net.cpp:100] Creating Layer rpn_twin_pred
I0417 23:34:18.168200  6169 net.cpp:434] rpn_twin_pred <- rpn/output_pool_rpn/output_pool_0_split_1
I0417 23:34:18.168205  6169 net.cpp:408] rpn_twin_pred -> rpn_twin_pred
I0417 23:34:18.171823  6169 net.cpp:150] Setting up rpn_twin_pred
I0417 23:34:18.171838  6169 net.cpp:157] Top shape: 1 74 96 1 1 (7104)
I0417 23:34:18.171841  6169 net.cpp:165] Memory required for data: 10172219580
I0417 23:34:18.171849  6169 layer_factory.hpp:77] Creating layer rpn_twin_pred_rpn_twin_pred_0_split
I0417 23:34:18.171854  6169 net.cpp:100] Creating Layer rpn_twin_pred_rpn_twin_pred_0_split
I0417 23:34:18.171857  6169 net.cpp:434] rpn_twin_pred_rpn_twin_pred_0_split <- rpn_twin_pred
I0417 23:34:18.171862  6169 net.cpp:408] rpn_twin_pred_rpn_twin_pred_0_split -> rpn_twin_pred_rpn_twin_pred_0_split_0
I0417 23:34:18.171869  6169 net.cpp:408] rpn_twin_pred_rpn_twin_pred_0_split -> rpn_twin_pred_rpn_twin_pred_0_split_1
I0417 23:34:18.171903  6169 net.cpp:150] Setting up rpn_twin_pred_rpn_twin_pred_0_split
I0417 23:34:18.171911  6169 net.cpp:157] Top shape: 1 74 96 1 1 (7104)
I0417 23:34:18.171916  6169 net.cpp:157] Top shape: 1 74 96 1 1 (7104)
I0417 23:34:18.171921  6169 net.cpp:165] Memory required for data: 10172276412
I0417 23:34:18.171926  6169 layer_factory.hpp:77] Creating layer rpn_cls_score_reshape
I0417 23:34:18.171938  6169 net.cpp:100] Creating Layer rpn_cls_score_reshape
I0417 23:34:18.171944  6169 net.cpp:434] rpn_cls_score_reshape <- rpn_cls_score_rpn_cls_score_0_split_0
I0417 23:34:18.171949  6169 net.cpp:408] rpn_cls_score_reshape -> rpn_cls_score_reshape
I0417 23:34:18.171980  6169 net.cpp:150] Setting up rpn_cls_score_reshape
I0417 23:34:18.171989  6169 net.cpp:157] Top shape: 1 2 3552 1 1 (7104)
I0417 23:34:18.171993  6169 net.cpp:165] Memory required for data: 10172304828
I0417 23:34:18.171996  6169 layer_factory.hpp:77] Creating layer rpn_cls_score_reshape_rpn_cls_score_reshape_0_split
I0417 23:34:18.172001  6169 net.cpp:100] Creating Layer rpn_cls_score_reshape_rpn_cls_score_reshape_0_split
I0417 23:34:18.172006  6169 net.cpp:434] rpn_cls_score_reshape_rpn_cls_score_reshape_0_split <- rpn_cls_score_reshape
I0417 23:34:18.172011  6169 net.cpp:408] rpn_cls_score_reshape_rpn_cls_score_reshape_0_split -> rpn_cls_score_reshape_rpn_cls_score_reshape_0_split_0
I0417 23:34:18.172020  6169 net.cpp:408] rpn_cls_score_reshape_rpn_cls_score_reshape_0_split -> rpn_cls_score_reshape_rpn_cls_score_reshape_0_split_1
I0417 23:34:18.172027  6169 net.cpp:408] rpn_cls_score_reshape_rpn_cls_score_reshape_0_split -> rpn_cls_score_reshape_rpn_cls_score_reshape_0_split_2
I0417 23:34:18.172066  6169 net.cpp:150] Setting up rpn_cls_score_reshape_rpn_cls_score_reshape_0_split
I0417 23:34:18.172075  6169 net.cpp:157] Top shape: 1 2 3552 1 1 (7104)
I0417 23:34:18.172078  6169 net.cpp:157] Top shape: 1 2 3552 1 1 (7104)
I0417 23:34:18.172082  6169 net.cpp:157] Top shape: 1 2 3552 1 1 (7104)
I0417 23:34:18.172086  6169 net.cpp:165] Memory required for data: 10172390076
I0417 23:34:18.172088  6169 layer_factory.hpp:77] Creating layer rpn-data
I0417 23:34:18.174012  6169 net.cpp:100] Creating Layer rpn-data
I0417 23:34:18.174026  6169 net.cpp:434] rpn-data <- rpn_cls_score_rpn_cls_score_0_split_1
I0417 23:34:18.174032  6169 net.cpp:434] rpn-data <- gt_boxes_data_1_split_0
…
