…
stepsize: 350000
snapshot: 0
snapshot_prefix: "./experiments/activitynet/snapshot/activitynet"
average_loss: 100
iter_size: 1
I0413 02:45:41.750289 18645 solver.cpp:81] Creating training net from train_net file: ./experiments/activitynet/train.prototxt
I0413 02:45:41.751209 18645 net.cpp:58] Initializing net from parameters: 
name: "activitynet"
state {
  phase: TRAIN
}
layer {
  name: "data"
  type: "Python"
  top: "data"
  top: "gt_boxes"
  python_param {
    module: "roi_data_layer.layer"
    layer: "RoIDataLayer"
    param_str: "\'num_classes\': 100"
  }
}
layer {
  name: "conv1a"
  type: "Convolution"
  bottom: "data"
  top: "conv1a"
  param {
    lr_mult: 0
    decay_mult: 0
  }
  param {
    lr_mult: 0
    decay_mult: 0
  }
  convolution_param {
    num_output: 64
    pad: 1
    pad: 1
    pad: 1
    kernel_size: 3
    kernel_size: 3
    kernel_size: 3
    weight_filler {
      type: "gaussian"
      std: 0.01
    }
    bias_filler {
      type: "constant"
      value: 0
    }
  }
}
layer {
  name: "relu1a"
  type: "ReLU"
  bottom: "conv1a"
  top: "conv1a"
}
layer {
  name: "pool1"
  type: "Pooling"
  bottom: "conv1a"
  top: "pool1"
  pooling_param {
    pool: MAX
    kernel_size: 1
    kernel_size: 2
    kernel_size: 2
    stride: 1
    stride: 2
    stride: 2
  }
}
layer {
  name: "conv2a"
  type: "Convolution"
  bottom: "pool1"
  top: "conv2a"
  param {
    lr_mult: 0
    decay_mult: 0
  }
  param {
    lr_mult: 0
    decay_mult: 0
  }
  convolution_param {
    num_output: 128
    pad: 1
    pad: 1
    pad: 1
    kernel_size: 3
    kernel_size: 3
    kernel_size: 3
    weight_filler {
      type: "gaussian"
      std: 0.01
    }
    bias_filler {
      type: "constant"
      value: 1
    }
  }
}
layer {
  name: "relu2a"
  type: "ReLU"
  bottom: "conv2a"
  top: "conv2a"
}
layer {
  name: "pool2"
  type: "Pooling"
  bottom: "conv2a"
  top: "pool2"
  pooling_param {
    pool: MAX
    kernel_size: 2
    kernel_size: 2
    kernel_size: 2
    stride: 2
    stride: 2
    stride: 2
  }
}
layer {
  name: "conv3a"
  type: "Convolution"
  bottom: "pool2"
  top: "conv3a"
  param {
    lr_mult: 1
    decay_mult: 1
  }
  param {
    lr_mult: 2
    decay_mult: 0
  }
  convolution_param {
    num_output: 256
    pad: 1
    pad: 1
    pad: 1
    kernel_size: 3
    kernel_size: 3
    kernel_size: 3
    weight_filler {
      type: "gaussian"
      std: 0.01
    }
    bias_filler {
      type: "constant"
      value: 1
    }
  }
}
layer {
  name: "relu3a"
  type: "ReLU"
  bottom: "conv3a"
  top: "conv3a"
}
layer {
  name: "conv3b"
  type: "Convolution"
  bottom: "conv3a"
  top: "conv3b"
  param {
    lr_mult: 1
    decay_mult: 1
  }
  param {
    lr_mult: 2
    decay_mult: 0
  }
  convolution_param {
    num_output: 256
    pad: 1
    pad: 1
    pad: 1
    kernel_size: 3
    kernel_size: 3
    kernel_size: 3
    weight_filler {
      type: "gaussian"
      std: 0.01
    }
    bias_filler {
      type: "constant"
      value: 1
    }
  }
}
layer {
  name: "relu3b"
  type: "ReLU"
  bottom: "conv3b"
  top: "conv3b"
}
layer {
  name: "pool3"
  type: "Pooling"
  bottom: "conv3b"
  top: "pool3"
  pooling_param {
    pool: MAX
    kernel_size: 2
    kernel_size: 2
    kernel_size: 2
    stride: 2
    stride: 2
    stride: 2
  }
}
layer {
  name: "conv4a"
  type: "Convolution"
  bottom: "pool3"
  top: "conv4a"
  param {
    lr_mult: 1
    decay_mult: 1
  }
  param {
    lr_mult: 2
    decay_mult: 0
  }
  convolution_param {
    num_output: 512
    pad: 1
    pad: 1
    pad: 1
    kernel_size: 3
    kernel_size: 3
    kernel_size: 3
    weight_filler {
      type: "gaussian"
      std: 0.01
    }
    bias_filler {
      type: "constant"
      value: 1
    }
  }
}
layer {
  name: "relu4a"
  type: "ReLU"
  bottom: "conv4a"
  top: "conv4a"
}
layer {
  name: "conv4b"
  type: "Convolution"
  bottom: "conv4a"
  top: "conv4b"
  param {
    lr_mult: 1
    decay_mult: 1
  }
  param {
    lr_mult: 2
    decay_mult: 0
  }
  convolution_param {
    num_output: 512
    pad: 1
    pad: 1
    pad: 1
    kernel_size: 3
    kernel_size: 3
    kernel_size: 3
    weight_filler {
      type: "gaussian"
      std: 0.01
    }
    bias_filler {
      type: "constant"
      value: 1
    }
  }
}
layer {
  name: "relu4b"
  type: "ReLU"
  bottom: "conv4b"
  top: "conv4b"
}
layer {
  name: "pool4"
  type: "Pooling"
  bottom: "conv4b"
  top: "pool4"
  pooling_param {
    pool: MAX
    kernel_size: 2
    kernel_size: 2
    kernel_size: 2
    stride: 2
    stride: 2
    stride: 2
  }
}
layer {
  name: "conv5a"
  type: "Convolution"
  bottom: "pool4"
  top: "conv5a"
  param {
    lr_mult: 1
    decay_mult: 1
  }
  param {
    lr_mult: 2
    decay_mult: 0
  }
  convolution_param {
    num_output: 512
    pad: 1
    pad: 1
    pad: 1
    kernel_size: 3
    kernel_size: 3
    kernel_size: 3
    weight_filler {
      type: "gaussian"
      std: 0.01
    }
    bias_filler {
      type: "constant"
      value: 1
    }
  }
}
layer {
  name: "relu5a"
  type: "ReLU"
  bottom: "conv5a"
  top: "conv5a"
}
layer {
  name: "conv5b"
  type: "Convolution"
  bottom: "conv5a"
  top: "conv5b"
  param {
    lr_mult: 1
    decay_mult: 1
  }
  param {
    lr_mult: 2
    decay_mult: 0
  }
  convolution_param {
    num_output: 512
    pad: 1
    pad: 1
    pad: 1
    kernel_size: 3
    kernel_size: 3
    kernel_size: 3
    weight_filler {
      type: "gaussian"
      std: 0.01
    }
    bias_filler {
      type: "constant"
      value: 1
    }
  }
}
layer {
  name: "relu5b"
  type: "ReLU"
  bottom: "conv5b"
  top: "conv5b"
}
layer {
  name: "rpn_conv/3x3"
  type: "Convolution"
  bottom: "conv5b"
  top: "rpn/output"
  param {
    lr_mult: 1
    decay_mult: 1
  }
  param {
    lr_mult: 2
    decay_mult: 0
  }
  convolution_param {
    num_output: 512
    pad: 1
    pad: 1
    pad: 1
    kernel_size: 3
    kernel_size: 3
    kernel_size: 3
    stride: 1
    stride: 2
    stride: 2
    weight_filler {
      type: "gaussian"
      std: 0.01
    }
    bias_filler {
      type: "constant"
      value: 0
    }
  }
}
layer {
  name: "rpn_relu/3x3"
  type: "ReLU"
  bottom: "rpn/output"
  top: "rpn/output"
}
layer {
  name: "rpn_conv/3x3_2"
  type: "Convolution"
  bottom: "rpn/output"
  top: "rpn/output_2"
  param {
    lr_mult: 1
    decay_mult: 1
  }
  param {
    lr_mult: 2
    decay_mult: 0
  }
  convolution_param {
    num_output: 512
    pad: 1
    pad: 1
    pad: 1
    kernel_size: 3
    kernel_size: 3
    kernel_size: 3
    stride: 1
    stride: 2
    stride: 2
    weight_filler {
      type: "gaussian"
      std: 0.01
    }
    bias_filler {
      type: "constant"
      value: 0
    }
  }
}
layer {
  name: "rpn_relu/3x3_2"
  type: "ReLU"
  bottom: "rpn/output_2"
  top: "rpn/output_2"
}
layer {
  name: "rpn/output_pool"
  type: "Pooling"
  bottom: "rpn/output_2"
  top: "rpn/output_pool"
  pooling_param {
    pool: MAX
    kernel_size: 1
    kernel_size: 2
    kernel_size: 2
  }
}
layer {
  name: "rpn_cls_score"
  type: "Convolution"
  bottom: "rpn/output_pool"
  top: "rpn_cls_score"
  param {
    lr_mult: 1
    decay_mult: 1
  }
  param {
    lr_mult: 2
    decay_mult: 0
  }
  convolution_param {
    num_output: 74
    kernel_size: 1
    kernel_size: 1
    kernel_size: 1
    weight_filler {
      type: "gaussian"
      std: 0.01
    }
    bias_filler {
      type: "constant"
      value: 0
    }
  }
}
layer {
  name: "rpn_twin_pred"
  type: "Convolution"
  bottom: "rpn/output_pool"
  top: "rpn_twin_pred"
  param {
    lr_mult: 1
    decay_mult: 1
  }
  param {
    lr_mult: 2
    decay_mult: 0
  }
  convolution_param {
    num_output: 74
    kernel_size: 1
    kernel_size: 1
    kernel_size: 1
    weight_filler {
      type: "gaussian"
      std: 0.01
    }
    bias_filler {
      type: "constant"
      value: 0
    }
  }
}
layer {
  name: "rpn_cls_score_reshape"
  type: "Reshape"
  bottom: "rpn_cls_score"
  top: "rpn_cls_score_reshape"
  reshape_param {
    shape {
      dim: 0
      dim: 2
      dim: -1
      dim: 0
      dim: 0
    }
  }
}
layer {
  name: "rpn-data"
  type: "Python"
  bottom: "rpn_cls_score"
  bottom: "gt_boxes"
  bottom: "data"
  top: "rpn_labels"
  top: "rpn_twin_targets"
  top: "rpn_twin_inside_weights"
  top: "rpn_twin_outside_weights"
  python_param {
    module: "rpn.anchor_target_layer"
    layer: "AnchorTargetLayer"
    param_str: "\'feat_stride\': 8 \n\'scales\': !!python/tuple [1,1.25, 1.5,1.75, 2,2.5, 3,3.5, 4,4.5, 5,5.5, 6,7, 8,9,10,11,12,14,16,18,20,22,24,28,32,36,40,44,52,60,68,76,84,92,100]"
  }
}
layer {
  name: "rpn_loss_cls"
  type: "SoftmaxWithLoss"
  bottom: "rpn_cls_score_reshape"
  bottom: "rpn_labels"
  top: "rpn_cls_loss"
  loss_weight: 1
  propagate_down: true
  propagate_down: false
  loss_param {
    ignore_label: -1
    normalize: true
  }
}
layer {
  name: "rpn_loss_twin"
  type: "SmoothL1Loss"
  bottom: "rpn_twin_pred"
  bottom: "rpn_twin_targets"
  bottom: "rpn_twin_inside_weights"
  bottom: "rpn_twin_outside_weights"
  top: "rpn_loss_twin"
  loss_weight: 1
  smooth_l1_loss_param {
    sigma: 3
  }
}
layer {
  name: "rpn_accuarcy"
  type: "Accuracy"
  bottom: "rpn_cls_score_reshape"
  bottom: "rpn_labels"
  top: "rpn_accuarcy"
  top: "rpn_accuarcy_class"
  propagate_down: false
  propagate_down: false
  accuracy_param {
    ignore_label: -1
  }
}
layer {
  name: "rpn_cls_prob"
  type: "Softmax"
  bottom: "rpn_cls_score_reshape"
  top: "rpn_cls_prob"
}
layer {
  name: "rpn_cls_prob_reshape"
  type: "Reshape"
  bottom: "rpn_cls_prob"
  top: "rpn_cls_prob_reshape"
  reshape_param {
    shape {
      dim: 0
      dim: 74
      dim: -1
      dim: 0
      dim: 0
    }
  }
}
layer {
  name: "proposal"
  type: "Python"
  bottom: "rpn_cls_prob_reshape"
  bottom: "rpn_twin_pred"
  top: "rpn_rois"
  include {
    phase: TRAIN
  }
  python_param {
    module: "rpn.proposal_layer"
    layer: "ProposalLayer"
    param_str: "\'feat_stride\': 8 \n\'scales\': !!python/tuple [1,1.25, 1.5,1.75, 2,2.5, 3,3.5, 4,4.5, 5,5.5, 6,7, 8,9,10,11,12,14,16,18,20,22,24,28,32,36,40,44,52,60,68,76,84,92,100]"
  }
}
layer {
  name: "roi-data"
  type: "Python"
  bottom: "rpn_rois"
  bottom: "gt_boxes"
  top: "rois"
  top: "labels"
  top: "twin_targets"
  top: "twin_inside_weights"
  top: "twin_outside_weights"
  python_param {
    module: "rpn.proposal_target_layer"
    layer: "ProposalTargetLayer"
    param_str: "\'num_classes\': 201"
  }
}
layer {
  name: "roi_pool5"
  type: "ROIPooling"
  bottom: "conv5b"
  bottom: "rois"
  top: "pool5"
  roi_pooling_param {
    pooled_h: 4
    pooled_w: 4
    spatial_scale: 0.0625
    pooled_l: 1
    temporal_scale: 0.125
  }
}
layer {
  name: "fc6"
  type: "InnerProduct"
  bottom: "pool5"
  top: "fc6"
  param {
    lr_mult: 1
    decay_mult: 1
  }
  param {
    lr_mult: 2
    decay_mult: 0
  }
  inner_product_param {
    num_output: 4096
    weight_filler {
      type: "gaussian"
      std: 0.005
    }
    bias_filler {
      type: "constant"
      value: 1
    }
  }
}
layer {
  name: "relu6"
  type: "ReLU"
  bottom: "fc6"
  top: "fc6"
}
layer {
  name: "drop6"
  type: "Dropout"
  bottom: "fc6"
  top: "fc6"
  dropout_param {
    dropout_ratio: 0.5
  }
}
layer {
  name: "cls_score"
  type: "InnerProduct"
  bottom: "fc6"
  top: "cls_score"
  param {
    lr_mult: 1
    decay_mult: 1
  }
  param {
    lr_mult: 2
    decay_mult: 0
  }
  inner_product_param {
    num_output: 201
    weight_filler {
      type: "gaussian"
      std: 0.01
    }
    bias_filler {
      type: "constant"
      value: 0
    }
  }
}
layer {
  name: "twin_pred"
  type: "InnerProduct"
  bottom: "fc6"
  top: "twin_pred"
  param {
    lr_mult: 1
    decay_mult: 1
  }
  param {
    lr_mult: 2
    decay_mult: 0
  }
  inner_product_param {
    num_output: 402
    weight_filler {
      type: "gaussian"
      std: 0.001
    }
    bias_filler {
      type: "constant"
      value: 0
    }
  }
}
layer {
  name: "loss_cls"
  type: "SoftmaxWithLoss"
  bottom: "cls_score"
  bottom: "labels"
  top: "loss_cls"
  loss_weight: 1
  propagate_down: true
  propagate_down: false
}
layer {
  name: "loss_twin"
  type: "SmoothL1Loss"
  bottom: "twin_pred"
  bottom: "twin_targets"
  bottom: "twin_inside_weights"
  bottom: "twin_outside_weights"
  top: "loss_twin"
  loss_weight: 1
}
layer {
  name: "accuarcy"
  type: "Accuracy"
  bottom: "cls_score"
  bottom: "labels"
  top: "accuarcy"
  propagate_down: false
  propagate_down: false
  accuracy_param {
    ignore_label: -1
  }
}
I0413 02:45:41.752367 18645 layer_factory.hpp:77] Creating layer data
I0413 02:45:41.884054 18645 net.cpp:100] Creating Layer data
I0413 02:45:41.906743 18645 net.cpp:408] data -> data
I0413 02:45:41.907202 18645 net.cpp:408] data -> gt_boxes
RoiDataLayer: name_to_top: {'gt_windows': 1, 'data': 0}
I0413 02:45:41.955515 18645 net.cpp:150] Setting up data
I0413 02:45:41.955543 18645 net.cpp:157] Top shape: 1 3 768 112 112 (28901376)
I0413 02:45:41.955551 18645 net.cpp:157] Top shape: 1 3 (3)
I0413 02:45:41.955555 18645 net.cpp:165] Memory required for data: 115605516
I0413 02:45:41.955562 18645 layer_factory.hpp:77] Creating layer data_data_0_split
I0413 02:45:41.955579 18645 net.cpp:100] Creating Layer data_data_0_split
I0413 02:45:41.955586 18645 net.cpp:434] data_data_0_split <- data
I0413 02:45:41.955595 18645 net.cpp:408] data_data_0_split -> data_data_0_split_0
I0413 02:45:41.955610 18645 net.cpp:408] data_data_0_split -> data_data_0_split_1
I0413 02:45:41.955662 18645 net.cpp:150] Setting up data_data_0_split
I0413 02:45:41.955672 18645 net.cpp:157] Top shape: 1 3 768 112 112 (28901376)
I0413 02:45:41.955677 18645 net.cpp:157] Top shape: 1 3 768 112 112 (28901376)
I0413 02:45:41.955682 18645 net.cpp:165] Memory required for data: 346816524
I0413 02:45:41.955687 18645 layer_factory.hpp:77] Creating layer gt_boxes_data_1_split
I0413 02:45:41.955696 18645 net.cpp:100] Creating Layer gt_boxes_data_1_split
I0413 02:45:41.955700 18645 net.cpp:434] gt_boxes_data_1_split <- gt_boxes
I0413 02:45:41.955708 18645 net.cpp:408] gt_boxes_data_1_split -> gt_boxes_data_1_split_0
I0413 02:45:41.955716 18645 net.cpp:408] gt_boxes_data_1_split -> gt_boxes_data_1_split_1
I0413 02:45:41.955765 18645 net.cpp:150] Setting up gt_boxes_data_1_split
I0413 02:45:41.955773 18645 net.cpp:157] Top shape: 1 3 (3)
I0413 02:45:41.955778 18645 net.cpp:157] Top shape: 1 3 (3)
I0413 02:45:41.955782 18645 net.cpp:165] Memory required for data: 346816548
I0413 02:45:41.955786 18645 layer_factory.hpp:77] Creating layer conv1a
I0413 02:45:41.955803 18645 net.cpp:100] Creating Layer conv1a
I0413 02:45:41.955809 18645 net.cpp:434] conv1a <- data_data_0_split_0
I0413 02:45:41.955816 18645 net.cpp:408] conv1a -> conv1a
I0413 02:45:42.045061 18645 net.cpp:150] Setting up conv1a
I0413 02:45:42.045106 18645 net.cpp:157] Top shape: 1 64 768 112 112 (616562688)
I0413 02:45:42.045114 18645 net.cpp:165] Memory required for data: 2813067300
I0413 02:45:42.045150 18645 layer_factory.hpp:77] Creating layer relu1a
I0413 02:45:42.045167 18645 net.cpp:100] Creating Layer relu1a
I0413 02:45:42.045176 18645 net.cpp:434] relu1a <- conv1a
I0413 02:45:42.045186 18645 net.cpp:395] relu1a -> conv1a (in-place)
I0413 02:45:42.045200 18645 net.cpp:150] Setting up relu1a
I0413 02:45:42.045208 18645 net.cpp:157] Top shape: 1 64 768 112 112 (616562688)
I0413 02:45:42.045212 18645 net.cpp:165] Memory required for data: 5279318052
I0413 02:45:42.045220 18645 layer_factory.hpp:77] Creating layer pool1
I0413 02:45:42.045228 18645 net.cpp:100] Creating Layer pool1
I0413 02:45:42.045233 18645 net.cpp:434] pool1 <- conv1a
I0413 02:45:42.045243 18645 net.cpp:408] pool1 -> pool1
I0413 02:45:42.045372 18645 net.cpp:150] Setting up pool1
I0413 02:45:42.045382 18645 net.cpp:157] Top shape: 1 64 768 56 56 (154140672)
I0413 02:45:42.045387 18645 net.cpp:165] Memory required for data: 5895880740
I0413 02:45:42.045392 18645 layer_factory.hpp:77] Creating layer conv2a
I0413 02:45:42.045415 18645 net.cpp:100] Creating Layer conv2a
I0413 02:45:42.045421 18645 net.cpp:434] conv2a <- pool1
I0413 02:45:42.045430 18645 net.cpp:408] conv2a -> conv2a
I0413 02:45:42.072419 18645 net.cpp:150] Setting up conv2a
I0413 02:45:42.088439 18645 net.cpp:157] Top shape: 1 128 768 56 56 (308281344)
I0413 02:45:42.088724 18645 net.cpp:165] Memory required for data: 7129006116
I0413 02:45:42.088845 18645 layer_factory.hpp:77] Creating layer relu2a
I0413 02:45:42.088943 18645 net.cpp:100] Creating Layer relu2a
I0413 02:45:42.089010 18645 net.cpp:434] relu2a <- conv2a
I0413 02:45:42.089092 18645 net.cpp:395] relu2a -> conv2a (in-place)
I0413 02:45:42.089167 18645 net.cpp:150] Setting up relu2a
I0413 02:45:42.089231 18645 net.cpp:157] Top shape: 1 128 768 56 56 (308281344)
I0413 02:45:42.089284 18645 net.cpp:165] Memory required for data: 8362131492
I0413 02:45:42.089341 18645 layer_factory.hpp:77] Creating layer pool2
I0413 02:45:42.089426 18645 net.cpp:100] Creating Layer pool2
I0413 02:45:42.089489 18645 net.cpp:434] pool2 <- conv2a
I0413 02:45:42.089556 18645 net.cpp:408] pool2 -> pool2
I0413 02:45:42.089856 18645 net.cpp:150] Setting up pool2
I0413 02:45:42.089951 18645 net.cpp:157] Top shape: 1 128 384 28 28 (38535168)
I0413 02:45:42.090004 18645 net.cpp:165] Memory required for data: 8516272164
I0413 02:45:42.090060 18645 layer_factory.hpp:77] Creating layer conv3a
I0413 02:45:42.090135 18645 net.cpp:100] Creating Layer conv3a
I0413 02:45:42.090190 18645 net.cpp:434] conv3a <- pool2
I0413 02:45:42.090250 18645 net.cpp:408] conv3a -> conv3a
I0413 02:45:42.147518 18645 net.cpp:150] Setting up conv3a
I0413 02:45:42.152246 18645 net.cpp:157] Top shape: 1 256 384 28 28 (77070336)
I0413 02:45:42.152483 18645 net.cpp:165] Memory required for data: 8824553508
I0413 02:45:42.152567 18645 layer_factory.hpp:77] Creating layer relu3a
I0413 02:45:42.152633 18645 net.cpp:100] Creating Layer relu3a
I0413 02:45:42.152689 18645 net.cpp:434] relu3a <- conv3a
I0413 02:45:42.152746 18645 net.cpp:395] relu3a -> conv3a (in-place)
I0413 02:45:42.152810 18645 net.cpp:150] Setting up relu3a
I0413 02:45:42.152868 18645 net.cpp:157] Top shape: 1 256 384 28 28 (77070336)
I0413 02:45:42.152925 18645 net.cpp:165] Memory required for data: 9132834852
I0413 02:45:42.152982 18645 layer_factory.hpp:77] Creating layer conv3b
I0413 02:45:42.153057 18645 net.cpp:100] Creating Layer conv3b
I0413 02:45:42.153111 18645 net.cpp:434] conv3b <- conv3a
I0413 02:45:42.153165 18645 net.cpp:408] conv3b -> conv3b
I0413 02:45:42.461871 18645 net.cpp:150] Setting up conv3b
I0413 02:45:42.464015 18645 net.cpp:157] Top shape: 1 256 384 28 28 (77070336)
I0413 02:45:42.464076 18645 net.cpp:165] Memory required for data: 9441116196
I0413 02:45:42.464124 18645 layer_factory.hpp:77] Creating layer relu3b
I0413 02:45:42.464191 18645 net.cpp:100] Creating Layer relu3b
I0413 02:45:42.464246 18645 net.cpp:434] relu3b <- conv3b
I0413 02:45:42.464283 18645 net.cpp:395] relu3b -> conv3b (in-place)
I0413 02:45:42.464421 18645 net.cpp:150] Setting up relu3b
I0413 02:45:42.464470 18645 net.cpp:157] Top shape: 1 256 384 28 28 (77070336)
I0413 02:45:42.464515 18645 net.cpp:165] Memory required for data: 9749397540
I0413 02:45:42.464542 18645 layer_factory.hpp:77] Creating layer pool3
I0413 02:45:42.464586 18645 net.cpp:100] Creating Layer pool3
I0413 02:45:42.464632 18645 net.cpp:434] pool3 <- conv3b
I0413 02:45:42.464673 18645 net.cpp:408] pool3 -> pool3
I0413 02:45:42.464825 18645 net.cpp:150] Setting up pool3
I0413 02:45:42.465077 18645 net.cpp:157] Top shape: 1 256 192 14 14 (9633792)
I0413 02:45:42.465114 18645 net.cpp:165] Memory required for data: 9787932708
I0413 02:45:42.465143 18645 layer_factory.hpp:77] Creating layer conv4a
I0413 02:45:42.465188 18645 net.cpp:100] Creating Layer conv4a
I0413 02:45:42.465248 18645 net.cpp:434] conv4a <- pool3
I0413 02:45:42.465289 18645 net.cpp:408] conv4a -> conv4a
I0413 02:45:42.741497 18645 net.cpp:150] Setting up conv4a
I0413 02:45:42.741555 18645 net.cpp:157] Top shape: 1 512 192 14 14 (19267584)
I0413 02:45:42.741560 18645 net.cpp:165] Memory required for data: 9865003044
I0413 02:45:42.741590 18645 layer_factory.hpp:77] Creating layer relu4a
I0413 02:45:42.741608 18645 net.cpp:100] Creating Layer relu4a
I0413 02:45:42.741618 18645 net.cpp:434] relu4a <- conv4a
I0413 02:45:42.741631 18645 net.cpp:395] relu4a -> conv4a (in-place)
I0413 02:45:42.741648 18645 net.cpp:150] Setting up relu4a
I0413 02:45:42.741657 18645 net.cpp:157] Top shape: 1 512 192 14 14 (19267584)
I0413 02:45:42.741664 18645 net.cpp:165] Memory required for data: 9942073380
I0413 02:45:42.741673 18645 layer_factory.hpp:77] Creating layer conv4b
I0413 02:45:42.741706 18645 net.cpp:100] Creating Layer conv4b
I0413 02:45:42.741713 18645 net.cpp:434] conv4b <- conv4a
I0413 02:45:42.741719 18645 net.cpp:408] conv4b -> conv4b
I0413 02:45:43.103148 18645 net.cpp:150] Setting up conv4b
I0413 02:45:43.103186 18645 net.cpp:157] Top shape: 1 512 192 14 14 (19267584)
I0413 02:45:43.103191 18645 net.cpp:165] Memory required for data: 10019143716
I0413 02:45:43.103202 18645 layer_factory.hpp:77] Creating layer relu4b
I0413 02:45:43.103214 18645 net.cpp:100] Creating Layer relu4b
I0413 02:45:43.103219 18645 net.cpp:434] relu4b <- conv4b
I0413 02:45:43.103229 18645 net.cpp:395] relu4b -> conv4b (in-place)
I0413 02:45:43.103238 18645 net.cpp:150] Setting up relu4b
I0413 02:45:43.103243 18645 net.cpp:157] Top shape: 1 512 192 14 14 (19267584)
I0413 02:45:43.103247 18645 net.cpp:165] Memory required for data: 10096214052
I0413 02:45:43.103251 18645 layer_factory.hpp:77] Creating layer pool4
I0413 02:45:43.103261 18645 net.cpp:100] Creating Layer pool4
I0413 02:45:43.103266 18645 net.cpp:434] pool4 <- conv4b
I0413 02:45:43.103272 18645 net.cpp:408] pool4 -> pool4
I0413 02:45:43.103332 18645 net.cpp:150] Setting up pool4
I0413 02:45:43.103339 18645 net.cpp:157] Top shape: 1 512 96 7 7 (2408448)
I0413 02:45:43.103343 18645 net.cpp:165] Memory required for data: 10105847844
I0413 02:45:43.103348 18645 layer_factory.hpp:77] Creating layer conv5a
I0413 02:45:43.103360 18645 net.cpp:100] Creating Layer conv5a
I0413 02:45:43.103365 18645 net.cpp:434] conv5a <- pool4
I0413 02:45:43.103371 18645 net.cpp:408] conv5a -> conv5a
I0413 02:45:43.837272 18645 net.cpp:150] Setting up conv5a
I0413 02:45:43.843088 18645 net.cpp:157] Top shape: 1 512 96 7 7 (2408448)
I0413 02:45:43.843451 18645 net.cpp:165] Memory required for data: 10115481636
I0413 02:45:43.843575 18645 layer_factory.hpp:77] Creating layer relu5a
I0413 02:45:43.843750 18645 net.cpp:100] Creating Layer relu5a
I0413 02:45:43.843920 18645 net.cpp:434] relu5a <- conv5a
I0413 02:45:43.844041 18645 net.cpp:395] relu5a -> conv5a (in-place)
I0413 02:45:43.844194 18645 net.cpp:150] Setting up relu5a
I0413 02:45:43.844363 18645 net.cpp:157] Top shape: 1 512 96 7 7 (2408448)
I0413 02:45:43.844457 18645 net.cpp:165] Memory required for data: 10125115428
I0413 02:45:43.844539 18645 layer_factory.hpp:77] Creating layer conv5b
I0413 02:45:43.844642 18645 net.cpp:100] Creating Layer conv5b
I0413 02:45:43.844816 18645 net.cpp:434] conv5b <- conv5a
I0413 02:45:43.844921 18645 net.cpp:408] conv5b -> conv5b
I0413 02:45:44.283167 18645 net.cpp:150] Setting up conv5b
I0413 02:45:44.296761 18645 net.cpp:157] Top shape: 1 512 96 7 7 (2408448)
I0413 02:45:44.297024 18645 net.cpp:165] Memory required for data: 10134749220
I0413 02:45:44.297101 18645 layer_factory.hpp:77] Creating layer relu5b
I0413 02:45:44.297215 18645 net.cpp:100] Creating Layer relu5b
I0413 02:45:44.297312 18645 net.cpp:434] relu5b <- conv5b
I0413 02:45:44.297397 18645 net.cpp:395] relu5b -> conv5b (in-place)
I0413 02:45:44.297518 18645 net.cpp:150] Setting up relu5b
I0413 02:45:44.297617 18645 net.cpp:157] Top shape: 1 512 96 7 7 (2408448)
I0413 02:45:44.297683 18645 net.cpp:165] Memory required for data: 10144383012
I0413 02:45:44.297744 18645 layer_factory.hpp:77] Creating layer conv5b_relu5b_0_split
I0413 02:45:44.297807 18645 net.cpp:100] Creating Layer conv5b_relu5b_0_split
I0413 02:45:44.297881 18645 net.cpp:434] conv5b_relu5b_0_split <- conv5b
I0413 02:45:44.297943 18645 net.cpp:408] conv5b_relu5b_0_split -> conv5b_relu5b_0_split_0
I0413 02:45:44.298024 18645 net.cpp:408] conv5b_relu5b_0_split -> conv5b_relu5b_0_split_1
I0413 02:45:44.298254 18645 net.cpp:150] Setting up conv5b_relu5b_0_split
I0413 02:45:44.298858 18645 net.cpp:157] Top shape: 1 512 96 7 7 (2408448)
I0413 02:45:44.298951 18645 net.cpp:157] Top shape: 1 512 96 7 7 (2408448)
I0413 02:45:44.299012 18645 net.cpp:165] Memory required for data: 10163650596
I0413 02:45:44.299058 18645 layer_factory.hpp:77] Creating layer rpn_conv/3x3
I0413 02:45:44.299123 18645 net.cpp:100] Creating Layer rpn_conv/3x3
I0413 02:45:44.299248 18645 net.cpp:434] rpn_conv/3x3 <- conv5b_relu5b_0_split_0
I0413 02:45:44.299319 18645 net.cpp:408] rpn_conv/3x3 -> rpn/output
I0413 02:45:45.143605 18645 net.cpp:150] Setting up rpn_conv/3x3
I0413 02:45:45.143676 18645 net.cpp:157] Top shape: 1 512 96 4 4 (786432)
I0413 02:45:45.143697 18645 net.cpp:165] Memory required for data: 10166796324
I0413 02:45:45.143724 18645 layer_factory.hpp:77] Creating layer rpn_relu/3x3
I0413 02:45:45.143759 18645 net.cpp:100] Creating Layer rpn_relu/3x3
I0413 02:45:45.143777 18645 net.cpp:434] rpn_relu/3x3 <- rpn/output
I0413 02:45:45.143801 18645 net.cpp:395] rpn_relu/3x3 -> rpn/output (in-place)
I0413 02:45:45.143827 18645 net.cpp:150] Setting up rpn_relu/3x3
I0413 02:45:45.143847 18645 net.cpp:157] Top shape: 1 512 96 4 4 (786432)
I0413 02:45:45.143863 18645 net.cpp:165] Memory required for data: 10169942052
I0413 02:45:45.143880 18645 layer_factory.hpp:77] Creating layer rpn_conv/3x3_2
I0413 02:45:45.143909 18645 net.cpp:100] Creating Layer rpn_conv/3x3_2
I0413 02:45:45.143927 18645 net.cpp:434] rpn_conv/3x3_2 <- rpn/output
I0413 02:45:45.143949 18645 net.cpp:408] rpn_conv/3x3_2 -> rpn/output_2
I0413 02:45:45.935773 18645 net.cpp:150] Setting up rpn_conv/3x3_2
I0413 02:45:45.935858 18645 net.cpp:157] Top shape: 1 512 96 2 2 (196608)
I0413 02:45:45.935873 18645 net.cpp:165] Memory required for data: 10170728484
I0413 02:45:45.935894 18645 layer_factory.hpp:77] Creating layer rpn_relu/3x3_2
I0413 02:45:45.935915 18645 net.cpp:100] Creating Layer rpn_relu/3x3_2
I0413 02:45:45.935930 18645 net.cpp:434] rpn_relu/3x3_2 <- rpn/output_2
I0413 02:45:45.935950 18645 net.cpp:395] rpn_relu/3x3_2 -> rpn/output_2 (in-place)
I0413 02:45:45.935971 18645 net.cpp:150] Setting up rpn_relu/3x3_2
I0413 02:45:45.935987 18645 net.cpp:157] Top shape: 1 512 96 2 2 (196608)
I0413 02:45:45.935999 18645 net.cpp:165] Memory required for data: 10171514916
I0413 02:45:45.936012 18645 layer_factory.hpp:77] Creating layer rpn/output_pool
I0413 02:45:45.936029 18645 net.cpp:100] Creating Layer rpn/output_pool
I0413 02:45:45.936043 18645 net.cpp:434] rpn/output_pool <- rpn/output_2
I0413 02:45:45.936062 18645 net.cpp:408] rpn/output_pool -> rpn/output_pool
I0413 02:45:45.936136 18645 net.cpp:150] Setting up rpn/output_pool
I0413 02:45:45.936156 18645 net.cpp:157] Top shape: 1 512 96 1 1 (49152)
I0413 02:45:45.936168 18645 net.cpp:165] Memory required for data: 10171711524
I0413 02:45:45.936182 18645 layer_factory.hpp:77] Creating layer rpn/output_pool_rpn/output_pool_0_split
I0413 02:45:45.936199 18645 net.cpp:100] Creating Layer rpn/output_pool_rpn/output_pool_0_split
I0413 02:45:45.936223 18645 net.cpp:434] rpn/output_pool_rpn/output_pool_0_split <- rpn/output_pool
I0413 02:45:45.936240 18645 net.cpp:408] rpn/output_pool_rpn/output_pool_0_split -> rpn/output_pool_rpn/output_pool_0_split_0
I0413 02:45:45.936259 18645 net.cpp:408] rpn/output_pool_rpn/output_pool_0_split -> rpn/output_pool_rpn/output_pool_0_split_1
I0413 02:45:45.936359 18645 net.cpp:150] Setting up rpn/output_pool_rpn/output_pool_0_split
I0413 02:45:45.936383 18645 net.cpp:157] Top shape: 1 512 96 1 1 (49152)
I0413 02:45:45.936398 18645 net.cpp:157] Top shape: 1 512 96 1 1 (49152)
I0413 02:45:45.936410 18645 net.cpp:165] Memory required for data: 10172104740
I0413 02:45:45.936424 18645 layer_factory.hpp:77] Creating layer rpn_cls_score
I0413 02:45:45.936445 18645 net.cpp:100] Creating Layer rpn_cls_score
I0413 02:45:45.936460 18645 net.cpp:434] rpn_cls_score <- rpn/output_pool_rpn/output_pool_0_split_0
I0413 02:45:45.936478 18645 net.cpp:408] rpn_cls_score -> rpn_cls_score
I0413 02:45:45.937322 18645 net.cpp:150] Setting up rpn_cls_score
I0413 02:45:45.937345 18645 net.cpp:157] Top shape: 1 74 96 1 1 (7104)
I0413 02:45:45.937358 18645 net.cpp:165] Memory required for data: 10172133156
I0413 02:45:45.937376 18645 layer_factory.hpp:77] Creating layer rpn_cls_score_rpn_cls_score_0_split
I0413 02:45:45.937393 18645 net.cpp:100] Creating Layer rpn_cls_score_rpn_cls_score_0_split
I0413 02:45:45.937407 18645 net.cpp:434] rpn_cls_score_rpn_cls_score_0_split <- rpn_cls_score
I0413 02:45:45.937422 18645 net.cpp:408] rpn_cls_score_rpn_cls_score_0_split -> rpn_cls_score_rpn_cls_score_0_split_0
I0413 02:45:45.937439 18645 net.cpp:408] rpn_cls_score_rpn_cls_score_0_split -> rpn_cls_score_rpn_cls_score_0_split_1
I0413 02:45:45.937511 18645 net.cpp:150] Setting up rpn_cls_score_rpn_cls_score_0_split
I0413 02:45:45.937531 18645 net.cpp:157] Top shape: 1 74 96 1 1 (7104)
I0413 02:45:45.937546 18645 net.cpp:157] Top shape: 1 74 96 1 1 (7104)
I0413 02:45:45.937558 18645 net.cpp:165] Memory required for data: 10172189988
I0413 02:45:45.937572 18645 layer_factory.hpp:77] Creating layer rpn_twin_pred
I0413 02:45:45.937608 18645 net.cpp:100] Creating Layer rpn_twin_pred
I0413 02:45:45.937628 18645 net.cpp:434] rpn_twin_pred <- rpn/output_pool_rpn/output_pool_0_split_1
I0413 02:45:45.937644 18645 net.cpp:408] rpn_twin_pred -> rpn_twin_pred
I0413 02:45:45.938478 18645 net.cpp:150] Setting up rpn_twin_pred
I0413 02:45:45.938501 18645 net.cpp:157] Top shape: 1 74 96 1 1 (7104)
I0413 02:45:45.938514 18645 net.cpp:165] Memory required for data: 10172218404
I0413 02:45:45.938530 18645 layer_factory.hpp:77] Creating layer rpn_twin_pred_rpn_twin_pred_0_split
I0413 02:45:45.938546 18645 net.cpp:100] Creating Layer rpn_twin_pred_rpn_twin_pred_0_split
I0413 02:45:45.938561 18645 net.cpp:434] rpn_twin_pred_rpn_twin_pred_0_split <- rpn_twin_pred
I0413 02:45:45.938578 18645 net.cpp:408] rpn_twin_pred_rpn_twin_pred_0_split -> rpn_twin_pred_rpn_twin_pred_0_split_0
I0413 02:45:45.938597 18645 net.cpp:408] rpn_twin_pred_rpn_twin_pred_0_split -> rpn_twin_pred_rpn_twin_pred_0_split_1
I0413 02:45:45.938666 18645 net.cpp:150] Setting up rpn_twin_pred_rpn_twin_pred_0_split
I0413 02:45:45.938686 18645 net.cpp:157] Top shape: 1 74 96 1 1 (7104)
I0413 02:45:45.938700 18645 net.cpp:157] Top shape: 1 74 96 1 1 (7104)
I0413 02:45:45.938714 18645 net.cpp:165] Memory required for data: 10172275236
I0413 02:45:45.938726 18645 layer_factory.hpp:77] Creating layer rpn_cls_score_reshape
I0413 02:45:45.938747 18645 net.cpp:100] Creating Layer rpn_cls_score_reshape
I0413 02:45:45.938761 18645 net.cpp:434] rpn_cls_score_reshape <- rpn_cls_score_rpn_cls_score_0_split_0
I0413 02:45:45.938777 18645 net.cpp:408] rpn_cls_score_reshape -> rpn_cls_score_reshape
I0413 02:45:45.938830 18645 net.cpp:150] Setting up rpn_cls_score_reshape
I0413 02:45:45.938849 18645 net.cpp:157] Top shape: 1 2 3552 1 1 (7104)
I0413 02:45:45.938863 18645 net.cpp:165] Memory required for data: 10172303652
I0413 02:45:45.938875 18645 layer_factory.hpp:77] Creating layer rpn_cls_score_reshape_rpn_cls_score_reshape_0_split
I0413 02:45:45.938896 18645 net.cpp:100] Creating Layer rpn_cls_score_reshape_rpn_cls_score_reshape_0_split
I0413 02:45:45.938911 18645 net.cpp:434] rpn_cls_score_reshape_rpn_cls_score_reshape_0_split <- rpn_cls_score_reshape
I0413 02:45:45.938930 18645 net.cpp:408] rpn_cls_score_reshape_rpn_cls_score_reshape_0_split -> rpn_cls_score_reshape_rpn_cls_score_reshape_0_split_0
I0413 02:45:45.938956 18645 net.cpp:408] rpn_cls_score_reshape_rpn_cls_score_reshape_0_split -> rpn_cls_score_reshape_rpn_cls_score_reshape_0_split_1
I0413 02:45:45.938976 18645 net.cpp:408] rpn_cls_score_reshape_rpn_cls_score_reshape_0_split -> rpn_cls_score_reshape_rpn_cls_score_reshape_0_split_2
I0413 02:45:45.939057 18645 net.cpp:150] Setting up rpn_cls_score_reshape_rpn_cls_score_reshape_0_split
I0413 02:45:45.939077 18645 net.cpp:157] Top shape: 1 2 3552 1 1 (7104)
I0413 02:45:45.939093 18645 net.cpp:157] Top shape: 1 2 3552 1 1 (7104)
I0413 02:45:45.939107 18645 net.cpp:157] Top shape: 1 2 3552 1 1 (7104)
I0413 02:45:45.939119 18645 net.cpp:165] Memory required for data: 10172388900
I0413 02:45:45.939132 18645 layer_factory.hpp:77] Creating layer rpn-data
I0413 02:45:45.939683 18645 net.cpp:100] Creating Layer rpn-data
I0413 02:45:45.941576 18645 net.cpp:434] rpn-data <- rpn_cls_score_rpn_cls_score_0_split_1
I0413 02:45:45.941654 18645 net.cpp:434] rpn-data <- gt_boxes_data_1_split_0
I0413 02:45:45.941723 18645 net.cpp:434] rpn-data <- data_data_0_split_1
I0413 02:45:45.941781 18645 net.cpp:408] rpn-data -> rpn_labels
I0413 02:45:45.941853 18645 net.cpp:408] rpn-data -> rpn_twin_targets
I0413 02:45:45.941929 18645 net.cpp:408] rpn-data -> rpn_twin_inside_weights
I0413 02:45:45.942011 18645 net.cpp:408] rpn-data -> rpn_twin_outside_weights
I0413 02:45:45.946450 18645 net.cpp:150] Setting up rpn-data
I0413 02:45:45.978468 18645 net.cpp:157] Top shape: 1 1 3552 1 1 (3552)
I0413 02:45:45.978689 18645 net.cpp:157] Top shape: 1 74 96 1 1 (7104)
I0413 02:45:45.978744 18645 net.cpp:157] Top shape: 1 74 96 1 1 (7104)
I0413 02:45:45.978796 18645 net.cpp:157] Top shape: 1 74 96 1 1 (7104)
I0413 02:45:45.978842 18645 net.cpp:165] Memory required for data: 10172488356
I0413 02:45:45.978888 18645 layer_factory.hpp:77] Creating layer rpn_labels_rpn-data_0_split
I0413 02:45:45.978950 18645 net.cpp:100] Creating Layer rpn_labels_rpn-data_0_split
I0413 02:45:45.979032 18645 net.cpp:434] rpn_labels_rpn-data_0_split <- rpn_labels
I0413 02:45:45.979094 18645 net.cpp:408] rpn_labels_rpn-data_0_split -> rpn_labels_rpn-data_0_split_0
I0413 02:45:45.979177 18645 net.cpp:408] rpn_labels_rpn-data_0_split -> rpn_labels_rpn-data_0_split_1
I0413 02:45:45.979362 18645 net.cpp:150] Setting up rpn_labels_rpn-data_0_split
I0413 02:45:45.979847 18645 net.cpp:157] Top shape: 1 1 3552 1 1 (3552)
I0413 02:45:45.979910 18645 net.cpp:157] Top shape: 1 1 3552 1 1 (3552)
I0413 02:45:45.979959 18645 net.cpp:165] Memory required for data: 10172516772
I0413 02:45:45.980001 18645 layer_factory.hpp:77] Creating layer rpn_loss_cls
I0413 02:45:45.980057 18645 net.cpp:100] Creating Layer rpn_loss_cls
I0413 02:45:45.980120 18645 net.cpp:434] rpn_loss_cls <- rpn_cls_score_reshape_rpn_cls_score_reshape_0_split_0
I0413 02:45:45.980170 18645 net.cpp:434] rpn_loss_cls <- rpn_labels_rpn-data_0_split_0
…
I0413 02:45:45.982713 18645 layer_factory.hpp:77] Creating layer rpn_accuarcy
I0413 02:45:45.982764 18645 net.cpp:100] Creating Layer rpn_accuarcy
I0413 02:45:45.982837 18645 net.cpp:434] rpn_accuarcy <- rpn_cls_score_reshape_rpn_cls_score_reshape_0_split_1
I0413 02:45:45.982885 18645 net.cpp:434] rpn_accuarcy <- rpn_labels_rpn-data_0_split_1
I0413 02:45:45.982941 18645 net.cpp:408] rpn_accuarcy -> rpn_accuarcy
I0413 02:45:45.983000 18645 net.cpp:408] rpn_accuarcy -> rpn_accuarcy_class
I0413 02:45:45.983120 18645 net.cpp:150] Setting up rpn_accuarcy
I0413 02:45:45.983397 18645 net.cpp:157] Top shape: (1)
I0413 02:45:45.983455 18645 net.cpp:157] Top shape: 2 (2)
I0413 02:45:45.983500 18645 net.cpp:165] Memory required for data: 10172516792
I0413 02:45:45.983541 18645 layer_factory.hpp:77] Creating layer rpn_cls_prob
I0413 02:45:45.983585 18645 net.cpp:100] Creating Layer rpn_cls_prob
I0413 02:45:45.983665 18645 net.cpp:434] rpn_cls_prob <- rpn_cls_score_reshape_rpn_cls_score_reshape_0_split_2
I0413 02:45:45.983714 18645 net.cpp:408] rpn_cls_prob -> rpn_cls_prob
I0413 02:45:45.983860 18645 net.cpp:150] Setting up rpn_cls_prob
I0413 02:45:45.984279 18645 net.cpp:157] Top shape: 1 2 3552 1 1 (7104)
I0413 02:45:45.984370 18645 net.cpp:165] Memory required for data: 10172545208
I0413 02:45:45.984411 18645 layer_factory.hpp:77] Creating layer rpn_cls_prob_reshape
I0413 02:45:45.984449 18645 net.cpp:100] Creating Layer rpn_cls_prob_reshape
I0413 02:45:45.984500 18645 net.cpp:434] rpn_cls_prob_reshape <- rpn_cls_prob
I0413 02:45:45.984550 18645 net.cpp:408] rpn_cls_prob_reshape -> rpn_cls_prob_reshape
I0413 02:45:45.984652 18645 net.cpp:150] Setting up rpn_cls_prob_reshape
I0413 02:45:45.984851 18645 net.cpp:157] Top shape: 1 74 96 1 1 (7104)
I0413 02:45:45.984907 18645 net.cpp:165] Memory required for data: 10172573624
I0413 02:45:45.984949 18645 layer_factory.hpp:77] Creating layer proposal
I0413 02:45:45.989207 18645 net.cpp:100] Creating Layer proposal
I0413 02:45:45.992588 18645 net.cpp:434] proposal <- rpn_cls_prob_reshape
I0413 02:45:45.992662 18645 net.cpp:434] proposal <- rpn_twin_pred_rpn_twin_pred_0_split_1
I0413 02:45:45.992724 18645 net.cpp:408] proposal -> rpn_rois
I0413 02:45:46.062328 18645 net.cpp:150] Setting up proposal
I0413 02:45:46.063779 18645 net.cpp:157] Top shape: 1 3 (3)
I0413 02:45:46.063936 18645 net.cpp:165] Memory required for data: 10172573636
I0413 02:45:46.064034 18645 layer_factory.hpp:77] Creating layer roi-data
I0413 02:45:46.065515 18645 net.cpp:100] Creating Layer roi-data
I0413 02:45:46.065841 18645 net.cpp:434] roi-data <- rpn_rois
I0413 02:45:46.065976 18645 net.cpp:434] roi-data <- gt_boxes_data_1_split_1
I0413 02:45:46.066102 18645 net.cpp:408] roi-data -> rois
I0413 02:45:46.066232 18645 net.cpp:408] roi-data -> labels
I0413 02:45:46.066376 18645 net.cpp:408] roi-data -> twin_targets
I0413 02:45:46.066506 18645 net.cpp:408] roi-data -> twin_inside_weights
I0413 02:45:46.066637 18645 net.cpp:408] roi-data -> twin_outside_weights
I0413 02:45:46.067307 18645 net.cpp:150] Setting up roi-data
I0413 02:45:46.070188 18645 net.cpp:157] Top shape: 1 3 (3)
I0413 02:45:46.070331 18645 net.cpp:157] Top shape: 1 1 (1)
I0413 02:45:46.070433 18645 net.cpp:157] Top shape: 1 402 (402)
I0413 02:45:46.070531 18645 net.cpp:157] Top shape: 1 402 (402)
I0413 02:45:46.070626 18645 net.cpp:157] Top shape: 1 402 (402)
I0413 02:45:46.070719 18645 net.cpp:165] Memory required for data: 10172578476
I0413 02:45:46.070861 18645 layer_factory.hpp:77] Creating layer labels_roi-data_1_split
I0413 02:45:46.070964 18645 net.cpp:100] Creating Layer labels_roi-data_1_split
I0413 02:45:46.071085 18645 net.cpp:434] labels_roi-data_1_split <- labels
I0413 02:45:46.071187 18645 net.cpp:408] labels_roi-data_1_split -> labels_roi-data_1_split_0
I0413 02:45:46.071310 18645 net.cpp:408] labels_roi-data_1_split -> labels_roi-data_1_split_1
I0413 02:45:46.071491 18645 net.cpp:150] Setting up labels_roi-data_1_split
I0413 02:45:46.071895 18645 net.cpp:157] Top shape: 1 1 (1)
I0413 02:45:46.072029 18645 net.cpp:157] Top shape: 1 1 (1)
I0413 02:45:46.072132 18645 net.cpp:165] Memory required for data: 10172578484
I0413 02:45:46.072229 18645 layer_factory.hpp:77] Creating layer roi_pool5
I0413 02:45:46.072325 18645 net.cpp:100] Creating Layer roi_pool5
I0413 02:45:46.072638 18645 net.cpp:434] roi_pool5 <- conv5b_relu5b_0_split_1
I0413 02:45:46.072746 18645 net.cpp:434] roi_pool5 <- rois
I0413 02:45:46.072857 18645 net.cpp:408] roi_pool5 -> pool5
I0413 02:45:46.072986 18645 roi_pooling_layer.cpp:34] Temporal scale: 0.125
I0413 02:45:46.073153 18645 roi_pooling_layer.cpp:35] Spatial scale: 0.0625
I0413 02:45:46.073319 18645 net.cpp:150] Setting up roi_pool5
I0413 02:45:46.073714 18645 net.cpp:157] Top shape: 1 512 1 4 4 (8192)
I0413 02:45:46.073829 18645 net.cpp:165] Memory required for data: 10172611252
I0413 02:45:46.073920 18645 layer_factory.hpp:77] Creating layer fc6
I0413 02:45:46.074020 18645 net.cpp:100] Creating Layer fc6
I0413 02:45:46.074144 18645 net.cpp:434] fc6 <- pool5
I0413 02:45:46.074236 18645 net.cpp:408] fc6 -> fc6
I0413 02:45:48.165797 18645 net.cpp:150] Setting up fc6
I0413 02:45:48.165980 18645 net.cpp:157] Top shape: 1 4096 (4096)
I0413 02:45:48.166028 18645 net.cpp:165] Memory required for data: 10172627636
I0413 02:45:48.166085 18645 layer_factory.hpp:77] Creating layer relu6
I0413 02:45:48.166137 18645 net.cpp:100] Creating Layer relu6
I0413 02:45:48.166184 18645 net.cpp:434] relu6 <- fc6
I0413 02:45:48.166226 18645 net.cpp:395] relu6 -> fc6 (in-place)
I0413 02:45:48.166270 18645 net.cpp:150] Setting up relu6
I0413 02:45:48.166307 18645 net.cpp:157] Top shape: 1 4096 (4096)
I0413 02:45:48.166344 18645 net.cpp:165] Memory required for data: 10172644020
I0413 02:45:48.166379 18645 layer_factory.hpp:77] Creating layer drop6
I0413 02:45:48.166424 18645 net.cpp:100] Creating Layer drop6
I0413 02:45:48.166460 18645 net.cpp:434] drop6 <- fc6
I0413 02:45:48.166502 18645 net.cpp:395] drop6 -> fc6 (in-place)
I0413 02:45:48.166586 18645 net.cpp:150] Setting up drop6
I0413 02:45:48.166635 18645 net.cpp:157] Top shape: 1 4096 (4096)
I0413 02:45:48.166677 18645 net.cpp:165] Memory required for data: 10172660404
I0413 02:45:48.166714 18645 layer_factory.hpp:77] Creating layer fc6_drop6_0_split
I0413 02:45:48.166751 18645 net.cpp:100] Creating Layer fc6_drop6_0_split
I0413 02:45:48.166795 18645 net.cpp:434] fc6_drop6_0_split <- fc6
I0413 02:45:48.166836 18645 net.cpp:408] fc6_drop6_0_split -> fc6_drop6_0_split_0
I0413 02:45:48.166888 18645 net.cpp:408] fc6_drop6_0_split -> fc6_drop6_0_split_1
I0413 02:45:48.166996 18645 net.cpp:150] Setting up fc6_drop6_0_split
I0413 02:45:48.167045 18645 net.cpp:157] Top shape: 1 4096 (4096)
I0413 02:45:48.167084 18645 net.cpp:157] Top shape: 1 4096 (4096)
I0413 02:45:48.167125 18645 net.cpp:165] Memory required for data: 10172693172
I0413 02:45:48.167165 18645 layer_factory.hpp:77] Creating layer cls_score
I0413 02:45:48.167207 18645 net.cpp:100] Creating Layer cls_score
I0413 02:45:48.167243 18645 net.cpp:434] cls_score <- fc6_drop6_0_split_0
I0413 02:45:48.167285 18645 net.cpp:408] cls_score -> cls_score
I0413 02:45:48.201449 18645 net.cpp:150] Setting up cls_score
I0413 02:45:48.201642 18645 net.cpp:157] Top shape: 1 201 (201)
I0413 02:45:48.201694 18645 net.cpp:165] Memory required for data: 10172693976
I0413 02:45:48.201772 18645 layer_factory.hpp:77] Creating layer cls_score_cls_score_0_split
I0413 02:45:48.201843 18645 net.cpp:100] Creating Layer cls_score_cls_score_0_split
I0413 02:45:48.201913 18645 net.cpp:434] cls_score_cls_score_0_split <- cls_score
I0413 02:45:48.201972 18645 net.cpp:408] cls_score_cls_score_0_split -> cls_score_cls_score_0_split_0
I0413 02:45:48.202045 18645 net.cpp:408] cls_score_cls_score_0_split -> cls_score_cls_score_0_split_1
I0413 02:45:48.202231 18645 net.cpp:150] Setting up cls_score_cls_score_0_split
I0413 02:45:48.202316 18645 net.cpp:157] Top shape: 1 201 (201)
I0413 02:45:48.202389 18645 net.cpp:157] Top shape: 1 201 (201)
I0413 02:45:48.202445 18645 net.cpp:165] Memory required for data: 10172695584
I0413 02:45:48.202509 18645 layer_factory.hpp:77] Creating layer twin_pred
I0413 02:45:48.202576 18645 net.cpp:100] Creating Layer twin_pred
I0413 02:45:48.202636 18645 net.cpp:434] twin_pred <- fc6_drop6_0_split_1
I0413 02:45:48.202704 18645 net.cpp:408] twin_pred -> twin_pred
I0413 02:45:48.225384 18645 net.cpp:150] Setting up twin_pred
I0413 02:45:48.225582 18645 net.cpp:157] Top shape: 1 402 (402)
I0413 02:45:48.225656 18645 net.cpp:165] Memory required for data: 10172697192
I0413 02:45:48.225708 18645 layer_factory.hpp:77] Creating layer loss_cls
I0413 02:45:48.225759 18645 net.cpp:100] Creating Layer loss_cls
I0413 02:45:48.225802 18645 net.cpp:434] loss_cls <- cls_score_cls_score_0_split_0
I0413 02:45:48.225847 18645 net.cpp:434] loss_cls <- labels_roi-data_1_split_0
I0413 02:45:48.225890 18645 net.cpp:408] loss_cls -> loss_cls
…
