…
stepsize: 350000
snapshot: 0
snapshot_prefix: "./experiments/activitynet/snapshot/activitynet"
average_loss: 100
iter_size: 1
I0418 00:41:03.910864 28450 solver.cpp:81] Creating training net from train_net file: ./experiments/activitynet/train.prototxt
I0418 00:41:03.911953 28450 net.cpp:58] Initializing net from parameters: 
name: "activitynet"
state {
  phase: TRAIN
}
layer {
  name: "data"
  type: "Python"
  top: "data"
  top: "gt_boxes"
  python_param {
    module: "roi_data_layer.layer"
    layer: "RoIDataLayer"
    param_str: "\'num_classes\': 100"
  }
}
layer {
  name: "conv1a"
  type: "Convolution"
  bottom: "data"
  top: "conv1a"
  param {
    lr_mult: 0
    decay_mult: 0
  }
  param {
    lr_mult: 0
    decay_mult: 0
  }
  convolution_param {
    num_output: 64
    pad: 1
    pad: 1
    pad: 1
    kernel_size: 3
    kernel_size: 3
    kernel_size: 3
    weight_filler {
      type: "gaussian"
      std: 0.01
    }
    bias_filler {
      type: "constant"
      value: 0
    }
  }
}
layer {
  name: "relu1a"
  type: "ReLU"
  bottom: "conv1a"
  top: "conv1a"
}
layer {
  name: "pool1"
  type: "Pooling"
  bottom: "conv1a"
  top: "pool1"
  pooling_param {
    pool: MAX
    kernel_size: 1
    kernel_size: 2
    kernel_size: 2
    stride: 1
    stride: 2
    stride: 2
  }
}
layer {
  name: "conv2a"
  type: "Convolution"
  bottom: "pool1"
  top: "conv2a"
  param {
    lr_mult: 0
    decay_mult: 0
  }
  param {
    lr_mult: 0
    decay_mult: 0
  }
  convolution_param {
    num_output: 128
    pad: 1
    pad: 1
    pad: 1
    kernel_size: 3
    kernel_size: 3
    kernel_size: 3
    weight_filler {
      type: "gaussian"
      std: 0.01
    }
    bias_filler {
      type: "constant"
      value: 1
    }
  }
}
layer {
  name: "relu2a"
  type: "ReLU"
  bottom: "conv2a"
  top: "conv2a"
}
layer {
  name: "pool2"
  type: "Pooling"
  bottom: "conv2a"
  top: "pool2"
  pooling_param {
    pool: MAX
    kernel_size: 2
    kernel_size: 2
    kernel_size: 2
    stride: 2
    stride: 2
    stride: 2
  }
}
layer {
  name: "conv3a"
  type: "Convolution"
  bottom: "pool2"
  top: "conv3a"
  param {
    lr_mult: 1
    decay_mult: 1
  }
  param {
    lr_mult: 2
    decay_mult: 0
  }
  convolution_param {
    num_output: 256
    pad: 1
    pad: 1
    pad: 1
    kernel_size: 3
    kernel_size: 3
    kernel_size: 3
    weight_filler {
      type: "gaussian"
      std: 0.01
    }
    bias_filler {
      type: "constant"
      value: 1
    }
  }
}
layer {
  name: "relu3a"
  type: "ReLU"
  bottom: "conv3a"
  top: "conv3a"
}
layer {
  name: "conv3b"
  type: "Convolution"
  bottom: "conv3a"
  top: "conv3b"
  param {
    lr_mult: 1
    decay_mult: 1
  }
  param {
    lr_mult: 2
    decay_mult: 0
  }
  convolution_param {
    num_output: 256
    pad: 1
    pad: 1
    pad: 1
    kernel_size: 3
    kernel_size: 3
    kernel_size: 3
    weight_filler {
      type: "gaussian"
      std: 0.01
    }
    bias_filler {
      type: "constant"
      value: 1
    }
  }
}
layer {
  name: "relu3b"
  type: "ReLU"
  bottom: "conv3b"
  top: "conv3b"
}
layer {
  name: "pool3"
  type: "Pooling"
  bottom: "conv3b"
  top: "pool3"
  pooling_param {
    pool: MAX
    kernel_size: 2
    kernel_size: 2
    kernel_size: 2
    stride: 2
    stride: 2
    stride: 2
  }
}
layer {
  name: "conv4a"
  type: "Convolution"
  bottom: "pool3"
  top: "conv4a"
  param {
    lr_mult: 1
    decay_mult: 1
  }
  param {
    lr_mult: 2
    decay_mult: 0
  }
  convolution_param {
    num_output: 512
    pad: 1
    pad: 1
    pad: 1
    kernel_size: 3
    kernel_size: 3
    kernel_size: 3
    weight_filler {
      type: "gaussian"
      std: 0.01
    }
    bias_filler {
      type: "constant"
      value: 1
    }
  }
}
layer {
  name: "relu4a"
  type: "ReLU"
  bottom: "conv4a"
  top: "conv4a"
}
layer {
  name: "conv4b"
  type: "Convolution"
  bottom: "conv4a"
  top: "conv4b"
  param {
    lr_mult: 1
    decay_mult: 1
  }
  param {
    lr_mult: 2
    decay_mult: 0
  }
  convolution_param {
    num_output: 512
    pad: 1
    pad: 1
    pad: 1
    kernel_size: 3
    kernel_size: 3
    kernel_size: 3
    weight_filler {
      type: "gaussian"
      std: 0.01
    }
    bias_filler {
      type: "constant"
      value: 1
    }
  }
}
layer {
  name: "relu4b"
  type: "ReLU"
  bottom: "conv4b"
  top: "conv4b"
}
layer {
  name: "pool4"
  type: "Pooling"
  bottom: "conv4b"
  top: "pool4"
  pooling_param {
    pool: MAX
    kernel_size: 2
    kernel_size: 2
    kernel_size: 2
    stride: 2
    stride: 2
    stride: 2
  }
}
layer {
  name: "conv5a"
  type: "Convolution"
  bottom: "pool4"
  top: "conv5a"
  param {
    lr_mult: 1
    decay_mult: 1
  }
  param {
    lr_mult: 2
    decay_mult: 0
  }
  convolution_param {
    num_output: 512
    pad: 1
    pad: 1
    pad: 1
    kernel_size: 3
    kernel_size: 3
    kernel_size: 3
    weight_filler {
      type: "gaussian"
      std: 0.01
    }
    bias_filler {
      type: "constant"
      value: 1
    }
  }
}
layer {
  name: "relu5a"
  type: "ReLU"
  bottom: "conv5a"
  top: "conv5a"
}
layer {
  name: "conv5b"
  type: "Convolution"
  bottom: "conv5a"
  top: "conv5b"
  param {
    lr_mult: 1
    decay_mult: 1
  }
  param {
    lr_mult: 2
    decay_mult: 0
  }
  convolution_param {
    num_output: 512
    pad: 1
    pad: 1
    pad: 1
    kernel_size: 3
    kernel_size: 3
    kernel_size: 3
    weight_filler {
      type: "gaussian"
      std: 0.01
    }
    bias_filler {
      type: "constant"
      value: 1
    }
  }
}
layer {
  name: "relu5b"
  type: "ReLU"
  bottom: "conv5b"
  top: "conv5b"
}
layer {
  name: "rpn_conv/3x3"
  type: "Convolution"
  bottom: "conv5b"
  top: "rpn/output"
  param {
    lr_mult: 1
    decay_mult: 1
  }
  param {
    lr_mult: 2
    decay_mult: 0
  }
  convolution_param {
    num_output: 512
    pad: 1
    pad: 1
    pad: 1
    kernel_size: 3
    kernel_size: 3
    kernel_size: 3
    stride: 1
    stride: 2
    stride: 2
    weight_filler {
      type: "gaussian"
      std: 0.01
    }
    bias_filler {
      type: "constant"
      value: 0
    }
  }
}
layer {
  name: "rpn_relu/3x3"
  type: "ReLU"
  bottom: "rpn/output"
  top: "rpn/output"
}
layer {
  name: "rpn_conv/3x3_2"
  type: "Convolution"
  bottom: "rpn/output"
  top: "rpn/output_2"
  param {
    lr_mult: 1
    decay_mult: 1
  }
  param {
    lr_mult: 2
    decay_mult: 0
  }
  convolution_param {
    num_output: 512
    pad: 1
    pad: 1
    pad: 1
    kernel_size: 3
    kernel_size: 3
    kernel_size: 3
    stride: 1
    stride: 2
    stride: 2
    weight_filler {
      type: "gaussian"
      std: 0.01
    }
    bias_filler {
      type: "constant"
      value: 0
    }
  }
}
layer {
  name: "rpn_relu/3x3_2"
  type: "ReLU"
  bottom: "rpn/output_2"
  top: "rpn/output_2"
}
layer {
  name: "rpn/output_pool"
  type: "Pooling"
  bottom: "rpn/output_2"
  top: "rpn/output_pool"
  pooling_param {
    pool: MAX
    kernel_size: 1
    kernel_size: 2
    kernel_size: 2
  }
}
layer {
  name: "rpn_cls_score"
  type: "Convolution"
  bottom: "rpn/output_pool"
  top: "rpn_cls_score"
  param {
    lr_mult: 1
    decay_mult: 1
  }
  param {
    lr_mult: 2
    decay_mult: 0
  }
  convolution_param {
    num_output: 74
    kernel_size: 1
    kernel_size: 1
    kernel_size: 1
    weight_filler {
      type: "gaussian"
      std: 0.01
    }
    bias_filler {
      type: "constant"
      value: 0
    }
  }
}
layer {
  name: "rpn_twin_pred"
  type: "Convolution"
  bottom: "rpn/output_pool"
  top: "rpn_twin_pred"
  param {
    lr_mult: 1
    decay_mult: 1
  }
  param {
    lr_mult: 2
    decay_mult: 0
  }
  convolution_param {
    num_output: 74
    kernel_size: 1
    kernel_size: 1
    kernel_size: 1
    weight_filler {
      type: "gaussian"
      std: 0.01
    }
    bias_filler {
      type: "constant"
      value: 0
    }
  }
}
layer {
  name: "rpn_cls_score_reshape"
  type: "Reshape"
  bottom: "rpn_cls_score"
  top: "rpn_cls_score_reshape"
  reshape_param {
    shape {
      dim: 0
      dim: 2
      dim: -1
      dim: 0
      dim: 0
    }
  }
}
layer {
  name: "rpn-data"
  type: "Python"
  bottom: "rpn_cls_score"
  bottom: "gt_boxes"
  bottom: "data"
  top: "rpn_labels"
  top: "rpn_twin_targets"
  top: "rpn_twin_inside_weights"
  top: "rpn_twin_outside_weights"
  python_param {
    module: "rpn.anchor_target_layer"
    layer: "AnchorTargetLayer"
    param_str: "\'feat_stride\': 8 \n\'scales\': !!python/tuple [1,1.25, 1.5,1.75, 2,2.5, 3,3.5, 4,4.5, 5,5.5, 6,7, 8,9,10,11,12,14,16,18,20,22,24,28,32,36,40,44,52,60,68,76,84,92,100]"
  }
}
layer {
  name: "rpn_loss_cls"
  type: "SoftmaxWithLoss"
  bottom: "rpn_cls_score_reshape"
  bottom: "rpn_labels"
  top: "rpn_cls_loss"
  loss_weight: 1
  propagate_down: true
  propagate_down: false
  loss_param {
    ignore_label: -1
    normalize: true
  }
}
layer {
  name: "rpn_loss_twin"
  type: "SmoothL1Loss"
  bottom: "rpn_twin_pred"
  bottom: "rpn_twin_targets"
  bottom: "rpn_twin_inside_weights"
  bottom: "rpn_twin_outside_weights"
  top: "rpn_loss_twin"
  loss_weight: 1
  smooth_l1_loss_param {
    sigma: 3
  }
}
layer {
  name: "rpn_accuarcy"
  type: "Accuracy"
  bottom: "rpn_cls_score_reshape"
  bottom: "rpn_labels"
  top: "rpn_accuarcy"
  top: "rpn_accuarcy_class"
  propagate_down: false
  propagate_down: false
  accuracy_param {
    ignore_label: -1
  }
}
layer {
  name: "rpn_cls_prob"
  type: "Softmax"
  bottom: "rpn_cls_score_reshape"
  top: "rpn_cls_prob"
}
layer {
  name: "rpn_cls_prob_reshape"
  type: "Reshape"
  bottom: "rpn_cls_prob"
  top: "rpn_cls_prob_reshape"
  reshape_param {
    shape {
      dim: 0
      dim: 74
      dim: -1
      dim: 0
      dim: 0
    }
  }
}
layer {
  name: "proposal"
  type: "Python"
  bottom: "rpn_cls_prob_reshape"
  bottom: "rpn_twin_pred"
  top: "rpn_rois"
  include {
    phase: TRAIN
  }
  python_param {
    module: "rpn.proposal_layer"
    layer: "ProposalLayer"
    param_str: "\'feat_stride\': 8 \n\'scales\': !!python/tuple [1,1.25, 1.5,1.75, 2,2.5, 3,3.5, 4,4.5, 5,5.5, 6,7, 8,9,10,11,12,14,16,18,20,22,24,28,32,36,40,44,52,60,68,76,84,92,100]"
  }
}
layer {
  name: "roi-data"
  type: "Python"
  bottom: "rpn_rois"
  bottom: "gt_boxes"
  top: "rois"
  top: "labels"
  top: "twin_targets"
  top: "twin_inside_weights"
  top: "twin_outside_weights"
  python_param {
    module: "rpn.proposal_target_layer"
    layer: "ProposalTargetLayer"
    param_str: "\'num_classes\': 201"
  }
}
layer {
  name: "roi_pool5"
  type: "ROIPooling"
  bottom: "conv5b"
  bottom: "rois"
  top: "pool5"
  roi_pooling_param {
    pooled_h: 4
    pooled_w: 4
    spatial_scale: 0.0625
    pooled_l: 1
    temporal_scale: 0.125
  }
}
layer {
  name: "fc6"
  type: "InnerProduct"
  bottom: "pool5"
  top: "fc6"
  param {
    lr_mult: 1
    decay_mult: 1
  }
  param {
    lr_mult: 2
    decay_mult: 0
  }
  inner_product_param {
    num_output: 4096
    weight_filler {
      type: "gaussian"
      std: 0.005
    }
    bias_filler {
      type: "constant"
      value: 1
    }
  }
}
layer {
  name: "relu6"
  type: "ReLU"
  bottom: "fc6"
  top: "fc6"
}
layer {
  name: "drop6"
  type: "Dropout"
  bottom: "fc6"
  top: "fc6"
  dropout_param {
    dropout_ratio: 0.5
  }
}
layer {
  name: "cls_score"
  type: "InnerProduct"
  bottom: "fc6"
  top: "cls_score"
  param {
    lr_mult: 1
    decay_mult: 1
  }
  param {
    lr_mult: 2
    decay_mult: 0
  }
  inner_product_param {
    num_output: 201
    weight_filler {
      type: "gaussian"
      std: 0.01
    }
    bias_filler {
      type: "constant"
      value: 0
    }
  }
}
layer {
  name: "twin_pred"
  type: "InnerProduct"
  bottom: "fc6"
  top: "twin_pred"
  param {
    lr_mult: 1
    decay_mult: 1
  }
  param {
    lr_mult: 2
    decay_mult: 0
  }
  inner_product_param {
    num_output: 402
    weight_filler {
      type: "gaussian"
      std: 0.001
    }
    bias_filler {
      type: "constant"
      value: 0
    }
  }
}
layer {
  name: "loss_cls"
  type: "SoftmaxWithLoss"
  bottom: "cls_score"
  bottom: "labels"
  top: "loss_cls"
  loss_weight: 1
  propagate_down: true
  propagate_down: false
}
layer {
  name: "loss_twin"
  type: "SmoothL1Loss"
  bottom: "twin_pred"
  bottom: "twin_targets"
  bottom: "twin_inside_weights"
  bottom: "twin_outside_weights"
  top: "loss_twin"
  loss_weight: 1
}
layer {
  name: "accuarcy"
  type: "Accuracy"
  bottom: "cls_score"
  bottom: "labels"
  top: "accuarcy"
  propagate_down: false
  propagate_down: false
  accuracy_param {
    ignore_label: -1
  }
}
I0418 00:41:03.912171 28450 layer_factory.hpp:77] Creating layer data
I0418 00:41:03.938503 28450 net.cpp:100] Creating Layer data
I0418 00:41:03.938526 28450 net.cpp:408] data -> data
I0418 00:41:03.938540 28450 net.cpp:408] data -> gt_boxes
setting up
has rpn
RoiDataLayer: name_to_top: {'gt_windows': 1, 'data': 0}
I0418 00:41:03.978246 28450 net.cpp:150] Setting up data
I0418 00:41:03.978271 28450 net.cpp:157] Top shape: 1 3 768 112 112 (28901376)
I0418 00:41:03.978276 28450 net.cpp:157] Top shape: 1 101 (101)
I0418 00:41:03.978283 28450 net.cpp:165] Memory required for data: 115605908
I0418 00:41:03.978291 28450 layer_factory.hpp:77] Creating layer data_data_0_split
I0418 00:41:03.978304 28450 net.cpp:100] Creating Layer data_data_0_split
I0418 00:41:03.978308 28450 net.cpp:434] data_data_0_split <- data
I0418 00:41:03.978317 28450 net.cpp:408] data_data_0_split -> data_data_0_split_0
I0418 00:41:03.978327 28450 net.cpp:408] data_data_0_split -> data_data_0_split_1
I0418 00:41:03.978360 28450 net.cpp:150] Setting up data_data_0_split
I0418 00:41:03.978377 28450 net.cpp:157] Top shape: 1 3 768 112 112 (28901376)
I0418 00:41:03.978382 28450 net.cpp:157] Top shape: 1 3 768 112 112 (28901376)
I0418 00:41:03.978386 28450 net.cpp:165] Memory required for data: 346816916
I0418 00:41:03.978389 28450 layer_factory.hpp:77] Creating layer gt_boxes_data_1_split
I0418 00:41:03.978396 28450 net.cpp:100] Creating Layer gt_boxes_data_1_split
I0418 00:41:03.978400 28450 net.cpp:434] gt_boxes_data_1_split <- gt_boxes
I0418 00:41:03.978406 28450 net.cpp:408] gt_boxes_data_1_split -> gt_boxes_data_1_split_0
I0418 00:41:03.978412 28450 net.cpp:408] gt_boxes_data_1_split -> gt_boxes_data_1_split_1
I0418 00:41:03.978438 28450 net.cpp:150] Setting up gt_boxes_data_1_split
I0418 00:41:03.978444 28450 net.cpp:157] Top shape: 1 101 (101)
I0418 00:41:03.978447 28450 net.cpp:157] Top shape: 1 101 (101)
I0418 00:41:03.978451 28450 net.cpp:165] Memory required for data: 346817724
I0418 00:41:03.978454 28450 layer_factory.hpp:77] Creating layer conv1a
I0418 00:41:03.978471 28450 net.cpp:100] Creating Layer conv1a
I0418 00:41:03.978476 28450 net.cpp:434] conv1a <- data_data_0_split_0
I0418 00:41:03.978480 28450 net.cpp:408] conv1a -> conv1a
I0418 00:41:04.268956 28450 net.cpp:150] Setting up conv1a
I0418 00:41:04.268988 28450 net.cpp:157] Top shape: 1 64 768 112 112 (616562688)
I0418 00:41:04.268993 28450 net.cpp:165] Memory required for data: 2813068476
I0418 00:41:04.269014 28450 layer_factory.hpp:77] Creating layer relu1a
I0418 00:41:04.269029 28450 net.cpp:100] Creating Layer relu1a
I0418 00:41:04.269034 28450 net.cpp:434] relu1a <- conv1a
I0418 00:41:04.269042 28450 net.cpp:395] relu1a -> conv1a (in-place)
I0418 00:41:04.269572 28450 net.cpp:150] Setting up relu1a
I0418 00:41:04.269587 28450 net.cpp:157] Top shape: 1 64 768 112 112 (616562688)
I0418 00:41:04.269590 28450 net.cpp:165] Memory required for data: 5279319228
I0418 00:41:04.269594 28450 layer_factory.hpp:77] Creating layer pool1
I0418 00:41:04.269604 28450 net.cpp:100] Creating Layer pool1
I0418 00:41:04.269608 28450 net.cpp:434] pool1 <- conv1a
I0418 00:41:04.269614 28450 net.cpp:408] pool1 -> pool1
I0418 00:41:04.270330 28450 net.cpp:150] Setting up pool1
I0418 00:41:04.270341 28450 net.cpp:157] Top shape: 1 64 768 56 56 (154140672)
I0418 00:41:04.270345 28450 net.cpp:165] Memory required for data: 5895881916
I0418 00:41:04.270349 28450 layer_factory.hpp:77] Creating layer conv2a
I0418 00:41:04.270361 28450 net.cpp:100] Creating Layer conv2a
I0418 00:41:04.270364 28450 net.cpp:434] conv2a <- pool1
I0418 00:41:04.270370 28450 net.cpp:408] conv2a -> conv2a
I0418 00:41:04.285842 28450 net.cpp:150] Setting up conv2a
I0418 00:41:04.285869 28450 net.cpp:157] Top shape: 1 128 768 56 56 (308281344)
I0418 00:41:04.285874 28450 net.cpp:165] Memory required for data: 7129007292
I0418 00:41:04.285889 28450 layer_factory.hpp:77] Creating layer relu2a
I0418 00:41:04.285902 28450 net.cpp:100] Creating Layer relu2a
I0418 00:41:04.285907 28450 net.cpp:434] relu2a <- conv2a
I0418 00:41:04.285914 28450 net.cpp:395] relu2a -> conv2a (in-place)
I0418 00:41:04.286301 28450 net.cpp:150] Setting up relu2a
I0418 00:41:04.286316 28450 net.cpp:157] Top shape: 1 128 768 56 56 (308281344)
I0418 00:41:04.286321 28450 net.cpp:165] Memory required for data: 8362132668
I0418 00:41:04.286326 28450 layer_factory.hpp:77] Creating layer pool2
I0418 00:41:04.286337 28450 net.cpp:100] Creating Layer pool2
I0418 00:41:04.286343 28450 net.cpp:434] pool2 <- conv2a
I0418 00:41:04.286350 28450 net.cpp:408] pool2 -> pool2
I0418 00:41:04.286913 28450 net.cpp:150] Setting up pool2
I0418 00:41:04.286926 28450 net.cpp:157] Top shape: 1 128 384 28 28 (38535168)
I0418 00:41:04.286931 28450 net.cpp:165] Memory required for data: 8516273340
I0418 00:41:04.286934 28450 layer_factory.hpp:77] Creating layer conv3a
I0418 00:41:04.286947 28450 net.cpp:100] Creating Layer conv3a
I0418 00:41:04.286952 28450 net.cpp:434] conv3a <- pool2
I0418 00:41:04.286958 28450 net.cpp:408] conv3a -> conv3a
I0418 00:41:04.315919 28450 net.cpp:150] Setting up conv3a
I0418 00:41:04.315943 28450 net.cpp:157] Top shape: 1 256 384 28 28 (77070336)
I0418 00:41:04.315946 28450 net.cpp:165] Memory required for data: 8824554684
I0418 00:41:04.315961 28450 layer_factory.hpp:77] Creating layer relu3a
I0418 00:41:04.315969 28450 net.cpp:100] Creating Layer relu3a
I0418 00:41:04.315974 28450 net.cpp:434] relu3a <- conv3a
I0418 00:41:04.315981 28450 net.cpp:395] relu3a -> conv3a (in-place)
I0418 00:41:04.316365 28450 net.cpp:150] Setting up relu3a
I0418 00:41:04.316380 28450 net.cpp:157] Top shape: 1 256 384 28 28 (77070336)
I0418 00:41:04.316385 28450 net.cpp:165] Memory required for data: 9132836028
I0418 00:41:04.316388 28450 layer_factory.hpp:77] Creating layer conv3b
I0418 00:41:04.316401 28450 net.cpp:100] Creating Layer conv3b
I0418 00:41:04.316411 28450 net.cpp:434] conv3b <- conv3a
I0418 00:41:04.316417 28450 net.cpp:408] conv3b -> conv3b
I0418 00:41:04.367249 28450 net.cpp:150] Setting up conv3b
I0418 00:41:04.367276 28450 net.cpp:157] Top shape: 1 256 384 28 28 (77070336)
I0418 00:41:04.367281 28450 net.cpp:165] Memory required for data: 9441117372
I0418 00:41:04.367291 28450 layer_factory.hpp:77] Creating layer relu3b
I0418 00:41:04.367301 28450 net.cpp:100] Creating Layer relu3b
I0418 00:41:04.367306 28450 net.cpp:434] relu3b <- conv3b
I0418 00:41:04.367316 28450 net.cpp:395] relu3b -> conv3b (in-place)
I0418 00:41:04.367805 28450 net.cpp:150] Setting up relu3b
I0418 00:41:04.367820 28450 net.cpp:157] Top shape: 1 256 384 28 28 (77070336)
I0418 00:41:04.367823 28450 net.cpp:165] Memory required for data: 9749398716
I0418 00:41:04.367827 28450 layer_factory.hpp:77] Creating layer pool3
I0418 00:41:04.367835 28450 net.cpp:100] Creating Layer pool3
I0418 00:41:04.367842 28450 net.cpp:434] pool3 <- conv3b
I0418 00:41:04.367848 28450 net.cpp:408] pool3 -> pool3
I0418 00:41:04.369032 28450 net.cpp:150] Setting up pool3
I0418 00:41:04.369043 28450 net.cpp:157] Top shape: 1 256 192 14 14 (9633792)
I0418 00:41:04.369047 28450 net.cpp:165] Memory required for data: 9787933884
I0418 00:41:04.369050 28450 layer_factory.hpp:77] Creating layer conv4a
I0418 00:41:04.369062 28450 net.cpp:100] Creating Layer conv4a
I0418 00:41:04.369066 28450 net.cpp:434] conv4a <- pool3
I0418 00:41:04.369073 28450 net.cpp:408] conv4a -> conv4a
I0418 00:41:04.473848 28450 net.cpp:150] Setting up conv4a
I0418 00:41:04.473876 28450 net.cpp:157] Top shape: 1 512 192 14 14 (19267584)
I0418 00:41:04.473881 28450 net.cpp:165] Memory required for data: 9865004220
I0418 00:41:04.473896 28450 layer_factory.hpp:77] Creating layer relu4a
I0418 00:41:04.473906 28450 net.cpp:100] Creating Layer relu4a
I0418 00:41:04.473911 28450 net.cpp:434] relu4a <- conv4a
I0418 00:41:04.473918 28450 net.cpp:395] relu4a -> conv4a (in-place)
I0418 00:41:04.474333 28450 net.cpp:150] Setting up relu4a
I0418 00:41:04.474346 28450 net.cpp:157] Top shape: 1 512 192 14 14 (19267584)
I0418 00:41:04.474350 28450 net.cpp:165] Memory required for data: 9942074556
I0418 00:41:04.474354 28450 layer_factory.hpp:77] Creating layer conv4b
I0418 00:41:04.474370 28450 net.cpp:100] Creating Layer conv4b
I0418 00:41:04.474375 28450 net.cpp:434] conv4b <- conv4a
I0418 00:41:04.474383 28450 net.cpp:408] conv4b -> conv4b
I0418 00:41:04.668700 28450 net.cpp:150] Setting up conv4b
I0418 00:41:04.668728 28450 net.cpp:157] Top shape: 1 512 192 14 14 (19267584)
I0418 00:41:04.668732 28450 net.cpp:165] Memory required for data: 10019144892
I0418 00:41:04.668742 28450 layer_factory.hpp:77] Creating layer relu4b
I0418 00:41:04.668754 28450 net.cpp:100] Creating Layer relu4b
I0418 00:41:04.668759 28450 net.cpp:434] relu4b <- conv4b
I0418 00:41:04.668766 28450 net.cpp:395] relu4b -> conv4b (in-place)
I0418 00:41:04.669693 28450 net.cpp:150] Setting up relu4b
I0418 00:41:04.669705 28450 net.cpp:157] Top shape: 1 512 192 14 14 (19267584)
I0418 00:41:04.669708 28450 net.cpp:165] Memory required for data: 10096215228
I0418 00:41:04.669713 28450 layer_factory.hpp:77] Creating layer pool4
I0418 00:41:04.669719 28450 net.cpp:100] Creating Layer pool4
I0418 00:41:04.669723 28450 net.cpp:434] pool4 <- conv4b
I0418 00:41:04.669730 28450 net.cpp:408] pool4 -> pool4
I0418 00:41:04.671324 28450 net.cpp:150] Setting up pool4
I0418 00:41:04.671339 28450 net.cpp:157] Top shape: 1 512 96 7 7 (2408448)
I0418 00:41:04.671342 28450 net.cpp:165] Memory required for data: 10105849020
I0418 00:41:04.671346 28450 layer_factory.hpp:77] Creating layer conv5a
I0418 00:41:04.671358 28450 net.cpp:100] Creating Layer conv5a
I0418 00:41:04.671363 28450 net.cpp:434] conv5a <- pool4
I0418 00:41:04.671370 28450 net.cpp:408] conv5a -> conv5a
I0418 00:41:04.862661 28450 net.cpp:150] Setting up conv5a
I0418 00:41:04.862687 28450 net.cpp:157] Top shape: 1 512 96 7 7 (2408448)
I0418 00:41:04.862691 28450 net.cpp:165] Memory required for data: 10115482812
I0418 00:41:04.862699 28450 layer_factory.hpp:77] Creating layer relu5a
I0418 00:41:04.862709 28450 net.cpp:100] Creating Layer relu5a
I0418 00:41:04.862715 28450 net.cpp:434] relu5a <- conv5a
I0418 00:41:04.862722 28450 net.cpp:395] relu5a -> conv5a (in-place)
I0418 00:41:04.863858 28450 net.cpp:150] Setting up relu5a
I0418 00:41:04.863871 28450 net.cpp:157] Top shape: 1 512 96 7 7 (2408448)
I0418 00:41:04.863875 28450 net.cpp:165] Memory required for data: 10125116604
I0418 00:41:04.863879 28450 layer_factory.hpp:77] Creating layer conv5b
I0418 00:41:04.863890 28450 net.cpp:100] Creating Layer conv5b
I0418 00:41:04.863894 28450 net.cpp:434] conv5b <- conv5a
I0418 00:41:04.863900 28450 net.cpp:408] conv5b -> conv5b
I0418 00:41:05.051599 28450 net.cpp:150] Setting up conv5b
I0418 00:41:05.051621 28450 net.cpp:157] Top shape: 1 512 96 7 7 (2408448)
I0418 00:41:05.051625 28450 net.cpp:165] Memory required for data: 10134750396
I0418 00:41:05.051635 28450 layer_factory.hpp:77] Creating layer relu5b
I0418 00:41:05.051645 28450 net.cpp:100] Creating Layer relu5b
I0418 00:41:05.051648 28450 net.cpp:434] relu5b <- conv5b
I0418 00:41:05.051654 28450 net.cpp:395] relu5b -> conv5b (in-place)
I0418 00:41:05.051802 28450 net.cpp:150] Setting up relu5b
I0418 00:41:05.051812 28450 net.cpp:157] Top shape: 1 512 96 7 7 (2408448)
I0418 00:41:05.051815 28450 net.cpp:165] Memory required for data: 10144384188
I0418 00:41:05.051820 28450 layer_factory.hpp:77] Creating layer conv5b_relu5b_0_split
I0418 00:41:05.051825 28450 net.cpp:100] Creating Layer conv5b_relu5b_0_split
I0418 00:41:05.051827 28450 net.cpp:434] conv5b_relu5b_0_split <- conv5b
I0418 00:41:05.051832 28450 net.cpp:408] conv5b_relu5b_0_split -> conv5b_relu5b_0_split_0
I0418 00:41:05.051841 28450 net.cpp:408] conv5b_relu5b_0_split -> conv5b_relu5b_0_split_1
I0418 00:41:05.051879 28450 net.cpp:150] Setting up conv5b_relu5b_0_split
I0418 00:41:05.051889 28450 net.cpp:157] Top shape: 1 512 96 7 7 (2408448)
I0418 00:41:05.051893 28450 net.cpp:157] Top shape: 1 512 96 7 7 (2408448)
I0418 00:41:05.051897 28450 net.cpp:165] Memory required for data: 10163651772
I0418 00:41:05.051899 28450 layer_factory.hpp:77] Creating layer rpn_conv/3x3
I0418 00:41:05.051910 28450 net.cpp:100] Creating Layer rpn_conv/3x3
I0418 00:41:05.051916 28450 net.cpp:434] rpn_conv/3x3 <- conv5b_relu5b_0_split_0
I0418 00:41:05.051923 28450 net.cpp:408] rpn_conv/3x3 -> rpn/output
I0418 00:41:05.239115 28450 net.cpp:150] Setting up rpn_conv/3x3
I0418 00:41:05.239140 28450 net.cpp:157] Top shape: 1 512 96 4 4 (786432)
I0418 00:41:05.239145 28450 net.cpp:165] Memory required for data: 10166797500
I0418 00:41:05.239159 28450 layer_factory.hpp:77] Creating layer rpn_relu/3x3
I0418 00:41:05.239171 28450 net.cpp:100] Creating Layer rpn_relu/3x3
I0418 00:41:05.239174 28450 net.cpp:434] rpn_relu/3x3 <- rpn/output
I0418 00:41:05.239181 28450 net.cpp:395] rpn_relu/3x3 -> rpn/output (in-place)
I0418 00:41:05.239516 28450 net.cpp:150] Setting up rpn_relu/3x3
I0418 00:41:05.239527 28450 net.cpp:157] Top shape: 1 512 96 4 4 (786432)
I0418 00:41:05.239531 28450 net.cpp:165] Memory required for data: 10169943228
I0418 00:41:05.239536 28450 layer_factory.hpp:77] Creating layer rpn_conv/3x3_2
I0418 00:41:05.239547 28450 net.cpp:100] Creating Layer rpn_conv/3x3_2
I0418 00:41:05.239553 28450 net.cpp:434] rpn_conv/3x3_2 <- rpn/output
I0418 00:41:05.239559 28450 net.cpp:408] rpn_conv/3x3_2 -> rpn/output_2
I0418 00:41:05.426861 28450 net.cpp:150] Setting up rpn_conv/3x3_2
I0418 00:41:05.426883 28450 net.cpp:157] Top shape: 1 512 96 2 2 (196608)
I0418 00:41:05.426887 28450 net.cpp:165] Memory required for data: 10170729660
I0418 00:41:05.426898 28450 layer_factory.hpp:77] Creating layer rpn_relu/3x3_2
I0418 00:41:05.426906 28450 net.cpp:100] Creating Layer rpn_relu/3x3_2
I0418 00:41:05.426910 28450 net.cpp:434] rpn_relu/3x3_2 <- rpn/output_2
I0418 00:41:05.426918 28450 net.cpp:395] rpn_relu/3x3_2 -> rpn/output_2 (in-place)
I0418 00:41:05.427250 28450 net.cpp:150] Setting up rpn_relu/3x3_2
I0418 00:41:05.427263 28450 net.cpp:157] Top shape: 1 512 96 2 2 (196608)
I0418 00:41:05.427266 28450 net.cpp:165] Memory required for data: 10171516092
I0418 00:41:05.427270 28450 layer_factory.hpp:77] Creating layer rpn/output_pool
I0418 00:41:05.427278 28450 net.cpp:100] Creating Layer rpn/output_pool
I0418 00:41:05.427283 28450 net.cpp:434] rpn/output_pool <- rpn/output_2
I0418 00:41:05.427287 28450 net.cpp:408] rpn/output_pool -> rpn/output_pool
I0418 00:41:05.427459 28450 net.cpp:150] Setting up rpn/output_pool
I0418 00:41:05.427469 28450 net.cpp:157] Top shape: 1 512 96 1 1 (49152)
I0418 00:41:05.427472 28450 net.cpp:165] Memory required for data: 10171712700
I0418 00:41:05.427475 28450 layer_factory.hpp:77] Creating layer rpn/output_pool_rpn/output_pool_0_split
I0418 00:41:05.427482 28450 net.cpp:100] Creating Layer rpn/output_pool_rpn/output_pool_0_split
I0418 00:41:05.427485 28450 net.cpp:434] rpn/output_pool_rpn/output_pool_0_split <- rpn/output_pool
I0418 00:41:05.427490 28450 net.cpp:408] rpn/output_pool_rpn/output_pool_0_split -> rpn/output_pool_rpn/output_pool_0_split_0
I0418 00:41:05.427498 28450 net.cpp:408] rpn/output_pool_rpn/output_pool_0_split -> rpn/output_pool_rpn/output_pool_0_split_1
I0418 00:41:05.427529 28450 net.cpp:150] Setting up rpn/output_pool_rpn/output_pool_0_split
I0418 00:41:05.427537 28450 net.cpp:157] Top shape: 1 512 96 1 1 (49152)
I0418 00:41:05.427541 28450 net.cpp:157] Top shape: 1 512 96 1 1 (49152)
I0418 00:41:05.427544 28450 net.cpp:165] Memory required for data: 10172105916
I0418 00:41:05.427547 28450 layer_factory.hpp:77] Creating layer rpn_cls_score
I0418 00:41:05.427557 28450 net.cpp:100] Creating Layer rpn_cls_score
I0418 00:41:05.427564 28450 net.cpp:434] rpn_cls_score <- rpn/output_pool_rpn/output_pool_0_split_0
I0418 00:41:05.427572 28450 net.cpp:408] rpn_cls_score -> rpn_cls_score
I0418 00:41:05.431391 28450 net.cpp:150] Setting up rpn_cls_score
I0418 00:41:05.431404 28450 net.cpp:157] Top shape: 1 74 96 1 1 (7104)
I0418 00:41:05.431407 28450 net.cpp:165] Memory required for data: 10172134332
I0418 00:41:05.431414 28450 layer_factory.hpp:77] Creating layer rpn_cls_score_rpn_cls_score_0_split
I0418 00:41:05.431421 28450 net.cpp:100] Creating Layer rpn_cls_score_rpn_cls_score_0_split
I0418 00:41:05.431427 28450 net.cpp:434] rpn_cls_score_rpn_cls_score_0_split <- rpn_cls_score
I0418 00:41:05.431432 28450 net.cpp:408] rpn_cls_score_rpn_cls_score_0_split -> rpn_cls_score_rpn_cls_score_0_split_0
I0418 00:41:05.431438 28450 net.cpp:408] rpn_cls_score_rpn_cls_score_0_split -> rpn_cls_score_rpn_cls_score_0_split_1
I0418 00:41:05.431483 28450 net.cpp:150] Setting up rpn_cls_score_rpn_cls_score_0_split
I0418 00:41:05.431493 28450 net.cpp:157] Top shape: 1 74 96 1 1 (7104)
I0418 00:41:05.431496 28450 net.cpp:157] Top shape: 1 74 96 1 1 (7104)
I0418 00:41:05.431499 28450 net.cpp:165] Memory required for data: 10172191164
I0418 00:41:05.431504 28450 layer_factory.hpp:77] Creating layer rpn_twin_pred
I0418 00:41:05.431514 28450 net.cpp:100] Creating Layer rpn_twin_pred
I0418 00:41:05.431519 28450 net.cpp:434] rpn_twin_pred <- rpn/output_pool_rpn/output_pool_0_split_1
I0418 00:41:05.431525 28450 net.cpp:408] rpn_twin_pred -> rpn_twin_pred
I0418 00:41:05.434566 28450 net.cpp:150] Setting up rpn_twin_pred
I0418 00:41:05.434581 28450 net.cpp:157] Top shape: 1 74 96 1 1 (7104)
I0418 00:41:05.434586 28450 net.cpp:165] Memory required for data: 10172219580
I0418 00:41:05.434592 28450 layer_factory.hpp:77] Creating layer rpn_twin_pred_rpn_twin_pred_0_split
I0418 00:41:05.434597 28450 net.cpp:100] Creating Layer rpn_twin_pred_rpn_twin_pred_0_split
I0418 00:41:05.434602 28450 net.cpp:434] rpn_twin_pred_rpn_twin_pred_0_split <- rpn_twin_pred
I0418 00:41:05.434607 28450 net.cpp:408] rpn_twin_pred_rpn_twin_pred_0_split -> rpn_twin_pred_rpn_twin_pred_0_split_0
I0418 00:41:05.434613 28450 net.cpp:408] rpn_twin_pred_rpn_twin_pred_0_split -> rpn_twin_pred_rpn_twin_pred_0_split_1
I0418 00:41:05.434648 28450 net.cpp:150] Setting up rpn_twin_pred_rpn_twin_pred_0_split
I0418 00:41:05.434657 28450 net.cpp:157] Top shape: 1 74 96 1 1 (7104)
I0418 00:41:05.434661 28450 net.cpp:157] Top shape: 1 74 96 1 1 (7104)
I0418 00:41:05.434664 28450 net.cpp:165] Memory required for data: 10172276412
I0418 00:41:05.434667 28450 layer_factory.hpp:77] Creating layer rpn_cls_score_reshape
I0418 00:41:05.434677 28450 net.cpp:100] Creating Layer rpn_cls_score_reshape
I0418 00:41:05.434684 28450 net.cpp:434] rpn_cls_score_reshape <- rpn_cls_score_rpn_cls_score_0_split_0
I0418 00:41:05.434690 28450 net.cpp:408] rpn_cls_score_reshape -> rpn_cls_score_reshape
I0418 00:41:05.434720 28450 net.cpp:150] Setting up rpn_cls_score_reshape
I0418 00:41:05.434725 28450 net.cpp:157] Top shape: 1 2 3552 1 1 (7104)
I0418 00:41:05.434728 28450 net.cpp:165] Memory required for data: 10172304828
I0418 00:41:05.434733 28450 layer_factory.hpp:77] Creating layer rpn_cls_score_reshape_rpn_cls_score_reshape_0_split
I0418 00:41:05.434738 28450 net.cpp:100] Creating Layer rpn_cls_score_reshape_rpn_cls_score_reshape_0_split
I0418 00:41:05.434742 28450 net.cpp:434] rpn_cls_score_reshape_rpn_cls_score_reshape_0_split <- rpn_cls_score_reshape
I0418 00:41:05.434747 28450 net.cpp:408] rpn_cls_score_reshape_rpn_cls_score_reshape_0_split -> rpn_cls_score_reshape_rpn_cls_score_reshape_0_split_0
I0418 00:41:05.434756 28450 net.cpp:408] rpn_cls_score_reshape_rpn_cls_score_reshape_0_split -> rpn_cls_score_reshape_rpn_cls_score_reshape_0_split_1
I0418 00:41:05.434777 28450 net.cpp:408] rpn_cls_score_reshape_rpn_cls_score_reshape_0_split -> rpn_cls_score_reshape_rpn_cls_score_reshape_0_split_2
I0418 00:41:05.434821 28450 net.cpp:150] Setting up rpn_cls_score_reshape_rpn_cls_score_reshape_0_split
I0418 00:41:05.434830 28450 net.cpp:157] Top shape: 1 2 3552 1 1 (7104)
I0418 00:41:05.434834 28450 net.cpp:157] Top shape: 1 2 3552 1 1 (7104)
I0418 00:41:05.434837 28450 net.cpp:157] Top shape: 1 2 3552 1 1 (7104)
I0418 00:41:05.434842 28450 net.cpp:165] Memory required for data: 10172390076
I0418 00:41:05.434845 28450 layer_factory.hpp:77] Creating layer rpn-data
I0418 00:41:05.435235 28450 net.cpp:100] Creating Layer rpn-data
I0418 00:41:05.435247 28450 net.cpp:434] rpn-data <- rpn_cls_score_rpn_cls_score_0_split_1
I0418 00:41:05.435253 28450 net.cpp:434] rpn-data <- gt_boxes_data_1_split_0
I0418 00:41:05.435258 28450 net.cpp:434] rpn-data <- data_data_0_split_1
I0418 00:41:05.435263 28450 net.cpp:408] rpn-data -> rpn_labels
I0418 00:41:05.435271 28450 net.cpp:408] rpn-data -> rpn_twin_targets
I0418 00:41:05.435278 28450 net.cpp:408] rpn-data -> rpn_twin_inside_weights
I0418 00:41:05.435284 28450 net.cpp:408] rpn-data -> rpn_twin_outside_weights
I0418 00:41:05.437495 28450 net.cpp:150] Setting up rpn-data
I0418 00:41:05.437510 28450 net.cpp:157] Top shape: 1 1 3552 1 1 (3552)
I0418 00:41:05.437515 28450 net.cpp:157] Top shape: 1 74 96 1 1 (7104)
I0418 00:41:05.437518 28450 net.cpp:157] Top shape: 1 74 96 1 1 (7104)
I0418 00:41:05.437522 28450 net.cpp:157] Top shape: 1 74 96 1 1 (7104)
I0418 00:41:05.437525 28450 net.cpp:165] Memory required for data: 10172489532
I0418 00:41:05.437528 28450 layer_factory.hpp:77] Creating layer rpn_labels_rpn-data_0_split
I0418 00:41:05.437535 28450 net.cpp:100] Creating Layer rpn_labels_rpn-data_0_split
I0418 00:41:05.437538 28450 net.cpp:434] rpn_labels_rpn-data_0_split <- rpn_labels
I0418 00:41:05.437544 28450 net.cpp:408] rpn_labels_rpn-data_0_split -> rpn_labels_rpn-data_0_split_0
I0418 00:41:05.437551 28450 net.cpp:408] rpn_labels_rpn-data_0_split -> rpn_labels_rpn-data_0_split_1
I0418 00:41:05.437582 28450 net.cpp:150] Setting up rpn_labels_rpn-data_0_split
I0418 00:41:05.437590 28450 net.cpp:157] Top shape: 1 1 3552 1 1 (3552)
I0418 00:41:05.437594 28450 net.cpp:157] Top shape: 1 1 3552 1 1 (3552)
I0418 00:41:05.437597 28450 net.cpp:165] Memory required for data: 10172517948
I0418 00:41:05.437602 28450 layer_factory.hpp:77] Creating layer rpn_loss_cls
I0418 00:41:05.437610 28450 net.cpp:100] Creating Layer rpn_loss_cls
I0418 00:41:05.437613 28450 net.cpp:434] rpn_loss_cls <- rpn_cls_score_reshape_rpn_cls_score_reshape_0_split_0
I0418 00:41:05.437618 28450 net.cpp:434] rpn_loss_cls <- rpn_labels_rpn-data_0_split_0
…
I0418 00:41:05.438206 28450 layer_factory.hpp:77] Creating layer rpn_accuarcy
I0418 00:41:05.438215 28450 net.cpp:100] Creating Layer rpn_accuarcy
I0418 00:41:05.438218 28450 net.cpp:434] rpn_accuarcy <- rpn_cls_score_reshape_rpn_cls_score_reshape_0_split_1
I0418 00:41:05.438223 28450 net.cpp:434] rpn_accuarcy <- rpn_labels_rpn-data_0_split_1
I0418 00:41:05.438230 28450 net.cpp:408] rpn_accuarcy -> rpn_accuarcy
I0418 00:41:05.438236 28450 net.cpp:408] rpn_accuarcy -> rpn_accuarcy_class
I0418 00:41:05.438273 28450 net.cpp:150] Setting up rpn_accuarcy
I0418 00:41:05.438280 28450 net.cpp:157] Top shape: (1)
I0418 00:41:05.438283 28450 net.cpp:157] Top shape: 2 (2)
I0418 00:41:05.438287 28450 net.cpp:165] Memory required for data: 10172517968
I0418 00:41:05.438289 28450 layer_factory.hpp:77] Creating layer rpn_cls_prob
I0418 00:41:05.438294 28450 net.cpp:100] Creating Layer rpn_cls_prob
I0418 00:41:05.438298 28450 net.cpp:434] rpn_cls_prob <- rpn_cls_score_reshape_rpn_cls_score_reshape_0_split_2
I0418 00:41:05.438304 28450 net.cpp:408] rpn_cls_prob -> rpn_cls_prob
I0418 00:41:05.438496 28450 net.cpp:150] Setting up rpn_cls_prob
I0418 00:41:05.438506 28450 net.cpp:157] Top shape: 1 2 3552 1 1 (7104)
I0418 00:41:05.438509 28450 net.cpp:165] Memory required for data: 10172546384
I0418 00:41:05.438513 28450 layer_factory.hpp:77] Creating layer rpn_cls_prob_reshape
I0418 00:41:05.438520 28450 net.cpp:100] Creating Layer rpn_cls_prob_reshape
I0418 00:41:05.438524 28450 net.cpp:434] rpn_cls_prob_reshape <- rpn_cls_prob
I0418 00:41:05.438529 28450 net.cpp:408] rpn_cls_prob_reshape -> rpn_cls_prob_reshape
I0418 00:41:05.438554 28450 net.cpp:150] Setting up rpn_cls_prob_reshape
I0418 00:41:05.438562 28450 net.cpp:157] Top shape: 1 74 96 1 1 (7104)
I0418 00:41:05.438565 28450 net.cpp:165] Memory required for data: 10172574800
I0418 00:41:05.438568 28450 layer_factory.hpp:77] Creating layer proposal
I0418 00:41:05.439133 28450 net.cpp:100] Creating Layer proposal
I0418 00:41:05.439146 28450 net.cpp:434] proposal <- rpn_cls_prob_reshape
I0418 00:41:05.439152 28450 net.cpp:434] proposal <- rpn_twin_pred_rpn_twin_pred_0_split_1
I0418 00:41:05.439157 28450 net.cpp:408] proposal -> rpn_rois
I0418 00:41:05.442667 28450 net.cpp:150] Setting up proposal
I0418 00:41:05.442682 28450 net.cpp:157] Top shape: 1 3 (3)
I0418 00:41:05.442685 28450 net.cpp:165] Memory required for data: 10172574812
I0418 00:41:05.442690 28450 layer_factory.hpp:77] Creating layer roi-data
I0418 00:41:05.444242 28450 net.cpp:100] Creating Layer roi-data
I0418 00:41:05.444255 28450 net.cpp:434] roi-data <- rpn_rois
I0418 00:41:05.444262 28450 net.cpp:434] roi-data <- gt_boxes_data_1_split_1
I0418 00:41:05.444267 28450 net.cpp:408] roi-data -> rois
I0418 00:41:05.444277 28450 net.cpp:408] roi-data -> labels
I0418 00:41:05.444283 28450 net.cpp:408] roi-data -> twin_targets
I0418 00:41:05.444288 28450 net.cpp:408] roi-data -> twin_inside_weights
I0418 00:41:05.444294 28450 net.cpp:408] roi-data -> twin_outside_weights
I0418 00:41:05.444597 28450 net.cpp:150] Setting up roi-data
I0418 00:41:05.444609 28450 net.cpp:157] Top shape: 1 3 (3)
I0418 00:41:05.444614 28450 net.cpp:157] Top shape: 1 1 (1)
I0418 00:41:05.444618 28450 net.cpp:157] Top shape: 1 402 (402)
I0418 00:41:05.444622 28450 net.cpp:157] Top shape: 1 402 (402)
I0418 00:41:05.444625 28450 net.cpp:157] Top shape: 1 402 (402)
I0418 00:41:05.444628 28450 net.cpp:165] Memory required for data: 10172579652
I0418 00:41:05.444633 28450 layer_factory.hpp:77] Creating layer labels_roi-data_1_split
I0418 00:41:05.444638 28450 net.cpp:100] Creating Layer labels_roi-data_1_split
I0418 00:41:05.444641 28450 net.cpp:434] labels_roi-data_1_split <- labels
I0418 00:41:05.444646 28450 net.cpp:408] labels_roi-data_1_split -> labels_roi-data_1_split_0
I0418 00:41:05.444653 28450 net.cpp:408] labels_roi-data_1_split -> labels_roi-data_1_split_1
I0418 00:41:05.444684 28450 net.cpp:150] Setting up labels_roi-data_1_split
I0418 00:41:05.444692 28450 net.cpp:157] Top shape: 1 1 (1)
I0418 00:41:05.444697 28450 net.cpp:157] Top shape: 1 1 (1)
I0418 00:41:05.444700 28450 net.cpp:165] Memory required for data: 10172579660
I0418 00:41:05.444705 28450 layer_factory.hpp:77] Creating layer roi_pool5
I0418 00:41:05.444713 28450 net.cpp:100] Creating Layer roi_pool5
I0418 00:41:05.444717 28450 net.cpp:434] roi_pool5 <- conv5b_relu5b_0_split_1
I0418 00:41:05.444722 28450 net.cpp:434] roi_pool5 <- rois
I0418 00:41:05.444726 28450 net.cpp:408] roi_pool5 -> pool5
I0418 00:41:05.444733 28450 roi_pooling_layer.cpp:34] Temporal scale: 0.125
I0418 00:41:05.444744 28450 roi_pooling_layer.cpp:35] Spatial scale: 0.0625
I0418 00:41:05.444777 28450 net.cpp:150] Setting up roi_pool5
I0418 00:41:05.444787 28450 net.cpp:157] Top shape: 1 512 1 4 4 (8192)
I0418 00:41:05.444790 28450 net.cpp:165] Memory required for data: 10172612428
I0418 00:41:05.444795 28450 layer_factory.hpp:77] Creating layer fc6
I0418 00:41:05.444803 28450 net.cpp:100] Creating Layer fc6
I0418 00:41:05.444808 28450 net.cpp:434] fc6 <- pool5
I0418 00:41:05.444813 28450 net.cpp:408] fc6 -> fc6
I0418 00:41:06.320680 28450 net.cpp:150] Setting up fc6
I0418 00:41:06.320704 28450 net.cpp:157] Top shape: 1 4096 (4096)
I0418 00:41:06.320708 28450 net.cpp:165] Memory required for data: 10172628812
I0418 00:41:06.320719 28450 layer_factory.hpp:77] Creating layer relu6
I0418 00:41:06.320729 28450 net.cpp:100] Creating Layer relu6
I0418 00:41:06.320734 28450 net.cpp:434] relu6 <- fc6
I0418 00:41:06.320740 28450 net.cpp:395] relu6 -> fc6 (in-place)
I0418 00:41:06.321166 28450 net.cpp:150] Setting up relu6
I0418 00:41:06.321182 28450 net.cpp:157] Top shape: 1 4096 (4096)
I0418 00:41:06.321185 28450 net.cpp:165] Memory required for data: 10172645196
I0418 00:41:06.321189 28450 layer_factory.hpp:77] Creating layer drop6
I0418 00:41:06.321202 28450 net.cpp:100] Creating Layer drop6
I0418 00:41:06.321208 28450 net.cpp:434] drop6 <- fc6
I0418 00:41:06.321213 28450 net.cpp:395] drop6 -> fc6 (in-place)
I0418 00:41:06.321241 28450 net.cpp:150] Setting up drop6
I0418 00:41:06.321249 28450 net.cpp:157] Top shape: 1 4096 (4096)
I0418 00:41:06.321252 28450 net.cpp:165] Memory required for data: 10172661580
I0418 00:41:06.321256 28450 layer_factory.hpp:77] Creating layer fc6_drop6_0_split
I0418 00:41:06.321264 28450 net.cpp:100] Creating Layer fc6_drop6_0_split
I0418 00:41:06.321267 28450 net.cpp:434] fc6_drop6_0_split <- fc6
I0418 00:41:06.321274 28450 net.cpp:408] fc6_drop6_0_split -> fc6_drop6_0_split_0
I0418 00:41:06.321283 28450 net.cpp:408] fc6_drop6_0_split -> fc6_drop6_0_split_1
I0418 00:41:06.321316 28450 net.cpp:150] Setting up fc6_drop6_0_split
I0418 00:41:06.321322 28450 net.cpp:157] Top shape: 1 4096 (4096)
I0418 00:41:06.321327 28450 net.cpp:157] Top shape: 1 4096 (4096)
I0418 00:41:06.321331 28450 net.cpp:165] Memory required for data: 10172694348
I0418 00:41:06.321336 28450 layer_factory.hpp:77] Creating layer cls_score
I0418 00:41:06.321342 28450 net.cpp:100] Creating Layer cls_score
I0418 00:41:06.321346 28450 net.cpp:434] cls_score <- fc6_drop6_0_split_0
I0418 00:41:06.321352 28450 net.cpp:408] cls_score -> cls_score
I0418 00:41:06.342846 28450 net.cpp:150] Setting up cls_score
I0418 00:41:06.342861 28450 net.cpp:157] Top shape: 1 201 (201)
I0418 00:41:06.342865 28450 net.cpp:165] Memory required for data: 10172695152
I0418 00:41:06.342872 28450 layer_factory.hpp:77] Creating layer cls_score_cls_score_0_split
I0418 00:41:06.342877 28450 net.cpp:100] Creating Layer cls_score_cls_score_0_split
I0418 00:41:06.342881 28450 net.cpp:434] cls_score_cls_score_0_split <- cls_score
I0418 00:41:06.342886 28450 net.cpp:408] cls_score_cls_score_0_split -> cls_score_cls_score_0_split_0
I0418 00:41:06.342892 28450 net.cpp:408] cls_score_cls_score_0_split -> cls_score_cls_score_0_split_1
I0418 00:41:06.342924 28450 net.cpp:150] Setting up cls_score_cls_score_0_split
I0418 00:41:06.342932 28450 net.cpp:157] Top shape: 1 201 (201)
I0418 00:41:06.342936 28450 net.cpp:157] Top shape: 1 201 (201)
I0418 00:41:06.342939 28450 net.cpp:165] Memory required for data: 10172696760
I0418 00:41:06.342942 28450 layer_factory.hpp:77] Creating layer twin_pred
I0418 00:41:06.342953 28450 net.cpp:100] Creating Layer twin_pred
I0418 00:41:06.342959 28450 net.cpp:434] twin_pred <- fc6_drop6_0_split_1
I0418 00:41:06.342965 28450 net.cpp:408] twin_pred -> twin_pred
I0418 00:41:06.385833 28450 net.cpp:150] Setting up twin_pred
I0418 00:41:06.385856 28450 net.cpp:157] Top shape: 1 402 (402)
I0418 00:41:06.385860 28450 net.cpp:165] Memory required for data: 10172698368
I0418 00:41:06.385869 28450 layer_factory.hpp:77] Creating layer loss_cls
I0418 00:41:06.385877 28450 net.cpp:100] Creating Layer loss_cls
I0418 00:41:06.385884 28450 net.cpp:434] loss_cls <- cls_score_cls_score_0_split_0
I0418 00:41:06.385890 28450 net.cpp:434] loss_cls <- labels_roi-data_1_split_0
I0418 00:41:06.385895 28450 net.cpp:408] loss_cls -> loss_cls
…
