…
stepsize: 350000
snapshot: 0
snapshot_prefix: "./experiments/activitynet/snapshot/activitynet"
average_loss: 100
iter_size: 1
I0417 23:28:36.471748 17440 solver.cpp:81] Creating training net from train_net file: ./experiments/activitynet/train.prototxt
I0417 23:28:36.472803 17440 net.cpp:58] Initializing net from parameters: 
name: "activitynet"
state {
  phase: TRAIN
}
layer {
  name: "data"
  type: "Python"
  top: "data"
  top: "gt_boxes"
  python_param {
    module: "roi_data_layer.layer"
    layer: "RoIDataLayer"
    param_str: "\'num_classes\': 100"
  }
}
layer {
  name: "conv1a"
  type: "Convolution"
  bottom: "data"
  top: "conv1a"
  param {
    lr_mult: 0
    decay_mult: 0
  }
  param {
    lr_mult: 0
    decay_mult: 0
  }
  convolution_param {
    num_output: 64
    pad: 1
    pad: 1
    pad: 1
    kernel_size: 3
    kernel_size: 3
    kernel_size: 3
    weight_filler {
      type: "gaussian"
      std: 0.01
    }
    bias_filler {
      type: "constant"
      value: 0
    }
  }
}
layer {
  name: "relu1a"
  type: "ReLU"
  bottom: "conv1a"
  top: "conv1a"
}
layer {
  name: "pool1"
  type: "Pooling"
  bottom: "conv1a"
  top: "pool1"
  pooling_param {
    pool: MAX
    kernel_size: 1
    kernel_size: 2
    kernel_size: 2
    stride: 1
    stride: 2
    stride: 2
  }
}
layer {
  name: "conv2a"
  type: "Convolution"
  bottom: "pool1"
  top: "conv2a"
  param {
    lr_mult: 0
    decay_mult: 0
  }
  param {
    lr_mult: 0
    decay_mult: 0
  }
  convolution_param {
    num_output: 128
    pad: 1
    pad: 1
    pad: 1
    kernel_size: 3
    kernel_size: 3
    kernel_size: 3
    weight_filler {
      type: "gaussian"
      std: 0.01
    }
    bias_filler {
      type: "constant"
      value: 1
    }
  }
}
layer {
  name: "relu2a"
  type: "ReLU"
  bottom: "conv2a"
  top: "conv2a"
}
layer {
  name: "pool2"
  type: "Pooling"
  bottom: "conv2a"
  top: "pool2"
  pooling_param {
    pool: MAX
    kernel_size: 2
    kernel_size: 2
    kernel_size: 2
    stride: 2
    stride: 2
    stride: 2
  }
}
layer {
  name: "conv3a"
  type: "Convolution"
  bottom: "pool2"
  top: "conv3a"
  param {
    lr_mult: 1
    decay_mult: 1
  }
  param {
    lr_mult: 2
    decay_mult: 0
  }
  convolution_param {
    num_output: 256
    pad: 1
    pad: 1
    pad: 1
    kernel_size: 3
    kernel_size: 3
    kernel_size: 3
    weight_filler {
      type: "gaussian"
      std: 0.01
    }
    bias_filler {
      type: "constant"
      value: 1
    }
  }
}
layer {
  name: "relu3a"
  type: "ReLU"
  bottom: "conv3a"
  top: "conv3a"
}
layer {
  name: "conv3b"
  type: "Convolution"
  bottom: "conv3a"
  top: "conv3b"
  param {
    lr_mult: 1
    decay_mult: 1
  }
  param {
    lr_mult: 2
    decay_mult: 0
  }
  convolution_param {
    num_output: 256
    pad: 1
    pad: 1
    pad: 1
    kernel_size: 3
    kernel_size: 3
    kernel_size: 3
    weight_filler {
      type: "gaussian"
      std: 0.01
    }
    bias_filler {
      type: "constant"
      value: 1
    }
  }
}
layer {
  name: "relu3b"
  type: "ReLU"
  bottom: "conv3b"
  top: "conv3b"
}
layer {
  name: "pool3"
  type: "Pooling"
  bottom: "conv3b"
  top: "pool3"
  pooling_param {
    pool: MAX
    kernel_size: 2
    kernel_size: 2
    kernel_size: 2
    stride: 2
    stride: 2
    stride: 2
  }
}
layer {
  name: "conv4a"
  type: "Convolution"
  bottom: "pool3"
  top: "conv4a"
  param {
    lr_mult: 1
    decay_mult: 1
  }
  param {
    lr_mult: 2
    decay_mult: 0
  }
  convolution_param {
    num_output: 512
    pad: 1
    pad: 1
    pad: 1
    kernel_size: 3
    kernel_size: 3
    kernel_size: 3
    weight_filler {
      type: "gaussian"
      std: 0.01
    }
    bias_filler {
      type: "constant"
      value: 1
    }
  }
}
layer {
  name: "relu4a"
  type: "ReLU"
  bottom: "conv4a"
  top: "conv4a"
}
layer {
  name: "conv4b"
  type: "Convolution"
  bottom: "conv4a"
  top: "conv4b"
  param {
    lr_mult: 1
    decay_mult: 1
  }
  param {
    lr_mult: 2
    decay_mult: 0
  }
  convolution_param {
    num_output: 512
    pad: 1
    pad: 1
    pad: 1
    kernel_size: 3
    kernel_size: 3
    kernel_size: 3
    weight_filler {
      type: "gaussian"
      std: 0.01
    }
    bias_filler {
      type: "constant"
      value: 1
    }
  }
}
layer {
  name: "relu4b"
  type: "ReLU"
  bottom: "conv4b"
  top: "conv4b"
}
layer {
  name: "pool4"
  type: "Pooling"
  bottom: "conv4b"
  top: "pool4"
  pooling_param {
    pool: MAX
    kernel_size: 2
    kernel_size: 2
    kernel_size: 2
    stride: 2
    stride: 2
    stride: 2
  }
}
layer {
  name: "conv5a"
  type: "Convolution"
  bottom: "pool4"
  top: "conv5a"
  param {
    lr_mult: 1
    decay_mult: 1
  }
  param {
    lr_mult: 2
    decay_mult: 0
  }
  convolution_param {
    num_output: 512
    pad: 1
    pad: 1
    pad: 1
    kernel_size: 3
    kernel_size: 3
    kernel_size: 3
    weight_filler {
      type: "gaussian"
      std: 0.01
    }
    bias_filler {
      type: "constant"
      value: 1
    }
  }
}
layer {
  name: "relu5a"
  type: "ReLU"
  bottom: "conv5a"
  top: "conv5a"
}
layer {
  name: "conv5b"
  type: "Convolution"
  bottom: "conv5a"
  top: "conv5b"
  param {
    lr_mult: 1
    decay_mult: 1
  }
  param {
    lr_mult: 2
    decay_mult: 0
  }
  convolution_param {
    num_output: 512
    pad: 1
    pad: 1
    pad: 1
    kernel_size: 3
    kernel_size: 3
    kernel_size: 3
    weight_filler {
      type: "gaussian"
      std: 0.01
    }
    bias_filler {
      type: "constant"
      value: 1
    }
  }
}
layer {
  name: "relu5b"
  type: "ReLU"
  bottom: "conv5b"
  top: "conv5b"
}
layer {
  name: "rpn_conv/3x3"
  type: "Convolution"
  bottom: "conv5b"
  top: "rpn/output"
  param {
    lr_mult: 1
    decay_mult: 1
  }
  param {
    lr_mult: 2
    decay_mult: 0
  }
  convolution_param {
    num_output: 512
    pad: 1
    pad: 1
    pad: 1
    kernel_size: 3
    kernel_size: 3
    kernel_size: 3
    stride: 1
    stride: 2
    stride: 2
    weight_filler {
      type: "gaussian"
      std: 0.01
    }
    bias_filler {
      type: "constant"
      value: 0
    }
  }
}
layer {
  name: "rpn_relu/3x3"
  type: "ReLU"
  bottom: "rpn/output"
  top: "rpn/output"
}
layer {
  name: "rpn_conv/3x3_2"
  type: "Convolution"
  bottom: "rpn/output"
  top: "rpn/output_2"
  param {
    lr_mult: 1
    decay_mult: 1
  }
  param {
    lr_mult: 2
    decay_mult: 0
  }
  convolution_param {
    num_output: 512
    pad: 1
    pad: 1
    pad: 1
    kernel_size: 3
    kernel_size: 3
    kernel_size: 3
    stride: 1
    stride: 2
    stride: 2
    weight_filler {
      type: "gaussian"
      std: 0.01
    }
    bias_filler {
      type: "constant"
      value: 0
    }
  }
}
layer {
  name: "rpn_relu/3x3_2"
  type: "ReLU"
  bottom: "rpn/output_2"
  top: "rpn/output_2"
}
layer {
  name: "rpn/output_pool"
  type: "Pooling"
  bottom: "rpn/output_2"
  top: "rpn/output_pool"
  pooling_param {
    pool: MAX
    kernel_size: 1
    kernel_size: 2
    kernel_size: 2
  }
}
layer {
  name: "rpn_cls_score"
  type: "Convolution"
  bottom: "rpn/output_pool"
  top: "rpn_cls_score"
  param {
    lr_mult: 1
    decay_mult: 1
  }
  param {
    lr_mult: 2
    decay_mult: 0
  }
  convolution_param {
    num_output: 74
    kernel_size: 1
    kernel_size: 1
    kernel_size: 1
    weight_filler {
      type: "gaussian"
      std: 0.01
    }
    bias_filler {
      type: "constant"
      value: 0
    }
  }
}
layer {
  name: "rpn_twin_pred"
  type: "Convolution"
  bottom: "rpn/output_pool"
  top: "rpn_twin_pred"
  param {
    lr_mult: 1
    decay_mult: 1
  }
  param {
    lr_mult: 2
    decay_mult: 0
  }
  convolution_param {
    num_output: 74
    kernel_size: 1
    kernel_size: 1
    kernel_size: 1
    weight_filler {
      type: "gaussian"
      std: 0.01
    }
    bias_filler {
      type: "constant"
      value: 0
    }
  }
}
layer {
  name: "rpn_cls_score_reshape"
  type: "Reshape"
  bottom: "rpn_cls_score"
  top: "rpn_cls_score_reshape"
  reshape_param {
    shape {
      dim: 0
      dim: 2
      dim: -1
      dim: 0
      dim: 0
    }
  }
}
layer {
  name: "rpn-data"
  type: "Python"
  bottom: "rpn_cls_score"
  bottom: "gt_boxes"
  bottom: "data"
  top: "rpn_labels"
  top: "rpn_twin_targets"
  top: "rpn_twin_inside_weights"
  top: "rpn_twin_outside_weights"
  python_param {
    module: "rpn.anchor_target_layer"
    layer: "AnchorTargetLayer"
    param_str: "\'feat_stride\': 8 \n\'scales\': !!python/tuple [1,1.25, 1.5,1.75, 2,2.5, 3,3.5, 4,4.5, 5,5.5, 6,7, 8,9,10,11,12,14,16,18,20,22,24,28,32,36,40,44,52,60,68,76,84,92,100]"
  }
}
layer {
  name: "rpn_loss_cls"
  type: "SoftmaxWithLoss"
  bottom: "rpn_cls_score_reshape"
  bottom: "rpn_labels"
  top: "rpn_cls_loss"
  loss_weight: 1
  propagate_down: true
  propagate_down: false
  loss_param {
    ignore_label: -1
    normalize: true
  }
}
layer {
  name: "rpn_loss_twin"
  type: "SmoothL1Loss"
  bottom: "rpn_twin_pred"
  bottom: "rpn_twin_targets"
  bottom: "rpn_twin_inside_weights"
  bottom: "rpn_twin_outside_weights"
  top: "rpn_loss_twin"
  loss_weight: 1
  smooth_l1_loss_param {
    sigma: 3
  }
}
layer {
  name: "rpn_accuarcy"
  type: "Accuracy"
  bottom: "rpn_cls_score_reshape"
  bottom: "rpn_labels"
  top: "rpn_accuarcy"
  top: "rpn_accuarcy_class"
  propagate_down: false
  propagate_down: false
  accuracy_param {
    ignore_label: -1
  }
}
layer {
  name: "rpn_cls_prob"
  type: "Softmax"
  bottom: "rpn_cls_score_reshape"
  top: "rpn_cls_prob"
}
layer {
  name: "rpn_cls_prob_reshape"
  type: "Reshape"
  bottom: "rpn_cls_prob"
  top: "rpn_cls_prob_reshape"
  reshape_param {
    shape {
      dim: 0
      dim: 74
      dim: -1
      dim: 0
      dim: 0
    }
  }
}
layer {
  name: "proposal"
  type: "Python"
  bottom: "rpn_cls_prob_reshape"
  bottom: "rpn_twin_pred"
  top: "rpn_rois"
  include {
    phase: TRAIN
  }
  python_param {
    module: "rpn.proposal_layer"
    layer: "ProposalLayer"
    param_str: "\'feat_stride\': 8 \n\'scales\': !!python/tuple [1,1.25, 1.5,1.75, 2,2.5, 3,3.5, 4,4.5, 5,5.5, 6,7, 8,9,10,11,12,14,16,18,20,22,24,28,32,36,40,44,52,60,68,76,84,92,100]"
  }
}
layer {
  name: "roi-data"
  type: "Python"
  bottom: "rpn_rois"
  bottom: "gt_boxes"
  top: "rois"
  top: "labels"
  top: "twin_targets"
  top: "twin_inside_weights"
  top: "twin_outside_weights"
  python_param {
    module: "rpn.proposal_target_layer"
    layer: "ProposalTargetLayer"
    param_str: "\'num_classes\': 201"
  }
}
layer {
  name: "roi_pool5"
  type: "ROIPooling"
  bottom: "conv5b"
  bottom: "rois"
  top: "pool5"
  roi_pooling_param {
    pooled_h: 4
    pooled_w: 4
    spatial_scale: 0.0625
    pooled_l: 1
    temporal_scale: 0.125
  }
}
layer {
  name: "fc6"
  type: "InnerProduct"
  bottom: "pool5"
  top: "fc6"
  param {
    lr_mult: 1
    decay_mult: 1
  }
  param {
    lr_mult: 2
    decay_mult: 0
  }
  inner_product_param {
    num_output: 4096
    weight_filler {
      type: "gaussian"
      std: 0.005
    }
    bias_filler {
      type: "constant"
      value: 1
    }
  }
}
layer {
  name: "relu6"
  type: "ReLU"
  bottom: "fc6"
  top: "fc6"
}
layer {
  name: "drop6"
  type: "Dropout"
  bottom: "fc6"
  top: "fc6"
  dropout_param {
    dropout_ratio: 0.5
  }
}
layer {
  name: "cls_score"
  type: "InnerProduct"
  bottom: "fc6"
  top: "cls_score"
  param {
    lr_mult: 1
    decay_mult: 1
  }
  param {
    lr_mult: 2
    decay_mult: 0
  }
  inner_product_param {
    num_output: 201
    weight_filler {
      type: "gaussian"
      std: 0.01
    }
    bias_filler {
      type: "constant"
      value: 0
    }
  }
}
layer {
  name: "twin_pred"
  type: "InnerProduct"
  bottom: "fc6"
  top: "twin_pred"
  param {
    lr_mult: 1
    decay_mult: 1
  }
  param {
    lr_mult: 2
    decay_mult: 0
  }
  inner_product_param {
    num_output: 402
    weight_filler {
      type: "gaussian"
      std: 0.001
    }
    bias_filler {
      type: "constant"
      value: 0
    }
  }
}
layer {
  name: "loss_cls"
  type: "SoftmaxWithLoss"
  bottom: "cls_score"
  bottom: "labels"
  top: "loss_cls"
  loss_weight: 1
  propagate_down: true
  propagate_down: false
}
layer {
  name: "loss_twin"
  type: "SmoothL1Loss"
  bottom: "twin_pred"
  bottom: "twin_targets"
  bottom: "twin_inside_weights"
  bottom: "twin_outside_weights"
  top: "loss_twin"
  loss_weight: 1
}
layer {
  name: "accuarcy"
  type: "Accuracy"
  bottom: "cls_score"
  bottom: "labels"
  top: "accuarcy"
  propagate_down: false
  propagate_down: false
  accuracy_param {
    ignore_label: -1
  }
}
I0417 23:28:36.473024 17440 layer_factory.hpp:77] Creating layer data
I0417 23:28:36.497714 17440 net.cpp:100] Creating Layer data
I0417 23:28:36.497737 17440 net.cpp:408] data -> data
I0417 23:28:36.497750 17440 net.cpp:408] data -> gt_boxes
setting up
has rpn
RoiDataLayer: name_to_top: {'gt_windows': 1, 'data': 0}
I0417 23:28:36.517153 17440 net.cpp:150] Setting up data
I0417 23:28:36.517174 17440 net.cpp:157] Top shape: 1 3 768 112 112 (28901376)
I0417 23:28:36.517181 17440 net.cpp:157] Top shape: 1 101 (101)
I0417 23:28:36.517185 17440 net.cpp:165] Memory required for data: 115605908
I0417 23:28:36.517192 17440 layer_factory.hpp:77] Creating layer data_data_0_split
I0417 23:28:36.517204 17440 net.cpp:100] Creating Layer data_data_0_split
I0417 23:28:36.517210 17440 net.cpp:434] data_data_0_split <- data
I0417 23:28:36.517215 17440 net.cpp:408] data_data_0_split -> data_data_0_split_0
I0417 23:28:36.517225 17440 net.cpp:408] data_data_0_split -> data_data_0_split_1
I0417 23:28:36.517256 17440 net.cpp:150] Setting up data_data_0_split
I0417 23:28:36.517262 17440 net.cpp:157] Top shape: 1 3 768 112 112 (28901376)
I0417 23:28:36.517266 17440 net.cpp:157] Top shape: 1 3 768 112 112 (28901376)
I0417 23:28:36.517269 17440 net.cpp:165] Memory required for data: 346816916
I0417 23:28:36.517273 17440 layer_factory.hpp:77] Creating layer gt_boxes_data_1_split
I0417 23:28:36.517279 17440 net.cpp:100] Creating Layer gt_boxes_data_1_split
I0417 23:28:36.517282 17440 net.cpp:434] gt_boxes_data_1_split <- gt_boxes
I0417 23:28:36.517287 17440 net.cpp:408] gt_boxes_data_1_split -> gt_boxes_data_1_split_0
I0417 23:28:36.517292 17440 net.cpp:408] gt_boxes_data_1_split -> gt_boxes_data_1_split_1
I0417 23:28:36.517315 17440 net.cpp:150] Setting up gt_boxes_data_1_split
I0417 23:28:36.517320 17440 net.cpp:157] Top shape: 1 101 (101)
I0417 23:28:36.517324 17440 net.cpp:157] Top shape: 1 101 (101)
I0417 23:28:36.517328 17440 net.cpp:165] Memory required for data: 346817724
I0417 23:28:36.517330 17440 layer_factory.hpp:77] Creating layer conv1a
I0417 23:28:36.517344 17440 net.cpp:100] Creating Layer conv1a
I0417 23:28:36.517349 17440 net.cpp:434] conv1a <- data_data_0_split_0
I0417 23:28:36.517356 17440 net.cpp:408] conv1a -> conv1a
I0417 23:28:36.780938 17440 net.cpp:150] Setting up conv1a
I0417 23:28:36.780968 17440 net.cpp:157] Top shape: 1 64 768 112 112 (616562688)
I0417 23:28:36.780972 17440 net.cpp:165] Memory required for data: 2813068476
I0417 23:28:36.780990 17440 layer_factory.hpp:77] Creating layer relu1a
I0417 23:28:36.781006 17440 net.cpp:100] Creating Layer relu1a
I0417 23:28:36.781014 17440 net.cpp:434] relu1a <- conv1a
I0417 23:28:36.781020 17440 net.cpp:395] relu1a -> conv1a (in-place)
I0417 23:28:36.781497 17440 net.cpp:150] Setting up relu1a
I0417 23:28:36.781510 17440 net.cpp:157] Top shape: 1 64 768 112 112 (616562688)
I0417 23:28:36.781514 17440 net.cpp:165] Memory required for data: 5279319228
I0417 23:28:36.781519 17440 layer_factory.hpp:77] Creating layer pool1
I0417 23:28:36.781532 17440 net.cpp:100] Creating Layer pool1
I0417 23:28:36.781535 17440 net.cpp:434] pool1 <- conv1a
I0417 23:28:36.781540 17440 net.cpp:408] pool1 -> pool1
I0417 23:28:36.782474 17440 net.cpp:150] Setting up pool1
I0417 23:28:36.782486 17440 net.cpp:157] Top shape: 1 64 768 56 56 (154140672)
I0417 23:28:36.782490 17440 net.cpp:165] Memory required for data: 5895881916
I0417 23:28:36.782493 17440 layer_factory.hpp:77] Creating layer conv2a
I0417 23:28:36.782506 17440 net.cpp:100] Creating Layer conv2a
I0417 23:28:36.782512 17440 net.cpp:434] conv2a <- pool1
I0417 23:28:36.782518 17440 net.cpp:408] conv2a -> conv2a
I0417 23:28:36.793738 17440 net.cpp:150] Setting up conv2a
I0417 23:28:36.793764 17440 net.cpp:157] Top shape: 1 128 768 56 56 (308281344)
I0417 23:28:36.793768 17440 net.cpp:165] Memory required for data: 7129007292
I0417 23:28:36.793781 17440 layer_factory.hpp:77] Creating layer relu2a
I0417 23:28:36.793790 17440 net.cpp:100] Creating Layer relu2a
I0417 23:28:36.793794 17440 net.cpp:434] relu2a <- conv2a
I0417 23:28:36.793800 17440 net.cpp:395] relu2a -> conv2a (in-place)
I0417 23:28:36.794157 17440 net.cpp:150] Setting up relu2a
I0417 23:28:36.794168 17440 net.cpp:157] Top shape: 1 128 768 56 56 (308281344)
I0417 23:28:36.794173 17440 net.cpp:165] Memory required for data: 8362132668
I0417 23:28:36.794176 17440 layer_factory.hpp:77] Creating layer pool2
I0417 23:28:36.794188 17440 net.cpp:100] Creating Layer pool2
I0417 23:28:36.794191 17440 net.cpp:434] pool2 <- conv2a
I0417 23:28:36.794196 17440 net.cpp:408] pool2 -> pool2
I0417 23:28:36.795394 17440 net.cpp:150] Setting up pool2
I0417 23:28:36.795416 17440 net.cpp:157] Top shape: 1 128 384 28 28 (38535168)
I0417 23:28:36.795421 17440 net.cpp:165] Memory required for data: 8516273340
I0417 23:28:36.795425 17440 layer_factory.hpp:77] Creating layer conv3a
I0417 23:28:36.795437 17440 net.cpp:100] Creating Layer conv3a
I0417 23:28:36.795441 17440 net.cpp:434] conv3a <- pool2
I0417 23:28:36.795447 17440 net.cpp:408] conv3a -> conv3a
I0417 23:28:36.825026 17440 net.cpp:150] Setting up conv3a
I0417 23:28:36.825050 17440 net.cpp:157] Top shape: 1 256 384 28 28 (77070336)
I0417 23:28:36.825058 17440 net.cpp:165] Memory required for data: 8824554684
I0417 23:28:36.825075 17440 layer_factory.hpp:77] Creating layer relu3a
I0417 23:28:36.825088 17440 net.cpp:100] Creating Layer relu3a
I0417 23:28:36.825096 17440 net.cpp:434] relu3a <- conv3a
I0417 23:28:36.825106 17440 net.cpp:395] relu3a -> conv3a (in-place)
I0417 23:28:36.825599 17440 net.cpp:150] Setting up relu3a
I0417 23:28:36.825626 17440 net.cpp:157] Top shape: 1 256 384 28 28 (77070336)
I0417 23:28:36.825634 17440 net.cpp:165] Memory required for data: 9132836028
I0417 23:28:36.825640 17440 layer_factory.hpp:77] Creating layer conv3b
I0417 23:28:36.825657 17440 net.cpp:100] Creating Layer conv3b
I0417 23:28:36.825665 17440 net.cpp:434] conv3b <- conv3a
I0417 23:28:36.825675 17440 net.cpp:408] conv3b -> conv3b
I0417 23:28:36.877112 17440 net.cpp:150] Setting up conv3b
I0417 23:28:36.877138 17440 net.cpp:157] Top shape: 1 256 384 28 28 (77070336)
I0417 23:28:36.877143 17440 net.cpp:165] Memory required for data: 9441117372
I0417 23:28:36.877152 17440 layer_factory.hpp:77] Creating layer relu3b
I0417 23:28:36.877161 17440 net.cpp:100] Creating Layer relu3b
I0417 23:28:36.877167 17440 net.cpp:434] relu3b <- conv3b
I0417 23:28:36.877174 17440 net.cpp:395] relu3b -> conv3b (in-place)
I0417 23:28:36.877503 17440 net.cpp:150] Setting up relu3b
I0417 23:28:36.877516 17440 net.cpp:157] Top shape: 1 256 384 28 28 (77070336)
I0417 23:28:36.877521 17440 net.cpp:165] Memory required for data: 9749398716
I0417 23:28:36.877524 17440 layer_factory.hpp:77] Creating layer pool3
I0417 23:28:36.877532 17440 net.cpp:100] Creating Layer pool3
I0417 23:28:36.877535 17440 net.cpp:434] pool3 <- conv3b
I0417 23:28:36.877547 17440 net.cpp:408] pool3 -> pool3
I0417 23:28:36.878613 17440 net.cpp:150] Setting up pool3
I0417 23:28:36.878626 17440 net.cpp:157] Top shape: 1 256 192 14 14 (9633792)
I0417 23:28:36.878630 17440 net.cpp:165] Memory required for data: 9787933884
I0417 23:28:36.878635 17440 layer_factory.hpp:77] Creating layer conv4a
I0417 23:28:36.878648 17440 net.cpp:100] Creating Layer conv4a
I0417 23:28:36.878654 17440 net.cpp:434] conv4a <- pool3
I0417 23:28:36.878661 17440 net.cpp:408] conv4a -> conv4a
I0417 23:28:36.974411 17440 net.cpp:150] Setting up conv4a
I0417 23:28:36.974436 17440 net.cpp:157] Top shape: 1 512 192 14 14 (19267584)
I0417 23:28:36.974440 17440 net.cpp:165] Memory required for data: 9865004220
I0417 23:28:36.974453 17440 layer_factory.hpp:77] Creating layer relu4a
I0417 23:28:36.974462 17440 net.cpp:100] Creating Layer relu4a
I0417 23:28:36.974467 17440 net.cpp:434] relu4a <- conv4a
I0417 23:28:36.974474 17440 net.cpp:395] relu4a -> conv4a (in-place)
I0417 23:28:36.974810 17440 net.cpp:150] Setting up relu4a
I0417 23:28:36.974823 17440 net.cpp:157] Top shape: 1 512 192 14 14 (19267584)
I0417 23:28:36.974826 17440 net.cpp:165] Memory required for data: 9942074556
I0417 23:28:36.974831 17440 layer_factory.hpp:77] Creating layer conv4b
I0417 23:28:36.974844 17440 net.cpp:100] Creating Layer conv4b
I0417 23:28:36.974850 17440 net.cpp:434] conv4b <- conv4a
I0417 23:28:36.974858 17440 net.cpp:408] conv4b -> conv4b
I0417 23:28:37.163645 17440 net.cpp:150] Setting up conv4b
I0417 23:28:37.163671 17440 net.cpp:157] Top shape: 1 512 192 14 14 (19267584)
I0417 23:28:37.163676 17440 net.cpp:165] Memory required for data: 10019144892
I0417 23:28:37.163683 17440 layer_factory.hpp:77] Creating layer relu4b
I0417 23:28:37.163694 17440 net.cpp:100] Creating Layer relu4b
I0417 23:28:37.163700 17440 net.cpp:434] relu4b <- conv4b
I0417 23:28:37.163707 17440 net.cpp:395] relu4b -> conv4b (in-place)
I0417 23:28:37.163861 17440 net.cpp:150] Setting up relu4b
I0417 23:28:37.163872 17440 net.cpp:157] Top shape: 1 512 192 14 14 (19267584)
I0417 23:28:37.163875 17440 net.cpp:165] Memory required for data: 10096215228
I0417 23:28:37.163878 17440 layer_factory.hpp:77] Creating layer pool4
I0417 23:28:37.163887 17440 net.cpp:100] Creating Layer pool4
I0417 23:28:37.163894 17440 net.cpp:434] pool4 <- conv4b
I0417 23:28:37.163902 17440 net.cpp:408] pool4 -> pool4
I0417 23:28:37.164265 17440 net.cpp:150] Setting up pool4
I0417 23:28:37.164278 17440 net.cpp:157] Top shape: 1 512 96 7 7 (2408448)
I0417 23:28:37.164283 17440 net.cpp:165] Memory required for data: 10105849020
I0417 23:28:37.164286 17440 layer_factory.hpp:77] Creating layer conv5a
I0417 23:28:37.164297 17440 net.cpp:100] Creating Layer conv5a
I0417 23:28:37.164304 17440 net.cpp:434] conv5a <- pool4
I0417 23:28:37.164311 17440 net.cpp:408] conv5a -> conv5a
I0417 23:28:37.352228 17440 net.cpp:150] Setting up conv5a
I0417 23:28:37.352264 17440 net.cpp:157] Top shape: 1 512 96 7 7 (2408448)
I0417 23:28:37.352269 17440 net.cpp:165] Memory required for data: 10115482812
I0417 23:28:37.352278 17440 layer_factory.hpp:77] Creating layer relu5a
I0417 23:28:37.352288 17440 net.cpp:100] Creating Layer relu5a
I0417 23:28:37.352293 17440 net.cpp:434] relu5a <- conv5a
I0417 23:28:37.352299 17440 net.cpp:395] relu5a -> conv5a (in-place)
I0417 23:28:37.352792 17440 net.cpp:150] Setting up relu5a
I0417 23:28:37.352805 17440 net.cpp:157] Top shape: 1 512 96 7 7 (2408448)
I0417 23:28:37.352809 17440 net.cpp:165] Memory required for data: 10125116604
I0417 23:28:37.352813 17440 layer_factory.hpp:77] Creating layer conv5b
I0417 23:28:37.352824 17440 net.cpp:100] Creating Layer conv5b
I0417 23:28:37.352828 17440 net.cpp:434] conv5b <- conv5a
I0417 23:28:37.352835 17440 net.cpp:408] conv5b -> conv5b
I0417 23:28:37.541239 17440 net.cpp:150] Setting up conv5b
I0417 23:28:37.541263 17440 net.cpp:157] Top shape: 1 512 96 7 7 (2408448)
I0417 23:28:37.541267 17440 net.cpp:165] Memory required for data: 10134750396
I0417 23:28:37.541277 17440 layer_factory.hpp:77] Creating layer relu5b
I0417 23:28:37.541288 17440 net.cpp:100] Creating Layer relu5b
I0417 23:28:37.541293 17440 net.cpp:434] relu5b <- conv5b
I0417 23:28:37.541299 17440 net.cpp:395] relu5b -> conv5b (in-place)
I0417 23:28:37.542304 17440 net.cpp:150] Setting up relu5b
I0417 23:28:37.542315 17440 net.cpp:157] Top shape: 1 512 96 7 7 (2408448)
I0417 23:28:37.542318 17440 net.cpp:165] Memory required for data: 10144384188
I0417 23:28:37.542322 17440 layer_factory.hpp:77] Creating layer conv5b_relu5b_0_split
I0417 23:28:37.542328 17440 net.cpp:100] Creating Layer conv5b_relu5b_0_split
I0417 23:28:37.542332 17440 net.cpp:434] conv5b_relu5b_0_split <- conv5b
I0417 23:28:37.542338 17440 net.cpp:408] conv5b_relu5b_0_split -> conv5b_relu5b_0_split_0
I0417 23:28:37.542345 17440 net.cpp:408] conv5b_relu5b_0_split -> conv5b_relu5b_0_split_1
I0417 23:28:37.542385 17440 net.cpp:150] Setting up conv5b_relu5b_0_split
I0417 23:28:37.542395 17440 net.cpp:157] Top shape: 1 512 96 7 7 (2408448)
I0417 23:28:37.542400 17440 net.cpp:157] Top shape: 1 512 96 7 7 (2408448)
I0417 23:28:37.542404 17440 net.cpp:165] Memory required for data: 10163651772
I0417 23:28:37.542407 17440 layer_factory.hpp:77] Creating layer rpn_conv/3x3
I0417 23:28:37.542419 17440 net.cpp:100] Creating Layer rpn_conv/3x3
I0417 23:28:37.542426 17440 net.cpp:434] rpn_conv/3x3 <- conv5b_relu5b_0_split_0
I0417 23:28:37.542433 17440 net.cpp:408] rpn_conv/3x3 -> rpn/output
I0417 23:28:37.733780 17440 net.cpp:150] Setting up rpn_conv/3x3
I0417 23:28:37.733804 17440 net.cpp:157] Top shape: 1 512 96 4 4 (786432)
I0417 23:28:37.733808 17440 net.cpp:165] Memory required for data: 10166797500
I0417 23:28:37.733821 17440 layer_factory.hpp:77] Creating layer rpn_relu/3x3
I0417 23:28:37.733831 17440 net.cpp:100] Creating Layer rpn_relu/3x3
I0417 23:28:37.733836 17440 net.cpp:434] rpn_relu/3x3 <- rpn/output
I0417 23:28:37.733842 17440 net.cpp:395] rpn_relu/3x3 -> rpn/output (in-place)
I0417 23:28:37.734185 17440 net.cpp:150] Setting up rpn_relu/3x3
I0417 23:28:37.734200 17440 net.cpp:157] Top shape: 1 512 96 4 4 (786432)
I0417 23:28:37.734203 17440 net.cpp:165] Memory required for data: 10169943228
I0417 23:28:37.734207 17440 layer_factory.hpp:77] Creating layer rpn_conv/3x3_2
I0417 23:28:37.734221 17440 net.cpp:100] Creating Layer rpn_conv/3x3_2
I0417 23:28:37.734226 17440 net.cpp:434] rpn_conv/3x3_2 <- rpn/output
I0417 23:28:37.734232 17440 net.cpp:408] rpn_conv/3x3_2 -> rpn/output_2
I0417 23:28:37.924283 17440 net.cpp:150] Setting up rpn_conv/3x3_2
I0417 23:28:37.924311 17440 net.cpp:157] Top shape: 1 512 96 2 2 (196608)
I0417 23:28:37.924316 17440 net.cpp:165] Memory required for data: 10170729660
I0417 23:28:37.924329 17440 layer_factory.hpp:77] Creating layer rpn_relu/3x3_2
I0417 23:28:37.924341 17440 net.cpp:100] Creating Layer rpn_relu/3x3_2
I0417 23:28:37.924353 17440 net.cpp:434] rpn_relu/3x3_2 <- rpn/output_2
I0417 23:28:37.924365 17440 net.cpp:395] rpn_relu/3x3_2 -> rpn/output_2 (in-place)
I0417 23:28:37.929630 17440 net.cpp:150] Setting up rpn_relu/3x3_2
I0417 23:28:37.929642 17440 net.cpp:157] Top shape: 1 512 96 2 2 (196608)
I0417 23:28:37.929646 17440 net.cpp:165] Memory required for data: 10171516092
I0417 23:28:37.929651 17440 layer_factory.hpp:77] Creating layer rpn/output_pool
I0417 23:28:37.929661 17440 net.cpp:100] Creating Layer rpn/output_pool
I0417 23:28:37.929664 17440 net.cpp:434] rpn/output_pool <- rpn/output_2
I0417 23:28:37.929669 17440 net.cpp:408] rpn/output_pool -> rpn/output_pool
I0417 23:28:37.931383 17440 net.cpp:150] Setting up rpn/output_pool
I0417 23:28:37.931396 17440 net.cpp:157] Top shape: 1 512 96 1 1 (49152)
I0417 23:28:37.931401 17440 net.cpp:165] Memory required for data: 10171712700
I0417 23:28:37.931404 17440 layer_factory.hpp:77] Creating layer rpn/output_pool_rpn/output_pool_0_split
I0417 23:28:37.931411 17440 net.cpp:100] Creating Layer rpn/output_pool_rpn/output_pool_0_split
I0417 23:28:37.931414 17440 net.cpp:434] rpn/output_pool_rpn/output_pool_0_split <- rpn/output_pool
I0417 23:28:37.931421 17440 net.cpp:408] rpn/output_pool_rpn/output_pool_0_split -> rpn/output_pool_rpn/output_pool_0_split_0
I0417 23:28:37.931427 17440 net.cpp:408] rpn/output_pool_rpn/output_pool_0_split -> rpn/output_pool_rpn/output_pool_0_split_1
I0417 23:28:37.931463 17440 net.cpp:150] Setting up rpn/output_pool_rpn/output_pool_0_split
I0417 23:28:37.931471 17440 net.cpp:157] Top shape: 1 512 96 1 1 (49152)
I0417 23:28:37.931476 17440 net.cpp:157] Top shape: 1 512 96 1 1 (49152)
I0417 23:28:37.931480 17440 net.cpp:165] Memory required for data: 10172105916
I0417 23:28:37.931484 17440 layer_factory.hpp:77] Creating layer rpn_cls_score
I0417 23:28:37.931496 17440 net.cpp:100] Creating Layer rpn_cls_score
I0417 23:28:37.931504 17440 net.cpp:434] rpn_cls_score <- rpn/output_pool_rpn/output_pool_0_split_0
I0417 23:28:37.931511 17440 net.cpp:408] rpn_cls_score -> rpn_cls_score
I0417 23:28:37.935436 17440 net.cpp:150] Setting up rpn_cls_score
I0417 23:28:37.935451 17440 net.cpp:157] Top shape: 1 74 96 1 1 (7104)
I0417 23:28:37.935454 17440 net.cpp:165] Memory required for data: 10172134332
I0417 23:28:37.935461 17440 layer_factory.hpp:77] Creating layer rpn_cls_score_rpn_cls_score_0_split
I0417 23:28:37.935468 17440 net.cpp:100] Creating Layer rpn_cls_score_rpn_cls_score_0_split
I0417 23:28:37.935472 17440 net.cpp:434] rpn_cls_score_rpn_cls_score_0_split <- rpn_cls_score
I0417 23:28:37.935479 17440 net.cpp:408] rpn_cls_score_rpn_cls_score_0_split -> rpn_cls_score_rpn_cls_score_0_split_0
I0417 23:28:37.935487 17440 net.cpp:408] rpn_cls_score_rpn_cls_score_0_split -> rpn_cls_score_rpn_cls_score_0_split_1
I0417 23:28:37.935530 17440 net.cpp:150] Setting up rpn_cls_score_rpn_cls_score_0_split
I0417 23:28:37.935540 17440 net.cpp:157] Top shape: 1 74 96 1 1 (7104)
I0417 23:28:37.935545 17440 net.cpp:157] Top shape: 1 74 96 1 1 (7104)
I0417 23:28:37.935549 17440 net.cpp:165] Memory required for data: 10172191164
I0417 23:28:37.935554 17440 layer_factory.hpp:77] Creating layer rpn_twin_pred
I0417 23:28:37.935566 17440 net.cpp:100] Creating Layer rpn_twin_pred
I0417 23:28:37.935573 17440 net.cpp:434] rpn_twin_pred <- rpn/output_pool_rpn/output_pool_0_split_1
I0417 23:28:37.935580 17440 net.cpp:408] rpn_twin_pred -> rpn_twin_pred
I0417 23:28:37.938436 17440 net.cpp:150] Setting up rpn_twin_pred
I0417 23:28:37.938449 17440 net.cpp:157] Top shape: 1 74 96 1 1 (7104)
I0417 23:28:37.938454 17440 net.cpp:165] Memory required for data: 10172219580
I0417 23:28:37.938463 17440 layer_factory.hpp:77] Creating layer rpn_twin_pred_rpn_twin_pred_0_split
I0417 23:28:37.938470 17440 net.cpp:100] Creating Layer rpn_twin_pred_rpn_twin_pred_0_split
I0417 23:28:37.938474 17440 net.cpp:434] rpn_twin_pred_rpn_twin_pred_0_split <- rpn_twin_pred
I0417 23:28:37.938482 17440 net.cpp:408] rpn_twin_pred_rpn_twin_pred_0_split -> rpn_twin_pred_rpn_twin_pred_0_split_0
I0417 23:28:37.938488 17440 net.cpp:408] rpn_twin_pred_rpn_twin_pred_0_split -> rpn_twin_pred_rpn_twin_pred_0_split_1
I0417 23:28:37.938532 17440 net.cpp:150] Setting up rpn_twin_pred_rpn_twin_pred_0_split
I0417 23:28:37.938542 17440 net.cpp:157] Top shape: 1 74 96 1 1 (7104)
I0417 23:28:37.938546 17440 net.cpp:157] Top shape: 1 74 96 1 1 (7104)
I0417 23:28:37.938550 17440 net.cpp:165] Memory required for data: 10172276412
I0417 23:28:37.938555 17440 layer_factory.hpp:77] Creating layer rpn_cls_score_reshape
I0417 23:28:37.938570 17440 net.cpp:100] Creating Layer rpn_cls_score_reshape
I0417 23:28:37.938576 17440 net.cpp:434] rpn_cls_score_reshape <- rpn_cls_score_rpn_cls_score_0_split_0
I0417 23:28:37.938583 17440 net.cpp:408] rpn_cls_score_reshape -> rpn_cls_score_reshape
I0417 23:28:37.938616 17440 net.cpp:150] Setting up rpn_cls_score_reshape
I0417 23:28:37.938622 17440 net.cpp:157] Top shape: 1 2 3552 1 1 (7104)
I0417 23:28:37.938627 17440 net.cpp:165] Memory required for data: 10172304828
I0417 23:28:37.938629 17440 layer_factory.hpp:77] Creating layer rpn_cls_score_reshape_rpn_cls_score_reshape_0_split
I0417 23:28:37.938635 17440 net.cpp:100] Creating Layer rpn_cls_score_reshape_rpn_cls_score_reshape_0_split
I0417 23:28:37.938639 17440 net.cpp:434] rpn_cls_score_reshape_rpn_cls_score_reshape_0_split <- rpn_cls_score_reshape
I0417 23:28:37.938647 17440 net.cpp:408] rpn_cls_score_reshape_rpn_cls_score_reshape_0_split -> rpn_cls_score_reshape_rpn_cls_score_reshape_0_split_0
I0417 23:28:37.938655 17440 net.cpp:408] rpn_cls_score_reshape_rpn_cls_score_reshape_0_split -> rpn_cls_score_reshape_rpn_cls_score_reshape_0_split_1
I0417 23:28:37.938664 17440 net.cpp:408] rpn_cls_score_reshape_rpn_cls_score_reshape_0_split -> rpn_cls_score_reshape_rpn_cls_score_reshape_0_split_2
I0417 23:28:37.938709 17440 net.cpp:150] Setting up rpn_cls_score_reshape_rpn_cls_score_reshape_0_split
I0417 23:28:37.938716 17440 net.cpp:157] Top shape: 1 2 3552 1 1 (7104)
I0417 23:28:37.938720 17440 net.cpp:157] Top shape: 1 2 3552 1 1 (7104)
I0417 23:28:37.938725 17440 net.cpp:157] Top shape: 1 2 3552 1 1 (7104)
I0417 23:28:37.938729 17440 net.cpp:165] Memory required for data: 10172390076
I0417 23:28:37.938731 17440 layer_factory.hpp:77] Creating layer rpn-data
I0417 23:28:37.940884 17440 net.cpp:100] Creating Layer rpn-data
I0417 23:28:37.940899 17440 net.cpp:434] rpn-data <- rpn_cls_score_rpn_cls_score_0_split_1
I0417 23:28:37.940907 17440 net.cpp:434] rpn-data <- gt_boxes_data_1_split_0
I0417 23:28:37.940912 17440 net.cpp:434] rpn-data <- data_data_0_split_1
I0417 23:28:37.940918 17440 net.cpp:408] rpn-data -> rpn_labels
I0417 23:28:37.940927 17440 net.cpp:408] rpn-data -> rpn_twin_targets
I0417 23:28:37.940935 17440 net.cpp:408] rpn-data -> rpn_twin_inside_weights
I0417 23:28:37.940944 17440 net.cpp:408] rpn-data -> rpn_twin_outside_weights
('labels', <caffe._caffe.Blob object at 0x7f5fe6730b40>)
I0417 23:28:37.943406 17440 net.cpp:150] Setting up rpn-data
I0417 23:28:37.943419 17440 net.cpp:157] Top shape: 1 1 3552 1 1 (3552)
I0417 23:28:37.943424 17440 net.cpp:157] Top shape: 1 74 96 1 1 (7104)
I0417 23:28:37.943428 17440 net.cpp:157] Top shape: 1 74 96 1 1 (7104)
I0417 23:28:37.943433 17440 net.cpp:157] Top shape: 1 74 96 1 1 (7104)
I0417 23:28:37.943437 17440 net.cpp:165] Memory required for data: 10172489532
I0417 23:28:37.943441 17440 layer_factory.hpp:77] Creating layer rpn_labels_rpn-data_0_split
I0417 23:28:37.943447 17440 net.cpp:100] Creating Layer rpn_labels_rpn-data_0_split
I0417 23:28:37.943451 17440 net.cpp:434] rpn_labels_rpn-data_0_split <- rpn_labels
I0417 23:28:37.943457 17440 net.cpp:408] rpn_labels_rpn-data_0_split -> rpn_labels_rpn-data_0_split_0
I0417 23:28:37.943464 17440 net.cpp:408] rpn_labels_rpn-data_0_split -> rpn_labels_rpn-data_0_split_1
I0417 23:28:37.943495 17440 net.cpp:150] Setting up rpn_labels_rpn-data_0_split
I0417 23:28:37.943503 17440 net.cpp:157] Top shape: 1 1 3552 1 1 (3552)
I0417 23:28:37.943507 17440 net.cpp:157] Top shape: 1 1 3552 1 1 (3552)
I0417 23:28:37.943511 17440 net.cpp:165] Memory required for data: 10172517948
I0417 23:28:37.943514 17440 layer_factory.hpp:77] Creating layer rpn_loss_cls
I0417 23:28:37.943522 17440 net.cpp:100] Creating Layer rpn_loss_cls
I0417 23:28:37.943531 17440 net.cpp:434] rpn_loss_cls <- rpn_cls_score_reshape_rpn_cls_score_reshape_0_split_0
I0417 23:28:37.943536 17440 net.cpp:434] rpn_loss_cls <- rpn_labels_rpn-data_0_split_0
…
I0417 23:28:37.944123 17440 layer_factory.hpp:77] Creating layer rpn_accuarcy
I0417 23:28:37.944130 17440 net.cpp:100] Creating Layer rpn_accuarcy
I0417 23:28:37.944138 17440 net.cpp:434] rpn_accuarcy <- rpn_cls_score_reshape_rpn_cls_score_reshape_0_split_1
I0417 23:28:37.944142 17440 net.cpp:434] rpn_accuarcy <- rpn_labels_rpn-data_0_split_1
I0417 23:28:37.944149 17440 net.cpp:408] rpn_accuarcy -> rpn_accuarcy
I0417 23:28:37.944154 17440 net.cpp:408] rpn_accuarcy -> rpn_accuarcy_class
I0417 23:28:37.944187 17440 net.cpp:150] Setting up rpn_accuarcy
I0417 23:28:37.944195 17440 net.cpp:157] Top shape: (1)
I0417 23:28:37.944198 17440 net.cpp:157] Top shape: 2 (2)
I0417 23:28:37.944202 17440 net.cpp:165] Memory required for data: 10172517968
I0417 23:28:37.944206 17440 layer_factory.hpp:77] Creating layer rpn_cls_prob
I0417 23:28:37.944211 17440 net.cpp:100] Creating Layer rpn_cls_prob
I0417 23:28:37.944216 17440 net.cpp:434] rpn_cls_prob <- rpn_cls_score_reshape_rpn_cls_score_reshape_0_split_2
I0417 23:28:37.944221 17440 net.cpp:408] rpn_cls_prob -> rpn_cls_prob
I0417 23:28:37.944916 17440 net.cpp:150] Setting up rpn_cls_prob
I0417 23:28:37.944926 17440 net.cpp:157] Top shape: 1 2 3552 1 1 (7104)
I0417 23:28:37.944931 17440 net.cpp:165] Memory required for data: 10172546384
I0417 23:28:37.944933 17440 layer_factory.hpp:77] Creating layer rpn_cls_prob_reshape
I0417 23:28:37.944939 17440 net.cpp:100] Creating Layer rpn_cls_prob_reshape
I0417 23:28:37.944943 17440 net.cpp:434] rpn_cls_prob_reshape <- rpn_cls_prob
I0417 23:28:37.944948 17440 net.cpp:408] rpn_cls_prob_reshape -> rpn_cls_prob_reshape
I0417 23:28:37.944972 17440 net.cpp:150] Setting up rpn_cls_prob_reshape
I0417 23:28:37.944977 17440 net.cpp:157] Top shape: 1 74 96 1 1 (7104)
I0417 23:28:37.944980 17440 net.cpp:165] Memory required for data: 10172574800
I0417 23:28:37.944984 17440 layer_factory.hpp:77] Creating layer proposal
I0417 23:28:37.945550 17440 net.cpp:100] Creating Layer proposal
I0417 23:28:37.945564 17440 net.cpp:434] proposal <- rpn_cls_prob_reshape
I0417 23:28:37.945569 17440 net.cpp:434] proposal <- rpn_twin_pred_rpn_twin_pred_0_split_1
I0417 23:28:37.945575 17440 net.cpp:408] proposal -> rpn_rois
I0417 23:28:37.948848 17440 net.cpp:150] Setting up proposal
I0417 23:28:37.948863 17440 net.cpp:157] Top shape: 1 3 (3)
I0417 23:28:37.948868 17440 net.cpp:165] Memory required for data: 10172574812
I0417 23:28:37.948871 17440 layer_factory.hpp:77] Creating layer roi-data
I0417 23:28:37.948999 17440 net.cpp:100] Creating Layer roi-data
I0417 23:28:37.949010 17440 net.cpp:434] roi-data <- rpn_rois
I0417 23:28:37.949015 17440 net.cpp:434] roi-data <- gt_boxes_data_1_split_1
I0417 23:28:37.949020 17440 net.cpp:408] roi-data -> rois
I0417 23:28:37.949028 17440 net.cpp:408] roi-data -> labels
I0417 23:28:37.949033 17440 net.cpp:408] roi-data -> twin_targets
I0417 23:28:37.949038 17440 net.cpp:408] roi-data -> twin_inside_weights
I0417 23:28:37.949044 17440 net.cpp:408] roi-data -> twin_outside_weights
I0417 23:28:37.949357 17440 net.cpp:150] Setting up roi-data
I0417 23:28:37.949370 17440 net.cpp:157] Top shape: 1 3 (3)
I0417 23:28:37.949374 17440 net.cpp:157] Top shape: 1 1 (1)
I0417 23:28:37.949378 17440 net.cpp:157] Top shape: 1 402 (402)
I0417 23:28:37.949383 17440 net.cpp:157] Top shape: 1 402 (402)
I0417 23:28:37.949385 17440 net.cpp:157] Top shape: 1 402 (402)
I0417 23:28:37.949388 17440 net.cpp:165] Memory required for data: 10172579652
I0417 23:28:37.949393 17440 layer_factory.hpp:77] Creating layer labels_roi-data_1_split
I0417 23:28:37.949398 17440 net.cpp:100] Creating Layer labels_roi-data_1_split
I0417 23:28:37.949401 17440 net.cpp:434] labels_roi-data_1_split <- labels
I0417 23:28:37.949406 17440 net.cpp:408] labels_roi-data_1_split -> labels_roi-data_1_split_0
I0417 23:28:37.949412 17440 net.cpp:408] labels_roi-data_1_split -> labels_roi-data_1_split_1
I0417 23:28:37.949442 17440 net.cpp:150] Setting up labels_roi-data_1_split
I0417 23:28:37.949450 17440 net.cpp:157] Top shape: 1 1 (1)
I0417 23:28:37.949453 17440 net.cpp:157] Top shape: 1 1 (1)
I0417 23:28:37.949456 17440 net.cpp:165] Memory required for data: 10172579660
I0417 23:28:37.949460 17440 layer_factory.hpp:77] Creating layer roi_pool5
I0417 23:28:37.949468 17440 net.cpp:100] Creating Layer roi_pool5
I0417 23:28:37.949472 17440 net.cpp:434] roi_pool5 <- conv5b_relu5b_0_split_1
I0417 23:28:37.949476 17440 net.cpp:434] roi_pool5 <- rois
I0417 23:28:37.949481 17440 net.cpp:408] roi_pool5 -> pool5
I0417 23:28:37.949489 17440 roi_pooling_layer.cpp:34] Temporal scale: 0.125
I0417 23:28:37.949496 17440 roi_pooling_layer.cpp:35] Spatial scale: 0.0625
I0417 23:28:37.949529 17440 net.cpp:150] Setting up roi_pool5
I0417 23:28:37.949539 17440 net.cpp:157] Top shape: 1 512 1 4 4 (8192)
I0417 23:28:37.949542 17440 net.cpp:165] Memory required for data: 10172612428
I0417 23:28:37.949546 17440 layer_factory.hpp:77] Creating layer fc6
I0417 23:28:37.949554 17440 net.cpp:100] Creating Layer fc6
I0417 23:28:37.949558 17440 net.cpp:434] fc6 <- pool5
I0417 23:28:37.949563 17440 net.cpp:408] fc6 -> fc6
I0417 23:28:38.841681 17440 net.cpp:150] Setting up fc6
I0417 23:28:38.841706 17440 net.cpp:157] Top shape: 1 4096 (4096)
I0417 23:28:38.841709 17440 net.cpp:165] Memory required for data: 10172628812
I0417 23:28:38.841719 17440 layer_factory.hpp:77] Creating layer relu6
I0417 23:28:38.841728 17440 net.cpp:100] Creating Layer relu6
I0417 23:28:38.841733 17440 net.cpp:434] relu6 <- fc6
I0417 23:28:38.841739 17440 net.cpp:395] relu6 -> fc6 (in-place)
I0417 23:28:38.842180 17440 net.cpp:150] Setting up relu6
I0417 23:28:38.842203 17440 net.cpp:157] Top shape: 1 4096 (4096)
I0417 23:28:38.842207 17440 net.cpp:165] Memory required for data: 10172645196
I0417 23:28:38.842211 17440 layer_factory.hpp:77] Creating layer drop6
I0417 23:28:38.842222 17440 net.cpp:100] Creating Layer drop6
I0417 23:28:38.842226 17440 net.cpp:434] drop6 <- fc6
I0417 23:28:38.842231 17440 net.cpp:395] drop6 -> fc6 (in-place)
I0417 23:28:38.842259 17440 net.cpp:150] Setting up drop6
I0417 23:28:38.842267 17440 net.cpp:157] Top shape: 1 4096 (4096)
I0417 23:28:38.842270 17440 net.cpp:165] Memory required for data: 10172661580
I0417 23:28:38.842273 17440 layer_factory.hpp:77] Creating layer fc6_drop6_0_split
I0417 23:28:38.842279 17440 net.cpp:100] Creating Layer fc6_drop6_0_split
I0417 23:28:38.842283 17440 net.cpp:434] fc6_drop6_0_split <- fc6
I0417 23:28:38.842288 17440 net.cpp:408] fc6_drop6_0_split -> fc6_drop6_0_split_0
I0417 23:28:38.842293 17440 net.cpp:408] fc6_drop6_0_split -> fc6_drop6_0_split_1
I0417 23:28:38.842326 17440 net.cpp:150] Setting up fc6_drop6_0_split
I0417 23:28:38.842334 17440 net.cpp:157] Top shape: 1 4096 (4096)
I0417 23:28:38.842337 17440 net.cpp:157] Top shape: 1 4096 (4096)
I0417 23:28:38.842340 17440 net.cpp:165] Memory required for data: 10172694348
I0417 23:28:38.842344 17440 layer_factory.hpp:77] Creating layer cls_score
I0417 23:28:38.842351 17440 net.cpp:100] Creating Layer cls_score
I0417 23:28:38.842355 17440 net.cpp:434] cls_score <- fc6_drop6_0_split_0
I0417 23:28:38.842360 17440 net.cpp:408] cls_score -> cls_score
I0417 23:28:38.863809 17440 net.cpp:150] Setting up cls_score
I0417 23:28:38.863837 17440 net.cpp:157] Top shape: 1 201 (201)
I0417 23:28:38.863840 17440 net.cpp:165] Memory required for data: 10172695152
I0417 23:28:38.863847 17440 layer_factory.hpp:77] Creating layer cls_score_cls_score_0_split
I0417 23:28:38.863854 17440 net.cpp:100] Creating Layer cls_score_cls_score_0_split
I0417 23:28:38.863857 17440 net.cpp:434] cls_score_cls_score_0_split <- cls_score
I0417 23:28:38.863862 17440 net.cpp:408] cls_score_cls_score_0_split -> cls_score_cls_score_0_split_0
I0417 23:28:38.863869 17440 net.cpp:408] cls_score_cls_score_0_split -> cls_score_cls_score_0_split_1
I0417 23:28:38.863903 17440 net.cpp:150] Setting up cls_score_cls_score_0_split
I0417 23:28:38.863910 17440 net.cpp:157] Top shape: 1 201 (201)
I0417 23:28:38.863915 17440 net.cpp:157] Top shape: 1 201 (201)
I0417 23:28:38.863919 17440 net.cpp:165] Memory required for data: 10172696760
I0417 23:28:38.863922 17440 layer_factory.hpp:77] Creating layer twin_pred
I0417 23:28:38.863930 17440 net.cpp:100] Creating Layer twin_pred
I0417 23:28:38.863934 17440 net.cpp:434] twin_pred <- fc6_drop6_0_split_1
I0417 23:28:38.863940 17440 net.cpp:408] twin_pred -> twin_pred
I0417 23:28:38.907568 17440 net.cpp:150] Setting up twin_pred
I0417 23:28:38.907591 17440 net.cpp:157] Top shape: 1 402 (402)
I0417 23:28:38.907596 17440 net.cpp:165] Memory required for data: 10172698368
I0417 23:28:38.907605 17440 layer_factory.hpp:77] Creating layer loss_cls
I0417 23:28:38.907614 17440 net.cpp:100] Creating Layer loss_cls
I0417 23:28:38.907619 17440 net.cpp:434] loss_cls <- cls_score_cls_score_0_split_0
I0417 23:28:38.907629 17440 net.cpp:434] loss_cls <- labels_roi-data_1_split_0
I0417 23:28:38.907642 17440 net.cpp:408] loss_cls -> loss_cls
…
