…
stepsize: 350000
snapshot: 0
snapshot_prefix: "./experiments/activitynet/snapshot/activitynet"
average_loss: 100
iter_size: 1
I0416 10:52:29.647548 25070 solver.cpp:81] Creating training net from train_net file: ./experiments/activitynet/train.prototxt
I0416 10:52:29.648100 25070 net.cpp:58] Initializing net from parameters: 
name: "activitynet"
state {
  phase: TRAIN
}
layer {
  name: "data"
  type: "Python"
  top: "data"
  top: "gt_boxes"
  python_param {
    module: "roi_data_layer.layer"
    layer: "RoIDataLayer"
    param_str: "\'num_classes\': 100"
  }
}
layer {
  name: "conv1a"
  type: "Convolution"
  bottom: "data"
  top: "conv1a"
  param {
    lr_mult: 0
    decay_mult: 0
  }
  param {
    lr_mult: 0
    decay_mult: 0
  }
  convolution_param {
    num_output: 64
    pad: 1
    pad: 1
    pad: 1
    kernel_size: 3
    kernel_size: 3
    kernel_size: 3
    weight_filler {
      type: "gaussian"
      std: 0.01
    }
    bias_filler {
      type: "constant"
      value: 0
    }
  }
}
layer {
  name: "relu1a"
  type: "ReLU"
  bottom: "conv1a"
  top: "conv1a"
}
layer {
  name: "pool1"
  type: "Pooling"
  bottom: "conv1a"
  top: "pool1"
  pooling_param {
    pool: MAX
    kernel_size: 1
    kernel_size: 2
    kernel_size: 2
    stride: 1
    stride: 2
    stride: 2
  }
}
layer {
  name: "conv2a"
  type: "Convolution"
  bottom: "pool1"
  top: "conv2a"
  param {
    lr_mult: 0
    decay_mult: 0
  }
  param {
    lr_mult: 0
    decay_mult: 0
  }
  convolution_param {
    num_output: 128
    pad: 1
    pad: 1
    pad: 1
    kernel_size: 3
    kernel_size: 3
    kernel_size: 3
    weight_filler {
      type: "gaussian"
      std: 0.01
    }
    bias_filler {
      type: "constant"
      value: 1
    }
  }
}
layer {
  name: "relu2a"
  type: "ReLU"
  bottom: "conv2a"
  top: "conv2a"
}
layer {
  name: "pool2"
  type: "Pooling"
  bottom: "conv2a"
  top: "pool2"
  pooling_param {
    pool: MAX
    kernel_size: 2
    kernel_size: 2
    kernel_size: 2
    stride: 2
    stride: 2
    stride: 2
  }
}
layer {
  name: "conv3a"
  type: "Convolution"
  bottom: "pool2"
  top: "conv3a"
  param {
    lr_mult: 1
    decay_mult: 1
  }
  param {
    lr_mult: 2
    decay_mult: 0
  }
  convolution_param {
    num_output: 256
    pad: 1
    pad: 1
    pad: 1
    kernel_size: 3
    kernel_size: 3
    kernel_size: 3
    weight_filler {
      type: "gaussian"
      std: 0.01
    }
    bias_filler {
      type: "constant"
      value: 1
    }
  }
}
layer {
  name: "relu3a"
  type: "ReLU"
  bottom: "conv3a"
  top: "conv3a"
}
layer {
  name: "conv3b"
  type: "Convolution"
  bottom: "conv3a"
  top: "conv3b"
  param {
    lr_mult: 1
    decay_mult: 1
  }
  param {
    lr_mult: 2
    decay_mult: 0
  }
  convolution_param {
    num_output: 256
    pad: 1
    pad: 1
    pad: 1
    kernel_size: 3
    kernel_size: 3
    kernel_size: 3
    weight_filler {
      type: "gaussian"
      std: 0.01
    }
    bias_filler {
      type: "constant"
      value: 1
    }
  }
}
layer {
  name: "relu3b"
  type: "ReLU"
  bottom: "conv3b"
  top: "conv3b"
}
layer {
  name: "pool3"
  type: "Pooling"
  bottom: "conv3b"
  top: "pool3"
  pooling_param {
    pool: MAX
    kernel_size: 2
    kernel_size: 2
    kernel_size: 2
    stride: 2
    stride: 2
    stride: 2
  }
}
layer {
  name: "conv4a"
  type: "Convolution"
  bottom: "pool3"
  top: "conv4a"
  param {
    lr_mult: 1
    decay_mult: 1
  }
  param {
    lr_mult: 2
    decay_mult: 0
  }
  convolution_param {
    num_output: 512
    pad: 1
    pad: 1
    pad: 1
    kernel_size: 3
    kernel_size: 3
    kernel_size: 3
    weight_filler {
      type: "gaussian"
      std: 0.01
    }
    bias_filler {
      type: "constant"
      value: 1
    }
  }
}
layer {
  name: "relu4a"
  type: "ReLU"
  bottom: "conv4a"
  top: "conv4a"
}
layer {
  name: "conv4b"
  type: "Convolution"
  bottom: "conv4a"
  top: "conv4b"
  param {
    lr_mult: 1
    decay_mult: 1
  }
  param {
    lr_mult: 2
    decay_mult: 0
  }
  convolution_param {
    num_output: 512
    pad: 1
    pad: 1
    pad: 1
    kernel_size: 3
    kernel_size: 3
    kernel_size: 3
    weight_filler {
      type: "gaussian"
      std: 0.01
    }
    bias_filler {
      type: "constant"
      value: 1
    }
  }
}
layer {
  name: "relu4b"
  type: "ReLU"
  bottom: "conv4b"
  top: "conv4b"
}
layer {
  name: "pool4"
  type: "Pooling"
  bottom: "conv4b"
  top: "pool4"
  pooling_param {
    pool: MAX
    kernel_size: 2
    kernel_size: 2
    kernel_size: 2
    stride: 2
    stride: 2
    stride: 2
  }
}
layer {
  name: "conv5a"
  type: "Convolution"
  bottom: "pool4"
  top: "conv5a"
  param {
    lr_mult: 1
    decay_mult: 1
  }
  param {
    lr_mult: 2
    decay_mult: 0
  }
  convolution_param {
    num_output: 512
    pad: 1
    pad: 1
    pad: 1
    kernel_size: 3
    kernel_size: 3
    kernel_size: 3
    weight_filler {
      type: "gaussian"
      std: 0.01
    }
    bias_filler {
      type: "constant"
      value: 1
    }
  }
}
layer {
  name: "relu5a"
  type: "ReLU"
  bottom: "conv5a"
  top: "conv5a"
}
layer {
  name: "conv5b"
  type: "Convolution"
  bottom: "conv5a"
  top: "conv5b"
  param {
    lr_mult: 1
    decay_mult: 1
  }
  param {
    lr_mult: 2
    decay_mult: 0
  }
  convolution_param {
    num_output: 512
    pad: 1
    pad: 1
    pad: 1
    kernel_size: 3
    kernel_size: 3
    kernel_size: 3
    weight_filler {
      type: "gaussian"
      std: 0.01
    }
    bias_filler {
      type: "constant"
      value: 1
    }
  }
}
layer {
  name: "relu5b"
  type: "ReLU"
  bottom: "conv5b"
  top: "conv5b"
}
layer {
  name: "rpn_conv/3x3"
  type: "Convolution"
  bottom: "conv5b"
  top: "rpn/output"
  param {
    lr_mult: 1
    decay_mult: 1
  }
  param {
    lr_mult: 2
    decay_mult: 0
  }
  convolution_param {
    num_output: 512
    pad: 1
    pad: 1
    pad: 1
    kernel_size: 3
    kernel_size: 3
    kernel_size: 3
    stride: 1
    stride: 2
    stride: 2
    weight_filler {
      type: "gaussian"
      std: 0.01
    }
    bias_filler {
      type: "constant"
      value: 0
    }
  }
}
layer {
  name: "rpn_relu/3x3"
  type: "ReLU"
  bottom: "rpn/output"
  top: "rpn/output"
}
layer {
  name: "rpn_conv/3x3_2"
  type: "Convolution"
  bottom: "rpn/output"
  top: "rpn/output_2"
  param {
    lr_mult: 1
    decay_mult: 1
  }
  param {
    lr_mult: 2
    decay_mult: 0
  }
  convolution_param {
    num_output: 512
    pad: 1
    pad: 1
    pad: 1
    kernel_size: 3
    kernel_size: 3
    kernel_size: 3
    stride: 1
    stride: 2
    stride: 2
    weight_filler {
      type: "gaussian"
      std: 0.01
    }
    bias_filler {
      type: "constant"
      value: 0
    }
  }
}
layer {
  name: "rpn_relu/3x3_2"
  type: "ReLU"
  bottom: "rpn/output_2"
  top: "rpn/output_2"
}
layer {
  name: "rpn/output_pool"
  type: "Pooling"
  bottom: "rpn/output_2"
  top: "rpn/output_pool"
  pooling_param {
    pool: MAX
    kernel_size: 1
    kernel_size: 2
    kernel_size: 2
  }
}
layer {
  name: "rpn_cls_score"
  type: "Convolution"
  bottom: "rpn/output_pool"
  top: "rpn_cls_score"
  param {
    lr_mult: 1
    decay_mult: 1
  }
  param {
    lr_mult: 2
    decay_mult: 0
  }
  convolution_param {
    num_output: 74
    kernel_size: 1
    kernel_size: 1
    kernel_size: 1
    weight_filler {
      type: "gaussian"
      std: 0.01
    }
    bias_filler {
      type: "constant"
      value: 0
    }
  }
}
layer {
  name: "rpn_twin_pred"
  type: "Convolution"
  bottom: "rpn/output_pool"
  top: "rpn_twin_pred"
  param {
    lr_mult: 1
    decay_mult: 1
  }
  param {
    lr_mult: 2
    decay_mult: 0
  }
  convolution_param {
    num_output: 74
    kernel_size: 1
    kernel_size: 1
    kernel_size: 1
    weight_filler {
      type: "gaussian"
      std: 0.01
    }
    bias_filler {
      type: "constant"
      value: 0
    }
  }
}
layer {
  name: "rpn_cls_score_reshape"
  type: "Reshape"
  bottom: "rpn_cls_score"
  top: "rpn_cls_score_reshape"
  reshape_param {
    shape {
      dim: 0
      dim: 2
      dim: -1
      dim: 0
      dim: 0
    }
  }
}
layer {
  name: "rpn-data"
  type: "Python"
  bottom: "rpn_cls_score"
  bottom: "gt_boxes"
  bottom: "data"
  top: "rpn_labels"
  top: "rpn_twin_targets"
  top: "rpn_twin_inside_weights"
  top: "rpn_twin_outside_weights"
  python_param {
    module: "rpn.anchor_target_layer"
    layer: "AnchorTargetLayer"
    param_str: "\'feat_stride\': 8 \n\'scales\': !!python/tuple [1,1.25, 1.5,1.75, 2,2.5, 3,3.5, 4,4.5, 5,5.5, 6,7, 8,9,10,11,12,14,16,18,20,22,24,28,32,36,40,44,52,60,68,76,84,92,100]"
  }
}
layer {
  name: "rpn_loss_cls"
  type: "SoftmaxWithLoss"
  bottom: "rpn_cls_score_reshape"
  bottom: "rpn_labels"
  top: "rpn_cls_loss"
  loss_weight: 1
  propagate_down: true
  propagate_down: false
  loss_param {
    ignore_label: -1
    normalize: true
  }
}
layer {
  name: "rpn_loss_twin"
  type: "SmoothL1Loss"
  bottom: "rpn_twin_pred"
  bottom: "rpn_twin_targets"
  bottom: "rpn_twin_inside_weights"
  bottom: "rpn_twin_outside_weights"
  top: "rpn_loss_twin"
  loss_weight: 1
  smooth_l1_loss_param {
    sigma: 3
  }
}
layer {
  name: "rpn_accuarcy"
  type: "Accuracy"
  bottom: "rpn_cls_score_reshape"
  bottom: "rpn_labels"
  top: "rpn_accuarcy"
  top: "rpn_accuarcy_class"
  propagate_down: false
  propagate_down: false
  accuracy_param {
    ignore_label: -1
  }
}
layer {
  name: "rpn_cls_prob"
  type: "Softmax"
  bottom: "rpn_cls_score_reshape"
  top: "rpn_cls_prob"
}
layer {
  name: "rpn_cls_prob_reshape"
  type: "Reshape"
  bottom: "rpn_cls_prob"
  top: "rpn_cls_prob_reshape"
  reshape_param {
    shape {
      dim: 0
      dim: 74
      dim: -1
      dim: 0
      dim: 0
    }
  }
}
layer {
  name: "proposal"
  type: "Python"
  bottom: "rpn_cls_prob_reshape"
  bottom: "rpn_twin_pred"
  top: "rpn_rois"
  include {
    phase: TRAIN
  }
  python_param {
    module: "rpn.proposal_layer"
    layer: "ProposalLayer"
    param_str: "\'feat_stride\': 8 \n\'scales\': !!python/tuple [1,1.25, 1.5,1.75, 2,2.5, 3,3.5, 4,4.5, 5,5.5, 6,7, 8,9,10,11,12,14,16,18,20,22,24,28,32,36,40,44,52,60,68,76,84,92,100]"
  }
}
layer {
  name: "roi-data"
  type: "Python"
  bottom: "rpn_rois"
  bottom: "gt_boxes"
  top: "rois"
  top: "labels"
  top: "twin_targets"
  top: "twin_inside_weights"
  top: "twin_outside_weights"
  python_param {
    module: "rpn.proposal_target_layer"
    layer: "ProposalTargetLayer"
    param_str: "\'num_classes\': 201"
  }
}
layer {
  name: "roi_pool5"
  type: "ROIPooling"
  bottom: "conv5b"
  bottom: "rois"
  top: "pool5"
  roi_pooling_param {
    pooled_h: 4
    pooled_w: 4
    spatial_scale: 0.0625
    pooled_l: 1
    temporal_scale: 0.125
  }
}
layer {
  name: "fc6"
  type: "InnerProduct"
  bottom: "pool5"
  top: "fc6"
  param {
    lr_mult: 1
    decay_mult: 1
  }
  param {
    lr_mult: 2
    decay_mult: 0
  }
  inner_product_param {
    num_output: 4096
    weight_filler {
      type: "gaussian"
      std: 0.005
    }
    bias_filler {
      type: "constant"
      value: 1
    }
  }
}
layer {
  name: "relu6"
  type: "ReLU"
  bottom: "fc6"
  top: "fc6"
}
layer {
  name: "drop6"
  type: "Dropout"
  bottom: "fc6"
  top: "fc6"
  dropout_param {
    dropout_ratio: 0.5
  }
}
layer {
  name: "cls_score"
  type: "InnerProduct"
  bottom: "fc6"
  top: "cls_score"
  param {
    lr_mult: 1
    decay_mult: 1
  }
  param {
    lr_mult: 2
    decay_mult: 0
  }
  inner_product_param {
    num_output: 201
    weight_filler {
      type: "gaussian"
      std: 0.01
    }
    bias_filler {
      type: "constant"
      value: 0
    }
  }
}
layer {
  name: "twin_pred"
  type: "InnerProduct"
  bottom: "fc6"
  top: "twin_pred"
  param {
    lr_mult: 1
    decay_mult: 1
  }
  param {
    lr_mult: 2
    decay_mult: 0
  }
  inner_product_param {
    num_output: 402
    weight_filler {
      type: "gaussian"
      std: 0.001
    }
    bias_filler {
      type: "constant"
      value: 0
    }
  }
}
layer {
  name: "loss_cls"
  type: "SoftmaxWithLoss"
  bottom: "cls_score"
  bottom: "labels"
  top: "loss_cls"
  loss_weight: 1
  propagate_down: true
  propagate_down: false
}
layer {
  name: "loss_twin"
  type: "SmoothL1Loss"
  bottom: "twin_pred"
  bottom: "twin_targets"
  bottom: "twin_inside_weights"
  bottom: "twin_outside_weights"
  top: "loss_twin"
  loss_weight: 1
}
layer {
  name: "accuarcy"
  type: "Accuracy"
  bottom: "cls_score"
  bottom: "labels"
  top: "accuarcy"
  propagate_down: false
  propagate_down: false
  accuracy_param {
    ignore_label: -1
  }
}
I0416 10:52:29.648424 25070 layer_factory.hpp:77] Creating layer data
I0416 10:52:29.660042 25070 net.cpp:100] Creating Layer data
I0416 10:52:29.660059 25070 net.cpp:408] data -> data
I0416 10:52:29.660073 25070 net.cpp:408] data -> gt_boxes
RoiDataLayer: name_to_top: {'gt_windows': 1, 'data': 0}
I0416 10:52:29.668859 25070 net.cpp:150] Setting up data
I0416 10:52:29.668875 25070 net.cpp:157] Top shape: 1 3 768 112 112 (28901376)
I0416 10:52:29.668885 25070 net.cpp:157] Top shape: 1 3 (3)
I0416 10:52:29.668889 25070 net.cpp:165] Memory required for data: 115605516
I0416 10:52:29.668895 25070 layer_factory.hpp:77] Creating layer data_data_0_split
I0416 10:52:29.668910 25070 net.cpp:100] Creating Layer data_data_0_split
I0416 10:52:29.668915 25070 net.cpp:434] data_data_0_split <- data
I0416 10:52:29.668926 25070 net.cpp:408] data_data_0_split -> data_data_0_split_0
I0416 10:52:29.668937 25070 net.cpp:408] data_data_0_split -> data_data_0_split_1
I0416 10:52:29.668984 25070 net.cpp:150] Setting up data_data_0_split
I0416 10:52:29.668992 25070 net.cpp:157] Top shape: 1 3 768 112 112 (28901376)
I0416 10:52:29.668998 25070 net.cpp:157] Top shape: 1 3 768 112 112 (28901376)
I0416 10:52:29.669003 25070 net.cpp:165] Memory required for data: 346816524
I0416 10:52:29.669009 25070 layer_factory.hpp:77] Creating layer gt_boxes_data_1_split
I0416 10:52:29.669018 25070 net.cpp:100] Creating Layer gt_boxes_data_1_split
I0416 10:52:29.669024 25070 net.cpp:434] gt_boxes_data_1_split <- gt_boxes
I0416 10:52:29.669031 25070 net.cpp:408] gt_boxes_data_1_split -> gt_boxes_data_1_split_0
I0416 10:52:29.669040 25070 net.cpp:408] gt_boxes_data_1_split -> gt_boxes_data_1_split_1
I0416 10:52:29.669085 25070 net.cpp:150] Setting up gt_boxes_data_1_split
I0416 10:52:29.669093 25070 net.cpp:157] Top shape: 1 3 (3)
I0416 10:52:29.669098 25070 net.cpp:157] Top shape: 1 3 (3)
I0416 10:52:29.669101 25070 net.cpp:165] Memory required for data: 346816548
I0416 10:52:29.669106 25070 layer_factory.hpp:77] Creating layer conv1a
I0416 10:52:29.669122 25070 net.cpp:100] Creating Layer conv1a
I0416 10:52:29.669127 25070 net.cpp:434] conv1a <- data_data_0_split_0
I0416 10:52:29.669137 25070 net.cpp:408] conv1a -> conv1a
I0416 10:52:29.687469 25070 net.cpp:150] Setting up conv1a
I0416 10:52:29.687506 25070 net.cpp:157] Top shape: 1 64 768 112 112 (616562688)
I0416 10:52:29.687511 25070 net.cpp:165] Memory required for data: 2813067300
I0416 10:52:29.687532 25070 layer_factory.hpp:77] Creating layer relu1a
I0416 10:52:29.687551 25070 net.cpp:100] Creating Layer relu1a
I0416 10:52:29.687557 25070 net.cpp:434] relu1a <- conv1a
I0416 10:52:29.687566 25070 net.cpp:395] relu1a -> conv1a (in-place)
I0416 10:52:29.687580 25070 net.cpp:150] Setting up relu1a
I0416 10:52:29.687587 25070 net.cpp:157] Top shape: 1 64 768 112 112 (616562688)
I0416 10:52:29.687592 25070 net.cpp:165] Memory required for data: 5279318052
I0416 10:52:29.687597 25070 layer_factory.hpp:77] Creating layer pool1
I0416 10:52:29.687608 25070 net.cpp:100] Creating Layer pool1
I0416 10:52:29.687613 25070 net.cpp:434] pool1 <- conv1a
I0416 10:52:29.687619 25070 net.cpp:408] pool1 -> pool1
I0416 10:52:29.687721 25070 net.cpp:150] Setting up pool1
I0416 10:52:29.687728 25070 net.cpp:157] Top shape: 1 64 768 56 56 (154140672)
I0416 10:52:29.687732 25070 net.cpp:165] Memory required for data: 5895880740
I0416 10:52:29.687736 25070 layer_factory.hpp:77] Creating layer conv2a
I0416 10:52:29.687752 25070 net.cpp:100] Creating Layer conv2a
I0416 10:52:29.687757 25070 net.cpp:434] conv2a <- pool1
I0416 10:52:29.687764 25070 net.cpp:408] conv2a -> conv2a
I0416 10:52:29.694715 25070 net.cpp:150] Setting up conv2a
I0416 10:52:29.694742 25070 net.cpp:157] Top shape: 1 128 768 56 56 (308281344)
I0416 10:52:29.694746 25070 net.cpp:165] Memory required for data: 7129006116
I0416 10:52:29.694761 25070 layer_factory.hpp:77] Creating layer relu2a
I0416 10:52:29.694774 25070 net.cpp:100] Creating Layer relu2a
I0416 10:52:29.694780 25070 net.cpp:434] relu2a <- conv2a
I0416 10:52:29.694787 25070 net.cpp:395] relu2a -> conv2a (in-place)
I0416 10:52:29.694800 25070 net.cpp:150] Setting up relu2a
I0416 10:52:29.694808 25070 net.cpp:157] Top shape: 1 128 768 56 56 (308281344)
I0416 10:52:29.694813 25070 net.cpp:165] Memory required for data: 8362131492
I0416 10:52:29.694818 25070 layer_factory.hpp:77] Creating layer pool2
I0416 10:52:29.694829 25070 net.cpp:100] Creating Layer pool2
I0416 10:52:29.694834 25070 net.cpp:434] pool2 <- conv2a
I0416 10:52:29.694841 25070 net.cpp:408] pool2 -> pool2
I0416 10:52:29.694919 25070 net.cpp:150] Setting up pool2
I0416 10:52:29.694927 25070 net.cpp:157] Top shape: 1 128 384 28 28 (38535168)
I0416 10:52:29.694931 25070 net.cpp:165] Memory required for data: 8516272164
I0416 10:52:29.694934 25070 layer_factory.hpp:77] Creating layer conv3a
I0416 10:52:29.694948 25070 net.cpp:100] Creating Layer conv3a
I0416 10:52:29.694953 25070 net.cpp:434] conv3a <- pool2
I0416 10:52:29.694962 25070 net.cpp:408] conv3a -> conv3a
I0416 10:52:29.703209 25070 net.cpp:150] Setting up conv3a
I0416 10:52:29.703228 25070 net.cpp:157] Top shape: 1 256 384 28 28 (77070336)
I0416 10:52:29.703233 25070 net.cpp:165] Memory required for data: 8824553508
I0416 10:52:29.703248 25070 layer_factory.hpp:77] Creating layer relu3a
I0416 10:52:29.703259 25070 net.cpp:100] Creating Layer relu3a
I0416 10:52:29.703265 25070 net.cpp:434] relu3a <- conv3a
I0416 10:52:29.703274 25070 net.cpp:395] relu3a -> conv3a (in-place)
I0416 10:52:29.703284 25070 net.cpp:150] Setting up relu3a
I0416 10:52:29.703291 25070 net.cpp:157] Top shape: 1 256 384 28 28 (77070336)
I0416 10:52:29.703295 25070 net.cpp:165] Memory required for data: 9132834852
I0416 10:52:29.703302 25070 layer_factory.hpp:77] Creating layer conv3b
I0416 10:52:29.703315 25070 net.cpp:100] Creating Layer conv3b
I0416 10:52:29.703318 25070 net.cpp:434] conv3b <- conv3a
I0416 10:52:29.703327 25070 net.cpp:408] conv3b -> conv3b
I0416 10:52:29.719972 25070 net.cpp:150] Setting up conv3b
I0416 10:52:29.719998 25070 net.cpp:157] Top shape: 1 256 384 28 28 (77070336)
I0416 10:52:29.720002 25070 net.cpp:165] Memory required for data: 9441116196
I0416 10:52:29.720012 25070 layer_factory.hpp:77] Creating layer relu3b
I0416 10:52:29.720024 25070 net.cpp:100] Creating Layer relu3b
I0416 10:52:29.720032 25070 net.cpp:434] relu3b <- conv3b
I0416 10:52:29.720043 25070 net.cpp:395] relu3b -> conv3b (in-place)
I0416 10:52:29.720054 25070 net.cpp:150] Setting up relu3b
I0416 10:52:29.720063 25070 net.cpp:157] Top shape: 1 256 384 28 28 (77070336)
I0416 10:52:29.720068 25070 net.cpp:165] Memory required for data: 9749397540
I0416 10:52:29.720072 25070 layer_factory.hpp:77] Creating layer pool3
I0416 10:52:29.720082 25070 net.cpp:100] Creating Layer pool3
I0416 10:52:29.720090 25070 net.cpp:434] pool3 <- conv3b
I0416 10:52:29.720098 25070 net.cpp:408] pool3 -> pool3
I0416 10:52:29.720154 25070 net.cpp:150] Setting up pool3
I0416 10:52:29.720161 25070 net.cpp:157] Top shape: 1 256 192 14 14 (9633792)
I0416 10:52:29.720165 25070 net.cpp:165] Memory required for data: 9787932708
I0416 10:52:29.720170 25070 layer_factory.hpp:77] Creating layer conv4a
I0416 10:52:29.720183 25070 net.cpp:100] Creating Layer conv4a
I0416 10:52:29.720187 25070 net.cpp:434] conv4a <- pool3
I0416 10:52:29.720196 25070 net.cpp:408] conv4a -> conv4a
I0416 10:52:29.752580 25070 net.cpp:150] Setting up conv4a
I0416 10:52:29.752614 25070 net.cpp:157] Top shape: 1 512 192 14 14 (19267584)
I0416 10:52:29.752619 25070 net.cpp:165] Memory required for data: 9865003044
I0416 10:52:29.752643 25070 layer_factory.hpp:77] Creating layer relu4a
I0416 10:52:29.752655 25070 net.cpp:100] Creating Layer relu4a
I0416 10:52:29.752662 25070 net.cpp:434] relu4a <- conv4a
I0416 10:52:29.752673 25070 net.cpp:395] relu4a -> conv4a (in-place)
I0416 10:52:29.752686 25070 net.cpp:150] Setting up relu4a
I0416 10:52:29.752693 25070 net.cpp:157] Top shape: 1 512 192 14 14 (19267584)
I0416 10:52:29.752697 25070 net.cpp:165] Memory required for data: 9942073380
I0416 10:52:29.752702 25070 layer_factory.hpp:77] Creating layer conv4b
I0416 10:52:29.752718 25070 net.cpp:100] Creating Layer conv4b
I0416 10:52:29.752723 25070 net.cpp:434] conv4b <- conv4a
I0416 10:52:29.752732 25070 net.cpp:408] conv4b -> conv4b
I0416 10:52:29.812402 25070 net.cpp:150] Setting up conv4b
I0416 10:52:29.812433 25070 net.cpp:157] Top shape: 1 512 192 14 14 (19267584)
I0416 10:52:29.812438 25070 net.cpp:165] Memory required for data: 10019143716
I0416 10:52:29.812448 25070 layer_factory.hpp:77] Creating layer relu4b
I0416 10:52:29.812459 25070 net.cpp:100] Creating Layer relu4b
I0416 10:52:29.812465 25070 net.cpp:434] relu4b <- conv4b
I0416 10:52:29.812475 25070 net.cpp:395] relu4b -> conv4b (in-place)
I0416 10:52:29.812486 25070 net.cpp:150] Setting up relu4b
I0416 10:52:29.812494 25070 net.cpp:157] Top shape: 1 512 192 14 14 (19267584)
I0416 10:52:29.812497 25070 net.cpp:165] Memory required for data: 10096214052
I0416 10:52:29.812502 25070 layer_factory.hpp:77] Creating layer pool4
I0416 10:52:29.812510 25070 net.cpp:100] Creating Layer pool4
I0416 10:52:29.812515 25070 net.cpp:434] pool4 <- conv4b
I0416 10:52:29.812525 25070 net.cpp:408] pool4 -> pool4
I0416 10:52:29.812577 25070 net.cpp:150] Setting up pool4
I0416 10:52:29.812585 25070 net.cpp:157] Top shape: 1 512 96 7 7 (2408448)
I0416 10:52:29.812589 25070 net.cpp:165] Memory required for data: 10105847844
I0416 10:52:29.812593 25070 layer_factory.hpp:77] Creating layer conv5a
I0416 10:52:29.812608 25070 net.cpp:100] Creating Layer conv5a
I0416 10:52:29.812619 25070 net.cpp:434] conv5a <- pool4
I0416 10:52:29.812628 25070 net.cpp:408] conv5a -> conv5a
I0416 10:52:29.872269 25070 net.cpp:150] Setting up conv5a
I0416 10:52:29.872300 25070 net.cpp:157] Top shape: 1 512 96 7 7 (2408448)
I0416 10:52:29.872304 25070 net.cpp:165] Memory required for data: 10115481636
I0416 10:52:29.872315 25070 layer_factory.hpp:77] Creating layer relu5a
I0416 10:52:29.872346 25070 net.cpp:100] Creating Layer relu5a
I0416 10:52:29.872354 25070 net.cpp:434] relu5a <- conv5a
I0416 10:52:29.872364 25070 net.cpp:395] relu5a -> conv5a (in-place)
I0416 10:52:29.872375 25070 net.cpp:150] Setting up relu5a
I0416 10:52:29.872385 25070 net.cpp:157] Top shape: 1 512 96 7 7 (2408448)
I0416 10:52:29.872388 25070 net.cpp:165] Memory required for data: 10125115428
I0416 10:52:29.872392 25070 layer_factory.hpp:77] Creating layer conv5b
I0416 10:52:29.872407 25070 net.cpp:100] Creating Layer conv5b
I0416 10:52:29.872412 25070 net.cpp:434] conv5b <- conv5a
I0416 10:52:29.872421 25070 net.cpp:408] conv5b -> conv5b
I0416 10:52:29.932039 25070 net.cpp:150] Setting up conv5b
I0416 10:52:29.932071 25070 net.cpp:157] Top shape: 1 512 96 7 7 (2408448)
I0416 10:52:29.932076 25070 net.cpp:165] Memory required for data: 10134749220
I0416 10:52:29.932086 25070 layer_factory.hpp:77] Creating layer relu5b
I0416 10:52:29.932098 25070 net.cpp:100] Creating Layer relu5b
I0416 10:52:29.932104 25070 net.cpp:434] relu5b <- conv5b
I0416 10:52:29.932114 25070 net.cpp:395] relu5b -> conv5b (in-place)
I0416 10:52:29.932126 25070 net.cpp:150] Setting up relu5b
I0416 10:52:29.932133 25070 net.cpp:157] Top shape: 1 512 96 7 7 (2408448)
I0416 10:52:29.932137 25070 net.cpp:165] Memory required for data: 10144383012
I0416 10:52:29.932142 25070 layer_factory.hpp:77] Creating layer conv5b_relu5b_0_split
I0416 10:52:29.932152 25070 net.cpp:100] Creating Layer conv5b_relu5b_0_split
I0416 10:52:29.932157 25070 net.cpp:434] conv5b_relu5b_0_split <- conv5b
I0416 10:52:29.932166 25070 net.cpp:408] conv5b_relu5b_0_split -> conv5b_relu5b_0_split_0
I0416 10:52:29.932175 25070 net.cpp:408] conv5b_relu5b_0_split -> conv5b_relu5b_0_split_1
I0416 10:52:29.932226 25070 net.cpp:150] Setting up conv5b_relu5b_0_split
I0416 10:52:29.932234 25070 net.cpp:157] Top shape: 1 512 96 7 7 (2408448)
I0416 10:52:29.932238 25070 net.cpp:157] Top shape: 1 512 96 7 7 (2408448)
I0416 10:52:29.932242 25070 net.cpp:165] Memory required for data: 10163650596
I0416 10:52:29.932248 25070 layer_factory.hpp:77] Creating layer rpn_conv/3x3
I0416 10:52:29.932261 25070 net.cpp:100] Creating Layer rpn_conv/3x3
I0416 10:52:29.932267 25070 net.cpp:434] rpn_conv/3x3 <- conv5b_relu5b_0_split_0
I0416 10:52:29.932276 25070 net.cpp:408] rpn_conv/3x3 -> rpn/output
I0416 10:52:29.992923 25070 net.cpp:150] Setting up rpn_conv/3x3
I0416 10:52:29.992949 25070 net.cpp:157] Top shape: 1 512 96 4 4 (786432)
I0416 10:52:29.992954 25070 net.cpp:165] Memory required for data: 10166796324
I0416 10:52:29.992970 25070 layer_factory.hpp:77] Creating layer rpn_relu/3x3
I0416 10:52:29.992983 25070 net.cpp:100] Creating Layer rpn_relu/3x3
I0416 10:52:29.992990 25070 net.cpp:434] rpn_relu/3x3 <- rpn/output
I0416 10:52:29.992998 25070 net.cpp:395] rpn_relu/3x3 -> rpn/output (in-place)
I0416 10:52:29.993010 25070 net.cpp:150] Setting up rpn_relu/3x3
I0416 10:52:29.993033 25070 net.cpp:157] Top shape: 1 512 96 4 4 (786432)
I0416 10:52:29.993038 25070 net.cpp:165] Memory required for data: 10169942052
I0416 10:52:29.993042 25070 layer_factory.hpp:77] Creating layer rpn_conv/3x3_2
I0416 10:52:29.993057 25070 net.cpp:100] Creating Layer rpn_conv/3x3_2
I0416 10:52:29.993064 25070 net.cpp:434] rpn_conv/3x3_2 <- rpn/output
I0416 10:52:29.993074 25070 net.cpp:408] rpn_conv/3x3_2 -> rpn/output_2
I0416 10:52:30.052614 25070 net.cpp:150] Setting up rpn_conv/3x3_2
I0416 10:52:30.052646 25070 net.cpp:157] Top shape: 1 512 96 2 2 (196608)
I0416 10:52:30.052651 25070 net.cpp:165] Memory required for data: 10170728484
I0416 10:52:30.052661 25070 layer_factory.hpp:77] Creating layer rpn_relu/3x3_2
I0416 10:52:30.052676 25070 net.cpp:100] Creating Layer rpn_relu/3x3_2
I0416 10:52:30.052682 25070 net.cpp:434] rpn_relu/3x3_2 <- rpn/output_2
I0416 10:52:30.052690 25070 net.cpp:395] rpn_relu/3x3_2 -> rpn/output_2 (in-place)
I0416 10:52:30.052702 25070 net.cpp:150] Setting up rpn_relu/3x3_2
I0416 10:52:30.052709 25070 net.cpp:157] Top shape: 1 512 96 2 2 (196608)
I0416 10:52:30.052713 25070 net.cpp:165] Memory required for data: 10171514916
I0416 10:52:30.052717 25070 layer_factory.hpp:77] Creating layer rpn/output_pool
I0416 10:52:30.052727 25070 net.cpp:100] Creating Layer rpn/output_pool
I0416 10:52:30.052752 25070 net.cpp:434] rpn/output_pool <- rpn/output_2
I0416 10:52:30.052759 25070 net.cpp:408] rpn/output_pool -> rpn/output_pool
I0416 10:52:30.052812 25070 net.cpp:150] Setting up rpn/output_pool
I0416 10:52:30.052820 25070 net.cpp:157] Top shape: 1 512 96 1 1 (49152)
I0416 10:52:30.052824 25070 net.cpp:165] Memory required for data: 10171711524
I0416 10:52:30.052829 25070 layer_factory.hpp:77] Creating layer rpn/output_pool_rpn/output_pool_0_split
I0416 10:52:30.052837 25070 net.cpp:100] Creating Layer rpn/output_pool_rpn/output_pool_0_split
I0416 10:52:30.052842 25070 net.cpp:434] rpn/output_pool_rpn/output_pool_0_split <- rpn/output_pool
I0416 10:52:30.052857 25070 net.cpp:408] rpn/output_pool_rpn/output_pool_0_split -> rpn/output_pool_rpn/output_pool_0_split_0
I0416 10:52:30.052866 25070 net.cpp:408] rpn/output_pool_rpn/output_pool_0_split -> rpn/output_pool_rpn/output_pool_0_split_1
I0416 10:52:30.052911 25070 net.cpp:150] Setting up rpn/output_pool_rpn/output_pool_0_split
I0416 10:52:30.052920 25070 net.cpp:157] Top shape: 1 512 96 1 1 (49152)
I0416 10:52:30.052927 25070 net.cpp:157] Top shape: 1 512 96 1 1 (49152)
I0416 10:52:30.052930 25070 net.cpp:165] Memory required for data: 10172104740
I0416 10:52:30.052935 25070 layer_factory.hpp:77] Creating layer rpn_cls_score
I0416 10:52:30.052947 25070 net.cpp:100] Creating Layer rpn_cls_score
I0416 10:52:30.052958 25070 net.cpp:434] rpn_cls_score <- rpn/output_pool_rpn/output_pool_0_split_0
I0416 10:52:30.052966 25070 net.cpp:408] rpn_cls_score -> rpn_cls_score
I0416 10:52:30.053548 25070 net.cpp:150] Setting up rpn_cls_score
I0416 10:52:30.053560 25070 net.cpp:157] Top shape: 1 74 96 1 1 (7104)
I0416 10:52:30.053565 25070 net.cpp:165] Memory required for data: 10172133156
I0416 10:52:30.053572 25070 layer_factory.hpp:77] Creating layer rpn_cls_score_rpn_cls_score_0_split
I0416 10:52:30.053580 25070 net.cpp:100] Creating Layer rpn_cls_score_rpn_cls_score_0_split
I0416 10:52:30.053584 25070 net.cpp:434] rpn_cls_score_rpn_cls_score_0_split <- rpn_cls_score
I0416 10:52:30.053592 25070 net.cpp:408] rpn_cls_score_rpn_cls_score_0_split -> rpn_cls_score_rpn_cls_score_0_split_0
I0416 10:52:30.053601 25070 net.cpp:408] rpn_cls_score_rpn_cls_score_0_split -> rpn_cls_score_rpn_cls_score_0_split_1
I0416 10:52:30.053658 25070 net.cpp:150] Setting up rpn_cls_score_rpn_cls_score_0_split
I0416 10:52:30.053665 25070 net.cpp:157] Top shape: 1 74 96 1 1 (7104)
I0416 10:52:30.053670 25070 net.cpp:157] Top shape: 1 74 96 1 1 (7104)
I0416 10:52:30.053674 25070 net.cpp:165] Memory required for data: 10172189988
I0416 10:52:30.053679 25070 layer_factory.hpp:77] Creating layer rpn_twin_pred
I0416 10:52:30.053697 25070 net.cpp:100] Creating Layer rpn_twin_pred
I0416 10:52:30.053704 25070 net.cpp:434] rpn_twin_pred <- rpn/output_pool_rpn/output_pool_0_split_1
I0416 10:52:30.053712 25070 net.cpp:408] rpn_twin_pred -> rpn_twin_pred
I0416 10:52:30.054255 25070 net.cpp:150] Setting up rpn_twin_pred
I0416 10:52:30.054265 25070 net.cpp:157] Top shape: 1 74 96 1 1 (7104)
I0416 10:52:30.054268 25070 net.cpp:165] Memory required for data: 10172218404
I0416 10:52:30.054275 25070 layer_factory.hpp:77] Creating layer rpn_twin_pred_rpn_twin_pred_0_split
I0416 10:52:30.054282 25070 net.cpp:100] Creating Layer rpn_twin_pred_rpn_twin_pred_0_split
I0416 10:52:30.054287 25070 net.cpp:434] rpn_twin_pred_rpn_twin_pred_0_split <- rpn_twin_pred
I0416 10:52:30.054296 25070 net.cpp:408] rpn_twin_pred_rpn_twin_pred_0_split -> rpn_twin_pred_rpn_twin_pred_0_split_0
I0416 10:52:30.054304 25070 net.cpp:408] rpn_twin_pred_rpn_twin_pred_0_split -> rpn_twin_pred_rpn_twin_pred_0_split_1
I0416 10:52:30.054352 25070 net.cpp:150] Setting up rpn_twin_pred_rpn_twin_pred_0_split
I0416 10:52:30.054360 25070 net.cpp:157] Top shape: 1 74 96 1 1 (7104)
I0416 10:52:30.054365 25070 net.cpp:157] Top shape: 1 74 96 1 1 (7104)
I0416 10:52:30.054369 25070 net.cpp:165] Memory required for data: 10172275236
I0416 10:52:30.054374 25070 layer_factory.hpp:77] Creating layer rpn_cls_score_reshape
I0416 10:52:30.054383 25070 net.cpp:100] Creating Layer rpn_cls_score_reshape
I0416 10:52:30.054388 25070 net.cpp:434] rpn_cls_score_reshape <- rpn_cls_score_rpn_cls_score_0_split_0
I0416 10:52:30.054396 25070 net.cpp:408] rpn_cls_score_reshape -> rpn_cls_score_reshape
I0416 10:52:30.054430 25070 net.cpp:150] Setting up rpn_cls_score_reshape
I0416 10:52:30.054438 25070 net.cpp:157] Top shape: 1 2 3552 1 1 (7104)
I0416 10:52:30.054442 25070 net.cpp:165] Memory required for data: 10172303652
I0416 10:52:30.054446 25070 layer_factory.hpp:77] Creating layer rpn_cls_score_reshape_rpn_cls_score_reshape_0_split
I0416 10:52:30.054453 25070 net.cpp:100] Creating Layer rpn_cls_score_reshape_rpn_cls_score_reshape_0_split
I0416 10:52:30.054458 25070 net.cpp:434] rpn_cls_score_reshape_rpn_cls_score_reshape_0_split <- rpn_cls_score_reshape
I0416 10:52:30.054466 25070 net.cpp:408] rpn_cls_score_reshape_rpn_cls_score_reshape_0_split -> rpn_cls_score_reshape_rpn_cls_score_reshape_0_split_0
I0416 10:52:30.054481 25070 net.cpp:408] rpn_cls_score_reshape_rpn_cls_score_reshape_0_split -> rpn_cls_score_reshape_rpn_cls_score_reshape_0_split_1
I0416 10:52:30.054489 25070 net.cpp:408] rpn_cls_score_reshape_rpn_cls_score_reshape_0_split -> rpn_cls_score_reshape_rpn_cls_score_reshape_0_split_2
I0416 10:52:30.054546 25070 net.cpp:150] Setting up rpn_cls_score_reshape_rpn_cls_score_reshape_0_split
I0416 10:52:30.054553 25070 net.cpp:157] Top shape: 1 2 3552 1 1 (7104)
I0416 10:52:30.054559 25070 net.cpp:157] Top shape: 1 2 3552 1 1 (7104)
I0416 10:52:30.054565 25070 net.cpp:157] Top shape: 1 2 3552 1 1 (7104)
I0416 10:52:30.054569 25070 net.cpp:165] Memory required for data: 10172388900
I0416 10:52:30.054574 25070 layer_factory.hpp:77] Creating layer rpn-data
I0416 10:52:30.054951 25070 net.cpp:100] Creating Layer rpn-data
I0416 10:52:30.054962 25070 net.cpp:434] rpn-data <- rpn_cls_score_rpn_cls_score_0_split_1
I0416 10:52:30.054970 25070 net.cpp:434] rpn-data <- gt_boxes_data_1_split_0
I0416 10:52:30.054976 25070 net.cpp:434] rpn-data <- data_data_0_split_1
I0416 10:52:30.054986 25070 net.cpp:408] rpn-data -> rpn_labels
I0416 10:52:30.054996 25070 net.cpp:408] rpn-data -> rpn_twin_targets
I0416 10:52:30.055006 25070 net.cpp:408] rpn-data -> rpn_twin_inside_weights
I0416 10:52:30.055016 25070 net.cpp:408] rpn-data -> rpn_twin_outside_weights
I0416 10:52:30.057585 25070 net.cpp:150] Setting up rpn-data
I0416 10:52:30.057598 25070 net.cpp:157] Top shape: 1 1 3552 1 1 (3552)
I0416 10:52:30.057605 25070 net.cpp:157] Top shape: 1 74 96 1 1 (7104)
I0416 10:52:30.057610 25070 net.cpp:157] Top shape: 1 74 96 1 1 (7104)
I0416 10:52:30.057616 25070 net.cpp:157] Top shape: 1 74 96 1 1 (7104)
I0416 10:52:30.057621 25070 net.cpp:165] Memory required for data: 10172488356
I0416 10:52:30.057626 25070 layer_factory.hpp:77] Creating layer rpn_labels_rpn-data_0_split
I0416 10:52:30.057632 25070 net.cpp:100] Creating Layer rpn_labels_rpn-data_0_split
I0416 10:52:30.057638 25070 net.cpp:434] rpn_labels_rpn-data_0_split <- rpn_labels
I0416 10:52:30.057646 25070 net.cpp:408] rpn_labels_rpn-data_0_split -> rpn_labels_rpn-data_0_split_0
I0416 10:52:30.057656 25070 net.cpp:408] rpn_labels_rpn-data_0_split -> rpn_labels_rpn-data_0_split_1
I0416 10:52:30.057739 25070 net.cpp:150] Setting up rpn_labels_rpn-data_0_split
I0416 10:52:30.057749 25070 net.cpp:157] Top shape: 1 1 3552 1 1 (3552)
I0416 10:52:30.057761 25070 net.cpp:157] Top shape: 1 1 3552 1 1 (3552)
I0416 10:52:30.057766 25070 net.cpp:165] Memory required for data: 10172516772
I0416 10:52:30.057770 25070 layer_factory.hpp:77] Creating layer rpn_loss_cls
I0416 10:52:30.057780 25070 net.cpp:100] Creating Layer rpn_loss_cls
I0416 10:52:30.057785 25070 net.cpp:434] rpn_loss_cls <- rpn_cls_score_reshape_rpn_cls_score_reshape_0_split_0
I0416 10:52:30.057791 25070 net.cpp:434] rpn_loss_cls <- rpn_labels_rpn-data_0_split_0
…
I0416 10:52:30.058149 25070 layer_factory.hpp:77] Creating layer rpn_accuarcy
I0416 10:52:30.058157 25070 net.cpp:100] Creating Layer rpn_accuarcy
I0416 10:52:30.058162 25070 net.cpp:434] rpn_accuarcy <- rpn_cls_score_reshape_rpn_cls_score_reshape_0_split_1
I0416 10:52:30.058168 25070 net.cpp:434] rpn_accuarcy <- rpn_labels_rpn-data_0_split_1
I0416 10:52:30.058176 25070 net.cpp:408] rpn_accuarcy -> rpn_accuarcy
I0416 10:52:30.058184 25070 net.cpp:408] rpn_accuarcy -> rpn_accuarcy_class
I0416 10:52:30.058231 25070 net.cpp:150] Setting up rpn_accuarcy
I0416 10:52:30.058238 25070 net.cpp:157] Top shape: (1)
I0416 10:52:30.058243 25070 net.cpp:157] Top shape: 2 (2)
I0416 10:52:30.058248 25070 net.cpp:165] Memory required for data: 10172516792
I0416 10:52:30.058251 25070 layer_factory.hpp:77] Creating layer rpn_cls_prob
I0416 10:52:30.058259 25070 net.cpp:100] Creating Layer rpn_cls_prob
I0416 10:52:30.058264 25070 net.cpp:434] rpn_cls_prob <- rpn_cls_score_reshape_rpn_cls_score_reshape_0_split_2
I0416 10:52:30.058269 25070 net.cpp:408] rpn_cls_prob -> rpn_cls_prob
I0416 10:52:30.058343 25070 net.cpp:150] Setting up rpn_cls_prob
I0416 10:52:30.058351 25070 net.cpp:157] Top shape: 1 2 3552 1 1 (7104)
I0416 10:52:30.058354 25070 net.cpp:165] Memory required for data: 10172545208
I0416 10:52:30.058359 25070 layer_factory.hpp:77] Creating layer rpn_cls_prob_reshape
I0416 10:52:30.058368 25070 net.cpp:100] Creating Layer rpn_cls_prob_reshape
I0416 10:52:30.058373 25070 net.cpp:434] rpn_cls_prob_reshape <- rpn_cls_prob
I0416 10:52:30.058380 25070 net.cpp:408] rpn_cls_prob_reshape -> rpn_cls_prob_reshape
I0416 10:52:30.058413 25070 net.cpp:150] Setting up rpn_cls_prob_reshape
I0416 10:52:30.058420 25070 net.cpp:157] Top shape: 1 74 96 1 1 (7104)
I0416 10:52:30.058424 25070 net.cpp:165] Memory required for data: 10172573624
I0416 10:52:30.058429 25070 layer_factory.hpp:77] Creating layer proposal
I0416 10:52:30.058954 25070 net.cpp:100] Creating Layer proposal
I0416 10:52:30.058966 25070 net.cpp:434] proposal <- rpn_cls_prob_reshape
I0416 10:52:30.058972 25070 net.cpp:434] proposal <- rpn_twin_pred_rpn_twin_pred_0_split_1
I0416 10:52:30.058981 25070 net.cpp:408] proposal -> rpn_rois
I0416 10:52:30.062686 25070 net.cpp:150] Setting up proposal
I0416 10:52:30.062700 25070 net.cpp:157] Top shape: 1 3 (3)
I0416 10:52:30.062705 25070 net.cpp:165] Memory required for data: 10172573636
I0416 10:52:30.062711 25070 layer_factory.hpp:77] Creating layer roi-data
I0416 10:52:30.062841 25070 net.cpp:100] Creating Layer roi-data
I0416 10:52:30.062850 25070 net.cpp:434] roi-data <- rpn_rois
I0416 10:52:30.062857 25070 net.cpp:434] roi-data <- gt_boxes_data_1_split_1
I0416 10:52:30.062866 25070 net.cpp:408] roi-data -> rois
I0416 10:52:30.062876 25070 net.cpp:408] roi-data -> labels
I0416 10:52:30.062885 25070 net.cpp:408] roi-data -> twin_targets
I0416 10:52:30.062901 25070 net.cpp:408] roi-data -> twin_inside_weights
I0416 10:52:30.062911 25070 net.cpp:408] roi-data -> twin_outside_weights
I0416 10:52:30.063221 25070 net.cpp:150] Setting up roi-data
I0416 10:52:30.063233 25070 net.cpp:157] Top shape: 1 3 (3)
I0416 10:52:30.063239 25070 net.cpp:157] Top shape: 1 1 (1)
I0416 10:52:30.063244 25070 net.cpp:157] Top shape: 1 402 (402)
I0416 10:52:30.063249 25070 net.cpp:157] Top shape: 1 402 (402)
I0416 10:52:30.063254 25070 net.cpp:157] Top shape: 1 402 (402)
I0416 10:52:30.063258 25070 net.cpp:165] Memory required for data: 10172578476
I0416 10:52:30.063263 25070 layer_factory.hpp:77] Creating layer labels_roi-data_1_split
I0416 10:52:30.063271 25070 net.cpp:100] Creating Layer labels_roi-data_1_split
I0416 10:52:30.063275 25070 net.cpp:434] labels_roi-data_1_split <- labels
I0416 10:52:30.063283 25070 net.cpp:408] labels_roi-data_1_split -> labels_roi-data_1_split_0
I0416 10:52:30.063293 25070 net.cpp:408] labels_roi-data_1_split -> labels_roi-data_1_split_1
I0416 10:52:30.063336 25070 net.cpp:150] Setting up labels_roi-data_1_split
I0416 10:52:30.063344 25070 net.cpp:157] Top shape: 1 1 (1)
I0416 10:52:30.063349 25070 net.cpp:157] Top shape: 1 1 (1)
I0416 10:52:30.063352 25070 net.cpp:165] Memory required for data: 10172578484
I0416 10:52:30.063357 25070 layer_factory.hpp:77] Creating layer roi_pool5
I0416 10:52:30.063367 25070 net.cpp:100] Creating Layer roi_pool5
I0416 10:52:30.063372 25070 net.cpp:434] roi_pool5 <- conv5b_relu5b_0_split_1
I0416 10:52:30.063380 25070 net.cpp:434] roi_pool5 <- rois
I0416 10:52:30.063385 25070 net.cpp:408] roi_pool5 -> pool5
I0416 10:52:30.063395 25070 roi_pooling_layer.cpp:34] Temporal scale: 0.125
I0416 10:52:30.063403 25070 roi_pooling_layer.cpp:35] Spatial scale: 0.0625
I0416 10:52:30.063449 25070 net.cpp:150] Setting up roi_pool5
I0416 10:52:30.063457 25070 net.cpp:157] Top shape: 1 512 1 4 4 (8192)
I0416 10:52:30.063462 25070 net.cpp:165] Memory required for data: 10172611252
I0416 10:52:30.063465 25070 layer_factory.hpp:77] Creating layer fc6
I0416 10:52:30.063474 25070 net.cpp:100] Creating Layer fc6
I0416 10:52:30.063479 25070 net.cpp:434] fc6 <- pool5
I0416 10:52:30.063486 25070 net.cpp:408] fc6 -> fc6
I0416 10:52:30.337378 25070 net.cpp:150] Setting up fc6
I0416 10:52:30.337409 25070 net.cpp:157] Top shape: 1 4096 (4096)
I0416 10:52:30.337412 25070 net.cpp:165] Memory required for data: 10172627636
I0416 10:52:30.337424 25070 layer_factory.hpp:77] Creating layer relu6
I0416 10:52:30.337436 25070 net.cpp:100] Creating Layer relu6
I0416 10:52:30.337442 25070 net.cpp:434] relu6 <- fc6
I0416 10:52:30.337450 25070 net.cpp:395] relu6 -> fc6 (in-place)
I0416 10:52:30.337461 25070 net.cpp:150] Setting up relu6
I0416 10:52:30.337483 25070 net.cpp:157] Top shape: 1 4096 (4096)
I0416 10:52:30.337488 25070 net.cpp:165] Memory required for data: 10172644020
I0416 10:52:30.337492 25070 layer_factory.hpp:77] Creating layer drop6
I0416 10:52:30.337502 25070 net.cpp:100] Creating Layer drop6
I0416 10:52:30.337510 25070 net.cpp:434] drop6 <- fc6
I0416 10:52:30.337517 25070 net.cpp:395] drop6 -> fc6 (in-place)
I0416 10:52:30.337548 25070 net.cpp:150] Setting up drop6
I0416 10:52:30.337555 25070 net.cpp:157] Top shape: 1 4096 (4096)
I0416 10:52:30.337559 25070 net.cpp:165] Memory required for data: 10172660404
I0416 10:52:30.337563 25070 layer_factory.hpp:77] Creating layer fc6_drop6_0_split
I0416 10:52:30.337574 25070 net.cpp:100] Creating Layer fc6_drop6_0_split
I0416 10:52:30.337579 25070 net.cpp:434] fc6_drop6_0_split <- fc6
I0416 10:52:30.337586 25070 net.cpp:408] fc6_drop6_0_split -> fc6_drop6_0_split_0
I0416 10:52:30.337595 25070 net.cpp:408] fc6_drop6_0_split -> fc6_drop6_0_split_1
I0416 10:52:30.337648 25070 net.cpp:150] Setting up fc6_drop6_0_split
I0416 10:52:30.337656 25070 net.cpp:157] Top shape: 1 4096 (4096)
I0416 10:52:30.337659 25070 net.cpp:157] Top shape: 1 4096 (4096)
I0416 10:52:30.337664 25070 net.cpp:165] Memory required for data: 10172693172
I0416 10:52:30.337668 25070 layer_factory.hpp:77] Creating layer cls_score
I0416 10:52:30.337680 25070 net.cpp:100] Creating Layer cls_score
I0416 10:52:30.337685 25070 net.cpp:434] cls_score <- fc6_drop6_0_split_0
I0416 10:52:30.337694 25070 net.cpp:408] cls_score -> cls_score
I0416 10:52:30.345036 25070 net.cpp:150] Setting up cls_score
I0416 10:52:30.345052 25070 net.cpp:157] Top shape: 1 201 (201)
I0416 10:52:30.345057 25070 net.cpp:165] Memory required for data: 10172693976
I0416 10:52:30.345065 25070 layer_factory.hpp:77] Creating layer cls_score_cls_score_0_split
I0416 10:52:30.345074 25070 net.cpp:100] Creating Layer cls_score_cls_score_0_split
I0416 10:52:30.345079 25070 net.cpp:434] cls_score_cls_score_0_split <- cls_score
I0416 10:52:30.345086 25070 net.cpp:408] cls_score_cls_score_0_split -> cls_score_cls_score_0_split_0
I0416 10:52:30.345096 25070 net.cpp:408] cls_score_cls_score_0_split -> cls_score_cls_score_0_split_1
I0416 10:52:30.345145 25070 net.cpp:150] Setting up cls_score_cls_score_0_split
I0416 10:52:30.345155 25070 net.cpp:157] Top shape: 1 201 (201)
I0416 10:52:30.345160 25070 net.cpp:157] Top shape: 1 201 (201)
I0416 10:52:30.345165 25070 net.cpp:165] Memory required for data: 10172695584
I0416 10:52:30.345168 25070 layer_factory.hpp:77] Creating layer twin_pred
I0416 10:52:30.345177 25070 net.cpp:100] Creating Layer twin_pred
I0416 10:52:30.345182 25070 net.cpp:434] twin_pred <- fc6_drop6_0_split_1
I0416 10:52:30.345192 25070 net.cpp:408] twin_pred -> twin_pred
I0416 10:52:30.359047 25070 net.cpp:150] Setting up twin_pred
I0416 10:52:30.359077 25070 net.cpp:157] Top shape: 1 402 (402)
I0416 10:52:30.359081 25070 net.cpp:165] Memory required for data: 10172697192
I0416 10:52:30.359102 25070 layer_factory.hpp:77] Creating layer loss_cls
I0416 10:52:30.359117 25070 net.cpp:100] Creating Layer loss_cls
I0416 10:52:30.359123 25070 net.cpp:434] loss_cls <- cls_score_cls_score_0_split_0
I0416 10:52:30.359131 25070 net.cpp:434] loss_cls <- labels_roi-data_1_split_0
I0416 10:52:30.359145 25070 net.cpp:408] loss_cls -> loss_cls
…
