…
stepsize: 350000
snapshot: 0
snapshot_prefix: "./experiments/activitynet/snapshot/activitynet"
average_loss: 100
iter_size: 1
I0417 23:35:02.917143  9120 solver.cpp:81] Creating training net from train_net file: ./experiments/activitynet/train.prototxt
I0417 23:35:02.918253  9120 net.cpp:58] Initializing net from parameters: 
name: "activitynet"
state {
  phase: TRAIN
}
layer {
  name: "data"
  type: "Python"
  top: "data"
  top: "gt_boxes"
  python_param {
    module: "roi_data_layer.layer"
    layer: "RoIDataLayer"
    param_str: "\'num_classes\': 100"
  }
}
layer {
  name: "conv1a"
  type: "Convolution"
  bottom: "data"
  top: "conv1a"
  param {
    lr_mult: 0
    decay_mult: 0
  }
  param {
    lr_mult: 0
    decay_mult: 0
  }
  convolution_param {
    num_output: 64
    pad: 1
    pad: 1
    pad: 1
    kernel_size: 3
    kernel_size: 3
    kernel_size: 3
    weight_filler {
      type: "gaussian"
      std: 0.01
    }
    bias_filler {
      type: "constant"
      value: 0
    }
  }
}
layer {
  name: "relu1a"
  type: "ReLU"
  bottom: "conv1a"
  top: "conv1a"
}
layer {
  name: "pool1"
  type: "Pooling"
  bottom: "conv1a"
  top: "pool1"
  pooling_param {
    pool: MAX
    kernel_size: 1
    kernel_size: 2
    kernel_size: 2
    stride: 1
    stride: 2
    stride: 2
  }
}
layer {
  name: "conv2a"
  type: "Convolution"
  bottom: "pool1"
  top: "conv2a"
  param {
    lr_mult: 0
    decay_mult: 0
  }
  param {
    lr_mult: 0
    decay_mult: 0
  }
  convolution_param {
    num_output: 128
    pad: 1
    pad: 1
    pad: 1
    kernel_size: 3
    kernel_size: 3
    kernel_size: 3
    weight_filler {
      type: "gaussian"
      std: 0.01
    }
    bias_filler {
      type: "constant"
      value: 1
    }
  }
}
layer {
  name: "relu2a"
  type: "ReLU"
  bottom: "conv2a"
  top: "conv2a"
}
layer {
  name: "pool2"
  type: "Pooling"
  bottom: "conv2a"
  top: "pool2"
  pooling_param {
    pool: MAX
    kernel_size: 2
    kernel_size: 2
    kernel_size: 2
    stride: 2
    stride: 2
    stride: 2
  }
}
layer {
  name: "conv3a"
  type: "Convolution"
  bottom: "pool2"
  top: "conv3a"
  param {
    lr_mult: 1
    decay_mult: 1
  }
  param {
    lr_mult: 2
    decay_mult: 0
  }
  convolution_param {
    num_output: 256
    pad: 1
    pad: 1
    pad: 1
    kernel_size: 3
    kernel_size: 3
    kernel_size: 3
    weight_filler {
      type: "gaussian"
      std: 0.01
    }
    bias_filler {
      type: "constant"
      value: 1
    }
  }
}
layer {
  name: "relu3a"
  type: "ReLU"
  bottom: "conv3a"
  top: "conv3a"
}
layer {
  name: "conv3b"
  type: "Convolution"
  bottom: "conv3a"
  top: "conv3b"
  param {
    lr_mult: 1
    decay_mult: 1
  }
  param {
    lr_mult: 2
    decay_mult: 0
  }
  convolution_param {
    num_output: 256
    pad: 1
    pad: 1
    pad: 1
    kernel_size: 3
    kernel_size: 3
    kernel_size: 3
    weight_filler {
      type: "gaussian"
      std: 0.01
    }
    bias_filler {
      type: "constant"
      value: 1
    }
  }
}
layer {
  name: "relu3b"
  type: "ReLU"
  bottom: "conv3b"
  top: "conv3b"
}
layer {
  name: "pool3"
  type: "Pooling"
  bottom: "conv3b"
  top: "pool3"
  pooling_param {
    pool: MAX
    kernel_size: 2
    kernel_size: 2
    kernel_size: 2
    stride: 2
    stride: 2
    stride: 2
  }
}
layer {
  name: "conv4a"
  type: "Convolution"
  bottom: "pool3"
  top: "conv4a"
  param {
    lr_mult: 1
    decay_mult: 1
  }
  param {
    lr_mult: 2
    decay_mult: 0
  }
  convolution_param {
    num_output: 512
    pad: 1
    pad: 1
    pad: 1
    kernel_size: 3
    kernel_size: 3
    kernel_size: 3
    weight_filler {
      type: "gaussian"
      std: 0.01
    }
    bias_filler {
      type: "constant"
      value: 1
    }
  }
}
layer {
  name: "relu4a"
  type: "ReLU"
  bottom: "conv4a"
  top: "conv4a"
}
layer {
  name: "conv4b"
  type: "Convolution"
  bottom: "conv4a"
  top: "conv4b"
  param {
    lr_mult: 1
    decay_mult: 1
  }
  param {
    lr_mult: 2
    decay_mult: 0
  }
  convolution_param {
    num_output: 512
    pad: 1
    pad: 1
    pad: 1
    kernel_size: 3
    kernel_size: 3
    kernel_size: 3
    weight_filler {
      type: "gaussian"
      std: 0.01
    }
    bias_filler {
      type: "constant"
      value: 1
    }
  }
}
layer {
  name: "relu4b"
  type: "ReLU"
  bottom: "conv4b"
  top: "conv4b"
}
layer {
  name: "pool4"
  type: "Pooling"
  bottom: "conv4b"
  top: "pool4"
  pooling_param {
    pool: MAX
    kernel_size: 2
    kernel_size: 2
    kernel_size: 2
    stride: 2
    stride: 2
    stride: 2
  }
}
layer {
  name: "conv5a"
  type: "Convolution"
  bottom: "pool4"
  top: "conv5a"
  param {
    lr_mult: 1
    decay_mult: 1
  }
  param {
    lr_mult: 2
    decay_mult: 0
  }
  convolution_param {
    num_output: 512
    pad: 1
    pad: 1
    pad: 1
    kernel_size: 3
    kernel_size: 3
    kernel_size: 3
    weight_filler {
      type: "gaussian"
      std: 0.01
    }
    bias_filler {
      type: "constant"
      value: 1
    }
  }
}
layer {
  name: "relu5a"
  type: "ReLU"
  bottom: "conv5a"
  top: "conv5a"
}
layer {
  name: "conv5b"
  type: "Convolution"
  bottom: "conv5a"
  top: "conv5b"
  param {
    lr_mult: 1
    decay_mult: 1
  }
  param {
    lr_mult: 2
    decay_mult: 0
  }
  convolution_param {
    num_output: 512
    pad: 1
    pad: 1
    pad: 1
    kernel_size: 3
    kernel_size: 3
    kernel_size: 3
    weight_filler {
      type: "gaussian"
      std: 0.01
    }
    bias_filler {
      type: "constant"
      value: 1
    }
  }
}
layer {
  name: "relu5b"
  type: "ReLU"
  bottom: "conv5b"
  top: "conv5b"
}
layer {
  name: "rpn_conv/3x3"
  type: "Convolution"
  bottom: "conv5b"
  top: "rpn/output"
  param {
    lr_mult: 1
    decay_mult: 1
  }
  param {
    lr_mult: 2
    decay_mult: 0
  }
  convolution_param {
    num_output: 512
    pad: 1
    pad: 1
    pad: 1
    kernel_size: 3
    kernel_size: 3
    kernel_size: 3
    stride: 1
    stride: 2
    stride: 2
    weight_filler {
      type: "gaussian"
      std: 0.01
    }
    bias_filler {
      type: "constant"
      value: 0
    }
  }
}
layer {
  name: "rpn_relu/3x3"
  type: "ReLU"
  bottom: "rpn/output"
  top: "rpn/output"
}
layer {
  name: "rpn_conv/3x3_2"
  type: "Convolution"
  bottom: "rpn/output"
  top: "rpn/output_2"
  param {
    lr_mult: 1
    decay_mult: 1
  }
  param {
    lr_mult: 2
    decay_mult: 0
  }
  convolution_param {
    num_output: 512
    pad: 1
    pad: 1
    pad: 1
    kernel_size: 3
    kernel_size: 3
    kernel_size: 3
    stride: 1
    stride: 2
    stride: 2
    weight_filler {
      type: "gaussian"
      std: 0.01
    }
    bias_filler {
      type: "constant"
      value: 0
    }
  }
}
layer {
  name: "rpn_relu/3x3_2"
  type: "ReLU"
  bottom: "rpn/output_2"
  top: "rpn/output_2"
}
layer {
  name: "rpn/output_pool"
  type: "Pooling"
  bottom: "rpn/output_2"
  top: "rpn/output_pool"
  pooling_param {
    pool: MAX
    kernel_size: 1
    kernel_size: 2
    kernel_size: 2
  }
}
layer {
  name: "rpn_cls_score"
  type: "Convolution"
  bottom: "rpn/output_pool"
  top: "rpn_cls_score"
  param {
    lr_mult: 1
    decay_mult: 1
  }
  param {
    lr_mult: 2
    decay_mult: 0
  }
  convolution_param {
    num_output: 74
    kernel_size: 1
    kernel_size: 1
    kernel_size: 1
    weight_filler {
      type: "gaussian"
      std: 0.01
    }
    bias_filler {
      type: "constant"
      value: 0
    }
  }
}
layer {
  name: "rpn_twin_pred"
  type: "Convolution"
  bottom: "rpn/output_pool"
  top: "rpn_twin_pred"
  param {
    lr_mult: 1
    decay_mult: 1
  }
  param {
    lr_mult: 2
    decay_mult: 0
  }
  convolution_param {
    num_output: 74
    kernel_size: 1
    kernel_size: 1
    kernel_size: 1
    weight_filler {
      type: "gaussian"
      std: 0.01
    }
    bias_filler {
      type: "constant"
      value: 0
    }
  }
}
layer {
  name: "rpn_cls_score_reshape"
  type: "Reshape"
  bottom: "rpn_cls_score"
  top: "rpn_cls_score_reshape"
  reshape_param {
    shape {
      dim: 0
      dim: 2
      dim: -1
      dim: 0
      dim: 0
    }
  }
}
layer {
  name: "rpn-data"
  type: "Python"
  bottom: "rpn_cls_score"
  bottom: "gt_boxes"
  bottom: "data"
  top: "rpn_labels"
  top: "rpn_twin_targets"
  top: "rpn_twin_inside_weights"
  top: "rpn_twin_outside_weights"
  python_param {
    module: "rpn.anchor_target_layer"
    layer: "AnchorTargetLayer"
    param_str: "\'feat_stride\': 8 \n\'scales\': !!python/tuple [1,1.25, 1.5,1.75, 2,2.5, 3,3.5, 4,4.5, 5,5.5, 6,7, 8,9,10,11,12,14,16,18,20,22,24,28,32,36,40,44,52,60,68,76,84,92,100]"
  }
}
layer {
  name: "rpn_loss_cls"
  type: "SoftmaxWithLoss"
  bottom: "rpn_cls_score_reshape"
  bottom: "rpn_labels"
  top: "rpn_cls_loss"
  loss_weight: 1
  propagate_down: true
  propagate_down: false
  loss_param {
    ignore_label: -1
    normalize: true
  }
}
layer {
  name: "rpn_loss_twin"
  type: "SmoothL1Loss"
  bottom: "rpn_twin_pred"
  bottom: "rpn_twin_targets"
  bottom: "rpn_twin_inside_weights"
  bottom: "rpn_twin_outside_weights"
  top: "rpn_loss_twin"
  loss_weight: 1
  smooth_l1_loss_param {
    sigma: 3
  }
}
layer {
  name: "rpn_accuarcy"
  type: "Accuracy"
  bottom: "rpn_cls_score_reshape"
  bottom: "rpn_labels"
  top: "rpn_accuarcy"
  top: "rpn_accuarcy_class"
  propagate_down: false
  propagate_down: false
  accuracy_param {
    ignore_label: -1
  }
}
layer {
  name: "rpn_cls_prob"
  type: "Softmax"
  bottom: "rpn_cls_score_reshape"
  top: "rpn_cls_prob"
}
layer {
  name: "rpn_cls_prob_reshape"
  type: "Reshape"
  bottom: "rpn_cls_prob"
  top: "rpn_cls_prob_reshape"
  reshape_param {
    shape {
      dim: 0
      dim: 74
      dim: -1
      dim: 0
      dim: 0
    }
  }
}
layer {
  name: "proposal"
  type: "Python"
  bottom: "rpn_cls_prob_reshape"
  bottom: "rpn_twin_pred"
  top: "rpn_rois"
  include {
    phase: TRAIN
  }
  python_param {
    module: "rpn.proposal_layer"
    layer: "ProposalLayer"
    param_str: "\'feat_stride\': 8 \n\'scales\': !!python/tuple [1,1.25, 1.5,1.75, 2,2.5, 3,3.5, 4,4.5, 5,5.5, 6,7, 8,9,10,11,12,14,16,18,20,22,24,28,32,36,40,44,52,60,68,76,84,92,100]"
  }
}
layer {
  name: "roi-data"
  type: "Python"
  bottom: "rpn_rois"
  bottom: "gt_boxes"
  top: "rois"
  top: "labels"
  top: "twin_targets"
  top: "twin_inside_weights"
  top: "twin_outside_weights"
  python_param {
    module: "rpn.proposal_target_layer"
    layer: "ProposalTargetLayer"
    param_str: "\'num_classes\': 201"
  }
}
layer {
  name: "roi_pool5"
  type: "ROIPooling"
  bottom: "conv5b"
  bottom: "rois"
  top: "pool5"
  roi_pooling_param {
    pooled_h: 4
    pooled_w: 4
    spatial_scale: 0.0625
    pooled_l: 1
    temporal_scale: 0.125
  }
}
layer {
  name: "fc6"
  type: "InnerProduct"
  bottom: "pool5"
  top: "fc6"
  param {
    lr_mult: 1
    decay_mult: 1
  }
  param {
    lr_mult: 2
    decay_mult: 0
  }
  inner_product_param {
    num_output: 4096
    weight_filler {
      type: "gaussian"
      std: 0.005
    }
    bias_filler {
      type: "constant"
      value: 1
    }
  }
}
layer {
  name: "relu6"
  type: "ReLU"
  bottom: "fc6"
  top: "fc6"
}
layer {
  name: "drop6"
  type: "Dropout"
  bottom: "fc6"
  top: "fc6"
  dropout_param {
    dropout_ratio: 0.5
  }
}
layer {
  name: "cls_score"
  type: "InnerProduct"
  bottom: "fc6"
  top: "cls_score"
  param {
    lr_mult: 1
    decay_mult: 1
  }
  param {
    lr_mult: 2
    decay_mult: 0
  }
  inner_product_param {
    num_output: 201
    weight_filler {
      type: "gaussian"
      std: 0.01
    }
    bias_filler {
      type: "constant"
      value: 0
    }
  }
}
layer {
  name: "twin_pred"
  type: "InnerProduct"
  bottom: "fc6"
  top: "twin_pred"
  param {
    lr_mult: 1
    decay_mult: 1
  }
  param {
    lr_mult: 2
    decay_mult: 0
  }
  inner_product_param {
    num_output: 402
    weight_filler {
      type: "gaussian"
      std: 0.001
    }
    bias_filler {
      type: "constant"
      value: 0
    }
  }
}
layer {
  name: "loss_cls"
  type: "SoftmaxWithLoss"
  bottom: "cls_score"
  bottom: "labels"
  top: "loss_cls"
  loss_weight: 1
  propagate_down: true
  propagate_down: false
}
layer {
  name: "loss_twin"
  type: "SmoothL1Loss"
  bottom: "twin_pred"
  bottom: "twin_targets"
  bottom: "twin_inside_weights"
  bottom: "twin_outside_weights"
  top: "loss_twin"
  loss_weight: 1
}
layer {
  name: "accuarcy"
  type: "Accuracy"
  bottom: "cls_score"
  bottom: "labels"
  top: "accuarcy"
  propagate_down: false
  propagate_down: false
  accuracy_param {
    ignore_label: -1
  }
}
I0417 23:35:02.918480  9120 layer_factory.hpp:77] Creating layer data
I0417 23:35:02.946161  9120 net.cpp:100] Creating Layer data
I0417 23:35:02.946185  9120 net.cpp:408] data -> data
I0417 23:35:02.946200  9120 net.cpp:408] data -> gt_boxes
setting up
has rpn
RoiDataLayer: name_to_top: {'gt_windows': 1, 'data': 0}
I0417 23:35:02.968195  9120 net.cpp:150] Setting up data
I0417 23:35:02.968221  9120 net.cpp:157] Top shape: 1 3 768 112 112 (28901376)
I0417 23:35:02.968227  9120 net.cpp:157] Top shape: 1 101 (101)
I0417 23:35:02.968230  9120 net.cpp:165] Memory required for data: 115605908
I0417 23:35:02.968237  9120 layer_factory.hpp:77] Creating layer data_data_0_split
I0417 23:35:02.968252  9120 net.cpp:100] Creating Layer data_data_0_split
I0417 23:35:02.968257  9120 net.cpp:434] data_data_0_split <- data
I0417 23:35:02.968266  9120 net.cpp:408] data_data_0_split -> data_data_0_split_0
I0417 23:35:02.968276  9120 net.cpp:408] data_data_0_split -> data_data_0_split_1
I0417 23:35:02.968307  9120 net.cpp:150] Setting up data_data_0_split
I0417 23:35:02.968322  9120 net.cpp:157] Top shape: 1 3 768 112 112 (28901376)
I0417 23:35:02.968327  9120 net.cpp:157] Top shape: 1 3 768 112 112 (28901376)
I0417 23:35:02.968329  9120 net.cpp:165] Memory required for data: 346816916
I0417 23:35:02.968334  9120 layer_factory.hpp:77] Creating layer gt_boxes_data_1_split
I0417 23:35:02.968341  9120 net.cpp:100] Creating Layer gt_boxes_data_1_split
I0417 23:35:02.968345  9120 net.cpp:434] gt_boxes_data_1_split <- gt_boxes
I0417 23:35:02.968350  9120 net.cpp:408] gt_boxes_data_1_split -> gt_boxes_data_1_split_0
I0417 23:35:02.968355  9120 net.cpp:408] gt_boxes_data_1_split -> gt_boxes_data_1_split_1
I0417 23:35:02.968385  9120 net.cpp:150] Setting up gt_boxes_data_1_split
I0417 23:35:02.968391  9120 net.cpp:157] Top shape: 1 101 (101)
I0417 23:35:02.968395  9120 net.cpp:157] Top shape: 1 101 (101)
I0417 23:35:02.968400  9120 net.cpp:165] Memory required for data: 346817724
I0417 23:35:02.968402  9120 layer_factory.hpp:77] Creating layer conv1a
I0417 23:35:02.968420  9120 net.cpp:100] Creating Layer conv1a
I0417 23:35:02.968423  9120 net.cpp:434] conv1a <- data_data_0_split_0
I0417 23:35:02.968430  9120 net.cpp:408] conv1a -> conv1a
I0417 23:35:03.248543  9120 net.cpp:150] Setting up conv1a
I0417 23:35:03.248574  9120 net.cpp:157] Top shape: 1 64 768 112 112 (616562688)
I0417 23:35:03.248579  9120 net.cpp:165] Memory required for data: 2813068476
I0417 23:35:03.248600  9120 layer_factory.hpp:77] Creating layer relu1a
I0417 23:35:03.248615  9120 net.cpp:100] Creating Layer relu1a
I0417 23:35:03.248620  9120 net.cpp:434] relu1a <- conv1a
I0417 23:35:03.248627  9120 net.cpp:395] relu1a -> conv1a (in-place)
I0417 23:35:03.251148  9120 net.cpp:150] Setting up relu1a
I0417 23:35:03.251166  9120 net.cpp:157] Top shape: 1 64 768 112 112 (616562688)
I0417 23:35:03.251173  9120 net.cpp:165] Memory required for data: 5279319228
I0417 23:35:03.251178  9120 layer_factory.hpp:77] Creating layer pool1
I0417 23:35:03.251189  9120 net.cpp:100] Creating Layer pool1
I0417 23:35:03.251194  9120 net.cpp:434] pool1 <- conv1a
I0417 23:35:03.251200  9120 net.cpp:408] pool1 -> pool1
I0417 23:35:03.255641  9120 net.cpp:150] Setting up pool1
I0417 23:35:03.255656  9120 net.cpp:157] Top shape: 1 64 768 56 56 (154140672)
I0417 23:35:03.255661  9120 net.cpp:165] Memory required for data: 5895881916
I0417 23:35:03.255666  9120 layer_factory.hpp:77] Creating layer conv2a
I0417 23:35:03.255679  9120 net.cpp:100] Creating Layer conv2a
I0417 23:35:03.255684  9120 net.cpp:434] conv2a <- pool1
I0417 23:35:03.255692  9120 net.cpp:408] conv2a -> conv2a
I0417 23:35:03.269222  9120 net.cpp:150] Setting up conv2a
I0417 23:35:03.269250  9120 net.cpp:157] Top shape: 1 128 768 56 56 (308281344)
I0417 23:35:03.269255  9120 net.cpp:165] Memory required for data: 7129007292
I0417 23:35:03.269269  9120 layer_factory.hpp:77] Creating layer relu2a
I0417 23:35:03.269279  9120 net.cpp:100] Creating Layer relu2a
I0417 23:35:03.269285  9120 net.cpp:434] relu2a <- conv2a
I0417 23:35:03.269291  9120 net.cpp:395] relu2a -> conv2a (in-place)
I0417 23:35:03.269650  9120 net.cpp:150] Setting up relu2a
I0417 23:35:03.269665  9120 net.cpp:157] Top shape: 1 128 768 56 56 (308281344)
I0417 23:35:03.269670  9120 net.cpp:165] Memory required for data: 8362132668
I0417 23:35:03.269675  9120 layer_factory.hpp:77] Creating layer pool2
I0417 23:35:03.269685  9120 net.cpp:100] Creating Layer pool2
I0417 23:35:03.269690  9120 net.cpp:434] pool2 <- conv2a
I0417 23:35:03.269696  9120 net.cpp:408] pool2 -> pool2
I0417 23:35:03.269870  9120 net.cpp:150] Setting up pool2
I0417 23:35:03.269881  9120 net.cpp:157] Top shape: 1 128 384 28 28 (38535168)
I0417 23:35:03.269886  9120 net.cpp:165] Memory required for data: 8516273340
I0417 23:35:03.269891  9120 layer_factory.hpp:77] Creating layer conv3a
I0417 23:35:03.269901  9120 net.cpp:100] Creating Layer conv3a
I0417 23:35:03.269906  9120 net.cpp:434] conv3a <- pool2
I0417 23:35:03.269912  9120 net.cpp:408] conv3a -> conv3a
I0417 23:35:03.296445  9120 net.cpp:150] Setting up conv3a
I0417 23:35:03.296470  9120 net.cpp:157] Top shape: 1 256 384 28 28 (77070336)
I0417 23:35:03.296474  9120 net.cpp:165] Memory required for data: 8824554684
I0417 23:35:03.296489  9120 layer_factory.hpp:77] Creating layer relu3a
I0417 23:35:03.296500  9120 net.cpp:100] Creating Layer relu3a
I0417 23:35:03.296505  9120 net.cpp:434] relu3a <- conv3a
I0417 23:35:03.296511  9120 net.cpp:395] relu3a -> conv3a (in-place)
I0417 23:35:03.296854  9120 net.cpp:150] Setting up relu3a
I0417 23:35:03.296867  9120 net.cpp:157] Top shape: 1 256 384 28 28 (77070336)
I0417 23:35:03.296872  9120 net.cpp:165] Memory required for data: 9132836028
I0417 23:35:03.296876  9120 layer_factory.hpp:77] Creating layer conv3b
I0417 23:35:03.296888  9120 net.cpp:100] Creating Layer conv3b
I0417 23:35:03.296892  9120 net.cpp:434] conv3b <- conv3a
I0417 23:35:03.296900  9120 net.cpp:408] conv3b -> conv3b
I0417 23:35:03.347702  9120 net.cpp:150] Setting up conv3b
I0417 23:35:03.347728  9120 net.cpp:157] Top shape: 1 256 384 28 28 (77070336)
I0417 23:35:03.347733  9120 net.cpp:165] Memory required for data: 9441117372
I0417 23:35:03.347743  9120 layer_factory.hpp:77] Creating layer relu3b
I0417 23:35:03.347754  9120 net.cpp:100] Creating Layer relu3b
I0417 23:35:03.347759  9120 net.cpp:434] relu3b <- conv3b
I0417 23:35:03.347766  9120 net.cpp:395] relu3b -> conv3b (in-place)
I0417 23:35:03.348332  9120 net.cpp:150] Setting up relu3b
I0417 23:35:03.348346  9120 net.cpp:157] Top shape: 1 256 384 28 28 (77070336)
I0417 23:35:03.348351  9120 net.cpp:165] Memory required for data: 9749398716
I0417 23:35:03.348356  9120 layer_factory.hpp:77] Creating layer pool3
I0417 23:35:03.348364  9120 net.cpp:100] Creating Layer pool3
I0417 23:35:03.348368  9120 net.cpp:434] pool3 <- conv3b
I0417 23:35:03.348376  9120 net.cpp:408] pool3 -> pool3
I0417 23:35:03.349557  9120 net.cpp:150] Setting up pool3
I0417 23:35:03.349570  9120 net.cpp:157] Top shape: 1 256 192 14 14 (9633792)
I0417 23:35:03.349575  9120 net.cpp:165] Memory required for data: 9787933884
I0417 23:35:03.349580  9120 layer_factory.hpp:77] Creating layer conv4a
I0417 23:35:03.349591  9120 net.cpp:100] Creating Layer conv4a
I0417 23:35:03.349596  9120 net.cpp:434] conv4a <- pool3
I0417 23:35:03.349602  9120 net.cpp:408] conv4a -> conv4a
I0417 23:35:03.452960  9120 net.cpp:150] Setting up conv4a
I0417 23:35:03.452989  9120 net.cpp:157] Top shape: 1 512 192 14 14 (19267584)
I0417 23:35:03.452994  9120 net.cpp:165] Memory required for data: 9865004220
I0417 23:35:03.453011  9120 layer_factory.hpp:77] Creating layer relu4a
I0417 23:35:03.453022  9120 net.cpp:100] Creating Layer relu4a
I0417 23:35:03.453030  9120 net.cpp:434] relu4a <- conv4a
I0417 23:35:03.453037  9120 net.cpp:395] relu4a -> conv4a (in-place)
I0417 23:35:03.453433  9120 net.cpp:150] Setting up relu4a
I0417 23:35:03.453447  9120 net.cpp:157] Top shape: 1 512 192 14 14 (19267584)
I0417 23:35:03.453451  9120 net.cpp:165] Memory required for data: 9942074556
I0417 23:35:03.453456  9120 layer_factory.hpp:77] Creating layer conv4b
I0417 23:35:03.453474  9120 net.cpp:100] Creating Layer conv4b
I0417 23:35:03.453480  9120 net.cpp:434] conv4b <- conv4a
I0417 23:35:03.453485  9120 net.cpp:408] conv4b -> conv4b
I0417 23:35:03.647352  9120 net.cpp:150] Setting up conv4b
I0417 23:35:03.647382  9120 net.cpp:157] Top shape: 1 512 192 14 14 (19267584)
I0417 23:35:03.647385  9120 net.cpp:165] Memory required for data: 10019144892
I0417 23:35:03.647395  9120 layer_factory.hpp:77] Creating layer relu4b
I0417 23:35:03.647405  9120 net.cpp:100] Creating Layer relu4b
I0417 23:35:03.647413  9120 net.cpp:434] relu4b <- conv4b
I0417 23:35:03.647420  9120 net.cpp:395] relu4b -> conv4b (in-place)
I0417 23:35:03.648211  9120 net.cpp:150] Setting up relu4b
I0417 23:35:03.648222  9120 net.cpp:157] Top shape: 1 512 192 14 14 (19267584)
I0417 23:35:03.648226  9120 net.cpp:165] Memory required for data: 10096215228
I0417 23:35:03.648231  9120 layer_factory.hpp:77] Creating layer pool4
I0417 23:35:03.648241  9120 net.cpp:100] Creating Layer pool4
I0417 23:35:03.648244  9120 net.cpp:434] pool4 <- conv4b
I0417 23:35:03.648252  9120 net.cpp:408] pool4 -> pool4
I0417 23:35:03.649763  9120 net.cpp:150] Setting up pool4
I0417 23:35:03.649778  9120 net.cpp:157] Top shape: 1 512 96 7 7 (2408448)
I0417 23:35:03.649781  9120 net.cpp:165] Memory required for data: 10105849020
I0417 23:35:03.649787  9120 layer_factory.hpp:77] Creating layer conv5a
I0417 23:35:03.649801  9120 net.cpp:100] Creating Layer conv5a
I0417 23:35:03.649806  9120 net.cpp:434] conv5a <- pool4
I0417 23:35:03.649811  9120 net.cpp:408] conv5a -> conv5a
I0417 23:35:03.843138  9120 net.cpp:150] Setting up conv5a
I0417 23:35:03.843163  9120 net.cpp:157] Top shape: 1 512 96 7 7 (2408448)
I0417 23:35:03.843168  9120 net.cpp:165] Memory required for data: 10115482812
I0417 23:35:03.843178  9120 layer_factory.hpp:77] Creating layer relu5a
I0417 23:35:03.843186  9120 net.cpp:100] Creating Layer relu5a
I0417 23:35:03.843195  9120 net.cpp:434] relu5a <- conv5a
I0417 23:35:03.843205  9120 net.cpp:395] relu5a -> conv5a (in-place)
I0417 23:35:03.844522  9120 net.cpp:150] Setting up relu5a
I0417 23:35:03.844537  9120 net.cpp:157] Top shape: 1 512 96 7 7 (2408448)
I0417 23:35:03.844543  9120 net.cpp:165] Memory required for data: 10125116604
I0417 23:35:03.844549  9120 layer_factory.hpp:77] Creating layer conv5b
I0417 23:35:03.844568  9120 net.cpp:100] Creating Layer conv5b
I0417 23:35:03.844578  9120 net.cpp:434] conv5b <- conv5a
I0417 23:35:03.844593  9120 net.cpp:408] conv5b -> conv5b
I0417 23:35:04.037075  9120 net.cpp:150] Setting up conv5b
I0417 23:35:04.037104  9120 net.cpp:157] Top shape: 1 512 96 7 7 (2408448)
I0417 23:35:04.037111  9120 net.cpp:165] Memory required for data: 10134750396
I0417 23:35:04.037123  9120 layer_factory.hpp:77] Creating layer relu5b
I0417 23:35:04.037139  9120 net.cpp:100] Creating Layer relu5b
I0417 23:35:04.037150  9120 net.cpp:434] relu5b <- conv5b
I0417 23:35:04.037158  9120 net.cpp:395] relu5b -> conv5b (in-place)
I0417 23:35:04.037320  9120 net.cpp:150] Setting up relu5b
I0417 23:35:04.037331  9120 net.cpp:157] Top shape: 1 512 96 7 7 (2408448)
I0417 23:35:04.037339  9120 net.cpp:165] Memory required for data: 10144384188
I0417 23:35:04.037343  9120 layer_factory.hpp:77] Creating layer conv5b_relu5b_0_split
I0417 23:35:04.037349  9120 net.cpp:100] Creating Layer conv5b_relu5b_0_split
I0417 23:35:04.037353  9120 net.cpp:434] conv5b_relu5b_0_split <- conv5b
I0417 23:35:04.037358  9120 net.cpp:408] conv5b_relu5b_0_split -> conv5b_relu5b_0_split_0
I0417 23:35:04.037365  9120 net.cpp:408] conv5b_relu5b_0_split -> conv5b_relu5b_0_split_1
I0417 23:35:04.037402  9120 net.cpp:150] Setting up conv5b_relu5b_0_split
I0417 23:35:04.037410  9120 net.cpp:157] Top shape: 1 512 96 7 7 (2408448)
I0417 23:35:04.037415  9120 net.cpp:157] Top shape: 1 512 96 7 7 (2408448)
I0417 23:35:04.037418  9120 net.cpp:165] Memory required for data: 10163651772
I0417 23:35:04.037426  9120 layer_factory.hpp:77] Creating layer rpn_conv/3x3
I0417 23:35:04.037441  9120 net.cpp:100] Creating Layer rpn_conv/3x3
I0417 23:35:04.037451  9120 net.cpp:434] rpn_conv/3x3 <- conv5b_relu5b_0_split_0
I0417 23:35:04.037462  9120 net.cpp:408] rpn_conv/3x3 -> rpn/output
I0417 23:35:04.235798  9120 net.cpp:150] Setting up rpn_conv/3x3
I0417 23:35:04.235822  9120 net.cpp:157] Top shape: 1 512 96 4 4 (786432)
I0417 23:35:04.235826  9120 net.cpp:165] Memory required for data: 10166797500
I0417 23:35:04.235841  9120 layer_factory.hpp:77] Creating layer rpn_relu/3x3
I0417 23:35:04.235852  9120 net.cpp:100] Creating Layer rpn_relu/3x3
I0417 23:35:04.235858  9120 net.cpp:434] rpn_relu/3x3 <- rpn/output
I0417 23:35:04.235867  9120 net.cpp:395] rpn_relu/3x3 -> rpn/output (in-place)
I0417 23:35:04.236321  9120 net.cpp:150] Setting up rpn_relu/3x3
I0417 23:35:04.236335  9120 net.cpp:157] Top shape: 1 512 96 4 4 (786432)
I0417 23:35:04.236338  9120 net.cpp:165] Memory required for data: 10169943228
I0417 23:35:04.236344  9120 layer_factory.hpp:77] Creating layer rpn_conv/3x3_2
I0417 23:35:04.236358  9120 net.cpp:100] Creating Layer rpn_conv/3x3_2
I0417 23:35:04.236362  9120 net.cpp:434] rpn_conv/3x3_2 <- rpn/output
I0417 23:35:04.236371  9120 net.cpp:408] rpn_conv/3x3_2 -> rpn/output_2
I0417 23:35:04.424413  9120 net.cpp:150] Setting up rpn_conv/3x3_2
I0417 23:35:04.424448  9120 net.cpp:157] Top shape: 1 512 96 2 2 (196608)
I0417 23:35:04.424451  9120 net.cpp:165] Memory required for data: 10170729660
I0417 23:35:04.424461  9120 layer_factory.hpp:77] Creating layer rpn_relu/3x3_2
I0417 23:35:04.424471  9120 net.cpp:100] Creating Layer rpn_relu/3x3_2
I0417 23:35:04.424476  9120 net.cpp:434] rpn_relu/3x3_2 <- rpn/output_2
I0417 23:35:04.424482  9120 net.cpp:395] rpn_relu/3x3_2 -> rpn/output_2 (in-place)
I0417 23:35:04.424918  9120 net.cpp:150] Setting up rpn_relu/3x3_2
I0417 23:35:04.424932  9120 net.cpp:157] Top shape: 1 512 96 2 2 (196608)
I0417 23:35:04.424934  9120 net.cpp:165] Memory required for data: 10171516092
I0417 23:35:04.424939  9120 layer_factory.hpp:77] Creating layer rpn/output_pool
I0417 23:35:04.424947  9120 net.cpp:100] Creating Layer rpn/output_pool
I0417 23:35:04.424950  9120 net.cpp:434] rpn/output_pool <- rpn/output_2
I0417 23:35:04.424957  9120 net.cpp:408] rpn/output_pool -> rpn/output_pool
I0417 23:35:04.425601  9120 net.cpp:150] Setting up rpn/output_pool
I0417 23:35:04.425611  9120 net.cpp:157] Top shape: 1 512 96 1 1 (49152)
I0417 23:35:04.425616  9120 net.cpp:165] Memory required for data: 10171712700
I0417 23:35:04.425619  9120 layer_factory.hpp:77] Creating layer rpn/output_pool_rpn/output_pool_0_split
I0417 23:35:04.425626  9120 net.cpp:100] Creating Layer rpn/output_pool_rpn/output_pool_0_split
I0417 23:35:04.425628  9120 net.cpp:434] rpn/output_pool_rpn/output_pool_0_split <- rpn/output_pool
I0417 23:35:04.425635  9120 net.cpp:408] rpn/output_pool_rpn/output_pool_0_split -> rpn/output_pool_rpn/output_pool_0_split_0
I0417 23:35:04.425640  9120 net.cpp:408] rpn/output_pool_rpn/output_pool_0_split -> rpn/output_pool_rpn/output_pool_0_split_1
I0417 23:35:04.425673  9120 net.cpp:150] Setting up rpn/output_pool_rpn/output_pool_0_split
I0417 23:35:04.425683  9120 net.cpp:157] Top shape: 1 512 96 1 1 (49152)
I0417 23:35:04.425686  9120 net.cpp:157] Top shape: 1 512 96 1 1 (49152)
I0417 23:35:04.425690  9120 net.cpp:165] Memory required for data: 10172105916
I0417 23:35:04.425693  9120 layer_factory.hpp:77] Creating layer rpn_cls_score
I0417 23:35:04.425704  9120 net.cpp:100] Creating Layer rpn_cls_score
I0417 23:35:04.425710  9120 net.cpp:434] rpn_cls_score <- rpn/output_pool_rpn/output_pool_0_split_0
I0417 23:35:04.425716  9120 net.cpp:408] rpn_cls_score -> rpn_cls_score
I0417 23:35:04.429186  9120 net.cpp:150] Setting up rpn_cls_score
I0417 23:35:04.429199  9120 net.cpp:157] Top shape: 1 74 96 1 1 (7104)
I0417 23:35:04.429203  9120 net.cpp:165] Memory required for data: 10172134332
I0417 23:35:04.429210  9120 layer_factory.hpp:77] Creating layer rpn_cls_score_rpn_cls_score_0_split
I0417 23:35:04.429216  9120 net.cpp:100] Creating Layer rpn_cls_score_rpn_cls_score_0_split
I0417 23:35:04.429220  9120 net.cpp:434] rpn_cls_score_rpn_cls_score_0_split <- rpn_cls_score
I0417 23:35:04.429226  9120 net.cpp:408] rpn_cls_score_rpn_cls_score_0_split -> rpn_cls_score_rpn_cls_score_0_split_0
I0417 23:35:04.429232  9120 net.cpp:408] rpn_cls_score_rpn_cls_score_0_split -> rpn_cls_score_rpn_cls_score_0_split_1
I0417 23:35:04.429275  9120 net.cpp:150] Setting up rpn_cls_score_rpn_cls_score_0_split
I0417 23:35:04.429282  9120 net.cpp:157] Top shape: 1 74 96 1 1 (7104)
I0417 23:35:04.429288  9120 net.cpp:157] Top shape: 1 74 96 1 1 (7104)
I0417 23:35:04.429291  9120 net.cpp:165] Memory required for data: 10172191164
I0417 23:35:04.429296  9120 layer_factory.hpp:77] Creating layer rpn_twin_pred
I0417 23:35:04.429308  9120 net.cpp:100] Creating Layer rpn_twin_pred
I0417 23:35:04.429314  9120 net.cpp:434] rpn_twin_pred <- rpn/output_pool_rpn/output_pool_0_split_1
I0417 23:35:04.429322  9120 net.cpp:408] rpn_twin_pred -> rpn_twin_pred
I0417 23:35:04.435313  9120 net.cpp:150] Setting up rpn_twin_pred
I0417 23:35:04.435328  9120 net.cpp:157] Top shape: 1 74 96 1 1 (7104)
I0417 23:35:04.435333  9120 net.cpp:165] Memory required for data: 10172219580
I0417 23:35:04.435338  9120 layer_factory.hpp:77] Creating layer rpn_twin_pred_rpn_twin_pred_0_split
I0417 23:35:04.435348  9120 net.cpp:100] Creating Layer rpn_twin_pred_rpn_twin_pred_0_split
I0417 23:35:04.435353  9120 net.cpp:434] rpn_twin_pred_rpn_twin_pred_0_split <- rpn_twin_pred
I0417 23:35:04.435359  9120 net.cpp:408] rpn_twin_pred_rpn_twin_pred_0_split -> rpn_twin_pred_rpn_twin_pred_0_split_0
I0417 23:35:04.435365  9120 net.cpp:408] rpn_twin_pred_rpn_twin_pred_0_split -> rpn_twin_pred_rpn_twin_pred_0_split_1
I0417 23:35:04.435401  9120 net.cpp:150] Setting up rpn_twin_pred_rpn_twin_pred_0_split
I0417 23:35:04.435410  9120 net.cpp:157] Top shape: 1 74 96 1 1 (7104)
I0417 23:35:04.435415  9120 net.cpp:157] Top shape: 1 74 96 1 1 (7104)
I0417 23:35:04.435418  9120 net.cpp:165] Memory required for data: 10172276412
I0417 23:35:04.435422  9120 layer_factory.hpp:77] Creating layer rpn_cls_score_reshape
I0417 23:35:04.435434  9120 net.cpp:100] Creating Layer rpn_cls_score_reshape
I0417 23:35:04.435439  9120 net.cpp:434] rpn_cls_score_reshape <- rpn_cls_score_rpn_cls_score_0_split_0
I0417 23:35:04.435446  9120 net.cpp:408] rpn_cls_score_reshape -> rpn_cls_score_reshape
I0417 23:35:04.435477  9120 net.cpp:150] Setting up rpn_cls_score_reshape
I0417 23:35:04.435482  9120 net.cpp:157] Top shape: 1 2 3552 1 1 (7104)
I0417 23:35:04.435487  9120 net.cpp:165] Memory required for data: 10172304828
I0417 23:35:04.435492  9120 layer_factory.hpp:77] Creating layer rpn_cls_score_reshape_rpn_cls_score_reshape_0_split
I0417 23:35:04.435497  9120 net.cpp:100] Creating Layer rpn_cls_score_reshape_rpn_cls_score_reshape_0_split
I0417 23:35:04.435501  9120 net.cpp:434] rpn_cls_score_reshape_rpn_cls_score_reshape_0_split <- rpn_cls_score_reshape
I0417 23:35:04.435508  9120 net.cpp:408] rpn_cls_score_reshape_rpn_cls_score_reshape_0_split -> rpn_cls_score_reshape_rpn_cls_score_reshape_0_split_0
I0417 23:35:04.435518  9120 net.cpp:408] rpn_cls_score_reshape_rpn_cls_score_reshape_0_split -> rpn_cls_score_reshape_rpn_cls_score_reshape_0_split_1
I0417 23:35:04.435524  9120 net.cpp:408] rpn_cls_score_reshape_rpn_cls_score_reshape_0_split -> rpn_cls_score_reshape_rpn_cls_score_reshape_0_split_2
I0417 23:35:04.435565  9120 net.cpp:150] Setting up rpn_cls_score_reshape_rpn_cls_score_reshape_0_split
I0417 23:35:04.435575  9120 net.cpp:157] Top shape: 1 2 3552 1 1 (7104)
I0417 23:35:04.435580  9120 net.cpp:157] Top shape: 1 2 3552 1 1 (7104)
I0417 23:35:04.435583  9120 net.cpp:157] Top shape: 1 2 3552 1 1 (7104)
I0417 23:35:04.435587  9120 net.cpp:165] Memory required for data: 10172390076
I0417 23:35:04.435591  9120 layer_factory.hpp:77] Creating layer rpn-data
I0417 23:35:04.435982  9120 net.cpp:100] Creating Layer rpn-data
I0417 23:35:04.435995  9120 net.cpp:434] rpn-data <- rpn_cls_score_rpn_cls_score_0_split_1
I0417 23:35:04.436002  9120 net.cpp:434] rpn-data <- gt_boxes_data_1_split_0
…
