…
stepsize: 350000
snapshot: 0
snapshot_prefix: "./experiments/activitynet/snapshot/activitynet"
average_loss: 100
iter_size: 1
I0417 21:54:11.646610 24841 solver.cpp:81] Creating training net from train_net file: ./experiments/activitynet/train.prototxt
I0417 21:54:11.647716 24841 net.cpp:58] Initializing net from parameters: 
name: "activitynet"
state {
  phase: TRAIN
}
layer {
  name: "data"
  type: "Python"
  top: "data"
  top: "gt_boxes"
  python_param {
    module: "roi_data_layer.layer"
    layer: "RoIDataLayer"
    param_str: "\'num_classes\': 100"
  }
}
layer {
  name: "conv1a"
  type: "Convolution"
  bottom: "data"
  top: "conv1a"
  param {
    lr_mult: 0
    decay_mult: 0
  }
  param {
    lr_mult: 0
    decay_mult: 0
  }
  convolution_param {
    num_output: 64
    pad: 1
    pad: 1
    pad: 1
    kernel_size: 3
    kernel_size: 3
    kernel_size: 3
    weight_filler {
      type: "gaussian"
      std: 0.01
    }
    bias_filler {
      type: "constant"
      value: 0
    }
  }
}
layer {
  name: "relu1a"
  type: "ReLU"
  bottom: "conv1a"
  top: "conv1a"
}
layer {
  name: "pool1"
  type: "Pooling"
  bottom: "conv1a"
  top: "pool1"
  pooling_param {
    pool: MAX
    kernel_size: 1
    kernel_size: 2
    kernel_size: 2
    stride: 1
    stride: 2
    stride: 2
  }
}
layer {
  name: "conv2a"
  type: "Convolution"
  bottom: "pool1"
  top: "conv2a"
  param {
    lr_mult: 0
    decay_mult: 0
  }
  param {
    lr_mult: 0
    decay_mult: 0
  }
  convolution_param {
    num_output: 128
    pad: 1
    pad: 1
    pad: 1
    kernel_size: 3
    kernel_size: 3
    kernel_size: 3
    weight_filler {
      type: "gaussian"
      std: 0.01
    }
    bias_filler {
      type: "constant"
      value: 1
    }
  }
}
layer {
  name: "relu2a"
  type: "ReLU"
  bottom: "conv2a"
  top: "conv2a"
}
layer {
  name: "pool2"
  type: "Pooling"
  bottom: "conv2a"
  top: "pool2"
  pooling_param {
    pool: MAX
    kernel_size: 2
    kernel_size: 2
    kernel_size: 2
    stride: 2
    stride: 2
    stride: 2
  }
}
layer {
  name: "conv3a"
  type: "Convolution"
  bottom: "pool2"
  top: "conv3a"
  param {
    lr_mult: 1
    decay_mult: 1
  }
  param {
    lr_mult: 2
    decay_mult: 0
  }
  convolution_param {
    num_output: 256
    pad: 1
    pad: 1
    pad: 1
    kernel_size: 3
    kernel_size: 3
    kernel_size: 3
    weight_filler {
      type: "gaussian"
      std: 0.01
    }
    bias_filler {
      type: "constant"
      value: 1
    }
  }
}
layer {
  name: "relu3a"
  type: "ReLU"
  bottom: "conv3a"
  top: "conv3a"
}
layer {
  name: "conv3b"
  type: "Convolution"
  bottom: "conv3a"
  top: "conv3b"
  param {
    lr_mult: 1
    decay_mult: 1
  }
  param {
    lr_mult: 2
    decay_mult: 0
  }
  convolution_param {
    num_output: 256
    pad: 1
    pad: 1
    pad: 1
    kernel_size: 3
    kernel_size: 3
    kernel_size: 3
    weight_filler {
      type: "gaussian"
      std: 0.01
    }
    bias_filler {
      type: "constant"
      value: 1
    }
  }
}
layer {
  name: "relu3b"
  type: "ReLU"
  bottom: "conv3b"
  top: "conv3b"
}
layer {
  name: "pool3"
  type: "Pooling"
  bottom: "conv3b"
  top: "pool3"
  pooling_param {
    pool: MAX
    kernel_size: 2
    kernel_size: 2
    kernel_size: 2
    stride: 2
    stride: 2
    stride: 2
  }
}
layer {
  name: "conv4a"
  type: "Convolution"
  bottom: "pool3"
  top: "conv4a"
  param {
    lr_mult: 1
    decay_mult: 1
  }
  param {
    lr_mult: 2
    decay_mult: 0
  }
  convolution_param {
    num_output: 512
    pad: 1
    pad: 1
    pad: 1
    kernel_size: 3
    kernel_size: 3
    kernel_size: 3
    weight_filler {
      type: "gaussian"
      std: 0.01
    }
    bias_filler {
      type: "constant"
      value: 1
    }
  }
}
layer {
  name: "relu4a"
  type: "ReLU"
  bottom: "conv4a"
  top: "conv4a"
}
layer {
  name: "conv4b"
  type: "Convolution"
  bottom: "conv4a"
  top: "conv4b"
  param {
    lr_mult: 1
    decay_mult: 1
  }
  param {
    lr_mult: 2
    decay_mult: 0
  }
  convolution_param {
    num_output: 512
    pad: 1
    pad: 1
    pad: 1
    kernel_size: 3
    kernel_size: 3
    kernel_size: 3
    weight_filler {
      type: "gaussian"
      std: 0.01
    }
    bias_filler {
      type: "constant"
      value: 1
    }
  }
}
layer {
  name: "relu4b"
  type: "ReLU"
  bottom: "conv4b"
  top: "conv4b"
}
layer {
  name: "pool4"
  type: "Pooling"
  bottom: "conv4b"
  top: "pool4"
  pooling_param {
    pool: MAX
    kernel_size: 2
    kernel_size: 2
    kernel_size: 2
    stride: 2
    stride: 2
    stride: 2
  }
}
layer {
  name: "conv5a"
  type: "Convolution"
  bottom: "pool4"
  top: "conv5a"
  param {
    lr_mult: 1
    decay_mult: 1
  }
  param {
    lr_mult: 2
    decay_mult: 0
  }
  convolution_param {
    num_output: 512
    pad: 1
    pad: 1
    pad: 1
    kernel_size: 3
    kernel_size: 3
    kernel_size: 3
    weight_filler {
      type: "gaussian"
      std: 0.01
    }
    bias_filler {
      type: "constant"
      value: 1
    }
  }
}
layer {
  name: "relu5a"
  type: "ReLU"
  bottom: "conv5a"
  top: "conv5a"
}
layer {
  name: "conv5b"
  type: "Convolution"
  bottom: "conv5a"
  top: "conv5b"
  param {
    lr_mult: 1
    decay_mult: 1
  }
  param {
    lr_mult: 2
    decay_mult: 0
  }
  convolution_param {
    num_output: 512
    pad: 1
    pad: 1
    pad: 1
    kernel_size: 3
    kernel_size: 3
    kernel_size: 3
    weight_filler {
      type: "gaussian"
      std: 0.01
    }
    bias_filler {
      type: "constant"
      value: 1
    }
  }
}
layer {
  name: "relu5b"
  type: "ReLU"
  bottom: "conv5b"
  top: "conv5b"
}
layer {
  name: "rpn_conv/3x3"
  type: "Convolution"
  bottom: "conv5b"
  top: "rpn/output"
  param {
    lr_mult: 1
    decay_mult: 1
  }
  param {
    lr_mult: 2
    decay_mult: 0
  }
  convolution_param {
    num_output: 512
    pad: 1
    pad: 1
    pad: 1
    kernel_size: 3
    kernel_size: 3
    kernel_size: 3
    stride: 1
    stride: 2
    stride: 2
    weight_filler {
      type: "gaussian"
      std: 0.01
    }
    bias_filler {
      type: "constant"
      value: 0
    }
  }
}
layer {
  name: "rpn_relu/3x3"
  type: "ReLU"
  bottom: "rpn/output"
  top: "rpn/output"
}
layer {
  name: "rpn_conv/3x3_2"
  type: "Convolution"
  bottom: "rpn/output"
  top: "rpn/output_2"
  param {
    lr_mult: 1
    decay_mult: 1
  }
  param {
    lr_mult: 2
    decay_mult: 0
  }
  convolution_param {
    num_output: 512
    pad: 1
    pad: 1
    pad: 1
    kernel_size: 3
    kernel_size: 3
    kernel_size: 3
    stride: 1
    stride: 2
    stride: 2
    weight_filler {
      type: "gaussian"
      std: 0.01
    }
    bias_filler {
      type: "constant"
      value: 0
    }
  }
}
layer {
  name: "rpn_relu/3x3_2"
  type: "ReLU"
  bottom: "rpn/output_2"
  top: "rpn/output_2"
}
layer {
  name: "rpn/output_pool"
  type: "Pooling"
  bottom: "rpn/output_2"
  top: "rpn/output_pool"
  pooling_param {
    pool: MAX
    kernel_size: 1
    kernel_size: 2
    kernel_size: 2
  }
}
layer {
  name: "rpn_cls_score"
  type: "Convolution"
  bottom: "rpn/output_pool"
  top: "rpn_cls_score"
  param {
    lr_mult: 1
    decay_mult: 1
  }
  param {
    lr_mult: 2
    decay_mult: 0
  }
  convolution_param {
    num_output: 74
    kernel_size: 1
    kernel_size: 1
    kernel_size: 1
    weight_filler {
      type: "gaussian"
      std: 0.01
    }
    bias_filler {
      type: "constant"
      value: 0
    }
  }
}
layer {
  name: "rpn_twin_pred"
  type: "Convolution"
  bottom: "rpn/output_pool"
  top: "rpn_twin_pred"
  param {
    lr_mult: 1
    decay_mult: 1
  }
  param {
    lr_mult: 2
    decay_mult: 0
  }
  convolution_param {
    num_output: 74
    kernel_size: 1
    kernel_size: 1
    kernel_size: 1
    weight_filler {
      type: "gaussian"
      std: 0.01
    }
    bias_filler {
      type: "constant"
      value: 0
    }
  }
}
layer {
  name: "rpn_cls_score_reshape"
  type: "Reshape"
  bottom: "rpn_cls_score"
  top: "rpn_cls_score_reshape"
  reshape_param {
    shape {
      dim: 0
      dim: 2
      dim: -1
      dim: 0
      dim: 0
    }
  }
}
layer {
  name: "rpn-data"
  type: "Python"
  bottom: "rpn_cls_score"
  bottom: "gt_boxes"
  bottom: "data"
  top: "rpn_labels"
  top: "rpn_twin_targets"
  top: "rpn_twin_inside_weights"
  top: "rpn_twin_outside_weights"
  python_param {
    module: "rpn.anchor_target_layer"
    layer: "AnchorTargetLayer"
    param_str: "\'feat_stride\': 8 \n\'scales\': !!python/tuple [1,1.25, 1.5,1.75, 2,2.5, 3,3.5, 4,4.5, 5,5.5, 6,7, 8,9,10,11,12,14,16,18,20,22,24,28,32,36,40,44,52,60,68,76,84,92,100]"
  }
}
layer {
  name: "rpn_loss_cls"
  type: "SoftmaxWithLoss"
  bottom: "rpn_cls_score_reshape"
  bottom: "rpn_labels"
  top: "rpn_cls_loss"
  loss_weight: 1
  propagate_down: true
  propagate_down: false
  loss_param {
    ignore_label: -1
    normalize: true
  }
}
layer {
  name: "rpn_loss_twin"
  type: "SmoothL1Loss"
  bottom: "rpn_twin_pred"
  bottom: "rpn_twin_targets"
  bottom: "rpn_twin_inside_weights"
  bottom: "rpn_twin_outside_weights"
  top: "rpn_loss_twin"
  loss_weight: 1
  smooth_l1_loss_param {
    sigma: 3
  }
}
layer {
  name: "rpn_accuarcy"
  type: "Accuracy"
  bottom: "rpn_cls_score_reshape"
  bottom: "rpn_labels"
  top: "rpn_accuarcy"
  top: "rpn_accuarcy_class"
  propagate_down: false
  propagate_down: false
  accuracy_param {
    ignore_label: -1
  }
}
layer {
  name: "rpn_cls_prob"
  type: "Softmax"
  bottom: "rpn_cls_score_reshape"
  top: "rpn_cls_prob"
}
layer {
  name: "rpn_cls_prob_reshape"
  type: "Reshape"
  bottom: "rpn_cls_prob"
  top: "rpn_cls_prob_reshape"
  reshape_param {
    shape {
      dim: 0
      dim: 74
      dim: -1
      dim: 0
      dim: 0
    }
  }
}
layer {
  name: "proposal"
  type: "Python"
  bottom: "rpn_cls_prob_reshape"
  bottom: "rpn_twin_pred"
  top: "rpn_rois"
  include {
    phase: TRAIN
  }
  python_param {
    module: "rpn.proposal_layer"
    layer: "ProposalLayer"
    param_str: "\'feat_stride\': 8 \n\'scales\': !!python/tuple [1,1.25, 1.5,1.75, 2,2.5, 3,3.5, 4,4.5, 5,5.5, 6,7, 8,9,10,11,12,14,16,18,20,22,24,28,32,36,40,44,52,60,68,76,84,92,100]"
  }
}
layer {
  name: "roi-data"
  type: "Python"
  bottom: "rpn_rois"
  bottom: "gt_boxes"
  top: "rois"
  top: "labels"
  top: "twin_targets"
  top: "twin_inside_weights"
  top: "twin_outside_weights"
  python_param {
    module: "rpn.proposal_target_layer"
    layer: "ProposalTargetLayer"
    param_str: "\'num_classes\': 201"
  }
}
layer {
  name: "roi_pool5"
  type: "ROIPooling"
  bottom: "conv5b"
  bottom: "rois"
  top: "pool5"
  roi_pooling_param {
    pooled_h: 4
    pooled_w: 4
    spatial_scale: 0.0625
    pooled_l: 1
    temporal_scale: 0.125
  }
}
layer {
  name: "fc6"
  type: "InnerProduct"
  bottom: "pool5"
  top: "fc6"
  param {
    lr_mult: 1
    decay_mult: 1
  }
  param {
    lr_mult: 2
    decay_mult: 0
  }
  inner_product_param {
    num_output: 4096
    weight_filler {
      type: "gaussian"
      std: 0.005
    }
    bias_filler {
      type: "constant"
      value: 1
    }
  }
}
layer {
  name: "relu6"
  type: "ReLU"
  bottom: "fc6"
  top: "fc6"
}
layer {
  name: "drop6"
  type: "Dropout"
  bottom: "fc6"
  top: "fc6"
  dropout_param {
    dropout_ratio: 0.5
  }
}
layer {
  name: "cls_score"
  type: "InnerProduct"
  bottom: "fc6"
  top: "cls_score"
  param {
    lr_mult: 1
    decay_mult: 1
  }
  param {
    lr_mult: 2
    decay_mult: 0
  }
  inner_product_param {
    num_output: 201
    weight_filler {
      type: "gaussian"
      std: 0.01
    }
    bias_filler {
      type: "constant"
      value: 0
    }
  }
}
layer {
  name: "twin_pred"
  type: "InnerProduct"
  bottom: "fc6"
  top: "twin_pred"
  param {
    lr_mult: 1
    decay_mult: 1
  }
  param {
    lr_mult: 2
    decay_mult: 0
  }
  inner_product_param {
    num_output: 402
    weight_filler {
      type: "gaussian"
      std: 0.001
    }
    bias_filler {
      type: "constant"
      value: 0
    }
  }
}
layer {
  name: "loss_cls"
  type: "SoftmaxWithLoss"
  bottom: "cls_score"
  bottom: "labels"
  top: "loss_cls"
  loss_weight: 1
  propagate_down: true
  propagate_down: false
}
layer {
  name: "loss_twin"
  type: "SmoothL1Loss"
  bottom: "twin_pred"
  bottom: "twin_targets"
  bottom: "twin_inside_weights"
  bottom: "twin_outside_weights"
  top: "loss_twin"
  loss_weight: 1
}
layer {
  name: "accuarcy"
  type: "Accuracy"
  bottom: "cls_score"
  bottom: "labels"
  top: "accuarcy"
  propagate_down: false
  propagate_down: false
  accuracy_param {
    ignore_label: -1
  }
}
I0417 21:54:11.647933 24841 layer_factory.hpp:77] Creating layer data
I0417 21:54:11.686445 24841 net.cpp:100] Creating Layer data
I0417 21:54:11.686475 24841 net.cpp:408] data -> data
I0417 21:54:11.686496 24841 net.cpp:408] data -> gt_boxes
setting up
has rpn
RoiDataLayer: name_to_top: {'gt_windows': 1, 'data': 0}
I0417 21:54:11.700392 24841 net.cpp:150] Setting up data
I0417 21:54:11.700419 24841 net.cpp:157] Top shape: 1 3 768 112 112 (28901376)
I0417 21:54:11.700428 24841 net.cpp:157] Top shape: 1 101 (101)
I0417 21:54:11.700438 24841 net.cpp:165] Memory required for data: 115605908
I0417 21:54:11.700448 24841 layer_factory.hpp:77] Creating layer data_data_0_split
I0417 21:54:11.700465 24841 net.cpp:100] Creating Layer data_data_0_split
I0417 21:54:11.700474 24841 net.cpp:434] data_data_0_split <- data
I0417 21:54:11.700484 24841 net.cpp:408] data_data_0_split -> data_data_0_split_0
I0417 21:54:11.700500 24841 net.cpp:408] data_data_0_split -> data_data_0_split_1
I0417 21:54:11.700542 24841 net.cpp:150] Setting up data_data_0_split
I0417 21:54:11.700556 24841 net.cpp:157] Top shape: 1 3 768 112 112 (28901376)
I0417 21:54:11.700563 24841 net.cpp:157] Top shape: 1 3 768 112 112 (28901376)
I0417 21:54:11.700568 24841 net.cpp:165] Memory required for data: 346816916
I0417 21:54:11.700574 24841 layer_factory.hpp:77] Creating layer gt_boxes_data_1_split
I0417 21:54:11.700582 24841 net.cpp:100] Creating Layer gt_boxes_data_1_split
I0417 21:54:11.700588 24841 net.cpp:434] gt_boxes_data_1_split <- gt_boxes
I0417 21:54:11.700597 24841 net.cpp:408] gt_boxes_data_1_split -> gt_boxes_data_1_split_0
I0417 21:54:11.700606 24841 net.cpp:408] gt_boxes_data_1_split -> gt_boxes_data_1_split_1
I0417 21:54:11.700644 24841 net.cpp:150] Setting up gt_boxes_data_1_split
I0417 21:54:11.700654 24841 net.cpp:157] Top shape: 1 101 (101)
I0417 21:54:11.700660 24841 net.cpp:157] Top shape: 1 101 (101)
I0417 21:54:11.700665 24841 net.cpp:165] Memory required for data: 346817724
I0417 21:54:11.700670 24841 layer_factory.hpp:77] Creating layer conv1a
I0417 21:54:11.700693 24841 net.cpp:100] Creating Layer conv1a
I0417 21:54:11.700701 24841 net.cpp:434] conv1a <- data_data_0_split_0
I0417 21:54:11.700712 24841 net.cpp:408] conv1a -> conv1a
I0417 21:54:14.194975 24841 net.cpp:150] Setting up conv1a
I0417 21:54:14.195005 24841 net.cpp:157] Top shape: 1 64 768 112 112 (616562688)
I0417 21:54:14.195011 24841 net.cpp:165] Memory required for data: 2813068476
I0417 21:54:14.195036 24841 layer_factory.hpp:77] Creating layer relu1a
I0417 21:54:14.195055 24841 net.cpp:100] Creating Layer relu1a
I0417 21:54:14.195065 24841 net.cpp:434] relu1a <- conv1a
I0417 21:54:14.195075 24841 net.cpp:395] relu1a -> conv1a (in-place)
I0417 21:54:14.195494 24841 net.cpp:150] Setting up relu1a
I0417 21:54:14.195508 24841 net.cpp:157] Top shape: 1 64 768 112 112 (616562688)
I0417 21:54:14.195513 24841 net.cpp:165] Memory required for data: 5279319228
I0417 21:54:14.195519 24841 layer_factory.hpp:77] Creating layer pool1
I0417 21:54:14.195531 24841 net.cpp:100] Creating Layer pool1
I0417 21:54:14.195538 24841 net.cpp:434] pool1 <- conv1a
I0417 21:54:14.195546 24841 net.cpp:408] pool1 -> pool1
I0417 21:54:14.195725 24841 net.cpp:150] Setting up pool1
I0417 21:54:14.195739 24841 net.cpp:157] Top shape: 1 64 768 56 56 (154140672)
I0417 21:54:14.195744 24841 net.cpp:165] Memory required for data: 5895881916
I0417 21:54:14.195749 24841 layer_factory.hpp:77] Creating layer conv2a
I0417 21:54:14.195763 24841 net.cpp:100] Creating Layer conv2a
I0417 21:54:14.195770 24841 net.cpp:434] conv2a <- pool1
I0417 21:54:14.195780 24841 net.cpp:408] conv2a -> conv2a
I0417 21:54:14.206661 24841 net.cpp:150] Setting up conv2a
I0417 21:54:14.206686 24841 net.cpp:157] Top shape: 1 128 768 56 56 (308281344)
I0417 21:54:14.206693 24841 net.cpp:165] Memory required for data: 7129007292
I0417 21:54:14.206710 24841 layer_factory.hpp:77] Creating layer relu2a
I0417 21:54:14.206724 24841 net.cpp:100] Creating Layer relu2a
I0417 21:54:14.206732 24841 net.cpp:434] relu2a <- conv2a
I0417 21:54:14.206740 24841 net.cpp:395] relu2a -> conv2a (in-place)
I0417 21:54:14.207103 24841 net.cpp:150] Setting up relu2a
I0417 21:54:14.207116 24841 net.cpp:157] Top shape: 1 128 768 56 56 (308281344)
I0417 21:54:14.207123 24841 net.cpp:165] Memory required for data: 8362132668
I0417 21:54:14.207129 24841 layer_factory.hpp:77] Creating layer pool2
I0417 21:54:14.207142 24841 net.cpp:100] Creating Layer pool2
I0417 21:54:14.207149 24841 net.cpp:434] pool2 <- conv2a
I0417 21:54:14.207157 24841 net.cpp:408] pool2 -> pool2
I0417 21:54:14.207327 24841 net.cpp:150] Setting up pool2
I0417 21:54:14.207340 24841 net.cpp:157] Top shape: 1 128 384 28 28 (38535168)
I0417 21:54:14.207345 24841 net.cpp:165] Memory required for data: 8516273340
I0417 21:54:14.207350 24841 layer_factory.hpp:77] Creating layer conv3a
I0417 21:54:14.207365 24841 net.cpp:100] Creating Layer conv3a
I0417 21:54:14.207371 24841 net.cpp:434] conv3a <- pool2
I0417 21:54:14.207381 24841 net.cpp:408] conv3a -> conv3a
I0417 21:54:14.235162 24841 net.cpp:150] Setting up conv3a
I0417 21:54:14.235209 24841 net.cpp:157] Top shape: 1 256 384 28 28 (77070336)
I0417 21:54:14.235219 24841 net.cpp:165] Memory required for data: 8824554684
I0417 21:54:14.235244 24841 layer_factory.hpp:77] Creating layer relu3a
I0417 21:54:14.235262 24841 net.cpp:100] Creating Layer relu3a
I0417 21:54:14.235275 24841 net.cpp:434] relu3a <- conv3a
I0417 21:54:14.235289 24841 net.cpp:395] relu3a -> conv3a (in-place)
I0417 21:54:14.236006 24841 net.cpp:150] Setting up relu3a
I0417 21:54:14.236035 24841 net.cpp:157] Top shape: 1 256 384 28 28 (77070336)
I0417 21:54:14.236045 24841 net.cpp:165] Memory required for data: 9132836028
I0417 21:54:14.236054 24841 layer_factory.hpp:77] Creating layer conv3b
I0417 21:54:14.236104 24841 net.cpp:100] Creating Layer conv3b
I0417 21:54:14.236119 24841 net.cpp:434] conv3b <- conv3a
I0417 21:54:14.236135 24841 net.cpp:408] conv3b -> conv3b
I0417 21:54:14.294709 24841 net.cpp:150] Setting up conv3b
I0417 21:54:14.294730 24841 net.cpp:157] Top shape: 1 256 384 28 28 (77070336)
I0417 21:54:14.294734 24841 net.cpp:165] Memory required for data: 9441117372
I0417 21:54:14.294742 24841 layer_factory.hpp:77] Creating layer relu3b
I0417 21:54:14.294752 24841 net.cpp:100] Creating Layer relu3b
I0417 21:54:14.294756 24841 net.cpp:434] relu3b <- conv3b
I0417 21:54:14.294777 24841 net.cpp:395] relu3b -> conv3b (in-place)
I0417 21:54:14.295085 24841 net.cpp:150] Setting up relu3b
I0417 21:54:14.295099 24841 net.cpp:157] Top shape: 1 256 384 28 28 (77070336)
I0417 21:54:14.295101 24841 net.cpp:165] Memory required for data: 9749398716
I0417 21:54:14.295105 24841 layer_factory.hpp:77] Creating layer pool3
I0417 21:54:14.295114 24841 net.cpp:100] Creating Layer pool3
I0417 21:54:14.295119 24841 net.cpp:434] pool3 <- conv3b
I0417 21:54:14.295123 24841 net.cpp:408] pool3 -> pool3
I0417 21:54:14.295306 24841 net.cpp:150] Setting up pool3
I0417 21:54:14.295317 24841 net.cpp:157] Top shape: 1 256 192 14 14 (9633792)
I0417 21:54:14.295320 24841 net.cpp:165] Memory required for data: 9787933884
I0417 21:54:14.295325 24841 layer_factory.hpp:77] Creating layer conv4a
I0417 21:54:14.295336 24841 net.cpp:100] Creating Layer conv4a
I0417 21:54:14.295339 24841 net.cpp:434] conv4a <- pool3
I0417 21:54:14.295344 24841 net.cpp:408] conv4a -> conv4a
I0417 21:54:14.392418 24841 net.cpp:150] Setting up conv4a
I0417 21:54:14.392442 24841 net.cpp:157] Top shape: 1 512 192 14 14 (19267584)
I0417 21:54:14.392446 24841 net.cpp:165] Memory required for data: 9865004220
I0417 21:54:14.392459 24841 layer_factory.hpp:77] Creating layer relu4a
I0417 21:54:14.392470 24841 net.cpp:100] Creating Layer relu4a
I0417 21:54:14.392474 24841 net.cpp:434] relu4a <- conv4a
I0417 21:54:14.392480 24841 net.cpp:395] relu4a -> conv4a (in-place)
I0417 21:54:14.392787 24841 net.cpp:150] Setting up relu4a
I0417 21:54:14.392801 24841 net.cpp:157] Top shape: 1 512 192 14 14 (19267584)
I0417 21:54:14.392803 24841 net.cpp:165] Memory required for data: 9942074556
I0417 21:54:14.392807 24841 layer_factory.hpp:77] Creating layer conv4b
I0417 21:54:14.392822 24841 net.cpp:100] Creating Layer conv4b
I0417 21:54:14.392827 24841 net.cpp:434] conv4b <- conv4a
I0417 21:54:14.392832 24841 net.cpp:408] conv4b -> conv4b
I0417 21:54:14.585000 24841 net.cpp:150] Setting up conv4b
I0417 21:54:14.585026 24841 net.cpp:157] Top shape: 1 512 192 14 14 (19267584)
I0417 21:54:14.585031 24841 net.cpp:165] Memory required for data: 10019144892
I0417 21:54:14.585038 24841 layer_factory.hpp:77] Creating layer relu4b
I0417 21:54:14.585047 24841 net.cpp:100] Creating Layer relu4b
I0417 21:54:14.585052 24841 net.cpp:434] relu4b <- conv4b
I0417 21:54:14.585059 24841 net.cpp:395] relu4b -> conv4b (in-place)
I0417 21:54:14.585219 24841 net.cpp:150] Setting up relu4b
I0417 21:54:14.585230 24841 net.cpp:157] Top shape: 1 512 192 14 14 (19267584)
I0417 21:54:14.585234 24841 net.cpp:165] Memory required for data: 10096215228
I0417 21:54:14.585237 24841 layer_factory.hpp:77] Creating layer pool4
I0417 21:54:14.585248 24841 net.cpp:100] Creating Layer pool4
I0417 21:54:14.585253 24841 net.cpp:434] pool4 <- conv4b
I0417 21:54:14.585258 24841 net.cpp:408] pool4 -> pool4
I0417 21:54:14.585592 24841 net.cpp:150] Setting up pool4
I0417 21:54:14.585605 24841 net.cpp:157] Top shape: 1 512 96 7 7 (2408448)
I0417 21:54:14.585609 24841 net.cpp:165] Memory required for data: 10105849020
I0417 21:54:14.585613 24841 layer_factory.hpp:77] Creating layer conv5a
I0417 21:54:14.585623 24841 net.cpp:100] Creating Layer conv5a
I0417 21:54:14.585628 24841 net.cpp:434] conv5a <- pool4
I0417 21:54:14.585635 24841 net.cpp:408] conv5a -> conv5a
I0417 21:54:14.775197 24841 net.cpp:150] Setting up conv5a
I0417 21:54:14.775223 24841 net.cpp:157] Top shape: 1 512 96 7 7 (2408448)
I0417 21:54:14.775226 24841 net.cpp:165] Memory required for data: 10115482812
I0417 21:54:14.775235 24841 layer_factory.hpp:77] Creating layer relu5a
I0417 21:54:14.775246 24841 net.cpp:100] Creating Layer relu5a
I0417 21:54:14.775251 24841 net.cpp:434] relu5a <- conv5a
I0417 21:54:14.775257 24841 net.cpp:395] relu5a -> conv5a (in-place)
I0417 21:54:14.777895 24841 net.cpp:150] Setting up relu5a
I0417 21:54:14.777926 24841 net.cpp:157] Top shape: 1 512 96 7 7 (2408448)
I0417 21:54:14.777937 24841 net.cpp:165] Memory required for data: 10125116604
I0417 21:54:14.777951 24841 layer_factory.hpp:77] Creating layer conv5b
I0417 21:54:14.777974 24841 net.cpp:100] Creating Layer conv5b
I0417 21:54:14.777989 24841 net.cpp:434] conv5b <- conv5a
I0417 21:54:14.778007 24841 net.cpp:408] conv5b -> conv5b
I0417 21:54:14.965997 24841 net.cpp:150] Setting up conv5b
I0417 21:54:14.966024 24841 net.cpp:157] Top shape: 1 512 96 7 7 (2408448)
I0417 21:54:14.966028 24841 net.cpp:165] Memory required for data: 10134750396
I0417 21:54:14.966037 24841 layer_factory.hpp:77] Creating layer relu5b
I0417 21:54:14.966047 24841 net.cpp:100] Creating Layer relu5b
I0417 21:54:14.966050 24841 net.cpp:434] relu5b <- conv5b
I0417 21:54:14.966058 24841 net.cpp:395] relu5b -> conv5b (in-place)
I0417 21:54:14.966207 24841 net.cpp:150] Setting up relu5b
I0417 21:54:14.966218 24841 net.cpp:157] Top shape: 1 512 96 7 7 (2408448)
I0417 21:54:14.966223 24841 net.cpp:165] Memory required for data: 10144384188
I0417 21:54:14.966225 24841 layer_factory.hpp:77] Creating layer conv5b_relu5b_0_split
I0417 21:54:14.966230 24841 net.cpp:100] Creating Layer conv5b_relu5b_0_split
I0417 21:54:14.966234 24841 net.cpp:434] conv5b_relu5b_0_split <- conv5b
I0417 21:54:14.966243 24841 net.cpp:408] conv5b_relu5b_0_split -> conv5b_relu5b_0_split_0
I0417 21:54:14.966248 24841 net.cpp:408] conv5b_relu5b_0_split -> conv5b_relu5b_0_split_1
I0417 21:54:14.966286 24841 net.cpp:150] Setting up conv5b_relu5b_0_split
I0417 21:54:14.966295 24841 net.cpp:157] Top shape: 1 512 96 7 7 (2408448)
I0417 21:54:14.966300 24841 net.cpp:157] Top shape: 1 512 96 7 7 (2408448)
I0417 21:54:14.966302 24841 net.cpp:165] Memory required for data: 10163651772
I0417 21:54:14.966306 24841 layer_factory.hpp:77] Creating layer rpn_conv/3x3
I0417 21:54:14.966316 24841 net.cpp:100] Creating Layer rpn_conv/3x3
I0417 21:54:14.966325 24841 net.cpp:434] rpn_conv/3x3 <- conv5b_relu5b_0_split_0
I0417 21:54:14.966332 24841 net.cpp:408] rpn_conv/3x3 -> rpn/output
I0417 21:54:15.151739 24841 net.cpp:150] Setting up rpn_conv/3x3
I0417 21:54:15.151763 24841 net.cpp:157] Top shape: 1 512 96 4 4 (786432)
I0417 21:54:15.151767 24841 net.cpp:165] Memory required for data: 10166797500
I0417 21:54:15.151780 24841 layer_factory.hpp:77] Creating layer rpn_relu/3x3
I0417 21:54:15.151789 24841 net.cpp:100] Creating Layer rpn_relu/3x3
I0417 21:54:15.151793 24841 net.cpp:434] rpn_relu/3x3 <- rpn/output
I0417 21:54:15.151800 24841 net.cpp:395] rpn_relu/3x3 -> rpn/output (in-place)
I0417 21:54:15.152103 24841 net.cpp:150] Setting up rpn_relu/3x3
I0417 21:54:15.152115 24841 net.cpp:157] Top shape: 1 512 96 4 4 (786432)
I0417 21:54:15.152119 24841 net.cpp:165] Memory required for data: 10169943228
I0417 21:54:15.152123 24841 layer_factory.hpp:77] Creating layer rpn_conv/3x3_2
I0417 21:54:15.152134 24841 net.cpp:100] Creating Layer rpn_conv/3x3_2
I0417 21:54:15.152138 24841 net.cpp:434] rpn_conv/3x3_2 <- rpn/output
I0417 21:54:15.152145 24841 net.cpp:408] rpn_conv/3x3_2 -> rpn/output_2
I0417 21:54:15.336298 24841 net.cpp:150] Setting up rpn_conv/3x3_2
I0417 21:54:15.336320 24841 net.cpp:157] Top shape: 1 512 96 2 2 (196608)
I0417 21:54:15.336324 24841 net.cpp:165] Memory required for data: 10170729660
I0417 21:54:15.336333 24841 layer_factory.hpp:77] Creating layer rpn_relu/3x3_2
I0417 21:54:15.336343 24841 net.cpp:100] Creating Layer rpn_relu/3x3_2
I0417 21:54:15.336346 24841 net.cpp:434] rpn_relu/3x3_2 <- rpn/output_2
I0417 21:54:15.336354 24841 net.cpp:395] rpn_relu/3x3_2 -> rpn/output_2 (in-place)
I0417 21:54:15.336660 24841 net.cpp:150] Setting up rpn_relu/3x3_2
I0417 21:54:15.336674 24841 net.cpp:157] Top shape: 1 512 96 2 2 (196608)
I0417 21:54:15.336678 24841 net.cpp:165] Memory required for data: 10171516092
I0417 21:54:15.336681 24841 layer_factory.hpp:77] Creating layer rpn/output_pool
I0417 21:54:15.336688 24841 net.cpp:100] Creating Layer rpn/output_pool
I0417 21:54:15.336693 24841 net.cpp:434] rpn/output_pool <- rpn/output_2
I0417 21:54:15.336696 24841 net.cpp:408] rpn/output_pool -> rpn/output_pool
I0417 21:54:15.336875 24841 net.cpp:150] Setting up rpn/output_pool
I0417 21:54:15.336886 24841 net.cpp:157] Top shape: 1 512 96 1 1 (49152)
I0417 21:54:15.336889 24841 net.cpp:165] Memory required for data: 10171712700
I0417 21:54:15.336892 24841 layer_factory.hpp:77] Creating layer rpn/output_pool_rpn/output_pool_0_split
I0417 21:54:15.336897 24841 net.cpp:100] Creating Layer rpn/output_pool_rpn/output_pool_0_split
I0417 21:54:15.336901 24841 net.cpp:434] rpn/output_pool_rpn/output_pool_0_split <- rpn/output_pool
I0417 21:54:15.336907 24841 net.cpp:408] rpn/output_pool_rpn/output_pool_0_split -> rpn/output_pool_rpn/output_pool_0_split_0
I0417 21:54:15.336912 24841 net.cpp:408] rpn/output_pool_rpn/output_pool_0_split -> rpn/output_pool_rpn/output_pool_0_split_1
I0417 21:54:15.336943 24841 net.cpp:150] Setting up rpn/output_pool_rpn/output_pool_0_split
I0417 21:54:15.336951 24841 net.cpp:157] Top shape: 1 512 96 1 1 (49152)
I0417 21:54:15.336956 24841 net.cpp:157] Top shape: 1 512 96 1 1 (49152)
I0417 21:54:15.336958 24841 net.cpp:165] Memory required for data: 10172105916
I0417 21:54:15.336961 24841 layer_factory.hpp:77] Creating layer rpn_cls_score
I0417 21:54:15.336972 24841 net.cpp:100] Creating Layer rpn_cls_score
I0417 21:54:15.336978 24841 net.cpp:434] rpn_cls_score <- rpn/output_pool_rpn/output_pool_0_split_0
I0417 21:54:15.336983 24841 net.cpp:408] rpn_cls_score -> rpn_cls_score
I0417 21:54:15.339202 24841 net.cpp:150] Setting up rpn_cls_score
I0417 21:54:15.339215 24841 net.cpp:157] Top shape: 1 74 96 1 1 (7104)
I0417 21:54:15.339220 24841 net.cpp:165] Memory required for data: 10172134332
I0417 21:54:15.339226 24841 layer_factory.hpp:77] Creating layer rpn_cls_score_rpn_cls_score_0_split
I0417 21:54:15.339233 24841 net.cpp:100] Creating Layer rpn_cls_score_rpn_cls_score_0_split
I0417 21:54:15.339236 24841 net.cpp:434] rpn_cls_score_rpn_cls_score_0_split <- rpn_cls_score
I0417 21:54:15.339241 24841 net.cpp:408] rpn_cls_score_rpn_cls_score_0_split -> rpn_cls_score_rpn_cls_score_0_split_0
I0417 21:54:15.339247 24841 net.cpp:408] rpn_cls_score_rpn_cls_score_0_split -> rpn_cls_score_rpn_cls_score_0_split_1
I0417 21:54:15.339288 24841 net.cpp:150] Setting up rpn_cls_score_rpn_cls_score_0_split
I0417 21:54:15.339295 24841 net.cpp:157] Top shape: 1 74 96 1 1 (7104)
I0417 21:54:15.339305 24841 net.cpp:157] Top shape: 1 74 96 1 1 (7104)
I0417 21:54:15.339308 24841 net.cpp:165] Memory required for data: 10172191164
I0417 21:54:15.339313 24841 layer_factory.hpp:77] Creating layer rpn_twin_pred
I0417 21:54:15.339327 24841 net.cpp:100] Creating Layer rpn_twin_pred
I0417 21:54:15.339332 24841 net.cpp:434] rpn_twin_pred <- rpn/output_pool_rpn/output_pool_0_split_1
I0417 21:54:15.339339 24841 net.cpp:408] rpn_twin_pred -> rpn_twin_pred
I0417 21:54:15.341239 24841 net.cpp:150] Setting up rpn_twin_pred
I0417 21:54:15.341253 24841 net.cpp:157] Top shape: 1 74 96 1 1 (7104)
I0417 21:54:15.341256 24841 net.cpp:165] Memory required for data: 10172219580
I0417 21:54:15.341262 24841 layer_factory.hpp:77] Creating layer rpn_twin_pred_rpn_twin_pred_0_split
I0417 21:54:15.341267 24841 net.cpp:100] Creating Layer rpn_twin_pred_rpn_twin_pred_0_split
I0417 21:54:15.341270 24841 net.cpp:434] rpn_twin_pred_rpn_twin_pred_0_split <- rpn_twin_pred
I0417 21:54:15.341277 24841 net.cpp:408] rpn_twin_pred_rpn_twin_pred_0_split -> rpn_twin_pred_rpn_twin_pred_0_split_0
I0417 21:54:15.341284 24841 net.cpp:408] rpn_twin_pred_rpn_twin_pred_0_split -> rpn_twin_pred_rpn_twin_pred_0_split_1
I0417 21:54:15.341320 24841 net.cpp:150] Setting up rpn_twin_pred_rpn_twin_pred_0_split
I0417 21:54:15.341325 24841 net.cpp:157] Top shape: 1 74 96 1 1 (7104)
I0417 21:54:15.341333 24841 net.cpp:157] Top shape: 1 74 96 1 1 (7104)
I0417 21:54:15.341336 24841 net.cpp:165] Memory required for data: 10172276412
I0417 21:54:15.341339 24841 layer_factory.hpp:77] Creating layer rpn_cls_score_reshape
I0417 21:54:15.341349 24841 net.cpp:100] Creating Layer rpn_cls_score_reshape
I0417 21:54:15.341356 24841 net.cpp:434] rpn_cls_score_reshape <- rpn_cls_score_rpn_cls_score_0_split_0
I0417 21:54:15.341361 24841 net.cpp:408] rpn_cls_score_reshape -> rpn_cls_score_reshape
I0417 21:54:15.341389 24841 net.cpp:150] Setting up rpn_cls_score_reshape
I0417 21:54:15.341398 24841 net.cpp:157] Top shape: 1 2 3552 1 1 (7104)
I0417 21:54:15.341401 24841 net.cpp:165] Memory required for data: 10172304828
I0417 21:54:15.341404 24841 layer_factory.hpp:77] Creating layer rpn_cls_score_reshape_rpn_cls_score_reshape_0_split
I0417 21:54:15.341410 24841 net.cpp:100] Creating Layer rpn_cls_score_reshape_rpn_cls_score_reshape_0_split
I0417 21:54:15.341414 24841 net.cpp:434] rpn_cls_score_reshape_rpn_cls_score_reshape_0_split <- rpn_cls_score_reshape
I0417 21:54:15.341418 24841 net.cpp:408] rpn_cls_score_reshape_rpn_cls_score_reshape_0_split -> rpn_cls_score_reshape_rpn_cls_score_reshape_0_split_0
I0417 21:54:15.341428 24841 net.cpp:408] rpn_cls_score_reshape_rpn_cls_score_reshape_0_split -> rpn_cls_score_reshape_rpn_cls_score_reshape_0_split_1
I0417 21:54:15.341434 24841 net.cpp:408] rpn_cls_score_reshape_rpn_cls_score_reshape_0_split -> rpn_cls_score_reshape_rpn_cls_score_reshape_0_split_2
I0417 21:54:15.341472 24841 net.cpp:150] Setting up rpn_cls_score_reshape_rpn_cls_score_reshape_0_split
I0417 21:54:15.341478 24841 net.cpp:157] Top shape: 1 2 3552 1 1 (7104)
I0417 21:54:15.341482 24841 net.cpp:157] Top shape: 1 2 3552 1 1 (7104)
I0417 21:54:15.341485 24841 net.cpp:157] Top shape: 1 2 3552 1 1 (7104)
I0417 21:54:15.341488 24841 net.cpp:165] Memory required for data: 10172390076
I0417 21:54:15.341491 24841 layer_factory.hpp:77] Creating layer rpn-data
I0417 21:54:15.341950 24841 net.cpp:100] Creating Layer rpn-data
I0417 21:54:15.341962 24841 net.cpp:434] rpn-data <- rpn_cls_score_rpn_cls_score_0_split_1
I0417 21:54:15.341969 24841 net.cpp:434] rpn-data <- gt_boxes_data_1_split_0
I0417 21:54:15.341972 24841 net.cpp:434] rpn-data <- data_data_0_split_1
I0417 21:54:15.341977 24841 net.cpp:408] rpn-data -> rpn_labels
I0417 21:54:15.341984 24841 net.cpp:408] rpn-data -> rpn_twin_targets
I0417 21:54:15.341990 24841 net.cpp:408] rpn-data -> rpn_twin_inside_weights
I0417 21:54:15.341996 24841 net.cpp:408] rpn-data -> rpn_twin_outside_weights
I0417 21:54:15.344259 24841 net.cpp:150] Setting up rpn-data
I0417 21:54:15.344274 24841 net.cpp:157] Top shape: 1 1 3552 1 1 (3552)
I0417 21:54:15.344278 24841 net.cpp:157] Top shape: 1 74 96 1 1 (7104)
I0417 21:54:15.344282 24841 net.cpp:157] Top shape: 1 74 96 1 1 (7104)
I0417 21:54:15.344285 24841 net.cpp:157] Top shape: 1 74 96 1 1 (7104)
I0417 21:54:15.344288 24841 net.cpp:165] Memory required for data: 10172489532
I0417 21:54:15.344292 24841 layer_factory.hpp:77] Creating layer rpn_labels_rpn-data_0_split
I0417 21:54:15.344298 24841 net.cpp:100] Creating Layer rpn_labels_rpn-data_0_split
I0417 21:54:15.344301 24841 net.cpp:434] rpn_labels_rpn-data_0_split <- rpn_labels
I0417 21:54:15.344307 24841 net.cpp:408] rpn_labels_rpn-data_0_split -> rpn_labels_rpn-data_0_split_0
I0417 21:54:15.344316 24841 net.cpp:408] rpn_labels_rpn-data_0_split -> rpn_labels_rpn-data_0_split_1
I0417 21:54:15.344347 24841 net.cpp:150] Setting up rpn_labels_rpn-data_0_split
I0417 21:54:15.344358 24841 net.cpp:157] Top shape: 1 1 3552 1 1 (3552)
I0417 21:54:15.344362 24841 net.cpp:157] Top shape: 1 1 3552 1 1 (3552)
I0417 21:54:15.344367 24841 net.cpp:165] Memory required for data: 10172517948
I0417 21:54:15.344370 24841 layer_factory.hpp:77] Creating layer rpn_loss_cls
I0417 21:54:15.344379 24841 net.cpp:100] Creating Layer rpn_loss_cls
I0417 21:54:15.344384 24841 net.cpp:434] rpn_loss_cls <- rpn_cls_score_reshape_rpn_cls_score_reshape_0_split_0
I0417 21:54:15.344389 24841 net.cpp:434] rpn_loss_cls <- rpn_labels_rpn-data_0_split_0
…
I0417 21:54:15.345026 24841 layer_factory.hpp:77] Creating layer rpn_accuarcy
I0417 21:54:15.345033 24841 net.cpp:100] Creating Layer rpn_accuarcy
I0417 21:54:15.345037 24841 net.cpp:434] rpn_accuarcy <- rpn_cls_score_reshape_rpn_cls_score_reshape_0_split_1
I0417 21:54:15.345041 24841 net.cpp:434] rpn_accuarcy <- rpn_labels_rpn-data_0_split_1
I0417 21:54:15.345046 24841 net.cpp:408] rpn_accuarcy -> rpn_accuarcy
I0417 21:54:15.345052 24841 net.cpp:408] rpn_accuarcy -> rpn_accuarcy_class
I0417 21:54:15.345088 24841 net.cpp:150] Setting up rpn_accuarcy
I0417 21:54:15.345094 24841 net.cpp:157] Top shape: (1)
I0417 21:54:15.345098 24841 net.cpp:157] Top shape: 2 (2)
I0417 21:54:15.345100 24841 net.cpp:165] Memory required for data: 10172517968
I0417 21:54:15.345103 24841 layer_factory.hpp:77] Creating layer rpn_cls_prob
I0417 21:54:15.345109 24841 net.cpp:100] Creating Layer rpn_cls_prob
I0417 21:54:15.345113 24841 net.cpp:434] rpn_cls_prob <- rpn_cls_score_reshape_rpn_cls_score_reshape_0_split_2
I0417 21:54:15.345118 24841 net.cpp:408] rpn_cls_prob -> rpn_cls_prob
I0417 21:54:15.345310 24841 net.cpp:150] Setting up rpn_cls_prob
I0417 21:54:15.345320 24841 net.cpp:157] Top shape: 1 2 3552 1 1 (7104)
I0417 21:54:15.345324 24841 net.cpp:165] Memory required for data: 10172546384
I0417 21:54:15.345327 24841 layer_factory.hpp:77] Creating layer rpn_cls_prob_reshape
I0417 21:54:15.345333 24841 net.cpp:100] Creating Layer rpn_cls_prob_reshape
I0417 21:54:15.345336 24841 net.cpp:434] rpn_cls_prob_reshape <- rpn_cls_prob
I0417 21:54:15.345342 24841 net.cpp:408] rpn_cls_prob_reshape -> rpn_cls_prob_reshape
I0417 21:54:15.345367 24841 net.cpp:150] Setting up rpn_cls_prob_reshape
I0417 21:54:15.345376 24841 net.cpp:157] Top shape: 1 74 96 1 1 (7104)
I0417 21:54:15.345378 24841 net.cpp:165] Memory required for data: 10172574800
I0417 21:54:15.345381 24841 layer_factory.hpp:77] Creating layer proposal
I0417 21:54:15.345942 24841 net.cpp:100] Creating Layer proposal
I0417 21:54:15.345953 24841 net.cpp:434] proposal <- rpn_cls_prob_reshape
I0417 21:54:15.345960 24841 net.cpp:434] proposal <- rpn_twin_pred_rpn_twin_pred_0_split_1
I0417 21:54:15.345965 24841 net.cpp:408] proposal -> rpn_rois
I0417 21:54:15.348201 24841 net.cpp:150] Setting up proposal
I0417 21:54:15.348214 24841 net.cpp:157] Top shape: 1 3 (3)
I0417 21:54:15.348218 24841 net.cpp:165] Memory required for data: 10172574812
I0417 21:54:15.348222 24841 layer_factory.hpp:77] Creating layer roi-data
I0417 21:54:15.348356 24841 net.cpp:100] Creating Layer roi-data
I0417 21:54:15.348367 24841 net.cpp:434] roi-data <- rpn_rois
I0417 21:54:15.348372 24841 net.cpp:434] roi-data <- gt_boxes_data_1_split_1
I0417 21:54:15.348377 24841 net.cpp:408] roi-data -> rois
I0417 21:54:15.348384 24841 net.cpp:408] roi-data -> labels
I0417 21:54:15.348390 24841 net.cpp:408] roi-data -> twin_targets
I0417 21:54:15.348395 24841 net.cpp:408] roi-data -> twin_inside_weights
I0417 21:54:15.348404 24841 net.cpp:408] roi-data -> twin_outside_weights
I0417 21:54:15.348711 24841 net.cpp:150] Setting up roi-data
I0417 21:54:15.348723 24841 net.cpp:157] Top shape: 1 3 (3)
I0417 21:54:15.348727 24841 net.cpp:157] Top shape: 1 1 (1)
I0417 21:54:15.348731 24841 net.cpp:157] Top shape: 1 402 (402)
I0417 21:54:15.348734 24841 net.cpp:157] Top shape: 1 402 (402)
I0417 21:54:15.348738 24841 net.cpp:157] Top shape: 1 402 (402)
I0417 21:54:15.348742 24841 net.cpp:165] Memory required for data: 10172579652
I0417 21:54:15.348744 24841 layer_factory.hpp:77] Creating layer labels_roi-data_1_split
I0417 21:54:15.348750 24841 net.cpp:100] Creating Layer labels_roi-data_1_split
I0417 21:54:15.348753 24841 net.cpp:434] labels_roi-data_1_split <- labels
I0417 21:54:15.348759 24841 net.cpp:408] labels_roi-data_1_split -> labels_roi-data_1_split_0
I0417 21:54:15.348765 24841 net.cpp:408] labels_roi-data_1_split -> labels_roi-data_1_split_1
I0417 21:54:15.348795 24841 net.cpp:150] Setting up labels_roi-data_1_split
I0417 21:54:15.348803 24841 net.cpp:157] Top shape: 1 1 (1)
I0417 21:54:15.348806 24841 net.cpp:157] Top shape: 1 1 (1)
I0417 21:54:15.348809 24841 net.cpp:165] Memory required for data: 10172579660
I0417 21:54:15.348812 24841 layer_factory.hpp:77] Creating layer roi_pool5
I0417 21:54:15.348821 24841 net.cpp:100] Creating Layer roi_pool5
I0417 21:54:15.348825 24841 net.cpp:434] roi_pool5 <- conv5b_relu5b_0_split_1
I0417 21:54:15.348829 24841 net.cpp:434] roi_pool5 <- rois
I0417 21:54:15.348834 24841 net.cpp:408] roi_pool5 -> pool5
I0417 21:54:15.348840 24841 roi_pooling_layer.cpp:34] Temporal scale: 0.125
I0417 21:54:15.348847 24841 roi_pooling_layer.cpp:35] Spatial scale: 0.0625
I0417 21:54:15.348881 24841 net.cpp:150] Setting up roi_pool5
I0417 21:54:15.348887 24841 net.cpp:157] Top shape: 1 512 1 4 4 (8192)
I0417 21:54:15.348891 24841 net.cpp:165] Memory required for data: 10172612428
I0417 21:54:15.348896 24841 layer_factory.hpp:77] Creating layer fc6
I0417 21:54:15.348903 24841 net.cpp:100] Creating Layer fc6
I0417 21:54:15.348907 24841 net.cpp:434] fc6 <- pool5
I0417 21:54:15.348913 24841 net.cpp:408] fc6 -> fc6
I0417 21:54:16.220445 24841 net.cpp:150] Setting up fc6
I0417 21:54:16.220479 24841 net.cpp:157] Top shape: 1 4096 (4096)
I0417 21:54:16.220484 24841 net.cpp:165] Memory required for data: 10172628812
I0417 21:54:16.220494 24841 layer_factory.hpp:77] Creating layer relu6
I0417 21:54:16.220502 24841 net.cpp:100] Creating Layer relu6
I0417 21:54:16.220507 24841 net.cpp:434] relu6 <- fc6
I0417 21:54:16.220512 24841 net.cpp:395] relu6 -> fc6 (in-place)
I0417 21:54:16.220932 24841 net.cpp:150] Setting up relu6
I0417 21:54:16.220945 24841 net.cpp:157] Top shape: 1 4096 (4096)
I0417 21:54:16.220948 24841 net.cpp:165] Memory required for data: 10172645196
I0417 21:54:16.220952 24841 layer_factory.hpp:77] Creating layer drop6
I0417 21:54:16.220963 24841 net.cpp:100] Creating Layer drop6
I0417 21:54:16.220968 24841 net.cpp:434] drop6 <- fc6
I0417 21:54:16.220974 24841 net.cpp:395] drop6 -> fc6 (in-place)
I0417 21:54:16.221001 24841 net.cpp:150] Setting up drop6
I0417 21:54:16.221014 24841 net.cpp:157] Top shape: 1 4096 (4096)
I0417 21:54:16.221016 24841 net.cpp:165] Memory required for data: 10172661580
I0417 21:54:16.221020 24841 layer_factory.hpp:77] Creating layer fc6_drop6_0_split
I0417 21:54:16.221024 24841 net.cpp:100] Creating Layer fc6_drop6_0_split
I0417 21:54:16.221029 24841 net.cpp:434] fc6_drop6_0_split <- fc6
I0417 21:54:16.221032 24841 net.cpp:408] fc6_drop6_0_split -> fc6_drop6_0_split_0
I0417 21:54:16.221038 24841 net.cpp:408] fc6_drop6_0_split -> fc6_drop6_0_split_1
I0417 21:54:16.221072 24841 net.cpp:150] Setting up fc6_drop6_0_split
I0417 21:54:16.221079 24841 net.cpp:157] Top shape: 1 4096 (4096)
I0417 21:54:16.221082 24841 net.cpp:157] Top shape: 1 4096 (4096)
I0417 21:54:16.221086 24841 net.cpp:165] Memory required for data: 10172694348
I0417 21:54:16.221088 24841 layer_factory.hpp:77] Creating layer cls_score
I0417 21:54:16.221096 24841 net.cpp:100] Creating Layer cls_score
I0417 21:54:16.221103 24841 net.cpp:434] cls_score <- fc6_drop6_0_split_0
I0417 21:54:16.221108 24841 net.cpp:408] cls_score -> cls_score
I0417 21:54:16.242635 24841 net.cpp:150] Setting up cls_score
I0417 21:54:16.242651 24841 net.cpp:157] Top shape: 1 201 (201)
I0417 21:54:16.242655 24841 net.cpp:165] Memory required for data: 10172695152
I0417 21:54:16.242661 24841 layer_factory.hpp:77] Creating layer cls_score_cls_score_0_split
I0417 21:54:16.242667 24841 net.cpp:100] Creating Layer cls_score_cls_score_0_split
I0417 21:54:16.242671 24841 net.cpp:434] cls_score_cls_score_0_split <- cls_score
I0417 21:54:16.242676 24841 net.cpp:408] cls_score_cls_score_0_split -> cls_score_cls_score_0_split_0
I0417 21:54:16.242682 24841 net.cpp:408] cls_score_cls_score_0_split -> cls_score_cls_score_0_split_1
I0417 21:54:16.242715 24841 net.cpp:150] Setting up cls_score_cls_score_0_split
I0417 21:54:16.242722 24841 net.cpp:157] Top shape: 1 201 (201)
I0417 21:54:16.242725 24841 net.cpp:157] Top shape: 1 201 (201)
I0417 21:54:16.242728 24841 net.cpp:165] Memory required for data: 10172696760
I0417 21:54:16.242733 24841 layer_factory.hpp:77] Creating layer twin_pred
I0417 21:54:16.242739 24841 net.cpp:100] Creating Layer twin_pred
I0417 21:54:16.242743 24841 net.cpp:434] twin_pred <- fc6_drop6_0_split_1
I0417 21:54:16.242751 24841 net.cpp:408] twin_pred -> twin_pred
I0417 21:54:16.285454 24841 net.cpp:150] Setting up twin_pred
I0417 21:54:16.285476 24841 net.cpp:157] Top shape: 1 402 (402)
I0417 21:54:16.285480 24841 net.cpp:165] Memory required for data: 10172698368
I0417 21:54:16.285488 24841 layer_factory.hpp:77] Creating layer loss_cls
I0417 21:54:16.285497 24841 net.cpp:100] Creating Layer loss_cls
I0417 21:54:16.285502 24841 net.cpp:434] loss_cls <- cls_score_cls_score_0_split_0
I0417 21:54:16.285508 24841 net.cpp:434] loss_cls <- labels_roi-data_1_split_0
I0417 21:54:16.285516 24841 net.cpp:408] loss_cls -> loss_cls
…
