…
stepsize: 350000
snapshot: 0
snapshot_prefix: "./experiments/activitynet/snapshot/activitynet"
average_loss: 100
iter_size: 1
I0417 12:03:37.803792 28942 solver.cpp:81] Creating training net from train_net file: ./experiments/activitynet/train.prototxt
I0417 12:03:37.804885 28942 net.cpp:58] Initializing net from parameters: 
name: "activitynet"
state {
  phase: TRAIN
}
layer {
  name: "data"
  type: "Python"
  top: "data"
  top: "gt_boxes"
  python_param {
    module: "roi_data_layer.layer"
    layer: "RoIDataLayer"
    param_str: "\'num_classes\': 100"
  }
}
layer {
  name: "conv1a"
  type: "Convolution"
  bottom: "data"
  top: "conv1a"
  param {
    lr_mult: 0
    decay_mult: 0
  }
  param {
    lr_mult: 0
    decay_mult: 0
  }
  convolution_param {
    num_output: 64
    pad: 1
    pad: 1
    pad: 1
    kernel_size: 3
    kernel_size: 3
    kernel_size: 3
    weight_filler {
      type: "gaussian"
      std: 0.01
    }
    bias_filler {
      type: "constant"
      value: 0
    }
  }
}
layer {
  name: "relu1a"
  type: "ReLU"
  bottom: "conv1a"
  top: "conv1a"
}
layer {
  name: "pool1"
  type: "Pooling"
  bottom: "conv1a"
  top: "pool1"
  pooling_param {
    pool: MAX
    kernel_size: 1
    kernel_size: 2
    kernel_size: 2
    stride: 1
    stride: 2
    stride: 2
  }
}
layer {
  name: "conv2a"
  type: "Convolution"
  bottom: "pool1"
  top: "conv2a"
  param {
    lr_mult: 0
    decay_mult: 0
  }
  param {
    lr_mult: 0
    decay_mult: 0
  }
  convolution_param {
    num_output: 128
    pad: 1
    pad: 1
    pad: 1
    kernel_size: 3
    kernel_size: 3
    kernel_size: 3
    weight_filler {
      type: "gaussian"
      std: 0.01
    }
    bias_filler {
      type: "constant"
      value: 1
    }
  }
}
layer {
  name: "relu2a"
  type: "ReLU"
  bottom: "conv2a"
  top: "conv2a"
}
layer {
  name: "pool2"
  type: "Pooling"
  bottom: "conv2a"
  top: "pool2"
  pooling_param {
    pool: MAX
    kernel_size: 2
    kernel_size: 2
    kernel_size: 2
    stride: 2
    stride: 2
    stride: 2
  }
}
layer {
  name: "conv3a"
  type: "Convolution"
  bottom: "pool2"
  top: "conv3a"
  param {
    lr_mult: 1
    decay_mult: 1
  }
  param {
    lr_mult: 2
    decay_mult: 0
  }
  convolution_param {
    num_output: 256
    pad: 1
    pad: 1
    pad: 1
    kernel_size: 3
    kernel_size: 3
    kernel_size: 3
    weight_filler {
      type: "gaussian"
      std: 0.01
    }
    bias_filler {
      type: "constant"
      value: 1
    }
  }
}
layer {
  name: "relu3a"
  type: "ReLU"
  bottom: "conv3a"
  top: "conv3a"
}
layer {
  name: "conv3b"
  type: "Convolution"
  bottom: "conv3a"
  top: "conv3b"
  param {
    lr_mult: 1
    decay_mult: 1
  }
  param {
    lr_mult: 2
    decay_mult: 0
  }
  convolution_param {
    num_output: 256
    pad: 1
    pad: 1
    pad: 1
    kernel_size: 3
    kernel_size: 3
    kernel_size: 3
    weight_filler {
      type: "gaussian"
      std: 0.01
    }
    bias_filler {
      type: "constant"
      value: 1
    }
  }
}
layer {
  name: "relu3b"
  type: "ReLU"
  bottom: "conv3b"
  top: "conv3b"
}
layer {
  name: "pool3"
  type: "Pooling"
  bottom: "conv3b"
  top: "pool3"
  pooling_param {
    pool: MAX
    kernel_size: 2
    kernel_size: 2
    kernel_size: 2
    stride: 2
    stride: 2
    stride: 2
  }
}
layer {
  name: "conv4a"
  type: "Convolution"
  bottom: "pool3"
  top: "conv4a"
  param {
    lr_mult: 1
    decay_mult: 1
  }
  param {
    lr_mult: 2
    decay_mult: 0
  }
  convolution_param {
    num_output: 512
    pad: 1
    pad: 1
    pad: 1
    kernel_size: 3
    kernel_size: 3
    kernel_size: 3
    weight_filler {
      type: "gaussian"
      std: 0.01
    }
    bias_filler {
      type: "constant"
      value: 1
    }
  }
}
layer {
  name: "relu4a"
  type: "ReLU"
  bottom: "conv4a"
  top: "conv4a"
}
layer {
  name: "conv4b"
  type: "Convolution"
  bottom: "conv4a"
  top: "conv4b"
  param {
    lr_mult: 1
    decay_mult: 1
  }
  param {
    lr_mult: 2
    decay_mult: 0
  }
  convolution_param {
    num_output: 512
    pad: 1
    pad: 1
    pad: 1
    kernel_size: 3
    kernel_size: 3
    kernel_size: 3
    weight_filler {
      type: "gaussian"
      std: 0.01
    }
    bias_filler {
      type: "constant"
      value: 1
    }
  }
}
layer {
  name: "relu4b"
  type: "ReLU"
  bottom: "conv4b"
  top: "conv4b"
}
layer {
  name: "pool4"
  type: "Pooling"
  bottom: "conv4b"
  top: "pool4"
  pooling_param {
    pool: MAX
    kernel_size: 2
    kernel_size: 2
    kernel_size: 2
    stride: 2
    stride: 2
    stride: 2
  }
}
layer {
  name: "conv5a"
  type: "Convolution"
  bottom: "pool4"
  top: "conv5a"
  param {
    lr_mult: 1
    decay_mult: 1
  }
  param {
    lr_mult: 2
    decay_mult: 0
  }
  convolution_param {
    num_output: 512
    pad: 1
    pad: 1
    pad: 1
    kernel_size: 3
    kernel_size: 3
    kernel_size: 3
    weight_filler {
      type: "gaussian"
      std: 0.01
    }
    bias_filler {
      type: "constant"
      value: 1
    }
  }
}
layer {
  name: "relu5a"
  type: "ReLU"
  bottom: "conv5a"
  top: "conv5a"
}
layer {
  name: "conv5b"
  type: "Convolution"
  bottom: "conv5a"
  top: "conv5b"
  param {
    lr_mult: 1
    decay_mult: 1
  }
  param {
    lr_mult: 2
    decay_mult: 0
  }
  convolution_param {
    num_output: 512
    pad: 1
    pad: 1
    pad: 1
    kernel_size: 3
    kernel_size: 3
    kernel_size: 3
    weight_filler {
      type: "gaussian"
      std: 0.01
    }
    bias_filler {
      type: "constant"
      value: 1
    }
  }
}
layer {
  name: "relu5b"
  type: "ReLU"
  bottom: "conv5b"
  top: "conv5b"
}
layer {
  name: "rpn_conv/3x3"
  type: "Convolution"
  bottom: "conv5b"
  top: "rpn/output"
  param {
    lr_mult: 1
    decay_mult: 1
  }
  param {
    lr_mult: 2
    decay_mult: 0
  }
  convolution_param {
    num_output: 512
    pad: 1
    pad: 1
    pad: 1
    kernel_size: 3
    kernel_size: 3
    kernel_size: 3
    stride: 1
    stride: 2
    stride: 2
    weight_filler {
      type: "gaussian"
      std: 0.01
    }
    bias_filler {
      type: "constant"
      value: 0
    }
  }
}
layer {
  name: "rpn_relu/3x3"
  type: "ReLU"
  bottom: "rpn/output"
  top: "rpn/output"
}
layer {
  name: "rpn_conv/3x3_2"
  type: "Convolution"
  bottom: "rpn/output"
  top: "rpn/output_2"
  param {
    lr_mult: 1
    decay_mult: 1
  }
  param {
    lr_mult: 2
    decay_mult: 0
  }
  convolution_param {
    num_output: 512
    pad: 1
    pad: 1
    pad: 1
    kernel_size: 3
    kernel_size: 3
    kernel_size: 3
    stride: 1
    stride: 2
    stride: 2
    weight_filler {
      type: "gaussian"
      std: 0.01
    }
    bias_filler {
      type: "constant"
      value: 0
    }
  }
}
layer {
  name: "rpn_relu/3x3_2"
  type: "ReLU"
  bottom: "rpn/output_2"
  top: "rpn/output_2"
}
layer {
  name: "rpn/output_pool"
  type: "Pooling"
  bottom: "rpn/output_2"
  top: "rpn/output_pool"
  pooling_param {
    pool: MAX
    kernel_size: 1
    kernel_size: 2
    kernel_size: 2
  }
}
layer {
  name: "rpn_cls_score"
  type: "Convolution"
  bottom: "rpn/output_pool"
  top: "rpn_cls_score"
  param {
    lr_mult: 1
    decay_mult: 1
  }
  param {
    lr_mult: 2
    decay_mult: 0
  }
  convolution_param {
    num_output: 74
    kernel_size: 1
    kernel_size: 1
    kernel_size: 1
    weight_filler {
      type: "gaussian"
      std: 0.01
    }
    bias_filler {
      type: "constant"
      value: 0
    }
  }
}
layer {
  name: "rpn_twin_pred"
  type: "Convolution"
  bottom: "rpn/output_pool"
  top: "rpn_twin_pred"
  param {
    lr_mult: 1
    decay_mult: 1
  }
  param {
    lr_mult: 2
    decay_mult: 0
  }
  convolution_param {
    num_output: 74
    kernel_size: 1
    kernel_size: 1
    kernel_size: 1
    weight_filler {
      type: "gaussian"
      std: 0.01
    }
    bias_filler {
      type: "constant"
      value: 0
    }
  }
}
layer {
  name: "rpn_cls_score_reshape"
  type: "Reshape"
  bottom: "rpn_cls_score"
  top: "rpn_cls_score_reshape"
  reshape_param {
    shape {
      dim: 0
      dim: 2
      dim: -1
      dim: 0
      dim: 0
    }
  }
}
layer {
  name: "rpn-data"
  type: "Python"
  bottom: "rpn_cls_score"
  bottom: "gt_boxes"
  bottom: "data"
  top: "rpn_labels"
  top: "rpn_twin_targets"
  top: "rpn_twin_inside_weights"
  top: "rpn_twin_outside_weights"
  python_param {
    module: "rpn.anchor_target_layer"
    layer: "AnchorTargetLayer"
    param_str: "\'feat_stride\': 8 \n\'scales\': !!python/tuple [1,1.25, 1.5,1.75, 2,2.5, 3,3.5, 4,4.5, 5,5.5, 6,7, 8,9,10,11,12,14,16,18,20,22,24,28,32,36,40,44,52,60,68,76,84,92,100]"
  }
}
layer {
  name: "rpn_loss_cls"
  type: "SoftmaxWithLoss"
  bottom: "rpn_cls_score_reshape"
  bottom: "rpn_labels"
  top: "rpn_cls_loss"
  loss_weight: 1
  propagate_down: true
  propagate_down: false
  loss_param {
    ignore_label: -1
    normalize: true
  }
}
layer {
  name: "rpn_loss_twin"
  type: "SmoothL1Loss"
  bottom: "rpn_twin_pred"
  bottom: "rpn_twin_targets"
  bottom: "rpn_twin_inside_weights"
  bottom: "rpn_twin_outside_weights"
  top: "rpn_loss_twin"
  loss_weight: 1
  smooth_l1_loss_param {
    sigma: 3
  }
}
layer {
  name: "rpn_accuarcy"
  type: "Accuracy"
  bottom: "rpn_cls_score_reshape"
  bottom: "rpn_labels"
  top: "rpn_accuarcy"
  top: "rpn_accuarcy_class"
  propagate_down: false
  propagate_down: false
  accuracy_param {
    ignore_label: -1
  }
}
layer {
  name: "rpn_cls_prob"
  type: "Softmax"
  bottom: "rpn_cls_score_reshape"
  top: "rpn_cls_prob"
}
layer {
  name: "rpn_cls_prob_reshape"
  type: "Reshape"
  bottom: "rpn_cls_prob"
  top: "rpn_cls_prob_reshape"
  reshape_param {
    shape {
      dim: 0
      dim: 74
      dim: -1
      dim: 0
      dim: 0
    }
  }
}
layer {
  name: "proposal"
  type: "Python"
  bottom: "rpn_cls_prob_reshape"
  bottom: "rpn_twin_pred"
  top: "rpn_rois"
  include {
    phase: TRAIN
  }
  python_param {
    module: "rpn.proposal_layer"
    layer: "ProposalLayer"
    param_str: "\'feat_stride\': 8 \n\'scales\': !!python/tuple [1,1.25, 1.5,1.75, 2,2.5, 3,3.5, 4,4.5, 5,5.5, 6,7, 8,9,10,11,12,14,16,18,20,22,24,28,32,36,40,44,52,60,68,76,84,92,100]"
  }
}
layer {
  name: "roi-data"
  type: "Python"
  bottom: "rpn_rois"
  bottom: "gt_boxes"
  top: "rois"
  top: "labels"
  top: "twin_targets"
  top: "twin_inside_weights"
  top: "twin_outside_weights"
  python_param {
    module: "rpn.proposal_target_layer"
    layer: "ProposalTargetLayer"
    param_str: "\'num_classes\': 201"
  }
}
layer {
  name: "roi_pool5"
  type: "ROIPooling"
  bottom: "conv5b"
  bottom: "rois"
  top: "pool5"
  roi_pooling_param {
    pooled_h: 4
    pooled_w: 4
    spatial_scale: 0.0625
    pooled_l: 1
    temporal_scale: 0.125
  }
}
layer {
  name: "fc6"
  type: "InnerProduct"
  bottom: "pool5"
  top: "fc6"
  param {
    lr_mult: 1
    decay_mult: 1
  }
  param {
    lr_mult: 2
    decay_mult: 0
  }
  inner_product_param {
    num_output: 4096
    weight_filler {
      type: "gaussian"
      std: 0.005
    }
    bias_filler {
      type: "constant"
      value: 1
    }
  }
}
layer {
  name: "relu6"
  type: "ReLU"
  bottom: "fc6"
  top: "fc6"
}
layer {
  name: "drop6"
  type: "Dropout"
  bottom: "fc6"
  top: "fc6"
  dropout_param {
    dropout_ratio: 0.5
  }
}
layer {
  name: "cls_score"
  type: "InnerProduct"
  bottom: "fc6"
  top: "cls_score"
  param {
    lr_mult: 1
    decay_mult: 1
  }
  param {
    lr_mult: 2
    decay_mult: 0
  }
  inner_product_param {
    num_output: 201
    weight_filler {
      type: "gaussian"
      std: 0.01
    }
    bias_filler {
      type: "constant"
      value: 0
    }
  }
}
layer {
  name: "twin_pred"
  type: "InnerProduct"
  bottom: "fc6"
  top: "twin_pred"
  param {
    lr_mult: 1
    decay_mult: 1
  }
  param {
    lr_mult: 2
    decay_mult: 0
  }
  inner_product_param {
    num_output: 402
    weight_filler {
      type: "gaussian"
      std: 0.001
    }
    bias_filler {
      type: "constant"
      value: 0
    }
  }
}
layer {
  name: "loss_cls"
  type: "SoftmaxWithLoss"
  bottom: "cls_score"
  bottom: "labels"
  top: "loss_cls"
  loss_weight: 1
  propagate_down: true
  propagate_down: false
}
layer {
  name: "loss_twin"
  type: "SmoothL1Loss"
  bottom: "twin_pred"
  bottom: "twin_targets"
  bottom: "twin_inside_weights"
  bottom: "twin_outside_weights"
  top: "loss_twin"
  loss_weight: 1
}
layer {
  name: "accuarcy"
  type: "Accuracy"
  bottom: "cls_score"
  bottom: "labels"
  top: "accuarcy"
  propagate_down: false
  propagate_down: false
  accuracy_param {
    ignore_label: -1
  }
}
I0417 12:03:37.805101 28942 layer_factory.hpp:77] Creating layer data
I0417 12:03:37.832418 28942 net.cpp:100] Creating Layer data
I0417 12:03:37.832443 28942 net.cpp:408] data -> data
I0417 12:03:37.832458 28942 net.cpp:408] data -> gt_boxes
setting up
has rpn
RoiDataLayer: name_to_top: {'gt_windows': 1, 'data': 0}
I0417 12:03:37.846674 28942 net.cpp:150] Setting up data
I0417 12:03:37.846699 28942 net.cpp:157] Top shape: 1 3 768 112 112 (28901376)
I0417 12:03:37.846705 28942 net.cpp:157] Top shape: 1 101 (101)
I0417 12:03:37.846709 28942 net.cpp:165] Memory required for data: 115605908
I0417 12:03:37.846714 28942 layer_factory.hpp:77] Creating layer data_data_0_split
I0417 12:03:37.846726 28942 net.cpp:100] Creating Layer data_data_0_split
I0417 12:03:37.846731 28942 net.cpp:434] data_data_0_split <- data
I0417 12:03:37.846738 28942 net.cpp:408] data_data_0_split -> data_data_0_split_0
I0417 12:03:37.846748 28942 net.cpp:408] data_data_0_split -> data_data_0_split_1
I0417 12:03:37.846809 28942 net.cpp:150] Setting up data_data_0_split
I0417 12:03:37.846818 28942 net.cpp:157] Top shape: 1 3 768 112 112 (28901376)
I0417 12:03:37.846823 28942 net.cpp:157] Top shape: 1 3 768 112 112 (28901376)
I0417 12:03:37.846827 28942 net.cpp:165] Memory required for data: 346816916
I0417 12:03:37.846830 28942 layer_factory.hpp:77] Creating layer gt_boxes_data_1_split
I0417 12:03:37.846837 28942 net.cpp:100] Creating Layer gt_boxes_data_1_split
I0417 12:03:37.846839 28942 net.cpp:434] gt_boxes_data_1_split <- gt_boxes
I0417 12:03:37.846845 28942 net.cpp:408] gt_boxes_data_1_split -> gt_boxes_data_1_split_0
I0417 12:03:37.846851 28942 net.cpp:408] gt_boxes_data_1_split -> gt_boxes_data_1_split_1
I0417 12:03:37.846894 28942 net.cpp:150] Setting up gt_boxes_data_1_split
I0417 12:03:37.846902 28942 net.cpp:157] Top shape: 1 101 (101)
I0417 12:03:37.846906 28942 net.cpp:157] Top shape: 1 101 (101)
I0417 12:03:37.846909 28942 net.cpp:165] Memory required for data: 346817724
I0417 12:03:37.846912 28942 layer_factory.hpp:77] Creating layer conv1a
I0417 12:03:37.846927 28942 net.cpp:100] Creating Layer conv1a
I0417 12:03:37.846931 28942 net.cpp:434] conv1a <- data_data_0_split_0
I0417 12:03:37.846937 28942 net.cpp:408] conv1a -> conv1a
I0417 12:03:37.866549 28942 net.cpp:150] Setting up conv1a
I0417 12:03:37.866580 28942 net.cpp:157] Top shape: 1 64 768 112 112 (616562688)
I0417 12:03:37.866585 28942 net.cpp:165] Memory required for data: 2813068476
I0417 12:03:37.866610 28942 layer_factory.hpp:77] Creating layer relu1a
I0417 12:03:37.866623 28942 net.cpp:100] Creating Layer relu1a
I0417 12:03:37.866627 28942 net.cpp:434] relu1a <- conv1a
I0417 12:03:37.866636 28942 net.cpp:395] relu1a -> conv1a (in-place)
I0417 12:03:37.866648 28942 net.cpp:150] Setting up relu1a
I0417 12:03:37.866652 28942 net.cpp:157] Top shape: 1 64 768 112 112 (616562688)
I0417 12:03:37.866657 28942 net.cpp:165] Memory required for data: 5279319228
I0417 12:03:37.866659 28942 layer_factory.hpp:77] Creating layer pool1
I0417 12:03:37.866667 28942 net.cpp:100] Creating Layer pool1
I0417 12:03:37.866670 28942 net.cpp:434] pool1 <- conv1a
I0417 12:03:37.866675 28942 net.cpp:408] pool1 -> pool1
I0417 12:03:37.866797 28942 net.cpp:150] Setting up pool1
I0417 12:03:37.866811 28942 net.cpp:157] Top shape: 1 64 768 56 56 (154140672)
I0417 12:03:37.866814 28942 net.cpp:165] Memory required for data: 5895881916
I0417 12:03:37.866818 28942 layer_factory.hpp:77] Creating layer conv2a
I0417 12:03:37.866829 28942 net.cpp:100] Creating Layer conv2a
I0417 12:03:37.866833 28942 net.cpp:434] conv2a <- pool1
I0417 12:03:37.866839 28942 net.cpp:408] conv2a -> conv2a
I0417 12:03:37.877652 28942 net.cpp:150] Setting up conv2a
I0417 12:03:37.877681 28942 net.cpp:157] Top shape: 1 128 768 56 56 (308281344)
I0417 12:03:37.877686 28942 net.cpp:165] Memory required for data: 7129007292
I0417 12:03:37.877698 28942 layer_factory.hpp:77] Creating layer relu2a
I0417 12:03:37.877707 28942 net.cpp:100] Creating Layer relu2a
I0417 12:03:37.877712 28942 net.cpp:434] relu2a <- conv2a
I0417 12:03:37.877717 28942 net.cpp:395] relu2a -> conv2a (in-place)
I0417 12:03:37.877725 28942 net.cpp:150] Setting up relu2a
I0417 12:03:37.877730 28942 net.cpp:157] Top shape: 1 128 768 56 56 (308281344)
I0417 12:03:37.877733 28942 net.cpp:165] Memory required for data: 8362132668
I0417 12:03:37.877737 28942 layer_factory.hpp:77] Creating layer pool2
I0417 12:03:37.877746 28942 net.cpp:100] Creating Layer pool2
I0417 12:03:37.877749 28942 net.cpp:434] pool2 <- conv2a
I0417 12:03:37.877754 28942 net.cpp:408] pool2 -> pool2
I0417 12:03:37.877831 28942 net.cpp:150] Setting up pool2
I0417 12:03:37.877854 28942 net.cpp:157] Top shape: 1 128 384 28 28 (38535168)
I0417 12:03:37.877857 28942 net.cpp:165] Memory required for data: 8516273340
I0417 12:03:37.877861 28942 layer_factory.hpp:77] Creating layer conv3a
I0417 12:03:37.877872 28942 net.cpp:100] Creating Layer conv3a
I0417 12:03:37.877876 28942 net.cpp:434] conv3a <- pool2
I0417 12:03:37.877883 28942 net.cpp:408] conv3a -> conv3a
I0417 12:03:37.904191 28942 net.cpp:150] Setting up conv3a
I0417 12:03:37.904235 28942 net.cpp:157] Top shape: 1 256 384 28 28 (77070336)
I0417 12:03:37.904245 28942 net.cpp:165] Memory required for data: 8824554684
I0417 12:03:37.904273 28942 layer_factory.hpp:77] Creating layer relu3a
I0417 12:03:37.904289 28942 net.cpp:100] Creating Layer relu3a
I0417 12:03:37.904300 28942 net.cpp:434] relu3a <- conv3a
I0417 12:03:37.904317 28942 net.cpp:395] relu3a -> conv3a (in-place)
I0417 12:03:37.904336 28942 net.cpp:150] Setting up relu3a
I0417 12:03:37.904347 28942 net.cpp:157] Top shape: 1 256 384 28 28 (77070336)
I0417 12:03:37.904355 28942 net.cpp:165] Memory required for data: 9132836028
I0417 12:03:37.904362 28942 layer_factory.hpp:77] Creating layer conv3b
I0417 12:03:37.904386 28942 net.cpp:100] Creating Layer conv3b
I0417 12:03:37.904394 28942 net.cpp:434] conv3b <- conv3a
I0417 12:03:37.904407 28942 net.cpp:408] conv3b -> conv3b
I0417 12:03:37.963490 28942 net.cpp:150] Setting up conv3b
I0417 12:03:37.963515 28942 net.cpp:157] Top shape: 1 256 384 28 28 (77070336)
I0417 12:03:37.963520 28942 net.cpp:165] Memory required for data: 9441117372
I0417 12:03:37.963529 28942 layer_factory.hpp:77] Creating layer relu3b
I0417 12:03:37.963541 28942 net.cpp:100] Creating Layer relu3b
I0417 12:03:37.963546 28942 net.cpp:434] relu3b <- conv3b
I0417 12:03:37.963553 28942 net.cpp:395] relu3b -> conv3b (in-place)
I0417 12:03:37.963562 28942 net.cpp:150] Setting up relu3b
I0417 12:03:37.963567 28942 net.cpp:157] Top shape: 1 256 384 28 28 (77070336)
I0417 12:03:37.963569 28942 net.cpp:165] Memory required for data: 9749398716
I0417 12:03:37.963573 28942 layer_factory.hpp:77] Creating layer pool3
I0417 12:03:37.963583 28942 net.cpp:100] Creating Layer pool3
I0417 12:03:37.963587 28942 net.cpp:434] pool3 <- conv3b
I0417 12:03:37.963591 28942 net.cpp:408] pool3 -> pool3
I0417 12:03:37.963646 28942 net.cpp:150] Setting up pool3
I0417 12:03:37.963654 28942 net.cpp:157] Top shape: 1 256 192 14 14 (9633792)
I0417 12:03:37.963657 28942 net.cpp:165] Memory required for data: 9787933884
I0417 12:03:37.963661 28942 layer_factory.hpp:77] Creating layer conv4a
I0417 12:03:37.963672 28942 net.cpp:100] Creating Layer conv4a
I0417 12:03:37.963676 28942 net.cpp:434] conv4a <- pool3
I0417 12:03:37.963682 28942 net.cpp:408] conv4a -> conv4a
I0417 12:03:38.060745 28942 net.cpp:150] Setting up conv4a
I0417 12:03:38.060771 28942 net.cpp:157] Top shape: 1 512 192 14 14 (19267584)
I0417 12:03:38.060775 28942 net.cpp:165] Memory required for data: 9865004220
I0417 12:03:38.060791 28942 layer_factory.hpp:77] Creating layer relu4a
I0417 12:03:38.060801 28942 net.cpp:100] Creating Layer relu4a
I0417 12:03:38.060806 28942 net.cpp:434] relu4a <- conv4a
I0417 12:03:38.060813 28942 net.cpp:395] relu4a -> conv4a (in-place)
I0417 12:03:38.060823 28942 net.cpp:150] Setting up relu4a
I0417 12:03:38.060828 28942 net.cpp:157] Top shape: 1 512 192 14 14 (19267584)
I0417 12:03:38.060832 28942 net.cpp:165] Memory required for data: 9942074556
I0417 12:03:38.060834 28942 layer_factory.hpp:77] Creating layer conv4b
I0417 12:03:38.060848 28942 net.cpp:100] Creating Layer conv4b
I0417 12:03:38.060853 28942 net.cpp:434] conv4b <- conv4a
I0417 12:03:38.060858 28942 net.cpp:408] conv4b -> conv4b
I0417 12:03:38.253360 28942 net.cpp:150] Setting up conv4b
I0417 12:03:38.253388 28942 net.cpp:157] Top shape: 1 512 192 14 14 (19267584)
I0417 12:03:38.253392 28942 net.cpp:165] Memory required for data: 10019144892
I0417 12:03:38.253402 28942 layer_factory.hpp:77] Creating layer relu4b
I0417 12:03:38.253412 28942 net.cpp:100] Creating Layer relu4b
I0417 12:03:38.253417 28942 net.cpp:434] relu4b <- conv4b
I0417 12:03:38.253425 28942 net.cpp:395] relu4b -> conv4b (in-place)
I0417 12:03:38.253434 28942 net.cpp:150] Setting up relu4b
I0417 12:03:38.253444 28942 net.cpp:157] Top shape: 1 512 192 14 14 (19267584)
I0417 12:03:38.253448 28942 net.cpp:165] Memory required for data: 10096215228
I0417 12:03:38.253451 28942 layer_factory.hpp:77] Creating layer pool4
I0417 12:03:38.253458 28942 net.cpp:100] Creating Layer pool4
I0417 12:03:38.253463 28942 net.cpp:434] pool4 <- conv4b
I0417 12:03:38.253468 28942 net.cpp:408] pool4 -> pool4
I0417 12:03:38.253520 28942 net.cpp:150] Setting up pool4
I0417 12:03:38.253530 28942 net.cpp:157] Top shape: 1 512 96 7 7 (2408448)
I0417 12:03:38.253533 28942 net.cpp:165] Memory required for data: 10105849020
I0417 12:03:38.253536 28942 layer_factory.hpp:77] Creating layer conv5a
I0417 12:03:38.253548 28942 net.cpp:100] Creating Layer conv5a
I0417 12:03:38.253556 28942 net.cpp:434] conv5a <- pool4
I0417 12:03:38.253564 28942 net.cpp:408] conv5a -> conv5a
I0417 12:03:38.445268 28942 net.cpp:150] Setting up conv5a
I0417 12:03:38.445298 28942 net.cpp:157] Top shape: 1 512 96 7 7 (2408448)
I0417 12:03:38.445304 28942 net.cpp:165] Memory required for data: 10115482812
I0417 12:03:38.445317 28942 layer_factory.hpp:77] Creating layer relu5a
I0417 12:03:38.445330 28942 net.cpp:100] Creating Layer relu5a
I0417 12:03:38.445343 28942 net.cpp:434] relu5a <- conv5a
I0417 12:03:38.445358 28942 net.cpp:395] relu5a -> conv5a (in-place)
I0417 12:03:38.445369 28942 net.cpp:150] Setting up relu5a
I0417 12:03:38.445374 28942 net.cpp:157] Top shape: 1 512 96 7 7 (2408448)
I0417 12:03:38.445377 28942 net.cpp:165] Memory required for data: 10125116604
I0417 12:03:38.445381 28942 layer_factory.hpp:77] Creating layer conv5b
I0417 12:03:38.445394 28942 net.cpp:100] Creating Layer conv5b
I0417 12:03:38.445397 28942 net.cpp:434] conv5b <- conv5a
I0417 12:03:38.445402 28942 net.cpp:408] conv5b -> conv5b
I0417 12:03:38.632421 28942 net.cpp:150] Setting up conv5b
I0417 12:03:38.632445 28942 net.cpp:157] Top shape: 1 512 96 7 7 (2408448)
I0417 12:03:38.632450 28942 net.cpp:165] Memory required for data: 10134750396
I0417 12:03:38.632458 28942 layer_factory.hpp:77] Creating layer relu5b
I0417 12:03:38.632467 28942 net.cpp:100] Creating Layer relu5b
I0417 12:03:38.632472 28942 net.cpp:434] relu5b <- conv5b
I0417 12:03:38.632480 28942 net.cpp:395] relu5b -> conv5b (in-place)
I0417 12:03:38.632488 28942 net.cpp:150] Setting up relu5b
I0417 12:03:38.632493 28942 net.cpp:157] Top shape: 1 512 96 7 7 (2408448)
I0417 12:03:38.632496 28942 net.cpp:165] Memory required for data: 10144384188
I0417 12:03:38.632499 28942 layer_factory.hpp:77] Creating layer conv5b_relu5b_0_split
I0417 12:03:38.632504 28942 net.cpp:100] Creating Layer conv5b_relu5b_0_split
I0417 12:03:38.632508 28942 net.cpp:434] conv5b_relu5b_0_split <- conv5b
I0417 12:03:38.632513 28942 net.cpp:408] conv5b_relu5b_0_split -> conv5b_relu5b_0_split_0
I0417 12:03:38.632519 28942 net.cpp:408] conv5b_relu5b_0_split -> conv5b_relu5b_0_split_1
I0417 12:03:38.632568 28942 net.cpp:150] Setting up conv5b_relu5b_0_split
I0417 12:03:38.632576 28942 net.cpp:157] Top shape: 1 512 96 7 7 (2408448)
I0417 12:03:38.632580 28942 net.cpp:157] Top shape: 1 512 96 7 7 (2408448)
I0417 12:03:38.632583 28942 net.cpp:165] Memory required for data: 10163651772
I0417 12:03:38.632586 28942 layer_factory.hpp:77] Creating layer rpn_conv/3x3
I0417 12:03:38.632598 28942 net.cpp:100] Creating Layer rpn_conv/3x3
I0417 12:03:38.632604 28942 net.cpp:434] rpn_conv/3x3 <- conv5b_relu5b_0_split_0
I0417 12:03:38.632609 28942 net.cpp:408] rpn_conv/3x3 -> rpn/output
I0417 12:03:38.818812 28942 net.cpp:150] Setting up rpn_conv/3x3
I0417 12:03:38.818833 28942 net.cpp:157] Top shape: 1 512 96 4 4 (786432)
I0417 12:03:38.818837 28942 net.cpp:165] Memory required for data: 10166797500
I0417 12:03:38.818851 28942 layer_factory.hpp:77] Creating layer rpn_relu/3x3
I0417 12:03:38.818862 28942 net.cpp:100] Creating Layer rpn_relu/3x3
I0417 12:03:38.818866 28942 net.cpp:434] rpn_relu/3x3 <- rpn/output
I0417 12:03:38.818873 28942 net.cpp:395] rpn_relu/3x3 -> rpn/output (in-place)
I0417 12:03:38.818881 28942 net.cpp:150] Setting up rpn_relu/3x3
I0417 12:03:38.818889 28942 net.cpp:157] Top shape: 1 512 96 4 4 (786432)
I0417 12:03:38.818893 28942 net.cpp:165] Memory required for data: 10169943228
I0417 12:03:38.818897 28942 layer_factory.hpp:77] Creating layer rpn_conv/3x3_2
I0417 12:03:38.818907 28942 net.cpp:100] Creating Layer rpn_conv/3x3_2
I0417 12:03:38.818910 28942 net.cpp:434] rpn_conv/3x3_2 <- rpn/output
I0417 12:03:38.818915 28942 net.cpp:408] rpn_conv/3x3_2 -> rpn/output_2
I0417 12:03:39.003593 28942 net.cpp:150] Setting up rpn_conv/3x3_2
I0417 12:03:39.003618 28942 net.cpp:157] Top shape: 1 512 96 2 2 (196608)
I0417 12:03:39.003623 28942 net.cpp:165] Memory required for data: 10170729660
I0417 12:03:39.003631 28942 layer_factory.hpp:77] Creating layer rpn_relu/3x3_2
I0417 12:03:39.003643 28942 net.cpp:100] Creating Layer rpn_relu/3x3_2
I0417 12:03:39.003648 28942 net.cpp:434] rpn_relu/3x3_2 <- rpn/output_2
I0417 12:03:39.003654 28942 net.cpp:395] rpn_relu/3x3_2 -> rpn/output_2 (in-place)
I0417 12:03:39.003661 28942 net.cpp:150] Setting up rpn_relu/3x3_2
I0417 12:03:39.003666 28942 net.cpp:157] Top shape: 1 512 96 2 2 (196608)
I0417 12:03:39.003669 28942 net.cpp:165] Memory required for data: 10171516092
I0417 12:03:39.003672 28942 layer_factory.hpp:77] Creating layer rpn/output_pool
I0417 12:03:39.003679 28942 net.cpp:100] Creating Layer rpn/output_pool
I0417 12:03:39.003682 28942 net.cpp:434] rpn/output_pool <- rpn/output_2
I0417 12:03:39.003688 28942 net.cpp:408] rpn/output_pool -> rpn/output_pool
I0417 12:03:39.003734 28942 net.cpp:150] Setting up rpn/output_pool
I0417 12:03:39.003742 28942 net.cpp:157] Top shape: 1 512 96 1 1 (49152)
I0417 12:03:39.003746 28942 net.cpp:165] Memory required for data: 10171712700
I0417 12:03:39.003749 28942 layer_factory.hpp:77] Creating layer rpn/output_pool_rpn/output_pool_0_split
I0417 12:03:39.003754 28942 net.cpp:100] Creating Layer rpn/output_pool_rpn/output_pool_0_split
I0417 12:03:39.003758 28942 net.cpp:434] rpn/output_pool_rpn/output_pool_0_split <- rpn/output_pool
I0417 12:03:39.003762 28942 net.cpp:408] rpn/output_pool_rpn/output_pool_0_split -> rpn/output_pool_rpn/output_pool_0_split_0
I0417 12:03:39.003770 28942 net.cpp:408] rpn/output_pool_rpn/output_pool_0_split -> rpn/output_pool_rpn/output_pool_0_split_1
I0417 12:03:39.003808 28942 net.cpp:150] Setting up rpn/output_pool_rpn/output_pool_0_split
I0417 12:03:39.003816 28942 net.cpp:157] Top shape: 1 512 96 1 1 (49152)
I0417 12:03:39.003820 28942 net.cpp:157] Top shape: 1 512 96 1 1 (49152)
I0417 12:03:39.003824 28942 net.cpp:165] Memory required for data: 10172105916
I0417 12:03:39.003828 28942 layer_factory.hpp:77] Creating layer rpn_cls_score
I0417 12:03:39.003837 28942 net.cpp:100] Creating Layer rpn_cls_score
I0417 12:03:39.003841 28942 net.cpp:434] rpn_cls_score <- rpn/output_pool_rpn/output_pool_0_split_0
I0417 12:03:39.003846 28942 net.cpp:408] rpn_cls_score -> rpn_cls_score
I0417 12:03:39.005087 28942 net.cpp:150] Setting up rpn_cls_score
I0417 12:03:39.005096 28942 net.cpp:157] Top shape: 1 74 96 1 1 (7104)
I0417 12:03:39.005100 28942 net.cpp:165] Memory required for data: 10172134332
I0417 12:03:39.005106 28942 layer_factory.hpp:77] Creating layer rpn_cls_score_rpn_cls_score_0_split
I0417 12:03:39.005112 28942 net.cpp:100] Creating Layer rpn_cls_score_rpn_cls_score_0_split
I0417 12:03:39.005116 28942 net.cpp:434] rpn_cls_score_rpn_cls_score_0_split <- rpn_cls_score
I0417 12:03:39.005121 28942 net.cpp:408] rpn_cls_score_rpn_cls_score_0_split -> rpn_cls_score_rpn_cls_score_0_split_0
I0417 12:03:39.005126 28942 net.cpp:408] rpn_cls_score_rpn_cls_score_0_split -> rpn_cls_score_rpn_cls_score_0_split_1
I0417 12:03:39.005174 28942 net.cpp:150] Setting up rpn_cls_score_rpn_cls_score_0_split
I0417 12:03:39.005182 28942 net.cpp:157] Top shape: 1 74 96 1 1 (7104)
I0417 12:03:39.005185 28942 net.cpp:157] Top shape: 1 74 96 1 1 (7104)
I0417 12:03:39.005189 28942 net.cpp:165] Memory required for data: 10172191164
I0417 12:03:39.005192 28942 layer_factory.hpp:77] Creating layer rpn_twin_pred
I0417 12:03:39.005203 28942 net.cpp:100] Creating Layer rpn_twin_pred
I0417 12:03:39.005208 28942 net.cpp:434] rpn_twin_pred <- rpn/output_pool_rpn/output_pool_0_split_1
I0417 12:03:39.005213 28942 net.cpp:408] rpn_twin_pred -> rpn_twin_pred
I0417 12:03:39.006435 28942 net.cpp:150] Setting up rpn_twin_pred
I0417 12:03:39.006446 28942 net.cpp:157] Top shape: 1 74 96 1 1 (7104)
I0417 12:03:39.006450 28942 net.cpp:165] Memory required for data: 10172219580
I0417 12:03:39.006456 28942 layer_factory.hpp:77] Creating layer rpn_twin_pred_rpn_twin_pred_0_split
I0417 12:03:39.006461 28942 net.cpp:100] Creating Layer rpn_twin_pred_rpn_twin_pred_0_split
I0417 12:03:39.006465 28942 net.cpp:434] rpn_twin_pred_rpn_twin_pred_0_split <- rpn_twin_pred
I0417 12:03:39.006471 28942 net.cpp:408] rpn_twin_pred_rpn_twin_pred_0_split -> rpn_twin_pred_rpn_twin_pred_0_split_0
I0417 12:03:39.006476 28942 net.cpp:408] rpn_twin_pred_rpn_twin_pred_0_split -> rpn_twin_pred_rpn_twin_pred_0_split_1
I0417 12:03:39.006518 28942 net.cpp:150] Setting up rpn_twin_pred_rpn_twin_pred_0_split
I0417 12:03:39.006525 28942 net.cpp:157] Top shape: 1 74 96 1 1 (7104)
I0417 12:03:39.006530 28942 net.cpp:157] Top shape: 1 74 96 1 1 (7104)
I0417 12:03:39.006532 28942 net.cpp:165] Memory required for data: 10172276412
I0417 12:03:39.006536 28942 layer_factory.hpp:77] Creating layer rpn_cls_score_reshape
I0417 12:03:39.006547 28942 net.cpp:100] Creating Layer rpn_cls_score_reshape
I0417 12:03:39.006556 28942 net.cpp:434] rpn_cls_score_reshape <- rpn_cls_score_rpn_cls_score_0_split_0
I0417 12:03:39.006562 28942 net.cpp:408] rpn_cls_score_reshape -> rpn_cls_score_reshape
I0417 12:03:39.006593 28942 net.cpp:150] Setting up rpn_cls_score_reshape
I0417 12:03:39.006602 28942 net.cpp:157] Top shape: 1 2 3552 1 1 (7104)
I0417 12:03:39.006605 28942 net.cpp:165] Memory required for data: 10172304828
I0417 12:03:39.006608 28942 layer_factory.hpp:77] Creating layer rpn_cls_score_reshape_rpn_cls_score_reshape_0_split
I0417 12:03:39.006613 28942 net.cpp:100] Creating Layer rpn_cls_score_reshape_rpn_cls_score_reshape_0_split
I0417 12:03:39.006618 28942 net.cpp:434] rpn_cls_score_reshape_rpn_cls_score_reshape_0_split <- rpn_cls_score_reshape
I0417 12:03:39.006623 28942 net.cpp:408] rpn_cls_score_reshape_rpn_cls_score_reshape_0_split -> rpn_cls_score_reshape_rpn_cls_score_reshape_0_split_0
I0417 12:03:39.006633 28942 net.cpp:408] rpn_cls_score_reshape_rpn_cls_score_reshape_0_split -> rpn_cls_score_reshape_rpn_cls_score_reshape_0_split_1
I0417 12:03:39.006638 28942 net.cpp:408] rpn_cls_score_reshape_rpn_cls_score_reshape_0_split -> rpn_cls_score_reshape_rpn_cls_score_reshape_0_split_2
I0417 12:03:39.006688 28942 net.cpp:150] Setting up rpn_cls_score_reshape_rpn_cls_score_reshape_0_split
I0417 12:03:39.006696 28942 net.cpp:157] Top shape: 1 2 3552 1 1 (7104)
I0417 12:03:39.006700 28942 net.cpp:157] Top shape: 1 2 3552 1 1 (7104)
I0417 12:03:39.006705 28942 net.cpp:157] Top shape: 1 2 3552 1 1 (7104)
I0417 12:03:39.006707 28942 net.cpp:165] Memory required for data: 10172390076
I0417 12:03:39.006711 28942 layer_factory.hpp:77] Creating layer rpn-data
I0417 12:03:39.007110 28942 net.cpp:100] Creating Layer rpn-data
I0417 12:03:39.007122 28942 net.cpp:434] rpn-data <- rpn_cls_score_rpn_cls_score_0_split_1
I0417 12:03:39.007128 28942 net.cpp:434] rpn-data <- gt_boxes_data_1_split_0
I0417 12:03:39.007133 28942 net.cpp:434] rpn-data <- data_data_0_split_1
I0417 12:03:39.007138 28942 net.cpp:408] rpn-data -> rpn_labels
I0417 12:03:39.007144 28942 net.cpp:408] rpn-data -> rpn_twin_targets
I0417 12:03:39.007150 28942 net.cpp:408] rpn-data -> rpn_twin_inside_weights
I0417 12:03:39.007156 28942 net.cpp:408] rpn-data -> rpn_twin_outside_weights
I0417 12:03:39.009412 28942 net.cpp:150] Setting up rpn-data
I0417 12:03:39.009426 28942 net.cpp:157] Top shape: 1 1 3552 1 1 (3552)
I0417 12:03:39.009431 28942 net.cpp:157] Top shape: 1 74 96 1 1 (7104)
I0417 12:03:39.009435 28942 net.cpp:157] Top shape: 1 74 96 1 1 (7104)
I0417 12:03:39.009439 28942 net.cpp:157] Top shape: 1 74 96 1 1 (7104)
I0417 12:03:39.009443 28942 net.cpp:165] Memory required for data: 10172489532
I0417 12:03:39.009447 28942 layer_factory.hpp:77] Creating layer rpn_labels_rpn-data_0_split
I0417 12:03:39.009452 28942 net.cpp:100] Creating Layer rpn_labels_rpn-data_0_split
I0417 12:03:39.009456 28942 net.cpp:434] rpn_labels_rpn-data_0_split <- rpn_labels
I0417 12:03:39.009462 28942 net.cpp:408] rpn_labels_rpn-data_0_split -> rpn_labels_rpn-data_0_split_0
I0417 12:03:39.009469 28942 net.cpp:408] rpn_labels_rpn-data_0_split -> rpn_labels_rpn-data_0_split_1
I0417 12:03:39.009508 28942 net.cpp:150] Setting up rpn_labels_rpn-data_0_split
I0417 12:03:39.009516 28942 net.cpp:157] Top shape: 1 1 3552 1 1 (3552)
I0417 12:03:39.009519 28942 net.cpp:157] Top shape: 1 1 3552 1 1 (3552)
I0417 12:03:39.009522 28942 net.cpp:165] Memory required for data: 10172517948
I0417 12:03:39.009526 28942 layer_factory.hpp:77] Creating layer rpn_loss_cls
I0417 12:03:39.009534 28942 net.cpp:100] Creating Layer rpn_loss_cls
I0417 12:03:39.009541 28942 net.cpp:434] rpn_loss_cls <- rpn_cls_score_reshape_rpn_cls_score_reshape_0_split_0
I0417 12:03:39.009546 28942 net.cpp:434] rpn_loss_cls <- rpn_labels_rpn-data_0_split_0
…
I0417 12:03:39.009847 28942 layer_factory.hpp:77] Creating layer rpn_accuarcy
I0417 12:03:39.009856 28942 net.cpp:100] Creating Layer rpn_accuarcy
I0417 12:03:39.009865 28942 net.cpp:434] rpn_accuarcy <- rpn_cls_score_reshape_rpn_cls_score_reshape_0_split_1
I0417 12:03:39.009869 28942 net.cpp:434] rpn_accuarcy <- rpn_labels_rpn-data_0_split_1
I0417 12:03:39.009874 28942 net.cpp:408] rpn_accuarcy -> rpn_accuarcy
I0417 12:03:39.009881 28942 net.cpp:408] rpn_accuarcy -> rpn_accuarcy_class
I0417 12:03:39.009924 28942 net.cpp:150] Setting up rpn_accuarcy
I0417 12:03:39.009933 28942 net.cpp:157] Top shape: (1)
I0417 12:03:39.009938 28942 net.cpp:157] Top shape: 2 (2)
I0417 12:03:39.009940 28942 net.cpp:165] Memory required for data: 10172517968
I0417 12:03:39.009944 28942 layer_factory.hpp:77] Creating layer rpn_cls_prob
I0417 12:03:39.009948 28942 net.cpp:100] Creating Layer rpn_cls_prob
I0417 12:03:39.009953 28942 net.cpp:434] rpn_cls_prob <- rpn_cls_score_reshape_rpn_cls_score_reshape_0_split_2
I0417 12:03:39.009958 28942 net.cpp:408] rpn_cls_prob -> rpn_cls_prob
I0417 12:03:39.010023 28942 net.cpp:150] Setting up rpn_cls_prob
I0417 12:03:39.010031 28942 net.cpp:157] Top shape: 1 2 3552 1 1 (7104)
I0417 12:03:39.010035 28942 net.cpp:165] Memory required for data: 10172546384
I0417 12:03:39.010038 28942 layer_factory.hpp:77] Creating layer rpn_cls_prob_reshape
I0417 12:03:39.010044 28942 net.cpp:100] Creating Layer rpn_cls_prob_reshape
I0417 12:03:39.010047 28942 net.cpp:434] rpn_cls_prob_reshape <- rpn_cls_prob
I0417 12:03:39.010052 28942 net.cpp:408] rpn_cls_prob_reshape -> rpn_cls_prob_reshape
I0417 12:03:39.010079 28942 net.cpp:150] Setting up rpn_cls_prob_reshape
I0417 12:03:39.010087 28942 net.cpp:157] Top shape: 1 74 96 1 1 (7104)
I0417 12:03:39.010090 28942 net.cpp:165] Memory required for data: 10172574800
I0417 12:03:39.010093 28942 layer_factory.hpp:77] Creating layer proposal
I0417 12:03:39.010624 28942 net.cpp:100] Creating Layer proposal
I0417 12:03:39.010637 28942 net.cpp:434] proposal <- rpn_cls_prob_reshape
I0417 12:03:39.010643 28942 net.cpp:434] proposal <- rpn_twin_pred_rpn_twin_pred_0_split_1
I0417 12:03:39.010648 28942 net.cpp:408] proposal -> rpn_rois
I0417 12:03:39.012871 28942 net.cpp:150] Setting up proposal
I0417 12:03:39.012887 28942 net.cpp:157] Top shape: 1 3 (3)
I0417 12:03:39.012890 28942 net.cpp:165] Memory required for data: 10172574812
I0417 12:03:39.012894 28942 layer_factory.hpp:77] Creating layer roi-data
I0417 12:03:39.013027 28942 net.cpp:100] Creating Layer roi-data
I0417 12:03:39.013038 28942 net.cpp:434] roi-data <- rpn_rois
I0417 12:03:39.013044 28942 net.cpp:434] roi-data <- gt_boxes_data_1_split_1
I0417 12:03:39.013051 28942 net.cpp:408] roi-data -> rois
I0417 12:03:39.013057 28942 net.cpp:408] roi-data -> labels
I0417 12:03:39.013062 28942 net.cpp:408] roi-data -> twin_targets
I0417 12:03:39.013067 28942 net.cpp:408] roi-data -> twin_inside_weights
I0417 12:03:39.013073 28942 net.cpp:408] roi-data -> twin_outside_weights
I0417 12:03:39.013392 28942 net.cpp:150] Setting up roi-data
I0417 12:03:39.013406 28942 net.cpp:157] Top shape: 1 3 (3)
I0417 12:03:39.013409 28942 net.cpp:157] Top shape: 1 1 (1)
I0417 12:03:39.013413 28942 net.cpp:157] Top shape: 1 402 (402)
I0417 12:03:39.013417 28942 net.cpp:157] Top shape: 1 402 (402)
I0417 12:03:39.013420 28942 net.cpp:157] Top shape: 1 402 (402)
I0417 12:03:39.013423 28942 net.cpp:165] Memory required for data: 10172579652
I0417 12:03:39.013427 28942 layer_factory.hpp:77] Creating layer labels_roi-data_1_split
I0417 12:03:39.013432 28942 net.cpp:100] Creating Layer labels_roi-data_1_split
I0417 12:03:39.013437 28942 net.cpp:434] labels_roi-data_1_split <- labels
I0417 12:03:39.013442 28942 net.cpp:408] labels_roi-data_1_split -> labels_roi-data_1_split_0
I0417 12:03:39.013448 28942 net.cpp:408] labels_roi-data_1_split -> labels_roi-data_1_split_1
I0417 12:03:39.013489 28942 net.cpp:150] Setting up labels_roi-data_1_split
I0417 12:03:39.013495 28942 net.cpp:157] Top shape: 1 1 (1)
I0417 12:03:39.013499 28942 net.cpp:157] Top shape: 1 1 (1)
I0417 12:03:39.013502 28942 net.cpp:165] Memory required for data: 10172579660
I0417 12:03:39.013505 28942 layer_factory.hpp:77] Creating layer roi_pool5
I0417 12:03:39.013520 28942 net.cpp:100] Creating Layer roi_pool5
I0417 12:03:39.013523 28942 net.cpp:434] roi_pool5 <- conv5b_relu5b_0_split_1
I0417 12:03:39.013528 28942 net.cpp:434] roi_pool5 <- rois
I0417 12:03:39.013535 28942 net.cpp:408] roi_pool5 -> pool5
I0417 12:03:39.013542 28942 roi_pooling_layer.cpp:34] Temporal scale: 0.125
I0417 12:03:39.013548 28942 roi_pooling_layer.cpp:35] Spatial scale: 0.0625
I0417 12:03:39.013589 28942 net.cpp:150] Setting up roi_pool5
I0417 12:03:39.013595 28942 net.cpp:157] Top shape: 1 512 1 4 4 (8192)
I0417 12:03:39.013599 28942 net.cpp:165] Memory required for data: 10172612428
I0417 12:03:39.013602 28942 layer_factory.hpp:77] Creating layer fc6
I0417 12:03:39.013610 28942 net.cpp:100] Creating Layer fc6
I0417 12:03:39.013614 28942 net.cpp:434] fc6 <- pool5
I0417 12:03:39.013620 28942 net.cpp:408] fc6 -> fc6
I0417 12:03:39.888298 28942 net.cpp:150] Setting up fc6
I0417 12:03:39.888321 28942 net.cpp:157] Top shape: 1 4096 (4096)
I0417 12:03:39.888325 28942 net.cpp:165] Memory required for data: 10172628812
I0417 12:03:39.888334 28942 layer_factory.hpp:77] Creating layer relu6
I0417 12:03:39.888344 28942 net.cpp:100] Creating Layer relu6
I0417 12:03:39.888348 28942 net.cpp:434] relu6 <- fc6
I0417 12:03:39.888355 28942 net.cpp:395] relu6 -> fc6 (in-place)
I0417 12:03:39.888363 28942 net.cpp:150] Setting up relu6
I0417 12:03:39.888367 28942 net.cpp:157] Top shape: 1 4096 (4096)
I0417 12:03:39.888370 28942 net.cpp:165] Memory required for data: 10172645196
I0417 12:03:39.888373 28942 layer_factory.hpp:77] Creating layer drop6
I0417 12:03:39.888386 28942 net.cpp:100] Creating Layer drop6
I0417 12:03:39.888389 28942 net.cpp:434] drop6 <- fc6
I0417 12:03:39.888393 28942 net.cpp:395] drop6 -> fc6 (in-place)
I0417 12:03:39.888422 28942 net.cpp:150] Setting up drop6
I0417 12:03:39.888428 28942 net.cpp:157] Top shape: 1 4096 (4096)
I0417 12:03:39.888432 28942 net.cpp:165] Memory required for data: 10172661580
I0417 12:03:39.888435 28942 layer_factory.hpp:77] Creating layer fc6_drop6_0_split
I0417 12:03:39.888443 28942 net.cpp:100] Creating Layer fc6_drop6_0_split
I0417 12:03:39.888447 28942 net.cpp:434] fc6_drop6_0_split <- fc6
I0417 12:03:39.888451 28942 net.cpp:408] fc6_drop6_0_split -> fc6_drop6_0_split_0
I0417 12:03:39.888458 28942 net.cpp:408] fc6_drop6_0_split -> fc6_drop6_0_split_1
I0417 12:03:39.888497 28942 net.cpp:150] Setting up fc6_drop6_0_split
I0417 12:03:39.888504 28942 net.cpp:157] Top shape: 1 4096 (4096)
I0417 12:03:39.888509 28942 net.cpp:157] Top shape: 1 4096 (4096)
I0417 12:03:39.888511 28942 net.cpp:165] Memory required for data: 10172694348
I0417 12:03:39.888514 28942 layer_factory.hpp:77] Creating layer cls_score
I0417 12:03:39.888522 28942 net.cpp:100] Creating Layer cls_score
I0417 12:03:39.888526 28942 net.cpp:434] cls_score <- fc6_drop6_0_split_0
I0417 12:03:39.888535 28942 net.cpp:408] cls_score -> cls_score
I0417 12:03:39.910193 28942 net.cpp:150] Setting up cls_score
I0417 12:03:39.910213 28942 net.cpp:157] Top shape: 1 201 (201)
I0417 12:03:39.910218 28942 net.cpp:165] Memory required for data: 10172695152
I0417 12:03:39.910225 28942 layer_factory.hpp:77] Creating layer cls_score_cls_score_0_split
I0417 12:03:39.910233 28942 net.cpp:100] Creating Layer cls_score_cls_score_0_split
I0417 12:03:39.910238 28942 net.cpp:434] cls_score_cls_score_0_split <- cls_score
I0417 12:03:39.910243 28942 net.cpp:408] cls_score_cls_score_0_split -> cls_score_cls_score_0_split_0
I0417 12:03:39.910250 28942 net.cpp:408] cls_score_cls_score_0_split -> cls_score_cls_score_0_split_1
I0417 12:03:39.910292 28942 net.cpp:150] Setting up cls_score_cls_score_0_split
I0417 12:03:39.910300 28942 net.cpp:157] Top shape: 1 201 (201)
I0417 12:03:39.910305 28942 net.cpp:157] Top shape: 1 201 (201)
I0417 12:03:39.910307 28942 net.cpp:165] Memory required for data: 10172696760
I0417 12:03:39.910311 28942 layer_factory.hpp:77] Creating layer twin_pred
I0417 12:03:39.910320 28942 net.cpp:100] Creating Layer twin_pred
I0417 12:03:39.910326 28942 net.cpp:434] twin_pred <- fc6_drop6_0_split_1
I0417 12:03:39.910334 28942 net.cpp:408] twin_pred -> twin_pred
I0417 12:03:39.953243 28942 net.cpp:150] Setting up twin_pred
I0417 12:03:39.953265 28942 net.cpp:157] Top shape: 1 402 (402)
I0417 12:03:39.953269 28942 net.cpp:165] Memory required for data: 10172698368
I0417 12:03:39.953279 28942 layer_factory.hpp:77] Creating layer loss_cls
I0417 12:03:39.953287 28942 net.cpp:100] Creating Layer loss_cls
I0417 12:03:39.953292 28942 net.cpp:434] loss_cls <- cls_score_cls_score_0_split_0
I0417 12:03:39.953299 28942 net.cpp:434] loss_cls <- labels_roi-data_1_split_0
I0417 12:03:39.953305 28942 net.cpp:408] loss_cls -> loss_cls
…
