…
stepsize: 350000
snapshot: 0
snapshot_prefix: "./experiments/activitynet/snapshot/activitynet"
average_loss: 100
iter_size: 1
I0416 13:23:16.127912 30319 solver.cpp:81] Creating training net from train_net file: ./experiments/activitynet/train.prototxt
I0416 13:23:16.129076 30319 net.cpp:58] Initializing net from parameters: 
name: "activitynet"
state {
  phase: TRAIN
}
layer {
  name: "data"
  type: "Python"
  top: "data"
  top: "gt_boxes"
  python_param {
    module: "roi_data_layer.layer"
    layer: "RoIDataLayer"
    param_str: "\'num_classes\': 100"
  }
}
layer {
  name: "conv1a"
  type: "Convolution"
  bottom: "data"
  top: "conv1a"
  param {
    lr_mult: 0
    decay_mult: 0
  }
  param {
    lr_mult: 0
    decay_mult: 0
  }
  convolution_param {
    num_output: 64
    pad: 1
    pad: 1
    pad: 1
    kernel_size: 3
    kernel_size: 3
    kernel_size: 3
    weight_filler {
      type: "gaussian"
      std: 0.01
    }
    bias_filler {
      type: "constant"
      value: 0
    }
  }
}
layer {
  name: "relu1a"
  type: "ReLU"
  bottom: "conv1a"
  top: "conv1a"
}
layer {
  name: "pool1"
  type: "Pooling"
  bottom: "conv1a"
  top: "pool1"
  pooling_param {
    pool: MAX
    kernel_size: 1
    kernel_size: 2
    kernel_size: 2
    stride: 1
    stride: 2
    stride: 2
  }
}
layer {
  name: "conv2a"
  type: "Convolution"
  bottom: "pool1"
  top: "conv2a"
  param {
    lr_mult: 0
    decay_mult: 0
  }
  param {
    lr_mult: 0
    decay_mult: 0
  }
  convolution_param {
    num_output: 128
    pad: 1
    pad: 1
    pad: 1
    kernel_size: 3
    kernel_size: 3
    kernel_size: 3
    weight_filler {
      type: "gaussian"
      std: 0.01
    }
    bias_filler {
      type: "constant"
      value: 1
    }
  }
}
layer {
  name: "relu2a"
  type: "ReLU"
  bottom: "conv2a"
  top: "conv2a"
}
layer {
  name: "pool2"
  type: "Pooling"
  bottom: "conv2a"
  top: "pool2"
  pooling_param {
    pool: MAX
    kernel_size: 2
    kernel_size: 2
    kernel_size: 2
    stride: 2
    stride: 2
    stride: 2
  }
}
layer {
  name: "conv3a"
  type: "Convolution"
  bottom: "pool2"
  top: "conv3a"
  param {
    lr_mult: 1
    decay_mult: 1
  }
  param {
    lr_mult: 2
    decay_mult: 0
  }
  convolution_param {
    num_output: 256
    pad: 1
    pad: 1
    pad: 1
    kernel_size: 3
    kernel_size: 3
    kernel_size: 3
    weight_filler {
      type: "gaussian"
      std: 0.01
    }
    bias_filler {
      type: "constant"
      value: 1
    }
  }
}
layer {
  name: "relu3a"
  type: "ReLU"
  bottom: "conv3a"
  top: "conv3a"
}
layer {
  name: "conv3b"
  type: "Convolution"
  bottom: "conv3a"
  top: "conv3b"
  param {
    lr_mult: 1
    decay_mult: 1
  }
  param {
    lr_mult: 2
    decay_mult: 0
  }
  convolution_param {
    num_output: 256
    pad: 1
    pad: 1
    pad: 1
    kernel_size: 3
    kernel_size: 3
    kernel_size: 3
    weight_filler {
      type: "gaussian"
      std: 0.01
    }
    bias_filler {
      type: "constant"
      value: 1
    }
  }
}
layer {
  name: "relu3b"
  type: "ReLU"
  bottom: "conv3b"
  top: "conv3b"
}
layer {
  name: "pool3"
  type: "Pooling"
  bottom: "conv3b"
  top: "pool3"
  pooling_param {
    pool: MAX
    kernel_size: 2
    kernel_size: 2
    kernel_size: 2
    stride: 2
    stride: 2
    stride: 2
  }
}
layer {
  name: "conv4a"
  type: "Convolution"
  bottom: "pool3"
  top: "conv4a"
  param {
    lr_mult: 1
    decay_mult: 1
  }
  param {
    lr_mult: 2
    decay_mult: 0
  }
  convolution_param {
    num_output: 512
    pad: 1
    pad: 1
    pad: 1
    kernel_size: 3
    kernel_size: 3
    kernel_size: 3
    weight_filler {
      type: "gaussian"
      std: 0.01
    }
    bias_filler {
      type: "constant"
      value: 1
    }
  }
}
layer {
  name: "relu4a"
  type: "ReLU"
  bottom: "conv4a"
  top: "conv4a"
}
layer {
  name: "conv4b"
  type: "Convolution"
  bottom: "conv4a"
  top: "conv4b"
  param {
    lr_mult: 1
    decay_mult: 1
  }
  param {
    lr_mult: 2
    decay_mult: 0
  }
  convolution_param {
    num_output: 512
    pad: 1
    pad: 1
    pad: 1
    kernel_size: 3
    kernel_size: 3
    kernel_size: 3
    weight_filler {
      type: "gaussian"
      std: 0.01
    }
    bias_filler {
      type: "constant"
      value: 1
    }
  }
}
layer {
  name: "relu4b"
  type: "ReLU"
  bottom: "conv4b"
  top: "conv4b"
}
layer {
  name: "pool4"
  type: "Pooling"
  bottom: "conv4b"
  top: "pool4"
  pooling_param {
    pool: MAX
    kernel_size: 2
    kernel_size: 2
    kernel_size: 2
    stride: 2
    stride: 2
    stride: 2
  }
}
layer {
  name: "conv5a"
  type: "Convolution"
  bottom: "pool4"
  top: "conv5a"
  param {
    lr_mult: 1
    decay_mult: 1
  }
  param {
    lr_mult: 2
    decay_mult: 0
  }
  convolution_param {
    num_output: 512
    pad: 1
    pad: 1
    pad: 1
    kernel_size: 3
    kernel_size: 3
    kernel_size: 3
    weight_filler {
      type: "gaussian"
      std: 0.01
    }
    bias_filler {
      type: "constant"
      value: 1
    }
  }
}
layer {
  name: "relu5a"
  type: "ReLU"
  bottom: "conv5a"
  top: "conv5a"
}
layer {
  name: "conv5b"
  type: "Convolution"
  bottom: "conv5a"
  top: "conv5b"
  param {
    lr_mult: 1
    decay_mult: 1
  }
  param {
    lr_mult: 2
    decay_mult: 0
  }
  convolution_param {
    num_output: 512
    pad: 1
    pad: 1
    pad: 1
    kernel_size: 3
    kernel_size: 3
    kernel_size: 3
    weight_filler {
      type: "gaussian"
      std: 0.01
    }
    bias_filler {
      type: "constant"
      value: 1
    }
  }
}
layer {
  name: "relu5b"
  type: "ReLU"
  bottom: "conv5b"
  top: "conv5b"
}
layer {
  name: "rpn_conv/3x3"
  type: "Convolution"
  bottom: "conv5b"
  top: "rpn/output"
  param {
    lr_mult: 1
    decay_mult: 1
  }
  param {
    lr_mult: 2
    decay_mult: 0
  }
  convolution_param {
    num_output: 512
    pad: 1
    pad: 1
    pad: 1
    kernel_size: 3
    kernel_size: 3
    kernel_size: 3
    stride: 1
    stride: 2
    stride: 2
    weight_filler {
      type: "gaussian"
      std: 0.01
    }
    bias_filler {
      type: "constant"
      value: 0
    }
  }
}
layer {
  name: "rpn_relu/3x3"
  type: "ReLU"
  bottom: "rpn/output"
  top: "rpn/output"
}
layer {
  name: "rpn_conv/3x3_2"
  type: "Convolution"
  bottom: "rpn/output"
  top: "rpn/output_2"
  param {
    lr_mult: 1
    decay_mult: 1
  }
  param {
    lr_mult: 2
    decay_mult: 0
  }
  convolution_param {
    num_output: 512
    pad: 1
    pad: 1
    pad: 1
    kernel_size: 3
    kernel_size: 3
    kernel_size: 3
    stride: 1
    stride: 2
    stride: 2
    weight_filler {
      type: "gaussian"
      std: 0.01
    }
    bias_filler {
      type: "constant"
      value: 0
    }
  }
}
layer {
  name: "rpn_relu/3x3_2"
  type: "ReLU"
  bottom: "rpn/output_2"
  top: "rpn/output_2"
}
layer {
  name: "rpn/output_pool"
  type: "Pooling"
  bottom: "rpn/output_2"
  top: "rpn/output_pool"
  pooling_param {
    pool: MAX
    kernel_size: 1
    kernel_size: 2
    kernel_size: 2
  }
}
layer {
  name: "rpn_cls_score"
  type: "Convolution"
  bottom: "rpn/output_pool"
  top: "rpn_cls_score"
  param {
    lr_mult: 1
    decay_mult: 1
  }
  param {
    lr_mult: 2
    decay_mult: 0
  }
  convolution_param {
    num_output: 74
    kernel_size: 1
    kernel_size: 1
    kernel_size: 1
    weight_filler {
      type: "gaussian"
      std: 0.01
    }
    bias_filler {
      type: "constant"
      value: 0
    }
  }
}
layer {
  name: "rpn_twin_pred"
  type: "Convolution"
  bottom: "rpn/output_pool"
  top: "rpn_twin_pred"
  param {
    lr_mult: 1
    decay_mult: 1
  }
  param {
    lr_mult: 2
    decay_mult: 0
  }
  convolution_param {
    num_output: 74
    kernel_size: 1
    kernel_size: 1
    kernel_size: 1
    weight_filler {
      type: "gaussian"
      std: 0.01
    }
    bias_filler {
      type: "constant"
      value: 0
    }
  }
}
layer {
  name: "rpn_cls_score_reshape"
  type: "Reshape"
  bottom: "rpn_cls_score"
  top: "rpn_cls_score_reshape"
  reshape_param {
    shape {
      dim: 0
      dim: 2
      dim: -1
      dim: 0
      dim: 0
    }
  }
}
layer {
  name: "rpn-data"
  type: "Python"
  bottom: "rpn_cls_score"
  bottom: "gt_boxes"
  bottom: "data"
  top: "rpn_labels"
  top: "rpn_twin_targets"
  top: "rpn_twin_inside_weights"
  top: "rpn_twin_outside_weights"
  python_param {
    module: "rpn.anchor_target_layer"
    layer: "AnchorTargetLayer"
    param_str: "\'feat_stride\': 8 \n\'scales\': !!python/tuple [1,1.25, 1.5,1.75, 2,2.5, 3,3.5, 4,4.5, 5,5.5, 6,7, 8,9,10,11,12,14,16,18,20,22,24,28,32,36,40,44,52,60,68,76,84,92,100]"
  }
}
layer {
  name: "rpn_loss_cls"
  type: "SoftmaxWithLoss"
  bottom: "rpn_cls_score_reshape"
  bottom: "rpn_labels"
  top: "rpn_cls_loss"
  loss_weight: 1
  propagate_down: true
  propagate_down: false
  loss_param {
    ignore_label: -1
    normalize: true
  }
}
layer {
  name: "rpn_loss_twin"
  type: "SmoothL1Loss"
  bottom: "rpn_twin_pred"
  bottom: "rpn_twin_targets"
  bottom: "rpn_twin_inside_weights"
  bottom: "rpn_twin_outside_weights"
  top: "rpn_loss_twin"
  loss_weight: 1
  smooth_l1_loss_param {
    sigma: 3
  }
}
layer {
  name: "rpn_accuarcy"
  type: "Accuracy"
  bottom: "rpn_cls_score_reshape"
  bottom: "rpn_labels"
  top: "rpn_accuarcy"
  top: "rpn_accuarcy_class"
  propagate_down: false
  propagate_down: false
  accuracy_param {
    ignore_label: -1
  }
}
layer {
  name: "rpn_cls_prob"
  type: "Softmax"
  bottom: "rpn_cls_score_reshape"
  top: "rpn_cls_prob"
}
layer {
  name: "rpn_cls_prob_reshape"
  type: "Reshape"
  bottom: "rpn_cls_prob"
  top: "rpn_cls_prob_reshape"
  reshape_param {
    shape {
      dim: 0
      dim: 74
      dim: -1
      dim: 0
      dim: 0
    }
  }
}
layer {
  name: "proposal"
  type: "Python"
  bottom: "rpn_cls_prob_reshape"
  bottom: "rpn_twin_pred"
  top: "rpn_rois"
  include {
    phase: TRAIN
  }
  python_param {
    module: "rpn.proposal_layer"
    layer: "ProposalLayer"
    param_str: "\'feat_stride\': 8 \n\'scales\': !!python/tuple [1,1.25, 1.5,1.75, 2,2.5, 3,3.5, 4,4.5, 5,5.5, 6,7, 8,9,10,11,12,14,16,18,20,22,24,28,32,36,40,44,52,60,68,76,84,92,100]"
  }
}
layer {
  name: "roi-data"
  type: "Python"
  bottom: "rpn_rois"
  bottom: "gt_boxes"
  top: "rois"
  top: "labels"
  top: "twin_targets"
  top: "twin_inside_weights"
  top: "twin_outside_weights"
  python_param {
    module: "rpn.proposal_target_layer"
    layer: "ProposalTargetLayer"
    param_str: "\'num_classes\': 201"
  }
}
layer {
  name: "roi_pool5"
  type: "ROIPooling"
  bottom: "conv5b"
  bottom: "rois"
  top: "pool5"
  roi_pooling_param {
    pooled_h: 4
    pooled_w: 4
    spatial_scale: 0.0625
    pooled_l: 1
    temporal_scale: 0.125
  }
}
layer {
  name: "fc6"
  type: "InnerProduct"
  bottom: "pool5"
  top: "fc6"
  param {
    lr_mult: 1
    decay_mult: 1
  }
  param {
    lr_mult: 2
    decay_mult: 0
  }
  inner_product_param {
    num_output: 4096
    weight_filler {
      type: "gaussian"
      std: 0.005
    }
    bias_filler {
      type: "constant"
      value: 1
    }
  }
}
layer {
  name: "relu6"
  type: "ReLU"
  bottom: "fc6"
  top: "fc6"
}
layer {
  name: "drop6"
  type: "Dropout"
  bottom: "fc6"
  top: "fc6"
  dropout_param {
    dropout_ratio: 0.5
  }
}
layer {
  name: "cls_score"
  type: "InnerProduct"
  bottom: "fc6"
  top: "cls_score"
  param {
    lr_mult: 1
    decay_mult: 1
  }
  param {
    lr_mult: 2
    decay_mult: 0
  }
  inner_product_param {
    num_output: 201
    weight_filler {
      type: "gaussian"
      std: 0.01
    }
    bias_filler {
      type: "constant"
      value: 0
    }
  }
}
layer {
  name: "twin_pred"
  type: "InnerProduct"
  bottom: "fc6"
  top: "twin_pred"
  param {
    lr_mult: 1
    decay_mult: 1
  }
  param {
    lr_mult: 2
    decay_mult: 0
  }
  inner_product_param {
    num_output: 402
    weight_filler {
      type: "gaussian"
      std: 0.001
    }
    bias_filler {
      type: "constant"
      value: 0
    }
  }
}
layer {
  name: "loss_cls"
  type: "SoftmaxWithLoss"
  bottom: "cls_score"
  bottom: "labels"
  top: "loss_cls"
  loss_weight: 1
  propagate_down: true
  propagate_down: false
}
layer {
  name: "loss_twin"
  type: "SmoothL1Loss"
  bottom: "twin_pred"
  bottom: "twin_targets"
  bottom: "twin_inside_weights"
  bottom: "twin_outside_weights"
  top: "loss_twin"
  loss_weight: 1
}
layer {
  name: "accuarcy"
  type: "Accuracy"
  bottom: "cls_score"
  bottom: "labels"
  top: "accuarcy"
  propagate_down: false
  propagate_down: false
  accuracy_param {
    ignore_label: -1
  }
}
I0416 13:23:16.129338 30319 layer_factory.hpp:77] Creating layer data
I0416 13:23:16.155222 30319 net.cpp:100] Creating Layer data
I0416 13:23:16.155246 30319 net.cpp:408] data -> data
I0416 13:23:16.155258 30319 net.cpp:408] data -> gt_boxes
RoiDataLayer: name_to_top: {'gt_windows': 1, 'data': 0}
I0416 13:23:16.168962 30319 net.cpp:150] Setting up data
I0416 13:23:16.168983 30319 net.cpp:157] Top shape: 1 3 768 112 112 (28901376)
I0416 13:23:16.168988 30319 net.cpp:157] Top shape: 1 101 (101)
I0416 13:23:16.168992 30319 net.cpp:165] Memory required for data: 115605908
I0416 13:23:16.168998 30319 layer_factory.hpp:77] Creating layer data_data_0_split
I0416 13:23:16.169009 30319 net.cpp:100] Creating Layer data_data_0_split
I0416 13:23:16.169015 30319 net.cpp:434] data_data_0_split <- data
I0416 13:23:16.169023 30319 net.cpp:408] data_data_0_split -> data_data_0_split_0
I0416 13:23:16.169031 30319 net.cpp:408] data_data_0_split -> data_data_0_split_1
I0416 13:23:16.169078 30319 net.cpp:150] Setting up data_data_0_split
I0416 13:23:16.169086 30319 net.cpp:157] Top shape: 1 3 768 112 112 (28901376)
I0416 13:23:16.169090 30319 net.cpp:157] Top shape: 1 3 768 112 112 (28901376)
I0416 13:23:16.169093 30319 net.cpp:165] Memory required for data: 346816916
I0416 13:23:16.169096 30319 layer_factory.hpp:77] Creating layer gt_boxes_data_1_split
I0416 13:23:16.169103 30319 net.cpp:100] Creating Layer gt_boxes_data_1_split
I0416 13:23:16.169106 30319 net.cpp:434] gt_boxes_data_1_split <- gt_boxes
I0416 13:23:16.169111 30319 net.cpp:408] gt_boxes_data_1_split -> gt_boxes_data_1_split_0
I0416 13:23:16.169116 30319 net.cpp:408] gt_boxes_data_1_split -> gt_boxes_data_1_split_1
I0416 13:23:16.169167 30319 net.cpp:150] Setting up gt_boxes_data_1_split
I0416 13:23:16.169183 30319 net.cpp:157] Top shape: 1 101 (101)
I0416 13:23:16.169190 30319 net.cpp:157] Top shape: 1 101 (101)
I0416 13:23:16.169194 30319 net.cpp:165] Memory required for data: 346817724
I0416 13:23:16.169199 30319 layer_factory.hpp:77] Creating layer conv1a
I0416 13:23:16.169219 30319 net.cpp:100] Creating Layer conv1a
I0416 13:23:16.169224 30319 net.cpp:434] conv1a <- data_data_0_split_0
I0416 13:23:16.169234 30319 net.cpp:408] conv1a -> conv1a
I0416 13:23:16.187613 30319 net.cpp:150] Setting up conv1a
I0416 13:23:16.187638 30319 net.cpp:157] Top shape: 1 64 768 112 112 (616562688)
I0416 13:23:16.187642 30319 net.cpp:165] Memory required for data: 2813068476
I0416 13:23:16.187665 30319 layer_factory.hpp:77] Creating layer relu1a
I0416 13:23:16.187678 30319 net.cpp:100] Creating Layer relu1a
I0416 13:23:16.187683 30319 net.cpp:434] relu1a <- conv1a
I0416 13:23:16.187688 30319 net.cpp:395] relu1a -> conv1a (in-place)
I0416 13:23:16.187700 30319 net.cpp:150] Setting up relu1a
I0416 13:23:16.187705 30319 net.cpp:157] Top shape: 1 64 768 112 112 (616562688)
I0416 13:23:16.187707 30319 net.cpp:165] Memory required for data: 5279319228
I0416 13:23:16.187711 30319 layer_factory.hpp:77] Creating layer pool1
I0416 13:23:16.187717 30319 net.cpp:100] Creating Layer pool1
I0416 13:23:16.187721 30319 net.cpp:434] pool1 <- conv1a
I0416 13:23:16.187726 30319 net.cpp:408] pool1 -> pool1
I0416 13:23:16.187827 30319 net.cpp:150] Setting up pool1
I0416 13:23:16.187835 30319 net.cpp:157] Top shape: 1 64 768 56 56 (154140672)
I0416 13:23:16.187839 30319 net.cpp:165] Memory required for data: 5895881916
I0416 13:23:16.187841 30319 layer_factory.hpp:77] Creating layer conv2a
I0416 13:23:16.187852 30319 net.cpp:100] Creating Layer conv2a
I0416 13:23:16.187855 30319 net.cpp:434] conv2a <- pool1
I0416 13:23:16.187861 30319 net.cpp:408] conv2a -> conv2a
I0416 13:23:16.198689 30319 net.cpp:150] Setting up conv2a
I0416 13:23:16.198714 30319 net.cpp:157] Top shape: 1 128 768 56 56 (308281344)
I0416 13:23:16.198719 30319 net.cpp:165] Memory required for data: 7129007292
I0416 13:23:16.198734 30319 layer_factory.hpp:77] Creating layer relu2a
I0416 13:23:16.198747 30319 net.cpp:100] Creating Layer relu2a
I0416 13:23:16.198755 30319 net.cpp:434] relu2a <- conv2a
I0416 13:23:16.198778 30319 net.cpp:395] relu2a -> conv2a (in-place)
I0416 13:23:16.198794 30319 net.cpp:150] Setting up relu2a
I0416 13:23:16.198801 30319 net.cpp:157] Top shape: 1 128 768 56 56 (308281344)
I0416 13:23:16.198807 30319 net.cpp:165] Memory required for data: 8362132668
I0416 13:23:16.198812 30319 layer_factory.hpp:77] Creating layer pool2
I0416 13:23:16.198822 30319 net.cpp:100] Creating Layer pool2
I0416 13:23:16.198827 30319 net.cpp:434] pool2 <- conv2a
I0416 13:23:16.198832 30319 net.cpp:408] pool2 -> pool2
I0416 13:23:16.198920 30319 net.cpp:150] Setting up pool2
I0416 13:23:16.198936 30319 net.cpp:157] Top shape: 1 128 384 28 28 (38535168)
I0416 13:23:16.198940 30319 net.cpp:165] Memory required for data: 8516273340
I0416 13:23:16.198942 30319 layer_factory.hpp:77] Creating layer conv3a
I0416 13:23:16.198954 30319 net.cpp:100] Creating Layer conv3a
I0416 13:23:16.198958 30319 net.cpp:434] conv3a <- pool2
I0416 13:23:16.198963 30319 net.cpp:408] conv3a -> conv3a
I0416 13:23:16.224946 30319 net.cpp:150] Setting up conv3a
I0416 13:23:16.224968 30319 net.cpp:157] Top shape: 1 256 384 28 28 (77070336)
I0416 13:23:16.224972 30319 net.cpp:165] Memory required for data: 8824554684
I0416 13:23:16.224987 30319 layer_factory.hpp:77] Creating layer relu3a
I0416 13:23:16.224997 30319 net.cpp:100] Creating Layer relu3a
I0416 13:23:16.225001 30319 net.cpp:434] relu3a <- conv3a
I0416 13:23:16.225008 30319 net.cpp:395] relu3a -> conv3a (in-place)
I0416 13:23:16.225016 30319 net.cpp:150] Setting up relu3a
I0416 13:23:16.225021 30319 net.cpp:157] Top shape: 1 256 384 28 28 (77070336)
I0416 13:23:16.225024 30319 net.cpp:165] Memory required for data: 9132836028
I0416 13:23:16.225026 30319 layer_factory.hpp:77] Creating layer conv3b
I0416 13:23:16.225037 30319 net.cpp:100] Creating Layer conv3b
I0416 13:23:16.225040 30319 net.cpp:434] conv3b <- conv3a
I0416 13:23:16.225045 30319 net.cpp:408] conv3b -> conv3b
I0416 13:23:16.274633 30319 net.cpp:150] Setting up conv3b
I0416 13:23:16.274657 30319 net.cpp:157] Top shape: 1 256 384 28 28 (77070336)
I0416 13:23:16.274662 30319 net.cpp:165] Memory required for data: 9441117372
I0416 13:23:16.274670 30319 layer_factory.hpp:77] Creating layer relu3b
I0416 13:23:16.274680 30319 net.cpp:100] Creating Layer relu3b
I0416 13:23:16.274685 30319 net.cpp:434] relu3b <- conv3b
I0416 13:23:16.274691 30319 net.cpp:395] relu3b -> conv3b (in-place)
I0416 13:23:16.274700 30319 net.cpp:150] Setting up relu3b
I0416 13:23:16.274704 30319 net.cpp:157] Top shape: 1 256 384 28 28 (77070336)
I0416 13:23:16.274708 30319 net.cpp:165] Memory required for data: 9749398716
I0416 13:23:16.274710 30319 layer_factory.hpp:77] Creating layer pool3
I0416 13:23:16.274718 30319 net.cpp:100] Creating Layer pool3
I0416 13:23:16.274721 30319 net.cpp:434] pool3 <- conv3b
I0416 13:23:16.274726 30319 net.cpp:408] pool3 -> pool3
I0416 13:23:16.274796 30319 net.cpp:150] Setting up pool3
I0416 13:23:16.274806 30319 net.cpp:157] Top shape: 1 256 192 14 14 (9633792)
I0416 13:23:16.274811 30319 net.cpp:165] Memory required for data: 9787933884
I0416 13:23:16.274813 30319 layer_factory.hpp:77] Creating layer conv4a
I0416 13:23:16.274823 30319 net.cpp:100] Creating Layer conv4a
I0416 13:23:16.274827 30319 net.cpp:434] conv4a <- pool3
I0416 13:23:16.274834 30319 net.cpp:408] conv4a -> conv4a
I0416 13:23:16.373982 30319 net.cpp:150] Setting up conv4a
I0416 13:23:16.374009 30319 net.cpp:157] Top shape: 1 512 192 14 14 (19267584)
I0416 13:23:16.374013 30319 net.cpp:165] Memory required for data: 9865004220
I0416 13:23:16.374027 30319 layer_factory.hpp:77] Creating layer relu4a
I0416 13:23:16.374039 30319 net.cpp:100] Creating Layer relu4a
I0416 13:23:16.374043 30319 net.cpp:434] relu4a <- conv4a
I0416 13:23:16.374049 30319 net.cpp:395] relu4a -> conv4a (in-place)
I0416 13:23:16.374058 30319 net.cpp:150] Setting up relu4a
I0416 13:23:16.374063 30319 net.cpp:157] Top shape: 1 512 192 14 14 (19267584)
I0416 13:23:16.374065 30319 net.cpp:165] Memory required for data: 9942074556
I0416 13:23:16.374069 30319 layer_factory.hpp:77] Creating layer conv4b
I0416 13:23:16.374081 30319 net.cpp:100] Creating Layer conv4b
I0416 13:23:16.374084 30319 net.cpp:434] conv4b <- conv4a
I0416 13:23:16.374090 30319 net.cpp:408] conv4b -> conv4b
I0416 13:23:16.569574 30319 net.cpp:150] Setting up conv4b
I0416 13:23:16.569599 30319 net.cpp:157] Top shape: 1 512 192 14 14 (19267584)
I0416 13:23:16.569603 30319 net.cpp:165] Memory required for data: 10019144892
I0416 13:23:16.569612 30319 layer_factory.hpp:77] Creating layer relu4b
I0416 13:23:16.569622 30319 net.cpp:100] Creating Layer relu4b
I0416 13:23:16.569625 30319 net.cpp:434] relu4b <- conv4b
I0416 13:23:16.569633 30319 net.cpp:395] relu4b -> conv4b (in-place)
I0416 13:23:16.569641 30319 net.cpp:150] Setting up relu4b
I0416 13:23:16.569646 30319 net.cpp:157] Top shape: 1 512 192 14 14 (19267584)
I0416 13:23:16.569649 30319 net.cpp:165] Memory required for data: 10096215228
I0416 13:23:16.569653 30319 layer_factory.hpp:77] Creating layer pool4
I0416 13:23:16.569659 30319 net.cpp:100] Creating Layer pool4
I0416 13:23:16.569664 30319 net.cpp:434] pool4 <- conv4b
I0416 13:23:16.569669 30319 net.cpp:408] pool4 -> pool4
I0416 13:23:16.569715 30319 net.cpp:150] Setting up pool4
I0416 13:23:16.569723 30319 net.cpp:157] Top shape: 1 512 96 7 7 (2408448)
I0416 13:23:16.569726 30319 net.cpp:165] Memory required for data: 10105849020
I0416 13:23:16.569730 30319 layer_factory.hpp:77] Creating layer conv5a
I0416 13:23:16.569741 30319 net.cpp:100] Creating Layer conv5a
I0416 13:23:16.569743 30319 net.cpp:434] conv5a <- pool4
I0416 13:23:16.569748 30319 net.cpp:408] conv5a -> conv5a
I0416 13:23:16.757565 30319 net.cpp:150] Setting up conv5a
I0416 13:23:16.757591 30319 net.cpp:157] Top shape: 1 512 96 7 7 (2408448)
I0416 13:23:16.757596 30319 net.cpp:165] Memory required for data: 10115482812
I0416 13:23:16.757603 30319 layer_factory.hpp:77] Creating layer relu5a
I0416 13:23:16.757622 30319 net.cpp:100] Creating Layer relu5a
I0416 13:23:16.757627 30319 net.cpp:434] relu5a <- conv5a
I0416 13:23:16.757632 30319 net.cpp:395] relu5a -> conv5a (in-place)
I0416 13:23:16.757640 30319 net.cpp:150] Setting up relu5a
I0416 13:23:16.757645 30319 net.cpp:157] Top shape: 1 512 96 7 7 (2408448)
I0416 13:23:16.757647 30319 net.cpp:165] Memory required for data: 10125116604
I0416 13:23:16.757650 30319 layer_factory.hpp:77] Creating layer conv5b
I0416 13:23:16.757660 30319 net.cpp:100] Creating Layer conv5b
I0416 13:23:16.757664 30319 net.cpp:434] conv5b <- conv5a
I0416 13:23:16.757670 30319 net.cpp:408] conv5b -> conv5b
I0416 13:23:16.944911 30319 net.cpp:150] Setting up conv5b
I0416 13:23:16.944937 30319 net.cpp:157] Top shape: 1 512 96 7 7 (2408448)
I0416 13:23:16.944941 30319 net.cpp:165] Memory required for data: 10134750396
I0416 13:23:16.944949 30319 layer_factory.hpp:77] Creating layer relu5b
I0416 13:23:16.944958 30319 net.cpp:100] Creating Layer relu5b
I0416 13:23:16.944963 30319 net.cpp:434] relu5b <- conv5b
I0416 13:23:16.944972 30319 net.cpp:395] relu5b -> conv5b (in-place)
I0416 13:23:16.944979 30319 net.cpp:150] Setting up relu5b
I0416 13:23:16.944983 30319 net.cpp:157] Top shape: 1 512 96 7 7 (2408448)
I0416 13:23:16.944986 30319 net.cpp:165] Memory required for data: 10144384188
I0416 13:23:16.944989 30319 layer_factory.hpp:77] Creating layer conv5b_relu5b_0_split
I0416 13:23:16.944994 30319 net.cpp:100] Creating Layer conv5b_relu5b_0_split
I0416 13:23:16.944998 30319 net.cpp:434] conv5b_relu5b_0_split <- conv5b
I0416 13:23:16.945003 30319 net.cpp:408] conv5b_relu5b_0_split -> conv5b_relu5b_0_split_0
I0416 13:23:16.945008 30319 net.cpp:408] conv5b_relu5b_0_split -> conv5b_relu5b_0_split_1
I0416 13:23:16.945051 30319 net.cpp:150] Setting up conv5b_relu5b_0_split
I0416 13:23:16.945058 30319 net.cpp:157] Top shape: 1 512 96 7 7 (2408448)
I0416 13:23:16.945062 30319 net.cpp:157] Top shape: 1 512 96 7 7 (2408448)
I0416 13:23:16.945065 30319 net.cpp:165] Memory required for data: 10163651772
I0416 13:23:16.945068 30319 layer_factory.hpp:77] Creating layer rpn_conv/3x3
I0416 13:23:16.945080 30319 net.cpp:100] Creating Layer rpn_conv/3x3
I0416 13:23:16.945083 30319 net.cpp:434] rpn_conv/3x3 <- conv5b_relu5b_0_split_0
I0416 13:23:16.945089 30319 net.cpp:408] rpn_conv/3x3 -> rpn/output
I0416 13:23:17.134598 30319 net.cpp:150] Setting up rpn_conv/3x3
I0416 13:23:17.134625 30319 net.cpp:157] Top shape: 1 512 96 4 4 (786432)
I0416 13:23:17.134632 30319 net.cpp:165] Memory required for data: 10166797500
I0416 13:23:17.134660 30319 layer_factory.hpp:77] Creating layer rpn_relu/3x3
I0416 13:23:17.134671 30319 net.cpp:100] Creating Layer rpn_relu/3x3
I0416 13:23:17.134676 30319 net.cpp:434] rpn_relu/3x3 <- rpn/output
I0416 13:23:17.134682 30319 net.cpp:395] rpn_relu/3x3 -> rpn/output (in-place)
I0416 13:23:17.134690 30319 net.cpp:150] Setting up rpn_relu/3x3
I0416 13:23:17.134694 30319 net.cpp:157] Top shape: 1 512 96 4 4 (786432)
I0416 13:23:17.134697 30319 net.cpp:165] Memory required for data: 10169943228
I0416 13:23:17.134701 30319 layer_factory.hpp:77] Creating layer rpn_conv/3x3_2
I0416 13:23:17.134711 30319 net.cpp:100] Creating Layer rpn_conv/3x3_2
I0416 13:23:17.134713 30319 net.cpp:434] rpn_conv/3x3_2 <- rpn/output
I0416 13:23:17.134719 30319 net.cpp:408] rpn_conv/3x3_2 -> rpn/output_2
I0416 13:23:17.329244 30319 net.cpp:150] Setting up rpn_conv/3x3_2
I0416 13:23:17.329277 30319 net.cpp:157] Top shape: 1 512 96 2 2 (196608)
I0416 13:23:17.329284 30319 net.cpp:165] Memory required for data: 10170729660
I0416 13:23:17.329298 30319 layer_factory.hpp:77] Creating layer rpn_relu/3x3_2
I0416 13:23:17.329313 30319 net.cpp:100] Creating Layer rpn_relu/3x3_2
I0416 13:23:17.329321 30319 net.cpp:434] rpn_relu/3x3_2 <- rpn/output_2
I0416 13:23:17.329327 30319 net.cpp:395] rpn_relu/3x3_2 -> rpn/output_2 (in-place)
I0416 13:23:17.329336 30319 net.cpp:150] Setting up rpn_relu/3x3_2
I0416 13:23:17.329341 30319 net.cpp:157] Top shape: 1 512 96 2 2 (196608)
I0416 13:23:17.329344 30319 net.cpp:165] Memory required for data: 10171516092
I0416 13:23:17.329347 30319 layer_factory.hpp:77] Creating layer rpn/output_pool
I0416 13:23:17.329355 30319 net.cpp:100] Creating Layer rpn/output_pool
I0416 13:23:17.329357 30319 net.cpp:434] rpn/output_pool <- rpn/output_2
I0416 13:23:17.329363 30319 net.cpp:408] rpn/output_pool -> rpn/output_pool
I0416 13:23:17.329413 30319 net.cpp:150] Setting up rpn/output_pool
I0416 13:23:17.329421 30319 net.cpp:157] Top shape: 1 512 96 1 1 (49152)
I0416 13:23:17.329424 30319 net.cpp:165] Memory required for data: 10171712700
I0416 13:23:17.329428 30319 layer_factory.hpp:77] Creating layer rpn/output_pool_rpn/output_pool_0_split
I0416 13:23:17.329433 30319 net.cpp:100] Creating Layer rpn/output_pool_rpn/output_pool_0_split
I0416 13:23:17.329437 30319 net.cpp:434] rpn/output_pool_rpn/output_pool_0_split <- rpn/output_pool
I0416 13:23:17.329442 30319 net.cpp:408] rpn/output_pool_rpn/output_pool_0_split -> rpn/output_pool_rpn/output_pool_0_split_0
I0416 13:23:17.329448 30319 net.cpp:408] rpn/output_pool_rpn/output_pool_0_split -> rpn/output_pool_rpn/output_pool_0_split_1
I0416 13:23:17.329488 30319 net.cpp:150] Setting up rpn/output_pool_rpn/output_pool_0_split
I0416 13:23:17.329494 30319 net.cpp:157] Top shape: 1 512 96 1 1 (49152)
I0416 13:23:17.329499 30319 net.cpp:157] Top shape: 1 512 96 1 1 (49152)
I0416 13:23:17.329501 30319 net.cpp:165] Memory required for data: 10172105916
I0416 13:23:17.329504 30319 layer_factory.hpp:77] Creating layer rpn_cls_score
I0416 13:23:17.329514 30319 net.cpp:100] Creating Layer rpn_cls_score
I0416 13:23:17.329517 30319 net.cpp:434] rpn_cls_score <- rpn/output_pool_rpn/output_pool_0_split_0
I0416 13:23:17.329524 30319 net.cpp:408] rpn_cls_score -> rpn_cls_score
I0416 13:23:17.330832 30319 net.cpp:150] Setting up rpn_cls_score
I0416 13:23:17.330844 30319 net.cpp:157] Top shape: 1 74 96 1 1 (7104)
I0416 13:23:17.330848 30319 net.cpp:165] Memory required for data: 10172134332
I0416 13:23:17.330854 30319 layer_factory.hpp:77] Creating layer rpn_cls_score_rpn_cls_score_0_split
I0416 13:23:17.330859 30319 net.cpp:100] Creating Layer rpn_cls_score_rpn_cls_score_0_split
I0416 13:23:17.330863 30319 net.cpp:434] rpn_cls_score_rpn_cls_score_0_split <- rpn_cls_score
I0416 13:23:17.330868 30319 net.cpp:408] rpn_cls_score_rpn_cls_score_0_split -> rpn_cls_score_rpn_cls_score_0_split_0
I0416 13:23:17.330873 30319 net.cpp:408] rpn_cls_score_rpn_cls_score_0_split -> rpn_cls_score_rpn_cls_score_0_split_1
I0416 13:23:17.330919 30319 net.cpp:150] Setting up rpn_cls_score_rpn_cls_score_0_split
I0416 13:23:17.330927 30319 net.cpp:157] Top shape: 1 74 96 1 1 (7104)
I0416 13:23:17.330931 30319 net.cpp:157] Top shape: 1 74 96 1 1 (7104)
I0416 13:23:17.330935 30319 net.cpp:165] Memory required for data: 10172191164
I0416 13:23:17.330937 30319 layer_factory.hpp:77] Creating layer rpn_twin_pred
I0416 13:23:17.330950 30319 net.cpp:100] Creating Layer rpn_twin_pred
I0416 13:23:17.330953 30319 net.cpp:434] rpn_twin_pred <- rpn/output_pool_rpn/output_pool_0_split_1
I0416 13:23:17.330958 30319 net.cpp:408] rpn_twin_pred -> rpn_twin_pred
I0416 13:23:17.332165 30319 net.cpp:150] Setting up rpn_twin_pred
I0416 13:23:17.332173 30319 net.cpp:157] Top shape: 1 74 96 1 1 (7104)
I0416 13:23:17.332176 30319 net.cpp:165] Memory required for data: 10172219580
I0416 13:23:17.332182 30319 layer_factory.hpp:77] Creating layer rpn_twin_pred_rpn_twin_pred_0_split
I0416 13:23:17.332196 30319 net.cpp:100] Creating Layer rpn_twin_pred_rpn_twin_pred_0_split
I0416 13:23:17.332201 30319 net.cpp:434] rpn_twin_pred_rpn_twin_pred_0_split <- rpn_twin_pred
I0416 13:23:17.332206 30319 net.cpp:408] rpn_twin_pred_rpn_twin_pred_0_split -> rpn_twin_pred_rpn_twin_pred_0_split_0
I0416 13:23:17.332211 30319 net.cpp:408] rpn_twin_pred_rpn_twin_pred_0_split -> rpn_twin_pred_rpn_twin_pred_0_split_1
I0416 13:23:17.332254 30319 net.cpp:150] Setting up rpn_twin_pred_rpn_twin_pred_0_split
I0416 13:23:17.332262 30319 net.cpp:157] Top shape: 1 74 96 1 1 (7104)
I0416 13:23:17.332264 30319 net.cpp:157] Top shape: 1 74 96 1 1 (7104)
I0416 13:23:17.332267 30319 net.cpp:165] Memory required for data: 10172276412
I0416 13:23:17.332271 30319 layer_factory.hpp:77] Creating layer rpn_cls_score_reshape
I0416 13:23:17.332281 30319 net.cpp:100] Creating Layer rpn_cls_score_reshape
I0416 13:23:17.332284 30319 net.cpp:434] rpn_cls_score_reshape <- rpn_cls_score_rpn_cls_score_0_split_0
I0416 13:23:17.332290 30319 net.cpp:408] rpn_cls_score_reshape -> rpn_cls_score_reshape
I0416 13:23:17.332320 30319 net.cpp:150] Setting up rpn_cls_score_reshape
I0416 13:23:17.332327 30319 net.cpp:157] Top shape: 1 2 3552 1 1 (7104)
I0416 13:23:17.332330 30319 net.cpp:165] Memory required for data: 10172304828
I0416 13:23:17.332334 30319 layer_factory.hpp:77] Creating layer rpn_cls_score_reshape_rpn_cls_score_reshape_0_split
I0416 13:23:17.332340 30319 net.cpp:100] Creating Layer rpn_cls_score_reshape_rpn_cls_score_reshape_0_split
I0416 13:23:17.332345 30319 net.cpp:434] rpn_cls_score_reshape_rpn_cls_score_reshape_0_split <- rpn_cls_score_reshape
I0416 13:23:17.332348 30319 net.cpp:408] rpn_cls_score_reshape_rpn_cls_score_reshape_0_split -> rpn_cls_score_reshape_rpn_cls_score_reshape_0_split_0
I0416 13:23:17.332355 30319 net.cpp:408] rpn_cls_score_reshape_rpn_cls_score_reshape_0_split -> rpn_cls_score_reshape_rpn_cls_score_reshape_0_split_1
I0416 13:23:17.332362 30319 net.cpp:408] rpn_cls_score_reshape_rpn_cls_score_reshape_0_split -> rpn_cls_score_reshape_rpn_cls_score_reshape_0_split_2
I0416 13:23:17.332412 30319 net.cpp:150] Setting up rpn_cls_score_reshape_rpn_cls_score_reshape_0_split
I0416 13:23:17.332419 30319 net.cpp:157] Top shape: 1 2 3552 1 1 (7104)
I0416 13:23:17.332423 30319 net.cpp:157] Top shape: 1 2 3552 1 1 (7104)
I0416 13:23:17.332427 30319 net.cpp:157] Top shape: 1 2 3552 1 1 (7104)
I0416 13:23:17.332430 30319 net.cpp:165] Memory required for data: 10172390076
I0416 13:23:17.332433 30319 layer_factory.hpp:77] Creating layer rpn-data
I0416 13:23:17.332818 30319 net.cpp:100] Creating Layer rpn-data
I0416 13:23:17.332831 30319 net.cpp:434] rpn-data <- rpn_cls_score_rpn_cls_score_0_split_1
I0416 13:23:17.332839 30319 net.cpp:434] rpn-data <- gt_boxes_data_1_split_0
I0416 13:23:17.332855 30319 net.cpp:434] rpn-data <- data_data_0_split_1
I0416 13:23:17.332864 30319 net.cpp:408] rpn-data -> rpn_labels
I0416 13:23:17.332873 30319 net.cpp:408] rpn-data -> rpn_twin_targets
I0416 13:23:17.332880 30319 net.cpp:408] rpn-data -> rpn_twin_inside_weights
I0416 13:23:17.332885 30319 net.cpp:408] rpn-data -> rpn_twin_outside_weights
I0416 13:23:17.335464 30319 net.cpp:150] Setting up rpn-data
I0416 13:23:17.335479 30319 net.cpp:157] Top shape: 1 1 3552 1 1 (3552)
I0416 13:23:17.335482 30319 net.cpp:157] Top shape: 1 74 96 1 1 (7104)
I0416 13:23:17.335485 30319 net.cpp:157] Top shape: 1 74 96 1 1 (7104)
I0416 13:23:17.335489 30319 net.cpp:157] Top shape: 1 74 96 1 1 (7104)
I0416 13:23:17.335501 30319 net.cpp:165] Memory required for data: 10172489532
I0416 13:23:17.335505 30319 layer_factory.hpp:77] Creating layer rpn_labels_rpn-data_0_split
I0416 13:23:17.335510 30319 net.cpp:100] Creating Layer rpn_labels_rpn-data_0_split
I0416 13:23:17.335515 30319 net.cpp:434] rpn_labels_rpn-data_0_split <- rpn_labels
I0416 13:23:17.335520 30319 net.cpp:408] rpn_labels_rpn-data_0_split -> rpn_labels_rpn-data_0_split_0
I0416 13:23:17.335525 30319 net.cpp:408] rpn_labels_rpn-data_0_split -> rpn_labels_rpn-data_0_split_1
I0416 13:23:17.335563 30319 net.cpp:150] Setting up rpn_labels_rpn-data_0_split
I0416 13:23:17.335572 30319 net.cpp:157] Top shape: 1 1 3552 1 1 (3552)
I0416 13:23:17.335577 30319 net.cpp:157] Top shape: 1 1 3552 1 1 (3552)
I0416 13:23:17.335582 30319 net.cpp:165] Memory required for data: 10172517948
I0416 13:23:17.335587 30319 layer_factory.hpp:77] Creating layer rpn_loss_cls
I0416 13:23:17.335597 30319 net.cpp:100] Creating Layer rpn_loss_cls
I0416 13:23:17.335605 30319 net.cpp:434] rpn_loss_cls <- rpn_cls_score_reshape_rpn_cls_score_reshape_0_split_0
I0416 13:23:17.335613 30319 net.cpp:434] rpn_loss_cls <- rpn_labels_rpn-data_0_split_0
…
I0416 13:23:17.335968 30319 layer_factory.hpp:77] Creating layer rpn_accuarcy
I0416 13:23:17.335976 30319 net.cpp:100] Creating Layer rpn_accuarcy
I0416 13:23:17.335980 30319 net.cpp:434] rpn_accuarcy <- rpn_cls_score_reshape_rpn_cls_score_reshape_0_split_1
I0416 13:23:17.335984 30319 net.cpp:434] rpn_accuarcy <- rpn_labels_rpn-data_0_split_1
I0416 13:23:17.335988 30319 net.cpp:408] rpn_accuarcy -> rpn_accuarcy
I0416 13:23:17.335994 30319 net.cpp:408] rpn_accuarcy -> rpn_accuarcy_class
I0416 13:23:17.336040 30319 net.cpp:150] Setting up rpn_accuarcy
I0416 13:23:17.336047 30319 net.cpp:157] Top shape: (1)
I0416 13:23:17.336051 30319 net.cpp:157] Top shape: 2 (2)
I0416 13:23:17.336055 30319 net.cpp:165] Memory required for data: 10172517968
I0416 13:23:17.336057 30319 layer_factory.hpp:77] Creating layer rpn_cls_prob
I0416 13:23:17.336062 30319 net.cpp:100] Creating Layer rpn_cls_prob
I0416 13:23:17.336066 30319 net.cpp:434] rpn_cls_prob <- rpn_cls_score_reshape_rpn_cls_score_reshape_0_split_2
I0416 13:23:17.336071 30319 net.cpp:408] rpn_cls_prob -> rpn_cls_prob
I0416 13:23:17.336138 30319 net.cpp:150] Setting up rpn_cls_prob
I0416 13:23:17.336144 30319 net.cpp:157] Top shape: 1 2 3552 1 1 (7104)
I0416 13:23:17.336148 30319 net.cpp:165] Memory required for data: 10172546384
I0416 13:23:17.336151 30319 layer_factory.hpp:77] Creating layer rpn_cls_prob_reshape
I0416 13:23:17.336156 30319 net.cpp:100] Creating Layer rpn_cls_prob_reshape
I0416 13:23:17.336160 30319 net.cpp:434] rpn_cls_prob_reshape <- rpn_cls_prob
I0416 13:23:17.336165 30319 net.cpp:408] rpn_cls_prob_reshape -> rpn_cls_prob_reshape
I0416 13:23:17.336192 30319 net.cpp:150] Setting up rpn_cls_prob_reshape
I0416 13:23:17.336199 30319 net.cpp:157] Top shape: 1 74 96 1 1 (7104)
I0416 13:23:17.336201 30319 net.cpp:165] Memory required for data: 10172574800
I0416 13:23:17.336205 30319 layer_factory.hpp:77] Creating layer proposal
I0416 13:23:17.336735 30319 net.cpp:100] Creating Layer proposal
I0416 13:23:17.336746 30319 net.cpp:434] proposal <- rpn_cls_prob_reshape
I0416 13:23:17.336752 30319 net.cpp:434] proposal <- rpn_twin_pred_rpn_twin_pred_0_split_1
I0416 13:23:17.336757 30319 net.cpp:408] proposal -> rpn_rois
I0416 13:23:17.339005 30319 net.cpp:150] Setting up proposal
I0416 13:23:17.339020 30319 net.cpp:157] Top shape: 1 3 (3)
I0416 13:23:17.339025 30319 net.cpp:165] Memory required for data: 10172574812
I0416 13:23:17.339027 30319 layer_factory.hpp:77] Creating layer roi-data
I0416 13:23:17.339159 30319 net.cpp:100] Creating Layer roi-data
I0416 13:23:17.339169 30319 net.cpp:434] roi-data <- rpn_rois
I0416 13:23:17.339174 30319 net.cpp:434] roi-data <- gt_boxes_data_1_split_1
I0416 13:23:17.339180 30319 net.cpp:408] roi-data -> rois
I0416 13:23:17.339187 30319 net.cpp:408] roi-data -> labels
I0416 13:23:17.339192 30319 net.cpp:408] roi-data -> twin_targets
I0416 13:23:17.339198 30319 net.cpp:408] roi-data -> twin_inside_weights
I0416 13:23:17.339205 30319 net.cpp:408] roi-data -> twin_outside_weights
I0416 13:23:17.339541 30319 net.cpp:150] Setting up roi-data
I0416 13:23:17.339555 30319 net.cpp:157] Top shape: 1 3 (3)
I0416 13:23:17.339558 30319 net.cpp:157] Top shape: 1 1 (1)
I0416 13:23:17.339562 30319 net.cpp:157] Top shape: 1 402 (402)
I0416 13:23:17.339576 30319 net.cpp:157] Top shape: 1 402 (402)
I0416 13:23:17.339578 30319 net.cpp:157] Top shape: 1 402 (402)
I0416 13:23:17.339581 30319 net.cpp:165] Memory required for data: 10172579652
I0416 13:23:17.339586 30319 layer_factory.hpp:77] Creating layer labels_roi-data_1_split
I0416 13:23:17.339591 30319 net.cpp:100] Creating Layer labels_roi-data_1_split
I0416 13:23:17.339594 30319 net.cpp:434] labels_roi-data_1_split <- labels
I0416 13:23:17.339599 30319 net.cpp:408] labels_roi-data_1_split -> labels_roi-data_1_split_0
I0416 13:23:17.339607 30319 net.cpp:408] labels_roi-data_1_split -> labels_roi-data_1_split_1
I0416 13:23:17.339646 30319 net.cpp:150] Setting up labels_roi-data_1_split
I0416 13:23:17.339653 30319 net.cpp:157] Top shape: 1 1 (1)
I0416 13:23:17.339658 30319 net.cpp:157] Top shape: 1 1 (1)
I0416 13:23:17.339661 30319 net.cpp:165] Memory required for data: 10172579660
I0416 13:23:17.339664 30319 layer_factory.hpp:77] Creating layer roi_pool5
I0416 13:23:17.339673 30319 net.cpp:100] Creating Layer roi_pool5
I0416 13:23:17.339676 30319 net.cpp:434] roi_pool5 <- conv5b_relu5b_0_split_1
I0416 13:23:17.339681 30319 net.cpp:434] roi_pool5 <- rois
I0416 13:23:17.339685 30319 net.cpp:408] roi_pool5 -> pool5
I0416 13:23:17.339692 30319 roi_pooling_layer.cpp:34] Temporal scale: 0.125
I0416 13:23:17.339699 30319 roi_pooling_layer.cpp:35] Spatial scale: 0.0625
I0416 13:23:17.339738 30319 net.cpp:150] Setting up roi_pool5
I0416 13:23:17.339745 30319 net.cpp:157] Top shape: 1 512 1 4 4 (8192)
I0416 13:23:17.339749 30319 net.cpp:165] Memory required for data: 10172612428
I0416 13:23:17.339752 30319 layer_factory.hpp:77] Creating layer fc6
I0416 13:23:17.339761 30319 net.cpp:100] Creating Layer fc6
I0416 13:23:17.339764 30319 net.cpp:434] fc6 <- pool5
I0416 13:23:17.339769 30319 net.cpp:408] fc6 -> fc6
I0416 13:23:18.252085 30319 net.cpp:150] Setting up fc6
I0416 13:23:18.252112 30319 net.cpp:157] Top shape: 1 4096 (4096)
I0416 13:23:18.252116 30319 net.cpp:165] Memory required for data: 10172628812
I0416 13:23:18.252126 30319 layer_factory.hpp:77] Creating layer relu6
I0416 13:23:18.252135 30319 net.cpp:100] Creating Layer relu6
I0416 13:23:18.252140 30319 net.cpp:434] relu6 <- fc6
I0416 13:23:18.252147 30319 net.cpp:395] relu6 -> fc6 (in-place)
I0416 13:23:18.252156 30319 net.cpp:150] Setting up relu6
I0416 13:23:18.252161 30319 net.cpp:157] Top shape: 1 4096 (4096)
I0416 13:23:18.252163 30319 net.cpp:165] Memory required for data: 10172645196
I0416 13:23:18.252166 30319 layer_factory.hpp:77] Creating layer drop6
I0416 13:23:18.252177 30319 net.cpp:100] Creating Layer drop6
I0416 13:23:18.252180 30319 net.cpp:434] drop6 <- fc6
I0416 13:23:18.252184 30319 net.cpp:395] drop6 -> fc6 (in-place)
I0416 13:23:18.252213 30319 net.cpp:150] Setting up drop6
I0416 13:23:18.252219 30319 net.cpp:157] Top shape: 1 4096 (4096)
I0416 13:23:18.252223 30319 net.cpp:165] Memory required for data: 10172661580
I0416 13:23:18.252226 30319 layer_factory.hpp:77] Creating layer fc6_drop6_0_split
I0416 13:23:18.252230 30319 net.cpp:100] Creating Layer fc6_drop6_0_split
I0416 13:23:18.252234 30319 net.cpp:434] fc6_drop6_0_split <- fc6
I0416 13:23:18.252238 30319 net.cpp:408] fc6_drop6_0_split -> fc6_drop6_0_split_0
I0416 13:23:18.252244 30319 net.cpp:408] fc6_drop6_0_split -> fc6_drop6_0_split_1
I0416 13:23:18.252285 30319 net.cpp:150] Setting up fc6_drop6_0_split
I0416 13:23:18.252291 30319 net.cpp:157] Top shape: 1 4096 (4096)
I0416 13:23:18.252295 30319 net.cpp:157] Top shape: 1 4096 (4096)
I0416 13:23:18.252297 30319 net.cpp:165] Memory required for data: 10172694348
I0416 13:23:18.252300 30319 layer_factory.hpp:77] Creating layer cls_score
I0416 13:23:18.252310 30319 net.cpp:100] Creating Layer cls_score
I0416 13:23:18.252312 30319 net.cpp:434] cls_score <- fc6_drop6_0_split_0
I0416 13:23:18.252319 30319 net.cpp:408] cls_score -> cls_score
I0416 13:23:18.274966 30319 net.cpp:150] Setting up cls_score
I0416 13:23:18.274988 30319 net.cpp:157] Top shape: 1 201 (201)
I0416 13:23:18.274991 30319 net.cpp:165] Memory required for data: 10172695152
I0416 13:23:18.275002 30319 layer_factory.hpp:77] Creating layer cls_score_cls_score_0_split
I0416 13:23:18.275009 30319 net.cpp:100] Creating Layer cls_score_cls_score_0_split
I0416 13:23:18.275014 30319 net.cpp:434] cls_score_cls_score_0_split <- cls_score
I0416 13:23:18.275020 30319 net.cpp:408] cls_score_cls_score_0_split -> cls_score_cls_score_0_split_0
I0416 13:23:18.275028 30319 net.cpp:408] cls_score_cls_score_0_split -> cls_score_cls_score_0_split_1
I0416 13:23:18.275071 30319 net.cpp:150] Setting up cls_score_cls_score_0_split
I0416 13:23:18.275079 30319 net.cpp:157] Top shape: 1 201 (201)
I0416 13:23:18.275082 30319 net.cpp:157] Top shape: 1 201 (201)
I0416 13:23:18.275085 30319 net.cpp:165] Memory required for data: 10172696760
I0416 13:23:18.275089 30319 layer_factory.hpp:77] Creating layer twin_pred
I0416 13:23:18.275096 30319 net.cpp:100] Creating Layer twin_pred
I0416 13:23:18.275100 30319 net.cpp:434] twin_pred <- fc6_drop6_0_split_1
I0416 13:23:18.275106 30319 net.cpp:408] twin_pred -> twin_pred
I0416 13:23:18.319674 30319 net.cpp:150] Setting up twin_pred
I0416 13:23:18.319699 30319 net.cpp:157] Top shape: 1 402 (402)
I0416 13:23:18.319702 30319 net.cpp:165] Memory required for data: 10172698368
I0416 13:23:18.319710 30319 layer_factory.hpp:77] Creating layer loss_cls
I0416 13:23:18.319730 30319 net.cpp:100] Creating Layer loss_cls
I0416 13:23:18.319736 30319 net.cpp:434] loss_cls <- cls_score_cls_score_0_split_0
I0416 13:23:18.319741 30319 net.cpp:434] loss_cls <- labels_roi-data_1_split_0
I0416 13:23:18.319747 30319 net.cpp:408] loss_cls -> loss_cls
…
