…
stepsize: 350000
snapshot: 0
snapshot_prefix: "./experiments/activitynet/snapshot/activitynet"
average_loss: 100
iter_size: 1
I0417 22:37:25.870108 21484 solver.cpp:81] Creating training net from train_net file: ./experiments/activitynet/train.prototxt
I0417 22:37:25.871182 21484 net.cpp:58] Initializing net from parameters: 
name: "activitynet"
state {
  phase: TRAIN
}
layer {
  name: "data"
  type: "Python"
  top: "data"
  top: "gt_boxes"
  python_param {
    module: "roi_data_layer.layer"
    layer: "RoIDataLayer"
    param_str: "\'num_classes\': 100"
  }
}
layer {
  name: "conv1a"
  type: "Convolution"
  bottom: "data"
  top: "conv1a"
  param {
    lr_mult: 0
    decay_mult: 0
  }
  param {
    lr_mult: 0
    decay_mult: 0
  }
  convolution_param {
    num_output: 64
    pad: 1
    pad: 1
    pad: 1
    kernel_size: 3
    kernel_size: 3
    kernel_size: 3
    weight_filler {
      type: "gaussian"
      std: 0.01
    }
    bias_filler {
      type: "constant"
      value: 0
    }
  }
}
layer {
  name: "relu1a"
  type: "ReLU"
  bottom: "conv1a"
  top: "conv1a"
}
layer {
  name: "pool1"
  type: "Pooling"
  bottom: "conv1a"
  top: "pool1"
  pooling_param {
    pool: MAX
    kernel_size: 1
    kernel_size: 2
    kernel_size: 2
    stride: 1
    stride: 2
    stride: 2
  }
}
layer {
  name: "conv2a"
  type: "Convolution"
  bottom: "pool1"
  top: "conv2a"
  param {
    lr_mult: 0
    decay_mult: 0
  }
  param {
    lr_mult: 0
    decay_mult: 0
  }
  convolution_param {
    num_output: 128
    pad: 1
    pad: 1
    pad: 1
    kernel_size: 3
    kernel_size: 3
    kernel_size: 3
    weight_filler {
      type: "gaussian"
      std: 0.01
    }
    bias_filler {
      type: "constant"
      value: 1
    }
  }
}
layer {
  name: "relu2a"
  type: "ReLU"
  bottom: "conv2a"
  top: "conv2a"
}
layer {
  name: "pool2"
  type: "Pooling"
  bottom: "conv2a"
  top: "pool2"
  pooling_param {
    pool: MAX
    kernel_size: 2
    kernel_size: 2
    kernel_size: 2
    stride: 2
    stride: 2
    stride: 2
  }
}
layer {
  name: "conv3a"
  type: "Convolution"
  bottom: "pool2"
  top: "conv3a"
  param {
    lr_mult: 1
    decay_mult: 1
  }
  param {
    lr_mult: 2
    decay_mult: 0
  }
  convolution_param {
    num_output: 256
    pad: 1
    pad: 1
    pad: 1
    kernel_size: 3
    kernel_size: 3
    kernel_size: 3
    weight_filler {
      type: "gaussian"
      std: 0.01
    }
    bias_filler {
      type: "constant"
      value: 1
    }
  }
}
layer {
  name: "relu3a"
  type: "ReLU"
  bottom: "conv3a"
  top: "conv3a"
}
layer {
  name: "conv3b"
  type: "Convolution"
  bottom: "conv3a"
  top: "conv3b"
  param {
    lr_mult: 1
    decay_mult: 1
  }
  param {
    lr_mult: 2
    decay_mult: 0
  }
  convolution_param {
    num_output: 256
    pad: 1
    pad: 1
    pad: 1
    kernel_size: 3
    kernel_size: 3
    kernel_size: 3
    weight_filler {
      type: "gaussian"
      std: 0.01
    }
    bias_filler {
      type: "constant"
      value: 1
    }
  }
}
layer {
  name: "relu3b"
  type: "ReLU"
  bottom: "conv3b"
  top: "conv3b"
}
layer {
  name: "pool3"
  type: "Pooling"
  bottom: "conv3b"
  top: "pool3"
  pooling_param {
    pool: MAX
    kernel_size: 2
    kernel_size: 2
    kernel_size: 2
    stride: 2
    stride: 2
    stride: 2
  }
}
layer {
  name: "conv4a"
  type: "Convolution"
  bottom: "pool3"
  top: "conv4a"
  param {
    lr_mult: 1
    decay_mult: 1
  }
  param {
    lr_mult: 2
    decay_mult: 0
  }
  convolution_param {
    num_output: 512
    pad: 1
    pad: 1
    pad: 1
    kernel_size: 3
    kernel_size: 3
    kernel_size: 3
    weight_filler {
      type: "gaussian"
      std: 0.01
    }
    bias_filler {
      type: "constant"
      value: 1
    }
  }
}
layer {
  name: "relu4a"
  type: "ReLU"
  bottom: "conv4a"
  top: "conv4a"
}
layer {
  name: "conv4b"
  type: "Convolution"
  bottom: "conv4a"
  top: "conv4b"
  param {
    lr_mult: 1
    decay_mult: 1
  }
  param {
    lr_mult: 2
    decay_mult: 0
  }
  convolution_param {
    num_output: 512
    pad: 1
    pad: 1
    pad: 1
    kernel_size: 3
    kernel_size: 3
    kernel_size: 3
    weight_filler {
      type: "gaussian"
      std: 0.01
    }
    bias_filler {
      type: "constant"
      value: 1
    }
  }
}
layer {
  name: "relu4b"
  type: "ReLU"
  bottom: "conv4b"
  top: "conv4b"
}
layer {
  name: "pool4"
  type: "Pooling"
  bottom: "conv4b"
  top: "pool4"
  pooling_param {
    pool: MAX
    kernel_size: 2
    kernel_size: 2
    kernel_size: 2
    stride: 2
    stride: 2
    stride: 2
  }
}
layer {
  name: "conv5a"
  type: "Convolution"
  bottom: "pool4"
  top: "conv5a"
  param {
    lr_mult: 1
    decay_mult: 1
  }
  param {
    lr_mult: 2
    decay_mult: 0
  }
  convolution_param {
    num_output: 512
    pad: 1
    pad: 1
    pad: 1
    kernel_size: 3
    kernel_size: 3
    kernel_size: 3
    weight_filler {
      type: "gaussian"
      std: 0.01
    }
    bias_filler {
      type: "constant"
      value: 1
    }
  }
}
layer {
  name: "relu5a"
  type: "ReLU"
  bottom: "conv5a"
  top: "conv5a"
}
layer {
  name: "conv5b"
  type: "Convolution"
  bottom: "conv5a"
  top: "conv5b"
  param {
    lr_mult: 1
    decay_mult: 1
  }
  param {
    lr_mult: 2
    decay_mult: 0
  }
  convolution_param {
    num_output: 512
    pad: 1
    pad: 1
    pad: 1
    kernel_size: 3
    kernel_size: 3
    kernel_size: 3
    weight_filler {
      type: "gaussian"
      std: 0.01
    }
    bias_filler {
      type: "constant"
      value: 1
    }
  }
}
layer {
  name: "relu5b"
  type: "ReLU"
  bottom: "conv5b"
  top: "conv5b"
}
layer {
  name: "rpn_conv/3x3"
  type: "Convolution"
  bottom: "conv5b"
  top: "rpn/output"
  param {
    lr_mult: 1
    decay_mult: 1
  }
  param {
    lr_mult: 2
    decay_mult: 0
  }
  convolution_param {
    num_output: 512
    pad: 1
    pad: 1
    pad: 1
    kernel_size: 3
    kernel_size: 3
    kernel_size: 3
    stride: 1
    stride: 2
    stride: 2
    weight_filler {
      type: "gaussian"
      std: 0.01
    }
    bias_filler {
      type: "constant"
      value: 0
    }
  }
}
layer {
  name: "rpn_relu/3x3"
  type: "ReLU"
  bottom: "rpn/output"
  top: "rpn/output"
}
layer {
  name: "rpn_conv/3x3_2"
  type: "Convolution"
  bottom: "rpn/output"
  top: "rpn/output_2"
  param {
    lr_mult: 1
    decay_mult: 1
  }
  param {
    lr_mult: 2
    decay_mult: 0
  }
  convolution_param {
    num_output: 512
    pad: 1
    pad: 1
    pad: 1
    kernel_size: 3
    kernel_size: 3
    kernel_size: 3
    stride: 1
    stride: 2
    stride: 2
    weight_filler {
      type: "gaussian"
      std: 0.01
    }
    bias_filler {
      type: "constant"
      value: 0
    }
  }
}
layer {
  name: "rpn_relu/3x3_2"
  type: "ReLU"
  bottom: "rpn/output_2"
  top: "rpn/output_2"
}
layer {
  name: "rpn/output_pool"
  type: "Pooling"
  bottom: "rpn/output_2"
  top: "rpn/output_pool"
  pooling_param {
    pool: MAX
    kernel_size: 1
    kernel_size: 2
    kernel_size: 2
  }
}
layer {
  name: "rpn_cls_score"
  type: "Convolution"
  bottom: "rpn/output_pool"
  top: "rpn_cls_score"
  param {
    lr_mult: 1
    decay_mult: 1
  }
  param {
    lr_mult: 2
    decay_mult: 0
  }
  convolution_param {
    num_output: 74
    kernel_size: 1
    kernel_size: 1
    kernel_size: 1
    weight_filler {
      type: "gaussian"
      std: 0.01
    }
    bias_filler {
      type: "constant"
      value: 0
    }
  }
}
layer {
  name: "rpn_twin_pred"
  type: "Convolution"
  bottom: "rpn/output_pool"
  top: "rpn_twin_pred"
  param {
    lr_mult: 1
    decay_mult: 1
  }
  param {
    lr_mult: 2
    decay_mult: 0
  }
  convolution_param {
    num_output: 74
    kernel_size: 1
    kernel_size: 1
    kernel_size: 1
    weight_filler {
      type: "gaussian"
      std: 0.01
    }
    bias_filler {
      type: "constant"
      value: 0
    }
  }
}
layer {
  name: "rpn_cls_score_reshape"
  type: "Reshape"
  bottom: "rpn_cls_score"
  top: "rpn_cls_score_reshape"
  reshape_param {
    shape {
      dim: 0
      dim: 2
      dim: -1
      dim: 0
      dim: 0
    }
  }
}
layer {
  name: "rpn-data"
  type: "Python"
  bottom: "rpn_cls_score"
  bottom: "gt_boxes"
  bottom: "data"
  top: "rpn_labels"
  top: "rpn_twin_targets"
  top: "rpn_twin_inside_weights"
  top: "rpn_twin_outside_weights"
  python_param {
    module: "rpn.anchor_target_layer"
    layer: "AnchorTargetLayer"
    param_str: "\'feat_stride\': 8 \n\'scales\': !!python/tuple [1,1.25, 1.5,1.75, 2,2.5, 3,3.5, 4,4.5, 5,5.5, 6,7, 8,9,10,11,12,14,16,18,20,22,24,28,32,36,40,44,52,60,68,76,84,92,100]"
  }
}
layer {
  name: "rpn_loss_cls"
  type: "SoftmaxWithLoss"
  bottom: "rpn_cls_score_reshape"
  bottom: "rpn_labels"
  top: "rpn_cls_loss"
  loss_weight: 1
  propagate_down: true
  propagate_down: false
  loss_param {
    ignore_label: -1
    normalize: true
  }
}
layer {
  name: "rpn_loss_twin"
  type: "SmoothL1Loss"
  bottom: "rpn_twin_pred"
  bottom: "rpn_twin_targets"
  bottom: "rpn_twin_inside_weights"
  bottom: "rpn_twin_outside_weights"
  top: "rpn_loss_twin"
  loss_weight: 1
  smooth_l1_loss_param {
    sigma: 3
  }
}
layer {
  name: "rpn_accuarcy"
  type: "Accuracy"
  bottom: "rpn_cls_score_reshape"
  bottom: "rpn_labels"
  top: "rpn_accuarcy"
  top: "rpn_accuarcy_class"
  propagate_down: false
  propagate_down: false
  accuracy_param {
    ignore_label: -1
  }
}
layer {
  name: "rpn_cls_prob"
  type: "Softmax"
  bottom: "rpn_cls_score_reshape"
  top: "rpn_cls_prob"
}
layer {
  name: "rpn_cls_prob_reshape"
  type: "Reshape"
  bottom: "rpn_cls_prob"
  top: "rpn_cls_prob_reshape"
  reshape_param {
    shape {
      dim: 0
      dim: 74
      dim: -1
      dim: 0
      dim: 0
    }
  }
}
layer {
  name: "proposal"
  type: "Python"
  bottom: "rpn_cls_prob_reshape"
  bottom: "rpn_twin_pred"
  top: "rpn_rois"
  include {
    phase: TRAIN
  }
  python_param {
    module: "rpn.proposal_layer"
    layer: "ProposalLayer"
    param_str: "\'feat_stride\': 8 \n\'scales\': !!python/tuple [1,1.25, 1.5,1.75, 2,2.5, 3,3.5, 4,4.5, 5,5.5, 6,7, 8,9,10,11,12,14,16,18,20,22,24,28,32,36,40,44,52,60,68,76,84,92,100]"
  }
}
layer {
  name: "roi-data"
  type: "Python"
  bottom: "rpn_rois"
  bottom: "gt_boxes"
  top: "rois"
  top: "labels"
  top: "twin_targets"
  top: "twin_inside_weights"
  top: "twin_outside_weights"
  python_param {
    module: "rpn.proposal_target_layer"
    layer: "ProposalTargetLayer"
    param_str: "\'num_classes\': 201"
  }
}
layer {
  name: "roi_pool5"
  type: "ROIPooling"
  bottom: "conv5b"
  bottom: "rois"
  top: "pool5"
  roi_pooling_param {
    pooled_h: 4
    pooled_w: 4
    spatial_scale: 0.0625
    pooled_l: 1
    temporal_scale: 0.125
  }
}
layer {
  name: "fc6"
  type: "InnerProduct"
  bottom: "pool5"
  top: "fc6"
  param {
    lr_mult: 1
    decay_mult: 1
  }
  param {
    lr_mult: 2
    decay_mult: 0
  }
  inner_product_param {
    num_output: 4096
    weight_filler {
      type: "gaussian"
      std: 0.005
    }
    bias_filler {
      type: "constant"
      value: 1
    }
  }
}
layer {
  name: "relu6"
  type: "ReLU"
  bottom: "fc6"
  top: "fc6"
}
layer {
  name: "drop6"
  type: "Dropout"
  bottom: "fc6"
  top: "fc6"
  dropout_param {
    dropout_ratio: 0.5
  }
}
layer {
  name: "cls_score"
  type: "InnerProduct"
  bottom: "fc6"
  top: "cls_score"
  param {
    lr_mult: 1
    decay_mult: 1
  }
  param {
    lr_mult: 2
    decay_mult: 0
  }
  inner_product_param {
    num_output: 201
    weight_filler {
      type: "gaussian"
      std: 0.01
    }
    bias_filler {
      type: "constant"
      value: 0
    }
  }
}
layer {
  name: "twin_pred"
  type: "InnerProduct"
  bottom: "fc6"
  top: "twin_pred"
  param {
    lr_mult: 1
    decay_mult: 1
  }
  param {
    lr_mult: 2
    decay_mult: 0
  }
  inner_product_param {
    num_output: 402
    weight_filler {
      type: "gaussian"
      std: 0.001
    }
    bias_filler {
      type: "constant"
      value: 0
    }
  }
}
layer {
  name: "loss_cls"
  type: "SoftmaxWithLoss"
  bottom: "cls_score"
  bottom: "labels"
  top: "loss_cls"
  loss_weight: 1
  propagate_down: true
  propagate_down: false
}
layer {
  name: "loss_twin"
  type: "SmoothL1Loss"
  bottom: "twin_pred"
  bottom: "twin_targets"
  bottom: "twin_inside_weights"
  bottom: "twin_outside_weights"
  top: "loss_twin"
  loss_weight: 1
}
layer {
  name: "accuarcy"
  type: "Accuracy"
  bottom: "cls_score"
  bottom: "labels"
  top: "accuarcy"
  propagate_down: false
  propagate_down: false
  accuracy_param {
    ignore_label: -1
  }
}
I0417 22:37:25.871397 21484 layer_factory.hpp:77] Creating layer data
I0417 22:37:25.899087 21484 net.cpp:100] Creating Layer data
I0417 22:37:25.899112 21484 net.cpp:408] data -> data
I0417 22:37:25.899125 21484 net.cpp:408] data -> gt_boxes
setting up
has rpn
RoiDataLayer: name_to_top: {'gt_windows': 1, 'data': 0}
I0417 22:37:25.934744 21484 net.cpp:150] Setting up data
I0417 22:37:25.934783 21484 net.cpp:157] Top shape: 1 3 768 112 112 (28901376)
I0417 22:37:25.934789 21484 net.cpp:157] Top shape: 1 101 (101)
I0417 22:37:25.934793 21484 net.cpp:165] Memory required for data: 115605908
I0417 22:37:25.934799 21484 layer_factory.hpp:77] Creating layer data_data_0_split
I0417 22:37:25.934811 21484 net.cpp:100] Creating Layer data_data_0_split
I0417 22:37:25.934816 21484 net.cpp:434] data_data_0_split <- data
I0417 22:37:25.934823 21484 net.cpp:408] data_data_0_split -> data_data_0_split_0
I0417 22:37:25.934831 21484 net.cpp:408] data_data_0_split -> data_data_0_split_1
I0417 22:37:25.934862 21484 net.cpp:150] Setting up data_data_0_split
I0417 22:37:25.934868 21484 net.cpp:157] Top shape: 1 3 768 112 112 (28901376)
I0417 22:37:25.934872 21484 net.cpp:157] Top shape: 1 3 768 112 112 (28901376)
I0417 22:37:25.934875 21484 net.cpp:165] Memory required for data: 346816916
I0417 22:37:25.934880 21484 layer_factory.hpp:77] Creating layer gt_boxes_data_1_split
I0417 22:37:25.934885 21484 net.cpp:100] Creating Layer gt_boxes_data_1_split
I0417 22:37:25.934888 21484 net.cpp:434] gt_boxes_data_1_split <- gt_boxes
I0417 22:37:25.934893 21484 net.cpp:408] gt_boxes_data_1_split -> gt_boxes_data_1_split_0
I0417 22:37:25.934898 21484 net.cpp:408] gt_boxes_data_1_split -> gt_boxes_data_1_split_1
I0417 22:37:25.934921 21484 net.cpp:150] Setting up gt_boxes_data_1_split
I0417 22:37:25.934927 21484 net.cpp:157] Top shape: 1 101 (101)
I0417 22:37:25.934931 21484 net.cpp:157] Top shape: 1 101 (101)
I0417 22:37:25.934933 21484 net.cpp:165] Memory required for data: 346817724
I0417 22:37:25.934937 21484 layer_factory.hpp:77] Creating layer conv1a
I0417 22:37:25.934953 21484 net.cpp:100] Creating Layer conv1a
I0417 22:37:25.934957 21484 net.cpp:434] conv1a <- data_data_0_split_0
I0417 22:37:25.934963 21484 net.cpp:408] conv1a -> conv1a
I0417 22:37:26.525766 21484 net.cpp:150] Setting up conv1a
I0417 22:37:26.525796 21484 net.cpp:157] Top shape: 1 64 768 112 112 (616562688)
I0417 22:37:26.525802 21484 net.cpp:165] Memory required for data: 2813068476
I0417 22:37:26.525821 21484 layer_factory.hpp:77] Creating layer relu1a
I0417 22:37:26.525835 21484 net.cpp:100] Creating Layer relu1a
I0417 22:37:26.525840 21484 net.cpp:434] relu1a <- conv1a
I0417 22:37:26.525846 21484 net.cpp:395] relu1a -> conv1a (in-place)
I0417 22:37:26.526697 21484 net.cpp:150] Setting up relu1a
I0417 22:37:26.526711 21484 net.cpp:157] Top shape: 1 64 768 112 112 (616562688)
I0417 22:37:26.526715 21484 net.cpp:165] Memory required for data: 5279319228
I0417 22:37:26.526721 21484 layer_factory.hpp:77] Creating layer pool1
I0417 22:37:26.526732 21484 net.cpp:100] Creating Layer pool1
I0417 22:37:26.526737 21484 net.cpp:434] pool1 <- conv1a
I0417 22:37:26.526743 21484 net.cpp:408] pool1 -> pool1
I0417 22:37:26.527191 21484 net.cpp:150] Setting up pool1
I0417 22:37:26.527204 21484 net.cpp:157] Top shape: 1 64 768 56 56 (154140672)
I0417 22:37:26.527209 21484 net.cpp:165] Memory required for data: 5895881916
I0417 22:37:26.527212 21484 layer_factory.hpp:77] Creating layer conv2a
I0417 22:37:26.527223 21484 net.cpp:100] Creating Layer conv2a
I0417 22:37:26.527227 21484 net.cpp:434] conv2a <- pool1
I0417 22:37:26.527235 21484 net.cpp:408] conv2a -> conv2a
I0417 22:37:26.540349 21484 net.cpp:150] Setting up conv2a
I0417 22:37:26.540375 21484 net.cpp:157] Top shape: 1 128 768 56 56 (308281344)
I0417 22:37:26.540380 21484 net.cpp:165] Memory required for data: 7129007292
I0417 22:37:26.540393 21484 layer_factory.hpp:77] Creating layer relu2a
I0417 22:37:26.540403 21484 net.cpp:100] Creating Layer relu2a
I0417 22:37:26.540408 21484 net.cpp:434] relu2a <- conv2a
I0417 22:37:26.540413 21484 net.cpp:395] relu2a -> conv2a (in-place)
I0417 22:37:26.540834 21484 net.cpp:150] Setting up relu2a
I0417 22:37:26.540848 21484 net.cpp:157] Top shape: 1 128 768 56 56 (308281344)
I0417 22:37:26.540851 21484 net.cpp:165] Memory required for data: 8362132668
I0417 22:37:26.540856 21484 layer_factory.hpp:77] Creating layer pool2
I0417 22:37:26.540865 21484 net.cpp:100] Creating Layer pool2
I0417 22:37:26.540869 21484 net.cpp:434] pool2 <- conv2a
I0417 22:37:26.540875 21484 net.cpp:408] pool2 -> pool2
I0417 22:37:26.541482 21484 net.cpp:150] Setting up pool2
I0417 22:37:26.541493 21484 net.cpp:157] Top shape: 1 128 384 28 28 (38535168)
I0417 22:37:26.541497 21484 net.cpp:165] Memory required for data: 8516273340
I0417 22:37:26.541502 21484 layer_factory.hpp:77] Creating layer conv3a
I0417 22:37:26.541522 21484 net.cpp:100] Creating Layer conv3a
I0417 22:37:26.541527 21484 net.cpp:434] conv3a <- pool2
I0417 22:37:26.541533 21484 net.cpp:408] conv3a -> conv3a
I0417 22:37:26.567559 21484 net.cpp:150] Setting up conv3a
I0417 22:37:26.567587 21484 net.cpp:157] Top shape: 1 256 384 28 28 (77070336)
I0417 22:37:26.567591 21484 net.cpp:165] Memory required for data: 8824554684
I0417 22:37:26.567602 21484 layer_factory.hpp:77] Creating layer relu3a
I0417 22:37:26.567610 21484 net.cpp:100] Creating Layer relu3a
I0417 22:37:26.567615 21484 net.cpp:434] relu3a <- conv3a
I0417 22:37:26.567622 21484 net.cpp:395] relu3a -> conv3a (in-place)
I0417 22:37:26.567919 21484 net.cpp:150] Setting up relu3a
I0417 22:37:26.567930 21484 net.cpp:157] Top shape: 1 256 384 28 28 (77070336)
I0417 22:37:26.567934 21484 net.cpp:165] Memory required for data: 9132836028
I0417 22:37:26.567939 21484 layer_factory.hpp:77] Creating layer conv3b
I0417 22:37:26.567950 21484 net.cpp:100] Creating Layer conv3b
I0417 22:37:26.567955 21484 net.cpp:434] conv3b <- conv3a
I0417 22:37:26.567963 21484 net.cpp:408] conv3b -> conv3b
I0417 22:37:26.619768 21484 net.cpp:150] Setting up conv3b
I0417 22:37:26.619796 21484 net.cpp:157] Top shape: 1 256 384 28 28 (77070336)
I0417 22:37:26.619801 21484 net.cpp:165] Memory required for data: 9441117372
I0417 22:37:26.619809 21484 layer_factory.hpp:77] Creating layer relu3b
I0417 22:37:26.619819 21484 net.cpp:100] Creating Layer relu3b
I0417 22:37:26.619823 21484 net.cpp:434] relu3b <- conv3b
I0417 22:37:26.619832 21484 net.cpp:395] relu3b -> conv3b (in-place)
I0417 22:37:26.620288 21484 net.cpp:150] Setting up relu3b
I0417 22:37:26.620302 21484 net.cpp:157] Top shape: 1 256 384 28 28 (77070336)
I0417 22:37:26.620306 21484 net.cpp:165] Memory required for data: 9749398716
I0417 22:37:26.620309 21484 layer_factory.hpp:77] Creating layer pool3
I0417 22:37:26.620317 21484 net.cpp:100] Creating Layer pool3
I0417 22:37:26.620322 21484 net.cpp:434] pool3 <- conv3b
I0417 22:37:26.620327 21484 net.cpp:408] pool3 -> pool3
I0417 22:37:26.621645 21484 net.cpp:150] Setting up pool3
I0417 22:37:26.621666 21484 net.cpp:157] Top shape: 1 256 192 14 14 (9633792)
I0417 22:37:26.621673 21484 net.cpp:165] Memory required for data: 9787933884
I0417 22:37:26.621677 21484 layer_factory.hpp:77] Creating layer conv4a
I0417 22:37:26.621692 21484 net.cpp:100] Creating Layer conv4a
I0417 22:37:26.621701 21484 net.cpp:434] conv4a <- pool3
I0417 22:37:26.621706 21484 net.cpp:408] conv4a -> conv4a
I0417 22:37:26.719723 21484 net.cpp:150] Setting up conv4a
I0417 22:37:26.719749 21484 net.cpp:157] Top shape: 1 512 192 14 14 (19267584)
I0417 22:37:26.719753 21484 net.cpp:165] Memory required for data: 9865004220
I0417 22:37:26.719768 21484 layer_factory.hpp:77] Creating layer relu4a
I0417 22:37:26.719782 21484 net.cpp:100] Creating Layer relu4a
I0417 22:37:26.719792 21484 net.cpp:434] relu4a <- conv4a
I0417 22:37:26.719805 21484 net.cpp:395] relu4a -> conv4a (in-place)
I0417 22:37:26.720121 21484 net.cpp:150] Setting up relu4a
I0417 22:37:26.720134 21484 net.cpp:157] Top shape: 1 512 192 14 14 (19267584)
I0417 22:37:26.720139 21484 net.cpp:165] Memory required for data: 9942074556
I0417 22:37:26.720142 21484 layer_factory.hpp:77] Creating layer conv4b
I0417 22:37:26.720155 21484 net.cpp:100] Creating Layer conv4b
I0417 22:37:26.720161 21484 net.cpp:434] conv4b <- conv4a
I0417 22:37:26.720168 21484 net.cpp:408] conv4b -> conv4b
I0417 22:37:26.915997 21484 net.cpp:150] Setting up conv4b
I0417 22:37:26.916023 21484 net.cpp:157] Top shape: 1 512 192 14 14 (19267584)
I0417 22:37:26.916026 21484 net.cpp:165] Memory required for data: 10019144892
I0417 22:37:26.916035 21484 layer_factory.hpp:77] Creating layer relu4b
I0417 22:37:26.916045 21484 net.cpp:100] Creating Layer relu4b
I0417 22:37:26.916049 21484 net.cpp:434] relu4b <- conv4b
I0417 22:37:26.916056 21484 net.cpp:395] relu4b -> conv4b (in-place)
I0417 22:37:26.916213 21484 net.cpp:150] Setting up relu4b
I0417 22:37:26.916224 21484 net.cpp:157] Top shape: 1 512 192 14 14 (19267584)
I0417 22:37:26.916230 21484 net.cpp:165] Memory required for data: 10096215228
I0417 22:37:26.916234 21484 layer_factory.hpp:77] Creating layer pool4
I0417 22:37:26.916241 21484 net.cpp:100] Creating Layer pool4
I0417 22:37:26.916244 21484 net.cpp:434] pool4 <- conv4b
I0417 22:37:26.916252 21484 net.cpp:408] pool4 -> pool4
I0417 22:37:26.917567 21484 net.cpp:150] Setting up pool4
I0417 22:37:26.917582 21484 net.cpp:157] Top shape: 1 512 96 7 7 (2408448)
I0417 22:37:26.917588 21484 net.cpp:165] Memory required for data: 10105849020
I0417 22:37:26.917594 21484 layer_factory.hpp:77] Creating layer conv5a
I0417 22:37:26.917613 21484 net.cpp:100] Creating Layer conv5a
I0417 22:37:26.917618 21484 net.cpp:434] conv5a <- pool4
I0417 22:37:26.917626 21484 net.cpp:408] conv5a -> conv5a
I0417 22:37:27.117815 21484 net.cpp:150] Setting up conv5a
I0417 22:37:27.117839 21484 net.cpp:157] Top shape: 1 512 96 7 7 (2408448)
I0417 22:37:27.117843 21484 net.cpp:165] Memory required for data: 10115482812
I0417 22:37:27.117852 21484 layer_factory.hpp:77] Creating layer relu5a
I0417 22:37:27.117862 21484 net.cpp:100] Creating Layer relu5a
I0417 22:37:27.117866 21484 net.cpp:434] relu5a <- conv5a
I0417 22:37:27.117874 21484 net.cpp:395] relu5a -> conv5a (in-place)
I0417 22:37:27.119647 21484 net.cpp:150] Setting up relu5a
I0417 22:37:27.119659 21484 net.cpp:157] Top shape: 1 512 96 7 7 (2408448)
I0417 22:37:27.119663 21484 net.cpp:165] Memory required for data: 10125116604
I0417 22:37:27.119668 21484 layer_factory.hpp:77] Creating layer conv5b
I0417 22:37:27.119683 21484 net.cpp:100] Creating Layer conv5b
I0417 22:37:27.119689 21484 net.cpp:434] conv5b <- conv5a
I0417 22:37:27.119695 21484 net.cpp:408] conv5b -> conv5b
I0417 22:37:27.312914 21484 net.cpp:150] Setting up conv5b
I0417 22:37:27.312940 21484 net.cpp:157] Top shape: 1 512 96 7 7 (2408448)
I0417 22:37:27.312945 21484 net.cpp:165] Memory required for data: 10134750396
I0417 22:37:27.312954 21484 layer_factory.hpp:77] Creating layer relu5b
I0417 22:37:27.312964 21484 net.cpp:100] Creating Layer relu5b
I0417 22:37:27.312971 21484 net.cpp:434] relu5b <- conv5b
I0417 22:37:27.312978 21484 net.cpp:395] relu5b -> conv5b (in-place)
I0417 22:37:27.313870 21484 net.cpp:150] Setting up relu5b
I0417 22:37:27.313880 21484 net.cpp:157] Top shape: 1 512 96 7 7 (2408448)
I0417 22:37:27.313884 21484 net.cpp:165] Memory required for data: 10144384188
I0417 22:37:27.313889 21484 layer_factory.hpp:77] Creating layer conv5b_relu5b_0_split
I0417 22:37:27.313894 21484 net.cpp:100] Creating Layer conv5b_relu5b_0_split
I0417 22:37:27.313899 21484 net.cpp:434] conv5b_relu5b_0_split <- conv5b
I0417 22:37:27.313905 21484 net.cpp:408] conv5b_relu5b_0_split -> conv5b_relu5b_0_split_0
I0417 22:37:27.313911 21484 net.cpp:408] conv5b_relu5b_0_split -> conv5b_relu5b_0_split_1
I0417 22:37:27.313946 21484 net.cpp:150] Setting up conv5b_relu5b_0_split
I0417 22:37:27.313954 21484 net.cpp:157] Top shape: 1 512 96 7 7 (2408448)
I0417 22:37:27.313959 21484 net.cpp:157] Top shape: 1 512 96 7 7 (2408448)
I0417 22:37:27.313962 21484 net.cpp:165] Memory required for data: 10163651772
I0417 22:37:27.313967 21484 layer_factory.hpp:77] Creating layer rpn_conv/3x3
I0417 22:37:27.313982 21484 net.cpp:100] Creating Layer rpn_conv/3x3
I0417 22:37:27.313985 21484 net.cpp:434] rpn_conv/3x3 <- conv5b_relu5b_0_split_0
I0417 22:37:27.313992 21484 net.cpp:408] rpn_conv/3x3 -> rpn/output
I0417 22:37:27.505527 21484 net.cpp:150] Setting up rpn_conv/3x3
I0417 22:37:27.505563 21484 net.cpp:157] Top shape: 1 512 96 4 4 (786432)
I0417 22:37:27.505568 21484 net.cpp:165] Memory required for data: 10166797500
I0417 22:37:27.505583 21484 layer_factory.hpp:77] Creating layer rpn_relu/3x3
I0417 22:37:27.505592 21484 net.cpp:100] Creating Layer rpn_relu/3x3
I0417 22:37:27.505596 21484 net.cpp:434] rpn_relu/3x3 <- rpn/output
I0417 22:37:27.505602 21484 net.cpp:395] rpn_relu/3x3 -> rpn/output (in-place)
I0417 22:37:27.505899 21484 net.cpp:150] Setting up rpn_relu/3x3
I0417 22:37:27.505911 21484 net.cpp:157] Top shape: 1 512 96 4 4 (786432)
I0417 22:37:27.505915 21484 net.cpp:165] Memory required for data: 10169943228
I0417 22:37:27.505919 21484 layer_factory.hpp:77] Creating layer rpn_conv/3x3_2
I0417 22:37:27.505931 21484 net.cpp:100] Creating Layer rpn_conv/3x3_2
I0417 22:37:27.505937 21484 net.cpp:434] rpn_conv/3x3_2 <- rpn/output
I0417 22:37:27.505944 21484 net.cpp:408] rpn_conv/3x3_2 -> rpn/output_2
I0417 22:37:27.701320 21484 net.cpp:150] Setting up rpn_conv/3x3_2
I0417 22:37:27.701346 21484 net.cpp:157] Top shape: 1 512 96 2 2 (196608)
I0417 22:37:27.701350 21484 net.cpp:165] Memory required for data: 10170729660
I0417 22:37:27.701359 21484 layer_factory.hpp:77] Creating layer rpn_relu/3x3_2
I0417 22:37:27.701371 21484 net.cpp:100] Creating Layer rpn_relu/3x3_2
I0417 22:37:27.701378 21484 net.cpp:434] rpn_relu/3x3_2 <- rpn/output_2
I0417 22:37:27.701385 21484 net.cpp:395] rpn_relu/3x3_2 -> rpn/output_2 (in-place)
I0417 22:37:27.701709 21484 net.cpp:150] Setting up rpn_relu/3x3_2
I0417 22:37:27.701720 21484 net.cpp:157] Top shape: 1 512 96 2 2 (196608)
I0417 22:37:27.701725 21484 net.cpp:165] Memory required for data: 10171516092
I0417 22:37:27.701728 21484 layer_factory.hpp:77] Creating layer rpn/output_pool
I0417 22:37:27.701737 21484 net.cpp:100] Creating Layer rpn/output_pool
I0417 22:37:27.701741 21484 net.cpp:434] rpn/output_pool <- rpn/output_2
I0417 22:37:27.701746 21484 net.cpp:408] rpn/output_pool -> rpn/output_pool
I0417 22:37:27.701925 21484 net.cpp:150] Setting up rpn/output_pool
I0417 22:37:27.701936 21484 net.cpp:157] Top shape: 1 512 96 1 1 (49152)
I0417 22:37:27.701938 21484 net.cpp:165] Memory required for data: 10171712700
I0417 22:37:27.701944 21484 layer_factory.hpp:77] Creating layer rpn/output_pool_rpn/output_pool_0_split
I0417 22:37:27.701951 21484 net.cpp:100] Creating Layer rpn/output_pool_rpn/output_pool_0_split
I0417 22:37:27.701954 21484 net.cpp:434] rpn/output_pool_rpn/output_pool_0_split <- rpn/output_pool
I0417 22:37:27.701959 21484 net.cpp:408] rpn/output_pool_rpn/output_pool_0_split -> rpn/output_pool_rpn/output_pool_0_split_0
I0417 22:37:27.701966 21484 net.cpp:408] rpn/output_pool_rpn/output_pool_0_split -> rpn/output_pool_rpn/output_pool_0_split_1
I0417 22:37:27.701997 21484 net.cpp:150] Setting up rpn/output_pool_rpn/output_pool_0_split
I0417 22:37:27.702004 21484 net.cpp:157] Top shape: 1 512 96 1 1 (49152)
I0417 22:37:27.702010 21484 net.cpp:157] Top shape: 1 512 96 1 1 (49152)
I0417 22:37:27.702013 21484 net.cpp:165] Memory required for data: 10172105916
I0417 22:37:27.702018 21484 layer_factory.hpp:77] Creating layer rpn_cls_score
I0417 22:37:27.702026 21484 net.cpp:100] Creating Layer rpn_cls_score
I0417 22:37:27.702030 21484 net.cpp:434] rpn_cls_score <- rpn/output_pool_rpn/output_pool_0_split_0
I0417 22:37:27.702036 21484 net.cpp:408] rpn_cls_score -> rpn_cls_score
I0417 22:37:27.704059 21484 net.cpp:150] Setting up rpn_cls_score
I0417 22:37:27.704082 21484 net.cpp:157] Top shape: 1 74 96 1 1 (7104)
I0417 22:37:27.704085 21484 net.cpp:165] Memory required for data: 10172134332
I0417 22:37:27.704092 21484 layer_factory.hpp:77] Creating layer rpn_cls_score_rpn_cls_score_0_split
I0417 22:37:27.704099 21484 net.cpp:100] Creating Layer rpn_cls_score_rpn_cls_score_0_split
I0417 22:37:27.704103 21484 net.cpp:434] rpn_cls_score_rpn_cls_score_0_split <- rpn_cls_score
I0417 22:37:27.704108 21484 net.cpp:408] rpn_cls_score_rpn_cls_score_0_split -> rpn_cls_score_rpn_cls_score_0_split_0
I0417 22:37:27.704114 21484 net.cpp:408] rpn_cls_score_rpn_cls_score_0_split -> rpn_cls_score_rpn_cls_score_0_split_1
I0417 22:37:27.704155 21484 net.cpp:150] Setting up rpn_cls_score_rpn_cls_score_0_split
I0417 22:37:27.704164 21484 net.cpp:157] Top shape: 1 74 96 1 1 (7104)
I0417 22:37:27.704167 21484 net.cpp:157] Top shape: 1 74 96 1 1 (7104)
I0417 22:37:27.704170 21484 net.cpp:165] Memory required for data: 10172191164
I0417 22:37:27.704174 21484 layer_factory.hpp:77] Creating layer rpn_twin_pred
I0417 22:37:27.704187 21484 net.cpp:100] Creating Layer rpn_twin_pred
I0417 22:37:27.704195 21484 net.cpp:434] rpn_twin_pred <- rpn/output_pool_rpn/output_pool_0_split_1
I0417 22:37:27.704200 21484 net.cpp:408] rpn_twin_pred -> rpn_twin_pred
I0417 22:37:27.706128 21484 net.cpp:150] Setting up rpn_twin_pred
I0417 22:37:27.706146 21484 net.cpp:157] Top shape: 1 74 96 1 1 (7104)
I0417 22:37:27.706152 21484 net.cpp:165] Memory required for data: 10172219580
I0417 22:37:27.706161 21484 layer_factory.hpp:77] Creating layer rpn_twin_pred_rpn_twin_pred_0_split
I0417 22:37:27.706172 21484 net.cpp:100] Creating Layer rpn_twin_pred_rpn_twin_pred_0_split
I0417 22:37:27.706177 21484 net.cpp:434] rpn_twin_pred_rpn_twin_pred_0_split <- rpn_twin_pred
I0417 22:37:27.706188 21484 net.cpp:408] rpn_twin_pred_rpn_twin_pred_0_split -> rpn_twin_pred_rpn_twin_pred_0_split_0
I0417 22:37:27.706199 21484 net.cpp:408] rpn_twin_pred_rpn_twin_pred_0_split -> rpn_twin_pred_rpn_twin_pred_0_split_1
I0417 22:37:27.706248 21484 net.cpp:150] Setting up rpn_twin_pred_rpn_twin_pred_0_split
I0417 22:37:27.706257 21484 net.cpp:157] Top shape: 1 74 96 1 1 (7104)
I0417 22:37:27.706261 21484 net.cpp:157] Top shape: 1 74 96 1 1 (7104)
I0417 22:37:27.706264 21484 net.cpp:165] Memory required for data: 10172276412
I0417 22:37:27.706269 21484 layer_factory.hpp:77] Creating layer rpn_cls_score_reshape
I0417 22:37:27.706279 21484 net.cpp:100] Creating Layer rpn_cls_score_reshape
I0417 22:37:27.706285 21484 net.cpp:434] rpn_cls_score_reshape <- rpn_cls_score_rpn_cls_score_0_split_0
I0417 22:37:27.706292 21484 net.cpp:408] rpn_cls_score_reshape -> rpn_cls_score_reshape
I0417 22:37:27.706320 21484 net.cpp:150] Setting up rpn_cls_score_reshape
I0417 22:37:27.706326 21484 net.cpp:157] Top shape: 1 2 3552 1 1 (7104)
I0417 22:37:27.706329 21484 net.cpp:165] Memory required for data: 10172304828
I0417 22:37:27.706333 21484 layer_factory.hpp:77] Creating layer rpn_cls_score_reshape_rpn_cls_score_reshape_0_split
I0417 22:37:27.706339 21484 net.cpp:100] Creating Layer rpn_cls_score_reshape_rpn_cls_score_reshape_0_split
I0417 22:37:27.706344 21484 net.cpp:434] rpn_cls_score_reshape_rpn_cls_score_reshape_0_split <- rpn_cls_score_reshape
I0417 22:37:27.706349 21484 net.cpp:408] rpn_cls_score_reshape_rpn_cls_score_reshape_0_split -> rpn_cls_score_reshape_rpn_cls_score_reshape_0_split_0
I0417 22:37:27.706358 21484 net.cpp:408] rpn_cls_score_reshape_rpn_cls_score_reshape_0_split -> rpn_cls_score_reshape_rpn_cls_score_reshape_0_split_1
I0417 22:37:27.706365 21484 net.cpp:408] rpn_cls_score_reshape_rpn_cls_score_reshape_0_split -> rpn_cls_score_reshape_rpn_cls_score_reshape_0_split_2
I0417 22:37:27.706404 21484 net.cpp:150] Setting up rpn_cls_score_reshape_rpn_cls_score_reshape_0_split
I0417 22:37:27.706413 21484 net.cpp:157] Top shape: 1 2 3552 1 1 (7104)
I0417 22:37:27.706416 21484 net.cpp:157] Top shape: 1 2 3552 1 1 (7104)
I0417 22:37:27.706423 21484 net.cpp:157] Top shape: 1 2 3552 1 1 (7104)
I0417 22:37:27.706426 21484 net.cpp:165] Memory required for data: 10172390076
I0417 22:37:27.706429 21484 layer_factory.hpp:77] Creating layer rpn-data
I0417 22:37:27.706873 21484 net.cpp:100] Creating Layer rpn-data
I0417 22:37:27.706885 21484 net.cpp:434] rpn-data <- rpn_cls_score_rpn_cls_score_0_split_1
I0417 22:37:27.706892 21484 net.cpp:434] rpn-data <- gt_boxes_data_1_split_0
I0417 22:37:27.706897 21484 net.cpp:434] rpn-data <- data_data_0_split_1
I0417 22:37:27.706902 21484 net.cpp:408] rpn-data -> rpn_labels
I0417 22:37:27.706909 21484 net.cpp:408] rpn-data -> rpn_twin_targets
I0417 22:37:27.706915 21484 net.cpp:408] rpn-data -> rpn_twin_inside_weights
I0417 22:37:27.706921 21484 net.cpp:408] rpn-data -> rpn_twin_outside_weights
I0417 22:37:27.709384 21484 net.cpp:150] Setting up rpn-data
I0417 22:37:27.709403 21484 net.cpp:157] Top shape: 1 1 3552 1 1 (3552)
I0417 22:37:27.709410 21484 net.cpp:157] Top shape: 1 74 96 1 1 (7104)
I0417 22:37:27.709415 21484 net.cpp:157] Top shape: 1 74 96 1 1 (7104)
I0417 22:37:27.709419 21484 net.cpp:157] Top shape: 1 74 96 1 1 (7104)
I0417 22:37:27.709424 21484 net.cpp:165] Memory required for data: 10172489532
I0417 22:37:27.709426 21484 layer_factory.hpp:77] Creating layer rpn_labels_rpn-data_0_split
I0417 22:37:27.709432 21484 net.cpp:100] Creating Layer rpn_labels_rpn-data_0_split
I0417 22:37:27.709436 21484 net.cpp:434] rpn_labels_rpn-data_0_split <- rpn_labels
I0417 22:37:27.709442 21484 net.cpp:408] rpn_labels_rpn-data_0_split -> rpn_labels_rpn-data_0_split_0
I0417 22:37:27.709450 21484 net.cpp:408] rpn_labels_rpn-data_0_split -> rpn_labels_rpn-data_0_split_1
I0417 22:37:27.709498 21484 net.cpp:150] Setting up rpn_labels_rpn-data_0_split
I0417 22:37:27.709512 21484 net.cpp:157] Top shape: 1 1 3552 1 1 (3552)
I0417 22:37:27.709519 21484 net.cpp:157] Top shape: 1 1 3552 1 1 (3552)
I0417 22:37:27.709524 21484 net.cpp:165] Memory required for data: 10172517948
I0417 22:37:27.709530 21484 layer_factory.hpp:77] Creating layer rpn_loss_cls
I0417 22:37:27.709544 21484 net.cpp:100] Creating Layer rpn_loss_cls
I0417 22:37:27.709556 21484 net.cpp:434] rpn_loss_cls <- rpn_cls_score_reshape_rpn_cls_score_reshape_0_split_0
I0417 22:37:27.709564 21484 net.cpp:434] rpn_loss_cls <- rpn_labels_rpn-data_0_split_0
…
I0417 22:37:27.710194 21484 layer_factory.hpp:77] Creating layer rpn_accuarcy
I0417 22:37:27.710203 21484 net.cpp:100] Creating Layer rpn_accuarcy
I0417 22:37:27.710211 21484 net.cpp:434] rpn_accuarcy <- rpn_cls_score_reshape_rpn_cls_score_reshape_0_split_1
I0417 22:37:27.710216 21484 net.cpp:434] rpn_accuarcy <- rpn_labels_rpn-data_0_split_1
I0417 22:37:27.710222 21484 net.cpp:408] rpn_accuarcy -> rpn_accuarcy
I0417 22:37:27.710227 21484 net.cpp:408] rpn_accuarcy -> rpn_accuarcy_class
I0417 22:37:27.710265 21484 net.cpp:150] Setting up rpn_accuarcy
I0417 22:37:27.710273 21484 net.cpp:157] Top shape: (1)
I0417 22:37:27.710278 21484 net.cpp:157] Top shape: 2 (2)
I0417 22:37:27.710280 21484 net.cpp:165] Memory required for data: 10172517968
I0417 22:37:27.710284 21484 layer_factory.hpp:77] Creating layer rpn_cls_prob
I0417 22:37:27.710290 21484 net.cpp:100] Creating Layer rpn_cls_prob
I0417 22:37:27.710294 21484 net.cpp:434] rpn_cls_prob <- rpn_cls_score_reshape_rpn_cls_score_reshape_0_split_2
I0417 22:37:27.710299 21484 net.cpp:408] rpn_cls_prob -> rpn_cls_prob
I0417 22:37:27.710494 21484 net.cpp:150] Setting up rpn_cls_prob
I0417 22:37:27.710505 21484 net.cpp:157] Top shape: 1 2 3552 1 1 (7104)
I0417 22:37:27.710508 21484 net.cpp:165] Memory required for data: 10172546384
I0417 22:37:27.710511 21484 layer_factory.hpp:77] Creating layer rpn_cls_prob_reshape
I0417 22:37:27.710517 21484 net.cpp:100] Creating Layer rpn_cls_prob_reshape
I0417 22:37:27.710521 21484 net.cpp:434] rpn_cls_prob_reshape <- rpn_cls_prob
I0417 22:37:27.710527 21484 net.cpp:408] rpn_cls_prob_reshape -> rpn_cls_prob_reshape
I0417 22:37:27.710556 21484 net.cpp:150] Setting up rpn_cls_prob_reshape
I0417 22:37:27.710564 21484 net.cpp:157] Top shape: 1 74 96 1 1 (7104)
I0417 22:37:27.710568 21484 net.cpp:165] Memory required for data: 10172574800
I0417 22:37:27.710572 21484 layer_factory.hpp:77] Creating layer proposal
I0417 22:37:27.711136 21484 net.cpp:100] Creating Layer proposal
I0417 22:37:27.711149 21484 net.cpp:434] proposal <- rpn_cls_prob_reshape
I0417 22:37:27.711156 21484 net.cpp:434] proposal <- rpn_twin_pred_rpn_twin_pred_0_split_1
I0417 22:37:27.711161 21484 net.cpp:408] proposal -> rpn_rois
I0417 22:37:27.713410 21484 net.cpp:150] Setting up proposal
I0417 22:37:27.713433 21484 net.cpp:157] Top shape: 1 3 (3)
I0417 22:37:27.713438 21484 net.cpp:165] Memory required for data: 10172574812
I0417 22:37:27.713441 21484 layer_factory.hpp:77] Creating layer roi-data
I0417 22:37:27.713572 21484 net.cpp:100] Creating Layer roi-data
I0417 22:37:27.713583 21484 net.cpp:434] roi-data <- rpn_rois
I0417 22:37:27.713588 21484 net.cpp:434] roi-data <- gt_boxes_data_1_split_1
I0417 22:37:27.713594 21484 net.cpp:408] roi-data -> rois
I0417 22:37:27.713601 21484 net.cpp:408] roi-data -> labels
I0417 22:37:27.713613 21484 net.cpp:408] roi-data -> twin_targets
I0417 22:37:27.713618 21484 net.cpp:408] roi-data -> twin_inside_weights
I0417 22:37:27.713624 21484 net.cpp:408] roi-data -> twin_outside_weights
I0417 22:37:27.713927 21484 net.cpp:150] Setting up roi-data
I0417 22:37:27.713941 21484 net.cpp:157] Top shape: 1 3 (3)
I0417 22:37:27.713945 21484 net.cpp:157] Top shape: 1 1 (1)
I0417 22:37:27.713950 21484 net.cpp:157] Top shape: 1 402 (402)
I0417 22:37:27.713953 21484 net.cpp:157] Top shape: 1 402 (402)
I0417 22:37:27.713958 21484 net.cpp:157] Top shape: 1 402 (402)
I0417 22:37:27.713960 21484 net.cpp:165] Memory required for data: 10172579652
I0417 22:37:27.713964 21484 layer_factory.hpp:77] Creating layer labels_roi-data_1_split
I0417 22:37:27.713969 21484 net.cpp:100] Creating Layer labels_roi-data_1_split
I0417 22:37:27.713973 21484 net.cpp:434] labels_roi-data_1_split <- labels
I0417 22:37:27.713979 21484 net.cpp:408] labels_roi-data_1_split -> labels_roi-data_1_split_0
I0417 22:37:27.713985 21484 net.cpp:408] labels_roi-data_1_split -> labels_roi-data_1_split_1
I0417 22:37:27.714020 21484 net.cpp:150] Setting up labels_roi-data_1_split
I0417 22:37:27.714030 21484 net.cpp:157] Top shape: 1 1 (1)
I0417 22:37:27.714033 21484 net.cpp:157] Top shape: 1 1 (1)
I0417 22:37:27.714037 21484 net.cpp:165] Memory required for data: 10172579660
I0417 22:37:27.714040 21484 layer_factory.hpp:77] Creating layer roi_pool5
I0417 22:37:27.714049 21484 net.cpp:100] Creating Layer roi_pool5
I0417 22:37:27.714053 21484 net.cpp:434] roi_pool5 <- conv5b_relu5b_0_split_1
I0417 22:37:27.714057 21484 net.cpp:434] roi_pool5 <- rois
I0417 22:37:27.714062 21484 net.cpp:408] roi_pool5 -> pool5
I0417 22:37:27.714069 21484 roi_pooling_layer.cpp:34] Temporal scale: 0.125
I0417 22:37:27.714077 21484 roi_pooling_layer.cpp:35] Spatial scale: 0.0625
I0417 22:37:27.714108 21484 net.cpp:150] Setting up roi_pool5
I0417 22:37:27.714115 21484 net.cpp:157] Top shape: 1 512 1 4 4 (8192)
I0417 22:37:27.714119 21484 net.cpp:165] Memory required for data: 10172612428
I0417 22:37:27.714125 21484 layer_factory.hpp:77] Creating layer fc6
I0417 22:37:27.714139 21484 net.cpp:100] Creating Layer fc6
I0417 22:37:27.714148 21484 net.cpp:434] fc6 <- pool5
I0417 22:37:27.714159 21484 net.cpp:408] fc6 -> fc6
I0417 22:37:28.619009 21484 net.cpp:150] Setting up fc6
I0417 22:37:28.619035 21484 net.cpp:157] Top shape: 1 4096 (4096)
I0417 22:37:28.619038 21484 net.cpp:165] Memory required for data: 10172628812
I0417 22:37:28.619048 21484 layer_factory.hpp:77] Creating layer relu6
I0417 22:37:28.619058 21484 net.cpp:100] Creating Layer relu6
I0417 22:37:28.619065 21484 net.cpp:434] relu6 <- fc6
I0417 22:37:28.619071 21484 net.cpp:395] relu6 -> fc6 (in-place)
I0417 22:37:28.619544 21484 net.cpp:150] Setting up relu6
I0417 22:37:28.619556 21484 net.cpp:157] Top shape: 1 4096 (4096)
I0417 22:37:28.619560 21484 net.cpp:165] Memory required for data: 10172645196
I0417 22:37:28.619565 21484 layer_factory.hpp:77] Creating layer drop6
I0417 22:37:28.619576 21484 net.cpp:100] Creating Layer drop6
I0417 22:37:28.619580 21484 net.cpp:434] drop6 <- fc6
I0417 22:37:28.619586 21484 net.cpp:395] drop6 -> fc6 (in-place)
I0417 22:37:28.619613 21484 net.cpp:150] Setting up drop6
I0417 22:37:28.619621 21484 net.cpp:157] Top shape: 1 4096 (4096)
I0417 22:37:28.619624 21484 net.cpp:165] Memory required for data: 10172661580
I0417 22:37:28.619627 21484 layer_factory.hpp:77] Creating layer fc6_drop6_0_split
I0417 22:37:28.619633 21484 net.cpp:100] Creating Layer fc6_drop6_0_split
I0417 22:37:28.619637 21484 net.cpp:434] fc6_drop6_0_split <- fc6
I0417 22:37:28.619642 21484 net.cpp:408] fc6_drop6_0_split -> fc6_drop6_0_split_0
I0417 22:37:28.619647 21484 net.cpp:408] fc6_drop6_0_split -> fc6_drop6_0_split_1
I0417 22:37:28.619684 21484 net.cpp:150] Setting up fc6_drop6_0_split
I0417 22:37:28.619693 21484 net.cpp:157] Top shape: 1 4096 (4096)
I0417 22:37:28.619696 21484 net.cpp:157] Top shape: 1 4096 (4096)
I0417 22:37:28.619699 21484 net.cpp:165] Memory required for data: 10172694348
I0417 22:37:28.619702 21484 layer_factory.hpp:77] Creating layer cls_score
I0417 22:37:28.619710 21484 net.cpp:100] Creating Layer cls_score
I0417 22:37:28.619714 21484 net.cpp:434] cls_score <- fc6_drop6_0_split_0
I0417 22:37:28.619719 21484 net.cpp:408] cls_score -> cls_score
I0417 22:37:28.646363 21484 net.cpp:150] Setting up cls_score
I0417 22:37:28.646389 21484 net.cpp:157] Top shape: 1 201 (201)
I0417 22:37:28.646392 21484 net.cpp:165] Memory required for data: 10172695152
I0417 22:37:28.646402 21484 layer_factory.hpp:77] Creating layer cls_score_cls_score_0_split
I0417 22:37:28.646414 21484 net.cpp:100] Creating Layer cls_score_cls_score_0_split
I0417 22:37:28.646419 21484 net.cpp:434] cls_score_cls_score_0_split <- cls_score
I0417 22:37:28.646426 21484 net.cpp:408] cls_score_cls_score_0_split -> cls_score_cls_score_0_split_0
I0417 22:37:28.646441 21484 net.cpp:408] cls_score_cls_score_0_split -> cls_score_cls_score_0_split_1
I0417 22:37:28.646484 21484 net.cpp:150] Setting up cls_score_cls_score_0_split
I0417 22:37:28.646493 21484 net.cpp:157] Top shape: 1 201 (201)
I0417 22:37:28.646497 21484 net.cpp:157] Top shape: 1 201 (201)
I0417 22:37:28.646502 21484 net.cpp:165] Memory required for data: 10172696760
I0417 22:37:28.646507 21484 layer_factory.hpp:77] Creating layer twin_pred
I0417 22:37:28.646514 21484 net.cpp:100] Creating Layer twin_pred
I0417 22:37:28.646518 21484 net.cpp:434] twin_pred <- fc6_drop6_0_split_1
I0417 22:37:28.646525 21484 net.cpp:408] twin_pred -> twin_pred
I0417 22:37:28.696084 21484 net.cpp:150] Setting up twin_pred
I0417 22:37:28.696107 21484 net.cpp:157] Top shape: 1 402 (402)
I0417 22:37:28.696111 21484 net.cpp:165] Memory required for data: 10172698368
I0417 22:37:28.696121 21484 layer_factory.hpp:77] Creating layer loss_cls
I0417 22:37:28.696131 21484 net.cpp:100] Creating Layer loss_cls
I0417 22:37:28.696136 21484 net.cpp:434] loss_cls <- cls_score_cls_score_0_split_0
I0417 22:37:28.696143 21484 net.cpp:434] loss_cls <- labels_roi-data_1_split_0
I0417 22:37:28.696151 21484 net.cpp:408] loss_cls -> loss_cls
…
