…
stepsize: 350000
snapshot: 0
snapshot_prefix: "./experiments/activitynet/snapshot/activitynet"
average_loss: 100
iter_size: 1
I0417 23:35:49.275480 12065 solver.cpp:81] Creating training net from train_net file: ./experiments/activitynet/train.prototxt
I0417 23:35:49.276523 12065 net.cpp:58] Initializing net from parameters: 
name: "activitynet"
state {
  phase: TRAIN
}
layer {
  name: "data"
  type: "Python"
  top: "data"
  top: "gt_boxes"
  python_param {
    module: "roi_data_layer.layer"
    layer: "RoIDataLayer"
    param_str: "\'num_classes\': 100"
  }
}
layer {
  name: "conv1a"
  type: "Convolution"
  bottom: "data"
  top: "conv1a"
  param {
    lr_mult: 0
    decay_mult: 0
  }
  param {
    lr_mult: 0
    decay_mult: 0
  }
  convolution_param {
    num_output: 64
    pad: 1
    pad: 1
    pad: 1
    kernel_size: 3
    kernel_size: 3
    kernel_size: 3
    weight_filler {
      type: "gaussian"
      std: 0.01
    }
    bias_filler {
      type: "constant"
      value: 0
    }
  }
}
layer {
  name: "relu1a"
  type: "ReLU"
  bottom: "conv1a"
  top: "conv1a"
}
layer {
  name: "pool1"
  type: "Pooling"
  bottom: "conv1a"
  top: "pool1"
  pooling_param {
    pool: MAX
    kernel_size: 1
    kernel_size: 2
    kernel_size: 2
    stride: 1
    stride: 2
    stride: 2
  }
}
layer {
  name: "conv2a"
  type: "Convolution"
  bottom: "pool1"
  top: "conv2a"
  param {
    lr_mult: 0
    decay_mult: 0
  }
  param {
    lr_mult: 0
    decay_mult: 0
  }
  convolution_param {
    num_output: 128
    pad: 1
    pad: 1
    pad: 1
    kernel_size: 3
    kernel_size: 3
    kernel_size: 3
    weight_filler {
      type: "gaussian"
      std: 0.01
    }
    bias_filler {
      type: "constant"
      value: 1
    }
  }
}
layer {
  name: "relu2a"
  type: "ReLU"
  bottom: "conv2a"
  top: "conv2a"
}
layer {
  name: "pool2"
  type: "Pooling"
  bottom: "conv2a"
  top: "pool2"
  pooling_param {
    pool: MAX
    kernel_size: 2
    kernel_size: 2
    kernel_size: 2
    stride: 2
    stride: 2
    stride: 2
  }
}
layer {
  name: "conv3a"
  type: "Convolution"
  bottom: "pool2"
  top: "conv3a"
  param {
    lr_mult: 1
    decay_mult: 1
  }
  param {
    lr_mult: 2
    decay_mult: 0
  }
  convolution_param {
    num_output: 256
    pad: 1
    pad: 1
    pad: 1
    kernel_size: 3
    kernel_size: 3
    kernel_size: 3
    weight_filler {
      type: "gaussian"
      std: 0.01
    }
    bias_filler {
      type: "constant"
      value: 1
    }
  }
}
layer {
  name: "relu3a"
  type: "ReLU"
  bottom: "conv3a"
  top: "conv3a"
}
layer {
  name: "conv3b"
  type: "Convolution"
  bottom: "conv3a"
  top: "conv3b"
  param {
    lr_mult: 1
    decay_mult: 1
  }
  param {
    lr_mult: 2
    decay_mult: 0
  }
  convolution_param {
    num_output: 256
    pad: 1
    pad: 1
    pad: 1
    kernel_size: 3
    kernel_size: 3
    kernel_size: 3
    weight_filler {
      type: "gaussian"
      std: 0.01
    }
    bias_filler {
      type: "constant"
      value: 1
    }
  }
}
layer {
  name: "relu3b"
  type: "ReLU"
  bottom: "conv3b"
  top: "conv3b"
}
layer {
  name: "pool3"
  type: "Pooling"
  bottom: "conv3b"
  top: "pool3"
  pooling_param {
    pool: MAX
    kernel_size: 2
    kernel_size: 2
    kernel_size: 2
    stride: 2
    stride: 2
    stride: 2
  }
}
layer {
  name: "conv4a"
  type: "Convolution"
  bottom: "pool3"
  top: "conv4a"
  param {
    lr_mult: 1
    decay_mult: 1
  }
  param {
    lr_mult: 2
    decay_mult: 0
  }
  convolution_param {
    num_output: 512
    pad: 1
    pad: 1
    pad: 1
    kernel_size: 3
    kernel_size: 3
    kernel_size: 3
    weight_filler {
      type: "gaussian"
      std: 0.01
    }
    bias_filler {
      type: "constant"
      value: 1
    }
  }
}
layer {
  name: "relu4a"
  type: "ReLU"
  bottom: "conv4a"
  top: "conv4a"
}
layer {
  name: "conv4b"
  type: "Convolution"
  bottom: "conv4a"
  top: "conv4b"
  param {
    lr_mult: 1
    decay_mult: 1
  }
  param {
    lr_mult: 2
    decay_mult: 0
  }
  convolution_param {
    num_output: 512
    pad: 1
    pad: 1
    pad: 1
    kernel_size: 3
    kernel_size: 3
    kernel_size: 3
    weight_filler {
      type: "gaussian"
      std: 0.01
    }
    bias_filler {
      type: "constant"
      value: 1
    }
  }
}
layer {
  name: "relu4b"
  type: "ReLU"
  bottom: "conv4b"
  top: "conv4b"
}
layer {
  name: "pool4"
  type: "Pooling"
  bottom: "conv4b"
  top: "pool4"
  pooling_param {
    pool: MAX
    kernel_size: 2
    kernel_size: 2
    kernel_size: 2
    stride: 2
    stride: 2
    stride: 2
  }
}
layer {
  name: "conv5a"
  type: "Convolution"
  bottom: "pool4"
  top: "conv5a"
  param {
    lr_mult: 1
    decay_mult: 1
  }
  param {
    lr_mult: 2
    decay_mult: 0
  }
  convolution_param {
    num_output: 512
    pad: 1
    pad: 1
    pad: 1
    kernel_size: 3
    kernel_size: 3
    kernel_size: 3
    weight_filler {
      type: "gaussian"
      std: 0.01
    }
    bias_filler {
      type: "constant"
      value: 1
    }
  }
}
layer {
  name: "relu5a"
  type: "ReLU"
  bottom: "conv5a"
  top: "conv5a"
}
layer {
  name: "conv5b"
  type: "Convolution"
  bottom: "conv5a"
  top: "conv5b"
  param {
    lr_mult: 1
    decay_mult: 1
  }
  param {
    lr_mult: 2
    decay_mult: 0
  }
  convolution_param {
    num_output: 512
    pad: 1
    pad: 1
    pad: 1
    kernel_size: 3
    kernel_size: 3
    kernel_size: 3
    weight_filler {
      type: "gaussian"
      std: 0.01
    }
    bias_filler {
      type: "constant"
      value: 1
    }
  }
}
layer {
  name: "relu5b"
  type: "ReLU"
  bottom: "conv5b"
  top: "conv5b"
}
layer {
  name: "rpn_conv/3x3"
  type: "Convolution"
  bottom: "conv5b"
  top: "rpn/output"
  param {
    lr_mult: 1
    decay_mult: 1
  }
  param {
    lr_mult: 2
    decay_mult: 0
  }
  convolution_param {
    num_output: 512
    pad: 1
    pad: 1
    pad: 1
    kernel_size: 3
    kernel_size: 3
    kernel_size: 3
    stride: 1
    stride: 2
    stride: 2
    weight_filler {
      type: "gaussian"
      std: 0.01
    }
    bias_filler {
      type: "constant"
      value: 0
    }
  }
}
layer {
  name: "rpn_relu/3x3"
  type: "ReLU"
  bottom: "rpn/output"
  top: "rpn/output"
}
layer {
  name: "rpn_conv/3x3_2"
  type: "Convolution"
  bottom: "rpn/output"
  top: "rpn/output_2"
  param {
    lr_mult: 1
    decay_mult: 1
  }
  param {
    lr_mult: 2
    decay_mult: 0
  }
  convolution_param {
    num_output: 512
    pad: 1
    pad: 1
    pad: 1
    kernel_size: 3
    kernel_size: 3
    kernel_size: 3
    stride: 1
    stride: 2
    stride: 2
    weight_filler {
      type: "gaussian"
      std: 0.01
    }
    bias_filler {
      type: "constant"
      value: 0
    }
  }
}
layer {
  name: "rpn_relu/3x3_2"
  type: "ReLU"
  bottom: "rpn/output_2"
  top: "rpn/output_2"
}
layer {
  name: "rpn/output_pool"
  type: "Pooling"
  bottom: "rpn/output_2"
  top: "rpn/output_pool"
  pooling_param {
    pool: MAX
    kernel_size: 1
    kernel_size: 2
    kernel_size: 2
  }
}
layer {
  name: "rpn_cls_score"
  type: "Convolution"
  bottom: "rpn/output_pool"
  top: "rpn_cls_score"
  param {
    lr_mult: 1
    decay_mult: 1
  }
  param {
    lr_mult: 2
    decay_mult: 0
  }
  convolution_param {
    num_output: 74
    kernel_size: 1
    kernel_size: 1
    kernel_size: 1
    weight_filler {
      type: "gaussian"
      std: 0.01
    }
    bias_filler {
      type: "constant"
      value: 0
    }
  }
}
layer {
  name: "rpn_twin_pred"
  type: "Convolution"
  bottom: "rpn/output_pool"
  top: "rpn_twin_pred"
  param {
    lr_mult: 1
    decay_mult: 1
  }
  param {
    lr_mult: 2
    decay_mult: 0
  }
  convolution_param {
    num_output: 74
    kernel_size: 1
    kernel_size: 1
    kernel_size: 1
    weight_filler {
      type: "gaussian"
      std: 0.01
    }
    bias_filler {
      type: "constant"
      value: 0
    }
  }
}
layer {
  name: "rpn_cls_score_reshape"
  type: "Reshape"
  bottom: "rpn_cls_score"
  top: "rpn_cls_score_reshape"
  reshape_param {
    shape {
      dim: 0
      dim: 2
      dim: -1
      dim: 0
      dim: 0
    }
  }
}
layer {
  name: "rpn-data"
  type: "Python"
  bottom: "rpn_cls_score"
  bottom: "gt_boxes"
  bottom: "data"
  top: "rpn_labels"
  top: "rpn_twin_targets"
  top: "rpn_twin_inside_weights"
  top: "rpn_twin_outside_weights"
  python_param {
    module: "rpn.anchor_target_layer"
    layer: "AnchorTargetLayer"
    param_str: "\'feat_stride\': 8 \n\'scales\': !!python/tuple [1,1.25, 1.5,1.75, 2,2.5, 3,3.5, 4,4.5, 5,5.5, 6,7, 8,9,10,11,12,14,16,18,20,22,24,28,32,36,40,44,52,60,68,76,84,92,100]"
  }
}
layer {
  name: "rpn_loss_cls"
  type: "SoftmaxWithLoss"
  bottom: "rpn_cls_score_reshape"
  bottom: "rpn_labels"
  top: "rpn_cls_loss"
  loss_weight: 1
  propagate_down: true
  propagate_down: false
  loss_param {
    ignore_label: -1
    normalize: true
  }
}
layer {
  name: "rpn_loss_twin"
  type: "SmoothL1Loss"
  bottom: "rpn_twin_pred"
  bottom: "rpn_twin_targets"
  bottom: "rpn_twin_inside_weights"
  bottom: "rpn_twin_outside_weights"
  top: "rpn_loss_twin"
  loss_weight: 1
  smooth_l1_loss_param {
    sigma: 3
  }
}
layer {
  name: "rpn_accuarcy"
  type: "Accuracy"
  bottom: "rpn_cls_score_reshape"
  bottom: "rpn_labels"
  top: "rpn_accuarcy"
  top: "rpn_accuarcy_class"
  propagate_down: false
  propagate_down: false
  accuracy_param {
    ignore_label: -1
  }
}
layer {
  name: "rpn_cls_prob"
  type: "Softmax"
  bottom: "rpn_cls_score_reshape"
  top: "rpn_cls_prob"
}
layer {
  name: "rpn_cls_prob_reshape"
  type: "Reshape"
  bottom: "rpn_cls_prob"
  top: "rpn_cls_prob_reshape"
  reshape_param {
    shape {
      dim: 0
      dim: 74
      dim: -1
      dim: 0
      dim: 0
    }
  }
}
layer {
  name: "proposal"
  type: "Python"
  bottom: "rpn_cls_prob_reshape"
  bottom: "rpn_twin_pred"
  top: "rpn_rois"
  include {
    phase: TRAIN
  }
  python_param {
    module: "rpn.proposal_layer"
    layer: "ProposalLayer"
    param_str: "\'feat_stride\': 8 \n\'scales\': !!python/tuple [1,1.25, 1.5,1.75, 2,2.5, 3,3.5, 4,4.5, 5,5.5, 6,7, 8,9,10,11,12,14,16,18,20,22,24,28,32,36,40,44,52,60,68,76,84,92,100]"
  }
}
layer {
  name: "roi-data"
  type: "Python"
  bottom: "rpn_rois"
  bottom: "gt_boxes"
  top: "rois"
  top: "labels"
  top: "twin_targets"
  top: "twin_inside_weights"
  top: "twin_outside_weights"
  python_param {
    module: "rpn.proposal_target_layer"
    layer: "ProposalTargetLayer"
    param_str: "\'num_classes\': 201"
  }
}
layer {
  name: "roi_pool5"
  type: "ROIPooling"
  bottom: "conv5b"
  bottom: "rois"
  top: "pool5"
  roi_pooling_param {
    pooled_h: 4
    pooled_w: 4
    spatial_scale: 0.0625
    pooled_l: 1
    temporal_scale: 0.125
  }
}
layer {
  name: "fc6"
  type: "InnerProduct"
  bottom: "pool5"
  top: "fc6"
  param {
    lr_mult: 1
    decay_mult: 1
  }
  param {
    lr_mult: 2
    decay_mult: 0
  }
  inner_product_param {
    num_output: 4096
    weight_filler {
      type: "gaussian"
      std: 0.005
    }
    bias_filler {
      type: "constant"
      value: 1
    }
  }
}
layer {
  name: "relu6"
  type: "ReLU"
  bottom: "fc6"
  top: "fc6"
}
layer {
  name: "drop6"
  type: "Dropout"
  bottom: "fc6"
  top: "fc6"
  dropout_param {
    dropout_ratio: 0.5
  }
}
layer {
  name: "cls_score"
  type: "InnerProduct"
  bottom: "fc6"
  top: "cls_score"
  param {
    lr_mult: 1
    decay_mult: 1
  }
  param {
    lr_mult: 2
    decay_mult: 0
  }
  inner_product_param {
    num_output: 201
    weight_filler {
      type: "gaussian"
      std: 0.01
    }
    bias_filler {
      type: "constant"
      value: 0
    }
  }
}
layer {
  name: "twin_pred"
  type: "InnerProduct"
  bottom: "fc6"
  top: "twin_pred"
  param {
    lr_mult: 1
    decay_mult: 1
  }
  param {
    lr_mult: 2
    decay_mult: 0
  }
  inner_product_param {
    num_output: 402
    weight_filler {
      type: "gaussian"
      std: 0.001
    }
    bias_filler {
      type: "constant"
      value: 0
    }
  }
}
layer {
  name: "loss_cls"
  type: "SoftmaxWithLoss"
  bottom: "cls_score"
  bottom: "labels"
  top: "loss_cls"
  loss_weight: 1
  propagate_down: true
  propagate_down: false
}
layer {
  name: "loss_twin"
  type: "SmoothL1Loss"
  bottom: "twin_pred"
  bottom: "twin_targets"
  bottom: "twin_inside_weights"
  bottom: "twin_outside_weights"
  top: "loss_twin"
  loss_weight: 1
}
layer {
  name: "accuarcy"
  type: "Accuracy"
  bottom: "cls_score"
  bottom: "labels"
  top: "accuarcy"
  propagate_down: false
  propagate_down: false
  accuracy_param {
    ignore_label: -1
  }
}
I0417 23:35:49.276731 12065 layer_factory.hpp:77] Creating layer data
I0417 23:35:49.301020 12065 net.cpp:100] Creating Layer data
I0417 23:35:49.301043 12065 net.cpp:408] data -> data
I0417 23:35:49.301056 12065 net.cpp:408] data -> gt_boxes
setting up
has rpn
RoiDataLayer: name_to_top: {'gt_windows': 1, 'data': 0}
I0417 23:35:49.347759 12065 net.cpp:150] Setting up data
I0417 23:35:49.347780 12065 net.cpp:157] Top shape: 1 3 768 112 112 (28901376)
I0417 23:35:49.347784 12065 net.cpp:157] Top shape: 1 101 (101)
I0417 23:35:49.347787 12065 net.cpp:165] Memory required for data: 115605908
I0417 23:35:49.347795 12065 layer_factory.hpp:77] Creating layer data_data_0_split
I0417 23:35:49.347808 12065 net.cpp:100] Creating Layer data_data_0_split
I0417 23:35:49.347815 12065 net.cpp:434] data_data_0_split <- data
I0417 23:35:49.347822 12065 net.cpp:408] data_data_0_split -> data_data_0_split_0
I0417 23:35:49.347831 12065 net.cpp:408] data_data_0_split -> data_data_0_split_1
I0417 23:35:49.347863 12065 net.cpp:150] Setting up data_data_0_split
I0417 23:35:49.347872 12065 net.cpp:157] Top shape: 1 3 768 112 112 (28901376)
I0417 23:35:49.347875 12065 net.cpp:157] Top shape: 1 3 768 112 112 (28901376)
I0417 23:35:49.347878 12065 net.cpp:165] Memory required for data: 346816916
I0417 23:35:49.347882 12065 layer_factory.hpp:77] Creating layer gt_boxes_data_1_split
I0417 23:35:49.347887 12065 net.cpp:100] Creating Layer gt_boxes_data_1_split
I0417 23:35:49.347892 12065 net.cpp:434] gt_boxes_data_1_split <- gt_boxes
I0417 23:35:49.347895 12065 net.cpp:408] gt_boxes_data_1_split -> gt_boxes_data_1_split_0
I0417 23:35:49.347901 12065 net.cpp:408] gt_boxes_data_1_split -> gt_boxes_data_1_split_1
I0417 23:35:49.347925 12065 net.cpp:150] Setting up gt_boxes_data_1_split
I0417 23:35:49.347932 12065 net.cpp:157] Top shape: 1 101 (101)
I0417 23:35:49.347936 12065 net.cpp:157] Top shape: 1 101 (101)
I0417 23:35:49.347939 12065 net.cpp:165] Memory required for data: 346817724
I0417 23:35:49.347942 12065 layer_factory.hpp:77] Creating layer conv1a
I0417 23:35:49.347956 12065 net.cpp:100] Creating Layer conv1a
I0417 23:35:49.347964 12065 net.cpp:434] conv1a <- data_data_0_split_0
I0417 23:35:49.347970 12065 net.cpp:408] conv1a -> conv1a
I0417 23:35:49.616590 12065 net.cpp:150] Setting up conv1a
I0417 23:35:49.616621 12065 net.cpp:157] Top shape: 1 64 768 112 112 (616562688)
I0417 23:35:49.616624 12065 net.cpp:165] Memory required for data: 2813068476
I0417 23:35:49.616642 12065 layer_factory.hpp:77] Creating layer relu1a
I0417 23:35:49.616657 12065 net.cpp:100] Creating Layer relu1a
I0417 23:35:49.616664 12065 net.cpp:434] relu1a <- conv1a
I0417 23:35:49.616670 12065 net.cpp:395] relu1a -> conv1a (in-place)
I0417 23:35:49.617121 12065 net.cpp:150] Setting up relu1a
I0417 23:35:49.617133 12065 net.cpp:157] Top shape: 1 64 768 112 112 (616562688)
I0417 23:35:49.617138 12065 net.cpp:165] Memory required for data: 5279319228
I0417 23:35:49.617142 12065 layer_factory.hpp:77] Creating layer pool1
I0417 23:35:49.617152 12065 net.cpp:100] Creating Layer pool1
I0417 23:35:49.617156 12065 net.cpp:434] pool1 <- conv1a
I0417 23:35:49.617161 12065 net.cpp:408] pool1 -> pool1
I0417 23:35:49.618224 12065 net.cpp:150] Setting up pool1
I0417 23:35:49.618234 12065 net.cpp:157] Top shape: 1 64 768 56 56 (154140672)
I0417 23:35:49.618247 12065 net.cpp:165] Memory required for data: 5895881916
I0417 23:35:49.618252 12065 layer_factory.hpp:77] Creating layer conv2a
I0417 23:35:49.618263 12065 net.cpp:100] Creating Layer conv2a
I0417 23:35:49.618268 12065 net.cpp:434] conv2a <- pool1
I0417 23:35:49.618273 12065 net.cpp:408] conv2a -> conv2a
I0417 23:35:49.629184 12065 net.cpp:150] Setting up conv2a
I0417 23:35:49.629209 12065 net.cpp:157] Top shape: 1 128 768 56 56 (308281344)
I0417 23:35:49.629214 12065 net.cpp:165] Memory required for data: 7129007292
I0417 23:35:49.629226 12065 layer_factory.hpp:77] Creating layer relu2a
I0417 23:35:49.629235 12065 net.cpp:100] Creating Layer relu2a
I0417 23:35:49.629240 12065 net.cpp:434] relu2a <- conv2a
I0417 23:35:49.629245 12065 net.cpp:395] relu2a -> conv2a (in-place)
I0417 23:35:49.629580 12065 net.cpp:150] Setting up relu2a
I0417 23:35:49.629595 12065 net.cpp:157] Top shape: 1 128 768 56 56 (308281344)
I0417 23:35:49.629597 12065 net.cpp:165] Memory required for data: 8362132668
I0417 23:35:49.629601 12065 layer_factory.hpp:77] Creating layer pool2
I0417 23:35:49.629611 12065 net.cpp:100] Creating Layer pool2
I0417 23:35:49.629616 12065 net.cpp:434] pool2 <- conv2a
I0417 23:35:49.629622 12065 net.cpp:408] pool2 -> pool2
I0417 23:35:49.629786 12065 net.cpp:150] Setting up pool2
I0417 23:35:49.629796 12065 net.cpp:157] Top shape: 1 128 384 28 28 (38535168)
I0417 23:35:49.629799 12065 net.cpp:165] Memory required for data: 8516273340
I0417 23:35:49.629803 12065 layer_factory.hpp:77] Creating layer conv3a
I0417 23:35:49.629814 12065 net.cpp:100] Creating Layer conv3a
I0417 23:35:49.629818 12065 net.cpp:434] conv3a <- pool2
I0417 23:35:49.629823 12065 net.cpp:408] conv3a -> conv3a
I0417 23:35:49.655208 12065 net.cpp:150] Setting up conv3a
I0417 23:35:49.655231 12065 net.cpp:157] Top shape: 1 256 384 28 28 (77070336)
I0417 23:35:49.655239 12065 net.cpp:165] Memory required for data: 8824554684
I0417 23:35:49.655251 12065 layer_factory.hpp:77] Creating layer relu3a
I0417 23:35:49.655262 12065 net.cpp:100] Creating Layer relu3a
I0417 23:35:49.655267 12065 net.cpp:434] relu3a <- conv3a
I0417 23:35:49.655272 12065 net.cpp:395] relu3a -> conv3a (in-place)
I0417 23:35:49.655640 12065 net.cpp:150] Setting up relu3a
I0417 23:35:49.655652 12065 net.cpp:157] Top shape: 1 256 384 28 28 (77070336)
I0417 23:35:49.655656 12065 net.cpp:165] Memory required for data: 9132836028
I0417 23:35:49.655660 12065 layer_factory.hpp:77] Creating layer conv3b
I0417 23:35:49.655671 12065 net.cpp:100] Creating Layer conv3b
I0417 23:35:49.655674 12065 net.cpp:434] conv3b <- conv3a
I0417 23:35:49.655680 12065 net.cpp:408] conv3b -> conv3b
I0417 23:35:49.709547 12065 net.cpp:150] Setting up conv3b
I0417 23:35:49.709573 12065 net.cpp:157] Top shape: 1 256 384 28 28 (77070336)
I0417 23:35:49.709576 12065 net.cpp:165] Memory required for data: 9441117372
I0417 23:35:49.709585 12065 layer_factory.hpp:77] Creating layer relu3b
I0417 23:35:49.709594 12065 net.cpp:100] Creating Layer relu3b
I0417 23:35:49.709599 12065 net.cpp:434] relu3b <- conv3b
I0417 23:35:49.709605 12065 net.cpp:395] relu3b -> conv3b (in-place)
I0417 23:35:49.710021 12065 net.cpp:150] Setting up relu3b
I0417 23:35:49.710033 12065 net.cpp:157] Top shape: 1 256 384 28 28 (77070336)
I0417 23:35:49.710036 12065 net.cpp:165] Memory required for data: 9749398716
I0417 23:35:49.710041 12065 layer_factory.hpp:77] Creating layer pool3
I0417 23:35:49.710048 12065 net.cpp:100] Creating Layer pool3
I0417 23:35:49.710052 12065 net.cpp:434] pool3 <- conv3b
I0417 23:35:49.710057 12065 net.cpp:408] pool3 -> pool3
I0417 23:35:49.711604 12065 net.cpp:150] Setting up pool3
I0417 23:35:49.711616 12065 net.cpp:157] Top shape: 1 256 192 14 14 (9633792)
I0417 23:35:49.711621 12065 net.cpp:165] Memory required for data: 9787933884
I0417 23:35:49.711623 12065 layer_factory.hpp:77] Creating layer conv4a
I0417 23:35:49.711633 12065 net.cpp:100] Creating Layer conv4a
I0417 23:35:49.711640 12065 net.cpp:434] conv4a <- pool3
I0417 23:35:49.711647 12065 net.cpp:408] conv4a -> conv4a
I0417 23:35:49.809588 12065 net.cpp:150] Setting up conv4a
I0417 23:35:49.809622 12065 net.cpp:157] Top shape: 1 512 192 14 14 (19267584)
I0417 23:35:49.809629 12065 net.cpp:165] Memory required for data: 9865004220
I0417 23:35:49.809648 12065 layer_factory.hpp:77] Creating layer relu4a
I0417 23:35:49.809662 12065 net.cpp:100] Creating Layer relu4a
I0417 23:35:49.809674 12065 net.cpp:434] relu4a <- conv4a
I0417 23:35:49.809685 12065 net.cpp:395] relu4a -> conv4a (in-place)
I0417 23:35:49.810173 12065 net.cpp:150] Setting up relu4a
I0417 23:35:49.810191 12065 net.cpp:157] Top shape: 1 512 192 14 14 (19267584)
I0417 23:35:49.810199 12065 net.cpp:165] Memory required for data: 9942074556
I0417 23:35:49.810204 12065 layer_factory.hpp:77] Creating layer conv4b
I0417 23:35:49.810223 12065 net.cpp:100] Creating Layer conv4b
I0417 23:35:49.810235 12065 net.cpp:434] conv4b <- conv4a
I0417 23:35:49.810245 12065 net.cpp:408] conv4b -> conv4b
I0417 23:35:50.001621 12065 net.cpp:150] Setting up conv4b
I0417 23:35:50.001648 12065 net.cpp:157] Top shape: 1 512 192 14 14 (19267584)
I0417 23:35:50.001652 12065 net.cpp:165] Memory required for data: 10019144892
I0417 23:35:50.001662 12065 layer_factory.hpp:77] Creating layer relu4b
I0417 23:35:50.001670 12065 net.cpp:100] Creating Layer relu4b
I0417 23:35:50.001674 12065 net.cpp:434] relu4b <- conv4b
I0417 23:35:50.001680 12065 net.cpp:395] relu4b -> conv4b (in-place)
I0417 23:35:50.001832 12065 net.cpp:150] Setting up relu4b
I0417 23:35:50.001842 12065 net.cpp:157] Top shape: 1 512 192 14 14 (19267584)
I0417 23:35:50.001847 12065 net.cpp:165] Memory required for data: 10096215228
I0417 23:35:50.001850 12065 layer_factory.hpp:77] Creating layer pool4
I0417 23:35:50.001857 12065 net.cpp:100] Creating Layer pool4
I0417 23:35:50.001860 12065 net.cpp:434] pool4 <- conv4b
I0417 23:35:50.001866 12065 net.cpp:408] pool4 -> pool4
I0417 23:35:50.002219 12065 net.cpp:150] Setting up pool4
I0417 23:35:50.002231 12065 net.cpp:157] Top shape: 1 512 96 7 7 (2408448)
I0417 23:35:50.002236 12065 net.cpp:165] Memory required for data: 10105849020
I0417 23:35:50.002240 12065 layer_factory.hpp:77] Creating layer conv5a
I0417 23:35:50.002249 12065 net.cpp:100] Creating Layer conv5a
I0417 23:35:50.002257 12065 net.cpp:434] conv5a <- pool4
I0417 23:35:50.002264 12065 net.cpp:408] conv5a -> conv5a
I0417 23:35:50.190630 12065 net.cpp:150] Setting up conv5a
I0417 23:35:50.190657 12065 net.cpp:157] Top shape: 1 512 96 7 7 (2408448)
I0417 23:35:50.190663 12065 net.cpp:165] Memory required for data: 10115482812
I0417 23:35:50.190675 12065 layer_factory.hpp:77] Creating layer relu5a
I0417 23:35:50.190690 12065 net.cpp:100] Creating Layer relu5a
I0417 23:35:50.190698 12065 net.cpp:434] relu5a <- conv5a
I0417 23:35:50.190708 12065 net.cpp:395] relu5a -> conv5a (in-place)
I0417 23:35:50.191507 12065 net.cpp:150] Setting up relu5a
I0417 23:35:50.191521 12065 net.cpp:157] Top shape: 1 512 96 7 7 (2408448)
I0417 23:35:50.191526 12065 net.cpp:165] Memory required for data: 10125116604
I0417 23:35:50.191532 12065 layer_factory.hpp:77] Creating layer conv5b
I0417 23:35:50.191551 12065 net.cpp:100] Creating Layer conv5b
I0417 23:35:50.191560 12065 net.cpp:434] conv5b <- conv5a
I0417 23:35:50.191572 12065 net.cpp:408] conv5b -> conv5b
I0417 23:35:50.380982 12065 net.cpp:150] Setting up conv5b
I0417 23:35:50.381011 12065 net.cpp:157] Top shape: 1 512 96 7 7 (2408448)
I0417 23:35:50.381016 12065 net.cpp:165] Memory required for data: 10134750396
I0417 23:35:50.381024 12065 layer_factory.hpp:77] Creating layer relu5b
I0417 23:35:50.381033 12065 net.cpp:100] Creating Layer relu5b
I0417 23:35:50.381038 12065 net.cpp:434] relu5b <- conv5b
I0417 23:35:50.381045 12065 net.cpp:395] relu5b -> conv5b (in-place)
I0417 23:35:50.382019 12065 net.cpp:150] Setting up relu5b
I0417 23:35:50.382028 12065 net.cpp:157] Top shape: 1 512 96 7 7 (2408448)
I0417 23:35:50.382032 12065 net.cpp:165] Memory required for data: 10144384188
I0417 23:35:50.382036 12065 layer_factory.hpp:77] Creating layer conv5b_relu5b_0_split
I0417 23:35:50.382045 12065 net.cpp:100] Creating Layer conv5b_relu5b_0_split
I0417 23:35:50.382047 12065 net.cpp:434] conv5b_relu5b_0_split <- conv5b
I0417 23:35:50.382053 12065 net.cpp:408] conv5b_relu5b_0_split -> conv5b_relu5b_0_split_0
I0417 23:35:50.382059 12065 net.cpp:408] conv5b_relu5b_0_split -> conv5b_relu5b_0_split_1
I0417 23:35:50.382097 12065 net.cpp:150] Setting up conv5b_relu5b_0_split
I0417 23:35:50.382103 12065 net.cpp:157] Top shape: 1 512 96 7 7 (2408448)
I0417 23:35:50.382107 12065 net.cpp:157] Top shape: 1 512 96 7 7 (2408448)
I0417 23:35:50.382110 12065 net.cpp:165] Memory required for data: 10163651772
I0417 23:35:50.382113 12065 layer_factory.hpp:77] Creating layer rpn_conv/3x3
I0417 23:35:50.382124 12065 net.cpp:100] Creating Layer rpn_conv/3x3
I0417 23:35:50.382128 12065 net.cpp:434] rpn_conv/3x3 <- conv5b_relu5b_0_split_0
I0417 23:35:50.382134 12065 net.cpp:408] rpn_conv/3x3 -> rpn/output
I0417 23:35:50.570461 12065 net.cpp:150] Setting up rpn_conv/3x3
I0417 23:35:50.570487 12065 net.cpp:157] Top shape: 1 512 96 4 4 (786432)
I0417 23:35:50.570489 12065 net.cpp:165] Memory required for data: 10166797500
I0417 23:35:50.570503 12065 layer_factory.hpp:77] Creating layer rpn_relu/3x3
I0417 23:35:50.570513 12065 net.cpp:100] Creating Layer rpn_relu/3x3
I0417 23:35:50.570518 12065 net.cpp:434] rpn_relu/3x3 <- rpn/output
I0417 23:35:50.570524 12065 net.cpp:395] rpn_relu/3x3 -> rpn/output (in-place)
I0417 23:35:50.570878 12065 net.cpp:150] Setting up rpn_relu/3x3
I0417 23:35:50.570891 12065 net.cpp:157] Top shape: 1 512 96 4 4 (786432)
I0417 23:35:50.570897 12065 net.cpp:165] Memory required for data: 10169943228
I0417 23:35:50.570901 12065 layer_factory.hpp:77] Creating layer rpn_conv/3x3_2
I0417 23:35:50.570912 12065 net.cpp:100] Creating Layer rpn_conv/3x3_2
I0417 23:35:50.570916 12065 net.cpp:434] rpn_conv/3x3_2 <- rpn/output
I0417 23:35:50.570924 12065 net.cpp:408] rpn_conv/3x3_2 -> rpn/output_2
I0417 23:35:50.757092 12065 net.cpp:150] Setting up rpn_conv/3x3_2
I0417 23:35:50.757117 12065 net.cpp:157] Top shape: 1 512 96 2 2 (196608)
I0417 23:35:50.757120 12065 net.cpp:165] Memory required for data: 10170729660
I0417 23:35:50.757129 12065 layer_factory.hpp:77] Creating layer rpn_relu/3x3_2
I0417 23:35:50.757138 12065 net.cpp:100] Creating Layer rpn_relu/3x3_2
I0417 23:35:50.757143 12065 net.cpp:434] rpn_relu/3x3_2 <- rpn/output_2
I0417 23:35:50.757149 12065 net.cpp:395] rpn_relu/3x3_2 -> rpn/output_2 (in-place)
I0417 23:35:50.758613 12065 net.cpp:150] Setting up rpn_relu/3x3_2
I0417 23:35:50.758626 12065 net.cpp:157] Top shape: 1 512 96 2 2 (196608)
I0417 23:35:50.758630 12065 net.cpp:165] Memory required for data: 10171516092
I0417 23:35:50.758635 12065 layer_factory.hpp:77] Creating layer rpn/output_pool
I0417 23:35:50.758642 12065 net.cpp:100] Creating Layer rpn/output_pool
I0417 23:35:50.758646 12065 net.cpp:434] rpn/output_pool <- rpn/output_2
I0417 23:35:50.758653 12065 net.cpp:408] rpn/output_pool -> rpn/output_pool
I0417 23:35:50.758860 12065 net.cpp:150] Setting up rpn/output_pool
I0417 23:35:50.758873 12065 net.cpp:157] Top shape: 1 512 96 1 1 (49152)
I0417 23:35:50.758877 12065 net.cpp:165] Memory required for data: 10171712700
I0417 23:35:50.758882 12065 layer_factory.hpp:77] Creating layer rpn/output_pool_rpn/output_pool_0_split
I0417 23:35:50.758888 12065 net.cpp:100] Creating Layer rpn/output_pool_rpn/output_pool_0_split
I0417 23:35:50.758891 12065 net.cpp:434] rpn/output_pool_rpn/output_pool_0_split <- rpn/output_pool
I0417 23:35:50.758896 12065 net.cpp:408] rpn/output_pool_rpn/output_pool_0_split -> rpn/output_pool_rpn/output_pool_0_split_0
I0417 23:35:50.758901 12065 net.cpp:408] rpn/output_pool_rpn/output_pool_0_split -> rpn/output_pool_rpn/output_pool_0_split_1
I0417 23:35:50.758934 12065 net.cpp:150] Setting up rpn/output_pool_rpn/output_pool_0_split
I0417 23:35:50.758941 12065 net.cpp:157] Top shape: 1 512 96 1 1 (49152)
I0417 23:35:50.758945 12065 net.cpp:157] Top shape: 1 512 96 1 1 (49152)
I0417 23:35:50.758949 12065 net.cpp:165] Memory required for data: 10172105916
I0417 23:35:50.758950 12065 layer_factory.hpp:77] Creating layer rpn_cls_score
I0417 23:35:50.758960 12065 net.cpp:100] Creating Layer rpn_cls_score
I0417 23:35:50.758965 12065 net.cpp:434] rpn_cls_score <- rpn/output_pool_rpn/output_pool_0_split_0
I0417 23:35:50.758970 12065 net.cpp:408] rpn_cls_score -> rpn_cls_score
I0417 23:35:50.761471 12065 net.cpp:150] Setting up rpn_cls_score
I0417 23:35:50.761485 12065 net.cpp:157] Top shape: 1 74 96 1 1 (7104)
I0417 23:35:50.761489 12065 net.cpp:165] Memory required for data: 10172134332
I0417 23:35:50.761495 12065 layer_factory.hpp:77] Creating layer rpn_cls_score_rpn_cls_score_0_split
I0417 23:35:50.761500 12065 net.cpp:100] Creating Layer rpn_cls_score_rpn_cls_score_0_split
I0417 23:35:50.761504 12065 net.cpp:434] rpn_cls_score_rpn_cls_score_0_split <- rpn_cls_score
I0417 23:35:50.761508 12065 net.cpp:408] rpn_cls_score_rpn_cls_score_0_split -> rpn_cls_score_rpn_cls_score_0_split_0
I0417 23:35:50.761514 12065 net.cpp:408] rpn_cls_score_rpn_cls_score_0_split -> rpn_cls_score_rpn_cls_score_0_split_1
I0417 23:35:50.761555 12065 net.cpp:150] Setting up rpn_cls_score_rpn_cls_score_0_split
I0417 23:35:50.761562 12065 net.cpp:157] Top shape: 1 74 96 1 1 (7104)
I0417 23:35:50.761566 12065 net.cpp:157] Top shape: 1 74 96 1 1 (7104)
I0417 23:35:50.761569 12065 net.cpp:165] Memory required for data: 10172191164
I0417 23:35:50.761572 12065 layer_factory.hpp:77] Creating layer rpn_twin_pred
I0417 23:35:50.761584 12065 net.cpp:100] Creating Layer rpn_twin_pred
I0417 23:35:50.761590 12065 net.cpp:434] rpn_twin_pred <- rpn/output_pool_rpn/output_pool_0_split_1
I0417 23:35:50.761595 12065 net.cpp:408] rpn_twin_pred -> rpn_twin_pred
I0417 23:35:50.765053 12065 net.cpp:150] Setting up rpn_twin_pred
I0417 23:35:50.765067 12065 net.cpp:157] Top shape: 1 74 96 1 1 (7104)
I0417 23:35:50.765071 12065 net.cpp:165] Memory required for data: 10172219580
I0417 23:35:50.765077 12065 layer_factory.hpp:77] Creating layer rpn_twin_pred_rpn_twin_pred_0_split
I0417 23:35:50.765082 12065 net.cpp:100] Creating Layer rpn_twin_pred_rpn_twin_pred_0_split
I0417 23:35:50.765086 12065 net.cpp:434] rpn_twin_pred_rpn_twin_pred_0_split <- rpn_twin_pred
I0417 23:35:50.765091 12065 net.cpp:408] rpn_twin_pred_rpn_twin_pred_0_split -> rpn_twin_pred_rpn_twin_pred_0_split_0
I0417 23:35:50.765097 12065 net.cpp:408] rpn_twin_pred_rpn_twin_pred_0_split -> rpn_twin_pred_rpn_twin_pred_0_split_1
I0417 23:35:50.765133 12065 net.cpp:150] Setting up rpn_twin_pred_rpn_twin_pred_0_split
I0417 23:35:50.765141 12065 net.cpp:157] Top shape: 1 74 96 1 1 (7104)
I0417 23:35:50.765146 12065 net.cpp:157] Top shape: 1 74 96 1 1 (7104)
I0417 23:35:50.765147 12065 net.cpp:165] Memory required for data: 10172276412
I0417 23:35:50.765152 12065 layer_factory.hpp:77] Creating layer rpn_cls_score_reshape
I0417 23:35:50.765162 12065 net.cpp:100] Creating Layer rpn_cls_score_reshape
I0417 23:35:50.765167 12065 net.cpp:434] rpn_cls_score_reshape <- rpn_cls_score_rpn_cls_score_0_split_0
I0417 23:35:50.765173 12065 net.cpp:408] rpn_cls_score_reshape -> rpn_cls_score_reshape
I0417 23:35:50.765202 12065 net.cpp:150] Setting up rpn_cls_score_reshape
I0417 23:35:50.765208 12065 net.cpp:157] Top shape: 1 2 3552 1 1 (7104)
I0417 23:35:50.765211 12065 net.cpp:165] Memory required for data: 10172304828
I0417 23:35:50.765214 12065 layer_factory.hpp:77] Creating layer rpn_cls_score_reshape_rpn_cls_score_reshape_0_split
I0417 23:35:50.765219 12065 net.cpp:100] Creating Layer rpn_cls_score_reshape_rpn_cls_score_reshape_0_split
I0417 23:35:50.765223 12065 net.cpp:434] rpn_cls_score_reshape_rpn_cls_score_reshape_0_split <- rpn_cls_score_reshape
I0417 23:35:50.765228 12065 net.cpp:408] rpn_cls_score_reshape_rpn_cls_score_reshape_0_split -> rpn_cls_score_reshape_rpn_cls_score_reshape_0_split_0
I0417 23:35:50.765238 12065 net.cpp:408] rpn_cls_score_reshape_rpn_cls_score_reshape_0_split -> rpn_cls_score_reshape_rpn_cls_score_reshape_0_split_1
I0417 23:35:50.765242 12065 net.cpp:408] rpn_cls_score_reshape_rpn_cls_score_reshape_0_split -> rpn_cls_score_reshape_rpn_cls_score_reshape_0_split_2
I0417 23:35:50.765281 12065 net.cpp:150] Setting up rpn_cls_score_reshape_rpn_cls_score_reshape_0_split
I0417 23:35:50.765292 12065 net.cpp:157] Top shape: 1 2 3552 1 1 (7104)
I0417 23:35:50.765306 12065 net.cpp:157] Top shape: 1 2 3552 1 1 (7104)
I0417 23:35:50.765312 12065 net.cpp:157] Top shape: 1 2 3552 1 1 (7104)
I0417 23:35:50.765317 12065 net.cpp:165] Memory required for data: 10172390076
I0417 23:35:50.765327 12065 layer_factory.hpp:77] Creating layer rpn-data
I0417 23:35:50.767238 12065 net.cpp:100] Creating Layer rpn-data
I0417 23:35:50.767256 12065 net.cpp:434] rpn-data <- rpn_cls_score_rpn_cls_score_0_split_1
I0417 23:35:50.767266 12065 net.cpp:434] rpn-data <- gt_boxes_data_1_split_0
I0417 23:35:50.767274 12065 net.cpp:434] rpn-data <- data_data_0_split_1
I0417 23:35:50.767284 12065 net.cpp:408] rpn-data -> rpn_labels
I0417 23:35:50.767300 12065 net.cpp:408] rpn-data -> rpn_twin_targets
I0417 23:35:50.767312 12065 net.cpp:408] rpn-data -> rpn_twin_inside_weights
I0417 23:35:50.767323 12065 net.cpp:408] rpn-data -> rpn_twin_outside_weights
I0417 23:35:50.769541 12065 net.cpp:150] Setting up rpn-data
I0417 23:35:50.769556 12065 net.cpp:157] Top shape: 1 1 3552 1 1 (3552)
I0417 23:35:50.769562 12065 net.cpp:157] Top shape: 1 74 96 1 1 (7104)
I0417 23:35:50.769567 12065 net.cpp:157] Top shape: 1 74 96 1 1 (7104)
I0417 23:35:50.769569 12065 net.cpp:157] Top shape: 1 74 96 1 1 (7104)
I0417 23:35:50.769572 12065 net.cpp:165] Memory required for data: 10172489532
I0417 23:35:50.769577 12065 layer_factory.hpp:77] Creating layer rpn_labels_rpn-data_0_split
I0417 23:35:50.769582 12065 net.cpp:100] Creating Layer rpn_labels_rpn-data_0_split
I0417 23:35:50.769585 12065 net.cpp:434] rpn_labels_rpn-data_0_split <- rpn_labels
I0417 23:35:50.769592 12065 net.cpp:408] rpn_labels_rpn-data_0_split -> rpn_labels_rpn-data_0_split_0
I0417 23:35:50.769598 12065 net.cpp:408] rpn_labels_rpn-data_0_split -> rpn_labels_rpn-data_0_split_1
I0417 23:35:50.769632 12065 net.cpp:150] Setting up rpn_labels_rpn-data_0_split
I0417 23:35:50.769640 12065 net.cpp:157] Top shape: 1 1 3552 1 1 (3552)
I0417 23:35:50.769645 12065 net.cpp:157] Top shape: 1 1 3552 1 1 (3552)
I0417 23:35:50.769649 12065 net.cpp:165] Memory required for data: 10172517948
I0417 23:35:50.769652 12065 layer_factory.hpp:77] Creating layer rpn_loss_cls
I0417 23:35:50.769660 12065 net.cpp:100] Creating Layer rpn_loss_cls
I0417 23:35:50.769667 12065 net.cpp:434] rpn_loss_cls <- rpn_cls_score_reshape_rpn_cls_score_reshape_0_split_0
I0417 23:35:50.769672 12065 net.cpp:434] rpn_loss_cls <- rpn_labels_rpn-data_0_split_0
…
I0417 23:35:50.770418 12065 layer_factory.hpp:77] Creating layer rpn_accuarcy
I0417 23:35:50.770426 12065 net.cpp:100] Creating Layer rpn_accuarcy
I0417 23:35:50.770431 12065 net.cpp:434] rpn_accuarcy <- rpn_cls_score_reshape_rpn_cls_score_reshape_0_split_1
I0417 23:35:50.770437 12065 net.cpp:434] rpn_accuarcy <- rpn_labels_rpn-data_0_split_1
I0417 23:35:50.770442 12065 net.cpp:408] rpn_accuarcy -> rpn_accuarcy
I0417 23:35:50.770448 12065 net.cpp:408] rpn_accuarcy -> rpn_accuarcy_class
I0417 23:35:50.770483 12065 net.cpp:150] Setting up rpn_accuarcy
I0417 23:35:50.770490 12065 net.cpp:157] Top shape: (1)
I0417 23:35:50.770494 12065 net.cpp:157] Top shape: 2 (2)
I0417 23:35:50.770498 12065 net.cpp:165] Memory required for data: 10172517968
I0417 23:35:50.770500 12065 layer_factory.hpp:77] Creating layer rpn_cls_prob
I0417 23:35:50.770504 12065 net.cpp:100] Creating Layer rpn_cls_prob
I0417 23:35:50.770509 12065 net.cpp:434] rpn_cls_prob <- rpn_cls_score_reshape_rpn_cls_score_reshape_0_split_2
I0417 23:35:50.770514 12065 net.cpp:408] rpn_cls_prob -> rpn_cls_prob
I0417 23:35:50.771788 12065 net.cpp:150] Setting up rpn_cls_prob
I0417 23:35:50.771800 12065 net.cpp:157] Top shape: 1 2 3552 1 1 (7104)
I0417 23:35:50.771805 12065 net.cpp:165] Memory required for data: 10172546384
I0417 23:35:50.771808 12065 layer_factory.hpp:77] Creating layer rpn_cls_prob_reshape
I0417 23:35:50.771816 12065 net.cpp:100] Creating Layer rpn_cls_prob_reshape
I0417 23:35:50.771819 12065 net.cpp:434] rpn_cls_prob_reshape <- rpn_cls_prob
I0417 23:35:50.771824 12065 net.cpp:408] rpn_cls_prob_reshape -> rpn_cls_prob_reshape
I0417 23:35:50.771848 12065 net.cpp:150] Setting up rpn_cls_prob_reshape
I0417 23:35:50.771855 12065 net.cpp:157] Top shape: 1 74 96 1 1 (7104)
I0417 23:35:50.771859 12065 net.cpp:165] Memory required for data: 10172574800
I0417 23:35:50.771862 12065 layer_factory.hpp:77] Creating layer proposal
I0417 23:35:50.772389 12065 net.cpp:100] Creating Layer proposal
I0417 23:35:50.772402 12065 net.cpp:434] proposal <- rpn_cls_prob_reshape
I0417 23:35:50.772406 12065 net.cpp:434] proposal <- rpn_twin_pred_rpn_twin_pred_0_split_1
I0417 23:35:50.772413 12065 net.cpp:408] proposal -> rpn_rois
I0417 23:35:50.774613 12065 net.cpp:150] Setting up proposal
I0417 23:35:50.774627 12065 net.cpp:157] Top shape: 1 3 (3)
I0417 23:35:50.774631 12065 net.cpp:165] Memory required for data: 10172574812
I0417 23:35:50.774636 12065 layer_factory.hpp:77] Creating layer roi-data
I0417 23:35:50.774771 12065 net.cpp:100] Creating Layer roi-data
I0417 23:35:50.774785 12065 net.cpp:434] roi-data <- rpn_rois
I0417 23:35:50.774792 12065 net.cpp:434] roi-data <- gt_boxes_data_1_split_1
I0417 23:35:50.774802 12065 net.cpp:408] roi-data -> rois
I0417 23:35:50.774817 12065 net.cpp:408] roi-data -> labels
I0417 23:35:50.774827 12065 net.cpp:408] roi-data -> twin_targets
I0417 23:35:50.774835 12065 net.cpp:408] roi-data -> twin_inside_weights
I0417 23:35:50.774840 12065 net.cpp:408] roi-data -> twin_outside_weights
I0417 23:35:50.775143 12065 net.cpp:150] Setting up roi-data
I0417 23:35:50.775156 12065 net.cpp:157] Top shape: 1 3 (3)
I0417 23:35:50.775159 12065 net.cpp:157] Top shape: 1 1 (1)
I0417 23:35:50.775164 12065 net.cpp:157] Top shape: 1 402 (402)
I0417 23:35:50.775168 12065 net.cpp:157] Top shape: 1 402 (402)
I0417 23:35:50.775171 12065 net.cpp:157] Top shape: 1 402 (402)
I0417 23:35:50.775174 12065 net.cpp:165] Memory required for data: 10172579652
I0417 23:35:50.775178 12065 layer_factory.hpp:77] Creating layer labels_roi-data_1_split
I0417 23:35:50.775183 12065 net.cpp:100] Creating Layer labels_roi-data_1_split
I0417 23:35:50.775187 12065 net.cpp:434] labels_roi-data_1_split <- labels
I0417 23:35:50.775192 12065 net.cpp:408] labels_roi-data_1_split -> labels_roi-data_1_split_0
I0417 23:35:50.775197 12065 net.cpp:408] labels_roi-data_1_split -> labels_roi-data_1_split_1
I0417 23:35:50.775228 12065 net.cpp:150] Setting up labels_roi-data_1_split
I0417 23:35:50.775235 12065 net.cpp:157] Top shape: 1 1 (1)
I0417 23:35:50.775238 12065 net.cpp:157] Top shape: 1 1 (1)
I0417 23:35:50.775241 12065 net.cpp:165] Memory required for data: 10172579660
I0417 23:35:50.775244 12065 layer_factory.hpp:77] Creating layer roi_pool5
I0417 23:35:50.775254 12065 net.cpp:100] Creating Layer roi_pool5
I0417 23:35:50.775257 12065 net.cpp:434] roi_pool5 <- conv5b_relu5b_0_split_1
I0417 23:35:50.775262 12065 net.cpp:434] roi_pool5 <- rois
I0417 23:35:50.775267 12065 net.cpp:408] roi_pool5 -> pool5
I0417 23:35:50.775274 12065 roi_pooling_layer.cpp:34] Temporal scale: 0.125
I0417 23:35:50.775282 12065 roi_pooling_layer.cpp:35] Spatial scale: 0.0625
I0417 23:35:50.775315 12065 net.cpp:150] Setting up roi_pool5
I0417 23:35:50.775322 12065 net.cpp:157] Top shape: 1 512 1 4 4 (8192)
I0417 23:35:50.775326 12065 net.cpp:165] Memory required for data: 10172612428
I0417 23:35:50.775331 12065 layer_factory.hpp:77] Creating layer fc6
I0417 23:35:50.775338 12065 net.cpp:100] Creating Layer fc6
I0417 23:35:50.775342 12065 net.cpp:434] fc6 <- pool5
I0417 23:35:50.775347 12065 net.cpp:408] fc6 -> fc6
I0417 23:35:51.657948 12065 net.cpp:150] Setting up fc6
I0417 23:35:51.657972 12065 net.cpp:157] Top shape: 1 4096 (4096)
I0417 23:35:51.657976 12065 net.cpp:165] Memory required for data: 10172628812
I0417 23:35:51.657986 12065 layer_factory.hpp:77] Creating layer relu6
I0417 23:35:51.657996 12065 net.cpp:100] Creating Layer relu6
I0417 23:35:51.658000 12065 net.cpp:434] relu6 <- fc6
I0417 23:35:51.658008 12065 net.cpp:395] relu6 -> fc6 (in-place)
I0417 23:35:51.659019 12065 net.cpp:150] Setting up relu6
I0417 23:35:51.659034 12065 net.cpp:157] Top shape: 1 4096 (4096)
I0417 23:35:51.659039 12065 net.cpp:165] Memory required for data: 10172645196
I0417 23:35:51.659044 12065 layer_factory.hpp:77] Creating layer drop6
I0417 23:35:51.659057 12065 net.cpp:100] Creating Layer drop6
I0417 23:35:51.659061 12065 net.cpp:434] drop6 <- fc6
I0417 23:35:51.659065 12065 net.cpp:395] drop6 -> fc6 (in-place)
I0417 23:35:51.659093 12065 net.cpp:150] Setting up drop6
I0417 23:35:51.659101 12065 net.cpp:157] Top shape: 1 4096 (4096)
I0417 23:35:51.659104 12065 net.cpp:165] Memory required for data: 10172661580
I0417 23:35:51.659107 12065 layer_factory.hpp:77] Creating layer fc6_drop6_0_split
I0417 23:35:51.659114 12065 net.cpp:100] Creating Layer fc6_drop6_0_split
I0417 23:35:51.659117 12065 net.cpp:434] fc6_drop6_0_split <- fc6
I0417 23:35:51.659123 12065 net.cpp:408] fc6_drop6_0_split -> fc6_drop6_0_split_0
I0417 23:35:51.659129 12065 net.cpp:408] fc6_drop6_0_split -> fc6_drop6_0_split_1
I0417 23:35:51.659162 12065 net.cpp:150] Setting up fc6_drop6_0_split
I0417 23:35:51.659168 12065 net.cpp:157] Top shape: 1 4096 (4096)
I0417 23:35:51.659173 12065 net.cpp:157] Top shape: 1 4096 (4096)
I0417 23:35:51.659175 12065 net.cpp:165] Memory required for data: 10172694348
I0417 23:35:51.659180 12065 layer_factory.hpp:77] Creating layer cls_score
I0417 23:35:51.659188 12065 net.cpp:100] Creating Layer cls_score
I0417 23:35:51.659191 12065 net.cpp:434] cls_score <- fc6_drop6_0_split_0
I0417 23:35:51.659196 12065 net.cpp:408] cls_score -> cls_score
I0417 23:35:51.683647 12065 net.cpp:150] Setting up cls_score
I0417 23:35:51.683663 12065 net.cpp:157] Top shape: 1 201 (201)
I0417 23:35:51.683667 12065 net.cpp:165] Memory required for data: 10172695152
I0417 23:35:51.683674 12065 layer_factory.hpp:77] Creating layer cls_score_cls_score_0_split
I0417 23:35:51.683681 12065 net.cpp:100] Creating Layer cls_score_cls_score_0_split
I0417 23:35:51.683684 12065 net.cpp:434] cls_score_cls_score_0_split <- cls_score
I0417 23:35:51.683691 12065 net.cpp:408] cls_score_cls_score_0_split -> cls_score_cls_score_0_split_0
I0417 23:35:51.683698 12065 net.cpp:408] cls_score_cls_score_0_split -> cls_score_cls_score_0_split_1
I0417 23:35:51.683730 12065 net.cpp:150] Setting up cls_score_cls_score_0_split
I0417 23:35:51.683739 12065 net.cpp:157] Top shape: 1 201 (201)
I0417 23:35:51.683744 12065 net.cpp:157] Top shape: 1 201 (201)
I0417 23:35:51.683761 12065 net.cpp:165] Memory required for data: 10172696760
I0417 23:35:51.683764 12065 layer_factory.hpp:77] Creating layer twin_pred
I0417 23:35:51.683770 12065 net.cpp:100] Creating Layer twin_pred
I0417 23:35:51.683774 12065 net.cpp:434] twin_pred <- fc6_drop6_0_split_1
I0417 23:35:51.683781 12065 net.cpp:408] twin_pred -> twin_pred
I0417 23:35:51.726706 12065 net.cpp:150] Setting up twin_pred
I0417 23:35:51.726729 12065 net.cpp:157] Top shape: 1 402 (402)
I0417 23:35:51.726733 12065 net.cpp:165] Memory required for data: 10172698368
I0417 23:35:51.726743 12065 layer_factory.hpp:77] Creating layer loss_cls
I0417 23:35:51.726755 12065 net.cpp:100] Creating Layer loss_cls
I0417 23:35:51.726778 12065 net.cpp:434] loss_cls <- cls_score_cls_score_0_split_0
I0417 23:35:51.726786 12065 net.cpp:434] loss_cls <- labels_roi-data_1_split_0
I0417 23:35:51.726791 12065 net.cpp:408] loss_cls -> loss_cls
…
