…
stepsize: 350000
snapshot: 0
snapshot_prefix: "./experiments/activitynet/snapshot/activitynet"
average_loss: 100
iter_size: 1
I0416 13:24:50.429066  4045 solver.cpp:81] Creating training net from train_net file: ./experiments/activitynet/train.prototxt
I0416 13:24:50.430128  4045 net.cpp:58] Initializing net from parameters: 
name: "activitynet"
state {
  phase: TRAIN
}
layer {
  name: "data"
  type: "Python"
  top: "data"
  top: "gt_boxes"
  python_param {
    module: "roi_data_layer.layer"
    layer: "RoIDataLayer"
    param_str: "\'num_classes\': 100"
  }
}
layer {
  name: "conv1a"
  type: "Convolution"
  bottom: "data"
  top: "conv1a"
  param {
    lr_mult: 0
    decay_mult: 0
  }
  param {
    lr_mult: 0
    decay_mult: 0
  }
  convolution_param {
    num_output: 64
    pad: 1
    pad: 1
    pad: 1
    kernel_size: 3
    kernel_size: 3
    kernel_size: 3
    weight_filler {
      type: "gaussian"
      std: 0.01
    }
    bias_filler {
      type: "constant"
      value: 0
    }
  }
}
layer {
  name: "relu1a"
  type: "ReLU"
  bottom: "conv1a"
  top: "conv1a"
}
layer {
  name: "pool1"
  type: "Pooling"
  bottom: "conv1a"
  top: "pool1"
  pooling_param {
    pool: MAX
    kernel_size: 1
    kernel_size: 2
    kernel_size: 2
    stride: 1
    stride: 2
    stride: 2
  }
}
layer {
  name: "conv2a"
  type: "Convolution"
  bottom: "pool1"
  top: "conv2a"
  param {
    lr_mult: 0
    decay_mult: 0
  }
  param {
    lr_mult: 0
    decay_mult: 0
  }
  convolution_param {
    num_output: 128
    pad: 1
    pad: 1
    pad: 1
    kernel_size: 3
    kernel_size: 3
    kernel_size: 3
    weight_filler {
      type: "gaussian"
      std: 0.01
    }
    bias_filler {
      type: "constant"
      value: 1
    }
  }
}
layer {
  name: "relu2a"
  type: "ReLU"
  bottom: "conv2a"
  top: "conv2a"
}
layer {
  name: "pool2"
  type: "Pooling"
  bottom: "conv2a"
  top: "pool2"
  pooling_param {
    pool: MAX
    kernel_size: 2
    kernel_size: 2
    kernel_size: 2
    stride: 2
    stride: 2
    stride: 2
  }
}
layer {
  name: "conv3a"
  type: "Convolution"
  bottom: "pool2"
  top: "conv3a"
  param {
    lr_mult: 1
    decay_mult: 1
  }
  param {
    lr_mult: 2
    decay_mult: 0
  }
  convolution_param {
    num_output: 256
    pad: 1
    pad: 1
    pad: 1
    kernel_size: 3
    kernel_size: 3
    kernel_size: 3
    weight_filler {
      type: "gaussian"
      std: 0.01
    }
    bias_filler {
      type: "constant"
      value: 1
    }
  }
}
layer {
  name: "relu3a"
  type: "ReLU"
  bottom: "conv3a"
  top: "conv3a"
}
layer {
  name: "conv3b"
  type: "Convolution"
  bottom: "conv3a"
  top: "conv3b"
  param {
    lr_mult: 1
    decay_mult: 1
  }
  param {
    lr_mult: 2
    decay_mult: 0
  }
  convolution_param {
    num_output: 256
    pad: 1
    pad: 1
    pad: 1
    kernel_size: 3
    kernel_size: 3
    kernel_size: 3
    weight_filler {
      type: "gaussian"
      std: 0.01
    }
    bias_filler {
      type: "constant"
      value: 1
    }
  }
}
layer {
  name: "relu3b"
  type: "ReLU"
  bottom: "conv3b"
  top: "conv3b"
}
layer {
  name: "pool3"
  type: "Pooling"
  bottom: "conv3b"
  top: "pool3"
  pooling_param {
    pool: MAX
    kernel_size: 2
    kernel_size: 2
    kernel_size: 2
    stride: 2
    stride: 2
    stride: 2
  }
}
layer {
  name: "conv4a"
  type: "Convolution"
  bottom: "pool3"
  top: "conv4a"
  param {
    lr_mult: 1
    decay_mult: 1
  }
  param {
    lr_mult: 2
    decay_mult: 0
  }
  convolution_param {
    num_output: 512
    pad: 1
    pad: 1
    pad: 1
    kernel_size: 3
    kernel_size: 3
    kernel_size: 3
    weight_filler {
      type: "gaussian"
      std: 0.01
    }
    bias_filler {
      type: "constant"
      value: 1
    }
  }
}
layer {
  name: "relu4a"
  type: "ReLU"
  bottom: "conv4a"
  top: "conv4a"
}
layer {
  name: "conv4b"
  type: "Convolution"
  bottom: "conv4a"
  top: "conv4b"
  param {
    lr_mult: 1
    decay_mult: 1
  }
  param {
    lr_mult: 2
    decay_mult: 0
  }
  convolution_param {
    num_output: 512
    pad: 1
    pad: 1
    pad: 1
    kernel_size: 3
    kernel_size: 3
    kernel_size: 3
    weight_filler {
      type: "gaussian"
      std: 0.01
    }
    bias_filler {
      type: "constant"
      value: 1
    }
  }
}
layer {
  name: "relu4b"
  type: "ReLU"
  bottom: "conv4b"
  top: "conv4b"
}
layer {
  name: "pool4"
  type: "Pooling"
  bottom: "conv4b"
  top: "pool4"
  pooling_param {
    pool: MAX
    kernel_size: 2
    kernel_size: 2
    kernel_size: 2
    stride: 2
    stride: 2
    stride: 2
  }
}
layer {
  name: "conv5a"
  type: "Convolution"
  bottom: "pool4"
  top: "conv5a"
  param {
    lr_mult: 1
    decay_mult: 1
  }
  param {
    lr_mult: 2
    decay_mult: 0
  }
  convolution_param {
    num_output: 512
    pad: 1
    pad: 1
    pad: 1
    kernel_size: 3
    kernel_size: 3
    kernel_size: 3
    weight_filler {
      type: "gaussian"
      std: 0.01
    }
    bias_filler {
      type: "constant"
      value: 1
    }
  }
}
layer {
  name: "relu5a"
  type: "ReLU"
  bottom: "conv5a"
  top: "conv5a"
}
layer {
  name: "conv5b"
  type: "Convolution"
  bottom: "conv5a"
  top: "conv5b"
  param {
    lr_mult: 1
    decay_mult: 1
  }
  param {
    lr_mult: 2
    decay_mult: 0
  }
  convolution_param {
    num_output: 512
    pad: 1
    pad: 1
    pad: 1
    kernel_size: 3
    kernel_size: 3
    kernel_size: 3
    weight_filler {
      type: "gaussian"
      std: 0.01
    }
    bias_filler {
      type: "constant"
      value: 1
    }
  }
}
layer {
  name: "relu5b"
  type: "ReLU"
  bottom: "conv5b"
  top: "conv5b"
}
layer {
  name: "rpn_conv/3x3"
  type: "Convolution"
  bottom: "conv5b"
  top: "rpn/output"
  param {
    lr_mult: 1
    decay_mult: 1
  }
  param {
    lr_mult: 2
    decay_mult: 0
  }
  convolution_param {
    num_output: 512
    pad: 1
    pad: 1
    pad: 1
    kernel_size: 3
    kernel_size: 3
    kernel_size: 3
    stride: 1
    stride: 2
    stride: 2
    weight_filler {
      type: "gaussian"
      std: 0.01
    }
    bias_filler {
      type: "constant"
      value: 0
    }
  }
}
layer {
  name: "rpn_relu/3x3"
  type: "ReLU"
  bottom: "rpn/output"
  top: "rpn/output"
}
layer {
  name: "rpn_conv/3x3_2"
  type: "Convolution"
  bottom: "rpn/output"
  top: "rpn/output_2"
  param {
    lr_mult: 1
    decay_mult: 1
  }
  param {
    lr_mult: 2
    decay_mult: 0
  }
  convolution_param {
    num_output: 512
    pad: 1
    pad: 1
    pad: 1
    kernel_size: 3
    kernel_size: 3
    kernel_size: 3
    stride: 1
    stride: 2
    stride: 2
    weight_filler {
      type: "gaussian"
      std: 0.01
    }
    bias_filler {
      type: "constant"
      value: 0
    }
  }
}
layer {
  name: "rpn_relu/3x3_2"
  type: "ReLU"
  bottom: "rpn/output_2"
  top: "rpn/output_2"
}
layer {
  name: "rpn/output_pool"
  type: "Pooling"
  bottom: "rpn/output_2"
  top: "rpn/output_pool"
  pooling_param {
    pool: MAX
    kernel_size: 1
    kernel_size: 2
    kernel_size: 2
  }
}
layer {
  name: "rpn_cls_score"
  type: "Convolution"
  bottom: "rpn/output_pool"
  top: "rpn_cls_score"
  param {
    lr_mult: 1
    decay_mult: 1
  }
  param {
    lr_mult: 2
    decay_mult: 0
  }
  convolution_param {
    num_output: 74
    kernel_size: 1
    kernel_size: 1
    kernel_size: 1
    weight_filler {
      type: "gaussian"
      std: 0.01
    }
    bias_filler {
      type: "constant"
      value: 0
    }
  }
}
layer {
  name: "rpn_twin_pred"
  type: "Convolution"
  bottom: "rpn/output_pool"
  top: "rpn_twin_pred"
  param {
    lr_mult: 1
    decay_mult: 1
  }
  param {
    lr_mult: 2
    decay_mult: 0
  }
  convolution_param {
    num_output: 74
    kernel_size: 1
    kernel_size: 1
    kernel_size: 1
    weight_filler {
      type: "gaussian"
      std: 0.01
    }
    bias_filler {
      type: "constant"
      value: 0
    }
  }
}
layer {
  name: "rpn_cls_score_reshape"
  type: "Reshape"
  bottom: "rpn_cls_score"
  top: "rpn_cls_score_reshape"
  reshape_param {
    shape {
      dim: 0
      dim: 2
      dim: -1
      dim: 0
      dim: 0
    }
  }
}
layer {
  name: "rpn-data"
  type: "Python"
  bottom: "rpn_cls_score"
  bottom: "gt_boxes"
  bottom: "data"
  top: "rpn_labels"
  top: "rpn_twin_targets"
  top: "rpn_twin_inside_weights"
  top: "rpn_twin_outside_weights"
  python_param {
    module: "rpn.anchor_target_layer"
    layer: "AnchorTargetLayer"
    param_str: "\'feat_stride\': 8 \n\'scales\': !!python/tuple [1,1.25, 1.5,1.75, 2,2.5, 3,3.5, 4,4.5, 5,5.5, 6,7, 8,9,10,11,12,14,16,18,20,22,24,28,32,36,40,44,52,60,68,76,84,92,100]"
  }
}
layer {
  name: "rpn_loss_cls"
  type: "SoftmaxWithLoss"
  bottom: "rpn_cls_score_reshape"
  bottom: "rpn_labels"
  top: "rpn_cls_loss"
  loss_weight: 1
  propagate_down: true
  propagate_down: false
  loss_param {
    ignore_label: -1
    normalize: true
  }
}
layer {
  name: "rpn_loss_twin"
  type: "SmoothL1Loss"
  bottom: "rpn_twin_pred"
  bottom: "rpn_twin_targets"
  bottom: "rpn_twin_inside_weights"
  bottom: "rpn_twin_outside_weights"
  top: "rpn_loss_twin"
  loss_weight: 1
  smooth_l1_loss_param {
    sigma: 3
  }
}
layer {
  name: "rpn_accuarcy"
  type: "Accuracy"
  bottom: "rpn_cls_score_reshape"
  bottom: "rpn_labels"
  top: "rpn_accuarcy"
  top: "rpn_accuarcy_class"
  propagate_down: false
  propagate_down: false
  accuracy_param {
    ignore_label: -1
  }
}
layer {
  name: "rpn_cls_prob"
  type: "Softmax"
  bottom: "rpn_cls_score_reshape"
  top: "rpn_cls_prob"
}
layer {
  name: "rpn_cls_prob_reshape"
  type: "Reshape"
  bottom: "rpn_cls_prob"
  top: "rpn_cls_prob_reshape"
  reshape_param {
    shape {
      dim: 0
      dim: 74
      dim: -1
      dim: 0
      dim: 0
    }
  }
}
layer {
  name: "proposal"
  type: "Python"
  bottom: "rpn_cls_prob_reshape"
  bottom: "rpn_twin_pred"
  top: "rpn_rois"
  include {
    phase: TRAIN
  }
  python_param {
    module: "rpn.proposal_layer"
    layer: "ProposalLayer"
    param_str: "\'feat_stride\': 8 \n\'scales\': !!python/tuple [1,1.25, 1.5,1.75, 2,2.5, 3,3.5, 4,4.5, 5,5.5, 6,7, 8,9,10,11,12,14,16,18,20,22,24,28,32,36,40,44,52,60,68,76,84,92,100]"
  }
}
layer {
  name: "roi-data"
  type: "Python"
  bottom: "rpn_rois"
  bottom: "gt_boxes"
  top: "rois"
  top: "labels"
  top: "twin_targets"
  top: "twin_inside_weights"
  top: "twin_outside_weights"
  python_param {
    module: "rpn.proposal_target_layer"
    layer: "ProposalTargetLayer"
    param_str: "\'num_classes\': 201"
  }
}
layer {
  name: "roi_pool5"
  type: "ROIPooling"
  bottom: "conv5b"
  bottom: "rois"
  top: "pool5"
  roi_pooling_param {
    pooled_h: 4
    pooled_w: 4
    spatial_scale: 0.0625
    pooled_l: 1
    temporal_scale: 0.125
  }
}
layer {
  name: "fc6"
  type: "InnerProduct"
  bottom: "pool5"
  top: "fc6"
  param {
    lr_mult: 1
    decay_mult: 1
  }
  param {
    lr_mult: 2
    decay_mult: 0
  }
  inner_product_param {
    num_output: 4096
    weight_filler {
      type: "gaussian"
      std: 0.005
    }
    bias_filler {
      type: "constant"
      value: 1
    }
  }
}
layer {
  name: "relu6"
  type: "ReLU"
  bottom: "fc6"
  top: "fc6"
}
layer {
  name: "drop6"
  type: "Dropout"
  bottom: "fc6"
  top: "fc6"
  dropout_param {
    dropout_ratio: 0.5
  }
}
layer {
  name: "cls_score"
  type: "InnerProduct"
  bottom: "fc6"
  top: "cls_score"
  param {
    lr_mult: 1
    decay_mult: 1
  }
  param {
    lr_mult: 2
    decay_mult: 0
  }
  inner_product_param {
    num_output: 201
    weight_filler {
      type: "gaussian"
      std: 0.01
    }
    bias_filler {
      type: "constant"
      value: 0
    }
  }
}
layer {
  name: "twin_pred"
  type: "InnerProduct"
  bottom: "fc6"
  top: "twin_pred"
  param {
    lr_mult: 1
    decay_mult: 1
  }
  param {
    lr_mult: 2
    decay_mult: 0
  }
  inner_product_param {
    num_output: 402
    weight_filler {
      type: "gaussian"
      std: 0.001
    }
    bias_filler {
      type: "constant"
      value: 0
    }
  }
}
layer {
  name: "loss_cls"
  type: "SoftmaxWithLoss"
  bottom: "cls_score"
  bottom: "labels"
  top: "loss_cls"
  loss_weight: 1
  propagate_down: true
  propagate_down: false
}
layer {
  name: "loss_twin"
  type: "SmoothL1Loss"
  bottom: "twin_pred"
  bottom: "twin_targets"
  bottom: "twin_inside_weights"
  bottom: "twin_outside_weights"
  top: "loss_twin"
  loss_weight: 1
}
layer {
  name: "accuarcy"
  type: "Accuracy"
  bottom: "cls_score"
  bottom: "labels"
  top: "accuarcy"
  propagate_down: false
  propagate_down: false
  accuracy_param {
    ignore_label: -1
  }
}
I0416 13:24:50.430454  4045 layer_factory.hpp:77] Creating layer data
I0416 13:24:50.455255  4045 net.cpp:100] Creating Layer data
I0416 13:24:50.455281  4045 net.cpp:408] data -> data
I0416 13:24:50.455299  4045 net.cpp:408] data -> gt_boxes
RoiDataLayer: name_to_top: {'gt_windows': 1, 'data': 0}
I0416 13:24:50.468070  4045 net.cpp:150] Setting up data
I0416 13:24:50.468099  4045 net.cpp:157] Top shape: 1 3 768 112 112 (28901376)
I0416 13:24:50.468108  4045 net.cpp:157] Top shape: 1 101 (101)
I0416 13:24:50.468114  4045 net.cpp:165] Memory required for data: 115605908
I0416 13:24:50.468124  4045 layer_factory.hpp:77] Creating layer data_data_0_split
I0416 13:24:50.468139  4045 net.cpp:100] Creating Layer data_data_0_split
I0416 13:24:50.468147  4045 net.cpp:434] data_data_0_split <- data
I0416 13:24:50.468159  4045 net.cpp:408] data_data_0_split -> data_data_0_split_0
I0416 13:24:50.468174  4045 net.cpp:408] data_data_0_split -> data_data_0_split_1
I0416 13:24:50.468232  4045 net.cpp:150] Setting up data_data_0_split
I0416 13:24:50.468242  4045 net.cpp:157] Top shape: 1 3 768 112 112 (28901376)
I0416 13:24:50.468250  4045 net.cpp:157] Top shape: 1 3 768 112 112 (28901376)
I0416 13:24:50.468255  4045 net.cpp:165] Memory required for data: 346816916
I0416 13:24:50.468260  4045 layer_factory.hpp:77] Creating layer gt_boxes_data_1_split
I0416 13:24:50.468271  4045 net.cpp:100] Creating Layer gt_boxes_data_1_split
I0416 13:24:50.468276  4045 net.cpp:434] gt_boxes_data_1_split <- gt_boxes
I0416 13:24:50.468283  4045 net.cpp:408] gt_boxes_data_1_split -> gt_boxes_data_1_split_0
I0416 13:24:50.468293  4045 net.cpp:408] gt_boxes_data_1_split -> gt_boxes_data_1_split_1
I0416 13:24:50.468339  4045 net.cpp:150] Setting up gt_boxes_data_1_split
I0416 13:24:50.468349  4045 net.cpp:157] Top shape: 1 101 (101)
I0416 13:24:50.468355  4045 net.cpp:157] Top shape: 1 101 (101)
I0416 13:24:50.468360  4045 net.cpp:165] Memory required for data: 346817724
I0416 13:24:50.468365  4045 layer_factory.hpp:77] Creating layer conv1a
I0416 13:24:50.468384  4045 net.cpp:100] Creating Layer conv1a
I0416 13:24:50.468391  4045 net.cpp:434] conv1a <- data_data_0_split_0
I0416 13:24:50.468403  4045 net.cpp:408] conv1a -> conv1a
I0416 13:24:50.486436  4045 net.cpp:150] Setting up conv1a
I0416 13:24:50.486469  4045 net.cpp:157] Top shape: 1 64 768 112 112 (616562688)
I0416 13:24:50.486475  4045 net.cpp:165] Memory required for data: 2813068476
I0416 13:24:50.486505  4045 layer_factory.hpp:77] Creating layer relu1a
I0416 13:24:50.486522  4045 net.cpp:100] Creating Layer relu1a
I0416 13:24:50.486533  4045 net.cpp:434] relu1a <- conv1a
I0416 13:24:50.486546  4045 net.cpp:395] relu1a -> conv1a (in-place)
I0416 13:24:50.486564  4045 net.cpp:150] Setting up relu1a
I0416 13:24:50.486573  4045 net.cpp:157] Top shape: 1 64 768 112 112 (616562688)
I0416 13:24:50.486579  4045 net.cpp:165] Memory required for data: 5279319228
I0416 13:24:50.486584  4045 layer_factory.hpp:77] Creating layer pool1
I0416 13:24:50.486594  4045 net.cpp:100] Creating Layer pool1
I0416 13:24:50.486600  4045 net.cpp:434] pool1 <- conv1a
I0416 13:24:50.486611  4045 net.cpp:408] pool1 -> pool1
I0416 13:24:50.486717  4045 net.cpp:150] Setting up pool1
I0416 13:24:50.486727  4045 net.cpp:157] Top shape: 1 64 768 56 56 (154140672)
I0416 13:24:50.486732  4045 net.cpp:165] Memory required for data: 5895881916
I0416 13:24:50.486737  4045 layer_factory.hpp:77] Creating layer conv2a
I0416 13:24:50.486754  4045 net.cpp:100] Creating Layer conv2a
I0416 13:24:50.486773  4045 net.cpp:434] conv2a <- pool1
I0416 13:24:50.486783  4045 net.cpp:408] conv2a -> conv2a
I0416 13:24:50.497277  4045 net.cpp:150] Setting up conv2a
I0416 13:24:50.497303  4045 net.cpp:157] Top shape: 1 128 768 56 56 (308281344)
I0416 13:24:50.497309  4045 net.cpp:165] Memory required for data: 7129007292
I0416 13:24:50.497328  4045 layer_factory.hpp:77] Creating layer relu2a
I0416 13:24:50.497344  4045 net.cpp:100] Creating Layer relu2a
I0416 13:24:50.497350  4045 net.cpp:434] relu2a <- conv2a
I0416 13:24:50.497360  4045 net.cpp:395] relu2a -> conv2a (in-place)
I0416 13:24:50.497377  4045 net.cpp:150] Setting up relu2a
I0416 13:24:50.497385  4045 net.cpp:157] Top shape: 1 128 768 56 56 (308281344)
I0416 13:24:50.497390  4045 net.cpp:165] Memory required for data: 8362132668
I0416 13:24:50.497396  4045 layer_factory.hpp:77] Creating layer pool2
I0416 13:24:50.497411  4045 net.cpp:100] Creating Layer pool2
I0416 13:24:50.497418  4045 net.cpp:434] pool2 <- conv2a
I0416 13:24:50.497426  4045 net.cpp:408] pool2 -> pool2
I0416 13:24:50.497525  4045 net.cpp:150] Setting up pool2
I0416 13:24:50.497537  4045 net.cpp:157] Top shape: 1 128 384 28 28 (38535168)
I0416 13:24:50.497542  4045 net.cpp:165] Memory required for data: 8516273340
I0416 13:24:50.497547  4045 layer_factory.hpp:77] Creating layer conv3a
I0416 13:24:50.497562  4045 net.cpp:100] Creating Layer conv3a
I0416 13:24:50.497567  4045 net.cpp:434] conv3a <- pool2
I0416 13:24:50.497578  4045 net.cpp:408] conv3a -> conv3a
I0416 13:24:50.521932  4045 net.cpp:150] Setting up conv3a
I0416 13:24:50.521960  4045 net.cpp:157] Top shape: 1 256 384 28 28 (77070336)
I0416 13:24:50.521965  4045 net.cpp:165] Memory required for data: 8824554684
I0416 13:24:50.521982  4045 layer_factory.hpp:77] Creating layer relu3a
I0416 13:24:50.521996  4045 net.cpp:100] Creating Layer relu3a
I0416 13:24:50.522004  4045 net.cpp:434] relu3a <- conv3a
I0416 13:24:50.522013  4045 net.cpp:395] relu3a -> conv3a (in-place)
I0416 13:24:50.522029  4045 net.cpp:150] Setting up relu3a
I0416 13:24:50.522039  4045 net.cpp:157] Top shape: 1 256 384 28 28 (77070336)
I0416 13:24:50.522045  4045 net.cpp:165] Memory required for data: 9132836028
I0416 13:24:50.522050  4045 layer_factory.hpp:77] Creating layer conv3b
I0416 13:24:50.522066  4045 net.cpp:100] Creating Layer conv3b
I0416 13:24:50.522074  4045 net.cpp:434] conv3b <- conv3a
I0416 13:24:50.522085  4045 net.cpp:408] conv3b -> conv3b
I0416 13:24:50.569443  4045 net.cpp:150] Setting up conv3b
I0416 13:24:50.569469  4045 net.cpp:157] Top shape: 1 256 384 28 28 (77070336)
I0416 13:24:50.569474  4045 net.cpp:165] Memory required for data: 9441117372
I0416 13:24:50.569486  4045 layer_factory.hpp:77] Creating layer relu3b
I0416 13:24:50.569499  4045 net.cpp:100] Creating Layer relu3b
I0416 13:24:50.569506  4045 net.cpp:434] relu3b <- conv3b
I0416 13:24:50.569516  4045 net.cpp:395] relu3b -> conv3b (in-place)
I0416 13:24:50.569528  4045 net.cpp:150] Setting up relu3b
I0416 13:24:50.569540  4045 net.cpp:157] Top shape: 1 256 384 28 28 (77070336)
I0416 13:24:50.569545  4045 net.cpp:165] Memory required for data: 9749398716
I0416 13:24:50.569550  4045 layer_factory.hpp:77] Creating layer pool3
I0416 13:24:50.569562  4045 net.cpp:100] Creating Layer pool3
I0416 13:24:50.569571  4045 net.cpp:434] pool3 <- conv3b
I0416 13:24:50.569578  4045 net.cpp:408] pool3 -> pool3
I0416 13:24:50.569640  4045 net.cpp:150] Setting up pool3
I0416 13:24:50.569650  4045 net.cpp:157] Top shape: 1 256 192 14 14 (9633792)
I0416 13:24:50.569655  4045 net.cpp:165] Memory required for data: 9787933884
I0416 13:24:50.569660  4045 layer_factory.hpp:77] Creating layer conv4a
I0416 13:24:50.569679  4045 net.cpp:100] Creating Layer conv4a
I0416 13:24:50.569685  4045 net.cpp:434] conv4a <- pool3
I0416 13:24:50.569696  4045 net.cpp:408] conv4a -> conv4a
I0416 13:24:50.665078  4045 net.cpp:150] Setting up conv4a
I0416 13:24:50.665103  4045 net.cpp:157] Top shape: 1 512 192 14 14 (19267584)
I0416 13:24:50.665108  4045 net.cpp:165] Memory required for data: 9865004220
I0416 13:24:50.665127  4045 layer_factory.hpp:77] Creating layer relu4a
I0416 13:24:50.665139  4045 net.cpp:100] Creating Layer relu4a
I0416 13:24:50.665148  4045 net.cpp:434] relu4a <- conv4a
I0416 13:24:50.665159  4045 net.cpp:395] relu4a -> conv4a (in-place)
I0416 13:24:50.665176  4045 net.cpp:150] Setting up relu4a
I0416 13:24:50.665186  4045 net.cpp:157] Top shape: 1 512 192 14 14 (19267584)
I0416 13:24:50.665191  4045 net.cpp:165] Memory required for data: 9942074556
I0416 13:24:50.665197  4045 layer_factory.hpp:77] Creating layer conv4b
I0416 13:24:50.665215  4045 net.cpp:100] Creating Layer conv4b
I0416 13:24:50.665222  4045 net.cpp:434] conv4b <- conv4a
I0416 13:24:50.665232  4045 net.cpp:408] conv4b -> conv4b
I0416 13:24:50.850410  4045 net.cpp:150] Setting up conv4b
I0416 13:24:50.850435  4045 net.cpp:157] Top shape: 1 512 192 14 14 (19267584)
I0416 13:24:50.850440  4045 net.cpp:165] Memory required for data: 10019144892
I0416 13:24:50.850461  4045 layer_factory.hpp:77] Creating layer relu4b
I0416 13:24:50.850476  4045 net.cpp:100] Creating Layer relu4b
I0416 13:24:50.850483  4045 net.cpp:434] relu4b <- conv4b
I0416 13:24:50.850493  4045 net.cpp:395] relu4b -> conv4b (in-place)
I0416 13:24:50.850510  4045 net.cpp:150] Setting up relu4b
I0416 13:24:50.850520  4045 net.cpp:157] Top shape: 1 512 192 14 14 (19267584)
I0416 13:24:50.850525  4045 net.cpp:165] Memory required for data: 10096215228
I0416 13:24:50.850531  4045 layer_factory.hpp:77] Creating layer pool4
I0416 13:24:50.850540  4045 net.cpp:100] Creating Layer pool4
I0416 13:24:50.850546  4045 net.cpp:434] pool4 <- conv4b
I0416 13:24:50.850556  4045 net.cpp:408] pool4 -> pool4
I0416 13:24:50.850617  4045 net.cpp:150] Setting up pool4
I0416 13:24:50.850628  4045 net.cpp:157] Top shape: 1 512 96 7 7 (2408448)
I0416 13:24:50.850633  4045 net.cpp:165] Memory required for data: 10105849020
I0416 13:24:50.850638  4045 layer_factory.hpp:77] Creating layer conv5a
I0416 13:24:50.850653  4045 net.cpp:100] Creating Layer conv5a
I0416 13:24:50.850659  4045 net.cpp:434] conv5a <- pool4
I0416 13:24:50.850670  4045 net.cpp:408] conv5a -> conv5a
I0416 13:24:51.035810  4045 net.cpp:150] Setting up conv5a
I0416 13:24:51.035837  4045 net.cpp:157] Top shape: 1 512 96 7 7 (2408448)
I0416 13:24:51.035842  4045 net.cpp:165] Memory required for data: 10115482812
I0416 13:24:51.035854  4045 layer_factory.hpp:77] Creating layer relu5a
I0416 13:24:51.035868  4045 net.cpp:100] Creating Layer relu5a
I0416 13:24:51.035876  4045 net.cpp:434] relu5a <- conv5a
I0416 13:24:51.035886  4045 net.cpp:395] relu5a -> conv5a (in-place)
I0416 13:24:51.035897  4045 net.cpp:150] Setting up relu5a
I0416 13:24:51.035907  4045 net.cpp:157] Top shape: 1 512 96 7 7 (2408448)
I0416 13:24:51.035912  4045 net.cpp:165] Memory required for data: 10125116604
I0416 13:24:51.035918  4045 layer_factory.hpp:77] Creating layer conv5b
I0416 13:24:51.035934  4045 net.cpp:100] Creating Layer conv5b
I0416 13:24:51.035941  4045 net.cpp:434] conv5b <- conv5a
I0416 13:24:51.035956  4045 net.cpp:408] conv5b -> conv5b
I0416 13:24:51.221339  4045 net.cpp:150] Setting up conv5b
I0416 13:24:51.221367  4045 net.cpp:157] Top shape: 1 512 96 7 7 (2408448)
I0416 13:24:51.221374  4045 net.cpp:165] Memory required for data: 10134750396
I0416 13:24:51.221385  4045 layer_factory.hpp:77] Creating layer relu5b
I0416 13:24:51.221396  4045 net.cpp:100] Creating Layer relu5b
I0416 13:24:51.221405  4045 net.cpp:434] relu5b <- conv5b
I0416 13:24:51.221413  4045 net.cpp:395] relu5b -> conv5b (in-place)
I0416 13:24:51.221426  4045 net.cpp:150] Setting up relu5b
I0416 13:24:51.221436  4045 net.cpp:157] Top shape: 1 512 96 7 7 (2408448)
I0416 13:24:51.221441  4045 net.cpp:165] Memory required for data: 10144384188
I0416 13:24:51.221446  4045 layer_factory.hpp:77] Creating layer conv5b_relu5b_0_split
I0416 13:24:51.221453  4045 net.cpp:100] Creating Layer conv5b_relu5b_0_split
I0416 13:24:51.221459  4045 net.cpp:434] conv5b_relu5b_0_split <- conv5b
I0416 13:24:51.221469  4045 net.cpp:408] conv5b_relu5b_0_split -> conv5b_relu5b_0_split_0
I0416 13:24:51.221480  4045 net.cpp:408] conv5b_relu5b_0_split -> conv5b_relu5b_0_split_1
I0416 13:24:51.221535  4045 net.cpp:150] Setting up conv5b_relu5b_0_split
I0416 13:24:51.221546  4045 net.cpp:157] Top shape: 1 512 96 7 7 (2408448)
I0416 13:24:51.221552  4045 net.cpp:157] Top shape: 1 512 96 7 7 (2408448)
I0416 13:24:51.221559  4045 net.cpp:165] Memory required for data: 10163651772
I0416 13:24:51.221563  4045 layer_factory.hpp:77] Creating layer rpn_conv/3x3
I0416 13:24:51.221580  4045 net.cpp:100] Creating Layer rpn_conv/3x3
I0416 13:24:51.221587  4045 net.cpp:434] rpn_conv/3x3 <- conv5b_relu5b_0_split_0
I0416 13:24:51.221601  4045 net.cpp:408] rpn_conv/3x3 -> rpn/output
I0416 13:24:51.407879  4045 net.cpp:150] Setting up rpn_conv/3x3
I0416 13:24:51.407905  4045 net.cpp:157] Top shape: 1 512 96 4 4 (786432)
I0416 13:24:51.407910  4045 net.cpp:165] Memory required for data: 10166797500
I0416 13:24:51.407932  4045 layer_factory.hpp:77] Creating layer rpn_relu/3x3
I0416 13:24:51.407944  4045 net.cpp:100] Creating Layer rpn_relu/3x3
I0416 13:24:51.407953  4045 net.cpp:434] rpn_relu/3x3 <- rpn/output
I0416 13:24:51.407961  4045 net.cpp:395] rpn_relu/3x3 -> rpn/output (in-place)
I0416 13:24:51.407974  4045 net.cpp:150] Setting up rpn_relu/3x3
I0416 13:24:51.407982  4045 net.cpp:157] Top shape: 1 512 96 4 4 (786432)
I0416 13:24:51.407987  4045 net.cpp:165] Memory required for data: 10169943228
I0416 13:24:51.407994  4045 layer_factory.hpp:77] Creating layer rpn_conv/3x3_2
I0416 13:24:51.408008  4045 net.cpp:100] Creating Layer rpn_conv/3x3_2
I0416 13:24:51.408016  4045 net.cpp:434] rpn_conv/3x3_2 <- rpn/output
I0416 13:24:51.408026  4045 net.cpp:408] rpn_conv/3x3_2 -> rpn/output_2
I0416 13:24:51.593418  4045 net.cpp:150] Setting up rpn_conv/3x3_2
I0416 13:24:51.593444  4045 net.cpp:157] Top shape: 1 512 96 2 2 (196608)
I0416 13:24:51.593449  4045 net.cpp:165] Memory required for data: 10170729660
I0416 13:24:51.593461  4045 layer_factory.hpp:77] Creating layer rpn_relu/3x3_2
I0416 13:24:51.593475  4045 net.cpp:100] Creating Layer rpn_relu/3x3_2
I0416 13:24:51.593483  4045 net.cpp:434] rpn_relu/3x3_2 <- rpn/output_2
I0416 13:24:51.593493  4045 net.cpp:395] rpn_relu/3x3_2 -> rpn/output_2 (in-place)
I0416 13:24:51.593513  4045 net.cpp:150] Setting up rpn_relu/3x3_2
I0416 13:24:51.593523  4045 net.cpp:157] Top shape: 1 512 96 2 2 (196608)
I0416 13:24:51.593528  4045 net.cpp:165] Memory required for data: 10171516092
I0416 13:24:51.593533  4045 layer_factory.hpp:77] Creating layer rpn/output_pool
I0416 13:24:51.593545  4045 net.cpp:100] Creating Layer rpn/output_pool
I0416 13:24:51.593554  4045 net.cpp:434] rpn/output_pool <- rpn/output_2
I0416 13:24:51.593564  4045 net.cpp:408] rpn/output_pool -> rpn/output_pool
I0416 13:24:51.593622  4045 net.cpp:150] Setting up rpn/output_pool
I0416 13:24:51.593632  4045 net.cpp:157] Top shape: 1 512 96 1 1 (49152)
I0416 13:24:51.593637  4045 net.cpp:165] Memory required for data: 10171712700
I0416 13:24:51.593642  4045 layer_factory.hpp:77] Creating layer rpn/output_pool_rpn/output_pool_0_split
I0416 13:24:51.593652  4045 net.cpp:100] Creating Layer rpn/output_pool_rpn/output_pool_0_split
I0416 13:24:51.593657  4045 net.cpp:434] rpn/output_pool_rpn/output_pool_0_split <- rpn/output_pool
I0416 13:24:51.593667  4045 net.cpp:408] rpn/output_pool_rpn/output_pool_0_split -> rpn/output_pool_rpn/output_pool_0_split_0
I0416 13:24:51.593675  4045 net.cpp:408] rpn/output_pool_rpn/output_pool_0_split -> rpn/output_pool_rpn/output_pool_0_split_1
I0416 13:24:51.593724  4045 net.cpp:150] Setting up rpn/output_pool_rpn/output_pool_0_split
I0416 13:24:51.593734  4045 net.cpp:157] Top shape: 1 512 96 1 1 (49152)
I0416 13:24:51.593740  4045 net.cpp:157] Top shape: 1 512 96 1 1 (49152)
I0416 13:24:51.593745  4045 net.cpp:165] Memory required for data: 10172105916
I0416 13:24:51.593750  4045 layer_factory.hpp:77] Creating layer rpn_cls_score
I0416 13:24:51.593765  4045 net.cpp:100] Creating Layer rpn_cls_score
I0416 13:24:51.593772  4045 net.cpp:434] rpn_cls_score <- rpn/output_pool_rpn/output_pool_0_split_0
I0416 13:24:51.593780  4045 net.cpp:408] rpn_cls_score -> rpn_cls_score
I0416 13:24:51.595051  4045 net.cpp:150] Setting up rpn_cls_score
I0416 13:24:51.595062  4045 net.cpp:157] Top shape: 1 74 96 1 1 (7104)
I0416 13:24:51.595067  4045 net.cpp:165] Memory required for data: 10172134332
I0416 13:24:51.595077  4045 layer_factory.hpp:77] Creating layer rpn_cls_score_rpn_cls_score_0_split
I0416 13:24:51.595086  4045 net.cpp:100] Creating Layer rpn_cls_score_rpn_cls_score_0_split
I0416 13:24:51.595093  4045 net.cpp:434] rpn_cls_score_rpn_cls_score_0_split <- rpn_cls_score
I0416 13:24:51.595100  4045 net.cpp:408] rpn_cls_score_rpn_cls_score_0_split -> rpn_cls_score_rpn_cls_score_0_split_0
I0416 13:24:51.595109  4045 net.cpp:408] rpn_cls_score_rpn_cls_score_0_split -> rpn_cls_score_rpn_cls_score_0_split_1
I0416 13:24:51.595166  4045 net.cpp:150] Setting up rpn_cls_score_rpn_cls_score_0_split
I0416 13:24:51.595176  4045 net.cpp:157] Top shape: 1 74 96 1 1 (7104)
I0416 13:24:51.595182  4045 net.cpp:157] Top shape: 1 74 96 1 1 (7104)
I0416 13:24:51.595187  4045 net.cpp:165] Memory required for data: 10172191164
I0416 13:24:51.595193  4045 layer_factory.hpp:77] Creating layer rpn_twin_pred
I0416 13:24:51.595211  4045 net.cpp:100] Creating Layer rpn_twin_pred
I0416 13:24:51.595219  4045 net.cpp:434] rpn_twin_pred <- rpn/output_pool_rpn/output_pool_0_split_1
I0416 13:24:51.595229  4045 net.cpp:408] rpn_twin_pred -> rpn_twin_pred
I0416 13:24:51.596473  4045 net.cpp:150] Setting up rpn_twin_pred
I0416 13:24:51.596485  4045 net.cpp:157] Top shape: 1 74 96 1 1 (7104)
I0416 13:24:51.596490  4045 net.cpp:165] Memory required for data: 10172219580
I0416 13:24:51.596499  4045 layer_factory.hpp:77] Creating layer rpn_twin_pred_rpn_twin_pred_0_split
I0416 13:24:51.596508  4045 net.cpp:100] Creating Layer rpn_twin_pred_rpn_twin_pred_0_split
I0416 13:24:51.596513  4045 net.cpp:434] rpn_twin_pred_rpn_twin_pred_0_split <- rpn_twin_pred
I0416 13:24:51.596523  4045 net.cpp:408] rpn_twin_pred_rpn_twin_pred_0_split -> rpn_twin_pred_rpn_twin_pred_0_split_0
I0416 13:24:51.596532  4045 net.cpp:408] rpn_twin_pred_rpn_twin_pred_0_split -> rpn_twin_pred_rpn_twin_pred_0_split_1
I0416 13:24:51.596585  4045 net.cpp:150] Setting up rpn_twin_pred_rpn_twin_pred_0_split
I0416 13:24:51.596595  4045 net.cpp:157] Top shape: 1 74 96 1 1 (7104)
I0416 13:24:51.596601  4045 net.cpp:157] Top shape: 1 74 96 1 1 (7104)
I0416 13:24:51.596606  4045 net.cpp:165] Memory required for data: 10172276412
I0416 13:24:51.596611  4045 layer_factory.hpp:77] Creating layer rpn_cls_score_reshape
I0416 13:24:51.596624  4045 net.cpp:100] Creating Layer rpn_cls_score_reshape
I0416 13:24:51.596632  4045 net.cpp:434] rpn_cls_score_reshape <- rpn_cls_score_rpn_cls_score_0_split_0
I0416 13:24:51.596642  4045 net.cpp:408] rpn_cls_score_reshape -> rpn_cls_score_reshape
I0416 13:24:51.596683  4045 net.cpp:150] Setting up rpn_cls_score_reshape
I0416 13:24:51.596693  4045 net.cpp:157] Top shape: 1 2 3552 1 1 (7104)
I0416 13:24:51.596698  4045 net.cpp:165] Memory required for data: 10172304828
I0416 13:24:51.596702  4045 layer_factory.hpp:77] Creating layer rpn_cls_score_reshape_rpn_cls_score_reshape_0_split
I0416 13:24:51.596710  4045 net.cpp:100] Creating Layer rpn_cls_score_reshape_rpn_cls_score_reshape_0_split
I0416 13:24:51.596716  4045 net.cpp:434] rpn_cls_score_reshape_rpn_cls_score_reshape_0_split <- rpn_cls_score_reshape
I0416 13:24:51.596726  4045 net.cpp:408] rpn_cls_score_reshape_rpn_cls_score_reshape_0_split -> rpn_cls_score_reshape_rpn_cls_score_reshape_0_split_0
I0416 13:24:51.596740  4045 net.cpp:408] rpn_cls_score_reshape_rpn_cls_score_reshape_0_split -> rpn_cls_score_reshape_rpn_cls_score_reshape_0_split_1
I0416 13:24:51.596752  4045 net.cpp:408] rpn_cls_score_reshape_rpn_cls_score_reshape_0_split -> rpn_cls_score_reshape_rpn_cls_score_reshape_0_split_2
I0416 13:24:51.596814  4045 net.cpp:150] Setting up rpn_cls_score_reshape_rpn_cls_score_reshape_0_split
I0416 13:24:51.596825  4045 net.cpp:157] Top shape: 1 2 3552 1 1 (7104)
I0416 13:24:51.596832  4045 net.cpp:157] Top shape: 1 2 3552 1 1 (7104)
I0416 13:24:51.596837  4045 net.cpp:157] Top shape: 1 2 3552 1 1 (7104)
I0416 13:24:51.596843  4045 net.cpp:165] Memory required for data: 10172390076
I0416 13:24:51.596848  4045 layer_factory.hpp:77] Creating layer rpn-data
I0416 13:24:51.597393  4045 net.cpp:100] Creating Layer rpn-data
I0416 13:24:51.597405  4045 net.cpp:434] rpn-data <- rpn_cls_score_rpn_cls_score_0_split_1
I0416 13:24:51.597414  4045 net.cpp:434] rpn-data <- gt_boxes_data_1_split_0
I0416 13:24:51.597421  4045 net.cpp:434] rpn-data <- data_data_0_split_1
I0416 13:24:51.597430  4045 net.cpp:408] rpn-data -> rpn_labels
I0416 13:24:51.597442  4045 net.cpp:408] rpn-data -> rpn_twin_targets
I0416 13:24:51.597452  4045 net.cpp:408] rpn-data -> rpn_twin_inside_weights
I0416 13:24:51.597465  4045 net.cpp:408] rpn-data -> rpn_twin_outside_weights
I0416 13:24:51.599733  4045 net.cpp:150] Setting up rpn-data
I0416 13:24:51.599750  4045 net.cpp:157] Top shape: 1 1 3552 1 1 (3552)
I0416 13:24:51.599757  4045 net.cpp:157] Top shape: 1 74 96 1 1 (7104)
I0416 13:24:51.599763  4045 net.cpp:157] Top shape: 1 74 96 1 1 (7104)
I0416 13:24:51.599769  4045 net.cpp:157] Top shape: 1 74 96 1 1 (7104)
I0416 13:24:51.599776  4045 net.cpp:165] Memory required for data: 10172489532
I0416 13:24:51.599781  4045 layer_factory.hpp:77] Creating layer rpn_labels_rpn-data_0_split
I0416 13:24:51.599789  4045 net.cpp:100] Creating Layer rpn_labels_rpn-data_0_split
I0416 13:24:51.599795  4045 net.cpp:434] rpn_labels_rpn-data_0_split <- rpn_labels
I0416 13:24:51.599803  4045 net.cpp:408] rpn_labels_rpn-data_0_split -> rpn_labels_rpn-data_0_split_0
I0416 13:24:51.599814  4045 net.cpp:408] rpn_labels_rpn-data_0_split -> rpn_labels_rpn-data_0_split_1
I0416 13:24:51.599867  4045 net.cpp:150] Setting up rpn_labels_rpn-data_0_split
I0416 13:24:51.599877  4045 net.cpp:157] Top shape: 1 1 3552 1 1 (3552)
I0416 13:24:51.599884  4045 net.cpp:157] Top shape: 1 1 3552 1 1 (3552)
I0416 13:24:51.599889  4045 net.cpp:165] Memory required for data: 10172517948
I0416 13:24:51.599895  4045 layer_factory.hpp:77] Creating layer rpn_loss_cls
I0416 13:24:51.599906  4045 net.cpp:100] Creating Layer rpn_loss_cls
I0416 13:24:51.599913  4045 net.cpp:434] rpn_loss_cls <- rpn_cls_score_reshape_rpn_cls_score_reshape_0_split_0
I0416 13:24:51.599920  4045 net.cpp:434] rpn_loss_cls <- rpn_labels_rpn-data_0_split_0
…
I0416 13:24:51.600288  4045 layer_factory.hpp:77] Creating layer rpn_accuarcy
I0416 13:24:51.600298  4045 net.cpp:100] Creating Layer rpn_accuarcy
I0416 13:24:51.600306  4045 net.cpp:434] rpn_accuarcy <- rpn_cls_score_reshape_rpn_cls_score_reshape_0_split_1
I0416 13:24:51.600312  4045 net.cpp:434] rpn_accuarcy <- rpn_labels_rpn-data_0_split_1
I0416 13:24:51.600322  4045 net.cpp:408] rpn_accuarcy -> rpn_accuarcy
I0416 13:24:51.600333  4045 net.cpp:408] rpn_accuarcy -> rpn_accuarcy_class
I0416 13:24:51.600386  4045 net.cpp:150] Setting up rpn_accuarcy
I0416 13:24:51.600396  4045 net.cpp:157] Top shape: (1)
I0416 13:24:51.600401  4045 net.cpp:157] Top shape: 2 (2)
I0416 13:24:51.600406  4045 net.cpp:165] Memory required for data: 10172517968
I0416 13:24:51.600412  4045 layer_factory.hpp:77] Creating layer rpn_cls_prob
I0416 13:24:51.600419  4045 net.cpp:100] Creating Layer rpn_cls_prob
I0416 13:24:51.600425  4045 net.cpp:434] rpn_cls_prob <- rpn_cls_score_reshape_rpn_cls_score_reshape_0_split_2
I0416 13:24:51.600435  4045 net.cpp:408] rpn_cls_prob -> rpn_cls_prob
I0416 13:24:51.600513  4045 net.cpp:150] Setting up rpn_cls_prob
I0416 13:24:51.600523  4045 net.cpp:157] Top shape: 1 2 3552 1 1 (7104)
I0416 13:24:51.600528  4045 net.cpp:165] Memory required for data: 10172546384
I0416 13:24:51.600533  4045 layer_factory.hpp:77] Creating layer rpn_cls_prob_reshape
I0416 13:24:51.600543  4045 net.cpp:100] Creating Layer rpn_cls_prob_reshape
I0416 13:24:51.600548  4045 net.cpp:434] rpn_cls_prob_reshape <- rpn_cls_prob
I0416 13:24:51.600558  4045 net.cpp:408] rpn_cls_prob_reshape -> rpn_cls_prob_reshape
I0416 13:24:51.600596  4045 net.cpp:150] Setting up rpn_cls_prob_reshape
I0416 13:24:51.600605  4045 net.cpp:157] Top shape: 1 74 96 1 1 (7104)
I0416 13:24:51.600610  4045 net.cpp:165] Memory required for data: 10172574800
I0416 13:24:51.600615  4045 layer_factory.hpp:77] Creating layer proposal
I0416 13:24:51.601161  4045 net.cpp:100] Creating Layer proposal
I0416 13:24:51.601174  4045 net.cpp:434] proposal <- rpn_cls_prob_reshape
I0416 13:24:51.601182  4045 net.cpp:434] proposal <- rpn_twin_pred_rpn_twin_pred_0_split_1
I0416 13:24:51.601191  4045 net.cpp:408] proposal -> rpn_rois
I0416 13:24:51.603372  4045 net.cpp:150] Setting up proposal
I0416 13:24:51.603389  4045 net.cpp:157] Top shape: 1 3 (3)
I0416 13:24:51.603394  4045 net.cpp:165] Memory required for data: 10172574812
I0416 13:24:51.603399  4045 layer_factory.hpp:77] Creating layer roi-data
I0416 13:24:51.603543  4045 net.cpp:100] Creating Layer roi-data
I0416 13:24:51.603555  4045 net.cpp:434] roi-data <- rpn_rois
I0416 13:24:51.603564  4045 net.cpp:434] roi-data <- gt_boxes_data_1_split_1
I0416 13:24:51.603572  4045 net.cpp:408] roi-data -> rois
I0416 13:24:51.603585  4045 net.cpp:408] roi-data -> labels
I0416 13:24:51.603595  4045 net.cpp:408] roi-data -> twin_targets
I0416 13:24:51.603606  4045 net.cpp:408] roi-data -> twin_inside_weights
I0416 13:24:51.603617  4045 net.cpp:408] roi-data -> twin_outside_weights
I0416 13:24:51.603950  4045 net.cpp:150] Setting up roi-data
I0416 13:24:51.603965  4045 net.cpp:157] Top shape: 1 3 (3)
I0416 13:24:51.603971  4045 net.cpp:157] Top shape: 1 1 (1)
I0416 13:24:51.603977  4045 net.cpp:157] Top shape: 1 402 (402)
I0416 13:24:51.603983  4045 net.cpp:157] Top shape: 1 402 (402)
I0416 13:24:51.603989  4045 net.cpp:157] Top shape: 1 402 (402)
I0416 13:24:51.603994  4045 net.cpp:165] Memory required for data: 10172579652
I0416 13:24:51.604001  4045 layer_factory.hpp:77] Creating layer labels_roi-data_1_split
I0416 13:24:51.604009  4045 net.cpp:100] Creating Layer labels_roi-data_1_split
I0416 13:24:51.604015  4045 net.cpp:434] labels_roi-data_1_split <- labels
I0416 13:24:51.604024  4045 net.cpp:408] labels_roi-data_1_split -> labels_roi-data_1_split_0
I0416 13:24:51.604035  4045 net.cpp:408] labels_roi-data_1_split -> labels_roi-data_1_split_1
I0416 13:24:51.604089  4045 net.cpp:150] Setting up labels_roi-data_1_split
I0416 13:24:51.604099  4045 net.cpp:157] Top shape: 1 1 (1)
I0416 13:24:51.604104  4045 net.cpp:157] Top shape: 1 1 (1)
I0416 13:24:51.604110  4045 net.cpp:165] Memory required for data: 10172579660
I0416 13:24:51.604115  4045 layer_factory.hpp:77] Creating layer roi_pool5
I0416 13:24:51.604125  4045 net.cpp:100] Creating Layer roi_pool5
I0416 13:24:51.604133  4045 net.cpp:434] roi_pool5 <- conv5b_relu5b_0_split_1
I0416 13:24:51.604140  4045 net.cpp:434] roi_pool5 <- rois
I0416 13:24:51.604148  4045 net.cpp:408] roi_pool5 -> pool5
I0416 13:24:51.604161  4045 roi_pooling_layer.cpp:34] Temporal scale: 0.125
I0416 13:24:51.604171  4045 roi_pooling_layer.cpp:35] Spatial scale: 0.0625
I0416 13:24:51.604223  4045 net.cpp:150] Setting up roi_pool5
I0416 13:24:51.604233  4045 net.cpp:157] Top shape: 1 512 1 4 4 (8192)
I0416 13:24:51.604238  4045 net.cpp:165] Memory required for data: 10172612428
I0416 13:24:51.604245  4045 layer_factory.hpp:77] Creating layer fc6
I0416 13:24:51.604259  4045 net.cpp:100] Creating Layer fc6
I0416 13:24:51.604264  4045 net.cpp:434] fc6 <- pool5
I0416 13:24:51.604274  4045 net.cpp:408] fc6 -> fc6
I0416 13:24:52.484207  4045 net.cpp:150] Setting up fc6
I0416 13:24:52.484235  4045 net.cpp:157] Top shape: 1 4096 (4096)
I0416 13:24:52.484239  4045 net.cpp:165] Memory required for data: 10172628812
I0416 13:24:52.484251  4045 layer_factory.hpp:77] Creating layer relu6
I0416 13:24:52.484263  4045 net.cpp:100] Creating Layer relu6
I0416 13:24:52.484274  4045 net.cpp:434] relu6 <- fc6
I0416 13:24:52.484284  4045 net.cpp:395] relu6 -> fc6 (in-place)
I0416 13:24:52.484303  4045 net.cpp:150] Setting up relu6
I0416 13:24:52.484313  4045 net.cpp:157] Top shape: 1 4096 (4096)
I0416 13:24:52.484318  4045 net.cpp:165] Memory required for data: 10172645196
I0416 13:24:52.484323  4045 layer_factory.hpp:77] Creating layer drop6
I0416 13:24:52.484338  4045 net.cpp:100] Creating Layer drop6
I0416 13:24:52.484346  4045 net.cpp:434] drop6 <- fc6
I0416 13:24:52.484354  4045 net.cpp:395] drop6 -> fc6 (in-place)
I0416 13:24:52.484392  4045 net.cpp:150] Setting up drop6
I0416 13:24:52.484402  4045 net.cpp:157] Top shape: 1 4096 (4096)
I0416 13:24:52.484407  4045 net.cpp:165] Memory required for data: 10172661580
I0416 13:24:52.484413  4045 layer_factory.hpp:77] Creating layer fc6_drop6_0_split
I0416 13:24:52.484421  4045 net.cpp:100] Creating Layer fc6_drop6_0_split
I0416 13:24:52.484426  4045 net.cpp:434] fc6_drop6_0_split <- fc6
I0416 13:24:52.484436  4045 net.cpp:408] fc6_drop6_0_split -> fc6_drop6_0_split_0
I0416 13:24:52.484447  4045 net.cpp:408] fc6_drop6_0_split -> fc6_drop6_0_split_1
I0416 13:24:52.484499  4045 net.cpp:150] Setting up fc6_drop6_0_split
I0416 13:24:52.484509  4045 net.cpp:157] Top shape: 1 4096 (4096)
I0416 13:24:52.484514  4045 net.cpp:157] Top shape: 1 4096 (4096)
I0416 13:24:52.484519  4045 net.cpp:165] Memory required for data: 10172694348
I0416 13:24:52.484524  4045 layer_factory.hpp:77] Creating layer cls_score
I0416 13:24:52.484535  4045 net.cpp:100] Creating Layer cls_score
I0416 13:24:52.484541  4045 net.cpp:434] cls_score <- fc6_drop6_0_split_0
I0416 13:24:52.484552  4045 net.cpp:408] cls_score -> cls_score
I0416 13:24:52.506358  4045 net.cpp:150] Setting up cls_score
I0416 13:24:52.506386  4045 net.cpp:157] Top shape: 1 201 (201)
I0416 13:24:52.506391  4045 net.cpp:165] Memory required for data: 10172695152
I0416 13:24:52.506402  4045 layer_factory.hpp:77] Creating layer cls_score_cls_score_0_split
I0416 13:24:52.506413  4045 net.cpp:100] Creating Layer cls_score_cls_score_0_split
I0416 13:24:52.506420  4045 net.cpp:434] cls_score_cls_score_0_split <- cls_score
I0416 13:24:52.506433  4045 net.cpp:408] cls_score_cls_score_0_split -> cls_score_cls_score_0_split_0
I0416 13:24:52.506451  4045 net.cpp:408] cls_score_cls_score_0_split -> cls_score_cls_score_0_split_1
I0416 13:24:52.506505  4045 net.cpp:150] Setting up cls_score_cls_score_0_split
I0416 13:24:52.506515  4045 net.cpp:157] Top shape: 1 201 (201)
I0416 13:24:52.506521  4045 net.cpp:157] Top shape: 1 201 (201)
I0416 13:24:52.506526  4045 net.cpp:165] Memory required for data: 10172696760
I0416 13:24:52.506532  4045 layer_factory.hpp:77] Creating layer twin_pred
I0416 13:24:52.506542  4045 net.cpp:100] Creating Layer twin_pred
I0416 13:24:52.506548  4045 net.cpp:434] twin_pred <- fc6_drop6_0_split_1
I0416 13:24:52.506559  4045 net.cpp:408] twin_pred -> twin_pred
I0416 13:24:52.549896  4045 net.cpp:150] Setting up twin_pred
I0416 13:24:52.549921  4045 net.cpp:157] Top shape: 1 402 (402)
I0416 13:24:52.549926  4045 net.cpp:165] Memory required for data: 10172698368
I0416 13:24:52.549939  4045 layer_factory.hpp:77] Creating layer loss_cls
I0416 13:24:52.549953  4045 net.cpp:100] Creating Layer loss_cls
I0416 13:24:52.549960  4045 net.cpp:434] loss_cls <- cls_score_cls_score_0_split_0
I0416 13:24:52.549970  4045 net.cpp:434] loss_cls <- labels_roi-data_1_split_0
I0416 13:24:52.549979  4045 net.cpp:408] loss_cls -> loss_cls
…
