…
stepsize: 350000
snapshot: 0
snapshot_prefix: "./experiments/activitynet/snapshot/activitynet"
average_loss: 100
iter_size: 1
I0421 19:11:03.999419 17066 solver.cpp:81] Creating training net from train_net file: ./experiments/activitynet/train.prototxt
I0421 19:11:04.000461 17066 net.cpp:58] Initializing net from parameters: 
name: "activitynet"
state {
  phase: TRAIN
}
layer {
  name: "data"
  type: "Python"
  top: "data"
  top: "gt_boxes"
  python_param {
    module: "roi_data_layer.layer"
    layer: "RoIDataLayer"
    param_str: "\'num_classes\': 200"
  }
}
layer {
  name: "conv1a"
  type: "Convolution"
  bottom: "data"
  top: "conv1a"
  param {
    lr_mult: 0
    decay_mult: 0
  }
  param {
    lr_mult: 0
    decay_mult: 0
  }
  convolution_param {
    num_output: 64
    pad: 1
    pad: 1
    pad: 1
    kernel_size: 3
    kernel_size: 3
    kernel_size: 3
    weight_filler {
      type: "gaussian"
      std: 0.01
    }
    bias_filler {
      type: "constant"
      value: 0
    }
  }
}
layer {
  name: "relu1a"
  type: "ReLU"
  bottom: "conv1a"
  top: "conv1a"
}
layer {
  name: "pool1"
  type: "Pooling"
  bottom: "conv1a"
  top: "pool1"
  pooling_param {
    pool: MAX
    kernel_size: 1
    kernel_size: 2
    kernel_size: 2
    stride: 1
    stride: 2
    stride: 2
  }
}
layer {
  name: "conv2a"
  type: "Convolution"
  bottom: "pool1"
  top: "conv2a"
  param {
    lr_mult: 0
    decay_mult: 0
  }
  param {
    lr_mult: 0
    decay_mult: 0
  }
  convolution_param {
    num_output: 128
    pad: 1
    pad: 1
    pad: 1
    kernel_size: 3
    kernel_size: 3
    kernel_size: 3
    weight_filler {
      type: "gaussian"
      std: 0.01
    }
    bias_filler {
      type: "constant"
      value: 1
    }
  }
}
layer {
  name: "relu2a"
  type: "ReLU"
  bottom: "conv2a"
  top: "conv2a"
}
layer {
  name: "pool2"
  type: "Pooling"
  bottom: "conv2a"
  top: "pool2"
  pooling_param {
    pool: MAX
    kernel_size: 2
    kernel_size: 2
    kernel_size: 2
    stride: 2
    stride: 2
    stride: 2
  }
}
layer {
  name: "conv3a"
  type: "Convolution"
  bottom: "pool2"
  top: "conv3a"
  param {
    lr_mult: 1
    decay_mult: 1
  }
  param {
    lr_mult: 2
    decay_mult: 0
  }
  convolution_param {
    num_output: 256
    pad: 1
    pad: 1
    pad: 1
    kernel_size: 3
    kernel_size: 3
    kernel_size: 3
    weight_filler {
      type: "gaussian"
      std: 0.01
    }
    bias_filler {
      type: "constant"
      value: 1
    }
  }
}
layer {
  name: "relu3a"
  type: "ReLU"
  bottom: "conv3a"
  top: "conv3a"
}
layer {
  name: "conv3b"
  type: "Convolution"
  bottom: "conv3a"
  top: "conv3b"
  param {
    lr_mult: 1
    decay_mult: 1
  }
  param {
    lr_mult: 2
    decay_mult: 0
  }
  convolution_param {
    num_output: 256
    pad: 1
    pad: 1
    pad: 1
    kernel_size: 3
    kernel_size: 3
    kernel_size: 3
    weight_filler {
      type: "gaussian"
      std: 0.01
    }
    bias_filler {
      type: "constant"
      value: 1
    }
  }
}
layer {
  name: "relu3b"
  type: "ReLU"
  bottom: "conv3b"
  top: "conv3b"
}
layer {
  name: "pool3"
  type: "Pooling"
  bottom: "conv3b"
  top: "pool3"
  pooling_param {
    pool: MAX
    kernel_size: 2
    kernel_size: 2
    kernel_size: 2
    stride: 2
    stride: 2
    stride: 2
  }
}
layer {
  name: "conv4a"
  type: "Convolution"
  bottom: "pool3"
  top: "conv4a"
  param {
    lr_mult: 1
    decay_mult: 1
  }
  param {
    lr_mult: 2
    decay_mult: 0
  }
  convolution_param {
    num_output: 512
    pad: 1
    pad: 1
    pad: 1
    kernel_size: 3
    kernel_size: 3
    kernel_size: 3
    weight_filler {
      type: "gaussian"
      std: 0.01
    }
    bias_filler {
      type: "constant"
      value: 1
    }
  }
}
layer {
  name: "relu4a"
  type: "ReLU"
  bottom: "conv4a"
  top: "conv4a"
}
layer {
  name: "conv4b"
  type: "Convolution"
  bottom: "conv4a"
  top: "conv4b"
  param {
    lr_mult: 1
    decay_mult: 1
  }
  param {
    lr_mult: 2
    decay_mult: 0
  }
  convolution_param {
    num_output: 512
    pad: 1
    pad: 1
    pad: 1
    kernel_size: 3
    kernel_size: 3
    kernel_size: 3
    weight_filler {
      type: "gaussian"
      std: 0.01
    }
    bias_filler {
      type: "constant"
      value: 1
    }
  }
}
layer {
  name: "relu4b"
  type: "ReLU"
  bottom: "conv4b"
  top: "conv4b"
}
layer {
  name: "pool4"
  type: "Pooling"
  bottom: "conv4b"
  top: "pool4"
  pooling_param {
    pool: MAX
    kernel_size: 2
    kernel_size: 2
    kernel_size: 2
    stride: 2
    stride: 2
    stride: 2
  }
}
layer {
  name: "conv5a"
  type: "Convolution"
  bottom: "pool4"
  top: "conv5a"
  param {
    lr_mult: 1
    decay_mult: 1
  }
  param {
    lr_mult: 2
    decay_mult: 0
  }
  convolution_param {
    num_output: 512
    pad: 1
    pad: 1
    pad: 1
    kernel_size: 3
    kernel_size: 3
    kernel_size: 3
    weight_filler {
      type: "gaussian"
      std: 0.01
    }
    bias_filler {
      type: "constant"
      value: 1
    }
  }
}
layer {
  name: "relu5a"
  type: "ReLU"
  bottom: "conv5a"
  top: "conv5a"
}
layer {
  name: "conv5b"
  type: "Convolution"
  bottom: "conv5a"
  top: "conv5b"
  param {
    lr_mult: 1
    decay_mult: 1
  }
  param {
    lr_mult: 2
    decay_mult: 0
  }
  convolution_param {
    num_output: 512
    pad: 1
    pad: 1
    pad: 1
    kernel_size: 3
    kernel_size: 3
    kernel_size: 3
    weight_filler {
      type: "gaussian"
      std: 0.01
    }
    bias_filler {
      type: "constant"
      value: 1
    }
  }
}
layer {
  name: "relu5b"
  type: "ReLU"
  bottom: "conv5b"
  top: "conv5b"
}
layer {
  name: "rpn_conv/3x3"
  type: "Convolution"
  bottom: "conv5b"
  top: "rpn/output"
  param {
    lr_mult: 1
    decay_mult: 1
  }
  param {
    lr_mult: 2
    decay_mult: 0
  }
  convolution_param {
    num_output: 512
    pad: 1
    pad: 1
    pad: 1
    kernel_size: 3
    kernel_size: 3
    kernel_size: 3
    stride: 1
    stride: 2
    stride: 2
    weight_filler {
      type: "gaussian"
      std: 0.01
    }
    bias_filler {
      type: "constant"
      value: 0
    }
  }
}
layer {
  name: "rpn_relu/3x3"
  type: "ReLU"
  bottom: "rpn/output"
  top: "rpn/output"
}
layer {
  name: "rpn_conv/3x3_2"
  type: "Convolution"
  bottom: "rpn/output"
  top: "rpn/output_2"
  param {
    lr_mult: 1
    decay_mult: 1
  }
  param {
    lr_mult: 2
    decay_mult: 0
  }
  convolution_param {
    num_output: 512
    pad: 1
    pad: 1
    pad: 1
    kernel_size: 3
    kernel_size: 3
    kernel_size: 3
    stride: 1
    stride: 2
    stride: 2
    weight_filler {
      type: "gaussian"
      std: 0.01
    }
    bias_filler {
      type: "constant"
      value: 0
    }
  }
}
layer {
  name: "rpn_relu/3x3_2"
  type: "ReLU"
  bottom: "rpn/output_2"
  top: "rpn/output_2"
}
layer {
  name: "rpn/output_pool"
  type: "Pooling"
  bottom: "rpn/output_2"
  top: "rpn/output_pool"
  pooling_param {
    pool: MAX
    kernel_size: 1
    kernel_size: 2
    kernel_size: 2
  }
}
layer {
  name: "rpn_cls_score"
  type: "Convolution"
  bottom: "rpn/output_pool"
  top: "rpn_cls_score"
  param {
    lr_mult: 1
    decay_mult: 1
  }
  param {
    lr_mult: 2
    decay_mult: 0
  }
  convolution_param {
    num_output: 74
    kernel_size: 1
    kernel_size: 1
    kernel_size: 1
    weight_filler {
      type: "gaussian"
      std: 0.01
    }
    bias_filler {
      type: "constant"
      value: 0
    }
  }
}
layer {
  name: "rpn_twin_pred"
  type: "Convolution"
  bottom: "rpn/output_pool"
  top: "rpn_twin_pred"
  param {
    lr_mult: 1
    decay_mult: 1
  }
  param {
    lr_mult: 2
    decay_mult: 0
  }
  convolution_param {
    num_output: 74
    kernel_size: 1
    kernel_size: 1
    kernel_size: 1
    weight_filler {
      type: "gaussian"
      std: 0.01
    }
    bias_filler {
      type: "constant"
      value: 0
    }
  }
}
layer {
  name: "rpn_cls_score_reshape"
  type: "Reshape"
  bottom: "rpn_cls_score"
  top: "rpn_cls_score_reshape"
  reshape_param {
    shape {
      dim: 0
      dim: 2
      dim: -1
      dim: 0
      dim: 0
    }
  }
}
layer {
  name: "rpn-data"
  type: "Python"
  bottom: "rpn_cls_score"
  bottom: "gt_boxes"
  bottom: "data"
  top: "rpn_labels"
  top: "rpn_twin_targets"
  top: "rpn_twin_inside_weights"
  top: "rpn_twin_outside_weights"
  python_param {
    module: "rpn.anchor_target_layer"
    layer: "AnchorTargetLayer"
    param_str: "\'feat_stride\': 8 \n\'scales\': !!python/tuple [1,1.25, 1.5,1.75, 2,2.5, 3,3.5, 4,4.5, 5,5.5, 6,7, 8,9,10,11,12,14,16,18,20,22,24,28,32,36,40,44,52,60,68,76,84,92,100]"
  }
}
layer {
  name: "rpn_loss_cls"
  type: "SoftmaxWithLoss"
  bottom: "rpn_cls_score_reshape"
  bottom: "rpn_labels"
  top: "rpn_cls_loss"
  loss_weight: 1
  propagate_down: true
  propagate_down: false
  loss_param {
    ignore_label: -1
    normalize: true
  }
}
layer {
  name: "rpn_loss_twin"
  type: "SmoothL1Loss"
  bottom: "rpn_twin_pred"
  bottom: "rpn_twin_targets"
  bottom: "rpn_twin_inside_weights"
  bottom: "rpn_twin_outside_weights"
  top: "rpn_loss_twin"
  loss_weight: 1
  smooth_l1_loss_param {
    sigma: 3
  }
}
layer {
  name: "rpn_accuarcy"
  type: "Accuracy"
  bottom: "rpn_cls_score_reshape"
  bottom: "rpn_labels"
  top: "rpn_accuarcy"
  top: "rpn_accuarcy_class"
  propagate_down: false
  propagate_down: false
  accuracy_param {
    ignore_label: -1
  }
}
layer {
  name: "rpn_cls_prob"
  type: "Softmax"
  bottom: "rpn_cls_score_reshape"
  top: "rpn_cls_prob"
}
layer {
  name: "rpn_cls_prob_reshape"
  type: "Reshape"
  bottom: "rpn_cls_prob"
  top: "rpn_cls_prob_reshape"
  reshape_param {
    shape {
      dim: 0
      dim: 74
      dim: -1
      dim: 0
      dim: 0
    }
  }
}
layer {
  name: "proposal"
  type: "Python"
  bottom: "rpn_cls_prob_reshape"
  bottom: "rpn_twin_pred"
  top: "rpn_rois"
  include {
    phase: TRAIN
  }
  python_param {
    module: "rpn.proposal_layer"
    layer: "ProposalLayer"
    param_str: "\'feat_stride\': 8 \n\'scales\': !!python/tuple [1,1.25, 1.5,1.75, 2,2.5, 3,3.5, 4,4.5, 5,5.5, 6,7, 8,9,10,11,12,14,16,18,20,22,24,28,32,36,40,44,52,60,68,76,84,92,100]"
  }
}
layer {
  name: "roi-data"
  type: "Python"
  bottom: "rpn_rois"
  bottom: "gt_boxes"
  top: "rois"
  top: "labels"
  top: "twin_targets"
  top: "twin_inside_weights"
  top: "twin_outside_weights"
  python_param {
    module: "rpn.proposal_target_layer"
    layer: "ProposalTargetLayer"
    param_str: "\'num_classes\': 200"
  }
}
layer {
  name: "roi_pool5"
  type: "ROIPooling"
  bottom: "conv5b"
  bottom: "rois"
  top: "pool5"
  roi_pooling_param {
    pooled_h: 4
    pooled_w: 4
    spatial_scale: 0.0625
    pooled_l: 1
    temporal_scale: 0.125
  }
}
layer {
  name: "fc6"
  type: "InnerProduct"
  bottom: "pool5"
  top: "fc6"
  param {
    lr_mult: 1
    decay_mult: 1
  }
  param {
    lr_mult: 2
    decay_mult: 0
  }
  inner_product_param {
    num_output: 4096
    weight_filler {
      type: "gaussian"
      std: 0.005
    }
    bias_filler {
      type: "constant"
      value: 1
    }
  }
}
layer {
  name: "relu6"
  type: "ReLU"
  bottom: "fc6"
  top: "fc6"
}
layer {
  name: "drop6"
  type: "Dropout"
  bottom: "fc6"
  top: "fc6"
  dropout_param {
    dropout_ratio: 0.5
  }
}
layer {
  name: "cls_score"
  type: "InnerProduct"
  bottom: "fc6"
  top: "cls_score"
  param {
    lr_mult: 1
    decay_mult: 1
  }
  param {
    lr_mult: 2
    decay_mult: 0
  }
  inner_product_param {
    num_output: 200
    weight_filler {
      type: "gaussian"
      std: 0.01
    }
    bias_filler {
      type: "constant"
      value: 0
    }
  }
}
layer {
  name: "twin_pred"
  type: "InnerProduct"
  bottom: "fc6"
  top: "twin_pred"
  param {
    lr_mult: 1
    decay_mult: 1
  }
  param {
    lr_mult: 2
    decay_mult: 0
  }
  inner_product_param {
    num_output: 400
    weight_filler {
      type: "gaussian"
      std: 0.001
    }
    bias_filler {
      type: "constant"
      value: 0
    }
  }
}
layer {
  name: "loss_cls"
  type: "SigmoidCrossEntropyLoss"
  bottom: "cls_score"
  bottom: "labels"
  top: "loss_cls"
  loss_weight: 1
  propagate_down: true
  propagate_down: false
}
layer {
  name: "loss_twin"
  type: "SmoothL1Loss"
  bottom: "twin_pred"
  bottom: "twin_targets"
  bottom: "twin_inside_weights"
  bottom: "twin_outside_weights"
  top: "loss_twin"
  loss_weight: 1
}
layer {
  name: "accuracy"
  type: "Python"
  bottom: "cls_score"
  bottom: "labels"
  top: "accuracy"
  python_param {
    module: "utils.accuracy_layer"
    layer: "AccuracyLayer"
    param_str: "{\"top_k\": 2}"
  }
}
I0421 19:11:04.000658 17066 layer_factory.hpp:77] Creating layer data
I0421 19:11:04.025897 17066 net.cpp:100] Creating Layer data
I0421 19:11:04.025923 17066 net.cpp:408] data -> data
I0421 19:11:04.025936 17066 net.cpp:408] data -> gt_boxes
setting up
has rpn
RoiDataLayer: name_to_top: {'gt_windows': 1, 'data': 0}
I0421 19:11:04.040019 17066 net.cpp:150] Setting up data
I0421 19:11:04.040041 17066 net.cpp:157] Top shape: 1 3 768 112 112 (28901376)
I0421 19:11:04.040046 17066 net.cpp:157] Top shape: 1 101 (101)
I0421 19:11:04.040050 17066 net.cpp:165] Memory required for data: 115605908
I0421 19:11:04.040055 17066 layer_factory.hpp:77] Creating layer data_data_0_split
I0421 19:11:04.040066 17066 net.cpp:100] Creating Layer data_data_0_split
I0421 19:11:04.040071 17066 net.cpp:434] data_data_0_split <- data
I0421 19:11:04.040077 17066 net.cpp:408] data_data_0_split -> data_data_0_split_0
I0421 19:11:04.040086 17066 net.cpp:408] data_data_0_split -> data_data_0_split_1
I0421 19:11:04.040132 17066 net.cpp:150] Setting up data_data_0_split
I0421 19:11:04.040143 17066 net.cpp:157] Top shape: 1 3 768 112 112 (28901376)
I0421 19:11:04.040151 17066 net.cpp:157] Top shape: 1 3 768 112 112 (28901376)
I0421 19:11:04.040155 17066 net.cpp:165] Memory required for data: 346816916
I0421 19:11:04.040161 17066 layer_factory.hpp:77] Creating layer gt_boxes_data_1_split
I0421 19:11:04.040169 17066 net.cpp:100] Creating Layer gt_boxes_data_1_split
I0421 19:11:04.040194 17066 net.cpp:434] gt_boxes_data_1_split <- gt_boxes
I0421 19:11:04.040204 17066 net.cpp:408] gt_boxes_data_1_split -> gt_boxes_data_1_split_0
I0421 19:11:04.040213 17066 net.cpp:408] gt_boxes_data_1_split -> gt_boxes_data_1_split_1
I0421 19:11:04.040261 17066 net.cpp:150] Setting up gt_boxes_data_1_split
I0421 19:11:04.040271 17066 net.cpp:157] Top shape: 1 101 (101)
I0421 19:11:04.040274 17066 net.cpp:157] Top shape: 1 101 (101)
I0421 19:11:04.040277 17066 net.cpp:165] Memory required for data: 346817724
I0421 19:11:04.040282 17066 layer_factory.hpp:77] Creating layer conv1a
I0421 19:11:04.040297 17066 net.cpp:100] Creating Layer conv1a
I0421 19:11:04.040303 17066 net.cpp:434] conv1a <- data_data_0_split_0
I0421 19:11:04.040313 17066 net.cpp:408] conv1a -> conv1a
I0421 19:11:04.239509 17066 net.cpp:150] Setting up conv1a
I0421 19:11:04.239539 17066 net.cpp:157] Top shape: 1 64 768 112 112 (616562688)
I0421 19:11:04.239545 17066 net.cpp:165] Memory required for data: 2813068476
I0421 19:11:04.239578 17066 layer_factory.hpp:77] Creating layer relu1a
I0421 19:11:04.239598 17066 net.cpp:100] Creating Layer relu1a
I0421 19:11:04.239606 17066 net.cpp:434] relu1a <- conv1a
I0421 19:11:04.239616 17066 net.cpp:395] relu1a -> conv1a (in-place)
I0421 19:11:04.240175 17066 net.cpp:150] Setting up relu1a
I0421 19:11:04.240191 17066 net.cpp:157] Top shape: 1 64 768 112 112 (616562688)
I0421 19:11:04.240198 17066 net.cpp:165] Memory required for data: 5279319228
I0421 19:11:04.240205 17066 layer_factory.hpp:77] Creating layer pool1
I0421 19:11:04.240237 17066 net.cpp:100] Creating Layer pool1
I0421 19:11:04.240247 17066 net.cpp:434] pool1 <- conv1a
I0421 19:11:04.240257 17066 net.cpp:408] pool1 -> pool1
I0421 19:11:04.240489 17066 net.cpp:150] Setting up pool1
I0421 19:11:04.240505 17066 net.cpp:157] Top shape: 1 64 768 56 56 (154140672)
I0421 19:11:04.240511 17066 net.cpp:165] Memory required for data: 5895881916
I0421 19:11:04.240519 17066 layer_factory.hpp:77] Creating layer conv2a
I0421 19:11:04.240537 17066 net.cpp:100] Creating Layer conv2a
I0421 19:11:04.240545 17066 net.cpp:434] conv2a <- pool1
I0421 19:11:04.240556 17066 net.cpp:408] conv2a -> conv2a
I0421 19:11:04.253190 17066 net.cpp:150] Setting up conv2a
I0421 19:11:04.253221 17066 net.cpp:157] Top shape: 1 128 768 56 56 (308281344)
I0421 19:11:04.253227 17066 net.cpp:165] Memory required for data: 7129007292
I0421 19:11:04.253244 17066 layer_factory.hpp:77] Creating layer relu2a
I0421 19:11:04.253269 17066 net.cpp:100] Creating Layer relu2a
I0421 19:11:04.253278 17066 net.cpp:434] relu2a <- conv2a
I0421 19:11:04.253288 17066 net.cpp:395] relu2a -> conv2a (in-place)
I0421 19:11:04.253726 17066 net.cpp:150] Setting up relu2a
I0421 19:11:04.253739 17066 net.cpp:157] Top shape: 1 128 768 56 56 (308281344)
I0421 19:11:04.253744 17066 net.cpp:165] Memory required for data: 8362132668
I0421 19:11:04.253751 17066 layer_factory.hpp:77] Creating layer pool2
I0421 19:11:04.253768 17066 net.cpp:100] Creating Layer pool2
I0421 19:11:04.253775 17066 net.cpp:434] pool2 <- conv2a
I0421 19:11:04.253785 17066 net.cpp:408] pool2 -> pool2
I0421 19:11:04.253981 17066 net.cpp:150] Setting up pool2
I0421 19:11:04.253993 17066 net.cpp:157] Top shape: 1 128 384 28 28 (38535168)
I0421 19:11:04.254001 17066 net.cpp:165] Memory required for data: 8516273340
I0421 19:11:04.254007 17066 layer_factory.hpp:77] Creating layer conv3a
I0421 19:11:04.254025 17066 net.cpp:100] Creating Layer conv3a
I0421 19:11:04.254031 17066 net.cpp:434] conv3a <- pool2
I0421 19:11:04.254042 17066 net.cpp:408] conv3a -> conv3a
I0421 19:11:04.280606 17066 net.cpp:150] Setting up conv3a
I0421 19:11:04.280633 17066 net.cpp:157] Top shape: 1 256 384 28 28 (77070336)
I0421 19:11:04.280639 17066 net.cpp:165] Memory required for data: 8824554684
I0421 19:11:04.280656 17066 layer_factory.hpp:77] Creating layer relu3a
I0421 19:11:04.280671 17066 net.cpp:100] Creating Layer relu3a
I0421 19:11:04.280681 17066 net.cpp:434] relu3a <- conv3a
I0421 19:11:04.280694 17066 net.cpp:395] relu3a -> conv3a (in-place)
I0421 19:11:04.281051 17066 net.cpp:150] Setting up relu3a
I0421 19:11:04.281064 17066 net.cpp:157] Top shape: 1 256 384 28 28 (77070336)
I0421 19:11:04.281070 17066 net.cpp:165] Memory required for data: 9132836028
I0421 19:11:04.281076 17066 layer_factory.hpp:77] Creating layer conv3b
I0421 19:11:04.281095 17066 net.cpp:100] Creating Layer conv3b
I0421 19:11:04.281103 17066 net.cpp:434] conv3b <- conv3a
I0421 19:11:04.281114 17066 net.cpp:408] conv3b -> conv3b
I0421 19:11:04.331825 17066 net.cpp:150] Setting up conv3b
I0421 19:11:04.331856 17066 net.cpp:157] Top shape: 1 256 384 28 28 (77070336)
I0421 19:11:04.331862 17066 net.cpp:165] Memory required for data: 9441117372
I0421 19:11:04.331874 17066 layer_factory.hpp:77] Creating layer relu3b
I0421 19:11:04.331887 17066 net.cpp:100] Creating Layer relu3b
I0421 19:11:04.331897 17066 net.cpp:434] relu3b <- conv3b
I0421 19:11:04.331908 17066 net.cpp:395] relu3b -> conv3b (in-place)
I0421 19:11:04.332306 17066 net.cpp:150] Setting up relu3b
I0421 19:11:04.332320 17066 net.cpp:157] Top shape: 1 256 384 28 28 (77070336)
I0421 19:11:04.332326 17066 net.cpp:165] Memory required for data: 9749398716
I0421 19:11:04.332332 17066 layer_factory.hpp:77] Creating layer pool3
I0421 19:11:04.332347 17066 net.cpp:100] Creating Layer pool3
I0421 19:11:04.332356 17066 net.cpp:434] pool3 <- conv3b
I0421 19:11:04.332366 17066 net.cpp:408] pool3 -> pool3
I0421 19:11:04.332548 17066 net.cpp:150] Setting up pool3
I0421 19:11:04.332561 17066 net.cpp:157] Top shape: 1 256 192 14 14 (9633792)
I0421 19:11:04.332566 17066 net.cpp:165] Memory required for data: 9787933884
I0421 19:11:04.332571 17066 layer_factory.hpp:77] Creating layer conv4a
I0421 19:11:04.332589 17066 net.cpp:100] Creating Layer conv4a
I0421 19:11:04.332597 17066 net.cpp:434] conv4a <- pool3
I0421 19:11:04.332612 17066 net.cpp:408] conv4a -> conv4a
I0421 19:11:04.437145 17066 net.cpp:150] Setting up conv4a
I0421 19:11:04.437223 17066 net.cpp:157] Top shape: 1 512 192 14 14 (19267584)
I0421 19:11:04.437252 17066 net.cpp:165] Memory required for data: 9865004220
I0421 19:11:04.437288 17066 layer_factory.hpp:77] Creating layer relu4a
I0421 19:11:04.437314 17066 net.cpp:100] Creating Layer relu4a
I0421 19:11:04.437335 17066 net.cpp:434] relu4a <- conv4a
I0421 19:11:04.437357 17066 net.cpp:395] relu4a -> conv4a (in-place)
I0421 19:11:04.437980 17066 net.cpp:150] Setting up relu4a
I0421 19:11:04.438019 17066 net.cpp:157] Top shape: 1 512 192 14 14 (19267584)
I0421 19:11:04.438040 17066 net.cpp:165] Memory required for data: 9942074556
I0421 19:11:04.438058 17066 layer_factory.hpp:77] Creating layer conv4b
I0421 19:11:04.438100 17066 net.cpp:100] Creating Layer conv4b
I0421 19:11:04.438122 17066 net.cpp:434] conv4b <- conv4a
I0421 19:11:04.438149 17066 net.cpp:408] conv4b -> conv4b
I0421 19:11:04.646208 17066 net.cpp:150] Setting up conv4b
I0421 19:11:04.646231 17066 net.cpp:157] Top shape: 1 512 192 14 14 (19267584)
I0421 19:11:04.646235 17066 net.cpp:165] Memory required for data: 10019144892
I0421 19:11:04.646245 17066 layer_factory.hpp:77] Creating layer relu4b
I0421 19:11:04.646253 17066 net.cpp:100] Creating Layer relu4b
I0421 19:11:04.646258 17066 net.cpp:434] relu4b <- conv4b
I0421 19:11:04.646268 17066 net.cpp:395] relu4b -> conv4b (in-place)
I0421 19:11:04.646445 17066 net.cpp:150] Setting up relu4b
I0421 19:11:04.646458 17066 net.cpp:157] Top shape: 1 512 192 14 14 (19267584)
I0421 19:11:04.646464 17066 net.cpp:165] Memory required for data: 10096215228
I0421 19:11:04.646469 17066 layer_factory.hpp:77] Creating layer pool4
I0421 19:11:04.646500 17066 net.cpp:100] Creating Layer pool4
I0421 19:11:04.646510 17066 net.cpp:434] pool4 <- conv4b
I0421 19:11:04.646518 17066 net.cpp:408] pool4 -> pool4
I0421 19:11:04.646934 17066 net.cpp:150] Setting up pool4
I0421 19:11:04.646950 17066 net.cpp:157] Top shape: 1 512 96 7 7 (2408448)
I0421 19:11:04.646955 17066 net.cpp:165] Memory required for data: 10105849020
I0421 19:11:04.646960 17066 layer_factory.hpp:77] Creating layer conv5a
I0421 19:11:04.646997 17066 net.cpp:100] Creating Layer conv5a
I0421 19:11:04.647006 17066 net.cpp:434] conv5a <- pool4
I0421 19:11:04.647014 17066 net.cpp:408] conv5a -> conv5a
I0421 19:11:04.840247 17066 net.cpp:150] Setting up conv5a
I0421 19:11:04.840273 17066 net.cpp:157] Top shape: 1 512 96 7 7 (2408448)
I0421 19:11:04.840279 17066 net.cpp:165] Memory required for data: 10115482812
I0421 19:11:04.840291 17066 layer_factory.hpp:77] Creating layer relu5a
I0421 19:11:04.840303 17066 net.cpp:100] Creating Layer relu5a
I0421 19:11:04.840329 17066 net.cpp:434] relu5a <- conv5a
I0421 19:11:04.840350 17066 net.cpp:395] relu5a -> conv5a (in-place)
I0421 19:11:04.840912 17066 net.cpp:150] Setting up relu5a
I0421 19:11:04.840926 17066 net.cpp:157] Top shape: 1 512 96 7 7 (2408448)
I0421 19:11:04.840932 17066 net.cpp:165] Memory required for data: 10125116604
I0421 19:11:04.840939 17066 layer_factory.hpp:77] Creating layer conv5b
I0421 19:11:04.840972 17066 net.cpp:100] Creating Layer conv5b
I0421 19:11:04.840981 17066 net.cpp:434] conv5b <- conv5a
I0421 19:11:04.840991 17066 net.cpp:408] conv5b -> conv5b
I0421 19:11:05.029891 17066 net.cpp:150] Setting up conv5b
I0421 19:11:05.029918 17066 net.cpp:157] Top shape: 1 512 96 7 7 (2408448)
I0421 19:11:05.029922 17066 net.cpp:165] Memory required for data: 10134750396
I0421 19:11:05.029932 17066 layer_factory.hpp:77] Creating layer relu5b
I0421 19:11:05.029944 17066 net.cpp:100] Creating Layer relu5b
I0421 19:11:05.029949 17066 net.cpp:434] relu5b <- conv5b
I0421 19:11:05.029954 17066 net.cpp:395] relu5b -> conv5b (in-place)
I0421 19:11:05.030104 17066 net.cpp:150] Setting up relu5b
I0421 19:11:05.030115 17066 net.cpp:157] Top shape: 1 512 96 7 7 (2408448)
I0421 19:11:05.030118 17066 net.cpp:165] Memory required for data: 10144384188
I0421 19:11:05.030122 17066 layer_factory.hpp:77] Creating layer conv5b_relu5b_0_split
I0421 19:11:05.030128 17066 net.cpp:100] Creating Layer conv5b_relu5b_0_split
I0421 19:11:05.030133 17066 net.cpp:434] conv5b_relu5b_0_split <- conv5b
I0421 19:11:05.030138 17066 net.cpp:408] conv5b_relu5b_0_split -> conv5b_relu5b_0_split_0
I0421 19:11:05.030143 17066 net.cpp:408] conv5b_relu5b_0_split -> conv5b_relu5b_0_split_1
I0421 19:11:05.030179 17066 net.cpp:150] Setting up conv5b_relu5b_0_split
I0421 19:11:05.030186 17066 net.cpp:157] Top shape: 1 512 96 7 7 (2408448)
I0421 19:11:05.030190 17066 net.cpp:157] Top shape: 1 512 96 7 7 (2408448)
I0421 19:11:05.030194 17066 net.cpp:165] Memory required for data: 10163651772
I0421 19:11:05.030200 17066 layer_factory.hpp:77] Creating layer rpn_conv/3x3
I0421 19:11:05.030210 17066 net.cpp:100] Creating Layer rpn_conv/3x3
I0421 19:11:05.030215 17066 net.cpp:434] rpn_conv/3x3 <- conv5b_relu5b_0_split_0
I0421 19:11:05.030221 17066 net.cpp:408] rpn_conv/3x3 -> rpn/output
I0421 19:11:05.216511 17066 net.cpp:150] Setting up rpn_conv/3x3
I0421 19:11:05.216534 17066 net.cpp:157] Top shape: 1 512 96 4 4 (786432)
I0421 19:11:05.216538 17066 net.cpp:165] Memory required for data: 10166797500
I0421 19:11:05.216553 17066 layer_factory.hpp:77] Creating layer rpn_relu/3x3
I0421 19:11:05.216562 17066 net.cpp:100] Creating Layer rpn_relu/3x3
I0421 19:11:05.216567 17066 net.cpp:434] rpn_relu/3x3 <- rpn/output
I0421 19:11:05.216573 17066 net.cpp:395] rpn_relu/3x3 -> rpn/output (in-place)
I0421 19:11:05.216930 17066 net.cpp:150] Setting up rpn_relu/3x3
I0421 19:11:05.216943 17066 net.cpp:157] Top shape: 1 512 96 4 4 (786432)
I0421 19:11:05.216946 17066 net.cpp:165] Memory required for data: 10169943228
I0421 19:11:05.216950 17066 layer_factory.hpp:77] Creating layer rpn_conv/3x3_2
I0421 19:11:05.216962 17066 net.cpp:100] Creating Layer rpn_conv/3x3_2
I0421 19:11:05.216967 17066 net.cpp:434] rpn_conv/3x3_2 <- rpn/output
I0421 19:11:05.216974 17066 net.cpp:408] rpn_conv/3x3_2 -> rpn/output_2
I0421 19:11:05.403617 17066 net.cpp:150] Setting up rpn_conv/3x3_2
I0421 19:11:05.403651 17066 net.cpp:157] Top shape: 1 512 96 2 2 (196608)
I0421 19:11:05.403656 17066 net.cpp:165] Memory required for data: 10170729660
I0421 19:11:05.403664 17066 layer_factory.hpp:77] Creating layer rpn_relu/3x3_2
I0421 19:11:05.403674 17066 net.cpp:100] Creating Layer rpn_relu/3x3_2
I0421 19:11:05.403679 17066 net.cpp:434] rpn_relu/3x3_2 <- rpn/output_2
I0421 19:11:05.403687 17066 net.cpp:395] rpn_relu/3x3_2 -> rpn/output_2 (in-place)
I0421 19:11:05.404050 17066 net.cpp:150] Setting up rpn_relu/3x3_2
I0421 19:11:05.404062 17066 net.cpp:157] Top shape: 1 512 96 2 2 (196608)
I0421 19:11:05.404067 17066 net.cpp:165] Memory required for data: 10171516092
I0421 19:11:05.404070 17066 layer_factory.hpp:77] Creating layer rpn/output_pool
I0421 19:11:05.404078 17066 net.cpp:100] Creating Layer rpn/output_pool
I0421 19:11:05.404081 17066 net.cpp:434] rpn/output_pool <- rpn/output_2
I0421 19:11:05.404088 17066 net.cpp:408] rpn/output_pool -> rpn/output_pool
I0421 19:11:05.404265 17066 net.cpp:150] Setting up rpn/output_pool
I0421 19:11:05.404275 17066 net.cpp:157] Top shape: 1 512 96 1 1 (49152)
I0421 19:11:05.404279 17066 net.cpp:165] Memory required for data: 10171712700
I0421 19:11:05.404284 17066 layer_factory.hpp:77] Creating layer rpn/output_pool_rpn/output_pool_0_split
I0421 19:11:05.404289 17066 net.cpp:100] Creating Layer rpn/output_pool_rpn/output_pool_0_split
I0421 19:11:05.404292 17066 net.cpp:434] rpn/output_pool_rpn/output_pool_0_split <- rpn/output_pool
I0421 19:11:05.404297 17066 net.cpp:408] rpn/output_pool_rpn/output_pool_0_split -> rpn/output_pool_rpn/output_pool_0_split_0
I0421 19:11:05.404304 17066 net.cpp:408] rpn/output_pool_rpn/output_pool_0_split -> rpn/output_pool_rpn/output_pool_0_split_1
I0421 19:11:05.404335 17066 net.cpp:150] Setting up rpn/output_pool_rpn/output_pool_0_split
I0421 19:11:05.404343 17066 net.cpp:157] Top shape: 1 512 96 1 1 (49152)
I0421 19:11:05.404347 17066 net.cpp:157] Top shape: 1 512 96 1 1 (49152)
I0421 19:11:05.404350 17066 net.cpp:165] Memory required for data: 10172105916
I0421 19:11:05.404353 17066 layer_factory.hpp:77] Creating layer rpn_cls_score
I0421 19:11:05.404367 17066 net.cpp:100] Creating Layer rpn_cls_score
I0421 19:11:05.404373 17066 net.cpp:434] rpn_cls_score <- rpn/output_pool_rpn/output_pool_0_split_0
I0421 19:11:05.404378 17066 net.cpp:408] rpn_cls_score -> rpn_cls_score
I0421 19:11:05.406678 17066 net.cpp:150] Setting up rpn_cls_score
I0421 19:11:05.406690 17066 net.cpp:157] Top shape: 1 74 96 1 1 (7104)
I0421 19:11:05.406694 17066 net.cpp:165] Memory required for data: 10172134332
I0421 19:11:05.406700 17066 layer_factory.hpp:77] Creating layer rpn_cls_score_rpn_cls_score_0_split
I0421 19:11:05.406708 17066 net.cpp:100] Creating Layer rpn_cls_score_rpn_cls_score_0_split
I0421 19:11:05.406711 17066 net.cpp:434] rpn_cls_score_rpn_cls_score_0_split <- rpn_cls_score
I0421 19:11:05.406716 17066 net.cpp:408] rpn_cls_score_rpn_cls_score_0_split -> rpn_cls_score_rpn_cls_score_0_split_0
I0421 19:11:05.406723 17066 net.cpp:408] rpn_cls_score_rpn_cls_score_0_split -> rpn_cls_score_rpn_cls_score_0_split_1
I0421 19:11:05.406774 17066 net.cpp:150] Setting up rpn_cls_score_rpn_cls_score_0_split
I0421 19:11:05.406783 17066 net.cpp:157] Top shape: 1 74 96 1 1 (7104)
I0421 19:11:05.406787 17066 net.cpp:157] Top shape: 1 74 96 1 1 (7104)
I0421 19:11:05.406790 17066 net.cpp:165] Memory required for data: 10172191164
I0421 19:11:05.406795 17066 layer_factory.hpp:77] Creating layer rpn_twin_pred
I0421 19:11:05.406810 17066 net.cpp:100] Creating Layer rpn_twin_pred
I0421 19:11:05.406814 17066 net.cpp:434] rpn_twin_pred <- rpn/output_pool_rpn/output_pool_0_split_1
I0421 19:11:05.406819 17066 net.cpp:408] rpn_twin_pred -> rpn_twin_pred
I0421 19:11:05.411087 17066 net.cpp:150] Setting up rpn_twin_pred
I0421 19:11:05.411103 17066 net.cpp:157] Top shape: 1 74 96 1 1 (7104)
I0421 19:11:05.411108 17066 net.cpp:165] Memory required for data: 10172219580
I0421 19:11:05.411114 17066 layer_factory.hpp:77] Creating layer rpn_twin_pred_rpn_twin_pred_0_split
I0421 19:11:05.411123 17066 net.cpp:100] Creating Layer rpn_twin_pred_rpn_twin_pred_0_split
I0421 19:11:05.411125 17066 net.cpp:434] rpn_twin_pred_rpn_twin_pred_0_split <- rpn_twin_pred
I0421 19:11:05.411130 17066 net.cpp:408] rpn_twin_pred_rpn_twin_pred_0_split -> rpn_twin_pred_rpn_twin_pred_0_split_0
I0421 19:11:05.411137 17066 net.cpp:408] rpn_twin_pred_rpn_twin_pred_0_split -> rpn_twin_pred_rpn_twin_pred_0_split_1
I0421 19:11:05.411173 17066 net.cpp:150] Setting up rpn_twin_pred_rpn_twin_pred_0_split
I0421 19:11:05.411181 17066 net.cpp:157] Top shape: 1 74 96 1 1 (7104)
I0421 19:11:05.411185 17066 net.cpp:157] Top shape: 1 74 96 1 1 (7104)
I0421 19:11:05.411188 17066 net.cpp:165] Memory required for data: 10172276412
I0421 19:11:05.411191 17066 layer_factory.hpp:77] Creating layer rpn_cls_score_reshape
I0421 19:11:05.411206 17066 net.cpp:100] Creating Layer rpn_cls_score_reshape
I0421 19:11:05.411212 17066 net.cpp:434] rpn_cls_score_reshape <- rpn_cls_score_rpn_cls_score_0_split_0
I0421 19:11:05.411216 17066 net.cpp:408] rpn_cls_score_reshape -> rpn_cls_score_reshape
I0421 19:11:05.411247 17066 net.cpp:150] Setting up rpn_cls_score_reshape
I0421 19:11:05.411257 17066 net.cpp:157] Top shape: 1 2 3552 1 1 (7104)
I0421 19:11:05.411259 17066 net.cpp:165] Memory required for data: 10172304828
I0421 19:11:05.411262 17066 layer_factory.hpp:77] Creating layer rpn_cls_score_reshape_rpn_cls_score_reshape_0_split
I0421 19:11:05.411267 17066 net.cpp:100] Creating Layer rpn_cls_score_reshape_rpn_cls_score_reshape_0_split
I0421 19:11:05.411272 17066 net.cpp:434] rpn_cls_score_reshape_rpn_cls_score_reshape_0_split <- rpn_cls_score_reshape
I0421 19:11:05.411278 17066 net.cpp:408] rpn_cls_score_reshape_rpn_cls_score_reshape_0_split -> rpn_cls_score_reshape_rpn_cls_score_reshape_0_split_0
I0421 19:11:05.411286 17066 net.cpp:408] rpn_cls_score_reshape_rpn_cls_score_reshape_0_split -> rpn_cls_score_reshape_rpn_cls_score_reshape_0_split_1
I0421 19:11:05.411291 17066 net.cpp:408] rpn_cls_score_reshape_rpn_cls_score_reshape_0_split -> rpn_cls_score_reshape_rpn_cls_score_reshape_0_split_2
I0421 19:11:05.411332 17066 net.cpp:150] Setting up rpn_cls_score_reshape_rpn_cls_score_reshape_0_split
I0421 19:11:05.411340 17066 net.cpp:157] Top shape: 1 2 3552 1 1 (7104)
I0421 19:11:05.411345 17066 net.cpp:157] Top shape: 1 2 3552 1 1 (7104)
I0421 19:11:05.411348 17066 net.cpp:157] Top shape: 1 2 3552 1 1 (7104)
I0421 19:11:05.411351 17066 net.cpp:165] Memory required for data: 10172390076
I0421 19:11:05.411355 17066 layer_factory.hpp:77] Creating layer rpn-data
I0421 19:11:05.411751 17066 net.cpp:100] Creating Layer rpn-data
I0421 19:11:05.411763 17066 net.cpp:434] rpn-data <- rpn_cls_score_rpn_cls_score_0_split_1
I0421 19:11:05.411768 17066 net.cpp:434] rpn-data <- gt_boxes_data_1_split_0
I0421 19:11:05.411773 17066 net.cpp:434] rpn-data <- data_data_0_split_1
I0421 19:11:05.411778 17066 net.cpp:408] rpn-data -> rpn_labels
I0421 19:11:05.411785 17066 net.cpp:408] rpn-data -> rpn_twin_targets
I0421 19:11:05.411790 17066 net.cpp:408] rpn-data -> rpn_twin_inside_weights
I0421 19:11:05.411799 17066 net.cpp:408] rpn-data -> rpn_twin_outside_weights
I0421 19:11:05.414263 17066 net.cpp:150] Setting up rpn-data
I0421 19:11:05.414278 17066 net.cpp:157] Top shape: 1 1 3552 1 1 (3552)
I0421 19:11:05.414283 17066 net.cpp:157] Top shape: 1 74 96 1 1 (7104)
I0421 19:11:05.414288 17066 net.cpp:157] Top shape: 1 74 96 1 1 (7104)
I0421 19:11:05.414291 17066 net.cpp:157] Top shape: 1 74 96 1 1 (7104)
I0421 19:11:05.414294 17066 net.cpp:165] Memory required for data: 10172489532
I0421 19:11:05.414299 17066 layer_factory.hpp:77] Creating layer rpn_labels_rpn-data_0_split
I0421 19:11:05.414304 17066 net.cpp:100] Creating Layer rpn_labels_rpn-data_0_split
I0421 19:11:05.414307 17066 net.cpp:434] rpn_labels_rpn-data_0_split <- rpn_labels
I0421 19:11:05.414312 17066 net.cpp:408] rpn_labels_rpn-data_0_split -> rpn_labels_rpn-data_0_split_0
I0421 19:11:05.414319 17066 net.cpp:408] rpn_labels_rpn-data_0_split -> rpn_labels_rpn-data_0_split_1
I0421 19:11:05.414350 17066 net.cpp:150] Setting up rpn_labels_rpn-data_0_split
I0421 19:11:05.414357 17066 net.cpp:157] Top shape: 1 1 3552 1 1 (3552)
I0421 19:11:05.414361 17066 net.cpp:157] Top shape: 1 1 3552 1 1 (3552)
I0421 19:11:05.414364 17066 net.cpp:165] Memory required for data: 10172517948
I0421 19:11:05.414368 17066 layer_factory.hpp:77] Creating layer rpn_loss_cls
I0421 19:11:05.414376 17066 net.cpp:100] Creating Layer rpn_loss_cls
I0421 19:11:05.414384 17066 net.cpp:434] rpn_loss_cls <- rpn_cls_score_reshape_rpn_cls_score_reshape_0_split_0
I0421 19:11:05.414389 17066 net.cpp:434] rpn_loss_cls <- rpn_labels_rpn-data_0_split_0
…
I0421 19:11:05.415323 17066 layer_factory.hpp:77] Creating layer rpn_accuarcy
I0421 19:11:05.415330 17066 net.cpp:100] Creating Layer rpn_accuarcy
I0421 19:11:05.415334 17066 net.cpp:434] rpn_accuarcy <- rpn_cls_score_reshape_rpn_cls_score_reshape_0_split_1
I0421 19:11:05.415339 17066 net.cpp:434] rpn_accuarcy <- rpn_labels_rpn-data_0_split_1
I0421 19:11:05.415344 17066 net.cpp:408] rpn_accuarcy -> rpn_accuarcy
I0421 19:11:05.415354 17066 net.cpp:408] rpn_accuarcy -> rpn_accuarcy_class
I0421 19:11:05.415395 17066 net.cpp:150] Setting up rpn_accuarcy
I0421 19:11:05.415402 17066 net.cpp:157] Top shape: (1)
I0421 19:11:05.415407 17066 net.cpp:157] Top shape: 2 (2)
I0421 19:11:05.415411 17066 net.cpp:165] Memory required for data: 10172517968
I0421 19:11:05.415416 17066 layer_factory.hpp:77] Creating layer rpn_cls_prob
I0421 19:11:05.415422 17066 net.cpp:100] Creating Layer rpn_cls_prob
I0421 19:11:05.415426 17066 net.cpp:434] rpn_cls_prob <- rpn_cls_score_reshape_rpn_cls_score_reshape_0_split_2
I0421 19:11:05.415431 17066 net.cpp:408] rpn_cls_prob -> rpn_cls_prob
I0421 19:11:05.415689 17066 net.cpp:150] Setting up rpn_cls_prob
I0421 19:11:05.415702 17066 net.cpp:157] Top shape: 1 2 3552 1 1 (7104)
I0421 19:11:05.415706 17066 net.cpp:165] Memory required for data: 10172546384
I0421 19:11:05.415710 17066 layer_factory.hpp:77] Creating layer rpn_cls_prob_reshape
I0421 19:11:05.415717 17066 net.cpp:100] Creating Layer rpn_cls_prob_reshape
I0421 19:11:05.415721 17066 net.cpp:434] rpn_cls_prob_reshape <- rpn_cls_prob
I0421 19:11:05.415729 17066 net.cpp:408] rpn_cls_prob_reshape -> rpn_cls_prob_reshape
I0421 19:11:05.415762 17066 net.cpp:150] Setting up rpn_cls_prob_reshape
I0421 19:11:05.415771 17066 net.cpp:157] Top shape: 1 74 96 1 1 (7104)
I0421 19:11:05.415774 17066 net.cpp:165] Memory required for data: 10172574800
I0421 19:11:05.415778 17066 layer_factory.hpp:77] Creating layer proposal
I0421 19:11:05.416399 17066 net.cpp:100] Creating Layer proposal
I0421 19:11:05.416414 17066 net.cpp:434] proposal <- rpn_cls_prob_reshape
I0421 19:11:05.416419 17066 net.cpp:434] proposal <- rpn_twin_pred_rpn_twin_pred_0_split_1
I0421 19:11:05.416426 17066 net.cpp:408] proposal -> rpn_rois
I0421 19:11:05.419260 17066 net.cpp:150] Setting up proposal
I0421 19:11:05.419276 17066 net.cpp:157] Top shape: 1 3 (3)
I0421 19:11:05.419281 17066 net.cpp:165] Memory required for data: 10172574812
I0421 19:11:05.419286 17066 layer_factory.hpp:77] Creating layer roi-data
I0421 19:11:05.421110 17066 net.cpp:100] Creating Layer roi-data
I0421 19:11:05.421124 17066 net.cpp:434] roi-data <- rpn_rois
I0421 19:11:05.421131 17066 net.cpp:434] roi-data <- gt_boxes_data_1_split_1
I0421 19:11:05.421139 17066 net.cpp:408] roi-data -> rois
I0421 19:11:05.421146 17066 net.cpp:408] roi-data -> labels
I0421 19:11:05.421154 17066 net.cpp:408] roi-data -> twin_targets
I0421 19:11:05.421161 17066 net.cpp:408] roi-data -> twin_inside_weights
I0421 19:11:05.421169 17066 net.cpp:408] roi-data -> twin_outside_weights
I0421 19:11:05.421553 17066 net.cpp:150] Setting up roi-data
I0421 19:11:05.421567 17066 net.cpp:157] Top shape: 1 3 (3)
I0421 19:11:05.421573 17066 net.cpp:157] Top shape: 1 200 (200)
I0421 19:11:05.421577 17066 net.cpp:157] Top shape: 1 400 (400)
I0421 19:11:05.421581 17066 net.cpp:157] Top shape: 1 400 (400)
I0421 19:11:05.421586 17066 net.cpp:157] Top shape: 1 400 (400)
I0421 19:11:05.421589 17066 net.cpp:165] Memory required for data: 10172580424
I0421 19:11:05.421594 17066 layer_factory.hpp:77] Creating layer labels_roi-data_1_split
I0421 19:11:05.421602 17066 net.cpp:100] Creating Layer labels_roi-data_1_split
I0421 19:11:05.421605 17066 net.cpp:434] labels_roi-data_1_split <- labels
I0421 19:11:05.421612 17066 net.cpp:408] labels_roi-data_1_split -> labels_roi-data_1_split_0
I0421 19:11:05.421620 17066 net.cpp:408] labels_roi-data_1_split -> labels_roi-data_1_split_1
I0421 19:11:05.421656 17066 net.cpp:150] Setting up labels_roi-data_1_split
I0421 19:11:05.421664 17066 net.cpp:157] Top shape: 1 200 (200)
I0421 19:11:05.421669 17066 net.cpp:157] Top shape: 1 200 (200)
I0421 19:11:05.421674 17066 net.cpp:165] Memory required for data: 10172582024
I0421 19:11:05.421677 17066 layer_factory.hpp:77] Creating layer roi_pool5
I0421 19:11:05.421689 17066 net.cpp:100] Creating Layer roi_pool5
I0421 19:11:05.421697 17066 net.cpp:434] roi_pool5 <- conv5b_relu5b_0_split_1
I0421 19:11:05.421703 17066 net.cpp:434] roi_pool5 <- rois
I0421 19:11:05.421710 17066 net.cpp:408] roi_pool5 -> pool5
I0421 19:11:05.421717 17066 roi_pooling_layer.cpp:34] Temporal scale: 0.125
I0421 19:11:05.421726 17066 roi_pooling_layer.cpp:35] Spatial scale: 0.0625
I0421 19:11:05.421767 17066 net.cpp:150] Setting up roi_pool5
I0421 19:11:05.421775 17066 net.cpp:157] Top shape: 1 512 1 4 4 (8192)
I0421 19:11:05.421779 17066 net.cpp:165] Memory required for data: 10172614792
I0421 19:11:05.421783 17066 layer_factory.hpp:77] Creating layer fc6
I0421 19:11:05.421793 17066 net.cpp:100] Creating Layer fc6
I0421 19:11:05.421799 17066 net.cpp:434] fc6 <- pool5
I0421 19:11:05.421806 17066 net.cpp:408] fc6 -> fc6
I0421 19:11:06.302335 17066 net.cpp:150] Setting up fc6
I0421 19:11:06.302357 17066 net.cpp:157] Top shape: 1 4096 (4096)
I0421 19:11:06.302361 17066 net.cpp:165] Memory required for data: 10172631176
I0421 19:11:06.302371 17066 layer_factory.hpp:77] Creating layer relu6
I0421 19:11:06.302381 17066 net.cpp:100] Creating Layer relu6
I0421 19:11:06.302384 17066 net.cpp:434] relu6 <- fc6
I0421 19:11:06.302390 17066 net.cpp:395] relu6 -> fc6 (in-place)
I0421 19:11:06.303220 17066 net.cpp:150] Setting up relu6
I0421 19:11:06.303231 17066 net.cpp:157] Top shape: 1 4096 (4096)
I0421 19:11:06.303236 17066 net.cpp:165] Memory required for data: 10172647560
I0421 19:11:06.303239 17066 layer_factory.hpp:77] Creating layer drop6
I0421 19:11:06.303251 17066 net.cpp:100] Creating Layer drop6
I0421 19:11:06.303254 17066 net.cpp:434] drop6 <- fc6
I0421 19:11:06.303259 17066 net.cpp:395] drop6 -> fc6 (in-place)
I0421 19:11:06.303292 17066 net.cpp:150] Setting up drop6
I0421 19:11:06.303300 17066 net.cpp:157] Top shape: 1 4096 (4096)
I0421 19:11:06.303303 17066 net.cpp:165] Memory required for data: 10172663944
I0421 19:11:06.303308 17066 layer_factory.hpp:77] Creating layer fc6_drop6_0_split
I0421 19:11:06.303313 17066 net.cpp:100] Creating Layer fc6_drop6_0_split
I0421 19:11:06.303315 17066 net.cpp:434] fc6_drop6_0_split <- fc6
I0421 19:11:06.303320 17066 net.cpp:408] fc6_drop6_0_split -> fc6_drop6_0_split_0
I0421 19:11:06.303328 17066 net.cpp:408] fc6_drop6_0_split -> fc6_drop6_0_split_1
I0421 19:11:06.303360 17066 net.cpp:150] Setting up fc6_drop6_0_split
I0421 19:11:06.303369 17066 net.cpp:157] Top shape: 1 4096 (4096)
I0421 19:11:06.303372 17066 net.cpp:157] Top shape: 1 4096 (4096)
I0421 19:11:06.303378 17066 net.cpp:165] Memory required for data: 10172696712
I0421 19:11:06.303382 17066 layer_factory.hpp:77] Creating layer cls_score
I0421 19:11:06.303391 17066 net.cpp:100] Creating Layer cls_score
I0421 19:11:06.303396 17066 net.cpp:434] cls_score <- fc6_drop6_0_split_0
I0421 19:11:06.303401 17066 net.cpp:408] cls_score -> cls_score
I0421 19:11:06.324867 17066 net.cpp:150] Setting up cls_score
I0421 19:11:06.324892 17066 net.cpp:157] Top shape: 1 200 (200)
I0421 19:11:06.324895 17066 net.cpp:165] Memory required for data: 10172697512
I0421 19:11:06.324903 17066 layer_factory.hpp:77] Creating layer cls_score_cls_score_0_split
I0421 19:11:06.324908 17066 net.cpp:100] Creating Layer cls_score_cls_score_0_split
I0421 19:11:06.324911 17066 net.cpp:434] cls_score_cls_score_0_split <- cls_score
I0421 19:11:06.324918 17066 net.cpp:408] cls_score_cls_score_0_split -> cls_score_cls_score_0_split_0
I0421 19:11:06.324924 17066 net.cpp:408] cls_score_cls_score_0_split -> cls_score_cls_score_0_split_1
I0421 19:11:06.324959 17066 net.cpp:150] Setting up cls_score_cls_score_0_split
I0421 19:11:06.324965 17066 net.cpp:157] Top shape: 1 200 (200)
I0421 19:11:06.324970 17066 net.cpp:157] Top shape: 1 200 (200)
I0421 19:11:06.324973 17066 net.cpp:165] Memory required for data: 10172699112
I0421 19:11:06.324980 17066 layer_factory.hpp:77] Creating layer twin_pred
I0421 19:11:06.324990 17066 net.cpp:100] Creating Layer twin_pred
I0421 19:11:06.324996 17066 net.cpp:434] twin_pred <- fc6_drop6_0_split_1
I0421 19:11:06.325001 17066 net.cpp:408] twin_pred -> twin_pred
I0421 19:11:06.367470 17066 net.cpp:150] Setting up twin_pred
I0421 19:11:06.367499 17066 net.cpp:157] Top shape: 1 400 (400)
I0421 19:11:06.367503 17066 net.cpp:165] Memory required for data: 10172700712
I0421 19:11:06.367511 17066 layer_factory.hpp:77] Creating layer loss_cls
I0421 19:11:06.367525 17066 net.cpp:100] Creating Layer loss_cls
I0421 19:11:06.367530 17066 net.cpp:434] loss_cls <- cls_score_cls_score_0_split_0
I0421 19:11:06.367537 17066 net.cpp:434] loss_cls <- labels_roi-data_1_split_0
I0421 19:11:06.367542 17066 net.cpp:408] loss_cls -> loss_cls
…
