…
stepsize: 350000
snapshot: 0
snapshot_prefix: "./experiments/activitynet/snapshot/activitynet"
average_loss: 100
iter_size: 1
I0417 12:15:28.775429  8342 solver.cpp:81] Creating training net from train_net file: ./experiments/activitynet/train.prototxt
I0417 12:15:28.776525  8342 net.cpp:58] Initializing net from parameters: 
name: "activitynet"
state {
  phase: TRAIN
}
layer {
  name: "data"
  type: "Python"
  top: "data"
  top: "gt_boxes"
  python_param {
    module: "roi_data_layer.layer"
    layer: "RoIDataLayer"
    param_str: "\'num_classes\': 100"
  }
}
layer {
  name: "conv1a"
  type: "Convolution"
  bottom: "data"
  top: "conv1a"
  param {
    lr_mult: 0
    decay_mult: 0
  }
  param {
    lr_mult: 0
    decay_mult: 0
  }
  convolution_param {
    num_output: 64
    pad: 1
    pad: 1
    pad: 1
    kernel_size: 3
    kernel_size: 3
    kernel_size: 3
    weight_filler {
      type: "gaussian"
      std: 0.01
    }
    bias_filler {
      type: "constant"
      value: 0
    }
  }
}
layer {
  name: "relu1a"
  type: "ReLU"
  bottom: "conv1a"
  top: "conv1a"
}
layer {
  name: "pool1"
  type: "Pooling"
  bottom: "conv1a"
  top: "pool1"
  pooling_param {
    pool: MAX
    kernel_size: 1
    kernel_size: 2
    kernel_size: 2
    stride: 1
    stride: 2
    stride: 2
  }
}
layer {
  name: "conv2a"
  type: "Convolution"
  bottom: "pool1"
  top: "conv2a"
  param {
    lr_mult: 0
    decay_mult: 0
  }
  param {
    lr_mult: 0
    decay_mult: 0
  }
  convolution_param {
    num_output: 128
    pad: 1
    pad: 1
    pad: 1
    kernel_size: 3
    kernel_size: 3
    kernel_size: 3
    weight_filler {
      type: "gaussian"
      std: 0.01
    }
    bias_filler {
      type: "constant"
      value: 1
    }
  }
}
layer {
  name: "relu2a"
  type: "ReLU"
  bottom: "conv2a"
  top: "conv2a"
}
layer {
  name: "pool2"
  type: "Pooling"
  bottom: "conv2a"
  top: "pool2"
  pooling_param {
    pool: MAX
    kernel_size: 2
    kernel_size: 2
    kernel_size: 2
    stride: 2
    stride: 2
    stride: 2
  }
}
layer {
  name: "conv3a"
  type: "Convolution"
  bottom: "pool2"
  top: "conv3a"
  param {
    lr_mult: 1
    decay_mult: 1
  }
  param {
    lr_mult: 2
    decay_mult: 0
  }
  convolution_param {
    num_output: 256
    pad: 1
    pad: 1
    pad: 1
    kernel_size: 3
    kernel_size: 3
    kernel_size: 3
    weight_filler {
      type: "gaussian"
      std: 0.01
    }
    bias_filler {
      type: "constant"
      value: 1
    }
  }
}
layer {
  name: "relu3a"
  type: "ReLU"
  bottom: "conv3a"
  top: "conv3a"
}
layer {
  name: "conv3b"
  type: "Convolution"
  bottom: "conv3a"
  top: "conv3b"
  param {
    lr_mult: 1
    decay_mult: 1
  }
  param {
    lr_mult: 2
    decay_mult: 0
  }
  convolution_param {
    num_output: 256
    pad: 1
    pad: 1
    pad: 1
    kernel_size: 3
    kernel_size: 3
    kernel_size: 3
    weight_filler {
      type: "gaussian"
      std: 0.01
    }
    bias_filler {
      type: "constant"
      value: 1
    }
  }
}
layer {
  name: "relu3b"
  type: "ReLU"
  bottom: "conv3b"
  top: "conv3b"
}
layer {
  name: "pool3"
  type: "Pooling"
  bottom: "conv3b"
  top: "pool3"
  pooling_param {
    pool: MAX
    kernel_size: 2
    kernel_size: 2
    kernel_size: 2
    stride: 2
    stride: 2
    stride: 2
  }
}
layer {
  name: "conv4a"
  type: "Convolution"
  bottom: "pool3"
  top: "conv4a"
  param {
    lr_mult: 1
    decay_mult: 1
  }
  param {
    lr_mult: 2
    decay_mult: 0
  }
  convolution_param {
    num_output: 512
    pad: 1
    pad: 1
    pad: 1
    kernel_size: 3
    kernel_size: 3
    kernel_size: 3
    weight_filler {
      type: "gaussian"
      std: 0.01
    }
    bias_filler {
      type: "constant"
      value: 1
    }
  }
}
layer {
  name: "relu4a"
  type: "ReLU"
  bottom: "conv4a"
  top: "conv4a"
}
layer {
  name: "conv4b"
  type: "Convolution"
  bottom: "conv4a"
  top: "conv4b"
  param {
    lr_mult: 1
    decay_mult: 1
  }
  param {
    lr_mult: 2
    decay_mult: 0
  }
  convolution_param {
    num_output: 512
    pad: 1
    pad: 1
    pad: 1
    kernel_size: 3
    kernel_size: 3
    kernel_size: 3
    weight_filler {
      type: "gaussian"
      std: 0.01
    }
    bias_filler {
      type: "constant"
      value: 1
    }
  }
}
layer {
  name: "relu4b"
  type: "ReLU"
  bottom: "conv4b"
  top: "conv4b"
}
layer {
  name: "pool4"
  type: "Pooling"
  bottom: "conv4b"
  top: "pool4"
  pooling_param {
    pool: MAX
    kernel_size: 2
    kernel_size: 2
    kernel_size: 2
    stride: 2
    stride: 2
    stride: 2
  }
}
layer {
  name: "conv5a"
  type: "Convolution"
  bottom: "pool4"
  top: "conv5a"
  param {
    lr_mult: 1
    decay_mult: 1
  }
  param {
    lr_mult: 2
    decay_mult: 0
  }
  convolution_param {
    num_output: 512
    pad: 1
    pad: 1
    pad: 1
    kernel_size: 3
    kernel_size: 3
    kernel_size: 3
    weight_filler {
      type: "gaussian"
      std: 0.01
    }
    bias_filler {
      type: "constant"
      value: 1
    }
  }
}
layer {
  name: "relu5a"
  type: "ReLU"
  bottom: "conv5a"
  top: "conv5a"
}
layer {
  name: "conv5b"
  type: "Convolution"
  bottom: "conv5a"
  top: "conv5b"
  param {
    lr_mult: 1
    decay_mult: 1
  }
  param {
    lr_mult: 2
    decay_mult: 0
  }
  convolution_param {
    num_output: 512
    pad: 1
    pad: 1
    pad: 1
    kernel_size: 3
    kernel_size: 3
    kernel_size: 3
    weight_filler {
      type: "gaussian"
      std: 0.01
    }
    bias_filler {
      type: "constant"
      value: 1
    }
  }
}
layer {
  name: "relu5b"
  type: "ReLU"
  bottom: "conv5b"
  top: "conv5b"
}
layer {
  name: "rpn_conv/3x3"
  type: "Convolution"
  bottom: "conv5b"
  top: "rpn/output"
  param {
    lr_mult: 1
    decay_mult: 1
  }
  param {
    lr_mult: 2
    decay_mult: 0
  }
  convolution_param {
    num_output: 512
    pad: 1
    pad: 1
    pad: 1
    kernel_size: 3
    kernel_size: 3
    kernel_size: 3
    stride: 1
    stride: 2
    stride: 2
    weight_filler {
      type: "gaussian"
      std: 0.01
    }
    bias_filler {
      type: "constant"
      value: 0
    }
  }
}
layer {
  name: "rpn_relu/3x3"
  type: "ReLU"
  bottom: "rpn/output"
  top: "rpn/output"
}
layer {
  name: "rpn_conv/3x3_2"
  type: "Convolution"
  bottom: "rpn/output"
  top: "rpn/output_2"
  param {
    lr_mult: 1
    decay_mult: 1
  }
  param {
    lr_mult: 2
    decay_mult: 0
  }
  convolution_param {
    num_output: 512
    pad: 1
    pad: 1
    pad: 1
    kernel_size: 3
    kernel_size: 3
    kernel_size: 3
    stride: 1
    stride: 2
    stride: 2
    weight_filler {
      type: "gaussian"
      std: 0.01
    }
    bias_filler {
      type: "constant"
      value: 0
    }
  }
}
layer {
  name: "rpn_relu/3x3_2"
  type: "ReLU"
  bottom: "rpn/output_2"
  top: "rpn/output_2"
}
layer {
  name: "rpn/output_pool"
  type: "Pooling"
  bottom: "rpn/output_2"
  top: "rpn/output_pool"
  pooling_param {
    pool: MAX
    kernel_size: 1
    kernel_size: 2
    kernel_size: 2
  }
}
layer {
  name: "rpn_cls_score"
  type: "Convolution"
  bottom: "rpn/output_pool"
  top: "rpn_cls_score"
  param {
    lr_mult: 1
    decay_mult: 1
  }
  param {
    lr_mult: 2
    decay_mult: 0
  }
  convolution_param {
    num_output: 74
    kernel_size: 1
    kernel_size: 1
    kernel_size: 1
    weight_filler {
      type: "gaussian"
      std: 0.01
    }
    bias_filler {
      type: "constant"
      value: 0
    }
  }
}
layer {
  name: "rpn_twin_pred"
  type: "Convolution"
  bottom: "rpn/output_pool"
  top: "rpn_twin_pred"
  param {
    lr_mult: 1
    decay_mult: 1
  }
  param {
    lr_mult: 2
    decay_mult: 0
  }
  convolution_param {
    num_output: 74
    kernel_size: 1
    kernel_size: 1
    kernel_size: 1
    weight_filler {
      type: "gaussian"
      std: 0.01
    }
    bias_filler {
      type: "constant"
      value: 0
    }
  }
}
layer {
  name: "rpn_cls_score_reshape"
  type: "Reshape"
  bottom: "rpn_cls_score"
  top: "rpn_cls_score_reshape"
  reshape_param {
    shape {
      dim: 0
      dim: 2
      dim: -1
      dim: 0
      dim: 0
    }
  }
}
layer {
  name: "rpn-data"
  type: "Python"
  bottom: "rpn_cls_score"
  bottom: "gt_boxes"
  bottom: "data"
  top: "rpn_labels"
  top: "rpn_twin_targets"
  top: "rpn_twin_inside_weights"
  top: "rpn_twin_outside_weights"
  python_param {
    module: "rpn.anchor_target_layer"
    layer: "AnchorTargetLayer"
    param_str: "\'feat_stride\': 8 \n\'scales\': !!python/tuple [1,1.25, 1.5,1.75, 2,2.5, 3,3.5, 4,4.5, 5,5.5, 6,7, 8,9,10,11,12,14,16,18,20,22,24,28,32,36,40,44,52,60,68,76,84,92,100]"
  }
}
layer {
  name: "rpn_loss_cls"
  type: "SoftmaxWithLoss"
  bottom: "rpn_cls_score_reshape"
  bottom: "rpn_labels"
  top: "rpn_cls_loss"
  loss_weight: 1
  propagate_down: true
  propagate_down: false
  loss_param {
    ignore_label: -1
    normalize: true
  }
}
layer {
  name: "rpn_loss_twin"
  type: "SmoothL1Loss"
  bottom: "rpn_twin_pred"
  bottom: "rpn_twin_targets"
  bottom: "rpn_twin_inside_weights"
  bottom: "rpn_twin_outside_weights"
  top: "rpn_loss_twin"
  loss_weight: 1
  smooth_l1_loss_param {
    sigma: 3
  }
}
layer {
  name: "rpn_accuarcy"
  type: "Accuracy"
  bottom: "rpn_cls_score_reshape"
  bottom: "rpn_labels"
  top: "rpn_accuarcy"
  top: "rpn_accuarcy_class"
  propagate_down: false
  propagate_down: false
  accuracy_param {
    ignore_label: -1
  }
}
layer {
  name: "rpn_cls_prob"
  type: "Softmax"
  bottom: "rpn_cls_score_reshape"
  top: "rpn_cls_prob"
}
layer {
  name: "rpn_cls_prob_reshape"
  type: "Reshape"
  bottom: "rpn_cls_prob"
  top: "rpn_cls_prob_reshape"
  reshape_param {
    shape {
      dim: 0
      dim: 74
      dim: -1
      dim: 0
      dim: 0
    }
  }
}
layer {
  name: "proposal"
  type: "Python"
  bottom: "rpn_cls_prob_reshape"
  bottom: "rpn_twin_pred"
  top: "rpn_rois"
  include {
    phase: TRAIN
  }
  python_param {
    module: "rpn.proposal_layer"
    layer: "ProposalLayer"
    param_str: "\'feat_stride\': 8 \n\'scales\': !!python/tuple [1,1.25, 1.5,1.75, 2,2.5, 3,3.5, 4,4.5, 5,5.5, 6,7, 8,9,10,11,12,14,16,18,20,22,24,28,32,36,40,44,52,60,68,76,84,92,100]"
  }
}
layer {
  name: "roi-data"
  type: "Python"
  bottom: "rpn_rois"
  bottom: "gt_boxes"
  top: "rois"
  top: "labels"
  top: "twin_targets"
  top: "twin_inside_weights"
  top: "twin_outside_weights"
  python_param {
    module: "rpn.proposal_target_layer"
    layer: "ProposalTargetLayer"
    param_str: "\'num_classes\': 201"
  }
}
layer {
  name: "roi_pool5"
  type: "ROIPooling"
  bottom: "conv5b"
  bottom: "rois"
  top: "pool5"
  roi_pooling_param {
    pooled_h: 4
    pooled_w: 4
    spatial_scale: 0.0625
    pooled_l: 1
    temporal_scale: 0.125
  }
}
layer {
  name: "fc6"
  type: "InnerProduct"
  bottom: "pool5"
  top: "fc6"
  param {
    lr_mult: 1
    decay_mult: 1
  }
  param {
    lr_mult: 2
    decay_mult: 0
  }
  inner_product_param {
    num_output: 4096
    weight_filler {
      type: "gaussian"
      std: 0.005
    }
    bias_filler {
      type: "constant"
      value: 1
    }
  }
}
layer {
  name: "relu6"
  type: "ReLU"
  bottom: "fc6"
  top: "fc6"
}
layer {
  name: "drop6"
  type: "Dropout"
  bottom: "fc6"
  top: "fc6"
  dropout_param {
    dropout_ratio: 0.5
  }
}
layer {
  name: "cls_score"
  type: "InnerProduct"
  bottom: "fc6"
  top: "cls_score"
  param {
    lr_mult: 1
    decay_mult: 1
  }
  param {
    lr_mult: 2
    decay_mult: 0
  }
  inner_product_param {
    num_output: 201
    weight_filler {
      type: "gaussian"
      std: 0.01
    }
    bias_filler {
      type: "constant"
      value: 0
    }
  }
}
layer {
  name: "twin_pred"
  type: "InnerProduct"
  bottom: "fc6"
  top: "twin_pred"
  param {
    lr_mult: 1
    decay_mult: 1
  }
  param {
    lr_mult: 2
    decay_mult: 0
  }
  inner_product_param {
    num_output: 402
    weight_filler {
      type: "gaussian"
      std: 0.001
    }
    bias_filler {
      type: "constant"
      value: 0
    }
  }
}
layer {
  name: "loss_cls"
  type: "SoftmaxWithLoss"
  bottom: "cls_score"
  bottom: "labels"
  top: "loss_cls"
  loss_weight: 1
  propagate_down: true
  propagate_down: false
}
layer {
  name: "loss_twin"
  type: "SmoothL1Loss"
  bottom: "twin_pred"
  bottom: "twin_targets"
  bottom: "twin_inside_weights"
  bottom: "twin_outside_weights"
  top: "loss_twin"
  loss_weight: 1
}
layer {
  name: "accuarcy"
  type: "Accuracy"
  bottom: "cls_score"
  bottom: "labels"
  top: "accuarcy"
  propagate_down: false
  propagate_down: false
  accuracy_param {
    ignore_label: -1
  }
}
I0417 12:15:28.776741  8342 layer_factory.hpp:77] Creating layer data
I0417 12:15:28.803889  8342 net.cpp:100] Creating Layer data
I0417 12:15:28.803913  8342 net.cpp:408] data -> data
I0417 12:15:28.803927  8342 net.cpp:408] data -> gt_boxes
setting up
has rpn
RoiDataLayer: name_to_top: {'gt_windows': 1, 'data': 0}
I0417 12:15:28.817698  8342 net.cpp:150] Setting up data
I0417 12:15:28.817726  8342 net.cpp:157] Top shape: 1 3 768 112 112 (28901376)
I0417 12:15:28.817731  8342 net.cpp:157] Top shape: 1 101 (101)
I0417 12:15:28.817740  8342 net.cpp:165] Memory required for data: 115605908
I0417 12:15:28.817746  8342 layer_factory.hpp:77] Creating layer data_data_0_split
I0417 12:15:28.817759  8342 net.cpp:100] Creating Layer data_data_0_split
I0417 12:15:28.817764  8342 net.cpp:434] data_data_0_split <- data
I0417 12:15:28.817770  8342 net.cpp:408] data_data_0_split -> data_data_0_split_0
I0417 12:15:28.817780  8342 net.cpp:408] data_data_0_split -> data_data_0_split_1
I0417 12:15:28.817829  8342 net.cpp:150] Setting up data_data_0_split
I0417 12:15:28.817840  8342 net.cpp:157] Top shape: 1 3 768 112 112 (28901376)
I0417 12:15:28.817844  8342 net.cpp:157] Top shape: 1 3 768 112 112 (28901376)
I0417 12:15:28.817848  8342 net.cpp:165] Memory required for data: 346816916
I0417 12:15:28.817852  8342 layer_factory.hpp:77] Creating layer gt_boxes_data_1_split
I0417 12:15:28.817858  8342 net.cpp:100] Creating Layer gt_boxes_data_1_split
I0417 12:15:28.817862  8342 net.cpp:434] gt_boxes_data_1_split <- gt_boxes
I0417 12:15:28.817867  8342 net.cpp:408] gt_boxes_data_1_split -> gt_boxes_data_1_split_0
I0417 12:15:28.817873  8342 net.cpp:408] gt_boxes_data_1_split -> gt_boxes_data_1_split_1
I0417 12:15:28.817910  8342 net.cpp:150] Setting up gt_boxes_data_1_split
I0417 12:15:28.817917  8342 net.cpp:157] Top shape: 1 101 (101)
I0417 12:15:28.817921  8342 net.cpp:157] Top shape: 1 101 (101)
I0417 12:15:28.817924  8342 net.cpp:165] Memory required for data: 346817724
I0417 12:15:28.817929  8342 layer_factory.hpp:77] Creating layer conv1a
I0417 12:15:28.817945  8342 net.cpp:100] Creating Layer conv1a
I0417 12:15:28.817947  8342 net.cpp:434] conv1a <- data_data_0_split_0
I0417 12:15:28.817955  8342 net.cpp:408] conv1a -> conv1a
I0417 12:15:28.837150  8342 net.cpp:150] Setting up conv1a
I0417 12:15:28.837182  8342 net.cpp:157] Top shape: 1 64 768 112 112 (616562688)
I0417 12:15:28.837186  8342 net.cpp:165] Memory required for data: 2813068476
I0417 12:15:28.837210  8342 layer_factory.hpp:77] Creating layer relu1a
I0417 12:15:28.837225  8342 net.cpp:100] Creating Layer relu1a
I0417 12:15:28.837230  8342 net.cpp:434] relu1a <- conv1a
I0417 12:15:28.837239  8342 net.cpp:395] relu1a -> conv1a (in-place)
I0417 12:15:28.837250  8342 net.cpp:150] Setting up relu1a
I0417 12:15:28.837255  8342 net.cpp:157] Top shape: 1 64 768 112 112 (616562688)
I0417 12:15:28.837257  8342 net.cpp:165] Memory required for data: 5279319228
I0417 12:15:28.837261  8342 layer_factory.hpp:77] Creating layer pool1
I0417 12:15:28.837268  8342 net.cpp:100] Creating Layer pool1
I0417 12:15:28.837272  8342 net.cpp:434] pool1 <- conv1a
I0417 12:15:28.837278  8342 net.cpp:408] pool1 -> pool1
I0417 12:15:28.837391  8342 net.cpp:150] Setting up pool1
I0417 12:15:28.837401  8342 net.cpp:157] Top shape: 1 64 768 56 56 (154140672)
I0417 12:15:28.837405  8342 net.cpp:165] Memory required for data: 5895881916
I0417 12:15:28.837409  8342 layer_factory.hpp:77] Creating layer conv2a
I0417 12:15:28.837422  8342 net.cpp:100] Creating Layer conv2a
I0417 12:15:28.837425  8342 net.cpp:434] conv2a <- pool1
I0417 12:15:28.837431  8342 net.cpp:408] conv2a -> conv2a
I0417 12:15:28.848214  8342 net.cpp:150] Setting up conv2a
I0417 12:15:28.848235  8342 net.cpp:157] Top shape: 1 128 768 56 56 (308281344)
I0417 12:15:28.848238  8342 net.cpp:165] Memory required for data: 7129007292
I0417 12:15:28.848250  8342 layer_factory.hpp:77] Creating layer relu2a
I0417 12:15:28.848260  8342 net.cpp:100] Creating Layer relu2a
I0417 12:15:28.848264  8342 net.cpp:434] relu2a <- conv2a
I0417 12:15:28.848270  8342 net.cpp:395] relu2a -> conv2a (in-place)
I0417 12:15:28.848278  8342 net.cpp:150] Setting up relu2a
I0417 12:15:28.848282  8342 net.cpp:157] Top shape: 1 128 768 56 56 (308281344)
I0417 12:15:28.848285  8342 net.cpp:165] Memory required for data: 8362132668
I0417 12:15:28.848289  8342 layer_factory.hpp:77] Creating layer pool2
I0417 12:15:28.848297  8342 net.cpp:100] Creating Layer pool2
I0417 12:15:28.848300  8342 net.cpp:434] pool2 <- conv2a
I0417 12:15:28.848305  8342 net.cpp:408] pool2 -> pool2
I0417 12:15:28.848387  8342 net.cpp:150] Setting up pool2
I0417 12:15:28.848395  8342 net.cpp:157] Top shape: 1 128 384 28 28 (38535168)
I0417 12:15:28.848398  8342 net.cpp:165] Memory required for data: 8516273340
I0417 12:15:28.848402  8342 layer_factory.hpp:77] Creating layer conv3a
I0417 12:15:28.848414  8342 net.cpp:100] Creating Layer conv3a
I0417 12:15:28.848418  8342 net.cpp:434] conv3a <- pool2
I0417 12:15:28.848424  8342 net.cpp:408] conv3a -> conv3a
I0417 12:15:28.873339  8342 net.cpp:150] Setting up conv3a
I0417 12:15:28.873356  8342 net.cpp:157] Top shape: 1 256 384 28 28 (77070336)
I0417 12:15:28.873361  8342 net.cpp:165] Memory required for data: 8824554684
I0417 12:15:28.873370  8342 layer_factory.hpp:77] Creating layer relu3a
I0417 12:15:28.873379  8342 net.cpp:100] Creating Layer relu3a
I0417 12:15:28.873384  8342 net.cpp:434] relu3a <- conv3a
I0417 12:15:28.873389  8342 net.cpp:395] relu3a -> conv3a (in-place)
I0417 12:15:28.873396  8342 net.cpp:150] Setting up relu3a
I0417 12:15:28.873400  8342 net.cpp:157] Top shape: 1 256 384 28 28 (77070336)
I0417 12:15:28.873404  8342 net.cpp:165] Memory required for data: 9132836028
I0417 12:15:28.873407  8342 layer_factory.hpp:77] Creating layer conv3b
I0417 12:15:28.873426  8342 net.cpp:100] Creating Layer conv3b
I0417 12:15:28.873432  8342 net.cpp:434] conv3b <- conv3a
I0417 12:15:28.873438  8342 net.cpp:408] conv3b -> conv3b
I0417 12:15:28.922236  8342 net.cpp:150] Setting up conv3b
I0417 12:15:28.922261  8342 net.cpp:157] Top shape: 1 256 384 28 28 (77070336)
I0417 12:15:28.922266  8342 net.cpp:165] Memory required for data: 9441117372
I0417 12:15:28.922276  8342 layer_factory.hpp:77] Creating layer relu3b
I0417 12:15:28.922286  8342 net.cpp:100] Creating Layer relu3b
I0417 12:15:28.922289  8342 net.cpp:434] relu3b <- conv3b
I0417 12:15:28.922297  8342 net.cpp:395] relu3b -> conv3b (in-place)
I0417 12:15:28.922305  8342 net.cpp:150] Setting up relu3b
I0417 12:15:28.922309  8342 net.cpp:157] Top shape: 1 256 384 28 28 (77070336)
I0417 12:15:28.922312  8342 net.cpp:165] Memory required for data: 9749398716
I0417 12:15:28.922315  8342 layer_factory.hpp:77] Creating layer pool3
I0417 12:15:28.922324  8342 net.cpp:100] Creating Layer pool3
I0417 12:15:28.922327  8342 net.cpp:434] pool3 <- conv3b
I0417 12:15:28.922333  8342 net.cpp:408] pool3 -> pool3
I0417 12:15:28.922387  8342 net.cpp:150] Setting up pool3
I0417 12:15:28.922394  8342 net.cpp:157] Top shape: 1 256 192 14 14 (9633792)
I0417 12:15:28.922397  8342 net.cpp:165] Memory required for data: 9787933884
I0417 12:15:28.922400  8342 layer_factory.hpp:77] Creating layer conv4a
I0417 12:15:28.922413  8342 net.cpp:100] Creating Layer conv4a
I0417 12:15:28.922417  8342 net.cpp:434] conv4a <- pool3
I0417 12:15:28.922423  8342 net.cpp:408] conv4a -> conv4a
I0417 12:15:29.019966  8342 net.cpp:150] Setting up conv4a
I0417 12:15:29.019994  8342 net.cpp:157] Top shape: 1 512 192 14 14 (19267584)
I0417 12:15:29.019997  8342 net.cpp:165] Memory required for data: 9865004220
I0417 12:15:29.020011  8342 layer_factory.hpp:77] Creating layer relu4a
I0417 12:15:29.020022  8342 net.cpp:100] Creating Layer relu4a
I0417 12:15:29.020026  8342 net.cpp:434] relu4a <- conv4a
I0417 12:15:29.020035  8342 net.cpp:395] relu4a -> conv4a (in-place)
I0417 12:15:29.020045  8342 net.cpp:150] Setting up relu4a
I0417 12:15:29.020048  8342 net.cpp:157] Top shape: 1 512 192 14 14 (19267584)
I0417 12:15:29.020051  8342 net.cpp:165] Memory required for data: 9942074556
I0417 12:15:29.020054  8342 layer_factory.hpp:77] Creating layer conv4b
I0417 12:15:29.020067  8342 net.cpp:100] Creating Layer conv4b
I0417 12:15:29.020071  8342 net.cpp:434] conv4b <- conv4a
I0417 12:15:29.020076  8342 net.cpp:408] conv4b -> conv4b
I0417 12:15:29.210467  8342 net.cpp:150] Setting up conv4b
I0417 12:15:29.210490  8342 net.cpp:157] Top shape: 1 512 192 14 14 (19267584)
I0417 12:15:29.210494  8342 net.cpp:165] Memory required for data: 10019144892
I0417 12:15:29.210503  8342 layer_factory.hpp:77] Creating layer relu4b
I0417 12:15:29.210513  8342 net.cpp:100] Creating Layer relu4b
I0417 12:15:29.210518  8342 net.cpp:434] relu4b <- conv4b
I0417 12:15:29.210523  8342 net.cpp:395] relu4b -> conv4b (in-place)
I0417 12:15:29.210531  8342 net.cpp:150] Setting up relu4b
I0417 12:15:29.210536  8342 net.cpp:157] Top shape: 1 512 192 14 14 (19267584)
I0417 12:15:29.210539  8342 net.cpp:165] Memory required for data: 10096215228
I0417 12:15:29.210542  8342 layer_factory.hpp:77] Creating layer pool4
I0417 12:15:29.210548  8342 net.cpp:100] Creating Layer pool4
I0417 12:15:29.210551  8342 net.cpp:434] pool4 <- conv4b
I0417 12:15:29.210558  8342 net.cpp:408] pool4 -> pool4
I0417 12:15:29.210608  8342 net.cpp:150] Setting up pool4
I0417 12:15:29.210615  8342 net.cpp:157] Top shape: 1 512 96 7 7 (2408448)
I0417 12:15:29.210619  8342 net.cpp:165] Memory required for data: 10105849020
I0417 12:15:29.210623  8342 layer_factory.hpp:77] Creating layer conv5a
I0417 12:15:29.210633  8342 net.cpp:100] Creating Layer conv5a
I0417 12:15:29.210638  8342 net.cpp:434] conv5a <- pool4
I0417 12:15:29.210645  8342 net.cpp:408] conv5a -> conv5a
I0417 12:15:29.395452  8342 net.cpp:150] Setting up conv5a
I0417 12:15:29.395474  8342 net.cpp:157] Top shape: 1 512 96 7 7 (2408448)
I0417 12:15:29.395478  8342 net.cpp:165] Memory required for data: 10115482812
I0417 12:15:29.395486  8342 layer_factory.hpp:77] Creating layer relu5a
I0417 12:15:29.395496  8342 net.cpp:100] Creating Layer relu5a
I0417 12:15:29.395501  8342 net.cpp:434] relu5a <- conv5a
I0417 12:15:29.395506  8342 net.cpp:395] relu5a -> conv5a (in-place)
I0417 12:15:29.395514  8342 net.cpp:150] Setting up relu5a
I0417 12:15:29.395519  8342 net.cpp:157] Top shape: 1 512 96 7 7 (2408448)
I0417 12:15:29.395521  8342 net.cpp:165] Memory required for data: 10125116604
I0417 12:15:29.395524  8342 layer_factory.hpp:77] Creating layer conv5b
I0417 12:15:29.395534  8342 net.cpp:100] Creating Layer conv5b
I0417 12:15:29.395537  8342 net.cpp:434] conv5b <- conv5a
I0417 12:15:29.395542  8342 net.cpp:408] conv5b -> conv5b
I0417 12:15:29.580795  8342 net.cpp:150] Setting up conv5b
I0417 12:15:29.580817  8342 net.cpp:157] Top shape: 1 512 96 7 7 (2408448)
I0417 12:15:29.580821  8342 net.cpp:165] Memory required for data: 10134750396
I0417 12:15:29.580829  8342 layer_factory.hpp:77] Creating layer relu5b
I0417 12:15:29.580839  8342 net.cpp:100] Creating Layer relu5b
I0417 12:15:29.580844  8342 net.cpp:434] relu5b <- conv5b
I0417 12:15:29.580850  8342 net.cpp:395] relu5b -> conv5b (in-place)
I0417 12:15:29.580858  8342 net.cpp:150] Setting up relu5b
I0417 12:15:29.580862  8342 net.cpp:157] Top shape: 1 512 96 7 7 (2408448)
I0417 12:15:29.580865  8342 net.cpp:165] Memory required for data: 10144384188
I0417 12:15:29.580868  8342 layer_factory.hpp:77] Creating layer conv5b_relu5b_0_split
I0417 12:15:29.580873  8342 net.cpp:100] Creating Layer conv5b_relu5b_0_split
I0417 12:15:29.580876  8342 net.cpp:434] conv5b_relu5b_0_split <- conv5b
I0417 12:15:29.580881  8342 net.cpp:408] conv5b_relu5b_0_split -> conv5b_relu5b_0_split_0
I0417 12:15:29.580888  8342 net.cpp:408] conv5b_relu5b_0_split -> conv5b_relu5b_0_split_1
I0417 12:15:29.580935  8342 net.cpp:150] Setting up conv5b_relu5b_0_split
I0417 12:15:29.580942  8342 net.cpp:157] Top shape: 1 512 96 7 7 (2408448)
I0417 12:15:29.580946  8342 net.cpp:157] Top shape: 1 512 96 7 7 (2408448)
I0417 12:15:29.580950  8342 net.cpp:165] Memory required for data: 10163651772
I0417 12:15:29.580952  8342 layer_factory.hpp:77] Creating layer rpn_conv/3x3
I0417 12:15:29.580962  8342 net.cpp:100] Creating Layer rpn_conv/3x3
I0417 12:15:29.580968  8342 net.cpp:434] rpn_conv/3x3 <- conv5b_relu5b_0_split_0
I0417 12:15:29.580974  8342 net.cpp:408] rpn_conv/3x3 -> rpn/output
I0417 12:15:29.766306  8342 net.cpp:150] Setting up rpn_conv/3x3
I0417 12:15:29.766330  8342 net.cpp:157] Top shape: 1 512 96 4 4 (786432)
I0417 12:15:29.766335  8342 net.cpp:165] Memory required for data: 10166797500
I0417 12:15:29.766348  8342 layer_factory.hpp:77] Creating layer rpn_relu/3x3
I0417 12:15:29.766358  8342 net.cpp:100] Creating Layer rpn_relu/3x3
I0417 12:15:29.766363  8342 net.cpp:434] rpn_relu/3x3 <- rpn/output
I0417 12:15:29.766369  8342 net.cpp:395] rpn_relu/3x3 -> rpn/output (in-place)
I0417 12:15:29.766382  8342 net.cpp:150] Setting up rpn_relu/3x3
I0417 12:15:29.766387  8342 net.cpp:157] Top shape: 1 512 96 4 4 (786432)
I0417 12:15:29.766391  8342 net.cpp:165] Memory required for data: 10169943228
I0417 12:15:29.766393  8342 layer_factory.hpp:77] Creating layer rpn_conv/3x3_2
I0417 12:15:29.766403  8342 net.cpp:100] Creating Layer rpn_conv/3x3_2
I0417 12:15:29.766407  8342 net.cpp:434] rpn_conv/3x3_2 <- rpn/output
I0417 12:15:29.766415  8342 net.cpp:408] rpn_conv/3x3_2 -> rpn/output_2
I0417 12:15:29.951042  8342 net.cpp:150] Setting up rpn_conv/3x3_2
I0417 12:15:29.951066  8342 net.cpp:157] Top shape: 1 512 96 2 2 (196608)
I0417 12:15:29.951071  8342 net.cpp:165] Memory required for data: 10170729660
I0417 12:15:29.951081  8342 layer_factory.hpp:77] Creating layer rpn_relu/3x3_2
I0417 12:15:29.951090  8342 net.cpp:100] Creating Layer rpn_relu/3x3_2
I0417 12:15:29.951095  8342 net.cpp:434] rpn_relu/3x3_2 <- rpn/output_2
I0417 12:15:29.951100  8342 net.cpp:395] rpn_relu/3x3_2 -> rpn/output_2 (in-place)
I0417 12:15:29.951108  8342 net.cpp:150] Setting up rpn_relu/3x3_2
I0417 12:15:29.951113  8342 net.cpp:157] Top shape: 1 512 96 2 2 (196608)
I0417 12:15:29.951117  8342 net.cpp:165] Memory required for data: 10171516092
I0417 12:15:29.951119  8342 layer_factory.hpp:77] Creating layer rpn/output_pool
I0417 12:15:29.951126  8342 net.cpp:100] Creating Layer rpn/output_pool
I0417 12:15:29.951130  8342 net.cpp:434] rpn/output_pool <- rpn/output_2
I0417 12:15:29.951134  8342 net.cpp:408] rpn/output_pool -> rpn/output_pool
I0417 12:15:29.951181  8342 net.cpp:150] Setting up rpn/output_pool
I0417 12:15:29.951189  8342 net.cpp:157] Top shape: 1 512 96 1 1 (49152)
I0417 12:15:29.951192  8342 net.cpp:165] Memory required for data: 10171712700
I0417 12:15:29.951196  8342 layer_factory.hpp:77] Creating layer rpn/output_pool_rpn/output_pool_0_split
I0417 12:15:29.951201  8342 net.cpp:100] Creating Layer rpn/output_pool_rpn/output_pool_0_split
I0417 12:15:29.951205  8342 net.cpp:434] rpn/output_pool_rpn/output_pool_0_split <- rpn/output_pool
I0417 12:15:29.951211  8342 net.cpp:408] rpn/output_pool_rpn/output_pool_0_split -> rpn/output_pool_rpn/output_pool_0_split_0
I0417 12:15:29.951216  8342 net.cpp:408] rpn/output_pool_rpn/output_pool_0_split -> rpn/output_pool_rpn/output_pool_0_split_1
I0417 12:15:29.951259  8342 net.cpp:150] Setting up rpn/output_pool_rpn/output_pool_0_split
I0417 12:15:29.951267  8342 net.cpp:157] Top shape: 1 512 96 1 1 (49152)
I0417 12:15:29.951270  8342 net.cpp:157] Top shape: 1 512 96 1 1 (49152)
I0417 12:15:29.951273  8342 net.cpp:165] Memory required for data: 10172105916
I0417 12:15:29.951277  8342 layer_factory.hpp:77] Creating layer rpn_cls_score
I0417 12:15:29.951287  8342 net.cpp:100] Creating Layer rpn_cls_score
I0417 12:15:29.951292  8342 net.cpp:434] rpn_cls_score <- rpn/output_pool_rpn/output_pool_0_split_0
I0417 12:15:29.951297  8342 net.cpp:408] rpn_cls_score -> rpn_cls_score
I0417 12:15:29.952544  8342 net.cpp:150] Setting up rpn_cls_score
I0417 12:15:29.952554  8342 net.cpp:157] Top shape: 1 74 96 1 1 (7104)
I0417 12:15:29.952558  8342 net.cpp:165] Memory required for data: 10172134332
I0417 12:15:29.952564  8342 layer_factory.hpp:77] Creating layer rpn_cls_score_rpn_cls_score_0_split
I0417 12:15:29.952569  8342 net.cpp:100] Creating Layer rpn_cls_score_rpn_cls_score_0_split
I0417 12:15:29.952574  8342 net.cpp:434] rpn_cls_score_rpn_cls_score_0_split <- rpn_cls_score
I0417 12:15:29.952577  8342 net.cpp:408] rpn_cls_score_rpn_cls_score_0_split -> rpn_cls_score_rpn_cls_score_0_split_0
I0417 12:15:29.952582  8342 net.cpp:408] rpn_cls_score_rpn_cls_score_0_split -> rpn_cls_score_rpn_cls_score_0_split_1
I0417 12:15:29.952631  8342 net.cpp:150] Setting up rpn_cls_score_rpn_cls_score_0_split
I0417 12:15:29.952639  8342 net.cpp:157] Top shape: 1 74 96 1 1 (7104)
I0417 12:15:29.952643  8342 net.cpp:157] Top shape: 1 74 96 1 1 (7104)
I0417 12:15:29.952646  8342 net.cpp:165] Memory required for data: 10172191164
I0417 12:15:29.952649  8342 layer_factory.hpp:77] Creating layer rpn_twin_pred
I0417 12:15:29.952661  8342 net.cpp:100] Creating Layer rpn_twin_pred
I0417 12:15:29.952666  8342 net.cpp:434] rpn_twin_pred <- rpn/output_pool_rpn/output_pool_0_split_1
I0417 12:15:29.952670  8342 net.cpp:408] rpn_twin_pred -> rpn_twin_pred
I0417 12:15:29.953894  8342 net.cpp:150] Setting up rpn_twin_pred
I0417 12:15:29.953903  8342 net.cpp:157] Top shape: 1 74 96 1 1 (7104)
I0417 12:15:29.953907  8342 net.cpp:165] Memory required for data: 10172219580
I0417 12:15:29.953912  8342 layer_factory.hpp:77] Creating layer rpn_twin_pred_rpn_twin_pred_0_split
I0417 12:15:29.953917  8342 net.cpp:100] Creating Layer rpn_twin_pred_rpn_twin_pred_0_split
I0417 12:15:29.953920  8342 net.cpp:434] rpn_twin_pred_rpn_twin_pred_0_split <- rpn_twin_pred
I0417 12:15:29.953925  8342 net.cpp:408] rpn_twin_pred_rpn_twin_pred_0_split -> rpn_twin_pred_rpn_twin_pred_0_split_0
I0417 12:15:29.953932  8342 net.cpp:408] rpn_twin_pred_rpn_twin_pred_0_split -> rpn_twin_pred_rpn_twin_pred_0_split_1
I0417 12:15:29.953971  8342 net.cpp:150] Setting up rpn_twin_pred_rpn_twin_pred_0_split
I0417 12:15:29.953979  8342 net.cpp:157] Top shape: 1 74 96 1 1 (7104)
I0417 12:15:29.953982  8342 net.cpp:157] Top shape: 1 74 96 1 1 (7104)
I0417 12:15:29.953985  8342 net.cpp:165] Memory required for data: 10172276412
I0417 12:15:29.953989  8342 layer_factory.hpp:77] Creating layer rpn_cls_score_reshape
I0417 12:15:29.953999  8342 net.cpp:100] Creating Layer rpn_cls_score_reshape
I0417 12:15:29.954002  8342 net.cpp:434] rpn_cls_score_reshape <- rpn_cls_score_rpn_cls_score_0_split_0
I0417 12:15:29.954010  8342 net.cpp:408] rpn_cls_score_reshape -> rpn_cls_score_reshape
I0417 12:15:29.954041  8342 net.cpp:150] Setting up rpn_cls_score_reshape
I0417 12:15:29.954049  8342 net.cpp:157] Top shape: 1 2 3552 1 1 (7104)
I0417 12:15:29.954052  8342 net.cpp:165] Memory required for data: 10172304828
I0417 12:15:29.954056  8342 layer_factory.hpp:77] Creating layer rpn_cls_score_reshape_rpn_cls_score_reshape_0_split
I0417 12:15:29.954061  8342 net.cpp:100] Creating Layer rpn_cls_score_reshape_rpn_cls_score_reshape_0_split
I0417 12:15:29.954063  8342 net.cpp:434] rpn_cls_score_reshape_rpn_cls_score_reshape_0_split <- rpn_cls_score_reshape
I0417 12:15:29.954069  8342 net.cpp:408] rpn_cls_score_reshape_rpn_cls_score_reshape_0_split -> rpn_cls_score_reshape_rpn_cls_score_reshape_0_split_0
I0417 12:15:29.954078  8342 net.cpp:408] rpn_cls_score_reshape_rpn_cls_score_reshape_0_split -> rpn_cls_score_reshape_rpn_cls_score_reshape_0_split_1
I0417 12:15:29.954083  8342 net.cpp:408] rpn_cls_score_reshape_rpn_cls_score_reshape_0_split -> rpn_cls_score_reshape_rpn_cls_score_reshape_0_split_2
I0417 12:15:29.954133  8342 net.cpp:150] Setting up rpn_cls_score_reshape_rpn_cls_score_reshape_0_split
I0417 12:15:29.954140  8342 net.cpp:157] Top shape: 1 2 3552 1 1 (7104)
I0417 12:15:29.954144  8342 net.cpp:157] Top shape: 1 2 3552 1 1 (7104)
I0417 12:15:29.954147  8342 net.cpp:157] Top shape: 1 2 3552 1 1 (7104)
I0417 12:15:29.954150  8342 net.cpp:165] Memory required for data: 10172390076
I0417 12:15:29.954154  8342 layer_factory.hpp:77] Creating layer rpn-data
I0417 12:15:29.954538  8342 net.cpp:100] Creating Layer rpn-data
I0417 12:15:29.954551  8342 net.cpp:434] rpn-data <- rpn_cls_score_rpn_cls_score_0_split_1
I0417 12:15:29.954556  8342 net.cpp:434] rpn-data <- gt_boxes_data_1_split_0
I0417 12:15:29.954561  8342 net.cpp:434] rpn-data <- data_data_0_split_1
I0417 12:15:29.954566  8342 net.cpp:408] rpn-data -> rpn_labels
I0417 12:15:29.954572  8342 net.cpp:408] rpn-data -> rpn_twin_targets
I0417 12:15:29.954578  8342 net.cpp:408] rpn-data -> rpn_twin_inside_weights
I0417 12:15:29.954584  8342 net.cpp:408] rpn-data -> rpn_twin_outside_weights
I0417 12:15:29.956807  8342 net.cpp:150] Setting up rpn-data
I0417 12:15:29.956821  8342 net.cpp:157] Top shape: 1 1 3552 1 1 (3552)
I0417 12:15:29.956826  8342 net.cpp:157] Top shape: 1 74 96 1 1 (7104)
I0417 12:15:29.956830  8342 net.cpp:157] Top shape: 1 74 96 1 1 (7104)
I0417 12:15:29.956833  8342 net.cpp:157] Top shape: 1 74 96 1 1 (7104)
I0417 12:15:29.956836  8342 net.cpp:165] Memory required for data: 10172489532
I0417 12:15:29.956840  8342 layer_factory.hpp:77] Creating layer rpn_labels_rpn-data_0_split
I0417 12:15:29.956845  8342 net.cpp:100] Creating Layer rpn_labels_rpn-data_0_split
I0417 12:15:29.956848  8342 net.cpp:434] rpn_labels_rpn-data_0_split <- rpn_labels
I0417 12:15:29.956853  8342 net.cpp:408] rpn_labels_rpn-data_0_split -> rpn_labels_rpn-data_0_split_0
I0417 12:15:29.956861  8342 net.cpp:408] rpn_labels_rpn-data_0_split -> rpn_labels_rpn-data_0_split_1
I0417 12:15:29.956908  8342 net.cpp:150] Setting up rpn_labels_rpn-data_0_split
I0417 12:15:29.956915  8342 net.cpp:157] Top shape: 1 1 3552 1 1 (3552)
I0417 12:15:29.956919  8342 net.cpp:157] Top shape: 1 1 3552 1 1 (3552)
I0417 12:15:29.956921  8342 net.cpp:165] Memory required for data: 10172517948
I0417 12:15:29.956924  8342 layer_factory.hpp:77] Creating layer rpn_loss_cls
I0417 12:15:29.956933  8342 net.cpp:100] Creating Layer rpn_loss_cls
I0417 12:15:29.956936  8342 net.cpp:434] rpn_loss_cls <- rpn_cls_score_reshape_rpn_cls_score_reshape_0_split_0
I0417 12:15:29.956941  8342 net.cpp:434] rpn_loss_cls <- rpn_labels_rpn-data_0_split_0
…
I0417 12:15:29.957240  8342 layer_factory.hpp:77] Creating layer rpn_accuarcy
I0417 12:15:29.957247  8342 net.cpp:100] Creating Layer rpn_accuarcy
I0417 12:15:29.957252  8342 net.cpp:434] rpn_accuarcy <- rpn_cls_score_reshape_rpn_cls_score_reshape_0_split_1
I0417 12:15:29.957255  8342 net.cpp:434] rpn_accuarcy <- rpn_labels_rpn-data_0_split_1
I0417 12:15:29.957262  8342 net.cpp:408] rpn_accuarcy -> rpn_accuarcy
I0417 12:15:29.957267  8342 net.cpp:408] rpn_accuarcy -> rpn_accuarcy_class
I0417 12:15:29.957311  8342 net.cpp:150] Setting up rpn_accuarcy
I0417 12:15:29.957319  8342 net.cpp:157] Top shape: (1)
I0417 12:15:29.957321  8342 net.cpp:157] Top shape: 2 (2)
I0417 12:15:29.957325  8342 net.cpp:165] Memory required for data: 10172517968
I0417 12:15:29.957329  8342 layer_factory.hpp:77] Creating layer rpn_cls_prob
I0417 12:15:29.957332  8342 net.cpp:100] Creating Layer rpn_cls_prob
I0417 12:15:29.957336  8342 net.cpp:434] rpn_cls_prob <- rpn_cls_score_reshape_rpn_cls_score_reshape_0_split_2
I0417 12:15:29.957341  8342 net.cpp:408] rpn_cls_prob -> rpn_cls_prob
I0417 12:15:29.957409  8342 net.cpp:150] Setting up rpn_cls_prob
I0417 12:15:29.957417  8342 net.cpp:157] Top shape: 1 2 3552 1 1 (7104)
I0417 12:15:29.957419  8342 net.cpp:165] Memory required for data: 10172546384
I0417 12:15:29.957422  8342 layer_factory.hpp:77] Creating layer rpn_cls_prob_reshape
I0417 12:15:29.957428  8342 net.cpp:100] Creating Layer rpn_cls_prob_reshape
I0417 12:15:29.957433  8342 net.cpp:434] rpn_cls_prob_reshape <- rpn_cls_prob
I0417 12:15:29.957438  8342 net.cpp:408] rpn_cls_prob_reshape -> rpn_cls_prob_reshape
I0417 12:15:29.957465  8342 net.cpp:150] Setting up rpn_cls_prob_reshape
I0417 12:15:29.957473  8342 net.cpp:157] Top shape: 1 74 96 1 1 (7104)
I0417 12:15:29.957475  8342 net.cpp:165] Memory required for data: 10172574800
I0417 12:15:29.957479  8342 layer_factory.hpp:77] Creating layer proposal
I0417 12:15:29.958005  8342 net.cpp:100] Creating Layer proposal
I0417 12:15:29.958017  8342 net.cpp:434] proposal <- rpn_cls_prob_reshape
I0417 12:15:29.958024  8342 net.cpp:434] proposal <- rpn_twin_pred_rpn_twin_pred_0_split_1
I0417 12:15:29.958029  8342 net.cpp:408] proposal -> rpn_rois
I0417 12:15:29.960229  8342 net.cpp:150] Setting up proposal
I0417 12:15:29.960243  8342 net.cpp:157] Top shape: 1 3 (3)
I0417 12:15:29.960247  8342 net.cpp:165] Memory required for data: 10172574812
I0417 12:15:29.960252  8342 layer_factory.hpp:77] Creating layer roi-data
I0417 12:15:29.960379  8342 net.cpp:100] Creating Layer roi-data
I0417 12:15:29.960389  8342 net.cpp:434] roi-data <- rpn_rois
I0417 12:15:29.960394  8342 net.cpp:434] roi-data <- gt_boxes_data_1_split_1
I0417 12:15:29.960400  8342 net.cpp:408] roi-data -> rois
I0417 12:15:29.960407  8342 net.cpp:408] roi-data -> labels
I0417 12:15:29.960412  8342 net.cpp:408] roi-data -> twin_targets
I0417 12:15:29.960418  8342 net.cpp:408] roi-data -> twin_inside_weights
I0417 12:15:29.960423  8342 net.cpp:408] roi-data -> twin_outside_weights
I0417 12:15:29.960749  8342 net.cpp:150] Setting up roi-data
I0417 12:15:29.960762  8342 net.cpp:157] Top shape: 1 3 (3)
I0417 12:15:29.960767  8342 net.cpp:157] Top shape: 1 1 (1)
I0417 12:15:29.960770  8342 net.cpp:157] Top shape: 1 402 (402)
I0417 12:15:29.960774  8342 net.cpp:157] Top shape: 1 402 (402)
I0417 12:15:29.960777  8342 net.cpp:157] Top shape: 1 402 (402)
I0417 12:15:29.960780  8342 net.cpp:165] Memory required for data: 10172579652
I0417 12:15:29.960783  8342 layer_factory.hpp:77] Creating layer labels_roi-data_1_split
I0417 12:15:29.960789  8342 net.cpp:100] Creating Layer labels_roi-data_1_split
I0417 12:15:29.960793  8342 net.cpp:434] labels_roi-data_1_split <- labels
I0417 12:15:29.960798  8342 net.cpp:408] labels_roi-data_1_split -> labels_roi-data_1_split_0
I0417 12:15:29.960804  8342 net.cpp:408] labels_roi-data_1_split -> labels_roi-data_1_split_1
I0417 12:15:29.960850  8342 net.cpp:150] Setting up labels_roi-data_1_split
I0417 12:15:29.960856  8342 net.cpp:157] Top shape: 1 1 (1)
I0417 12:15:29.960860  8342 net.cpp:157] Top shape: 1 1 (1)
I0417 12:15:29.960863  8342 net.cpp:165] Memory required for data: 10172579660
I0417 12:15:29.960866  8342 layer_factory.hpp:77] Creating layer roi_pool5
I0417 12:15:29.960875  8342 net.cpp:100] Creating Layer roi_pool5
I0417 12:15:29.960880  8342 net.cpp:434] roi_pool5 <- conv5b_relu5b_0_split_1
I0417 12:15:29.960885  8342 net.cpp:434] roi_pool5 <- rois
I0417 12:15:29.960889  8342 net.cpp:408] roi_pool5 -> pool5
I0417 12:15:29.960896  8342 roi_pooling_layer.cpp:34] Temporal scale: 0.125
I0417 12:15:29.960902  8342 roi_pooling_layer.cpp:35] Spatial scale: 0.0625
I0417 12:15:29.960942  8342 net.cpp:150] Setting up roi_pool5
I0417 12:15:29.960950  8342 net.cpp:157] Top shape: 1 512 1 4 4 (8192)
I0417 12:15:29.960953  8342 net.cpp:165] Memory required for data: 10172612428
I0417 12:15:29.960956  8342 layer_factory.hpp:77] Creating layer fc6
I0417 12:15:29.960964  8342 net.cpp:100] Creating Layer fc6
I0417 12:15:29.960968  8342 net.cpp:434] fc6 <- pool5
I0417 12:15:29.960973  8342 net.cpp:408] fc6 -> fc6
I0417 12:15:30.834842  8342 net.cpp:150] Setting up fc6
I0417 12:15:30.834867  8342 net.cpp:157] Top shape: 1 4096 (4096)
I0417 12:15:30.834870  8342 net.cpp:165] Memory required for data: 10172628812
I0417 12:15:30.834879  8342 layer_factory.hpp:77] Creating layer relu6
I0417 12:15:30.834888  8342 net.cpp:100] Creating Layer relu6
I0417 12:15:30.834893  8342 net.cpp:434] relu6 <- fc6
I0417 12:15:30.834900  8342 net.cpp:395] relu6 -> fc6 (in-place)
I0417 12:15:30.834908  8342 net.cpp:150] Setting up relu6
I0417 12:15:30.834913  8342 net.cpp:157] Top shape: 1 4096 (4096)
I0417 12:15:30.834915  8342 net.cpp:165] Memory required for data: 10172645196
I0417 12:15:30.834918  8342 layer_factory.hpp:77] Creating layer drop6
I0417 12:15:30.834928  8342 net.cpp:100] Creating Layer drop6
I0417 12:15:30.834934  8342 net.cpp:434] drop6 <- fc6
I0417 12:15:30.834939  8342 net.cpp:395] drop6 -> fc6 (in-place)
I0417 12:15:30.834967  8342 net.cpp:150] Setting up drop6
I0417 12:15:30.834977  8342 net.cpp:157] Top shape: 1 4096 (4096)
I0417 12:15:30.834980  8342 net.cpp:165] Memory required for data: 10172661580
I0417 12:15:30.834983  8342 layer_factory.hpp:77] Creating layer fc6_drop6_0_split
I0417 12:15:30.834988  8342 net.cpp:100] Creating Layer fc6_drop6_0_split
I0417 12:15:30.834991  8342 net.cpp:434] fc6_drop6_0_split <- fc6
I0417 12:15:30.834997  8342 net.cpp:408] fc6_drop6_0_split -> fc6_drop6_0_split_0
I0417 12:15:30.835005  8342 net.cpp:408] fc6_drop6_0_split -> fc6_drop6_0_split_1
I0417 12:15:30.835047  8342 net.cpp:150] Setting up fc6_drop6_0_split
I0417 12:15:30.835054  8342 net.cpp:157] Top shape: 1 4096 (4096)
I0417 12:15:30.835057  8342 net.cpp:157] Top shape: 1 4096 (4096)
I0417 12:15:30.835060  8342 net.cpp:165] Memory required for data: 10172694348
I0417 12:15:30.835063  8342 layer_factory.hpp:77] Creating layer cls_score
I0417 12:15:30.835070  8342 net.cpp:100] Creating Layer cls_score
I0417 12:15:30.835078  8342 net.cpp:434] cls_score <- fc6_drop6_0_split_0
I0417 12:15:30.835083  8342 net.cpp:408] cls_score -> cls_score
I0417 12:15:30.859778  8342 net.cpp:150] Setting up cls_score
I0417 12:15:30.859799  8342 net.cpp:157] Top shape: 1 201 (201)
I0417 12:15:30.859803  8342 net.cpp:165] Memory required for data: 10172695152
I0417 12:15:30.859812  8342 layer_factory.hpp:77] Creating layer cls_score_cls_score_0_split
I0417 12:15:30.859820  8342 net.cpp:100] Creating Layer cls_score_cls_score_0_split
I0417 12:15:30.859825  8342 net.cpp:434] cls_score_cls_score_0_split <- cls_score
I0417 12:15:30.859833  8342 net.cpp:408] cls_score_cls_score_0_split -> cls_score_cls_score_0_split_0
I0417 12:15:30.859840  8342 net.cpp:408] cls_score_cls_score_0_split -> cls_score_cls_score_0_split_1
I0417 12:15:30.859884  8342 net.cpp:150] Setting up cls_score_cls_score_0_split
I0417 12:15:30.859891  8342 net.cpp:157] Top shape: 1 201 (201)
I0417 12:15:30.859895  8342 net.cpp:157] Top shape: 1 201 (201)
I0417 12:15:30.859899  8342 net.cpp:165] Memory required for data: 10172696760
I0417 12:15:30.859901  8342 layer_factory.hpp:77] Creating layer twin_pred
I0417 12:15:30.859908  8342 net.cpp:100] Creating Layer twin_pred
I0417 12:15:30.859912  8342 net.cpp:434] twin_pred <- fc6_drop6_0_split_1
I0417 12:15:30.859922  8342 net.cpp:408] twin_pred -> twin_pred
I0417 12:15:30.902420  8342 net.cpp:150] Setting up twin_pred
I0417 12:15:30.902441  8342 net.cpp:157] Top shape: 1 402 (402)
I0417 12:15:30.902444  8342 net.cpp:165] Memory required for data: 10172698368
I0417 12:15:30.902452  8342 layer_factory.hpp:77] Creating layer loss_cls
I0417 12:15:30.902462  8342 net.cpp:100] Creating Layer loss_cls
I0417 12:15:30.902467  8342 net.cpp:434] loss_cls <- cls_score_cls_score_0_split_0
I0417 12:15:30.902473  8342 net.cpp:434] loss_cls <- labels_roi-data_1_split_0
I0417 12:15:30.902478  8342 net.cpp:408] loss_cls -> loss_cls
…
