…
stepsize: 350000
snapshot: 0
snapshot_prefix: "./experiments/activitynet/snapshot/activitynet"
average_loss: 100
iter_size: 1
I0418 03:56:03.886313 10017 solver.cpp:81] Creating training net from train_net file: ./experiments/activitynet/train.prototxt
I0418 03:56:03.887423 10017 net.cpp:58] Initializing net from parameters: 
name: "activitynet"
state {
  phase: TRAIN
}
layer {
  name: "data"
  type: "Python"
  top: "data"
  top: "gt_boxes"
  python_param {
    module: "roi_data_layer.layer"
    layer: "RoIDataLayer"
    param_str: "\'num_classes\': 100"
  }
}
layer {
  name: "conv1a"
  type: "Convolution"
  bottom: "data"
  top: "conv1a"
  param {
    lr_mult: 0
    decay_mult: 0
  }
  param {
    lr_mult: 0
    decay_mult: 0
  }
  convolution_param {
    num_output: 64
    pad: 1
    pad: 1
    pad: 1
    kernel_size: 3
    kernel_size: 3
    kernel_size: 3
    weight_filler {
      type: "gaussian"
      std: 0.01
    }
    bias_filler {
      type: "constant"
      value: 0
    }
  }
}
layer {
  name: "relu1a"
  type: "ReLU"
  bottom: "conv1a"
  top: "conv1a"
}
layer {
  name: "pool1"
  type: "Pooling"
  bottom: "conv1a"
  top: "pool1"
  pooling_param {
    pool: MAX
    kernel_size: 1
    kernel_size: 2
    kernel_size: 2
    stride: 1
    stride: 2
    stride: 2
  }
}
layer {
  name: "conv2a"
  type: "Convolution"
  bottom: "pool1"
  top: "conv2a"
  param {
    lr_mult: 0
    decay_mult: 0
  }
  param {
    lr_mult: 0
    decay_mult: 0
  }
  convolution_param {
    num_output: 128
    pad: 1
    pad: 1
    pad: 1
    kernel_size: 3
    kernel_size: 3
    kernel_size: 3
    weight_filler {
      type: "gaussian"
      std: 0.01
    }
    bias_filler {
      type: "constant"
      value: 1
    }
  }
}
layer {
  name: "relu2a"
  type: "ReLU"
  bottom: "conv2a"
  top: "conv2a"
}
layer {
  name: "pool2"
  type: "Pooling"
  bottom: "conv2a"
  top: "pool2"
  pooling_param {
    pool: MAX
    kernel_size: 2
    kernel_size: 2
    kernel_size: 2
    stride: 2
    stride: 2
    stride: 2
  }
}
layer {
  name: "conv3a"
  type: "Convolution"
  bottom: "pool2"
  top: "conv3a"
  param {
    lr_mult: 1
    decay_mult: 1
  }
  param {
    lr_mult: 2
    decay_mult: 0
  }
  convolution_param {
    num_output: 256
    pad: 1
    pad: 1
    pad: 1
    kernel_size: 3
    kernel_size: 3
    kernel_size: 3
    weight_filler {
      type: "gaussian"
      std: 0.01
    }
    bias_filler {
      type: "constant"
      value: 1
    }
  }
}
layer {
  name: "relu3a"
  type: "ReLU"
  bottom: "conv3a"
  top: "conv3a"
}
layer {
  name: "conv3b"
  type: "Convolution"
  bottom: "conv3a"
  top: "conv3b"
  param {
    lr_mult: 1
    decay_mult: 1
  }
  param {
    lr_mult: 2
    decay_mult: 0
  }
  convolution_param {
    num_output: 256
    pad: 1
    pad: 1
    pad: 1
    kernel_size: 3
    kernel_size: 3
    kernel_size: 3
    weight_filler {
      type: "gaussian"
      std: 0.01
    }
    bias_filler {
      type: "constant"
      value: 1
    }
  }
}
layer {
  name: "relu3b"
  type: "ReLU"
  bottom: "conv3b"
  top: "conv3b"
}
layer {
  name: "pool3"
  type: "Pooling"
  bottom: "conv3b"
  top: "pool3"
  pooling_param {
    pool: MAX
    kernel_size: 2
    kernel_size: 2
    kernel_size: 2
    stride: 2
    stride: 2
    stride: 2
  }
}
layer {
  name: "conv4a"
  type: "Convolution"
  bottom: "pool3"
  top: "conv4a"
  param {
    lr_mult: 1
    decay_mult: 1
  }
  param {
    lr_mult: 2
    decay_mult: 0
  }
  convolution_param {
    num_output: 512
    pad: 1
    pad: 1
    pad: 1
    kernel_size: 3
    kernel_size: 3
    kernel_size: 3
    weight_filler {
      type: "gaussian"
      std: 0.01
    }
    bias_filler {
      type: "constant"
      value: 1
    }
  }
}
layer {
  name: "relu4a"
  type: "ReLU"
  bottom: "conv4a"
  top: "conv4a"
}
layer {
  name: "conv4b"
  type: "Convolution"
  bottom: "conv4a"
  top: "conv4b"
  param {
    lr_mult: 1
    decay_mult: 1
  }
  param {
    lr_mult: 2
    decay_mult: 0
  }
  convolution_param {
    num_output: 512
    pad: 1
    pad: 1
    pad: 1
    kernel_size: 3
    kernel_size: 3
    kernel_size: 3
    weight_filler {
      type: "gaussian"
      std: 0.01
    }
    bias_filler {
      type: "constant"
      value: 1
    }
  }
}
layer {
  name: "relu4b"
  type: "ReLU"
  bottom: "conv4b"
  top: "conv4b"
}
layer {
  name: "pool4"
  type: "Pooling"
  bottom: "conv4b"
  top: "pool4"
  pooling_param {
    pool: MAX
    kernel_size: 2
    kernel_size: 2
    kernel_size: 2
    stride: 2
    stride: 2
    stride: 2
  }
}
layer {
  name: "conv5a"
  type: "Convolution"
  bottom: "pool4"
  top: "conv5a"
  param {
    lr_mult: 1
    decay_mult: 1
  }
  param {
    lr_mult: 2
    decay_mult: 0
  }
  convolution_param {
    num_output: 512
    pad: 1
    pad: 1
    pad: 1
    kernel_size: 3
    kernel_size: 3
    kernel_size: 3
    weight_filler {
      type: "gaussian"
      std: 0.01
    }
    bias_filler {
      type: "constant"
      value: 1
    }
  }
}
layer {
  name: "relu5a"
  type: "ReLU"
  bottom: "conv5a"
  top: "conv5a"
}
layer {
  name: "conv5b"
  type: "Convolution"
  bottom: "conv5a"
  top: "conv5b"
  param {
    lr_mult: 1
    decay_mult: 1
  }
  param {
    lr_mult: 2
    decay_mult: 0
  }
  convolution_param {
    num_output: 512
    pad: 1
    pad: 1
    pad: 1
    kernel_size: 3
    kernel_size: 3
    kernel_size: 3
    weight_filler {
      type: "gaussian"
      std: 0.01
    }
    bias_filler {
      type: "constant"
      value: 1
    }
  }
}
layer {
  name: "relu5b"
  type: "ReLU"
  bottom: "conv5b"
  top: "conv5b"
}
layer {
  name: "rpn_conv/3x3"
  type: "Convolution"
  bottom: "conv5b"
  top: "rpn/output"
  param {
    lr_mult: 1
    decay_mult: 1
  }
  param {
    lr_mult: 2
    decay_mult: 0
  }
  convolution_param {
    num_output: 512
    pad: 1
    pad: 1
    pad: 1
    kernel_size: 3
    kernel_size: 3
    kernel_size: 3
    stride: 1
    stride: 2
    stride: 2
    weight_filler {
      type: "gaussian"
      std: 0.01
    }
    bias_filler {
      type: "constant"
      value: 0
    }
  }
}
layer {
  name: "rpn_relu/3x3"
  type: "ReLU"
  bottom: "rpn/output"
  top: "rpn/output"
}
layer {
  name: "rpn_conv/3x3_2"
  type: "Convolution"
  bottom: "rpn/output"
  top: "rpn/output_2"
  param {
    lr_mult: 1
    decay_mult: 1
  }
  param {
    lr_mult: 2
    decay_mult: 0
  }
  convolution_param {
    num_output: 512
    pad: 1
    pad: 1
    pad: 1
    kernel_size: 3
    kernel_size: 3
    kernel_size: 3
    stride: 1
    stride: 2
    stride: 2
    weight_filler {
      type: "gaussian"
      std: 0.01
    }
    bias_filler {
      type: "constant"
      value: 0
    }
  }
}
layer {
  name: "rpn_relu/3x3_2"
  type: "ReLU"
  bottom: "rpn/output_2"
  top: "rpn/output_2"
}
layer {
  name: "rpn/output_pool"
  type: "Pooling"
  bottom: "rpn/output_2"
  top: "rpn/output_pool"
  pooling_param {
    pool: MAX
    kernel_size: 1
    kernel_size: 2
    kernel_size: 2
  }
}
layer {
  name: "rpn_cls_score"
  type: "Convolution"
  bottom: "rpn/output_pool"
  top: "rpn_cls_score"
  param {
    lr_mult: 1
    decay_mult: 1
  }
  param {
    lr_mult: 2
    decay_mult: 0
  }
  convolution_param {
    num_output: 74
    kernel_size: 1
    kernel_size: 1
    kernel_size: 1
    weight_filler {
      type: "gaussian"
      std: 0.01
    }
    bias_filler {
      type: "constant"
      value: 0
    }
  }
}
layer {
  name: "rpn_twin_pred"
  type: "Convolution"
  bottom: "rpn/output_pool"
  top: "rpn_twin_pred"
  param {
    lr_mult: 1
    decay_mult: 1
  }
  param {
    lr_mult: 2
    decay_mult: 0
  }
  convolution_param {
    num_output: 74
    kernel_size: 1
    kernel_size: 1
    kernel_size: 1
    weight_filler {
      type: "gaussian"
      std: 0.01
    }
    bias_filler {
      type: "constant"
      value: 0
    }
  }
}
layer {
  name: "rpn_cls_score_reshape"
  type: "Reshape"
  bottom: "rpn_cls_score"
  top: "rpn_cls_score_reshape"
  reshape_param {
    shape {
      dim: 0
      dim: 2
      dim: -1
      dim: 0
      dim: 0
    }
  }
}
layer {
  name: "rpn-data"
  type: "Python"
  bottom: "rpn_cls_score"
  bottom: "gt_boxes"
  bottom: "data"
  top: "rpn_labels"
  top: "rpn_twin_targets"
  top: "rpn_twin_inside_weights"
  top: "rpn_twin_outside_weights"
  python_param {
    module: "rpn.anchor_target_layer"
    layer: "AnchorTargetLayer"
    param_str: "\'feat_stride\': 8 \n\'scales\': !!python/tuple [1,1.25, 1.5,1.75, 2,2.5, 3,3.5, 4,4.5, 5,5.5, 6,7, 8,9,10,11,12,14,16,18,20,22,24,28,32,36,40,44,52,60,68,76,84,92,100]"
  }
}
layer {
  name: "rpn_loss_cls"
  type: "SoftmaxWithLoss"
  bottom: "rpn_cls_score_reshape"
  bottom: "rpn_labels"
  top: "rpn_cls_loss"
  loss_weight: 1
  propagate_down: true
  propagate_down: false
  loss_param {
    ignore_label: -1
    normalize: true
  }
}
layer {
  name: "rpn_loss_twin"
  type: "SmoothL1Loss"
  bottom: "rpn_twin_pred"
  bottom: "rpn_twin_targets"
  bottom: "rpn_twin_inside_weights"
  bottom: "rpn_twin_outside_weights"
  top: "rpn_loss_twin"
  loss_weight: 1
  smooth_l1_loss_param {
    sigma: 3
  }
}
layer {
  name: "rpn_accuarcy"
  type: "Accuracy"
  bottom: "rpn_cls_score_reshape"
  bottom: "rpn_labels"
  top: "rpn_accuarcy"
  top: "rpn_accuarcy_class"
  propagate_down: false
  propagate_down: false
  accuracy_param {
    ignore_label: -1
  }
}
layer {
  name: "rpn_cls_prob"
  type: "Softmax"
  bottom: "rpn_cls_score_reshape"
  top: "rpn_cls_prob"
}
layer {
  name: "rpn_cls_prob_reshape"
  type: "Reshape"
  bottom: "rpn_cls_prob"
  top: "rpn_cls_prob_reshape"
  reshape_param {
    shape {
      dim: 0
      dim: 74
      dim: -1
      dim: 0
      dim: 0
    }
  }
}
layer {
  name: "proposal"
  type: "Python"
  bottom: "rpn_cls_prob_reshape"
  bottom: "rpn_twin_pred"
  top: "rpn_rois"
  include {
    phase: TRAIN
  }
  python_param {
    module: "rpn.proposal_layer"
    layer: "ProposalLayer"
    param_str: "\'feat_stride\': 8 \n\'scales\': !!python/tuple [1,1.25, 1.5,1.75, 2,2.5, 3,3.5, 4,4.5, 5,5.5, 6,7, 8,9,10,11,12,14,16,18,20,22,24,28,32,36,40,44,52,60,68,76,84,92,100]"
  }
}
layer {
  name: "roi-data"
  type: "Python"
  bottom: "rpn_rois"
  bottom: "gt_boxes"
  top: "rois"
  top: "labels"
  top: "twin_targets"
  top: "twin_inside_weights"
  top: "twin_outside_weights"
  python_param {
    module: "rpn.proposal_target_layer"
    layer: "ProposalTargetLayer"
    param_str: "\'num_classes\': 201"
  }
}
layer {
  name: "roi_pool5"
  type: "ROIPooling"
  bottom: "conv5b"
  bottom: "rois"
  top: "pool5"
  roi_pooling_param {
    pooled_h: 4
    pooled_w: 4
    spatial_scale: 0.0625
    pooled_l: 1
    temporal_scale: 0.125
  }
}
layer {
  name: "fc6"
  type: "InnerProduct"
  bottom: "pool5"
  top: "fc6"
  param {
    lr_mult: 1
    decay_mult: 1
  }
  param {
    lr_mult: 2
    decay_mult: 0
  }
  inner_product_param {
    num_output: 4096
    weight_filler {
      type: "gaussian"
      std: 0.005
    }
    bias_filler {
      type: "constant"
      value: 1
    }
  }
}
layer {
  name: "relu6"
  type: "ReLU"
  bottom: "fc6"
  top: "fc6"
}
layer {
  name: "drop6"
  type: "Dropout"
  bottom: "fc6"
  top: "fc6"
  dropout_param {
    dropout_ratio: 0.5
  }
}
layer {
  name: "cls_score"
  type: "InnerProduct"
  bottom: "fc6"
  top: "cls_score"
  param {
    lr_mult: 1
    decay_mult: 1
  }
  param {
    lr_mult: 2
    decay_mult: 0
  }
  inner_product_param {
    num_output: 99
    weight_filler {
      type: "gaussian"
      std: 0.01
    }
    bias_filler {
      type: "constant"
      value: 0
    }
  }
}
layer {
  name: "twin_pred"
  type: "InnerProduct"
  bottom: "fc6"
  top: "twin_pred"
  param {
    lr_mult: 1
    decay_mult: 1
  }
  param {
    lr_mult: 2
    decay_mult: 0
  }
  inner_product_param {
    num_output: 198
    weight_filler {
      type: "gaussian"
      std: 0.001
    }
    bias_filler {
      type: "constant"
      value: 0
    }
  }
}
layer {
  name: "loss_cls"
  type: "SoftmaxWithLoss"
  bottom: "cls_score"
  bottom: "labels"
  top: "loss_cls"
  loss_weight: 1
  propagate_down: true
  propagate_down: false
}
layer {
  name: "loss_twin"
  type: "SmoothL1Loss"
  bottom: "twin_pred"
  bottom: "twin_targets"
  bottom: "twin_inside_weights"
  bottom: "twin_outside_weights"
  top: "loss_twin"
  loss_weight: 1
}
layer {
  name: "accuarcy"
  type: "Accuracy"
  bottom: "cls_score"
  bottom: "labels"
  top: "accuarcy"
  propagate_down: false
  propagate_down: false
  accuracy_param {
    ignore_label: -1
  }
}
I0418 03:56:03.887636 10017 layer_factory.hpp:77] Creating layer data
I0418 03:56:03.912730 10017 net.cpp:100] Creating Layer data
I0418 03:56:03.912755 10017 net.cpp:408] data -> data
I0418 03:56:03.912767 10017 net.cpp:408] data -> gt_boxes
setting up
has rpn
RoiDataLayer: name_to_top: {'gt_windows': 1, 'data': 0}
I0418 03:56:03.926342 10017 net.cpp:150] Setting up data
I0418 03:56:03.926367 10017 net.cpp:157] Top shape: 1 3 768 112 112 (28901376)
I0418 03:56:03.926373 10017 net.cpp:157] Top shape: 1 101 (101)
I0418 03:56:03.926375 10017 net.cpp:165] Memory required for data: 115605908
I0418 03:56:03.926383 10017 layer_factory.hpp:77] Creating layer data_data_0_split
I0418 03:56:03.926393 10017 net.cpp:100] Creating Layer data_data_0_split
I0418 03:56:03.926398 10017 net.cpp:434] data_data_0_split <- data
I0418 03:56:03.926404 10017 net.cpp:408] data_data_0_split -> data_data_0_split_0
I0418 03:56:03.926414 10017 net.cpp:408] data_data_0_split -> data_data_0_split_1
I0418 03:56:03.926446 10017 net.cpp:150] Setting up data_data_0_split
I0418 03:56:03.926453 10017 net.cpp:157] Top shape: 1 3 768 112 112 (28901376)
I0418 03:56:03.926458 10017 net.cpp:157] Top shape: 1 3 768 112 112 (28901376)
I0418 03:56:03.926461 10017 net.cpp:165] Memory required for data: 346816916
I0418 03:56:03.926465 10017 layer_factory.hpp:77] Creating layer gt_boxes_data_1_split
I0418 03:56:03.926470 10017 net.cpp:100] Creating Layer gt_boxes_data_1_split
I0418 03:56:03.926473 10017 net.cpp:434] gt_boxes_data_1_split <- gt_boxes
I0418 03:56:03.926478 10017 net.cpp:408] gt_boxes_data_1_split -> gt_boxes_data_1_split_0
I0418 03:56:03.926484 10017 net.cpp:408] gt_boxes_data_1_split -> gt_boxes_data_1_split_1
I0418 03:56:03.926508 10017 net.cpp:150] Setting up gt_boxes_data_1_split
I0418 03:56:03.926513 10017 net.cpp:157] Top shape: 1 101 (101)
I0418 03:56:03.926517 10017 net.cpp:157] Top shape: 1 101 (101)
I0418 03:56:03.926522 10017 net.cpp:165] Memory required for data: 346817724
I0418 03:56:03.926524 10017 layer_factory.hpp:77] Creating layer conv1a
I0418 03:56:03.926542 10017 net.cpp:100] Creating Layer conv1a
I0418 03:56:03.926548 10017 net.cpp:434] conv1a <- data_data_0_split_0
I0418 03:56:03.926553 10017 net.cpp:408] conv1a -> conv1a
I0418 03:56:04.121379 10017 net.cpp:150] Setting up conv1a
I0418 03:56:04.121412 10017 net.cpp:157] Top shape: 1 64 768 112 112 (616562688)
I0418 03:56:04.121417 10017 net.cpp:165] Memory required for data: 2813068476
I0418 03:56:04.121443 10017 layer_factory.hpp:77] Creating layer relu1a
I0418 03:56:04.121459 10017 net.cpp:100] Creating Layer relu1a
I0418 03:56:04.121466 10017 net.cpp:434] relu1a <- conv1a
I0418 03:56:04.121474 10017 net.cpp:395] relu1a -> conv1a (in-place)
I0418 03:56:04.122258 10017 net.cpp:150] Setting up relu1a
I0418 03:56:04.122272 10017 net.cpp:157] Top shape: 1 64 768 112 112 (616562688)
I0418 03:56:04.122277 10017 net.cpp:165] Memory required for data: 5279319228
I0418 03:56:04.122282 10017 layer_factory.hpp:77] Creating layer pool1
I0418 03:56:04.122292 10017 net.cpp:100] Creating Layer pool1
I0418 03:56:04.122298 10017 net.cpp:434] pool1 <- conv1a
I0418 03:56:04.122303 10017 net.cpp:408] pool1 -> pool1
I0418 03:56:04.122489 10017 net.cpp:150] Setting up pool1
I0418 03:56:04.122501 10017 net.cpp:157] Top shape: 1 64 768 56 56 (154140672)
I0418 03:56:04.122505 10017 net.cpp:165] Memory required for data: 5895881916
I0418 03:56:04.122509 10017 layer_factory.hpp:77] Creating layer conv2a
I0418 03:56:04.122526 10017 net.cpp:100] Creating Layer conv2a
I0418 03:56:04.122534 10017 net.cpp:434] conv2a <- pool1
I0418 03:56:04.122542 10017 net.cpp:408] conv2a -> conv2a
I0418 03:56:04.133921 10017 net.cpp:150] Setting up conv2a
I0418 03:56:04.133949 10017 net.cpp:157] Top shape: 1 128 768 56 56 (308281344)
I0418 03:56:04.133954 10017 net.cpp:165] Memory required for data: 7129007292
I0418 03:56:04.133966 10017 layer_factory.hpp:77] Creating layer relu2a
I0418 03:56:04.133975 10017 net.cpp:100] Creating Layer relu2a
I0418 03:56:04.133980 10017 net.cpp:434] relu2a <- conv2a
I0418 03:56:04.133987 10017 net.cpp:395] relu2a -> conv2a (in-place)
I0418 03:56:04.134299 10017 net.cpp:150] Setting up relu2a
I0418 03:56:04.134315 10017 net.cpp:157] Top shape: 1 128 768 56 56 (308281344)
I0418 03:56:04.134318 10017 net.cpp:165] Memory required for data: 8362132668
I0418 03:56:04.134322 10017 layer_factory.hpp:77] Creating layer pool2
I0418 03:56:04.134332 10017 net.cpp:100] Creating Layer pool2
I0418 03:56:04.134336 10017 net.cpp:434] pool2 <- conv2a
I0418 03:56:04.134342 10017 net.cpp:408] pool2 -> pool2
I0418 03:56:04.134511 10017 net.cpp:150] Setting up pool2
I0418 03:56:04.134522 10017 net.cpp:157] Top shape: 1 128 384 28 28 (38535168)
I0418 03:56:04.134526 10017 net.cpp:165] Memory required for data: 8516273340
I0418 03:56:04.134531 10017 layer_factory.hpp:77] Creating layer conv3a
I0418 03:56:04.134541 10017 net.cpp:100] Creating Layer conv3a
I0418 03:56:04.134546 10017 net.cpp:434] conv3a <- pool2
I0418 03:56:04.134552 10017 net.cpp:408] conv3a -> conv3a
I0418 03:56:04.160270 10017 net.cpp:150] Setting up conv3a
I0418 03:56:04.160289 10017 net.cpp:157] Top shape: 1 256 384 28 28 (77070336)
I0418 03:56:04.160292 10017 net.cpp:165] Memory required for data: 8824554684
I0418 03:56:04.160305 10017 layer_factory.hpp:77] Creating layer relu3a
I0418 03:56:04.160312 10017 net.cpp:100] Creating Layer relu3a
I0418 03:56:04.160316 10017 net.cpp:434] relu3a <- conv3a
I0418 03:56:04.160321 10017 net.cpp:395] relu3a -> conv3a (in-place)
I0418 03:56:04.160619 10017 net.cpp:150] Setting up relu3a
I0418 03:56:04.160632 10017 net.cpp:157] Top shape: 1 256 384 28 28 (77070336)
I0418 03:56:04.160636 10017 net.cpp:165] Memory required for data: 9132836028
I0418 03:56:04.160640 10017 layer_factory.hpp:77] Creating layer conv3b
I0418 03:56:04.160651 10017 net.cpp:100] Creating Layer conv3b
I0418 03:56:04.160655 10017 net.cpp:434] conv3b <- conv3a
I0418 03:56:04.160661 10017 net.cpp:408] conv3b -> conv3b
I0418 03:56:04.210114 10017 net.cpp:150] Setting up conv3b
I0418 03:56:04.210139 10017 net.cpp:157] Top shape: 1 256 384 28 28 (77070336)
I0418 03:56:04.210144 10017 net.cpp:165] Memory required for data: 9441117372
I0418 03:56:04.210155 10017 layer_factory.hpp:77] Creating layer relu3b
I0418 03:56:04.210165 10017 net.cpp:100] Creating Layer relu3b
I0418 03:56:04.210170 10017 net.cpp:434] relu3b <- conv3b
I0418 03:56:04.210176 10017 net.cpp:395] relu3b -> conv3b (in-place)
I0418 03:56:04.210474 10017 net.cpp:150] Setting up relu3b
I0418 03:56:04.210487 10017 net.cpp:157] Top shape: 1 256 384 28 28 (77070336)
I0418 03:56:04.210491 10017 net.cpp:165] Memory required for data: 9749398716
I0418 03:56:04.210496 10017 layer_factory.hpp:77] Creating layer pool3
I0418 03:56:04.210505 10017 net.cpp:100] Creating Layer pool3
I0418 03:56:04.210508 10017 net.cpp:434] pool3 <- conv3b
I0418 03:56:04.210515 10017 net.cpp:408] pool3 -> pool3
I0418 03:56:04.210687 10017 net.cpp:150] Setting up pool3
I0418 03:56:04.210700 10017 net.cpp:157] Top shape: 1 256 192 14 14 (9633792)
I0418 03:56:04.210703 10017 net.cpp:165] Memory required for data: 9787933884
I0418 03:56:04.210707 10017 layer_factory.hpp:77] Creating layer conv4a
I0418 03:56:04.210718 10017 net.cpp:100] Creating Layer conv4a
I0418 03:56:04.210722 10017 net.cpp:434] conv4a <- pool3
I0418 03:56:04.210729 10017 net.cpp:408] conv4a -> conv4a
I0418 03:56:04.308758 10017 net.cpp:150] Setting up conv4a
I0418 03:56:04.308785 10017 net.cpp:157] Top shape: 1 512 192 14 14 (19267584)
I0418 03:56:04.308790 10017 net.cpp:165] Memory required for data: 9865004220
I0418 03:56:04.308804 10017 layer_factory.hpp:77] Creating layer relu4a
I0418 03:56:04.308815 10017 net.cpp:100] Creating Layer relu4a
I0418 03:56:04.308820 10017 net.cpp:434] relu4a <- conv4a
I0418 03:56:04.308826 10017 net.cpp:395] relu4a -> conv4a (in-place)
I0418 03:56:04.309131 10017 net.cpp:150] Setting up relu4a
I0418 03:56:04.309145 10017 net.cpp:157] Top shape: 1 512 192 14 14 (19267584)
I0418 03:56:04.309149 10017 net.cpp:165] Memory required for data: 9942074556
I0418 03:56:04.309154 10017 layer_factory.hpp:77] Creating layer conv4b
I0418 03:56:04.309166 10017 net.cpp:100] Creating Layer conv4b
I0418 03:56:04.309171 10017 net.cpp:434] conv4b <- conv4a
I0418 03:56:04.309177 10017 net.cpp:408] conv4b -> conv4b
I0418 03:56:04.501433 10017 net.cpp:150] Setting up conv4b
I0418 03:56:04.501458 10017 net.cpp:157] Top shape: 1 512 192 14 14 (19267584)
I0418 03:56:04.501462 10017 net.cpp:165] Memory required for data: 10019144892
I0418 03:56:04.501472 10017 layer_factory.hpp:77] Creating layer relu4b
I0418 03:56:04.501482 10017 net.cpp:100] Creating Layer relu4b
I0418 03:56:04.501487 10017 net.cpp:434] relu4b <- conv4b
I0418 03:56:04.501493 10017 net.cpp:395] relu4b -> conv4b (in-place)
I0418 03:56:04.501637 10017 net.cpp:150] Setting up relu4b
I0418 03:56:04.501647 10017 net.cpp:157] Top shape: 1 512 192 14 14 (19267584)
I0418 03:56:04.501651 10017 net.cpp:165] Memory required for data: 10096215228
I0418 03:56:04.501655 10017 layer_factory.hpp:77] Creating layer pool4
I0418 03:56:04.501663 10017 net.cpp:100] Creating Layer pool4
I0418 03:56:04.501667 10017 net.cpp:434] pool4 <- conv4b
I0418 03:56:04.501673 10017 net.cpp:408] pool4 -> pool4
I0418 03:56:04.501981 10017 net.cpp:150] Setting up pool4
I0418 03:56:04.501993 10017 net.cpp:157] Top shape: 1 512 96 7 7 (2408448)
I0418 03:56:04.501997 10017 net.cpp:165] Memory required for data: 10105849020
I0418 03:56:04.502002 10017 layer_factory.hpp:77] Creating layer conv5a
I0418 03:56:04.502012 10017 net.cpp:100] Creating Layer conv5a
I0418 03:56:04.502017 10017 net.cpp:434] conv5a <- pool4
I0418 03:56:04.502022 10017 net.cpp:408] conv5a -> conv5a
I0418 03:56:04.688990 10017 net.cpp:150] Setting up conv5a
I0418 03:56:04.689015 10017 net.cpp:157] Top shape: 1 512 96 7 7 (2408448)
I0418 03:56:04.689019 10017 net.cpp:165] Memory required for data: 10115482812
I0418 03:56:04.689028 10017 layer_factory.hpp:77] Creating layer relu5a
I0418 03:56:04.689038 10017 net.cpp:100] Creating Layer relu5a
I0418 03:56:04.689044 10017 net.cpp:434] relu5a <- conv5a
I0418 03:56:04.689052 10017 net.cpp:395] relu5a -> conv5a (in-place)
I0418 03:56:04.689450 10017 net.cpp:150] Setting up relu5a
I0418 03:56:04.689462 10017 net.cpp:157] Top shape: 1 512 96 7 7 (2408448)
I0418 03:56:04.689466 10017 net.cpp:165] Memory required for data: 10125116604
I0418 03:56:04.689471 10017 layer_factory.hpp:77] Creating layer conv5b
I0418 03:56:04.689481 10017 net.cpp:100] Creating Layer conv5b
I0418 03:56:04.689486 10017 net.cpp:434] conv5b <- conv5a
I0418 03:56:04.689492 10017 net.cpp:408] conv5b -> conv5b
I0418 03:56:04.875223 10017 net.cpp:150] Setting up conv5b
I0418 03:56:04.875249 10017 net.cpp:157] Top shape: 1 512 96 7 7 (2408448)
I0418 03:56:04.875254 10017 net.cpp:165] Memory required for data: 10134750396
I0418 03:56:04.875263 10017 layer_factory.hpp:77] Creating layer relu5b
I0418 03:56:04.875273 10017 net.cpp:100] Creating Layer relu5b
I0418 03:56:04.875278 10017 net.cpp:434] relu5b <- conv5b
I0418 03:56:04.875284 10017 net.cpp:395] relu5b -> conv5b (in-place)
I0418 03:56:04.875422 10017 net.cpp:150] Setting up relu5b
I0418 03:56:04.875432 10017 net.cpp:157] Top shape: 1 512 96 7 7 (2408448)
I0418 03:56:04.875435 10017 net.cpp:165] Memory required for data: 10144384188
I0418 03:56:04.875440 10017 layer_factory.hpp:77] Creating layer conv5b_relu5b_0_split
I0418 03:56:04.875445 10017 net.cpp:100] Creating Layer conv5b_relu5b_0_split
I0418 03:56:04.875449 10017 net.cpp:434] conv5b_relu5b_0_split <- conv5b
I0418 03:56:04.875454 10017 net.cpp:408] conv5b_relu5b_0_split -> conv5b_relu5b_0_split_0
I0418 03:56:04.875461 10017 net.cpp:408] conv5b_relu5b_0_split -> conv5b_relu5b_0_split_1
I0418 03:56:04.875495 10017 net.cpp:150] Setting up conv5b_relu5b_0_split
I0418 03:56:04.875502 10017 net.cpp:157] Top shape: 1 512 96 7 7 (2408448)
I0418 03:56:04.875506 10017 net.cpp:157] Top shape: 1 512 96 7 7 (2408448)
I0418 03:56:04.875510 10017 net.cpp:165] Memory required for data: 10163651772
I0418 03:56:04.875514 10017 layer_factory.hpp:77] Creating layer rpn_conv/3x3
I0418 03:56:04.875524 10017 net.cpp:100] Creating Layer rpn_conv/3x3
I0418 03:56:04.875530 10017 net.cpp:434] rpn_conv/3x3 <- conv5b_relu5b_0_split_0
I0418 03:56:04.875536 10017 net.cpp:408] rpn_conv/3x3 -> rpn/output
I0418 03:56:05.062531 10017 net.cpp:150] Setting up rpn_conv/3x3
I0418 03:56:05.062556 10017 net.cpp:157] Top shape: 1 512 96 4 4 (786432)
I0418 03:56:05.062559 10017 net.cpp:165] Memory required for data: 10166797500
I0418 03:56:05.062572 10017 layer_factory.hpp:77] Creating layer rpn_relu/3x3
I0418 03:56:05.062582 10017 net.cpp:100] Creating Layer rpn_relu/3x3
I0418 03:56:05.062588 10017 net.cpp:434] rpn_relu/3x3 <- rpn/output
I0418 03:56:05.062594 10017 net.cpp:395] rpn_relu/3x3 -> rpn/output (in-place)
I0418 03:56:05.062925 10017 net.cpp:150] Setting up rpn_relu/3x3
I0418 03:56:05.062940 10017 net.cpp:157] Top shape: 1 512 96 4 4 (786432)
I0418 03:56:05.062945 10017 net.cpp:165] Memory required for data: 10169943228
I0418 03:56:05.062952 10017 layer_factory.hpp:77] Creating layer rpn_conv/3x3_2
I0418 03:56:05.062964 10017 net.cpp:100] Creating Layer rpn_conv/3x3_2
I0418 03:56:05.062971 10017 net.cpp:434] rpn_conv/3x3_2 <- rpn/output
I0418 03:56:05.062979 10017 net.cpp:408] rpn_conv/3x3_2 -> rpn/output_2
I0418 03:56:05.249518 10017 net.cpp:150] Setting up rpn_conv/3x3_2
I0418 03:56:05.249544 10017 net.cpp:157] Top shape: 1 512 96 2 2 (196608)
I0418 03:56:05.249548 10017 net.cpp:165] Memory required for data: 10170729660
I0418 03:56:05.249557 10017 layer_factory.hpp:77] Creating layer rpn_relu/3x3_2
I0418 03:56:05.249568 10017 net.cpp:100] Creating Layer rpn_relu/3x3_2
I0418 03:56:05.249574 10017 net.cpp:434] rpn_relu/3x3_2 <- rpn/output_2
I0418 03:56:05.249580 10017 net.cpp:395] rpn_relu/3x3_2 -> rpn/output_2 (in-place)
I0418 03:56:05.249883 10017 net.cpp:150] Setting up rpn_relu/3x3_2
I0418 03:56:05.249896 10017 net.cpp:157] Top shape: 1 512 96 2 2 (196608)
I0418 03:56:05.249899 10017 net.cpp:165] Memory required for data: 10171516092
I0418 03:56:05.249907 10017 layer_factory.hpp:77] Creating layer rpn/output_pool
I0418 03:56:05.249914 10017 net.cpp:100] Creating Layer rpn/output_pool
I0418 03:56:05.249917 10017 net.cpp:434] rpn/output_pool <- rpn/output_2
I0418 03:56:05.249927 10017 net.cpp:408] rpn/output_pool -> rpn/output_pool
I0418 03:56:05.250104 10017 net.cpp:150] Setting up rpn/output_pool
I0418 03:56:05.250115 10017 net.cpp:157] Top shape: 1 512 96 1 1 (49152)
I0418 03:56:05.250118 10017 net.cpp:165] Memory required for data: 10171712700
I0418 03:56:05.250123 10017 layer_factory.hpp:77] Creating layer rpn/output_pool_rpn/output_pool_0_split
I0418 03:56:05.250128 10017 net.cpp:100] Creating Layer rpn/output_pool_rpn/output_pool_0_split
I0418 03:56:05.250133 10017 net.cpp:434] rpn/output_pool_rpn/output_pool_0_split <- rpn/output_pool
I0418 03:56:05.250138 10017 net.cpp:408] rpn/output_pool_rpn/output_pool_0_split -> rpn/output_pool_rpn/output_pool_0_split_0
I0418 03:56:05.250144 10017 net.cpp:408] rpn/output_pool_rpn/output_pool_0_split -> rpn/output_pool_rpn/output_pool_0_split_1
I0418 03:56:05.250176 10017 net.cpp:150] Setting up rpn/output_pool_rpn/output_pool_0_split
I0418 03:56:05.250185 10017 net.cpp:157] Top shape: 1 512 96 1 1 (49152)
I0418 03:56:05.250188 10017 net.cpp:157] Top shape: 1 512 96 1 1 (49152)
I0418 03:56:05.250191 10017 net.cpp:165] Memory required for data: 10172105916
I0418 03:56:05.250195 10017 layer_factory.hpp:77] Creating layer rpn_cls_score
I0418 03:56:05.250205 10017 net.cpp:100] Creating Layer rpn_cls_score
I0418 03:56:05.250211 10017 net.cpp:434] rpn_cls_score <- rpn/output_pool_rpn/output_pool_0_split_0
I0418 03:56:05.250217 10017 net.cpp:408] rpn_cls_score -> rpn_cls_score
I0418 03:56:05.252230 10017 net.cpp:150] Setting up rpn_cls_score
I0418 03:56:05.252243 10017 net.cpp:157] Top shape: 1 74 96 1 1 (7104)
I0418 03:56:05.252246 10017 net.cpp:165] Memory required for data: 10172134332
I0418 03:56:05.252254 10017 layer_factory.hpp:77] Creating layer rpn_cls_score_rpn_cls_score_0_split
I0418 03:56:05.252259 10017 net.cpp:100] Creating Layer rpn_cls_score_rpn_cls_score_0_split
I0418 03:56:05.252262 10017 net.cpp:434] rpn_cls_score_rpn_cls_score_0_split <- rpn_cls_score
I0418 03:56:05.252269 10017 net.cpp:408] rpn_cls_score_rpn_cls_score_0_split -> rpn_cls_score_rpn_cls_score_0_split_0
I0418 03:56:05.252277 10017 net.cpp:408] rpn_cls_score_rpn_cls_score_0_split -> rpn_cls_score_rpn_cls_score_0_split_1
I0418 03:56:05.252316 10017 net.cpp:150] Setting up rpn_cls_score_rpn_cls_score_0_split
I0418 03:56:05.252324 10017 net.cpp:157] Top shape: 1 74 96 1 1 (7104)
I0418 03:56:05.252329 10017 net.cpp:157] Top shape: 1 74 96 1 1 (7104)
I0418 03:56:05.252332 10017 net.cpp:165] Memory required for data: 10172191164
I0418 03:56:05.252336 10017 layer_factory.hpp:77] Creating layer rpn_twin_pred
I0418 03:56:05.252348 10017 net.cpp:100] Creating Layer rpn_twin_pred
I0418 03:56:05.252355 10017 net.cpp:434] rpn_twin_pred <- rpn/output_pool_rpn/output_pool_0_split_1
I0418 03:56:05.252362 10017 net.cpp:408] rpn_twin_pred -> rpn_twin_pred
I0418 03:56:05.254259 10017 net.cpp:150] Setting up rpn_twin_pred
I0418 03:56:05.254272 10017 net.cpp:157] Top shape: 1 74 96 1 1 (7104)
I0418 03:56:05.254276 10017 net.cpp:165] Memory required for data: 10172219580
I0418 03:56:05.254283 10017 layer_factory.hpp:77] Creating layer rpn_twin_pred_rpn_twin_pred_0_split
I0418 03:56:05.254290 10017 net.cpp:100] Creating Layer rpn_twin_pred_rpn_twin_pred_0_split
I0418 03:56:05.254294 10017 net.cpp:434] rpn_twin_pred_rpn_twin_pred_0_split <- rpn_twin_pred
I0418 03:56:05.254299 10017 net.cpp:408] rpn_twin_pred_rpn_twin_pred_0_split -> rpn_twin_pred_rpn_twin_pred_0_split_0
I0418 03:56:05.254305 10017 net.cpp:408] rpn_twin_pred_rpn_twin_pred_0_split -> rpn_twin_pred_rpn_twin_pred_0_split_1
I0418 03:56:05.254341 10017 net.cpp:150] Setting up rpn_twin_pred_rpn_twin_pred_0_split
I0418 03:56:05.254348 10017 net.cpp:157] Top shape: 1 74 96 1 1 (7104)
I0418 03:56:05.254353 10017 net.cpp:157] Top shape: 1 74 96 1 1 (7104)
I0418 03:56:05.254356 10017 net.cpp:165] Memory required for data: 10172276412
I0418 03:56:05.254359 10017 layer_factory.hpp:77] Creating layer rpn_cls_score_reshape
I0418 03:56:05.254372 10017 net.cpp:100] Creating Layer rpn_cls_score_reshape
I0418 03:56:05.254377 10017 net.cpp:434] rpn_cls_score_reshape <- rpn_cls_score_rpn_cls_score_0_split_0
I0418 03:56:05.254384 10017 net.cpp:408] rpn_cls_score_reshape -> rpn_cls_score_reshape
I0418 03:56:05.254411 10017 net.cpp:150] Setting up rpn_cls_score_reshape
I0418 03:56:05.254420 10017 net.cpp:157] Top shape: 1 2 3552 1 1 (7104)
I0418 03:56:05.254422 10017 net.cpp:165] Memory required for data: 10172304828
I0418 03:56:05.254426 10017 layer_factory.hpp:77] Creating layer rpn_cls_score_reshape_rpn_cls_score_reshape_0_split
I0418 03:56:05.254431 10017 net.cpp:100] Creating Layer rpn_cls_score_reshape_rpn_cls_score_reshape_0_split
I0418 03:56:05.254434 10017 net.cpp:434] rpn_cls_score_reshape_rpn_cls_score_reshape_0_split <- rpn_cls_score_reshape
I0418 03:56:05.254442 10017 net.cpp:408] rpn_cls_score_reshape_rpn_cls_score_reshape_0_split -> rpn_cls_score_reshape_rpn_cls_score_reshape_0_split_0
I0418 03:56:05.254453 10017 net.cpp:408] rpn_cls_score_reshape_rpn_cls_score_reshape_0_split -> rpn_cls_score_reshape_rpn_cls_score_reshape_0_split_1
I0418 03:56:05.254461 10017 net.cpp:408] rpn_cls_score_reshape_rpn_cls_score_reshape_0_split -> rpn_cls_score_reshape_rpn_cls_score_reshape_0_split_2
I0418 03:56:05.254501 10017 net.cpp:150] Setting up rpn_cls_score_reshape_rpn_cls_score_reshape_0_split
I0418 03:56:05.254509 10017 net.cpp:157] Top shape: 1 2 3552 1 1 (7104)
I0418 03:56:05.254513 10017 net.cpp:157] Top shape: 1 2 3552 1 1 (7104)
I0418 03:56:05.254518 10017 net.cpp:157] Top shape: 1 2 3552 1 1 (7104)
I0418 03:56:05.254520 10017 net.cpp:165] Memory required for data: 10172390076
I0418 03:56:05.254523 10017 layer_factory.hpp:77] Creating layer rpn-data
I0418 03:56:05.254936 10017 net.cpp:100] Creating Layer rpn-data
I0418 03:56:05.254950 10017 net.cpp:434] rpn-data <- rpn_cls_score_rpn_cls_score_0_split_1
I0418 03:56:05.254956 10017 net.cpp:434] rpn-data <- gt_boxes_data_1_split_0
I0418 03:56:05.254959 10017 net.cpp:434] rpn-data <- data_data_0_split_1
I0418 03:56:05.254966 10017 net.cpp:408] rpn-data -> rpn_labels
I0418 03:56:05.254972 10017 net.cpp:408] rpn-data -> rpn_twin_targets
I0418 03:56:05.254978 10017 net.cpp:408] rpn-data -> rpn_twin_inside_weights
I0418 03:56:05.254984 10017 net.cpp:408] rpn-data -> rpn_twin_outside_weights
I0418 03:56:05.257411 10017 net.cpp:150] Setting up rpn-data
I0418 03:56:05.257429 10017 net.cpp:157] Top shape: 1 1 3552 1 1 (3552)
I0418 03:56:05.257438 10017 net.cpp:157] Top shape: 1 74 96 1 1 (7104)
I0418 03:56:05.257445 10017 net.cpp:157] Top shape: 1 74 96 1 1 (7104)
I0418 03:56:05.257452 10017 net.cpp:157] Top shape: 1 74 96 1 1 (7104)
I0418 03:56:05.257457 10017 net.cpp:165] Memory required for data: 10172489532
I0418 03:56:05.257463 10017 layer_factory.hpp:77] Creating layer rpn_labels_rpn-data_0_split
I0418 03:56:05.257472 10017 net.cpp:100] Creating Layer rpn_labels_rpn-data_0_split
I0418 03:56:05.257483 10017 net.cpp:434] rpn_labels_rpn-data_0_split <- rpn_labels
I0418 03:56:05.257493 10017 net.cpp:408] rpn_labels_rpn-data_0_split -> rpn_labels_rpn-data_0_split_0
I0418 03:56:05.257503 10017 net.cpp:408] rpn_labels_rpn-data_0_split -> rpn_labels_rpn-data_0_split_1
I0418 03:56:05.257544 10017 net.cpp:150] Setting up rpn_labels_rpn-data_0_split
I0418 03:56:05.257553 10017 net.cpp:157] Top shape: 1 1 3552 1 1 (3552)
I0418 03:56:05.257557 10017 net.cpp:157] Top shape: 1 1 3552 1 1 (3552)
I0418 03:56:05.257565 10017 net.cpp:165] Memory required for data: 10172517948
I0418 03:56:05.257568 10017 layer_factory.hpp:77] Creating layer rpn_loss_cls
I0418 03:56:05.257577 10017 net.cpp:100] Creating Layer rpn_loss_cls
I0418 03:56:05.257581 10017 net.cpp:434] rpn_loss_cls <- rpn_cls_score_reshape_rpn_cls_score_reshape_0_split_0
I0418 03:56:05.257586 10017 net.cpp:434] rpn_loss_cls <- rpn_labels_rpn-data_0_split_0
…
I0418 03:56:05.258143 10017 layer_factory.hpp:77] Creating layer rpn_accuarcy
I0418 03:56:05.258152 10017 net.cpp:100] Creating Layer rpn_accuarcy
I0418 03:56:05.258155 10017 net.cpp:434] rpn_accuarcy <- rpn_cls_score_reshape_rpn_cls_score_reshape_0_split_1
I0418 03:56:05.258159 10017 net.cpp:434] rpn_accuarcy <- rpn_labels_rpn-data_0_split_1
I0418 03:56:05.258164 10017 net.cpp:408] rpn_accuarcy -> rpn_accuarcy
I0418 03:56:05.258172 10017 net.cpp:408] rpn_accuarcy -> rpn_accuarcy_class
I0418 03:56:05.258213 10017 net.cpp:150] Setting up rpn_accuarcy
I0418 03:56:05.258221 10017 net.cpp:157] Top shape: (1)
I0418 03:56:05.258225 10017 net.cpp:157] Top shape: 2 (2)
I0418 03:56:05.258229 10017 net.cpp:165] Memory required for data: 10172517968
I0418 03:56:05.258232 10017 layer_factory.hpp:77] Creating layer rpn_cls_prob
I0418 03:56:05.258239 10017 net.cpp:100] Creating Layer rpn_cls_prob
I0418 03:56:05.258242 10017 net.cpp:434] rpn_cls_prob <- rpn_cls_score_reshape_rpn_cls_score_reshape_0_split_2
I0418 03:56:05.258246 10017 net.cpp:408] rpn_cls_prob -> rpn_cls_prob
I0418 03:56:05.258440 10017 net.cpp:150] Setting up rpn_cls_prob
I0418 03:56:05.258450 10017 net.cpp:157] Top shape: 1 2 3552 1 1 (7104)
I0418 03:56:05.258452 10017 net.cpp:165] Memory required for data: 10172546384
I0418 03:56:05.258456 10017 layer_factory.hpp:77] Creating layer rpn_cls_prob_reshape
I0418 03:56:05.258463 10017 net.cpp:100] Creating Layer rpn_cls_prob_reshape
I0418 03:56:05.258468 10017 net.cpp:434] rpn_cls_prob_reshape <- rpn_cls_prob
I0418 03:56:05.258473 10017 net.cpp:408] rpn_cls_prob_reshape -> rpn_cls_prob_reshape
I0418 03:56:05.258497 10017 net.cpp:150] Setting up rpn_cls_prob_reshape
I0418 03:56:05.258505 10017 net.cpp:157] Top shape: 1 74 96 1 1 (7104)
I0418 03:56:05.258509 10017 net.cpp:165] Memory required for data: 10172574800
I0418 03:56:05.258512 10017 layer_factory.hpp:77] Creating layer proposal
I0418 03:56:05.259075 10017 net.cpp:100] Creating Layer proposal
I0418 03:56:05.259088 10017 net.cpp:434] proposal <- rpn_cls_prob_reshape
I0418 03:56:05.259094 10017 net.cpp:434] proposal <- rpn_twin_pred_rpn_twin_pred_0_split_1
I0418 03:56:05.259099 10017 net.cpp:408] proposal -> rpn_rois
I0418 03:56:05.261211 10017 net.cpp:150] Setting up proposal
I0418 03:56:05.261226 10017 net.cpp:157] Top shape: 1 3 (3)
I0418 03:56:05.261230 10017 net.cpp:165] Memory required for data: 10172574812
I0418 03:56:05.261234 10017 layer_factory.hpp:77] Creating layer roi-data
I0418 03:56:05.261368 10017 net.cpp:100] Creating Layer roi-data
I0418 03:56:05.261379 10017 net.cpp:434] roi-data <- rpn_rois
I0418 03:56:05.261384 10017 net.cpp:434] roi-data <- gt_boxes_data_1_split_1
I0418 03:56:05.261390 10017 net.cpp:408] roi-data -> rois
I0418 03:56:05.261397 10017 net.cpp:408] roi-data -> labels
I0418 03:56:05.261407 10017 net.cpp:408] roi-data -> twin_targets
I0418 03:56:05.261413 10017 net.cpp:408] roi-data -> twin_inside_weights
I0418 03:56:05.261418 10017 net.cpp:408] roi-data -> twin_outside_weights
I0418 03:56:05.261721 10017 net.cpp:150] Setting up roi-data
I0418 03:56:05.261744 10017 net.cpp:157] Top shape: 1 3 (3)
I0418 03:56:05.261757 10017 net.cpp:157] Top shape: 1 1 (1)
I0418 03:56:05.261761 10017 net.cpp:157] Top shape: 1 402 (402)
I0418 03:56:05.261766 10017 net.cpp:157] Top shape: 1 402 (402)
I0418 03:56:05.261770 10017 net.cpp:157] Top shape: 1 402 (402)
I0418 03:56:05.261773 10017 net.cpp:165] Memory required for data: 10172579652
I0418 03:56:05.261777 10017 layer_factory.hpp:77] Creating layer labels_roi-data_1_split
I0418 03:56:05.261782 10017 net.cpp:100] Creating Layer labels_roi-data_1_split
I0418 03:56:05.261786 10017 net.cpp:434] labels_roi-data_1_split <- labels
I0418 03:56:05.261791 10017 net.cpp:408] labels_roi-data_1_split -> labels_roi-data_1_split_0
I0418 03:56:05.261798 10017 net.cpp:408] labels_roi-data_1_split -> labels_roi-data_1_split_1
I0418 03:56:05.261829 10017 net.cpp:150] Setting up labels_roi-data_1_split
I0418 03:56:05.261837 10017 net.cpp:157] Top shape: 1 1 (1)
I0418 03:56:05.261840 10017 net.cpp:157] Top shape: 1 1 (1)
I0418 03:56:05.261843 10017 net.cpp:165] Memory required for data: 10172579660
I0418 03:56:05.261847 10017 layer_factory.hpp:77] Creating layer roi_pool5
I0418 03:56:05.261857 10017 net.cpp:100] Creating Layer roi_pool5
I0418 03:56:05.261860 10017 net.cpp:434] roi_pool5 <- conv5b_relu5b_0_split_1
I0418 03:56:05.261865 10017 net.cpp:434] roi_pool5 <- rois
I0418 03:56:05.261870 10017 net.cpp:408] roi_pool5 -> pool5
I0418 03:56:05.261878 10017 roi_pooling_layer.cpp:34] Temporal scale: 0.125
I0418 03:56:05.261885 10017 roi_pooling_layer.cpp:35] Spatial scale: 0.0625
I0418 03:56:05.261917 10017 net.cpp:150] Setting up roi_pool5
I0418 03:56:05.261925 10017 net.cpp:157] Top shape: 1 512 1 4 4 (8192)
I0418 03:56:05.261929 10017 net.cpp:165] Memory required for data: 10172612428
I0418 03:56:05.261932 10017 layer_factory.hpp:77] Creating layer fc6
I0418 03:56:05.261940 10017 net.cpp:100] Creating Layer fc6
I0418 03:56:05.261946 10017 net.cpp:434] fc6 <- pool5
I0418 03:56:05.261953 10017 net.cpp:408] fc6 -> fc6
I0418 03:56:06.141189 10017 net.cpp:150] Setting up fc6
I0418 03:56:06.141214 10017 net.cpp:157] Top shape: 1 4096 (4096)
I0418 03:56:06.141218 10017 net.cpp:165] Memory required for data: 10172628812
I0418 03:56:06.141228 10017 layer_factory.hpp:77] Creating layer relu6
I0418 03:56:06.141238 10017 net.cpp:100] Creating Layer relu6
I0418 03:56:06.141243 10017 net.cpp:434] relu6 <- fc6
I0418 03:56:06.141249 10017 net.cpp:395] relu6 -> fc6 (in-place)
I0418 03:56:06.141664 10017 net.cpp:150] Setting up relu6
I0418 03:56:06.141676 10017 net.cpp:157] Top shape: 1 4096 (4096)
I0418 03:56:06.141680 10017 net.cpp:165] Memory required for data: 10172645196
I0418 03:56:06.141685 10017 layer_factory.hpp:77] Creating layer drop6
I0418 03:56:06.141696 10017 net.cpp:100] Creating Layer drop6
I0418 03:56:06.141703 10017 net.cpp:434] drop6 <- fc6
I0418 03:56:06.141711 10017 net.cpp:395] drop6 -> fc6 (in-place)
I0418 03:56:06.141741 10017 net.cpp:150] Setting up drop6
I0418 03:56:06.141749 10017 net.cpp:157] Top shape: 1 4096 (4096)
I0418 03:56:06.141753 10017 net.cpp:165] Memory required for data: 10172661580
I0418 03:56:06.141757 10017 layer_factory.hpp:77] Creating layer fc6_drop6_0_split
I0418 03:56:06.141762 10017 net.cpp:100] Creating Layer fc6_drop6_0_split
I0418 03:56:06.141767 10017 net.cpp:434] fc6_drop6_0_split <- fc6
I0418 03:56:06.141770 10017 net.cpp:408] fc6_drop6_0_split -> fc6_drop6_0_split_0
I0418 03:56:06.141777 10017 net.cpp:408] fc6_drop6_0_split -> fc6_drop6_0_split_1
I0418 03:56:06.141814 10017 net.cpp:150] Setting up fc6_drop6_0_split
I0418 03:56:06.141821 10017 net.cpp:157] Top shape: 1 4096 (4096)
I0418 03:56:06.141825 10017 net.cpp:157] Top shape: 1 4096 (4096)
I0418 03:56:06.141829 10017 net.cpp:165] Memory required for data: 10172694348
I0418 03:56:06.141832 10017 layer_factory.hpp:77] Creating layer cls_score
I0418 03:56:06.141840 10017 net.cpp:100] Creating Layer cls_score
I0418 03:56:06.141844 10017 net.cpp:434] cls_score <- fc6_drop6_0_split_0
I0418 03:56:06.141850 10017 net.cpp:408] cls_score -> cls_score
I0418 03:56:06.152740 10017 net.cpp:150] Setting up cls_score
I0418 03:56:06.152755 10017 net.cpp:157] Top shape: 1 99 (99)
I0418 03:56:06.152757 10017 net.cpp:165] Memory required for data: 10172694744
I0418 03:56:06.152765 10017 layer_factory.hpp:77] Creating layer cls_score_cls_score_0_split
I0418 03:56:06.152770 10017 net.cpp:100] Creating Layer cls_score_cls_score_0_split
I0418 03:56:06.152775 10017 net.cpp:434] cls_score_cls_score_0_split <- cls_score
I0418 03:56:06.152781 10017 net.cpp:408] cls_score_cls_score_0_split -> cls_score_cls_score_0_split_0
I0418 03:56:06.152787 10017 net.cpp:408] cls_score_cls_score_0_split -> cls_score_cls_score_0_split_1
I0418 03:56:06.152818 10017 net.cpp:150] Setting up cls_score_cls_score_0_split
I0418 03:56:06.152824 10017 net.cpp:157] Top shape: 1 99 (99)
I0418 03:56:06.152828 10017 net.cpp:157] Top shape: 1 99 (99)
I0418 03:56:06.152832 10017 net.cpp:165] Memory required for data: 10172695536
I0418 03:56:06.152835 10017 layer_factory.hpp:77] Creating layer twin_pred
I0418 03:56:06.152842 10017 net.cpp:100] Creating Layer twin_pred
I0418 03:56:06.152846 10017 net.cpp:434] twin_pred <- fc6_drop6_0_split_1
I0418 03:56:06.152853 10017 net.cpp:408] twin_pred -> twin_pred
I0418 03:56:06.174479 10017 net.cpp:150] Setting up twin_pred
I0418 03:56:06.174497 10017 net.cpp:157] Top shape: 1 198 (198)
I0418 03:56:06.174501 10017 net.cpp:165] Memory required for data: 10172696328
I0418 03:56:06.174510 10017 layer_factory.hpp:77] Creating layer loss_cls
I0418 03:56:06.174520 10017 net.cpp:100] Creating Layer loss_cls
I0418 03:56:06.174525 10017 net.cpp:434] loss_cls <- cls_score_cls_score_0_split_0
I0418 03:56:06.174533 10017 net.cpp:434] loss_cls <- labels_roi-data_1_split_0
I0418 03:56:06.174540 10017 net.cpp:408] loss_cls -> loss_cls
…
