…
stepsize: 350000
snapshot: 0
snapshot_prefix: "./experiments/activitynet/snapshot/activitynet"
average_loss: 100
iter_size: 1
I0418 04:35:34.779182 27248 solver.cpp:81] Creating training net from train_net file: ./experiments/activitynet/train.prototxt
I0418 04:35:34.780278 27248 net.cpp:58] Initializing net from parameters: 
name: "activitynet"
state {
  phase: TRAIN
}
layer {
  name: "data"
  type: "Python"
  top: "data"
  top: "gt_boxes"
  python_param {
    module: "roi_data_layer.layer"
    layer: "RoIDataLayer"
    param_str: "\'num_classes\': 100"
  }
}
layer {
  name: "conv1a"
  type: "Convolution"
  bottom: "data"
  top: "conv1a"
  param {
    lr_mult: 0
    decay_mult: 0
  }
  param {
    lr_mult: 0
    decay_mult: 0
  }
  convolution_param {
    num_output: 64
    pad: 1
    pad: 1
    pad: 1
    kernel_size: 3
    kernel_size: 3
    kernel_size: 3
    weight_filler {
      type: "gaussian"
      std: 0.01
    }
    bias_filler {
      type: "constant"
      value: 0
    }
  }
}
layer {
  name: "relu1a"
  type: "ReLU"
  bottom: "conv1a"
  top: "conv1a"
}
layer {
  name: "pool1"
  type: "Pooling"
  bottom: "conv1a"
  top: "pool1"
  pooling_param {
    pool: MAX
    kernel_size: 1
    kernel_size: 2
    kernel_size: 2
    stride: 1
    stride: 2
    stride: 2
  }
}
layer {
  name: "conv2a"
  type: "Convolution"
  bottom: "pool1"
  top: "conv2a"
  param {
    lr_mult: 0
    decay_mult: 0
  }
  param {
    lr_mult: 0
    decay_mult: 0
  }
  convolution_param {
    num_output: 128
    pad: 1
    pad: 1
    pad: 1
    kernel_size: 3
    kernel_size: 3
    kernel_size: 3
    weight_filler {
      type: "gaussian"
      std: 0.01
    }
    bias_filler {
      type: "constant"
      value: 1
    }
  }
}
layer {
  name: "relu2a"
  type: "ReLU"
  bottom: "conv2a"
  top: "conv2a"
}
layer {
  name: "pool2"
  type: "Pooling"
  bottom: "conv2a"
  top: "pool2"
  pooling_param {
    pool: MAX
    kernel_size: 2
    kernel_size: 2
    kernel_size: 2
    stride: 2
    stride: 2
    stride: 2
  }
}
layer {
  name: "conv3a"
  type: "Convolution"
  bottom: "pool2"
  top: "conv3a"
  param {
    lr_mult: 1
    decay_mult: 1
  }
  param {
    lr_mult: 2
    decay_mult: 0
  }
  convolution_param {
    num_output: 256
    pad: 1
    pad: 1
    pad: 1
    kernel_size: 3
    kernel_size: 3
    kernel_size: 3
    weight_filler {
      type: "gaussian"
      std: 0.01
    }
    bias_filler {
      type: "constant"
      value: 1
    }
  }
}
layer {
  name: "relu3a"
  type: "ReLU"
  bottom: "conv3a"
  top: "conv3a"
}
layer {
  name: "conv3b"
  type: "Convolution"
  bottom: "conv3a"
  top: "conv3b"
  param {
    lr_mult: 1
    decay_mult: 1
  }
  param {
    lr_mult: 2
    decay_mult: 0
  }
  convolution_param {
    num_output: 256
    pad: 1
    pad: 1
    pad: 1
    kernel_size: 3
    kernel_size: 3
    kernel_size: 3
    weight_filler {
      type: "gaussian"
      std: 0.01
    }
    bias_filler {
      type: "constant"
      value: 1
    }
  }
}
layer {
  name: "relu3b"
  type: "ReLU"
  bottom: "conv3b"
  top: "conv3b"
}
layer {
  name: "pool3"
  type: "Pooling"
  bottom: "conv3b"
  top: "pool3"
  pooling_param {
    pool: MAX
    kernel_size: 2
    kernel_size: 2
    kernel_size: 2
    stride: 2
    stride: 2
    stride: 2
  }
}
layer {
  name: "conv4a"
  type: "Convolution"
  bottom: "pool3"
  top: "conv4a"
  param {
    lr_mult: 1
    decay_mult: 1
  }
  param {
    lr_mult: 2
    decay_mult: 0
  }
  convolution_param {
    num_output: 512
    pad: 1
    pad: 1
    pad: 1
    kernel_size: 3
    kernel_size: 3
    kernel_size: 3
    weight_filler {
      type: "gaussian"
      std: 0.01
    }
    bias_filler {
      type: "constant"
      value: 1
    }
  }
}
layer {
  name: "relu4a"
  type: "ReLU"
  bottom: "conv4a"
  top: "conv4a"
}
layer {
  name: "conv4b"
  type: "Convolution"
  bottom: "conv4a"
  top: "conv4b"
  param {
    lr_mult: 1
    decay_mult: 1
  }
  param {
    lr_mult: 2
    decay_mult: 0
  }
  convolution_param {
    num_output: 512
    pad: 1
    pad: 1
    pad: 1
    kernel_size: 3
    kernel_size: 3
    kernel_size: 3
    weight_filler {
      type: "gaussian"
      std: 0.01
    }
    bias_filler {
      type: "constant"
      value: 1
    }
  }
}
layer {
  name: "relu4b"
  type: "ReLU"
  bottom: "conv4b"
  top: "conv4b"
}
layer {
  name: "pool4"
  type: "Pooling"
  bottom: "conv4b"
  top: "pool4"
  pooling_param {
    pool: MAX
    kernel_size: 2
    kernel_size: 2
    kernel_size: 2
    stride: 2
    stride: 2
    stride: 2
  }
}
layer {
  name: "conv5a"
  type: "Convolution"
  bottom: "pool4"
  top: "conv5a"
  param {
    lr_mult: 1
    decay_mult: 1
  }
  param {
    lr_mult: 2
    decay_mult: 0
  }
  convolution_param {
    num_output: 512
    pad: 1
    pad: 1
    pad: 1
    kernel_size: 3
    kernel_size: 3
    kernel_size: 3
    weight_filler {
      type: "gaussian"
      std: 0.01
    }
    bias_filler {
      type: "constant"
      value: 1
    }
  }
}
layer {
  name: "relu5a"
  type: "ReLU"
  bottom: "conv5a"
  top: "conv5a"
}
layer {
  name: "conv5b"
  type: "Convolution"
  bottom: "conv5a"
  top: "conv5b"
  param {
    lr_mult: 1
    decay_mult: 1
  }
  param {
    lr_mult: 2
    decay_mult: 0
  }
  convolution_param {
    num_output: 512
    pad: 1
    pad: 1
    pad: 1
    kernel_size: 3
    kernel_size: 3
    kernel_size: 3
    weight_filler {
      type: "gaussian"
      std: 0.01
    }
    bias_filler {
      type: "constant"
      value: 1
    }
  }
}
layer {
  name: "relu5b"
  type: "ReLU"
  bottom: "conv5b"
  top: "conv5b"
}
layer {
  name: "rpn_conv/3x3"
  type: "Convolution"
  bottom: "conv5b"
  top: "rpn/output"
  param {
    lr_mult: 1
    decay_mult: 1
  }
  param {
    lr_mult: 2
    decay_mult: 0
  }
  convolution_param {
    num_output: 512
    pad: 1
    pad: 1
    pad: 1
    kernel_size: 3
    kernel_size: 3
    kernel_size: 3
    stride: 1
    stride: 2
    stride: 2
    weight_filler {
      type: "gaussian"
      std: 0.01
    }
    bias_filler {
      type: "constant"
      value: 0
    }
  }
}
layer {
  name: "rpn_relu/3x3"
  type: "ReLU"
  bottom: "rpn/output"
  top: "rpn/output"
}
layer {
  name: "rpn_conv/3x3_2"
  type: "Convolution"
  bottom: "rpn/output"
  top: "rpn/output_2"
  param {
    lr_mult: 1
    decay_mult: 1
  }
  param {
    lr_mult: 2
    decay_mult: 0
  }
  convolution_param {
    num_output: 512
    pad: 1
    pad: 1
    pad: 1
    kernel_size: 3
    kernel_size: 3
    kernel_size: 3
    stride: 1
    stride: 2
    stride: 2
    weight_filler {
      type: "gaussian"
      std: 0.01
    }
    bias_filler {
      type: "constant"
      value: 0
    }
  }
}
layer {
  name: "rpn_relu/3x3_2"
  type: "ReLU"
  bottom: "rpn/output_2"
  top: "rpn/output_2"
}
layer {
  name: "rpn/output_pool"
  type: "Pooling"
  bottom: "rpn/output_2"
  top: "rpn/output_pool"
  pooling_param {
    pool: MAX
    kernel_size: 1
    kernel_size: 2
    kernel_size: 2
  }
}
layer {
  name: "rpn_cls_score"
  type: "Convolution"
  bottom: "rpn/output_pool"
  top: "rpn_cls_score"
  param {
    lr_mult: 1
    decay_mult: 1
  }
  param {
    lr_mult: 2
    decay_mult: 0
  }
  convolution_param {
    num_output: 74
    kernel_size: 1
    kernel_size: 1
    kernel_size: 1
    weight_filler {
      type: "gaussian"
      std: 0.01
    }
    bias_filler {
      type: "constant"
      value: 0
    }
  }
}
layer {
  name: "rpn_twin_pred"
  type: "Convolution"
  bottom: "rpn/output_pool"
  top: "rpn_twin_pred"
  param {
    lr_mult: 1
    decay_mult: 1
  }
  param {
    lr_mult: 2
    decay_mult: 0
  }
  convolution_param {
    num_output: 74
    kernel_size: 1
    kernel_size: 1
    kernel_size: 1
    weight_filler {
      type: "gaussian"
      std: 0.01
    }
    bias_filler {
      type: "constant"
      value: 0
    }
  }
}
layer {
  name: "rpn_cls_score_reshape"
  type: "Reshape"
  bottom: "rpn_cls_score"
  top: "rpn_cls_score_reshape"
  reshape_param {
    shape {
      dim: 0
      dim: 2
      dim: -1
      dim: 0
      dim: 0
    }
  }
}
layer {
  name: "rpn-data"
  type: "Python"
  bottom: "rpn_cls_score"
  bottom: "gt_boxes"
  bottom: "data"
  top: "rpn_labels"
  top: "rpn_twin_targets"
  top: "rpn_twin_inside_weights"
  top: "rpn_twin_outside_weights"
  python_param {
    module: "rpn.anchor_target_layer"
    layer: "AnchorTargetLayer"
    param_str: "\'feat_stride\': 8 \n\'scales\': !!python/tuple [1,1.25, 1.5,1.75, 2,2.5, 3,3.5, 4,4.5, 5,5.5, 6,7, 8,9,10,11,12,14,16,18,20,22,24,28,32,36,40,44,52,60,68,76,84,92,100]"
  }
}
layer {
  name: "rpn_loss_cls"
  type: "SoftmaxWithLoss"
  bottom: "rpn_cls_score_reshape"
  bottom: "rpn_labels"
  top: "rpn_cls_loss"
  loss_weight: 1
  propagate_down: true
  propagate_down: false
  loss_param {
    ignore_label: -1
    normalize: true
  }
}
layer {
  name: "rpn_loss_twin"
  type: "SmoothL1Loss"
  bottom: "rpn_twin_pred"
  bottom: "rpn_twin_targets"
  bottom: "rpn_twin_inside_weights"
  bottom: "rpn_twin_outside_weights"
  top: "rpn_loss_twin"
  loss_weight: 1
  smooth_l1_loss_param {
    sigma: 3
  }
}
layer {
  name: "rpn_accuarcy"
  type: "Accuracy"
  bottom: "rpn_cls_score_reshape"
  bottom: "rpn_labels"
  top: "rpn_accuarcy"
  top: "rpn_accuarcy_class"
  propagate_down: false
  propagate_down: false
  accuracy_param {
    ignore_label: -1
  }
}
layer {
  name: "rpn_cls_prob"
  type: "Softmax"
  bottom: "rpn_cls_score_reshape"
  top: "rpn_cls_prob"
}
layer {
  name: "rpn_cls_prob_reshape"
  type: "Reshape"
  bottom: "rpn_cls_prob"
  top: "rpn_cls_prob_reshape"
  reshape_param {
    shape {
      dim: 0
      dim: 74
      dim: -1
      dim: 0
      dim: 0
    }
  }
}
layer {
  name: "proposal"
  type: "Python"
  bottom: "rpn_cls_prob_reshape"
  bottom: "rpn_twin_pred"
  top: "rpn_rois"
  include {
    phase: TRAIN
  }
  python_param {
    module: "rpn.proposal_layer"
    layer: "ProposalLayer"
    param_str: "\'feat_stride\': 8 \n\'scales\': !!python/tuple [1,1.25, 1.5,1.75, 2,2.5, 3,3.5, 4,4.5, 5,5.5, 6,7, 8,9,10,11,12,14,16,18,20,22,24,28,32,36,40,44,52,60,68,76,84,92,100]"
  }
}
layer {
  name: "roi-data"
  type: "Python"
  bottom: "rpn_rois"
  bottom: "gt_boxes"
  top: "rois"
  top: "labels"
  top: "twin_targets"
  top: "twin_inside_weights"
  top: "twin_outside_weights"
  python_param {
    module: "rpn.proposal_target_layer"
    layer: "ProposalTargetLayer"
    param_str: "\'num_classes\': 99"
  }
}
layer {
  name: "roi_pool5"
  type: "ROIPooling"
  bottom: "conv5b"
  bottom: "rois"
  top: "pool5"
  roi_pooling_param {
    pooled_h: 4
    pooled_w: 4
    spatial_scale: 0.0625
    pooled_l: 1
    temporal_scale: 0.125
  }
}
layer {
  name: "fc6"
  type: "InnerProduct"
  bottom: "pool5"
  top: "fc6"
  param {
    lr_mult: 1
    decay_mult: 1
  }
  param {
    lr_mult: 2
    decay_mult: 0
  }
  inner_product_param {
    num_output: 4096
    weight_filler {
      type: "gaussian"
      std: 0.005
    }
    bias_filler {
      type: "constant"
      value: 1
    }
  }
}
layer {
  name: "relu6"
  type: "ReLU"
  bottom: "fc6"
  top: "fc6"
}
layer {
  name: "drop6"
  type: "Dropout"
  bottom: "fc6"
  top: "fc6"
  dropout_param {
    dropout_ratio: 0.5
  }
}
layer {
  name: "cls_score"
  type: "InnerProduct"
  bottom: "fc6"
  top: "cls_score"
  param {
    lr_mult: 1
    decay_mult: 1
  }
  param {
    lr_mult: 2
    decay_mult: 0
  }
  inner_product_param {
    num_output: 99
    weight_filler {
      type: "gaussian"
      std: 0.01
    }
    bias_filler {
      type: "constant"
      value: 0
    }
  }
}
layer {
  name: "twin_pred"
  type: "InnerProduct"
  bottom: "fc6"
  top: "twin_pred"
  param {
    lr_mult: 1
    decay_mult: 1
  }
  param {
    lr_mult: 2
    decay_mult: 0
  }
  inner_product_param {
    num_output: 198
    weight_filler {
      type: "gaussian"
      std: 0.001
    }
    bias_filler {
      type: "constant"
      value: 0
    }
  }
}
layer {
  name: "loss_cls"
  type: "SigmoidCrossEntropyLoss"
  bottom: "cls_score"
  bottom: "labels"
  top: "loss_cls"
  loss_weight: 1
  propagate_down: true
  propagate_down: false
}
layer {
  name: "loss_twin"
  type: "SmoothL1Loss"
  bottom: "twin_pred"
  bottom: "twin_targets"
  bottom: "twin_inside_weights"
  bottom: "twin_outside_weights"
  top: "loss_twin"
  loss_weight: 1
}
layer {
  name: "accuarcy"
  type: "Accuracy"
  bottom: "cls_score"
  bottom: "labels"
  top: "accuarcy"
  propagate_down: false
  propagate_down: false
  accuracy_param {
    ignore_label: -1
  }
}
I0418 04:35:34.780499 27248 layer_factory.hpp:77] Creating layer data
I0418 04:35:34.807018 27248 net.cpp:100] Creating Layer data
I0418 04:35:34.807056 27248 net.cpp:408] data -> data
I0418 04:35:34.807070 27248 net.cpp:408] data -> gt_boxes
setting up
has rpn
RoiDataLayer: name_to_top: {'gt_windows': 1, 'data': 0}
I0418 04:35:34.821034 27248 net.cpp:150] Setting up data
I0418 04:35:34.821058 27248 net.cpp:157] Top shape: 1 3 768 112 112 (28901376)
I0418 04:35:34.821064 27248 net.cpp:157] Top shape: 1 101 (101)
I0418 04:35:34.821068 27248 net.cpp:165] Memory required for data: 115605908
I0418 04:35:34.821074 27248 layer_factory.hpp:77] Creating layer data_data_0_split
I0418 04:35:34.821085 27248 net.cpp:100] Creating Layer data_data_0_split
I0418 04:35:34.821089 27248 net.cpp:434] data_data_0_split <- data
I0418 04:35:34.821096 27248 net.cpp:408] data_data_0_split -> data_data_0_split_0
I0418 04:35:34.821105 27248 net.cpp:408] data_data_0_split -> data_data_0_split_1
I0418 04:35:34.821135 27248 net.cpp:150] Setting up data_data_0_split
I0418 04:35:34.821149 27248 net.cpp:157] Top shape: 1 3 768 112 112 (28901376)
I0418 04:35:34.821153 27248 net.cpp:157] Top shape: 1 3 768 112 112 (28901376)
I0418 04:35:34.821156 27248 net.cpp:165] Memory required for data: 346816916
I0418 04:35:34.821161 27248 layer_factory.hpp:77] Creating layer gt_boxes_data_1_split
I0418 04:35:34.821166 27248 net.cpp:100] Creating Layer gt_boxes_data_1_split
I0418 04:35:34.821171 27248 net.cpp:434] gt_boxes_data_1_split <- gt_boxes
I0418 04:35:34.821175 27248 net.cpp:408] gt_boxes_data_1_split -> gt_boxes_data_1_split_0
I0418 04:35:34.821180 27248 net.cpp:408] gt_boxes_data_1_split -> gt_boxes_data_1_split_1
I0418 04:35:34.821204 27248 net.cpp:150] Setting up gt_boxes_data_1_split
I0418 04:35:34.821209 27248 net.cpp:157] Top shape: 1 101 (101)
I0418 04:35:34.821213 27248 net.cpp:157] Top shape: 1 101 (101)
I0418 04:35:34.821216 27248 net.cpp:165] Memory required for data: 346817724
I0418 04:35:34.821219 27248 layer_factory.hpp:77] Creating layer conv1a
I0418 04:35:34.821234 27248 net.cpp:100] Creating Layer conv1a
I0418 04:35:34.821238 27248 net.cpp:434] conv1a <- data_data_0_split_0
I0418 04:35:34.821245 27248 net.cpp:408] conv1a -> conv1a
I0418 04:35:35.014452 27248 net.cpp:150] Setting up conv1a
I0418 04:35:35.014480 27248 net.cpp:157] Top shape: 1 64 768 112 112 (616562688)
I0418 04:35:35.014485 27248 net.cpp:165] Memory required for data: 2813068476
I0418 04:35:35.014505 27248 layer_factory.hpp:77] Creating layer relu1a
I0418 04:35:35.014518 27248 net.cpp:100] Creating Layer relu1a
I0418 04:35:35.014523 27248 net.cpp:434] relu1a <- conv1a
I0418 04:35:35.014528 27248 net.cpp:395] relu1a -> conv1a (in-place)
I0418 04:35:35.014955 27248 net.cpp:150] Setting up relu1a
I0418 04:35:35.014967 27248 net.cpp:157] Top shape: 1 64 768 112 112 (616562688)
I0418 04:35:35.014971 27248 net.cpp:165] Memory required for data: 5279319228
I0418 04:35:35.014974 27248 layer_factory.hpp:77] Creating layer pool1
I0418 04:35:35.014983 27248 net.cpp:100] Creating Layer pool1
I0418 04:35:35.014987 27248 net.cpp:434] pool1 <- conv1a
I0418 04:35:35.014992 27248 net.cpp:408] pool1 -> pool1
I0418 04:35:35.015172 27248 net.cpp:150] Setting up pool1
I0418 04:35:35.015182 27248 net.cpp:157] Top shape: 1 64 768 56 56 (154140672)
I0418 04:35:35.015187 27248 net.cpp:165] Memory required for data: 5895881916
I0418 04:35:35.015189 27248 layer_factory.hpp:77] Creating layer conv2a
I0418 04:35:35.015200 27248 net.cpp:100] Creating Layer conv2a
I0418 04:35:35.015204 27248 net.cpp:434] conv2a <- pool1
I0418 04:35:35.015209 27248 net.cpp:408] conv2a -> conv2a
I0418 04:35:35.026201 27248 net.cpp:150] Setting up conv2a
I0418 04:35:35.026221 27248 net.cpp:157] Top shape: 1 128 768 56 56 (308281344)
I0418 04:35:35.026226 27248 net.cpp:165] Memory required for data: 7129007292
I0418 04:35:35.026237 27248 layer_factory.hpp:77] Creating layer relu2a
I0418 04:35:35.026244 27248 net.cpp:100] Creating Layer relu2a
I0418 04:35:35.026248 27248 net.cpp:434] relu2a <- conv2a
I0418 04:35:35.026253 27248 net.cpp:395] relu2a -> conv2a (in-place)
I0418 04:35:35.026552 27248 net.cpp:150] Setting up relu2a
I0418 04:35:35.026566 27248 net.cpp:157] Top shape: 1 128 768 56 56 (308281344)
I0418 04:35:35.026569 27248 net.cpp:165] Memory required for data: 8362132668
I0418 04:35:35.026573 27248 layer_factory.hpp:77] Creating layer pool2
I0418 04:35:35.026582 27248 net.cpp:100] Creating Layer pool2
I0418 04:35:35.026585 27248 net.cpp:434] pool2 <- conv2a
I0418 04:35:35.026590 27248 net.cpp:408] pool2 -> pool2
I0418 04:35:35.026751 27248 net.cpp:150] Setting up pool2
I0418 04:35:35.026782 27248 net.cpp:157] Top shape: 1 128 384 28 28 (38535168)
I0418 04:35:35.026787 27248 net.cpp:165] Memory required for data: 8516273340
I0418 04:35:35.026790 27248 layer_factory.hpp:77] Creating layer conv3a
I0418 04:35:35.026800 27248 net.cpp:100] Creating Layer conv3a
I0418 04:35:35.026803 27248 net.cpp:434] conv3a <- pool2
I0418 04:35:35.026809 27248 net.cpp:408] conv3a -> conv3a
I0418 04:35:35.051028 27248 net.cpp:150] Setting up conv3a
I0418 04:35:35.051043 27248 net.cpp:157] Top shape: 1 256 384 28 28 (77070336)
I0418 04:35:35.051048 27248 net.cpp:165] Memory required for data: 8824554684
I0418 04:35:35.051057 27248 layer_factory.hpp:77] Creating layer relu3a
I0418 04:35:35.051064 27248 net.cpp:100] Creating Layer relu3a
I0418 04:35:35.051067 27248 net.cpp:434] relu3a <- conv3a
I0418 04:35:35.051072 27248 net.cpp:395] relu3a -> conv3a (in-place)
I0418 04:35:35.051347 27248 net.cpp:150] Setting up relu3a
I0418 04:35:35.051362 27248 net.cpp:157] Top shape: 1 256 384 28 28 (77070336)
I0418 04:35:35.051365 27248 net.cpp:165] Memory required for data: 9132836028
I0418 04:35:35.051369 27248 layer_factory.hpp:77] Creating layer conv3b
I0418 04:35:35.051378 27248 net.cpp:100] Creating Layer conv3b
I0418 04:35:35.051383 27248 net.cpp:434] conv3b <- conv3a
I0418 04:35:35.051388 27248 net.cpp:408] conv3b -> conv3b
I0418 04:35:35.099270 27248 net.cpp:150] Setting up conv3b
I0418 04:35:35.099308 27248 net.cpp:157] Top shape: 1 256 384 28 28 (77070336)
I0418 04:35:35.099311 27248 net.cpp:165] Memory required for data: 9441117372
I0418 04:35:35.099320 27248 layer_factory.hpp:77] Creating layer relu3b
I0418 04:35:35.099330 27248 net.cpp:100] Creating Layer relu3b
I0418 04:35:35.099337 27248 net.cpp:434] relu3b <- conv3b
I0418 04:35:35.099342 27248 net.cpp:395] relu3b -> conv3b (in-place)
I0418 04:35:35.099627 27248 net.cpp:150] Setting up relu3b
I0418 04:35:35.099640 27248 net.cpp:157] Top shape: 1 256 384 28 28 (77070336)
I0418 04:35:35.099644 27248 net.cpp:165] Memory required for data: 9749398716
I0418 04:35:35.099648 27248 layer_factory.hpp:77] Creating layer pool3
I0418 04:35:35.099655 27248 net.cpp:100] Creating Layer pool3
I0418 04:35:35.099659 27248 net.cpp:434] pool3 <- conv3b
I0418 04:35:35.099664 27248 net.cpp:408] pool3 -> pool3
I0418 04:35:35.099822 27248 net.cpp:150] Setting up pool3
I0418 04:35:35.099833 27248 net.cpp:157] Top shape: 1 256 192 14 14 (9633792)
I0418 04:35:35.099836 27248 net.cpp:165] Memory required for data: 9787933884
I0418 04:35:35.099840 27248 layer_factory.hpp:77] Creating layer conv4a
I0418 04:35:35.099850 27248 net.cpp:100] Creating Layer conv4a
I0418 04:35:35.099853 27248 net.cpp:434] conv4a <- pool3
I0418 04:35:35.099859 27248 net.cpp:408] conv4a -> conv4a
I0418 04:35:35.195369 27248 net.cpp:150] Setting up conv4a
I0418 04:35:35.195405 27248 net.cpp:157] Top shape: 1 512 192 14 14 (19267584)
I0418 04:35:35.195410 27248 net.cpp:165] Memory required for data: 9865004220
I0418 04:35:35.195422 27248 layer_factory.hpp:77] Creating layer relu4a
I0418 04:35:35.195431 27248 net.cpp:100] Creating Layer relu4a
I0418 04:35:35.195438 27248 net.cpp:434] relu4a <- conv4a
I0418 04:35:35.195447 27248 net.cpp:395] relu4a -> conv4a (in-place)
I0418 04:35:35.195750 27248 net.cpp:150] Setting up relu4a
I0418 04:35:35.195763 27248 net.cpp:157] Top shape: 1 512 192 14 14 (19267584)
I0418 04:35:35.195767 27248 net.cpp:165] Memory required for data: 9942074556
I0418 04:35:35.195770 27248 layer_factory.hpp:77] Creating layer conv4b
I0418 04:35:35.195783 27248 net.cpp:100] Creating Layer conv4b
I0418 04:35:35.195789 27248 net.cpp:434] conv4b <- conv4a
I0418 04:35:35.195796 27248 net.cpp:408] conv4b -> conv4b
I0418 04:35:35.384707 27248 net.cpp:150] Setting up conv4b
I0418 04:35:35.384732 27248 net.cpp:157] Top shape: 1 512 192 14 14 (19267584)
I0418 04:35:35.384735 27248 net.cpp:165] Memory required for data: 10019144892
I0418 04:35:35.384744 27248 layer_factory.hpp:77] Creating layer relu4b
I0418 04:35:35.384753 27248 net.cpp:100] Creating Layer relu4b
I0418 04:35:35.384757 27248 net.cpp:434] relu4b <- conv4b
I0418 04:35:35.384763 27248 net.cpp:395] relu4b -> conv4b (in-place)
I0418 04:35:35.384918 27248 net.cpp:150] Setting up relu4b
I0418 04:35:35.384928 27248 net.cpp:157] Top shape: 1 512 192 14 14 (19267584)
I0418 04:35:35.384932 27248 net.cpp:165] Memory required for data: 10096215228
I0418 04:35:35.384935 27248 layer_factory.hpp:77] Creating layer pool4
I0418 04:35:35.384943 27248 net.cpp:100] Creating Layer pool4
I0418 04:35:35.384946 27248 net.cpp:434] pool4 <- conv4b
I0418 04:35:35.384953 27248 net.cpp:408] pool4 -> pool4
I0418 04:35:35.385273 27248 net.cpp:150] Setting up pool4
I0418 04:35:35.385287 27248 net.cpp:157] Top shape: 1 512 96 7 7 (2408448)
I0418 04:35:35.385290 27248 net.cpp:165] Memory required for data: 10105849020
I0418 04:35:35.385293 27248 layer_factory.hpp:77] Creating layer conv5a
I0418 04:35:35.385304 27248 net.cpp:100] Creating Layer conv5a
I0418 04:35:35.385308 27248 net.cpp:434] conv5a <- pool4
I0418 04:35:35.385314 27248 net.cpp:408] conv5a -> conv5a
I0418 04:35:35.573148 27248 net.cpp:150] Setting up conv5a
I0418 04:35:35.573174 27248 net.cpp:157] Top shape: 1 512 96 7 7 (2408448)
I0418 04:35:35.573179 27248 net.cpp:165] Memory required for data: 10115482812
I0418 04:35:35.573186 27248 layer_factory.hpp:77] Creating layer relu5a
I0418 04:35:35.573196 27248 net.cpp:100] Creating Layer relu5a
I0418 04:35:35.573201 27248 net.cpp:434] relu5a <- conv5a
I0418 04:35:35.573207 27248 net.cpp:395] relu5a -> conv5a (in-place)
I0418 04:35:35.573642 27248 net.cpp:150] Setting up relu5a
I0418 04:35:35.573652 27248 net.cpp:157] Top shape: 1 512 96 7 7 (2408448)
I0418 04:35:35.573657 27248 net.cpp:165] Memory required for data: 10125116604
I0418 04:35:35.573659 27248 layer_factory.hpp:77] Creating layer conv5b
I0418 04:35:35.573671 27248 net.cpp:100] Creating Layer conv5b
I0418 04:35:35.573675 27248 net.cpp:434] conv5b <- conv5a
I0418 04:35:35.573680 27248 net.cpp:408] conv5b -> conv5b
I0418 04:35:35.760700 27248 net.cpp:150] Setting up conv5b
I0418 04:35:35.760733 27248 net.cpp:157] Top shape: 1 512 96 7 7 (2408448)
I0418 04:35:35.760737 27248 net.cpp:165] Memory required for data: 10134750396
I0418 04:35:35.760746 27248 layer_factory.hpp:77] Creating layer relu5b
I0418 04:35:35.760756 27248 net.cpp:100] Creating Layer relu5b
I0418 04:35:35.760761 27248 net.cpp:434] relu5b <- conv5b
I0418 04:35:35.760769 27248 net.cpp:395] relu5b -> conv5b (in-place)
I0418 04:35:35.760915 27248 net.cpp:150] Setting up relu5b
I0418 04:35:35.760924 27248 net.cpp:157] Top shape: 1 512 96 7 7 (2408448)
I0418 04:35:35.760927 27248 net.cpp:165] Memory required for data: 10144384188
I0418 04:35:35.760931 27248 layer_factory.hpp:77] Creating layer conv5b_relu5b_0_split
I0418 04:35:35.760936 27248 net.cpp:100] Creating Layer conv5b_relu5b_0_split
I0418 04:35:35.760941 27248 net.cpp:434] conv5b_relu5b_0_split <- conv5b
I0418 04:35:35.760946 27248 net.cpp:408] conv5b_relu5b_0_split -> conv5b_relu5b_0_split_0
I0418 04:35:35.760952 27248 net.cpp:408] conv5b_relu5b_0_split -> conv5b_relu5b_0_split_1
I0418 04:35:35.760988 27248 net.cpp:150] Setting up conv5b_relu5b_0_split
I0418 04:35:35.760995 27248 net.cpp:157] Top shape: 1 512 96 7 7 (2408448)
I0418 04:35:35.760999 27248 net.cpp:157] Top shape: 1 512 96 7 7 (2408448)
I0418 04:35:35.761003 27248 net.cpp:165] Memory required for data: 10163651772
I0418 04:35:35.761005 27248 layer_factory.hpp:77] Creating layer rpn_conv/3x3
I0418 04:35:35.761019 27248 net.cpp:100] Creating Layer rpn_conv/3x3
I0418 04:35:35.761025 27248 net.cpp:434] rpn_conv/3x3 <- conv5b_relu5b_0_split_0
I0418 04:35:35.761031 27248 net.cpp:408] rpn_conv/3x3 -> rpn/output
I0418 04:35:35.947965 27248 net.cpp:150] Setting up rpn_conv/3x3
I0418 04:35:35.948000 27248 net.cpp:157] Top shape: 1 512 96 4 4 (786432)
I0418 04:35:35.948005 27248 net.cpp:165] Memory required for data: 10166797500
I0418 04:35:35.948019 27248 layer_factory.hpp:77] Creating layer rpn_relu/3x3
I0418 04:35:35.948029 27248 net.cpp:100] Creating Layer rpn_relu/3x3
I0418 04:35:35.948032 27248 net.cpp:434] rpn_relu/3x3 <- rpn/output
I0418 04:35:35.948038 27248 net.cpp:395] rpn_relu/3x3 -> rpn/output (in-place)
I0418 04:35:35.948341 27248 net.cpp:150] Setting up rpn_relu/3x3
I0418 04:35:35.948354 27248 net.cpp:157] Top shape: 1 512 96 4 4 (786432)
I0418 04:35:35.948359 27248 net.cpp:165] Memory required for data: 10169943228
I0418 04:35:35.948362 27248 layer_factory.hpp:77] Creating layer rpn_conv/3x3_2
I0418 04:35:35.948374 27248 net.cpp:100] Creating Layer rpn_conv/3x3_2
I0418 04:35:35.948377 27248 net.cpp:434] rpn_conv/3x3_2 <- rpn/output
I0418 04:35:35.948384 27248 net.cpp:408] rpn_conv/3x3_2 -> rpn/output_2
I0418 04:35:36.136750 27248 net.cpp:150] Setting up rpn_conv/3x3_2
I0418 04:35:36.136776 27248 net.cpp:157] Top shape: 1 512 96 2 2 (196608)
I0418 04:35:36.136780 27248 net.cpp:165] Memory required for data: 10170729660
I0418 04:35:36.136790 27248 layer_factory.hpp:77] Creating layer rpn_relu/3x3_2
I0418 04:35:36.136801 27248 net.cpp:100] Creating Layer rpn_relu/3x3_2
I0418 04:35:36.136806 27248 net.cpp:434] rpn_relu/3x3_2 <- rpn/output_2
I0418 04:35:36.136813 27248 net.cpp:395] rpn_relu/3x3_2 -> rpn/output_2 (in-place)
I0418 04:35:36.137120 27248 net.cpp:150] Setting up rpn_relu/3x3_2
I0418 04:35:36.137132 27248 net.cpp:157] Top shape: 1 512 96 2 2 (196608)
I0418 04:35:36.137136 27248 net.cpp:165] Memory required for data: 10171516092
I0418 04:35:36.137142 27248 layer_factory.hpp:77] Creating layer rpn/output_pool
I0418 04:35:36.137152 27248 net.cpp:100] Creating Layer rpn/output_pool
I0418 04:35:36.137156 27248 net.cpp:434] rpn/output_pool <- rpn/output_2
I0418 04:35:36.137161 27248 net.cpp:408] rpn/output_pool -> rpn/output_pool
I0418 04:35:36.137346 27248 net.cpp:150] Setting up rpn/output_pool
I0418 04:35:36.137356 27248 net.cpp:157] Top shape: 1 512 96 1 1 (49152)
I0418 04:35:36.137359 27248 net.cpp:165] Memory required for data: 10171712700
I0418 04:35:36.137363 27248 layer_factory.hpp:77] Creating layer rpn/output_pool_rpn/output_pool_0_split
I0418 04:35:36.137369 27248 net.cpp:100] Creating Layer rpn/output_pool_rpn/output_pool_0_split
I0418 04:35:36.137372 27248 net.cpp:434] rpn/output_pool_rpn/output_pool_0_split <- rpn/output_pool
I0418 04:35:36.137378 27248 net.cpp:408] rpn/output_pool_rpn/output_pool_0_split -> rpn/output_pool_rpn/output_pool_0_split_0
I0418 04:35:36.137384 27248 net.cpp:408] rpn/output_pool_rpn/output_pool_0_split -> rpn/output_pool_rpn/output_pool_0_split_1
I0418 04:35:36.137414 27248 net.cpp:150] Setting up rpn/output_pool_rpn/output_pool_0_split
I0418 04:35:36.137423 27248 net.cpp:157] Top shape: 1 512 96 1 1 (49152)
I0418 04:35:36.137428 27248 net.cpp:157] Top shape: 1 512 96 1 1 (49152)
I0418 04:35:36.137430 27248 net.cpp:165] Memory required for data: 10172105916
I0418 04:35:36.137434 27248 layer_factory.hpp:77] Creating layer rpn_cls_score
I0418 04:35:36.137444 27248 net.cpp:100] Creating Layer rpn_cls_score
I0418 04:35:36.137449 27248 net.cpp:434] rpn_cls_score <- rpn/output_pool_rpn/output_pool_0_split_0
I0418 04:35:36.137456 27248 net.cpp:408] rpn_cls_score -> rpn_cls_score
I0418 04:35:36.139559 27248 net.cpp:150] Setting up rpn_cls_score
I0418 04:35:36.139572 27248 net.cpp:157] Top shape: 1 74 96 1 1 (7104)
I0418 04:35:36.139576 27248 net.cpp:165] Memory required for data: 10172134332
I0418 04:35:36.139582 27248 layer_factory.hpp:77] Creating layer rpn_cls_score_rpn_cls_score_0_split
I0418 04:35:36.139591 27248 net.cpp:100] Creating Layer rpn_cls_score_rpn_cls_score_0_split
I0418 04:35:36.139596 27248 net.cpp:434] rpn_cls_score_rpn_cls_score_0_split <- rpn_cls_score
I0418 04:35:36.139601 27248 net.cpp:408] rpn_cls_score_rpn_cls_score_0_split -> rpn_cls_score_rpn_cls_score_0_split_0
I0418 04:35:36.139608 27248 net.cpp:408] rpn_cls_score_rpn_cls_score_0_split -> rpn_cls_score_rpn_cls_score_0_split_1
I0418 04:35:36.139652 27248 net.cpp:150] Setting up rpn_cls_score_rpn_cls_score_0_split
I0418 04:35:36.139659 27248 net.cpp:157] Top shape: 1 74 96 1 1 (7104)
I0418 04:35:36.139663 27248 net.cpp:157] Top shape: 1 74 96 1 1 (7104)
I0418 04:35:36.139667 27248 net.cpp:165] Memory required for data: 10172191164
I0418 04:35:36.139669 27248 layer_factory.hpp:77] Creating layer rpn_twin_pred
I0418 04:35:36.139683 27248 net.cpp:100] Creating Layer rpn_twin_pred
I0418 04:35:36.139686 27248 net.cpp:434] rpn_twin_pred <- rpn/output_pool_rpn/output_pool_0_split_1
I0418 04:35:36.139693 27248 net.cpp:408] rpn_twin_pred -> rpn_twin_pred
I0418 04:35:36.141533 27248 net.cpp:150] Setting up rpn_twin_pred
I0418 04:35:36.141556 27248 net.cpp:157] Top shape: 1 74 96 1 1 (7104)
I0418 04:35:36.141559 27248 net.cpp:165] Memory required for data: 10172219580
I0418 04:35:36.141566 27248 layer_factory.hpp:77] Creating layer rpn_twin_pred_rpn_twin_pred_0_split
I0418 04:35:36.141572 27248 net.cpp:100] Creating Layer rpn_twin_pred_rpn_twin_pred_0_split
I0418 04:35:36.141577 27248 net.cpp:434] rpn_twin_pred_rpn_twin_pred_0_split <- rpn_twin_pred
I0418 04:35:36.141582 27248 net.cpp:408] rpn_twin_pred_rpn_twin_pred_0_split -> rpn_twin_pred_rpn_twin_pred_0_split_0
I0418 04:35:36.141587 27248 net.cpp:408] rpn_twin_pred_rpn_twin_pred_0_split -> rpn_twin_pred_rpn_twin_pred_0_split_1
I0418 04:35:36.141623 27248 net.cpp:150] Setting up rpn_twin_pred_rpn_twin_pred_0_split
I0418 04:35:36.141629 27248 net.cpp:157] Top shape: 1 74 96 1 1 (7104)
I0418 04:35:36.141633 27248 net.cpp:157] Top shape: 1 74 96 1 1 (7104)
I0418 04:35:36.141636 27248 net.cpp:165] Memory required for data: 10172276412
I0418 04:35:36.141640 27248 layer_factory.hpp:77] Creating layer rpn_cls_score_reshape
I0418 04:35:36.141650 27248 net.cpp:100] Creating Layer rpn_cls_score_reshape
I0418 04:35:36.141654 27248 net.cpp:434] rpn_cls_score_reshape <- rpn_cls_score_rpn_cls_score_0_split_0
I0418 04:35:36.141660 27248 net.cpp:408] rpn_cls_score_reshape -> rpn_cls_score_reshape
I0418 04:35:36.141685 27248 net.cpp:150] Setting up rpn_cls_score_reshape
I0418 04:35:36.141695 27248 net.cpp:157] Top shape: 1 2 3552 1 1 (7104)
I0418 04:35:36.141697 27248 net.cpp:165] Memory required for data: 10172304828
I0418 04:35:36.141700 27248 layer_factory.hpp:77] Creating layer rpn_cls_score_reshape_rpn_cls_score_reshape_0_split
I0418 04:35:36.141705 27248 net.cpp:100] Creating Layer rpn_cls_score_reshape_rpn_cls_score_reshape_0_split
I0418 04:35:36.141708 27248 net.cpp:434] rpn_cls_score_reshape_rpn_cls_score_reshape_0_split <- rpn_cls_score_reshape
I0418 04:35:36.141713 27248 net.cpp:408] rpn_cls_score_reshape_rpn_cls_score_reshape_0_split -> rpn_cls_score_reshape_rpn_cls_score_reshape_0_split_0
I0418 04:35:36.141723 27248 net.cpp:408] rpn_cls_score_reshape_rpn_cls_score_reshape_0_split -> rpn_cls_score_reshape_rpn_cls_score_reshape_0_split_1
I0418 04:35:36.141728 27248 net.cpp:408] rpn_cls_score_reshape_rpn_cls_score_reshape_0_split -> rpn_cls_score_reshape_rpn_cls_score_reshape_0_split_2
I0418 04:35:36.141767 27248 net.cpp:150] Setting up rpn_cls_score_reshape_rpn_cls_score_reshape_0_split
I0418 04:35:36.141775 27248 net.cpp:157] Top shape: 1 2 3552 1 1 (7104)
I0418 04:35:36.141779 27248 net.cpp:157] Top shape: 1 2 3552 1 1 (7104)
I0418 04:35:36.141783 27248 net.cpp:157] Top shape: 1 2 3552 1 1 (7104)
I0418 04:35:36.141786 27248 net.cpp:165] Memory required for data: 10172390076
I0418 04:35:36.141789 27248 layer_factory.hpp:77] Creating layer rpn-data
I0418 04:35:36.142196 27248 net.cpp:100] Creating Layer rpn-data
I0418 04:35:36.142208 27248 net.cpp:434] rpn-data <- rpn_cls_score_rpn_cls_score_0_split_1
I0418 04:35:36.142213 27248 net.cpp:434] rpn-data <- gt_boxes_data_1_split_0
I0418 04:35:36.142220 27248 net.cpp:434] rpn-data <- data_data_0_split_1
I0418 04:35:36.142225 27248 net.cpp:408] rpn-data -> rpn_labels
I0418 04:35:36.142230 27248 net.cpp:408] rpn-data -> rpn_twin_targets
I0418 04:35:36.142236 27248 net.cpp:408] rpn-data -> rpn_twin_inside_weights
I0418 04:35:36.142242 27248 net.cpp:408] rpn-data -> rpn_twin_outside_weights
I0418 04:35:36.144479 27248 net.cpp:150] Setting up rpn-data
I0418 04:35:36.144503 27248 net.cpp:157] Top shape: 1 1 3552 1 1 (3552)
I0418 04:35:36.144508 27248 net.cpp:157] Top shape: 1 74 96 1 1 (7104)
I0418 04:35:36.144512 27248 net.cpp:157] Top shape: 1 74 96 1 1 (7104)
I0418 04:35:36.144515 27248 net.cpp:157] Top shape: 1 74 96 1 1 (7104)
I0418 04:35:36.144518 27248 net.cpp:165] Memory required for data: 10172489532
I0418 04:35:36.144522 27248 layer_factory.hpp:77] Creating layer rpn_labels_rpn-data_0_split
I0418 04:35:36.144527 27248 net.cpp:100] Creating Layer rpn_labels_rpn-data_0_split
I0418 04:35:36.144531 27248 net.cpp:434] rpn_labels_rpn-data_0_split <- rpn_labels
I0418 04:35:36.144537 27248 net.cpp:408] rpn_labels_rpn-data_0_split -> rpn_labels_rpn-data_0_split_0
I0418 04:35:36.144544 27248 net.cpp:408] rpn_labels_rpn-data_0_split -> rpn_labels_rpn-data_0_split_1
I0418 04:35:36.144574 27248 net.cpp:150] Setting up rpn_labels_rpn-data_0_split
I0418 04:35:36.144582 27248 net.cpp:157] Top shape: 1 1 3552 1 1 (3552)
I0418 04:35:36.144587 27248 net.cpp:157] Top shape: 1 1 3552 1 1 (3552)
I0418 04:35:36.144590 27248 net.cpp:165] Memory required for data: 10172517948
I0418 04:35:36.144593 27248 layer_factory.hpp:77] Creating layer rpn_loss_cls
I0418 04:35:36.144601 27248 net.cpp:100] Creating Layer rpn_loss_cls
I0418 04:35:36.144605 27248 net.cpp:434] rpn_loss_cls <- rpn_cls_score_reshape_rpn_cls_score_reshape_0_split_0
I0418 04:35:36.144610 27248 net.cpp:434] rpn_loss_cls <- rpn_labels_rpn-data_0_split_0
…
I0418 04:35:36.145179 27248 layer_factory.hpp:77] Creating layer rpn_accuarcy
I0418 04:35:36.145187 27248 net.cpp:100] Creating Layer rpn_accuarcy
I0418 04:35:36.145192 27248 net.cpp:434] rpn_accuarcy <- rpn_cls_score_reshape_rpn_cls_score_reshape_0_split_1
I0418 04:35:36.145198 27248 net.cpp:434] rpn_accuarcy <- rpn_labels_rpn-data_0_split_1
I0418 04:35:36.145205 27248 net.cpp:408] rpn_accuarcy -> rpn_accuarcy
I0418 04:35:36.145210 27248 net.cpp:408] rpn_accuarcy -> rpn_accuarcy_class
I0418 04:35:36.145249 27248 net.cpp:150] Setting up rpn_accuarcy
I0418 04:35:36.145257 27248 net.cpp:157] Top shape: (1)
I0418 04:35:36.145262 27248 net.cpp:157] Top shape: 2 (2)
I0418 04:35:36.145265 27248 net.cpp:165] Memory required for data: 10172517968
I0418 04:35:36.145268 27248 layer_factory.hpp:77] Creating layer rpn_cls_prob
I0418 04:35:36.145274 27248 net.cpp:100] Creating Layer rpn_cls_prob
I0418 04:35:36.145277 27248 net.cpp:434] rpn_cls_prob <- rpn_cls_score_reshape_rpn_cls_score_reshape_0_split_2
I0418 04:35:36.145282 27248 net.cpp:408] rpn_cls_prob -> rpn_cls_prob
I0418 04:35:36.145474 27248 net.cpp:150] Setting up rpn_cls_prob
I0418 04:35:36.145485 27248 net.cpp:157] Top shape: 1 2 3552 1 1 (7104)
I0418 04:35:36.145488 27248 net.cpp:165] Memory required for data: 10172546384
I0418 04:35:36.145493 27248 layer_factory.hpp:77] Creating layer rpn_cls_prob_reshape
I0418 04:35:36.145498 27248 net.cpp:100] Creating Layer rpn_cls_prob_reshape
I0418 04:35:36.145501 27248 net.cpp:434] rpn_cls_prob_reshape <- rpn_cls_prob
I0418 04:35:36.145509 27248 net.cpp:408] rpn_cls_prob_reshape -> rpn_cls_prob_reshape
I0418 04:35:36.145531 27248 net.cpp:150] Setting up rpn_cls_prob_reshape
I0418 04:35:36.145539 27248 net.cpp:157] Top shape: 1 74 96 1 1 (7104)
I0418 04:35:36.145542 27248 net.cpp:165] Memory required for data: 10172574800
I0418 04:35:36.145545 27248 layer_factory.hpp:77] Creating layer proposal
I0418 04:35:36.146080 27248 net.cpp:100] Creating Layer proposal
I0418 04:35:36.146092 27248 net.cpp:434] proposal <- rpn_cls_prob_reshape
I0418 04:35:36.146098 27248 net.cpp:434] proposal <- rpn_twin_pred_rpn_twin_pred_0_split_1
I0418 04:35:36.146104 27248 net.cpp:408] proposal -> rpn_rois
I0418 04:35:36.148228 27248 net.cpp:150] Setting up proposal
I0418 04:35:36.148253 27248 net.cpp:157] Top shape: 1 3 (3)
I0418 04:35:36.148257 27248 net.cpp:165] Memory required for data: 10172574812
I0418 04:35:36.148262 27248 layer_factory.hpp:77] Creating layer roi-data
I0418 04:35:36.148398 27248 net.cpp:100] Creating Layer roi-data
I0418 04:35:36.148409 27248 net.cpp:434] roi-data <- rpn_rois
I0418 04:35:36.148416 27248 net.cpp:434] roi-data <- gt_boxes_data_1_split_1
I0418 04:35:36.148421 27248 net.cpp:408] roi-data -> rois
I0418 04:35:36.148427 27248 net.cpp:408] roi-data -> labels
I0418 04:35:36.148433 27248 net.cpp:408] roi-data -> twin_targets
I0418 04:35:36.148439 27248 net.cpp:408] roi-data -> twin_inside_weights
I0418 04:35:36.148444 27248 net.cpp:408] roi-data -> twin_outside_weights
I0418 04:35:36.148751 27248 net.cpp:150] Setting up roi-data
I0418 04:35:36.148763 27248 net.cpp:157] Top shape: 1 3 (3)
I0418 04:35:36.148768 27248 net.cpp:157] Top shape: 1 1 (1)
I0418 04:35:36.148772 27248 net.cpp:157] Top shape: 1 198 (198)
I0418 04:35:36.148775 27248 net.cpp:157] Top shape: 1 198 (198)
I0418 04:35:36.148778 27248 net.cpp:157] Top shape: 1 198 (198)
I0418 04:35:36.148782 27248 net.cpp:165] Memory required for data: 10172577204
I0418 04:35:36.148785 27248 layer_factory.hpp:77] Creating layer labels_roi-data_1_split
I0418 04:35:36.148792 27248 net.cpp:100] Creating Layer labels_roi-data_1_split
I0418 04:35:36.148795 27248 net.cpp:434] labels_roi-data_1_split <- labels
I0418 04:35:36.148802 27248 net.cpp:408] labels_roi-data_1_split -> labels_roi-data_1_split_0
I0418 04:35:36.148810 27248 net.cpp:408] labels_roi-data_1_split -> labels_roi-data_1_split_1
I0418 04:35:36.148841 27248 net.cpp:150] Setting up labels_roi-data_1_split
I0418 04:35:36.148849 27248 net.cpp:157] Top shape: 1 1 (1)
I0418 04:35:36.148854 27248 net.cpp:157] Top shape: 1 1 (1)
I0418 04:35:36.148856 27248 net.cpp:165] Memory required for data: 10172577212
I0418 04:35:36.148860 27248 layer_factory.hpp:77] Creating layer roi_pool5
I0418 04:35:36.148869 27248 net.cpp:100] Creating Layer roi_pool5
I0418 04:35:36.148872 27248 net.cpp:434] roi_pool5 <- conv5b_relu5b_0_split_1
I0418 04:35:36.148877 27248 net.cpp:434] roi_pool5 <- rois
I0418 04:35:36.148882 27248 net.cpp:408] roi_pool5 -> pool5
I0418 04:35:36.148890 27248 roi_pooling_layer.cpp:34] Temporal scale: 0.125
I0418 04:35:36.148896 27248 roi_pooling_layer.cpp:35] Spatial scale: 0.0625
I0418 04:35:36.148931 27248 net.cpp:150] Setting up roi_pool5
I0418 04:35:36.148939 27248 net.cpp:157] Top shape: 1 512 1 4 4 (8192)
I0418 04:35:36.148942 27248 net.cpp:165] Memory required for data: 10172609980
I0418 04:35:36.148946 27248 layer_factory.hpp:77] Creating layer fc6
I0418 04:35:36.148957 27248 net.cpp:100] Creating Layer fc6
I0418 04:35:36.148967 27248 net.cpp:434] fc6 <- pool5
I0418 04:35:36.148972 27248 net.cpp:408] fc6 -> fc6
I0418 04:35:37.033759 27248 net.cpp:150] Setting up fc6
I0418 04:35:37.033783 27248 net.cpp:157] Top shape: 1 4096 (4096)
I0418 04:35:37.033787 27248 net.cpp:165] Memory required for data: 10172626364
I0418 04:35:37.033797 27248 layer_factory.hpp:77] Creating layer relu6
I0418 04:35:37.033805 27248 net.cpp:100] Creating Layer relu6
I0418 04:35:37.033810 27248 net.cpp:434] relu6 <- fc6
I0418 04:35:37.033816 27248 net.cpp:395] relu6 -> fc6 (in-place)
I0418 04:35:37.034226 27248 net.cpp:150] Setting up relu6
I0418 04:35:37.034238 27248 net.cpp:157] Top shape: 1 4096 (4096)
I0418 04:35:37.034242 27248 net.cpp:165] Memory required for data: 10172642748
I0418 04:35:37.034246 27248 layer_factory.hpp:77] Creating layer drop6
I0418 04:35:37.034257 27248 net.cpp:100] Creating Layer drop6
I0418 04:35:37.034261 27248 net.cpp:434] drop6 <- fc6
I0418 04:35:37.034267 27248 net.cpp:395] drop6 -> fc6 (in-place)
I0418 04:35:37.034293 27248 net.cpp:150] Setting up drop6
I0418 04:35:37.034303 27248 net.cpp:157] Top shape: 1 4096 (4096)
I0418 04:35:37.034307 27248 net.cpp:165] Memory required for data: 10172659132
I0418 04:35:37.034312 27248 layer_factory.hpp:77] Creating layer fc6_drop6_0_split
I0418 04:35:37.034317 27248 net.cpp:100] Creating Layer fc6_drop6_0_split
I0418 04:35:37.034322 27248 net.cpp:434] fc6_drop6_0_split <- fc6
I0418 04:35:37.034325 27248 net.cpp:408] fc6_drop6_0_split -> fc6_drop6_0_split_0
I0418 04:35:37.034332 27248 net.cpp:408] fc6_drop6_0_split -> fc6_drop6_0_split_1
I0418 04:35:37.034368 27248 net.cpp:150] Setting up fc6_drop6_0_split
I0418 04:35:37.034376 27248 net.cpp:157] Top shape: 1 4096 (4096)
I0418 04:35:37.034380 27248 net.cpp:157] Top shape: 1 4096 (4096)
I0418 04:35:37.034384 27248 net.cpp:165] Memory required for data: 10172691900
I0418 04:35:37.034386 27248 layer_factory.hpp:77] Creating layer cls_score
I0418 04:35:37.034394 27248 net.cpp:100] Creating Layer cls_score
I0418 04:35:37.034401 27248 net.cpp:434] cls_score <- fc6_drop6_0_split_0
I0418 04:35:37.034406 27248 net.cpp:408] cls_score -> cls_score
I0418 04:35:37.045226 27248 net.cpp:150] Setting up cls_score
I0418 04:35:37.045239 27248 net.cpp:157] Top shape: 1 99 (99)
I0418 04:35:37.045243 27248 net.cpp:165] Memory required for data: 10172692296
I0418 04:35:37.045249 27248 layer_factory.hpp:77] Creating layer cls_score_cls_score_0_split
I0418 04:35:37.045256 27248 net.cpp:100] Creating Layer cls_score_cls_score_0_split
I0418 04:35:37.045260 27248 net.cpp:434] cls_score_cls_score_0_split <- cls_score
I0418 04:35:37.045267 27248 net.cpp:408] cls_score_cls_score_0_split -> cls_score_cls_score_0_split_0
I0418 04:35:37.045274 27248 net.cpp:408] cls_score_cls_score_0_split -> cls_score_cls_score_0_split_1
I0418 04:35:37.045306 27248 net.cpp:150] Setting up cls_score_cls_score_0_split
I0418 04:35:37.045315 27248 net.cpp:157] Top shape: 1 99 (99)
I0418 04:35:37.045318 27248 net.cpp:157] Top shape: 1 99 (99)
I0418 04:35:37.045321 27248 net.cpp:165] Memory required for data: 10172693088
I0418 04:35:37.045325 27248 layer_factory.hpp:77] Creating layer twin_pred
I0418 04:35:37.045333 27248 net.cpp:100] Creating Layer twin_pred
I0418 04:35:37.045337 27248 net.cpp:434] twin_pred <- fc6_drop6_0_split_1
I0418 04:35:37.045344 27248 net.cpp:408] twin_pred -> twin_pred
I0418 04:35:37.066756 27248 net.cpp:150] Setting up twin_pred
I0418 04:35:37.066776 27248 net.cpp:157] Top shape: 1 198 (198)
I0418 04:35:37.066779 27248 net.cpp:165] Memory required for data: 10172693880
I0418 04:35:37.066787 27248 layer_factory.hpp:77] Creating layer loss_cls
I0418 04:35:37.066797 27248 net.cpp:100] Creating Layer loss_cls
I0418 04:35:37.066802 27248 net.cpp:434] loss_cls <- cls_score_cls_score_0_split_0
I0418 04:35:37.066807 27248 net.cpp:434] loss_cls <- labels_roi-data_1_split_0
I0418 04:35:37.066812 27248 net.cpp:408] loss_cls -> loss_cls
…
