…
stepsize: 350000
snapshot: 0
snapshot_prefix: "./experiments/activitynet/snapshot/activitynet"
average_loss: 100
iter_size: 1
I0418 00:18:30.352427  9253 solver.cpp:81] Creating training net from train_net file: ./experiments/activitynet/train.prototxt
I0418 00:18:30.353699  9253 net.cpp:58] Initializing net from parameters: 
name: "activitynet"
state {
  phase: TRAIN
}
layer {
  name: "data"
  type: "Python"
  top: "data"
  top: "gt_boxes"
  python_param {
    module: "roi_data_layer.layer"
    layer: "RoIDataLayer"
    param_str: "\'num_classes\': 100"
  }
}
layer {
  name: "conv1a"
  type: "Convolution"
  bottom: "data"
  top: "conv1a"
  param {
    lr_mult: 0
    decay_mult: 0
  }
  param {
    lr_mult: 0
    decay_mult: 0
  }
  convolution_param {
    num_output: 64
    pad: 1
    pad: 1
    pad: 1
    kernel_size: 3
    kernel_size: 3
    kernel_size: 3
    weight_filler {
      type: "gaussian"
      std: 0.01
    }
    bias_filler {
      type: "constant"
      value: 0
    }
  }
}
layer {
  name: "relu1a"
  type: "ReLU"
  bottom: "conv1a"
  top: "conv1a"
}
layer {
  name: "pool1"
  type: "Pooling"
  bottom: "conv1a"
  top: "pool1"
  pooling_param {
    pool: MAX
    kernel_size: 1
    kernel_size: 2
    kernel_size: 2
    stride: 1
    stride: 2
    stride: 2
  }
}
layer {
  name: "conv2a"
  type: "Convolution"
  bottom: "pool1"
  top: "conv2a"
  param {
    lr_mult: 0
    decay_mult: 0
  }
  param {
    lr_mult: 0
    decay_mult: 0
  }
  convolution_param {
    num_output: 128
    pad: 1
    pad: 1
    pad: 1
    kernel_size: 3
    kernel_size: 3
    kernel_size: 3
    weight_filler {
      type: "gaussian"
      std: 0.01
    }
    bias_filler {
      type: "constant"
      value: 1
    }
  }
}
layer {
  name: "relu2a"
  type: "ReLU"
  bottom: "conv2a"
  top: "conv2a"
}
layer {
  name: "pool2"
  type: "Pooling"
  bottom: "conv2a"
  top: "pool2"
  pooling_param {
    pool: MAX
    kernel_size: 2
    kernel_size: 2
    kernel_size: 2
    stride: 2
    stride: 2
    stride: 2
  }
}
layer {
  name: "conv3a"
  type: "Convolution"
  bottom: "pool2"
  top: "conv3a"
  param {
    lr_mult: 1
    decay_mult: 1
  }
  param {
    lr_mult: 2
    decay_mult: 0
  }
  convolution_param {
    num_output: 256
    pad: 1
    pad: 1
    pad: 1
    kernel_size: 3
    kernel_size: 3
    kernel_size: 3
    weight_filler {
      type: "gaussian"
      std: 0.01
    }
    bias_filler {
      type: "constant"
      value: 1
    }
  }
}
layer {
  name: "relu3a"
  type: "ReLU"
  bottom: "conv3a"
  top: "conv3a"
}
layer {
  name: "conv3b"
  type: "Convolution"
  bottom: "conv3a"
  top: "conv3b"
  param {
    lr_mult: 1
    decay_mult: 1
  }
  param {
    lr_mult: 2
    decay_mult: 0
  }
  convolution_param {
    num_output: 256
    pad: 1
    pad: 1
    pad: 1
    kernel_size: 3
    kernel_size: 3
    kernel_size: 3
    weight_filler {
      type: "gaussian"
      std: 0.01
    }
    bias_filler {
      type: "constant"
      value: 1
    }
  }
}
layer {
  name: "relu3b"
  type: "ReLU"
  bottom: "conv3b"
  top: "conv3b"
}
layer {
  name: "pool3"
  type: "Pooling"
  bottom: "conv3b"
  top: "pool3"
  pooling_param {
    pool: MAX
    kernel_size: 2
    kernel_size: 2
    kernel_size: 2
    stride: 2
    stride: 2
    stride: 2
  }
}
layer {
  name: "conv4a"
  type: "Convolution"
  bottom: "pool3"
  top: "conv4a"
  param {
    lr_mult: 1
    decay_mult: 1
  }
  param {
    lr_mult: 2
    decay_mult: 0
  }
  convolution_param {
    num_output: 512
    pad: 1
    pad: 1
    pad: 1
    kernel_size: 3
    kernel_size: 3
    kernel_size: 3
    weight_filler {
      type: "gaussian"
      std: 0.01
    }
    bias_filler {
      type: "constant"
      value: 1
    }
  }
}
layer {
  name: "relu4a"
  type: "ReLU"
  bottom: "conv4a"
  top: "conv4a"
}
layer {
  name: "conv4b"
  type: "Convolution"
  bottom: "conv4a"
  top: "conv4b"
  param {
    lr_mult: 1
    decay_mult: 1
  }
  param {
    lr_mult: 2
    decay_mult: 0
  }
  convolution_param {
    num_output: 512
    pad: 1
    pad: 1
    pad: 1
    kernel_size: 3
    kernel_size: 3
    kernel_size: 3
    weight_filler {
      type: "gaussian"
      std: 0.01
    }
    bias_filler {
      type: "constant"
      value: 1
    }
  }
}
layer {
  name: "relu4b"
  type: "ReLU"
  bottom: "conv4b"
  top: "conv4b"
}
layer {
  name: "pool4"
  type: "Pooling"
  bottom: "conv4b"
  top: "pool4"
  pooling_param {
    pool: MAX
    kernel_size: 2
    kernel_size: 2
    kernel_size: 2
    stride: 2
    stride: 2
    stride: 2
  }
}
layer {
  name: "conv5a"
  type: "Convolution"
  bottom: "pool4"
  top: "conv5a"
  param {
    lr_mult: 1
    decay_mult: 1
  }
  param {
    lr_mult: 2
    decay_mult: 0
  }
  convolution_param {
    num_output: 512
    pad: 1
    pad: 1
    pad: 1
    kernel_size: 3
    kernel_size: 3
    kernel_size: 3
    weight_filler {
      type: "gaussian"
      std: 0.01
    }
    bias_filler {
      type: "constant"
      value: 1
    }
  }
}
layer {
  name: "relu5a"
  type: "ReLU"
  bottom: "conv5a"
  top: "conv5a"
}
layer {
  name: "conv5b"
  type: "Convolution"
  bottom: "conv5a"
  top: "conv5b"
  param {
    lr_mult: 1
    decay_mult: 1
  }
  param {
    lr_mult: 2
    decay_mult: 0
  }
  convolution_param {
    num_output: 512
    pad: 1
    pad: 1
    pad: 1
    kernel_size: 3
    kernel_size: 3
    kernel_size: 3
    weight_filler {
      type: "gaussian"
      std: 0.01
    }
    bias_filler {
      type: "constant"
      value: 1
    }
  }
}
layer {
  name: "relu5b"
  type: "ReLU"
  bottom: "conv5b"
  top: "conv5b"
}
layer {
  name: "rpn_conv/3x3"
  type: "Convolution"
  bottom: "conv5b"
  top: "rpn/output"
  param {
    lr_mult: 1
    decay_mult: 1
  }
  param {
    lr_mult: 2
    decay_mult: 0
  }
  convolution_param {
    num_output: 512
    pad: 1
    pad: 1
    pad: 1
    kernel_size: 3
    kernel_size: 3
    kernel_size: 3
    stride: 1
    stride: 2
    stride: 2
    weight_filler {
      type: "gaussian"
      std: 0.01
    }
    bias_filler {
      type: "constant"
      value: 0
    }
  }
}
layer {
  name: "rpn_relu/3x3"
  type: "ReLU"
  bottom: "rpn/output"
  top: "rpn/output"
}
layer {
  name: "rpn_conv/3x3_2"
  type: "Convolution"
  bottom: "rpn/output"
  top: "rpn/output_2"
  param {
    lr_mult: 1
    decay_mult: 1
  }
  param {
    lr_mult: 2
    decay_mult: 0
  }
  convolution_param {
    num_output: 512
    pad: 1
    pad: 1
    pad: 1
    kernel_size: 3
    kernel_size: 3
    kernel_size: 3
    stride: 1
    stride: 2
    stride: 2
    weight_filler {
      type: "gaussian"
      std: 0.01
    }
    bias_filler {
      type: "constant"
      value: 0
    }
  }
}
layer {
  name: "rpn_relu/3x3_2"
  type: "ReLU"
  bottom: "rpn/output_2"
  top: "rpn/output_2"
}
layer {
  name: "rpn/output_pool"
  type: "Pooling"
  bottom: "rpn/output_2"
  top: "rpn/output_pool"
  pooling_param {
    pool: MAX
    kernel_size: 1
    kernel_size: 2
    kernel_size: 2
  }
}
layer {
  name: "rpn_cls_score"
  type: "Convolution"
  bottom: "rpn/output_pool"
  top: "rpn_cls_score"
  param {
    lr_mult: 1
    decay_mult: 1
  }
  param {
    lr_mult: 2
    decay_mult: 0
  }
  convolution_param {
    num_output: 74
    kernel_size: 1
    kernel_size: 1
    kernel_size: 1
    weight_filler {
      type: "gaussian"
      std: 0.01
    }
    bias_filler {
      type: "constant"
      value: 0
    }
  }
}
layer {
  name: "rpn_twin_pred"
  type: "Convolution"
  bottom: "rpn/output_pool"
  top: "rpn_twin_pred"
  param {
    lr_mult: 1
    decay_mult: 1
  }
  param {
    lr_mult: 2
    decay_mult: 0
  }
  convolution_param {
    num_output: 74
    kernel_size: 1
    kernel_size: 1
    kernel_size: 1
    weight_filler {
      type: "gaussian"
      std: 0.01
    }
    bias_filler {
      type: "constant"
      value: 0
    }
  }
}
layer {
  name: "rpn_cls_score_reshape"
  type: "Reshape"
  bottom: "rpn_cls_score"
  top: "rpn_cls_score_reshape"
  reshape_param {
    shape {
      dim: 0
      dim: 2
      dim: -1
      dim: 0
      dim: 0
    }
  }
}
layer {
  name: "rpn-data"
  type: "Python"
  bottom: "rpn_cls_score"
  bottom: "gt_boxes"
  bottom: "data"
  top: "rpn_labels"
  top: "rpn_twin_targets"
  top: "rpn_twin_inside_weights"
  top: "rpn_twin_outside_weights"
  python_param {
    module: "rpn.anchor_target_layer"
    layer: "AnchorTargetLayer"
    param_str: "\'feat_stride\': 8 \n\'scales\': !!python/tuple [1,1.25, 1.5,1.75, 2,2.5, 3,3.5, 4,4.5, 5,5.5, 6,7, 8,9,10,11,12,14,16,18,20,22,24,28,32,36,40,44,52,60,68,76,84,92,100]"
  }
}
layer {
  name: "rpn_loss_cls"
  type: "SoftmaxWithLoss"
  bottom: "rpn_cls_score_reshape"
  bottom: "rpn_labels"
  top: "rpn_cls_loss"
  loss_weight: 1
  propagate_down: true
  propagate_down: false
  loss_param {
    ignore_label: -1
    normalize: true
  }
}
layer {
  name: "rpn_loss_twin"
  type: "SmoothL1Loss"
  bottom: "rpn_twin_pred"
  bottom: "rpn_twin_targets"
  bottom: "rpn_twin_inside_weights"
  bottom: "rpn_twin_outside_weights"
  top: "rpn_loss_twin"
  loss_weight: 1
  smooth_l1_loss_param {
    sigma: 3
  }
}
layer {
  name: "rpn_accuarcy"
  type: "Accuracy"
  bottom: "rpn_cls_score_reshape"
  bottom: "rpn_labels"
  top: "rpn_accuarcy"
  top: "rpn_accuarcy_class"
  propagate_down: false
  propagate_down: false
  accuracy_param {
    ignore_label: -1
  }
}
layer {
  name: "rpn_cls_prob"
  type: "Softmax"
  bottom: "rpn_cls_score_reshape"
  top: "rpn_cls_prob"
}
layer {
  name: "rpn_cls_prob_reshape"
  type: "Reshape"
  bottom: "rpn_cls_prob"
  top: "rpn_cls_prob_reshape"
  reshape_param {
    shape {
      dim: 0
      dim: 74
      dim: -1
      dim: 0
      dim: 0
    }
  }
}
layer {
  name: "proposal"
  type: "Python"
  bottom: "rpn_cls_prob_reshape"
  bottom: "rpn_twin_pred"
  top: "rpn_rois"
  include {
    phase: TRAIN
  }
  python_param {
    module: "rpn.proposal_layer"
    layer: "ProposalLayer"
    param_str: "\'feat_stride\': 8 \n\'scales\': !!python/tuple [1,1.25, 1.5,1.75, 2,2.5, 3,3.5, 4,4.5, 5,5.5, 6,7, 8,9,10,11,12,14,16,18,20,22,24,28,32,36,40,44,52,60,68,76,84,92,100]"
  }
}
layer {
  name: "roi-data"
  type: "Python"
  bottom: "rpn_rois"
  bottom: "gt_boxes"
  top: "rois"
  top: "labels"
  top: "twin_targets"
  top: "twin_inside_weights"
  top: "twin_outside_weights"
  python_param {
    module: "rpn.proposal_target_layer"
    layer: "ProposalTargetLayer"
    param_str: "\'num_classes\': 201"
  }
}
layer {
  name: "roi_pool5"
  type: "ROIPooling"
  bottom: "conv5b"
  bottom: "rois"
  top: "pool5"
  roi_pooling_param {
    pooled_h: 4
    pooled_w: 4
    spatial_scale: 0.0625
    pooled_l: 1
    temporal_scale: 0.125
  }
}
layer {
  name: "fc6"
  type: "InnerProduct"
  bottom: "pool5"
  top: "fc6"
  param {
    lr_mult: 1
    decay_mult: 1
  }
  param {
    lr_mult: 2
    decay_mult: 0
  }
  inner_product_param {
    num_output: 4096
    weight_filler {
      type: "gaussian"
      std: 0.005
    }
    bias_filler {
      type: "constant"
      value: 1
    }
  }
}
layer {
  name: "relu6"
  type: "ReLU"
  bottom: "fc6"
  top: "fc6"
}
layer {
  name: "drop6"
  type: "Dropout"
  bottom: "fc6"
  top: "fc6"
  dropout_param {
    dropout_ratio: 0.5
  }
}
layer {
  name: "cls_score"
  type: "InnerProduct"
  bottom: "fc6"
  top: "cls_score"
  param {
    lr_mult: 1
    decay_mult: 1
  }
  param {
    lr_mult: 2
    decay_mult: 0
  }
  inner_product_param {
    num_output: 201
    weight_filler {
      type: "gaussian"
      std: 0.01
    }
    bias_filler {
      type: "constant"
      value: 0
    }
  }
}
layer {
  name: "twin_pred"
  type: "InnerProduct"
  bottom: "fc6"
  top: "twin_pred"
  param {
    lr_mult: 1
    decay_mult: 1
  }
  param {
    lr_mult: 2
    decay_mult: 0
  }
  inner_product_param {
    num_output: 402
    weight_filler {
      type: "gaussian"
      std: 0.001
    }
    bias_filler {
      type: "constant"
      value: 0
    }
  }
}
layer {
  name: "loss_cls"
  type: "SoftmaxWithLoss"
  bottom: "cls_score"
  bottom: "labels"
  top: "loss_cls"
  loss_weight: 1
  propagate_down: true
  propagate_down: false
}
layer {
  name: "loss_twin"
  type: "SmoothL1Loss"
  bottom: "twin_pred"
  bottom: "twin_targets"
  bottom: "twin_inside_weights"
  bottom: "twin_outside_weights"
  top: "loss_twin"
  loss_weight: 1
}
layer {
  name: "accuarcy"
  type: "Accuracy"
  bottom: "cls_score"
  bottom: "labels"
  top: "accuarcy"
  propagate_down: false
  propagate_down: false
  accuracy_param {
    ignore_label: -1
  }
}
I0418 00:18:30.354030  9253 layer_factory.hpp:77] Creating layer data
I0418 00:18:30.379401  9253 net.cpp:100] Creating Layer data
I0418 00:18:30.379425  9253 net.cpp:408] data -> data
I0418 00:18:30.379438  9253 net.cpp:408] data -> gt_boxes
setting up
has rpn
RoiDataLayer: name_to_top: {'gt_windows': 1, 'data': 0}
I0418 00:18:30.411329  9253 net.cpp:150] Setting up data
I0418 00:18:30.411353  9253 net.cpp:157] Top shape: 1 3 768 112 112 (28901376)
I0418 00:18:30.411360  9253 net.cpp:157] Top shape: 1 101 (101)
I0418 00:18:30.411363  9253 net.cpp:165] Memory required for data: 115605908
I0418 00:18:30.411370  9253 layer_factory.hpp:77] Creating layer data_data_0_split
I0418 00:18:30.411382  9253 net.cpp:100] Creating Layer data_data_0_split
I0418 00:18:30.411386  9253 net.cpp:434] data_data_0_split <- data
I0418 00:18:30.411392  9253 net.cpp:408] data_data_0_split -> data_data_0_split_0
I0418 00:18:30.411402  9253 net.cpp:408] data_data_0_split -> data_data_0_split_1
I0418 00:18:30.411432  9253 net.cpp:150] Setting up data_data_0_split
I0418 00:18:30.411440  9253 net.cpp:157] Top shape: 1 3 768 112 112 (28901376)
I0418 00:18:30.411445  9253 net.cpp:157] Top shape: 1 3 768 112 112 (28901376)
I0418 00:18:30.411448  9253 net.cpp:165] Memory required for data: 346816916
I0418 00:18:30.411453  9253 layer_factory.hpp:77] Creating layer gt_boxes_data_1_split
I0418 00:18:30.411459  9253 net.cpp:100] Creating Layer gt_boxes_data_1_split
I0418 00:18:30.411463  9253 net.cpp:434] gt_boxes_data_1_split <- gt_boxes
I0418 00:18:30.411468  9253 net.cpp:408] gt_boxes_data_1_split -> gt_boxes_data_1_split_0
I0418 00:18:30.411473  9253 net.cpp:408] gt_boxes_data_1_split -> gt_boxes_data_1_split_1
I0418 00:18:30.411497  9253 net.cpp:150] Setting up gt_boxes_data_1_split
I0418 00:18:30.411504  9253 net.cpp:157] Top shape: 1 101 (101)
I0418 00:18:30.411509  9253 net.cpp:157] Top shape: 1 101 (101)
I0418 00:18:30.411512  9253 net.cpp:165] Memory required for data: 346817724
I0418 00:18:30.411516  9253 layer_factory.hpp:77] Creating layer conv1a
I0418 00:18:30.411530  9253 net.cpp:100] Creating Layer conv1a
I0418 00:18:30.411535  9253 net.cpp:434] conv1a <- data_data_0_split_0
I0418 00:18:30.411540  9253 net.cpp:408] conv1a -> conv1a
I0418 00:18:31.436755  9253 net.cpp:150] Setting up conv1a
I0418 00:18:31.436794  9253 net.cpp:157] Top shape: 1 64 768 112 112 (616562688)
I0418 00:18:31.436801  9253 net.cpp:165] Memory required for data: 2813068476
I0418 00:18:31.436825  9253 layer_factory.hpp:77] Creating layer relu1a
I0418 00:18:31.436837  9253 net.cpp:100] Creating Layer relu1a
I0418 00:18:31.436842  9253 net.cpp:434] relu1a <- conv1a
I0418 00:18:31.436848  9253 net.cpp:395] relu1a -> conv1a (in-place)
I0418 00:18:31.437325  9253 net.cpp:150] Setting up relu1a
I0418 00:18:31.437340  9253 net.cpp:157] Top shape: 1 64 768 112 112 (616562688)
I0418 00:18:31.437347  9253 net.cpp:165] Memory required for data: 5279319228
I0418 00:18:31.437353  9253 layer_factory.hpp:77] Creating layer pool1
I0418 00:18:31.437366  9253 net.cpp:100] Creating Layer pool1
I0418 00:18:31.437376  9253 net.cpp:434] pool1 <- conv1a
I0418 00:18:31.437386  9253 net.cpp:408] pool1 -> pool1
I0418 00:18:31.437603  9253 net.cpp:150] Setting up pool1
I0418 00:18:31.437615  9253 net.cpp:157] Top shape: 1 64 768 56 56 (154140672)
I0418 00:18:31.437619  9253 net.cpp:165] Memory required for data: 5895881916
I0418 00:18:31.437625  9253 layer_factory.hpp:77] Creating layer conv2a
I0418 00:18:31.437638  9253 net.cpp:100] Creating Layer conv2a
I0418 00:18:31.437645  9253 net.cpp:434] conv2a <- pool1
I0418 00:18:31.437662  9253 net.cpp:408] conv2a -> conv2a
I0418 00:18:31.449470  9253 net.cpp:150] Setting up conv2a
I0418 00:18:31.449496  9253 net.cpp:157] Top shape: 1 128 768 56 56 (308281344)
I0418 00:18:31.449501  9253 net.cpp:165] Memory required for data: 7129007292
I0418 00:18:31.449512  9253 layer_factory.hpp:77] Creating layer relu2a
I0418 00:18:31.449522  9253 net.cpp:100] Creating Layer relu2a
I0418 00:18:31.449527  9253 net.cpp:434] relu2a <- conv2a
I0418 00:18:31.449533  9253 net.cpp:395] relu2a -> conv2a (in-place)
I0418 00:18:31.449873  9253 net.cpp:150] Setting up relu2a
I0418 00:18:31.449885  9253 net.cpp:157] Top shape: 1 128 768 56 56 (308281344)
I0418 00:18:31.449889  9253 net.cpp:165] Memory required for data: 8362132668
I0418 00:18:31.449893  9253 layer_factory.hpp:77] Creating layer pool2
I0418 00:18:31.449903  9253 net.cpp:100] Creating Layer pool2
I0418 00:18:31.449906  9253 net.cpp:434] pool2 <- conv2a
I0418 00:18:31.449913  9253 net.cpp:408] pool2 -> pool2
I0418 00:18:31.451261  9253 net.cpp:150] Setting up pool2
I0418 00:18:31.451272  9253 net.cpp:157] Top shape: 1 128 384 28 28 (38535168)
I0418 00:18:31.451277  9253 net.cpp:165] Memory required for data: 8516273340
I0418 00:18:31.451280  9253 layer_factory.hpp:77] Creating layer conv3a
I0418 00:18:31.451290  9253 net.cpp:100] Creating Layer conv3a
I0418 00:18:31.451294  9253 net.cpp:434] conv3a <- pool2
I0418 00:18:31.451301  9253 net.cpp:408] conv3a -> conv3a
I0418 00:18:31.477617  9253 net.cpp:150] Setting up conv3a
I0418 00:18:31.477635  9253 net.cpp:157] Top shape: 1 256 384 28 28 (77070336)
I0418 00:18:31.477639  9253 net.cpp:165] Memory required for data: 8824554684
I0418 00:18:31.477653  9253 layer_factory.hpp:77] Creating layer relu3a
I0418 00:18:31.477663  9253 net.cpp:100] Creating Layer relu3a
I0418 00:18:31.477674  9253 net.cpp:434] relu3a <- conv3a
I0418 00:18:31.477684  9253 net.cpp:395] relu3a -> conv3a (in-place)
I0418 00:18:31.478082  9253 net.cpp:150] Setting up relu3a
I0418 00:18:31.478096  9253 net.cpp:157] Top shape: 1 256 384 28 28 (77070336)
I0418 00:18:31.478099  9253 net.cpp:165] Memory required for data: 9132836028
I0418 00:18:31.478103  9253 layer_factory.hpp:77] Creating layer conv3b
I0418 00:18:31.478114  9253 net.cpp:100] Creating Layer conv3b
I0418 00:18:31.478118  9253 net.cpp:434] conv3b <- conv3a
I0418 00:18:31.478129  9253 net.cpp:408] conv3b -> conv3b
I0418 00:18:31.529215  9253 net.cpp:150] Setting up conv3b
I0418 00:18:31.529239  9253 net.cpp:157] Top shape: 1 256 384 28 28 (77070336)
I0418 00:18:31.529243  9253 net.cpp:165] Memory required for data: 9441117372
I0418 00:18:31.529253  9253 layer_factory.hpp:77] Creating layer relu3b
I0418 00:18:31.529263  9253 net.cpp:100] Creating Layer relu3b
I0418 00:18:31.529268  9253 net.cpp:434] relu3b <- conv3b
I0418 00:18:31.529274  9253 net.cpp:395] relu3b -> conv3b (in-place)
I0418 00:18:31.529608  9253 net.cpp:150] Setting up relu3b
I0418 00:18:31.529620  9253 net.cpp:157] Top shape: 1 256 384 28 28 (77070336)
I0418 00:18:31.529623  9253 net.cpp:165] Memory required for data: 9749398716
I0418 00:18:31.529628  9253 layer_factory.hpp:77] Creating layer pool3
I0418 00:18:31.529635  9253 net.cpp:100] Creating Layer pool3
I0418 00:18:31.529639  9253 net.cpp:434] pool3 <- conv3b
I0418 00:18:31.529646  9253 net.cpp:408] pool3 -> pool3
I0418 00:18:31.529815  9253 net.cpp:150] Setting up pool3
I0418 00:18:31.529826  9253 net.cpp:157] Top shape: 1 256 192 14 14 (9633792)
I0418 00:18:31.529829  9253 net.cpp:165] Memory required for data: 9787933884
I0418 00:18:31.529834  9253 layer_factory.hpp:77] Creating layer conv4a
I0418 00:18:31.529844  9253 net.cpp:100] Creating Layer conv4a
I0418 00:18:31.529850  9253 net.cpp:434] conv4a <- pool3
I0418 00:18:31.529857  9253 net.cpp:408] conv4a -> conv4a
I0418 00:18:31.626538  9253 net.cpp:150] Setting up conv4a
I0418 00:18:31.626562  9253 net.cpp:157] Top shape: 1 512 192 14 14 (19267584)
I0418 00:18:31.626566  9253 net.cpp:165] Memory required for data: 9865004220
I0418 00:18:31.626580  9253 layer_factory.hpp:77] Creating layer relu4a
I0418 00:18:31.626590  9253 net.cpp:100] Creating Layer relu4a
I0418 00:18:31.626593  9253 net.cpp:434] relu4a <- conv4a
I0418 00:18:31.626600  9253 net.cpp:395] relu4a -> conv4a (in-place)
I0418 00:18:31.626943  9253 net.cpp:150] Setting up relu4a
I0418 00:18:31.626956  9253 net.cpp:157] Top shape: 1 512 192 14 14 (19267584)
I0418 00:18:31.626960  9253 net.cpp:165] Memory required for data: 9942074556
I0418 00:18:31.626965  9253 layer_factory.hpp:77] Creating layer conv4b
I0418 00:18:31.626977  9253 net.cpp:100] Creating Layer conv4b
I0418 00:18:31.626983  9253 net.cpp:434] conv4b <- conv4a
I0418 00:18:31.626991  9253 net.cpp:408] conv4b -> conv4b
I0418 00:18:31.818883  9253 net.cpp:150] Setting up conv4b
I0418 00:18:31.818907  9253 net.cpp:157] Top shape: 1 512 192 14 14 (19267584)
I0418 00:18:31.818912  9253 net.cpp:165] Memory required for data: 10019144892
I0418 00:18:31.818920  9253 layer_factory.hpp:77] Creating layer relu4b
I0418 00:18:31.818929  9253 net.cpp:100] Creating Layer relu4b
I0418 00:18:31.818934  9253 net.cpp:434] relu4b <- conv4b
I0418 00:18:31.818941  9253 net.cpp:395] relu4b -> conv4b (in-place)
I0418 00:18:31.819093  9253 net.cpp:150] Setting up relu4b
I0418 00:18:31.819104  9253 net.cpp:157] Top shape: 1 512 192 14 14 (19267584)
I0418 00:18:31.819108  9253 net.cpp:165] Memory required for data: 10096215228
I0418 00:18:31.819111  9253 layer_factory.hpp:77] Creating layer pool4
I0418 00:18:31.819120  9253 net.cpp:100] Creating Layer pool4
I0418 00:18:31.819124  9253 net.cpp:434] pool4 <- conv4b
I0418 00:18:31.819130  9253 net.cpp:408] pool4 -> pool4
I0418 00:18:31.819479  9253 net.cpp:150] Setting up pool4
I0418 00:18:31.819492  9253 net.cpp:157] Top shape: 1 512 96 7 7 (2408448)
I0418 00:18:31.819495  9253 net.cpp:165] Memory required for data: 10105849020
I0418 00:18:31.819499  9253 layer_factory.hpp:77] Creating layer conv5a
I0418 00:18:31.819511  9253 net.cpp:100] Creating Layer conv5a
I0418 00:18:31.819515  9253 net.cpp:434] conv5a <- pool4
I0418 00:18:31.819522  9253 net.cpp:408] conv5a -> conv5a
I0418 00:18:32.014609  9253 net.cpp:150] Setting up conv5a
I0418 00:18:32.014636  9253 net.cpp:157] Top shape: 1 512 96 7 7 (2408448)
I0418 00:18:32.014639  9253 net.cpp:165] Memory required for data: 10115482812
I0418 00:18:32.014648  9253 layer_factory.hpp:77] Creating layer relu5a
I0418 00:18:32.014657  9253 net.cpp:100] Creating Layer relu5a
I0418 00:18:32.014662  9253 net.cpp:434] relu5a <- conv5a
I0418 00:18:32.014669  9253 net.cpp:395] relu5a -> conv5a (in-place)
I0418 00:18:32.015199  9253 net.cpp:150] Setting up relu5a
I0418 00:18:32.015223  9253 net.cpp:157] Top shape: 1 512 96 7 7 (2408448)
I0418 00:18:32.015226  9253 net.cpp:165] Memory required for data: 10125116604
I0418 00:18:32.015230  9253 layer_factory.hpp:77] Creating layer conv5b
I0418 00:18:32.015244  9253 net.cpp:100] Creating Layer conv5b
I0418 00:18:32.015247  9253 net.cpp:434] conv5b <- conv5a
I0418 00:18:32.015254  9253 net.cpp:408] conv5b -> conv5b
I0418 00:18:32.204761  9253 net.cpp:150] Setting up conv5b
I0418 00:18:32.204787  9253 net.cpp:157] Top shape: 1 512 96 7 7 (2408448)
I0418 00:18:32.204792  9253 net.cpp:165] Memory required for data: 10134750396
I0418 00:18:32.204802  9253 layer_factory.hpp:77] Creating layer relu5b
I0418 00:18:32.204812  9253 net.cpp:100] Creating Layer relu5b
I0418 00:18:32.204816  9253 net.cpp:434] relu5b <- conv5b
I0418 00:18:32.204823  9253 net.cpp:395] relu5b -> conv5b (in-place)
I0418 00:18:32.205677  9253 net.cpp:150] Setting up relu5b
I0418 00:18:32.205698  9253 net.cpp:157] Top shape: 1 512 96 7 7 (2408448)
I0418 00:18:32.205701  9253 net.cpp:165] Memory required for data: 10144384188
I0418 00:18:32.205705  9253 layer_factory.hpp:77] Creating layer conv5b_relu5b_0_split
I0418 00:18:32.205713  9253 net.cpp:100] Creating Layer conv5b_relu5b_0_split
I0418 00:18:32.205716  9253 net.cpp:434] conv5b_relu5b_0_split <- conv5b
I0418 00:18:32.205723  9253 net.cpp:408] conv5b_relu5b_0_split -> conv5b_relu5b_0_split_0
I0418 00:18:32.205729  9253 net.cpp:408] conv5b_relu5b_0_split -> conv5b_relu5b_0_split_1
I0418 00:18:32.205767  9253 net.cpp:150] Setting up conv5b_relu5b_0_split
I0418 00:18:32.205776  9253 net.cpp:157] Top shape: 1 512 96 7 7 (2408448)
I0418 00:18:32.205781  9253 net.cpp:157] Top shape: 1 512 96 7 7 (2408448)
I0418 00:18:32.205785  9253 net.cpp:165] Memory required for data: 10163651772
I0418 00:18:32.205788  9253 layer_factory.hpp:77] Creating layer rpn_conv/3x3
I0418 00:18:32.205798  9253 net.cpp:100] Creating Layer rpn_conv/3x3
I0418 00:18:32.205802  9253 net.cpp:434] rpn_conv/3x3 <- conv5b_relu5b_0_split_0
I0418 00:18:32.205809  9253 net.cpp:408] rpn_conv/3x3 -> rpn/output
I0418 00:18:32.396658  9253 net.cpp:150] Setting up rpn_conv/3x3
I0418 00:18:32.396682  9253 net.cpp:157] Top shape: 1 512 96 4 4 (786432)
I0418 00:18:32.396687  9253 net.cpp:165] Memory required for data: 10166797500
I0418 00:18:32.396701  9253 layer_factory.hpp:77] Creating layer rpn_relu/3x3
I0418 00:18:32.396714  9253 net.cpp:100] Creating Layer rpn_relu/3x3
I0418 00:18:32.396719  9253 net.cpp:434] rpn_relu/3x3 <- rpn/output
I0418 00:18:32.396725  9253 net.cpp:395] rpn_relu/3x3 -> rpn/output (in-place)
I0418 00:18:32.397228  9253 net.cpp:150] Setting up rpn_relu/3x3
I0418 00:18:32.397240  9253 net.cpp:157] Top shape: 1 512 96 4 4 (786432)
I0418 00:18:32.397244  9253 net.cpp:165] Memory required for data: 10169943228
I0418 00:18:32.397248  9253 layer_factory.hpp:77] Creating layer rpn_conv/3x3_2
I0418 00:18:32.397261  9253 net.cpp:100] Creating Layer rpn_conv/3x3_2
I0418 00:18:32.397266  9253 net.cpp:434] rpn_conv/3x3_2 <- rpn/output
I0418 00:18:32.397276  9253 net.cpp:408] rpn_conv/3x3_2 -> rpn/output_2
I0418 00:18:32.598340  9253 net.cpp:150] Setting up rpn_conv/3x3_2
I0418 00:18:32.598372  9253 net.cpp:157] Top shape: 1 512 96 2 2 (196608)
I0418 00:18:32.598381  9253 net.cpp:165] Memory required for data: 10170729660
I0418 00:18:32.598393  9253 layer_factory.hpp:77] Creating layer rpn_relu/3x3_2
I0418 00:18:32.598407  9253 net.cpp:100] Creating Layer rpn_relu/3x3_2
I0418 00:18:32.598413  9253 net.cpp:434] rpn_relu/3x3_2 <- rpn/output_2
I0418 00:18:32.598419  9253 net.cpp:395] rpn_relu/3x3_2 -> rpn/output_2 (in-place)
I0418 00:18:32.599397  9253 net.cpp:150] Setting up rpn_relu/3x3_2
I0418 00:18:32.599414  9253 net.cpp:157] Top shape: 1 512 96 2 2 (196608)
I0418 00:18:32.599421  9253 net.cpp:165] Memory required for data: 10171516092
I0418 00:18:32.599427  9253 layer_factory.hpp:77] Creating layer rpn/output_pool
I0418 00:18:32.599440  9253 net.cpp:100] Creating Layer rpn/output_pool
I0418 00:18:32.599447  9253 net.cpp:434] rpn/output_pool <- rpn/output_2
I0418 00:18:32.599455  9253 net.cpp:408] rpn/output_pool -> rpn/output_pool
I0418 00:18:32.600574  9253 net.cpp:150] Setting up rpn/output_pool
I0418 00:18:32.600589  9253 net.cpp:157] Top shape: 1 512 96 1 1 (49152)
I0418 00:18:32.600594  9253 net.cpp:165] Memory required for data: 10171712700
I0418 00:18:32.600601  9253 layer_factory.hpp:77] Creating layer rpn/output_pool_rpn/output_pool_0_split
I0418 00:18:32.600611  9253 net.cpp:100] Creating Layer rpn/output_pool_rpn/output_pool_0_split
I0418 00:18:32.600615  9253 net.cpp:434] rpn/output_pool_rpn/output_pool_0_split <- rpn/output_pool
I0418 00:18:32.600620  9253 net.cpp:408] rpn/output_pool_rpn/output_pool_0_split -> rpn/output_pool_rpn/output_pool_0_split_0
I0418 00:18:32.600626  9253 net.cpp:408] rpn/output_pool_rpn/output_pool_0_split -> rpn/output_pool_rpn/output_pool_0_split_1
I0418 00:18:32.600677  9253 net.cpp:150] Setting up rpn/output_pool_rpn/output_pool_0_split
I0418 00:18:32.600688  9253 net.cpp:157] Top shape: 1 512 96 1 1 (49152)
I0418 00:18:32.600692  9253 net.cpp:157] Top shape: 1 512 96 1 1 (49152)
I0418 00:18:32.600695  9253 net.cpp:165] Memory required for data: 10172105916
I0418 00:18:32.600699  9253 layer_factory.hpp:77] Creating layer rpn_cls_score
I0418 00:18:32.600718  9253 net.cpp:100] Creating Layer rpn_cls_score
I0418 00:18:32.600725  9253 net.cpp:434] rpn_cls_score <- rpn/output_pool_rpn/output_pool_0_split_0
I0418 00:18:32.600733  9253 net.cpp:408] rpn_cls_score -> rpn_cls_score
I0418 00:18:32.605093  9253 net.cpp:150] Setting up rpn_cls_score
I0418 00:18:32.605106  9253 net.cpp:157] Top shape: 1 74 96 1 1 (7104)
I0418 00:18:32.605110  9253 net.cpp:165] Memory required for data: 10172134332
I0418 00:18:32.605116  9253 layer_factory.hpp:77] Creating layer rpn_cls_score_rpn_cls_score_0_split
I0418 00:18:32.605123  9253 net.cpp:100] Creating Layer rpn_cls_score_rpn_cls_score_0_split
I0418 00:18:32.605126  9253 net.cpp:434] rpn_cls_score_rpn_cls_score_0_split <- rpn_cls_score
I0418 00:18:32.605132  9253 net.cpp:408] rpn_cls_score_rpn_cls_score_0_split -> rpn_cls_score_rpn_cls_score_0_split_0
I0418 00:18:32.605139  9253 net.cpp:408] rpn_cls_score_rpn_cls_score_0_split -> rpn_cls_score_rpn_cls_score_0_split_1
I0418 00:18:32.605178  9253 net.cpp:150] Setting up rpn_cls_score_rpn_cls_score_0_split
I0418 00:18:32.605186  9253 net.cpp:157] Top shape: 1 74 96 1 1 (7104)
I0418 00:18:32.605190  9253 net.cpp:157] Top shape: 1 74 96 1 1 (7104)
I0418 00:18:32.605193  9253 net.cpp:165] Memory required for data: 10172191164
I0418 00:18:32.605197  9253 layer_factory.hpp:77] Creating layer rpn_twin_pred
I0418 00:18:32.605211  9253 net.cpp:100] Creating Layer rpn_twin_pred
I0418 00:18:32.605217  9253 net.cpp:434] rpn_twin_pred <- rpn/output_pool_rpn/output_pool_0_split_1
I0418 00:18:32.605224  9253 net.cpp:408] rpn_twin_pred -> rpn_twin_pred
I0418 00:18:32.609705  9253 net.cpp:150] Setting up rpn_twin_pred
I0418 00:18:32.609724  9253 net.cpp:157] Top shape: 1 74 96 1 1 (7104)
I0418 00:18:32.609735  9253 net.cpp:165] Memory required for data: 10172219580
I0418 00:18:32.609746  9253 layer_factory.hpp:77] Creating layer rpn_twin_pred_rpn_twin_pred_0_split
I0418 00:18:32.609755  9253 net.cpp:100] Creating Layer rpn_twin_pred_rpn_twin_pred_0_split
I0418 00:18:32.609762  9253 net.cpp:434] rpn_twin_pred_rpn_twin_pred_0_split <- rpn_twin_pred
I0418 00:18:32.609769  9253 net.cpp:408] rpn_twin_pred_rpn_twin_pred_0_split -> rpn_twin_pred_rpn_twin_pred_0_split_0
I0418 00:18:32.609786  9253 net.cpp:408] rpn_twin_pred_rpn_twin_pred_0_split -> rpn_twin_pred_rpn_twin_pred_0_split_1
I0418 00:18:32.609838  9253 net.cpp:150] Setting up rpn_twin_pred_rpn_twin_pred_0_split
I0418 00:18:32.609851  9253 net.cpp:157] Top shape: 1 74 96 1 1 (7104)
I0418 00:18:32.609861  9253 net.cpp:157] Top shape: 1 74 96 1 1 (7104)
I0418 00:18:32.609868  9253 net.cpp:165] Memory required for data: 10172276412
I0418 00:18:32.609874  9253 layer_factory.hpp:77] Creating layer rpn_cls_score_reshape
I0418 00:18:32.609891  9253 net.cpp:100] Creating Layer rpn_cls_score_reshape
I0418 00:18:32.609899  9253 net.cpp:434] rpn_cls_score_reshape <- rpn_cls_score_rpn_cls_score_0_split_0
I0418 00:18:32.609908  9253 net.cpp:408] rpn_cls_score_reshape -> rpn_cls_score_reshape
I0418 00:18:32.609957  9253 net.cpp:150] Setting up rpn_cls_score_reshape
I0418 00:18:32.609969  9253 net.cpp:157] Top shape: 1 2 3552 1 1 (7104)
I0418 00:18:32.609975  9253 net.cpp:165] Memory required for data: 10172304828
I0418 00:18:32.609980  9253 layer_factory.hpp:77] Creating layer rpn_cls_score_reshape_rpn_cls_score_reshape_0_split
I0418 00:18:32.609988  9253 net.cpp:100] Creating Layer rpn_cls_score_reshape_rpn_cls_score_reshape_0_split
I0418 00:18:32.609997  9253 net.cpp:434] rpn_cls_score_reshape_rpn_cls_score_reshape_0_split <- rpn_cls_score_reshape
I0418 00:18:32.610008  9253 net.cpp:408] rpn_cls_score_reshape_rpn_cls_score_reshape_0_split -> rpn_cls_score_reshape_rpn_cls_score_reshape_0_split_0
I0418 00:18:32.610020  9253 net.cpp:408] rpn_cls_score_reshape_rpn_cls_score_reshape_0_split -> rpn_cls_score_reshape_rpn_cls_score_reshape_0_split_1
I0418 00:18:32.610030  9253 net.cpp:408] rpn_cls_score_reshape_rpn_cls_score_reshape_0_split -> rpn_cls_score_reshape_rpn_cls_score_reshape_0_split_2
I0418 00:18:32.610095  9253 net.cpp:150] Setting up rpn_cls_score_reshape_rpn_cls_score_reshape_0_split
I0418 00:18:32.610108  9253 net.cpp:157] Top shape: 1 2 3552 1 1 (7104)
I0418 00:18:32.610116  9253 net.cpp:157] Top shape: 1 2 3552 1 1 (7104)
I0418 00:18:32.610126  9253 net.cpp:157] Top shape: 1 2 3552 1 1 (7104)
I0418 00:18:32.610133  9253 net.cpp:165] Memory required for data: 10172390076
I0418 00:18:32.610138  9253 layer_factory.hpp:77] Creating layer rpn-data
I0418 00:18:32.610625  9253 net.cpp:100] Creating Layer rpn-data
I0418 00:18:32.610636  9253 net.cpp:434] rpn-data <- rpn_cls_score_rpn_cls_score_0_split_1
I0418 00:18:32.610642  9253 net.cpp:434] rpn-data <- gt_boxes_data_1_split_0
I0418 00:18:32.610647  9253 net.cpp:434] rpn-data <- data_data_0_split_1
I0418 00:18:32.610652  9253 net.cpp:408] rpn-data -> rpn_labels
I0418 00:18:32.610661  9253 net.cpp:408] rpn-data -> rpn_twin_targets
I0418 00:18:32.610673  9253 net.cpp:408] rpn-data -> rpn_twin_inside_weights
I0418 00:18:32.610682  9253 net.cpp:408] rpn-data -> rpn_twin_outside_weights
I0418 00:18:32.612926  9253 net.cpp:150] Setting up rpn-data
I0418 00:18:32.612941  9253 net.cpp:157] Top shape: 1 1 3552 1 1 (3552)
I0418 00:18:32.612946  9253 net.cpp:157] Top shape: 1 74 96 1 1 (7104)
I0418 00:18:32.612951  9253 net.cpp:157] Top shape: 1 74 96 1 1 (7104)
I0418 00:18:32.612954  9253 net.cpp:157] Top shape: 1 74 96 1 1 (7104)
I0418 00:18:32.612957  9253 net.cpp:165] Memory required for data: 10172489532
I0418 00:18:32.612962  9253 layer_factory.hpp:77] Creating layer rpn_labels_rpn-data_0_split
I0418 00:18:32.612967  9253 net.cpp:100] Creating Layer rpn_labels_rpn-data_0_split
I0418 00:18:32.612972  9253 net.cpp:434] rpn_labels_rpn-data_0_split <- rpn_labels
I0418 00:18:32.612977  9253 net.cpp:408] rpn_labels_rpn-data_0_split -> rpn_labels_rpn-data_0_split_0
I0418 00:18:32.612984  9253 net.cpp:408] rpn_labels_rpn-data_0_split -> rpn_labels_rpn-data_0_split_1
I0418 00:18:32.613015  9253 net.cpp:150] Setting up rpn_labels_rpn-data_0_split
I0418 00:18:32.613023  9253 net.cpp:157] Top shape: 1 1 3552 1 1 (3552)
I0418 00:18:32.613028  9253 net.cpp:157] Top shape: 1 1 3552 1 1 (3552)
I0418 00:18:32.613031  9253 net.cpp:165] Memory required for data: 10172517948
I0418 00:18:32.613034  9253 layer_factory.hpp:77] Creating layer rpn_loss_cls
I0418 00:18:32.613044  9253 net.cpp:100] Creating Layer rpn_loss_cls
I0418 00:18:32.613050  9253 net.cpp:434] rpn_loss_cls <- rpn_cls_score_reshape_rpn_cls_score_reshape_0_split_0
I0418 00:18:32.613056  9253 net.cpp:434] rpn_loss_cls <- rpn_labels_rpn-data_0_split_0
…
I0418 00:18:32.613647  9253 layer_factory.hpp:77] Creating layer rpn_accuarcy
I0418 00:18:32.613656  9253 net.cpp:100] Creating Layer rpn_accuarcy
I0418 00:18:32.613659  9253 net.cpp:434] rpn_accuarcy <- rpn_cls_score_reshape_rpn_cls_score_reshape_0_split_1
I0418 00:18:32.613663  9253 net.cpp:434] rpn_accuarcy <- rpn_labels_rpn-data_0_split_1
I0418 00:18:32.613670  9253 net.cpp:408] rpn_accuarcy -> rpn_accuarcy
I0418 00:18:32.613677  9253 net.cpp:408] rpn_accuarcy -> rpn_accuarcy_class
I0418 00:18:32.613718  9253 net.cpp:150] Setting up rpn_accuarcy
I0418 00:18:32.613726  9253 net.cpp:157] Top shape: (1)
I0418 00:18:32.613730  9253 net.cpp:157] Top shape: 2 (2)
I0418 00:18:32.613734  9253 net.cpp:165] Memory required for data: 10172517968
I0418 00:18:32.613737  9253 layer_factory.hpp:77] Creating layer rpn_cls_prob
I0418 00:18:32.613742  9253 net.cpp:100] Creating Layer rpn_cls_prob
I0418 00:18:32.613746  9253 net.cpp:434] rpn_cls_prob <- rpn_cls_score_reshape_rpn_cls_score_reshape_0_split_2
I0418 00:18:32.613750  9253 net.cpp:408] rpn_cls_prob -> rpn_cls_prob
I0418 00:18:32.614264  9253 net.cpp:150] Setting up rpn_cls_prob
I0418 00:18:32.614279  9253 net.cpp:157] Top shape: 1 2 3552 1 1 (7104)
I0418 00:18:32.614284  9253 net.cpp:165] Memory required for data: 10172546384
I0418 00:18:32.614287  9253 layer_factory.hpp:77] Creating layer rpn_cls_prob_reshape
I0418 00:18:32.614293  9253 net.cpp:100] Creating Layer rpn_cls_prob_reshape
I0418 00:18:32.614298  9253 net.cpp:434] rpn_cls_prob_reshape <- rpn_cls_prob
I0418 00:18:32.614303  9253 net.cpp:408] rpn_cls_prob_reshape -> rpn_cls_prob_reshape
I0418 00:18:32.614329  9253 net.cpp:150] Setting up rpn_cls_prob_reshape
I0418 00:18:32.614338  9253 net.cpp:157] Top shape: 1 74 96 1 1 (7104)
I0418 00:18:32.614341  9253 net.cpp:165] Memory required for data: 10172574800
I0418 00:18:32.614344  9253 layer_factory.hpp:77] Creating layer proposal
I0418 00:18:32.614920  9253 net.cpp:100] Creating Layer proposal
I0418 00:18:32.614933  9253 net.cpp:434] proposal <- rpn_cls_prob_reshape
I0418 00:18:32.614939  9253 net.cpp:434] proposal <- rpn_twin_pred_rpn_twin_pred_0_split_1
I0418 00:18:32.614944  9253 net.cpp:408] proposal -> rpn_rois
I0418 00:18:32.617768  9253 net.cpp:150] Setting up proposal
I0418 00:18:32.617781  9253 net.cpp:157] Top shape: 1 3 (3)
I0418 00:18:32.617786  9253 net.cpp:165] Memory required for data: 10172574812
I0418 00:18:32.617790  9253 layer_factory.hpp:77] Creating layer roi-data
I0418 00:18:32.619300  9253 net.cpp:100] Creating Layer roi-data
I0418 00:18:32.619314  9253 net.cpp:434] roi-data <- rpn_rois
I0418 00:18:32.619319  9253 net.cpp:434] roi-data <- gt_boxes_data_1_split_1
I0418 00:18:32.619326  9253 net.cpp:408] roi-data -> rois
I0418 00:18:32.619334  9253 net.cpp:408] roi-data -> labels
I0418 00:18:32.619340  9253 net.cpp:408] roi-data -> twin_targets
I0418 00:18:32.619349  9253 net.cpp:408] roi-data -> twin_inside_weights
I0418 00:18:32.619354  9253 net.cpp:408] roi-data -> twin_outside_weights
I0418 00:18:32.619659  9253 net.cpp:150] Setting up roi-data
I0418 00:18:32.619673  9253 net.cpp:157] Top shape: 1 3 (3)
I0418 00:18:32.619678  9253 net.cpp:157] Top shape: 1 1 (1)
I0418 00:18:32.619681  9253 net.cpp:157] Top shape: 1 402 (402)
I0418 00:18:32.619685  9253 net.cpp:157] Top shape: 1 402 (402)
I0418 00:18:32.619689  9253 net.cpp:157] Top shape: 1 402 (402)
I0418 00:18:32.619693  9253 net.cpp:165] Memory required for data: 10172579652
I0418 00:18:32.619698  9253 layer_factory.hpp:77] Creating layer labels_roi-data_1_split
I0418 00:18:32.619702  9253 net.cpp:100] Creating Layer labels_roi-data_1_split
I0418 00:18:32.619706  9253 net.cpp:434] labels_roi-data_1_split <- labels
I0418 00:18:32.619712  9253 net.cpp:408] labels_roi-data_1_split -> labels_roi-data_1_split_0
I0418 00:18:32.619719  9253 net.cpp:408] labels_roi-data_1_split -> labels_roi-data_1_split_1
I0418 00:18:32.619750  9253 net.cpp:150] Setting up labels_roi-data_1_split
I0418 00:18:32.619758  9253 net.cpp:157] Top shape: 1 1 (1)
I0418 00:18:32.619762  9253 net.cpp:157] Top shape: 1 1 (1)
I0418 00:18:32.619766  9253 net.cpp:165] Memory required for data: 10172579660
I0418 00:18:32.619770  9253 layer_factory.hpp:77] Creating layer roi_pool5
I0418 00:18:32.619779  9253 net.cpp:100] Creating Layer roi_pool5
I0418 00:18:32.619786  9253 net.cpp:434] roi_pool5 <- conv5b_relu5b_0_split_1
I0418 00:18:32.619791  9253 net.cpp:434] roi_pool5 <- rois
I0418 00:18:32.619796  9253 net.cpp:408] roi_pool5 -> pool5
I0418 00:18:32.619804  9253 roi_pooling_layer.cpp:34] Temporal scale: 0.125
I0418 00:18:32.619810  9253 roi_pooling_layer.cpp:35] Spatial scale: 0.0625
I0418 00:18:32.619841  9253 net.cpp:150] Setting up roi_pool5
I0418 00:18:32.619849  9253 net.cpp:157] Top shape: 1 512 1 4 4 (8192)
I0418 00:18:32.619853  9253 net.cpp:165] Memory required for data: 10172612428
I0418 00:18:32.619856  9253 layer_factory.hpp:77] Creating layer fc6
I0418 00:18:32.619868  9253 net.cpp:100] Creating Layer fc6
I0418 00:18:32.619871  9253 net.cpp:434] fc6 <- pool5
I0418 00:18:32.619877  9253 net.cpp:408] fc6 -> fc6
I0418 00:18:33.519485  9253 net.cpp:150] Setting up fc6
I0418 00:18:33.519512  9253 net.cpp:157] Top shape: 1 4096 (4096)
I0418 00:18:33.519520  9253 net.cpp:165] Memory required for data: 10172628812
I0418 00:18:33.519533  9253 layer_factory.hpp:77] Creating layer relu6
I0418 00:18:33.519544  9253 net.cpp:100] Creating Layer relu6
I0418 00:18:33.519551  9253 net.cpp:434] relu6 <- fc6
I0418 00:18:33.519557  9253 net.cpp:395] relu6 -> fc6 (in-place)
I0418 00:18:33.520016  9253 net.cpp:150] Setting up relu6
I0418 00:18:33.520033  9253 net.cpp:157] Top shape: 1 4096 (4096)
I0418 00:18:33.520040  9253 net.cpp:165] Memory required for data: 10172645196
I0418 00:18:33.520048  9253 layer_factory.hpp:77] Creating layer drop6
I0418 00:18:33.520061  9253 net.cpp:100] Creating Layer drop6
I0418 00:18:33.520069  9253 net.cpp:434] drop6 <- fc6
I0418 00:18:33.520076  9253 net.cpp:395] drop6 -> fc6 (in-place)
I0418 00:18:33.520104  9253 net.cpp:150] Setting up drop6
I0418 00:18:33.520113  9253 net.cpp:157] Top shape: 1 4096 (4096)
I0418 00:18:33.520117  9253 net.cpp:165] Memory required for data: 10172661580
I0418 00:18:33.520120  9253 layer_factory.hpp:77] Creating layer fc6_drop6_0_split
I0418 00:18:33.520128  9253 net.cpp:100] Creating Layer fc6_drop6_0_split
I0418 00:18:33.520131  9253 net.cpp:434] fc6_drop6_0_split <- fc6
I0418 00:18:33.520136  9253 net.cpp:408] fc6_drop6_0_split -> fc6_drop6_0_split_0
I0418 00:18:33.520143  9253 net.cpp:408] fc6_drop6_0_split -> fc6_drop6_0_split_1
I0418 00:18:33.520174  9253 net.cpp:150] Setting up fc6_drop6_0_split
I0418 00:18:33.520181  9253 net.cpp:157] Top shape: 1 4096 (4096)
I0418 00:18:33.520185  9253 net.cpp:157] Top shape: 1 4096 (4096)
I0418 00:18:33.520190  9253 net.cpp:165] Memory required for data: 10172694348
I0418 00:18:33.520193  9253 layer_factory.hpp:77] Creating layer cls_score
I0418 00:18:33.520200  9253 net.cpp:100] Creating Layer cls_score
I0418 00:18:33.520205  9253 net.cpp:434] cls_score <- fc6_drop6_0_split_0
I0418 00:18:33.520210  9253 net.cpp:408] cls_score -> cls_score
I0418 00:18:33.542666  9253 net.cpp:150] Setting up cls_score
I0418 00:18:33.542690  9253 net.cpp:157] Top shape: 1 201 (201)
I0418 00:18:33.542695  9253 net.cpp:165] Memory required for data: 10172695152
I0418 00:18:33.542706  9253 layer_factory.hpp:77] Creating layer cls_score_cls_score_0_split
I0418 00:18:33.542714  9253 net.cpp:100] Creating Layer cls_score_cls_score_0_split
I0418 00:18:33.542721  9253 net.cpp:434] cls_score_cls_score_0_split <- cls_score
I0418 00:18:33.542726  9253 net.cpp:408] cls_score_cls_score_0_split -> cls_score_cls_score_0_split_0
I0418 00:18:33.542737  9253 net.cpp:408] cls_score_cls_score_0_split -> cls_score_cls_score_0_split_1
I0418 00:18:33.542786  9253 net.cpp:150] Setting up cls_score_cls_score_0_split
I0418 00:18:33.542794  9253 net.cpp:157] Top shape: 1 201 (201)
I0418 00:18:33.542799  9253 net.cpp:157] Top shape: 1 201 (201)
I0418 00:18:33.542806  9253 net.cpp:165] Memory required for data: 10172696760
I0418 00:18:33.542810  9253 layer_factory.hpp:77] Creating layer twin_pred
I0418 00:18:33.542822  9253 net.cpp:100] Creating Layer twin_pred
I0418 00:18:33.542827  9253 net.cpp:434] twin_pred <- fc6_drop6_0_split_1
I0418 00:18:33.542834  9253 net.cpp:408] twin_pred -> twin_pred
I0418 00:18:33.587041  9253 net.cpp:150] Setting up twin_pred
I0418 00:18:33.587067  9253 net.cpp:157] Top shape: 1 402 (402)
I0418 00:18:33.587072  9253 net.cpp:165] Memory required for data: 10172698368
I0418 00:18:33.587082  9253 layer_factory.hpp:77] Creating layer loss_cls
I0418 00:18:33.587091  9253 net.cpp:100] Creating Layer loss_cls
I0418 00:18:33.587097  9253 net.cpp:434] loss_cls <- cls_score_cls_score_0_split_0
I0418 00:18:33.587105  9253 net.cpp:434] loss_cls <- labels_roi-data_1_split_0
I0418 00:18:33.587111  9253 net.cpp:408] loss_cls -> loss_cls
…
