…
stepsize: 350000
snapshot: 0
snapshot_prefix: "./experiments/activitynet/snapshot/activitynet"
average_loss: 100
iter_size: 1
I0417 04:04:45.975366 29182 solver.cpp:81] Creating training net from train_net file: ./experiments/activitynet/train.prototxt
I0417 04:04:45.976472 29182 net.cpp:58] Initializing net from parameters: 
name: "activitynet"
state {
  phase: TRAIN
}
layer {
  name: "data"
  type: "Python"
  top: "data"
  top: "gt_boxes"
  python_param {
    module: "roi_data_layer.layer"
    layer: "RoIDataLayer"
    param_str: "\'num_classes\': 100"
  }
}
layer {
  name: "conv1a"
  type: "Convolution"
  bottom: "data"
  top: "conv1a"
  param {
    lr_mult: 0
    decay_mult: 0
  }
  param {
    lr_mult: 0
    decay_mult: 0
  }
  convolution_param {
    num_output: 64
    pad: 1
    pad: 1
    pad: 1
    kernel_size: 3
    kernel_size: 3
    kernel_size: 3
    weight_filler {
      type: "gaussian"
      std: 0.01
    }
    bias_filler {
      type: "constant"
      value: 0
    }
  }
}
layer {
  name: "relu1a"
  type: "ReLU"
  bottom: "conv1a"
  top: "conv1a"
}
layer {
  name: "pool1"
  type: "Pooling"
  bottom: "conv1a"
  top: "pool1"
  pooling_param {
    pool: MAX
    kernel_size: 1
    kernel_size: 2
    kernel_size: 2
    stride: 1
    stride: 2
    stride: 2
  }
}
layer {
  name: "conv2a"
  type: "Convolution"
  bottom: "pool1"
  top: "conv2a"
  param {
    lr_mult: 0
    decay_mult: 0
  }
  param {
    lr_mult: 0
    decay_mult: 0
  }
  convolution_param {
    num_output: 128
    pad: 1
    pad: 1
    pad: 1
    kernel_size: 3
    kernel_size: 3
    kernel_size: 3
    weight_filler {
      type: "gaussian"
      std: 0.01
    }
    bias_filler {
      type: "constant"
      value: 1
    }
  }
}
layer {
  name: "relu2a"
  type: "ReLU"
  bottom: "conv2a"
  top: "conv2a"
}
layer {
  name: "pool2"
  type: "Pooling"
  bottom: "conv2a"
  top: "pool2"
  pooling_param {
    pool: MAX
    kernel_size: 2
    kernel_size: 2
    kernel_size: 2
    stride: 2
    stride: 2
    stride: 2
  }
}
layer {
  name: "conv3a"
  type: "Convolution"
  bottom: "pool2"
  top: "conv3a"
  param {
    lr_mult: 1
    decay_mult: 1
  }
  param {
    lr_mult: 2
    decay_mult: 0
  }
  convolution_param {
    num_output: 256
    pad: 1
    pad: 1
    pad: 1
    kernel_size: 3
    kernel_size: 3
    kernel_size: 3
    weight_filler {
      type: "gaussian"
      std: 0.01
    }
    bias_filler {
      type: "constant"
      value: 1
    }
  }
}
layer {
  name: "relu3a"
  type: "ReLU"
  bottom: "conv3a"
  top: "conv3a"
}
layer {
  name: "conv3b"
  type: "Convolution"
  bottom: "conv3a"
  top: "conv3b"
  param {
    lr_mult: 1
    decay_mult: 1
  }
  param {
    lr_mult: 2
    decay_mult: 0
  }
  convolution_param {
    num_output: 256
    pad: 1
    pad: 1
    pad: 1
    kernel_size: 3
    kernel_size: 3
    kernel_size: 3
    weight_filler {
      type: "gaussian"
      std: 0.01
    }
    bias_filler {
      type: "constant"
      value: 1
    }
  }
}
layer {
  name: "relu3b"
  type: "ReLU"
  bottom: "conv3b"
  top: "conv3b"
}
layer {
  name: "pool3"
  type: "Pooling"
  bottom: "conv3b"
  top: "pool3"
  pooling_param {
    pool: MAX
    kernel_size: 2
    kernel_size: 2
    kernel_size: 2
    stride: 2
    stride: 2
    stride: 2
  }
}
layer {
  name: "conv4a"
  type: "Convolution"
  bottom: "pool3"
  top: "conv4a"
  param {
    lr_mult: 1
    decay_mult: 1
  }
  param {
    lr_mult: 2
    decay_mult: 0
  }
  convolution_param {
    num_output: 512
    pad: 1
    pad: 1
    pad: 1
    kernel_size: 3
    kernel_size: 3
    kernel_size: 3
    weight_filler {
      type: "gaussian"
      std: 0.01
    }
    bias_filler {
      type: "constant"
      value: 1
    }
  }
}
layer {
  name: "relu4a"
  type: "ReLU"
  bottom: "conv4a"
  top: "conv4a"
}
layer {
  name: "conv4b"
  type: "Convolution"
  bottom: "conv4a"
  top: "conv4b"
  param {
    lr_mult: 1
    decay_mult: 1
  }
  param {
    lr_mult: 2
    decay_mult: 0
  }
  convolution_param {
    num_output: 512
    pad: 1
    pad: 1
    pad: 1
    kernel_size: 3
    kernel_size: 3
    kernel_size: 3
    weight_filler {
      type: "gaussian"
      std: 0.01
    }
    bias_filler {
      type: "constant"
      value: 1
    }
  }
}
layer {
  name: "relu4b"
  type: "ReLU"
  bottom: "conv4b"
  top: "conv4b"
}
layer {
  name: "pool4"
  type: "Pooling"
  bottom: "conv4b"
  top: "pool4"
  pooling_param {
    pool: MAX
    kernel_size: 2
    kernel_size: 2
    kernel_size: 2
    stride: 2
    stride: 2
    stride: 2
  }
}
layer {
  name: "conv5a"
  type: "Convolution"
  bottom: "pool4"
  top: "conv5a"
  param {
    lr_mult: 1
    decay_mult: 1
  }
  param {
    lr_mult: 2
    decay_mult: 0
  }
  convolution_param {
    num_output: 512
    pad: 1
    pad: 1
    pad: 1
    kernel_size: 3
    kernel_size: 3
    kernel_size: 3
    weight_filler {
      type: "gaussian"
      std: 0.01
    }
    bias_filler {
      type: "constant"
      value: 1
    }
  }
}
layer {
  name: "relu5a"
  type: "ReLU"
  bottom: "conv5a"
  top: "conv5a"
}
layer {
  name: "conv5b"
  type: "Convolution"
  bottom: "conv5a"
  top: "conv5b"
  param {
    lr_mult: 1
    decay_mult: 1
  }
  param {
    lr_mult: 2
    decay_mult: 0
  }
  convolution_param {
    num_output: 512
    pad: 1
    pad: 1
    pad: 1
    kernel_size: 3
    kernel_size: 3
    kernel_size: 3
    weight_filler {
      type: "gaussian"
      std: 0.01
    }
    bias_filler {
      type: "constant"
      value: 1
    }
  }
}
layer {
  name: "relu5b"
  type: "ReLU"
  bottom: "conv5b"
  top: "conv5b"
}
layer {
  name: "rpn_conv/3x3"
  type: "Convolution"
  bottom: "conv5b"
  top: "rpn/output"
  param {
    lr_mult: 1
    decay_mult: 1
  }
  param {
    lr_mult: 2
    decay_mult: 0
  }
  convolution_param {
    num_output: 512
    pad: 1
    pad: 1
    pad: 1
    kernel_size: 3
    kernel_size: 3
    kernel_size: 3
    stride: 1
    stride: 2
    stride: 2
    weight_filler {
      type: "gaussian"
      std: 0.01
    }
    bias_filler {
      type: "constant"
      value: 0
    }
  }
}
layer {
  name: "rpn_relu/3x3"
  type: "ReLU"
  bottom: "rpn/output"
  top: "rpn/output"
}
layer {
  name: "rpn_conv/3x3_2"
  type: "Convolution"
  bottom: "rpn/output"
  top: "rpn/output_2"
  param {
    lr_mult: 1
    decay_mult: 1
  }
  param {
    lr_mult: 2
    decay_mult: 0
  }
  convolution_param {
    num_output: 512
    pad: 1
    pad: 1
    pad: 1
    kernel_size: 3
    kernel_size: 3
    kernel_size: 3
    stride: 1
    stride: 2
    stride: 2
    weight_filler {
      type: "gaussian"
      std: 0.01
    }
    bias_filler {
      type: "constant"
      value: 0
    }
  }
}
layer {
  name: "rpn_relu/3x3_2"
  type: "ReLU"
  bottom: "rpn/output_2"
  top: "rpn/output_2"
}
layer {
  name: "rpn/output_pool"
  type: "Pooling"
  bottom: "rpn/output_2"
  top: "rpn/output_pool"
  pooling_param {
    pool: MAX
    kernel_size: 1
    kernel_size: 2
    kernel_size: 2
  }
}
layer {
  name: "rpn_cls_score"
  type: "Convolution"
  bottom: "rpn/output_pool"
  top: "rpn_cls_score"
  param {
    lr_mult: 1
    decay_mult: 1
  }
  param {
    lr_mult: 2
    decay_mult: 0
  }
  convolution_param {
    num_output: 74
    kernel_size: 1
    kernel_size: 1
    kernel_size: 1
    weight_filler {
      type: "gaussian"
      std: 0.01
    }
    bias_filler {
      type: "constant"
      value: 0
    }
  }
}
layer {
  name: "rpn_twin_pred"
  type: "Convolution"
  bottom: "rpn/output_pool"
  top: "rpn_twin_pred"
  param {
    lr_mult: 1
    decay_mult: 1
  }
  param {
    lr_mult: 2
    decay_mult: 0
  }
  convolution_param {
    num_output: 74
    kernel_size: 1
    kernel_size: 1
    kernel_size: 1
    weight_filler {
      type: "gaussian"
      std: 0.01
    }
    bias_filler {
      type: "constant"
      value: 0
    }
  }
}
layer {
  name: "rpn_cls_score_reshape"
  type: "Reshape"
  bottom: "rpn_cls_score"
  top: "rpn_cls_score_reshape"
  reshape_param {
    shape {
      dim: 0
      dim: 2
      dim: -1
      dim: 0
      dim: 0
    }
  }
}
layer {
  name: "rpn-data"
  type: "Python"
  bottom: "rpn_cls_score"
  bottom: "gt_boxes"
  bottom: "data"
  top: "rpn_labels"
  top: "rpn_twin_targets"
  top: "rpn_twin_inside_weights"
  top: "rpn_twin_outside_weights"
  python_param {
    module: "rpn.anchor_target_layer"
    layer: "AnchorTargetLayer"
    param_str: "\'feat_stride\': 8 \n\'scales\': !!python/tuple [1,1.25, 1.5,1.75, 2,2.5, 3,3.5, 4,4.5, 5,5.5, 6,7, 8,9,10,11,12,14,16,18,20,22,24,28,32,36,40,44,52,60,68,76,84,92,100]"
  }
}
layer {
  name: "rpn_loss_cls"
  type: "SoftmaxWithLoss"
  bottom: "rpn_cls_score_reshape"
  bottom: "rpn_labels"
  top: "rpn_cls_loss"
  loss_weight: 1
  propagate_down: true
  propagate_down: false
  loss_param {
    ignore_label: -1
    normalize: true
  }
}
layer {
  name: "rpn_loss_twin"
  type: "SmoothL1Loss"
  bottom: "rpn_twin_pred"
  bottom: "rpn_twin_targets"
  bottom: "rpn_twin_inside_weights"
  bottom: "rpn_twin_outside_weights"
  top: "rpn_loss_twin"
  loss_weight: 1
  smooth_l1_loss_param {
    sigma: 3
  }
}
layer {
  name: "rpn_accuarcy"
  type: "Accuracy"
  bottom: "rpn_cls_score_reshape"
  bottom: "rpn_labels"
  top: "rpn_accuarcy"
  top: "rpn_accuarcy_class"
  propagate_down: false
  propagate_down: false
  accuracy_param {
    ignore_label: -1
  }
}
layer {
  name: "rpn_cls_prob"
  type: "Softmax"
  bottom: "rpn_cls_score_reshape"
  top: "rpn_cls_prob"
}
layer {
  name: "rpn_cls_prob_reshape"
  type: "Reshape"
  bottom: "rpn_cls_prob"
  top: "rpn_cls_prob_reshape"
  reshape_param {
    shape {
      dim: 0
      dim: 74
      dim: -1
      dim: 0
      dim: 0
    }
  }
}
layer {
  name: "proposal"
  type: "Python"
  bottom: "rpn_cls_prob_reshape"
  bottom: "rpn_twin_pred"
  top: "rpn_rois"
  include {
    phase: TRAIN
  }
  python_param {
    module: "rpn.proposal_layer"
    layer: "ProposalLayer"
    param_str: "\'feat_stride\': 8 \n\'scales\': !!python/tuple [1,1.25, 1.5,1.75, 2,2.5, 3,3.5, 4,4.5, 5,5.5, 6,7, 8,9,10,11,12,14,16,18,20,22,24,28,32,36,40,44,52,60,68,76,84,92,100]"
  }
}
layer {
  name: "roi-data"
  type: "Python"
  bottom: "rpn_rois"
  bottom: "gt_boxes"
  top: "rois"
  top: "labels"
  top: "twin_targets"
  top: "twin_inside_weights"
  top: "twin_outside_weights"
  python_param {
    module: "rpn.proposal_target_layer"
    layer: "ProposalTargetLayer"
    param_str: "\'num_classes\': 201"
  }
}
layer {
  name: "roi_pool5"
  type: "ROIPooling"
  bottom: "conv5b"
  bottom: "rois"
  top: "pool5"
  roi_pooling_param {
    pooled_h: 4
    pooled_w: 4
    spatial_scale: 0.0625
    pooled_l: 1
    temporal_scale: 0.125
  }
}
layer {
  name: "fc6"
  type: "InnerProduct"
  bottom: "pool5"
  top: "fc6"
  param {
    lr_mult: 1
    decay_mult: 1
  }
  param {
    lr_mult: 2
    decay_mult: 0
  }
  inner_product_param {
    num_output: 4096
    weight_filler {
      type: "gaussian"
      std: 0.005
    }
    bias_filler {
      type: "constant"
      value: 1
    }
  }
}
layer {
  name: "relu6"
  type: "ReLU"
  bottom: "fc6"
  top: "fc6"
}
layer {
  name: "drop6"
  type: "Dropout"
  bottom: "fc6"
  top: "fc6"
  dropout_param {
    dropout_ratio: 0.5
  }
}
layer {
  name: "cls_score"
  type: "InnerProduct"
  bottom: "fc6"
  top: "cls_score"
  param {
    lr_mult: 1
    decay_mult: 1
  }
  param {
    lr_mult: 2
    decay_mult: 0
  }
  inner_product_param {
    num_output: 201
    weight_filler {
      type: "gaussian"
      std: 0.01
    }
    bias_filler {
      type: "constant"
      value: 0
    }
  }
}
layer {
  name: "twin_pred"
  type: "InnerProduct"
  bottom: "fc6"
  top: "twin_pred"
  param {
    lr_mult: 1
    decay_mult: 1
  }
  param {
    lr_mult: 2
    decay_mult: 0
  }
  inner_product_param {
    num_output: 402
    weight_filler {
      type: "gaussian"
      std: 0.001
    }
    bias_filler {
      type: "constant"
      value: 0
    }
  }
}
layer {
  name: "loss_cls"
  type: "SoftmaxWithLoss"
  bottom: "cls_score"
  bottom: "labels"
  top: "loss_cls"
  loss_weight: 1
  propagate_down: true
  propagate_down: false
}
layer {
  name: "loss_twin"
  type: "SmoothL1Loss"
  bottom: "twin_pred"
  bottom: "twin_targets"
  bottom: "twin_inside_weights"
  bottom: "twin_outside_weights"
  top: "loss_twin"
  loss_weight: 1
}
layer {
  name: "accuarcy"
  type: "Accuracy"
  bottom: "cls_score"
  bottom: "labels"
  top: "accuarcy"
  propagate_down: false
  propagate_down: false
  accuracy_param {
    ignore_label: -1
  }
}
I0417 04:04:45.976812 29182 layer_factory.hpp:77] Creating layer data
I0417 04:04:46.003412 29182 net.cpp:100] Creating Layer data
I0417 04:04:46.003450 29182 net.cpp:408] data -> data
I0417 04:04:46.003473 29182 net.cpp:408] data -> gt_boxes
setting up
RoiDataLayer: name_to_top: {'gt_windows': 1, 'data': 0}
I0417 04:04:46.019582 29182 net.cpp:150] Setting up data
I0417 04:04:46.019610 29182 net.cpp:157] Top shape: 1 3 768 112 112 (28901376)
I0417 04:04:46.019621 29182 net.cpp:157] Top shape: 1 101 (101)
I0417 04:04:46.019628 29182 net.cpp:165] Memory required for data: 115605908
I0417 04:04:46.019636 29182 layer_factory.hpp:77] Creating layer data_data_0_split
I0417 04:04:46.019652 29182 net.cpp:100] Creating Layer data_data_0_split
I0417 04:04:46.019662 29182 net.cpp:434] data_data_0_split <- data
I0417 04:04:46.019673 29182 net.cpp:408] data_data_0_split -> data_data_0_split_0
I0417 04:04:46.019691 29182 net.cpp:408] data_data_0_split -> data_data_0_split_1
I0417 04:04:46.019755 29182 net.cpp:150] Setting up data_data_0_split
I0417 04:04:46.019767 29182 net.cpp:157] Top shape: 1 3 768 112 112 (28901376)
I0417 04:04:46.019774 29182 net.cpp:157] Top shape: 1 3 768 112 112 (28901376)
I0417 04:04:46.019780 29182 net.cpp:165] Memory required for data: 346816916
I0417 04:04:46.019788 29182 layer_factory.hpp:77] Creating layer gt_boxes_data_1_split
I0417 04:04:46.019796 29182 net.cpp:100] Creating Layer gt_boxes_data_1_split
I0417 04:04:46.019803 29182 net.cpp:434] gt_boxes_data_1_split <- gt_boxes
I0417 04:04:46.019812 29182 net.cpp:408] gt_boxes_data_1_split -> gt_boxes_data_1_split_0
I0417 04:04:46.019824 29182 net.cpp:408] gt_boxes_data_1_split -> gt_boxes_data_1_split_1
I0417 04:04:46.019876 29182 net.cpp:150] Setting up gt_boxes_data_1_split
I0417 04:04:46.019886 29182 net.cpp:157] Top shape: 1 101 (101)
I0417 04:04:46.019894 29182 net.cpp:157] Top shape: 1 101 (101)
I0417 04:04:46.019899 29182 net.cpp:165] Memory required for data: 346817724
I0417 04:04:46.019904 29182 layer_factory.hpp:77] Creating layer conv1a
I0417 04:04:46.019927 29182 net.cpp:100] Creating Layer conv1a
I0417 04:04:46.019933 29182 net.cpp:434] conv1a <- data_data_0_split_0
I0417 04:04:46.019942 29182 net.cpp:408] conv1a -> conv1a
I0417 04:04:46.039661 29182 net.cpp:150] Setting up conv1a
I0417 04:04:46.039693 29182 net.cpp:157] Top shape: 1 64 768 112 112 (616562688)
I0417 04:04:46.039700 29182 net.cpp:165] Memory required for data: 2813068476
I0417 04:04:46.039729 29182 layer_factory.hpp:77] Creating layer relu1a
I0417 04:04:46.039755 29182 net.cpp:100] Creating Layer relu1a
I0417 04:04:46.039764 29182 net.cpp:434] relu1a <- conv1a
I0417 04:04:46.039773 29182 net.cpp:395] relu1a -> conv1a (in-place)
I0417 04:04:46.039791 29182 net.cpp:150] Setting up relu1a
I0417 04:04:46.039800 29182 net.cpp:157] Top shape: 1 64 768 112 112 (616562688)
I0417 04:04:46.039805 29182 net.cpp:165] Memory required for data: 5279319228
I0417 04:04:46.039811 29182 layer_factory.hpp:77] Creating layer pool1
I0417 04:04:46.039824 29182 net.cpp:100] Creating Layer pool1
I0417 04:04:46.039835 29182 net.cpp:434] pool1 <- conv1a
I0417 04:04:46.039844 29182 net.cpp:408] pool1 -> pool1
I0417 04:04:46.039965 29182 net.cpp:150] Setting up pool1
I0417 04:04:46.039976 29182 net.cpp:157] Top shape: 1 64 768 56 56 (154140672)
I0417 04:04:46.039983 29182 net.cpp:165] Memory required for data: 5895881916
I0417 04:04:46.039988 29182 layer_factory.hpp:77] Creating layer conv2a
I0417 04:04:46.040007 29182 net.cpp:100] Creating Layer conv2a
I0417 04:04:46.040015 29182 net.cpp:434] conv2a <- pool1
I0417 04:04:46.040025 29182 net.cpp:408] conv2a -> conv2a
I0417 04:04:46.051434 29182 net.cpp:150] Setting up conv2a
I0417 04:04:46.051461 29182 net.cpp:157] Top shape: 1 128 768 56 56 (308281344)
I0417 04:04:46.051467 29182 net.cpp:165] Memory required for data: 7129007292
I0417 04:04:46.051487 29182 layer_factory.hpp:77] Creating layer relu2a
I0417 04:04:46.051501 29182 net.cpp:100] Creating Layer relu2a
I0417 04:04:46.051507 29182 net.cpp:434] relu2a <- conv2a
I0417 04:04:46.051519 29182 net.cpp:395] relu2a -> conv2a (in-place)
I0417 04:04:46.051535 29182 net.cpp:150] Setting up relu2a
I0417 04:04:46.051548 29182 net.cpp:157] Top shape: 1 128 768 56 56 (308281344)
I0417 04:04:46.051553 29182 net.cpp:165] Memory required for data: 8362132668
I0417 04:04:46.051559 29182 layer_factory.hpp:77] Creating layer pool2
I0417 04:04:46.051574 29182 net.cpp:100] Creating Layer pool2
I0417 04:04:46.051581 29182 net.cpp:434] pool2 <- conv2a
I0417 04:04:46.051590 29182 net.cpp:408] pool2 -> pool2
I0417 04:04:46.051692 29182 net.cpp:150] Setting up pool2
I0417 04:04:46.051703 29182 net.cpp:157] Top shape: 1 128 384 28 28 (38535168)
I0417 04:04:46.051708 29182 net.cpp:165] Memory required for data: 8516273340
I0417 04:04:46.051714 29182 layer_factory.hpp:77] Creating layer conv3a
I0417 04:04:46.051731 29182 net.cpp:100] Creating Layer conv3a
I0417 04:04:46.051739 29182 net.cpp:434] conv3a <- pool2
I0417 04:04:46.051750 29182 net.cpp:408] conv3a -> conv3a
I0417 04:04:46.077169 29182 net.cpp:150] Setting up conv3a
I0417 04:04:46.077193 29182 net.cpp:157] Top shape: 1 256 384 28 28 (77070336)
I0417 04:04:46.077198 29182 net.cpp:165] Memory required for data: 8824554684
I0417 04:04:46.077215 29182 layer_factory.hpp:77] Creating layer relu3a
I0417 04:04:46.077229 29182 net.cpp:100] Creating Layer relu3a
I0417 04:04:46.077236 29182 net.cpp:434] relu3a <- conv3a
I0417 04:04:46.077247 29182 net.cpp:395] relu3a -> conv3a (in-place)
I0417 04:04:46.077262 29182 net.cpp:150] Setting up relu3a
I0417 04:04:46.077273 29182 net.cpp:157] Top shape: 1 256 384 28 28 (77070336)
I0417 04:04:46.077280 29182 net.cpp:165] Memory required for data: 9132836028
I0417 04:04:46.077284 29182 layer_factory.hpp:77] Creating layer conv3b
I0417 04:04:46.077298 29182 net.cpp:100] Creating Layer conv3b
I0417 04:04:46.077306 29182 net.cpp:434] conv3b <- conv3a
I0417 04:04:46.077316 29182 net.cpp:408] conv3b -> conv3b
I0417 04:04:46.127044 29182 net.cpp:150] Setting up conv3b
I0417 04:04:46.127070 29182 net.cpp:157] Top shape: 1 256 384 28 28 (77070336)
I0417 04:04:46.127075 29182 net.cpp:165] Memory required for data: 9441117372
I0417 04:04:46.127094 29182 layer_factory.hpp:77] Creating layer relu3b
I0417 04:04:46.127115 29182 net.cpp:100] Creating Layer relu3b
I0417 04:04:46.127122 29182 net.cpp:434] relu3b <- conv3b
I0417 04:04:46.127133 29182 net.cpp:395] relu3b -> conv3b (in-place)
I0417 04:04:46.127146 29182 net.cpp:150] Setting up relu3b
I0417 04:04:46.127154 29182 net.cpp:157] Top shape: 1 256 384 28 28 (77070336)
I0417 04:04:46.127161 29182 net.cpp:165] Memory required for data: 9749398716
I0417 04:04:46.127166 29182 layer_factory.hpp:77] Creating layer pool3
I0417 04:04:46.127177 29182 net.cpp:100] Creating Layer pool3
I0417 04:04:46.127182 29182 net.cpp:434] pool3 <- conv3b
I0417 04:04:46.127192 29182 net.cpp:408] pool3 -> pool3
I0417 04:04:46.127255 29182 net.cpp:150] Setting up pool3
I0417 04:04:46.127266 29182 net.cpp:157] Top shape: 1 256 192 14 14 (9633792)
I0417 04:04:46.127271 29182 net.cpp:165] Memory required for data: 9787933884
I0417 04:04:46.127277 29182 layer_factory.hpp:77] Creating layer conv4a
I0417 04:04:46.127293 29182 net.cpp:100] Creating Layer conv4a
I0417 04:04:46.127300 29182 net.cpp:434] conv4a <- pool3
I0417 04:04:46.127311 29182 net.cpp:408] conv4a -> conv4a
I0417 04:04:46.225862 29182 net.cpp:150] Setting up conv4a
I0417 04:04:46.225888 29182 net.cpp:157] Top shape: 1 512 192 14 14 (19267584)
I0417 04:04:46.225893 29182 net.cpp:165] Memory required for data: 9865004220
I0417 04:04:46.225911 29182 layer_factory.hpp:77] Creating layer relu4a
I0417 04:04:46.225924 29182 net.cpp:100] Creating Layer relu4a
I0417 04:04:46.225931 29182 net.cpp:434] relu4a <- conv4a
I0417 04:04:46.225941 29182 net.cpp:395] relu4a -> conv4a (in-place)
I0417 04:04:46.225953 29182 net.cpp:150] Setting up relu4a
I0417 04:04:46.225962 29182 net.cpp:157] Top shape: 1 512 192 14 14 (19267584)
I0417 04:04:46.225968 29182 net.cpp:165] Memory required for data: 9942074556
I0417 04:04:46.225975 29182 layer_factory.hpp:77] Creating layer conv4b
I0417 04:04:46.225996 29182 net.cpp:100] Creating Layer conv4b
I0417 04:04:46.226003 29182 net.cpp:434] conv4b <- conv4a
I0417 04:04:46.226012 29182 net.cpp:408] conv4b -> conv4b
I0417 04:04:46.461297 29182 net.cpp:150] Setting up conv4b
I0417 04:04:46.461328 29182 net.cpp:157] Top shape: 1 512 192 14 14 (19267584)
I0417 04:04:46.461334 29182 net.cpp:165] Memory required for data: 10019144892
I0417 04:04:46.461346 29182 layer_factory.hpp:77] Creating layer relu4b
I0417 04:04:46.461359 29182 net.cpp:100] Creating Layer relu4b
I0417 04:04:46.461369 29182 net.cpp:434] relu4b <- conv4b
I0417 04:04:46.461378 29182 net.cpp:395] relu4b -> conv4b (in-place)
I0417 04:04:46.461387 29182 net.cpp:150] Setting up relu4b
I0417 04:04:46.461391 29182 net.cpp:157] Top shape: 1 512 192 14 14 (19267584)
I0417 04:04:46.461395 29182 net.cpp:165] Memory required for data: 10096215228
I0417 04:04:46.461398 29182 layer_factory.hpp:77] Creating layer pool4
I0417 04:04:46.461405 29182 net.cpp:100] Creating Layer pool4
I0417 04:04:46.461408 29182 net.cpp:434] pool4 <- conv4b
I0417 04:04:46.461413 29182 net.cpp:408] pool4 -> pool4
I0417 04:04:46.461467 29182 net.cpp:150] Setting up pool4
I0417 04:04:46.461475 29182 net.cpp:157] Top shape: 1 512 96 7 7 (2408448)
I0417 04:04:46.461479 29182 net.cpp:165] Memory required for data: 10105849020
I0417 04:04:46.461483 29182 layer_factory.hpp:77] Creating layer conv5a
I0417 04:04:46.461491 29182 net.cpp:100] Creating Layer conv5a
I0417 04:04:46.461495 29182 net.cpp:434] conv5a <- pool4
I0417 04:04:46.461501 29182 net.cpp:408] conv5a -> conv5a
I0417 04:04:46.650663 29182 net.cpp:150] Setting up conv5a
I0417 04:04:46.650688 29182 net.cpp:157] Top shape: 1 512 96 7 7 (2408448)
I0417 04:04:46.650692 29182 net.cpp:165] Memory required for data: 10115482812
I0417 04:04:46.650701 29182 layer_factory.hpp:77] Creating layer relu5a
I0417 04:04:46.650712 29182 net.cpp:100] Creating Layer relu5a
I0417 04:04:46.650717 29182 net.cpp:434] relu5a <- conv5a
I0417 04:04:46.650723 29182 net.cpp:395] relu5a -> conv5a (in-place)
I0417 04:04:46.650734 29182 net.cpp:150] Setting up relu5a
I0417 04:04:46.650738 29182 net.cpp:157] Top shape: 1 512 96 7 7 (2408448)
I0417 04:04:46.650743 29182 net.cpp:165] Memory required for data: 10125116604
I0417 04:04:46.650745 29182 layer_factory.hpp:77] Creating layer conv5b
I0417 04:04:46.650756 29182 net.cpp:100] Creating Layer conv5b
I0417 04:04:46.650773 29182 net.cpp:434] conv5b <- conv5a
I0417 04:04:46.650779 29182 net.cpp:408] conv5b -> conv5b
I0417 04:04:46.839172 29182 net.cpp:150] Setting up conv5b
I0417 04:04:46.839197 29182 net.cpp:157] Top shape: 1 512 96 7 7 (2408448)
I0417 04:04:46.839201 29182 net.cpp:165] Memory required for data: 10134750396
I0417 04:04:46.839210 29182 layer_factory.hpp:77] Creating layer relu5b
I0417 04:04:46.839220 29182 net.cpp:100] Creating Layer relu5b
I0417 04:04:46.839224 29182 net.cpp:434] relu5b <- conv5b
I0417 04:04:46.839231 29182 net.cpp:395] relu5b -> conv5b (in-place)
I0417 04:04:46.839241 29182 net.cpp:150] Setting up relu5b
I0417 04:04:46.839246 29182 net.cpp:157] Top shape: 1 512 96 7 7 (2408448)
I0417 04:04:46.839249 29182 net.cpp:165] Memory required for data: 10144384188
I0417 04:04:46.839252 29182 layer_factory.hpp:77] Creating layer conv5b_relu5b_0_split
I0417 04:04:46.839257 29182 net.cpp:100] Creating Layer conv5b_relu5b_0_split
I0417 04:04:46.839260 29182 net.cpp:434] conv5b_relu5b_0_split <- conv5b
I0417 04:04:46.839267 29182 net.cpp:408] conv5b_relu5b_0_split -> conv5b_relu5b_0_split_0
I0417 04:04:46.839272 29182 net.cpp:408] conv5b_relu5b_0_split -> conv5b_relu5b_0_split_1
I0417 04:04:46.839318 29182 net.cpp:150] Setting up conv5b_relu5b_0_split
I0417 04:04:46.839326 29182 net.cpp:157] Top shape: 1 512 96 7 7 (2408448)
I0417 04:04:46.839330 29182 net.cpp:157] Top shape: 1 512 96 7 7 (2408448)
I0417 04:04:46.839334 29182 net.cpp:165] Memory required for data: 10163651772
I0417 04:04:46.839336 29182 layer_factory.hpp:77] Creating layer rpn_conv/3x3
I0417 04:04:46.839347 29182 net.cpp:100] Creating Layer rpn_conv/3x3
I0417 04:04:46.839354 29182 net.cpp:434] rpn_conv/3x3 <- conv5b_relu5b_0_split_0
I0417 04:04:46.839360 29182 net.cpp:408] rpn_conv/3x3 -> rpn/output
I0417 04:04:47.056478 29182 net.cpp:150] Setting up rpn_conv/3x3
I0417 04:04:47.056509 29182 net.cpp:157] Top shape: 1 512 96 4 4 (786432)
I0417 04:04:47.056514 29182 net.cpp:165] Memory required for data: 10166797500
I0417 04:04:47.056535 29182 layer_factory.hpp:77] Creating layer rpn_relu/3x3
I0417 04:04:47.056550 29182 net.cpp:100] Creating Layer rpn_relu/3x3
I0417 04:04:47.056555 29182 net.cpp:434] rpn_relu/3x3 <- rpn/output
I0417 04:04:47.056565 29182 net.cpp:395] rpn_relu/3x3 -> rpn/output (in-place)
I0417 04:04:47.056579 29182 net.cpp:150] Setting up rpn_relu/3x3
I0417 04:04:47.056586 29182 net.cpp:157] Top shape: 1 512 96 4 4 (786432)
I0417 04:04:47.056591 29182 net.cpp:165] Memory required for data: 10169943228
I0417 04:04:47.056596 29182 layer_factory.hpp:77] Creating layer rpn_conv/3x3_2
I0417 04:04:47.056610 29182 net.cpp:100] Creating Layer rpn_conv/3x3_2
I0417 04:04:47.056618 29182 net.cpp:434] rpn_conv/3x3_2 <- rpn/output
I0417 04:04:47.056627 29182 net.cpp:408] rpn_conv/3x3_2 -> rpn/output_2
I0417 04:04:47.265025 29182 net.cpp:150] Setting up rpn_conv/3x3_2
I0417 04:04:47.265049 29182 net.cpp:157] Top shape: 1 512 96 2 2 (196608)
I0417 04:04:47.265053 29182 net.cpp:165] Memory required for data: 10170729660
I0417 04:04:47.265063 29182 layer_factory.hpp:77] Creating layer rpn_relu/3x3_2
I0417 04:04:47.265072 29182 net.cpp:100] Creating Layer rpn_relu/3x3_2
I0417 04:04:47.265076 29182 net.cpp:434] rpn_relu/3x3_2 <- rpn/output_2
I0417 04:04:47.265084 29182 net.cpp:395] rpn_relu/3x3_2 -> rpn/output_2 (in-place)
I0417 04:04:47.265092 29182 net.cpp:150] Setting up rpn_relu/3x3_2
I0417 04:04:47.265101 29182 net.cpp:157] Top shape: 1 512 96 2 2 (196608)
I0417 04:04:47.265105 29182 net.cpp:165] Memory required for data: 10171516092
I0417 04:04:47.265107 29182 layer_factory.hpp:77] Creating layer rpn/output_pool
I0417 04:04:47.265115 29182 net.cpp:100] Creating Layer rpn/output_pool
I0417 04:04:47.265117 29182 net.cpp:434] rpn/output_pool <- rpn/output_2
I0417 04:04:47.265125 29182 net.cpp:408] rpn/output_pool -> rpn/output_pool
I0417 04:04:47.265173 29182 net.cpp:150] Setting up rpn/output_pool
I0417 04:04:47.265182 29182 net.cpp:157] Top shape: 1 512 96 1 1 (49152)
I0417 04:04:47.265185 29182 net.cpp:165] Memory required for data: 10171712700
I0417 04:04:47.265188 29182 layer_factory.hpp:77] Creating layer rpn/output_pool_rpn/output_pool_0_split
I0417 04:04:47.265195 29182 net.cpp:100] Creating Layer rpn/output_pool_rpn/output_pool_0_split
I0417 04:04:47.265199 29182 net.cpp:434] rpn/output_pool_rpn/output_pool_0_split <- rpn/output_pool
I0417 04:04:47.265203 29182 net.cpp:408] rpn/output_pool_rpn/output_pool_0_split -> rpn/output_pool_rpn/output_pool_0_split_0
I0417 04:04:47.265210 29182 net.cpp:408] rpn/output_pool_rpn/output_pool_0_split -> rpn/output_pool_rpn/output_pool_0_split_1
I0417 04:04:47.265251 29182 net.cpp:150] Setting up rpn/output_pool_rpn/output_pool_0_split
I0417 04:04:47.265259 29182 net.cpp:157] Top shape: 1 512 96 1 1 (49152)
I0417 04:04:47.265264 29182 net.cpp:157] Top shape: 1 512 96 1 1 (49152)
I0417 04:04:47.265267 29182 net.cpp:165] Memory required for data: 10172105916
I0417 04:04:47.265270 29182 layer_factory.hpp:77] Creating layer rpn_cls_score
I0417 04:04:47.265282 29182 net.cpp:100] Creating Layer rpn_cls_score
I0417 04:04:47.265286 29182 net.cpp:434] rpn_cls_score <- rpn/output_pool_rpn/output_pool_0_split_0
I0417 04:04:47.265292 29182 net.cpp:408] rpn_cls_score -> rpn_cls_score
I0417 04:04:47.266611 29182 net.cpp:150] Setting up rpn_cls_score
I0417 04:04:47.266623 29182 net.cpp:157] Top shape: 1 74 96 1 1 (7104)
I0417 04:04:47.266626 29182 net.cpp:165] Memory required for data: 10172134332
I0417 04:04:47.266633 29182 layer_factory.hpp:77] Creating layer rpn_cls_score_rpn_cls_score_0_split
I0417 04:04:47.266638 29182 net.cpp:100] Creating Layer rpn_cls_score_rpn_cls_score_0_split
I0417 04:04:47.266641 29182 net.cpp:434] rpn_cls_score_rpn_cls_score_0_split <- rpn_cls_score
I0417 04:04:47.266647 29182 net.cpp:408] rpn_cls_score_rpn_cls_score_0_split -> rpn_cls_score_rpn_cls_score_0_split_0
I0417 04:04:47.266654 29182 net.cpp:408] rpn_cls_score_rpn_cls_score_0_split -> rpn_cls_score_rpn_cls_score_0_split_1
I0417 04:04:47.266710 29182 net.cpp:150] Setting up rpn_cls_score_rpn_cls_score_0_split
I0417 04:04:47.266718 29182 net.cpp:157] Top shape: 1 74 96 1 1 (7104)
I0417 04:04:47.266722 29182 net.cpp:157] Top shape: 1 74 96 1 1 (7104)
I0417 04:04:47.266726 29182 net.cpp:165] Memory required for data: 10172191164
I0417 04:04:47.266729 29182 layer_factory.hpp:77] Creating layer rpn_twin_pred
I0417 04:04:47.266744 29182 net.cpp:100] Creating Layer rpn_twin_pred
I0417 04:04:47.266750 29182 net.cpp:434] rpn_twin_pred <- rpn/output_pool_rpn/output_pool_0_split_1
I0417 04:04:47.266757 29182 net.cpp:408] rpn_twin_pred -> rpn_twin_pred
I0417 04:04:47.268039 29182 net.cpp:150] Setting up rpn_twin_pred
I0417 04:04:47.268050 29182 net.cpp:157] Top shape: 1 74 96 1 1 (7104)
I0417 04:04:47.268054 29182 net.cpp:165] Memory required for data: 10172219580
I0417 04:04:47.268059 29182 layer_factory.hpp:77] Creating layer rpn_twin_pred_rpn_twin_pred_0_split
I0417 04:04:47.268064 29182 net.cpp:100] Creating Layer rpn_twin_pred_rpn_twin_pred_0_split
I0417 04:04:47.268069 29182 net.cpp:434] rpn_twin_pred_rpn_twin_pred_0_split <- rpn_twin_pred
I0417 04:04:47.268074 29182 net.cpp:408] rpn_twin_pred_rpn_twin_pred_0_split -> rpn_twin_pred_rpn_twin_pred_0_split_0
I0417 04:04:47.268080 29182 net.cpp:408] rpn_twin_pred_rpn_twin_pred_0_split -> rpn_twin_pred_rpn_twin_pred_0_split_1
I0417 04:04:47.268122 29182 net.cpp:150] Setting up rpn_twin_pred_rpn_twin_pred_0_split
I0417 04:04:47.268131 29182 net.cpp:157] Top shape: 1 74 96 1 1 (7104)
I0417 04:04:47.268136 29182 net.cpp:157] Top shape: 1 74 96 1 1 (7104)
I0417 04:04:47.268139 29182 net.cpp:165] Memory required for data: 10172276412
I0417 04:04:47.268142 29182 layer_factory.hpp:77] Creating layer rpn_cls_score_reshape
I0417 04:04:47.268155 29182 net.cpp:100] Creating Layer rpn_cls_score_reshape
I0417 04:04:47.268160 29182 net.cpp:434] rpn_cls_score_reshape <- rpn_cls_score_rpn_cls_score_0_split_0
I0417 04:04:47.268165 29182 net.cpp:408] rpn_cls_score_reshape -> rpn_cls_score_reshape
I0417 04:04:47.268200 29182 net.cpp:150] Setting up rpn_cls_score_reshape
I0417 04:04:47.268209 29182 net.cpp:157] Top shape: 1 2 3552 1 1 (7104)
I0417 04:04:47.268213 29182 net.cpp:165] Memory required for data: 10172304828
I0417 04:04:47.268215 29182 layer_factory.hpp:77] Creating layer rpn_cls_score_reshape_rpn_cls_score_reshape_0_split
I0417 04:04:47.268220 29182 net.cpp:100] Creating Layer rpn_cls_score_reshape_rpn_cls_score_reshape_0_split
I0417 04:04:47.268224 29182 net.cpp:434] rpn_cls_score_reshape_rpn_cls_score_reshape_0_split <- rpn_cls_score_reshape
I0417 04:04:47.268229 29182 net.cpp:408] rpn_cls_score_reshape_rpn_cls_score_reshape_0_split -> rpn_cls_score_reshape_rpn_cls_score_reshape_0_split_0
I0417 04:04:47.268239 29182 net.cpp:408] rpn_cls_score_reshape_rpn_cls_score_reshape_0_split -> rpn_cls_score_reshape_rpn_cls_score_reshape_0_split_1
I0417 04:04:47.268245 29182 net.cpp:408] rpn_cls_score_reshape_rpn_cls_score_reshape_0_split -> rpn_cls_score_reshape_rpn_cls_score_reshape_0_split_2
I0417 04:04:47.268301 29182 net.cpp:150] Setting up rpn_cls_score_reshape_rpn_cls_score_reshape_0_split
I0417 04:04:47.268308 29182 net.cpp:157] Top shape: 1 2 3552 1 1 (7104)
I0417 04:04:47.268312 29182 net.cpp:157] Top shape: 1 2 3552 1 1 (7104)
I0417 04:04:47.268316 29182 net.cpp:157] Top shape: 1 2 3552 1 1 (7104)
I0417 04:04:47.268319 29182 net.cpp:165] Memory required for data: 10172390076
I0417 04:04:47.268322 29182 layer_factory.hpp:77] Creating layer rpn-data
I0417 04:04:47.268708 29182 net.cpp:100] Creating Layer rpn-data
I0417 04:04:47.268720 29182 net.cpp:434] rpn-data <- rpn_cls_score_rpn_cls_score_0_split_1
I0417 04:04:47.268726 29182 net.cpp:434] rpn-data <- gt_boxes_data_1_split_0
I0417 04:04:47.268730 29182 net.cpp:434] rpn-data <- data_data_0_split_1
I0417 04:04:47.268735 29182 net.cpp:408] rpn-data -> rpn_labels
I0417 04:04:47.268743 29182 net.cpp:408] rpn-data -> rpn_twin_targets
I0417 04:04:47.268748 29182 net.cpp:408] rpn-data -> rpn_twin_inside_weights
I0417 04:04:47.268754 29182 net.cpp:408] rpn-data -> rpn_twin_outside_weights
I0417 04:04:47.271028 29182 net.cpp:150] Setting up rpn-data
I0417 04:04:47.271041 29182 net.cpp:157] Top shape: 1 1 3552 1 1 (3552)
I0417 04:04:47.271046 29182 net.cpp:157] Top shape: 1 74 96 1 1 (7104)
I0417 04:04:47.271050 29182 net.cpp:157] Top shape: 1 74 96 1 1 (7104)
I0417 04:04:47.271054 29182 net.cpp:157] Top shape: 1 74 96 1 1 (7104)
I0417 04:04:47.271056 29182 net.cpp:165] Memory required for data: 10172489532
I0417 04:04:47.271060 29182 layer_factory.hpp:77] Creating layer rpn_labels_rpn-data_0_split
I0417 04:04:47.271066 29182 net.cpp:100] Creating Layer rpn_labels_rpn-data_0_split
I0417 04:04:47.271070 29182 net.cpp:434] rpn_labels_rpn-data_0_split <- rpn_labels
I0417 04:04:47.271075 29182 net.cpp:408] rpn_labels_rpn-data_0_split -> rpn_labels_rpn-data_0_split_0
I0417 04:04:47.271082 29182 net.cpp:408] rpn_labels_rpn-data_0_split -> rpn_labels_rpn-data_0_split_1
I0417 04:04:47.271121 29182 net.cpp:150] Setting up rpn_labels_rpn-data_0_split
I0417 04:04:47.271128 29182 net.cpp:157] Top shape: 1 1 3552 1 1 (3552)
I0417 04:04:47.271132 29182 net.cpp:157] Top shape: 1 1 3552 1 1 (3552)
I0417 04:04:47.271136 29182 net.cpp:165] Memory required for data: 10172517948
I0417 04:04:47.271138 29182 layer_factory.hpp:77] Creating layer rpn_loss_cls
I0417 04:04:47.271147 29182 net.cpp:100] Creating Layer rpn_loss_cls
I0417 04:04:47.271150 29182 net.cpp:434] rpn_loss_cls <- rpn_cls_score_reshape_rpn_cls_score_reshape_0_split_0
I0417 04:04:47.271154 29182 net.cpp:434] rpn_loss_cls <- rpn_labels_rpn-data_0_split_0
…
I0417 04:04:47.271468 29182 layer_factory.hpp:77] Creating layer rpn_accuarcy
I0417 04:04:47.271476 29182 net.cpp:100] Creating Layer rpn_accuarcy
I0417 04:04:47.271481 29182 net.cpp:434] rpn_accuarcy <- rpn_cls_score_reshape_rpn_cls_score_reshape_0_split_1
I0417 04:04:47.271486 29182 net.cpp:434] rpn_accuarcy <- rpn_labels_rpn-data_0_split_1
I0417 04:04:47.271490 29182 net.cpp:408] rpn_accuarcy -> rpn_accuarcy
I0417 04:04:47.271497 29182 net.cpp:408] rpn_accuarcy -> rpn_accuarcy_class
I0417 04:04:47.271543 29182 net.cpp:150] Setting up rpn_accuarcy
I0417 04:04:47.271550 29182 net.cpp:157] Top shape: (1)
I0417 04:04:47.271554 29182 net.cpp:157] Top shape: 2 (2)
I0417 04:04:47.271558 29182 net.cpp:165] Memory required for data: 10172517968
I0417 04:04:47.271560 29182 layer_factory.hpp:77] Creating layer rpn_cls_prob
I0417 04:04:47.271565 29182 net.cpp:100] Creating Layer rpn_cls_prob
I0417 04:04:47.271569 29182 net.cpp:434] rpn_cls_prob <- rpn_cls_score_reshape_rpn_cls_score_reshape_0_split_2
I0417 04:04:47.271574 29182 net.cpp:408] rpn_cls_prob -> rpn_cls_prob
I0417 04:04:47.271646 29182 net.cpp:150] Setting up rpn_cls_prob
I0417 04:04:47.271652 29182 net.cpp:157] Top shape: 1 2 3552 1 1 (7104)
I0417 04:04:47.271656 29182 net.cpp:165] Memory required for data: 10172546384
I0417 04:04:47.271659 29182 layer_factory.hpp:77] Creating layer rpn_cls_prob_reshape
I0417 04:04:47.271667 29182 net.cpp:100] Creating Layer rpn_cls_prob_reshape
I0417 04:04:47.271669 29182 net.cpp:434] rpn_cls_prob_reshape <- rpn_cls_prob
I0417 04:04:47.271674 29182 net.cpp:408] rpn_cls_prob_reshape -> rpn_cls_prob_reshape
I0417 04:04:47.271705 29182 net.cpp:150] Setting up rpn_cls_prob_reshape
I0417 04:04:47.271713 29182 net.cpp:157] Top shape: 1 74 96 1 1 (7104)
I0417 04:04:47.271715 29182 net.cpp:165] Memory required for data: 10172574800
I0417 04:04:47.271719 29182 layer_factory.hpp:77] Creating layer proposal
I0417 04:04:47.272269 29182 net.cpp:100] Creating Layer proposal
I0417 04:04:47.272280 29182 net.cpp:434] proposal <- rpn_cls_prob_reshape
I0417 04:04:47.272286 29182 net.cpp:434] proposal <- rpn_twin_pred_rpn_twin_pred_0_split_1
I0417 04:04:47.272291 29182 net.cpp:408] proposal -> rpn_rois
I0417 04:04:47.274484 29182 net.cpp:150] Setting up proposal
I0417 04:04:47.274499 29182 net.cpp:157] Top shape: 1 3 (3)
I0417 04:04:47.274504 29182 net.cpp:165] Memory required for data: 10172574812
I0417 04:04:47.274508 29182 layer_factory.hpp:77] Creating layer roi-data
I0417 04:04:47.274634 29182 net.cpp:100] Creating Layer roi-data
I0417 04:04:47.274646 29182 net.cpp:434] roi-data <- rpn_rois
I0417 04:04:47.274652 29182 net.cpp:434] roi-data <- gt_boxes_data_1_split_1
I0417 04:04:47.274657 29182 net.cpp:408] roi-data -> rois
I0417 04:04:47.274663 29182 net.cpp:408] roi-data -> labels
I0417 04:04:47.274669 29182 net.cpp:408] roi-data -> twin_targets
I0417 04:04:47.274679 29182 net.cpp:408] roi-data -> twin_inside_weights
I0417 04:04:47.274685 29182 net.cpp:408] roi-data -> twin_outside_weights
I0417 04:04:47.275034 29182 net.cpp:150] Setting up roi-data
I0417 04:04:47.275048 29182 net.cpp:157] Top shape: 1 3 (3)
I0417 04:04:47.275053 29182 net.cpp:157] Top shape: 1 1 (1)
I0417 04:04:47.275058 29182 net.cpp:157] Top shape: 1 402 (402)
I0417 04:04:47.275060 29182 net.cpp:157] Top shape: 1 402 (402)
I0417 04:04:47.275064 29182 net.cpp:157] Top shape: 1 402 (402)
I0417 04:04:47.275068 29182 net.cpp:165] Memory required for data: 10172579652
I0417 04:04:47.275070 29182 layer_factory.hpp:77] Creating layer labels_roi-data_1_split
I0417 04:04:47.275076 29182 net.cpp:100] Creating Layer labels_roi-data_1_split
I0417 04:04:47.275080 29182 net.cpp:434] labels_roi-data_1_split <- labels
I0417 04:04:47.275086 29182 net.cpp:408] labels_roi-data_1_split -> labels_roi-data_1_split_0
I0417 04:04:47.275092 29182 net.cpp:408] labels_roi-data_1_split -> labels_roi-data_1_split_1
I0417 04:04:47.275135 29182 net.cpp:150] Setting up labels_roi-data_1_split
I0417 04:04:47.275144 29182 net.cpp:157] Top shape: 1 1 (1)
I0417 04:04:47.275148 29182 net.cpp:157] Top shape: 1 1 (1)
I0417 04:04:47.275151 29182 net.cpp:165] Memory required for data: 10172579660
I0417 04:04:47.275154 29182 layer_factory.hpp:77] Creating layer roi_pool5
I0417 04:04:47.275161 29182 net.cpp:100] Creating Layer roi_pool5
I0417 04:04:47.275166 29182 net.cpp:434] roi_pool5 <- conv5b_relu5b_0_split_1
I0417 04:04:47.275171 29182 net.cpp:434] roi_pool5 <- rois
I0417 04:04:47.275176 29182 net.cpp:408] roi_pool5 -> pool5
I0417 04:04:47.275182 29182 roi_pooling_layer.cpp:34] Temporal scale: 0.125
I0417 04:04:47.275187 29182 roi_pooling_layer.cpp:35] Spatial scale: 0.0625
I0417 04:04:47.275233 29182 net.cpp:150] Setting up roi_pool5
I0417 04:04:47.275240 29182 net.cpp:157] Top shape: 1 512 1 4 4 (8192)
I0417 04:04:47.275244 29182 net.cpp:165] Memory required for data: 10172612428
I0417 04:04:47.275247 29182 layer_factory.hpp:77] Creating layer fc6
I0417 04:04:47.275255 29182 net.cpp:100] Creating Layer fc6
I0417 04:04:47.275259 29182 net.cpp:434] fc6 <- pool5
I0417 04:04:47.275264 29182 net.cpp:408] fc6 -> fc6
I0417 04:04:48.203771 29182 net.cpp:150] Setting up fc6
I0417 04:04:48.203806 29182 net.cpp:157] Top shape: 1 4096 (4096)
I0417 04:04:48.203810 29182 net.cpp:165] Memory required for data: 10172628812
I0417 04:04:48.203820 29182 layer_factory.hpp:77] Creating layer relu6
I0417 04:04:48.203831 29182 net.cpp:100] Creating Layer relu6
I0417 04:04:48.203836 29182 net.cpp:434] relu6 <- fc6
I0417 04:04:48.203842 29182 net.cpp:395] relu6 -> fc6 (in-place)
I0417 04:04:48.203850 29182 net.cpp:150] Setting up relu6
I0417 04:04:48.203855 29182 net.cpp:157] Top shape: 1 4096 (4096)
I0417 04:04:48.203858 29182 net.cpp:165] Memory required for data: 10172645196
I0417 04:04:48.203861 29182 layer_factory.hpp:77] Creating layer drop6
I0417 04:04:48.203872 29182 net.cpp:100] Creating Layer drop6
I0417 04:04:48.203877 29182 net.cpp:434] drop6 <- fc6
I0417 04:04:48.203882 29182 net.cpp:395] drop6 -> fc6 (in-place)
I0417 04:04:48.203912 29182 net.cpp:150] Setting up drop6
I0417 04:04:48.203917 29182 net.cpp:157] Top shape: 1 4096 (4096)
I0417 04:04:48.203920 29182 net.cpp:165] Memory required for data: 10172661580
I0417 04:04:48.203923 29182 layer_factory.hpp:77] Creating layer fc6_drop6_0_split
I0417 04:04:48.203928 29182 net.cpp:100] Creating Layer fc6_drop6_0_split
I0417 04:04:48.203932 29182 net.cpp:434] fc6_drop6_0_split <- fc6
I0417 04:04:48.203936 29182 net.cpp:408] fc6_drop6_0_split -> fc6_drop6_0_split_0
I0417 04:04:48.203941 29182 net.cpp:408] fc6_drop6_0_split -> fc6_drop6_0_split_1
I0417 04:04:48.203981 29182 net.cpp:150] Setting up fc6_drop6_0_split
I0417 04:04:48.203989 29182 net.cpp:157] Top shape: 1 4096 (4096)
I0417 04:04:48.203994 29182 net.cpp:157] Top shape: 1 4096 (4096)
I0417 04:04:48.203996 29182 net.cpp:165] Memory required for data: 10172694348
I0417 04:04:48.203999 29182 layer_factory.hpp:77] Creating layer cls_score
I0417 04:04:48.204008 29182 net.cpp:100] Creating Layer cls_score
I0417 04:04:48.204011 29182 net.cpp:434] cls_score <- fc6_drop6_0_split_0
I0417 04:04:48.204016 29182 net.cpp:408] cls_score -> cls_score
I0417 04:04:48.225761 29182 net.cpp:150] Setting up cls_score
I0417 04:04:48.225782 29182 net.cpp:157] Top shape: 1 201 (201)
I0417 04:04:48.225785 29182 net.cpp:165] Memory required for data: 10172695152
I0417 04:04:48.225793 29182 layer_factory.hpp:77] Creating layer cls_score_cls_score_0_split
I0417 04:04:48.225801 29182 net.cpp:100] Creating Layer cls_score_cls_score_0_split
I0417 04:04:48.225805 29182 net.cpp:434] cls_score_cls_score_0_split <- cls_score
I0417 04:04:48.225811 29182 net.cpp:408] cls_score_cls_score_0_split -> cls_score_cls_score_0_split_0
I0417 04:04:48.225818 29182 net.cpp:408] cls_score_cls_score_0_split -> cls_score_cls_score_0_split_1
I0417 04:04:48.225860 29182 net.cpp:150] Setting up cls_score_cls_score_0_split
I0417 04:04:48.225888 29182 net.cpp:157] Top shape: 1 201 (201)
I0417 04:04:48.225895 29182 net.cpp:157] Top shape: 1 201 (201)
I0417 04:04:48.225898 29182 net.cpp:165] Memory required for data: 10172696760
I0417 04:04:48.225903 29182 layer_factory.hpp:77] Creating layer twin_pred
I0417 04:04:48.225909 29182 net.cpp:100] Creating Layer twin_pred
I0417 04:04:48.225914 29182 net.cpp:434] twin_pred <- fc6_drop6_0_split_1
I0417 04:04:48.225924 29182 net.cpp:408] twin_pred -> twin_pred
I0417 04:04:48.269716 29182 net.cpp:150] Setting up twin_pred
I0417 04:04:48.269740 29182 net.cpp:157] Top shape: 1 402 (402)
I0417 04:04:48.269744 29182 net.cpp:165] Memory required for data: 10172698368
I0417 04:04:48.269753 29182 layer_factory.hpp:77] Creating layer loss_cls
I0417 04:04:48.269762 29182 net.cpp:100] Creating Layer loss_cls
I0417 04:04:48.269767 29182 net.cpp:434] loss_cls <- cls_score_cls_score_0_split_0
I0417 04:04:48.269775 29182 net.cpp:434] loss_cls <- labels_roi-data_1_split_0
I0417 04:04:48.269781 29182 net.cpp:408] loss_cls -> loss_cls
…
