…
stepsize: 350000
snapshot: 0
snapshot_prefix: "./experiments/activitynet/snapshot/activitynet"
average_loss: 100
iter_size: 1
I0417 15:47:51.003876 20708 solver.cpp:81] Creating training net from train_net file: ./experiments/activitynet/train.prototxt
I0417 15:47:51.004966 20708 net.cpp:58] Initializing net from parameters: 
name: "activitynet"
state {
  phase: TRAIN
}
layer {
  name: "data"
  type: "Python"
  top: "data"
  top: "gt_boxes"
  python_param {
    module: "roi_data_layer.layer"
    layer: "RoIDataLayer"
    param_str: "\'num_classes\': 100"
  }
}
layer {
  name: "conv1a"
  type: "Convolution"
  bottom: "data"
  top: "conv1a"
  param {
    lr_mult: 0
    decay_mult: 0
  }
  param {
    lr_mult: 0
    decay_mult: 0
  }
  convolution_param {
    num_output: 64
    pad: 1
    pad: 1
    pad: 1
    kernel_size: 3
    kernel_size: 3
    kernel_size: 3
    weight_filler {
      type: "gaussian"
      std: 0.01
    }
    bias_filler {
      type: "constant"
      value: 0
    }
  }
}
layer {
  name: "relu1a"
  type: "ReLU"
  bottom: "conv1a"
  top: "conv1a"
}
layer {
  name: "pool1"
  type: "Pooling"
  bottom: "conv1a"
  top: "pool1"
  pooling_param {
    pool: MAX
    kernel_size: 1
    kernel_size: 2
    kernel_size: 2
    stride: 1
    stride: 2
    stride: 2
  }
}
layer {
  name: "conv2a"
  type: "Convolution"
  bottom: "pool1"
  top: "conv2a"
  param {
    lr_mult: 0
    decay_mult: 0
  }
  param {
    lr_mult: 0
    decay_mult: 0
  }
  convolution_param {
    num_output: 128
    pad: 1
    pad: 1
    pad: 1
    kernel_size: 3
    kernel_size: 3
    kernel_size: 3
    weight_filler {
      type: "gaussian"
      std: 0.01
    }
    bias_filler {
      type: "constant"
      value: 1
    }
  }
}
layer {
  name: "relu2a"
  type: "ReLU"
  bottom: "conv2a"
  top: "conv2a"
}
layer {
  name: "pool2"
  type: "Pooling"
  bottom: "conv2a"
  top: "pool2"
  pooling_param {
    pool: MAX
    kernel_size: 2
    kernel_size: 2
    kernel_size: 2
    stride: 2
    stride: 2
    stride: 2
  }
}
layer {
  name: "conv3a"
  type: "Convolution"
  bottom: "pool2"
  top: "conv3a"
  param {
    lr_mult: 1
    decay_mult: 1
  }
  param {
    lr_mult: 2
    decay_mult: 0
  }
  convolution_param {
    num_output: 256
    pad: 1
    pad: 1
    pad: 1
    kernel_size: 3
    kernel_size: 3
    kernel_size: 3
    weight_filler {
      type: "gaussian"
      std: 0.01
    }
    bias_filler {
      type: "constant"
      value: 1
    }
  }
}
layer {
  name: "relu3a"
  type: "ReLU"
  bottom: "conv3a"
  top: "conv3a"
}
layer {
  name: "conv3b"
  type: "Convolution"
  bottom: "conv3a"
  top: "conv3b"
  param {
    lr_mult: 1
    decay_mult: 1
  }
  param {
    lr_mult: 2
    decay_mult: 0
  }
  convolution_param {
    num_output: 256
    pad: 1
    pad: 1
    pad: 1
    kernel_size: 3
    kernel_size: 3
    kernel_size: 3
    weight_filler {
      type: "gaussian"
      std: 0.01
    }
    bias_filler {
      type: "constant"
      value: 1
    }
  }
}
layer {
  name: "relu3b"
  type: "ReLU"
  bottom: "conv3b"
  top: "conv3b"
}
layer {
  name: "pool3"
  type: "Pooling"
  bottom: "conv3b"
  top: "pool3"
  pooling_param {
    pool: MAX
    kernel_size: 2
    kernel_size: 2
    kernel_size: 2
    stride: 2
    stride: 2
    stride: 2
  }
}
layer {
  name: "conv4a"
  type: "Convolution"
  bottom: "pool3"
  top: "conv4a"
  param {
    lr_mult: 1
    decay_mult: 1
  }
  param {
    lr_mult: 2
    decay_mult: 0
  }
  convolution_param {
    num_output: 512
    pad: 1
    pad: 1
    pad: 1
    kernel_size: 3
    kernel_size: 3
    kernel_size: 3
    weight_filler {
      type: "gaussian"
      std: 0.01
    }
    bias_filler {
      type: "constant"
      value: 1
    }
  }
}
layer {
  name: "relu4a"
  type: "ReLU"
  bottom: "conv4a"
  top: "conv4a"
}
layer {
  name: "conv4b"
  type: "Convolution"
  bottom: "conv4a"
  top: "conv4b"
  param {
    lr_mult: 1
    decay_mult: 1
  }
  param {
    lr_mult: 2
    decay_mult: 0
  }
  convolution_param {
    num_output: 512
    pad: 1
    pad: 1
    pad: 1
    kernel_size: 3
    kernel_size: 3
    kernel_size: 3
    weight_filler {
      type: "gaussian"
      std: 0.01
    }
    bias_filler {
      type: "constant"
      value: 1
    }
  }
}
layer {
  name: "relu4b"
  type: "ReLU"
  bottom: "conv4b"
  top: "conv4b"
}
layer {
  name: "pool4"
  type: "Pooling"
  bottom: "conv4b"
  top: "pool4"
  pooling_param {
    pool: MAX
    kernel_size: 2
    kernel_size: 2
    kernel_size: 2
    stride: 2
    stride: 2
    stride: 2
  }
}
layer {
  name: "conv5a"
  type: "Convolution"
  bottom: "pool4"
  top: "conv5a"
  param {
    lr_mult: 1
    decay_mult: 1
  }
  param {
    lr_mult: 2
    decay_mult: 0
  }
  convolution_param {
    num_output: 512
    pad: 1
    pad: 1
    pad: 1
    kernel_size: 3
    kernel_size: 3
    kernel_size: 3
    weight_filler {
      type: "gaussian"
      std: 0.01
    }
    bias_filler {
      type: "constant"
      value: 1
    }
  }
}
layer {
  name: "relu5a"
  type: "ReLU"
  bottom: "conv5a"
  top: "conv5a"
}
layer {
  name: "conv5b"
  type: "Convolution"
  bottom: "conv5a"
  top: "conv5b"
  param {
    lr_mult: 1
    decay_mult: 1
  }
  param {
    lr_mult: 2
    decay_mult: 0
  }
  convolution_param {
    num_output: 512
    pad: 1
    pad: 1
    pad: 1
    kernel_size: 3
    kernel_size: 3
    kernel_size: 3
    weight_filler {
      type: "gaussian"
      std: 0.01
    }
    bias_filler {
      type: "constant"
      value: 1
    }
  }
}
layer {
  name: "relu5b"
  type: "ReLU"
  bottom: "conv5b"
  top: "conv5b"
}
layer {
  name: "rpn_conv/3x3"
  type: "Convolution"
  bottom: "conv5b"
  top: "rpn/output"
  param {
    lr_mult: 1
    decay_mult: 1
  }
  param {
    lr_mult: 2
    decay_mult: 0
  }
  convolution_param {
    num_output: 512
    pad: 1
    pad: 1
    pad: 1
    kernel_size: 3
    kernel_size: 3
    kernel_size: 3
    stride: 1
    stride: 2
    stride: 2
    weight_filler {
      type: "gaussian"
      std: 0.01
    }
    bias_filler {
      type: "constant"
      value: 0
    }
  }
}
layer {
  name: "rpn_relu/3x3"
  type: "ReLU"
  bottom: "rpn/output"
  top: "rpn/output"
}
layer {
  name: "rpn_conv/3x3_2"
  type: "Convolution"
  bottom: "rpn/output"
  top: "rpn/output_2"
  param {
    lr_mult: 1
    decay_mult: 1
  }
  param {
    lr_mult: 2
    decay_mult: 0
  }
  convolution_param {
    num_output: 512
    pad: 1
    pad: 1
    pad: 1
    kernel_size: 3
    kernel_size: 3
    kernel_size: 3
    stride: 1
    stride: 2
    stride: 2
    weight_filler {
      type: "gaussian"
      std: 0.01
    }
    bias_filler {
      type: "constant"
      value: 0
    }
  }
}
layer {
  name: "rpn_relu/3x3_2"
  type: "ReLU"
  bottom: "rpn/output_2"
  top: "rpn/output_2"
}
layer {
  name: "rpn/output_pool"
  type: "Pooling"
  bottom: "rpn/output_2"
  top: "rpn/output_pool"
  pooling_param {
    pool: MAX
    kernel_size: 1
    kernel_size: 2
    kernel_size: 2
  }
}
layer {
  name: "rpn_cls_score"
  type: "Convolution"
  bottom: "rpn/output_pool"
  top: "rpn_cls_score"
  param {
    lr_mult: 1
    decay_mult: 1
  }
  param {
    lr_mult: 2
    decay_mult: 0
  }
  convolution_param {
    num_output: 74
    kernel_size: 1
    kernel_size: 1
    kernel_size: 1
    weight_filler {
      type: "gaussian"
      std: 0.01
    }
    bias_filler {
      type: "constant"
      value: 0
    }
  }
}
layer {
  name: "rpn_twin_pred"
  type: "Convolution"
  bottom: "rpn/output_pool"
  top: "rpn_twin_pred"
  param {
    lr_mult: 1
    decay_mult: 1
  }
  param {
    lr_mult: 2
    decay_mult: 0
  }
  convolution_param {
    num_output: 74
    kernel_size: 1
    kernel_size: 1
    kernel_size: 1
    weight_filler {
      type: "gaussian"
      std: 0.01
    }
    bias_filler {
      type: "constant"
      value: 0
    }
  }
}
layer {
  name: "rpn_cls_score_reshape"
  type: "Reshape"
  bottom: "rpn_cls_score"
  top: "rpn_cls_score_reshape"
  reshape_param {
    shape {
      dim: 0
      dim: 2
      dim: -1
      dim: 0
      dim: 0
    }
  }
}
layer {
  name: "rpn-data"
  type: "Python"
  bottom: "rpn_cls_score"
  bottom: "gt_boxes"
  bottom: "data"
  top: "rpn_labels"
  top: "rpn_twin_targets"
  top: "rpn_twin_inside_weights"
  top: "rpn_twin_outside_weights"
  python_param {
    module: "rpn.anchor_target_layer"
    layer: "AnchorTargetLayer"
    param_str: "\'feat_stride\': 8 \n\'scales\': !!python/tuple [1,1.25, 1.5,1.75, 2,2.5, 3,3.5, 4,4.5, 5,5.5, 6,7, 8,9,10,11,12,14,16,18,20,22,24,28,32,36,40,44,52,60,68,76,84,92,100]"
  }
}
layer {
  name: "rpn_loss_cls"
  type: "SoftmaxWithLoss"
  bottom: "rpn_cls_score_reshape"
  bottom: "rpn_labels"
  top: "rpn_cls_loss"
  loss_weight: 1
  propagate_down: true
  propagate_down: false
  loss_param {
    ignore_label: -1
    normalize: true
  }
}
layer {
  name: "rpn_loss_twin"
  type: "SmoothL1Loss"
  bottom: "rpn_twin_pred"
  bottom: "rpn_twin_targets"
  bottom: "rpn_twin_inside_weights"
  bottom: "rpn_twin_outside_weights"
  top: "rpn_loss_twin"
  loss_weight: 1
  smooth_l1_loss_param {
    sigma: 3
  }
}
layer {
  name: "rpn_accuarcy"
  type: "Accuracy"
  bottom: "rpn_cls_score_reshape"
  bottom: "rpn_labels"
  top: "rpn_accuarcy"
  top: "rpn_accuarcy_class"
  propagate_down: false
  propagate_down: false
  accuracy_param {
    ignore_label: -1
  }
}
layer {
  name: "rpn_cls_prob"
  type: "Softmax"
  bottom: "rpn_cls_score_reshape"
  top: "rpn_cls_prob"
}
layer {
  name: "rpn_cls_prob_reshape"
  type: "Reshape"
  bottom: "rpn_cls_prob"
  top: "rpn_cls_prob_reshape"
  reshape_param {
    shape {
      dim: 0
      dim: 74
      dim: -1
      dim: 0
      dim: 0
    }
  }
}
layer {
  name: "proposal"
  type: "Python"
  bottom: "rpn_cls_prob_reshape"
  bottom: "rpn_twin_pred"
  top: "rpn_rois"
  include {
    phase: TRAIN
  }
  python_param {
    module: "rpn.proposal_layer"
    layer: "ProposalLayer"
    param_str: "\'feat_stride\': 8 \n\'scales\': !!python/tuple [1,1.25, 1.5,1.75, 2,2.5, 3,3.5, 4,4.5, 5,5.5, 6,7, 8,9,10,11,12,14,16,18,20,22,24,28,32,36,40,44,52,60,68,76,84,92,100]"
  }
}
layer {
  name: "roi-data"
  type: "Python"
  bottom: "rpn_rois"
  bottom: "gt_boxes"
  top: "rois"
  top: "labels"
  top: "twin_targets"
  top: "twin_inside_weights"
  top: "twin_outside_weights"
  python_param {
    module: "rpn.proposal_target_layer"
    layer: "ProposalTargetLayer"
    param_str: "\'num_classes\': 201"
  }
}
layer {
  name: "roi_pool5"
  type: "ROIPooling"
  bottom: "conv5b"
  bottom: "rois"
  top: "pool5"
  roi_pooling_param {
    pooled_h: 4
    pooled_w: 4
    spatial_scale: 0.0625
    pooled_l: 1
    temporal_scale: 0.125
  }
}
layer {
  name: "fc6"
  type: "InnerProduct"
  bottom: "pool5"
  top: "fc6"
  param {
    lr_mult: 1
    decay_mult: 1
  }
  param {
    lr_mult: 2
    decay_mult: 0
  }
  inner_product_param {
    num_output: 4096
    weight_filler {
      type: "gaussian"
      std: 0.005
    }
    bias_filler {
      type: "constant"
      value: 1
    }
  }
}
layer {
  name: "relu6"
  type: "ReLU"
  bottom: "fc6"
  top: "fc6"
}
layer {
  name: "drop6"
  type: "Dropout"
  bottom: "fc6"
  top: "fc6"
  dropout_param {
    dropout_ratio: 0.5
  }
}
layer {
  name: "cls_score"
  type: "InnerProduct"
  bottom: "fc6"
  top: "cls_score"
  param {
    lr_mult: 1
    decay_mult: 1
  }
  param {
    lr_mult: 2
    decay_mult: 0
  }
  inner_product_param {
    num_output: 201
    weight_filler {
      type: "gaussian"
      std: 0.01
    }
    bias_filler {
      type: "constant"
      value: 0
    }
  }
}
layer {
  name: "twin_pred"
  type: "InnerProduct"
  bottom: "fc6"
  top: "twin_pred"
  param {
    lr_mult: 1
    decay_mult: 1
  }
  param {
    lr_mult: 2
    decay_mult: 0
  }
  inner_product_param {
    num_output: 402
    weight_filler {
      type: "gaussian"
      std: 0.001
    }
    bias_filler {
      type: "constant"
      value: 0
    }
  }
}
layer {
  name: "loss_cls"
  type: "SoftmaxWithLoss"
  bottom: "cls_score"
  bottom: "labels"
  top: "loss_cls"
  loss_weight: 1
  propagate_down: true
  propagate_down: false
}
layer {
  name: "loss_twin"
  type: "SmoothL1Loss"
  bottom: "twin_pred"
  bottom: "twin_targets"
  bottom: "twin_inside_weights"
  bottom: "twin_outside_weights"
  top: "loss_twin"
  loss_weight: 1
}
layer {
  name: "accuarcy"
  type: "Accuracy"
  bottom: "cls_score"
  bottom: "labels"
  top: "accuarcy"
  propagate_down: false
  propagate_down: false
  accuracy_param {
    ignore_label: -1
  }
}
I0417 15:47:51.005177 20708 layer_factory.hpp:77] Creating layer data
I0417 15:47:51.030072 20708 net.cpp:100] Creating Layer data
I0417 15:47:51.030094 20708 net.cpp:408] data -> data
I0417 15:47:51.030107 20708 net.cpp:408] data -> gt_boxes
setting up
has rpn
RoiDataLayer: name_to_top: {'gt_windows': 1, 'data': 0}
I0417 15:47:51.043777 20708 net.cpp:150] Setting up data
I0417 15:47:51.043797 20708 net.cpp:157] Top shape: 1 3 768 112 112 (28901376)
I0417 15:47:51.043802 20708 net.cpp:157] Top shape: 1 101 (101)
I0417 15:47:51.043804 20708 net.cpp:165] Memory required for data: 115605908
I0417 15:47:51.043812 20708 layer_factory.hpp:77] Creating layer data_data_0_split
I0417 15:47:51.043823 20708 net.cpp:100] Creating Layer data_data_0_split
I0417 15:47:51.043826 20708 net.cpp:434] data_data_0_split <- data
I0417 15:47:51.043833 20708 net.cpp:408] data_data_0_split -> data_data_0_split_0
I0417 15:47:51.043841 20708 net.cpp:408] data_data_0_split -> data_data_0_split_1
I0417 15:47:51.043869 20708 net.cpp:150] Setting up data_data_0_split
I0417 15:47:51.043875 20708 net.cpp:157] Top shape: 1 3 768 112 112 (28901376)
I0417 15:47:51.043879 20708 net.cpp:157] Top shape: 1 3 768 112 112 (28901376)
I0417 15:47:51.043882 20708 net.cpp:165] Memory required for data: 346816916
I0417 15:47:51.043885 20708 layer_factory.hpp:77] Creating layer gt_boxes_data_1_split
I0417 15:47:51.043890 20708 net.cpp:100] Creating Layer gt_boxes_data_1_split
I0417 15:47:51.043895 20708 net.cpp:434] gt_boxes_data_1_split <- gt_boxes
I0417 15:47:51.043898 20708 net.cpp:408] gt_boxes_data_1_split -> gt_boxes_data_1_split_0
I0417 15:47:51.043903 20708 net.cpp:408] gt_boxes_data_1_split -> gt_boxes_data_1_split_1
I0417 15:47:51.043926 20708 net.cpp:150] Setting up gt_boxes_data_1_split
I0417 15:47:51.043931 20708 net.cpp:157] Top shape: 1 101 (101)
I0417 15:47:51.043933 20708 net.cpp:157] Top shape: 1 101 (101)
I0417 15:47:51.043936 20708 net.cpp:165] Memory required for data: 346817724
I0417 15:47:51.043939 20708 layer_factory.hpp:77] Creating layer conv1a
I0417 15:47:51.043953 20708 net.cpp:100] Creating Layer conv1a
I0417 15:47:51.043956 20708 net.cpp:434] conv1a <- data_data_0_split_0
I0417 15:47:51.043962 20708 net.cpp:408] conv1a -> conv1a
I0417 15:47:51.442996 20708 net.cpp:150] Setting up conv1a
I0417 15:47:51.443025 20708 net.cpp:157] Top shape: 1 64 768 112 112 (616562688)
I0417 15:47:51.443030 20708 net.cpp:165] Memory required for data: 2813068476
I0417 15:47:51.443050 20708 layer_factory.hpp:77] Creating layer relu1a
I0417 15:47:51.443064 20708 net.cpp:100] Creating Layer relu1a
I0417 15:47:51.443069 20708 net.cpp:434] relu1a <- conv1a
I0417 15:47:51.443075 20708 net.cpp:395] relu1a -> conv1a (in-place)
I0417 15:47:51.443521 20708 net.cpp:150] Setting up relu1a
I0417 15:47:51.443534 20708 net.cpp:157] Top shape: 1 64 768 112 112 (616562688)
I0417 15:47:51.443539 20708 net.cpp:165] Memory required for data: 5279319228
I0417 15:47:51.443543 20708 layer_factory.hpp:77] Creating layer pool1
I0417 15:47:51.443554 20708 net.cpp:100] Creating Layer pool1
I0417 15:47:51.443558 20708 net.cpp:434] pool1 <- conv1a
I0417 15:47:51.443564 20708 net.cpp:408] pool1 -> pool1
I0417 15:47:51.443743 20708 net.cpp:150] Setting up pool1
I0417 15:47:51.443754 20708 net.cpp:157] Top shape: 1 64 768 56 56 (154140672)
I0417 15:47:51.443758 20708 net.cpp:165] Memory required for data: 5895881916
I0417 15:47:51.443761 20708 layer_factory.hpp:77] Creating layer conv2a
I0417 15:47:51.443773 20708 net.cpp:100] Creating Layer conv2a
I0417 15:47:51.443776 20708 net.cpp:434] conv2a <- pool1
I0417 15:47:51.443783 20708 net.cpp:408] conv2a -> conv2a
I0417 15:47:51.455472 20708 net.cpp:150] Setting up conv2a
I0417 15:47:51.455495 20708 net.cpp:157] Top shape: 1 128 768 56 56 (308281344)
I0417 15:47:51.455499 20708 net.cpp:165] Memory required for data: 7129007292
I0417 15:47:51.455513 20708 layer_factory.hpp:77] Creating layer relu2a
I0417 15:47:51.455523 20708 net.cpp:100] Creating Layer relu2a
I0417 15:47:51.455526 20708 net.cpp:434] relu2a <- conv2a
I0417 15:47:51.455533 20708 net.cpp:395] relu2a -> conv2a (in-place)
I0417 15:47:51.455857 20708 net.cpp:150] Setting up relu2a
I0417 15:47:51.455871 20708 net.cpp:157] Top shape: 1 128 768 56 56 (308281344)
I0417 15:47:51.455875 20708 net.cpp:165] Memory required for data: 8362132668
I0417 15:47:51.455879 20708 layer_factory.hpp:77] Creating layer pool2
I0417 15:47:51.455890 20708 net.cpp:100] Creating Layer pool2
I0417 15:47:51.455893 20708 net.cpp:434] pool2 <- conv2a
I0417 15:47:51.455899 20708 net.cpp:408] pool2 -> pool2
I0417 15:47:51.456071 20708 net.cpp:150] Setting up pool2
I0417 15:47:51.456082 20708 net.cpp:157] Top shape: 1 128 384 28 28 (38535168)
I0417 15:47:51.456086 20708 net.cpp:165] Memory required for data: 8516273340
I0417 15:47:51.456089 20708 layer_factory.hpp:77] Creating layer conv3a
I0417 15:47:51.456100 20708 net.cpp:100] Creating Layer conv3a
I0417 15:47:51.456104 20708 net.cpp:434] conv3a <- pool2
I0417 15:47:51.456110 20708 net.cpp:408] conv3a -> conv3a
I0417 15:47:51.481823 20708 net.cpp:150] Setting up conv3a
I0417 15:47:51.481847 20708 net.cpp:157] Top shape: 1 256 384 28 28 (77070336)
I0417 15:47:51.481850 20708 net.cpp:165] Memory required for data: 8824554684
I0417 15:47:51.481863 20708 layer_factory.hpp:77] Creating layer relu3a
I0417 15:47:51.481873 20708 net.cpp:100] Creating Layer relu3a
I0417 15:47:51.481878 20708 net.cpp:434] relu3a <- conv3a
I0417 15:47:51.481884 20708 net.cpp:395] relu3a -> conv3a (in-place)
I0417 15:47:51.482175 20708 net.cpp:150] Setting up relu3a
I0417 15:47:51.482189 20708 net.cpp:157] Top shape: 1 256 384 28 28 (77070336)
I0417 15:47:51.482192 20708 net.cpp:165] Memory required for data: 9132836028
I0417 15:47:51.482197 20708 layer_factory.hpp:77] Creating layer conv3b
I0417 15:47:51.482208 20708 net.cpp:100] Creating Layer conv3b
I0417 15:47:51.482211 20708 net.cpp:434] conv3b <- conv3a
I0417 15:47:51.482218 20708 net.cpp:408] conv3b -> conv3b
I0417 15:47:51.534385 20708 net.cpp:150] Setting up conv3b
I0417 15:47:51.534410 20708 net.cpp:157] Top shape: 1 256 384 28 28 (77070336)
I0417 15:47:51.534415 20708 net.cpp:165] Memory required for data: 9441117372
I0417 15:47:51.534423 20708 layer_factory.hpp:77] Creating layer relu3b
I0417 15:47:51.534432 20708 net.cpp:100] Creating Layer relu3b
I0417 15:47:51.534436 20708 net.cpp:434] relu3b <- conv3b
I0417 15:47:51.534442 20708 net.cpp:395] relu3b -> conv3b (in-place)
I0417 15:47:51.534739 20708 net.cpp:150] Setting up relu3b
I0417 15:47:51.534754 20708 net.cpp:157] Top shape: 1 256 384 28 28 (77070336)
I0417 15:47:51.534757 20708 net.cpp:165] Memory required for data: 9749398716
I0417 15:47:51.534778 20708 layer_factory.hpp:77] Creating layer pool3
I0417 15:47:51.534786 20708 net.cpp:100] Creating Layer pool3
I0417 15:47:51.534790 20708 net.cpp:434] pool3 <- conv3b
I0417 15:47:51.534804 20708 net.cpp:408] pool3 -> pool3
I0417 15:47:51.534974 20708 net.cpp:150] Setting up pool3
I0417 15:47:51.534986 20708 net.cpp:157] Top shape: 1 256 192 14 14 (9633792)
I0417 15:47:51.534989 20708 net.cpp:165] Memory required for data: 9787933884
I0417 15:47:51.534993 20708 layer_factory.hpp:77] Creating layer conv4a
I0417 15:47:51.535003 20708 net.cpp:100] Creating Layer conv4a
I0417 15:47:51.535007 20708 net.cpp:434] conv4a <- pool3
I0417 15:47:51.535013 20708 net.cpp:408] conv4a -> conv4a
I0417 15:47:51.632467 20708 net.cpp:150] Setting up conv4a
I0417 15:47:51.632493 20708 net.cpp:157] Top shape: 1 512 192 14 14 (19267584)
I0417 15:47:51.632498 20708 net.cpp:165] Memory required for data: 9865004220
I0417 15:47:51.632511 20708 layer_factory.hpp:77] Creating layer relu4a
I0417 15:47:51.632521 20708 net.cpp:100] Creating Layer relu4a
I0417 15:47:51.632526 20708 net.cpp:434] relu4a <- conv4a
I0417 15:47:51.632532 20708 net.cpp:395] relu4a -> conv4a (in-place)
I0417 15:47:51.632831 20708 net.cpp:150] Setting up relu4a
I0417 15:47:51.632844 20708 net.cpp:157] Top shape: 1 512 192 14 14 (19267584)
I0417 15:47:51.632848 20708 net.cpp:165] Memory required for data: 9942074556
I0417 15:47:51.632851 20708 layer_factory.hpp:77] Creating layer conv4b
I0417 15:47:51.632865 20708 net.cpp:100] Creating Layer conv4b
I0417 15:47:51.632869 20708 net.cpp:434] conv4b <- conv4a
I0417 15:47:51.632875 20708 net.cpp:408] conv4b -> conv4b
I0417 15:47:51.819985 20708 net.cpp:150] Setting up conv4b
I0417 15:47:51.820008 20708 net.cpp:157] Top shape: 1 512 192 14 14 (19267584)
I0417 15:47:51.820013 20708 net.cpp:165] Memory required for data: 10019144892
I0417 15:47:51.820021 20708 layer_factory.hpp:77] Creating layer relu4b
I0417 15:47:51.820030 20708 net.cpp:100] Creating Layer relu4b
I0417 15:47:51.820034 20708 net.cpp:434] relu4b <- conv4b
I0417 15:47:51.820040 20708 net.cpp:395] relu4b -> conv4b (in-place)
I0417 15:47:51.820184 20708 net.cpp:150] Setting up relu4b
I0417 15:47:51.820194 20708 net.cpp:157] Top shape: 1 512 192 14 14 (19267584)
I0417 15:47:51.820197 20708 net.cpp:165] Memory required for data: 10096215228
I0417 15:47:51.820201 20708 layer_factory.hpp:77] Creating layer pool4
I0417 15:47:51.820207 20708 net.cpp:100] Creating Layer pool4
I0417 15:47:51.820211 20708 net.cpp:434] pool4 <- conv4b
I0417 15:47:51.820217 20708 net.cpp:408] pool4 -> pool4
I0417 15:47:51.820523 20708 net.cpp:150] Setting up pool4
I0417 15:47:51.820534 20708 net.cpp:157] Top shape: 1 512 96 7 7 (2408448)
I0417 15:47:51.820538 20708 net.cpp:165] Memory required for data: 10105849020
I0417 15:47:51.820541 20708 layer_factory.hpp:77] Creating layer conv5a
I0417 15:47:51.820551 20708 net.cpp:100] Creating Layer conv5a
I0417 15:47:51.820554 20708 net.cpp:434] conv5a <- pool4
I0417 15:47:51.820560 20708 net.cpp:408] conv5a -> conv5a
I0417 15:47:52.006098 20708 net.cpp:150] Setting up conv5a
I0417 15:47:52.006121 20708 net.cpp:157] Top shape: 1 512 96 7 7 (2408448)
I0417 15:47:52.006125 20708 net.cpp:165] Memory required for data: 10115482812
I0417 15:47:52.006134 20708 layer_factory.hpp:77] Creating layer relu5a
I0417 15:47:52.006144 20708 net.cpp:100] Creating Layer relu5a
I0417 15:47:52.006148 20708 net.cpp:434] relu5a <- conv5a
I0417 15:47:52.006155 20708 net.cpp:395] relu5a -> conv5a (in-place)
I0417 15:47:52.008656 20708 net.cpp:150] Setting up relu5a
I0417 15:47:52.008669 20708 net.cpp:157] Top shape: 1 512 96 7 7 (2408448)
I0417 15:47:52.008673 20708 net.cpp:165] Memory required for data: 10125116604
I0417 15:47:52.008677 20708 layer_factory.hpp:77] Creating layer conv5b
I0417 15:47:52.008689 20708 net.cpp:100] Creating Layer conv5b
I0417 15:47:52.008693 20708 net.cpp:434] conv5b <- conv5a
I0417 15:47:52.008700 20708 net.cpp:408] conv5b -> conv5b
I0417 15:47:52.200151 20708 net.cpp:150] Setting up conv5b
I0417 15:47:52.200176 20708 net.cpp:157] Top shape: 1 512 96 7 7 (2408448)
I0417 15:47:52.200179 20708 net.cpp:165] Memory required for data: 10134750396
I0417 15:47:52.200187 20708 layer_factory.hpp:77] Creating layer relu5b
I0417 15:47:52.200198 20708 net.cpp:100] Creating Layer relu5b
I0417 15:47:52.200202 20708 net.cpp:434] relu5b <- conv5b
I0417 15:47:52.200208 20708 net.cpp:395] relu5b -> conv5b (in-place)
I0417 15:47:52.200359 20708 net.cpp:150] Setting up relu5b
I0417 15:47:52.200369 20708 net.cpp:157] Top shape: 1 512 96 7 7 (2408448)
I0417 15:47:52.200372 20708 net.cpp:165] Memory required for data: 10144384188
I0417 15:47:52.200376 20708 layer_factory.hpp:77] Creating layer conv5b_relu5b_0_split
I0417 15:47:52.200382 20708 net.cpp:100] Creating Layer conv5b_relu5b_0_split
I0417 15:47:52.200387 20708 net.cpp:434] conv5b_relu5b_0_split <- conv5b
I0417 15:47:52.200392 20708 net.cpp:408] conv5b_relu5b_0_split -> conv5b_relu5b_0_split_0
I0417 15:47:52.200398 20708 net.cpp:408] conv5b_relu5b_0_split -> conv5b_relu5b_0_split_1
I0417 15:47:52.200433 20708 net.cpp:150] Setting up conv5b_relu5b_0_split
I0417 15:47:52.200440 20708 net.cpp:157] Top shape: 1 512 96 7 7 (2408448)
I0417 15:47:52.200445 20708 net.cpp:157] Top shape: 1 512 96 7 7 (2408448)
I0417 15:47:52.200448 20708 net.cpp:165] Memory required for data: 10163651772
I0417 15:47:52.200451 20708 layer_factory.hpp:77] Creating layer rpn_conv/3x3
I0417 15:47:52.200462 20708 net.cpp:100] Creating Layer rpn_conv/3x3
I0417 15:47:52.200469 20708 net.cpp:434] rpn_conv/3x3 <- conv5b_relu5b_0_split_0
I0417 15:47:52.200474 20708 net.cpp:408] rpn_conv/3x3 -> rpn/output
I0417 15:47:52.388887 20708 net.cpp:150] Setting up rpn_conv/3x3
I0417 15:47:52.388911 20708 net.cpp:157] Top shape: 1 512 96 4 4 (786432)
I0417 15:47:52.388914 20708 net.cpp:165] Memory required for data: 10166797500
I0417 15:47:52.388927 20708 layer_factory.hpp:77] Creating layer rpn_relu/3x3
I0417 15:47:52.388938 20708 net.cpp:100] Creating Layer rpn_relu/3x3
I0417 15:47:52.388942 20708 net.cpp:434] rpn_relu/3x3 <- rpn/output
I0417 15:47:52.388948 20708 net.cpp:395] rpn_relu/3x3 -> rpn/output (in-place)
I0417 15:47:52.389361 20708 net.cpp:150] Setting up rpn_relu/3x3
I0417 15:47:52.389374 20708 net.cpp:157] Top shape: 1 512 96 4 4 (786432)
I0417 15:47:52.389377 20708 net.cpp:165] Memory required for data: 10169943228
I0417 15:47:52.389380 20708 layer_factory.hpp:77] Creating layer rpn_conv/3x3_2
I0417 15:47:52.389392 20708 net.cpp:100] Creating Layer rpn_conv/3x3_2
I0417 15:47:52.389398 20708 net.cpp:434] rpn_conv/3x3_2 <- rpn/output
I0417 15:47:52.389407 20708 net.cpp:408] rpn_conv/3x3_2 -> rpn/output_2
I0417 15:47:52.574688 20708 net.cpp:150] Setting up rpn_conv/3x3_2
I0417 15:47:52.574712 20708 net.cpp:157] Top shape: 1 512 96 2 2 (196608)
I0417 15:47:52.574715 20708 net.cpp:165] Memory required for data: 10170729660
I0417 15:47:52.574724 20708 layer_factory.hpp:77] Creating layer rpn_relu/3x3_2
I0417 15:47:52.574733 20708 net.cpp:100] Creating Layer rpn_relu/3x3_2
I0417 15:47:52.574738 20708 net.cpp:434] rpn_relu/3x3_2 <- rpn/output_2
I0417 15:47:52.574744 20708 net.cpp:395] rpn_relu/3x3_2 -> rpn/output_2 (in-place)
I0417 15:47:52.575242 20708 net.cpp:150] Setting up rpn_relu/3x3_2
I0417 15:47:52.575253 20708 net.cpp:157] Top shape: 1 512 96 2 2 (196608)
I0417 15:47:52.575258 20708 net.cpp:165] Memory required for data: 10171516092
I0417 15:47:52.575263 20708 layer_factory.hpp:77] Creating layer rpn/output_pool
I0417 15:47:52.575270 20708 net.cpp:100] Creating Layer rpn/output_pool
I0417 15:47:52.575274 20708 net.cpp:434] rpn/output_pool <- rpn/output_2
I0417 15:47:52.575279 20708 net.cpp:408] rpn/output_pool -> rpn/output_pool
I0417 15:47:52.575456 20708 net.cpp:150] Setting up rpn/output_pool
I0417 15:47:52.575466 20708 net.cpp:157] Top shape: 1 512 96 1 1 (49152)
I0417 15:47:52.575469 20708 net.cpp:165] Memory required for data: 10171712700
I0417 15:47:52.575474 20708 layer_factory.hpp:77] Creating layer rpn/output_pool_rpn/output_pool_0_split
I0417 15:47:52.575480 20708 net.cpp:100] Creating Layer rpn/output_pool_rpn/output_pool_0_split
I0417 15:47:52.575484 20708 net.cpp:434] rpn/output_pool_rpn/output_pool_0_split <- rpn/output_pool
I0417 15:47:52.575489 20708 net.cpp:408] rpn/output_pool_rpn/output_pool_0_split -> rpn/output_pool_rpn/output_pool_0_split_0
I0417 15:47:52.575495 20708 net.cpp:408] rpn/output_pool_rpn/output_pool_0_split -> rpn/output_pool_rpn/output_pool_0_split_1
I0417 15:47:52.575525 20708 net.cpp:150] Setting up rpn/output_pool_rpn/output_pool_0_split
I0417 15:47:52.575532 20708 net.cpp:157] Top shape: 1 512 96 1 1 (49152)
I0417 15:47:52.575536 20708 net.cpp:157] Top shape: 1 512 96 1 1 (49152)
I0417 15:47:52.575539 20708 net.cpp:165] Memory required for data: 10172105916
I0417 15:47:52.575542 20708 layer_factory.hpp:77] Creating layer rpn_cls_score
I0417 15:47:52.575553 20708 net.cpp:100] Creating Layer rpn_cls_score
I0417 15:47:52.575557 20708 net.cpp:434] rpn_cls_score <- rpn/output_pool_rpn/output_pool_0_split_0
I0417 15:47:52.575562 20708 net.cpp:408] rpn_cls_score -> rpn_cls_score
I0417 15:47:52.580094 20708 net.cpp:150] Setting up rpn_cls_score
I0417 15:47:52.580107 20708 net.cpp:157] Top shape: 1 74 96 1 1 (7104)
I0417 15:47:52.580111 20708 net.cpp:165] Memory required for data: 10172134332
I0417 15:47:52.580117 20708 layer_factory.hpp:77] Creating layer rpn_cls_score_rpn_cls_score_0_split
I0417 15:47:52.580123 20708 net.cpp:100] Creating Layer rpn_cls_score_rpn_cls_score_0_split
I0417 15:47:52.580127 20708 net.cpp:434] rpn_cls_score_rpn_cls_score_0_split <- rpn_cls_score
I0417 15:47:52.580132 20708 net.cpp:408] rpn_cls_score_rpn_cls_score_0_split -> rpn_cls_score_rpn_cls_score_0_split_0
I0417 15:47:52.580138 20708 net.cpp:408] rpn_cls_score_rpn_cls_score_0_split -> rpn_cls_score_rpn_cls_score_0_split_1
I0417 15:47:52.580180 20708 net.cpp:150] Setting up rpn_cls_score_rpn_cls_score_0_split
I0417 15:47:52.580188 20708 net.cpp:157] Top shape: 1 74 96 1 1 (7104)
I0417 15:47:52.580191 20708 net.cpp:157] Top shape: 1 74 96 1 1 (7104)
I0417 15:47:52.580194 20708 net.cpp:165] Memory required for data: 10172191164
I0417 15:47:52.580199 20708 layer_factory.hpp:77] Creating layer rpn_twin_pred
I0417 15:47:52.580211 20708 net.cpp:100] Creating Layer rpn_twin_pred
I0417 15:47:52.580217 20708 net.cpp:434] rpn_twin_pred <- rpn/output_pool_rpn/output_pool_0_split_1
I0417 15:47:52.580224 20708 net.cpp:408] rpn_twin_pred -> rpn_twin_pred
I0417 15:47:52.582123 20708 net.cpp:150] Setting up rpn_twin_pred
I0417 15:47:52.582136 20708 net.cpp:157] Top shape: 1 74 96 1 1 (7104)
I0417 15:47:52.582139 20708 net.cpp:165] Memory required for data: 10172219580
I0417 15:47:52.582145 20708 layer_factory.hpp:77] Creating layer rpn_twin_pred_rpn_twin_pred_0_split
I0417 15:47:52.582151 20708 net.cpp:100] Creating Layer rpn_twin_pred_rpn_twin_pred_0_split
I0417 15:47:52.582155 20708 net.cpp:434] rpn_twin_pred_rpn_twin_pred_0_split <- rpn_twin_pred
I0417 15:47:52.582159 20708 net.cpp:408] rpn_twin_pred_rpn_twin_pred_0_split -> rpn_twin_pred_rpn_twin_pred_0_split_0
I0417 15:47:52.582166 20708 net.cpp:408] rpn_twin_pred_rpn_twin_pred_0_split -> rpn_twin_pred_rpn_twin_pred_0_split_1
I0417 15:47:52.582201 20708 net.cpp:150] Setting up rpn_twin_pred_rpn_twin_pred_0_split
I0417 15:47:52.582209 20708 net.cpp:157] Top shape: 1 74 96 1 1 (7104)
I0417 15:47:52.582213 20708 net.cpp:157] Top shape: 1 74 96 1 1 (7104)
I0417 15:47:52.582216 20708 net.cpp:165] Memory required for data: 10172276412
I0417 15:47:52.582219 20708 layer_factory.hpp:77] Creating layer rpn_cls_score_reshape
I0417 15:47:52.582233 20708 net.cpp:100] Creating Layer rpn_cls_score_reshape
I0417 15:47:52.582239 20708 net.cpp:434] rpn_cls_score_reshape <- rpn_cls_score_rpn_cls_score_0_split_0
I0417 15:47:52.582244 20708 net.cpp:408] rpn_cls_score_reshape -> rpn_cls_score_reshape
I0417 15:47:52.582273 20708 net.cpp:150] Setting up rpn_cls_score_reshape
I0417 15:47:52.582279 20708 net.cpp:157] Top shape: 1 2 3552 1 1 (7104)
I0417 15:47:52.582283 20708 net.cpp:165] Memory required for data: 10172304828
I0417 15:47:52.582285 20708 layer_factory.hpp:77] Creating layer rpn_cls_score_reshape_rpn_cls_score_reshape_0_split
I0417 15:47:52.582290 20708 net.cpp:100] Creating Layer rpn_cls_score_reshape_rpn_cls_score_reshape_0_split
I0417 15:47:52.582293 20708 net.cpp:434] rpn_cls_score_reshape_rpn_cls_score_reshape_0_split <- rpn_cls_score_reshape
I0417 15:47:52.582300 20708 net.cpp:408] rpn_cls_score_reshape_rpn_cls_score_reshape_0_split -> rpn_cls_score_reshape_rpn_cls_score_reshape_0_split_0
I0417 15:47:52.582309 20708 net.cpp:408] rpn_cls_score_reshape_rpn_cls_score_reshape_0_split -> rpn_cls_score_reshape_rpn_cls_score_reshape_0_split_1
I0417 15:47:52.582314 20708 net.cpp:408] rpn_cls_score_reshape_rpn_cls_score_reshape_0_split -> rpn_cls_score_reshape_rpn_cls_score_reshape_0_split_2
I0417 15:47:52.582353 20708 net.cpp:150] Setting up rpn_cls_score_reshape_rpn_cls_score_reshape_0_split
I0417 15:47:52.582360 20708 net.cpp:157] Top shape: 1 2 3552 1 1 (7104)
I0417 15:47:52.582365 20708 net.cpp:157] Top shape: 1 2 3552 1 1 (7104)
I0417 15:47:52.582367 20708 net.cpp:157] Top shape: 1 2 3552 1 1 (7104)
I0417 15:47:52.582370 20708 net.cpp:165] Memory required for data: 10172390076
I0417 15:47:52.582375 20708 layer_factory.hpp:77] Creating layer rpn-data
I0417 15:47:52.582765 20708 net.cpp:100] Creating Layer rpn-data
I0417 15:47:52.582777 20708 net.cpp:434] rpn-data <- rpn_cls_score_rpn_cls_score_0_split_1
I0417 15:47:52.582783 20708 net.cpp:434] rpn-data <- gt_boxes_data_1_split_0
I0417 15:47:52.582788 20708 net.cpp:434] rpn-data <- data_data_0_split_1
I0417 15:47:52.582793 20708 net.cpp:408] rpn-data -> rpn_labels
I0417 15:47:52.582801 20708 net.cpp:408] rpn-data -> rpn_twin_targets
I0417 15:47:52.582813 20708 net.cpp:408] rpn-data -> rpn_twin_inside_weights
I0417 15:47:52.582823 20708 net.cpp:408] rpn-data -> rpn_twin_outside_weights
I0417 15:47:52.585041 20708 net.cpp:150] Setting up rpn-data
I0417 15:47:52.585052 20708 net.cpp:157] Top shape: 1 1 3552 1 1 (3552)
I0417 15:47:52.585057 20708 net.cpp:157] Top shape: 1 74 96 1 1 (7104)
I0417 15:47:52.585059 20708 net.cpp:157] Top shape: 1 74 96 1 1 (7104)
I0417 15:47:52.585063 20708 net.cpp:157] Top shape: 1 74 96 1 1 (7104)
I0417 15:47:52.585067 20708 net.cpp:165] Memory required for data: 10172489532
I0417 15:47:52.585069 20708 layer_factory.hpp:77] Creating layer rpn_labels_rpn-data_0_split
I0417 15:47:52.585075 20708 net.cpp:100] Creating Layer rpn_labels_rpn-data_0_split
I0417 15:47:52.585078 20708 net.cpp:434] rpn_labels_rpn-data_0_split <- rpn_labels
I0417 15:47:52.585084 20708 net.cpp:408] rpn_labels_rpn-data_0_split -> rpn_labels_rpn-data_0_split_0
I0417 15:47:52.585090 20708 net.cpp:408] rpn_labels_rpn-data_0_split -> rpn_labels_rpn-data_0_split_1
I0417 15:47:52.585121 20708 net.cpp:150] Setting up rpn_labels_rpn-data_0_split
I0417 15:47:52.585126 20708 net.cpp:157] Top shape: 1 1 3552 1 1 (3552)
I0417 15:47:52.585129 20708 net.cpp:157] Top shape: 1 1 3552 1 1 (3552)
I0417 15:47:52.585132 20708 net.cpp:165] Memory required for data: 10172517948
I0417 15:47:52.585136 20708 layer_factory.hpp:77] Creating layer rpn_loss_cls
I0417 15:47:52.585144 20708 net.cpp:100] Creating Layer rpn_loss_cls
I0417 15:47:52.585147 20708 net.cpp:434] rpn_loss_cls <- rpn_cls_score_reshape_rpn_cls_score_reshape_0_split_0
I0417 15:47:52.585152 20708 net.cpp:434] rpn_loss_cls <- rpn_labels_rpn-data_0_split_0
…
I0417 15:47:52.586383 20708 layer_factory.hpp:77] Creating layer rpn_accuarcy
I0417 15:47:52.586398 20708 net.cpp:100] Creating Layer rpn_accuarcy
I0417 15:47:52.586410 20708 net.cpp:434] rpn_accuarcy <- rpn_cls_score_reshape_rpn_cls_score_reshape_0_split_1
I0417 15:47:52.586419 20708 net.cpp:434] rpn_accuarcy <- rpn_labels_rpn-data_0_split_1
I0417 15:47:52.586432 20708 net.cpp:408] rpn_accuarcy -> rpn_accuarcy
I0417 15:47:52.586447 20708 net.cpp:408] rpn_accuarcy -> rpn_accuarcy_class
I0417 15:47:52.586531 20708 net.cpp:150] Setting up rpn_accuarcy
I0417 15:47:52.586545 20708 net.cpp:157] Top shape: (1)
I0417 15:47:52.586555 20708 net.cpp:157] Top shape: 2 (2)
I0417 15:47:52.586563 20708 net.cpp:165] Memory required for data: 10172517968
I0417 15:47:52.586570 20708 layer_factory.hpp:77] Creating layer rpn_cls_prob
I0417 15:47:52.586580 20708 net.cpp:100] Creating Layer rpn_cls_prob
I0417 15:47:52.586591 20708 net.cpp:434] rpn_cls_prob <- rpn_cls_score_reshape_rpn_cls_score_reshape_0_split_2
I0417 15:47:52.586603 20708 net.cpp:408] rpn_cls_prob -> rpn_cls_prob
I0417 15:47:52.587110 20708 net.cpp:150] Setting up rpn_cls_prob
I0417 15:47:52.587136 20708 net.cpp:157] Top shape: 1 2 3552 1 1 (7104)
I0417 15:47:52.587146 20708 net.cpp:165] Memory required for data: 10172546384
I0417 15:47:52.587154 20708 layer_factory.hpp:77] Creating layer rpn_cls_prob_reshape
I0417 15:47:52.587167 20708 net.cpp:100] Creating Layer rpn_cls_prob_reshape
I0417 15:47:52.587179 20708 net.cpp:434] rpn_cls_prob_reshape <- rpn_cls_prob
I0417 15:47:52.587191 20708 net.cpp:408] rpn_cls_prob_reshape -> rpn_cls_prob_reshape
I0417 15:47:52.587252 20708 net.cpp:150] Setting up rpn_cls_prob_reshape
I0417 15:47:52.587266 20708 net.cpp:157] Top shape: 1 74 96 1 1 (7104)
I0417 15:47:52.587273 20708 net.cpp:165] Memory required for data: 10172574800
I0417 15:47:52.587282 20708 layer_factory.hpp:77] Creating layer proposal
I0417 15:47:52.588387 20708 net.cpp:100] Creating Layer proposal
I0417 15:47:52.588413 20708 net.cpp:434] proposal <- rpn_cls_prob_reshape
I0417 15:47:52.588428 20708 net.cpp:434] proposal <- rpn_twin_pred_rpn_twin_pred_0_split_1
I0417 15:47:52.588443 20708 net.cpp:408] proposal -> rpn_rois
I0417 15:47:52.593801 20708 net.cpp:150] Setting up proposal
I0417 15:47:52.593832 20708 net.cpp:157] Top shape: 1 3 (3)
I0417 15:47:52.593843 20708 net.cpp:165] Memory required for data: 10172574812
I0417 15:47:52.593852 20708 layer_factory.hpp:77] Creating layer roi-data
I0417 15:47:52.597373 20708 net.cpp:100] Creating Layer roi-data
I0417 15:47:52.597403 20708 net.cpp:434] roi-data <- rpn_rois
I0417 15:47:52.597417 20708 net.cpp:434] roi-data <- gt_boxes_data_1_split_1
I0417 15:47:52.597434 20708 net.cpp:408] roi-data -> rois
I0417 15:47:52.597451 20708 net.cpp:408] roi-data -> labels
I0417 15:47:52.597467 20708 net.cpp:408] roi-data -> twin_targets
I0417 15:47:52.597483 20708 net.cpp:408] roi-data -> twin_inside_weights
I0417 15:47:52.597498 20708 net.cpp:408] roi-data -> twin_outside_weights
I0417 15:47:52.598245 20708 net.cpp:150] Setting up roi-data
I0417 15:47:52.598273 20708 net.cpp:157] Top shape: 1 3 (3)
I0417 15:47:52.598285 20708 net.cpp:157] Top shape: 1 1 (1)
I0417 15:47:52.598295 20708 net.cpp:157] Top shape: 1 402 (402)
I0417 15:47:52.598304 20708 net.cpp:157] Top shape: 1 402 (402)
I0417 15:47:52.598314 20708 net.cpp:157] Top shape: 1 402 (402)
I0417 15:47:52.598320 20708 net.cpp:165] Memory required for data: 10172579652
I0417 15:47:52.598330 20708 layer_factory.hpp:77] Creating layer labels_roi-data_1_split
I0417 15:47:52.598343 20708 net.cpp:100] Creating Layer labels_roi-data_1_split
I0417 15:47:52.598353 20708 net.cpp:434] labels_roi-data_1_split <- labels
I0417 15:47:52.598366 20708 net.cpp:408] labels_roi-data_1_split -> labels_roi-data_1_split_0
I0417 15:47:52.598382 20708 net.cpp:408] labels_roi-data_1_split -> labels_roi-data_1_split_1
I0417 15:47:52.598457 20708 net.cpp:150] Setting up labels_roi-data_1_split
I0417 15:47:52.598472 20708 net.cpp:157] Top shape: 1 1 (1)
I0417 15:47:52.598482 20708 net.cpp:157] Top shape: 1 1 (1)
I0417 15:47:52.598491 20708 net.cpp:165] Memory required for data: 10172579660
I0417 15:47:52.598500 20708 layer_factory.hpp:77] Creating layer roi_pool5
I0417 15:47:52.598518 20708 net.cpp:100] Creating Layer roi_pool5
I0417 15:47:52.598529 20708 net.cpp:434] roi_pool5 <- conv5b_relu5b_0_split_1
I0417 15:47:52.598541 20708 net.cpp:434] roi_pool5 <- rois
I0417 15:47:52.598553 20708 net.cpp:408] roi_pool5 -> pool5
I0417 15:47:52.598572 20708 roi_pooling_layer.cpp:34] Temporal scale: 0.125
I0417 15:47:52.598587 20708 roi_pooling_layer.cpp:35] Spatial scale: 0.0625
I0417 15:47:52.598657 20708 net.cpp:150] Setting up roi_pool5
I0417 15:47:52.598671 20708 net.cpp:157] Top shape: 1 512 1 4 4 (8192)
I0417 15:47:52.598680 20708 net.cpp:165] Memory required for data: 10172612428
I0417 15:47:52.598688 20708 layer_factory.hpp:77] Creating layer fc6
I0417 15:47:52.598706 20708 net.cpp:100] Creating Layer fc6
I0417 15:47:52.598716 20708 net.cpp:434] fc6 <- pool5
I0417 15:47:52.598728 20708 net.cpp:408] fc6 -> fc6
I0417 15:47:53.490787 20708 net.cpp:150] Setting up fc6
I0417 15:47:53.490811 20708 net.cpp:157] Top shape: 1 4096 (4096)
I0417 15:47:53.490815 20708 net.cpp:165] Memory required for data: 10172628812
I0417 15:47:53.490825 20708 layer_factory.hpp:77] Creating layer relu6
I0417 15:47:53.490834 20708 net.cpp:100] Creating Layer relu6
I0417 15:47:53.490839 20708 net.cpp:434] relu6 <- fc6
I0417 15:47:53.490845 20708 net.cpp:395] relu6 -> fc6 (in-place)
I0417 15:47:53.491259 20708 net.cpp:150] Setting up relu6
I0417 15:47:53.491272 20708 net.cpp:157] Top shape: 1 4096 (4096)
I0417 15:47:53.491276 20708 net.cpp:165] Memory required for data: 10172645196
I0417 15:47:53.491281 20708 layer_factory.hpp:77] Creating layer drop6
I0417 15:47:53.491292 20708 net.cpp:100] Creating Layer drop6
I0417 15:47:53.491297 20708 net.cpp:434] drop6 <- fc6
I0417 15:47:53.491302 20708 net.cpp:395] drop6 -> fc6 (in-place)
I0417 15:47:53.491328 20708 net.cpp:150] Setting up drop6
I0417 15:47:53.491335 20708 net.cpp:157] Top shape: 1 4096 (4096)
I0417 15:47:53.491338 20708 net.cpp:165] Memory required for data: 10172661580
I0417 15:47:53.491343 20708 layer_factory.hpp:77] Creating layer fc6_drop6_0_split
I0417 15:47:53.491363 20708 net.cpp:100] Creating Layer fc6_drop6_0_split
I0417 15:47:53.491366 20708 net.cpp:434] fc6_drop6_0_split <- fc6
I0417 15:47:53.491371 20708 net.cpp:408] fc6_drop6_0_split -> fc6_drop6_0_split_0
I0417 15:47:53.491377 20708 net.cpp:408] fc6_drop6_0_split -> fc6_drop6_0_split_1
I0417 15:47:53.491410 20708 net.cpp:150] Setting up fc6_drop6_0_split
I0417 15:47:53.491417 20708 net.cpp:157] Top shape: 1 4096 (4096)
I0417 15:47:53.491420 20708 net.cpp:157] Top shape: 1 4096 (4096)
I0417 15:47:53.491423 20708 net.cpp:165] Memory required for data: 10172694348
I0417 15:47:53.491426 20708 layer_factory.hpp:77] Creating layer cls_score
I0417 15:47:53.491434 20708 net.cpp:100] Creating Layer cls_score
I0417 15:47:53.491437 20708 net.cpp:434] cls_score <- fc6_drop6_0_split_0
I0417 15:47:53.491442 20708 net.cpp:408] cls_score -> cls_score
I0417 15:47:53.512903 20708 net.cpp:150] Setting up cls_score
I0417 15:47:53.512917 20708 net.cpp:157] Top shape: 1 201 (201)
I0417 15:47:53.512920 20708 net.cpp:165] Memory required for data: 10172695152
I0417 15:47:53.512926 20708 layer_factory.hpp:77] Creating layer cls_score_cls_score_0_split
I0417 15:47:53.512931 20708 net.cpp:100] Creating Layer cls_score_cls_score_0_split
I0417 15:47:53.512935 20708 net.cpp:434] cls_score_cls_score_0_split <- cls_score
I0417 15:47:53.512940 20708 net.cpp:408] cls_score_cls_score_0_split -> cls_score_cls_score_0_split_0
I0417 15:47:53.512946 20708 net.cpp:408] cls_score_cls_score_0_split -> cls_score_cls_score_0_split_1
I0417 15:47:53.512977 20708 net.cpp:150] Setting up cls_score_cls_score_0_split
I0417 15:47:53.512985 20708 net.cpp:157] Top shape: 1 201 (201)
I0417 15:47:53.512989 20708 net.cpp:157] Top shape: 1 201 (201)
I0417 15:47:53.512993 20708 net.cpp:165] Memory required for data: 10172696760
I0417 15:47:53.512996 20708 layer_factory.hpp:77] Creating layer twin_pred
I0417 15:47:53.513006 20708 net.cpp:100] Creating Layer twin_pred
I0417 15:47:53.513010 20708 net.cpp:434] twin_pred <- fc6_drop6_0_split_1
I0417 15:47:53.513016 20708 net.cpp:408] twin_pred -> twin_pred
I0417 15:47:53.555882 20708 net.cpp:150] Setting up twin_pred
I0417 15:47:53.555903 20708 net.cpp:157] Top shape: 1 402 (402)
I0417 15:47:53.555907 20708 net.cpp:165] Memory required for data: 10172698368
I0417 15:47:53.555915 20708 layer_factory.hpp:77] Creating layer loss_cls
I0417 15:47:53.555924 20708 net.cpp:100] Creating Layer loss_cls
I0417 15:47:53.555928 20708 net.cpp:434] loss_cls <- cls_score_cls_score_0_split_0
I0417 15:47:53.555935 20708 net.cpp:434] loss_cls <- labels_roi-data_1_split_0
I0417 15:47:53.555941 20708 net.cpp:408] loss_cls -> loss_cls
…
