…
stepsize: 350000
snapshot: 0
snapshot_prefix: "./experiments/activitynet/snapshot/activitynet"
average_loss: 100
iter_size: 1
I0417 15:46:01.293407 13850 solver.cpp:81] Creating training net from train_net file: ./experiments/activitynet/train.prototxt
I0417 15:46:01.294430 13850 net.cpp:58] Initializing net from parameters: 
name: "activitynet"
state {
  phase: TRAIN
}
layer {
  name: "data"
  type: "Python"
  top: "data"
  top: "gt_boxes"
  python_param {
    module: "roi_data_layer.layer"
    layer: "RoIDataLayer"
    param_str: "\'num_classes\': 100"
  }
}
layer {
  name: "conv1a"
  type: "Convolution"
  bottom: "data"
  top: "conv1a"
  param {
    lr_mult: 0
    decay_mult: 0
  }
  param {
    lr_mult: 0
    decay_mult: 0
  }
  convolution_param {
    num_output: 64
    pad: 1
    pad: 1
    pad: 1
    kernel_size: 3
    kernel_size: 3
    kernel_size: 3
    weight_filler {
      type: "gaussian"
      std: 0.01
    }
    bias_filler {
      type: "constant"
      value: 0
    }
  }
}
layer {
  name: "relu1a"
  type: "ReLU"
  bottom: "conv1a"
  top: "conv1a"
}
layer {
  name: "pool1"
  type: "Pooling"
  bottom: "conv1a"
  top: "pool1"
  pooling_param {
    pool: MAX
    kernel_size: 1
    kernel_size: 2
    kernel_size: 2
    stride: 1
    stride: 2
    stride: 2
  }
}
layer {
  name: "conv2a"
  type: "Convolution"
  bottom: "pool1"
  top: "conv2a"
  param {
    lr_mult: 0
    decay_mult: 0
  }
  param {
    lr_mult: 0
    decay_mult: 0
  }
  convolution_param {
    num_output: 128
    pad: 1
    pad: 1
    pad: 1
    kernel_size: 3
    kernel_size: 3
    kernel_size: 3
    weight_filler {
      type: "gaussian"
      std: 0.01
    }
    bias_filler {
      type: "constant"
      value: 1
    }
  }
}
layer {
  name: "relu2a"
  type: "ReLU"
  bottom: "conv2a"
  top: "conv2a"
}
layer {
  name: "pool2"
  type: "Pooling"
  bottom: "conv2a"
  top: "pool2"
  pooling_param {
    pool: MAX
    kernel_size: 2
    kernel_size: 2
    kernel_size: 2
    stride: 2
    stride: 2
    stride: 2
  }
}
layer {
  name: "conv3a"
  type: "Convolution"
  bottom: "pool2"
  top: "conv3a"
  param {
    lr_mult: 1
    decay_mult: 1
  }
  param {
    lr_mult: 2
    decay_mult: 0
  }
  convolution_param {
    num_output: 256
    pad: 1
    pad: 1
    pad: 1
    kernel_size: 3
    kernel_size: 3
    kernel_size: 3
    weight_filler {
      type: "gaussian"
      std: 0.01
    }
    bias_filler {
      type: "constant"
      value: 1
    }
  }
}
layer {
  name: "relu3a"
  type: "ReLU"
  bottom: "conv3a"
  top: "conv3a"
}
layer {
  name: "conv3b"
  type: "Convolution"
  bottom: "conv3a"
  top: "conv3b"
  param {
    lr_mult: 1
    decay_mult: 1
  }
  param {
    lr_mult: 2
    decay_mult: 0
  }
  convolution_param {
    num_output: 256
    pad: 1
    pad: 1
    pad: 1
    kernel_size: 3
    kernel_size: 3
    kernel_size: 3
    weight_filler {
      type: "gaussian"
      std: 0.01
    }
    bias_filler {
      type: "constant"
      value: 1
    }
  }
}
layer {
  name: "relu3b"
  type: "ReLU"
  bottom: "conv3b"
  top: "conv3b"
}
layer {
  name: "pool3"
  type: "Pooling"
  bottom: "conv3b"
  top: "pool3"
  pooling_param {
    pool: MAX
    kernel_size: 2
    kernel_size: 2
    kernel_size: 2
    stride: 2
    stride: 2
    stride: 2
  }
}
layer {
  name: "conv4a"
  type: "Convolution"
  bottom: "pool3"
  top: "conv4a"
  param {
    lr_mult: 1
    decay_mult: 1
  }
  param {
    lr_mult: 2
    decay_mult: 0
  }
  convolution_param {
    num_output: 512
    pad: 1
    pad: 1
    pad: 1
    kernel_size: 3
    kernel_size: 3
    kernel_size: 3
    weight_filler {
      type: "gaussian"
      std: 0.01
    }
    bias_filler {
      type: "constant"
      value: 1
    }
  }
}
layer {
  name: "relu4a"
  type: "ReLU"
  bottom: "conv4a"
  top: "conv4a"
}
layer {
  name: "conv4b"
  type: "Convolution"
  bottom: "conv4a"
  top: "conv4b"
  param {
    lr_mult: 1
    decay_mult: 1
  }
  param {
    lr_mult: 2
    decay_mult: 0
  }
  convolution_param {
    num_output: 512
    pad: 1
    pad: 1
    pad: 1
    kernel_size: 3
    kernel_size: 3
    kernel_size: 3
    weight_filler {
      type: "gaussian"
      std: 0.01
    }
    bias_filler {
      type: "constant"
      value: 1
    }
  }
}
layer {
  name: "relu4b"
  type: "ReLU"
  bottom: "conv4b"
  top: "conv4b"
}
layer {
  name: "pool4"
  type: "Pooling"
  bottom: "conv4b"
  top: "pool4"
  pooling_param {
    pool: MAX
    kernel_size: 2
    kernel_size: 2
    kernel_size: 2
    stride: 2
    stride: 2
    stride: 2
  }
}
layer {
  name: "conv5a"
  type: "Convolution"
  bottom: "pool4"
  top: "conv5a"
  param {
    lr_mult: 1
    decay_mult: 1
  }
  param {
    lr_mult: 2
    decay_mult: 0
  }
  convolution_param {
    num_output: 512
    pad: 1
    pad: 1
    pad: 1
    kernel_size: 3
    kernel_size: 3
    kernel_size: 3
    weight_filler {
      type: "gaussian"
      std: 0.01
    }
    bias_filler {
      type: "constant"
      value: 1
    }
  }
}
layer {
  name: "relu5a"
  type: "ReLU"
  bottom: "conv5a"
  top: "conv5a"
}
layer {
  name: "conv5b"
  type: "Convolution"
  bottom: "conv5a"
  top: "conv5b"
  param {
    lr_mult: 1
    decay_mult: 1
  }
  param {
    lr_mult: 2
    decay_mult: 0
  }
  convolution_param {
    num_output: 512
    pad: 1
    pad: 1
    pad: 1
    kernel_size: 3
    kernel_size: 3
    kernel_size: 3
    weight_filler {
      type: "gaussian"
      std: 0.01
    }
    bias_filler {
      type: "constant"
      value: 1
    }
  }
}
layer {
  name: "relu5b"
  type: "ReLU"
  bottom: "conv5b"
  top: "conv5b"
}
layer {
  name: "rpn_conv/3x3"
  type: "Convolution"
  bottom: "conv5b"
  top: "rpn/output"
  param {
    lr_mult: 1
    decay_mult: 1
  }
  param {
    lr_mult: 2
    decay_mult: 0
  }
  convolution_param {
    num_output: 512
    pad: 1
    pad: 1
    pad: 1
    kernel_size: 3
    kernel_size: 3
    kernel_size: 3
    stride: 1
    stride: 2
    stride: 2
    weight_filler {
      type: "gaussian"
      std: 0.01
    }
    bias_filler {
      type: "constant"
      value: 0
    }
  }
}
layer {
  name: "rpn_relu/3x3"
  type: "ReLU"
  bottom: "rpn/output"
  top: "rpn/output"
}
layer {
  name: "rpn_conv/3x3_2"
  type: "Convolution"
  bottom: "rpn/output"
  top: "rpn/output_2"
  param {
    lr_mult: 1
    decay_mult: 1
  }
  param {
    lr_mult: 2
    decay_mult: 0
  }
  convolution_param {
    num_output: 512
    pad: 1
    pad: 1
    pad: 1
    kernel_size: 3
    kernel_size: 3
    kernel_size: 3
    stride: 1
    stride: 2
    stride: 2
    weight_filler {
      type: "gaussian"
      std: 0.01
    }
    bias_filler {
      type: "constant"
      value: 0
    }
  }
}
layer {
  name: "rpn_relu/3x3_2"
  type: "ReLU"
  bottom: "rpn/output_2"
  top: "rpn/output_2"
}
layer {
  name: "rpn/output_pool"
  type: "Pooling"
  bottom: "rpn/output_2"
  top: "rpn/output_pool"
  pooling_param {
    pool: MAX
    kernel_size: 1
    kernel_size: 2
    kernel_size: 2
  }
}
layer {
  name: "rpn_cls_score"
  type: "Convolution"
  bottom: "rpn/output_pool"
  top: "rpn_cls_score"
  param {
    lr_mult: 1
    decay_mult: 1
  }
  param {
    lr_mult: 2
    decay_mult: 0
  }
  convolution_param {
    num_output: 74
    kernel_size: 1
    kernel_size: 1
    kernel_size: 1
    weight_filler {
      type: "gaussian"
      std: 0.01
    }
    bias_filler {
      type: "constant"
      value: 0
    }
  }
}
layer {
  name: "rpn_twin_pred"
  type: "Convolution"
  bottom: "rpn/output_pool"
  top: "rpn_twin_pred"
  param {
    lr_mult: 1
    decay_mult: 1
  }
  param {
    lr_mult: 2
    decay_mult: 0
  }
  convolution_param {
    num_output: 74
    kernel_size: 1
    kernel_size: 1
    kernel_size: 1
    weight_filler {
      type: "gaussian"
      std: 0.01
    }
    bias_filler {
      type: "constant"
      value: 0
    }
  }
}
layer {
  name: "rpn_cls_score_reshape"
  type: "Reshape"
  bottom: "rpn_cls_score"
  top: "rpn_cls_score_reshape"
  reshape_param {
    shape {
      dim: 0
      dim: 2
      dim: -1
      dim: 0
      dim: 0
    }
  }
}
layer {
  name: "rpn-data"
  type: "Python"
  bottom: "rpn_cls_score"
  bottom: "gt_boxes"
  bottom: "data"
  top: "rpn_labels"
  top: "rpn_twin_targets"
  top: "rpn_twin_inside_weights"
  top: "rpn_twin_outside_weights"
  python_param {
    module: "rpn.anchor_target_layer"
    layer: "AnchorTargetLayer"
    param_str: "\'feat_stride\': 8 \n\'scales\': !!python/tuple [1,1.25, 1.5,1.75, 2,2.5, 3,3.5, 4,4.5, 5,5.5, 6,7, 8,9,10,11,12,14,16,18,20,22,24,28,32,36,40,44,52,60,68,76,84,92,100]"
  }
}
layer {
  name: "rpn_loss_cls"
  type: "SoftmaxWithLoss"
  bottom: "rpn_cls_score_reshape"
  bottom: "rpn_labels"
  top: "rpn_cls_loss"
  loss_weight: 1
  propagate_down: true
  propagate_down: false
  loss_param {
    ignore_label: -1
    normalize: true
  }
}
layer {
  name: "rpn_loss_twin"
  type: "SmoothL1Loss"
  bottom: "rpn_twin_pred"
  bottom: "rpn_twin_targets"
  bottom: "rpn_twin_inside_weights"
  bottom: "rpn_twin_outside_weights"
  top: "rpn_loss_twin"
  loss_weight: 1
  smooth_l1_loss_param {
    sigma: 3
  }
}
layer {
  name: "rpn_accuarcy"
  type: "Accuracy"
  bottom: "rpn_cls_score_reshape"
  bottom: "rpn_labels"
  top: "rpn_accuarcy"
  top: "rpn_accuarcy_class"
  propagate_down: false
  propagate_down: false
  accuracy_param {
    ignore_label: -1
  }
}
layer {
  name: "rpn_cls_prob"
  type: "Softmax"
  bottom: "rpn_cls_score_reshape"
  top: "rpn_cls_prob"
}
layer {
  name: "rpn_cls_prob_reshape"
  type: "Reshape"
  bottom: "rpn_cls_prob"
  top: "rpn_cls_prob_reshape"
  reshape_param {
    shape {
      dim: 0
      dim: 74
      dim: -1
      dim: 0
      dim: 0
    }
  }
}
layer {
  name: "proposal"
  type: "Python"
  bottom: "rpn_cls_prob_reshape"
  bottom: "rpn_twin_pred"
  top: "rpn_rois"
  include {
    phase: TRAIN
  }
  python_param {
    module: "rpn.proposal_layer"
    layer: "ProposalLayer"
    param_str: "\'feat_stride\': 8 \n\'scales\': !!python/tuple [1,1.25, 1.5,1.75, 2,2.5, 3,3.5, 4,4.5, 5,5.5, 6,7, 8,9,10,11,12,14,16,18,20,22,24,28,32,36,40,44,52,60,68,76,84,92,100]"
  }
}
layer {
  name: "roi-data"
  type: "Python"
  bottom: "rpn_rois"
  bottom: "gt_boxes"
  top: "rois"
  top: "labels"
  top: "twin_targets"
  top: "twin_inside_weights"
  top: "twin_outside_weights"
  python_param {
    module: "rpn.proposal_target_layer"
    layer: "ProposalTargetLayer"
    param_str: "\'num_classes\': 201"
  }
}
layer {
  name: "roi_pool5"
  type: "ROIPooling"
  bottom: "conv5b"
  bottom: "rois"
  top: "pool5"
  roi_pooling_param {
    pooled_h: 4
    pooled_w: 4
    spatial_scale: 0.0625
    pooled_l: 1
    temporal_scale: 0.125
  }
}
layer {
  name: "fc6"
  type: "InnerProduct"
  bottom: "pool5"
  top: "fc6"
  param {
    lr_mult: 1
    decay_mult: 1
  }
  param {
    lr_mult: 2
    decay_mult: 0
  }
  inner_product_param {
    num_output: 4096
    weight_filler {
      type: "gaussian"
      std: 0.005
    }
    bias_filler {
      type: "constant"
      value: 1
    }
  }
}
layer {
  name: "relu6"
  type: "ReLU"
  bottom: "fc6"
  top: "fc6"
}
layer {
  name: "drop6"
  type: "Dropout"
  bottom: "fc6"
  top: "fc6"
  dropout_param {
    dropout_ratio: 0.5
  }
}
layer {
  name: "cls_score"
  type: "InnerProduct"
  bottom: "fc6"
  top: "cls_score"
  param {
    lr_mult: 1
    decay_mult: 1
  }
  param {
    lr_mult: 2
    decay_mult: 0
  }
  inner_product_param {
    num_output: 201
    weight_filler {
      type: "gaussian"
      std: 0.01
    }
    bias_filler {
      type: "constant"
      value: 0
    }
  }
}
layer {
  name: "twin_pred"
  type: "InnerProduct"
  bottom: "fc6"
  top: "twin_pred"
  param {
    lr_mult: 1
    decay_mult: 1
  }
  param {
    lr_mult: 2
    decay_mult: 0
  }
  inner_product_param {
    num_output: 402
    weight_filler {
      type: "gaussian"
      std: 0.001
    }
    bias_filler {
      type: "constant"
      value: 0
    }
  }
}
layer {
  name: "loss_cls"
  type: "SoftmaxWithLoss"
  bottom: "cls_score"
  bottom: "labels"
  top: "loss_cls"
  loss_weight: 1
  propagate_down: true
  propagate_down: false
}
layer {
  name: "loss_twin"
  type: "SmoothL1Loss"
  bottom: "twin_pred"
  bottom: "twin_targets"
  bottom: "twin_inside_weights"
  bottom: "twin_outside_weights"
  top: "loss_twin"
  loss_weight: 1
}
layer {
  name: "accuarcy"
  type: "Accuracy"
  bottom: "cls_score"
  bottom: "labels"
  top: "accuarcy"
  propagate_down: false
  propagate_down: false
  accuracy_param {
    ignore_label: -1
  }
}
I0417 15:46:01.294651 13850 layer_factory.hpp:77] Creating layer data
I0417 15:46:01.319090 13850 net.cpp:100] Creating Layer data
I0417 15:46:01.319111 13850 net.cpp:408] data -> data
I0417 15:46:01.319123 13850 net.cpp:408] data -> gt_boxes
setting up
has rpn
RoiDataLayer: name_to_top: {'gt_windows': 1, 'data': 0}
I0417 15:46:01.332550 13850 net.cpp:150] Setting up data
I0417 15:46:01.332569 13850 net.cpp:157] Top shape: 1 3 768 112 112 (28901376)
I0417 15:46:01.332574 13850 net.cpp:157] Top shape: 1 101 (101)
I0417 15:46:01.332577 13850 net.cpp:165] Memory required for data: 115605908
I0417 15:46:01.332583 13850 layer_factory.hpp:77] Creating layer data_data_0_split
I0417 15:46:01.332595 13850 net.cpp:100] Creating Layer data_data_0_split
I0417 15:46:01.332598 13850 net.cpp:434] data_data_0_split <- data
I0417 15:46:01.332605 13850 net.cpp:408] data_data_0_split -> data_data_0_split_0
I0417 15:46:01.332614 13850 net.cpp:408] data_data_0_split -> data_data_0_split_1
I0417 15:46:01.332643 13850 net.cpp:150] Setting up data_data_0_split
I0417 15:46:01.332649 13850 net.cpp:157] Top shape: 1 3 768 112 112 (28901376)
I0417 15:46:01.332653 13850 net.cpp:157] Top shape: 1 3 768 112 112 (28901376)
I0417 15:46:01.332656 13850 net.cpp:165] Memory required for data: 346816916
I0417 15:46:01.332659 13850 layer_factory.hpp:77] Creating layer gt_boxes_data_1_split
I0417 15:46:01.332665 13850 net.cpp:100] Creating Layer gt_boxes_data_1_split
I0417 15:46:01.332669 13850 net.cpp:434] gt_boxes_data_1_split <- gt_boxes
I0417 15:46:01.332674 13850 net.cpp:408] gt_boxes_data_1_split -> gt_boxes_data_1_split_0
I0417 15:46:01.332679 13850 net.cpp:408] gt_boxes_data_1_split -> gt_boxes_data_1_split_1
I0417 15:46:01.332702 13850 net.cpp:150] Setting up gt_boxes_data_1_split
I0417 15:46:01.332707 13850 net.cpp:157] Top shape: 1 101 (101)
I0417 15:46:01.332710 13850 net.cpp:157] Top shape: 1 101 (101)
I0417 15:46:01.332713 13850 net.cpp:165] Memory required for data: 346817724
I0417 15:46:01.332716 13850 layer_factory.hpp:77] Creating layer conv1a
I0417 15:46:01.332731 13850 net.cpp:100] Creating Layer conv1a
I0417 15:46:01.332734 13850 net.cpp:434] conv1a <- data_data_0_split_0
I0417 15:46:01.332741 13850 net.cpp:408] conv1a -> conv1a
I0417 15:46:01.534240 13850 net.cpp:150] Setting up conv1a
I0417 15:46:01.534267 13850 net.cpp:157] Top shape: 1 64 768 112 112 (616562688)
I0417 15:46:01.534272 13850 net.cpp:165] Memory required for data: 2813068476
I0417 15:46:01.534291 13850 layer_factory.hpp:77] Creating layer relu1a
I0417 15:46:01.534303 13850 net.cpp:100] Creating Layer relu1a
I0417 15:46:01.534308 13850 net.cpp:434] relu1a <- conv1a
I0417 15:46:01.534314 13850 net.cpp:395] relu1a -> conv1a (in-place)
I0417 15:46:01.534746 13850 net.cpp:150] Setting up relu1a
I0417 15:46:01.534781 13850 net.cpp:157] Top shape: 1 64 768 112 112 (616562688)
I0417 15:46:01.534786 13850 net.cpp:165] Memory required for data: 5279319228
I0417 15:46:01.534790 13850 layer_factory.hpp:77] Creating layer pool1
I0417 15:46:01.534799 13850 net.cpp:100] Creating Layer pool1
I0417 15:46:01.534806 13850 net.cpp:434] pool1 <- conv1a
I0417 15:46:01.534812 13850 net.cpp:408] pool1 -> pool1
I0417 15:46:01.534994 13850 net.cpp:150] Setting up pool1
I0417 15:46:01.535004 13850 net.cpp:157] Top shape: 1 64 768 56 56 (154140672)
I0417 15:46:01.535008 13850 net.cpp:165] Memory required for data: 5895881916
I0417 15:46:01.535012 13850 layer_factory.hpp:77] Creating layer conv2a
I0417 15:46:01.535022 13850 net.cpp:100] Creating Layer conv2a
I0417 15:46:01.535027 13850 net.cpp:434] conv2a <- pool1
I0417 15:46:01.535032 13850 net.cpp:408] conv2a -> conv2a
I0417 15:46:01.546396 13850 net.cpp:150] Setting up conv2a
I0417 15:46:01.546416 13850 net.cpp:157] Top shape: 1 128 768 56 56 (308281344)
I0417 15:46:01.546419 13850 net.cpp:165] Memory required for data: 7129007292
I0417 15:46:01.546430 13850 layer_factory.hpp:77] Creating layer relu2a
I0417 15:46:01.546438 13850 net.cpp:100] Creating Layer relu2a
I0417 15:46:01.546442 13850 net.cpp:434] relu2a <- conv2a
I0417 15:46:01.546447 13850 net.cpp:395] relu2a -> conv2a (in-place)
I0417 15:46:01.546753 13850 net.cpp:150] Setting up relu2a
I0417 15:46:01.546779 13850 net.cpp:157] Top shape: 1 128 768 56 56 (308281344)
I0417 15:46:01.546783 13850 net.cpp:165] Memory required for data: 8362132668
I0417 15:46:01.546787 13850 layer_factory.hpp:77] Creating layer pool2
I0417 15:46:01.546797 13850 net.cpp:100] Creating Layer pool2
I0417 15:46:01.546802 13850 net.cpp:434] pool2 <- conv2a
I0417 15:46:01.546806 13850 net.cpp:408] pool2 -> pool2
I0417 15:46:01.546988 13850 net.cpp:150] Setting up pool2
I0417 15:46:01.546999 13850 net.cpp:157] Top shape: 1 128 384 28 28 (38535168)
I0417 15:46:01.547003 13850 net.cpp:165] Memory required for data: 8516273340
I0417 15:46:01.547006 13850 layer_factory.hpp:77] Creating layer conv3a
I0417 15:46:01.547019 13850 net.cpp:100] Creating Layer conv3a
I0417 15:46:01.547024 13850 net.cpp:434] conv3a <- pool2
I0417 15:46:01.547030 13850 net.cpp:408] conv3a -> conv3a
I0417 15:46:01.572912 13850 net.cpp:150] Setting up conv3a
I0417 15:46:01.572927 13850 net.cpp:157] Top shape: 1 256 384 28 28 (77070336)
I0417 15:46:01.572932 13850 net.cpp:165] Memory required for data: 8824554684
I0417 15:46:01.572942 13850 layer_factory.hpp:77] Creating layer relu3a
I0417 15:46:01.572949 13850 net.cpp:100] Creating Layer relu3a
I0417 15:46:01.572955 13850 net.cpp:434] relu3a <- conv3a
I0417 15:46:01.572960 13850 net.cpp:395] relu3a -> conv3a (in-place)
I0417 15:46:01.573254 13850 net.cpp:150] Setting up relu3a
I0417 15:46:01.573266 13850 net.cpp:157] Top shape: 1 256 384 28 28 (77070336)
I0417 15:46:01.573271 13850 net.cpp:165] Memory required for data: 9132836028
I0417 15:46:01.573273 13850 layer_factory.hpp:77] Creating layer conv3b
I0417 15:46:01.573283 13850 net.cpp:100] Creating Layer conv3b
I0417 15:46:01.573287 13850 net.cpp:434] conv3b <- conv3a
I0417 15:46:01.573295 13850 net.cpp:408] conv3b -> conv3b
I0417 15:46:01.625273 13850 net.cpp:150] Setting up conv3b
I0417 15:46:01.625315 13850 net.cpp:157] Top shape: 1 256 384 28 28 (77070336)
I0417 15:46:01.625324 13850 net.cpp:165] Memory required for data: 9441117372
I0417 15:46:01.625344 13850 layer_factory.hpp:77] Creating layer relu3b
I0417 15:46:01.625367 13850 net.cpp:100] Creating Layer relu3b
I0417 15:46:01.625380 13850 net.cpp:434] relu3b <- conv3b
I0417 15:46:01.625396 13850 net.cpp:395] relu3b -> conv3b (in-place)
I0417 15:46:01.626837 13850 net.cpp:150] Setting up relu3b
I0417 15:46:01.626873 13850 net.cpp:157] Top shape: 1 256 384 28 28 (77070336)
I0417 15:46:01.626886 13850 net.cpp:165] Memory required for data: 9749398716
I0417 15:46:01.626897 13850 layer_factory.hpp:77] Creating layer pool3
I0417 15:46:01.626921 13850 net.cpp:100] Creating Layer pool3
I0417 15:46:01.626932 13850 net.cpp:434] pool3 <- conv3b
I0417 15:46:01.626950 13850 net.cpp:408] pool3 -> pool3
I0417 15:46:01.627393 13850 net.cpp:150] Setting up pool3
I0417 15:46:01.627418 13850 net.cpp:157] Top shape: 1 256 192 14 14 (9633792)
I0417 15:46:01.627427 13850 net.cpp:165] Memory required for data: 9787933884
I0417 15:46:01.627435 13850 layer_factory.hpp:77] Creating layer conv4a
I0417 15:46:01.627461 13850 net.cpp:100] Creating Layer conv4a
I0417 15:46:01.627472 13850 net.cpp:434] conv4a <- pool3
I0417 15:46:01.627488 13850 net.cpp:408] conv4a -> conv4a
I0417 15:46:01.732717 13850 net.cpp:150] Setting up conv4a
I0417 15:46:01.732741 13850 net.cpp:157] Top shape: 1 512 192 14 14 (19267584)
I0417 15:46:01.732745 13850 net.cpp:165] Memory required for data: 9865004220
I0417 15:46:01.732758 13850 layer_factory.hpp:77] Creating layer relu4a
I0417 15:46:01.732769 13850 net.cpp:100] Creating Layer relu4a
I0417 15:46:01.732774 13850 net.cpp:434] relu4a <- conv4a
I0417 15:46:01.732779 13850 net.cpp:395] relu4a -> conv4a (in-place)
I0417 15:46:01.733083 13850 net.cpp:150] Setting up relu4a
I0417 15:46:01.733096 13850 net.cpp:157] Top shape: 1 512 192 14 14 (19267584)
I0417 15:46:01.733100 13850 net.cpp:165] Memory required for data: 9942074556
I0417 15:46:01.733103 13850 layer_factory.hpp:77] Creating layer conv4b
I0417 15:46:01.733119 13850 net.cpp:100] Creating Layer conv4b
I0417 15:46:01.733122 13850 net.cpp:434] conv4b <- conv4a
I0417 15:46:01.733129 13850 net.cpp:408] conv4b -> conv4b
I0417 15:46:01.925484 13850 net.cpp:150] Setting up conv4b
I0417 15:46:01.925508 13850 net.cpp:157] Top shape: 1 512 192 14 14 (19267584)
I0417 15:46:01.925513 13850 net.cpp:165] Memory required for data: 10019144892
I0417 15:46:01.925521 13850 layer_factory.hpp:77] Creating layer relu4b
I0417 15:46:01.925530 13850 net.cpp:100] Creating Layer relu4b
I0417 15:46:01.925535 13850 net.cpp:434] relu4b <- conv4b
I0417 15:46:01.925542 13850 net.cpp:395] relu4b -> conv4b (in-place)
I0417 15:46:01.925701 13850 net.cpp:150] Setting up relu4b
I0417 15:46:01.925711 13850 net.cpp:157] Top shape: 1 512 192 14 14 (19267584)
I0417 15:46:01.925714 13850 net.cpp:165] Memory required for data: 10096215228
I0417 15:46:01.925719 13850 layer_factory.hpp:77] Creating layer pool4
I0417 15:46:01.925725 13850 net.cpp:100] Creating Layer pool4
I0417 15:46:01.925729 13850 net.cpp:434] pool4 <- conv4b
I0417 15:46:01.925735 13850 net.cpp:408] pool4 -> pool4
I0417 15:46:01.926060 13850 net.cpp:150] Setting up pool4
I0417 15:46:01.926072 13850 net.cpp:157] Top shape: 1 512 96 7 7 (2408448)
I0417 15:46:01.926076 13850 net.cpp:165] Memory required for data: 10105849020
I0417 15:46:01.926080 13850 layer_factory.hpp:77] Creating layer conv5a
I0417 15:46:01.926091 13850 net.cpp:100] Creating Layer conv5a
I0417 15:46:01.926095 13850 net.cpp:434] conv5a <- pool4
I0417 15:46:01.926102 13850 net.cpp:408] conv5a -> conv5a
I0417 15:46:02.118327 13850 net.cpp:150] Setting up conv5a
I0417 15:46:02.118352 13850 net.cpp:157] Top shape: 1 512 96 7 7 (2408448)
I0417 15:46:02.118355 13850 net.cpp:165] Memory required for data: 10115482812
I0417 15:46:02.118365 13850 layer_factory.hpp:77] Creating layer relu5a
I0417 15:46:02.118376 13850 net.cpp:100] Creating Layer relu5a
I0417 15:46:02.118379 13850 net.cpp:434] relu5a <- conv5a
I0417 15:46:02.118386 13850 net.cpp:395] relu5a -> conv5a (in-place)
I0417 15:46:02.118820 13850 net.cpp:150] Setting up relu5a
I0417 15:46:02.118832 13850 net.cpp:157] Top shape: 1 512 96 7 7 (2408448)
I0417 15:46:02.118836 13850 net.cpp:165] Memory required for data: 10125116604
I0417 15:46:02.118840 13850 layer_factory.hpp:77] Creating layer conv5b
I0417 15:46:02.118855 13850 net.cpp:100] Creating Layer conv5b
I0417 15:46:02.118860 13850 net.cpp:434] conv5b <- conv5a
I0417 15:46:02.118865 13850 net.cpp:408] conv5b -> conv5b
I0417 15:46:02.307279 13850 net.cpp:150] Setting up conv5b
I0417 15:46:02.307304 13850 net.cpp:157] Top shape: 1 512 96 7 7 (2408448)
I0417 15:46:02.307307 13850 net.cpp:165] Memory required for data: 10134750396
I0417 15:46:02.307317 13850 layer_factory.hpp:77] Creating layer relu5b
I0417 15:46:02.307325 13850 net.cpp:100] Creating Layer relu5b
I0417 15:46:02.307329 13850 net.cpp:434] relu5b <- conv5b
I0417 15:46:02.307337 13850 net.cpp:395] relu5b -> conv5b (in-place)
I0417 15:46:02.307482 13850 net.cpp:150] Setting up relu5b
I0417 15:46:02.307492 13850 net.cpp:157] Top shape: 1 512 96 7 7 (2408448)
I0417 15:46:02.307497 13850 net.cpp:165] Memory required for data: 10144384188
I0417 15:46:02.307499 13850 layer_factory.hpp:77] Creating layer conv5b_relu5b_0_split
I0417 15:46:02.307504 13850 net.cpp:100] Creating Layer conv5b_relu5b_0_split
I0417 15:46:02.307508 13850 net.cpp:434] conv5b_relu5b_0_split <- conv5b
I0417 15:46:02.307514 13850 net.cpp:408] conv5b_relu5b_0_split -> conv5b_relu5b_0_split_0
I0417 15:46:02.307520 13850 net.cpp:408] conv5b_relu5b_0_split -> conv5b_relu5b_0_split_1
I0417 15:46:02.307556 13850 net.cpp:150] Setting up conv5b_relu5b_0_split
I0417 15:46:02.307564 13850 net.cpp:157] Top shape: 1 512 96 7 7 (2408448)
I0417 15:46:02.307569 13850 net.cpp:157] Top shape: 1 512 96 7 7 (2408448)
I0417 15:46:02.307571 13850 net.cpp:165] Memory required for data: 10163651772
I0417 15:46:02.307574 13850 layer_factory.hpp:77] Creating layer rpn_conv/3x3
I0417 15:46:02.307585 13850 net.cpp:100] Creating Layer rpn_conv/3x3
I0417 15:46:02.307588 13850 net.cpp:434] rpn_conv/3x3 <- conv5b_relu5b_0_split_0
I0417 15:46:02.307595 13850 net.cpp:408] rpn_conv/3x3 -> rpn/output
I0417 15:46:02.494022 13850 net.cpp:150] Setting up rpn_conv/3x3
I0417 15:46:02.494045 13850 net.cpp:157] Top shape: 1 512 96 4 4 (786432)
I0417 15:46:02.494050 13850 net.cpp:165] Memory required for data: 10166797500
I0417 15:46:02.494063 13850 layer_factory.hpp:77] Creating layer rpn_relu/3x3
I0417 15:46:02.494074 13850 net.cpp:100] Creating Layer rpn_relu/3x3
I0417 15:46:02.494079 13850 net.cpp:434] rpn_relu/3x3 <- rpn/output
I0417 15:46:02.494086 13850 net.cpp:395] rpn_relu/3x3 -> rpn/output (in-place)
I0417 15:46:02.494396 13850 net.cpp:150] Setting up rpn_relu/3x3
I0417 15:46:02.494410 13850 net.cpp:157] Top shape: 1 512 96 4 4 (786432)
I0417 15:46:02.494412 13850 net.cpp:165] Memory required for data: 10169943228
I0417 15:46:02.494416 13850 layer_factory.hpp:77] Creating layer rpn_conv/3x3_2
I0417 15:46:02.494427 13850 net.cpp:100] Creating Layer rpn_conv/3x3_2
I0417 15:46:02.494431 13850 net.cpp:434] rpn_conv/3x3_2 <- rpn/output
I0417 15:46:02.494438 13850 net.cpp:408] rpn_conv/3x3_2 -> rpn/output_2
I0417 15:46:02.681057 13850 net.cpp:150] Setting up rpn_conv/3x3_2
I0417 15:46:02.681092 13850 net.cpp:157] Top shape: 1 512 96 2 2 (196608)
I0417 15:46:02.681097 13850 net.cpp:165] Memory required for data: 10170729660
I0417 15:46:02.681104 13850 layer_factory.hpp:77] Creating layer rpn_relu/3x3_2
I0417 15:46:02.681114 13850 net.cpp:100] Creating Layer rpn_relu/3x3_2
I0417 15:46:02.681118 13850 net.cpp:434] rpn_relu/3x3_2 <- rpn/output_2
I0417 15:46:02.681124 13850 net.cpp:395] rpn_relu/3x3_2 -> rpn/output_2 (in-place)
I0417 15:46:02.681424 13850 net.cpp:150] Setting up rpn_relu/3x3_2
I0417 15:46:02.681435 13850 net.cpp:157] Top shape: 1 512 96 2 2 (196608)
I0417 15:46:02.681439 13850 net.cpp:165] Memory required for data: 10171516092
I0417 15:46:02.681442 13850 layer_factory.hpp:77] Creating layer rpn/output_pool
I0417 15:46:02.681450 13850 net.cpp:100] Creating Layer rpn/output_pool
I0417 15:46:02.681454 13850 net.cpp:434] rpn/output_pool <- rpn/output_2
I0417 15:46:02.681460 13850 net.cpp:408] rpn/output_pool -> rpn/output_pool
I0417 15:46:02.681632 13850 net.cpp:150] Setting up rpn/output_pool
I0417 15:46:02.681641 13850 net.cpp:157] Top shape: 1 512 96 1 1 (49152)
I0417 15:46:02.681644 13850 net.cpp:165] Memory required for data: 10171712700
I0417 15:46:02.681648 13850 layer_factory.hpp:77] Creating layer rpn/output_pool_rpn/output_pool_0_split
I0417 15:46:02.681653 13850 net.cpp:100] Creating Layer rpn/output_pool_rpn/output_pool_0_split
I0417 15:46:02.681656 13850 net.cpp:434] rpn/output_pool_rpn/output_pool_0_split <- rpn/output_pool
I0417 15:46:02.681661 13850 net.cpp:408] rpn/output_pool_rpn/output_pool_0_split -> rpn/output_pool_rpn/output_pool_0_split_0
I0417 15:46:02.681666 13850 net.cpp:408] rpn/output_pool_rpn/output_pool_0_split -> rpn/output_pool_rpn/output_pool_0_split_1
I0417 15:46:02.681697 13850 net.cpp:150] Setting up rpn/output_pool_rpn/output_pool_0_split
I0417 15:46:02.681706 13850 net.cpp:157] Top shape: 1 512 96 1 1 (49152)
I0417 15:46:02.681710 13850 net.cpp:157] Top shape: 1 512 96 1 1 (49152)
I0417 15:46:02.681713 13850 net.cpp:165] Memory required for data: 10172105916
I0417 15:46:02.681716 13850 layer_factory.hpp:77] Creating layer rpn_cls_score
I0417 15:46:02.681727 13850 net.cpp:100] Creating Layer rpn_cls_score
I0417 15:46:02.681730 13850 net.cpp:434] rpn_cls_score <- rpn/output_pool_rpn/output_pool_0_split_0
I0417 15:46:02.681735 13850 net.cpp:408] rpn_cls_score -> rpn_cls_score
I0417 15:46:02.683763 13850 net.cpp:150] Setting up rpn_cls_score
I0417 15:46:02.683779 13850 net.cpp:157] Top shape: 1 74 96 1 1 (7104)
I0417 15:46:02.683781 13850 net.cpp:165] Memory required for data: 10172134332
I0417 15:46:02.683787 13850 layer_factory.hpp:77] Creating layer rpn_cls_score_rpn_cls_score_0_split
I0417 15:46:02.683794 13850 net.cpp:100] Creating Layer rpn_cls_score_rpn_cls_score_0_split
I0417 15:46:02.683796 13850 net.cpp:434] rpn_cls_score_rpn_cls_score_0_split <- rpn_cls_score
I0417 15:46:02.683801 13850 net.cpp:408] rpn_cls_score_rpn_cls_score_0_split -> rpn_cls_score_rpn_cls_score_0_split_0
I0417 15:46:02.683807 13850 net.cpp:408] rpn_cls_score_rpn_cls_score_0_split -> rpn_cls_score_rpn_cls_score_0_split_1
I0417 15:46:02.683847 13850 net.cpp:150] Setting up rpn_cls_score_rpn_cls_score_0_split
I0417 15:46:02.683856 13850 net.cpp:157] Top shape: 1 74 96 1 1 (7104)
I0417 15:46:02.683858 13850 net.cpp:157] Top shape: 1 74 96 1 1 (7104)
I0417 15:46:02.683861 13850 net.cpp:165] Memory required for data: 10172191164
I0417 15:46:02.683866 13850 layer_factory.hpp:77] Creating layer rpn_twin_pred
I0417 15:46:02.683877 13850 net.cpp:100] Creating Layer rpn_twin_pred
I0417 15:46:02.683885 13850 net.cpp:434] rpn_twin_pred <- rpn/output_pool_rpn/output_pool_0_split_1
I0417 15:46:02.683890 13850 net.cpp:408] rpn_twin_pred -> rpn_twin_pred
I0417 15:46:02.685775 13850 net.cpp:150] Setting up rpn_twin_pred
I0417 15:46:02.685787 13850 net.cpp:157] Top shape: 1 74 96 1 1 (7104)
I0417 15:46:02.685791 13850 net.cpp:165] Memory required for data: 10172219580
I0417 15:46:02.685797 13850 layer_factory.hpp:77] Creating layer rpn_twin_pred_rpn_twin_pred_0_split
I0417 15:46:02.685806 13850 net.cpp:100] Creating Layer rpn_twin_pred_rpn_twin_pred_0_split
I0417 15:46:02.685809 13850 net.cpp:434] rpn_twin_pred_rpn_twin_pred_0_split <- rpn_twin_pred
I0417 15:46:02.685814 13850 net.cpp:408] rpn_twin_pred_rpn_twin_pred_0_split -> rpn_twin_pred_rpn_twin_pred_0_split_0
I0417 15:46:02.685819 13850 net.cpp:408] rpn_twin_pred_rpn_twin_pred_0_split -> rpn_twin_pred_rpn_twin_pred_0_split_1
I0417 15:46:02.685855 13850 net.cpp:150] Setting up rpn_twin_pred_rpn_twin_pred_0_split
I0417 15:46:02.685863 13850 net.cpp:157] Top shape: 1 74 96 1 1 (7104)
I0417 15:46:02.685866 13850 net.cpp:157] Top shape: 1 74 96 1 1 (7104)
I0417 15:46:02.685869 13850 net.cpp:165] Memory required for data: 10172276412
I0417 15:46:02.685873 13850 layer_factory.hpp:77] Creating layer rpn_cls_score_reshape
I0417 15:46:02.685883 13850 net.cpp:100] Creating Layer rpn_cls_score_reshape
I0417 15:46:02.685889 13850 net.cpp:434] rpn_cls_score_reshape <- rpn_cls_score_rpn_cls_score_0_split_0
I0417 15:46:02.685896 13850 net.cpp:408] rpn_cls_score_reshape -> rpn_cls_score_reshape
I0417 15:46:02.685925 13850 net.cpp:150] Setting up rpn_cls_score_reshape
I0417 15:46:02.685932 13850 net.cpp:157] Top shape: 1 2 3552 1 1 (7104)
I0417 15:46:02.685935 13850 net.cpp:165] Memory required for data: 10172304828
I0417 15:46:02.685938 13850 layer_factory.hpp:77] Creating layer rpn_cls_score_reshape_rpn_cls_score_reshape_0_split
I0417 15:46:02.685942 13850 net.cpp:100] Creating Layer rpn_cls_score_reshape_rpn_cls_score_reshape_0_split
I0417 15:46:02.685946 13850 net.cpp:434] rpn_cls_score_reshape_rpn_cls_score_reshape_0_split <- rpn_cls_score_reshape
I0417 15:46:02.685951 13850 net.cpp:408] rpn_cls_score_reshape_rpn_cls_score_reshape_0_split -> rpn_cls_score_reshape_rpn_cls_score_reshape_0_split_0
I0417 15:46:02.685961 13850 net.cpp:408] rpn_cls_score_reshape_rpn_cls_score_reshape_0_split -> rpn_cls_score_reshape_rpn_cls_score_reshape_0_split_1
I0417 15:46:02.685966 13850 net.cpp:408] rpn_cls_score_reshape_rpn_cls_score_reshape_0_split -> rpn_cls_score_reshape_rpn_cls_score_reshape_0_split_2
I0417 15:46:02.686004 13850 net.cpp:150] Setting up rpn_cls_score_reshape_rpn_cls_score_reshape_0_split
I0417 15:46:02.686012 13850 net.cpp:157] Top shape: 1 2 3552 1 1 (7104)
I0417 15:46:02.686015 13850 net.cpp:157] Top shape: 1 2 3552 1 1 (7104)
I0417 15:46:02.686019 13850 net.cpp:157] Top shape: 1 2 3552 1 1 (7104)
I0417 15:46:02.686022 13850 net.cpp:165] Memory required for data: 10172390076
I0417 15:46:02.686025 13850 layer_factory.hpp:77] Creating layer rpn-data
I0417 15:46:02.686416 13850 net.cpp:100] Creating Layer rpn-data
I0417 15:46:02.686429 13850 net.cpp:434] rpn-data <- rpn_cls_score_rpn_cls_score_0_split_1
I0417 15:46:02.686434 13850 net.cpp:434] rpn-data <- gt_boxes_data_1_split_0
I0417 15:46:02.686439 13850 net.cpp:434] rpn-data <- data_data_0_split_1
I0417 15:46:02.686444 13850 net.cpp:408] rpn-data -> rpn_labels
I0417 15:46:02.686450 13850 net.cpp:408] rpn-data -> rpn_twin_targets
I0417 15:46:02.686455 13850 net.cpp:408] rpn-data -> rpn_twin_inside_weights
I0417 15:46:02.686465 13850 net.cpp:408] rpn-data -> rpn_twin_outside_weights
I0417 15:46:02.688683 13850 net.cpp:150] Setting up rpn-data
I0417 15:46:02.688697 13850 net.cpp:157] Top shape: 1 1 3552 1 1 (3552)
I0417 15:46:02.688702 13850 net.cpp:157] Top shape: 1 74 96 1 1 (7104)
I0417 15:46:02.688706 13850 net.cpp:157] Top shape: 1 74 96 1 1 (7104)
I0417 15:46:02.688709 13850 net.cpp:157] Top shape: 1 74 96 1 1 (7104)
I0417 15:46:02.688712 13850 net.cpp:165] Memory required for data: 10172489532
I0417 15:46:02.688716 13850 layer_factory.hpp:77] Creating layer rpn_labels_rpn-data_0_split
I0417 15:46:02.688721 13850 net.cpp:100] Creating Layer rpn_labels_rpn-data_0_split
I0417 15:46:02.688725 13850 net.cpp:434] rpn_labels_rpn-data_0_split <- rpn_labels
I0417 15:46:02.688730 13850 net.cpp:408] rpn_labels_rpn-data_0_split -> rpn_labels_rpn-data_0_split_0
I0417 15:46:02.688737 13850 net.cpp:408] rpn_labels_rpn-data_0_split -> rpn_labels_rpn-data_0_split_1
I0417 15:46:02.688768 13850 net.cpp:150] Setting up rpn_labels_rpn-data_0_split
I0417 15:46:02.688776 13850 net.cpp:157] Top shape: 1 1 3552 1 1 (3552)
I0417 15:46:02.688779 13850 net.cpp:157] Top shape: 1 1 3552 1 1 (3552)
I0417 15:46:02.688782 13850 net.cpp:165] Memory required for data: 10172517948
I0417 15:46:02.688786 13850 layer_factory.hpp:77] Creating layer rpn_loss_cls
I0417 15:46:02.688793 13850 net.cpp:100] Creating Layer rpn_loss_cls
I0417 15:46:02.688797 13850 net.cpp:434] rpn_loss_cls <- rpn_cls_score_reshape_rpn_cls_score_reshape_0_split_0
I0417 15:46:02.688802 13850 net.cpp:434] rpn_loss_cls <- rpn_labels_rpn-data_0_split_0
…
I0417 15:46:02.689357 13850 layer_factory.hpp:77] Creating layer rpn_accuarcy
I0417 15:46:02.689366 13850 net.cpp:100] Creating Layer rpn_accuarcy
I0417 15:46:02.689370 13850 net.cpp:434] rpn_accuarcy <- rpn_cls_score_reshape_rpn_cls_score_reshape_0_split_1
I0417 15:46:02.689374 13850 net.cpp:434] rpn_accuarcy <- rpn_labels_rpn-data_0_split_1
I0417 15:46:02.689379 13850 net.cpp:408] rpn_accuarcy -> rpn_accuarcy
I0417 15:46:02.689385 13850 net.cpp:408] rpn_accuarcy -> rpn_accuarcy_class
I0417 15:46:02.689420 13850 net.cpp:150] Setting up rpn_accuarcy
I0417 15:46:02.689427 13850 net.cpp:157] Top shape: (1)
I0417 15:46:02.689431 13850 net.cpp:157] Top shape: 2 (2)
I0417 15:46:02.689435 13850 net.cpp:165] Memory required for data: 10172517968
I0417 15:46:02.689437 13850 layer_factory.hpp:77] Creating layer rpn_cls_prob
I0417 15:46:02.689443 13850 net.cpp:100] Creating Layer rpn_cls_prob
I0417 15:46:02.689446 13850 net.cpp:434] rpn_cls_prob <- rpn_cls_score_reshape_rpn_cls_score_reshape_0_split_2
I0417 15:46:02.689451 13850 net.cpp:408] rpn_cls_prob -> rpn_cls_prob
I0417 15:46:02.689642 13850 net.cpp:150] Setting up rpn_cls_prob
I0417 15:46:02.689652 13850 net.cpp:157] Top shape: 1 2 3552 1 1 (7104)
I0417 15:46:02.689656 13850 net.cpp:165] Memory required for data: 10172546384
I0417 15:46:02.689658 13850 layer_factory.hpp:77] Creating layer rpn_cls_prob_reshape
I0417 15:46:02.689666 13850 net.cpp:100] Creating Layer rpn_cls_prob_reshape
I0417 15:46:02.689669 13850 net.cpp:434] rpn_cls_prob_reshape <- rpn_cls_prob
I0417 15:46:02.689674 13850 net.cpp:408] rpn_cls_prob_reshape -> rpn_cls_prob_reshape
I0417 15:46:02.689698 13850 net.cpp:150] Setting up rpn_cls_prob_reshape
I0417 15:46:02.689705 13850 net.cpp:157] Top shape: 1 74 96 1 1 (7104)
I0417 15:46:02.689708 13850 net.cpp:165] Memory required for data: 10172574800
I0417 15:46:02.689712 13850 layer_factory.hpp:77] Creating layer proposal
I0417 15:46:02.690253 13850 net.cpp:100] Creating Layer proposal
I0417 15:46:02.690266 13850 net.cpp:434] proposal <- rpn_cls_prob_reshape
I0417 15:46:02.690271 13850 net.cpp:434] proposal <- rpn_twin_pred_rpn_twin_pred_0_split_1
I0417 15:46:02.690276 13850 net.cpp:408] proposal -> rpn_rois
I0417 15:46:02.692441 13850 net.cpp:150] Setting up proposal
I0417 15:46:02.692456 13850 net.cpp:157] Top shape: 1 3 (3)
I0417 15:46:02.692461 13850 net.cpp:165] Memory required for data: 10172574812
I0417 15:46:02.692466 13850 layer_factory.hpp:77] Creating layer roi-data
I0417 15:46:02.693950 13850 net.cpp:100] Creating Layer roi-data
I0417 15:46:02.693962 13850 net.cpp:434] roi-data <- rpn_rois
I0417 15:46:02.693969 13850 net.cpp:434] roi-data <- gt_boxes_data_1_split_1
I0417 15:46:02.693976 13850 net.cpp:408] roi-data -> rois
I0417 15:46:02.693984 13850 net.cpp:408] roi-data -> labels
I0417 15:46:02.693989 13850 net.cpp:408] roi-data -> twin_targets
I0417 15:46:02.693994 13850 net.cpp:408] roi-data -> twin_inside_weights
I0417 15:46:02.694000 13850 net.cpp:408] roi-data -> twin_outside_weights
I0417 15:46:02.694299 13850 net.cpp:150] Setting up roi-data
I0417 15:46:02.694313 13850 net.cpp:157] Top shape: 1 3 (3)
I0417 15:46:02.694316 13850 net.cpp:157] Top shape: 1 1 (1)
I0417 15:46:02.694319 13850 net.cpp:157] Top shape: 1 402 (402)
I0417 15:46:02.694324 13850 net.cpp:157] Top shape: 1 402 (402)
I0417 15:46:02.694326 13850 net.cpp:157] Top shape: 1 402 (402)
I0417 15:46:02.694329 13850 net.cpp:165] Memory required for data: 10172579652
I0417 15:46:02.694334 13850 layer_factory.hpp:77] Creating layer labels_roi-data_1_split
I0417 15:46:02.694339 13850 net.cpp:100] Creating Layer labels_roi-data_1_split
I0417 15:46:02.694341 13850 net.cpp:434] labels_roi-data_1_split <- labels
I0417 15:46:02.694346 13850 net.cpp:408] labels_roi-data_1_split -> labels_roi-data_1_split_0
I0417 15:46:02.694353 13850 net.cpp:408] labels_roi-data_1_split -> labels_roi-data_1_split_1
I0417 15:46:02.694384 13850 net.cpp:150] Setting up labels_roi-data_1_split
I0417 15:46:02.694391 13850 net.cpp:157] Top shape: 1 1 (1)
I0417 15:46:02.694394 13850 net.cpp:157] Top shape: 1 1 (1)
I0417 15:46:02.694398 13850 net.cpp:165] Memory required for data: 10172579660
I0417 15:46:02.694401 13850 layer_factory.hpp:77] Creating layer roi_pool5
I0417 15:46:02.694411 13850 net.cpp:100] Creating Layer roi_pool5
I0417 15:46:02.694417 13850 net.cpp:434] roi_pool5 <- conv5b_relu5b_0_split_1
I0417 15:46:02.694422 13850 net.cpp:434] roi_pool5 <- rois
I0417 15:46:02.694427 13850 net.cpp:408] roi_pool5 -> pool5
I0417 15:46:02.694433 13850 roi_pooling_layer.cpp:34] Temporal scale: 0.125
I0417 15:46:02.694439 13850 roi_pooling_layer.cpp:35] Spatial scale: 0.0625
I0417 15:46:02.694469 13850 net.cpp:150] Setting up roi_pool5
I0417 15:46:02.694475 13850 net.cpp:157] Top shape: 1 512 1 4 4 (8192)
I0417 15:46:02.694478 13850 net.cpp:165] Memory required for data: 10172612428
I0417 15:46:02.694481 13850 layer_factory.hpp:77] Creating layer fc6
I0417 15:46:02.694489 13850 net.cpp:100] Creating Layer fc6
I0417 15:46:02.694494 13850 net.cpp:434] fc6 <- pool5
I0417 15:46:02.694497 13850 net.cpp:408] fc6 -> fc6
I0417 15:46:03.570107 13850 net.cpp:150] Setting up fc6
I0417 15:46:03.570132 13850 net.cpp:157] Top shape: 1 4096 (4096)
I0417 15:46:03.570135 13850 net.cpp:165] Memory required for data: 10172628812
I0417 15:46:03.570145 13850 layer_factory.hpp:77] Creating layer relu6
I0417 15:46:03.570154 13850 net.cpp:100] Creating Layer relu6
I0417 15:46:03.570158 13850 net.cpp:434] relu6 <- fc6
I0417 15:46:03.570164 13850 net.cpp:395] relu6 -> fc6 (in-place)
I0417 15:46:03.570600 13850 net.cpp:150] Setting up relu6
I0417 15:46:03.570612 13850 net.cpp:157] Top shape: 1 4096 (4096)
I0417 15:46:03.570616 13850 net.cpp:165] Memory required for data: 10172645196
I0417 15:46:03.570621 13850 layer_factory.hpp:77] Creating layer drop6
I0417 15:46:03.570633 13850 net.cpp:100] Creating Layer drop6
I0417 15:46:03.570638 13850 net.cpp:434] drop6 <- fc6
I0417 15:46:03.570643 13850 net.cpp:395] drop6 -> fc6 (in-place)
I0417 15:46:03.570669 13850 net.cpp:150] Setting up drop6
I0417 15:46:03.570677 13850 net.cpp:157] Top shape: 1 4096 (4096)
I0417 15:46:03.570679 13850 net.cpp:165] Memory required for data: 10172661580
I0417 15:46:03.570683 13850 layer_factory.hpp:77] Creating layer fc6_drop6_0_split
I0417 15:46:03.570688 13850 net.cpp:100] Creating Layer fc6_drop6_0_split
I0417 15:46:03.570691 13850 net.cpp:434] fc6_drop6_0_split <- fc6
I0417 15:46:03.570695 13850 net.cpp:408] fc6_drop6_0_split -> fc6_drop6_0_split_0
I0417 15:46:03.570701 13850 net.cpp:408] fc6_drop6_0_split -> fc6_drop6_0_split_1
I0417 15:46:03.570731 13850 net.cpp:150] Setting up fc6_drop6_0_split
I0417 15:46:03.570737 13850 net.cpp:157] Top shape: 1 4096 (4096)
I0417 15:46:03.570741 13850 net.cpp:157] Top shape: 1 4096 (4096)
I0417 15:46:03.570744 13850 net.cpp:165] Memory required for data: 10172694348
I0417 15:46:03.570747 13850 layer_factory.hpp:77] Creating layer cls_score
I0417 15:46:03.570755 13850 net.cpp:100] Creating Layer cls_score
I0417 15:46:03.570757 13850 net.cpp:434] cls_score <- fc6_drop6_0_split_0
I0417 15:46:03.570771 13850 net.cpp:408] cls_score -> cls_score
I0417 15:46:03.592335 13850 net.cpp:150] Setting up cls_score
I0417 15:46:03.592353 13850 net.cpp:157] Top shape: 1 201 (201)
I0417 15:46:03.592356 13850 net.cpp:165] Memory required for data: 10172695152
I0417 15:46:03.592365 13850 layer_factory.hpp:77] Creating layer cls_score_cls_score_0_split
I0417 15:46:03.592370 13850 net.cpp:100] Creating Layer cls_score_cls_score_0_split
I0417 15:46:03.592375 13850 net.cpp:434] cls_score_cls_score_0_split <- cls_score
I0417 15:46:03.592381 13850 net.cpp:408] cls_score_cls_score_0_split -> cls_score_cls_score_0_split_0
I0417 15:46:03.592386 13850 net.cpp:408] cls_score_cls_score_0_split -> cls_score_cls_score_0_split_1
I0417 15:46:03.592427 13850 net.cpp:150] Setting up cls_score_cls_score_0_split
I0417 15:46:03.592434 13850 net.cpp:157] Top shape: 1 201 (201)
I0417 15:46:03.592438 13850 net.cpp:157] Top shape: 1 201 (201)
I0417 15:46:03.592442 13850 net.cpp:165] Memory required for data: 10172696760
I0417 15:46:03.592444 13850 layer_factory.hpp:77] Creating layer twin_pred
I0417 15:46:03.592455 13850 net.cpp:100] Creating Layer twin_pred
I0417 15:46:03.592461 13850 net.cpp:434] twin_pred <- fc6_drop6_0_split_1
I0417 15:46:03.592468 13850 net.cpp:408] twin_pred -> twin_pred
I0417 15:46:03.635174 13850 net.cpp:150] Setting up twin_pred
I0417 15:46:03.635195 13850 net.cpp:157] Top shape: 1 402 (402)
I0417 15:46:03.635198 13850 net.cpp:165] Memory required for data: 10172698368
I0417 15:46:03.635207 13850 layer_factory.hpp:77] Creating layer loss_cls
I0417 15:46:03.635216 13850 net.cpp:100] Creating Layer loss_cls
I0417 15:46:03.635221 13850 net.cpp:434] loss_cls <- cls_score_cls_score_0_split_0
I0417 15:46:03.635228 13850 net.cpp:434] loss_cls <- labels_roi-data_1_split_0
I0417 15:46:03.635233 13850 net.cpp:408] loss_cls -> loss_cls
…
