…
stepsize: 350000
snapshot: 0
snapshot_prefix: "./experiments/activitynet/snapshot/activitynet"
average_loss: 100
iter_size: 1
I0416 02:10:10.414033 25211 solver.cpp:81] Creating training net from train_net file: ./experiments/activitynet/train.prototxt
I0416 02:10:10.414567 25211 net.cpp:58] Initializing net from parameters: 
name: "activitynet"
state {
  phase: TRAIN
}
layer {
  name: "data"
  type: "Python"
  top: "data"
  top: "gt_boxes"
  python_param {
    module: "roi_data_layer.layer"
    layer: "RoIDataLayer"
    param_str: "\'num_classes\': 100"
  }
}
layer {
  name: "conv1a"
  type: "Convolution"
  bottom: "data"
  top: "conv1a"
  param {
    lr_mult: 0
    decay_mult: 0
  }
  param {
    lr_mult: 0
    decay_mult: 0
  }
  convolution_param {
    num_output: 64
    pad: 1
    pad: 1
    pad: 1
    kernel_size: 3
    kernel_size: 3
    kernel_size: 3
    weight_filler {
      type: "gaussian"
      std: 0.01
    }
    bias_filler {
      type: "constant"
      value: 0
    }
  }
}
layer {
  name: "relu1a"
  type: "ReLU"
  bottom: "conv1a"
  top: "conv1a"
}
layer {
  name: "pool1"
  type: "Pooling"
  bottom: "conv1a"
  top: "pool1"
  pooling_param {
    pool: MAX
    kernel_size: 1
    kernel_size: 2
    kernel_size: 2
    stride: 1
    stride: 2
    stride: 2
  }
}
layer {
  name: "conv2a"
  type: "Convolution"
  bottom: "pool1"
  top: "conv2a"
  param {
    lr_mult: 0
    decay_mult: 0
  }
  param {
    lr_mult: 0
    decay_mult: 0
  }
  convolution_param {
    num_output: 128
    pad: 1
    pad: 1
    pad: 1
    kernel_size: 3
    kernel_size: 3
    kernel_size: 3
    weight_filler {
      type: "gaussian"
      std: 0.01
    }
    bias_filler {
      type: "constant"
      value: 1
    }
  }
}
layer {
  name: "relu2a"
  type: "ReLU"
  bottom: "conv2a"
  top: "conv2a"
}
layer {
  name: "pool2"
  type: "Pooling"
  bottom: "conv2a"
  top: "pool2"
  pooling_param {
    pool: MAX
    kernel_size: 2
    kernel_size: 2
    kernel_size: 2
    stride: 2
    stride: 2
    stride: 2
  }
}
layer {
  name: "conv3a"
  type: "Convolution"
  bottom: "pool2"
  top: "conv3a"
  param {
    lr_mult: 1
    decay_mult: 1
  }
  param {
    lr_mult: 2
    decay_mult: 0
  }
  convolution_param {
    num_output: 256
    pad: 1
    pad: 1
    pad: 1
    kernel_size: 3
    kernel_size: 3
    kernel_size: 3
    weight_filler {
      type: "gaussian"
      std: 0.01
    }
    bias_filler {
      type: "constant"
      value: 1
    }
  }
}
layer {
  name: "relu3a"
  type: "ReLU"
  bottom: "conv3a"
  top: "conv3a"
}
layer {
  name: "conv3b"
  type: "Convolution"
  bottom: "conv3a"
  top: "conv3b"
  param {
    lr_mult: 1
    decay_mult: 1
  }
  param {
    lr_mult: 2
    decay_mult: 0
  }
  convolution_param {
    num_output: 256
    pad: 1
    pad: 1
    pad: 1
    kernel_size: 3
    kernel_size: 3
    kernel_size: 3
    weight_filler {
      type: "gaussian"
      std: 0.01
    }
    bias_filler {
      type: "constant"
      value: 1
    }
  }
}
layer {
  name: "relu3b"
  type: "ReLU"
  bottom: "conv3b"
  top: "conv3b"
}
layer {
  name: "pool3"
  type: "Pooling"
  bottom: "conv3b"
  top: "pool3"
  pooling_param {
    pool: MAX
    kernel_size: 2
    kernel_size: 2
    kernel_size: 2
    stride: 2
    stride: 2
    stride: 2
  }
}
layer {
  name: "conv4a"
  type: "Convolution"
  bottom: "pool3"
  top: "conv4a"
  param {
    lr_mult: 1
    decay_mult: 1
  }
  param {
    lr_mult: 2
    decay_mult: 0
  }
  convolution_param {
    num_output: 512
    pad: 1
    pad: 1
    pad: 1
    kernel_size: 3
    kernel_size: 3
    kernel_size: 3
    weight_filler {
      type: "gaussian"
      std: 0.01
    }
    bias_filler {
      type: "constant"
      value: 1
    }
  }
}
layer {
  name: "relu4a"
  type: "ReLU"
  bottom: "conv4a"
  top: "conv4a"
}
layer {
  name: "conv4b"
  type: "Convolution"
  bottom: "conv4a"
  top: "conv4b"
  param {
    lr_mult: 1
    decay_mult: 1
  }
  param {
    lr_mult: 2
    decay_mult: 0
  }
  convolution_param {
    num_output: 512
    pad: 1
    pad: 1
    pad: 1
    kernel_size: 3
    kernel_size: 3
    kernel_size: 3
    weight_filler {
      type: "gaussian"
      std: 0.01
    }
    bias_filler {
      type: "constant"
      value: 1
    }
  }
}
layer {
  name: "relu4b"
  type: "ReLU"
  bottom: "conv4b"
  top: "conv4b"
}
layer {
  name: "pool4"
  type: "Pooling"
  bottom: "conv4b"
  top: "pool4"
  pooling_param {
    pool: MAX
    kernel_size: 2
    kernel_size: 2
    kernel_size: 2
    stride: 2
    stride: 2
    stride: 2
  }
}
layer {
  name: "conv5a"
  type: "Convolution"
  bottom: "pool4"
  top: "conv5a"
  param {
    lr_mult: 1
    decay_mult: 1
  }
  param {
    lr_mult: 2
    decay_mult: 0
  }
  convolution_param {
    num_output: 512
    pad: 1
    pad: 1
    pad: 1
    kernel_size: 3
    kernel_size: 3
    kernel_size: 3
    weight_filler {
      type: "gaussian"
      std: 0.01
    }
    bias_filler {
      type: "constant"
      value: 1
    }
  }
}
layer {
  name: "relu5a"
  type: "ReLU"
  bottom: "conv5a"
  top: "conv5a"
}
layer {
  name: "conv5b"
  type: "Convolution"
  bottom: "conv5a"
  top: "conv5b"
  param {
    lr_mult: 1
    decay_mult: 1
  }
  param {
    lr_mult: 2
    decay_mult: 0
  }
  convolution_param {
    num_output: 512
    pad: 1
    pad: 1
    pad: 1
    kernel_size: 3
    kernel_size: 3
    kernel_size: 3
    weight_filler {
      type: "gaussian"
      std: 0.01
    }
    bias_filler {
      type: "constant"
      value: 1
    }
  }
}
layer {
  name: "relu5b"
  type: "ReLU"
  bottom: "conv5b"
  top: "conv5b"
}
layer {
  name: "rpn_conv/3x3"
  type: "Convolution"
  bottom: "conv5b"
  top: "rpn/output"
  param {
    lr_mult: 1
    decay_mult: 1
  }
  param {
    lr_mult: 2
    decay_mult: 0
  }
  convolution_param {
    num_output: 512
    pad: 1
    pad: 1
    pad: 1
    kernel_size: 3
    kernel_size: 3
    kernel_size: 3
    stride: 1
    stride: 2
    stride: 2
    weight_filler {
      type: "gaussian"
      std: 0.01
    }
    bias_filler {
      type: "constant"
      value: 0
    }
  }
}
layer {
  name: "rpn_relu/3x3"
  type: "ReLU"
  bottom: "rpn/output"
  top: "rpn/output"
}
layer {
  name: "rpn_conv/3x3_2"
  type: "Convolution"
  bottom: "rpn/output"
  top: "rpn/output_2"
  param {
    lr_mult: 1
    decay_mult: 1
  }
  param {
    lr_mult: 2
    decay_mult: 0
  }
  convolution_param {
    num_output: 512
    pad: 1
    pad: 1
    pad: 1
    kernel_size: 3
    kernel_size: 3
    kernel_size: 3
    stride: 1
    stride: 2
    stride: 2
    weight_filler {
      type: "gaussian"
      std: 0.01
    }
    bias_filler {
      type: "constant"
      value: 0
    }
  }
}
layer {
  name: "rpn_relu/3x3_2"
  type: "ReLU"
  bottom: "rpn/output_2"
  top: "rpn/output_2"
}
layer {
  name: "rpn/output_pool"
  type: "Pooling"
  bottom: "rpn/output_2"
  top: "rpn/output_pool"
  pooling_param {
    pool: MAX
    kernel_size: 1
    kernel_size: 2
    kernel_size: 2
  }
}
layer {
  name: "rpn_cls_score"
  type: "Convolution"
  bottom: "rpn/output_pool"
  top: "rpn_cls_score"
  param {
    lr_mult: 1
    decay_mult: 1
  }
  param {
    lr_mult: 2
    decay_mult: 0
  }
  convolution_param {
    num_output: 74
    kernel_size: 1
    kernel_size: 1
    kernel_size: 1
    weight_filler {
      type: "gaussian"
      std: 0.01
    }
    bias_filler {
      type: "constant"
      value: 0
    }
  }
}
layer {
  name: "rpn_twin_pred"
  type: "Convolution"
  bottom: "rpn/output_pool"
  top: "rpn_twin_pred"
  param {
    lr_mult: 1
    decay_mult: 1
  }
  param {
    lr_mult: 2
    decay_mult: 0
  }
  convolution_param {
    num_output: 74
    kernel_size: 1
    kernel_size: 1
    kernel_size: 1
    weight_filler {
      type: "gaussian"
      std: 0.01
    }
    bias_filler {
      type: "constant"
      value: 0
    }
  }
}
layer {
  name: "rpn_cls_score_reshape"
  type: "Reshape"
  bottom: "rpn_cls_score"
  top: "rpn_cls_score_reshape"
  reshape_param {
    shape {
      dim: 0
      dim: 2
      dim: -1
      dim: 0
      dim: 0
    }
  }
}
layer {
  name: "rpn-data"
  type: "Python"
  bottom: "rpn_cls_score"
  bottom: "gt_boxes"
  bottom: "data"
  top: "rpn_labels"
  top: "rpn_twin_targets"
  top: "rpn_twin_inside_weights"
  top: "rpn_twin_outside_weights"
  python_param {
    module: "rpn.anchor_target_layer"
    layer: "AnchorTargetLayer"
    param_str: "\'feat_stride\': 8 \n\'scales\': !!python/tuple [1,1.25, 1.5,1.75, 2,2.5, 3,3.5, 4,4.5, 5,5.5, 6,7, 8,9,10,11,12,14,16,18,20,22,24,28,32,36,40,44,52,60,68,76,84,92,100]"
  }
}
layer {
  name: "rpn_loss_cls"
  type: "SoftmaxWithLoss"
  bottom: "rpn_cls_score_reshape"
  bottom: "rpn_labels"
  top: "rpn_cls_loss"
  loss_weight: 1
  propagate_down: true
  propagate_down: false
  loss_param {
    ignore_label: -1
    normalize: true
  }
}
layer {
  name: "rpn_loss_twin"
  type: "SmoothL1Loss"
  bottom: "rpn_twin_pred"
  bottom: "rpn_twin_targets"
  bottom: "rpn_twin_inside_weights"
  bottom: "rpn_twin_outside_weights"
  top: "rpn_loss_twin"
  loss_weight: 1
  smooth_l1_loss_param {
    sigma: 3
  }
}
layer {
  name: "rpn_accuarcy"
  type: "Accuracy"
  bottom: "rpn_cls_score_reshape"
  bottom: "rpn_labels"
  top: "rpn_accuarcy"
  top: "rpn_accuarcy_class"
  propagate_down: false
  propagate_down: false
  accuracy_param {
    ignore_label: -1
  }
}
layer {
  name: "rpn_cls_prob"
  type: "Softmax"
  bottom: "rpn_cls_score_reshape"
  top: "rpn_cls_prob"
}
layer {
  name: "rpn_cls_prob_reshape"
  type: "Reshape"
  bottom: "rpn_cls_prob"
  top: "rpn_cls_prob_reshape"
  reshape_param {
    shape {
      dim: 0
      dim: 74
      dim: -1
      dim: 0
      dim: 0
    }
  }
}
layer {
  name: "proposal"
  type: "Python"
  bottom: "rpn_cls_prob_reshape"
  bottom: "rpn_twin_pred"
  top: "rpn_rois"
  include {
    phase: TRAIN
  }
  python_param {
    module: "rpn.proposal_layer"
    layer: "ProposalLayer"
    param_str: "\'feat_stride\': 8 \n\'scales\': !!python/tuple [1,1.25, 1.5,1.75, 2,2.5, 3,3.5, 4,4.5, 5,5.5, 6,7, 8,9,10,11,12,14,16,18,20,22,24,28,32,36,40,44,52,60,68,76,84,92,100]"
  }
}
layer {
  name: "roi-data"
  type: "Python"
  bottom: "rpn_rois"
  bottom: "gt_boxes"
  top: "rois"
  top: "labels"
  top: "twin_targets"
  top: "twin_inside_weights"
  top: "twin_outside_weights"
  python_param {
    module: "rpn.proposal_target_layer"
    layer: "ProposalTargetLayer"
    param_str: "\'num_classes\': 201"
  }
}
layer {
  name: "roi_pool5"
  type: "ROIPooling"
  bottom: "conv5b"
  bottom: "rois"
  top: "pool5"
  roi_pooling_param {
    pooled_h: 4
    pooled_w: 4
    spatial_scale: 0.0625
    pooled_l: 1
    temporal_scale: 0.125
  }
}
layer {
  name: "fc6"
  type: "InnerProduct"
  bottom: "pool5"
  top: "fc6"
  param {
    lr_mult: 1
    decay_mult: 1
  }
  param {
    lr_mult: 2
    decay_mult: 0
  }
  inner_product_param {
    num_output: 4096
    weight_filler {
      type: "gaussian"
      std: 0.005
    }
    bias_filler {
      type: "constant"
      value: 1
    }
  }
}
layer {
  name: "relu6"
  type: "ReLU"
  bottom: "fc6"
  top: "fc6"
}
layer {
  name: "drop6"
  type: "Dropout"
  bottom: "fc6"
  top: "fc6"
  dropout_param {
    dropout_ratio: 0.5
  }
}
layer {
  name: "cls_score"
  type: "InnerProduct"
  bottom: "fc6"
  top: "cls_score"
  param {
    lr_mult: 1
    decay_mult: 1
  }
  param {
    lr_mult: 2
    decay_mult: 0
  }
  inner_product_param {
    num_output: 201
    weight_filler {
      type: "gaussian"
      std: 0.01
    }
    bias_filler {
      type: "constant"
      value: 0
    }
  }
}
layer {
  name: "twin_pred"
  type: "InnerProduct"
  bottom: "fc6"
  top: "twin_pred"
  param {
    lr_mult: 1
    decay_mult: 1
  }
  param {
    lr_mult: 2
    decay_mult: 0
  }
  inner_product_param {
    num_output: 402
    weight_filler {
      type: "gaussian"
      std: 0.001
    }
    bias_filler {
      type: "constant"
      value: 0
    }
  }
}
layer {
  name: "loss_cls"
  type: "SoftmaxWithLoss"
  bottom: "cls_score"
  bottom: "labels"
  top: "loss_cls"
  loss_weight: 1
  propagate_down: true
  propagate_down: false
}
layer {
  name: "loss_twin"
  type: "SmoothL1Loss"
  bottom: "twin_pred"
  bottom: "twin_targets"
  bottom: "twin_inside_weights"
  bottom: "twin_outside_weights"
  top: "loss_twin"
  loss_weight: 1
}
layer {
  name: "accuarcy"
  type: "Accuracy"
  bottom: "cls_score"
  bottom: "labels"
  top: "accuarcy"
  propagate_down: false
  propagate_down: false
  accuracy_param {
    ignore_label: -1
  }
}
I0416 02:10:10.414860 25211 layer_factory.hpp:77] Creating layer data
I0416 02:10:10.441881 25211 net.cpp:100] Creating Layer data
I0416 02:10:10.442332 25211 net.cpp:408] data -> data
I0416 02:10:10.442364 25211 net.cpp:408] data -> gt_boxes
RoiDataLayer: name_to_top: {'gt_windows': 1, 'data': 0}
I0416 02:10:10.488589 25211 net.cpp:150] Setting up data
I0416 02:10:10.488729 25211 net.cpp:157] Top shape: 1 3 768 112 112 (28901376)
I0416 02:10:10.488767 25211 net.cpp:157] Top shape: 1 3 (3)
I0416 02:10:10.488791 25211 net.cpp:165] Memory required for data: 115605516
I0416 02:10:10.488844 25211 layer_factory.hpp:77] Creating layer data_data_0_split
I0416 02:10:10.488919 25211 net.cpp:100] Creating Layer data_data_0_split
I0416 02:10:10.488955 25211 net.cpp:434] data_data_0_split <- data
I0416 02:10:10.488991 25211 net.cpp:408] data_data_0_split -> data_data_0_split_0
I0416 02:10:10.489053 25211 net.cpp:408] data_data_0_split -> data_data_0_split_1
I0416 02:10:10.489436 25211 net.cpp:150] Setting up data_data_0_split
I0416 02:10:10.489486 25211 net.cpp:157] Top shape: 1 3 768 112 112 (28901376)
I0416 02:10:10.489511 25211 net.cpp:157] Top shape: 1 3 768 112 112 (28901376)
I0416 02:10:10.489531 25211 net.cpp:165] Memory required for data: 346816524
I0416 02:10:10.489550 25211 layer_factory.hpp:77] Creating layer gt_boxes_data_1_split
I0416 02:10:10.489591 25211 net.cpp:100] Creating Layer gt_boxes_data_1_split
I0416 02:10:10.489624 25211 net.cpp:434] gt_boxes_data_1_split <- gt_boxes
I0416 02:10:10.489666 25211 net.cpp:408] gt_boxes_data_1_split -> gt_boxes_data_1_split_0
I0416 02:10:10.489714 25211 net.cpp:408] gt_boxes_data_1_split -> gt_boxes_data_1_split_1
I0416 02:10:10.489926 25211 net.cpp:150] Setting up gt_boxes_data_1_split
I0416 02:10:10.489974 25211 net.cpp:157] Top shape: 1 3 (3)
I0416 02:10:10.490001 25211 net.cpp:157] Top shape: 1 3 (3)
I0416 02:10:10.490025 25211 net.cpp:165] Memory required for data: 346816548
I0416 02:10:10.490051 25211 layer_factory.hpp:77] Creating layer conv1a
I0416 02:10:10.490113 25211 net.cpp:100] Creating Layer conv1a
I0416 02:10:10.490154 25211 net.cpp:434] conv1a <- data_data_0_split_0
I0416 02:10:10.490206 25211 net.cpp:408] conv1a -> conv1a
I0416 02:10:10.526510 25211 net.cpp:150] Setting up conv1a
I0416 02:10:10.526541 25211 net.cpp:157] Top shape: 1 64 768 112 112 (616562688)
I0416 02:10:10.526545 25211 net.cpp:165] Memory required for data: 2813067300
I0416 02:10:10.526561 25211 layer_factory.hpp:77] Creating layer relu1a
I0416 02:10:10.526576 25211 net.cpp:100] Creating Layer relu1a
I0416 02:10:10.526583 25211 net.cpp:434] relu1a <- conv1a
I0416 02:10:10.526592 25211 net.cpp:395] relu1a -> conv1a (in-place)
I0416 02:10:10.526612 25211 net.cpp:150] Setting up relu1a
I0416 02:10:10.526618 25211 net.cpp:157] Top shape: 1 64 768 112 112 (616562688)
I0416 02:10:10.526621 25211 net.cpp:165] Memory required for data: 5279318052
I0416 02:10:10.526626 25211 layer_factory.hpp:77] Creating layer pool1
I0416 02:10:10.526636 25211 net.cpp:100] Creating Layer pool1
I0416 02:10:10.526643 25211 net.cpp:434] pool1 <- conv1a
I0416 02:10:10.526649 25211 net.cpp:408] pool1 -> pool1
I0416 02:10:10.526756 25211 net.cpp:150] Setting up pool1
I0416 02:10:10.526763 25211 net.cpp:157] Top shape: 1 64 768 56 56 (154140672)
I0416 02:10:10.526767 25211 net.cpp:165] Memory required for data: 5895880740
I0416 02:10:10.526773 25211 layer_factory.hpp:77] Creating layer conv2a
I0416 02:10:10.526788 25211 net.cpp:100] Creating Layer conv2a
I0416 02:10:10.526795 25211 net.cpp:434] conv2a <- pool1
I0416 02:10:10.526808 25211 net.cpp:408] conv2a -> conv2a
I0416 02:10:10.534152 25211 net.cpp:150] Setting up conv2a
I0416 02:10:10.534181 25211 net.cpp:157] Top shape: 1 128 768 56 56 (308281344)
I0416 02:10:10.534185 25211 net.cpp:165] Memory required for data: 7129006116
I0416 02:10:10.534198 25211 layer_factory.hpp:77] Creating layer relu2a
I0416 02:10:10.534209 25211 net.cpp:100] Creating Layer relu2a
I0416 02:10:10.534214 25211 net.cpp:434] relu2a <- conv2a
I0416 02:10:10.534224 25211 net.cpp:395] relu2a -> conv2a (in-place)
I0416 02:10:10.534237 25211 net.cpp:150] Setting up relu2a
I0416 02:10:10.534245 25211 net.cpp:157] Top shape: 1 128 768 56 56 (308281344)
I0416 02:10:10.534248 25211 net.cpp:165] Memory required for data: 8362131492
I0416 02:10:10.534252 25211 layer_factory.hpp:77] Creating layer pool2
I0416 02:10:10.534262 25211 net.cpp:100] Creating Layer pool2
I0416 02:10:10.534268 25211 net.cpp:434] pool2 <- conv2a
I0416 02:10:10.534277 25211 net.cpp:408] pool2 -> pool2
I0416 02:10:10.534374 25211 net.cpp:150] Setting up pool2
I0416 02:10:10.534384 25211 net.cpp:157] Top shape: 1 128 384 28 28 (38535168)
I0416 02:10:10.534387 25211 net.cpp:165] Memory required for data: 8516272164
I0416 02:10:10.534391 25211 layer_factory.hpp:77] Creating layer conv3a
I0416 02:10:10.534405 25211 net.cpp:100] Creating Layer conv3a
I0416 02:10:10.534412 25211 net.cpp:434] conv3a <- pool2
I0416 02:10:10.534422 25211 net.cpp:408] conv3a -> conv3a
I0416 02:10:10.542599 25211 net.cpp:150] Setting up conv3a
I0416 02:10:10.542616 25211 net.cpp:157] Top shape: 1 256 384 28 28 (77070336)
I0416 02:10:10.542619 25211 net.cpp:165] Memory required for data: 8824553508
I0416 02:10:10.542634 25211 layer_factory.hpp:77] Creating layer relu3a
I0416 02:10:10.542644 25211 net.cpp:100] Creating Layer relu3a
I0416 02:10:10.542649 25211 net.cpp:434] relu3a <- conv3a
I0416 02:10:10.542656 25211 net.cpp:395] relu3a -> conv3a (in-place)
I0416 02:10:10.542665 25211 net.cpp:150] Setting up relu3a
I0416 02:10:10.542672 25211 net.cpp:157] Top shape: 1 256 384 28 28 (77070336)
I0416 02:10:10.542676 25211 net.cpp:165] Memory required for data: 9132834852
I0416 02:10:10.542680 25211 layer_factory.hpp:77] Creating layer conv3b
I0416 02:10:10.542691 25211 net.cpp:100] Creating Layer conv3b
I0416 02:10:10.542698 25211 net.cpp:434] conv3b <- conv3a
I0416 02:10:10.542707 25211 net.cpp:408] conv3b -> conv3b
I0416 02:10:10.561972 25211 net.cpp:150] Setting up conv3b
I0416 02:10:10.561997 25211 net.cpp:157] Top shape: 1 256 384 28 28 (77070336)
I0416 02:10:10.562000 25211 net.cpp:165] Memory required for data: 9441116196
I0416 02:10:10.562010 25211 layer_factory.hpp:77] Creating layer relu3b
I0416 02:10:10.562021 25211 net.cpp:100] Creating Layer relu3b
I0416 02:10:10.562026 25211 net.cpp:434] relu3b <- conv3b
I0416 02:10:10.562032 25211 net.cpp:395] relu3b -> conv3b (in-place)
I0416 02:10:10.562042 25211 net.cpp:150] Setting up relu3b
I0416 02:10:10.562070 25211 net.cpp:157] Top shape: 1 256 384 28 28 (77070336)
I0416 02:10:10.562095 25211 net.cpp:165] Memory required for data: 9749397540
I0416 02:10:10.562114 25211 layer_factory.hpp:77] Creating layer pool3
I0416 02:10:10.562136 25211 net.cpp:100] Creating Layer pool3
I0416 02:10:10.562155 25211 net.cpp:434] pool3 <- conv3b
I0416 02:10:10.562173 25211 net.cpp:408] pool3 -> pool3
I0416 02:10:10.562250 25211 net.cpp:150] Setting up pool3
I0416 02:10:10.562260 25211 net.cpp:157] Top shape: 1 256 192 14 14 (9633792)
I0416 02:10:10.562264 25211 net.cpp:165] Memory required for data: 9787932708
I0416 02:10:10.562268 25211 layer_factory.hpp:77] Creating layer conv4a
I0416 02:10:10.562283 25211 net.cpp:100] Creating Layer conv4a
I0416 02:10:10.562299 25211 net.cpp:434] conv4a <- pool3
I0416 02:10:10.562319 25211 net.cpp:408] conv4a -> conv4a
I0416 02:10:10.610460 25211 net.cpp:150] Setting up conv4a
I0416 02:10:10.610730 25211 net.cpp:157] Top shape: 1 512 192 14 14 (19267584)
I0416 02:10:10.610781 25211 net.cpp:165] Memory required for data: 9865003044
I0416 02:10:10.610875 25211 layer_factory.hpp:77] Creating layer relu4a
I0416 02:10:10.610944 25211 net.cpp:100] Creating Layer relu4a
I0416 02:10:10.610985 25211 net.cpp:434] relu4a <- conv4a
I0416 02:10:10.611024 25211 net.cpp:395] relu4a -> conv4a (in-place)
I0416 02:10:10.611079 25211 net.cpp:150] Setting up relu4a
I0416 02:10:10.611117 25211 net.cpp:157] Top shape: 1 512 192 14 14 (19267584)
I0416 02:10:10.611150 25211 net.cpp:165] Memory required for data: 9942073380
I0416 02:10:10.611172 25211 layer_factory.hpp:77] Creating layer conv4b
I0416 02:10:10.611238 25211 net.cpp:100] Creating Layer conv4b
I0416 02:10:10.611270 25211 net.cpp:434] conv4b <- conv4a
I0416 02:10:10.611307 25211 net.cpp:408] conv4b -> conv4b
I0416 02:10:10.692149 25211 net.cpp:150] Setting up conv4b
I0416 02:10:10.692181 25211 net.cpp:157] Top shape: 1 512 192 14 14 (19267584)
I0416 02:10:10.692185 25211 net.cpp:165] Memory required for data: 10019143716
I0416 02:10:10.692195 25211 layer_factory.hpp:77] Creating layer relu4b
I0416 02:10:10.692207 25211 net.cpp:100] Creating Layer relu4b
I0416 02:10:10.692212 25211 net.cpp:434] relu4b <- conv4b
I0416 02:10:10.692221 25211 net.cpp:395] relu4b -> conv4b (in-place)
I0416 02:10:10.692231 25211 net.cpp:150] Setting up relu4b
I0416 02:10:10.692236 25211 net.cpp:157] Top shape: 1 512 192 14 14 (19267584)
I0416 02:10:10.692240 25211 net.cpp:165] Memory required for data: 10096214052
I0416 02:10:10.692243 25211 layer_factory.hpp:77] Creating layer pool4
I0416 02:10:10.692250 25211 net.cpp:100] Creating Layer pool4
I0416 02:10:10.692255 25211 net.cpp:434] pool4 <- conv4b
I0416 02:10:10.692260 25211 net.cpp:408] pool4 -> pool4
I0416 02:10:10.692322 25211 net.cpp:150] Setting up pool4
I0416 02:10:10.692361 25211 net.cpp:157] Top shape: 1 512 96 7 7 (2408448)
I0416 02:10:10.692365 25211 net.cpp:165] Memory required for data: 10105847844
I0416 02:10:10.692370 25211 layer_factory.hpp:77] Creating layer conv5a
I0416 02:10:10.692384 25211 net.cpp:100] Creating Layer conv5a
I0416 02:10:10.692389 25211 net.cpp:434] conv5a <- pool4
I0416 02:10:10.692396 25211 net.cpp:408] conv5a -> conv5a
I0416 02:10:10.769798 25211 net.cpp:150] Setting up conv5a
I0416 02:10:10.769945 25211 net.cpp:157] Top shape: 1 512 96 7 7 (2408448)
I0416 02:10:10.769953 25211 net.cpp:165] Memory required for data: 10115481636
I0416 02:10:10.769986 25211 layer_factory.hpp:77] Creating layer relu5a
I0416 02:10:10.770030 25211 net.cpp:100] Creating Layer relu5a
I0416 02:10:10.770046 25211 net.cpp:434] relu5a <- conv5a
I0416 02:10:10.770066 25211 net.cpp:395] relu5a -> conv5a (in-place)
I0416 02:10:10.770097 25211 net.cpp:150] Setting up relu5a
I0416 02:10:10.770110 25211 net.cpp:157] Top shape: 1 512 96 7 7 (2408448)
I0416 02:10:10.770117 25211 net.cpp:165] Memory required for data: 10125115428
I0416 02:10:10.770120 25211 layer_factory.hpp:77] Creating layer conv5b
I0416 02:10:10.770164 25211 net.cpp:100] Creating Layer conv5b
I0416 02:10:10.770179 25211 net.cpp:434] conv5b <- conv5a
I0416 02:10:10.770190 25211 net.cpp:408] conv5b -> conv5b
I0416 02:10:10.873111 25211 net.cpp:150] Setting up conv5b
I0416 02:10:10.873204 25211 net.cpp:157] Top shape: 1 512 96 7 7 (2408448)
I0416 02:10:10.873224 25211 net.cpp:165] Memory required for data: 10134749220
I0416 02:10:10.873247 25211 layer_factory.hpp:77] Creating layer relu5b
I0416 02:10:10.873270 25211 net.cpp:100] Creating Layer relu5b
I0416 02:10:10.873286 25211 net.cpp:434] relu5b <- conv5b
I0416 02:10:10.873309 25211 net.cpp:395] relu5b -> conv5b (in-place)
I0416 02:10:10.873334 25211 net.cpp:150] Setting up relu5b
I0416 02:10:10.873358 25211 net.cpp:157] Top shape: 1 512 96 7 7 (2408448)
I0416 02:10:10.873374 25211 net.cpp:165] Memory required for data: 10144383012
I0416 02:10:10.873389 25211 layer_factory.hpp:77] Creating layer conv5b_relu5b_0_split
I0416 02:10:10.873407 25211 net.cpp:100] Creating Layer conv5b_relu5b_0_split
I0416 02:10:10.873420 25211 net.cpp:434] conv5b_relu5b_0_split <- conv5b
I0416 02:10:10.873440 25211 net.cpp:408] conv5b_relu5b_0_split -> conv5b_relu5b_0_split_0
I0416 02:10:10.873462 25211 net.cpp:408] conv5b_relu5b_0_split -> conv5b_relu5b_0_split_1
I0416 02:10:10.873548 25211 net.cpp:150] Setting up conv5b_relu5b_0_split
I0416 02:10:10.873570 25211 net.cpp:157] Top shape: 1 512 96 7 7 (2408448)
I0416 02:10:10.873584 25211 net.cpp:157] Top shape: 1 512 96 7 7 (2408448)
I0416 02:10:10.873597 25211 net.cpp:165] Memory required for data: 10163650596
I0416 02:10:10.873610 25211 layer_factory.hpp:77] Creating layer rpn_conv/3x3
I0416 02:10:10.873634 25211 net.cpp:100] Creating Layer rpn_conv/3x3
I0416 02:10:10.873651 25211 net.cpp:434] rpn_conv/3x3 <- conv5b_relu5b_0_split_0
I0416 02:10:10.873672 25211 net.cpp:408] rpn_conv/3x3 -> rpn/output
I0416 02:10:10.972019 25211 net.cpp:150] Setting up rpn_conv/3x3
I0416 02:10:10.972086 25211 net.cpp:157] Top shape: 1 512 96 4 4 (786432)
I0416 02:10:10.972101 25211 net.cpp:165] Memory required for data: 10166796324
I0416 02:10:10.972131 25211 layer_factory.hpp:77] Creating layer rpn_relu/3x3
I0416 02:10:10.972154 25211 net.cpp:100] Creating Layer rpn_relu/3x3
I0416 02:10:10.972169 25211 net.cpp:434] rpn_relu/3x3 <- rpn/output
I0416 02:10:10.972187 25211 net.cpp:395] rpn_relu/3x3 -> rpn/output (in-place)
I0416 02:10:10.972208 25211 net.cpp:150] Setting up rpn_relu/3x3
I0416 02:10:10.972223 25211 net.cpp:157] Top shape: 1 512 96 4 4 (786432)
I0416 02:10:10.972237 25211 net.cpp:165] Memory required for data: 10169942052
I0416 02:10:10.972252 25211 layer_factory.hpp:77] Creating layer rpn_conv/3x3_2
I0416 02:10:10.972277 25211 net.cpp:100] Creating Layer rpn_conv/3x3_2
I0416 02:10:10.972293 25211 net.cpp:434] rpn_conv/3x3_2 <- rpn/output
I0416 02:10:10.972314 25211 net.cpp:408] rpn_conv/3x3_2 -> rpn/output_2
I0416 02:10:11.049070 25211 net.cpp:150] Setting up rpn_conv/3x3_2
I0416 02:10:11.049142 25211 net.cpp:157] Top shape: 1 512 96 2 2 (196608)
I0416 02:10:11.049157 25211 net.cpp:165] Memory required for data: 10170728484
I0416 02:10:11.049177 25211 layer_factory.hpp:77] Creating layer rpn_relu/3x3_2
I0416 02:10:11.049196 25211 net.cpp:100] Creating Layer rpn_relu/3x3_2
I0416 02:10:11.049214 25211 net.cpp:434] rpn_relu/3x3_2 <- rpn/output_2
I0416 02:10:11.049235 25211 net.cpp:395] rpn_relu/3x3_2 -> rpn/output_2 (in-place)
I0416 02:10:11.049257 25211 net.cpp:150] Setting up rpn_relu/3x3_2
I0416 02:10:11.049275 25211 net.cpp:157] Top shape: 1 512 96 2 2 (196608)
I0416 02:10:11.049288 25211 net.cpp:165] Memory required for data: 10171514916
I0416 02:10:11.049302 25211 layer_factory.hpp:77] Creating layer rpn/output_pool
I0416 02:10:11.049321 25211 net.cpp:100] Creating Layer rpn/output_pool
I0416 02:10:11.049335 25211 net.cpp:434] rpn/output_pool <- rpn/output_2
I0416 02:10:11.049355 25211 net.cpp:408] rpn/output_pool -> rpn/output_pool
I0416 02:10:11.049432 25211 net.cpp:150] Setting up rpn/output_pool
I0416 02:10:11.049458 25211 net.cpp:157] Top shape: 1 512 96 1 1 (49152)
I0416 02:10:11.049470 25211 net.cpp:165] Memory required for data: 10171711524
I0416 02:10:11.049484 25211 layer_factory.hpp:77] Creating layer rpn/output_pool_rpn/output_pool_0_split
I0416 02:10:11.049502 25211 net.cpp:100] Creating Layer rpn/output_pool_rpn/output_pool_0_split
I0416 02:10:11.049525 25211 net.cpp:434] rpn/output_pool_rpn/output_pool_0_split <- rpn/output_pool
I0416 02:10:11.049546 25211 net.cpp:408] rpn/output_pool_rpn/output_pool_0_split -> rpn/output_pool_rpn/output_pool_0_split_0
I0416 02:10:11.049566 25211 net.cpp:408] rpn/output_pool_rpn/output_pool_0_split -> rpn/output_pool_rpn/output_pool_0_split_1
I0416 02:10:11.049643 25211 net.cpp:150] Setting up rpn/output_pool_rpn/output_pool_0_split
I0416 02:10:11.049664 25211 net.cpp:157] Top shape: 1 512 96 1 1 (49152)
I0416 02:10:11.049679 25211 net.cpp:157] Top shape: 1 512 96 1 1 (49152)
I0416 02:10:11.049691 25211 net.cpp:165] Memory required for data: 10172104740
I0416 02:10:11.049705 25211 layer_factory.hpp:77] Creating layer rpn_cls_score
I0416 02:10:11.049726 25211 net.cpp:100] Creating Layer rpn_cls_score
I0416 02:10:11.049741 25211 net.cpp:434] rpn_cls_score <- rpn/output_pool_rpn/output_pool_0_split_0
I0416 02:10:11.049762 25211 net.cpp:408] rpn_cls_score -> rpn_cls_score
I0416 02:10:11.050577 25211 net.cpp:150] Setting up rpn_cls_score
I0416 02:10:11.050601 25211 net.cpp:157] Top shape: 1 74 96 1 1 (7104)
I0416 02:10:11.050614 25211 net.cpp:165] Memory required for data: 10172133156
I0416 02:10:11.050631 25211 layer_factory.hpp:77] Creating layer rpn_cls_score_rpn_cls_score_0_split
I0416 02:10:11.050652 25211 net.cpp:100] Creating Layer rpn_cls_score_rpn_cls_score_0_split
I0416 02:10:11.050667 25211 net.cpp:434] rpn_cls_score_rpn_cls_score_0_split <- rpn_cls_score
I0416 02:10:11.050683 25211 net.cpp:408] rpn_cls_score_rpn_cls_score_0_split -> rpn_cls_score_rpn_cls_score_0_split_0
I0416 02:10:11.050704 25211 net.cpp:408] rpn_cls_score_rpn_cls_score_0_split -> rpn_cls_score_rpn_cls_score_0_split_1
I0416 02:10:11.050779 25211 net.cpp:150] Setting up rpn_cls_score_rpn_cls_score_0_split
I0416 02:10:11.050799 25211 net.cpp:157] Top shape: 1 74 96 1 1 (7104)
I0416 02:10:11.050814 25211 net.cpp:157] Top shape: 1 74 96 1 1 (7104)
I0416 02:10:11.050827 25211 net.cpp:165] Memory required for data: 10172189988
I0416 02:10:11.050842 25211 layer_factory.hpp:77] Creating layer rpn_twin_pred
I0416 02:10:11.050869 25211 net.cpp:100] Creating Layer rpn_twin_pred
I0416 02:10:11.050885 25211 net.cpp:434] rpn_twin_pred <- rpn/output_pool_rpn/output_pool_0_split_1
I0416 02:10:11.050904 25211 net.cpp:408] rpn_twin_pred -> rpn_twin_pred
I0416 02:10:11.051693 25211 net.cpp:150] Setting up rpn_twin_pred
I0416 02:10:11.051719 25211 net.cpp:157] Top shape: 1 74 96 1 1 (7104)
I0416 02:10:11.051733 25211 net.cpp:165] Memory required for data: 10172218404
I0416 02:10:11.051749 25211 layer_factory.hpp:77] Creating layer rpn_twin_pred_rpn_twin_pred_0_split
I0416 02:10:11.051765 25211 net.cpp:100] Creating Layer rpn_twin_pred_rpn_twin_pred_0_split
I0416 02:10:11.051779 25211 net.cpp:434] rpn_twin_pred_rpn_twin_pred_0_split <- rpn_twin_pred
I0416 02:10:11.051795 25211 net.cpp:408] rpn_twin_pred_rpn_twin_pred_0_split -> rpn_twin_pred_rpn_twin_pred_0_split_0
I0416 02:10:11.051815 25211 net.cpp:408] rpn_twin_pred_rpn_twin_pred_0_split -> rpn_twin_pred_rpn_twin_pred_0_split_1
I0416 02:10:11.051885 25211 net.cpp:150] Setting up rpn_twin_pred_rpn_twin_pred_0_split
I0416 02:10:11.051909 25211 net.cpp:157] Top shape: 1 74 96 1 1 (7104)
I0416 02:10:11.051925 25211 net.cpp:157] Top shape: 1 74 96 1 1 (7104)
I0416 02:10:11.051937 25211 net.cpp:165] Memory required for data: 10172275236
I0416 02:10:11.051952 25211 layer_factory.hpp:77] Creating layer rpn_cls_score_reshape
I0416 02:10:11.051971 25211 net.cpp:100] Creating Layer rpn_cls_score_reshape
I0416 02:10:11.051986 25211 net.cpp:434] rpn_cls_score_reshape <- rpn_cls_score_rpn_cls_score_0_split_0
I0416 02:10:11.052008 25211 net.cpp:408] rpn_cls_score_reshape -> rpn_cls_score_reshape
I0416 02:10:11.052062 25211 net.cpp:150] Setting up rpn_cls_score_reshape
I0416 02:10:11.052083 25211 net.cpp:157] Top shape: 1 2 3552 1 1 (7104)
I0416 02:10:11.052096 25211 net.cpp:165] Memory required for data: 10172303652
I0416 02:10:11.052110 25211 layer_factory.hpp:77] Creating layer rpn_cls_score_reshape_rpn_cls_score_reshape_0_split
I0416 02:10:11.052131 25211 net.cpp:100] Creating Layer rpn_cls_score_reshape_rpn_cls_score_reshape_0_split
I0416 02:10:11.052147 25211 net.cpp:434] rpn_cls_score_reshape_rpn_cls_score_reshape_0_split <- rpn_cls_score_reshape
I0416 02:10:11.052171 25211 net.cpp:408] rpn_cls_score_reshape_rpn_cls_score_reshape_0_split -> rpn_cls_score_reshape_rpn_cls_score_reshape_0_split_0
I0416 02:10:11.052202 25211 net.cpp:408] rpn_cls_score_reshape_rpn_cls_score_reshape_0_split -> rpn_cls_score_reshape_rpn_cls_score_reshape_0_split_1
I0416 02:10:11.052223 25211 net.cpp:408] rpn_cls_score_reshape_rpn_cls_score_reshape_0_split -> rpn_cls_score_reshape_rpn_cls_score_reshape_0_split_2
I0416 02:10:11.052310 25211 net.cpp:150] Setting up rpn_cls_score_reshape_rpn_cls_score_reshape_0_split
I0416 02:10:11.052371 25211 net.cpp:157] Top shape: 1 2 3552 1 1 (7104)
I0416 02:10:11.052390 25211 net.cpp:157] Top shape: 1 2 3552 1 1 (7104)
I0416 02:10:11.052410 25211 net.cpp:157] Top shape: 1 2 3552 1 1 (7104)
I0416 02:10:11.052423 25211 net.cpp:165] Memory required for data: 10172388900
I0416 02:10:11.052436 25211 layer_factory.hpp:77] Creating layer rpn-data
I0416 02:10:11.052930 25211 net.cpp:100] Creating Layer rpn-data
I0416 02:10:11.052958 25211 net.cpp:434] rpn-data <- rpn_cls_score_rpn_cls_score_0_split_1
I0416 02:10:11.052976 25211 net.cpp:434] rpn-data <- gt_boxes_data_1_split_0
I0416 02:10:11.052991 25211 net.cpp:434] rpn-data <- data_data_0_split_1
I0416 02:10:11.053009 25211 net.cpp:408] rpn-data -> rpn_labels
I0416 02:10:11.053032 25211 net.cpp:408] rpn-data -> rpn_twin_targets
I0416 02:10:11.053051 25211 net.cpp:408] rpn-data -> rpn_twin_inside_weights
I0416 02:10:11.053072 25211 net.cpp:408] rpn-data -> rpn_twin_outside_weights
I0416 02:10:11.056747 25211 net.cpp:150] Setting up rpn-data
I0416 02:10:11.056783 25211 net.cpp:157] Top shape: 1 1 3552 1 1 (3552)
I0416 02:10:11.056800 25211 net.cpp:157] Top shape: 1 74 96 1 1 (7104)
I0416 02:10:11.056814 25211 net.cpp:157] Top shape: 1 74 96 1 1 (7104)
I0416 02:10:11.056829 25211 net.cpp:157] Top shape: 1 74 96 1 1 (7104)
I0416 02:10:11.056843 25211 net.cpp:165] Memory required for data: 10172488356
I0416 02:10:11.056859 25211 layer_factory.hpp:77] Creating layer rpn_labels_rpn-data_0_split
I0416 02:10:11.056875 25211 net.cpp:100] Creating Layer rpn_labels_rpn-data_0_split
I0416 02:10:11.056890 25211 net.cpp:434] rpn_labels_rpn-data_0_split <- rpn_labels
I0416 02:10:11.056910 25211 net.cpp:408] rpn_labels_rpn-data_0_split -> rpn_labels_rpn-data_0_split_0
I0416 02:10:11.056928 25211 net.cpp:408] rpn_labels_rpn-data_0_split -> rpn_labels_rpn-data_0_split_1
I0416 02:10:11.056998 25211 net.cpp:150] Setting up rpn_labels_rpn-data_0_split
I0416 02:10:11.057020 25211 net.cpp:157] Top shape: 1 1 3552 1 1 (3552)
I0416 02:10:11.057035 25211 net.cpp:157] Top shape: 1 1 3552 1 1 (3552)
I0416 02:10:11.057051 25211 net.cpp:165] Memory required for data: 10172516772
I0416 02:10:11.057068 25211 layer_factory.hpp:77] Creating layer rpn_loss_cls
I0416 02:10:11.057087 25211 net.cpp:100] Creating Layer rpn_loss_cls
I0416 02:10:11.057103 25211 net.cpp:434] rpn_loss_cls <- rpn_cls_score_reshape_rpn_cls_score_reshape_0_split_0
I0416 02:10:11.057118 25211 net.cpp:434] rpn_loss_cls <- rpn_labels_rpn-data_0_split_0
…
I0416 02:10:11.057690 25211 layer_factory.hpp:77] Creating layer rpn_accuarcy
I0416 02:10:11.057709 25211 net.cpp:100] Creating Layer rpn_accuarcy
I0416 02:10:11.057723 25211 net.cpp:434] rpn_accuarcy <- rpn_cls_score_reshape_rpn_cls_score_reshape_0_split_1
I0416 02:10:11.057739 25211 net.cpp:434] rpn_accuarcy <- rpn_labels_rpn-data_0_split_1
I0416 02:10:11.057760 25211 net.cpp:408] rpn_accuarcy -> rpn_accuarcy
I0416 02:10:11.057778 25211 net.cpp:408] rpn_accuarcy -> rpn_accuarcy_class
I0416 02:10:11.057845 25211 net.cpp:150] Setting up rpn_accuarcy
I0416 02:10:11.057868 25211 net.cpp:157] Top shape: (1)
I0416 02:10:11.057886 25211 net.cpp:157] Top shape: 2 (2)
I0416 02:10:11.057899 25211 net.cpp:165] Memory required for data: 10172516792
I0416 02:10:11.057912 25211 layer_factory.hpp:77] Creating layer rpn_cls_prob
I0416 02:10:11.057927 25211 net.cpp:100] Creating Layer rpn_cls_prob
I0416 02:10:11.057943 25211 net.cpp:434] rpn_cls_prob <- rpn_cls_score_reshape_rpn_cls_score_reshape_0_split_2
I0416 02:10:11.057967 25211 net.cpp:408] rpn_cls_prob -> rpn_cls_prob
I0416 02:10:11.058076 25211 net.cpp:150] Setting up rpn_cls_prob
I0416 02:10:11.058097 25211 net.cpp:157] Top shape: 1 2 3552 1 1 (7104)
I0416 02:10:11.058111 25211 net.cpp:165] Memory required for data: 10172545208
I0416 02:10:11.058123 25211 layer_factory.hpp:77] Creating layer rpn_cls_prob_reshape
I0416 02:10:11.058141 25211 net.cpp:100] Creating Layer rpn_cls_prob_reshape
I0416 02:10:11.058157 25211 net.cpp:434] rpn_cls_prob_reshape <- rpn_cls_prob
I0416 02:10:11.058173 25211 net.cpp:408] rpn_cls_prob_reshape -> rpn_cls_prob_reshape
I0416 02:10:11.058223 25211 net.cpp:150] Setting up rpn_cls_prob_reshape
I0416 02:10:11.058244 25211 net.cpp:157] Top shape: 1 74 96 1 1 (7104)
I0416 02:10:11.058256 25211 net.cpp:165] Memory required for data: 10172573624
I0416 02:10:11.058270 25211 layer_factory.hpp:77] Creating layer proposal
I0416 02:10:11.059017 25211 net.cpp:100] Creating Layer proposal
I0416 02:10:11.059046 25211 net.cpp:434] proposal <- rpn_cls_prob_reshape
I0416 02:10:11.059063 25211 net.cpp:434] proposal <- rpn_twin_pred_rpn_twin_pred_0_split_1
I0416 02:10:11.059082 25211 net.cpp:408] proposal -> rpn_rois
I0416 02:10:11.075845 25211 net.cpp:150] Setting up proposal
I0416 02:10:11.076205 25211 net.cpp:157] Top shape: 1 3 (3)
I0416 02:10:11.076300 25211 net.cpp:165] Memory required for data: 10172573636
I0416 02:10:11.076473 25211 layer_factory.hpp:77] Creating layer roi-data
I0416 02:10:11.077579 25211 net.cpp:100] Creating Layer roi-data
I0416 02:10:11.077771 25211 net.cpp:434] roi-data <- rpn_rois
I0416 02:10:11.077841 25211 net.cpp:434] roi-data <- gt_boxes_data_1_split_1
I0416 02:10:11.077913 25211 net.cpp:408] roi-data -> rois
I0416 02:10:11.077973 25211 net.cpp:408] roi-data -> labels
I0416 02:10:11.078011 25211 net.cpp:408] roi-data -> twin_targets
I0416 02:10:11.078054 25211 net.cpp:408] roi-data -> twin_inside_weights
I0416 02:10:11.078101 25211 net.cpp:408] roi-data -> twin_outside_weights
I0416 02:10:11.080513 25211 net.cpp:150] Setting up roi-data
I0416 02:10:11.080847 25211 net.cpp:157] Top shape: 1 3 (3)
I0416 02:10:11.080915 25211 net.cpp:157] Top shape: 1 1 (1)
I0416 02:10:11.080945 25211 net.cpp:157] Top shape: 1 402 (402)
I0416 02:10:11.080970 25211 net.cpp:157] Top shape: 1 402 (402)
I0416 02:10:11.080988 25211 net.cpp:157] Top shape: 1 402 (402)
I0416 02:10:11.081015 25211 net.cpp:165] Memory required for data: 10172578476
I0416 02:10:11.081056 25211 layer_factory.hpp:77] Creating layer labels_roi-data_1_split
I0416 02:10:11.081117 25211 net.cpp:100] Creating Layer labels_roi-data_1_split
I0416 02:10:11.081214 25211 net.cpp:434] labels_roi-data_1_split <- labels
I0416 02:10:11.081274 25211 net.cpp:408] labels_roi-data_1_split -> labels_roi-data_1_split_0
I0416 02:10:11.081341 25211 net.cpp:408] labels_roi-data_1_split -> labels_roi-data_1_split_1
I0416 02:10:11.081712 25211 net.cpp:150] Setting up labels_roi-data_1_split
I0416 02:10:11.081759 25211 net.cpp:157] Top shape: 1 1 (1)
I0416 02:10:11.081789 25211 net.cpp:157] Top shape: 1 1 (1)
I0416 02:10:11.081810 25211 net.cpp:165] Memory required for data: 10172578484
I0416 02:10:11.081830 25211 layer_factory.hpp:77] Creating layer roi_pool5
I0416 02:10:11.081867 25211 net.cpp:100] Creating Layer roi_pool5
I0416 02:10:11.081897 25211 net.cpp:434] roi_pool5 <- conv5b_relu5b_0_split_1
I0416 02:10:11.081940 25211 net.cpp:434] roi_pool5 <- rois
I0416 02:10:11.081969 25211 net.cpp:408] roi_pool5 -> pool5
I0416 02:10:11.082005 25211 roi_pooling_layer.cpp:34] Temporal scale: 0.125
I0416 02:10:11.082072 25211 roi_pooling_layer.cpp:35] Spatial scale: 0.0625
I0416 02:10:11.082334 25211 net.cpp:150] Setting up roi_pool5
I0416 02:10:11.082371 25211 net.cpp:157] Top shape: 1 512 1 4 4 (8192)
I0416 02:10:11.082391 25211 net.cpp:165] Memory required for data: 10172611252
I0416 02:10:11.082410 25211 layer_factory.hpp:77] Creating layer fc6
I0416 02:10:11.082451 25211 net.cpp:100] Creating Layer fc6
I0416 02:10:11.082471 25211 net.cpp:434] fc6 <- pool5
I0416 02:10:11.082514 25211 net.cpp:408] fc6 -> fc6
I0416 02:10:11.490473 25211 net.cpp:150] Setting up fc6
I0416 02:10:11.490767 25211 net.cpp:157] Top shape: 1 4096 (4096)
I0416 02:10:11.490799 25211 net.cpp:165] Memory required for data: 10172627636
I0416 02:10:11.490849 25211 layer_factory.hpp:77] Creating layer relu6
I0416 02:10:11.490896 25211 net.cpp:100] Creating Layer relu6
I0416 02:10:11.490924 25211 net.cpp:434] relu6 <- fc6
I0416 02:10:11.490957 25211 net.cpp:395] relu6 -> fc6 (in-place)
I0416 02:10:11.491000 25211 net.cpp:150] Setting up relu6
I0416 02:10:11.491024 25211 net.cpp:157] Top shape: 1 4096 (4096)
I0416 02:10:11.491039 25211 net.cpp:165] Memory required for data: 10172644020
I0416 02:10:11.491053 25211 layer_factory.hpp:77] Creating layer drop6
I0416 02:10:11.491080 25211 net.cpp:100] Creating Layer drop6
I0416 02:10:11.491097 25211 net.cpp:434] drop6 <- fc6
I0416 02:10:11.491122 25211 net.cpp:395] drop6 -> fc6 (in-place)
I0416 02:10:11.491305 25211 net.cpp:150] Setting up drop6
I0416 02:10:11.491345 25211 net.cpp:157] Top shape: 1 4096 (4096)
I0416 02:10:11.491372 25211 net.cpp:165] Memory required for data: 10172660404
I0416 02:10:11.491401 25211 layer_factory.hpp:77] Creating layer fc6_drop6_0_split
I0416 02:10:11.491437 25211 net.cpp:100] Creating Layer fc6_drop6_0_split
I0416 02:10:11.491461 25211 net.cpp:434] fc6_drop6_0_split <- fc6
I0416 02:10:11.491484 25211 net.cpp:408] fc6_drop6_0_split -> fc6_drop6_0_split_0
I0416 02:10:11.491513 25211 net.cpp:408] fc6_drop6_0_split -> fc6_drop6_0_split_1
I0416 02:10:11.491667 25211 net.cpp:150] Setting up fc6_drop6_0_split
I0416 02:10:11.491698 25211 net.cpp:157] Top shape: 1 4096 (4096)
I0416 02:10:11.491720 25211 net.cpp:157] Top shape: 1 4096 (4096)
I0416 02:10:11.491739 25211 net.cpp:165] Memory required for data: 10172693172
I0416 02:10:11.491760 25211 layer_factory.hpp:77] Creating layer cls_score
I0416 02:10:11.491804 25211 net.cpp:100] Creating Layer cls_score
I0416 02:10:11.491830 25211 net.cpp:434] cls_score <- fc6_drop6_0_split_0
I0416 02:10:11.491860 25211 net.cpp:408] cls_score -> cls_score
I0416 02:10:11.510004 25211 net.cpp:150] Setting up cls_score
I0416 02:10:11.510324 25211 net.cpp:157] Top shape: 1 201 (201)
I0416 02:10:11.510380 25211 net.cpp:165] Memory required for data: 10172693976
I0416 02:10:11.510444 25211 layer_factory.hpp:77] Creating layer cls_score_cls_score_0_split
I0416 02:10:11.510507 25211 net.cpp:100] Creating Layer cls_score_cls_score_0_split
I0416 02:10:11.510538 25211 net.cpp:434] cls_score_cls_score_0_split <- cls_score
I0416 02:10:11.510593 25211 net.cpp:408] cls_score_cls_score_0_split -> cls_score_cls_score_0_split_0
I0416 02:10:11.510792 25211 net.cpp:408] cls_score_cls_score_0_split -> cls_score_cls_score_0_split_1
I0416 02:10:11.511214 25211 net.cpp:150] Setting up cls_score_cls_score_0_split
I0416 02:10:11.511250 25211 net.cpp:157] Top shape: 1 201 (201)
I0416 02:10:11.511271 25211 net.cpp:157] Top shape: 1 201 (201)
I0416 02:10:11.511289 25211 net.cpp:165] Memory required for data: 10172695584
I0416 02:10:11.511308 25211 layer_factory.hpp:77] Creating layer twin_pred
I0416 02:10:11.511353 25211 net.cpp:100] Creating Layer twin_pred
I0416 02:10:11.511379 25211 net.cpp:434] twin_pred <- fc6_drop6_0_split_1
I0416 02:10:11.511430 25211 net.cpp:408] twin_pred -> twin_pred
I0416 02:10:11.532717 25211 net.cpp:150] Setting up twin_pred
I0416 02:10:11.532747 25211 net.cpp:157] Top shape: 1 402 (402)
I0416 02:10:11.532752 25211 net.cpp:165] Memory required for data: 10172697192
I0416 02:10:11.532763 25211 layer_factory.hpp:77] Creating layer loss_cls
I0416 02:10:11.532775 25211 net.cpp:100] Creating Layer loss_cls
I0416 02:10:11.532793 25211 net.cpp:434] loss_cls <- cls_score_cls_score_0_split_0
I0416 02:10:11.532804 25211 net.cpp:434] loss_cls <- labels_roi-data_1_split_0
I0416 02:10:11.532814 25211 net.cpp:408] loss_cls -> loss_cls
…
