…
stepsize: 350000
snapshot: 0
snapshot_prefix: "./experiments/activitynet/snapshot/activitynet"
average_loss: 100
iter_size: 1
I0418 00:26:01.466745  4882 solver.cpp:81] Creating training net from train_net file: ./experiments/activitynet/train.prototxt
I0418 00:26:01.467838  4882 net.cpp:58] Initializing net from parameters: 
name: "activitynet"
state {
  phase: TRAIN
}
layer {
  name: "data"
  type: "Python"
  top: "data"
  top: "gt_boxes"
  python_param {
    module: "roi_data_layer.layer"
    layer: "RoIDataLayer"
    param_str: "\'num_classes\': 100"
  }
}
layer {
  name: "conv1a"
  type: "Convolution"
  bottom: "data"
  top: "conv1a"
  param {
    lr_mult: 0
    decay_mult: 0
  }
  param {
    lr_mult: 0
    decay_mult: 0
  }
  convolution_param {
    num_output: 64
    pad: 1
    pad: 1
    pad: 1
    kernel_size: 3
    kernel_size: 3
    kernel_size: 3
    weight_filler {
      type: "gaussian"
      std: 0.01
    }
    bias_filler {
      type: "constant"
      value: 0
    }
  }
}
layer {
  name: "relu1a"
  type: "ReLU"
  bottom: "conv1a"
  top: "conv1a"
}
layer {
  name: "pool1"
  type: "Pooling"
  bottom: "conv1a"
  top: "pool1"
  pooling_param {
    pool: MAX
    kernel_size: 1
    kernel_size: 2
    kernel_size: 2
    stride: 1
    stride: 2
    stride: 2
  }
}
layer {
  name: "conv2a"
  type: "Convolution"
  bottom: "pool1"
  top: "conv2a"
  param {
    lr_mult: 0
    decay_mult: 0
  }
  param {
    lr_mult: 0
    decay_mult: 0
  }
  convolution_param {
    num_output: 128
    pad: 1
    pad: 1
    pad: 1
    kernel_size: 3
    kernel_size: 3
    kernel_size: 3
    weight_filler {
      type: "gaussian"
      std: 0.01
    }
    bias_filler {
      type: "constant"
      value: 1
    }
  }
}
layer {
  name: "relu2a"
  type: "ReLU"
  bottom: "conv2a"
  top: "conv2a"
}
layer {
  name: "pool2"
  type: "Pooling"
  bottom: "conv2a"
  top: "pool2"
  pooling_param {
    pool: MAX
    kernel_size: 2
    kernel_size: 2
    kernel_size: 2
    stride: 2
    stride: 2
    stride: 2
  }
}
layer {
  name: "conv3a"
  type: "Convolution"
  bottom: "pool2"
  top: "conv3a"
  param {
    lr_mult: 1
    decay_mult: 1
  }
  param {
    lr_mult: 2
    decay_mult: 0
  }
  convolution_param {
    num_output: 256
    pad: 1
    pad: 1
    pad: 1
    kernel_size: 3
    kernel_size: 3
    kernel_size: 3
    weight_filler {
      type: "gaussian"
      std: 0.01
    }
    bias_filler {
      type: "constant"
      value: 1
    }
  }
}
layer {
  name: "relu3a"
  type: "ReLU"
  bottom: "conv3a"
  top: "conv3a"
}
layer {
  name: "conv3b"
  type: "Convolution"
  bottom: "conv3a"
  top: "conv3b"
  param {
    lr_mult: 1
    decay_mult: 1
  }
  param {
    lr_mult: 2
    decay_mult: 0
  }
  convolution_param {
    num_output: 256
    pad: 1
    pad: 1
    pad: 1
    kernel_size: 3
    kernel_size: 3
    kernel_size: 3
    weight_filler {
      type: "gaussian"
      std: 0.01
    }
    bias_filler {
      type: "constant"
      value: 1
    }
  }
}
layer {
  name: "relu3b"
  type: "ReLU"
  bottom: "conv3b"
  top: "conv3b"
}
layer {
  name: "pool3"
  type: "Pooling"
  bottom: "conv3b"
  top: "pool3"
  pooling_param {
    pool: MAX
    kernel_size: 2
    kernel_size: 2
    kernel_size: 2
    stride: 2
    stride: 2
    stride: 2
  }
}
layer {
  name: "conv4a"
  type: "Convolution"
  bottom: "pool3"
  top: "conv4a"
  param {
    lr_mult: 1
    decay_mult: 1
  }
  param {
    lr_mult: 2
    decay_mult: 0
  }
  convolution_param {
    num_output: 512
    pad: 1
    pad: 1
    pad: 1
    kernel_size: 3
    kernel_size: 3
    kernel_size: 3
    weight_filler {
      type: "gaussian"
      std: 0.01
    }
    bias_filler {
      type: "constant"
      value: 1
    }
  }
}
layer {
  name: "relu4a"
  type: "ReLU"
  bottom: "conv4a"
  top: "conv4a"
}
layer {
  name: "conv4b"
  type: "Convolution"
  bottom: "conv4a"
  top: "conv4b"
  param {
    lr_mult: 1
    decay_mult: 1
  }
  param {
    lr_mult: 2
    decay_mult: 0
  }
  convolution_param {
    num_output: 512
    pad: 1
    pad: 1
    pad: 1
    kernel_size: 3
    kernel_size: 3
    kernel_size: 3
    weight_filler {
      type: "gaussian"
      std: 0.01
    }
    bias_filler {
      type: "constant"
      value: 1
    }
  }
}
layer {
  name: "relu4b"
  type: "ReLU"
  bottom: "conv4b"
  top: "conv4b"
}
layer {
  name: "pool4"
  type: "Pooling"
  bottom: "conv4b"
  top: "pool4"
  pooling_param {
    pool: MAX
    kernel_size: 2
    kernel_size: 2
    kernel_size: 2
    stride: 2
    stride: 2
    stride: 2
  }
}
layer {
  name: "conv5a"
  type: "Convolution"
  bottom: "pool4"
  top: "conv5a"
  param {
    lr_mult: 1
    decay_mult: 1
  }
  param {
    lr_mult: 2
    decay_mult: 0
  }
  convolution_param {
    num_output: 512
    pad: 1
    pad: 1
    pad: 1
    kernel_size: 3
    kernel_size: 3
    kernel_size: 3
    weight_filler {
      type: "gaussian"
      std: 0.01
    }
    bias_filler {
      type: "constant"
      value: 1
    }
  }
}
layer {
  name: "relu5a"
  type: "ReLU"
  bottom: "conv5a"
  top: "conv5a"
}
layer {
  name: "conv5b"
  type: "Convolution"
  bottom: "conv5a"
  top: "conv5b"
  param {
    lr_mult: 1
    decay_mult: 1
  }
  param {
    lr_mult: 2
    decay_mult: 0
  }
  convolution_param {
    num_output: 512
    pad: 1
    pad: 1
    pad: 1
    kernel_size: 3
    kernel_size: 3
    kernel_size: 3
    weight_filler {
      type: "gaussian"
      std: 0.01
    }
    bias_filler {
      type: "constant"
      value: 1
    }
  }
}
layer {
  name: "relu5b"
  type: "ReLU"
  bottom: "conv5b"
  top: "conv5b"
}
layer {
  name: "rpn_conv/3x3"
  type: "Convolution"
  bottom: "conv5b"
  top: "rpn/output"
  param {
    lr_mult: 1
    decay_mult: 1
  }
  param {
    lr_mult: 2
    decay_mult: 0
  }
  convolution_param {
    num_output: 512
    pad: 1
    pad: 1
    pad: 1
    kernel_size: 3
    kernel_size: 3
    kernel_size: 3
    stride: 1
    stride: 2
    stride: 2
    weight_filler {
      type: "gaussian"
      std: 0.01
    }
    bias_filler {
      type: "constant"
      value: 0
    }
  }
}
layer {
  name: "rpn_relu/3x3"
  type: "ReLU"
  bottom: "rpn/output"
  top: "rpn/output"
}
layer {
  name: "rpn_conv/3x3_2"
  type: "Convolution"
  bottom: "rpn/output"
  top: "rpn/output_2"
  param {
    lr_mult: 1
    decay_mult: 1
  }
  param {
    lr_mult: 2
    decay_mult: 0
  }
  convolution_param {
    num_output: 512
    pad: 1
    pad: 1
    pad: 1
    kernel_size: 3
    kernel_size: 3
    kernel_size: 3
    stride: 1
    stride: 2
    stride: 2
    weight_filler {
      type: "gaussian"
      std: 0.01
    }
    bias_filler {
      type: "constant"
      value: 0
    }
  }
}
layer {
  name: "rpn_relu/3x3_2"
  type: "ReLU"
  bottom: "rpn/output_2"
  top: "rpn/output_2"
}
layer {
  name: "rpn/output_pool"
  type: "Pooling"
  bottom: "rpn/output_2"
  top: "rpn/output_pool"
  pooling_param {
    pool: MAX
    kernel_size: 1
    kernel_size: 2
    kernel_size: 2
  }
}
layer {
  name: "rpn_cls_score"
  type: "Convolution"
  bottom: "rpn/output_pool"
  top: "rpn_cls_score"
  param {
    lr_mult: 1
    decay_mult: 1
  }
  param {
    lr_mult: 2
    decay_mult: 0
  }
  convolution_param {
    num_output: 74
    kernel_size: 1
    kernel_size: 1
    kernel_size: 1
    weight_filler {
      type: "gaussian"
      std: 0.01
    }
    bias_filler {
      type: "constant"
      value: 0
    }
  }
}
layer {
  name: "rpn_twin_pred"
  type: "Convolution"
  bottom: "rpn/output_pool"
  top: "rpn_twin_pred"
  param {
    lr_mult: 1
    decay_mult: 1
  }
  param {
    lr_mult: 2
    decay_mult: 0
  }
  convolution_param {
    num_output: 74
    kernel_size: 1
    kernel_size: 1
    kernel_size: 1
    weight_filler {
      type: "gaussian"
      std: 0.01
    }
    bias_filler {
      type: "constant"
      value: 0
    }
  }
}
layer {
  name: "rpn_cls_score_reshape"
  type: "Reshape"
  bottom: "rpn_cls_score"
  top: "rpn_cls_score_reshape"
  reshape_param {
    shape {
      dim: 0
      dim: 2
      dim: -1
      dim: 0
      dim: 0
    }
  }
}
layer {
  name: "rpn-data"
  type: "Python"
  bottom: "rpn_cls_score"
  bottom: "gt_boxes"
  bottom: "data"
  top: "rpn_labels"
  top: "rpn_twin_targets"
  top: "rpn_twin_inside_weights"
  top: "rpn_twin_outside_weights"
  python_param {
    module: "rpn.anchor_target_layer"
    layer: "AnchorTargetLayer"
    param_str: "\'feat_stride\': 8 \n\'scales\': !!python/tuple [1,1.25, 1.5,1.75, 2,2.5, 3,3.5, 4,4.5, 5,5.5, 6,7, 8,9,10,11,12,14,16,18,20,22,24,28,32,36,40,44,52,60,68,76,84,92,100]"
  }
}
layer {
  name: "rpn_loss_cls"
  type: "SoftmaxWithLoss"
  bottom: "rpn_cls_score_reshape"
  bottom: "rpn_labels"
  top: "rpn_cls_loss"
  loss_weight: 1
  propagate_down: true
  propagate_down: false
  loss_param {
    ignore_label: -1
    normalize: true
  }
}
layer {
  name: "rpn_loss_twin"
  type: "SmoothL1Loss"
  bottom: "rpn_twin_pred"
  bottom: "rpn_twin_targets"
  bottom: "rpn_twin_inside_weights"
  bottom: "rpn_twin_outside_weights"
  top: "rpn_loss_twin"
  loss_weight: 1
  smooth_l1_loss_param {
    sigma: 3
  }
}
layer {
  name: "rpn_accuarcy"
  type: "Accuracy"
  bottom: "rpn_cls_score_reshape"
  bottom: "rpn_labels"
  top: "rpn_accuarcy"
  top: "rpn_accuarcy_class"
  propagate_down: false
  propagate_down: false
  accuracy_param {
    ignore_label: -1
  }
}
layer {
  name: "rpn_cls_prob"
  type: "Softmax"
  bottom: "rpn_cls_score_reshape"
  top: "rpn_cls_prob"
}
layer {
  name: "rpn_cls_prob_reshape"
  type: "Reshape"
  bottom: "rpn_cls_prob"
  top: "rpn_cls_prob_reshape"
  reshape_param {
    shape {
      dim: 0
      dim: 74
      dim: -1
      dim: 0
      dim: 0
    }
  }
}
layer {
  name: "proposal"
  type: "Python"
  bottom: "rpn_cls_prob_reshape"
  bottom: "rpn_twin_pred"
  top: "rpn_rois"
  include {
    phase: TRAIN
  }
  python_param {
    module: "rpn.proposal_layer"
    layer: "ProposalLayer"
    param_str: "\'feat_stride\': 8 \n\'scales\': !!python/tuple [1,1.25, 1.5,1.75, 2,2.5, 3,3.5, 4,4.5, 5,5.5, 6,7, 8,9,10,11,12,14,16,18,20,22,24,28,32,36,40,44,52,60,68,76,84,92,100]"
  }
}
layer {
  name: "roi-data"
  type: "Python"
  bottom: "rpn_rois"
  bottom: "gt_boxes"
  top: "rois"
  top: "labels"
  top: "twin_targets"
  top: "twin_inside_weights"
  top: "twin_outside_weights"
  python_param {
    module: "rpn.proposal_target_layer"
    layer: "ProposalTargetLayer"
    param_str: "\'num_classes\': 201"
  }
}
layer {
  name: "roi_pool5"
  type: "ROIPooling"
  bottom: "conv5b"
  bottom: "rois"
  top: "pool5"
  roi_pooling_param {
    pooled_h: 4
    pooled_w: 4
    spatial_scale: 0.0625
    pooled_l: 1
    temporal_scale: 0.125
  }
}
layer {
  name: "fc6"
  type: "InnerProduct"
  bottom: "pool5"
  top: "fc6"
  param {
    lr_mult: 1
    decay_mult: 1
  }
  param {
    lr_mult: 2
    decay_mult: 0
  }
  inner_product_param {
    num_output: 4096
    weight_filler {
      type: "gaussian"
      std: 0.005
    }
    bias_filler {
      type: "constant"
      value: 1
    }
  }
}
layer {
  name: "relu6"
  type: "ReLU"
  bottom: "fc6"
  top: "fc6"
}
layer {
  name: "drop6"
  type: "Dropout"
  bottom: "fc6"
  top: "fc6"
  dropout_param {
    dropout_ratio: 0.5
  }
}
layer {
  name: "cls_score"
  type: "InnerProduct"
  bottom: "fc6"
  top: "cls_score"
  param {
    lr_mult: 1
    decay_mult: 1
  }
  param {
    lr_mult: 2
    decay_mult: 0
  }
  inner_product_param {
    num_output: 201
    weight_filler {
      type: "gaussian"
      std: 0.01
    }
    bias_filler {
      type: "constant"
      value: 0
    }
  }
}
layer {
  name: "twin_pred"
  type: "InnerProduct"
  bottom: "fc6"
  top: "twin_pred"
  param {
    lr_mult: 1
    decay_mult: 1
  }
  param {
    lr_mult: 2
    decay_mult: 0
  }
  inner_product_param {
    num_output: 402
    weight_filler {
      type: "gaussian"
      std: 0.001
    }
    bias_filler {
      type: "constant"
      value: 0
    }
  }
}
layer {
  name: "loss_cls"
  type: "SoftmaxWithLoss"
  bottom: "cls_score"
  bottom: "labels"
  top: "loss_cls"
  loss_weight: 1
  propagate_down: true
  propagate_down: false
}
layer {
  name: "loss_twin"
  type: "SmoothL1Loss"
  bottom: "twin_pred"
  bottom: "twin_targets"
  bottom: "twin_inside_weights"
  bottom: "twin_outside_weights"
  top: "loss_twin"
  loss_weight: 1
}
layer {
  name: "accuarcy"
  type: "Accuracy"
  bottom: "cls_score"
  bottom: "labels"
  top: "accuarcy"
  propagate_down: false
  propagate_down: false
  accuracy_param {
    ignore_label: -1
  }
}
I0418 00:26:01.468056  4882 layer_factory.hpp:77] Creating layer data
I0418 00:26:01.494208  4882 net.cpp:100] Creating Layer data
I0418 00:26:01.494232  4882 net.cpp:408] data -> data
I0418 00:26:01.494246  4882 net.cpp:408] data -> gt_boxes
setting up
has rpn
RoiDataLayer: name_to_top: {'gt_windows': 1, 'data': 0}
I0418 00:26:01.544989  4882 net.cpp:150] Setting up data
I0418 00:26:01.545011  4882 net.cpp:157] Top shape: 1 3 768 112 112 (28901376)
I0418 00:26:01.545019  4882 net.cpp:157] Top shape: 1 101 (101)
I0418 00:26:01.545022  4882 net.cpp:165] Memory required for data: 115605908
I0418 00:26:01.545028  4882 layer_factory.hpp:77] Creating layer data_data_0_split
I0418 00:26:01.545040  4882 net.cpp:100] Creating Layer data_data_0_split
I0418 00:26:01.545045  4882 net.cpp:434] data_data_0_split <- data
I0418 00:26:01.545051  4882 net.cpp:408] data_data_0_split -> data_data_0_split_0
I0418 00:26:01.545061  4882 net.cpp:408] data_data_0_split -> data_data_0_split_1
I0418 00:26:01.545094  4882 net.cpp:150] Setting up data_data_0_split
I0418 00:26:01.545104  4882 net.cpp:157] Top shape: 1 3 768 112 112 (28901376)
I0418 00:26:01.545107  4882 net.cpp:157] Top shape: 1 3 768 112 112 (28901376)
I0418 00:26:01.545110  4882 net.cpp:165] Memory required for data: 346816916
I0418 00:26:01.545114  4882 layer_factory.hpp:77] Creating layer gt_boxes_data_1_split
I0418 00:26:01.545120  4882 net.cpp:100] Creating Layer gt_boxes_data_1_split
I0418 00:26:01.545123  4882 net.cpp:434] gt_boxes_data_1_split <- gt_boxes
I0418 00:26:01.545127  4882 net.cpp:408] gt_boxes_data_1_split -> gt_boxes_data_1_split_0
I0418 00:26:01.545133  4882 net.cpp:408] gt_boxes_data_1_split -> gt_boxes_data_1_split_1
I0418 00:26:01.545158  4882 net.cpp:150] Setting up gt_boxes_data_1_split
I0418 00:26:01.545166  4882 net.cpp:157] Top shape: 1 101 (101)
I0418 00:26:01.545169  4882 net.cpp:157] Top shape: 1 101 (101)
I0418 00:26:01.545172  4882 net.cpp:165] Memory required for data: 346817724
I0418 00:26:01.545176  4882 layer_factory.hpp:77] Creating layer conv1a
I0418 00:26:01.545191  4882 net.cpp:100] Creating Layer conv1a
I0418 00:26:01.545197  4882 net.cpp:434] conv1a <- data_data_0_split_0
I0418 00:26:01.545202  4882 net.cpp:408] conv1a -> conv1a
I0418 00:26:01.815064  4882 net.cpp:150] Setting up conv1a
I0418 00:26:01.815099  4882 net.cpp:157] Top shape: 1 64 768 112 112 (616562688)
I0418 00:26:01.815105  4882 net.cpp:165] Memory required for data: 2813068476
I0418 00:26:01.815126  4882 layer_factory.hpp:77] Creating layer relu1a
I0418 00:26:01.815141  4882 net.cpp:100] Creating Layer relu1a
I0418 00:26:01.815152  4882 net.cpp:434] relu1a <- conv1a
I0418 00:26:01.815158  4882 net.cpp:395] relu1a -> conv1a (in-place)
I0418 00:26:01.816417  4882 net.cpp:150] Setting up relu1a
I0418 00:26:01.816432  4882 net.cpp:157] Top shape: 1 64 768 112 112 (616562688)
I0418 00:26:01.816437  4882 net.cpp:165] Memory required for data: 5279319228
I0418 00:26:01.816442  4882 layer_factory.hpp:77] Creating layer pool1
I0418 00:26:01.816454  4882 net.cpp:100] Creating Layer pool1
I0418 00:26:01.816459  4882 net.cpp:434] pool1 <- conv1a
I0418 00:26:01.816465  4882 net.cpp:408] pool1 -> pool1
I0418 00:26:01.816682  4882 net.cpp:150] Setting up pool1
I0418 00:26:01.816697  4882 net.cpp:157] Top shape: 1 64 768 56 56 (154140672)
I0418 00:26:01.816704  4882 net.cpp:165] Memory required for data: 5895881916
I0418 00:26:01.816710  4882 layer_factory.hpp:77] Creating layer conv2a
I0418 00:26:01.816727  4882 net.cpp:100] Creating Layer conv2a
I0418 00:26:01.816732  4882 net.cpp:434] conv2a <- pool1
I0418 00:26:01.816738  4882 net.cpp:408] conv2a -> conv2a
I0418 00:26:01.829244  4882 net.cpp:150] Setting up conv2a
I0418 00:26:01.829272  4882 net.cpp:157] Top shape: 1 128 768 56 56 (308281344)
I0418 00:26:01.829277  4882 net.cpp:165] Memory required for data: 7129007292
I0418 00:26:01.829291  4882 layer_factory.hpp:77] Creating layer relu2a
I0418 00:26:01.829301  4882 net.cpp:100] Creating Layer relu2a
I0418 00:26:01.829308  4882 net.cpp:434] relu2a <- conv2a
I0418 00:26:01.829313  4882 net.cpp:395] relu2a -> conv2a (in-place)
I0418 00:26:01.829694  4882 net.cpp:150] Setting up relu2a
I0418 00:26:01.829710  4882 net.cpp:157] Top shape: 1 128 768 56 56 (308281344)
I0418 00:26:01.829715  4882 net.cpp:165] Memory required for data: 8362132668
I0418 00:26:01.829720  4882 layer_factory.hpp:77] Creating layer pool2
I0418 00:26:01.829730  4882 net.cpp:100] Creating Layer pool2
I0418 00:26:01.829735  4882 net.cpp:434] pool2 <- conv2a
I0418 00:26:01.829741  4882 net.cpp:408] pool2 -> pool2
I0418 00:26:01.830121  4882 net.cpp:150] Setting up pool2
I0418 00:26:01.830132  4882 net.cpp:157] Top shape: 1 128 384 28 28 (38535168)
I0418 00:26:01.830135  4882 net.cpp:165] Memory required for data: 8516273340
I0418 00:26:01.830139  4882 layer_factory.hpp:77] Creating layer conv3a
I0418 00:26:01.830152  4882 net.cpp:100] Creating Layer conv3a
I0418 00:26:01.830159  4882 net.cpp:434] conv3a <- pool2
I0418 00:26:01.830165  4882 net.cpp:408] conv3a -> conv3a
I0418 00:26:01.858271  4882 net.cpp:150] Setting up conv3a
I0418 00:26:01.858295  4882 net.cpp:157] Top shape: 1 256 384 28 28 (77070336)
I0418 00:26:01.858300  4882 net.cpp:165] Memory required for data: 8824554684
I0418 00:26:01.858312  4882 layer_factory.hpp:77] Creating layer relu3a
I0418 00:26:01.858321  4882 net.cpp:100] Creating Layer relu3a
I0418 00:26:01.858326  4882 net.cpp:434] relu3a <- conv3a
I0418 00:26:01.858332  4882 net.cpp:395] relu3a -> conv3a (in-place)
I0418 00:26:01.859220  4882 net.cpp:150] Setting up relu3a
I0418 00:26:01.859236  4882 net.cpp:157] Top shape: 1 256 384 28 28 (77070336)
I0418 00:26:01.859238  4882 net.cpp:165] Memory required for data: 9132836028
I0418 00:26:01.859243  4882 layer_factory.hpp:77] Creating layer conv3b
I0418 00:26:01.859261  4882 net.cpp:100] Creating Layer conv3b
I0418 00:26:01.859264  4882 net.cpp:434] conv3b <- conv3a
I0418 00:26:01.859272  4882 net.cpp:408] conv3b -> conv3b
I0418 00:26:01.911890  4882 net.cpp:150] Setting up conv3b
I0418 00:26:01.911916  4882 net.cpp:157] Top shape: 1 256 384 28 28 (77070336)
I0418 00:26:01.911924  4882 net.cpp:165] Memory required for data: 9441117372
I0418 00:26:01.911937  4882 layer_factory.hpp:77] Creating layer relu3b
I0418 00:26:01.911954  4882 net.cpp:100] Creating Layer relu3b
I0418 00:26:01.911960  4882 net.cpp:434] relu3b <- conv3b
I0418 00:26:01.911967  4882 net.cpp:395] relu3b -> conv3b (in-place)
I0418 00:26:01.912447  4882 net.cpp:150] Setting up relu3b
I0418 00:26:01.912464  4882 net.cpp:157] Top shape: 1 256 384 28 28 (77070336)
I0418 00:26:01.912468  4882 net.cpp:165] Memory required for data: 9749398716
I0418 00:26:01.912473  4882 layer_factory.hpp:77] Creating layer pool3
I0418 00:26:01.912482  4882 net.cpp:100] Creating Layer pool3
I0418 00:26:01.912485  4882 net.cpp:434] pool3 <- conv3b
I0418 00:26:01.912492  4882 net.cpp:408] pool3 -> pool3
I0418 00:26:01.913334  4882 net.cpp:150] Setting up pool3
I0418 00:26:01.913347  4882 net.cpp:157] Top shape: 1 256 192 14 14 (9633792)
I0418 00:26:01.913352  4882 net.cpp:165] Memory required for data: 9787933884
I0418 00:26:01.913355  4882 layer_factory.hpp:77] Creating layer conv4a
I0418 00:26:01.913367  4882 net.cpp:100] Creating Layer conv4a
I0418 00:26:01.913372  4882 net.cpp:434] conv4a <- pool3
I0418 00:26:01.913379  4882 net.cpp:408] conv4a -> conv4a
I0418 00:26:02.016444  4882 net.cpp:150] Setting up conv4a
I0418 00:26:02.016474  4882 net.cpp:157] Top shape: 1 512 192 14 14 (19267584)
I0418 00:26:02.016477  4882 net.cpp:165] Memory required for data: 9865004220
I0418 00:26:02.016491  4882 layer_factory.hpp:77] Creating layer relu4a
I0418 00:26:02.016504  4882 net.cpp:100] Creating Layer relu4a
I0418 00:26:02.016508  4882 net.cpp:434] relu4a <- conv4a
I0418 00:26:02.016515  4882 net.cpp:395] relu4a -> conv4a (in-place)
I0418 00:26:02.016870  4882 net.cpp:150] Setting up relu4a
I0418 00:26:02.016885  4882 net.cpp:157] Top shape: 1 512 192 14 14 (19267584)
I0418 00:26:02.016890  4882 net.cpp:165] Memory required for data: 9942074556
I0418 00:26:02.016893  4882 layer_factory.hpp:77] Creating layer conv4b
I0418 00:26:02.016908  4882 net.cpp:100] Creating Layer conv4b
I0418 00:26:02.016916  4882 net.cpp:434] conv4b <- conv4a
I0418 00:26:02.016923  4882 net.cpp:408] conv4b -> conv4b
I0418 00:26:02.215226  4882 net.cpp:150] Setting up conv4b
I0418 00:26:02.215255  4882 net.cpp:157] Top shape: 1 512 192 14 14 (19267584)
I0418 00:26:02.215260  4882 net.cpp:165] Memory required for data: 10019144892
I0418 00:26:02.215268  4882 layer_factory.hpp:77] Creating layer relu4b
I0418 00:26:02.215279  4882 net.cpp:100] Creating Layer relu4b
I0418 00:26:02.215286  4882 net.cpp:434] relu4b <- conv4b
I0418 00:26:02.215293  4882 net.cpp:395] relu4b -> conv4b (in-place)
I0418 00:26:02.215456  4882 net.cpp:150] Setting up relu4b
I0418 00:26:02.215467  4882 net.cpp:157] Top shape: 1 512 192 14 14 (19267584)
I0418 00:26:02.215471  4882 net.cpp:165] Memory required for data: 10096215228
I0418 00:26:02.215476  4882 layer_factory.hpp:77] Creating layer pool4
I0418 00:26:02.215487  4882 net.cpp:100] Creating Layer pool4
I0418 00:26:02.215492  4882 net.cpp:434] pool4 <- conv4b
I0418 00:26:02.215498  4882 net.cpp:408] pool4 -> pool4
I0418 00:26:02.215869  4882 net.cpp:150] Setting up pool4
I0418 00:26:02.215883  4882 net.cpp:157] Top shape: 1 512 96 7 7 (2408448)
I0418 00:26:02.215888  4882 net.cpp:165] Memory required for data: 10105849020
I0418 00:26:02.215891  4882 layer_factory.hpp:77] Creating layer conv5a
I0418 00:26:02.215903  4882 net.cpp:100] Creating Layer conv5a
I0418 00:26:02.215907  4882 net.cpp:434] conv5a <- pool4
I0418 00:26:02.215914  4882 net.cpp:408] conv5a -> conv5a
I0418 00:26:02.413585  4882 net.cpp:150] Setting up conv5a
I0418 00:26:02.413612  4882 net.cpp:157] Top shape: 1 512 96 7 7 (2408448)
I0418 00:26:02.413617  4882 net.cpp:165] Memory required for data: 10115482812
I0418 00:26:02.413627  4882 layer_factory.hpp:77] Creating layer relu5a
I0418 00:26:02.413638  4882 net.cpp:100] Creating Layer relu5a
I0418 00:26:02.413645  4882 net.cpp:434] relu5a <- conv5a
I0418 00:26:02.413650  4882 net.cpp:395] relu5a -> conv5a (in-place)
I0418 00:26:02.419631  4882 net.cpp:150] Setting up relu5a
I0418 00:26:02.419670  4882 net.cpp:157] Top shape: 1 512 96 7 7 (2408448)
I0418 00:26:02.419682  4882 net.cpp:165] Memory required for data: 10125116604
I0418 00:26:02.419692  4882 layer_factory.hpp:77] Creating layer conv5b
I0418 00:26:02.419719  4882 net.cpp:100] Creating Layer conv5b
I0418 00:26:02.419735  4882 net.cpp:434] conv5b <- conv5a
I0418 00:26:02.419751  4882 net.cpp:408] conv5b -> conv5b
I0418 00:26:02.618810  4882 net.cpp:150] Setting up conv5b
I0418 00:26:02.618836  4882 net.cpp:157] Top shape: 1 512 96 7 7 (2408448)
I0418 00:26:02.618840  4882 net.cpp:165] Memory required for data: 10134750396
I0418 00:26:02.618850  4882 layer_factory.hpp:77] Creating layer relu5b
I0418 00:26:02.618861  4882 net.cpp:100] Creating Layer relu5b
I0418 00:26:02.618866  4882 net.cpp:434] relu5b <- conv5b
I0418 00:26:02.618875  4882 net.cpp:395] relu5b -> conv5b (in-place)
I0418 00:26:02.619710  4882 net.cpp:150] Setting up relu5b
I0418 00:26:02.619722  4882 net.cpp:157] Top shape: 1 512 96 7 7 (2408448)
I0418 00:26:02.619726  4882 net.cpp:165] Memory required for data: 10144384188
I0418 00:26:02.619730  4882 layer_factory.hpp:77] Creating layer conv5b_relu5b_0_split
I0418 00:26:02.619737  4882 net.cpp:100] Creating Layer conv5b_relu5b_0_split
I0418 00:26:02.619741  4882 net.cpp:434] conv5b_relu5b_0_split <- conv5b
I0418 00:26:02.619746  4882 net.cpp:408] conv5b_relu5b_0_split -> conv5b_relu5b_0_split_0
I0418 00:26:02.619753  4882 net.cpp:408] conv5b_relu5b_0_split -> conv5b_relu5b_0_split_1
I0418 00:26:02.619796  4882 net.cpp:150] Setting up conv5b_relu5b_0_split
I0418 00:26:02.619803  4882 net.cpp:157] Top shape: 1 512 96 7 7 (2408448)
I0418 00:26:02.619807  4882 net.cpp:157] Top shape: 1 512 96 7 7 (2408448)
I0418 00:26:02.619810  4882 net.cpp:165] Memory required for data: 10163651772
I0418 00:26:02.619813  4882 layer_factory.hpp:77] Creating layer rpn_conv/3x3
I0418 00:26:02.619825  4882 net.cpp:100] Creating Layer rpn_conv/3x3
I0418 00:26:02.619829  4882 net.cpp:434] rpn_conv/3x3 <- conv5b_relu5b_0_split_0
I0418 00:26:02.619837  4882 net.cpp:408] rpn_conv/3x3 -> rpn/output
I0418 00:26:02.817129  4882 net.cpp:150] Setting up rpn_conv/3x3
I0418 00:26:02.817157  4882 net.cpp:157] Top shape: 1 512 96 4 4 (786432)
I0418 00:26:02.817162  4882 net.cpp:165] Memory required for data: 10166797500
I0418 00:26:02.817176  4882 layer_factory.hpp:77] Creating layer rpn_relu/3x3
I0418 00:26:02.817186  4882 net.cpp:100] Creating Layer rpn_relu/3x3
I0418 00:26:02.817191  4882 net.cpp:434] rpn_relu/3x3 <- rpn/output
I0418 00:26:02.817199  4882 net.cpp:395] rpn_relu/3x3 -> rpn/output (in-place)
I0418 00:26:02.817569  4882 net.cpp:150] Setting up rpn_relu/3x3
I0418 00:26:02.817584  4882 net.cpp:157] Top shape: 1 512 96 4 4 (786432)
I0418 00:26:02.817586  4882 net.cpp:165] Memory required for data: 10169943228
I0418 00:26:02.817591  4882 layer_factory.hpp:77] Creating layer rpn_conv/3x3_2
I0418 00:26:02.817605  4882 net.cpp:100] Creating Layer rpn_conv/3x3_2
I0418 00:26:02.817608  4882 net.cpp:434] rpn_conv/3x3_2 <- rpn/output
I0418 00:26:02.817618  4882 net.cpp:408] rpn_conv/3x3_2 -> rpn/output_2
I0418 00:26:03.012094  4882 net.cpp:150] Setting up rpn_conv/3x3_2
I0418 00:26:03.012120  4882 net.cpp:157] Top shape: 1 512 96 2 2 (196608)
I0418 00:26:03.012125  4882 net.cpp:165] Memory required for data: 10170729660
I0418 00:26:03.012135  4882 layer_factory.hpp:77] Creating layer rpn_relu/3x3_2
I0418 00:26:03.012145  4882 net.cpp:100] Creating Layer rpn_relu/3x3_2
I0418 00:26:03.012151  4882 net.cpp:434] rpn_relu/3x3_2 <- rpn/output_2
I0418 00:26:03.012157  4882 net.cpp:395] rpn_relu/3x3_2 -> rpn/output_2 (in-place)
I0418 00:26:03.012667  4882 net.cpp:150] Setting up rpn_relu/3x3_2
I0418 00:26:03.012682  4882 net.cpp:157] Top shape: 1 512 96 2 2 (196608)
I0418 00:26:03.012686  4882 net.cpp:165] Memory required for data: 10171516092
I0418 00:26:03.012691  4882 layer_factory.hpp:77] Creating layer rpn/output_pool
I0418 00:26:03.012701  4882 net.cpp:100] Creating Layer rpn/output_pool
I0418 00:26:03.012704  4882 net.cpp:434] rpn/output_pool <- rpn/output_2
I0418 00:26:03.012712  4882 net.cpp:408] rpn/output_pool -> rpn/output_pool
I0418 00:26:03.012917  4882 net.cpp:150] Setting up rpn/output_pool
I0418 00:26:03.012930  4882 net.cpp:157] Top shape: 1 512 96 1 1 (49152)
I0418 00:26:03.012935  4882 net.cpp:165] Memory required for data: 10171712700
I0418 00:26:03.012939  4882 layer_factory.hpp:77] Creating layer rpn/output_pool_rpn/output_pool_0_split
I0418 00:26:03.012948  4882 net.cpp:100] Creating Layer rpn/output_pool_rpn/output_pool_0_split
I0418 00:26:03.012953  4882 net.cpp:434] rpn/output_pool_rpn/output_pool_0_split <- rpn/output_pool
I0418 00:26:03.012958  4882 net.cpp:408] rpn/output_pool_rpn/output_pool_0_split -> rpn/output_pool_rpn/output_pool_0_split_0
I0418 00:26:03.012964  4882 net.cpp:408] rpn/output_pool_rpn/output_pool_0_split -> rpn/output_pool_rpn/output_pool_0_split_1
I0418 00:26:03.013012  4882 net.cpp:150] Setting up rpn/output_pool_rpn/output_pool_0_split
I0418 00:26:03.013022  4882 net.cpp:157] Top shape: 1 512 96 1 1 (49152)
I0418 00:26:03.013028  4882 net.cpp:157] Top shape: 1 512 96 1 1 (49152)
I0418 00:26:03.013033  4882 net.cpp:165] Memory required for data: 10172105916
I0418 00:26:03.013036  4882 layer_factory.hpp:77] Creating layer rpn_cls_score
I0418 00:26:03.013048  4882 net.cpp:100] Creating Layer rpn_cls_score
I0418 00:26:03.013052  4882 net.cpp:434] rpn_cls_score <- rpn/output_pool_rpn/output_pool_0_split_0
I0418 00:26:03.013061  4882 net.cpp:408] rpn_cls_score -> rpn_cls_score
I0418 00:26:03.016245  4882 net.cpp:150] Setting up rpn_cls_score
I0418 00:26:03.016260  4882 net.cpp:157] Top shape: 1 74 96 1 1 (7104)
I0418 00:26:03.016264  4882 net.cpp:165] Memory required for data: 10172134332
I0418 00:26:03.016271  4882 layer_factory.hpp:77] Creating layer rpn_cls_score_rpn_cls_score_0_split
I0418 00:26:03.016278  4882 net.cpp:100] Creating Layer rpn_cls_score_rpn_cls_score_0_split
I0418 00:26:03.016281  4882 net.cpp:434] rpn_cls_score_rpn_cls_score_0_split <- rpn_cls_score
I0418 00:26:03.016286  4882 net.cpp:408] rpn_cls_score_rpn_cls_score_0_split -> rpn_cls_score_rpn_cls_score_0_split_0
I0418 00:26:03.016294  4882 net.cpp:408] rpn_cls_score_rpn_cls_score_0_split -> rpn_cls_score_rpn_cls_score_0_split_1
I0418 00:26:03.016352  4882 net.cpp:150] Setting up rpn_cls_score_rpn_cls_score_0_split
I0418 00:26:03.016362  4882 net.cpp:157] Top shape: 1 74 96 1 1 (7104)
I0418 00:26:03.016369  4882 net.cpp:157] Top shape: 1 74 96 1 1 (7104)
I0418 00:26:03.016372  4882 net.cpp:165] Memory required for data: 10172191164
I0418 00:26:03.016376  4882 layer_factory.hpp:77] Creating layer rpn_twin_pred
I0418 00:26:03.016391  4882 net.cpp:100] Creating Layer rpn_twin_pred
I0418 00:26:03.016397  4882 net.cpp:434] rpn_twin_pred <- rpn/output_pool_rpn/output_pool_0_split_1
I0418 00:26:03.016403  4882 net.cpp:408] rpn_twin_pred -> rpn_twin_pred
I0418 00:26:03.020681  4882 net.cpp:150] Setting up rpn_twin_pred
I0418 00:26:03.020699  4882 net.cpp:157] Top shape: 1 74 96 1 1 (7104)
I0418 00:26:03.020704  4882 net.cpp:165] Memory required for data: 10172219580
I0418 00:26:03.020710  4882 layer_factory.hpp:77] Creating layer rpn_twin_pred_rpn_twin_pred_0_split
I0418 00:26:03.020716  4882 net.cpp:100] Creating Layer rpn_twin_pred_rpn_twin_pred_0_split
I0418 00:26:03.020720  4882 net.cpp:434] rpn_twin_pred_rpn_twin_pred_0_split <- rpn_twin_pred
I0418 00:26:03.020726  4882 net.cpp:408] rpn_twin_pred_rpn_twin_pred_0_split -> rpn_twin_pred_rpn_twin_pred_0_split_0
I0418 00:26:03.020733  4882 net.cpp:408] rpn_twin_pred_rpn_twin_pred_0_split -> rpn_twin_pred_rpn_twin_pred_0_split_1
I0418 00:26:03.020772  4882 net.cpp:150] Setting up rpn_twin_pred_rpn_twin_pred_0_split
I0418 00:26:03.020781  4882 net.cpp:157] Top shape: 1 74 96 1 1 (7104)
I0418 00:26:03.020786  4882 net.cpp:157] Top shape: 1 74 96 1 1 (7104)
I0418 00:26:03.020789  4882 net.cpp:165] Memory required for data: 10172276412
I0418 00:26:03.020793  4882 layer_factory.hpp:77] Creating layer rpn_cls_score_reshape
I0418 00:26:03.020807  4882 net.cpp:100] Creating Layer rpn_cls_score_reshape
I0418 00:26:03.020815  4882 net.cpp:434] rpn_cls_score_reshape <- rpn_cls_score_rpn_cls_score_0_split_0
I0418 00:26:03.020824  4882 net.cpp:408] rpn_cls_score_reshape -> rpn_cls_score_reshape
I0418 00:26:03.020861  4882 net.cpp:150] Setting up rpn_cls_score_reshape
I0418 00:26:03.020870  4882 net.cpp:157] Top shape: 1 2 3552 1 1 (7104)
I0418 00:26:03.020874  4882 net.cpp:165] Memory required for data: 10172304828
I0418 00:26:03.020879  4882 layer_factory.hpp:77] Creating layer rpn_cls_score_reshape_rpn_cls_score_reshape_0_split
I0418 00:26:03.020884  4882 net.cpp:100] Creating Layer rpn_cls_score_reshape_rpn_cls_score_reshape_0_split
I0418 00:26:03.020887  4882 net.cpp:434] rpn_cls_score_reshape_rpn_cls_score_reshape_0_split <- rpn_cls_score_reshape
I0418 00:26:03.020892  4882 net.cpp:408] rpn_cls_score_reshape_rpn_cls_score_reshape_0_split -> rpn_cls_score_reshape_rpn_cls_score_reshape_0_split_0
I0418 00:26:03.020905  4882 net.cpp:408] rpn_cls_score_reshape_rpn_cls_score_reshape_0_split -> rpn_cls_score_reshape_rpn_cls_score_reshape_0_split_1
I0418 00:26:03.020913  4882 net.cpp:408] rpn_cls_score_reshape_rpn_cls_score_reshape_0_split -> rpn_cls_score_reshape_rpn_cls_score_reshape_0_split_2
I0418 00:26:03.020959  4882 net.cpp:150] Setting up rpn_cls_score_reshape_rpn_cls_score_reshape_0_split
I0418 00:26:03.020967  4882 net.cpp:157] Top shape: 1 2 3552 1 1 (7104)
I0418 00:26:03.020974  4882 net.cpp:157] Top shape: 1 2 3552 1 1 (7104)
I0418 00:26:03.020982  4882 net.cpp:157] Top shape: 1 2 3552 1 1 (7104)
I0418 00:26:03.020987  4882 net.cpp:165] Memory required for data: 10172390076
I0418 00:26:03.020992  4882 layer_factory.hpp:77] Creating layer rpn-data
I0418 00:26:03.021435  4882 net.cpp:100] Creating Layer rpn-data
I0418 00:26:03.021448  4882 net.cpp:434] rpn-data <- rpn_cls_score_rpn_cls_score_0_split_1
I0418 00:26:03.021455  4882 net.cpp:434] rpn-data <- gt_boxes_data_1_split_0
I0418 00:26:03.021459  4882 net.cpp:434] rpn-data <- data_data_0_split_1
I0418 00:26:03.021466  4882 net.cpp:408] rpn-data -> rpn_labels
I0418 00:26:03.021473  4882 net.cpp:408] rpn-data -> rpn_twin_targets
I0418 00:26:03.021479  4882 net.cpp:408] rpn-data -> rpn_twin_inside_weights
I0418 00:26:03.021486  4882 net.cpp:408] rpn-data -> rpn_twin_outside_weights
I0418 00:26:03.023929  4882 net.cpp:150] Setting up rpn-data
I0418 00:26:03.023946  4882 net.cpp:157] Top shape: 1 1 3552 1 1 (3552)
I0418 00:26:03.023952  4882 net.cpp:157] Top shape: 1 74 96 1 1 (7104)
I0418 00:26:03.023954  4882 net.cpp:157] Top shape: 1 74 96 1 1 (7104)
I0418 00:26:03.023958  4882 net.cpp:157] Top shape: 1 74 96 1 1 (7104)
I0418 00:26:03.023962  4882 net.cpp:165] Memory required for data: 10172489532
I0418 00:26:03.023967  4882 layer_factory.hpp:77] Creating layer rpn_labels_rpn-data_0_split
I0418 00:26:03.023972  4882 net.cpp:100] Creating Layer rpn_labels_rpn-data_0_split
I0418 00:26:03.023977  4882 net.cpp:434] rpn_labels_rpn-data_0_split <- rpn_labels
I0418 00:26:03.023983  4882 net.cpp:408] rpn_labels_rpn-data_0_split -> rpn_labels_rpn-data_0_split_0
I0418 00:26:03.023989  4882 net.cpp:408] rpn_labels_rpn-data_0_split -> rpn_labels_rpn-data_0_split_1
I0418 00:26:03.024027  4882 net.cpp:150] Setting up rpn_labels_rpn-data_0_split
I0418 00:26:03.024035  4882 net.cpp:157] Top shape: 1 1 3552 1 1 (3552)
I0418 00:26:03.024039  4882 net.cpp:157] Top shape: 1 1 3552 1 1 (3552)
I0418 00:26:03.024044  4882 net.cpp:165] Memory required for data: 10172517948
I0418 00:26:03.024046  4882 layer_factory.hpp:77] Creating layer rpn_loss_cls
I0418 00:26:03.024055  4882 net.cpp:100] Creating Layer rpn_loss_cls
I0418 00:26:03.024062  4882 net.cpp:434] rpn_loss_cls <- rpn_cls_score_reshape_rpn_cls_score_reshape_0_split_0
I0418 00:26:03.024070  4882 net.cpp:434] rpn_loss_cls <- rpn_labels_rpn-data_0_split_0
…
I0418 00:26:03.024726  4882 layer_factory.hpp:77] Creating layer rpn_accuarcy
I0418 00:26:03.024735  4882 net.cpp:100] Creating Layer rpn_accuarcy
I0418 00:26:03.024744  4882 net.cpp:434] rpn_accuarcy <- rpn_cls_score_reshape_rpn_cls_score_reshape_0_split_1
I0418 00:26:03.024749  4882 net.cpp:434] rpn_accuarcy <- rpn_labels_rpn-data_0_split_1
I0418 00:26:03.024755  4882 net.cpp:408] rpn_accuarcy -> rpn_accuarcy
I0418 00:26:03.024762  4882 net.cpp:408] rpn_accuarcy -> rpn_accuarcy_class
I0418 00:26:03.024801  4882 net.cpp:150] Setting up rpn_accuarcy
I0418 00:26:03.024811  4882 net.cpp:157] Top shape: (1)
I0418 00:26:03.024816  4882 net.cpp:157] Top shape: 2 (2)
I0418 00:26:03.024819  4882 net.cpp:165] Memory required for data: 10172517968
I0418 00:26:03.024822  4882 layer_factory.hpp:77] Creating layer rpn_cls_prob
I0418 00:26:03.024827  4882 net.cpp:100] Creating Layer rpn_cls_prob
I0418 00:26:03.024832  4882 net.cpp:434] rpn_cls_prob <- rpn_cls_score_reshape_rpn_cls_score_reshape_0_split_2
I0418 00:26:03.024837  4882 net.cpp:408] rpn_cls_prob -> rpn_cls_prob
I0418 00:26:03.025702  4882 net.cpp:150] Setting up rpn_cls_prob
I0418 00:26:03.025713  4882 net.cpp:157] Top shape: 1 2 3552 1 1 (7104)
I0418 00:26:03.025717  4882 net.cpp:165] Memory required for data: 10172546384
I0418 00:26:03.025722  4882 layer_factory.hpp:77] Creating layer rpn_cls_prob_reshape
I0418 00:26:03.025729  4882 net.cpp:100] Creating Layer rpn_cls_prob_reshape
I0418 00:26:03.025733  4882 net.cpp:434] rpn_cls_prob_reshape <- rpn_cls_prob
I0418 00:26:03.025738  4882 net.cpp:408] rpn_cls_prob_reshape -> rpn_cls_prob_reshape
I0418 00:26:03.025768  4882 net.cpp:150] Setting up rpn_cls_prob_reshape
I0418 00:26:03.025776  4882 net.cpp:157] Top shape: 1 74 96 1 1 (7104)
I0418 00:26:03.025780  4882 net.cpp:165] Memory required for data: 10172574800
I0418 00:26:03.025784  4882 layer_factory.hpp:77] Creating layer proposal
I0418 00:26:03.026389  4882 net.cpp:100] Creating Layer proposal
I0418 00:26:03.026403  4882 net.cpp:434] proposal <- rpn_cls_prob_reshape
I0418 00:26:03.026409  4882 net.cpp:434] proposal <- rpn_twin_pred_rpn_twin_pred_0_split_1
I0418 00:26:03.026415  4882 net.cpp:408] proposal -> rpn_rois
I0418 00:26:03.029093  4882 net.cpp:150] Setting up proposal
I0418 00:26:03.029109  4882 net.cpp:157] Top shape: 1 3 (3)
I0418 00:26:03.029114  4882 net.cpp:165] Memory required for data: 10172574812
I0418 00:26:03.029117  4882 layer_factory.hpp:77] Creating layer roi-data
I0418 00:26:03.030771  4882 net.cpp:100] Creating Layer roi-data
I0418 00:26:03.030786  4882 net.cpp:434] roi-data <- rpn_rois
I0418 00:26:03.030794  4882 net.cpp:434] roi-data <- gt_boxes_data_1_split_1
I0418 00:26:03.030807  4882 net.cpp:408] roi-data -> rois
I0418 00:26:03.030818  4882 net.cpp:408] roi-data -> labels
I0418 00:26:03.030830  4882 net.cpp:408] roi-data -> twin_targets
I0418 00:26:03.030844  4882 net.cpp:408] roi-data -> twin_inside_weights
I0418 00:26:03.030851  4882 net.cpp:408] roi-data -> twin_outside_weights
I0418 00:26:03.031178  4882 net.cpp:150] Setting up roi-data
I0418 00:26:03.031193  4882 net.cpp:157] Top shape: 1 3 (3)
I0418 00:26:03.031198  4882 net.cpp:157] Top shape: 1 1 (1)
I0418 00:26:03.031201  4882 net.cpp:157] Top shape: 1 402 (402)
I0418 00:26:03.031204  4882 net.cpp:157] Top shape: 1 402 (402)
I0418 00:26:03.031208  4882 net.cpp:157] Top shape: 1 402 (402)
I0418 00:26:03.031211  4882 net.cpp:165] Memory required for data: 10172579652
I0418 00:26:03.031215  4882 layer_factory.hpp:77] Creating layer labels_roi-data_1_split
I0418 00:26:03.031222  4882 net.cpp:100] Creating Layer labels_roi-data_1_split
I0418 00:26:03.031226  4882 net.cpp:434] labels_roi-data_1_split <- labels
I0418 00:26:03.031232  4882 net.cpp:408] labels_roi-data_1_split -> labels_roi-data_1_split_0
I0418 00:26:03.031239  4882 net.cpp:408] labels_roi-data_1_split -> labels_roi-data_1_split_1
I0418 00:26:03.031272  4882 net.cpp:150] Setting up labels_roi-data_1_split
I0418 00:26:03.031280  4882 net.cpp:157] Top shape: 1 1 (1)
I0418 00:26:03.031285  4882 net.cpp:157] Top shape: 1 1 (1)
I0418 00:26:03.031288  4882 net.cpp:165] Memory required for data: 10172579660
I0418 00:26:03.031292  4882 layer_factory.hpp:77] Creating layer roi_pool5
I0418 00:26:03.031302  4882 net.cpp:100] Creating Layer roi_pool5
I0418 00:26:03.031306  4882 net.cpp:434] roi_pool5 <- conv5b_relu5b_0_split_1
I0418 00:26:03.031311  4882 net.cpp:434] roi_pool5 <- rois
I0418 00:26:03.031316  4882 net.cpp:408] roi_pool5 -> pool5
I0418 00:26:03.031324  4882 roi_pooling_layer.cpp:34] Temporal scale: 0.125
I0418 00:26:03.031333  4882 roi_pooling_layer.cpp:35] Spatial scale: 0.0625
I0418 00:26:03.031368  4882 net.cpp:150] Setting up roi_pool5
I0418 00:26:03.031374  4882 net.cpp:157] Top shape: 1 512 1 4 4 (8192)
I0418 00:26:03.031378  4882 net.cpp:165] Memory required for data: 10172612428
I0418 00:26:03.031381  4882 layer_factory.hpp:77] Creating layer fc6
I0418 00:26:03.031390  4882 net.cpp:100] Creating Layer fc6
I0418 00:26:03.031397  4882 net.cpp:434] fc6 <- pool5
I0418 00:26:03.031402  4882 net.cpp:408] fc6 -> fc6
I0418 00:26:03.916759  4882 net.cpp:150] Setting up fc6
I0418 00:26:03.916782  4882 net.cpp:157] Top shape: 1 4096 (4096)
I0418 00:26:03.916786  4882 net.cpp:165] Memory required for data: 10172628812
I0418 00:26:03.916796  4882 layer_factory.hpp:77] Creating layer relu6
I0418 00:26:03.916806  4882 net.cpp:100] Creating Layer relu6
I0418 00:26:03.916810  4882 net.cpp:434] relu6 <- fc6
I0418 00:26:03.916817  4882 net.cpp:395] relu6 -> fc6 (in-place)
I0418 00:26:03.917270  4882 net.cpp:150] Setting up relu6
I0418 00:26:03.917284  4882 net.cpp:157] Top shape: 1 4096 (4096)
I0418 00:26:03.917287  4882 net.cpp:165] Memory required for data: 10172645196
I0418 00:26:03.917291  4882 layer_factory.hpp:77] Creating layer drop6
I0418 00:26:03.917304  4882 net.cpp:100] Creating Layer drop6
I0418 00:26:03.917307  4882 net.cpp:434] drop6 <- fc6
I0418 00:26:03.917312  4882 net.cpp:395] drop6 -> fc6 (in-place)
I0418 00:26:03.917340  4882 net.cpp:150] Setting up drop6
I0418 00:26:03.917351  4882 net.cpp:157] Top shape: 1 4096 (4096)
I0418 00:26:03.917354  4882 net.cpp:165] Memory required for data: 10172661580
I0418 00:26:03.917357  4882 layer_factory.hpp:77] Creating layer fc6_drop6_0_split
I0418 00:26:03.917362  4882 net.cpp:100] Creating Layer fc6_drop6_0_split
I0418 00:26:03.917366  4882 net.cpp:434] fc6_drop6_0_split <- fc6
I0418 00:26:03.917371  4882 net.cpp:408] fc6_drop6_0_split -> fc6_drop6_0_split_0
I0418 00:26:03.917377  4882 net.cpp:408] fc6_drop6_0_split -> fc6_drop6_0_split_1
I0418 00:26:03.917408  4882 net.cpp:150] Setting up fc6_drop6_0_split
I0418 00:26:03.917413  4882 net.cpp:157] Top shape: 1 4096 (4096)
I0418 00:26:03.917418  4882 net.cpp:157] Top shape: 1 4096 (4096)
I0418 00:26:03.917423  4882 net.cpp:165] Memory required for data: 10172694348
I0418 00:26:03.917428  4882 layer_factory.hpp:77] Creating layer cls_score
I0418 00:26:03.917434  4882 net.cpp:100] Creating Layer cls_score
I0418 00:26:03.917444  4882 net.cpp:434] cls_score <- fc6_drop6_0_split_0
I0418 00:26:03.917450  4882 net.cpp:408] cls_score -> cls_score
I0418 00:26:03.939340  4882 net.cpp:150] Setting up cls_score
I0418 00:26:03.939366  4882 net.cpp:157] Top shape: 1 201 (201)
I0418 00:26:03.939370  4882 net.cpp:165] Memory required for data: 10172695152
I0418 00:26:03.939378  4882 layer_factory.hpp:77] Creating layer cls_score_cls_score_0_split
I0418 00:26:03.939384  4882 net.cpp:100] Creating Layer cls_score_cls_score_0_split
I0418 00:26:03.939388  4882 net.cpp:434] cls_score_cls_score_0_split <- cls_score
I0418 00:26:03.939394  4882 net.cpp:408] cls_score_cls_score_0_split -> cls_score_cls_score_0_split_0
I0418 00:26:03.939400  4882 net.cpp:408] cls_score_cls_score_0_split -> cls_score_cls_score_0_split_1
I0418 00:26:03.939431  4882 net.cpp:150] Setting up cls_score_cls_score_0_split
I0418 00:26:03.939437  4882 net.cpp:157] Top shape: 1 201 (201)
I0418 00:26:03.939441  4882 net.cpp:157] Top shape: 1 201 (201)
I0418 00:26:03.939445  4882 net.cpp:165] Memory required for data: 10172696760
I0418 00:26:03.939447  4882 layer_factory.hpp:77] Creating layer twin_pred
I0418 00:26:03.939461  4882 net.cpp:100] Creating Layer twin_pred
I0418 00:26:03.939468  4882 net.cpp:434] twin_pred <- fc6_drop6_0_split_1
I0418 00:26:03.939474  4882 net.cpp:408] twin_pred -> twin_pred
I0418 00:26:03.982630  4882 net.cpp:150] Setting up twin_pred
I0418 00:26:03.982653  4882 net.cpp:157] Top shape: 1 402 (402)
I0418 00:26:03.982657  4882 net.cpp:165] Memory required for data: 10172698368
I0418 00:26:03.982666  4882 layer_factory.hpp:77] Creating layer loss_cls
I0418 00:26:03.982676  4882 net.cpp:100] Creating Layer loss_cls
I0418 00:26:03.982681  4882 net.cpp:434] loss_cls <- cls_score_cls_score_0_split_0
I0418 00:26:03.982689  4882 net.cpp:434] loss_cls <- labels_roi-data_1_split_0
I0418 00:26:03.982694  4882 net.cpp:408] loss_cls -> loss_cls
…
