…
stepsize: 350000
snapshot: 0
snapshot_prefix: "./experiments/activitynet/snapshot/activitynet"
average_loss: 100
iter_size: 1
I0418 04:25:54.752636 23652 solver.cpp:81] Creating training net from train_net file: ./experiments/activitynet/train.prototxt
I0418 04:25:54.753716 23652 net.cpp:58] Initializing net from parameters: 
name: "activitynet"
state {
  phase: TRAIN
}
layer {
  name: "data"
  type: "Python"
  top: "data"
  top: "gt_boxes"
  python_param {
    module: "roi_data_layer.layer"
    layer: "RoIDataLayer"
    param_str: "\'num_classes\': 100"
  }
}
layer {
  name: "conv1a"
  type: "Convolution"
  bottom: "data"
  top: "conv1a"
  param {
    lr_mult: 0
    decay_mult: 0
  }
  param {
    lr_mult: 0
    decay_mult: 0
  }
  convolution_param {
    num_output: 64
    pad: 1
    pad: 1
    pad: 1
    kernel_size: 3
    kernel_size: 3
    kernel_size: 3
    weight_filler {
      type: "gaussian"
      std: 0.01
    }
    bias_filler {
      type: "constant"
      value: 0
    }
  }
}
layer {
  name: "relu1a"
  type: "ReLU"
  bottom: "conv1a"
  top: "conv1a"
}
layer {
  name: "pool1"
  type: "Pooling"
  bottom: "conv1a"
  top: "pool1"
  pooling_param {
    pool: MAX
    kernel_size: 1
    kernel_size: 2
    kernel_size: 2
    stride: 1
    stride: 2
    stride: 2
  }
}
layer {
  name: "conv2a"
  type: "Convolution"
  bottom: "pool1"
  top: "conv2a"
  param {
    lr_mult: 0
    decay_mult: 0
  }
  param {
    lr_mult: 0
    decay_mult: 0
  }
  convolution_param {
    num_output: 128
    pad: 1
    pad: 1
    pad: 1
    kernel_size: 3
    kernel_size: 3
    kernel_size: 3
    weight_filler {
      type: "gaussian"
      std: 0.01
    }
    bias_filler {
      type: "constant"
      value: 1
    }
  }
}
layer {
  name: "relu2a"
  type: "ReLU"
  bottom: "conv2a"
  top: "conv2a"
}
layer {
  name: "pool2"
  type: "Pooling"
  bottom: "conv2a"
  top: "pool2"
  pooling_param {
    pool: MAX
    kernel_size: 2
    kernel_size: 2
    kernel_size: 2
    stride: 2
    stride: 2
    stride: 2
  }
}
layer {
  name: "conv3a"
  type: "Convolution"
  bottom: "pool2"
  top: "conv3a"
  param {
    lr_mult: 1
    decay_mult: 1
  }
  param {
    lr_mult: 2
    decay_mult: 0
  }
  convolution_param {
    num_output: 256
    pad: 1
    pad: 1
    pad: 1
    kernel_size: 3
    kernel_size: 3
    kernel_size: 3
    weight_filler {
      type: "gaussian"
      std: 0.01
    }
    bias_filler {
      type: "constant"
      value: 1
    }
  }
}
layer {
  name: "relu3a"
  type: "ReLU"
  bottom: "conv3a"
  top: "conv3a"
}
layer {
  name: "conv3b"
  type: "Convolution"
  bottom: "conv3a"
  top: "conv3b"
  param {
    lr_mult: 1
    decay_mult: 1
  }
  param {
    lr_mult: 2
    decay_mult: 0
  }
  convolution_param {
    num_output: 256
    pad: 1
    pad: 1
    pad: 1
    kernel_size: 3
    kernel_size: 3
    kernel_size: 3
    weight_filler {
      type: "gaussian"
      std: 0.01
    }
    bias_filler {
      type: "constant"
      value: 1
    }
  }
}
layer {
  name: "relu3b"
  type: "ReLU"
  bottom: "conv3b"
  top: "conv3b"
}
layer {
  name: "pool3"
  type: "Pooling"
  bottom: "conv3b"
  top: "pool3"
  pooling_param {
    pool: MAX
    kernel_size: 2
    kernel_size: 2
    kernel_size: 2
    stride: 2
    stride: 2
    stride: 2
  }
}
layer {
  name: "conv4a"
  type: "Convolution"
  bottom: "pool3"
  top: "conv4a"
  param {
    lr_mult: 1
    decay_mult: 1
  }
  param {
    lr_mult: 2
    decay_mult: 0
  }
  convolution_param {
    num_output: 512
    pad: 1
    pad: 1
    pad: 1
    kernel_size: 3
    kernel_size: 3
    kernel_size: 3
    weight_filler {
      type: "gaussian"
      std: 0.01
    }
    bias_filler {
      type: "constant"
      value: 1
    }
  }
}
layer {
  name: "relu4a"
  type: "ReLU"
  bottom: "conv4a"
  top: "conv4a"
}
layer {
  name: "conv4b"
  type: "Convolution"
  bottom: "conv4a"
  top: "conv4b"
  param {
    lr_mult: 1
    decay_mult: 1
  }
  param {
    lr_mult: 2
    decay_mult: 0
  }
  convolution_param {
    num_output: 512
    pad: 1
    pad: 1
    pad: 1
    kernel_size: 3
    kernel_size: 3
    kernel_size: 3
    weight_filler {
      type: "gaussian"
      std: 0.01
    }
    bias_filler {
      type: "constant"
      value: 1
    }
  }
}
layer {
  name: "relu4b"
  type: "ReLU"
  bottom: "conv4b"
  top: "conv4b"
}
layer {
  name: "pool4"
  type: "Pooling"
  bottom: "conv4b"
  top: "pool4"
  pooling_param {
    pool: MAX
    kernel_size: 2
    kernel_size: 2
    kernel_size: 2
    stride: 2
    stride: 2
    stride: 2
  }
}
layer {
  name: "conv5a"
  type: "Convolution"
  bottom: "pool4"
  top: "conv5a"
  param {
    lr_mult: 1
    decay_mult: 1
  }
  param {
    lr_mult: 2
    decay_mult: 0
  }
  convolution_param {
    num_output: 512
    pad: 1
    pad: 1
    pad: 1
    kernel_size: 3
    kernel_size: 3
    kernel_size: 3
    weight_filler {
      type: "gaussian"
      std: 0.01
    }
    bias_filler {
      type: "constant"
      value: 1
    }
  }
}
layer {
  name: "relu5a"
  type: "ReLU"
  bottom: "conv5a"
  top: "conv5a"
}
layer {
  name: "conv5b"
  type: "Convolution"
  bottom: "conv5a"
  top: "conv5b"
  param {
    lr_mult: 1
    decay_mult: 1
  }
  param {
    lr_mult: 2
    decay_mult: 0
  }
  convolution_param {
    num_output: 512
    pad: 1
    pad: 1
    pad: 1
    kernel_size: 3
    kernel_size: 3
    kernel_size: 3
    weight_filler {
      type: "gaussian"
      std: 0.01
    }
    bias_filler {
      type: "constant"
      value: 1
    }
  }
}
layer {
  name: "relu5b"
  type: "ReLU"
  bottom: "conv5b"
  top: "conv5b"
}
layer {
  name: "rpn_conv/3x3"
  type: "Convolution"
  bottom: "conv5b"
  top: "rpn/output"
  param {
    lr_mult: 1
    decay_mult: 1
  }
  param {
    lr_mult: 2
    decay_mult: 0
  }
  convolution_param {
    num_output: 512
    pad: 1
    pad: 1
    pad: 1
    kernel_size: 3
    kernel_size: 3
    kernel_size: 3
    stride: 1
    stride: 2
    stride: 2
    weight_filler {
      type: "gaussian"
      std: 0.01
    }
    bias_filler {
      type: "constant"
      value: 0
    }
  }
}
layer {
  name: "rpn_relu/3x3"
  type: "ReLU"
  bottom: "rpn/output"
  top: "rpn/output"
}
layer {
  name: "rpn_conv/3x3_2"
  type: "Convolution"
  bottom: "rpn/output"
  top: "rpn/output_2"
  param {
    lr_mult: 1
    decay_mult: 1
  }
  param {
    lr_mult: 2
    decay_mult: 0
  }
  convolution_param {
    num_output: 512
    pad: 1
    pad: 1
    pad: 1
    kernel_size: 3
    kernel_size: 3
    kernel_size: 3
    stride: 1
    stride: 2
    stride: 2
    weight_filler {
      type: "gaussian"
      std: 0.01
    }
    bias_filler {
      type: "constant"
      value: 0
    }
  }
}
layer {
  name: "rpn_relu/3x3_2"
  type: "ReLU"
  bottom: "rpn/output_2"
  top: "rpn/output_2"
}
layer {
  name: "rpn/output_pool"
  type: "Pooling"
  bottom: "rpn/output_2"
  top: "rpn/output_pool"
  pooling_param {
    pool: MAX
    kernel_size: 1
    kernel_size: 2
    kernel_size: 2
  }
}
layer {
  name: "rpn_cls_score"
  type: "Convolution"
  bottom: "rpn/output_pool"
  top: "rpn_cls_score"
  param {
    lr_mult: 1
    decay_mult: 1
  }
  param {
    lr_mult: 2
    decay_mult: 0
  }
  convolution_param {
    num_output: 74
    kernel_size: 1
    kernel_size: 1
    kernel_size: 1
    weight_filler {
      type: "gaussian"
      std: 0.01
    }
    bias_filler {
      type: "constant"
      value: 0
    }
  }
}
layer {
  name: "rpn_twin_pred"
  type: "Convolution"
  bottom: "rpn/output_pool"
  top: "rpn_twin_pred"
  param {
    lr_mult: 1
    decay_mult: 1
  }
  param {
    lr_mult: 2
    decay_mult: 0
  }
  convolution_param {
    num_output: 74
    kernel_size: 1
    kernel_size: 1
    kernel_size: 1
    weight_filler {
      type: "gaussian"
      std: 0.01
    }
    bias_filler {
      type: "constant"
      value: 0
    }
  }
}
layer {
  name: "rpn_cls_score_reshape"
  type: "Reshape"
  bottom: "rpn_cls_score"
  top: "rpn_cls_score_reshape"
  reshape_param {
    shape {
      dim: 0
      dim: 2
      dim: -1
      dim: 0
      dim: 0
    }
  }
}
layer {
  name: "rpn-data"
  type: "Python"
  bottom: "rpn_cls_score"
  bottom: "gt_boxes"
  bottom: "data"
  top: "rpn_labels"
  top: "rpn_twin_targets"
  top: "rpn_twin_inside_weights"
  top: "rpn_twin_outside_weights"
  python_param {
    module: "rpn.anchor_target_layer"
    layer: "AnchorTargetLayer"
    param_str: "\'feat_stride\': 8 \n\'scales\': !!python/tuple [1,1.25, 1.5,1.75, 2,2.5, 3,3.5, 4,4.5, 5,5.5, 6,7, 8,9,10,11,12,14,16,18,20,22,24,28,32,36,40,44,52,60,68,76,84,92,100]"
  }
}
layer {
  name: "rpn_loss_cls"
  type: "SoftmaxWithLoss"
  bottom: "rpn_cls_score_reshape"
  bottom: "rpn_labels"
  top: "rpn_cls_loss"
  loss_weight: 1
  propagate_down: true
  propagate_down: false
  loss_param {
    ignore_label: -1
    normalize: true
  }
}
layer {
  name: "rpn_loss_twin"
  type: "SmoothL1Loss"
  bottom: "rpn_twin_pred"
  bottom: "rpn_twin_targets"
  bottom: "rpn_twin_inside_weights"
  bottom: "rpn_twin_outside_weights"
  top: "rpn_loss_twin"
  loss_weight: 1
  smooth_l1_loss_param {
    sigma: 3
  }
}
layer {
  name: "rpn_accuarcy"
  type: "Accuracy"
  bottom: "rpn_cls_score_reshape"
  bottom: "rpn_labels"
  top: "rpn_accuarcy"
  top: "rpn_accuarcy_class"
  propagate_down: false
  propagate_down: false
  accuracy_param {
    ignore_label: -1
  }
}
layer {
  name: "rpn_cls_prob"
  type: "Softmax"
  bottom: "rpn_cls_score_reshape"
  top: "rpn_cls_prob"
}
layer {
  name: "rpn_cls_prob_reshape"
  type: "Reshape"
  bottom: "rpn_cls_prob"
  top: "rpn_cls_prob_reshape"
  reshape_param {
    shape {
      dim: 0
      dim: 74
      dim: -1
      dim: 0
      dim: 0
    }
  }
}
layer {
  name: "proposal"
  type: "Python"
  bottom: "rpn_cls_prob_reshape"
  bottom: "rpn_twin_pred"
  top: "rpn_rois"
  include {
    phase: TRAIN
  }
  python_param {
    module: "rpn.proposal_layer"
    layer: "ProposalLayer"
    param_str: "\'feat_stride\': 8 \n\'scales\': !!python/tuple [1,1.25, 1.5,1.75, 2,2.5, 3,3.5, 4,4.5, 5,5.5, 6,7, 8,9,10,11,12,14,16,18,20,22,24,28,32,36,40,44,52,60,68,76,84,92,100]"
  }
}
layer {
  name: "roi-data"
  type: "Python"
  bottom: "rpn_rois"
  bottom: "gt_boxes"
  top: "rois"
  top: "labels"
  top: "twin_targets"
  top: "twin_inside_weights"
  top: "twin_outside_weights"
  python_param {
    module: "rpn.proposal_target_layer"
    layer: "ProposalTargetLayer"
    param_str: "\'num_classes\': 99"
  }
}
layer {
  name: "roi_pool5"
  type: "ROIPooling"
  bottom: "conv5b"
  bottom: "rois"
  top: "pool5"
  roi_pooling_param {
    pooled_h: 4
    pooled_w: 4
    spatial_scale: 0.0625
    pooled_l: 1
    temporal_scale: 0.125
  }
}
layer {
  name: "fc6"
  type: "InnerProduct"
  bottom: "pool5"
  top: "fc6"
  param {
    lr_mult: 1
    decay_mult: 1
  }
  param {
    lr_mult: 2
    decay_mult: 0
  }
  inner_product_param {
    num_output: 4096
    weight_filler {
      type: "gaussian"
      std: 0.005
    }
    bias_filler {
      type: "constant"
      value: 1
    }
  }
}
layer {
  name: "relu6"
  type: "ReLU"
  bottom: "fc6"
  top: "fc6"
}
layer {
  name: "drop6"
  type: "Dropout"
  bottom: "fc6"
  top: "fc6"
  dropout_param {
    dropout_ratio: 0.5
  }
}
layer {
  name: "cls_score"
  type: "InnerProduct"
  bottom: "fc6"
  top: "cls_score"
  param {
    lr_mult: 1
    decay_mult: 1
  }
  param {
    lr_mult: 2
    decay_mult: 0
  }
  inner_product_param {
    num_output: 99
    weight_filler {
      type: "gaussian"
      std: 0.01
    }
    bias_filler {
      type: "constant"
      value: 0
    }
  }
}
layer {
  name: "twin_pred"
  type: "InnerProduct"
  bottom: "fc6"
  top: "twin_pred"
  param {
    lr_mult: 1
    decay_mult: 1
  }
  param {
    lr_mult: 2
    decay_mult: 0
  }
  inner_product_param {
    num_output: 198
    weight_filler {
      type: "gaussian"
      std: 0.001
    }
    bias_filler {
      type: "constant"
      value: 0
    }
  }
}
layer {
  name: "loss_cls"
  type: "SigmoidCrossEntropyLoss"
  bottom: "cls_score"
  bottom: "labels"
  top: "loss_cls"
  loss_weight: 1
  propagate_down: true
  propagate_down: false
}
layer {
  name: "loss_twin"
  type: "SmoothL1Loss"
  bottom: "twin_pred"
  bottom: "twin_targets"
  bottom: "twin_inside_weights"
  bottom: "twin_outside_weights"
  top: "loss_twin"
  loss_weight: 1
}
layer {
  name: "accuarcy"
  type: "Accuracy"
  bottom: "cls_score"
  bottom: "labels"
  top: "accuarcy"
  propagate_down: false
  propagate_down: false
  accuracy_param {
    ignore_label: -1
  }
}
I0418 04:25:54.753937 23652 layer_factory.hpp:77] Creating layer data
I0418 04:25:54.779367 23652 net.cpp:100] Creating Layer data
I0418 04:25:54.779392 23652 net.cpp:408] data -> data
I0418 04:25:54.779404 23652 net.cpp:408] data -> gt_boxes
setting up
has rpn
RoiDataLayer: name_to_top: {'gt_windows': 1, 'data': 0}
I0418 04:25:54.792956 23652 net.cpp:150] Setting up data
I0418 04:25:54.792979 23652 net.cpp:157] Top shape: 1 3 768 112 112 (28901376)
I0418 04:25:54.792984 23652 net.cpp:157] Top shape: 1 101 (101)
I0418 04:25:54.792987 23652 net.cpp:165] Memory required for data: 115605908
I0418 04:25:54.792994 23652 layer_factory.hpp:77] Creating layer data_data_0_split
I0418 04:25:54.793005 23652 net.cpp:100] Creating Layer data_data_0_split
I0418 04:25:54.793010 23652 net.cpp:434] data_data_0_split <- data
I0418 04:25:54.793020 23652 net.cpp:408] data_data_0_split -> data_data_0_split_0
I0418 04:25:54.793030 23652 net.cpp:408] data_data_0_split -> data_data_0_split_1
I0418 04:25:54.793061 23652 net.cpp:150] Setting up data_data_0_split
I0418 04:25:54.793076 23652 net.cpp:157] Top shape: 1 3 768 112 112 (28901376)
I0418 04:25:54.793081 23652 net.cpp:157] Top shape: 1 3 768 112 112 (28901376)
I0418 04:25:54.793083 23652 net.cpp:165] Memory required for data: 346816916
I0418 04:25:54.793087 23652 layer_factory.hpp:77] Creating layer gt_boxes_data_1_split
I0418 04:25:54.793092 23652 net.cpp:100] Creating Layer gt_boxes_data_1_split
I0418 04:25:54.793095 23652 net.cpp:434] gt_boxes_data_1_split <- gt_boxes
I0418 04:25:54.793104 23652 net.cpp:408] gt_boxes_data_1_split -> gt_boxes_data_1_split_0
I0418 04:25:54.793110 23652 net.cpp:408] gt_boxes_data_1_split -> gt_boxes_data_1_split_1
I0418 04:25:54.793135 23652 net.cpp:150] Setting up gt_boxes_data_1_split
I0418 04:25:54.793141 23652 net.cpp:157] Top shape: 1 101 (101)
I0418 04:25:54.793145 23652 net.cpp:157] Top shape: 1 101 (101)
I0418 04:25:54.793148 23652 net.cpp:165] Memory required for data: 346817724
I0418 04:25:54.793151 23652 layer_factory.hpp:77] Creating layer conv1a
I0418 04:25:54.793167 23652 net.cpp:100] Creating Layer conv1a
I0418 04:25:54.793171 23652 net.cpp:434] conv1a <- data_data_0_split_0
I0418 04:25:54.793179 23652 net.cpp:408] conv1a -> conv1a
I0418 04:25:54.986594 23652 net.cpp:150] Setting up conv1a
I0418 04:25:54.986629 23652 net.cpp:157] Top shape: 1 64 768 112 112 (616562688)
I0418 04:25:54.986634 23652 net.cpp:165] Memory required for data: 2813068476
I0418 04:25:54.986654 23652 layer_factory.hpp:77] Creating layer relu1a
I0418 04:25:54.986668 23652 net.cpp:100] Creating Layer relu1a
I0418 04:25:54.986675 23652 net.cpp:434] relu1a <- conv1a
I0418 04:25:54.986682 23652 net.cpp:395] relu1a -> conv1a (in-place)
I0418 04:25:54.987146 23652 net.cpp:150] Setting up relu1a
I0418 04:25:54.987159 23652 net.cpp:157] Top shape: 1 64 768 112 112 (616562688)
I0418 04:25:54.987164 23652 net.cpp:165] Memory required for data: 5279319228
I0418 04:25:54.987169 23652 layer_factory.hpp:77] Creating layer pool1
I0418 04:25:54.987179 23652 net.cpp:100] Creating Layer pool1
I0418 04:25:54.987182 23652 net.cpp:434] pool1 <- conv1a
I0418 04:25:54.987190 23652 net.cpp:408] pool1 -> pool1
I0418 04:25:54.987368 23652 net.cpp:150] Setting up pool1
I0418 04:25:54.987392 23652 net.cpp:157] Top shape: 1 64 768 56 56 (154140672)
I0418 04:25:54.987398 23652 net.cpp:165] Memory required for data: 5895881916
I0418 04:25:54.987402 23652 layer_factory.hpp:77] Creating layer conv2a
I0418 04:25:54.987414 23652 net.cpp:100] Creating Layer conv2a
I0418 04:25:54.987417 23652 net.cpp:434] conv2a <- pool1
I0418 04:25:54.987423 23652 net.cpp:408] conv2a -> conv2a
I0418 04:25:54.998659 23652 net.cpp:150] Setting up conv2a
I0418 04:25:54.998680 23652 net.cpp:157] Top shape: 1 128 768 56 56 (308281344)
I0418 04:25:54.998684 23652 net.cpp:165] Memory required for data: 7129007292
I0418 04:25:54.998697 23652 layer_factory.hpp:77] Creating layer relu2a
I0418 04:25:54.998704 23652 net.cpp:100] Creating Layer relu2a
I0418 04:25:54.998708 23652 net.cpp:434] relu2a <- conv2a
I0418 04:25:54.998715 23652 net.cpp:395] relu2a -> conv2a (in-place)
I0418 04:25:54.999053 23652 net.cpp:150] Setting up relu2a
I0418 04:25:54.999066 23652 net.cpp:157] Top shape: 1 128 768 56 56 (308281344)
I0418 04:25:54.999070 23652 net.cpp:165] Memory required for data: 8362132668
I0418 04:25:54.999073 23652 layer_factory.hpp:77] Creating layer pool2
I0418 04:25:54.999083 23652 net.cpp:100] Creating Layer pool2
I0418 04:25:54.999088 23652 net.cpp:434] pool2 <- conv2a
I0418 04:25:54.999094 23652 net.cpp:408] pool2 -> pool2
I0418 04:25:54.999270 23652 net.cpp:150] Setting up pool2
I0418 04:25:54.999281 23652 net.cpp:157] Top shape: 1 128 384 28 28 (38535168)
I0418 04:25:54.999285 23652 net.cpp:165] Memory required for data: 8516273340
I0418 04:25:54.999289 23652 layer_factory.hpp:77] Creating layer conv3a
I0418 04:25:54.999301 23652 net.cpp:100] Creating Layer conv3a
I0418 04:25:54.999307 23652 net.cpp:434] conv3a <- pool2
I0418 04:25:54.999315 23652 net.cpp:408] conv3a -> conv3a
I0418 04:25:55.024741 23652 net.cpp:150] Setting up conv3a
I0418 04:25:55.024758 23652 net.cpp:157] Top shape: 1 256 384 28 28 (77070336)
I0418 04:25:55.024762 23652 net.cpp:165] Memory required for data: 8824554684
I0418 04:25:55.024772 23652 layer_factory.hpp:77] Creating layer relu3a
I0418 04:25:55.024780 23652 net.cpp:100] Creating Layer relu3a
I0418 04:25:55.024783 23652 net.cpp:434] relu3a <- conv3a
I0418 04:25:55.024790 23652 net.cpp:395] relu3a -> conv3a (in-place)
I0418 04:25:55.025084 23652 net.cpp:150] Setting up relu3a
I0418 04:25:55.025097 23652 net.cpp:157] Top shape: 1 256 384 28 28 (77070336)
I0418 04:25:55.025101 23652 net.cpp:165] Memory required for data: 9132836028
I0418 04:25:55.025105 23652 layer_factory.hpp:77] Creating layer conv3b
I0418 04:25:55.025117 23652 net.cpp:100] Creating Layer conv3b
I0418 04:25:55.025121 23652 net.cpp:434] conv3b <- conv3a
I0418 04:25:55.025127 23652 net.cpp:408] conv3b -> conv3b
I0418 04:25:55.076532 23652 net.cpp:150] Setting up conv3b
I0418 04:25:55.076562 23652 net.cpp:157] Top shape: 1 256 384 28 28 (77070336)
I0418 04:25:55.076570 23652 net.cpp:165] Memory required for data: 9441117372
I0418 04:25:55.076581 23652 layer_factory.hpp:77] Creating layer relu3b
I0418 04:25:55.076589 23652 net.cpp:100] Creating Layer relu3b
I0418 04:25:55.076594 23652 net.cpp:434] relu3b <- conv3b
I0418 04:25:55.076602 23652 net.cpp:395] relu3b -> conv3b (in-place)
I0418 04:25:55.077117 23652 net.cpp:150] Setting up relu3b
I0418 04:25:55.077129 23652 net.cpp:157] Top shape: 1 256 384 28 28 (77070336)
I0418 04:25:55.077133 23652 net.cpp:165] Memory required for data: 9749398716
I0418 04:25:55.077137 23652 layer_factory.hpp:77] Creating layer pool3
I0418 04:25:55.077147 23652 net.cpp:100] Creating Layer pool3
I0418 04:25:55.077150 23652 net.cpp:434] pool3 <- conv3b
I0418 04:25:55.077157 23652 net.cpp:408] pool3 -> pool3
I0418 04:25:55.077349 23652 net.cpp:150] Setting up pool3
I0418 04:25:55.077363 23652 net.cpp:157] Top shape: 1 256 192 14 14 (9633792)
I0418 04:25:55.077366 23652 net.cpp:165] Memory required for data: 9787933884
I0418 04:25:55.077373 23652 layer_factory.hpp:77] Creating layer conv4a
I0418 04:25:55.077385 23652 net.cpp:100] Creating Layer conv4a
I0418 04:25:55.077389 23652 net.cpp:434] conv4a <- pool3
I0418 04:25:55.077396 23652 net.cpp:408] conv4a -> conv4a
I0418 04:25:55.179074 23652 net.cpp:150] Setting up conv4a
I0418 04:25:55.179100 23652 net.cpp:157] Top shape: 1 512 192 14 14 (19267584)
I0418 04:25:55.179103 23652 net.cpp:165] Memory required for data: 9865004220
I0418 04:25:55.179118 23652 layer_factory.hpp:77] Creating layer relu4a
I0418 04:25:55.179128 23652 net.cpp:100] Creating Layer relu4a
I0418 04:25:55.179134 23652 net.cpp:434] relu4a <- conv4a
I0418 04:25:55.179141 23652 net.cpp:395] relu4a -> conv4a (in-place)
I0418 04:25:55.179450 23652 net.cpp:150] Setting up relu4a
I0418 04:25:55.179463 23652 net.cpp:157] Top shape: 1 512 192 14 14 (19267584)
I0418 04:25:55.179467 23652 net.cpp:165] Memory required for data: 9942074556
I0418 04:25:55.179471 23652 layer_factory.hpp:77] Creating layer conv4b
I0418 04:25:55.179484 23652 net.cpp:100] Creating Layer conv4b
I0418 04:25:55.179488 23652 net.cpp:434] conv4b <- conv4a
I0418 04:25:55.179497 23652 net.cpp:408] conv4b -> conv4b
I0418 04:25:55.372447 23652 net.cpp:150] Setting up conv4b
I0418 04:25:55.372472 23652 net.cpp:157] Top shape: 1 512 192 14 14 (19267584)
I0418 04:25:55.372475 23652 net.cpp:165] Memory required for data: 10019144892
I0418 04:25:55.372484 23652 layer_factory.hpp:77] Creating layer relu4b
I0418 04:25:55.372496 23652 net.cpp:100] Creating Layer relu4b
I0418 04:25:55.372501 23652 net.cpp:434] relu4b <- conv4b
I0418 04:25:55.372508 23652 net.cpp:395] relu4b -> conv4b (in-place)
I0418 04:25:55.372664 23652 net.cpp:150] Setting up relu4b
I0418 04:25:55.372674 23652 net.cpp:157] Top shape: 1 512 192 14 14 (19267584)
I0418 04:25:55.372679 23652 net.cpp:165] Memory required for data: 10096215228
I0418 04:25:55.372684 23652 layer_factory.hpp:77] Creating layer pool4
I0418 04:25:55.372691 23652 net.cpp:100] Creating Layer pool4
I0418 04:25:55.372697 23652 net.cpp:434] pool4 <- conv4b
I0418 04:25:55.372704 23652 net.cpp:408] pool4 -> pool4
I0418 04:25:55.373080 23652 net.cpp:150] Setting up pool4
I0418 04:25:55.373092 23652 net.cpp:157] Top shape: 1 512 96 7 7 (2408448)
I0418 04:25:55.373095 23652 net.cpp:165] Memory required for data: 10105849020
I0418 04:25:55.373100 23652 layer_factory.hpp:77] Creating layer conv5a
I0418 04:25:55.373111 23652 net.cpp:100] Creating Layer conv5a
I0418 04:25:55.373116 23652 net.cpp:434] conv5a <- pool4
I0418 04:25:55.373122 23652 net.cpp:408] conv5a -> conv5a
I0418 04:25:55.561486 23652 net.cpp:150] Setting up conv5a
I0418 04:25:55.561509 23652 net.cpp:157] Top shape: 1 512 96 7 7 (2408448)
I0418 04:25:55.561513 23652 net.cpp:165] Memory required for data: 10115482812
I0418 04:25:55.561522 23652 layer_factory.hpp:77] Creating layer relu5a
I0418 04:25:55.561532 23652 net.cpp:100] Creating Layer relu5a
I0418 04:25:55.561537 23652 net.cpp:434] relu5a <- conv5a
I0418 04:25:55.561544 23652 net.cpp:395] relu5a -> conv5a (in-place)
I0418 04:25:55.561957 23652 net.cpp:150] Setting up relu5a
I0418 04:25:55.561969 23652 net.cpp:157] Top shape: 1 512 96 7 7 (2408448)
I0418 04:25:55.561975 23652 net.cpp:165] Memory required for data: 10125116604
I0418 04:25:55.561978 23652 layer_factory.hpp:77] Creating layer conv5b
I0418 04:25:55.561990 23652 net.cpp:100] Creating Layer conv5b
I0418 04:25:55.561993 23652 net.cpp:434] conv5b <- conv5a
I0418 04:25:55.562001 23652 net.cpp:408] conv5b -> conv5b
I0418 04:25:55.748740 23652 net.cpp:150] Setting up conv5b
I0418 04:25:55.748765 23652 net.cpp:157] Top shape: 1 512 96 7 7 (2408448)
I0418 04:25:55.748769 23652 net.cpp:165] Memory required for data: 10134750396
I0418 04:25:55.748777 23652 layer_factory.hpp:77] Creating layer relu5b
I0418 04:25:55.748790 23652 net.cpp:100] Creating Layer relu5b
I0418 04:25:55.748795 23652 net.cpp:434] relu5b <- conv5b
I0418 04:25:55.748800 23652 net.cpp:395] relu5b -> conv5b (in-place)
I0418 04:25:55.748956 23652 net.cpp:150] Setting up relu5b
I0418 04:25:55.748965 23652 net.cpp:157] Top shape: 1 512 96 7 7 (2408448)
I0418 04:25:55.748970 23652 net.cpp:165] Memory required for data: 10144384188
I0418 04:25:55.748972 23652 layer_factory.hpp:77] Creating layer conv5b_relu5b_0_split
I0418 04:25:55.748980 23652 net.cpp:100] Creating Layer conv5b_relu5b_0_split
I0418 04:25:55.748984 23652 net.cpp:434] conv5b_relu5b_0_split <- conv5b
I0418 04:25:55.748989 23652 net.cpp:408] conv5b_relu5b_0_split -> conv5b_relu5b_0_split_0
I0418 04:25:55.748997 23652 net.cpp:408] conv5b_relu5b_0_split -> conv5b_relu5b_0_split_1
I0418 04:25:55.749035 23652 net.cpp:150] Setting up conv5b_relu5b_0_split
I0418 04:25:55.749043 23652 net.cpp:157] Top shape: 1 512 96 7 7 (2408448)
I0418 04:25:55.749047 23652 net.cpp:157] Top shape: 1 512 96 7 7 (2408448)
I0418 04:25:55.749052 23652 net.cpp:165] Memory required for data: 10163651772
I0418 04:25:55.749054 23652 layer_factory.hpp:77] Creating layer rpn_conv/3x3
I0418 04:25:55.749065 23652 net.cpp:100] Creating Layer rpn_conv/3x3
I0418 04:25:55.749071 23652 net.cpp:434] rpn_conv/3x3 <- conv5b_relu5b_0_split_0
I0418 04:25:55.749078 23652 net.cpp:408] rpn_conv/3x3 -> rpn/output
I0418 04:25:55.938832 23652 net.cpp:150] Setting up rpn_conv/3x3
I0418 04:25:55.938856 23652 net.cpp:157] Top shape: 1 512 96 4 4 (786432)
I0418 04:25:55.938860 23652 net.cpp:165] Memory required for data: 10166797500
I0418 04:25:55.938874 23652 layer_factory.hpp:77] Creating layer rpn_relu/3x3
I0418 04:25:55.938884 23652 net.cpp:100] Creating Layer rpn_relu/3x3
I0418 04:25:55.938891 23652 net.cpp:434] rpn_relu/3x3 <- rpn/output
I0418 04:25:55.938899 23652 net.cpp:395] rpn_relu/3x3 -> rpn/output (in-place)
I0418 04:25:55.939191 23652 net.cpp:150] Setting up rpn_relu/3x3
I0418 04:25:55.939203 23652 net.cpp:157] Top shape: 1 512 96 4 4 (786432)
I0418 04:25:55.939208 23652 net.cpp:165] Memory required for data: 10169943228
I0418 04:25:55.939213 23652 layer_factory.hpp:77] Creating layer rpn_conv/3x3_2
I0418 04:25:55.939225 23652 net.cpp:100] Creating Layer rpn_conv/3x3_2
I0418 04:25:55.939230 23652 net.cpp:434] rpn_conv/3x3_2 <- rpn/output
I0418 04:25:55.939239 23652 net.cpp:408] rpn_conv/3x3_2 -> rpn/output_2
I0418 04:25:56.124280 23652 net.cpp:150] Setting up rpn_conv/3x3_2
I0418 04:25:56.124305 23652 net.cpp:157] Top shape: 1 512 96 2 2 (196608)
I0418 04:25:56.124308 23652 net.cpp:165] Memory required for data: 10170729660
I0418 04:25:56.124317 23652 layer_factory.hpp:77] Creating layer rpn_relu/3x3_2
I0418 04:25:56.124327 23652 net.cpp:100] Creating Layer rpn_relu/3x3_2
I0418 04:25:56.124331 23652 net.cpp:434] rpn_relu/3x3_2 <- rpn/output_2
I0418 04:25:56.124338 23652 net.cpp:395] rpn_relu/3x3_2 -> rpn/output_2 (in-place)
I0418 04:25:56.124637 23652 net.cpp:150] Setting up rpn_relu/3x3_2
I0418 04:25:56.124650 23652 net.cpp:157] Top shape: 1 512 96 2 2 (196608)
I0418 04:25:56.124653 23652 net.cpp:165] Memory required for data: 10171516092
I0418 04:25:56.124657 23652 layer_factory.hpp:77] Creating layer rpn/output_pool
I0418 04:25:56.124666 23652 net.cpp:100] Creating Layer rpn/output_pool
I0418 04:25:56.124670 23652 net.cpp:434] rpn/output_pool <- rpn/output_2
I0418 04:25:56.124675 23652 net.cpp:408] rpn/output_pool -> rpn/output_pool
I0418 04:25:56.124850 23652 net.cpp:150] Setting up rpn/output_pool
I0418 04:25:56.124867 23652 net.cpp:157] Top shape: 1 512 96 1 1 (49152)
I0418 04:25:56.124871 23652 net.cpp:165] Memory required for data: 10171712700
I0418 04:25:56.124874 23652 layer_factory.hpp:77] Creating layer rpn/output_pool_rpn/output_pool_0_split
I0418 04:25:56.124881 23652 net.cpp:100] Creating Layer rpn/output_pool_rpn/output_pool_0_split
I0418 04:25:56.124883 23652 net.cpp:434] rpn/output_pool_rpn/output_pool_0_split <- rpn/output_pool
I0418 04:25:56.124889 23652 net.cpp:408] rpn/output_pool_rpn/output_pool_0_split -> rpn/output_pool_rpn/output_pool_0_split_0
I0418 04:25:56.124896 23652 net.cpp:408] rpn/output_pool_rpn/output_pool_0_split -> rpn/output_pool_rpn/output_pool_0_split_1
I0418 04:25:56.124928 23652 net.cpp:150] Setting up rpn/output_pool_rpn/output_pool_0_split
I0418 04:25:56.124935 23652 net.cpp:157] Top shape: 1 512 96 1 1 (49152)
I0418 04:25:56.124939 23652 net.cpp:157] Top shape: 1 512 96 1 1 (49152)
I0418 04:25:56.124943 23652 net.cpp:165] Memory required for data: 10172105916
I0418 04:25:56.124946 23652 layer_factory.hpp:77] Creating layer rpn_cls_score
I0418 04:25:56.124958 23652 net.cpp:100] Creating Layer rpn_cls_score
I0418 04:25:56.124963 23652 net.cpp:434] rpn_cls_score <- rpn/output_pool_rpn/output_pool_0_split_0
I0418 04:25:56.124969 23652 net.cpp:408] rpn_cls_score -> rpn_cls_score
I0418 04:25:56.126987 23652 net.cpp:150] Setting up rpn_cls_score
I0418 04:25:56.127002 23652 net.cpp:157] Top shape: 1 74 96 1 1 (7104)
I0418 04:25:56.127004 23652 net.cpp:165] Memory required for data: 10172134332
I0418 04:25:56.127012 23652 layer_factory.hpp:77] Creating layer rpn_cls_score_rpn_cls_score_0_split
I0418 04:25:56.127017 23652 net.cpp:100] Creating Layer rpn_cls_score_rpn_cls_score_0_split
I0418 04:25:56.127022 23652 net.cpp:434] rpn_cls_score_rpn_cls_score_0_split <- rpn_cls_score
I0418 04:25:56.127027 23652 net.cpp:408] rpn_cls_score_rpn_cls_score_0_split -> rpn_cls_score_rpn_cls_score_0_split_0
I0418 04:25:56.127033 23652 net.cpp:408] rpn_cls_score_rpn_cls_score_0_split -> rpn_cls_score_rpn_cls_score_0_split_1
I0418 04:25:56.127075 23652 net.cpp:150] Setting up rpn_cls_score_rpn_cls_score_0_split
I0418 04:25:56.127081 23652 net.cpp:157] Top shape: 1 74 96 1 1 (7104)
I0418 04:25:56.127085 23652 net.cpp:157] Top shape: 1 74 96 1 1 (7104)
I0418 04:25:56.127089 23652 net.cpp:165] Memory required for data: 10172191164
I0418 04:25:56.127092 23652 layer_factory.hpp:77] Creating layer rpn_twin_pred
I0418 04:25:56.127105 23652 net.cpp:100] Creating Layer rpn_twin_pred
I0418 04:25:56.127110 23652 net.cpp:434] rpn_twin_pred <- rpn/output_pool_rpn/output_pool_0_split_1
I0418 04:25:56.127116 23652 net.cpp:408] rpn_twin_pred -> rpn_twin_pred
I0418 04:25:56.128993 23652 net.cpp:150] Setting up rpn_twin_pred
I0418 04:25:56.129005 23652 net.cpp:157] Top shape: 1 74 96 1 1 (7104)
I0418 04:25:56.129009 23652 net.cpp:165] Memory required for data: 10172219580
I0418 04:25:56.129015 23652 layer_factory.hpp:77] Creating layer rpn_twin_pred_rpn_twin_pred_0_split
I0418 04:25:56.129021 23652 net.cpp:100] Creating Layer rpn_twin_pred_rpn_twin_pred_0_split
I0418 04:25:56.129025 23652 net.cpp:434] rpn_twin_pred_rpn_twin_pred_0_split <- rpn_twin_pred
I0418 04:25:56.129030 23652 net.cpp:408] rpn_twin_pred_rpn_twin_pred_0_split -> rpn_twin_pred_rpn_twin_pred_0_split_0
I0418 04:25:56.129039 23652 net.cpp:408] rpn_twin_pred_rpn_twin_pred_0_split -> rpn_twin_pred_rpn_twin_pred_0_split_1
I0418 04:25:56.129076 23652 net.cpp:150] Setting up rpn_twin_pred_rpn_twin_pred_0_split
I0418 04:25:56.129083 23652 net.cpp:157] Top shape: 1 74 96 1 1 (7104)
I0418 04:25:56.129093 23652 net.cpp:157] Top shape: 1 74 96 1 1 (7104)
I0418 04:25:56.129096 23652 net.cpp:165] Memory required for data: 10172276412
I0418 04:25:56.129099 23652 layer_factory.hpp:77] Creating layer rpn_cls_score_reshape
I0418 04:25:56.129112 23652 net.cpp:100] Creating Layer rpn_cls_score_reshape
I0418 04:25:56.129115 23652 net.cpp:434] rpn_cls_score_reshape <- rpn_cls_score_rpn_cls_score_0_split_0
I0418 04:25:56.129120 23652 net.cpp:408] rpn_cls_score_reshape -> rpn_cls_score_reshape
I0418 04:25:56.129148 23652 net.cpp:150] Setting up rpn_cls_score_reshape
I0418 04:25:56.129155 23652 net.cpp:157] Top shape: 1 2 3552 1 1 (7104)
I0418 04:25:56.129158 23652 net.cpp:165] Memory required for data: 10172304828
I0418 04:25:56.129161 23652 layer_factory.hpp:77] Creating layer rpn_cls_score_reshape_rpn_cls_score_reshape_0_split
I0418 04:25:56.129166 23652 net.cpp:100] Creating Layer rpn_cls_score_reshape_rpn_cls_score_reshape_0_split
I0418 04:25:56.129170 23652 net.cpp:434] rpn_cls_score_reshape_rpn_cls_score_reshape_0_split <- rpn_cls_score_reshape
I0418 04:25:56.129175 23652 net.cpp:408] rpn_cls_score_reshape_rpn_cls_score_reshape_0_split -> rpn_cls_score_reshape_rpn_cls_score_reshape_0_split_0
I0418 04:25:56.129184 23652 net.cpp:408] rpn_cls_score_reshape_rpn_cls_score_reshape_0_split -> rpn_cls_score_reshape_rpn_cls_score_reshape_0_split_1
I0418 04:25:56.129195 23652 net.cpp:408] rpn_cls_score_reshape_rpn_cls_score_reshape_0_split -> rpn_cls_score_reshape_rpn_cls_score_reshape_0_split_2
I0418 04:25:56.129235 23652 net.cpp:150] Setting up rpn_cls_score_reshape_rpn_cls_score_reshape_0_split
I0418 04:25:56.129243 23652 net.cpp:157] Top shape: 1 2 3552 1 1 (7104)
I0418 04:25:56.129247 23652 net.cpp:157] Top shape: 1 2 3552 1 1 (7104)
I0418 04:25:56.129251 23652 net.cpp:157] Top shape: 1 2 3552 1 1 (7104)
I0418 04:25:56.129254 23652 net.cpp:165] Memory required for data: 10172390076
I0418 04:25:56.129258 23652 layer_factory.hpp:77] Creating layer rpn-data
I0418 04:25:56.129644 23652 net.cpp:100] Creating Layer rpn-data
I0418 04:25:56.129655 23652 net.cpp:434] rpn-data <- rpn_cls_score_rpn_cls_score_0_split_1
I0418 04:25:56.129662 23652 net.cpp:434] rpn-data <- gt_boxes_data_1_split_0
I0418 04:25:56.129667 23652 net.cpp:434] rpn-data <- data_data_0_split_1
I0418 04:25:56.129671 23652 net.cpp:408] rpn-data -> rpn_labels
I0418 04:25:56.129678 23652 net.cpp:408] rpn-data -> rpn_twin_targets
I0418 04:25:56.129686 23652 net.cpp:408] rpn-data -> rpn_twin_inside_weights
I0418 04:25:56.129693 23652 net.cpp:408] rpn-data -> rpn_twin_outside_weights
I0418 04:25:56.131913 23652 net.cpp:150] Setting up rpn-data
I0418 04:25:56.131928 23652 net.cpp:157] Top shape: 1 1 3552 1 1 (3552)
I0418 04:25:56.131932 23652 net.cpp:157] Top shape: 1 74 96 1 1 (7104)
I0418 04:25:56.131937 23652 net.cpp:157] Top shape: 1 74 96 1 1 (7104)
I0418 04:25:56.131940 23652 net.cpp:157] Top shape: 1 74 96 1 1 (7104)
I0418 04:25:56.131943 23652 net.cpp:165] Memory required for data: 10172489532
I0418 04:25:56.131947 23652 layer_factory.hpp:77] Creating layer rpn_labels_rpn-data_0_split
I0418 04:25:56.131953 23652 net.cpp:100] Creating Layer rpn_labels_rpn-data_0_split
I0418 04:25:56.131958 23652 net.cpp:434] rpn_labels_rpn-data_0_split <- rpn_labels
I0418 04:25:56.131963 23652 net.cpp:408] rpn_labels_rpn-data_0_split -> rpn_labels_rpn-data_0_split_0
I0418 04:25:56.131969 23652 net.cpp:408] rpn_labels_rpn-data_0_split -> rpn_labels_rpn-data_0_split_1
I0418 04:25:56.132000 23652 net.cpp:150] Setting up rpn_labels_rpn-data_0_split
I0418 04:25:56.132009 23652 net.cpp:157] Top shape: 1 1 3552 1 1 (3552)
I0418 04:25:56.132012 23652 net.cpp:157] Top shape: 1 1 3552 1 1 (3552)
I0418 04:25:56.132015 23652 net.cpp:165] Memory required for data: 10172517948
I0418 04:25:56.132019 23652 layer_factory.hpp:77] Creating layer rpn_loss_cls
I0418 04:25:56.132027 23652 net.cpp:100] Creating Layer rpn_loss_cls
I0418 04:25:56.132035 23652 net.cpp:434] rpn_loss_cls <- rpn_cls_score_reshape_rpn_cls_score_reshape_0_split_0
I0418 04:25:56.132040 23652 net.cpp:434] rpn_loss_cls <- rpn_labels_rpn-data_0_split_0
…
I0418 04:25:56.132608 23652 layer_factory.hpp:77] Creating layer rpn_accuarcy
I0418 04:25:56.132616 23652 net.cpp:100] Creating Layer rpn_accuarcy
I0418 04:25:56.132621 23652 net.cpp:434] rpn_accuarcy <- rpn_cls_score_reshape_rpn_cls_score_reshape_0_split_1
I0418 04:25:56.132624 23652 net.cpp:434] rpn_accuarcy <- rpn_labels_rpn-data_0_split_1
I0418 04:25:56.132632 23652 net.cpp:408] rpn_accuarcy -> rpn_accuarcy
I0418 04:25:56.132637 23652 net.cpp:408] rpn_accuarcy -> rpn_accuarcy_class
I0418 04:25:56.132674 23652 net.cpp:150] Setting up rpn_accuarcy
I0418 04:25:56.132683 23652 net.cpp:157] Top shape: (1)
I0418 04:25:56.132686 23652 net.cpp:157] Top shape: 2 (2)
I0418 04:25:56.132689 23652 net.cpp:165] Memory required for data: 10172517968
I0418 04:25:56.132694 23652 layer_factory.hpp:77] Creating layer rpn_cls_prob
I0418 04:25:56.132699 23652 net.cpp:100] Creating Layer rpn_cls_prob
I0418 04:25:56.132701 23652 net.cpp:434] rpn_cls_prob <- rpn_cls_score_reshape_rpn_cls_score_reshape_0_split_2
I0418 04:25:56.132706 23652 net.cpp:408] rpn_cls_prob -> rpn_cls_prob
I0418 04:25:56.132894 23652 net.cpp:150] Setting up rpn_cls_prob
I0418 04:25:56.132905 23652 net.cpp:157] Top shape: 1 2 3552 1 1 (7104)
I0418 04:25:56.132910 23652 net.cpp:165] Memory required for data: 10172546384
I0418 04:25:56.132912 23652 layer_factory.hpp:77] Creating layer rpn_cls_prob_reshape
I0418 04:25:56.132920 23652 net.cpp:100] Creating Layer rpn_cls_prob_reshape
I0418 04:25:56.132922 23652 net.cpp:434] rpn_cls_prob_reshape <- rpn_cls_prob
I0418 04:25:56.132928 23652 net.cpp:408] rpn_cls_prob_reshape -> rpn_cls_prob_reshape
I0418 04:25:56.132953 23652 net.cpp:150] Setting up rpn_cls_prob_reshape
I0418 04:25:56.132961 23652 net.cpp:157] Top shape: 1 74 96 1 1 (7104)
I0418 04:25:56.132963 23652 net.cpp:165] Memory required for data: 10172574800
I0418 04:25:56.132967 23652 layer_factory.hpp:77] Creating layer proposal
I0418 04:25:56.133507 23652 net.cpp:100] Creating Layer proposal
I0418 04:25:56.133519 23652 net.cpp:434] proposal <- rpn_cls_prob_reshape
I0418 04:25:56.133525 23652 net.cpp:434] proposal <- rpn_twin_pred_rpn_twin_pred_0_split_1
I0418 04:25:56.133530 23652 net.cpp:408] proposal -> rpn_rois
I0418 04:25:56.135686 23652 net.cpp:150] Setting up proposal
I0418 04:25:56.135701 23652 net.cpp:157] Top shape: 1 3 (3)
I0418 04:25:56.135705 23652 net.cpp:165] Memory required for data: 10172574812
I0418 04:25:56.135710 23652 layer_factory.hpp:77] Creating layer roi-data
I0418 04:25:56.135839 23652 net.cpp:100] Creating Layer roi-data
I0418 04:25:56.135850 23652 net.cpp:434] roi-data <- rpn_rois
I0418 04:25:56.135856 23652 net.cpp:434] roi-data <- gt_boxes_data_1_split_1
I0418 04:25:56.135864 23652 net.cpp:408] roi-data -> rois
I0418 04:25:56.135871 23652 net.cpp:408] roi-data -> labels
I0418 04:25:56.135877 23652 net.cpp:408] roi-data -> twin_targets
I0418 04:25:56.135884 23652 net.cpp:408] roi-data -> twin_inside_weights
I0418 04:25:56.135888 23652 net.cpp:408] roi-data -> twin_outside_weights
I0418 04:25:56.136188 23652 net.cpp:150] Setting up roi-data
I0418 04:25:56.136201 23652 net.cpp:157] Top shape: 1 3 (3)
I0418 04:25:56.136205 23652 net.cpp:157] Top shape: 1 1 (1)
I0418 04:25:56.136209 23652 net.cpp:157] Top shape: 1 198 (198)
I0418 04:25:56.136214 23652 net.cpp:157] Top shape: 1 198 (198)
I0418 04:25:56.136217 23652 net.cpp:157] Top shape: 1 198 (198)
I0418 04:25:56.136220 23652 net.cpp:165] Memory required for data: 10172577204
I0418 04:25:56.136224 23652 layer_factory.hpp:77] Creating layer labels_roi-data_1_split
I0418 04:25:56.136230 23652 net.cpp:100] Creating Layer labels_roi-data_1_split
I0418 04:25:56.136234 23652 net.cpp:434] labels_roi-data_1_split <- labels
I0418 04:25:56.136240 23652 net.cpp:408] labels_roi-data_1_split -> labels_roi-data_1_split_0
I0418 04:25:56.136245 23652 net.cpp:408] labels_roi-data_1_split -> labels_roi-data_1_split_1
I0418 04:25:56.136276 23652 net.cpp:150] Setting up labels_roi-data_1_split
I0418 04:25:56.136283 23652 net.cpp:157] Top shape: 1 1 (1)
I0418 04:25:56.136288 23652 net.cpp:157] Top shape: 1 1 (1)
I0418 04:25:56.136291 23652 net.cpp:165] Memory required for data: 10172577212
I0418 04:25:56.136294 23652 layer_factory.hpp:77] Creating layer roi_pool5
I0418 04:25:56.136303 23652 net.cpp:100] Creating Layer roi_pool5
I0418 04:25:56.136308 23652 net.cpp:434] roi_pool5 <- conv5b_relu5b_0_split_1
I0418 04:25:56.136312 23652 net.cpp:434] roi_pool5 <- rois
I0418 04:25:56.136317 23652 net.cpp:408] roi_pool5 -> pool5
I0418 04:25:56.136325 23652 roi_pooling_layer.cpp:34] Temporal scale: 0.125
I0418 04:25:56.136334 23652 roi_pooling_layer.cpp:35] Spatial scale: 0.0625
I0418 04:25:56.136368 23652 net.cpp:150] Setting up roi_pool5
I0418 04:25:56.136374 23652 net.cpp:157] Top shape: 1 512 1 4 4 (8192)
I0418 04:25:56.136378 23652 net.cpp:165] Memory required for data: 10172609980
I0418 04:25:56.136381 23652 layer_factory.hpp:77] Creating layer fc6
I0418 04:25:56.136389 23652 net.cpp:100] Creating Layer fc6
I0418 04:25:56.136395 23652 net.cpp:434] fc6 <- pool5
I0418 04:25:56.136400 23652 net.cpp:408] fc6 -> fc6
I0418 04:25:57.013166 23652 net.cpp:150] Setting up fc6
I0418 04:25:57.013190 23652 net.cpp:157] Top shape: 1 4096 (4096)
I0418 04:25:57.013195 23652 net.cpp:165] Memory required for data: 10172626364
I0418 04:25:57.013204 23652 layer_factory.hpp:77] Creating layer relu6
I0418 04:25:57.013216 23652 net.cpp:100] Creating Layer relu6
I0418 04:25:57.013221 23652 net.cpp:434] relu6 <- fc6
I0418 04:25:57.013227 23652 net.cpp:395] relu6 -> fc6 (in-place)
I0418 04:25:57.013849 23652 net.cpp:150] Setting up relu6
I0418 04:25:57.013867 23652 net.cpp:157] Top shape: 1 4096 (4096)
I0418 04:25:57.013873 23652 net.cpp:165] Memory required for data: 10172642748
I0418 04:25:57.013880 23652 layer_factory.hpp:77] Creating layer drop6
I0418 04:25:57.013895 23652 net.cpp:100] Creating Layer drop6
I0418 04:25:57.013901 23652 net.cpp:434] drop6 <- fc6
I0418 04:25:57.013909 23652 net.cpp:395] drop6 -> fc6 (in-place)
I0418 04:25:57.013952 23652 net.cpp:150] Setting up drop6
I0418 04:25:57.013964 23652 net.cpp:157] Top shape: 1 4096 (4096)
I0418 04:25:57.013970 23652 net.cpp:165] Memory required for data: 10172659132
I0418 04:25:57.013976 23652 layer_factory.hpp:77] Creating layer fc6_drop6_0_split
I0418 04:25:57.013984 23652 net.cpp:100] Creating Layer fc6_drop6_0_split
I0418 04:25:57.013990 23652 net.cpp:434] fc6_drop6_0_split <- fc6
I0418 04:25:57.014001 23652 net.cpp:408] fc6_drop6_0_split -> fc6_drop6_0_split_0
I0418 04:25:57.014011 23652 net.cpp:408] fc6_drop6_0_split -> fc6_drop6_0_split_1
I0418 04:25:57.014060 23652 net.cpp:150] Setting up fc6_drop6_0_split
I0418 04:25:57.014070 23652 net.cpp:157] Top shape: 1 4096 (4096)
I0418 04:25:57.014077 23652 net.cpp:157] Top shape: 1 4096 (4096)
I0418 04:25:57.014082 23652 net.cpp:165] Memory required for data: 10172691900
I0418 04:25:57.014088 23652 layer_factory.hpp:77] Creating layer cls_score
I0418 04:25:57.014099 23652 net.cpp:100] Creating Layer cls_score
I0418 04:25:57.014106 23652 net.cpp:434] cls_score <- fc6_drop6_0_split_0
I0418 04:25:57.014117 23652 net.cpp:408] cls_score -> cls_score
I0418 04:25:57.025418 23652 net.cpp:150] Setting up cls_score
I0418 04:25:57.025439 23652 net.cpp:157] Top shape: 1 99 (99)
I0418 04:25:57.025444 23652 net.cpp:165] Memory required for data: 10172692296
I0418 04:25:57.025456 23652 layer_factory.hpp:77] Creating layer cls_score_cls_score_0_split
I0418 04:25:57.025470 23652 net.cpp:100] Creating Layer cls_score_cls_score_0_split
I0418 04:25:57.025477 23652 net.cpp:434] cls_score_cls_score_0_split <- cls_score
I0418 04:25:57.025488 23652 net.cpp:408] cls_score_cls_score_0_split -> cls_score_cls_score_0_split_0
I0418 04:25:57.025499 23652 net.cpp:408] cls_score_cls_score_0_split -> cls_score_cls_score_0_split_1
I0418 04:25:57.025547 23652 net.cpp:150] Setting up cls_score_cls_score_0_split
I0418 04:25:57.025557 23652 net.cpp:157] Top shape: 1 99 (99)
I0418 04:25:57.025563 23652 net.cpp:157] Top shape: 1 99 (99)
I0418 04:25:57.025568 23652 net.cpp:165] Memory required for data: 10172693088
I0418 04:25:57.025573 23652 layer_factory.hpp:77] Creating layer twin_pred
I0418 04:25:57.025584 23652 net.cpp:100] Creating Layer twin_pred
I0418 04:25:57.025591 23652 net.cpp:434] twin_pred <- fc6_drop6_0_split_1
I0418 04:25:57.025604 23652 net.cpp:408] twin_pred -> twin_pred
I0418 04:25:57.047091 23652 net.cpp:150] Setting up twin_pred
I0418 04:25:57.047106 23652 net.cpp:157] Top shape: 1 198 (198)
I0418 04:25:57.047111 23652 net.cpp:165] Memory required for data: 10172693880
I0418 04:25:57.047122 23652 layer_factory.hpp:77] Creating layer loss_cls
I0418 04:25:57.047142 23652 net.cpp:100] Creating Layer loss_cls
I0418 04:25:57.047152 23652 net.cpp:434] loss_cls <- cls_score_cls_score_0_split_0
I0418 04:25:57.047160 23652 net.cpp:434] loss_cls <- labels_roi-data_1_split_0
I0418 04:25:57.047169 23652 net.cpp:408] loss_cls -> loss_cls
…
