…
stepsize: 350000
snapshot: 0
snapshot_prefix: "./experiments/activitynet/snapshot/activitynet"
average_loss: 100
iter_size: 1
I0418 03:40:50.447710 17746 solver.cpp:81] Creating training net from train_net file: ./experiments/activitynet/train.prototxt
I0418 03:40:50.448905 17746 net.cpp:58] Initializing net from parameters: 
name: "activitynet"
state {
  phase: TRAIN
}
layer {
  name: "data"
  type: "Python"
  top: "data"
  top: "gt_boxes"
  python_param {
    module: "roi_data_layer.layer"
    layer: "RoIDataLayer"
    param_str: "\'num_classes\': 100"
  }
}
layer {
  name: "conv1a"
  type: "Convolution"
  bottom: "data"
  top: "conv1a"
  param {
    lr_mult: 0
    decay_mult: 0
  }
  param {
    lr_mult: 0
    decay_mult: 0
  }
  convolution_param {
    num_output: 64
    pad: 1
    pad: 1
    pad: 1
    kernel_size: 3
    kernel_size: 3
    kernel_size: 3
    weight_filler {
      type: "gaussian"
      std: 0.01
    }
    bias_filler {
      type: "constant"
      value: 0
    }
  }
}
layer {
  name: "relu1a"
  type: "ReLU"
  bottom: "conv1a"
  top: "conv1a"
}
layer {
  name: "pool1"
  type: "Pooling"
  bottom: "conv1a"
  top: "pool1"
  pooling_param {
    pool: MAX
    kernel_size: 1
    kernel_size: 2
    kernel_size: 2
    stride: 1
    stride: 2
    stride: 2
  }
}
layer {
  name: "conv2a"
  type: "Convolution"
  bottom: "pool1"
  top: "conv2a"
  param {
    lr_mult: 0
    decay_mult: 0
  }
  param {
    lr_mult: 0
    decay_mult: 0
  }
  convolution_param {
    num_output: 128
    pad: 1
    pad: 1
    pad: 1
    kernel_size: 3
    kernel_size: 3
    kernel_size: 3
    weight_filler {
      type: "gaussian"
      std: 0.01
    }
    bias_filler {
      type: "constant"
      value: 1
    }
  }
}
layer {
  name: "relu2a"
  type: "ReLU"
  bottom: "conv2a"
  top: "conv2a"
}
layer {
  name: "pool2"
  type: "Pooling"
  bottom: "conv2a"
  top: "pool2"
  pooling_param {
    pool: MAX
    kernel_size: 2
    kernel_size: 2
    kernel_size: 2
    stride: 2
    stride: 2
    stride: 2
  }
}
layer {
  name: "conv3a"
  type: "Convolution"
  bottom: "pool2"
  top: "conv3a"
  param {
    lr_mult: 1
    decay_mult: 1
  }
  param {
    lr_mult: 2
    decay_mult: 0
  }
  convolution_param {
    num_output: 256
    pad: 1
    pad: 1
    pad: 1
    kernel_size: 3
    kernel_size: 3
    kernel_size: 3
    weight_filler {
      type: "gaussian"
      std: 0.01
    }
    bias_filler {
      type: "constant"
      value: 1
    }
  }
}
layer {
  name: "relu3a"
  type: "ReLU"
  bottom: "conv3a"
  top: "conv3a"
}
layer {
  name: "conv3b"
  type: "Convolution"
  bottom: "conv3a"
  top: "conv3b"
  param {
    lr_mult: 1
    decay_mult: 1
  }
  param {
    lr_mult: 2
    decay_mult: 0
  }
  convolution_param {
    num_output: 256
    pad: 1
    pad: 1
    pad: 1
    kernel_size: 3
    kernel_size: 3
    kernel_size: 3
    weight_filler {
      type: "gaussian"
      std: 0.01
    }
    bias_filler {
      type: "constant"
      value: 1
    }
  }
}
layer {
  name: "relu3b"
  type: "ReLU"
  bottom: "conv3b"
  top: "conv3b"
}
layer {
  name: "pool3"
  type: "Pooling"
  bottom: "conv3b"
  top: "pool3"
  pooling_param {
    pool: MAX
    kernel_size: 2
    kernel_size: 2
    kernel_size: 2
    stride: 2
    stride: 2
    stride: 2
  }
}
layer {
  name: "conv4a"
  type: "Convolution"
  bottom: "pool3"
  top: "conv4a"
  param {
    lr_mult: 1
    decay_mult: 1
  }
  param {
    lr_mult: 2
    decay_mult: 0
  }
  convolution_param {
    num_output: 512
    pad: 1
    pad: 1
    pad: 1
    kernel_size: 3
    kernel_size: 3
    kernel_size: 3
    weight_filler {
      type: "gaussian"
      std: 0.01
    }
    bias_filler {
      type: "constant"
      value: 1
    }
  }
}
layer {
  name: "relu4a"
  type: "ReLU"
  bottom: "conv4a"
  top: "conv4a"
}
layer {
  name: "conv4b"
  type: "Convolution"
  bottom: "conv4a"
  top: "conv4b"
  param {
    lr_mult: 1
    decay_mult: 1
  }
  param {
    lr_mult: 2
    decay_mult: 0
  }
  convolution_param {
    num_output: 512
    pad: 1
    pad: 1
    pad: 1
    kernel_size: 3
    kernel_size: 3
    kernel_size: 3
    weight_filler {
      type: "gaussian"
      std: 0.01
    }
    bias_filler {
      type: "constant"
      value: 1
    }
  }
}
layer {
  name: "relu4b"
  type: "ReLU"
  bottom: "conv4b"
  top: "conv4b"
}
layer {
  name: "pool4"
  type: "Pooling"
  bottom: "conv4b"
  top: "pool4"
  pooling_param {
    pool: MAX
    kernel_size: 2
    kernel_size: 2
    kernel_size: 2
    stride: 2
    stride: 2
    stride: 2
  }
}
layer {
  name: "conv5a"
  type: "Convolution"
  bottom: "pool4"
  top: "conv5a"
  param {
    lr_mult: 1
    decay_mult: 1
  }
  param {
    lr_mult: 2
    decay_mult: 0
  }
  convolution_param {
    num_output: 512
    pad: 1
    pad: 1
    pad: 1
    kernel_size: 3
    kernel_size: 3
    kernel_size: 3
    weight_filler {
      type: "gaussian"
      std: 0.01
    }
    bias_filler {
      type: "constant"
      value: 1
    }
  }
}
layer {
  name: "relu5a"
  type: "ReLU"
  bottom: "conv5a"
  top: "conv5a"
}
layer {
  name: "conv5b"
  type: "Convolution"
  bottom: "conv5a"
  top: "conv5b"
  param {
    lr_mult: 1
    decay_mult: 1
  }
  param {
    lr_mult: 2
    decay_mult: 0
  }
  convolution_param {
    num_output: 512
    pad: 1
    pad: 1
    pad: 1
    kernel_size: 3
    kernel_size: 3
    kernel_size: 3
    weight_filler {
      type: "gaussian"
      std: 0.01
    }
    bias_filler {
      type: "constant"
      value: 1
    }
  }
}
layer {
  name: "relu5b"
  type: "ReLU"
  bottom: "conv5b"
  top: "conv5b"
}
layer {
  name: "rpn_conv/3x3"
  type: "Convolution"
  bottom: "conv5b"
  top: "rpn/output"
  param {
    lr_mult: 1
    decay_mult: 1
  }
  param {
    lr_mult: 2
    decay_mult: 0
  }
  convolution_param {
    num_output: 512
    pad: 1
    pad: 1
    pad: 1
    kernel_size: 3
    kernel_size: 3
    kernel_size: 3
    stride: 1
    stride: 2
    stride: 2
    weight_filler {
      type: "gaussian"
      std: 0.01
    }
    bias_filler {
      type: "constant"
      value: 0
    }
  }
}
layer {
  name: "rpn_relu/3x3"
  type: "ReLU"
  bottom: "rpn/output"
  top: "rpn/output"
}
layer {
  name: "rpn_conv/3x3_2"
  type: "Convolution"
  bottom: "rpn/output"
  top: "rpn/output_2"
  param {
    lr_mult: 1
    decay_mult: 1
  }
  param {
    lr_mult: 2
    decay_mult: 0
  }
  convolution_param {
    num_output: 512
    pad: 1
    pad: 1
    pad: 1
    kernel_size: 3
    kernel_size: 3
    kernel_size: 3
    stride: 1
    stride: 2
    stride: 2
    weight_filler {
      type: "gaussian"
      std: 0.01
    }
    bias_filler {
      type: "constant"
      value: 0
    }
  }
}
layer {
  name: "rpn_relu/3x3_2"
  type: "ReLU"
  bottom: "rpn/output_2"
  top: "rpn/output_2"
}
layer {
  name: "rpn/output_pool"
  type: "Pooling"
  bottom: "rpn/output_2"
  top: "rpn/output_pool"
  pooling_param {
    pool: MAX
    kernel_size: 1
    kernel_size: 2
    kernel_size: 2
  }
}
layer {
  name: "rpn_cls_score"
  type: "Convolution"
  bottom: "rpn/output_pool"
  top: "rpn_cls_score"
  param {
    lr_mult: 1
    decay_mult: 1
  }
  param {
    lr_mult: 2
    decay_mult: 0
  }
  convolution_param {
    num_output: 74
    kernel_size: 1
    kernel_size: 1
    kernel_size: 1
    weight_filler {
      type: "gaussian"
      std: 0.01
    }
    bias_filler {
      type: "constant"
      value: 0
    }
  }
}
layer {
  name: "rpn_twin_pred"
  type: "Convolution"
  bottom: "rpn/output_pool"
  top: "rpn_twin_pred"
  param {
    lr_mult: 1
    decay_mult: 1
  }
  param {
    lr_mult: 2
    decay_mult: 0
  }
  convolution_param {
    num_output: 74
    kernel_size: 1
    kernel_size: 1
    kernel_size: 1
    weight_filler {
      type: "gaussian"
      std: 0.01
    }
    bias_filler {
      type: "constant"
      value: 0
    }
  }
}
layer {
  name: "rpn_cls_score_reshape"
  type: "Reshape"
  bottom: "rpn_cls_score"
  top: "rpn_cls_score_reshape"
  reshape_param {
    shape {
      dim: 0
      dim: 2
      dim: -1
      dim: 0
      dim: 0
    }
  }
}
layer {
  name: "rpn-data"
  type: "Python"
  bottom: "rpn_cls_score"
  bottom: "gt_boxes"
  bottom: "data"
  top: "rpn_labels"
  top: "rpn_twin_targets"
  top: "rpn_twin_inside_weights"
  top: "rpn_twin_outside_weights"
  python_param {
    module: "rpn.anchor_target_layer"
    layer: "AnchorTargetLayer"
    param_str: "\'feat_stride\': 8 \n\'scales\': !!python/tuple [1,1.25, 1.5,1.75, 2,2.5, 3,3.5, 4,4.5, 5,5.5, 6,7, 8,9,10,11,12,14,16,18,20,22,24,28,32,36,40,44,52,60,68,76,84,92,100]"
  }
}
layer {
  name: "rpn_loss_cls"
  type: "SoftmaxWithLoss"
  bottom: "rpn_cls_score_reshape"
  bottom: "rpn_labels"
  top: "rpn_cls_loss"
  loss_weight: 1
  propagate_down: true
  propagate_down: false
  loss_param {
    ignore_label: -1
    normalize: true
  }
}
layer {
  name: "rpn_loss_twin"
  type: "SmoothL1Loss"
  bottom: "rpn_twin_pred"
  bottom: "rpn_twin_targets"
  bottom: "rpn_twin_inside_weights"
  bottom: "rpn_twin_outside_weights"
  top: "rpn_loss_twin"
  loss_weight: 1
  smooth_l1_loss_param {
    sigma: 3
  }
}
layer {
  name: "rpn_accuarcy"
  type: "Accuracy"
  bottom: "rpn_cls_score_reshape"
  bottom: "rpn_labels"
  top: "rpn_accuarcy"
  top: "rpn_accuarcy_class"
  propagate_down: false
  propagate_down: false
  accuracy_param {
    ignore_label: -1
  }
}
layer {
  name: "rpn_cls_prob"
  type: "Softmax"
  bottom: "rpn_cls_score_reshape"
  top: "rpn_cls_prob"
}
layer {
  name: "rpn_cls_prob_reshape"
  type: "Reshape"
  bottom: "rpn_cls_prob"
  top: "rpn_cls_prob_reshape"
  reshape_param {
    shape {
      dim: 0
      dim: 74
      dim: -1
      dim: 0
      dim: 0
    }
  }
}
layer {
  name: "proposal"
  type: "Python"
  bottom: "rpn_cls_prob_reshape"
  bottom: "rpn_twin_pred"
  top: "rpn_rois"
  include {
    phase: TRAIN
  }
  python_param {
    module: "rpn.proposal_layer"
    layer: "ProposalLayer"
    param_str: "\'feat_stride\': 8 \n\'scales\': !!python/tuple [1,1.25, 1.5,1.75, 2,2.5, 3,3.5, 4,4.5, 5,5.5, 6,7, 8,9,10,11,12,14,16,18,20,22,24,28,32,36,40,44,52,60,68,76,84,92,100]"
  }
}
layer {
  name: "roi-data"
  type: "Python"
  bottom: "rpn_rois"
  bottom: "gt_boxes"
  top: "rois"
  top: "labels"
  top: "twin_targets"
  top: "twin_inside_weights"
  top: "twin_outside_weights"
  python_param {
    module: "rpn.proposal_target_layer"
    layer: "ProposalTargetLayer"
    param_str: "\'num_classes\': 201"
  }
}
layer {
  name: "roi_pool5"
  type: "ROIPooling"
  bottom: "conv5b"
  bottom: "rois"
  top: "pool5"
  roi_pooling_param {
    pooled_h: 4
    pooled_w: 4
    spatial_scale: 0.0625
    pooled_l: 1
    temporal_scale: 0.125
  }
}
layer {
  name: "fc6"
  type: "InnerProduct"
  bottom: "pool5"
  top: "fc6"
  param {
    lr_mult: 1
    decay_mult: 1
  }
  param {
    lr_mult: 2
    decay_mult: 0
  }
  inner_product_param {
    num_output: 4096
    weight_filler {
      type: "gaussian"
      std: 0.005
    }
    bias_filler {
      type: "constant"
      value: 1
    }
  }
}
layer {
  name: "relu6"
  type: "ReLU"
  bottom: "fc6"
  top: "fc6"
}
layer {
  name: "drop6"
  type: "Dropout"
  bottom: "fc6"
  top: "fc6"
  dropout_param {
    dropout_ratio: 0.5
  }
}
layer {
  name: "cls_score"
  type: "InnerProduct"
  bottom: "fc6"
  top: "cls_score"
  param {
    lr_mult: 1
    decay_mult: 1
  }
  param {
    lr_mult: 2
    decay_mult: 0
  }
  inner_product_param {
    num_output: 201
    weight_filler {
      type: "gaussian"
      std: 0.01
    }
    bias_filler {
      type: "constant"
      value: 0
    }
  }
}
layer {
  name: "twin_pred"
  type: "InnerProduct"
  bottom: "fc6"
  top: "twin_pred"
  param {
    lr_mult: 1
    decay_mult: 1
  }
  param {
    lr_mult: 2
    decay_mult: 0
  }
  inner_product_param {
    num_output: 402
    weight_filler {
      type: "gaussian"
      std: 0.001
    }
    bias_filler {
      type: "constant"
      value: 0
    }
  }
}
layer {
  name: "loss_cls"
  type: "SoftmaxWithLoss"
  bottom: "cls_score"
  bottom: "labels"
  top: "loss_cls"
  loss_weight: 1
  propagate_down: true
  propagate_down: false
}
layer {
  name: "loss_twin"
  type: "SmoothL1Loss"
  bottom: "twin_pred"
  bottom: "twin_targets"
  bottom: "twin_inside_weights"
  bottom: "twin_outside_weights"
  top: "loss_twin"
  loss_weight: 1
}
layer {
  name: "accuarcy"
  type: "Accuracy"
  bottom: "cls_score"
  bottom: "labels"
  top: "accuarcy"
  propagate_down: false
  propagate_down: false
  accuracy_param {
    ignore_label: -1
  }
}
I0418 03:40:50.449131 17746 layer_factory.hpp:77] Creating layer data
I0418 03:40:50.475813 17746 net.cpp:100] Creating Layer data
I0418 03:40:50.475841 17746 net.cpp:408] data -> data
I0418 03:40:50.475854 17746 net.cpp:408] data -> gt_boxes
setting up
has rpn
RoiDataLayer: name_to_top: {'gt_windows': 1, 'data': 0}
I0418 03:40:50.510622 17746 net.cpp:150] Setting up data
I0418 03:40:50.510648 17746 net.cpp:157] Top shape: 1 3 768 112 112 (28901376)
I0418 03:40:50.510654 17746 net.cpp:157] Top shape: 1 101 (101)
I0418 03:40:50.510658 17746 net.cpp:165] Memory required for data: 115605908
I0418 03:40:50.510664 17746 layer_factory.hpp:77] Creating layer data_data_0_split
I0418 03:40:50.510677 17746 net.cpp:100] Creating Layer data_data_0_split
I0418 03:40:50.510681 17746 net.cpp:434] data_data_0_split <- data
I0418 03:40:50.510690 17746 net.cpp:408] data_data_0_split -> data_data_0_split_0
I0418 03:40:50.510701 17746 net.cpp:408] data_data_0_split -> data_data_0_split_1
I0418 03:40:50.510735 17746 net.cpp:150] Setting up data_data_0_split
I0418 03:40:50.510743 17746 net.cpp:157] Top shape: 1 3 768 112 112 (28901376)
I0418 03:40:50.510747 17746 net.cpp:157] Top shape: 1 3 768 112 112 (28901376)
I0418 03:40:50.510751 17746 net.cpp:165] Memory required for data: 346816916
I0418 03:40:50.510754 17746 layer_factory.hpp:77] Creating layer gt_boxes_data_1_split
I0418 03:40:50.510759 17746 net.cpp:100] Creating Layer gt_boxes_data_1_split
I0418 03:40:50.510784 17746 net.cpp:434] gt_boxes_data_1_split <- gt_boxes
I0418 03:40:50.510792 17746 net.cpp:408] gt_boxes_data_1_split -> gt_boxes_data_1_split_0
I0418 03:40:50.510797 17746 net.cpp:408] gt_boxes_data_1_split -> gt_boxes_data_1_split_1
I0418 03:40:50.510824 17746 net.cpp:150] Setting up gt_boxes_data_1_split
I0418 03:40:50.510831 17746 net.cpp:157] Top shape: 1 101 (101)
I0418 03:40:50.510835 17746 net.cpp:157] Top shape: 1 101 (101)
I0418 03:40:50.510838 17746 net.cpp:165] Memory required for data: 346817724
I0418 03:40:50.510843 17746 layer_factory.hpp:77] Creating layer conv1a
I0418 03:40:50.510857 17746 net.cpp:100] Creating Layer conv1a
I0418 03:40:50.510861 17746 net.cpp:434] conv1a <- data_data_0_split_0
I0418 03:40:50.510866 17746 net.cpp:408] conv1a -> conv1a
I0418 03:40:50.795652 17746 net.cpp:150] Setting up conv1a
I0418 03:40:50.795689 17746 net.cpp:157] Top shape: 1 64 768 112 112 (616562688)
I0418 03:40:50.795693 17746 net.cpp:165] Memory required for data: 2813068476
I0418 03:40:50.795712 17746 layer_factory.hpp:77] Creating layer relu1a
I0418 03:40:50.795728 17746 net.cpp:100] Creating Layer relu1a
I0418 03:40:50.795733 17746 net.cpp:434] relu1a <- conv1a
I0418 03:40:50.795740 17746 net.cpp:395] relu1a -> conv1a (in-place)
I0418 03:40:50.796247 17746 net.cpp:150] Setting up relu1a
I0418 03:40:50.796262 17746 net.cpp:157] Top shape: 1 64 768 112 112 (616562688)
I0418 03:40:50.796265 17746 net.cpp:165] Memory required for data: 5279319228
I0418 03:40:50.796269 17746 layer_factory.hpp:77] Creating layer pool1
I0418 03:40:50.796280 17746 net.cpp:100] Creating Layer pool1
I0418 03:40:50.796284 17746 net.cpp:434] pool1 <- conv1a
I0418 03:40:50.796290 17746 net.cpp:408] pool1 -> pool1
I0418 03:40:50.797011 17746 net.cpp:150] Setting up pool1
I0418 03:40:50.797024 17746 net.cpp:157] Top shape: 1 64 768 56 56 (154140672)
I0418 03:40:50.797026 17746 net.cpp:165] Memory required for data: 5895881916
I0418 03:40:50.797030 17746 layer_factory.hpp:77] Creating layer conv2a
I0418 03:40:50.797042 17746 net.cpp:100] Creating Layer conv2a
I0418 03:40:50.797046 17746 net.cpp:434] conv2a <- pool1
I0418 03:40:50.797052 17746 net.cpp:408] conv2a -> conv2a
I0418 03:40:50.809264 17746 net.cpp:150] Setting up conv2a
I0418 03:40:50.809289 17746 net.cpp:157] Top shape: 1 128 768 56 56 (308281344)
I0418 03:40:50.809293 17746 net.cpp:165] Memory required for data: 7129007292
I0418 03:40:50.809305 17746 layer_factory.hpp:77] Creating layer relu2a
I0418 03:40:50.809314 17746 net.cpp:100] Creating Layer relu2a
I0418 03:40:50.809319 17746 net.cpp:434] relu2a <- conv2a
I0418 03:40:50.809324 17746 net.cpp:395] relu2a -> conv2a (in-place)
I0418 03:40:50.809674 17746 net.cpp:150] Setting up relu2a
I0418 03:40:50.809687 17746 net.cpp:157] Top shape: 1 128 768 56 56 (308281344)
I0418 03:40:50.809691 17746 net.cpp:165] Memory required for data: 8362132668
I0418 03:40:50.809695 17746 layer_factory.hpp:77] Creating layer pool2
I0418 03:40:50.809705 17746 net.cpp:100] Creating Layer pool2
I0418 03:40:50.809708 17746 net.cpp:434] pool2 <- conv2a
I0418 03:40:50.809715 17746 net.cpp:408] pool2 -> pool2
I0418 03:40:50.810665 17746 net.cpp:150] Setting up pool2
I0418 03:40:50.810678 17746 net.cpp:157] Top shape: 1 128 384 28 28 (38535168)
I0418 03:40:50.810683 17746 net.cpp:165] Memory required for data: 8516273340
I0418 03:40:50.810688 17746 layer_factory.hpp:77] Creating layer conv3a
I0418 03:40:50.810698 17746 net.cpp:100] Creating Layer conv3a
I0418 03:40:50.810701 17746 net.cpp:434] conv3a <- pool2
I0418 03:40:50.810708 17746 net.cpp:408] conv3a -> conv3a
I0418 03:40:50.839313 17746 net.cpp:150] Setting up conv3a
I0418 03:40:50.839339 17746 net.cpp:157] Top shape: 1 256 384 28 28 (77070336)
I0418 03:40:50.839342 17746 net.cpp:165] Memory required for data: 8824554684
I0418 03:40:50.839356 17746 layer_factory.hpp:77] Creating layer relu3a
I0418 03:40:50.839366 17746 net.cpp:100] Creating Layer relu3a
I0418 03:40:50.839372 17746 net.cpp:434] relu3a <- conv3a
I0418 03:40:50.839378 17746 net.cpp:395] relu3a -> conv3a (in-place)
I0418 03:40:50.840287 17746 net.cpp:150] Setting up relu3a
I0418 03:40:50.840303 17746 net.cpp:157] Top shape: 1 256 384 28 28 (77070336)
I0418 03:40:50.840307 17746 net.cpp:165] Memory required for data: 9132836028
I0418 03:40:50.840312 17746 layer_factory.hpp:77] Creating layer conv3b
I0418 03:40:50.840323 17746 net.cpp:100] Creating Layer conv3b
I0418 03:40:50.840328 17746 net.cpp:434] conv3b <- conv3a
I0418 03:40:50.840335 17746 net.cpp:408] conv3b -> conv3b
I0418 03:40:50.900887 17746 net.cpp:150] Setting up conv3b
I0418 03:40:50.900914 17746 net.cpp:157] Top shape: 1 256 384 28 28 (77070336)
I0418 03:40:50.900919 17746 net.cpp:165] Memory required for data: 9441117372
I0418 03:40:50.900929 17746 layer_factory.hpp:77] Creating layer relu3b
I0418 03:40:50.900940 17746 net.cpp:100] Creating Layer relu3b
I0418 03:40:50.900946 17746 net.cpp:434] relu3b <- conv3b
I0418 03:40:50.900954 17746 net.cpp:395] relu3b -> conv3b (in-place)
I0418 03:40:50.901295 17746 net.cpp:150] Setting up relu3b
I0418 03:40:50.901309 17746 net.cpp:157] Top shape: 1 256 384 28 28 (77070336)
I0418 03:40:50.901314 17746 net.cpp:165] Memory required for data: 9749398716
I0418 03:40:50.901319 17746 layer_factory.hpp:77] Creating layer pool3
I0418 03:40:50.901326 17746 net.cpp:100] Creating Layer pool3
I0418 03:40:50.901330 17746 net.cpp:434] pool3 <- conv3b
I0418 03:40:50.901336 17746 net.cpp:408] pool3 -> pool3
I0418 03:40:50.902313 17746 net.cpp:150] Setting up pool3
I0418 03:40:50.902326 17746 net.cpp:157] Top shape: 1 256 192 14 14 (9633792)
I0418 03:40:50.902330 17746 net.cpp:165] Memory required for data: 9787933884
I0418 03:40:50.902334 17746 layer_factory.hpp:77] Creating layer conv4a
I0418 03:40:50.902345 17746 net.cpp:100] Creating Layer conv4a
I0418 03:40:50.902350 17746 net.cpp:434] conv4a <- pool3
I0418 03:40:50.902356 17746 net.cpp:408] conv4a -> conv4a
I0418 03:40:51.000995 17746 net.cpp:150] Setting up conv4a
I0418 03:40:51.001022 17746 net.cpp:157] Top shape: 1 512 192 14 14 (19267584)
I0418 03:40:51.001026 17746 net.cpp:165] Memory required for data: 9865004220
I0418 03:40:51.001040 17746 layer_factory.hpp:77] Creating layer relu4a
I0418 03:40:51.001050 17746 net.cpp:100] Creating Layer relu4a
I0418 03:40:51.001055 17746 net.cpp:434] relu4a <- conv4a
I0418 03:40:51.001060 17746 net.cpp:395] relu4a -> conv4a (in-place)
I0418 03:40:51.001415 17746 net.cpp:150] Setting up relu4a
I0418 03:40:51.001428 17746 net.cpp:157] Top shape: 1 512 192 14 14 (19267584)
I0418 03:40:51.001432 17746 net.cpp:165] Memory required for data: 9942074556
I0418 03:40:51.001435 17746 layer_factory.hpp:77] Creating layer conv4b
I0418 03:40:51.001451 17746 net.cpp:100] Creating Layer conv4b
I0418 03:40:51.001456 17746 net.cpp:434] conv4b <- conv4a
I0418 03:40:51.001462 17746 net.cpp:408] conv4b -> conv4b
I0418 03:40:51.191534 17746 net.cpp:150] Setting up conv4b
I0418 03:40:51.191560 17746 net.cpp:157] Top shape: 1 512 192 14 14 (19267584)
I0418 03:40:51.191563 17746 net.cpp:165] Memory required for data: 10019144892
I0418 03:40:51.191572 17746 layer_factory.hpp:77] Creating layer relu4b
I0418 03:40:51.191582 17746 net.cpp:100] Creating Layer relu4b
I0418 03:40:51.191586 17746 net.cpp:434] relu4b <- conv4b
I0418 03:40:51.191592 17746 net.cpp:395] relu4b -> conv4b (in-place)
I0418 03:40:51.191743 17746 net.cpp:150] Setting up relu4b
I0418 03:40:51.191754 17746 net.cpp:157] Top shape: 1 512 192 14 14 (19267584)
I0418 03:40:51.191759 17746 net.cpp:165] Memory required for data: 10096215228
I0418 03:40:51.191763 17746 layer_factory.hpp:77] Creating layer pool4
I0418 03:40:51.191769 17746 net.cpp:100] Creating Layer pool4
I0418 03:40:51.191772 17746 net.cpp:434] pool4 <- conv4b
I0418 03:40:51.191778 17746 net.cpp:408] pool4 -> pool4
I0418 03:40:51.192126 17746 net.cpp:150] Setting up pool4
I0418 03:40:51.192138 17746 net.cpp:157] Top shape: 1 512 96 7 7 (2408448)
I0418 03:40:51.192142 17746 net.cpp:165] Memory required for data: 10105849020
I0418 03:40:51.192145 17746 layer_factory.hpp:77] Creating layer conv5a
I0418 03:40:51.192157 17746 net.cpp:100] Creating Layer conv5a
I0418 03:40:51.192162 17746 net.cpp:434] conv5a <- pool4
I0418 03:40:51.192167 17746 net.cpp:408] conv5a -> conv5a
I0418 03:40:51.378854 17746 net.cpp:150] Setting up conv5a
I0418 03:40:51.378877 17746 net.cpp:157] Top shape: 1 512 96 7 7 (2408448)
I0418 03:40:51.378882 17746 net.cpp:165] Memory required for data: 10115482812
I0418 03:40:51.378891 17746 layer_factory.hpp:77] Creating layer relu5a
I0418 03:40:51.378902 17746 net.cpp:100] Creating Layer relu5a
I0418 03:40:51.378906 17746 net.cpp:434] relu5a <- conv5a
I0418 03:40:51.378912 17746 net.cpp:395] relu5a -> conv5a (in-place)
I0418 03:40:51.379395 17746 net.cpp:150] Setting up relu5a
I0418 03:40:51.379407 17746 net.cpp:157] Top shape: 1 512 96 7 7 (2408448)
I0418 03:40:51.379411 17746 net.cpp:165] Memory required for data: 10125116604
I0418 03:40:51.379415 17746 layer_factory.hpp:77] Creating layer conv5b
I0418 03:40:51.379426 17746 net.cpp:100] Creating Layer conv5b
I0418 03:40:51.379429 17746 net.cpp:434] conv5b <- conv5a
I0418 03:40:51.379437 17746 net.cpp:408] conv5b -> conv5b
I0418 03:40:51.566031 17746 net.cpp:150] Setting up conv5b
I0418 03:40:51.566061 17746 net.cpp:157] Top shape: 1 512 96 7 7 (2408448)
I0418 03:40:51.566064 17746 net.cpp:165] Memory required for data: 10134750396
I0418 03:40:51.566073 17746 layer_factory.hpp:77] Creating layer relu5b
I0418 03:40:51.566082 17746 net.cpp:100] Creating Layer relu5b
I0418 03:40:51.566087 17746 net.cpp:434] relu5b <- conv5b
I0418 03:40:51.566093 17746 net.cpp:395] relu5b -> conv5b (in-place)
I0418 03:40:51.566238 17746 net.cpp:150] Setting up relu5b
I0418 03:40:51.566249 17746 net.cpp:157] Top shape: 1 512 96 7 7 (2408448)
I0418 03:40:51.566252 17746 net.cpp:165] Memory required for data: 10144384188
I0418 03:40:51.566256 17746 layer_factory.hpp:77] Creating layer conv5b_relu5b_0_split
I0418 03:40:51.566262 17746 net.cpp:100] Creating Layer conv5b_relu5b_0_split
I0418 03:40:51.566264 17746 net.cpp:434] conv5b_relu5b_0_split <- conv5b
I0418 03:40:51.566269 17746 net.cpp:408] conv5b_relu5b_0_split -> conv5b_relu5b_0_split_0
I0418 03:40:51.566275 17746 net.cpp:408] conv5b_relu5b_0_split -> conv5b_relu5b_0_split_1
I0418 03:40:51.566313 17746 net.cpp:150] Setting up conv5b_relu5b_0_split
I0418 03:40:51.566320 17746 net.cpp:157] Top shape: 1 512 96 7 7 (2408448)
I0418 03:40:51.566324 17746 net.cpp:157] Top shape: 1 512 96 7 7 (2408448)
I0418 03:40:51.566328 17746 net.cpp:165] Memory required for data: 10163651772
I0418 03:40:51.566330 17746 layer_factory.hpp:77] Creating layer rpn_conv/3x3
I0418 03:40:51.566342 17746 net.cpp:100] Creating Layer rpn_conv/3x3
I0418 03:40:51.566346 17746 net.cpp:434] rpn_conv/3x3 <- conv5b_relu5b_0_split_0
I0418 03:40:51.566354 17746 net.cpp:408] rpn_conv/3x3 -> rpn/output
I0418 03:40:51.760977 17746 net.cpp:150] Setting up rpn_conv/3x3
I0418 03:40:51.761000 17746 net.cpp:157] Top shape: 1 512 96 4 4 (786432)
I0418 03:40:51.761003 17746 net.cpp:165] Memory required for data: 10166797500
I0418 03:40:51.761018 17746 layer_factory.hpp:77] Creating layer rpn_relu/3x3
I0418 03:40:51.761027 17746 net.cpp:100] Creating Layer rpn_relu/3x3
I0418 03:40:51.761032 17746 net.cpp:434] rpn_relu/3x3 <- rpn/output
I0418 03:40:51.761039 17746 net.cpp:395] rpn_relu/3x3 -> rpn/output (in-place)
I0418 03:40:51.761977 17746 net.cpp:150] Setting up rpn_relu/3x3
I0418 03:40:51.761989 17746 net.cpp:157] Top shape: 1 512 96 4 4 (786432)
I0418 03:40:51.761993 17746 net.cpp:165] Memory required for data: 10169943228
I0418 03:40:51.761997 17746 layer_factory.hpp:77] Creating layer rpn_conv/3x3_2
I0418 03:40:51.762010 17746 net.cpp:100] Creating Layer rpn_conv/3x3_2
I0418 03:40:51.762015 17746 net.cpp:434] rpn_conv/3x3_2 <- rpn/output
I0418 03:40:51.762022 17746 net.cpp:408] rpn_conv/3x3_2 -> rpn/output_2
I0418 03:40:51.953997 17746 net.cpp:150] Setting up rpn_conv/3x3_2
I0418 03:40:51.954021 17746 net.cpp:157] Top shape: 1 512 96 2 2 (196608)
I0418 03:40:51.954025 17746 net.cpp:165] Memory required for data: 10170729660
I0418 03:40:51.954033 17746 layer_factory.hpp:77] Creating layer rpn_relu/3x3_2
I0418 03:40:51.954042 17746 net.cpp:100] Creating Layer rpn_relu/3x3_2
I0418 03:40:51.954047 17746 net.cpp:434] rpn_relu/3x3_2 <- rpn/output_2
I0418 03:40:51.954056 17746 net.cpp:395] rpn_relu/3x3_2 -> rpn/output_2 (in-place)
I0418 03:40:51.955284 17746 net.cpp:150] Setting up rpn_relu/3x3_2
I0418 03:40:51.955297 17746 net.cpp:157] Top shape: 1 512 96 2 2 (196608)
I0418 03:40:51.955302 17746 net.cpp:165] Memory required for data: 10171516092
I0418 03:40:51.955305 17746 layer_factory.hpp:77] Creating layer rpn/output_pool
I0418 03:40:51.955313 17746 net.cpp:100] Creating Layer rpn/output_pool
I0418 03:40:51.955317 17746 net.cpp:434] rpn/output_pool <- rpn/output_2
I0418 03:40:51.955323 17746 net.cpp:408] rpn/output_pool -> rpn/output_pool
I0418 03:40:51.960705 17746 net.cpp:150] Setting up rpn/output_pool
I0418 03:40:51.960718 17746 net.cpp:157] Top shape: 1 512 96 1 1 (49152)
I0418 03:40:51.960722 17746 net.cpp:165] Memory required for data: 10171712700
I0418 03:40:51.960726 17746 layer_factory.hpp:77] Creating layer rpn/output_pool_rpn/output_pool_0_split
I0418 03:40:51.960733 17746 net.cpp:100] Creating Layer rpn/output_pool_rpn/output_pool_0_split
I0418 03:40:51.960736 17746 net.cpp:434] rpn/output_pool_rpn/output_pool_0_split <- rpn/output_pool
I0418 03:40:51.960741 17746 net.cpp:408] rpn/output_pool_rpn/output_pool_0_split -> rpn/output_pool_rpn/output_pool_0_split_0
I0418 03:40:51.960747 17746 net.cpp:408] rpn/output_pool_rpn/output_pool_0_split -> rpn/output_pool_rpn/output_pool_0_split_1
I0418 03:40:51.960779 17746 net.cpp:150] Setting up rpn/output_pool_rpn/output_pool_0_split
I0418 03:40:51.960788 17746 net.cpp:157] Top shape: 1 512 96 1 1 (49152)
I0418 03:40:51.960791 17746 net.cpp:157] Top shape: 1 512 96 1 1 (49152)
I0418 03:40:51.960794 17746 net.cpp:165] Memory required for data: 10172105916
I0418 03:40:51.960798 17746 layer_factory.hpp:77] Creating layer rpn_cls_score
I0418 03:40:51.960808 17746 net.cpp:100] Creating Layer rpn_cls_score
I0418 03:40:51.960813 17746 net.cpp:434] rpn_cls_score <- rpn/output_pool_rpn/output_pool_0_split_0
I0418 03:40:51.960819 17746 net.cpp:408] rpn_cls_score -> rpn_cls_score
I0418 03:40:51.964529 17746 net.cpp:150] Setting up rpn_cls_score
I0418 03:40:51.964553 17746 net.cpp:157] Top shape: 1 74 96 1 1 (7104)
I0418 03:40:51.964557 17746 net.cpp:165] Memory required for data: 10172134332
I0418 03:40:51.964565 17746 layer_factory.hpp:77] Creating layer rpn_cls_score_rpn_cls_score_0_split
I0418 03:40:51.964570 17746 net.cpp:100] Creating Layer rpn_cls_score_rpn_cls_score_0_split
I0418 03:40:51.964573 17746 net.cpp:434] rpn_cls_score_rpn_cls_score_0_split <- rpn_cls_score
I0418 03:40:51.964581 17746 net.cpp:408] rpn_cls_score_rpn_cls_score_0_split -> rpn_cls_score_rpn_cls_score_0_split_0
I0418 03:40:51.964586 17746 net.cpp:408] rpn_cls_score_rpn_cls_score_0_split -> rpn_cls_score_rpn_cls_score_0_split_1
I0418 03:40:51.964625 17746 net.cpp:150] Setting up rpn_cls_score_rpn_cls_score_0_split
I0418 03:40:51.964634 17746 net.cpp:157] Top shape: 1 74 96 1 1 (7104)
I0418 03:40:51.964638 17746 net.cpp:157] Top shape: 1 74 96 1 1 (7104)
I0418 03:40:51.964642 17746 net.cpp:165] Memory required for data: 10172191164
I0418 03:40:51.964645 17746 layer_factory.hpp:77] Creating layer rpn_twin_pred
I0418 03:40:51.964656 17746 net.cpp:100] Creating Layer rpn_twin_pred
I0418 03:40:51.964664 17746 net.cpp:434] rpn_twin_pred <- rpn/output_pool_rpn/output_pool_0_split_1
I0418 03:40:51.964670 17746 net.cpp:408] rpn_twin_pred -> rpn_twin_pred
I0418 03:40:51.968583 17746 net.cpp:150] Setting up rpn_twin_pred
I0418 03:40:51.968597 17746 net.cpp:157] Top shape: 1 74 96 1 1 (7104)
I0418 03:40:51.968602 17746 net.cpp:165] Memory required for data: 10172219580
I0418 03:40:51.968610 17746 layer_factory.hpp:77] Creating layer rpn_twin_pred_rpn_twin_pred_0_split
I0418 03:40:51.968616 17746 net.cpp:100] Creating Layer rpn_twin_pred_rpn_twin_pred_0_split
I0418 03:40:51.968621 17746 net.cpp:434] rpn_twin_pred_rpn_twin_pred_0_split <- rpn_twin_pred
I0418 03:40:51.968626 17746 net.cpp:408] rpn_twin_pred_rpn_twin_pred_0_split -> rpn_twin_pred_rpn_twin_pred_0_split_0
I0418 03:40:51.968632 17746 net.cpp:408] rpn_twin_pred_rpn_twin_pred_0_split -> rpn_twin_pred_rpn_twin_pred_0_split_1
I0418 03:40:51.968667 17746 net.cpp:150] Setting up rpn_twin_pred_rpn_twin_pred_0_split
I0418 03:40:51.968677 17746 net.cpp:157] Top shape: 1 74 96 1 1 (7104)
I0418 03:40:51.968680 17746 net.cpp:157] Top shape: 1 74 96 1 1 (7104)
I0418 03:40:51.968683 17746 net.cpp:165] Memory required for data: 10172276412
I0418 03:40:51.968688 17746 layer_factory.hpp:77] Creating layer rpn_cls_score_reshape
I0418 03:40:51.968699 17746 net.cpp:100] Creating Layer rpn_cls_score_reshape
I0418 03:40:51.968708 17746 net.cpp:434] rpn_cls_score_reshape <- rpn_cls_score_rpn_cls_score_0_split_0
I0418 03:40:51.968719 17746 net.cpp:408] rpn_cls_score_reshape -> rpn_cls_score_reshape
I0418 03:40:51.968760 17746 net.cpp:150] Setting up rpn_cls_score_reshape
I0418 03:40:51.968771 17746 net.cpp:157] Top shape: 1 2 3552 1 1 (7104)
I0418 03:40:51.968776 17746 net.cpp:165] Memory required for data: 10172304828
I0418 03:40:51.968782 17746 layer_factory.hpp:77] Creating layer rpn_cls_score_reshape_rpn_cls_score_reshape_0_split
I0418 03:40:51.968796 17746 net.cpp:100] Creating Layer rpn_cls_score_reshape_rpn_cls_score_reshape_0_split
I0418 03:40:51.968803 17746 net.cpp:434] rpn_cls_score_reshape_rpn_cls_score_reshape_0_split <- rpn_cls_score_reshape
I0418 03:40:51.968811 17746 net.cpp:408] rpn_cls_score_reshape_rpn_cls_score_reshape_0_split -> rpn_cls_score_reshape_rpn_cls_score_reshape_0_split_0
I0418 03:40:51.968821 17746 net.cpp:408] rpn_cls_score_reshape_rpn_cls_score_reshape_0_split -> rpn_cls_score_reshape_rpn_cls_score_reshape_0_split_1
I0418 03:40:51.968825 17746 net.cpp:408] rpn_cls_score_reshape_rpn_cls_score_reshape_0_split -> rpn_cls_score_reshape_rpn_cls_score_reshape_0_split_2
I0418 03:40:51.968871 17746 net.cpp:150] Setting up rpn_cls_score_reshape_rpn_cls_score_reshape_0_split
I0418 03:40:51.968881 17746 net.cpp:157] Top shape: 1 2 3552 1 1 (7104)
I0418 03:40:51.968886 17746 net.cpp:157] Top shape: 1 2 3552 1 1 (7104)
I0418 03:40:51.968891 17746 net.cpp:157] Top shape: 1 2 3552 1 1 (7104)
I0418 03:40:51.968899 17746 net.cpp:165] Memory required for data: 10172390076
I0418 03:40:51.968904 17746 layer_factory.hpp:77] Creating layer rpn-data
I0418 03:40:51.969295 17746 net.cpp:100] Creating Layer rpn-data
I0418 03:40:51.969306 17746 net.cpp:434] rpn-data <- rpn_cls_score_rpn_cls_score_0_split_1
I0418 03:40:51.969312 17746 net.cpp:434] rpn-data <- gt_boxes_data_1_split_0
I0418 03:40:51.969316 17746 net.cpp:434] rpn-data <- data_data_0_split_1
I0418 03:40:51.969322 17746 net.cpp:408] rpn-data -> rpn_labels
I0418 03:40:51.969328 17746 net.cpp:408] rpn-data -> rpn_twin_targets
I0418 03:40:51.969334 17746 net.cpp:408] rpn-data -> rpn_twin_inside_weights
I0418 03:40:51.969341 17746 net.cpp:408] rpn-data -> rpn_twin_outside_weights
I0418 03:40:51.971616 17746 net.cpp:150] Setting up rpn-data
I0418 03:40:51.971631 17746 net.cpp:157] Top shape: 1 1 3552 1 1 (3552)
I0418 03:40:51.971635 17746 net.cpp:157] Top shape: 1 74 96 1 1 (7104)
I0418 03:40:51.971639 17746 net.cpp:157] Top shape: 1 74 96 1 1 (7104)
I0418 03:40:51.971643 17746 net.cpp:157] Top shape: 1 74 96 1 1 (7104)
I0418 03:40:51.971645 17746 net.cpp:165] Memory required for data: 10172489532
I0418 03:40:51.971649 17746 layer_factory.hpp:77] Creating layer rpn_labels_rpn-data_0_split
I0418 03:40:51.971655 17746 net.cpp:100] Creating Layer rpn_labels_rpn-data_0_split
I0418 03:40:51.971659 17746 net.cpp:434] rpn_labels_rpn-data_0_split <- rpn_labels
I0418 03:40:51.971665 17746 net.cpp:408] rpn_labels_rpn-data_0_split -> rpn_labels_rpn-data_0_split_0
I0418 03:40:51.971673 17746 net.cpp:408] rpn_labels_rpn-data_0_split -> rpn_labels_rpn-data_0_split_1
I0418 03:40:51.971704 17746 net.cpp:150] Setting up rpn_labels_rpn-data_0_split
I0418 03:40:51.971710 17746 net.cpp:157] Top shape: 1 1 3552 1 1 (3552)
I0418 03:40:51.971714 17746 net.cpp:157] Top shape: 1 1 3552 1 1 (3552)
I0418 03:40:51.971717 17746 net.cpp:165] Memory required for data: 10172517948
I0418 03:40:51.971720 17746 layer_factory.hpp:77] Creating layer rpn_loss_cls
I0418 03:40:51.971729 17746 net.cpp:100] Creating Layer rpn_loss_cls
I0418 03:40:51.971732 17746 net.cpp:434] rpn_loss_cls <- rpn_cls_score_reshape_rpn_cls_score_reshape_0_split_0
I0418 03:40:51.971737 17746 net.cpp:434] rpn_loss_cls <- rpn_labels_rpn-data_0_split_0
…
I0418 03:40:51.972327 17746 layer_factory.hpp:77] Creating layer rpn_accuarcy
I0418 03:40:51.972335 17746 net.cpp:100] Creating Layer rpn_accuarcy
I0418 03:40:51.972339 17746 net.cpp:434] rpn_accuarcy <- rpn_cls_score_reshape_rpn_cls_score_reshape_0_split_1
I0418 03:40:51.972343 17746 net.cpp:434] rpn_accuarcy <- rpn_labels_rpn-data_0_split_1
I0418 03:40:51.972350 17746 net.cpp:408] rpn_accuarcy -> rpn_accuarcy
I0418 03:40:51.972357 17746 net.cpp:408] rpn_accuarcy -> rpn_accuarcy_class
I0418 03:40:51.972391 17746 net.cpp:150] Setting up rpn_accuarcy
I0418 03:40:51.972399 17746 net.cpp:157] Top shape: (1)
I0418 03:40:51.972403 17746 net.cpp:157] Top shape: 2 (2)
I0418 03:40:51.972406 17746 net.cpp:165] Memory required for data: 10172517968
I0418 03:40:51.972409 17746 layer_factory.hpp:77] Creating layer rpn_cls_prob
I0418 03:40:51.972416 17746 net.cpp:100] Creating Layer rpn_cls_prob
I0418 03:40:51.972421 17746 net.cpp:434] rpn_cls_prob <- rpn_cls_score_reshape_rpn_cls_score_reshape_0_split_2
I0418 03:40:51.972426 17746 net.cpp:408] rpn_cls_prob -> rpn_cls_prob
I0418 03:40:51.973110 17746 net.cpp:150] Setting up rpn_cls_prob
I0418 03:40:51.973120 17746 net.cpp:157] Top shape: 1 2 3552 1 1 (7104)
I0418 03:40:51.973124 17746 net.cpp:165] Memory required for data: 10172546384
I0418 03:40:51.973129 17746 layer_factory.hpp:77] Creating layer rpn_cls_prob_reshape
I0418 03:40:51.973136 17746 net.cpp:100] Creating Layer rpn_cls_prob_reshape
I0418 03:40:51.973140 17746 net.cpp:434] rpn_cls_prob_reshape <- rpn_cls_prob
I0418 03:40:51.973146 17746 net.cpp:408] rpn_cls_prob_reshape -> rpn_cls_prob_reshape
I0418 03:40:51.973171 17746 net.cpp:150] Setting up rpn_cls_prob_reshape
I0418 03:40:51.973179 17746 net.cpp:157] Top shape: 1 74 96 1 1 (7104)
I0418 03:40:51.973183 17746 net.cpp:165] Memory required for data: 10172574800
I0418 03:40:51.973186 17746 layer_factory.hpp:77] Creating layer proposal
I0418 03:40:51.973727 17746 net.cpp:100] Creating Layer proposal
I0418 03:40:51.973740 17746 net.cpp:434] proposal <- rpn_cls_prob_reshape
I0418 03:40:51.973745 17746 net.cpp:434] proposal <- rpn_twin_pred_rpn_twin_pred_0_split_1
I0418 03:40:51.973752 17746 net.cpp:408] proposal -> rpn_rois
I0418 03:40:51.976465 17746 net.cpp:150] Setting up proposal
I0418 03:40:51.976480 17746 net.cpp:157] Top shape: 1 3 (3)
I0418 03:40:51.976485 17746 net.cpp:165] Memory required for data: 10172574812
I0418 03:40:51.976490 17746 layer_factory.hpp:77] Creating layer roi-data
I0418 03:40:51.978008 17746 net.cpp:100] Creating Layer roi-data
I0418 03:40:51.978021 17746 net.cpp:434] roi-data <- rpn_rois
I0418 03:40:51.978029 17746 net.cpp:434] roi-data <- gt_boxes_data_1_split_1
I0418 03:40:51.978034 17746 net.cpp:408] roi-data -> rois
I0418 03:40:51.978041 17746 net.cpp:408] roi-data -> labels
I0418 03:40:51.978047 17746 net.cpp:408] roi-data -> twin_targets
I0418 03:40:51.978052 17746 net.cpp:408] roi-data -> twin_inside_weights
I0418 03:40:51.978058 17746 net.cpp:408] roi-data -> twin_outside_weights
I0418 03:40:51.978361 17746 net.cpp:150] Setting up roi-data
I0418 03:40:51.978375 17746 net.cpp:157] Top shape: 1 3 (3)
I0418 03:40:51.978379 17746 net.cpp:157] Top shape: 1 1 (1)
I0418 03:40:51.978384 17746 net.cpp:157] Top shape: 1 402 (402)
I0418 03:40:51.978387 17746 net.cpp:157] Top shape: 1 402 (402)
I0418 03:40:51.978391 17746 net.cpp:157] Top shape: 1 402 (402)
I0418 03:40:51.978394 17746 net.cpp:165] Memory required for data: 10172579652
I0418 03:40:51.978397 17746 layer_factory.hpp:77] Creating layer labels_roi-data_1_split
I0418 03:40:51.978404 17746 net.cpp:100] Creating Layer labels_roi-data_1_split
I0418 03:40:51.978407 17746 net.cpp:434] labels_roi-data_1_split <- labels
I0418 03:40:51.978412 17746 net.cpp:408] labels_roi-data_1_split -> labels_roi-data_1_split_0
I0418 03:40:51.978418 17746 net.cpp:408] labels_roi-data_1_split -> labels_roi-data_1_split_1
I0418 03:40:51.978452 17746 net.cpp:150] Setting up labels_roi-data_1_split
I0418 03:40:51.978461 17746 net.cpp:157] Top shape: 1 1 (1)
I0418 03:40:51.978464 17746 net.cpp:157] Top shape: 1 1 (1)
I0418 03:40:51.978468 17746 net.cpp:165] Memory required for data: 10172579660
I0418 03:40:51.978471 17746 layer_factory.hpp:77] Creating layer roi_pool5
I0418 03:40:51.978480 17746 net.cpp:100] Creating Layer roi_pool5
I0418 03:40:51.978484 17746 net.cpp:434] roi_pool5 <- conv5b_relu5b_0_split_1
I0418 03:40:51.978489 17746 net.cpp:434] roi_pool5 <- rois
I0418 03:40:51.978493 17746 net.cpp:408] roi_pool5 -> pool5
I0418 03:40:51.978500 17746 roi_pooling_layer.cpp:34] Temporal scale: 0.125
I0418 03:40:51.978509 17746 roi_pooling_layer.cpp:35] Spatial scale: 0.0625
I0418 03:40:51.978539 17746 net.cpp:150] Setting up roi_pool5
I0418 03:40:51.978546 17746 net.cpp:157] Top shape: 1 512 1 4 4 (8192)
I0418 03:40:51.978550 17746 net.cpp:165] Memory required for data: 10172612428
I0418 03:40:51.978554 17746 layer_factory.hpp:77] Creating layer fc6
I0418 03:40:51.978561 17746 net.cpp:100] Creating Layer fc6
I0418 03:40:51.978565 17746 net.cpp:434] fc6 <- pool5
I0418 03:40:51.978570 17746 net.cpp:408] fc6 -> fc6
I0418 03:40:52.857650 17746 net.cpp:150] Setting up fc6
I0418 03:40:52.857679 17746 net.cpp:157] Top shape: 1 4096 (4096)
I0418 03:40:52.857684 17746 net.cpp:165] Memory required for data: 10172628812
I0418 03:40:52.857694 17746 layer_factory.hpp:77] Creating layer relu6
I0418 03:40:52.857704 17746 net.cpp:100] Creating Layer relu6
I0418 03:40:52.857709 17746 net.cpp:434] relu6 <- fc6
I0418 03:40:52.857715 17746 net.cpp:395] relu6 -> fc6 (in-place)
I0418 03:40:52.858189 17746 net.cpp:150] Setting up relu6
I0418 03:40:52.858202 17746 net.cpp:157] Top shape: 1 4096 (4096)
I0418 03:40:52.858206 17746 net.cpp:165] Memory required for data: 10172645196
I0418 03:40:52.858209 17746 layer_factory.hpp:77] Creating layer drop6
I0418 03:40:52.858223 17746 net.cpp:100] Creating Layer drop6
I0418 03:40:52.858229 17746 net.cpp:434] drop6 <- fc6
I0418 03:40:52.858234 17746 net.cpp:395] drop6 -> fc6 (in-place)
I0418 03:40:52.858261 17746 net.cpp:150] Setting up drop6
I0418 03:40:52.858268 17746 net.cpp:157] Top shape: 1 4096 (4096)
I0418 03:40:52.858270 17746 net.cpp:165] Memory required for data: 10172661580
I0418 03:40:52.858274 17746 layer_factory.hpp:77] Creating layer fc6_drop6_0_split
I0418 03:40:52.858279 17746 net.cpp:100] Creating Layer fc6_drop6_0_split
I0418 03:40:52.858283 17746 net.cpp:434] fc6_drop6_0_split <- fc6
I0418 03:40:52.858289 17746 net.cpp:408] fc6_drop6_0_split -> fc6_drop6_0_split_0
I0418 03:40:52.858295 17746 net.cpp:408] fc6_drop6_0_split -> fc6_drop6_0_split_1
I0418 03:40:52.858325 17746 net.cpp:150] Setting up fc6_drop6_0_split
I0418 03:40:52.858333 17746 net.cpp:157] Top shape: 1 4096 (4096)
I0418 03:40:52.858340 17746 net.cpp:157] Top shape: 1 4096 (4096)
I0418 03:40:52.858343 17746 net.cpp:165] Memory required for data: 10172694348
I0418 03:40:52.858347 17746 layer_factory.hpp:77] Creating layer cls_score
I0418 03:40:52.858355 17746 net.cpp:100] Creating Layer cls_score
I0418 03:40:52.858358 17746 net.cpp:434] cls_score <- fc6_drop6_0_split_0
I0418 03:40:52.858364 17746 net.cpp:408] cls_score -> cls_score
I0418 03:40:52.880353 17746 net.cpp:150] Setting up cls_score
I0418 03:40:52.880378 17746 net.cpp:157] Top shape: 1 201 (201)
I0418 03:40:52.880381 17746 net.cpp:165] Memory required for data: 10172695152
I0418 03:40:52.880390 17746 layer_factory.hpp:77] Creating layer cls_score_cls_score_0_split
I0418 03:40:52.880398 17746 net.cpp:100] Creating Layer cls_score_cls_score_0_split
I0418 03:40:52.880403 17746 net.cpp:434] cls_score_cls_score_0_split <- cls_score
I0418 03:40:52.880409 17746 net.cpp:408] cls_score_cls_score_0_split -> cls_score_cls_score_0_split_0
I0418 03:40:52.880416 17746 net.cpp:408] cls_score_cls_score_0_split -> cls_score_cls_score_0_split_1
I0418 03:40:52.880448 17746 net.cpp:150] Setting up cls_score_cls_score_0_split
I0418 03:40:52.880455 17746 net.cpp:157] Top shape: 1 201 (201)
I0418 03:40:52.880460 17746 net.cpp:157] Top shape: 1 201 (201)
I0418 03:40:52.880462 17746 net.cpp:165] Memory required for data: 10172696760
I0418 03:40:52.880465 17746 layer_factory.hpp:77] Creating layer twin_pred
I0418 03:40:52.880473 17746 net.cpp:100] Creating Layer twin_pred
I0418 03:40:52.880477 17746 net.cpp:434] twin_pred <- fc6_drop6_0_split_1
I0418 03:40:52.880482 17746 net.cpp:408] twin_pred -> twin_pred
I0418 03:40:52.924425 17746 net.cpp:150] Setting up twin_pred
I0418 03:40:52.924450 17746 net.cpp:157] Top shape: 1 402 (402)
I0418 03:40:52.924454 17746 net.cpp:165] Memory required for data: 10172698368
I0418 03:40:52.924463 17746 layer_factory.hpp:77] Creating layer loss_cls
I0418 03:40:52.924473 17746 net.cpp:100] Creating Layer loss_cls
I0418 03:40:52.924479 17746 net.cpp:434] loss_cls <- cls_score_cls_score_0_split_0
I0418 03:40:52.924484 17746 net.cpp:434] loss_cls <- labels_roi-data_1_split_0
I0418 03:40:52.924490 17746 net.cpp:408] loss_cls -> loss_cls
…
