…
stepsize: 350000
snapshot: 0
snapshot_prefix: "./experiments/activitynet/snapshot/activitynet"
average_loss: 100
iter_size: 1
I0418 00:31:06.054337 23732 solver.cpp:81] Creating training net from train_net file: ./experiments/activitynet/train.prototxt
I0418 00:31:06.055486 23732 net.cpp:58] Initializing net from parameters: 
name: "activitynet"
state {
  phase: TRAIN
}
layer {
  name: "data"
  type: "Python"
  top: "data"
  top: "gt_boxes"
  python_param {
    module: "roi_data_layer.layer"
    layer: "RoIDataLayer"
    param_str: "\'num_classes\': 100"
  }
}
layer {
  name: "conv1a"
  type: "Convolution"
  bottom: "data"
  top: "conv1a"
  param {
    lr_mult: 0
    decay_mult: 0
  }
  param {
    lr_mult: 0
    decay_mult: 0
  }
  convolution_param {
    num_output: 64
    pad: 1
    pad: 1
    pad: 1
    kernel_size: 3
    kernel_size: 3
    kernel_size: 3
    weight_filler {
      type: "gaussian"
      std: 0.01
    }
    bias_filler {
      type: "constant"
      value: 0
    }
  }
}
layer {
  name: "relu1a"
  type: "ReLU"
  bottom: "conv1a"
  top: "conv1a"
}
layer {
  name: "pool1"
  type: "Pooling"
  bottom: "conv1a"
  top: "pool1"
  pooling_param {
    pool: MAX
    kernel_size: 1
    kernel_size: 2
    kernel_size: 2
    stride: 1
    stride: 2
    stride: 2
  }
}
layer {
  name: "conv2a"
  type: "Convolution"
  bottom: "pool1"
  top: "conv2a"
  param {
    lr_mult: 0
    decay_mult: 0
  }
  param {
    lr_mult: 0
    decay_mult: 0
  }
  convolution_param {
    num_output: 128
    pad: 1
    pad: 1
    pad: 1
    kernel_size: 3
    kernel_size: 3
    kernel_size: 3
    weight_filler {
      type: "gaussian"
      std: 0.01
    }
    bias_filler {
      type: "constant"
      value: 1
    }
  }
}
layer {
  name: "relu2a"
  type: "ReLU"
  bottom: "conv2a"
  top: "conv2a"
}
layer {
  name: "pool2"
  type: "Pooling"
  bottom: "conv2a"
  top: "pool2"
  pooling_param {
    pool: MAX
    kernel_size: 2
    kernel_size: 2
    kernel_size: 2
    stride: 2
    stride: 2
    stride: 2
  }
}
layer {
  name: "conv3a"
  type: "Convolution"
  bottom: "pool2"
  top: "conv3a"
  param {
    lr_mult: 1
    decay_mult: 1
  }
  param {
    lr_mult: 2
    decay_mult: 0
  }
  convolution_param {
    num_output: 256
    pad: 1
    pad: 1
    pad: 1
    kernel_size: 3
    kernel_size: 3
    kernel_size: 3
    weight_filler {
      type: "gaussian"
      std: 0.01
    }
    bias_filler {
      type: "constant"
      value: 1
    }
  }
}
layer {
  name: "relu3a"
  type: "ReLU"
  bottom: "conv3a"
  top: "conv3a"
}
layer {
  name: "conv3b"
  type: "Convolution"
  bottom: "conv3a"
  top: "conv3b"
  param {
    lr_mult: 1
    decay_mult: 1
  }
  param {
    lr_mult: 2
    decay_mult: 0
  }
  convolution_param {
    num_output: 256
    pad: 1
    pad: 1
    pad: 1
    kernel_size: 3
    kernel_size: 3
    kernel_size: 3
    weight_filler {
      type: "gaussian"
      std: 0.01
    }
    bias_filler {
      type: "constant"
      value: 1
    }
  }
}
layer {
  name: "relu3b"
  type: "ReLU"
  bottom: "conv3b"
  top: "conv3b"
}
layer {
  name: "pool3"
  type: "Pooling"
  bottom: "conv3b"
  top: "pool3"
  pooling_param {
    pool: MAX
    kernel_size: 2
    kernel_size: 2
    kernel_size: 2
    stride: 2
    stride: 2
    stride: 2
  }
}
layer {
  name: "conv4a"
  type: "Convolution"
  bottom: "pool3"
  top: "conv4a"
  param {
    lr_mult: 1
    decay_mult: 1
  }
  param {
    lr_mult: 2
    decay_mult: 0
  }
  convolution_param {
    num_output: 512
    pad: 1
    pad: 1
    pad: 1
    kernel_size: 3
    kernel_size: 3
    kernel_size: 3
    weight_filler {
      type: "gaussian"
      std: 0.01
    }
    bias_filler {
      type: "constant"
      value: 1
    }
  }
}
layer {
  name: "relu4a"
  type: "ReLU"
  bottom: "conv4a"
  top: "conv4a"
}
layer {
  name: "conv4b"
  type: "Convolution"
  bottom: "conv4a"
  top: "conv4b"
  param {
    lr_mult: 1
    decay_mult: 1
  }
  param {
    lr_mult: 2
    decay_mult: 0
  }
  convolution_param {
    num_output: 512
    pad: 1
    pad: 1
    pad: 1
    kernel_size: 3
    kernel_size: 3
    kernel_size: 3
    weight_filler {
      type: "gaussian"
      std: 0.01
    }
    bias_filler {
      type: "constant"
      value: 1
    }
  }
}
layer {
  name: "relu4b"
  type: "ReLU"
  bottom: "conv4b"
  top: "conv4b"
}
layer {
  name: "pool4"
  type: "Pooling"
  bottom: "conv4b"
  top: "pool4"
  pooling_param {
    pool: MAX
    kernel_size: 2
    kernel_size: 2
    kernel_size: 2
    stride: 2
    stride: 2
    stride: 2
  }
}
layer {
  name: "conv5a"
  type: "Convolution"
  bottom: "pool4"
  top: "conv5a"
  param {
    lr_mult: 1
    decay_mult: 1
  }
  param {
    lr_mult: 2
    decay_mult: 0
  }
  convolution_param {
    num_output: 512
    pad: 1
    pad: 1
    pad: 1
    kernel_size: 3
    kernel_size: 3
    kernel_size: 3
    weight_filler {
      type: "gaussian"
      std: 0.01
    }
    bias_filler {
      type: "constant"
      value: 1
    }
  }
}
layer {
  name: "relu5a"
  type: "ReLU"
  bottom: "conv5a"
  top: "conv5a"
}
layer {
  name: "conv5b"
  type: "Convolution"
  bottom: "conv5a"
  top: "conv5b"
  param {
    lr_mult: 1
    decay_mult: 1
  }
  param {
    lr_mult: 2
    decay_mult: 0
  }
  convolution_param {
    num_output: 512
    pad: 1
    pad: 1
    pad: 1
    kernel_size: 3
    kernel_size: 3
    kernel_size: 3
    weight_filler {
      type: "gaussian"
      std: 0.01
    }
    bias_filler {
      type: "constant"
      value: 1
    }
  }
}
layer {
  name: "relu5b"
  type: "ReLU"
  bottom: "conv5b"
  top: "conv5b"
}
layer {
  name: "rpn_conv/3x3"
  type: "Convolution"
  bottom: "conv5b"
  top: "rpn/output"
  param {
    lr_mult: 1
    decay_mult: 1
  }
  param {
    lr_mult: 2
    decay_mult: 0
  }
  convolution_param {
    num_output: 512
    pad: 1
    pad: 1
    pad: 1
    kernel_size: 3
    kernel_size: 3
    kernel_size: 3
    stride: 1
    stride: 2
    stride: 2
    weight_filler {
      type: "gaussian"
      std: 0.01
    }
    bias_filler {
      type: "constant"
      value: 0
    }
  }
}
layer {
  name: "rpn_relu/3x3"
  type: "ReLU"
  bottom: "rpn/output"
  top: "rpn/output"
}
layer {
  name: "rpn_conv/3x3_2"
  type: "Convolution"
  bottom: "rpn/output"
  top: "rpn/output_2"
  param {
    lr_mult: 1
    decay_mult: 1
  }
  param {
    lr_mult: 2
    decay_mult: 0
  }
  convolution_param {
    num_output: 512
    pad: 1
    pad: 1
    pad: 1
    kernel_size: 3
    kernel_size: 3
    kernel_size: 3
    stride: 1
    stride: 2
    stride: 2
    weight_filler {
      type: "gaussian"
      std: 0.01
    }
    bias_filler {
      type: "constant"
      value: 0
    }
  }
}
layer {
  name: "rpn_relu/3x3_2"
  type: "ReLU"
  bottom: "rpn/output_2"
  top: "rpn/output_2"
}
layer {
  name: "rpn/output_pool"
  type: "Pooling"
  bottom: "rpn/output_2"
  top: "rpn/output_pool"
  pooling_param {
    pool: MAX
    kernel_size: 1
    kernel_size: 2
    kernel_size: 2
  }
}
layer {
  name: "rpn_cls_score"
  type: "Convolution"
  bottom: "rpn/output_pool"
  top: "rpn_cls_score"
  param {
    lr_mult: 1
    decay_mult: 1
  }
  param {
    lr_mult: 2
    decay_mult: 0
  }
  convolution_param {
    num_output: 74
    kernel_size: 1
    kernel_size: 1
    kernel_size: 1
    weight_filler {
      type: "gaussian"
      std: 0.01
    }
    bias_filler {
      type: "constant"
      value: 0
    }
  }
}
layer {
  name: "rpn_twin_pred"
  type: "Convolution"
  bottom: "rpn/output_pool"
  top: "rpn_twin_pred"
  param {
    lr_mult: 1
    decay_mult: 1
  }
  param {
    lr_mult: 2
    decay_mult: 0
  }
  convolution_param {
    num_output: 74
    kernel_size: 1
    kernel_size: 1
    kernel_size: 1
    weight_filler {
      type: "gaussian"
      std: 0.01
    }
    bias_filler {
      type: "constant"
      value: 0
    }
  }
}
layer {
  name: "rpn_cls_score_reshape"
  type: "Reshape"
  bottom: "rpn_cls_score"
  top: "rpn_cls_score_reshape"
  reshape_param {
    shape {
      dim: 0
      dim: 2
      dim: -1
      dim: 0
      dim: 0
    }
  }
}
layer {
  name: "rpn-data"
  type: "Python"
  bottom: "rpn_cls_score"
  bottom: "gt_boxes"
  bottom: "data"
  top: "rpn_labels"
  top: "rpn_twin_targets"
  top: "rpn_twin_inside_weights"
  top: "rpn_twin_outside_weights"
  python_param {
    module: "rpn.anchor_target_layer"
    layer: "AnchorTargetLayer"
    param_str: "\'feat_stride\': 8 \n\'scales\': !!python/tuple [1,1.25, 1.5,1.75, 2,2.5, 3,3.5, 4,4.5, 5,5.5, 6,7, 8,9,10,11,12,14,16,18,20,22,24,28,32,36,40,44,52,60,68,76,84,92,100]"
  }
}
layer {
  name: "rpn_loss_cls"
  type: "SoftmaxWithLoss"
  bottom: "rpn_cls_score_reshape"
  bottom: "rpn_labels"
  top: "rpn_cls_loss"
  loss_weight: 1
  propagate_down: true
  propagate_down: false
  loss_param {
    ignore_label: -1
    normalize: true
  }
}
layer {
  name: "rpn_loss_twin"
  type: "SmoothL1Loss"
  bottom: "rpn_twin_pred"
  bottom: "rpn_twin_targets"
  bottom: "rpn_twin_inside_weights"
  bottom: "rpn_twin_outside_weights"
  top: "rpn_loss_twin"
  loss_weight: 1
  smooth_l1_loss_param {
    sigma: 3
  }
}
layer {
  name: "rpn_accuarcy"
  type: "Accuracy"
  bottom: "rpn_cls_score_reshape"
  bottom: "rpn_labels"
  top: "rpn_accuarcy"
  top: "rpn_accuarcy_class"
  propagate_down: false
  propagate_down: false
  accuracy_param {
    ignore_label: -1
  }
}
layer {
  name: "rpn_cls_prob"
  type: "Softmax"
  bottom: "rpn_cls_score_reshape"
  top: "rpn_cls_prob"
}
layer {
  name: "rpn_cls_prob_reshape"
  type: "Reshape"
  bottom: "rpn_cls_prob"
  top: "rpn_cls_prob_reshape"
  reshape_param {
    shape {
      dim: 0
      dim: 74
      dim: -1
      dim: 0
      dim: 0
    }
  }
}
layer {
  name: "proposal"
  type: "Python"
  bottom: "rpn_cls_prob_reshape"
  bottom: "rpn_twin_pred"
  top: "rpn_rois"
  include {
    phase: TRAIN
  }
  python_param {
    module: "rpn.proposal_layer"
    layer: "ProposalLayer"
    param_str: "\'feat_stride\': 8 \n\'scales\': !!python/tuple [1,1.25, 1.5,1.75, 2,2.5, 3,3.5, 4,4.5, 5,5.5, 6,7, 8,9,10,11,12,14,16,18,20,22,24,28,32,36,40,44,52,60,68,76,84,92,100]"
  }
}
layer {
  name: "roi-data"
  type: "Python"
  bottom: "rpn_rois"
  bottom: "gt_boxes"
  top: "rois"
  top: "labels"
  top: "twin_targets"
  top: "twin_inside_weights"
  top: "twin_outside_weights"
  python_param {
    module: "rpn.proposal_target_layer"
    layer: "ProposalTargetLayer"
    param_str: "\'num_classes\': 201"
  }
}
layer {
  name: "roi_pool5"
  type: "ROIPooling"
  bottom: "conv5b"
  bottom: "rois"
  top: "pool5"
  roi_pooling_param {
    pooled_h: 4
    pooled_w: 4
    spatial_scale: 0.0625
    pooled_l: 1
    temporal_scale: 0.125
  }
}
layer {
  name: "fc6"
  type: "InnerProduct"
  bottom: "pool5"
  top: "fc6"
  param {
    lr_mult: 1
    decay_mult: 1
  }
  param {
    lr_mult: 2
    decay_mult: 0
  }
  inner_product_param {
    num_output: 4096
    weight_filler {
      type: "gaussian"
      std: 0.005
    }
    bias_filler {
      type: "constant"
      value: 1
    }
  }
}
layer {
  name: "relu6"
  type: "ReLU"
  bottom: "fc6"
  top: "fc6"
}
layer {
  name: "drop6"
  type: "Dropout"
  bottom: "fc6"
  top: "fc6"
  dropout_param {
    dropout_ratio: 0.5
  }
}
layer {
  name: "cls_score"
  type: "InnerProduct"
  bottom: "fc6"
  top: "cls_score"
  param {
    lr_mult: 1
    decay_mult: 1
  }
  param {
    lr_mult: 2
    decay_mult: 0
  }
  inner_product_param {
    num_output: 201
    weight_filler {
      type: "gaussian"
      std: 0.01
    }
    bias_filler {
      type: "constant"
      value: 0
    }
  }
}
layer {
  name: "twin_pred"
  type: "InnerProduct"
  bottom: "fc6"
  top: "twin_pred"
  param {
    lr_mult: 1
    decay_mult: 1
  }
  param {
    lr_mult: 2
    decay_mult: 0
  }
  inner_product_param {
    num_output: 402
    weight_filler {
      type: "gaussian"
      std: 0.001
    }
    bias_filler {
      type: "constant"
      value: 0
    }
  }
}
layer {
  name: "loss_cls"
  type: "SoftmaxWithLoss"
  bottom: "cls_score"
  bottom: "labels"
  top: "loss_cls"
  loss_weight: 1
  propagate_down: true
  propagate_down: false
}
layer {
  name: "loss_twin"
  type: "SmoothL1Loss"
  bottom: "twin_pred"
  bottom: "twin_targets"
  bottom: "twin_inside_weights"
  bottom: "twin_outside_weights"
  top: "loss_twin"
  loss_weight: 1
}
layer {
  name: "accuarcy"
  type: "Accuracy"
  bottom: "cls_score"
  bottom: "labels"
  top: "accuarcy"
  propagate_down: false
  propagate_down: false
  accuracy_param {
    ignore_label: -1
  }
}
I0418 00:31:06.055804 23732 layer_factory.hpp:77] Creating layer data
I0418 00:31:06.083559 23732 net.cpp:100] Creating Layer data
I0418 00:31:06.083583 23732 net.cpp:408] data -> data
I0418 00:31:06.083596 23732 net.cpp:408] data -> gt_boxes
setting up
has rpn
RoiDataLayer: name_to_top: {'gt_windows': 1, 'data': 0}
I0418 00:31:06.118876 23732 net.cpp:150] Setting up data
I0418 00:31:06.118906 23732 net.cpp:157] Top shape: 1 3 768 112 112 (28901376)
I0418 00:31:06.118916 23732 net.cpp:157] Top shape: 1 101 (101)
I0418 00:31:06.118922 23732 net.cpp:165] Memory required for data: 115605908
I0418 00:31:06.118932 23732 layer_factory.hpp:77] Creating layer data_data_0_split
I0418 00:31:06.118949 23732 net.cpp:100] Creating Layer data_data_0_split
I0418 00:31:06.118957 23732 net.cpp:434] data_data_0_split <- data
I0418 00:31:06.118968 23732 net.cpp:408] data_data_0_split -> data_data_0_split_0
I0418 00:31:06.118983 23732 net.cpp:408] data_data_0_split -> data_data_0_split_1
I0418 00:31:06.119033 23732 net.cpp:150] Setting up data_data_0_split
I0418 00:31:06.119045 23732 net.cpp:157] Top shape: 1 3 768 112 112 (28901376)
I0418 00:31:06.119051 23732 net.cpp:157] Top shape: 1 3 768 112 112 (28901376)
I0418 00:31:06.119056 23732 net.cpp:165] Memory required for data: 346816916
I0418 00:31:06.119061 23732 layer_factory.hpp:77] Creating layer gt_boxes_data_1_split
I0418 00:31:06.119071 23732 net.cpp:100] Creating Layer gt_boxes_data_1_split
I0418 00:31:06.119077 23732 net.cpp:434] gt_boxes_data_1_split <- gt_boxes
I0418 00:31:06.119084 23732 net.cpp:408] gt_boxes_data_1_split -> gt_boxes_data_1_split_0
I0418 00:31:06.119097 23732 net.cpp:408] gt_boxes_data_1_split -> gt_boxes_data_1_split_1
I0418 00:31:06.119140 23732 net.cpp:150] Setting up gt_boxes_data_1_split
I0418 00:31:06.119154 23732 net.cpp:157] Top shape: 1 101 (101)
I0418 00:31:06.119161 23732 net.cpp:157] Top shape: 1 101 (101)
I0418 00:31:06.119166 23732 net.cpp:165] Memory required for data: 346817724
I0418 00:31:06.119171 23732 layer_factory.hpp:77] Creating layer conv1a
I0418 00:31:06.119196 23732 net.cpp:100] Creating Layer conv1a
I0418 00:31:06.119204 23732 net.cpp:434] conv1a <- data_data_0_split_0
I0418 00:31:06.119213 23732 net.cpp:408] conv1a -> conv1a
I0418 00:31:06.412541 23732 net.cpp:150] Setting up conv1a
I0418 00:31:06.412573 23732 net.cpp:157] Top shape: 1 64 768 112 112 (616562688)
I0418 00:31:06.412578 23732 net.cpp:165] Memory required for data: 2813068476
I0418 00:31:06.412600 23732 layer_factory.hpp:77] Creating layer relu1a
I0418 00:31:06.412613 23732 net.cpp:100] Creating Layer relu1a
I0418 00:31:06.412618 23732 net.cpp:434] relu1a <- conv1a
I0418 00:31:06.412626 23732 net.cpp:395] relu1a -> conv1a (in-place)
I0418 00:31:06.413153 23732 net.cpp:150] Setting up relu1a
I0418 00:31:06.413167 23732 net.cpp:157] Top shape: 1 64 768 112 112 (616562688)
I0418 00:31:06.413172 23732 net.cpp:165] Memory required for data: 5279319228
I0418 00:31:06.413175 23732 layer_factory.hpp:77] Creating layer pool1
I0418 00:31:06.413187 23732 net.cpp:100] Creating Layer pool1
I0418 00:31:06.413192 23732 net.cpp:434] pool1 <- conv1a
I0418 00:31:06.413199 23732 net.cpp:408] pool1 -> pool1
I0418 00:31:06.414531 23732 net.cpp:150] Setting up pool1
I0418 00:31:06.414546 23732 net.cpp:157] Top shape: 1 64 768 56 56 (154140672)
I0418 00:31:06.414551 23732 net.cpp:165] Memory required for data: 5895881916
I0418 00:31:06.414554 23732 layer_factory.hpp:77] Creating layer conv2a
I0418 00:31:06.414569 23732 net.cpp:100] Creating Layer conv2a
I0418 00:31:06.414574 23732 net.cpp:434] conv2a <- pool1
I0418 00:31:06.414582 23732 net.cpp:408] conv2a -> conv2a
I0418 00:31:06.431782 23732 net.cpp:150] Setting up conv2a
I0418 00:31:06.431813 23732 net.cpp:157] Top shape: 1 128 768 56 56 (308281344)
I0418 00:31:06.431818 23732 net.cpp:165] Memory required for data: 7129007292
I0418 00:31:06.431834 23732 layer_factory.hpp:77] Creating layer relu2a
I0418 00:31:06.431848 23732 net.cpp:100] Creating Layer relu2a
I0418 00:31:06.431852 23732 net.cpp:434] relu2a <- conv2a
I0418 00:31:06.431859 23732 net.cpp:395] relu2a -> conv2a (in-place)
I0418 00:31:06.432303 23732 net.cpp:150] Setting up relu2a
I0418 00:31:06.432319 23732 net.cpp:157] Top shape: 1 128 768 56 56 (308281344)
I0418 00:31:06.432323 23732 net.cpp:165] Memory required for data: 8362132668
I0418 00:31:06.432328 23732 layer_factory.hpp:77] Creating layer pool2
I0418 00:31:06.432341 23732 net.cpp:100] Creating Layer pool2
I0418 00:31:06.432346 23732 net.cpp:434] pool2 <- conv2a
I0418 00:31:06.432354 23732 net.cpp:408] pool2 -> pool2
I0418 00:31:06.433514 23732 net.cpp:150] Setting up pool2
I0418 00:31:06.433531 23732 net.cpp:157] Top shape: 1 128 384 28 28 (38535168)
I0418 00:31:06.433534 23732 net.cpp:165] Memory required for data: 8516273340
I0418 00:31:06.433539 23732 layer_factory.hpp:77] Creating layer conv3a
I0418 00:31:06.433552 23732 net.cpp:100] Creating Layer conv3a
I0418 00:31:06.433557 23732 net.cpp:434] conv3a <- pool2
I0418 00:31:06.433565 23732 net.cpp:408] conv3a -> conv3a
I0418 00:31:06.461563 23732 net.cpp:150] Setting up conv3a
I0418 00:31:06.461588 23732 net.cpp:157] Top shape: 1 256 384 28 28 (77070336)
I0418 00:31:06.461593 23732 net.cpp:165] Memory required for data: 8824554684
I0418 00:31:06.461607 23732 layer_factory.hpp:77] Creating layer relu3a
I0418 00:31:06.461616 23732 net.cpp:100] Creating Layer relu3a
I0418 00:31:06.461621 23732 net.cpp:434] relu3a <- conv3a
I0418 00:31:06.461629 23732 net.cpp:395] relu3a -> conv3a (in-place)
I0418 00:31:06.462002 23732 net.cpp:150] Setting up relu3a
I0418 00:31:06.462016 23732 net.cpp:157] Top shape: 1 256 384 28 28 (77070336)
I0418 00:31:06.462020 23732 net.cpp:165] Memory required for data: 9132836028
I0418 00:31:06.462025 23732 layer_factory.hpp:77] Creating layer conv3b
I0418 00:31:06.462038 23732 net.cpp:100] Creating Layer conv3b
I0418 00:31:06.462041 23732 net.cpp:434] conv3b <- conv3a
I0418 00:31:06.462050 23732 net.cpp:408] conv3b -> conv3b
I0418 00:31:06.518450 23732 net.cpp:150] Setting up conv3b
I0418 00:31:06.518478 23732 net.cpp:157] Top shape: 1 256 384 28 28 (77070336)
I0418 00:31:06.518483 23732 net.cpp:165] Memory required for data: 9441117372
I0418 00:31:06.518492 23732 layer_factory.hpp:77] Creating layer relu3b
I0418 00:31:06.518504 23732 net.cpp:100] Creating Layer relu3b
I0418 00:31:06.518509 23732 net.cpp:434] relu3b <- conv3b
I0418 00:31:06.518515 23732 net.cpp:395] relu3b -> conv3b (in-place)
I0418 00:31:06.518893 23732 net.cpp:150] Setting up relu3b
I0418 00:31:06.518908 23732 net.cpp:157] Top shape: 1 256 384 28 28 (77070336)
I0418 00:31:06.518913 23732 net.cpp:165] Memory required for data: 9749398716
I0418 00:31:06.518918 23732 layer_factory.hpp:77] Creating layer pool3
I0418 00:31:06.518929 23732 net.cpp:100] Creating Layer pool3
I0418 00:31:06.518936 23732 net.cpp:434] pool3 <- conv3b
I0418 00:31:06.518945 23732 net.cpp:408] pool3 -> pool3
I0418 00:31:06.519147 23732 net.cpp:150] Setting up pool3
I0418 00:31:06.519160 23732 net.cpp:157] Top shape: 1 256 192 14 14 (9633792)
I0418 00:31:06.519165 23732 net.cpp:165] Memory required for data: 9787933884
I0418 00:31:06.519170 23732 layer_factory.hpp:77] Creating layer conv4a
I0418 00:31:06.519186 23732 net.cpp:100] Creating Layer conv4a
I0418 00:31:06.519193 23732 net.cpp:434] conv4a <- pool3
I0418 00:31:06.519202 23732 net.cpp:408] conv4a -> conv4a
I0418 00:31:06.621152 23732 net.cpp:150] Setting up conv4a
I0418 00:31:06.621182 23732 net.cpp:157] Top shape: 1 512 192 14 14 (19267584)
I0418 00:31:06.621186 23732 net.cpp:165] Memory required for data: 9865004220
I0418 00:31:06.621204 23732 layer_factory.hpp:77] Creating layer relu4a
I0418 00:31:06.621220 23732 net.cpp:100] Creating Layer relu4a
I0418 00:31:06.621228 23732 net.cpp:434] relu4a <- conv4a
I0418 00:31:06.621238 23732 net.cpp:395] relu4a -> conv4a (in-place)
I0418 00:31:06.621619 23732 net.cpp:150] Setting up relu4a
I0418 00:31:06.621634 23732 net.cpp:157] Top shape: 1 512 192 14 14 (19267584)
I0418 00:31:06.621639 23732 net.cpp:165] Memory required for data: 9942074556
I0418 00:31:06.621644 23732 layer_factory.hpp:77] Creating layer conv4b
I0418 00:31:06.621665 23732 net.cpp:100] Creating Layer conv4b
I0418 00:31:06.621673 23732 net.cpp:434] conv4b <- conv4a
I0418 00:31:06.621685 23732 net.cpp:408] conv4b -> conv4b
I0418 00:31:06.817931 23732 net.cpp:150] Setting up conv4b
I0418 00:31:06.817958 23732 net.cpp:157] Top shape: 1 512 192 14 14 (19267584)
I0418 00:31:06.817962 23732 net.cpp:165] Memory required for data: 10019144892
I0418 00:31:06.817972 23732 layer_factory.hpp:77] Creating layer relu4b
I0418 00:31:06.817981 23732 net.cpp:100] Creating Layer relu4b
I0418 00:31:06.817986 23732 net.cpp:434] relu4b <- conv4b
I0418 00:31:06.817993 23732 net.cpp:395] relu4b -> conv4b (in-place)
I0418 00:31:06.818527 23732 net.cpp:150] Setting up relu4b
I0418 00:31:06.818541 23732 net.cpp:157] Top shape: 1 512 192 14 14 (19267584)
I0418 00:31:06.818544 23732 net.cpp:165] Memory required for data: 10096215228
I0418 00:31:06.818552 23732 layer_factory.hpp:77] Creating layer pool4
I0418 00:31:06.818560 23732 net.cpp:100] Creating Layer pool4
I0418 00:31:06.818565 23732 net.cpp:434] pool4 <- conv4b
I0418 00:31:06.818572 23732 net.cpp:408] pool4 -> pool4
I0418 00:31:06.820346 23732 net.cpp:150] Setting up pool4
I0418 00:31:06.820360 23732 net.cpp:157] Top shape: 1 512 96 7 7 (2408448)
I0418 00:31:06.820364 23732 net.cpp:165] Memory required for data: 10105849020
I0418 00:31:06.820369 23732 layer_factory.hpp:77] Creating layer conv5a
I0418 00:31:06.820381 23732 net.cpp:100] Creating Layer conv5a
I0418 00:31:06.820386 23732 net.cpp:434] conv5a <- pool4
I0418 00:31:06.820392 23732 net.cpp:408] conv5a -> conv5a
I0418 00:31:07.014160 23732 net.cpp:150] Setting up conv5a
I0418 00:31:07.014187 23732 net.cpp:157] Top shape: 1 512 96 7 7 (2408448)
I0418 00:31:07.014191 23732 net.cpp:165] Memory required for data: 10115482812
I0418 00:31:07.014201 23732 layer_factory.hpp:77] Creating layer relu5a
I0418 00:31:07.014210 23732 net.cpp:100] Creating Layer relu5a
I0418 00:31:07.014215 23732 net.cpp:434] relu5a <- conv5a
I0418 00:31:07.014220 23732 net.cpp:395] relu5a -> conv5a (in-place)
I0418 00:31:07.015219 23732 net.cpp:150] Setting up relu5a
I0418 00:31:07.015235 23732 net.cpp:157] Top shape: 1 512 96 7 7 (2408448)
I0418 00:31:07.015239 23732 net.cpp:165] Memory required for data: 10125116604
I0418 00:31:07.015244 23732 layer_factory.hpp:77] Creating layer conv5b
I0418 00:31:07.015254 23732 net.cpp:100] Creating Layer conv5b
I0418 00:31:07.015259 23732 net.cpp:434] conv5b <- conv5a
I0418 00:31:07.015265 23732 net.cpp:408] conv5b -> conv5b
I0418 00:31:07.206174 23732 net.cpp:150] Setting up conv5b
I0418 00:31:07.206198 23732 net.cpp:157] Top shape: 1 512 96 7 7 (2408448)
I0418 00:31:07.206202 23732 net.cpp:165] Memory required for data: 10134750396
I0418 00:31:07.206212 23732 layer_factory.hpp:77] Creating layer relu5b
I0418 00:31:07.206221 23732 net.cpp:100] Creating Layer relu5b
I0418 00:31:07.206226 23732 net.cpp:434] relu5b <- conv5b
I0418 00:31:07.206234 23732 net.cpp:395] relu5b -> conv5b (in-place)
I0418 00:31:07.206399 23732 net.cpp:150] Setting up relu5b
I0418 00:31:07.206411 23732 net.cpp:157] Top shape: 1 512 96 7 7 (2408448)
I0418 00:31:07.206414 23732 net.cpp:165] Memory required for data: 10144384188
I0418 00:31:07.206419 23732 layer_factory.hpp:77] Creating layer conv5b_relu5b_0_split
I0418 00:31:07.206425 23732 net.cpp:100] Creating Layer conv5b_relu5b_0_split
I0418 00:31:07.206429 23732 net.cpp:434] conv5b_relu5b_0_split <- conv5b
I0418 00:31:07.206435 23732 net.cpp:408] conv5b_relu5b_0_split -> conv5b_relu5b_0_split_0
I0418 00:31:07.206441 23732 net.cpp:408] conv5b_relu5b_0_split -> conv5b_relu5b_0_split_1
I0418 00:31:07.206490 23732 net.cpp:150] Setting up conv5b_relu5b_0_split
I0418 00:31:07.206502 23732 net.cpp:157] Top shape: 1 512 96 7 7 (2408448)
I0418 00:31:07.206507 23732 net.cpp:157] Top shape: 1 512 96 7 7 (2408448)
I0418 00:31:07.206511 23732 net.cpp:165] Memory required for data: 10163651772
I0418 00:31:07.206516 23732 layer_factory.hpp:77] Creating layer rpn_conv/3x3
I0418 00:31:07.206526 23732 net.cpp:100] Creating Layer rpn_conv/3x3
I0418 00:31:07.206533 23732 net.cpp:434] rpn_conv/3x3 <- conv5b_relu5b_0_split_0
I0418 00:31:07.206545 23732 net.cpp:408] rpn_conv/3x3 -> rpn/output
I0418 00:31:07.395903 23732 net.cpp:150] Setting up rpn_conv/3x3
I0418 00:31:07.395926 23732 net.cpp:157] Top shape: 1 512 96 4 4 (786432)
I0418 00:31:07.395931 23732 net.cpp:165] Memory required for data: 10166797500
I0418 00:31:07.395946 23732 layer_factory.hpp:77] Creating layer rpn_relu/3x3
I0418 00:31:07.395954 23732 net.cpp:100] Creating Layer rpn_relu/3x3
I0418 00:31:07.395959 23732 net.cpp:434] rpn_relu/3x3 <- rpn/output
I0418 00:31:07.395967 23732 net.cpp:395] rpn_relu/3x3 -> rpn/output (in-place)
I0418 00:31:07.396315 23732 net.cpp:150] Setting up rpn_relu/3x3
I0418 00:31:07.396328 23732 net.cpp:157] Top shape: 1 512 96 4 4 (786432)
I0418 00:31:07.396332 23732 net.cpp:165] Memory required for data: 10169943228
I0418 00:31:07.396337 23732 layer_factory.hpp:77] Creating layer rpn_conv/3x3_2
I0418 00:31:07.396348 23732 net.cpp:100] Creating Layer rpn_conv/3x3_2
I0418 00:31:07.396355 23732 net.cpp:434] rpn_conv/3x3_2 <- rpn/output
I0418 00:31:07.396366 23732 net.cpp:408] rpn_conv/3x3_2 -> rpn/output_2
I0418 00:31:07.586938 23732 net.cpp:150] Setting up rpn_conv/3x3_2
I0418 00:31:07.586962 23732 net.cpp:157] Top shape: 1 512 96 2 2 (196608)
I0418 00:31:07.586967 23732 net.cpp:165] Memory required for data: 10170729660
I0418 00:31:07.586977 23732 layer_factory.hpp:77] Creating layer rpn_relu/3x3_2
I0418 00:31:07.586987 23732 net.cpp:100] Creating Layer rpn_relu/3x3_2
I0418 00:31:07.586992 23732 net.cpp:434] rpn_relu/3x3_2 <- rpn/output_2
I0418 00:31:07.586997 23732 net.cpp:395] rpn_relu/3x3_2 -> rpn/output_2 (in-place)
I0418 00:31:07.587360 23732 net.cpp:150] Setting up rpn_relu/3x3_2
I0418 00:31:07.587374 23732 net.cpp:157] Top shape: 1 512 96 2 2 (196608)
I0418 00:31:07.587378 23732 net.cpp:165] Memory required for data: 10171516092
I0418 00:31:07.587383 23732 layer_factory.hpp:77] Creating layer rpn/output_pool
I0418 00:31:07.587389 23732 net.cpp:100] Creating Layer rpn/output_pool
I0418 00:31:07.587393 23732 net.cpp:434] rpn/output_pool <- rpn/output_2
I0418 00:31:07.587399 23732 net.cpp:408] rpn/output_pool -> rpn/output_pool
I0418 00:31:07.588330 23732 net.cpp:150] Setting up rpn/output_pool
I0418 00:31:07.588342 23732 net.cpp:157] Top shape: 1 512 96 1 1 (49152)
I0418 00:31:07.588346 23732 net.cpp:165] Memory required for data: 10171712700
I0418 00:31:07.588349 23732 layer_factory.hpp:77] Creating layer rpn/output_pool_rpn/output_pool_0_split
I0418 00:31:07.588356 23732 net.cpp:100] Creating Layer rpn/output_pool_rpn/output_pool_0_split
I0418 00:31:07.588359 23732 net.cpp:434] rpn/output_pool_rpn/output_pool_0_split <- rpn/output_pool
I0418 00:31:07.588366 23732 net.cpp:408] rpn/output_pool_rpn/output_pool_0_split -> rpn/output_pool_rpn/output_pool_0_split_0
I0418 00:31:07.588372 23732 net.cpp:408] rpn/output_pool_rpn/output_pool_0_split -> rpn/output_pool_rpn/output_pool_0_split_1
I0418 00:31:07.588409 23732 net.cpp:150] Setting up rpn/output_pool_rpn/output_pool_0_split
I0418 00:31:07.588421 23732 net.cpp:157] Top shape: 1 512 96 1 1 (49152)
I0418 00:31:07.588429 23732 net.cpp:157] Top shape: 1 512 96 1 1 (49152)
I0418 00:31:07.588435 23732 net.cpp:165] Memory required for data: 10172105916
I0418 00:31:07.588443 23732 layer_factory.hpp:77] Creating layer rpn_cls_score
I0418 00:31:07.588461 23732 net.cpp:100] Creating Layer rpn_cls_score
I0418 00:31:07.588469 23732 net.cpp:434] rpn_cls_score <- rpn/output_pool_rpn/output_pool_0_split_0
I0418 00:31:07.588479 23732 net.cpp:408] rpn_cls_score -> rpn_cls_score
I0418 00:31:07.591456 23732 net.cpp:150] Setting up rpn_cls_score
I0418 00:31:07.591470 23732 net.cpp:157] Top shape: 1 74 96 1 1 (7104)
I0418 00:31:07.591475 23732 net.cpp:165] Memory required for data: 10172134332
I0418 00:31:07.591481 23732 layer_factory.hpp:77] Creating layer rpn_cls_score_rpn_cls_score_0_split
I0418 00:31:07.591488 23732 net.cpp:100] Creating Layer rpn_cls_score_rpn_cls_score_0_split
I0418 00:31:07.591492 23732 net.cpp:434] rpn_cls_score_rpn_cls_score_0_split <- rpn_cls_score
I0418 00:31:07.591497 23732 net.cpp:408] rpn_cls_score_rpn_cls_score_0_split -> rpn_cls_score_rpn_cls_score_0_split_0
I0418 00:31:07.591504 23732 net.cpp:408] rpn_cls_score_rpn_cls_score_0_split -> rpn_cls_score_rpn_cls_score_0_split_1
I0418 00:31:07.591560 23732 net.cpp:150] Setting up rpn_cls_score_rpn_cls_score_0_split
I0418 00:31:07.591573 23732 net.cpp:157] Top shape: 1 74 96 1 1 (7104)
I0418 00:31:07.591580 23732 net.cpp:157] Top shape: 1 74 96 1 1 (7104)
I0418 00:31:07.591588 23732 net.cpp:165] Memory required for data: 10172191164
I0418 00:31:07.591594 23732 layer_factory.hpp:77] Creating layer rpn_twin_pred
I0418 00:31:07.591615 23732 net.cpp:100] Creating Layer rpn_twin_pred
I0418 00:31:07.591624 23732 net.cpp:434] rpn_twin_pred <- rpn/output_pool_rpn/output_pool_0_split_1
I0418 00:31:07.591634 23732 net.cpp:408] rpn_twin_pred -> rpn_twin_pred
I0418 00:31:07.599884 23732 net.cpp:150] Setting up rpn_twin_pred
I0418 00:31:07.599897 23732 net.cpp:157] Top shape: 1 74 96 1 1 (7104)
I0418 00:31:07.599901 23732 net.cpp:165] Memory required for data: 10172219580
I0418 00:31:07.599910 23732 layer_factory.hpp:77] Creating layer rpn_twin_pred_rpn_twin_pred_0_split
I0418 00:31:07.599916 23732 net.cpp:100] Creating Layer rpn_twin_pred_rpn_twin_pred_0_split
I0418 00:31:07.599920 23732 net.cpp:434] rpn_twin_pred_rpn_twin_pred_0_split <- rpn_twin_pred
I0418 00:31:07.599925 23732 net.cpp:408] rpn_twin_pred_rpn_twin_pred_0_split -> rpn_twin_pred_rpn_twin_pred_0_split_0
I0418 00:31:07.599931 23732 net.cpp:408] rpn_twin_pred_rpn_twin_pred_0_split -> rpn_twin_pred_rpn_twin_pred_0_split_1
I0418 00:31:07.599985 23732 net.cpp:150] Setting up rpn_twin_pred_rpn_twin_pred_0_split
I0418 00:31:07.600000 23732 net.cpp:157] Top shape: 1 74 96 1 1 (7104)
I0418 00:31:07.600008 23732 net.cpp:157] Top shape: 1 74 96 1 1 (7104)
I0418 00:31:07.600015 23732 net.cpp:165] Memory required for data: 10172276412
I0418 00:31:07.600021 23732 layer_factory.hpp:77] Creating layer rpn_cls_score_reshape
I0418 00:31:07.600039 23732 net.cpp:100] Creating Layer rpn_cls_score_reshape
I0418 00:31:07.600049 23732 net.cpp:434] rpn_cls_score_reshape <- rpn_cls_score_rpn_cls_score_0_split_0
I0418 00:31:07.600067 23732 net.cpp:408] rpn_cls_score_reshape -> rpn_cls_score_reshape
I0418 00:31:07.600106 23732 net.cpp:150] Setting up rpn_cls_score_reshape
I0418 00:31:07.600117 23732 net.cpp:157] Top shape: 1 2 3552 1 1 (7104)
I0418 00:31:07.600123 23732 net.cpp:165] Memory required for data: 10172304828
I0418 00:31:07.600128 23732 layer_factory.hpp:77] Creating layer rpn_cls_score_reshape_rpn_cls_score_reshape_0_split
I0418 00:31:07.600141 23732 net.cpp:100] Creating Layer rpn_cls_score_reshape_rpn_cls_score_reshape_0_split
I0418 00:31:07.600148 23732 net.cpp:434] rpn_cls_score_reshape_rpn_cls_score_reshape_0_split <- rpn_cls_score_reshape
I0418 00:31:07.600157 23732 net.cpp:408] rpn_cls_score_reshape_rpn_cls_score_reshape_0_split -> rpn_cls_score_reshape_rpn_cls_score_reshape_0_split_0
I0418 00:31:07.600175 23732 net.cpp:408] rpn_cls_score_reshape_rpn_cls_score_reshape_0_split -> rpn_cls_score_reshape_rpn_cls_score_reshape_0_split_1
I0418 00:31:07.600185 23732 net.cpp:408] rpn_cls_score_reshape_rpn_cls_score_reshape_0_split -> rpn_cls_score_reshape_rpn_cls_score_reshape_0_split_2
I0418 00:31:07.600244 23732 net.cpp:150] Setting up rpn_cls_score_reshape_rpn_cls_score_reshape_0_split
I0418 00:31:07.600255 23732 net.cpp:157] Top shape: 1 2 3552 1 1 (7104)
I0418 00:31:07.600260 23732 net.cpp:157] Top shape: 1 2 3552 1 1 (7104)
I0418 00:31:07.600263 23732 net.cpp:157] Top shape: 1 2 3552 1 1 (7104)
I0418 00:31:07.600266 23732 net.cpp:165] Memory required for data: 10172390076
I0418 00:31:07.600270 23732 layer_factory.hpp:77] Creating layer rpn-data
I0418 00:31:07.600677 23732 net.cpp:100] Creating Layer rpn-data
I0418 00:31:07.600692 23732 net.cpp:434] rpn-data <- rpn_cls_score_rpn_cls_score_0_split_1
I0418 00:31:07.600697 23732 net.cpp:434] rpn-data <- gt_boxes_data_1_split_0
I0418 00:31:07.600702 23732 net.cpp:434] rpn-data <- data_data_0_split_1
I0418 00:31:07.600708 23732 net.cpp:408] rpn-data -> rpn_labels
I0418 00:31:07.600714 23732 net.cpp:408] rpn-data -> rpn_twin_targets
I0418 00:31:07.600721 23732 net.cpp:408] rpn-data -> rpn_twin_inside_weights
I0418 00:31:07.600731 23732 net.cpp:408] rpn-data -> rpn_twin_outside_weights
I0418 00:31:07.602977 23732 net.cpp:150] Setting up rpn-data
I0418 00:31:07.602993 23732 net.cpp:157] Top shape: 1 1 3552 1 1 (3552)
I0418 00:31:07.602998 23732 net.cpp:157] Top shape: 1 74 96 1 1 (7104)
I0418 00:31:07.603001 23732 net.cpp:157] Top shape: 1 74 96 1 1 (7104)
I0418 00:31:07.603005 23732 net.cpp:157] Top shape: 1 74 96 1 1 (7104)
I0418 00:31:07.603008 23732 net.cpp:165] Memory required for data: 10172489532
I0418 00:31:07.603013 23732 layer_factory.hpp:77] Creating layer rpn_labels_rpn-data_0_split
I0418 00:31:07.603021 23732 net.cpp:100] Creating Layer rpn_labels_rpn-data_0_split
I0418 00:31:07.603029 23732 net.cpp:434] rpn_labels_rpn-data_0_split <- rpn_labels
I0418 00:31:07.603037 23732 net.cpp:408] rpn_labels_rpn-data_0_split -> rpn_labels_rpn-data_0_split_0
I0418 00:31:07.603047 23732 net.cpp:408] rpn_labels_rpn-data_0_split -> rpn_labels_rpn-data_0_split_1
I0418 00:31:07.603096 23732 net.cpp:150] Setting up rpn_labels_rpn-data_0_split
I0418 00:31:07.603111 23732 net.cpp:157] Top shape: 1 1 3552 1 1 (3552)
I0418 00:31:07.603119 23732 net.cpp:157] Top shape: 1 1 3552 1 1 (3552)
I0418 00:31:07.603123 23732 net.cpp:165] Memory required for data: 10172517948
I0418 00:31:07.603127 23732 layer_factory.hpp:77] Creating layer rpn_loss_cls
I0418 00:31:07.603137 23732 net.cpp:100] Creating Layer rpn_loss_cls
I0418 00:31:07.603142 23732 net.cpp:434] rpn_loss_cls <- rpn_cls_score_reshape_rpn_cls_score_reshape_0_split_0
I0418 00:31:07.603147 23732 net.cpp:434] rpn_loss_cls <- rpn_labels_rpn-data_0_split_0
…
I0418 00:31:07.604028 23732 layer_factory.hpp:77] Creating layer rpn_accuarcy
I0418 00:31:07.604037 23732 net.cpp:100] Creating Layer rpn_accuarcy
I0418 00:31:07.604046 23732 net.cpp:434] rpn_accuarcy <- rpn_cls_score_reshape_rpn_cls_score_reshape_0_split_1
I0418 00:31:07.604058 23732 net.cpp:434] rpn_accuarcy <- rpn_labels_rpn-data_0_split_1
I0418 00:31:07.604068 23732 net.cpp:408] rpn_accuarcy -> rpn_accuarcy
I0418 00:31:07.604077 23732 net.cpp:408] rpn_accuarcy -> rpn_accuarcy_class
I0418 00:31:07.604146 23732 net.cpp:150] Setting up rpn_accuarcy
I0418 00:31:07.604156 23732 net.cpp:157] Top shape: (1)
I0418 00:31:07.604161 23732 net.cpp:157] Top shape: 2 (2)
I0418 00:31:07.604163 23732 net.cpp:165] Memory required for data: 10172517968
I0418 00:31:07.604168 23732 layer_factory.hpp:77] Creating layer rpn_cls_prob
I0418 00:31:07.604174 23732 net.cpp:100] Creating Layer rpn_cls_prob
I0418 00:31:07.604178 23732 net.cpp:434] rpn_cls_prob <- rpn_cls_score_reshape_rpn_cls_score_reshape_0_split_2
I0418 00:31:07.604184 23732 net.cpp:408] rpn_cls_prob -> rpn_cls_prob
I0418 00:31:07.605195 23732 net.cpp:150] Setting up rpn_cls_prob
I0418 00:31:07.605207 23732 net.cpp:157] Top shape: 1 2 3552 1 1 (7104)
I0418 00:31:07.605212 23732 net.cpp:165] Memory required for data: 10172546384
I0418 00:31:07.605216 23732 layer_factory.hpp:77] Creating layer rpn_cls_prob_reshape
I0418 00:31:07.605222 23732 net.cpp:100] Creating Layer rpn_cls_prob_reshape
I0418 00:31:07.605227 23732 net.cpp:434] rpn_cls_prob_reshape <- rpn_cls_prob
I0418 00:31:07.605234 23732 net.cpp:408] rpn_cls_prob_reshape -> rpn_cls_prob_reshape
I0418 00:31:07.605265 23732 net.cpp:150] Setting up rpn_cls_prob_reshape
I0418 00:31:07.605278 23732 net.cpp:157] Top shape: 1 74 96 1 1 (7104)
I0418 00:31:07.605286 23732 net.cpp:165] Memory required for data: 10172574800
I0418 00:31:07.605291 23732 layer_factory.hpp:77] Creating layer proposal
I0418 00:31:07.605839 23732 net.cpp:100] Creating Layer proposal
I0418 00:31:07.605852 23732 net.cpp:434] proposal <- rpn_cls_prob_reshape
I0418 00:31:07.605859 23732 net.cpp:434] proposal <- rpn_twin_pred_rpn_twin_pred_0_split_1
I0418 00:31:07.605864 23732 net.cpp:408] proposal -> rpn_rois
I0418 00:31:07.608193 23732 net.cpp:150] Setting up proposal
I0418 00:31:07.608207 23732 net.cpp:157] Top shape: 1 3 (3)
I0418 00:31:07.608211 23732 net.cpp:165] Memory required for data: 10172574812
I0418 00:31:07.608217 23732 layer_factory.hpp:77] Creating layer roi-data
I0418 00:31:07.609758 23732 net.cpp:100] Creating Layer roi-data
I0418 00:31:07.609772 23732 net.cpp:434] roi-data <- rpn_rois
I0418 00:31:07.609778 23732 net.cpp:434] roi-data <- gt_boxes_data_1_split_1
I0418 00:31:07.609784 23732 net.cpp:408] roi-data -> rois
I0418 00:31:07.609791 23732 net.cpp:408] roi-data -> labels
I0418 00:31:07.609797 23732 net.cpp:408] roi-data -> twin_targets
I0418 00:31:07.609802 23732 net.cpp:408] roi-data -> twin_inside_weights
I0418 00:31:07.609807 23732 net.cpp:408] roi-data -> twin_outside_weights
I0418 00:31:07.610132 23732 net.cpp:150] Setting up roi-data
I0418 00:31:07.610146 23732 net.cpp:157] Top shape: 1 3 (3)
I0418 00:31:07.610152 23732 net.cpp:157] Top shape: 1 1 (1)
I0418 00:31:07.610155 23732 net.cpp:157] Top shape: 1 402 (402)
I0418 00:31:07.610158 23732 net.cpp:157] Top shape: 1 402 (402)
I0418 00:31:07.610163 23732 net.cpp:157] Top shape: 1 402 (402)
I0418 00:31:07.610167 23732 net.cpp:165] Memory required for data: 10172579652
I0418 00:31:07.610169 23732 layer_factory.hpp:77] Creating layer labels_roi-data_1_split
I0418 00:31:07.610175 23732 net.cpp:100] Creating Layer labels_roi-data_1_split
I0418 00:31:07.610179 23732 net.cpp:434] labels_roi-data_1_split <- labels
I0418 00:31:07.610184 23732 net.cpp:408] labels_roi-data_1_split -> labels_roi-data_1_split_0
I0418 00:31:07.610191 23732 net.cpp:408] labels_roi-data_1_split -> labels_roi-data_1_split_1
I0418 00:31:07.610230 23732 net.cpp:150] Setting up labels_roi-data_1_split
I0418 00:31:07.610244 23732 net.cpp:157] Top shape: 1 1 (1)
I0418 00:31:07.610249 23732 net.cpp:157] Top shape: 1 1 (1)
I0418 00:31:07.610251 23732 net.cpp:165] Memory required for data: 10172579660
I0418 00:31:07.610255 23732 layer_factory.hpp:77] Creating layer roi_pool5
I0418 00:31:07.610265 23732 net.cpp:100] Creating Layer roi_pool5
I0418 00:31:07.610268 23732 net.cpp:434] roi_pool5 <- conv5b_relu5b_0_split_1
I0418 00:31:07.610273 23732 net.cpp:434] roi_pool5 <- rois
I0418 00:31:07.610278 23732 net.cpp:408] roi_pool5 -> pool5
I0418 00:31:07.610285 23732 roi_pooling_layer.cpp:34] Temporal scale: 0.125
I0418 00:31:07.610296 23732 roi_pooling_layer.cpp:35] Spatial scale: 0.0625
I0418 00:31:07.610342 23732 net.cpp:150] Setting up roi_pool5
I0418 00:31:07.610352 23732 net.cpp:157] Top shape: 1 512 1 4 4 (8192)
I0418 00:31:07.610357 23732 net.cpp:165] Memory required for data: 10172612428
I0418 00:31:07.610359 23732 layer_factory.hpp:77] Creating layer fc6
I0418 00:31:07.610368 23732 net.cpp:100] Creating Layer fc6
I0418 00:31:07.610373 23732 net.cpp:434] fc6 <- pool5
I0418 00:31:07.610378 23732 net.cpp:408] fc6 -> fc6
I0418 00:31:08.499024 23732 net.cpp:150] Setting up fc6
I0418 00:31:08.499050 23732 net.cpp:157] Top shape: 1 4096 (4096)
I0418 00:31:08.499056 23732 net.cpp:165] Memory required for data: 10172628812
I0418 00:31:08.499065 23732 layer_factory.hpp:77] Creating layer relu6
I0418 00:31:08.499075 23732 net.cpp:100] Creating Layer relu6
I0418 00:31:08.499080 23732 net.cpp:434] relu6 <- fc6
I0418 00:31:08.499086 23732 net.cpp:395] relu6 -> fc6 (in-place)
I0418 00:31:08.499555 23732 net.cpp:150] Setting up relu6
I0418 00:31:08.499569 23732 net.cpp:157] Top shape: 1 4096 (4096)
I0418 00:31:08.499573 23732 net.cpp:165] Memory required for data: 10172645196
I0418 00:31:08.499577 23732 layer_factory.hpp:77] Creating layer drop6
I0418 00:31:08.499590 23732 net.cpp:100] Creating Layer drop6
I0418 00:31:08.499594 23732 net.cpp:434] drop6 <- fc6
I0418 00:31:08.499599 23732 net.cpp:395] drop6 -> fc6 (in-place)
I0418 00:31:08.499629 23732 net.cpp:150] Setting up drop6
I0418 00:31:08.499639 23732 net.cpp:157] Top shape: 1 4096 (4096)
I0418 00:31:08.499644 23732 net.cpp:165] Memory required for data: 10172661580
I0418 00:31:08.499651 23732 layer_factory.hpp:77] Creating layer fc6_drop6_0_split
I0418 00:31:08.499661 23732 net.cpp:100] Creating Layer fc6_drop6_0_split
I0418 00:31:08.499668 23732 net.cpp:434] fc6_drop6_0_split <- fc6
I0418 00:31:08.499677 23732 net.cpp:408] fc6_drop6_0_split -> fc6_drop6_0_split_0
I0418 00:31:08.499686 23732 net.cpp:408] fc6_drop6_0_split -> fc6_drop6_0_split_1
I0418 00:31:08.499732 23732 net.cpp:150] Setting up fc6_drop6_0_split
I0418 00:31:08.499745 23732 net.cpp:157] Top shape: 1 4096 (4096)
I0418 00:31:08.499750 23732 net.cpp:157] Top shape: 1 4096 (4096)
I0418 00:31:08.499754 23732 net.cpp:165] Memory required for data: 10172694348
I0418 00:31:08.499758 23732 layer_factory.hpp:77] Creating layer cls_score
I0418 00:31:08.499766 23732 net.cpp:100] Creating Layer cls_score
I0418 00:31:08.499771 23732 net.cpp:434] cls_score <- fc6_drop6_0_split_0
I0418 00:31:08.499780 23732 net.cpp:408] cls_score -> cls_score
I0418 00:31:08.521569 23732 net.cpp:150] Setting up cls_score
I0418 00:31:08.521589 23732 net.cpp:157] Top shape: 1 201 (201)
I0418 00:31:08.521595 23732 net.cpp:165] Memory required for data: 10172695152
I0418 00:31:08.521603 23732 layer_factory.hpp:77] Creating layer cls_score_cls_score_0_split
I0418 00:31:08.521611 23732 net.cpp:100] Creating Layer cls_score_cls_score_0_split
I0418 00:31:08.521616 23732 net.cpp:434] cls_score_cls_score_0_split <- cls_score
I0418 00:31:08.521622 23732 net.cpp:408] cls_score_cls_score_0_split -> cls_score_cls_score_0_split_0
I0418 00:31:08.521631 23732 net.cpp:408] cls_score_cls_score_0_split -> cls_score_cls_score_0_split_1
I0418 00:31:08.521680 23732 net.cpp:150] Setting up cls_score_cls_score_0_split
I0418 00:31:08.521690 23732 net.cpp:157] Top shape: 1 201 (201)
I0418 00:31:08.521695 23732 net.cpp:157] Top shape: 1 201 (201)
I0418 00:31:08.521698 23732 net.cpp:165] Memory required for data: 10172696760
I0418 00:31:08.521703 23732 layer_factory.hpp:77] Creating layer twin_pred
I0418 00:31:08.521714 23732 net.cpp:100] Creating Layer twin_pred
I0418 00:31:08.521725 23732 net.cpp:434] twin_pred <- fc6_drop6_0_split_1
I0418 00:31:08.521735 23732 net.cpp:408] twin_pred -> twin_pred
I0418 00:31:08.565062 23732 net.cpp:150] Setting up twin_pred
I0418 00:31:08.565086 23732 net.cpp:157] Top shape: 1 402 (402)
I0418 00:31:08.565091 23732 net.cpp:165] Memory required for data: 10172698368
I0418 00:31:08.565101 23732 layer_factory.hpp:77] Creating layer loss_cls
I0418 00:31:08.565110 23732 net.cpp:100] Creating Layer loss_cls
I0418 00:31:08.565116 23732 net.cpp:434] loss_cls <- cls_score_cls_score_0_split_0
I0418 00:31:08.565124 23732 net.cpp:434] loss_cls <- labels_roi-data_1_split_0
I0418 00:31:08.565129 23732 net.cpp:408] loss_cls -> loss_cls
…
