…
stepsize: 350000
snapshot: 0
snapshot_prefix: "./experiments/activitynet/snapshot/activitynet"
average_loss: 100
iter_size: 1
I0417 04:06:40.967336  4150 solver.cpp:81] Creating training net from train_net file: ./experiments/activitynet/train.prototxt
I0417 04:06:40.968418  4150 net.cpp:58] Initializing net from parameters: 
name: "activitynet"
state {
  phase: TRAIN
}
layer {
  name: "data"
  type: "Python"
  top: "data"
  top: "gt_boxes"
  python_param {
    module: "roi_data_layer.layer"
    layer: "RoIDataLayer"
    param_str: "\'num_classes\': 100"
  }
}
layer {
  name: "conv1a"
  type: "Convolution"
  bottom: "data"
  top: "conv1a"
  param {
    lr_mult: 0
    decay_mult: 0
  }
  param {
    lr_mult: 0
    decay_mult: 0
  }
  convolution_param {
    num_output: 64
    pad: 1
    pad: 1
    pad: 1
    kernel_size: 3
    kernel_size: 3
    kernel_size: 3
    weight_filler {
      type: "gaussian"
      std: 0.01
    }
    bias_filler {
      type: "constant"
      value: 0
    }
  }
}
layer {
  name: "relu1a"
  type: "ReLU"
  bottom: "conv1a"
  top: "conv1a"
}
layer {
  name: "pool1"
  type: "Pooling"
  bottom: "conv1a"
  top: "pool1"
  pooling_param {
    pool: MAX
    kernel_size: 1
    kernel_size: 2
    kernel_size: 2
    stride: 1
    stride: 2
    stride: 2
  }
}
layer {
  name: "conv2a"
  type: "Convolution"
  bottom: "pool1"
  top: "conv2a"
  param {
    lr_mult: 0
    decay_mult: 0
  }
  param {
    lr_mult: 0
    decay_mult: 0
  }
  convolution_param {
    num_output: 128
    pad: 1
    pad: 1
    pad: 1
    kernel_size: 3
    kernel_size: 3
    kernel_size: 3
    weight_filler {
      type: "gaussian"
      std: 0.01
    }
    bias_filler {
      type: "constant"
      value: 1
    }
  }
}
layer {
  name: "relu2a"
  type: "ReLU"
  bottom: "conv2a"
  top: "conv2a"
}
layer {
  name: "pool2"
  type: "Pooling"
  bottom: "conv2a"
  top: "pool2"
  pooling_param {
    pool: MAX
    kernel_size: 2
    kernel_size: 2
    kernel_size: 2
    stride: 2
    stride: 2
    stride: 2
  }
}
layer {
  name: "conv3a"
  type: "Convolution"
  bottom: "pool2"
  top: "conv3a"
  param {
    lr_mult: 1
    decay_mult: 1
  }
  param {
    lr_mult: 2
    decay_mult: 0
  }
  convolution_param {
    num_output: 256
    pad: 1
    pad: 1
    pad: 1
    kernel_size: 3
    kernel_size: 3
    kernel_size: 3
    weight_filler {
      type: "gaussian"
      std: 0.01
    }
    bias_filler {
      type: "constant"
      value: 1
    }
  }
}
layer {
  name: "relu3a"
  type: "ReLU"
  bottom: "conv3a"
  top: "conv3a"
}
layer {
  name: "conv3b"
  type: "Convolution"
  bottom: "conv3a"
  top: "conv3b"
  param {
    lr_mult: 1
    decay_mult: 1
  }
  param {
    lr_mult: 2
    decay_mult: 0
  }
  convolution_param {
    num_output: 256
    pad: 1
    pad: 1
    pad: 1
    kernel_size: 3
    kernel_size: 3
    kernel_size: 3
    weight_filler {
      type: "gaussian"
      std: 0.01
    }
    bias_filler {
      type: "constant"
      value: 1
    }
  }
}
layer {
  name: "relu3b"
  type: "ReLU"
  bottom: "conv3b"
  top: "conv3b"
}
layer {
  name: "pool3"
  type: "Pooling"
  bottom: "conv3b"
  top: "pool3"
  pooling_param {
    pool: MAX
    kernel_size: 2
    kernel_size: 2
    kernel_size: 2
    stride: 2
    stride: 2
    stride: 2
  }
}
layer {
  name: "conv4a"
  type: "Convolution"
  bottom: "pool3"
  top: "conv4a"
  param {
    lr_mult: 1
    decay_mult: 1
  }
  param {
    lr_mult: 2
    decay_mult: 0
  }
  convolution_param {
    num_output: 512
    pad: 1
    pad: 1
    pad: 1
    kernel_size: 3
    kernel_size: 3
    kernel_size: 3
    weight_filler {
      type: "gaussian"
      std: 0.01
    }
    bias_filler {
      type: "constant"
      value: 1
    }
  }
}
layer {
  name: "relu4a"
  type: "ReLU"
  bottom: "conv4a"
  top: "conv4a"
}
layer {
  name: "conv4b"
  type: "Convolution"
  bottom: "conv4a"
  top: "conv4b"
  param {
    lr_mult: 1
    decay_mult: 1
  }
  param {
    lr_mult: 2
    decay_mult: 0
  }
  convolution_param {
    num_output: 512
    pad: 1
    pad: 1
    pad: 1
    kernel_size: 3
    kernel_size: 3
    kernel_size: 3
    weight_filler {
      type: "gaussian"
      std: 0.01
    }
    bias_filler {
      type: "constant"
      value: 1
    }
  }
}
layer {
  name: "relu4b"
  type: "ReLU"
  bottom: "conv4b"
  top: "conv4b"
}
layer {
  name: "pool4"
  type: "Pooling"
  bottom: "conv4b"
  top: "pool4"
  pooling_param {
    pool: MAX
    kernel_size: 2
    kernel_size: 2
    kernel_size: 2
    stride: 2
    stride: 2
    stride: 2
  }
}
layer {
  name: "conv5a"
  type: "Convolution"
  bottom: "pool4"
  top: "conv5a"
  param {
    lr_mult: 1
    decay_mult: 1
  }
  param {
    lr_mult: 2
    decay_mult: 0
  }
  convolution_param {
    num_output: 512
    pad: 1
    pad: 1
    pad: 1
    kernel_size: 3
    kernel_size: 3
    kernel_size: 3
    weight_filler {
      type: "gaussian"
      std: 0.01
    }
    bias_filler {
      type: "constant"
      value: 1
    }
  }
}
layer {
  name: "relu5a"
  type: "ReLU"
  bottom: "conv5a"
  top: "conv5a"
}
layer {
  name: "conv5b"
  type: "Convolution"
  bottom: "conv5a"
  top: "conv5b"
  param {
    lr_mult: 1
    decay_mult: 1
  }
  param {
    lr_mult: 2
    decay_mult: 0
  }
  convolution_param {
    num_output: 512
    pad: 1
    pad: 1
    pad: 1
    kernel_size: 3
    kernel_size: 3
    kernel_size: 3
    weight_filler {
      type: "gaussian"
      std: 0.01
    }
    bias_filler {
      type: "constant"
      value: 1
    }
  }
}
layer {
  name: "relu5b"
  type: "ReLU"
  bottom: "conv5b"
  top: "conv5b"
}
layer {
  name: "rpn_conv/3x3"
  type: "Convolution"
  bottom: "conv5b"
  top: "rpn/output"
  param {
    lr_mult: 1
    decay_mult: 1
  }
  param {
    lr_mult: 2
    decay_mult: 0
  }
  convolution_param {
    num_output: 512
    pad: 1
    pad: 1
    pad: 1
    kernel_size: 3
    kernel_size: 3
    kernel_size: 3
    stride: 1
    stride: 2
    stride: 2
    weight_filler {
      type: "gaussian"
      std: 0.01
    }
    bias_filler {
      type: "constant"
      value: 0
    }
  }
}
layer {
  name: "rpn_relu/3x3"
  type: "ReLU"
  bottom: "rpn/output"
  top: "rpn/output"
}
layer {
  name: "rpn_conv/3x3_2"
  type: "Convolution"
  bottom: "rpn/output"
  top: "rpn/output_2"
  param {
    lr_mult: 1
    decay_mult: 1
  }
  param {
    lr_mult: 2
    decay_mult: 0
  }
  convolution_param {
    num_output: 512
    pad: 1
    pad: 1
    pad: 1
    kernel_size: 3
    kernel_size: 3
    kernel_size: 3
    stride: 1
    stride: 2
    stride: 2
    weight_filler {
      type: "gaussian"
      std: 0.01
    }
    bias_filler {
      type: "constant"
      value: 0
    }
  }
}
layer {
  name: "rpn_relu/3x3_2"
  type: "ReLU"
  bottom: "rpn/output_2"
  top: "rpn/output_2"
}
layer {
  name: "rpn/output_pool"
  type: "Pooling"
  bottom: "rpn/output_2"
  top: "rpn/output_pool"
  pooling_param {
    pool: MAX
    kernel_size: 1
    kernel_size: 2
    kernel_size: 2
  }
}
layer {
  name: "rpn_cls_score"
  type: "Convolution"
  bottom: "rpn/output_pool"
  top: "rpn_cls_score"
  param {
    lr_mult: 1
    decay_mult: 1
  }
  param {
    lr_mult: 2
    decay_mult: 0
  }
  convolution_param {
    num_output: 74
    kernel_size: 1
    kernel_size: 1
    kernel_size: 1
    weight_filler {
      type: "gaussian"
      std: 0.01
    }
    bias_filler {
      type: "constant"
      value: 0
    }
  }
}
layer {
  name: "rpn_twin_pred"
  type: "Convolution"
  bottom: "rpn/output_pool"
  top: "rpn_twin_pred"
  param {
    lr_mult: 1
    decay_mult: 1
  }
  param {
    lr_mult: 2
    decay_mult: 0
  }
  convolution_param {
    num_output: 74
    kernel_size: 1
    kernel_size: 1
    kernel_size: 1
    weight_filler {
      type: "gaussian"
      std: 0.01
    }
    bias_filler {
      type: "constant"
      value: 0
    }
  }
}
layer {
  name: "rpn_cls_score_reshape"
  type: "Reshape"
  bottom: "rpn_cls_score"
  top: "rpn_cls_score_reshape"
  reshape_param {
    shape {
      dim: 0
      dim: 2
      dim: -1
      dim: 0
      dim: 0
    }
  }
}
layer {
  name: "rpn-data"
  type: "Python"
  bottom: "rpn_cls_score"
  bottom: "gt_boxes"
  bottom: "data"
  top: "rpn_labels"
  top: "rpn_twin_targets"
  top: "rpn_twin_inside_weights"
  top: "rpn_twin_outside_weights"
  python_param {
    module: "rpn.anchor_target_layer"
    layer: "AnchorTargetLayer"
    param_str: "\'feat_stride\': 8 \n\'scales\': !!python/tuple [1,1.25, 1.5,1.75, 2,2.5, 3,3.5, 4,4.5, 5,5.5, 6,7, 8,9,10,11,12,14,16,18,20,22,24,28,32,36,40,44,52,60,68,76,84,92,100]"
  }
}
layer {
  name: "rpn_loss_cls"
  type: "SoftmaxWithLoss"
  bottom: "rpn_cls_score_reshape"
  bottom: "rpn_labels"
  top: "rpn_cls_loss"
  loss_weight: 1
  propagate_down: true
  propagate_down: false
  loss_param {
    ignore_label: -1
    normalize: true
  }
}
layer {
  name: "rpn_loss_twin"
  type: "SmoothL1Loss"
  bottom: "rpn_twin_pred"
  bottom: "rpn_twin_targets"
  bottom: "rpn_twin_inside_weights"
  bottom: "rpn_twin_outside_weights"
  top: "rpn_loss_twin"
  loss_weight: 1
  smooth_l1_loss_param {
    sigma: 3
  }
}
layer {
  name: "rpn_accuarcy"
  type: "Accuracy"
  bottom: "rpn_cls_score_reshape"
  bottom: "rpn_labels"
  top: "rpn_accuarcy"
  top: "rpn_accuarcy_class"
  propagate_down: false
  propagate_down: false
  accuracy_param {
    ignore_label: -1
  }
}
layer {
  name: "rpn_cls_prob"
  type: "Softmax"
  bottom: "rpn_cls_score_reshape"
  top: "rpn_cls_prob"
}
layer {
  name: "rpn_cls_prob_reshape"
  type: "Reshape"
  bottom: "rpn_cls_prob"
  top: "rpn_cls_prob_reshape"
  reshape_param {
    shape {
      dim: 0
      dim: 74
      dim: -1
      dim: 0
      dim: 0
    }
  }
}
layer {
  name: "proposal"
  type: "Python"
  bottom: "rpn_cls_prob_reshape"
  bottom: "rpn_twin_pred"
  top: "rpn_rois"
  include {
    phase: TRAIN
  }
  python_param {
    module: "rpn.proposal_layer"
    layer: "ProposalLayer"
    param_str: "\'feat_stride\': 8 \n\'scales\': !!python/tuple [1,1.25, 1.5,1.75, 2,2.5, 3,3.5, 4,4.5, 5,5.5, 6,7, 8,9,10,11,12,14,16,18,20,22,24,28,32,36,40,44,52,60,68,76,84,92,100]"
  }
}
layer {
  name: "roi-data"
  type: "Python"
  bottom: "rpn_rois"
  bottom: "gt_boxes"
  top: "rois"
  top: "labels"
  top: "twin_targets"
  top: "twin_inside_weights"
  top: "twin_outside_weights"
  python_param {
    module: "rpn.proposal_target_layer"
    layer: "ProposalTargetLayer"
    param_str: "\'num_classes\': 201"
  }
}
layer {
  name: "roi_pool5"
  type: "ROIPooling"
  bottom: "conv5b"
  bottom: "rois"
  top: "pool5"
  roi_pooling_param {
    pooled_h: 4
    pooled_w: 4
    spatial_scale: 0.0625
    pooled_l: 1
    temporal_scale: 0.125
  }
}
layer {
  name: "fc6"
  type: "InnerProduct"
  bottom: "pool5"
  top: "fc6"
  param {
    lr_mult: 1
    decay_mult: 1
  }
  param {
    lr_mult: 2
    decay_mult: 0
  }
  inner_product_param {
    num_output: 4096
    weight_filler {
      type: "gaussian"
      std: 0.005
    }
    bias_filler {
      type: "constant"
      value: 1
    }
  }
}
layer {
  name: "relu6"
  type: "ReLU"
  bottom: "fc6"
  top: "fc6"
}
layer {
  name: "drop6"
  type: "Dropout"
  bottom: "fc6"
  top: "fc6"
  dropout_param {
    dropout_ratio: 0.5
  }
}
layer {
  name: "cls_score"
  type: "InnerProduct"
  bottom: "fc6"
  top: "cls_score"
  param {
    lr_mult: 1
    decay_mult: 1
  }
  param {
    lr_mult: 2
    decay_mult: 0
  }
  inner_product_param {
    num_output: 201
    weight_filler {
      type: "gaussian"
      std: 0.01
    }
    bias_filler {
      type: "constant"
      value: 0
    }
  }
}
layer {
  name: "twin_pred"
  type: "InnerProduct"
  bottom: "fc6"
  top: "twin_pred"
  param {
    lr_mult: 1
    decay_mult: 1
  }
  param {
    lr_mult: 2
    decay_mult: 0
  }
  inner_product_param {
    num_output: 402
    weight_filler {
      type: "gaussian"
      std: 0.001
    }
    bias_filler {
      type: "constant"
      value: 0
    }
  }
}
layer {
  name: "loss_cls"
  type: "SoftmaxWithLoss"
  bottom: "cls_score"
  bottom: "labels"
  top: "loss_cls"
  loss_weight: 1
  propagate_down: true
  propagate_down: false
}
layer {
  name: "loss_twin"
  type: "SmoothL1Loss"
  bottom: "twin_pred"
  bottom: "twin_targets"
  bottom: "twin_inside_weights"
  bottom: "twin_outside_weights"
  top: "loss_twin"
  loss_weight: 1
}
layer {
  name: "accuarcy"
  type: "Accuracy"
  bottom: "cls_score"
  bottom: "labels"
  top: "accuarcy"
  propagate_down: false
  propagate_down: false
  accuracy_param {
    ignore_label: -1
  }
}
I0417 04:06:40.968642  4150 layer_factory.hpp:77] Creating layer data
I0417 04:06:40.994684  4150 net.cpp:100] Creating Layer data
I0417 04:06:40.994706  4150 net.cpp:408] data -> data
I0417 04:06:40.994719  4150 net.cpp:408] data -> gt_boxes
setting up
RoiDataLayer: name_to_top: {'gt_windows': 1, 'data': 0}
I0417 04:06:41.008270  4150 net.cpp:150] Setting up data
I0417 04:06:41.008294  4150 net.cpp:157] Top shape: 1 3 768 112 112 (28901376)
I0417 04:06:41.008301  4150 net.cpp:157] Top shape: 1 101 (101)
I0417 04:06:41.008304  4150 net.cpp:165] Memory required for data: 115605908
I0417 04:06:41.008311  4150 layer_factory.hpp:77] Creating layer data_data_0_split
I0417 04:06:41.008322  4150 net.cpp:100] Creating Layer data_data_0_split
I0417 04:06:41.008327  4150 net.cpp:434] data_data_0_split <- data
I0417 04:06:41.008335  4150 net.cpp:408] data_data_0_split -> data_data_0_split_0
I0417 04:06:41.008349  4150 net.cpp:408] data_data_0_split -> data_data_0_split_1
I0417 04:06:41.008402  4150 net.cpp:150] Setting up data_data_0_split
I0417 04:06:41.008411  4150 net.cpp:157] Top shape: 1 3 768 112 112 (28901376)
I0417 04:06:41.008415  4150 net.cpp:157] Top shape: 1 3 768 112 112 (28901376)
I0417 04:06:41.008419  4150 net.cpp:165] Memory required for data: 346816916
I0417 04:06:41.008422  4150 layer_factory.hpp:77] Creating layer gt_boxes_data_1_split
I0417 04:06:41.008428  4150 net.cpp:100] Creating Layer gt_boxes_data_1_split
I0417 04:06:41.008433  4150 net.cpp:434] gt_boxes_data_1_split <- gt_boxes
I0417 04:06:41.008440  4150 net.cpp:408] gt_boxes_data_1_split -> gt_boxes_data_1_split_0
I0417 04:06:41.008448  4150 net.cpp:408] gt_boxes_data_1_split -> gt_boxes_data_1_split_1
I0417 04:06:41.008489  4150 net.cpp:150] Setting up gt_boxes_data_1_split
I0417 04:06:41.008497  4150 net.cpp:157] Top shape: 1 101 (101)
I0417 04:06:41.008502  4150 net.cpp:157] Top shape: 1 101 (101)
I0417 04:06:41.008504  4150 net.cpp:165] Memory required for data: 346817724
I0417 04:06:41.008507  4150 layer_factory.hpp:77] Creating layer conv1a
I0417 04:06:41.008523  4150 net.cpp:100] Creating Layer conv1a
I0417 04:06:41.008528  4150 net.cpp:434] conv1a <- data_data_0_split_0
I0417 04:06:41.008538  4150 net.cpp:408] conv1a -> conv1a
I0417 04:06:41.027562  4150 net.cpp:150] Setting up conv1a
I0417 04:06:41.027593  4150 net.cpp:157] Top shape: 1 64 768 112 112 (616562688)
I0417 04:06:41.027597  4150 net.cpp:165] Memory required for data: 2813068476
I0417 04:06:41.027618  4150 layer_factory.hpp:77] Creating layer relu1a
I0417 04:06:41.027633  4150 net.cpp:100] Creating Layer relu1a
I0417 04:06:41.027638  4150 net.cpp:434] relu1a <- conv1a
I0417 04:06:41.027644  4150 net.cpp:395] relu1a -> conv1a (in-place)
I0417 04:06:41.027655  4150 net.cpp:150] Setting up relu1a
I0417 04:06:41.027668  4150 net.cpp:157] Top shape: 1 64 768 112 112 (616562688)
I0417 04:06:41.027671  4150 net.cpp:165] Memory required for data: 5279319228
I0417 04:06:41.027674  4150 layer_factory.hpp:77] Creating layer pool1
I0417 04:06:41.027686  4150 net.cpp:100] Creating Layer pool1
I0417 04:06:41.027693  4150 net.cpp:434] pool1 <- conv1a
I0417 04:06:41.027698  4150 net.cpp:408] pool1 -> pool1
I0417 04:06:41.027809  4150 net.cpp:150] Setting up pool1
I0417 04:06:41.027817  4150 net.cpp:157] Top shape: 1 64 768 56 56 (154140672)
I0417 04:06:41.027820  4150 net.cpp:165] Memory required for data: 5895881916
I0417 04:06:41.027824  4150 layer_factory.hpp:77] Creating layer conv2a
I0417 04:06:41.027835  4150 net.cpp:100] Creating Layer conv2a
I0417 04:06:41.027838  4150 net.cpp:434] conv2a <- pool1
I0417 04:06:41.027848  4150 net.cpp:408] conv2a -> conv2a
I0417 04:06:41.038787  4150 net.cpp:150] Setting up conv2a
I0417 04:06:41.038815  4150 net.cpp:157] Top shape: 1 128 768 56 56 (308281344)
I0417 04:06:41.038820  4150 net.cpp:165] Memory required for data: 7129007292
I0417 04:06:41.038832  4150 layer_factory.hpp:77] Creating layer relu2a
I0417 04:06:41.038843  4150 net.cpp:100] Creating Layer relu2a
I0417 04:06:41.038848  4150 net.cpp:434] relu2a <- conv2a
I0417 04:06:41.038856  4150 net.cpp:395] relu2a -> conv2a (in-place)
I0417 04:06:41.038872  4150 net.cpp:150] Setting up relu2a
I0417 04:06:41.038875  4150 net.cpp:157] Top shape: 1 128 768 56 56 (308281344)
I0417 04:06:41.038879  4150 net.cpp:165] Memory required for data: 8362132668
I0417 04:06:41.038882  4150 layer_factory.hpp:77] Creating layer pool2
I0417 04:06:41.038890  4150 net.cpp:100] Creating Layer pool2
I0417 04:06:41.038893  4150 net.cpp:434] pool2 <- conv2a
I0417 04:06:41.038899  4150 net.cpp:408] pool2 -> pool2
I0417 04:06:41.038986  4150 net.cpp:150] Setting up pool2
I0417 04:06:41.038995  4150 net.cpp:157] Top shape: 1 128 384 28 28 (38535168)
I0417 04:06:41.038998  4150 net.cpp:165] Memory required for data: 8516273340
I0417 04:06:41.039001  4150 layer_factory.hpp:77] Creating layer conv3a
I0417 04:06:41.039012  4150 net.cpp:100] Creating Layer conv3a
I0417 04:06:41.039017  4150 net.cpp:434] conv3a <- pool2
I0417 04:06:41.039024  4150 net.cpp:408] conv3a -> conv3a
I0417 04:06:41.064162  4150 net.cpp:150] Setting up conv3a
I0417 04:06:41.064185  4150 net.cpp:157] Top shape: 1 256 384 28 28 (77070336)
I0417 04:06:41.064189  4150 net.cpp:165] Memory required for data: 8824554684
I0417 04:06:41.064201  4150 layer_factory.hpp:77] Creating layer relu3a
I0417 04:06:41.064213  4150 net.cpp:100] Creating Layer relu3a
I0417 04:06:41.064218  4150 net.cpp:434] relu3a <- conv3a
I0417 04:06:41.064224  4150 net.cpp:395] relu3a -> conv3a (in-place)
I0417 04:06:41.064232  4150 net.cpp:150] Setting up relu3a
I0417 04:06:41.064236  4150 net.cpp:157] Top shape: 1 256 384 28 28 (77070336)
I0417 04:06:41.064239  4150 net.cpp:165] Memory required for data: 9132836028
I0417 04:06:41.064242  4150 layer_factory.hpp:77] Creating layer conv3b
I0417 04:06:41.064252  4150 net.cpp:100] Creating Layer conv3b
I0417 04:06:41.064260  4150 net.cpp:434] conv3b <- conv3a
I0417 04:06:41.064265  4150 net.cpp:408] conv3b -> conv3b
I0417 04:06:41.113072  4150 net.cpp:150] Setting up conv3b
I0417 04:06:41.113097  4150 net.cpp:157] Top shape: 1 256 384 28 28 (77070336)
I0417 04:06:41.113102  4150 net.cpp:165] Memory required for data: 9441117372
I0417 04:06:41.113111  4150 layer_factory.hpp:77] Creating layer relu3b
I0417 04:06:41.113121  4150 net.cpp:100] Creating Layer relu3b
I0417 04:06:41.113126  4150 net.cpp:434] relu3b <- conv3b
I0417 04:06:41.113133  4150 net.cpp:395] relu3b -> conv3b (in-place)
I0417 04:06:41.113142  4150 net.cpp:150] Setting up relu3b
I0417 04:06:41.113147  4150 net.cpp:157] Top shape: 1 256 384 28 28 (77070336)
I0417 04:06:41.113149  4150 net.cpp:165] Memory required for data: 9749398716
I0417 04:06:41.113152  4150 layer_factory.hpp:77] Creating layer pool3
I0417 04:06:41.113158  4150 net.cpp:100] Creating Layer pool3
I0417 04:06:41.113162  4150 net.cpp:434] pool3 <- conv3b
I0417 04:06:41.113168  4150 net.cpp:408] pool3 -> pool3
I0417 04:06:41.113224  4150 net.cpp:150] Setting up pool3
I0417 04:06:41.113231  4150 net.cpp:157] Top shape: 1 256 192 14 14 (9633792)
I0417 04:06:41.113234  4150 net.cpp:165] Memory required for data: 9787933884
I0417 04:06:41.113237  4150 layer_factory.hpp:77] Creating layer conv4a
I0417 04:06:41.113247  4150 net.cpp:100] Creating Layer conv4a
I0417 04:06:41.113253  4150 net.cpp:434] conv4a <- pool3
I0417 04:06:41.113261  4150 net.cpp:408] conv4a -> conv4a
I0417 04:06:41.212594  4150 net.cpp:150] Setting up conv4a
I0417 04:06:41.212618  4150 net.cpp:157] Top shape: 1 512 192 14 14 (19267584)
I0417 04:06:41.212622  4150 net.cpp:165] Memory required for data: 9865004220
I0417 04:06:41.212635  4150 layer_factory.hpp:77] Creating layer relu4a
I0417 04:06:41.212644  4150 net.cpp:100] Creating Layer relu4a
I0417 04:06:41.212648  4150 net.cpp:434] relu4a <- conv4a
I0417 04:06:41.212654  4150 net.cpp:395] relu4a -> conv4a (in-place)
I0417 04:06:41.212662  4150 net.cpp:150] Setting up relu4a
I0417 04:06:41.212666  4150 net.cpp:157] Top shape: 1 512 192 14 14 (19267584)
I0417 04:06:41.212669  4150 net.cpp:165] Memory required for data: 9942074556
I0417 04:06:41.212672  4150 layer_factory.hpp:77] Creating layer conv4b
I0417 04:06:41.212687  4150 net.cpp:100] Creating Layer conv4b
I0417 04:06:41.212692  4150 net.cpp:434] conv4b <- conv4a
I0417 04:06:41.212697  4150 net.cpp:408] conv4b -> conv4b
I0417 04:06:41.406675  4150 net.cpp:150] Setting up conv4b
I0417 04:06:41.406708  4150 net.cpp:157] Top shape: 1 512 192 14 14 (19267584)
I0417 04:06:41.406711  4150 net.cpp:165] Memory required for data: 10019144892
I0417 04:06:41.406721  4150 layer_factory.hpp:77] Creating layer relu4b
I0417 04:06:41.406735  4150 net.cpp:100] Creating Layer relu4b
I0417 04:06:41.406740  4150 net.cpp:434] relu4b <- conv4b
I0417 04:06:41.406746  4150 net.cpp:395] relu4b -> conv4b (in-place)
I0417 04:06:41.406755  4150 net.cpp:150] Setting up relu4b
I0417 04:06:41.406765  4150 net.cpp:157] Top shape: 1 512 192 14 14 (19267584)
I0417 04:06:41.406770  4150 net.cpp:165] Memory required for data: 10096215228
I0417 04:06:41.406776  4150 layer_factory.hpp:77] Creating layer pool4
I0417 04:06:41.406787  4150 net.cpp:100] Creating Layer pool4
I0417 04:06:41.406792  4150 net.cpp:434] pool4 <- conv4b
I0417 04:06:41.406800  4150 net.cpp:408] pool4 -> pool4
I0417 04:06:41.406849  4150 net.cpp:150] Setting up pool4
I0417 04:06:41.406858  4150 net.cpp:157] Top shape: 1 512 96 7 7 (2408448)
I0417 04:06:41.406862  4150 net.cpp:165] Memory required for data: 10105849020
I0417 04:06:41.406865  4150 layer_factory.hpp:77] Creating layer conv5a
I0417 04:06:41.406874  4150 net.cpp:100] Creating Layer conv5a
I0417 04:06:41.406883  4150 net.cpp:434] conv5a <- pool4
I0417 04:06:41.406889  4150 net.cpp:408] conv5a -> conv5a
I0417 04:06:41.597064  4150 net.cpp:150] Setting up conv5a
I0417 04:06:41.597088  4150 net.cpp:157] Top shape: 1 512 96 7 7 (2408448)
I0417 04:06:41.597092  4150 net.cpp:165] Memory required for data: 10115482812
I0417 04:06:41.597100  4150 layer_factory.hpp:77] Creating layer relu5a
I0417 04:06:41.597110  4150 net.cpp:100] Creating Layer relu5a
I0417 04:06:41.597117  4150 net.cpp:434] relu5a <- conv5a
I0417 04:06:41.597126  4150 net.cpp:395] relu5a -> conv5a (in-place)
I0417 04:06:41.597138  4150 net.cpp:150] Setting up relu5a
I0417 04:06:41.597147  4150 net.cpp:157] Top shape: 1 512 96 7 7 (2408448)
I0417 04:06:41.597153  4150 net.cpp:165] Memory required for data: 10125116604
I0417 04:06:41.597158  4150 layer_factory.hpp:77] Creating layer conv5b
I0417 04:06:41.597174  4150 net.cpp:100] Creating Layer conv5b
I0417 04:06:41.597187  4150 net.cpp:434] conv5b <- conv5a
I0417 04:06:41.597203  4150 net.cpp:408] conv5b -> conv5b
I0417 04:06:41.784129  4150 net.cpp:150] Setting up conv5b
I0417 04:06:41.784159  4150 net.cpp:157] Top shape: 1 512 96 7 7 (2408448)
I0417 04:06:41.784170  4150 net.cpp:165] Memory required for data: 10134750396
I0417 04:06:41.784178  4150 layer_factory.hpp:77] Creating layer relu5b
I0417 04:06:41.784188  4150 net.cpp:100] Creating Layer relu5b
I0417 04:06:41.784193  4150 net.cpp:434] relu5b <- conv5b
I0417 04:06:41.784199  4150 net.cpp:395] relu5b -> conv5b (in-place)
I0417 04:06:41.784211  4150 net.cpp:150] Setting up relu5b
I0417 04:06:41.784216  4150 net.cpp:157] Top shape: 1 512 96 7 7 (2408448)
I0417 04:06:41.784219  4150 net.cpp:165] Memory required for data: 10144384188
I0417 04:06:41.784222  4150 layer_factory.hpp:77] Creating layer conv5b_relu5b_0_split
I0417 04:06:41.784229  4150 net.cpp:100] Creating Layer conv5b_relu5b_0_split
I0417 04:06:41.784234  4150 net.cpp:434] conv5b_relu5b_0_split <- conv5b
I0417 04:06:41.784238  4150 net.cpp:408] conv5b_relu5b_0_split -> conv5b_relu5b_0_split_0
I0417 04:06:41.784245  4150 net.cpp:408] conv5b_relu5b_0_split -> conv5b_relu5b_0_split_1
I0417 04:06:41.784296  4150 net.cpp:150] Setting up conv5b_relu5b_0_split
I0417 04:06:41.784304  4150 net.cpp:157] Top shape: 1 512 96 7 7 (2408448)
I0417 04:06:41.784308  4150 net.cpp:157] Top shape: 1 512 96 7 7 (2408448)
I0417 04:06:41.784312  4150 net.cpp:165] Memory required for data: 10163651772
I0417 04:06:41.784314  4150 layer_factory.hpp:77] Creating layer rpn_conv/3x3
I0417 04:06:41.784327  4150 net.cpp:100] Creating Layer rpn_conv/3x3
I0417 04:06:41.784333  4150 net.cpp:434] rpn_conv/3x3 <- conv5b_relu5b_0_split_0
I0417 04:06:41.784340  4150 net.cpp:408] rpn_conv/3x3 -> rpn/output
I0417 04:06:41.977082  4150 net.cpp:150] Setting up rpn_conv/3x3
I0417 04:06:41.977107  4150 net.cpp:157] Top shape: 1 512 96 4 4 (786432)
I0417 04:06:41.977111  4150 net.cpp:165] Memory required for data: 10166797500
I0417 04:06:41.977126  4150 layer_factory.hpp:77] Creating layer rpn_relu/3x3
I0417 04:06:41.977135  4150 net.cpp:100] Creating Layer rpn_relu/3x3
I0417 04:06:41.977139  4150 net.cpp:434] rpn_relu/3x3 <- rpn/output
I0417 04:06:41.977149  4150 net.cpp:395] rpn_relu/3x3 -> rpn/output (in-place)
I0417 04:06:41.977160  4150 net.cpp:150] Setting up rpn_relu/3x3
I0417 04:06:41.977164  4150 net.cpp:157] Top shape: 1 512 96 4 4 (786432)
I0417 04:06:41.977167  4150 net.cpp:165] Memory required for data: 10169943228
I0417 04:06:41.977170  4150 layer_factory.hpp:77] Creating layer rpn_conv/3x3_2
I0417 04:06:41.977180  4150 net.cpp:100] Creating Layer rpn_conv/3x3_2
I0417 04:06:41.977183  4150 net.cpp:434] rpn_conv/3x3_2 <- rpn/output
I0417 04:06:41.977190  4150 net.cpp:408] rpn_conv/3x3_2 -> rpn/output_2
I0417 04:06:42.164373  4150 net.cpp:150] Setting up rpn_conv/3x3_2
I0417 04:06:42.164397  4150 net.cpp:157] Top shape: 1 512 96 2 2 (196608)
I0417 04:06:42.164402  4150 net.cpp:165] Memory required for data: 10170729660
I0417 04:06:42.164409  4150 layer_factory.hpp:77] Creating layer rpn_relu/3x3_2
I0417 04:06:42.164418  4150 net.cpp:100] Creating Layer rpn_relu/3x3_2
I0417 04:06:42.164422  4150 net.cpp:434] rpn_relu/3x3_2 <- rpn/output_2
I0417 04:06:42.164428  4150 net.cpp:395] rpn_relu/3x3_2 -> rpn/output_2 (in-place)
I0417 04:06:42.164436  4150 net.cpp:150] Setting up rpn_relu/3x3_2
I0417 04:06:42.164441  4150 net.cpp:157] Top shape: 1 512 96 2 2 (196608)
I0417 04:06:42.164444  4150 net.cpp:165] Memory required for data: 10171516092
I0417 04:06:42.164448  4150 layer_factory.hpp:77] Creating layer rpn/output_pool
I0417 04:06:42.164455  4150 net.cpp:100] Creating Layer rpn/output_pool
I0417 04:06:42.164459  4150 net.cpp:434] rpn/output_pool <- rpn/output_2
I0417 04:06:42.164463  4150 net.cpp:408] rpn/output_pool -> rpn/output_pool
I0417 04:06:42.164510  4150 net.cpp:150] Setting up rpn/output_pool
I0417 04:06:42.164518  4150 net.cpp:157] Top shape: 1 512 96 1 1 (49152)
I0417 04:06:42.164521  4150 net.cpp:165] Memory required for data: 10171712700
I0417 04:06:42.164525  4150 layer_factory.hpp:77] Creating layer rpn/output_pool_rpn/output_pool_0_split
I0417 04:06:42.164530  4150 net.cpp:100] Creating Layer rpn/output_pool_rpn/output_pool_0_split
I0417 04:06:42.164535  4150 net.cpp:434] rpn/output_pool_rpn/output_pool_0_split <- rpn/output_pool
I0417 04:06:42.164538  4150 net.cpp:408] rpn/output_pool_rpn/output_pool_0_split -> rpn/output_pool_rpn/output_pool_0_split_0
I0417 04:06:42.164543  4150 net.cpp:408] rpn/output_pool_rpn/output_pool_0_split -> rpn/output_pool_rpn/output_pool_0_split_1
I0417 04:06:42.164590  4150 net.cpp:150] Setting up rpn/output_pool_rpn/output_pool_0_split
I0417 04:06:42.164598  4150 net.cpp:157] Top shape: 1 512 96 1 1 (49152)
I0417 04:06:42.164602  4150 net.cpp:157] Top shape: 1 512 96 1 1 (49152)
I0417 04:06:42.164605  4150 net.cpp:165] Memory required for data: 10172105916
I0417 04:06:42.164608  4150 layer_factory.hpp:77] Creating layer rpn_cls_score
I0417 04:06:42.164618  4150 net.cpp:100] Creating Layer rpn_cls_score
I0417 04:06:42.164623  4150 net.cpp:434] rpn_cls_score <- rpn/output_pool_rpn/output_pool_0_split_0
I0417 04:06:42.164631  4150 net.cpp:408] rpn_cls_score -> rpn_cls_score
I0417 04:06:42.165899  4150 net.cpp:150] Setting up rpn_cls_score
I0417 04:06:42.165908  4150 net.cpp:157] Top shape: 1 74 96 1 1 (7104)
I0417 04:06:42.165912  4150 net.cpp:165] Memory required for data: 10172134332
I0417 04:06:42.165918  4150 layer_factory.hpp:77] Creating layer rpn_cls_score_rpn_cls_score_0_split
I0417 04:06:42.165923  4150 net.cpp:100] Creating Layer rpn_cls_score_rpn_cls_score_0_split
I0417 04:06:42.165927  4150 net.cpp:434] rpn_cls_score_rpn_cls_score_0_split <- rpn_cls_score
I0417 04:06:42.165932  4150 net.cpp:408] rpn_cls_score_rpn_cls_score_0_split -> rpn_cls_score_rpn_cls_score_0_split_0
I0417 04:06:42.165940  4150 net.cpp:408] rpn_cls_score_rpn_cls_score_0_split -> rpn_cls_score_rpn_cls_score_0_split_1
I0417 04:06:42.165987  4150 net.cpp:150] Setting up rpn_cls_score_rpn_cls_score_0_split
I0417 04:06:42.165995  4150 net.cpp:157] Top shape: 1 74 96 1 1 (7104)
I0417 04:06:42.165999  4150 net.cpp:157] Top shape: 1 74 96 1 1 (7104)
I0417 04:06:42.166003  4150 net.cpp:165] Memory required for data: 10172191164
I0417 04:06:42.166008  4150 layer_factory.hpp:77] Creating layer rpn_twin_pred
I0417 04:06:42.166020  4150 net.cpp:100] Creating Layer rpn_twin_pred
I0417 04:06:42.166026  4150 net.cpp:434] rpn_twin_pred <- rpn/output_pool_rpn/output_pool_0_split_1
I0417 04:06:42.166033  4150 net.cpp:408] rpn_twin_pred -> rpn_twin_pred
I0417 04:06:42.167304  4150 net.cpp:150] Setting up rpn_twin_pred
I0417 04:06:42.167315  4150 net.cpp:157] Top shape: 1 74 96 1 1 (7104)
I0417 04:06:42.167318  4150 net.cpp:165] Memory required for data: 10172219580
I0417 04:06:42.167325  4150 layer_factory.hpp:77] Creating layer rpn_twin_pred_rpn_twin_pred_0_split
I0417 04:06:42.167330  4150 net.cpp:100] Creating Layer rpn_twin_pred_rpn_twin_pred_0_split
I0417 04:06:42.167335  4150 net.cpp:434] rpn_twin_pred_rpn_twin_pred_0_split <- rpn_twin_pred
I0417 04:06:42.167340  4150 net.cpp:408] rpn_twin_pred_rpn_twin_pred_0_split -> rpn_twin_pred_rpn_twin_pred_0_split_0
I0417 04:06:42.167346  4150 net.cpp:408] rpn_twin_pred_rpn_twin_pred_0_split -> rpn_twin_pred_rpn_twin_pred_0_split_1
I0417 04:06:42.167387  4150 net.cpp:150] Setting up rpn_twin_pred_rpn_twin_pred_0_split
I0417 04:06:42.167394  4150 net.cpp:157] Top shape: 1 74 96 1 1 (7104)
I0417 04:06:42.167398  4150 net.cpp:157] Top shape: 1 74 96 1 1 (7104)
I0417 04:06:42.167402  4150 net.cpp:165] Memory required for data: 10172276412
I0417 04:06:42.167404  4150 layer_factory.hpp:77] Creating layer rpn_cls_score_reshape
I0417 04:06:42.167418  4150 net.cpp:100] Creating Layer rpn_cls_score_reshape
I0417 04:06:42.167425  4150 net.cpp:434] rpn_cls_score_reshape <- rpn_cls_score_rpn_cls_score_0_split_0
I0417 04:06:42.167433  4150 net.cpp:408] rpn_cls_score_reshape -> rpn_cls_score_reshape
I0417 04:06:42.167469  4150 net.cpp:150] Setting up rpn_cls_score_reshape
I0417 04:06:42.167479  4150 net.cpp:157] Top shape: 1 2 3552 1 1 (7104)
I0417 04:06:42.167484  4150 net.cpp:165] Memory required for data: 10172304828
I0417 04:06:42.167486  4150 layer_factory.hpp:77] Creating layer rpn_cls_score_reshape_rpn_cls_score_reshape_0_split
I0417 04:06:42.167491  4150 net.cpp:100] Creating Layer rpn_cls_score_reshape_rpn_cls_score_reshape_0_split
I0417 04:06:42.167495  4150 net.cpp:434] rpn_cls_score_reshape_rpn_cls_score_reshape_0_split <- rpn_cls_score_reshape
I0417 04:06:42.167500  4150 net.cpp:408] rpn_cls_score_reshape_rpn_cls_score_reshape_0_split -> rpn_cls_score_reshape_rpn_cls_score_reshape_0_split_0
I0417 04:06:42.167510  4150 net.cpp:408] rpn_cls_score_reshape_rpn_cls_score_reshape_0_split -> rpn_cls_score_reshape_rpn_cls_score_reshape_0_split_1
I0417 04:06:42.167515  4150 net.cpp:408] rpn_cls_score_reshape_rpn_cls_score_reshape_0_split -> rpn_cls_score_reshape_rpn_cls_score_reshape_0_split_2
I0417 04:06:42.167572  4150 net.cpp:150] Setting up rpn_cls_score_reshape_rpn_cls_score_reshape_0_split
I0417 04:06:42.167580  4150 net.cpp:157] Top shape: 1 2 3552 1 1 (7104)
I0417 04:06:42.167584  4150 net.cpp:157] Top shape: 1 2 3552 1 1 (7104)
I0417 04:06:42.167588  4150 net.cpp:157] Top shape: 1 2 3552 1 1 (7104)
I0417 04:06:42.167592  4150 net.cpp:165] Memory required for data: 10172390076
I0417 04:06:42.167598  4150 layer_factory.hpp:77] Creating layer rpn-data
I0417 04:06:42.168000  4150 net.cpp:100] Creating Layer rpn-data
I0417 04:06:42.168012  4150 net.cpp:434] rpn-data <- rpn_cls_score_rpn_cls_score_0_split_1
I0417 04:06:42.168018  4150 net.cpp:434] rpn-data <- gt_boxes_data_1_split_0
I0417 04:06:42.168022  4150 net.cpp:434] rpn-data <- data_data_0_split_1
I0417 04:06:42.168028  4150 net.cpp:408] rpn-data -> rpn_labels
I0417 04:06:42.168035  4150 net.cpp:408] rpn-data -> rpn_twin_targets
I0417 04:06:42.168040  4150 net.cpp:408] rpn-data -> rpn_twin_inside_weights
I0417 04:06:42.168046  4150 net.cpp:408] rpn-data -> rpn_twin_outside_weights
I0417 04:06:42.170277  4150 net.cpp:150] Setting up rpn-data
I0417 04:06:42.170292  4150 net.cpp:157] Top shape: 1 1 3552 1 1 (3552)
I0417 04:06:42.170296  4150 net.cpp:157] Top shape: 1 74 96 1 1 (7104)
I0417 04:06:42.170300  4150 net.cpp:157] Top shape: 1 74 96 1 1 (7104)
I0417 04:06:42.170305  4150 net.cpp:157] Top shape: 1 74 96 1 1 (7104)
I0417 04:06:42.170306  4150 net.cpp:165] Memory required for data: 10172489532
I0417 04:06:42.170310  4150 layer_factory.hpp:77] Creating layer rpn_labels_rpn-data_0_split
I0417 04:06:42.170316  4150 net.cpp:100] Creating Layer rpn_labels_rpn-data_0_split
I0417 04:06:42.170320  4150 net.cpp:434] rpn_labels_rpn-data_0_split <- rpn_labels
I0417 04:06:42.170326  4150 net.cpp:408] rpn_labels_rpn-data_0_split -> rpn_labels_rpn-data_0_split_0
I0417 04:06:42.170332  4150 net.cpp:408] rpn_labels_rpn-data_0_split -> rpn_labels_rpn-data_0_split_1
I0417 04:06:42.170372  4150 net.cpp:150] Setting up rpn_labels_rpn-data_0_split
I0417 04:06:42.170378  4150 net.cpp:157] Top shape: 1 1 3552 1 1 (3552)
I0417 04:06:42.170382  4150 net.cpp:157] Top shape: 1 1 3552 1 1 (3552)
I0417 04:06:42.170385  4150 net.cpp:165] Memory required for data: 10172517948
I0417 04:06:42.170388  4150 layer_factory.hpp:77] Creating layer rpn_loss_cls
I0417 04:06:42.170397  4150 net.cpp:100] Creating Layer rpn_loss_cls
I0417 04:06:42.170402  4150 net.cpp:434] rpn_loss_cls <- rpn_cls_score_reshape_rpn_cls_score_reshape_0_split_0
I0417 04:06:42.170406  4150 net.cpp:434] rpn_loss_cls <- rpn_labels_rpn-data_0_split_0
…
I0417 04:06:42.170738  4150 layer_factory.hpp:77] Creating layer rpn_accuarcy
I0417 04:06:42.170745  4150 net.cpp:100] Creating Layer rpn_accuarcy
I0417 04:06:42.170749  4150 net.cpp:434] rpn_accuarcy <- rpn_cls_score_reshape_rpn_cls_score_reshape_0_split_1
I0417 04:06:42.170753  4150 net.cpp:434] rpn_accuarcy <- rpn_labels_rpn-data_0_split_1
I0417 04:06:42.170759  4150 net.cpp:408] rpn_accuarcy -> rpn_accuarcy
I0417 04:06:42.170778  4150 net.cpp:408] rpn_accuarcy -> rpn_accuarcy_class
I0417 04:06:42.170831  4150 net.cpp:150] Setting up rpn_accuarcy
I0417 04:06:42.170840  4150 net.cpp:157] Top shape: (1)
I0417 04:06:42.170845  4150 net.cpp:157] Top shape: 2 (2)
I0417 04:06:42.170848  4150 net.cpp:165] Memory required for data: 10172517968
I0417 04:06:42.170853  4150 layer_factory.hpp:77] Creating layer rpn_cls_prob
I0417 04:06:42.170858  4150 net.cpp:100] Creating Layer rpn_cls_prob
I0417 04:06:42.170862  4150 net.cpp:434] rpn_cls_prob <- rpn_cls_score_reshape_rpn_cls_score_reshape_0_split_2
I0417 04:06:42.170866  4150 net.cpp:408] rpn_cls_prob -> rpn_cls_prob
I0417 04:06:42.170944  4150 net.cpp:150] Setting up rpn_cls_prob
I0417 04:06:42.170953  4150 net.cpp:157] Top shape: 1 2 3552 1 1 (7104)
I0417 04:06:42.170955  4150 net.cpp:165] Memory required for data: 10172546384
I0417 04:06:42.170966  4150 layer_factory.hpp:77] Creating layer rpn_cls_prob_reshape
I0417 04:06:42.170972  4150 net.cpp:100] Creating Layer rpn_cls_prob_reshape
I0417 04:06:42.170977  4150 net.cpp:434] rpn_cls_prob_reshape <- rpn_cls_prob
I0417 04:06:42.170984  4150 net.cpp:408] rpn_cls_prob_reshape -> rpn_cls_prob_reshape
I0417 04:06:42.171015  4150 net.cpp:150] Setting up rpn_cls_prob_reshape
I0417 04:06:42.171023  4150 net.cpp:157] Top shape: 1 74 96 1 1 (7104)
I0417 04:06:42.171026  4150 net.cpp:165] Memory required for data: 10172574800
I0417 04:06:42.171030  4150 layer_factory.hpp:77] Creating layer proposal
I0417 04:06:42.171595  4150 net.cpp:100] Creating Layer proposal
I0417 04:06:42.171608  4150 net.cpp:434] proposal <- rpn_cls_prob_reshape
I0417 04:06:42.171614  4150 net.cpp:434] proposal <- rpn_twin_pred_rpn_twin_pred_0_split_1
I0417 04:06:42.171619  4150 net.cpp:408] proposal -> rpn_rois
I0417 04:06:42.173854  4150 net.cpp:150] Setting up proposal
I0417 04:06:42.173869  4150 net.cpp:157] Top shape: 1 3 (3)
I0417 04:06:42.173873  4150 net.cpp:165] Memory required for data: 10172574812
I0417 04:06:42.173877  4150 layer_factory.hpp:77] Creating layer roi-data
I0417 04:06:42.174017  4150 net.cpp:100] Creating Layer roi-data
I0417 04:06:42.174029  4150 net.cpp:434] roi-data <- rpn_rois
I0417 04:06:42.174034  4150 net.cpp:434] roi-data <- gt_boxes_data_1_split_1
I0417 04:06:42.174041  4150 net.cpp:408] roi-data -> rois
I0417 04:06:42.174046  4150 net.cpp:408] roi-data -> labels
I0417 04:06:42.174052  4150 net.cpp:408] roi-data -> twin_targets
I0417 04:06:42.174057  4150 net.cpp:408] roi-data -> twin_inside_weights
I0417 04:06:42.174067  4150 net.cpp:408] roi-data -> twin_outside_weights
I0417 04:06:42.174414  4150 net.cpp:150] Setting up roi-data
I0417 04:06:42.174427  4150 net.cpp:157] Top shape: 1 3 (3)
I0417 04:06:42.174432  4150 net.cpp:157] Top shape: 1 1 (1)
I0417 04:06:42.174435  4150 net.cpp:157] Top shape: 1 402 (402)
I0417 04:06:42.174438  4150 net.cpp:157] Top shape: 1 402 (402)
I0417 04:06:42.174441  4150 net.cpp:157] Top shape: 1 402 (402)
I0417 04:06:42.174444  4150 net.cpp:165] Memory required for data: 10172579652
I0417 04:06:42.174448  4150 layer_factory.hpp:77] Creating layer labels_roi-data_1_split
I0417 04:06:42.174454  4150 net.cpp:100] Creating Layer labels_roi-data_1_split
I0417 04:06:42.174458  4150 net.cpp:434] labels_roi-data_1_split <- labels
I0417 04:06:42.174463  4150 net.cpp:408] labels_roi-data_1_split -> labels_roi-data_1_split_0
I0417 04:06:42.174469  4150 net.cpp:408] labels_roi-data_1_split -> labels_roi-data_1_split_1
I0417 04:06:42.174510  4150 net.cpp:150] Setting up labels_roi-data_1_split
I0417 04:06:42.174518  4150 net.cpp:157] Top shape: 1 1 (1)
I0417 04:06:42.174521  4150 net.cpp:157] Top shape: 1 1 (1)
I0417 04:06:42.174525  4150 net.cpp:165] Memory required for data: 10172579660
I0417 04:06:42.174528  4150 layer_factory.hpp:77] Creating layer roi_pool5
I0417 04:06:42.174537  4150 net.cpp:100] Creating Layer roi_pool5
I0417 04:06:42.174541  4150 net.cpp:434] roi_pool5 <- conv5b_relu5b_0_split_1
I0417 04:06:42.174546  4150 net.cpp:434] roi_pool5 <- rois
I0417 04:06:42.174551  4150 net.cpp:408] roi_pool5 -> pool5
I0417 04:06:42.174557  4150 roi_pooling_layer.cpp:34] Temporal scale: 0.125
I0417 04:06:42.174564  4150 roi_pooling_layer.cpp:35] Spatial scale: 0.0625
I0417 04:06:42.174609  4150 net.cpp:150] Setting up roi_pool5
I0417 04:06:42.174618  4150 net.cpp:157] Top shape: 1 512 1 4 4 (8192)
I0417 04:06:42.174620  4150 net.cpp:165] Memory required for data: 10172612428
I0417 04:06:42.174624  4150 layer_factory.hpp:77] Creating layer fc6
I0417 04:06:42.174638  4150 net.cpp:100] Creating Layer fc6
I0417 04:06:42.174641  4150 net.cpp:434] fc6 <- pool5
I0417 04:06:42.174646  4150 net.cpp:408] fc6 -> fc6
I0417 04:06:43.057111  4150 net.cpp:150] Setting up fc6
I0417 04:06:43.057137  4150 net.cpp:157] Top shape: 1 4096 (4096)
I0417 04:06:43.057140  4150 net.cpp:165] Memory required for data: 10172628812
I0417 04:06:43.057149  4150 layer_factory.hpp:77] Creating layer relu6
I0417 04:06:43.057159  4150 net.cpp:100] Creating Layer relu6
I0417 04:06:43.057165  4150 net.cpp:434] relu6 <- fc6
I0417 04:06:43.057171  4150 net.cpp:395] relu6 -> fc6 (in-place)
I0417 04:06:43.057180  4150 net.cpp:150] Setting up relu6
I0417 04:06:43.057184  4150 net.cpp:157] Top shape: 1 4096 (4096)
I0417 04:06:43.057188  4150 net.cpp:165] Memory required for data: 10172645196
I0417 04:06:43.057190  4150 layer_factory.hpp:77] Creating layer drop6
I0417 04:06:43.057200  4150 net.cpp:100] Creating Layer drop6
I0417 04:06:43.057204  4150 net.cpp:434] drop6 <- fc6
I0417 04:06:43.057209  4150 net.cpp:395] drop6 -> fc6 (in-place)
I0417 04:06:43.057237  4150 net.cpp:150] Setting up drop6
I0417 04:06:43.057246  4150 net.cpp:157] Top shape: 1 4096 (4096)
I0417 04:06:43.057250  4150 net.cpp:165] Memory required for data: 10172661580
I0417 04:06:43.057253  4150 layer_factory.hpp:77] Creating layer fc6_drop6_0_split
I0417 04:06:43.057260  4150 net.cpp:100] Creating Layer fc6_drop6_0_split
I0417 04:06:43.057262  4150 net.cpp:434] fc6_drop6_0_split <- fc6
I0417 04:06:43.057267  4150 net.cpp:408] fc6_drop6_0_split -> fc6_drop6_0_split_0
I0417 04:06:43.057273  4150 net.cpp:408] fc6_drop6_0_split -> fc6_drop6_0_split_1
I0417 04:06:43.057318  4150 net.cpp:150] Setting up fc6_drop6_0_split
I0417 04:06:43.057328  4150 net.cpp:157] Top shape: 1 4096 (4096)
I0417 04:06:43.057332  4150 net.cpp:157] Top shape: 1 4096 (4096)
I0417 04:06:43.057335  4150 net.cpp:165] Memory required for data: 10172694348
I0417 04:06:43.057340  4150 layer_factory.hpp:77] Creating layer cls_score
I0417 04:06:43.057350  4150 net.cpp:100] Creating Layer cls_score
I0417 04:06:43.057358  4150 net.cpp:434] cls_score <- fc6_drop6_0_split_0
I0417 04:06:43.057363  4150 net.cpp:408] cls_score -> cls_score
I0417 04:06:43.079253  4150 net.cpp:150] Setting up cls_score
I0417 04:06:43.079273  4150 net.cpp:157] Top shape: 1 201 (201)
I0417 04:06:43.079277  4150 net.cpp:165] Memory required for data: 10172695152
I0417 04:06:43.079286  4150 layer_factory.hpp:77] Creating layer cls_score_cls_score_0_split
I0417 04:06:43.079293  4150 net.cpp:100] Creating Layer cls_score_cls_score_0_split
I0417 04:06:43.079298  4150 net.cpp:434] cls_score_cls_score_0_split <- cls_score
I0417 04:06:43.079304  4150 net.cpp:408] cls_score_cls_score_0_split -> cls_score_cls_score_0_split_0
I0417 04:06:43.079311  4150 net.cpp:408] cls_score_cls_score_0_split -> cls_score_cls_score_0_split_1
I0417 04:06:43.079354  4150 net.cpp:150] Setting up cls_score_cls_score_0_split
I0417 04:06:43.079362  4150 net.cpp:157] Top shape: 1 201 (201)
I0417 04:06:43.079365  4150 net.cpp:157] Top shape: 1 201 (201)
I0417 04:06:43.079370  4150 net.cpp:165] Memory required for data: 10172696760
I0417 04:06:43.079372  4150 layer_factory.hpp:77] Creating layer twin_pred
I0417 04:06:43.079381  4150 net.cpp:100] Creating Layer twin_pred
I0417 04:06:43.079385  4150 net.cpp:434] twin_pred <- fc6_drop6_0_split_1
I0417 04:06:43.079391  4150 net.cpp:408] twin_pred -> twin_pred
I0417 04:06:43.123517  4150 net.cpp:150] Setting up twin_pred
I0417 04:06:43.123550  4150 net.cpp:157] Top shape: 1 402 (402)
I0417 04:06:43.123555  4150 net.cpp:165] Memory required for data: 10172698368
I0417 04:06:43.123564  4150 layer_factory.hpp:77] Creating layer loss_cls
I0417 04:06:43.123574  4150 net.cpp:100] Creating Layer loss_cls
I0417 04:06:43.123579  4150 net.cpp:434] loss_cls <- cls_score_cls_score_0_split_0
I0417 04:06:43.123585  4150 net.cpp:434] loss_cls <- labels_roi-data_1_split_0
I0417 04:06:43.123590  4150 net.cpp:408] loss_cls -> loss_cls
…
