…
stepsize: 350000
snapshot: 0
snapshot_prefix: "./experiments/activitynet/snapshot/activitynet"
average_loss: 100
iter_size: 1
I0417 15:27:24.348104  9393 solver.cpp:81] Creating training net from train_net file: ./experiments/activitynet/train.prototxt
I0417 15:27:24.349146  9393 net.cpp:58] Initializing net from parameters: 
name: "activitynet"
state {
  phase: TRAIN
}
layer {
  name: "data"
  type: "Python"
  top: "data"
  top: "gt_boxes"
  python_param {
    module: "roi_data_layer.layer"
    layer: "RoIDataLayer"
    param_str: "\'num_classes\': 100"
  }
}
layer {
  name: "conv1a"
  type: "Convolution"
  bottom: "data"
  top: "conv1a"
  param {
    lr_mult: 0
    decay_mult: 0
  }
  param {
    lr_mult: 0
    decay_mult: 0
  }
  convolution_param {
    num_output: 64
    pad: 1
    pad: 1
    pad: 1
    kernel_size: 3
    kernel_size: 3
    kernel_size: 3
    weight_filler {
      type: "gaussian"
      std: 0.01
    }
    bias_filler {
      type: "constant"
      value: 0
    }
  }
}
layer {
  name: "relu1a"
  type: "ReLU"
  bottom: "conv1a"
  top: "conv1a"
}
layer {
  name: "pool1"
  type: "Pooling"
  bottom: "conv1a"
  top: "pool1"
  pooling_param {
    pool: MAX
    kernel_size: 1
    kernel_size: 2
    kernel_size: 2
    stride: 1
    stride: 2
    stride: 2
  }
}
layer {
  name: "conv2a"
  type: "Convolution"
  bottom: "pool1"
  top: "conv2a"
  param {
    lr_mult: 0
    decay_mult: 0
  }
  param {
    lr_mult: 0
    decay_mult: 0
  }
  convolution_param {
    num_output: 128
    pad: 1
    pad: 1
    pad: 1
    kernel_size: 3
    kernel_size: 3
    kernel_size: 3
    weight_filler {
      type: "gaussian"
      std: 0.01
    }
    bias_filler {
      type: "constant"
      value: 1
    }
  }
}
layer {
  name: "relu2a"
  type: "ReLU"
  bottom: "conv2a"
  top: "conv2a"
}
layer {
  name: "pool2"
  type: "Pooling"
  bottom: "conv2a"
  top: "pool2"
  pooling_param {
    pool: MAX
    kernel_size: 2
    kernel_size: 2
    kernel_size: 2
    stride: 2
    stride: 2
    stride: 2
  }
}
layer {
  name: "conv3a"
  type: "Convolution"
  bottom: "pool2"
  top: "conv3a"
  param {
    lr_mult: 1
    decay_mult: 1
  }
  param {
    lr_mult: 2
    decay_mult: 0
  }
  convolution_param {
    num_output: 256
    pad: 1
    pad: 1
    pad: 1
    kernel_size: 3
    kernel_size: 3
    kernel_size: 3
    weight_filler {
      type: "gaussian"
      std: 0.01
    }
    bias_filler {
      type: "constant"
      value: 1
    }
  }
}
layer {
  name: "relu3a"
  type: "ReLU"
  bottom: "conv3a"
  top: "conv3a"
}
layer {
  name: "conv3b"
  type: "Convolution"
  bottom: "conv3a"
  top: "conv3b"
  param {
    lr_mult: 1
    decay_mult: 1
  }
  param {
    lr_mult: 2
    decay_mult: 0
  }
  convolution_param {
    num_output: 256
    pad: 1
    pad: 1
    pad: 1
    kernel_size: 3
    kernel_size: 3
    kernel_size: 3
    weight_filler {
      type: "gaussian"
      std: 0.01
    }
    bias_filler {
      type: "constant"
      value: 1
    }
  }
}
layer {
  name: "relu3b"
  type: "ReLU"
  bottom: "conv3b"
  top: "conv3b"
}
layer {
  name: "pool3"
  type: "Pooling"
  bottom: "conv3b"
  top: "pool3"
  pooling_param {
    pool: MAX
    kernel_size: 2
    kernel_size: 2
    kernel_size: 2
    stride: 2
    stride: 2
    stride: 2
  }
}
layer {
  name: "conv4a"
  type: "Convolution"
  bottom: "pool3"
  top: "conv4a"
  param {
    lr_mult: 1
    decay_mult: 1
  }
  param {
    lr_mult: 2
    decay_mult: 0
  }
  convolution_param {
    num_output: 512
    pad: 1
    pad: 1
    pad: 1
    kernel_size: 3
    kernel_size: 3
    kernel_size: 3
    weight_filler {
      type: "gaussian"
      std: 0.01
    }
    bias_filler {
      type: "constant"
      value: 1
    }
  }
}
layer {
  name: "relu4a"
  type: "ReLU"
  bottom: "conv4a"
  top: "conv4a"
}
layer {
  name: "conv4b"
  type: "Convolution"
  bottom: "conv4a"
  top: "conv4b"
  param {
    lr_mult: 1
    decay_mult: 1
  }
  param {
    lr_mult: 2
    decay_mult: 0
  }
  convolution_param {
    num_output: 512
    pad: 1
    pad: 1
    pad: 1
    kernel_size: 3
    kernel_size: 3
    kernel_size: 3
    weight_filler {
      type: "gaussian"
      std: 0.01
    }
    bias_filler {
      type: "constant"
      value: 1
    }
  }
}
layer {
  name: "relu4b"
  type: "ReLU"
  bottom: "conv4b"
  top: "conv4b"
}
layer {
  name: "pool4"
  type: "Pooling"
  bottom: "conv4b"
  top: "pool4"
  pooling_param {
    pool: MAX
    kernel_size: 2
    kernel_size: 2
    kernel_size: 2
    stride: 2
    stride: 2
    stride: 2
  }
}
layer {
  name: "conv5a"
  type: "Convolution"
  bottom: "pool4"
  top: "conv5a"
  param {
    lr_mult: 1
    decay_mult: 1
  }
  param {
    lr_mult: 2
    decay_mult: 0
  }
  convolution_param {
    num_output: 512
    pad: 1
    pad: 1
    pad: 1
    kernel_size: 3
    kernel_size: 3
    kernel_size: 3
    weight_filler {
      type: "gaussian"
      std: 0.01
    }
    bias_filler {
      type: "constant"
      value: 1
    }
  }
}
layer {
  name: "relu5a"
  type: "ReLU"
  bottom: "conv5a"
  top: "conv5a"
}
layer {
  name: "conv5b"
  type: "Convolution"
  bottom: "conv5a"
  top: "conv5b"
  param {
    lr_mult: 1
    decay_mult: 1
  }
  param {
    lr_mult: 2
    decay_mult: 0
  }
  convolution_param {
    num_output: 512
    pad: 1
    pad: 1
    pad: 1
    kernel_size: 3
    kernel_size: 3
    kernel_size: 3
    weight_filler {
      type: "gaussian"
      std: 0.01
    }
    bias_filler {
      type: "constant"
      value: 1
    }
  }
}
layer {
  name: "relu5b"
  type: "ReLU"
  bottom: "conv5b"
  top: "conv5b"
}
layer {
  name: "rpn_conv/3x3"
  type: "Convolution"
  bottom: "conv5b"
  top: "rpn/output"
  param {
    lr_mult: 1
    decay_mult: 1
  }
  param {
    lr_mult: 2
    decay_mult: 0
  }
  convolution_param {
    num_output: 512
    pad: 1
    pad: 1
    pad: 1
    kernel_size: 3
    kernel_size: 3
    kernel_size: 3
    stride: 1
    stride: 2
    stride: 2
    weight_filler {
      type: "gaussian"
      std: 0.01
    }
    bias_filler {
      type: "constant"
      value: 0
    }
  }
}
layer {
  name: "rpn_relu/3x3"
  type: "ReLU"
  bottom: "rpn/output"
  top: "rpn/output"
}
layer {
  name: "rpn_conv/3x3_2"
  type: "Convolution"
  bottom: "rpn/output"
  top: "rpn/output_2"
  param {
    lr_mult: 1
    decay_mult: 1
  }
  param {
    lr_mult: 2
    decay_mult: 0
  }
  convolution_param {
    num_output: 512
    pad: 1
    pad: 1
    pad: 1
    kernel_size: 3
    kernel_size: 3
    kernel_size: 3
    stride: 1
    stride: 2
    stride: 2
    weight_filler {
      type: "gaussian"
      std: 0.01
    }
    bias_filler {
      type: "constant"
      value: 0
    }
  }
}
layer {
  name: "rpn_relu/3x3_2"
  type: "ReLU"
  bottom: "rpn/output_2"
  top: "rpn/output_2"
}
layer {
  name: "rpn/output_pool"
  type: "Pooling"
  bottom: "rpn/output_2"
  top: "rpn/output_pool"
  pooling_param {
    pool: MAX
    kernel_size: 1
    kernel_size: 2
    kernel_size: 2
  }
}
layer {
  name: "rpn_cls_score"
  type: "Convolution"
  bottom: "rpn/output_pool"
  top: "rpn_cls_score"
  param {
    lr_mult: 1
    decay_mult: 1
  }
  param {
    lr_mult: 2
    decay_mult: 0
  }
  convolution_param {
    num_output: 74
    kernel_size: 1
    kernel_size: 1
    kernel_size: 1
    weight_filler {
      type: "gaussian"
      std: 0.01
    }
    bias_filler {
      type: "constant"
      value: 0
    }
  }
}
layer {
  name: "rpn_twin_pred"
  type: "Convolution"
  bottom: "rpn/output_pool"
  top: "rpn_twin_pred"
  param {
    lr_mult: 1
    decay_mult: 1
  }
  param {
    lr_mult: 2
    decay_mult: 0
  }
  convolution_param {
    num_output: 74
    kernel_size: 1
    kernel_size: 1
    kernel_size: 1
    weight_filler {
      type: "gaussian"
      std: 0.01
    }
    bias_filler {
      type: "constant"
      value: 0
    }
  }
}
layer {
  name: "rpn_cls_score_reshape"
  type: "Reshape"
  bottom: "rpn_cls_score"
  top: "rpn_cls_score_reshape"
  reshape_param {
    shape {
      dim: 0
      dim: 2
      dim: -1
      dim: 0
      dim: 0
    }
  }
}
layer {
  name: "rpn-data"
  type: "Python"
  bottom: "rpn_cls_score"
  bottom: "gt_boxes"
  bottom: "data"
  top: "rpn_labels"
  top: "rpn_twin_targets"
  top: "rpn_twin_inside_weights"
  top: "rpn_twin_outside_weights"
  python_param {
    module: "rpn.anchor_target_layer"
    layer: "AnchorTargetLayer"
    param_str: "\'feat_stride\': 8 \n\'scales\': !!python/tuple [1,1.25, 1.5,1.75, 2,2.5, 3,3.5, 4,4.5, 5,5.5, 6,7, 8,9,10,11,12,14,16,18,20,22,24,28,32,36,40,44,52,60,68,76,84,92,100]"
  }
}
layer {
  name: "rpn_loss_cls"
  type: "SoftmaxWithLoss"
  bottom: "rpn_cls_score_reshape"
  bottom: "rpn_labels"
  top: "rpn_cls_loss"
  loss_weight: 1
  propagate_down: true
  propagate_down: false
  loss_param {
    ignore_label: -1
    normalize: true
  }
}
layer {
  name: "rpn_loss_twin"
  type: "SmoothL1Loss"
  bottom: "rpn_twin_pred"
  bottom: "rpn_twin_targets"
  bottom: "rpn_twin_inside_weights"
  bottom: "rpn_twin_outside_weights"
  top: "rpn_loss_twin"
  loss_weight: 1
  smooth_l1_loss_param {
    sigma: 3
  }
}
layer {
  name: "rpn_accuarcy"
  type: "Accuracy"
  bottom: "rpn_cls_score_reshape"
  bottom: "rpn_labels"
  top: "rpn_accuarcy"
  top: "rpn_accuarcy_class"
  propagate_down: false
  propagate_down: false
  accuracy_param {
    ignore_label: -1
  }
}
layer {
  name: "rpn_cls_prob"
  type: "Softmax"
  bottom: "rpn_cls_score_reshape"
  top: "rpn_cls_prob"
}
layer {
  name: "rpn_cls_prob_reshape"
  type: "Reshape"
  bottom: "rpn_cls_prob"
  top: "rpn_cls_prob_reshape"
  reshape_param {
    shape {
      dim: 0
      dim: 74
      dim: -1
      dim: 0
      dim: 0
    }
  }
}
layer {
  name: "proposal"
  type: "Python"
  bottom: "rpn_cls_prob_reshape"
  bottom: "rpn_twin_pred"
  top: "rpn_rois"
  include {
    phase: TRAIN
  }
  python_param {
    module: "rpn.proposal_layer"
    layer: "ProposalLayer"
    param_str: "\'feat_stride\': 8 \n\'scales\': !!python/tuple [1,1.25, 1.5,1.75, 2,2.5, 3,3.5, 4,4.5, 5,5.5, 6,7, 8,9,10,11,12,14,16,18,20,22,24,28,32,36,40,44,52,60,68,76,84,92,100]"
  }
}
layer {
  name: "roi-data"
  type: "Python"
  bottom: "rpn_rois"
  bottom: "gt_boxes"
  top: "rois"
  top: "labels"
  top: "twin_targets"
  top: "twin_inside_weights"
  top: "twin_outside_weights"
  python_param {
    module: "rpn.proposal_target_layer"
    layer: "ProposalTargetLayer"
    param_str: "\'num_classes\': 201"
  }
}
layer {
  name: "roi_pool5"
  type: "ROIPooling"
  bottom: "conv5b"
  bottom: "rois"
  top: "pool5"
  roi_pooling_param {
    pooled_h: 4
    pooled_w: 4
    spatial_scale: 0.0625
    pooled_l: 1
    temporal_scale: 0.125
  }
}
layer {
  name: "fc6"
  type: "InnerProduct"
  bottom: "pool5"
  top: "fc6"
  param {
    lr_mult: 1
    decay_mult: 1
  }
  param {
    lr_mult: 2
    decay_mult: 0
  }
  inner_product_param {
    num_output: 4096
    weight_filler {
      type: "gaussian"
      std: 0.005
    }
    bias_filler {
      type: "constant"
      value: 1
    }
  }
}
layer {
  name: "relu6"
  type: "ReLU"
  bottom: "fc6"
  top: "fc6"
}
layer {
  name: "drop6"
  type: "Dropout"
  bottom: "fc6"
  top: "fc6"
  dropout_param {
    dropout_ratio: 0.5
  }
}
layer {
  name: "cls_score"
  type: "InnerProduct"
  bottom: "fc6"
  top: "cls_score"
  param {
    lr_mult: 1
    decay_mult: 1
  }
  param {
    lr_mult: 2
    decay_mult: 0
  }
  inner_product_param {
    num_output: 201
    weight_filler {
      type: "gaussian"
      std: 0.01
    }
    bias_filler {
      type: "constant"
      value: 0
    }
  }
}
layer {
  name: "twin_pred"
  type: "InnerProduct"
  bottom: "fc6"
  top: "twin_pred"
  param {
    lr_mult: 1
    decay_mult: 1
  }
  param {
    lr_mult: 2
    decay_mult: 0
  }
  inner_product_param {
    num_output: 402
    weight_filler {
      type: "gaussian"
      std: 0.001
    }
    bias_filler {
      type: "constant"
      value: 0
    }
  }
}
layer {
  name: "loss_cls"
  type: "SoftmaxWithLoss"
  bottom: "cls_score"
  bottom: "labels"
  top: "loss_cls"
  loss_weight: 1
  propagate_down: true
  propagate_down: false
}
layer {
  name: "loss_twin"
  type: "SmoothL1Loss"
  bottom: "twin_pred"
  bottom: "twin_targets"
  bottom: "twin_inside_weights"
  bottom: "twin_outside_weights"
  top: "loss_twin"
  loss_weight: 1
}
layer {
  name: "accuarcy"
  type: "Accuracy"
  bottom: "cls_score"
  bottom: "labels"
  top: "accuarcy"
  propagate_down: false
  propagate_down: false
  accuracy_param {
    ignore_label: -1
  }
}
I0417 15:27:24.349355  9393 layer_factory.hpp:77] Creating layer data
I0417 15:27:24.373286  9393 net.cpp:100] Creating Layer data
I0417 15:27:24.373307  9393 net.cpp:408] data -> data
I0417 15:27:24.373320  9393 net.cpp:408] data -> gt_boxes
setting up
has rpn
RoiDataLayer: name_to_top: {'gt_windows': 1, 'data': 0}
I0417 15:27:24.385998  9393 net.cpp:150] Setting up data
I0417 15:27:24.386019  9393 net.cpp:157] Top shape: 1 3 768 112 112 (28901376)
I0417 15:27:24.386025  9393 net.cpp:157] Top shape: 1 101 (101)
I0417 15:27:24.386029  9393 net.cpp:165] Memory required for data: 115605908
I0417 15:27:24.386036  9393 layer_factory.hpp:77] Creating layer data_data_0_split
I0417 15:27:24.386049  9393 net.cpp:100] Creating Layer data_data_0_split
I0417 15:27:24.386054  9393 net.cpp:434] data_data_0_split <- data
I0417 15:27:24.386060  9393 net.cpp:408] data_data_0_split -> data_data_0_split_0
I0417 15:27:24.386070  9393 net.cpp:408] data_data_0_split -> data_data_0_split_1
I0417 15:27:24.386099  9393 net.cpp:150] Setting up data_data_0_split
I0417 15:27:24.386106  9393 net.cpp:157] Top shape: 1 3 768 112 112 (28901376)
I0417 15:27:24.386111  9393 net.cpp:157] Top shape: 1 3 768 112 112 (28901376)
I0417 15:27:24.386113  9393 net.cpp:165] Memory required for data: 346816916
I0417 15:27:24.386117  9393 layer_factory.hpp:77] Creating layer gt_boxes_data_1_split
I0417 15:27:24.386124  9393 net.cpp:100] Creating Layer gt_boxes_data_1_split
I0417 15:27:24.386128  9393 net.cpp:434] gt_boxes_data_1_split <- gt_boxes
I0417 15:27:24.386133  9393 net.cpp:408] gt_boxes_data_1_split -> gt_boxes_data_1_split_0
I0417 15:27:24.386138  9393 net.cpp:408] gt_boxes_data_1_split -> gt_boxes_data_1_split_1
I0417 15:27:24.386168  9393 net.cpp:150] Setting up gt_boxes_data_1_split
I0417 15:27:24.386173  9393 net.cpp:157] Top shape: 1 101 (101)
I0417 15:27:24.386178  9393 net.cpp:157] Top shape: 1 101 (101)
I0417 15:27:24.386181  9393 net.cpp:165] Memory required for data: 346817724
I0417 15:27:24.386185  9393 layer_factory.hpp:77] Creating layer conv1a
I0417 15:27:24.386199  9393 net.cpp:100] Creating Layer conv1a
I0417 15:27:24.386204  9393 net.cpp:434] conv1a <- data_data_0_split_0
I0417 15:27:24.386210  9393 net.cpp:408] conv1a -> conv1a
I0417 15:27:24.564079  9393 net.cpp:150] Setting up conv1a
I0417 15:27:24.564110  9393 net.cpp:157] Top shape: 1 64 768 112 112 (616562688)
I0417 15:27:24.564116  9393 net.cpp:165] Memory required for data: 2813068476
I0417 15:27:24.564134  9393 layer_factory.hpp:77] Creating layer relu1a
I0417 15:27:24.564148  9393 net.cpp:100] Creating Layer relu1a
I0417 15:27:24.564154  9393 net.cpp:434] relu1a <- conv1a
I0417 15:27:24.564162  9393 net.cpp:395] relu1a -> conv1a (in-place)
I0417 15:27:24.564584  9393 net.cpp:150] Setting up relu1a
I0417 15:27:24.564596  9393 net.cpp:157] Top shape: 1 64 768 112 112 (616562688)
I0417 15:27:24.564601  9393 net.cpp:165] Memory required for data: 5279319228
I0417 15:27:24.564605  9393 layer_factory.hpp:77] Creating layer pool1
I0417 15:27:24.564616  9393 net.cpp:100] Creating Layer pool1
I0417 15:27:24.564620  9393 net.cpp:434] pool1 <- conv1a
I0417 15:27:24.564626  9393 net.cpp:408] pool1 -> pool1
I0417 15:27:24.564811  9393 net.cpp:150] Setting up pool1
I0417 15:27:24.564822  9393 net.cpp:157] Top shape: 1 64 768 56 56 (154140672)
I0417 15:27:24.564827  9393 net.cpp:165] Memory required for data: 5895881916
I0417 15:27:24.564831  9393 layer_factory.hpp:77] Creating layer conv2a
I0417 15:27:24.564842  9393 net.cpp:100] Creating Layer conv2a
I0417 15:27:24.564846  9393 net.cpp:434] conv2a <- pool1
I0417 15:27:24.564853  9393 net.cpp:408] conv2a -> conv2a
I0417 15:27:24.575359  9393 net.cpp:150] Setting up conv2a
I0417 15:27:24.575381  9393 net.cpp:157] Top shape: 1 128 768 56 56 (308281344)
I0417 15:27:24.575386  9393 net.cpp:165] Memory required for data: 7129007292
I0417 15:27:24.575397  9393 layer_factory.hpp:77] Creating layer relu2a
I0417 15:27:24.575407  9393 net.cpp:100] Creating Layer relu2a
I0417 15:27:24.575412  9393 net.cpp:434] relu2a <- conv2a
I0417 15:27:24.575428  9393 net.cpp:395] relu2a -> conv2a (in-place)
I0417 15:27:24.575726  9393 net.cpp:150] Setting up relu2a
I0417 15:27:24.575737  9393 net.cpp:157] Top shape: 1 128 768 56 56 (308281344)
I0417 15:27:24.575742  9393 net.cpp:165] Memory required for data: 8362132668
I0417 15:27:24.575747  9393 layer_factory.hpp:77] Creating layer pool2
I0417 15:27:24.575759  9393 net.cpp:100] Creating Layer pool2
I0417 15:27:24.575763  9393 net.cpp:434] pool2 <- conv2a
I0417 15:27:24.575769  9393 net.cpp:408] pool2 -> pool2
I0417 15:27:24.575938  9393 net.cpp:150] Setting up pool2
I0417 15:27:24.575950  9393 net.cpp:157] Top shape: 1 128 384 28 28 (38535168)
I0417 15:27:24.575954  9393 net.cpp:165] Memory required for data: 8516273340
I0417 15:27:24.575958  9393 layer_factory.hpp:77] Creating layer conv3a
I0417 15:27:24.575971  9393 net.cpp:100] Creating Layer conv3a
I0417 15:27:24.575975  9393 net.cpp:434] conv3a <- pool2
I0417 15:27:24.575981  9393 net.cpp:408] conv3a -> conv3a
I0417 15:27:24.600848  9393 net.cpp:150] Setting up conv3a
I0417 15:27:24.600869  9393 net.cpp:157] Top shape: 1 256 384 28 28 (77070336)
I0417 15:27:24.600873  9393 net.cpp:165] Memory required for data: 8824554684
I0417 15:27:24.600885  9393 layer_factory.hpp:77] Creating layer relu3a
I0417 15:27:24.600894  9393 net.cpp:100] Creating Layer relu3a
I0417 15:27:24.600899  9393 net.cpp:434] relu3a <- conv3a
I0417 15:27:24.600905  9393 net.cpp:395] relu3a -> conv3a (in-place)
I0417 15:27:24.601191  9393 net.cpp:150] Setting up relu3a
I0417 15:27:24.601203  9393 net.cpp:157] Top shape: 1 256 384 28 28 (77070336)
I0417 15:27:24.601207  9393 net.cpp:165] Memory required for data: 9132836028
I0417 15:27:24.601212  9393 layer_factory.hpp:77] Creating layer conv3b
I0417 15:27:24.601223  9393 net.cpp:100] Creating Layer conv3b
I0417 15:27:24.601228  9393 net.cpp:434] conv3b <- conv3a
I0417 15:27:24.601235  9393 net.cpp:408] conv3b -> conv3b
I0417 15:27:24.648447  9393 net.cpp:150] Setting up conv3b
I0417 15:27:24.648466  9393 net.cpp:157] Top shape: 1 256 384 28 28 (77070336)
I0417 15:27:24.648470  9393 net.cpp:165] Memory required for data: 9441117372
I0417 15:27:24.648478  9393 layer_factory.hpp:77] Creating layer relu3b
I0417 15:27:24.648486  9393 net.cpp:100] Creating Layer relu3b
I0417 15:27:24.648490  9393 net.cpp:434] relu3b <- conv3b
I0417 15:27:24.648496  9393 net.cpp:395] relu3b -> conv3b (in-place)
I0417 15:27:24.648793  9393 net.cpp:150] Setting up relu3b
I0417 15:27:24.648807  9393 net.cpp:157] Top shape: 1 256 384 28 28 (77070336)
I0417 15:27:24.648810  9393 net.cpp:165] Memory required for data: 9749398716
I0417 15:27:24.648815  9393 layer_factory.hpp:77] Creating layer pool3
I0417 15:27:24.648824  9393 net.cpp:100] Creating Layer pool3
I0417 15:27:24.648828  9393 net.cpp:434] pool3 <- conv3b
I0417 15:27:24.648835  9393 net.cpp:408] pool3 -> pool3
I0417 15:27:24.649008  9393 net.cpp:150] Setting up pool3
I0417 15:27:24.649019  9393 net.cpp:157] Top shape: 1 256 192 14 14 (9633792)
I0417 15:27:24.649022  9393 net.cpp:165] Memory required for data: 9787933884
I0417 15:27:24.649027  9393 layer_factory.hpp:77] Creating layer conv4a
I0417 15:27:24.649039  9393 net.cpp:100] Creating Layer conv4a
I0417 15:27:24.649044  9393 net.cpp:434] conv4a <- pool3
I0417 15:27:24.649049  9393 net.cpp:408] conv4a -> conv4a
I0417 15:27:24.742437  9393 net.cpp:150] Setting up conv4a
I0417 15:27:24.742460  9393 net.cpp:157] Top shape: 1 512 192 14 14 (19267584)
I0417 15:27:24.742465  9393 net.cpp:165] Memory required for data: 9865004220
I0417 15:27:24.742476  9393 layer_factory.hpp:77] Creating layer relu4a
I0417 15:27:24.742488  9393 net.cpp:100] Creating Layer relu4a
I0417 15:27:24.742493  9393 net.cpp:434] relu4a <- conv4a
I0417 15:27:24.742508  9393 net.cpp:395] relu4a -> conv4a (in-place)
I0417 15:27:24.742815  9393 net.cpp:150] Setting up relu4a
I0417 15:27:24.742828  9393 net.cpp:157] Top shape: 1 512 192 14 14 (19267584)
I0417 15:27:24.742832  9393 net.cpp:165] Memory required for data: 9942074556
I0417 15:27:24.742837  9393 layer_factory.hpp:77] Creating layer conv4b
I0417 15:27:24.742851  9393 net.cpp:100] Creating Layer conv4b
I0417 15:27:24.742856  9393 net.cpp:434] conv4b <- conv4a
I0417 15:27:24.742862  9393 net.cpp:408] conv4b -> conv4b
I0417 15:27:24.927742  9393 net.cpp:150] Setting up conv4b
I0417 15:27:24.927765  9393 net.cpp:157] Top shape: 1 512 192 14 14 (19267584)
I0417 15:27:24.927769  9393 net.cpp:165] Memory required for data: 10019144892
I0417 15:27:24.927779  9393 layer_factory.hpp:77] Creating layer relu4b
I0417 15:27:24.927788  9393 net.cpp:100] Creating Layer relu4b
I0417 15:27:24.927793  9393 net.cpp:434] relu4b <- conv4b
I0417 15:27:24.927803  9393 net.cpp:395] relu4b -> conv4b (in-place)
I0417 15:27:24.927966  9393 net.cpp:150] Setting up relu4b
I0417 15:27:24.927978  9393 net.cpp:157] Top shape: 1 512 192 14 14 (19267584)
I0417 15:27:24.927983  9393 net.cpp:165] Memory required for data: 10096215228
I0417 15:27:24.927987  9393 layer_factory.hpp:77] Creating layer pool4
I0417 15:27:24.927996  9393 net.cpp:100] Creating Layer pool4
I0417 15:27:24.928002  9393 net.cpp:434] pool4 <- conv4b
I0417 15:27:24.928009  9393 net.cpp:408] pool4 -> pool4
I0417 15:27:24.928330  9393 net.cpp:150] Setting up pool4
I0417 15:27:24.928344  9393 net.cpp:157] Top shape: 1 512 96 7 7 (2408448)
I0417 15:27:24.928347  9393 net.cpp:165] Memory required for data: 10105849020
I0417 15:27:24.928351  9393 layer_factory.hpp:77] Creating layer conv5a
I0417 15:27:24.928362  9393 net.cpp:100] Creating Layer conv5a
I0417 15:27:24.928367  9393 net.cpp:434] conv5a <- pool4
I0417 15:27:24.928375  9393 net.cpp:408] conv5a -> conv5a
I0417 15:27:25.112325  9393 net.cpp:150] Setting up conv5a
I0417 15:27:25.112350  9393 net.cpp:157] Top shape: 1 512 96 7 7 (2408448)
I0417 15:27:25.112354  9393 net.cpp:165] Memory required for data: 10115482812
I0417 15:27:25.112365  9393 layer_factory.hpp:77] Creating layer relu5a
I0417 15:27:25.112375  9393 net.cpp:100] Creating Layer relu5a
I0417 15:27:25.112380  9393 net.cpp:434] relu5a <- conv5a
I0417 15:27:25.112387  9393 net.cpp:395] relu5a -> conv5a (in-place)
I0417 15:27:25.112804  9393 net.cpp:150] Setting up relu5a
I0417 15:27:25.112817  9393 net.cpp:157] Top shape: 1 512 96 7 7 (2408448)
I0417 15:27:25.112820  9393 net.cpp:165] Memory required for data: 10125116604
I0417 15:27:25.112825  9393 layer_factory.hpp:77] Creating layer conv5b
I0417 15:27:25.112836  9393 net.cpp:100] Creating Layer conv5b
I0417 15:27:25.112840  9393 net.cpp:434] conv5b <- conv5a
I0417 15:27:25.112848  9393 net.cpp:408] conv5b -> conv5b
I0417 15:27:25.298388  9393 net.cpp:150] Setting up conv5b
I0417 15:27:25.298414  9393 net.cpp:157] Top shape: 1 512 96 7 7 (2408448)
I0417 15:27:25.298419  9393 net.cpp:165] Memory required for data: 10134750396
I0417 15:27:25.298429  9393 layer_factory.hpp:77] Creating layer relu5b
I0417 15:27:25.298439  9393 net.cpp:100] Creating Layer relu5b
I0417 15:27:25.298444  9393 net.cpp:434] relu5b <- conv5b
I0417 15:27:25.298451  9393 net.cpp:395] relu5b -> conv5b (in-place)
I0417 15:27:25.298599  9393 net.cpp:150] Setting up relu5b
I0417 15:27:25.298609  9393 net.cpp:157] Top shape: 1 512 96 7 7 (2408448)
I0417 15:27:25.298614  9393 net.cpp:165] Memory required for data: 10144384188
I0417 15:27:25.298617  9393 layer_factory.hpp:77] Creating layer conv5b_relu5b_0_split
I0417 15:27:25.298624  9393 net.cpp:100] Creating Layer conv5b_relu5b_0_split
I0417 15:27:25.298629  9393 net.cpp:434] conv5b_relu5b_0_split <- conv5b
I0417 15:27:25.298633  9393 net.cpp:408] conv5b_relu5b_0_split -> conv5b_relu5b_0_split_0
I0417 15:27:25.298640  9393 net.cpp:408] conv5b_relu5b_0_split -> conv5b_relu5b_0_split_1
I0417 15:27:25.298676  9393 net.cpp:150] Setting up conv5b_relu5b_0_split
I0417 15:27:25.298684  9393 net.cpp:157] Top shape: 1 512 96 7 7 (2408448)
I0417 15:27:25.298689  9393 net.cpp:157] Top shape: 1 512 96 7 7 (2408448)
I0417 15:27:25.298692  9393 net.cpp:165] Memory required for data: 10163651772
I0417 15:27:25.298696  9393 layer_factory.hpp:77] Creating layer rpn_conv/3x3
I0417 15:27:25.298707  9393 net.cpp:100] Creating Layer rpn_conv/3x3
I0417 15:27:25.298713  9393 net.cpp:434] rpn_conv/3x3 <- conv5b_relu5b_0_split_0
I0417 15:27:25.298722  9393 net.cpp:408] rpn_conv/3x3 -> rpn/output
I0417 15:27:25.486009  9393 net.cpp:150] Setting up rpn_conv/3x3
I0417 15:27:25.486032  9393 net.cpp:157] Top shape: 1 512 96 4 4 (786432)
I0417 15:27:25.486037  9393 net.cpp:165] Memory required for data: 10166797500
I0417 15:27:25.486052  9393 layer_factory.hpp:77] Creating layer rpn_relu/3x3
I0417 15:27:25.486063  9393 net.cpp:100] Creating Layer rpn_relu/3x3
I0417 15:27:25.486068  9393 net.cpp:434] rpn_relu/3x3 <- rpn/output
I0417 15:27:25.486074  9393 net.cpp:395] rpn_relu/3x3 -> rpn/output (in-place)
I0417 15:27:25.486747  9393 net.cpp:150] Setting up rpn_relu/3x3
I0417 15:27:25.486773  9393 net.cpp:157] Top shape: 1 512 96 4 4 (786432)
I0417 15:27:25.486778  9393 net.cpp:165] Memory required for data: 10169943228
I0417 15:27:25.486781  9393 layer_factory.hpp:77] Creating layer rpn_conv/3x3_2
I0417 15:27:25.486794  9393 net.cpp:100] Creating Layer rpn_conv/3x3_2
I0417 15:27:25.486799  9393 net.cpp:434] rpn_conv/3x3_2 <- rpn/output
I0417 15:27:25.486807  9393 net.cpp:408] rpn_conv/3x3_2 -> rpn/output_2
I0417 15:27:25.690549  9393 net.cpp:150] Setting up rpn_conv/3x3_2
I0417 15:27:25.690578  9393 net.cpp:157] Top shape: 1 512 96 2 2 (196608)
I0417 15:27:25.690583  9393 net.cpp:165] Memory required for data: 10170729660
I0417 15:27:25.690594  9393 layer_factory.hpp:77] Creating layer rpn_relu/3x3_2
I0417 15:27:25.690606  9393 net.cpp:100] Creating Layer rpn_relu/3x3_2
I0417 15:27:25.690613  9393 net.cpp:434] rpn_relu/3x3_2 <- rpn/output_2
I0417 15:27:25.690618  9393 net.cpp:395] rpn_relu/3x3_2 -> rpn/output_2 (in-place)
I0417 15:27:25.690943  9393 net.cpp:150] Setting up rpn_relu/3x3_2
I0417 15:27:25.690958  9393 net.cpp:157] Top shape: 1 512 96 2 2 (196608)
I0417 15:27:25.690963  9393 net.cpp:165] Memory required for data: 10171516092
I0417 15:27:25.690968  9393 layer_factory.hpp:77] Creating layer rpn/output_pool
I0417 15:27:25.690975  9393 net.cpp:100] Creating Layer rpn/output_pool
I0417 15:27:25.690984  9393 net.cpp:434] rpn/output_pool <- rpn/output_2
I0417 15:27:25.690990  9393 net.cpp:408] rpn/output_pool -> rpn/output_pool
I0417 15:27:25.691174  9393 net.cpp:150] Setting up rpn/output_pool
I0417 15:27:25.691185  9393 net.cpp:157] Top shape: 1 512 96 1 1 (49152)
I0417 15:27:25.691191  9393 net.cpp:165] Memory required for data: 10171712700
I0417 15:27:25.691196  9393 layer_factory.hpp:77] Creating layer rpn/output_pool_rpn/output_pool_0_split
I0417 15:27:25.691202  9393 net.cpp:100] Creating Layer rpn/output_pool_rpn/output_pool_0_split
I0417 15:27:25.691206  9393 net.cpp:434] rpn/output_pool_rpn/output_pool_0_split <- rpn/output_pool
I0417 15:27:25.691213  9393 net.cpp:408] rpn/output_pool_rpn/output_pool_0_split -> rpn/output_pool_rpn/output_pool_0_split_0
I0417 15:27:25.691220  9393 net.cpp:408] rpn/output_pool_rpn/output_pool_0_split -> rpn/output_pool_rpn/output_pool_0_split_1
I0417 15:27:25.691252  9393 net.cpp:150] Setting up rpn/output_pool_rpn/output_pool_0_split
I0417 15:27:25.691260  9393 net.cpp:157] Top shape: 1 512 96 1 1 (49152)
I0417 15:27:25.691265  9393 net.cpp:157] Top shape: 1 512 96 1 1 (49152)
I0417 15:27:25.691270  9393 net.cpp:165] Memory required for data: 10172105916
I0417 15:27:25.691274  9393 layer_factory.hpp:77] Creating layer rpn_cls_score
I0417 15:27:25.691287  9393 net.cpp:100] Creating Layer rpn_cls_score
I0417 15:27:25.691290  9393 net.cpp:434] rpn_cls_score <- rpn/output_pool_rpn/output_pool_0_split_0
I0417 15:27:25.691296  9393 net.cpp:408] rpn_cls_score -> rpn_cls_score
I0417 15:27:25.693358  9393 net.cpp:150] Setting up rpn_cls_score
I0417 15:27:25.693372  9393 net.cpp:157] Top shape: 1 74 96 1 1 (7104)
I0417 15:27:25.693377  9393 net.cpp:165] Memory required for data: 10172134332
I0417 15:27:25.693383  9393 layer_factory.hpp:77] Creating layer rpn_cls_score_rpn_cls_score_0_split
I0417 15:27:25.693392  9393 net.cpp:100] Creating Layer rpn_cls_score_rpn_cls_score_0_split
I0417 15:27:25.693395  9393 net.cpp:434] rpn_cls_score_rpn_cls_score_0_split <- rpn_cls_score
I0417 15:27:25.693401  9393 net.cpp:408] rpn_cls_score_rpn_cls_score_0_split -> rpn_cls_score_rpn_cls_score_0_split_0
I0417 15:27:25.693408  9393 net.cpp:408] rpn_cls_score_rpn_cls_score_0_split -> rpn_cls_score_rpn_cls_score_0_split_1
I0417 15:27:25.693449  9393 net.cpp:150] Setting up rpn_cls_score_rpn_cls_score_0_split
I0417 15:27:25.693456  9393 net.cpp:157] Top shape: 1 74 96 1 1 (7104)
I0417 15:27:25.693462  9393 net.cpp:157] Top shape: 1 74 96 1 1 (7104)
I0417 15:27:25.693465  9393 net.cpp:165] Memory required for data: 10172191164
I0417 15:27:25.693470  9393 layer_factory.hpp:77] Creating layer rpn_twin_pred
I0417 15:27:25.693485  9393 net.cpp:100] Creating Layer rpn_twin_pred
I0417 15:27:25.693490  9393 net.cpp:434] rpn_twin_pred <- rpn/output_pool_rpn/output_pool_0_split_1
I0417 15:27:25.693498  9393 net.cpp:408] rpn_twin_pred -> rpn_twin_pred
I0417 15:27:25.695467  9393 net.cpp:150] Setting up rpn_twin_pred
I0417 15:27:25.695482  9393 net.cpp:157] Top shape: 1 74 96 1 1 (7104)
I0417 15:27:25.695487  9393 net.cpp:165] Memory required for data: 10172219580
I0417 15:27:25.695493  9393 layer_factory.hpp:77] Creating layer rpn_twin_pred_rpn_twin_pred_0_split
I0417 15:27:25.695500  9393 net.cpp:100] Creating Layer rpn_twin_pred_rpn_twin_pred_0_split
I0417 15:27:25.695504  9393 net.cpp:434] rpn_twin_pred_rpn_twin_pred_0_split <- rpn_twin_pred
I0417 15:27:25.695513  9393 net.cpp:408] rpn_twin_pred_rpn_twin_pred_0_split -> rpn_twin_pred_rpn_twin_pred_0_split_0
I0417 15:27:25.695520  9393 net.cpp:408] rpn_twin_pred_rpn_twin_pred_0_split -> rpn_twin_pred_rpn_twin_pred_0_split_1
I0417 15:27:25.695559  9393 net.cpp:150] Setting up rpn_twin_pred_rpn_twin_pred_0_split
I0417 15:27:25.695565  9393 net.cpp:157] Top shape: 1 74 96 1 1 (7104)
I0417 15:27:25.695569  9393 net.cpp:157] Top shape: 1 74 96 1 1 (7104)
I0417 15:27:25.695574  9393 net.cpp:165] Memory required for data: 10172276412
I0417 15:27:25.695577  9393 layer_factory.hpp:77] Creating layer rpn_cls_score_reshape
I0417 15:27:25.695590  9393 net.cpp:100] Creating Layer rpn_cls_score_reshape
I0417 15:27:25.695595  9393 net.cpp:434] rpn_cls_score_reshape <- rpn_cls_score_rpn_cls_score_0_split_0
I0417 15:27:25.695603  9393 net.cpp:408] rpn_cls_score_reshape -> rpn_cls_score_reshape
I0417 15:27:25.695633  9393 net.cpp:150] Setting up rpn_cls_score_reshape
I0417 15:27:25.695641  9393 net.cpp:157] Top shape: 1 2 3552 1 1 (7104)
I0417 15:27:25.695644  9393 net.cpp:165] Memory required for data: 10172304828
I0417 15:27:25.695648  9393 layer_factory.hpp:77] Creating layer rpn_cls_score_reshape_rpn_cls_score_reshape_0_split
I0417 15:27:25.695655  9393 net.cpp:100] Creating Layer rpn_cls_score_reshape_rpn_cls_score_reshape_0_split
I0417 15:27:25.695659  9393 net.cpp:434] rpn_cls_score_reshape_rpn_cls_score_reshape_0_split <- rpn_cls_score_reshape
I0417 15:27:25.695664  9393 net.cpp:408] rpn_cls_score_reshape_rpn_cls_score_reshape_0_split -> rpn_cls_score_reshape_rpn_cls_score_reshape_0_split_0
I0417 15:27:25.695674  9393 net.cpp:408] rpn_cls_score_reshape_rpn_cls_score_reshape_0_split -> rpn_cls_score_reshape_rpn_cls_score_reshape_0_split_1
I0417 15:27:25.695680  9393 net.cpp:408] rpn_cls_score_reshape_rpn_cls_score_reshape_0_split -> rpn_cls_score_reshape_rpn_cls_score_reshape_0_split_2
I0417 15:27:25.695726  9393 net.cpp:150] Setting up rpn_cls_score_reshape_rpn_cls_score_reshape_0_split
I0417 15:27:25.695735  9393 net.cpp:157] Top shape: 1 2 3552 1 1 (7104)
I0417 15:27:25.695740  9393 net.cpp:157] Top shape: 1 2 3552 1 1 (7104)
I0417 15:27:25.695744  9393 net.cpp:157] Top shape: 1 2 3552 1 1 (7104)
I0417 15:27:25.695749  9393 net.cpp:165] Memory required for data: 10172390076
I0417 15:27:25.695752  9393 layer_factory.hpp:77] Creating layer rpn-data
I0417 15:27:25.697739  9393 net.cpp:100] Creating Layer rpn-data
I0417 15:27:25.697753  9393 net.cpp:434] rpn-data <- rpn_cls_score_rpn_cls_score_0_split_1
I0417 15:27:25.697760  9393 net.cpp:434] rpn-data <- gt_boxes_data_1_split_0
I0417 15:27:25.697765  9393 net.cpp:434] rpn-data <- data_data_0_split_1
I0417 15:27:25.697772  9393 net.cpp:408] rpn-data -> rpn_labels
I0417 15:27:25.697779  9393 net.cpp:408] rpn-data -> rpn_twin_targets
I0417 15:27:25.697787  9393 net.cpp:408] rpn-data -> rpn_twin_inside_weights
I0417 15:27:25.697793  9393 net.cpp:408] rpn-data -> rpn_twin_outside_weights
I0417 15:27:25.700058  9393 net.cpp:150] Setting up rpn-data
I0417 15:27:25.700075  9393 net.cpp:157] Top shape: 1 1 3552 1 1 (3552)
I0417 15:27:25.700081  9393 net.cpp:157] Top shape: 1 74 96 1 1 (7104)
I0417 15:27:25.700086  9393 net.cpp:157] Top shape: 1 74 96 1 1 (7104)
I0417 15:27:25.700091  9393 net.cpp:157] Top shape: 1 74 96 1 1 (7104)
I0417 15:27:25.700095  9393 net.cpp:165] Memory required for data: 10172489532
I0417 15:27:25.700100  9393 layer_factory.hpp:77] Creating layer rpn_labels_rpn-data_0_split
I0417 15:27:25.700107  9393 net.cpp:100] Creating Layer rpn_labels_rpn-data_0_split
I0417 15:27:25.700112  9393 net.cpp:434] rpn_labels_rpn-data_0_split <- rpn_labels
I0417 15:27:25.700119  9393 net.cpp:408] rpn_labels_rpn-data_0_split -> rpn_labels_rpn-data_0_split_0
I0417 15:27:25.700126  9393 net.cpp:408] rpn_labels_rpn-data_0_split -> rpn_labels_rpn-data_0_split_1
I0417 15:27:25.700162  9393 net.cpp:150] Setting up rpn_labels_rpn-data_0_split
I0417 15:27:25.700170  9393 net.cpp:157] Top shape: 1 1 3552 1 1 (3552)
I0417 15:27:25.700176  9393 net.cpp:157] Top shape: 1 1 3552 1 1 (3552)
I0417 15:27:25.700179  9393 net.cpp:165] Memory required for data: 10172517948
I0417 15:27:25.700184  9393 layer_factory.hpp:77] Creating layer rpn_loss_cls
I0417 15:27:25.700193  9393 net.cpp:100] Creating Layer rpn_loss_cls
I0417 15:27:25.700198  9393 net.cpp:434] rpn_loss_cls <- rpn_cls_score_reshape_rpn_cls_score_reshape_0_split_0
I0417 15:27:25.700203  9393 net.cpp:434] rpn_loss_cls <- rpn_labels_rpn-data_0_split_0
…
I0417 15:27:25.700788  9393 layer_factory.hpp:77] Creating layer rpn_accuarcy
I0417 15:27:25.700795  9393 net.cpp:100] Creating Layer rpn_accuarcy
I0417 15:27:25.700803  9393 net.cpp:434] rpn_accuarcy <- rpn_cls_score_reshape_rpn_cls_score_reshape_0_split_1
I0417 15:27:25.700809  9393 net.cpp:434] rpn_accuarcy <- rpn_labels_rpn-data_0_split_1
I0417 15:27:25.700815  9393 net.cpp:408] rpn_accuarcy -> rpn_accuarcy
I0417 15:27:25.700822  9393 net.cpp:408] rpn_accuarcy -> rpn_accuarcy_class
I0417 15:27:25.700857  9393 net.cpp:150] Setting up rpn_accuarcy
I0417 15:27:25.700866  9393 net.cpp:157] Top shape: (1)
I0417 15:27:25.700871  9393 net.cpp:157] Top shape: 2 (2)
I0417 15:27:25.700875  9393 net.cpp:165] Memory required for data: 10172517968
I0417 15:27:25.700879  9393 layer_factory.hpp:77] Creating layer rpn_cls_prob
I0417 15:27:25.700886  9393 net.cpp:100] Creating Layer rpn_cls_prob
I0417 15:27:25.700891  9393 net.cpp:434] rpn_cls_prob <- rpn_cls_score_reshape_rpn_cls_score_reshape_0_split_2
I0417 15:27:25.700897  9393 net.cpp:408] rpn_cls_prob -> rpn_cls_prob
I0417 15:27:25.701087  9393 net.cpp:150] Setting up rpn_cls_prob
I0417 15:27:25.701099  9393 net.cpp:157] Top shape: 1 2 3552 1 1 (7104)
I0417 15:27:25.701103  9393 net.cpp:165] Memory required for data: 10172546384
I0417 15:27:25.701107  9393 layer_factory.hpp:77] Creating layer rpn_cls_prob_reshape
I0417 15:27:25.701114  9393 net.cpp:100] Creating Layer rpn_cls_prob_reshape
I0417 15:27:25.701118  9393 net.cpp:434] rpn_cls_prob_reshape <- rpn_cls_prob
I0417 15:27:25.701125  9393 net.cpp:408] rpn_cls_prob_reshape -> rpn_cls_prob_reshape
I0417 15:27:25.701149  9393 net.cpp:150] Setting up rpn_cls_prob_reshape
I0417 15:27:25.701159  9393 net.cpp:157] Top shape: 1 74 96 1 1 (7104)
I0417 15:27:25.701162  9393 net.cpp:165] Memory required for data: 10172574800
I0417 15:27:25.701166  9393 layer_factory.hpp:77] Creating layer proposal
I0417 15:27:25.701732  9393 net.cpp:100] Creating Layer proposal
I0417 15:27:25.701745  9393 net.cpp:434] proposal <- rpn_cls_prob_reshape
I0417 15:27:25.701752  9393 net.cpp:434] proposal <- rpn_twin_pred_rpn_twin_pred_0_split_1
I0417 15:27:25.701759  9393 net.cpp:408] proposal -> rpn_rois
I0417 15:27:25.703987  9393 net.cpp:150] Setting up proposal
I0417 15:27:25.704002  9393 net.cpp:157] Top shape: 1 3 (3)
I0417 15:27:25.704007  9393 net.cpp:165] Memory required for data: 10172574812
I0417 15:27:25.704012  9393 layer_factory.hpp:77] Creating layer roi-data
I0417 15:27:25.704147  9393 net.cpp:100] Creating Layer roi-data
I0417 15:27:25.704159  9393 net.cpp:434] roi-data <- rpn_rois
I0417 15:27:25.704166  9393 net.cpp:434] roi-data <- gt_boxes_data_1_split_1
I0417 15:27:25.704174  9393 net.cpp:408] roi-data -> rois
I0417 15:27:25.704181  9393 net.cpp:408] roi-data -> labels
I0417 15:27:25.704187  9393 net.cpp:408] roi-data -> twin_targets
I0417 15:27:25.704197  9393 net.cpp:408] roi-data -> twin_inside_weights
I0417 15:27:25.704203  9393 net.cpp:408] roi-data -> twin_outside_weights
I0417 15:27:25.704519  9393 net.cpp:150] Setting up roi-data
I0417 15:27:25.704532  9393 net.cpp:157] Top shape: 1 3 (3)
I0417 15:27:25.704541  9393 net.cpp:157] Top shape: 1 1 (1)
I0417 15:27:25.704546  9393 net.cpp:157] Top shape: 1 402 (402)
I0417 15:27:25.704550  9393 net.cpp:157] Top shape: 1 402 (402)
I0417 15:27:25.704555  9393 net.cpp:157] Top shape: 1 402 (402)
I0417 15:27:25.704558  9393 net.cpp:165] Memory required for data: 10172579652
I0417 15:27:25.704562  9393 layer_factory.hpp:77] Creating layer labels_roi-data_1_split
I0417 15:27:25.704568  9393 net.cpp:100] Creating Layer labels_roi-data_1_split
I0417 15:27:25.704573  9393 net.cpp:434] labels_roi-data_1_split <- labels
I0417 15:27:25.704578  9393 net.cpp:408] labels_roi-data_1_split -> labels_roi-data_1_split_0
I0417 15:27:25.704586  9393 net.cpp:408] labels_roi-data_1_split -> labels_roi-data_1_split_1
I0417 15:27:25.704620  9393 net.cpp:150] Setting up labels_roi-data_1_split
I0417 15:27:25.704629  9393 net.cpp:157] Top shape: 1 1 (1)
I0417 15:27:25.704634  9393 net.cpp:157] Top shape: 1 1 (1)
I0417 15:27:25.704639  9393 net.cpp:165] Memory required for data: 10172579660
I0417 15:27:25.704644  9393 layer_factory.hpp:77] Creating layer roi_pool5
I0417 15:27:25.704655  9393 net.cpp:100] Creating Layer roi_pool5
I0417 15:27:25.704660  9393 net.cpp:434] roi_pool5 <- conv5b_relu5b_0_split_1
I0417 15:27:25.704665  9393 net.cpp:434] roi_pool5 <- rois
I0417 15:27:25.704670  9393 net.cpp:408] roi_pool5 -> pool5
I0417 15:27:25.704679  9393 roi_pooling_layer.cpp:34] Temporal scale: 0.125
I0417 15:27:25.704685  9393 roi_pooling_layer.cpp:35] Spatial scale: 0.0625
I0417 15:27:25.704725  9393 net.cpp:150] Setting up roi_pool5
I0417 15:27:25.704732  9393 net.cpp:157] Top shape: 1 512 1 4 4 (8192)
I0417 15:27:25.704737  9393 net.cpp:165] Memory required for data: 10172612428
I0417 15:27:25.704741  9393 layer_factory.hpp:77] Creating layer fc6
I0417 15:27:25.704751  9393 net.cpp:100] Creating Layer fc6
I0417 15:27:25.704756  9393 net.cpp:434] fc6 <- pool5
I0417 15:27:25.704763  9393 net.cpp:408] fc6 -> fc6
I0417 15:27:26.582095  9393 net.cpp:150] Setting up fc6
I0417 15:27:26.582120  9393 net.cpp:157] Top shape: 1 4096 (4096)
I0417 15:27:26.582124  9393 net.cpp:165] Memory required for data: 10172628812
I0417 15:27:26.582135  9393 layer_factory.hpp:77] Creating layer relu6
I0417 15:27:26.582144  9393 net.cpp:100] Creating Layer relu6
I0417 15:27:26.582149  9393 net.cpp:434] relu6 <- fc6
I0417 15:27:26.582170  9393 net.cpp:395] relu6 -> fc6 (in-place)
I0417 15:27:26.582581  9393 net.cpp:150] Setting up relu6
I0417 15:27:26.582594  9393 net.cpp:157] Top shape: 1 4096 (4096)
I0417 15:27:26.582599  9393 net.cpp:165] Memory required for data: 10172645196
I0417 15:27:26.582603  9393 layer_factory.hpp:77] Creating layer drop6
I0417 15:27:26.582615  9393 net.cpp:100] Creating Layer drop6
I0417 15:27:26.582619  9393 net.cpp:434] drop6 <- fc6
I0417 15:27:26.582628  9393 net.cpp:395] drop6 -> fc6 (in-place)
I0417 15:27:26.582654  9393 net.cpp:150] Setting up drop6
I0417 15:27:26.582664  9393 net.cpp:157] Top shape: 1 4096 (4096)
I0417 15:27:26.582667  9393 net.cpp:165] Memory required for data: 10172661580
I0417 15:27:26.582671  9393 layer_factory.hpp:77] Creating layer fc6_drop6_0_split
I0417 15:27:26.582677  9393 net.cpp:100] Creating Layer fc6_drop6_0_split
I0417 15:27:26.582680  9393 net.cpp:434] fc6_drop6_0_split <- fc6
I0417 15:27:26.582686  9393 net.cpp:408] fc6_drop6_0_split -> fc6_drop6_0_split_0
I0417 15:27:26.582692  9393 net.cpp:408] fc6_drop6_0_split -> fc6_drop6_0_split_1
I0417 15:27:26.582728  9393 net.cpp:150] Setting up fc6_drop6_0_split
I0417 15:27:26.582736  9393 net.cpp:157] Top shape: 1 4096 (4096)
I0417 15:27:26.582741  9393 net.cpp:157] Top shape: 1 4096 (4096)
I0417 15:27:26.582744  9393 net.cpp:165] Memory required for data: 10172694348
I0417 15:27:26.582748  9393 layer_factory.hpp:77] Creating layer cls_score
I0417 15:27:26.582757  9393 net.cpp:100] Creating Layer cls_score
I0417 15:27:26.582780  9393 net.cpp:434] cls_score <- fc6_drop6_0_split_0
I0417 15:27:26.582787  9393 net.cpp:408] cls_score -> cls_score
I0417 15:27:26.604262  9393 net.cpp:150] Setting up cls_score
I0417 15:27:26.604277  9393 net.cpp:157] Top shape: 1 201 (201)
I0417 15:27:26.604281  9393 net.cpp:165] Memory required for data: 10172695152
I0417 15:27:26.604290  9393 layer_factory.hpp:77] Creating layer cls_score_cls_score_0_split
I0417 15:27:26.604295  9393 net.cpp:100] Creating Layer cls_score_cls_score_0_split
I0417 15:27:26.604300  9393 net.cpp:434] cls_score_cls_score_0_split <- cls_score
I0417 15:27:26.604305  9393 net.cpp:408] cls_score_cls_score_0_split -> cls_score_cls_score_0_split_0
I0417 15:27:26.604313  9393 net.cpp:408] cls_score_cls_score_0_split -> cls_score_cls_score_0_split_1
I0417 15:27:26.604344  9393 net.cpp:150] Setting up cls_score_cls_score_0_split
I0417 15:27:26.604353  9393 net.cpp:157] Top shape: 1 201 (201)
I0417 15:27:26.604357  9393 net.cpp:157] Top shape: 1 201 (201)
I0417 15:27:26.604362  9393 net.cpp:165] Memory required for data: 10172696760
I0417 15:27:26.604365  9393 layer_factory.hpp:77] Creating layer twin_pred
I0417 15:27:26.604373  9393 net.cpp:100] Creating Layer twin_pred
I0417 15:27:26.604382  9393 net.cpp:434] twin_pred <- fc6_drop6_0_split_1
I0417 15:27:26.604387  9393 net.cpp:408] twin_pred -> twin_pred
I0417 15:27:26.647200  9393 net.cpp:150] Setting up twin_pred
I0417 15:27:26.647222  9393 net.cpp:157] Top shape: 1 402 (402)
I0417 15:27:26.647227  9393 net.cpp:165] Memory required for data: 10172698368
I0417 15:27:26.647235  9393 layer_factory.hpp:77] Creating layer loss_cls
I0417 15:27:26.647244  9393 net.cpp:100] Creating Layer loss_cls
I0417 15:27:26.647249  9393 net.cpp:434] loss_cls <- cls_score_cls_score_0_split_0
I0417 15:27:26.647258  9393 net.cpp:434] loss_cls <- labels_roi-data_1_split_0
I0417 15:27:26.647265  9393 net.cpp:408] loss_cls -> loss_cls
…
