…
stepsize: 350000
snapshot: 0
snapshot_prefix: "./experiments/activitynet/snapshot/activitynet"
average_loss: 100
iter_size: 1
I0417 04:13:43.071842 30511 solver.cpp:81] Creating training net from train_net file: ./experiments/activitynet/train.prototxt
I0417 04:13:43.072945 30511 net.cpp:58] Initializing net from parameters: 
name: "activitynet"
state {
  phase: TRAIN
}
layer {
  name: "data"
  type: "Python"
  top: "data"
  top: "gt_boxes"
  python_param {
    module: "roi_data_layer.layer"
    layer: "RoIDataLayer"
    param_str: "\'num_classes\': 100"
  }
}
layer {
  name: "conv1a"
  type: "Convolution"
  bottom: "data"
  top: "conv1a"
  param {
    lr_mult: 0
    decay_mult: 0
  }
  param {
    lr_mult: 0
    decay_mult: 0
  }
  convolution_param {
    num_output: 64
    pad: 1
    pad: 1
    pad: 1
    kernel_size: 3
    kernel_size: 3
    kernel_size: 3
    weight_filler {
      type: "gaussian"
      std: 0.01
    }
    bias_filler {
      type: "constant"
      value: 0
    }
  }
}
layer {
  name: "relu1a"
  type: "ReLU"
  bottom: "conv1a"
  top: "conv1a"
}
layer {
  name: "pool1"
  type: "Pooling"
  bottom: "conv1a"
  top: "pool1"
  pooling_param {
    pool: MAX
    kernel_size: 1
    kernel_size: 2
    kernel_size: 2
    stride: 1
    stride: 2
    stride: 2
  }
}
layer {
  name: "conv2a"
  type: "Convolution"
  bottom: "pool1"
  top: "conv2a"
  param {
    lr_mult: 0
    decay_mult: 0
  }
  param {
    lr_mult: 0
    decay_mult: 0
  }
  convolution_param {
    num_output: 128
    pad: 1
    pad: 1
    pad: 1
    kernel_size: 3
    kernel_size: 3
    kernel_size: 3
    weight_filler {
      type: "gaussian"
      std: 0.01
    }
    bias_filler {
      type: "constant"
      value: 1
    }
  }
}
layer {
  name: "relu2a"
  type: "ReLU"
  bottom: "conv2a"
  top: "conv2a"
}
layer {
  name: "pool2"
  type: "Pooling"
  bottom: "conv2a"
  top: "pool2"
  pooling_param {
    pool: MAX
    kernel_size: 2
    kernel_size: 2
    kernel_size: 2
    stride: 2
    stride: 2
    stride: 2
  }
}
layer {
  name: "conv3a"
  type: "Convolution"
  bottom: "pool2"
  top: "conv3a"
  param {
    lr_mult: 1
    decay_mult: 1
  }
  param {
    lr_mult: 2
    decay_mult: 0
  }
  convolution_param {
    num_output: 256
    pad: 1
    pad: 1
    pad: 1
    kernel_size: 3
    kernel_size: 3
    kernel_size: 3
    weight_filler {
      type: "gaussian"
      std: 0.01
    }
    bias_filler {
      type: "constant"
      value: 1
    }
  }
}
layer {
  name: "relu3a"
  type: "ReLU"
  bottom: "conv3a"
  top: "conv3a"
}
layer {
  name: "conv3b"
  type: "Convolution"
  bottom: "conv3a"
  top: "conv3b"
  param {
    lr_mult: 1
    decay_mult: 1
  }
  param {
    lr_mult: 2
    decay_mult: 0
  }
  convolution_param {
    num_output: 256
    pad: 1
    pad: 1
    pad: 1
    kernel_size: 3
    kernel_size: 3
    kernel_size: 3
    weight_filler {
      type: "gaussian"
      std: 0.01
    }
    bias_filler {
      type: "constant"
      value: 1
    }
  }
}
layer {
  name: "relu3b"
  type: "ReLU"
  bottom: "conv3b"
  top: "conv3b"
}
layer {
  name: "pool3"
  type: "Pooling"
  bottom: "conv3b"
  top: "pool3"
  pooling_param {
    pool: MAX
    kernel_size: 2
    kernel_size: 2
    kernel_size: 2
    stride: 2
    stride: 2
    stride: 2
  }
}
layer {
  name: "conv4a"
  type: "Convolution"
  bottom: "pool3"
  top: "conv4a"
  param {
    lr_mult: 1
    decay_mult: 1
  }
  param {
    lr_mult: 2
    decay_mult: 0
  }
  convolution_param {
    num_output: 512
    pad: 1
    pad: 1
    pad: 1
    kernel_size: 3
    kernel_size: 3
    kernel_size: 3
    weight_filler {
      type: "gaussian"
      std: 0.01
    }
    bias_filler {
      type: "constant"
      value: 1
    }
  }
}
layer {
  name: "relu4a"
  type: "ReLU"
  bottom: "conv4a"
  top: "conv4a"
}
layer {
  name: "conv4b"
  type: "Convolution"
  bottom: "conv4a"
  top: "conv4b"
  param {
    lr_mult: 1
    decay_mult: 1
  }
  param {
    lr_mult: 2
    decay_mult: 0
  }
  convolution_param {
    num_output: 512
    pad: 1
    pad: 1
    pad: 1
    kernel_size: 3
    kernel_size: 3
    kernel_size: 3
    weight_filler {
      type: "gaussian"
      std: 0.01
    }
    bias_filler {
      type: "constant"
      value: 1
    }
  }
}
layer {
  name: "relu4b"
  type: "ReLU"
  bottom: "conv4b"
  top: "conv4b"
}
layer {
  name: "pool4"
  type: "Pooling"
  bottom: "conv4b"
  top: "pool4"
  pooling_param {
    pool: MAX
    kernel_size: 2
    kernel_size: 2
    kernel_size: 2
    stride: 2
    stride: 2
    stride: 2
  }
}
layer {
  name: "conv5a"
  type: "Convolution"
  bottom: "pool4"
  top: "conv5a"
  param {
    lr_mult: 1
    decay_mult: 1
  }
  param {
    lr_mult: 2
    decay_mult: 0
  }
  convolution_param {
    num_output: 512
    pad: 1
    pad: 1
    pad: 1
    kernel_size: 3
    kernel_size: 3
    kernel_size: 3
    weight_filler {
      type: "gaussian"
      std: 0.01
    }
    bias_filler {
      type: "constant"
      value: 1
    }
  }
}
layer {
  name: "relu5a"
  type: "ReLU"
  bottom: "conv5a"
  top: "conv5a"
}
layer {
  name: "conv5b"
  type: "Convolution"
  bottom: "conv5a"
  top: "conv5b"
  param {
    lr_mult: 1
    decay_mult: 1
  }
  param {
    lr_mult: 2
    decay_mult: 0
  }
  convolution_param {
    num_output: 512
    pad: 1
    pad: 1
    pad: 1
    kernel_size: 3
    kernel_size: 3
    kernel_size: 3
    weight_filler {
      type: "gaussian"
      std: 0.01
    }
    bias_filler {
      type: "constant"
      value: 1
    }
  }
}
layer {
  name: "relu5b"
  type: "ReLU"
  bottom: "conv5b"
  top: "conv5b"
}
layer {
  name: "rpn_conv/3x3"
  type: "Convolution"
  bottom: "conv5b"
  top: "rpn/output"
  param {
    lr_mult: 1
    decay_mult: 1
  }
  param {
    lr_mult: 2
    decay_mult: 0
  }
  convolution_param {
    num_output: 512
    pad: 1
    pad: 1
    pad: 1
    kernel_size: 3
    kernel_size: 3
    kernel_size: 3
    stride: 1
    stride: 2
    stride: 2
    weight_filler {
      type: "gaussian"
      std: 0.01
    }
    bias_filler {
      type: "constant"
      value: 0
    }
  }
}
layer {
  name: "rpn_relu/3x3"
  type: "ReLU"
  bottom: "rpn/output"
  top: "rpn/output"
}
layer {
  name: "rpn_conv/3x3_2"
  type: "Convolution"
  bottom: "rpn/output"
  top: "rpn/output_2"
  param {
    lr_mult: 1
    decay_mult: 1
  }
  param {
    lr_mult: 2
    decay_mult: 0
  }
  convolution_param {
    num_output: 512
    pad: 1
    pad: 1
    pad: 1
    kernel_size: 3
    kernel_size: 3
    kernel_size: 3
    stride: 1
    stride: 2
    stride: 2
    weight_filler {
      type: "gaussian"
      std: 0.01
    }
    bias_filler {
      type: "constant"
      value: 0
    }
  }
}
layer {
  name: "rpn_relu/3x3_2"
  type: "ReLU"
  bottom: "rpn/output_2"
  top: "rpn/output_2"
}
layer {
  name: "rpn/output_pool"
  type: "Pooling"
  bottom: "rpn/output_2"
  top: "rpn/output_pool"
  pooling_param {
    pool: MAX
    kernel_size: 1
    kernel_size: 2
    kernel_size: 2
  }
}
layer {
  name: "rpn_cls_score"
  type: "Convolution"
  bottom: "rpn/output_pool"
  top: "rpn_cls_score"
  param {
    lr_mult: 1
    decay_mult: 1
  }
  param {
    lr_mult: 2
    decay_mult: 0
  }
  convolution_param {
    num_output: 74
    kernel_size: 1
    kernel_size: 1
    kernel_size: 1
    weight_filler {
      type: "gaussian"
      std: 0.01
    }
    bias_filler {
      type: "constant"
      value: 0
    }
  }
}
layer {
  name: "rpn_twin_pred"
  type: "Convolution"
  bottom: "rpn/output_pool"
  top: "rpn_twin_pred"
  param {
    lr_mult: 1
    decay_mult: 1
  }
  param {
    lr_mult: 2
    decay_mult: 0
  }
  convolution_param {
    num_output: 74
    kernel_size: 1
    kernel_size: 1
    kernel_size: 1
    weight_filler {
      type: "gaussian"
      std: 0.01
    }
    bias_filler {
      type: "constant"
      value: 0
    }
  }
}
layer {
  name: "rpn_cls_score_reshape"
  type: "Reshape"
  bottom: "rpn_cls_score"
  top: "rpn_cls_score_reshape"
  reshape_param {
    shape {
      dim: 0
      dim: 2
      dim: -1
      dim: 0
      dim: 0
    }
  }
}
layer {
  name: "rpn-data"
  type: "Python"
  bottom: "rpn_cls_score"
  bottom: "gt_boxes"
  bottom: "data"
  top: "rpn_labels"
  top: "rpn_twin_targets"
  top: "rpn_twin_inside_weights"
  top: "rpn_twin_outside_weights"
  python_param {
    module: "rpn.anchor_target_layer"
    layer: "AnchorTargetLayer"
    param_str: "\'feat_stride\': 8 \n\'scales\': !!python/tuple [1,1.25, 1.5,1.75, 2,2.5, 3,3.5, 4,4.5, 5,5.5, 6,7, 8,9,10,11,12,14,16,18,20,22,24,28,32,36,40,44,52,60,68,76,84,92,100]"
  }
}
layer {
  name: "rpn_loss_cls"
  type: "SoftmaxWithLoss"
  bottom: "rpn_cls_score_reshape"
  bottom: "rpn_labels"
  top: "rpn_cls_loss"
  loss_weight: 1
  propagate_down: true
  propagate_down: false
  loss_param {
    ignore_label: -1
    normalize: true
  }
}
layer {
  name: "rpn_loss_twin"
  type: "SmoothL1Loss"
  bottom: "rpn_twin_pred"
  bottom: "rpn_twin_targets"
  bottom: "rpn_twin_inside_weights"
  bottom: "rpn_twin_outside_weights"
  top: "rpn_loss_twin"
  loss_weight: 1
  smooth_l1_loss_param {
    sigma: 3
  }
}
layer {
  name: "rpn_accuarcy"
  type: "Accuracy"
  bottom: "rpn_cls_score_reshape"
  bottom: "rpn_labels"
  top: "rpn_accuarcy"
  top: "rpn_accuarcy_class"
  propagate_down: false
  propagate_down: false
  accuracy_param {
    ignore_label: -1
  }
}
layer {
  name: "rpn_cls_prob"
  type: "Softmax"
  bottom: "rpn_cls_score_reshape"
  top: "rpn_cls_prob"
}
layer {
  name: "rpn_cls_prob_reshape"
  type: "Reshape"
  bottom: "rpn_cls_prob"
  top: "rpn_cls_prob_reshape"
  reshape_param {
    shape {
      dim: 0
      dim: 74
      dim: -1
      dim: 0
      dim: 0
    }
  }
}
layer {
  name: "proposal"
  type: "Python"
  bottom: "rpn_cls_prob_reshape"
  bottom: "rpn_twin_pred"
  top: "rpn_rois"
  include {
    phase: TRAIN
  }
  python_param {
    module: "rpn.proposal_layer"
    layer: "ProposalLayer"
    param_str: "\'feat_stride\': 8 \n\'scales\': !!python/tuple [1,1.25, 1.5,1.75, 2,2.5, 3,3.5, 4,4.5, 5,5.5, 6,7, 8,9,10,11,12,14,16,18,20,22,24,28,32,36,40,44,52,60,68,76,84,92,100]"
  }
}
layer {
  name: "roi-data"
  type: "Python"
  bottom: "rpn_rois"
  bottom: "gt_boxes"
  top: "rois"
  top: "labels"
  top: "twin_targets"
  top: "twin_inside_weights"
  top: "twin_outside_weights"
  python_param {
    module: "rpn.proposal_target_layer"
    layer: "ProposalTargetLayer"
    param_str: "\'num_classes\': 201"
  }
}
layer {
  name: "roi_pool5"
  type: "ROIPooling"
  bottom: "conv5b"
  bottom: "rois"
  top: "pool5"
  roi_pooling_param {
    pooled_h: 4
    pooled_w: 4
    spatial_scale: 0.0625
    pooled_l: 1
    temporal_scale: 0.125
  }
}
layer {
  name: "fc6"
  type: "InnerProduct"
  bottom: "pool5"
  top: "fc6"
  param {
    lr_mult: 1
    decay_mult: 1
  }
  param {
    lr_mult: 2
    decay_mult: 0
  }
  inner_product_param {
    num_output: 4096
    weight_filler {
      type: "gaussian"
      std: 0.005
    }
    bias_filler {
      type: "constant"
      value: 1
    }
  }
}
layer {
  name: "relu6"
  type: "ReLU"
  bottom: "fc6"
  top: "fc6"
}
layer {
  name: "drop6"
  type: "Dropout"
  bottom: "fc6"
  top: "fc6"
  dropout_param {
    dropout_ratio: 0.5
  }
}
layer {
  name: "cls_score"
  type: "InnerProduct"
  bottom: "fc6"
  top: "cls_score"
  param {
    lr_mult: 1
    decay_mult: 1
  }
  param {
    lr_mult: 2
    decay_mult: 0
  }
  inner_product_param {
    num_output: 201
    weight_filler {
      type: "gaussian"
      std: 0.01
    }
    bias_filler {
      type: "constant"
      value: 0
    }
  }
}
layer {
  name: "twin_pred"
  type: "InnerProduct"
  bottom: "fc6"
  top: "twin_pred"
  param {
    lr_mult: 1
    decay_mult: 1
  }
  param {
    lr_mult: 2
    decay_mult: 0
  }
  inner_product_param {
    num_output: 402
    weight_filler {
      type: "gaussian"
      std: 0.001
    }
    bias_filler {
      type: "constant"
      value: 0
    }
  }
}
layer {
  name: "loss_cls"
  type: "SoftmaxWithLoss"
  bottom: "cls_score"
  bottom: "labels"
  top: "loss_cls"
  loss_weight: 1
  propagate_down: true
  propagate_down: false
}
layer {
  name: "loss_twin"
  type: "SmoothL1Loss"
  bottom: "twin_pred"
  bottom: "twin_targets"
  bottom: "twin_inside_weights"
  bottom: "twin_outside_weights"
  top: "loss_twin"
  loss_weight: 1
}
layer {
  name: "accuarcy"
  type: "Accuracy"
  bottom: "cls_score"
  bottom: "labels"
  top: "accuarcy"
  propagate_down: false
  propagate_down: false
  accuracy_param {
    ignore_label: -1
  }
}
I0417 04:13:43.073292 30511 layer_factory.hpp:77] Creating layer data
I0417 04:13:43.099692 30511 net.cpp:100] Creating Layer data
I0417 04:13:43.099720 30511 net.cpp:408] data -> data
I0417 04:13:43.099737 30511 net.cpp:408] data -> gt_boxes
setting up
RoiDataLayer: name_to_top: {'gt_windows': 1, 'data': 0}
I0417 04:13:43.113345 30511 net.cpp:150] Setting up data
I0417 04:13:43.113378 30511 net.cpp:157] Top shape: 1 3 768 112 112 (28901376)
I0417 04:13:43.113386 30511 net.cpp:157] Top shape: 1 101 (101)
I0417 04:13:43.113391 30511 net.cpp:165] Memory required for data: 115605908
I0417 04:13:43.113401 30511 layer_factory.hpp:77] Creating layer data_data_0_split
I0417 04:13:43.113416 30511 net.cpp:100] Creating Layer data_data_0_split
I0417 04:13:43.113425 30511 net.cpp:434] data_data_0_split <- data
I0417 04:13:43.113436 30511 net.cpp:408] data_data_0_split -> data_data_0_split_0
I0417 04:13:43.113454 30511 net.cpp:408] data_data_0_split -> data_data_0_split_1
I0417 04:13:43.113514 30511 net.cpp:150] Setting up data_data_0_split
I0417 04:13:43.113528 30511 net.cpp:157] Top shape: 1 3 768 112 112 (28901376)
I0417 04:13:43.113534 30511 net.cpp:157] Top shape: 1 3 768 112 112 (28901376)
I0417 04:13:43.113540 30511 net.cpp:165] Memory required for data: 346816916
I0417 04:13:43.113546 30511 layer_factory.hpp:77] Creating layer gt_boxes_data_1_split
I0417 04:13:43.113556 30511 net.cpp:100] Creating Layer gt_boxes_data_1_split
I0417 04:13:43.113562 30511 net.cpp:434] gt_boxes_data_1_split <- gt_boxes
I0417 04:13:43.113574 30511 net.cpp:408] gt_boxes_data_1_split -> gt_boxes_data_1_split_0
I0417 04:13:43.113587 30511 net.cpp:408] gt_boxes_data_1_split -> gt_boxes_data_1_split_1
I0417 04:13:43.113639 30511 net.cpp:150] Setting up gt_boxes_data_1_split
I0417 04:13:43.113648 30511 net.cpp:157] Top shape: 1 101 (101)
I0417 04:13:43.113654 30511 net.cpp:157] Top shape: 1 101 (101)
I0417 04:13:43.113659 30511 net.cpp:165] Memory required for data: 346817724
I0417 04:13:43.113665 30511 layer_factory.hpp:77] Creating layer conv1a
I0417 04:13:43.113690 30511 net.cpp:100] Creating Layer conv1a
I0417 04:13:43.113698 30511 net.cpp:434] conv1a <- data_data_0_split_0
I0417 04:13:43.113706 30511 net.cpp:408] conv1a -> conv1a
I0417 04:13:43.132289 30511 net.cpp:150] Setting up conv1a
I0417 04:13:43.132321 30511 net.cpp:157] Top shape: 1 64 768 112 112 (616562688)
I0417 04:13:43.132326 30511 net.cpp:165] Memory required for data: 2813068476
I0417 04:13:43.132354 30511 layer_factory.hpp:77] Creating layer relu1a
I0417 04:13:43.132376 30511 net.cpp:100] Creating Layer relu1a
I0417 04:13:43.132386 30511 net.cpp:434] relu1a <- conv1a
I0417 04:13:43.132395 30511 net.cpp:395] relu1a -> conv1a (in-place)
I0417 04:13:43.132417 30511 net.cpp:150] Setting up relu1a
I0417 04:13:43.132429 30511 net.cpp:157] Top shape: 1 64 768 112 112 (616562688)
I0417 04:13:43.132436 30511 net.cpp:165] Memory required for data: 5279319228
I0417 04:13:43.132441 30511 layer_factory.hpp:77] Creating layer pool1
I0417 04:13:43.132458 30511 net.cpp:100] Creating Layer pool1
I0417 04:13:43.132467 30511 net.cpp:434] pool1 <- conv1a
I0417 04:13:43.132480 30511 net.cpp:408] pool1 -> pool1
I0417 04:13:43.132602 30511 net.cpp:150] Setting up pool1
I0417 04:13:43.132613 30511 net.cpp:157] Top shape: 1 64 768 56 56 (154140672)
I0417 04:13:43.132622 30511 net.cpp:165] Memory required for data: 5895881916
I0417 04:13:43.132627 30511 layer_factory.hpp:77] Creating layer conv2a
I0417 04:13:43.132643 30511 net.cpp:100] Creating Layer conv2a
I0417 04:13:43.132650 30511 net.cpp:434] conv2a <- pool1
I0417 04:13:43.132661 30511 net.cpp:408] conv2a -> conv2a
I0417 04:13:43.150658 30511 net.cpp:150] Setting up conv2a
I0417 04:13:43.150689 30511 net.cpp:157] Top shape: 1 128 768 56 56 (308281344)
I0417 04:13:43.150694 30511 net.cpp:165] Memory required for data: 7129007292
I0417 04:13:43.150708 30511 layer_factory.hpp:77] Creating layer relu2a
I0417 04:13:43.150718 30511 net.cpp:100] Creating Layer relu2a
I0417 04:13:43.150722 30511 net.cpp:434] relu2a <- conv2a
I0417 04:13:43.150730 30511 net.cpp:395] relu2a -> conv2a (in-place)
I0417 04:13:43.150740 30511 net.cpp:150] Setting up relu2a
I0417 04:13:43.150745 30511 net.cpp:157] Top shape: 1 128 768 56 56 (308281344)
I0417 04:13:43.150748 30511 net.cpp:165] Memory required for data: 8362132668
I0417 04:13:43.150753 30511 layer_factory.hpp:77] Creating layer pool2
I0417 04:13:43.150779 30511 net.cpp:100] Creating Layer pool2
I0417 04:13:43.150784 30511 net.cpp:434] pool2 <- conv2a
I0417 04:13:43.150790 30511 net.cpp:408] pool2 -> pool2
I0417 04:13:43.150873 30511 net.cpp:150] Setting up pool2
I0417 04:13:43.150880 30511 net.cpp:157] Top shape: 1 128 384 28 28 (38535168)
I0417 04:13:43.150883 30511 net.cpp:165] Memory required for data: 8516273340
I0417 04:13:43.150887 30511 layer_factory.hpp:77] Creating layer conv3a
I0417 04:13:43.150900 30511 net.cpp:100] Creating Layer conv3a
I0417 04:13:43.150904 30511 net.cpp:434] conv3a <- pool2
I0417 04:13:43.150909 30511 net.cpp:408] conv3a -> conv3a
I0417 04:13:43.175946 30511 net.cpp:150] Setting up conv3a
I0417 04:13:43.175967 30511 net.cpp:157] Top shape: 1 256 384 28 28 (77070336)
I0417 04:13:43.175971 30511 net.cpp:165] Memory required for data: 8824554684
I0417 04:13:43.175983 30511 layer_factory.hpp:77] Creating layer relu3a
I0417 04:13:43.175994 30511 net.cpp:100] Creating Layer relu3a
I0417 04:13:43.175999 30511 net.cpp:434] relu3a <- conv3a
I0417 04:13:43.176005 30511 net.cpp:395] relu3a -> conv3a (in-place)
I0417 04:13:43.176013 30511 net.cpp:150] Setting up relu3a
I0417 04:13:43.176018 30511 net.cpp:157] Top shape: 1 256 384 28 28 (77070336)
I0417 04:13:43.176021 30511 net.cpp:165] Memory required for data: 9132836028
I0417 04:13:43.176024 30511 layer_factory.hpp:77] Creating layer conv3b
I0417 04:13:43.176034 30511 net.cpp:100] Creating Layer conv3b
I0417 04:13:43.176038 30511 net.cpp:434] conv3b <- conv3a
I0417 04:13:43.176043 30511 net.cpp:408] conv3b -> conv3b
I0417 04:13:43.224680 30511 net.cpp:150] Setting up conv3b
I0417 04:13:43.224707 30511 net.cpp:157] Top shape: 1 256 384 28 28 (77070336)
I0417 04:13:43.224711 30511 net.cpp:165] Memory required for data: 9441117372
I0417 04:13:43.224720 30511 layer_factory.hpp:77] Creating layer relu3b
I0417 04:13:43.224730 30511 net.cpp:100] Creating Layer relu3b
I0417 04:13:43.224735 30511 net.cpp:434] relu3b <- conv3b
I0417 04:13:43.224741 30511 net.cpp:395] relu3b -> conv3b (in-place)
I0417 04:13:43.224750 30511 net.cpp:150] Setting up relu3b
I0417 04:13:43.224755 30511 net.cpp:157] Top shape: 1 256 384 28 28 (77070336)
I0417 04:13:43.224757 30511 net.cpp:165] Memory required for data: 9749398716
I0417 04:13:43.224761 30511 layer_factory.hpp:77] Creating layer pool3
I0417 04:13:43.224767 30511 net.cpp:100] Creating Layer pool3
I0417 04:13:43.224771 30511 net.cpp:434] pool3 <- conv3b
I0417 04:13:43.224776 30511 net.cpp:408] pool3 -> pool3
I0417 04:13:43.224825 30511 net.cpp:150] Setting up pool3
I0417 04:13:43.224835 30511 net.cpp:157] Top shape: 1 256 192 14 14 (9633792)
I0417 04:13:43.224838 30511 net.cpp:165] Memory required for data: 9787933884
I0417 04:13:43.224841 30511 layer_factory.hpp:77] Creating layer conv4a
I0417 04:13:43.224851 30511 net.cpp:100] Creating Layer conv4a
I0417 04:13:43.224854 30511 net.cpp:434] conv4a <- pool3
I0417 04:13:43.224861 30511 net.cpp:408] conv4a -> conv4a
I0417 04:13:43.321743 30511 net.cpp:150] Setting up conv4a
I0417 04:13:43.321766 30511 net.cpp:157] Top shape: 1 512 192 14 14 (19267584)
I0417 04:13:43.321770 30511 net.cpp:165] Memory required for data: 9865004220
I0417 04:13:43.321784 30511 layer_factory.hpp:77] Creating layer relu4a
I0417 04:13:43.321794 30511 net.cpp:100] Creating Layer relu4a
I0417 04:13:43.321799 30511 net.cpp:434] relu4a <- conv4a
I0417 04:13:43.321805 30511 net.cpp:395] relu4a -> conv4a (in-place)
I0417 04:13:43.321813 30511 net.cpp:150] Setting up relu4a
I0417 04:13:43.321817 30511 net.cpp:157] Top shape: 1 512 192 14 14 (19267584)
I0417 04:13:43.321820 30511 net.cpp:165] Memory required for data: 9942074556
I0417 04:13:43.321823 30511 layer_factory.hpp:77] Creating layer conv4b
I0417 04:13:43.321836 30511 net.cpp:100] Creating Layer conv4b
I0417 04:13:43.321840 30511 net.cpp:434] conv4b <- conv4a
I0417 04:13:43.321846 30511 net.cpp:408] conv4b -> conv4b
I0417 04:13:43.514050 30511 net.cpp:150] Setting up conv4b
I0417 04:13:43.514080 30511 net.cpp:157] Top shape: 1 512 192 14 14 (19267584)
I0417 04:13:43.514083 30511 net.cpp:165] Memory required for data: 10019144892
I0417 04:13:43.514093 30511 layer_factory.hpp:77] Creating layer relu4b
I0417 04:13:43.514104 30511 net.cpp:100] Creating Layer relu4b
I0417 04:13:43.514109 30511 net.cpp:434] relu4b <- conv4b
I0417 04:13:43.514116 30511 net.cpp:395] relu4b -> conv4b (in-place)
I0417 04:13:43.514124 30511 net.cpp:150] Setting up relu4b
I0417 04:13:43.514128 30511 net.cpp:157] Top shape: 1 512 192 14 14 (19267584)
I0417 04:13:43.514132 30511 net.cpp:165] Memory required for data: 10096215228
I0417 04:13:43.514135 30511 layer_factory.hpp:77] Creating layer pool4
I0417 04:13:43.514142 30511 net.cpp:100] Creating Layer pool4
I0417 04:13:43.514150 30511 net.cpp:434] pool4 <- conv4b
I0417 04:13:43.514156 30511 net.cpp:408] pool4 -> pool4
I0417 04:13:43.514204 30511 net.cpp:150] Setting up pool4
I0417 04:13:43.514212 30511 net.cpp:157] Top shape: 1 512 96 7 7 (2408448)
I0417 04:13:43.514215 30511 net.cpp:165] Memory required for data: 10105849020
I0417 04:13:43.514219 30511 layer_factory.hpp:77] Creating layer conv5a
I0417 04:13:43.514230 30511 net.cpp:100] Creating Layer conv5a
I0417 04:13:43.514235 30511 net.cpp:434] conv5a <- pool4
I0417 04:13:43.514241 30511 net.cpp:408] conv5a -> conv5a
I0417 04:13:43.702479 30511 net.cpp:150] Setting up conv5a
I0417 04:13:43.702507 30511 net.cpp:157] Top shape: 1 512 96 7 7 (2408448)
I0417 04:13:43.702509 30511 net.cpp:165] Memory required for data: 10115482812
I0417 04:13:43.702518 30511 layer_factory.hpp:77] Creating layer relu5a
I0417 04:13:43.702528 30511 net.cpp:100] Creating Layer relu5a
I0417 04:13:43.702533 30511 net.cpp:434] relu5a <- conv5a
I0417 04:13:43.702539 30511 net.cpp:395] relu5a -> conv5a (in-place)
I0417 04:13:43.702548 30511 net.cpp:150] Setting up relu5a
I0417 04:13:43.702551 30511 net.cpp:157] Top shape: 1 512 96 7 7 (2408448)
I0417 04:13:43.702554 30511 net.cpp:165] Memory required for data: 10125116604
I0417 04:13:43.702558 30511 layer_factory.hpp:77] Creating layer conv5b
I0417 04:13:43.702569 30511 net.cpp:100] Creating Layer conv5b
I0417 04:13:43.702574 30511 net.cpp:434] conv5b <- conv5a
I0417 04:13:43.702580 30511 net.cpp:408] conv5b -> conv5b
I0417 04:13:43.889083 30511 net.cpp:150] Setting up conv5b
I0417 04:13:43.889111 30511 net.cpp:157] Top shape: 1 512 96 7 7 (2408448)
I0417 04:13:43.889116 30511 net.cpp:165] Memory required for data: 10134750396
I0417 04:13:43.889123 30511 layer_factory.hpp:77] Creating layer relu5b
I0417 04:13:43.889134 30511 net.cpp:100] Creating Layer relu5b
I0417 04:13:43.889139 30511 net.cpp:434] relu5b <- conv5b
I0417 04:13:43.889147 30511 net.cpp:395] relu5b -> conv5b (in-place)
I0417 04:13:43.889154 30511 net.cpp:150] Setting up relu5b
I0417 04:13:43.889163 30511 net.cpp:157] Top shape: 1 512 96 7 7 (2408448)
I0417 04:13:43.889166 30511 net.cpp:165] Memory required for data: 10144384188
I0417 04:13:43.889170 30511 layer_factory.hpp:77] Creating layer conv5b_relu5b_0_split
I0417 04:13:43.889178 30511 net.cpp:100] Creating Layer conv5b_relu5b_0_split
I0417 04:13:43.889180 30511 net.cpp:434] conv5b_relu5b_0_split <- conv5b
I0417 04:13:43.889185 30511 net.cpp:408] conv5b_relu5b_0_split -> conv5b_relu5b_0_split_0
I0417 04:13:43.889191 30511 net.cpp:408] conv5b_relu5b_0_split -> conv5b_relu5b_0_split_1
I0417 04:13:43.889235 30511 net.cpp:150] Setting up conv5b_relu5b_0_split
I0417 04:13:43.889243 30511 net.cpp:157] Top shape: 1 512 96 7 7 (2408448)
I0417 04:13:43.889247 30511 net.cpp:157] Top shape: 1 512 96 7 7 (2408448)
I0417 04:13:43.889250 30511 net.cpp:165] Memory required for data: 10163651772
I0417 04:13:43.889253 30511 layer_factory.hpp:77] Creating layer rpn_conv/3x3
I0417 04:13:43.889264 30511 net.cpp:100] Creating Layer rpn_conv/3x3
I0417 04:13:43.889271 30511 net.cpp:434] rpn_conv/3x3 <- conv5b_relu5b_0_split_0
I0417 04:13:43.889277 30511 net.cpp:408] rpn_conv/3x3 -> rpn/output
I0417 04:13:44.076042 30511 net.cpp:150] Setting up rpn_conv/3x3
I0417 04:13:44.076069 30511 net.cpp:157] Top shape: 1 512 96 4 4 (786432)
I0417 04:13:44.076074 30511 net.cpp:165] Memory required for data: 10166797500
I0417 04:13:44.076095 30511 layer_factory.hpp:77] Creating layer rpn_relu/3x3
I0417 04:13:44.076109 30511 net.cpp:100] Creating Layer rpn_relu/3x3
I0417 04:13:44.076115 30511 net.cpp:434] rpn_relu/3x3 <- rpn/output
I0417 04:13:44.076123 30511 net.cpp:395] rpn_relu/3x3 -> rpn/output (in-place)
I0417 04:13:44.076133 30511 net.cpp:150] Setting up rpn_relu/3x3
I0417 04:13:44.076136 30511 net.cpp:157] Top shape: 1 512 96 4 4 (786432)
I0417 04:13:44.076140 30511 net.cpp:165] Memory required for data: 10169943228
I0417 04:13:44.076143 30511 layer_factory.hpp:77] Creating layer rpn_conv/3x3_2
I0417 04:13:44.076153 30511 net.cpp:100] Creating Layer rpn_conv/3x3_2
I0417 04:13:44.076156 30511 net.cpp:434] rpn_conv/3x3_2 <- rpn/output
I0417 04:13:44.076162 30511 net.cpp:408] rpn_conv/3x3_2 -> rpn/output_2
I0417 04:13:44.267825 30511 net.cpp:150] Setting up rpn_conv/3x3_2
I0417 04:13:44.267850 30511 net.cpp:157] Top shape: 1 512 96 2 2 (196608)
I0417 04:13:44.267854 30511 net.cpp:165] Memory required for data: 10170729660
I0417 04:13:44.267863 30511 layer_factory.hpp:77] Creating layer rpn_relu/3x3_2
I0417 04:13:44.267871 30511 net.cpp:100] Creating Layer rpn_relu/3x3_2
I0417 04:13:44.267876 30511 net.cpp:434] rpn_relu/3x3_2 <- rpn/output_2
I0417 04:13:44.267882 30511 net.cpp:395] rpn_relu/3x3_2 -> rpn/output_2 (in-place)
I0417 04:13:44.267890 30511 net.cpp:150] Setting up rpn_relu/3x3_2
I0417 04:13:44.267895 30511 net.cpp:157] Top shape: 1 512 96 2 2 (196608)
I0417 04:13:44.267897 30511 net.cpp:165] Memory required for data: 10171516092
I0417 04:13:44.267900 30511 layer_factory.hpp:77] Creating layer rpn/output_pool
I0417 04:13:44.267909 30511 net.cpp:100] Creating Layer rpn/output_pool
I0417 04:13:44.267912 30511 net.cpp:434] rpn/output_pool <- rpn/output_2
I0417 04:13:44.267917 30511 net.cpp:408] rpn/output_pool -> rpn/output_pool
I0417 04:13:44.267966 30511 net.cpp:150] Setting up rpn/output_pool
I0417 04:13:44.267973 30511 net.cpp:157] Top shape: 1 512 96 1 1 (49152)
I0417 04:13:44.267976 30511 net.cpp:165] Memory required for data: 10171712700
I0417 04:13:44.267980 30511 layer_factory.hpp:77] Creating layer rpn/output_pool_rpn/output_pool_0_split
I0417 04:13:44.267985 30511 net.cpp:100] Creating Layer rpn/output_pool_rpn/output_pool_0_split
I0417 04:13:44.267989 30511 net.cpp:434] rpn/output_pool_rpn/output_pool_0_split <- rpn/output_pool
I0417 04:13:44.267995 30511 net.cpp:408] rpn/output_pool_rpn/output_pool_0_split -> rpn/output_pool_rpn/output_pool_0_split_0
I0417 04:13:44.268000 30511 net.cpp:408] rpn/output_pool_rpn/output_pool_0_split -> rpn/output_pool_rpn/output_pool_0_split_1
I0417 04:13:44.268039 30511 net.cpp:150] Setting up rpn/output_pool_rpn/output_pool_0_split
I0417 04:13:44.268046 30511 net.cpp:157] Top shape: 1 512 96 1 1 (49152)
I0417 04:13:44.268050 30511 net.cpp:157] Top shape: 1 512 96 1 1 (49152)
I0417 04:13:44.268054 30511 net.cpp:165] Memory required for data: 10172105916
I0417 04:13:44.268056 30511 layer_factory.hpp:77] Creating layer rpn_cls_score
I0417 04:13:44.268066 30511 net.cpp:100] Creating Layer rpn_cls_score
I0417 04:13:44.268070 30511 net.cpp:434] rpn_cls_score <- rpn/output_pool_rpn/output_pool_0_split_0
I0417 04:13:44.268079 30511 net.cpp:408] rpn_cls_score -> rpn_cls_score
I0417 04:13:44.269326 30511 net.cpp:150] Setting up rpn_cls_score
I0417 04:13:44.269336 30511 net.cpp:157] Top shape: 1 74 96 1 1 (7104)
I0417 04:13:44.269340 30511 net.cpp:165] Memory required for data: 10172134332
I0417 04:13:44.269345 30511 layer_factory.hpp:77] Creating layer rpn_cls_score_rpn_cls_score_0_split
I0417 04:13:44.269349 30511 net.cpp:100] Creating Layer rpn_cls_score_rpn_cls_score_0_split
I0417 04:13:44.269353 30511 net.cpp:434] rpn_cls_score_rpn_cls_score_0_split <- rpn_cls_score
I0417 04:13:44.269358 30511 net.cpp:408] rpn_cls_score_rpn_cls_score_0_split -> rpn_cls_score_rpn_cls_score_0_split_0
I0417 04:13:44.269363 30511 net.cpp:408] rpn_cls_score_rpn_cls_score_0_split -> rpn_cls_score_rpn_cls_score_0_split_1
I0417 04:13:44.269409 30511 net.cpp:150] Setting up rpn_cls_score_rpn_cls_score_0_split
I0417 04:13:44.269418 30511 net.cpp:157] Top shape: 1 74 96 1 1 (7104)
I0417 04:13:44.269423 30511 net.cpp:157] Top shape: 1 74 96 1 1 (7104)
I0417 04:13:44.269425 30511 net.cpp:165] Memory required for data: 10172191164
I0417 04:13:44.269428 30511 layer_factory.hpp:77] Creating layer rpn_twin_pred
I0417 04:13:44.269439 30511 net.cpp:100] Creating Layer rpn_twin_pred
I0417 04:13:44.269445 30511 net.cpp:434] rpn_twin_pred <- rpn/output_pool_rpn/output_pool_0_split_1
I0417 04:13:44.269453 30511 net.cpp:408] rpn_twin_pred -> rpn_twin_pred
I0417 04:13:44.270687 30511 net.cpp:150] Setting up rpn_twin_pred
I0417 04:13:44.270697 30511 net.cpp:157] Top shape: 1 74 96 1 1 (7104)
I0417 04:13:44.270709 30511 net.cpp:165] Memory required for data: 10172219580
I0417 04:13:44.270715 30511 layer_factory.hpp:77] Creating layer rpn_twin_pred_rpn_twin_pred_0_split
I0417 04:13:44.270720 30511 net.cpp:100] Creating Layer rpn_twin_pred_rpn_twin_pred_0_split
I0417 04:13:44.270723 30511 net.cpp:434] rpn_twin_pred_rpn_twin_pred_0_split <- rpn_twin_pred
I0417 04:13:44.270727 30511 net.cpp:408] rpn_twin_pred_rpn_twin_pred_0_split -> rpn_twin_pred_rpn_twin_pred_0_split_0
I0417 04:13:44.270733 30511 net.cpp:408] rpn_twin_pred_rpn_twin_pred_0_split -> rpn_twin_pred_rpn_twin_pred_0_split_1
I0417 04:13:44.270787 30511 net.cpp:150] Setting up rpn_twin_pred_rpn_twin_pred_0_split
I0417 04:13:44.270797 30511 net.cpp:157] Top shape: 1 74 96 1 1 (7104)
I0417 04:13:44.270800 30511 net.cpp:157] Top shape: 1 74 96 1 1 (7104)
I0417 04:13:44.270803 30511 net.cpp:165] Memory required for data: 10172276412
I0417 04:13:44.270807 30511 layer_factory.hpp:77] Creating layer rpn_cls_score_reshape
I0417 04:13:44.270817 30511 net.cpp:100] Creating Layer rpn_cls_score_reshape
I0417 04:13:44.270823 30511 net.cpp:434] rpn_cls_score_reshape <- rpn_cls_score_rpn_cls_score_0_split_0
I0417 04:13:44.270829 30511 net.cpp:408] rpn_cls_score_reshape -> rpn_cls_score_reshape
I0417 04:13:44.270860 30511 net.cpp:150] Setting up rpn_cls_score_reshape
I0417 04:13:44.270867 30511 net.cpp:157] Top shape: 1 2 3552 1 1 (7104)
I0417 04:13:44.270870 30511 net.cpp:165] Memory required for data: 10172304828
I0417 04:13:44.270874 30511 layer_factory.hpp:77] Creating layer rpn_cls_score_reshape_rpn_cls_score_reshape_0_split
I0417 04:13:44.270877 30511 net.cpp:100] Creating Layer rpn_cls_score_reshape_rpn_cls_score_reshape_0_split
I0417 04:13:44.270881 30511 net.cpp:434] rpn_cls_score_reshape_rpn_cls_score_reshape_0_split <- rpn_cls_score_reshape
I0417 04:13:44.270885 30511 net.cpp:408] rpn_cls_score_reshape_rpn_cls_score_reshape_0_split -> rpn_cls_score_reshape_rpn_cls_score_reshape_0_split_0
I0417 04:13:44.270895 30511 net.cpp:408] rpn_cls_score_reshape_rpn_cls_score_reshape_0_split -> rpn_cls_score_reshape_rpn_cls_score_reshape_0_split_1
I0417 04:13:44.270900 30511 net.cpp:408] rpn_cls_score_reshape_rpn_cls_score_reshape_0_split -> rpn_cls_score_reshape_rpn_cls_score_reshape_0_split_2
I0417 04:13:44.270952 30511 net.cpp:150] Setting up rpn_cls_score_reshape_rpn_cls_score_reshape_0_split
I0417 04:13:44.270961 30511 net.cpp:157] Top shape: 1 2 3552 1 1 (7104)
I0417 04:13:44.270965 30511 net.cpp:157] Top shape: 1 2 3552 1 1 (7104)
I0417 04:13:44.270969 30511 net.cpp:157] Top shape: 1 2 3552 1 1 (7104)
I0417 04:13:44.270972 30511 net.cpp:165] Memory required for data: 10172390076
I0417 04:13:44.270975 30511 layer_factory.hpp:77] Creating layer rpn-data
I0417 04:13:44.271364 30511 net.cpp:100] Creating Layer rpn-data
I0417 04:13:44.271376 30511 net.cpp:434] rpn-data <- rpn_cls_score_rpn_cls_score_0_split_1
I0417 04:13:44.271381 30511 net.cpp:434] rpn-data <- gt_boxes_data_1_split_0
I0417 04:13:44.271386 30511 net.cpp:434] rpn-data <- data_data_0_split_1
I0417 04:13:44.271391 30511 net.cpp:408] rpn-data -> rpn_labels
I0417 04:13:44.271399 30511 net.cpp:408] rpn-data -> rpn_twin_targets
I0417 04:13:44.271404 30511 net.cpp:408] rpn-data -> rpn_twin_inside_weights
I0417 04:13:44.271409 30511 net.cpp:408] rpn-data -> rpn_twin_outside_weights
I0417 04:13:44.273650 30511 net.cpp:150] Setting up rpn-data
I0417 04:13:44.273665 30511 net.cpp:157] Top shape: 1 1 3552 1 1 (3552)
I0417 04:13:44.273669 30511 net.cpp:157] Top shape: 1 74 96 1 1 (7104)
I0417 04:13:44.273674 30511 net.cpp:157] Top shape: 1 74 96 1 1 (7104)
I0417 04:13:44.273676 30511 net.cpp:157] Top shape: 1 74 96 1 1 (7104)
I0417 04:13:44.273679 30511 net.cpp:165] Memory required for data: 10172489532
I0417 04:13:44.273682 30511 layer_factory.hpp:77] Creating layer rpn_labels_rpn-data_0_split
I0417 04:13:44.273689 30511 net.cpp:100] Creating Layer rpn_labels_rpn-data_0_split
I0417 04:13:44.273694 30511 net.cpp:434] rpn_labels_rpn-data_0_split <- rpn_labels
I0417 04:13:44.273699 30511 net.cpp:408] rpn_labels_rpn-data_0_split -> rpn_labels_rpn-data_0_split_0
I0417 04:13:44.273705 30511 net.cpp:408] rpn_labels_rpn-data_0_split -> rpn_labels_rpn-data_0_split_1
I0417 04:13:44.273743 30511 net.cpp:150] Setting up rpn_labels_rpn-data_0_split
I0417 04:13:44.273752 30511 net.cpp:157] Top shape: 1 1 3552 1 1 (3552)
I0417 04:13:44.273756 30511 net.cpp:157] Top shape: 1 1 3552 1 1 (3552)
I0417 04:13:44.273758 30511 net.cpp:165] Memory required for data: 10172517948
I0417 04:13:44.273762 30511 layer_factory.hpp:77] Creating layer rpn_loss_cls
I0417 04:13:44.273771 30511 net.cpp:100] Creating Layer rpn_loss_cls
I0417 04:13:44.273774 30511 net.cpp:434] rpn_loss_cls <- rpn_cls_score_reshape_rpn_cls_score_reshape_0_split_0
I0417 04:13:44.273778 30511 net.cpp:434] rpn_loss_cls <- rpn_labels_rpn-data_0_split_0
…
I0417 04:13:44.274080 30511 layer_factory.hpp:77] Creating layer rpn_accuarcy
I0417 04:13:44.274086 30511 net.cpp:100] Creating Layer rpn_accuarcy
I0417 04:13:44.274091 30511 net.cpp:434] rpn_accuarcy <- rpn_cls_score_reshape_rpn_cls_score_reshape_0_split_1
I0417 04:13:44.274094 30511 net.cpp:434] rpn_accuarcy <- rpn_labels_rpn-data_0_split_1
I0417 04:13:44.274099 30511 net.cpp:408] rpn_accuarcy -> rpn_accuarcy
I0417 04:13:44.274104 30511 net.cpp:408] rpn_accuarcy -> rpn_accuarcy_class
I0417 04:13:44.274148 30511 net.cpp:150] Setting up rpn_accuarcy
I0417 04:13:44.274155 30511 net.cpp:157] Top shape: (1)
I0417 04:13:44.274159 30511 net.cpp:157] Top shape: 2 (2)
I0417 04:13:44.274163 30511 net.cpp:165] Memory required for data: 10172517968
I0417 04:13:44.274165 30511 layer_factory.hpp:77] Creating layer rpn_cls_prob
I0417 04:13:44.274169 30511 net.cpp:100] Creating Layer rpn_cls_prob
I0417 04:13:44.274173 30511 net.cpp:434] rpn_cls_prob <- rpn_cls_score_reshape_rpn_cls_score_reshape_0_split_2
I0417 04:13:44.274178 30511 net.cpp:408] rpn_cls_prob -> rpn_cls_prob
I0417 04:13:44.274247 30511 net.cpp:150] Setting up rpn_cls_prob
I0417 04:13:44.274255 30511 net.cpp:157] Top shape: 1 2 3552 1 1 (7104)
I0417 04:13:44.274257 30511 net.cpp:165] Memory required for data: 10172546384
I0417 04:13:44.274261 30511 layer_factory.hpp:77] Creating layer rpn_cls_prob_reshape
I0417 04:13:44.274266 30511 net.cpp:100] Creating Layer rpn_cls_prob_reshape
I0417 04:13:44.274271 30511 net.cpp:434] rpn_cls_prob_reshape <- rpn_cls_prob
I0417 04:13:44.274276 30511 net.cpp:408] rpn_cls_prob_reshape -> rpn_cls_prob_reshape
I0417 04:13:44.274303 30511 net.cpp:150] Setting up rpn_cls_prob_reshape
I0417 04:13:44.274313 30511 net.cpp:157] Top shape: 1 74 96 1 1 (7104)
I0417 04:13:44.274317 30511 net.cpp:165] Memory required for data: 10172574800
I0417 04:13:44.274319 30511 layer_factory.hpp:77] Creating layer proposal
I0417 04:13:44.274878 30511 net.cpp:100] Creating Layer proposal
I0417 04:13:44.274890 30511 net.cpp:434] proposal <- rpn_cls_prob_reshape
I0417 04:13:44.274897 30511 net.cpp:434] proposal <- rpn_twin_pred_rpn_twin_pred_0_split_1
I0417 04:13:44.274904 30511 net.cpp:408] proposal -> rpn_rois
I0417 04:13:44.277068 30511 net.cpp:150] Setting up proposal
I0417 04:13:44.277082 30511 net.cpp:157] Top shape: 1 3 (3)
I0417 04:13:44.277086 30511 net.cpp:165] Memory required for data: 10172574812
I0417 04:13:44.277091 30511 layer_factory.hpp:77] Creating layer roi-data
I0417 04:13:44.277220 30511 net.cpp:100] Creating Layer roi-data
I0417 04:13:44.277232 30511 net.cpp:434] roi-data <- rpn_rois
I0417 04:13:44.277237 30511 net.cpp:434] roi-data <- gt_boxes_data_1_split_1
I0417 04:13:44.277243 30511 net.cpp:408] roi-data -> rois
I0417 04:13:44.277251 30511 net.cpp:408] roi-data -> labels
I0417 04:13:44.277256 30511 net.cpp:408] roi-data -> twin_targets
I0417 04:13:44.277261 30511 net.cpp:408] roi-data -> twin_inside_weights
I0417 04:13:44.277266 30511 net.cpp:408] roi-data -> twin_outside_weights
I0417 04:13:44.277587 30511 net.cpp:150] Setting up roi-data
I0417 04:13:44.277601 30511 net.cpp:157] Top shape: 1 3 (3)
I0417 04:13:44.277604 30511 net.cpp:157] Top shape: 1 1 (1)
I0417 04:13:44.277608 30511 net.cpp:157] Top shape: 1 402 (402)
I0417 04:13:44.277611 30511 net.cpp:157] Top shape: 1 402 (402)
I0417 04:13:44.277614 30511 net.cpp:157] Top shape: 1 402 (402)
I0417 04:13:44.277617 30511 net.cpp:165] Memory required for data: 10172579652
I0417 04:13:44.277621 30511 layer_factory.hpp:77] Creating layer labels_roi-data_1_split
I0417 04:13:44.277626 30511 net.cpp:100] Creating Layer labels_roi-data_1_split
I0417 04:13:44.277631 30511 net.cpp:434] labels_roi-data_1_split <- labels
I0417 04:13:44.277637 30511 net.cpp:408] labels_roi-data_1_split -> labels_roi-data_1_split_0
I0417 04:13:44.277642 30511 net.cpp:408] labels_roi-data_1_split -> labels_roi-data_1_split_1
I0417 04:13:44.277683 30511 net.cpp:150] Setting up labels_roi-data_1_split
I0417 04:13:44.277690 30511 net.cpp:157] Top shape: 1 1 (1)
I0417 04:13:44.277694 30511 net.cpp:157] Top shape: 1 1 (1)
I0417 04:13:44.277698 30511 net.cpp:165] Memory required for data: 10172579660
I0417 04:13:44.277700 30511 layer_factory.hpp:77] Creating layer roi_pool5
I0417 04:13:44.277709 30511 net.cpp:100] Creating Layer roi_pool5
I0417 04:13:44.277714 30511 net.cpp:434] roi_pool5 <- conv5b_relu5b_0_split_1
I0417 04:13:44.277719 30511 net.cpp:434] roi_pool5 <- rois
I0417 04:13:44.277722 30511 net.cpp:408] roi_pool5 -> pool5
I0417 04:13:44.277730 30511 roi_pooling_layer.cpp:34] Temporal scale: 0.125
I0417 04:13:44.277739 30511 roi_pooling_layer.cpp:35] Spatial scale: 0.0625
I0417 04:13:44.277781 30511 net.cpp:150] Setting up roi_pool5
I0417 04:13:44.277787 30511 net.cpp:157] Top shape: 1 512 1 4 4 (8192)
I0417 04:13:44.277791 30511 net.cpp:165] Memory required for data: 10172612428
I0417 04:13:44.277794 30511 layer_factory.hpp:77] Creating layer fc6
I0417 04:13:44.277803 30511 net.cpp:100] Creating Layer fc6
I0417 04:13:44.277807 30511 net.cpp:434] fc6 <- pool5
I0417 04:13:44.277812 30511 net.cpp:408] fc6 -> fc6
I0417 04:13:45.160306 30511 net.cpp:150] Setting up fc6
I0417 04:13:45.160343 30511 net.cpp:157] Top shape: 1 4096 (4096)
I0417 04:13:45.160347 30511 net.cpp:165] Memory required for data: 10172628812
I0417 04:13:45.160357 30511 layer_factory.hpp:77] Creating layer relu6
I0417 04:13:45.160368 30511 net.cpp:100] Creating Layer relu6
I0417 04:13:45.160373 30511 net.cpp:434] relu6 <- fc6
I0417 04:13:45.160379 30511 net.cpp:395] relu6 -> fc6 (in-place)
I0417 04:13:45.160388 30511 net.cpp:150] Setting up relu6
I0417 04:13:45.160392 30511 net.cpp:157] Top shape: 1 4096 (4096)
I0417 04:13:45.160395 30511 net.cpp:165] Memory required for data: 10172645196
I0417 04:13:45.160398 30511 layer_factory.hpp:77] Creating layer drop6
I0417 04:13:45.160409 30511 net.cpp:100] Creating Layer drop6
I0417 04:13:45.160415 30511 net.cpp:434] drop6 <- fc6
I0417 04:13:45.160420 30511 net.cpp:395] drop6 -> fc6 (in-place)
I0417 04:13:45.160449 30511 net.cpp:150] Setting up drop6
I0417 04:13:45.160455 30511 net.cpp:157] Top shape: 1 4096 (4096)
I0417 04:13:45.160459 30511 net.cpp:165] Memory required for data: 10172661580
I0417 04:13:45.160461 30511 layer_factory.hpp:77] Creating layer fc6_drop6_0_split
I0417 04:13:45.160466 30511 net.cpp:100] Creating Layer fc6_drop6_0_split
I0417 04:13:45.160470 30511 net.cpp:434] fc6_drop6_0_split <- fc6
I0417 04:13:45.160475 30511 net.cpp:408] fc6_drop6_0_split -> fc6_drop6_0_split_0
I0417 04:13:45.160480 30511 net.cpp:408] fc6_drop6_0_split -> fc6_drop6_0_split_1
I0417 04:13:45.160519 30511 net.cpp:150] Setting up fc6_drop6_0_split
I0417 04:13:45.160526 30511 net.cpp:157] Top shape: 1 4096 (4096)
I0417 04:13:45.160531 30511 net.cpp:157] Top shape: 1 4096 (4096)
I0417 04:13:45.160533 30511 net.cpp:165] Memory required for data: 10172694348
I0417 04:13:45.160537 30511 layer_factory.hpp:77] Creating layer cls_score
I0417 04:13:45.160547 30511 net.cpp:100] Creating Layer cls_score
I0417 04:13:45.160552 30511 net.cpp:434] cls_score <- fc6_drop6_0_split_0
I0417 04:13:45.160557 30511 net.cpp:408] cls_score -> cls_score
I0417 04:13:45.182135 30511 net.cpp:150] Setting up cls_score
I0417 04:13:45.182152 30511 net.cpp:157] Top shape: 1 201 (201)
I0417 04:13:45.182155 30511 net.cpp:165] Memory required for data: 10172695152
I0417 04:13:45.182163 30511 layer_factory.hpp:77] Creating layer cls_score_cls_score_0_split
I0417 04:13:45.182169 30511 net.cpp:100] Creating Layer cls_score_cls_score_0_split
I0417 04:13:45.182174 30511 net.cpp:434] cls_score_cls_score_0_split <- cls_score
I0417 04:13:45.182179 30511 net.cpp:408] cls_score_cls_score_0_split -> cls_score_cls_score_0_split_0
I0417 04:13:45.182185 30511 net.cpp:408] cls_score_cls_score_0_split -> cls_score_cls_score_0_split_1
I0417 04:13:45.182227 30511 net.cpp:150] Setting up cls_score_cls_score_0_split
I0417 04:13:45.182235 30511 net.cpp:157] Top shape: 1 201 (201)
I0417 04:13:45.182240 30511 net.cpp:157] Top shape: 1 201 (201)
I0417 04:13:45.182242 30511 net.cpp:165] Memory required for data: 10172696760
I0417 04:13:45.182246 30511 layer_factory.hpp:77] Creating layer twin_pred
I0417 04:13:45.182261 30511 net.cpp:100] Creating Layer twin_pred
I0417 04:13:45.182265 30511 net.cpp:434] twin_pred <- fc6_drop6_0_split_1
I0417 04:13:45.182271 30511 net.cpp:408] twin_pred -> twin_pred
I0417 04:13:45.225623 30511 net.cpp:150] Setting up twin_pred
I0417 04:13:45.225647 30511 net.cpp:157] Top shape: 1 402 (402)
I0417 04:13:45.225651 30511 net.cpp:165] Memory required for data: 10172698368
I0417 04:13:45.225661 30511 layer_factory.hpp:77] Creating layer loss_cls
I0417 04:13:45.225669 30511 net.cpp:100] Creating Layer loss_cls
I0417 04:13:45.225675 30511 net.cpp:434] loss_cls <- cls_score_cls_score_0_split_0
I0417 04:13:45.225682 30511 net.cpp:434] loss_cls <- labels_roi-data_1_split_0
I0417 04:13:45.225687 30511 net.cpp:408] loss_cls -> loss_cls
…
