…
stepsize: 350000
snapshot: 0
snapshot_prefix: "./experiments/activitynet/snapshot/activitynet"
average_loss: 100
iter_size: 1
I0417 23:42:42.420867  5200 solver.cpp:81] Creating training net from train_net file: ./experiments/activitynet/train.prototxt
I0417 23:42:42.421959  5200 net.cpp:58] Initializing net from parameters: 
name: "activitynet"
state {
  phase: TRAIN
}
layer {
  name: "data"
  type: "Python"
  top: "data"
  top: "gt_boxes"
  python_param {
    module: "roi_data_layer.layer"
    layer: "RoIDataLayer"
    param_str: "\'num_classes\': 100"
  }
}
layer {
  name: "conv1a"
  type: "Convolution"
  bottom: "data"
  top: "conv1a"
  param {
    lr_mult: 0
    decay_mult: 0
  }
  param {
    lr_mult: 0
    decay_mult: 0
  }
  convolution_param {
    num_output: 64
    pad: 1
    pad: 1
    pad: 1
    kernel_size: 3
    kernel_size: 3
    kernel_size: 3
    weight_filler {
      type: "gaussian"
      std: 0.01
    }
    bias_filler {
      type: "constant"
      value: 0
    }
  }
}
layer {
  name: "relu1a"
  type: "ReLU"
  bottom: "conv1a"
  top: "conv1a"
}
layer {
  name: "pool1"
  type: "Pooling"
  bottom: "conv1a"
  top: "pool1"
  pooling_param {
    pool: MAX
    kernel_size: 1
    kernel_size: 2
    kernel_size: 2
    stride: 1
    stride: 2
    stride: 2
  }
}
layer {
  name: "conv2a"
  type: "Convolution"
  bottom: "pool1"
  top: "conv2a"
  param {
    lr_mult: 0
    decay_mult: 0
  }
  param {
    lr_mult: 0
    decay_mult: 0
  }
  convolution_param {
    num_output: 128
    pad: 1
    pad: 1
    pad: 1
    kernel_size: 3
    kernel_size: 3
    kernel_size: 3
    weight_filler {
      type: "gaussian"
      std: 0.01
    }
    bias_filler {
      type: "constant"
      value: 1
    }
  }
}
layer {
  name: "relu2a"
  type: "ReLU"
  bottom: "conv2a"
  top: "conv2a"
}
layer {
  name: "pool2"
  type: "Pooling"
  bottom: "conv2a"
  top: "pool2"
  pooling_param {
    pool: MAX
    kernel_size: 2
    kernel_size: 2
    kernel_size: 2
    stride: 2
    stride: 2
    stride: 2
  }
}
layer {
  name: "conv3a"
  type: "Convolution"
  bottom: "pool2"
  top: "conv3a"
  param {
    lr_mult: 1
    decay_mult: 1
  }
  param {
    lr_mult: 2
    decay_mult: 0
  }
  convolution_param {
    num_output: 256
    pad: 1
    pad: 1
    pad: 1
    kernel_size: 3
    kernel_size: 3
    kernel_size: 3
    weight_filler {
      type: "gaussian"
      std: 0.01
    }
    bias_filler {
      type: "constant"
      value: 1
    }
  }
}
layer {
  name: "relu3a"
  type: "ReLU"
  bottom: "conv3a"
  top: "conv3a"
}
layer {
  name: "conv3b"
  type: "Convolution"
  bottom: "conv3a"
  top: "conv3b"
  param {
    lr_mult: 1
    decay_mult: 1
  }
  param {
    lr_mult: 2
    decay_mult: 0
  }
  convolution_param {
    num_output: 256
    pad: 1
    pad: 1
    pad: 1
    kernel_size: 3
    kernel_size: 3
    kernel_size: 3
    weight_filler {
      type: "gaussian"
      std: 0.01
    }
    bias_filler {
      type: "constant"
      value: 1
    }
  }
}
layer {
  name: "relu3b"
  type: "ReLU"
  bottom: "conv3b"
  top: "conv3b"
}
layer {
  name: "pool3"
  type: "Pooling"
  bottom: "conv3b"
  top: "pool3"
  pooling_param {
    pool: MAX
    kernel_size: 2
    kernel_size: 2
    kernel_size: 2
    stride: 2
    stride: 2
    stride: 2
  }
}
layer {
  name: "conv4a"
  type: "Convolution"
  bottom: "pool3"
  top: "conv4a"
  param {
    lr_mult: 1
    decay_mult: 1
  }
  param {
    lr_mult: 2
    decay_mult: 0
  }
  convolution_param {
    num_output: 512
    pad: 1
    pad: 1
    pad: 1
    kernel_size: 3
    kernel_size: 3
    kernel_size: 3
    weight_filler {
      type: "gaussian"
      std: 0.01
    }
    bias_filler {
      type: "constant"
      value: 1
    }
  }
}
layer {
  name: "relu4a"
  type: "ReLU"
  bottom: "conv4a"
  top: "conv4a"
}
layer {
  name: "conv4b"
  type: "Convolution"
  bottom: "conv4a"
  top: "conv4b"
  param {
    lr_mult: 1
    decay_mult: 1
  }
  param {
    lr_mult: 2
    decay_mult: 0
  }
  convolution_param {
    num_output: 512
    pad: 1
    pad: 1
    pad: 1
    kernel_size: 3
    kernel_size: 3
    kernel_size: 3
    weight_filler {
      type: "gaussian"
      std: 0.01
    }
    bias_filler {
      type: "constant"
      value: 1
    }
  }
}
layer {
  name: "relu4b"
  type: "ReLU"
  bottom: "conv4b"
  top: "conv4b"
}
layer {
  name: "pool4"
  type: "Pooling"
  bottom: "conv4b"
  top: "pool4"
  pooling_param {
    pool: MAX
    kernel_size: 2
    kernel_size: 2
    kernel_size: 2
    stride: 2
    stride: 2
    stride: 2
  }
}
layer {
  name: "conv5a"
  type: "Convolution"
  bottom: "pool4"
  top: "conv5a"
  param {
    lr_mult: 1
    decay_mult: 1
  }
  param {
    lr_mult: 2
    decay_mult: 0
  }
  convolution_param {
    num_output: 512
    pad: 1
    pad: 1
    pad: 1
    kernel_size: 3
    kernel_size: 3
    kernel_size: 3
    weight_filler {
      type: "gaussian"
      std: 0.01
    }
    bias_filler {
      type: "constant"
      value: 1
    }
  }
}
layer {
  name: "relu5a"
  type: "ReLU"
  bottom: "conv5a"
  top: "conv5a"
}
layer {
  name: "conv5b"
  type: "Convolution"
  bottom: "conv5a"
  top: "conv5b"
  param {
    lr_mult: 1
    decay_mult: 1
  }
  param {
    lr_mult: 2
    decay_mult: 0
  }
  convolution_param {
    num_output: 512
    pad: 1
    pad: 1
    pad: 1
    kernel_size: 3
    kernel_size: 3
    kernel_size: 3
    weight_filler {
      type: "gaussian"
      std: 0.01
    }
    bias_filler {
      type: "constant"
      value: 1
    }
  }
}
layer {
  name: "relu5b"
  type: "ReLU"
  bottom: "conv5b"
  top: "conv5b"
}
layer {
  name: "rpn_conv/3x3"
  type: "Convolution"
  bottom: "conv5b"
  top: "rpn/output"
  param {
    lr_mult: 1
    decay_mult: 1
  }
  param {
    lr_mult: 2
    decay_mult: 0
  }
  convolution_param {
    num_output: 512
    pad: 1
    pad: 1
    pad: 1
    kernel_size: 3
    kernel_size: 3
    kernel_size: 3
    stride: 1
    stride: 2
    stride: 2
    weight_filler {
      type: "gaussian"
      std: 0.01
    }
    bias_filler {
      type: "constant"
      value: 0
    }
  }
}
layer {
  name: "rpn_relu/3x3"
  type: "ReLU"
  bottom: "rpn/output"
  top: "rpn/output"
}
layer {
  name: "rpn_conv/3x3_2"
  type: "Convolution"
  bottom: "rpn/output"
  top: "rpn/output_2"
  param {
    lr_mult: 1
    decay_mult: 1
  }
  param {
    lr_mult: 2
    decay_mult: 0
  }
  convolution_param {
    num_output: 512
    pad: 1
    pad: 1
    pad: 1
    kernel_size: 3
    kernel_size: 3
    kernel_size: 3
    stride: 1
    stride: 2
    stride: 2
    weight_filler {
      type: "gaussian"
      std: 0.01
    }
    bias_filler {
      type: "constant"
      value: 0
    }
  }
}
layer {
  name: "rpn_relu/3x3_2"
  type: "ReLU"
  bottom: "rpn/output_2"
  top: "rpn/output_2"
}
layer {
  name: "rpn/output_pool"
  type: "Pooling"
  bottom: "rpn/output_2"
  top: "rpn/output_pool"
  pooling_param {
    pool: MAX
    kernel_size: 1
    kernel_size: 2
    kernel_size: 2
  }
}
layer {
  name: "rpn_cls_score"
  type: "Convolution"
  bottom: "rpn/output_pool"
  top: "rpn_cls_score"
  param {
    lr_mult: 1
    decay_mult: 1
  }
  param {
    lr_mult: 2
    decay_mult: 0
  }
  convolution_param {
    num_output: 74
    kernel_size: 1
    kernel_size: 1
    kernel_size: 1
    weight_filler {
      type: "gaussian"
      std: 0.01
    }
    bias_filler {
      type: "constant"
      value: 0
    }
  }
}
layer {
  name: "rpn_twin_pred"
  type: "Convolution"
  bottom: "rpn/output_pool"
  top: "rpn_twin_pred"
  param {
    lr_mult: 1
    decay_mult: 1
  }
  param {
    lr_mult: 2
    decay_mult: 0
  }
  convolution_param {
    num_output: 74
    kernel_size: 1
    kernel_size: 1
    kernel_size: 1
    weight_filler {
      type: "gaussian"
      std: 0.01
    }
    bias_filler {
      type: "constant"
      value: 0
    }
  }
}
layer {
  name: "rpn_cls_score_reshape"
  type: "Reshape"
  bottom: "rpn_cls_score"
  top: "rpn_cls_score_reshape"
  reshape_param {
    shape {
      dim: 0
      dim: 2
      dim: -1
      dim: 0
      dim: 0
    }
  }
}
layer {
  name: "rpn-data"
  type: "Python"
  bottom: "rpn_cls_score"
  bottom: "gt_boxes"
  bottom: "data"
  top: "rpn_labels"
  top: "rpn_twin_targets"
  top: "rpn_twin_inside_weights"
  top: "rpn_twin_outside_weights"
  python_param {
    module: "rpn.anchor_target_layer"
    layer: "AnchorTargetLayer"
    param_str: "\'feat_stride\': 8 \n\'scales\': !!python/tuple [1,1.25, 1.5,1.75, 2,2.5, 3,3.5, 4,4.5, 5,5.5, 6,7, 8,9,10,11,12,14,16,18,20,22,24,28,32,36,40,44,52,60,68,76,84,92,100]"
  }
}
layer {
  name: "rpn_loss_cls"
  type: "SoftmaxWithLoss"
  bottom: "rpn_cls_score_reshape"
  bottom: "rpn_labels"
  top: "rpn_cls_loss"
  loss_weight: 1
  propagate_down: true
  propagate_down: false
  loss_param {
    ignore_label: -1
    normalize: true
  }
}
layer {
  name: "rpn_loss_twin"
  type: "SmoothL1Loss"
  bottom: "rpn_twin_pred"
  bottom: "rpn_twin_targets"
  bottom: "rpn_twin_inside_weights"
  bottom: "rpn_twin_outside_weights"
  top: "rpn_loss_twin"
  loss_weight: 1
  smooth_l1_loss_param {
    sigma: 3
  }
}
layer {
  name: "rpn_accuarcy"
  type: "Accuracy"
  bottom: "rpn_cls_score_reshape"
  bottom: "rpn_labels"
  top: "rpn_accuarcy"
  top: "rpn_accuarcy_class"
  propagate_down: false
  propagate_down: false
  accuracy_param {
    ignore_label: -1
  }
}
layer {
  name: "rpn_cls_prob"
  type: "Softmax"
  bottom: "rpn_cls_score_reshape"
  top: "rpn_cls_prob"
}
layer {
  name: "rpn_cls_prob_reshape"
  type: "Reshape"
  bottom: "rpn_cls_prob"
  top: "rpn_cls_prob_reshape"
  reshape_param {
    shape {
      dim: 0
      dim: 74
      dim: -1
      dim: 0
      dim: 0
    }
  }
}
layer {
  name: "proposal"
  type: "Python"
  bottom: "rpn_cls_prob_reshape"
  bottom: "rpn_twin_pred"
  top: "rpn_rois"
  include {
    phase: TRAIN
  }
  python_param {
    module: "rpn.proposal_layer"
    layer: "ProposalLayer"
    param_str: "\'feat_stride\': 8 \n\'scales\': !!python/tuple [1,1.25, 1.5,1.75, 2,2.5, 3,3.5, 4,4.5, 5,5.5, 6,7, 8,9,10,11,12,14,16,18,20,22,24,28,32,36,40,44,52,60,68,76,84,92,100]"
  }
}
layer {
  name: "roi-data"
  type: "Python"
  bottom: "rpn_rois"
  bottom: "gt_boxes"
  top: "rois"
  top: "labels"
  top: "twin_targets"
  top: "twin_inside_weights"
  top: "twin_outside_weights"
  python_param {
    module: "rpn.proposal_target_layer"
    layer: "ProposalTargetLayer"
    param_str: "\'num_classes\': 201"
  }
}
layer {
  name: "roi_pool5"
  type: "ROIPooling"
  bottom: "conv5b"
  bottom: "rois"
  top: "pool5"
  roi_pooling_param {
    pooled_h: 4
    pooled_w: 4
    spatial_scale: 0.0625
    pooled_l: 1
    temporal_scale: 0.125
  }
}
layer {
  name: "fc6"
  type: "InnerProduct"
  bottom: "pool5"
  top: "fc6"
  param {
    lr_mult: 1
    decay_mult: 1
  }
  param {
    lr_mult: 2
    decay_mult: 0
  }
  inner_product_param {
    num_output: 4096
    weight_filler {
      type: "gaussian"
      std: 0.005
    }
    bias_filler {
      type: "constant"
      value: 1
    }
  }
}
layer {
  name: "relu6"
  type: "ReLU"
  bottom: "fc6"
  top: "fc6"
}
layer {
  name: "drop6"
  type: "Dropout"
  bottom: "fc6"
  top: "fc6"
  dropout_param {
    dropout_ratio: 0.5
  }
}
layer {
  name: "cls_score"
  type: "InnerProduct"
  bottom: "fc6"
  top: "cls_score"
  param {
    lr_mult: 1
    decay_mult: 1
  }
  param {
    lr_mult: 2
    decay_mult: 0
  }
  inner_product_param {
    num_output: 201
    weight_filler {
      type: "gaussian"
      std: 0.01
    }
    bias_filler {
      type: "constant"
      value: 0
    }
  }
}
layer {
  name: "twin_pred"
  type: "InnerProduct"
  bottom: "fc6"
  top: "twin_pred"
  param {
    lr_mult: 1
    decay_mult: 1
  }
  param {
    lr_mult: 2
    decay_mult: 0
  }
  inner_product_param {
    num_output: 402
    weight_filler {
      type: "gaussian"
      std: 0.001
    }
    bias_filler {
      type: "constant"
      value: 0
    }
  }
}
layer {
  name: "loss_cls"
  type: "SoftmaxWithLoss"
  bottom: "cls_score"
  bottom: "labels"
  top: "loss_cls"
  loss_weight: 1
  propagate_down: true
  propagate_down: false
}
layer {
  name: "loss_twin"
  type: "SmoothL1Loss"
  bottom: "twin_pred"
  bottom: "twin_targets"
  bottom: "twin_inside_weights"
  bottom: "twin_outside_weights"
  top: "loss_twin"
  loss_weight: 1
}
layer {
  name: "accuarcy"
  type: "Accuracy"
  bottom: "cls_score"
  bottom: "labels"
  top: "accuarcy"
  propagate_down: false
  propagate_down: false
  accuracy_param {
    ignore_label: -1
  }
}
I0417 23:42:42.422188  5200 layer_factory.hpp:77] Creating layer data
I0417 23:42:42.448622  5200 net.cpp:100] Creating Layer data
I0417 23:42:42.448649  5200 net.cpp:408] data -> data
I0417 23:42:42.448663  5200 net.cpp:408] data -> gt_boxes
setting up
has rpn
RoiDataLayer: name_to_top: {'gt_windows': 1, 'data': 0}
I0417 23:42:42.480417  5200 net.cpp:150] Setting up data
I0417 23:42:42.480448  5200 net.cpp:157] Top shape: 1 3 768 112 112 (28901376)
I0417 23:42:42.480454  5200 net.cpp:157] Top shape: 1 101 (101)
I0417 23:42:42.480458  5200 net.cpp:165] Memory required for data: 115605908
I0417 23:42:42.480466  5200 layer_factory.hpp:77] Creating layer data_data_0_split
I0417 23:42:42.480479  5200 net.cpp:100] Creating Layer data_data_0_split
I0417 23:42:42.480489  5200 net.cpp:434] data_data_0_split <- data
I0417 23:42:42.480504  5200 net.cpp:408] data_data_0_split -> data_data_0_split_0
I0417 23:42:42.480518  5200 net.cpp:408] data_data_0_split -> data_data_0_split_1
I0417 23:42:42.480562  5200 net.cpp:150] Setting up data_data_0_split
I0417 23:42:42.480571  5200 net.cpp:157] Top shape: 1 3 768 112 112 (28901376)
I0417 23:42:42.480576  5200 net.cpp:157] Top shape: 1 3 768 112 112 (28901376)
I0417 23:42:42.480578  5200 net.cpp:165] Memory required for data: 346816916
I0417 23:42:42.480582  5200 layer_factory.hpp:77] Creating layer gt_boxes_data_1_split
I0417 23:42:42.480588  5200 net.cpp:100] Creating Layer gt_boxes_data_1_split
I0417 23:42:42.480592  5200 net.cpp:434] gt_boxes_data_1_split <- gt_boxes
I0417 23:42:42.480598  5200 net.cpp:408] gt_boxes_data_1_split -> gt_boxes_data_1_split_0
I0417 23:42:42.480603  5200 net.cpp:408] gt_boxes_data_1_split -> gt_boxes_data_1_split_1
I0417 23:42:42.480628  5200 net.cpp:150] Setting up gt_boxes_data_1_split
I0417 23:42:42.480635  5200 net.cpp:157] Top shape: 1 101 (101)
I0417 23:42:42.480640  5200 net.cpp:157] Top shape: 1 101 (101)
I0417 23:42:42.480643  5200 net.cpp:165] Memory required for data: 346817724
I0417 23:42:42.480646  5200 layer_factory.hpp:77] Creating layer conv1a
I0417 23:42:42.480664  5200 net.cpp:100] Creating Layer conv1a
I0417 23:42:42.480666  5200 net.cpp:434] conv1a <- data_data_0_split_0
I0417 23:42:42.480672  5200 net.cpp:408] conv1a -> conv1a
I0417 23:42:42.767879  5200 net.cpp:150] Setting up conv1a
I0417 23:42:42.767910  5200 net.cpp:157] Top shape: 1 64 768 112 112 (616562688)
I0417 23:42:42.767915  5200 net.cpp:165] Memory required for data: 2813068476
I0417 23:42:42.767932  5200 layer_factory.hpp:77] Creating layer relu1a
I0417 23:42:42.767948  5200 net.cpp:100] Creating Layer relu1a
I0417 23:42:42.767954  5200 net.cpp:434] relu1a <- conv1a
I0417 23:42:42.767963  5200 net.cpp:395] relu1a -> conv1a (in-place)
I0417 23:42:42.768450  5200 net.cpp:150] Setting up relu1a
I0417 23:42:42.768462  5200 net.cpp:157] Top shape: 1 64 768 112 112 (616562688)
I0417 23:42:42.768466  5200 net.cpp:165] Memory required for data: 5279319228
I0417 23:42:42.768471  5200 layer_factory.hpp:77] Creating layer pool1
I0417 23:42:42.768482  5200 net.cpp:100] Creating Layer pool1
I0417 23:42:42.768486  5200 net.cpp:434] pool1 <- conv1a
I0417 23:42:42.768492  5200 net.cpp:408] pool1 -> pool1
I0417 23:42:42.769237  5200 net.cpp:150] Setting up pool1
I0417 23:42:42.769249  5200 net.cpp:157] Top shape: 1 64 768 56 56 (154140672)
I0417 23:42:42.769253  5200 net.cpp:165] Memory required for data: 5895881916
I0417 23:42:42.769256  5200 layer_factory.hpp:77] Creating layer conv2a
I0417 23:42:42.769268  5200 net.cpp:100] Creating Layer conv2a
I0417 23:42:42.769278  5200 net.cpp:434] conv2a <- pool1
I0417 23:42:42.769284  5200 net.cpp:408] conv2a -> conv2a
I0417 23:42:42.782977  5200 net.cpp:150] Setting up conv2a
I0417 23:42:42.783007  5200 net.cpp:157] Top shape: 1 128 768 56 56 (308281344)
I0417 23:42:42.783011  5200 net.cpp:165] Memory required for data: 7129007292
I0417 23:42:42.783026  5200 layer_factory.hpp:77] Creating layer relu2a
I0417 23:42:42.783038  5200 net.cpp:100] Creating Layer relu2a
I0417 23:42:42.783043  5200 net.cpp:434] relu2a <- conv2a
I0417 23:42:42.783051  5200 net.cpp:395] relu2a -> conv2a (in-place)
I0417 23:42:42.783449  5200 net.cpp:150] Setting up relu2a
I0417 23:42:42.783464  5200 net.cpp:157] Top shape: 1 128 768 56 56 (308281344)
I0417 23:42:42.783468  5200 net.cpp:165] Memory required for data: 8362132668
I0417 23:42:42.783473  5200 layer_factory.hpp:77] Creating layer pool2
I0417 23:42:42.783486  5200 net.cpp:100] Creating Layer pool2
I0417 23:42:42.783490  5200 net.cpp:434] pool2 <- conv2a
I0417 23:42:42.783496  5200 net.cpp:408] pool2 -> pool2
I0417 23:42:42.783931  5200 net.cpp:150] Setting up pool2
I0417 23:42:42.783943  5200 net.cpp:157] Top shape: 1 128 384 28 28 (38535168)
I0417 23:42:42.783947  5200 net.cpp:165] Memory required for data: 8516273340
I0417 23:42:42.783951  5200 layer_factory.hpp:77] Creating layer conv3a
I0417 23:42:42.783967  5200 net.cpp:100] Creating Layer conv3a
I0417 23:42:42.783972  5200 net.cpp:434] conv3a <- pool2
I0417 23:42:42.783977  5200 net.cpp:408] conv3a -> conv3a
I0417 23:42:42.814740  5200 net.cpp:150] Setting up conv3a
I0417 23:42:42.814817  5200 net.cpp:157] Top shape: 1 256 384 28 28 (77070336)
I0417 23:42:42.814828  5200 net.cpp:165] Memory required for data: 8824554684
I0417 23:42:42.814855  5200 layer_factory.hpp:77] Creating layer relu3a
I0417 23:42:42.814878  5200 net.cpp:100] Creating Layer relu3a
I0417 23:42:42.814890  5200 net.cpp:434] relu3a <- conv3a
I0417 23:42:42.814908  5200 net.cpp:395] relu3a -> conv3a (in-place)
I0417 23:42:42.817227  5200 net.cpp:150] Setting up relu3a
I0417 23:42:42.817265  5200 net.cpp:157] Top shape: 1 256 384 28 28 (77070336)
I0417 23:42:42.817276  5200 net.cpp:165] Memory required for data: 9132836028
I0417 23:42:42.817286  5200 layer_factory.hpp:77] Creating layer conv3b
I0417 23:42:42.817318  5200 net.cpp:100] Creating Layer conv3b
I0417 23:42:42.817345  5200 net.cpp:434] conv3b <- conv3a
I0417 23:42:42.817363  5200 net.cpp:408] conv3b -> conv3b
I0417 23:42:42.875504  5200 net.cpp:150] Setting up conv3b
I0417 23:42:42.875531  5200 net.cpp:157] Top shape: 1 256 384 28 28 (77070336)
I0417 23:42:42.875535  5200 net.cpp:165] Memory required for data: 9441117372
I0417 23:42:42.875545  5200 layer_factory.hpp:77] Creating layer relu3b
I0417 23:42:42.875556  5200 net.cpp:100] Creating Layer relu3b
I0417 23:42:42.875561  5200 net.cpp:434] relu3b <- conv3b
I0417 23:42:42.875569  5200 net.cpp:395] relu3b -> conv3b (in-place)
I0417 23:42:42.875928  5200 net.cpp:150] Setting up relu3b
I0417 23:42:42.875943  5200 net.cpp:157] Top shape: 1 256 384 28 28 (77070336)
I0417 23:42:42.875946  5200 net.cpp:165] Memory required for data: 9749398716
I0417 23:42:42.875950  5200 layer_factory.hpp:77] Creating layer pool3
I0417 23:42:42.875959  5200 net.cpp:100] Creating Layer pool3
I0417 23:42:42.875963  5200 net.cpp:434] pool3 <- conv3b
I0417 23:42:42.875969  5200 net.cpp:408] pool3 -> pool3
I0417 23:42:42.876157  5200 net.cpp:150] Setting up pool3
I0417 23:42:42.876170  5200 net.cpp:157] Top shape: 1 256 192 14 14 (9633792)
I0417 23:42:42.876174  5200 net.cpp:165] Memory required for data: 9787933884
I0417 23:42:42.876178  5200 layer_factory.hpp:77] Creating layer conv4a
I0417 23:42:42.876199  5200 net.cpp:100] Creating Layer conv4a
I0417 23:42:42.876202  5200 net.cpp:434] conv4a <- pool3
I0417 23:42:42.876209  5200 net.cpp:408] conv4a -> conv4a
I0417 23:42:42.978232  5200 net.cpp:150] Setting up conv4a
I0417 23:42:42.978260  5200 net.cpp:157] Top shape: 1 512 192 14 14 (19267584)
I0417 23:42:42.978266  5200 net.cpp:165] Memory required for data: 9865004220
I0417 23:42:42.978282  5200 layer_factory.hpp:77] Creating layer relu4a
I0417 23:42:42.978293  5200 net.cpp:100] Creating Layer relu4a
I0417 23:42:42.978302  5200 net.cpp:434] relu4a <- conv4a
I0417 23:42:42.978310  5200 net.cpp:395] relu4a -> conv4a (in-place)
I0417 23:42:42.979058  5200 net.cpp:150] Setting up relu4a
I0417 23:42:42.979089  5200 net.cpp:157] Top shape: 1 512 192 14 14 (19267584)
I0417 23:42:42.979101  5200 net.cpp:165] Memory required for data: 9942074556
I0417 23:42:42.979111  5200 layer_factory.hpp:77] Creating layer conv4b
I0417 23:42:42.979143  5200 net.cpp:100] Creating Layer conv4b
I0417 23:42:42.979164  5200 net.cpp:434] conv4b <- conv4a
I0417 23:42:42.979171  5200 net.cpp:408] conv4b -> conv4b
I0417 23:42:43.173573  5200 net.cpp:150] Setting up conv4b
I0417 23:42:43.173600  5200 net.cpp:157] Top shape: 1 512 192 14 14 (19267584)
I0417 23:42:43.173604  5200 net.cpp:165] Memory required for data: 10019144892
I0417 23:42:43.173614  5200 layer_factory.hpp:77] Creating layer relu4b
I0417 23:42:43.173626  5200 net.cpp:100] Creating Layer relu4b
I0417 23:42:43.173630  5200 net.cpp:434] relu4b <- conv4b
I0417 23:42:43.173645  5200 net.cpp:395] relu4b -> conv4b (in-place)
I0417 23:42:43.175076  5200 net.cpp:150] Setting up relu4b
I0417 23:42:43.175091  5200 net.cpp:157] Top shape: 1 512 192 14 14 (19267584)
I0417 23:42:43.175094  5200 net.cpp:165] Memory required for data: 10096215228
I0417 23:42:43.175098  5200 layer_factory.hpp:77] Creating layer pool4
I0417 23:42:43.175113  5200 net.cpp:100] Creating Layer pool4
I0417 23:42:43.175118  5200 net.cpp:434] pool4 <- conv4b
I0417 23:42:43.175125  5200 net.cpp:408] pool4 -> pool4
I0417 23:42:43.176357  5200 net.cpp:150] Setting up pool4
I0417 23:42:43.176393  5200 net.cpp:157] Top shape: 1 512 96 7 7 (2408448)
I0417 23:42:43.176403  5200 net.cpp:165] Memory required for data: 10105849020
I0417 23:42:43.176414  5200 layer_factory.hpp:77] Creating layer conv5a
I0417 23:42:43.176440  5200 net.cpp:100] Creating Layer conv5a
I0417 23:42:43.176455  5200 net.cpp:434] conv5a <- pool4
I0417 23:42:43.176472  5200 net.cpp:408] conv5a -> conv5a
I0417 23:42:43.379248  5200 net.cpp:150] Setting up conv5a
I0417 23:42:43.379276  5200 net.cpp:157] Top shape: 1 512 96 7 7 (2408448)
I0417 23:42:43.379281  5200 net.cpp:165] Memory required for data: 10115482812
I0417 23:42:43.379290  5200 layer_factory.hpp:77] Creating layer relu5a
I0417 23:42:43.379302  5200 net.cpp:100] Creating Layer relu5a
I0417 23:42:43.379310  5200 net.cpp:434] relu5a <- conv5a
I0417 23:42:43.379318  5200 net.cpp:395] relu5a -> conv5a (in-place)
I0417 23:42:43.381974  5200 net.cpp:150] Setting up relu5a
I0417 23:42:43.381995  5200 net.cpp:157] Top shape: 1 512 96 7 7 (2408448)
I0417 23:42:43.381999  5200 net.cpp:165] Memory required for data: 10125116604
I0417 23:42:43.382004  5200 layer_factory.hpp:77] Creating layer conv5b
I0417 23:42:43.382017  5200 net.cpp:100] Creating Layer conv5b
I0417 23:42:43.382024  5200 net.cpp:434] conv5b <- conv5a
I0417 23:42:43.382031  5200 net.cpp:408] conv5b -> conv5b
I0417 23:42:43.576093  5200 net.cpp:150] Setting up conv5b
I0417 23:42:43.576122  5200 net.cpp:157] Top shape: 1 512 96 7 7 (2408448)
I0417 23:42:43.576125  5200 net.cpp:165] Memory required for data: 10134750396
I0417 23:42:43.576135  5200 layer_factory.hpp:77] Creating layer relu5b
I0417 23:42:43.576148  5200 net.cpp:100] Creating Layer relu5b
I0417 23:42:43.576154  5200 net.cpp:434] relu5b <- conv5b
I0417 23:42:43.576161  5200 net.cpp:395] relu5b -> conv5b (in-place)
I0417 23:42:43.576318  5200 net.cpp:150] Setting up relu5b
I0417 23:42:43.576328  5200 net.cpp:157] Top shape: 1 512 96 7 7 (2408448)
I0417 23:42:43.576333  5200 net.cpp:165] Memory required for data: 10144384188
I0417 23:42:43.576336  5200 layer_factory.hpp:77] Creating layer conv5b_relu5b_0_split
I0417 23:42:43.576342  5200 net.cpp:100] Creating Layer conv5b_relu5b_0_split
I0417 23:42:43.576345  5200 net.cpp:434] conv5b_relu5b_0_split <- conv5b
I0417 23:42:43.576383  5200 net.cpp:408] conv5b_relu5b_0_split -> conv5b_relu5b_0_split_0
I0417 23:42:43.576395  5200 net.cpp:408] conv5b_relu5b_0_split -> conv5b_relu5b_0_split_1
I0417 23:42:43.576459  5200 net.cpp:150] Setting up conv5b_relu5b_0_split
I0417 23:42:43.576472  5200 net.cpp:157] Top shape: 1 512 96 7 7 (2408448)
I0417 23:42:43.576476  5200 net.cpp:157] Top shape: 1 512 96 7 7 (2408448)
I0417 23:42:43.576479  5200 net.cpp:165] Memory required for data: 10163651772
I0417 23:42:43.576483  5200 layer_factory.hpp:77] Creating layer rpn_conv/3x3
I0417 23:42:43.576499  5200 net.cpp:100] Creating Layer rpn_conv/3x3
I0417 23:42:43.576505  5200 net.cpp:434] rpn_conv/3x3 <- conv5b_relu5b_0_split_0
I0417 23:42:43.576511  5200 net.cpp:408] rpn_conv/3x3 -> rpn/output
I0417 23:42:43.772604  5200 net.cpp:150] Setting up rpn_conv/3x3
I0417 23:42:43.772645  5200 net.cpp:157] Top shape: 1 512 96 4 4 (786432)
I0417 23:42:43.772655  5200 net.cpp:165] Memory required for data: 10166797500
I0417 23:42:43.772682  5200 layer_factory.hpp:77] Creating layer rpn_relu/3x3
I0417 23:42:43.772703  5200 net.cpp:100] Creating Layer rpn_relu/3x3
I0417 23:42:43.772713  5200 net.cpp:434] rpn_relu/3x3 <- rpn/output
I0417 23:42:43.772733  5200 net.cpp:395] rpn_relu/3x3 -> rpn/output (in-place)
I0417 23:42:43.773841  5200 net.cpp:150] Setting up rpn_relu/3x3
I0417 23:42:43.773856  5200 net.cpp:157] Top shape: 1 512 96 4 4 (786432)
I0417 23:42:43.773861  5200 net.cpp:165] Memory required for data: 10169943228
I0417 23:42:43.773865  5200 layer_factory.hpp:77] Creating layer rpn_conv/3x3_2
I0417 23:42:43.773877  5200 net.cpp:100] Creating Layer rpn_conv/3x3_2
I0417 23:42:43.773883  5200 net.cpp:434] rpn_conv/3x3_2 <- rpn/output
I0417 23:42:43.773890  5200 net.cpp:408] rpn_conv/3x3_2 -> rpn/output_2
I0417 23:42:43.964722  5200 net.cpp:150] Setting up rpn_conv/3x3_2
I0417 23:42:43.964746  5200 net.cpp:157] Top shape: 1 512 96 2 2 (196608)
I0417 23:42:43.964751  5200 net.cpp:165] Memory required for data: 10170729660
I0417 23:42:43.964761  5200 layer_factory.hpp:77] Creating layer rpn_relu/3x3_2
I0417 23:42:43.964769  5200 net.cpp:100] Creating Layer rpn_relu/3x3_2
I0417 23:42:43.964774  5200 net.cpp:434] rpn_relu/3x3_2 <- rpn/output_2
I0417 23:42:43.964781  5200 net.cpp:395] rpn_relu/3x3_2 -> rpn/output_2 (in-place)
I0417 23:42:43.965706  5200 net.cpp:150] Setting up rpn_relu/3x3_2
I0417 23:42:43.965719  5200 net.cpp:157] Top shape: 1 512 96 2 2 (196608)
I0417 23:42:43.965723  5200 net.cpp:165] Memory required for data: 10171516092
I0417 23:42:43.965726  5200 layer_factory.hpp:77] Creating layer rpn/output_pool
I0417 23:42:43.965735  5200 net.cpp:100] Creating Layer rpn/output_pool
I0417 23:42:43.965739  5200 net.cpp:434] rpn/output_pool <- rpn/output_2
I0417 23:42:43.965744  5200 net.cpp:408] rpn/output_pool -> rpn/output_pool
I0417 23:42:43.965919  5200 net.cpp:150] Setting up rpn/output_pool
I0417 23:42:43.965929  5200 net.cpp:157] Top shape: 1 512 96 1 1 (49152)
I0417 23:42:43.965932  5200 net.cpp:165] Memory required for data: 10171712700
I0417 23:42:43.965935  5200 layer_factory.hpp:77] Creating layer rpn/output_pool_rpn/output_pool_0_split
I0417 23:42:43.965941  5200 net.cpp:100] Creating Layer rpn/output_pool_rpn/output_pool_0_split
I0417 23:42:43.965945  5200 net.cpp:434] rpn/output_pool_rpn/output_pool_0_split <- rpn/output_pool
I0417 23:42:43.965950  5200 net.cpp:408] rpn/output_pool_rpn/output_pool_0_split -> rpn/output_pool_rpn/output_pool_0_split_0
I0417 23:42:43.965955  5200 net.cpp:408] rpn/output_pool_rpn/output_pool_0_split -> rpn/output_pool_rpn/output_pool_0_split_1
I0417 23:42:43.965986  5200 net.cpp:150] Setting up rpn/output_pool_rpn/output_pool_0_split
I0417 23:42:43.965993  5200 net.cpp:157] Top shape: 1 512 96 1 1 (49152)
I0417 23:42:43.965997  5200 net.cpp:157] Top shape: 1 512 96 1 1 (49152)
I0417 23:42:43.966001  5200 net.cpp:165] Memory required for data: 10172105916
I0417 23:42:43.966003  5200 layer_factory.hpp:77] Creating layer rpn_cls_score
I0417 23:42:43.966013  5200 net.cpp:100] Creating Layer rpn_cls_score
I0417 23:42:43.966019  5200 net.cpp:434] rpn_cls_score <- rpn/output_pool_rpn/output_pool_0_split_0
I0417 23:42:43.966025  5200 net.cpp:408] rpn_cls_score -> rpn_cls_score
I0417 23:42:43.969684  5200 net.cpp:150] Setting up rpn_cls_score
I0417 23:42:43.969698  5200 net.cpp:157] Top shape: 1 74 96 1 1 (7104)
I0417 23:42:43.969702  5200 net.cpp:165] Memory required for data: 10172134332
I0417 23:42:43.969709  5200 layer_factory.hpp:77] Creating layer rpn_cls_score_rpn_cls_score_0_split
I0417 23:42:43.969714  5200 net.cpp:100] Creating Layer rpn_cls_score_rpn_cls_score_0_split
I0417 23:42:43.969718  5200 net.cpp:434] rpn_cls_score_rpn_cls_score_0_split <- rpn_cls_score
I0417 23:42:43.969724  5200 net.cpp:408] rpn_cls_score_rpn_cls_score_0_split -> rpn_cls_score_rpn_cls_score_0_split_0
I0417 23:42:43.969729  5200 net.cpp:408] rpn_cls_score_rpn_cls_score_0_split -> rpn_cls_score_rpn_cls_score_0_split_1
I0417 23:42:43.969770  5200 net.cpp:150] Setting up rpn_cls_score_rpn_cls_score_0_split
I0417 23:42:43.969779  5200 net.cpp:157] Top shape: 1 74 96 1 1 (7104)
I0417 23:42:43.969782  5200 net.cpp:157] Top shape: 1 74 96 1 1 (7104)
I0417 23:42:43.969785  5200 net.cpp:165] Memory required for data: 10172191164
I0417 23:42:43.969789  5200 layer_factory.hpp:77] Creating layer rpn_twin_pred
I0417 23:42:43.969801  5200 net.cpp:100] Creating Layer rpn_twin_pred
I0417 23:42:43.969807  5200 net.cpp:434] rpn_twin_pred <- rpn/output_pool_rpn/output_pool_0_split_1
I0417 23:42:43.969815  5200 net.cpp:408] rpn_twin_pred -> rpn_twin_pred
I0417 23:42:43.978036  5200 net.cpp:150] Setting up rpn_twin_pred
I0417 23:42:43.978049  5200 net.cpp:157] Top shape: 1 74 96 1 1 (7104)
I0417 23:42:43.978055  5200 net.cpp:165] Memory required for data: 10172219580
I0417 23:42:43.978060  5200 layer_factory.hpp:77] Creating layer rpn_twin_pred_rpn_twin_pred_0_split
I0417 23:42:43.978066  5200 net.cpp:100] Creating Layer rpn_twin_pred_rpn_twin_pred_0_split
I0417 23:42:43.978070  5200 net.cpp:434] rpn_twin_pred_rpn_twin_pred_0_split <- rpn_twin_pred
I0417 23:42:43.978075  5200 net.cpp:408] rpn_twin_pred_rpn_twin_pred_0_split -> rpn_twin_pred_rpn_twin_pred_0_split_0
I0417 23:42:43.978081  5200 net.cpp:408] rpn_twin_pred_rpn_twin_pred_0_split -> rpn_twin_pred_rpn_twin_pred_0_split_1
I0417 23:42:43.978116  5200 net.cpp:150] Setting up rpn_twin_pred_rpn_twin_pred_0_split
I0417 23:42:43.978124  5200 net.cpp:157] Top shape: 1 74 96 1 1 (7104)
I0417 23:42:43.978128  5200 net.cpp:157] Top shape: 1 74 96 1 1 (7104)
I0417 23:42:43.978132  5200 net.cpp:165] Memory required for data: 10172276412
I0417 23:42:43.978135  5200 layer_factory.hpp:77] Creating layer rpn_cls_score_reshape
I0417 23:42:43.978152  5200 net.cpp:100] Creating Layer rpn_cls_score_reshape
I0417 23:42:43.978157  5200 net.cpp:434] rpn_cls_score_reshape <- rpn_cls_score_rpn_cls_score_0_split_0
I0417 23:42:43.978164  5200 net.cpp:408] rpn_cls_score_reshape -> rpn_cls_score_reshape
I0417 23:42:43.978191  5200 net.cpp:150] Setting up rpn_cls_score_reshape
I0417 23:42:43.978199  5200 net.cpp:157] Top shape: 1 2 3552 1 1 (7104)
I0417 23:42:43.978201  5200 net.cpp:165] Memory required for data: 10172304828
I0417 23:42:43.978205  5200 layer_factory.hpp:77] Creating layer rpn_cls_score_reshape_rpn_cls_score_reshape_0_split
I0417 23:42:43.978210  5200 net.cpp:100] Creating Layer rpn_cls_score_reshape_rpn_cls_score_reshape_0_split
I0417 23:42:43.978214  5200 net.cpp:434] rpn_cls_score_reshape_rpn_cls_score_reshape_0_split <- rpn_cls_score_reshape
I0417 23:42:43.978220  5200 net.cpp:408] rpn_cls_score_reshape_rpn_cls_score_reshape_0_split -> rpn_cls_score_reshape_rpn_cls_score_reshape_0_split_0
I0417 23:42:43.978229  5200 net.cpp:408] rpn_cls_score_reshape_rpn_cls_score_reshape_0_split -> rpn_cls_score_reshape_rpn_cls_score_reshape_0_split_1
I0417 23:42:43.978237  5200 net.cpp:408] rpn_cls_score_reshape_rpn_cls_score_reshape_0_split -> rpn_cls_score_reshape_rpn_cls_score_reshape_0_split_2
I0417 23:42:43.978276  5200 net.cpp:150] Setting up rpn_cls_score_reshape_rpn_cls_score_reshape_0_split
I0417 23:42:43.978283  5200 net.cpp:157] Top shape: 1 2 3552 1 1 (7104)
I0417 23:42:43.978287  5200 net.cpp:157] Top shape: 1 2 3552 1 1 (7104)
I0417 23:42:43.978291  5200 net.cpp:157] Top shape: 1 2 3552 1 1 (7104)
I0417 23:42:43.978294  5200 net.cpp:165] Memory required for data: 10172390076
I0417 23:42:43.978298  5200 layer_factory.hpp:77] Creating layer rpn-data
I0417 23:42:43.980301  5200 net.cpp:100] Creating Layer rpn-data
I0417 23:42:43.980315  5200 net.cpp:434] rpn-data <- rpn_cls_score_rpn_cls_score_0_split_1
I0417 23:42:43.980321  5200 net.cpp:434] rpn-data <- gt_boxes_data_1_split_0
I0417 23:42:43.980326  5200 net.cpp:434] rpn-data <- data_data_0_split_1
I0417 23:42:43.980331  5200 net.cpp:408] rpn-data -> rpn_labels
I0417 23:42:43.980338  5200 net.cpp:408] rpn-data -> rpn_twin_targets
I0417 23:42:43.980345  5200 net.cpp:408] rpn-data -> rpn_twin_inside_weights
I0417 23:42:43.980350  5200 net.cpp:408] rpn-data -> rpn_twin_outside_weights
I0417 23:42:43.982527  5200 net.cpp:150] Setting up rpn-data
I0417 23:42:43.982542  5200 net.cpp:157] Top shape: 1 1 3552 1 1 (3552)
I0417 23:42:43.982547  5200 net.cpp:157] Top shape: 1 74 96 1 1 (7104)
I0417 23:42:43.982551  5200 net.cpp:157] Top shape: 1 74 96 1 1 (7104)
I0417 23:42:43.982555  5200 net.cpp:157] Top shape: 1 74 96 1 1 (7104)
I0417 23:42:43.982559  5200 net.cpp:165] Memory required for data: 10172489532
I0417 23:42:43.982563  5200 layer_factory.hpp:77] Creating layer rpn_labels_rpn-data_0_split
I0417 23:42:43.982569  5200 net.cpp:100] Creating Layer rpn_labels_rpn-data_0_split
I0417 23:42:43.982574  5200 net.cpp:434] rpn_labels_rpn-data_0_split <- rpn_labels
I0417 23:42:43.982579  5200 net.cpp:408] rpn_labels_rpn-data_0_split -> rpn_labels_rpn-data_0_split_0
I0417 23:42:43.982586  5200 net.cpp:408] rpn_labels_rpn-data_0_split -> rpn_labels_rpn-data_0_split_1
I0417 23:42:43.982620  5200 net.cpp:150] Setting up rpn_labels_rpn-data_0_split
I0417 23:42:43.982628  5200 net.cpp:157] Top shape: 1 1 3552 1 1 (3552)
I0417 23:42:43.982632  5200 net.cpp:157] Top shape: 1 1 3552 1 1 (3552)
I0417 23:42:43.982635  5200 net.cpp:165] Memory required for data: 10172517948
I0417 23:42:43.982640  5200 layer_factory.hpp:77] Creating layer rpn_loss_cls
I0417 23:42:43.982647  5200 net.cpp:100] Creating Layer rpn_loss_cls
I0417 23:42:43.982652  5200 net.cpp:434] rpn_loss_cls <- rpn_cls_score_reshape_rpn_cls_score_reshape_0_split_0
I0417 23:42:43.982657  5200 net.cpp:434] rpn_loss_cls <- rpn_labels_rpn-data_0_split_0
…
I0417 23:42:43.983258  5200 layer_factory.hpp:77] Creating layer rpn_accuarcy
I0417 23:42:43.983265  5200 net.cpp:100] Creating Layer rpn_accuarcy
I0417 23:42:43.983271  5200 net.cpp:434] rpn_accuarcy <- rpn_cls_score_reshape_rpn_cls_score_reshape_0_split_1
I0417 23:42:43.983276  5200 net.cpp:434] rpn_accuarcy <- rpn_labels_rpn-data_0_split_1
I0417 23:42:43.983281  5200 net.cpp:408] rpn_accuarcy -> rpn_accuarcy
I0417 23:42:43.983288  5200 net.cpp:408] rpn_accuarcy -> rpn_accuarcy_class
I0417 23:42:43.983320  5200 net.cpp:150] Setting up rpn_accuarcy
I0417 23:42:43.983328  5200 net.cpp:157] Top shape: (1)
I0417 23:42:43.983332  5200 net.cpp:157] Top shape: 2 (2)
I0417 23:42:43.983335  5200 net.cpp:165] Memory required for data: 10172517968
I0417 23:42:43.983340  5200 layer_factory.hpp:77] Creating layer rpn_cls_prob
I0417 23:42:43.983345  5200 net.cpp:100] Creating Layer rpn_cls_prob
I0417 23:42:43.983347  5200 net.cpp:434] rpn_cls_prob <- rpn_cls_score_reshape_rpn_cls_score_reshape_0_split_2
I0417 23:42:43.983352  5200 net.cpp:408] rpn_cls_prob -> rpn_cls_prob
I0417 23:42:43.983741  5200 net.cpp:150] Setting up rpn_cls_prob
I0417 23:42:43.983752  5200 net.cpp:157] Top shape: 1 2 3552 1 1 (7104)
I0417 23:42:43.983755  5200 net.cpp:165] Memory required for data: 10172546384
I0417 23:42:43.983759  5200 layer_factory.hpp:77] Creating layer rpn_cls_prob_reshape
I0417 23:42:43.983765  5200 net.cpp:100] Creating Layer rpn_cls_prob_reshape
I0417 23:42:43.983770  5200 net.cpp:434] rpn_cls_prob_reshape <- rpn_cls_prob
I0417 23:42:43.983775  5200 net.cpp:408] rpn_cls_prob_reshape -> rpn_cls_prob_reshape
I0417 23:42:43.983798  5200 net.cpp:150] Setting up rpn_cls_prob_reshape
I0417 23:42:43.983806  5200 net.cpp:157] Top shape: 1 74 96 1 1 (7104)
I0417 23:42:43.983810  5200 net.cpp:165] Memory required for data: 10172574800
I0417 23:42:43.983814  5200 layer_factory.hpp:77] Creating layer proposal
I0417 23:42:43.984335  5200 net.cpp:100] Creating Layer proposal
I0417 23:42:43.984349  5200 net.cpp:434] proposal <- rpn_cls_prob_reshape
I0417 23:42:43.984354  5200 net.cpp:434] proposal <- rpn_twin_pred_rpn_twin_pred_0_split_1
I0417 23:42:43.984359  5200 net.cpp:408] proposal -> rpn_rois
I0417 23:42:43.987726  5200 net.cpp:150] Setting up proposal
I0417 23:42:43.987740  5200 net.cpp:157] Top shape: 1 3 (3)
I0417 23:42:43.987746  5200 net.cpp:165] Memory required for data: 10172574812
I0417 23:42:43.987749  5200 layer_factory.hpp:77] Creating layer roi-data
I0417 23:42:43.989131  5200 net.cpp:100] Creating Layer roi-data
I0417 23:42:43.989145  5200 net.cpp:434] roi-data <- rpn_rois
I0417 23:42:43.989151  5200 net.cpp:434] roi-data <- gt_boxes_data_1_split_1
I0417 23:42:43.989156  5200 net.cpp:408] roi-data -> rois
I0417 23:42:43.989163  5200 net.cpp:408] roi-data -> labels
I0417 23:42:43.989169  5200 net.cpp:408] roi-data -> twin_targets
I0417 23:42:43.989176  5200 net.cpp:408] roi-data -> twin_inside_weights
I0417 23:42:43.989181  5200 net.cpp:408] roi-data -> twin_outside_weights
I0417 23:42:43.989485  5200 net.cpp:150] Setting up roi-data
I0417 23:42:43.989498  5200 net.cpp:157] Top shape: 1 3 (3)
I0417 23:42:43.989503  5200 net.cpp:157] Top shape: 1 1 (1)
I0417 23:42:43.989507  5200 net.cpp:157] Top shape: 1 402 (402)
I0417 23:42:43.989511  5200 net.cpp:157] Top shape: 1 402 (402)
I0417 23:42:43.989516  5200 net.cpp:157] Top shape: 1 402 (402)
I0417 23:42:43.989518  5200 net.cpp:165] Memory required for data: 10172579652
I0417 23:42:43.989523  5200 layer_factory.hpp:77] Creating layer labels_roi-data_1_split
I0417 23:42:43.989529  5200 net.cpp:100] Creating Layer labels_roi-data_1_split
I0417 23:42:43.989533  5200 net.cpp:434] labels_roi-data_1_split <- labels
I0417 23:42:43.989538  5200 net.cpp:408] labels_roi-data_1_split -> labels_roi-data_1_split_0
I0417 23:42:43.989544  5200 net.cpp:408] labels_roi-data_1_split -> labels_roi-data_1_split_1
I0417 23:42:43.989575  5200 net.cpp:150] Setting up labels_roi-data_1_split
I0417 23:42:43.989583  5200 net.cpp:157] Top shape: 1 1 (1)
I0417 23:42:43.989588  5200 net.cpp:157] Top shape: 1 1 (1)
I0417 23:42:43.989591  5200 net.cpp:165] Memory required for data: 10172579660
I0417 23:42:43.989595  5200 layer_factory.hpp:77] Creating layer roi_pool5
I0417 23:42:43.989604  5200 net.cpp:100] Creating Layer roi_pool5
I0417 23:42:43.989609  5200 net.cpp:434] roi_pool5 <- conv5b_relu5b_0_split_1
I0417 23:42:43.989614  5200 net.cpp:434] roi_pool5 <- rois
I0417 23:42:43.989619  5200 net.cpp:408] roi_pool5 -> pool5
I0417 23:42:43.989626  5200 roi_pooling_layer.cpp:34] Temporal scale: 0.125
I0417 23:42:43.989634  5200 roi_pooling_layer.cpp:35] Spatial scale: 0.0625
I0417 23:42:43.989665  5200 net.cpp:150] Setting up roi_pool5
I0417 23:42:43.989675  5200 net.cpp:157] Top shape: 1 512 1 4 4 (8192)
I0417 23:42:43.989677  5200 net.cpp:165] Memory required for data: 10172612428
I0417 23:42:43.989681  5200 layer_factory.hpp:77] Creating layer fc6
I0417 23:42:43.989689  5200 net.cpp:100] Creating Layer fc6
I0417 23:42:43.989692  5200 net.cpp:434] fc6 <- pool5
I0417 23:42:43.989698  5200 net.cpp:408] fc6 -> fc6
I0417 23:42:44.865880  5200 net.cpp:150] Setting up fc6
I0417 23:42:44.865906  5200 net.cpp:157] Top shape: 1 4096 (4096)
I0417 23:42:44.865911  5200 net.cpp:165] Memory required for data: 10172628812
I0417 23:42:44.865921  5200 layer_factory.hpp:77] Creating layer relu6
I0417 23:42:44.865931  5200 net.cpp:100] Creating Layer relu6
I0417 23:42:44.865936  5200 net.cpp:434] relu6 <- fc6
I0417 23:42:44.865942  5200 net.cpp:395] relu6 -> fc6 (in-place)
I0417 23:42:44.866387  5200 net.cpp:150] Setting up relu6
I0417 23:42:44.866400  5200 net.cpp:157] Top shape: 1 4096 (4096)
I0417 23:42:44.866405  5200 net.cpp:165] Memory required for data: 10172645196
I0417 23:42:44.866408  5200 layer_factory.hpp:77] Creating layer drop6
I0417 23:42:44.866421  5200 net.cpp:100] Creating Layer drop6
I0417 23:42:44.866427  5200 net.cpp:434] drop6 <- fc6
I0417 23:42:44.866432  5200 net.cpp:395] drop6 -> fc6 (in-place)
I0417 23:42:44.866459  5200 net.cpp:150] Setting up drop6
I0417 23:42:44.866467  5200 net.cpp:157] Top shape: 1 4096 (4096)
I0417 23:42:44.866470  5200 net.cpp:165] Memory required for data: 10172661580
I0417 23:42:44.866474  5200 layer_factory.hpp:77] Creating layer fc6_drop6_0_split
I0417 23:42:44.866480  5200 net.cpp:100] Creating Layer fc6_drop6_0_split
I0417 23:42:44.866483  5200 net.cpp:434] fc6_drop6_0_split <- fc6
I0417 23:42:44.866488  5200 net.cpp:408] fc6_drop6_0_split -> fc6_drop6_0_split_0
I0417 23:42:44.866494  5200 net.cpp:408] fc6_drop6_0_split -> fc6_drop6_0_split_1
I0417 23:42:44.866525  5200 net.cpp:150] Setting up fc6_drop6_0_split
I0417 23:42:44.866533  5200 net.cpp:157] Top shape: 1 4096 (4096)
I0417 23:42:44.866538  5200 net.cpp:157] Top shape: 1 4096 (4096)
I0417 23:42:44.866540  5200 net.cpp:165] Memory required for data: 10172694348
I0417 23:42:44.866544  5200 layer_factory.hpp:77] Creating layer cls_score
I0417 23:42:44.866551  5200 net.cpp:100] Creating Layer cls_score
I0417 23:42:44.866555  5200 net.cpp:434] cls_score <- fc6_drop6_0_split_0
I0417 23:42:44.866560  5200 net.cpp:408] cls_score -> cls_score
I0417 23:42:44.888104  5200 net.cpp:150] Setting up cls_score
I0417 23:42:44.888119  5200 net.cpp:157] Top shape: 1 201 (201)
I0417 23:42:44.888123  5200 net.cpp:165] Memory required for data: 10172695152
I0417 23:42:44.888129  5200 layer_factory.hpp:77] Creating layer cls_score_cls_score_0_split
I0417 23:42:44.888136  5200 net.cpp:100] Creating Layer cls_score_cls_score_0_split
I0417 23:42:44.888140  5200 net.cpp:434] cls_score_cls_score_0_split <- cls_score
I0417 23:42:44.888145  5200 net.cpp:408] cls_score_cls_score_0_split -> cls_score_cls_score_0_split_0
I0417 23:42:44.888151  5200 net.cpp:408] cls_score_cls_score_0_split -> cls_score_cls_score_0_split_1
I0417 23:42:44.888183  5200 net.cpp:150] Setting up cls_score_cls_score_0_split
I0417 23:42:44.888192  5200 net.cpp:157] Top shape: 1 201 (201)
I0417 23:42:44.888196  5200 net.cpp:157] Top shape: 1 201 (201)
I0417 23:42:44.888200  5200 net.cpp:165] Memory required for data: 10172696760
I0417 23:42:44.888203  5200 layer_factory.hpp:77] Creating layer twin_pred
I0417 23:42:44.888209  5200 net.cpp:100] Creating Layer twin_pred
I0417 23:42:44.888214  5200 net.cpp:434] twin_pred <- fc6_drop6_0_split_1
I0417 23:42:44.888221  5200 net.cpp:408] twin_pred -> twin_pred
I0417 23:42:44.931298  5200 net.cpp:150] Setting up twin_pred
I0417 23:42:44.931320  5200 net.cpp:157] Top shape: 1 402 (402)
I0417 23:42:44.931324  5200 net.cpp:165] Memory required for data: 10172698368
I0417 23:42:44.931334  5200 layer_factory.hpp:77] Creating layer loss_cls
I0417 23:42:44.931344  5200 net.cpp:100] Creating Layer loss_cls
I0417 23:42:44.931350  5200 net.cpp:434] loss_cls <- cls_score_cls_score_0_split_0
I0417 23:42:44.931357  5200 net.cpp:434] loss_cls <- labels_roi-data_1_split_0
I0417 23:42:44.931362  5200 net.cpp:408] loss_cls -> loss_cls
…
