…
stepsize: 350000
snapshot: 0
snapshot_prefix: "./experiments/activitynet/snapshot/activitynet"
average_loss: 100
iter_size: 1
I0421 18:41:01.900997 19966 solver.cpp:81] Creating training net from train_net file: ./experiments/activitynet/train.prototxt
I0421 18:41:01.902060 19966 net.cpp:58] Initializing net from parameters: 
name: "activitynet"
state {
  phase: TRAIN
}
layer {
  name: "data"
  type: "Python"
  top: "data"
  top: "gt_boxes"
  python_param {
    module: "roi_data_layer.layer"
    layer: "RoIDataLayer"
    param_str: "\'num_classes\': 200"
  }
}
layer {
  name: "conv1a"
  type: "Convolution"
  bottom: "data"
  top: "conv1a"
  param {
    lr_mult: 0
    decay_mult: 0
  }
  param {
    lr_mult: 0
    decay_mult: 0
  }
  convolution_param {
    num_output: 64
    pad: 1
    pad: 1
    pad: 1
    kernel_size: 3
    kernel_size: 3
    kernel_size: 3
    weight_filler {
      type: "gaussian"
      std: 0.01
    }
    bias_filler {
      type: "constant"
      value: 0
    }
  }
}
layer {
  name: "relu1a"
  type: "ReLU"
  bottom: "conv1a"
  top: "conv1a"
}
layer {
  name: "pool1"
  type: "Pooling"
  bottom: "conv1a"
  top: "pool1"
  pooling_param {
    pool: MAX
    kernel_size: 1
    kernel_size: 2
    kernel_size: 2
    stride: 1
    stride: 2
    stride: 2
  }
}
layer {
  name: "conv2a"
  type: "Convolution"
  bottom: "pool1"
  top: "conv2a"
  param {
    lr_mult: 0
    decay_mult: 0
  }
  param {
    lr_mult: 0
    decay_mult: 0
  }
  convolution_param {
    num_output: 128
    pad: 1
    pad: 1
    pad: 1
    kernel_size: 3
    kernel_size: 3
    kernel_size: 3
    weight_filler {
      type: "gaussian"
      std: 0.01
    }
    bias_filler {
      type: "constant"
      value: 1
    }
  }
}
layer {
  name: "relu2a"
  type: "ReLU"
  bottom: "conv2a"
  top: "conv2a"
}
layer {
  name: "pool2"
  type: "Pooling"
  bottom: "conv2a"
  top: "pool2"
  pooling_param {
    pool: MAX
    kernel_size: 2
    kernel_size: 2
    kernel_size: 2
    stride: 2
    stride: 2
    stride: 2
  }
}
layer {
  name: "conv3a"
  type: "Convolution"
  bottom: "pool2"
  top: "conv3a"
  param {
    lr_mult: 1
    decay_mult: 1
  }
  param {
    lr_mult: 2
    decay_mult: 0
  }
  convolution_param {
    num_output: 256
    pad: 1
    pad: 1
    pad: 1
    kernel_size: 3
    kernel_size: 3
    kernel_size: 3
    weight_filler {
      type: "gaussian"
      std: 0.01
    }
    bias_filler {
      type: "constant"
      value: 1
    }
  }
}
layer {
  name: "relu3a"
  type: "ReLU"
  bottom: "conv3a"
  top: "conv3a"
}
layer {
  name: "conv3b"
  type: "Convolution"
  bottom: "conv3a"
  top: "conv3b"
  param {
    lr_mult: 1
    decay_mult: 1
  }
  param {
    lr_mult: 2
    decay_mult: 0
  }
  convolution_param {
    num_output: 256
    pad: 1
    pad: 1
    pad: 1
    kernel_size: 3
    kernel_size: 3
    kernel_size: 3
    weight_filler {
      type: "gaussian"
      std: 0.01
    }
    bias_filler {
      type: "constant"
      value: 1
    }
  }
}
layer {
  name: "relu3b"
  type: "ReLU"
  bottom: "conv3b"
  top: "conv3b"
}
layer {
  name: "pool3"
  type: "Pooling"
  bottom: "conv3b"
  top: "pool3"
  pooling_param {
    pool: MAX
    kernel_size: 2
    kernel_size: 2
    kernel_size: 2
    stride: 2
    stride: 2
    stride: 2
  }
}
layer {
  name: "conv4a"
  type: "Convolution"
  bottom: "pool3"
  top: "conv4a"
  param {
    lr_mult: 1
    decay_mult: 1
  }
  param {
    lr_mult: 2
    decay_mult: 0
  }
  convolution_param {
    num_output: 512
    pad: 1
    pad: 1
    pad: 1
    kernel_size: 3
    kernel_size: 3
    kernel_size: 3
    weight_filler {
      type: "gaussian"
      std: 0.01
    }
    bias_filler {
      type: "constant"
      value: 1
    }
  }
}
layer {
  name: "relu4a"
  type: "ReLU"
  bottom: "conv4a"
  top: "conv4a"
}
layer {
  name: "conv4b"
  type: "Convolution"
  bottom: "conv4a"
  top: "conv4b"
  param {
    lr_mult: 1
    decay_mult: 1
  }
  param {
    lr_mult: 2
    decay_mult: 0
  }
  convolution_param {
    num_output: 512
    pad: 1
    pad: 1
    pad: 1
    kernel_size: 3
    kernel_size: 3
    kernel_size: 3
    weight_filler {
      type: "gaussian"
      std: 0.01
    }
    bias_filler {
      type: "constant"
      value: 1
    }
  }
}
layer {
  name: "relu4b"
  type: "ReLU"
  bottom: "conv4b"
  top: "conv4b"
}
layer {
  name: "pool4"
  type: "Pooling"
  bottom: "conv4b"
  top: "pool4"
  pooling_param {
    pool: MAX
    kernel_size: 2
    kernel_size: 2
    kernel_size: 2
    stride: 2
    stride: 2
    stride: 2
  }
}
layer {
  name: "conv5a"
  type: "Convolution"
  bottom: "pool4"
  top: "conv5a"
  param {
    lr_mult: 1
    decay_mult: 1
  }
  param {
    lr_mult: 2
    decay_mult: 0
  }
  convolution_param {
    num_output: 512
    pad: 1
    pad: 1
    pad: 1
    kernel_size: 3
    kernel_size: 3
    kernel_size: 3
    weight_filler {
      type: "gaussian"
      std: 0.01
    }
    bias_filler {
      type: "constant"
      value: 1
    }
  }
}
layer {
  name: "relu5a"
  type: "ReLU"
  bottom: "conv5a"
  top: "conv5a"
}
layer {
  name: "conv5b"
  type: "Convolution"
  bottom: "conv5a"
  top: "conv5b"
  param {
    lr_mult: 1
    decay_mult: 1
  }
  param {
    lr_mult: 2
    decay_mult: 0
  }
  convolution_param {
    num_output: 512
    pad: 1
    pad: 1
    pad: 1
    kernel_size: 3
    kernel_size: 3
    kernel_size: 3
    weight_filler {
      type: "gaussian"
      std: 0.01
    }
    bias_filler {
      type: "constant"
      value: 1
    }
  }
}
layer {
  name: "relu5b"
  type: "ReLU"
  bottom: "conv5b"
  top: "conv5b"
}
layer {
  name: "rpn_conv/3x3"
  type: "Convolution"
  bottom: "conv5b"
  top: "rpn/output"
  param {
    lr_mult: 1
    decay_mult: 1
  }
  param {
    lr_mult: 2
    decay_mult: 0
  }
  convolution_param {
    num_output: 512
    pad: 1
    pad: 1
    pad: 1
    kernel_size: 3
    kernel_size: 3
    kernel_size: 3
    stride: 1
    stride: 2
    stride: 2
    weight_filler {
      type: "gaussian"
      std: 0.01
    }
    bias_filler {
      type: "constant"
      value: 0
    }
  }
}
layer {
  name: "rpn_relu/3x3"
  type: "ReLU"
  bottom: "rpn/output"
  top: "rpn/output"
}
layer {
  name: "rpn_conv/3x3_2"
  type: "Convolution"
  bottom: "rpn/output"
  top: "rpn/output_2"
  param {
    lr_mult: 1
    decay_mult: 1
  }
  param {
    lr_mult: 2
    decay_mult: 0
  }
  convolution_param {
    num_output: 512
    pad: 1
    pad: 1
    pad: 1
    kernel_size: 3
    kernel_size: 3
    kernel_size: 3
    stride: 1
    stride: 2
    stride: 2
    weight_filler {
      type: "gaussian"
      std: 0.01
    }
    bias_filler {
      type: "constant"
      value: 0
    }
  }
}
layer {
  name: "rpn_relu/3x3_2"
  type: "ReLU"
  bottom: "rpn/output_2"
  top: "rpn/output_2"
}
layer {
  name: "rpn/output_pool"
  type: "Pooling"
  bottom: "rpn/output_2"
  top: "rpn/output_pool"
  pooling_param {
    pool: MAX
    kernel_size: 1
    kernel_size: 2
    kernel_size: 2
  }
}
layer {
  name: "rpn_cls_score"
  type: "Convolution"
  bottom: "rpn/output_pool"
  top: "rpn_cls_score"
  param {
    lr_mult: 1
    decay_mult: 1
  }
  param {
    lr_mult: 2
    decay_mult: 0
  }
  convolution_param {
    num_output: 74
    kernel_size: 1
    kernel_size: 1
    kernel_size: 1
    weight_filler {
      type: "gaussian"
      std: 0.01
    }
    bias_filler {
      type: "constant"
      value: 0
    }
  }
}
layer {
  name: "rpn_twin_pred"
  type: "Convolution"
  bottom: "rpn/output_pool"
  top: "rpn_twin_pred"
  param {
    lr_mult: 1
    decay_mult: 1
  }
  param {
    lr_mult: 2
    decay_mult: 0
  }
  convolution_param {
    num_output: 74
    kernel_size: 1
    kernel_size: 1
    kernel_size: 1
    weight_filler {
      type: "gaussian"
      std: 0.01
    }
    bias_filler {
      type: "constant"
      value: 0
    }
  }
}
layer {
  name: "rpn_cls_score_reshape"
  type: "Reshape"
  bottom: "rpn_cls_score"
  top: "rpn_cls_score_reshape"
  reshape_param {
    shape {
      dim: 0
      dim: 2
      dim: -1
      dim: 0
      dim: 0
    }
  }
}
layer {
  name: "rpn-data"
  type: "Python"
  bottom: "rpn_cls_score"
  bottom: "gt_boxes"
  bottom: "data"
  top: "rpn_labels"
  top: "rpn_twin_targets"
  top: "rpn_twin_inside_weights"
  top: "rpn_twin_outside_weights"
  python_param {
    module: "rpn.anchor_target_layer"
    layer: "AnchorTargetLayer"
    param_str: "\'feat_stride\': 8 \n\'scales\': !!python/tuple [1,1.25, 1.5,1.75, 2,2.5, 3,3.5, 4,4.5, 5,5.5, 6,7, 8,9,10,11,12,14,16,18,20,22,24,28,32,36,40,44,52,60,68,76,84,92,100]"
  }
}
layer {
  name: "rpn_loss_cls"
  type: "SoftmaxWithLoss"
  bottom: "rpn_cls_score_reshape"
  bottom: "rpn_labels"
  top: "rpn_cls_loss"
  loss_weight: 1
  propagate_down: true
  propagate_down: false
  loss_param {
    ignore_label: -1
    normalize: true
  }
}
layer {
  name: "rpn_loss_twin"
  type: "SmoothL1Loss"
  bottom: "rpn_twin_pred"
  bottom: "rpn_twin_targets"
  bottom: "rpn_twin_inside_weights"
  bottom: "rpn_twin_outside_weights"
  top: "rpn_loss_twin"
  loss_weight: 1
  smooth_l1_loss_param {
    sigma: 3
  }
}
layer {
  name: "rpn_accuarcy"
  type: "Accuracy"
  bottom: "rpn_cls_score_reshape"
  bottom: "rpn_labels"
  top: "rpn_accuarcy"
  top: "rpn_accuarcy_class"
  propagate_down: false
  propagate_down: false
  accuracy_param {
    ignore_label: -1
  }
}
layer {
  name: "rpn_cls_prob"
  type: "Softmax"
  bottom: "rpn_cls_score_reshape"
  top: "rpn_cls_prob"
}
layer {
  name: "rpn_cls_prob_reshape"
  type: "Reshape"
  bottom: "rpn_cls_prob"
  top: "rpn_cls_prob_reshape"
  reshape_param {
    shape {
      dim: 0
      dim: 74
      dim: -1
      dim: 0
      dim: 0
    }
  }
}
layer {
  name: "proposal"
  type: "Python"
  bottom: "rpn_cls_prob_reshape"
  bottom: "rpn_twin_pred"
  top: "rpn_rois"
  include {
    phase: TRAIN
  }
  python_param {
    module: "rpn.proposal_layer"
    layer: "ProposalLayer"
    param_str: "\'feat_stride\': 8 \n\'scales\': !!python/tuple [1,1.25, 1.5,1.75, 2,2.5, 3,3.5, 4,4.5, 5,5.5, 6,7, 8,9,10,11,12,14,16,18,20,22,24,28,32,36,40,44,52,60,68,76,84,92,100]"
  }
}
layer {
  name: "roi-data"
  type: "Python"
  bottom: "rpn_rois"
  bottom: "gt_boxes"
  top: "rois"
  top: "labels"
  top: "twin_targets"
  top: "twin_inside_weights"
  top: "twin_outside_weights"
  python_param {
    module: "rpn.proposal_target_layer"
    layer: "ProposalTargetLayer"
    param_str: "\'num_classes\': 200"
  }
}
layer {
  name: "roi_pool5"
  type: "ROIPooling"
  bottom: "conv5b"
  bottom: "rois"
  top: "pool5"
  roi_pooling_param {
    pooled_h: 4
    pooled_w: 4
    spatial_scale: 0.0625
    pooled_l: 1
    temporal_scale: 0.125
  }
}
layer {
  name: "fc6"
  type: "InnerProduct"
  bottom: "pool5"
  top: "fc6"
  param {
    lr_mult: 1
    decay_mult: 1
  }
  param {
    lr_mult: 2
    decay_mult: 0
  }
  inner_product_param {
    num_output: 4096
    weight_filler {
      type: "gaussian"
      std: 0.005
    }
    bias_filler {
      type: "constant"
      value: 1
    }
  }
}
layer {
  name: "relu6"
  type: "ReLU"
  bottom: "fc6"
  top: "fc6"
}
layer {
  name: "drop6"
  type: "Dropout"
  bottom: "fc6"
  top: "fc6"
  dropout_param {
    dropout_ratio: 0.5
  }
}
layer {
  name: "cls_score"
  type: "InnerProduct"
  bottom: "fc6"
  top: "cls_score"
  param {
    lr_mult: 1
    decay_mult: 1
  }
  param {
    lr_mult: 2
    decay_mult: 0
  }
  inner_product_param {
    num_output: 200
    weight_filler {
      type: "gaussian"
      std: 0.01
    }
    bias_filler {
      type: "constant"
      value: 0
    }
  }
}
layer {
  name: "twin_pred"
  type: "InnerProduct"
  bottom: "fc6"
  top: "twin_pred"
  param {
    lr_mult: 1
    decay_mult: 1
  }
  param {
    lr_mult: 2
    decay_mult: 0
  }
  inner_product_param {
    num_output: 400
    weight_filler {
      type: "gaussian"
      std: 0.001
    }
    bias_filler {
      type: "constant"
      value: 0
    }
  }
}
layer {
  name: "loss_cls"
  type: "SigmoidCrossEntropyLoss"
  bottom: "cls_score"
  bottom: "labels"
  top: "loss_cls"
  loss_weight: 1
  propagate_down: true
  propagate_down: false
}
layer {
  name: "loss_twin"
  type: "SmoothL1Loss"
  bottom: "twin_pred"
  bottom: "twin_targets"
  bottom: "twin_inside_weights"
  bottom: "twin_outside_weights"
  top: "loss_twin"
  loss_weight: 1
}
layer {
  name: "accuracy"
  type: "Python"
  bottom: "cls_score"
  bottom: "labels"
  top: "accuracy"
  python_param {
    module: "utils.accuracy_layer"
    layer: "AccuracyLayer"
    param_str: "{\"top_k\": 2}"
  }
}
I0421 18:41:01.902308 19966 layer_factory.hpp:77] Creating layer data
I0421 18:41:01.929343 19966 net.cpp:100] Creating Layer data
I0421 18:41:01.929368 19966 net.cpp:408] data -> data
I0421 18:41:01.929388 19966 net.cpp:408] data -> gt_boxes
setting up
has rpn
RoiDataLayer: name_to_top: {'gt_windows': 1, 'data': 0}
I0421 18:41:01.944402 19966 net.cpp:150] Setting up data
I0421 18:41:01.944427 19966 net.cpp:157] Top shape: 1 3 768 112 112 (28901376)
I0421 18:41:01.944432 19966 net.cpp:157] Top shape: 1 101 (101)
I0421 18:41:01.944435 19966 net.cpp:165] Memory required for data: 115605908
I0421 18:41:01.944443 19966 layer_factory.hpp:77] Creating layer data_data_0_split
I0421 18:41:01.944456 19966 net.cpp:100] Creating Layer data_data_0_split
I0421 18:41:01.944461 19966 net.cpp:434] data_data_0_split <- data
I0421 18:41:01.944468 19966 net.cpp:408] data_data_0_split -> data_data_0_split_0
I0421 18:41:01.944479 19966 net.cpp:408] data_data_0_split -> data_data_0_split_1
I0421 18:41:01.944525 19966 net.cpp:150] Setting up data_data_0_split
I0421 18:41:01.944540 19966 net.cpp:157] Top shape: 1 3 768 112 112 (28901376)
I0421 18:41:01.944546 19966 net.cpp:157] Top shape: 1 3 768 112 112 (28901376)
I0421 18:41:01.944551 19966 net.cpp:165] Memory required for data: 346816916
I0421 18:41:01.944561 19966 layer_factory.hpp:77] Creating layer gt_boxes_data_1_split
I0421 18:41:01.944571 19966 net.cpp:100] Creating Layer gt_boxes_data_1_split
I0421 18:41:01.944583 19966 net.cpp:434] gt_boxes_data_1_split <- gt_boxes
I0421 18:41:01.944594 19966 net.cpp:408] gt_boxes_data_1_split -> gt_boxes_data_1_split_0
I0421 18:41:01.944604 19966 net.cpp:408] gt_boxes_data_1_split -> gt_boxes_data_1_split_1
I0421 18:41:01.944640 19966 net.cpp:150] Setting up gt_boxes_data_1_split
I0421 18:41:01.944649 19966 net.cpp:157] Top shape: 1 101 (101)
I0421 18:41:01.944655 19966 net.cpp:157] Top shape: 1 101 (101)
I0421 18:41:01.944661 19966 net.cpp:165] Memory required for data: 346817724
I0421 18:41:01.944669 19966 layer_factory.hpp:77] Creating layer conv1a
I0421 18:41:01.944689 19966 net.cpp:100] Creating Layer conv1a
I0421 18:41:01.944695 19966 net.cpp:434] conv1a <- data_data_0_split_0
I0421 18:41:01.944705 19966 net.cpp:408] conv1a -> conv1a
I0421 18:41:02.750430 19966 net.cpp:150] Setting up conv1a
I0421 18:41:02.750509 19966 net.cpp:157] Top shape: 1 64 768 112 112 (616562688)
I0421 18:41:02.750517 19966 net.cpp:165] Memory required for data: 2813068476
I0421 18:41:02.750545 19966 layer_factory.hpp:77] Creating layer relu1a
I0421 18:41:02.750562 19966 net.cpp:100] Creating Layer relu1a
I0421 18:41:02.750571 19966 net.cpp:434] relu1a <- conv1a
I0421 18:41:02.750577 19966 net.cpp:395] relu1a -> conv1a (in-place)
I0421 18:41:02.751132 19966 net.cpp:150] Setting up relu1a
I0421 18:41:02.751144 19966 net.cpp:157] Top shape: 1 64 768 112 112 (616562688)
I0421 18:41:02.751147 19966 net.cpp:165] Memory required for data: 5279319228
I0421 18:41:02.751152 19966 layer_factory.hpp:77] Creating layer pool1
I0421 18:41:02.751161 19966 net.cpp:100] Creating Layer pool1
I0421 18:41:02.751164 19966 net.cpp:434] pool1 <- conv1a
I0421 18:41:02.751170 19966 net.cpp:408] pool1 -> pool1
I0421 18:41:02.751341 19966 net.cpp:150] Setting up pool1
I0421 18:41:02.751350 19966 net.cpp:157] Top shape: 1 64 768 56 56 (154140672)
I0421 18:41:02.751353 19966 net.cpp:165] Memory required for data: 5895881916
I0421 18:41:02.751356 19966 layer_factory.hpp:77] Creating layer conv2a
I0421 18:41:02.751368 19966 net.cpp:100] Creating Layer conv2a
I0421 18:41:02.751370 19966 net.cpp:434] conv2a <- pool1
I0421 18:41:02.751375 19966 net.cpp:408] conv2a -> conv2a
I0421 18:41:02.764607 19966 net.cpp:150] Setting up conv2a
I0421 18:41:02.764636 19966 net.cpp:157] Top shape: 1 128 768 56 56 (308281344)
I0421 18:41:02.764639 19966 net.cpp:165] Memory required for data: 7129007292
I0421 18:41:02.764654 19966 layer_factory.hpp:77] Creating layer relu2a
I0421 18:41:02.764664 19966 net.cpp:100] Creating Layer relu2a
I0421 18:41:02.764668 19966 net.cpp:434] relu2a <- conv2a
I0421 18:41:02.764675 19966 net.cpp:395] relu2a -> conv2a (in-place)
I0421 18:41:02.765056 19966 net.cpp:150] Setting up relu2a
I0421 18:41:02.765067 19966 net.cpp:157] Top shape: 1 128 768 56 56 (308281344)
I0421 18:41:02.765070 19966 net.cpp:165] Memory required for data: 8362132668
I0421 18:41:02.765074 19966 layer_factory.hpp:77] Creating layer pool2
I0421 18:41:02.765084 19966 net.cpp:100] Creating Layer pool2
I0421 18:41:02.765089 19966 net.cpp:434] pool2 <- conv2a
I0421 18:41:02.765094 19966 net.cpp:408] pool2 -> pool2
I0421 18:41:02.765275 19966 net.cpp:150] Setting up pool2
I0421 18:41:02.765283 19966 net.cpp:157] Top shape: 1 128 384 28 28 (38535168)
I0421 18:41:02.765287 19966 net.cpp:165] Memory required for data: 8516273340
I0421 18:41:02.765290 19966 layer_factory.hpp:77] Creating layer conv3a
I0421 18:41:02.765302 19966 net.cpp:100] Creating Layer conv3a
I0421 18:41:02.765306 19966 net.cpp:434] conv3a <- pool2
I0421 18:41:02.765311 19966 net.cpp:408] conv3a -> conv3a
I0421 18:41:02.791831 19966 net.cpp:150] Setting up conv3a
I0421 18:41:02.791859 19966 net.cpp:157] Top shape: 1 256 384 28 28 (77070336)
I0421 18:41:02.791863 19966 net.cpp:165] Memory required for data: 8824554684
I0421 18:41:02.791875 19966 layer_factory.hpp:77] Creating layer relu3a
I0421 18:41:02.791885 19966 net.cpp:100] Creating Layer relu3a
I0421 18:41:02.791891 19966 net.cpp:434] relu3a <- conv3a
I0421 18:41:02.791904 19966 net.cpp:395] relu3a -> conv3a (in-place)
I0421 18:41:02.792268 19966 net.cpp:150] Setting up relu3a
I0421 18:41:02.792280 19966 net.cpp:157] Top shape: 1 256 384 28 28 (77070336)
I0421 18:41:02.792284 19966 net.cpp:165] Memory required for data: 9132836028
I0421 18:41:02.792289 19966 layer_factory.hpp:77] Creating layer conv3b
I0421 18:41:02.792299 19966 net.cpp:100] Creating Layer conv3b
I0421 18:41:02.792310 19966 net.cpp:434] conv3b <- conv3a
I0421 18:41:02.792317 19966 net.cpp:408] conv3b -> conv3b
I0421 18:41:02.844115 19966 net.cpp:150] Setting up conv3b
I0421 18:41:02.844141 19966 net.cpp:157] Top shape: 1 256 384 28 28 (77070336)
I0421 18:41:02.844144 19966 net.cpp:165] Memory required for data: 9441117372
I0421 18:41:02.844156 19966 layer_factory.hpp:77] Creating layer relu3b
I0421 18:41:02.844177 19966 net.cpp:100] Creating Layer relu3b
I0421 18:41:02.844187 19966 net.cpp:434] relu3b <- conv3b
I0421 18:41:02.844194 19966 net.cpp:395] relu3b -> conv3b (in-place)
I0421 18:41:02.844594 19966 net.cpp:150] Setting up relu3b
I0421 18:41:02.844606 19966 net.cpp:157] Top shape: 1 256 384 28 28 (77070336)
I0421 18:41:02.844610 19966 net.cpp:165] Memory required for data: 9749398716
I0421 18:41:02.844614 19966 layer_factory.hpp:77] Creating layer pool3
I0421 18:41:02.844622 19966 net.cpp:100] Creating Layer pool3
I0421 18:41:02.844627 19966 net.cpp:434] pool3 <- conv3b
I0421 18:41:02.844633 19966 net.cpp:408] pool3 -> pool3
I0421 18:41:02.844802 19966 net.cpp:150] Setting up pool3
I0421 18:41:02.844812 19966 net.cpp:157] Top shape: 1 256 192 14 14 (9633792)
I0421 18:41:02.844815 19966 net.cpp:165] Memory required for data: 9787933884
I0421 18:41:02.844820 19966 layer_factory.hpp:77] Creating layer conv4a
I0421 18:41:02.844832 19966 net.cpp:100] Creating Layer conv4a
I0421 18:41:02.844837 19966 net.cpp:434] conv4a <- pool3
I0421 18:41:02.844842 19966 net.cpp:408] conv4a -> conv4a
I0421 18:41:02.946460 19966 net.cpp:150] Setting up conv4a
I0421 18:41:02.946485 19966 net.cpp:157] Top shape: 1 512 192 14 14 (19267584)
I0421 18:41:02.946491 19966 net.cpp:165] Memory required for data: 9865004220
I0421 18:41:02.946509 19966 layer_factory.hpp:77] Creating layer relu4a
I0421 18:41:02.946524 19966 net.cpp:100] Creating Layer relu4a
I0421 18:41:02.946532 19966 net.cpp:434] relu4a <- conv4a
I0421 18:41:02.946542 19966 net.cpp:395] relu4a -> conv4a (in-place)
I0421 18:41:02.947115 19966 net.cpp:150] Setting up relu4a
I0421 18:41:02.947134 19966 net.cpp:157] Top shape: 1 512 192 14 14 (19267584)
I0421 18:41:02.947140 19966 net.cpp:165] Memory required for data: 9942074556
I0421 18:41:02.947146 19966 layer_factory.hpp:77] Creating layer conv4b
I0421 18:41:02.947166 19966 net.cpp:100] Creating Layer conv4b
I0421 18:41:02.947173 19966 net.cpp:434] conv4b <- conv4a
I0421 18:41:02.947183 19966 net.cpp:408] conv4b -> conv4b
I0421 18:41:03.140774 19966 net.cpp:150] Setting up conv4b
I0421 18:41:03.140800 19966 net.cpp:157] Top shape: 1 512 192 14 14 (19267584)
I0421 18:41:03.140806 19966 net.cpp:165] Memory required for data: 10019144892
I0421 18:41:03.140818 19966 layer_factory.hpp:77] Creating layer relu4b
I0421 18:41:03.140831 19966 net.cpp:100] Creating Layer relu4b
I0421 18:41:03.140839 19966 net.cpp:434] relu4b <- conv4b
I0421 18:41:03.140851 19966 net.cpp:395] relu4b -> conv4b (in-place)
I0421 18:41:03.141012 19966 net.cpp:150] Setting up relu4b
I0421 18:41:03.141023 19966 net.cpp:157] Top shape: 1 512 192 14 14 (19267584)
I0421 18:41:03.141028 19966 net.cpp:165] Memory required for data: 10096215228
I0421 18:41:03.141034 19966 layer_factory.hpp:77] Creating layer pool4
I0421 18:41:03.141047 19966 net.cpp:100] Creating Layer pool4
I0421 18:41:03.141053 19966 net.cpp:434] pool4 <- conv4b
I0421 18:41:03.141062 19966 net.cpp:408] pool4 -> pool4
I0421 18:41:03.141741 19966 net.cpp:150] Setting up pool4
I0421 18:41:03.141754 19966 net.cpp:157] Top shape: 1 512 96 7 7 (2408448)
I0421 18:41:03.141759 19966 net.cpp:165] Memory required for data: 10105849020
I0421 18:41:03.141765 19966 layer_factory.hpp:77] Creating layer conv5a
I0421 18:41:03.141783 19966 net.cpp:100] Creating Layer conv5a
I0421 18:41:03.141789 19966 net.cpp:434] conv5a <- pool4
I0421 18:41:03.141800 19966 net.cpp:408] conv5a -> conv5a
I0421 18:41:03.333020 19966 net.cpp:150] Setting up conv5a
I0421 18:41:03.333046 19966 net.cpp:157] Top shape: 1 512 96 7 7 (2408448)
I0421 18:41:03.333051 19966 net.cpp:165] Memory required for data: 10115482812
I0421 18:41:03.333063 19966 layer_factory.hpp:77] Creating layer relu5a
I0421 18:41:03.333083 19966 net.cpp:100] Creating Layer relu5a
I0421 18:41:03.333091 19966 net.cpp:434] relu5a <- conv5a
I0421 18:41:03.333101 19966 net.cpp:395] relu5a -> conv5a (in-place)
I0421 18:41:03.335552 19966 net.cpp:150] Setting up relu5a
I0421 18:41:03.335566 19966 net.cpp:157] Top shape: 1 512 96 7 7 (2408448)
I0421 18:41:03.335572 19966 net.cpp:165] Memory required for data: 10125116604
I0421 18:41:03.335578 19966 layer_factory.hpp:77] Creating layer conv5b
I0421 18:41:03.335598 19966 net.cpp:100] Creating Layer conv5b
I0421 18:41:03.335605 19966 net.cpp:434] conv5b <- conv5a
I0421 18:41:03.335616 19966 net.cpp:408] conv5b -> conv5b
I0421 18:41:03.527007 19966 net.cpp:150] Setting up conv5b
I0421 18:41:03.527040 19966 net.cpp:157] Top shape: 1 512 96 7 7 (2408448)
I0421 18:41:03.527046 19966 net.cpp:165] Memory required for data: 10134750396
I0421 18:41:03.527060 19966 layer_factory.hpp:77] Creating layer relu5b
I0421 18:41:03.527073 19966 net.cpp:100] Creating Layer relu5b
I0421 18:41:03.527084 19966 net.cpp:434] relu5b <- conv5b
I0421 18:41:03.527101 19966 net.cpp:395] relu5b -> conv5b (in-place)
I0421 18:41:03.527253 19966 net.cpp:150] Setting up relu5b
I0421 18:41:03.527264 19966 net.cpp:157] Top shape: 1 512 96 7 7 (2408448)
I0421 18:41:03.527269 19966 net.cpp:165] Memory required for data: 10144384188
I0421 18:41:03.527276 19966 layer_factory.hpp:77] Creating layer conv5b_relu5b_0_split
I0421 18:41:03.527284 19966 net.cpp:100] Creating Layer conv5b_relu5b_0_split
I0421 18:41:03.527290 19966 net.cpp:434] conv5b_relu5b_0_split <- conv5b
I0421 18:41:03.527300 19966 net.cpp:408] conv5b_relu5b_0_split -> conv5b_relu5b_0_split_0
I0421 18:41:03.527310 19966 net.cpp:408] conv5b_relu5b_0_split -> conv5b_relu5b_0_split_1
I0421 18:41:03.527359 19966 net.cpp:150] Setting up conv5b_relu5b_0_split
I0421 18:41:03.527367 19966 net.cpp:157] Top shape: 1 512 96 7 7 (2408448)
I0421 18:41:03.527374 19966 net.cpp:157] Top shape: 1 512 96 7 7 (2408448)
I0421 18:41:03.527379 19966 net.cpp:165] Memory required for data: 10163651772
I0421 18:41:03.527384 19966 layer_factory.hpp:77] Creating layer rpn_conv/3x3
I0421 18:41:03.527400 19966 net.cpp:100] Creating Layer rpn_conv/3x3
I0421 18:41:03.527405 19966 net.cpp:434] rpn_conv/3x3 <- conv5b_relu5b_0_split_0
I0421 18:41:03.527418 19966 net.cpp:408] rpn_conv/3x3 -> rpn/output
I0421 18:41:03.721143 19966 net.cpp:150] Setting up rpn_conv/3x3
I0421 18:41:03.721168 19966 net.cpp:157] Top shape: 1 512 96 4 4 (786432)
I0421 18:41:03.721174 19966 net.cpp:165] Memory required for data: 10166797500
I0421 18:41:03.721194 19966 layer_factory.hpp:77] Creating layer rpn_relu/3x3
I0421 18:41:03.721207 19966 net.cpp:100] Creating Layer rpn_relu/3x3
I0421 18:41:03.721215 19966 net.cpp:434] rpn_relu/3x3 <- rpn/output
I0421 18:41:03.721227 19966 net.cpp:395] rpn_relu/3x3 -> rpn/output (in-place)
I0421 18:41:03.721607 19966 net.cpp:150] Setting up rpn_relu/3x3
I0421 18:41:03.721621 19966 net.cpp:157] Top shape: 1 512 96 4 4 (786432)
I0421 18:41:03.721626 19966 net.cpp:165] Memory required for data: 10169943228
I0421 18:41:03.721632 19966 layer_factory.hpp:77] Creating layer rpn_conv/3x3_2
I0421 18:41:03.721649 19966 net.cpp:100] Creating Layer rpn_conv/3x3_2
I0421 18:41:03.721655 19966 net.cpp:434] rpn_conv/3x3_2 <- rpn/output
I0421 18:41:03.721666 19966 net.cpp:408] rpn_conv/3x3_2 -> rpn/output_2
I0421 18:41:03.916050 19966 net.cpp:150] Setting up rpn_conv/3x3_2
I0421 18:41:03.916076 19966 net.cpp:157] Top shape: 1 512 96 2 2 (196608)
I0421 18:41:03.916082 19966 net.cpp:165] Memory required for data: 10170729660
I0421 18:41:03.916095 19966 layer_factory.hpp:77] Creating layer rpn_relu/3x3_2
I0421 18:41:03.916107 19966 net.cpp:100] Creating Layer rpn_relu/3x3_2
I0421 18:41:03.916115 19966 net.cpp:434] rpn_relu/3x3_2 <- rpn/output_2
I0421 18:41:03.916129 19966 net.cpp:395] rpn_relu/3x3_2 -> rpn/output_2 (in-place)
I0421 18:41:03.916530 19966 net.cpp:150] Setting up rpn_relu/3x3_2
I0421 18:41:03.916545 19966 net.cpp:157] Top shape: 1 512 96 2 2 (196608)
I0421 18:41:03.916551 19966 net.cpp:165] Memory required for data: 10171516092
I0421 18:41:03.916558 19966 layer_factory.hpp:77] Creating layer rpn/output_pool
I0421 18:41:03.916570 19966 net.cpp:100] Creating Layer rpn/output_pool
I0421 18:41:03.916577 19966 net.cpp:434] rpn/output_pool <- rpn/output_2
I0421 18:41:03.916585 19966 net.cpp:408] rpn/output_pool -> rpn/output_pool
I0421 18:41:03.916771 19966 net.cpp:150] Setting up rpn/output_pool
I0421 18:41:03.916784 19966 net.cpp:157] Top shape: 1 512 96 1 1 (49152)
I0421 18:41:03.916788 19966 net.cpp:165] Memory required for data: 10171712700
I0421 18:41:03.916793 19966 layer_factory.hpp:77] Creating layer rpn/output_pool_rpn/output_pool_0_split
I0421 18:41:03.916803 19966 net.cpp:100] Creating Layer rpn/output_pool_rpn/output_pool_0_split
I0421 18:41:03.916810 19966 net.cpp:434] rpn/output_pool_rpn/output_pool_0_split <- rpn/output_pool
I0421 18:41:03.916820 19966 net.cpp:408] rpn/output_pool_rpn/output_pool_0_split -> rpn/output_pool_rpn/output_pool_0_split_0
I0421 18:41:03.916829 19966 net.cpp:408] rpn/output_pool_rpn/output_pool_0_split -> rpn/output_pool_rpn/output_pool_0_split_1
I0421 18:41:03.916869 19966 net.cpp:150] Setting up rpn/output_pool_rpn/output_pool_0_split
I0421 18:41:03.916878 19966 net.cpp:157] Top shape: 1 512 96 1 1 (49152)
I0421 18:41:03.916885 19966 net.cpp:157] Top shape: 1 512 96 1 1 (49152)
I0421 18:41:03.916890 19966 net.cpp:165] Memory required for data: 10172105916
I0421 18:41:03.916895 19966 layer_factory.hpp:77] Creating layer rpn_cls_score
I0421 18:41:03.916911 19966 net.cpp:100] Creating Layer rpn_cls_score
I0421 18:41:03.916918 19966 net.cpp:434] rpn_cls_score <- rpn/output_pool_rpn/output_pool_0_split_0
I0421 18:41:03.916925 19966 net.cpp:408] rpn_cls_score -> rpn_cls_score
I0421 18:41:03.919281 19966 net.cpp:150] Setting up rpn_cls_score
I0421 18:41:03.919294 19966 net.cpp:157] Top shape: 1 74 96 1 1 (7104)
I0421 18:41:03.919301 19966 net.cpp:165] Memory required for data: 10172134332
I0421 18:41:03.919311 19966 layer_factory.hpp:77] Creating layer rpn_cls_score_rpn_cls_score_0_split
I0421 18:41:03.919323 19966 net.cpp:100] Creating Layer rpn_cls_score_rpn_cls_score_0_split
I0421 18:41:03.919332 19966 net.cpp:434] rpn_cls_score_rpn_cls_score_0_split <- rpn_cls_score
I0421 18:41:03.919339 19966 net.cpp:408] rpn_cls_score_rpn_cls_score_0_split -> rpn_cls_score_rpn_cls_score_0_split_0
I0421 18:41:03.919349 19966 net.cpp:408] rpn_cls_score_rpn_cls_score_0_split -> rpn_cls_score_rpn_cls_score_0_split_1
I0421 18:41:03.919399 19966 net.cpp:150] Setting up rpn_cls_score_rpn_cls_score_0_split
I0421 18:41:03.919407 19966 net.cpp:157] Top shape: 1 74 96 1 1 (7104)
I0421 18:41:03.919414 19966 net.cpp:157] Top shape: 1 74 96 1 1 (7104)
I0421 18:41:03.919420 19966 net.cpp:165] Memory required for data: 10172191164
I0421 18:41:03.919426 19966 layer_factory.hpp:77] Creating layer rpn_twin_pred
I0421 18:41:03.919443 19966 net.cpp:100] Creating Layer rpn_twin_pred
I0421 18:41:03.919450 19966 net.cpp:434] rpn_twin_pred <- rpn/output_pool_rpn/output_pool_0_split_1
I0421 18:41:03.919461 19966 net.cpp:408] rpn_twin_pred -> rpn_twin_pred
I0421 18:41:03.921548 19966 net.cpp:150] Setting up rpn_twin_pred
I0421 18:41:03.921562 19966 net.cpp:157] Top shape: 1 74 96 1 1 (7104)
I0421 18:41:03.921567 19966 net.cpp:165] Memory required for data: 10172219580
I0421 18:41:03.921577 19966 layer_factory.hpp:77] Creating layer rpn_twin_pred_rpn_twin_pred_0_split
I0421 18:41:03.921584 19966 net.cpp:100] Creating Layer rpn_twin_pred_rpn_twin_pred_0_split
I0421 18:41:03.921591 19966 net.cpp:434] rpn_twin_pred_rpn_twin_pred_0_split <- rpn_twin_pred
I0421 18:41:03.921602 19966 net.cpp:408] rpn_twin_pred_rpn_twin_pred_0_split -> rpn_twin_pred_rpn_twin_pred_0_split_0
I0421 18:41:03.921613 19966 net.cpp:408] rpn_twin_pred_rpn_twin_pred_0_split -> rpn_twin_pred_rpn_twin_pred_0_split_1
I0421 18:41:03.921658 19966 net.cpp:150] Setting up rpn_twin_pred_rpn_twin_pred_0_split
I0421 18:41:03.921669 19966 net.cpp:157] Top shape: 1 74 96 1 1 (7104)
I0421 18:41:03.921675 19966 net.cpp:157] Top shape: 1 74 96 1 1 (7104)
I0421 18:41:03.921681 19966 net.cpp:165] Memory required for data: 10172276412
I0421 18:41:03.921686 19966 layer_factory.hpp:77] Creating layer rpn_cls_score_reshape
I0421 18:41:03.921700 19966 net.cpp:100] Creating Layer rpn_cls_score_reshape
I0421 18:41:03.921706 19966 net.cpp:434] rpn_cls_score_reshape <- rpn_cls_score_rpn_cls_score_0_split_0
I0421 18:41:03.921716 19966 net.cpp:408] rpn_cls_score_reshape -> rpn_cls_score_reshape
I0421 18:41:03.921751 19966 net.cpp:150] Setting up rpn_cls_score_reshape
I0421 18:41:03.921759 19966 net.cpp:157] Top shape: 1 2 3552 1 1 (7104)
I0421 18:41:03.921764 19966 net.cpp:165] Memory required for data: 10172304828
I0421 18:41:03.921769 19966 layer_factory.hpp:77] Creating layer rpn_cls_score_reshape_rpn_cls_score_reshape_0_split
I0421 18:41:03.921779 19966 net.cpp:100] Creating Layer rpn_cls_score_reshape_rpn_cls_score_reshape_0_split
I0421 18:41:03.921787 19966 net.cpp:434] rpn_cls_score_reshape_rpn_cls_score_reshape_0_split <- rpn_cls_score_reshape
I0421 18:41:03.921795 19966 net.cpp:408] rpn_cls_score_reshape_rpn_cls_score_reshape_0_split -> rpn_cls_score_reshape_rpn_cls_score_reshape_0_split_0
I0421 18:41:03.921810 19966 net.cpp:408] rpn_cls_score_reshape_rpn_cls_score_reshape_0_split -> rpn_cls_score_reshape_rpn_cls_score_reshape_0_split_1
I0421 18:41:03.921819 19966 net.cpp:408] rpn_cls_score_reshape_rpn_cls_score_reshape_0_split -> rpn_cls_score_reshape_rpn_cls_score_reshape_0_split_2
I0421 18:41:03.921869 19966 net.cpp:150] Setting up rpn_cls_score_reshape_rpn_cls_score_reshape_0_split
I0421 18:41:03.921880 19966 net.cpp:157] Top shape: 1 2 3552 1 1 (7104)
I0421 18:41:03.921885 19966 net.cpp:157] Top shape: 1 2 3552 1 1 (7104)
I0421 18:41:03.921891 19966 net.cpp:157] Top shape: 1 2 3552 1 1 (7104)
I0421 18:41:03.921897 19966 net.cpp:165] Memory required for data: 10172390076
I0421 18:41:03.921903 19966 layer_factory.hpp:77] Creating layer rpn-data
I0421 18:41:03.922309 19966 net.cpp:100] Creating Layer rpn-data
I0421 18:41:03.922322 19966 net.cpp:434] rpn-data <- rpn_cls_score_rpn_cls_score_0_split_1
I0421 18:41:03.922329 19966 net.cpp:434] rpn-data <- gt_boxes_data_1_split_0
I0421 18:41:03.922338 19966 net.cpp:434] rpn-data <- data_data_0_split_1
I0421 18:41:03.922346 19966 net.cpp:408] rpn-data -> rpn_labels
I0421 18:41:03.922358 19966 net.cpp:408] rpn-data -> rpn_twin_targets
I0421 18:41:03.922369 19966 net.cpp:408] rpn-data -> rpn_twin_inside_weights
I0421 18:41:03.922379 19966 net.cpp:408] rpn-data -> rpn_twin_outside_weights
I0421 18:41:03.925024 19966 net.cpp:150] Setting up rpn-data
I0421 18:41:03.925040 19966 net.cpp:157] Top shape: 1 1 3552 1 1 (3552)
I0421 18:41:03.925047 19966 net.cpp:157] Top shape: 1 74 96 1 1 (7104)
I0421 18:41:03.925055 19966 net.cpp:157] Top shape: 1 74 96 1 1 (7104)
I0421 18:41:03.925063 19966 net.cpp:157] Top shape: 1 74 96 1 1 (7104)
I0421 18:41:03.925068 19966 net.cpp:165] Memory required for data: 10172489532
I0421 18:41:03.925076 19966 layer_factory.hpp:77] Creating layer rpn_labels_rpn-data_0_split
I0421 18:41:03.925086 19966 net.cpp:100] Creating Layer rpn_labels_rpn-data_0_split
I0421 18:41:03.925092 19966 net.cpp:434] rpn_labels_rpn-data_0_split <- rpn_labels
I0421 18:41:03.925101 19966 net.cpp:408] rpn_labels_rpn-data_0_split -> rpn_labels_rpn-data_0_split_0
I0421 18:41:03.925112 19966 net.cpp:408] rpn_labels_rpn-data_0_split -> rpn_labels_rpn-data_0_split_1
I0421 18:41:03.925159 19966 net.cpp:150] Setting up rpn_labels_rpn-data_0_split
I0421 18:41:03.925174 19966 net.cpp:157] Top shape: 1 1 3552 1 1 (3552)
I0421 18:41:03.925180 19966 net.cpp:157] Top shape: 1 1 3552 1 1 (3552)
I0421 18:41:03.925184 19966 net.cpp:165] Memory required for data: 10172517948
I0421 18:41:03.925187 19966 layer_factory.hpp:77] Creating layer rpn_loss_cls
I0421 18:41:03.925202 19966 net.cpp:100] Creating Layer rpn_loss_cls
I0421 18:41:03.925211 19966 net.cpp:434] rpn_loss_cls <- rpn_cls_score_reshape_rpn_cls_score_reshape_0_split_0
I0421 18:41:03.925220 19966 net.cpp:434] rpn_loss_cls <- rpn_labels_rpn-data_0_split_0
…
I0421 18:41:03.925884 19966 layer_factory.hpp:77] Creating layer rpn_accuarcy
I0421 18:41:03.925892 19966 net.cpp:100] Creating Layer rpn_accuarcy
I0421 18:41:03.925897 19966 net.cpp:434] rpn_accuarcy <- rpn_cls_score_reshape_rpn_cls_score_reshape_0_split_1
I0421 18:41:03.925902 19966 net.cpp:434] rpn_accuarcy <- rpn_labels_rpn-data_0_split_1
I0421 18:41:03.925909 19966 net.cpp:408] rpn_accuarcy -> rpn_accuarcy
I0421 18:41:03.925915 19966 net.cpp:408] rpn_accuarcy -> rpn_accuarcy_class
I0421 18:41:03.925951 19966 net.cpp:150] Setting up rpn_accuarcy
I0421 18:41:03.925958 19966 net.cpp:157] Top shape: (1)
I0421 18:41:03.925963 19966 net.cpp:157] Top shape: 2 (2)
I0421 18:41:03.925966 19966 net.cpp:165] Memory required for data: 10172517968
I0421 18:41:03.925971 19966 layer_factory.hpp:77] Creating layer rpn_cls_prob
I0421 18:41:03.925974 19966 net.cpp:100] Creating Layer rpn_cls_prob
I0421 18:41:03.925979 19966 net.cpp:434] rpn_cls_prob <- rpn_cls_score_reshape_rpn_cls_score_reshape_0_split_2
I0421 18:41:03.925985 19966 net.cpp:408] rpn_cls_prob -> rpn_cls_prob
I0421 18:41:03.926211 19966 net.cpp:150] Setting up rpn_cls_prob
I0421 18:41:03.926226 19966 net.cpp:157] Top shape: 1 2 3552 1 1 (7104)
I0421 18:41:03.926232 19966 net.cpp:165] Memory required for data: 10172546384
I0421 18:41:03.926235 19966 layer_factory.hpp:77] Creating layer rpn_cls_prob_reshape
I0421 18:41:03.926245 19966 net.cpp:100] Creating Layer rpn_cls_prob_reshape
I0421 18:41:03.926254 19966 net.cpp:434] rpn_cls_prob_reshape <- rpn_cls_prob
I0421 18:41:03.926266 19966 net.cpp:408] rpn_cls_prob_reshape -> rpn_cls_prob_reshape
I0421 18:41:03.926306 19966 net.cpp:150] Setting up rpn_cls_prob_reshape
I0421 18:41:03.926316 19966 net.cpp:157] Top shape: 1 74 96 1 1 (7104)
I0421 18:41:03.926318 19966 net.cpp:165] Memory required for data: 10172574800
I0421 18:41:03.926322 19966 layer_factory.hpp:77] Creating layer proposal
I0421 18:41:03.926918 19966 net.cpp:100] Creating Layer proposal
I0421 18:41:03.926931 19966 net.cpp:434] proposal <- rpn_cls_prob_reshape
I0421 18:41:03.926936 19966 net.cpp:434] proposal <- rpn_twin_pred_rpn_twin_pred_0_split_1
I0421 18:41:03.926944 19966 net.cpp:408] proposal -> rpn_rois
I0421 18:41:03.929314 19966 net.cpp:150] Setting up proposal
I0421 18:41:03.929327 19966 net.cpp:157] Top shape: 1 3 (3)
I0421 18:41:03.929332 19966 net.cpp:165] Memory required for data: 10172574812
I0421 18:41:03.929337 19966 layer_factory.hpp:77] Creating layer roi-data
I0421 18:41:03.929468 19966 net.cpp:100] Creating Layer roi-data
I0421 18:41:03.929479 19966 net.cpp:434] roi-data <- rpn_rois
I0421 18:41:03.929484 19966 net.cpp:434] roi-data <- gt_boxes_data_1_split_1
I0421 18:41:03.929491 19966 net.cpp:408] roi-data -> rois
I0421 18:41:03.929498 19966 net.cpp:408] roi-data -> labels
I0421 18:41:03.929505 19966 net.cpp:408] roi-data -> twin_targets
I0421 18:41:03.929512 19966 net.cpp:408] roi-data -> twin_inside_weights
I0421 18:41:03.929517 19966 net.cpp:408] roi-data -> twin_outside_weights
I0421 18:41:03.929818 19966 net.cpp:150] Setting up roi-data
I0421 18:41:03.929831 19966 net.cpp:157] Top shape: 1 3 (3)
I0421 18:41:03.929836 19966 net.cpp:157] Top shape: 1 200 (200)
I0421 18:41:03.929841 19966 net.cpp:157] Top shape: 1 400 (400)
I0421 18:41:03.929846 19966 net.cpp:157] Top shape: 1 400 (400)
I0421 18:41:03.929848 19966 net.cpp:157] Top shape: 1 400 (400)
I0421 18:41:03.929854 19966 net.cpp:165] Memory required for data: 10172580424
I0421 18:41:03.929859 19966 layer_factory.hpp:77] Creating layer labels_roi-data_1_split
I0421 18:41:03.929869 19966 net.cpp:100] Creating Layer labels_roi-data_1_split
I0421 18:41:03.929877 19966 net.cpp:434] labels_roi-data_1_split <- labels
I0421 18:41:03.929888 19966 net.cpp:408] labels_roi-data_1_split -> labels_roi-data_1_split_0
I0421 18:41:03.929899 19966 net.cpp:408] labels_roi-data_1_split -> labels_roi-data_1_split_1
I0421 18:41:03.929944 19966 net.cpp:150] Setting up labels_roi-data_1_split
I0421 18:41:03.929955 19966 net.cpp:157] Top shape: 1 200 (200)
I0421 18:41:03.929957 19966 net.cpp:157] Top shape: 1 200 (200)
I0421 18:41:03.929961 19966 net.cpp:165] Memory required for data: 10172582024
I0421 18:41:03.929965 19966 layer_factory.hpp:77] Creating layer roi_pool5
I0421 18:41:03.929975 19966 net.cpp:100] Creating Layer roi_pool5
I0421 18:41:03.929980 19966 net.cpp:434] roi_pool5 <- conv5b_relu5b_0_split_1
I0421 18:41:03.929985 19966 net.cpp:434] roi_pool5 <- rois
I0421 18:41:03.929991 19966 net.cpp:408] roi_pool5 -> pool5
I0421 18:41:03.929998 19966 roi_pooling_layer.cpp:34] Temporal scale: 0.125
I0421 18:41:03.930006 19966 roi_pooling_layer.cpp:35] Spatial scale: 0.0625
I0421 18:41:03.930038 19966 net.cpp:150] Setting up roi_pool5
I0421 18:41:03.930045 19966 net.cpp:157] Top shape: 1 512 1 4 4 (8192)
I0421 18:41:03.930048 19966 net.cpp:165] Memory required for data: 10172614792
I0421 18:41:03.930052 19966 layer_factory.hpp:77] Creating layer fc6
I0421 18:41:03.930061 19966 net.cpp:100] Creating Layer fc6
I0421 18:41:03.930064 19966 net.cpp:434] fc6 <- pool5
I0421 18:41:03.930070 19966 net.cpp:408] fc6 -> fc6
I0421 18:41:04.824738 19966 net.cpp:150] Setting up fc6
I0421 18:41:04.824761 19966 net.cpp:157] Top shape: 1 4096 (4096)
I0421 18:41:04.824765 19966 net.cpp:165] Memory required for data: 10172631176
I0421 18:41:04.824775 19966 layer_factory.hpp:77] Creating layer relu6
I0421 18:41:04.824784 19966 net.cpp:100] Creating Layer relu6
I0421 18:41:04.824790 19966 net.cpp:434] relu6 <- fc6
I0421 18:41:04.824795 19966 net.cpp:395] relu6 -> fc6 (in-place)
I0421 18:41:04.825273 19966 net.cpp:150] Setting up relu6
I0421 18:41:04.825286 19966 net.cpp:157] Top shape: 1 4096 (4096)
I0421 18:41:04.825290 19966 net.cpp:165] Memory required for data: 10172647560
I0421 18:41:04.825294 19966 layer_factory.hpp:77] Creating layer drop6
I0421 18:41:04.825305 19966 net.cpp:100] Creating Layer drop6
I0421 18:41:04.825311 19966 net.cpp:434] drop6 <- fc6
I0421 18:41:04.825317 19966 net.cpp:395] drop6 -> fc6 (in-place)
I0421 18:41:04.825345 19966 net.cpp:150] Setting up drop6
I0421 18:41:04.825352 19966 net.cpp:157] Top shape: 1 4096 (4096)
I0421 18:41:04.825358 19966 net.cpp:165] Memory required for data: 10172663944
I0421 18:41:04.825362 19966 layer_factory.hpp:77] Creating layer fc6_drop6_0_split
I0421 18:41:04.825367 19966 net.cpp:100] Creating Layer fc6_drop6_0_split
I0421 18:41:04.825371 19966 net.cpp:434] fc6_drop6_0_split <- fc6
I0421 18:41:04.825374 19966 net.cpp:408] fc6_drop6_0_split -> fc6_drop6_0_split_0
I0421 18:41:04.825379 19966 net.cpp:408] fc6_drop6_0_split -> fc6_drop6_0_split_1
I0421 18:41:04.825413 19966 net.cpp:150] Setting up fc6_drop6_0_split
I0421 18:41:04.825420 19966 net.cpp:157] Top shape: 1 4096 (4096)
I0421 18:41:04.825424 19966 net.cpp:157] Top shape: 1 4096 (4096)
I0421 18:41:04.825428 19966 net.cpp:165] Memory required for data: 10172696712
I0421 18:41:04.825430 19966 layer_factory.hpp:77] Creating layer cls_score
I0421 18:41:04.825438 19966 net.cpp:100] Creating Layer cls_score
I0421 18:41:04.825440 19966 net.cpp:434] cls_score <- fc6_drop6_0_split_0
I0421 18:41:04.825446 19966 net.cpp:408] cls_score -> cls_score
I0421 18:41:04.847205 19966 net.cpp:150] Setting up cls_score
I0421 18:41:04.847224 19966 net.cpp:157] Top shape: 1 200 (200)
I0421 18:41:04.847229 19966 net.cpp:165] Memory required for data: 10172697512
I0421 18:41:04.847235 19966 layer_factory.hpp:77] Creating layer cls_score_cls_score_0_split
I0421 18:41:04.847242 19966 net.cpp:100] Creating Layer cls_score_cls_score_0_split
I0421 18:41:04.847247 19966 net.cpp:434] cls_score_cls_score_0_split <- cls_score
I0421 18:41:04.847254 19966 net.cpp:408] cls_score_cls_score_0_split -> cls_score_cls_score_0_split_0
I0421 18:41:04.847260 19966 net.cpp:408] cls_score_cls_score_0_split -> cls_score_cls_score_0_split_1
I0421 18:41:04.847296 19966 net.cpp:150] Setting up cls_score_cls_score_0_split
I0421 18:41:04.847303 19966 net.cpp:157] Top shape: 1 200 (200)
I0421 18:41:04.847307 19966 net.cpp:157] Top shape: 1 200 (200)
I0421 18:41:04.847311 19966 net.cpp:165] Memory required for data: 10172699112
I0421 18:41:04.847313 19966 layer_factory.hpp:77] Creating layer twin_pred
I0421 18:41:04.847321 19966 net.cpp:100] Creating Layer twin_pred
I0421 18:41:04.847326 19966 net.cpp:434] twin_pred <- fc6_drop6_0_split_1
I0421 18:41:04.847332 19966 net.cpp:408] twin_pred -> twin_pred
I0421 18:41:04.892621 19966 net.cpp:150] Setting up twin_pred
I0421 18:41:04.892647 19966 net.cpp:157] Top shape: 1 400 (400)
I0421 18:41:04.892650 19966 net.cpp:165] Memory required for data: 10172700712
I0421 18:41:04.892659 19966 layer_factory.hpp:77] Creating layer loss_cls
I0421 18:41:04.892674 19966 net.cpp:100] Creating Layer loss_cls
I0421 18:41:04.892679 19966 net.cpp:434] loss_cls <- cls_score_cls_score_0_split_0
I0421 18:41:04.892685 19966 net.cpp:434] loss_cls <- labels_roi-data_1_split_0
I0421 18:41:04.892693 19966 net.cpp:408] loss_cls -> loss_cls
…
