…
stepsize: 350000
snapshot: 0
snapshot_prefix: "./experiments/activitynet/snapshot/activitynet"
average_loss: 100
iter_size: 1
I0418 04:33:13.145326 18462 solver.cpp:81] Creating training net from train_net file: ./experiments/activitynet/train.prototxt
I0418 04:33:13.146407 18462 net.cpp:58] Initializing net from parameters: 
name: "activitynet"
state {
  phase: TRAIN
}
layer {
  name: "data"
  type: "Python"
  top: "data"
  top: "gt_boxes"
  python_param {
    module: "roi_data_layer.layer"
    layer: "RoIDataLayer"
    param_str: "\'num_classes\': 100"
  }
}
layer {
  name: "conv1a"
  type: "Convolution"
  bottom: "data"
  top: "conv1a"
  param {
    lr_mult: 0
    decay_mult: 0
  }
  param {
    lr_mult: 0
    decay_mult: 0
  }
  convolution_param {
    num_output: 64
    pad: 1
    pad: 1
    pad: 1
    kernel_size: 3
    kernel_size: 3
    kernel_size: 3
    weight_filler {
      type: "gaussian"
      std: 0.01
    }
    bias_filler {
      type: "constant"
      value: 0
    }
  }
}
layer {
  name: "relu1a"
  type: "ReLU"
  bottom: "conv1a"
  top: "conv1a"
}
layer {
  name: "pool1"
  type: "Pooling"
  bottom: "conv1a"
  top: "pool1"
  pooling_param {
    pool: MAX
    kernel_size: 1
    kernel_size: 2
    kernel_size: 2
    stride: 1
    stride: 2
    stride: 2
  }
}
layer {
  name: "conv2a"
  type: "Convolution"
  bottom: "pool1"
  top: "conv2a"
  param {
    lr_mult: 0
    decay_mult: 0
  }
  param {
    lr_mult: 0
    decay_mult: 0
  }
  convolution_param {
    num_output: 128
    pad: 1
    pad: 1
    pad: 1
    kernel_size: 3
    kernel_size: 3
    kernel_size: 3
    weight_filler {
      type: "gaussian"
      std: 0.01
    }
    bias_filler {
      type: "constant"
      value: 1
    }
  }
}
layer {
  name: "relu2a"
  type: "ReLU"
  bottom: "conv2a"
  top: "conv2a"
}
layer {
  name: "pool2"
  type: "Pooling"
  bottom: "conv2a"
  top: "pool2"
  pooling_param {
    pool: MAX
    kernel_size: 2
    kernel_size: 2
    kernel_size: 2
    stride: 2
    stride: 2
    stride: 2
  }
}
layer {
  name: "conv3a"
  type: "Convolution"
  bottom: "pool2"
  top: "conv3a"
  param {
    lr_mult: 1
    decay_mult: 1
  }
  param {
    lr_mult: 2
    decay_mult: 0
  }
  convolution_param {
    num_output: 256
    pad: 1
    pad: 1
    pad: 1
    kernel_size: 3
    kernel_size: 3
    kernel_size: 3
    weight_filler {
      type: "gaussian"
      std: 0.01
    }
    bias_filler {
      type: "constant"
      value: 1
    }
  }
}
layer {
  name: "relu3a"
  type: "ReLU"
  bottom: "conv3a"
  top: "conv3a"
}
layer {
  name: "conv3b"
  type: "Convolution"
  bottom: "conv3a"
  top: "conv3b"
  param {
    lr_mult: 1
    decay_mult: 1
  }
  param {
    lr_mult: 2
    decay_mult: 0
  }
  convolution_param {
    num_output: 256
    pad: 1
    pad: 1
    pad: 1
    kernel_size: 3
    kernel_size: 3
    kernel_size: 3
    weight_filler {
      type: "gaussian"
      std: 0.01
    }
    bias_filler {
      type: "constant"
      value: 1
    }
  }
}
layer {
  name: "relu3b"
  type: "ReLU"
  bottom: "conv3b"
  top: "conv3b"
}
layer {
  name: "pool3"
  type: "Pooling"
  bottom: "conv3b"
  top: "pool3"
  pooling_param {
    pool: MAX
    kernel_size: 2
    kernel_size: 2
    kernel_size: 2
    stride: 2
    stride: 2
    stride: 2
  }
}
layer {
  name: "conv4a"
  type: "Convolution"
  bottom: "pool3"
  top: "conv4a"
  param {
    lr_mult: 1
    decay_mult: 1
  }
  param {
    lr_mult: 2
    decay_mult: 0
  }
  convolution_param {
    num_output: 512
    pad: 1
    pad: 1
    pad: 1
    kernel_size: 3
    kernel_size: 3
    kernel_size: 3
    weight_filler {
      type: "gaussian"
      std: 0.01
    }
    bias_filler {
      type: "constant"
      value: 1
    }
  }
}
layer {
  name: "relu4a"
  type: "ReLU"
  bottom: "conv4a"
  top: "conv4a"
}
layer {
  name: "conv4b"
  type: "Convolution"
  bottom: "conv4a"
  top: "conv4b"
  param {
    lr_mult: 1
    decay_mult: 1
  }
  param {
    lr_mult: 2
    decay_mult: 0
  }
  convolution_param {
    num_output: 512
    pad: 1
    pad: 1
    pad: 1
    kernel_size: 3
    kernel_size: 3
    kernel_size: 3
    weight_filler {
      type: "gaussian"
      std: 0.01
    }
    bias_filler {
      type: "constant"
      value: 1
    }
  }
}
layer {
  name: "relu4b"
  type: "ReLU"
  bottom: "conv4b"
  top: "conv4b"
}
layer {
  name: "pool4"
  type: "Pooling"
  bottom: "conv4b"
  top: "pool4"
  pooling_param {
    pool: MAX
    kernel_size: 2
    kernel_size: 2
    kernel_size: 2
    stride: 2
    stride: 2
    stride: 2
  }
}
layer {
  name: "conv5a"
  type: "Convolution"
  bottom: "pool4"
  top: "conv5a"
  param {
    lr_mult: 1
    decay_mult: 1
  }
  param {
    lr_mult: 2
    decay_mult: 0
  }
  convolution_param {
    num_output: 512
    pad: 1
    pad: 1
    pad: 1
    kernel_size: 3
    kernel_size: 3
    kernel_size: 3
    weight_filler {
      type: "gaussian"
      std: 0.01
    }
    bias_filler {
      type: "constant"
      value: 1
    }
  }
}
layer {
  name: "relu5a"
  type: "ReLU"
  bottom: "conv5a"
  top: "conv5a"
}
layer {
  name: "conv5b"
  type: "Convolution"
  bottom: "conv5a"
  top: "conv5b"
  param {
    lr_mult: 1
    decay_mult: 1
  }
  param {
    lr_mult: 2
    decay_mult: 0
  }
  convolution_param {
    num_output: 512
    pad: 1
    pad: 1
    pad: 1
    kernel_size: 3
    kernel_size: 3
    kernel_size: 3
    weight_filler {
      type: "gaussian"
      std: 0.01
    }
    bias_filler {
      type: "constant"
      value: 1
    }
  }
}
layer {
  name: "relu5b"
  type: "ReLU"
  bottom: "conv5b"
  top: "conv5b"
}
layer {
  name: "rpn_conv/3x3"
  type: "Convolution"
  bottom: "conv5b"
  top: "rpn/output"
  param {
    lr_mult: 1
    decay_mult: 1
  }
  param {
    lr_mult: 2
    decay_mult: 0
  }
  convolution_param {
    num_output: 512
    pad: 1
    pad: 1
    pad: 1
    kernel_size: 3
    kernel_size: 3
    kernel_size: 3
    stride: 1
    stride: 2
    stride: 2
    weight_filler {
      type: "gaussian"
      std: 0.01
    }
    bias_filler {
      type: "constant"
      value: 0
    }
  }
}
layer {
  name: "rpn_relu/3x3"
  type: "ReLU"
  bottom: "rpn/output"
  top: "rpn/output"
}
layer {
  name: "rpn_conv/3x3_2"
  type: "Convolution"
  bottom: "rpn/output"
  top: "rpn/output_2"
  param {
    lr_mult: 1
    decay_mult: 1
  }
  param {
    lr_mult: 2
    decay_mult: 0
  }
  convolution_param {
    num_output: 512
    pad: 1
    pad: 1
    pad: 1
    kernel_size: 3
    kernel_size: 3
    kernel_size: 3
    stride: 1
    stride: 2
    stride: 2
    weight_filler {
      type: "gaussian"
      std: 0.01
    }
    bias_filler {
      type: "constant"
      value: 0
    }
  }
}
layer {
  name: "rpn_relu/3x3_2"
  type: "ReLU"
  bottom: "rpn/output_2"
  top: "rpn/output_2"
}
layer {
  name: "rpn/output_pool"
  type: "Pooling"
  bottom: "rpn/output_2"
  top: "rpn/output_pool"
  pooling_param {
    pool: MAX
    kernel_size: 1
    kernel_size: 2
    kernel_size: 2
  }
}
layer {
  name: "rpn_cls_score"
  type: "Convolution"
  bottom: "rpn/output_pool"
  top: "rpn_cls_score"
  param {
    lr_mult: 1
    decay_mult: 1
  }
  param {
    lr_mult: 2
    decay_mult: 0
  }
  convolution_param {
    num_output: 74
    kernel_size: 1
    kernel_size: 1
    kernel_size: 1
    weight_filler {
      type: "gaussian"
      std: 0.01
    }
    bias_filler {
      type: "constant"
      value: 0
    }
  }
}
layer {
  name: "rpn_twin_pred"
  type: "Convolution"
  bottom: "rpn/output_pool"
  top: "rpn_twin_pred"
  param {
    lr_mult: 1
    decay_mult: 1
  }
  param {
    lr_mult: 2
    decay_mult: 0
  }
  convolution_param {
    num_output: 74
    kernel_size: 1
    kernel_size: 1
    kernel_size: 1
    weight_filler {
      type: "gaussian"
      std: 0.01
    }
    bias_filler {
      type: "constant"
      value: 0
    }
  }
}
layer {
  name: "rpn_cls_score_reshape"
  type: "Reshape"
  bottom: "rpn_cls_score"
  top: "rpn_cls_score_reshape"
  reshape_param {
    shape {
      dim: 0
      dim: 2
      dim: -1
      dim: 0
      dim: 0
    }
  }
}
layer {
  name: "rpn-data"
  type: "Python"
  bottom: "rpn_cls_score"
  bottom: "gt_boxes"
  bottom: "data"
  top: "rpn_labels"
  top: "rpn_twin_targets"
  top: "rpn_twin_inside_weights"
  top: "rpn_twin_outside_weights"
  python_param {
    module: "rpn.anchor_target_layer"
    layer: "AnchorTargetLayer"
    param_str: "\'feat_stride\': 8 \n\'scales\': !!python/tuple [1,1.25, 1.5,1.75, 2,2.5, 3,3.5, 4,4.5, 5,5.5, 6,7, 8,9,10,11,12,14,16,18,20,22,24,28,32,36,40,44,52,60,68,76,84,92,100]"
  }
}
layer {
  name: "rpn_loss_cls"
  type: "SoftmaxWithLoss"
  bottom: "rpn_cls_score_reshape"
  bottom: "rpn_labels"
  top: "rpn_cls_loss"
  loss_weight: 1
  propagate_down: true
  propagate_down: false
  loss_param {
    ignore_label: -1
    normalize: true
  }
}
layer {
  name: "rpn_loss_twin"
  type: "SmoothL1Loss"
  bottom: "rpn_twin_pred"
  bottom: "rpn_twin_targets"
  bottom: "rpn_twin_inside_weights"
  bottom: "rpn_twin_outside_weights"
  top: "rpn_loss_twin"
  loss_weight: 1
  smooth_l1_loss_param {
    sigma: 3
  }
}
layer {
  name: "rpn_accuarcy"
  type: "Accuracy"
  bottom: "rpn_cls_score_reshape"
  bottom: "rpn_labels"
  top: "rpn_accuarcy"
  top: "rpn_accuarcy_class"
  propagate_down: false
  propagate_down: false
  accuracy_param {
    ignore_label: -1
  }
}
layer {
  name: "rpn_cls_prob"
  type: "Softmax"
  bottom: "rpn_cls_score_reshape"
  top: "rpn_cls_prob"
}
layer {
  name: "rpn_cls_prob_reshape"
  type: "Reshape"
  bottom: "rpn_cls_prob"
  top: "rpn_cls_prob_reshape"
  reshape_param {
    shape {
      dim: 0
      dim: 74
      dim: -1
      dim: 0
      dim: 0
    }
  }
}
layer {
  name: "proposal"
  type: "Python"
  bottom: "rpn_cls_prob_reshape"
  bottom: "rpn_twin_pred"
  top: "rpn_rois"
  include {
    phase: TRAIN
  }
  python_param {
    module: "rpn.proposal_layer"
    layer: "ProposalLayer"
    param_str: "\'feat_stride\': 8 \n\'scales\': !!python/tuple [1,1.25, 1.5,1.75, 2,2.5, 3,3.5, 4,4.5, 5,5.5, 6,7, 8,9,10,11,12,14,16,18,20,22,24,28,32,36,40,44,52,60,68,76,84,92,100]"
  }
}
layer {
  name: "roi-data"
  type: "Python"
  bottom: "rpn_rois"
  bottom: "gt_boxes"
  top: "rois"
  top: "labels"
  top: "twin_targets"
  top: "twin_inside_weights"
  top: "twin_outside_weights"
  python_param {
    module: "rpn.proposal_target_layer"
    layer: "ProposalTargetLayer"
    param_str: "\'num_classes\': 99"
  }
}
layer {
  name: "roi_pool5"
  type: "ROIPooling"
  bottom: "conv5b"
  bottom: "rois"
  top: "pool5"
  roi_pooling_param {
    pooled_h: 4
    pooled_w: 4
    spatial_scale: 0.0625
    pooled_l: 1
    temporal_scale: 0.125
  }
}
layer {
  name: "fc6"
  type: "InnerProduct"
  bottom: "pool5"
  top: "fc6"
  param {
    lr_mult: 1
    decay_mult: 1
  }
  param {
    lr_mult: 2
    decay_mult: 0
  }
  inner_product_param {
    num_output: 4096
    weight_filler {
      type: "gaussian"
      std: 0.005
    }
    bias_filler {
      type: "constant"
      value: 1
    }
  }
}
layer {
  name: "relu6"
  type: "ReLU"
  bottom: "fc6"
  top: "fc6"
}
layer {
  name: "drop6"
  type: "Dropout"
  bottom: "fc6"
  top: "fc6"
  dropout_param {
    dropout_ratio: 0.5
  }
}
layer {
  name: "cls_score"
  type: "InnerProduct"
  bottom: "fc6"
  top: "cls_score"
  param {
    lr_mult: 1
    decay_mult: 1
  }
  param {
    lr_mult: 2
    decay_mult: 0
  }
  inner_product_param {
    num_output: 99
    weight_filler {
      type: "gaussian"
      std: 0.01
    }
    bias_filler {
      type: "constant"
      value: 0
    }
  }
}
layer {
  name: "twin_pred"
  type: "InnerProduct"
  bottom: "fc6"
  top: "twin_pred"
  param {
    lr_mult: 1
    decay_mult: 1
  }
  param {
    lr_mult: 2
    decay_mult: 0
  }
  inner_product_param {
    num_output: 198
    weight_filler {
      type: "gaussian"
      std: 0.001
    }
    bias_filler {
      type: "constant"
      value: 0
    }
  }
}
layer {
  name: "loss_twin"
  type: "SmoothL1Loss"
  bottom: "twin_pred"
  bottom: "twin_targets"
  bottom: "twin_inside_weights"
  bottom: "twin_outside_weights"
  top: "loss_twin"
  loss_weight: 1
}
layer {
  name: "accuarcy"
  type: "Accuracy"
  bottom: "cls_score"
  bottom: "labels"
  top: "accuarcy"
  propagate_down: false
  propagate_down: false
  accuracy_param {
    ignore_label: -1
  }
}
I0418 04:33:13.146608 18462 layer_factory.hpp:77] Creating layer data
I0418 04:33:13.171175 18462 net.cpp:100] Creating Layer data
I0418 04:33:13.171197 18462 net.cpp:408] data -> data
I0418 04:33:13.171211 18462 net.cpp:408] data -> gt_boxes
setting up
has rpn
RoiDataLayer: name_to_top: {'gt_windows': 1, 'data': 0}
I0418 04:33:13.185413 18462 net.cpp:150] Setting up data
I0418 04:33:13.185436 18462 net.cpp:157] Top shape: 1 3 768 112 112 (28901376)
I0418 04:33:13.185441 18462 net.cpp:157] Top shape: 1 101 (101)
I0418 04:33:13.185444 18462 net.cpp:165] Memory required for data: 115605908
I0418 04:33:13.185451 18462 layer_factory.hpp:77] Creating layer data_data_0_split
I0418 04:33:13.185461 18462 net.cpp:100] Creating Layer data_data_0_split
I0418 04:33:13.185467 18462 net.cpp:434] data_data_0_split <- data
I0418 04:33:13.185472 18462 net.cpp:408] data_data_0_split -> data_data_0_split_0
I0418 04:33:13.185482 18462 net.cpp:408] data_data_0_split -> data_data_0_split_1
I0418 04:33:13.185511 18462 net.cpp:150] Setting up data_data_0_split
I0418 04:33:13.185519 18462 net.cpp:157] Top shape: 1 3 768 112 112 (28901376)
I0418 04:33:13.185524 18462 net.cpp:157] Top shape: 1 3 768 112 112 (28901376)
I0418 04:33:13.185528 18462 net.cpp:165] Memory required for data: 346816916
I0418 04:33:13.185531 18462 layer_factory.hpp:77] Creating layer gt_boxes_data_1_split
I0418 04:33:13.185537 18462 net.cpp:100] Creating Layer gt_boxes_data_1_split
I0418 04:33:13.185541 18462 net.cpp:434] gt_boxes_data_1_split <- gt_boxes
I0418 04:33:13.185545 18462 net.cpp:408] gt_boxes_data_1_split -> gt_boxes_data_1_split_0
I0418 04:33:13.185551 18462 net.cpp:408] gt_boxes_data_1_split -> gt_boxes_data_1_split_1
I0418 04:33:13.185576 18462 net.cpp:150] Setting up gt_boxes_data_1_split
I0418 04:33:13.185581 18462 net.cpp:157] Top shape: 1 101 (101)
I0418 04:33:13.185585 18462 net.cpp:157] Top shape: 1 101 (101)
I0418 04:33:13.185588 18462 net.cpp:165] Memory required for data: 346817724
I0418 04:33:13.185592 18462 layer_factory.hpp:77] Creating layer conv1a
I0418 04:33:13.185606 18462 net.cpp:100] Creating Layer conv1a
I0418 04:33:13.185611 18462 net.cpp:434] conv1a <- data_data_0_split_0
I0418 04:33:13.185617 18462 net.cpp:408] conv1a -> conv1a
I0418 04:33:13.376691 18462 net.cpp:150] Setting up conv1a
I0418 04:33:13.376720 18462 net.cpp:157] Top shape: 1 64 768 112 112 (616562688)
I0418 04:33:13.376724 18462 net.cpp:165] Memory required for data: 2813068476
I0418 04:33:13.376744 18462 layer_factory.hpp:77] Creating layer relu1a
I0418 04:33:13.376757 18462 net.cpp:100] Creating Layer relu1a
I0418 04:33:13.376762 18462 net.cpp:434] relu1a <- conv1a
I0418 04:33:13.376768 18462 net.cpp:395] relu1a -> conv1a (in-place)
I0418 04:33:13.377192 18462 net.cpp:150] Setting up relu1a
I0418 04:33:13.377205 18462 net.cpp:157] Top shape: 1 64 768 112 112 (616562688)
I0418 04:33:13.377209 18462 net.cpp:165] Memory required for data: 5279319228
I0418 04:33:13.377214 18462 layer_factory.hpp:77] Creating layer pool1
I0418 04:33:13.377223 18462 net.cpp:100] Creating Layer pool1
I0418 04:33:13.377228 18462 net.cpp:434] pool1 <- conv1a
I0418 04:33:13.377233 18462 net.cpp:408] pool1 -> pool1
I0418 04:33:13.377411 18462 net.cpp:150] Setting up pool1
I0418 04:33:13.377423 18462 net.cpp:157] Top shape: 1 64 768 56 56 (154140672)
I0418 04:33:13.377426 18462 net.cpp:165] Memory required for data: 5895881916
I0418 04:33:13.377430 18462 layer_factory.hpp:77] Creating layer conv2a
I0418 04:33:13.377442 18462 net.cpp:100] Creating Layer conv2a
I0418 04:33:13.377449 18462 net.cpp:434] conv2a <- pool1
I0418 04:33:13.377454 18462 net.cpp:408] conv2a -> conv2a
I0418 04:33:13.391060 18462 net.cpp:150] Setting up conv2a
I0418 04:33:13.391084 18462 net.cpp:157] Top shape: 1 128 768 56 56 (308281344)
I0418 04:33:13.391089 18462 net.cpp:165] Memory required for data: 7129007292
I0418 04:33:13.391103 18462 layer_factory.hpp:77] Creating layer relu2a
I0418 04:33:13.391114 18462 net.cpp:100] Creating Layer relu2a
I0418 04:33:13.391119 18462 net.cpp:434] relu2a <- conv2a
I0418 04:33:13.391129 18462 net.cpp:395] relu2a -> conv2a (in-place)
I0418 04:33:13.391857 18462 net.cpp:150] Setting up relu2a
I0418 04:33:13.391870 18462 net.cpp:157] Top shape: 1 128 768 56 56 (308281344)
I0418 04:33:13.391875 18462 net.cpp:165] Memory required for data: 8362132668
I0418 04:33:13.391880 18462 layer_factory.hpp:77] Creating layer pool2
I0418 04:33:13.391890 18462 net.cpp:100] Creating Layer pool2
I0418 04:33:13.391893 18462 net.cpp:434] pool2 <- conv2a
I0418 04:33:13.391899 18462 net.cpp:408] pool2 -> pool2
I0418 04:33:13.392074 18462 net.cpp:150] Setting up pool2
I0418 04:33:13.392086 18462 net.cpp:157] Top shape: 1 128 384 28 28 (38535168)
I0418 04:33:13.392089 18462 net.cpp:165] Memory required for data: 8516273340
I0418 04:33:13.392092 18462 layer_factory.hpp:77] Creating layer conv3a
I0418 04:33:13.392104 18462 net.cpp:100] Creating Layer conv3a
I0418 04:33:13.392110 18462 net.cpp:434] conv3a <- pool2
I0418 04:33:13.392117 18462 net.cpp:408] conv3a -> conv3a
I0418 04:33:13.420931 18462 net.cpp:150] Setting up conv3a
I0418 04:33:13.420954 18462 net.cpp:157] Top shape: 1 256 384 28 28 (77070336)
I0418 04:33:13.420959 18462 net.cpp:165] Memory required for data: 8824554684
I0418 04:33:13.420979 18462 layer_factory.hpp:77] Creating layer relu3a
I0418 04:33:13.420987 18462 net.cpp:100] Creating Layer relu3a
I0418 04:33:13.420992 18462 net.cpp:434] relu3a <- conv3a
I0418 04:33:13.420999 18462 net.cpp:395] relu3a -> conv3a (in-place)
I0418 04:33:13.421288 18462 net.cpp:150] Setting up relu3a
I0418 04:33:13.421300 18462 net.cpp:157] Top shape: 1 256 384 28 28 (77070336)
I0418 04:33:13.421304 18462 net.cpp:165] Memory required for data: 9132836028
I0418 04:33:13.421308 18462 layer_factory.hpp:77] Creating layer conv3b
I0418 04:33:13.421319 18462 net.cpp:100] Creating Layer conv3b
I0418 04:33:13.421324 18462 net.cpp:434] conv3b <- conv3a
I0418 04:33:13.421330 18462 net.cpp:408] conv3b -> conv3b
I0418 04:33:13.470337 18462 net.cpp:150] Setting up conv3b
I0418 04:33:13.470360 18462 net.cpp:157] Top shape: 1 256 384 28 28 (77070336)
I0418 04:33:13.470365 18462 net.cpp:165] Memory required for data: 9441117372
I0418 04:33:13.470373 18462 layer_factory.hpp:77] Creating layer relu3b
I0418 04:33:13.470382 18462 net.cpp:100] Creating Layer relu3b
I0418 04:33:13.470386 18462 net.cpp:434] relu3b <- conv3b
I0418 04:33:13.470393 18462 net.cpp:395] relu3b -> conv3b (in-place)
I0418 04:33:13.470695 18462 net.cpp:150] Setting up relu3b
I0418 04:33:13.470708 18462 net.cpp:157] Top shape: 1 256 384 28 28 (77070336)
I0418 04:33:13.470712 18462 net.cpp:165] Memory required for data: 9749398716
I0418 04:33:13.470716 18462 layer_factory.hpp:77] Creating layer pool3
I0418 04:33:13.470723 18462 net.cpp:100] Creating Layer pool3
I0418 04:33:13.470728 18462 net.cpp:434] pool3 <- conv3b
I0418 04:33:13.470734 18462 net.cpp:408] pool3 -> pool3
I0418 04:33:13.470918 18462 net.cpp:150] Setting up pool3
I0418 04:33:13.470930 18462 net.cpp:157] Top shape: 1 256 192 14 14 (9633792)
I0418 04:33:13.470934 18462 net.cpp:165] Memory required for data: 9787933884
I0418 04:33:13.470938 18462 layer_factory.hpp:77] Creating layer conv4a
I0418 04:33:13.470949 18462 net.cpp:100] Creating Layer conv4a
I0418 04:33:13.470953 18462 net.cpp:434] conv4a <- pool3
I0418 04:33:13.470960 18462 net.cpp:408] conv4a -> conv4a
I0418 04:33:13.568013 18462 net.cpp:150] Setting up conv4a
I0418 04:33:13.568037 18462 net.cpp:157] Top shape: 1 512 192 14 14 (19267584)
I0418 04:33:13.568042 18462 net.cpp:165] Memory required for data: 9865004220
I0418 04:33:13.568054 18462 layer_factory.hpp:77] Creating layer relu4a
I0418 04:33:13.568065 18462 net.cpp:100] Creating Layer relu4a
I0418 04:33:13.568071 18462 net.cpp:434] relu4a <- conv4a
I0418 04:33:13.568078 18462 net.cpp:395] relu4a -> conv4a (in-place)
I0418 04:33:13.568387 18462 net.cpp:150] Setting up relu4a
I0418 04:33:13.568399 18462 net.cpp:157] Top shape: 1 512 192 14 14 (19267584)
I0418 04:33:13.568403 18462 net.cpp:165] Memory required for data: 9942074556
I0418 04:33:13.568408 18462 layer_factory.hpp:77] Creating layer conv4b
I0418 04:33:13.568420 18462 net.cpp:100] Creating Layer conv4b
I0418 04:33:13.568424 18462 net.cpp:434] conv4b <- conv4a
I0418 04:33:13.568431 18462 net.cpp:408] conv4b -> conv4b
I0418 04:33:13.758143 18462 net.cpp:150] Setting up conv4b
I0418 04:33:13.758167 18462 net.cpp:157] Top shape: 1 512 192 14 14 (19267584)
I0418 04:33:13.758172 18462 net.cpp:165] Memory required for data: 10019144892
I0418 04:33:13.758182 18462 layer_factory.hpp:77] Creating layer relu4b
I0418 04:33:13.758190 18462 net.cpp:100] Creating Layer relu4b
I0418 04:33:13.758194 18462 net.cpp:434] relu4b <- conv4b
I0418 04:33:13.758200 18462 net.cpp:395] relu4b -> conv4b (in-place)
I0418 04:33:13.758354 18462 net.cpp:150] Setting up relu4b
I0418 04:33:13.758365 18462 net.cpp:157] Top shape: 1 512 192 14 14 (19267584)
I0418 04:33:13.758369 18462 net.cpp:165] Memory required for data: 10096215228
I0418 04:33:13.758373 18462 layer_factory.hpp:77] Creating layer pool4
I0418 04:33:13.758379 18462 net.cpp:100] Creating Layer pool4
I0418 04:33:13.758383 18462 net.cpp:434] pool4 <- conv4b
I0418 04:33:13.758389 18462 net.cpp:408] pool4 -> pool4
I0418 04:33:13.758708 18462 net.cpp:150] Setting up pool4
I0418 04:33:13.758720 18462 net.cpp:157] Top shape: 1 512 96 7 7 (2408448)
I0418 04:33:13.758724 18462 net.cpp:165] Memory required for data: 10105849020
I0418 04:33:13.758728 18462 layer_factory.hpp:77] Creating layer conv5a
I0418 04:33:13.758739 18462 net.cpp:100] Creating Layer conv5a
I0418 04:33:13.758744 18462 net.cpp:434] conv5a <- pool4
I0418 04:33:13.758750 18462 net.cpp:408] conv5a -> conv5a
I0418 04:33:13.944751 18462 net.cpp:150] Setting up conv5a
I0418 04:33:13.944785 18462 net.cpp:157] Top shape: 1 512 96 7 7 (2408448)
I0418 04:33:13.944789 18462 net.cpp:165] Memory required for data: 10115482812
I0418 04:33:13.944798 18462 layer_factory.hpp:77] Creating layer relu5a
I0418 04:33:13.944808 18462 net.cpp:100] Creating Layer relu5a
I0418 04:33:13.944813 18462 net.cpp:434] relu5a <- conv5a
I0418 04:33:13.944819 18462 net.cpp:395] relu5a -> conv5a (in-place)
I0418 04:33:13.945343 18462 net.cpp:150] Setting up relu5a
I0418 04:33:13.945354 18462 net.cpp:157] Top shape: 1 512 96 7 7 (2408448)
I0418 04:33:13.945358 18462 net.cpp:165] Memory required for data: 10125116604
I0418 04:33:13.945363 18462 layer_factory.hpp:77] Creating layer conv5b
I0418 04:33:13.945374 18462 net.cpp:100] Creating Layer conv5b
I0418 04:33:13.945377 18462 net.cpp:434] conv5b <- conv5a
I0418 04:33:13.945384 18462 net.cpp:408] conv5b -> conv5b
I0418 04:33:14.134990 18462 net.cpp:150] Setting up conv5b
I0418 04:33:14.135015 18462 net.cpp:157] Top shape: 1 512 96 7 7 (2408448)
I0418 04:33:14.135018 18462 net.cpp:165] Memory required for data: 10134750396
I0418 04:33:14.135027 18462 layer_factory.hpp:77] Creating layer relu5b
I0418 04:33:14.135036 18462 net.cpp:100] Creating Layer relu5b
I0418 04:33:14.135041 18462 net.cpp:434] relu5b <- conv5b
I0418 04:33:14.135047 18462 net.cpp:395] relu5b -> conv5b (in-place)
I0418 04:33:14.135202 18462 net.cpp:150] Setting up relu5b
I0418 04:33:14.135212 18462 net.cpp:157] Top shape: 1 512 96 7 7 (2408448)
I0418 04:33:14.135216 18462 net.cpp:165] Memory required for data: 10144384188
I0418 04:33:14.135221 18462 layer_factory.hpp:77] Creating layer conv5b_relu5b_0_split
I0418 04:33:14.135226 18462 net.cpp:100] Creating Layer conv5b_relu5b_0_split
I0418 04:33:14.135229 18462 net.cpp:434] conv5b_relu5b_0_split <- conv5b
I0418 04:33:14.135234 18462 net.cpp:408] conv5b_relu5b_0_split -> conv5b_relu5b_0_split_0
I0418 04:33:14.135242 18462 net.cpp:408] conv5b_relu5b_0_split -> conv5b_relu5b_0_split_1
I0418 04:33:14.135277 18462 net.cpp:150] Setting up conv5b_relu5b_0_split
I0418 04:33:14.135284 18462 net.cpp:157] Top shape: 1 512 96 7 7 (2408448)
I0418 04:33:14.135289 18462 net.cpp:157] Top shape: 1 512 96 7 7 (2408448)
I0418 04:33:14.135293 18462 net.cpp:165] Memory required for data: 10163651772
I0418 04:33:14.135296 18462 layer_factory.hpp:77] Creating layer rpn_conv/3x3
I0418 04:33:14.135308 18462 net.cpp:100] Creating Layer rpn_conv/3x3
I0418 04:33:14.135314 18462 net.cpp:434] rpn_conv/3x3 <- conv5b_relu5b_0_split_0
I0418 04:33:14.135319 18462 net.cpp:408] rpn_conv/3x3 -> rpn/output
I0418 04:33:14.326553 18462 net.cpp:150] Setting up rpn_conv/3x3
I0418 04:33:14.326578 18462 net.cpp:157] Top shape: 1 512 96 4 4 (786432)
I0418 04:33:14.326582 18462 net.cpp:165] Memory required for data: 10166797500
I0418 04:33:14.326597 18462 layer_factory.hpp:77] Creating layer rpn_relu/3x3
I0418 04:33:14.326607 18462 net.cpp:100] Creating Layer rpn_relu/3x3
I0418 04:33:14.326612 18462 net.cpp:434] rpn_relu/3x3 <- rpn/output
I0418 04:33:14.326617 18462 net.cpp:395] rpn_relu/3x3 -> rpn/output (in-place)
I0418 04:33:14.326925 18462 net.cpp:150] Setting up rpn_relu/3x3
I0418 04:33:14.326938 18462 net.cpp:157] Top shape: 1 512 96 4 4 (786432)
I0418 04:33:14.326941 18462 net.cpp:165] Memory required for data: 10169943228
I0418 04:33:14.326946 18462 layer_factory.hpp:77] Creating layer rpn_conv/3x3_2
I0418 04:33:14.326958 18462 net.cpp:100] Creating Layer rpn_conv/3x3_2
I0418 04:33:14.326962 18462 net.cpp:434] rpn_conv/3x3_2 <- rpn/output
I0418 04:33:14.326968 18462 net.cpp:408] rpn_conv/3x3_2 -> rpn/output_2
I0418 04:33:14.512933 18462 net.cpp:150] Setting up rpn_conv/3x3_2
I0418 04:33:14.512958 18462 net.cpp:157] Top shape: 1 512 96 2 2 (196608)
I0418 04:33:14.512961 18462 net.cpp:165] Memory required for data: 10170729660
I0418 04:33:14.512971 18462 layer_factory.hpp:77] Creating layer rpn_relu/3x3_2
I0418 04:33:14.512980 18462 net.cpp:100] Creating Layer rpn_relu/3x3_2
I0418 04:33:14.512985 18462 net.cpp:434] rpn_relu/3x3_2 <- rpn/output_2
I0418 04:33:14.512992 18462 net.cpp:395] rpn_relu/3x3_2 -> rpn/output_2 (in-place)
I0418 04:33:14.513329 18462 net.cpp:150] Setting up rpn_relu/3x3_2
I0418 04:33:14.513341 18462 net.cpp:157] Top shape: 1 512 96 2 2 (196608)
I0418 04:33:14.513345 18462 net.cpp:165] Memory required for data: 10171516092
I0418 04:33:14.513348 18462 layer_factory.hpp:77] Creating layer rpn/output_pool
I0418 04:33:14.513357 18462 net.cpp:100] Creating Layer rpn/output_pool
I0418 04:33:14.513361 18462 net.cpp:434] rpn/output_pool <- rpn/output_2
I0418 04:33:14.513366 18462 net.cpp:408] rpn/output_pool -> rpn/output_pool
I0418 04:33:14.513551 18462 net.cpp:150] Setting up rpn/output_pool
I0418 04:33:14.513562 18462 net.cpp:157] Top shape: 1 512 96 1 1 (49152)
I0418 04:33:14.513566 18462 net.cpp:165] Memory required for data: 10171712700
I0418 04:33:14.513569 18462 layer_factory.hpp:77] Creating layer rpn/output_pool_rpn/output_pool_0_split
I0418 04:33:14.513576 18462 net.cpp:100] Creating Layer rpn/output_pool_rpn/output_pool_0_split
I0418 04:33:14.513581 18462 net.cpp:434] rpn/output_pool_rpn/output_pool_0_split <- rpn/output_pool
I0418 04:33:14.513584 18462 net.cpp:408] rpn/output_pool_rpn/output_pool_0_split -> rpn/output_pool_rpn/output_pool_0_split_0
I0418 04:33:14.513592 18462 net.cpp:408] rpn/output_pool_rpn/output_pool_0_split -> rpn/output_pool_rpn/output_pool_0_split_1
I0418 04:33:14.513622 18462 net.cpp:150] Setting up rpn/output_pool_rpn/output_pool_0_split
I0418 04:33:14.513629 18462 net.cpp:157] Top shape: 1 512 96 1 1 (49152)
I0418 04:33:14.513633 18462 net.cpp:157] Top shape: 1 512 96 1 1 (49152)
I0418 04:33:14.513638 18462 net.cpp:165] Memory required for data: 10172105916
I0418 04:33:14.513640 18462 layer_factory.hpp:77] Creating layer rpn_cls_score
I0418 04:33:14.513650 18462 net.cpp:100] Creating Layer rpn_cls_score
I0418 04:33:14.513656 18462 net.cpp:434] rpn_cls_score <- rpn/output_pool_rpn/output_pool_0_split_0
I0418 04:33:14.513664 18462 net.cpp:408] rpn_cls_score -> rpn_cls_score
I0418 04:33:14.515707 18462 net.cpp:150] Setting up rpn_cls_score
I0418 04:33:14.515722 18462 net.cpp:157] Top shape: 1 74 96 1 1 (7104)
I0418 04:33:14.515725 18462 net.cpp:165] Memory required for data: 10172134332
I0418 04:33:14.515733 18462 layer_factory.hpp:77] Creating layer rpn_cls_score_rpn_cls_score_0_split
I0418 04:33:14.515739 18462 net.cpp:100] Creating Layer rpn_cls_score_rpn_cls_score_0_split
I0418 04:33:14.515744 18462 net.cpp:434] rpn_cls_score_rpn_cls_score_0_split <- rpn_cls_score
I0418 04:33:14.515749 18462 net.cpp:408] rpn_cls_score_rpn_cls_score_0_split -> rpn_cls_score_rpn_cls_score_0_split_0
I0418 04:33:14.515755 18462 net.cpp:408] rpn_cls_score_rpn_cls_score_0_split -> rpn_cls_score_rpn_cls_score_0_split_1
I0418 04:33:14.515800 18462 net.cpp:150] Setting up rpn_cls_score_rpn_cls_score_0_split
I0418 04:33:14.515810 18462 net.cpp:157] Top shape: 1 74 96 1 1 (7104)
I0418 04:33:14.515813 18462 net.cpp:157] Top shape: 1 74 96 1 1 (7104)
I0418 04:33:14.515816 18462 net.cpp:165] Memory required for data: 10172191164
I0418 04:33:14.515820 18462 layer_factory.hpp:77] Creating layer rpn_twin_pred
I0418 04:33:14.515835 18462 net.cpp:100] Creating Layer rpn_twin_pred
I0418 04:33:14.515841 18462 net.cpp:434] rpn_twin_pred <- rpn/output_pool_rpn/output_pool_0_split_1
I0418 04:33:14.515848 18462 net.cpp:408] rpn_twin_pred -> rpn_twin_pred
I0418 04:33:14.517742 18462 net.cpp:150] Setting up rpn_twin_pred
I0418 04:33:14.517757 18462 net.cpp:157] Top shape: 1 74 96 1 1 (7104)
I0418 04:33:14.517761 18462 net.cpp:165] Memory required for data: 10172219580
I0418 04:33:14.517768 18462 layer_factory.hpp:77] Creating layer rpn_twin_pred_rpn_twin_pred_0_split
I0418 04:33:14.517776 18462 net.cpp:100] Creating Layer rpn_twin_pred_rpn_twin_pred_0_split
I0418 04:33:14.517778 18462 net.cpp:434] rpn_twin_pred_rpn_twin_pred_0_split <- rpn_twin_pred
I0418 04:33:14.517786 18462 net.cpp:408] rpn_twin_pred_rpn_twin_pred_0_split -> rpn_twin_pred_rpn_twin_pred_0_split_0
I0418 04:33:14.517794 18462 net.cpp:408] rpn_twin_pred_rpn_twin_pred_0_split -> rpn_twin_pred_rpn_twin_pred_0_split_1
I0418 04:33:14.517828 18462 net.cpp:150] Setting up rpn_twin_pred_rpn_twin_pred_0_split
I0418 04:33:14.517843 18462 net.cpp:157] Top shape: 1 74 96 1 1 (7104)
I0418 04:33:14.517846 18462 net.cpp:157] Top shape: 1 74 96 1 1 (7104)
I0418 04:33:14.517850 18462 net.cpp:165] Memory required for data: 10172276412
I0418 04:33:14.517853 18462 layer_factory.hpp:77] Creating layer rpn_cls_score_reshape
I0418 04:33:14.517864 18462 net.cpp:100] Creating Layer rpn_cls_score_reshape
I0418 04:33:14.517870 18462 net.cpp:434] rpn_cls_score_reshape <- rpn_cls_score_rpn_cls_score_0_split_0
I0418 04:33:14.517875 18462 net.cpp:408] rpn_cls_score_reshape -> rpn_cls_score_reshape
I0418 04:33:14.517904 18462 net.cpp:150] Setting up rpn_cls_score_reshape
I0418 04:33:14.517912 18462 net.cpp:157] Top shape: 1 2 3552 1 1 (7104)
I0418 04:33:14.517915 18462 net.cpp:165] Memory required for data: 10172304828
I0418 04:33:14.517918 18462 layer_factory.hpp:77] Creating layer rpn_cls_score_reshape_rpn_cls_score_reshape_0_split
I0418 04:33:14.517925 18462 net.cpp:100] Creating Layer rpn_cls_score_reshape_rpn_cls_score_reshape_0_split
I0418 04:33:14.517928 18462 net.cpp:434] rpn_cls_score_reshape_rpn_cls_score_reshape_0_split <- rpn_cls_score_reshape
I0418 04:33:14.517933 18462 net.cpp:408] rpn_cls_score_reshape_rpn_cls_score_reshape_0_split -> rpn_cls_score_reshape_rpn_cls_score_reshape_0_split_0
I0418 04:33:14.517941 18462 net.cpp:408] rpn_cls_score_reshape_rpn_cls_score_reshape_0_split -> rpn_cls_score_reshape_rpn_cls_score_reshape_0_split_1
I0418 04:33:14.517949 18462 net.cpp:408] rpn_cls_score_reshape_rpn_cls_score_reshape_0_split -> rpn_cls_score_reshape_rpn_cls_score_reshape_0_split_2
I0418 04:33:14.517989 18462 net.cpp:150] Setting up rpn_cls_score_reshape_rpn_cls_score_reshape_0_split
I0418 04:33:14.517997 18462 net.cpp:157] Top shape: 1 2 3552 1 1 (7104)
I0418 04:33:14.518000 18462 net.cpp:157] Top shape: 1 2 3552 1 1 (7104)
I0418 04:33:14.518004 18462 net.cpp:157] Top shape: 1 2 3552 1 1 (7104)
I0418 04:33:14.518007 18462 net.cpp:165] Memory required for data: 10172390076
I0418 04:33:14.518010 18462 layer_factory.hpp:77] Creating layer rpn-data
I0418 04:33:14.518399 18462 net.cpp:100] Creating Layer rpn-data
I0418 04:33:14.518411 18462 net.cpp:434] rpn-data <- rpn_cls_score_rpn_cls_score_0_split_1
I0418 04:33:14.518417 18462 net.cpp:434] rpn-data <- gt_boxes_data_1_split_0
I0418 04:33:14.518424 18462 net.cpp:434] rpn-data <- data_data_0_split_1
I0418 04:33:14.518429 18462 net.cpp:408] rpn-data -> rpn_labels
I0418 04:33:14.518436 18462 net.cpp:408] rpn-data -> rpn_twin_targets
I0418 04:33:14.518442 18462 net.cpp:408] rpn-data -> rpn_twin_inside_weights
I0418 04:33:14.518448 18462 net.cpp:408] rpn-data -> rpn_twin_outside_weights
I0418 04:33:14.520678 18462 net.cpp:150] Setting up rpn-data
I0418 04:33:14.520695 18462 net.cpp:157] Top shape: 1 1 3552 1 1 (3552)
I0418 04:33:14.520700 18462 net.cpp:157] Top shape: 1 74 96 1 1 (7104)
I0418 04:33:14.520704 18462 net.cpp:157] Top shape: 1 74 96 1 1 (7104)
I0418 04:33:14.520707 18462 net.cpp:157] Top shape: 1 74 96 1 1 (7104)
I0418 04:33:14.520710 18462 net.cpp:165] Memory required for data: 10172489532
I0418 04:33:14.520714 18462 layer_factory.hpp:77] Creating layer rpn_labels_rpn-data_0_split
I0418 04:33:14.520720 18462 net.cpp:100] Creating Layer rpn_labels_rpn-data_0_split
I0418 04:33:14.520725 18462 net.cpp:434] rpn_labels_rpn-data_0_split <- rpn_labels
I0418 04:33:14.520730 18462 net.cpp:408] rpn_labels_rpn-data_0_split -> rpn_labels_rpn-data_0_split_0
I0418 04:33:14.520736 18462 net.cpp:408] rpn_labels_rpn-data_0_split -> rpn_labels_rpn-data_0_split_1
I0418 04:33:14.520768 18462 net.cpp:150] Setting up rpn_labels_rpn-data_0_split
I0418 04:33:14.520777 18462 net.cpp:157] Top shape: 1 1 3552 1 1 (3552)
I0418 04:33:14.520781 18462 net.cpp:157] Top shape: 1 1 3552 1 1 (3552)
I0418 04:33:14.520784 18462 net.cpp:165] Memory required for data: 10172517948
I0418 04:33:14.520788 18462 layer_factory.hpp:77] Creating layer rpn_loss_cls
I0418 04:33:14.520797 18462 net.cpp:100] Creating Layer rpn_loss_cls
I0418 04:33:14.520804 18462 net.cpp:434] rpn_loss_cls <- rpn_cls_score_reshape_rpn_cls_score_reshape_0_split_0
I0418 04:33:14.520808 18462 net.cpp:434] rpn_loss_cls <- rpn_labels_rpn-data_0_split_0
…
I0418 04:33:14.521360 18462 layer_factory.hpp:77] Creating layer rpn_accuarcy
I0418 04:33:14.521368 18462 net.cpp:100] Creating Layer rpn_accuarcy
I0418 04:33:14.521374 18462 net.cpp:434] rpn_accuarcy <- rpn_cls_score_reshape_rpn_cls_score_reshape_0_split_1
I0418 04:33:14.521379 18462 net.cpp:434] rpn_accuarcy <- rpn_labels_rpn-data_0_split_1
I0418 04:33:14.521386 18462 net.cpp:408] rpn_accuarcy -> rpn_accuarcy
I0418 04:33:14.521394 18462 net.cpp:408] rpn_accuarcy -> rpn_accuarcy_class
I0418 04:33:14.521430 18462 net.cpp:150] Setting up rpn_accuarcy
I0418 04:33:14.521436 18462 net.cpp:157] Top shape: (1)
I0418 04:33:14.521440 18462 net.cpp:157] Top shape: 2 (2)
I0418 04:33:14.521443 18462 net.cpp:165] Memory required for data: 10172517968
I0418 04:33:14.521447 18462 layer_factory.hpp:77] Creating layer rpn_cls_prob
I0418 04:33:14.521452 18462 net.cpp:100] Creating Layer rpn_cls_prob
I0418 04:33:14.521456 18462 net.cpp:434] rpn_cls_prob <- rpn_cls_score_reshape_rpn_cls_score_reshape_0_split_2
I0418 04:33:14.521461 18462 net.cpp:408] rpn_cls_prob -> rpn_cls_prob
I0418 04:33:14.521656 18462 net.cpp:150] Setting up rpn_cls_prob
I0418 04:33:14.521667 18462 net.cpp:157] Top shape: 1 2 3552 1 1 (7104)
I0418 04:33:14.521672 18462 net.cpp:165] Memory required for data: 10172546384
I0418 04:33:14.521675 18462 layer_factory.hpp:77] Creating layer rpn_cls_prob_reshape
I0418 04:33:14.521682 18462 net.cpp:100] Creating Layer rpn_cls_prob_reshape
I0418 04:33:14.521688 18462 net.cpp:434] rpn_cls_prob_reshape <- rpn_cls_prob
I0418 04:33:14.521695 18462 net.cpp:408] rpn_cls_prob_reshape -> rpn_cls_prob_reshape
I0418 04:33:14.521735 18462 net.cpp:150] Setting up rpn_cls_prob_reshape
I0418 04:33:14.521742 18462 net.cpp:157] Top shape: 1 74 96 1 1 (7104)
I0418 04:33:14.521745 18462 net.cpp:165] Memory required for data: 10172574800
I0418 04:33:14.521749 18462 layer_factory.hpp:77] Creating layer proposal
I0418 04:33:14.522287 18462 net.cpp:100] Creating Layer proposal
I0418 04:33:14.522300 18462 net.cpp:434] proposal <- rpn_cls_prob_reshape
I0418 04:33:14.522305 18462 net.cpp:434] proposal <- rpn_twin_pred_rpn_twin_pred_0_split_1
I0418 04:33:14.522311 18462 net.cpp:408] proposal -> rpn_rois
I0418 04:33:14.524458 18462 net.cpp:150] Setting up proposal
I0418 04:33:14.524472 18462 net.cpp:157] Top shape: 1 3 (3)
I0418 04:33:14.524477 18462 net.cpp:165] Memory required for data: 10172574812
I0418 04:33:14.524480 18462 layer_factory.hpp:77] Creating layer roi-data
I0418 04:33:14.525995 18462 net.cpp:100] Creating Layer roi-data
I0418 04:33:14.526007 18462 net.cpp:434] roi-data <- rpn_rois
I0418 04:33:14.526026 18462 net.cpp:434] roi-data <- gt_boxes_data_1_split_1
I0418 04:33:14.526031 18462 net.cpp:408] roi-data -> rois
I0418 04:33:14.526038 18462 net.cpp:408] roi-data -> labels
I0418 04:33:14.526044 18462 net.cpp:408] roi-data -> twin_targets
I0418 04:33:14.526051 18462 net.cpp:408] roi-data -> twin_inside_weights
I0418 04:33:14.526058 18462 net.cpp:408] roi-data -> twin_outside_weights
I0418 04:33:14.526360 18462 net.cpp:150] Setting up roi-data
I0418 04:33:14.526383 18462 net.cpp:157] Top shape: 1 3 (3)
I0418 04:33:14.526399 18462 net.cpp:157] Top shape: 1 1 (1)
I0418 04:33:14.526403 18462 net.cpp:157] Top shape: 1 198 (198)
I0418 04:33:14.526407 18462 net.cpp:157] Top shape: 1 198 (198)
I0418 04:33:14.526410 18462 net.cpp:157] Top shape: 1 198 (198)
I0418 04:33:14.526413 18462 net.cpp:165] Memory required for data: 10172577204
I0418 04:33:14.526417 18462 layer_factory.hpp:77] Creating layer roi_pool5
I0418 04:33:14.526427 18462 net.cpp:100] Creating Layer roi_pool5
I0418 04:33:14.526430 18462 net.cpp:434] roi_pool5 <- conv5b_relu5b_0_split_1
I0418 04:33:14.526435 18462 net.cpp:434] roi_pool5 <- rois
I0418 04:33:14.526440 18462 net.cpp:408] roi_pool5 -> pool5
I0418 04:33:14.526448 18462 roi_pooling_layer.cpp:34] Temporal scale: 0.125
I0418 04:33:14.526456 18462 roi_pooling_layer.cpp:35] Spatial scale: 0.0625
I0418 04:33:14.526490 18462 net.cpp:150] Setting up roi_pool5
I0418 04:33:14.526499 18462 net.cpp:157] Top shape: 1 512 1 4 4 (8192)
I0418 04:33:14.526502 18462 net.cpp:165] Memory required for data: 10172609972
I0418 04:33:14.526506 18462 layer_factory.hpp:77] Creating layer fc6
I0418 04:33:14.526515 18462 net.cpp:100] Creating Layer fc6
I0418 04:33:14.526521 18462 net.cpp:434] fc6 <- pool5
I0418 04:33:14.526527 18462 net.cpp:408] fc6 -> fc6
I0418 04:33:15.404678 18462 net.cpp:150] Setting up fc6
I0418 04:33:15.404701 18462 net.cpp:157] Top shape: 1 4096 (4096)
I0418 04:33:15.404706 18462 net.cpp:165] Memory required for data: 10172626356
I0418 04:33:15.404716 18462 layer_factory.hpp:77] Creating layer relu6
I0418 04:33:15.404726 18462 net.cpp:100] Creating Layer relu6
I0418 04:33:15.404731 18462 net.cpp:434] relu6 <- fc6
I0418 04:33:15.404736 18462 net.cpp:395] relu6 -> fc6 (in-place)
I0418 04:33:15.405151 18462 net.cpp:150] Setting up relu6
I0418 04:33:15.405164 18462 net.cpp:157] Top shape: 1 4096 (4096)
I0418 04:33:15.405167 18462 net.cpp:165] Memory required for data: 10172642740
I0418 04:33:15.405171 18462 layer_factory.hpp:77] Creating layer drop6
I0418 04:33:15.405184 18462 net.cpp:100] Creating Layer drop6
I0418 04:33:15.405189 18462 net.cpp:434] drop6 <- fc6
I0418 04:33:15.405205 18462 net.cpp:395] drop6 -> fc6 (in-place)
I0418 04:33:15.405232 18462 net.cpp:150] Setting up drop6
I0418 04:33:15.405238 18462 net.cpp:157] Top shape: 1 4096 (4096)
I0418 04:33:15.405241 18462 net.cpp:165] Memory required for data: 10172659124
I0418 04:33:15.405246 18462 layer_factory.hpp:77] Creating layer fc6_drop6_0_split
I0418 04:33:15.405251 18462 net.cpp:100] Creating Layer fc6_drop6_0_split
I0418 04:33:15.405254 18462 net.cpp:434] fc6_drop6_0_split <- fc6
I0418 04:33:15.405259 18462 net.cpp:408] fc6_drop6_0_split -> fc6_drop6_0_split_0
I0418 04:33:15.405264 18462 net.cpp:408] fc6_drop6_0_split -> fc6_drop6_0_split_1
I0418 04:33:15.405299 18462 net.cpp:150] Setting up fc6_drop6_0_split
I0418 04:33:15.405308 18462 net.cpp:157] Top shape: 1 4096 (4096)
I0418 04:33:15.405313 18462 net.cpp:157] Top shape: 1 4096 (4096)
I0418 04:33:15.405316 18462 net.cpp:165] Memory required for data: 10172691892
I0418 04:33:15.405319 18462 layer_factory.hpp:77] Creating layer cls_score
I0418 04:33:15.405326 18462 net.cpp:100] Creating Layer cls_score
I0418 04:33:15.405330 18462 net.cpp:434] cls_score <- fc6_drop6_0_split_0
I0418 04:33:15.405335 18462 net.cpp:408] cls_score -> cls_score
I0418 04:33:15.416013 18462 net.cpp:150] Setting up cls_score
I0418 04:33:15.416026 18462 net.cpp:157] Top shape: 1 99 (99)
I0418 04:33:15.416030 18462 net.cpp:165] Memory required for data: 10172692288
I0418 04:33:15.416038 18462 layer_factory.hpp:77] Creating layer twin_pred
I0418 04:33:15.416045 18462 net.cpp:100] Creating Layer twin_pred
I0418 04:33:15.416049 18462 net.cpp:434] twin_pred <- fc6_drop6_0_split_1
I0418 04:33:15.416055 18462 net.cpp:408] twin_pred -> twin_pred
I0418 04:33:15.437117 18462 net.cpp:150] Setting up twin_pred
I0418 04:33:15.437130 18462 net.cpp:157] Top shape: 1 198 (198)
I0418 04:33:15.437134 18462 net.cpp:165] Memory required for data: 10172693080
I0418 04:33:15.437142 18462 layer_factory.hpp:77] Creating layer loss_twin
I0418 04:33:15.437150 18462 net.cpp:100] Creating Layer loss_twin
I0418 04:33:15.437155 18462 net.cpp:434] loss_twin <- twin_pred
I0418 04:33:15.437160 18462 net.cpp:434] loss_twin <- twin_targets
I0418 04:33:15.437163 18462 net.cpp:434] loss_twin <- twin_inside_weights
…
