…
stepsize: 350000
snapshot: 0
snapshot_prefix: "./experiments/activitynet/snapshot/activitynet"
average_loss: 100
iter_size: 1
I0418 04:50:07.479766 16578 solver.cpp:81] Creating training net from train_net file: ./experiments/activitynet/train.prototxt
I0418 04:50:07.480835 16578 net.cpp:58] Initializing net from parameters: 
name: "activitynet"
state {
  phase: TRAIN
}
layer {
  name: "data"
  type: "Python"
  top: "data"
  top: "gt_boxes"
  python_param {
    module: "roi_data_layer.layer"
    layer: "RoIDataLayer"
    param_str: "\'num_classes\': 100"
  }
}
layer {
  name: "conv1a"
  type: "Convolution"
  bottom: "data"
  top: "conv1a"
  param {
    lr_mult: 0
    decay_mult: 0
  }
  param {
    lr_mult: 0
    decay_mult: 0
  }
  convolution_param {
    num_output: 64
    pad: 1
    pad: 1
    pad: 1
    kernel_size: 3
    kernel_size: 3
    kernel_size: 3
    weight_filler {
      type: "gaussian"
      std: 0.01
    }
    bias_filler {
      type: "constant"
      value: 0
    }
  }
}
layer {
  name: "relu1a"
  type: "ReLU"
  bottom: "conv1a"
  top: "conv1a"
}
layer {
  name: "pool1"
  type: "Pooling"
  bottom: "conv1a"
  top: "pool1"
  pooling_param {
    pool: MAX
    kernel_size: 1
    kernel_size: 2
    kernel_size: 2
    stride: 1
    stride: 2
    stride: 2
  }
}
layer {
  name: "conv2a"
  type: "Convolution"
  bottom: "pool1"
  top: "conv2a"
  param {
    lr_mult: 0
    decay_mult: 0
  }
  param {
    lr_mult: 0
    decay_mult: 0
  }
  convolution_param {
    num_output: 128
    pad: 1
    pad: 1
    pad: 1
    kernel_size: 3
    kernel_size: 3
    kernel_size: 3
    weight_filler {
      type: "gaussian"
      std: 0.01
    }
    bias_filler {
      type: "constant"
      value: 1
    }
  }
}
layer {
  name: "relu2a"
  type: "ReLU"
  bottom: "conv2a"
  top: "conv2a"
}
layer {
  name: "pool2"
  type: "Pooling"
  bottom: "conv2a"
  top: "pool2"
  pooling_param {
    pool: MAX
    kernel_size: 2
    kernel_size: 2
    kernel_size: 2
    stride: 2
    stride: 2
    stride: 2
  }
}
layer {
  name: "conv3a"
  type: "Convolution"
  bottom: "pool2"
  top: "conv3a"
  param {
    lr_mult: 1
    decay_mult: 1
  }
  param {
    lr_mult: 2
    decay_mult: 0
  }
  convolution_param {
    num_output: 256
    pad: 1
    pad: 1
    pad: 1
    kernel_size: 3
    kernel_size: 3
    kernel_size: 3
    weight_filler {
      type: "gaussian"
      std: 0.01
    }
    bias_filler {
      type: "constant"
      value: 1
    }
  }
}
layer {
  name: "relu3a"
  type: "ReLU"
  bottom: "conv3a"
  top: "conv3a"
}
layer {
  name: "conv3b"
  type: "Convolution"
  bottom: "conv3a"
  top: "conv3b"
  param {
    lr_mult: 1
    decay_mult: 1
  }
  param {
    lr_mult: 2
    decay_mult: 0
  }
  convolution_param {
    num_output: 256
    pad: 1
    pad: 1
    pad: 1
    kernel_size: 3
    kernel_size: 3
    kernel_size: 3
    weight_filler {
      type: "gaussian"
      std: 0.01
    }
    bias_filler {
      type: "constant"
      value: 1
    }
  }
}
layer {
  name: "relu3b"
  type: "ReLU"
  bottom: "conv3b"
  top: "conv3b"
}
layer {
  name: "pool3"
  type: "Pooling"
  bottom: "conv3b"
  top: "pool3"
  pooling_param {
    pool: MAX
    kernel_size: 2
    kernel_size: 2
    kernel_size: 2
    stride: 2
    stride: 2
    stride: 2
  }
}
layer {
  name: "conv4a"
  type: "Convolution"
  bottom: "pool3"
  top: "conv4a"
  param {
    lr_mult: 1
    decay_mult: 1
  }
  param {
    lr_mult: 2
    decay_mult: 0
  }
  convolution_param {
    num_output: 512
    pad: 1
    pad: 1
    pad: 1
    kernel_size: 3
    kernel_size: 3
    kernel_size: 3
    weight_filler {
      type: "gaussian"
      std: 0.01
    }
    bias_filler {
      type: "constant"
      value: 1
    }
  }
}
layer {
  name: "relu4a"
  type: "ReLU"
  bottom: "conv4a"
  top: "conv4a"
}
layer {
  name: "conv4b"
  type: "Convolution"
  bottom: "conv4a"
  top: "conv4b"
  param {
    lr_mult: 1
    decay_mult: 1
  }
  param {
    lr_mult: 2
    decay_mult: 0
  }
  convolution_param {
    num_output: 512
    pad: 1
    pad: 1
    pad: 1
    kernel_size: 3
    kernel_size: 3
    kernel_size: 3
    weight_filler {
      type: "gaussian"
      std: 0.01
    }
    bias_filler {
      type: "constant"
      value: 1
    }
  }
}
layer {
  name: "relu4b"
  type: "ReLU"
  bottom: "conv4b"
  top: "conv4b"
}
layer {
  name: "pool4"
  type: "Pooling"
  bottom: "conv4b"
  top: "pool4"
  pooling_param {
    pool: MAX
    kernel_size: 2
    kernel_size: 2
    kernel_size: 2
    stride: 2
    stride: 2
    stride: 2
  }
}
layer {
  name: "conv5a"
  type: "Convolution"
  bottom: "pool4"
  top: "conv5a"
  param {
    lr_mult: 1
    decay_mult: 1
  }
  param {
    lr_mult: 2
    decay_mult: 0
  }
  convolution_param {
    num_output: 512
    pad: 1
    pad: 1
    pad: 1
    kernel_size: 3
    kernel_size: 3
    kernel_size: 3
    weight_filler {
      type: "gaussian"
      std: 0.01
    }
    bias_filler {
      type: "constant"
      value: 1
    }
  }
}
layer {
  name: "relu5a"
  type: "ReLU"
  bottom: "conv5a"
  top: "conv5a"
}
layer {
  name: "conv5b"
  type: "Convolution"
  bottom: "conv5a"
  top: "conv5b"
  param {
    lr_mult: 1
    decay_mult: 1
  }
  param {
    lr_mult: 2
    decay_mult: 0
  }
  convolution_param {
    num_output: 512
    pad: 1
    pad: 1
    pad: 1
    kernel_size: 3
    kernel_size: 3
    kernel_size: 3
    weight_filler {
      type: "gaussian"
      std: 0.01
    }
    bias_filler {
      type: "constant"
      value: 1
    }
  }
}
layer {
  name: "relu5b"
  type: "ReLU"
  bottom: "conv5b"
  top: "conv5b"
}
layer {
  name: "rpn_conv/3x3"
  type: "Convolution"
  bottom: "conv5b"
  top: "rpn/output"
  param {
    lr_mult: 1
    decay_mult: 1
  }
  param {
    lr_mult: 2
    decay_mult: 0
  }
  convolution_param {
    num_output: 512
    pad: 1
    pad: 1
    pad: 1
    kernel_size: 3
    kernel_size: 3
    kernel_size: 3
    stride: 1
    stride: 2
    stride: 2
    weight_filler {
      type: "gaussian"
      std: 0.01
    }
    bias_filler {
      type: "constant"
      value: 0
    }
  }
}
layer {
  name: "rpn_relu/3x3"
  type: "ReLU"
  bottom: "rpn/output"
  top: "rpn/output"
}
layer {
  name: "rpn_conv/3x3_2"
  type: "Convolution"
  bottom: "rpn/output"
  top: "rpn/output_2"
  param {
    lr_mult: 1
    decay_mult: 1
  }
  param {
    lr_mult: 2
    decay_mult: 0
  }
  convolution_param {
    num_output: 512
    pad: 1
    pad: 1
    pad: 1
    kernel_size: 3
    kernel_size: 3
    kernel_size: 3
    stride: 1
    stride: 2
    stride: 2
    weight_filler {
      type: "gaussian"
      std: 0.01
    }
    bias_filler {
      type: "constant"
      value: 0
    }
  }
}
layer {
  name: "rpn_relu/3x3_2"
  type: "ReLU"
  bottom: "rpn/output_2"
  top: "rpn/output_2"
}
layer {
  name: "rpn/output_pool"
  type: "Pooling"
  bottom: "rpn/output_2"
  top: "rpn/output_pool"
  pooling_param {
    pool: MAX
    kernel_size: 1
    kernel_size: 2
    kernel_size: 2
  }
}
layer {
  name: "rpn_cls_score"
  type: "Convolution"
  bottom: "rpn/output_pool"
  top: "rpn_cls_score"
  param {
    lr_mult: 1
    decay_mult: 1
  }
  param {
    lr_mult: 2
    decay_mult: 0
  }
  convolution_param {
    num_output: 74
    kernel_size: 1
    kernel_size: 1
    kernel_size: 1
    weight_filler {
      type: "gaussian"
      std: 0.01
    }
    bias_filler {
      type: "constant"
      value: 0
    }
  }
}
layer {
  name: "rpn_twin_pred"
  type: "Convolution"
  bottom: "rpn/output_pool"
  top: "rpn_twin_pred"
  param {
    lr_mult: 1
    decay_mult: 1
  }
  param {
    lr_mult: 2
    decay_mult: 0
  }
  convolution_param {
    num_output: 74
    kernel_size: 1
    kernel_size: 1
    kernel_size: 1
    weight_filler {
      type: "gaussian"
      std: 0.01
    }
    bias_filler {
      type: "constant"
      value: 0
    }
  }
}
layer {
  name: "rpn_cls_score_reshape"
  type: "Reshape"
  bottom: "rpn_cls_score"
  top: "rpn_cls_score_reshape"
  reshape_param {
    shape {
      dim: 0
      dim: 2
      dim: -1
      dim: 0
      dim: 0
    }
  }
}
layer {
  name: "rpn-data"
  type: "Python"
  bottom: "rpn_cls_score"
  bottom: "gt_boxes"
  bottom: "data"
  top: "rpn_labels"
  top: "rpn_twin_targets"
  top: "rpn_twin_inside_weights"
  top: "rpn_twin_outside_weights"
  python_param {
    module: "rpn.anchor_target_layer"
    layer: "AnchorTargetLayer"
    param_str: "\'feat_stride\': 8 \n\'scales\': !!python/tuple [1,1.25, 1.5,1.75, 2,2.5, 3,3.5, 4,4.5, 5,5.5, 6,7, 8,9,10,11,12,14,16,18,20,22,24,28,32,36,40,44,52,60,68,76,84,92,100]"
  }
}
layer {
  name: "rpn_loss_cls"
  type: "SoftmaxWithLoss"
  bottom: "rpn_cls_score_reshape"
  bottom: "rpn_labels"
  top: "rpn_cls_loss"
  loss_weight: 1
  propagate_down: true
  propagate_down: false
  loss_param {
    ignore_label: -1
    normalize: true
  }
}
layer {
  name: "rpn_loss_twin"
  type: "SmoothL1Loss"
  bottom: "rpn_twin_pred"
  bottom: "rpn_twin_targets"
  bottom: "rpn_twin_inside_weights"
  bottom: "rpn_twin_outside_weights"
  top: "rpn_loss_twin"
  loss_weight: 1
  smooth_l1_loss_param {
    sigma: 3
  }
}
layer {
  name: "rpn_accuarcy"
  type: "Accuracy"
  bottom: "rpn_cls_score_reshape"
  bottom: "rpn_labels"
  top: "rpn_accuarcy"
  top: "rpn_accuarcy_class"
  propagate_down: false
  propagate_down: false
  accuracy_param {
    ignore_label: -1
  }
}
layer {
  name: "rpn_cls_prob"
  type: "Softmax"
  bottom: "rpn_cls_score_reshape"
  top: "rpn_cls_prob"
}
layer {
  name: "rpn_cls_prob_reshape"
  type: "Reshape"
  bottom: "rpn_cls_prob"
  top: "rpn_cls_prob_reshape"
  reshape_param {
    shape {
      dim: 0
      dim: 74
      dim: -1
      dim: 0
      dim: 0
    }
  }
}
layer {
  name: "proposal"
  type: "Python"
  bottom: "rpn_cls_prob_reshape"
  bottom: "rpn_twin_pred"
  top: "rpn_rois"
  include {
    phase: TRAIN
  }
  python_param {
    module: "rpn.proposal_layer"
    layer: "ProposalLayer"
    param_str: "\'feat_stride\': 8 \n\'scales\': !!python/tuple [1,1.25, 1.5,1.75, 2,2.5, 3,3.5, 4,4.5, 5,5.5, 6,7, 8,9,10,11,12,14,16,18,20,22,24,28,32,36,40,44,52,60,68,76,84,92,100]"
  }
}
layer {
  name: "roi-data"
  type: "Python"
  bottom: "rpn_rois"
  bottom: "gt_boxes"
  top: "rois"
  top: "labels"
  top: "twin_targets"
  top: "twin_inside_weights"
  top: "twin_outside_weights"
  python_param {
    module: "rpn.proposal_target_layer"
    layer: "ProposalTargetLayer"
    param_str: "\'num_classes\': 99"
  }
}
layer {
  name: "roi_pool5"
  type: "ROIPooling"
  bottom: "conv5b"
  bottom: "rois"
  top: "pool5"
  roi_pooling_param {
    pooled_h: 4
    pooled_w: 4
    spatial_scale: 0.0625
    pooled_l: 1
    temporal_scale: 0.125
  }
}
layer {
  name: "fc6"
  type: "InnerProduct"
  bottom: "pool5"
  top: "fc6"
  param {
    lr_mult: 1
    decay_mult: 1
  }
  param {
    lr_mult: 2
    decay_mult: 0
  }
  inner_product_param {
    num_output: 4096
    weight_filler {
      type: "gaussian"
      std: 0.005
    }
    bias_filler {
      type: "constant"
      value: 1
    }
  }
}
layer {
  name: "relu6"
  type: "ReLU"
  bottom: "fc6"
  top: "fc6"
}
layer {
  name: "drop6"
  type: "Dropout"
  bottom: "fc6"
  top: "fc6"
  dropout_param {
    dropout_ratio: 0.5
  }
}
layer {
  name: "cls_score"
  type: "InnerProduct"
  bottom: "fc6"
  top: "cls_score"
  param {
    lr_mult: 1
    decay_mult: 1
  }
  param {
    lr_mult: 2
    decay_mult: 0
  }
  inner_product_param {
    num_output: 99
    weight_filler {
      type: "gaussian"
      std: 0.01
    }
    bias_filler {
      type: "constant"
      value: 0
    }
  }
}
layer {
  name: "twin_pred"
  type: "InnerProduct"
  bottom: "fc6"
  top: "twin_pred"
  param {
    lr_mult: 1
    decay_mult: 1
  }
  param {
    lr_mult: 2
    decay_mult: 0
  }
  inner_product_param {
    num_output: 198
    weight_filler {
      type: "gaussian"
      std: 0.001
    }
    bias_filler {
      type: "constant"
      value: 0
    }
  }
}
layer {
  name: "loss_cls"
  type: "SigmoidCrossEntropyLoss"
  bottom: "cls_score"
  bottom: "labels"
  top: "loss_cls"
  loss_weight: 1
  propagate_down: true
  propagate_down: false
}
layer {
  name: "loss_twin"
  type: "SmoothL1Loss"
  bottom: "twin_pred"
  bottom: "twin_targets"
  bottom: "twin_inside_weights"
  bottom: "twin_outside_weights"
  top: "loss_twin"
  loss_weight: 1
}
layer {
  name: "accuarcy"
  type: "Accuracy"
  bottom: "cls_score"
  bottom: "labels"
  top: "accuarcy"
  propagate_down: false
  propagate_down: false
  accuracy_param {
    ignore_label: -1
  }
}
I0418 04:50:07.481048 16578 layer_factory.hpp:77] Creating layer data
I0418 04:50:07.505707 16578 net.cpp:100] Creating Layer data
I0418 04:50:07.505731 16578 net.cpp:408] data -> data
I0418 04:50:07.505744 16578 net.cpp:408] data -> gt_boxes
setting up
has rpn
RoiDataLayer: name_to_top: {'gt_windows': 1, 'data': 0}
I0418 04:50:07.518815 16578 net.cpp:150] Setting up data
I0418 04:50:07.518836 16578 net.cpp:157] Top shape: 1 3 768 112 112 (28901376)
I0418 04:50:07.518841 16578 net.cpp:157] Top shape: 1 101 (101)
I0418 04:50:07.518843 16578 net.cpp:165] Memory required for data: 115605908
I0418 04:50:07.518849 16578 layer_factory.hpp:77] Creating layer data_data_0_split
I0418 04:50:07.518859 16578 net.cpp:100] Creating Layer data_data_0_split
I0418 04:50:07.518864 16578 net.cpp:434] data_data_0_split <- data
I0418 04:50:07.518872 16578 net.cpp:408] data_data_0_split -> data_data_0_split_0
I0418 04:50:07.518880 16578 net.cpp:408] data_data_0_split -> data_data_0_split_1
I0418 04:50:07.518910 16578 net.cpp:150] Setting up data_data_0_split
I0418 04:50:07.518918 16578 net.cpp:157] Top shape: 1 3 768 112 112 (28901376)
I0418 04:50:07.518921 16578 net.cpp:157] Top shape: 1 3 768 112 112 (28901376)
I0418 04:50:07.518924 16578 net.cpp:165] Memory required for data: 346816916
I0418 04:50:07.518927 16578 layer_factory.hpp:77] Creating layer gt_boxes_data_1_split
I0418 04:50:07.518934 16578 net.cpp:100] Creating Layer gt_boxes_data_1_split
I0418 04:50:07.518939 16578 net.cpp:434] gt_boxes_data_1_split <- gt_boxes
I0418 04:50:07.518942 16578 net.cpp:408] gt_boxes_data_1_split -> gt_boxes_data_1_split_0
I0418 04:50:07.518949 16578 net.cpp:408] gt_boxes_data_1_split -> gt_boxes_data_1_split_1
I0418 04:50:07.518972 16578 net.cpp:150] Setting up gt_boxes_data_1_split
I0418 04:50:07.518977 16578 net.cpp:157] Top shape: 1 101 (101)
I0418 04:50:07.518981 16578 net.cpp:157] Top shape: 1 101 (101)
I0418 04:50:07.518985 16578 net.cpp:165] Memory required for data: 346817724
I0418 04:50:07.518988 16578 layer_factory.hpp:77] Creating layer conv1a
I0418 04:50:07.519006 16578 net.cpp:100] Creating Layer conv1a
I0418 04:50:07.519008 16578 net.cpp:434] conv1a <- data_data_0_split_0
I0418 04:50:07.519016 16578 net.cpp:408] conv1a -> conv1a
I0418 04:50:07.713838 16578 net.cpp:150] Setting up conv1a
I0418 04:50:07.713876 16578 net.cpp:157] Top shape: 1 64 768 112 112 (616562688)
I0418 04:50:07.713881 16578 net.cpp:165] Memory required for data: 2813068476
I0418 04:50:07.713901 16578 layer_factory.hpp:77] Creating layer relu1a
I0418 04:50:07.713917 16578 net.cpp:100] Creating Layer relu1a
I0418 04:50:07.713922 16578 net.cpp:434] relu1a <- conv1a
I0418 04:50:07.713927 16578 net.cpp:395] relu1a -> conv1a (in-place)
I0418 04:50:07.714375 16578 net.cpp:150] Setting up relu1a
I0418 04:50:07.714388 16578 net.cpp:157] Top shape: 1 64 768 112 112 (616562688)
I0418 04:50:07.714392 16578 net.cpp:165] Memory required for data: 5279319228
I0418 04:50:07.714397 16578 layer_factory.hpp:77] Creating layer pool1
I0418 04:50:07.714406 16578 net.cpp:100] Creating Layer pool1
I0418 04:50:07.714411 16578 net.cpp:434] pool1 <- conv1a
I0418 04:50:07.714416 16578 net.cpp:408] pool1 -> pool1
I0418 04:50:07.714598 16578 net.cpp:150] Setting up pool1
I0418 04:50:07.714610 16578 net.cpp:157] Top shape: 1 64 768 56 56 (154140672)
I0418 04:50:07.714613 16578 net.cpp:165] Memory required for data: 5895881916
I0418 04:50:07.714617 16578 layer_factory.hpp:77] Creating layer conv2a
I0418 04:50:07.714629 16578 net.cpp:100] Creating Layer conv2a
I0418 04:50:07.714634 16578 net.cpp:434] conv2a <- pool1
I0418 04:50:07.714639 16578 net.cpp:408] conv2a -> conv2a
I0418 04:50:07.726061 16578 net.cpp:150] Setting up conv2a
I0418 04:50:07.726084 16578 net.cpp:157] Top shape: 1 128 768 56 56 (308281344)
I0418 04:50:07.726089 16578 net.cpp:165] Memory required for data: 7129007292
I0418 04:50:07.726100 16578 layer_factory.hpp:77] Creating layer relu2a
I0418 04:50:07.726109 16578 net.cpp:100] Creating Layer relu2a
I0418 04:50:07.726114 16578 net.cpp:434] relu2a <- conv2a
I0418 04:50:07.726119 16578 net.cpp:395] relu2a -> conv2a (in-place)
I0418 04:50:07.726426 16578 net.cpp:150] Setting up relu2a
I0418 04:50:07.726441 16578 net.cpp:157] Top shape: 1 128 768 56 56 (308281344)
I0418 04:50:07.726445 16578 net.cpp:165] Memory required for data: 8362132668
I0418 04:50:07.726450 16578 layer_factory.hpp:77] Creating layer pool2
I0418 04:50:07.726459 16578 net.cpp:100] Creating Layer pool2
I0418 04:50:07.726465 16578 net.cpp:434] pool2 <- conv2a
I0418 04:50:07.726471 16578 net.cpp:408] pool2 -> pool2
I0418 04:50:07.726639 16578 net.cpp:150] Setting up pool2
I0418 04:50:07.726650 16578 net.cpp:157] Top shape: 1 128 384 28 28 (38535168)
I0418 04:50:07.726655 16578 net.cpp:165] Memory required for data: 8516273340
I0418 04:50:07.726658 16578 layer_factory.hpp:77] Creating layer conv3a
I0418 04:50:07.726670 16578 net.cpp:100] Creating Layer conv3a
I0418 04:50:07.726675 16578 net.cpp:434] conv3a <- pool2
I0418 04:50:07.726681 16578 net.cpp:408] conv3a -> conv3a
I0418 04:50:07.752409 16578 net.cpp:150] Setting up conv3a
I0418 04:50:07.752431 16578 net.cpp:157] Top shape: 1 256 384 28 28 (77070336)
I0418 04:50:07.752435 16578 net.cpp:165] Memory required for data: 8824554684
I0418 04:50:07.752447 16578 layer_factory.hpp:77] Creating layer relu3a
I0418 04:50:07.752455 16578 net.cpp:100] Creating Layer relu3a
I0418 04:50:07.752460 16578 net.cpp:434] relu3a <- conv3a
I0418 04:50:07.752467 16578 net.cpp:395] relu3a -> conv3a (in-place)
I0418 04:50:07.752872 16578 net.cpp:150] Setting up relu3a
I0418 04:50:07.752887 16578 net.cpp:157] Top shape: 1 256 384 28 28 (77070336)
I0418 04:50:07.752890 16578 net.cpp:165] Memory required for data: 9132836028
I0418 04:50:07.752894 16578 layer_factory.hpp:77] Creating layer conv3b
I0418 04:50:07.752907 16578 net.cpp:100] Creating Layer conv3b
I0418 04:50:07.752912 16578 net.cpp:434] conv3b <- conv3a
I0418 04:50:07.752925 16578 net.cpp:408] conv3b -> conv3b
I0418 04:50:07.804939 16578 net.cpp:150] Setting up conv3b
I0418 04:50:07.804966 16578 net.cpp:157] Top shape: 1 256 384 28 28 (77070336)
I0418 04:50:07.804970 16578 net.cpp:165] Memory required for data: 9441117372
I0418 04:50:07.804980 16578 layer_factory.hpp:77] Creating layer relu3b
I0418 04:50:07.804992 16578 net.cpp:100] Creating Layer relu3b
I0418 04:50:07.804997 16578 net.cpp:434] relu3b <- conv3b
I0418 04:50:07.805004 16578 net.cpp:395] relu3b -> conv3b (in-place)
I0418 04:50:07.805335 16578 net.cpp:150] Setting up relu3b
I0418 04:50:07.805349 16578 net.cpp:157] Top shape: 1 256 384 28 28 (77070336)
I0418 04:50:07.805353 16578 net.cpp:165] Memory required for data: 9749398716
I0418 04:50:07.805357 16578 layer_factory.hpp:77] Creating layer pool3
I0418 04:50:07.805367 16578 net.cpp:100] Creating Layer pool3
I0418 04:50:07.805371 16578 net.cpp:434] pool3 <- conv3b
I0418 04:50:07.805377 16578 net.cpp:408] pool3 -> pool3
I0418 04:50:07.805558 16578 net.cpp:150] Setting up pool3
I0418 04:50:07.805570 16578 net.cpp:157] Top shape: 1 256 192 14 14 (9633792)
I0418 04:50:07.805574 16578 net.cpp:165] Memory required for data: 9787933884
I0418 04:50:07.805578 16578 layer_factory.hpp:77] Creating layer conv4a
I0418 04:50:07.805593 16578 net.cpp:100] Creating Layer conv4a
I0418 04:50:07.805598 16578 net.cpp:434] conv4a <- pool3
I0418 04:50:07.805605 16578 net.cpp:408] conv4a -> conv4a
I0418 04:50:07.904726 16578 net.cpp:150] Setting up conv4a
I0418 04:50:07.904753 16578 net.cpp:157] Top shape: 1 512 192 14 14 (19267584)
I0418 04:50:07.904757 16578 net.cpp:165] Memory required for data: 9865004220
I0418 04:50:07.904772 16578 layer_factory.hpp:77] Creating layer relu4a
I0418 04:50:07.904783 16578 net.cpp:100] Creating Layer relu4a
I0418 04:50:07.904788 16578 net.cpp:434] relu4a <- conv4a
I0418 04:50:07.904794 16578 net.cpp:395] relu4a -> conv4a (in-place)
I0418 04:50:07.905112 16578 net.cpp:150] Setting up relu4a
I0418 04:50:07.905127 16578 net.cpp:157] Top shape: 1 512 192 14 14 (19267584)
I0418 04:50:07.905130 16578 net.cpp:165] Memory required for data: 9942074556
I0418 04:50:07.905134 16578 layer_factory.hpp:77] Creating layer conv4b
I0418 04:50:07.905150 16578 net.cpp:100] Creating Layer conv4b
I0418 04:50:07.905154 16578 net.cpp:434] conv4b <- conv4a
I0418 04:50:07.905161 16578 net.cpp:408] conv4b -> conv4b
I0418 04:50:08.098493 16578 net.cpp:150] Setting up conv4b
I0418 04:50:08.098522 16578 net.cpp:157] Top shape: 1 512 192 14 14 (19267584)
I0418 04:50:08.098526 16578 net.cpp:165] Memory required for data: 10019144892
I0418 04:50:08.098536 16578 layer_factory.hpp:77] Creating layer relu4b
I0418 04:50:08.098546 16578 net.cpp:100] Creating Layer relu4b
I0418 04:50:08.098551 16578 net.cpp:434] relu4b <- conv4b
I0418 04:50:08.098559 16578 net.cpp:395] relu4b -> conv4b (in-place)
I0418 04:50:08.098719 16578 net.cpp:150] Setting up relu4b
I0418 04:50:08.098731 16578 net.cpp:157] Top shape: 1 512 192 14 14 (19267584)
I0418 04:50:08.098734 16578 net.cpp:165] Memory required for data: 10096215228
I0418 04:50:08.098738 16578 layer_factory.hpp:77] Creating layer pool4
I0418 04:50:08.098748 16578 net.cpp:100] Creating Layer pool4
I0418 04:50:08.098757 16578 net.cpp:434] pool4 <- conv4b
I0418 04:50:08.098770 16578 net.cpp:408] pool4 -> pool4
I0418 04:50:08.099109 16578 net.cpp:150] Setting up pool4
I0418 04:50:08.099123 16578 net.cpp:157] Top shape: 1 512 96 7 7 (2408448)
I0418 04:50:08.099126 16578 net.cpp:165] Memory required for data: 10105849020
I0418 04:50:08.099130 16578 layer_factory.hpp:77] Creating layer conv5a
I0418 04:50:08.099143 16578 net.cpp:100] Creating Layer conv5a
I0418 04:50:08.099148 16578 net.cpp:434] conv5a <- pool4
I0418 04:50:08.099154 16578 net.cpp:408] conv5a -> conv5a
I0418 04:50:08.288712 16578 net.cpp:150] Setting up conv5a
I0418 04:50:08.288734 16578 net.cpp:157] Top shape: 1 512 96 7 7 (2408448)
I0418 04:50:08.288738 16578 net.cpp:165] Memory required for data: 10115482812
I0418 04:50:08.288748 16578 layer_factory.hpp:77] Creating layer relu5a
I0418 04:50:08.288758 16578 net.cpp:100] Creating Layer relu5a
I0418 04:50:08.288763 16578 net.cpp:434] relu5a <- conv5a
I0418 04:50:08.288769 16578 net.cpp:395] relu5a -> conv5a (in-place)
I0418 04:50:08.289206 16578 net.cpp:150] Setting up relu5a
I0418 04:50:08.289218 16578 net.cpp:157] Top shape: 1 512 96 7 7 (2408448)
I0418 04:50:08.289222 16578 net.cpp:165] Memory required for data: 10125116604
I0418 04:50:08.289227 16578 layer_factory.hpp:77] Creating layer conv5b
I0418 04:50:08.289237 16578 net.cpp:100] Creating Layer conv5b
I0418 04:50:08.289242 16578 net.cpp:434] conv5b <- conv5a
I0418 04:50:08.289248 16578 net.cpp:408] conv5b -> conv5b
I0418 04:50:08.475692 16578 net.cpp:150] Setting up conv5b
I0418 04:50:08.475716 16578 net.cpp:157] Top shape: 1 512 96 7 7 (2408448)
I0418 04:50:08.475721 16578 net.cpp:165] Memory required for data: 10134750396
I0418 04:50:08.475730 16578 layer_factory.hpp:77] Creating layer relu5b
I0418 04:50:08.475740 16578 net.cpp:100] Creating Layer relu5b
I0418 04:50:08.475744 16578 net.cpp:434] relu5b <- conv5b
I0418 04:50:08.475751 16578 net.cpp:395] relu5b -> conv5b (in-place)
I0418 04:50:08.475893 16578 net.cpp:150] Setting up relu5b
I0418 04:50:08.475903 16578 net.cpp:157] Top shape: 1 512 96 7 7 (2408448)
I0418 04:50:08.475906 16578 net.cpp:165] Memory required for data: 10144384188
I0418 04:50:08.475910 16578 layer_factory.hpp:77] Creating layer conv5b_relu5b_0_split
I0418 04:50:08.475915 16578 net.cpp:100] Creating Layer conv5b_relu5b_0_split
I0418 04:50:08.475919 16578 net.cpp:434] conv5b_relu5b_0_split <- conv5b
I0418 04:50:08.475926 16578 net.cpp:408] conv5b_relu5b_0_split -> conv5b_relu5b_0_split_0
I0418 04:50:08.475932 16578 net.cpp:408] conv5b_relu5b_0_split -> conv5b_relu5b_0_split_1
I0418 04:50:08.475967 16578 net.cpp:150] Setting up conv5b_relu5b_0_split
I0418 04:50:08.475975 16578 net.cpp:157] Top shape: 1 512 96 7 7 (2408448)
I0418 04:50:08.475980 16578 net.cpp:157] Top shape: 1 512 96 7 7 (2408448)
I0418 04:50:08.475982 16578 net.cpp:165] Memory required for data: 10163651772
I0418 04:50:08.475988 16578 layer_factory.hpp:77] Creating layer rpn_conv/3x3
I0418 04:50:08.475999 16578 net.cpp:100] Creating Layer rpn_conv/3x3
I0418 04:50:08.476003 16578 net.cpp:434] rpn_conv/3x3 <- conv5b_relu5b_0_split_0
I0418 04:50:08.476009 16578 net.cpp:408] rpn_conv/3x3 -> rpn/output
I0418 04:50:08.662561 16578 net.cpp:150] Setting up rpn_conv/3x3
I0418 04:50:08.662586 16578 net.cpp:157] Top shape: 1 512 96 4 4 (786432)
I0418 04:50:08.662590 16578 net.cpp:165] Memory required for data: 10166797500
I0418 04:50:08.662605 16578 layer_factory.hpp:77] Creating layer rpn_relu/3x3
I0418 04:50:08.662614 16578 net.cpp:100] Creating Layer rpn_relu/3x3
I0418 04:50:08.662618 16578 net.cpp:434] rpn_relu/3x3 <- rpn/output
I0418 04:50:08.662626 16578 net.cpp:395] rpn_relu/3x3 -> rpn/output (in-place)
I0418 04:50:08.662931 16578 net.cpp:150] Setting up rpn_relu/3x3
I0418 04:50:08.662945 16578 net.cpp:157] Top shape: 1 512 96 4 4 (786432)
I0418 04:50:08.662948 16578 net.cpp:165] Memory required for data: 10169943228
I0418 04:50:08.662952 16578 layer_factory.hpp:77] Creating layer rpn_conv/3x3_2
I0418 04:50:08.662964 16578 net.cpp:100] Creating Layer rpn_conv/3x3_2
I0418 04:50:08.662971 16578 net.cpp:434] rpn_conv/3x3_2 <- rpn/output
I0418 04:50:08.662978 16578 net.cpp:408] rpn_conv/3x3_2 -> rpn/output_2
I0418 04:50:08.848518 16578 net.cpp:150] Setting up rpn_conv/3x3_2
I0418 04:50:08.848552 16578 net.cpp:157] Top shape: 1 512 96 2 2 (196608)
I0418 04:50:08.848556 16578 net.cpp:165] Memory required for data: 10170729660
I0418 04:50:08.848565 16578 layer_factory.hpp:77] Creating layer rpn_relu/3x3_2
I0418 04:50:08.848577 16578 net.cpp:100] Creating Layer rpn_relu/3x3_2
I0418 04:50:08.848582 16578 net.cpp:434] rpn_relu/3x3_2 <- rpn/output_2
I0418 04:50:08.848587 16578 net.cpp:395] rpn_relu/3x3_2 -> rpn/output_2 (in-place)
I0418 04:50:08.848886 16578 net.cpp:150] Setting up rpn_relu/3x3_2
I0418 04:50:08.848899 16578 net.cpp:157] Top shape: 1 512 96 2 2 (196608)
I0418 04:50:08.848903 16578 net.cpp:165] Memory required for data: 10171516092
I0418 04:50:08.848906 16578 layer_factory.hpp:77] Creating layer rpn/output_pool
I0418 04:50:08.848915 16578 net.cpp:100] Creating Layer rpn/output_pool
I0418 04:50:08.848918 16578 net.cpp:434] rpn/output_pool <- rpn/output_2
I0418 04:50:08.848923 16578 net.cpp:408] rpn/output_pool -> rpn/output_pool
I0418 04:50:08.849094 16578 net.cpp:150] Setting up rpn/output_pool
I0418 04:50:08.849104 16578 net.cpp:157] Top shape: 1 512 96 1 1 (49152)
I0418 04:50:08.849108 16578 net.cpp:165] Memory required for data: 10171712700
I0418 04:50:08.849112 16578 layer_factory.hpp:77] Creating layer rpn/output_pool_rpn/output_pool_0_split
I0418 04:50:08.849117 16578 net.cpp:100] Creating Layer rpn/output_pool_rpn/output_pool_0_split
I0418 04:50:08.849122 16578 net.cpp:434] rpn/output_pool_rpn/output_pool_0_split <- rpn/output_pool
I0418 04:50:08.849126 16578 net.cpp:408] rpn/output_pool_rpn/output_pool_0_split -> rpn/output_pool_rpn/output_pool_0_split_0
I0418 04:50:08.849133 16578 net.cpp:408] rpn/output_pool_rpn/output_pool_0_split -> rpn/output_pool_rpn/output_pool_0_split_1
I0418 04:50:08.849164 16578 net.cpp:150] Setting up rpn/output_pool_rpn/output_pool_0_split
I0418 04:50:08.849170 16578 net.cpp:157] Top shape: 1 512 96 1 1 (49152)
I0418 04:50:08.849174 16578 net.cpp:157] Top shape: 1 512 96 1 1 (49152)
I0418 04:50:08.849179 16578 net.cpp:165] Memory required for data: 10172105916
I0418 04:50:08.849181 16578 layer_factory.hpp:77] Creating layer rpn_cls_score
I0418 04:50:08.849192 16578 net.cpp:100] Creating Layer rpn_cls_score
I0418 04:50:08.849200 16578 net.cpp:434] rpn_cls_score <- rpn/output_pool_rpn/output_pool_0_split_0
I0418 04:50:08.849205 16578 net.cpp:408] rpn_cls_score -> rpn_cls_score
I0418 04:50:08.851248 16578 net.cpp:150] Setting up rpn_cls_score
I0418 04:50:08.851271 16578 net.cpp:157] Top shape: 1 74 96 1 1 (7104)
I0418 04:50:08.851275 16578 net.cpp:165] Memory required for data: 10172134332
I0418 04:50:08.851281 16578 layer_factory.hpp:77] Creating layer rpn_cls_score_rpn_cls_score_0_split
I0418 04:50:08.851289 16578 net.cpp:100] Creating Layer rpn_cls_score_rpn_cls_score_0_split
I0418 04:50:08.851292 16578 net.cpp:434] rpn_cls_score_rpn_cls_score_0_split <- rpn_cls_score
I0418 04:50:08.851297 16578 net.cpp:408] rpn_cls_score_rpn_cls_score_0_split -> rpn_cls_score_rpn_cls_score_0_split_0
I0418 04:50:08.851305 16578 net.cpp:408] rpn_cls_score_rpn_cls_score_0_split -> rpn_cls_score_rpn_cls_score_0_split_1
I0418 04:50:08.851346 16578 net.cpp:150] Setting up rpn_cls_score_rpn_cls_score_0_split
I0418 04:50:08.851353 16578 net.cpp:157] Top shape: 1 74 96 1 1 (7104)
I0418 04:50:08.851358 16578 net.cpp:157] Top shape: 1 74 96 1 1 (7104)
I0418 04:50:08.851361 16578 net.cpp:165] Memory required for data: 10172191164
I0418 04:50:08.851368 16578 layer_factory.hpp:77] Creating layer rpn_twin_pred
I0418 04:50:08.851382 16578 net.cpp:100] Creating Layer rpn_twin_pred
I0418 04:50:08.851388 16578 net.cpp:434] rpn_twin_pred <- rpn/output_pool_rpn/output_pool_0_split_1
I0418 04:50:08.851393 16578 net.cpp:408] rpn_twin_pred -> rpn_twin_pred
I0418 04:50:08.853286 16578 net.cpp:150] Setting up rpn_twin_pred
I0418 04:50:08.853298 16578 net.cpp:157] Top shape: 1 74 96 1 1 (7104)
I0418 04:50:08.853302 16578 net.cpp:165] Memory required for data: 10172219580
I0418 04:50:08.853308 16578 layer_factory.hpp:77] Creating layer rpn_twin_pred_rpn_twin_pred_0_split
I0418 04:50:08.853314 16578 net.cpp:100] Creating Layer rpn_twin_pred_rpn_twin_pred_0_split
I0418 04:50:08.853317 16578 net.cpp:434] rpn_twin_pred_rpn_twin_pred_0_split <- rpn_twin_pred
I0418 04:50:08.853323 16578 net.cpp:408] rpn_twin_pred_rpn_twin_pred_0_split -> rpn_twin_pred_rpn_twin_pred_0_split_0
I0418 04:50:08.853330 16578 net.cpp:408] rpn_twin_pred_rpn_twin_pred_0_split -> rpn_twin_pred_rpn_twin_pred_0_split_1
I0418 04:50:08.853369 16578 net.cpp:150] Setting up rpn_twin_pred_rpn_twin_pred_0_split
I0418 04:50:08.853377 16578 net.cpp:157] Top shape: 1 74 96 1 1 (7104)
I0418 04:50:08.853381 16578 net.cpp:157] Top shape: 1 74 96 1 1 (7104)
I0418 04:50:08.853384 16578 net.cpp:165] Memory required for data: 10172276412
I0418 04:50:08.853389 16578 layer_factory.hpp:77] Creating layer rpn_cls_score_reshape
I0418 04:50:08.853399 16578 net.cpp:100] Creating Layer rpn_cls_score_reshape
I0418 04:50:08.853404 16578 net.cpp:434] rpn_cls_score_reshape <- rpn_cls_score_rpn_cls_score_0_split_0
I0418 04:50:08.853410 16578 net.cpp:408] rpn_cls_score_reshape -> rpn_cls_score_reshape
I0418 04:50:08.853436 16578 net.cpp:150] Setting up rpn_cls_score_reshape
I0418 04:50:08.853443 16578 net.cpp:157] Top shape: 1 2 3552 1 1 (7104)
I0418 04:50:08.853446 16578 net.cpp:165] Memory required for data: 10172304828
I0418 04:50:08.853449 16578 layer_factory.hpp:77] Creating layer rpn_cls_score_reshape_rpn_cls_score_reshape_0_split
I0418 04:50:08.853456 16578 net.cpp:100] Creating Layer rpn_cls_score_reshape_rpn_cls_score_reshape_0_split
I0418 04:50:08.853461 16578 net.cpp:434] rpn_cls_score_reshape_rpn_cls_score_reshape_0_split <- rpn_cls_score_reshape
I0418 04:50:08.853466 16578 net.cpp:408] rpn_cls_score_reshape_rpn_cls_score_reshape_0_split -> rpn_cls_score_reshape_rpn_cls_score_reshape_0_split_0
I0418 04:50:08.853483 16578 net.cpp:408] rpn_cls_score_reshape_rpn_cls_score_reshape_0_split -> rpn_cls_score_reshape_rpn_cls_score_reshape_0_split_1
I0418 04:50:08.853488 16578 net.cpp:408] rpn_cls_score_reshape_rpn_cls_score_reshape_0_split -> rpn_cls_score_reshape_rpn_cls_score_reshape_0_split_2
I0418 04:50:08.853528 16578 net.cpp:150] Setting up rpn_cls_score_reshape_rpn_cls_score_reshape_0_split
I0418 04:50:08.853535 16578 net.cpp:157] Top shape: 1 2 3552 1 1 (7104)
I0418 04:50:08.853539 16578 net.cpp:157] Top shape: 1 2 3552 1 1 (7104)
I0418 04:50:08.853543 16578 net.cpp:157] Top shape: 1 2 3552 1 1 (7104)
I0418 04:50:08.853546 16578 net.cpp:165] Memory required for data: 10172390076
I0418 04:50:08.853549 16578 layer_factory.hpp:77] Creating layer rpn-data
I0418 04:50:08.853931 16578 net.cpp:100] Creating Layer rpn-data
I0418 04:50:08.853943 16578 net.cpp:434] rpn-data <- rpn_cls_score_rpn_cls_score_0_split_1
I0418 04:50:08.853948 16578 net.cpp:434] rpn-data <- gt_boxes_data_1_split_0
I0418 04:50:08.853953 16578 net.cpp:434] rpn-data <- data_data_0_split_1
I0418 04:50:08.853958 16578 net.cpp:408] rpn-data -> rpn_labels
I0418 04:50:08.853965 16578 net.cpp:408] rpn-data -> rpn_twin_targets
I0418 04:50:08.853971 16578 net.cpp:408] rpn-data -> rpn_twin_inside_weights
I0418 04:50:08.853976 16578 net.cpp:408] rpn-data -> rpn_twin_outside_weights
I0418 04:50:08.856202 16578 net.cpp:150] Setting up rpn-data
I0418 04:50:08.856216 16578 net.cpp:157] Top shape: 1 1 3552 1 1 (3552)
I0418 04:50:08.856221 16578 net.cpp:157] Top shape: 1 74 96 1 1 (7104)
I0418 04:50:08.856225 16578 net.cpp:157] Top shape: 1 74 96 1 1 (7104)
I0418 04:50:08.856228 16578 net.cpp:157] Top shape: 1 74 96 1 1 (7104)
I0418 04:50:08.856231 16578 net.cpp:165] Memory required for data: 10172489532
I0418 04:50:08.856235 16578 layer_factory.hpp:77] Creating layer rpn_labels_rpn-data_0_split
I0418 04:50:08.856240 16578 net.cpp:100] Creating Layer rpn_labels_rpn-data_0_split
I0418 04:50:08.856245 16578 net.cpp:434] rpn_labels_rpn-data_0_split <- rpn_labels
I0418 04:50:08.856251 16578 net.cpp:408] rpn_labels_rpn-data_0_split -> rpn_labels_rpn-data_0_split_0
I0418 04:50:08.856317 16578 net.cpp:408] rpn_labels_rpn-data_0_split -> rpn_labels_rpn-data_0_split_1
I0418 04:50:08.856351 16578 net.cpp:150] Setting up rpn_labels_rpn-data_0_split
I0418 04:50:08.856359 16578 net.cpp:157] Top shape: 1 1 3552 1 1 (3552)
I0418 04:50:08.856364 16578 net.cpp:157] Top shape: 1 1 3552 1 1 (3552)
I0418 04:50:08.856366 16578 net.cpp:165] Memory required for data: 10172517948
I0418 04:50:08.856369 16578 layer_factory.hpp:77] Creating layer rpn_loss_cls
I0418 04:50:08.856379 16578 net.cpp:100] Creating Layer rpn_loss_cls
I0418 04:50:08.856386 16578 net.cpp:434] rpn_loss_cls <- rpn_cls_score_reshape_rpn_cls_score_reshape_0_split_0
I0418 04:50:08.856391 16578 net.cpp:434] rpn_loss_cls <- rpn_labels_rpn-data_0_split_0
…
I0418 04:50:08.856940 16578 layer_factory.hpp:77] Creating layer rpn_accuarcy
I0418 04:50:08.856948 16578 net.cpp:100] Creating Layer rpn_accuarcy
I0418 04:50:08.856952 16578 net.cpp:434] rpn_accuarcy <- rpn_cls_score_reshape_rpn_cls_score_reshape_0_split_1
I0418 04:50:08.856956 16578 net.cpp:434] rpn_accuarcy <- rpn_labels_rpn-data_0_split_1
I0418 04:50:08.856961 16578 net.cpp:408] rpn_accuarcy -> rpn_accuarcy
I0418 04:50:08.856967 16578 net.cpp:408] rpn_accuarcy -> rpn_accuarcy_class
I0418 04:50:08.857004 16578 net.cpp:150] Setting up rpn_accuarcy
I0418 04:50:08.857012 16578 net.cpp:157] Top shape: (1)
I0418 04:50:08.857014 16578 net.cpp:157] Top shape: 2 (2)
I0418 04:50:08.857017 16578 net.cpp:165] Memory required for data: 10172517968
I0418 04:50:08.857022 16578 layer_factory.hpp:77] Creating layer rpn_cls_prob
I0418 04:50:08.857026 16578 net.cpp:100] Creating Layer rpn_cls_prob
I0418 04:50:08.857029 16578 net.cpp:434] rpn_cls_prob <- rpn_cls_score_reshape_rpn_cls_score_reshape_0_split_2
I0418 04:50:08.857035 16578 net.cpp:408] rpn_cls_prob -> rpn_cls_prob
I0418 04:50:08.857224 16578 net.cpp:150] Setting up rpn_cls_prob
I0418 04:50:08.857234 16578 net.cpp:157] Top shape: 1 2 3552 1 1 (7104)
I0418 04:50:08.857237 16578 net.cpp:165] Memory required for data: 10172546384
I0418 04:50:08.857241 16578 layer_factory.hpp:77] Creating layer rpn_cls_prob_reshape
I0418 04:50:08.857247 16578 net.cpp:100] Creating Layer rpn_cls_prob_reshape
I0418 04:50:08.857250 16578 net.cpp:434] rpn_cls_prob_reshape <- rpn_cls_prob
I0418 04:50:08.857257 16578 net.cpp:408] rpn_cls_prob_reshape -> rpn_cls_prob_reshape
I0418 04:50:08.857281 16578 net.cpp:150] Setting up rpn_cls_prob_reshape
I0418 04:50:08.857288 16578 net.cpp:157] Top shape: 1 74 96 1 1 (7104)
I0418 04:50:08.857291 16578 net.cpp:165] Memory required for data: 10172574800
I0418 04:50:08.857295 16578 layer_factory.hpp:77] Creating layer proposal
I0418 04:50:08.857830 16578 net.cpp:100] Creating Layer proposal
I0418 04:50:08.857842 16578 net.cpp:434] proposal <- rpn_cls_prob_reshape
I0418 04:50:08.857847 16578 net.cpp:434] proposal <- rpn_twin_pred_rpn_twin_pred_0_split_1
I0418 04:50:08.857853 16578 net.cpp:408] proposal -> rpn_rois
I0418 04:50:08.860013 16578 net.cpp:150] Setting up proposal
I0418 04:50:08.860028 16578 net.cpp:157] Top shape: 1 3 (3)
I0418 04:50:08.860031 16578 net.cpp:165] Memory required for data: 10172574812
I0418 04:50:08.860035 16578 layer_factory.hpp:77] Creating layer roi-data
I0418 04:50:08.861529 16578 net.cpp:100] Creating Layer roi-data
I0418 04:50:08.861552 16578 net.cpp:434] roi-data <- rpn_rois
I0418 04:50:08.861557 16578 net.cpp:434] roi-data <- gt_boxes_data_1_split_1
I0418 04:50:08.861563 16578 net.cpp:408] roi-data -> rois
I0418 04:50:08.861570 16578 net.cpp:408] roi-data -> labels
I0418 04:50:08.861577 16578 net.cpp:408] roi-data -> twin_targets
I0418 04:50:08.861582 16578 net.cpp:408] roi-data -> twin_inside_weights
I0418 04:50:08.861588 16578 net.cpp:408] roi-data -> twin_outside_weights
I0418 04:50:08.861888 16578 net.cpp:150] Setting up roi-data
I0418 04:50:08.861902 16578 net.cpp:157] Top shape: 1 3 (3)
I0418 04:50:08.861907 16578 net.cpp:157] Top shape: 1 99 (99)
I0418 04:50:08.861910 16578 net.cpp:157] Top shape: 1 198 (198)
I0418 04:50:08.861914 16578 net.cpp:157] Top shape: 1 198 (198)
I0418 04:50:08.861918 16578 net.cpp:157] Top shape: 1 198 (198)
I0418 04:50:08.861922 16578 net.cpp:165] Memory required for data: 10172577596
I0418 04:50:08.861925 16578 layer_factory.hpp:77] Creating layer labels_roi-data_1_split
I0418 04:50:08.861933 16578 net.cpp:100] Creating Layer labels_roi-data_1_split
I0418 04:50:08.861937 16578 net.cpp:434] labels_roi-data_1_split <- labels
I0418 04:50:08.861943 16578 net.cpp:408] labels_roi-data_1_split -> labels_roi-data_1_split_0
I0418 04:50:08.861949 16578 net.cpp:408] labels_roi-data_1_split -> labels_roi-data_1_split_1
I0418 04:50:08.861980 16578 net.cpp:150] Setting up labels_roi-data_1_split
I0418 04:50:08.861987 16578 net.cpp:157] Top shape: 1 99 (99)
I0418 04:50:08.861992 16578 net.cpp:157] Top shape: 1 99 (99)
I0418 04:50:08.861995 16578 net.cpp:165] Memory required for data: 10172578388
I0418 04:50:08.861999 16578 layer_factory.hpp:77] Creating layer roi_pool5
I0418 04:50:08.862009 16578 net.cpp:100] Creating Layer roi_pool5
I0418 04:50:08.862015 16578 net.cpp:434] roi_pool5 <- conv5b_relu5b_0_split_1
I0418 04:50:08.862020 16578 net.cpp:434] roi_pool5 <- rois
I0418 04:50:08.862025 16578 net.cpp:408] roi_pool5 -> pool5
I0418 04:50:08.862032 16578 roi_pooling_layer.cpp:34] Temporal scale: 0.125
I0418 04:50:08.862038 16578 roi_pooling_layer.cpp:35] Spatial scale: 0.0625
I0418 04:50:08.862077 16578 net.cpp:150] Setting up roi_pool5
I0418 04:50:08.862087 16578 net.cpp:157] Top shape: 1 512 1 4 4 (8192)
I0418 04:50:08.862089 16578 net.cpp:165] Memory required for data: 10172611156
I0418 04:50:08.862093 16578 layer_factory.hpp:77] Creating layer fc6
I0418 04:50:08.862102 16578 net.cpp:100] Creating Layer fc6
I0418 04:50:08.862105 16578 net.cpp:434] fc6 <- pool5
I0418 04:50:08.862112 16578 net.cpp:408] fc6 -> fc6
I0418 04:50:09.741042 16578 net.cpp:150] Setting up fc6
I0418 04:50:09.741066 16578 net.cpp:157] Top shape: 1 4096 (4096)
I0418 04:50:09.741071 16578 net.cpp:165] Memory required for data: 10172627540
I0418 04:50:09.741080 16578 layer_factory.hpp:77] Creating layer relu6
I0418 04:50:09.741091 16578 net.cpp:100] Creating Layer relu6
I0418 04:50:09.741096 16578 net.cpp:434] relu6 <- fc6
I0418 04:50:09.741101 16578 net.cpp:395] relu6 -> fc6 (in-place)
I0418 04:50:09.741497 16578 net.cpp:150] Setting up relu6
I0418 04:50:09.741509 16578 net.cpp:157] Top shape: 1 4096 (4096)
I0418 04:50:09.741513 16578 net.cpp:165] Memory required for data: 10172643924
I0418 04:50:09.741518 16578 layer_factory.hpp:77] Creating layer drop6
I0418 04:50:09.741529 16578 net.cpp:100] Creating Layer drop6
I0418 04:50:09.741533 16578 net.cpp:434] drop6 <- fc6
I0418 04:50:09.741539 16578 net.cpp:395] drop6 -> fc6 (in-place)
I0418 04:50:09.741565 16578 net.cpp:150] Setting up drop6
I0418 04:50:09.741576 16578 net.cpp:157] Top shape: 1 4096 (4096)
I0418 04:50:09.741580 16578 net.cpp:165] Memory required for data: 10172660308
I0418 04:50:09.741582 16578 layer_factory.hpp:77] Creating layer fc6_drop6_0_split
I0418 04:50:09.741588 16578 net.cpp:100] Creating Layer fc6_drop6_0_split
I0418 04:50:09.741591 16578 net.cpp:434] fc6_drop6_0_split <- fc6
I0418 04:50:09.741596 16578 net.cpp:408] fc6_drop6_0_split -> fc6_drop6_0_split_0
I0418 04:50:09.741601 16578 net.cpp:408] fc6_drop6_0_split -> fc6_drop6_0_split_1
I0418 04:50:09.741632 16578 net.cpp:150] Setting up fc6_drop6_0_split
I0418 04:50:09.741639 16578 net.cpp:157] Top shape: 1 4096 (4096)
I0418 04:50:09.741643 16578 net.cpp:157] Top shape: 1 4096 (4096)
I0418 04:50:09.741647 16578 net.cpp:165] Memory required for data: 10172693076
I0418 04:50:09.741650 16578 layer_factory.hpp:77] Creating layer cls_score
I0418 04:50:09.741657 16578 net.cpp:100] Creating Layer cls_score
I0418 04:50:09.741660 16578 net.cpp:434] cls_score <- fc6_drop6_0_split_0
I0418 04:50:09.741667 16578 net.cpp:408] cls_score -> cls_score
I0418 04:50:09.752352 16578 net.cpp:150] Setting up cls_score
I0418 04:50:09.752365 16578 net.cpp:157] Top shape: 1 99 (99)
I0418 04:50:09.752368 16578 net.cpp:165] Memory required for data: 10172693472
I0418 04:50:09.752375 16578 layer_factory.hpp:77] Creating layer cls_score_cls_score_0_split
I0418 04:50:09.752382 16578 net.cpp:100] Creating Layer cls_score_cls_score_0_split
I0418 04:50:09.752384 16578 net.cpp:434] cls_score_cls_score_0_split <- cls_score
I0418 04:50:09.752390 16578 net.cpp:408] cls_score_cls_score_0_split -> cls_score_cls_score_0_split_0
I0418 04:50:09.752396 16578 net.cpp:408] cls_score_cls_score_0_split -> cls_score_cls_score_0_split_1
I0418 04:50:09.752427 16578 net.cpp:150] Setting up cls_score_cls_score_0_split
I0418 04:50:09.752435 16578 net.cpp:157] Top shape: 1 99 (99)
I0418 04:50:09.752439 16578 net.cpp:157] Top shape: 1 99 (99)
I0418 04:50:09.752442 16578 net.cpp:165] Memory required for data: 10172694264
I0418 04:50:09.752446 16578 layer_factory.hpp:77] Creating layer twin_pred
I0418 04:50:09.752452 16578 net.cpp:100] Creating Layer twin_pred
I0418 04:50:09.752456 16578 net.cpp:434] twin_pred <- fc6_drop6_0_split_1
I0418 04:50:09.752462 16578 net.cpp:408] twin_pred -> twin_pred
I0418 04:50:09.773795 16578 net.cpp:150] Setting up twin_pred
I0418 04:50:09.773808 16578 net.cpp:157] Top shape: 1 198 (198)
I0418 04:50:09.773813 16578 net.cpp:165] Memory required for data: 10172695056
I0418 04:50:09.773818 16578 layer_factory.hpp:77] Creating layer loss_cls
I0418 04:50:09.773828 16578 net.cpp:100] Creating Layer loss_cls
I0418 04:50:09.773833 16578 net.cpp:434] loss_cls <- cls_score_cls_score_0_split_0
I0418 04:50:09.773838 16578 net.cpp:434] loss_cls <- labels_roi-data_1_split_0
I0418 04:50:09.773843 16578 net.cpp:408] loss_cls -> loss_cls
…
