…
stepsize: 350000
snapshot: 0
snapshot_prefix: "./experiments/activitynet/snapshot/activitynet"
average_loss: 100
iter_size: 1
I0416 10:47:08.330188 11830 solver.cpp:81] Creating training net from train_net file: ./experiments/activitynet/train.prototxt
I0416 10:47:08.330729 11830 net.cpp:58] Initializing net from parameters: 
name: "activitynet"
state {
  phase: TRAIN
}
layer {
  name: "data"
  type: "Python"
  top: "data"
  top: "gt_boxes"
  python_param {
    module: "roi_data_layer.layer"
    layer: "RoIDataLayer"
    param_str: "\'num_classes\': 100"
  }
}
layer {
  name: "conv1a"
  type: "Convolution"
  bottom: "data"
  top: "conv1a"
  param {
    lr_mult: 0
    decay_mult: 0
  }
  param {
    lr_mult: 0
    decay_mult: 0
  }
  convolution_param {
    num_output: 64
    pad: 1
    pad: 1
    pad: 1
    kernel_size: 3
    kernel_size: 3
    kernel_size: 3
    weight_filler {
      type: "gaussian"
      std: 0.01
    }
    bias_filler {
      type: "constant"
      value: 0
    }
  }
}
layer {
  name: "relu1a"
  type: "ReLU"
  bottom: "conv1a"
  top: "conv1a"
}
layer {
  name: "pool1"
  type: "Pooling"
  bottom: "conv1a"
  top: "pool1"
  pooling_param {
    pool: MAX
    kernel_size: 1
    kernel_size: 2
    kernel_size: 2
    stride: 1
    stride: 2
    stride: 2
  }
}
layer {
  name: "conv2a"
  type: "Convolution"
  bottom: "pool1"
  top: "conv2a"
  param {
    lr_mult: 0
    decay_mult: 0
  }
  param {
    lr_mult: 0
    decay_mult: 0
  }
  convolution_param {
    num_output: 128
    pad: 1
    pad: 1
    pad: 1
    kernel_size: 3
    kernel_size: 3
    kernel_size: 3
    weight_filler {
      type: "gaussian"
      std: 0.01
    }
    bias_filler {
      type: "constant"
      value: 1
    }
  }
}
layer {
  name: "relu2a"
  type: "ReLU"
  bottom: "conv2a"
  top: "conv2a"
}
layer {
  name: "pool2"
  type: "Pooling"
  bottom: "conv2a"
  top: "pool2"
  pooling_param {
    pool: MAX
    kernel_size: 2
    kernel_size: 2
    kernel_size: 2
    stride: 2
    stride: 2
    stride: 2
  }
}
layer {
  name: "conv3a"
  type: "Convolution"
  bottom: "pool2"
  top: "conv3a"
  param {
    lr_mult: 1
    decay_mult: 1
  }
  param {
    lr_mult: 2
    decay_mult: 0
  }
  convolution_param {
    num_output: 256
    pad: 1
    pad: 1
    pad: 1
    kernel_size: 3
    kernel_size: 3
    kernel_size: 3
    weight_filler {
      type: "gaussian"
      std: 0.01
    }
    bias_filler {
      type: "constant"
      value: 1
    }
  }
}
layer {
  name: "relu3a"
  type: "ReLU"
  bottom: "conv3a"
  top: "conv3a"
}
layer {
  name: "conv3b"
  type: "Convolution"
  bottom: "conv3a"
  top: "conv3b"
  param {
    lr_mult: 1
    decay_mult: 1
  }
  param {
    lr_mult: 2
    decay_mult: 0
  }
  convolution_param {
    num_output: 256
    pad: 1
    pad: 1
    pad: 1
    kernel_size: 3
    kernel_size: 3
    kernel_size: 3
    weight_filler {
      type: "gaussian"
      std: 0.01
    }
    bias_filler {
      type: "constant"
      value: 1
    }
  }
}
layer {
  name: "relu3b"
  type: "ReLU"
  bottom: "conv3b"
  top: "conv3b"
}
layer {
  name: "pool3"
  type: "Pooling"
  bottom: "conv3b"
  top: "pool3"
  pooling_param {
    pool: MAX
    kernel_size: 2
    kernel_size: 2
    kernel_size: 2
    stride: 2
    stride: 2
    stride: 2
  }
}
layer {
  name: "conv4a"
  type: "Convolution"
  bottom: "pool3"
  top: "conv4a"
  param {
    lr_mult: 1
    decay_mult: 1
  }
  param {
    lr_mult: 2
    decay_mult: 0
  }
  convolution_param {
    num_output: 512
    pad: 1
    pad: 1
    pad: 1
    kernel_size: 3
    kernel_size: 3
    kernel_size: 3
    weight_filler {
      type: "gaussian"
      std: 0.01
    }
    bias_filler {
      type: "constant"
      value: 1
    }
  }
}
layer {
  name: "relu4a"
  type: "ReLU"
  bottom: "conv4a"
  top: "conv4a"
}
layer {
  name: "conv4b"
  type: "Convolution"
  bottom: "conv4a"
  top: "conv4b"
  param {
    lr_mult: 1
    decay_mult: 1
  }
  param {
    lr_mult: 2
    decay_mult: 0
  }
  convolution_param {
    num_output: 512
    pad: 1
    pad: 1
    pad: 1
    kernel_size: 3
    kernel_size: 3
    kernel_size: 3
    weight_filler {
      type: "gaussian"
      std: 0.01
    }
    bias_filler {
      type: "constant"
      value: 1
    }
  }
}
layer {
  name: "relu4b"
  type: "ReLU"
  bottom: "conv4b"
  top: "conv4b"
}
layer {
  name: "pool4"
  type: "Pooling"
  bottom: "conv4b"
  top: "pool4"
  pooling_param {
    pool: MAX
    kernel_size: 2
    kernel_size: 2
    kernel_size: 2
    stride: 2
    stride: 2
    stride: 2
  }
}
layer {
  name: "conv5a"
  type: "Convolution"
  bottom: "pool4"
  top: "conv5a"
  param {
    lr_mult: 1
    decay_mult: 1
  }
  param {
    lr_mult: 2
    decay_mult: 0
  }
  convolution_param {
    num_output: 512
    pad: 1
    pad: 1
    pad: 1
    kernel_size: 3
    kernel_size: 3
    kernel_size: 3
    weight_filler {
      type: "gaussian"
      std: 0.01
    }
    bias_filler {
      type: "constant"
      value: 1
    }
  }
}
layer {
  name: "relu5a"
  type: "ReLU"
  bottom: "conv5a"
  top: "conv5a"
}
layer {
  name: "conv5b"
  type: "Convolution"
  bottom: "conv5a"
  top: "conv5b"
  param {
    lr_mult: 1
    decay_mult: 1
  }
  param {
    lr_mult: 2
    decay_mult: 0
  }
  convolution_param {
    num_output: 512
    pad: 1
    pad: 1
    pad: 1
    kernel_size: 3
    kernel_size: 3
    kernel_size: 3
    weight_filler {
      type: "gaussian"
      std: 0.01
    }
    bias_filler {
      type: "constant"
      value: 1
    }
  }
}
layer {
  name: "relu5b"
  type: "ReLU"
  bottom: "conv5b"
  top: "conv5b"
}
layer {
  name: "rpn_conv/3x3"
  type: "Convolution"
  bottom: "conv5b"
  top: "rpn/output"
  param {
    lr_mult: 1
    decay_mult: 1
  }
  param {
    lr_mult: 2
    decay_mult: 0
  }
  convolution_param {
    num_output: 512
    pad: 1
    pad: 1
    pad: 1
    kernel_size: 3
    kernel_size: 3
    kernel_size: 3
    stride: 1
    stride: 2
    stride: 2
    weight_filler {
      type: "gaussian"
      std: 0.01
    }
    bias_filler {
      type: "constant"
      value: 0
    }
  }
}
layer {
  name: "rpn_relu/3x3"
  type: "ReLU"
  bottom: "rpn/output"
  top: "rpn/output"
}
layer {
  name: "rpn_conv/3x3_2"
  type: "Convolution"
  bottom: "rpn/output"
  top: "rpn/output_2"
  param {
    lr_mult: 1
    decay_mult: 1
  }
  param {
    lr_mult: 2
    decay_mult: 0
  }
  convolution_param {
    num_output: 512
    pad: 1
    pad: 1
    pad: 1
    kernel_size: 3
    kernel_size: 3
    kernel_size: 3
    stride: 1
    stride: 2
    stride: 2
    weight_filler {
      type: "gaussian"
      std: 0.01
    }
    bias_filler {
      type: "constant"
      value: 0
    }
  }
}
layer {
  name: "rpn_relu/3x3_2"
  type: "ReLU"
  bottom: "rpn/output_2"
  top: "rpn/output_2"
}
layer {
  name: "rpn/output_pool"
  type: "Pooling"
  bottom: "rpn/output_2"
  top: "rpn/output_pool"
  pooling_param {
    pool: MAX
    kernel_size: 1
    kernel_size: 2
    kernel_size: 2
  }
}
layer {
  name: "rpn_cls_score"
  type: "Convolution"
  bottom: "rpn/output_pool"
  top: "rpn_cls_score"
  param {
    lr_mult: 1
    decay_mult: 1
  }
  param {
    lr_mult: 2
    decay_mult: 0
  }
  convolution_param {
    num_output: 74
    kernel_size: 1
    kernel_size: 1
    kernel_size: 1
    weight_filler {
      type: "gaussian"
      std: 0.01
    }
    bias_filler {
      type: "constant"
      value: 0
    }
  }
}
layer {
  name: "rpn_twin_pred"
  type: "Convolution"
  bottom: "rpn/output_pool"
  top: "rpn_twin_pred"
  param {
    lr_mult: 1
    decay_mult: 1
  }
  param {
    lr_mult: 2
    decay_mult: 0
  }
  convolution_param {
    num_output: 74
    kernel_size: 1
    kernel_size: 1
    kernel_size: 1
    weight_filler {
      type: "gaussian"
      std: 0.01
    }
    bias_filler {
      type: "constant"
      value: 0
    }
  }
}
layer {
  name: "rpn_cls_score_reshape"
  type: "Reshape"
  bottom: "rpn_cls_score"
  top: "rpn_cls_score_reshape"
  reshape_param {
    shape {
      dim: 0
      dim: 2
      dim: -1
      dim: 0
      dim: 0
    }
  }
}
layer {
  name: "rpn-data"
  type: "Python"
  bottom: "rpn_cls_score"
  bottom: "gt_boxes"
  bottom: "data"
  top: "rpn_labels"
  top: "rpn_twin_targets"
  top: "rpn_twin_inside_weights"
  top: "rpn_twin_outside_weights"
  python_param {
    module: "rpn.anchor_target_layer"
    layer: "AnchorTargetLayer"
    param_str: "\'feat_stride\': 8 \n\'scales\': !!python/tuple [1,1.25, 1.5,1.75, 2,2.5, 3,3.5, 4,4.5, 5,5.5, 6,7, 8,9,10,11,12,14,16,18,20,22,24,28,32,36,40,44,52,60,68,76,84,92,100]"
  }
}
layer {
  name: "rpn_loss_cls"
  type: "SoftmaxWithLoss"
  bottom: "rpn_cls_score_reshape"
  bottom: "rpn_labels"
  top: "rpn_cls_loss"
  loss_weight: 1
  propagate_down: true
  propagate_down: false
  loss_param {
    ignore_label: -1
    normalize: true
  }
}
layer {
  name: "rpn_loss_twin"
  type: "SmoothL1Loss"
  bottom: "rpn_twin_pred"
  bottom: "rpn_twin_targets"
  bottom: "rpn_twin_inside_weights"
  bottom: "rpn_twin_outside_weights"
  top: "rpn_loss_twin"
  loss_weight: 1
  smooth_l1_loss_param {
    sigma: 3
  }
}
layer {
  name: "rpn_accuarcy"
  type: "Accuracy"
  bottom: "rpn_cls_score_reshape"
  bottom: "rpn_labels"
  top: "rpn_accuarcy"
  top: "rpn_accuarcy_class"
  propagate_down: false
  propagate_down: false
  accuracy_param {
    ignore_label: -1
  }
}
layer {
  name: "rpn_cls_prob"
  type: "Softmax"
  bottom: "rpn_cls_score_reshape"
  top: "rpn_cls_prob"
}
layer {
  name: "rpn_cls_prob_reshape"
  type: "Reshape"
  bottom: "rpn_cls_prob"
  top: "rpn_cls_prob_reshape"
  reshape_param {
    shape {
      dim: 0
      dim: 74
      dim: -1
      dim: 0
      dim: 0
    }
  }
}
layer {
  name: "proposal"
  type: "Python"
  bottom: "rpn_cls_prob_reshape"
  bottom: "rpn_twin_pred"
  top: "rpn_rois"
  include {
    phase: TRAIN
  }
  python_param {
    module: "rpn.proposal_layer"
    layer: "ProposalLayer"
    param_str: "\'feat_stride\': 8 \n\'scales\': !!python/tuple [1,1.25, 1.5,1.75, 2,2.5, 3,3.5, 4,4.5, 5,5.5, 6,7, 8,9,10,11,12,14,16,18,20,22,24,28,32,36,40,44,52,60,68,76,84,92,100]"
  }
}
layer {
  name: "roi-data"
  type: "Python"
  bottom: "rpn_rois"
  bottom: "gt_boxes"
  top: "rois"
  top: "labels"
  top: "twin_targets"
  top: "twin_inside_weights"
  top: "twin_outside_weights"
  python_param {
    module: "rpn.proposal_target_layer"
    layer: "ProposalTargetLayer"
    param_str: "\'num_classes\': 201"
  }
}
layer {
  name: "roi_pool5"
  type: "ROIPooling"
  bottom: "conv5b"
  bottom: "rois"
  top: "pool5"
  roi_pooling_param {
    pooled_h: 4
    pooled_w: 4
    spatial_scale: 0.0625
    pooled_l: 1
    temporal_scale: 0.125
  }
}
layer {
  name: "fc6"
  type: "InnerProduct"
  bottom: "pool5"
  top: "fc6"
  param {
    lr_mult: 1
    decay_mult: 1
  }
  param {
    lr_mult: 2
    decay_mult: 0
  }
  inner_product_param {
    num_output: 4096
    weight_filler {
      type: "gaussian"
      std: 0.005
    }
    bias_filler {
      type: "constant"
      value: 1
    }
  }
}
layer {
  name: "relu6"
  type: "ReLU"
  bottom: "fc6"
  top: "fc6"
}
layer {
  name: "drop6"
  type: "Dropout"
  bottom: "fc6"
  top: "fc6"
  dropout_param {
    dropout_ratio: 0.5
  }
}
layer {
  name: "cls_score"
  type: "InnerProduct"
  bottom: "fc6"
  top: "cls_score"
  param {
    lr_mult: 1
    decay_mult: 1
  }
  param {
    lr_mult: 2
    decay_mult: 0
  }
  inner_product_param {
    num_output: 201
    weight_filler {
      type: "gaussian"
      std: 0.01
    }
    bias_filler {
      type: "constant"
      value: 0
    }
  }
}
layer {
  name: "twin_pred"
  type: "InnerProduct"
  bottom: "fc6"
  top: "twin_pred"
  param {
    lr_mult: 1
    decay_mult: 1
  }
  param {
    lr_mult: 2
    decay_mult: 0
  }
  inner_product_param {
    num_output: 402
    weight_filler {
      type: "gaussian"
      std: 0.001
    }
    bias_filler {
      type: "constant"
      value: 0
    }
  }
}
layer {
  name: "loss_cls"
  type: "SoftmaxWithLoss"
  bottom: "cls_score"
  bottom: "labels"
  top: "loss_cls"
  loss_weight: 1
  propagate_down: true
  propagate_down: false
}
layer {
  name: "loss_twin"
  type: "SmoothL1Loss"
  bottom: "twin_pred"
  bottom: "twin_targets"
  bottom: "twin_inside_weights"
  bottom: "twin_outside_weights"
  top: "loss_twin"
  loss_weight: 1
}
layer {
  name: "accuarcy"
  type: "Accuracy"
  bottom: "cls_score"
  bottom: "labels"
  top: "accuarcy"
  propagate_down: false
  propagate_down: false
  accuracy_param {
    ignore_label: -1
  }
}
I0416 10:47:08.331015 11830 layer_factory.hpp:77] Creating layer data
I0416 10:47:08.342823 11830 net.cpp:100] Creating Layer data
I0416 10:47:08.342849 11830 net.cpp:408] data -> data
I0416 10:47:08.342862 11830 net.cpp:408] data -> gt_boxes
RoiDataLayer: name_to_top: {'gt_windows': 1, 'data': 0}
I0416 10:47:08.351392 11830 net.cpp:150] Setting up data
I0416 10:47:08.351426 11830 net.cpp:157] Top shape: 1 3 768 112 112 (28901376)
I0416 10:47:08.351433 11830 net.cpp:157] Top shape: 1 3 (3)
I0416 10:47:08.351438 11830 net.cpp:165] Memory required for data: 115605516
I0416 10:47:08.351445 11830 layer_factory.hpp:77] Creating layer data_data_0_split
I0416 10:47:08.351459 11830 net.cpp:100] Creating Layer data_data_0_split
I0416 10:47:08.351466 11830 net.cpp:434] data_data_0_split <- data
I0416 10:47:08.351478 11830 net.cpp:408] data_data_0_split -> data_data_0_split_0
I0416 10:47:08.351491 11830 net.cpp:408] data_data_0_split -> data_data_0_split_1
I0416 10:47:08.351542 11830 net.cpp:150] Setting up data_data_0_split
I0416 10:47:08.351552 11830 net.cpp:157] Top shape: 1 3 768 112 112 (28901376)
I0416 10:47:08.351557 11830 net.cpp:157] Top shape: 1 3 768 112 112 (28901376)
I0416 10:47:08.351562 11830 net.cpp:165] Memory required for data: 346816524
I0416 10:47:08.351567 11830 layer_factory.hpp:77] Creating layer gt_boxes_data_1_split
I0416 10:47:08.351577 11830 net.cpp:100] Creating Layer gt_boxes_data_1_split
I0416 10:47:08.351581 11830 net.cpp:434] gt_boxes_data_1_split <- gt_boxes
I0416 10:47:08.351588 11830 net.cpp:408] gt_boxes_data_1_split -> gt_boxes_data_1_split_0
I0416 10:47:08.351599 11830 net.cpp:408] gt_boxes_data_1_split -> gt_boxes_data_1_split_1
I0416 10:47:08.351645 11830 net.cpp:150] Setting up gt_boxes_data_1_split
I0416 10:47:08.351652 11830 net.cpp:157] Top shape: 1 3 (3)
I0416 10:47:08.351657 11830 net.cpp:157] Top shape: 1 3 (3)
I0416 10:47:08.351661 11830 net.cpp:165] Memory required for data: 346816548
I0416 10:47:08.351666 11830 layer_factory.hpp:77] Creating layer conv1a
I0416 10:47:08.351683 11830 net.cpp:100] Creating Layer conv1a
I0416 10:47:08.351687 11830 net.cpp:434] conv1a <- data_data_0_split_0
I0416 10:47:08.351696 11830 net.cpp:408] conv1a -> conv1a
I0416 10:47:08.369350 11830 net.cpp:150] Setting up conv1a
I0416 10:47:08.369385 11830 net.cpp:157] Top shape: 1 64 768 112 112 (616562688)
I0416 10:47:08.369390 11830 net.cpp:165] Memory required for data: 2813067300
I0416 10:47:08.369410 11830 layer_factory.hpp:77] Creating layer relu1a
I0416 10:47:08.369426 11830 net.cpp:100] Creating Layer relu1a
I0416 10:47:08.369432 11830 net.cpp:434] relu1a <- conv1a
I0416 10:47:08.369442 11830 net.cpp:395] relu1a -> conv1a (in-place)
I0416 10:47:08.369457 11830 net.cpp:150] Setting up relu1a
I0416 10:47:08.369463 11830 net.cpp:157] Top shape: 1 64 768 112 112 (616562688)
I0416 10:47:08.369473 11830 net.cpp:165] Memory required for data: 5279318052
I0416 10:47:08.369477 11830 layer_factory.hpp:77] Creating layer pool1
I0416 10:47:08.369487 11830 net.cpp:100] Creating Layer pool1
I0416 10:47:08.369493 11830 net.cpp:434] pool1 <- conv1a
I0416 10:47:08.369505 11830 net.cpp:408] pool1 -> pool1
I0416 10:47:08.369606 11830 net.cpp:150] Setting up pool1
I0416 10:47:08.369613 11830 net.cpp:157] Top shape: 1 64 768 56 56 (154140672)
I0416 10:47:08.369617 11830 net.cpp:165] Memory required for data: 5895880740
I0416 10:47:08.369621 11830 layer_factory.hpp:77] Creating layer conv2a
I0416 10:47:08.369637 11830 net.cpp:100] Creating Layer conv2a
I0416 10:47:08.369642 11830 net.cpp:434] conv2a <- pool1
I0416 10:47:08.369648 11830 net.cpp:408] conv2a -> conv2a
I0416 10:47:08.376557 11830 net.cpp:150] Setting up conv2a
I0416 10:47:08.376587 11830 net.cpp:157] Top shape: 1 128 768 56 56 (308281344)
I0416 10:47:08.376591 11830 net.cpp:165] Memory required for data: 7129006116
I0416 10:47:08.376606 11830 layer_factory.hpp:77] Creating layer relu2a
I0416 10:47:08.376618 11830 net.cpp:100] Creating Layer relu2a
I0416 10:47:08.376624 11830 net.cpp:434] relu2a <- conv2a
I0416 10:47:08.376632 11830 net.cpp:395] relu2a -> conv2a (in-place)
I0416 10:47:08.376646 11830 net.cpp:150] Setting up relu2a
I0416 10:47:08.376652 11830 net.cpp:157] Top shape: 1 128 768 56 56 (308281344)
I0416 10:47:08.376657 11830 net.cpp:165] Memory required for data: 8362131492
I0416 10:47:08.376660 11830 layer_factory.hpp:77] Creating layer pool2
I0416 10:47:08.376677 11830 net.cpp:100] Creating Layer pool2
I0416 10:47:08.376682 11830 net.cpp:434] pool2 <- conv2a
I0416 10:47:08.376689 11830 net.cpp:408] pool2 -> pool2
I0416 10:47:08.376770 11830 net.cpp:150] Setting up pool2
I0416 10:47:08.376778 11830 net.cpp:157] Top shape: 1 128 384 28 28 (38535168)
I0416 10:47:08.376782 11830 net.cpp:165] Memory required for data: 8516272164
I0416 10:47:08.376786 11830 layer_factory.hpp:77] Creating layer conv3a
I0416 10:47:08.376801 11830 net.cpp:100] Creating Layer conv3a
I0416 10:47:08.376804 11830 net.cpp:434] conv3a <- pool2
I0416 10:47:08.376812 11830 net.cpp:408] conv3a -> conv3a
I0416 10:47:08.384881 11830 net.cpp:150] Setting up conv3a
I0416 10:47:08.384902 11830 net.cpp:157] Top shape: 1 256 384 28 28 (77070336)
I0416 10:47:08.384907 11830 net.cpp:165] Memory required for data: 8824553508
I0416 10:47:08.384920 11830 layer_factory.hpp:77] Creating layer relu3a
I0416 10:47:08.384930 11830 net.cpp:100] Creating Layer relu3a
I0416 10:47:08.384935 11830 net.cpp:434] relu3a <- conv3a
I0416 10:47:08.384945 11830 net.cpp:395] relu3a -> conv3a (in-place)
I0416 10:47:08.384954 11830 net.cpp:150] Setting up relu3a
I0416 10:47:08.384979 11830 net.cpp:157] Top shape: 1 256 384 28 28 (77070336)
I0416 10:47:08.384982 11830 net.cpp:165] Memory required for data: 9132834852
I0416 10:47:08.384986 11830 layer_factory.hpp:77] Creating layer conv3b
I0416 10:47:08.384999 11830 net.cpp:100] Creating Layer conv3b
I0416 10:47:08.385004 11830 net.cpp:434] conv3b <- conv3a
I0416 10:47:08.385011 11830 net.cpp:408] conv3b -> conv3b
I0416 10:47:08.401346 11830 net.cpp:150] Setting up conv3b
I0416 10:47:08.401372 11830 net.cpp:157] Top shape: 1 256 384 28 28 (77070336)
I0416 10:47:08.401376 11830 net.cpp:165] Memory required for data: 9441116196
I0416 10:47:08.401387 11830 layer_factory.hpp:77] Creating layer relu3b
I0416 10:47:08.401399 11830 net.cpp:100] Creating Layer relu3b
I0416 10:47:08.401404 11830 net.cpp:434] relu3b <- conv3b
I0416 10:47:08.401415 11830 net.cpp:395] relu3b -> conv3b (in-place)
I0416 10:47:08.401427 11830 net.cpp:150] Setting up relu3b
I0416 10:47:08.401434 11830 net.cpp:157] Top shape: 1 256 384 28 28 (77070336)
I0416 10:47:08.401438 11830 net.cpp:165] Memory required for data: 9749397540
I0416 10:47:08.401443 11830 layer_factory.hpp:77] Creating layer pool3
I0416 10:47:08.401453 11830 net.cpp:100] Creating Layer pool3
I0416 10:47:08.401474 11830 net.cpp:434] pool3 <- conv3b
I0416 10:47:08.401481 11830 net.cpp:408] pool3 -> pool3
I0416 10:47:08.401538 11830 net.cpp:150] Setting up pool3
I0416 10:47:08.401546 11830 net.cpp:157] Top shape: 1 256 192 14 14 (9633792)
I0416 10:47:08.401551 11830 net.cpp:165] Memory required for data: 9787932708
I0416 10:47:08.401554 11830 layer_factory.hpp:77] Creating layer conv4a
I0416 10:47:08.401568 11830 net.cpp:100] Creating Layer conv4a
I0416 10:47:08.401579 11830 net.cpp:434] conv4a <- pool3
I0416 10:47:08.401588 11830 net.cpp:408] conv4a -> conv4a
I0416 10:47:08.433210 11830 net.cpp:150] Setting up conv4a
I0416 10:47:08.433236 11830 net.cpp:157] Top shape: 1 512 192 14 14 (19267584)
I0416 10:47:08.433240 11830 net.cpp:165] Memory required for data: 9865003044
I0416 10:47:08.433259 11830 layer_factory.hpp:77] Creating layer relu4a
I0416 10:47:08.433270 11830 net.cpp:100] Creating Layer relu4a
I0416 10:47:08.433276 11830 net.cpp:434] relu4a <- conv4a
I0416 10:47:08.433285 11830 net.cpp:395] relu4a -> conv4a (in-place)
I0416 10:47:08.433296 11830 net.cpp:150] Setting up relu4a
I0416 10:47:08.433324 11830 net.cpp:157] Top shape: 1 512 192 14 14 (19267584)
I0416 10:47:08.433329 11830 net.cpp:165] Memory required for data: 9942073380
I0416 10:47:08.433333 11830 layer_factory.hpp:77] Creating layer conv4b
I0416 10:47:08.433351 11830 net.cpp:100] Creating Layer conv4b
I0416 10:47:08.433356 11830 net.cpp:434] conv4b <- conv4a
I0416 10:47:08.433362 11830 net.cpp:408] conv4b -> conv4b
I0416 10:47:08.491583 11830 net.cpp:150] Setting up conv4b
I0416 10:47:08.491618 11830 net.cpp:157] Top shape: 1 512 192 14 14 (19267584)
I0416 10:47:08.491622 11830 net.cpp:165] Memory required for data: 10019143716
I0416 10:47:08.491633 11830 layer_factory.hpp:77] Creating layer relu4b
I0416 10:47:08.491644 11830 net.cpp:100] Creating Layer relu4b
I0416 10:47:08.491650 11830 net.cpp:434] relu4b <- conv4b
I0416 10:47:08.491658 11830 net.cpp:395] relu4b -> conv4b (in-place)
I0416 10:47:08.491669 11830 net.cpp:150] Setting up relu4b
I0416 10:47:08.491675 11830 net.cpp:157] Top shape: 1 512 192 14 14 (19267584)
I0416 10:47:08.491680 11830 net.cpp:165] Memory required for data: 10096214052
I0416 10:47:08.491684 11830 layer_factory.hpp:77] Creating layer pool4
I0416 10:47:08.491693 11830 net.cpp:100] Creating Layer pool4
I0416 10:47:08.491698 11830 net.cpp:434] pool4 <- conv4b
I0416 10:47:08.491704 11830 net.cpp:408] pool4 -> pool4
I0416 10:47:08.491755 11830 net.cpp:150] Setting up pool4
I0416 10:47:08.491765 11830 net.cpp:157] Top shape: 1 512 96 7 7 (2408448)
I0416 10:47:08.491767 11830 net.cpp:165] Memory required for data: 10105847844
I0416 10:47:08.491772 11830 layer_factory.hpp:77] Creating layer conv5a
I0416 10:47:08.491785 11830 net.cpp:100] Creating Layer conv5a
I0416 10:47:08.491789 11830 net.cpp:434] conv5a <- pool4
I0416 10:47:08.491798 11830 net.cpp:408] conv5a -> conv5a
I0416 10:47:08.549947 11830 net.cpp:150] Setting up conv5a
I0416 10:47:08.549978 11830 net.cpp:157] Top shape: 1 512 96 7 7 (2408448)
I0416 10:47:08.549983 11830 net.cpp:165] Memory required for data: 10115481636
I0416 10:47:08.549993 11830 layer_factory.hpp:77] Creating layer relu5a
I0416 10:47:08.550006 11830 net.cpp:100] Creating Layer relu5a
I0416 10:47:08.550012 11830 net.cpp:434] relu5a <- conv5a
I0416 10:47:08.550020 11830 net.cpp:395] relu5a -> conv5a (in-place)
I0416 10:47:08.550031 11830 net.cpp:150] Setting up relu5a
I0416 10:47:08.550037 11830 net.cpp:157] Top shape: 1 512 96 7 7 (2408448)
I0416 10:47:08.550041 11830 net.cpp:165] Memory required for data: 10125115428
I0416 10:47:08.550045 11830 layer_factory.hpp:77] Creating layer conv5b
I0416 10:47:08.550060 11830 net.cpp:100] Creating Layer conv5b
I0416 10:47:08.550079 11830 net.cpp:434] conv5b <- conv5a
I0416 10:47:08.550088 11830 net.cpp:408] conv5b -> conv5b
I0416 10:47:08.608479 11830 net.cpp:150] Setting up conv5b
I0416 10:47:08.608507 11830 net.cpp:157] Top shape: 1 512 96 7 7 (2408448)
I0416 10:47:08.608511 11830 net.cpp:165] Memory required for data: 10134749220
I0416 10:47:08.608522 11830 layer_factory.hpp:77] Creating layer relu5b
I0416 10:47:08.608533 11830 net.cpp:100] Creating Layer relu5b
I0416 10:47:08.608539 11830 net.cpp:434] relu5b <- conv5b
I0416 10:47:08.608549 11830 net.cpp:395] relu5b -> conv5b (in-place)
I0416 10:47:08.608558 11830 net.cpp:150] Setting up relu5b
I0416 10:47:08.608564 11830 net.cpp:157] Top shape: 1 512 96 7 7 (2408448)
I0416 10:47:08.608567 11830 net.cpp:165] Memory required for data: 10144383012
I0416 10:47:08.608572 11830 layer_factory.hpp:77] Creating layer conv5b_relu5b_0_split
I0416 10:47:08.608578 11830 net.cpp:100] Creating Layer conv5b_relu5b_0_split
I0416 10:47:08.608582 11830 net.cpp:434] conv5b_relu5b_0_split <- conv5b
I0416 10:47:08.608587 11830 net.cpp:408] conv5b_relu5b_0_split -> conv5b_relu5b_0_split_0
I0416 10:47:08.608599 11830 net.cpp:408] conv5b_relu5b_0_split -> conv5b_relu5b_0_split_1
I0416 10:47:08.608662 11830 net.cpp:150] Setting up conv5b_relu5b_0_split
I0416 10:47:08.608674 11830 net.cpp:157] Top shape: 1 512 96 7 7 (2408448)
I0416 10:47:08.608678 11830 net.cpp:157] Top shape: 1 512 96 7 7 (2408448)
I0416 10:47:08.608683 11830 net.cpp:165] Memory required for data: 10163650596
I0416 10:47:08.608687 11830 layer_factory.hpp:77] Creating layer rpn_conv/3x3
I0416 10:47:08.608701 11830 net.cpp:100] Creating Layer rpn_conv/3x3
I0416 10:47:08.608706 11830 net.cpp:434] rpn_conv/3x3 <- conv5b_relu5b_0_split_0
I0416 10:47:08.608714 11830 net.cpp:408] rpn_conv/3x3 -> rpn/output
I0416 10:47:08.667836 11830 net.cpp:150] Setting up rpn_conv/3x3
I0416 10:47:08.667865 11830 net.cpp:157] Top shape: 1 512 96 4 4 (786432)
I0416 10:47:08.667870 11830 net.cpp:165] Memory required for data: 10166796324
I0416 10:47:08.667891 11830 layer_factory.hpp:77] Creating layer rpn_relu/3x3
I0416 10:47:08.667903 11830 net.cpp:100] Creating Layer rpn_relu/3x3
I0416 10:47:08.667909 11830 net.cpp:434] rpn_relu/3x3 <- rpn/output
I0416 10:47:08.667919 11830 net.cpp:395] rpn_relu/3x3 -> rpn/output (in-place)
I0416 10:47:08.667930 11830 net.cpp:150] Setting up rpn_relu/3x3
I0416 10:47:08.667954 11830 net.cpp:157] Top shape: 1 512 96 4 4 (786432)
I0416 10:47:08.667969 11830 net.cpp:165] Memory required for data: 10169942052
I0416 10:47:08.667984 11830 layer_factory.hpp:77] Creating layer rpn_conv/3x3_2
I0416 10:47:08.668009 11830 net.cpp:100] Creating Layer rpn_conv/3x3_2
I0416 10:47:08.668025 11830 net.cpp:434] rpn_conv/3x3_2 <- rpn/output
I0416 10:47:08.668043 11830 net.cpp:408] rpn_conv/3x3_2 -> rpn/output_2
I0416 10:47:08.726125 11830 net.cpp:150] Setting up rpn_conv/3x3_2
I0416 10:47:08.726156 11830 net.cpp:157] Top shape: 1 512 96 2 2 (196608)
I0416 10:47:08.726161 11830 net.cpp:165] Memory required for data: 10170728484
I0416 10:47:08.726171 11830 layer_factory.hpp:77] Creating layer rpn_relu/3x3_2
I0416 10:47:08.726182 11830 net.cpp:100] Creating Layer rpn_relu/3x3_2
I0416 10:47:08.726188 11830 net.cpp:434] rpn_relu/3x3_2 <- rpn/output_2
I0416 10:47:08.726197 11830 net.cpp:395] rpn_relu/3x3_2 -> rpn/output_2 (in-place)
I0416 10:47:08.726207 11830 net.cpp:150] Setting up rpn_relu/3x3_2
I0416 10:47:08.726212 11830 net.cpp:157] Top shape: 1 512 96 2 2 (196608)
I0416 10:47:08.726217 11830 net.cpp:165] Memory required for data: 10171514916
I0416 10:47:08.726222 11830 layer_factory.hpp:77] Creating layer rpn/output_pool
I0416 10:47:08.726231 11830 net.cpp:100] Creating Layer rpn/output_pool
I0416 10:47:08.726235 11830 net.cpp:434] rpn/output_pool <- rpn/output_2
I0416 10:47:08.726243 11830 net.cpp:408] rpn/output_pool -> rpn/output_pool
I0416 10:47:08.726306 11830 net.cpp:150] Setting up rpn/output_pool
I0416 10:47:08.726318 11830 net.cpp:157] Top shape: 1 512 96 1 1 (49152)
I0416 10:47:08.726322 11830 net.cpp:165] Memory required for data: 10171711524
I0416 10:47:08.726326 11830 layer_factory.hpp:77] Creating layer rpn/output_pool_rpn/output_pool_0_split
I0416 10:47:08.726336 11830 net.cpp:100] Creating Layer rpn/output_pool_rpn/output_pool_0_split
I0416 10:47:08.726341 11830 net.cpp:434] rpn/output_pool_rpn/output_pool_0_split <- rpn/output_pool
I0416 10:47:08.726349 11830 net.cpp:408] rpn/output_pool_rpn/output_pool_0_split -> rpn/output_pool_rpn/output_pool_0_split_0
I0416 10:47:08.726357 11830 net.cpp:408] rpn/output_pool_rpn/output_pool_0_split -> rpn/output_pool_rpn/output_pool_0_split_1
I0416 10:47:08.726420 11830 net.cpp:150] Setting up rpn/output_pool_rpn/output_pool_0_split
I0416 10:47:08.726430 11830 net.cpp:157] Top shape: 1 512 96 1 1 (49152)
I0416 10:47:08.726435 11830 net.cpp:157] Top shape: 1 512 96 1 1 (49152)
I0416 10:47:08.726439 11830 net.cpp:165] Memory required for data: 10172104740
I0416 10:47:08.726444 11830 layer_factory.hpp:77] Creating layer rpn_cls_score
I0416 10:47:08.726456 11830 net.cpp:100] Creating Layer rpn_cls_score
I0416 10:47:08.726461 11830 net.cpp:434] rpn_cls_score <- rpn/output_pool_rpn/output_pool_0_split_0
I0416 10:47:08.726472 11830 net.cpp:408] rpn_cls_score -> rpn_cls_score
I0416 10:47:08.727041 11830 net.cpp:150] Setting up rpn_cls_score
I0416 10:47:08.727049 11830 net.cpp:157] Top shape: 1 74 96 1 1 (7104)
I0416 10:47:08.727053 11830 net.cpp:165] Memory required for data: 10172133156
I0416 10:47:08.727061 11830 layer_factory.hpp:77] Creating layer rpn_cls_score_rpn_cls_score_0_split
I0416 10:47:08.727069 11830 net.cpp:100] Creating Layer rpn_cls_score_rpn_cls_score_0_split
I0416 10:47:08.727073 11830 net.cpp:434] rpn_cls_score_rpn_cls_score_0_split <- rpn_cls_score
I0416 10:47:08.727082 11830 net.cpp:408] rpn_cls_score_rpn_cls_score_0_split -> rpn_cls_score_rpn_cls_score_0_split_0
I0416 10:47:08.727090 11830 net.cpp:408] rpn_cls_score_rpn_cls_score_0_split -> rpn_cls_score_rpn_cls_score_0_split_1
I0416 10:47:08.727154 11830 net.cpp:150] Setting up rpn_cls_score_rpn_cls_score_0_split
I0416 10:47:08.727164 11830 net.cpp:157] Top shape: 1 74 96 1 1 (7104)
I0416 10:47:08.727169 11830 net.cpp:157] Top shape: 1 74 96 1 1 (7104)
I0416 10:47:08.727172 11830 net.cpp:165] Memory required for data: 10172189988
I0416 10:47:08.727177 11830 layer_factory.hpp:77] Creating layer rpn_twin_pred
I0416 10:47:08.727198 11830 net.cpp:100] Creating Layer rpn_twin_pred
I0416 10:47:08.727206 11830 net.cpp:434] rpn_twin_pred <- rpn/output_pool_rpn/output_pool_0_split_1
I0416 10:47:08.727214 11830 net.cpp:408] rpn_twin_pred -> rpn_twin_pred
I0416 10:47:08.727761 11830 net.cpp:150] Setting up rpn_twin_pred
I0416 10:47:08.727771 11830 net.cpp:157] Top shape: 1 74 96 1 1 (7104)
I0416 10:47:08.727774 11830 net.cpp:165] Memory required for data: 10172218404
I0416 10:47:08.727782 11830 layer_factory.hpp:77] Creating layer rpn_twin_pred_rpn_twin_pred_0_split
I0416 10:47:08.727788 11830 net.cpp:100] Creating Layer rpn_twin_pred_rpn_twin_pred_0_split
I0416 10:47:08.727793 11830 net.cpp:434] rpn_twin_pred_rpn_twin_pred_0_split <- rpn_twin_pred
I0416 10:47:08.727802 11830 net.cpp:408] rpn_twin_pred_rpn_twin_pred_0_split -> rpn_twin_pred_rpn_twin_pred_0_split_0
I0416 10:47:08.727811 11830 net.cpp:408] rpn_twin_pred_rpn_twin_pred_0_split -> rpn_twin_pred_rpn_twin_pred_0_split_1
I0416 10:47:08.727872 11830 net.cpp:150] Setting up rpn_twin_pred_rpn_twin_pred_0_split
I0416 10:47:08.727881 11830 net.cpp:157] Top shape: 1 74 96 1 1 (7104)
I0416 10:47:08.727886 11830 net.cpp:157] Top shape: 1 74 96 1 1 (7104)
I0416 10:47:08.727890 11830 net.cpp:165] Memory required for data: 10172275236
I0416 10:47:08.727895 11830 layer_factory.hpp:77] Creating layer rpn_cls_score_reshape
I0416 10:47:08.727906 11830 net.cpp:100] Creating Layer rpn_cls_score_reshape
I0416 10:47:08.727911 11830 net.cpp:434] rpn_cls_score_reshape <- rpn_cls_score_rpn_cls_score_0_split_0
I0416 10:47:08.727919 11830 net.cpp:408] rpn_cls_score_reshape -> rpn_cls_score_reshape
I0416 10:47:08.727960 11830 net.cpp:150] Setting up rpn_cls_score_reshape
I0416 10:47:08.727970 11830 net.cpp:157] Top shape: 1 2 3552 1 1 (7104)
I0416 10:47:08.727974 11830 net.cpp:165] Memory required for data: 10172303652
I0416 10:47:08.727978 11830 layer_factory.hpp:77] Creating layer rpn_cls_score_reshape_rpn_cls_score_reshape_0_split
I0416 10:47:08.727986 11830 net.cpp:100] Creating Layer rpn_cls_score_reshape_rpn_cls_score_reshape_0_split
I0416 10:47:08.727990 11830 net.cpp:434] rpn_cls_score_reshape_rpn_cls_score_reshape_0_split <- rpn_cls_score_reshape
I0416 10:47:08.727999 11830 net.cpp:408] rpn_cls_score_reshape_rpn_cls_score_reshape_0_split -> rpn_cls_score_reshape_rpn_cls_score_reshape_0_split_0
I0416 10:47:08.728015 11830 net.cpp:408] rpn_cls_score_reshape_rpn_cls_score_reshape_0_split -> rpn_cls_score_reshape_rpn_cls_score_reshape_0_split_1
I0416 10:47:08.728029 11830 net.cpp:408] rpn_cls_score_reshape_rpn_cls_score_reshape_0_split -> rpn_cls_score_reshape_rpn_cls_score_reshape_0_split_2
I0416 10:47:08.728097 11830 net.cpp:150] Setting up rpn_cls_score_reshape_rpn_cls_score_reshape_0_split
I0416 10:47:08.728106 11830 net.cpp:157] Top shape: 1 2 3552 1 1 (7104)
I0416 10:47:08.728112 11830 net.cpp:157] Top shape: 1 2 3552 1 1 (7104)
I0416 10:47:08.728117 11830 net.cpp:157] Top shape: 1 2 3552 1 1 (7104)
I0416 10:47:08.728121 11830 net.cpp:165] Memory required for data: 10172388900
I0416 10:47:08.728126 11830 layer_factory.hpp:77] Creating layer rpn-data
I0416 10:47:08.728524 11830 net.cpp:100] Creating Layer rpn-data
I0416 10:47:08.728536 11830 net.cpp:434] rpn-data <- rpn_cls_score_rpn_cls_score_0_split_1
I0416 10:47:08.728543 11830 net.cpp:434] rpn-data <- gt_boxes_data_1_split_0
I0416 10:47:08.728549 11830 net.cpp:434] rpn-data <- data_data_0_split_1
I0416 10:47:08.728557 11830 net.cpp:408] rpn-data -> rpn_labels
I0416 10:47:08.728567 11830 net.cpp:408] rpn-data -> rpn_twin_targets
I0416 10:47:08.728577 11830 net.cpp:408] rpn-data -> rpn_twin_inside_weights
I0416 10:47:08.728586 11830 net.cpp:408] rpn-data -> rpn_twin_outside_weights
I0416 10:47:08.731076 11830 net.cpp:150] Setting up rpn-data
I0416 10:47:08.731091 11830 net.cpp:157] Top shape: 1 1 3552 1 1 (3552)
I0416 10:47:08.731096 11830 net.cpp:157] Top shape: 1 74 96 1 1 (7104)
I0416 10:47:08.731101 11830 net.cpp:157] Top shape: 1 74 96 1 1 (7104)
I0416 10:47:08.731106 11830 net.cpp:157] Top shape: 1 74 96 1 1 (7104)
I0416 10:47:08.731111 11830 net.cpp:165] Memory required for data: 10172488356
I0416 10:47:08.731115 11830 layer_factory.hpp:77] Creating layer rpn_labels_rpn-data_0_split
I0416 10:47:08.731123 11830 net.cpp:100] Creating Layer rpn_labels_rpn-data_0_split
I0416 10:47:08.731128 11830 net.cpp:434] rpn_labels_rpn-data_0_split <- rpn_labels
I0416 10:47:08.731137 11830 net.cpp:408] rpn_labels_rpn-data_0_split -> rpn_labels_rpn-data_0_split_0
I0416 10:47:08.731145 11830 net.cpp:408] rpn_labels_rpn-data_0_split -> rpn_labels_rpn-data_0_split_1
I0416 10:47:08.731191 11830 net.cpp:150] Setting up rpn_labels_rpn-data_0_split
I0416 10:47:08.731200 11830 net.cpp:157] Top shape: 1 1 3552 1 1 (3552)
I0416 10:47:08.731205 11830 net.cpp:157] Top shape: 1 1 3552 1 1 (3552)
I0416 10:47:08.731209 11830 net.cpp:165] Memory required for data: 10172516772
I0416 10:47:08.731214 11830 layer_factory.hpp:77] Creating layer rpn_loss_cls
I0416 10:47:08.731222 11830 net.cpp:100] Creating Layer rpn_loss_cls
I0416 10:47:08.731227 11830 net.cpp:434] rpn_loss_cls <- rpn_cls_score_reshape_rpn_cls_score_reshape_0_split_0
I0416 10:47:08.731233 11830 net.cpp:434] rpn_loss_cls <- rpn_labels_rpn-data_0_split_0
…
I0416 10:47:08.731549 11830 layer_factory.hpp:77] Creating layer rpn_accuarcy
I0416 10:47:08.731559 11830 net.cpp:100] Creating Layer rpn_accuarcy
I0416 10:47:08.731564 11830 net.cpp:434] rpn_accuarcy <- rpn_cls_score_reshape_rpn_cls_score_reshape_0_split_1
I0416 10:47:08.731570 11830 net.cpp:434] rpn_accuarcy <- rpn_labels_rpn-data_0_split_1
I0416 10:47:08.731576 11830 net.cpp:408] rpn_accuarcy -> rpn_accuarcy
I0416 10:47:08.731585 11830 net.cpp:408] rpn_accuarcy -> rpn_accuarcy_class
I0416 10:47:08.731631 11830 net.cpp:150] Setting up rpn_accuarcy
I0416 10:47:08.731638 11830 net.cpp:157] Top shape: (1)
I0416 10:47:08.731643 11830 net.cpp:157] Top shape: 2 (2)
I0416 10:47:08.731647 11830 net.cpp:165] Memory required for data: 10172516792
I0416 10:47:08.731652 11830 layer_factory.hpp:77] Creating layer rpn_cls_prob
I0416 10:47:08.731662 11830 net.cpp:100] Creating Layer rpn_cls_prob
I0416 10:47:08.731667 11830 net.cpp:434] rpn_cls_prob <- rpn_cls_score_reshape_rpn_cls_score_reshape_0_split_2
I0416 10:47:08.731673 11830 net.cpp:408] rpn_cls_prob -> rpn_cls_prob
I0416 10:47:08.731745 11830 net.cpp:150] Setting up rpn_cls_prob
I0416 10:47:08.731755 11830 net.cpp:157] Top shape: 1 2 3552 1 1 (7104)
I0416 10:47:08.731758 11830 net.cpp:165] Memory required for data: 10172545208
I0416 10:47:08.731762 11830 layer_factory.hpp:77] Creating layer rpn_cls_prob_reshape
I0416 10:47:08.731770 11830 net.cpp:100] Creating Layer rpn_cls_prob_reshape
I0416 10:47:08.731775 11830 net.cpp:434] rpn_cls_prob_reshape <- rpn_cls_prob
I0416 10:47:08.731784 11830 net.cpp:408] rpn_cls_prob_reshape -> rpn_cls_prob_reshape
I0416 10:47:08.731814 11830 net.cpp:150] Setting up rpn_cls_prob_reshape
I0416 10:47:08.731822 11830 net.cpp:157] Top shape: 1 74 96 1 1 (7104)
I0416 10:47:08.731825 11830 net.cpp:165] Memory required for data: 10172573624
I0416 10:47:08.731829 11830 layer_factory.hpp:77] Creating layer proposal
I0416 10:47:08.732374 11830 net.cpp:100] Creating Layer proposal
I0416 10:47:08.732386 11830 net.cpp:434] proposal <- rpn_cls_prob_reshape
I0416 10:47:08.732393 11830 net.cpp:434] proposal <- rpn_twin_pred_rpn_twin_pred_0_split_1
I0416 10:47:08.732403 11830 net.cpp:408] proposal -> rpn_rois
I0416 10:47:08.736057 11830 net.cpp:150] Setting up proposal
I0416 10:47:08.736095 11830 net.cpp:157] Top shape: 1 3 (3)
I0416 10:47:08.736110 11830 net.cpp:165] Memory required for data: 10172573636
I0416 10:47:08.736125 11830 layer_factory.hpp:77] Creating layer roi-data
I0416 10:47:08.736318 11830 net.cpp:100] Creating Layer roi-data
I0416 10:47:08.736373 11830 net.cpp:434] roi-data <- rpn_rois
I0416 10:47:08.736392 11830 net.cpp:434] roi-data <- gt_boxes_data_1_split_1
I0416 10:47:08.736412 11830 net.cpp:408] roi-data -> rois
I0416 10:47:08.736435 11830 net.cpp:408] roi-data -> labels
I0416 10:47:08.736454 11830 net.cpp:408] roi-data -> twin_targets
I0416 10:47:08.736471 11830 net.cpp:408] roi-data -> twin_inside_weights
I0416 10:47:08.736490 11830 net.cpp:408] roi-data -> twin_outside_weights
I0416 10:47:08.736964 11830 net.cpp:150] Setting up roi-data
I0416 10:47:08.736992 11830 net.cpp:157] Top shape: 1 3 (3)
I0416 10:47:08.737009 11830 net.cpp:157] Top shape: 1 1 (1)
I0416 10:47:08.737022 11830 net.cpp:157] Top shape: 1 402 (402)
I0416 10:47:08.737035 11830 net.cpp:157] Top shape: 1 402 (402)
I0416 10:47:08.737048 11830 net.cpp:157] Top shape: 1 402 (402)
I0416 10:47:08.737059 11830 net.cpp:165] Memory required for data: 10172578476
I0416 10:47:08.737073 11830 layer_factory.hpp:77] Creating layer labels_roi-data_1_split
I0416 10:47:08.737089 11830 net.cpp:100] Creating Layer labels_roi-data_1_split
I0416 10:47:08.737102 11830 net.cpp:434] labels_roi-data_1_split <- labels
I0416 10:47:08.737118 11830 net.cpp:408] labels_roi-data_1_split -> labels_roi-data_1_split_0
I0416 10:47:08.737138 11830 net.cpp:408] labels_roi-data_1_split -> labels_roi-data_1_split_1
I0416 10:47:08.737203 11830 net.cpp:150] Setting up labels_roi-data_1_split
I0416 10:47:08.737222 11830 net.cpp:157] Top shape: 1 1 (1)
I0416 10:47:08.737236 11830 net.cpp:157] Top shape: 1 1 (1)
I0416 10:47:08.737247 11830 net.cpp:165] Memory required for data: 10172578484
I0416 10:47:08.737260 11830 layer_factory.hpp:77] Creating layer roi_pool5
I0416 10:47:08.737278 11830 net.cpp:100] Creating Layer roi_pool5
I0416 10:47:08.737300 11830 net.cpp:434] roi_pool5 <- conv5b_relu5b_0_split_1
I0416 10:47:08.737316 11830 net.cpp:434] roi_pool5 <- rois
I0416 10:47:08.737334 11830 net.cpp:408] roi_pool5 -> pool5
I0416 10:47:08.737354 11830 roi_pooling_layer.cpp:34] Temporal scale: 0.125
I0416 10:47:08.737375 11830 roi_pooling_layer.cpp:35] Spatial scale: 0.0625
I0416 10:47:08.737442 11830 net.cpp:150] Setting up roi_pool5
I0416 10:47:08.737462 11830 net.cpp:157] Top shape: 1 512 1 4 4 (8192)
I0416 10:47:08.737478 11830 net.cpp:165] Memory required for data: 10172611252
I0416 10:47:08.737498 11830 layer_factory.hpp:77] Creating layer fc6
I0416 10:47:08.737520 11830 net.cpp:100] Creating Layer fc6
I0416 10:47:08.737538 11830 net.cpp:434] fc6 <- pool5
I0416 10:47:08.737555 11830 net.cpp:408] fc6 -> fc6
I0416 10:47:09.013286 11830 net.cpp:150] Setting up fc6
I0416 10:47:09.013317 11830 net.cpp:157] Top shape: 1 4096 (4096)
I0416 10:47:09.013321 11830 net.cpp:165] Memory required for data: 10172627636
I0416 10:47:09.013335 11830 layer_factory.hpp:77] Creating layer relu6
I0416 10:47:09.013347 11830 net.cpp:100] Creating Layer relu6
I0416 10:47:09.013353 11830 net.cpp:434] relu6 <- fc6
I0416 10:47:09.013361 11830 net.cpp:395] relu6 -> fc6 (in-place)
I0416 10:47:09.013372 11830 net.cpp:150] Setting up relu6
I0416 10:47:09.013378 11830 net.cpp:157] Top shape: 1 4096 (4096)
I0416 10:47:09.013382 11830 net.cpp:165] Memory required for data: 10172644020
I0416 10:47:09.013386 11830 layer_factory.hpp:77] Creating layer drop6
I0416 10:47:09.013394 11830 net.cpp:100] Creating Layer drop6
I0416 10:47:09.013398 11830 net.cpp:434] drop6 <- fc6
I0416 10:47:09.013406 11830 net.cpp:395] drop6 -> fc6 (in-place)
I0416 10:47:09.013442 11830 net.cpp:150] Setting up drop6
I0416 10:47:09.013450 11830 net.cpp:157] Top shape: 1 4096 (4096)
I0416 10:47:09.013453 11830 net.cpp:165] Memory required for data: 10172660404
I0416 10:47:09.013458 11830 layer_factory.hpp:77] Creating layer fc6_drop6_0_split
I0416 10:47:09.013465 11830 net.cpp:100] Creating Layer fc6_drop6_0_split
I0416 10:47:09.013470 11830 net.cpp:434] fc6_drop6_0_split <- fc6
I0416 10:47:09.013478 11830 net.cpp:408] fc6_drop6_0_split -> fc6_drop6_0_split_0
I0416 10:47:09.013487 11830 net.cpp:408] fc6_drop6_0_split -> fc6_drop6_0_split_1
I0416 10:47:09.013538 11830 net.cpp:150] Setting up fc6_drop6_0_split
I0416 10:47:09.013545 11830 net.cpp:157] Top shape: 1 4096 (4096)
I0416 10:47:09.013550 11830 net.cpp:157] Top shape: 1 4096 (4096)
I0416 10:47:09.013555 11830 net.cpp:165] Memory required for data: 10172693172
I0416 10:47:09.013558 11830 layer_factory.hpp:77] Creating layer cls_score
I0416 10:47:09.013569 11830 net.cpp:100] Creating Layer cls_score
I0416 10:47:09.013574 11830 net.cpp:434] cls_score <- fc6_drop6_0_split_0
I0416 10:47:09.013582 11830 net.cpp:408] cls_score -> cls_score
I0416 10:47:09.020978 11830 net.cpp:150] Setting up cls_score
I0416 10:47:09.021003 11830 net.cpp:157] Top shape: 1 201 (201)
I0416 10:47:09.021006 11830 net.cpp:165] Memory required for data: 10172693976
I0416 10:47:09.021018 11830 layer_factory.hpp:77] Creating layer cls_score_cls_score_0_split
I0416 10:47:09.021031 11830 net.cpp:100] Creating Layer cls_score_cls_score_0_split
I0416 10:47:09.021036 11830 net.cpp:434] cls_score_cls_score_0_split <- cls_score
I0416 10:47:09.021045 11830 net.cpp:408] cls_score_cls_score_0_split -> cls_score_cls_score_0_split_0
I0416 10:47:09.021057 11830 net.cpp:408] cls_score_cls_score_0_split -> cls_score_cls_score_0_split_1
I0416 10:47:09.021131 11830 net.cpp:150] Setting up cls_score_cls_score_0_split
I0416 10:47:09.021138 11830 net.cpp:157] Top shape: 1 201 (201)
I0416 10:47:09.021142 11830 net.cpp:157] Top shape: 1 201 (201)
I0416 10:47:09.021147 11830 net.cpp:165] Memory required for data: 10172695584
I0416 10:47:09.021150 11830 layer_factory.hpp:77] Creating layer twin_pred
I0416 10:47:09.021162 11830 net.cpp:100] Creating Layer twin_pred
I0416 10:47:09.021167 11830 net.cpp:434] twin_pred <- fc6_drop6_0_split_1
I0416 10:47:09.021175 11830 net.cpp:408] twin_pred -> twin_pred
I0416 10:47:09.035121 11830 net.cpp:150] Setting up twin_pred
I0416 10:47:09.035151 11830 net.cpp:157] Top shape: 1 402 (402)
I0416 10:47:09.035154 11830 net.cpp:165] Memory required for data: 10172697192
I0416 10:47:09.035166 11830 layer_factory.hpp:77] Creating layer loss_cls
I0416 10:47:09.035179 11830 net.cpp:100] Creating Layer loss_cls
I0416 10:47:09.035184 11830 net.cpp:434] loss_cls <- cls_score_cls_score_0_split_0
I0416 10:47:09.035192 11830 net.cpp:434] loss_cls <- labels_roi-data_1_split_0
I0416 10:47:09.035202 11830 net.cpp:408] loss_cls -> loss_cls
…
