…
stepsize: 350000
snapshot: 0
snapshot_prefix: "./experiments/activitynet/snapshot/activitynet"
average_loss: 100
iter_size: 1
I0417 22:05:19.836874  1196 solver.cpp:81] Creating training net from train_net file: ./experiments/activitynet/train.prototxt
I0417 22:05:19.837978  1196 net.cpp:58] Initializing net from parameters: 
name: "activitynet"
state {
  phase: TRAIN
}
layer {
  name: "data"
  type: "Python"
  top: "data"
  top: "gt_boxes"
  python_param {
    module: "roi_data_layer.layer"
    layer: "RoIDataLayer"
    param_str: "\'num_classes\': 100"
  }
}
layer {
  name: "conv1a"
  type: "Convolution"
  bottom: "data"
  top: "conv1a"
  param {
    lr_mult: 0
    decay_mult: 0
  }
  param {
    lr_mult: 0
    decay_mult: 0
  }
  convolution_param {
    num_output: 64
    pad: 1
    pad: 1
    pad: 1
    kernel_size: 3
    kernel_size: 3
    kernel_size: 3
    weight_filler {
      type: "gaussian"
      std: 0.01
    }
    bias_filler {
      type: "constant"
      value: 0
    }
  }
}
layer {
  name: "relu1a"
  type: "ReLU"
  bottom: "conv1a"
  top: "conv1a"
}
layer {
  name: "pool1"
  type: "Pooling"
  bottom: "conv1a"
  top: "pool1"
  pooling_param {
    pool: MAX
    kernel_size: 1
    kernel_size: 2
    kernel_size: 2
    stride: 1
    stride: 2
    stride: 2
  }
}
layer {
  name: "conv2a"
  type: "Convolution"
  bottom: "pool1"
  top: "conv2a"
  param {
    lr_mult: 0
    decay_mult: 0
  }
  param {
    lr_mult: 0
    decay_mult: 0
  }
  convolution_param {
    num_output: 128
    pad: 1
    pad: 1
    pad: 1
    kernel_size: 3
    kernel_size: 3
    kernel_size: 3
    weight_filler {
      type: "gaussian"
      std: 0.01
    }
    bias_filler {
      type: "constant"
      value: 1
    }
  }
}
layer {
  name: "relu2a"
  type: "ReLU"
  bottom: "conv2a"
  top: "conv2a"
}
layer {
  name: "pool2"
  type: "Pooling"
  bottom: "conv2a"
  top: "pool2"
  pooling_param {
    pool: MAX
    kernel_size: 2
    kernel_size: 2
    kernel_size: 2
    stride: 2
    stride: 2
    stride: 2
  }
}
layer {
  name: "conv3a"
  type: "Convolution"
  bottom: "pool2"
  top: "conv3a"
  param {
    lr_mult: 1
    decay_mult: 1
  }
  param {
    lr_mult: 2
    decay_mult: 0
  }
  convolution_param {
    num_output: 256
    pad: 1
    pad: 1
    pad: 1
    kernel_size: 3
    kernel_size: 3
    kernel_size: 3
    weight_filler {
      type: "gaussian"
      std: 0.01
    }
    bias_filler {
      type: "constant"
      value: 1
    }
  }
}
layer {
  name: "relu3a"
  type: "ReLU"
  bottom: "conv3a"
  top: "conv3a"
}
layer {
  name: "conv3b"
  type: "Convolution"
  bottom: "conv3a"
  top: "conv3b"
  param {
    lr_mult: 1
    decay_mult: 1
  }
  param {
    lr_mult: 2
    decay_mult: 0
  }
  convolution_param {
    num_output: 256
    pad: 1
    pad: 1
    pad: 1
    kernel_size: 3
    kernel_size: 3
    kernel_size: 3
    weight_filler {
      type: "gaussian"
      std: 0.01
    }
    bias_filler {
      type: "constant"
      value: 1
    }
  }
}
layer {
  name: "relu3b"
  type: "ReLU"
  bottom: "conv3b"
  top: "conv3b"
}
layer {
  name: "pool3"
  type: "Pooling"
  bottom: "conv3b"
  top: "pool3"
  pooling_param {
    pool: MAX
    kernel_size: 2
    kernel_size: 2
    kernel_size: 2
    stride: 2
    stride: 2
    stride: 2
  }
}
layer {
  name: "conv4a"
  type: "Convolution"
  bottom: "pool3"
  top: "conv4a"
  param {
    lr_mult: 1
    decay_mult: 1
  }
  param {
    lr_mult: 2
    decay_mult: 0
  }
  convolution_param {
    num_output: 512
    pad: 1
    pad: 1
    pad: 1
    kernel_size: 3
    kernel_size: 3
    kernel_size: 3
    weight_filler {
      type: "gaussian"
      std: 0.01
    }
    bias_filler {
      type: "constant"
      value: 1
    }
  }
}
layer {
  name: "relu4a"
  type: "ReLU"
  bottom: "conv4a"
  top: "conv4a"
}
layer {
  name: "conv4b"
  type: "Convolution"
  bottom: "conv4a"
  top: "conv4b"
  param {
    lr_mult: 1
    decay_mult: 1
  }
  param {
    lr_mult: 2
    decay_mult: 0
  }
  convolution_param {
    num_output: 512
    pad: 1
    pad: 1
    pad: 1
    kernel_size: 3
    kernel_size: 3
    kernel_size: 3
    weight_filler {
      type: "gaussian"
      std: 0.01
    }
    bias_filler {
      type: "constant"
      value: 1
    }
  }
}
layer {
  name: "relu4b"
  type: "ReLU"
  bottom: "conv4b"
  top: "conv4b"
}
layer {
  name: "pool4"
  type: "Pooling"
  bottom: "conv4b"
  top: "pool4"
  pooling_param {
    pool: MAX
    kernel_size: 2
    kernel_size: 2
    kernel_size: 2
    stride: 2
    stride: 2
    stride: 2
  }
}
layer {
  name: "conv5a"
  type: "Convolution"
  bottom: "pool4"
  top: "conv5a"
  param {
    lr_mult: 1
    decay_mult: 1
  }
  param {
    lr_mult: 2
    decay_mult: 0
  }
  convolution_param {
    num_output: 512
    pad: 1
    pad: 1
    pad: 1
    kernel_size: 3
    kernel_size: 3
    kernel_size: 3
    weight_filler {
      type: "gaussian"
      std: 0.01
    }
    bias_filler {
      type: "constant"
      value: 1
    }
  }
}
layer {
  name: "relu5a"
  type: "ReLU"
  bottom: "conv5a"
  top: "conv5a"
}
layer {
  name: "conv5b"
  type: "Convolution"
  bottom: "conv5a"
  top: "conv5b"
  param {
    lr_mult: 1
    decay_mult: 1
  }
  param {
    lr_mult: 2
    decay_mult: 0
  }
  convolution_param {
    num_output: 512
    pad: 1
    pad: 1
    pad: 1
    kernel_size: 3
    kernel_size: 3
    kernel_size: 3
    weight_filler {
      type: "gaussian"
      std: 0.01
    }
    bias_filler {
      type: "constant"
      value: 1
    }
  }
}
layer {
  name: "relu5b"
  type: "ReLU"
  bottom: "conv5b"
  top: "conv5b"
}
layer {
  name: "rpn_conv/3x3"
  type: "Convolution"
  bottom: "conv5b"
  top: "rpn/output"
  param {
    lr_mult: 1
    decay_mult: 1
  }
  param {
    lr_mult: 2
    decay_mult: 0
  }
  convolution_param {
    num_output: 512
    pad: 1
    pad: 1
    pad: 1
    kernel_size: 3
    kernel_size: 3
    kernel_size: 3
    stride: 1
    stride: 2
    stride: 2
    weight_filler {
      type: "gaussian"
      std: 0.01
    }
    bias_filler {
      type: "constant"
      value: 0
    }
  }
}
layer {
  name: "rpn_relu/3x3"
  type: "ReLU"
  bottom: "rpn/output"
  top: "rpn/output"
}
layer {
  name: "rpn_conv/3x3_2"
  type: "Convolution"
  bottom: "rpn/output"
  top: "rpn/output_2"
  param {
    lr_mult: 1
    decay_mult: 1
  }
  param {
    lr_mult: 2
    decay_mult: 0
  }
  convolution_param {
    num_output: 512
    pad: 1
    pad: 1
    pad: 1
    kernel_size: 3
    kernel_size: 3
    kernel_size: 3
    stride: 1
    stride: 2
    stride: 2
    weight_filler {
      type: "gaussian"
      std: 0.01
    }
    bias_filler {
      type: "constant"
      value: 0
    }
  }
}
layer {
  name: "rpn_relu/3x3_2"
  type: "ReLU"
  bottom: "rpn/output_2"
  top: "rpn/output_2"
}
layer {
  name: "rpn/output_pool"
  type: "Pooling"
  bottom: "rpn/output_2"
  top: "rpn/output_pool"
  pooling_param {
    pool: MAX
    kernel_size: 1
    kernel_size: 2
    kernel_size: 2
  }
}
layer {
  name: "rpn_cls_score"
  type: "Convolution"
  bottom: "rpn/output_pool"
  top: "rpn_cls_score"
  param {
    lr_mult: 1
    decay_mult: 1
  }
  param {
    lr_mult: 2
    decay_mult: 0
  }
  convolution_param {
    num_output: 74
    kernel_size: 1
    kernel_size: 1
    kernel_size: 1
    weight_filler {
      type: "gaussian"
      std: 0.01
    }
    bias_filler {
      type: "constant"
      value: 0
    }
  }
}
layer {
  name: "rpn_twin_pred"
  type: "Convolution"
  bottom: "rpn/output_pool"
  top: "rpn_twin_pred"
  param {
    lr_mult: 1
    decay_mult: 1
  }
  param {
    lr_mult: 2
    decay_mult: 0
  }
  convolution_param {
    num_output: 74
    kernel_size: 1
    kernel_size: 1
    kernel_size: 1
    weight_filler {
      type: "gaussian"
      std: 0.01
    }
    bias_filler {
      type: "constant"
      value: 0
    }
  }
}
layer {
  name: "rpn_cls_score_reshape"
  type: "Reshape"
  bottom: "rpn_cls_score"
  top: "rpn_cls_score_reshape"
  reshape_param {
    shape {
      dim: 0
      dim: 2
      dim: -1
      dim: 0
      dim: 0
    }
  }
}
layer {
  name: "rpn-data"
  type: "Python"
  bottom: "rpn_cls_score"
  bottom: "gt_boxes"
  bottom: "data"
  top: "rpn_labels"
  top: "rpn_twin_targets"
  top: "rpn_twin_inside_weights"
  top: "rpn_twin_outside_weights"
  python_param {
    module: "rpn.anchor_target_layer"
    layer: "AnchorTargetLayer"
    param_str: "\'feat_stride\': 8 \n\'scales\': !!python/tuple [1,1.25, 1.5,1.75, 2,2.5, 3,3.5, 4,4.5, 5,5.5, 6,7, 8,9,10,11,12,14,16,18,20,22,24,28,32,36,40,44,52,60,68,76,84,92,100]"
  }
}
layer {
  name: "rpn_loss_cls"
  type: "SoftmaxWithLoss"
  bottom: "rpn_cls_score_reshape"
  bottom: "rpn_labels"
  top: "rpn_cls_loss"
  loss_weight: 1
  propagate_down: true
  propagate_down: false
  loss_param {
    ignore_label: -1
    normalize: true
  }
}
layer {
  name: "rpn_loss_twin"
  type: "SmoothL1Loss"
  bottom: "rpn_twin_pred"
  bottom: "rpn_twin_targets"
  bottom: "rpn_twin_inside_weights"
  bottom: "rpn_twin_outside_weights"
  top: "rpn_loss_twin"
  loss_weight: 1
  smooth_l1_loss_param {
    sigma: 3
  }
}
layer {
  name: "rpn_accuarcy"
  type: "Accuracy"
  bottom: "rpn_cls_score_reshape"
  bottom: "rpn_labels"
  top: "rpn_accuarcy"
  top: "rpn_accuarcy_class"
  propagate_down: false
  propagate_down: false
  accuracy_param {
    ignore_label: -1
  }
}
layer {
  name: "rpn_cls_prob"
  type: "Softmax"
  bottom: "rpn_cls_score_reshape"
  top: "rpn_cls_prob"
}
layer {
  name: "rpn_cls_prob_reshape"
  type: "Reshape"
  bottom: "rpn_cls_prob"
  top: "rpn_cls_prob_reshape"
  reshape_param {
    shape {
      dim: 0
      dim: 74
      dim: -1
      dim: 0
      dim: 0
    }
  }
}
layer {
  name: "proposal"
  type: "Python"
  bottom: "rpn_cls_prob_reshape"
  bottom: "rpn_twin_pred"
  top: "rpn_rois"
  include {
    phase: TRAIN
  }
  python_param {
    module: "rpn.proposal_layer"
    layer: "ProposalLayer"
    param_str: "\'feat_stride\': 8 \n\'scales\': !!python/tuple [1,1.25, 1.5,1.75, 2,2.5, 3,3.5, 4,4.5, 5,5.5, 6,7, 8,9,10,11,12,14,16,18,20,22,24,28,32,36,40,44,52,60,68,76,84,92,100]"
  }
}
layer {
  name: "roi-data"
  type: "Python"
  bottom: "rpn_rois"
  bottom: "gt_boxes"
  top: "rois"
  top: "labels"
  top: "twin_targets"
  top: "twin_inside_weights"
  top: "twin_outside_weights"
  python_param {
    module: "rpn.proposal_target_layer"
    layer: "ProposalTargetLayer"
    param_str: "\'num_classes\': 201"
  }
}
layer {
  name: "roi_pool5"
  type: "ROIPooling"
  bottom: "conv5b"
  bottom: "rois"
  top: "pool5"
  roi_pooling_param {
    pooled_h: 4
    pooled_w: 4
    spatial_scale: 0.0625
    pooled_l: 1
    temporal_scale: 0.125
  }
}
layer {
  name: "fc6"
  type: "InnerProduct"
  bottom: "pool5"
  top: "fc6"
  param {
    lr_mult: 1
    decay_mult: 1
  }
  param {
    lr_mult: 2
    decay_mult: 0
  }
  inner_product_param {
    num_output: 4096
    weight_filler {
      type: "gaussian"
      std: 0.005
    }
    bias_filler {
      type: "constant"
      value: 1
    }
  }
}
layer {
  name: "relu6"
  type: "ReLU"
  bottom: "fc6"
  top: "fc6"
}
layer {
  name: "drop6"
  type: "Dropout"
  bottom: "fc6"
  top: "fc6"
  dropout_param {
    dropout_ratio: 0.5
  }
}
layer {
  name: "cls_score"
  type: "InnerProduct"
  bottom: "fc6"
  top: "cls_score"
  param {
    lr_mult: 1
    decay_mult: 1
  }
  param {
    lr_mult: 2
    decay_mult: 0
  }
  inner_product_param {
    num_output: 201
    weight_filler {
      type: "gaussian"
      std: 0.01
    }
    bias_filler {
      type: "constant"
      value: 0
    }
  }
}
layer {
  name: "twin_pred"
  type: "InnerProduct"
  bottom: "fc6"
  top: "twin_pred"
  param {
    lr_mult: 1
    decay_mult: 1
  }
  param {
    lr_mult: 2
    decay_mult: 0
  }
  inner_product_param {
    num_output: 402
    weight_filler {
      type: "gaussian"
      std: 0.001
    }
    bias_filler {
      type: "constant"
      value: 0
    }
  }
}
layer {
  name: "loss_cls"
  type: "SoftmaxWithLoss"
  bottom: "cls_score"
  bottom: "labels"
  top: "loss_cls"
  loss_weight: 1
  propagate_down: true
  propagate_down: false
}
layer {
  name: "loss_twin"
  type: "SmoothL1Loss"
  bottom: "twin_pred"
  bottom: "twin_targets"
  bottom: "twin_inside_weights"
  bottom: "twin_outside_weights"
  top: "loss_twin"
  loss_weight: 1
}
layer {
  name: "accuarcy"
  type: "Accuracy"
  bottom: "cls_score"
  bottom: "labels"
  top: "accuarcy"
  propagate_down: false
  propagate_down: false
  accuracy_param {
    ignore_label: -1
  }
}
I0417 22:05:19.838193  1196 layer_factory.hpp:77] Creating layer data
I0417 22:05:19.863464  1196 net.cpp:100] Creating Layer data
I0417 22:05:19.863487  1196 net.cpp:408] data -> data
I0417 22:05:19.863517  1196 net.cpp:408] data -> gt_boxes
setting up
has rpn
RoiDataLayer: name_to_top: {'gt_windows': 1, 'data': 0}
I0417 22:05:19.877441  1196 net.cpp:150] Setting up data
I0417 22:05:19.877465  1196 net.cpp:157] Top shape: 1 3 768 112 112 (28901376)
I0417 22:05:19.877470  1196 net.cpp:157] Top shape: 1 101 (101)
I0417 22:05:19.877472  1196 net.cpp:165] Memory required for data: 115605908
I0417 22:05:19.877478  1196 layer_factory.hpp:77] Creating layer data_data_0_split
I0417 22:05:19.877490  1196 net.cpp:100] Creating Layer data_data_0_split
I0417 22:05:19.877493  1196 net.cpp:434] data_data_0_split <- data
I0417 22:05:19.877499  1196 net.cpp:408] data_data_0_split -> data_data_0_split_0
I0417 22:05:19.877509  1196 net.cpp:408] data_data_0_split -> data_data_0_split_1
I0417 22:05:19.877539  1196 net.cpp:150] Setting up data_data_0_split
I0417 22:05:19.877548  1196 net.cpp:157] Top shape: 1 3 768 112 112 (28901376)
I0417 22:05:19.877552  1196 net.cpp:157] Top shape: 1 3 768 112 112 (28901376)
I0417 22:05:19.877555  1196 net.cpp:165] Memory required for data: 346816916
I0417 22:05:19.877559  1196 layer_factory.hpp:77] Creating layer gt_boxes_data_1_split
I0417 22:05:19.877564  1196 net.cpp:100] Creating Layer gt_boxes_data_1_split
I0417 22:05:19.877568  1196 net.cpp:434] gt_boxes_data_1_split <- gt_boxes
I0417 22:05:19.877571  1196 net.cpp:408] gt_boxes_data_1_split -> gt_boxes_data_1_split_0
I0417 22:05:19.877576  1196 net.cpp:408] gt_boxes_data_1_split -> gt_boxes_data_1_split_1
I0417 22:05:19.877601  1196 net.cpp:150] Setting up gt_boxes_data_1_split
I0417 22:05:19.877606  1196 net.cpp:157] Top shape: 1 101 (101)
I0417 22:05:19.877610  1196 net.cpp:157] Top shape: 1 101 (101)
I0417 22:05:19.877612  1196 net.cpp:165] Memory required for data: 346817724
I0417 22:05:19.877616  1196 layer_factory.hpp:77] Creating layer conv1a
I0417 22:05:19.877630  1196 net.cpp:100] Creating Layer conv1a
I0417 22:05:19.877635  1196 net.cpp:434] conv1a <- data_data_0_split_0
I0417 22:05:19.877640  1196 net.cpp:408] conv1a -> conv1a
I0417 22:05:20.079967  1196 net.cpp:150] Setting up conv1a
I0417 22:05:20.079998  1196 net.cpp:157] Top shape: 1 64 768 112 112 (616562688)
I0417 22:05:20.080003  1196 net.cpp:165] Memory required for data: 2813068476
I0417 22:05:20.080022  1196 layer_factory.hpp:77] Creating layer relu1a
I0417 22:05:20.080036  1196 net.cpp:100] Creating Layer relu1a
I0417 22:05:20.080044  1196 net.cpp:434] relu1a <- conv1a
I0417 22:05:20.080050  1196 net.cpp:395] relu1a -> conv1a (in-place)
I0417 22:05:20.080468  1196 net.cpp:150] Setting up relu1a
I0417 22:05:20.080480  1196 net.cpp:157] Top shape: 1 64 768 112 112 (616562688)
I0417 22:05:20.080484  1196 net.cpp:165] Memory required for data: 5279319228
I0417 22:05:20.080488  1196 layer_factory.hpp:77] Creating layer pool1
I0417 22:05:20.080497  1196 net.cpp:100] Creating Layer pool1
I0417 22:05:20.080500  1196 net.cpp:434] pool1 <- conv1a
I0417 22:05:20.080507  1196 net.cpp:408] pool1 -> pool1
I0417 22:05:20.080682  1196 net.cpp:150] Setting up pool1
I0417 22:05:20.080693  1196 net.cpp:157] Top shape: 1 64 768 56 56 (154140672)
I0417 22:05:20.080696  1196 net.cpp:165] Memory required for data: 5895881916
I0417 22:05:20.080699  1196 layer_factory.hpp:77] Creating layer conv2a
I0417 22:05:20.080711  1196 net.cpp:100] Creating Layer conv2a
I0417 22:05:20.080715  1196 net.cpp:434] conv2a <- pool1
I0417 22:05:20.080721  1196 net.cpp:408] conv2a -> conv2a
I0417 22:05:20.091966  1196 net.cpp:150] Setting up conv2a
I0417 22:05:20.091987  1196 net.cpp:157] Top shape: 1 128 768 56 56 (308281344)
I0417 22:05:20.091991  1196 net.cpp:165] Memory required for data: 7129007292
I0417 22:05:20.092003  1196 layer_factory.hpp:77] Creating layer relu2a
I0417 22:05:20.092013  1196 net.cpp:100] Creating Layer relu2a
I0417 22:05:20.092017  1196 net.cpp:434] relu2a <- conv2a
I0417 22:05:20.092023  1196 net.cpp:395] relu2a -> conv2a (in-place)
I0417 22:05:20.092339  1196 net.cpp:150] Setting up relu2a
I0417 22:05:20.092351  1196 net.cpp:157] Top shape: 1 128 768 56 56 (308281344)
I0417 22:05:20.092355  1196 net.cpp:165] Memory required for data: 8362132668
I0417 22:05:20.092360  1196 layer_factory.hpp:77] Creating layer pool2
I0417 22:05:20.092370  1196 net.cpp:100] Creating Layer pool2
I0417 22:05:20.092373  1196 net.cpp:434] pool2 <- conv2a
I0417 22:05:20.092378  1196 net.cpp:408] pool2 -> pool2
I0417 22:05:20.092551  1196 net.cpp:150] Setting up pool2
I0417 22:05:20.092562  1196 net.cpp:157] Top shape: 1 128 384 28 28 (38535168)
I0417 22:05:20.092566  1196 net.cpp:165] Memory required for data: 8516273340
I0417 22:05:20.092568  1196 layer_factory.hpp:77] Creating layer conv3a
I0417 22:05:20.092594  1196 net.cpp:100] Creating Layer conv3a
I0417 22:05:20.092598  1196 net.cpp:434] conv3a <- pool2
I0417 22:05:20.092604  1196 net.cpp:408] conv3a -> conv3a
I0417 22:05:20.118397  1196 net.cpp:150] Setting up conv3a
I0417 22:05:20.118413  1196 net.cpp:157] Top shape: 1 256 384 28 28 (77070336)
I0417 22:05:20.118417  1196 net.cpp:165] Memory required for data: 8824554684
I0417 22:05:20.118427  1196 layer_factory.hpp:77] Creating layer relu3a
I0417 22:05:20.118433  1196 net.cpp:100] Creating Layer relu3a
I0417 22:05:20.118438  1196 net.cpp:434] relu3a <- conv3a
I0417 22:05:20.118443  1196 net.cpp:395] relu3a -> conv3a (in-place)
I0417 22:05:20.118731  1196 net.cpp:150] Setting up relu3a
I0417 22:05:20.118743  1196 net.cpp:157] Top shape: 1 256 384 28 28 (77070336)
I0417 22:05:20.118747  1196 net.cpp:165] Memory required for data: 9132836028
I0417 22:05:20.118752  1196 layer_factory.hpp:77] Creating layer conv3b
I0417 22:05:20.118773  1196 net.cpp:100] Creating Layer conv3b
I0417 22:05:20.118778  1196 net.cpp:434] conv3b <- conv3a
I0417 22:05:20.118785  1196 net.cpp:408] conv3b -> conv3b
I0417 22:05:20.168417  1196 net.cpp:150] Setting up conv3b
I0417 22:05:20.168439  1196 net.cpp:157] Top shape: 1 256 384 28 28 (77070336)
I0417 22:05:20.168443  1196 net.cpp:165] Memory required for data: 9441117372
I0417 22:05:20.168452  1196 layer_factory.hpp:77] Creating layer relu3b
I0417 22:05:20.168463  1196 net.cpp:100] Creating Layer relu3b
I0417 22:05:20.168467  1196 net.cpp:434] relu3b <- conv3b
I0417 22:05:20.168473  1196 net.cpp:395] relu3b -> conv3b (in-place)
I0417 22:05:20.168778  1196 net.cpp:150] Setting up relu3b
I0417 22:05:20.168790  1196 net.cpp:157] Top shape: 1 256 384 28 28 (77070336)
I0417 22:05:20.168793  1196 net.cpp:165] Memory required for data: 9749398716
I0417 22:05:20.168797  1196 layer_factory.hpp:77] Creating layer pool3
I0417 22:05:20.168805  1196 net.cpp:100] Creating Layer pool3
I0417 22:05:20.168809  1196 net.cpp:434] pool3 <- conv3b
I0417 22:05:20.168814  1196 net.cpp:408] pool3 -> pool3
I0417 22:05:20.168987  1196 net.cpp:150] Setting up pool3
I0417 22:05:20.168998  1196 net.cpp:157] Top shape: 1 256 192 14 14 (9633792)
I0417 22:05:20.169001  1196 net.cpp:165] Memory required for data: 9787933884
I0417 22:05:20.169004  1196 layer_factory.hpp:77] Creating layer conv4a
I0417 22:05:20.169016  1196 net.cpp:100] Creating Layer conv4a
I0417 22:05:20.169023  1196 net.cpp:434] conv4a <- pool3
I0417 22:05:20.169030  1196 net.cpp:408] conv4a -> conv4a
I0417 22:05:20.267702  1196 net.cpp:150] Setting up conv4a
I0417 22:05:20.267727  1196 net.cpp:157] Top shape: 1 512 192 14 14 (19267584)
I0417 22:05:20.267731  1196 net.cpp:165] Memory required for data: 9865004220
I0417 22:05:20.267745  1196 layer_factory.hpp:77] Creating layer relu4a
I0417 22:05:20.267756  1196 net.cpp:100] Creating Layer relu4a
I0417 22:05:20.267761  1196 net.cpp:434] relu4a <- conv4a
I0417 22:05:20.267767  1196 net.cpp:395] relu4a -> conv4a (in-place)
I0417 22:05:20.268091  1196 net.cpp:150] Setting up relu4a
I0417 22:05:20.268105  1196 net.cpp:157] Top shape: 1 512 192 14 14 (19267584)
I0417 22:05:20.268107  1196 net.cpp:165] Memory required for data: 9942074556
I0417 22:05:20.268111  1196 layer_factory.hpp:77] Creating layer conv4b
I0417 22:05:20.268126  1196 net.cpp:100] Creating Layer conv4b
I0417 22:05:20.268132  1196 net.cpp:434] conv4b <- conv4a
I0417 22:05:20.268139  1196 net.cpp:408] conv4b -> conv4b
I0417 22:05:20.463048  1196 net.cpp:150] Setting up conv4b
I0417 22:05:20.463075  1196 net.cpp:157] Top shape: 1 512 192 14 14 (19267584)
I0417 22:05:20.463078  1196 net.cpp:165] Memory required for data: 10019144892
I0417 22:05:20.463088  1196 layer_factory.hpp:77] Creating layer relu4b
I0417 22:05:20.463099  1196 net.cpp:100] Creating Layer relu4b
I0417 22:05:20.463104  1196 net.cpp:434] relu4b <- conv4b
I0417 22:05:20.463112  1196 net.cpp:395] relu4b -> conv4b (in-place)
I0417 22:05:20.463279  1196 net.cpp:150] Setting up relu4b
I0417 22:05:20.463290  1196 net.cpp:157] Top shape: 1 512 192 14 14 (19267584)
I0417 22:05:20.463294  1196 net.cpp:165] Memory required for data: 10096215228
I0417 22:05:20.463299  1196 layer_factory.hpp:77] Creating layer pool4
I0417 22:05:20.463306  1196 net.cpp:100] Creating Layer pool4
I0417 22:05:20.463312  1196 net.cpp:434] pool4 <- conv4b
I0417 22:05:20.463320  1196 net.cpp:408] pool4 -> pool4
I0417 22:05:20.463682  1196 net.cpp:150] Setting up pool4
I0417 22:05:20.463696  1196 net.cpp:157] Top shape: 1 512 96 7 7 (2408448)
I0417 22:05:20.463701  1196 net.cpp:165] Memory required for data: 10105849020
I0417 22:05:20.463703  1196 layer_factory.hpp:77] Creating layer conv5a
I0417 22:05:20.463716  1196 net.cpp:100] Creating Layer conv5a
I0417 22:05:20.463721  1196 net.cpp:434] conv5a <- pool4
I0417 22:05:20.463727  1196 net.cpp:408] conv5a -> conv5a
I0417 22:05:20.658092  1196 net.cpp:150] Setting up conv5a
I0417 22:05:20.658115  1196 net.cpp:157] Top shape: 1 512 96 7 7 (2408448)
I0417 22:05:20.658119  1196 net.cpp:165] Memory required for data: 10115482812
I0417 22:05:20.658128  1196 layer_factory.hpp:77] Creating layer relu5a
I0417 22:05:20.658139  1196 net.cpp:100] Creating Layer relu5a
I0417 22:05:20.658144  1196 net.cpp:434] relu5a <- conv5a
I0417 22:05:20.658150  1196 net.cpp:395] relu5a -> conv5a (in-place)
I0417 22:05:20.658597  1196 net.cpp:150] Setting up relu5a
I0417 22:05:20.658609  1196 net.cpp:157] Top shape: 1 512 96 7 7 (2408448)
I0417 22:05:20.658613  1196 net.cpp:165] Memory required for data: 10125116604
I0417 22:05:20.658617  1196 layer_factory.hpp:77] Creating layer conv5b
I0417 22:05:20.658628  1196 net.cpp:100] Creating Layer conv5b
I0417 22:05:20.658632  1196 net.cpp:434] conv5b <- conv5a
I0417 22:05:20.658654  1196 net.cpp:408] conv5b -> conv5b
I0417 22:05:20.847802  1196 net.cpp:150] Setting up conv5b
I0417 22:05:20.847828  1196 net.cpp:157] Top shape: 1 512 96 7 7 (2408448)
I0417 22:05:20.847832  1196 net.cpp:165] Memory required for data: 10134750396
I0417 22:05:20.847841  1196 layer_factory.hpp:77] Creating layer relu5b
I0417 22:05:20.847851  1196 net.cpp:100] Creating Layer relu5b
I0417 22:05:20.847856  1196 net.cpp:434] relu5b <- conv5b
I0417 22:05:20.847863  1196 net.cpp:395] relu5b -> conv5b (in-place)
I0417 22:05:20.848013  1196 net.cpp:150] Setting up relu5b
I0417 22:05:20.848023  1196 net.cpp:157] Top shape: 1 512 96 7 7 (2408448)
I0417 22:05:20.848026  1196 net.cpp:165] Memory required for data: 10144384188
I0417 22:05:20.848031  1196 layer_factory.hpp:77] Creating layer conv5b_relu5b_0_split
I0417 22:05:20.848035  1196 net.cpp:100] Creating Layer conv5b_relu5b_0_split
I0417 22:05:20.848039  1196 net.cpp:434] conv5b_relu5b_0_split <- conv5b
I0417 22:05:20.848045  1196 net.cpp:408] conv5b_relu5b_0_split -> conv5b_relu5b_0_split_0
I0417 22:05:20.848052  1196 net.cpp:408] conv5b_relu5b_0_split -> conv5b_relu5b_0_split_1
I0417 22:05:20.848104  1196 net.cpp:150] Setting up conv5b_relu5b_0_split
I0417 22:05:20.848114  1196 net.cpp:157] Top shape: 1 512 96 7 7 (2408448)
I0417 22:05:20.848119  1196 net.cpp:157] Top shape: 1 512 96 7 7 (2408448)
I0417 22:05:20.848121  1196 net.cpp:165] Memory required for data: 10163651772
I0417 22:05:20.848125  1196 layer_factory.hpp:77] Creating layer rpn_conv/3x3
I0417 22:05:20.848139  1196 net.cpp:100] Creating Layer rpn_conv/3x3
I0417 22:05:20.848145  1196 net.cpp:434] rpn_conv/3x3 <- conv5b_relu5b_0_split_0
I0417 22:05:20.848151  1196 net.cpp:408] rpn_conv/3x3 -> rpn/output
I0417 22:05:21.036463  1196 net.cpp:150] Setting up rpn_conv/3x3
I0417 22:05:21.036486  1196 net.cpp:157] Top shape: 1 512 96 4 4 (786432)
I0417 22:05:21.036491  1196 net.cpp:165] Memory required for data: 10166797500
I0417 22:05:21.036505  1196 layer_factory.hpp:77] Creating layer rpn_relu/3x3
I0417 22:05:21.036516  1196 net.cpp:100] Creating Layer rpn_relu/3x3
I0417 22:05:21.036520  1196 net.cpp:434] rpn_relu/3x3 <- rpn/output
I0417 22:05:21.036527  1196 net.cpp:395] rpn_relu/3x3 -> rpn/output (in-place)
I0417 22:05:21.036825  1196 net.cpp:150] Setting up rpn_relu/3x3
I0417 22:05:21.036837  1196 net.cpp:157] Top shape: 1 512 96 4 4 (786432)
I0417 22:05:21.036841  1196 net.cpp:165] Memory required for data: 10169943228
I0417 22:05:21.036844  1196 layer_factory.hpp:77] Creating layer rpn_conv/3x3_2
I0417 22:05:21.036856  1196 net.cpp:100] Creating Layer rpn_conv/3x3_2
I0417 22:05:21.036859  1196 net.cpp:434] rpn_conv/3x3_2 <- rpn/output
I0417 22:05:21.036867  1196 net.cpp:408] rpn_conv/3x3_2 -> rpn/output_2
I0417 22:05:21.224823  1196 net.cpp:150] Setting up rpn_conv/3x3_2
I0417 22:05:21.224848  1196 net.cpp:157] Top shape: 1 512 96 2 2 (196608)
I0417 22:05:21.224850  1196 net.cpp:165] Memory required for data: 10170729660
I0417 22:05:21.224859  1196 layer_factory.hpp:77] Creating layer rpn_relu/3x3_2
I0417 22:05:21.224869  1196 net.cpp:100] Creating Layer rpn_relu/3x3_2
I0417 22:05:21.224874  1196 net.cpp:434] rpn_relu/3x3_2 <- rpn/output_2
I0417 22:05:21.224882  1196 net.cpp:395] rpn_relu/3x3_2 -> rpn/output_2 (in-place)
I0417 22:05:21.225188  1196 net.cpp:150] Setting up rpn_relu/3x3_2
I0417 22:05:21.225201  1196 net.cpp:157] Top shape: 1 512 96 2 2 (196608)
I0417 22:05:21.225204  1196 net.cpp:165] Memory required for data: 10171516092
I0417 22:05:21.225208  1196 layer_factory.hpp:77] Creating layer rpn/output_pool
I0417 22:05:21.225215  1196 net.cpp:100] Creating Layer rpn/output_pool
I0417 22:05:21.225219  1196 net.cpp:434] rpn/output_pool <- rpn/output_2
I0417 22:05:21.225224  1196 net.cpp:408] rpn/output_pool -> rpn/output_pool
I0417 22:05:21.225402  1196 net.cpp:150] Setting up rpn/output_pool
I0417 22:05:21.225412  1196 net.cpp:157] Top shape: 1 512 96 1 1 (49152)
I0417 22:05:21.225416  1196 net.cpp:165] Memory required for data: 10171712700
I0417 22:05:21.225419  1196 layer_factory.hpp:77] Creating layer rpn/output_pool_rpn/output_pool_0_split
I0417 22:05:21.225425  1196 net.cpp:100] Creating Layer rpn/output_pool_rpn/output_pool_0_split
I0417 22:05:21.225428  1196 net.cpp:434] rpn/output_pool_rpn/output_pool_0_split <- rpn/output_pool
I0417 22:05:21.225435  1196 net.cpp:408] rpn/output_pool_rpn/output_pool_0_split -> rpn/output_pool_rpn/output_pool_0_split_0
I0417 22:05:21.225440  1196 net.cpp:408] rpn/output_pool_rpn/output_pool_0_split -> rpn/output_pool_rpn/output_pool_0_split_1
I0417 22:05:21.225471  1196 net.cpp:150] Setting up rpn/output_pool_rpn/output_pool_0_split
I0417 22:05:21.225477  1196 net.cpp:157] Top shape: 1 512 96 1 1 (49152)
I0417 22:05:21.225481  1196 net.cpp:157] Top shape: 1 512 96 1 1 (49152)
I0417 22:05:21.225484  1196 net.cpp:165] Memory required for data: 10172105916
I0417 22:05:21.225488  1196 layer_factory.hpp:77] Creating layer rpn_cls_score
I0417 22:05:21.225502  1196 net.cpp:100] Creating Layer rpn_cls_score
I0417 22:05:21.225507  1196 net.cpp:434] rpn_cls_score <- rpn/output_pool_rpn/output_pool_0_split_0
I0417 22:05:21.225512  1196 net.cpp:408] rpn_cls_score -> rpn_cls_score
I0417 22:05:21.227610  1196 net.cpp:150] Setting up rpn_cls_score
I0417 22:05:21.227622  1196 net.cpp:157] Top shape: 1 74 96 1 1 (7104)
I0417 22:05:21.227627  1196 net.cpp:165] Memory required for data: 10172134332
I0417 22:05:21.227632  1196 layer_factory.hpp:77] Creating layer rpn_cls_score_rpn_cls_score_0_split
I0417 22:05:21.227638  1196 net.cpp:100] Creating Layer rpn_cls_score_rpn_cls_score_0_split
I0417 22:05:21.227643  1196 net.cpp:434] rpn_cls_score_rpn_cls_score_0_split <- rpn_cls_score
I0417 22:05:21.227648  1196 net.cpp:408] rpn_cls_score_rpn_cls_score_0_split -> rpn_cls_score_rpn_cls_score_0_split_0
I0417 22:05:21.227653  1196 net.cpp:408] rpn_cls_score_rpn_cls_score_0_split -> rpn_cls_score_rpn_cls_score_0_split_1
I0417 22:05:21.227702  1196 net.cpp:150] Setting up rpn_cls_score_rpn_cls_score_0_split
I0417 22:05:21.227710  1196 net.cpp:157] Top shape: 1 74 96 1 1 (7104)
I0417 22:05:21.227715  1196 net.cpp:157] Top shape: 1 74 96 1 1 (7104)
I0417 22:05:21.227717  1196 net.cpp:165] Memory required for data: 10172191164
I0417 22:05:21.227720  1196 layer_factory.hpp:77] Creating layer rpn_twin_pred
I0417 22:05:21.227732  1196 net.cpp:100] Creating Layer rpn_twin_pred
I0417 22:05:21.227738  1196 net.cpp:434] rpn_twin_pred <- rpn/output_pool_rpn/output_pool_0_split_1
I0417 22:05:21.227746  1196 net.cpp:408] rpn_twin_pred -> rpn_twin_pred
I0417 22:05:21.229674  1196 net.cpp:150] Setting up rpn_twin_pred
I0417 22:05:21.229687  1196 net.cpp:157] Top shape: 1 74 96 1 1 (7104)
I0417 22:05:21.229691  1196 net.cpp:165] Memory required for data: 10172219580
I0417 22:05:21.229696  1196 layer_factory.hpp:77] Creating layer rpn_twin_pred_rpn_twin_pred_0_split
I0417 22:05:21.229702  1196 net.cpp:100] Creating Layer rpn_twin_pred_rpn_twin_pred_0_split
I0417 22:05:21.229706  1196 net.cpp:434] rpn_twin_pred_rpn_twin_pred_0_split <- rpn_twin_pred
I0417 22:05:21.229723  1196 net.cpp:408] rpn_twin_pred_rpn_twin_pred_0_split -> rpn_twin_pred_rpn_twin_pred_0_split_0
I0417 22:05:21.229732  1196 net.cpp:408] rpn_twin_pred_rpn_twin_pred_0_split -> rpn_twin_pred_rpn_twin_pred_0_split_1
I0417 22:05:21.229774  1196 net.cpp:150] Setting up rpn_twin_pred_rpn_twin_pred_0_split
I0417 22:05:21.229782  1196 net.cpp:157] Top shape: 1 74 96 1 1 (7104)
I0417 22:05:21.229787  1196 net.cpp:157] Top shape: 1 74 96 1 1 (7104)
I0417 22:05:21.229789  1196 net.cpp:165] Memory required for data: 10172276412
I0417 22:05:21.229794  1196 layer_factory.hpp:77] Creating layer rpn_cls_score_reshape
I0417 22:05:21.229804  1196 net.cpp:100] Creating Layer rpn_cls_score_reshape
I0417 22:05:21.229810  1196 net.cpp:434] rpn_cls_score_reshape <- rpn_cls_score_rpn_cls_score_0_split_0
I0417 22:05:21.229820  1196 net.cpp:408] rpn_cls_score_reshape -> rpn_cls_score_reshape
I0417 22:05:21.229847  1196 net.cpp:150] Setting up rpn_cls_score_reshape
I0417 22:05:21.229856  1196 net.cpp:157] Top shape: 1 2 3552 1 1 (7104)
I0417 22:05:21.229858  1196 net.cpp:165] Memory required for data: 10172304828
I0417 22:05:21.229872  1196 layer_factory.hpp:77] Creating layer rpn_cls_score_reshape_rpn_cls_score_reshape_0_split
I0417 22:05:21.229881  1196 net.cpp:100] Creating Layer rpn_cls_score_reshape_rpn_cls_score_reshape_0_split
I0417 22:05:21.229883  1196 net.cpp:434] rpn_cls_score_reshape_rpn_cls_score_reshape_0_split <- rpn_cls_score_reshape
I0417 22:05:21.229888  1196 net.cpp:408] rpn_cls_score_reshape_rpn_cls_score_reshape_0_split -> rpn_cls_score_reshape_rpn_cls_score_reshape_0_split_0
I0417 22:05:21.229897  1196 net.cpp:408] rpn_cls_score_reshape_rpn_cls_score_reshape_0_split -> rpn_cls_score_reshape_rpn_cls_score_reshape_0_split_1
I0417 22:05:21.229902  1196 net.cpp:408] rpn_cls_score_reshape_rpn_cls_score_reshape_0_split -> rpn_cls_score_reshape_rpn_cls_score_reshape_0_split_2
I0417 22:05:21.229945  1196 net.cpp:150] Setting up rpn_cls_score_reshape_rpn_cls_score_reshape_0_split
I0417 22:05:21.229956  1196 net.cpp:157] Top shape: 1 2 3552 1 1 (7104)
I0417 22:05:21.229960  1196 net.cpp:157] Top shape: 1 2 3552 1 1 (7104)
I0417 22:05:21.229964  1196 net.cpp:157] Top shape: 1 2 3552 1 1 (7104)
I0417 22:05:21.229967  1196 net.cpp:165] Memory required for data: 10172390076
I0417 22:05:21.229970  1196 layer_factory.hpp:77] Creating layer rpn-data
I0417 22:05:21.230360  1196 net.cpp:100] Creating Layer rpn-data
I0417 22:05:21.230370  1196 net.cpp:434] rpn-data <- rpn_cls_score_rpn_cls_score_0_split_1
I0417 22:05:21.230386  1196 net.cpp:434] rpn-data <- gt_boxes_data_1_split_0
I0417 22:05:21.230391  1196 net.cpp:434] rpn-data <- data_data_0_split_1
I0417 22:05:21.230396  1196 net.cpp:408] rpn-data -> rpn_labels
I0417 22:05:21.230403  1196 net.cpp:408] rpn-data -> rpn_twin_targets
I0417 22:05:21.230409  1196 net.cpp:408] rpn-data -> rpn_twin_inside_weights
I0417 22:05:21.230415  1196 net.cpp:408] rpn-data -> rpn_twin_outside_weights
I0417 22:05:21.232719  1196 net.cpp:150] Setting up rpn-data
I0417 22:05:21.232734  1196 net.cpp:157] Top shape: 1 1 3552 1 1 (3552)
I0417 22:05:21.232739  1196 net.cpp:157] Top shape: 1 74 96 1 1 (7104)
I0417 22:05:21.232743  1196 net.cpp:157] Top shape: 1 74 96 1 1 (7104)
I0417 22:05:21.232746  1196 net.cpp:157] Top shape: 1 74 96 1 1 (7104)
I0417 22:05:21.232749  1196 net.cpp:165] Memory required for data: 10172489532
I0417 22:05:21.232753  1196 layer_factory.hpp:77] Creating layer rpn_labels_rpn-data_0_split
I0417 22:05:21.232758  1196 net.cpp:100] Creating Layer rpn_labels_rpn-data_0_split
I0417 22:05:21.232762  1196 net.cpp:434] rpn_labels_rpn-data_0_split <- rpn_labels
I0417 22:05:21.232769  1196 net.cpp:408] rpn_labels_rpn-data_0_split -> rpn_labels_rpn-data_0_split_0
I0417 22:05:21.232775  1196 net.cpp:408] rpn_labels_rpn-data_0_split -> rpn_labels_rpn-data_0_split_1
I0417 22:05:21.232806  1196 net.cpp:150] Setting up rpn_labels_rpn-data_0_split
I0417 22:05:21.232813  1196 net.cpp:157] Top shape: 1 1 3552 1 1 (3552)
I0417 22:05:21.232817  1196 net.cpp:157] Top shape: 1 1 3552 1 1 (3552)
I0417 22:05:21.232821  1196 net.cpp:165] Memory required for data: 10172517948
I0417 22:05:21.232825  1196 layer_factory.hpp:77] Creating layer rpn_loss_cls
I0417 22:05:21.232832  1196 net.cpp:100] Creating Layer rpn_loss_cls
I0417 22:05:21.232836  1196 net.cpp:434] rpn_loss_cls <- rpn_cls_score_reshape_rpn_cls_score_reshape_0_split_0
I0417 22:05:21.232841  1196 net.cpp:434] rpn_loss_cls <- rpn_labels_rpn-data_0_split_0
…
I0417 22:05:21.233399  1196 layer_factory.hpp:77] Creating layer rpn_accuarcy
I0417 22:05:21.233407  1196 net.cpp:100] Creating Layer rpn_accuarcy
I0417 22:05:21.233412  1196 net.cpp:434] rpn_accuarcy <- rpn_cls_score_reshape_rpn_cls_score_reshape_0_split_1
I0417 22:05:21.233417  1196 net.cpp:434] rpn_accuarcy <- rpn_labels_rpn-data_0_split_1
I0417 22:05:21.233423  1196 net.cpp:408] rpn_accuarcy -> rpn_accuarcy
I0417 22:05:21.233429  1196 net.cpp:408] rpn_accuarcy -> rpn_accuarcy_class
I0417 22:05:21.233475  1196 net.cpp:150] Setting up rpn_accuarcy
I0417 22:05:21.233484  1196 net.cpp:157] Top shape: (1)
I0417 22:05:21.233489  1196 net.cpp:157] Top shape: 2 (2)
I0417 22:05:21.233491  1196 net.cpp:165] Memory required for data: 10172517968
I0417 22:05:21.233494  1196 layer_factory.hpp:77] Creating layer rpn_cls_prob
I0417 22:05:21.233500  1196 net.cpp:100] Creating Layer rpn_cls_prob
I0417 22:05:21.233505  1196 net.cpp:434] rpn_cls_prob <- rpn_cls_score_reshape_rpn_cls_score_reshape_0_split_2
I0417 22:05:21.233510  1196 net.cpp:408] rpn_cls_prob -> rpn_cls_prob
I0417 22:05:21.233708  1196 net.cpp:150] Setting up rpn_cls_prob
I0417 22:05:21.233718  1196 net.cpp:157] Top shape: 1 2 3552 1 1 (7104)
I0417 22:05:21.233721  1196 net.cpp:165] Memory required for data: 10172546384
I0417 22:05:21.233726  1196 layer_factory.hpp:77] Creating layer rpn_cls_prob_reshape
I0417 22:05:21.233731  1196 net.cpp:100] Creating Layer rpn_cls_prob_reshape
I0417 22:05:21.233734  1196 net.cpp:434] rpn_cls_prob_reshape <- rpn_cls_prob
I0417 22:05:21.233741  1196 net.cpp:408] rpn_cls_prob_reshape -> rpn_cls_prob_reshape
I0417 22:05:21.233765  1196 net.cpp:150] Setting up rpn_cls_prob_reshape
I0417 22:05:21.233773  1196 net.cpp:157] Top shape: 1 74 96 1 1 (7104)
I0417 22:05:21.233775  1196 net.cpp:165] Memory required for data: 10172574800
I0417 22:05:21.233779  1196 layer_factory.hpp:77] Creating layer proposal
I0417 22:05:21.234340  1196 net.cpp:100] Creating Layer proposal
I0417 22:05:21.234354  1196 net.cpp:434] proposal <- rpn_cls_prob_reshape
I0417 22:05:21.234359  1196 net.cpp:434] proposal <- rpn_twin_pred_rpn_twin_pred_0_split_1
I0417 22:05:21.234364  1196 net.cpp:408] proposal -> rpn_rois
I0417 22:05:21.236541  1196 net.cpp:150] Setting up proposal
I0417 22:05:21.236555  1196 net.cpp:157] Top shape: 1 3 (3)
I0417 22:05:21.236559  1196 net.cpp:165] Memory required for data: 10172574812
I0417 22:05:21.236563  1196 layer_factory.hpp:77] Creating layer roi-data
I0417 22:05:21.238085  1196 net.cpp:100] Creating Layer roi-data
I0417 22:05:21.238098  1196 net.cpp:434] roi-data <- rpn_rois
I0417 22:05:21.238103  1196 net.cpp:434] roi-data <- gt_boxes_data_1_split_1
I0417 22:05:21.238109  1196 net.cpp:408] roi-data -> rois
I0417 22:05:21.238116  1196 net.cpp:408] roi-data -> labels
I0417 22:05:21.238124  1196 net.cpp:408] roi-data -> twin_targets
I0417 22:05:21.238142  1196 net.cpp:408] roi-data -> twin_inside_weights
I0417 22:05:21.238150  1196 net.cpp:408] roi-data -> twin_outside_weights
I0417 22:05:21.238485  1196 net.cpp:150] Setting up roi-data
I0417 22:05:21.238497  1196 net.cpp:157] Top shape: 1 3 (3)
I0417 22:05:21.238502  1196 net.cpp:157] Top shape: 1 1 (1)
I0417 22:05:21.238507  1196 net.cpp:157] Top shape: 1 402 (402)
I0417 22:05:21.238509  1196 net.cpp:157] Top shape: 1 402 (402)
I0417 22:05:21.238512  1196 net.cpp:157] Top shape: 1 402 (402)
I0417 22:05:21.238515  1196 net.cpp:165] Memory required for data: 10172579652
I0417 22:05:21.238519  1196 layer_factory.hpp:77] Creating layer labels_roi-data_1_split
I0417 22:05:21.238525  1196 net.cpp:100] Creating Layer labels_roi-data_1_split
I0417 22:05:21.238535  1196 net.cpp:434] labels_roi-data_1_split <- labels
I0417 22:05:21.238543  1196 net.cpp:408] labels_roi-data_1_split -> labels_roi-data_1_split_0
I0417 22:05:21.238550  1196 net.cpp:408] labels_roi-data_1_split -> labels_roi-data_1_split_1
I0417 22:05:21.238582  1196 net.cpp:150] Setting up labels_roi-data_1_split
I0417 22:05:21.238590  1196 net.cpp:157] Top shape: 1 1 (1)
I0417 22:05:21.238593  1196 net.cpp:157] Top shape: 1 1 (1)
I0417 22:05:21.238596  1196 net.cpp:165] Memory required for data: 10172579660
I0417 22:05:21.238603  1196 layer_factory.hpp:77] Creating layer roi_pool5
I0417 22:05:21.238612  1196 net.cpp:100] Creating Layer roi_pool5
I0417 22:05:21.238617  1196 net.cpp:434] roi_pool5 <- conv5b_relu5b_0_split_1
I0417 22:05:21.238622  1196 net.cpp:434] roi_pool5 <- rois
I0417 22:05:21.238626  1196 net.cpp:408] roi_pool5 -> pool5
I0417 22:05:21.238634  1196 roi_pooling_layer.cpp:34] Temporal scale: 0.125
I0417 22:05:21.238641  1196 roi_pooling_layer.cpp:35] Spatial scale: 0.0625
I0417 22:05:21.238674  1196 net.cpp:150] Setting up roi_pool5
I0417 22:05:21.238682  1196 net.cpp:157] Top shape: 1 512 1 4 4 (8192)
I0417 22:05:21.238684  1196 net.cpp:165] Memory required for data: 10172612428
I0417 22:05:21.238690  1196 layer_factory.hpp:77] Creating layer fc6
I0417 22:05:21.238700  1196 net.cpp:100] Creating Layer fc6
I0417 22:05:21.238704  1196 net.cpp:434] fc6 <- pool5
I0417 22:05:21.238709  1196 net.cpp:408] fc6 -> fc6
I0417 22:05:22.136210  1196 net.cpp:150] Setting up fc6
I0417 22:05:22.136234  1196 net.cpp:157] Top shape: 1 4096 (4096)
I0417 22:05:22.136238  1196 net.cpp:165] Memory required for data: 10172628812
I0417 22:05:22.136247  1196 layer_factory.hpp:77] Creating layer relu6
I0417 22:05:22.136257  1196 net.cpp:100] Creating Layer relu6
I0417 22:05:22.136261  1196 net.cpp:434] relu6 <- fc6
I0417 22:05:22.136267  1196 net.cpp:395] relu6 -> fc6 (in-place)
I0417 22:05:22.136675  1196 net.cpp:150] Setting up relu6
I0417 22:05:22.136687  1196 net.cpp:157] Top shape: 1 4096 (4096)
I0417 22:05:22.136692  1196 net.cpp:165] Memory required for data: 10172645196
I0417 22:05:22.136695  1196 layer_factory.hpp:77] Creating layer drop6
I0417 22:05:22.136708  1196 net.cpp:100] Creating Layer drop6
I0417 22:05:22.136714  1196 net.cpp:434] drop6 <- fc6
I0417 22:05:22.136719  1196 net.cpp:395] drop6 -> fc6 (in-place)
I0417 22:05:22.136746  1196 net.cpp:150] Setting up drop6
I0417 22:05:22.136752  1196 net.cpp:157] Top shape: 1 4096 (4096)
I0417 22:05:22.136755  1196 net.cpp:165] Memory required for data: 10172661580
I0417 22:05:22.136761  1196 layer_factory.hpp:77] Creating layer fc6_drop6_0_split
I0417 22:05:22.136767  1196 net.cpp:100] Creating Layer fc6_drop6_0_split
I0417 22:05:22.136770  1196 net.cpp:434] fc6_drop6_0_split <- fc6
I0417 22:05:22.136775  1196 net.cpp:408] fc6_drop6_0_split -> fc6_drop6_0_split_0
I0417 22:05:22.136788  1196 net.cpp:408] fc6_drop6_0_split -> fc6_drop6_0_split_1
I0417 22:05:22.136822  1196 net.cpp:150] Setting up fc6_drop6_0_split
I0417 22:05:22.136829  1196 net.cpp:157] Top shape: 1 4096 (4096)
I0417 22:05:22.136833  1196 net.cpp:157] Top shape: 1 4096 (4096)
I0417 22:05:22.136837  1196 net.cpp:165] Memory required for data: 10172694348
I0417 22:05:22.136839  1196 layer_factory.hpp:77] Creating layer cls_score
I0417 22:05:22.136847  1196 net.cpp:100] Creating Layer cls_score
I0417 22:05:22.136852  1196 net.cpp:434] cls_score <- fc6_drop6_0_split_0
I0417 22:05:22.136857  1196 net.cpp:408] cls_score -> cls_score
I0417 22:05:22.158874  1196 net.cpp:150] Setting up cls_score
I0417 22:05:22.158886  1196 net.cpp:157] Top shape: 1 201 (201)
I0417 22:05:22.158890  1196 net.cpp:165] Memory required for data: 10172695152
I0417 22:05:22.158897  1196 layer_factory.hpp:77] Creating layer cls_score_cls_score_0_split
I0417 22:05:22.158903  1196 net.cpp:100] Creating Layer cls_score_cls_score_0_split
I0417 22:05:22.158908  1196 net.cpp:434] cls_score_cls_score_0_split <- cls_score
I0417 22:05:22.158913  1196 net.cpp:408] cls_score_cls_score_0_split -> cls_score_cls_score_0_split_0
I0417 22:05:22.158920  1196 net.cpp:408] cls_score_cls_score_0_split -> cls_score_cls_score_0_split_1
I0417 22:05:22.158952  1196 net.cpp:150] Setting up cls_score_cls_score_0_split
I0417 22:05:22.158959  1196 net.cpp:157] Top shape: 1 201 (201)
I0417 22:05:22.158962  1196 net.cpp:157] Top shape: 1 201 (201)
I0417 22:05:22.158967  1196 net.cpp:165] Memory required for data: 10172696760
I0417 22:05:22.158969  1196 layer_factory.hpp:77] Creating layer twin_pred
I0417 22:05:22.158984  1196 net.cpp:100] Creating Layer twin_pred
I0417 22:05:22.158989  1196 net.cpp:434] twin_pred <- fc6_drop6_0_split_1
I0417 22:05:22.158995  1196 net.cpp:408] twin_pred -> twin_pred
I0417 22:05:22.202900  1196 net.cpp:150] Setting up twin_pred
I0417 22:05:22.202922  1196 net.cpp:157] Top shape: 1 402 (402)
I0417 22:05:22.202926  1196 net.cpp:165] Memory required for data: 10172698368
I0417 22:05:22.202937  1196 layer_factory.hpp:77] Creating layer loss_cls
I0417 22:05:22.202947  1196 net.cpp:100] Creating Layer loss_cls
I0417 22:05:22.202952  1196 net.cpp:434] loss_cls <- cls_score_cls_score_0_split_0
I0417 22:05:22.202958  1196 net.cpp:434] loss_cls <- labels_roi-data_1_split_0
I0417 22:05:22.202965  1196 net.cpp:408] loss_cls -> loss_cls
…
