…
stepsize: 350000
snapshot: 0
snapshot_prefix: "./experiments/activitynet/snapshot/activitynet"
average_loss: 100
iter_size: 1
I0418 01:28:41.998445 12003 solver.cpp:81] Creating training net from train_net file: ./experiments/activitynet/train.prototxt
I0418 01:28:41.999558 12003 net.cpp:58] Initializing net from parameters: 
name: "activitynet"
state {
  phase: TRAIN
}
layer {
  name: "data"
  type: "Python"
  top: "data"
  top: "gt_boxes"
  python_param {
    module: "roi_data_layer.layer"
    layer: "RoIDataLayer"
    param_str: "\'num_classes\': 100"
  }
}
layer {
  name: "conv1a"
  type: "Convolution"
  bottom: "data"
  top: "conv1a"
  param {
    lr_mult: 0
    decay_mult: 0
  }
  param {
    lr_mult: 0
    decay_mult: 0
  }
  convolution_param {
    num_output: 64
    pad: 1
    pad: 1
    pad: 1
    kernel_size: 3
    kernel_size: 3
    kernel_size: 3
    weight_filler {
      type: "gaussian"
      std: 0.01
    }
    bias_filler {
      type: "constant"
      value: 0
    }
  }
}
layer {
  name: "relu1a"
  type: "ReLU"
  bottom: "conv1a"
  top: "conv1a"
}
layer {
  name: "pool1"
  type: "Pooling"
  bottom: "conv1a"
  top: "pool1"
  pooling_param {
    pool: MAX
    kernel_size: 1
    kernel_size: 2
    kernel_size: 2
    stride: 1
    stride: 2
    stride: 2
  }
}
layer {
  name: "conv2a"
  type: "Convolution"
  bottom: "pool1"
  top: "conv2a"
  param {
    lr_mult: 0
    decay_mult: 0
  }
  param {
    lr_mult: 0
    decay_mult: 0
  }
  convolution_param {
    num_output: 128
    pad: 1
    pad: 1
    pad: 1
    kernel_size: 3
    kernel_size: 3
    kernel_size: 3
    weight_filler {
      type: "gaussian"
      std: 0.01
    }
    bias_filler {
      type: "constant"
      value: 1
    }
  }
}
layer {
  name: "relu2a"
  type: "ReLU"
  bottom: "conv2a"
  top: "conv2a"
}
layer {
  name: "pool2"
  type: "Pooling"
  bottom: "conv2a"
  top: "pool2"
  pooling_param {
    pool: MAX
    kernel_size: 2
    kernel_size: 2
    kernel_size: 2
    stride: 2
    stride: 2
    stride: 2
  }
}
layer {
  name: "conv3a"
  type: "Convolution"
  bottom: "pool2"
  top: "conv3a"
  param {
    lr_mult: 1
    decay_mult: 1
  }
  param {
    lr_mult: 2
    decay_mult: 0
  }
  convolution_param {
    num_output: 256
    pad: 1
    pad: 1
    pad: 1
    kernel_size: 3
    kernel_size: 3
    kernel_size: 3
    weight_filler {
      type: "gaussian"
      std: 0.01
    }
    bias_filler {
      type: "constant"
      value: 1
    }
  }
}
layer {
  name: "relu3a"
  type: "ReLU"
  bottom: "conv3a"
  top: "conv3a"
}
layer {
  name: "conv3b"
  type: "Convolution"
  bottom: "conv3a"
  top: "conv3b"
  param {
    lr_mult: 1
    decay_mult: 1
  }
  param {
    lr_mult: 2
    decay_mult: 0
  }
  convolution_param {
    num_output: 256
    pad: 1
    pad: 1
    pad: 1
    kernel_size: 3
    kernel_size: 3
    kernel_size: 3
    weight_filler {
      type: "gaussian"
      std: 0.01
    }
    bias_filler {
      type: "constant"
      value: 1
    }
  }
}
layer {
  name: "relu3b"
  type: "ReLU"
  bottom: "conv3b"
  top: "conv3b"
}
layer {
  name: "pool3"
  type: "Pooling"
  bottom: "conv3b"
  top: "pool3"
  pooling_param {
    pool: MAX
    kernel_size: 2
    kernel_size: 2
    kernel_size: 2
    stride: 2
    stride: 2
    stride: 2
  }
}
layer {
  name: "conv4a"
  type: "Convolution"
  bottom: "pool3"
  top: "conv4a"
  param {
    lr_mult: 1
    decay_mult: 1
  }
  param {
    lr_mult: 2
    decay_mult: 0
  }
  convolution_param {
    num_output: 512
    pad: 1
    pad: 1
    pad: 1
    kernel_size: 3
    kernel_size: 3
    kernel_size: 3
    weight_filler {
      type: "gaussian"
      std: 0.01
    }
    bias_filler {
      type: "constant"
      value: 1
    }
  }
}
layer {
  name: "relu4a"
  type: "ReLU"
  bottom: "conv4a"
  top: "conv4a"
}
layer {
  name: "conv4b"
  type: "Convolution"
  bottom: "conv4a"
  top: "conv4b"
  param {
    lr_mult: 1
    decay_mult: 1
  }
  param {
    lr_mult: 2
    decay_mult: 0
  }
  convolution_param {
    num_output: 512
    pad: 1
    pad: 1
    pad: 1
    kernel_size: 3
    kernel_size: 3
    kernel_size: 3
    weight_filler {
      type: "gaussian"
      std: 0.01
    }
    bias_filler {
      type: "constant"
      value: 1
    }
  }
}
layer {
  name: "relu4b"
  type: "ReLU"
  bottom: "conv4b"
  top: "conv4b"
}
layer {
  name: "pool4"
  type: "Pooling"
  bottom: "conv4b"
  top: "pool4"
  pooling_param {
    pool: MAX
    kernel_size: 2
    kernel_size: 2
    kernel_size: 2
    stride: 2
    stride: 2
    stride: 2
  }
}
layer {
  name: "conv5a"
  type: "Convolution"
  bottom: "pool4"
  top: "conv5a"
  param {
    lr_mult: 1
    decay_mult: 1
  }
  param {
    lr_mult: 2
    decay_mult: 0
  }
  convolution_param {
    num_output: 512
    pad: 1
    pad: 1
    pad: 1
    kernel_size: 3
    kernel_size: 3
    kernel_size: 3
    weight_filler {
      type: "gaussian"
      std: 0.01
    }
    bias_filler {
      type: "constant"
      value: 1
    }
  }
}
layer {
  name: "relu5a"
  type: "ReLU"
  bottom: "conv5a"
  top: "conv5a"
}
layer {
  name: "conv5b"
  type: "Convolution"
  bottom: "conv5a"
  top: "conv5b"
  param {
    lr_mult: 1
    decay_mult: 1
  }
  param {
    lr_mult: 2
    decay_mult: 0
  }
  convolution_param {
    num_output: 512
    pad: 1
    pad: 1
    pad: 1
    kernel_size: 3
    kernel_size: 3
    kernel_size: 3
    weight_filler {
      type: "gaussian"
      std: 0.01
    }
    bias_filler {
      type: "constant"
      value: 1
    }
  }
}
layer {
  name: "relu5b"
  type: "ReLU"
  bottom: "conv5b"
  top: "conv5b"
}
layer {
  name: "rpn_conv/3x3"
  type: "Convolution"
  bottom: "conv5b"
  top: "rpn/output"
  param {
    lr_mult: 1
    decay_mult: 1
  }
  param {
    lr_mult: 2
    decay_mult: 0
  }
  convolution_param {
    num_output: 512
    pad: 1
    pad: 1
    pad: 1
    kernel_size: 3
    kernel_size: 3
    kernel_size: 3
    stride: 1
    stride: 2
    stride: 2
    weight_filler {
      type: "gaussian"
      std: 0.01
    }
    bias_filler {
      type: "constant"
      value: 0
    }
  }
}
layer {
  name: "rpn_relu/3x3"
  type: "ReLU"
  bottom: "rpn/output"
  top: "rpn/output"
}
layer {
  name: "rpn_conv/3x3_2"
  type: "Convolution"
  bottom: "rpn/output"
  top: "rpn/output_2"
  param {
    lr_mult: 1
    decay_mult: 1
  }
  param {
    lr_mult: 2
    decay_mult: 0
  }
  convolution_param {
    num_output: 512
    pad: 1
    pad: 1
    pad: 1
    kernel_size: 3
    kernel_size: 3
    kernel_size: 3
    stride: 1
    stride: 2
    stride: 2
    weight_filler {
      type: "gaussian"
      std: 0.01
    }
    bias_filler {
      type: "constant"
      value: 0
    }
  }
}
layer {
  name: "rpn_relu/3x3_2"
  type: "ReLU"
  bottom: "rpn/output_2"
  top: "rpn/output_2"
}
layer {
  name: "rpn/output_pool"
  type: "Pooling"
  bottom: "rpn/output_2"
  top: "rpn/output_pool"
  pooling_param {
    pool: MAX
    kernel_size: 1
    kernel_size: 2
    kernel_size: 2
  }
}
layer {
  name: "rpn_cls_score"
  type: "Convolution"
  bottom: "rpn/output_pool"
  top: "rpn_cls_score"
  param {
    lr_mult: 1
    decay_mult: 1
  }
  param {
    lr_mult: 2
    decay_mult: 0
  }
  convolution_param {
    num_output: 74
    kernel_size: 1
    kernel_size: 1
    kernel_size: 1
    weight_filler {
      type: "gaussian"
      std: 0.01
    }
    bias_filler {
      type: "constant"
      value: 0
    }
  }
}
layer {
  name: "rpn_twin_pred"
  type: "Convolution"
  bottom: "rpn/output_pool"
  top: "rpn_twin_pred"
  param {
    lr_mult: 1
    decay_mult: 1
  }
  param {
    lr_mult: 2
    decay_mult: 0
  }
  convolution_param {
    num_output: 74
    kernel_size: 1
    kernel_size: 1
    kernel_size: 1
    weight_filler {
      type: "gaussian"
      std: 0.01
    }
    bias_filler {
      type: "constant"
      value: 0
    }
  }
}
layer {
  name: "rpn_cls_score_reshape"
  type: "Reshape"
  bottom: "rpn_cls_score"
  top: "rpn_cls_score_reshape"
  reshape_param {
    shape {
      dim: 0
      dim: 2
      dim: -1
      dim: 0
      dim: 0
    }
  }
}
layer {
  name: "rpn-data"
  type: "Python"
  bottom: "rpn_cls_score"
  bottom: "gt_boxes"
  bottom: "data"
  top: "rpn_labels"
  top: "rpn_twin_targets"
  top: "rpn_twin_inside_weights"
  top: "rpn_twin_outside_weights"
  python_param {
    module: "rpn.anchor_target_layer"
    layer: "AnchorTargetLayer"
    param_str: "\'feat_stride\': 8 \n\'scales\': !!python/tuple [1,1.25, 1.5,1.75, 2,2.5, 3,3.5, 4,4.5, 5,5.5, 6,7, 8,9,10,11,12,14,16,18,20,22,24,28,32,36,40,44,52,60,68,76,84,92,100]"
  }
}
layer {
  name: "rpn_loss_cls"
  type: "SoftmaxWithLoss"
  bottom: "rpn_cls_score_reshape"
  bottom: "rpn_labels"
  top: "rpn_cls_loss"
  loss_weight: 1
  propagate_down: true
  propagate_down: false
  loss_param {
    ignore_label: -1
    normalize: true
  }
}
layer {
  name: "rpn_loss_twin"
  type: "SmoothL1Loss"
  bottom: "rpn_twin_pred"
  bottom: "rpn_twin_targets"
  bottom: "rpn_twin_inside_weights"
  bottom: "rpn_twin_outside_weights"
  top: "rpn_loss_twin"
  loss_weight: 1
  smooth_l1_loss_param {
    sigma: 3
  }
}
layer {
  name: "rpn_accuarcy"
  type: "Accuracy"
  bottom: "rpn_cls_score_reshape"
  bottom: "rpn_labels"
  top: "rpn_accuarcy"
  top: "rpn_accuarcy_class"
  propagate_down: false
  propagate_down: false
  accuracy_param {
    ignore_label: -1
  }
}
layer {
  name: "rpn_cls_prob"
  type: "Softmax"
  bottom: "rpn_cls_score_reshape"
  top: "rpn_cls_prob"
}
layer {
  name: "rpn_cls_prob_reshape"
  type: "Reshape"
  bottom: "rpn_cls_prob"
  top: "rpn_cls_prob_reshape"
  reshape_param {
    shape {
      dim: 0
      dim: 74
      dim: -1
      dim: 0
      dim: 0
    }
  }
}
layer {
  name: "proposal"
  type: "Python"
  bottom: "rpn_cls_prob_reshape"
  bottom: "rpn_twin_pred"
  top: "rpn_rois"
  include {
    phase: TRAIN
  }
  python_param {
    module: "rpn.proposal_layer"
    layer: "ProposalLayer"
    param_str: "\'feat_stride\': 8 \n\'scales\': !!python/tuple [1,1.25, 1.5,1.75, 2,2.5, 3,3.5, 4,4.5, 5,5.5, 6,7, 8,9,10,11,12,14,16,18,20,22,24,28,32,36,40,44,52,60,68,76,84,92,100]"
  }
}
layer {
  name: "roi-data"
  type: "Python"
  bottom: "rpn_rois"
  bottom: "gt_boxes"
  top: "rois"
  top: "labels"
  top: "twin_targets"
  top: "twin_inside_weights"
  top: "twin_outside_weights"
  python_param {
    module: "rpn.proposal_target_layer"
    layer: "ProposalTargetLayer"
    param_str: "\'num_classes\': 201"
  }
}
layer {
  name: "roi_pool5"
  type: "ROIPooling"
  bottom: "conv5b"
  bottom: "rois"
  top: "pool5"
  roi_pooling_param {
    pooled_h: 4
    pooled_w: 4
    spatial_scale: 0.0625
    pooled_l: 1
    temporal_scale: 0.125
  }
}
layer {
  name: "fc6"
  type: "InnerProduct"
  bottom: "pool5"
  top: "fc6"
  param {
    lr_mult: 1
    decay_mult: 1
  }
  param {
    lr_mult: 2
    decay_mult: 0
  }
  inner_product_param {
    num_output: 4096
    weight_filler {
      type: "gaussian"
      std: 0.005
    }
    bias_filler {
      type: "constant"
      value: 1
    }
  }
}
layer {
  name: "relu6"
  type: "ReLU"
  bottom: "fc6"
  top: "fc6"
}
layer {
  name: "drop6"
  type: "Dropout"
  bottom: "fc6"
  top: "fc6"
  dropout_param {
    dropout_ratio: 0.5
  }
}
layer {
  name: "cls_score"
  type: "InnerProduct"
  bottom: "fc6"
  top: "cls_score"
  param {
    lr_mult: 1
    decay_mult: 1
  }
  param {
    lr_mult: 2
    decay_mult: 0
  }
  inner_product_param {
    num_output: 201
    weight_filler {
      type: "gaussian"
      std: 0.01
    }
    bias_filler {
      type: "constant"
      value: 0
    }
  }
}
layer {
  name: "twin_pred"
  type: "InnerProduct"
  bottom: "fc6"
  top: "twin_pred"
  param {
    lr_mult: 1
    decay_mult: 1
  }
  param {
    lr_mult: 2
    decay_mult: 0
  }
  inner_product_param {
    num_output: 402
    weight_filler {
      type: "gaussian"
      std: 0.001
    }
    bias_filler {
      type: "constant"
      value: 0
    }
  }
}
layer {
  name: "loss_cls"
  type: "SoftmaxWithLoss"
  bottom: "cls_score"
  bottom: "labels"
  top: "loss_cls"
  loss_weight: 1
  propagate_down: true
  propagate_down: false
}
layer {
  name: "loss_twin"
  type: "SmoothL1Loss"
  bottom: "twin_pred"
  bottom: "twin_targets"
  bottom: "twin_inside_weights"
  bottom: "twin_outside_weights"
  top: "loss_twin"
  loss_weight: 1
}
layer {
  name: "accuarcy"
  type: "Accuracy"
  bottom: "cls_score"
  bottom: "labels"
  top: "accuarcy"
  propagate_down: false
  propagate_down: false
  accuracy_param {
    ignore_label: -1
  }
}
I0418 01:28:41.999781 12003 layer_factory.hpp:77] Creating layer data
I0418 01:28:42.025962 12003 net.cpp:100] Creating Layer data
I0418 01:28:42.025987 12003 net.cpp:408] data -> data
I0418 01:28:42.026000 12003 net.cpp:408] data -> gt_boxes
setting up
has rpn
RoiDataLayer: name_to_top: {'gt_windows': 1, 'data': 0}
I0418 01:28:42.067190 12003 net.cpp:150] Setting up data
I0418 01:28:42.067214 12003 net.cpp:157] Top shape: 1 3 768 112 112 (28901376)
I0418 01:28:42.067219 12003 net.cpp:157] Top shape: 1 101 (101)
I0418 01:28:42.067224 12003 net.cpp:165] Memory required for data: 115605908
I0418 01:28:42.067229 12003 layer_factory.hpp:77] Creating layer data_data_0_split
I0418 01:28:42.067243 12003 net.cpp:100] Creating Layer data_data_0_split
I0418 01:28:42.067248 12003 net.cpp:434] data_data_0_split <- data
I0418 01:28:42.067255 12003 net.cpp:408] data_data_0_split -> data_data_0_split_0
I0418 01:28:42.067267 12003 net.cpp:408] data_data_0_split -> data_data_0_split_1
I0418 01:28:42.067302 12003 net.cpp:150] Setting up data_data_0_split
I0418 01:28:42.067312 12003 net.cpp:157] Top shape: 1 3 768 112 112 (28901376)
I0418 01:28:42.067317 12003 net.cpp:157] Top shape: 1 3 768 112 112 (28901376)
I0418 01:28:42.067320 12003 net.cpp:165] Memory required for data: 346816916
I0418 01:28:42.067323 12003 layer_factory.hpp:77] Creating layer gt_boxes_data_1_split
I0418 01:28:42.067330 12003 net.cpp:100] Creating Layer gt_boxes_data_1_split
I0418 01:28:42.067334 12003 net.cpp:434] gt_boxes_data_1_split <- gt_boxes
I0418 01:28:42.067338 12003 net.cpp:408] gt_boxes_data_1_split -> gt_boxes_data_1_split_0
I0418 01:28:42.067344 12003 net.cpp:408] gt_boxes_data_1_split -> gt_boxes_data_1_split_1
I0418 01:28:42.067375 12003 net.cpp:150] Setting up gt_boxes_data_1_split
I0418 01:28:42.067382 12003 net.cpp:157] Top shape: 1 101 (101)
I0418 01:28:42.067386 12003 net.cpp:157] Top shape: 1 101 (101)
I0418 01:28:42.067389 12003 net.cpp:165] Memory required for data: 346817724
I0418 01:28:42.067392 12003 layer_factory.hpp:77] Creating layer conv1a
I0418 01:28:42.067409 12003 net.cpp:100] Creating Layer conv1a
I0418 01:28:42.067414 12003 net.cpp:434] conv1a <- data_data_0_split_0
I0418 01:28:42.067420 12003 net.cpp:408] conv1a -> conv1a
I0418 01:28:42.357805 12003 net.cpp:150] Setting up conv1a
I0418 01:28:42.357837 12003 net.cpp:157] Top shape: 1 64 768 112 112 (616562688)
I0418 01:28:42.357841 12003 net.cpp:165] Memory required for data: 2813068476
I0418 01:28:42.357861 12003 layer_factory.hpp:77] Creating layer relu1a
I0418 01:28:42.357875 12003 net.cpp:100] Creating Layer relu1a
I0418 01:28:42.357882 12003 net.cpp:434] relu1a <- conv1a
I0418 01:28:42.357887 12003 net.cpp:395] relu1a -> conv1a (in-place)
I0418 01:28:42.358397 12003 net.cpp:150] Setting up relu1a
I0418 01:28:42.358412 12003 net.cpp:157] Top shape: 1 64 768 112 112 (616562688)
I0418 01:28:42.358415 12003 net.cpp:165] Memory required for data: 5279319228
I0418 01:28:42.358419 12003 layer_factory.hpp:77] Creating layer pool1
I0418 01:28:42.358429 12003 net.cpp:100] Creating Layer pool1
I0418 01:28:42.358433 12003 net.cpp:434] pool1 <- conv1a
I0418 01:28:42.358438 12003 net.cpp:408] pool1 -> pool1
I0418 01:28:42.363775 12003 net.cpp:150] Setting up pool1
I0418 01:28:42.363790 12003 net.cpp:157] Top shape: 1 64 768 56 56 (154140672)
I0418 01:28:42.363795 12003 net.cpp:165] Memory required for data: 5895881916
I0418 01:28:42.363798 12003 layer_factory.hpp:77] Creating layer conv2a
I0418 01:28:42.363811 12003 net.cpp:100] Creating Layer conv2a
I0418 01:28:42.363816 12003 net.cpp:434] conv2a <- pool1
I0418 01:28:42.363821 12003 net.cpp:408] conv2a -> conv2a
I0418 01:28:42.376510 12003 net.cpp:150] Setting up conv2a
I0418 01:28:42.376538 12003 net.cpp:157] Top shape: 1 128 768 56 56 (308281344)
I0418 01:28:42.376541 12003 net.cpp:165] Memory required for data: 7129007292
I0418 01:28:42.376554 12003 layer_factory.hpp:77] Creating layer relu2a
I0418 01:28:42.376565 12003 net.cpp:100] Creating Layer relu2a
I0418 01:28:42.376570 12003 net.cpp:434] relu2a <- conv2a
I0418 01:28:42.376576 12003 net.cpp:395] relu2a -> conv2a (in-place)
I0418 01:28:42.376971 12003 net.cpp:150] Setting up relu2a
I0418 01:28:42.376986 12003 net.cpp:157] Top shape: 1 128 768 56 56 (308281344)
I0418 01:28:42.376991 12003 net.cpp:165] Memory required for data: 8362132668
I0418 01:28:42.376994 12003 layer_factory.hpp:77] Creating layer pool2
I0418 01:28:42.377005 12003 net.cpp:100] Creating Layer pool2
I0418 01:28:42.377009 12003 net.cpp:434] pool2 <- conv2a
I0418 01:28:42.377015 12003 net.cpp:408] pool2 -> pool2
I0418 01:28:42.377784 12003 net.cpp:150] Setting up pool2
I0418 01:28:42.377797 12003 net.cpp:157] Top shape: 1 128 384 28 28 (38535168)
I0418 01:28:42.377801 12003 net.cpp:165] Memory required for data: 8516273340
I0418 01:28:42.377804 12003 layer_factory.hpp:77] Creating layer conv3a
I0418 01:28:42.377816 12003 net.cpp:100] Creating Layer conv3a
I0418 01:28:42.377823 12003 net.cpp:434] conv3a <- pool2
I0418 01:28:42.377830 12003 net.cpp:408] conv3a -> conv3a
I0418 01:28:42.407804 12003 net.cpp:150] Setting up conv3a
I0418 01:28:42.407840 12003 net.cpp:157] Top shape: 1 256 384 28 28 (77070336)
I0418 01:28:42.407850 12003 net.cpp:165] Memory required for data: 8824554684
I0418 01:28:42.407878 12003 layer_factory.hpp:77] Creating layer relu3a
I0418 01:28:42.407902 12003 net.cpp:100] Creating Layer relu3a
I0418 01:28:42.407912 12003 net.cpp:434] relu3a <- conv3a
I0418 01:28:42.407925 12003 net.cpp:395] relu3a -> conv3a (in-place)
I0418 01:28:42.410310 12003 net.cpp:150] Setting up relu3a
I0418 01:28:42.410332 12003 net.cpp:157] Top shape: 1 256 384 28 28 (77070336)
I0418 01:28:42.410337 12003 net.cpp:165] Memory required for data: 9132836028
I0418 01:28:42.410343 12003 layer_factory.hpp:77] Creating layer conv3b
I0418 01:28:42.410362 12003 net.cpp:100] Creating Layer conv3b
I0418 01:28:42.410370 12003 net.cpp:434] conv3b <- conv3a
I0418 01:28:42.410387 12003 net.cpp:408] conv3b -> conv3b
I0418 01:28:42.468601 12003 net.cpp:150] Setting up conv3b
I0418 01:28:42.468632 12003 net.cpp:157] Top shape: 1 256 384 28 28 (77070336)
I0418 01:28:42.468637 12003 net.cpp:165] Memory required for data: 9441117372
I0418 01:28:42.468647 12003 layer_factory.hpp:77] Creating layer relu3b
I0418 01:28:42.468658 12003 net.cpp:100] Creating Layer relu3b
I0418 01:28:42.468663 12003 net.cpp:434] relu3b <- conv3b
I0418 01:28:42.468669 12003 net.cpp:395] relu3b -> conv3b (in-place)
I0418 01:28:42.469028 12003 net.cpp:150] Setting up relu3b
I0418 01:28:42.469043 12003 net.cpp:157] Top shape: 1 256 384 28 28 (77070336)
I0418 01:28:42.469048 12003 net.cpp:165] Memory required for data: 9749398716
I0418 01:28:42.469053 12003 layer_factory.hpp:77] Creating layer pool3
I0418 01:28:42.469061 12003 net.cpp:100] Creating Layer pool3
I0418 01:28:42.469065 12003 net.cpp:434] pool3 <- conv3b
I0418 01:28:42.469070 12003 net.cpp:408] pool3 -> pool3
I0418 01:28:42.469261 12003 net.cpp:150] Setting up pool3
I0418 01:28:42.469274 12003 net.cpp:157] Top shape: 1 256 192 14 14 (9633792)
I0418 01:28:42.469278 12003 net.cpp:165] Memory required for data: 9787933884
I0418 01:28:42.469282 12003 layer_factory.hpp:77] Creating layer conv4a
I0418 01:28:42.469293 12003 net.cpp:100] Creating Layer conv4a
I0418 01:28:42.469297 12003 net.cpp:434] conv4a <- pool3
I0418 01:28:42.469305 12003 net.cpp:408] conv4a -> conv4a
I0418 01:28:42.575414 12003 net.cpp:150] Setting up conv4a
I0418 01:28:42.575444 12003 net.cpp:157] Top shape: 1 512 192 14 14 (19267584)
I0418 01:28:42.575449 12003 net.cpp:165] Memory required for data: 9865004220
I0418 01:28:42.575465 12003 layer_factory.hpp:77] Creating layer relu4a
I0418 01:28:42.575479 12003 net.cpp:100] Creating Layer relu4a
I0418 01:28:42.575486 12003 net.cpp:434] relu4a <- conv4a
I0418 01:28:42.575492 12003 net.cpp:395] relu4a -> conv4a (in-place)
I0418 01:28:42.575906 12003 net.cpp:150] Setting up relu4a
I0418 01:28:42.575923 12003 net.cpp:157] Top shape: 1 512 192 14 14 (19267584)
I0418 01:28:42.575927 12003 net.cpp:165] Memory required for data: 9942074556
I0418 01:28:42.575932 12003 layer_factory.hpp:77] Creating layer conv4b
I0418 01:28:42.575948 12003 net.cpp:100] Creating Layer conv4b
I0418 01:28:42.575954 12003 net.cpp:434] conv4b <- conv4a
I0418 01:28:42.575961 12003 net.cpp:408] conv4b -> conv4b
I0418 01:28:42.774101 12003 net.cpp:150] Setting up conv4b
I0418 01:28:42.774132 12003 net.cpp:157] Top shape: 1 512 192 14 14 (19267584)
I0418 01:28:42.774137 12003 net.cpp:165] Memory required for data: 10019144892
I0418 01:28:42.774145 12003 layer_factory.hpp:77] Creating layer relu4b
I0418 01:28:42.774155 12003 net.cpp:100] Creating Layer relu4b
I0418 01:28:42.774160 12003 net.cpp:434] relu4b <- conv4b
I0418 01:28:42.774168 12003 net.cpp:395] relu4b -> conv4b (in-place)
I0418 01:28:42.774334 12003 net.cpp:150] Setting up relu4b
I0418 01:28:42.774348 12003 net.cpp:157] Top shape: 1 512 192 14 14 (19267584)
I0418 01:28:42.774353 12003 net.cpp:165] Memory required for data: 10096215228
I0418 01:28:42.774356 12003 layer_factory.hpp:77] Creating layer pool4
I0418 01:28:42.774365 12003 net.cpp:100] Creating Layer pool4
I0418 01:28:42.774369 12003 net.cpp:434] pool4 <- conv4b
I0418 01:28:42.774375 12003 net.cpp:408] pool4 -> pool4
I0418 01:28:42.775370 12003 net.cpp:150] Setting up pool4
I0418 01:28:42.775384 12003 net.cpp:157] Top shape: 1 512 96 7 7 (2408448)
I0418 01:28:42.775388 12003 net.cpp:165] Memory required for data: 10105849020
I0418 01:28:42.775393 12003 layer_factory.hpp:77] Creating layer conv5a
I0418 01:28:42.775404 12003 net.cpp:100] Creating Layer conv5a
I0418 01:28:42.775408 12003 net.cpp:434] conv5a <- pool4
I0418 01:28:42.775415 12003 net.cpp:408] conv5a -> conv5a
I0418 01:28:42.971243 12003 net.cpp:150] Setting up conv5a
I0418 01:28:42.971269 12003 net.cpp:157] Top shape: 1 512 96 7 7 (2408448)
I0418 01:28:42.971273 12003 net.cpp:165] Memory required for data: 10115482812
I0418 01:28:42.971282 12003 layer_factory.hpp:77] Creating layer relu5a
I0418 01:28:42.971292 12003 net.cpp:100] Creating Layer relu5a
I0418 01:28:42.971298 12003 net.cpp:434] relu5a <- conv5a
I0418 01:28:42.971304 12003 net.cpp:395] relu5a -> conv5a (in-place)
I0418 01:28:42.973090 12003 net.cpp:150] Setting up relu5a
I0418 01:28:42.973104 12003 net.cpp:157] Top shape: 1 512 96 7 7 (2408448)
I0418 01:28:42.973109 12003 net.cpp:165] Memory required for data: 10125116604
I0418 01:28:42.973112 12003 layer_factory.hpp:77] Creating layer conv5b
I0418 01:28:42.973125 12003 net.cpp:100] Creating Layer conv5b
I0418 01:28:42.973129 12003 net.cpp:434] conv5b <- conv5a
I0418 01:28:42.973135 12003 net.cpp:408] conv5b -> conv5b
I0418 01:28:43.164510 12003 net.cpp:150] Setting up conv5b
I0418 01:28:43.164537 12003 net.cpp:157] Top shape: 1 512 96 7 7 (2408448)
I0418 01:28:43.164542 12003 net.cpp:165] Memory required for data: 10134750396
I0418 01:28:43.164551 12003 layer_factory.hpp:77] Creating layer relu5b
I0418 01:28:43.164561 12003 net.cpp:100] Creating Layer relu5b
I0418 01:28:43.164566 12003 net.cpp:434] relu5b <- conv5b
I0418 01:28:43.164572 12003 net.cpp:395] relu5b -> conv5b (in-place)
I0418 01:28:43.165516 12003 net.cpp:150] Setting up relu5b
I0418 01:28:43.165539 12003 net.cpp:157] Top shape: 1 512 96 7 7 (2408448)
I0418 01:28:43.165544 12003 net.cpp:165] Memory required for data: 10144384188
I0418 01:28:43.165546 12003 layer_factory.hpp:77] Creating layer conv5b_relu5b_0_split
I0418 01:28:43.165552 12003 net.cpp:100] Creating Layer conv5b_relu5b_0_split
I0418 01:28:43.165556 12003 net.cpp:434] conv5b_relu5b_0_split <- conv5b
I0418 01:28:43.165563 12003 net.cpp:408] conv5b_relu5b_0_split -> conv5b_relu5b_0_split_0
I0418 01:28:43.165570 12003 net.cpp:408] conv5b_relu5b_0_split -> conv5b_relu5b_0_split_1
I0418 01:28:43.165624 12003 net.cpp:150] Setting up conv5b_relu5b_0_split
I0418 01:28:43.165637 12003 net.cpp:157] Top shape: 1 512 96 7 7 (2408448)
I0418 01:28:43.165642 12003 net.cpp:157] Top shape: 1 512 96 7 7 (2408448)
I0418 01:28:43.165644 12003 net.cpp:165] Memory required for data: 10163651772
I0418 01:28:43.165648 12003 layer_factory.hpp:77] Creating layer rpn_conv/3x3
I0418 01:28:43.165661 12003 net.cpp:100] Creating Layer rpn_conv/3x3
I0418 01:28:43.165669 12003 net.cpp:434] rpn_conv/3x3 <- conv5b_relu5b_0_split_0
I0418 01:28:43.165678 12003 net.cpp:408] rpn_conv/3x3 -> rpn/output
I0418 01:28:43.357013 12003 net.cpp:150] Setting up rpn_conv/3x3
I0418 01:28:43.357048 12003 net.cpp:157] Top shape: 1 512 96 4 4 (786432)
I0418 01:28:43.357059 12003 net.cpp:165] Memory required for data: 10166797500
I0418 01:28:43.357074 12003 layer_factory.hpp:77] Creating layer rpn_relu/3x3
I0418 01:28:43.357082 12003 net.cpp:100] Creating Layer rpn_relu/3x3
I0418 01:28:43.357087 12003 net.cpp:434] rpn_relu/3x3 <- rpn/output
I0418 01:28:43.357095 12003 net.cpp:395] rpn_relu/3x3 -> rpn/output (in-place)
I0418 01:28:43.357553 12003 net.cpp:150] Setting up rpn_relu/3x3
I0418 01:28:43.357566 12003 net.cpp:157] Top shape: 1 512 96 4 4 (786432)
I0418 01:28:43.357569 12003 net.cpp:165] Memory required for data: 10169943228
I0418 01:28:43.357573 12003 layer_factory.hpp:77] Creating layer rpn_conv/3x3_2
I0418 01:28:43.357584 12003 net.cpp:100] Creating Layer rpn_conv/3x3_2
I0418 01:28:43.357589 12003 net.cpp:434] rpn_conv/3x3_2 <- rpn/output
I0418 01:28:43.357596 12003 net.cpp:408] rpn_conv/3x3_2 -> rpn/output_2
I0418 01:28:43.546336 12003 net.cpp:150] Setting up rpn_conv/3x3_2
I0418 01:28:43.546372 12003 net.cpp:157] Top shape: 1 512 96 2 2 (196608)
I0418 01:28:43.546380 12003 net.cpp:165] Memory required for data: 10170729660
I0418 01:28:43.546394 12003 layer_factory.hpp:77] Creating layer rpn_relu/3x3_2
I0418 01:28:43.546407 12003 net.cpp:100] Creating Layer rpn_relu/3x3_2
I0418 01:28:43.546420 12003 net.cpp:434] rpn_relu/3x3_2 <- rpn/output_2
I0418 01:28:43.546430 12003 net.cpp:395] rpn_relu/3x3_2 -> rpn/output_2 (in-place)
I0418 01:28:43.547449 12003 net.cpp:150] Setting up rpn_relu/3x3_2
I0418 01:28:43.547463 12003 net.cpp:157] Top shape: 1 512 96 2 2 (196608)
I0418 01:28:43.547467 12003 net.cpp:165] Memory required for data: 10171516092
I0418 01:28:43.547472 12003 layer_factory.hpp:77] Creating layer rpn/output_pool
I0418 01:28:43.547479 12003 net.cpp:100] Creating Layer rpn/output_pool
I0418 01:28:43.547483 12003 net.cpp:434] rpn/output_pool <- rpn/output_2
I0418 01:28:43.547489 12003 net.cpp:408] rpn/output_pool -> rpn/output_pool
I0418 01:28:43.548660 12003 net.cpp:150] Setting up rpn/output_pool
I0418 01:28:43.548671 12003 net.cpp:157] Top shape: 1 512 96 1 1 (49152)
I0418 01:28:43.548676 12003 net.cpp:165] Memory required for data: 10171712700
I0418 01:28:43.548679 12003 layer_factory.hpp:77] Creating layer rpn/output_pool_rpn/output_pool_0_split
I0418 01:28:43.548684 12003 net.cpp:100] Creating Layer rpn/output_pool_rpn/output_pool_0_split
I0418 01:28:43.548688 12003 net.cpp:434] rpn/output_pool_rpn/output_pool_0_split <- rpn/output_pool
I0418 01:28:43.548696 12003 net.cpp:408] rpn/output_pool_rpn/output_pool_0_split -> rpn/output_pool_rpn/output_pool_0_split_0
I0418 01:28:43.548701 12003 net.cpp:408] rpn/output_pool_rpn/output_pool_0_split -> rpn/output_pool_rpn/output_pool_0_split_1
I0418 01:28:43.548734 12003 net.cpp:150] Setting up rpn/output_pool_rpn/output_pool_0_split
I0418 01:28:43.548741 12003 net.cpp:157] Top shape: 1 512 96 1 1 (49152)
I0418 01:28:43.548746 12003 net.cpp:157] Top shape: 1 512 96 1 1 (49152)
I0418 01:28:43.548749 12003 net.cpp:165] Memory required for data: 10172105916
I0418 01:28:43.548753 12003 layer_factory.hpp:77] Creating layer rpn_cls_score
I0418 01:28:43.548763 12003 net.cpp:100] Creating Layer rpn_cls_score
I0418 01:28:43.548768 12003 net.cpp:434] rpn_cls_score <- rpn/output_pool_rpn/output_pool_0_split_0
I0418 01:28:43.548774 12003 net.cpp:408] rpn_cls_score -> rpn_cls_score
I0418 01:28:43.552686 12003 net.cpp:150] Setting up rpn_cls_score
I0418 01:28:43.552701 12003 net.cpp:157] Top shape: 1 74 96 1 1 (7104)
I0418 01:28:43.552706 12003 net.cpp:165] Memory required for data: 10172134332
I0418 01:28:43.552712 12003 layer_factory.hpp:77] Creating layer rpn_cls_score_rpn_cls_score_0_split
I0418 01:28:43.552717 12003 net.cpp:100] Creating Layer rpn_cls_score_rpn_cls_score_0_split
I0418 01:28:43.552721 12003 net.cpp:434] rpn_cls_score_rpn_cls_score_0_split <- rpn_cls_score
I0418 01:28:43.552726 12003 net.cpp:408] rpn_cls_score_rpn_cls_score_0_split -> rpn_cls_score_rpn_cls_score_0_split_0
I0418 01:28:43.552732 12003 net.cpp:408] rpn_cls_score_rpn_cls_score_0_split -> rpn_cls_score_rpn_cls_score_0_split_1
I0418 01:28:43.552773 12003 net.cpp:150] Setting up rpn_cls_score_rpn_cls_score_0_split
I0418 01:28:43.552783 12003 net.cpp:157] Top shape: 1 74 96 1 1 (7104)
I0418 01:28:43.552786 12003 net.cpp:157] Top shape: 1 74 96 1 1 (7104)
I0418 01:28:43.552790 12003 net.cpp:165] Memory required for data: 10172191164
I0418 01:28:43.552794 12003 layer_factory.hpp:77] Creating layer rpn_twin_pred
I0418 01:28:43.552809 12003 net.cpp:100] Creating Layer rpn_twin_pred
I0418 01:28:43.552815 12003 net.cpp:434] rpn_twin_pred <- rpn/output_pool_rpn/output_pool_0_split_1
I0418 01:28:43.552822 12003 net.cpp:408] rpn_twin_pred -> rpn_twin_pred
I0418 01:28:43.556607 12003 net.cpp:150] Setting up rpn_twin_pred
I0418 01:28:43.556622 12003 net.cpp:157] Top shape: 1 74 96 1 1 (7104)
I0418 01:28:43.556625 12003 net.cpp:165] Memory required for data: 10172219580
I0418 01:28:43.556632 12003 layer_factory.hpp:77] Creating layer rpn_twin_pred_rpn_twin_pred_0_split
I0418 01:28:43.556639 12003 net.cpp:100] Creating Layer rpn_twin_pred_rpn_twin_pred_0_split
I0418 01:28:43.556643 12003 net.cpp:434] rpn_twin_pred_rpn_twin_pred_0_split <- rpn_twin_pred
I0418 01:28:43.556648 12003 net.cpp:408] rpn_twin_pred_rpn_twin_pred_0_split -> rpn_twin_pred_rpn_twin_pred_0_split_0
I0418 01:28:43.556654 12003 net.cpp:408] rpn_twin_pred_rpn_twin_pred_0_split -> rpn_twin_pred_rpn_twin_pred_0_split_1
I0418 01:28:43.556691 12003 net.cpp:150] Setting up rpn_twin_pred_rpn_twin_pred_0_split
I0418 01:28:43.556700 12003 net.cpp:157] Top shape: 1 74 96 1 1 (7104)
I0418 01:28:43.556704 12003 net.cpp:157] Top shape: 1 74 96 1 1 (7104)
I0418 01:28:43.556707 12003 net.cpp:165] Memory required for data: 10172276412
I0418 01:28:43.556710 12003 layer_factory.hpp:77] Creating layer rpn_cls_score_reshape
I0418 01:28:43.556720 12003 net.cpp:100] Creating Layer rpn_cls_score_reshape
I0418 01:28:43.556725 12003 net.cpp:434] rpn_cls_score_reshape <- rpn_cls_score_rpn_cls_score_0_split_0
I0418 01:28:43.556730 12003 net.cpp:408] rpn_cls_score_reshape -> rpn_cls_score_reshape
I0418 01:28:43.556763 12003 net.cpp:150] Setting up rpn_cls_score_reshape
I0418 01:28:43.556773 12003 net.cpp:157] Top shape: 1 2 3552 1 1 (7104)
I0418 01:28:43.556777 12003 net.cpp:165] Memory required for data: 10172304828
I0418 01:28:43.556780 12003 layer_factory.hpp:77] Creating layer rpn_cls_score_reshape_rpn_cls_score_reshape_0_split
I0418 01:28:43.556787 12003 net.cpp:100] Creating Layer rpn_cls_score_reshape_rpn_cls_score_reshape_0_split
I0418 01:28:43.556793 12003 net.cpp:434] rpn_cls_score_reshape_rpn_cls_score_reshape_0_split <- rpn_cls_score_reshape
I0418 01:28:43.556797 12003 net.cpp:408] rpn_cls_score_reshape_rpn_cls_score_reshape_0_split -> rpn_cls_score_reshape_rpn_cls_score_reshape_0_split_0
I0418 01:28:43.556808 12003 net.cpp:408] rpn_cls_score_reshape_rpn_cls_score_reshape_0_split -> rpn_cls_score_reshape_rpn_cls_score_reshape_0_split_1
I0418 01:28:43.556814 12003 net.cpp:408] rpn_cls_score_reshape_rpn_cls_score_reshape_0_split -> rpn_cls_score_reshape_rpn_cls_score_reshape_0_split_2
I0418 01:28:43.556859 12003 net.cpp:150] Setting up rpn_cls_score_reshape_rpn_cls_score_reshape_0_split
I0418 01:28:43.556869 12003 net.cpp:157] Top shape: 1 2 3552 1 1 (7104)
I0418 01:28:43.556874 12003 net.cpp:157] Top shape: 1 2 3552 1 1 (7104)
I0418 01:28:43.556877 12003 net.cpp:157] Top shape: 1 2 3552 1 1 (7104)
I0418 01:28:43.556880 12003 net.cpp:165] Memory required for data: 10172390076
I0418 01:28:43.556883 12003 layer_factory.hpp:77] Creating layer rpn-data
I0418 01:28:43.557294 12003 net.cpp:100] Creating Layer rpn-data
I0418 01:28:43.557307 12003 net.cpp:434] rpn-data <- rpn_cls_score_rpn_cls_score_0_split_1
I0418 01:28:43.557312 12003 net.cpp:434] rpn-data <- gt_boxes_data_1_split_0
I0418 01:28:43.557317 12003 net.cpp:434] rpn-data <- data_data_0_split_1
I0418 01:28:43.557322 12003 net.cpp:408] rpn-data -> rpn_labels
I0418 01:28:43.557329 12003 net.cpp:408] rpn-data -> rpn_twin_targets
I0418 01:28:43.557334 12003 net.cpp:408] rpn-data -> rpn_twin_inside_weights
I0418 01:28:43.557340 12003 net.cpp:408] rpn-data -> rpn_twin_outside_weights
I0418 01:28:43.559865 12003 net.cpp:150] Setting up rpn-data
I0418 01:28:43.559880 12003 net.cpp:157] Top shape: 1 1 3552 1 1 (3552)
I0418 01:28:43.559885 12003 net.cpp:157] Top shape: 1 74 96 1 1 (7104)
I0418 01:28:43.559890 12003 net.cpp:157] Top shape: 1 74 96 1 1 (7104)
I0418 01:28:43.559892 12003 net.cpp:157] Top shape: 1 74 96 1 1 (7104)
I0418 01:28:43.559895 12003 net.cpp:165] Memory required for data: 10172489532
I0418 01:28:43.559900 12003 layer_factory.hpp:77] Creating layer rpn_labels_rpn-data_0_split
I0418 01:28:43.559904 12003 net.cpp:100] Creating Layer rpn_labels_rpn-data_0_split
I0418 01:28:43.559908 12003 net.cpp:434] rpn_labels_rpn-data_0_split <- rpn_labels
I0418 01:28:43.559913 12003 net.cpp:408] rpn_labels_rpn-data_0_split -> rpn_labels_rpn-data_0_split_0
I0418 01:28:43.559921 12003 net.cpp:408] rpn_labels_rpn-data_0_split -> rpn_labels_rpn-data_0_split_1
I0418 01:28:43.559952 12003 net.cpp:150] Setting up rpn_labels_rpn-data_0_split
I0418 01:28:43.559959 12003 net.cpp:157] Top shape: 1 1 3552 1 1 (3552)
I0418 01:28:43.559963 12003 net.cpp:157] Top shape: 1 1 3552 1 1 (3552)
I0418 01:28:43.559967 12003 net.cpp:165] Memory required for data: 10172517948
I0418 01:28:43.559969 12003 layer_factory.hpp:77] Creating layer rpn_loss_cls
I0418 01:28:43.559978 12003 net.cpp:100] Creating Layer rpn_loss_cls
I0418 01:28:43.559981 12003 net.cpp:434] rpn_loss_cls <- rpn_cls_score_reshape_rpn_cls_score_reshape_0_split_0
I0418 01:28:43.559985 12003 net.cpp:434] rpn_loss_cls <- rpn_labels_rpn-data_0_split_0
…
I0418 01:28:43.560600 12003 layer_factory.hpp:77] Creating layer rpn_accuarcy
I0418 01:28:43.560608 12003 net.cpp:100] Creating Layer rpn_accuarcy
I0418 01:28:43.560614 12003 net.cpp:434] rpn_accuarcy <- rpn_cls_score_reshape_rpn_cls_score_reshape_0_split_1
I0418 01:28:43.560621 12003 net.cpp:434] rpn_accuarcy <- rpn_labels_rpn-data_0_split_1
I0418 01:28:43.560627 12003 net.cpp:408] rpn_accuarcy -> rpn_accuarcy
I0418 01:28:43.560634 12003 net.cpp:408] rpn_accuarcy -> rpn_accuarcy_class
I0418 01:28:43.560674 12003 net.cpp:150] Setting up rpn_accuarcy
I0418 01:28:43.560683 12003 net.cpp:157] Top shape: (1)
I0418 01:28:43.560686 12003 net.cpp:157] Top shape: 2 (2)
I0418 01:28:43.560689 12003 net.cpp:165] Memory required for data: 10172517968
I0418 01:28:43.560693 12003 layer_factory.hpp:77] Creating layer rpn_cls_prob
I0418 01:28:43.560700 12003 net.cpp:100] Creating Layer rpn_cls_prob
I0418 01:28:43.560704 12003 net.cpp:434] rpn_cls_prob <- rpn_cls_score_reshape_rpn_cls_score_reshape_0_split_2
I0418 01:28:43.560708 12003 net.cpp:408] rpn_cls_prob -> rpn_cls_prob
I0418 01:28:43.560917 12003 net.cpp:150] Setting up rpn_cls_prob
I0418 01:28:43.560928 12003 net.cpp:157] Top shape: 1 2 3552 1 1 (7104)
I0418 01:28:43.560932 12003 net.cpp:165] Memory required for data: 10172546384
I0418 01:28:43.560935 12003 layer_factory.hpp:77] Creating layer rpn_cls_prob_reshape
I0418 01:28:43.560942 12003 net.cpp:100] Creating Layer rpn_cls_prob_reshape
I0418 01:28:43.560946 12003 net.cpp:434] rpn_cls_prob_reshape <- rpn_cls_prob
I0418 01:28:43.560951 12003 net.cpp:408] rpn_cls_prob_reshape -> rpn_cls_prob_reshape
I0418 01:28:43.560977 12003 net.cpp:150] Setting up rpn_cls_prob_reshape
I0418 01:28:43.560986 12003 net.cpp:157] Top shape: 1 74 96 1 1 (7104)
I0418 01:28:43.560988 12003 net.cpp:165] Memory required for data: 10172574800
I0418 01:28:43.560992 12003 layer_factory.hpp:77] Creating layer proposal
I0418 01:28:43.561530 12003 net.cpp:100] Creating Layer proposal
I0418 01:28:43.561543 12003 net.cpp:434] proposal <- rpn_cls_prob_reshape
I0418 01:28:43.561548 12003 net.cpp:434] proposal <- rpn_twin_pred_rpn_twin_pred_0_split_1
I0418 01:28:43.561553 12003 net.cpp:408] proposal -> rpn_rois
I0418 01:28:43.563839 12003 net.cpp:150] Setting up proposal
I0418 01:28:43.563854 12003 net.cpp:157] Top shape: 1 3 (3)
I0418 01:28:43.563858 12003 net.cpp:165] Memory required for data: 10172574812
I0418 01:28:43.563863 12003 layer_factory.hpp:77] Creating layer roi-data
I0418 01:28:43.565461 12003 net.cpp:100] Creating Layer roi-data
I0418 01:28:43.565474 12003 net.cpp:434] roi-data <- rpn_rois
I0418 01:28:43.565479 12003 net.cpp:434] roi-data <- gt_boxes_data_1_split_1
I0418 01:28:43.565485 12003 net.cpp:408] roi-data -> rois
I0418 01:28:43.565491 12003 net.cpp:408] roi-data -> labels
I0418 01:28:43.565497 12003 net.cpp:408] roi-data -> twin_targets
I0418 01:28:43.565502 12003 net.cpp:408] roi-data -> twin_inside_weights
I0418 01:28:43.565508 12003 net.cpp:408] roi-data -> twin_outside_weights
I0418 01:28:43.565824 12003 net.cpp:150] Setting up roi-data
I0418 01:28:43.565837 12003 net.cpp:157] Top shape: 1 3 (3)
I0418 01:28:43.565842 12003 net.cpp:157] Top shape: 1 1 (1)
I0418 01:28:43.565846 12003 net.cpp:157] Top shape: 1 402 (402)
I0418 01:28:43.565850 12003 net.cpp:157] Top shape: 1 402 (402)
I0418 01:28:43.565853 12003 net.cpp:157] Top shape: 1 402 (402)
I0418 01:28:43.565856 12003 net.cpp:165] Memory required for data: 10172579652
I0418 01:28:43.565860 12003 layer_factory.hpp:77] Creating layer labels_roi-data_1_split
I0418 01:28:43.565866 12003 net.cpp:100] Creating Layer labels_roi-data_1_split
I0418 01:28:43.565871 12003 net.cpp:434] labels_roi-data_1_split <- labels
I0418 01:28:43.565876 12003 net.cpp:408] labels_roi-data_1_split -> labels_roi-data_1_split_0
I0418 01:28:43.565882 12003 net.cpp:408] labels_roi-data_1_split -> labels_roi-data_1_split_1
I0418 01:28:43.565913 12003 net.cpp:150] Setting up labels_roi-data_1_split
I0418 01:28:43.565922 12003 net.cpp:157] Top shape: 1 1 (1)
I0418 01:28:43.565925 12003 net.cpp:157] Top shape: 1 1 (1)
I0418 01:28:43.565927 12003 net.cpp:165] Memory required for data: 10172579660
I0418 01:28:43.565932 12003 layer_factory.hpp:77] Creating layer roi_pool5
I0418 01:28:43.565940 12003 net.cpp:100] Creating Layer roi_pool5
I0418 01:28:43.565944 12003 net.cpp:434] roi_pool5 <- conv5b_relu5b_0_split_1
I0418 01:28:43.565949 12003 net.cpp:434] roi_pool5 <- rois
I0418 01:28:43.565953 12003 net.cpp:408] roi_pool5 -> pool5
I0418 01:28:43.565960 12003 roi_pooling_layer.cpp:34] Temporal scale: 0.125
I0418 01:28:43.565966 12003 roi_pooling_layer.cpp:35] Spatial scale: 0.0625
I0418 01:28:43.566002 12003 net.cpp:150] Setting up roi_pool5
I0418 01:28:43.566011 12003 net.cpp:157] Top shape: 1 512 1 4 4 (8192)
I0418 01:28:43.566015 12003 net.cpp:165] Memory required for data: 10172612428
I0418 01:28:43.566017 12003 layer_factory.hpp:77] Creating layer fc6
I0418 01:28:43.566025 12003 net.cpp:100] Creating Layer fc6
I0418 01:28:43.566030 12003 net.cpp:434] fc6 <- pool5
I0418 01:28:43.566037 12003 net.cpp:408] fc6 -> fc6
I0418 01:28:44.458247 12003 net.cpp:150] Setting up fc6
I0418 01:28:44.458282 12003 net.cpp:157] Top shape: 1 4096 (4096)
I0418 01:28:44.458287 12003 net.cpp:165] Memory required for data: 10172628812
I0418 01:28:44.458297 12003 layer_factory.hpp:77] Creating layer relu6
I0418 01:28:44.458307 12003 net.cpp:100] Creating Layer relu6
I0418 01:28:44.458312 12003 net.cpp:434] relu6 <- fc6
I0418 01:28:44.458317 12003 net.cpp:395] relu6 -> fc6 (in-place)
I0418 01:28:44.458803 12003 net.cpp:150] Setting up relu6
I0418 01:28:44.458817 12003 net.cpp:157] Top shape: 1 4096 (4096)
I0418 01:28:44.458819 12003 net.cpp:165] Memory required for data: 10172645196
I0418 01:28:44.458823 12003 layer_factory.hpp:77] Creating layer drop6
I0418 01:28:44.458837 12003 net.cpp:100] Creating Layer drop6
I0418 01:28:44.458840 12003 net.cpp:434] drop6 <- fc6
I0418 01:28:44.458845 12003 net.cpp:395] drop6 -> fc6 (in-place)
I0418 01:28:44.458873 12003 net.cpp:150] Setting up drop6
I0418 01:28:44.458881 12003 net.cpp:157] Top shape: 1 4096 (4096)
I0418 01:28:44.458885 12003 net.cpp:165] Memory required for data: 10172661580
I0418 01:28:44.458889 12003 layer_factory.hpp:77] Creating layer fc6_drop6_0_split
I0418 01:28:44.458894 12003 net.cpp:100] Creating Layer fc6_drop6_0_split
I0418 01:28:44.458899 12003 net.cpp:434] fc6_drop6_0_split <- fc6
I0418 01:28:44.458905 12003 net.cpp:408] fc6_drop6_0_split -> fc6_drop6_0_split_0
I0418 01:28:44.458914 12003 net.cpp:408] fc6_drop6_0_split -> fc6_drop6_0_split_1
I0418 01:28:44.458950 12003 net.cpp:150] Setting up fc6_drop6_0_split
I0418 01:28:44.458956 12003 net.cpp:157] Top shape: 1 4096 (4096)
I0418 01:28:44.458961 12003 net.cpp:157] Top shape: 1 4096 (4096)
I0418 01:28:44.458963 12003 net.cpp:165] Memory required for data: 10172694348
I0418 01:28:44.458967 12003 layer_factory.hpp:77] Creating layer cls_score
I0418 01:28:44.458974 12003 net.cpp:100] Creating Layer cls_score
I0418 01:28:44.458977 12003 net.cpp:434] cls_score <- fc6_drop6_0_split_0
I0418 01:28:44.458983 12003 net.cpp:408] cls_score -> cls_score
I0418 01:28:44.481031 12003 net.cpp:150] Setting up cls_score
I0418 01:28:44.481052 12003 net.cpp:157] Top shape: 1 201 (201)
I0418 01:28:44.481056 12003 net.cpp:165] Memory required for data: 10172695152
I0418 01:28:44.481065 12003 layer_factory.hpp:77] Creating layer cls_score_cls_score_0_split
I0418 01:28:44.481072 12003 net.cpp:100] Creating Layer cls_score_cls_score_0_split
I0418 01:28:44.481077 12003 net.cpp:434] cls_score_cls_score_0_split <- cls_score
I0418 01:28:44.481084 12003 net.cpp:408] cls_score_cls_score_0_split -> cls_score_cls_score_0_split_0
I0418 01:28:44.481091 12003 net.cpp:408] cls_score_cls_score_0_split -> cls_score_cls_score_0_split_1
I0418 01:28:44.481124 12003 net.cpp:150] Setting up cls_score_cls_score_0_split
I0418 01:28:44.481130 12003 net.cpp:157] Top shape: 1 201 (201)
I0418 01:28:44.481133 12003 net.cpp:157] Top shape: 1 201 (201)
I0418 01:28:44.481137 12003 net.cpp:165] Memory required for data: 10172696760
I0418 01:28:44.481140 12003 layer_factory.hpp:77] Creating layer twin_pred
I0418 01:28:44.481151 12003 net.cpp:100] Creating Layer twin_pred
I0418 01:28:44.481158 12003 net.cpp:434] twin_pred <- fc6_drop6_0_split_1
I0418 01:28:44.481165 12003 net.cpp:408] twin_pred -> twin_pred
I0418 01:28:44.525149 12003 net.cpp:150] Setting up twin_pred
I0418 01:28:44.525171 12003 net.cpp:157] Top shape: 1 402 (402)
I0418 01:28:44.525176 12003 net.cpp:165] Memory required for data: 10172698368
I0418 01:28:44.525184 12003 layer_factory.hpp:77] Creating layer loss_cls
I0418 01:28:44.525192 12003 net.cpp:100] Creating Layer loss_cls
I0418 01:28:44.525198 12003 net.cpp:434] loss_cls <- cls_score_cls_score_0_split_0
I0418 01:28:44.525204 12003 net.cpp:434] loss_cls <- labels_roi-data_1_split_0
I0418 01:28:44.525209 12003 net.cpp:408] loss_cls -> loss_cls
…
