…
stepsize: 350000
snapshot: 0
snapshot_prefix: "./experiments/activitynet/snapshot/activitynet"
average_loss: 100
iter_size: 1
I0417 12:13:03.021101 31585 solver.cpp:81] Creating training net from train_net file: ./experiments/activitynet/train.prototxt
I0417 12:13:03.022228 31585 net.cpp:58] Initializing net from parameters: 
name: "activitynet"
state {
  phase: TRAIN
}
layer {
  name: "data"
  type: "Python"
  top: "data"
  top: "gt_boxes"
  python_param {
    module: "roi_data_layer.layer"
    layer: "RoIDataLayer"
    param_str: "\'num_classes\': 100"
  }
}
layer {
  name: "conv1a"
  type: "Convolution"
  bottom: "data"
  top: "conv1a"
  param {
    lr_mult: 0
    decay_mult: 0
  }
  param {
    lr_mult: 0
    decay_mult: 0
  }
  convolution_param {
    num_output: 64
    pad: 1
    pad: 1
    pad: 1
    kernel_size: 3
    kernel_size: 3
    kernel_size: 3
    weight_filler {
      type: "gaussian"
      std: 0.01
    }
    bias_filler {
      type: "constant"
      value: 0
    }
  }
}
layer {
  name: "relu1a"
  type: "ReLU"
  bottom: "conv1a"
  top: "conv1a"
}
layer {
  name: "pool1"
  type: "Pooling"
  bottom: "conv1a"
  top: "pool1"
  pooling_param {
    pool: MAX
    kernel_size: 1
    kernel_size: 2
    kernel_size: 2
    stride: 1
    stride: 2
    stride: 2
  }
}
layer {
  name: "conv2a"
  type: "Convolution"
  bottom: "pool1"
  top: "conv2a"
  param {
    lr_mult: 0
    decay_mult: 0
  }
  param {
    lr_mult: 0
    decay_mult: 0
  }
  convolution_param {
    num_output: 128
    pad: 1
    pad: 1
    pad: 1
    kernel_size: 3
    kernel_size: 3
    kernel_size: 3
    weight_filler {
      type: "gaussian"
      std: 0.01
    }
    bias_filler {
      type: "constant"
      value: 1
    }
  }
}
layer {
  name: "relu2a"
  type: "ReLU"
  bottom: "conv2a"
  top: "conv2a"
}
layer {
  name: "pool2"
  type: "Pooling"
  bottom: "conv2a"
  top: "pool2"
  pooling_param {
    pool: MAX
    kernel_size: 2
    kernel_size: 2
    kernel_size: 2
    stride: 2
    stride: 2
    stride: 2
  }
}
layer {
  name: "conv3a"
  type: "Convolution"
  bottom: "pool2"
  top: "conv3a"
  param {
    lr_mult: 1
    decay_mult: 1
  }
  param {
    lr_mult: 2
    decay_mult: 0
  }
  convolution_param {
    num_output: 256
    pad: 1
    pad: 1
    pad: 1
    kernel_size: 3
    kernel_size: 3
    kernel_size: 3
    weight_filler {
      type: "gaussian"
      std: 0.01
    }
    bias_filler {
      type: "constant"
      value: 1
    }
  }
}
layer {
  name: "relu3a"
  type: "ReLU"
  bottom: "conv3a"
  top: "conv3a"
}
layer {
  name: "conv3b"
  type: "Convolution"
  bottom: "conv3a"
  top: "conv3b"
  param {
    lr_mult: 1
    decay_mult: 1
  }
  param {
    lr_mult: 2
    decay_mult: 0
  }
  convolution_param {
    num_output: 256
    pad: 1
    pad: 1
    pad: 1
    kernel_size: 3
    kernel_size: 3
    kernel_size: 3
    weight_filler {
      type: "gaussian"
      std: 0.01
    }
    bias_filler {
      type: "constant"
      value: 1
    }
  }
}
layer {
  name: "relu3b"
  type: "ReLU"
  bottom: "conv3b"
  top: "conv3b"
}
layer {
  name: "pool3"
  type: "Pooling"
  bottom: "conv3b"
  top: "pool3"
  pooling_param {
    pool: MAX
    kernel_size: 2
    kernel_size: 2
    kernel_size: 2
    stride: 2
    stride: 2
    stride: 2
  }
}
layer {
  name: "conv4a"
  type: "Convolution"
  bottom: "pool3"
  top: "conv4a"
  param {
    lr_mult: 1
    decay_mult: 1
  }
  param {
    lr_mult: 2
    decay_mult: 0
  }
  convolution_param {
    num_output: 512
    pad: 1
    pad: 1
    pad: 1
    kernel_size: 3
    kernel_size: 3
    kernel_size: 3
    weight_filler {
      type: "gaussian"
      std: 0.01
    }
    bias_filler {
      type: "constant"
      value: 1
    }
  }
}
layer {
  name: "relu4a"
  type: "ReLU"
  bottom: "conv4a"
  top: "conv4a"
}
layer {
  name: "conv4b"
  type: "Convolution"
  bottom: "conv4a"
  top: "conv4b"
  param {
    lr_mult: 1
    decay_mult: 1
  }
  param {
    lr_mult: 2
    decay_mult: 0
  }
  convolution_param {
    num_output: 512
    pad: 1
    pad: 1
    pad: 1
    kernel_size: 3
    kernel_size: 3
    kernel_size: 3
    weight_filler {
      type: "gaussian"
      std: 0.01
    }
    bias_filler {
      type: "constant"
      value: 1
    }
  }
}
layer {
  name: "relu4b"
  type: "ReLU"
  bottom: "conv4b"
  top: "conv4b"
}
layer {
  name: "pool4"
  type: "Pooling"
  bottom: "conv4b"
  top: "pool4"
  pooling_param {
    pool: MAX
    kernel_size: 2
    kernel_size: 2
    kernel_size: 2
    stride: 2
    stride: 2
    stride: 2
  }
}
layer {
  name: "conv5a"
  type: "Convolution"
  bottom: "pool4"
  top: "conv5a"
  param {
    lr_mult: 1
    decay_mult: 1
  }
  param {
    lr_mult: 2
    decay_mult: 0
  }
  convolution_param {
    num_output: 512
    pad: 1
    pad: 1
    pad: 1
    kernel_size: 3
    kernel_size: 3
    kernel_size: 3
    weight_filler {
      type: "gaussian"
      std: 0.01
    }
    bias_filler {
      type: "constant"
      value: 1
    }
  }
}
layer {
  name: "relu5a"
  type: "ReLU"
  bottom: "conv5a"
  top: "conv5a"
}
layer {
  name: "conv5b"
  type: "Convolution"
  bottom: "conv5a"
  top: "conv5b"
  param {
    lr_mult: 1
    decay_mult: 1
  }
  param {
    lr_mult: 2
    decay_mult: 0
  }
  convolution_param {
    num_output: 512
    pad: 1
    pad: 1
    pad: 1
    kernel_size: 3
    kernel_size: 3
    kernel_size: 3
    weight_filler {
      type: "gaussian"
      std: 0.01
    }
    bias_filler {
      type: "constant"
      value: 1
    }
  }
}
layer {
  name: "relu5b"
  type: "ReLU"
  bottom: "conv5b"
  top: "conv5b"
}
layer {
  name: "rpn_conv/3x3"
  type: "Convolution"
  bottom: "conv5b"
  top: "rpn/output"
  param {
    lr_mult: 1
    decay_mult: 1
  }
  param {
    lr_mult: 2
    decay_mult: 0
  }
  convolution_param {
    num_output: 512
    pad: 1
    pad: 1
    pad: 1
    kernel_size: 3
    kernel_size: 3
    kernel_size: 3
    stride: 1
    stride: 2
    stride: 2
    weight_filler {
      type: "gaussian"
      std: 0.01
    }
    bias_filler {
      type: "constant"
      value: 0
    }
  }
}
layer {
  name: "rpn_relu/3x3"
  type: "ReLU"
  bottom: "rpn/output"
  top: "rpn/output"
}
layer {
  name: "rpn_conv/3x3_2"
  type: "Convolution"
  bottom: "rpn/output"
  top: "rpn/output_2"
  param {
    lr_mult: 1
    decay_mult: 1
  }
  param {
    lr_mult: 2
    decay_mult: 0
  }
  convolution_param {
    num_output: 512
    pad: 1
    pad: 1
    pad: 1
    kernel_size: 3
    kernel_size: 3
    kernel_size: 3
    stride: 1
    stride: 2
    stride: 2
    weight_filler {
      type: "gaussian"
      std: 0.01
    }
    bias_filler {
      type: "constant"
      value: 0
    }
  }
}
layer {
  name: "rpn_relu/3x3_2"
  type: "ReLU"
  bottom: "rpn/output_2"
  top: "rpn/output_2"
}
layer {
  name: "rpn/output_pool"
  type: "Pooling"
  bottom: "rpn/output_2"
  top: "rpn/output_pool"
  pooling_param {
    pool: MAX
    kernel_size: 1
    kernel_size: 2
    kernel_size: 2
  }
}
layer {
  name: "rpn_cls_score"
  type: "Convolution"
  bottom: "rpn/output_pool"
  top: "rpn_cls_score"
  param {
    lr_mult: 1
    decay_mult: 1
  }
  param {
    lr_mult: 2
    decay_mult: 0
  }
  convolution_param {
    num_output: 74
    kernel_size: 1
    kernel_size: 1
    kernel_size: 1
    weight_filler {
      type: "gaussian"
      std: 0.01
    }
    bias_filler {
      type: "constant"
      value: 0
    }
  }
}
layer {
  name: "rpn_twin_pred"
  type: "Convolution"
  bottom: "rpn/output_pool"
  top: "rpn_twin_pred"
  param {
    lr_mult: 1
    decay_mult: 1
  }
  param {
    lr_mult: 2
    decay_mult: 0
  }
  convolution_param {
    num_output: 74
    kernel_size: 1
    kernel_size: 1
    kernel_size: 1
    weight_filler {
      type: "gaussian"
      std: 0.01
    }
    bias_filler {
      type: "constant"
      value: 0
    }
  }
}
layer {
  name: "rpn_cls_score_reshape"
  type: "Reshape"
  bottom: "rpn_cls_score"
  top: "rpn_cls_score_reshape"
  reshape_param {
    shape {
      dim: 0
      dim: 2
      dim: -1
      dim: 0
      dim: 0
    }
  }
}
layer {
  name: "rpn-data"
  type: "Python"
  bottom: "rpn_cls_score"
  bottom: "gt_boxes"
  bottom: "data"
  top: "rpn_labels"
  top: "rpn_twin_targets"
  top: "rpn_twin_inside_weights"
  top: "rpn_twin_outside_weights"
  python_param {
    module: "rpn.anchor_target_layer"
    layer: "AnchorTargetLayer"
    param_str: "\'feat_stride\': 8 \n\'scales\': !!python/tuple [1,1.25, 1.5,1.75, 2,2.5, 3,3.5, 4,4.5, 5,5.5, 6,7, 8,9,10,11,12,14,16,18,20,22,24,28,32,36,40,44,52,60,68,76,84,92,100]"
  }
}
layer {
  name: "rpn_loss_cls"
  type: "SoftmaxWithLoss"
  bottom: "rpn_cls_score_reshape"
  bottom: "rpn_labels"
  top: "rpn_cls_loss"
  loss_weight: 1
  propagate_down: true
  propagate_down: false
  loss_param {
    ignore_label: -1
    normalize: true
  }
}
layer {
  name: "rpn_loss_twin"
  type: "SmoothL1Loss"
  bottom: "rpn_twin_pred"
  bottom: "rpn_twin_targets"
  bottom: "rpn_twin_inside_weights"
  bottom: "rpn_twin_outside_weights"
  top: "rpn_loss_twin"
  loss_weight: 1
  smooth_l1_loss_param {
    sigma: 3
  }
}
layer {
  name: "rpn_accuarcy"
  type: "Accuracy"
  bottom: "rpn_cls_score_reshape"
  bottom: "rpn_labels"
  top: "rpn_accuarcy"
  top: "rpn_accuarcy_class"
  propagate_down: false
  propagate_down: false
  accuracy_param {
    ignore_label: -1
  }
}
layer {
  name: "rpn_cls_prob"
  type: "Softmax"
  bottom: "rpn_cls_score_reshape"
  top: "rpn_cls_prob"
}
layer {
  name: "rpn_cls_prob_reshape"
  type: "Reshape"
  bottom: "rpn_cls_prob"
  top: "rpn_cls_prob_reshape"
  reshape_param {
    shape {
      dim: 0
      dim: 74
      dim: -1
      dim: 0
      dim: 0
    }
  }
}
layer {
  name: "proposal"
  type: "Python"
  bottom: "rpn_cls_prob_reshape"
  bottom: "rpn_twin_pred"
  top: "rpn_rois"
  include {
    phase: TRAIN
  }
  python_param {
    module: "rpn.proposal_layer"
    layer: "ProposalLayer"
    param_str: "\'feat_stride\': 8 \n\'scales\': !!python/tuple [1,1.25, 1.5,1.75, 2,2.5, 3,3.5, 4,4.5, 5,5.5, 6,7, 8,9,10,11,12,14,16,18,20,22,24,28,32,36,40,44,52,60,68,76,84,92,100]"
  }
}
layer {
  name: "roi-data"
  type: "Python"
  bottom: "rpn_rois"
  bottom: "gt_boxes"
  top: "rois"
  top: "labels"
  top: "twin_targets"
  top: "twin_inside_weights"
  top: "twin_outside_weights"
  python_param {
    module: "rpn.proposal_target_layer"
    layer: "ProposalTargetLayer"
    param_str: "\'num_classes\': 201"
  }
}
layer {
  name: "roi_pool5"
  type: "ROIPooling"
  bottom: "conv5b"
  bottom: "rois"
  top: "pool5"
  roi_pooling_param {
    pooled_h: 4
    pooled_w: 4
    spatial_scale: 0.0625
    pooled_l: 1
    temporal_scale: 0.125
  }
}
layer {
  name: "fc6"
  type: "InnerProduct"
  bottom: "pool5"
  top: "fc6"
  param {
    lr_mult: 1
    decay_mult: 1
  }
  param {
    lr_mult: 2
    decay_mult: 0
  }
  inner_product_param {
    num_output: 4096
    weight_filler {
      type: "gaussian"
      std: 0.005
    }
    bias_filler {
      type: "constant"
      value: 1
    }
  }
}
layer {
  name: "relu6"
  type: "ReLU"
  bottom: "fc6"
  top: "fc6"
}
layer {
  name: "drop6"
  type: "Dropout"
  bottom: "fc6"
  top: "fc6"
  dropout_param {
    dropout_ratio: 0.5
  }
}
layer {
  name: "cls_score"
  type: "InnerProduct"
  bottom: "fc6"
  top: "cls_score"
  param {
    lr_mult: 1
    decay_mult: 1
  }
  param {
    lr_mult: 2
    decay_mult: 0
  }
  inner_product_param {
    num_output: 201
    weight_filler {
      type: "gaussian"
      std: 0.01
    }
    bias_filler {
      type: "constant"
      value: 0
    }
  }
}
layer {
  name: "twin_pred"
  type: "InnerProduct"
  bottom: "fc6"
  top: "twin_pred"
  param {
    lr_mult: 1
    decay_mult: 1
  }
  param {
    lr_mult: 2
    decay_mult: 0
  }
  inner_product_param {
    num_output: 402
    weight_filler {
      type: "gaussian"
      std: 0.001
    }
    bias_filler {
      type: "constant"
      value: 0
    }
  }
}
layer {
  name: "loss_cls"
  type: "SoftmaxWithLoss"
  bottom: "cls_score"
  bottom: "labels"
  top: "loss_cls"
  loss_weight: 1
  propagate_down: true
  propagate_down: false
}
layer {
  name: "loss_twin"
  type: "SmoothL1Loss"
  bottom: "twin_pred"
  bottom: "twin_targets"
  bottom: "twin_inside_weights"
  bottom: "twin_outside_weights"
  top: "loss_twin"
  loss_weight: 1
}
layer {
  name: "accuarcy"
  type: "Accuracy"
  bottom: "cls_score"
  bottom: "labels"
  top: "accuarcy"
  propagate_down: false
  propagate_down: false
  accuracy_param {
    ignore_label: -1
  }
}
I0417 12:13:03.022456 31585 layer_factory.hpp:77] Creating layer data
I0417 12:13:03.051309 31585 net.cpp:100] Creating Layer data
I0417 12:13:03.051334 31585 net.cpp:408] data -> data
I0417 12:13:03.051349 31585 net.cpp:408] data -> gt_boxes
setting up
has rpn
RoiDataLayer: name_to_top: {'gt_windows': 1, 'data': 0}
I0417 12:13:03.065279 31585 net.cpp:150] Setting up data
I0417 12:13:03.065304 31585 net.cpp:157] Top shape: 1 3 768 112 112 (28901376)
I0417 12:13:03.065310 31585 net.cpp:157] Top shape: 1 101 (101)
I0417 12:13:03.065312 31585 net.cpp:165] Memory required for data: 115605908
I0417 12:13:03.065320 31585 layer_factory.hpp:77] Creating layer data_data_0_split
I0417 12:13:03.065331 31585 net.cpp:100] Creating Layer data_data_0_split
I0417 12:13:03.065335 31585 net.cpp:434] data_data_0_split <- data
I0417 12:13:03.065341 31585 net.cpp:408] data_data_0_split -> data_data_0_split_0
I0417 12:13:03.065351 31585 net.cpp:408] data_data_0_split -> data_data_0_split_1
I0417 12:13:03.065404 31585 net.cpp:150] Setting up data_data_0_split
I0417 12:13:03.065414 31585 net.cpp:157] Top shape: 1 3 768 112 112 (28901376)
I0417 12:13:03.065418 31585 net.cpp:157] Top shape: 1 3 768 112 112 (28901376)
I0417 12:13:03.065421 31585 net.cpp:165] Memory required for data: 346816916
I0417 12:13:03.065424 31585 layer_factory.hpp:77] Creating layer gt_boxes_data_1_split
I0417 12:13:03.065430 31585 net.cpp:100] Creating Layer gt_boxes_data_1_split
I0417 12:13:03.065433 31585 net.cpp:434] gt_boxes_data_1_split <- gt_boxes
I0417 12:13:03.065439 31585 net.cpp:408] gt_boxes_data_1_split -> gt_boxes_data_1_split_0
I0417 12:13:03.065445 31585 net.cpp:408] gt_boxes_data_1_split -> gt_boxes_data_1_split_1
I0417 12:13:03.065485 31585 net.cpp:150] Setting up gt_boxes_data_1_split
I0417 12:13:03.065493 31585 net.cpp:157] Top shape: 1 101 (101)
I0417 12:13:03.065497 31585 net.cpp:157] Top shape: 1 101 (101)
I0417 12:13:03.065500 31585 net.cpp:165] Memory required for data: 346817724
I0417 12:13:03.065505 31585 layer_factory.hpp:77] Creating layer conv1a
I0417 12:13:03.065522 31585 net.cpp:100] Creating Layer conv1a
I0417 12:13:03.065526 31585 net.cpp:434] conv1a <- data_data_0_split_0
I0417 12:13:03.065532 31585 net.cpp:408] conv1a -> conv1a
I0417 12:13:03.085147 31585 net.cpp:150] Setting up conv1a
I0417 12:13:03.085180 31585 net.cpp:157] Top shape: 1 64 768 112 112 (616562688)
I0417 12:13:03.085184 31585 net.cpp:165] Memory required for data: 2813068476
I0417 12:13:03.085212 31585 layer_factory.hpp:77] Creating layer relu1a
I0417 12:13:03.085228 31585 net.cpp:100] Creating Layer relu1a
I0417 12:13:03.085233 31585 net.cpp:434] relu1a <- conv1a
I0417 12:13:03.085240 31585 net.cpp:395] relu1a -> conv1a (in-place)
I0417 12:13:03.085256 31585 net.cpp:150] Setting up relu1a
I0417 12:13:03.085261 31585 net.cpp:157] Top shape: 1 64 768 112 112 (616562688)
I0417 12:13:03.085264 31585 net.cpp:165] Memory required for data: 5279319228
I0417 12:13:03.085268 31585 layer_factory.hpp:77] Creating layer pool1
I0417 12:13:03.085276 31585 net.cpp:100] Creating Layer pool1
I0417 12:13:03.085279 31585 net.cpp:434] pool1 <- conv1a
I0417 12:13:03.085285 31585 net.cpp:408] pool1 -> pool1
I0417 12:13:03.085402 31585 net.cpp:150] Setting up pool1
I0417 12:13:03.085412 31585 net.cpp:157] Top shape: 1 64 768 56 56 (154140672)
I0417 12:13:03.085415 31585 net.cpp:165] Memory required for data: 5895881916
I0417 12:13:03.085419 31585 layer_factory.hpp:77] Creating layer conv2a
I0417 12:13:03.085433 31585 net.cpp:100] Creating Layer conv2a
I0417 12:13:03.085438 31585 net.cpp:434] conv2a <- pool1
I0417 12:13:03.085445 31585 net.cpp:408] conv2a -> conv2a
I0417 12:13:03.096520 31585 net.cpp:150] Setting up conv2a
I0417 12:13:03.096542 31585 net.cpp:157] Top shape: 1 128 768 56 56 (308281344)
I0417 12:13:03.096546 31585 net.cpp:165] Memory required for data: 7129007292
I0417 12:13:03.096559 31585 layer_factory.hpp:77] Creating layer relu2a
I0417 12:13:03.096567 31585 net.cpp:100] Creating Layer relu2a
I0417 12:13:03.096572 31585 net.cpp:434] relu2a <- conv2a
I0417 12:13:03.096577 31585 net.cpp:395] relu2a -> conv2a (in-place)
I0417 12:13:03.096585 31585 net.cpp:150] Setting up relu2a
I0417 12:13:03.096590 31585 net.cpp:157] Top shape: 1 128 768 56 56 (308281344)
I0417 12:13:03.096592 31585 net.cpp:165] Memory required for data: 8362132668
I0417 12:13:03.096596 31585 layer_factory.hpp:77] Creating layer pool2
I0417 12:13:03.096603 31585 net.cpp:100] Creating Layer pool2
I0417 12:13:03.096606 31585 net.cpp:434] pool2 <- conv2a
I0417 12:13:03.096612 31585 net.cpp:408] pool2 -> pool2
I0417 12:13:03.096684 31585 net.cpp:150] Setting up pool2
I0417 12:13:03.096693 31585 net.cpp:157] Top shape: 1 128 384 28 28 (38535168)
I0417 12:13:03.096696 31585 net.cpp:165] Memory required for data: 8516273340
I0417 12:13:03.096700 31585 layer_factory.hpp:77] Creating layer conv3a
I0417 12:13:03.096711 31585 net.cpp:100] Creating Layer conv3a
I0417 12:13:03.096714 31585 net.cpp:434] conv3a <- pool2
I0417 12:13:03.096720 31585 net.cpp:408] conv3a -> conv3a
I0417 12:13:03.122340 31585 net.cpp:150] Setting up conv3a
I0417 12:13:03.122357 31585 net.cpp:157] Top shape: 1 256 384 28 28 (77070336)
I0417 12:13:03.122361 31585 net.cpp:165] Memory required for data: 8824554684
I0417 12:13:03.122372 31585 layer_factory.hpp:77] Creating layer relu3a
I0417 12:13:03.122380 31585 net.cpp:100] Creating Layer relu3a
I0417 12:13:03.122385 31585 net.cpp:434] relu3a <- conv3a
I0417 12:13:03.122390 31585 net.cpp:395] relu3a -> conv3a (in-place)
I0417 12:13:03.122395 31585 net.cpp:150] Setting up relu3a
I0417 12:13:03.122400 31585 net.cpp:157] Top shape: 1 256 384 28 28 (77070336)
I0417 12:13:03.122402 31585 net.cpp:165] Memory required for data: 9132836028
I0417 12:13:03.122406 31585 layer_factory.hpp:77] Creating layer conv3b
I0417 12:13:03.122416 31585 net.cpp:100] Creating Layer conv3b
I0417 12:13:03.122419 31585 net.cpp:434] conv3b <- conv3a
I0417 12:13:03.122424 31585 net.cpp:408] conv3b -> conv3b
I0417 12:13:03.172730 31585 net.cpp:150] Setting up conv3b
I0417 12:13:03.172756 31585 net.cpp:157] Top shape: 1 256 384 28 28 (77070336)
I0417 12:13:03.172761 31585 net.cpp:165] Memory required for data: 9441117372
I0417 12:13:03.172773 31585 layer_factory.hpp:77] Creating layer relu3b
I0417 12:13:03.172786 31585 net.cpp:100] Creating Layer relu3b
I0417 12:13:03.172791 31585 net.cpp:434] relu3b <- conv3b
I0417 12:13:03.172799 31585 net.cpp:395] relu3b -> conv3b (in-place)
I0417 12:13:03.172807 31585 net.cpp:150] Setting up relu3b
I0417 12:13:03.172812 31585 net.cpp:157] Top shape: 1 256 384 28 28 (77070336)
I0417 12:13:03.172816 31585 net.cpp:165] Memory required for data: 9749398716
I0417 12:13:03.172818 31585 layer_factory.hpp:77] Creating layer pool3
I0417 12:13:03.172825 31585 net.cpp:100] Creating Layer pool3
I0417 12:13:03.172828 31585 net.cpp:434] pool3 <- conv3b
I0417 12:13:03.172835 31585 net.cpp:408] pool3 -> pool3
I0417 12:13:03.172893 31585 net.cpp:150] Setting up pool3
I0417 12:13:03.172899 31585 net.cpp:157] Top shape: 1 256 192 14 14 (9633792)
I0417 12:13:03.172902 31585 net.cpp:165] Memory required for data: 9787933884
I0417 12:13:03.172906 31585 layer_factory.hpp:77] Creating layer conv4a
I0417 12:13:03.172917 31585 net.cpp:100] Creating Layer conv4a
I0417 12:13:03.172920 31585 net.cpp:434] conv4a <- pool3
I0417 12:13:03.172926 31585 net.cpp:408] conv4a -> conv4a
I0417 12:13:03.275633 31585 net.cpp:150] Setting up conv4a
I0417 12:13:03.275662 31585 net.cpp:157] Top shape: 1 512 192 14 14 (19267584)
I0417 12:13:03.275666 31585 net.cpp:165] Memory required for data: 9865004220
I0417 12:13:03.275684 31585 layer_factory.hpp:77] Creating layer relu4a
I0417 12:13:03.275694 31585 net.cpp:100] Creating Layer relu4a
I0417 12:13:03.275699 31585 net.cpp:434] relu4a <- conv4a
I0417 12:13:03.275707 31585 net.cpp:395] relu4a -> conv4a (in-place)
I0417 12:13:03.275717 31585 net.cpp:150] Setting up relu4a
I0417 12:13:03.275720 31585 net.cpp:157] Top shape: 1 512 192 14 14 (19267584)
I0417 12:13:03.275723 31585 net.cpp:165] Memory required for data: 9942074556
I0417 12:13:03.275727 31585 layer_factory.hpp:77] Creating layer conv4b
I0417 12:13:03.275739 31585 net.cpp:100] Creating Layer conv4b
I0417 12:13:03.275743 31585 net.cpp:434] conv4b <- conv4a
I0417 12:13:03.275748 31585 net.cpp:408] conv4b -> conv4b
I0417 12:13:03.469194 31585 net.cpp:150] Setting up conv4b
I0417 12:13:03.469218 31585 net.cpp:157] Top shape: 1 512 192 14 14 (19267584)
I0417 12:13:03.469223 31585 net.cpp:165] Memory required for data: 10019144892
I0417 12:13:03.469231 31585 layer_factory.hpp:77] Creating layer relu4b
I0417 12:13:03.469240 31585 net.cpp:100] Creating Layer relu4b
I0417 12:13:03.469244 31585 net.cpp:434] relu4b <- conv4b
I0417 12:13:03.469251 31585 net.cpp:395] relu4b -> conv4b (in-place)
I0417 12:13:03.469259 31585 net.cpp:150] Setting up relu4b
I0417 12:13:03.469264 31585 net.cpp:157] Top shape: 1 512 192 14 14 (19267584)
I0417 12:13:03.469266 31585 net.cpp:165] Memory required for data: 10096215228
I0417 12:13:03.469269 31585 layer_factory.hpp:77] Creating layer pool4
I0417 12:13:03.469277 31585 net.cpp:100] Creating Layer pool4
I0417 12:13:03.469286 31585 net.cpp:434] pool4 <- conv4b
I0417 12:13:03.469292 31585 net.cpp:408] pool4 -> pool4
I0417 12:13:03.469339 31585 net.cpp:150] Setting up pool4
I0417 12:13:03.469347 31585 net.cpp:157] Top shape: 1 512 96 7 7 (2408448)
I0417 12:13:03.469350 31585 net.cpp:165] Memory required for data: 10105849020
I0417 12:13:03.469353 31585 layer_factory.hpp:77] Creating layer conv5a
I0417 12:13:03.469363 31585 net.cpp:100] Creating Layer conv5a
I0417 12:13:03.469367 31585 net.cpp:434] conv5a <- pool4
I0417 12:13:03.469372 31585 net.cpp:408] conv5a -> conv5a
I0417 12:13:03.655560 31585 net.cpp:150] Setting up conv5a
I0417 12:13:03.655589 31585 net.cpp:157] Top shape: 1 512 96 7 7 (2408448)
I0417 12:13:03.655596 31585 net.cpp:165] Memory required for data: 10115482812
I0417 12:13:03.655607 31585 layer_factory.hpp:77] Creating layer relu5a
I0417 12:13:03.655619 31585 net.cpp:100] Creating Layer relu5a
I0417 12:13:03.655627 31585 net.cpp:434] relu5a <- conv5a
I0417 12:13:03.655637 31585 net.cpp:395] relu5a -> conv5a (in-place)
I0417 12:13:03.655649 31585 net.cpp:150] Setting up relu5a
I0417 12:13:03.655656 31585 net.cpp:157] Top shape: 1 512 96 7 7 (2408448)
I0417 12:13:03.655661 31585 net.cpp:165] Memory required for data: 10125116604
I0417 12:13:03.655666 31585 layer_factory.hpp:77] Creating layer conv5b
I0417 12:13:03.655684 31585 net.cpp:100] Creating Layer conv5b
I0417 12:13:03.655690 31585 net.cpp:434] conv5b <- conv5a
I0417 12:13:03.655699 31585 net.cpp:408] conv5b -> conv5b
I0417 12:13:03.844661 31585 net.cpp:150] Setting up conv5b
I0417 12:13:03.844684 31585 net.cpp:157] Top shape: 1 512 96 7 7 (2408448)
I0417 12:13:03.844688 31585 net.cpp:165] Memory required for data: 10134750396
I0417 12:13:03.844697 31585 layer_factory.hpp:77] Creating layer relu5b
I0417 12:13:03.844707 31585 net.cpp:100] Creating Layer relu5b
I0417 12:13:03.844710 31585 net.cpp:434] relu5b <- conv5b
I0417 12:13:03.844717 31585 net.cpp:395] relu5b -> conv5b (in-place)
I0417 12:13:03.844724 31585 net.cpp:150] Setting up relu5b
I0417 12:13:03.844732 31585 net.cpp:157] Top shape: 1 512 96 7 7 (2408448)
I0417 12:13:03.844745 31585 net.cpp:165] Memory required for data: 10144384188
I0417 12:13:03.844750 31585 layer_factory.hpp:77] Creating layer conv5b_relu5b_0_split
I0417 12:13:03.844760 31585 net.cpp:100] Creating Layer conv5b_relu5b_0_split
I0417 12:13:03.844764 31585 net.cpp:434] conv5b_relu5b_0_split <- conv5b
I0417 12:13:03.844769 31585 net.cpp:408] conv5b_relu5b_0_split -> conv5b_relu5b_0_split_0
I0417 12:13:03.844775 31585 net.cpp:408] conv5b_relu5b_0_split -> conv5b_relu5b_0_split_1
I0417 12:13:03.844820 31585 net.cpp:150] Setting up conv5b_relu5b_0_split
I0417 12:13:03.844828 31585 net.cpp:157] Top shape: 1 512 96 7 7 (2408448)
I0417 12:13:03.844832 31585 net.cpp:157] Top shape: 1 512 96 7 7 (2408448)
I0417 12:13:03.844835 31585 net.cpp:165] Memory required for data: 10163651772
I0417 12:13:03.844840 31585 layer_factory.hpp:77] Creating layer rpn_conv/3x3
I0417 12:13:03.844849 31585 net.cpp:100] Creating Layer rpn_conv/3x3
I0417 12:13:03.844853 31585 net.cpp:434] rpn_conv/3x3 <- conv5b_relu5b_0_split_0
I0417 12:13:03.844859 31585 net.cpp:408] rpn_conv/3x3 -> rpn/output
I0417 12:13:04.034196 31585 net.cpp:150] Setting up rpn_conv/3x3
I0417 12:13:04.034231 31585 net.cpp:157] Top shape: 1 512 96 4 4 (786432)
I0417 12:13:04.034235 31585 net.cpp:165] Memory required for data: 10166797500
I0417 12:13:04.034248 31585 layer_factory.hpp:77] Creating layer rpn_relu/3x3
I0417 12:13:04.034258 31585 net.cpp:100] Creating Layer rpn_relu/3x3
I0417 12:13:04.034263 31585 net.cpp:434] rpn_relu/3x3 <- rpn/output
I0417 12:13:04.034270 31585 net.cpp:395] rpn_relu/3x3 -> rpn/output (in-place)
I0417 12:13:04.034278 31585 net.cpp:150] Setting up rpn_relu/3x3
I0417 12:13:04.034282 31585 net.cpp:157] Top shape: 1 512 96 4 4 (786432)
I0417 12:13:04.034286 31585 net.cpp:165] Memory required for data: 10169943228
I0417 12:13:04.034288 31585 layer_factory.hpp:77] Creating layer rpn_conv/3x3_2
I0417 12:13:04.034298 31585 net.cpp:100] Creating Layer rpn_conv/3x3_2
I0417 12:13:04.034303 31585 net.cpp:434] rpn_conv/3x3_2 <- rpn/output
I0417 12:13:04.034308 31585 net.cpp:408] rpn_conv/3x3_2 -> rpn/output_2
I0417 12:13:04.222746 31585 net.cpp:150] Setting up rpn_conv/3x3_2
I0417 12:13:04.222795 31585 net.cpp:157] Top shape: 1 512 96 2 2 (196608)
I0417 12:13:04.222800 31585 net.cpp:165] Memory required for data: 10170729660
I0417 12:13:04.222808 31585 layer_factory.hpp:77] Creating layer rpn_relu/3x3_2
I0417 12:13:04.222818 31585 net.cpp:100] Creating Layer rpn_relu/3x3_2
I0417 12:13:04.222823 31585 net.cpp:434] rpn_relu/3x3_2 <- rpn/output_2
I0417 12:13:04.222831 31585 net.cpp:395] rpn_relu/3x3_2 -> rpn/output_2 (in-place)
I0417 12:13:04.222839 31585 net.cpp:150] Setting up rpn_relu/3x3_2
I0417 12:13:04.222844 31585 net.cpp:157] Top shape: 1 512 96 2 2 (196608)
I0417 12:13:04.222847 31585 net.cpp:165] Memory required for data: 10171516092
I0417 12:13:04.222851 31585 layer_factory.hpp:77] Creating layer rpn/output_pool
I0417 12:13:04.222857 31585 net.cpp:100] Creating Layer rpn/output_pool
I0417 12:13:04.222860 31585 net.cpp:434] rpn/output_pool <- rpn/output_2
I0417 12:13:04.222864 31585 net.cpp:408] rpn/output_pool -> rpn/output_pool
I0417 12:13:04.222913 31585 net.cpp:150] Setting up rpn/output_pool
I0417 12:13:04.222921 31585 net.cpp:157] Top shape: 1 512 96 1 1 (49152)
I0417 12:13:04.222924 31585 net.cpp:165] Memory required for data: 10171712700
I0417 12:13:04.222928 31585 layer_factory.hpp:77] Creating layer rpn/output_pool_rpn/output_pool_0_split
I0417 12:13:04.222934 31585 net.cpp:100] Creating Layer rpn/output_pool_rpn/output_pool_0_split
I0417 12:13:04.222939 31585 net.cpp:434] rpn/output_pool_rpn/output_pool_0_split <- rpn/output_pool
I0417 12:13:04.222946 31585 net.cpp:408] rpn/output_pool_rpn/output_pool_0_split -> rpn/output_pool_rpn/output_pool_0_split_0
I0417 12:13:04.222954 31585 net.cpp:408] rpn/output_pool_rpn/output_pool_0_split -> rpn/output_pool_rpn/output_pool_0_split_1
I0417 12:13:04.223006 31585 net.cpp:150] Setting up rpn/output_pool_rpn/output_pool_0_split
I0417 12:13:04.223016 31585 net.cpp:157] Top shape: 1 512 96 1 1 (49152)
I0417 12:13:04.223021 31585 net.cpp:157] Top shape: 1 512 96 1 1 (49152)
I0417 12:13:04.223023 31585 net.cpp:165] Memory required for data: 10172105916
I0417 12:13:04.223028 31585 layer_factory.hpp:77] Creating layer rpn_cls_score
I0417 12:13:04.223040 31585 net.cpp:100] Creating Layer rpn_cls_score
I0417 12:13:04.223045 31585 net.cpp:434] rpn_cls_score <- rpn/output_pool_rpn/output_pool_0_split_0
I0417 12:13:04.223052 31585 net.cpp:408] rpn_cls_score -> rpn_cls_score
I0417 12:13:04.224408 31585 net.cpp:150] Setting up rpn_cls_score
I0417 12:13:04.224421 31585 net.cpp:157] Top shape: 1 74 96 1 1 (7104)
I0417 12:13:04.224424 31585 net.cpp:165] Memory required for data: 10172134332
I0417 12:13:04.224431 31585 layer_factory.hpp:77] Creating layer rpn_cls_score_rpn_cls_score_0_split
I0417 12:13:04.224436 31585 net.cpp:100] Creating Layer rpn_cls_score_rpn_cls_score_0_split
I0417 12:13:04.224439 31585 net.cpp:434] rpn_cls_score_rpn_cls_score_0_split <- rpn_cls_score
I0417 12:13:04.224447 31585 net.cpp:408] rpn_cls_score_rpn_cls_score_0_split -> rpn_cls_score_rpn_cls_score_0_split_0
I0417 12:13:04.224452 31585 net.cpp:408] rpn_cls_score_rpn_cls_score_0_split -> rpn_cls_score_rpn_cls_score_0_split_1
I0417 12:13:04.224501 31585 net.cpp:150] Setting up rpn_cls_score_rpn_cls_score_0_split
I0417 12:13:04.224510 31585 net.cpp:157] Top shape: 1 74 96 1 1 (7104)
I0417 12:13:04.224516 31585 net.cpp:157] Top shape: 1 74 96 1 1 (7104)
I0417 12:13:04.224521 31585 net.cpp:165] Memory required for data: 10172191164
I0417 12:13:04.224526 31585 layer_factory.hpp:77] Creating layer rpn_twin_pred
I0417 12:13:04.224545 31585 net.cpp:100] Creating Layer rpn_twin_pred
I0417 12:13:04.224552 31585 net.cpp:434] rpn_twin_pred <- rpn/output_pool_rpn/output_pool_0_split_1
I0417 12:13:04.224565 31585 net.cpp:408] rpn_twin_pred -> rpn_twin_pred
I0417 12:13:04.225890 31585 net.cpp:150] Setting up rpn_twin_pred
I0417 12:13:04.225903 31585 net.cpp:157] Top shape: 1 74 96 1 1 (7104)
I0417 12:13:04.225909 31585 net.cpp:165] Memory required for data: 10172219580
I0417 12:13:04.225919 31585 layer_factory.hpp:77] Creating layer rpn_twin_pred_rpn_twin_pred_0_split
I0417 12:13:04.225929 31585 net.cpp:100] Creating Layer rpn_twin_pred_rpn_twin_pred_0_split
I0417 12:13:04.225934 31585 net.cpp:434] rpn_twin_pred_rpn_twin_pred_0_split <- rpn_twin_pred
I0417 12:13:04.225939 31585 net.cpp:408] rpn_twin_pred_rpn_twin_pred_0_split -> rpn_twin_pred_rpn_twin_pred_0_split_0
I0417 12:13:04.225946 31585 net.cpp:408] rpn_twin_pred_rpn_twin_pred_0_split -> rpn_twin_pred_rpn_twin_pred_0_split_1
I0417 12:13:04.225991 31585 net.cpp:150] Setting up rpn_twin_pred_rpn_twin_pred_0_split
I0417 12:13:04.225998 31585 net.cpp:157] Top shape: 1 74 96 1 1 (7104)
I0417 12:13:04.226002 31585 net.cpp:157] Top shape: 1 74 96 1 1 (7104)
I0417 12:13:04.226006 31585 net.cpp:165] Memory required for data: 10172276412
I0417 12:13:04.226008 31585 layer_factory.hpp:77] Creating layer rpn_cls_score_reshape
I0417 12:13:04.226022 31585 net.cpp:100] Creating Layer rpn_cls_score_reshape
I0417 12:13:04.226027 31585 net.cpp:434] rpn_cls_score_reshape <- rpn_cls_score_rpn_cls_score_0_split_0
I0417 12:13:04.226033 31585 net.cpp:408] rpn_cls_score_reshape -> rpn_cls_score_reshape
I0417 12:13:04.226064 31585 net.cpp:150] Setting up rpn_cls_score_reshape
I0417 12:13:04.226073 31585 net.cpp:157] Top shape: 1 2 3552 1 1 (7104)
I0417 12:13:04.226075 31585 net.cpp:165] Memory required for data: 10172304828
I0417 12:13:04.226079 31585 layer_factory.hpp:77] Creating layer rpn_cls_score_reshape_rpn_cls_score_reshape_0_split
I0417 12:13:04.226083 31585 net.cpp:100] Creating Layer rpn_cls_score_reshape_rpn_cls_score_reshape_0_split
I0417 12:13:04.226088 31585 net.cpp:434] rpn_cls_score_reshape_rpn_cls_score_reshape_0_split <- rpn_cls_score_reshape
I0417 12:13:04.226092 31585 net.cpp:408] rpn_cls_score_reshape_rpn_cls_score_reshape_0_split -> rpn_cls_score_reshape_rpn_cls_score_reshape_0_split_0
I0417 12:13:04.226100 31585 net.cpp:408] rpn_cls_score_reshape_rpn_cls_score_reshape_0_split -> rpn_cls_score_reshape_rpn_cls_score_reshape_0_split_1
I0417 12:13:04.226105 31585 net.cpp:408] rpn_cls_score_reshape_rpn_cls_score_reshape_0_split -> rpn_cls_score_reshape_rpn_cls_score_reshape_0_split_2
I0417 12:13:04.226156 31585 net.cpp:150] Setting up rpn_cls_score_reshape_rpn_cls_score_reshape_0_split
I0417 12:13:04.226164 31585 net.cpp:157] Top shape: 1 2 3552 1 1 (7104)
I0417 12:13:04.226169 31585 net.cpp:157] Top shape: 1 2 3552 1 1 (7104)
I0417 12:13:04.226176 31585 net.cpp:157] Top shape: 1 2 3552 1 1 (7104)
I0417 12:13:04.226181 31585 net.cpp:165] Memory required for data: 10172390076
I0417 12:13:04.226184 31585 layer_factory.hpp:77] Creating layer rpn-data
I0417 12:13:04.226668 31585 net.cpp:100] Creating Layer rpn-data
I0417 12:13:04.226681 31585 net.cpp:434] rpn-data <- rpn_cls_score_rpn_cls_score_0_split_1
I0417 12:13:04.226687 31585 net.cpp:434] rpn-data <- gt_boxes_data_1_split_0
I0417 12:13:04.226691 31585 net.cpp:434] rpn-data <- data_data_0_split_1
I0417 12:13:04.226697 31585 net.cpp:408] rpn-data -> rpn_labels
I0417 12:13:04.226703 31585 net.cpp:408] rpn-data -> rpn_twin_targets
I0417 12:13:04.226709 31585 net.cpp:408] rpn-data -> rpn_twin_inside_weights
I0417 12:13:04.226714 31585 net.cpp:408] rpn-data -> rpn_twin_outside_weights
I0417 12:13:04.229221 31585 net.cpp:150] Setting up rpn-data
I0417 12:13:04.229248 31585 net.cpp:157] Top shape: 1 1 3552 1 1 (3552)
I0417 12:13:04.229254 31585 net.cpp:157] Top shape: 1 74 96 1 1 (7104)
I0417 12:13:04.229260 31585 net.cpp:157] Top shape: 1 74 96 1 1 (7104)
I0417 12:13:04.229266 31585 net.cpp:157] Top shape: 1 74 96 1 1 (7104)
I0417 12:13:04.229272 31585 net.cpp:165] Memory required for data: 10172489532
I0417 12:13:04.229279 31585 layer_factory.hpp:77] Creating layer rpn_labels_rpn-data_0_split
I0417 12:13:04.229285 31585 net.cpp:100] Creating Layer rpn_labels_rpn-data_0_split
I0417 12:13:04.229288 31585 net.cpp:434] rpn_labels_rpn-data_0_split <- rpn_labels
I0417 12:13:04.229295 31585 net.cpp:408] rpn_labels_rpn-data_0_split -> rpn_labels_rpn-data_0_split_0
I0417 12:13:04.229300 31585 net.cpp:408] rpn_labels_rpn-data_0_split -> rpn_labels_rpn-data_0_split_1
I0417 12:13:04.229354 31585 net.cpp:150] Setting up rpn_labels_rpn-data_0_split
I0417 12:13:04.229367 31585 net.cpp:157] Top shape: 1 1 3552 1 1 (3552)
I0417 12:13:04.229373 31585 net.cpp:157] Top shape: 1 1 3552 1 1 (3552)
I0417 12:13:04.229378 31585 net.cpp:165] Memory required for data: 10172517948
I0417 12:13:04.229383 31585 layer_factory.hpp:77] Creating layer rpn_loss_cls
I0417 12:13:04.229395 31585 net.cpp:100] Creating Layer rpn_loss_cls
I0417 12:13:04.229403 31585 net.cpp:434] rpn_loss_cls <- rpn_cls_score_reshape_rpn_cls_score_reshape_0_split_0
I0417 12:13:04.229410 31585 net.cpp:434] rpn_loss_cls <- rpn_labels_rpn-data_0_split_0
…
I0417 12:13:04.229867 31585 layer_factory.hpp:77] Creating layer rpn_accuarcy
I0417 12:13:04.229881 31585 net.cpp:100] Creating Layer rpn_accuarcy
I0417 12:13:04.229890 31585 net.cpp:434] rpn_accuarcy <- rpn_cls_score_reshape_rpn_cls_score_reshape_0_split_1
I0417 12:13:04.229897 31585 net.cpp:434] rpn_accuarcy <- rpn_labels_rpn-data_0_split_1
I0417 12:13:04.229903 31585 net.cpp:408] rpn_accuarcy -> rpn_accuarcy
I0417 12:13:04.229912 31585 net.cpp:408] rpn_accuarcy -> rpn_accuarcy_class
I0417 12:13:04.229977 31585 net.cpp:150] Setting up rpn_accuarcy
I0417 12:13:04.229988 31585 net.cpp:157] Top shape: (1)
I0417 12:13:04.229995 31585 net.cpp:157] Top shape: 2 (2)
I0417 12:13:04.230000 31585 net.cpp:165] Memory required for data: 10172517968
I0417 12:13:04.230005 31585 layer_factory.hpp:77] Creating layer rpn_cls_prob
I0417 12:13:04.230013 31585 net.cpp:100] Creating Layer rpn_cls_prob
I0417 12:13:04.230022 31585 net.cpp:434] rpn_cls_prob <- rpn_cls_score_reshape_rpn_cls_score_reshape_0_split_2
I0417 12:13:04.230031 31585 net.cpp:408] rpn_cls_prob -> rpn_cls_prob
I0417 12:13:04.230128 31585 net.cpp:150] Setting up rpn_cls_prob
I0417 12:13:04.230139 31585 net.cpp:157] Top shape: 1 2 3552 1 1 (7104)
I0417 12:13:04.230142 31585 net.cpp:165] Memory required for data: 10172546384
I0417 12:13:04.230145 31585 layer_factory.hpp:77] Creating layer rpn_cls_prob_reshape
I0417 12:13:04.230152 31585 net.cpp:100] Creating Layer rpn_cls_prob_reshape
I0417 12:13:04.230157 31585 net.cpp:434] rpn_cls_prob_reshape <- rpn_cls_prob
I0417 12:13:04.230161 31585 net.cpp:408] rpn_cls_prob_reshape -> rpn_cls_prob_reshape
I0417 12:13:04.230191 31585 net.cpp:150] Setting up rpn_cls_prob_reshape
I0417 12:13:04.230199 31585 net.cpp:157] Top shape: 1 74 96 1 1 (7104)
I0417 12:13:04.230202 31585 net.cpp:165] Memory required for data: 10172574800
I0417 12:13:04.230206 31585 layer_factory.hpp:77] Creating layer proposal
I0417 12:13:04.230742 31585 net.cpp:100] Creating Layer proposal
I0417 12:13:04.230756 31585 net.cpp:434] proposal <- rpn_cls_prob_reshape
I0417 12:13:04.230777 31585 net.cpp:434] proposal <- rpn_twin_pred_rpn_twin_pred_0_split_1
I0417 12:13:04.230784 31585 net.cpp:408] proposal -> rpn_rois
I0417 12:13:04.232983 31585 net.cpp:150] Setting up proposal
I0417 12:13:04.232998 31585 net.cpp:157] Top shape: 1 3 (3)
I0417 12:13:04.233002 31585 net.cpp:165] Memory required for data: 10172574812
I0417 12:13:04.233006 31585 layer_factory.hpp:77] Creating layer roi-data
I0417 12:13:04.233139 31585 net.cpp:100] Creating Layer roi-data
I0417 12:13:04.233150 31585 net.cpp:434] roi-data <- rpn_rois
I0417 12:13:04.233155 31585 net.cpp:434] roi-data <- gt_boxes_data_1_split_1
I0417 12:13:04.233161 31585 net.cpp:408] roi-data -> rois
I0417 12:13:04.233168 31585 net.cpp:408] roi-data -> labels
I0417 12:13:04.233175 31585 net.cpp:408] roi-data -> twin_targets
I0417 12:13:04.233181 31585 net.cpp:408] roi-data -> twin_inside_weights
I0417 12:13:04.233186 31585 net.cpp:408] roi-data -> twin_outside_weights
I0417 12:13:04.233510 31585 net.cpp:150] Setting up roi-data
I0417 12:13:04.233525 31585 net.cpp:157] Top shape: 1 3 (3)
I0417 12:13:04.233528 31585 net.cpp:157] Top shape: 1 1 (1)
I0417 12:13:04.233532 31585 net.cpp:157] Top shape: 1 402 (402)
I0417 12:13:04.233536 31585 net.cpp:157] Top shape: 1 402 (402)
I0417 12:13:04.233539 31585 net.cpp:157] Top shape: 1 402 (402)
I0417 12:13:04.233541 31585 net.cpp:165] Memory required for data: 10172579652
I0417 12:13:04.233557 31585 layer_factory.hpp:77] Creating layer labels_roi-data_1_split
I0417 12:13:04.233572 31585 net.cpp:100] Creating Layer labels_roi-data_1_split
I0417 12:13:04.233575 31585 net.cpp:434] labels_roi-data_1_split <- labels
I0417 12:13:04.233582 31585 net.cpp:408] labels_roi-data_1_split -> labels_roi-data_1_split_0
I0417 12:13:04.233587 31585 net.cpp:408] labels_roi-data_1_split -> labels_roi-data_1_split_1
I0417 12:13:04.233628 31585 net.cpp:150] Setting up labels_roi-data_1_split
I0417 12:13:04.233636 31585 net.cpp:157] Top shape: 1 1 (1)
I0417 12:13:04.233639 31585 net.cpp:157] Top shape: 1 1 (1)
I0417 12:13:04.233644 31585 net.cpp:165] Memory required for data: 10172579660
I0417 12:13:04.233646 31585 layer_factory.hpp:77] Creating layer roi_pool5
I0417 12:13:04.233654 31585 net.cpp:100] Creating Layer roi_pool5
I0417 12:13:04.233660 31585 net.cpp:434] roi_pool5 <- conv5b_relu5b_0_split_1
I0417 12:13:04.233665 31585 net.cpp:434] roi_pool5 <- rois
I0417 12:13:04.233671 31585 net.cpp:408] roi_pool5 -> pool5
I0417 12:13:04.233678 31585 roi_pooling_layer.cpp:34] Temporal scale: 0.125
I0417 12:13:04.233683 31585 roi_pooling_layer.cpp:35] Spatial scale: 0.0625
I0417 12:13:04.233724 31585 net.cpp:150] Setting up roi_pool5
I0417 12:13:04.233731 31585 net.cpp:157] Top shape: 1 512 1 4 4 (8192)
I0417 12:13:04.233734 31585 net.cpp:165] Memory required for data: 10172612428
I0417 12:13:04.233738 31585 layer_factory.hpp:77] Creating layer fc6
I0417 12:13:04.233745 31585 net.cpp:100] Creating Layer fc6
I0417 12:13:04.233752 31585 net.cpp:434] fc6 <- pool5
I0417 12:13:04.233759 31585 net.cpp:408] fc6 -> fc6
I0417 12:13:05.134412 31585 net.cpp:150] Setting up fc6
I0417 12:13:05.134434 31585 net.cpp:157] Top shape: 1 4096 (4096)
I0417 12:13:05.134438 31585 net.cpp:165] Memory required for data: 10172628812
I0417 12:13:05.134446 31585 layer_factory.hpp:77] Creating layer relu6
I0417 12:13:05.134455 31585 net.cpp:100] Creating Layer relu6
I0417 12:13:05.134460 31585 net.cpp:434] relu6 <- fc6
I0417 12:13:05.134466 31585 net.cpp:395] relu6 -> fc6 (in-place)
I0417 12:13:05.134474 31585 net.cpp:150] Setting up relu6
I0417 12:13:05.134477 31585 net.cpp:157] Top shape: 1 4096 (4096)
I0417 12:13:05.134480 31585 net.cpp:165] Memory required for data: 10172645196
I0417 12:13:05.134483 31585 layer_factory.hpp:77] Creating layer drop6
I0417 12:13:05.134495 31585 net.cpp:100] Creating Layer drop6
I0417 12:13:05.134498 31585 net.cpp:434] drop6 <- fc6
I0417 12:13:05.134503 31585 net.cpp:395] drop6 -> fc6 (in-place)
I0417 12:13:05.134541 31585 net.cpp:150] Setting up drop6
I0417 12:13:05.134547 31585 net.cpp:157] Top shape: 1 4096 (4096)
I0417 12:13:05.134551 31585 net.cpp:165] Memory required for data: 10172661580
I0417 12:13:05.134553 31585 layer_factory.hpp:77] Creating layer fc6_drop6_0_split
I0417 12:13:05.134560 31585 net.cpp:100] Creating Layer fc6_drop6_0_split
I0417 12:13:05.134563 31585 net.cpp:434] fc6_drop6_0_split <- fc6
I0417 12:13:05.134568 31585 net.cpp:408] fc6_drop6_0_split -> fc6_drop6_0_split_0
I0417 12:13:05.134573 31585 net.cpp:408] fc6_drop6_0_split -> fc6_drop6_0_split_1
I0417 12:13:05.134614 31585 net.cpp:150] Setting up fc6_drop6_0_split
I0417 12:13:05.134621 31585 net.cpp:157] Top shape: 1 4096 (4096)
I0417 12:13:05.134624 31585 net.cpp:157] Top shape: 1 4096 (4096)
I0417 12:13:05.134627 31585 net.cpp:165] Memory required for data: 10172694348
I0417 12:13:05.134630 31585 layer_factory.hpp:77] Creating layer cls_score
I0417 12:13:05.134639 31585 net.cpp:100] Creating Layer cls_score
I0417 12:13:05.134642 31585 net.cpp:434] cls_score <- fc6_drop6_0_split_0
I0417 12:13:05.134649 31585 net.cpp:408] cls_score -> cls_score
I0417 12:13:05.156879 31585 net.cpp:150] Setting up cls_score
I0417 12:13:05.156893 31585 net.cpp:157] Top shape: 1 201 (201)
I0417 12:13:05.156898 31585 net.cpp:165] Memory required for data: 10172695152
I0417 12:13:05.156903 31585 layer_factory.hpp:77] Creating layer cls_score_cls_score_0_split
I0417 12:13:05.156910 31585 net.cpp:100] Creating Layer cls_score_cls_score_0_split
I0417 12:13:05.156914 31585 net.cpp:434] cls_score_cls_score_0_split <- cls_score
I0417 12:13:05.156919 31585 net.cpp:408] cls_score_cls_score_0_split -> cls_score_cls_score_0_split_0
I0417 12:13:05.156925 31585 net.cpp:408] cls_score_cls_score_0_split -> cls_score_cls_score_0_split_1
I0417 12:13:05.156967 31585 net.cpp:150] Setting up cls_score_cls_score_0_split
I0417 12:13:05.156975 31585 net.cpp:157] Top shape: 1 201 (201)
I0417 12:13:05.156978 31585 net.cpp:157] Top shape: 1 201 (201)
I0417 12:13:05.156981 31585 net.cpp:165] Memory required for data: 10172696760
I0417 12:13:05.156985 31585 layer_factory.hpp:77] Creating layer twin_pred
I0417 12:13:05.156991 31585 net.cpp:100] Creating Layer twin_pred
I0417 12:13:05.156996 31585 net.cpp:434] twin_pred <- fc6_drop6_0_split_1
I0417 12:13:05.157001 31585 net.cpp:408] twin_pred -> twin_pred
I0417 12:13:05.200949 31585 net.cpp:150] Setting up twin_pred
I0417 12:13:05.200981 31585 net.cpp:157] Top shape: 1 402 (402)
I0417 12:13:05.200985 31585 net.cpp:165] Memory required for data: 10172698368
I0417 12:13:05.200994 31585 layer_factory.hpp:77] Creating layer loss_cls
I0417 12:13:05.201004 31585 net.cpp:100] Creating Layer loss_cls
I0417 12:13:05.201009 31585 net.cpp:434] loss_cls <- cls_score_cls_score_0_split_0
I0417 12:13:05.201015 31585 net.cpp:434] loss_cls <- labels_roi-data_1_split_0
I0417 12:13:05.201020 31585 net.cpp:408] loss_cls -> loss_cls
…
