…
stepsize: 350000
snapshot: 0
snapshot_prefix: "./experiments/activitynet/snapshot/activitynet"
average_loss: 100
iter_size: 1
I0416 11:29:11.979605 18469 solver.cpp:81] Creating training net from train_net file: ./experiments/activitynet/train.prototxt
I0416 11:29:11.980129 18469 net.cpp:58] Initializing net from parameters: 
name: "activitynet"
state {
  phase: TRAIN
}
layer {
  name: "data"
  type: "Python"
  top: "data"
  top: "gt_boxes"
  python_param {
    module: "roi_data_layer.layer"
    layer: "RoIDataLayer"
    param_str: "\'num_classes\': 100"
  }
}
layer {
  name: "conv1a"
  type: "Convolution"
  bottom: "data"
  top: "conv1a"
  param {
    lr_mult: 0
    decay_mult: 0
  }
  param {
    lr_mult: 0
    decay_mult: 0
  }
  convolution_param {
    num_output: 64
    pad: 1
    pad: 1
    pad: 1
    kernel_size: 3
    kernel_size: 3
    kernel_size: 3
    weight_filler {
      type: "gaussian"
      std: 0.01
    }
    bias_filler {
      type: "constant"
      value: 0
    }
  }
}
layer {
  name: "relu1a"
  type: "ReLU"
  bottom: "conv1a"
  top: "conv1a"
}
layer {
  name: "pool1"
  type: "Pooling"
  bottom: "conv1a"
  top: "pool1"
  pooling_param {
    pool: MAX
    kernel_size: 1
    kernel_size: 2
    kernel_size: 2
    stride: 1
    stride: 2
    stride: 2
  }
}
layer {
  name: "conv2a"
  type: "Convolution"
  bottom: "pool1"
  top: "conv2a"
  param {
    lr_mult: 0
    decay_mult: 0
  }
  param {
    lr_mult: 0
    decay_mult: 0
  }
  convolution_param {
    num_output: 128
    pad: 1
    pad: 1
    pad: 1
    kernel_size: 3
    kernel_size: 3
    kernel_size: 3
    weight_filler {
      type: "gaussian"
      std: 0.01
    }
    bias_filler {
      type: "constant"
      value: 1
    }
  }
}
layer {
  name: "relu2a"
  type: "ReLU"
  bottom: "conv2a"
  top: "conv2a"
}
layer {
  name: "pool2"
  type: "Pooling"
  bottom: "conv2a"
  top: "pool2"
  pooling_param {
    pool: MAX
    kernel_size: 2
    kernel_size: 2
    kernel_size: 2
    stride: 2
    stride: 2
    stride: 2
  }
}
layer {
  name: "conv3a"
  type: "Convolution"
  bottom: "pool2"
  top: "conv3a"
  param {
    lr_mult: 1
    decay_mult: 1
  }
  param {
    lr_mult: 2
    decay_mult: 0
  }
  convolution_param {
    num_output: 256
    pad: 1
    pad: 1
    pad: 1
    kernel_size: 3
    kernel_size: 3
    kernel_size: 3
    weight_filler {
      type: "gaussian"
      std: 0.01
    }
    bias_filler {
      type: "constant"
      value: 1
    }
  }
}
layer {
  name: "relu3a"
  type: "ReLU"
  bottom: "conv3a"
  top: "conv3a"
}
layer {
  name: "conv3b"
  type: "Convolution"
  bottom: "conv3a"
  top: "conv3b"
  param {
    lr_mult: 1
    decay_mult: 1
  }
  param {
    lr_mult: 2
    decay_mult: 0
  }
  convolution_param {
    num_output: 256
    pad: 1
    pad: 1
    pad: 1
    kernel_size: 3
    kernel_size: 3
    kernel_size: 3
    weight_filler {
      type: "gaussian"
      std: 0.01
    }
    bias_filler {
      type: "constant"
      value: 1
    }
  }
}
layer {
  name: "relu3b"
  type: "ReLU"
  bottom: "conv3b"
  top: "conv3b"
}
layer {
  name: "pool3"
  type: "Pooling"
  bottom: "conv3b"
  top: "pool3"
  pooling_param {
    pool: MAX
    kernel_size: 2
    kernel_size: 2
    kernel_size: 2
    stride: 2
    stride: 2
    stride: 2
  }
}
layer {
  name: "conv4a"
  type: "Convolution"
  bottom: "pool3"
  top: "conv4a"
  param {
    lr_mult: 1
    decay_mult: 1
  }
  param {
    lr_mult: 2
    decay_mult: 0
  }
  convolution_param {
    num_output: 512
    pad: 1
    pad: 1
    pad: 1
    kernel_size: 3
    kernel_size: 3
    kernel_size: 3
    weight_filler {
      type: "gaussian"
      std: 0.01
    }
    bias_filler {
      type: "constant"
      value: 1
    }
  }
}
layer {
  name: "relu4a"
  type: "ReLU"
  bottom: "conv4a"
  top: "conv4a"
}
layer {
  name: "conv4b"
  type: "Convolution"
  bottom: "conv4a"
  top: "conv4b"
  param {
    lr_mult: 1
    decay_mult: 1
  }
  param {
    lr_mult: 2
    decay_mult: 0
  }
  convolution_param {
    num_output: 512
    pad: 1
    pad: 1
    pad: 1
    kernel_size: 3
    kernel_size: 3
    kernel_size: 3
    weight_filler {
      type: "gaussian"
      std: 0.01
    }
    bias_filler {
      type: "constant"
      value: 1
    }
  }
}
layer {
  name: "relu4b"
  type: "ReLU"
  bottom: "conv4b"
  top: "conv4b"
}
layer {
  name: "pool4"
  type: "Pooling"
  bottom: "conv4b"
  top: "pool4"
  pooling_param {
    pool: MAX
    kernel_size: 2
    kernel_size: 2
    kernel_size: 2
    stride: 2
    stride: 2
    stride: 2
  }
}
layer {
  name: "conv5a"
  type: "Convolution"
  bottom: "pool4"
  top: "conv5a"
  param {
    lr_mult: 1
    decay_mult: 1
  }
  param {
    lr_mult: 2
    decay_mult: 0
  }
  convolution_param {
    num_output: 512
    pad: 1
    pad: 1
    pad: 1
    kernel_size: 3
    kernel_size: 3
    kernel_size: 3
    weight_filler {
      type: "gaussian"
      std: 0.01
    }
    bias_filler {
      type: "constant"
      value: 1
    }
  }
}
layer {
  name: "relu5a"
  type: "ReLU"
  bottom: "conv5a"
  top: "conv5a"
}
layer {
  name: "conv5b"
  type: "Convolution"
  bottom: "conv5a"
  top: "conv5b"
  param {
    lr_mult: 1
    decay_mult: 1
  }
  param {
    lr_mult: 2
    decay_mult: 0
  }
  convolution_param {
    num_output: 512
    pad: 1
    pad: 1
    pad: 1
    kernel_size: 3
    kernel_size: 3
    kernel_size: 3
    weight_filler {
      type: "gaussian"
      std: 0.01
    }
    bias_filler {
      type: "constant"
      value: 1
    }
  }
}
layer {
  name: "relu5b"
  type: "ReLU"
  bottom: "conv5b"
  top: "conv5b"
}
layer {
  name: "rpn_conv/3x3"
  type: "Convolution"
  bottom: "conv5b"
  top: "rpn/output"
  param {
    lr_mult: 1
    decay_mult: 1
  }
  param {
    lr_mult: 2
    decay_mult: 0
  }
  convolution_param {
    num_output: 512
    pad: 1
    pad: 1
    pad: 1
    kernel_size: 3
    kernel_size: 3
    kernel_size: 3
    stride: 1
    stride: 2
    stride: 2
    weight_filler {
      type: "gaussian"
      std: 0.01
    }
    bias_filler {
      type: "constant"
      value: 0
    }
  }
}
layer {
  name: "rpn_relu/3x3"
  type: "ReLU"
  bottom: "rpn/output"
  top: "rpn/output"
}
layer {
  name: "rpn_conv/3x3_2"
  type: "Convolution"
  bottom: "rpn/output"
  top: "rpn/output_2"
  param {
    lr_mult: 1
    decay_mult: 1
  }
  param {
    lr_mult: 2
    decay_mult: 0
  }
  convolution_param {
    num_output: 512
    pad: 1
    pad: 1
    pad: 1
    kernel_size: 3
    kernel_size: 3
    kernel_size: 3
    stride: 1
    stride: 2
    stride: 2
    weight_filler {
      type: "gaussian"
      std: 0.01
    }
    bias_filler {
      type: "constant"
      value: 0
    }
  }
}
layer {
  name: "rpn_relu/3x3_2"
  type: "ReLU"
  bottom: "rpn/output_2"
  top: "rpn/output_2"
}
layer {
  name: "rpn/output_pool"
  type: "Pooling"
  bottom: "rpn/output_2"
  top: "rpn/output_pool"
  pooling_param {
    pool: MAX
    kernel_size: 1
    kernel_size: 2
    kernel_size: 2
  }
}
layer {
  name: "rpn_cls_score"
  type: "Convolution"
  bottom: "rpn/output_pool"
  top: "rpn_cls_score"
  param {
    lr_mult: 1
    decay_mult: 1
  }
  param {
    lr_mult: 2
    decay_mult: 0
  }
  convolution_param {
    num_output: 74
    kernel_size: 1
    kernel_size: 1
    kernel_size: 1
    weight_filler {
      type: "gaussian"
      std: 0.01
    }
    bias_filler {
      type: "constant"
      value: 0
    }
  }
}
layer {
  name: "rpn_twin_pred"
  type: "Convolution"
  bottom: "rpn/output_pool"
  top: "rpn_twin_pred"
  param {
    lr_mult: 1
    decay_mult: 1
  }
  param {
    lr_mult: 2
    decay_mult: 0
  }
  convolution_param {
    num_output: 74
    kernel_size: 1
    kernel_size: 1
    kernel_size: 1
    weight_filler {
      type: "gaussian"
      std: 0.01
    }
    bias_filler {
      type: "constant"
      value: 0
    }
  }
}
layer {
  name: "rpn_cls_score_reshape"
  type: "Reshape"
  bottom: "rpn_cls_score"
  top: "rpn_cls_score_reshape"
  reshape_param {
    shape {
      dim: 0
      dim: 2
      dim: -1
      dim: 0
      dim: 0
    }
  }
}
layer {
  name: "rpn-data"
  type: "Python"
  bottom: "rpn_cls_score"
  bottom: "gt_boxes"
  bottom: "data"
  top: "rpn_labels"
  top: "rpn_twin_targets"
  top: "rpn_twin_inside_weights"
  top: "rpn_twin_outside_weights"
  python_param {
    module: "rpn.anchor_target_layer"
    layer: "AnchorTargetLayer"
    param_str: "\'feat_stride\': 8 \n\'scales\': !!python/tuple [1,1.25, 1.5,1.75, 2,2.5, 3,3.5, 4,4.5, 5,5.5, 6,7, 8,9,10,11,12,14,16,18,20,22,24,28,32,36,40,44,52,60,68,76,84,92,100]"
  }
}
layer {
  name: "rpn_loss_cls"
  type: "SoftmaxWithLoss"
  bottom: "rpn_cls_score_reshape"
  bottom: "rpn_labels"
  top: "rpn_cls_loss"
  loss_weight: 1
  propagate_down: true
  propagate_down: false
  loss_param {
    ignore_label: -1
    normalize: true
  }
}
layer {
  name: "rpn_loss_twin"
  type: "SmoothL1Loss"
  bottom: "rpn_twin_pred"
  bottom: "rpn_twin_targets"
  bottom: "rpn_twin_inside_weights"
  bottom: "rpn_twin_outside_weights"
  top: "rpn_loss_twin"
  loss_weight: 1
  smooth_l1_loss_param {
    sigma: 3
  }
}
layer {
  name: "rpn_accuarcy"
  type: "Accuracy"
  bottom: "rpn_cls_score_reshape"
  bottom: "rpn_labels"
  top: "rpn_accuarcy"
  top: "rpn_accuarcy_class"
  propagate_down: false
  propagate_down: false
  accuracy_param {
    ignore_label: -1
  }
}
layer {
  name: "rpn_cls_prob"
  type: "Softmax"
  bottom: "rpn_cls_score_reshape"
  top: "rpn_cls_prob"
}
layer {
  name: "rpn_cls_prob_reshape"
  type: "Reshape"
  bottom: "rpn_cls_prob"
  top: "rpn_cls_prob_reshape"
  reshape_param {
    shape {
      dim: 0
      dim: 74
      dim: -1
      dim: 0
      dim: 0
    }
  }
}
layer {
  name: "proposal"
  type: "Python"
  bottom: "rpn_cls_prob_reshape"
  bottom: "rpn_twin_pred"
  top: "rpn_rois"
  include {
    phase: TRAIN
  }
  python_param {
    module: "rpn.proposal_layer"
    layer: "ProposalLayer"
    param_str: "\'feat_stride\': 8 \n\'scales\': !!python/tuple [1,1.25, 1.5,1.75, 2,2.5, 3,3.5, 4,4.5, 5,5.5, 6,7, 8,9,10,11,12,14,16,18,20,22,24,28,32,36,40,44,52,60,68,76,84,92,100]"
  }
}
layer {
  name: "roi-data"
  type: "Python"
  bottom: "rpn_rois"
  bottom: "gt_boxes"
  top: "rois"
  top: "labels"
  top: "twin_targets"
  top: "twin_inside_weights"
  top: "twin_outside_weights"
  python_param {
    module: "rpn.proposal_target_layer"
    layer: "ProposalTargetLayer"
    param_str: "\'num_classes\': 201"
  }
}
layer {
  name: "roi_pool5"
  type: "ROIPooling"
  bottom: "conv5b"
  bottom: "rois"
  top: "pool5"
  roi_pooling_param {
    pooled_h: 4
    pooled_w: 4
    spatial_scale: 0.0625
    pooled_l: 1
    temporal_scale: 0.125
  }
}
layer {
  name: "fc6"
  type: "InnerProduct"
  bottom: "pool5"
  top: "fc6"
  param {
    lr_mult: 1
    decay_mult: 1
  }
  param {
    lr_mult: 2
    decay_mult: 0
  }
  inner_product_param {
    num_output: 4096
    weight_filler {
      type: "gaussian"
      std: 0.005
    }
    bias_filler {
      type: "constant"
      value: 1
    }
  }
}
layer {
  name: "relu6"
  type: "ReLU"
  bottom: "fc6"
  top: "fc6"
}
layer {
  name: "drop6"
  type: "Dropout"
  bottom: "fc6"
  top: "fc6"
  dropout_param {
    dropout_ratio: 0.5
  }
}
layer {
  name: "cls_score"
  type: "InnerProduct"
  bottom: "fc6"
  top: "cls_score"
  param {
    lr_mult: 1
    decay_mult: 1
  }
  param {
    lr_mult: 2
    decay_mult: 0
  }
  inner_product_param {
    num_output: 201
    weight_filler {
      type: "gaussian"
      std: 0.01
    }
    bias_filler {
      type: "constant"
      value: 0
    }
  }
}
layer {
  name: "twin_pred"
  type: "InnerProduct"
  bottom: "fc6"
  top: "twin_pred"
  param {
    lr_mult: 1
    decay_mult: 1
  }
  param {
    lr_mult: 2
    decay_mult: 0
  }
  inner_product_param {
    num_output: 402
    weight_filler {
      type: "gaussian"
      std: 0.001
    }
    bias_filler {
      type: "constant"
      value: 0
    }
  }
}
layer {
  name: "loss_cls"
  type: "SoftmaxWithLoss"
  bottom: "cls_score"
  bottom: "labels"
  top: "loss_cls"
  loss_weight: 1
  propagate_down: true
  propagate_down: false
}
layer {
  name: "loss_twin"
  type: "SmoothL1Loss"
  bottom: "twin_pred"
  bottom: "twin_targets"
  bottom: "twin_inside_weights"
  bottom: "twin_outside_weights"
  top: "loss_twin"
  loss_weight: 1
}
layer {
  name: "accuarcy"
  type: "Accuracy"
  bottom: "cls_score"
  bottom: "labels"
  top: "accuarcy"
  propagate_down: false
  propagate_down: false
  accuracy_param {
    ignore_label: -1
  }
}
I0416 11:29:11.980428 18469 layer_factory.hpp:77] Creating layer data
I0416 11:29:11.991575 18469 net.cpp:100] Creating Layer data
I0416 11:29:11.991598 18469 net.cpp:408] data -> data
I0416 11:29:11.991611 18469 net.cpp:408] data -> gt_boxes
RoiDataLayer: name_to_top: {'gt_windows': 1, 'data': 0}
I0416 11:29:12.000041 18469 net.cpp:150] Setting up data
I0416 11:29:12.000066 18469 net.cpp:157] Top shape: 1 3 768 112 112 (28901376)
I0416 11:29:12.000073 18469 net.cpp:157] Top shape: 1 101 (101)
I0416 11:29:12.000077 18469 net.cpp:165] Memory required for data: 115605908
I0416 11:29:12.000084 18469 layer_factory.hpp:77] Creating layer data_data_0_split
I0416 11:29:12.000102 18469 net.cpp:100] Creating Layer data_data_0_split
I0416 11:29:12.000108 18469 net.cpp:434] data_data_0_split <- data
I0416 11:29:12.000119 18469 net.cpp:408] data_data_0_split -> data_data_0_split_0
I0416 11:29:12.000133 18469 net.cpp:408] data_data_0_split -> data_data_0_split_1
I0416 11:29:12.000182 18469 net.cpp:150] Setting up data_data_0_split
I0416 11:29:12.000191 18469 net.cpp:157] Top shape: 1 3 768 112 112 (28901376)
I0416 11:29:12.000196 18469 net.cpp:157] Top shape: 1 3 768 112 112 (28901376)
I0416 11:29:12.000200 18469 net.cpp:165] Memory required for data: 346816916
I0416 11:29:12.000205 18469 layer_factory.hpp:77] Creating layer gt_boxes_data_1_split
I0416 11:29:12.000216 18469 net.cpp:100] Creating Layer gt_boxes_data_1_split
I0416 11:29:12.000221 18469 net.cpp:434] gt_boxes_data_1_split <- gt_boxes
I0416 11:29:12.000227 18469 net.cpp:408] gt_boxes_data_1_split -> gt_boxes_data_1_split_0
I0416 11:29:12.000236 18469 net.cpp:408] gt_boxes_data_1_split -> gt_boxes_data_1_split_1
I0416 11:29:12.000277 18469 net.cpp:150] Setting up gt_boxes_data_1_split
I0416 11:29:12.000285 18469 net.cpp:157] Top shape: 1 101 (101)
I0416 11:29:12.000290 18469 net.cpp:157] Top shape: 1 101 (101)
I0416 11:29:12.000294 18469 net.cpp:165] Memory required for data: 346817724
I0416 11:29:12.000298 18469 layer_factory.hpp:77] Creating layer conv1a
I0416 11:29:12.000313 18469 net.cpp:100] Creating Layer conv1a
I0416 11:29:12.000319 18469 net.cpp:434] conv1a <- data_data_0_split_0
I0416 11:29:12.000373 18469 net.cpp:408] conv1a -> conv1a
I0416 11:29:12.018579 18469 net.cpp:150] Setting up conv1a
I0416 11:29:12.018617 18469 net.cpp:157] Top shape: 1 64 768 112 112 (616562688)
I0416 11:29:12.018621 18469 net.cpp:165] Memory required for data: 2813068476
I0416 11:29:12.018641 18469 layer_factory.hpp:77] Creating layer relu1a
I0416 11:29:12.018657 18469 net.cpp:100] Creating Layer relu1a
I0416 11:29:12.018662 18469 net.cpp:434] relu1a <- conv1a
I0416 11:29:12.018671 18469 net.cpp:395] relu1a -> conv1a (in-place)
I0416 11:29:12.018685 18469 net.cpp:150] Setting up relu1a
I0416 11:29:12.018692 18469 net.cpp:157] Top shape: 1 64 768 112 112 (616562688)
I0416 11:29:12.018695 18469 net.cpp:165] Memory required for data: 5279319228
I0416 11:29:12.018699 18469 layer_factory.hpp:77] Creating layer pool1
I0416 11:29:12.018710 18469 net.cpp:100] Creating Layer pool1
I0416 11:29:12.018715 18469 net.cpp:434] pool1 <- conv1a
I0416 11:29:12.018724 18469 net.cpp:408] pool1 -> pool1
I0416 11:29:12.018821 18469 net.cpp:150] Setting up pool1
I0416 11:29:12.018829 18469 net.cpp:157] Top shape: 1 64 768 56 56 (154140672)
I0416 11:29:12.018833 18469 net.cpp:165] Memory required for data: 5895881916
I0416 11:29:12.018837 18469 layer_factory.hpp:77] Creating layer conv2a
I0416 11:29:12.018852 18469 net.cpp:100] Creating Layer conv2a
I0416 11:29:12.018857 18469 net.cpp:434] conv2a <- pool1
I0416 11:29:12.018864 18469 net.cpp:408] conv2a -> conv2a
I0416 11:29:12.025581 18469 net.cpp:150] Setting up conv2a
I0416 11:29:12.025602 18469 net.cpp:157] Top shape: 1 128 768 56 56 (308281344)
I0416 11:29:12.025606 18469 net.cpp:165] Memory required for data: 7129007292
I0416 11:29:12.025619 18469 layer_factory.hpp:77] Creating layer relu2a
I0416 11:29:12.025631 18469 net.cpp:100] Creating Layer relu2a
I0416 11:29:12.025637 18469 net.cpp:434] relu2a <- conv2a
I0416 11:29:12.025645 18469 net.cpp:395] relu2a -> conv2a (in-place)
I0416 11:29:12.025655 18469 net.cpp:150] Setting up relu2a
I0416 11:29:12.025662 18469 net.cpp:157] Top shape: 1 128 768 56 56 (308281344)
I0416 11:29:12.025666 18469 net.cpp:165] Memory required for data: 8362132668
I0416 11:29:12.025671 18469 layer_factory.hpp:77] Creating layer pool2
I0416 11:29:12.025684 18469 net.cpp:100] Creating Layer pool2
I0416 11:29:12.025691 18469 net.cpp:434] pool2 <- conv2a
I0416 11:29:12.025698 18469 net.cpp:408] pool2 -> pool2
I0416 11:29:12.025764 18469 net.cpp:150] Setting up pool2
I0416 11:29:12.025774 18469 net.cpp:157] Top shape: 1 128 384 28 28 (38535168)
I0416 11:29:12.025779 18469 net.cpp:165] Memory required for data: 8516273340
I0416 11:29:12.025784 18469 layer_factory.hpp:77] Creating layer conv3a
I0416 11:29:12.025795 18469 net.cpp:100] Creating Layer conv3a
I0416 11:29:12.025800 18469 net.cpp:434] conv3a <- pool2
I0416 11:29:12.025810 18469 net.cpp:408] conv3a -> conv3a
I0416 11:29:12.033780 18469 net.cpp:150] Setting up conv3a
I0416 11:29:12.033795 18469 net.cpp:157] Top shape: 1 256 384 28 28 (77070336)
I0416 11:29:12.033799 18469 net.cpp:165] Memory required for data: 8824554684
I0416 11:29:12.033810 18469 layer_factory.hpp:77] Creating layer relu3a
I0416 11:29:12.033818 18469 net.cpp:100] Creating Layer relu3a
I0416 11:29:12.033824 18469 net.cpp:434] relu3a <- conv3a
I0416 11:29:12.033835 18469 net.cpp:395] relu3a -> conv3a (in-place)
I0416 11:29:12.033843 18469 net.cpp:150] Setting up relu3a
I0416 11:29:12.033851 18469 net.cpp:157] Top shape: 1 256 384 28 28 (77070336)
I0416 11:29:12.033856 18469 net.cpp:165] Memory required for data: 9132836028
I0416 11:29:12.033860 18469 layer_factory.hpp:77] Creating layer conv3b
I0416 11:29:12.033871 18469 net.cpp:100] Creating Layer conv3b
I0416 11:29:12.033876 18469 net.cpp:434] conv3b <- conv3a
I0416 11:29:12.033885 18469 net.cpp:408] conv3b -> conv3b
I0416 11:29:12.057538 18469 net.cpp:150] Setting up conv3b
I0416 11:29:12.057564 18469 net.cpp:157] Top shape: 1 256 384 28 28 (77070336)
I0416 11:29:12.057569 18469 net.cpp:165] Memory required for data: 9441117372
I0416 11:29:12.057579 18469 layer_factory.hpp:77] Creating layer relu3b
I0416 11:29:12.057592 18469 net.cpp:100] Creating Layer relu3b
I0416 11:29:12.057600 18469 net.cpp:434] relu3b <- conv3b
I0416 11:29:12.057611 18469 net.cpp:395] relu3b -> conv3b (in-place)
I0416 11:29:12.057623 18469 net.cpp:150] Setting up relu3b
I0416 11:29:12.057631 18469 net.cpp:157] Top shape: 1 256 384 28 28 (77070336)
I0416 11:29:12.057636 18469 net.cpp:165] Memory required for data: 9749398716
I0416 11:29:12.057641 18469 layer_factory.hpp:77] Creating layer pool3
I0416 11:29:12.057652 18469 net.cpp:100] Creating Layer pool3
I0416 11:29:12.057657 18469 net.cpp:434] pool3 <- conv3b
I0416 11:29:12.057667 18469 net.cpp:408] pool3 -> pool3
I0416 11:29:12.057729 18469 net.cpp:150] Setting up pool3
I0416 11:29:12.057737 18469 net.cpp:157] Top shape: 1 256 192 14 14 (9633792)
I0416 11:29:12.057742 18469 net.cpp:165] Memory required for data: 9787933884
I0416 11:29:12.057749 18469 layer_factory.hpp:77] Creating layer conv4a
I0416 11:29:12.057762 18469 net.cpp:100] Creating Layer conv4a
I0416 11:29:12.057767 18469 net.cpp:434] conv4a <- pool3
I0416 11:29:12.057778 18469 net.cpp:408] conv4a -> conv4a
I0416 11:29:12.102711 18469 net.cpp:150] Setting up conv4a
I0416 11:29:12.102737 18469 net.cpp:157] Top shape: 1 512 192 14 14 (19267584)
I0416 11:29:12.102741 18469 net.cpp:165] Memory required for data: 9865004220
I0416 11:29:12.102757 18469 layer_factory.hpp:77] Creating layer relu4a
I0416 11:29:12.102769 18469 net.cpp:100] Creating Layer relu4a
I0416 11:29:12.102802 18469 net.cpp:434] relu4a <- conv4a
I0416 11:29:12.102821 18469 net.cpp:395] relu4a -> conv4a (in-place)
I0416 11:29:12.102835 18469 net.cpp:150] Setting up relu4a
I0416 11:29:12.102843 18469 net.cpp:157] Top shape: 1 512 192 14 14 (19267584)
I0416 11:29:12.102913 18469 net.cpp:165] Memory required for data: 9942074556
I0416 11:29:12.102922 18469 layer_factory.hpp:77] Creating layer conv4b
I0416 11:29:12.102949 18469 net.cpp:100] Creating Layer conv4b
I0416 11:29:12.102957 18469 net.cpp:434] conv4b <- conv4a
I0416 11:29:12.102967 18469 net.cpp:408] conv4b -> conv4b
I0416 11:29:12.186089 18469 net.cpp:150] Setting up conv4b
I0416 11:29:12.186115 18469 net.cpp:157] Top shape: 1 512 192 14 14 (19267584)
I0416 11:29:12.186120 18469 net.cpp:165] Memory required for data: 10019144892
I0416 11:29:12.186127 18469 layer_factory.hpp:77] Creating layer relu4b
I0416 11:29:12.186138 18469 net.cpp:100] Creating Layer relu4b
I0416 11:29:12.186144 18469 net.cpp:434] relu4b <- conv4b
I0416 11:29:12.186151 18469 net.cpp:395] relu4b -> conv4b (in-place)
I0416 11:29:12.186161 18469 net.cpp:150] Setting up relu4b
I0416 11:29:12.186167 18469 net.cpp:157] Top shape: 1 512 192 14 14 (19267584)
I0416 11:29:12.186168 18469 net.cpp:165] Memory required for data: 10096215228
I0416 11:29:12.186172 18469 layer_factory.hpp:77] Creating layer pool4
I0416 11:29:12.186179 18469 net.cpp:100] Creating Layer pool4
I0416 11:29:12.186183 18469 net.cpp:434] pool4 <- conv4b
I0416 11:29:12.186189 18469 net.cpp:408] pool4 -> pool4
I0416 11:29:12.186233 18469 net.cpp:150] Setting up pool4
I0416 11:29:12.186239 18469 net.cpp:157] Top shape: 1 512 96 7 7 (2408448)
I0416 11:29:12.186240 18469 net.cpp:165] Memory required for data: 10105849020
I0416 11:29:12.186244 18469 layer_factory.hpp:77] Creating layer conv5a
I0416 11:29:12.186257 18469 net.cpp:100] Creating Layer conv5a
I0416 11:29:12.186261 18469 net.cpp:434] conv5a <- pool4
I0416 11:29:12.186267 18469 net.cpp:408] conv5a -> conv5a
I0416 11:29:12.271613 18469 net.cpp:150] Setting up conv5a
I0416 11:29:12.271651 18469 net.cpp:157] Top shape: 1 512 96 7 7 (2408448)
I0416 11:29:12.271656 18469 net.cpp:165] Memory required for data: 10115482812
I0416 11:29:12.271667 18469 layer_factory.hpp:77] Creating layer relu5a
I0416 11:29:12.271682 18469 net.cpp:100] Creating Layer relu5a
I0416 11:29:12.271687 18469 net.cpp:434] relu5a <- conv5a
I0416 11:29:12.271695 18469 net.cpp:395] relu5a -> conv5a (in-place)
I0416 11:29:12.271708 18469 net.cpp:150] Setting up relu5a
I0416 11:29:12.271713 18469 net.cpp:157] Top shape: 1 512 96 7 7 (2408448)
I0416 11:29:12.271718 18469 net.cpp:165] Memory required for data: 10125116604
I0416 11:29:12.271721 18469 layer_factory.hpp:77] Creating layer conv5b
I0416 11:29:12.271733 18469 net.cpp:100] Creating Layer conv5b
I0416 11:29:12.271756 18469 net.cpp:434] conv5b <- conv5a
I0416 11:29:12.271764 18469 net.cpp:408] conv5b -> conv5b
I0416 11:29:12.341547 18469 net.cpp:150] Setting up conv5b
I0416 11:29:12.341576 18469 net.cpp:157] Top shape: 1 512 96 7 7 (2408448)
I0416 11:29:12.341580 18469 net.cpp:165] Memory required for data: 10134750396
I0416 11:29:12.341589 18469 layer_factory.hpp:77] Creating layer relu5b
I0416 11:29:12.341598 18469 net.cpp:100] Creating Layer relu5b
I0416 11:29:12.341603 18469 net.cpp:434] relu5b <- conv5b
I0416 11:29:12.341610 18469 net.cpp:395] relu5b -> conv5b (in-place)
I0416 11:29:12.341619 18469 net.cpp:150] Setting up relu5b
I0416 11:29:12.341625 18469 net.cpp:157] Top shape: 1 512 96 7 7 (2408448)
I0416 11:29:12.341627 18469 net.cpp:165] Memory required for data: 10144384188
I0416 11:29:12.341630 18469 layer_factory.hpp:77] Creating layer conv5b_relu5b_0_split
I0416 11:29:12.341637 18469 net.cpp:100] Creating Layer conv5b_relu5b_0_split
I0416 11:29:12.341641 18469 net.cpp:434] conv5b_relu5b_0_split <- conv5b
I0416 11:29:12.341646 18469 net.cpp:408] conv5b_relu5b_0_split -> conv5b_relu5b_0_split_0
I0416 11:29:12.341653 18469 net.cpp:408] conv5b_relu5b_0_split -> conv5b_relu5b_0_split_1
I0416 11:29:12.341698 18469 net.cpp:150] Setting up conv5b_relu5b_0_split
I0416 11:29:12.341706 18469 net.cpp:157] Top shape: 1 512 96 7 7 (2408448)
I0416 11:29:12.341708 18469 net.cpp:157] Top shape: 1 512 96 7 7 (2408448)
I0416 11:29:12.341714 18469 net.cpp:165] Memory required for data: 10163651772
I0416 11:29:12.341717 18469 layer_factory.hpp:77] Creating layer rpn_conv/3x3
I0416 11:29:12.341727 18469 net.cpp:100] Creating Layer rpn_conv/3x3
I0416 11:29:12.341730 18469 net.cpp:434] rpn_conv/3x3 <- conv5b_relu5b_0_split_0
I0416 11:29:12.341737 18469 net.cpp:408] rpn_conv/3x3 -> rpn/output
I0416 11:29:12.422173 18469 net.cpp:150] Setting up rpn_conv/3x3
I0416 11:29:12.422197 18469 net.cpp:157] Top shape: 1 512 96 4 4 (786432)
I0416 11:29:12.422200 18469 net.cpp:165] Memory required for data: 10166797500
I0416 11:29:12.422214 18469 layer_factory.hpp:77] Creating layer rpn_relu/3x3
I0416 11:29:12.422224 18469 net.cpp:100] Creating Layer rpn_relu/3x3
I0416 11:29:12.422227 18469 net.cpp:434] rpn_relu/3x3 <- rpn/output
I0416 11:29:12.422235 18469 net.cpp:395] rpn_relu/3x3 -> rpn/output (in-place)
I0416 11:29:12.422262 18469 net.cpp:150] Setting up rpn_relu/3x3
I0416 11:29:12.422266 18469 net.cpp:157] Top shape: 1 512 96 4 4 (786432)
I0416 11:29:12.422269 18469 net.cpp:165] Memory required for data: 10169943228
I0416 11:29:12.422271 18469 layer_factory.hpp:77] Creating layer rpn_conv/3x3_2
I0416 11:29:12.422281 18469 net.cpp:100] Creating Layer rpn_conv/3x3_2
I0416 11:29:12.422286 18469 net.cpp:434] rpn_conv/3x3_2 <- rpn/output
I0416 11:29:12.422291 18469 net.cpp:408] rpn_conv/3x3_2 -> rpn/output_2
I0416 11:29:12.481221 18469 net.cpp:150] Setting up rpn_conv/3x3_2
I0416 11:29:12.481256 18469 net.cpp:157] Top shape: 1 512 96 2 2 (196608)
I0416 11:29:12.481261 18469 net.cpp:165] Memory required for data: 10170729660
I0416 11:29:12.481271 18469 layer_factory.hpp:77] Creating layer rpn_relu/3x3_2
I0416 11:29:12.481284 18469 net.cpp:100] Creating Layer rpn_relu/3x3_2
I0416 11:29:12.481292 18469 net.cpp:434] rpn_relu/3x3_2 <- rpn/output_2
I0416 11:29:12.481300 18469 net.cpp:395] rpn_relu/3x3_2 -> rpn/output_2 (in-place)
I0416 11:29:12.481312 18469 net.cpp:150] Setting up rpn_relu/3x3_2
I0416 11:29:12.481319 18469 net.cpp:157] Top shape: 1 512 96 2 2 (196608)
I0416 11:29:12.481323 18469 net.cpp:165] Memory required for data: 10171516092
I0416 11:29:12.481329 18469 layer_factory.hpp:77] Creating layer rpn/output_pool
I0416 11:29:12.481338 18469 net.cpp:100] Creating Layer rpn/output_pool
I0416 11:29:12.481343 18469 net.cpp:434] rpn/output_pool <- rpn/output_2
I0416 11:29:12.481350 18469 net.cpp:408] rpn/output_pool -> rpn/output_pool
I0416 11:29:12.481411 18469 net.cpp:150] Setting up rpn/output_pool
I0416 11:29:12.481420 18469 net.cpp:157] Top shape: 1 512 96 1 1 (49152)
I0416 11:29:12.481425 18469 net.cpp:165] Memory required for data: 10171712700
I0416 11:29:12.481429 18469 layer_factory.hpp:77] Creating layer rpn/output_pool_rpn/output_pool_0_split
I0416 11:29:12.481438 18469 net.cpp:100] Creating Layer rpn/output_pool_rpn/output_pool_0_split
I0416 11:29:12.481444 18469 net.cpp:434] rpn/output_pool_rpn/output_pool_0_split <- rpn/output_pool
I0416 11:29:12.481451 18469 net.cpp:408] rpn/output_pool_rpn/output_pool_0_split -> rpn/output_pool_rpn/output_pool_0_split_0
I0416 11:29:12.481462 18469 net.cpp:408] rpn/output_pool_rpn/output_pool_0_split -> rpn/output_pool_rpn/output_pool_0_split_1
I0416 11:29:12.481511 18469 net.cpp:150] Setting up rpn/output_pool_rpn/output_pool_0_split
I0416 11:29:12.481520 18469 net.cpp:157] Top shape: 1 512 96 1 1 (49152)
I0416 11:29:12.481525 18469 net.cpp:157] Top shape: 1 512 96 1 1 (49152)
I0416 11:29:12.481531 18469 net.cpp:165] Memory required for data: 10172105916
I0416 11:29:12.481535 18469 layer_factory.hpp:77] Creating layer rpn_cls_score
I0416 11:29:12.481547 18469 net.cpp:100] Creating Layer rpn_cls_score
I0416 11:29:12.481554 18469 net.cpp:434] rpn_cls_score <- rpn/output_pool_rpn/output_pool_0_split_0
I0416 11:29:12.481560 18469 net.cpp:408] rpn_cls_score -> rpn_cls_score
I0416 11:29:12.482352 18469 net.cpp:150] Setting up rpn_cls_score
I0416 11:29:12.482362 18469 net.cpp:157] Top shape: 1 74 96 1 1 (7104)
I0416 11:29:12.482367 18469 net.cpp:165] Memory required for data: 10172134332
I0416 11:29:12.482373 18469 layer_factory.hpp:77] Creating layer rpn_cls_score_rpn_cls_score_0_split
I0416 11:29:12.482380 18469 net.cpp:100] Creating Layer rpn_cls_score_rpn_cls_score_0_split
I0416 11:29:12.482384 18469 net.cpp:434] rpn_cls_score_rpn_cls_score_0_split <- rpn_cls_score
I0416 11:29:12.482393 18469 net.cpp:408] rpn_cls_score_rpn_cls_score_0_split -> rpn_cls_score_rpn_cls_score_0_split_0
I0416 11:29:12.482401 18469 net.cpp:408] rpn_cls_score_rpn_cls_score_0_split -> rpn_cls_score_rpn_cls_score_0_split_1
I0416 11:29:12.482461 18469 net.cpp:150] Setting up rpn_cls_score_rpn_cls_score_0_split
I0416 11:29:12.482470 18469 net.cpp:157] Top shape: 1 74 96 1 1 (7104)
I0416 11:29:12.482477 18469 net.cpp:157] Top shape: 1 74 96 1 1 (7104)
I0416 11:29:12.482481 18469 net.cpp:165] Memory required for data: 10172191164
I0416 11:29:12.482486 18469 layer_factory.hpp:77] Creating layer rpn_twin_pred
I0416 11:29:12.482502 18469 net.cpp:100] Creating Layer rpn_twin_pred
I0416 11:29:12.482508 18469 net.cpp:434] rpn_twin_pred <- rpn/output_pool_rpn/output_pool_0_split_1
I0416 11:29:12.482517 18469 net.cpp:408] rpn_twin_pred -> rpn_twin_pred
I0416 11:29:12.483275 18469 net.cpp:150] Setting up rpn_twin_pred
I0416 11:29:12.483285 18469 net.cpp:157] Top shape: 1 74 96 1 1 (7104)
I0416 11:29:12.483291 18469 net.cpp:165] Memory required for data: 10172219580
I0416 11:29:12.483299 18469 layer_factory.hpp:77] Creating layer rpn_twin_pred_rpn_twin_pred_0_split
I0416 11:29:12.483305 18469 net.cpp:100] Creating Layer rpn_twin_pred_rpn_twin_pred_0_split
I0416 11:29:12.483310 18469 net.cpp:434] rpn_twin_pred_rpn_twin_pred_0_split <- rpn_twin_pred
I0416 11:29:12.483319 18469 net.cpp:408] rpn_twin_pred_rpn_twin_pred_0_split -> rpn_twin_pred_rpn_twin_pred_0_split_0
I0416 11:29:12.483328 18469 net.cpp:408] rpn_twin_pred_rpn_twin_pred_0_split -> rpn_twin_pred_rpn_twin_pred_0_split_1
I0416 11:29:12.483398 18469 net.cpp:150] Setting up rpn_twin_pred_rpn_twin_pred_0_split
I0416 11:29:12.483407 18469 net.cpp:157] Top shape: 1 74 96 1 1 (7104)
I0416 11:29:12.483414 18469 net.cpp:157] Top shape: 1 74 96 1 1 (7104)
I0416 11:29:12.483418 18469 net.cpp:165] Memory required for data: 10172276412
I0416 11:29:12.483422 18469 layer_factory.hpp:77] Creating layer rpn_cls_score_reshape
I0416 11:29:12.483434 18469 net.cpp:100] Creating Layer rpn_cls_score_reshape
I0416 11:29:12.483440 18469 net.cpp:434] rpn_cls_score_reshape <- rpn_cls_score_rpn_cls_score_0_split_0
I0416 11:29:12.483448 18469 net.cpp:408] rpn_cls_score_reshape -> rpn_cls_score_reshape
I0416 11:29:12.483487 18469 net.cpp:150] Setting up rpn_cls_score_reshape
I0416 11:29:12.483496 18469 net.cpp:157] Top shape: 1 2 3552 1 1 (7104)
I0416 11:29:12.483501 18469 net.cpp:165] Memory required for data: 10172304828
I0416 11:29:12.483505 18469 layer_factory.hpp:77] Creating layer rpn_cls_score_reshape_rpn_cls_score_reshape_0_split
I0416 11:29:12.483513 18469 net.cpp:100] Creating Layer rpn_cls_score_reshape_rpn_cls_score_reshape_0_split
I0416 11:29:12.483520 18469 net.cpp:434] rpn_cls_score_reshape_rpn_cls_score_reshape_0_split <- rpn_cls_score_reshape
I0416 11:29:12.483526 18469 net.cpp:408] rpn_cls_score_reshape_rpn_cls_score_reshape_0_split -> rpn_cls_score_reshape_rpn_cls_score_reshape_0_split_0
I0416 11:29:12.483542 18469 net.cpp:408] rpn_cls_score_reshape_rpn_cls_score_reshape_0_split -> rpn_cls_score_reshape_rpn_cls_score_reshape_0_split_1
I0416 11:29:12.483551 18469 net.cpp:408] rpn_cls_score_reshape_rpn_cls_score_reshape_0_split -> rpn_cls_score_reshape_rpn_cls_score_reshape_0_split_2
I0416 11:29:12.483616 18469 net.cpp:150] Setting up rpn_cls_score_reshape_rpn_cls_score_reshape_0_split
I0416 11:29:12.483625 18469 net.cpp:157] Top shape: 1 2 3552 1 1 (7104)
I0416 11:29:12.483633 18469 net.cpp:157] Top shape: 1 2 3552 1 1 (7104)
I0416 11:29:12.483639 18469 net.cpp:157] Top shape: 1 2 3552 1 1 (7104)
I0416 11:29:12.483644 18469 net.cpp:165] Memory required for data: 10172390076
I0416 11:29:12.483647 18469 layer_factory.hpp:77] Creating layer rpn-data
I0416 11:29:12.484058 18469 net.cpp:100] Creating Layer rpn-data
I0416 11:29:12.484068 18469 net.cpp:434] rpn-data <- rpn_cls_score_rpn_cls_score_0_split_1
I0416 11:29:12.484074 18469 net.cpp:434] rpn-data <- gt_boxes_data_1_split_0
I0416 11:29:12.484078 18469 net.cpp:434] rpn-data <- data_data_0_split_1
I0416 11:29:12.484086 18469 net.cpp:408] rpn-data -> rpn_labels
I0416 11:29:12.484093 18469 net.cpp:408] rpn-data -> rpn_twin_targets
I0416 11:29:12.484100 18469 net.cpp:408] rpn-data -> rpn_twin_inside_weights
I0416 11:29:12.484107 18469 net.cpp:408] rpn-data -> rpn_twin_outside_weights
I0416 11:29:12.486618 18469 net.cpp:150] Setting up rpn-data
I0416 11:29:12.486631 18469 net.cpp:157] Top shape: 1 1 3552 1 1 (3552)
I0416 11:29:12.486635 18469 net.cpp:157] Top shape: 1 74 96 1 1 (7104)
I0416 11:29:12.486639 18469 net.cpp:157] Top shape: 1 74 96 1 1 (7104)
I0416 11:29:12.486644 18469 net.cpp:157] Top shape: 1 74 96 1 1 (7104)
I0416 11:29:12.486647 18469 net.cpp:165] Memory required for data: 10172489532
I0416 11:29:12.486651 18469 layer_factory.hpp:77] Creating layer rpn_labels_rpn-data_0_split
I0416 11:29:12.486657 18469 net.cpp:100] Creating Layer rpn_labels_rpn-data_0_split
I0416 11:29:12.486661 18469 net.cpp:434] rpn_labels_rpn-data_0_split <- rpn_labels
I0416 11:29:12.486666 18469 net.cpp:408] rpn_labels_rpn-data_0_split -> rpn_labels_rpn-data_0_split_0
I0416 11:29:12.486673 18469 net.cpp:408] rpn_labels_rpn-data_0_split -> rpn_labels_rpn-data_0_split_1
I0416 11:29:12.486711 18469 net.cpp:150] Setting up rpn_labels_rpn-data_0_split
I0416 11:29:12.486718 18469 net.cpp:157] Top shape: 1 1 3552 1 1 (3552)
I0416 11:29:12.486721 18469 net.cpp:157] Top shape: 1 1 3552 1 1 (3552)
I0416 11:29:12.486724 18469 net.cpp:165] Memory required for data: 10172517948
I0416 11:29:12.486727 18469 layer_factory.hpp:77] Creating layer rpn_loss_cls
I0416 11:29:12.486733 18469 net.cpp:100] Creating Layer rpn_loss_cls
I0416 11:29:12.486738 18469 net.cpp:434] rpn_loss_cls <- rpn_cls_score_reshape_rpn_cls_score_reshape_0_split_0
I0416 11:29:12.486742 18469 net.cpp:434] rpn_loss_cls <- rpn_labels_rpn-data_0_split_0
…
I0416 11:29:12.487010 18469 layer_factory.hpp:77] Creating layer rpn_accuarcy
I0416 11:29:12.487016 18469 net.cpp:100] Creating Layer rpn_accuarcy
I0416 11:29:12.487020 18469 net.cpp:434] rpn_accuarcy <- rpn_cls_score_reshape_rpn_cls_score_reshape_0_split_1
I0416 11:29:12.487025 18469 net.cpp:434] rpn_accuarcy <- rpn_labels_rpn-data_0_split_1
I0416 11:29:12.487030 18469 net.cpp:408] rpn_accuarcy -> rpn_accuarcy
I0416 11:29:12.487035 18469 net.cpp:408] rpn_accuarcy -> rpn_accuarcy_class
I0416 11:29:12.487074 18469 net.cpp:150] Setting up rpn_accuarcy
I0416 11:29:12.487079 18469 net.cpp:157] Top shape: (1)
I0416 11:29:12.487083 18469 net.cpp:157] Top shape: 2 (2)
I0416 11:29:12.487087 18469 net.cpp:165] Memory required for data: 10172517968
I0416 11:29:12.487090 18469 layer_factory.hpp:77] Creating layer rpn_cls_prob
I0416 11:29:12.487095 18469 net.cpp:100] Creating Layer rpn_cls_prob
I0416 11:29:12.487100 18469 net.cpp:434] rpn_cls_prob <- rpn_cls_score_reshape_rpn_cls_score_reshape_0_split_2
I0416 11:29:12.487104 18469 net.cpp:408] rpn_cls_prob -> rpn_cls_prob
I0416 11:29:12.487169 18469 net.cpp:150] Setting up rpn_cls_prob
I0416 11:29:12.487175 18469 net.cpp:157] Top shape: 1 2 3552 1 1 (7104)
I0416 11:29:12.487179 18469 net.cpp:165] Memory required for data: 10172546384
I0416 11:29:12.487182 18469 layer_factory.hpp:77] Creating layer rpn_cls_prob_reshape
I0416 11:29:12.487188 18469 net.cpp:100] Creating Layer rpn_cls_prob_reshape
I0416 11:29:12.487193 18469 net.cpp:434] rpn_cls_prob_reshape <- rpn_cls_prob
I0416 11:29:12.487200 18469 net.cpp:408] rpn_cls_prob_reshape -> rpn_cls_prob_reshape
I0416 11:29:12.487226 18469 net.cpp:150] Setting up rpn_cls_prob_reshape
I0416 11:29:12.487231 18469 net.cpp:157] Top shape: 1 74 96 1 1 (7104)
I0416 11:29:12.487233 18469 net.cpp:165] Memory required for data: 10172574800
I0416 11:29:12.487236 18469 layer_factory.hpp:77] Creating layer proposal
I0416 11:29:12.487737 18469 net.cpp:100] Creating Layer proposal
I0416 11:29:12.487748 18469 net.cpp:434] proposal <- rpn_cls_prob_reshape
I0416 11:29:12.487754 18469 net.cpp:434] proposal <- rpn_twin_pred_rpn_twin_pred_0_split_1
I0416 11:29:12.487761 18469 net.cpp:408] proposal -> rpn_rois
I0416 11:29:12.491382 18469 net.cpp:150] Setting up proposal
I0416 11:29:12.491394 18469 net.cpp:157] Top shape: 1 3 (3)
I0416 11:29:12.491399 18469 net.cpp:165] Memory required for data: 10172574812
I0416 11:29:12.491401 18469 layer_factory.hpp:77] Creating layer roi-data
I0416 11:29:12.491518 18469 net.cpp:100] Creating Layer roi-data
I0416 11:29:12.491526 18469 net.cpp:434] roi-data <- rpn_rois
I0416 11:29:12.491531 18469 net.cpp:434] roi-data <- gt_boxes_data_1_split_1
I0416 11:29:12.491538 18469 net.cpp:408] roi-data -> rois
I0416 11:29:12.491544 18469 net.cpp:408] roi-data -> labels
I0416 11:29:12.491550 18469 net.cpp:408] roi-data -> twin_targets
I0416 11:29:12.491555 18469 net.cpp:408] roi-data -> twin_inside_weights
I0416 11:29:12.491562 18469 net.cpp:408] roi-data -> twin_outside_weights
I0416 11:29:12.491863 18469 net.cpp:150] Setting up roi-data
I0416 11:29:12.491873 18469 net.cpp:157] Top shape: 1 3 (3)
I0416 11:29:12.491878 18469 net.cpp:157] Top shape: 1 1 (1)
I0416 11:29:12.491883 18469 net.cpp:157] Top shape: 1 402 (402)
I0416 11:29:12.491885 18469 net.cpp:157] Top shape: 1 402 (402)
I0416 11:29:12.491888 18469 net.cpp:157] Top shape: 1 402 (402)
I0416 11:29:12.491891 18469 net.cpp:165] Memory required for data: 10172579652
I0416 11:29:12.491895 18469 layer_factory.hpp:77] Creating layer labels_roi-data_1_split
I0416 11:29:12.491900 18469 net.cpp:100] Creating Layer labels_roi-data_1_split
I0416 11:29:12.491904 18469 net.cpp:434] labels_roi-data_1_split <- labels
I0416 11:29:12.491910 18469 net.cpp:408] labels_roi-data_1_split -> labels_roi-data_1_split_0
I0416 11:29:12.491916 18469 net.cpp:408] labels_roi-data_1_split -> labels_roi-data_1_split_1
I0416 11:29:12.491952 18469 net.cpp:150] Setting up labels_roi-data_1_split
I0416 11:29:12.491958 18469 net.cpp:157] Top shape: 1 1 (1)
I0416 11:29:12.491962 18469 net.cpp:157] Top shape: 1 1 (1)
I0416 11:29:12.491964 18469 net.cpp:165] Memory required for data: 10172579660
I0416 11:29:12.491967 18469 layer_factory.hpp:77] Creating layer roi_pool5
I0416 11:29:12.491976 18469 net.cpp:100] Creating Layer roi_pool5
I0416 11:29:12.491981 18469 net.cpp:434] roi_pool5 <- conv5b_relu5b_0_split_1
I0416 11:29:12.491984 18469 net.cpp:434] roi_pool5 <- rois
I0416 11:29:12.491988 18469 net.cpp:408] roi_pool5 -> pool5
I0416 11:29:12.491994 18469 roi_pooling_layer.cpp:34] Temporal scale: 0.125
I0416 11:29:12.492002 18469 roi_pooling_layer.cpp:35] Spatial scale: 0.0625
I0416 11:29:12.492039 18469 net.cpp:150] Setting up roi_pool5
I0416 11:29:12.492045 18469 net.cpp:157] Top shape: 1 512 1 4 4 (8192)
I0416 11:29:12.492048 18469 net.cpp:165] Memory required for data: 10172612428
I0416 11:29:12.492051 18469 layer_factory.hpp:77] Creating layer fc6
I0416 11:29:12.492058 18469 net.cpp:100] Creating Layer fc6
I0416 11:29:12.492063 18469 net.cpp:434] fc6 <- pool5
I0416 11:29:12.492066 18469 net.cpp:408] fc6 -> fc6
I0416 11:29:12.808073 18469 net.cpp:150] Setting up fc6
I0416 11:29:12.808101 18469 net.cpp:157] Top shape: 1 4096 (4096)
I0416 11:29:12.808104 18469 net.cpp:165] Memory required for data: 10172628812
I0416 11:29:12.808115 18469 layer_factory.hpp:77] Creating layer relu6
I0416 11:29:12.808125 18469 net.cpp:100] Creating Layer relu6
I0416 11:29:12.808130 18469 net.cpp:434] relu6 <- fc6
I0416 11:29:12.808136 18469 net.cpp:395] relu6 -> fc6 (in-place)
I0416 11:29:12.808147 18469 net.cpp:150] Setting up relu6
I0416 11:29:12.808152 18469 net.cpp:157] Top shape: 1 4096 (4096)
I0416 11:29:12.808156 18469 net.cpp:165] Memory required for data: 10172645196
I0416 11:29:12.808158 18469 layer_factory.hpp:77] Creating layer drop6
I0416 11:29:12.808164 18469 net.cpp:100] Creating Layer drop6
I0416 11:29:12.808168 18469 net.cpp:434] drop6 <- fc6
I0416 11:29:12.808171 18469 net.cpp:395] drop6 -> fc6 (in-place)
I0416 11:29:12.808195 18469 net.cpp:150] Setting up drop6
I0416 11:29:12.808202 18469 net.cpp:157] Top shape: 1 4096 (4096)
I0416 11:29:12.808203 18469 net.cpp:165] Memory required for data: 10172661580
I0416 11:29:12.808207 18469 layer_factory.hpp:77] Creating layer fc6_drop6_0_split
I0416 11:29:12.808213 18469 net.cpp:100] Creating Layer fc6_drop6_0_split
I0416 11:29:12.808218 18469 net.cpp:434] fc6_drop6_0_split <- fc6
I0416 11:29:12.808223 18469 net.cpp:408] fc6_drop6_0_split -> fc6_drop6_0_split_0
I0416 11:29:12.808231 18469 net.cpp:408] fc6_drop6_0_split -> fc6_drop6_0_split_1
I0416 11:29:12.808271 18469 net.cpp:150] Setting up fc6_drop6_0_split
I0416 11:29:12.808277 18469 net.cpp:157] Top shape: 1 4096 (4096)
I0416 11:29:12.808280 18469 net.cpp:157] Top shape: 1 4096 (4096)
I0416 11:29:12.808284 18469 net.cpp:165] Memory required for data: 10172694348
I0416 11:29:12.808286 18469 layer_factory.hpp:77] Creating layer cls_score
I0416 11:29:12.808293 18469 net.cpp:100] Creating Layer cls_score
I0416 11:29:12.808300 18469 net.cpp:434] cls_score <- fc6_drop6_0_split_0
I0416 11:29:12.808305 18469 net.cpp:408] cls_score -> cls_score
I0416 11:29:12.816169 18469 net.cpp:150] Setting up cls_score
I0416 11:29:12.816191 18469 net.cpp:157] Top shape: 1 201 (201)
I0416 11:29:12.816195 18469 net.cpp:165] Memory required for data: 10172695152
I0416 11:29:12.816206 18469 layer_factory.hpp:77] Creating layer cls_score_cls_score_0_split
I0416 11:29:12.816218 18469 net.cpp:100] Creating Layer cls_score_cls_score_0_split
I0416 11:29:12.816224 18469 net.cpp:434] cls_score_cls_score_0_split <- cls_score
I0416 11:29:12.816233 18469 net.cpp:408] cls_score_cls_score_0_split -> cls_score_cls_score_0_split_0
I0416 11:29:12.816246 18469 net.cpp:408] cls_score_cls_score_0_split -> cls_score_cls_score_0_split_1
I0416 11:29:12.816298 18469 net.cpp:150] Setting up cls_score_cls_score_0_split
I0416 11:29:12.816305 18469 net.cpp:157] Top shape: 1 201 (201)
I0416 11:29:12.816310 18469 net.cpp:157] Top shape: 1 201 (201)
I0416 11:29:12.816316 18469 net.cpp:165] Memory required for data: 10172696760
I0416 11:29:12.816321 18469 layer_factory.hpp:77] Creating layer twin_pred
I0416 11:29:12.816350 18469 net.cpp:100] Creating Layer twin_pred
I0416 11:29:12.816356 18469 net.cpp:434] twin_pred <- fc6_drop6_0_split_1
I0416 11:29:12.816365 18469 net.cpp:408] twin_pred -> twin_pred
I0416 11:29:12.837280 18469 net.cpp:150] Setting up twin_pred
I0416 11:29:12.837311 18469 net.cpp:157] Top shape: 1 402 (402)
I0416 11:29:12.837316 18469 net.cpp:165] Memory required for data: 10172698368
I0416 11:29:12.837327 18469 layer_factory.hpp:77] Creating layer loss_cls
I0416 11:29:12.837337 18469 net.cpp:100] Creating Layer loss_cls
I0416 11:29:12.837354 18469 net.cpp:434] loss_cls <- cls_score_cls_score_0_split_0
I0416 11:29:12.837360 18469 net.cpp:434] loss_cls <- labels_roi-data_1_split_0
I0416 11:29:12.837368 18469 net.cpp:408] loss_cls -> loss_cls
…
