…
stepsize: 350000
snapshot: 0
snapshot_prefix: "./experiments/activitynet/snapshot/activitynet"
average_loss: 100
iter_size: 1
I0418 04:17:39.171820 25161 solver.cpp:81] Creating training net from train_net file: ./experiments/activitynet/train.prototxt
I0418 04:17:39.172922 25161 net.cpp:58] Initializing net from parameters: 
name: "activitynet"
state {
  phase: TRAIN
}
layer {
  name: "data"
  type: "Python"
  top: "data"
  top: "gt_boxes"
  python_param {
    module: "roi_data_layer.layer"
    layer: "RoIDataLayer"
    param_str: "\'num_classes\': 100"
  }
}
layer {
  name: "conv1a"
  type: "Convolution"
  bottom: "data"
  top: "conv1a"
  param {
    lr_mult: 0
    decay_mult: 0
  }
  param {
    lr_mult: 0
    decay_mult: 0
  }
  convolution_param {
    num_output: 64
    pad: 1
    pad: 1
    pad: 1
    kernel_size: 3
    kernel_size: 3
    kernel_size: 3
    weight_filler {
      type: "gaussian"
      std: 0.01
    }
    bias_filler {
      type: "constant"
      value: 0
    }
  }
}
layer {
  name: "relu1a"
  type: "ReLU"
  bottom: "conv1a"
  top: "conv1a"
}
layer {
  name: "pool1"
  type: "Pooling"
  bottom: "conv1a"
  top: "pool1"
  pooling_param {
    pool: MAX
    kernel_size: 1
    kernel_size: 2
    kernel_size: 2
    stride: 1
    stride: 2
    stride: 2
  }
}
layer {
  name: "conv2a"
  type: "Convolution"
  bottom: "pool1"
  top: "conv2a"
  param {
    lr_mult: 0
    decay_mult: 0
  }
  param {
    lr_mult: 0
    decay_mult: 0
  }
  convolution_param {
    num_output: 128
    pad: 1
    pad: 1
    pad: 1
    kernel_size: 3
    kernel_size: 3
    kernel_size: 3
    weight_filler {
      type: "gaussian"
      std: 0.01
    }
    bias_filler {
      type: "constant"
      value: 1
    }
  }
}
layer {
  name: "relu2a"
  type: "ReLU"
  bottom: "conv2a"
  top: "conv2a"
}
layer {
  name: "pool2"
  type: "Pooling"
  bottom: "conv2a"
  top: "pool2"
  pooling_param {
    pool: MAX
    kernel_size: 2
    kernel_size: 2
    kernel_size: 2
    stride: 2
    stride: 2
    stride: 2
  }
}
layer {
  name: "conv3a"
  type: "Convolution"
  bottom: "pool2"
  top: "conv3a"
  param {
    lr_mult: 1
    decay_mult: 1
  }
  param {
    lr_mult: 2
    decay_mult: 0
  }
  convolution_param {
    num_output: 256
    pad: 1
    pad: 1
    pad: 1
    kernel_size: 3
    kernel_size: 3
    kernel_size: 3
    weight_filler {
      type: "gaussian"
      std: 0.01
    }
    bias_filler {
      type: "constant"
      value: 1
    }
  }
}
layer {
  name: "relu3a"
  type: "ReLU"
  bottom: "conv3a"
  top: "conv3a"
}
layer {
  name: "conv3b"
  type: "Convolution"
  bottom: "conv3a"
  top: "conv3b"
  param {
    lr_mult: 1
    decay_mult: 1
  }
  param {
    lr_mult: 2
    decay_mult: 0
  }
  convolution_param {
    num_output: 256
    pad: 1
    pad: 1
    pad: 1
    kernel_size: 3
    kernel_size: 3
    kernel_size: 3
    weight_filler {
      type: "gaussian"
      std: 0.01
    }
    bias_filler {
      type: "constant"
      value: 1
    }
  }
}
layer {
  name: "relu3b"
  type: "ReLU"
  bottom: "conv3b"
  top: "conv3b"
}
layer {
  name: "pool3"
  type: "Pooling"
  bottom: "conv3b"
  top: "pool3"
  pooling_param {
    pool: MAX
    kernel_size: 2
    kernel_size: 2
    kernel_size: 2
    stride: 2
    stride: 2
    stride: 2
  }
}
layer {
  name: "conv4a"
  type: "Convolution"
  bottom: "pool3"
  top: "conv4a"
  param {
    lr_mult: 1
    decay_mult: 1
  }
  param {
    lr_mult: 2
    decay_mult: 0
  }
  convolution_param {
    num_output: 512
    pad: 1
    pad: 1
    pad: 1
    kernel_size: 3
    kernel_size: 3
    kernel_size: 3
    weight_filler {
      type: "gaussian"
      std: 0.01
    }
    bias_filler {
      type: "constant"
      value: 1
    }
  }
}
layer {
  name: "relu4a"
  type: "ReLU"
  bottom: "conv4a"
  top: "conv4a"
}
layer {
  name: "conv4b"
  type: "Convolution"
  bottom: "conv4a"
  top: "conv4b"
  param {
    lr_mult: 1
    decay_mult: 1
  }
  param {
    lr_mult: 2
    decay_mult: 0
  }
  convolution_param {
    num_output: 512
    pad: 1
    pad: 1
    pad: 1
    kernel_size: 3
    kernel_size: 3
    kernel_size: 3
    weight_filler {
      type: "gaussian"
      std: 0.01
    }
    bias_filler {
      type: "constant"
      value: 1
    }
  }
}
layer {
  name: "relu4b"
  type: "ReLU"
  bottom: "conv4b"
  top: "conv4b"
}
layer {
  name: "pool4"
  type: "Pooling"
  bottom: "conv4b"
  top: "pool4"
  pooling_param {
    pool: MAX
    kernel_size: 2
    kernel_size: 2
    kernel_size: 2
    stride: 2
    stride: 2
    stride: 2
  }
}
layer {
  name: "conv5a"
  type: "Convolution"
  bottom: "pool4"
  top: "conv5a"
  param {
    lr_mult: 1
    decay_mult: 1
  }
  param {
    lr_mult: 2
    decay_mult: 0
  }
  convolution_param {
    num_output: 512
    pad: 1
    pad: 1
    pad: 1
    kernel_size: 3
    kernel_size: 3
    kernel_size: 3
    weight_filler {
      type: "gaussian"
      std: 0.01
    }
    bias_filler {
      type: "constant"
      value: 1
    }
  }
}
layer {
  name: "relu5a"
  type: "ReLU"
  bottom: "conv5a"
  top: "conv5a"
}
layer {
  name: "conv5b"
  type: "Convolution"
  bottom: "conv5a"
  top: "conv5b"
  param {
    lr_mult: 1
    decay_mult: 1
  }
  param {
    lr_mult: 2
    decay_mult: 0
  }
  convolution_param {
    num_output: 512
    pad: 1
    pad: 1
    pad: 1
    kernel_size: 3
    kernel_size: 3
    kernel_size: 3
    weight_filler {
      type: "gaussian"
      std: 0.01
    }
    bias_filler {
      type: "constant"
      value: 1
    }
  }
}
layer {
  name: "relu5b"
  type: "ReLU"
  bottom: "conv5b"
  top: "conv5b"
}
layer {
  name: "rpn_conv/3x3"
  type: "Convolution"
  bottom: "conv5b"
  top: "rpn/output"
  param {
    lr_mult: 1
    decay_mult: 1
  }
  param {
    lr_mult: 2
    decay_mult: 0
  }
  convolution_param {
    num_output: 512
    pad: 1
    pad: 1
    pad: 1
    kernel_size: 3
    kernel_size: 3
    kernel_size: 3
    stride: 1
    stride: 2
    stride: 2
    weight_filler {
      type: "gaussian"
      std: 0.01
    }
    bias_filler {
      type: "constant"
      value: 0
    }
  }
}
layer {
  name: "rpn_relu/3x3"
  type: "ReLU"
  bottom: "rpn/output"
  top: "rpn/output"
}
layer {
  name: "rpn_conv/3x3_2"
  type: "Convolution"
  bottom: "rpn/output"
  top: "rpn/output_2"
  param {
    lr_mult: 1
    decay_mult: 1
  }
  param {
    lr_mult: 2
    decay_mult: 0
  }
  convolution_param {
    num_output: 512
    pad: 1
    pad: 1
    pad: 1
    kernel_size: 3
    kernel_size: 3
    kernel_size: 3
    stride: 1
    stride: 2
    stride: 2
    weight_filler {
      type: "gaussian"
      std: 0.01
    }
    bias_filler {
      type: "constant"
      value: 0
    }
  }
}
layer {
  name: "rpn_relu/3x3_2"
  type: "ReLU"
  bottom: "rpn/output_2"
  top: "rpn/output_2"
}
layer {
  name: "rpn/output_pool"
  type: "Pooling"
  bottom: "rpn/output_2"
  top: "rpn/output_pool"
  pooling_param {
    pool: MAX
    kernel_size: 1
    kernel_size: 2
    kernel_size: 2
  }
}
layer {
  name: "rpn_cls_score"
  type: "Convolution"
  bottom: "rpn/output_pool"
  top: "rpn_cls_score"
  param {
    lr_mult: 1
    decay_mult: 1
  }
  param {
    lr_mult: 2
    decay_mult: 0
  }
  convolution_param {
    num_output: 74
    kernel_size: 1
    kernel_size: 1
    kernel_size: 1
    weight_filler {
      type: "gaussian"
      std: 0.01
    }
    bias_filler {
      type: "constant"
      value: 0
    }
  }
}
layer {
  name: "rpn_twin_pred"
  type: "Convolution"
  bottom: "rpn/output_pool"
  top: "rpn_twin_pred"
  param {
    lr_mult: 1
    decay_mult: 1
  }
  param {
    lr_mult: 2
    decay_mult: 0
  }
  convolution_param {
    num_output: 74
    kernel_size: 1
    kernel_size: 1
    kernel_size: 1
    weight_filler {
      type: "gaussian"
      std: 0.01
    }
    bias_filler {
      type: "constant"
      value: 0
    }
  }
}
layer {
  name: "rpn_cls_score_reshape"
  type: "Reshape"
  bottom: "rpn_cls_score"
  top: "rpn_cls_score_reshape"
  reshape_param {
    shape {
      dim: 0
      dim: 2
      dim: -1
      dim: 0
      dim: 0
    }
  }
}
layer {
  name: "rpn-data"
  type: "Python"
  bottom: "rpn_cls_score"
  bottom: "gt_boxes"
  bottom: "data"
  top: "rpn_labels"
  top: "rpn_twin_targets"
  top: "rpn_twin_inside_weights"
  top: "rpn_twin_outside_weights"
  python_param {
    module: "rpn.anchor_target_layer"
    layer: "AnchorTargetLayer"
    param_str: "\'feat_stride\': 8 \n\'scales\': !!python/tuple [1,1.25, 1.5,1.75, 2,2.5, 3,3.5, 4,4.5, 5,5.5, 6,7, 8,9,10,11,12,14,16,18,20,22,24,28,32,36,40,44,52,60,68,76,84,92,100]"
  }
}
layer {
  name: "rpn_loss_cls"
  type: "SoftmaxWithLoss"
  bottom: "rpn_cls_score_reshape"
  bottom: "rpn_labels"
  top: "rpn_cls_loss"
  loss_weight: 1
  propagate_down: true
  propagate_down: false
  loss_param {
    ignore_label: -1
    normalize: true
  }
}
layer {
  name: "rpn_loss_twin"
  type: "SmoothL1Loss"
  bottom: "rpn_twin_pred"
  bottom: "rpn_twin_targets"
  bottom: "rpn_twin_inside_weights"
  bottom: "rpn_twin_outside_weights"
  top: "rpn_loss_twin"
  loss_weight: 1
  smooth_l1_loss_param {
    sigma: 3
  }
}
layer {
  name: "rpn_accuarcy"
  type: "Accuracy"
  bottom: "rpn_cls_score_reshape"
  bottom: "rpn_labels"
  top: "rpn_accuarcy"
  top: "rpn_accuarcy_class"
  propagate_down: false
  propagate_down: false
  accuracy_param {
    ignore_label: -1
  }
}
layer {
  name: "rpn_cls_prob"
  type: "Softmax"
  bottom: "rpn_cls_score_reshape"
  top: "rpn_cls_prob"
}
layer {
  name: "rpn_cls_prob_reshape"
  type: "Reshape"
  bottom: "rpn_cls_prob"
  top: "rpn_cls_prob_reshape"
  reshape_param {
    shape {
      dim: 0
      dim: 74
      dim: -1
      dim: 0
      dim: 0
    }
  }
}
layer {
  name: "proposal"
  type: "Python"
  bottom: "rpn_cls_prob_reshape"
  bottom: "rpn_twin_pred"
  top: "rpn_rois"
  include {
    phase: TRAIN
  }
  python_param {
    module: "rpn.proposal_layer"
    layer: "ProposalLayer"
    param_str: "\'feat_stride\': 8 \n\'scales\': !!python/tuple [1,1.25, 1.5,1.75, 2,2.5, 3,3.5, 4,4.5, 5,5.5, 6,7, 8,9,10,11,12,14,16,18,20,22,24,28,32,36,40,44,52,60,68,76,84,92,100]"
  }
}
layer {
  name: "roi-data"
  type: "Python"
  bottom: "rpn_rois"
  bottom: "gt_boxes"
  top: "rois"
  top: "labels"
  top: "twin_targets"
  top: "twin_inside_weights"
  top: "twin_outside_weights"
  python_param {
    module: "rpn.proposal_target_layer"
    layer: "ProposalTargetLayer"
    param_str: "\'num_classes\': 99"
  }
}
layer {
  name: "roi_pool5"
  type: "ROIPooling"
  bottom: "conv5b"
  bottom: "rois"
  top: "pool5"
  roi_pooling_param {
    pooled_h: 4
    pooled_w: 4
    spatial_scale: 0.0625
    pooled_l: 1
    temporal_scale: 0.125
  }
}
layer {
  name: "fc6"
  type: "InnerProduct"
  bottom: "pool5"
  top: "fc6"
  param {
    lr_mult: 1
    decay_mult: 1
  }
  param {
    lr_mult: 2
    decay_mult: 0
  }
  inner_product_param {
    num_output: 4096
    weight_filler {
      type: "gaussian"
      std: 0.005
    }
    bias_filler {
      type: "constant"
      value: 1
    }
  }
}
layer {
  name: "relu6"
  type: "ReLU"
  bottom: "fc6"
  top: "fc6"
}
layer {
  name: "drop6"
  type: "Dropout"
  bottom: "fc6"
  top: "fc6"
  dropout_param {
    dropout_ratio: 0.5
  }
}
layer {
  name: "cls_score"
  type: "InnerProduct"
  bottom: "fc6"
  top: "cls_score"
  param {
    lr_mult: 1
    decay_mult: 1
  }
  param {
    lr_mult: 2
    decay_mult: 0
  }
  inner_product_param {
    num_output: 9900
    weight_filler {
      type: "gaussian"
      std: 0.01
    }
    bias_filler {
      type: "constant"
      value: 0
    }
  }
}
layer {
  name: "twin_pred"
  type: "InnerProduct"
  bottom: "fc6"
  top: "twin_pred"
  param {
    lr_mult: 1
    decay_mult: 1
  }
  param {
    lr_mult: 2
    decay_mult: 0
  }
  inner_product_param {
    num_output: 198
    weight_filler {
      type: "gaussian"
      std: 0.001
    }
    bias_filler {
      type: "constant"
      value: 0
    }
  }
}
layer {
  name: "loss_cls"
  type: "SoftmaxWithLoss"
  bottom: "cls_score"
  bottom: "labels"
  top: "loss_cls"
  loss_weight: 1
  propagate_down: true
  propagate_down: false
}
layer {
  name: "loss_twin"
  type: "SmoothL1Loss"
  bottom: "twin_pred"
  bottom: "twin_targets"
  bottom: "twin_inside_weights"
  bottom: "twin_outside_weights"
  top: "loss_twin"
  loss_weight: 1
}
layer {
  name: "accuarcy"
  type: "Accuracy"
  bottom: "cls_score"
  bottom: "labels"
  top: "accuarcy"
  propagate_down: false
  propagate_down: false
  accuracy_param {
    ignore_label: -1
  }
}
I0418 04:17:39.173143 25161 layer_factory.hpp:77] Creating layer data
I0418 04:17:39.199412 25161 net.cpp:100] Creating Layer data
I0418 04:17:39.199439 25161 net.cpp:408] data -> data
I0418 04:17:39.199453 25161 net.cpp:408] data -> gt_boxes
setting up
has rpn
RoiDataLayer: name_to_top: {'gt_windows': 1, 'data': 0}
I0418 04:17:39.213384 25161 net.cpp:150] Setting up data
I0418 04:17:39.213408 25161 net.cpp:157] Top shape: 1 3 768 112 112 (28901376)
I0418 04:17:39.213414 25161 net.cpp:157] Top shape: 1 101 (101)
I0418 04:17:39.213418 25161 net.cpp:165] Memory required for data: 115605908
I0418 04:17:39.213424 25161 layer_factory.hpp:77] Creating layer data_data_0_split
I0418 04:17:39.213436 25161 net.cpp:100] Creating Layer data_data_0_split
I0418 04:17:39.213440 25161 net.cpp:434] data_data_0_split <- data
I0418 04:17:39.213448 25161 net.cpp:408] data_data_0_split -> data_data_0_split_0
I0418 04:17:39.213456 25161 net.cpp:408] data_data_0_split -> data_data_0_split_1
I0418 04:17:39.213487 25161 net.cpp:150] Setting up data_data_0_split
I0418 04:17:39.213500 25161 net.cpp:157] Top shape: 1 3 768 112 112 (28901376)
I0418 04:17:39.213505 25161 net.cpp:157] Top shape: 1 3 768 112 112 (28901376)
I0418 04:17:39.213507 25161 net.cpp:165] Memory required for data: 346816916
I0418 04:17:39.213511 25161 layer_factory.hpp:77] Creating layer gt_boxes_data_1_split
I0418 04:17:39.213520 25161 net.cpp:100] Creating Layer gt_boxes_data_1_split
I0418 04:17:39.213522 25161 net.cpp:434] gt_boxes_data_1_split <- gt_boxes
I0418 04:17:39.213527 25161 net.cpp:408] gt_boxes_data_1_split -> gt_boxes_data_1_split_0
I0418 04:17:39.213533 25161 net.cpp:408] gt_boxes_data_1_split -> gt_boxes_data_1_split_1
I0418 04:17:39.213560 25161 net.cpp:150] Setting up gt_boxes_data_1_split
I0418 04:17:39.213565 25161 net.cpp:157] Top shape: 1 101 (101)
I0418 04:17:39.213570 25161 net.cpp:157] Top shape: 1 101 (101)
I0418 04:17:39.213573 25161 net.cpp:165] Memory required for data: 346817724
I0418 04:17:39.213577 25161 layer_factory.hpp:77] Creating layer conv1a
I0418 04:17:39.213593 25161 net.cpp:100] Creating Layer conv1a
I0418 04:17:39.213596 25161 net.cpp:434] conv1a <- data_data_0_split_0
I0418 04:17:39.213608 25161 net.cpp:408] conv1a -> conv1a
I0418 04:17:39.412823 25161 net.cpp:150] Setting up conv1a
I0418 04:17:39.412854 25161 net.cpp:157] Top shape: 1 64 768 112 112 (616562688)
I0418 04:17:39.412859 25161 net.cpp:165] Memory required for data: 2813068476
I0418 04:17:39.412880 25161 layer_factory.hpp:77] Creating layer relu1a
I0418 04:17:39.412895 25161 net.cpp:100] Creating Layer relu1a
I0418 04:17:39.412900 25161 net.cpp:434] relu1a <- conv1a
I0418 04:17:39.412906 25161 net.cpp:395] relu1a -> conv1a (in-place)
I0418 04:17:39.413369 25161 net.cpp:150] Setting up relu1a
I0418 04:17:39.413383 25161 net.cpp:157] Top shape: 1 64 768 112 112 (616562688)
I0418 04:17:39.413388 25161 net.cpp:165] Memory required for data: 5279319228
I0418 04:17:39.413391 25161 layer_factory.hpp:77] Creating layer pool1
I0418 04:17:39.413401 25161 net.cpp:100] Creating Layer pool1
I0418 04:17:39.413405 25161 net.cpp:434] pool1 <- conv1a
I0418 04:17:39.413411 25161 net.cpp:408] pool1 -> pool1
I0418 04:17:39.413596 25161 net.cpp:150] Setting up pool1
I0418 04:17:39.413609 25161 net.cpp:157] Top shape: 1 64 768 56 56 (154140672)
I0418 04:17:39.413611 25161 net.cpp:165] Memory required for data: 5895881916
I0418 04:17:39.413615 25161 layer_factory.hpp:77] Creating layer conv2a
I0418 04:17:39.413627 25161 net.cpp:100] Creating Layer conv2a
I0418 04:17:39.413632 25161 net.cpp:434] conv2a <- pool1
I0418 04:17:39.413637 25161 net.cpp:408] conv2a -> conv2a
I0418 04:17:39.425204 25161 net.cpp:150] Setting up conv2a
I0418 04:17:39.425228 25161 net.cpp:157] Top shape: 1 128 768 56 56 (308281344)
I0418 04:17:39.425232 25161 net.cpp:165] Memory required for data: 7129007292
I0418 04:17:39.425246 25161 layer_factory.hpp:77] Creating layer relu2a
I0418 04:17:39.425254 25161 net.cpp:100] Creating Layer relu2a
I0418 04:17:39.425258 25161 net.cpp:434] relu2a <- conv2a
I0418 04:17:39.425264 25161 net.cpp:395] relu2a -> conv2a (in-place)
I0418 04:17:39.425598 25161 net.cpp:150] Setting up relu2a
I0418 04:17:39.425612 25161 net.cpp:157] Top shape: 1 128 768 56 56 (308281344)
I0418 04:17:39.425616 25161 net.cpp:165] Memory required for data: 8362132668
I0418 04:17:39.425621 25161 layer_factory.hpp:77] Creating layer pool2
I0418 04:17:39.425631 25161 net.cpp:100] Creating Layer pool2
I0418 04:17:39.425637 25161 net.cpp:434] pool2 <- conv2a
I0418 04:17:39.425644 25161 net.cpp:408] pool2 -> pool2
I0418 04:17:39.425825 25161 net.cpp:150] Setting up pool2
I0418 04:17:39.425837 25161 net.cpp:157] Top shape: 1 128 384 28 28 (38535168)
I0418 04:17:39.425842 25161 net.cpp:165] Memory required for data: 8516273340
I0418 04:17:39.425845 25161 layer_factory.hpp:77] Creating layer conv3a
I0418 04:17:39.425856 25161 net.cpp:100] Creating Layer conv3a
I0418 04:17:39.425863 25161 net.cpp:434] conv3a <- pool2
I0418 04:17:39.425871 25161 net.cpp:408] conv3a -> conv3a
I0418 04:17:39.454756 25161 net.cpp:150] Setting up conv3a
I0418 04:17:39.454797 25161 net.cpp:157] Top shape: 1 256 384 28 28 (77070336)
I0418 04:17:39.454802 25161 net.cpp:165] Memory required for data: 8824554684
I0418 04:17:39.454815 25161 layer_factory.hpp:77] Creating layer relu3a
I0418 04:17:39.454828 25161 net.cpp:100] Creating Layer relu3a
I0418 04:17:39.454833 25161 net.cpp:434] relu3a <- conv3a
I0418 04:17:39.454839 25161 net.cpp:395] relu3a -> conv3a (in-place)
I0418 04:17:39.455157 25161 net.cpp:150] Setting up relu3a
I0418 04:17:39.455173 25161 net.cpp:157] Top shape: 1 256 384 28 28 (77070336)
I0418 04:17:39.455175 25161 net.cpp:165] Memory required for data: 9132836028
I0418 04:17:39.455179 25161 layer_factory.hpp:77] Creating layer conv3b
I0418 04:17:39.455191 25161 net.cpp:100] Creating Layer conv3b
I0418 04:17:39.455195 25161 net.cpp:434] conv3b <- conv3a
I0418 04:17:39.455202 25161 net.cpp:408] conv3b -> conv3b
I0418 04:17:39.508340 25161 net.cpp:150] Setting up conv3b
I0418 04:17:39.508365 25161 net.cpp:157] Top shape: 1 256 384 28 28 (77070336)
I0418 04:17:39.508369 25161 net.cpp:165] Memory required for data: 9441117372
I0418 04:17:39.508379 25161 layer_factory.hpp:77] Creating layer relu3b
I0418 04:17:39.508389 25161 net.cpp:100] Creating Layer relu3b
I0418 04:17:39.508394 25161 net.cpp:434] relu3b <- conv3b
I0418 04:17:39.508400 25161 net.cpp:395] relu3b -> conv3b (in-place)
I0418 04:17:39.508710 25161 net.cpp:150] Setting up relu3b
I0418 04:17:39.508724 25161 net.cpp:157] Top shape: 1 256 384 28 28 (77070336)
I0418 04:17:39.508728 25161 net.cpp:165] Memory required for data: 9749398716
I0418 04:17:39.508731 25161 layer_factory.hpp:77] Creating layer pool3
I0418 04:17:39.508740 25161 net.cpp:100] Creating Layer pool3
I0418 04:17:39.508747 25161 net.cpp:434] pool3 <- conv3b
I0418 04:17:39.508754 25161 net.cpp:408] pool3 -> pool3
I0418 04:17:39.508934 25161 net.cpp:150] Setting up pool3
I0418 04:17:39.508952 25161 net.cpp:157] Top shape: 1 256 192 14 14 (9633792)
I0418 04:17:39.508955 25161 net.cpp:165] Memory required for data: 9787933884
I0418 04:17:39.508960 25161 layer_factory.hpp:77] Creating layer conv4a
I0418 04:17:39.508970 25161 net.cpp:100] Creating Layer conv4a
I0418 04:17:39.508976 25161 net.cpp:434] conv4a <- pool3
I0418 04:17:39.508983 25161 net.cpp:408] conv4a -> conv4a
I0418 04:17:39.606562 25161 net.cpp:150] Setting up conv4a
I0418 04:17:39.606590 25161 net.cpp:157] Top shape: 1 512 192 14 14 (19267584)
I0418 04:17:39.606595 25161 net.cpp:165] Memory required for data: 9865004220
I0418 04:17:39.606609 25161 layer_factory.hpp:77] Creating layer relu4a
I0418 04:17:39.606619 25161 net.cpp:100] Creating Layer relu4a
I0418 04:17:39.606624 25161 net.cpp:434] relu4a <- conv4a
I0418 04:17:39.606631 25161 net.cpp:395] relu4a -> conv4a (in-place)
I0418 04:17:39.606983 25161 net.cpp:150] Setting up relu4a
I0418 04:17:39.607004 25161 net.cpp:157] Top shape: 1 512 192 14 14 (19267584)
I0418 04:17:39.607008 25161 net.cpp:165] Memory required for data: 9942074556
I0418 04:17:39.607012 25161 layer_factory.hpp:77] Creating layer conv4b
I0418 04:17:39.607028 25161 net.cpp:100] Creating Layer conv4b
I0418 04:17:39.607033 25161 net.cpp:434] conv4b <- conv4a
I0418 04:17:39.607041 25161 net.cpp:408] conv4b -> conv4b
I0418 04:17:39.800030 25161 net.cpp:150] Setting up conv4b
I0418 04:17:39.800058 25161 net.cpp:157] Top shape: 1 512 192 14 14 (19267584)
I0418 04:17:39.800062 25161 net.cpp:165] Memory required for data: 10019144892
I0418 04:17:39.800071 25161 layer_factory.hpp:77] Creating layer relu4b
I0418 04:17:39.800082 25161 net.cpp:100] Creating Layer relu4b
I0418 04:17:39.800087 25161 net.cpp:434] relu4b <- conv4b
I0418 04:17:39.800093 25161 net.cpp:395] relu4b -> conv4b (in-place)
I0418 04:17:39.800258 25161 net.cpp:150] Setting up relu4b
I0418 04:17:39.800271 25161 net.cpp:157] Top shape: 1 512 192 14 14 (19267584)
I0418 04:17:39.800274 25161 net.cpp:165] Memory required for data: 10096215228
I0418 04:17:39.800278 25161 layer_factory.hpp:77] Creating layer pool4
I0418 04:17:39.800287 25161 net.cpp:100] Creating Layer pool4
I0418 04:17:39.800290 25161 net.cpp:434] pool4 <- conv4b
I0418 04:17:39.800297 25161 net.cpp:408] pool4 -> pool4
I0418 04:17:39.800638 25161 net.cpp:150] Setting up pool4
I0418 04:17:39.800652 25161 net.cpp:157] Top shape: 1 512 96 7 7 (2408448)
I0418 04:17:39.800657 25161 net.cpp:165] Memory required for data: 10105849020
I0418 04:17:39.800660 25161 layer_factory.hpp:77] Creating layer conv5a
I0418 04:17:39.800675 25161 net.cpp:100] Creating Layer conv5a
I0418 04:17:39.800679 25161 net.cpp:434] conv5a <- pool4
I0418 04:17:39.800685 25161 net.cpp:408] conv5a -> conv5a
I0418 04:17:39.989678 25161 net.cpp:150] Setting up conv5a
I0418 04:17:39.989703 25161 net.cpp:157] Top shape: 1 512 96 7 7 (2408448)
I0418 04:17:39.989706 25161 net.cpp:165] Memory required for data: 10115482812
I0418 04:17:39.989715 25161 layer_factory.hpp:77] Creating layer relu5a
I0418 04:17:39.989724 25161 net.cpp:100] Creating Layer relu5a
I0418 04:17:39.989728 25161 net.cpp:434] relu5a <- conv5a
I0418 04:17:39.989734 25161 net.cpp:395] relu5a -> conv5a (in-place)
I0418 04:17:39.990149 25161 net.cpp:150] Setting up relu5a
I0418 04:17:39.990160 25161 net.cpp:157] Top shape: 1 512 96 7 7 (2408448)
I0418 04:17:39.990164 25161 net.cpp:165] Memory required for data: 10125116604
I0418 04:17:39.990167 25161 layer_factory.hpp:77] Creating layer conv5b
I0418 04:17:39.990180 25161 net.cpp:100] Creating Layer conv5b
I0418 04:17:39.990185 25161 net.cpp:434] conv5b <- conv5a
I0418 04:17:39.990192 25161 net.cpp:408] conv5b -> conv5b
I0418 04:17:40.180661 25161 net.cpp:150] Setting up conv5b
I0418 04:17:40.180688 25161 net.cpp:157] Top shape: 1 512 96 7 7 (2408448)
I0418 04:17:40.180692 25161 net.cpp:165] Memory required for data: 10134750396
I0418 04:17:40.180701 25161 layer_factory.hpp:77] Creating layer relu5b
I0418 04:17:40.180709 25161 net.cpp:100] Creating Layer relu5b
I0418 04:17:40.180714 25161 net.cpp:434] relu5b <- conv5b
I0418 04:17:40.180721 25161 net.cpp:395] relu5b -> conv5b (in-place)
I0418 04:17:40.180871 25161 net.cpp:150] Setting up relu5b
I0418 04:17:40.180881 25161 net.cpp:157] Top shape: 1 512 96 7 7 (2408448)
I0418 04:17:40.180888 25161 net.cpp:165] Memory required for data: 10144384188
I0418 04:17:40.180892 25161 layer_factory.hpp:77] Creating layer conv5b_relu5b_0_split
I0418 04:17:40.180897 25161 net.cpp:100] Creating Layer conv5b_relu5b_0_split
I0418 04:17:40.180900 25161 net.cpp:434] conv5b_relu5b_0_split <- conv5b
I0418 04:17:40.180907 25161 net.cpp:408] conv5b_relu5b_0_split -> conv5b_relu5b_0_split_0
I0418 04:17:40.180912 25161 net.cpp:408] conv5b_relu5b_0_split -> conv5b_relu5b_0_split_1
I0418 04:17:40.180951 25161 net.cpp:150] Setting up conv5b_relu5b_0_split
I0418 04:17:40.180958 25161 net.cpp:157] Top shape: 1 512 96 7 7 (2408448)
I0418 04:17:40.180963 25161 net.cpp:157] Top shape: 1 512 96 7 7 (2408448)
I0418 04:17:40.180966 25161 net.cpp:165] Memory required for data: 10163651772
I0418 04:17:40.180969 25161 layer_factory.hpp:77] Creating layer rpn_conv/3x3
I0418 04:17:40.180979 25161 net.cpp:100] Creating Layer rpn_conv/3x3
I0418 04:17:40.180985 25161 net.cpp:434] rpn_conv/3x3 <- conv5b_relu5b_0_split_0
I0418 04:17:40.180992 25161 net.cpp:408] rpn_conv/3x3 -> rpn/output
I0418 04:17:40.367811 25161 net.cpp:150] Setting up rpn_conv/3x3
I0418 04:17:40.367846 25161 net.cpp:157] Top shape: 1 512 96 4 4 (786432)
I0418 04:17:40.367851 25161 net.cpp:165] Memory required for data: 10166797500
I0418 04:17:40.367863 25161 layer_factory.hpp:77] Creating layer rpn_relu/3x3
I0418 04:17:40.367873 25161 net.cpp:100] Creating Layer rpn_relu/3x3
I0418 04:17:40.367877 25161 net.cpp:434] rpn_relu/3x3 <- rpn/output
I0418 04:17:40.367883 25161 net.cpp:395] rpn_relu/3x3 -> rpn/output (in-place)
I0418 04:17:40.368187 25161 net.cpp:150] Setting up rpn_relu/3x3
I0418 04:17:40.368199 25161 net.cpp:157] Top shape: 1 512 96 4 4 (786432)
I0418 04:17:40.368203 25161 net.cpp:165] Memory required for data: 10169943228
I0418 04:17:40.368208 25161 layer_factory.hpp:77] Creating layer rpn_conv/3x3_2
I0418 04:17:40.368219 25161 net.cpp:100] Creating Layer rpn_conv/3x3_2
I0418 04:17:40.368224 25161 net.cpp:434] rpn_conv/3x3_2 <- rpn/output
I0418 04:17:40.368229 25161 net.cpp:408] rpn_conv/3x3_2 -> rpn/output_2
I0418 04:17:40.554620 25161 net.cpp:150] Setting up rpn_conv/3x3_2
I0418 04:17:40.554646 25161 net.cpp:157] Top shape: 1 512 96 2 2 (196608)
I0418 04:17:40.554649 25161 net.cpp:165] Memory required for data: 10170729660
I0418 04:17:40.554658 25161 layer_factory.hpp:77] Creating layer rpn_relu/3x3_2
I0418 04:17:40.554668 25161 net.cpp:100] Creating Layer rpn_relu/3x3_2
I0418 04:17:40.554672 25161 net.cpp:434] rpn_relu/3x3_2 <- rpn/output_2
I0418 04:17:40.554682 25161 net.cpp:395] rpn_relu/3x3_2 -> rpn/output_2 (in-place)
I0418 04:17:40.555526 25161 net.cpp:150] Setting up rpn_relu/3x3_2
I0418 04:17:40.555555 25161 net.cpp:157] Top shape: 1 512 96 2 2 (196608)
I0418 04:17:40.555564 25161 net.cpp:165] Memory required for data: 10171516092
I0418 04:17:40.555572 25161 layer_factory.hpp:77] Creating layer rpn/output_pool
I0418 04:17:40.555584 25161 net.cpp:100] Creating Layer rpn/output_pool
I0418 04:17:40.555595 25161 net.cpp:434] rpn/output_pool <- rpn/output_2
I0418 04:17:40.555610 25161 net.cpp:408] rpn/output_pool -> rpn/output_pool
I0418 04:17:40.555991 25161 net.cpp:150] Setting up rpn/output_pool
I0418 04:17:40.556012 25161 net.cpp:157] Top shape: 1 512 96 1 1 (49152)
I0418 04:17:40.556020 25161 net.cpp:165] Memory required for data: 10171712700
I0418 04:17:40.556028 25161 layer_factory.hpp:77] Creating layer rpn/output_pool_rpn/output_pool_0_split
I0418 04:17:40.556042 25161 net.cpp:100] Creating Layer rpn/output_pool_rpn/output_pool_0_split
I0418 04:17:40.556049 25161 net.cpp:434] rpn/output_pool_rpn/output_pool_0_split <- rpn/output_pool
I0418 04:17:40.556059 25161 net.cpp:408] rpn/output_pool_rpn/output_pool_0_split -> rpn/output_pool_rpn/output_pool_0_split_0
I0418 04:17:40.556073 25161 net.cpp:408] rpn/output_pool_rpn/output_pool_0_split -> rpn/output_pool_rpn/output_pool_0_split_1
I0418 04:17:40.556141 25161 net.cpp:150] Setting up rpn/output_pool_rpn/output_pool_0_split
I0418 04:17:40.556154 25161 net.cpp:157] Top shape: 1 512 96 1 1 (49152)
I0418 04:17:40.556162 25161 net.cpp:157] Top shape: 1 512 96 1 1 (49152)
I0418 04:17:40.556174 25161 net.cpp:165] Memory required for data: 10172105916
I0418 04:17:40.556180 25161 layer_factory.hpp:77] Creating layer rpn_cls_score
I0418 04:17:40.556197 25161 net.cpp:100] Creating Layer rpn_cls_score
I0418 04:17:40.556205 25161 net.cpp:434] rpn_cls_score <- rpn/output_pool_rpn/output_pool_0_split_0
I0418 04:17:40.556218 25161 net.cpp:408] rpn_cls_score -> rpn_cls_score
I0418 04:17:40.560999 25161 net.cpp:150] Setting up rpn_cls_score
I0418 04:17:40.561029 25161 net.cpp:157] Top shape: 1 74 96 1 1 (7104)
I0418 04:17:40.561038 25161 net.cpp:165] Memory required for data: 10172134332
I0418 04:17:40.561050 25161 layer_factory.hpp:77] Creating layer rpn_cls_score_rpn_cls_score_0_split
I0418 04:17:40.561061 25161 net.cpp:100] Creating Layer rpn_cls_score_rpn_cls_score_0_split
I0418 04:17:40.561069 25161 net.cpp:434] rpn_cls_score_rpn_cls_score_0_split <- rpn_cls_score
I0418 04:17:40.561080 25161 net.cpp:408] rpn_cls_score_rpn_cls_score_0_split -> rpn_cls_score_rpn_cls_score_0_split_0
I0418 04:17:40.561102 25161 net.cpp:408] rpn_cls_score_rpn_cls_score_0_split -> rpn_cls_score_rpn_cls_score_0_split_1
I0418 04:17:40.561183 25161 net.cpp:150] Setting up rpn_cls_score_rpn_cls_score_0_split
I0418 04:17:40.561199 25161 net.cpp:157] Top shape: 1 74 96 1 1 (7104)
I0418 04:17:40.561209 25161 net.cpp:157] Top shape: 1 74 96 1 1 (7104)
I0418 04:17:40.561216 25161 net.cpp:165] Memory required for data: 10172191164
I0418 04:17:40.561223 25161 layer_factory.hpp:77] Creating layer rpn_twin_pred
I0418 04:17:40.561244 25161 net.cpp:100] Creating Layer rpn_twin_pred
I0418 04:17:40.561254 25161 net.cpp:434] rpn_twin_pred <- rpn/output_pool_rpn/output_pool_0_split_1
I0418 04:17:40.561266 25161 net.cpp:408] rpn_twin_pred -> rpn_twin_pred
I0418 04:17:40.566362 25161 net.cpp:150] Setting up rpn_twin_pred
I0418 04:17:40.566390 25161 net.cpp:157] Top shape: 1 74 96 1 1 (7104)
I0418 04:17:40.566397 25161 net.cpp:165] Memory required for data: 10172219580
I0418 04:17:40.566409 25161 layer_factory.hpp:77] Creating layer rpn_twin_pred_rpn_twin_pred_0_split
I0418 04:17:40.566427 25161 net.cpp:100] Creating Layer rpn_twin_pred_rpn_twin_pred_0_split
I0418 04:17:40.566434 25161 net.cpp:434] rpn_twin_pred_rpn_twin_pred_0_split <- rpn_twin_pred
I0418 04:17:40.566444 25161 net.cpp:408] rpn_twin_pred_rpn_twin_pred_0_split -> rpn_twin_pred_rpn_twin_pred_0_split_0
I0418 04:17:40.566462 25161 net.cpp:408] rpn_twin_pred_rpn_twin_pred_0_split -> rpn_twin_pred_rpn_twin_pred_0_split_1
I0418 04:17:40.566560 25161 net.cpp:150] Setting up rpn_twin_pred_rpn_twin_pred_0_split
I0418 04:17:40.566574 25161 net.cpp:157] Top shape: 1 74 96 1 1 (7104)
I0418 04:17:40.566583 25161 net.cpp:157] Top shape: 1 74 96 1 1 (7104)
I0418 04:17:40.566589 25161 net.cpp:165] Memory required for data: 10172276412
I0418 04:17:40.566596 25161 layer_factory.hpp:77] Creating layer rpn_cls_score_reshape
I0418 04:17:40.566615 25161 net.cpp:100] Creating Layer rpn_cls_score_reshape
I0418 04:17:40.566624 25161 net.cpp:434] rpn_cls_score_reshape <- rpn_cls_score_rpn_cls_score_0_split_0
I0418 04:17:40.566634 25161 net.cpp:408] rpn_cls_score_reshape -> rpn_cls_score_reshape
I0418 04:17:40.566689 25161 net.cpp:150] Setting up rpn_cls_score_reshape
I0418 04:17:40.566701 25161 net.cpp:157] Top shape: 1 2 3552 1 1 (7104)
I0418 04:17:40.566709 25161 net.cpp:165] Memory required for data: 10172304828
I0418 04:17:40.566715 25161 layer_factory.hpp:77] Creating layer rpn_cls_score_reshape_rpn_cls_score_reshape_0_split
I0418 04:17:40.566725 25161 net.cpp:100] Creating Layer rpn_cls_score_reshape_rpn_cls_score_reshape_0_split
I0418 04:17:40.566730 25161 net.cpp:434] rpn_cls_score_reshape_rpn_cls_score_reshape_0_split <- rpn_cls_score_reshape
I0418 04:17:40.566743 25161 net.cpp:408] rpn_cls_score_reshape_rpn_cls_score_reshape_0_split -> rpn_cls_score_reshape_rpn_cls_score_reshape_0_split_0
I0418 04:17:40.566773 25161 net.cpp:408] rpn_cls_score_reshape_rpn_cls_score_reshape_0_split -> rpn_cls_score_reshape_rpn_cls_score_reshape_0_split_1
I0418 04:17:40.566790 25161 net.cpp:408] rpn_cls_score_reshape_rpn_cls_score_reshape_0_split -> rpn_cls_score_reshape_rpn_cls_score_reshape_0_split_2
I0418 04:17:40.566891 25161 net.cpp:150] Setting up rpn_cls_score_reshape_rpn_cls_score_reshape_0_split
I0418 04:17:40.566907 25161 net.cpp:157] Top shape: 1 2 3552 1 1 (7104)
I0418 04:17:40.566915 25161 net.cpp:157] Top shape: 1 2 3552 1 1 (7104)
I0418 04:17:40.566925 25161 net.cpp:157] Top shape: 1 2 3552 1 1 (7104)
I0418 04:17:40.566932 25161 net.cpp:165] Memory required for data: 10172390076
I0418 04:17:40.566938 25161 layer_factory.hpp:77] Creating layer rpn-data
I0418 04:17:40.567611 25161 net.cpp:100] Creating Layer rpn-data
I0418 04:17:40.567634 25161 net.cpp:434] rpn-data <- rpn_cls_score_rpn_cls_score_0_split_1
I0418 04:17:40.567647 25161 net.cpp:434] rpn-data <- gt_boxes_data_1_split_0
I0418 04:17:40.567658 25161 net.cpp:434] rpn-data <- data_data_0_split_1
I0418 04:17:40.567670 25161 net.cpp:408] rpn-data -> rpn_labels
I0418 04:17:40.567687 25161 net.cpp:408] rpn-data -> rpn_twin_targets
I0418 04:17:40.567700 25161 net.cpp:408] rpn-data -> rpn_twin_inside_weights
I0418 04:17:40.567714 25161 net.cpp:408] rpn-data -> rpn_twin_outside_weights
I0418 04:17:40.572053 25161 net.cpp:150] Setting up rpn-data
I0418 04:17:40.572070 25161 net.cpp:157] Top shape: 1 1 3552 1 1 (3552)
I0418 04:17:40.572075 25161 net.cpp:157] Top shape: 1 74 96 1 1 (7104)
I0418 04:17:40.572078 25161 net.cpp:157] Top shape: 1 74 96 1 1 (7104)
I0418 04:17:40.572082 25161 net.cpp:157] Top shape: 1 74 96 1 1 (7104)
I0418 04:17:40.572085 25161 net.cpp:165] Memory required for data: 10172489532
I0418 04:17:40.572090 25161 layer_factory.hpp:77] Creating layer rpn_labels_rpn-data_0_split
I0418 04:17:40.572096 25161 net.cpp:100] Creating Layer rpn_labels_rpn-data_0_split
I0418 04:17:40.572100 25161 net.cpp:434] rpn_labels_rpn-data_0_split <- rpn_labels
I0418 04:17:40.572108 25161 net.cpp:408] rpn_labels_rpn-data_0_split -> rpn_labels_rpn-data_0_split_0
I0418 04:17:40.572118 25161 net.cpp:408] rpn_labels_rpn-data_0_split -> rpn_labels_rpn-data_0_split_1
I0418 04:17:40.572155 25161 net.cpp:150] Setting up rpn_labels_rpn-data_0_split
I0418 04:17:40.572161 25161 net.cpp:157] Top shape: 1 1 3552 1 1 (3552)
I0418 04:17:40.572165 25161 net.cpp:157] Top shape: 1 1 3552 1 1 (3552)
I0418 04:17:40.572168 25161 net.cpp:165] Memory required for data: 10172517948
I0418 04:17:40.572172 25161 layer_factory.hpp:77] Creating layer rpn_loss_cls
I0418 04:17:40.572181 25161 net.cpp:100] Creating Layer rpn_loss_cls
I0418 04:17:40.572185 25161 net.cpp:434] rpn_loss_cls <- rpn_cls_score_reshape_rpn_cls_score_reshape_0_split_0
I0418 04:17:40.572190 25161 net.cpp:434] rpn_loss_cls <- rpn_labels_rpn-data_0_split_0
…
