…
stepsize: 350000
snapshot: 0
snapshot_prefix: "./experiments/activitynet/snapshot/activitynet"
average_loss: 100
iter_size: 1
I0416 10:45:34.340396  7918 solver.cpp:81] Creating training net from train_net file: ./experiments/activitynet/train.prototxt
I0416 10:45:34.340966  7918 net.cpp:58] Initializing net from parameters: 
name: "activitynet"
state {
  phase: TRAIN
}
layer {
  name: "data"
  type: "Python"
  top: "data"
  top: "gt_boxes"
  python_param {
    module: "roi_data_layer.layer"
    layer: "RoIDataLayer"
    param_str: "\'num_classes\': 100"
  }
}
layer {
  name: "conv1a"
  type: "Convolution"
  bottom: "data"
  top: "conv1a"
  param {
    lr_mult: 0
    decay_mult: 0
  }
  param {
    lr_mult: 0
    decay_mult: 0
  }
  convolution_param {
    num_output: 64
    pad: 1
    pad: 1
    pad: 1
    kernel_size: 3
    kernel_size: 3
    kernel_size: 3
    weight_filler {
      type: "gaussian"
      std: 0.01
    }
    bias_filler {
      type: "constant"
      value: 0
    }
  }
}
layer {
  name: "relu1a"
  type: "ReLU"
  bottom: "conv1a"
  top: "conv1a"
}
layer {
  name: "pool1"
  type: "Pooling"
  bottom: "conv1a"
  top: "pool1"
  pooling_param {
    pool: MAX
    kernel_size: 1
    kernel_size: 2
    kernel_size: 2
    stride: 1
    stride: 2
    stride: 2
  }
}
layer {
  name: "conv2a"
  type: "Convolution"
  bottom: "pool1"
  top: "conv2a"
  param {
    lr_mult: 0
    decay_mult: 0
  }
  param {
    lr_mult: 0
    decay_mult: 0
  }
  convolution_param {
    num_output: 128
    pad: 1
    pad: 1
    pad: 1
    kernel_size: 3
    kernel_size: 3
    kernel_size: 3
    weight_filler {
      type: "gaussian"
      std: 0.01
    }
    bias_filler {
      type: "constant"
      value: 1
    }
  }
}
layer {
  name: "relu2a"
  type: "ReLU"
  bottom: "conv2a"
  top: "conv2a"
}
layer {
  name: "pool2"
  type: "Pooling"
  bottom: "conv2a"
  top: "pool2"
  pooling_param {
    pool: MAX
    kernel_size: 2
    kernel_size: 2
    kernel_size: 2
    stride: 2
    stride: 2
    stride: 2
  }
}
layer {
  name: "conv3a"
  type: "Convolution"
  bottom: "pool2"
  top: "conv3a"
  param {
    lr_mult: 1
    decay_mult: 1
  }
  param {
    lr_mult: 2
    decay_mult: 0
  }
  convolution_param {
    num_output: 256
    pad: 1
    pad: 1
    pad: 1
    kernel_size: 3
    kernel_size: 3
    kernel_size: 3
    weight_filler {
      type: "gaussian"
      std: 0.01
    }
    bias_filler {
      type: "constant"
      value: 1
    }
  }
}
layer {
  name: "relu3a"
  type: "ReLU"
  bottom: "conv3a"
  top: "conv3a"
}
layer {
  name: "conv3b"
  type: "Convolution"
  bottom: "conv3a"
  top: "conv3b"
  param {
    lr_mult: 1
    decay_mult: 1
  }
  param {
    lr_mult: 2
    decay_mult: 0
  }
  convolution_param {
    num_output: 256
    pad: 1
    pad: 1
    pad: 1
    kernel_size: 3
    kernel_size: 3
    kernel_size: 3
    weight_filler {
      type: "gaussian"
      std: 0.01
    }
    bias_filler {
      type: "constant"
      value: 1
    }
  }
}
layer {
  name: "relu3b"
  type: "ReLU"
  bottom: "conv3b"
  top: "conv3b"
}
layer {
  name: "pool3"
  type: "Pooling"
  bottom: "conv3b"
  top: "pool3"
  pooling_param {
    pool: MAX
    kernel_size: 2
    kernel_size: 2
    kernel_size: 2
    stride: 2
    stride: 2
    stride: 2
  }
}
layer {
  name: "conv4a"
  type: "Convolution"
  bottom: "pool3"
  top: "conv4a"
  param {
    lr_mult: 1
    decay_mult: 1
  }
  param {
    lr_mult: 2
    decay_mult: 0
  }
  convolution_param {
    num_output: 512
    pad: 1
    pad: 1
    pad: 1
    kernel_size: 3
    kernel_size: 3
    kernel_size: 3
    weight_filler {
      type: "gaussian"
      std: 0.01
    }
    bias_filler {
      type: "constant"
      value: 1
    }
  }
}
layer {
  name: "relu4a"
  type: "ReLU"
  bottom: "conv4a"
  top: "conv4a"
}
layer {
  name: "conv4b"
  type: "Convolution"
  bottom: "conv4a"
  top: "conv4b"
  param {
    lr_mult: 1
    decay_mult: 1
  }
  param {
    lr_mult: 2
    decay_mult: 0
  }
  convolution_param {
    num_output: 512
    pad: 1
    pad: 1
    pad: 1
    kernel_size: 3
    kernel_size: 3
    kernel_size: 3
    weight_filler {
      type: "gaussian"
      std: 0.01
    }
    bias_filler {
      type: "constant"
      value: 1
    }
  }
}
layer {
  name: "relu4b"
  type: "ReLU"
  bottom: "conv4b"
  top: "conv4b"
}
layer {
  name: "pool4"
  type: "Pooling"
  bottom: "conv4b"
  top: "pool4"
  pooling_param {
    pool: MAX
    kernel_size: 2
    kernel_size: 2
    kernel_size: 2
    stride: 2
    stride: 2
    stride: 2
  }
}
layer {
  name: "conv5a"
  type: "Convolution"
  bottom: "pool4"
  top: "conv5a"
  param {
    lr_mult: 1
    decay_mult: 1
  }
  param {
    lr_mult: 2
    decay_mult: 0
  }
  convolution_param {
    num_output: 512
    pad: 1
    pad: 1
    pad: 1
    kernel_size: 3
    kernel_size: 3
    kernel_size: 3
    weight_filler {
      type: "gaussian"
      std: 0.01
    }
    bias_filler {
      type: "constant"
      value: 1
    }
  }
}
layer {
  name: "relu5a"
  type: "ReLU"
  bottom: "conv5a"
  top: "conv5a"
}
layer {
  name: "conv5b"
  type: "Convolution"
  bottom: "conv5a"
  top: "conv5b"
  param {
    lr_mult: 1
    decay_mult: 1
  }
  param {
    lr_mult: 2
    decay_mult: 0
  }
  convolution_param {
    num_output: 512
    pad: 1
    pad: 1
    pad: 1
    kernel_size: 3
    kernel_size: 3
    kernel_size: 3
    weight_filler {
      type: "gaussian"
      std: 0.01
    }
    bias_filler {
      type: "constant"
      value: 1
    }
  }
}
layer {
  name: "relu5b"
  type: "ReLU"
  bottom: "conv5b"
  top: "conv5b"
}
layer {
  name: "rpn_conv/3x3"
  type: "Convolution"
  bottom: "conv5b"
  top: "rpn/output"
  param {
    lr_mult: 1
    decay_mult: 1
  }
  param {
    lr_mult: 2
    decay_mult: 0
  }
  convolution_param {
    num_output: 512
    pad: 1
    pad: 1
    pad: 1
    kernel_size: 3
    kernel_size: 3
    kernel_size: 3
    stride: 1
    stride: 2
    stride: 2
    weight_filler {
      type: "gaussian"
      std: 0.01
    }
    bias_filler {
      type: "constant"
      value: 0
    }
  }
}
layer {
  name: "rpn_relu/3x3"
  type: "ReLU"
  bottom: "rpn/output"
  top: "rpn/output"
}
layer {
  name: "rpn_conv/3x3_2"
  type: "Convolution"
  bottom: "rpn/output"
  top: "rpn/output_2"
  param {
    lr_mult: 1
    decay_mult: 1
  }
  param {
    lr_mult: 2
    decay_mult: 0
  }
  convolution_param {
    num_output: 512
    pad: 1
    pad: 1
    pad: 1
    kernel_size: 3
    kernel_size: 3
    kernel_size: 3
    stride: 1
    stride: 2
    stride: 2
    weight_filler {
      type: "gaussian"
      std: 0.01
    }
    bias_filler {
      type: "constant"
      value: 0
    }
  }
}
layer {
  name: "rpn_relu/3x3_2"
  type: "ReLU"
  bottom: "rpn/output_2"
  top: "rpn/output_2"
}
layer {
  name: "rpn/output_pool"
  type: "Pooling"
  bottom: "rpn/output_2"
  top: "rpn/output_pool"
  pooling_param {
    pool: MAX
    kernel_size: 1
    kernel_size: 2
    kernel_size: 2
  }
}
layer {
  name: "rpn_cls_score"
  type: "Convolution"
  bottom: "rpn/output_pool"
  top: "rpn_cls_score"
  param {
    lr_mult: 1
    decay_mult: 1
  }
  param {
    lr_mult: 2
    decay_mult: 0
  }
  convolution_param {
    num_output: 74
    kernel_size: 1
    kernel_size: 1
    kernel_size: 1
    weight_filler {
      type: "gaussian"
      std: 0.01
    }
    bias_filler {
      type: "constant"
      value: 0
    }
  }
}
layer {
  name: "rpn_twin_pred"
  type: "Convolution"
  bottom: "rpn/output_pool"
  top: "rpn_twin_pred"
  param {
    lr_mult: 1
    decay_mult: 1
  }
  param {
    lr_mult: 2
    decay_mult: 0
  }
  convolution_param {
    num_output: 74
    kernel_size: 1
    kernel_size: 1
    kernel_size: 1
    weight_filler {
      type: "gaussian"
      std: 0.01
    }
    bias_filler {
      type: "constant"
      value: 0
    }
  }
}
layer {
  name: "rpn_cls_score_reshape"
  type: "Reshape"
  bottom: "rpn_cls_score"
  top: "rpn_cls_score_reshape"
  reshape_param {
    shape {
      dim: 0
      dim: 2
      dim: -1
      dim: 0
      dim: 0
    }
  }
}
layer {
  name: "rpn-data"
  type: "Python"
  bottom: "rpn_cls_score"
  bottom: "gt_boxes"
  bottom: "data"
  top: "rpn_labels"
  top: "rpn_twin_targets"
  top: "rpn_twin_inside_weights"
  top: "rpn_twin_outside_weights"
  python_param {
    module: "rpn.anchor_target_layer"
    layer: "AnchorTargetLayer"
    param_str: "\'feat_stride\': 8 \n\'scales\': !!python/tuple [1,1.25, 1.5,1.75, 2,2.5, 3,3.5, 4,4.5, 5,5.5, 6,7, 8,9,10,11,12,14,16,18,20,22,24,28,32,36,40,44,52,60,68,76,84,92,100]"
  }
}
layer {
  name: "rpn_loss_cls"
  type: "SoftmaxWithLoss"
  bottom: "rpn_cls_score_reshape"
  bottom: "rpn_labels"
  top: "rpn_cls_loss"
  loss_weight: 1
  propagate_down: true
  propagate_down: false
  loss_param {
    ignore_label: -1
    normalize: true
  }
}
layer {
  name: "rpn_loss_twin"
  type: "SmoothL1Loss"
  bottom: "rpn_twin_pred"
  bottom: "rpn_twin_targets"
  bottom: "rpn_twin_inside_weights"
  bottom: "rpn_twin_outside_weights"
  top: "rpn_loss_twin"
  loss_weight: 1
  smooth_l1_loss_param {
    sigma: 3
  }
}
layer {
  name: "rpn_accuarcy"
  type: "Accuracy"
  bottom: "rpn_cls_score_reshape"
  bottom: "rpn_labels"
  top: "rpn_accuarcy"
  top: "rpn_accuarcy_class"
  propagate_down: false
  propagate_down: false
  accuracy_param {
    ignore_label: -1
  }
}
layer {
  name: "rpn_cls_prob"
  type: "Softmax"
  bottom: "rpn_cls_score_reshape"
  top: "rpn_cls_prob"
}
layer {
  name: "rpn_cls_prob_reshape"
  type: "Reshape"
  bottom: "rpn_cls_prob"
  top: "rpn_cls_prob_reshape"
  reshape_param {
    shape {
      dim: 0
      dim: 74
      dim: -1
      dim: 0
      dim: 0
    }
  }
}
layer {
  name: "proposal"
  type: "Python"
  bottom: "rpn_cls_prob_reshape"
  bottom: "rpn_twin_pred"
  top: "rpn_rois"
  include {
    phase: TRAIN
  }
  python_param {
    module: "rpn.proposal_layer"
    layer: "ProposalLayer"
    param_str: "\'feat_stride\': 8 \n\'scales\': !!python/tuple [1,1.25, 1.5,1.75, 2,2.5, 3,3.5, 4,4.5, 5,5.5, 6,7, 8,9,10,11,12,14,16,18,20,22,24,28,32,36,40,44,52,60,68,76,84,92,100]"
  }
}
layer {
  name: "roi-data"
  type: "Python"
  bottom: "rpn_rois"
  bottom: "gt_boxes"
  top: "rois"
  top: "labels"
  top: "twin_targets"
  top: "twin_inside_weights"
  top: "twin_outside_weights"
  python_param {
    module: "rpn.proposal_target_layer"
    layer: "ProposalTargetLayer"
    param_str: "\'num_classes\': 201"
  }
}
layer {
  name: "roi_pool5"
  type: "ROIPooling"
  bottom: "conv5b"
  bottom: "rois"
  top: "pool5"
  roi_pooling_param {
    pooled_h: 4
    pooled_w: 4
    spatial_scale: 0.0625
    pooled_l: 1
    temporal_scale: 0.125
  }
}
layer {
  name: "fc6"
  type: "InnerProduct"
  bottom: "pool5"
  top: "fc6"
  param {
    lr_mult: 1
    decay_mult: 1
  }
  param {
    lr_mult: 2
    decay_mult: 0
  }
  inner_product_param {
    num_output: 4096
    weight_filler {
      type: "gaussian"
      std: 0.005
    }
    bias_filler {
      type: "constant"
      value: 1
    }
  }
}
layer {
  name: "relu6"
  type: "ReLU"
  bottom: "fc6"
  top: "fc6"
}
layer {
  name: "drop6"
  type: "Dropout"
  bottom: "fc6"
  top: "fc6"
  dropout_param {
    dropout_ratio: 0.5
  }
}
layer {
  name: "cls_score"
  type: "InnerProduct"
  bottom: "fc6"
  top: "cls_score"
  param {
    lr_mult: 1
    decay_mult: 1
  }
  param {
    lr_mult: 2
    decay_mult: 0
  }
  inner_product_param {
    num_output: 201
    weight_filler {
      type: "gaussian"
      std: 0.01
    }
    bias_filler {
      type: "constant"
      value: 0
    }
  }
}
layer {
  name: "twin_pred"
  type: "InnerProduct"
  bottom: "fc6"
  top: "twin_pred"
  param {
    lr_mult: 1
    decay_mult: 1
  }
  param {
    lr_mult: 2
    decay_mult: 0
  }
  inner_product_param {
    num_output: 402
    weight_filler {
      type: "gaussian"
      std: 0.001
    }
    bias_filler {
      type: "constant"
      value: 0
    }
  }
}
layer {
  name: "loss_cls"
  type: "SoftmaxWithLoss"
  bottom: "cls_score"
  bottom: "labels"
  top: "loss_cls"
  loss_weight: 1
  propagate_down: true
  propagate_down: false
}
layer {
  name: "loss_twin"
  type: "SmoothL1Loss"
  bottom: "twin_pred"
  bottom: "twin_targets"
  bottom: "twin_inside_weights"
  bottom: "twin_outside_weights"
  top: "loss_twin"
  loss_weight: 1
}
layer {
  name: "accuarcy"
  type: "Accuracy"
  bottom: "cls_score"
  bottom: "labels"
  top: "accuarcy"
  propagate_down: false
  propagate_down: false
  accuracy_param {
    ignore_label: -1
  }
}
I0416 10:45:34.341269  7918 layer_factory.hpp:77] Creating layer data
I0416 10:45:34.352152  7918 net.cpp:100] Creating Layer data
I0416 10:45:34.352176  7918 net.cpp:408] data -> data
I0416 10:45:34.352190  7918 net.cpp:408] data -> gt_boxes
RoiDataLayer: name_to_top: {'gt_windows': 1, 'data': 0}
I0416 10:45:34.360966  7918 net.cpp:150] Setting up data
I0416 10:45:34.360990  7918 net.cpp:157] Top shape: 1 3 768 112 112 (28901376)
I0416 10:45:34.360996  7918 net.cpp:157] Top shape: 1 3 (3)
I0416 10:45:34.361001  7918 net.cpp:165] Memory required for data: 115605516
I0416 10:45:34.361008  7918 layer_factory.hpp:77] Creating layer data_data_0_split
I0416 10:45:34.361026  7918 net.cpp:100] Creating Layer data_data_0_split
I0416 10:45:34.361042  7918 net.cpp:434] data_data_0_split <- data
I0416 10:45:34.361052  7918 net.cpp:408] data_data_0_split -> data_data_0_split_0
I0416 10:45:34.361074  7918 net.cpp:408] data_data_0_split -> data_data_0_split_1
I0416 10:45:34.361124  7918 net.cpp:150] Setting up data_data_0_split
I0416 10:45:34.361133  7918 net.cpp:157] Top shape: 1 3 768 112 112 (28901376)
I0416 10:45:34.361140  7918 net.cpp:157] Top shape: 1 3 768 112 112 (28901376)
I0416 10:45:34.361143  7918 net.cpp:165] Memory required for data: 346816524
I0416 10:45:34.361148  7918 layer_factory.hpp:77] Creating layer gt_boxes_data_1_split
I0416 10:45:34.361156  7918 net.cpp:100] Creating Layer gt_boxes_data_1_split
I0416 10:45:34.361160  7918 net.cpp:434] gt_boxes_data_1_split <- gt_boxes
I0416 10:45:34.361167  7918 net.cpp:408] gt_boxes_data_1_split -> gt_boxes_data_1_split_0
I0416 10:45:34.361179  7918 net.cpp:408] gt_boxes_data_1_split -> gt_boxes_data_1_split_1
I0416 10:45:34.361222  7918 net.cpp:150] Setting up gt_boxes_data_1_split
I0416 10:45:34.361229  7918 net.cpp:157] Top shape: 1 3 (3)
I0416 10:45:34.361234  7918 net.cpp:157] Top shape: 1 3 (3)
I0416 10:45:34.361238  7918 net.cpp:165] Memory required for data: 346816548
I0416 10:45:34.361243  7918 layer_factory.hpp:77] Creating layer conv1a
I0416 10:45:34.361259  7918 net.cpp:100] Creating Layer conv1a
I0416 10:45:34.361265  7918 net.cpp:434] conv1a <- data_data_0_split_0
I0416 10:45:34.361274  7918 net.cpp:408] conv1a -> conv1a
I0416 10:45:34.378442  7918 net.cpp:150] Setting up conv1a
I0416 10:45:34.378479  7918 net.cpp:157] Top shape: 1 64 768 112 112 (616562688)
I0416 10:45:34.378482  7918 net.cpp:165] Memory required for data: 2813067300
I0416 10:45:34.378501  7918 layer_factory.hpp:77] Creating layer relu1a
I0416 10:45:34.378517  7918 net.cpp:100] Creating Layer relu1a
I0416 10:45:34.378523  7918 net.cpp:434] relu1a <- conv1a
I0416 10:45:34.378535  7918 net.cpp:395] relu1a -> conv1a (in-place)
I0416 10:45:34.378547  7918 net.cpp:150] Setting up relu1a
I0416 10:45:34.378554  7918 net.cpp:157] Top shape: 1 64 768 112 112 (616562688)
I0416 10:45:34.378558  7918 net.cpp:165] Memory required for data: 5279318052
I0416 10:45:34.378563  7918 layer_factory.hpp:77] Creating layer pool1
I0416 10:45:34.378571  7918 net.cpp:100] Creating Layer pool1
I0416 10:45:34.378578  7918 net.cpp:434] pool1 <- conv1a
I0416 10:45:34.378587  7918 net.cpp:408] pool1 -> pool1
I0416 10:45:34.378682  7918 net.cpp:150] Setting up pool1
I0416 10:45:34.378690  7918 net.cpp:157] Top shape: 1 64 768 56 56 (154140672)
I0416 10:45:34.378695  7918 net.cpp:165] Memory required for data: 5895880740
I0416 10:45:34.378698  7918 layer_factory.hpp:77] Creating layer conv2a
I0416 10:45:34.378712  7918 net.cpp:100] Creating Layer conv2a
I0416 10:45:34.378717  7918 net.cpp:434] conv2a <- pool1
I0416 10:45:34.378726  7918 net.cpp:408] conv2a -> conv2a
I0416 10:45:34.385704  7918 net.cpp:150] Setting up conv2a
I0416 10:45:34.385741  7918 net.cpp:157] Top shape: 1 128 768 56 56 (308281344)
I0416 10:45:34.385746  7918 net.cpp:165] Memory required for data: 7129006116
I0416 10:45:34.385769  7918 layer_factory.hpp:77] Creating layer relu2a
I0416 10:45:34.385783  7918 net.cpp:100] Creating Layer relu2a
I0416 10:45:34.385789  7918 net.cpp:434] relu2a <- conv2a
I0416 10:45:34.385802  7918 net.cpp:395] relu2a -> conv2a (in-place)
I0416 10:45:34.385814  7918 net.cpp:150] Setting up relu2a
I0416 10:45:34.385845  7918 net.cpp:157] Top shape: 1 128 768 56 56 (308281344)
I0416 10:45:34.385851  7918 net.cpp:165] Memory required for data: 8362131492
I0416 10:45:34.385856  7918 layer_factory.hpp:77] Creating layer pool2
I0416 10:45:34.385874  7918 net.cpp:100] Creating Layer pool2
I0416 10:45:34.385879  7918 net.cpp:434] pool2 <- conv2a
I0416 10:45:34.385890  7918 net.cpp:408] pool2 -> pool2
I0416 10:45:34.385993  7918 net.cpp:150] Setting up pool2
I0416 10:45:34.386001  7918 net.cpp:157] Top shape: 1 128 384 28 28 (38535168)
I0416 10:45:34.386005  7918 net.cpp:165] Memory required for data: 8516272164
I0416 10:45:34.386009  7918 layer_factory.hpp:77] Creating layer conv3a
I0416 10:45:34.386024  7918 net.cpp:100] Creating Layer conv3a
I0416 10:45:34.386029  7918 net.cpp:434] conv3a <- pool2
I0416 10:45:34.386039  7918 net.cpp:408] conv3a -> conv3a
I0416 10:45:34.394162  7918 net.cpp:150] Setting up conv3a
I0416 10:45:34.394184  7918 net.cpp:157] Top shape: 1 256 384 28 28 (77070336)
I0416 10:45:34.394189  7918 net.cpp:165] Memory required for data: 8824553508
I0416 10:45:34.394201  7918 layer_factory.hpp:77] Creating layer relu3a
I0416 10:45:34.394212  7918 net.cpp:100] Creating Layer relu3a
I0416 10:45:34.394217  7918 net.cpp:434] relu3a <- conv3a
I0416 10:45:34.394224  7918 net.cpp:395] relu3a -> conv3a (in-place)
I0416 10:45:34.394233  7918 net.cpp:150] Setting up relu3a
I0416 10:45:34.394240  7918 net.cpp:157] Top shape: 1 256 384 28 28 (77070336)
I0416 10:45:34.394244  7918 net.cpp:165] Memory required for data: 9132834852
I0416 10:45:34.394249  7918 layer_factory.hpp:77] Creating layer conv3b
I0416 10:45:34.394261  7918 net.cpp:100] Creating Layer conv3b
I0416 10:45:34.394284  7918 net.cpp:434] conv3b <- conv3a
I0416 10:45:34.394294  7918 net.cpp:408] conv3b -> conv3b
I0416 10:45:34.410564  7918 net.cpp:150] Setting up conv3b
I0416 10:45:34.410594  7918 net.cpp:157] Top shape: 1 256 384 28 28 (77070336)
I0416 10:45:34.410598  7918 net.cpp:165] Memory required for data: 9441116196
I0416 10:45:34.410610  7918 layer_factory.hpp:77] Creating layer relu3b
I0416 10:45:34.410622  7918 net.cpp:100] Creating Layer relu3b
I0416 10:45:34.410629  7918 net.cpp:434] relu3b <- conv3b
I0416 10:45:34.410636  7918 net.cpp:395] relu3b -> conv3b (in-place)
I0416 10:45:34.410647  7918 net.cpp:150] Setting up relu3b
I0416 10:45:34.410655  7918 net.cpp:157] Top shape: 1 256 384 28 28 (77070336)
I0416 10:45:34.410658  7918 net.cpp:165] Memory required for data: 9749397540
I0416 10:45:34.410662  7918 layer_factory.hpp:77] Creating layer pool3
I0416 10:45:34.410673  7918 net.cpp:100] Creating Layer pool3
I0416 10:45:34.410696  7918 net.cpp:434] pool3 <- conv3b
I0416 10:45:34.410703  7918 net.cpp:408] pool3 -> pool3
I0416 10:45:34.410763  7918 net.cpp:150] Setting up pool3
I0416 10:45:34.410771  7918 net.cpp:157] Top shape: 1 256 192 14 14 (9633792)
I0416 10:45:34.410775  7918 net.cpp:165] Memory required for data: 9787932708
I0416 10:45:34.410779  7918 layer_factory.hpp:77] Creating layer conv4a
I0416 10:45:34.410792  7918 net.cpp:100] Creating Layer conv4a
I0416 10:45:34.410797  7918 net.cpp:434] conv4a <- pool3
I0416 10:45:34.410807  7918 net.cpp:408] conv4a -> conv4a
I0416 10:45:34.442351  7918 net.cpp:150] Setting up conv4a
I0416 10:45:34.442376  7918 net.cpp:157] Top shape: 1 512 192 14 14 (19267584)
I0416 10:45:34.442380  7918 net.cpp:165] Memory required for data: 9865003044
I0416 10:45:34.442397  7918 layer_factory.hpp:77] Creating layer relu4a
I0416 10:45:34.442411  7918 net.cpp:100] Creating Layer relu4a
I0416 10:45:34.442417  7918 net.cpp:434] relu4a <- conv4a
I0416 10:45:34.442425  7918 net.cpp:395] relu4a -> conv4a (in-place)
I0416 10:45:34.442437  7918 net.cpp:150] Setting up relu4a
I0416 10:45:34.442468  7918 net.cpp:157] Top shape: 1 512 192 14 14 (19267584)
I0416 10:45:34.442472  7918 net.cpp:165] Memory required for data: 9942073380
I0416 10:45:34.442476  7918 layer_factory.hpp:77] Creating layer conv4b
I0416 10:45:34.442495  7918 net.cpp:100] Creating Layer conv4b
I0416 10:45:34.442500  7918 net.cpp:434] conv4b <- conv4a
I0416 10:45:34.442508  7918 net.cpp:408] conv4b -> conv4b
I0416 10:45:34.500735  7918 net.cpp:150] Setting up conv4b
I0416 10:45:34.500767  7918 net.cpp:157] Top shape: 1 512 192 14 14 (19267584)
I0416 10:45:34.500772  7918 net.cpp:165] Memory required for data: 10019143716
I0416 10:45:34.500783  7918 layer_factory.hpp:77] Creating layer relu4b
I0416 10:45:34.500794  7918 net.cpp:100] Creating Layer relu4b
I0416 10:45:34.500800  7918 net.cpp:434] relu4b <- conv4b
I0416 10:45:34.500808  7918 net.cpp:395] relu4b -> conv4b (in-place)
I0416 10:45:34.500818  7918 net.cpp:150] Setting up relu4b
I0416 10:45:34.500826  7918 net.cpp:157] Top shape: 1 512 192 14 14 (19267584)
I0416 10:45:34.500831  7918 net.cpp:165] Memory required for data: 10096214052
I0416 10:45:34.500835  7918 layer_factory.hpp:77] Creating layer pool4
I0416 10:45:34.500844  7918 net.cpp:100] Creating Layer pool4
I0416 10:45:34.500849  7918 net.cpp:434] pool4 <- conv4b
I0416 10:45:34.500855  7918 net.cpp:408] pool4 -> pool4
I0416 10:45:34.500912  7918 net.cpp:150] Setting up pool4
I0416 10:45:34.500921  7918 net.cpp:157] Top shape: 1 512 96 7 7 (2408448)
I0416 10:45:34.500926  7918 net.cpp:165] Memory required for data: 10105847844
I0416 10:45:34.500931  7918 layer_factory.hpp:77] Creating layer conv5a
I0416 10:45:34.500943  7918 net.cpp:100] Creating Layer conv5a
I0416 10:45:34.500953  7918 net.cpp:434] conv5a <- pool4
I0416 10:45:34.500963  7918 net.cpp:408] conv5a -> conv5a
I0416 10:45:34.559176  7918 net.cpp:150] Setting up conv5a
I0416 10:45:34.559208  7918 net.cpp:157] Top shape: 1 512 96 7 7 (2408448)
I0416 10:45:34.559212  7918 net.cpp:165] Memory required for data: 10115481636
I0416 10:45:34.559222  7918 layer_factory.hpp:77] Creating layer relu5a
I0416 10:45:34.559234  7918 net.cpp:100] Creating Layer relu5a
I0416 10:45:34.559239  7918 net.cpp:434] relu5a <- conv5a
I0416 10:45:34.559247  7918 net.cpp:395] relu5a -> conv5a (in-place)
I0416 10:45:34.559258  7918 net.cpp:150] Setting up relu5a
I0416 10:45:34.559264  7918 net.cpp:157] Top shape: 1 512 96 7 7 (2408448)
I0416 10:45:34.559268  7918 net.cpp:165] Memory required for data: 10125115428
I0416 10:45:34.559273  7918 layer_factory.hpp:77] Creating layer conv5b
I0416 10:45:34.559286  7918 net.cpp:100] Creating Layer conv5b
I0416 10:45:34.559315  7918 net.cpp:434] conv5b <- conv5a
I0416 10:45:34.559324  7918 net.cpp:408] conv5b -> conv5b
I0416 10:45:34.617790  7918 net.cpp:150] Setting up conv5b
I0416 10:45:34.617822  7918 net.cpp:157] Top shape: 1 512 96 7 7 (2408448)
I0416 10:45:34.617827  7918 net.cpp:165] Memory required for data: 10134749220
I0416 10:45:34.617837  7918 layer_factory.hpp:77] Creating layer relu5b
I0416 10:45:34.617848  7918 net.cpp:100] Creating Layer relu5b
I0416 10:45:34.617854  7918 net.cpp:434] relu5b <- conv5b
I0416 10:45:34.617864  7918 net.cpp:395] relu5b -> conv5b (in-place)
I0416 10:45:34.617875  7918 net.cpp:150] Setting up relu5b
I0416 10:45:34.617882  7918 net.cpp:157] Top shape: 1 512 96 7 7 (2408448)
I0416 10:45:34.617885  7918 net.cpp:165] Memory required for data: 10144383012
I0416 10:45:34.617890  7918 layer_factory.hpp:77] Creating layer conv5b_relu5b_0_split
I0416 10:45:34.617897  7918 net.cpp:100] Creating Layer conv5b_relu5b_0_split
I0416 10:45:34.617902  7918 net.cpp:434] conv5b_relu5b_0_split <- conv5b
I0416 10:45:34.617909  7918 net.cpp:408] conv5b_relu5b_0_split -> conv5b_relu5b_0_split_0
I0416 10:45:34.617919  7918 net.cpp:408] conv5b_relu5b_0_split -> conv5b_relu5b_0_split_1
I0416 10:45:34.617986  7918 net.cpp:150] Setting up conv5b_relu5b_0_split
I0416 10:45:34.617995  7918 net.cpp:157] Top shape: 1 512 96 7 7 (2408448)
I0416 10:45:34.618000  7918 net.cpp:157] Top shape: 1 512 96 7 7 (2408448)
I0416 10:45:34.618005  7918 net.cpp:165] Memory required for data: 10163650596
I0416 10:45:34.618008  7918 layer_factory.hpp:77] Creating layer rpn_conv/3x3
I0416 10:45:34.618022  7918 net.cpp:100] Creating Layer rpn_conv/3x3
I0416 10:45:34.618027  7918 net.cpp:434] rpn_conv/3x3 <- conv5b_relu5b_0_split_0
I0416 10:45:34.618036  7918 net.cpp:408] rpn_conv/3x3 -> rpn/output
I0416 10:45:34.677467  7918 net.cpp:150] Setting up rpn_conv/3x3
I0416 10:45:34.677490  7918 net.cpp:157] Top shape: 1 512 96 4 4 (786432)
I0416 10:45:34.677495  7918 net.cpp:165] Memory required for data: 10166796324
I0416 10:45:34.677515  7918 layer_factory.hpp:77] Creating layer rpn_relu/3x3
I0416 10:45:34.677528  7918 net.cpp:100] Creating Layer rpn_relu/3x3
I0416 10:45:34.677534  7918 net.cpp:434] rpn_relu/3x3 <- rpn/output
I0416 10:45:34.677542  7918 net.cpp:395] rpn_relu/3x3 -> rpn/output (in-place)
I0416 10:45:34.677556  7918 net.cpp:150] Setting up rpn_relu/3x3
I0416 10:45:34.677561  7918 net.cpp:157] Top shape: 1 512 96 4 4 (786432)
I0416 10:45:34.677565  7918 net.cpp:165] Memory required for data: 10169942052
I0416 10:45:34.677569  7918 layer_factory.hpp:77] Creating layer rpn_conv/3x3_2
I0416 10:45:34.677592  7918 net.cpp:100] Creating Layer rpn_conv/3x3_2
I0416 10:45:34.677597  7918 net.cpp:434] rpn_conv/3x3_2 <- rpn/output
I0416 10:45:34.677605  7918 net.cpp:408] rpn_conv/3x3_2 -> rpn/output_2
I0416 10:45:34.735293  7918 net.cpp:150] Setting up rpn_conv/3x3_2
I0416 10:45:34.735325  7918 net.cpp:157] Top shape: 1 512 96 2 2 (196608)
I0416 10:45:34.735330  7918 net.cpp:165] Memory required for data: 10170728484
I0416 10:45:34.735340  7918 layer_factory.hpp:77] Creating layer rpn_relu/3x3_2
I0416 10:45:34.735350  7918 net.cpp:100] Creating Layer rpn_relu/3x3_2
I0416 10:45:34.735357  7918 net.cpp:434] rpn_relu/3x3_2 <- rpn/output_2
I0416 10:45:34.735366  7918 net.cpp:395] rpn_relu/3x3_2 -> rpn/output_2 (in-place)
I0416 10:45:34.735375  7918 net.cpp:150] Setting up rpn_relu/3x3_2
I0416 10:45:34.735381  7918 net.cpp:157] Top shape: 1 512 96 2 2 (196608)
I0416 10:45:34.735385  7918 net.cpp:165] Memory required for data: 10171514916
I0416 10:45:34.735388  7918 layer_factory.hpp:77] Creating layer rpn/output_pool
I0416 10:45:34.735396  7918 net.cpp:100] Creating Layer rpn/output_pool
I0416 10:45:34.735400  7918 net.cpp:434] rpn/output_pool <- rpn/output_2
I0416 10:45:34.735407  7918 net.cpp:408] rpn/output_pool -> rpn/output_pool
I0416 10:45:34.735473  7918 net.cpp:150] Setting up rpn/output_pool
I0416 10:45:34.735482  7918 net.cpp:157] Top shape: 1 512 96 1 1 (49152)
I0416 10:45:34.735486  7918 net.cpp:165] Memory required for data: 10171711524
I0416 10:45:34.735491  7918 layer_factory.hpp:77] Creating layer rpn/output_pool_rpn/output_pool_0_split
I0416 10:45:34.735499  7918 net.cpp:100] Creating Layer rpn/output_pool_rpn/output_pool_0_split
I0416 10:45:34.735503  7918 net.cpp:434] rpn/output_pool_rpn/output_pool_0_split <- rpn/output_pool
I0416 10:45:34.735512  7918 net.cpp:408] rpn/output_pool_rpn/output_pool_0_split -> rpn/output_pool_rpn/output_pool_0_split_0
I0416 10:45:34.735520  7918 net.cpp:408] rpn/output_pool_rpn/output_pool_0_split -> rpn/output_pool_rpn/output_pool_0_split_1
I0416 10:45:34.735577  7918 net.cpp:150] Setting up rpn/output_pool_rpn/output_pool_0_split
I0416 10:45:34.735585  7918 net.cpp:157] Top shape: 1 512 96 1 1 (49152)
I0416 10:45:34.735590  7918 net.cpp:157] Top shape: 1 512 96 1 1 (49152)
I0416 10:45:34.735594  7918 net.cpp:165] Memory required for data: 10172104740
I0416 10:45:34.735599  7918 layer_factory.hpp:77] Creating layer rpn_cls_score
I0416 10:45:34.735611  7918 net.cpp:100] Creating Layer rpn_cls_score
I0416 10:45:34.735616  7918 net.cpp:434] rpn_cls_score <- rpn/output_pool_rpn/output_pool_0_split_0
I0416 10:45:34.735628  7918 net.cpp:408] rpn_cls_score -> rpn_cls_score
I0416 10:45:34.736475  7918 net.cpp:150] Setting up rpn_cls_score
I0416 10:45:34.736486  7918 net.cpp:157] Top shape: 1 74 96 1 1 (7104)
I0416 10:45:34.736490  7918 net.cpp:165] Memory required for data: 10172133156
I0416 10:45:34.736498  7918 layer_factory.hpp:77] Creating layer rpn_cls_score_rpn_cls_score_0_split
I0416 10:45:34.736505  7918 net.cpp:100] Creating Layer rpn_cls_score_rpn_cls_score_0_split
I0416 10:45:34.736510  7918 net.cpp:434] rpn_cls_score_rpn_cls_score_0_split <- rpn_cls_score
I0416 10:45:34.736518  7918 net.cpp:408] rpn_cls_score_rpn_cls_score_0_split -> rpn_cls_score_rpn_cls_score_0_split_0
I0416 10:45:34.736527  7918 net.cpp:408] rpn_cls_score_rpn_cls_score_0_split -> rpn_cls_score_rpn_cls_score_0_split_1
I0416 10:45:34.736593  7918 net.cpp:150] Setting up rpn_cls_score_rpn_cls_score_0_split
I0416 10:45:34.736603  7918 net.cpp:157] Top shape: 1 74 96 1 1 (7104)
I0416 10:45:34.736608  7918 net.cpp:157] Top shape: 1 74 96 1 1 (7104)
I0416 10:45:34.736613  7918 net.cpp:165] Memory required for data: 10172189988
I0416 10:45:34.736618  7918 layer_factory.hpp:77] Creating layer rpn_twin_pred
I0416 10:45:34.736634  7918 net.cpp:100] Creating Layer rpn_twin_pred
I0416 10:45:34.736639  7918 net.cpp:434] rpn_twin_pred <- rpn/output_pool_rpn/output_pool_0_split_1
I0416 10:45:34.736647  7918 net.cpp:408] rpn_twin_pred -> rpn_twin_pred
I0416 10:45:34.737321  7918 net.cpp:150] Setting up rpn_twin_pred
I0416 10:45:34.737331  7918 net.cpp:157] Top shape: 1 74 96 1 1 (7104)
I0416 10:45:34.737335  7918 net.cpp:165] Memory required for data: 10172218404
I0416 10:45:34.737344  7918 layer_factory.hpp:77] Creating layer rpn_twin_pred_rpn_twin_pred_0_split
I0416 10:45:34.737351  7918 net.cpp:100] Creating Layer rpn_twin_pred_rpn_twin_pred_0_split
I0416 10:45:34.737356  7918 net.cpp:434] rpn_twin_pred_rpn_twin_pred_0_split <- rpn_twin_pred
I0416 10:45:34.737363  7918 net.cpp:408] rpn_twin_pred_rpn_twin_pred_0_split -> rpn_twin_pred_rpn_twin_pred_0_split_0
I0416 10:45:34.737371  7918 net.cpp:408] rpn_twin_pred_rpn_twin_pred_0_split -> rpn_twin_pred_rpn_twin_pred_0_split_1
I0416 10:45:34.737429  7918 net.cpp:150] Setting up rpn_twin_pred_rpn_twin_pred_0_split
I0416 10:45:34.737439  7918 net.cpp:157] Top shape: 1 74 96 1 1 (7104)
I0416 10:45:34.737445  7918 net.cpp:157] Top shape: 1 74 96 1 1 (7104)
I0416 10:45:34.737449  7918 net.cpp:165] Memory required for data: 10172275236
I0416 10:45:34.737453  7918 layer_factory.hpp:77] Creating layer rpn_cls_score_reshape
I0416 10:45:34.737462  7918 net.cpp:100] Creating Layer rpn_cls_score_reshape
I0416 10:45:34.737468  7918 net.cpp:434] rpn_cls_score_reshape <- rpn_cls_score_rpn_cls_score_0_split_0
I0416 10:45:34.737474  7918 net.cpp:408] rpn_cls_score_reshape -> rpn_cls_score_reshape
I0416 10:45:34.737515  7918 net.cpp:150] Setting up rpn_cls_score_reshape
I0416 10:45:34.737524  7918 net.cpp:157] Top shape: 1 2 3552 1 1 (7104)
I0416 10:45:34.737527  7918 net.cpp:165] Memory required for data: 10172303652
I0416 10:45:34.737532  7918 layer_factory.hpp:77] Creating layer rpn_cls_score_reshape_rpn_cls_score_reshape_0_split
I0416 10:45:34.737540  7918 net.cpp:100] Creating Layer rpn_cls_score_reshape_rpn_cls_score_reshape_0_split
I0416 10:45:34.737543  7918 net.cpp:434] rpn_cls_score_reshape_rpn_cls_score_reshape_0_split <- rpn_cls_score_reshape
I0416 10:45:34.737555  7918 net.cpp:408] rpn_cls_score_reshape_rpn_cls_score_reshape_0_split -> rpn_cls_score_reshape_rpn_cls_score_reshape_0_split_0
I0416 10:45:34.737571  7918 net.cpp:408] rpn_cls_score_reshape_rpn_cls_score_reshape_0_split -> rpn_cls_score_reshape_rpn_cls_score_reshape_0_split_1
I0416 10:45:34.737579  7918 net.cpp:408] rpn_cls_score_reshape_rpn_cls_score_reshape_0_split -> rpn_cls_score_reshape_rpn_cls_score_reshape_0_split_2
I0416 10:45:34.737656  7918 net.cpp:150] Setting up rpn_cls_score_reshape_rpn_cls_score_reshape_0_split
I0416 10:45:34.737665  7918 net.cpp:157] Top shape: 1 2 3552 1 1 (7104)
I0416 10:45:34.737671  7918 net.cpp:157] Top shape: 1 2 3552 1 1 (7104)
I0416 10:45:34.737676  7918 net.cpp:157] Top shape: 1 2 3552 1 1 (7104)
I0416 10:45:34.737680  7918 net.cpp:165] Memory required for data: 10172388900
I0416 10:45:34.737684  7918 layer_factory.hpp:77] Creating layer rpn-data
I0416 10:45:34.738200  7918 net.cpp:100] Creating Layer rpn-data
I0416 10:45:34.738210  7918 net.cpp:434] rpn-data <- rpn_cls_score_rpn_cls_score_0_split_1
I0416 10:45:34.738217  7918 net.cpp:434] rpn-data <- gt_boxes_data_1_split_0
I0416 10:45:34.738224  7918 net.cpp:434] rpn-data <- data_data_0_split_1
I0416 10:45:34.738232  7918 net.cpp:408] rpn-data -> rpn_labels
I0416 10:45:34.738242  7918 net.cpp:408] rpn-data -> rpn_twin_targets
I0416 10:45:34.738251  7918 net.cpp:408] rpn-data -> rpn_twin_inside_weights
I0416 10:45:34.738260  7918 net.cpp:408] rpn-data -> rpn_twin_outside_weights
I0416 10:45:34.740936  7918 net.cpp:150] Setting up rpn-data
I0416 10:45:34.740950  7918 net.cpp:157] Top shape: 1 1 3552 1 1 (3552)
I0416 10:45:34.740957  7918 net.cpp:157] Top shape: 1 74 96 1 1 (7104)
I0416 10:45:34.740962  7918 net.cpp:157] Top shape: 1 74 96 1 1 (7104)
I0416 10:45:34.740970  7918 net.cpp:157] Top shape: 1 74 96 1 1 (7104)
I0416 10:45:34.740974  7918 net.cpp:165] Memory required for data: 10172488356
I0416 10:45:34.740980  7918 layer_factory.hpp:77] Creating layer rpn_labels_rpn-data_0_split
I0416 10:45:34.740988  7918 net.cpp:100] Creating Layer rpn_labels_rpn-data_0_split
I0416 10:45:34.740993  7918 net.cpp:434] rpn_labels_rpn-data_0_split <- rpn_labels
I0416 10:45:34.741000  7918 net.cpp:408] rpn_labels_rpn-data_0_split -> rpn_labels_rpn-data_0_split_0
I0416 10:45:34.741011  7918 net.cpp:408] rpn_labels_rpn-data_0_split -> rpn_labels_rpn-data_0_split_1
I0416 10:45:34.741053  7918 net.cpp:150] Setting up rpn_labels_rpn-data_0_split
I0416 10:45:34.741061  7918 net.cpp:157] Top shape: 1 1 3552 1 1 (3552)
I0416 10:45:34.741066  7918 net.cpp:157] Top shape: 1 1 3552 1 1 (3552)
I0416 10:45:34.741070  7918 net.cpp:165] Memory required for data: 10172516772
I0416 10:45:34.741075  7918 layer_factory.hpp:77] Creating layer rpn_loss_cls
I0416 10:45:34.741086  7918 net.cpp:100] Creating Layer rpn_loss_cls
I0416 10:45:34.741091  7918 net.cpp:434] rpn_loss_cls <- rpn_cls_score_reshape_rpn_cls_score_reshape_0_split_0
I0416 10:45:34.741097  7918 net.cpp:434] rpn_loss_cls <- rpn_labels_rpn-data_0_split_0
…
I0416 10:45:34.741437  7918 layer_factory.hpp:77] Creating layer rpn_accuarcy
I0416 10:45:34.741447  7918 net.cpp:100] Creating Layer rpn_accuarcy
I0416 10:45:34.741454  7918 net.cpp:434] rpn_accuarcy <- rpn_cls_score_reshape_rpn_cls_score_reshape_0_split_1
I0416 10:45:34.741461  7918 net.cpp:434] rpn_accuarcy <- rpn_labels_rpn-data_0_split_1
I0416 10:45:34.741468  7918 net.cpp:408] rpn_accuarcy -> rpn_accuarcy
I0416 10:45:34.741477  7918 net.cpp:408] rpn_accuarcy -> rpn_accuarcy_class
I0416 10:45:34.741520  7918 net.cpp:150] Setting up rpn_accuarcy
I0416 10:45:34.741526  7918 net.cpp:157] Top shape: (1)
I0416 10:45:34.741533  7918 net.cpp:157] Top shape: 2 (2)
I0416 10:45:34.741539  7918 net.cpp:165] Memory required for data: 10172516792
I0416 10:45:34.741544  7918 layer_factory.hpp:77] Creating layer rpn_cls_prob
I0416 10:45:34.741550  7918 net.cpp:100] Creating Layer rpn_cls_prob
I0416 10:45:34.741555  7918 net.cpp:434] rpn_cls_prob <- rpn_cls_score_reshape_rpn_cls_score_reshape_0_split_2
I0416 10:45:34.741564  7918 net.cpp:408] rpn_cls_prob -> rpn_cls_prob
I0416 10:45:34.741634  7918 net.cpp:150] Setting up rpn_cls_prob
I0416 10:45:34.741641  7918 net.cpp:157] Top shape: 1 2 3552 1 1 (7104)
I0416 10:45:34.741647  7918 net.cpp:165] Memory required for data: 10172545208
I0416 10:45:34.741650  7918 layer_factory.hpp:77] Creating layer rpn_cls_prob_reshape
I0416 10:45:34.741658  7918 net.cpp:100] Creating Layer rpn_cls_prob_reshape
I0416 10:45:34.741662  7918 net.cpp:434] rpn_cls_prob_reshape <- rpn_cls_prob
I0416 10:45:34.741672  7918 net.cpp:408] rpn_cls_prob_reshape -> rpn_cls_prob_reshape
I0416 10:45:34.741703  7918 net.cpp:150] Setting up rpn_cls_prob_reshape
I0416 10:45:34.741709  7918 net.cpp:157] Top shape: 1 74 96 1 1 (7104)
I0416 10:45:34.741714  7918 net.cpp:165] Memory required for data: 10172573624
I0416 10:45:34.741719  7918 layer_factory.hpp:77] Creating layer proposal
I0416 10:45:34.742252  7918 net.cpp:100] Creating Layer proposal
I0416 10:45:34.742264  7918 net.cpp:434] proposal <- rpn_cls_prob_reshape
I0416 10:45:34.742270  7918 net.cpp:434] proposal <- rpn_twin_pred_rpn_twin_pred_0_split_1
I0416 10:45:34.742280  7918 net.cpp:408] proposal -> rpn_rois
I0416 10:45:34.745620  7918 net.cpp:150] Setting up proposal
I0416 10:45:34.745635  7918 net.cpp:157] Top shape: 1 3 (3)
I0416 10:45:34.745638  7918 net.cpp:165] Memory required for data: 10172573636
I0416 10:45:34.745645  7918 layer_factory.hpp:77] Creating layer roi-data
I0416 10:45:34.745774  7918 net.cpp:100] Creating Layer roi-data
I0416 10:45:34.745784  7918 net.cpp:434] roi-data <- rpn_rois
I0416 10:45:34.745790  7918 net.cpp:434] roi-data <- gt_boxes_data_1_split_1
I0416 10:45:34.745798  7918 net.cpp:408] roi-data -> rois
I0416 10:45:34.745810  7918 net.cpp:408] roi-data -> labels
I0416 10:45:34.745818  7918 net.cpp:408] roi-data -> twin_targets
I0416 10:45:34.745828  7918 net.cpp:408] roi-data -> twin_inside_weights
I0416 10:45:34.745837  7918 net.cpp:408] roi-data -> twin_outside_weights
I0416 10:45:34.746142  7918 net.cpp:150] Setting up roi-data
I0416 10:45:34.746155  7918 net.cpp:157] Top shape: 1 3 (3)
I0416 10:45:34.746160  7918 net.cpp:157] Top shape: 1 1 (1)
I0416 10:45:34.746165  7918 net.cpp:157] Top shape: 1 402 (402)
I0416 10:45:34.746170  7918 net.cpp:157] Top shape: 1 402 (402)
I0416 10:45:34.746176  7918 net.cpp:157] Top shape: 1 402 (402)
I0416 10:45:34.746181  7918 net.cpp:165] Memory required for data: 10172578476
I0416 10:45:34.746187  7918 layer_factory.hpp:77] Creating layer labels_roi-data_1_split
I0416 10:45:34.746196  7918 net.cpp:100] Creating Layer labels_roi-data_1_split
I0416 10:45:34.746201  7918 net.cpp:434] labels_roi-data_1_split <- labels
I0416 10:45:34.746207  7918 net.cpp:408] labels_roi-data_1_split -> labels_roi-data_1_split_0
I0416 10:45:34.746217  7918 net.cpp:408] labels_roi-data_1_split -> labels_roi-data_1_split_1
I0416 10:45:34.746259  7918 net.cpp:150] Setting up labels_roi-data_1_split
I0416 10:45:34.746266  7918 net.cpp:157] Top shape: 1 1 (1)
I0416 10:45:34.746270  7918 net.cpp:157] Top shape: 1 1 (1)
I0416 10:45:34.746275  7918 net.cpp:165] Memory required for data: 10172578484
I0416 10:45:34.746279  7918 layer_factory.hpp:77] Creating layer roi_pool5
I0416 10:45:34.746287  7918 net.cpp:100] Creating Layer roi_pool5
I0416 10:45:34.746292  7918 net.cpp:434] roi_pool5 <- conv5b_relu5b_0_split_1
I0416 10:45:34.746299  7918 net.cpp:434] roi_pool5 <- rois
I0416 10:45:34.746305  7918 net.cpp:408] roi_pool5 -> pool5
I0416 10:45:34.746314  7918 roi_pooling_layer.cpp:34] Temporal scale: 0.125
I0416 10:45:34.746323  7918 roi_pooling_layer.cpp:35] Spatial scale: 0.0625
I0416 10:45:34.746367  7918 net.cpp:150] Setting up roi_pool5
I0416 10:45:34.746376  7918 net.cpp:157] Top shape: 1 512 1 4 4 (8192)
I0416 10:45:34.746379  7918 net.cpp:165] Memory required for data: 10172611252
I0416 10:45:34.746383  7918 layer_factory.hpp:77] Creating layer fc6
I0416 10:45:34.746392  7918 net.cpp:100] Creating Layer fc6
I0416 10:45:34.746397  7918 net.cpp:434] fc6 <- pool5
I0416 10:45:34.746404  7918 net.cpp:408] fc6 -> fc6
I0416 10:45:35.018740  7918 net.cpp:150] Setting up fc6
I0416 10:45:35.018772  7918 net.cpp:157] Top shape: 1 4096 (4096)
I0416 10:45:35.018776  7918 net.cpp:165] Memory required for data: 10172627636
I0416 10:45:35.018790  7918 layer_factory.hpp:77] Creating layer relu6
I0416 10:45:35.018801  7918 net.cpp:100] Creating Layer relu6
I0416 10:45:35.018807  7918 net.cpp:434] relu6 <- fc6
I0416 10:45:35.018816  7918 net.cpp:395] relu6 -> fc6 (in-place)
I0416 10:45:35.018828  7918 net.cpp:150] Setting up relu6
I0416 10:45:35.018833  7918 net.cpp:157] Top shape: 1 4096 (4096)
I0416 10:45:35.018838  7918 net.cpp:165] Memory required for data: 10172644020
I0416 10:45:35.018842  7918 layer_factory.hpp:77] Creating layer drop6
I0416 10:45:35.018851  7918 net.cpp:100] Creating Layer drop6
I0416 10:45:35.018854  7918 net.cpp:434] drop6 <- fc6
I0416 10:45:35.018860  7918 net.cpp:395] drop6 -> fc6 (in-place)
I0416 10:45:35.018896  7918 net.cpp:150] Setting up drop6
I0416 10:45:35.018903  7918 net.cpp:157] Top shape: 1 4096 (4096)
I0416 10:45:35.018908  7918 net.cpp:165] Memory required for data: 10172660404
I0416 10:45:35.018911  7918 layer_factory.hpp:77] Creating layer fc6_drop6_0_split
I0416 10:45:35.018919  7918 net.cpp:100] Creating Layer fc6_drop6_0_split
I0416 10:45:35.018925  7918 net.cpp:434] fc6_drop6_0_split <- fc6
I0416 10:45:35.018934  7918 net.cpp:408] fc6_drop6_0_split -> fc6_drop6_0_split_0
I0416 10:45:35.018942  7918 net.cpp:408] fc6_drop6_0_split -> fc6_drop6_0_split_1
I0416 10:45:35.018995  7918 net.cpp:150] Setting up fc6_drop6_0_split
I0416 10:45:35.019001  7918 net.cpp:157] Top shape: 1 4096 (4096)
I0416 10:45:35.019006  7918 net.cpp:157] Top shape: 1 4096 (4096)
I0416 10:45:35.019011  7918 net.cpp:165] Memory required for data: 10172693172
I0416 10:45:35.019014  7918 layer_factory.hpp:77] Creating layer cls_score
I0416 10:45:35.019026  7918 net.cpp:100] Creating Layer cls_score
I0416 10:45:35.019031  7918 net.cpp:434] cls_score <- fc6_drop6_0_split_0
I0416 10:45:35.019037  7918 net.cpp:408] cls_score -> cls_score
I0416 10:45:35.026420  7918 net.cpp:150] Setting up cls_score
I0416 10:45:35.026443  7918 net.cpp:157] Top shape: 1 201 (201)
I0416 10:45:35.026446  7918 net.cpp:165] Memory required for data: 10172693976
I0416 10:45:35.026458  7918 layer_factory.hpp:77] Creating layer cls_score_cls_score_0_split
I0416 10:45:35.026466  7918 net.cpp:100] Creating Layer cls_score_cls_score_0_split
I0416 10:45:35.026471  7918 net.cpp:434] cls_score_cls_score_0_split <- cls_score
I0416 10:45:35.026484  7918 net.cpp:408] cls_score_cls_score_0_split -> cls_score_cls_score_0_split_0
I0416 10:45:35.026495  7918 net.cpp:408] cls_score_cls_score_0_split -> cls_score_cls_score_0_split_1
I0416 10:45:35.026541  7918 net.cpp:150] Setting up cls_score_cls_score_0_split
I0416 10:45:35.026548  7918 net.cpp:157] Top shape: 1 201 (201)
I0416 10:45:35.026553  7918 net.cpp:157] Top shape: 1 201 (201)
I0416 10:45:35.026558  7918 net.cpp:165] Memory required for data: 10172695584
I0416 10:45:35.026563  7918 layer_factory.hpp:77] Creating layer twin_pred
I0416 10:45:35.026574  7918 net.cpp:100] Creating Layer twin_pred
I0416 10:45:35.026579  7918 net.cpp:434] twin_pred <- fc6_drop6_0_split_1
I0416 10:45:35.026588  7918 net.cpp:408] twin_pred -> twin_pred
I0416 10:45:35.040496  7918 net.cpp:150] Setting up twin_pred
I0416 10:45:35.040526  7918 net.cpp:157] Top shape: 1 402 (402)
I0416 10:45:35.040530  7918 net.cpp:165] Memory required for data: 10172697192
I0416 10:45:35.040541  7918 layer_factory.hpp:77] Creating layer loss_cls
I0416 10:45:35.040554  7918 net.cpp:100] Creating Layer loss_cls
I0416 10:45:35.040560  7918 net.cpp:434] loss_cls <- cls_score_cls_score_0_split_0
I0416 10:45:35.040567  7918 net.cpp:434] loss_cls <- labels_roi-data_1_split_0
I0416 10:45:35.040575  7918 net.cpp:408] loss_cls -> loss_cls
…
