…
stepsize: 350000
snapshot: 0
snapshot_prefix: "./experiments/activitynet/snapshot/activitynet"
average_loss: 100
iter_size: 1
I0416 12:04:16.374377 28499 solver.cpp:81] Creating training net from train_net file: ./experiments/activitynet/train.prototxt
I0416 12:04:16.377284 28499 net.cpp:58] Initializing net from parameters: 
name: "activitynet"
state {
  phase: TRAIN
}
layer {
  name: "data"
  type: "Python"
  top: "data"
  top: "gt_boxes"
  python_param {
    module: "roi_data_layer.layer"
    layer: "RoIDataLayer"
    param_str: "\'num_classes\': 100"
  }
}
layer {
  name: "conv1a"
  type: "Convolution"
  bottom: "data"
  top: "conv1a"
  param {
    lr_mult: 0
    decay_mult: 0
  }
  param {
    lr_mult: 0
    decay_mult: 0
  }
  convolution_param {
    num_output: 64
    pad: 1
    pad: 1
    pad: 1
    kernel_size: 3
    kernel_size: 3
    kernel_size: 3
    weight_filler {
      type: "gaussian"
      std: 0.01
    }
    bias_filler {
      type: "constant"
      value: 0
    }
  }
}
layer {
  name: "relu1a"
  type: "ReLU"
  bottom: "conv1a"
  top: "conv1a"
}
layer {
  name: "pool1"
  type: "Pooling"
  bottom: "conv1a"
  top: "pool1"
  pooling_param {
    pool: MAX
    kernel_size: 1
    kernel_size: 2
    kernel_size: 2
    stride: 1
    stride: 2
    stride: 2
  }
}
layer {
  name: "conv2a"
  type: "Convolution"
  bottom: "pool1"
  top: "conv2a"
  param {
    lr_mult: 0
    decay_mult: 0
  }
  param {
    lr_mult: 0
    decay_mult: 0
  }
  convolution_param {
    num_output: 128
    pad: 1
    pad: 1
    pad: 1
    kernel_size: 3
    kernel_size: 3
    kernel_size: 3
    weight_filler {
      type: "gaussian"
      std: 0.01
    }
    bias_filler {
      type: "constant"
      value: 1
    }
  }
}
layer {
  name: "relu2a"
  type: "ReLU"
  bottom: "conv2a"
  top: "conv2a"
}
layer {
  name: "pool2"
  type: "Pooling"
  bottom: "conv2a"
  top: "pool2"
  pooling_param {
    pool: MAX
    kernel_size: 2
    kernel_size: 2
    kernel_size: 2
    stride: 2
    stride: 2
    stride: 2
  }
}
layer {
  name: "conv3a"
  type: "Convolution"
  bottom: "pool2"
  top: "conv3a"
  param {
    lr_mult: 1
    decay_mult: 1
  }
  param {
    lr_mult: 2
    decay_mult: 0
  }
  convolution_param {
    num_output: 256
    pad: 1
    pad: 1
    pad: 1
    kernel_size: 3
    kernel_size: 3
    kernel_size: 3
    weight_filler {
      type: "gaussian"
      std: 0.01
    }
    bias_filler {
      type: "constant"
      value: 1
    }
  }
}
layer {
  name: "relu3a"
  type: "ReLU"
  bottom: "conv3a"
  top: "conv3a"
}
layer {
  name: "conv3b"
  type: "Convolution"
  bottom: "conv3a"
  top: "conv3b"
  param {
    lr_mult: 1
    decay_mult: 1
  }
  param {
    lr_mult: 2
    decay_mult: 0
  }
  convolution_param {
    num_output: 256
    pad: 1
    pad: 1
    pad: 1
    kernel_size: 3
    kernel_size: 3
    kernel_size: 3
    weight_filler {
      type: "gaussian"
      std: 0.01
    }
    bias_filler {
      type: "constant"
      value: 1
    }
  }
}
layer {
  name: "relu3b"
  type: "ReLU"
  bottom: "conv3b"
  top: "conv3b"
}
layer {
  name: "pool3"
  type: "Pooling"
  bottom: "conv3b"
  top: "pool3"
  pooling_param {
    pool: MAX
    kernel_size: 2
    kernel_size: 2
    kernel_size: 2
    stride: 2
    stride: 2
    stride: 2
  }
}
layer {
  name: "conv4a"
  type: "Convolution"
  bottom: "pool3"
  top: "conv4a"
  param {
    lr_mult: 1
    decay_mult: 1
  }
  param {
    lr_mult: 2
    decay_mult: 0
  }
  convolution_param {
    num_output: 512
    pad: 1
    pad: 1
    pad: 1
    kernel_size: 3
    kernel_size: 3
    kernel_size: 3
    weight_filler {
      type: "gaussian"
      std: 0.01
    }
    bias_filler {
      type: "constant"
      value: 1
    }
  }
}
layer {
  name: "relu4a"
  type: "ReLU"
  bottom: "conv4a"
  top: "conv4a"
}
layer {
  name: "conv4b"
  type: "Convolution"
  bottom: "conv4a"
  top: "conv4b"
  param {
    lr_mult: 1
    decay_mult: 1
  }
  param {
    lr_mult: 2
    decay_mult: 0
  }
  convolution_param {
    num_output: 512
    pad: 1
    pad: 1
    pad: 1
    kernel_size: 3
    kernel_size: 3
    kernel_size: 3
    weight_filler {
      type: "gaussian"
      std: 0.01
    }
    bias_filler {
      type: "constant"
      value: 1
    }
  }
}
layer {
  name: "relu4b"
  type: "ReLU"
  bottom: "conv4b"
  top: "conv4b"
}
layer {
  name: "pool4"
  type: "Pooling"
  bottom: "conv4b"
  top: "pool4"
  pooling_param {
    pool: MAX
    kernel_size: 2
    kernel_size: 2
    kernel_size: 2
    stride: 2
    stride: 2
    stride: 2
  }
}
layer {
  name: "conv5a"
  type: "Convolution"
  bottom: "pool4"
  top: "conv5a"
  param {
    lr_mult: 1
    decay_mult: 1
  }
  param {
    lr_mult: 2
    decay_mult: 0
  }
  convolution_param {
    num_output: 512
    pad: 1
    pad: 1
    pad: 1
    kernel_size: 3
    kernel_size: 3
    kernel_size: 3
    weight_filler {
      type: "gaussian"
      std: 0.01
    }
    bias_filler {
      type: "constant"
      value: 1
    }
  }
}
layer {
  name: "relu5a"
  type: "ReLU"
  bottom: "conv5a"
  top: "conv5a"
}
layer {
  name: "conv5b"
  type: "Convolution"
  bottom: "conv5a"
  top: "conv5b"
  param {
    lr_mult: 1
    decay_mult: 1
  }
  param {
    lr_mult: 2
    decay_mult: 0
  }
  convolution_param {
    num_output: 512
    pad: 1
    pad: 1
    pad: 1
    kernel_size: 3
    kernel_size: 3
    kernel_size: 3
    weight_filler {
      type: "gaussian"
      std: 0.01
    }
    bias_filler {
      type: "constant"
      value: 1
    }
  }
}
layer {
  name: "relu5b"
  type: "ReLU"
  bottom: "conv5b"
  top: "conv5b"
}
layer {
  name: "rpn_conv/3x3"
  type: "Convolution"
  bottom: "conv5b"
  top: "rpn/output"
  param {
    lr_mult: 1
    decay_mult: 1
  }
  param {
    lr_mult: 2
    decay_mult: 0
  }
  convolution_param {
    num_output: 512
    pad: 1
    pad: 1
    pad: 1
    kernel_size: 3
    kernel_size: 3
    kernel_size: 3
    stride: 1
    stride: 2
    stride: 2
    weight_filler {
      type: "gaussian"
      std: 0.01
    }
    bias_filler {
      type: "constant"
      value: 0
    }
  }
}
layer {
  name: "rpn_relu/3x3"
  type: "ReLU"
  bottom: "rpn/output"
  top: "rpn/output"
}
layer {
  name: "rpn_conv/3x3_2"
  type: "Convolution"
  bottom: "rpn/output"
  top: "rpn/output_2"
  param {
    lr_mult: 1
    decay_mult: 1
  }
  param {
    lr_mult: 2
    decay_mult: 0
  }
  convolution_param {
    num_output: 512
    pad: 1
    pad: 1
    pad: 1
    kernel_size: 3
    kernel_size: 3
    kernel_size: 3
    stride: 1
    stride: 2
    stride: 2
    weight_filler {
      type: "gaussian"
      std: 0.01
    }
    bias_filler {
      type: "constant"
      value: 0
    }
  }
}
layer {
  name: "rpn_relu/3x3_2"
  type: "ReLU"
  bottom: "rpn/output_2"
  top: "rpn/output_2"
}
layer {
  name: "rpn/output_pool"
  type: "Pooling"
  bottom: "rpn/output_2"
  top: "rpn/output_pool"
  pooling_param {
    pool: MAX
    kernel_size: 1
    kernel_size: 2
    kernel_size: 2
  }
}
layer {
  name: "rpn_cls_score"
  type: "Convolution"
  bottom: "rpn/output_pool"
  top: "rpn_cls_score"
  param {
    lr_mult: 1
    decay_mult: 1
  }
  param {
    lr_mult: 2
    decay_mult: 0
  }
  convolution_param {
    num_output: 74
    kernel_size: 1
    kernel_size: 1
    kernel_size: 1
    weight_filler {
      type: "gaussian"
      std: 0.01
    }
    bias_filler {
      type: "constant"
      value: 0
    }
  }
}
layer {
  name: "rpn_twin_pred"
  type: "Convolution"
  bottom: "rpn/output_pool"
  top: "rpn_twin_pred"
  param {
    lr_mult: 1
    decay_mult: 1
  }
  param {
    lr_mult: 2
    decay_mult: 0
  }
  convolution_param {
    num_output: 74
    kernel_size: 1
    kernel_size: 1
    kernel_size: 1
    weight_filler {
      type: "gaussian"
      std: 0.01
    }
    bias_filler {
      type: "constant"
      value: 0
    }
  }
}
layer {
  name: "rpn_cls_score_reshape"
  type: "Reshape"
  bottom: "rpn_cls_score"
  top: "rpn_cls_score_reshape"
  reshape_param {
    shape {
      dim: 0
      dim: 2
      dim: -1
      dim: 0
      dim: 0
    }
  }
}
layer {
  name: "rpn-data"
  type: "Python"
  bottom: "rpn_cls_score"
  bottom: "gt_boxes"
  bottom: "data"
  top: "rpn_labels"
  top: "rpn_twin_targets"
  top: "rpn_twin_inside_weights"
  top: "rpn_twin_outside_weights"
  python_param {
    module: "rpn.anchor_target_layer"
    layer: "AnchorTargetLayer"
    param_str: "\'feat_stride\': 8 \n\'scales\': !!python/tuple [1,1.25, 1.5,1.75, 2,2.5, 3,3.5, 4,4.5, 5,5.5, 6,7, 8,9,10,11,12,14,16,18,20,22,24,28,32,36,40,44,52,60,68,76,84,92,100]"
  }
}
layer {
  name: "rpn_loss_cls"
  type: "SoftmaxWithLoss"
  bottom: "rpn_cls_score_reshape"
  bottom: "rpn_labels"
  top: "rpn_cls_loss"
  loss_weight: 1
  propagate_down: true
  propagate_down: false
  loss_param {
    ignore_label: -1
    normalize: true
  }
}
layer {
  name: "rpn_loss_twin"
  type: "SmoothL1Loss"
  bottom: "rpn_twin_pred"
  bottom: "rpn_twin_targets"
  bottom: "rpn_twin_inside_weights"
  bottom: "rpn_twin_outside_weights"
  top: "rpn_loss_twin"
  loss_weight: 1
  smooth_l1_loss_param {
    sigma: 3
  }
}
layer {
  name: "rpn_accuarcy"
  type: "Accuracy"
  bottom: "rpn_cls_score_reshape"
  bottom: "rpn_labels"
  top: "rpn_accuarcy"
  top: "rpn_accuarcy_class"
  propagate_down: false
  propagate_down: false
  accuracy_param {
    ignore_label: -1
  }
}
layer {
  name: "rpn_cls_prob"
  type: "Softmax"
  bottom: "rpn_cls_score_reshape"
  top: "rpn_cls_prob"
}
layer {
  name: "rpn_cls_prob_reshape"
  type: "Reshape"
  bottom: "rpn_cls_prob"
  top: "rpn_cls_prob_reshape"
  reshape_param {
    shape {
      dim: 0
      dim: 74
      dim: -1
      dim: 0
      dim: 0
    }
  }
}
layer {
  name: "proposal"
  type: "Python"
  bottom: "rpn_cls_prob_reshape"
  bottom: "rpn_twin_pred"
  top: "rpn_rois"
  include {
    phase: TRAIN
  }
  python_param {
    module: "rpn.proposal_layer"
    layer: "ProposalLayer"
    param_str: "\'feat_stride\': 8 \n\'scales\': !!python/tuple [1,1.25, 1.5,1.75, 2,2.5, 3,3.5, 4,4.5, 5,5.5, 6,7, 8,9,10,11,12,14,16,18,20,22,24,28,32,36,40,44,52,60,68,76,84,92,100]"
  }
}
layer {
  name: "roi-data"
  type: "Python"
  bottom: "rpn_rois"
  bottom: "gt_boxes"
  top: "rois"
  top: "labels"
  top: "twin_targets"
  top: "twin_inside_weights"
  top: "twin_outside_weights"
  python_param {
    module: "rpn.proposal_target_layer"
    layer: "ProposalTargetLayer"
    param_str: "\'num_classes\': 201"
  }
}
layer {
  name: "roi_pool5"
  type: "ROIPooling"
  bottom: "conv5b"
  bottom: "rois"
  top: "pool5"
  roi_pooling_param {
    pooled_h: 4
    pooled_w: 4
    spatial_scale: 0.0625
    pooled_l: 1
    temporal_scale: 0.125
  }
}
layer {
  name: "fc6"
  type: "InnerProduct"
  bottom: "pool5"
  top: "fc6"
  param {
    lr_mult: 1
    decay_mult: 1
  }
  param {
    lr_mult: 2
    decay_mult: 0
  }
  inner_product_param {
    num_output: 4096
    weight_filler {
      type: "gaussian"
      std: 0.005
    }
    bias_filler {
      type: "constant"
      value: 1
    }
  }
}
layer {
  name: "relu6"
  type: "ReLU"
  bottom: "fc6"
  top: "fc6"
}
layer {
  name: "drop6"
  type: "Dropout"
  bottom: "fc6"
  top: "fc6"
  dropout_param {
    dropout_ratio: 0.5
  }
}
layer {
  name: "cls_score"
  type: "InnerProduct"
  bottom: "fc6"
  top: "cls_score"
  param {
    lr_mult: 1
    decay_mult: 1
  }
  param {
    lr_mult: 2
    decay_mult: 0
  }
  inner_product_param {
    num_output: 201
    weight_filler {
      type: "gaussian"
      std: 0.01
    }
    bias_filler {
      type: "constant"
      value: 0
    }
  }
}
layer {
  name: "twin_pred"
  type: "InnerProduct"
  bottom: "fc6"
  top: "twin_pred"
  param {
    lr_mult: 1
    decay_mult: 1
  }
  param {
    lr_mult: 2
    decay_mult: 0
  }
  inner_product_param {
    num_output: 402
    weight_filler {
      type: "gaussian"
      std: 0.001
    }
    bias_filler {
      type: "constant"
      value: 0
    }
  }
}
layer {
  name: "loss_cls"
  type: "SoftmaxWithLoss"
  bottom: "cls_score"
  bottom: "labels"
  top: "loss_cls"
  loss_weight: 1
  propagate_down: true
  propagate_down: false
}
layer {
  name: "loss_twin"
  type: "SmoothL1Loss"
  bottom: "twin_pred"
  bottom: "twin_targets"
  bottom: "twin_inside_weights"
  bottom: "twin_outside_weights"
  top: "loss_twin"
  loss_weight: 1
}
layer {
  name: "accuarcy"
  type: "Accuracy"
  bottom: "cls_score"
  bottom: "labels"
  top: "accuarcy"
  propagate_down: false
  propagate_down: false
  accuracy_param {
    ignore_label: -1
  }
}
I0416 12:04:16.377831 28499 layer_factory.hpp:77] Creating layer data
I0416 12:04:16.411890 28499 net.cpp:100] Creating Layer data
I0416 12:04:16.411912 28499 net.cpp:408] data -> data
I0416 12:04:16.411924 28499 net.cpp:408] data -> gt_boxes
RoiDataLayer: name_to_top: {'gt_windows': 1, 'data': 0}
I0416 12:04:16.434214 28499 net.cpp:150] Setting up data
I0416 12:04:16.434238 28499 net.cpp:157] Top shape: 1 3 768 112 112 (28901376)
I0416 12:04:16.434244 28499 net.cpp:157] Top shape: 1 101 (101)
I0416 12:04:16.434247 28499 net.cpp:165] Memory required for data: 115605908
I0416 12:04:16.434254 28499 layer_factory.hpp:77] Creating layer data_data_0_split
I0416 12:04:16.434267 28499 net.cpp:100] Creating Layer data_data_0_split
I0416 12:04:16.434271 28499 net.cpp:434] data_data_0_split <- data
I0416 12:04:16.434278 28499 net.cpp:408] data_data_0_split -> data_data_0_split_0
I0416 12:04:16.434288 28499 net.cpp:408] data_data_0_split -> data_data_0_split_1
I0416 12:04:16.434343 28499 net.cpp:150] Setting up data_data_0_split
I0416 12:04:16.434351 28499 net.cpp:157] Top shape: 1 3 768 112 112 (28901376)
I0416 12:04:16.434356 28499 net.cpp:157] Top shape: 1 3 768 112 112 (28901376)
I0416 12:04:16.434360 28499 net.cpp:165] Memory required for data: 346816916
I0416 12:04:16.434363 28499 layer_factory.hpp:77] Creating layer gt_boxes_data_1_split
I0416 12:04:16.434370 28499 net.cpp:100] Creating Layer gt_boxes_data_1_split
I0416 12:04:16.434377 28499 net.cpp:434] gt_boxes_data_1_split <- gt_boxes
I0416 12:04:16.434383 28499 net.cpp:408] gt_boxes_data_1_split -> gt_boxes_data_1_split_0
I0416 12:04:16.434391 28499 net.cpp:408] gt_boxes_data_1_split -> gt_boxes_data_1_split_1
I0416 12:04:16.434433 28499 net.cpp:150] Setting up gt_boxes_data_1_split
I0416 12:04:16.434442 28499 net.cpp:157] Top shape: 1 101 (101)
I0416 12:04:16.434445 28499 net.cpp:157] Top shape: 1 101 (101)
I0416 12:04:16.434448 28499 net.cpp:165] Memory required for data: 346817724
I0416 12:04:16.434453 28499 layer_factory.hpp:77] Creating layer conv1a
I0416 12:04:16.434468 28499 net.cpp:100] Creating Layer conv1a
I0416 12:04:16.434473 28499 net.cpp:434] conv1a <- data_data_0_split_0
I0416 12:04:16.434479 28499 net.cpp:408] conv1a -> conv1a
I0416 12:04:16.462270 28499 net.cpp:150] Setting up conv1a
I0416 12:04:16.462301 28499 net.cpp:157] Top shape: 1 64 768 112 112 (616562688)
I0416 12:04:16.462304 28499 net.cpp:165] Memory required for data: 2813068476
I0416 12:04:16.462327 28499 layer_factory.hpp:77] Creating layer relu1a
I0416 12:04:16.462353 28499 net.cpp:100] Creating Layer relu1a
I0416 12:04:16.462360 28499 net.cpp:434] relu1a <- conv1a
I0416 12:04:16.462366 28499 net.cpp:395] relu1a -> conv1a (in-place)
I0416 12:04:16.462378 28499 net.cpp:150] Setting up relu1a
I0416 12:04:16.462385 28499 net.cpp:157] Top shape: 1 64 768 112 112 (616562688)
I0416 12:04:16.462388 28499 net.cpp:165] Memory required for data: 5279319228
I0416 12:04:16.462391 28499 layer_factory.hpp:77] Creating layer pool1
I0416 12:04:16.462400 28499 net.cpp:100] Creating Layer pool1
I0416 12:04:16.462404 28499 net.cpp:434] pool1 <- conv1a
I0416 12:04:16.462409 28499 net.cpp:408] pool1 -> pool1
I0416 12:04:16.462513 28499 net.cpp:150] Setting up pool1
I0416 12:04:16.462522 28499 net.cpp:157] Top shape: 1 64 768 56 56 (154140672)
I0416 12:04:16.462525 28499 net.cpp:165] Memory required for data: 5895881916
I0416 12:04:16.462528 28499 layer_factory.hpp:77] Creating layer conv2a
I0416 12:04:16.462544 28499 net.cpp:100] Creating Layer conv2a
I0416 12:04:16.462548 28499 net.cpp:434] conv2a <- pool1
I0416 12:04:16.462554 28499 net.cpp:408] conv2a -> conv2a
I0416 12:04:16.475728 28499 net.cpp:150] Setting up conv2a
I0416 12:04:16.475765 28499 net.cpp:157] Top shape: 1 128 768 56 56 (308281344)
I0416 12:04:16.475771 28499 net.cpp:165] Memory required for data: 7129007292
I0416 12:04:16.475786 28499 layer_factory.hpp:77] Creating layer relu2a
I0416 12:04:16.475800 28499 net.cpp:100] Creating Layer relu2a
I0416 12:04:16.475805 28499 net.cpp:434] relu2a <- conv2a
I0416 12:04:16.475813 28499 net.cpp:395] relu2a -> conv2a (in-place)
I0416 12:04:16.475823 28499 net.cpp:150] Setting up relu2a
I0416 12:04:16.475829 28499 net.cpp:157] Top shape: 1 128 768 56 56 (308281344)
I0416 12:04:16.475832 28499 net.cpp:165] Memory required for data: 8362132668
I0416 12:04:16.475836 28499 layer_factory.hpp:77] Creating layer pool2
I0416 12:04:16.475847 28499 net.cpp:100] Creating Layer pool2
I0416 12:04:16.475849 28499 net.cpp:434] pool2 <- conv2a
I0416 12:04:16.475857 28499 net.cpp:408] pool2 -> pool2
I0416 12:04:16.475961 28499 net.cpp:150] Setting up pool2
I0416 12:04:16.475972 28499 net.cpp:157] Top shape: 1 128 384 28 28 (38535168)
I0416 12:04:16.475975 28499 net.cpp:165] Memory required for data: 8516273340
I0416 12:04:16.475980 28499 layer_factory.hpp:77] Creating layer conv3a
I0416 12:04:16.475991 28499 net.cpp:100] Creating Layer conv3a
I0416 12:04:16.475996 28499 net.cpp:434] conv3a <- pool2
I0416 12:04:16.476001 28499 net.cpp:408] conv3a -> conv3a
I0416 12:04:16.502920 28499 net.cpp:150] Setting up conv3a
I0416 12:04:16.502944 28499 net.cpp:157] Top shape: 1 256 384 28 28 (77070336)
I0416 12:04:16.502948 28499 net.cpp:165] Memory required for data: 8824554684
I0416 12:04:16.502961 28499 layer_factory.hpp:77] Creating layer relu3a
I0416 12:04:16.502972 28499 net.cpp:100] Creating Layer relu3a
I0416 12:04:16.502977 28499 net.cpp:434] relu3a <- conv3a
I0416 12:04:16.502982 28499 net.cpp:395] relu3a -> conv3a (in-place)
I0416 12:04:16.502990 28499 net.cpp:150] Setting up relu3a
I0416 12:04:16.502995 28499 net.cpp:157] Top shape: 1 256 384 28 28 (77070336)
I0416 12:04:16.502998 28499 net.cpp:165] Memory required for data: 9132836028
I0416 12:04:16.503000 28499 layer_factory.hpp:77] Creating layer conv3b
I0416 12:04:16.503011 28499 net.cpp:100] Creating Layer conv3b
I0416 12:04:16.503015 28499 net.cpp:434] conv3b <- conv3a
I0416 12:04:16.503021 28499 net.cpp:408] conv3b -> conv3b
I0416 12:04:16.552659 28499 net.cpp:150] Setting up conv3b
I0416 12:04:16.552685 28499 net.cpp:157] Top shape: 1 256 384 28 28 (77070336)
I0416 12:04:16.552690 28499 net.cpp:165] Memory required for data: 9441117372
I0416 12:04:16.552698 28499 layer_factory.hpp:77] Creating layer relu3b
I0416 12:04:16.552707 28499 net.cpp:100] Creating Layer relu3b
I0416 12:04:16.552712 28499 net.cpp:434] relu3b <- conv3b
I0416 12:04:16.552721 28499 net.cpp:395] relu3b -> conv3b (in-place)
I0416 12:04:16.552731 28499 net.cpp:150] Setting up relu3b
I0416 12:04:16.552736 28499 net.cpp:157] Top shape: 1 256 384 28 28 (77070336)
I0416 12:04:16.552738 28499 net.cpp:165] Memory required for data: 9749398716
I0416 12:04:16.552742 28499 layer_factory.hpp:77] Creating layer pool3
I0416 12:04:16.552747 28499 net.cpp:100] Creating Layer pool3
I0416 12:04:16.552750 28499 net.cpp:434] pool3 <- conv3b
I0416 12:04:16.552755 28499 net.cpp:408] pool3 -> pool3
I0416 12:04:16.552810 28499 net.cpp:150] Setting up pool3
I0416 12:04:16.552820 28499 net.cpp:157] Top shape: 1 256 192 14 14 (9633792)
I0416 12:04:16.552824 28499 net.cpp:165] Memory required for data: 9787933884
I0416 12:04:16.552827 28499 layer_factory.hpp:77] Creating layer conv4a
I0416 12:04:16.552837 28499 net.cpp:100] Creating Layer conv4a
I0416 12:04:16.552842 28499 net.cpp:434] conv4a <- pool3
I0416 12:04:16.552847 28499 net.cpp:408] conv4a -> conv4a
I0416 12:04:16.655721 28499 net.cpp:150] Setting up conv4a
I0416 12:04:16.655757 28499 net.cpp:157] Top shape: 1 512 192 14 14 (19267584)
I0416 12:04:16.655761 28499 net.cpp:165] Memory required for data: 9865004220
I0416 12:04:16.655776 28499 layer_factory.hpp:77] Creating layer relu4a
I0416 12:04:16.655784 28499 net.cpp:100] Creating Layer relu4a
I0416 12:04:16.655791 28499 net.cpp:434] relu4a <- conv4a
I0416 12:04:16.655797 28499 net.cpp:395] relu4a -> conv4a (in-place)
I0416 12:04:16.655805 28499 net.cpp:150] Setting up relu4a
I0416 12:04:16.655809 28499 net.cpp:157] Top shape: 1 512 192 14 14 (19267584)
I0416 12:04:16.655812 28499 net.cpp:165] Memory required for data: 9942074556
I0416 12:04:16.655815 28499 layer_factory.hpp:77] Creating layer conv4b
I0416 12:04:16.655828 28499 net.cpp:100] Creating Layer conv4b
I0416 12:04:16.655833 28499 net.cpp:434] conv4b <- conv4a
I0416 12:04:16.655838 28499 net.cpp:408] conv4b -> conv4b
I0416 12:04:16.849697 28499 net.cpp:150] Setting up conv4b
I0416 12:04:16.849721 28499 net.cpp:157] Top shape: 1 512 192 14 14 (19267584)
I0416 12:04:16.849725 28499 net.cpp:165] Memory required for data: 10019144892
I0416 12:04:16.849735 28499 layer_factory.hpp:77] Creating layer relu4b
I0416 12:04:16.849745 28499 net.cpp:100] Creating Layer relu4b
I0416 12:04:16.849750 28499 net.cpp:434] relu4b <- conv4b
I0416 12:04:16.849756 28499 net.cpp:395] relu4b -> conv4b (in-place)
I0416 12:04:16.849764 28499 net.cpp:150] Setting up relu4b
I0416 12:04:16.849772 28499 net.cpp:157] Top shape: 1 512 192 14 14 (19267584)
I0416 12:04:16.849776 28499 net.cpp:165] Memory required for data: 10096215228
I0416 12:04:16.849779 28499 layer_factory.hpp:77] Creating layer pool4
I0416 12:04:16.849787 28499 net.cpp:100] Creating Layer pool4
I0416 12:04:16.849791 28499 net.cpp:434] pool4 <- conv4b
I0416 12:04:16.849795 28499 net.cpp:408] pool4 -> pool4
I0416 12:04:16.849845 28499 net.cpp:150] Setting up pool4
I0416 12:04:16.849853 28499 net.cpp:157] Top shape: 1 512 96 7 7 (2408448)
I0416 12:04:16.849856 28499 net.cpp:165] Memory required for data: 10105849020
I0416 12:04:16.849859 28499 layer_factory.hpp:77] Creating layer conv5a
I0416 12:04:16.849870 28499 net.cpp:100] Creating Layer conv5a
I0416 12:04:16.849875 28499 net.cpp:434] conv5a <- pool4
I0416 12:04:16.849882 28499 net.cpp:408] conv5a -> conv5a
I0416 12:04:17.044569 28499 net.cpp:150] Setting up conv5a
I0416 12:04:17.044595 28499 net.cpp:157] Top shape: 1 512 96 7 7 (2408448)
I0416 12:04:17.044598 28499 net.cpp:165] Memory required for data: 10115482812
I0416 12:04:17.044606 28499 layer_factory.hpp:77] Creating layer relu5a
I0416 12:04:17.044615 28499 net.cpp:100] Creating Layer relu5a
I0416 12:04:17.044620 28499 net.cpp:434] relu5a <- conv5a
I0416 12:04:17.044626 28499 net.cpp:395] relu5a -> conv5a (in-place)
I0416 12:04:17.044634 28499 net.cpp:150] Setting up relu5a
I0416 12:04:17.044638 28499 net.cpp:157] Top shape: 1 512 96 7 7 (2408448)
I0416 12:04:17.044641 28499 net.cpp:165] Memory required for data: 10125116604
I0416 12:04:17.044644 28499 layer_factory.hpp:77] Creating layer conv5b
I0416 12:04:17.044656 28499 net.cpp:100] Creating Layer conv5b
I0416 12:04:17.044662 28499 net.cpp:434] conv5b <- conv5a
I0416 12:04:17.044667 28499 net.cpp:408] conv5b -> conv5b
I0416 12:04:17.236945 28499 net.cpp:150] Setting up conv5b
I0416 12:04:17.236974 28499 net.cpp:157] Top shape: 1 512 96 7 7 (2408448)
I0416 12:04:17.236977 28499 net.cpp:165] Memory required for data: 10134750396
I0416 12:04:17.236985 28499 layer_factory.hpp:77] Creating layer relu5b
I0416 12:04:17.236994 28499 net.cpp:100] Creating Layer relu5b
I0416 12:04:17.236999 28499 net.cpp:434] relu5b <- conv5b
I0416 12:04:17.237006 28499 net.cpp:395] relu5b -> conv5b (in-place)
I0416 12:04:17.237016 28499 net.cpp:150] Setting up relu5b
I0416 12:04:17.237021 28499 net.cpp:157] Top shape: 1 512 96 7 7 (2408448)
I0416 12:04:17.237025 28499 net.cpp:165] Memory required for data: 10144384188
I0416 12:04:17.237027 28499 layer_factory.hpp:77] Creating layer conv5b_relu5b_0_split
I0416 12:04:17.237031 28499 net.cpp:100] Creating Layer conv5b_relu5b_0_split
I0416 12:04:17.237035 28499 net.cpp:434] conv5b_relu5b_0_split <- conv5b
I0416 12:04:17.237040 28499 net.cpp:408] conv5b_relu5b_0_split -> conv5b_relu5b_0_split_0
I0416 12:04:17.237046 28499 net.cpp:408] conv5b_relu5b_0_split -> conv5b_relu5b_0_split_1
I0416 12:04:17.237094 28499 net.cpp:150] Setting up conv5b_relu5b_0_split
I0416 12:04:17.237102 28499 net.cpp:157] Top shape: 1 512 96 7 7 (2408448)
I0416 12:04:17.237107 28499 net.cpp:157] Top shape: 1 512 96 7 7 (2408448)
I0416 12:04:17.237109 28499 net.cpp:165] Memory required for data: 10163651772
I0416 12:04:17.237112 28499 layer_factory.hpp:77] Creating layer rpn_conv/3x3
I0416 12:04:17.237123 28499 net.cpp:100] Creating Layer rpn_conv/3x3
I0416 12:04:17.237128 28499 net.cpp:434] rpn_conv/3x3 <- conv5b_relu5b_0_split_0
I0416 12:04:17.237135 28499 net.cpp:408] rpn_conv/3x3 -> rpn/output
I0416 12:04:17.425074 28499 net.cpp:150] Setting up rpn_conv/3x3
I0416 12:04:17.425098 28499 net.cpp:157] Top shape: 1 512 96 4 4 (786432)
I0416 12:04:17.425102 28499 net.cpp:165] Memory required for data: 10166797500
I0416 12:04:17.425117 28499 layer_factory.hpp:77] Creating layer rpn_relu/3x3
I0416 12:04:17.425127 28499 net.cpp:100] Creating Layer rpn_relu/3x3
I0416 12:04:17.425132 28499 net.cpp:434] rpn_relu/3x3 <- rpn/output
I0416 12:04:17.425138 28499 net.cpp:395] rpn_relu/3x3 -> rpn/output (in-place)
I0416 12:04:17.425148 28499 net.cpp:150] Setting up rpn_relu/3x3
I0416 12:04:17.425156 28499 net.cpp:157] Top shape: 1 512 96 4 4 (786432)
I0416 12:04:17.425159 28499 net.cpp:165] Memory required for data: 10169943228
I0416 12:04:17.425163 28499 layer_factory.hpp:77] Creating layer rpn_conv/3x3_2
I0416 12:04:17.425171 28499 net.cpp:100] Creating Layer rpn_conv/3x3_2
I0416 12:04:17.425175 28499 net.cpp:434] rpn_conv/3x3_2 <- rpn/output
I0416 12:04:17.425181 28499 net.cpp:408] rpn_conv/3x3_2 -> rpn/output_2
I0416 12:04:17.612903 28499 net.cpp:150] Setting up rpn_conv/3x3_2
I0416 12:04:17.612928 28499 net.cpp:157] Top shape: 1 512 96 2 2 (196608)
I0416 12:04:17.612932 28499 net.cpp:165] Memory required for data: 10170729660
I0416 12:04:17.612941 28499 layer_factory.hpp:77] Creating layer rpn_relu/3x3_2
I0416 12:04:17.612949 28499 net.cpp:100] Creating Layer rpn_relu/3x3_2
I0416 12:04:17.612954 28499 net.cpp:434] rpn_relu/3x3_2 <- rpn/output_2
I0416 12:04:17.612960 28499 net.cpp:395] rpn_relu/3x3_2 -> rpn/output_2 (in-place)
I0416 12:04:17.612968 28499 net.cpp:150] Setting up rpn_relu/3x3_2
I0416 12:04:17.612973 28499 net.cpp:157] Top shape: 1 512 96 2 2 (196608)
I0416 12:04:17.612977 28499 net.cpp:165] Memory required for data: 10171516092
I0416 12:04:17.612980 28499 layer_factory.hpp:77] Creating layer rpn/output_pool
I0416 12:04:17.612988 28499 net.cpp:100] Creating Layer rpn/output_pool
I0416 12:04:17.612992 28499 net.cpp:434] rpn/output_pool <- rpn/output_2
I0416 12:04:17.612999 28499 net.cpp:408] rpn/output_pool -> rpn/output_pool
I0416 12:04:17.613047 28499 net.cpp:150] Setting up rpn/output_pool
I0416 12:04:17.613055 28499 net.cpp:157] Top shape: 1 512 96 1 1 (49152)
I0416 12:04:17.613059 28499 net.cpp:165] Memory required for data: 10171712700
I0416 12:04:17.613061 28499 layer_factory.hpp:77] Creating layer rpn/output_pool_rpn/output_pool_0_split
I0416 12:04:17.613067 28499 net.cpp:100] Creating Layer rpn/output_pool_rpn/output_pool_0_split
I0416 12:04:17.613071 28499 net.cpp:434] rpn/output_pool_rpn/output_pool_0_split <- rpn/output_pool
I0416 12:04:17.613075 28499 net.cpp:408] rpn/output_pool_rpn/output_pool_0_split -> rpn/output_pool_rpn/output_pool_0_split_0
I0416 12:04:17.613081 28499 net.cpp:408] rpn/output_pool_rpn/output_pool_0_split -> rpn/output_pool_rpn/output_pool_0_split_1
I0416 12:04:17.613123 28499 net.cpp:150] Setting up rpn/output_pool_rpn/output_pool_0_split
I0416 12:04:17.613132 28499 net.cpp:157] Top shape: 1 512 96 1 1 (49152)
I0416 12:04:17.613135 28499 net.cpp:157] Top shape: 1 512 96 1 1 (49152)
I0416 12:04:17.613138 28499 net.cpp:165] Memory required for data: 10172105916
I0416 12:04:17.613142 28499 layer_factory.hpp:77] Creating layer rpn_cls_score
I0416 12:04:17.613152 28499 net.cpp:100] Creating Layer rpn_cls_score
I0416 12:04:17.613155 28499 net.cpp:434] rpn_cls_score <- rpn/output_pool_rpn/output_pool_0_split_0
I0416 12:04:17.613162 28499 net.cpp:408] rpn_cls_score -> rpn_cls_score
I0416 12:04:17.614446 28499 net.cpp:150] Setting up rpn_cls_score
I0416 12:04:17.614457 28499 net.cpp:157] Top shape: 1 74 96 1 1 (7104)
I0416 12:04:17.614460 28499 net.cpp:165] Memory required for data: 10172134332
I0416 12:04:17.614465 28499 layer_factory.hpp:77] Creating layer rpn_cls_score_rpn_cls_score_0_split
I0416 12:04:17.614471 28499 net.cpp:100] Creating Layer rpn_cls_score_rpn_cls_score_0_split
I0416 12:04:17.614475 28499 net.cpp:434] rpn_cls_score_rpn_cls_score_0_split <- rpn_cls_score
I0416 12:04:17.614480 28499 net.cpp:408] rpn_cls_score_rpn_cls_score_0_split -> rpn_cls_score_rpn_cls_score_0_split_0
I0416 12:04:17.614485 28499 net.cpp:408] rpn_cls_score_rpn_cls_score_0_split -> rpn_cls_score_rpn_cls_score_0_split_1
I0416 12:04:17.614533 28499 net.cpp:150] Setting up rpn_cls_score_rpn_cls_score_0_split
I0416 12:04:17.614542 28499 net.cpp:157] Top shape: 1 74 96 1 1 (7104)
I0416 12:04:17.614545 28499 net.cpp:157] Top shape: 1 74 96 1 1 (7104)
I0416 12:04:17.614548 28499 net.cpp:165] Memory required for data: 10172191164
I0416 12:04:17.614552 28499 layer_factory.hpp:77] Creating layer rpn_twin_pred
I0416 12:04:17.614562 28499 net.cpp:100] Creating Layer rpn_twin_pred
I0416 12:04:17.614568 28499 net.cpp:434] rpn_twin_pred <- rpn/output_pool_rpn/output_pool_0_split_1
I0416 12:04:17.614575 28499 net.cpp:408] rpn_twin_pred -> rpn_twin_pred
I0416 12:04:17.615857 28499 net.cpp:150] Setting up rpn_twin_pred
I0416 12:04:17.615869 28499 net.cpp:157] Top shape: 1 74 96 1 1 (7104)
I0416 12:04:17.615872 28499 net.cpp:165] Memory required for data: 10172219580
I0416 12:04:17.615881 28499 layer_factory.hpp:77] Creating layer rpn_twin_pred_rpn_twin_pred_0_split
I0416 12:04:17.615886 28499 net.cpp:100] Creating Layer rpn_twin_pred_rpn_twin_pred_0_split
I0416 12:04:17.615890 28499 net.cpp:434] rpn_twin_pred_rpn_twin_pred_0_split <- rpn_twin_pred
I0416 12:04:17.615895 28499 net.cpp:408] rpn_twin_pred_rpn_twin_pred_0_split -> rpn_twin_pred_rpn_twin_pred_0_split_0
I0416 12:04:17.615900 28499 net.cpp:408] rpn_twin_pred_rpn_twin_pred_0_split -> rpn_twin_pred_rpn_twin_pred_0_split_1
I0416 12:04:17.615944 28499 net.cpp:150] Setting up rpn_twin_pred_rpn_twin_pred_0_split
I0416 12:04:17.615952 28499 net.cpp:157] Top shape: 1 74 96 1 1 (7104)
I0416 12:04:17.615957 28499 net.cpp:157] Top shape: 1 74 96 1 1 (7104)
I0416 12:04:17.615959 28499 net.cpp:165] Memory required for data: 10172276412
I0416 12:04:17.615962 28499 layer_factory.hpp:77] Creating layer rpn_cls_score_reshape
I0416 12:04:17.615975 28499 net.cpp:100] Creating Layer rpn_cls_score_reshape
I0416 12:04:17.615979 28499 net.cpp:434] rpn_cls_score_reshape <- rpn_cls_score_rpn_cls_score_0_split_0
I0416 12:04:17.615984 28499 net.cpp:408] rpn_cls_score_reshape -> rpn_cls_score_reshape
I0416 12:04:17.616019 28499 net.cpp:150] Setting up rpn_cls_score_reshape
I0416 12:04:17.616026 28499 net.cpp:157] Top shape: 1 2 3552 1 1 (7104)
I0416 12:04:17.616029 28499 net.cpp:165] Memory required for data: 10172304828
I0416 12:04:17.616032 28499 layer_factory.hpp:77] Creating layer rpn_cls_score_reshape_rpn_cls_score_reshape_0_split
I0416 12:04:17.616036 28499 net.cpp:100] Creating Layer rpn_cls_score_reshape_rpn_cls_score_reshape_0_split
I0416 12:04:17.616040 28499 net.cpp:434] rpn_cls_score_reshape_rpn_cls_score_reshape_0_split <- rpn_cls_score_reshape
I0416 12:04:17.616044 28499 net.cpp:408] rpn_cls_score_reshape_rpn_cls_score_reshape_0_split -> rpn_cls_score_reshape_rpn_cls_score_reshape_0_split_0
I0416 12:04:17.616061 28499 net.cpp:408] rpn_cls_score_reshape_rpn_cls_score_reshape_0_split -> rpn_cls_score_reshape_rpn_cls_score_reshape_0_split_1
I0416 12:04:17.616070 28499 net.cpp:408] rpn_cls_score_reshape_rpn_cls_score_reshape_0_split -> rpn_cls_score_reshape_rpn_cls_score_reshape_0_split_2
I0416 12:04:17.616125 28499 net.cpp:150] Setting up rpn_cls_score_reshape_rpn_cls_score_reshape_0_split
I0416 12:04:17.616134 28499 net.cpp:157] Top shape: 1 2 3552 1 1 (7104)
I0416 12:04:17.616138 28499 net.cpp:157] Top shape: 1 2 3552 1 1 (7104)
I0416 12:04:17.616142 28499 net.cpp:157] Top shape: 1 2 3552 1 1 (7104)
I0416 12:04:17.616144 28499 net.cpp:165] Memory required for data: 10172390076
I0416 12:04:17.616148 28499 layer_factory.hpp:77] Creating layer rpn-data
I0416 12:04:17.636989 28499 net.cpp:100] Creating Layer rpn-data
I0416 12:04:17.637012 28499 net.cpp:434] rpn-data <- rpn_cls_score_rpn_cls_score_0_split_1
I0416 12:04:17.637020 28499 net.cpp:434] rpn-data <- gt_boxes_data_1_split_0
I0416 12:04:17.637025 28499 net.cpp:434] rpn-data <- data_data_0_split_1
I0416 12:04:17.637032 28499 net.cpp:408] rpn-data -> rpn_labels
I0416 12:04:17.637039 28499 net.cpp:408] rpn-data -> rpn_twin_targets
I0416 12:04:17.637045 28499 net.cpp:408] rpn-data -> rpn_twin_inside_weights
I0416 12:04:17.637051 28499 net.cpp:408] rpn-data -> rpn_twin_outside_weights
I0416 12:04:17.639642 28499 net.cpp:150] Setting up rpn-data
I0416 12:04:17.639658 28499 net.cpp:157] Top shape: 1 1 3552 1 1 (3552)
I0416 12:04:17.639663 28499 net.cpp:157] Top shape: 1 74 96 1 1 (7104)
I0416 12:04:17.639667 28499 net.cpp:157] Top shape: 1 74 96 1 1 (7104)
I0416 12:04:17.639670 28499 net.cpp:157] Top shape: 1 74 96 1 1 (7104)
I0416 12:04:17.639673 28499 net.cpp:165] Memory required for data: 10172489532
I0416 12:04:17.639685 28499 layer_factory.hpp:77] Creating layer rpn_labels_rpn-data_0_split
I0416 12:04:17.639691 28499 net.cpp:100] Creating Layer rpn_labels_rpn-data_0_split
I0416 12:04:17.639695 28499 net.cpp:434] rpn_labels_rpn-data_0_split <- rpn_labels
I0416 12:04:17.639701 28499 net.cpp:408] rpn_labels_rpn-data_0_split -> rpn_labels_rpn-data_0_split_0
I0416 12:04:17.639708 28499 net.cpp:408] rpn_labels_rpn-data_0_split -> rpn_labels_rpn-data_0_split_1
I0416 12:04:17.639749 28499 net.cpp:150] Setting up rpn_labels_rpn-data_0_split
I0416 12:04:17.639755 28499 net.cpp:157] Top shape: 1 1 3552 1 1 (3552)
I0416 12:04:17.639760 28499 net.cpp:157] Top shape: 1 1 3552 1 1 (3552)
I0416 12:04:17.639762 28499 net.cpp:165] Memory required for data: 10172517948
I0416 12:04:17.639766 28499 layer_factory.hpp:77] Creating layer rpn_loss_cls
I0416 12:04:17.639776 28499 net.cpp:100] Creating Layer rpn_loss_cls
I0416 12:04:17.639780 28499 net.cpp:434] rpn_loss_cls <- rpn_cls_score_reshape_rpn_cls_score_reshape_0_split_0
I0416 12:04:17.639784 28499 net.cpp:434] rpn_loss_cls <- rpn_labels_rpn-data_0_split_0
…
I0416 12:04:17.640106 28499 layer_factory.hpp:77] Creating layer rpn_accuarcy
I0416 12:04:17.640115 28499 net.cpp:100] Creating Layer rpn_accuarcy
I0416 12:04:17.640118 28499 net.cpp:434] rpn_accuarcy <- rpn_cls_score_reshape_rpn_cls_score_reshape_0_split_1
I0416 12:04:17.640122 28499 net.cpp:434] rpn_accuarcy <- rpn_labels_rpn-data_0_split_1
I0416 12:04:17.640127 28499 net.cpp:408] rpn_accuarcy -> rpn_accuarcy
I0416 12:04:17.640133 28499 net.cpp:408] rpn_accuarcy -> rpn_accuarcy_class
I0416 12:04:17.640177 28499 net.cpp:150] Setting up rpn_accuarcy
I0416 12:04:17.640183 28499 net.cpp:157] Top shape: (1)
I0416 12:04:17.640187 28499 net.cpp:157] Top shape: 2 (2)
I0416 12:04:17.640190 28499 net.cpp:165] Memory required for data: 10172517968
I0416 12:04:17.640193 28499 layer_factory.hpp:77] Creating layer rpn_cls_prob
I0416 12:04:17.640198 28499 net.cpp:100] Creating Layer rpn_cls_prob
I0416 12:04:17.640202 28499 net.cpp:434] rpn_cls_prob <- rpn_cls_score_reshape_rpn_cls_score_reshape_0_split_2
I0416 12:04:17.640208 28499 net.cpp:408] rpn_cls_prob -> rpn_cls_prob
I0416 12:04:17.640274 28499 net.cpp:150] Setting up rpn_cls_prob
I0416 12:04:17.640280 28499 net.cpp:157] Top shape: 1 2 3552 1 1 (7104)
I0416 12:04:17.640285 28499 net.cpp:165] Memory required for data: 10172546384
I0416 12:04:17.640287 28499 layer_factory.hpp:77] Creating layer rpn_cls_prob_reshape
I0416 12:04:17.640295 28499 net.cpp:100] Creating Layer rpn_cls_prob_reshape
I0416 12:04:17.640298 28499 net.cpp:434] rpn_cls_prob_reshape <- rpn_cls_prob
I0416 12:04:17.640305 28499 net.cpp:408] rpn_cls_prob_reshape -> rpn_cls_prob_reshape
I0416 12:04:17.640331 28499 net.cpp:150] Setting up rpn_cls_prob_reshape
I0416 12:04:17.640341 28499 net.cpp:157] Top shape: 1 74 96 1 1 (7104)
I0416 12:04:17.640347 28499 net.cpp:165] Memory required for data: 10172574800
I0416 12:04:17.640352 28499 layer_factory.hpp:77] Creating layer proposal
I0416 12:04:17.659813 28499 net.cpp:100] Creating Layer proposal
I0416 12:04:17.659832 28499 net.cpp:434] proposal <- rpn_cls_prob_reshape
I0416 12:04:17.659842 28499 net.cpp:434] proposal <- rpn_twin_pred_rpn_twin_pred_0_split_1
I0416 12:04:17.659852 28499 net.cpp:408] proposal -> rpn_rois
I0416 12:04:17.699932 28499 net.cpp:150] Setting up proposal
I0416 12:04:17.699961 28499 net.cpp:157] Top shape: 1 3 (3)
I0416 12:04:17.699971 28499 net.cpp:165] Memory required for data: 10172574812
I0416 12:04:17.699977 28499 layer_factory.hpp:77] Creating layer roi-data
I0416 12:04:17.701534 28499 net.cpp:100] Creating Layer roi-data
I0416 12:04:17.701547 28499 net.cpp:434] roi-data <- rpn_rois
I0416 12:04:17.701555 28499 net.cpp:434] roi-data <- gt_boxes_data_1_split_1
I0416 12:04:17.701560 28499 net.cpp:408] roi-data -> rois
I0416 12:04:17.701568 28499 net.cpp:408] roi-data -> labels
I0416 12:04:17.701575 28499 net.cpp:408] roi-data -> twin_targets
I0416 12:04:17.701581 28499 net.cpp:408] roi-data -> twin_inside_weights
I0416 12:04:17.701586 28499 net.cpp:408] roi-data -> twin_outside_weights
I0416 12:04:17.702031 28499 net.cpp:150] Setting up roi-data
I0416 12:04:17.702045 28499 net.cpp:157] Top shape: 1 3 (3)
I0416 12:04:17.702052 28499 net.cpp:157] Top shape: 1 1 (1)
I0416 12:04:17.702056 28499 net.cpp:157] Top shape: 1 402 (402)
I0416 12:04:17.702059 28499 net.cpp:157] Top shape: 1 402 (402)
I0416 12:04:17.702064 28499 net.cpp:157] Top shape: 1 402 (402)
I0416 12:04:17.702066 28499 net.cpp:165] Memory required for data: 10172579652
I0416 12:04:17.702071 28499 layer_factory.hpp:77] Creating layer labels_roi-data_1_split
I0416 12:04:17.702077 28499 net.cpp:100] Creating Layer labels_roi-data_1_split
I0416 12:04:17.702080 28499 net.cpp:434] labels_roi-data_1_split <- labels
I0416 12:04:17.702086 28499 net.cpp:408] labels_roi-data_1_split -> labels_roi-data_1_split_0
I0416 12:04:17.702092 28499 net.cpp:408] labels_roi-data_1_split -> labels_roi-data_1_split_1
I0416 12:04:17.702133 28499 net.cpp:150] Setting up labels_roi-data_1_split
I0416 12:04:17.702141 28499 net.cpp:157] Top shape: 1 1 (1)
I0416 12:04:17.702144 28499 net.cpp:157] Top shape: 1 1 (1)
I0416 12:04:17.702147 28499 net.cpp:165] Memory required for data: 10172579660
I0416 12:04:17.702150 28499 layer_factory.hpp:77] Creating layer roi_pool5
I0416 12:04:17.702162 28499 net.cpp:100] Creating Layer roi_pool5
I0416 12:04:17.702165 28499 net.cpp:434] roi_pool5 <- conv5b_relu5b_0_split_1
I0416 12:04:17.702172 28499 net.cpp:434] roi_pool5 <- rois
I0416 12:04:17.702175 28499 net.cpp:408] roi_pool5 -> pool5
I0416 12:04:17.702183 28499 roi_pooling_layer.cpp:34] Temporal scale: 0.125
I0416 12:04:17.702191 28499 roi_pooling_layer.cpp:35] Spatial scale: 0.0625
I0416 12:04:17.702232 28499 net.cpp:150] Setting up roi_pool5
I0416 12:04:17.702239 28499 net.cpp:157] Top shape: 1 512 1 4 4 (8192)
I0416 12:04:17.702242 28499 net.cpp:165] Memory required for data: 10172612428
I0416 12:04:17.702245 28499 layer_factory.hpp:77] Creating layer fc6
I0416 12:04:17.702255 28499 net.cpp:100] Creating Layer fc6
I0416 12:04:17.702260 28499 net.cpp:434] fc6 <- pool5
I0416 12:04:17.702265 28499 net.cpp:408] fc6 -> fc6
I0416 12:04:18.593273 28499 net.cpp:150] Setting up fc6
I0416 12:04:18.593299 28499 net.cpp:157] Top shape: 1 4096 (4096)
I0416 12:04:18.593303 28499 net.cpp:165] Memory required for data: 10172628812
I0416 12:04:18.593313 28499 layer_factory.hpp:77] Creating layer relu6
I0416 12:04:18.593322 28499 net.cpp:100] Creating Layer relu6
I0416 12:04:18.593328 28499 net.cpp:434] relu6 <- fc6
I0416 12:04:18.593334 28499 net.cpp:395] relu6 -> fc6 (in-place)
I0416 12:04:18.593341 28499 net.cpp:150] Setting up relu6
I0416 12:04:18.593348 28499 net.cpp:157] Top shape: 1 4096 (4096)
I0416 12:04:18.593351 28499 net.cpp:165] Memory required for data: 10172645196
I0416 12:04:18.593355 28499 layer_factory.hpp:77] Creating layer drop6
I0416 12:04:18.593367 28499 net.cpp:100] Creating Layer drop6
I0416 12:04:18.593370 28499 net.cpp:434] drop6 <- fc6
I0416 12:04:18.593374 28499 net.cpp:395] drop6 -> fc6 (in-place)
I0416 12:04:18.593402 28499 net.cpp:150] Setting up drop6
I0416 12:04:18.593410 28499 net.cpp:157] Top shape: 1 4096 (4096)
I0416 12:04:18.593413 28499 net.cpp:165] Memory required for data: 10172661580
I0416 12:04:18.593416 28499 layer_factory.hpp:77] Creating layer fc6_drop6_0_split
I0416 12:04:18.593421 28499 net.cpp:100] Creating Layer fc6_drop6_0_split
I0416 12:04:18.593425 28499 net.cpp:434] fc6_drop6_0_split <- fc6
I0416 12:04:18.593430 28499 net.cpp:408] fc6_drop6_0_split -> fc6_drop6_0_split_0
I0416 12:04:18.593436 28499 net.cpp:408] fc6_drop6_0_split -> fc6_drop6_0_split_1
I0416 12:04:18.593473 28499 net.cpp:150] Setting up fc6_drop6_0_split
I0416 12:04:18.593482 28499 net.cpp:157] Top shape: 1 4096 (4096)
I0416 12:04:18.593485 28499 net.cpp:157] Top shape: 1 4096 (4096)
I0416 12:04:18.593488 28499 net.cpp:165] Memory required for data: 10172694348
I0416 12:04:18.593492 28499 layer_factory.hpp:77] Creating layer cls_score
I0416 12:04:18.593498 28499 net.cpp:100] Creating Layer cls_score
I0416 12:04:18.593502 28499 net.cpp:434] cls_score <- fc6_drop6_0_split_0
I0416 12:04:18.593506 28499 net.cpp:408] cls_score -> cls_score
I0416 12:04:18.615376 28499 net.cpp:150] Setting up cls_score
I0416 12:04:18.615401 28499 net.cpp:157] Top shape: 1 201 (201)
I0416 12:04:18.615404 28499 net.cpp:165] Memory required for data: 10172695152
I0416 12:04:18.615413 28499 layer_factory.hpp:77] Creating layer cls_score_cls_score_0_split
I0416 12:04:18.615427 28499 net.cpp:100] Creating Layer cls_score_cls_score_0_split
I0416 12:04:18.615432 28499 net.cpp:434] cls_score_cls_score_0_split <- cls_score
I0416 12:04:18.615438 28499 net.cpp:408] cls_score_cls_score_0_split -> cls_score_cls_score_0_split_0
I0416 12:04:18.615447 28499 net.cpp:408] cls_score_cls_score_0_split -> cls_score_cls_score_0_split_1
I0416 12:04:18.615486 28499 net.cpp:150] Setting up cls_score_cls_score_0_split
I0416 12:04:18.615494 28499 net.cpp:157] Top shape: 1 201 (201)
I0416 12:04:18.615499 28499 net.cpp:157] Top shape: 1 201 (201)
I0416 12:04:18.615501 28499 net.cpp:165] Memory required for data: 10172696760
I0416 12:04:18.615504 28499 layer_factory.hpp:77] Creating layer twin_pred
I0416 12:04:18.615512 28499 net.cpp:100] Creating Layer twin_pred
I0416 12:04:18.615521 28499 net.cpp:434] twin_pred <- fc6_drop6_0_split_1
I0416 12:04:18.615527 28499 net.cpp:408] twin_pred -> twin_pred
I0416 12:04:18.659014 28499 net.cpp:150] Setting up twin_pred
I0416 12:04:18.659036 28499 net.cpp:157] Top shape: 1 402 (402)
I0416 12:04:18.659040 28499 net.cpp:165] Memory required for data: 10172698368
I0416 12:04:18.659049 28499 layer_factory.hpp:77] Creating layer loss_cls
I0416 12:04:18.659059 28499 net.cpp:100] Creating Layer loss_cls
I0416 12:04:18.659065 28499 net.cpp:434] loss_cls <- cls_score_cls_score_0_split_0
I0416 12:04:18.659070 28499 net.cpp:434] loss_cls <- labels_roi-data_1_split_0
I0416 12:04:18.659076 28499 net.cpp:408] loss_cls -> loss_cls
…
