…
stepsize: 350000
snapshot: 0
snapshot_prefix: "./experiments/activitynet/snapshot/activitynet"
average_loss: 100
iter_size: 1
I0418 01:29:53.143838 16414 solver.cpp:81] Creating training net from train_net file: ./experiments/activitynet/train.prototxt
I0418 01:29:53.144912 16414 net.cpp:58] Initializing net from parameters: 
name: "activitynet"
state {
  phase: TRAIN
}
layer {
  name: "data"
  type: "Python"
  top: "data"
  top: "gt_boxes"
  python_param {
    module: "roi_data_layer.layer"
    layer: "RoIDataLayer"
    param_str: "\'num_classes\': 100"
  }
}
layer {
  name: "conv1a"
  type: "Convolution"
  bottom: "data"
  top: "conv1a"
  param {
    lr_mult: 0
    decay_mult: 0
  }
  param {
    lr_mult: 0
    decay_mult: 0
  }
  convolution_param {
    num_output: 64
    pad: 1
    pad: 1
    pad: 1
    kernel_size: 3
    kernel_size: 3
    kernel_size: 3
    weight_filler {
      type: "gaussian"
      std: 0.01
    }
    bias_filler {
      type: "constant"
      value: 0
    }
  }
}
layer {
  name: "relu1a"
  type: "ReLU"
  bottom: "conv1a"
  top: "conv1a"
}
layer {
  name: "pool1"
  type: "Pooling"
  bottom: "conv1a"
  top: "pool1"
  pooling_param {
    pool: MAX
    kernel_size: 1
    kernel_size: 2
    kernel_size: 2
    stride: 1
    stride: 2
    stride: 2
  }
}
layer {
  name: "conv2a"
  type: "Convolution"
  bottom: "pool1"
  top: "conv2a"
  param {
    lr_mult: 0
    decay_mult: 0
  }
  param {
    lr_mult: 0
    decay_mult: 0
  }
  convolution_param {
    num_output: 128
    pad: 1
    pad: 1
    pad: 1
    kernel_size: 3
    kernel_size: 3
    kernel_size: 3
    weight_filler {
      type: "gaussian"
      std: 0.01
    }
    bias_filler {
      type: "constant"
      value: 1
    }
  }
}
layer {
  name: "relu2a"
  type: "ReLU"
  bottom: "conv2a"
  top: "conv2a"
}
layer {
  name: "pool2"
  type: "Pooling"
  bottom: "conv2a"
  top: "pool2"
  pooling_param {
    pool: MAX
    kernel_size: 2
    kernel_size: 2
    kernel_size: 2
    stride: 2
    stride: 2
    stride: 2
  }
}
layer {
  name: "conv3a"
  type: "Convolution"
  bottom: "pool2"
  top: "conv3a"
  param {
    lr_mult: 1
    decay_mult: 1
  }
  param {
    lr_mult: 2
    decay_mult: 0
  }
  convolution_param {
    num_output: 256
    pad: 1
    pad: 1
    pad: 1
    kernel_size: 3
    kernel_size: 3
    kernel_size: 3
    weight_filler {
      type: "gaussian"
      std: 0.01
    }
    bias_filler {
      type: "constant"
      value: 1
    }
  }
}
layer {
  name: "relu3a"
  type: "ReLU"
  bottom: "conv3a"
  top: "conv3a"
}
layer {
  name: "conv3b"
  type: "Convolution"
  bottom: "conv3a"
  top: "conv3b"
  param {
    lr_mult: 1
    decay_mult: 1
  }
  param {
    lr_mult: 2
    decay_mult: 0
  }
  convolution_param {
    num_output: 256
    pad: 1
    pad: 1
    pad: 1
    kernel_size: 3
    kernel_size: 3
    kernel_size: 3
    weight_filler {
      type: "gaussian"
      std: 0.01
    }
    bias_filler {
      type: "constant"
      value: 1
    }
  }
}
layer {
  name: "relu3b"
  type: "ReLU"
  bottom: "conv3b"
  top: "conv3b"
}
layer {
  name: "pool3"
  type: "Pooling"
  bottom: "conv3b"
  top: "pool3"
  pooling_param {
    pool: MAX
    kernel_size: 2
    kernel_size: 2
    kernel_size: 2
    stride: 2
    stride: 2
    stride: 2
  }
}
layer {
  name: "conv4a"
  type: "Convolution"
  bottom: "pool3"
  top: "conv4a"
  param {
    lr_mult: 1
    decay_mult: 1
  }
  param {
    lr_mult: 2
    decay_mult: 0
  }
  convolution_param {
    num_output: 512
    pad: 1
    pad: 1
    pad: 1
    kernel_size: 3
    kernel_size: 3
    kernel_size: 3
    weight_filler {
      type: "gaussian"
      std: 0.01
    }
    bias_filler {
      type: "constant"
      value: 1
    }
  }
}
layer {
  name: "relu4a"
  type: "ReLU"
  bottom: "conv4a"
  top: "conv4a"
}
layer {
  name: "conv4b"
  type: "Convolution"
  bottom: "conv4a"
  top: "conv4b"
  param {
    lr_mult: 1
    decay_mult: 1
  }
  param {
    lr_mult: 2
    decay_mult: 0
  }
  convolution_param {
    num_output: 512
    pad: 1
    pad: 1
    pad: 1
    kernel_size: 3
    kernel_size: 3
    kernel_size: 3
    weight_filler {
      type: "gaussian"
      std: 0.01
    }
    bias_filler {
      type: "constant"
      value: 1
    }
  }
}
layer {
  name: "relu4b"
  type: "ReLU"
  bottom: "conv4b"
  top: "conv4b"
}
layer {
  name: "pool4"
  type: "Pooling"
  bottom: "conv4b"
  top: "pool4"
  pooling_param {
    pool: MAX
    kernel_size: 2
    kernel_size: 2
    kernel_size: 2
    stride: 2
    stride: 2
    stride: 2
  }
}
layer {
  name: "conv5a"
  type: "Convolution"
  bottom: "pool4"
  top: "conv5a"
  param {
    lr_mult: 1
    decay_mult: 1
  }
  param {
    lr_mult: 2
    decay_mult: 0
  }
  convolution_param {
    num_output: 512
    pad: 1
    pad: 1
    pad: 1
    kernel_size: 3
    kernel_size: 3
    kernel_size: 3
    weight_filler {
      type: "gaussian"
      std: 0.01
    }
    bias_filler {
      type: "constant"
      value: 1
    }
  }
}
layer {
  name: "relu5a"
  type: "ReLU"
  bottom: "conv5a"
  top: "conv5a"
}
layer {
  name: "conv5b"
  type: "Convolution"
  bottom: "conv5a"
  top: "conv5b"
  param {
    lr_mult: 1
    decay_mult: 1
  }
  param {
    lr_mult: 2
    decay_mult: 0
  }
  convolution_param {
    num_output: 512
    pad: 1
    pad: 1
    pad: 1
    kernel_size: 3
    kernel_size: 3
    kernel_size: 3
    weight_filler {
      type: "gaussian"
      std: 0.01
    }
    bias_filler {
      type: "constant"
      value: 1
    }
  }
}
layer {
  name: "relu5b"
  type: "ReLU"
  bottom: "conv5b"
  top: "conv5b"
}
layer {
  name: "rpn_conv/3x3"
  type: "Convolution"
  bottom: "conv5b"
  top: "rpn/output"
  param {
    lr_mult: 1
    decay_mult: 1
  }
  param {
    lr_mult: 2
    decay_mult: 0
  }
  convolution_param {
    num_output: 512
    pad: 1
    pad: 1
    pad: 1
    kernel_size: 3
    kernel_size: 3
    kernel_size: 3
    stride: 1
    stride: 2
    stride: 2
    weight_filler {
      type: "gaussian"
      std: 0.01
    }
    bias_filler {
      type: "constant"
      value: 0
    }
  }
}
layer {
  name: "rpn_relu/3x3"
  type: "ReLU"
  bottom: "rpn/output"
  top: "rpn/output"
}
layer {
  name: "rpn_conv/3x3_2"
  type: "Convolution"
  bottom: "rpn/output"
  top: "rpn/output_2"
  param {
    lr_mult: 1
    decay_mult: 1
  }
  param {
    lr_mult: 2
    decay_mult: 0
  }
  convolution_param {
    num_output: 512
    pad: 1
    pad: 1
    pad: 1
    kernel_size: 3
    kernel_size: 3
    kernel_size: 3
    stride: 1
    stride: 2
    stride: 2
    weight_filler {
      type: "gaussian"
      std: 0.01
    }
    bias_filler {
      type: "constant"
      value: 0
    }
  }
}
layer {
  name: "rpn_relu/3x3_2"
  type: "ReLU"
  bottom: "rpn/output_2"
  top: "rpn/output_2"
}
layer {
  name: "rpn/output_pool"
  type: "Pooling"
  bottom: "rpn/output_2"
  top: "rpn/output_pool"
  pooling_param {
    pool: MAX
    kernel_size: 1
    kernel_size: 2
    kernel_size: 2
  }
}
layer {
  name: "rpn_cls_score"
  type: "Convolution"
  bottom: "rpn/output_pool"
  top: "rpn_cls_score"
  param {
    lr_mult: 1
    decay_mult: 1
  }
  param {
    lr_mult: 2
    decay_mult: 0
  }
  convolution_param {
    num_output: 74
    kernel_size: 1
    kernel_size: 1
    kernel_size: 1
    weight_filler {
      type: "gaussian"
      std: 0.01
    }
    bias_filler {
      type: "constant"
      value: 0
    }
  }
}
layer {
  name: "rpn_twin_pred"
  type: "Convolution"
  bottom: "rpn/output_pool"
  top: "rpn_twin_pred"
  param {
    lr_mult: 1
    decay_mult: 1
  }
  param {
    lr_mult: 2
    decay_mult: 0
  }
  convolution_param {
    num_output: 74
    kernel_size: 1
    kernel_size: 1
    kernel_size: 1
    weight_filler {
      type: "gaussian"
      std: 0.01
    }
    bias_filler {
      type: "constant"
      value: 0
    }
  }
}
layer {
  name: "rpn_cls_score_reshape"
  type: "Reshape"
  bottom: "rpn_cls_score"
  top: "rpn_cls_score_reshape"
  reshape_param {
    shape {
      dim: 0
      dim: 2
      dim: -1
      dim: 0
      dim: 0
    }
  }
}
layer {
  name: "rpn-data"
  type: "Python"
  bottom: "rpn_cls_score"
  bottom: "gt_boxes"
  bottom: "data"
  top: "rpn_labels"
  top: "rpn_twin_targets"
  top: "rpn_twin_inside_weights"
  top: "rpn_twin_outside_weights"
  python_param {
    module: "rpn.anchor_target_layer"
    layer: "AnchorTargetLayer"
    param_str: "\'feat_stride\': 8 \n\'scales\': !!python/tuple [1,1.25, 1.5,1.75, 2,2.5, 3,3.5, 4,4.5, 5,5.5, 6,7, 8,9,10,11,12,14,16,18,20,22,24,28,32,36,40,44,52,60,68,76,84,92,100]"
  }
}
layer {
  name: "rpn_loss_cls"
  type: "SoftmaxWithLoss"
  bottom: "rpn_cls_score_reshape"
  bottom: "rpn_labels"
  top: "rpn_cls_loss"
  loss_weight: 1
  propagate_down: true
  propagate_down: false
  loss_param {
    ignore_label: -1
    normalize: true
  }
}
layer {
  name: "rpn_loss_twin"
  type: "SmoothL1Loss"
  bottom: "rpn_twin_pred"
  bottom: "rpn_twin_targets"
  bottom: "rpn_twin_inside_weights"
  bottom: "rpn_twin_outside_weights"
  top: "rpn_loss_twin"
  loss_weight: 1
  smooth_l1_loss_param {
    sigma: 3
  }
}
layer {
  name: "rpn_accuarcy"
  type: "Accuracy"
  bottom: "rpn_cls_score_reshape"
  bottom: "rpn_labels"
  top: "rpn_accuarcy"
  top: "rpn_accuarcy_class"
  propagate_down: false
  propagate_down: false
  accuracy_param {
    ignore_label: -1
  }
}
layer {
  name: "rpn_cls_prob"
  type: "Softmax"
  bottom: "rpn_cls_score_reshape"
  top: "rpn_cls_prob"
}
layer {
  name: "rpn_cls_prob_reshape"
  type: "Reshape"
  bottom: "rpn_cls_prob"
  top: "rpn_cls_prob_reshape"
  reshape_param {
    shape {
      dim: 0
      dim: 74
      dim: -1
      dim: 0
      dim: 0
    }
  }
}
layer {
  name: "proposal"
  type: "Python"
  bottom: "rpn_cls_prob_reshape"
  bottom: "rpn_twin_pred"
  top: "rpn_rois"
  include {
    phase: TRAIN
  }
  python_param {
    module: "rpn.proposal_layer"
    layer: "ProposalLayer"
    param_str: "\'feat_stride\': 8 \n\'scales\': !!python/tuple [1,1.25, 1.5,1.75, 2,2.5, 3,3.5, 4,4.5, 5,5.5, 6,7, 8,9,10,11,12,14,16,18,20,22,24,28,32,36,40,44,52,60,68,76,84,92,100]"
  }
}
layer {
  name: "roi-data"
  type: "Python"
  bottom: "rpn_rois"
  bottom: "gt_boxes"
  top: "rois"
  top: "labels"
  top: "twin_targets"
  top: "twin_inside_weights"
  top: "twin_outside_weights"
  python_param {
    module: "rpn.proposal_target_layer"
    layer: "ProposalTargetLayer"
    param_str: "\'num_classes\': 201"
  }
}
layer {
  name: "roi_pool5"
  type: "ROIPooling"
  bottom: "conv5b"
  bottom: "rois"
  top: "pool5"
  roi_pooling_param {
    pooled_h: 4
    pooled_w: 4
    spatial_scale: 0.0625
    pooled_l: 1
    temporal_scale: 0.125
  }
}
layer {
  name: "fc6"
  type: "InnerProduct"
  bottom: "pool5"
  top: "fc6"
  param {
    lr_mult: 1
    decay_mult: 1
  }
  param {
    lr_mult: 2
    decay_mult: 0
  }
  inner_product_param {
    num_output: 4096
    weight_filler {
      type: "gaussian"
      std: 0.005
    }
    bias_filler {
      type: "constant"
      value: 1
    }
  }
}
layer {
  name: "relu6"
  type: "ReLU"
  bottom: "fc6"
  top: "fc6"
}
layer {
  name: "drop6"
  type: "Dropout"
  bottom: "fc6"
  top: "fc6"
  dropout_param {
    dropout_ratio: 0.5
  }
}
layer {
  name: "cls_score"
  type: "InnerProduct"
  bottom: "fc6"
  top: "cls_score"
  param {
    lr_mult: 1
    decay_mult: 1
  }
  param {
    lr_mult: 2
    decay_mult: 0
  }
  inner_product_param {
    num_output: 201
    weight_filler {
      type: "gaussian"
      std: 0.01
    }
    bias_filler {
      type: "constant"
      value: 0
    }
  }
}
layer {
  name: "twin_pred"
  type: "InnerProduct"
  bottom: "fc6"
  top: "twin_pred"
  param {
    lr_mult: 1
    decay_mult: 1
  }
  param {
    lr_mult: 2
    decay_mult: 0
  }
  inner_product_param {
    num_output: 402
    weight_filler {
      type: "gaussian"
      std: 0.001
    }
    bias_filler {
      type: "constant"
      value: 0
    }
  }
}
layer {
  name: "loss_cls"
  type: "SoftmaxWithLoss"
  bottom: "cls_score"
  bottom: "labels"
  top: "loss_cls"
  loss_weight: 1
  propagate_down: true
  propagate_down: false
}
layer {
  name: "loss_twin"
  type: "SmoothL1Loss"
  bottom: "twin_pred"
  bottom: "twin_targets"
  bottom: "twin_inside_weights"
  bottom: "twin_outside_weights"
  top: "loss_twin"
  loss_weight: 1
}
layer {
  name: "accuarcy"
  type: "Accuracy"
  bottom: "cls_score"
  bottom: "labels"
  top: "accuarcy"
  propagate_down: false
  propagate_down: false
  accuracy_param {
    ignore_label: -1
  }
}
I0418 01:29:53.145125 16414 layer_factory.hpp:77] Creating layer data
I0418 01:29:53.169742 16414 net.cpp:100] Creating Layer data
I0418 01:29:53.169765 16414 net.cpp:408] data -> data
I0418 01:29:53.169780 16414 net.cpp:408] data -> gt_boxes
setting up
has rpn
RoiDataLayer: name_to_top: {'gt_windows': 1, 'data': 0}
I0418 01:29:53.210873 16414 net.cpp:150] Setting up data
I0418 01:29:53.210896 16414 net.cpp:157] Top shape: 1 3 768 112 112 (28901376)
I0418 01:29:53.210901 16414 net.cpp:157] Top shape: 1 101 (101)
I0418 01:29:53.210906 16414 net.cpp:165] Memory required for data: 115605908
I0418 01:29:53.210911 16414 layer_factory.hpp:77] Creating layer data_data_0_split
I0418 01:29:53.210923 16414 net.cpp:100] Creating Layer data_data_0_split
I0418 01:29:53.210929 16414 net.cpp:434] data_data_0_split <- data
I0418 01:29:53.210937 16414 net.cpp:408] data_data_0_split -> data_data_0_split_0
I0418 01:29:53.210949 16414 net.cpp:408] data_data_0_split -> data_data_0_split_1
I0418 01:29:53.210981 16414 net.cpp:150] Setting up data_data_0_split
I0418 01:29:53.210989 16414 net.cpp:157] Top shape: 1 3 768 112 112 (28901376)
I0418 01:29:53.210994 16414 net.cpp:157] Top shape: 1 3 768 112 112 (28901376)
I0418 01:29:53.210997 16414 net.cpp:165] Memory required for data: 346816916
I0418 01:29:53.211000 16414 layer_factory.hpp:77] Creating layer gt_boxes_data_1_split
I0418 01:29:53.211006 16414 net.cpp:100] Creating Layer gt_boxes_data_1_split
I0418 01:29:53.211009 16414 net.cpp:434] gt_boxes_data_1_split <- gt_boxes
I0418 01:29:53.211015 16414 net.cpp:408] gt_boxes_data_1_split -> gt_boxes_data_1_split_0
I0418 01:29:53.211021 16414 net.cpp:408] gt_boxes_data_1_split -> gt_boxes_data_1_split_1
I0418 01:29:53.211046 16414 net.cpp:150] Setting up gt_boxes_data_1_split
I0418 01:29:53.211055 16414 net.cpp:157] Top shape: 1 101 (101)
I0418 01:29:53.211061 16414 net.cpp:157] Top shape: 1 101 (101)
I0418 01:29:53.211063 16414 net.cpp:165] Memory required for data: 346817724
I0418 01:29:53.211067 16414 layer_factory.hpp:77] Creating layer conv1a
I0418 01:29:53.211083 16414 net.cpp:100] Creating Layer conv1a
I0418 01:29:53.211091 16414 net.cpp:434] conv1a <- data_data_0_split_0
I0418 01:29:53.211098 16414 net.cpp:408] conv1a -> conv1a
I0418 01:29:54.287791 16414 net.cpp:150] Setting up conv1a
I0418 01:29:54.287823 16414 net.cpp:157] Top shape: 1 64 768 112 112 (616562688)
I0418 01:29:54.287828 16414 net.cpp:165] Memory required for data: 2813068476
I0418 01:29:54.287845 16414 layer_factory.hpp:77] Creating layer relu1a
I0418 01:29:54.287859 16414 net.cpp:100] Creating Layer relu1a
I0418 01:29:54.287864 16414 net.cpp:434] relu1a <- conv1a
I0418 01:29:54.287870 16414 net.cpp:395] relu1a -> conv1a (in-place)
I0418 01:29:54.288322 16414 net.cpp:150] Setting up relu1a
I0418 01:29:54.288347 16414 net.cpp:157] Top shape: 1 64 768 112 112 (616562688)
I0418 01:29:54.288350 16414 net.cpp:165] Memory required for data: 5279319228
I0418 01:29:54.288354 16414 layer_factory.hpp:77] Creating layer pool1
I0418 01:29:54.288363 16414 net.cpp:100] Creating Layer pool1
I0418 01:29:54.288368 16414 net.cpp:434] pool1 <- conv1a
I0418 01:29:54.288373 16414 net.cpp:408] pool1 -> pool1
I0418 01:29:54.288547 16414 net.cpp:150] Setting up pool1
I0418 01:29:54.288558 16414 net.cpp:157] Top shape: 1 64 768 56 56 (154140672)
I0418 01:29:54.288561 16414 net.cpp:165] Memory required for data: 5895881916
I0418 01:29:54.288565 16414 layer_factory.hpp:77] Creating layer conv2a
I0418 01:29:54.288575 16414 net.cpp:100] Creating Layer conv2a
I0418 01:29:54.288583 16414 net.cpp:434] conv2a <- pool1
I0418 01:29:54.288589 16414 net.cpp:408] conv2a -> conv2a
I0418 01:29:54.299760 16414 net.cpp:150] Setting up conv2a
I0418 01:29:54.299785 16414 net.cpp:157] Top shape: 1 128 768 56 56 (308281344)
I0418 01:29:54.299790 16414 net.cpp:165] Memory required for data: 7129007292
I0418 01:29:54.299803 16414 layer_factory.hpp:77] Creating layer relu2a
I0418 01:29:54.299813 16414 net.cpp:100] Creating Layer relu2a
I0418 01:29:54.299818 16414 net.cpp:434] relu2a <- conv2a
I0418 01:29:54.299823 16414 net.cpp:395] relu2a -> conv2a (in-place)
I0418 01:29:54.300165 16414 net.cpp:150] Setting up relu2a
I0418 01:29:54.300179 16414 net.cpp:157] Top shape: 1 128 768 56 56 (308281344)
I0418 01:29:54.300184 16414 net.cpp:165] Memory required for data: 8362132668
I0418 01:29:54.300187 16414 layer_factory.hpp:77] Creating layer pool2
I0418 01:29:54.300199 16414 net.cpp:100] Creating Layer pool2
I0418 01:29:54.300202 16414 net.cpp:434] pool2 <- conv2a
I0418 01:29:54.300209 16414 net.cpp:408] pool2 -> pool2
I0418 01:29:54.300384 16414 net.cpp:150] Setting up pool2
I0418 01:29:54.300393 16414 net.cpp:157] Top shape: 1 128 384 28 28 (38535168)
I0418 01:29:54.300397 16414 net.cpp:165] Memory required for data: 8516273340
I0418 01:29:54.300400 16414 layer_factory.hpp:77] Creating layer conv3a
I0418 01:29:54.300411 16414 net.cpp:100] Creating Layer conv3a
I0418 01:29:54.300418 16414 net.cpp:434] conv3a <- pool2
I0418 01:29:54.300426 16414 net.cpp:408] conv3a -> conv3a
I0418 01:29:54.325585 16414 net.cpp:150] Setting up conv3a
I0418 01:29:54.325615 16414 net.cpp:157] Top shape: 1 256 384 28 28 (77070336)
I0418 01:29:54.325620 16414 net.cpp:165] Memory required for data: 8824554684
I0418 01:29:54.325631 16414 layer_factory.hpp:77] Creating layer relu3a
I0418 01:29:54.325639 16414 net.cpp:100] Creating Layer relu3a
I0418 01:29:54.325645 16414 net.cpp:434] relu3a <- conv3a
I0418 01:29:54.325651 16414 net.cpp:395] relu3a -> conv3a (in-place)
I0418 01:29:54.325983 16414 net.cpp:150] Setting up relu3a
I0418 01:29:54.325994 16414 net.cpp:157] Top shape: 1 256 384 28 28 (77070336)
I0418 01:29:54.325999 16414 net.cpp:165] Memory required for data: 9132836028
I0418 01:29:54.326004 16414 layer_factory.hpp:77] Creating layer conv3b
I0418 01:29:54.326014 16414 net.cpp:100] Creating Layer conv3b
I0418 01:29:54.326020 16414 net.cpp:434] conv3b <- conv3a
I0418 01:29:54.326027 16414 net.cpp:408] conv3b -> conv3b
I0418 01:29:54.376139 16414 net.cpp:150] Setting up conv3b
I0418 01:29:54.376164 16414 net.cpp:157] Top shape: 1 256 384 28 28 (77070336)
I0418 01:29:54.376169 16414 net.cpp:165] Memory required for data: 9441117372
I0418 01:29:54.376178 16414 layer_factory.hpp:77] Creating layer relu3b
I0418 01:29:54.376188 16414 net.cpp:100] Creating Layer relu3b
I0418 01:29:54.376194 16414 net.cpp:434] relu3b <- conv3b
I0418 01:29:54.376201 16414 net.cpp:395] relu3b -> conv3b (in-place)
I0418 01:29:54.376767 16414 net.cpp:150] Setting up relu3b
I0418 01:29:54.376782 16414 net.cpp:157] Top shape: 1 256 384 28 28 (77070336)
I0418 01:29:54.376787 16414 net.cpp:165] Memory required for data: 9749398716
I0418 01:29:54.376792 16414 layer_factory.hpp:77] Creating layer pool3
I0418 01:29:54.376801 16414 net.cpp:100] Creating Layer pool3
I0418 01:29:54.376806 16414 net.cpp:434] pool3 <- conv3b
I0418 01:29:54.376811 16414 net.cpp:408] pool3 -> pool3
I0418 01:29:54.377017 16414 net.cpp:150] Setting up pool3
I0418 01:29:54.377029 16414 net.cpp:157] Top shape: 1 256 192 14 14 (9633792)
I0418 01:29:54.377033 16414 net.cpp:165] Memory required for data: 9787933884
I0418 01:29:54.377038 16414 layer_factory.hpp:77] Creating layer conv4a
I0418 01:29:54.377049 16414 net.cpp:100] Creating Layer conv4a
I0418 01:29:54.377053 16414 net.cpp:434] conv4a <- pool3
I0418 01:29:54.377059 16414 net.cpp:408] conv4a -> conv4a
I0418 01:29:54.475620 16414 net.cpp:150] Setting up conv4a
I0418 01:29:54.475643 16414 net.cpp:157] Top shape: 1 512 192 14 14 (19267584)
I0418 01:29:54.475652 16414 net.cpp:165] Memory required for data: 9865004220
I0418 01:29:54.475666 16414 layer_factory.hpp:77] Creating layer relu4a
I0418 01:29:54.475674 16414 net.cpp:100] Creating Layer relu4a
I0418 01:29:54.475680 16414 net.cpp:434] relu4a <- conv4a
I0418 01:29:54.475687 16414 net.cpp:395] relu4a -> conv4a (in-place)
I0418 01:29:54.476088 16414 net.cpp:150] Setting up relu4a
I0418 01:29:54.476101 16414 net.cpp:157] Top shape: 1 512 192 14 14 (19267584)
I0418 01:29:54.476105 16414 net.cpp:165] Memory required for data: 9942074556
I0418 01:29:54.476109 16414 layer_factory.hpp:77] Creating layer conv4b
I0418 01:29:54.476122 16414 net.cpp:100] Creating Layer conv4b
I0418 01:29:54.476127 16414 net.cpp:434] conv4b <- conv4a
I0418 01:29:54.476135 16414 net.cpp:408] conv4b -> conv4b
I0418 01:29:54.662964 16414 net.cpp:150] Setting up conv4b
I0418 01:29:54.662989 16414 net.cpp:157] Top shape: 1 512 192 14 14 (19267584)
I0418 01:29:54.662993 16414 net.cpp:165] Memory required for data: 10019144892
I0418 01:29:54.663003 16414 layer_factory.hpp:77] Creating layer relu4b
I0418 01:29:54.663013 16414 net.cpp:100] Creating Layer relu4b
I0418 01:29:54.663024 16414 net.cpp:434] relu4b <- conv4b
I0418 01:29:54.663036 16414 net.cpp:395] relu4b -> conv4b (in-place)
I0418 01:29:54.664259 16414 net.cpp:150] Setting up relu4b
I0418 01:29:54.664273 16414 net.cpp:157] Top shape: 1 512 192 14 14 (19267584)
I0418 01:29:54.664281 16414 net.cpp:165] Memory required for data: 10096215228
I0418 01:29:54.664288 16414 layer_factory.hpp:77] Creating layer pool4
I0418 01:29:54.664302 16414 net.cpp:100] Creating Layer pool4
I0418 01:29:54.664309 16414 net.cpp:434] pool4 <- conv4b
I0418 01:29:54.664319 16414 net.cpp:408] pool4 -> pool4
I0418 01:29:54.666322 16414 net.cpp:150] Setting up pool4
I0418 01:29:54.666337 16414 net.cpp:157] Top shape: 1 512 96 7 7 (2408448)
I0418 01:29:54.666342 16414 net.cpp:165] Memory required for data: 10105849020
I0418 01:29:54.666345 16414 layer_factory.hpp:77] Creating layer conv5a
I0418 01:29:54.666357 16414 net.cpp:100] Creating Layer conv5a
I0418 01:29:54.666362 16414 net.cpp:434] conv5a <- pool4
I0418 01:29:54.666368 16414 net.cpp:408] conv5a -> conv5a
I0418 01:29:54.857309 16414 net.cpp:150] Setting up conv5a
I0418 01:29:54.857357 16414 net.cpp:157] Top shape: 1 512 96 7 7 (2408448)
I0418 01:29:54.857362 16414 net.cpp:165] Memory required for data: 10115482812
I0418 01:29:54.857369 16414 layer_factory.hpp:77] Creating layer relu5a
I0418 01:29:54.857380 16414 net.cpp:100] Creating Layer relu5a
I0418 01:29:54.857385 16414 net.cpp:434] relu5a <- conv5a
I0418 01:29:54.857391 16414 net.cpp:395] relu5a -> conv5a (in-place)
I0418 01:29:54.858337 16414 net.cpp:150] Setting up relu5a
I0418 01:29:54.858351 16414 net.cpp:157] Top shape: 1 512 96 7 7 (2408448)
I0418 01:29:54.858355 16414 net.cpp:165] Memory required for data: 10125116604
I0418 01:29:54.858359 16414 layer_factory.hpp:77] Creating layer conv5b
I0418 01:29:54.858373 16414 net.cpp:100] Creating Layer conv5b
I0418 01:29:54.858377 16414 net.cpp:434] conv5b <- conv5a
I0418 01:29:54.858383 16414 net.cpp:408] conv5b -> conv5b
I0418 01:29:55.047508 16414 net.cpp:150] Setting up conv5b
I0418 01:29:55.047534 16414 net.cpp:157] Top shape: 1 512 96 7 7 (2408448)
I0418 01:29:55.047538 16414 net.cpp:165] Memory required for data: 10134750396
I0418 01:29:55.047549 16414 layer_factory.hpp:77] Creating layer relu5b
I0418 01:29:55.047557 16414 net.cpp:100] Creating Layer relu5b
I0418 01:29:55.047562 16414 net.cpp:434] relu5b <- conv5b
I0418 01:29:55.047571 16414 net.cpp:395] relu5b -> conv5b (in-place)
I0418 01:29:55.048575 16414 net.cpp:150] Setting up relu5b
I0418 01:29:55.048588 16414 net.cpp:157] Top shape: 1 512 96 7 7 (2408448)
I0418 01:29:55.048591 16414 net.cpp:165] Memory required for data: 10144384188
I0418 01:29:55.048595 16414 layer_factory.hpp:77] Creating layer conv5b_relu5b_0_split
I0418 01:29:55.048602 16414 net.cpp:100] Creating Layer conv5b_relu5b_0_split
I0418 01:29:55.048606 16414 net.cpp:434] conv5b_relu5b_0_split <- conv5b
I0418 01:29:55.048614 16414 net.cpp:408] conv5b_relu5b_0_split -> conv5b_relu5b_0_split_0
I0418 01:29:55.048620 16414 net.cpp:408] conv5b_relu5b_0_split -> conv5b_relu5b_0_split_1
I0418 01:29:55.048658 16414 net.cpp:150] Setting up conv5b_relu5b_0_split
I0418 01:29:55.048666 16414 net.cpp:157] Top shape: 1 512 96 7 7 (2408448)
I0418 01:29:55.048671 16414 net.cpp:157] Top shape: 1 512 96 7 7 (2408448)
I0418 01:29:55.048676 16414 net.cpp:165] Memory required for data: 10163651772
I0418 01:29:55.048681 16414 layer_factory.hpp:77] Creating layer rpn_conv/3x3
I0418 01:29:55.048694 16414 net.cpp:100] Creating Layer rpn_conv/3x3
I0418 01:29:55.048702 16414 net.cpp:434] rpn_conv/3x3 <- conv5b_relu5b_0_split_0
I0418 01:29:55.048707 16414 net.cpp:408] rpn_conv/3x3 -> rpn/output
I0418 01:29:55.237699 16414 net.cpp:150] Setting up rpn_conv/3x3
I0418 01:29:55.237726 16414 net.cpp:157] Top shape: 1 512 96 4 4 (786432)
I0418 01:29:55.237732 16414 net.cpp:165] Memory required for data: 10166797500
I0418 01:29:55.237753 16414 layer_factory.hpp:77] Creating layer rpn_relu/3x3
I0418 01:29:55.237771 16414 net.cpp:100] Creating Layer rpn_relu/3x3
I0418 01:29:55.237781 16414 net.cpp:434] rpn_relu/3x3 <- rpn/output
I0418 01:29:55.237792 16414 net.cpp:395] rpn_relu/3x3 -> rpn/output (in-place)
I0418 01:29:55.238651 16414 net.cpp:150] Setting up rpn_relu/3x3
I0418 01:29:55.238665 16414 net.cpp:157] Top shape: 1 512 96 4 4 (786432)
I0418 01:29:55.238672 16414 net.cpp:165] Memory required for data: 10169943228
I0418 01:29:55.238677 16414 layer_factory.hpp:77] Creating layer rpn_conv/3x3_2
I0418 01:29:55.238699 16414 net.cpp:100] Creating Layer rpn_conv/3x3_2
I0418 01:29:55.238708 16414 net.cpp:434] rpn_conv/3x3_2 <- rpn/output
I0418 01:29:55.238718 16414 net.cpp:408] rpn_conv/3x3_2 -> rpn/output_2
I0418 01:29:55.426934 16414 net.cpp:150] Setting up rpn_conv/3x3_2
I0418 01:29:55.426959 16414 net.cpp:157] Top shape: 1 512 96 2 2 (196608)
I0418 01:29:55.426962 16414 net.cpp:165] Memory required for data: 10170729660
I0418 01:29:55.426971 16414 layer_factory.hpp:77] Creating layer rpn_relu/3x3_2
I0418 01:29:55.426983 16414 net.cpp:100] Creating Layer rpn_relu/3x3_2
I0418 01:29:55.426988 16414 net.cpp:434] rpn_relu/3x3_2 <- rpn/output_2
I0418 01:29:55.426995 16414 net.cpp:395] rpn_relu/3x3_2 -> rpn/output_2 (in-place)
I0418 01:29:55.427944 16414 net.cpp:150] Setting up rpn_relu/3x3_2
I0418 01:29:55.427958 16414 net.cpp:157] Top shape: 1 512 96 2 2 (196608)
I0418 01:29:55.427961 16414 net.cpp:165] Memory required for data: 10171516092
I0418 01:29:55.427965 16414 layer_factory.hpp:77] Creating layer rpn/output_pool
I0418 01:29:55.427973 16414 net.cpp:100] Creating Layer rpn/output_pool
I0418 01:29:55.427978 16414 net.cpp:434] rpn/output_pool <- rpn/output_2
I0418 01:29:55.427984 16414 net.cpp:408] rpn/output_pool -> rpn/output_pool
I0418 01:29:55.428181 16414 net.cpp:150] Setting up rpn/output_pool
I0418 01:29:55.428192 16414 net.cpp:157] Top shape: 1 512 96 1 1 (49152)
I0418 01:29:55.428200 16414 net.cpp:165] Memory required for data: 10171712700
I0418 01:29:55.428208 16414 layer_factory.hpp:77] Creating layer rpn/output_pool_rpn/output_pool_0_split
I0418 01:29:55.428216 16414 net.cpp:100] Creating Layer rpn/output_pool_rpn/output_pool_0_split
I0418 01:29:55.428223 16414 net.cpp:434] rpn/output_pool_rpn/output_pool_0_split <- rpn/output_pool
I0418 01:29:55.428232 16414 net.cpp:408] rpn/output_pool_rpn/output_pool_0_split -> rpn/output_pool_rpn/output_pool_0_split_0
I0418 01:29:55.428239 16414 net.cpp:408] rpn/output_pool_rpn/output_pool_0_split -> rpn/output_pool_rpn/output_pool_0_split_1
I0418 01:29:55.428284 16414 net.cpp:150] Setting up rpn/output_pool_rpn/output_pool_0_split
I0418 01:29:55.428298 16414 net.cpp:157] Top shape: 1 512 96 1 1 (49152)
I0418 01:29:55.428303 16414 net.cpp:157] Top shape: 1 512 96 1 1 (49152)
I0418 01:29:55.428306 16414 net.cpp:165] Memory required for data: 10172105916
I0418 01:29:55.428310 16414 layer_factory.hpp:77] Creating layer rpn_cls_score
I0418 01:29:55.428321 16414 net.cpp:100] Creating Layer rpn_cls_score
I0418 01:29:55.428328 16414 net.cpp:434] rpn_cls_score <- rpn/output_pool_rpn/output_pool_0_split_0
I0418 01:29:55.428344 16414 net.cpp:408] rpn_cls_score -> rpn_cls_score
I0418 01:29:55.430466 16414 net.cpp:150] Setting up rpn_cls_score
I0418 01:29:55.430480 16414 net.cpp:157] Top shape: 1 74 96 1 1 (7104)
I0418 01:29:55.430483 16414 net.cpp:165] Memory required for data: 10172134332
I0418 01:29:55.430490 16414 layer_factory.hpp:77] Creating layer rpn_cls_score_rpn_cls_score_0_split
I0418 01:29:55.430497 16414 net.cpp:100] Creating Layer rpn_cls_score_rpn_cls_score_0_split
I0418 01:29:55.430506 16414 net.cpp:434] rpn_cls_score_rpn_cls_score_0_split <- rpn_cls_score
I0418 01:29:55.430514 16414 net.cpp:408] rpn_cls_score_rpn_cls_score_0_split -> rpn_cls_score_rpn_cls_score_0_split_0
I0418 01:29:55.430524 16414 net.cpp:408] rpn_cls_score_rpn_cls_score_0_split -> rpn_cls_score_rpn_cls_score_0_split_1
I0418 01:29:55.430583 16414 net.cpp:150] Setting up rpn_cls_score_rpn_cls_score_0_split
I0418 01:29:55.430593 16414 net.cpp:157] Top shape: 1 74 96 1 1 (7104)
I0418 01:29:55.430598 16414 net.cpp:157] Top shape: 1 74 96 1 1 (7104)
I0418 01:29:55.430601 16414 net.cpp:165] Memory required for data: 10172191164
I0418 01:29:55.430605 16414 layer_factory.hpp:77] Creating layer rpn_twin_pred
I0418 01:29:55.430619 16414 net.cpp:100] Creating Layer rpn_twin_pred
I0418 01:29:55.430626 16414 net.cpp:434] rpn_twin_pred <- rpn/output_pool_rpn/output_pool_0_split_1
I0418 01:29:55.430636 16414 net.cpp:408] rpn_twin_pred -> rpn_twin_pred
I0418 01:29:55.432620 16414 net.cpp:150] Setting up rpn_twin_pred
I0418 01:29:55.432633 16414 net.cpp:157] Top shape: 1 74 96 1 1 (7104)
I0418 01:29:55.432637 16414 net.cpp:165] Memory required for data: 10172219580
I0418 01:29:55.432644 16414 layer_factory.hpp:77] Creating layer rpn_twin_pred_rpn_twin_pred_0_split
I0418 01:29:55.432652 16414 net.cpp:100] Creating Layer rpn_twin_pred_rpn_twin_pred_0_split
I0418 01:29:55.432657 16414 net.cpp:434] rpn_twin_pred_rpn_twin_pred_0_split <- rpn_twin_pred
I0418 01:29:55.432662 16414 net.cpp:408] rpn_twin_pred_rpn_twin_pred_0_split -> rpn_twin_pred_rpn_twin_pred_0_split_0
I0418 01:29:55.432667 16414 net.cpp:408] rpn_twin_pred_rpn_twin_pred_0_split -> rpn_twin_pred_rpn_twin_pred_0_split_1
I0418 01:29:55.432714 16414 net.cpp:150] Setting up rpn_twin_pred_rpn_twin_pred_0_split
I0418 01:29:55.432729 16414 net.cpp:157] Top shape: 1 74 96 1 1 (7104)
I0418 01:29:55.432734 16414 net.cpp:157] Top shape: 1 74 96 1 1 (7104)
I0418 01:29:55.432736 16414 net.cpp:165] Memory required for data: 10172276412
I0418 01:29:55.432740 16414 layer_factory.hpp:77] Creating layer rpn_cls_score_reshape
I0418 01:29:55.432751 16414 net.cpp:100] Creating Layer rpn_cls_score_reshape
I0418 01:29:55.432759 16414 net.cpp:434] rpn_cls_score_reshape <- rpn_cls_score_rpn_cls_score_0_split_0
I0418 01:29:55.432768 16414 net.cpp:408] rpn_cls_score_reshape -> rpn_cls_score_reshape
I0418 01:29:55.432816 16414 net.cpp:150] Setting up rpn_cls_score_reshape
I0418 01:29:55.432829 16414 net.cpp:157] Top shape: 1 2 3552 1 1 (7104)
I0418 01:29:55.432837 16414 net.cpp:165] Memory required for data: 10172304828
I0418 01:29:55.432842 16414 layer_factory.hpp:77] Creating layer rpn_cls_score_reshape_rpn_cls_score_reshape_0_split
I0418 01:29:55.432852 16414 net.cpp:100] Creating Layer rpn_cls_score_reshape_rpn_cls_score_reshape_0_split
I0418 01:29:55.432859 16414 net.cpp:434] rpn_cls_score_reshape_rpn_cls_score_reshape_0_split <- rpn_cls_score_reshape
I0418 01:29:55.432868 16414 net.cpp:408] rpn_cls_score_reshape_rpn_cls_score_reshape_0_split -> rpn_cls_score_reshape_rpn_cls_score_reshape_0_split_0
I0418 01:29:55.432885 16414 net.cpp:408] rpn_cls_score_reshape_rpn_cls_score_reshape_0_split -> rpn_cls_score_reshape_rpn_cls_score_reshape_0_split_1
I0418 01:29:55.432896 16414 net.cpp:408] rpn_cls_score_reshape_rpn_cls_score_reshape_0_split -> rpn_cls_score_reshape_rpn_cls_score_reshape_0_split_2
I0418 01:29:55.432955 16414 net.cpp:150] Setting up rpn_cls_score_reshape_rpn_cls_score_reshape_0_split
I0418 01:29:55.432965 16414 net.cpp:157] Top shape: 1 2 3552 1 1 (7104)
I0418 01:29:55.432970 16414 net.cpp:157] Top shape: 1 2 3552 1 1 (7104)
I0418 01:29:55.432973 16414 net.cpp:157] Top shape: 1 2 3552 1 1 (7104)
I0418 01:29:55.432976 16414 net.cpp:165] Memory required for data: 10172390076
I0418 01:29:55.432981 16414 layer_factory.hpp:77] Creating layer rpn-data
I0418 01:29:55.433383 16414 net.cpp:100] Creating Layer rpn-data
I0418 01:29:55.433396 16414 net.cpp:434] rpn-data <- rpn_cls_score_rpn_cls_score_0_split_1
I0418 01:29:55.433403 16414 net.cpp:434] rpn-data <- gt_boxes_data_1_split_0
I0418 01:29:55.433408 16414 net.cpp:434] rpn-data <- data_data_0_split_1
I0418 01:29:55.433413 16414 net.cpp:408] rpn-data -> rpn_labels
I0418 01:29:55.433420 16414 net.cpp:408] rpn-data -> rpn_twin_targets
I0418 01:29:55.433426 16414 net.cpp:408] rpn-data -> rpn_twin_inside_weights
I0418 01:29:55.433434 16414 net.cpp:408] rpn-data -> rpn_twin_outside_weights
I0418 01:29:55.435674 16414 net.cpp:150] Setting up rpn-data
I0418 01:29:55.435699 16414 net.cpp:157] Top shape: 1 1 3552 1 1 (3552)
I0418 01:29:55.435704 16414 net.cpp:157] Top shape: 1 74 96 1 1 (7104)
I0418 01:29:55.435709 16414 net.cpp:157] Top shape: 1 74 96 1 1 (7104)
I0418 01:29:55.435714 16414 net.cpp:157] Top shape: 1 74 96 1 1 (7104)
I0418 01:29:55.435716 16414 net.cpp:165] Memory required for data: 10172489532
I0418 01:29:55.435720 16414 layer_factory.hpp:77] Creating layer rpn_labels_rpn-data_0_split
I0418 01:29:55.435726 16414 net.cpp:100] Creating Layer rpn_labels_rpn-data_0_split
I0418 01:29:55.435730 16414 net.cpp:434] rpn_labels_rpn-data_0_split <- rpn_labels
I0418 01:29:55.435736 16414 net.cpp:408] rpn_labels_rpn-data_0_split -> rpn_labels_rpn-data_0_split_0
I0418 01:29:55.435744 16414 net.cpp:408] rpn_labels_rpn-data_0_split -> rpn_labels_rpn-data_0_split_1
I0418 01:29:55.435782 16414 net.cpp:150] Setting up rpn_labels_rpn-data_0_split
I0418 01:29:55.435796 16414 net.cpp:157] Top shape: 1 1 3552 1 1 (3552)
I0418 01:29:55.435802 16414 net.cpp:157] Top shape: 1 1 3552 1 1 (3552)
I0418 01:29:55.435808 16414 net.cpp:165] Memory required for data: 10172517948
I0418 01:29:55.435813 16414 layer_factory.hpp:77] Creating layer rpn_loss_cls
I0418 01:29:55.435822 16414 net.cpp:100] Creating Layer rpn_loss_cls
I0418 01:29:55.435829 16414 net.cpp:434] rpn_loss_cls <- rpn_cls_score_reshape_rpn_cls_score_reshape_0_split_0
I0418 01:29:55.435838 16414 net.cpp:434] rpn_loss_cls <- rpn_labels_rpn-data_0_split_0
…
I0418 01:29:55.436491 16414 layer_factory.hpp:77] Creating layer rpn_accuarcy
I0418 01:29:55.436499 16414 net.cpp:100] Creating Layer rpn_accuarcy
I0418 01:29:55.436504 16414 net.cpp:434] rpn_accuarcy <- rpn_cls_score_reshape_rpn_cls_score_reshape_0_split_1
I0418 01:29:55.436509 16414 net.cpp:434] rpn_accuarcy <- rpn_labels_rpn-data_0_split_1
I0418 01:29:55.436514 16414 net.cpp:408] rpn_accuarcy -> rpn_accuarcy
I0418 01:29:55.436520 16414 net.cpp:408] rpn_accuarcy -> rpn_accuarcy_class
I0418 01:29:55.436569 16414 net.cpp:150] Setting up rpn_accuarcy
I0418 01:29:55.436579 16414 net.cpp:157] Top shape: (1)
I0418 01:29:55.436583 16414 net.cpp:157] Top shape: 2 (2)
I0418 01:29:55.436588 16414 net.cpp:165] Memory required for data: 10172517968
I0418 01:29:55.436591 16414 layer_factory.hpp:77] Creating layer rpn_cls_prob
I0418 01:29:55.436599 16414 net.cpp:100] Creating Layer rpn_cls_prob
I0418 01:29:55.436601 16414 net.cpp:434] rpn_cls_prob <- rpn_cls_score_reshape_rpn_cls_score_reshape_0_split_2
I0418 01:29:55.436607 16414 net.cpp:408] rpn_cls_prob -> rpn_cls_prob
I0418 01:29:55.437386 16414 net.cpp:150] Setting up rpn_cls_prob
I0418 01:29:55.437397 16414 net.cpp:157] Top shape: 1 2 3552 1 1 (7104)
I0418 01:29:55.437400 16414 net.cpp:165] Memory required for data: 10172546384
I0418 01:29:55.437404 16414 layer_factory.hpp:77] Creating layer rpn_cls_prob_reshape
I0418 01:29:55.437414 16414 net.cpp:100] Creating Layer rpn_cls_prob_reshape
I0418 01:29:55.437422 16414 net.cpp:434] rpn_cls_prob_reshape <- rpn_cls_prob
I0418 01:29:55.437430 16414 net.cpp:408] rpn_cls_prob_reshape -> rpn_cls_prob_reshape
I0418 01:29:55.437464 16414 net.cpp:150] Setting up rpn_cls_prob_reshape
I0418 01:29:55.437477 16414 net.cpp:157] Top shape: 1 74 96 1 1 (7104)
I0418 01:29:55.437481 16414 net.cpp:165] Memory required for data: 10172574800
I0418 01:29:55.437485 16414 layer_factory.hpp:77] Creating layer proposal
I0418 01:29:55.438030 16414 net.cpp:100] Creating Layer proposal
I0418 01:29:55.438042 16414 net.cpp:434] proposal <- rpn_cls_prob_reshape
I0418 01:29:55.438050 16414 net.cpp:434] proposal <- rpn_twin_pred_rpn_twin_pred_0_split_1
I0418 01:29:55.438055 16414 net.cpp:408] proposal -> rpn_rois
I0418 01:29:55.440309 16414 net.cpp:150] Setting up proposal
I0418 01:29:55.440323 16414 net.cpp:157] Top shape: 1 3 (3)
I0418 01:29:55.440327 16414 net.cpp:165] Memory required for data: 10172574812
I0418 01:29:55.440331 16414 layer_factory.hpp:77] Creating layer roi-data
I0418 01:29:55.501556 16414 net.cpp:100] Creating Layer roi-data
I0418 01:29:55.501579 16414 net.cpp:434] roi-data <- rpn_rois
I0418 01:29:55.501586 16414 net.cpp:434] roi-data <- gt_boxes_data_1_split_1
I0418 01:29:55.501595 16414 net.cpp:408] roi-data -> rois
I0418 01:29:55.501603 16414 net.cpp:408] roi-data -> labels
I0418 01:29:55.501610 16414 net.cpp:408] roi-data -> twin_targets
I0418 01:29:55.501616 16414 net.cpp:408] roi-data -> twin_inside_weights
I0418 01:29:55.501631 16414 net.cpp:408] roi-data -> twin_outside_weights
I0418 01:29:55.502104 16414 net.cpp:150] Setting up roi-data
I0418 01:29:55.502120 16414 net.cpp:157] Top shape: 1 3 (3)
I0418 01:29:55.502125 16414 net.cpp:157] Top shape: 1 1 (1)
I0418 01:29:55.502130 16414 net.cpp:157] Top shape: 1 402 (402)
I0418 01:29:55.502135 16414 net.cpp:157] Top shape: 1 402 (402)
I0418 01:29:55.502140 16414 net.cpp:157] Top shape: 1 402 (402)
I0418 01:29:55.502143 16414 net.cpp:165] Memory required for data: 10172579652
I0418 01:29:55.502149 16414 layer_factory.hpp:77] Creating layer labels_roi-data_1_split
I0418 01:29:55.502156 16414 net.cpp:100] Creating Layer labels_roi-data_1_split
I0418 01:29:55.502161 16414 net.cpp:434] labels_roi-data_1_split <- labels
I0418 01:29:55.502166 16414 net.cpp:408] labels_roi-data_1_split -> labels_roi-data_1_split_0
I0418 01:29:55.502174 16414 net.cpp:408] labels_roi-data_1_split -> labels_roi-data_1_split_1
I0418 01:29:55.502215 16414 net.cpp:150] Setting up labels_roi-data_1_split
I0418 01:29:55.502228 16414 net.cpp:157] Top shape: 1 1 (1)
I0418 01:29:55.502235 16414 net.cpp:157] Top shape: 1 1 (1)
I0418 01:29:55.502239 16414 net.cpp:165] Memory required for data: 10172579660
I0418 01:29:55.502243 16414 layer_factory.hpp:77] Creating layer roi_pool5
I0418 01:29:55.502255 16414 net.cpp:100] Creating Layer roi_pool5
I0418 01:29:55.502264 16414 net.cpp:434] roi_pool5 <- conv5b_relu5b_0_split_1
I0418 01:29:55.502271 16414 net.cpp:434] roi_pool5 <- rois
I0418 01:29:55.502279 16414 net.cpp:408] roi_pool5 -> pool5
I0418 01:29:55.502291 16414 roi_pooling_layer.cpp:34] Temporal scale: 0.125
I0418 01:29:55.502303 16414 roi_pooling_layer.cpp:35] Spatial scale: 0.0625
I0418 01:29:55.502357 16414 net.cpp:150] Setting up roi_pool5
I0418 01:29:55.502367 16414 net.cpp:157] Top shape: 1 512 1 4 4 (8192)
I0418 01:29:55.502370 16414 net.cpp:165] Memory required for data: 10172612428
I0418 01:29:55.502374 16414 layer_factory.hpp:77] Creating layer fc6
I0418 01:29:55.502384 16414 net.cpp:100] Creating Layer fc6
I0418 01:29:55.502393 16414 net.cpp:434] fc6 <- pool5
I0418 01:29:55.502401 16414 net.cpp:408] fc6 -> fc6
I0418 01:29:56.383679 16414 net.cpp:150] Setting up fc6
I0418 01:29:56.383707 16414 net.cpp:157] Top shape: 1 4096 (4096)
I0418 01:29:56.383711 16414 net.cpp:165] Memory required for data: 10172628812
I0418 01:29:56.383720 16414 layer_factory.hpp:77] Creating layer relu6
I0418 01:29:56.383731 16414 net.cpp:100] Creating Layer relu6
I0418 01:29:56.383738 16414 net.cpp:434] relu6 <- fc6
I0418 01:29:56.383744 16414 net.cpp:395] relu6 -> fc6 (in-place)
I0418 01:29:56.384188 16414 net.cpp:150] Setting up relu6
I0418 01:29:56.384202 16414 net.cpp:157] Top shape: 1 4096 (4096)
I0418 01:29:56.384207 16414 net.cpp:165] Memory required for data: 10172645196
I0418 01:29:56.384210 16414 layer_factory.hpp:77] Creating layer drop6
I0418 01:29:56.384223 16414 net.cpp:100] Creating Layer drop6
I0418 01:29:56.384228 16414 net.cpp:434] drop6 <- fc6
I0418 01:29:56.384233 16414 net.cpp:395] drop6 -> fc6 (in-place)
I0418 01:29:56.384263 16414 net.cpp:150] Setting up drop6
I0418 01:29:56.384274 16414 net.cpp:157] Top shape: 1 4096 (4096)
I0418 01:29:56.384280 16414 net.cpp:165] Memory required for data: 10172661580
I0418 01:29:56.384286 16414 layer_factory.hpp:77] Creating layer fc6_drop6_0_split
I0418 01:29:56.384299 16414 net.cpp:100] Creating Layer fc6_drop6_0_split
I0418 01:29:56.384305 16414 net.cpp:434] fc6_drop6_0_split <- fc6
I0418 01:29:56.384315 16414 net.cpp:408] fc6_drop6_0_split -> fc6_drop6_0_split_0
I0418 01:29:56.384325 16414 net.cpp:408] fc6_drop6_0_split -> fc6_drop6_0_split_1
I0418 01:29:56.384371 16414 net.cpp:150] Setting up fc6_drop6_0_split
I0418 01:29:56.384382 16414 net.cpp:157] Top shape: 1 4096 (4096)
I0418 01:29:56.384387 16414 net.cpp:157] Top shape: 1 4096 (4096)
I0418 01:29:56.384390 16414 net.cpp:165] Memory required for data: 10172694348
I0418 01:29:56.384394 16414 layer_factory.hpp:77] Creating layer cls_score
I0418 01:29:56.384402 16414 net.cpp:100] Creating Layer cls_score
I0418 01:29:56.384409 16414 net.cpp:434] cls_score <- fc6_drop6_0_split_0
I0418 01:29:56.384419 16414 net.cpp:408] cls_score -> cls_score
I0418 01:29:56.405910 16414 net.cpp:150] Setting up cls_score
I0418 01:29:56.405926 16414 net.cpp:157] Top shape: 1 201 (201)
I0418 01:29:56.405930 16414 net.cpp:165] Memory required for data: 10172695152
I0418 01:29:56.405938 16414 layer_factory.hpp:77] Creating layer cls_score_cls_score_0_split
I0418 01:29:56.405946 16414 net.cpp:100] Creating Layer cls_score_cls_score_0_split
I0418 01:29:56.405956 16414 net.cpp:434] cls_score_cls_score_0_split <- cls_score
I0418 01:29:56.405964 16414 net.cpp:408] cls_score_cls_score_0_split -> cls_score_cls_score_0_split_0
I0418 01:29:56.405975 16414 net.cpp:408] cls_score_cls_score_0_split -> cls_score_cls_score_0_split_1
I0418 01:29:56.406028 16414 net.cpp:150] Setting up cls_score_cls_score_0_split
I0418 01:29:56.406038 16414 net.cpp:157] Top shape: 1 201 (201)
I0418 01:29:56.406041 16414 net.cpp:157] Top shape: 1 201 (201)
I0418 01:29:56.406049 16414 net.cpp:165] Memory required for data: 10172696760
I0418 01:29:56.406054 16414 layer_factory.hpp:77] Creating layer twin_pred
I0418 01:29:56.406074 16414 net.cpp:100] Creating Layer twin_pred
I0418 01:29:56.406082 16414 net.cpp:434] twin_pred <- fc6_drop6_0_split_1
I0418 01:29:56.406096 16414 net.cpp:408] twin_pred -> twin_pred
I0418 01:29:56.448959 16414 net.cpp:150] Setting up twin_pred
I0418 01:29:56.448983 16414 net.cpp:157] Top shape: 1 402 (402)
I0418 01:29:56.448987 16414 net.cpp:165] Memory required for data: 10172698368
I0418 01:29:56.448997 16414 layer_factory.hpp:77] Creating layer loss_cls
I0418 01:29:56.449007 16414 net.cpp:100] Creating Layer loss_cls
I0418 01:29:56.449012 16414 net.cpp:434] loss_cls <- cls_score_cls_score_0_split_0
I0418 01:29:56.449018 16414 net.cpp:434] loss_cls <- labels_roi-data_1_split_0
I0418 01:29:56.449024 16414 net.cpp:408] loss_cls -> loss_cls
…
