…
stepsize: 350000
snapshot: 0
snapshot_prefix: "./experiments/activitynet/snapshot/activitynet"
average_loss: 100
iter_size: 1
I0416 10:44:35.870767  5598 solver.cpp:81] Creating training net from train_net file: ./experiments/activitynet/train.prototxt
I0416 10:44:35.871314  5598 net.cpp:58] Initializing net from parameters: 
name: "activitynet"
state {
  phase: TRAIN
}
layer {
  name: "data"
  type: "Python"
  top: "data"
  top: "gt_boxes"
  python_param {
    module: "roi_data_layer.layer"
    layer: "RoIDataLayer"
    param_str: "\'num_classes\': 100"
  }
}
layer {
  name: "conv1a"
  type: "Convolution"
  bottom: "data"
  top: "conv1a"
  param {
    lr_mult: 0
    decay_mult: 0
  }
  param {
    lr_mult: 0
    decay_mult: 0
  }
  convolution_param {
    num_output: 64
    pad: 1
    pad: 1
    pad: 1
    kernel_size: 3
    kernel_size: 3
    kernel_size: 3
    weight_filler {
      type: "gaussian"
      std: 0.01
    }
    bias_filler {
      type: "constant"
      value: 0
    }
  }
}
layer {
  name: "relu1a"
  type: "ReLU"
  bottom: "conv1a"
  top: "conv1a"
}
layer {
  name: "pool1"
  type: "Pooling"
  bottom: "conv1a"
  top: "pool1"
  pooling_param {
    pool: MAX
    kernel_size: 1
    kernel_size: 2
    kernel_size: 2
    stride: 1
    stride: 2
    stride: 2
  }
}
layer {
  name: "conv2a"
  type: "Convolution"
  bottom: "pool1"
  top: "conv2a"
  param {
    lr_mult: 0
    decay_mult: 0
  }
  param {
    lr_mult: 0
    decay_mult: 0
  }
  convolution_param {
    num_output: 128
    pad: 1
    pad: 1
    pad: 1
    kernel_size: 3
    kernel_size: 3
    kernel_size: 3
    weight_filler {
      type: "gaussian"
      std: 0.01
    }
    bias_filler {
      type: "constant"
      value: 1
    }
  }
}
layer {
  name: "relu2a"
  type: "ReLU"
  bottom: "conv2a"
  top: "conv2a"
}
layer {
  name: "pool2"
  type: "Pooling"
  bottom: "conv2a"
  top: "pool2"
  pooling_param {
    pool: MAX
    kernel_size: 2
    kernel_size: 2
    kernel_size: 2
    stride: 2
    stride: 2
    stride: 2
  }
}
layer {
  name: "conv3a"
  type: "Convolution"
  bottom: "pool2"
  top: "conv3a"
  param {
    lr_mult: 1
    decay_mult: 1
  }
  param {
    lr_mult: 2
    decay_mult: 0
  }
  convolution_param {
    num_output: 256
    pad: 1
    pad: 1
    pad: 1
    kernel_size: 3
    kernel_size: 3
    kernel_size: 3
    weight_filler {
      type: "gaussian"
      std: 0.01
    }
    bias_filler {
      type: "constant"
      value: 1
    }
  }
}
layer {
  name: "relu3a"
  type: "ReLU"
  bottom: "conv3a"
  top: "conv3a"
}
layer {
  name: "conv3b"
  type: "Convolution"
  bottom: "conv3a"
  top: "conv3b"
  param {
    lr_mult: 1
    decay_mult: 1
  }
  param {
    lr_mult: 2
    decay_mult: 0
  }
  convolution_param {
    num_output: 256
    pad: 1
    pad: 1
    pad: 1
    kernel_size: 3
    kernel_size: 3
    kernel_size: 3
    weight_filler {
      type: "gaussian"
      std: 0.01
    }
    bias_filler {
      type: "constant"
      value: 1
    }
  }
}
layer {
  name: "relu3b"
  type: "ReLU"
  bottom: "conv3b"
  top: "conv3b"
}
layer {
  name: "pool3"
  type: "Pooling"
  bottom: "conv3b"
  top: "pool3"
  pooling_param {
    pool: MAX
    kernel_size: 2
    kernel_size: 2
    kernel_size: 2
    stride: 2
    stride: 2
    stride: 2
  }
}
layer {
  name: "conv4a"
  type: "Convolution"
  bottom: "pool3"
  top: "conv4a"
  param {
    lr_mult: 1
    decay_mult: 1
  }
  param {
    lr_mult: 2
    decay_mult: 0
  }
  convolution_param {
    num_output: 512
    pad: 1
    pad: 1
    pad: 1
    kernel_size: 3
    kernel_size: 3
    kernel_size: 3
    weight_filler {
      type: "gaussian"
      std: 0.01
    }
    bias_filler {
      type: "constant"
      value: 1
    }
  }
}
layer {
  name: "relu4a"
  type: "ReLU"
  bottom: "conv4a"
  top: "conv4a"
}
layer {
  name: "conv4b"
  type: "Convolution"
  bottom: "conv4a"
  top: "conv4b"
  param {
    lr_mult: 1
    decay_mult: 1
  }
  param {
    lr_mult: 2
    decay_mult: 0
  }
  convolution_param {
    num_output: 512
    pad: 1
    pad: 1
    pad: 1
    kernel_size: 3
    kernel_size: 3
    kernel_size: 3
    weight_filler {
      type: "gaussian"
      std: 0.01
    }
    bias_filler {
      type: "constant"
      value: 1
    }
  }
}
layer {
  name: "relu4b"
  type: "ReLU"
  bottom: "conv4b"
  top: "conv4b"
}
layer {
  name: "pool4"
  type: "Pooling"
  bottom: "conv4b"
  top: "pool4"
  pooling_param {
    pool: MAX
    kernel_size: 2
    kernel_size: 2
    kernel_size: 2
    stride: 2
    stride: 2
    stride: 2
  }
}
layer {
  name: "conv5a"
  type: "Convolution"
  bottom: "pool4"
  top: "conv5a"
  param {
    lr_mult: 1
    decay_mult: 1
  }
  param {
    lr_mult: 2
    decay_mult: 0
  }
  convolution_param {
    num_output: 512
    pad: 1
    pad: 1
    pad: 1
    kernel_size: 3
    kernel_size: 3
    kernel_size: 3
    weight_filler {
      type: "gaussian"
      std: 0.01
    }
    bias_filler {
      type: "constant"
      value: 1
    }
  }
}
layer {
  name: "relu5a"
  type: "ReLU"
  bottom: "conv5a"
  top: "conv5a"
}
layer {
  name: "conv5b"
  type: "Convolution"
  bottom: "conv5a"
  top: "conv5b"
  param {
    lr_mult: 1
    decay_mult: 1
  }
  param {
    lr_mult: 2
    decay_mult: 0
  }
  convolution_param {
    num_output: 512
    pad: 1
    pad: 1
    pad: 1
    kernel_size: 3
    kernel_size: 3
    kernel_size: 3
    weight_filler {
      type: "gaussian"
      std: 0.01
    }
    bias_filler {
      type: "constant"
      value: 1
    }
  }
}
layer {
  name: "relu5b"
  type: "ReLU"
  bottom: "conv5b"
  top: "conv5b"
}
layer {
  name: "rpn_conv/3x3"
  type: "Convolution"
  bottom: "conv5b"
  top: "rpn/output"
  param {
    lr_mult: 1
    decay_mult: 1
  }
  param {
    lr_mult: 2
    decay_mult: 0
  }
  convolution_param {
    num_output: 512
    pad: 1
    pad: 1
    pad: 1
    kernel_size: 3
    kernel_size: 3
    kernel_size: 3
    stride: 1
    stride: 2
    stride: 2
    weight_filler {
      type: "gaussian"
      std: 0.01
    }
    bias_filler {
      type: "constant"
      value: 0
    }
  }
}
layer {
  name: "rpn_relu/3x3"
  type: "ReLU"
  bottom: "rpn/output"
  top: "rpn/output"
}
layer {
  name: "rpn_conv/3x3_2"
  type: "Convolution"
  bottom: "rpn/output"
  top: "rpn/output_2"
  param {
    lr_mult: 1
    decay_mult: 1
  }
  param {
    lr_mult: 2
    decay_mult: 0
  }
  convolution_param {
    num_output: 512
    pad: 1
    pad: 1
    pad: 1
    kernel_size: 3
    kernel_size: 3
    kernel_size: 3
    stride: 1
    stride: 2
    stride: 2
    weight_filler {
      type: "gaussian"
      std: 0.01
    }
    bias_filler {
      type: "constant"
      value: 0
    }
  }
}
layer {
  name: "rpn_relu/3x3_2"
  type: "ReLU"
  bottom: "rpn/output_2"
  top: "rpn/output_2"
}
layer {
  name: "rpn/output_pool"
  type: "Pooling"
  bottom: "rpn/output_2"
  top: "rpn/output_pool"
  pooling_param {
    pool: MAX
    kernel_size: 1
    kernel_size: 2
    kernel_size: 2
  }
}
layer {
  name: "rpn_cls_score"
  type: "Convolution"
  bottom: "rpn/output_pool"
  top: "rpn_cls_score"
  param {
    lr_mult: 1
    decay_mult: 1
  }
  param {
    lr_mult: 2
    decay_mult: 0
  }
  convolution_param {
    num_output: 74
    kernel_size: 1
    kernel_size: 1
    kernel_size: 1
    weight_filler {
      type: "gaussian"
      std: 0.01
    }
    bias_filler {
      type: "constant"
      value: 0
    }
  }
}
layer {
  name: "rpn_twin_pred"
  type: "Convolution"
  bottom: "rpn/output_pool"
  top: "rpn_twin_pred"
  param {
    lr_mult: 1
    decay_mult: 1
  }
  param {
    lr_mult: 2
    decay_mult: 0
  }
  convolution_param {
    num_output: 74
    kernel_size: 1
    kernel_size: 1
    kernel_size: 1
    weight_filler {
      type: "gaussian"
      std: 0.01
    }
    bias_filler {
      type: "constant"
      value: 0
    }
  }
}
layer {
  name: "rpn_cls_score_reshape"
  type: "Reshape"
  bottom: "rpn_cls_score"
  top: "rpn_cls_score_reshape"
  reshape_param {
    shape {
      dim: 0
      dim: 2
      dim: -1
      dim: 0
      dim: 0
    }
  }
}
layer {
  name: "rpn-data"
  type: "Python"
  bottom: "rpn_cls_score"
  bottom: "gt_boxes"
  bottom: "data"
  top: "rpn_labels"
  top: "rpn_twin_targets"
  top: "rpn_twin_inside_weights"
  top: "rpn_twin_outside_weights"
  python_param {
    module: "rpn.anchor_target_layer"
    layer: "AnchorTargetLayer"
    param_str: "\'feat_stride\': 8 \n\'scales\': !!python/tuple [1,1.25, 1.5,1.75, 2,2.5, 3,3.5, 4,4.5, 5,5.5, 6,7, 8,9,10,11,12,14,16,18,20,22,24,28,32,36,40,44,52,60,68,76,84,92,100]"
  }
}
layer {
  name: "rpn_loss_cls"
  type: "SoftmaxWithLoss"
  bottom: "rpn_cls_score_reshape"
  bottom: "rpn_labels"
  top: "rpn_cls_loss"
  loss_weight: 1
  propagate_down: true
  propagate_down: false
  loss_param {
    ignore_label: -1
    normalize: true
  }
}
layer {
  name: "rpn_loss_twin"
  type: "SmoothL1Loss"
  bottom: "rpn_twin_pred"
  bottom: "rpn_twin_targets"
  bottom: "rpn_twin_inside_weights"
  bottom: "rpn_twin_outside_weights"
  top: "rpn_loss_twin"
  loss_weight: 1
  smooth_l1_loss_param {
    sigma: 3
  }
}
layer {
  name: "rpn_accuarcy"
  type: "Accuracy"
  bottom: "rpn_cls_score_reshape"
  bottom: "rpn_labels"
  top: "rpn_accuarcy"
  top: "rpn_accuarcy_class"
  propagate_down: false
  propagate_down: false
  accuracy_param {
    ignore_label: -1
  }
}
layer {
  name: "rpn_cls_prob"
  type: "Softmax"
  bottom: "rpn_cls_score_reshape"
  top: "rpn_cls_prob"
}
layer {
  name: "rpn_cls_prob_reshape"
  type: "Reshape"
  bottom: "rpn_cls_prob"
  top: "rpn_cls_prob_reshape"
  reshape_param {
    shape {
      dim: 0
      dim: 74
      dim: -1
      dim: 0
      dim: 0
    }
  }
}
layer {
  name: "proposal"
  type: "Python"
  bottom: "rpn_cls_prob_reshape"
  bottom: "rpn_twin_pred"
  top: "rpn_rois"
  include {
    phase: TRAIN
  }
  python_param {
    module: "rpn.proposal_layer"
    layer: "ProposalLayer"
    param_str: "\'feat_stride\': 8 \n\'scales\': !!python/tuple [1,1.25, 1.5,1.75, 2,2.5, 3,3.5, 4,4.5, 5,5.5, 6,7, 8,9,10,11,12,14,16,18,20,22,24,28,32,36,40,44,52,60,68,76,84,92,100]"
  }
}
layer {
  name: "roi-data"
  type: "Python"
  bottom: "rpn_rois"
  bottom: "gt_boxes"
  top: "rois"
  top: "labels"
  top: "twin_targets"
  top: "twin_inside_weights"
  top: "twin_outside_weights"
  python_param {
    module: "rpn.proposal_target_layer"
    layer: "ProposalTargetLayer"
    param_str: "\'num_classes\': 201"
  }
}
layer {
  name: "roi_pool5"
  type: "ROIPooling"
  bottom: "conv5b"
  bottom: "rois"
  top: "pool5"
  roi_pooling_param {
    pooled_h: 4
    pooled_w: 4
    spatial_scale: 0.0625
    pooled_l: 1
    temporal_scale: 0.125
  }
}
layer {
  name: "fc6"
  type: "InnerProduct"
  bottom: "pool5"
  top: "fc6"
  param {
    lr_mult: 1
    decay_mult: 1
  }
  param {
    lr_mult: 2
    decay_mult: 0
  }
  inner_product_param {
    num_output: 4096
    weight_filler {
      type: "gaussian"
      std: 0.005
    }
    bias_filler {
      type: "constant"
      value: 1
    }
  }
}
layer {
  name: "relu6"
  type: "ReLU"
  bottom: "fc6"
  top: "fc6"
}
layer {
  name: "drop6"
  type: "Dropout"
  bottom: "fc6"
  top: "fc6"
  dropout_param {
    dropout_ratio: 0.5
  }
}
layer {
  name: "cls_score"
  type: "InnerProduct"
  bottom: "fc6"
  top: "cls_score"
  param {
    lr_mult: 1
    decay_mult: 1
  }
  param {
    lr_mult: 2
    decay_mult: 0
  }
  inner_product_param {
    num_output: 201
    weight_filler {
      type: "gaussian"
      std: 0.01
    }
    bias_filler {
      type: "constant"
      value: 0
    }
  }
}
layer {
  name: "twin_pred"
  type: "InnerProduct"
  bottom: "fc6"
  top: "twin_pred"
  param {
    lr_mult: 1
    decay_mult: 1
  }
  param {
    lr_mult: 2
    decay_mult: 0
  }
  inner_product_param {
    num_output: 402
    weight_filler {
      type: "gaussian"
      std: 0.001
    }
    bias_filler {
      type: "constant"
      value: 0
    }
  }
}
layer {
  name: "loss_cls"
  type: "SoftmaxWithLoss"
  bottom: "cls_score"
  bottom: "labels"
  top: "loss_cls"
  loss_weight: 1
  propagate_down: true
  propagate_down: false
}
layer {
  name: "loss_twin"
  type: "SmoothL1Loss"
  bottom: "twin_pred"
  bottom: "twin_targets"
  bottom: "twin_inside_weights"
  bottom: "twin_outside_weights"
  top: "loss_twin"
  loss_weight: 1
}
layer {
  name: "accuarcy"
  type: "Accuracy"
  bottom: "cls_score"
  bottom: "labels"
  top: "accuarcy"
  propagate_down: false
  propagate_down: false
  accuracy_param {
    ignore_label: -1
  }
}
I0416 10:44:35.871501  5598 layer_factory.hpp:77] Creating layer data
I0416 10:44:35.882913  5598 net.cpp:100] Creating Layer data
I0416 10:44:35.882938  5598 net.cpp:408] data -> data
I0416 10:44:35.882951  5598 net.cpp:408] data -> gt_boxes
RoiDataLayer: name_to_top: {'gt_windows': 1, 'data': 0}
I0416 10:44:35.891623  5598 net.cpp:150] Setting up data
I0416 10:44:35.891645  5598 net.cpp:157] Top shape: 1 3 768 112 112 (28901376)
I0416 10:44:35.891651  5598 net.cpp:157] Top shape: 1 3 (3)
I0416 10:44:35.891655  5598 net.cpp:165] Memory required for data: 115605516
I0416 10:44:35.891664  5598 layer_factory.hpp:77] Creating layer data_data_0_split
I0416 10:44:35.891679  5598 net.cpp:100] Creating Layer data_data_0_split
I0416 10:44:35.891685  5598 net.cpp:434] data_data_0_split <- data
I0416 10:44:35.891695  5598 net.cpp:408] data_data_0_split -> data_data_0_split_0
I0416 10:44:35.891706  5598 net.cpp:408] data_data_0_split -> data_data_0_split_1
I0416 10:44:35.891760  5598 net.cpp:150] Setting up data_data_0_split
I0416 10:44:35.891768  5598 net.cpp:157] Top shape: 1 3 768 112 112 (28901376)
I0416 10:44:35.891774  5598 net.cpp:157] Top shape: 1 3 768 112 112 (28901376)
I0416 10:44:35.891778  5598 net.cpp:165] Memory required for data: 346816524
I0416 10:44:35.891783  5598 layer_factory.hpp:77] Creating layer gt_boxes_data_1_split
I0416 10:44:35.891793  5598 net.cpp:100] Creating Layer gt_boxes_data_1_split
I0416 10:44:35.891798  5598 net.cpp:434] gt_boxes_data_1_split <- gt_boxes
I0416 10:44:35.891804  5598 net.cpp:408] gt_boxes_data_1_split -> gt_boxes_data_1_split_0
I0416 10:44:35.891814  5598 net.cpp:408] gt_boxes_data_1_split -> gt_boxes_data_1_split_1
I0416 10:44:35.891857  5598 net.cpp:150] Setting up gt_boxes_data_1_split
I0416 10:44:35.891865  5598 net.cpp:157] Top shape: 1 3 (3)
I0416 10:44:35.891870  5598 net.cpp:157] Top shape: 1 3 (3)
I0416 10:44:35.891875  5598 net.cpp:165] Memory required for data: 346816548
I0416 10:44:35.891880  5598 layer_factory.hpp:77] Creating layer conv1a
I0416 10:44:35.891894  5598 net.cpp:100] Creating Layer conv1a
I0416 10:44:35.891902  5598 net.cpp:434] conv1a <- data_data_0_split_0
I0416 10:44:35.891912  5598 net.cpp:408] conv1a -> conv1a
I0416 10:44:35.909927  5598 net.cpp:150] Setting up conv1a
I0416 10:44:35.909968  5598 net.cpp:157] Top shape: 1 64 768 112 112 (616562688)
I0416 10:44:35.909973  5598 net.cpp:165] Memory required for data: 2813067300
I0416 10:44:35.909994  5598 layer_factory.hpp:77] Creating layer relu1a
I0416 10:44:35.910012  5598 net.cpp:100] Creating Layer relu1a
I0416 10:44:35.910017  5598 net.cpp:434] relu1a <- conv1a
I0416 10:44:35.910025  5598 net.cpp:395] relu1a -> conv1a (in-place)
I0416 10:44:35.910038  5598 net.cpp:150] Setting up relu1a
I0416 10:44:35.910044  5598 net.cpp:157] Top shape: 1 64 768 112 112 (616562688)
I0416 10:44:35.910048  5598 net.cpp:165] Memory required for data: 5279318052
I0416 10:44:35.910053  5598 layer_factory.hpp:77] Creating layer pool1
I0416 10:44:35.910060  5598 net.cpp:100] Creating Layer pool1
I0416 10:44:35.910065  5598 net.cpp:434] pool1 <- conv1a
I0416 10:44:35.910071  5598 net.cpp:408] pool1 -> pool1
I0416 10:44:35.910176  5598 net.cpp:150] Setting up pool1
I0416 10:44:35.910183  5598 net.cpp:157] Top shape: 1 64 768 56 56 (154140672)
I0416 10:44:35.910188  5598 net.cpp:165] Memory required for data: 5895880740
I0416 10:44:35.910192  5598 layer_factory.hpp:77] Creating layer conv2a
I0416 10:44:35.910205  5598 net.cpp:100] Creating Layer conv2a
I0416 10:44:35.910210  5598 net.cpp:434] conv2a <- pool1
I0416 10:44:35.910218  5598 net.cpp:408] conv2a -> conv2a
I0416 10:44:35.917287  5598 net.cpp:150] Setting up conv2a
I0416 10:44:35.917316  5598 net.cpp:157] Top shape: 1 128 768 56 56 (308281344)
I0416 10:44:35.917321  5598 net.cpp:165] Memory required for data: 7129006116
I0416 10:44:35.917337  5598 layer_factory.hpp:77] Creating layer relu2a
I0416 10:44:35.917351  5598 net.cpp:100] Creating Layer relu2a
I0416 10:44:35.917357  5598 net.cpp:434] relu2a <- conv2a
I0416 10:44:35.917366  5598 net.cpp:395] relu2a -> conv2a (in-place)
I0416 10:44:35.917376  5598 net.cpp:150] Setting up relu2a
I0416 10:44:35.917382  5598 net.cpp:157] Top shape: 1 128 768 56 56 (308281344)
I0416 10:44:35.917387  5598 net.cpp:165] Memory required for data: 8362131492
I0416 10:44:35.917392  5598 layer_factory.hpp:77] Creating layer pool2
I0416 10:44:35.917404  5598 net.cpp:100] Creating Layer pool2
I0416 10:44:35.917408  5598 net.cpp:434] pool2 <- conv2a
I0416 10:44:35.917414  5598 net.cpp:408] pool2 -> pool2
I0416 10:44:35.917496  5598 net.cpp:150] Setting up pool2
I0416 10:44:35.917505  5598 net.cpp:157] Top shape: 1 128 384 28 28 (38535168)
I0416 10:44:35.917510  5598 net.cpp:165] Memory required for data: 8516272164
I0416 10:44:35.917513  5598 layer_factory.hpp:77] Creating layer conv3a
I0416 10:44:35.917527  5598 net.cpp:100] Creating Layer conv3a
I0416 10:44:35.917532  5598 net.cpp:434] conv3a <- pool2
I0416 10:44:35.917543  5598 net.cpp:408] conv3a -> conv3a
I0416 10:44:35.925846  5598 net.cpp:150] Setting up conv3a
I0416 10:44:35.925868  5598 net.cpp:157] Top shape: 1 256 384 28 28 (77070336)
I0416 10:44:35.925873  5598 net.cpp:165] Memory required for data: 8824553508
I0416 10:44:35.925886  5598 layer_factory.hpp:77] Creating layer relu3a
I0416 10:44:35.925897  5598 net.cpp:100] Creating Layer relu3a
I0416 10:44:35.925912  5598 net.cpp:434] relu3a <- conv3a
I0416 10:44:35.925922  5598 net.cpp:395] relu3a -> conv3a (in-place)
I0416 10:44:35.925932  5598 net.cpp:150] Setting up relu3a
I0416 10:44:35.925938  5598 net.cpp:157] Top shape: 1 256 384 28 28 (77070336)
I0416 10:44:35.925942  5598 net.cpp:165] Memory required for data: 9132834852
I0416 10:44:35.925947  5598 layer_factory.hpp:77] Creating layer conv3b
I0416 10:44:35.925957  5598 net.cpp:100] Creating Layer conv3b
I0416 10:44:35.925962  5598 net.cpp:434] conv3b <- conv3a
I0416 10:44:35.925971  5598 net.cpp:408] conv3b -> conv3b
I0416 10:44:35.943380  5598 net.cpp:150] Setting up conv3b
I0416 10:44:35.943408  5598 net.cpp:157] Top shape: 1 256 384 28 28 (77070336)
I0416 10:44:35.943411  5598 net.cpp:165] Memory required for data: 9441116196
I0416 10:44:35.943423  5598 layer_factory.hpp:77] Creating layer relu3b
I0416 10:44:35.943435  5598 net.cpp:100] Creating Layer relu3b
I0416 10:44:35.943440  5598 net.cpp:434] relu3b <- conv3b
I0416 10:44:35.943451  5598 net.cpp:395] relu3b -> conv3b (in-place)
I0416 10:44:35.943462  5598 net.cpp:150] Setting up relu3b
I0416 10:44:35.943469  5598 net.cpp:157] Top shape: 1 256 384 28 28 (77070336)
I0416 10:44:35.943472  5598 net.cpp:165] Memory required for data: 9749397540
I0416 10:44:35.943476  5598 layer_factory.hpp:77] Creating layer pool3
I0416 10:44:35.943485  5598 net.cpp:100] Creating Layer pool3
I0416 10:44:35.943490  5598 net.cpp:434] pool3 <- conv3b
I0416 10:44:35.943498  5598 net.cpp:408] pool3 -> pool3
I0416 10:44:35.943567  5598 net.cpp:150] Setting up pool3
I0416 10:44:35.943575  5598 net.cpp:157] Top shape: 1 256 192 14 14 (9633792)
I0416 10:44:35.943579  5598 net.cpp:165] Memory required for data: 9787932708
I0416 10:44:35.943584  5598 layer_factory.hpp:77] Creating layer conv4a
I0416 10:44:35.943598  5598 net.cpp:100] Creating Layer conv4a
I0416 10:44:35.943608  5598 net.cpp:434] conv4a <- pool3
I0416 10:44:35.943619  5598 net.cpp:408] conv4a -> conv4a
I0416 10:44:35.975944  5598 net.cpp:150] Setting up conv4a
I0416 10:44:35.975970  5598 net.cpp:157] Top shape: 1 512 192 14 14 (19267584)
I0416 10:44:35.975973  5598 net.cpp:165] Memory required for data: 9865003044
I0416 10:44:35.975991  5598 layer_factory.hpp:77] Creating layer relu4a
I0416 10:44:35.976001  5598 net.cpp:100] Creating Layer relu4a
I0416 10:44:35.976007  5598 net.cpp:434] relu4a <- conv4a
I0416 10:44:35.976018  5598 net.cpp:395] relu4a -> conv4a (in-place)
I0416 10:44:35.976030  5598 net.cpp:150] Setting up relu4a
I0416 10:44:35.976037  5598 net.cpp:157] Top shape: 1 512 192 14 14 (19267584)
I0416 10:44:35.976040  5598 net.cpp:165] Memory required for data: 9942073380
I0416 10:44:35.976044  5598 layer_factory.hpp:77] Creating layer conv4b
I0416 10:44:35.976060  5598 net.cpp:100] Creating Layer conv4b
I0416 10:44:35.976065  5598 net.cpp:434] conv4b <- conv4a
I0416 10:44:35.976073  5598 net.cpp:408] conv4b -> conv4b
I0416 10:44:36.036027  5598 net.cpp:150] Setting up conv4b
I0416 10:44:36.036058  5598 net.cpp:157] Top shape: 1 512 192 14 14 (19267584)
I0416 10:44:36.036062  5598 net.cpp:165] Memory required for data: 10019143716
I0416 10:44:36.036073  5598 layer_factory.hpp:77] Creating layer relu4b
I0416 10:44:36.036084  5598 net.cpp:100] Creating Layer relu4b
I0416 10:44:36.036090  5598 net.cpp:434] relu4b <- conv4b
I0416 10:44:36.036100  5598 net.cpp:395] relu4b -> conv4b (in-place)
I0416 10:44:36.036111  5598 net.cpp:150] Setting up relu4b
I0416 10:44:36.036118  5598 net.cpp:157] Top shape: 1 512 192 14 14 (19267584)
I0416 10:44:36.036121  5598 net.cpp:165] Memory required for data: 10096214052
I0416 10:44:36.036125  5598 layer_factory.hpp:77] Creating layer pool4
I0416 10:44:36.036134  5598 net.cpp:100] Creating Layer pool4
I0416 10:44:36.036139  5598 net.cpp:434] pool4 <- conv4b
I0416 10:44:36.036145  5598 net.cpp:408] pool4 -> pool4
I0416 10:44:36.036207  5598 net.cpp:150] Setting up pool4
I0416 10:44:36.036216  5598 net.cpp:157] Top shape: 1 512 96 7 7 (2408448)
I0416 10:44:36.036221  5598 net.cpp:165] Memory required for data: 10105847844
I0416 10:44:36.036224  5598 layer_factory.hpp:77] Creating layer conv5a
I0416 10:44:36.036237  5598 net.cpp:100] Creating Layer conv5a
I0416 10:44:36.036242  5598 net.cpp:434] conv5a <- pool4
I0416 10:44:36.036252  5598 net.cpp:408] conv5a -> conv5a
I0416 10:44:36.096006  5598 net.cpp:150] Setting up conv5a
I0416 10:44:36.096038  5598 net.cpp:157] Top shape: 1 512 96 7 7 (2408448)
I0416 10:44:36.096042  5598 net.cpp:165] Memory required for data: 10115481636
I0416 10:44:36.096053  5598 layer_factory.hpp:77] Creating layer relu5a
I0416 10:44:36.096068  5598 net.cpp:100] Creating Layer relu5a
I0416 10:44:36.096076  5598 net.cpp:434] relu5a <- conv5a
I0416 10:44:36.096084  5598 net.cpp:395] relu5a -> conv5a (in-place)
I0416 10:44:36.096096  5598 net.cpp:150] Setting up relu5a
I0416 10:44:36.096104  5598 net.cpp:157] Top shape: 1 512 96 7 7 (2408448)
I0416 10:44:36.096107  5598 net.cpp:165] Memory required for data: 10125115428
I0416 10:44:36.096112  5598 layer_factory.hpp:77] Creating layer conv5b
I0416 10:44:36.096127  5598 net.cpp:100] Creating Layer conv5b
I0416 10:44:36.096132  5598 net.cpp:434] conv5b <- conv5a
I0416 10:44:36.096141  5598 net.cpp:408] conv5b -> conv5b
I0416 10:44:36.155041  5598 net.cpp:150] Setting up conv5b
I0416 10:44:36.155074  5598 net.cpp:157] Top shape: 1 512 96 7 7 (2408448)
I0416 10:44:36.155078  5598 net.cpp:165] Memory required for data: 10134749220
I0416 10:44:36.155088  5598 layer_factory.hpp:77] Creating layer relu5b
I0416 10:44:36.155102  5598 net.cpp:100] Creating Layer relu5b
I0416 10:44:36.155107  5598 net.cpp:434] relu5b <- conv5b
I0416 10:44:36.155115  5598 net.cpp:395] relu5b -> conv5b (in-place)
I0416 10:44:36.155125  5598 net.cpp:150] Setting up relu5b
I0416 10:44:36.155131  5598 net.cpp:157] Top shape: 1 512 96 7 7 (2408448)
I0416 10:44:36.155135  5598 net.cpp:165] Memory required for data: 10144383012
I0416 10:44:36.155139  5598 layer_factory.hpp:77] Creating layer conv5b_relu5b_0_split
I0416 10:44:36.155149  5598 net.cpp:100] Creating Layer conv5b_relu5b_0_split
I0416 10:44:36.155153  5598 net.cpp:434] conv5b_relu5b_0_split <- conv5b
I0416 10:44:36.155158  5598 net.cpp:408] conv5b_relu5b_0_split -> conv5b_relu5b_0_split_0
I0416 10:44:36.155167  5598 net.cpp:408] conv5b_relu5b_0_split -> conv5b_relu5b_0_split_1
I0416 10:44:36.155227  5598 net.cpp:150] Setting up conv5b_relu5b_0_split
I0416 10:44:36.155236  5598 net.cpp:157] Top shape: 1 512 96 7 7 (2408448)
I0416 10:44:36.155241  5598 net.cpp:157] Top shape: 1 512 96 7 7 (2408448)
I0416 10:44:36.155244  5598 net.cpp:165] Memory required for data: 10163650596
I0416 10:44:36.155248  5598 layer_factory.hpp:77] Creating layer rpn_conv/3x3
I0416 10:44:36.155262  5598 net.cpp:100] Creating Layer rpn_conv/3x3
I0416 10:44:36.155268  5598 net.cpp:434] rpn_conv/3x3 <- conv5b_relu5b_0_split_0
I0416 10:44:36.155277  5598 net.cpp:408] rpn_conv/3x3 -> rpn/output
I0416 10:44:36.214735  5598 net.cpp:150] Setting up rpn_conv/3x3
I0416 10:44:36.214766  5598 net.cpp:157] Top shape: 1 512 96 4 4 (786432)
I0416 10:44:36.214771  5598 net.cpp:165] Memory required for data: 10166796324
I0416 10:44:36.214790  5598 layer_factory.hpp:77] Creating layer rpn_relu/3x3
I0416 10:44:36.214803  5598 net.cpp:100] Creating Layer rpn_relu/3x3
I0416 10:44:36.214808  5598 net.cpp:434] rpn_relu/3x3 <- rpn/output
I0416 10:44:36.214817  5598 net.cpp:395] rpn_relu/3x3 -> rpn/output (in-place)
I0416 10:44:36.214826  5598 net.cpp:150] Setting up rpn_relu/3x3
I0416 10:44:36.214834  5598 net.cpp:157] Top shape: 1 512 96 4 4 (786432)
I0416 10:44:36.214838  5598 net.cpp:165] Memory required for data: 10169942052
I0416 10:44:36.214841  5598 layer_factory.hpp:77] Creating layer rpn_conv/3x3_2
I0416 10:44:36.214853  5598 net.cpp:100] Creating Layer rpn_conv/3x3_2
I0416 10:44:36.214857  5598 net.cpp:434] rpn_conv/3x3_2 <- rpn/output
I0416 10:44:36.214866  5598 net.cpp:408] rpn_conv/3x3_2 -> rpn/output_2
I0416 10:44:36.273165  5598 net.cpp:150] Setting up rpn_conv/3x3_2
I0416 10:44:36.273197  5598 net.cpp:157] Top shape: 1 512 96 2 2 (196608)
I0416 10:44:36.273201  5598 net.cpp:165] Memory required for data: 10170728484
I0416 10:44:36.273212  5598 layer_factory.hpp:77] Creating layer rpn_relu/3x3_2
I0416 10:44:36.273226  5598 net.cpp:100] Creating Layer rpn_relu/3x3_2
I0416 10:44:36.273231  5598 net.cpp:434] rpn_relu/3x3_2 <- rpn/output_2
I0416 10:44:36.273238  5598 net.cpp:395] rpn_relu/3x3_2 -> rpn/output_2 (in-place)
I0416 10:44:36.273248  5598 net.cpp:150] Setting up rpn_relu/3x3_2
I0416 10:44:36.273253  5598 net.cpp:157] Top shape: 1 512 96 2 2 (196608)
I0416 10:44:36.273257  5598 net.cpp:165] Memory required for data: 10171514916
I0416 10:44:36.273260  5598 layer_factory.hpp:77] Creating layer rpn/output_pool
I0416 10:44:36.273270  5598 net.cpp:100] Creating Layer rpn/output_pool
I0416 10:44:36.273274  5598 net.cpp:434] rpn/output_pool <- rpn/output_2
I0416 10:44:36.273280  5598 net.cpp:408] rpn/output_pool -> rpn/output_pool
I0416 10:44:36.273345  5598 net.cpp:150] Setting up rpn/output_pool
I0416 10:44:36.273355  5598 net.cpp:157] Top shape: 1 512 96 1 1 (49152)
I0416 10:44:36.273358  5598 net.cpp:165] Memory required for data: 10171711524
I0416 10:44:36.273363  5598 layer_factory.hpp:77] Creating layer rpn/output_pool_rpn/output_pool_0_split
I0416 10:44:36.273372  5598 net.cpp:100] Creating Layer rpn/output_pool_rpn/output_pool_0_split
I0416 10:44:36.273377  5598 net.cpp:434] rpn/output_pool_rpn/output_pool_0_split <- rpn/output_pool
I0416 10:44:36.273383  5598 net.cpp:408] rpn/output_pool_rpn/output_pool_0_split -> rpn/output_pool_rpn/output_pool_0_split_0
I0416 10:44:36.273392  5598 net.cpp:408] rpn/output_pool_rpn/output_pool_0_split -> rpn/output_pool_rpn/output_pool_0_split_1
I0416 10:44:36.273450  5598 net.cpp:150] Setting up rpn/output_pool_rpn/output_pool_0_split
I0416 10:44:36.273459  5598 net.cpp:157] Top shape: 1 512 96 1 1 (49152)
I0416 10:44:36.273465  5598 net.cpp:157] Top shape: 1 512 96 1 1 (49152)
I0416 10:44:36.273469  5598 net.cpp:165] Memory required for data: 10172104740
I0416 10:44:36.273473  5598 layer_factory.hpp:77] Creating layer rpn_cls_score
I0416 10:44:36.273486  5598 net.cpp:100] Creating Layer rpn_cls_score
I0416 10:44:36.273491  5598 net.cpp:434] rpn_cls_score <- rpn/output_pool_rpn/output_pool_0_split_0
I0416 10:44:36.273499  5598 net.cpp:408] rpn_cls_score -> rpn_cls_score
I0416 10:44:36.274319  5598 net.cpp:150] Setting up rpn_cls_score
I0416 10:44:36.274330  5598 net.cpp:157] Top shape: 1 74 96 1 1 (7104)
I0416 10:44:36.274334  5598 net.cpp:165] Memory required for data: 10172133156
I0416 10:44:36.274341  5598 layer_factory.hpp:77] Creating layer rpn_cls_score_rpn_cls_score_0_split
I0416 10:44:36.274348  5598 net.cpp:100] Creating Layer rpn_cls_score_rpn_cls_score_0_split
I0416 10:44:36.274353  5598 net.cpp:434] rpn_cls_score_rpn_cls_score_0_split <- rpn_cls_score
I0416 10:44:36.274364  5598 net.cpp:408] rpn_cls_score_rpn_cls_score_0_split -> rpn_cls_score_rpn_cls_score_0_split_0
I0416 10:44:36.274372  5598 net.cpp:408] rpn_cls_score_rpn_cls_score_0_split -> rpn_cls_score_rpn_cls_score_0_split_1
I0416 10:44:36.274438  5598 net.cpp:150] Setting up rpn_cls_score_rpn_cls_score_0_split
I0416 10:44:36.274446  5598 net.cpp:157] Top shape: 1 74 96 1 1 (7104)
I0416 10:44:36.274452  5598 net.cpp:157] Top shape: 1 74 96 1 1 (7104)
I0416 10:44:36.274456  5598 net.cpp:165] Memory required for data: 10172189988
I0416 10:44:36.274461  5598 layer_factory.hpp:77] Creating layer rpn_twin_pred
I0416 10:44:36.274478  5598 net.cpp:100] Creating Layer rpn_twin_pred
I0416 10:44:36.274484  5598 net.cpp:434] rpn_twin_pred <- rpn/output_pool_rpn/output_pool_0_split_1
I0416 10:44:36.274492  5598 net.cpp:408] rpn_twin_pred -> rpn_twin_pred
I0416 10:44:36.275169  5598 net.cpp:150] Setting up rpn_twin_pred
I0416 10:44:36.275179  5598 net.cpp:157] Top shape: 1 74 96 1 1 (7104)
I0416 10:44:36.275183  5598 net.cpp:165] Memory required for data: 10172218404
I0416 10:44:36.275190  5598 layer_factory.hpp:77] Creating layer rpn_twin_pred_rpn_twin_pred_0_split
I0416 10:44:36.275197  5598 net.cpp:100] Creating Layer rpn_twin_pred_rpn_twin_pred_0_split
I0416 10:44:36.275202  5598 net.cpp:434] rpn_twin_pred_rpn_twin_pred_0_split <- rpn_twin_pred
I0416 10:44:36.275209  5598 net.cpp:408] rpn_twin_pred_rpn_twin_pred_0_split -> rpn_twin_pred_rpn_twin_pred_0_split_0
I0416 10:44:36.275218  5598 net.cpp:408] rpn_twin_pred_rpn_twin_pred_0_split -> rpn_twin_pred_rpn_twin_pred_0_split_1
I0416 10:44:36.275279  5598 net.cpp:150] Setting up rpn_twin_pred_rpn_twin_pred_0_split
I0416 10:44:36.275287  5598 net.cpp:157] Top shape: 1 74 96 1 1 (7104)
I0416 10:44:36.275292  5598 net.cpp:157] Top shape: 1 74 96 1 1 (7104)
I0416 10:44:36.275296  5598 net.cpp:165] Memory required for data: 10172275236
I0416 10:44:36.275300  5598 layer_factory.hpp:77] Creating layer rpn_cls_score_reshape
I0416 10:44:36.275310  5598 net.cpp:100] Creating Layer rpn_cls_score_reshape
I0416 10:44:36.275315  5598 net.cpp:434] rpn_cls_score_reshape <- rpn_cls_score_rpn_cls_score_0_split_0
I0416 10:44:36.275323  5598 net.cpp:408] rpn_cls_score_reshape -> rpn_cls_score_reshape
I0416 10:44:36.275362  5598 net.cpp:150] Setting up rpn_cls_score_reshape
I0416 10:44:36.275372  5598 net.cpp:157] Top shape: 1 2 3552 1 1 (7104)
I0416 10:44:36.275375  5598 net.cpp:165] Memory required for data: 10172303652
I0416 10:44:36.275379  5598 layer_factory.hpp:77] Creating layer rpn_cls_score_reshape_rpn_cls_score_reshape_0_split
I0416 10:44:36.275387  5598 net.cpp:100] Creating Layer rpn_cls_score_reshape_rpn_cls_score_reshape_0_split
I0416 10:44:36.275390  5598 net.cpp:434] rpn_cls_score_reshape_rpn_cls_score_reshape_0_split <- rpn_cls_score_reshape
I0416 10:44:36.275399  5598 net.cpp:408] rpn_cls_score_reshape_rpn_cls_score_reshape_0_split -> rpn_cls_score_reshape_rpn_cls_score_reshape_0_split_0
I0416 10:44:36.275419  5598 net.cpp:408] rpn_cls_score_reshape_rpn_cls_score_reshape_0_split -> rpn_cls_score_reshape_rpn_cls_score_reshape_0_split_1
I0416 10:44:36.275429  5598 net.cpp:408] rpn_cls_score_reshape_rpn_cls_score_reshape_0_split -> rpn_cls_score_reshape_rpn_cls_score_reshape_0_split_2
I0416 10:44:36.275506  5598 net.cpp:150] Setting up rpn_cls_score_reshape_rpn_cls_score_reshape_0_split
I0416 10:44:36.275514  5598 net.cpp:157] Top shape: 1 2 3552 1 1 (7104)
I0416 10:44:36.275521  5598 net.cpp:157] Top shape: 1 2 3552 1 1 (7104)
I0416 10:44:36.275526  5598 net.cpp:157] Top shape: 1 2 3552 1 1 (7104)
I0416 10:44:36.275528  5598 net.cpp:165] Memory required for data: 10172388900
I0416 10:44:36.275533  5598 layer_factory.hpp:77] Creating layer rpn-data
I0416 10:44:36.276106  5598 net.cpp:100] Creating Layer rpn-data
I0416 10:44:36.276118  5598 net.cpp:434] rpn-data <- rpn_cls_score_rpn_cls_score_0_split_1
I0416 10:44:36.276124  5598 net.cpp:434] rpn-data <- gt_boxes_data_1_split_0
I0416 10:44:36.276129  5598 net.cpp:434] rpn-data <- data_data_0_split_1
I0416 10:44:36.276139  5598 net.cpp:408] rpn-data -> rpn_labels
I0416 10:44:36.276149  5598 net.cpp:408] rpn-data -> rpn_twin_targets
I0416 10:44:36.276157  5598 net.cpp:408] rpn-data -> rpn_twin_inside_weights
I0416 10:44:36.276166  5598 net.cpp:408] rpn-data -> rpn_twin_outside_weights
I0416 10:44:36.278765  5598 net.cpp:150] Setting up rpn-data
I0416 10:44:36.278780  5598 net.cpp:157] Top shape: 1 1 3552 1 1 (3552)
I0416 10:44:36.278786  5598 net.cpp:157] Top shape: 1 74 96 1 1 (7104)
I0416 10:44:36.278791  5598 net.cpp:157] Top shape: 1 74 96 1 1 (7104)
I0416 10:44:36.278796  5598 net.cpp:157] Top shape: 1 74 96 1 1 (7104)
I0416 10:44:36.278800  5598 net.cpp:165] Memory required for data: 10172488356
I0416 10:44:36.278805  5598 layer_factory.hpp:77] Creating layer rpn_labels_rpn-data_0_split
I0416 10:44:36.278812  5598 net.cpp:100] Creating Layer rpn_labels_rpn-data_0_split
I0416 10:44:36.278817  5598 net.cpp:434] rpn_labels_rpn-data_0_split <- rpn_labels
I0416 10:44:36.278825  5598 net.cpp:408] rpn_labels_rpn-data_0_split -> rpn_labels_rpn-data_0_split_0
I0416 10:44:36.278833  5598 net.cpp:408] rpn_labels_rpn-data_0_split -> rpn_labels_rpn-data_0_split_1
I0416 10:44:36.278889  5598 net.cpp:150] Setting up rpn_labels_rpn-data_0_split
I0416 10:44:36.278898  5598 net.cpp:157] Top shape: 1 1 3552 1 1 (3552)
I0416 10:44:36.278903  5598 net.cpp:157] Top shape: 1 1 3552 1 1 (3552)
I0416 10:44:36.278908  5598 net.cpp:165] Memory required for data: 10172516772
I0416 10:44:36.278911  5598 layer_factory.hpp:77] Creating layer rpn_loss_cls
I0416 10:44:36.278920  5598 net.cpp:100] Creating Layer rpn_loss_cls
I0416 10:44:36.278925  5598 net.cpp:434] rpn_loss_cls <- rpn_cls_score_reshape_rpn_cls_score_reshape_0_split_0
I0416 10:44:36.278931  5598 net.cpp:434] rpn_loss_cls <- rpn_labels_rpn-data_0_split_0
…
I0416 10:44:36.279332  5598 layer_factory.hpp:77] Creating layer rpn_accuarcy
I0416 10:44:36.279340  5598 net.cpp:100] Creating Layer rpn_accuarcy
I0416 10:44:36.279345  5598 net.cpp:434] rpn_accuarcy <- rpn_cls_score_reshape_rpn_cls_score_reshape_0_split_1
I0416 10:44:36.279351  5598 net.cpp:434] rpn_accuarcy <- rpn_labels_rpn-data_0_split_1
I0416 10:44:36.279357  5598 net.cpp:408] rpn_accuarcy -> rpn_accuarcy
I0416 10:44:36.279366  5598 net.cpp:408] rpn_accuarcy -> rpn_accuarcy_class
I0416 10:44:36.279426  5598 net.cpp:150] Setting up rpn_accuarcy
I0416 10:44:36.279434  5598 net.cpp:157] Top shape: (1)
I0416 10:44:36.279439  5598 net.cpp:157] Top shape: 2 (2)
I0416 10:44:36.279443  5598 net.cpp:165] Memory required for data: 10172516792
I0416 10:44:36.279448  5598 layer_factory.hpp:77] Creating layer rpn_cls_prob
I0416 10:44:36.279453  5598 net.cpp:100] Creating Layer rpn_cls_prob
I0416 10:44:36.279458  5598 net.cpp:434] rpn_cls_prob <- rpn_cls_score_reshape_rpn_cls_score_reshape_0_split_2
I0416 10:44:36.279464  5598 net.cpp:408] rpn_cls_prob -> rpn_cls_prob
I0416 10:44:36.279567  5598 net.cpp:150] Setting up rpn_cls_prob
I0416 10:44:36.279574  5598 net.cpp:157] Top shape: 1 2 3552 1 1 (7104)
I0416 10:44:36.279578  5598 net.cpp:165] Memory required for data: 10172545208
I0416 10:44:36.279582  5598 layer_factory.hpp:77] Creating layer rpn_cls_prob_reshape
I0416 10:44:36.279592  5598 net.cpp:100] Creating Layer rpn_cls_prob_reshape
I0416 10:44:36.279597  5598 net.cpp:434] rpn_cls_prob_reshape <- rpn_cls_prob
I0416 10:44:36.279604  5598 net.cpp:408] rpn_cls_prob_reshape -> rpn_cls_prob_reshape
I0416 10:44:36.279644  5598 net.cpp:150] Setting up rpn_cls_prob_reshape
I0416 10:44:36.279651  5598 net.cpp:157] Top shape: 1 74 96 1 1 (7104)
I0416 10:44:36.279655  5598 net.cpp:165] Memory required for data: 10172573624
I0416 10:44:36.279659  5598 layer_factory.hpp:77] Creating layer proposal
I0416 10:44:36.280433  5598 net.cpp:100] Creating Layer proposal
I0416 10:44:36.280444  5598 net.cpp:434] proposal <- rpn_cls_prob_reshape
I0416 10:44:36.280452  5598 net.cpp:434] proposal <- rpn_twin_pred_rpn_twin_pred_0_split_1
I0416 10:44:36.280460  5598 net.cpp:408] proposal -> rpn_rois
I0416 10:44:36.284166  5598 net.cpp:150] Setting up proposal
I0416 10:44:36.284179  5598 net.cpp:157] Top shape: 1 3 (3)
I0416 10:44:36.284183  5598 net.cpp:165] Memory required for data: 10172573636
I0416 10:44:36.284188  5598 layer_factory.hpp:77] Creating layer roi-data
I0416 10:44:36.284395  5598 net.cpp:100] Creating Layer roi-data
I0416 10:44:36.284405  5598 net.cpp:434] roi-data <- rpn_rois
I0416 10:44:36.284412  5598 net.cpp:434] roi-data <- gt_boxes_data_1_split_1
I0416 10:44:36.284420  5598 net.cpp:408] roi-data -> rois
I0416 10:44:36.284430  5598 net.cpp:408] roi-data -> labels
I0416 10:44:36.284437  5598 net.cpp:408] roi-data -> twin_targets
I0416 10:44:36.284446  5598 net.cpp:408] roi-data -> twin_inside_weights
I0416 10:44:36.284453  5598 net.cpp:408] roi-data -> twin_outside_weights
I0416 10:44:36.284852  5598 net.cpp:150] Setting up roi-data
I0416 10:44:36.284864  5598 net.cpp:157] Top shape: 1 3 (3)
I0416 10:44:36.284869  5598 net.cpp:157] Top shape: 1 1 (1)
I0416 10:44:36.284874  5598 net.cpp:157] Top shape: 1 402 (402)
I0416 10:44:36.284879  5598 net.cpp:157] Top shape: 1 402 (402)
I0416 10:44:36.284883  5598 net.cpp:157] Top shape: 1 402 (402)
I0416 10:44:36.284888  5598 net.cpp:165] Memory required for data: 10172578476
I0416 10:44:36.284893  5598 layer_factory.hpp:77] Creating layer labels_roi-data_1_split
I0416 10:44:36.284899  5598 net.cpp:100] Creating Layer labels_roi-data_1_split
I0416 10:44:36.284905  5598 net.cpp:434] labels_roi-data_1_split <- labels
I0416 10:44:36.284912  5598 net.cpp:408] labels_roi-data_1_split -> labels_roi-data_1_split_0
I0416 10:44:36.284921  5598 net.cpp:408] labels_roi-data_1_split -> labels_roi-data_1_split_1
I0416 10:44:36.284976  5598 net.cpp:150] Setting up labels_roi-data_1_split
I0416 10:44:36.284984  5598 net.cpp:157] Top shape: 1 1 (1)
I0416 10:44:36.284989  5598 net.cpp:157] Top shape: 1 1 (1)
I0416 10:44:36.284992  5598 net.cpp:165] Memory required for data: 10172578484
I0416 10:44:36.284997  5598 layer_factory.hpp:77] Creating layer roi_pool5
I0416 10:44:36.285008  5598 net.cpp:100] Creating Layer roi_pool5
I0416 10:44:36.285014  5598 net.cpp:434] roi_pool5 <- conv5b_relu5b_0_split_1
I0416 10:44:36.285019  5598 net.cpp:434] roi_pool5 <- rois
I0416 10:44:36.285027  5598 net.cpp:408] roi_pool5 -> pool5
I0416 10:44:36.285034  5598 roi_pooling_layer.cpp:34] Temporal scale: 0.125
I0416 10:44:36.285043  5598 roi_pooling_layer.cpp:35] Spatial scale: 0.0625
I0416 10:44:36.285100  5598 net.cpp:150] Setting up roi_pool5
I0416 10:44:36.285109  5598 net.cpp:157] Top shape: 1 512 1 4 4 (8192)
I0416 10:44:36.285114  5598 net.cpp:165] Memory required for data: 10172611252
I0416 10:44:36.285117  5598 layer_factory.hpp:77] Creating layer fc6
I0416 10:44:36.285126  5598 net.cpp:100] Creating Layer fc6
I0416 10:44:36.285131  5598 net.cpp:434] fc6 <- pool5
I0416 10:44:36.285138  5598 net.cpp:408] fc6 -> fc6
I0416 10:44:36.556985  5598 net.cpp:150] Setting up fc6
I0416 10:44:36.557019  5598 net.cpp:157] Top shape: 1 4096 (4096)
I0416 10:44:36.557024  5598 net.cpp:165] Memory required for data: 10172627636
I0416 10:44:36.557035  5598 layer_factory.hpp:77] Creating layer relu6
I0416 10:44:36.557047  5598 net.cpp:100] Creating Layer relu6
I0416 10:44:36.557052  5598 net.cpp:434] relu6 <- fc6
I0416 10:44:36.557060  5598 net.cpp:395] relu6 -> fc6 (in-place)
I0416 10:44:36.557070  5598 net.cpp:150] Setting up relu6
I0416 10:44:36.557075  5598 net.cpp:157] Top shape: 1 4096 (4096)
I0416 10:44:36.557078  5598 net.cpp:165] Memory required for data: 10172644020
I0416 10:44:36.557081  5598 layer_factory.hpp:77] Creating layer drop6
I0416 10:44:36.557090  5598 net.cpp:100] Creating Layer drop6
I0416 10:44:36.557094  5598 net.cpp:434] drop6 <- fc6
I0416 10:44:36.557099  5598 net.cpp:395] drop6 -> fc6 (in-place)
I0416 10:44:36.557134  5598 net.cpp:150] Setting up drop6
I0416 10:44:36.557142  5598 net.cpp:157] Top shape: 1 4096 (4096)
I0416 10:44:36.557144  5598 net.cpp:165] Memory required for data: 10172660404
I0416 10:44:36.557149  5598 layer_factory.hpp:77] Creating layer fc6_drop6_0_split
I0416 10:44:36.557159  5598 net.cpp:100] Creating Layer fc6_drop6_0_split
I0416 10:44:36.557164  5598 net.cpp:434] fc6_drop6_0_split <- fc6
I0416 10:44:36.557173  5598 net.cpp:408] fc6_drop6_0_split -> fc6_drop6_0_split_0
I0416 10:44:36.557183  5598 net.cpp:408] fc6_drop6_0_split -> fc6_drop6_0_split_1
I0416 10:44:36.557248  5598 net.cpp:150] Setting up fc6_drop6_0_split
I0416 10:44:36.557256  5598 net.cpp:157] Top shape: 1 4096 (4096)
I0416 10:44:36.557261  5598 net.cpp:157] Top shape: 1 4096 (4096)
I0416 10:44:36.557265  5598 net.cpp:165] Memory required for data: 10172693172
I0416 10:44:36.557270  5598 layer_factory.hpp:77] Creating layer cls_score
I0416 10:44:36.557279  5598 net.cpp:100] Creating Layer cls_score
I0416 10:44:36.557284  5598 net.cpp:434] cls_score <- fc6_drop6_0_split_0
I0416 10:44:36.557293  5598 net.cpp:408] cls_score -> cls_score
I0416 10:44:36.564885  5598 net.cpp:150] Setting up cls_score
I0416 10:44:36.564901  5598 net.cpp:157] Top shape: 1 201 (201)
I0416 10:44:36.564905  5598 net.cpp:165] Memory required for data: 10172693976
I0416 10:44:36.564915  5598 layer_factory.hpp:77] Creating layer cls_score_cls_score_0_split
I0416 10:44:36.564925  5598 net.cpp:100] Creating Layer cls_score_cls_score_0_split
I0416 10:44:36.564929  5598 net.cpp:434] cls_score_cls_score_0_split <- cls_score
I0416 10:44:36.564937  5598 net.cpp:408] cls_score_cls_score_0_split -> cls_score_cls_score_0_split_0
I0416 10:44:36.564947  5598 net.cpp:408] cls_score_cls_score_0_split -> cls_score_cls_score_0_split_1
I0416 10:44:36.565006  5598 net.cpp:150] Setting up cls_score_cls_score_0_split
I0416 10:44:36.565013  5598 net.cpp:157] Top shape: 1 201 (201)
I0416 10:44:36.565017  5598 net.cpp:157] Top shape: 1 201 (201)
I0416 10:44:36.565022  5598 net.cpp:165] Memory required for data: 10172695584
I0416 10:44:36.565026  5598 layer_factory.hpp:77] Creating layer twin_pred
I0416 10:44:36.565035  5598 net.cpp:100] Creating Layer twin_pred
I0416 10:44:36.565040  5598 net.cpp:434] twin_pred <- fc6_drop6_0_split_1
I0416 10:44:36.565048  5598 net.cpp:408] twin_pred -> twin_pred
I0416 10:44:36.578929  5598 net.cpp:150] Setting up twin_pred
I0416 10:44:36.578958  5598 net.cpp:157] Top shape: 1 402 (402)
I0416 10:44:36.578963  5598 net.cpp:165] Memory required for data: 10172697192
I0416 10:44:36.578974  5598 layer_factory.hpp:77] Creating layer loss_cls
I0416 10:44:36.578989  5598 net.cpp:100] Creating Layer loss_cls
I0416 10:44:36.578994  5598 net.cpp:434] loss_cls <- cls_score_cls_score_0_split_0
I0416 10:44:36.579002  5598 net.cpp:434] loss_cls <- labels_roi-data_1_split_0
I0416 10:44:36.579011  5598 net.cpp:408] loss_cls -> loss_cls
…
