…
stepsize: 350000
snapshot: 0
snapshot_prefix: "./experiments/activitynet/snapshot/activitynet"
average_loss: 100
iter_size: 1
I0418 00:32:21.945158 28360 solver.cpp:81] Creating training net from train_net file: ./experiments/activitynet/train.prototxt
I0418 00:32:21.946203 28360 net.cpp:58] Initializing net from parameters: 
name: "activitynet"
state {
  phase: TRAIN
}
layer {
  name: "data"
  type: "Python"
  top: "data"
  top: "gt_boxes"
  python_param {
    module: "roi_data_layer.layer"
    layer: "RoIDataLayer"
    param_str: "\'num_classes\': 100"
  }
}
layer {
  name: "conv1a"
  type: "Convolution"
  bottom: "data"
  top: "conv1a"
  param {
    lr_mult: 0
    decay_mult: 0
  }
  param {
    lr_mult: 0
    decay_mult: 0
  }
  convolution_param {
    num_output: 64
    pad: 1
    pad: 1
    pad: 1
    kernel_size: 3
    kernel_size: 3
    kernel_size: 3
    weight_filler {
      type: "gaussian"
      std: 0.01
    }
    bias_filler {
      type: "constant"
      value: 0
    }
  }
}
layer {
  name: "relu1a"
  type: "ReLU"
  bottom: "conv1a"
  top: "conv1a"
}
layer {
  name: "pool1"
  type: "Pooling"
  bottom: "conv1a"
  top: "pool1"
  pooling_param {
    pool: MAX
    kernel_size: 1
    kernel_size: 2
    kernel_size: 2
    stride: 1
    stride: 2
    stride: 2
  }
}
layer {
  name: "conv2a"
  type: "Convolution"
  bottom: "pool1"
  top: "conv2a"
  param {
    lr_mult: 0
    decay_mult: 0
  }
  param {
    lr_mult: 0
    decay_mult: 0
  }
  convolution_param {
    num_output: 128
    pad: 1
    pad: 1
    pad: 1
    kernel_size: 3
    kernel_size: 3
    kernel_size: 3
    weight_filler {
      type: "gaussian"
      std: 0.01
    }
    bias_filler {
      type: "constant"
      value: 1
    }
  }
}
layer {
  name: "relu2a"
  type: "ReLU"
  bottom: "conv2a"
  top: "conv2a"
}
layer {
  name: "pool2"
  type: "Pooling"
  bottom: "conv2a"
  top: "pool2"
  pooling_param {
    pool: MAX
    kernel_size: 2
    kernel_size: 2
    kernel_size: 2
    stride: 2
    stride: 2
    stride: 2
  }
}
layer {
  name: "conv3a"
  type: "Convolution"
  bottom: "pool2"
  top: "conv3a"
  param {
    lr_mult: 1
    decay_mult: 1
  }
  param {
    lr_mult: 2
    decay_mult: 0
  }
  convolution_param {
    num_output: 256
    pad: 1
    pad: 1
    pad: 1
    kernel_size: 3
    kernel_size: 3
    kernel_size: 3
    weight_filler {
      type: "gaussian"
      std: 0.01
    }
    bias_filler {
      type: "constant"
      value: 1
    }
  }
}
layer {
  name: "relu3a"
  type: "ReLU"
  bottom: "conv3a"
  top: "conv3a"
}
layer {
  name: "conv3b"
  type: "Convolution"
  bottom: "conv3a"
  top: "conv3b"
  param {
    lr_mult: 1
    decay_mult: 1
  }
  param {
    lr_mult: 2
    decay_mult: 0
  }
  convolution_param {
    num_output: 256
    pad: 1
    pad: 1
    pad: 1
    kernel_size: 3
    kernel_size: 3
    kernel_size: 3
    weight_filler {
      type: "gaussian"
      std: 0.01
    }
    bias_filler {
      type: "constant"
      value: 1
    }
  }
}
layer {
  name: "relu3b"
  type: "ReLU"
  bottom: "conv3b"
  top: "conv3b"
}
layer {
  name: "pool3"
  type: "Pooling"
  bottom: "conv3b"
  top: "pool3"
  pooling_param {
    pool: MAX
    kernel_size: 2
    kernel_size: 2
    kernel_size: 2
    stride: 2
    stride: 2
    stride: 2
  }
}
layer {
  name: "conv4a"
  type: "Convolution"
  bottom: "pool3"
  top: "conv4a"
  param {
    lr_mult: 1
    decay_mult: 1
  }
  param {
    lr_mult: 2
    decay_mult: 0
  }
  convolution_param {
    num_output: 512
    pad: 1
    pad: 1
    pad: 1
    kernel_size: 3
    kernel_size: 3
    kernel_size: 3
    weight_filler {
      type: "gaussian"
      std: 0.01
    }
    bias_filler {
      type: "constant"
      value: 1
    }
  }
}
layer {
  name: "relu4a"
  type: "ReLU"
  bottom: "conv4a"
  top: "conv4a"
}
layer {
  name: "conv4b"
  type: "Convolution"
  bottom: "conv4a"
  top: "conv4b"
  param {
    lr_mult: 1
    decay_mult: 1
  }
  param {
    lr_mult: 2
    decay_mult: 0
  }
  convolution_param {
    num_output: 512
    pad: 1
    pad: 1
    pad: 1
    kernel_size: 3
    kernel_size: 3
    kernel_size: 3
    weight_filler {
      type: "gaussian"
      std: 0.01
    }
    bias_filler {
      type: "constant"
      value: 1
    }
  }
}
layer {
  name: "relu4b"
  type: "ReLU"
  bottom: "conv4b"
  top: "conv4b"
}
layer {
  name: "pool4"
  type: "Pooling"
  bottom: "conv4b"
  top: "pool4"
  pooling_param {
    pool: MAX
    kernel_size: 2
    kernel_size: 2
    kernel_size: 2
    stride: 2
    stride: 2
    stride: 2
  }
}
layer {
  name: "conv5a"
  type: "Convolution"
  bottom: "pool4"
  top: "conv5a"
  param {
    lr_mult: 1
    decay_mult: 1
  }
  param {
    lr_mult: 2
    decay_mult: 0
  }
  convolution_param {
    num_output: 512
    pad: 1
    pad: 1
    pad: 1
    kernel_size: 3
    kernel_size: 3
    kernel_size: 3
    weight_filler {
      type: "gaussian"
      std: 0.01
    }
    bias_filler {
      type: "constant"
      value: 1
    }
  }
}
layer {
  name: "relu5a"
  type: "ReLU"
  bottom: "conv5a"
  top: "conv5a"
}
layer {
  name: "conv5b"
  type: "Convolution"
  bottom: "conv5a"
  top: "conv5b"
  param {
    lr_mult: 1
    decay_mult: 1
  }
  param {
    lr_mult: 2
    decay_mult: 0
  }
  convolution_param {
    num_output: 512
    pad: 1
    pad: 1
    pad: 1
    kernel_size: 3
    kernel_size: 3
    kernel_size: 3
    weight_filler {
      type: "gaussian"
      std: 0.01
    }
    bias_filler {
      type: "constant"
      value: 1
    }
  }
}
layer {
  name: "relu5b"
  type: "ReLU"
  bottom: "conv5b"
  top: "conv5b"
}
layer {
  name: "rpn_conv/3x3"
  type: "Convolution"
  bottom: "conv5b"
  top: "rpn/output"
  param {
    lr_mult: 1
    decay_mult: 1
  }
  param {
    lr_mult: 2
    decay_mult: 0
  }
  convolution_param {
    num_output: 512
    pad: 1
    pad: 1
    pad: 1
    kernel_size: 3
    kernel_size: 3
    kernel_size: 3
    stride: 1
    stride: 2
    stride: 2
    weight_filler {
      type: "gaussian"
      std: 0.01
    }
    bias_filler {
      type: "constant"
      value: 0
    }
  }
}
layer {
  name: "rpn_relu/3x3"
  type: "ReLU"
  bottom: "rpn/output"
  top: "rpn/output"
}
layer {
  name: "rpn_conv/3x3_2"
  type: "Convolution"
  bottom: "rpn/output"
  top: "rpn/output_2"
  param {
    lr_mult: 1
    decay_mult: 1
  }
  param {
    lr_mult: 2
    decay_mult: 0
  }
  convolution_param {
    num_output: 512
    pad: 1
    pad: 1
    pad: 1
    kernel_size: 3
    kernel_size: 3
    kernel_size: 3
    stride: 1
    stride: 2
    stride: 2
    weight_filler {
      type: "gaussian"
      std: 0.01
    }
    bias_filler {
      type: "constant"
      value: 0
    }
  }
}
layer {
  name: "rpn_relu/3x3_2"
  type: "ReLU"
  bottom: "rpn/output_2"
  top: "rpn/output_2"
}
layer {
  name: "rpn/output_pool"
  type: "Pooling"
  bottom: "rpn/output_2"
  top: "rpn/output_pool"
  pooling_param {
    pool: MAX
    kernel_size: 1
    kernel_size: 2
    kernel_size: 2
  }
}
layer {
  name: "rpn_cls_score"
  type: "Convolution"
  bottom: "rpn/output_pool"
  top: "rpn_cls_score"
  param {
    lr_mult: 1
    decay_mult: 1
  }
  param {
    lr_mult: 2
    decay_mult: 0
  }
  convolution_param {
    num_output: 74
    kernel_size: 1
    kernel_size: 1
    kernel_size: 1
    weight_filler {
      type: "gaussian"
      std: 0.01
    }
    bias_filler {
      type: "constant"
      value: 0
    }
  }
}
layer {
  name: "rpn_twin_pred"
  type: "Convolution"
  bottom: "rpn/output_pool"
  top: "rpn_twin_pred"
  param {
    lr_mult: 1
    decay_mult: 1
  }
  param {
    lr_mult: 2
    decay_mult: 0
  }
  convolution_param {
    num_output: 74
    kernel_size: 1
    kernel_size: 1
    kernel_size: 1
    weight_filler {
      type: "gaussian"
      std: 0.01
    }
    bias_filler {
      type: "constant"
      value: 0
    }
  }
}
layer {
  name: "rpn_cls_score_reshape"
  type: "Reshape"
  bottom: "rpn_cls_score"
  top: "rpn_cls_score_reshape"
  reshape_param {
    shape {
      dim: 0
      dim: 2
      dim: -1
      dim: 0
      dim: 0
    }
  }
}
layer {
  name: "rpn-data"
  type: "Python"
  bottom: "rpn_cls_score"
  bottom: "gt_boxes"
  bottom: "data"
  top: "rpn_labels"
  top: "rpn_twin_targets"
  top: "rpn_twin_inside_weights"
  top: "rpn_twin_outside_weights"
  python_param {
    module: "rpn.anchor_target_layer"
    layer: "AnchorTargetLayer"
    param_str: "\'feat_stride\': 8 \n\'scales\': !!python/tuple [1,1.25, 1.5,1.75, 2,2.5, 3,3.5, 4,4.5, 5,5.5, 6,7, 8,9,10,11,12,14,16,18,20,22,24,28,32,36,40,44,52,60,68,76,84,92,100]"
  }
}
layer {
  name: "rpn_loss_cls"
  type: "SoftmaxWithLoss"
  bottom: "rpn_cls_score_reshape"
  bottom: "rpn_labels"
  top: "rpn_cls_loss"
  loss_weight: 1
  propagate_down: true
  propagate_down: false
  loss_param {
    ignore_label: -1
    normalize: true
  }
}
layer {
  name: "rpn_loss_twin"
  type: "SmoothL1Loss"
  bottom: "rpn_twin_pred"
  bottom: "rpn_twin_targets"
  bottom: "rpn_twin_inside_weights"
  bottom: "rpn_twin_outside_weights"
  top: "rpn_loss_twin"
  loss_weight: 1
  smooth_l1_loss_param {
    sigma: 3
  }
}
layer {
  name: "rpn_accuarcy"
  type: "Accuracy"
  bottom: "rpn_cls_score_reshape"
  bottom: "rpn_labels"
  top: "rpn_accuarcy"
  top: "rpn_accuarcy_class"
  propagate_down: false
  propagate_down: false
  accuracy_param {
    ignore_label: -1
  }
}
layer {
  name: "rpn_cls_prob"
  type: "Softmax"
  bottom: "rpn_cls_score_reshape"
  top: "rpn_cls_prob"
}
layer {
  name: "rpn_cls_prob_reshape"
  type: "Reshape"
  bottom: "rpn_cls_prob"
  top: "rpn_cls_prob_reshape"
  reshape_param {
    shape {
      dim: 0
      dim: 74
      dim: -1
      dim: 0
      dim: 0
    }
  }
}
layer {
  name: "proposal"
  type: "Python"
  bottom: "rpn_cls_prob_reshape"
  bottom: "rpn_twin_pred"
  top: "rpn_rois"
  include {
    phase: TRAIN
  }
  python_param {
    module: "rpn.proposal_layer"
    layer: "ProposalLayer"
    param_str: "\'feat_stride\': 8 \n\'scales\': !!python/tuple [1,1.25, 1.5,1.75, 2,2.5, 3,3.5, 4,4.5, 5,5.5, 6,7, 8,9,10,11,12,14,16,18,20,22,24,28,32,36,40,44,52,60,68,76,84,92,100]"
  }
}
layer {
  name: "roi-data"
  type: "Python"
  bottom: "rpn_rois"
  bottom: "gt_boxes"
  top: "rois"
  top: "labels"
  top: "twin_targets"
  top: "twin_inside_weights"
  top: "twin_outside_weights"
  python_param {
    module: "rpn.proposal_target_layer"
    layer: "ProposalTargetLayer"
    param_str: "\'num_classes\': 201"
  }
}
layer {
  name: "roi_pool5"
  type: "ROIPooling"
  bottom: "conv5b"
  bottom: "rois"
  top: "pool5"
  roi_pooling_param {
    pooled_h: 4
    pooled_w: 4
    spatial_scale: 0.0625
    pooled_l: 1
    temporal_scale: 0.125
  }
}
layer {
  name: "fc6"
  type: "InnerProduct"
  bottom: "pool5"
  top: "fc6"
  param {
    lr_mult: 1
    decay_mult: 1
  }
  param {
    lr_mult: 2
    decay_mult: 0
  }
  inner_product_param {
    num_output: 4096
    weight_filler {
      type: "gaussian"
      std: 0.005
    }
    bias_filler {
      type: "constant"
      value: 1
    }
  }
}
layer {
  name: "relu6"
  type: "ReLU"
  bottom: "fc6"
  top: "fc6"
}
layer {
  name: "drop6"
  type: "Dropout"
  bottom: "fc6"
  top: "fc6"
  dropout_param {
    dropout_ratio: 0.5
  }
}
layer {
  name: "cls_score"
  type: "InnerProduct"
  bottom: "fc6"
  top: "cls_score"
  param {
    lr_mult: 1
    decay_mult: 1
  }
  param {
    lr_mult: 2
    decay_mult: 0
  }
  inner_product_param {
    num_output: 201
    weight_filler {
      type: "gaussian"
      std: 0.01
    }
    bias_filler {
      type: "constant"
      value: 0
    }
  }
}
layer {
  name: "twin_pred"
  type: "InnerProduct"
  bottom: "fc6"
  top: "twin_pred"
  param {
    lr_mult: 1
    decay_mult: 1
  }
  param {
    lr_mult: 2
    decay_mult: 0
  }
  inner_product_param {
    num_output: 402
    weight_filler {
      type: "gaussian"
      std: 0.001
    }
    bias_filler {
      type: "constant"
      value: 0
    }
  }
}
layer {
  name: "loss_cls"
  type: "SoftmaxWithLoss"
  bottom: "cls_score"
  bottom: "labels"
  top: "loss_cls"
  loss_weight: 1
  propagate_down: true
  propagate_down: false
}
layer {
  name: "loss_twin"
  type: "SmoothL1Loss"
  bottom: "twin_pred"
  bottom: "twin_targets"
  bottom: "twin_inside_weights"
  bottom: "twin_outside_weights"
  top: "loss_twin"
  loss_weight: 1
}
layer {
  name: "accuarcy"
  type: "Accuracy"
  bottom: "cls_score"
  bottom: "labels"
  top: "accuarcy"
  propagate_down: false
  propagate_down: false
  accuracy_param {
    ignore_label: -1
  }
}
I0418 00:32:21.946420 28360 layer_factory.hpp:77] Creating layer data
I0418 00:32:21.970291 28360 net.cpp:100] Creating Layer data
I0418 00:32:21.970315 28360 net.cpp:408] data -> data
I0418 00:32:21.970329 28360 net.cpp:408] data -> gt_boxes
setting up
has rpn
RoiDataLayer: name_to_top: {'gt_windows': 1, 'data': 0}
I0418 00:32:21.997592 28360 net.cpp:150] Setting up data
I0418 00:32:21.997615 28360 net.cpp:157] Top shape: 1 3 768 112 112 (28901376)
I0418 00:32:21.997620 28360 net.cpp:157] Top shape: 1 101 (101)
I0418 00:32:21.997624 28360 net.cpp:165] Memory required for data: 115605908
I0418 00:32:21.997632 28360 layer_factory.hpp:77] Creating layer data_data_0_split
I0418 00:32:21.997642 28360 net.cpp:100] Creating Layer data_data_0_split
I0418 00:32:21.997649 28360 net.cpp:434] data_data_0_split <- data
I0418 00:32:21.997658 28360 net.cpp:408] data_data_0_split -> data_data_0_split_0
I0418 00:32:21.997669 28360 net.cpp:408] data_data_0_split -> data_data_0_split_1
I0418 00:32:21.997699 28360 net.cpp:150] Setting up data_data_0_split
I0418 00:32:21.997709 28360 net.cpp:157] Top shape: 1 3 768 112 112 (28901376)
I0418 00:32:21.997714 28360 net.cpp:157] Top shape: 1 3 768 112 112 (28901376)
I0418 00:32:21.997716 28360 net.cpp:165] Memory required for data: 346816916
I0418 00:32:21.997720 28360 layer_factory.hpp:77] Creating layer gt_boxes_data_1_split
I0418 00:32:21.997726 28360 net.cpp:100] Creating Layer gt_boxes_data_1_split
I0418 00:32:21.997730 28360 net.cpp:434] gt_boxes_data_1_split <- gt_boxes
I0418 00:32:21.997736 28360 net.cpp:408] gt_boxes_data_1_split -> gt_boxes_data_1_split_0
I0418 00:32:21.997742 28360 net.cpp:408] gt_boxes_data_1_split -> gt_boxes_data_1_split_1
I0418 00:32:21.997768 28360 net.cpp:150] Setting up gt_boxes_data_1_split
I0418 00:32:21.997776 28360 net.cpp:157] Top shape: 1 101 (101)
I0418 00:32:21.997781 28360 net.cpp:157] Top shape: 1 101 (101)
I0418 00:32:21.997783 28360 net.cpp:165] Memory required for data: 346817724
I0418 00:32:21.997787 28360 layer_factory.hpp:77] Creating layer conv1a
I0418 00:32:21.997803 28360 net.cpp:100] Creating Layer conv1a
I0418 00:32:21.997809 28360 net.cpp:434] conv1a <- data_data_0_split_0
I0418 00:32:21.997815 28360 net.cpp:408] conv1a -> conv1a
I0418 00:32:22.271592 28360 net.cpp:150] Setting up conv1a
I0418 00:32:22.271642 28360 net.cpp:157] Top shape: 1 64 768 112 112 (616562688)
I0418 00:32:22.271647 28360 net.cpp:165] Memory required for data: 2813068476
I0418 00:32:22.271667 28360 layer_factory.hpp:77] Creating layer relu1a
I0418 00:32:22.271680 28360 net.cpp:100] Creating Layer relu1a
I0418 00:32:22.271685 28360 net.cpp:434] relu1a <- conv1a
I0418 00:32:22.271692 28360 net.cpp:395] relu1a -> conv1a (in-place)
I0418 00:32:22.272148 28360 net.cpp:150] Setting up relu1a
I0418 00:32:22.272171 28360 net.cpp:157] Top shape: 1 64 768 112 112 (616562688)
I0418 00:32:22.272176 28360 net.cpp:165] Memory required for data: 5279319228
I0418 00:32:22.272181 28360 layer_factory.hpp:77] Creating layer pool1
I0418 00:32:22.272192 28360 net.cpp:100] Creating Layer pool1
I0418 00:32:22.272197 28360 net.cpp:434] pool1 <- conv1a
I0418 00:32:22.272202 28360 net.cpp:408] pool1 -> pool1
I0418 00:32:22.275764 28360 net.cpp:150] Setting up pool1
I0418 00:32:22.275776 28360 net.cpp:157] Top shape: 1 64 768 56 56 (154140672)
I0418 00:32:22.275780 28360 net.cpp:165] Memory required for data: 5895881916
I0418 00:32:22.275785 28360 layer_factory.hpp:77] Creating layer conv2a
I0418 00:32:22.275797 28360 net.cpp:100] Creating Layer conv2a
I0418 00:32:22.275802 28360 net.cpp:434] conv2a <- pool1
I0418 00:32:22.275809 28360 net.cpp:408] conv2a -> conv2a
I0418 00:32:22.287895 28360 net.cpp:150] Setting up conv2a
I0418 00:32:22.287917 28360 net.cpp:157] Top shape: 1 128 768 56 56 (308281344)
I0418 00:32:22.287922 28360 net.cpp:165] Memory required for data: 7129007292
I0418 00:32:22.287935 28360 layer_factory.hpp:77] Creating layer relu2a
I0418 00:32:22.287945 28360 net.cpp:100] Creating Layer relu2a
I0418 00:32:22.287950 28360 net.cpp:434] relu2a <- conv2a
I0418 00:32:22.287956 28360 net.cpp:395] relu2a -> conv2a (in-place)
I0418 00:32:22.288298 28360 net.cpp:150] Setting up relu2a
I0418 00:32:22.288311 28360 net.cpp:157] Top shape: 1 128 768 56 56 (308281344)
I0418 00:32:22.288316 28360 net.cpp:165] Memory required for data: 8362132668
I0418 00:32:22.288321 28360 layer_factory.hpp:77] Creating layer pool2
I0418 00:32:22.288331 28360 net.cpp:100] Creating Layer pool2
I0418 00:32:22.288336 28360 net.cpp:434] pool2 <- conv2a
I0418 00:32:22.288341 28360 net.cpp:408] pool2 -> pool2
I0418 00:32:22.289602 28360 net.cpp:150] Setting up pool2
I0418 00:32:22.289613 28360 net.cpp:157] Top shape: 1 128 384 28 28 (38535168)
I0418 00:32:22.289618 28360 net.cpp:165] Memory required for data: 8516273340
I0418 00:32:22.289621 28360 layer_factory.hpp:77] Creating layer conv3a
I0418 00:32:22.289633 28360 net.cpp:100] Creating Layer conv3a
I0418 00:32:22.289638 28360 net.cpp:434] conv3a <- pool2
I0418 00:32:22.289644 28360 net.cpp:408] conv3a -> conv3a
I0418 00:32:22.320888 28360 net.cpp:150] Setting up conv3a
I0418 00:32:22.320909 28360 net.cpp:157] Top shape: 1 256 384 28 28 (77070336)
I0418 00:32:22.320914 28360 net.cpp:165] Memory required for data: 8824554684
I0418 00:32:22.320927 28360 layer_factory.hpp:77] Creating layer relu3a
I0418 00:32:22.320941 28360 net.cpp:100] Creating Layer relu3a
I0418 00:32:22.320946 28360 net.cpp:434] relu3a <- conv3a
I0418 00:32:22.320952 28360 net.cpp:395] relu3a -> conv3a (in-place)
I0418 00:32:22.322217 28360 net.cpp:150] Setting up relu3a
I0418 00:32:22.322232 28360 net.cpp:157] Top shape: 1 256 384 28 28 (77070336)
I0418 00:32:22.322237 28360 net.cpp:165] Memory required for data: 9132836028
I0418 00:32:22.322240 28360 layer_factory.hpp:77] Creating layer conv3b
I0418 00:32:22.322253 28360 net.cpp:100] Creating Layer conv3b
I0418 00:32:22.322257 28360 net.cpp:434] conv3b <- conv3a
I0418 00:32:22.322265 28360 net.cpp:408] conv3b -> conv3b
I0418 00:32:22.376425 28360 net.cpp:150] Setting up conv3b
I0418 00:32:22.376447 28360 net.cpp:157] Top shape: 1 256 384 28 28 (77070336)
I0418 00:32:22.376452 28360 net.cpp:165] Memory required for data: 9441117372
I0418 00:32:22.376461 28360 layer_factory.hpp:77] Creating layer relu3b
I0418 00:32:22.376473 28360 net.cpp:100] Creating Layer relu3b
I0418 00:32:22.376478 28360 net.cpp:434] relu3b <- conv3b
I0418 00:32:22.376485 28360 net.cpp:395] relu3b -> conv3b (in-place)
I0418 00:32:22.376907 28360 net.cpp:150] Setting up relu3b
I0418 00:32:22.376919 28360 net.cpp:157] Top shape: 1 256 384 28 28 (77070336)
I0418 00:32:22.376924 28360 net.cpp:165] Memory required for data: 9749398716
I0418 00:32:22.376929 28360 layer_factory.hpp:77] Creating layer pool3
I0418 00:32:22.376938 28360 net.cpp:100] Creating Layer pool3
I0418 00:32:22.376942 28360 net.cpp:434] pool3 <- conv3b
I0418 00:32:22.376948 28360 net.cpp:408] pool3 -> pool3
I0418 00:32:22.377566 28360 net.cpp:150] Setting up pool3
I0418 00:32:22.377578 28360 net.cpp:157] Top shape: 1 256 192 14 14 (9633792)
I0418 00:32:22.377580 28360 net.cpp:165] Memory required for data: 9787933884
I0418 00:32:22.377584 28360 layer_factory.hpp:77] Creating layer conv4a
I0418 00:32:22.377596 28360 net.cpp:100] Creating Layer conv4a
I0418 00:32:22.377600 28360 net.cpp:434] conv4a <- pool3
I0418 00:32:22.377609 28360 net.cpp:408] conv4a -> conv4a
I0418 00:32:22.473531 28360 net.cpp:150] Setting up conv4a
I0418 00:32:22.473556 28360 net.cpp:157] Top shape: 1 512 192 14 14 (19267584)
I0418 00:32:22.473561 28360 net.cpp:165] Memory required for data: 9865004220
I0418 00:32:22.473574 28360 layer_factory.hpp:77] Creating layer relu4a
I0418 00:32:22.473585 28360 net.cpp:100] Creating Layer relu4a
I0418 00:32:22.473592 28360 net.cpp:434] relu4a <- conv4a
I0418 00:32:22.473598 28360 net.cpp:395] relu4a -> conv4a (in-place)
I0418 00:32:22.473942 28360 net.cpp:150] Setting up relu4a
I0418 00:32:22.473956 28360 net.cpp:157] Top shape: 1 512 192 14 14 (19267584)
I0418 00:32:22.473961 28360 net.cpp:165] Memory required for data: 9942074556
I0418 00:32:22.473966 28360 layer_factory.hpp:77] Creating layer conv4b
I0418 00:32:22.473990 28360 net.cpp:100] Creating Layer conv4b
I0418 00:32:22.473994 28360 net.cpp:434] conv4b <- conv4a
I0418 00:32:22.474001 28360 net.cpp:408] conv4b -> conv4b
I0418 00:32:22.662245 28360 net.cpp:150] Setting up conv4b
I0418 00:32:22.662268 28360 net.cpp:157] Top shape: 1 512 192 14 14 (19267584)
I0418 00:32:22.662272 28360 net.cpp:165] Memory required for data: 10019144892
I0418 00:32:22.662282 28360 layer_factory.hpp:77] Creating layer relu4b
I0418 00:32:22.662292 28360 net.cpp:100] Creating Layer relu4b
I0418 00:32:22.662302 28360 net.cpp:434] relu4b <- conv4b
I0418 00:32:22.662313 28360 net.cpp:395] relu4b -> conv4b (in-place)
I0418 00:32:22.663075 28360 net.cpp:150] Setting up relu4b
I0418 00:32:22.663089 28360 net.cpp:157] Top shape: 1 512 192 14 14 (19267584)
I0418 00:32:22.663095 28360 net.cpp:165] Memory required for data: 10096215228
I0418 00:32:22.663102 28360 layer_factory.hpp:77] Creating layer pool4
I0418 00:32:22.663116 28360 net.cpp:100] Creating Layer pool4
I0418 00:32:22.663122 28360 net.cpp:434] pool4 <- conv4b
I0418 00:32:22.663131 28360 net.cpp:408] pool4 -> pool4
I0418 00:32:22.664682 28360 net.cpp:150] Setting up pool4
I0418 00:32:22.664697 28360 net.cpp:157] Top shape: 1 512 96 7 7 (2408448)
I0418 00:32:22.664703 28360 net.cpp:165] Memory required for data: 10105849020
I0418 00:32:22.664711 28360 layer_factory.hpp:77] Creating layer conv5a
I0418 00:32:22.664726 28360 net.cpp:100] Creating Layer conv5a
I0418 00:32:22.664731 28360 net.cpp:434] conv5a <- pool4
I0418 00:32:22.664739 28360 net.cpp:408] conv5a -> conv5a
I0418 00:32:22.853548 28360 net.cpp:150] Setting up conv5a
I0418 00:32:22.853575 28360 net.cpp:157] Top shape: 1 512 96 7 7 (2408448)
I0418 00:32:22.853580 28360 net.cpp:165] Memory required for data: 10115482812
I0418 00:32:22.853597 28360 layer_factory.hpp:77] Creating layer relu5a
I0418 00:32:22.853608 28360 net.cpp:100] Creating Layer relu5a
I0418 00:32:22.853615 28360 net.cpp:434] relu5a <- conv5a
I0418 00:32:22.853621 28360 net.cpp:395] relu5a -> conv5a (in-place)
I0418 00:32:22.854578 28360 net.cpp:150] Setting up relu5a
I0418 00:32:22.854590 28360 net.cpp:157] Top shape: 1 512 96 7 7 (2408448)
I0418 00:32:22.854594 28360 net.cpp:165] Memory required for data: 10125116604
I0418 00:32:22.854599 28360 layer_factory.hpp:77] Creating layer conv5b
I0418 00:32:22.854614 28360 net.cpp:100] Creating Layer conv5b
I0418 00:32:22.854619 28360 net.cpp:434] conv5b <- conv5a
I0418 00:32:22.854626 28360 net.cpp:408] conv5b -> conv5b
I0418 00:32:23.041880 28360 net.cpp:150] Setting up conv5b
I0418 00:32:23.041904 28360 net.cpp:157] Top shape: 1 512 96 7 7 (2408448)
I0418 00:32:23.041910 28360 net.cpp:165] Memory required for data: 10134750396
I0418 00:32:23.041919 28360 layer_factory.hpp:77] Creating layer relu5b
I0418 00:32:23.041929 28360 net.cpp:100] Creating Layer relu5b
I0418 00:32:23.041935 28360 net.cpp:434] relu5b <- conv5b
I0418 00:32:23.041944 28360 net.cpp:395] relu5b -> conv5b (in-place)
I0418 00:32:23.042137 28360 net.cpp:150] Setting up relu5b
I0418 00:32:23.042148 28360 net.cpp:157] Top shape: 1 512 96 7 7 (2408448)
I0418 00:32:23.042152 28360 net.cpp:165] Memory required for data: 10144384188
I0418 00:32:23.042157 28360 layer_factory.hpp:77] Creating layer conv5b_relu5b_0_split
I0418 00:32:23.042163 28360 net.cpp:100] Creating Layer conv5b_relu5b_0_split
I0418 00:32:23.042167 28360 net.cpp:434] conv5b_relu5b_0_split <- conv5b
I0418 00:32:23.042174 28360 net.cpp:408] conv5b_relu5b_0_split -> conv5b_relu5b_0_split_0
I0418 00:32:23.042181 28360 net.cpp:408] conv5b_relu5b_0_split -> conv5b_relu5b_0_split_1
I0418 00:32:23.042219 28360 net.cpp:150] Setting up conv5b_relu5b_0_split
I0418 00:32:23.042228 28360 net.cpp:157] Top shape: 1 512 96 7 7 (2408448)
I0418 00:32:23.042233 28360 net.cpp:157] Top shape: 1 512 96 7 7 (2408448)
I0418 00:32:23.042237 28360 net.cpp:165] Memory required for data: 10163651772
I0418 00:32:23.042242 28360 layer_factory.hpp:77] Creating layer rpn_conv/3x3
I0418 00:32:23.042253 28360 net.cpp:100] Creating Layer rpn_conv/3x3
I0418 00:32:23.042259 28360 net.cpp:434] rpn_conv/3x3 <- conv5b_relu5b_0_split_0
I0418 00:32:23.042266 28360 net.cpp:408] rpn_conv/3x3 -> rpn/output
I0418 00:32:23.232264 28360 net.cpp:150] Setting up rpn_conv/3x3
I0418 00:32:23.232287 28360 net.cpp:157] Top shape: 1 512 96 4 4 (786432)
I0418 00:32:23.232292 28360 net.cpp:165] Memory required for data: 10166797500
I0418 00:32:23.232307 28360 layer_factory.hpp:77] Creating layer rpn_relu/3x3
I0418 00:32:23.232317 28360 net.cpp:100] Creating Layer rpn_relu/3x3
I0418 00:32:23.232322 28360 net.cpp:434] rpn_relu/3x3 <- rpn/output
I0418 00:32:23.232331 28360 net.cpp:395] rpn_relu/3x3 -> rpn/output (in-place)
I0418 00:32:23.232754 28360 net.cpp:150] Setting up rpn_relu/3x3
I0418 00:32:23.232767 28360 net.cpp:157] Top shape: 1 512 96 4 4 (786432)
I0418 00:32:23.232771 28360 net.cpp:165] Memory required for data: 10169943228
I0418 00:32:23.232776 28360 layer_factory.hpp:77] Creating layer rpn_conv/3x3_2
I0418 00:32:23.232789 28360 net.cpp:100] Creating Layer rpn_conv/3x3_2
I0418 00:32:23.232794 28360 net.cpp:434] rpn_conv/3x3_2 <- rpn/output
I0418 00:32:23.232801 28360 net.cpp:408] rpn_conv/3x3_2 -> rpn/output_2
I0418 00:32:23.422926 28360 net.cpp:150] Setting up rpn_conv/3x3_2
I0418 00:32:23.422951 28360 net.cpp:157] Top shape: 1 512 96 2 2 (196608)
I0418 00:32:23.422956 28360 net.cpp:165] Memory required for data: 10170729660
I0418 00:32:23.422966 28360 layer_factory.hpp:77] Creating layer rpn_relu/3x3_2
I0418 00:32:23.422976 28360 net.cpp:100] Creating Layer rpn_relu/3x3_2
I0418 00:32:23.422981 28360 net.cpp:434] rpn_relu/3x3_2 <- rpn/output_2
I0418 00:32:23.422988 28360 net.cpp:395] rpn_relu/3x3_2 -> rpn/output_2 (in-place)
I0418 00:32:23.424119 28360 net.cpp:150] Setting up rpn_relu/3x3_2
I0418 00:32:23.424132 28360 net.cpp:157] Top shape: 1 512 96 2 2 (196608)
I0418 00:32:23.424146 28360 net.cpp:165] Memory required for data: 10171516092
I0418 00:32:23.424150 28360 layer_factory.hpp:77] Creating layer rpn/output_pool
I0418 00:32:23.424160 28360 net.cpp:100] Creating Layer rpn/output_pool
I0418 00:32:23.424165 28360 net.cpp:434] rpn/output_pool <- rpn/output_2
I0418 00:32:23.424173 28360 net.cpp:408] rpn/output_pool -> rpn/output_pool
I0418 00:32:23.425441 28360 net.cpp:150] Setting up rpn/output_pool
I0418 00:32:23.425453 28360 net.cpp:157] Top shape: 1 512 96 1 1 (49152)
I0418 00:32:23.425458 28360 net.cpp:165] Memory required for data: 10171712700
I0418 00:32:23.425462 28360 layer_factory.hpp:77] Creating layer rpn/output_pool_rpn/output_pool_0_split
I0418 00:32:23.425469 28360 net.cpp:100] Creating Layer rpn/output_pool_rpn/output_pool_0_split
I0418 00:32:23.425474 28360 net.cpp:434] rpn/output_pool_rpn/output_pool_0_split <- rpn/output_pool
I0418 00:32:23.425480 28360 net.cpp:408] rpn/output_pool_rpn/output_pool_0_split -> rpn/output_pool_rpn/output_pool_0_split_0
I0418 00:32:23.425488 28360 net.cpp:408] rpn/output_pool_rpn/output_pool_0_split -> rpn/output_pool_rpn/output_pool_0_split_1
I0418 00:32:23.425520 28360 net.cpp:150] Setting up rpn/output_pool_rpn/output_pool_0_split
I0418 00:32:23.425531 28360 net.cpp:157] Top shape: 1 512 96 1 1 (49152)
I0418 00:32:23.425536 28360 net.cpp:157] Top shape: 1 512 96 1 1 (49152)
I0418 00:32:23.425540 28360 net.cpp:165] Memory required for data: 10172105916
I0418 00:32:23.425544 28360 layer_factory.hpp:77] Creating layer rpn_cls_score
I0418 00:32:23.425555 28360 net.cpp:100] Creating Layer rpn_cls_score
I0418 00:32:23.425559 28360 net.cpp:434] rpn_cls_score <- rpn/output_pool_rpn/output_pool_0_split_0
I0418 00:32:23.425565 28360 net.cpp:408] rpn_cls_score -> rpn_cls_score
I0418 00:32:23.429471 28360 net.cpp:150] Setting up rpn_cls_score
I0418 00:32:23.429484 28360 net.cpp:157] Top shape: 1 74 96 1 1 (7104)
I0418 00:32:23.429489 28360 net.cpp:165] Memory required for data: 10172134332
I0418 00:32:23.429497 28360 layer_factory.hpp:77] Creating layer rpn_cls_score_rpn_cls_score_0_split
I0418 00:32:23.429502 28360 net.cpp:100] Creating Layer rpn_cls_score_rpn_cls_score_0_split
I0418 00:32:23.429507 28360 net.cpp:434] rpn_cls_score_rpn_cls_score_0_split <- rpn_cls_score
I0418 00:32:23.429513 28360 net.cpp:408] rpn_cls_score_rpn_cls_score_0_split -> rpn_cls_score_rpn_cls_score_0_split_0
I0418 00:32:23.429519 28360 net.cpp:408] rpn_cls_score_rpn_cls_score_0_split -> rpn_cls_score_rpn_cls_score_0_split_1
I0418 00:32:23.429561 28360 net.cpp:150] Setting up rpn_cls_score_rpn_cls_score_0_split
I0418 00:32:23.429569 28360 net.cpp:157] Top shape: 1 74 96 1 1 (7104)
I0418 00:32:23.429574 28360 net.cpp:157] Top shape: 1 74 96 1 1 (7104)
I0418 00:32:23.429579 28360 net.cpp:165] Memory required for data: 10172191164
I0418 00:32:23.429582 28360 layer_factory.hpp:77] Creating layer rpn_twin_pred
I0418 00:32:23.429595 28360 net.cpp:100] Creating Layer rpn_twin_pred
I0418 00:32:23.429602 28360 net.cpp:434] rpn_twin_pred <- rpn/output_pool_rpn/output_pool_0_split_1
I0418 00:32:23.429610 28360 net.cpp:408] rpn_twin_pred -> rpn_twin_pred
I0418 00:32:23.432860 28360 net.cpp:150] Setting up rpn_twin_pred
I0418 00:32:23.432874 28360 net.cpp:157] Top shape: 1 74 96 1 1 (7104)
I0418 00:32:23.432878 28360 net.cpp:165] Memory required for data: 10172219580
I0418 00:32:23.432885 28360 layer_factory.hpp:77] Creating layer rpn_twin_pred_rpn_twin_pred_0_split
I0418 00:32:23.432893 28360 net.cpp:100] Creating Layer rpn_twin_pred_rpn_twin_pred_0_split
I0418 00:32:23.432898 28360 net.cpp:434] rpn_twin_pred_rpn_twin_pred_0_split <- rpn_twin_pred
I0418 00:32:23.432904 28360 net.cpp:408] rpn_twin_pred_rpn_twin_pred_0_split -> rpn_twin_pred_rpn_twin_pred_0_split_0
I0418 00:32:23.432911 28360 net.cpp:408] rpn_twin_pred_rpn_twin_pred_0_split -> rpn_twin_pred_rpn_twin_pred_0_split_1
I0418 00:32:23.432950 28360 net.cpp:150] Setting up rpn_twin_pred_rpn_twin_pred_0_split
I0418 00:32:23.432960 28360 net.cpp:157] Top shape: 1 74 96 1 1 (7104)
I0418 00:32:23.432965 28360 net.cpp:157] Top shape: 1 74 96 1 1 (7104)
I0418 00:32:23.432968 28360 net.cpp:165] Memory required for data: 10172276412
I0418 00:32:23.432972 28360 layer_factory.hpp:77] Creating layer rpn_cls_score_reshape
I0418 00:32:23.432984 28360 net.cpp:100] Creating Layer rpn_cls_score_reshape
I0418 00:32:23.432988 28360 net.cpp:434] rpn_cls_score_reshape <- rpn_cls_score_rpn_cls_score_0_split_0
I0418 00:32:23.432996 28360 net.cpp:408] rpn_cls_score_reshape -> rpn_cls_score_reshape
I0418 00:32:23.433027 28360 net.cpp:150] Setting up rpn_cls_score_reshape
I0418 00:32:23.433035 28360 net.cpp:157] Top shape: 1 2 3552 1 1 (7104)
I0418 00:32:23.433039 28360 net.cpp:165] Memory required for data: 10172304828
I0418 00:32:23.433043 28360 layer_factory.hpp:77] Creating layer rpn_cls_score_reshape_rpn_cls_score_reshape_0_split
I0418 00:32:23.433048 28360 net.cpp:100] Creating Layer rpn_cls_score_reshape_rpn_cls_score_reshape_0_split
I0418 00:32:23.433053 28360 net.cpp:434] rpn_cls_score_reshape_rpn_cls_score_reshape_0_split <- rpn_cls_score_reshape
I0418 00:32:23.433058 28360 net.cpp:408] rpn_cls_score_reshape_rpn_cls_score_reshape_0_split -> rpn_cls_score_reshape_rpn_cls_score_reshape_0_split_0
I0418 00:32:23.433069 28360 net.cpp:408] rpn_cls_score_reshape_rpn_cls_score_reshape_0_split -> rpn_cls_score_reshape_rpn_cls_score_reshape_0_split_1
I0418 00:32:23.433079 28360 net.cpp:408] rpn_cls_score_reshape_rpn_cls_score_reshape_0_split -> rpn_cls_score_reshape_rpn_cls_score_reshape_0_split_2
I0418 00:32:23.433121 28360 net.cpp:150] Setting up rpn_cls_score_reshape_rpn_cls_score_reshape_0_split
I0418 00:32:23.433130 28360 net.cpp:157] Top shape: 1 2 3552 1 1 (7104)
I0418 00:32:23.433135 28360 net.cpp:157] Top shape: 1 2 3552 1 1 (7104)
I0418 00:32:23.433140 28360 net.cpp:157] Top shape: 1 2 3552 1 1 (7104)
I0418 00:32:23.433142 28360 net.cpp:165] Memory required for data: 10172390076
I0418 00:32:23.433146 28360 layer_factory.hpp:77] Creating layer rpn-data
I0418 00:32:23.433543 28360 net.cpp:100] Creating Layer rpn-data
I0418 00:32:23.433557 28360 net.cpp:434] rpn-data <- rpn_cls_score_rpn_cls_score_0_split_1
I0418 00:32:23.433562 28360 net.cpp:434] rpn-data <- gt_boxes_data_1_split_0
I0418 00:32:23.433568 28360 net.cpp:434] rpn-data <- data_data_0_split_1
I0418 00:32:23.433574 28360 net.cpp:408] rpn-data -> rpn_labels
I0418 00:32:23.433581 28360 net.cpp:408] rpn-data -> rpn_twin_targets
I0418 00:32:23.433589 28360 net.cpp:408] rpn-data -> rpn_twin_inside_weights
I0418 00:32:23.433595 28360 net.cpp:408] rpn-data -> rpn_twin_outside_weights
I0418 00:32:23.435816 28360 net.cpp:150] Setting up rpn-data
I0418 00:32:23.435830 28360 net.cpp:157] Top shape: 1 1 3552 1 1 (3552)
I0418 00:32:23.435835 28360 net.cpp:157] Top shape: 1 74 96 1 1 (7104)
I0418 00:32:23.435840 28360 net.cpp:157] Top shape: 1 74 96 1 1 (7104)
I0418 00:32:23.435844 28360 net.cpp:157] Top shape: 1 74 96 1 1 (7104)
I0418 00:32:23.435848 28360 net.cpp:165] Memory required for data: 10172489532
I0418 00:32:23.435853 28360 layer_factory.hpp:77] Creating layer rpn_labels_rpn-data_0_split
I0418 00:32:23.435859 28360 net.cpp:100] Creating Layer rpn_labels_rpn-data_0_split
I0418 00:32:23.435863 28360 net.cpp:434] rpn_labels_rpn-data_0_split <- rpn_labels
I0418 00:32:23.435869 28360 net.cpp:408] rpn_labels_rpn-data_0_split -> rpn_labels_rpn-data_0_split_0
I0418 00:32:23.435878 28360 net.cpp:408] rpn_labels_rpn-data_0_split -> rpn_labels_rpn-data_0_split_1
I0418 00:32:23.435910 28360 net.cpp:150] Setting up rpn_labels_rpn-data_0_split
I0418 00:32:23.435920 28360 net.cpp:157] Top shape: 1 1 3552 1 1 (3552)
I0418 00:32:23.435925 28360 net.cpp:157] Top shape: 1 1 3552 1 1 (3552)
I0418 00:32:23.435928 28360 net.cpp:165] Memory required for data: 10172517948
I0418 00:32:23.435932 28360 layer_factory.hpp:77] Creating layer rpn_loss_cls
I0418 00:32:23.435942 28360 net.cpp:100] Creating Layer rpn_loss_cls
I0418 00:32:23.435948 28360 net.cpp:434] rpn_loss_cls <- rpn_cls_score_reshape_rpn_cls_score_reshape_0_split_0
I0418 00:32:23.435953 28360 net.cpp:434] rpn_loss_cls <- rpn_labels_rpn-data_0_split_0
…
I0418 00:32:23.436568 28360 layer_factory.hpp:77] Creating layer rpn_accuarcy
I0418 00:32:23.436578 28360 net.cpp:100] Creating Layer rpn_accuarcy
I0418 00:32:23.436584 28360 net.cpp:434] rpn_accuarcy <- rpn_cls_score_reshape_rpn_cls_score_reshape_0_split_1
I0418 00:32:23.436590 28360 net.cpp:434] rpn_accuarcy <- rpn_labels_rpn-data_0_split_1
I0418 00:32:23.436596 28360 net.cpp:408] rpn_accuarcy -> rpn_accuarcy
I0418 00:32:23.436604 28360 net.cpp:408] rpn_accuarcy -> rpn_accuarcy_class
I0418 00:32:23.436641 28360 net.cpp:150] Setting up rpn_accuarcy
I0418 00:32:23.436650 28360 net.cpp:157] Top shape: (1)
I0418 00:32:23.436655 28360 net.cpp:157] Top shape: 2 (2)
I0418 00:32:23.436659 28360 net.cpp:165] Memory required for data: 10172517968
I0418 00:32:23.436662 28360 layer_factory.hpp:77] Creating layer rpn_cls_prob
I0418 00:32:23.436669 28360 net.cpp:100] Creating Layer rpn_cls_prob
I0418 00:32:23.436673 28360 net.cpp:434] rpn_cls_prob <- rpn_cls_score_reshape_rpn_cls_score_reshape_0_split_2
I0418 00:32:23.436678 28360 net.cpp:408] rpn_cls_prob -> rpn_cls_prob
I0418 00:32:23.437443 28360 net.cpp:150] Setting up rpn_cls_prob
I0418 00:32:23.437454 28360 net.cpp:157] Top shape: 1 2 3552 1 1 (7104)
I0418 00:32:23.437458 28360 net.cpp:165] Memory required for data: 10172546384
I0418 00:32:23.437461 28360 layer_factory.hpp:77] Creating layer rpn_cls_prob_reshape
I0418 00:32:23.437470 28360 net.cpp:100] Creating Layer rpn_cls_prob_reshape
I0418 00:32:23.437474 28360 net.cpp:434] rpn_cls_prob_reshape <- rpn_cls_prob
I0418 00:32:23.437480 28360 net.cpp:408] rpn_cls_prob_reshape -> rpn_cls_prob_reshape
I0418 00:32:23.437508 28360 net.cpp:150] Setting up rpn_cls_prob_reshape
I0418 00:32:23.437516 28360 net.cpp:157] Top shape: 1 74 96 1 1 (7104)
I0418 00:32:23.437520 28360 net.cpp:165] Memory required for data: 10172574800
I0418 00:32:23.437525 28360 layer_factory.hpp:77] Creating layer proposal
I0418 00:32:23.438067 28360 net.cpp:100] Creating Layer proposal
I0418 00:32:23.438081 28360 net.cpp:434] proposal <- rpn_cls_prob_reshape
I0418 00:32:23.438086 28360 net.cpp:434] proposal <- rpn_twin_pred_rpn_twin_pred_0_split_1
I0418 00:32:23.438093 28360 net.cpp:408] proposal -> rpn_rois
I0418 00:32:23.440618 28360 net.cpp:150] Setting up proposal
I0418 00:32:23.440631 28360 net.cpp:157] Top shape: 1 3 (3)
I0418 00:32:23.440636 28360 net.cpp:165] Memory required for data: 10172574812
I0418 00:32:23.440641 28360 layer_factory.hpp:77] Creating layer roi-data
I0418 00:32:23.440781 28360 net.cpp:100] Creating Layer roi-data
I0418 00:32:23.440793 28360 net.cpp:434] roi-data <- rpn_rois
I0418 00:32:23.440799 28360 net.cpp:434] roi-data <- gt_boxes_data_1_split_1
I0418 00:32:23.440806 28360 net.cpp:408] roi-data -> rois
I0418 00:32:23.440814 28360 net.cpp:408] roi-data -> labels
I0418 00:32:23.440825 28360 net.cpp:408] roi-data -> twin_targets
I0418 00:32:23.440831 28360 net.cpp:408] roi-data -> twin_inside_weights
I0418 00:32:23.440837 28360 net.cpp:408] roi-data -> twin_outside_weights
I0418 00:32:23.441141 28360 net.cpp:150] Setting up roi-data
I0418 00:32:23.441154 28360 net.cpp:157] Top shape: 1 3 (3)
I0418 00:32:23.441159 28360 net.cpp:157] Top shape: 1 1 (1)
I0418 00:32:23.441164 28360 net.cpp:157] Top shape: 1 402 (402)
I0418 00:32:23.441169 28360 net.cpp:157] Top shape: 1 402 (402)
I0418 00:32:23.441172 28360 net.cpp:157] Top shape: 1 402 (402)
I0418 00:32:23.441175 28360 net.cpp:165] Memory required for data: 10172579652
I0418 00:32:23.441179 28360 layer_factory.hpp:77] Creating layer labels_roi-data_1_split
I0418 00:32:23.441185 28360 net.cpp:100] Creating Layer labels_roi-data_1_split
I0418 00:32:23.441190 28360 net.cpp:434] labels_roi-data_1_split <- labels
I0418 00:32:23.441196 28360 net.cpp:408] labels_roi-data_1_split -> labels_roi-data_1_split_0
I0418 00:32:23.441203 28360 net.cpp:408] labels_roi-data_1_split -> labels_roi-data_1_split_1
I0418 00:32:23.441236 28360 net.cpp:150] Setting up labels_roi-data_1_split
I0418 00:32:23.441243 28360 net.cpp:157] Top shape: 1 1 (1)
I0418 00:32:23.441248 28360 net.cpp:157] Top shape: 1 1 (1)
I0418 00:32:23.441252 28360 net.cpp:165] Memory required for data: 10172579660
I0418 00:32:23.441256 28360 layer_factory.hpp:77] Creating layer roi_pool5
I0418 00:32:23.441265 28360 net.cpp:100] Creating Layer roi_pool5
I0418 00:32:23.441272 28360 net.cpp:434] roi_pool5 <- conv5b_relu5b_0_split_1
I0418 00:32:23.441277 28360 net.cpp:434] roi_pool5 <- rois
I0418 00:32:23.441282 28360 net.cpp:408] roi_pool5 -> pool5
I0418 00:32:23.441290 28360 roi_pooling_layer.cpp:34] Temporal scale: 0.125
I0418 00:32:23.441299 28360 roi_pooling_layer.cpp:35] Spatial scale: 0.0625
I0418 00:32:23.441334 28360 net.cpp:150] Setting up roi_pool5
I0418 00:32:23.441344 28360 net.cpp:157] Top shape: 1 512 1 4 4 (8192)
I0418 00:32:23.441349 28360 net.cpp:165] Memory required for data: 10172612428
I0418 00:32:23.441355 28360 layer_factory.hpp:77] Creating layer fc6
I0418 00:32:23.441370 28360 net.cpp:100] Creating Layer fc6
I0418 00:32:23.441380 28360 net.cpp:434] fc6 <- pool5
I0418 00:32:23.441388 28360 net.cpp:408] fc6 -> fc6
I0418 00:32:24.320778 28360 net.cpp:150] Setting up fc6
I0418 00:32:24.320804 28360 net.cpp:157] Top shape: 1 4096 (4096)
I0418 00:32:24.320811 28360 net.cpp:165] Memory required for data: 10172628812
I0418 00:32:24.320824 28360 layer_factory.hpp:77] Creating layer relu6
I0418 00:32:24.320840 28360 net.cpp:100] Creating Layer relu6
I0418 00:32:24.320847 28360 net.cpp:434] relu6 <- fc6
I0418 00:32:24.320858 28360 net.cpp:395] relu6 -> fc6 (in-place)
I0418 00:32:24.321312 28360 net.cpp:150] Setting up relu6
I0418 00:32:24.321324 28360 net.cpp:157] Top shape: 1 4096 (4096)
I0418 00:32:24.321331 28360 net.cpp:165] Memory required for data: 10172645196
I0418 00:32:24.321336 28360 layer_factory.hpp:77] Creating layer drop6
I0418 00:32:24.321348 28360 net.cpp:100] Creating Layer drop6
I0418 00:32:24.321352 28360 net.cpp:434] drop6 <- fc6
I0418 00:32:24.321359 28360 net.cpp:395] drop6 -> fc6 (in-place)
I0418 00:32:24.321388 28360 net.cpp:150] Setting up drop6
I0418 00:32:24.321393 28360 net.cpp:157] Top shape: 1 4096 (4096)
I0418 00:32:24.321398 28360 net.cpp:165] Memory required for data: 10172661580
I0418 00:32:24.321400 28360 layer_factory.hpp:77] Creating layer fc6_drop6_0_split
I0418 00:32:24.321408 28360 net.cpp:100] Creating Layer fc6_drop6_0_split
I0418 00:32:24.321413 28360 net.cpp:434] fc6_drop6_0_split <- fc6
I0418 00:32:24.321418 28360 net.cpp:408] fc6_drop6_0_split -> fc6_drop6_0_split_0
I0418 00:32:24.321425 28360 net.cpp:408] fc6_drop6_0_split -> fc6_drop6_0_split_1
I0418 00:32:24.321465 28360 net.cpp:150] Setting up fc6_drop6_0_split
I0418 00:32:24.321471 28360 net.cpp:157] Top shape: 1 4096 (4096)
I0418 00:32:24.321476 28360 net.cpp:157] Top shape: 1 4096 (4096)
I0418 00:32:24.321480 28360 net.cpp:165] Memory required for data: 10172694348
I0418 00:32:24.321483 28360 layer_factory.hpp:77] Creating layer cls_score
I0418 00:32:24.321491 28360 net.cpp:100] Creating Layer cls_score
I0418 00:32:24.321497 28360 net.cpp:434] cls_score <- fc6_drop6_0_split_0
I0418 00:32:24.321504 28360 net.cpp:408] cls_score -> cls_score
I0418 00:32:24.343178 28360 net.cpp:150] Setting up cls_score
I0418 00:32:24.343209 28360 net.cpp:157] Top shape: 1 201 (201)
I0418 00:32:24.343214 28360 net.cpp:165] Memory required for data: 10172695152
I0418 00:32:24.343222 28360 layer_factory.hpp:77] Creating layer cls_score_cls_score_0_split
I0418 00:32:24.343231 28360 net.cpp:100] Creating Layer cls_score_cls_score_0_split
I0418 00:32:24.343236 28360 net.cpp:434] cls_score_cls_score_0_split <- cls_score
I0418 00:32:24.343243 28360 net.cpp:408] cls_score_cls_score_0_split -> cls_score_cls_score_0_split_0
I0418 00:32:24.343251 28360 net.cpp:408] cls_score_cls_score_0_split -> cls_score_cls_score_0_split_1
I0418 00:32:24.343286 28360 net.cpp:150] Setting up cls_score_cls_score_0_split
I0418 00:32:24.343295 28360 net.cpp:157] Top shape: 1 201 (201)
I0418 00:32:24.343300 28360 net.cpp:157] Top shape: 1 201 (201)
I0418 00:32:24.343304 28360 net.cpp:165] Memory required for data: 10172696760
I0418 00:32:24.343308 28360 layer_factory.hpp:77] Creating layer twin_pred
I0418 00:32:24.343317 28360 net.cpp:100] Creating Layer twin_pred
I0418 00:32:24.343320 28360 net.cpp:434] twin_pred <- fc6_drop6_0_split_1
I0418 00:32:24.343327 28360 net.cpp:408] twin_pred -> twin_pred
I0418 00:32:24.386364 28360 net.cpp:150] Setting up twin_pred
I0418 00:32:24.386387 28360 net.cpp:157] Top shape: 1 402 (402)
I0418 00:32:24.386392 28360 net.cpp:165] Memory required for data: 10172698368
I0418 00:32:24.386402 28360 layer_factory.hpp:77] Creating layer loss_cls
I0418 00:32:24.386415 28360 net.cpp:100] Creating Layer loss_cls
I0418 00:32:24.386421 28360 net.cpp:434] loss_cls <- cls_score_cls_score_0_split_0
I0418 00:32:24.386430 28360 net.cpp:434] loss_cls <- labels_roi-data_1_split_0
I0418 00:32:24.386435 28360 net.cpp:408] loss_cls -> loss_cls
…
