…
stepsize: 350000
snapshot: 0
snapshot_prefix: "./experiments/activitynet/snapshot/activitynet"
average_loss: 100
iter_size: 1
I0416 11:30:36.261636 22082 solver.cpp:81] Creating training net from train_net file: ./experiments/activitynet/train.prototxt
I0416 11:30:36.262163 22082 net.cpp:58] Initializing net from parameters: 
name: "activitynet"
state {
  phase: TRAIN
}
layer {
  name: "data"
  type: "Python"
  top: "data"
  top: "gt_boxes"
  python_param {
    module: "roi_data_layer.layer"
    layer: "RoIDataLayer"
    param_str: "\'num_classes\': 100"
  }
}
layer {
  name: "conv1a"
  type: "Convolution"
  bottom: "data"
  top: "conv1a"
  param {
    lr_mult: 0
    decay_mult: 0
  }
  param {
    lr_mult: 0
    decay_mult: 0
  }
  convolution_param {
    num_output: 64
    pad: 1
    pad: 1
    pad: 1
    kernel_size: 3
    kernel_size: 3
    kernel_size: 3
    weight_filler {
      type: "gaussian"
      std: 0.01
    }
    bias_filler {
      type: "constant"
      value: 0
    }
  }
}
layer {
  name: "relu1a"
  type: "ReLU"
  bottom: "conv1a"
  top: "conv1a"
}
layer {
  name: "pool1"
  type: "Pooling"
  bottom: "conv1a"
  top: "pool1"
  pooling_param {
    pool: MAX
    kernel_size: 1
    kernel_size: 2
    kernel_size: 2
    stride: 1
    stride: 2
    stride: 2
  }
}
layer {
  name: "conv2a"
  type: "Convolution"
  bottom: "pool1"
  top: "conv2a"
  param {
    lr_mult: 0
    decay_mult: 0
  }
  param {
    lr_mult: 0
    decay_mult: 0
  }
  convolution_param {
    num_output: 128
    pad: 1
    pad: 1
    pad: 1
    kernel_size: 3
    kernel_size: 3
    kernel_size: 3
    weight_filler {
      type: "gaussian"
      std: 0.01
    }
    bias_filler {
      type: "constant"
      value: 1
    }
  }
}
layer {
  name: "relu2a"
  type: "ReLU"
  bottom: "conv2a"
  top: "conv2a"
}
layer {
  name: "pool2"
  type: "Pooling"
  bottom: "conv2a"
  top: "pool2"
  pooling_param {
    pool: MAX
    kernel_size: 2
    kernel_size: 2
    kernel_size: 2
    stride: 2
    stride: 2
    stride: 2
  }
}
layer {
  name: "conv3a"
  type: "Convolution"
  bottom: "pool2"
  top: "conv3a"
  param {
    lr_mult: 1
    decay_mult: 1
  }
  param {
    lr_mult: 2
    decay_mult: 0
  }
  convolution_param {
    num_output: 256
    pad: 1
    pad: 1
    pad: 1
    kernel_size: 3
    kernel_size: 3
    kernel_size: 3
    weight_filler {
      type: "gaussian"
      std: 0.01
    }
    bias_filler {
      type: "constant"
      value: 1
    }
  }
}
layer {
  name: "relu3a"
  type: "ReLU"
  bottom: "conv3a"
  top: "conv3a"
}
layer {
  name: "conv3b"
  type: "Convolution"
  bottom: "conv3a"
  top: "conv3b"
  param {
    lr_mult: 1
    decay_mult: 1
  }
  param {
    lr_mult: 2
    decay_mult: 0
  }
  convolution_param {
    num_output: 256
    pad: 1
    pad: 1
    pad: 1
    kernel_size: 3
    kernel_size: 3
    kernel_size: 3
    weight_filler {
      type: "gaussian"
      std: 0.01
    }
    bias_filler {
      type: "constant"
      value: 1
    }
  }
}
layer {
  name: "relu3b"
  type: "ReLU"
  bottom: "conv3b"
  top: "conv3b"
}
layer {
  name: "pool3"
  type: "Pooling"
  bottom: "conv3b"
  top: "pool3"
  pooling_param {
    pool: MAX
    kernel_size: 2
    kernel_size: 2
    kernel_size: 2
    stride: 2
    stride: 2
    stride: 2
  }
}
layer {
  name: "conv4a"
  type: "Convolution"
  bottom: "pool3"
  top: "conv4a"
  param {
    lr_mult: 1
    decay_mult: 1
  }
  param {
    lr_mult: 2
    decay_mult: 0
  }
  convolution_param {
    num_output: 512
    pad: 1
    pad: 1
    pad: 1
    kernel_size: 3
    kernel_size: 3
    kernel_size: 3
    weight_filler {
      type: "gaussian"
      std: 0.01
    }
    bias_filler {
      type: "constant"
      value: 1
    }
  }
}
layer {
  name: "relu4a"
  type: "ReLU"
  bottom: "conv4a"
  top: "conv4a"
}
layer {
  name: "conv4b"
  type: "Convolution"
  bottom: "conv4a"
  top: "conv4b"
  param {
    lr_mult: 1
    decay_mult: 1
  }
  param {
    lr_mult: 2
    decay_mult: 0
  }
  convolution_param {
    num_output: 512
    pad: 1
    pad: 1
    pad: 1
    kernel_size: 3
    kernel_size: 3
    kernel_size: 3
    weight_filler {
      type: "gaussian"
      std: 0.01
    }
    bias_filler {
      type: "constant"
      value: 1
    }
  }
}
layer {
  name: "relu4b"
  type: "ReLU"
  bottom: "conv4b"
  top: "conv4b"
}
layer {
  name: "pool4"
  type: "Pooling"
  bottom: "conv4b"
  top: "pool4"
  pooling_param {
    pool: MAX
    kernel_size: 2
    kernel_size: 2
    kernel_size: 2
    stride: 2
    stride: 2
    stride: 2
  }
}
layer {
  name: "conv5a"
  type: "Convolution"
  bottom: "pool4"
  top: "conv5a"
  param {
    lr_mult: 1
    decay_mult: 1
  }
  param {
    lr_mult: 2
    decay_mult: 0
  }
  convolution_param {
    num_output: 512
    pad: 1
    pad: 1
    pad: 1
    kernel_size: 3
    kernel_size: 3
    kernel_size: 3
    weight_filler {
      type: "gaussian"
      std: 0.01
    }
    bias_filler {
      type: "constant"
      value: 1
    }
  }
}
layer {
  name: "relu5a"
  type: "ReLU"
  bottom: "conv5a"
  top: "conv5a"
}
layer {
  name: "conv5b"
  type: "Convolution"
  bottom: "conv5a"
  top: "conv5b"
  param {
    lr_mult: 1
    decay_mult: 1
  }
  param {
    lr_mult: 2
    decay_mult: 0
  }
  convolution_param {
    num_output: 512
    pad: 1
    pad: 1
    pad: 1
    kernel_size: 3
    kernel_size: 3
    kernel_size: 3
    weight_filler {
      type: "gaussian"
      std: 0.01
    }
    bias_filler {
      type: "constant"
      value: 1
    }
  }
}
layer {
  name: "relu5b"
  type: "ReLU"
  bottom: "conv5b"
  top: "conv5b"
}
layer {
  name: "rpn_conv/3x3"
  type: "Convolution"
  bottom: "conv5b"
  top: "rpn/output"
  param {
    lr_mult: 1
    decay_mult: 1
  }
  param {
    lr_mult: 2
    decay_mult: 0
  }
  convolution_param {
    num_output: 512
    pad: 1
    pad: 1
    pad: 1
    kernel_size: 3
    kernel_size: 3
    kernel_size: 3
    stride: 1
    stride: 2
    stride: 2
    weight_filler {
      type: "gaussian"
      std: 0.01
    }
    bias_filler {
      type: "constant"
      value: 0
    }
  }
}
layer {
  name: "rpn_relu/3x3"
  type: "ReLU"
  bottom: "rpn/output"
  top: "rpn/output"
}
layer {
  name: "rpn_conv/3x3_2"
  type: "Convolution"
  bottom: "rpn/output"
  top: "rpn/output_2"
  param {
    lr_mult: 1
    decay_mult: 1
  }
  param {
    lr_mult: 2
    decay_mult: 0
  }
  convolution_param {
    num_output: 512
    pad: 1
    pad: 1
    pad: 1
    kernel_size: 3
    kernel_size: 3
    kernel_size: 3
    stride: 1
    stride: 2
    stride: 2
    weight_filler {
      type: "gaussian"
      std: 0.01
    }
    bias_filler {
      type: "constant"
      value: 0
    }
  }
}
layer {
  name: "rpn_relu/3x3_2"
  type: "ReLU"
  bottom: "rpn/output_2"
  top: "rpn/output_2"
}
layer {
  name: "rpn/output_pool"
  type: "Pooling"
  bottom: "rpn/output_2"
  top: "rpn/output_pool"
  pooling_param {
    pool: MAX
    kernel_size: 1
    kernel_size: 2
    kernel_size: 2
  }
}
layer {
  name: "rpn_cls_score"
  type: "Convolution"
  bottom: "rpn/output_pool"
  top: "rpn_cls_score"
  param {
    lr_mult: 1
    decay_mult: 1
  }
  param {
    lr_mult: 2
    decay_mult: 0
  }
  convolution_param {
    num_output: 74
    kernel_size: 1
    kernel_size: 1
    kernel_size: 1
    weight_filler {
      type: "gaussian"
      std: 0.01
    }
    bias_filler {
      type: "constant"
      value: 0
    }
  }
}
layer {
  name: "rpn_twin_pred"
  type: "Convolution"
  bottom: "rpn/output_pool"
  top: "rpn_twin_pred"
  param {
    lr_mult: 1
    decay_mult: 1
  }
  param {
    lr_mult: 2
    decay_mult: 0
  }
  convolution_param {
    num_output: 74
    kernel_size: 1
    kernel_size: 1
    kernel_size: 1
    weight_filler {
      type: "gaussian"
      std: 0.01
    }
    bias_filler {
      type: "constant"
      value: 0
    }
  }
}
layer {
  name: "rpn_cls_score_reshape"
  type: "Reshape"
  bottom: "rpn_cls_score"
  top: "rpn_cls_score_reshape"
  reshape_param {
    shape {
      dim: 0
      dim: 2
      dim: -1
      dim: 0
      dim: 0
    }
  }
}
layer {
  name: "rpn-data"
  type: "Python"
  bottom: "rpn_cls_score"
  bottom: "gt_boxes"
  bottom: "data"
  top: "rpn_labels"
  top: "rpn_twin_targets"
  top: "rpn_twin_inside_weights"
  top: "rpn_twin_outside_weights"
  python_param {
    module: "rpn.anchor_target_layer"
    layer: "AnchorTargetLayer"
    param_str: "\'feat_stride\': 8 \n\'scales\': !!python/tuple [1,1.25, 1.5,1.75, 2,2.5, 3,3.5, 4,4.5, 5,5.5, 6,7, 8,9,10,11,12,14,16,18,20,22,24,28,32,36,40,44,52,60,68,76,84,92,100]"
  }
}
layer {
  name: "rpn_loss_cls"
  type: "SoftmaxWithLoss"
  bottom: "rpn_cls_score_reshape"
  bottom: "rpn_labels"
  top: "rpn_cls_loss"
  loss_weight: 1
  propagate_down: true
  propagate_down: false
  loss_param {
    ignore_label: -1
    normalize: true
  }
}
layer {
  name: "rpn_loss_twin"
  type: "SmoothL1Loss"
  bottom: "rpn_twin_pred"
  bottom: "rpn_twin_targets"
  bottom: "rpn_twin_inside_weights"
  bottom: "rpn_twin_outside_weights"
  top: "rpn_loss_twin"
  loss_weight: 1
  smooth_l1_loss_param {
    sigma: 3
  }
}
layer {
  name: "rpn_accuarcy"
  type: "Accuracy"
  bottom: "rpn_cls_score_reshape"
  bottom: "rpn_labels"
  top: "rpn_accuarcy"
  top: "rpn_accuarcy_class"
  propagate_down: false
  propagate_down: false
  accuracy_param {
    ignore_label: -1
  }
}
layer {
  name: "rpn_cls_prob"
  type: "Softmax"
  bottom: "rpn_cls_score_reshape"
  top: "rpn_cls_prob"
}
layer {
  name: "rpn_cls_prob_reshape"
  type: "Reshape"
  bottom: "rpn_cls_prob"
  top: "rpn_cls_prob_reshape"
  reshape_param {
    shape {
      dim: 0
      dim: 74
      dim: -1
      dim: 0
      dim: 0
    }
  }
}
layer {
  name: "proposal"
  type: "Python"
  bottom: "rpn_cls_prob_reshape"
  bottom: "rpn_twin_pred"
  top: "rpn_rois"
  include {
    phase: TRAIN
  }
  python_param {
    module: "rpn.proposal_layer"
    layer: "ProposalLayer"
    param_str: "\'feat_stride\': 8 \n\'scales\': !!python/tuple [1,1.25, 1.5,1.75, 2,2.5, 3,3.5, 4,4.5, 5,5.5, 6,7, 8,9,10,11,12,14,16,18,20,22,24,28,32,36,40,44,52,60,68,76,84,92,100]"
  }
}
layer {
  name: "roi-data"
  type: "Python"
  bottom: "rpn_rois"
  bottom: "gt_boxes"
  top: "rois"
  top: "labels"
  top: "twin_targets"
  top: "twin_inside_weights"
  top: "twin_outside_weights"
  python_param {
    module: "rpn.proposal_target_layer"
    layer: "ProposalTargetLayer"
    param_str: "\'num_classes\': 201"
  }
}
layer {
  name: "roi_pool5"
  type: "ROIPooling"
  bottom: "conv5b"
  bottom: "rois"
  top: "pool5"
  roi_pooling_param {
    pooled_h: 4
    pooled_w: 4
    spatial_scale: 0.0625
    pooled_l: 1
    temporal_scale: 0.125
  }
}
layer {
  name: "fc6"
  type: "InnerProduct"
  bottom: "pool5"
  top: "fc6"
  param {
    lr_mult: 1
    decay_mult: 1
  }
  param {
    lr_mult: 2
    decay_mult: 0
  }
  inner_product_param {
    num_output: 4096
    weight_filler {
      type: "gaussian"
      std: 0.005
    }
    bias_filler {
      type: "constant"
      value: 1
    }
  }
}
layer {
  name: "relu6"
  type: "ReLU"
  bottom: "fc6"
  top: "fc6"
}
layer {
  name: "drop6"
  type: "Dropout"
  bottom: "fc6"
  top: "fc6"
  dropout_param {
    dropout_ratio: 0.5
  }
}
layer {
  name: "cls_score"
  type: "InnerProduct"
  bottom: "fc6"
  top: "cls_score"
  param {
    lr_mult: 1
    decay_mult: 1
  }
  param {
    lr_mult: 2
    decay_mult: 0
  }
  inner_product_param {
    num_output: 201
    weight_filler {
      type: "gaussian"
      std: 0.01
    }
    bias_filler {
      type: "constant"
      value: 0
    }
  }
}
layer {
  name: "twin_pred"
  type: "InnerProduct"
  bottom: "fc6"
  top: "twin_pred"
  param {
    lr_mult: 1
    decay_mult: 1
  }
  param {
    lr_mult: 2
    decay_mult: 0
  }
  inner_product_param {
    num_output: 402
    weight_filler {
      type: "gaussian"
      std: 0.001
    }
    bias_filler {
      type: "constant"
      value: 0
    }
  }
}
layer {
  name: "loss_cls"
  type: "SoftmaxWithLoss"
  bottom: "cls_score"
  bottom: "labels"
  top: "loss_cls"
  loss_weight: 1
  propagate_down: true
  propagate_down: false
}
layer {
  name: "loss_twin"
  type: "SmoothL1Loss"
  bottom: "twin_pred"
  bottom: "twin_targets"
  bottom: "twin_inside_weights"
  bottom: "twin_outside_weights"
  top: "loss_twin"
  loss_weight: 1
}
layer {
  name: "accuarcy"
  type: "Accuracy"
  bottom: "cls_score"
  bottom: "labels"
  top: "accuarcy"
  propagate_down: false
  propagate_down: false
  accuracy_param {
    ignore_label: -1
  }
}
I0416 11:30:36.262421 22082 layer_factory.hpp:77] Creating layer data
I0416 11:30:36.272863 22082 net.cpp:100] Creating Layer data
I0416 11:30:36.272887 22082 net.cpp:408] data -> data
I0416 11:30:36.272902 22082 net.cpp:408] data -> gt_boxes
RoiDataLayer: name_to_top: {'gt_windows': 1, 'data': 0}
I0416 11:30:36.281353 22082 net.cpp:150] Setting up data
I0416 11:30:36.281388 22082 net.cpp:157] Top shape: 1 3 768 112 112 (28901376)
I0416 11:30:36.281394 22082 net.cpp:157] Top shape: 1 101 (101)
I0416 11:30:36.281399 22082 net.cpp:165] Memory required for data: 115605908
I0416 11:30:36.281405 22082 layer_factory.hpp:77] Creating layer data_data_0_split
I0416 11:30:36.281419 22082 net.cpp:100] Creating Layer data_data_0_split
I0416 11:30:36.281426 22082 net.cpp:434] data_data_0_split <- data
I0416 11:30:36.281437 22082 net.cpp:408] data_data_0_split -> data_data_0_split_0
I0416 11:30:36.281450 22082 net.cpp:408] data_data_0_split -> data_data_0_split_1
I0416 11:30:36.281499 22082 net.cpp:150] Setting up data_data_0_split
I0416 11:30:36.281508 22082 net.cpp:157] Top shape: 1 3 768 112 112 (28901376)
I0416 11:30:36.281513 22082 net.cpp:157] Top shape: 1 3 768 112 112 (28901376)
I0416 11:30:36.281517 22082 net.cpp:165] Memory required for data: 346816916
I0416 11:30:36.281522 22082 layer_factory.hpp:77] Creating layer gt_boxes_data_1_split
I0416 11:30:36.281533 22082 net.cpp:100] Creating Layer gt_boxes_data_1_split
I0416 11:30:36.281548 22082 net.cpp:434] gt_boxes_data_1_split <- gt_boxes
I0416 11:30:36.281555 22082 net.cpp:408] gt_boxes_data_1_split -> gt_boxes_data_1_split_0
I0416 11:30:36.281566 22082 net.cpp:408] gt_boxes_data_1_split -> gt_boxes_data_1_split_1
I0416 11:30:36.281610 22082 net.cpp:150] Setting up gt_boxes_data_1_split
I0416 11:30:36.281617 22082 net.cpp:157] Top shape: 1 101 (101)
I0416 11:30:36.281622 22082 net.cpp:157] Top shape: 1 101 (101)
I0416 11:30:36.281626 22082 net.cpp:165] Memory required for data: 346817724
I0416 11:30:36.281631 22082 layer_factory.hpp:77] Creating layer conv1a
I0416 11:30:36.281648 22082 net.cpp:100] Creating Layer conv1a
I0416 11:30:36.281652 22082 net.cpp:434] conv1a <- data_data_0_split_0
I0416 11:30:36.281661 22082 net.cpp:408] conv1a -> conv1a
I0416 11:30:36.299258 22082 net.cpp:150] Setting up conv1a
I0416 11:30:36.299294 22082 net.cpp:157] Top shape: 1 64 768 112 112 (616562688)
I0416 11:30:36.299299 22082 net.cpp:165] Memory required for data: 2813068476
I0416 11:30:36.299319 22082 layer_factory.hpp:77] Creating layer relu1a
I0416 11:30:36.299335 22082 net.cpp:100] Creating Layer relu1a
I0416 11:30:36.299340 22082 net.cpp:434] relu1a <- conv1a
I0416 11:30:36.299350 22082 net.cpp:395] relu1a -> conv1a (in-place)
I0416 11:30:36.299362 22082 net.cpp:150] Setting up relu1a
I0416 11:30:36.299414 22082 net.cpp:157] Top shape: 1 64 768 112 112 (616562688)
I0416 11:30:36.299419 22082 net.cpp:165] Memory required for data: 5279319228
I0416 11:30:36.299423 22082 layer_factory.hpp:77] Creating layer pool1
I0416 11:30:36.299432 22082 net.cpp:100] Creating Layer pool1
I0416 11:30:36.299437 22082 net.cpp:434] pool1 <- conv1a
I0416 11:30:36.299446 22082 net.cpp:408] pool1 -> pool1
I0416 11:30:36.299559 22082 net.cpp:150] Setting up pool1
I0416 11:30:36.299568 22082 net.cpp:157] Top shape: 1 64 768 56 56 (154140672)
I0416 11:30:36.299573 22082 net.cpp:165] Memory required for data: 5895881916
I0416 11:30:36.299577 22082 layer_factory.hpp:77] Creating layer conv2a
I0416 11:30:36.299592 22082 net.cpp:100] Creating Layer conv2a
I0416 11:30:36.299602 22082 net.cpp:434] conv2a <- pool1
I0416 11:30:36.299620 22082 net.cpp:408] conv2a -> conv2a
I0416 11:30:36.306617 22082 net.cpp:150] Setting up conv2a
I0416 11:30:36.306648 22082 net.cpp:157] Top shape: 1 128 768 56 56 (308281344)
I0416 11:30:36.306653 22082 net.cpp:165] Memory required for data: 7129007292
I0416 11:30:36.306669 22082 layer_factory.hpp:77] Creating layer relu2a
I0416 11:30:36.306682 22082 net.cpp:100] Creating Layer relu2a
I0416 11:30:36.306687 22082 net.cpp:434] relu2a <- conv2a
I0416 11:30:36.306695 22082 net.cpp:395] relu2a -> conv2a (in-place)
I0416 11:30:36.306706 22082 net.cpp:150] Setting up relu2a
I0416 11:30:36.306712 22082 net.cpp:157] Top shape: 1 128 768 56 56 (308281344)
I0416 11:30:36.306716 22082 net.cpp:165] Memory required for data: 8362132668
I0416 11:30:36.306720 22082 layer_factory.hpp:77] Creating layer pool2
I0416 11:30:36.306732 22082 net.cpp:100] Creating Layer pool2
I0416 11:30:36.306737 22082 net.cpp:434] pool2 <- conv2a
I0416 11:30:36.306766 22082 net.cpp:408] pool2 -> pool2
I0416 11:30:36.306874 22082 net.cpp:150] Setting up pool2
I0416 11:30:36.306883 22082 net.cpp:157] Top shape: 1 128 384 28 28 (38535168)
I0416 11:30:36.306890 22082 net.cpp:165] Memory required for data: 8516273340
I0416 11:30:36.306895 22082 layer_factory.hpp:77] Creating layer conv3a
I0416 11:30:36.306911 22082 net.cpp:100] Creating Layer conv3a
I0416 11:30:36.306917 22082 net.cpp:434] conv3a <- pool2
I0416 11:30:36.306926 22082 net.cpp:408] conv3a -> conv3a
I0416 11:30:36.315052 22082 net.cpp:150] Setting up conv3a
I0416 11:30:36.315068 22082 net.cpp:157] Top shape: 1 256 384 28 28 (77070336)
I0416 11:30:36.315073 22082 net.cpp:165] Memory required for data: 8824554684
I0416 11:30:36.315083 22082 layer_factory.hpp:77] Creating layer relu3a
I0416 11:30:36.315091 22082 net.cpp:100] Creating Layer relu3a
I0416 11:30:36.315096 22082 net.cpp:434] relu3a <- conv3a
I0416 11:30:36.315105 22082 net.cpp:395] relu3a -> conv3a (in-place)
I0416 11:30:36.315114 22082 net.cpp:150] Setting up relu3a
I0416 11:30:36.315120 22082 net.cpp:157] Top shape: 1 256 384 28 28 (77070336)
I0416 11:30:36.315124 22082 net.cpp:165] Memory required for data: 9132836028
I0416 11:30:36.315152 22082 layer_factory.hpp:77] Creating layer conv3b
I0416 11:30:36.315166 22082 net.cpp:100] Creating Layer conv3b
I0416 11:30:36.315181 22082 net.cpp:434] conv3b <- conv3a
I0416 11:30:36.315196 22082 net.cpp:408] conv3b -> conv3b
I0416 11:30:36.331758 22082 net.cpp:150] Setting up conv3b
I0416 11:30:36.331784 22082 net.cpp:157] Top shape: 1 256 384 28 28 (77070336)
I0416 11:30:36.331789 22082 net.cpp:165] Memory required for data: 9441117372
I0416 11:30:36.331799 22082 layer_factory.hpp:77] Creating layer relu3b
I0416 11:30:36.331812 22082 net.cpp:100] Creating Layer relu3b
I0416 11:30:36.331817 22082 net.cpp:434] relu3b <- conv3b
I0416 11:30:36.331827 22082 net.cpp:395] relu3b -> conv3b (in-place)
I0416 11:30:36.331838 22082 net.cpp:150] Setting up relu3b
I0416 11:30:36.331845 22082 net.cpp:157] Top shape: 1 256 384 28 28 (77070336)
I0416 11:30:36.331849 22082 net.cpp:165] Memory required for data: 9749398716
I0416 11:30:36.331853 22082 layer_factory.hpp:77] Creating layer pool3
I0416 11:30:36.331863 22082 net.cpp:100] Creating Layer pool3
I0416 11:30:36.331897 22082 net.cpp:434] pool3 <- conv3b
I0416 11:30:36.331904 22082 net.cpp:408] pool3 -> pool3
I0416 11:30:36.331964 22082 net.cpp:150] Setting up pool3
I0416 11:30:36.331972 22082 net.cpp:157] Top shape: 1 256 192 14 14 (9633792)
I0416 11:30:36.331976 22082 net.cpp:165] Memory required for data: 9787933884
I0416 11:30:36.331980 22082 layer_factory.hpp:77] Creating layer conv4a
I0416 11:30:36.332003 22082 net.cpp:100] Creating Layer conv4a
I0416 11:30:36.332010 22082 net.cpp:434] conv4a <- pool3
I0416 11:30:36.332020 22082 net.cpp:408] conv4a -> conv4a
I0416 11:30:36.363669 22082 net.cpp:150] Setting up conv4a
I0416 11:30:36.363698 22082 net.cpp:157] Top shape: 1 512 192 14 14 (19267584)
I0416 11:30:36.363701 22082 net.cpp:165] Memory required for data: 9865004220
I0416 11:30:36.363720 22082 layer_factory.hpp:77] Creating layer relu4a
I0416 11:30:36.363732 22082 net.cpp:100] Creating Layer relu4a
I0416 11:30:36.363739 22082 net.cpp:434] relu4a <- conv4a
I0416 11:30:36.363747 22082 net.cpp:395] relu4a -> conv4a (in-place)
I0416 11:30:36.363760 22082 net.cpp:150] Setting up relu4a
I0416 11:30:36.363766 22082 net.cpp:157] Top shape: 1 512 192 14 14 (19267584)
I0416 11:30:36.363770 22082 net.cpp:165] Memory required for data: 9942074556
I0416 11:30:36.363775 22082 layer_factory.hpp:77] Creating layer conv4b
I0416 11:30:36.363791 22082 net.cpp:100] Creating Layer conv4b
I0416 11:30:36.363795 22082 net.cpp:434] conv4b <- conv4a
I0416 11:30:36.363802 22082 net.cpp:408] conv4b -> conv4b
I0416 11:30:36.422081 22082 net.cpp:150] Setting up conv4b
I0416 11:30:36.422111 22082 net.cpp:157] Top shape: 1 512 192 14 14 (19267584)
I0416 11:30:36.422116 22082 net.cpp:165] Memory required for data: 10019144892
I0416 11:30:36.422127 22082 layer_factory.hpp:77] Creating layer relu4b
I0416 11:30:36.422138 22082 net.cpp:100] Creating Layer relu4b
I0416 11:30:36.422144 22082 net.cpp:434] relu4b <- conv4b
I0416 11:30:36.422154 22082 net.cpp:395] relu4b -> conv4b (in-place)
I0416 11:30:36.422165 22082 net.cpp:150] Setting up relu4b
I0416 11:30:36.422171 22082 net.cpp:157] Top shape: 1 512 192 14 14 (19267584)
I0416 11:30:36.422175 22082 net.cpp:165] Memory required for data: 10096215228
I0416 11:30:36.422179 22082 layer_factory.hpp:77] Creating layer pool4
I0416 11:30:36.422189 22082 net.cpp:100] Creating Layer pool4
I0416 11:30:36.422194 22082 net.cpp:434] pool4 <- conv4b
I0416 11:30:36.422215 22082 net.cpp:408] pool4 -> pool4
I0416 11:30:36.422274 22082 net.cpp:150] Setting up pool4
I0416 11:30:36.422283 22082 net.cpp:157] Top shape: 1 512 96 7 7 (2408448)
I0416 11:30:36.422287 22082 net.cpp:165] Memory required for data: 10105849020
I0416 11:30:36.422292 22082 layer_factory.hpp:77] Creating layer conv5a
I0416 11:30:36.422305 22082 net.cpp:100] Creating Layer conv5a
I0416 11:30:36.422310 22082 net.cpp:434] conv5a <- pool4
I0416 11:30:36.422319 22082 net.cpp:408] conv5a -> conv5a
I0416 11:30:36.480267 22082 net.cpp:150] Setting up conv5a
I0416 11:30:36.480298 22082 net.cpp:157] Top shape: 1 512 96 7 7 (2408448)
I0416 11:30:36.480303 22082 net.cpp:165] Memory required for data: 10115482812
I0416 11:30:36.480312 22082 layer_factory.hpp:77] Creating layer relu5a
I0416 11:30:36.480355 22082 net.cpp:100] Creating Layer relu5a
I0416 11:30:36.480362 22082 net.cpp:434] relu5a <- conv5a
I0416 11:30:36.480370 22082 net.cpp:395] relu5a -> conv5a (in-place)
I0416 11:30:36.480381 22082 net.cpp:150] Setting up relu5a
I0416 11:30:36.480387 22082 net.cpp:157] Top shape: 1 512 96 7 7 (2408448)
I0416 11:30:36.480391 22082 net.cpp:165] Memory required for data: 10125116604
I0416 11:30:36.480396 22082 layer_factory.hpp:77] Creating layer conv5b
I0416 11:30:36.480409 22082 net.cpp:100] Creating Layer conv5b
I0416 11:30:36.480414 22082 net.cpp:434] conv5b <- conv5a
I0416 11:30:36.480446 22082 net.cpp:408] conv5b -> conv5b
I0416 11:30:36.538887 22082 net.cpp:150] Setting up conv5b
I0416 11:30:36.538918 22082 net.cpp:157] Top shape: 1 512 96 7 7 (2408448)
I0416 11:30:36.538921 22082 net.cpp:165] Memory required for data: 10134750396
I0416 11:30:36.538933 22082 layer_factory.hpp:77] Creating layer relu5b
I0416 11:30:36.538944 22082 net.cpp:100] Creating Layer relu5b
I0416 11:30:36.538949 22082 net.cpp:434] relu5b <- conv5b
I0416 11:30:36.538959 22082 net.cpp:395] relu5b -> conv5b (in-place)
I0416 11:30:36.538969 22082 net.cpp:150] Setting up relu5b
I0416 11:30:36.538976 22082 net.cpp:157] Top shape: 1 512 96 7 7 (2408448)
I0416 11:30:36.538980 22082 net.cpp:165] Memory required for data: 10144384188
I0416 11:30:36.538985 22082 layer_factory.hpp:77] Creating layer conv5b_relu5b_0_split
I0416 11:30:36.538992 22082 net.cpp:100] Creating Layer conv5b_relu5b_0_split
I0416 11:30:36.538996 22082 net.cpp:434] conv5b_relu5b_0_split <- conv5b
I0416 11:30:36.539003 22082 net.cpp:408] conv5b_relu5b_0_split -> conv5b_relu5b_0_split_0
I0416 11:30:36.539014 22082 net.cpp:408] conv5b_relu5b_0_split -> conv5b_relu5b_0_split_1
I0416 11:30:36.539098 22082 net.cpp:150] Setting up conv5b_relu5b_0_split
I0416 11:30:36.539106 22082 net.cpp:157] Top shape: 1 512 96 7 7 (2408448)
I0416 11:30:36.539111 22082 net.cpp:157] Top shape: 1 512 96 7 7 (2408448)
I0416 11:30:36.539117 22082 net.cpp:165] Memory required for data: 10163651772
I0416 11:30:36.539121 22082 layer_factory.hpp:77] Creating layer rpn_conv/3x3
I0416 11:30:36.539135 22082 net.cpp:100] Creating Layer rpn_conv/3x3
I0416 11:30:36.539140 22082 net.cpp:434] rpn_conv/3x3 <- conv5b_relu5b_0_split_0
I0416 11:30:36.539149 22082 net.cpp:408] rpn_conv/3x3 -> rpn/output
I0416 11:30:36.598804 22082 net.cpp:150] Setting up rpn_conv/3x3
I0416 11:30:36.598829 22082 net.cpp:157] Top shape: 1 512 96 4 4 (786432)
I0416 11:30:36.598834 22082 net.cpp:165] Memory required for data: 10166797500
I0416 11:30:36.598853 22082 layer_factory.hpp:77] Creating layer rpn_relu/3x3
I0416 11:30:36.598866 22082 net.cpp:100] Creating Layer rpn_relu/3x3
I0416 11:30:36.598871 22082 net.cpp:434] rpn_relu/3x3 <- rpn/output
I0416 11:30:36.598881 22082 net.cpp:395] rpn_relu/3x3 -> rpn/output (in-place)
I0416 11:30:36.598891 22082 net.cpp:150] Setting up rpn_relu/3x3
I0416 11:30:36.598896 22082 net.cpp:157] Top shape: 1 512 96 4 4 (786432)
I0416 11:30:36.598899 22082 net.cpp:165] Memory required for data: 10169943228
I0416 11:30:36.598902 22082 layer_factory.hpp:77] Creating layer rpn_conv/3x3_2
I0416 11:30:36.598917 22082 net.cpp:100] Creating Layer rpn_conv/3x3_2
I0416 11:30:36.598928 22082 net.cpp:434] rpn_conv/3x3_2 <- rpn/output
I0416 11:30:36.598935 22082 net.cpp:408] rpn_conv/3x3_2 -> rpn/output_2
I0416 11:30:36.657130 22082 net.cpp:150] Setting up rpn_conv/3x3_2
I0416 11:30:36.657160 22082 net.cpp:157] Top shape: 1 512 96 2 2 (196608)
I0416 11:30:36.657164 22082 net.cpp:165] Memory required for data: 10170729660
I0416 11:30:36.657176 22082 layer_factory.hpp:77] Creating layer rpn_relu/3x3_2
I0416 11:30:36.657186 22082 net.cpp:100] Creating Layer rpn_relu/3x3_2
I0416 11:30:36.657192 22082 net.cpp:434] rpn_relu/3x3_2 <- rpn/output_2
I0416 11:30:36.657200 22082 net.cpp:395] rpn_relu/3x3_2 -> rpn/output_2 (in-place)
I0416 11:30:36.657214 22082 net.cpp:150] Setting up rpn_relu/3x3_2
I0416 11:30:36.657220 22082 net.cpp:157] Top shape: 1 512 96 2 2 (196608)
I0416 11:30:36.657224 22082 net.cpp:165] Memory required for data: 10171516092
I0416 11:30:36.657228 22082 layer_factory.hpp:77] Creating layer rpn/output_pool
I0416 11:30:36.657238 22082 net.cpp:100] Creating Layer rpn/output_pool
I0416 11:30:36.657243 22082 net.cpp:434] rpn/output_pool <- rpn/output_2
I0416 11:30:36.657263 22082 net.cpp:408] rpn/output_pool -> rpn/output_pool
I0416 11:30:36.657321 22082 net.cpp:150] Setting up rpn/output_pool
I0416 11:30:36.657330 22082 net.cpp:157] Top shape: 1 512 96 1 1 (49152)
I0416 11:30:36.657333 22082 net.cpp:165] Memory required for data: 10171712700
I0416 11:30:36.657338 22082 layer_factory.hpp:77] Creating layer rpn/output_pool_rpn/output_pool_0_split
I0416 11:30:36.657349 22082 net.cpp:100] Creating Layer rpn/output_pool_rpn/output_pool_0_split
I0416 11:30:36.657354 22082 net.cpp:434] rpn/output_pool_rpn/output_pool_0_split <- rpn/output_pool
I0416 11:30:36.657363 22082 net.cpp:408] rpn/output_pool_rpn/output_pool_0_split -> rpn/output_pool_rpn/output_pool_0_split_0
I0416 11:30:36.657373 22082 net.cpp:408] rpn/output_pool_rpn/output_pool_0_split -> rpn/output_pool_rpn/output_pool_0_split_1
I0416 11:30:36.657421 22082 net.cpp:150] Setting up rpn/output_pool_rpn/output_pool_0_split
I0416 11:30:36.657429 22082 net.cpp:157] Top shape: 1 512 96 1 1 (49152)
I0416 11:30:36.657434 22082 net.cpp:157] Top shape: 1 512 96 1 1 (49152)
I0416 11:30:36.657438 22082 net.cpp:165] Memory required for data: 10172105916
I0416 11:30:36.657444 22082 layer_factory.hpp:77] Creating layer rpn_cls_score
I0416 11:30:36.657459 22082 net.cpp:100] Creating Layer rpn_cls_score
I0416 11:30:36.657462 22082 net.cpp:434] rpn_cls_score <- rpn/output_pool_rpn/output_pool_0_split_0
I0416 11:30:36.657474 22082 net.cpp:408] rpn_cls_score -> rpn_cls_score
I0416 11:30:36.658043 22082 net.cpp:150] Setting up rpn_cls_score
I0416 11:30:36.658052 22082 net.cpp:157] Top shape: 1 74 96 1 1 (7104)
I0416 11:30:36.658056 22082 net.cpp:165] Memory required for data: 10172134332
I0416 11:30:36.658066 22082 layer_factory.hpp:77] Creating layer rpn_cls_score_rpn_cls_score_0_split
I0416 11:30:36.658072 22082 net.cpp:100] Creating Layer rpn_cls_score_rpn_cls_score_0_split
I0416 11:30:36.658077 22082 net.cpp:434] rpn_cls_score_rpn_cls_score_0_split <- rpn_cls_score
I0416 11:30:36.658085 22082 net.cpp:408] rpn_cls_score_rpn_cls_score_0_split -> rpn_cls_score_rpn_cls_score_0_split_0
I0416 11:30:36.658097 22082 net.cpp:408] rpn_cls_score_rpn_cls_score_0_split -> rpn_cls_score_rpn_cls_score_0_split_1
I0416 11:30:36.658154 22082 net.cpp:150] Setting up rpn_cls_score_rpn_cls_score_0_split
I0416 11:30:36.658162 22082 net.cpp:157] Top shape: 1 74 96 1 1 (7104)
I0416 11:30:36.658167 22082 net.cpp:157] Top shape: 1 74 96 1 1 (7104)
I0416 11:30:36.658171 22082 net.cpp:165] Memory required for data: 10172191164
I0416 11:30:36.658176 22082 layer_factory.hpp:77] Creating layer rpn_twin_pred
I0416 11:30:36.658200 22082 net.cpp:100] Creating Layer rpn_twin_pred
I0416 11:30:36.658205 22082 net.cpp:434] rpn_twin_pred <- rpn/output_pool_rpn/output_pool_0_split_1
I0416 11:30:36.658215 22082 net.cpp:408] rpn_twin_pred -> rpn_twin_pred
I0416 11:30:36.658751 22082 net.cpp:150] Setting up rpn_twin_pred
I0416 11:30:36.658759 22082 net.cpp:157] Top shape: 1 74 96 1 1 (7104)
I0416 11:30:36.658762 22082 net.cpp:165] Memory required for data: 10172219580
I0416 11:30:36.658771 22082 layer_factory.hpp:77] Creating layer rpn_twin_pred_rpn_twin_pred_0_split
I0416 11:30:36.658778 22082 net.cpp:100] Creating Layer rpn_twin_pred_rpn_twin_pred_0_split
I0416 11:30:36.658783 22082 net.cpp:434] rpn_twin_pred_rpn_twin_pred_0_split <- rpn_twin_pred
I0416 11:30:36.658792 22082 net.cpp:408] rpn_twin_pred_rpn_twin_pred_0_split -> rpn_twin_pred_rpn_twin_pred_0_split_0
I0416 11:30:36.658800 22082 net.cpp:408] rpn_twin_pred_rpn_twin_pred_0_split -> rpn_twin_pred_rpn_twin_pred_0_split_1
I0416 11:30:36.658852 22082 net.cpp:150] Setting up rpn_twin_pred_rpn_twin_pred_0_split
I0416 11:30:36.658866 22082 net.cpp:157] Top shape: 1 74 96 1 1 (7104)
I0416 11:30:36.658874 22082 net.cpp:157] Top shape: 1 74 96 1 1 (7104)
I0416 11:30:36.658879 22082 net.cpp:165] Memory required for data: 10172276412
I0416 11:30:36.658885 22082 layer_factory.hpp:77] Creating layer rpn_cls_score_reshape
I0416 11:30:36.658896 22082 net.cpp:100] Creating Layer rpn_cls_score_reshape
I0416 11:30:36.658901 22082 net.cpp:434] rpn_cls_score_reshape <- rpn_cls_score_rpn_cls_score_0_split_0
I0416 11:30:36.658908 22082 net.cpp:408] rpn_cls_score_reshape -> rpn_cls_score_reshape
I0416 11:30:36.658954 22082 net.cpp:150] Setting up rpn_cls_score_reshape
I0416 11:30:36.658962 22082 net.cpp:157] Top shape: 1 2 3552 1 1 (7104)
I0416 11:30:36.658973 22082 net.cpp:165] Memory required for data: 10172304828
I0416 11:30:36.658979 22082 layer_factory.hpp:77] Creating layer rpn_cls_score_reshape_rpn_cls_score_reshape_0_split
I0416 11:30:36.658987 22082 net.cpp:100] Creating Layer rpn_cls_score_reshape_rpn_cls_score_reshape_0_split
I0416 11:30:36.658993 22082 net.cpp:434] rpn_cls_score_reshape_rpn_cls_score_reshape_0_split <- rpn_cls_score_reshape
I0416 11:30:36.659000 22082 net.cpp:408] rpn_cls_score_reshape_rpn_cls_score_reshape_0_split -> rpn_cls_score_reshape_rpn_cls_score_reshape_0_split_0
I0416 11:30:36.659021 22082 net.cpp:408] rpn_cls_score_reshape_rpn_cls_score_reshape_0_split -> rpn_cls_score_reshape_rpn_cls_score_reshape_0_split_1
I0416 11:30:36.659029 22082 net.cpp:408] rpn_cls_score_reshape_rpn_cls_score_reshape_0_split -> rpn_cls_score_reshape_rpn_cls_score_reshape_0_split_2
I0416 11:30:36.659090 22082 net.cpp:150] Setting up rpn_cls_score_reshape_rpn_cls_score_reshape_0_split
I0416 11:30:36.659097 22082 net.cpp:157] Top shape: 1 2 3552 1 1 (7104)
I0416 11:30:36.659103 22082 net.cpp:157] Top shape: 1 2 3552 1 1 (7104)
I0416 11:30:36.659108 22082 net.cpp:157] Top shape: 1 2 3552 1 1 (7104)
I0416 11:30:36.659114 22082 net.cpp:165] Memory required for data: 10172390076
I0416 11:30:36.659118 22082 layer_factory.hpp:77] Creating layer rpn-data
I0416 11:30:36.659482 22082 net.cpp:100] Creating Layer rpn-data
I0416 11:30:36.659492 22082 net.cpp:434] rpn-data <- rpn_cls_score_rpn_cls_score_0_split_1
I0416 11:30:36.659499 22082 net.cpp:434] rpn-data <- gt_boxes_data_1_split_0
I0416 11:30:36.659504 22082 net.cpp:434] rpn-data <- data_data_0_split_1
I0416 11:30:36.659513 22082 net.cpp:408] rpn-data -> rpn_labels
I0416 11:30:36.659524 22082 net.cpp:408] rpn-data -> rpn_twin_targets
I0416 11:30:36.659533 22082 net.cpp:408] rpn-data -> rpn_twin_inside_weights
I0416 11:30:36.659543 22082 net.cpp:408] rpn-data -> rpn_twin_outside_weights
I0416 11:30:36.662056 22082 net.cpp:150] Setting up rpn-data
I0416 11:30:36.662071 22082 net.cpp:157] Top shape: 1 1 3552 1 1 (3552)
I0416 11:30:36.662077 22082 net.cpp:157] Top shape: 1 74 96 1 1 (7104)
I0416 11:30:36.662082 22082 net.cpp:157] Top shape: 1 74 96 1 1 (7104)
I0416 11:30:36.662088 22082 net.cpp:157] Top shape: 1 74 96 1 1 (7104)
I0416 11:30:36.662092 22082 net.cpp:165] Memory required for data: 10172489532
I0416 11:30:36.662096 22082 layer_factory.hpp:77] Creating layer rpn_labels_rpn-data_0_split
I0416 11:30:36.662104 22082 net.cpp:100] Creating Layer rpn_labels_rpn-data_0_split
I0416 11:30:36.662109 22082 net.cpp:434] rpn_labels_rpn-data_0_split <- rpn_labels
I0416 11:30:36.662117 22082 net.cpp:408] rpn_labels_rpn-data_0_split -> rpn_labels_rpn-data_0_split_0
I0416 11:30:36.662127 22082 net.cpp:408] rpn_labels_rpn-data_0_split -> rpn_labels_rpn-data_0_split_1
I0416 11:30:36.662169 22082 net.cpp:150] Setting up rpn_labels_rpn-data_0_split
I0416 11:30:36.662176 22082 net.cpp:157] Top shape: 1 1 3552 1 1 (3552)
I0416 11:30:36.662183 22082 net.cpp:157] Top shape: 1 1 3552 1 1 (3552)
I0416 11:30:36.662185 22082 net.cpp:165] Memory required for data: 10172517948
I0416 11:30:36.662190 22082 layer_factory.hpp:77] Creating layer rpn_loss_cls
I0416 11:30:36.662199 22082 net.cpp:100] Creating Layer rpn_loss_cls
I0416 11:30:36.662204 22082 net.cpp:434] rpn_loss_cls <- rpn_cls_score_reshape_rpn_cls_score_reshape_0_split_0
I0416 11:30:36.662209 22082 net.cpp:434] rpn_loss_cls <- rpn_labels_rpn-data_0_split_0
…
I0416 11:30:36.662515 22082 layer_factory.hpp:77] Creating layer rpn_accuarcy
I0416 11:30:36.662525 22082 net.cpp:100] Creating Layer rpn_accuarcy
I0416 11:30:36.662529 22082 net.cpp:434] rpn_accuarcy <- rpn_cls_score_reshape_rpn_cls_score_reshape_0_split_1
I0416 11:30:36.662535 22082 net.cpp:434] rpn_accuarcy <- rpn_labels_rpn-data_0_split_1
I0416 11:30:36.662542 22082 net.cpp:408] rpn_accuarcy -> rpn_accuarcy
I0416 11:30:36.662550 22082 net.cpp:408] rpn_accuarcy -> rpn_accuarcy_class
I0416 11:30:36.662598 22082 net.cpp:150] Setting up rpn_accuarcy
I0416 11:30:36.662606 22082 net.cpp:157] Top shape: (1)
I0416 11:30:36.662611 22082 net.cpp:157] Top shape: 2 (2)
I0416 11:30:36.662613 22082 net.cpp:165] Memory required for data: 10172517968
I0416 11:30:36.662618 22082 layer_factory.hpp:77] Creating layer rpn_cls_prob
I0416 11:30:36.662624 22082 net.cpp:100] Creating Layer rpn_cls_prob
I0416 11:30:36.662629 22082 net.cpp:434] rpn_cls_prob <- rpn_cls_score_reshape_rpn_cls_score_reshape_0_split_2
I0416 11:30:36.662636 22082 net.cpp:408] rpn_cls_prob -> rpn_cls_prob
I0416 11:30:36.662704 22082 net.cpp:150] Setting up rpn_cls_prob
I0416 11:30:36.662711 22082 net.cpp:157] Top shape: 1 2 3552 1 1 (7104)
I0416 11:30:36.662716 22082 net.cpp:165] Memory required for data: 10172546384
I0416 11:30:36.662720 22082 layer_factory.hpp:77] Creating layer rpn_cls_prob_reshape
I0416 11:30:36.662727 22082 net.cpp:100] Creating Layer rpn_cls_prob_reshape
I0416 11:30:36.662734 22082 net.cpp:434] rpn_cls_prob_reshape <- rpn_cls_prob
I0416 11:30:36.662741 22082 net.cpp:408] rpn_cls_prob_reshape -> rpn_cls_prob_reshape
I0416 11:30:36.662771 22082 net.cpp:150] Setting up rpn_cls_prob_reshape
I0416 11:30:36.662777 22082 net.cpp:157] Top shape: 1 74 96 1 1 (7104)
I0416 11:30:36.662781 22082 net.cpp:165] Memory required for data: 10172574800
I0416 11:30:36.662786 22082 layer_factory.hpp:77] Creating layer proposal
I0416 11:30:36.663309 22082 net.cpp:100] Creating Layer proposal
I0416 11:30:36.663321 22082 net.cpp:434] proposal <- rpn_cls_prob_reshape
I0416 11:30:36.663327 22082 net.cpp:434] proposal <- rpn_twin_pred_rpn_twin_pred_0_split_1
I0416 11:30:36.663336 22082 net.cpp:408] proposal -> rpn_rois
I0416 11:30:36.666580 22082 net.cpp:150] Setting up proposal
I0416 11:30:36.666594 22082 net.cpp:157] Top shape: 1 3 (3)
I0416 11:30:36.666597 22082 net.cpp:165] Memory required for data: 10172574812
I0416 11:30:36.666602 22082 layer_factory.hpp:77] Creating layer roi-data
I0416 11:30:36.666750 22082 net.cpp:100] Creating Layer roi-data
I0416 11:30:36.666760 22082 net.cpp:434] roi-data <- rpn_rois
I0416 11:30:36.666766 22082 net.cpp:434] roi-data <- gt_boxes_data_1_split_1
I0416 11:30:36.666775 22082 net.cpp:408] roi-data -> rois
I0416 11:30:36.666785 22082 net.cpp:408] roi-data -> labels
I0416 11:30:36.666793 22082 net.cpp:408] roi-data -> twin_targets
I0416 11:30:36.666803 22082 net.cpp:408] roi-data -> twin_inside_weights
I0416 11:30:36.666812 22082 net.cpp:408] roi-data -> twin_outside_weights
I0416 11:30:36.667129 22082 net.cpp:150] Setting up roi-data
I0416 11:30:36.667141 22082 net.cpp:157] Top shape: 1 3 (3)
I0416 11:30:36.667147 22082 net.cpp:157] Top shape: 1 1 (1)
I0416 11:30:36.667152 22082 net.cpp:157] Top shape: 1 402 (402)
I0416 11:30:36.667157 22082 net.cpp:157] Top shape: 1 402 (402)
I0416 11:30:36.667162 22082 net.cpp:157] Top shape: 1 402 (402)
I0416 11:30:36.667165 22082 net.cpp:165] Memory required for data: 10172579652
I0416 11:30:36.667171 22082 layer_factory.hpp:77] Creating layer labels_roi-data_1_split
I0416 11:30:36.667188 22082 net.cpp:100] Creating Layer labels_roi-data_1_split
I0416 11:30:36.667196 22082 net.cpp:434] labels_roi-data_1_split <- labels
I0416 11:30:36.667203 22082 net.cpp:408] labels_roi-data_1_split -> labels_roi-data_1_split_0
I0416 11:30:36.667212 22082 net.cpp:408] labels_roi-data_1_split -> labels_roi-data_1_split_1
I0416 11:30:36.667263 22082 net.cpp:150] Setting up labels_roi-data_1_split
I0416 11:30:36.667271 22082 net.cpp:157] Top shape: 1 1 (1)
I0416 11:30:36.667282 22082 net.cpp:157] Top shape: 1 1 (1)
I0416 11:30:36.667286 22082 net.cpp:165] Memory required for data: 10172579660
I0416 11:30:36.667291 22082 layer_factory.hpp:77] Creating layer roi_pool5
I0416 11:30:36.667300 22082 net.cpp:100] Creating Layer roi_pool5
I0416 11:30:36.667305 22082 net.cpp:434] roi_pool5 <- conv5b_relu5b_0_split_1
I0416 11:30:36.667311 22082 net.cpp:434] roi_pool5 <- rois
I0416 11:30:36.667320 22082 net.cpp:408] roi_pool5 -> pool5
I0416 11:30:36.667335 22082 roi_pooling_layer.cpp:34] Temporal scale: 0.125
I0416 11:30:36.667346 22082 roi_pooling_layer.cpp:35] Spatial scale: 0.0625
I0416 11:30:36.667399 22082 net.cpp:150] Setting up roi_pool5
I0416 11:30:36.667407 22082 net.cpp:157] Top shape: 1 512 1 4 4 (8192)
I0416 11:30:36.667412 22082 net.cpp:165] Memory required for data: 10172612428
I0416 11:30:36.667415 22082 layer_factory.hpp:77] Creating layer fc6
I0416 11:30:36.667428 22082 net.cpp:100] Creating Layer fc6
I0416 11:30:36.667433 22082 net.cpp:434] fc6 <- pool5
I0416 11:30:36.667438 22082 net.cpp:408] fc6 -> fc6
I0416 11:30:36.938441 22082 net.cpp:150] Setting up fc6
I0416 11:30:36.938472 22082 net.cpp:157] Top shape: 1 4096 (4096)
I0416 11:30:36.938475 22082 net.cpp:165] Memory required for data: 10172628812
I0416 11:30:36.938488 22082 layer_factory.hpp:77] Creating layer relu6
I0416 11:30:36.938499 22082 net.cpp:100] Creating Layer relu6
I0416 11:30:36.938505 22082 net.cpp:434] relu6 <- fc6
I0416 11:30:36.938513 22082 net.cpp:395] relu6 -> fc6 (in-place)
I0416 11:30:36.938524 22082 net.cpp:150] Setting up relu6
I0416 11:30:36.938529 22082 net.cpp:157] Top shape: 1 4096 (4096)
I0416 11:30:36.938531 22082 net.cpp:165] Memory required for data: 10172645196
I0416 11:30:36.938534 22082 layer_factory.hpp:77] Creating layer drop6
I0416 11:30:36.938541 22082 net.cpp:100] Creating Layer drop6
I0416 11:30:36.938545 22082 net.cpp:434] drop6 <- fc6
I0416 11:30:36.938554 22082 net.cpp:395] drop6 -> fc6 (in-place)
I0416 11:30:36.938596 22082 net.cpp:150] Setting up drop6
I0416 11:30:36.938603 22082 net.cpp:157] Top shape: 1 4096 (4096)
I0416 11:30:36.938607 22082 net.cpp:165] Memory required for data: 10172661580
I0416 11:30:36.938614 22082 layer_factory.hpp:77] Creating layer fc6_drop6_0_split
I0416 11:30:36.938621 22082 net.cpp:100] Creating Layer fc6_drop6_0_split
I0416 11:30:36.938625 22082 net.cpp:434] fc6_drop6_0_split <- fc6
I0416 11:30:36.938635 22082 net.cpp:408] fc6_drop6_0_split -> fc6_drop6_0_split_0
I0416 11:30:36.938645 22082 net.cpp:408] fc6_drop6_0_split -> fc6_drop6_0_split_1
I0416 11:30:36.938709 22082 net.cpp:150] Setting up fc6_drop6_0_split
I0416 11:30:36.938725 22082 net.cpp:157] Top shape: 1 4096 (4096)
I0416 11:30:36.938730 22082 net.cpp:157] Top shape: 1 4096 (4096)
I0416 11:30:36.938735 22082 net.cpp:165] Memory required for data: 10172694348
I0416 11:30:36.938740 22082 layer_factory.hpp:77] Creating layer cls_score
I0416 11:30:36.938750 22082 net.cpp:100] Creating Layer cls_score
I0416 11:30:36.938755 22082 net.cpp:434] cls_score <- fc6_drop6_0_split_0
I0416 11:30:36.938768 22082 net.cpp:408] cls_score -> cls_score
I0416 11:30:36.946362 22082 net.cpp:150] Setting up cls_score
I0416 11:30:36.946380 22082 net.cpp:157] Top shape: 1 201 (201)
I0416 11:30:36.946384 22082 net.cpp:165] Memory required for data: 10172695152
I0416 11:30:36.946393 22082 layer_factory.hpp:77] Creating layer cls_score_cls_score_0_split
I0416 11:30:36.946405 22082 net.cpp:100] Creating Layer cls_score_cls_score_0_split
I0416 11:30:36.946410 22082 net.cpp:434] cls_score_cls_score_0_split <- cls_score
I0416 11:30:36.946418 22082 net.cpp:408] cls_score_cls_score_0_split -> cls_score_cls_score_0_split_0
I0416 11:30:36.946427 22082 net.cpp:408] cls_score_cls_score_0_split -> cls_score_cls_score_0_split_1
I0416 11:30:36.946487 22082 net.cpp:150] Setting up cls_score_cls_score_0_split
I0416 11:30:36.946496 22082 net.cpp:157] Top shape: 1 201 (201)
I0416 11:30:36.946501 22082 net.cpp:157] Top shape: 1 201 (201)
I0416 11:30:36.946506 22082 net.cpp:165] Memory required for data: 10172696760
I0416 11:30:36.946509 22082 layer_factory.hpp:77] Creating layer twin_pred
I0416 11:30:36.946521 22082 net.cpp:100] Creating Layer twin_pred
I0416 11:30:36.946525 22082 net.cpp:434] twin_pred <- fc6_drop6_0_split_1
I0416 11:30:36.946533 22082 net.cpp:408] twin_pred -> twin_pred
I0416 11:30:36.960551 22082 net.cpp:150] Setting up twin_pred
I0416 11:30:36.960579 22082 net.cpp:157] Top shape: 1 402 (402)
I0416 11:30:36.960584 22082 net.cpp:165] Memory required for data: 10172698368
I0416 11:30:36.960597 22082 layer_factory.hpp:77] Creating layer loss_cls
I0416 11:30:36.960610 22082 net.cpp:100] Creating Layer loss_cls
I0416 11:30:36.960615 22082 net.cpp:434] loss_cls <- cls_score_cls_score_0_split_0
I0416 11:30:36.960623 22082 net.cpp:434] loss_cls <- labels_roi-data_1_split_0
I0416 11:30:36.960633 22082 net.cpp:408] loss_cls -> loss_cls
…
