…
stepsize: 350000
snapshot: 0
snapshot_prefix: "./experiments/activitynet/snapshot/activitynet"
average_loss: 100
iter_size: 1
I0417 12:08:44.518126 15551 solver.cpp:81] Creating training net from train_net file: ./experiments/activitynet/train.prototxt
I0417 12:08:44.519224 15551 net.cpp:58] Initializing net from parameters: 
name: "activitynet"
state {
  phase: TRAIN
}
layer {
  name: "data"
  type: "Python"
  top: "data"
  top: "gt_boxes"
  python_param {
    module: "roi_data_layer.layer"
    layer: "RoIDataLayer"
    param_str: "\'num_classes\': 100"
  }
}
layer {
  name: "conv1a"
  type: "Convolution"
  bottom: "data"
  top: "conv1a"
  param {
    lr_mult: 0
    decay_mult: 0
  }
  param {
    lr_mult: 0
    decay_mult: 0
  }
  convolution_param {
    num_output: 64
    pad: 1
    pad: 1
    pad: 1
    kernel_size: 3
    kernel_size: 3
    kernel_size: 3
    weight_filler {
      type: "gaussian"
      std: 0.01
    }
    bias_filler {
      type: "constant"
      value: 0
    }
  }
}
layer {
  name: "relu1a"
  type: "ReLU"
  bottom: "conv1a"
  top: "conv1a"
}
layer {
  name: "pool1"
  type: "Pooling"
  bottom: "conv1a"
  top: "pool1"
  pooling_param {
    pool: MAX
    kernel_size: 1
    kernel_size: 2
    kernel_size: 2
    stride: 1
    stride: 2
    stride: 2
  }
}
layer {
  name: "conv2a"
  type: "Convolution"
  bottom: "pool1"
  top: "conv2a"
  param {
    lr_mult: 0
    decay_mult: 0
  }
  param {
    lr_mult: 0
    decay_mult: 0
  }
  convolution_param {
    num_output: 128
    pad: 1
    pad: 1
    pad: 1
    kernel_size: 3
    kernel_size: 3
    kernel_size: 3
    weight_filler {
      type: "gaussian"
      std: 0.01
    }
    bias_filler {
      type: "constant"
      value: 1
    }
  }
}
layer {
  name: "relu2a"
  type: "ReLU"
  bottom: "conv2a"
  top: "conv2a"
}
layer {
  name: "pool2"
  type: "Pooling"
  bottom: "conv2a"
  top: "pool2"
  pooling_param {
    pool: MAX
    kernel_size: 2
    kernel_size: 2
    kernel_size: 2
    stride: 2
    stride: 2
    stride: 2
  }
}
layer {
  name: "conv3a"
  type: "Convolution"
  bottom: "pool2"
  top: "conv3a"
  param {
    lr_mult: 1
    decay_mult: 1
  }
  param {
    lr_mult: 2
    decay_mult: 0
  }
  convolution_param {
    num_output: 256
    pad: 1
    pad: 1
    pad: 1
    kernel_size: 3
    kernel_size: 3
    kernel_size: 3
    weight_filler {
      type: "gaussian"
      std: 0.01
    }
    bias_filler {
      type: "constant"
      value: 1
    }
  }
}
layer {
  name: "relu3a"
  type: "ReLU"
  bottom: "conv3a"
  top: "conv3a"
}
layer {
  name: "conv3b"
  type: "Convolution"
  bottom: "conv3a"
  top: "conv3b"
  param {
    lr_mult: 1
    decay_mult: 1
  }
  param {
    lr_mult: 2
    decay_mult: 0
  }
  convolution_param {
    num_output: 256
    pad: 1
    pad: 1
    pad: 1
    kernel_size: 3
    kernel_size: 3
    kernel_size: 3
    weight_filler {
      type: "gaussian"
      std: 0.01
    }
    bias_filler {
      type: "constant"
      value: 1
    }
  }
}
layer {
  name: "relu3b"
  type: "ReLU"
  bottom: "conv3b"
  top: "conv3b"
}
layer {
  name: "pool3"
  type: "Pooling"
  bottom: "conv3b"
  top: "pool3"
  pooling_param {
    pool: MAX
    kernel_size: 2
    kernel_size: 2
    kernel_size: 2
    stride: 2
    stride: 2
    stride: 2
  }
}
layer {
  name: "conv4a"
  type: "Convolution"
  bottom: "pool3"
  top: "conv4a"
  param {
    lr_mult: 1
    decay_mult: 1
  }
  param {
    lr_mult: 2
    decay_mult: 0
  }
  convolution_param {
    num_output: 512
    pad: 1
    pad: 1
    pad: 1
    kernel_size: 3
    kernel_size: 3
    kernel_size: 3
    weight_filler {
      type: "gaussian"
      std: 0.01
    }
    bias_filler {
      type: "constant"
      value: 1
    }
  }
}
layer {
  name: "relu4a"
  type: "ReLU"
  bottom: "conv4a"
  top: "conv4a"
}
layer {
  name: "conv4b"
  type: "Convolution"
  bottom: "conv4a"
  top: "conv4b"
  param {
    lr_mult: 1
    decay_mult: 1
  }
  param {
    lr_mult: 2
    decay_mult: 0
  }
  convolution_param {
    num_output: 512
    pad: 1
    pad: 1
    pad: 1
    kernel_size: 3
    kernel_size: 3
    kernel_size: 3
    weight_filler {
      type: "gaussian"
      std: 0.01
    }
    bias_filler {
      type: "constant"
      value: 1
    }
  }
}
layer {
  name: "relu4b"
  type: "ReLU"
  bottom: "conv4b"
  top: "conv4b"
}
layer {
  name: "pool4"
  type: "Pooling"
  bottom: "conv4b"
  top: "pool4"
  pooling_param {
    pool: MAX
    kernel_size: 2
    kernel_size: 2
    kernel_size: 2
    stride: 2
    stride: 2
    stride: 2
  }
}
layer {
  name: "conv5a"
  type: "Convolution"
  bottom: "pool4"
  top: "conv5a"
  param {
    lr_mult: 1
    decay_mult: 1
  }
  param {
    lr_mult: 2
    decay_mult: 0
  }
  convolution_param {
    num_output: 512
    pad: 1
    pad: 1
    pad: 1
    kernel_size: 3
    kernel_size: 3
    kernel_size: 3
    weight_filler {
      type: "gaussian"
      std: 0.01
    }
    bias_filler {
      type: "constant"
      value: 1
    }
  }
}
layer {
  name: "relu5a"
  type: "ReLU"
  bottom: "conv5a"
  top: "conv5a"
}
layer {
  name: "conv5b"
  type: "Convolution"
  bottom: "conv5a"
  top: "conv5b"
  param {
    lr_mult: 1
    decay_mult: 1
  }
  param {
    lr_mult: 2
    decay_mult: 0
  }
  convolution_param {
    num_output: 512
    pad: 1
    pad: 1
    pad: 1
    kernel_size: 3
    kernel_size: 3
    kernel_size: 3
    weight_filler {
      type: "gaussian"
      std: 0.01
    }
    bias_filler {
      type: "constant"
      value: 1
    }
  }
}
layer {
  name: "relu5b"
  type: "ReLU"
  bottom: "conv5b"
  top: "conv5b"
}
layer {
  name: "rpn_conv/3x3"
  type: "Convolution"
  bottom: "conv5b"
  top: "rpn/output"
  param {
    lr_mult: 1
    decay_mult: 1
  }
  param {
    lr_mult: 2
    decay_mult: 0
  }
  convolution_param {
    num_output: 512
    pad: 1
    pad: 1
    pad: 1
    kernel_size: 3
    kernel_size: 3
    kernel_size: 3
    stride: 1
    stride: 2
    stride: 2
    weight_filler {
      type: "gaussian"
      std: 0.01
    }
    bias_filler {
      type: "constant"
      value: 0
    }
  }
}
layer {
  name: "rpn_relu/3x3"
  type: "ReLU"
  bottom: "rpn/output"
  top: "rpn/output"
}
layer {
  name: "rpn_conv/3x3_2"
  type: "Convolution"
  bottom: "rpn/output"
  top: "rpn/output_2"
  param {
    lr_mult: 1
    decay_mult: 1
  }
  param {
    lr_mult: 2
    decay_mult: 0
  }
  convolution_param {
    num_output: 512
    pad: 1
    pad: 1
    pad: 1
    kernel_size: 3
    kernel_size: 3
    kernel_size: 3
    stride: 1
    stride: 2
    stride: 2
    weight_filler {
      type: "gaussian"
      std: 0.01
    }
    bias_filler {
      type: "constant"
      value: 0
    }
  }
}
layer {
  name: "rpn_relu/3x3_2"
  type: "ReLU"
  bottom: "rpn/output_2"
  top: "rpn/output_2"
}
layer {
  name: "rpn/output_pool"
  type: "Pooling"
  bottom: "rpn/output_2"
  top: "rpn/output_pool"
  pooling_param {
    pool: MAX
    kernel_size: 1
    kernel_size: 2
    kernel_size: 2
  }
}
layer {
  name: "rpn_cls_score"
  type: "Convolution"
  bottom: "rpn/output_pool"
  top: "rpn_cls_score"
  param {
    lr_mult: 1
    decay_mult: 1
  }
  param {
    lr_mult: 2
    decay_mult: 0
  }
  convolution_param {
    num_output: 74
    kernel_size: 1
    kernel_size: 1
    kernel_size: 1
    weight_filler {
      type: "gaussian"
      std: 0.01
    }
    bias_filler {
      type: "constant"
      value: 0
    }
  }
}
layer {
  name: "rpn_twin_pred"
  type: "Convolution"
  bottom: "rpn/output_pool"
  top: "rpn_twin_pred"
  param {
    lr_mult: 1
    decay_mult: 1
  }
  param {
    lr_mult: 2
    decay_mult: 0
  }
  convolution_param {
    num_output: 74
    kernel_size: 1
    kernel_size: 1
    kernel_size: 1
    weight_filler {
      type: "gaussian"
      std: 0.01
    }
    bias_filler {
      type: "constant"
      value: 0
    }
  }
}
layer {
  name: "rpn_cls_score_reshape"
  type: "Reshape"
  bottom: "rpn_cls_score"
  top: "rpn_cls_score_reshape"
  reshape_param {
    shape {
      dim: 0
      dim: 2
      dim: -1
      dim: 0
      dim: 0
    }
  }
}
layer {
  name: "rpn-data"
  type: "Python"
  bottom: "rpn_cls_score"
  bottom: "gt_boxes"
  bottom: "data"
  top: "rpn_labels"
  top: "rpn_twin_targets"
  top: "rpn_twin_inside_weights"
  top: "rpn_twin_outside_weights"
  python_param {
    module: "rpn.anchor_target_layer"
    layer: "AnchorTargetLayer"
    param_str: "\'feat_stride\': 8 \n\'scales\': !!python/tuple [1,1.25, 1.5,1.75, 2,2.5, 3,3.5, 4,4.5, 5,5.5, 6,7, 8,9,10,11,12,14,16,18,20,22,24,28,32,36,40,44,52,60,68,76,84,92,100]"
  }
}
layer {
  name: "rpn_loss_cls"
  type: "SoftmaxWithLoss"
  bottom: "rpn_cls_score_reshape"
  bottom: "rpn_labels"
  top: "rpn_cls_loss"
  loss_weight: 1
  propagate_down: true
  propagate_down: false
  loss_param {
    ignore_label: -1
    normalize: true
  }
}
layer {
  name: "rpn_loss_twin"
  type: "SmoothL1Loss"
  bottom: "rpn_twin_pred"
  bottom: "rpn_twin_targets"
  bottom: "rpn_twin_inside_weights"
  bottom: "rpn_twin_outside_weights"
  top: "rpn_loss_twin"
  loss_weight: 1
  smooth_l1_loss_param {
    sigma: 3
  }
}
layer {
  name: "rpn_accuarcy"
  type: "Accuracy"
  bottom: "rpn_cls_score_reshape"
  bottom: "rpn_labels"
  top: "rpn_accuarcy"
  top: "rpn_accuarcy_class"
  propagate_down: false
  propagate_down: false
  accuracy_param {
    ignore_label: -1
  }
}
layer {
  name: "rpn_cls_prob"
  type: "Softmax"
  bottom: "rpn_cls_score_reshape"
  top: "rpn_cls_prob"
}
layer {
  name: "rpn_cls_prob_reshape"
  type: "Reshape"
  bottom: "rpn_cls_prob"
  top: "rpn_cls_prob_reshape"
  reshape_param {
    shape {
      dim: 0
      dim: 74
      dim: -1
      dim: 0
      dim: 0
    }
  }
}
layer {
  name: "proposal"
  type: "Python"
  bottom: "rpn_cls_prob_reshape"
  bottom: "rpn_twin_pred"
  top: "rpn_rois"
  include {
    phase: TRAIN
  }
  python_param {
    module: "rpn.proposal_layer"
    layer: "ProposalLayer"
    param_str: "\'feat_stride\': 8 \n\'scales\': !!python/tuple [1,1.25, 1.5,1.75, 2,2.5, 3,3.5, 4,4.5, 5,5.5, 6,7, 8,9,10,11,12,14,16,18,20,22,24,28,32,36,40,44,52,60,68,76,84,92,100]"
  }
}
layer {
  name: "roi-data"
  type: "Python"
  bottom: "rpn_rois"
  bottom: "gt_boxes"
  top: "rois"
  top: "labels"
  top: "twin_targets"
  top: "twin_inside_weights"
  top: "twin_outside_weights"
  python_param {
    module: "rpn.proposal_target_layer"
    layer: "ProposalTargetLayer"
    param_str: "\'num_classes\': 201"
  }
}
layer {
  name: "roi_pool5"
  type: "ROIPooling"
  bottom: "conv5b"
  bottom: "rois"
  top: "pool5"
  roi_pooling_param {
    pooled_h: 4
    pooled_w: 4
    spatial_scale: 0.0625
    pooled_l: 1
    temporal_scale: 0.125
  }
}
layer {
  name: "fc6"
  type: "InnerProduct"
  bottom: "pool5"
  top: "fc6"
  param {
    lr_mult: 1
    decay_mult: 1
  }
  param {
    lr_mult: 2
    decay_mult: 0
  }
  inner_product_param {
    num_output: 4096
    weight_filler {
      type: "gaussian"
      std: 0.005
    }
    bias_filler {
      type: "constant"
      value: 1
    }
  }
}
layer {
  name: "relu6"
  type: "ReLU"
  bottom: "fc6"
  top: "fc6"
}
layer {
  name: "drop6"
  type: "Dropout"
  bottom: "fc6"
  top: "fc6"
  dropout_param {
    dropout_ratio: 0.5
  }
}
layer {
  name: "cls_score"
  type: "InnerProduct"
  bottom: "fc6"
  top: "cls_score"
  param {
    lr_mult: 1
    decay_mult: 1
  }
  param {
    lr_mult: 2
    decay_mult: 0
  }
  inner_product_param {
    num_output: 201
    weight_filler {
      type: "gaussian"
      std: 0.01
    }
    bias_filler {
      type: "constant"
      value: 0
    }
  }
}
layer {
  name: "twin_pred"
  type: "InnerProduct"
  bottom: "fc6"
  top: "twin_pred"
  param {
    lr_mult: 1
    decay_mult: 1
  }
  param {
    lr_mult: 2
    decay_mult: 0
  }
  inner_product_param {
    num_output: 402
    weight_filler {
      type: "gaussian"
      std: 0.001
    }
    bias_filler {
      type: "constant"
      value: 0
    }
  }
}
layer {
  name: "loss_cls"
  type: "SoftmaxWithLoss"
  bottom: "cls_score"
  bottom: "labels"
  top: "loss_cls"
  loss_weight: 1
  propagate_down: true
  propagate_down: false
}
layer {
  name: "loss_twin"
  type: "SmoothL1Loss"
  bottom: "twin_pred"
  bottom: "twin_targets"
  bottom: "twin_inside_weights"
  bottom: "twin_outside_weights"
  top: "loss_twin"
  loss_weight: 1
}
layer {
  name: "accuarcy"
  type: "Accuracy"
  bottom: "cls_score"
  bottom: "labels"
  top: "accuarcy"
  propagate_down: false
  propagate_down: false
  accuracy_param {
    ignore_label: -1
  }
}
I0417 12:08:44.519444 15551 layer_factory.hpp:77] Creating layer data
I0417 12:08:44.546365 15551 net.cpp:100] Creating Layer data
I0417 12:08:44.546389 15551 net.cpp:408] data -> data
I0417 12:08:44.546404 15551 net.cpp:408] data -> gt_boxes
setting up
has rpn
RoiDataLayer: name_to_top: {'gt_windows': 1, 'data': 0}
I0417 12:08:44.560742 15551 net.cpp:150] Setting up data
I0417 12:08:44.560768 15551 net.cpp:157] Top shape: 1 3 768 112 112 (28901376)
I0417 12:08:44.560775 15551 net.cpp:157] Top shape: 1 101 (101)
I0417 12:08:44.560777 15551 net.cpp:165] Memory required for data: 115605908
I0417 12:08:44.560784 15551 layer_factory.hpp:77] Creating layer data_data_0_split
I0417 12:08:44.560798 15551 net.cpp:100] Creating Layer data_data_0_split
I0417 12:08:44.560803 15551 net.cpp:434] data_data_0_split <- data
I0417 12:08:44.560811 15551 net.cpp:408] data_data_0_split -> data_data_0_split_0
I0417 12:08:44.560822 15551 net.cpp:408] data_data_0_split -> data_data_0_split_1
I0417 12:08:44.560875 15551 net.cpp:150] Setting up data_data_0_split
I0417 12:08:44.560884 15551 net.cpp:157] Top shape: 1 3 768 112 112 (28901376)
I0417 12:08:44.560890 15551 net.cpp:157] Top shape: 1 3 768 112 112 (28901376)
I0417 12:08:44.560895 15551 net.cpp:165] Memory required for data: 346816916
I0417 12:08:44.560899 15551 layer_factory.hpp:77] Creating layer gt_boxes_data_1_split
I0417 12:08:44.560905 15551 net.cpp:100] Creating Layer gt_boxes_data_1_split
I0417 12:08:44.560909 15551 net.cpp:434] gt_boxes_data_1_split <- gt_boxes
I0417 12:08:44.560915 15551 net.cpp:408] gt_boxes_data_1_split -> gt_boxes_data_1_split_0
I0417 12:08:44.560922 15551 net.cpp:408] gt_boxes_data_1_split -> gt_boxes_data_1_split_1
I0417 12:08:44.560962 15551 net.cpp:150] Setting up gt_boxes_data_1_split
I0417 12:08:44.560971 15551 net.cpp:157] Top shape: 1 101 (101)
I0417 12:08:44.560976 15551 net.cpp:157] Top shape: 1 101 (101)
I0417 12:08:44.560979 15551 net.cpp:165] Memory required for data: 346817724
I0417 12:08:44.560983 15551 layer_factory.hpp:77] Creating layer conv1a
I0417 12:08:44.561000 15551 net.cpp:100] Creating Layer conv1a
I0417 12:08:44.561005 15551 net.cpp:434] conv1a <- data_data_0_split_0
I0417 12:08:44.561012 15551 net.cpp:408] conv1a -> conv1a
I0417 12:08:44.581310 15551 net.cpp:150] Setting up conv1a
I0417 12:08:44.581348 15551 net.cpp:157] Top shape: 1 64 768 112 112 (616562688)
I0417 12:08:44.581353 15551 net.cpp:165] Memory required for data: 2813068476
I0417 12:08:44.581377 15551 layer_factory.hpp:77] Creating layer relu1a
I0417 12:08:44.581394 15551 net.cpp:100] Creating Layer relu1a
I0417 12:08:44.581403 15551 net.cpp:434] relu1a <- conv1a
I0417 12:08:44.581410 15551 net.cpp:395] relu1a -> conv1a (in-place)
I0417 12:08:44.581424 15551 net.cpp:150] Setting up relu1a
I0417 12:08:44.581429 15551 net.cpp:157] Top shape: 1 64 768 112 112 (616562688)
I0417 12:08:44.581432 15551 net.cpp:165] Memory required for data: 5279319228
I0417 12:08:44.581436 15551 layer_factory.hpp:77] Creating layer pool1
I0417 12:08:44.581444 15551 net.cpp:100] Creating Layer pool1
I0417 12:08:44.581449 15551 net.cpp:434] pool1 <- conv1a
I0417 12:08:44.581454 15551 net.cpp:408] pool1 -> pool1
I0417 12:08:44.581568 15551 net.cpp:150] Setting up pool1
I0417 12:08:44.581579 15551 net.cpp:157] Top shape: 1 64 768 56 56 (154140672)
I0417 12:08:44.581583 15551 net.cpp:165] Memory required for data: 5895881916
I0417 12:08:44.581588 15551 layer_factory.hpp:77] Creating layer conv2a
I0417 12:08:44.581598 15551 net.cpp:100] Creating Layer conv2a
I0417 12:08:44.581603 15551 net.cpp:434] conv2a <- pool1
I0417 12:08:44.581610 15551 net.cpp:408] conv2a -> conv2a
I0417 12:08:44.592322 15551 net.cpp:150] Setting up conv2a
I0417 12:08:44.592348 15551 net.cpp:157] Top shape: 1 128 768 56 56 (308281344)
I0417 12:08:44.592353 15551 net.cpp:165] Memory required for data: 7129007292
I0417 12:08:44.592366 15551 layer_factory.hpp:77] Creating layer relu2a
I0417 12:08:44.592377 15551 net.cpp:100] Creating Layer relu2a
I0417 12:08:44.592382 15551 net.cpp:434] relu2a <- conv2a
I0417 12:08:44.592388 15551 net.cpp:395] relu2a -> conv2a (in-place)
I0417 12:08:44.592397 15551 net.cpp:150] Setting up relu2a
I0417 12:08:44.592406 15551 net.cpp:157] Top shape: 1 128 768 56 56 (308281344)
I0417 12:08:44.592411 15551 net.cpp:165] Memory required for data: 8362132668
I0417 12:08:44.592413 15551 layer_factory.hpp:77] Creating layer pool2
I0417 12:08:44.592423 15551 net.cpp:100] Creating Layer pool2
I0417 12:08:44.592428 15551 net.cpp:434] pool2 <- conv2a
I0417 12:08:44.592433 15551 net.cpp:408] pool2 -> pool2
I0417 12:08:44.592507 15551 net.cpp:150] Setting up pool2
I0417 12:08:44.592516 15551 net.cpp:157] Top shape: 1 128 384 28 28 (38535168)
I0417 12:08:44.592520 15551 net.cpp:165] Memory required for data: 8516273340
I0417 12:08:44.592525 15551 layer_factory.hpp:77] Creating layer conv3a
I0417 12:08:44.592538 15551 net.cpp:100] Creating Layer conv3a
I0417 12:08:44.592543 15551 net.cpp:434] conv3a <- pool2
I0417 12:08:44.592551 15551 net.cpp:408] conv3a -> conv3a
I0417 12:08:44.617637 15551 net.cpp:150] Setting up conv3a
I0417 12:08:44.617660 15551 net.cpp:157] Top shape: 1 256 384 28 28 (77070336)
I0417 12:08:44.617666 15551 net.cpp:165] Memory required for data: 8824554684
I0417 12:08:44.617678 15551 layer_factory.hpp:77] Creating layer relu3a
I0417 12:08:44.617688 15551 net.cpp:100] Creating Layer relu3a
I0417 12:08:44.617693 15551 net.cpp:434] relu3a <- conv3a
I0417 12:08:44.617702 15551 net.cpp:395] relu3a -> conv3a (in-place)
I0417 12:08:44.617710 15551 net.cpp:150] Setting up relu3a
I0417 12:08:44.617715 15551 net.cpp:157] Top shape: 1 256 384 28 28 (77070336)
I0417 12:08:44.617727 15551 net.cpp:165] Memory required for data: 9132836028
I0417 12:08:44.617730 15551 layer_factory.hpp:77] Creating layer conv3b
I0417 12:08:44.617743 15551 net.cpp:100] Creating Layer conv3b
I0417 12:08:44.617746 15551 net.cpp:434] conv3b <- conv3a
I0417 12:08:44.617753 15551 net.cpp:408] conv3b -> conv3b
I0417 12:08:44.666692 15551 net.cpp:150] Setting up conv3b
I0417 12:08:44.666716 15551 net.cpp:157] Top shape: 1 256 384 28 28 (77070336)
I0417 12:08:44.666721 15551 net.cpp:165] Memory required for data: 9441117372
I0417 12:08:44.666730 15551 layer_factory.hpp:77] Creating layer relu3b
I0417 12:08:44.666741 15551 net.cpp:100] Creating Layer relu3b
I0417 12:08:44.666746 15551 net.cpp:434] relu3b <- conv3b
I0417 12:08:44.666757 15551 net.cpp:395] relu3b -> conv3b (in-place)
I0417 12:08:44.666785 15551 net.cpp:150] Setting up relu3b
I0417 12:08:44.666791 15551 net.cpp:157] Top shape: 1 256 384 28 28 (77070336)
I0417 12:08:44.666795 15551 net.cpp:165] Memory required for data: 9749398716
I0417 12:08:44.666798 15551 layer_factory.hpp:77] Creating layer pool3
I0417 12:08:44.666805 15551 net.cpp:100] Creating Layer pool3
I0417 12:08:44.666811 15551 net.cpp:434] pool3 <- conv3b
I0417 12:08:44.666818 15551 net.cpp:408] pool3 -> pool3
I0417 12:08:44.666875 15551 net.cpp:150] Setting up pool3
I0417 12:08:44.666884 15551 net.cpp:157] Top shape: 1 256 192 14 14 (9633792)
I0417 12:08:44.666888 15551 net.cpp:165] Memory required for data: 9787933884
I0417 12:08:44.666893 15551 layer_factory.hpp:77] Creating layer conv4a
I0417 12:08:44.666904 15551 net.cpp:100] Creating Layer conv4a
I0417 12:08:44.666910 15551 net.cpp:434] conv4a <- pool3
I0417 12:08:44.666918 15551 net.cpp:408] conv4a -> conv4a
I0417 12:08:44.764003 15551 net.cpp:150] Setting up conv4a
I0417 12:08:44.764030 15551 net.cpp:157] Top shape: 1 512 192 14 14 (19267584)
I0417 12:08:44.764035 15551 net.cpp:165] Memory required for data: 9865004220
I0417 12:08:44.764050 15551 layer_factory.hpp:77] Creating layer relu4a
I0417 12:08:44.764060 15551 net.cpp:100] Creating Layer relu4a
I0417 12:08:44.764065 15551 net.cpp:434] relu4a <- conv4a
I0417 12:08:44.764073 15551 net.cpp:395] relu4a -> conv4a (in-place)
I0417 12:08:44.764083 15551 net.cpp:150] Setting up relu4a
I0417 12:08:44.764088 15551 net.cpp:157] Top shape: 1 512 192 14 14 (19267584)
I0417 12:08:44.764091 15551 net.cpp:165] Memory required for data: 9942074556
I0417 12:08:44.764096 15551 layer_factory.hpp:77] Creating layer conv4b
I0417 12:08:44.764109 15551 net.cpp:100] Creating Layer conv4b
I0417 12:08:44.764117 15551 net.cpp:434] conv4b <- conv4a
I0417 12:08:44.764122 15551 net.cpp:408] conv4b -> conv4b
I0417 12:08:44.955881 15551 net.cpp:150] Setting up conv4b
I0417 12:08:44.955909 15551 net.cpp:157] Top shape: 1 512 192 14 14 (19267584)
I0417 12:08:44.955912 15551 net.cpp:165] Memory required for data: 10019144892
I0417 12:08:44.955922 15551 layer_factory.hpp:77] Creating layer relu4b
I0417 12:08:44.955932 15551 net.cpp:100] Creating Layer relu4b
I0417 12:08:44.955938 15551 net.cpp:434] relu4b <- conv4b
I0417 12:08:44.955950 15551 net.cpp:395] relu4b -> conv4b (in-place)
I0417 12:08:44.955960 15551 net.cpp:150] Setting up relu4b
I0417 12:08:44.955965 15551 net.cpp:157] Top shape: 1 512 192 14 14 (19267584)
I0417 12:08:44.955968 15551 net.cpp:165] Memory required for data: 10096215228
I0417 12:08:44.955971 15551 layer_factory.hpp:77] Creating layer pool4
I0417 12:08:44.955979 15551 net.cpp:100] Creating Layer pool4
I0417 12:08:44.955983 15551 net.cpp:434] pool4 <- conv4b
I0417 12:08:44.955991 15551 net.cpp:408] pool4 -> pool4
I0417 12:08:44.956043 15551 net.cpp:150] Setting up pool4
I0417 12:08:44.956053 15551 net.cpp:157] Top shape: 1 512 96 7 7 (2408448)
I0417 12:08:44.956056 15551 net.cpp:165] Memory required for data: 10105849020
I0417 12:08:44.956060 15551 layer_factory.hpp:77] Creating layer conv5a
I0417 12:08:44.956073 15551 net.cpp:100] Creating Layer conv5a
I0417 12:08:44.956079 15551 net.cpp:434] conv5a <- pool4
I0417 12:08:44.956086 15551 net.cpp:408] conv5a -> conv5a
I0417 12:08:45.145748 15551 net.cpp:150] Setting up conv5a
I0417 12:08:45.145773 15551 net.cpp:157] Top shape: 1 512 96 7 7 (2408448)
I0417 12:08:45.145778 15551 net.cpp:165] Memory required for data: 10115482812
I0417 12:08:45.145787 15551 layer_factory.hpp:77] Creating layer relu5a
I0417 12:08:45.145797 15551 net.cpp:100] Creating Layer relu5a
I0417 12:08:45.145808 15551 net.cpp:434] relu5a <- conv5a
I0417 12:08:45.145814 15551 net.cpp:395] relu5a -> conv5a (in-place)
I0417 12:08:45.145823 15551 net.cpp:150] Setting up relu5a
I0417 12:08:45.145828 15551 net.cpp:157] Top shape: 1 512 96 7 7 (2408448)
I0417 12:08:45.145831 15551 net.cpp:165] Memory required for data: 10125116604
I0417 12:08:45.145834 15551 layer_factory.hpp:77] Creating layer conv5b
I0417 12:08:45.145845 15551 net.cpp:100] Creating Layer conv5b
I0417 12:08:45.145849 15551 net.cpp:434] conv5b <- conv5a
I0417 12:08:45.145855 15551 net.cpp:408] conv5b -> conv5b
I0417 12:08:45.331697 15551 net.cpp:150] Setting up conv5b
I0417 12:08:45.331720 15551 net.cpp:157] Top shape: 1 512 96 7 7 (2408448)
I0417 12:08:45.331724 15551 net.cpp:165] Memory required for data: 10134750396
I0417 12:08:45.331733 15551 layer_factory.hpp:77] Creating layer relu5b
I0417 12:08:45.331743 15551 net.cpp:100] Creating Layer relu5b
I0417 12:08:45.331749 15551 net.cpp:434] relu5b <- conv5b
I0417 12:08:45.331756 15551 net.cpp:395] relu5b -> conv5b (in-place)
I0417 12:08:45.331765 15551 net.cpp:150] Setting up relu5b
I0417 12:08:45.331769 15551 net.cpp:157] Top shape: 1 512 96 7 7 (2408448)
I0417 12:08:45.331773 15551 net.cpp:165] Memory required for data: 10144384188
I0417 12:08:45.331776 15551 layer_factory.hpp:77] Creating layer conv5b_relu5b_0_split
I0417 12:08:45.331781 15551 net.cpp:100] Creating Layer conv5b_relu5b_0_split
I0417 12:08:45.331785 15551 net.cpp:434] conv5b_relu5b_0_split <- conv5b
I0417 12:08:45.331790 15551 net.cpp:408] conv5b_relu5b_0_split -> conv5b_relu5b_0_split_0
I0417 12:08:45.331797 15551 net.cpp:408] conv5b_relu5b_0_split -> conv5b_relu5b_0_split_1
I0417 12:08:45.331842 15551 net.cpp:150] Setting up conv5b_relu5b_0_split
I0417 12:08:45.331849 15551 net.cpp:157] Top shape: 1 512 96 7 7 (2408448)
I0417 12:08:45.331854 15551 net.cpp:157] Top shape: 1 512 96 7 7 (2408448)
I0417 12:08:45.331857 15551 net.cpp:165] Memory required for data: 10163651772
I0417 12:08:45.331861 15551 layer_factory.hpp:77] Creating layer rpn_conv/3x3
I0417 12:08:45.331876 15551 net.cpp:100] Creating Layer rpn_conv/3x3
I0417 12:08:45.331882 15551 net.cpp:434] rpn_conv/3x3 <- conv5b_relu5b_0_split_0
I0417 12:08:45.331888 15551 net.cpp:408] rpn_conv/3x3 -> rpn/output
I0417 12:08:45.519377 15551 net.cpp:150] Setting up rpn_conv/3x3
I0417 12:08:45.519402 15551 net.cpp:157] Top shape: 1 512 96 4 4 (786432)
I0417 12:08:45.519407 15551 net.cpp:165] Memory required for data: 10166797500
I0417 12:08:45.519419 15551 layer_factory.hpp:77] Creating layer rpn_relu/3x3
I0417 12:08:45.519431 15551 net.cpp:100] Creating Layer rpn_relu/3x3
I0417 12:08:45.519438 15551 net.cpp:434] rpn_relu/3x3 <- rpn/output
I0417 12:08:45.519443 15551 net.cpp:395] rpn_relu/3x3 -> rpn/output (in-place)
I0417 12:08:45.519464 15551 net.cpp:150] Setting up rpn_relu/3x3
I0417 12:08:45.519481 15551 net.cpp:157] Top shape: 1 512 96 4 4 (786432)
I0417 12:08:45.519484 15551 net.cpp:165] Memory required for data: 10169943228
I0417 12:08:45.519489 15551 layer_factory.hpp:77] Creating layer rpn_conv/3x3_2
I0417 12:08:45.519498 15551 net.cpp:100] Creating Layer rpn_conv/3x3_2
I0417 12:08:45.519502 15551 net.cpp:434] rpn_conv/3x3_2 <- rpn/output
I0417 12:08:45.519508 15551 net.cpp:408] rpn_conv/3x3_2 -> rpn/output_2
I0417 12:08:45.704493 15551 net.cpp:150] Setting up rpn_conv/3x3_2
I0417 12:08:45.704517 15551 net.cpp:157] Top shape: 1 512 96 2 2 (196608)
I0417 12:08:45.704521 15551 net.cpp:165] Memory required for data: 10170729660
I0417 12:08:45.704530 15551 layer_factory.hpp:77] Creating layer rpn_relu/3x3_2
I0417 12:08:45.704540 15551 net.cpp:100] Creating Layer rpn_relu/3x3_2
I0417 12:08:45.704545 15551 net.cpp:434] rpn_relu/3x3_2 <- rpn/output_2
I0417 12:08:45.704552 15551 net.cpp:395] rpn_relu/3x3_2 -> rpn/output_2 (in-place)
I0417 12:08:45.704561 15551 net.cpp:150] Setting up rpn_relu/3x3_2
I0417 12:08:45.704566 15551 net.cpp:157] Top shape: 1 512 96 2 2 (196608)
I0417 12:08:45.704569 15551 net.cpp:165] Memory required for data: 10171516092
I0417 12:08:45.704573 15551 layer_factory.hpp:77] Creating layer rpn/output_pool
I0417 12:08:45.704579 15551 net.cpp:100] Creating Layer rpn/output_pool
I0417 12:08:45.704583 15551 net.cpp:434] rpn/output_pool <- rpn/output_2
I0417 12:08:45.704591 15551 net.cpp:408] rpn/output_pool -> rpn/output_pool
I0417 12:08:45.704638 15551 net.cpp:150] Setting up rpn/output_pool
I0417 12:08:45.704646 15551 net.cpp:157] Top shape: 1 512 96 1 1 (49152)
I0417 12:08:45.704650 15551 net.cpp:165] Memory required for data: 10171712700
I0417 12:08:45.704653 15551 layer_factory.hpp:77] Creating layer rpn/output_pool_rpn/output_pool_0_split
I0417 12:08:45.704659 15551 net.cpp:100] Creating Layer rpn/output_pool_rpn/output_pool_0_split
I0417 12:08:45.704663 15551 net.cpp:434] rpn/output_pool_rpn/output_pool_0_split <- rpn/output_pool
I0417 12:08:45.704668 15551 net.cpp:408] rpn/output_pool_rpn/output_pool_0_split -> rpn/output_pool_rpn/output_pool_0_split_0
I0417 12:08:45.704674 15551 net.cpp:408] rpn/output_pool_rpn/output_pool_0_split -> rpn/output_pool_rpn/output_pool_0_split_1
I0417 12:08:45.704716 15551 net.cpp:150] Setting up rpn/output_pool_rpn/output_pool_0_split
I0417 12:08:45.704725 15551 net.cpp:157] Top shape: 1 512 96 1 1 (49152)
I0417 12:08:45.704730 15551 net.cpp:157] Top shape: 1 512 96 1 1 (49152)
I0417 12:08:45.704732 15551 net.cpp:165] Memory required for data: 10172105916
I0417 12:08:45.704737 15551 layer_factory.hpp:77] Creating layer rpn_cls_score
I0417 12:08:45.704747 15551 net.cpp:100] Creating Layer rpn_cls_score
I0417 12:08:45.704751 15551 net.cpp:434] rpn_cls_score <- rpn/output_pool_rpn/output_pool_0_split_0
I0417 12:08:45.704756 15551 net.cpp:408] rpn_cls_score -> rpn_cls_score
I0417 12:08:45.706006 15551 net.cpp:150] Setting up rpn_cls_score
I0417 12:08:45.706015 15551 net.cpp:157] Top shape: 1 74 96 1 1 (7104)
I0417 12:08:45.706019 15551 net.cpp:165] Memory required for data: 10172134332
I0417 12:08:45.706025 15551 layer_factory.hpp:77] Creating layer rpn_cls_score_rpn_cls_score_0_split
I0417 12:08:45.706030 15551 net.cpp:100] Creating Layer rpn_cls_score_rpn_cls_score_0_split
I0417 12:08:45.706035 15551 net.cpp:434] rpn_cls_score_rpn_cls_score_0_split <- rpn_cls_score
I0417 12:08:45.706040 15551 net.cpp:408] rpn_cls_score_rpn_cls_score_0_split -> rpn_cls_score_rpn_cls_score_0_split_0
I0417 12:08:45.706046 15551 net.cpp:408] rpn_cls_score_rpn_cls_score_0_split -> rpn_cls_score_rpn_cls_score_0_split_1
I0417 12:08:45.706095 15551 net.cpp:150] Setting up rpn_cls_score_rpn_cls_score_0_split
I0417 12:08:45.706104 15551 net.cpp:157] Top shape: 1 74 96 1 1 (7104)
I0417 12:08:45.706107 15551 net.cpp:157] Top shape: 1 74 96 1 1 (7104)
I0417 12:08:45.706110 15551 net.cpp:165] Memory required for data: 10172191164
I0417 12:08:45.706115 15551 layer_factory.hpp:77] Creating layer rpn_twin_pred
I0417 12:08:45.706126 15551 net.cpp:100] Creating Layer rpn_twin_pred
I0417 12:08:45.706135 15551 net.cpp:434] rpn_twin_pred <- rpn/output_pool_rpn/output_pool_0_split_1
I0417 12:08:45.706145 15551 net.cpp:408] rpn_twin_pred -> rpn_twin_pred
I0417 12:08:45.707401 15551 net.cpp:150] Setting up rpn_twin_pred
I0417 12:08:45.707413 15551 net.cpp:157] Top shape: 1 74 96 1 1 (7104)
I0417 12:08:45.707417 15551 net.cpp:165] Memory required for data: 10172219580
I0417 12:08:45.707422 15551 layer_factory.hpp:77] Creating layer rpn_twin_pred_rpn_twin_pred_0_split
I0417 12:08:45.707430 15551 net.cpp:100] Creating Layer rpn_twin_pred_rpn_twin_pred_0_split
I0417 12:08:45.707435 15551 net.cpp:434] rpn_twin_pred_rpn_twin_pred_0_split <- rpn_twin_pred
I0417 12:08:45.707442 15551 net.cpp:408] rpn_twin_pred_rpn_twin_pred_0_split -> rpn_twin_pred_rpn_twin_pred_0_split_0
I0417 12:08:45.707450 15551 net.cpp:408] rpn_twin_pred_rpn_twin_pred_0_split -> rpn_twin_pred_rpn_twin_pred_0_split_1
I0417 12:08:45.707494 15551 net.cpp:150] Setting up rpn_twin_pred_rpn_twin_pred_0_split
I0417 12:08:45.707502 15551 net.cpp:157] Top shape: 1 74 96 1 1 (7104)
I0417 12:08:45.707506 15551 net.cpp:157] Top shape: 1 74 96 1 1 (7104)
I0417 12:08:45.707510 15551 net.cpp:165] Memory required for data: 10172276412
I0417 12:08:45.707516 15551 layer_factory.hpp:77] Creating layer rpn_cls_score_reshape
I0417 12:08:45.707530 15551 net.cpp:100] Creating Layer rpn_cls_score_reshape
I0417 12:08:45.707535 15551 net.cpp:434] rpn_cls_score_reshape <- rpn_cls_score_rpn_cls_score_0_split_0
I0417 12:08:45.707542 15551 net.cpp:408] rpn_cls_score_reshape -> rpn_cls_score_reshape
I0417 12:08:45.707578 15551 net.cpp:150] Setting up rpn_cls_score_reshape
I0417 12:08:45.707587 15551 net.cpp:157] Top shape: 1 2 3552 1 1 (7104)
I0417 12:08:45.707592 15551 net.cpp:165] Memory required for data: 10172304828
I0417 12:08:45.707598 15551 layer_factory.hpp:77] Creating layer rpn_cls_score_reshape_rpn_cls_score_reshape_0_split
I0417 12:08:45.707604 15551 net.cpp:100] Creating Layer rpn_cls_score_reshape_rpn_cls_score_reshape_0_split
I0417 12:08:45.707608 15551 net.cpp:434] rpn_cls_score_reshape_rpn_cls_score_reshape_0_split <- rpn_cls_score_reshape
I0417 12:08:45.707617 15551 net.cpp:408] rpn_cls_score_reshape_rpn_cls_score_reshape_0_split -> rpn_cls_score_reshape_rpn_cls_score_reshape_0_split_0
I0417 12:08:45.707626 15551 net.cpp:408] rpn_cls_score_reshape_rpn_cls_score_reshape_0_split -> rpn_cls_score_reshape_rpn_cls_score_reshape_0_split_1
I0417 12:08:45.707633 15551 net.cpp:408] rpn_cls_score_reshape_rpn_cls_score_reshape_0_split -> rpn_cls_score_reshape_rpn_cls_score_reshape_0_split_2
I0417 12:08:45.707685 15551 net.cpp:150] Setting up rpn_cls_score_reshape_rpn_cls_score_reshape_0_split
I0417 12:08:45.707695 15551 net.cpp:157] Top shape: 1 2 3552 1 1 (7104)
I0417 12:08:45.707702 15551 net.cpp:157] Top shape: 1 2 3552 1 1 (7104)
I0417 12:08:45.707706 15551 net.cpp:157] Top shape: 1 2 3552 1 1 (7104)
I0417 12:08:45.707710 15551 net.cpp:165] Memory required for data: 10172390076
I0417 12:08:45.707713 15551 layer_factory.hpp:77] Creating layer rpn-data
I0417 12:08:45.708094 15551 net.cpp:100] Creating Layer rpn-data
I0417 12:08:45.708106 15551 net.cpp:434] rpn-data <- rpn_cls_score_rpn_cls_score_0_split_1
I0417 12:08:45.708112 15551 net.cpp:434] rpn-data <- gt_boxes_data_1_split_0
I0417 12:08:45.708118 15551 net.cpp:434] rpn-data <- data_data_0_split_1
I0417 12:08:45.708125 15551 net.cpp:408] rpn-data -> rpn_labels
I0417 12:08:45.708134 15551 net.cpp:408] rpn-data -> rpn_twin_targets
I0417 12:08:45.708142 15551 net.cpp:408] rpn-data -> rpn_twin_inside_weights
I0417 12:08:45.708150 15551 net.cpp:408] rpn-data -> rpn_twin_outside_weights
I0417 12:08:45.710386 15551 net.cpp:150] Setting up rpn-data
I0417 12:08:45.710399 15551 net.cpp:157] Top shape: 1 1 3552 1 1 (3552)
I0417 12:08:45.710407 15551 net.cpp:157] Top shape: 1 74 96 1 1 (7104)
I0417 12:08:45.710410 15551 net.cpp:157] Top shape: 1 74 96 1 1 (7104)
I0417 12:08:45.710417 15551 net.cpp:157] Top shape: 1 74 96 1 1 (7104)
I0417 12:08:45.710420 15551 net.cpp:165] Memory required for data: 10172489532
I0417 12:08:45.710424 15551 layer_factory.hpp:77] Creating layer rpn_labels_rpn-data_0_split
I0417 12:08:45.710430 15551 net.cpp:100] Creating Layer rpn_labels_rpn-data_0_split
I0417 12:08:45.710436 15551 net.cpp:434] rpn_labels_rpn-data_0_split <- rpn_labels
I0417 12:08:45.710443 15551 net.cpp:408] rpn_labels_rpn-data_0_split -> rpn_labels_rpn-data_0_split_0
I0417 12:08:45.710451 15551 net.cpp:408] rpn_labels_rpn-data_0_split -> rpn_labels_rpn-data_0_split_1
I0417 12:08:45.710491 15551 net.cpp:150] Setting up rpn_labels_rpn-data_0_split
I0417 12:08:45.710500 15551 net.cpp:157] Top shape: 1 1 3552 1 1 (3552)
I0417 12:08:45.710503 15551 net.cpp:157] Top shape: 1 1 3552 1 1 (3552)
I0417 12:08:45.710508 15551 net.cpp:165] Memory required for data: 10172517948
I0417 12:08:45.710513 15551 layer_factory.hpp:77] Creating layer rpn_loss_cls
I0417 12:08:45.710522 15551 net.cpp:100] Creating Layer rpn_loss_cls
I0417 12:08:45.710528 15551 net.cpp:434] rpn_loss_cls <- rpn_cls_score_reshape_rpn_cls_score_reshape_0_split_0
I0417 12:08:45.710533 15551 net.cpp:434] rpn_loss_cls <- rpn_labels_rpn-data_0_split_0
…
I0417 12:08:45.710885 15551 layer_factory.hpp:77] Creating layer rpn_accuarcy
I0417 12:08:45.710894 15551 net.cpp:100] Creating Layer rpn_accuarcy
I0417 12:08:45.710899 15551 net.cpp:434] rpn_accuarcy <- rpn_cls_score_reshape_rpn_cls_score_reshape_0_split_1
I0417 12:08:45.710904 15551 net.cpp:434] rpn_accuarcy <- rpn_labels_rpn-data_0_split_1
I0417 12:08:45.710911 15551 net.cpp:408] rpn_accuarcy -> rpn_accuarcy
I0417 12:08:45.710918 15551 net.cpp:408] rpn_accuarcy -> rpn_accuarcy_class
I0417 12:08:45.710964 15551 net.cpp:150] Setting up rpn_accuarcy
I0417 12:08:45.710973 15551 net.cpp:157] Top shape: (1)
I0417 12:08:45.710976 15551 net.cpp:157] Top shape: 2 (2)
I0417 12:08:45.710983 15551 net.cpp:165] Memory required for data: 10172517968
I0417 12:08:45.710986 15551 layer_factory.hpp:77] Creating layer rpn_cls_prob
I0417 12:08:45.710994 15551 net.cpp:100] Creating Layer rpn_cls_prob
I0417 12:08:45.710999 15551 net.cpp:434] rpn_cls_prob <- rpn_cls_score_reshape_rpn_cls_score_reshape_0_split_2
I0417 12:08:45.711004 15551 net.cpp:408] rpn_cls_prob -> rpn_cls_prob
I0417 12:08:45.711074 15551 net.cpp:150] Setting up rpn_cls_prob
I0417 12:08:45.711084 15551 net.cpp:157] Top shape: 1 2 3552 1 1 (7104)
I0417 12:08:45.711091 15551 net.cpp:165] Memory required for data: 10172546384
I0417 12:08:45.711094 15551 layer_factory.hpp:77] Creating layer rpn_cls_prob_reshape
I0417 12:08:45.711102 15551 net.cpp:100] Creating Layer rpn_cls_prob_reshape
I0417 12:08:45.711105 15551 net.cpp:434] rpn_cls_prob_reshape <- rpn_cls_prob
I0417 12:08:45.711110 15551 net.cpp:408] rpn_cls_prob_reshape -> rpn_cls_prob_reshape
I0417 12:08:45.711138 15551 net.cpp:150] Setting up rpn_cls_prob_reshape
I0417 12:08:45.711146 15551 net.cpp:157] Top shape: 1 74 96 1 1 (7104)
I0417 12:08:45.711150 15551 net.cpp:165] Memory required for data: 10172574800
I0417 12:08:45.711153 15551 layer_factory.hpp:77] Creating layer proposal
I0417 12:08:45.711695 15551 net.cpp:100] Creating Layer proposal
I0417 12:08:45.711709 15551 net.cpp:434] proposal <- rpn_cls_prob_reshape
I0417 12:08:45.711714 15551 net.cpp:434] proposal <- rpn_twin_pred_rpn_twin_pred_0_split_1
I0417 12:08:45.711721 15551 net.cpp:408] proposal -> rpn_rois
I0417 12:08:45.713862 15551 net.cpp:150] Setting up proposal
I0417 12:08:45.713876 15551 net.cpp:157] Top shape: 1 3 (3)
I0417 12:08:45.713881 15551 net.cpp:165] Memory required for data: 10172574812
I0417 12:08:45.713884 15551 layer_factory.hpp:77] Creating layer roi-data
I0417 12:08:45.714015 15551 net.cpp:100] Creating Layer roi-data
I0417 12:08:45.714025 15551 net.cpp:434] roi-data <- rpn_rois
I0417 12:08:45.714030 15551 net.cpp:434] roi-data <- gt_boxes_data_1_split_1
I0417 12:08:45.714038 15551 net.cpp:408] roi-data -> rois
I0417 12:08:45.714047 15551 net.cpp:408] roi-data -> labels
I0417 12:08:45.714053 15551 net.cpp:408] roi-data -> twin_targets
I0417 12:08:45.714061 15551 net.cpp:408] roi-data -> twin_inside_weights
I0417 12:08:45.714067 15551 net.cpp:408] roi-data -> twin_outside_weights
I0417 12:08:45.714390 15551 net.cpp:150] Setting up roi-data
I0417 12:08:45.714402 15551 net.cpp:157] Top shape: 1 3 (3)
I0417 12:08:45.714407 15551 net.cpp:157] Top shape: 1 1 (1)
I0417 12:08:45.714411 15551 net.cpp:157] Top shape: 1 402 (402)
I0417 12:08:45.714414 15551 net.cpp:157] Top shape: 1 402 (402)
I0417 12:08:45.714418 15551 net.cpp:157] Top shape: 1 402 (402)
I0417 12:08:45.714421 15551 net.cpp:165] Memory required for data: 10172579652
I0417 12:08:45.714426 15551 layer_factory.hpp:77] Creating layer labels_roi-data_1_split
I0417 12:08:45.714432 15551 net.cpp:100] Creating Layer labels_roi-data_1_split
I0417 12:08:45.714435 15551 net.cpp:434] labels_roi-data_1_split <- labels
I0417 12:08:45.714442 15551 net.cpp:408] labels_roi-data_1_split -> labels_roi-data_1_split_0
I0417 12:08:45.714447 15551 net.cpp:408] labels_roi-data_1_split -> labels_roi-data_1_split_1
I0417 12:08:45.714493 15551 net.cpp:150] Setting up labels_roi-data_1_split
I0417 12:08:45.714500 15551 net.cpp:157] Top shape: 1 1 (1)
I0417 12:08:45.714505 15551 net.cpp:157] Top shape: 1 1 (1)
I0417 12:08:45.714514 15551 net.cpp:165] Memory required for data: 10172579660
I0417 12:08:45.714519 15551 layer_factory.hpp:77] Creating layer roi_pool5
I0417 12:08:45.714526 15551 net.cpp:100] Creating Layer roi_pool5
I0417 12:08:45.714530 15551 net.cpp:434] roi_pool5 <- conv5b_relu5b_0_split_1
I0417 12:08:45.714535 15551 net.cpp:434] roi_pool5 <- rois
I0417 12:08:45.714542 15551 net.cpp:408] roi_pool5 -> pool5
I0417 12:08:45.714550 15551 roi_pooling_layer.cpp:34] Temporal scale: 0.125
I0417 12:08:45.714560 15551 roi_pooling_layer.cpp:35] Spatial scale: 0.0625
I0417 12:08:45.714602 15551 net.cpp:150] Setting up roi_pool5
I0417 12:08:45.714610 15551 net.cpp:157] Top shape: 1 512 1 4 4 (8192)
I0417 12:08:45.714614 15551 net.cpp:165] Memory required for data: 10172612428
I0417 12:08:45.714617 15551 layer_factory.hpp:77] Creating layer fc6
I0417 12:08:45.714628 15551 net.cpp:100] Creating Layer fc6
I0417 12:08:45.714633 15551 net.cpp:434] fc6 <- pool5
I0417 12:08:45.714642 15551 net.cpp:408] fc6 -> fc6
I0417 12:08:46.592485 15551 net.cpp:150] Setting up fc6
I0417 12:08:46.592510 15551 net.cpp:157] Top shape: 1 4096 (4096)
I0417 12:08:46.592514 15551 net.cpp:165] Memory required for data: 10172628812
I0417 12:08:46.592525 15551 layer_factory.hpp:77] Creating layer relu6
I0417 12:08:46.592535 15551 net.cpp:100] Creating Layer relu6
I0417 12:08:46.592540 15551 net.cpp:434] relu6 <- fc6
I0417 12:08:46.592546 15551 net.cpp:395] relu6 -> fc6 (in-place)
I0417 12:08:46.592555 15551 net.cpp:150] Setting up relu6
I0417 12:08:46.592559 15551 net.cpp:157] Top shape: 1 4096 (4096)
I0417 12:08:46.592562 15551 net.cpp:165] Memory required for data: 10172645196
I0417 12:08:46.592566 15551 layer_factory.hpp:77] Creating layer drop6
I0417 12:08:46.592578 15551 net.cpp:100] Creating Layer drop6
I0417 12:08:46.592586 15551 net.cpp:434] drop6 <- fc6
I0417 12:08:46.592592 15551 net.cpp:395] drop6 -> fc6 (in-place)
I0417 12:08:46.592619 15551 net.cpp:150] Setting up drop6
I0417 12:08:46.592625 15551 net.cpp:157] Top shape: 1 4096 (4096)
I0417 12:08:46.592628 15551 net.cpp:165] Memory required for data: 10172661580
I0417 12:08:46.592633 15551 layer_factory.hpp:77] Creating layer fc6_drop6_0_split
I0417 12:08:46.592639 15551 net.cpp:100] Creating Layer fc6_drop6_0_split
I0417 12:08:46.592643 15551 net.cpp:434] fc6_drop6_0_split <- fc6
I0417 12:08:46.592648 15551 net.cpp:408] fc6_drop6_0_split -> fc6_drop6_0_split_0
I0417 12:08:46.592654 15551 net.cpp:408] fc6_drop6_0_split -> fc6_drop6_0_split_1
I0417 12:08:46.592695 15551 net.cpp:150] Setting up fc6_drop6_0_split
I0417 12:08:46.592702 15551 net.cpp:157] Top shape: 1 4096 (4096)
I0417 12:08:46.592707 15551 net.cpp:157] Top shape: 1 4096 (4096)
I0417 12:08:46.592710 15551 net.cpp:165] Memory required for data: 10172694348
I0417 12:08:46.592713 15551 layer_factory.hpp:77] Creating layer cls_score
I0417 12:08:46.592722 15551 net.cpp:100] Creating Layer cls_score
I0417 12:08:46.592726 15551 net.cpp:434] cls_score <- fc6_drop6_0_split_0
I0417 12:08:46.592734 15551 net.cpp:408] cls_score -> cls_score
I0417 12:08:46.614369 15551 net.cpp:150] Setting up cls_score
I0417 12:08:46.614394 15551 net.cpp:157] Top shape: 1 201 (201)
I0417 12:08:46.614399 15551 net.cpp:165] Memory required for data: 10172695152
I0417 12:08:46.614406 15551 layer_factory.hpp:77] Creating layer cls_score_cls_score_0_split
I0417 12:08:46.614413 15551 net.cpp:100] Creating Layer cls_score_cls_score_0_split
I0417 12:08:46.614418 15551 net.cpp:434] cls_score_cls_score_0_split <- cls_score
I0417 12:08:46.614423 15551 net.cpp:408] cls_score_cls_score_0_split -> cls_score_cls_score_0_split_0
I0417 12:08:46.614430 15551 net.cpp:408] cls_score_cls_score_0_split -> cls_score_cls_score_0_split_1
I0417 12:08:46.614472 15551 net.cpp:150] Setting up cls_score_cls_score_0_split
I0417 12:08:46.614481 15551 net.cpp:157] Top shape: 1 201 (201)
I0417 12:08:46.614485 15551 net.cpp:157] Top shape: 1 201 (201)
I0417 12:08:46.614490 15551 net.cpp:165] Memory required for data: 10172696760
I0417 12:08:46.614493 15551 layer_factory.hpp:77] Creating layer twin_pred
I0417 12:08:46.614501 15551 net.cpp:100] Creating Layer twin_pred
I0417 12:08:46.614506 15551 net.cpp:434] twin_pred <- fc6_drop6_0_split_1
I0417 12:08:46.614512 15551 net.cpp:408] twin_pred -> twin_pred
I0417 12:08:46.657706 15551 net.cpp:150] Setting up twin_pred
I0417 12:08:46.657728 15551 net.cpp:157] Top shape: 1 402 (402)
I0417 12:08:46.657732 15551 net.cpp:165] Memory required for data: 10172698368
I0417 12:08:46.657742 15551 layer_factory.hpp:77] Creating layer loss_cls
I0417 12:08:46.657752 15551 net.cpp:100] Creating Layer loss_cls
I0417 12:08:46.657757 15551 net.cpp:434] loss_cls <- cls_score_cls_score_0_split_0
I0417 12:08:46.657764 15551 net.cpp:434] loss_cls <- labels_roi-data_1_split_0
I0417 12:08:46.657769 15551 net.cpp:408] loss_cls -> loss_cls
…
