…
stepsize: 350000
snapshot: 0
snapshot_prefix: "./experiments/activitynet/snapshot/activitynet"
average_loss: 100
iter_size: 1
I0417 04:00:15.122910 12184 solver.cpp:81] Creating training net from train_net file: ./experiments/activitynet/train.prototxt
I0417 04:00:15.123970 12184 net.cpp:58] Initializing net from parameters: 
name: "activitynet"
state {
  phase: TRAIN
}
layer {
  name: "data"
  type: "Python"
  top: "data"
  top: "gt_boxes"
  python_param {
    module: "roi_data_layer.layer"
    layer: "RoIDataLayer"
    param_str: "\'num_classes\': 100"
  }
}
layer {
  name: "conv1a"
  type: "Convolution"
  bottom: "data"
  top: "conv1a"
  param {
    lr_mult: 0
    decay_mult: 0
  }
  param {
    lr_mult: 0
    decay_mult: 0
  }
  convolution_param {
    num_output: 64
    pad: 1
    pad: 1
    pad: 1
    kernel_size: 3
    kernel_size: 3
    kernel_size: 3
    weight_filler {
      type: "gaussian"
      std: 0.01
    }
    bias_filler {
      type: "constant"
      value: 0
    }
  }
}
layer {
  name: "relu1a"
  type: "ReLU"
  bottom: "conv1a"
  top: "conv1a"
}
layer {
  name: "pool1"
  type: "Pooling"
  bottom: "conv1a"
  top: "pool1"
  pooling_param {
    pool: MAX
    kernel_size: 1
    kernel_size: 2
    kernel_size: 2
    stride: 1
    stride: 2
    stride: 2
  }
}
layer {
  name: "conv2a"
  type: "Convolution"
  bottom: "pool1"
  top: "conv2a"
  param {
    lr_mult: 0
    decay_mult: 0
  }
  param {
    lr_mult: 0
    decay_mult: 0
  }
  convolution_param {
    num_output: 128
    pad: 1
    pad: 1
    pad: 1
    kernel_size: 3
    kernel_size: 3
    kernel_size: 3
    weight_filler {
      type: "gaussian"
      std: 0.01
    }
    bias_filler {
      type: "constant"
      value: 1
    }
  }
}
layer {
  name: "relu2a"
  type: "ReLU"
  bottom: "conv2a"
  top: "conv2a"
}
layer {
  name: "pool2"
  type: "Pooling"
  bottom: "conv2a"
  top: "pool2"
  pooling_param {
    pool: MAX
    kernel_size: 2
    kernel_size: 2
    kernel_size: 2
    stride: 2
    stride: 2
    stride: 2
  }
}
layer {
  name: "conv3a"
  type: "Convolution"
  bottom: "pool2"
  top: "conv3a"
  param {
    lr_mult: 1
    decay_mult: 1
  }
  param {
    lr_mult: 2
    decay_mult: 0
  }
  convolution_param {
    num_output: 256
    pad: 1
    pad: 1
    pad: 1
    kernel_size: 3
    kernel_size: 3
    kernel_size: 3
    weight_filler {
      type: "gaussian"
      std: 0.01
    }
    bias_filler {
      type: "constant"
      value: 1
    }
  }
}
layer {
  name: "relu3a"
  type: "ReLU"
  bottom: "conv3a"
  top: "conv3a"
}
layer {
  name: "conv3b"
  type: "Convolution"
  bottom: "conv3a"
  top: "conv3b"
  param {
    lr_mult: 1
    decay_mult: 1
  }
  param {
    lr_mult: 2
    decay_mult: 0
  }
  convolution_param {
    num_output: 256
    pad: 1
    pad: 1
    pad: 1
    kernel_size: 3
    kernel_size: 3
    kernel_size: 3
    weight_filler {
      type: "gaussian"
      std: 0.01
    }
    bias_filler {
      type: "constant"
      value: 1
    }
  }
}
layer {
  name: "relu3b"
  type: "ReLU"
  bottom: "conv3b"
  top: "conv3b"
}
layer {
  name: "pool3"
  type: "Pooling"
  bottom: "conv3b"
  top: "pool3"
  pooling_param {
    pool: MAX
    kernel_size: 2
    kernel_size: 2
    kernel_size: 2
    stride: 2
    stride: 2
    stride: 2
  }
}
layer {
  name: "conv4a"
  type: "Convolution"
  bottom: "pool3"
  top: "conv4a"
  param {
    lr_mult: 1
    decay_mult: 1
  }
  param {
    lr_mult: 2
    decay_mult: 0
  }
  convolution_param {
    num_output: 512
    pad: 1
    pad: 1
    pad: 1
    kernel_size: 3
    kernel_size: 3
    kernel_size: 3
    weight_filler {
      type: "gaussian"
      std: 0.01
    }
    bias_filler {
      type: "constant"
      value: 1
    }
  }
}
layer {
  name: "relu4a"
  type: "ReLU"
  bottom: "conv4a"
  top: "conv4a"
}
layer {
  name: "conv4b"
  type: "Convolution"
  bottom: "conv4a"
  top: "conv4b"
  param {
    lr_mult: 1
    decay_mult: 1
  }
  param {
    lr_mult: 2
    decay_mult: 0
  }
  convolution_param {
    num_output: 512
    pad: 1
    pad: 1
    pad: 1
    kernel_size: 3
    kernel_size: 3
    kernel_size: 3
    weight_filler {
      type: "gaussian"
      std: 0.01
    }
    bias_filler {
      type: "constant"
      value: 1
    }
  }
}
layer {
  name: "relu4b"
  type: "ReLU"
  bottom: "conv4b"
  top: "conv4b"
}
layer {
  name: "pool4"
  type: "Pooling"
  bottom: "conv4b"
  top: "pool4"
  pooling_param {
    pool: MAX
    kernel_size: 2
    kernel_size: 2
    kernel_size: 2
    stride: 2
    stride: 2
    stride: 2
  }
}
layer {
  name: "conv5a"
  type: "Convolution"
  bottom: "pool4"
  top: "conv5a"
  param {
    lr_mult: 1
    decay_mult: 1
  }
  param {
    lr_mult: 2
    decay_mult: 0
  }
  convolution_param {
    num_output: 512
    pad: 1
    pad: 1
    pad: 1
    kernel_size: 3
    kernel_size: 3
    kernel_size: 3
    weight_filler {
      type: "gaussian"
      std: 0.01
    }
    bias_filler {
      type: "constant"
      value: 1
    }
  }
}
layer {
  name: "relu5a"
  type: "ReLU"
  bottom: "conv5a"
  top: "conv5a"
}
layer {
  name: "conv5b"
  type: "Convolution"
  bottom: "conv5a"
  top: "conv5b"
  param {
    lr_mult: 1
    decay_mult: 1
  }
  param {
    lr_mult: 2
    decay_mult: 0
  }
  convolution_param {
    num_output: 512
    pad: 1
    pad: 1
    pad: 1
    kernel_size: 3
    kernel_size: 3
    kernel_size: 3
    weight_filler {
      type: "gaussian"
      std: 0.01
    }
    bias_filler {
      type: "constant"
      value: 1
    }
  }
}
layer {
  name: "relu5b"
  type: "ReLU"
  bottom: "conv5b"
  top: "conv5b"
}
layer {
  name: "rpn_conv/3x3"
  type: "Convolution"
  bottom: "conv5b"
  top: "rpn/output"
  param {
    lr_mult: 1
    decay_mult: 1
  }
  param {
    lr_mult: 2
    decay_mult: 0
  }
  convolution_param {
    num_output: 512
    pad: 1
    pad: 1
    pad: 1
    kernel_size: 3
    kernel_size: 3
    kernel_size: 3
    stride: 1
    stride: 2
    stride: 2
    weight_filler {
      type: "gaussian"
      std: 0.01
    }
    bias_filler {
      type: "constant"
      value: 0
    }
  }
}
layer {
  name: "rpn_relu/3x3"
  type: "ReLU"
  bottom: "rpn/output"
  top: "rpn/output"
}
layer {
  name: "rpn_conv/3x3_2"
  type: "Convolution"
  bottom: "rpn/output"
  top: "rpn/output_2"
  param {
    lr_mult: 1
    decay_mult: 1
  }
  param {
    lr_mult: 2
    decay_mult: 0
  }
  convolution_param {
    num_output: 512
    pad: 1
    pad: 1
    pad: 1
    kernel_size: 3
    kernel_size: 3
    kernel_size: 3
    stride: 1
    stride: 2
    stride: 2
    weight_filler {
      type: "gaussian"
      std: 0.01
    }
    bias_filler {
      type: "constant"
      value: 0
    }
  }
}
layer {
  name: "rpn_relu/3x3_2"
  type: "ReLU"
  bottom: "rpn/output_2"
  top: "rpn/output_2"
}
layer {
  name: "rpn/output_pool"
  type: "Pooling"
  bottom: "rpn/output_2"
  top: "rpn/output_pool"
  pooling_param {
    pool: MAX
    kernel_size: 1
    kernel_size: 2
    kernel_size: 2
  }
}
layer {
  name: "rpn_cls_score"
  type: "Convolution"
  bottom: "rpn/output_pool"
  top: "rpn_cls_score"
  param {
    lr_mult: 1
    decay_mult: 1
  }
  param {
    lr_mult: 2
    decay_mult: 0
  }
  convolution_param {
    num_output: 74
    kernel_size: 1
    kernel_size: 1
    kernel_size: 1
    weight_filler {
      type: "gaussian"
      std: 0.01
    }
    bias_filler {
      type: "constant"
      value: 0
    }
  }
}
layer {
  name: "rpn_twin_pred"
  type: "Convolution"
  bottom: "rpn/output_pool"
  top: "rpn_twin_pred"
  param {
    lr_mult: 1
    decay_mult: 1
  }
  param {
    lr_mult: 2
    decay_mult: 0
  }
  convolution_param {
    num_output: 74
    kernel_size: 1
    kernel_size: 1
    kernel_size: 1
    weight_filler {
      type: "gaussian"
      std: 0.01
    }
    bias_filler {
      type: "constant"
      value: 0
    }
  }
}
layer {
  name: "rpn_cls_score_reshape"
  type: "Reshape"
  bottom: "rpn_cls_score"
  top: "rpn_cls_score_reshape"
  reshape_param {
    shape {
      dim: 0
      dim: 2
      dim: -1
      dim: 0
      dim: 0
    }
  }
}
layer {
  name: "rpn-data"
  type: "Python"
  bottom: "rpn_cls_score"
  bottom: "gt_boxes"
  bottom: "data"
  top: "rpn_labels"
  top: "rpn_twin_targets"
  top: "rpn_twin_inside_weights"
  top: "rpn_twin_outside_weights"
  python_param {
    module: "rpn.anchor_target_layer"
    layer: "AnchorTargetLayer"
    param_str: "\'feat_stride\': 8 \n\'scales\': !!python/tuple [1,1.25, 1.5,1.75, 2,2.5, 3,3.5, 4,4.5, 5,5.5, 6,7, 8,9,10,11,12,14,16,18,20,22,24,28,32,36,40,44,52,60,68,76,84,92,100]"
  }
}
layer {
  name: "rpn_loss_cls"
  type: "SoftmaxWithLoss"
  bottom: "rpn_cls_score_reshape"
  bottom: "rpn_labels"
  top: "rpn_cls_loss"
  loss_weight: 1
  propagate_down: true
  propagate_down: false
  loss_param {
    ignore_label: -1
    normalize: true
  }
}
layer {
  name: "rpn_loss_twin"
  type: "SmoothL1Loss"
  bottom: "rpn_twin_pred"
  bottom: "rpn_twin_targets"
  bottom: "rpn_twin_inside_weights"
  bottom: "rpn_twin_outside_weights"
  top: "rpn_loss_twin"
  loss_weight: 1
  smooth_l1_loss_param {
    sigma: 3
  }
}
layer {
  name: "rpn_accuarcy"
  type: "Accuracy"
  bottom: "rpn_cls_score_reshape"
  bottom: "rpn_labels"
  top: "rpn_accuarcy"
  top: "rpn_accuarcy_class"
  propagate_down: false
  propagate_down: false
  accuracy_param {
    ignore_label: -1
  }
}
layer {
  name: "rpn_cls_prob"
  type: "Softmax"
  bottom: "rpn_cls_score_reshape"
  top: "rpn_cls_prob"
}
layer {
  name: "rpn_cls_prob_reshape"
  type: "Reshape"
  bottom: "rpn_cls_prob"
  top: "rpn_cls_prob_reshape"
  reshape_param {
    shape {
      dim: 0
      dim: 74
      dim: -1
      dim: 0
      dim: 0
    }
  }
}
layer {
  name: "proposal"
  type: "Python"
  bottom: "rpn_cls_prob_reshape"
  bottom: "rpn_twin_pred"
  top: "rpn_rois"
  include {
    phase: TRAIN
  }
  python_param {
    module: "rpn.proposal_layer"
    layer: "ProposalLayer"
    param_str: "\'feat_stride\': 8 \n\'scales\': !!python/tuple [1,1.25, 1.5,1.75, 2,2.5, 3,3.5, 4,4.5, 5,5.5, 6,7, 8,9,10,11,12,14,16,18,20,22,24,28,32,36,40,44,52,60,68,76,84,92,100]"
  }
}
layer {
  name: "roi-data"
  type: "Python"
  bottom: "rpn_rois"
  bottom: "gt_boxes"
  top: "rois"
  top: "labels"
  top: "twin_targets"
  top: "twin_inside_weights"
  top: "twin_outside_weights"
  python_param {
    module: "rpn.proposal_target_layer"
    layer: "ProposalTargetLayer"
    param_str: "\'num_classes\': 201"
  }
}
layer {
  name: "roi_pool5"
  type: "ROIPooling"
  bottom: "conv5b"
  bottom: "rois"
  top: "pool5"
  roi_pooling_param {
    pooled_h: 4
    pooled_w: 4
    spatial_scale: 0.0625
    pooled_l: 1
    temporal_scale: 0.125
  }
}
layer {
  name: "fc6"
  type: "InnerProduct"
  bottom: "pool5"
  top: "fc6"
  param {
    lr_mult: 1
    decay_mult: 1
  }
  param {
    lr_mult: 2
    decay_mult: 0
  }
  inner_product_param {
    num_output: 4096
    weight_filler {
      type: "gaussian"
      std: 0.005
    }
    bias_filler {
      type: "constant"
      value: 1
    }
  }
}
layer {
  name: "relu6"
  type: "ReLU"
  bottom: "fc6"
  top: "fc6"
}
layer {
  name: "drop6"
  type: "Dropout"
  bottom: "fc6"
  top: "fc6"
  dropout_param {
    dropout_ratio: 0.5
  }
}
layer {
  name: "cls_score"
  type: "InnerProduct"
  bottom: "fc6"
  top: "cls_score"
  param {
    lr_mult: 1
    decay_mult: 1
  }
  param {
    lr_mult: 2
    decay_mult: 0
  }
  inner_product_param {
    num_output: 201
    weight_filler {
      type: "gaussian"
      std: 0.01
    }
    bias_filler {
      type: "constant"
      value: 0
    }
  }
}
layer {
  name: "twin_pred"
  type: "InnerProduct"
  bottom: "fc6"
  top: "twin_pred"
  param {
    lr_mult: 1
    decay_mult: 1
  }
  param {
    lr_mult: 2
    decay_mult: 0
  }
  inner_product_param {
    num_output: 402
    weight_filler {
      type: "gaussian"
      std: 0.001
    }
    bias_filler {
      type: "constant"
      value: 0
    }
  }
}
layer {
  name: "loss_cls"
  type: "SoftmaxWithLoss"
  bottom: "cls_score"
  bottom: "labels"
  top: "loss_cls"
  loss_weight: 1
  propagate_down: true
  propagate_down: false
}
layer {
  name: "loss_twin"
  type: "SmoothL1Loss"
  bottom: "twin_pred"
  bottom: "twin_targets"
  bottom: "twin_inside_weights"
  bottom: "twin_outside_weights"
  top: "loss_twin"
  loss_weight: 1
}
layer {
  name: "accuarcy"
  type: "Accuracy"
  bottom: "cls_score"
  bottom: "labels"
  top: "accuarcy"
  propagate_down: false
  propagate_down: false
  accuracy_param {
    ignore_label: -1
  }
}
I0417 04:00:15.124176 12184 layer_factory.hpp:77] Creating layer data
I0417 04:00:15.233026 12184 net.cpp:100] Creating Layer data
I0417 04:00:15.233057 12184 net.cpp:408] data -> data
I0417 04:00:15.233078 12184 net.cpp:408] data -> gt_boxes
setting up
RoiDataLayer: name_to_top: {'gt_windows': 1, 'data': 0}
I0417 04:00:15.324795 12184 net.cpp:150] Setting up data
I0417 04:00:15.324821 12184 net.cpp:157] Top shape: 1 3 768 112 112 (28901376)
I0417 04:00:15.324829 12184 net.cpp:157] Top shape: 1 101 (101)
I0417 04:00:15.324834 12184 net.cpp:165] Memory required for data: 115605908
I0417 04:00:15.324843 12184 layer_factory.hpp:77] Creating layer data_data_0_split
I0417 04:00:15.324862 12184 net.cpp:100] Creating Layer data_data_0_split
I0417 04:00:15.324870 12184 net.cpp:434] data_data_0_split <- data
I0417 04:00:15.324879 12184 net.cpp:408] data_data_0_split -> data_data_0_split_0
I0417 04:00:15.324899 12184 net.cpp:408] data_data_0_split -> data_data_0_split_1
I0417 04:00:15.324951 12184 net.cpp:150] Setting up data_data_0_split
I0417 04:00:15.324960 12184 net.cpp:157] Top shape: 1 3 768 112 112 (28901376)
I0417 04:00:15.324965 12184 net.cpp:157] Top shape: 1 3 768 112 112 (28901376)
I0417 04:00:15.324967 12184 net.cpp:165] Memory required for data: 346816916
I0417 04:00:15.324971 12184 layer_factory.hpp:77] Creating layer gt_boxes_data_1_split
I0417 04:00:15.324976 12184 net.cpp:100] Creating Layer gt_boxes_data_1_split
I0417 04:00:15.324980 12184 net.cpp:434] gt_boxes_data_1_split <- gt_boxes
I0417 04:00:15.324985 12184 net.cpp:408] gt_boxes_data_1_split -> gt_boxes_data_1_split_0
I0417 04:00:15.324991 12184 net.cpp:408] gt_boxes_data_1_split -> gt_boxes_data_1_split_1
I0417 04:00:15.325031 12184 net.cpp:150] Setting up gt_boxes_data_1_split
I0417 04:00:15.325039 12184 net.cpp:157] Top shape: 1 101 (101)
I0417 04:00:15.325043 12184 net.cpp:157] Top shape: 1 101 (101)
I0417 04:00:15.325047 12184 net.cpp:165] Memory required for data: 346817724
I0417 04:00:15.325050 12184 layer_factory.hpp:77] Creating layer conv1a
I0417 04:00:15.325064 12184 net.cpp:100] Creating Layer conv1a
I0417 04:00:15.325070 12184 net.cpp:434] conv1a <- data_data_0_split_0
I0417 04:00:15.325076 12184 net.cpp:408] conv1a -> conv1a
I0417 04:00:15.343946 12184 net.cpp:150] Setting up conv1a
I0417 04:00:15.343977 12184 net.cpp:157] Top shape: 1 64 768 112 112 (616562688)
I0417 04:00:15.343982 12184 net.cpp:165] Memory required for data: 2813068476
I0417 04:00:15.344012 12184 layer_factory.hpp:77] Creating layer relu1a
I0417 04:00:15.344038 12184 net.cpp:100] Creating Layer relu1a
I0417 04:00:15.344045 12184 net.cpp:434] relu1a <- conv1a
I0417 04:00:15.344054 12184 net.cpp:395] relu1a -> conv1a (in-place)
I0417 04:00:15.344091 12184 net.cpp:150] Setting up relu1a
I0417 04:00:15.344101 12184 net.cpp:157] Top shape: 1 64 768 112 112 (616562688)
I0417 04:00:15.344106 12184 net.cpp:165] Memory required for data: 5279319228
I0417 04:00:15.344110 12184 layer_factory.hpp:77] Creating layer pool1
I0417 04:00:15.344117 12184 net.cpp:100] Creating Layer pool1
I0417 04:00:15.344120 12184 net.cpp:434] pool1 <- conv1a
I0417 04:00:15.344125 12184 net.cpp:408] pool1 -> pool1
I0417 04:00:15.344228 12184 net.cpp:150] Setting up pool1
I0417 04:00:15.344235 12184 net.cpp:157] Top shape: 1 64 768 56 56 (154140672)
I0417 04:00:15.344239 12184 net.cpp:165] Memory required for data: 5895881916
I0417 04:00:15.344243 12184 layer_factory.hpp:77] Creating layer conv2a
I0417 04:00:15.344254 12184 net.cpp:100] Creating Layer conv2a
I0417 04:00:15.344257 12184 net.cpp:434] conv2a <- pool1
I0417 04:00:15.344264 12184 net.cpp:408] conv2a -> conv2a
I0417 04:00:15.355146 12184 net.cpp:150] Setting up conv2a
I0417 04:00:15.355173 12184 net.cpp:157] Top shape: 1 128 768 56 56 (308281344)
I0417 04:00:15.355177 12184 net.cpp:165] Memory required for data: 7129007292
I0417 04:00:15.355190 12184 layer_factory.hpp:77] Creating layer relu2a
I0417 04:00:15.355201 12184 net.cpp:100] Creating Layer relu2a
I0417 04:00:15.355206 12184 net.cpp:434] relu2a <- conv2a
I0417 04:00:15.355212 12184 net.cpp:395] relu2a -> conv2a (in-place)
I0417 04:00:15.355221 12184 net.cpp:150] Setting up relu2a
I0417 04:00:15.355226 12184 net.cpp:157] Top shape: 1 128 768 56 56 (308281344)
I0417 04:00:15.355228 12184 net.cpp:165] Memory required for data: 8362132668
I0417 04:00:15.355232 12184 layer_factory.hpp:77] Creating layer pool2
I0417 04:00:15.355240 12184 net.cpp:100] Creating Layer pool2
I0417 04:00:15.355245 12184 net.cpp:434] pool2 <- conv2a
I0417 04:00:15.355252 12184 net.cpp:408] pool2 -> pool2
I0417 04:00:15.355334 12184 net.cpp:150] Setting up pool2
I0417 04:00:15.355342 12184 net.cpp:157] Top shape: 1 128 384 28 28 (38535168)
I0417 04:00:15.355345 12184 net.cpp:165] Memory required for data: 8516273340
I0417 04:00:15.355348 12184 layer_factory.hpp:77] Creating layer conv3a
I0417 04:00:15.355360 12184 net.cpp:100] Creating Layer conv3a
I0417 04:00:15.355365 12184 net.cpp:434] conv3a <- pool2
I0417 04:00:15.355372 12184 net.cpp:408] conv3a -> conv3a
I0417 04:00:15.380395 12184 net.cpp:150] Setting up conv3a
I0417 04:00:15.380419 12184 net.cpp:157] Top shape: 1 256 384 28 28 (77070336)
I0417 04:00:15.380424 12184 net.cpp:165] Memory required for data: 8824554684
I0417 04:00:15.380436 12184 layer_factory.hpp:77] Creating layer relu3a
I0417 04:00:15.380445 12184 net.cpp:100] Creating Layer relu3a
I0417 04:00:15.380450 12184 net.cpp:434] relu3a <- conv3a
I0417 04:00:15.380456 12184 net.cpp:395] relu3a -> conv3a (in-place)
I0417 04:00:15.380465 12184 net.cpp:150] Setting up relu3a
I0417 04:00:15.380470 12184 net.cpp:157] Top shape: 1 256 384 28 28 (77070336)
I0417 04:00:15.380472 12184 net.cpp:165] Memory required for data: 9132836028
I0417 04:00:15.380475 12184 layer_factory.hpp:77] Creating layer conv3b
I0417 04:00:15.380486 12184 net.cpp:100] Creating Layer conv3b
I0417 04:00:15.380492 12184 net.cpp:434] conv3b <- conv3a
I0417 04:00:15.380497 12184 net.cpp:408] conv3b -> conv3b
I0417 04:00:15.429502 12184 net.cpp:150] Setting up conv3b
I0417 04:00:15.429527 12184 net.cpp:157] Top shape: 1 256 384 28 28 (77070336)
I0417 04:00:15.429530 12184 net.cpp:165] Memory required for data: 9441117372
I0417 04:00:15.429539 12184 layer_factory.hpp:77] Creating layer relu3b
I0417 04:00:15.429549 12184 net.cpp:100] Creating Layer relu3b
I0417 04:00:15.429554 12184 net.cpp:434] relu3b <- conv3b
I0417 04:00:15.429563 12184 net.cpp:395] relu3b -> conv3b (in-place)
I0417 04:00:15.429570 12184 net.cpp:150] Setting up relu3b
I0417 04:00:15.429575 12184 net.cpp:157] Top shape: 1 256 384 28 28 (77070336)
I0417 04:00:15.429579 12184 net.cpp:165] Memory required for data: 9749398716
I0417 04:00:15.429581 12184 layer_factory.hpp:77] Creating layer pool3
I0417 04:00:15.429589 12184 net.cpp:100] Creating Layer pool3
I0417 04:00:15.429592 12184 net.cpp:434] pool3 <- conv3b
I0417 04:00:15.429600 12184 net.cpp:408] pool3 -> pool3
I0417 04:00:15.429663 12184 net.cpp:150] Setting up pool3
I0417 04:00:15.429673 12184 net.cpp:157] Top shape: 1 256 192 14 14 (9633792)
I0417 04:00:15.429677 12184 net.cpp:165] Memory required for data: 9787933884
I0417 04:00:15.429680 12184 layer_factory.hpp:77] Creating layer conv4a
I0417 04:00:15.429690 12184 net.cpp:100] Creating Layer conv4a
I0417 04:00:15.429699 12184 net.cpp:434] conv4a <- pool3
I0417 04:00:15.429708 12184 net.cpp:408] conv4a -> conv4a
I0417 04:00:15.527796 12184 net.cpp:150] Setting up conv4a
I0417 04:00:15.527823 12184 net.cpp:157] Top shape: 1 512 192 14 14 (19267584)
I0417 04:00:15.527828 12184 net.cpp:165] Memory required for data: 9865004220
I0417 04:00:15.527848 12184 layer_factory.hpp:77] Creating layer relu4a
I0417 04:00:15.527865 12184 net.cpp:100] Creating Layer relu4a
I0417 04:00:15.527871 12184 net.cpp:434] relu4a <- conv4a
I0417 04:00:15.527879 12184 net.cpp:395] relu4a -> conv4a (in-place)
I0417 04:00:15.527889 12184 net.cpp:150] Setting up relu4a
I0417 04:00:15.527894 12184 net.cpp:157] Top shape: 1 512 192 14 14 (19267584)
I0417 04:00:15.527896 12184 net.cpp:165] Memory required for data: 9942074556
I0417 04:00:15.527900 12184 layer_factory.hpp:77] Creating layer conv4b
I0417 04:00:15.527912 12184 net.cpp:100] Creating Layer conv4b
I0417 04:00:15.527920 12184 net.cpp:434] conv4b <- conv4a
I0417 04:00:15.527925 12184 net.cpp:408] conv4b -> conv4b
I0417 04:00:15.723076 12184 net.cpp:150] Setting up conv4b
I0417 04:00:15.723101 12184 net.cpp:157] Top shape: 1 512 192 14 14 (19267584)
I0417 04:00:15.723105 12184 net.cpp:165] Memory required for data: 10019144892
I0417 04:00:15.723114 12184 layer_factory.hpp:77] Creating layer relu4b
I0417 04:00:15.723124 12184 net.cpp:100] Creating Layer relu4b
I0417 04:00:15.723129 12184 net.cpp:434] relu4b <- conv4b
I0417 04:00:15.723135 12184 net.cpp:395] relu4b -> conv4b (in-place)
I0417 04:00:15.723145 12184 net.cpp:150] Setting up relu4b
I0417 04:00:15.723150 12184 net.cpp:157] Top shape: 1 512 192 14 14 (19267584)
I0417 04:00:15.723152 12184 net.cpp:165] Memory required for data: 10096215228
I0417 04:00:15.723155 12184 layer_factory.hpp:77] Creating layer pool4
I0417 04:00:15.723165 12184 net.cpp:100] Creating Layer pool4
I0417 04:00:15.723167 12184 net.cpp:434] pool4 <- conv4b
I0417 04:00:15.723175 12184 net.cpp:408] pool4 -> pool4
I0417 04:00:15.723222 12184 net.cpp:150] Setting up pool4
I0417 04:00:15.723230 12184 net.cpp:157] Top shape: 1 512 96 7 7 (2408448)
I0417 04:00:15.723234 12184 net.cpp:165] Memory required for data: 10105849020
I0417 04:00:15.723237 12184 layer_factory.hpp:77] Creating layer conv5a
I0417 04:00:15.723250 12184 net.cpp:100] Creating Layer conv5a
I0417 04:00:15.723258 12184 net.cpp:434] conv5a <- pool4
I0417 04:00:15.723268 12184 net.cpp:408] conv5a -> conv5a
I0417 04:00:15.915271 12184 net.cpp:150] Setting up conv5a
I0417 04:00:15.915299 12184 net.cpp:157] Top shape: 1 512 96 7 7 (2408448)
I0417 04:00:15.915305 12184 net.cpp:165] Memory required for data: 10115482812
I0417 04:00:15.915318 12184 layer_factory.hpp:77] Creating layer relu5a
I0417 04:00:15.915330 12184 net.cpp:100] Creating Layer relu5a
I0417 04:00:15.915341 12184 net.cpp:434] relu5a <- conv5a
I0417 04:00:15.915351 12184 net.cpp:395] relu5a -> conv5a (in-place)
I0417 04:00:15.915360 12184 net.cpp:150] Setting up relu5a
I0417 04:00:15.915365 12184 net.cpp:157] Top shape: 1 512 96 7 7 (2408448)
I0417 04:00:15.915369 12184 net.cpp:165] Memory required for data: 10125116604
I0417 04:00:15.915372 12184 layer_factory.hpp:77] Creating layer conv5b
I0417 04:00:15.915387 12184 net.cpp:100] Creating Layer conv5b
I0417 04:00:15.915391 12184 net.cpp:434] conv5b <- conv5a
I0417 04:00:15.915397 12184 net.cpp:408] conv5b -> conv5b
I0417 04:00:16.105568 12184 net.cpp:150] Setting up conv5b
I0417 04:00:16.105595 12184 net.cpp:157] Top shape: 1 512 96 7 7 (2408448)
I0417 04:00:16.105599 12184 net.cpp:165] Memory required for data: 10134750396
I0417 04:00:16.105607 12184 layer_factory.hpp:77] Creating layer relu5b
I0417 04:00:16.105618 12184 net.cpp:100] Creating Layer relu5b
I0417 04:00:16.105621 12184 net.cpp:434] relu5b <- conv5b
I0417 04:00:16.105629 12184 net.cpp:395] relu5b -> conv5b (in-place)
I0417 04:00:16.105638 12184 net.cpp:150] Setting up relu5b
I0417 04:00:16.105645 12184 net.cpp:157] Top shape: 1 512 96 7 7 (2408448)
I0417 04:00:16.105648 12184 net.cpp:165] Memory required for data: 10144384188
I0417 04:00:16.105651 12184 layer_factory.hpp:77] Creating layer conv5b_relu5b_0_split
I0417 04:00:16.105656 12184 net.cpp:100] Creating Layer conv5b_relu5b_0_split
I0417 04:00:16.105660 12184 net.cpp:434] conv5b_relu5b_0_split <- conv5b
I0417 04:00:16.105664 12184 net.cpp:408] conv5b_relu5b_0_split -> conv5b_relu5b_0_split_0
I0417 04:00:16.105670 12184 net.cpp:408] conv5b_relu5b_0_split -> conv5b_relu5b_0_split_1
I0417 04:00:16.105716 12184 net.cpp:150] Setting up conv5b_relu5b_0_split
I0417 04:00:16.105725 12184 net.cpp:157] Top shape: 1 512 96 7 7 (2408448)
I0417 04:00:16.105728 12184 net.cpp:157] Top shape: 1 512 96 7 7 (2408448)
I0417 04:00:16.105731 12184 net.cpp:165] Memory required for data: 10163651772
I0417 04:00:16.105734 12184 layer_factory.hpp:77] Creating layer rpn_conv/3x3
I0417 04:00:16.105746 12184 net.cpp:100] Creating Layer rpn_conv/3x3
I0417 04:00:16.105752 12184 net.cpp:434] rpn_conv/3x3 <- conv5b_relu5b_0_split_0
I0417 04:00:16.105758 12184 net.cpp:408] rpn_conv/3x3 -> rpn/output
I0417 04:00:16.295635 12184 net.cpp:150] Setting up rpn_conv/3x3
I0417 04:00:16.295663 12184 net.cpp:157] Top shape: 1 512 96 4 4 (786432)
I0417 04:00:16.295668 12184 net.cpp:165] Memory required for data: 10166797500
I0417 04:00:16.295689 12184 layer_factory.hpp:77] Creating layer rpn_relu/3x3
I0417 04:00:16.295707 12184 net.cpp:100] Creating Layer rpn_relu/3x3
I0417 04:00:16.295716 12184 net.cpp:434] rpn_relu/3x3 <- rpn/output
I0417 04:00:16.295724 12184 net.cpp:395] rpn_relu/3x3 -> rpn/output (in-place)
I0417 04:00:16.295733 12184 net.cpp:150] Setting up rpn_relu/3x3
I0417 04:00:16.295739 12184 net.cpp:157] Top shape: 1 512 96 4 4 (786432)
I0417 04:00:16.295742 12184 net.cpp:165] Memory required for data: 10169943228
I0417 04:00:16.295747 12184 layer_factory.hpp:77] Creating layer rpn_conv/3x3_2
I0417 04:00:16.295758 12184 net.cpp:100] Creating Layer rpn_conv/3x3_2
I0417 04:00:16.295763 12184 net.cpp:434] rpn_conv/3x3_2 <- rpn/output
I0417 04:00:16.295768 12184 net.cpp:408] rpn_conv/3x3_2 -> rpn/output_2
I0417 04:00:16.486842 12184 net.cpp:150] Setting up rpn_conv/3x3_2
I0417 04:00:16.486869 12184 net.cpp:157] Top shape: 1 512 96 2 2 (196608)
I0417 04:00:16.486873 12184 net.cpp:165] Memory required for data: 10170729660
I0417 04:00:16.486881 12184 layer_factory.hpp:77] Creating layer rpn_relu/3x3_2
I0417 04:00:16.486891 12184 net.cpp:100] Creating Layer rpn_relu/3x3_2
I0417 04:00:16.486896 12184 net.cpp:434] rpn_relu/3x3_2 <- rpn/output_2
I0417 04:00:16.486903 12184 net.cpp:395] rpn_relu/3x3_2 -> rpn/output_2 (in-place)
I0417 04:00:16.486912 12184 net.cpp:150] Setting up rpn_relu/3x3_2
I0417 04:00:16.486918 12184 net.cpp:157] Top shape: 1 512 96 2 2 (196608)
I0417 04:00:16.486922 12184 net.cpp:165] Memory required for data: 10171516092
I0417 04:00:16.486925 12184 layer_factory.hpp:77] Creating layer rpn/output_pool
I0417 04:00:16.486932 12184 net.cpp:100] Creating Layer rpn/output_pool
I0417 04:00:16.486935 12184 net.cpp:434] rpn/output_pool <- rpn/output_2
I0417 04:00:16.486940 12184 net.cpp:408] rpn/output_pool -> rpn/output_pool
I0417 04:00:16.486989 12184 net.cpp:150] Setting up rpn/output_pool
I0417 04:00:16.486996 12184 net.cpp:157] Top shape: 1 512 96 1 1 (49152)
I0417 04:00:16.486999 12184 net.cpp:165] Memory required for data: 10171712700
I0417 04:00:16.487002 12184 layer_factory.hpp:77] Creating layer rpn/output_pool_rpn/output_pool_0_split
I0417 04:00:16.487009 12184 net.cpp:100] Creating Layer rpn/output_pool_rpn/output_pool_0_split
I0417 04:00:16.487011 12184 net.cpp:434] rpn/output_pool_rpn/output_pool_0_split <- rpn/output_pool
I0417 04:00:16.487015 12184 net.cpp:408] rpn/output_pool_rpn/output_pool_0_split -> rpn/output_pool_rpn/output_pool_0_split_0
I0417 04:00:16.487021 12184 net.cpp:408] rpn/output_pool_rpn/output_pool_0_split -> rpn/output_pool_rpn/output_pool_0_split_1
I0417 04:00:16.487061 12184 net.cpp:150] Setting up rpn/output_pool_rpn/output_pool_0_split
I0417 04:00:16.487068 12184 net.cpp:157] Top shape: 1 512 96 1 1 (49152)
I0417 04:00:16.487072 12184 net.cpp:157] Top shape: 1 512 96 1 1 (49152)
I0417 04:00:16.487076 12184 net.cpp:165] Memory required for data: 10172105916
I0417 04:00:16.487080 12184 layer_factory.hpp:77] Creating layer rpn_cls_score
I0417 04:00:16.487089 12184 net.cpp:100] Creating Layer rpn_cls_score
I0417 04:00:16.487092 12184 net.cpp:434] rpn_cls_score <- rpn/output_pool_rpn/output_pool_0_split_0
I0417 04:00:16.487099 12184 net.cpp:408] rpn_cls_score -> rpn_cls_score
I0417 04:00:16.488356 12184 net.cpp:150] Setting up rpn_cls_score
I0417 04:00:16.488365 12184 net.cpp:157] Top shape: 1 74 96 1 1 (7104)
I0417 04:00:16.488368 12184 net.cpp:165] Memory required for data: 10172134332
I0417 04:00:16.488374 12184 layer_factory.hpp:77] Creating layer rpn_cls_score_rpn_cls_score_0_split
I0417 04:00:16.488379 12184 net.cpp:100] Creating Layer rpn_cls_score_rpn_cls_score_0_split
I0417 04:00:16.488384 12184 net.cpp:434] rpn_cls_score_rpn_cls_score_0_split <- rpn_cls_score
I0417 04:00:16.488389 12184 net.cpp:408] rpn_cls_score_rpn_cls_score_0_split -> rpn_cls_score_rpn_cls_score_0_split_0
I0417 04:00:16.488395 12184 net.cpp:408] rpn_cls_score_rpn_cls_score_0_split -> rpn_cls_score_rpn_cls_score_0_split_1
I0417 04:00:16.488443 12184 net.cpp:150] Setting up rpn_cls_score_rpn_cls_score_0_split
I0417 04:00:16.488451 12184 net.cpp:157] Top shape: 1 74 96 1 1 (7104)
I0417 04:00:16.488456 12184 net.cpp:157] Top shape: 1 74 96 1 1 (7104)
I0417 04:00:16.488458 12184 net.cpp:165] Memory required for data: 10172191164
I0417 04:00:16.488461 12184 layer_factory.hpp:77] Creating layer rpn_twin_pred
I0417 04:00:16.488473 12184 net.cpp:100] Creating Layer rpn_twin_pred
I0417 04:00:16.488479 12184 net.cpp:434] rpn_twin_pred <- rpn/output_pool_rpn/output_pool_0_split_1
I0417 04:00:16.488488 12184 net.cpp:408] rpn_twin_pred -> rpn_twin_pred
I0417 04:00:16.489723 12184 net.cpp:150] Setting up rpn_twin_pred
I0417 04:00:16.489733 12184 net.cpp:157] Top shape: 1 74 96 1 1 (7104)
I0417 04:00:16.489737 12184 net.cpp:165] Memory required for data: 10172219580
I0417 04:00:16.489742 12184 layer_factory.hpp:77] Creating layer rpn_twin_pred_rpn_twin_pred_0_split
I0417 04:00:16.489748 12184 net.cpp:100] Creating Layer rpn_twin_pred_rpn_twin_pred_0_split
I0417 04:00:16.489753 12184 net.cpp:434] rpn_twin_pred_rpn_twin_pred_0_split <- rpn_twin_pred
I0417 04:00:16.489759 12184 net.cpp:408] rpn_twin_pred_rpn_twin_pred_0_split -> rpn_twin_pred_rpn_twin_pred_0_split_0
I0417 04:00:16.489764 12184 net.cpp:408] rpn_twin_pred_rpn_twin_pred_0_split -> rpn_twin_pred_rpn_twin_pred_0_split_1
I0417 04:00:16.489805 12184 net.cpp:150] Setting up rpn_twin_pred_rpn_twin_pred_0_split
I0417 04:00:16.489814 12184 net.cpp:157] Top shape: 1 74 96 1 1 (7104)
I0417 04:00:16.489817 12184 net.cpp:157] Top shape: 1 74 96 1 1 (7104)
I0417 04:00:16.489820 12184 net.cpp:165] Memory required for data: 10172276412
I0417 04:00:16.489823 12184 layer_factory.hpp:77] Creating layer rpn_cls_score_reshape
I0417 04:00:16.489835 12184 net.cpp:100] Creating Layer rpn_cls_score_reshape
I0417 04:00:16.489841 12184 net.cpp:434] rpn_cls_score_reshape <- rpn_cls_score_rpn_cls_score_0_split_0
I0417 04:00:16.489848 12184 net.cpp:408] rpn_cls_score_reshape -> rpn_cls_score_reshape
I0417 04:00:16.489881 12184 net.cpp:150] Setting up rpn_cls_score_reshape
I0417 04:00:16.489887 12184 net.cpp:157] Top shape: 1 2 3552 1 1 (7104)
I0417 04:00:16.489892 12184 net.cpp:165] Memory required for data: 10172304828
I0417 04:00:16.489894 12184 layer_factory.hpp:77] Creating layer rpn_cls_score_reshape_rpn_cls_score_reshape_0_split
I0417 04:00:16.489899 12184 net.cpp:100] Creating Layer rpn_cls_score_reshape_rpn_cls_score_reshape_0_split
I0417 04:00:16.489904 12184 net.cpp:434] rpn_cls_score_reshape_rpn_cls_score_reshape_0_split <- rpn_cls_score_reshape
I0417 04:00:16.489912 12184 net.cpp:408] rpn_cls_score_reshape_rpn_cls_score_reshape_0_split -> rpn_cls_score_reshape_rpn_cls_score_reshape_0_split_0
I0417 04:00:16.489919 12184 net.cpp:408] rpn_cls_score_reshape_rpn_cls_score_reshape_0_split -> rpn_cls_score_reshape_rpn_cls_score_reshape_0_split_1
I0417 04:00:16.489925 12184 net.cpp:408] rpn_cls_score_reshape_rpn_cls_score_reshape_0_split -> rpn_cls_score_reshape_rpn_cls_score_reshape_0_split_2
I0417 04:00:16.489976 12184 net.cpp:150] Setting up rpn_cls_score_reshape_rpn_cls_score_reshape_0_split
I0417 04:00:16.489984 12184 net.cpp:157] Top shape: 1 2 3552 1 1 (7104)
I0417 04:00:16.489989 12184 net.cpp:157] Top shape: 1 2 3552 1 1 (7104)
I0417 04:00:16.489992 12184 net.cpp:157] Top shape: 1 2 3552 1 1 (7104)
I0417 04:00:16.489995 12184 net.cpp:165] Memory required for data: 10172390076
I0417 04:00:16.489998 12184 layer_factory.hpp:77] Creating layer rpn-data
I0417 04:00:16.512302 12184 net.cpp:100] Creating Layer rpn-data
I0417 04:00:16.512334 12184 net.cpp:434] rpn-data <- rpn_cls_score_rpn_cls_score_0_split_1
I0417 04:00:16.512346 12184 net.cpp:434] rpn-data <- gt_boxes_data_1_split_0
I0417 04:00:16.512354 12184 net.cpp:434] rpn-data <- data_data_0_split_1
I0417 04:00:16.512363 12184 net.cpp:408] rpn-data -> rpn_labels
I0417 04:00:16.512375 12184 net.cpp:408] rpn-data -> rpn_twin_targets
I0417 04:00:16.512387 12184 net.cpp:408] rpn-data -> rpn_twin_inside_weights
I0417 04:00:16.512396 12184 net.cpp:408] rpn-data -> rpn_twin_outside_weights
I0417 04:00:16.516698 12184 net.cpp:150] Setting up rpn-data
I0417 04:00:16.516721 12184 net.cpp:157] Top shape: 1 1 3552 1 1 (3552)
I0417 04:00:16.516729 12184 net.cpp:157] Top shape: 1 74 96 1 1 (7104)
I0417 04:00:16.516736 12184 net.cpp:157] Top shape: 1 74 96 1 1 (7104)
I0417 04:00:16.516743 12184 net.cpp:157] Top shape: 1 74 96 1 1 (7104)
I0417 04:00:16.516749 12184 net.cpp:165] Memory required for data: 10172489532
I0417 04:00:16.516757 12184 layer_factory.hpp:77] Creating layer rpn_labels_rpn-data_0_split
I0417 04:00:16.516765 12184 net.cpp:100] Creating Layer rpn_labels_rpn-data_0_split
I0417 04:00:16.516772 12184 net.cpp:434] rpn_labels_rpn-data_0_split <- rpn_labels
I0417 04:00:16.516782 12184 net.cpp:408] rpn_labels_rpn-data_0_split -> rpn_labels_rpn-data_0_split_0
I0417 04:00:16.516793 12184 net.cpp:408] rpn_labels_rpn-data_0_split -> rpn_labels_rpn-data_0_split_1
I0417 04:00:16.516860 12184 net.cpp:150] Setting up rpn_labels_rpn-data_0_split
I0417 04:00:16.516873 12184 net.cpp:157] Top shape: 1 1 3552 1 1 (3552)
I0417 04:00:16.516880 12184 net.cpp:157] Top shape: 1 1 3552 1 1 (3552)
I0417 04:00:16.516885 12184 net.cpp:165] Memory required for data: 10172517948
I0417 04:00:16.516891 12184 layer_factory.hpp:77] Creating layer rpn_loss_cls
I0417 04:00:16.516906 12184 net.cpp:100] Creating Layer rpn_loss_cls
I0417 04:00:16.516912 12184 net.cpp:434] rpn_loss_cls <- rpn_cls_score_reshape_rpn_cls_score_reshape_0_split_0
I0417 04:00:16.516921 12184 net.cpp:434] rpn_loss_cls <- rpn_labels_rpn-data_0_split_0
…
I0417 04:00:16.517428 12184 layer_factory.hpp:77] Creating layer rpn_accuarcy
I0417 04:00:16.517444 12184 net.cpp:100] Creating Layer rpn_accuarcy
I0417 04:00:16.517452 12184 net.cpp:434] rpn_accuarcy <- rpn_cls_score_reshape_rpn_cls_score_reshape_0_split_1
I0417 04:00:16.517458 12184 net.cpp:434] rpn_accuarcy <- rpn_labels_rpn-data_0_split_1
I0417 04:00:16.517467 12184 net.cpp:408] rpn_accuarcy -> rpn_accuarcy
I0417 04:00:16.517477 12184 net.cpp:408] rpn_accuarcy -> rpn_accuarcy_class
I0417 04:00:16.517550 12184 net.cpp:150] Setting up rpn_accuarcy
I0417 04:00:16.517563 12184 net.cpp:157] Top shape: (1)
I0417 04:00:16.517570 12184 net.cpp:157] Top shape: 2 (2)
I0417 04:00:16.517576 12184 net.cpp:165] Memory required for data: 10172517968
I0417 04:00:16.517582 12184 layer_factory.hpp:77] Creating layer rpn_cls_prob
I0417 04:00:16.517591 12184 net.cpp:100] Creating Layer rpn_cls_prob
I0417 04:00:16.517598 12184 net.cpp:434] rpn_cls_prob <- rpn_cls_score_reshape_rpn_cls_score_reshape_0_split_2
I0417 04:00:16.517606 12184 net.cpp:408] rpn_cls_prob -> rpn_cls_prob
I0417 04:00:16.517724 12184 net.cpp:150] Setting up rpn_cls_prob
I0417 04:00:16.517738 12184 net.cpp:157] Top shape: 1 2 3552 1 1 (7104)
I0417 04:00:16.517745 12184 net.cpp:165] Memory required for data: 10172546384
I0417 04:00:16.517751 12184 layer_factory.hpp:77] Creating layer rpn_cls_prob_reshape
I0417 04:00:16.517762 12184 net.cpp:100] Creating Layer rpn_cls_prob_reshape
I0417 04:00:16.517768 12184 net.cpp:434] rpn_cls_prob_reshape <- rpn_cls_prob
I0417 04:00:16.517777 12184 net.cpp:408] rpn_cls_prob_reshape -> rpn_cls_prob_reshape
I0417 04:00:16.517825 12184 net.cpp:150] Setting up rpn_cls_prob_reshape
I0417 04:00:16.517838 12184 net.cpp:157] Top shape: 1 74 96 1 1 (7104)
I0417 04:00:16.517844 12184 net.cpp:165] Memory required for data: 10172574800
I0417 04:00:16.517850 12184 layer_factory.hpp:77] Creating layer proposal
I0417 04:00:16.565672 12184 net.cpp:100] Creating Layer proposal
I0417 04:00:16.565701 12184 net.cpp:434] proposal <- rpn_cls_prob_reshape
I0417 04:00:16.565711 12184 net.cpp:434] proposal <- rpn_twin_pred_rpn_twin_pred_0_split_1
I0417 04:00:16.565721 12184 net.cpp:408] proposal -> rpn_rois
I0417 04:00:16.619225 12184 net.cpp:150] Setting up proposal
I0417 04:00:16.619261 12184 net.cpp:157] Top shape: 1 3 (3)
I0417 04:00:16.619266 12184 net.cpp:165] Memory required for data: 10172574812
I0417 04:00:16.619276 12184 layer_factory.hpp:77] Creating layer roi-data
I0417 04:00:16.632808 12184 net.cpp:100] Creating Layer roi-data
I0417 04:00:16.632844 12184 net.cpp:434] roi-data <- rpn_rois
I0417 04:00:16.632855 12184 net.cpp:434] roi-data <- gt_boxes_data_1_split_1
I0417 04:00:16.632865 12184 net.cpp:408] roi-data -> rois
I0417 04:00:16.632879 12184 net.cpp:408] roi-data -> labels
I0417 04:00:16.632887 12184 net.cpp:408] roi-data -> twin_targets
I0417 04:00:16.632895 12184 net.cpp:408] roi-data -> twin_inside_weights
I0417 04:00:16.632903 12184 net.cpp:408] roi-data -> twin_outside_weights
I0417 04:00:16.633575 12184 net.cpp:150] Setting up roi-data
I0417 04:00:16.633599 12184 net.cpp:157] Top shape: 1 3 (3)
I0417 04:00:16.633606 12184 net.cpp:157] Top shape: 1 1 (1)
I0417 04:00:16.633611 12184 net.cpp:157] Top shape: 1 402 (402)
I0417 04:00:16.633617 12184 net.cpp:157] Top shape: 1 402 (402)
I0417 04:00:16.633622 12184 net.cpp:157] Top shape: 1 402 (402)
I0417 04:00:16.633627 12184 net.cpp:165] Memory required for data: 10172579652
I0417 04:00:16.633633 12184 layer_factory.hpp:77] Creating layer labels_roi-data_1_split
I0417 04:00:16.633643 12184 net.cpp:100] Creating Layer labels_roi-data_1_split
I0417 04:00:16.633649 12184 net.cpp:434] labels_roi-data_1_split <- labels
I0417 04:00:16.633657 12184 net.cpp:408] labels_roi-data_1_split -> labels_roi-data_1_split_0
I0417 04:00:16.633667 12184 net.cpp:408] labels_roi-data_1_split -> labels_roi-data_1_split_1
I0417 04:00:16.633729 12184 net.cpp:150] Setting up labels_roi-data_1_split
I0417 04:00:16.633740 12184 net.cpp:157] Top shape: 1 1 (1)
I0417 04:00:16.633746 12184 net.cpp:157] Top shape: 1 1 (1)
I0417 04:00:16.633751 12184 net.cpp:165] Memory required for data: 10172579660
I0417 04:00:16.633756 12184 layer_factory.hpp:77] Creating layer roi_pool5
I0417 04:00:16.633769 12184 net.cpp:100] Creating Layer roi_pool5
I0417 04:00:16.633775 12184 net.cpp:434] roi_pool5 <- conv5b_relu5b_0_split_1
I0417 04:00:16.633782 12184 net.cpp:434] roi_pool5 <- rois
I0417 04:00:16.633793 12184 net.cpp:408] roi_pool5 -> pool5
I0417 04:00:16.633805 12184 roi_pooling_layer.cpp:34] Temporal scale: 0.125
I0417 04:00:16.633821 12184 roi_pooling_layer.cpp:35] Spatial scale: 0.0625
I0417 04:00:16.633891 12184 net.cpp:150] Setting up roi_pool5
I0417 04:00:16.633901 12184 net.cpp:157] Top shape: 1 512 1 4 4 (8192)
I0417 04:00:16.633906 12184 net.cpp:165] Memory required for data: 10172612428
I0417 04:00:16.633911 12184 layer_factory.hpp:77] Creating layer fc6
I0417 04:00:16.633924 12184 net.cpp:100] Creating Layer fc6
I0417 04:00:16.633929 12184 net.cpp:434] fc6 <- pool5
I0417 04:00:16.633939 12184 net.cpp:408] fc6 -> fc6
I0417 04:00:17.845582 12184 net.cpp:150] Setting up fc6
I0417 04:00:17.845615 12184 net.cpp:157] Top shape: 1 4096 (4096)
I0417 04:00:17.845623 12184 net.cpp:165] Memory required for data: 10172628812
I0417 04:00:17.845638 12184 layer_factory.hpp:77] Creating layer relu6
I0417 04:00:17.845650 12184 net.cpp:100] Creating Layer relu6
I0417 04:00:17.845659 12184 net.cpp:434] relu6 <- fc6
I0417 04:00:17.845669 12184 net.cpp:395] relu6 -> fc6 (in-place)
I0417 04:00:17.845681 12184 net.cpp:150] Setting up relu6
I0417 04:00:17.845691 12184 net.cpp:157] Top shape: 1 4096 (4096)
I0417 04:00:17.845697 12184 net.cpp:165] Memory required for data: 10172645196
I0417 04:00:17.845702 12184 layer_factory.hpp:77] Creating layer drop6
I0417 04:00:17.845721 12184 net.cpp:100] Creating Layer drop6
I0417 04:00:17.845727 12184 net.cpp:434] drop6 <- fc6
I0417 04:00:17.845736 12184 net.cpp:395] drop6 -> fc6 (in-place)
I0417 04:00:17.845778 12184 net.cpp:150] Setting up drop6
I0417 04:00:17.845790 12184 net.cpp:157] Top shape: 1 4096 (4096)
I0417 04:00:17.845796 12184 net.cpp:165] Memory required for data: 10172661580
I0417 04:00:17.845804 12184 layer_factory.hpp:77] Creating layer fc6_drop6_0_split
I0417 04:00:17.845816 12184 net.cpp:100] Creating Layer fc6_drop6_0_split
I0417 04:00:17.845823 12184 net.cpp:434] fc6_drop6_0_split <- fc6
I0417 04:00:17.845830 12184 net.cpp:408] fc6_drop6_0_split -> fc6_drop6_0_split_0
I0417 04:00:17.845840 12184 net.cpp:408] fc6_drop6_0_split -> fc6_drop6_0_split_1
I0417 04:00:17.845908 12184 net.cpp:150] Setting up fc6_drop6_0_split
I0417 04:00:17.845921 12184 net.cpp:157] Top shape: 1 4096 (4096)
I0417 04:00:17.845927 12184 net.cpp:157] Top shape: 1 4096 (4096)
I0417 04:00:17.845932 12184 net.cpp:165] Memory required for data: 10172694348
I0417 04:00:17.845938 12184 layer_factory.hpp:77] Creating layer cls_score
I0417 04:00:17.845952 12184 net.cpp:100] Creating Layer cls_score
I0417 04:00:17.845960 12184 net.cpp:434] cls_score <- fc6_drop6_0_split_0
I0417 04:00:17.845973 12184 net.cpp:408] cls_score -> cls_score
I0417 04:00:17.878032 12184 net.cpp:150] Setting up cls_score
I0417 04:00:17.878064 12184 net.cpp:157] Top shape: 1 201 (201)
I0417 04:00:17.878072 12184 net.cpp:165] Memory required for data: 10172695152
I0417 04:00:17.878087 12184 layer_factory.hpp:77] Creating layer cls_score_cls_score_0_split
I0417 04:00:17.878101 12184 net.cpp:100] Creating Layer cls_score_cls_score_0_split
I0417 04:00:17.878113 12184 net.cpp:434] cls_score_cls_score_0_split <- cls_score
I0417 04:00:17.878123 12184 net.cpp:408] cls_score_cls_score_0_split -> cls_score_cls_score_0_split_0
I0417 04:00:17.878136 12184 net.cpp:408] cls_score_cls_score_0_split -> cls_score_cls_score_0_split_1
I0417 04:00:17.878214 12184 net.cpp:150] Setting up cls_score_cls_score_0_split
I0417 04:00:17.878228 12184 net.cpp:157] Top shape: 1 201 (201)
I0417 04:00:17.878237 12184 net.cpp:157] Top shape: 1 201 (201)
I0417 04:00:17.878242 12184 net.cpp:165] Memory required for data: 10172696760
I0417 04:00:17.878247 12184 layer_factory.hpp:77] Creating layer twin_pred
I0417 04:00:17.878260 12184 net.cpp:100] Creating Layer twin_pred
I0417 04:00:17.878269 12184 net.cpp:434] twin_pred <- fc6_drop6_0_split_1
I0417 04:00:17.878280 12184 net.cpp:408] twin_pred -> twin_pred
I0417 04:00:17.937686 12184 net.cpp:150] Setting up twin_pred
I0417 04:00:17.937723 12184 net.cpp:157] Top shape: 1 402 (402)
I0417 04:00:17.937731 12184 net.cpp:165] Memory required for data: 10172698368
I0417 04:00:17.937743 12184 layer_factory.hpp:77] Creating layer loss_cls
I0417 04:00:17.937757 12184 net.cpp:100] Creating Layer loss_cls
I0417 04:00:17.937764 12184 net.cpp:434] loss_cls <- cls_score_cls_score_0_split_0
I0417 04:00:17.937774 12184 net.cpp:434] loss_cls <- labels_roi-data_1_split_0
I0417 04:00:17.937783 12184 net.cpp:408] loss_cls -> loss_cls
…
