…
stepsize: 350000
snapshot: 0
snapshot_prefix: "./experiments/activitynet/snapshot/activitynet"
average_loss: 100
iter_size: 1
I0416 13:45:31.046978 16648 solver.cpp:81] Creating training net from train_net file: ./experiments/activitynet/train.prototxt
I0416 13:45:31.048079 16648 net.cpp:58] Initializing net from parameters: 
name: "activitynet"
state {
  phase: TRAIN
}
layer {
  name: "data"
  type: "Python"
  top: "data"
  top: "gt_boxes"
  python_param {
    module: "roi_data_layer.layer"
    layer: "RoIDataLayer"
    param_str: "\'num_classes\': 100"
  }
}
layer {
  name: "conv1a"
  type: "Convolution"
  bottom: "data"
  top: "conv1a"
  param {
    lr_mult: 0
    decay_mult: 0
  }
  param {
    lr_mult: 0
    decay_mult: 0
  }
  convolution_param {
    num_output: 64
    pad: 1
    pad: 1
    pad: 1
    kernel_size: 3
    kernel_size: 3
    kernel_size: 3
    weight_filler {
      type: "gaussian"
      std: 0.01
    }
    bias_filler {
      type: "constant"
      value: 0
    }
  }
}
layer {
  name: "relu1a"
  type: "ReLU"
  bottom: "conv1a"
  top: "conv1a"
}
layer {
  name: "pool1"
  type: "Pooling"
  bottom: "conv1a"
  top: "pool1"
  pooling_param {
    pool: MAX
    kernel_size: 1
    kernel_size: 2
    kernel_size: 2
    stride: 1
    stride: 2
    stride: 2
  }
}
layer {
  name: "conv2a"
  type: "Convolution"
  bottom: "pool1"
  top: "conv2a"
  param {
    lr_mult: 0
    decay_mult: 0
  }
  param {
    lr_mult: 0
    decay_mult: 0
  }
  convolution_param {
    num_output: 128
    pad: 1
    pad: 1
    pad: 1
    kernel_size: 3
    kernel_size: 3
    kernel_size: 3
    weight_filler {
      type: "gaussian"
      std: 0.01
    }
    bias_filler {
      type: "constant"
      value: 1
    }
  }
}
layer {
  name: "relu2a"
  type: "ReLU"
  bottom: "conv2a"
  top: "conv2a"
}
layer {
  name: "pool2"
  type: "Pooling"
  bottom: "conv2a"
  top: "pool2"
  pooling_param {
    pool: MAX
    kernel_size: 2
    kernel_size: 2
    kernel_size: 2
    stride: 2
    stride: 2
    stride: 2
  }
}
layer {
  name: "conv3a"
  type: "Convolution"
  bottom: "pool2"
  top: "conv3a"
  param {
    lr_mult: 1
    decay_mult: 1
  }
  param {
    lr_mult: 2
    decay_mult: 0
  }
  convolution_param {
    num_output: 256
    pad: 1
    pad: 1
    pad: 1
    kernel_size: 3
    kernel_size: 3
    kernel_size: 3
    weight_filler {
      type: "gaussian"
      std: 0.01
    }
    bias_filler {
      type: "constant"
      value: 1
    }
  }
}
layer {
  name: "relu3a"
  type: "ReLU"
  bottom: "conv3a"
  top: "conv3a"
}
layer {
  name: "conv3b"
  type: "Convolution"
  bottom: "conv3a"
  top: "conv3b"
  param {
    lr_mult: 1
    decay_mult: 1
  }
  param {
    lr_mult: 2
    decay_mult: 0
  }
  convolution_param {
    num_output: 256
    pad: 1
    pad: 1
    pad: 1
    kernel_size: 3
    kernel_size: 3
    kernel_size: 3
    weight_filler {
      type: "gaussian"
      std: 0.01
    }
    bias_filler {
      type: "constant"
      value: 1
    }
  }
}
layer {
  name: "relu3b"
  type: "ReLU"
  bottom: "conv3b"
  top: "conv3b"
}
layer {
  name: "pool3"
  type: "Pooling"
  bottom: "conv3b"
  top: "pool3"
  pooling_param {
    pool: MAX
    kernel_size: 2
    kernel_size: 2
    kernel_size: 2
    stride: 2
    stride: 2
    stride: 2
  }
}
layer {
  name: "conv4a"
  type: "Convolution"
  bottom: "pool3"
  top: "conv4a"
  param {
    lr_mult: 1
    decay_mult: 1
  }
  param {
    lr_mult: 2
    decay_mult: 0
  }
  convolution_param {
    num_output: 512
    pad: 1
    pad: 1
    pad: 1
    kernel_size: 3
    kernel_size: 3
    kernel_size: 3
    weight_filler {
      type: "gaussian"
      std: 0.01
    }
    bias_filler {
      type: "constant"
      value: 1
    }
  }
}
layer {
  name: "relu4a"
  type: "ReLU"
  bottom: "conv4a"
  top: "conv4a"
}
layer {
  name: "conv4b"
  type: "Convolution"
  bottom: "conv4a"
  top: "conv4b"
  param {
    lr_mult: 1
    decay_mult: 1
  }
  param {
    lr_mult: 2
    decay_mult: 0
  }
  convolution_param {
    num_output: 512
    pad: 1
    pad: 1
    pad: 1
    kernel_size: 3
    kernel_size: 3
    kernel_size: 3
    weight_filler {
      type: "gaussian"
      std: 0.01
    }
    bias_filler {
      type: "constant"
      value: 1
    }
  }
}
layer {
  name: "relu4b"
  type: "ReLU"
  bottom: "conv4b"
  top: "conv4b"
}
layer {
  name: "pool4"
  type: "Pooling"
  bottom: "conv4b"
  top: "pool4"
  pooling_param {
    pool: MAX
    kernel_size: 2
    kernel_size: 2
    kernel_size: 2
    stride: 2
    stride: 2
    stride: 2
  }
}
layer {
  name: "conv5a"
  type: "Convolution"
  bottom: "pool4"
  top: "conv5a"
  param {
    lr_mult: 1
    decay_mult: 1
  }
  param {
    lr_mult: 2
    decay_mult: 0
  }
  convolution_param {
    num_output: 512
    pad: 1
    pad: 1
    pad: 1
    kernel_size: 3
    kernel_size: 3
    kernel_size: 3
    weight_filler {
      type: "gaussian"
      std: 0.01
    }
    bias_filler {
      type: "constant"
      value: 1
    }
  }
}
layer {
  name: "relu5a"
  type: "ReLU"
  bottom: "conv5a"
  top: "conv5a"
}
layer {
  name: "conv5b"
  type: "Convolution"
  bottom: "conv5a"
  top: "conv5b"
  param {
    lr_mult: 1
    decay_mult: 1
  }
  param {
    lr_mult: 2
    decay_mult: 0
  }
  convolution_param {
    num_output: 512
    pad: 1
    pad: 1
    pad: 1
    kernel_size: 3
    kernel_size: 3
    kernel_size: 3
    weight_filler {
      type: "gaussian"
      std: 0.01
    }
    bias_filler {
      type: "constant"
      value: 1
    }
  }
}
layer {
  name: "relu5b"
  type: "ReLU"
  bottom: "conv5b"
  top: "conv5b"
}
layer {
  name: "rpn_conv/3x3"
  type: "Convolution"
  bottom: "conv5b"
  top: "rpn/output"
  param {
    lr_mult: 1
    decay_mult: 1
  }
  param {
    lr_mult: 2
    decay_mult: 0
  }
  convolution_param {
    num_output: 512
    pad: 1
    pad: 1
    pad: 1
    kernel_size: 3
    kernel_size: 3
    kernel_size: 3
    stride: 1
    stride: 2
    stride: 2
    weight_filler {
      type: "gaussian"
      std: 0.01
    }
    bias_filler {
      type: "constant"
      value: 0
    }
  }
}
layer {
  name: "rpn_relu/3x3"
  type: "ReLU"
  bottom: "rpn/output"
  top: "rpn/output"
}
layer {
  name: "rpn_conv/3x3_2"
  type: "Convolution"
  bottom: "rpn/output"
  top: "rpn/output_2"
  param {
    lr_mult: 1
    decay_mult: 1
  }
  param {
    lr_mult: 2
    decay_mult: 0
  }
  convolution_param {
    num_output: 512
    pad: 1
    pad: 1
    pad: 1
    kernel_size: 3
    kernel_size: 3
    kernel_size: 3
    stride: 1
    stride: 2
    stride: 2
    weight_filler {
      type: "gaussian"
      std: 0.01
    }
    bias_filler {
      type: "constant"
      value: 0
    }
  }
}
layer {
  name: "rpn_relu/3x3_2"
  type: "ReLU"
  bottom: "rpn/output_2"
  top: "rpn/output_2"
}
layer {
  name: "rpn/output_pool"
  type: "Pooling"
  bottom: "rpn/output_2"
  top: "rpn/output_pool"
  pooling_param {
    pool: MAX
    kernel_size: 1
    kernel_size: 2
    kernel_size: 2
  }
}
layer {
  name: "rpn_cls_score"
  type: "Convolution"
  bottom: "rpn/output_pool"
  top: "rpn_cls_score"
  param {
    lr_mult: 1
    decay_mult: 1
  }
  param {
    lr_mult: 2
    decay_mult: 0
  }
  convolution_param {
    num_output: 74
    kernel_size: 1
    kernel_size: 1
    kernel_size: 1
    weight_filler {
      type: "gaussian"
      std: 0.01
    }
    bias_filler {
      type: "constant"
      value: 0
    }
  }
}
layer {
  name: "rpn_twin_pred"
  type: "Convolution"
  bottom: "rpn/output_pool"
  top: "rpn_twin_pred"
  param {
    lr_mult: 1
    decay_mult: 1
  }
  param {
    lr_mult: 2
    decay_mult: 0
  }
  convolution_param {
    num_output: 74
    kernel_size: 1
    kernel_size: 1
    kernel_size: 1
    weight_filler {
      type: "gaussian"
      std: 0.01
    }
    bias_filler {
      type: "constant"
      value: 0
    }
  }
}
layer {
  name: "rpn_cls_score_reshape"
  type: "Reshape"
  bottom: "rpn_cls_score"
  top: "rpn_cls_score_reshape"
  reshape_param {
    shape {
      dim: 0
      dim: 2
      dim: -1
      dim: 0
      dim: 0
    }
  }
}
layer {
  name: "rpn-data"
  type: "Python"
  bottom: "rpn_cls_score"
  bottom: "gt_boxes"
  bottom: "data"
  top: "rpn_labels"
  top: "rpn_twin_targets"
  top: "rpn_twin_inside_weights"
  top: "rpn_twin_outside_weights"
  python_param {
    module: "rpn.anchor_target_layer"
    layer: "AnchorTargetLayer"
    param_str: "\'feat_stride\': 8 \n\'scales\': !!python/tuple [1,1.25, 1.5,1.75, 2,2.5, 3,3.5, 4,4.5, 5,5.5, 6,7, 8,9,10,11,12,14,16,18,20,22,24,28,32,36,40,44,52,60,68,76,84,92,100]"
  }
}
layer {
  name: "rpn_loss_cls"
  type: "SoftmaxWithLoss"
  bottom: "rpn_cls_score_reshape"
  bottom: "rpn_labels"
  top: "rpn_cls_loss"
  loss_weight: 1
  propagate_down: true
  propagate_down: false
  loss_param {
    ignore_label: -1
    normalize: true
  }
}
layer {
  name: "rpn_loss_twin"
  type: "SmoothL1Loss"
  bottom: "rpn_twin_pred"
  bottom: "rpn_twin_targets"
  bottom: "rpn_twin_inside_weights"
  bottom: "rpn_twin_outside_weights"
  top: "rpn_loss_twin"
  loss_weight: 1
  smooth_l1_loss_param {
    sigma: 3
  }
}
layer {
  name: "rpn_accuarcy"
  type: "Accuracy"
  bottom: "rpn_cls_score_reshape"
  bottom: "rpn_labels"
  top: "rpn_accuarcy"
  top: "rpn_accuarcy_class"
  propagate_down: false
  propagate_down: false
  accuracy_param {
    ignore_label: -1
  }
}
layer {
  name: "rpn_cls_prob"
  type: "Softmax"
  bottom: "rpn_cls_score_reshape"
  top: "rpn_cls_prob"
}
layer {
  name: "rpn_cls_prob_reshape"
  type: "Reshape"
  bottom: "rpn_cls_prob"
  top: "rpn_cls_prob_reshape"
  reshape_param {
    shape {
      dim: 0
      dim: 74
      dim: -1
      dim: 0
      dim: 0
    }
  }
}
layer {
  name: "proposal"
  type: "Python"
  bottom: "rpn_cls_prob_reshape"
  bottom: "rpn_twin_pred"
  top: "rpn_rois"
  include {
    phase: TRAIN
  }
  python_param {
    module: "rpn.proposal_layer"
    layer: "ProposalLayer"
    param_str: "\'feat_stride\': 8 \n\'scales\': !!python/tuple [1,1.25, 1.5,1.75, 2,2.5, 3,3.5, 4,4.5, 5,5.5, 6,7, 8,9,10,11,12,14,16,18,20,22,24,28,32,36,40,44,52,60,68,76,84,92,100]"
  }
}
layer {
  name: "roi-data"
  type: "Python"
  bottom: "rpn_rois"
  bottom: "gt_boxes"
  top: "rois"
  top: "labels"
  top: "twin_targets"
  top: "twin_inside_weights"
  top: "twin_outside_weights"
  python_param {
    module: "rpn.proposal_target_layer"
    layer: "ProposalTargetLayer"
    param_str: "\'num_classes\': 201"
  }
}
layer {
  name: "roi_pool5"
  type: "ROIPooling"
  bottom: "conv5b"
  bottom: "rois"
  top: "pool5"
  roi_pooling_param {
    pooled_h: 4
    pooled_w: 4
    spatial_scale: 0.0625
    pooled_l: 1
    temporal_scale: 0.125
  }
}
layer {
  name: "fc6"
  type: "InnerProduct"
  bottom: "pool5"
  top: "fc6"
  param {
    lr_mult: 1
    decay_mult: 1
  }
  param {
    lr_mult: 2
    decay_mult: 0
  }
  inner_product_param {
    num_output: 4096
    weight_filler {
      type: "gaussian"
      std: 0.005
    }
    bias_filler {
      type: "constant"
      value: 1
    }
  }
}
layer {
  name: "relu6"
  type: "ReLU"
  bottom: "fc6"
  top: "fc6"
}
layer {
  name: "drop6"
  type: "Dropout"
  bottom: "fc6"
  top: "fc6"
  dropout_param {
    dropout_ratio: 0.5
  }
}
layer {
  name: "cls_score"
  type: "InnerProduct"
  bottom: "fc6"
  top: "cls_score"
  param {
    lr_mult: 1
    decay_mult: 1
  }
  param {
    lr_mult: 2
    decay_mult: 0
  }
  inner_product_param {
    num_output: 201
    weight_filler {
      type: "gaussian"
      std: 0.01
    }
    bias_filler {
      type: "constant"
      value: 0
    }
  }
}
layer {
  name: "twin_pred"
  type: "InnerProduct"
  bottom: "fc6"
  top: "twin_pred"
  param {
    lr_mult: 1
    decay_mult: 1
  }
  param {
    lr_mult: 2
    decay_mult: 0
  }
  inner_product_param {
    num_output: 402
    weight_filler {
      type: "gaussian"
      std: 0.001
    }
    bias_filler {
      type: "constant"
      value: 0
    }
  }
}
layer {
  name: "loss_cls"
  type: "SoftmaxWithLoss"
  bottom: "cls_score"
  bottom: "labels"
  top: "loss_cls"
  loss_weight: 1
  propagate_down: true
  propagate_down: false
}
layer {
  name: "loss_twin"
  type: "SmoothL1Loss"
  bottom: "twin_pred"
  bottom: "twin_targets"
  bottom: "twin_inside_weights"
  bottom: "twin_outside_weights"
  top: "loss_twin"
  loss_weight: 1
}
layer {
  name: "accuarcy"
  type: "Accuracy"
  bottom: "cls_score"
  bottom: "labels"
  top: "accuarcy"
  propagate_down: false
  propagate_down: false
  accuracy_param {
    ignore_label: -1
  }
}
I0416 13:45:31.048300 16648 layer_factory.hpp:77] Creating layer data
I0416 13:45:31.075448 16648 net.cpp:100] Creating Layer data
I0416 13:45:31.075474 16648 net.cpp:408] data -> data
I0416 13:45:31.075487 16648 net.cpp:408] data -> gt_boxes
setting up
RoiDataLayer: name_to_top: {'gt_windows': 1, 'data': 0}
I0416 13:45:31.089781 16648 net.cpp:150] Setting up data
I0416 13:45:31.089803 16648 net.cpp:157] Top shape: 1 3 768 112 112 (28901376)
I0416 13:45:31.089808 16648 net.cpp:157] Top shape: 1 101 (101)
I0416 13:45:31.089812 16648 net.cpp:165] Memory required for data: 115605908
I0416 13:45:31.089818 16648 layer_factory.hpp:77] Creating layer data_data_0_split
I0416 13:45:31.089829 16648 net.cpp:100] Creating Layer data_data_0_split
I0416 13:45:31.089834 16648 net.cpp:434] data_data_0_split <- data
I0416 13:45:31.089840 16648 net.cpp:408] data_data_0_split -> data_data_0_split_0
I0416 13:45:31.089849 16648 net.cpp:408] data_data_0_split -> data_data_0_split_1
I0416 13:45:31.089897 16648 net.cpp:150] Setting up data_data_0_split
I0416 13:45:31.089910 16648 net.cpp:157] Top shape: 1 3 768 112 112 (28901376)
I0416 13:45:31.089915 16648 net.cpp:157] Top shape: 1 3 768 112 112 (28901376)
I0416 13:45:31.089918 16648 net.cpp:165] Memory required for data: 346816916
I0416 13:45:31.089922 16648 layer_factory.hpp:77] Creating layer gt_boxes_data_1_split
I0416 13:45:31.089927 16648 net.cpp:100] Creating Layer gt_boxes_data_1_split
I0416 13:45:31.089931 16648 net.cpp:434] gt_boxes_data_1_split <- gt_boxes
I0416 13:45:31.089936 16648 net.cpp:408] gt_boxes_data_1_split -> gt_boxes_data_1_split_0
I0416 13:45:31.089941 16648 net.cpp:408] gt_boxes_data_1_split -> gt_boxes_data_1_split_1
I0416 13:45:31.089982 16648 net.cpp:150] Setting up gt_boxes_data_1_split
I0416 13:45:31.089989 16648 net.cpp:157] Top shape: 1 101 (101)
I0416 13:45:31.089993 16648 net.cpp:157] Top shape: 1 101 (101)
I0416 13:45:31.089996 16648 net.cpp:165] Memory required for data: 346817724
I0416 13:45:31.089999 16648 layer_factory.hpp:77] Creating layer conv1a
I0416 13:45:31.090013 16648 net.cpp:100] Creating Layer conv1a
I0416 13:45:31.090018 16648 net.cpp:434] conv1a <- data_data_0_split_0
I0416 13:45:31.090023 16648 net.cpp:408] conv1a -> conv1a
I0416 13:45:31.111162 16648 net.cpp:150] Setting up conv1a
I0416 13:45:31.111193 16648 net.cpp:157] Top shape: 1 64 768 112 112 (616562688)
I0416 13:45:31.111197 16648 net.cpp:165] Memory required for data: 2813068476
I0416 13:45:31.111222 16648 layer_factory.hpp:77] Creating layer relu1a
I0416 13:45:31.111238 16648 net.cpp:100] Creating Layer relu1a
I0416 13:45:31.111241 16648 net.cpp:434] relu1a <- conv1a
I0416 13:45:31.111248 16648 net.cpp:395] relu1a -> conv1a (in-place)
I0416 13:45:31.111259 16648 net.cpp:150] Setting up relu1a
I0416 13:45:31.111263 16648 net.cpp:157] Top shape: 1 64 768 112 112 (616562688)
I0416 13:45:31.111266 16648 net.cpp:165] Memory required for data: 5279319228
I0416 13:45:31.111269 16648 layer_factory.hpp:77] Creating layer pool1
I0416 13:45:31.111279 16648 net.cpp:100] Creating Layer pool1
I0416 13:45:31.111282 16648 net.cpp:434] pool1 <- conv1a
I0416 13:45:31.111287 16648 net.cpp:408] pool1 -> pool1
I0416 13:45:31.111399 16648 net.cpp:150] Setting up pool1
I0416 13:45:31.111409 16648 net.cpp:157] Top shape: 1 64 768 56 56 (154140672)
I0416 13:45:31.111413 16648 net.cpp:165] Memory required for data: 5895881916
I0416 13:45:31.111415 16648 layer_factory.hpp:77] Creating layer conv2a
I0416 13:45:31.111426 16648 net.cpp:100] Creating Layer conv2a
I0416 13:45:31.111430 16648 net.cpp:434] conv2a <- pool1
I0416 13:45:31.111438 16648 net.cpp:408] conv2a -> conv2a
I0416 13:45:31.122699 16648 net.cpp:150] Setting up conv2a
I0416 13:45:31.122725 16648 net.cpp:157] Top shape: 1 128 768 56 56 (308281344)
I0416 13:45:31.122730 16648 net.cpp:165] Memory required for data: 7129007292
I0416 13:45:31.122741 16648 layer_factory.hpp:77] Creating layer relu2a
I0416 13:45:31.122750 16648 net.cpp:100] Creating Layer relu2a
I0416 13:45:31.122754 16648 net.cpp:434] relu2a <- conv2a
I0416 13:45:31.122771 16648 net.cpp:395] relu2a -> conv2a (in-place)
I0416 13:45:31.122781 16648 net.cpp:150] Setting up relu2a
I0416 13:45:31.122784 16648 net.cpp:157] Top shape: 1 128 768 56 56 (308281344)
I0416 13:45:31.122787 16648 net.cpp:165] Memory required for data: 8362132668
I0416 13:45:31.122790 16648 layer_factory.hpp:77] Creating layer pool2
I0416 13:45:31.122798 16648 net.cpp:100] Creating Layer pool2
I0416 13:45:31.122802 16648 net.cpp:434] pool2 <- conv2a
I0416 13:45:31.122808 16648 net.cpp:408] pool2 -> pool2
I0416 13:45:31.122885 16648 net.cpp:150] Setting up pool2
I0416 13:45:31.122896 16648 net.cpp:157] Top shape: 1 128 384 28 28 (38535168)
I0416 13:45:31.122900 16648 net.cpp:165] Memory required for data: 8516273340
I0416 13:45:31.122902 16648 layer_factory.hpp:77] Creating layer conv3a
I0416 13:45:31.122915 16648 net.cpp:100] Creating Layer conv3a
I0416 13:45:31.122918 16648 net.cpp:434] conv3a <- pool2
I0416 13:45:31.122925 16648 net.cpp:408] conv3a -> conv3a
I0416 13:45:31.148277 16648 net.cpp:150] Setting up conv3a
I0416 13:45:31.148298 16648 net.cpp:157] Top shape: 1 256 384 28 28 (77070336)
I0416 13:45:31.148301 16648 net.cpp:165] Memory required for data: 8824554684
I0416 13:45:31.148313 16648 layer_factory.hpp:77] Creating layer relu3a
I0416 13:45:31.148319 16648 net.cpp:100] Creating Layer relu3a
I0416 13:45:31.148324 16648 net.cpp:434] relu3a <- conv3a
I0416 13:45:31.148329 16648 net.cpp:395] relu3a -> conv3a (in-place)
I0416 13:45:31.148336 16648 net.cpp:150] Setting up relu3a
I0416 13:45:31.148344 16648 net.cpp:157] Top shape: 1 256 384 28 28 (77070336)
I0416 13:45:31.148347 16648 net.cpp:165] Memory required for data: 9132836028
I0416 13:45:31.148350 16648 layer_factory.hpp:77] Creating layer conv3b
I0416 13:45:31.148361 16648 net.cpp:100] Creating Layer conv3b
I0416 13:45:31.148365 16648 net.cpp:434] conv3b <- conv3a
I0416 13:45:31.148371 16648 net.cpp:408] conv3b -> conv3b
I0416 13:45:31.197568 16648 net.cpp:150] Setting up conv3b
I0416 13:45:31.197594 16648 net.cpp:157] Top shape: 1 256 384 28 28 (77070336)
I0416 13:45:31.197598 16648 net.cpp:165] Memory required for data: 9441117372
I0416 13:45:31.197607 16648 layer_factory.hpp:77] Creating layer relu3b
I0416 13:45:31.197618 16648 net.cpp:100] Creating Layer relu3b
I0416 13:45:31.197623 16648 net.cpp:434] relu3b <- conv3b
I0416 13:45:31.197628 16648 net.cpp:395] relu3b -> conv3b (in-place)
I0416 13:45:31.197636 16648 net.cpp:150] Setting up relu3b
I0416 13:45:31.197641 16648 net.cpp:157] Top shape: 1 256 384 28 28 (77070336)
I0416 13:45:31.197643 16648 net.cpp:165] Memory required for data: 9749398716
I0416 13:45:31.197646 16648 layer_factory.hpp:77] Creating layer pool3
I0416 13:45:31.197659 16648 net.cpp:100] Creating Layer pool3
I0416 13:45:31.197662 16648 net.cpp:434] pool3 <- conv3b
I0416 13:45:31.197669 16648 net.cpp:408] pool3 -> pool3
I0416 13:45:31.197723 16648 net.cpp:150] Setting up pool3
I0416 13:45:31.197741 16648 net.cpp:157] Top shape: 1 256 192 14 14 (9633792)
I0416 13:45:31.197744 16648 net.cpp:165] Memory required for data: 9787933884
I0416 13:45:31.197748 16648 layer_factory.hpp:77] Creating layer conv4a
I0416 13:45:31.197760 16648 net.cpp:100] Creating Layer conv4a
I0416 13:45:31.197764 16648 net.cpp:434] conv4a <- pool3
I0416 13:45:31.197769 16648 net.cpp:408] conv4a -> conv4a
I0416 13:45:31.295680 16648 net.cpp:150] Setting up conv4a
I0416 13:45:31.295706 16648 net.cpp:157] Top shape: 1 512 192 14 14 (19267584)
I0416 13:45:31.295709 16648 net.cpp:165] Memory required for data: 9865004220
I0416 13:45:31.295723 16648 layer_factory.hpp:77] Creating layer relu4a
I0416 13:45:31.295737 16648 net.cpp:100] Creating Layer relu4a
I0416 13:45:31.295742 16648 net.cpp:434] relu4a <- conv4a
I0416 13:45:31.295747 16648 net.cpp:395] relu4a -> conv4a (in-place)
I0416 13:45:31.295756 16648 net.cpp:150] Setting up relu4a
I0416 13:45:31.295760 16648 net.cpp:157] Top shape: 1 512 192 14 14 (19267584)
I0416 13:45:31.295763 16648 net.cpp:165] Memory required for data: 9942074556
I0416 13:45:31.295766 16648 layer_factory.hpp:77] Creating layer conv4b
I0416 13:45:31.295780 16648 net.cpp:100] Creating Layer conv4b
I0416 13:45:31.295783 16648 net.cpp:434] conv4b <- conv4a
I0416 13:45:31.295789 16648 net.cpp:408] conv4b -> conv4b
I0416 13:45:31.489058 16648 net.cpp:150] Setting up conv4b
I0416 13:45:31.489084 16648 net.cpp:157] Top shape: 1 512 192 14 14 (19267584)
I0416 13:45:31.489089 16648 net.cpp:165] Memory required for data: 10019144892
I0416 13:45:31.489097 16648 layer_factory.hpp:77] Creating layer relu4b
I0416 13:45:31.489107 16648 net.cpp:100] Creating Layer relu4b
I0416 13:45:31.489112 16648 net.cpp:434] relu4b <- conv4b
I0416 13:45:31.489120 16648 net.cpp:395] relu4b -> conv4b (in-place)
I0416 13:45:31.489127 16648 net.cpp:150] Setting up relu4b
I0416 13:45:31.489131 16648 net.cpp:157] Top shape: 1 512 192 14 14 (19267584)
I0416 13:45:31.489135 16648 net.cpp:165] Memory required for data: 10096215228
I0416 13:45:31.489137 16648 layer_factory.hpp:77] Creating layer pool4
I0416 13:45:31.489151 16648 net.cpp:100] Creating Layer pool4
I0416 13:45:31.489156 16648 net.cpp:434] pool4 <- conv4b
I0416 13:45:31.489162 16648 net.cpp:408] pool4 -> pool4
I0416 13:45:31.489219 16648 net.cpp:150] Setting up pool4
I0416 13:45:31.489228 16648 net.cpp:157] Top shape: 1 512 96 7 7 (2408448)
I0416 13:45:31.489233 16648 net.cpp:165] Memory required for data: 10105849020
I0416 13:45:31.489235 16648 layer_factory.hpp:77] Creating layer conv5a
I0416 13:45:31.489256 16648 net.cpp:100] Creating Layer conv5a
I0416 13:45:31.489260 16648 net.cpp:434] conv5a <- pool4
I0416 13:45:31.489267 16648 net.cpp:408] conv5a -> conv5a
I0416 13:45:31.677009 16648 net.cpp:150] Setting up conv5a
I0416 13:45:31.677034 16648 net.cpp:157] Top shape: 1 512 96 7 7 (2408448)
I0416 13:45:31.677038 16648 net.cpp:165] Memory required for data: 10115482812
I0416 13:45:31.677047 16648 layer_factory.hpp:77] Creating layer relu5a
I0416 13:45:31.677057 16648 net.cpp:100] Creating Layer relu5a
I0416 13:45:31.677062 16648 net.cpp:434] relu5a <- conv5a
I0416 13:45:31.677068 16648 net.cpp:395] relu5a -> conv5a (in-place)
I0416 13:45:31.677075 16648 net.cpp:150] Setting up relu5a
I0416 13:45:31.677083 16648 net.cpp:157] Top shape: 1 512 96 7 7 (2408448)
I0416 13:45:31.677085 16648 net.cpp:165] Memory required for data: 10125116604
I0416 13:45:31.677088 16648 layer_factory.hpp:77] Creating layer conv5b
I0416 13:45:31.677099 16648 net.cpp:100] Creating Layer conv5b
I0416 13:45:31.677103 16648 net.cpp:434] conv5b <- conv5a
I0416 13:45:31.677109 16648 net.cpp:408] conv5b -> conv5b
I0416 13:45:31.862722 16648 net.cpp:150] Setting up conv5b
I0416 13:45:31.862747 16648 net.cpp:157] Top shape: 1 512 96 7 7 (2408448)
I0416 13:45:31.862751 16648 net.cpp:165] Memory required for data: 10134750396
I0416 13:45:31.862771 16648 layer_factory.hpp:77] Creating layer relu5b
I0416 13:45:31.862781 16648 net.cpp:100] Creating Layer relu5b
I0416 13:45:31.862784 16648 net.cpp:434] relu5b <- conv5b
I0416 13:45:31.862790 16648 net.cpp:395] relu5b -> conv5b (in-place)
I0416 13:45:31.862798 16648 net.cpp:150] Setting up relu5b
I0416 13:45:31.862802 16648 net.cpp:157] Top shape: 1 512 96 7 7 (2408448)
I0416 13:45:31.862805 16648 net.cpp:165] Memory required for data: 10144384188
I0416 13:45:31.862808 16648 layer_factory.hpp:77] Creating layer conv5b_relu5b_0_split
I0416 13:45:31.862813 16648 net.cpp:100] Creating Layer conv5b_relu5b_0_split
I0416 13:45:31.862817 16648 net.cpp:434] conv5b_relu5b_0_split <- conv5b
I0416 13:45:31.862823 16648 net.cpp:408] conv5b_relu5b_0_split -> conv5b_relu5b_0_split_0
I0416 13:45:31.862828 16648 net.cpp:408] conv5b_relu5b_0_split -> conv5b_relu5b_0_split_1
I0416 13:45:31.862879 16648 net.cpp:150] Setting up conv5b_relu5b_0_split
I0416 13:45:31.862886 16648 net.cpp:157] Top shape: 1 512 96 7 7 (2408448)
I0416 13:45:31.862890 16648 net.cpp:157] Top shape: 1 512 96 7 7 (2408448)
I0416 13:45:31.862893 16648 net.cpp:165] Memory required for data: 10163651772
I0416 13:45:31.862896 16648 layer_factory.hpp:77] Creating layer rpn_conv/3x3
I0416 13:45:31.862910 16648 net.cpp:100] Creating Layer rpn_conv/3x3
I0416 13:45:31.862916 16648 net.cpp:434] rpn_conv/3x3 <- conv5b_relu5b_0_split_0
I0416 13:45:31.862923 16648 net.cpp:408] rpn_conv/3x3 -> rpn/output
I0416 13:45:32.049870 16648 net.cpp:150] Setting up rpn_conv/3x3
I0416 13:45:32.049893 16648 net.cpp:157] Top shape: 1 512 96 4 4 (786432)
I0416 13:45:32.049897 16648 net.cpp:165] Memory required for data: 10166797500
I0416 13:45:32.049912 16648 layer_factory.hpp:77] Creating layer rpn_relu/3x3
I0416 13:45:32.049921 16648 net.cpp:100] Creating Layer rpn_relu/3x3
I0416 13:45:32.049926 16648 net.cpp:434] rpn_relu/3x3 <- rpn/output
I0416 13:45:32.049932 16648 net.cpp:395] rpn_relu/3x3 -> rpn/output (in-place)
I0416 13:45:32.049939 16648 net.cpp:150] Setting up rpn_relu/3x3
I0416 13:45:32.049943 16648 net.cpp:157] Top shape: 1 512 96 4 4 (786432)
I0416 13:45:32.049947 16648 net.cpp:165] Memory required for data: 10169943228
I0416 13:45:32.049949 16648 layer_factory.hpp:77] Creating layer rpn_conv/3x3_2
I0416 13:45:32.049959 16648 net.cpp:100] Creating Layer rpn_conv/3x3_2
I0416 13:45:32.049962 16648 net.cpp:434] rpn_conv/3x3_2 <- rpn/output
I0416 13:45:32.049968 16648 net.cpp:408] rpn_conv/3x3_2 -> rpn/output_2
I0416 13:45:32.236551 16648 net.cpp:150] Setting up rpn_conv/3x3_2
I0416 13:45:32.236573 16648 net.cpp:157] Top shape: 1 512 96 2 2 (196608)
I0416 13:45:32.236577 16648 net.cpp:165] Memory required for data: 10170729660
I0416 13:45:32.236585 16648 layer_factory.hpp:77] Creating layer rpn_relu/3x3_2
I0416 13:45:32.236595 16648 net.cpp:100] Creating Layer rpn_relu/3x3_2
I0416 13:45:32.236600 16648 net.cpp:434] rpn_relu/3x3_2 <- rpn/output_2
I0416 13:45:32.236606 16648 net.cpp:395] rpn_relu/3x3_2 -> rpn/output_2 (in-place)
I0416 13:45:32.236614 16648 net.cpp:150] Setting up rpn_relu/3x3_2
I0416 13:45:32.236618 16648 net.cpp:157] Top shape: 1 512 96 2 2 (196608)
I0416 13:45:32.236621 16648 net.cpp:165] Memory required for data: 10171516092
I0416 13:45:32.236624 16648 layer_factory.hpp:77] Creating layer rpn/output_pool
I0416 13:45:32.236632 16648 net.cpp:100] Creating Layer rpn/output_pool
I0416 13:45:32.236635 16648 net.cpp:434] rpn/output_pool <- rpn/output_2
I0416 13:45:32.236639 16648 net.cpp:408] rpn/output_pool -> rpn/output_pool
I0416 13:45:32.236685 16648 net.cpp:150] Setting up rpn/output_pool
I0416 13:45:32.236692 16648 net.cpp:157] Top shape: 1 512 96 1 1 (49152)
I0416 13:45:32.236696 16648 net.cpp:165] Memory required for data: 10171712700
I0416 13:45:32.236698 16648 layer_factory.hpp:77] Creating layer rpn/output_pool_rpn/output_pool_0_split
I0416 13:45:32.236706 16648 net.cpp:100] Creating Layer rpn/output_pool_rpn/output_pool_0_split
I0416 13:45:32.236708 16648 net.cpp:434] rpn/output_pool_rpn/output_pool_0_split <- rpn/output_pool
I0416 13:45:32.236713 16648 net.cpp:408] rpn/output_pool_rpn/output_pool_0_split -> rpn/output_pool_rpn/output_pool_0_split_0
I0416 13:45:32.236718 16648 net.cpp:408] rpn/output_pool_rpn/output_pool_0_split -> rpn/output_pool_rpn/output_pool_0_split_1
I0416 13:45:32.236765 16648 net.cpp:150] Setting up rpn/output_pool_rpn/output_pool_0_split
I0416 13:45:32.236774 16648 net.cpp:157] Top shape: 1 512 96 1 1 (49152)
I0416 13:45:32.236778 16648 net.cpp:157] Top shape: 1 512 96 1 1 (49152)
I0416 13:45:32.236781 16648 net.cpp:165] Memory required for data: 10172105916
I0416 13:45:32.236784 16648 layer_factory.hpp:77] Creating layer rpn_cls_score
I0416 13:45:32.236795 16648 net.cpp:100] Creating Layer rpn_cls_score
I0416 13:45:32.236799 16648 net.cpp:434] rpn_cls_score <- rpn/output_pool_rpn/output_pool_0_split_0
I0416 13:45:32.236805 16648 net.cpp:408] rpn_cls_score -> rpn_cls_score
I0416 13:45:32.238059 16648 net.cpp:150] Setting up rpn_cls_score
I0416 13:45:32.238067 16648 net.cpp:157] Top shape: 1 74 96 1 1 (7104)
I0416 13:45:32.238070 16648 net.cpp:165] Memory required for data: 10172134332
I0416 13:45:32.238075 16648 layer_factory.hpp:77] Creating layer rpn_cls_score_rpn_cls_score_0_split
I0416 13:45:32.238081 16648 net.cpp:100] Creating Layer rpn_cls_score_rpn_cls_score_0_split
I0416 13:45:32.238086 16648 net.cpp:434] rpn_cls_score_rpn_cls_score_0_split <- rpn_cls_score
I0416 13:45:32.238090 16648 net.cpp:408] rpn_cls_score_rpn_cls_score_0_split -> rpn_cls_score_rpn_cls_score_0_split_0
I0416 13:45:32.238096 16648 net.cpp:408] rpn_cls_score_rpn_cls_score_0_split -> rpn_cls_score_rpn_cls_score_0_split_1
I0416 13:45:32.238142 16648 net.cpp:150] Setting up rpn_cls_score_rpn_cls_score_0_split
I0416 13:45:32.238150 16648 net.cpp:157] Top shape: 1 74 96 1 1 (7104)
I0416 13:45:32.238154 16648 net.cpp:157] Top shape: 1 74 96 1 1 (7104)
I0416 13:45:32.238157 16648 net.cpp:165] Memory required for data: 10172191164
I0416 13:45:32.238160 16648 layer_factory.hpp:77] Creating layer rpn_twin_pred
I0416 13:45:32.238173 16648 net.cpp:100] Creating Layer rpn_twin_pred
I0416 13:45:32.238179 16648 net.cpp:434] rpn_twin_pred <- rpn/output_pool_rpn/output_pool_0_split_1
I0416 13:45:32.238184 16648 net.cpp:408] rpn_twin_pred -> rpn_twin_pred
I0416 13:45:32.239477 16648 net.cpp:150] Setting up rpn_twin_pred
I0416 13:45:32.239488 16648 net.cpp:157] Top shape: 1 74 96 1 1 (7104)
I0416 13:45:32.239491 16648 net.cpp:165] Memory required for data: 10172219580
I0416 13:45:32.239496 16648 layer_factory.hpp:77] Creating layer rpn_twin_pred_rpn_twin_pred_0_split
I0416 13:45:32.239502 16648 net.cpp:100] Creating Layer rpn_twin_pred_rpn_twin_pred_0_split
I0416 13:45:32.239506 16648 net.cpp:434] rpn_twin_pred_rpn_twin_pred_0_split <- rpn_twin_pred
I0416 13:45:32.239511 16648 net.cpp:408] rpn_twin_pred_rpn_twin_pred_0_split -> rpn_twin_pred_rpn_twin_pred_0_split_0
I0416 13:45:32.239516 16648 net.cpp:408] rpn_twin_pred_rpn_twin_pred_0_split -> rpn_twin_pred_rpn_twin_pred_0_split_1
I0416 13:45:32.239558 16648 net.cpp:150] Setting up rpn_twin_pred_rpn_twin_pred_0_split
I0416 13:45:32.239575 16648 net.cpp:157] Top shape: 1 74 96 1 1 (7104)
I0416 13:45:32.239579 16648 net.cpp:157] Top shape: 1 74 96 1 1 (7104)
I0416 13:45:32.239583 16648 net.cpp:165] Memory required for data: 10172276412
I0416 13:45:32.239586 16648 layer_factory.hpp:77] Creating layer rpn_cls_score_reshape
I0416 13:45:32.239596 16648 net.cpp:100] Creating Layer rpn_cls_score_reshape
I0416 13:45:32.239600 16648 net.cpp:434] rpn_cls_score_reshape <- rpn_cls_score_rpn_cls_score_0_split_0
I0416 13:45:32.239608 16648 net.cpp:408] rpn_cls_score_reshape -> rpn_cls_score_reshape
I0416 13:45:32.239641 16648 net.cpp:150] Setting up rpn_cls_score_reshape
I0416 13:45:32.239650 16648 net.cpp:157] Top shape: 1 2 3552 1 1 (7104)
I0416 13:45:32.239653 16648 net.cpp:165] Memory required for data: 10172304828
I0416 13:45:32.239656 16648 layer_factory.hpp:77] Creating layer rpn_cls_score_reshape_rpn_cls_score_reshape_0_split
I0416 13:45:32.239665 16648 net.cpp:100] Creating Layer rpn_cls_score_reshape_rpn_cls_score_reshape_0_split
I0416 13:45:32.239668 16648 net.cpp:434] rpn_cls_score_reshape_rpn_cls_score_reshape_0_split <- rpn_cls_score_reshape
I0416 13:45:32.239672 16648 net.cpp:408] rpn_cls_score_reshape_rpn_cls_score_reshape_0_split -> rpn_cls_score_reshape_rpn_cls_score_reshape_0_split_0
I0416 13:45:32.239681 16648 net.cpp:408] rpn_cls_score_reshape_rpn_cls_score_reshape_0_split -> rpn_cls_score_reshape_rpn_cls_score_reshape_0_split_1
I0416 13:45:32.239691 16648 net.cpp:408] rpn_cls_score_reshape_rpn_cls_score_reshape_0_split -> rpn_cls_score_reshape_rpn_cls_score_reshape_0_split_2
I0416 13:45:32.239742 16648 net.cpp:150] Setting up rpn_cls_score_reshape_rpn_cls_score_reshape_0_split
I0416 13:45:32.239753 16648 net.cpp:157] Top shape: 1 2 3552 1 1 (7104)
I0416 13:45:32.239755 16648 net.cpp:157] Top shape: 1 2 3552 1 1 (7104)
I0416 13:45:32.239759 16648 net.cpp:157] Top shape: 1 2 3552 1 1 (7104)
I0416 13:45:32.239763 16648 net.cpp:165] Memory required for data: 10172390076
I0416 13:45:32.239765 16648 layer_factory.hpp:77] Creating layer rpn-data
I0416 13:45:32.240151 16648 net.cpp:100] Creating Layer rpn-data
I0416 13:45:32.240173 16648 net.cpp:434] rpn-data <- rpn_cls_score_rpn_cls_score_0_split_1
I0416 13:45:32.240190 16648 net.cpp:434] rpn-data <- gt_boxes_data_1_split_0
I0416 13:45:32.240195 16648 net.cpp:434] rpn-data <- data_data_0_split_1
I0416 13:45:32.240200 16648 net.cpp:408] rpn-data -> rpn_labels
I0416 13:45:32.240206 16648 net.cpp:408] rpn-data -> rpn_twin_targets
I0416 13:45:32.240211 16648 net.cpp:408] rpn-data -> rpn_twin_inside_weights
I0416 13:45:32.240217 16648 net.cpp:408] rpn-data -> rpn_twin_outside_weights
I0416 13:45:32.242370 16648 net.cpp:150] Setting up rpn-data
I0416 13:45:32.242395 16648 net.cpp:157] Top shape: 1 1 3552 1 1 (3552)
I0416 13:45:32.242399 16648 net.cpp:157] Top shape: 1 74 96 1 1 (7104)
I0416 13:45:32.242403 16648 net.cpp:157] Top shape: 1 74 96 1 1 (7104)
I0416 13:45:32.242406 16648 net.cpp:157] Top shape: 1 74 96 1 1 (7104)
I0416 13:45:32.242409 16648 net.cpp:165] Memory required for data: 10172489532
I0416 13:45:32.242413 16648 layer_factory.hpp:77] Creating layer rpn_labels_rpn-data_0_split
I0416 13:45:32.242419 16648 net.cpp:100] Creating Layer rpn_labels_rpn-data_0_split
I0416 13:45:32.242422 16648 net.cpp:434] rpn_labels_rpn-data_0_split <- rpn_labels
I0416 13:45:32.242427 16648 net.cpp:408] rpn_labels_rpn-data_0_split -> rpn_labels_rpn-data_0_split_0
I0416 13:45:32.242434 16648 net.cpp:408] rpn_labels_rpn-data_0_split -> rpn_labels_rpn-data_0_split_1
I0416 13:45:32.242472 16648 net.cpp:150] Setting up rpn_labels_rpn-data_0_split
I0416 13:45:32.242480 16648 net.cpp:157] Top shape: 1 1 3552 1 1 (3552)
I0416 13:45:32.242483 16648 net.cpp:157] Top shape: 1 1 3552 1 1 (3552)
I0416 13:45:32.242486 16648 net.cpp:165] Memory required for data: 10172517948
I0416 13:45:32.242489 16648 layer_factory.hpp:77] Creating layer rpn_loss_cls
I0416 13:45:32.242501 16648 net.cpp:100] Creating Layer rpn_loss_cls
I0416 13:45:32.242507 16648 net.cpp:434] rpn_loss_cls <- rpn_cls_score_reshape_rpn_cls_score_reshape_0_split_0
I0416 13:45:32.242511 16648 net.cpp:434] rpn_loss_cls <- rpn_labels_rpn-data_0_split_0
…
I0416 13:45:32.242831 16648 layer_factory.hpp:77] Creating layer rpn_accuarcy
I0416 13:45:32.242838 16648 net.cpp:100] Creating Layer rpn_accuarcy
I0416 13:45:32.242842 16648 net.cpp:434] rpn_accuarcy <- rpn_cls_score_reshape_rpn_cls_score_reshape_0_split_1
I0416 13:45:32.242851 16648 net.cpp:434] rpn_accuarcy <- rpn_labels_rpn-data_0_split_1
I0416 13:45:32.242856 16648 net.cpp:408] rpn_accuarcy -> rpn_accuarcy
I0416 13:45:32.242861 16648 net.cpp:408] rpn_accuarcy -> rpn_accuarcy_class
I0416 13:45:32.242905 16648 net.cpp:150] Setting up rpn_accuarcy
I0416 13:45:32.242913 16648 net.cpp:157] Top shape: (1)
I0416 13:45:32.242918 16648 net.cpp:157] Top shape: 2 (2)
I0416 13:45:32.242923 16648 net.cpp:165] Memory required for data: 10172517968
I0416 13:45:32.242925 16648 layer_factory.hpp:77] Creating layer rpn_cls_prob
I0416 13:45:32.242931 16648 net.cpp:100] Creating Layer rpn_cls_prob
I0416 13:45:32.242934 16648 net.cpp:434] rpn_cls_prob <- rpn_cls_score_reshape_rpn_cls_score_reshape_0_split_2
I0416 13:45:32.242939 16648 net.cpp:408] rpn_cls_prob -> rpn_cls_prob
I0416 13:45:32.243008 16648 net.cpp:150] Setting up rpn_cls_prob
I0416 13:45:32.243016 16648 net.cpp:157] Top shape: 1 2 3552 1 1 (7104)
I0416 13:45:32.243018 16648 net.cpp:165] Memory required for data: 10172546384
I0416 13:45:32.243021 16648 layer_factory.hpp:77] Creating layer rpn_cls_prob_reshape
I0416 13:45:32.243026 16648 net.cpp:100] Creating Layer rpn_cls_prob_reshape
I0416 13:45:32.243031 16648 net.cpp:434] rpn_cls_prob_reshape <- rpn_cls_prob
I0416 13:45:32.243036 16648 net.cpp:408] rpn_cls_prob_reshape -> rpn_cls_prob_reshape
I0416 13:45:32.243065 16648 net.cpp:150] Setting up rpn_cls_prob_reshape
I0416 13:45:32.243072 16648 net.cpp:157] Top shape: 1 74 96 1 1 (7104)
I0416 13:45:32.243075 16648 net.cpp:165] Memory required for data: 10172574800
I0416 13:45:32.243078 16648 layer_factory.hpp:77] Creating layer proposal
I0416 13:45:32.243624 16648 net.cpp:100] Creating Layer proposal
I0416 13:45:32.243636 16648 net.cpp:434] proposal <- rpn_cls_prob_reshape
I0416 13:45:32.243652 16648 net.cpp:434] proposal <- rpn_twin_pred_rpn_twin_pred_0_split_1
I0416 13:45:32.243659 16648 net.cpp:408] proposal -> rpn_rois
I0416 13:45:32.245743 16648 net.cpp:150] Setting up proposal
I0416 13:45:32.245767 16648 net.cpp:157] Top shape: 1 3 (3)
I0416 13:45:32.245771 16648 net.cpp:165] Memory required for data: 10172574812
I0416 13:45:32.245774 16648 layer_factory.hpp:77] Creating layer roi-data
I0416 13:45:32.245908 16648 net.cpp:100] Creating Layer roi-data
I0416 13:45:32.245918 16648 net.cpp:434] roi-data <- rpn_rois
I0416 13:45:32.245923 16648 net.cpp:434] roi-data <- gt_boxes_data_1_split_1
I0416 13:45:32.245929 16648 net.cpp:408] roi-data -> rois
I0416 13:45:32.245935 16648 net.cpp:408] roi-data -> labels
I0416 13:45:32.245940 16648 net.cpp:408] roi-data -> twin_targets
I0416 13:45:32.245946 16648 net.cpp:408] roi-data -> twin_inside_weights
I0416 13:45:32.245951 16648 net.cpp:408] roi-data -> twin_outside_weights
I0416 13:45:32.246286 16648 net.cpp:150] Setting up roi-data
I0416 13:45:32.246299 16648 net.cpp:157] Top shape: 1 3 (3)
I0416 13:45:32.246302 16648 net.cpp:157] Top shape: 1 1 (1)
I0416 13:45:32.246305 16648 net.cpp:157] Top shape: 1 402 (402)
I0416 13:45:32.246309 16648 net.cpp:157] Top shape: 1 402 (402)
I0416 13:45:32.246312 16648 net.cpp:157] Top shape: 1 402 (402)
I0416 13:45:32.246315 16648 net.cpp:165] Memory required for data: 10172579652
I0416 13:45:32.246318 16648 layer_factory.hpp:77] Creating layer labels_roi-data_1_split
I0416 13:45:32.246323 16648 net.cpp:100] Creating Layer labels_roi-data_1_split
I0416 13:45:32.246327 16648 net.cpp:434] labels_roi-data_1_split <- labels
I0416 13:45:32.246335 16648 net.cpp:408] labels_roi-data_1_split -> labels_roi-data_1_split_0
I0416 13:45:32.246341 16648 net.cpp:408] labels_roi-data_1_split -> labels_roi-data_1_split_1
I0416 13:45:32.246389 16648 net.cpp:150] Setting up labels_roi-data_1_split
I0416 13:45:32.246397 16648 net.cpp:157] Top shape: 1 1 (1)
I0416 13:45:32.246402 16648 net.cpp:157] Top shape: 1 1 (1)
I0416 13:45:32.246404 16648 net.cpp:165] Memory required for data: 10172579660
I0416 13:45:32.246407 16648 layer_factory.hpp:77] Creating layer roi_pool5
I0416 13:45:32.246415 16648 net.cpp:100] Creating Layer roi_pool5
I0416 13:45:32.246419 16648 net.cpp:434] roi_pool5 <- conv5b_relu5b_0_split_1
I0416 13:45:32.246424 16648 net.cpp:434] roi_pool5 <- rois
I0416 13:45:32.246428 16648 net.cpp:408] roi_pool5 -> pool5
I0416 13:45:32.246435 16648 roi_pooling_layer.cpp:34] Temporal scale: 0.125
I0416 13:45:32.246443 16648 roi_pooling_layer.cpp:35] Spatial scale: 0.0625
I0416 13:45:32.246485 16648 net.cpp:150] Setting up roi_pool5
I0416 13:45:32.246492 16648 net.cpp:157] Top shape: 1 512 1 4 4 (8192)
I0416 13:45:32.246497 16648 net.cpp:165] Memory required for data: 10172612428
I0416 13:45:32.246500 16648 layer_factory.hpp:77] Creating layer fc6
I0416 13:45:32.246508 16648 net.cpp:100] Creating Layer fc6
I0416 13:45:32.246513 16648 net.cpp:434] fc6 <- pool5
I0416 13:45:32.246520 16648 net.cpp:408] fc6 -> fc6
I0416 13:45:33.124636 16648 net.cpp:150] Setting up fc6
I0416 13:45:33.124660 16648 net.cpp:157] Top shape: 1 4096 (4096)
I0416 13:45:33.124665 16648 net.cpp:165] Memory required for data: 10172628812
I0416 13:45:33.124675 16648 layer_factory.hpp:77] Creating layer relu6
I0416 13:45:33.124687 16648 net.cpp:100] Creating Layer relu6
I0416 13:45:33.124693 16648 net.cpp:434] relu6 <- fc6
I0416 13:45:33.124698 16648 net.cpp:395] relu6 -> fc6 (in-place)
I0416 13:45:33.124706 16648 net.cpp:150] Setting up relu6
I0416 13:45:33.124713 16648 net.cpp:157] Top shape: 1 4096 (4096)
I0416 13:45:33.124716 16648 net.cpp:165] Memory required for data: 10172645196
I0416 13:45:33.124719 16648 layer_factory.hpp:77] Creating layer drop6
I0416 13:45:33.124729 16648 net.cpp:100] Creating Layer drop6
I0416 13:45:33.124733 16648 net.cpp:434] drop6 <- fc6
I0416 13:45:33.124738 16648 net.cpp:395] drop6 -> fc6 (in-place)
I0416 13:45:33.124765 16648 net.cpp:150] Setting up drop6
I0416 13:45:33.124770 16648 net.cpp:157] Top shape: 1 4096 (4096)
I0416 13:45:33.124775 16648 net.cpp:165] Memory required for data: 10172661580
I0416 13:45:33.124778 16648 layer_factory.hpp:77] Creating layer fc6_drop6_0_split
I0416 13:45:33.124784 16648 net.cpp:100] Creating Layer fc6_drop6_0_split
I0416 13:45:33.124788 16648 net.cpp:434] fc6_drop6_0_split <- fc6
I0416 13:45:33.124794 16648 net.cpp:408] fc6_drop6_0_split -> fc6_drop6_0_split_0
I0416 13:45:33.124800 16648 net.cpp:408] fc6_drop6_0_split -> fc6_drop6_0_split_1
I0416 13:45:33.124841 16648 net.cpp:150] Setting up fc6_drop6_0_split
I0416 13:45:33.124848 16648 net.cpp:157] Top shape: 1 4096 (4096)
I0416 13:45:33.124852 16648 net.cpp:157] Top shape: 1 4096 (4096)
I0416 13:45:33.124855 16648 net.cpp:165] Memory required for data: 10172694348
I0416 13:45:33.124858 16648 layer_factory.hpp:77] Creating layer cls_score
I0416 13:45:33.124866 16648 net.cpp:100] Creating Layer cls_score
I0416 13:45:33.124868 16648 net.cpp:434] cls_score <- fc6_drop6_0_split_0
I0416 13:45:33.124876 16648 net.cpp:408] cls_score -> cls_score
I0416 13:45:33.146319 16648 net.cpp:150] Setting up cls_score
I0416 13:45:33.146332 16648 net.cpp:157] Top shape: 1 201 (201)
I0416 13:45:33.146335 16648 net.cpp:165] Memory required for data: 10172695152
I0416 13:45:33.146342 16648 layer_factory.hpp:77] Creating layer cls_score_cls_score_0_split
I0416 13:45:33.146347 16648 net.cpp:100] Creating Layer cls_score_cls_score_0_split
I0416 13:45:33.146350 16648 net.cpp:434] cls_score_cls_score_0_split <- cls_score
I0416 13:45:33.146356 16648 net.cpp:408] cls_score_cls_score_0_split -> cls_score_cls_score_0_split_0
I0416 13:45:33.146363 16648 net.cpp:408] cls_score_cls_score_0_split -> cls_score_cls_score_0_split_1
I0416 13:45:33.146400 16648 net.cpp:150] Setting up cls_score_cls_score_0_split
I0416 13:45:33.146417 16648 net.cpp:157] Top shape: 1 201 (201)
I0416 13:45:33.146421 16648 net.cpp:157] Top shape: 1 201 (201)
I0416 13:45:33.146425 16648 net.cpp:165] Memory required for data: 10172696760
I0416 13:45:33.146427 16648 layer_factory.hpp:77] Creating layer twin_pred
I0416 13:45:33.146435 16648 net.cpp:100] Creating Layer twin_pred
I0416 13:45:33.146438 16648 net.cpp:434] twin_pred <- fc6_drop6_0_split_1
I0416 13:45:33.146443 16648 net.cpp:408] twin_pred -> twin_pred
I0416 13:45:33.189497 16648 net.cpp:150] Setting up twin_pred
I0416 13:45:33.189519 16648 net.cpp:157] Top shape: 1 402 (402)
I0416 13:45:33.189523 16648 net.cpp:165] Memory required for data: 10172698368
I0416 13:45:33.189532 16648 layer_factory.hpp:77] Creating layer loss_cls
I0416 13:45:33.189543 16648 net.cpp:100] Creating Layer loss_cls
I0416 13:45:33.189548 16648 net.cpp:434] loss_cls <- cls_score_cls_score_0_split_0
I0416 13:45:33.189554 16648 net.cpp:434] loss_cls <- labels_roi-data_1_split_0
I0416 13:45:33.189559 16648 net.cpp:408] loss_cls -> loss_cls
…
