…
stepsize: 350000
snapshot: 0
snapshot_prefix: "./experiments/activitynet/snapshot/activitynet"
average_loss: 100
iter_size: 1
I0417 16:29:52.433938 15167 solver.cpp:81] Creating training net from train_net file: ./experiments/activitynet/train.prototxt
I0417 16:29:52.435067 15167 net.cpp:58] Initializing net from parameters: 
name: "activitynet"
state {
  phase: TRAIN
}
layer {
  name: "data"
  type: "Python"
  top: "data"
  top: "gt_boxes"
  python_param {
    module: "roi_data_layer.layer"
    layer: "RoIDataLayer"
    param_str: "\'num_classes\': 100"
  }
}
layer {
  name: "conv1a"
  type: "Convolution"
  bottom: "data"
  top: "conv1a"
  param {
    lr_mult: 0
    decay_mult: 0
  }
  param {
    lr_mult: 0
    decay_mult: 0
  }
  convolution_param {
    num_output: 64
    pad: 1
    pad: 1
    pad: 1
    kernel_size: 3
    kernel_size: 3
    kernel_size: 3
    weight_filler {
      type: "gaussian"
      std: 0.01
    }
    bias_filler {
      type: "constant"
      value: 0
    }
  }
}
layer {
  name: "relu1a"
  type: "ReLU"
  bottom: "conv1a"
  top: "conv1a"
}
layer {
  name: "pool1"
  type: "Pooling"
  bottom: "conv1a"
  top: "pool1"
  pooling_param {
    pool: MAX
    kernel_size: 1
    kernel_size: 2
    kernel_size: 2
    stride: 1
    stride: 2
    stride: 2
  }
}
layer {
  name: "conv2a"
  type: "Convolution"
  bottom: "pool1"
  top: "conv2a"
  param {
    lr_mult: 0
    decay_mult: 0
  }
  param {
    lr_mult: 0
    decay_mult: 0
  }
  convolution_param {
    num_output: 128
    pad: 1
    pad: 1
    pad: 1
    kernel_size: 3
    kernel_size: 3
    kernel_size: 3
    weight_filler {
      type: "gaussian"
      std: 0.01
    }
    bias_filler {
      type: "constant"
      value: 1
    }
  }
}
layer {
  name: "relu2a"
  type: "ReLU"
  bottom: "conv2a"
  top: "conv2a"
}
layer {
  name: "pool2"
  type: "Pooling"
  bottom: "conv2a"
  top: "pool2"
  pooling_param {
    pool: MAX
    kernel_size: 2
    kernel_size: 2
    kernel_size: 2
    stride: 2
    stride: 2
    stride: 2
  }
}
layer {
  name: "conv3a"
  type: "Convolution"
  bottom: "pool2"
  top: "conv3a"
  param {
    lr_mult: 1
    decay_mult: 1
  }
  param {
    lr_mult: 2
    decay_mult: 0
  }
  convolution_param {
    num_output: 256
    pad: 1
    pad: 1
    pad: 1
    kernel_size: 3
    kernel_size: 3
    kernel_size: 3
    weight_filler {
      type: "gaussian"
      std: 0.01
    }
    bias_filler {
      type: "constant"
      value: 1
    }
  }
}
layer {
  name: "relu3a"
  type: "ReLU"
  bottom: "conv3a"
  top: "conv3a"
}
layer {
  name: "conv3b"
  type: "Convolution"
  bottom: "conv3a"
  top: "conv3b"
  param {
    lr_mult: 1
    decay_mult: 1
  }
  param {
    lr_mult: 2
    decay_mult: 0
  }
  convolution_param {
    num_output: 256
    pad: 1
    pad: 1
    pad: 1
    kernel_size: 3
    kernel_size: 3
    kernel_size: 3
    weight_filler {
      type: "gaussian"
      std: 0.01
    }
    bias_filler {
      type: "constant"
      value: 1
    }
  }
}
layer {
  name: "relu3b"
  type: "ReLU"
  bottom: "conv3b"
  top: "conv3b"
}
layer {
  name: "pool3"
  type: "Pooling"
  bottom: "conv3b"
  top: "pool3"
  pooling_param {
    pool: MAX
    kernel_size: 2
    kernel_size: 2
    kernel_size: 2
    stride: 2
    stride: 2
    stride: 2
  }
}
layer {
  name: "conv4a"
  type: "Convolution"
  bottom: "pool3"
  top: "conv4a"
  param {
    lr_mult: 1
    decay_mult: 1
  }
  param {
    lr_mult: 2
    decay_mult: 0
  }
  convolution_param {
    num_output: 512
    pad: 1
    pad: 1
    pad: 1
    kernel_size: 3
    kernel_size: 3
    kernel_size: 3
    weight_filler {
      type: "gaussian"
      std: 0.01
    }
    bias_filler {
      type: "constant"
      value: 1
    }
  }
}
layer {
  name: "relu4a"
  type: "ReLU"
  bottom: "conv4a"
  top: "conv4a"
}
layer {
  name: "conv4b"
  type: "Convolution"
  bottom: "conv4a"
  top: "conv4b"
  param {
    lr_mult: 1
    decay_mult: 1
  }
  param {
    lr_mult: 2
    decay_mult: 0
  }
  convolution_param {
    num_output: 512
    pad: 1
    pad: 1
    pad: 1
    kernel_size: 3
    kernel_size: 3
    kernel_size: 3
    weight_filler {
      type: "gaussian"
      std: 0.01
    }
    bias_filler {
      type: "constant"
      value: 1
    }
  }
}
layer {
  name: "relu4b"
  type: "ReLU"
  bottom: "conv4b"
  top: "conv4b"
}
layer {
  name: "pool4"
  type: "Pooling"
  bottom: "conv4b"
  top: "pool4"
  pooling_param {
    pool: MAX
    kernel_size: 2
    kernel_size: 2
    kernel_size: 2
    stride: 2
    stride: 2
    stride: 2
  }
}
layer {
  name: "conv5a"
  type: "Convolution"
  bottom: "pool4"
  top: "conv5a"
  param {
    lr_mult: 1
    decay_mult: 1
  }
  param {
    lr_mult: 2
    decay_mult: 0
  }
  convolution_param {
    num_output: 512
    pad: 1
    pad: 1
    pad: 1
    kernel_size: 3
    kernel_size: 3
    kernel_size: 3
    weight_filler {
      type: "gaussian"
      std: 0.01
    }
    bias_filler {
      type: "constant"
      value: 1
    }
  }
}
layer {
  name: "relu5a"
  type: "ReLU"
  bottom: "conv5a"
  top: "conv5a"
}
layer {
  name: "conv5b"
  type: "Convolution"
  bottom: "conv5a"
  top: "conv5b"
  param {
    lr_mult: 1
    decay_mult: 1
  }
  param {
    lr_mult: 2
    decay_mult: 0
  }
  convolution_param {
    num_output: 512
    pad: 1
    pad: 1
    pad: 1
    kernel_size: 3
    kernel_size: 3
    kernel_size: 3
    weight_filler {
      type: "gaussian"
      std: 0.01
    }
    bias_filler {
      type: "constant"
      value: 1
    }
  }
}
layer {
  name: "relu5b"
  type: "ReLU"
  bottom: "conv5b"
  top: "conv5b"
}
layer {
  name: "rpn_conv/3x3"
  type: "Convolution"
  bottom: "conv5b"
  top: "rpn/output"
  param {
    lr_mult: 1
    decay_mult: 1
  }
  param {
    lr_mult: 2
    decay_mult: 0
  }
  convolution_param {
    num_output: 512
    pad: 1
    pad: 1
    pad: 1
    kernel_size: 3
    kernel_size: 3
    kernel_size: 3
    stride: 1
    stride: 2
    stride: 2
    weight_filler {
      type: "gaussian"
      std: 0.01
    }
    bias_filler {
      type: "constant"
      value: 0
    }
  }
}
layer {
  name: "rpn_relu/3x3"
  type: "ReLU"
  bottom: "rpn/output"
  top: "rpn/output"
}
layer {
  name: "rpn_conv/3x3_2"
  type: "Convolution"
  bottom: "rpn/output"
  top: "rpn/output_2"
  param {
    lr_mult: 1
    decay_mult: 1
  }
  param {
    lr_mult: 2
    decay_mult: 0
  }
  convolution_param {
    num_output: 512
    pad: 1
    pad: 1
    pad: 1
    kernel_size: 3
    kernel_size: 3
    kernel_size: 3
    stride: 1
    stride: 2
    stride: 2
    weight_filler {
      type: "gaussian"
      std: 0.01
    }
    bias_filler {
      type: "constant"
      value: 0
    }
  }
}
layer {
  name: "rpn_relu/3x3_2"
  type: "ReLU"
  bottom: "rpn/output_2"
  top: "rpn/output_2"
}
layer {
  name: "rpn/output_pool"
  type: "Pooling"
  bottom: "rpn/output_2"
  top: "rpn/output_pool"
  pooling_param {
    pool: MAX
    kernel_size: 1
    kernel_size: 2
    kernel_size: 2
  }
}
layer {
  name: "rpn_cls_score"
  type: "Convolution"
  bottom: "rpn/output_pool"
  top: "rpn_cls_score"
  param {
    lr_mult: 1
    decay_mult: 1
  }
  param {
    lr_mult: 2
    decay_mult: 0
  }
  convolution_param {
    num_output: 74
    kernel_size: 1
    kernel_size: 1
    kernel_size: 1
    weight_filler {
      type: "gaussian"
      std: 0.01
    }
    bias_filler {
      type: "constant"
      value: 0
    }
  }
}
layer {
  name: "rpn_twin_pred"
  type: "Convolution"
  bottom: "rpn/output_pool"
  top: "rpn_twin_pred"
  param {
    lr_mult: 1
    decay_mult: 1
  }
  param {
    lr_mult: 2
    decay_mult: 0
  }
  convolution_param {
    num_output: 74
    kernel_size: 1
    kernel_size: 1
    kernel_size: 1
    weight_filler {
      type: "gaussian"
      std: 0.01
    }
    bias_filler {
      type: "constant"
      value: 0
    }
  }
}
layer {
  name: "rpn_cls_score_reshape"
  type: "Reshape"
  bottom: "rpn_cls_score"
  top: "rpn_cls_score_reshape"
  reshape_param {
    shape {
      dim: 0
      dim: 2
      dim: -1
      dim: 0
      dim: 0
    }
  }
}
layer {
  name: "rpn-data"
  type: "Python"
  bottom: "rpn_cls_score"
  bottom: "gt_boxes"
  bottom: "data"
  top: "rpn_labels"
  top: "rpn_twin_targets"
  top: "rpn_twin_inside_weights"
  top: "rpn_twin_outside_weights"
  python_param {
    module: "rpn.anchor_target_layer"
    layer: "AnchorTargetLayer"
    param_str: "\'feat_stride\': 8 \n\'scales\': !!python/tuple [1,1.25, 1.5,1.75, 2,2.5, 3,3.5, 4,4.5, 5,5.5, 6,7, 8,9,10,11,12,14,16,18,20,22,24,28,32,36,40,44,52,60,68,76,84,92,100]"
  }
}
layer {
  name: "rpn_loss_cls"
  type: "SoftmaxWithLoss"
  bottom: "rpn_cls_score_reshape"
  bottom: "rpn_labels"
  top: "rpn_cls_loss"
  loss_weight: 1
  propagate_down: true
  propagate_down: false
  loss_param {
    ignore_label: -1
    normalize: true
  }
}
layer {
  name: "rpn_loss_twin"
  type: "SmoothL1Loss"
  bottom: "rpn_twin_pred"
  bottom: "rpn_twin_targets"
  bottom: "rpn_twin_inside_weights"
  bottom: "rpn_twin_outside_weights"
  top: "rpn_loss_twin"
  loss_weight: 1
  smooth_l1_loss_param {
    sigma: 3
  }
}
layer {
  name: "rpn_accuarcy"
  type: "Accuracy"
  bottom: "rpn_cls_score_reshape"
  bottom: "rpn_labels"
  top: "rpn_accuarcy"
  top: "rpn_accuarcy_class"
  propagate_down: false
  propagate_down: false
  accuracy_param {
    ignore_label: -1
  }
}
layer {
  name: "rpn_cls_prob"
  type: "Softmax"
  bottom: "rpn_cls_score_reshape"
  top: "rpn_cls_prob"
}
layer {
  name: "rpn_cls_prob_reshape"
  type: "Reshape"
  bottom: "rpn_cls_prob"
  top: "rpn_cls_prob_reshape"
  reshape_param {
    shape {
      dim: 0
      dim: 74
      dim: -1
      dim: 0
      dim: 0
    }
  }
}
layer {
  name: "proposal"
  type: "Python"
  bottom: "rpn_cls_prob_reshape"
  bottom: "rpn_twin_pred"
  top: "rpn_rois"
  include {
    phase: TRAIN
  }
  python_param {
    module: "rpn.proposal_layer"
    layer: "ProposalLayer"
    param_str: "\'feat_stride\': 8 \n\'scales\': !!python/tuple [1,1.25, 1.5,1.75, 2,2.5, 3,3.5, 4,4.5, 5,5.5, 6,7, 8,9,10,11,12,14,16,18,20,22,24,28,32,36,40,44,52,60,68,76,84,92,100]"
  }
}
layer {
  name: "roi-data"
  type: "Python"
  bottom: "rpn_rois"
  bottom: "gt_boxes"
  top: "rois"
  top: "labels"
  top: "twin_targets"
  top: "twin_inside_weights"
  top: "twin_outside_weights"
  python_param {
    module: "rpn.proposal_target_layer"
    layer: "ProposalTargetLayer"
    param_str: "\'num_classes\': 201"
  }
}
layer {
  name: "roi_pool5"
  type: "ROIPooling"
  bottom: "conv5b"
  bottom: "rois"
  top: "pool5"
  roi_pooling_param {
    pooled_h: 4
    pooled_w: 4
    spatial_scale: 0.0625
    pooled_l: 1
    temporal_scale: 0.125
  }
}
layer {
  name: "fc6"
  type: "InnerProduct"
  bottom: "pool5"
  top: "fc6"
  param {
    lr_mult: 1
    decay_mult: 1
  }
  param {
    lr_mult: 2
    decay_mult: 0
  }
  inner_product_param {
    num_output: 4096
    weight_filler {
      type: "gaussian"
      std: 0.005
    }
    bias_filler {
      type: "constant"
      value: 1
    }
  }
}
layer {
  name: "relu6"
  type: "ReLU"
  bottom: "fc6"
  top: "fc6"
}
layer {
  name: "drop6"
  type: "Dropout"
  bottom: "fc6"
  top: "fc6"
  dropout_param {
    dropout_ratio: 0.5
  }
}
layer {
  name: "cls_score"
  type: "InnerProduct"
  bottom: "fc6"
  top: "cls_score"
  param {
    lr_mult: 1
    decay_mult: 1
  }
  param {
    lr_mult: 2
    decay_mult: 0
  }
  inner_product_param {
    num_output: 201
    weight_filler {
      type: "gaussian"
      std: 0.01
    }
    bias_filler {
      type: "constant"
      value: 0
    }
  }
}
layer {
  name: "twin_pred"
  type: "InnerProduct"
  bottom: "fc6"
  top: "twin_pred"
  param {
    lr_mult: 1
    decay_mult: 1
  }
  param {
    lr_mult: 2
    decay_mult: 0
  }
  inner_product_param {
    num_output: 402
    weight_filler {
      type: "gaussian"
      std: 0.001
    }
    bias_filler {
      type: "constant"
      value: 0
    }
  }
}
layer {
  name: "loss_cls"
  type: "SoftmaxWithLoss"
  bottom: "cls_score"
  bottom: "labels"
  top: "loss_cls"
  loss_weight: 1
  propagate_down: true
  propagate_down: false
}
layer {
  name: "loss_twin"
  type: "SmoothL1Loss"
  bottom: "twin_pred"
  bottom: "twin_targets"
  bottom: "twin_inside_weights"
  bottom: "twin_outside_weights"
  top: "loss_twin"
  loss_weight: 1
}
layer {
  name: "accuarcy"
  type: "Accuracy"
  bottom: "cls_score"
  bottom: "labels"
  top: "accuarcy"
  propagate_down: false
  propagate_down: false
  accuracy_param {
    ignore_label: -1
  }
}
I0417 16:29:52.435415 15167 layer_factory.hpp:77] Creating layer data
I0417 16:29:52.462640 15167 net.cpp:100] Creating Layer data
I0417 16:29:52.462668 15167 net.cpp:408] data -> data
I0417 16:29:52.462688 15167 net.cpp:408] data -> gt_boxes
setting up
has rpn
RoiDataLayer: name_to_top: {'gt_windows': 1, 'data': 0}
I0417 16:29:52.476819 15167 net.cpp:150] Setting up data
I0417 16:29:52.476843 15167 net.cpp:157] Top shape: 1 3 768 112 112 (28901376)
I0417 16:29:52.476852 15167 net.cpp:157] Top shape: 1 101 (101)
I0417 16:29:52.476857 15167 net.cpp:165] Memory required for data: 115605908
I0417 16:29:52.476866 15167 layer_factory.hpp:77] Creating layer data_data_0_split
I0417 16:29:52.476882 15167 net.cpp:100] Creating Layer data_data_0_split
I0417 16:29:52.476889 15167 net.cpp:434] data_data_0_split <- data
I0417 16:29:52.476899 15167 net.cpp:408] data_data_0_split -> data_data_0_split_0
I0417 16:29:52.476913 15167 net.cpp:408] data_data_0_split -> data_data_0_split_1
I0417 16:29:52.476960 15167 net.cpp:150] Setting up data_data_0_split
I0417 16:29:52.476971 15167 net.cpp:157] Top shape: 1 3 768 112 112 (28901376)
I0417 16:29:52.476979 15167 net.cpp:157] Top shape: 1 3 768 112 112 (28901376)
I0417 16:29:52.476984 15167 net.cpp:165] Memory required for data: 346816916
I0417 16:29:52.476989 15167 layer_factory.hpp:77] Creating layer gt_boxes_data_1_split
I0417 16:29:52.476997 15167 net.cpp:100] Creating Layer gt_boxes_data_1_split
I0417 16:29:52.477003 15167 net.cpp:434] gt_boxes_data_1_split <- gt_boxes
I0417 16:29:52.477011 15167 net.cpp:408] gt_boxes_data_1_split -> gt_boxes_data_1_split_0
I0417 16:29:52.477020 15167 net.cpp:408] gt_boxes_data_1_split -> gt_boxes_data_1_split_1
I0417 16:29:52.477058 15167 net.cpp:150] Setting up gt_boxes_data_1_split
I0417 16:29:52.477068 15167 net.cpp:157] Top shape: 1 101 (101)
I0417 16:29:52.477075 15167 net.cpp:157] Top shape: 1 101 (101)
I0417 16:29:52.477080 15167 net.cpp:165] Memory required for data: 346817724
I0417 16:29:52.477087 15167 layer_factory.hpp:77] Creating layer conv1a
I0417 16:29:52.477109 15167 net.cpp:100] Creating Layer conv1a
I0417 16:29:52.477118 15167 net.cpp:434] conv1a <- data_data_0_split_0
I0417 16:29:52.477129 15167 net.cpp:408] conv1a -> conv1a
I0417 16:29:52.679132 15167 net.cpp:150] Setting up conv1a
I0417 16:29:52.679169 15167 net.cpp:157] Top shape: 1 64 768 112 112 (616562688)
I0417 16:29:52.679175 15167 net.cpp:165] Memory required for data: 2813068476
I0417 16:29:52.679201 15167 layer_factory.hpp:77] Creating layer relu1a
I0417 16:29:52.679222 15167 net.cpp:100] Creating Layer relu1a
I0417 16:29:52.679235 15167 net.cpp:434] relu1a <- conv1a
I0417 16:29:52.679244 15167 net.cpp:395] relu1a -> conv1a (in-place)
I0417 16:29:52.680697 15167 net.cpp:150] Setting up relu1a
I0417 16:29:52.680712 15167 net.cpp:157] Top shape: 1 64 768 112 112 (616562688)
I0417 16:29:52.680718 15167 net.cpp:165] Memory required for data: 5279319228
I0417 16:29:52.680725 15167 layer_factory.hpp:77] Creating layer pool1
I0417 16:29:52.680739 15167 net.cpp:100] Creating Layer pool1
I0417 16:29:52.680747 15167 net.cpp:434] pool1 <- conv1a
I0417 16:29:52.680755 15167 net.cpp:408] pool1 -> pool1
I0417 16:29:52.680956 15167 net.cpp:150] Setting up pool1
I0417 16:29:52.680970 15167 net.cpp:157] Top shape: 1 64 768 56 56 (154140672)
I0417 16:29:52.680975 15167 net.cpp:165] Memory required for data: 5895881916
I0417 16:29:52.680981 15167 layer_factory.hpp:77] Creating layer conv2a
I0417 16:29:52.680997 15167 net.cpp:100] Creating Layer conv2a
I0417 16:29:52.681004 15167 net.cpp:434] conv2a <- pool1
I0417 16:29:52.681013 15167 net.cpp:408] conv2a -> conv2a
I0417 16:29:52.693270 15167 net.cpp:150] Setting up conv2a
I0417 16:29:52.693298 15167 net.cpp:157] Top shape: 1 128 768 56 56 (308281344)
I0417 16:29:52.693305 15167 net.cpp:165] Memory required for data: 7129007292
I0417 16:29:52.693321 15167 layer_factory.hpp:77] Creating layer relu2a
I0417 16:29:52.693336 15167 net.cpp:100] Creating Layer relu2a
I0417 16:29:52.693343 15167 net.cpp:434] relu2a <- conv2a
I0417 16:29:52.693353 15167 net.cpp:395] relu2a -> conv2a (in-place)
I0417 16:29:52.693692 15167 net.cpp:150] Setting up relu2a
I0417 16:29:52.693709 15167 net.cpp:157] Top shape: 1 128 768 56 56 (308281344)
I0417 16:29:52.693716 15167 net.cpp:165] Memory required for data: 8362132668
I0417 16:29:52.693722 15167 layer_factory.hpp:77] Creating layer pool2
I0417 16:29:52.693735 15167 net.cpp:100] Creating Layer pool2
I0417 16:29:52.693742 15167 net.cpp:434] pool2 <- conv2a
I0417 16:29:52.693753 15167 net.cpp:408] pool2 -> pool2
I0417 16:29:52.693944 15167 net.cpp:150] Setting up pool2
I0417 16:29:52.693959 15167 net.cpp:157] Top shape: 1 128 384 28 28 (38535168)
I0417 16:29:52.693965 15167 net.cpp:165] Memory required for data: 8516273340
I0417 16:29:52.693971 15167 layer_factory.hpp:77] Creating layer conv3a
I0417 16:29:52.693987 15167 net.cpp:100] Creating Layer conv3a
I0417 16:29:52.693994 15167 net.cpp:434] conv3a <- pool2
I0417 16:29:52.694005 15167 net.cpp:408] conv3a -> conv3a
I0417 16:29:52.719702 15167 net.cpp:150] Setting up conv3a
I0417 16:29:52.719725 15167 net.cpp:157] Top shape: 1 256 384 28 28 (77070336)
I0417 16:29:52.719732 15167 net.cpp:165] Memory required for data: 8824554684
I0417 16:29:52.719748 15167 layer_factory.hpp:77] Creating layer relu3a
I0417 16:29:52.719763 15167 net.cpp:100] Creating Layer relu3a
I0417 16:29:52.719769 15167 net.cpp:434] relu3a <- conv3a
I0417 16:29:52.719779 15167 net.cpp:395] relu3a -> conv3a (in-place)
I0417 16:29:52.720098 15167 net.cpp:150] Setting up relu3a
I0417 16:29:52.720114 15167 net.cpp:157] Top shape: 1 256 384 28 28 (77070336)
I0417 16:29:52.720120 15167 net.cpp:165] Memory required for data: 9132836028
I0417 16:29:52.720126 15167 layer_factory.hpp:77] Creating layer conv3b
I0417 16:29:52.720144 15167 net.cpp:100] Creating Layer conv3b
I0417 16:29:52.720155 15167 net.cpp:434] conv3b <- conv3a
I0417 16:29:52.720165 15167 net.cpp:408] conv3b -> conv3b
I0417 16:29:52.769261 15167 net.cpp:150] Setting up conv3b
I0417 16:29:52.769286 15167 net.cpp:157] Top shape: 1 256 384 28 28 (77070336)
I0417 16:29:52.769292 15167 net.cpp:165] Memory required for data: 9441117372
I0417 16:29:52.769304 15167 layer_factory.hpp:77] Creating layer relu3b
I0417 16:29:52.769316 15167 net.cpp:100] Creating Layer relu3b
I0417 16:29:52.769323 15167 net.cpp:434] relu3b <- conv3b
I0417 16:29:52.769333 15167 net.cpp:395] relu3b -> conv3b (in-place)
I0417 16:29:52.769654 15167 net.cpp:150] Setting up relu3b
I0417 16:29:52.769670 15167 net.cpp:157] Top shape: 1 256 384 28 28 (77070336)
I0417 16:29:52.769675 15167 net.cpp:165] Memory required for data: 9749398716
I0417 16:29:52.769680 15167 layer_factory.hpp:77] Creating layer pool3
I0417 16:29:52.769693 15167 net.cpp:100] Creating Layer pool3
I0417 16:29:52.769701 15167 net.cpp:434] pool3 <- conv3b
I0417 16:29:52.769711 15167 net.cpp:408] pool3 -> pool3
I0417 16:29:52.769899 15167 net.cpp:150] Setting up pool3
I0417 16:29:52.769913 15167 net.cpp:157] Top shape: 1 256 192 14 14 (9633792)
I0417 16:29:52.769918 15167 net.cpp:165] Memory required for data: 9787933884
I0417 16:29:52.769924 15167 layer_factory.hpp:77] Creating layer conv4a
I0417 16:29:52.769940 15167 net.cpp:100] Creating Layer conv4a
I0417 16:29:52.769948 15167 net.cpp:434] conv4a <- pool3
I0417 16:29:52.769959 15167 net.cpp:408] conv4a -> conv4a
I0417 16:29:52.871220 15167 net.cpp:150] Setting up conv4a
I0417 16:29:52.871253 15167 net.cpp:157] Top shape: 1 512 192 14 14 (19267584)
I0417 16:29:52.871263 15167 net.cpp:165] Memory required for data: 9865004220
I0417 16:29:52.871284 15167 layer_factory.hpp:77] Creating layer relu4a
I0417 16:29:52.871296 15167 net.cpp:100] Creating Layer relu4a
I0417 16:29:52.871304 15167 net.cpp:434] relu4a <- conv4a
I0417 16:29:52.871311 15167 net.cpp:395] relu4a -> conv4a (in-place)
I0417 16:29:52.871978 15167 net.cpp:150] Setting up relu4a
I0417 16:29:52.871997 15167 net.cpp:157] Top shape: 1 512 192 14 14 (19267584)
I0417 16:29:52.872004 15167 net.cpp:165] Memory required for data: 9942074556
I0417 16:29:52.872009 15167 layer_factory.hpp:77] Creating layer conv4b
I0417 16:29:52.872038 15167 net.cpp:100] Creating Layer conv4b
I0417 16:29:52.872048 15167 net.cpp:434] conv4b <- conv4a
I0417 16:29:52.872058 15167 net.cpp:408] conv4b -> conv4b
I0417 16:29:53.070912 15167 net.cpp:150] Setting up conv4b
I0417 16:29:53.070946 15167 net.cpp:157] Top shape: 1 512 192 14 14 (19267584)
I0417 16:29:53.070951 15167 net.cpp:165] Memory required for data: 10019144892
I0417 16:29:53.070961 15167 layer_factory.hpp:77] Creating layer relu4b
I0417 16:29:53.070973 15167 net.cpp:100] Creating Layer relu4b
I0417 16:29:53.070979 15167 net.cpp:434] relu4b <- conv4b
I0417 16:29:53.070986 15167 net.cpp:395] relu4b -> conv4b (in-place)
I0417 16:29:53.071166 15167 net.cpp:150] Setting up relu4b
I0417 16:29:53.071177 15167 net.cpp:157] Top shape: 1 512 192 14 14 (19267584)
I0417 16:29:53.071180 15167 net.cpp:165] Memory required for data: 10096215228
I0417 16:29:53.071184 15167 layer_factory.hpp:77] Creating layer pool4
I0417 16:29:53.071193 15167 net.cpp:100] Creating Layer pool4
I0417 16:29:53.071197 15167 net.cpp:434] pool4 <- conv4b
I0417 16:29:53.071202 15167 net.cpp:408] pool4 -> pool4
I0417 16:29:53.071575 15167 net.cpp:150] Setting up pool4
I0417 16:29:53.071589 15167 net.cpp:157] Top shape: 1 512 96 7 7 (2408448)
I0417 16:29:53.071593 15167 net.cpp:165] Memory required for data: 10105849020
I0417 16:29:53.071597 15167 layer_factory.hpp:77] Creating layer conv5a
I0417 16:29:53.071610 15167 net.cpp:100] Creating Layer conv5a
I0417 16:29:53.071614 15167 net.cpp:434] conv5a <- pool4
I0417 16:29:53.071621 15167 net.cpp:408] conv5a -> conv5a
I0417 16:29:53.265974 15167 net.cpp:150] Setting up conv5a
I0417 16:29:53.266001 15167 net.cpp:157] Top shape: 1 512 96 7 7 (2408448)
I0417 16:29:53.266005 15167 net.cpp:165] Memory required for data: 10115482812
I0417 16:29:53.266014 15167 layer_factory.hpp:77] Creating layer relu5a
I0417 16:29:53.266024 15167 net.cpp:100] Creating Layer relu5a
I0417 16:29:53.266029 15167 net.cpp:434] relu5a <- conv5a
I0417 16:29:53.266036 15167 net.cpp:395] relu5a -> conv5a (in-place)
I0417 16:29:53.266489 15167 net.cpp:150] Setting up relu5a
I0417 16:29:53.266502 15167 net.cpp:157] Top shape: 1 512 96 7 7 (2408448)
I0417 16:29:53.266506 15167 net.cpp:165] Memory required for data: 10125116604
I0417 16:29:53.266510 15167 layer_factory.hpp:77] Creating layer conv5b
I0417 16:29:53.266522 15167 net.cpp:100] Creating Layer conv5b
I0417 16:29:53.266526 15167 net.cpp:434] conv5b <- conv5a
I0417 16:29:53.266535 15167 net.cpp:408] conv5b -> conv5b
I0417 16:29:53.466183 15167 net.cpp:150] Setting up conv5b
I0417 16:29:53.466210 15167 net.cpp:157] Top shape: 1 512 96 7 7 (2408448)
I0417 16:29:53.466215 15167 net.cpp:165] Memory required for data: 10134750396
I0417 16:29:53.466224 15167 layer_factory.hpp:77] Creating layer relu5b
I0417 16:29:53.466238 15167 net.cpp:100] Creating Layer relu5b
I0417 16:29:53.466243 15167 net.cpp:434] relu5b <- conv5b
I0417 16:29:53.466249 15167 net.cpp:395] relu5b -> conv5b (in-place)
I0417 16:29:53.466416 15167 net.cpp:150] Setting up relu5b
I0417 16:29:53.466429 15167 net.cpp:157] Top shape: 1 512 96 7 7 (2408448)
I0417 16:29:53.466435 15167 net.cpp:165] Memory required for data: 10144384188
I0417 16:29:53.466439 15167 layer_factory.hpp:77] Creating layer conv5b_relu5b_0_split
I0417 16:29:53.466446 15167 net.cpp:100] Creating Layer conv5b_relu5b_0_split
I0417 16:29:53.466450 15167 net.cpp:434] conv5b_relu5b_0_split <- conv5b
I0417 16:29:53.466455 15167 net.cpp:408] conv5b_relu5b_0_split -> conv5b_relu5b_0_split_0
I0417 16:29:53.466464 15167 net.cpp:408] conv5b_relu5b_0_split -> conv5b_relu5b_0_split_1
I0417 16:29:53.466506 15167 net.cpp:150] Setting up conv5b_relu5b_0_split
I0417 16:29:53.466516 15167 net.cpp:157] Top shape: 1 512 96 7 7 (2408448)
I0417 16:29:53.466519 15167 net.cpp:157] Top shape: 1 512 96 7 7 (2408448)
I0417 16:29:53.466522 15167 net.cpp:165] Memory required for data: 10163651772
I0417 16:29:53.466526 15167 layer_factory.hpp:77] Creating layer rpn_conv/3x3
I0417 16:29:53.466545 15167 net.cpp:100] Creating Layer rpn_conv/3x3
I0417 16:29:53.466552 15167 net.cpp:434] rpn_conv/3x3 <- conv5b_relu5b_0_split_0
I0417 16:29:53.466560 15167 net.cpp:408] rpn_conv/3x3 -> rpn/output
I0417 16:29:53.658494 15167 net.cpp:150] Setting up rpn_conv/3x3
I0417 16:29:53.658519 15167 net.cpp:157] Top shape: 1 512 96 4 4 (786432)
I0417 16:29:53.658524 15167 net.cpp:165] Memory required for data: 10166797500
I0417 16:29:53.658536 15167 layer_factory.hpp:77] Creating layer rpn_relu/3x3
I0417 16:29:53.658547 15167 net.cpp:100] Creating Layer rpn_relu/3x3
I0417 16:29:53.658552 15167 net.cpp:434] rpn_relu/3x3 <- rpn/output
I0417 16:29:53.658558 15167 net.cpp:395] rpn_relu/3x3 -> rpn/output (in-place)
I0417 16:29:53.658875 15167 net.cpp:150] Setting up rpn_relu/3x3
I0417 16:29:53.658888 15167 net.cpp:157] Top shape: 1 512 96 4 4 (786432)
I0417 16:29:53.658892 15167 net.cpp:165] Memory required for data: 10169943228
I0417 16:29:53.658896 15167 layer_factory.hpp:77] Creating layer rpn_conv/3x3_2
I0417 16:29:53.658907 15167 net.cpp:100] Creating Layer rpn_conv/3x3_2
I0417 16:29:53.658911 15167 net.cpp:434] rpn_conv/3x3_2 <- rpn/output
I0417 16:29:53.658924 15167 net.cpp:408] rpn_conv/3x3_2 -> rpn/output_2
I0417 16:29:53.846848 15167 net.cpp:150] Setting up rpn_conv/3x3_2
I0417 16:29:53.846871 15167 net.cpp:157] Top shape: 1 512 96 2 2 (196608)
I0417 16:29:53.846875 15167 net.cpp:165] Memory required for data: 10170729660
I0417 16:29:53.846884 15167 layer_factory.hpp:77] Creating layer rpn_relu/3x3_2
I0417 16:29:53.846894 15167 net.cpp:100] Creating Layer rpn_relu/3x3_2
I0417 16:29:53.846899 15167 net.cpp:434] rpn_relu/3x3_2 <- rpn/output_2
I0417 16:29:53.846907 15167 net.cpp:395] rpn_relu/3x3_2 -> rpn/output_2 (in-place)
I0417 16:29:53.847230 15167 net.cpp:150] Setting up rpn_relu/3x3_2
I0417 16:29:53.847244 15167 net.cpp:157] Top shape: 1 512 96 2 2 (196608)
I0417 16:29:53.847247 15167 net.cpp:165] Memory required for data: 10171516092
I0417 16:29:53.847251 15167 layer_factory.hpp:77] Creating layer rpn/output_pool
I0417 16:29:53.847259 15167 net.cpp:100] Creating Layer rpn/output_pool
I0417 16:29:53.847262 15167 net.cpp:434] rpn/output_pool <- rpn/output_2
I0417 16:29:53.847268 15167 net.cpp:408] rpn/output_pool -> rpn/output_pool
I0417 16:29:53.847468 15167 net.cpp:150] Setting up rpn/output_pool
I0417 16:29:53.847479 15167 net.cpp:157] Top shape: 1 512 96 1 1 (49152)
I0417 16:29:53.847484 15167 net.cpp:165] Memory required for data: 10171712700
I0417 16:29:53.847487 15167 layer_factory.hpp:77] Creating layer rpn/output_pool_rpn/output_pool_0_split
I0417 16:29:53.847493 15167 net.cpp:100] Creating Layer rpn/output_pool_rpn/output_pool_0_split
I0417 16:29:53.847497 15167 net.cpp:434] rpn/output_pool_rpn/output_pool_0_split <- rpn/output_pool
I0417 16:29:53.847502 15167 net.cpp:408] rpn/output_pool_rpn/output_pool_0_split -> rpn/output_pool_rpn/output_pool_0_split_0
I0417 16:29:53.847508 15167 net.cpp:408] rpn/output_pool_rpn/output_pool_0_split -> rpn/output_pool_rpn/output_pool_0_split_1
I0417 16:29:53.847542 15167 net.cpp:150] Setting up rpn/output_pool_rpn/output_pool_0_split
I0417 16:29:53.847548 15167 net.cpp:157] Top shape: 1 512 96 1 1 (49152)
I0417 16:29:53.847553 15167 net.cpp:157] Top shape: 1 512 96 1 1 (49152)
I0417 16:29:53.847555 15167 net.cpp:165] Memory required for data: 10172105916
I0417 16:29:53.847558 15167 layer_factory.hpp:77] Creating layer rpn_cls_score
I0417 16:29:53.847569 15167 net.cpp:100] Creating Layer rpn_cls_score
I0417 16:29:53.847573 15167 net.cpp:434] rpn_cls_score <- rpn/output_pool_rpn/output_pool_0_split_0
I0417 16:29:53.847579 15167 net.cpp:408] rpn_cls_score -> rpn_cls_score
I0417 16:29:53.849648 15167 net.cpp:150] Setting up rpn_cls_score
I0417 16:29:53.849661 15167 net.cpp:157] Top shape: 1 74 96 1 1 (7104)
I0417 16:29:53.849664 15167 net.cpp:165] Memory required for data: 10172134332
I0417 16:29:53.849670 15167 layer_factory.hpp:77] Creating layer rpn_cls_score_rpn_cls_score_0_split
I0417 16:29:53.849676 15167 net.cpp:100] Creating Layer rpn_cls_score_rpn_cls_score_0_split
I0417 16:29:53.849680 15167 net.cpp:434] rpn_cls_score_rpn_cls_score_0_split <- rpn_cls_score
I0417 16:29:53.849686 15167 net.cpp:408] rpn_cls_score_rpn_cls_score_0_split -> rpn_cls_score_rpn_cls_score_0_split_0
I0417 16:29:53.849694 15167 net.cpp:408] rpn_cls_score_rpn_cls_score_0_split -> rpn_cls_score_rpn_cls_score_0_split_1
I0417 16:29:53.849731 15167 net.cpp:150] Setting up rpn_cls_score_rpn_cls_score_0_split
I0417 16:29:53.849740 15167 net.cpp:157] Top shape: 1 74 96 1 1 (7104)
I0417 16:29:53.849745 15167 net.cpp:157] Top shape: 1 74 96 1 1 (7104)
I0417 16:29:53.849747 15167 net.cpp:165] Memory required for data: 10172191164
I0417 16:29:53.849750 15167 layer_factory.hpp:77] Creating layer rpn_twin_pred
I0417 16:29:53.849762 15167 net.cpp:100] Creating Layer rpn_twin_pred
I0417 16:29:53.849768 15167 net.cpp:434] rpn_twin_pred <- rpn/output_pool_rpn/output_pool_0_split_1
I0417 16:29:53.849774 15167 net.cpp:408] rpn_twin_pred -> rpn_twin_pred
I0417 16:29:53.851722 15167 net.cpp:150] Setting up rpn_twin_pred
I0417 16:29:53.851737 15167 net.cpp:157] Top shape: 1 74 96 1 1 (7104)
I0417 16:29:53.851739 15167 net.cpp:165] Memory required for data: 10172219580
I0417 16:29:53.851745 15167 layer_factory.hpp:77] Creating layer rpn_twin_pred_rpn_twin_pred_0_split
I0417 16:29:53.851753 15167 net.cpp:100] Creating Layer rpn_twin_pred_rpn_twin_pred_0_split
I0417 16:29:53.851758 15167 net.cpp:434] rpn_twin_pred_rpn_twin_pred_0_split <- rpn_twin_pred
I0417 16:29:53.851763 15167 net.cpp:408] rpn_twin_pred_rpn_twin_pred_0_split -> rpn_twin_pred_rpn_twin_pred_0_split_0
I0417 16:29:53.851769 15167 net.cpp:408] rpn_twin_pred_rpn_twin_pred_0_split -> rpn_twin_pred_rpn_twin_pred_0_split_1
I0417 16:29:53.851804 15167 net.cpp:150] Setting up rpn_twin_pred_rpn_twin_pred_0_split
I0417 16:29:53.851812 15167 net.cpp:157] Top shape: 1 74 96 1 1 (7104)
I0417 16:29:53.851816 15167 net.cpp:157] Top shape: 1 74 96 1 1 (7104)
I0417 16:29:53.851819 15167 net.cpp:165] Memory required for data: 10172276412
I0417 16:29:53.851822 15167 layer_factory.hpp:77] Creating layer rpn_cls_score_reshape
I0417 16:29:53.851835 15167 net.cpp:100] Creating Layer rpn_cls_score_reshape
I0417 16:29:53.851848 15167 net.cpp:434] rpn_cls_score_reshape <- rpn_cls_score_rpn_cls_score_0_split_0
I0417 16:29:53.851855 15167 net.cpp:408] rpn_cls_score_reshape -> rpn_cls_score_reshape
I0417 16:29:53.851884 15167 net.cpp:150] Setting up rpn_cls_score_reshape
I0417 16:29:53.851897 15167 net.cpp:157] Top shape: 1 2 3552 1 1 (7104)
I0417 16:29:53.851902 15167 net.cpp:165] Memory required for data: 10172304828
I0417 16:29:53.851904 15167 layer_factory.hpp:77] Creating layer rpn_cls_score_reshape_rpn_cls_score_reshape_0_split
I0417 16:29:53.851909 15167 net.cpp:100] Creating Layer rpn_cls_score_reshape_rpn_cls_score_reshape_0_split
I0417 16:29:53.851912 15167 net.cpp:434] rpn_cls_score_reshape_rpn_cls_score_reshape_0_split <- rpn_cls_score_reshape
I0417 16:29:53.851918 15167 net.cpp:408] rpn_cls_score_reshape_rpn_cls_score_reshape_0_split -> rpn_cls_score_reshape_rpn_cls_score_reshape_0_split_0
I0417 16:29:53.851927 15167 net.cpp:408] rpn_cls_score_reshape_rpn_cls_score_reshape_0_split -> rpn_cls_score_reshape_rpn_cls_score_reshape_0_split_1
I0417 16:29:53.851934 15167 net.cpp:408] rpn_cls_score_reshape_rpn_cls_score_reshape_0_split -> rpn_cls_score_reshape_rpn_cls_score_reshape_0_split_2
I0417 16:29:53.851976 15167 net.cpp:150] Setting up rpn_cls_score_reshape_rpn_cls_score_reshape_0_split
I0417 16:29:53.851984 15167 net.cpp:157] Top shape: 1 2 3552 1 1 (7104)
I0417 16:29:53.851989 15167 net.cpp:157] Top shape: 1 2 3552 1 1 (7104)
I0417 16:29:53.851992 15167 net.cpp:157] Top shape: 1 2 3552 1 1 (7104)
I0417 16:29:53.851995 15167 net.cpp:165] Memory required for data: 10172390076
I0417 16:29:53.851999 15167 layer_factory.hpp:77] Creating layer rpn-data
I0417 16:29:53.852421 15167 net.cpp:100] Creating Layer rpn-data
I0417 16:29:53.852434 15167 net.cpp:434] rpn-data <- rpn_cls_score_rpn_cls_score_0_split_1
I0417 16:29:53.852439 15167 net.cpp:434] rpn-data <- gt_boxes_data_1_split_0
I0417 16:29:53.852444 15167 net.cpp:434] rpn-data <- data_data_0_split_1
I0417 16:29:53.852449 15167 net.cpp:408] rpn-data -> rpn_labels
I0417 16:29:53.852457 15167 net.cpp:408] rpn-data -> rpn_twin_targets
I0417 16:29:53.852463 15167 net.cpp:408] rpn-data -> rpn_twin_inside_weights
I0417 16:29:53.852468 15167 net.cpp:408] rpn-data -> rpn_twin_outside_weights
I0417 16:29:53.854791 15167 net.cpp:150] Setting up rpn-data
I0417 16:29:53.854804 15167 net.cpp:157] Top shape: 1 1 3552 1 1 (3552)
I0417 16:29:53.854810 15167 net.cpp:157] Top shape: 1 74 96 1 1 (7104)
I0417 16:29:53.854815 15167 net.cpp:157] Top shape: 1 74 96 1 1 (7104)
I0417 16:29:53.854820 15167 net.cpp:157] Top shape: 1 74 96 1 1 (7104)
I0417 16:29:53.854822 15167 net.cpp:165] Memory required for data: 10172489532
I0417 16:29:53.854827 15167 layer_factory.hpp:77] Creating layer rpn_labels_rpn-data_0_split
I0417 16:29:53.854833 15167 net.cpp:100] Creating Layer rpn_labels_rpn-data_0_split
I0417 16:29:53.854837 15167 net.cpp:434] rpn_labels_rpn-data_0_split <- rpn_labels
I0417 16:29:53.854843 15167 net.cpp:408] rpn_labels_rpn-data_0_split -> rpn_labels_rpn-data_0_split_0
I0417 16:29:53.854851 15167 net.cpp:408] rpn_labels_rpn-data_0_split -> rpn_labels_rpn-data_0_split_1
I0417 16:29:53.854882 15167 net.cpp:150] Setting up rpn_labels_rpn-data_0_split
I0417 16:29:53.854890 15167 net.cpp:157] Top shape: 1 1 3552 1 1 (3552)
I0417 16:29:53.854893 15167 net.cpp:157] Top shape: 1 1 3552 1 1 (3552)
I0417 16:29:53.854897 15167 net.cpp:165] Memory required for data: 10172517948
I0417 16:29:53.854900 15167 layer_factory.hpp:77] Creating layer rpn_loss_cls
I0417 16:29:53.854908 15167 net.cpp:100] Creating Layer rpn_loss_cls
I0417 16:29:53.854912 15167 net.cpp:434] rpn_loss_cls <- rpn_cls_score_reshape_rpn_cls_score_reshape_0_split_0
I0417 16:29:53.854918 15167 net.cpp:434] rpn_loss_cls <- rpn_labels_rpn-data_0_split_0
…
I0417 16:29:53.855473 15167 layer_factory.hpp:77] Creating layer rpn_accuarcy
I0417 16:29:53.855481 15167 net.cpp:100] Creating Layer rpn_accuarcy
I0417 16:29:53.855485 15167 net.cpp:434] rpn_accuarcy <- rpn_cls_score_reshape_rpn_cls_score_reshape_0_split_1
I0417 16:29:53.855489 15167 net.cpp:434] rpn_accuarcy <- rpn_labels_rpn-data_0_split_1
I0417 16:29:53.855495 15167 net.cpp:408] rpn_accuarcy -> rpn_accuarcy
I0417 16:29:53.855501 15167 net.cpp:408] rpn_accuarcy -> rpn_accuarcy_class
I0417 16:29:53.855536 15167 net.cpp:150] Setting up rpn_accuarcy
I0417 16:29:53.855545 15167 net.cpp:157] Top shape: (1)
I0417 16:29:53.855547 15167 net.cpp:157] Top shape: 2 (2)
I0417 16:29:53.855551 15167 net.cpp:165] Memory required for data: 10172517968
I0417 16:29:53.855554 15167 layer_factory.hpp:77] Creating layer rpn_cls_prob
I0417 16:29:53.855561 15167 net.cpp:100] Creating Layer rpn_cls_prob
I0417 16:29:53.855563 15167 net.cpp:434] rpn_cls_prob <- rpn_cls_score_reshape_rpn_cls_score_reshape_0_split_2
I0417 16:29:53.855568 15167 net.cpp:408] rpn_cls_prob -> rpn_cls_prob
I0417 16:29:53.855757 15167 net.cpp:150] Setting up rpn_cls_prob
I0417 16:29:53.855767 15167 net.cpp:157] Top shape: 1 2 3552 1 1 (7104)
I0417 16:29:53.855770 15167 net.cpp:165] Memory required for data: 10172546384
I0417 16:29:53.855774 15167 layer_factory.hpp:77] Creating layer rpn_cls_prob_reshape
I0417 16:29:53.855782 15167 net.cpp:100] Creating Layer rpn_cls_prob_reshape
I0417 16:29:53.855785 15167 net.cpp:434] rpn_cls_prob_reshape <- rpn_cls_prob
I0417 16:29:53.855790 15167 net.cpp:408] rpn_cls_prob_reshape -> rpn_cls_prob_reshape
I0417 16:29:53.855815 15167 net.cpp:150] Setting up rpn_cls_prob_reshape
I0417 16:29:53.855823 15167 net.cpp:157] Top shape: 1 74 96 1 1 (7104)
I0417 16:29:53.855825 15167 net.cpp:165] Memory required for data: 10172574800
I0417 16:29:53.855829 15167 layer_factory.hpp:77] Creating layer proposal
I0417 16:29:53.856365 15167 net.cpp:100] Creating Layer proposal
I0417 16:29:53.856379 15167 net.cpp:434] proposal <- rpn_cls_prob_reshape
I0417 16:29:53.856384 15167 net.cpp:434] proposal <- rpn_twin_pred_rpn_twin_pred_0_split_1
I0417 16:29:53.856389 15167 net.cpp:408] proposal -> rpn_rois
I0417 16:29:53.858553 15167 net.cpp:150] Setting up proposal
I0417 16:29:53.858567 15167 net.cpp:157] Top shape: 1 3 (3)
I0417 16:29:53.858570 15167 net.cpp:165] Memory required for data: 10172574812
I0417 16:29:53.858575 15167 layer_factory.hpp:77] Creating layer roi-data
I0417 16:29:53.858711 15167 net.cpp:100] Creating Layer roi-data
I0417 16:29:53.858723 15167 net.cpp:434] roi-data <- rpn_rois
I0417 16:29:53.858728 15167 net.cpp:434] roi-data <- gt_boxes_data_1_split_1
I0417 16:29:53.858734 15167 net.cpp:408] roi-data -> rois
I0417 16:29:53.858741 15167 net.cpp:408] roi-data -> labels
I0417 16:29:53.858747 15167 net.cpp:408] roi-data -> twin_targets
I0417 16:29:53.858752 15167 net.cpp:408] roi-data -> twin_inside_weights
I0417 16:29:53.858757 15167 net.cpp:408] roi-data -> twin_outside_weights
I0417 16:29:53.859074 15167 net.cpp:150] Setting up roi-data
I0417 16:29:53.859087 15167 net.cpp:157] Top shape: 1 3 (3)
I0417 16:29:53.859092 15167 net.cpp:157] Top shape: 1 1 (1)
I0417 16:29:53.859097 15167 net.cpp:157] Top shape: 1 402 (402)
I0417 16:29:53.859099 15167 net.cpp:157] Top shape: 1 402 (402)
I0417 16:29:53.859103 15167 net.cpp:157] Top shape: 1 402 (402)
I0417 16:29:53.859107 15167 net.cpp:165] Memory required for data: 10172579652
I0417 16:29:53.859109 15167 layer_factory.hpp:77] Creating layer labels_roi-data_1_split
I0417 16:29:53.859115 15167 net.cpp:100] Creating Layer labels_roi-data_1_split
I0417 16:29:53.859118 15167 net.cpp:434] labels_roi-data_1_split <- labels
I0417 16:29:53.859124 15167 net.cpp:408] labels_roi-data_1_split -> labels_roi-data_1_split_0
I0417 16:29:53.859130 15167 net.cpp:408] labels_roi-data_1_split -> labels_roi-data_1_split_1
I0417 16:29:53.859161 15167 net.cpp:150] Setting up labels_roi-data_1_split
I0417 16:29:53.859167 15167 net.cpp:157] Top shape: 1 1 (1)
I0417 16:29:53.859171 15167 net.cpp:157] Top shape: 1 1 (1)
I0417 16:29:53.859175 15167 net.cpp:165] Memory required for data: 10172579660
I0417 16:29:53.859179 15167 layer_factory.hpp:77] Creating layer roi_pool5
I0417 16:29:53.859187 15167 net.cpp:100] Creating Layer roi_pool5
I0417 16:29:53.859191 15167 net.cpp:434] roi_pool5 <- conv5b_relu5b_0_split_1
I0417 16:29:53.859195 15167 net.cpp:434] roi_pool5 <- rois
I0417 16:29:53.859200 15167 net.cpp:408] roi_pool5 -> pool5
I0417 16:29:53.859207 15167 roi_pooling_layer.cpp:34] Temporal scale: 0.125
I0417 16:29:53.859212 15167 roi_pooling_layer.cpp:35] Spatial scale: 0.0625
I0417 16:29:53.859246 15167 net.cpp:150] Setting up roi_pool5
I0417 16:29:53.859253 15167 net.cpp:157] Top shape: 1 512 1 4 4 (8192)
I0417 16:29:53.859256 15167 net.cpp:165] Memory required for data: 10172612428
I0417 16:29:53.859259 15167 layer_factory.hpp:77] Creating layer fc6
I0417 16:29:53.859269 15167 net.cpp:100] Creating Layer fc6
I0417 16:29:53.859277 15167 net.cpp:434] fc6 <- pool5
I0417 16:29:53.859282 15167 net.cpp:408] fc6 -> fc6
I0417 16:29:54.743542 15167 net.cpp:150] Setting up fc6
I0417 16:29:54.743566 15167 net.cpp:157] Top shape: 1 4096 (4096)
I0417 16:29:54.743569 15167 net.cpp:165] Memory required for data: 10172628812
I0417 16:29:54.743579 15167 layer_factory.hpp:77] Creating layer relu6
I0417 16:29:54.743588 15167 net.cpp:100] Creating Layer relu6
I0417 16:29:54.743593 15167 net.cpp:434] relu6 <- fc6
I0417 16:29:54.743599 15167 net.cpp:395] relu6 -> fc6 (in-place)
I0417 16:29:54.744011 15167 net.cpp:150] Setting up relu6
I0417 16:29:54.744024 15167 net.cpp:157] Top shape: 1 4096 (4096)
I0417 16:29:54.744037 15167 net.cpp:165] Memory required for data: 10172645196
I0417 16:29:54.744040 15167 layer_factory.hpp:77] Creating layer drop6
I0417 16:29:54.744055 15167 net.cpp:100] Creating Layer drop6
I0417 16:29:54.744058 15167 net.cpp:434] drop6 <- fc6
I0417 16:29:54.744063 15167 net.cpp:395] drop6 -> fc6 (in-place)
I0417 16:29:54.744091 15167 net.cpp:150] Setting up drop6
I0417 16:29:54.744098 15167 net.cpp:157] Top shape: 1 4096 (4096)
I0417 16:29:54.744102 15167 net.cpp:165] Memory required for data: 10172661580
I0417 16:29:54.744105 15167 layer_factory.hpp:77] Creating layer fc6_drop6_0_split
I0417 16:29:54.744110 15167 net.cpp:100] Creating Layer fc6_drop6_0_split
I0417 16:29:54.744113 15167 net.cpp:434] fc6_drop6_0_split <- fc6
I0417 16:29:54.744119 15167 net.cpp:408] fc6_drop6_0_split -> fc6_drop6_0_split_0
I0417 16:29:54.744125 15167 net.cpp:408] fc6_drop6_0_split -> fc6_drop6_0_split_1
I0417 16:29:54.744156 15167 net.cpp:150] Setting up fc6_drop6_0_split
I0417 16:29:54.744163 15167 net.cpp:157] Top shape: 1 4096 (4096)
I0417 16:29:54.744168 15167 net.cpp:157] Top shape: 1 4096 (4096)
I0417 16:29:54.744170 15167 net.cpp:165] Memory required for data: 10172694348
I0417 16:29:54.744174 15167 layer_factory.hpp:77] Creating layer cls_score
I0417 16:29:54.744181 15167 net.cpp:100] Creating Layer cls_score
I0417 16:29:54.744185 15167 net.cpp:434] cls_score <- fc6_drop6_0_split_0
I0417 16:29:54.744191 15167 net.cpp:408] cls_score -> cls_score
I0417 16:29:54.765874 15167 net.cpp:150] Setting up cls_score
I0417 16:29:54.765887 15167 net.cpp:157] Top shape: 1 201 (201)
I0417 16:29:54.765892 15167 net.cpp:165] Memory required for data: 10172695152
I0417 16:29:54.765897 15167 layer_factory.hpp:77] Creating layer cls_score_cls_score_0_split
I0417 16:29:54.765903 15167 net.cpp:100] Creating Layer cls_score_cls_score_0_split
I0417 16:29:54.765907 15167 net.cpp:434] cls_score_cls_score_0_split <- cls_score
I0417 16:29:54.765913 15167 net.cpp:408] cls_score_cls_score_0_split -> cls_score_cls_score_0_split_0
I0417 16:29:54.765919 15167 net.cpp:408] cls_score_cls_score_0_split -> cls_score_cls_score_0_split_1
I0417 16:29:54.765950 15167 net.cpp:150] Setting up cls_score_cls_score_0_split
I0417 16:29:54.765959 15167 net.cpp:157] Top shape: 1 201 (201)
I0417 16:29:54.765962 15167 net.cpp:157] Top shape: 1 201 (201)
I0417 16:29:54.765965 15167 net.cpp:165] Memory required for data: 10172696760
I0417 16:29:54.765969 15167 layer_factory.hpp:77] Creating layer twin_pred
I0417 16:29:54.765976 15167 net.cpp:100] Creating Layer twin_pred
I0417 16:29:54.765980 15167 net.cpp:434] twin_pred <- fc6_drop6_0_split_1
I0417 16:29:54.765985 15167 net.cpp:408] twin_pred -> twin_pred
I0417 16:29:54.809311 15167 net.cpp:150] Setting up twin_pred
I0417 16:29:54.809332 15167 net.cpp:157] Top shape: 1 402 (402)
I0417 16:29:54.809335 15167 net.cpp:165] Memory required for data: 10172698368
I0417 16:29:54.809345 15167 layer_factory.hpp:77] Creating layer loss_cls
I0417 16:29:54.809355 15167 net.cpp:100] Creating Layer loss_cls
I0417 16:29:54.809360 15167 net.cpp:434] loss_cls <- cls_score_cls_score_0_split_0
I0417 16:29:54.809366 15167 net.cpp:434] loss_cls <- labels_roi-data_1_split_0
I0417 16:29:54.809372 15167 net.cpp:408] loss_cls -> loss_cls
…
