…
stepsize: 350000
snapshot: 0
snapshot_prefix: "./experiments/activitynet/snapshot/activitynet"
average_loss: 100
iter_size: 1
I0421 19:18:23.470540 18410 solver.cpp:81] Creating training net from train_net file: ./experiments/activitynet/train.prototxt
I0421 19:18:23.471613 18410 net.cpp:58] Initializing net from parameters: 
name: "activitynet"
state {
  phase: TRAIN
}
layer {
  name: "data"
  type: "Python"
  top: "data"
  top: "gt_boxes"
  python_param {
    module: "roi_data_layer.layer"
    layer: "RoIDataLayer"
    param_str: "\'num_classes\': 200"
  }
}
layer {
  name: "conv1a"
  type: "Convolution"
  bottom: "data"
  top: "conv1a"
  param {
    lr_mult: 0
    decay_mult: 0
  }
  param {
    lr_mult: 0
    decay_mult: 0
  }
  convolution_param {
    num_output: 64
    pad: 1
    pad: 1
    pad: 1
    kernel_size: 3
    kernel_size: 3
    kernel_size: 3
    weight_filler {
      type: "gaussian"
      std: 0.01
    }
    bias_filler {
      type: "constant"
      value: 0
    }
  }
}
layer {
  name: "relu1a"
  type: "ReLU"
  bottom: "conv1a"
  top: "conv1a"
}
layer {
  name: "pool1"
  type: "Pooling"
  bottom: "conv1a"
  top: "pool1"
  pooling_param {
    pool: MAX
    kernel_size: 1
    kernel_size: 2
    kernel_size: 2
    stride: 1
    stride: 2
    stride: 2
  }
}
layer {
  name: "conv2a"
  type: "Convolution"
  bottom: "pool1"
  top: "conv2a"
  param {
    lr_mult: 0
    decay_mult: 0
  }
  param {
    lr_mult: 0
    decay_mult: 0
  }
  convolution_param {
    num_output: 128
    pad: 1
    pad: 1
    pad: 1
    kernel_size: 3
    kernel_size: 3
    kernel_size: 3
    weight_filler {
      type: "gaussian"
      std: 0.01
    }
    bias_filler {
      type: "constant"
      value: 1
    }
  }
}
layer {
  name: "relu2a"
  type: "ReLU"
  bottom: "conv2a"
  top: "conv2a"
}
layer {
  name: "pool2"
  type: "Pooling"
  bottom: "conv2a"
  top: "pool2"
  pooling_param {
    pool: MAX
    kernel_size: 2
    kernel_size: 2
    kernel_size: 2
    stride: 2
    stride: 2
    stride: 2
  }
}
layer {
  name: "conv3a"
  type: "Convolution"
  bottom: "pool2"
  top: "conv3a"
  param {
    lr_mult: 1
    decay_mult: 1
  }
  param {
    lr_mult: 2
    decay_mult: 0
  }
  convolution_param {
    num_output: 256
    pad: 1
    pad: 1
    pad: 1
    kernel_size: 3
    kernel_size: 3
    kernel_size: 3
    weight_filler {
      type: "gaussian"
      std: 0.01
    }
    bias_filler {
      type: "constant"
      value: 1
    }
  }
}
layer {
  name: "relu3a"
  type: "ReLU"
  bottom: "conv3a"
  top: "conv3a"
}
layer {
  name: "conv3b"
  type: "Convolution"
  bottom: "conv3a"
  top: "conv3b"
  param {
    lr_mult: 1
    decay_mult: 1
  }
  param {
    lr_mult: 2
    decay_mult: 0
  }
  convolution_param {
    num_output: 256
    pad: 1
    pad: 1
    pad: 1
    kernel_size: 3
    kernel_size: 3
    kernel_size: 3
    weight_filler {
      type: "gaussian"
      std: 0.01
    }
    bias_filler {
      type: "constant"
      value: 1
    }
  }
}
layer {
  name: "relu3b"
  type: "ReLU"
  bottom: "conv3b"
  top: "conv3b"
}
layer {
  name: "pool3"
  type: "Pooling"
  bottom: "conv3b"
  top: "pool3"
  pooling_param {
    pool: MAX
    kernel_size: 2
    kernel_size: 2
    kernel_size: 2
    stride: 2
    stride: 2
    stride: 2
  }
}
layer {
  name: "conv4a"
  type: "Convolution"
  bottom: "pool3"
  top: "conv4a"
  param {
    lr_mult: 1
    decay_mult: 1
  }
  param {
    lr_mult: 2
    decay_mult: 0
  }
  convolution_param {
    num_output: 512
    pad: 1
    pad: 1
    pad: 1
    kernel_size: 3
    kernel_size: 3
    kernel_size: 3
    weight_filler {
      type: "gaussian"
      std: 0.01
    }
    bias_filler {
      type: "constant"
      value: 1
    }
  }
}
layer {
  name: "relu4a"
  type: "ReLU"
  bottom: "conv4a"
  top: "conv4a"
}
layer {
  name: "conv4b"
  type: "Convolution"
  bottom: "conv4a"
  top: "conv4b"
  param {
    lr_mult: 1
    decay_mult: 1
  }
  param {
    lr_mult: 2
    decay_mult: 0
  }
  convolution_param {
    num_output: 512
    pad: 1
    pad: 1
    pad: 1
    kernel_size: 3
    kernel_size: 3
    kernel_size: 3
    weight_filler {
      type: "gaussian"
      std: 0.01
    }
    bias_filler {
      type: "constant"
      value: 1
    }
  }
}
layer {
  name: "relu4b"
  type: "ReLU"
  bottom: "conv4b"
  top: "conv4b"
}
layer {
  name: "pool4"
  type: "Pooling"
  bottom: "conv4b"
  top: "pool4"
  pooling_param {
    pool: MAX
    kernel_size: 2
    kernel_size: 2
    kernel_size: 2
    stride: 2
    stride: 2
    stride: 2
  }
}
layer {
  name: "conv5a"
  type: "Convolution"
  bottom: "pool4"
  top: "conv5a"
  param {
    lr_mult: 1
    decay_mult: 1
  }
  param {
    lr_mult: 2
    decay_mult: 0
  }
  convolution_param {
    num_output: 512
    pad: 1
    pad: 1
    pad: 1
    kernel_size: 3
    kernel_size: 3
    kernel_size: 3
    weight_filler {
      type: "gaussian"
      std: 0.01
    }
    bias_filler {
      type: "constant"
      value: 1
    }
  }
}
layer {
  name: "relu5a"
  type: "ReLU"
  bottom: "conv5a"
  top: "conv5a"
}
layer {
  name: "conv5b"
  type: "Convolution"
  bottom: "conv5a"
  top: "conv5b"
  param {
    lr_mult: 1
    decay_mult: 1
  }
  param {
    lr_mult: 2
    decay_mult: 0
  }
  convolution_param {
    num_output: 512
    pad: 1
    pad: 1
    pad: 1
    kernel_size: 3
    kernel_size: 3
    kernel_size: 3
    weight_filler {
      type: "gaussian"
      std: 0.01
    }
    bias_filler {
      type: "constant"
      value: 1
    }
  }
}
layer {
  name: "relu5b"
  type: "ReLU"
  bottom: "conv5b"
  top: "conv5b"
}
layer {
  name: "rpn_conv/3x3"
  type: "Convolution"
  bottom: "conv5b"
  top: "rpn/output"
  param {
    lr_mult: 1
    decay_mult: 1
  }
  param {
    lr_mult: 2
    decay_mult: 0
  }
  convolution_param {
    num_output: 512
    pad: 1
    pad: 1
    pad: 1
    kernel_size: 3
    kernel_size: 3
    kernel_size: 3
    stride: 1
    stride: 2
    stride: 2
    weight_filler {
      type: "gaussian"
      std: 0.01
    }
    bias_filler {
      type: "constant"
      value: 0
    }
  }
}
layer {
  name: "rpn_relu/3x3"
  type: "ReLU"
  bottom: "rpn/output"
  top: "rpn/output"
}
layer {
  name: "rpn_conv/3x3_2"
  type: "Convolution"
  bottom: "rpn/output"
  top: "rpn/output_2"
  param {
    lr_mult: 1
    decay_mult: 1
  }
  param {
    lr_mult: 2
    decay_mult: 0
  }
  convolution_param {
    num_output: 512
    pad: 1
    pad: 1
    pad: 1
    kernel_size: 3
    kernel_size: 3
    kernel_size: 3
    stride: 1
    stride: 2
    stride: 2
    weight_filler {
      type: "gaussian"
      std: 0.01
    }
    bias_filler {
      type: "constant"
      value: 0
    }
  }
}
layer {
  name: "rpn_relu/3x3_2"
  type: "ReLU"
  bottom: "rpn/output_2"
  top: "rpn/output_2"
}
layer {
  name: "rpn/output_pool"
  type: "Pooling"
  bottom: "rpn/output_2"
  top: "rpn/output_pool"
  pooling_param {
    pool: MAX
    kernel_size: 1
    kernel_size: 2
    kernel_size: 2
  }
}
layer {
  name: "rpn_cls_score"
  type: "Convolution"
  bottom: "rpn/output_pool"
  top: "rpn_cls_score"
  param {
    lr_mult: 1
    decay_mult: 1
  }
  param {
    lr_mult: 2
    decay_mult: 0
  }
  convolution_param {
    num_output: 74
    kernel_size: 1
    kernel_size: 1
    kernel_size: 1
    weight_filler {
      type: "gaussian"
      std: 0.01
    }
    bias_filler {
      type: "constant"
      value: 0
    }
  }
}
layer {
  name: "rpn_twin_pred"
  type: "Convolution"
  bottom: "rpn/output_pool"
  top: "rpn_twin_pred"
  param {
    lr_mult: 1
    decay_mult: 1
  }
  param {
    lr_mult: 2
    decay_mult: 0
  }
  convolution_param {
    num_output: 74
    kernel_size: 1
    kernel_size: 1
    kernel_size: 1
    weight_filler {
      type: "gaussian"
      std: 0.01
    }
    bias_filler {
      type: "constant"
      value: 0
    }
  }
}
layer {
  name: "rpn_cls_score_reshape"
  type: "Reshape"
  bottom: "rpn_cls_score"
  top: "rpn_cls_score_reshape"
  reshape_param {
    shape {
      dim: 0
      dim: 2
      dim: -1
      dim: 0
      dim: 0
    }
  }
}
layer {
  name: "rpn-data"
  type: "Python"
  bottom: "rpn_cls_score"
  bottom: "gt_boxes"
  bottom: "data"
  top: "rpn_labels"
  top: "rpn_twin_targets"
  top: "rpn_twin_inside_weights"
  top: "rpn_twin_outside_weights"
  python_param {
    module: "rpn.anchor_target_layer"
    layer: "AnchorTargetLayer"
    param_str: "\'feat_stride\': 8 \n\'scales\': !!python/tuple [1,1.25, 1.5,1.75, 2,2.5, 3,3.5, 4,4.5, 5,5.5, 6,7, 8,9,10,11,12,14,16,18,20,22,24,28,32,36,40,44,52,60,68,76,84,92,100]"
  }
}
layer {
  name: "rpn_loss_cls"
  type: "SoftmaxWithLoss"
  bottom: "rpn_cls_score_reshape"
  bottom: "rpn_labels"
  top: "rpn_cls_loss"
  loss_weight: 1
  propagate_down: true
  propagate_down: false
  loss_param {
    ignore_label: -1
    normalize: true
  }
}
layer {
  name: "rpn_loss_twin"
  type: "SmoothL1Loss"
  bottom: "rpn_twin_pred"
  bottom: "rpn_twin_targets"
  bottom: "rpn_twin_inside_weights"
  bottom: "rpn_twin_outside_weights"
  top: "rpn_loss_twin"
  loss_weight: 1
  smooth_l1_loss_param {
    sigma: 3
  }
}
layer {
  name: "rpn_accuarcy"
  type: "Accuracy"
  bottom: "rpn_cls_score_reshape"
  bottom: "rpn_labels"
  top: "rpn_accuarcy"
  top: "rpn_accuarcy_class"
  propagate_down: false
  propagate_down: false
  accuracy_param {
    ignore_label: -1
  }
}
layer {
  name: "rpn_cls_prob"
  type: "Softmax"
  bottom: "rpn_cls_score_reshape"
  top: "rpn_cls_prob"
}
layer {
  name: "rpn_cls_prob_reshape"
  type: "Reshape"
  bottom: "rpn_cls_prob"
  top: "rpn_cls_prob_reshape"
  reshape_param {
    shape {
      dim: 0
      dim: 74
      dim: -1
      dim: 0
      dim: 0
    }
  }
}
layer {
  name: "proposal"
  type: "Python"
  bottom: "rpn_cls_prob_reshape"
  bottom: "rpn_twin_pred"
  top: "rpn_rois"
  include {
    phase: TRAIN
  }
  python_param {
    module: "rpn.proposal_layer"
    layer: "ProposalLayer"
    param_str: "\'feat_stride\': 8 \n\'scales\': !!python/tuple [1,1.25, 1.5,1.75, 2,2.5, 3,3.5, 4,4.5, 5,5.5, 6,7, 8,9,10,11,12,14,16,18,20,22,24,28,32,36,40,44,52,60,68,76,84,92,100]"
  }
}
layer {
  name: "roi-data"
  type: "Python"
  bottom: "rpn_rois"
  bottom: "gt_boxes"
  top: "rois"
  top: "labels"
  top: "twin_targets"
  top: "twin_inside_weights"
  top: "twin_outside_weights"
  python_param {
    module: "rpn.proposal_target_layer"
    layer: "ProposalTargetLayer"
    param_str: "\'num_classes\': 200"
  }
}
layer {
  name: "roi_pool5"
  type: "ROIPooling"
  bottom: "conv5b"
  bottom: "rois"
  top: "pool5"
  roi_pooling_param {
    pooled_h: 4
    pooled_w: 4
    spatial_scale: 0.0625
    pooled_l: 1
    temporal_scale: 0.125
  }
}
layer {
  name: "fc6"
  type: "InnerProduct"
  bottom: "pool5"
  top: "fc6"
  param {
    lr_mult: 1
    decay_mult: 1
  }
  param {
    lr_mult: 2
    decay_mult: 0
  }
  inner_product_param {
    num_output: 4096
    weight_filler {
      type: "gaussian"
      std: 0.005
    }
    bias_filler {
      type: "constant"
      value: 1
    }
  }
}
layer {
  name: "relu6"
  type: "ReLU"
  bottom: "fc6"
  top: "fc6"
}
layer {
  name: "drop6"
  type: "Dropout"
  bottom: "fc6"
  top: "fc6"
  dropout_param {
    dropout_ratio: 0.5
  }
}
layer {
  name: "cls_score"
  type: "InnerProduct"
  bottom: "fc6"
  top: "cls_score"
  param {
    lr_mult: 1
    decay_mult: 1
  }
  param {
    lr_mult: 2
    decay_mult: 0
  }
  inner_product_param {
    num_output: 200
    weight_filler {
      type: "gaussian"
      std: 0.01
    }
    bias_filler {
      type: "constant"
      value: 0
    }
  }
}
layer {
  name: "twin_pred"
  type: "InnerProduct"
  bottom: "fc6"
  top: "twin_pred"
  param {
    lr_mult: 1
    decay_mult: 1
  }
  param {
    lr_mult: 2
    decay_mult: 0
  }
  inner_product_param {
    num_output: 400
    weight_filler {
      type: "gaussian"
      std: 0.001
    }
    bias_filler {
      type: "constant"
      value: 0
    }
  }
}
layer {
  name: "loss_cls"
  type: "SigmoidCrossEntropyLoss"
  bottom: "cls_score"
  bottom: "labels"
  top: "loss_cls"
  loss_weight: 1
  propagate_down: true
  propagate_down: false
}
layer {
  name: "loss_twin"
  type: "SmoothL1Loss"
  bottom: "twin_pred"
  bottom: "twin_targets"
  bottom: "twin_inside_weights"
  bottom: "twin_outside_weights"
  top: "loss_twin"
  loss_weight: 1
}
layer {
  name: "accuracy"
  type: "Python"
  bottom: "cls_score"
  bottom: "labels"
  top: "accuracy"
  python_param {
    module: "utils.accuracy_layer"
    layer: "AccuracyLayer"
    param_str: "{\"top_k\": 2}"
  }
}
I0421 19:18:23.471827 18410 layer_factory.hpp:77] Creating layer data
I0421 19:18:23.496256 18410 net.cpp:100] Creating Layer data
I0421 19:18:23.496279 18410 net.cpp:408] data -> data
I0421 19:18:23.496291 18410 net.cpp:408] data -> gt_boxes
setting up
has rpn
RoiDataLayer: name_to_top: {'gt_windows': 1, 'data': 0}
I0421 19:18:23.539266 18410 net.cpp:150] Setting up data
I0421 19:18:23.539286 18410 net.cpp:157] Top shape: 1 3 768 112 112 (28901376)
I0421 19:18:23.539294 18410 net.cpp:157] Top shape: 1 101 (101)
I0421 19:18:23.539297 18410 net.cpp:165] Memory required for data: 115605908
I0421 19:18:23.539304 18410 layer_factory.hpp:77] Creating layer data_data_0_split
I0421 19:18:23.539319 18410 net.cpp:100] Creating Layer data_data_0_split
I0421 19:18:23.539324 18410 net.cpp:434] data_data_0_split <- data
I0421 19:18:23.539332 18410 net.cpp:408] data_data_0_split -> data_data_0_split_0
I0421 19:18:23.539345 18410 net.cpp:408] data_data_0_split -> data_data_0_split_1
I0421 19:18:23.539374 18410 net.cpp:150] Setting up data_data_0_split
I0421 19:18:23.539381 18410 net.cpp:157] Top shape: 1 3 768 112 112 (28901376)
I0421 19:18:23.539386 18410 net.cpp:157] Top shape: 1 3 768 112 112 (28901376)
I0421 19:18:23.539388 18410 net.cpp:165] Memory required for data: 346816916
I0421 19:18:23.539392 18410 layer_factory.hpp:77] Creating layer gt_boxes_data_1_split
I0421 19:18:23.539397 18410 net.cpp:100] Creating Layer gt_boxes_data_1_split
I0421 19:18:23.539400 18410 net.cpp:434] gt_boxes_data_1_split <- gt_boxes
I0421 19:18:23.539405 18410 net.cpp:408] gt_boxes_data_1_split -> gt_boxes_data_1_split_0
I0421 19:18:23.539412 18410 net.cpp:408] gt_boxes_data_1_split -> gt_boxes_data_1_split_1
I0421 19:18:23.539435 18410 net.cpp:150] Setting up gt_boxes_data_1_split
I0421 19:18:23.539443 18410 net.cpp:157] Top shape: 1 101 (101)
I0421 19:18:23.539445 18410 net.cpp:157] Top shape: 1 101 (101)
I0421 19:18:23.539449 18410 net.cpp:165] Memory required for data: 346817724
I0421 19:18:23.539453 18410 layer_factory.hpp:77] Creating layer conv1a
I0421 19:18:23.539466 18410 net.cpp:100] Creating Layer conv1a
I0421 19:18:23.539471 18410 net.cpp:434] conv1a <- data_data_0_split_0
I0421 19:18:23.539480 18410 net.cpp:408] conv1a -> conv1a
I0421 19:18:24.619623 18410 net.cpp:150] Setting up conv1a
I0421 19:18:24.619653 18410 net.cpp:157] Top shape: 1 64 768 112 112 (616562688)
I0421 19:18:24.619657 18410 net.cpp:165] Memory required for data: 2813068476
I0421 19:18:24.619676 18410 layer_factory.hpp:77] Creating layer relu1a
I0421 19:18:24.619689 18410 net.cpp:100] Creating Layer relu1a
I0421 19:18:24.619696 18410 net.cpp:434] relu1a <- conv1a
I0421 19:18:24.619702 18410 net.cpp:395] relu1a -> conv1a (in-place)
I0421 19:18:24.620174 18410 net.cpp:150] Setting up relu1a
I0421 19:18:24.620187 18410 net.cpp:157] Top shape: 1 64 768 112 112 (616562688)
I0421 19:18:24.620191 18410 net.cpp:165] Memory required for data: 5279319228
I0421 19:18:24.620195 18410 layer_factory.hpp:77] Creating layer pool1
I0421 19:18:24.620204 18410 net.cpp:100] Creating Layer pool1
I0421 19:18:24.620208 18410 net.cpp:434] pool1 <- conv1a
I0421 19:18:24.620214 18410 net.cpp:408] pool1 -> pool1
I0421 19:18:24.620394 18410 net.cpp:150] Setting up pool1
I0421 19:18:24.620405 18410 net.cpp:157] Top shape: 1 64 768 56 56 (154140672)
I0421 19:18:24.620409 18410 net.cpp:165] Memory required for data: 5895881916
I0421 19:18:24.620412 18410 layer_factory.hpp:77] Creating layer conv2a
I0421 19:18:24.620424 18410 net.cpp:100] Creating Layer conv2a
I0421 19:18:24.620427 18410 net.cpp:434] conv2a <- pool1
I0421 19:18:24.620432 18410 net.cpp:408] conv2a -> conv2a
I0421 19:18:24.632571 18410 net.cpp:150] Setting up conv2a
I0421 19:18:24.632609 18410 net.cpp:157] Top shape: 1 128 768 56 56 (308281344)
I0421 19:18:24.632614 18410 net.cpp:165] Memory required for data: 7129007292
I0421 19:18:24.632633 18410 layer_factory.hpp:77] Creating layer relu2a
I0421 19:18:24.632654 18410 net.cpp:100] Creating Layer relu2a
I0421 19:18:24.632663 18410 net.cpp:434] relu2a <- conv2a
I0421 19:18:24.632675 18410 net.cpp:395] relu2a -> conv2a (in-place)
I0421 19:18:24.633103 18410 net.cpp:150] Setting up relu2a
I0421 19:18:24.633119 18410 net.cpp:157] Top shape: 1 128 768 56 56 (308281344)
I0421 19:18:24.633126 18410 net.cpp:165] Memory required for data: 8362132668
I0421 19:18:24.633131 18410 layer_factory.hpp:77] Creating layer pool2
I0421 19:18:24.633152 18410 net.cpp:100] Creating Layer pool2
I0421 19:18:24.633157 18410 net.cpp:434] pool2 <- conv2a
I0421 19:18:24.633167 18410 net.cpp:408] pool2 -> pool2
I0421 19:18:24.633357 18410 net.cpp:150] Setting up pool2
I0421 19:18:24.633368 18410 net.cpp:157] Top shape: 1 128 384 28 28 (38535168)
I0421 19:18:24.633373 18410 net.cpp:165] Memory required for data: 8516273340
I0421 19:18:24.633379 18410 layer_factory.hpp:77] Creating layer conv3a
I0421 19:18:24.633396 18410 net.cpp:100] Creating Layer conv3a
I0421 19:18:24.633402 18410 net.cpp:434] conv3a <- pool2
I0421 19:18:24.633412 18410 net.cpp:408] conv3a -> conv3a
I0421 19:18:24.659615 18410 net.cpp:150] Setting up conv3a
I0421 19:18:24.659644 18410 net.cpp:157] Top shape: 1 256 384 28 28 (77070336)
I0421 19:18:24.659649 18410 net.cpp:165] Memory required for data: 8824554684
I0421 19:18:24.659667 18410 layer_factory.hpp:77] Creating layer relu3a
I0421 19:18:24.659680 18410 net.cpp:100] Creating Layer relu3a
I0421 19:18:24.659696 18410 net.cpp:434] relu3a <- conv3a
I0421 19:18:24.659710 18410 net.cpp:395] relu3a -> conv3a (in-place)
I0421 19:18:24.660068 18410 net.cpp:150] Setting up relu3a
I0421 19:18:24.660081 18410 net.cpp:157] Top shape: 1 256 384 28 28 (77070336)
I0421 19:18:24.660087 18410 net.cpp:165] Memory required for data: 9132836028
I0421 19:18:24.660109 18410 layer_factory.hpp:77] Creating layer conv3b
I0421 19:18:24.660125 18410 net.cpp:100] Creating Layer conv3b
I0421 19:18:24.660133 18410 net.cpp:434] conv3b <- conv3a
I0421 19:18:24.660145 18410 net.cpp:408] conv3b -> conv3b
I0421 19:18:24.710875 18410 net.cpp:150] Setting up conv3b
I0421 19:18:24.710901 18410 net.cpp:157] Top shape: 1 256 384 28 28 (77070336)
I0421 19:18:24.710904 18410 net.cpp:165] Memory required for data: 9441117372
I0421 19:18:24.710913 18410 layer_factory.hpp:77] Creating layer relu3b
I0421 19:18:24.710923 18410 net.cpp:100] Creating Layer relu3b
I0421 19:18:24.710929 18410 net.cpp:434] relu3b <- conv3b
I0421 19:18:24.710937 18410 net.cpp:395] relu3b -> conv3b (in-place)
I0421 19:18:24.711508 18410 net.cpp:150] Setting up relu3b
I0421 19:18:24.711539 18410 net.cpp:157] Top shape: 1 256 384 28 28 (77070336)
I0421 19:18:24.711549 18410 net.cpp:165] Memory required for data: 9749398716
I0421 19:18:24.711558 18410 layer_factory.hpp:77] Creating layer pool3
I0421 19:18:24.711576 18410 net.cpp:100] Creating Layer pool3
I0421 19:18:24.711591 18410 net.cpp:434] pool3 <- conv3b
I0421 19:18:24.711607 18410 net.cpp:408] pool3 -> pool3
I0421 19:18:24.712570 18410 net.cpp:150] Setting up pool3
I0421 19:18:24.712594 18410 net.cpp:157] Top shape: 1 256 192 14 14 (9633792)
I0421 19:18:24.712604 18410 net.cpp:165] Memory required for data: 9787933884
I0421 19:18:24.712612 18410 layer_factory.hpp:77] Creating layer conv4a
I0421 19:18:24.712635 18410 net.cpp:100] Creating Layer conv4a
I0421 19:18:24.712647 18410 net.cpp:434] conv4a <- pool3
I0421 19:18:24.712667 18410 net.cpp:408] conv4a -> conv4a
I0421 19:18:24.837828 18410 net.cpp:150] Setting up conv4a
I0421 19:18:24.837857 18410 net.cpp:157] Top shape: 1 512 192 14 14 (19267584)
I0421 19:18:24.837862 18410 net.cpp:165] Memory required for data: 9865004220
I0421 19:18:24.837875 18410 layer_factory.hpp:77] Creating layer relu4a
I0421 19:18:24.837893 18410 net.cpp:100] Creating Layer relu4a
I0421 19:18:24.837900 18410 net.cpp:434] relu4a <- conv4a
I0421 19:18:24.837908 18410 net.cpp:395] relu4a -> conv4a (in-place)
I0421 19:18:24.840428 18410 net.cpp:150] Setting up relu4a
I0421 19:18:24.840442 18410 net.cpp:157] Top shape: 1 512 192 14 14 (19267584)
I0421 19:18:24.840446 18410 net.cpp:165] Memory required for data: 9942074556
I0421 19:18:24.840451 18410 layer_factory.hpp:77] Creating layer conv4b
I0421 19:18:24.840464 18410 net.cpp:100] Creating Layer conv4b
I0421 19:18:24.840471 18410 net.cpp:434] conv4b <- conv4a
I0421 19:18:24.840477 18410 net.cpp:408] conv4b -> conv4b
I0421 19:18:25.051415 18410 net.cpp:150] Setting up conv4b
I0421 19:18:25.051503 18410 net.cpp:157] Top shape: 1 512 192 14 14 (19267584)
I0421 19:18:25.051529 18410 net.cpp:165] Memory required for data: 10019144892
I0421 19:18:25.051565 18410 layer_factory.hpp:77] Creating layer relu4b
I0421 19:18:25.051600 18410 net.cpp:100] Creating Layer relu4b
I0421 19:18:25.051626 18410 net.cpp:434] relu4b <- conv4b
I0421 19:18:25.051656 18410 net.cpp:395] relu4b -> conv4b (in-place)
I0421 19:18:25.052053 18410 net.cpp:150] Setting up relu4b
I0421 19:18:25.052090 18410 net.cpp:157] Top shape: 1 512 192 14 14 (19267584)
I0421 19:18:25.052114 18410 net.cpp:165] Memory required for data: 10096215228
I0421 19:18:25.052137 18410 layer_factory.hpp:77] Creating layer pool4
I0421 19:18:25.052167 18410 net.cpp:100] Creating Layer pool4
I0421 19:18:25.052192 18410 net.cpp:434] pool4 <- conv4b
I0421 19:18:25.052223 18410 net.cpp:408] pool4 -> pool4
I0421 19:18:25.053005 18410 net.cpp:150] Setting up pool4
I0421 19:18:25.053046 18410 net.cpp:157] Top shape: 1 512 96 7 7 (2408448)
I0421 19:18:25.053067 18410 net.cpp:165] Memory required for data: 10105849020
I0421 19:18:25.053088 18410 layer_factory.hpp:77] Creating layer conv5a
I0421 19:18:25.053123 18410 net.cpp:100] Creating Layer conv5a
I0421 19:18:25.053145 18410 net.cpp:434] conv5a <- pool4
I0421 19:18:25.053174 18410 net.cpp:408] conv5a -> conv5a
I0421 19:18:25.254123 18410 net.cpp:150] Setting up conv5a
I0421 19:18:25.254149 18410 net.cpp:157] Top shape: 1 512 96 7 7 (2408448)
I0421 19:18:25.254153 18410 net.cpp:165] Memory required for data: 10115482812
I0421 19:18:25.254163 18410 layer_factory.hpp:77] Creating layer relu5a
I0421 19:18:25.254173 18410 net.cpp:100] Creating Layer relu5a
I0421 19:18:25.254178 18410 net.cpp:434] relu5a <- conv5a
I0421 19:18:25.254184 18410 net.cpp:395] relu5a -> conv5a (in-place)
I0421 19:18:25.254884 18410 net.cpp:150] Setting up relu5a
I0421 19:18:25.254901 18410 net.cpp:157] Top shape: 1 512 96 7 7 (2408448)
I0421 19:18:25.254907 18410 net.cpp:165] Memory required for data: 10125116604
I0421 19:18:25.254914 18410 layer_factory.hpp:77] Creating layer conv5b
I0421 19:18:25.254930 18410 net.cpp:100] Creating Layer conv5b
I0421 19:18:25.254936 18410 net.cpp:434] conv5b <- conv5a
I0421 19:18:25.254947 18410 net.cpp:408] conv5b -> conv5b
I0421 19:18:25.464958 18410 net.cpp:150] Setting up conv5b
I0421 19:18:25.464987 18410 net.cpp:157] Top shape: 1 512 96 7 7 (2408448)
I0421 19:18:25.464992 18410 net.cpp:165] Memory required for data: 10134750396
I0421 19:18:25.465001 18410 layer_factory.hpp:77] Creating layer relu5b
I0421 19:18:25.465010 18410 net.cpp:100] Creating Layer relu5b
I0421 19:18:25.465018 18410 net.cpp:434] relu5b <- conv5b
I0421 19:18:25.465023 18410 net.cpp:395] relu5b -> conv5b (in-place)
I0421 19:18:25.465180 18410 net.cpp:150] Setting up relu5b
I0421 19:18:25.465193 18410 net.cpp:157] Top shape: 1 512 96 7 7 (2408448)
I0421 19:18:25.465198 18410 net.cpp:165] Memory required for data: 10144384188
I0421 19:18:25.465204 18410 layer_factory.hpp:77] Creating layer conv5b_relu5b_0_split
I0421 19:18:25.465211 18410 net.cpp:100] Creating Layer conv5b_relu5b_0_split
I0421 19:18:25.465221 18410 net.cpp:434] conv5b_relu5b_0_split <- conv5b
I0421 19:18:25.465229 18410 net.cpp:408] conv5b_relu5b_0_split -> conv5b_relu5b_0_split_0
I0421 19:18:25.465245 18410 net.cpp:408] conv5b_relu5b_0_split -> conv5b_relu5b_0_split_1
I0421 19:18:25.465301 18410 net.cpp:150] Setting up conv5b_relu5b_0_split
I0421 19:18:25.465313 18410 net.cpp:157] Top shape: 1 512 96 7 7 (2408448)
I0421 19:18:25.465322 18410 net.cpp:157] Top shape: 1 512 96 7 7 (2408448)
I0421 19:18:25.465327 18410 net.cpp:165] Memory required for data: 10163651772
I0421 19:18:25.465332 18410 layer_factory.hpp:77] Creating layer rpn_conv/3x3
I0421 19:18:25.465349 18410 net.cpp:100] Creating Layer rpn_conv/3x3
I0421 19:18:25.465356 18410 net.cpp:434] rpn_conv/3x3 <- conv5b_relu5b_0_split_0
I0421 19:18:25.465366 18410 net.cpp:408] rpn_conv/3x3 -> rpn/output
I0421 19:18:25.699502 18410 net.cpp:150] Setting up rpn_conv/3x3
I0421 19:18:25.699529 18410 net.cpp:157] Top shape: 1 512 96 4 4 (786432)
I0421 19:18:25.699534 18410 net.cpp:165] Memory required for data: 10166797500
I0421 19:18:25.699556 18410 layer_factory.hpp:77] Creating layer rpn_relu/3x3
I0421 19:18:25.699573 18410 net.cpp:100] Creating Layer rpn_relu/3x3
I0421 19:18:25.699582 18410 net.cpp:434] rpn_relu/3x3 <- rpn/output
I0421 19:18:25.699595 18410 net.cpp:395] rpn_relu/3x3 -> rpn/output (in-place)
I0421 19:18:25.699998 18410 net.cpp:150] Setting up rpn_relu/3x3
I0421 19:18:25.700012 18410 net.cpp:157] Top shape: 1 512 96 4 4 (786432)
I0421 19:18:25.700017 18410 net.cpp:165] Memory required for data: 10169943228
I0421 19:18:25.700023 18410 layer_factory.hpp:77] Creating layer rpn_conv/3x3_2
I0421 19:18:25.700045 18410 net.cpp:100] Creating Layer rpn_conv/3x3_2
I0421 19:18:25.700052 18410 net.cpp:434] rpn_conv/3x3_2 <- rpn/output
I0421 19:18:25.700062 18410 net.cpp:408] rpn_conv/3x3_2 -> rpn/output_2
I0421 19:18:25.922060 18410 net.cpp:150] Setting up rpn_conv/3x3_2
I0421 19:18:25.922091 18410 net.cpp:157] Top shape: 1 512 96 2 2 (196608)
I0421 19:18:25.922096 18410 net.cpp:165] Memory required for data: 10170729660
I0421 19:18:25.922109 18410 layer_factory.hpp:77] Creating layer rpn_relu/3x3_2
I0421 19:18:25.922124 18410 net.cpp:100] Creating Layer rpn_relu/3x3_2
I0421 19:18:25.922133 18410 net.cpp:434] rpn_relu/3x3_2 <- rpn/output_2
I0421 19:18:25.922147 18410 net.cpp:395] rpn_relu/3x3_2 -> rpn/output_2 (in-place)
I0421 19:18:25.924047 18410 net.cpp:150] Setting up rpn_relu/3x3_2
I0421 19:18:25.924062 18410 net.cpp:157] Top shape: 1 512 96 2 2 (196608)
I0421 19:18:25.924067 18410 net.cpp:165] Memory required for data: 10171516092
I0421 19:18:25.924073 18410 layer_factory.hpp:77] Creating layer rpn/output_pool
I0421 19:18:25.924091 18410 net.cpp:100] Creating Layer rpn/output_pool
I0421 19:18:25.924099 18410 net.cpp:434] rpn/output_pool <- rpn/output_2
I0421 19:18:25.924108 18410 net.cpp:408] rpn/output_pool -> rpn/output_pool
I0421 19:18:25.924291 18410 net.cpp:150] Setting up rpn/output_pool
I0421 19:18:25.924304 18410 net.cpp:157] Top shape: 1 512 96 1 1 (49152)
I0421 19:18:25.924309 18410 net.cpp:165] Memory required for data: 10171712700
I0421 19:18:25.924315 18410 layer_factory.hpp:77] Creating layer rpn/output_pool_rpn/output_pool_0_split
I0421 19:18:25.924326 18410 net.cpp:100] Creating Layer rpn/output_pool_rpn/output_pool_0_split
I0421 19:18:25.924334 18410 net.cpp:434] rpn/output_pool_rpn/output_pool_0_split <- rpn/output_pool
I0421 19:18:25.924341 18410 net.cpp:408] rpn/output_pool_rpn/output_pool_0_split -> rpn/output_pool_rpn/output_pool_0_split_0
I0421 19:18:25.924352 18410 net.cpp:408] rpn/output_pool_rpn/output_pool_0_split -> rpn/output_pool_rpn/output_pool_0_split_1
I0421 19:18:25.924412 18410 net.cpp:150] Setting up rpn/output_pool_rpn/output_pool_0_split
I0421 19:18:25.924422 18410 net.cpp:157] Top shape: 1 512 96 1 1 (49152)
I0421 19:18:25.924428 18410 net.cpp:157] Top shape: 1 512 96 1 1 (49152)
I0421 19:18:25.924435 18410 net.cpp:165] Memory required for data: 10172105916
I0421 19:18:25.924443 18410 layer_factory.hpp:77] Creating layer rpn_cls_score
I0421 19:18:25.924458 18410 net.cpp:100] Creating Layer rpn_cls_score
I0421 19:18:25.924464 18410 net.cpp:434] rpn_cls_score <- rpn/output_pool_rpn/output_pool_0_split_0
I0421 19:18:25.924475 18410 net.cpp:408] rpn_cls_score -> rpn_cls_score
I0421 19:18:25.930557 18410 net.cpp:150] Setting up rpn_cls_score
I0421 19:18:25.930598 18410 net.cpp:157] Top shape: 1 74 96 1 1 (7104)
I0421 19:18:25.930618 18410 net.cpp:165] Memory required for data: 10172134332
I0421 19:18:25.930641 18410 layer_factory.hpp:77] Creating layer rpn_cls_score_rpn_cls_score_0_split
I0421 19:18:25.930665 18410 net.cpp:100] Creating Layer rpn_cls_score_rpn_cls_score_0_split
I0421 19:18:25.930686 18410 net.cpp:434] rpn_cls_score_rpn_cls_score_0_split <- rpn_cls_score
I0421 19:18:25.930707 18410 net.cpp:408] rpn_cls_score_rpn_cls_score_0_split -> rpn_cls_score_rpn_cls_score_0_split_0
I0421 19:18:25.930732 18410 net.cpp:408] rpn_cls_score_rpn_cls_score_0_split -> rpn_cls_score_rpn_cls_score_0_split_1
I0421 19:18:25.930850 18410 net.cpp:150] Setting up rpn_cls_score_rpn_cls_score_0_split
I0421 19:18:25.930878 18410 net.cpp:157] Top shape: 1 74 96 1 1 (7104)
I0421 19:18:25.930898 18410 net.cpp:157] Top shape: 1 74 96 1 1 (7104)
I0421 19:18:25.930915 18410 net.cpp:165] Memory required for data: 10172191164
I0421 19:18:25.930932 18410 layer_factory.hpp:77] Creating layer rpn_twin_pred
I0421 19:18:25.930968 18410 net.cpp:100] Creating Layer rpn_twin_pred
I0421 19:18:25.930989 18410 net.cpp:434] rpn_twin_pred <- rpn/output_pool_rpn/output_pool_0_split_1
I0421 19:18:25.931018 18410 net.cpp:408] rpn_twin_pred -> rpn_twin_pred
I0421 19:18:25.934147 18410 net.cpp:150] Setting up rpn_twin_pred
I0421 19:18:25.934187 18410 net.cpp:157] Top shape: 1 74 96 1 1 (7104)
I0421 19:18:25.934198 18410 net.cpp:165] Memory required for data: 10172219580
I0421 19:18:25.934211 18410 layer_factory.hpp:77] Creating layer rpn_twin_pred_rpn_twin_pred_0_split
I0421 19:18:25.934221 18410 net.cpp:100] Creating Layer rpn_twin_pred_rpn_twin_pred_0_split
I0421 19:18:25.934227 18410 net.cpp:434] rpn_twin_pred_rpn_twin_pred_0_split <- rpn_twin_pred
I0421 19:18:25.934237 18410 net.cpp:408] rpn_twin_pred_rpn_twin_pred_0_split -> rpn_twin_pred_rpn_twin_pred_0_split_0
I0421 19:18:25.934249 18410 net.cpp:408] rpn_twin_pred_rpn_twin_pred_0_split -> rpn_twin_pred_rpn_twin_pred_0_split_1
I0421 19:18:25.934324 18410 net.cpp:150] Setting up rpn_twin_pred_rpn_twin_pred_0_split
I0421 19:18:25.934342 18410 net.cpp:157] Top shape: 1 74 96 1 1 (7104)
I0421 19:18:25.934353 18410 net.cpp:157] Top shape: 1 74 96 1 1 (7104)
I0421 19:18:25.934362 18410 net.cpp:165] Memory required for data: 10172276412
I0421 19:18:25.934370 18410 layer_factory.hpp:77] Creating layer rpn_cls_score_reshape
I0421 19:18:25.934389 18410 net.cpp:100] Creating Layer rpn_cls_score_reshape
I0421 19:18:25.934401 18410 net.cpp:434] rpn_cls_score_reshape <- rpn_cls_score_rpn_cls_score_0_split_0
I0421 19:18:25.934411 18410 net.cpp:408] rpn_cls_score_reshape -> rpn_cls_score_reshape
I0421 19:18:25.934465 18410 net.cpp:150] Setting up rpn_cls_score_reshape
I0421 19:18:25.934481 18410 net.cpp:157] Top shape: 1 2 3552 1 1 (7104)
I0421 19:18:25.934489 18410 net.cpp:165] Memory required for data: 10172304828
I0421 19:18:25.934495 18410 layer_factory.hpp:77] Creating layer rpn_cls_score_reshape_rpn_cls_score_reshape_0_split
I0421 19:18:25.934507 18410 net.cpp:100] Creating Layer rpn_cls_score_reshape_rpn_cls_score_reshape_0_split
I0421 19:18:25.934516 18410 net.cpp:434] rpn_cls_score_reshape_rpn_cls_score_reshape_0_split <- rpn_cls_score_reshape
I0421 19:18:25.934527 18410 net.cpp:408] rpn_cls_score_reshape_rpn_cls_score_reshape_0_split -> rpn_cls_score_reshape_rpn_cls_score_reshape_0_split_0
I0421 19:18:25.934546 18410 net.cpp:408] rpn_cls_score_reshape_rpn_cls_score_reshape_0_split -> rpn_cls_score_reshape_rpn_cls_score_reshape_0_split_1
I0421 19:18:25.934561 18410 net.cpp:408] rpn_cls_score_reshape_rpn_cls_score_reshape_0_split -> rpn_cls_score_reshape_rpn_cls_score_reshape_0_split_2
I0421 19:18:25.934648 18410 net.cpp:150] Setting up rpn_cls_score_reshape_rpn_cls_score_reshape_0_split
I0421 19:18:25.934664 18410 net.cpp:157] Top shape: 1 2 3552 1 1 (7104)
I0421 19:18:25.934675 18410 net.cpp:157] Top shape: 1 2 3552 1 1 (7104)
I0421 19:18:25.934684 18410 net.cpp:157] Top shape: 1 2 3552 1 1 (7104)
I0421 19:18:25.934691 18410 net.cpp:165] Memory required for data: 10172390076
I0421 19:18:25.934698 18410 layer_factory.hpp:77] Creating layer rpn-data
I0421 19:18:25.935401 18410 net.cpp:100] Creating Layer rpn-data
I0421 19:18:25.935439 18410 net.cpp:434] rpn-data <- rpn_cls_score_rpn_cls_score_0_split_1
I0421 19:18:25.935467 18410 net.cpp:434] rpn-data <- gt_boxes_data_1_split_0
I0421 19:18:25.935490 18410 net.cpp:434] rpn-data <- data_data_0_split_1
I0421 19:18:25.935516 18410 net.cpp:408] rpn-data -> rpn_labels
I0421 19:18:25.935545 18410 net.cpp:408] rpn-data -> rpn_twin_targets
I0421 19:18:25.935578 18410 net.cpp:408] rpn-data -> rpn_twin_inside_weights
I0421 19:18:25.935607 18410 net.cpp:408] rpn-data -> rpn_twin_outside_weights
I0421 19:18:25.941179 18410 net.cpp:150] Setting up rpn-data
I0421 19:18:25.941222 18410 net.cpp:157] Top shape: 1 1 3552 1 1 (3552)
I0421 19:18:25.941248 18410 net.cpp:157] Top shape: 1 74 96 1 1 (7104)
I0421 19:18:25.941272 18410 net.cpp:157] Top shape: 1 74 96 1 1 (7104)
I0421 19:18:25.941295 18410 net.cpp:157] Top shape: 1 74 96 1 1 (7104)
I0421 19:18:25.941315 18410 net.cpp:165] Memory required for data: 10172489532
I0421 19:18:25.941336 18410 layer_factory.hpp:77] Creating layer rpn_labels_rpn-data_0_split
I0421 19:18:25.941360 18410 net.cpp:100] Creating Layer rpn_labels_rpn-data_0_split
I0421 19:18:25.941381 18410 net.cpp:434] rpn_labels_rpn-data_0_split <- rpn_labels
I0421 19:18:25.941406 18410 net.cpp:408] rpn_labels_rpn-data_0_split -> rpn_labels_rpn-data_0_split_0
I0421 19:18:25.941435 18410 net.cpp:408] rpn_labels_rpn-data_0_split -> rpn_labels_rpn-data_0_split_1
I0421 19:18:25.941535 18410 net.cpp:150] Setting up rpn_labels_rpn-data_0_split
I0421 19:18:25.941565 18410 net.cpp:157] Top shape: 1 1 3552 1 1 (3552)
I0421 19:18:25.941588 18410 net.cpp:157] Top shape: 1 1 3552 1 1 (3552)
I0421 19:18:25.941608 18410 net.cpp:165] Memory required for data: 10172517948
I0421 19:18:25.941632 18410 layer_factory.hpp:77] Creating layer rpn_loss_cls
I0421 19:18:25.941665 18410 net.cpp:100] Creating Layer rpn_loss_cls
I0421 19:18:25.941687 18410 net.cpp:434] rpn_loss_cls <- rpn_cls_score_reshape_rpn_cls_score_reshape_0_split_0
I0421 19:18:25.941710 18410 net.cpp:434] rpn_loss_cls <- rpn_labels_rpn-data_0_split_0
…
I0421 19:18:25.943361 18410 layer_factory.hpp:77] Creating layer rpn_accuarcy
I0421 19:18:25.943387 18410 net.cpp:100] Creating Layer rpn_accuarcy
I0421 19:18:25.943408 18410 net.cpp:434] rpn_accuarcy <- rpn_cls_score_reshape_rpn_cls_score_reshape_0_split_1
I0421 19:18:25.943430 18410 net.cpp:434] rpn_accuarcy <- rpn_labels_rpn-data_0_split_1
I0421 19:18:25.943459 18410 net.cpp:408] rpn_accuarcy -> rpn_accuarcy
I0421 19:18:25.943486 18410 net.cpp:408] rpn_accuarcy -> rpn_accuarcy_class
I0421 19:18:25.943579 18410 net.cpp:150] Setting up rpn_accuarcy
I0421 19:18:25.943608 18410 net.cpp:157] Top shape: (1)
I0421 19:18:25.943630 18410 net.cpp:157] Top shape: 2 (2)
I0421 19:18:25.943650 18410 net.cpp:165] Memory required for data: 10172517968
I0421 19:18:25.943670 18410 layer_factory.hpp:77] Creating layer rpn_cls_prob
I0421 19:18:25.943691 18410 net.cpp:100] Creating Layer rpn_cls_prob
I0421 19:18:25.943712 18410 net.cpp:434] rpn_cls_prob <- rpn_cls_score_reshape_rpn_cls_score_reshape_0_split_2
I0421 19:18:25.943737 18410 net.cpp:408] rpn_cls_prob -> rpn_cls_prob
I0421 19:18:25.944128 18410 net.cpp:150] Setting up rpn_cls_prob
I0421 19:18:25.944149 18410 net.cpp:157] Top shape: 1 2 3552 1 1 (7104)
I0421 19:18:25.944155 18410 net.cpp:165] Memory required for data: 10172546384
I0421 19:18:25.944164 18410 layer_factory.hpp:77] Creating layer rpn_cls_prob_reshape
I0421 19:18:25.944183 18410 net.cpp:100] Creating Layer rpn_cls_prob_reshape
I0421 19:18:25.944193 18410 net.cpp:434] rpn_cls_prob_reshape <- rpn_cls_prob
I0421 19:18:25.944208 18410 net.cpp:408] rpn_cls_prob_reshape -> rpn_cls_prob_reshape
I0421 19:18:25.944258 18410 net.cpp:150] Setting up rpn_cls_prob_reshape
I0421 19:18:25.944295 18410 net.cpp:157] Top shape: 1 74 96 1 1 (7104)
I0421 19:18:25.944316 18410 net.cpp:165] Memory required for data: 10172574800
I0421 19:18:25.944336 18410 layer_factory.hpp:77] Creating layer proposal
I0421 19:18:25.945328 18410 net.cpp:100] Creating Layer proposal
I0421 19:18:25.945363 18410 net.cpp:434] proposal <- rpn_cls_prob_reshape
I0421 19:18:25.945379 18410 net.cpp:434] proposal <- rpn_twin_pred_rpn_twin_pred_0_split_1
I0421 19:18:25.945391 18410 net.cpp:408] proposal -> rpn_rois
I0421 19:18:25.948676 18410 net.cpp:150] Setting up proposal
I0421 19:18:25.948691 18410 net.cpp:157] Top shape: 1 3 (3)
I0421 19:18:25.948695 18410 net.cpp:165] Memory required for data: 10172574812
I0421 19:18:25.948699 18410 layer_factory.hpp:77] Creating layer roi-data
I0421 19:18:25.948853 18410 net.cpp:100] Creating Layer roi-data
I0421 19:18:25.948865 18410 net.cpp:434] roi-data <- rpn_rois
I0421 19:18:25.948873 18410 net.cpp:434] roi-data <- gt_boxes_data_1_split_1
I0421 19:18:25.948884 18410 net.cpp:408] roi-data -> rois
I0421 19:18:25.948901 18410 net.cpp:408] roi-data -> labels
I0421 19:18:25.948912 18410 net.cpp:408] roi-data -> twin_targets
I0421 19:18:25.948922 18410 net.cpp:408] roi-data -> twin_inside_weights
I0421 19:18:25.948933 18410 net.cpp:408] roi-data -> twin_outside_weights
I0421 19:18:25.949254 18410 net.cpp:150] Setting up roi-data
I0421 19:18:25.949268 18410 net.cpp:157] Top shape: 1 3 (3)
I0421 19:18:25.949275 18410 net.cpp:157] Top shape: 1 200 (200)
I0421 19:18:25.949285 18410 net.cpp:157] Top shape: 1 400 (400)
I0421 19:18:25.949291 18410 net.cpp:157] Top shape: 1 400 (400)
I0421 19:18:25.949297 18410 net.cpp:157] Top shape: 1 400 (400)
I0421 19:18:25.949306 18410 net.cpp:165] Memory required for data: 10172580424
I0421 19:18:25.949311 18410 layer_factory.hpp:77] Creating layer labels_roi-data_1_split
I0421 19:18:25.949321 18410 net.cpp:100] Creating Layer labels_roi-data_1_split
I0421 19:18:25.949328 18410 net.cpp:434] labels_roi-data_1_split <- labels
I0421 19:18:25.949337 18410 net.cpp:408] labels_roi-data_1_split -> labels_roi-data_1_split_0
I0421 19:18:25.949347 18410 net.cpp:408] labels_roi-data_1_split -> labels_roi-data_1_split_1
I0421 19:18:25.949386 18410 net.cpp:150] Setting up labels_roi-data_1_split
I0421 19:18:25.949394 18410 net.cpp:157] Top shape: 1 200 (200)
I0421 19:18:25.949401 18410 net.cpp:157] Top shape: 1 200 (200)
I0421 19:18:25.949406 18410 net.cpp:165] Memory required for data: 10172582024
I0421 19:18:25.949412 18410 layer_factory.hpp:77] Creating layer roi_pool5
I0421 19:18:25.949426 18410 net.cpp:100] Creating Layer roi_pool5
I0421 19:18:25.949434 18410 net.cpp:434] roi_pool5 <- conv5b_relu5b_0_split_1
I0421 19:18:25.949440 18410 net.cpp:434] roi_pool5 <- rois
I0421 19:18:25.949450 18410 net.cpp:408] roi_pool5 -> pool5
I0421 19:18:25.949461 18410 roi_pooling_layer.cpp:34] Temporal scale: 0.125
I0421 19:18:25.949470 18410 roi_pooling_layer.cpp:35] Spatial scale: 0.0625
I0421 19:18:25.949512 18410 net.cpp:150] Setting up roi_pool5
I0421 19:18:25.949525 18410 net.cpp:157] Top shape: 1 512 1 4 4 (8192)
I0421 19:18:25.949530 18410 net.cpp:165] Memory required for data: 10172614792
I0421 19:18:25.949537 18410 layer_factory.hpp:77] Creating layer fc6
I0421 19:18:25.949551 18410 net.cpp:100] Creating Layer fc6
I0421 19:18:25.949558 18410 net.cpp:434] fc6 <- pool5
I0421 19:18:25.949566 18410 net.cpp:408] fc6 -> fc6
I0421 19:18:26.850057 18410 net.cpp:150] Setting up fc6
I0421 19:18:26.850085 18410 net.cpp:157] Top shape: 1 4096 (4096)
I0421 19:18:26.850090 18410 net.cpp:165] Memory required for data: 10172631176
I0421 19:18:26.850102 18410 layer_factory.hpp:77] Creating layer relu6
I0421 19:18:26.850121 18410 net.cpp:100] Creating Layer relu6
I0421 19:18:26.850129 18410 net.cpp:434] relu6 <- fc6
I0421 19:18:26.850142 18410 net.cpp:395] relu6 -> fc6 (in-place)
I0421 19:18:26.851640 18410 net.cpp:150] Setting up relu6
I0421 19:18:26.851653 18410 net.cpp:157] Top shape: 1 4096 (4096)
I0421 19:18:26.851658 18410 net.cpp:165] Memory required for data: 10172647560
I0421 19:18:26.851665 18410 layer_factory.hpp:77] Creating layer drop6
I0421 19:18:26.851686 18410 net.cpp:100] Creating Layer drop6
I0421 19:18:26.851693 18410 net.cpp:434] drop6 <- fc6
I0421 19:18:26.851701 18410 net.cpp:395] drop6 -> fc6 (in-place)
I0421 19:18:26.851734 18410 net.cpp:150] Setting up drop6
I0421 19:18:26.851743 18410 net.cpp:157] Top shape: 1 4096 (4096)
I0421 19:18:26.851748 18410 net.cpp:165] Memory required for data: 10172663944
I0421 19:18:26.851754 18410 layer_factory.hpp:77] Creating layer fc6_drop6_0_split
I0421 19:18:26.851763 18410 net.cpp:100] Creating Layer fc6_drop6_0_split
I0421 19:18:26.851768 18410 net.cpp:434] fc6_drop6_0_split <- fc6
I0421 19:18:26.851776 18410 net.cpp:408] fc6_drop6_0_split -> fc6_drop6_0_split_0
I0421 19:18:26.851786 18410 net.cpp:408] fc6_drop6_0_split -> fc6_drop6_0_split_1
I0421 19:18:26.851826 18410 net.cpp:150] Setting up fc6_drop6_0_split
I0421 19:18:26.851835 18410 net.cpp:157] Top shape: 1 4096 (4096)
I0421 19:18:26.851840 18410 net.cpp:157] Top shape: 1 4096 (4096)
I0421 19:18:26.851847 18410 net.cpp:165] Memory required for data: 10172696712
I0421 19:18:26.851852 18410 layer_factory.hpp:77] Creating layer cls_score
I0421 19:18:26.851868 18410 net.cpp:100] Creating Layer cls_score
I0421 19:18:26.851874 18410 net.cpp:434] cls_score <- fc6_drop6_0_split_0
I0421 19:18:26.851883 18410 net.cpp:408] cls_score -> cls_score
I0421 19:18:26.874362 18410 net.cpp:150] Setting up cls_score
I0421 19:18:26.874377 18410 net.cpp:157] Top shape: 1 200 (200)
I0421 19:18:26.874383 18410 net.cpp:165] Memory required for data: 10172697512
I0421 19:18:26.874393 18410 layer_factory.hpp:77] Creating layer cls_score_cls_score_0_split
I0421 19:18:26.874406 18410 net.cpp:100] Creating Layer cls_score_cls_score_0_split
I0421 19:18:26.874413 18410 net.cpp:434] cls_score_cls_score_0_split <- cls_score
I0421 19:18:26.874421 18410 net.cpp:408] cls_score_cls_score_0_split -> cls_score_cls_score_0_split_0
I0421 19:18:26.874433 18410 net.cpp:408] cls_score_cls_score_0_split -> cls_score_cls_score_0_split_1
I0421 19:18:26.874474 18410 net.cpp:150] Setting up cls_score_cls_score_0_split
I0421 19:18:26.874482 18410 net.cpp:157] Top shape: 1 200 (200)
I0421 19:18:26.874488 18410 net.cpp:157] Top shape: 1 200 (200)
I0421 19:18:26.874496 18410 net.cpp:165] Memory required for data: 10172699112
I0421 19:18:26.874502 18410 layer_factory.hpp:77] Creating layer twin_pred
I0421 19:18:26.874511 18410 net.cpp:100] Creating Layer twin_pred
I0421 19:18:26.874519 18410 net.cpp:434] twin_pred <- fc6_drop6_0_split_1
I0421 19:18:26.874529 18410 net.cpp:408] twin_pred -> twin_pred
I0421 19:18:26.917174 18410 net.cpp:150] Setting up twin_pred
I0421 19:18:26.917191 18410 net.cpp:157] Top shape: 1 400 (400)
I0421 19:18:26.917197 18410 net.cpp:165] Memory required for data: 10172700712
I0421 19:18:26.917207 18410 layer_factory.hpp:77] Creating layer loss_cls
I0421 19:18:26.917227 18410 net.cpp:100] Creating Layer loss_cls
I0421 19:18:26.917234 18410 net.cpp:434] loss_cls <- cls_score_cls_score_0_split_0
I0421 19:18:26.917243 18410 net.cpp:434] loss_cls <- labels_roi-data_1_split_0
I0421 19:18:26.917253 18410 net.cpp:408] loss_cls -> loss_cls
…
